…
I1126 19:48:42.086899 20571 net.cpp:322] The NetState phase (0) differed from the phase (1) specified by a rule in layer loss3/top-1
I1126 19:48:42.089004 20571 net.cpp:49] Initializing net from parameters: 
name: "GoogleNet-finetune-for-cigit"
state {
  phase: TRAIN
}
layer {
  name: "data"
  type: "ImageData"
  top: "data"
  top: "label"
  include {
    phase: TRAIN
  }
  transform_param {
    mirror: true
    crop_size: 224
    mean_value: 104
    mean_value: 117
    mean_value: 123
  }
  image_data_param {
    source: "pad_train.txt"
    batch_size: 64
    shuffle: true
    new_height: 256
    new_width: 256
  }
}
layer {
  name: "conv1/7x7_s2"
  type: "Convolution"
  bottom: "data"
  top: "conv1/7x7_s2"
  param {
    lr_mult: 1
    decay_mult: 1
  }
  param {
    lr_mult: 2
    decay_mult: 0
  }
  convolution_param {
    num_output: 64
    pad: 3
    kernel_size: 7
    stride: 2
    weight_filler {
      type: "xavier"
    }
    bias_filler {
      type: "constant"
      value: 0.2
    }
  }
}
layer {
  name: "conv1/relu_7x7"
  type: "ReLU"
  bottom: "conv1/7x7_s2"
  top: "conv1/7x7_s2"
}
layer {
  name: "pool1/3x3_s2"
  type: "Pooling"
  bottom: "conv1/7x7_s2"
  top: "pool1/3x3_s2"
  pooling_param {
    pool: MAX
    kernel_size: 3
    stride: 2
  }
}
layer {
  name: "pool1/norm1"
  type: "LRN"
  bottom: "pool1/3x3_s2"
  top: "pool1/norm1"
  lrn_param {
    local_size: 5
    alpha: 0.0001
    beta: 0.75
  }
}
layer {
  name: "conv2/3x3_reduce"
  type: "Convolution"
  bottom: "pool1/norm1"
  top: "conv2/3x3_reduce"
  param {
    lr_mult: 1
    decay_mult: 1
  }
  param {
    lr_mult: 2
    decay_mult: 0
  }
  convolution_param {
    num_output: 64
    kernel_size: 1
    weight_filler {
      type: "xavier"
    }
    bias_filler {
      type: "constant"
      value: 0.2
    }
  }
}
layer {
  name: "conv2/relu_3x3_reduce"
  type: "ReLU"
  bottom: "conv2/3x3_reduce"
  top: "conv2/3x3_reduce"
}
layer {
  name: "conv2/3x3"
  type: "Convolution"
  bottom: "conv2/3x3_reduce"
  top: "conv2/3x3"
  param {
    lr_mult: 1
    decay_mult: 1
  }
  param {
    lr_mult: 2
    decay_mult: 0
  }
  convolution_param {
    num_output: 192
    pad: 1
    kernel_size: 3
    weight_filler {
      type: "xavier"
    }
    bias_filler {
      type: "constant"
      value: 0.2
    }
  }
}
layer {
  name: "conv2/relu_3x3"
  type: "ReLU"
  bottom: "conv2/3x3"
  top: "conv2/3x3"
}
layer {
  name: "conv2/norm2"
  type: "LRN"
  bottom: "conv2/3x3"
  top: "conv2/norm2"
  lrn_param {
    local_size: 5
    alpha: 0.0001
    beta: 0.75
  }
}
layer {
  name: "pool2/3x3_s2"
  type: "Pooling"
  bottom: "conv2/norm2"
  top: "pool2/3x3_s2"
  pooling_param {
    pool: MAX
    kernel_size: 3
    stride: 2
  }
}
layer {
  name: "inception_3a/1x1"
  type: "Convolution"
  bottom: "pool2/3x3_s2"
  top: "inception_3a/1x1"
  param {
    lr_mult: 1
    decay_mult: 1
  }
  param {
    lr_mult: 2
    decay_mult: 0
  }
  convolution_param {
    num_output: 64
    kernel_size: 1
    weight_filler {
      type: "xavier"
    }
    bias_filler {
      type: "constant"
      value: 0.2
    }
  }
}
layer {
  name: "inception_3a/relu_1x1"
  type: "ReLU"
  bottom: "inception_3a/1x1"
  top: "inception_3a/1x1"
}
layer {
  name: "inception_3a/3x3_reduce"
  type: "Convolution"
  bottom: "pool2/3x3_s2"
  top: "inception_3a/3x3_reduce"
  param {
    lr_mult: 1
    decay_mult: 1
  }
  param {
    lr_mult: 2
    decay_mult: 0
  }
  convolution_param {
    num_output: 96
    kernel_size: 1
    weight_filler {
      type: "xavier"
    }
    bias_filler {
      type: "constant"
      value: 0.2
    }
  }
}
layer {
  name: "inception_3a/relu_3x3_reduce"
  type: "ReLU"
  bottom: "inception_3a/3x3_reduce"
  top: "inception_3a/3x3_reduce"
}
layer {
  name: "inception_3a/3x3"
  type: "Convolution"
  bottom: "inception_3a/3x3_reduce"
  top: "inception_3a/3x3"
  param {
    lr_mult: 1
    decay_mult: 1
  }
  param {
    lr_mult: 2
    decay_mult: 0
  }
  convolution_param {
    num_output: 128
    pad: 1
    kernel_size: 3
    weight_filler {
      type: "xavier"
    }
    bias_filler {
      type: "constant"
      value: 0.2
    }
  }
}
layer {
  name: "inception_3a/relu_3x3"
  type: "ReLU"
  bottom: "inception_3a/3x3"
  top: "inception_3a/3x3"
}
layer {
  name: "inception_3a/5x5_reduce"
  type: "Convolution"
  bottom: "pool2/3x3_s2"
  top: "inception_3a/5x5_reduce"
  param {
    lr_mult: 1
    decay_mult: 1
  }
  param {
    lr_mult: 2
    decay_mult: 0
  }
  convolution_param {
    num_output: 16
    kernel_size: 1
    weight_filler {
      type: "xavier"
    }
    bias_filler {
      type: "constant"
      value: 0.2
    }
  }
}
layer {
  name: "inception_3a/relu_5x5_reduce"
  type: "ReLU"
  bottom: "inception_3a/5x5_reduce"
  top: "inception_3a/5x5_reduce"
}
layer {
  name: "inception_3a/5x5"
  type: "Convolution"
  bottom: "inception_3a/5x5_reduce"
  top: "inception_3a/5x5"
  param {
    lr_mult: 1
    decay_mult: 1
  }
  param {
    lr_mult: 2
    decay_mult: 0
  }
  convolution_param {
    num_output: 32
    pad: 2
    kernel_size: 5
    weight_filler {
      type: "xavier"
    }
    bias_filler {
      type: "constant"
      value: 0.2
    }
  }
}
layer {
  name: "inception_3a/relu_5x5"
  type: "ReLU"
  bottom: "inception_3a/5x5"
  top: "inception_3a/5x5"
}
layer {
  name: "inception_3a/pool"
  type: "Pooling"
  bottom: "pool2/3x3_s2"
  top: "inception_3a/pool"
  pooling_param {
    pool: MAX
    kernel_size: 3
    stride: 1
    pad: 1
  }
}
layer {
  name: "inception_3a/pool_proj"
  type: "Convolution"
  bottom: "inception_3a/pool"
  top: "inception_3a/pool_proj"
  param {
    lr_mult: 1
    decay_mult: 1
  }
  param {
    lr_mult: 2
    decay_mult: 0
  }
  convolution_param {
    num_output: 32
    kernel_size: 1
    weight_filler {
      type: "xavier"
    }
    bias_filler {
      type: "constant"
      value: 0.2
    }
  }
}
layer {
  name: "inception_3a/relu_pool_proj"
  type: "ReLU"
  bottom: "inception_3a/pool_proj"
  top: "inception_3a/pool_proj"
}
layer {
  name: "inception_3a/output"
  type: "Concat"
  bottom: "inception_3a/1x1"
  bottom: "inception_3a/3x3"
  bottom: "inception_3a/5x5"
  bottom: "inception_3a/pool_proj"
  top: "inception_3a/output"
}
layer {
  name: "inception_3b/1x1"
  type: "Convolution"
  bottom: "inception_3a/output"
  top: "inception_3b/1x1"
  param {
    lr_mult: 1
    decay_mult: 1
  }
  param {
    lr_mult: 2
    decay_mult: 0
  }
  convolution_param {
    num_output: 128
    kernel_size: 1
    weight_filler {
      type: "xavier"
    }
    bias_filler {
      type: "constant"
      value: 0.2
    }
  }
}
layer {
  name: "inception_3b/relu_1x1"
  type: "ReLU"
  bottom: "inception_3b/1x1"
  top: "inception_3b/1x1"
}
layer {
  name: "inception_3b/3x3_reduce"
  type: "Convolution"
  bottom: "inception_3a/output"
  top: "inception_3b/3x3_reduce"
  param {
    lr_mult: 1
    decay_mult: 1
  }
  param {
    lr_mult: 2
    decay_mult: 0
  }
  convolution_param {
    num_output: 128
    kernel_size: 1
    weight_filler {
      type: "xavier"
    }
    bias_filler {
      type: "constant"
      value: 0.2
    }
  }
}
layer {
  name: "inception_3b/relu_3x3_reduce"
  type: "ReLU"
  bottom: "inception_3b/3x3_reduce"
  top: "inception_3b/3x3_reduce"
}
layer {
  name: "inception_3b/3x3"
  type: "Convolution"
  bottom: "inception_3b/3x3_reduce"
  top: "inception_3b/3x3"
  param {
    lr_mult: 1
    decay_mult: 1
  }
  param {
    lr_mult: 2
    decay_mult: 0
  }
  convolution_param {
    num_output: 192
    pad: 1
    kernel_size: 3
    weight_filler {
      type: "xavier"
    }
    bias_filler {
      type: "constant"
      value: 0.2
    }
  }
}
layer {
  name: "inception_3b/relu_3x3"
  type: "ReLU"
  bottom: "inception_3b/3x3"
  top: "inception_3b/3x3"
}
layer {
  name: "inception_3b/5x5_reduce"
  type: "Convolution"
  bottom: "inception_3a/output"
  top: "inception_3b/5x5_reduce"
  param {
    lr_mult: 1
    decay_mult: 1
  }
  param {
    lr_mult: 2
    decay_mult: 0
  }
  convolution_param {
    num_output: 32
    kernel_size: 1
    weight_filler {
      type: "xavier"
    }
    bias_filler {
      type: "constant"
      value: 0.2
    }
  }
}
layer {
  name: "inception_3b/relu_5x5_reduce"
  type: "ReLU"
  bottom: "inception_3b/5x5_reduce"
  top: "inception_3b/5x5_reduce"
}
layer {
  name: "inception_3b/5x5"
  type: "Convolution"
  bottom: "inception_3b/5x5_reduce"
  top: "inception_3b/5x5"
  param {
    lr_mult: 1
    decay_mult: 1
  }
  param {
    lr_mult: 2
    decay_mult: 0
  }
  convolution_param {
    num_output: 96
    pad: 2
    kernel_size: 5
    weight_filler {
      type: "xavier"
    }
    bias_filler {
      type: "constant"
      value: 0.2
    }
  }
}
layer {
  name: "inception_3b/relu_5x5"
  type: "ReLU"
  bottom: "inception_3b/5x5"
  top: "inception_3b/5x5"
}
layer {
  name: "inception_3b/pool"
  type: "Pooling"
  bottom: "inception_3a/output"
  top: "inception_3b/pool"
  pooling_param {
    pool: MAX
    kernel_size: 3
    stride: 1
    pad: 1
  }
}
layer {
  name: "inception_3b/pool_proj"
  type: "Convolution"
  bottom: "inception_3b/pool"
  top: "inception_3b/pool_proj"
  param {
    lr_mult: 1
    decay_mult: 1
  }
  param {
    lr_mult: 2
    decay_mult: 0
  }
  convolution_param {
    num_output: 64
    kernel_size: 1
    weight_filler {
      type: "xavier"
    }
    bias_filler {
      type: "constant"
      value: 0.2
    }
  }
}
layer {
  name: "inception_3b/relu_pool_proj"
  type: "ReLU"
  bottom: "inception_3b/pool_proj"
  top: "inception_3b/pool_proj"
}
layer {
  name: "inception_3b/output"
  type: "Concat"
  bottom: "inception_3b/1x1"
  bottom: "inception_3b/3x3"
  bottom: "inception_3b/5x5"
  bottom: "inception_3b/pool_proj"
  top: "inception_3b/output"
}
layer {
  name: "pool3/3x3_s2"
  type: "Pooling"
  bottom: "inception_3b/output"
  top: "pool3/3x3_s2"
  pooling_param {
    pool: MAX
    kernel_size: 3
    stride: 2
  }
}
layer {
  name: "inception_4a/1x1"
  type: "Convolution"
  bottom: "pool3/3x3_s2"
  top: "inception_4a/1x1"
  param {
    lr_mult: 1
    decay_mult: 1
  }
  param {
    lr_mult: 2
    decay_mult: 0
  }
  convolution_param {
    num_output: 192
    kernel_size: 1
    weight_filler {
      type: "xavier"
    }
    bias_filler {
      type: "constant"
      value: 0.2
    }
  }
}
layer {
  name: "inception_4a/relu_1x1"
  type: "ReLU"
  bottom: "inception_4a/1x1"
  top: "inception_4a/1x1"
}
layer {
  name: "inception_4a/3x3_reduce"
  type: "Convolution"
  bottom: "pool3/3x3_s2"
  top: "inception_4a/3x3_reduce"
  param {
    lr_mult: 1
    decay_mult: 1
  }
  param {
    lr_mult: 2
    decay_mult: 0
  }
  convolution_param {
    num_output: 96
    kernel_size: 1
    weight_filler {
      type: "xavier"
    }
    bias_filler {
      type: "constant"
      value: 0.2
    }
  }
}
layer {
  name: "inception_4a/relu_3x3_reduce"
  type: "ReLU"
  bottom: "inception_4a/3x3_reduce"
  top: "inception_4a/3x3_reduce"
}
layer {
  name: "inception_4a/3x3"
  type: "Convolution"
  bottom: "inception_4a/3x3_reduce"
  top: "inception_4a/3x3"
  param {
    lr_mult: 1
    decay_mult: 1
  }
  param {
    lr_mult: 2
    decay_mult: 0
  }
  convolution_param {
    num_output: 208
    pad: 1
    kernel_size: 3
    weight_filler {
      type: "xavier"
    }
    bias_filler {
      type: "constant"
      value: 0.2
    }
  }
}
layer {
  name: "inception_4a/relu_3x3"
  type: "ReLU"
  bottom: "inception_4a/3x3"
  top: "inception_4a/3x3"
}
layer {
  name: "inception_4a/5x5_reduce"
  type: "Convolution"
  bottom: "pool3/3x3_s2"
  top: "inception_4a/5x5_reduce"
  param {
    lr_mult: 1
    decay_mult: 1
  }
  param {
    lr_mult: 2
    decay_mult: 0
  }
  convolution_param {
    num_output: 16
    kernel_size: 1
    weight_filler {
      type: "xavier"
    }
    bias_filler {
      type: "constant"
      value: 0.2
    }
  }
}
layer {
  name: "inception_4a/relu_5x5_reduce"
  type: "ReLU"
  bottom: "inception_4a/5x5_reduce"
  top: "inception_4a/5x5_reduce"
}
layer {
  name: "inception_4a/5x5"
  type: "Convolution"
  bottom: "inception_4a/5x5_reduce"
  top: "inception_4a/5x5"
  param {
    lr_mult: 1
    decay_mult: 1
  }
  param {
    lr_mult: 2
    decay_mult: 0
  }
  convolution_param {
    num_output: 48
    pad: 2
    kernel_size: 5
    weight_filler {
      type: "xavier"
    }
    bias_filler {
      type: "constant"
      value: 0.2
    }
  }
}
layer {
  name: "inception_4a/relu_5x5"
  type: "ReLU"
  bottom: "inception_4a/5x5"
  top: "inception_4a/5x5"
}
layer {
  name: "inception_4a/pool"
  type: "Pooling"
  bottom: "pool3/3x3_s2"
  top: "inception_4a/pool"
  pooling_param {
    pool: MAX
    kernel_size: 3
    stride: 1
    pad: 1
  }
}
layer {
  name: "inception_4a/pool_proj"
  type: "Convolution"
  bottom: "inception_4a/pool"
  top: "inception_4a/pool_proj"
  param {
    lr_mult: 1
    decay_mult: 1
  }
  param {
    lr_mult: 2
    decay_mult: 0
  }
  convolution_param {
    num_output: 64
    kernel_size: 1
    weight_filler {
      type: "xavier"
    }
    bias_filler {
      type: "constant"
      value: 0.2
    }
  }
}
layer {
  name: "inception_4a/relu_pool_proj"
  type: "ReLU"
  bottom: "inception_4a/pool_proj"
  top: "inception_4a/pool_proj"
}
layer {
  name: "inception_4a/output"
  type: "Concat"
  bottom: "inception_4a/1x1"
  bottom: "inception_4a/3x3"
  bottom: "inception_4a/5x5"
  bottom: "inception_4a/pool_proj"
  top: "inception_4a/output"
}
layer {
  name: "loss1/ave_pool"
  type: "Pooling"
  bottom: "inception_4a/output"
  top: "loss1/ave_pool"
  pooling_param {
    pool: AVE
    kernel_size: 5
    stride: 3
  }
}
layer {
  name: "loss1/conv"
  type: "Convolution"
  bottom: "loss1/ave_pool"
  top: "loss1/conv"
  param {
    lr_mult: 1
    decay_mult: 1
  }
  param {
    lr_mult: 2
    decay_mult: 0
  }
  convolution_param {
    num_output: 128
    kernel_size: 1
    weight_filler {
      type: "xavier"
    }
    bias_filler {
      type: "constant"
      value: 0.2
    }
  }
}
layer {
  name: "loss1/relu_conv"
  type: "ReLU"
  bottom: "loss1/conv"
  top: "loss1/conv"
}
layer {
  name: "loss1/fc"
  type: "InnerProduct"
  bottom: "loss1/conv"
  top: "loss1/fc"
  param {
    lr_mult: 1
    decay_mult: 1
  }
  param {
    lr_mult: 2
    decay_mult: 0
  }
  inner_product_param {
    num_output: 1024
    weight_filler {
      type: "xavier"
    }
    bias_filler {
      type: "constant"
      value: 0.2
    }
  }
}
layer {
  name: "loss1/relu_fc"
  type: "ReLU"
  bottom: "loss1/fc"
  top: "loss1/fc"
}
layer {
  name: "loss1/drop_fc"
  type: "Dropout"
  bottom: "loss1/fc"
  top: "loss1/fc"
  dropout_param {
    dropout_ratio: 0.7
  }
}
layer {
  name: "loss1/classifier-attribute"
  type: "InnerProduct"
  bottom: "loss1/fc"
  top: "loss1/classifier-attribute"
  param {
    lr_mult: 10
    decay_mult: 1
  }
  param {
    lr_mult: 20
    decay_mult: 0
  }
  inner_product_param {
    num_output: 9999
    weight_filler {
      type: "xavier"
    }
    bias_filler {
      type: "constant"
      value: 0
    }
  }
}
layer {
  name: "loss1/loss"
  type: "SoftmaxWithLoss"
  bottom: "loss1/classifier-attribute"
  bottom: "label"
  top: "loss1/loss1"
  loss_weight: 0.3
}
layer {
  name: "inception_4b/1x1"
  type: "Convolution"
  bottom: "inception_4a/output"
  top: "inception_4b/1x1"
  param {
    lr_mult: 1
    decay_mult: 1
  }
  param {
    lr_mult: 2
    decay_mult: 0
  }
  convolution_param {
    num_output: 160
    kernel_size: 1
    weight_filler {
      type: "xavier"
    }
    bias_filler {
      type: "constant"
      value: 0.2
    }
  }
}
layer {
  name: "inception_4b/relu_1x1"
  type: "ReLU"
  bottom: "inception_4b/1x1"
  top: "inception_4b/1x1"
}
layer {
  name: "inception_4b/3x3_reduce"
  type: "Convolution"
  bottom: "inception_4a/output"
  top: "inception_4b/3x3_reduce"
  param {
    lr_mult: 1
    decay_mult: 1
  }
  param {
    lr_mult: 2
    decay_mult: 0
  }
  convolution_param {
    num_output: 112
    kernel_size: 1
    weight_filler {
      type: "xavier"
    }
    bias_filler {
      type: "constant"
      value: 0.2
    }
  }
}
layer {
  name: "inception_4b/relu_3x3_reduce"
  type: "ReLU"
  bottom: "inception_4b/3x3_reduce"
  top: "inception_4b/3x3_reduce"
}
layer {
  name: "inception_4b/3x3"
  type: "Convolution"
  bottom: "inception_4b/3x3_reduce"
  top: "inception_4b/3x3"
  param {
    lr_mult: 1
    decay_mult: 1
  }
  param {
    lr_mult: 2
    decay_mult: 0
  }
  convolution_param {
    num_output: 224
    pad: 1
    kernel_size: 3
    weight_filler {
      type: "xavier"
    }
    bias_filler {
      type: "constant"
      value: 0.2
    }
  }
}
layer {
  name: "inception_4b/relu_3x3"
  type: "ReLU"
  bottom: "inception_4b/3x3"
  top: "inception_4b/3x3"
}
layer {
  name: "inception_4b/5x5_reduce"
  type: "Convolution"
  bottom: "inception_4a/output"
  top: "inception_4b/5x5_reduce"
  param {
    lr_mult: 1
    decay_mult: 1
  }
  param {
    lr_mult: 2
    decay_mult: 0
  }
  convolution_param {
    num_output: 24
    kernel_size: 1
    weight_filler {
      type: "xavier"
    }
    bias_filler {
      type: "constant"
      value: 0.2
    }
  }
}
layer {
  name: "inception_4b/relu_5x5_reduce"
  type: "ReLU"
  bottom: "inception_4b/5x5_reduce"
  top: "inception_4b/5x5_reduce"
}
layer {
  name: "inception_4b/5x5"
  type: "Convolution"
  bottom: "inception_4b/5x5_reduce"
  top: "inception_4b/5x5"
  param {
    lr_mult: 1
    decay_mult: 1
  }
  param {
    lr_mult: 2
    decay_mult: 0
  }
  convolution_param {
    num_output: 64
    pad: 2
    kernel_size: 5
    weight_filler {
      type: "xavier"
    }
    bias_filler {
      type: "constant"
      value: 0.2
    }
  }
}
layer {
  name: "inception_4b/relu_5x5"
  type: "ReLU"
  bottom: "inception_4b/5x5"
  top: "inception_4b/5x5"
}
layer {
  name: "inception_4b/pool"
  type: "Pooling"
  bottom: "inception_4a/output"
  top: "inception_4b/pool"
  pooling_param {
    pool: MAX
    kernel_size: 3
    stride: 1
    pad: 1
  }
}
layer {
  name: "inception_4b/pool_proj"
  type: "Convolution"
  bottom: "inception_4b/pool"
  top: "inception_4b/pool_proj"
  param {
    lr_mult: 1
    decay_mult: 1
  }
  param {
    lr_mult: 2
    decay_mult: 0
  }
  convolution_param {
    num_output: 64
    kernel_size: 1
    weight_filler {
      type: "xavier"
    }
    bias_filler {
      type: "constant"
      value: 0.2
    }
  }
}
layer {
  name: "inception_4b/relu_pool_proj"
  type: "ReLU"
  bottom: "inception_4b/pool_proj"
  top: "inception_4b/pool_proj"
}
layer {
  name: "inception_4b/output"
  type: "Concat"
  bottom: "inception_4b/1x1"
  bottom: "inception_4b/3x3"
  bottom: "inception_4b/5x5"
  bottom: "inception_4b/pool_proj"
  top: "inception_4b/output"
}
layer {
  name: "inception_4c/1x1"
  type: "Convolution"
  bottom: "inception_4b/output"
  top: "inception_4c/1x1"
  param {
    lr_mult: 1
    decay_mult: 1
  }
  param {
    lr_mult: 2
    decay_mult: 0
  }
  convolution_param {
    num_output: 128
    kernel_size: 1
    weight_filler {
      type: "xavier"
    }
    bias_filler {
      type: "constant"
      value: 0.2
    }
  }
}
layer {
  name: "inception_4c/relu_1x1"
  type: "ReLU"
  bottom: "inception_4c/1x1"
  top: "inception_4c/1x1"
}
layer {
  name: "inception_4c/3x3_reduce"
  type: "Convolution"
  bottom: "inception_4b/output"
  top: "inception_4c/3x3_reduce"
  param {
    lr_mult: 1
    decay_mult: 1
  }
  param {
    lr_mult: 2
    decay_mult: 0
  }
  convolution_param {
    num_output: 128
    kernel_size: 1
    weight_filler {
      type: "xavier"
    }
    bias_filler {
      type: "constant"
      value: 0.2
    }
  }
}
layer {
  name: "inception_4c/relu_3x3_reduce"
  type: "ReLU"
  bottom: "inception_4c/3x3_reduce"
  top: "inception_4c/3x3_reduce"
}
layer {
  name: "inception_4c/3x3"
  type: "Convolution"
  bottom: "inception_4c/3x3_reduce"
  top: "inception_4c/3x3"
  param {
    lr_mult: 1
    decay_mult: 1
  }
  param {
    lr_mult: 2
    decay_mult: 0
  }
  convolution_param {
    num_output: 256
    pad: 1
    kernel_size: 3
    weight_filler {
      type: "xavier"
    }
    bias_filler {
      type: "constant"
      value: 0.2
    }
  }
}
layer {
  name: "inception_4c/relu_3x3"
  type: "ReLU"
  bottom: "inception_4c/3x3"
  top: "inception_4c/3x3"
}
layer {
  name: "inception_4c/5x5_reduce"
  type: "Convolution"
  bottom: "inception_4b/output"
  top: "inception_4c/5x5_reduce"
  param {
    lr_mult: 1
    decay_mult: 1
  }
  param {
    lr_mult: 2
    decay_mult: 0
  }
  convolution_param {
    num_output: 24
    kernel_size: 1
    weight_filler {
      type: "xavier"
    }
    bias_filler {
      type: "constant"
      value: 0.2
    }
  }
}
layer {
  name: "inception_4c/relu_5x5_reduce"
  type: "ReLU"
  bottom: "inception_4c/5x5_reduce"
  top: "inception_4c/5x5_reduce"
}
layer {
  name: "inception_4c/5x5"
  type: "Convolution"
  bottom: "inception_4c/5x5_reduce"
  top: "inception_4c/5x5"
  param {
    lr_mult: 1
    decay_mult: 1
  }
  param {
    lr_mult: 2
    decay_mult: 0
  }
  convolution_param {
    num_output: 64
    pad: 2
    kernel_size: 5
    weight_filler {
      type: "xavier"
    }
    bias_filler {
      type: "constant"
      value: 0.2
    }
  }
}
layer {
  name: "inception_4c/relu_5x5"
  type: "ReLU"
  bottom: "inception_4c/5x5"
  top: "inception_4c/5x5"
}
layer {
  name: "inception_4c/pool"
  type: "Pooling"
  bottom: "inception_4b/output"
  top: "inception_4c/pool"
  pooling_param {
    pool: MAX
    kernel_size: 3
    stride: 1
    pad: 1
  }
}
layer {
  name: "inception_4c/pool_proj"
  type: "Convolution"
  bottom: "inception_4c/pool"
  top: "inception_4c/pool_proj"
  param {
    lr_mult: 1
    decay_mult: 1
  }
  param {
    lr_mult: 2
    decay_mult: 0
  }
  convolution_param {
    num_output: 64
    kernel_size: 1
    weight_filler {
      type: "xavier"
    }
    bias_filler {
      type: "constant"
      value: 0.2
    }
  }
}
layer {
  name: "inception_4c/relu_pool_proj"
  type: "ReLU"
  bottom: "inception_4c/pool_proj"
  top: "inception_4c/pool_proj"
}
layer {
  name: "inception_4c/output"
  type: "Concat"
  bottom: "inception_4c/1x1"
  bottom: "inception_4c/3x3"
  bottom: "inception_4c/5x5"
  bottom: "inception_4c/pool_proj"
  top: "inception_4c/output"
}
layer {
  name: "inception_4d/1x1"
  type: "Convolution"
  bottom: "inception_4c/output"
  top: "inception_4d/1x1"
  param {
    lr_mult: 1
    decay_mult: 1
  }
  param {
    lr_mult: 2
    decay_mult: 0
  }
  convolution_param {
    num_output: 112
    kernel_size: 1
    weight_filler {
      type: "xavier"
    }
    bias_filler {
      type: "constant"
      value: 0.2
    }
  }
}
layer {
  name: "inception_4d/relu_1x1"
  type: "ReLU"
  bottom: "inception_4d/1x1"
  top: "inception_4d/1x1"
}
layer {
  name: "inception_4d/3x3_reduce"
  type: "Convolution"
  bottom: "inception_4c/output"
  top: "inception_4d/3x3_reduce"
  param {
    lr_mult: 1
    decay_mult: 1
  }
  param {
    lr_mult: 2
    decay_mult: 0
  }
  convolution_param {
    num_output: 144
    kernel_size: 1
    weight_filler {
      type: "xavier"
    }
    bias_filler {
      type: "constant"
      value: 0.2
    }
  }
}
layer {
  name: "inception_4d/relu_3x3_reduce"
  type: "ReLU"
  bottom: "inception_4d/3x3_reduce"
  top: "inception_4d/3x3_reduce"
}
layer {
  name: "inception_4d/3x3"
  type: "Convolution"
  bottom: "inception_4d/3x3_reduce"
  top: "inception_4d/3x3"
  param {
    lr_mult: 1
    decay_mult: 1
  }
  param {
    lr_mult: 2
    decay_mult: 0
  }
  convolution_param {
    num_output: 288
    pad: 1
    kernel_size: 3
    weight_filler {
      type: "xavier"
    }
    bias_filler {
      type: "constant"
      value: 0.2
    }
  }
}
layer {
  name: "inception_4d/relu_3x3"
  type: "ReLU"
  bottom: "inception_4d/3x3"
  top: "inception_4d/3x3"
}
layer {
  name: "inception_4d/5x5_reduce"
  type: "Convolution"
  bottom: "inception_4c/output"
  top: "inception_4d/5x5_reduce"
  param {
    lr_mult: 1
    decay_mult: 1
  }
  param {
    lr_mult: 2
    decay_mult: 0
  }
  convolution_param {
    num_output: 32
    kernel_size: 1
    weight_filler {
      type: "xavier"
    }
    bias_filler {
      type: "constant"
      value: 0.2
    }
  }
}
layer {
  name: "inception_4d/relu_5x5_reduce"
  type: "ReLU"
  bottom: "inception_4d/5x5_reduce"
  top: "inception_4d/5x5_reduce"
}
layer {
  name: "inception_4d/5x5"
  type: "Convolution"
  bottom: "inception_4d/5x5_reduce"
  top: "inception_4d/5x5"
  param {
    lr_mult: 1
    decay_mult: 1
  }
  param {
    lr_mult: 2
    decay_mult: 0
  }
  convolution_param {
    num_output: 64
    pad: 2
    kernel_size: 5
    weight_filler {
      type: "xavier"
    }
    bias_filler {
      type: "constant"
      value: 0.2
    }
  }
}
layer {
  name: "inception_4d/relu_5x5"
  type: "ReLU"
  bottom: "inception_4d/5x5"
  top: "inception_4d/5x5"
}
layer {
  name: "inception_4d/pool"
  type: "Pooling"
  bottom: "inception_4c/output"
  top: "inception_4d/pool"
  pooling_param {
    pool: MAX
    kernel_size: 3
    stride: 1
    pad: 1
  }
}
layer {
  name: "inception_4d/pool_proj"
  type: "Convolution"
  bottom: "inception_4d/pool"
  top: "inception_4d/pool_proj"
  param {
    lr_mult: 1
    decay_mult: 1
  }
  param {
    lr_mult: 2
    decay_mult: 0
  }
  convolution_param {
    num_output: 64
    kernel_size: 1
    weight_filler {
      type: "xavier"
    }
    bias_filler {
      type: "constant"
      value: 0.2
    }
  }
}
layer {
  name: "inception_4d/relu_pool_proj"
  type: "ReLU"
  bottom: "inception_4d/pool_proj"
  top: "inception_4d/pool_proj"
}
layer {
  name: "inception_4d/output"
  type: "Concat"
  bottom: "inception_4d/1x1"
  bottom: "inception_4d/3x3"
  bottom: "inception_4d/5x5"
  bottom: "inception_4d/pool_proj"
  top: "inception_4d/output"
}
layer {
  name: "loss2/ave_pool"
  type: "Pooling"
  bottom: "inception_4d/output"
  top: "loss2/ave_pool"
  pooling_param {
    pool: AVE
    kernel_size: 5
    stride: 3
  }
}
layer {
  name: "loss2/conv"
  type: "Convolution"
  bottom: "loss2/ave_pool"
  top: "loss2/conv"
  param {
    lr_mult: 1
    decay_mult: 1
  }
  param {
    lr_mult: 2
    decay_mult: 0
  }
  convolution_param {
    num_output: 128
    kernel_size: 1
    weight_filler {
      type: "xavier"
    }
    bias_filler {
      type: "constant"
      value: 0.2
    }
  }
}
layer {
  name: "loss2/relu_conv"
  type: "ReLU"
  bottom: "loss2/conv"
  top: "loss2/conv"
}
layer {
  name: "loss2/fc"
  type: "InnerProduct"
  bottom: "loss2/conv"
  top: "loss2/fc"
  param {
    lr_mult: 1
    decay_mult: 1
  }
  param {
    lr_mult: 2
    decay_mult: 0
  }
  inner_product_param {
    num_output: 1024
    weight_filler {
      type: "xavier"
    }
    bias_filler {
      type: "constant"
      value: 0.2
    }
  }
}
layer {
  name: "loss2/relu_fc"
  type: "ReLU"
  bottom: "loss2/fc"
  top: "loss2/fc"
}
layer {
  name: "loss2/drop_fc"
  type: "Dropout"
  bottom: "loss2/fc"
  top: "loss2/fc"
  dropout_param {
    dropout_ratio: 0.7
  }
}
layer {
  name: "loss2/classifier-attribute"
  type: "InnerProduct"
  bottom: "loss2/fc"
  top: "loss2/classifier-attribute"
  param {
    lr_mult: 10
    decay_mult: 1
  }
  param {
    lr_mult: 20
    decay_mult: 0
  }
  inner_product_param {
    num_output: 9999
    weight_filler {
      type: "xavier"
    }
    bias_filler {
      type: "constant"
      value: 0
    }
  }
}
layer {
  name: "loss2/loss"
  type: "SoftmaxWithLoss"
  bottom: "loss2/classifier-attribute"
  bottom: "label"
  top: "loss2/loss1"
  loss_weight: 0.3
}
layer {
  name: "inception_4e/1x1"
  type: "Convolution"
  bottom: "inception_4d/output"
  top: "inception_4e/1x1"
  param {
    lr_mult: 1
    decay_mult: 1
  }
  param {
    lr_mult: 2
    decay_mult: 0
  }
  convolution_param {
    num_output: 256
    kernel_size: 1
    weight_filler {
      type: "xavier"
    }
    bias_filler {
      type: "constant"
      value: 0.2
    }
  }
}
layer {
  name: "inception_4e/relu_1x1"
  type: "ReLU"
  bottom: "inception_4e/1x1"
  top: "inception_4e/1x1"
}
layer {
  name: "inception_4e/3x3_reduce"
  type: "Convolution"
  bottom: "inception_4d/output"
  top: "inception_4e/3x3_reduce"
  param {
    lr_mult: 1
    decay_mult: 1
  }
  param {
    lr_mult: 2
    decay_mult: 0
  }
  convolution_param {
    num_output: 160
    kernel_size: 1
    weight_filler {
      type: "xavier"
    }
    bias_filler {
      type: "constant"
      value: 0.2
    }
  }
}
layer {
  name: "inception_4e/relu_3x3_reduce"
  type: "ReLU"
  bottom: "inception_4e/3x3_reduce"
  top: "inception_4e/3x3_reduce"
}
layer {
  name: "inception_4e/3x3"
  type: "Convolution"
  bottom: "inception_4e/3x3_reduce"
  top: "inception_4e/3x3"
  param {
    lr_mult: 1
    decay_mult: 1
  }
  param {
    lr_mult: 2
    decay_mult: 0
  }
  convolution_param {
    num_output: 320
    pad: 1
    kernel_size: 3
    weight_filler {
      type: "xavier"
    }
    bias_filler {
      type: "constant"
      value: 0.2
    }
  }
}
layer {
  name: "inception_4e/relu_3x3"
  type: "ReLU"
  bottom: "inception_4e/3x3"
  top: "inception_4e/3x3"
}
layer {
  name: "inception_4e/5x5_reduce"
  type: "Convolution"
  bottom: "inception_4d/output"
  top: "inception_4e/5x5_reduce"
  param {
    lr_mult: 1
    decay_mult: 1
  }
  param {
    lr_mult: 2
    decay_mult: 0
  }
  convolution_param {
    num_output: 32
    kernel_size: 1
    weight_filler {
      type: "xavier"
    }
    bias_filler {
      type: "constant"
      value: 0.2
    }
  }
}
layer {
  name: "inception_4e/relu_5x5_reduce"
  type: "ReLU"
  bottom: "inception_4e/5x5_reduce"
  top: "inception_4e/5x5_reduce"
}
layer {
  name: "inception_4e/5x5"
  type: "Convolution"
  bottom: "inception_4e/5x5_reduce"
  top: "inception_4e/5x5"
  param {
    lr_mult: 1
    decay_mult: 1
  }
  param {
    lr_mult: 2
    decay_mult: 0
  }
  convolution_param {
    num_output: 128
    pad: 2
    kernel_size: 5
    weight_filler {
      type: "xavier"
    }
    bias_filler {
      type: "constant"
      value: 0.2
    }
  }
}
layer {
  name: "inception_4e/relu_5x5"
  type: "ReLU"
  bottom: "inception_4e/5x5"
  top: "inception_4e/5x5"
}
layer {
  name: "inception_4e/pool"
  type: "Pooling"
  bottom: "ince
I1126 19:48:42.090662 20571 layer_factory.hpp:76] Creating layer data
I1126 19:48:42.090739 20571 net.cpp:106] Creating Layer data
I1126 19:48:42.090759 20571 net.cpp:411] data -> data
I1126 19:48:42.090811 20571 net.cpp:411] data -> label
I1126 19:48:42.091708 20571 image_data_layer.cpp:36] Opening file pad_train.txt
I1126 19:48:42.148521 20571 image_data_layer.cpp:46] Shuffling data
I1126 19:48:42.151067 20571 image_data_layer.cpp:51] A total of 29041 images.
I1126 19:48:42.210180 20571 image_data_layer.cpp:78] output data size: 64,3,224,224
I1126 19:48:42.268467 20571 net.cpp:150] Setting up data
I1126 19:48:42.268535 20571 net.cpp:157] Top shape: 64 3 224 224 (9633792)
I1126 19:48:42.268543 20571 net.cpp:157] Top shape: 64 (64)
I1126 19:48:42.268546 20571 net.cpp:165] Memory required for data: 38535424
I1126 19:48:42.268555 20571 layer_factory.hpp:76] Creating layer label_data_1_split
I1126 19:48:42.268571 20571 net.cpp:106] Creating Layer label_data_1_split
I1126 19:48:42.268578 20571 net.cpp:454] label_data_1_split <- label
I1126 19:48:42.268590 20571 net.cpp:411] label_data_1_split -> label_data_1_split_0
I1126 19:48:42.268601 20571 net.cpp:411] label_data_1_split -> label_data_1_split_1
I1126 19:48:42.268607 20571 net.cpp:411] label_data_1_split -> label_data_1_split_2
I1126 19:48:42.268720 20571 net.cpp:150] Setting up label_data_1_split
I1126 19:48:42.268731 20571 net.cpp:157] Top shape: 64 (64)
I1126 19:48:42.268735 20571 net.cpp:157] Top shape: 64 (64)
I1126 19:48:42.268739 20571 net.cpp:157] Top shape: 64 (64)
I1126 19:48:42.268743 20571 net.cpp:165] Memory required for data: 38536192
I1126 19:48:42.268746 20571 layer_factory.hpp:76] Creating layer conv1/7x7_s2
I1126 19:48:42.268761 20571 net.cpp:106] Creating Layer conv1/7x7_s2
I1126 19:48:42.268765 20571 net.cpp:454] conv1/7x7_s2 <- data
I1126 19:48:42.268771 20571 net.cpp:411] conv1/7x7_s2 -> conv1/7x7_s2
I1126 19:48:42.477911 20571 net.cpp:150] Setting up conv1/7x7_s2
I1126 19:48:42.477938 20571 net.cpp:157] Top shape: 64 64 112 112 (51380224)
I1126 19:48:42.477943 20571 net.cpp:165] Memory required for data: 244057088
I1126 19:48:42.477967 20571 layer_factory.hpp:76] Creating layer conv1/relu_7x7
I1126 19:48:42.477978 20571 net.cpp:106] Creating Layer conv1/relu_7x7
I1126 19:48:42.477983 20571 net.cpp:454] conv1/relu_7x7 <- conv1/7x7_s2
I1126 19:48:42.477990 20571 net.cpp:397] conv1/relu_7x7 -> conv1/7x7_s2 (in-place)
I1126 19:48:42.478286 20571 net.cpp:150] Setting up conv1/relu_7x7
I1126 19:48:42.478302 20571 net.cpp:157] Top shape: 64 64 112 112 (51380224)
I1126 19:48:42.478307 20571 net.cpp:165] Memory required for data: 449577984
I1126 19:48:42.478310 20571 layer_factory.hpp:76] Creating layer pool1/3x3_s2
I1126 19:48:42.478319 20571 net.cpp:106] Creating Layer pool1/3x3_s2
I1126 19:48:42.478322 20571 net.cpp:454] pool1/3x3_s2 <- conv1/7x7_s2
I1126 19:48:42.478328 20571 net.cpp:411] pool1/3x3_s2 -> pool1/3x3_s2
I1126 19:48:42.478518 20571 net.cpp:150] Setting up pool1/3x3_s2
I1126 19:48:42.478530 20571 net.cpp:157] Top shape: 64 64 56 56 (12845056)
I1126 19:48:42.478533 20571 net.cpp:165] Memory required for data: 500958208
I1126 19:48:42.478538 20571 layer_factory.hpp:76] Creating layer pool1/norm1
I1126 19:48:42.478549 20571 net.cpp:106] Creating Layer pool1/norm1
I1126 19:48:42.478552 20571 net.cpp:454] pool1/norm1 <- pool1/3x3_s2
I1126 19:48:42.478557 20571 net.cpp:411] pool1/norm1 -> pool1/norm1
I1126 19:48:42.478873 20571 net.cpp:150] Setting up pool1/norm1
I1126 19:48:42.478886 20571 net.cpp:157] Top shape: 64 64 56 56 (12845056)
I1126 19:48:42.478890 20571 net.cpp:165] Memory required for data: 552338432
I1126 19:48:42.478894 20571 layer_factory.hpp:76] Creating layer conv2/3x3_reduce
I1126 19:48:42.478904 20571 net.cpp:106] Creating Layer conv2/3x3_reduce
I1126 19:48:42.478909 20571 net.cpp:454] conv2/3x3_reduce <- pool1/norm1
I1126 19:48:42.478916 20571 net.cpp:411] conv2/3x3_reduce -> conv2/3x3_reduce
I1126 19:48:42.480154 20571 net.cpp:150] Setting up conv2/3x3_reduce
I1126 19:48:42.480170 20571 net.cpp:157] Top shape: 64 64 56 56 (12845056)
I1126 19:48:42.480173 20571 net.cpp:165] Memory required for data: 603718656
I1126 19:48:42.480182 20571 layer_factory.hpp:76] Creating layer conv2/relu_3x3_reduce
I1126 19:48:42.480190 20571 net.cpp:106] Creating Layer conv2/relu_3x3_reduce
I1126 19:48:42.480193 20571 net.cpp:454] conv2/relu_3x3_reduce <- conv2/3x3_reduce
I1126 19:48:42.480198 20571 net.cpp:397] conv2/relu_3x3_reduce -> conv2/3x3_reduce (in-place)
I1126 19:48:42.480489 20571 net.cpp:150] Setting up conv2/relu_3x3_reduce
I1126 19:48:42.480504 20571 net.cpp:157] Top shape: 64 64 56 56 (12845056)
I1126 19:48:42.480507 20571 net.cpp:165] Memory required for data: 655098880
I1126 19:48:42.480511 20571 layer_factory.hpp:76] Creating layer conv2/3x3
I1126 19:48:42.480520 20571 net.cpp:106] Creating Layer conv2/3x3
I1126 19:48:42.480525 20571 net.cpp:454] conv2/3x3 <- conv2/3x3_reduce
I1126 19:48:42.480530 20571 net.cpp:411] conv2/3x3 -> conv2/3x3
I1126 19:48:42.482725 20571 net.cpp:150] Setting up conv2/3x3
I1126 19:48:42.482741 20571 net.cpp:157] Top shape: 64 192 56 56 (38535168)
I1126 19:48:42.482745 20571 net.cpp:165] Memory required for data: 809239552
I1126 19:48:42.482754 20571 layer_factory.hpp:76] Creating layer conv2/relu_3x3
I1126 19:48:42.482760 20571 net.cpp:106] Creating Layer conv2/relu_3x3
I1126 19:48:42.482765 20571 net.cpp:454] conv2/relu_3x3 <- conv2/3x3
I1126 19:48:42.482770 20571 net.cpp:397] conv2/relu_3x3 -> conv2/3x3 (in-place)
I1126 19:48:42.482938 20571 net.cpp:150] Setting up conv2/relu_3x3
I1126 19:48:42.482949 20571 net.cpp:157] Top shape: 64 192 56 56 (38535168)
I1126 19:48:42.482952 20571 net.cpp:165] Memory required for data: 963380224
I1126 19:48:42.482955 20571 layer_factory.hpp:76] Creating layer conv2/norm2
I1126 19:48:42.482964 20571 net.cpp:106] Creating Layer conv2/norm2
I1126 19:48:42.482969 20571 net.cpp:454] conv2/norm2 <- conv2/3x3
I1126 19:48:42.482975 20571 net.cpp:411] conv2/norm2 -> conv2/norm2
I1126 19:48:42.483292 20571 net.cpp:150] Setting up conv2/norm2
I1126 19:48:42.483305 20571 net.cpp:157] Top shape: 64 192 56 56 (38535168)
I1126 19:48:42.483309 20571 net.cpp:165] Memory required for data: 1117520896
I1126 19:48:42.483312 20571 layer_factory.hpp:76] Creating layer pool2/3x3_s2
I1126 19:48:42.483321 20571 net.cpp:106] Creating Layer pool2/3x3_s2
I1126 19:48:42.483325 20571 net.cpp:454] pool2/3x3_s2 <- conv2/norm2
I1126 19:48:42.483330 20571 net.cpp:411] pool2/3x3_s2 -> pool2/3x3_s2
I1126 19:48:42.483510 20571 net.cpp:150] Setting up pool2/3x3_s2
I1126 19:48:42.483521 20571 net.cpp:157] Top shape: 64 192 28 28 (9633792)
I1126 19:48:42.483525 20571 net.cpp:165] Memory required for data: 1156056064
I1126 19:48:42.483527 20571 layer_factory.hpp:76] Creating layer pool2/3x3_s2_pool2/3x3_s2_0_split
I1126 19:48:42.483536 20571 net.cpp:106] Creating Layer pool2/3x3_s2_pool2/3x3_s2_0_split
I1126 19:48:42.483539 20571 net.cpp:454] pool2/3x3_s2_pool2/3x3_s2_0_split <- pool2/3x3_s2
I1126 19:48:42.483546 20571 net.cpp:411] pool2/3x3_s2_pool2/3x3_s2_0_split -> pool2/3x3_s2_pool2/3x3_s2_0_split_0
I1126 19:48:42.483551 20571 net.cpp:411] pool2/3x3_s2_pool2/3x3_s2_0_split -> pool2/3x3_s2_pool2/3x3_s2_0_split_1
I1126 19:48:42.483556 20571 net.cpp:411] pool2/3x3_s2_pool2/3x3_s2_0_split -> pool2/3x3_s2_pool2/3x3_s2_0_split_2
I1126 19:48:42.483561 20571 net.cpp:411] pool2/3x3_s2_pool2/3x3_s2_0_split -> pool2/3x3_s2_pool2/3x3_s2_0_split_3
I1126 19:48:42.483611 20571 net.cpp:150] Setting up pool2/3x3_s2_pool2/3x3_s2_0_split
I1126 19:48:42.483619 20571 net.cpp:157] Top shape: 64 192 28 28 (9633792)
I1126 19:48:42.483625 20571 net.cpp:157] Top shape: 64 192 28 28 (9633792)
I1126 19:48:42.483629 20571 net.cpp:157] Top shape: 64 192 28 28 (9633792)
I1126 19:48:42.483633 20571 net.cpp:157] Top shape: 64 192 28 28 (9633792)
I1126 19:48:42.483635 20571 net.cpp:165] Memory required for data: 1310196736
I1126 19:48:42.483639 20571 layer_factory.hpp:76] Creating layer inception_3a/1x1
I1126 19:48:42.483646 20571 net.cpp:106] Creating Layer inception_3a/1x1
I1126 19:48:42.483649 20571 net.cpp:454] inception_3a/1x1 <- pool2/3x3_s2_pool2/3x3_s2_0_split_0
I1126 19:48:42.483655 20571 net.cpp:411] inception_3a/1x1 -> inception_3a/1x1
I1126 19:48:42.485107 20571 net.cpp:150] Setting up inception_3a/1x1
I1126 19:48:42.485124 20571 net.cpp:157] Top shape: 64 64 28 28 (3211264)
I1126 19:48:42.485128 20571 net.cpp:165] Memory required for data: 1323041792
I1126 19:48:42.485136 20571 layer_factory.hpp:76] Creating layer inception_3a/relu_1x1
I1126 19:48:42.485141 20571 net.cpp:106] Creating Layer inception_3a/relu_1x1
I1126 19:48:42.485144 20571 net.cpp:454] inception_3a/relu_1x1 <- inception_3a/1x1
I1126 19:48:42.485152 20571 net.cpp:397] inception_3a/relu_1x1 -> inception_3a/1x1 (in-place)
I1126 19:48:42.485450 20571 net.cpp:150] Setting up inception_3a/relu_1x1
I1126 19:48:42.485463 20571 net.cpp:157] Top shape: 64 64 28 28 (3211264)
I1126 19:48:42.485467 20571 net.cpp:165] Memory required for data: 1335886848
I1126 19:48:42.485471 20571 layer_factory.hpp:76] Creating layer inception_3a/3x3_reduce
I1126 19:48:42.485481 20571 net.cpp:106] Creating Layer inception_3a/3x3_reduce
I1126 19:48:42.485484 20571 net.cpp:454] inception_3a/3x3_reduce <- pool2/3x3_s2_pool2/3x3_s2_0_split_1
I1126 19:48:42.485491 20571 net.cpp:411] inception_3a/3x3_reduce -> inception_3a/3x3_reduce
I1126 19:48:42.487018 20571 net.cpp:150] Setting up inception_3a/3x3_reduce
I1126 19:48:42.487033 20571 net.cpp:157] Top shape: 64 96 28 28 (4816896)
I1126 19:48:42.487037 20571 net.cpp:165] Memory required for data: 1355154432
I1126 19:48:42.487046 20571 layer_factory.hpp:76] Creating layer inception_3a/relu_3x3_reduce
I1126 19:48:42.487056 20571 net.cpp:106] Creating Layer inception_3a/relu_3x3_reduce
I1126 19:48:42.487059 20571 net.cpp:454] inception_3a/relu_3x3_reduce <- inception_3a/3x3_reduce
I1126 19:48:42.487064 20571 net.cpp:397] inception_3a/relu_3x3_reduce -> inception_3a/3x3_reduce (in-place)
I1126 19:48:42.487231 20571 net.cpp:150] Setting up inception_3a/relu_3x3_reduce
I1126 19:48:42.487241 20571 net.cpp:157] Top shape: 64 96 28 28 (4816896)
I1126 19:48:42.487244 20571 net.cpp:165] Memory required for data: 1374422016
I1126 19:48:42.487248 20571 layer_factory.hpp:76] Creating layer inception_3a/3x3
I1126 19:48:42.487257 20571 net.cpp:106] Creating Layer inception_3a/3x3
I1126 19:48:42.487260 20571 net.cpp:454] inception_3a/3x3 <- inception_3a/3x3_reduce
I1126 19:48:42.487267 20571 net.cpp:411] inception_3a/3x3 -> inception_3a/3x3
I1126 19:48:42.489059 20571 net.cpp:150] Setting up inception_3a/3x3
I1126 19:48:42.489074 20571 net.cpp:157] Top shape: 64 128 28 28 (6422528)
I1126 19:48:42.489078 20571 net.cpp:165] Memory required for data: 1400112128
I1126 19:48:42.489085 20571 layer_factory.hpp:76] Creating layer inception_3a/relu_3x3
I1126 19:48:42.489091 20571 net.cpp:106] Creating Layer inception_3a/relu_3x3
I1126 19:48:42.489094 20571 net.cpp:454] inception_3a/relu_3x3 <- inception_3a/3x3
I1126 19:48:42.489101 20571 net.cpp:397] inception_3a/relu_3x3 -> inception_3a/3x3 (in-place)
I1126 19:48:42.489264 20571 net.cpp:150] Setting up inception_3a/relu_3x3
I1126 19:48:42.489276 20571 net.cpp:157] Top shape: 64 128 28 28 (6422528)
I1126 19:48:42.489279 20571 net.cpp:165] Memory required for data: 1425802240
I1126 19:48:42.489282 20571 layer_factory.hpp:76] Creating layer inception_3a/5x5_reduce
I1126 19:48:42.489291 20571 net.cpp:106] Creating Layer inception_3a/5x5_reduce
I1126 19:48:42.489295 20571 net.cpp:454] inception_3a/5x5_reduce <- pool2/3x3_s2_pool2/3x3_s2_0_split_2
I1126 19:48:42.489302 20571 net.cpp:411] inception_3a/5x5_reduce -> inception_3a/5x5_reduce
I1126 19:48:42.490298 20571 net.cpp:150] Setting up inception_3a/5x5_reduce
I1126 19:48:42.490313 20571 net.cpp:157] Top shape: 64 16 28 28 (802816)
I1126 19:48:42.490316 20571 net.cpp:165] Memory required for data: 1429013504
I1126 19:48:42.490322 20571 layer_factory.hpp:76] Creating layer inception_3a/relu_5x5_reduce
I1126 19:48:42.490329 20571 net.cpp:106] Creating Layer inception_3a/relu_5x5_reduce
I1126 19:48:42.490334 20571 net.cpp:454] inception_3a/relu_5x5_reduce <- inception_3a/5x5_reduce
I1126 19:48:42.490340 20571 net.cpp:397] inception_3a/relu_5x5_reduce -> inception_3a/5x5_reduce (in-place)
I1126 19:48:42.490639 20571 net.cpp:150] Setting up inception_3a/relu_5x5_reduce
I1126 19:48:42.490653 20571 net.cpp:157] Top shape: 64 16 28 28 (802816)
I1126 19:48:42.490656 20571 net.cpp:165] Memory required for data: 1432224768
I1126 19:48:42.490660 20571 layer_factory.hpp:76] Creating layer inception_3a/5x5
I1126 19:48:42.490669 20571 net.cpp:106] Creating Layer inception_3a/5x5
I1126 19:48:42.490674 20571 net.cpp:454] inception_3a/5x5 <- inception_3a/5x5_reduce
I1126 19:48:42.490680 20571 net.cpp:411] inception_3a/5x5 -> inception_3a/5x5
I1126 19:48:42.491719 20571 net.cpp:150] Setting up inception_3a/5x5
I1126 19:48:42.491734 20571 net.cpp:157] Top shape: 64 32 28 28 (1605632)
I1126 19:48:42.491739 20571 net.cpp:165] Memory required for data: 1438647296
I1126 19:48:42.491744 20571 layer_factory.hpp:76] Creating layer inception_3a/relu_5x5
I1126 19:48:42.491751 20571 net.cpp:106] Creating Layer inception_3a/relu_5x5
I1126 19:48:42.491755 20571 net.cpp:454] inception_3a/relu_5x5 <- inception_3a/5x5
I1126 19:48:42.491760 20571 net.cpp:397] inception_3a/relu_5x5 -> inception_3a/5x5 (in-place)
I1126 19:48:42.491946 20571 net.cpp:150] Setting up inception_3a/relu_5x5
I1126 19:48:42.491960 20571 net.cpp:157] Top shape: 64 32 28 28 (1605632)
I1126 19:48:42.491962 20571 net.cpp:165] Memory required for data: 1445069824
I1126 19:48:42.491966 20571 layer_factory.hpp:76] Creating layer inception_3a/pool
I1126 19:48:42.491972 20571 net.cpp:106] Creating Layer inception_3a/pool
I1126 19:48:42.491976 20571 net.cpp:454] inception_3a/pool <- pool2/3x3_s2_pool2/3x3_s2_0_split_3
I1126 19:48:42.491983 20571 net.cpp:411] inception_3a/pool -> inception_3a/pool
I1126 19:48:42.492305 20571 net.cpp:150] Setting up inception_3a/pool
I1126 19:48:42.492321 20571 net.cpp:157] Top shape: 64 192 28 28 (9633792)
I1126 19:48:42.492332 20571 net.cpp:165] Memory required for data: 1483604992
I1126 19:48:42.492343 20571 layer_factory.hpp:76] Creating layer inception_3a/pool_proj
I1126 19:48:42.492355 20571 net.cpp:106] Creating Layer inception_3a/pool_proj
I1126 19:48:42.492359 20571 net.cpp:454] inception_3a/pool_proj <- inception_3a/pool
I1126 19:48:42.492367 20571 net.cpp:411] inception_3a/pool_proj -> inception_3a/pool_proj
I1126 19:48:42.493229 20571 net.cpp:150] Setting up inception_3a/pool_proj
I1126 19:48:42.493244 20571 net.cpp:157] Top shape: 64 32 28 28 (1605632)
I1126 19:48:42.493247 20571 net.cpp:165] Memory required for data: 1490027520
I1126 19:48:42.493257 20571 layer_factory.hpp:76] Creating layer inception_3a/relu_pool_proj
I1126 19:48:42.493265 20571 net.cpp:106] Creating Layer inception_3a/relu_pool_proj
I1126 19:48:42.493270 20571 net.cpp:454] inception_3a/relu_pool_proj <- inception_3a/pool_proj
I1126 19:48:42.493275 20571 net.cpp:397] inception_3a/relu_pool_proj -> inception_3a/pool_proj (in-place)
I1126 19:48:42.493571 20571 net.cpp:150] Setting up inception_3a/relu_pool_proj
I1126 19:48:42.493583 20571 net.cpp:157] Top shape: 64 32 28 28 (1605632)
I1126 19:48:42.493587 20571 net.cpp:165] Memory required for data: 1496450048
I1126 19:48:42.493592 20571 layer_factory.hpp:76] Creating layer inception_3a/output
I1126 19:48:42.493602 20571 net.cpp:106] Creating Layer inception_3a/output
I1126 19:48:42.493607 20571 net.cpp:454] inception_3a/output <- inception_3a/1x1
I1126 19:48:42.493610 20571 net.cpp:454] inception_3a/output <- inception_3a/3x3
I1126 19:48:42.493614 20571 net.cpp:454] inception_3a/output <- inception_3a/5x5
I1126 19:48:42.493618 20571 net.cpp:454] inception_3a/output <- inception_3a/pool_proj
I1126 19:48:42.493624 20571 net.cpp:411] inception_3a/output -> inception_3a/output
I1126 19:48:42.493655 20571 net.cpp:150] Setting up inception_3a/output
I1126 19:48:42.493661 20571 net.cpp:157] Top shape: 64 256 28 28 (12845056)
I1126 19:48:42.493664 20571 net.cpp:165] Memory required for data: 1547830272
I1126 19:48:42.493667 20571 layer_factory.hpp:76] Creating layer inception_3a/output_inception_3a/output_0_split
I1126 19:48:42.493676 20571 net.cpp:106] Creating Layer inception_3a/output_inception_3a/output_0_split
I1126 19:48:42.493680 20571 net.cpp:454] inception_3a/output_inception_3a/output_0_split <- inception_3a/output
I1126 19:48:42.493685 20571 net.cpp:411] inception_3a/output_inception_3a/output_0_split -> inception_3a/output_inception_3a/output_0_split_0
I1126 19:48:42.493691 20571 net.cpp:411] inception_3a/output_inception_3a/output_0_split -> inception_3a/output_inception_3a/output_0_split_1
I1126 19:48:42.493696 20571 net.cpp:411] inception_3a/output_inception_3a/output_0_split -> inception_3a/output_inception_3a/output_0_split_2
I1126 19:48:42.493703 20571 net.cpp:411] inception_3a/output_inception_3a/output_0_split -> inception_3a/output_inception_3a/output_0_split_3
I1126 19:48:42.493767 20571 net.cpp:150] Setting up inception_3a/output_inception_3a/output_0_split
I1126 19:48:42.493775 20571 net.cpp:157] Top shape: 64 256 28 28 (12845056)
I1126 19:48:42.493779 20571 net.cpp:157] Top shape: 64 256 28 28 (12845056)
I1126 19:48:42.493783 20571 net.cpp:157] Top shape: 64 256 28 28 (12845056)
I1126 19:48:42.493787 20571 net.cpp:157] Top shape: 64 256 28 28 (12845056)
I1126 19:48:42.493789 20571 net.cpp:165] Memory required for data: 1753351168
I1126 19:48:42.493793 20571 layer_factory.hpp:76] Creating layer inception_3b/1x1
I1126 19:48:42.493808 20571 net.cpp:106] Creating Layer inception_3b/1x1
I1126 19:48:42.493813 20571 net.cpp:454] inception_3b/1x1 <- inception_3a/output_inception_3a/output_0_split_0
I1126 19:48:42.493819 20571 net.cpp:411] inception_3b/1x1 -> inception_3b/1x1
I1126 19:48:42.494968 20571 net.cpp:150] Setting up inception_3b/1x1
I1126 19:48:42.494984 20571 net.cpp:157] Top shape: 64 128 28 28 (6422528)
I1126 19:48:42.494988 20571 net.cpp:165] Memory required for data: 1779041280
I1126 19:48:42.494994 20571 layer_factory.hpp:76] Creating layer inception_3b/relu_1x1
I1126 19:48:42.495002 20571 net.cpp:106] Creating Layer inception_3b/relu_1x1
I1126 19:48:42.495004 20571 net.cpp:454] inception_3b/relu_1x1 <- inception_3b/1x1
I1126 19:48:42.495010 20571 net.cpp:397] inception_3b/relu_1x1 -> inception_3b/1x1 (in-place)
I1126 19:48:42.495175 20571 net.cpp:150] Setting up inception_3b/relu_1x1
I1126 19:48:42.495187 20571 net.cpp:157] Top shape: 64 128 28 28 (6422528)
I1126 19:48:42.495190 20571 net.cpp:165] Memory required for data: 1804731392
I1126 19:48:42.495193 20571 layer_factory.hpp:76] Creating layer inception_3b/3x3_reduce
I1126 19:48:42.495203 20571 net.cpp:106] Creating Layer inception_3b/3x3_reduce
I1126 19:48:42.495208 20571 net.cpp:454] inception_3b/3x3_reduce <- inception_3a/output_inception_3a/output_0_split_1
I1126 19:48:42.495215 20571 net.cpp:411] inception_3b/3x3_reduce -> inception_3b/3x3_reduce
I1126 19:48:42.496389 20571 net.cpp:150] Setting up inception_3b/3x3_reduce
I1126 19:48:42.496404 20571 net.cpp:157] Top shape: 64 128 28 28 (6422528)
I1126 19:48:42.496408 20571 net.cpp:165] Memory required for data: 1830421504
I1126 19:48:42.496414 20571 layer_factory.hpp:76] Creating layer inception_3b/relu_3x3_reduce
I1126 19:48:42.496420 20571 net.cpp:106] Creating Layer inception_3b/relu_3x3_reduce
I1126 19:48:42.496424 20571 net.cpp:454] inception_3b/relu_3x3_reduce <- inception_3b/3x3_reduce
I1126 19:48:42.496433 20571 net.cpp:397] inception_3b/relu_3x3_reduce -> inception_3b/3x3_reduce (in-place)
I1126 19:48:42.496727 20571 net.cpp:150] Setting up inception_3b/relu_3x3_reduce
I1126 19:48:42.496742 20571 net.cpp:157] Top shape: 64 128 28 28 (6422528)
I1126 19:48:42.496744 20571 net.cpp:165] Memory required for data: 1856111616
I1126 19:48:42.496748 20571 layer_factory.hpp:76] Creating layer inception_3b/3x3
I1126 19:48:42.496760 20571 net.cpp:106] Creating Layer inception_3b/3x3
I1126 19:48:42.496764 20571 net.cpp:454] inception_3b/3x3 <- inception_3b/3x3_reduce
I1126 19:48:42.496772 20571 net.cpp:411] inception_3b/3x3 -> inception_3b/3x3
I1126 19:48:42.499480 20571 net.cpp:150] Setting up inception_3b/3x3
I1126 19:48:42.499493 20571 net.cpp:157] Top shape: 64 192 28 28 (9633792)
I1126 19:48:42.499498 20571 net.cpp:165] Memory required for data: 1894646784
I1126 19:48:42.499505 20571 layer_factory.hpp:76] Creating layer inception_3b/relu_3x3
I1126 19:48:42.499511 20571 net.cpp:106] Creating Layer inception_3b/relu_3x3
I1126 19:48:42.499514 20571 net.cpp:454] inception_3b/relu_3x3 <- inception_3b/3x3
I1126 19:48:42.499521 20571 net.cpp:397] inception_3b/relu_3x3 -> inception_3b/3x3 (in-place)
I1126 19:48:42.499986 20571 net.cpp:150] Setting up inception_3b/relu_3x3
I1126 19:48:42.500001 20571 net.cpp:157] Top shape: 64 192 28 28 (9633792)
I1126 19:48:42.500005 20571 net.cpp:165] Memory required for data: 1933181952
I1126 19:48:42.500008 20571 layer_factory.hpp:76] Creating layer inception_3b/5x5_reduce
I1126 19:48:42.500018 20571 net.cpp:106] Creating Layer inception_3b/5x5_reduce
I1126 19:48:42.500022 20571 net.cpp:454] inception_3b/5x5_reduce <- inception_3a/output_inception_3a/output_0_split_2
I1126 19:48:42.500031 20571 net.cpp:411] inception_3b/5x5_reduce -> inception_3b/5x5_reduce
I1126 19:48:42.501061 20571 net.cpp:150] Setting up inception_3b/5x5_reduce
I1126 19:48:42.501076 20571 net.cpp:157] Top shape: 64 32 28 28 (1605632)
I1126 19:48:42.501080 20571 net.cpp:165] Memory required for data: 1939604480
I1126 19:48:42.501086 20571 layer_factory.hpp:76] Creating layer inception_3b/relu_5x5_reduce
I1126 19:48:42.501094 20571 net.cpp:106] Creating Layer inception_3b/relu_5x5_reduce
I1126 19:48:42.501098 20571 net.cpp:454] inception_3b/relu_5x5_reduce <- inception_3b/5x5_reduce
I1126 19:48:42.501104 20571 net.cpp:397] inception_3b/relu_5x5_reduce -> inception_3b/5x5_reduce (in-place)
I1126 19:48:42.501303 20571 net.cpp:150] Setting up inception_3b/relu_5x5_reduce
I1126 19:48:42.501317 20571 net.cpp:157] Top shape: 64 32 28 28 (1605632)
I1126 19:48:42.501319 20571 net.cpp:165] Memory required for data: 1946027008
I1126 19:48:42.501323 20571 layer_factory.hpp:76] Creating layer inception_3b/5x5
I1126 19:48:42.501332 20571 net.cpp:106] Creating Layer inception_3b/5x5
I1126 19:48:42.501337 20571 net.cpp:454] inception_3b/5x5 <- inception_3b/5x5_reduce
I1126 19:48:42.501343 20571 net.cpp:411] inception_3b/5x5 -> inception_3b/5x5
I1126 19:48:42.503244 20571 net.cpp:150] Setting up inception_3b/5x5
I1126 19:48:42.503259 20571 net.cpp:157] Top shape: 64 96 28 28 (4816896)
I1126 19:48:42.503263 20571 net.cpp:165] Memory required for data: 1965294592
I1126 19:48:42.503269 20571 layer_factory.hpp:76] Creating layer inception_3b/relu_5x5
I1126 19:48:42.503275 20571 net.cpp:106] Creating Layer inception_3b/relu_5x5
I1126 19:48:42.503279 20571 net.cpp:454] inception_3b/relu_5x5 <- inception_3b/5x5
I1126 19:48:42.503285 20571 net.cpp:397] inception_3b/relu_5x5 -> inception_3b/5x5 (in-place)
I1126 19:48:42.503582 20571 net.cpp:150] Setting up inception_3b/relu_5x5
I1126 19:48:42.503597 20571 net.cpp:157] Top shape: 64 96 28 28 (4816896)
I1126 19:48:42.503602 20571 net.cpp:165] Memory required for data: 1984562176
I1126 19:48:42.503605 20571 layer_factory.hpp:76] Creating layer inception_3b/pool
I1126 19:48:42.503613 20571 net.cpp:106] Creating Layer inception_3b/pool
I1126 19:48:42.503618 20571 net.cpp:454] inception_3b/pool <- inception_3a/output_inception_3a/output_0_split_3
I1126 19:48:42.503623 20571 net.cpp:411] inception_3b/pool -> inception_3b/pool
I1126 19:48:42.503816 20571 net.cpp:150] Setting up inception_3b/pool
I1126 19:48:42.503829 20571 net.cpp:157] Top shape: 64 256 28 28 (12845056)
I1126 19:48:42.503831 20571 net.cpp:165] Memory required for data: 2035942400
I1126 19:48:42.503834 20571 layer_factory.hpp:76] Creating layer inception_3b/pool_proj
I1126 19:48:42.503844 20571 net.cpp:106] Creating Layer inception_3b/pool_proj
I1126 19:48:42.503849 20571 net.cpp:454] inception_3b/pool_proj <- inception_3b/pool
I1126 19:48:42.503854 20571 net.cpp:411] inception_3b/pool_proj -> inception_3b/pool_proj
I1126 19:48:42.504961 20571 net.cpp:150] Setting up inception_3b/pool_proj
I1126 19:48:42.504976 20571 net.cpp:157] Top shape: 64 64 28 28 (3211264)
I1126 19:48:42.504979 20571 net.cpp:165] Memory required for data: 2048787456
I1126 19:48:42.504986 20571 layer_factory.hpp:76] Creating layer inception_3b/relu_pool_proj
I1126 19:48:42.504992 20571 net.cpp:106] Creating Layer inception_3b/relu_pool_proj
I1126 19:48:42.504995 20571 net.cpp:454] inception_3b/relu_pool_proj <- inception_3b/pool_proj
I1126 19:48:42.505000 20571 net.cpp:397] inception_3b/relu_pool_proj -> inception_3b/pool_proj (in-place)
I1126 19:48:42.505177 20571 net.cpp:150] Setting up inception_3b/relu_pool_proj
I1126 19:48:42.505188 20571 net.cpp:157] Top shape: 64 64 28 28 (3211264)
I1126 19:48:42.505192 20571 net.cpp:165] Memory required for data: 2061632512
I1126 19:48:42.505194 20571 layer_factory.hpp:76] Creating layer inception_3b/output
I1126 19:48:42.505203 20571 net.cpp:106] Creating Layer inception_3b/output
I1126 19:48:42.505206 20571 net.cpp:454] inception_3b/output <- inception_3b/1x1
I1126 19:48:42.505210 20571 net.cpp:454] inception_3b/output <- inception_3b/3x3
I1126 19:48:42.505214 20571 net.cpp:454] inception_3b/output <- inception_3b/5x5
I1126 19:48:42.505218 20571 net.cpp:454] inception_3b/output <- inception_3b/pool_proj
I1126 19:48:42.505223 20571 net.cpp:411] inception_3b/output -> inception_3b/output
I1126 19:48:42.505252 20571 net.cpp:150] Setting up inception_3b/output
I1126 19:48:42.505259 20571 net.cpp:157] Top shape: 64 480 28 28 (24084480)
I1126 19:48:42.505261 20571 net.cpp:165] Memory required for data: 2157970432
I1126 19:48:42.505264 20571 layer_factory.hpp:76] Creating layer pool3/3x3_s2
I1126 19:48:42.505270 20571 net.cpp:106] Creating Layer pool3/3x3_s2
I1126 19:48:42.505273 20571 net.cpp:454] pool3/3x3_s2 <- inception_3b/output
I1126 19:48:42.505278 20571 net.cpp:411] pool3/3x3_s2 -> pool3/3x3_s2
I1126 19:48:42.505606 20571 net.cpp:150] Setting up pool3/3x3_s2
I1126 19:48:42.505620 20571 net.cpp:157] Top shape: 64 480 14 14 (6021120)
I1126 19:48:42.505625 20571 net.cpp:165] Memory required for data: 2182054912
I1126 19:48:42.505627 20571 layer_factory.hpp:76] Creating layer pool3/3x3_s2_pool3/3x3_s2_0_split
I1126 19:48:42.505633 20571 net.cpp:106] Creating Layer pool3/3x3_s2_pool3/3x3_s2_0_split
I1126 19:48:42.505638 20571 net.cpp:454] pool3/3x3_s2_pool3/3x3_s2_0_split <- pool3/3x3_s2
I1126 19:48:42.505645 20571 net.cpp:411] pool3/3x3_s2_pool3/3x3_s2_0_split -> pool3/3x3_s2_pool3/3x3_s2_0_split_0
I1126 19:48:42.505650 20571 net.cpp:411] pool3/3x3_s2_pool3/3x3_s2_0_split -> pool3/3x3_s2_pool3/3x3_s2_0_split_1
I1126 19:48:42.505656 20571 net.cpp:411] pool3/3x3_s2_pool3/3x3_s2_0_split -> pool3/3x3_s2_pool3/3x3_s2_0_split_2
I1126 19:48:42.505661 20571 net.cpp:411] pool3/3x3_s2_pool3/3x3_s2_0_split -> pool3/3x3_s2_pool3/3x3_s2_0_split_3
I1126 19:48:42.505720 20571 net.cpp:150] Setting up pool3/3x3_s2_pool3/3x3_s2_0_split
I1126 19:48:42.505727 20571 net.cpp:157] Top shape: 64 480 14 14 (6021120)
I1126 19:48:42.505729 20571 net.cpp:157] Top shape: 64 480 14 14 (6021120)
I1126 19:48:42.505733 20571 net.cpp:157] Top shape: 64 480 14 14 (6021120)
I1126 19:48:42.505736 20571 net.cpp:157] Top shape: 64 480 14 14 (6021120)
I1126 19:48:42.505739 20571 net.cpp:165] Memory required for data: 2278392832
I1126 19:48:42.505743 20571 layer_factory.hpp:76] Creating layer inception_4a/1x1
I1126 19:48:42.505750 20571 net.cpp:106] Creating Layer inception_4a/1x1
I1126 19:48:42.505755 20571 net.cpp:454] inception_4a/1x1 <- pool3/3x3_s2_pool3/3x3_s2_0_split_0
I1126 19:48:42.505761 20571 net.cpp:411] inception_4a/1x1 -> inception_4a/1x1
I1126 19:48:42.507436 20571 net.cpp:150] Setting up inception_4a/1x1
I1126 19:48:42.507452 20571 net.cpp:157] Top shape: 64 192 14 14 (2408448)
I1126 19:48:42.507457 20571 net.cpp:165] Memory required for data: 2288026624
I1126 19:48:42.507463 20571 layer_factory.hpp:76] Creating layer inception_4a/relu_1x1
I1126 19:48:42.507469 20571 net.cpp:106] Creating Layer inception_4a/relu_1x1
I1126 19:48:42.507473 20571 net.cpp:454] inception_4a/relu_1x1 <- inception_4a/1x1
I1126 19:48:42.507479 20571 net.cpp:397] inception_4a/relu_1x1 -> inception_4a/1x1 (in-place)
I1126 19:48:42.507652 20571 net.cpp:150] Setting up inception_4a/relu_1x1
I1126 19:48:42.507663 20571 net.cpp:157] Top shape: 64 192 14 14 (2408448)
I1126 19:48:42.507666 20571 net.cpp:165] Memory required for data: 2297660416
I1126 19:48:42.507670 20571 layer_factory.hpp:76] Creating layer inception_4a/3x3_reduce
I1126 19:48:42.507678 20571 net.cpp:106] Creating Layer inception_4a/3x3_reduce
I1126 19:48:42.507683 20571 net.cpp:454] inception_4a/3x3_reduce <- pool3/3x3_s2_pool3/3x3_s2_0_split_1
I1126 19:48:42.507689 20571 net.cpp:411] inception_4a/3x3_reduce -> inception_4a/3x3_reduce
I1126 19:48:42.508996 20571 net.cpp:150] Setting up inception_4a/3x3_reduce
I1126 19:48:42.509011 20571 net.cpp:157] Top shape: 64 96 14 14 (1204224)
I1126 19:48:42.509014 20571 net.cpp:165] Memory required for data: 2302477312
I1126 19:48:42.509027 20571 layer_factory.hpp:76] Creating layer inception_4a/relu_3x3_reduce
I1126 19:48:42.509032 20571 net.cpp:106] Creating Layer inception_4a/relu_3x3_reduce
I1126 19:48:42.509037 20571 net.cpp:454] inception_4a/relu_3x3_reduce <- inception_4a/3x3_reduce
I1126 19:48:42.509042 20571 net.cpp:397] inception_4a/relu_3x3_reduce -> inception_4a/3x3_reduce (in-place)
I1126 19:48:42.509346 20571 net.cpp:150] Setting up inception_4a/relu_3x3_reduce
I1126 19:48:42.509366 20571 net.cpp:157] Top shape: 64 96 14 14 (1204224)
I1126 19:48:42.509369 20571 net.cpp:165] Memory required for data: 2307294208
I1126 19:48:42.509373 20571 layer_factory.hpp:76] Creating layer inception_4a/3x3
I1126 19:48:42.509384 20571 net.cpp:106] Creating Layer inception_4a/3x3
I1126 19:48:42.509388 20571 net.cpp:454] inception_4a/3x3 <- inception_4a/3x3_reduce
I1126 19:48:42.509395 20571 net.cpp:411] inception_4a/3x3 -> inception_4a/3x3
I1126 19:48:42.511840 20571 net.cpp:150] Setting up inception_4a/3x3
I1126 19:48:42.511855 20571 net.cpp:157] Top shape: 64 208 14 14 (2609152)
I1126 19:48:42.511859 20571 net.cpp:165] Memory required for data: 2317730816
I1126 19:48:42.511865 20571 layer_factory.hpp:76] Creating layer inception_4a/relu_3x3
I1126 19:48:42.511872 20571 net.cpp:106] Creating Layer inception_4a/relu_3x3
I1126 19:48:42.511875 20571 net.cpp:454] inception_4a/relu_3x3 <- inception_4a/3x3
I1126 19:48:42.511883 20571 net.cpp:397] inception_4a/relu_3x3 -> inception_4a/3x3 (in-place)
I1126 19:48:42.512194 20571 net.cpp:150] Setting up inception_4a/relu_3x3
I1126 19:48:42.512209 20571 net.cpp:157] Top shape: 64 208 14 14 (2609152)
I1126 19:48:42.512213 20571 net.cpp:165] Memory required for data: 2328167424
I1126 19:48:42.512217 20571 layer_factory.hpp:76] Creating layer inception_4a/5x5_reduce
I1126 19:48:42.512226 20571 net.cpp:106] Creating Layer inception_4a/5x5_reduce
I1126 19:48:42.512230 20571 net.cpp:454] inception_4a/5x5_reduce <- pool3/3x3_s2_pool3/3x3_s2_0_split_2
I1126 19:48:42.512238 20571 net.cpp:411] inception_4a/5x5_reduce -> inception_4a/5x5_reduce
I1126 19:48:42.513310 20571 net.cpp:150] Setting up inception_4a/5x5_reduce
I1126 19:48:42.513325 20571 net.cpp:157] Top shape: 64 16 14 14 (200704)
I1126 19:48:42.513329 20571 net.cpp:165] Memory required for data: 2328970240
I1126 19:48:42.513336 20571 layer_factory.hpp:76] Creating layer inception_4a/relu_5x5_reduce
I1126 19:48:42.513342 20571 net.cpp:106] Creating Layer inception_4a/relu_5x5_reduce
I1126 19:48:42.513346 20571 net.cpp:454] inception_4a/relu_5x5_reduce <- inception_4a/5x5_reduce
I1126 19:48:42.513351 20571 net.cpp:397] inception_4a/relu_5x5_reduce -> inception_4a/5x5_reduce (in-place)
I1126 19:48:42.513649 20571 net.cpp:150] Setting up inception_4a/relu_5x5_reduce
I1126 19:48:42.513664 20571 net.cpp:157] Top shape: 64 16 14 14 (200704)
I1126 19:48:42.513666 20571 net.cpp:165] Memory required for data: 2329773056
I1126 19:48:42.513670 20571 layer_factory.hpp:76] Creating layer inception_4a/5x5
I1126 19:48:42.513679 20571 net.cpp:106] Creating Layer inception_4a/5x5
I1126 19:48:42.513684 20571 net.cpp:454] inception_4a/5x5 <- inception_4a/5x5_reduce
I1126 19:48:42.513690 20571 net.cpp:411] inception_4a/5x5 -> inception_4a/5x5
I1126 19:48:42.514814 20571 net.cpp:150] Setting up inception_4a/5x5
I1126 19:48:42.514828 20571 net.cpp:157] Top shape: 64 48 14 14 (602112)
I1126 19:48:42.514832 20571 net.cpp:165] Memory required for data: 2332181504
I1126 19:48:42.514838 20571 layer_factory.hpp:76] Creating layer inception_4a/relu_5x5
I1126 19:48:42.514848 20571 net.cpp:106] Creating Layer inception_4a/relu_5x5
I1126 19:48:42.514853 20571 net.cpp:454] inception_4a/relu_5x5 <- inception_4a/5x5
I1126 19:48:42.514858 20571 net.cpp:397] inception_4a/relu_5x5 -> inception_4a/5x5 (in-place)
I1126 19:48:42.515159 20571 net.cpp:150] Setting up inception_4a/relu_5x5
I1126 19:48:42.515173 20571 net.cpp:157] Top shape: 64 48 14 14 (602112)
I1126 19:48:42.515177 20571 net.cpp:165] Memory required for data: 2334589952
I1126 19:48:42.515180 20571 layer_factory.hpp:76] Creating layer inception_4a/pool
I1126 19:48:42.515188 20571 net.cpp:106] Creating Layer inception_4a/pool
I1126 19:48:42.515192 20571 net.cpp:454] inception_4a/pool <- pool3/3x3_s2_pool3/3x3_s2_0_split_3
I1126 19:48:42.515199 20571 net.cpp:411] inception_4a/pool -> inception_4a/pool
I1126 19:48:42.515398 20571 net.cpp:150] Setting up inception_4a/pool
I1126 19:48:42.515408 20571 net.cpp:157] Top shape: 64 480 14 14 (6021120)
I1126 19:48:42.515411 20571 net.cpp:165] Memory required for data: 2358674432
I1126 19:48:42.515415 20571 layer_factory.hpp:76] Creating layer inception_4a/pool_proj
I1126 19:48:42.515424 20571 net.cpp:106] Creating Layer inception_4a/pool_proj
I1126 19:48:42.515429 20571 net.cpp:454] inception_4a/pool_proj <- inception_4a/pool
I1126 19:48:42.515434 20571 net.cpp:411] inception_4a/pool_proj -> inception_4a/pool_proj
I1126 19:48:42.516641 20571 net.cpp:150] Setting up inception_4a/pool_proj
I1126 19:48:42.516655 20571 net.cpp:157] Top shape: 64 64 14 14 (802816)
I1126 19:48:42.516659 20571 net.cpp:165] Memory required for data: 2361885696
I1126 19:48:42.516665 20571 layer_factory.hpp:76] Creating layer inception_4a/relu_pool_proj
I1126 19:48:42.516674 20571 net.cpp:106] Creating Layer inception_4a/relu_pool_proj
I1126 19:48:42.516677 20571 net.cpp:454] inception_4a/relu_pool_proj <- inception_4a/pool_proj
I1126 19:48:42.516683 20571 net.cpp:397] inception_4a/relu_pool_proj -> inception_4a/pool_proj (in-place)
I1126 19:48:42.516999 20571 net.cpp:150] Setting up inception_4a/relu_pool_proj
I1126 19:48:42.517012 20571 net.cpp:157] Top shape: 64 64 14 14 (802816)
I1126 19:48:42.517016 20571 net.cpp:165] Memory required for data: 2365096960
I1126 19:48:42.517019 20571 layer_factory.hpp:76] Creating layer inception_4a/output
I1126 19:48:42.517027 20571 net.cpp:106] Creating Layer inception_4a/output
I1126 19:48:42.517031 20571 net.cpp:454] inception_4a/output <- inception_4a/1x1
I1126 19:48:42.517036 20571 net.cpp:454] inception_4a/output <- inception_4a/3x3
I1126 19:48:42.517040 20571 net.cpp:454] inception_4a/output <- inception_4a/5x5
I1126 19:48:42.517045 20571 net.cpp:454] inception_4a/output <- inception_4a/pool_proj
I1126 19:48:42.517048 20571 net.cpp:411] inception_4a/output -> inception_4a/output
I1126 19:48:42.517084 20571 net.cpp:150] Setting up inception_4a/output
I1126 19:48:42.517091 20571 net.cpp:157] Top shape: 64 512 14 14 (6422528)
I1126 19:48:42.517093 20571 net.cpp:165] Memory required for data: 2390787072
I1126 19:48:42.517096 20571 layer_factory.hpp:76] Creating layer inception_4a/output_inception_4a/output_0_split
I1126 19:48:42.517102 20571 net.cpp:106] Creating Layer inception_4a/output_inception_4a/output_0_split
I1126 19:48:42.517105 20571 net.cpp:454] inception_4a/output_inception_4a/output_0_split <- inception_4a/output
I1126 19:48:42.517112 20571 net.cpp:411] inception_4a/output_inception_4a/output_0_split -> inception_4a/output_inception_4a/output_0_split_0
I1126 19:48:42.517117 20571 net.cpp:411] inception_4a/output_inception_4a/output_0_split -> inception_4a/output_inception_4a/output_0_split_1
I1126 19:48:42.517123 20571 net.cpp:411] inception_4a/output_inception_4a/output_0_split -> inception_4a/output_inception_4a/output_0_split_2
I1126 19:48:42.517128 20571 net.cpp:411] inception_4a/output_inception_4a/output_0_split -> inception_4a/output_inception_4a/output_0_split_3
I1126 19:48:42.517133 20571 net.cpp:411] inception_4a/output_inception_4a/output_0_split -> inception_4a/output_inception_4a/output_0_split_4
I1126 19:48:42.517207 20571 net.cpp:150] Setting up inception_4a/output_inception_4a/output_0_split
I1126 19:48:42.517221 20571 net.cpp:157] Top shape: 64 512 14 14 (6422528)
I1126 19:48:42.517225 20571 net.cpp:157] Top shape: 64 512 14 14 (6422528)
I1126 19:48:42.517228 20571 net.cpp:157] Top shape: 64 512 14 14 (6422528)
I1126 19:48:42.517232 20571 net.cpp:157] Top shape: 64 512 14 14 (6422528)
I1126 19:48:42.517235 20571 net.cpp:157] Top shape: 64 512 14 14 (6422528)
I1126 19:48:42.517238 20571 net.cpp:165] Memory required for data: 2519237632
I1126 19:48:42.517241 20571 layer_factory.hpp:76] Creating layer loss1/ave_pool
I1126 19:48:42.517249 20571 net.cpp:106] Creating Layer loss1/ave_pool
I1126 19:48:42.517252 20571 net.cpp:454] loss1/ave_pool <- inception_4a/output_inception_4a/output_0_split_0
I1126 19:48:42.517258 20571 net.cpp:411] loss1/ave_pool -> loss1/ave_pool
I1126 19:48:42.517442 20571 net.cpp:150] Setting up loss1/ave_pool
I1126 19:48:42.517453 20571 net.cpp:157] Top shape: 64 512 4 4 (524288)
I1126 19:48:42.517457 20571 net.cpp:165] Memory required for data: 2521334784
I1126 19:48:42.517462 20571 layer_factory.hpp:76] Creating layer loss1/conv
I1126 19:48:42.517472 20571 net.cpp:106] Creating Layer loss1/conv
I1126 19:48:42.517477 20571 net.cpp:454] loss1/conv <- loss1/ave_pool
I1126 19:48:42.517482 20571 net.cpp:411] loss1/conv -> loss1/conv
I1126 19:48:42.518904 20571 net.cpp:150] Setting up loss1/conv
I1126 19:48:42.518919 20571 net.cpp:157] Top shape: 64 128 4 4 (131072)
I1126 19:48:42.518923 20571 net.cpp:165] Memory required for data: 2521859072
I1126 19:48:42.518930 20571 layer_factory.hpp:76] Creating layer loss1/relu_conv
I1126 19:48:42.518937 20571 net.cpp:106] Creating Layer loss1/relu_conv
I1126 19:48:42.518942 20571 net.cpp:454] loss1/relu_conv <- loss1/conv
I1126 19:48:42.518949 20571 net.cpp:397] loss1/relu_conv -> loss1/conv (in-place)
I1126 19:48:42.519130 20571 net.cpp:150] Setting up loss1/relu_conv
I1126 19:48:42.519141 20571 net.cpp:157] Top shape: 64 128 4 4 (131072)
I1126 19:48:42.519145 20571 net.cpp:165] Memory required for data: 2522383360
I1126 19:48:42.519148 20571 layer_factory.hpp:76] Creating layer loss1/fc
I1126 19:48:42.519156 20571 net.cpp:106] Creating Layer loss1/fc
I1126 19:48:42.519160 20571 net.cpp:454] loss1/fc <- loss1/conv
I1126 19:48:42.519165 20571 net.cpp:411] loss1/fc -> loss1/fc
I1126 19:48:42.534682 20571 net.cpp:150] Setting up loss1/fc
I1126 19:48:42.534698 20571 net.cpp:157] Top shape: 64 1024 (65536)
I1126 19:48:42.534701 20571 net.cpp:165] Memory required for data: 2522645504
I1126 19:48:42.534708 20571 layer_factory.hpp:76] Creating layer loss1/relu_fc
I1126 19:48:42.534713 20571 net.cpp:106] Creating Layer loss1/relu_fc
I1126 19:48:42.534718 20571 net.cpp:454] loss1/relu_fc <- loss1/fc
I1126 19:48:42.534723 20571 net.cpp:397] loss1/relu_fc -> loss1/fc (in-place)
I1126 19:48:42.535042 20571 net.cpp:150] Setting up loss1/relu_fc
I1126 19:48:42.535054 20571 net.cpp:157] Top shape: 64 1024 (65536)
I1126 19:48:42.535058 20571 net.cpp:165] Memory required for data: 2522907648
I1126 19:48:42.535063 20571 layer_factory.hpp:76] Creating layer loss1/drop_fc
I1126 19:48:42.535078 20571 net.cpp:106] Creating Layer loss1/drop_fc
I1126 19:48:42.535082 20571 net.cpp:454] loss1/drop_fc <- loss1/fc
I1126 19:48:42.535087 20571 net.cpp:397] loss1/drop_fc -> loss1/fc (in-place)
I1126 19:48:42.535126 20571 net.cpp:150] Setting up loss1/drop_fc
I1126 19:48:42.535132 20571 net.cpp:157] Top shape: 64 1024 (65536)
I1126 19:48:42.535135 20571 net.cpp:165] Memory required for data: 2523169792
I1126 19:48:42.535140 20571 layer_factory.hpp:76] Creating layer loss1/classifier-attribute
I1126 19:48:42.535146 20571 net.cpp:106] Creating Layer loss1/classifier-attribute
I1126 19:48:42.535151 20571 net.cpp:454] loss1/classifier-attribute <- loss1/fc
I1126 19:48:42.535156 20571 net.cpp:411] loss1/classifier-attribute -> loss1/classifier-attribute
I1126 19:48:42.612320 20571 net.cpp:150] Setting up loss1/classifier-attribute
I1126 19:48:42.612345 20571 net.cpp:157] Top shape: 64 9999 (639936)
I1126 19:48:42.612349 20571 net.cpp:165] Memory required for data: 2525729536
I1126 19:48:42.612357 20571 layer_factory.hpp:76] Creating layer loss1/loss
I1126 19:48:42.612372 20571 net.cpp:106] Creating Layer loss1/loss
I1126 19:48:42.612380 20571 net.cpp:454] loss1/loss <- loss1/classifier-attribute
I1126 19:48:42.612385 20571 net.cpp:454] loss1/loss <- label_data_1_split_0
I1126 19:48:42.612390 20571 net.cpp:411] loss1/loss -> loss1/loss1
I1126 19:48:42.612406 20571 layer_factory.hpp:76] Creating layer loss1/loss
I1126 19:48:42.613986 20571 net.cpp:150] Setting up loss1/loss
I1126 19:48:42.614001 20571 net.cpp:157] Top shape: (1)
I1126 19:48:42.614006 20571 net.cpp:160]     with loss weight 0.3
I1126 19:48:42.614027 20571 net.cpp:165] Memory required for data: 2525729540
I1126 19:48:42.614032 20571 layer_factory.hpp:76] Creating layer inception_4b/1x1
I1126 19:48:42.614044 20571 net.cpp:106] Creating Layer inception_4b/1x1
I1126 19:48:42.614048 20571 net.cpp:454] inception_4b/1x1 <- inception_4a/output_inception_4a/output_0_split_1
I1126 19:48:42.614056 20571 net.cpp:411] inception_4b/1x1 -> inception_4b/1x1
I1126 19:48:42.615692 20571 net.cpp:150] Setting up inception_4b/1x1
I1126 19:48:42.615708 20571 net.cpp:157] Top shape: 64 160 14 14 (2007040)
I1126 19:48:42.615712 20571 net.cpp:165] Memory required for data: 2533757700
I1126 19:48:42.615720 20571 layer_factory.hpp:76] Creating layer inception_4b/relu_1x1
I1126 19:48:42.615725 20571 net.cpp:106] Creating Layer inception_4b/relu_1x1
I1126 19:48:42.615730 20571 net.cpp:454] inception_4b/relu_1x1 <- inception_4b/1x1
I1126 19:48:42.615736 20571 net.cpp:397] inception_4b/relu_1x1 -> inception_4b/1x1 (in-place)
I1126 19:48:42.619071 20571 net.cpp:150] Setting up inception_4b/relu_1x1
I1126 19:48:42.619087 20571 net.cpp:157] Top shape: 64 160 14 14 (2007040)
I1126 19:48:42.619091 20571 net.cpp:165] Memory required for data: 2541785860
I1126 19:48:42.619096 20571 layer_factory.hpp:76] Creating layer inception_4b/3x3_reduce
I1126 19:48:42.619107 20571 net.cpp:106] Creating Layer inception_4b/3x3_reduce
I1126 19:48:42.619110 20571 net.cpp:454] inception_4b/3x3_reduce <- inception_4a/output_inception_4a/output_0_split_2
I1126 19:48:42.619117 20571 net.cpp:411] inception_4b/3x3_reduce -> inception_4b/3x3_reduce
I1126 19:48:42.621243 20571 net.cpp:150] Setting up inception_4b/3x3_reduce
I1126 19:48:42.621264 20571 net.cpp:157] Top shape: 64 112 14 14 (1404928)
I1126 19:48:42.621271 20571 net.cpp:165] Memory required for data: 2547405572
I1126 19:48:42.621280 20571 layer_factory.hpp:76] Creating layer inception_4b/relu_3x3_reduce
I1126 19:48:42.621290 20571 net.cpp:106] Creating Layer inception_4b/relu_3x3_reduce
I1126 19:48:42.621297 20571 net.cpp:454] inception_4b/relu_3x3_reduce <- inception_4b/3x3_reduce
I1126 19:48:42.621305 20571 net.cpp:397] inception_4b/relu_3x3_reduce -> inception_4b/3x3_reduce (in-place)
I1126 19:48:42.621553 20571 net.cpp:150] Setting up inception_4b/relu_3x3_reduce
I1126 19:48:42.621567 20571 net.cpp:157] Top shape: 64 112 14 14 (1404928)
I1126 19:48:42.621573 20571 net.cpp:165] Memory required for data: 2553025284
I1126 19:48:42.621578 20571 layer_factory.hpp:76] Creating layer inception_4b/3x3
I1126 19:48:42.621590 20571 net.cpp:106] Creating Layer inception_4b/3x3
I1126 19:48:42.621597 20571 net.cpp:454] inception_4b/3x3 <- inception_4b/3x3_reduce
I1126 19:48:42.621606 20571 net.cpp:411] inception_4b/3x3 -> inception_4b/3x3
I1126 19:48:42.625668 20571 net.cpp:150] Setting up inception_4b/3x3
I1126 19:48:42.625687 20571 net.cpp:157] Top shape: 64 224 14 14 (2809856)
I1126 19:48:42.625694 20571 net.cpp:165] Memory required for data: 2564264708
I1126 19:48:42.625704 20571 layer_factory.hpp:76] Creating layer inception_4b/relu_3x3
I1126 19:48:42.625713 20571 net.cpp:106] Creating Layer inception_4b/relu_3x3
I1126 19:48:42.625720 20571 net.cpp:454] inception_4b/relu_3x3 <- inception_4b/3x3
I1126 19:48:42.625730 20571 net.cpp:397] inception_4b/relu_3x3 -> inception_4b/3x3 (in-place)
I1126 19:48:42.625970 20571 net.cpp:150] Setting up inception_4b/relu_3x3
I1126 19:48:42.625984 20571 net.cpp:157] Top shape: 64 224 14 14 (2809856)
I1126 19:48:42.625990 20571 net.cpp:165] Memory required for data: 2575504132
I1126 19:48:42.625995 20571 layer_factory.hpp:76] Creating layer inception_4b/5x5_reduce
I1126 19:48:42.626006 20571 net.cpp:106] Creating Layer inception_4b/5x5_reduce
I1126 19:48:42.626013 20571 net.cpp:454] inception_4b/5x5_reduce <- inception_4a/output_inception_4a/output_0_split_3
I1126 19:48:42.626024 20571 net.cpp:411] inception_4b/5x5_reduce -> inception_4b/5x5_reduce
I1126 19:48:42.627583 20571 net.cpp:150] Setting up inception_4b/5x5_reduce
I1126 19:48:42.627604 20571 net.cpp:157] Top shape: 64 24 14 14 (301056)
I1126 19:48:42.627611 20571 net.cpp:165] Memory required for data: 2576708356
I1126 19:48:42.627620 20571 layer_factory.hpp:76] Creating layer inception_4b/relu_5x5_reduce
I1126 19:48:42.627629 20571 net.cpp:106] Creating Layer inception_4b/relu_5x5_reduce
I1126 19:48:42.627637 20571 net.cpp:454] inception_4b/relu_5x5_reduce <- inception_4b/5x5_reduce
I1126 19:48:42.627645 20571 net.cpp:397] inception_4b/relu_5x5_reduce -> inception_4b/5x5_reduce (in-place)
I1126 19:48:42.628216 20571 net.cpp:150] Setting up inception_4b/relu_5x5_reduce
I1126 19:48:42.628237 20571 net.cpp:157] Top shape: 64 24 14 14 (301056)
I1126 19:48:42.628242 20571 net.cpp:165] Memory required for data: 2577912580
I1126 19:48:42.628247 20571 layer_factory.hpp:76] Creating layer inception_4b/5x5
I1126 19:48:42.628262 20571 net.cpp:106] Creating Layer inception_4b/5x5
I1126 19:48:42.628270 20571 net.cpp:454] inception_4b/5x5 <- inception_4b/5x5_reduce
I1126 19:48:42.628279 20571 net.cpp:411] inception_4b/5x5 -> inception_4b/5x5
I1126 19:48:42.630106 20571 net.cpp:150] Setting up inception_4b/5x5
I1126 19:48:42.630126 20571 net.cpp:157] Top shape: 64 64 14 14 (802816)
I1126 19:48:42.630132 20571 net.cpp:165] Memory required for data: 2581123844
I1126 19:48:42.630141 20571 layer_factory.hpp:76] Creating layer inception_4b/relu_5x5
I1126 19:48:42.630149 20571 net.cpp:106] Creating Layer inception_4b/relu_5x5
I1126 19:48:42.630156 20571 net.cpp:454] inception_4b/relu_5x5 <- inception_4b/5x5
I1126 19:48:42.630162 20571 net.cpp:397] inception_4b/relu_5x5 -> inception_4b/5x5 (in-place)
I1126 19:48:42.630406 20571 net.cpp:150] Setting up inception_4b/relu_5x5
I1126 19:48:42.630420 20571 net.cpp:157] Top shape: 64 64 14 14 (802816)
I1126 19:48:42.630424 20571 net.cpp:165] Memory required for data: 2584335108
I1126 19:48:42.630429 20571 layer_factory.hpp:76] Creating layer inception_4b/pool
I1126 19:48:42.630439 20571 net.cpp:106] Creating Layer inception_4b/pool
I1126 19:48:42.630445 20571 net.cpp:454] inception_4b/pool <- inception_4a/output_inception_4a/output_0_split_4
I1126 19:48:42.630452 20571 net.cpp:411] inception_4b/pool -> inception_4b/pool
I1126 19:48:42.630923 20571 net.cpp:150] Setting up inception_4b/pool
I1126 19:48:42.630941 20571 net.cpp:157] Top shape: 64 512 14 14 (6422528)
I1126 19:48:42.630946 20571 net.cpp:165] Memory required for data: 2610025220
I1126 19:48:42.630951 20571 layer_factory.hpp:76] Creating layer inception_4b/pool_proj
I1126 19:48:42.630965 20571 net.cpp:106] Creating Layer inception_4b/pool_proj
I1126 19:48:42.630972 20571 net.cpp:454] inception_4b/pool_proj <- inception_4b/pool
I1126 19:48:42.630982 20571 net.cpp:411] inception_4b/pool_proj -> inception_4b/pool_proj
I1126 19:48:42.632510 20571 net.cpp:150] Setting up inception_4b/pool_proj
I1126 19:48:42.632525 20571 net.cpp:157] Top shape: 64 64 14 14 (802816)
I1126 19:48:42.632529 20571 net.cpp:165] Memory required for data: 2613236484
I1126 19:48:42.632535 20571 layer_factory.hpp:76] Creating layer inception_4b/relu_pool_proj
I1126 19:48:42.632541 20571 net.cpp:106] Creating Layer inception_4b/relu_pool_proj
I1126 19:48:42.632545 20571 net.cpp:454] inception_4b/relu_pool_proj <- inception_4b/pool_proj
I1126 19:48:42.632555 20571 net.cpp:397] inception_4b/relu_pool_proj -> inception_4b/pool_proj (in-place)
I1126 19:48:42.632866 20571 net.cpp:150] Setting up inception_4b/relu_pool_proj
I1126 19:48:42.632880 20571 net.cpp:157] Top shape: 64 64 14 14 (802816)
I1126 19:48:42.632884 20571 net.cpp:165] Memory required for data: 2616447748
I1126 19:48:42.632887 20571 layer_factory.hpp:76] Creating layer inception_4b/output
I1126 19:48:42.632895 20571 net.cpp:106] Creating Layer inception_4b/output
I1126 19:48:42.632899 20571 net.cpp:454] inception_4b/output <- inception_4b/1x1
I1126 19:48:42.632905 20571 net.cpp:454] inception_4b/output <- inception_4b/3x3
I1126 19:48:42.632908 20571 net.cpp:454] inception_4b/output <- inception_4b/5x5
I1126 19:48:42.632912 20571 net.cpp:454] inception_4b/output <- inception_4b/pool_proj
I1126 19:48:42.632917 20571 net.cpp:411] inception_4b/output -> inception_4b/output
I1126 19:48:42.632953 20571 net.cpp:150] Setting up inception_4b/output
I1126 19:48:42.632959 20571 net.cpp:157] Top shape: 64 512 14 14 (6422528)
I1126 19:48:42.632961 20571 net.cpp:165] Memory required for data: 2642137860
I1126 19:48:42.632966 20571 layer_factory.hpp:76] Creating layer inception_4b/output_inception_4b/output_0_split
I1126 19:48:42.632971 20571 net.cpp:106] Creating Layer inception_4b/output_inception_4b/output_0_split
I1126 19:48:42.632974 20571 net.cpp:454] inception_4b/output_inception_4b/output_0_split <- inception_4b/output
I1126 19:48:42.632979 20571 net.cpp:411] inception_4b/output_inception_4b/output_0_split -> inception_4b/output_inception_4b/output_0_split_0
I1126 19:48:42.632985 20571 net.cpp:411] inception_4b/output_inception_4b/output_0_split -> inception_4b/output_inception_4b/output_0_split_1
I1126 19:48:42.632992 20571 net.cpp:411] inception_4b/output_inception_4b/output_0_split -> inception_4b/output_inception_4b/output_0_split_2
I1126 19:48:42.632997 20571 net.cpp:411] inception_4b/output_inception_4b/output_0_split -> inception_4b/output_inception_4b/output_0_split_3
I1126 19:48:42.633064 20571 net.cpp:150] Setting up inception_4b/output_inception_4b/output_0_split
I1126 19:48:42.633069 20571 net.cpp:157] Top shape: 64 512 14 14 (6422528)
I1126 19:48:42.633074 20571 net.cpp:157] Top shape: 64 512 14 14 (6422528)
I1126 19:48:42.633076 20571 net.cpp:157] Top shape: 64 512 14 14 (6422528)
I1126 19:48:42.633080 20571 net.cpp:157] Top shape: 64 512 14 14 (6422528)
I1126 19:48:42.633083 20571 net.cpp:165] Memory required for data: 2744898308
I1126 19:48:42.633086 20571 layer_factory.hpp:76] Creating layer inception_4c/1x1
I1126 19:48:42.633095 20571 net.cpp:106] Creating Layer inception_4c/1x1
I1126 19:48:42.633098 20571 net.cpp:454] inception_4c/1x1 <- inception_4b/output_inception_4b/output_0_split_0
I1126 19:48:42.633103 20571 net.cpp:411] inception_4c/1x1 -> inception_4c/1x1
I1126 19:48:42.634526 20571 net.cpp:150] Setting up inception_4c/1x1
I1126 19:48:42.634539 20571 net.cpp:157] Top shape: 64 128 14 14 (1605632)
I1126 19:48:42.634546 20571 net.cpp:165] Memory required for data: 2751320836
I1126 19:48:42.634552 20571 layer_factory.hpp:76] Creating layer inception_4c/relu_1x1
I1126 19:48:42.634558 20571 net.cpp:106] Creating Layer inception_4c/relu_1x1
I1126 19:48:42.634562 20571 net.cpp:454] inception_4c/relu_1x1 <- inception_4c/1x1
I1126 19:48:42.634567 20571 net.cpp:397] inception_4c/relu_1x1 -> inception_4c/1x1 (in-place)
I1126 19:48:42.634735 20571 net.cpp:150] Setting up inception_4c/relu_1x1
I1126 19:48:42.634747 20571 net.cpp:157] Top shape: 64 128 14 14 (1605632)
I1126 19:48:42.634749 20571 net.cpp:165] Memory required for data: 2757743364
I1126 19:48:42.634753 20571 layer_factory.hpp:76] Creating layer inception_4c/3x3_reduce
I1126 19:48:42.634762 20571 net.cpp:106] Creating Layer inception_4c/3x3_reduce
I1126 19:48:42.634765 20571 net.cpp:454] inception_4c/3x3_reduce <- inception_4b/output_inception_4b/output_0_split_1
I1126 19:48:42.634771 20571 net.cpp:411] inception_4c/3x3_reduce -> inception_4c/3x3_reduce
I1126 19:48:42.636232 20571 net.cpp:150] Setting up inception_4c/3x3_reduce
I1126 19:48:42.636247 20571 net.cpp:157] Top shape: 64 128 14 14 (1605632)
I1126 19:48:42.636251 20571 net.cpp:165] Memory required for data: 2764165892
I1126 19:48:42.636257 20571 layer_factory.hpp:76] Creating layer inception_4c/relu_3x3_reduce
I1126 19:48:42.636265 20571 net.cpp:106] Creating Layer inception_4c/relu_3x3_reduce
I1126 19:48:42.636270 20571 net.cpp:454] inception_4c/relu_3x3_reduce <- inception_4c/3x3_reduce
I1126 19:48:42.636275 20571 net.cpp:397] inception_4c/relu_3x3_reduce -> inception_4c/3x3_reduce (in-place)
I1126 19:48:42.636585 20571 net.cpp:150] Setting up inception_4c/relu_3x3_reduce
I1126 19:48:42.636598 20571 net.cpp:157] Top shape: 64 128 14 14 (1605632)
I1126 19:48:42.636602 20571 net.cpp:165] Memory required for data: 2770588420
I1126 19:48:42.636605 20571 layer_factory.hpp:76] Creating layer inception_4c/3x3
I1126 19:48:42.636615 20571 net.cpp:106] Creating Layer inception_4c/3x3
I1126 19:48:42.636618 20571 net.cpp:454] inception_4c/3x3 <- inception_4c/3x3_reduce
I1126 19:48:42.636626 20571 net.cpp:411] inception_4c/3x3 -> inception_4c/3x3
I1126 19:48:42.639863 20571 net.cpp:150] Setting up inception_4c/3x3
I1126 19:48:42.639878 20571 net.cpp:157] Top shape: 64 256 14 14 (3211264)
I1126 19:48:42.639883 20571 net.cpp:165] Memory required for data: 2783433476
I1126 19:48:42.639900 20571 layer_factory.hpp:76] Creating layer inception_4c/relu_3x3
I1126 19:48:42.639909 20571 net.cpp:106] Creating Layer inception_4c/relu_3x3
I1126 19:48:42.639914 20571 net.cpp:454] inception_4c/relu_3x3 <- inception_4c/3x3
I1126 19:48:42.639919 20571 net.cpp:397] inception_4c/relu_3x3 -> inception_4c/3x3 (in-place)
I1126 19:48:42.640231 20571 net.cpp:150] Setting up inception_4c/relu_3x3
I1126 19:48:42.640246 20571 net.cpp:157] Top shape: 64 256 14 14 (3211264)
I1126 19:48:42.640249 20571 net.cpp:165] Memory required for data: 2796278532
I1126 19:48:42.640254 20571 layer_factory.hpp:76] Creating layer inception_4c/5x5_reduce
I1126 19:48:42.640262 20571 net.cpp:106] Creating Layer inception_4c/5x5_reduce
I1126 19:48:42.640266 20571 net.cpp:454] inception_4c/5x5_reduce <- inception_4b/output_inception_4b/output_0_split_2
I1126 19:48:42.640275 20571 net.cpp:411] inception_4c/5x5_reduce -> inception_4c/5x5_reduce
I1126 19:48:42.641397 20571 net.cpp:150] Setting up inception_4c/5x5_reduce
I1126 19:48:42.641413 20571 net.cpp:157] Top shape: 64 24 14 14 (301056)
I1126 19:48:42.641417 20571 net.cpp:165] Memory required for data: 2797482756
I1126 19:48:42.641423 20571 layer_factory.hpp:76] Creating layer inception_4c/relu_5x5_reduce
I1126 19:48:42.641429 20571 net.cpp:106] Creating Layer inception_4c/relu_5x5_reduce
I1126 19:48:42.641433 20571 net.cpp:454] inception_4c/relu_5x5_reduce <- inception_4c/5x5_reduce
I1126 19:48:42.641438 20571 net.cpp:397] inception_4c/relu_5x5_reduce -> inception_4c/5x5_reduce (in-place)
I1126 19:48:42.641613 20571 net.cpp:150] Setting up inception_4c/relu_5x5_reduce
I1126 19:48:42.641624 20571 net.cpp:157] Top shape: 64 24 14 14 (301056)
I1126 19:48:42.641628 20571 net.cpp:165] Memory required for data: 2798686980
I1126 19:48:42.641631 20571 layer_factory.hpp:76] Creating layer inception_4c/5x5
I1126 19:48:42.641640 20571 net.cpp:106] Creating Layer inception_4c/5x5
I1126 19:48:42.641644 20571 net.cpp:454] inception_4c/5x5 <- inception_4c/5x5_reduce
I1126 19:48:42.641649 20571 net.cpp:411] inception_4c/5x5 -> inception_4c/5x5
I1126 19:48:42.643376 20571 net.cpp:150] Setting up inception_4c/5x5
I1126 19:48:42.643391 20571 net.cpp:157] Top shape: 64 64 14 14 (802816)
I1126 19:48:42.643395 20571 net.cpp:165] Memory required for data: 2801898244
I1126 19:48:42.643401 20571 layer_factory.hpp:76] Creating layer inception_4c/relu_5x5
I1126 19:48:42.643409 20571 net.cpp:106] Creating Layer inception_4c/relu_5x5
I1126 19:48:42.643414 20571 net.cpp:454] inception_4c/relu_5x5 <- inception_4c/5x5
I1126 19:48:42.643419 20571 net.cpp:397] inception_4c/relu_5x5 -> inception_4c/5x5 (in-place)
I1126 19:48:42.643738 20571 net.cpp:150] Setting up inception_4c/relu_5x5
I1126 19:48:42.643751 20571 net.cpp:157] Top shape: 64 64 14 14 (802816)
I1126 19:48:42.643755 20571 net.cpp:165] Memory required for data: 2805109508
I1126 19:48:42.643759 20571 layer_factory.hpp:76] Creating layer inception_4c/pool
I1126 19:48:42.643766 20571 net.cpp:106] Creating Layer inception_4c/pool
I1126 19:48:42.643770 20571 net.cpp:454] inception_4c/pool <- inception_4b/output_inception_4b/output_0_split_3
I1126 19:48:42.643775 20571 net.cpp:411] inception_4c/pool -> inception_4c/pool
I1126 19:48:42.644004 20571 net.cpp:150] Setting up inception_4c/pool
I1126 19:48:42.644017 20571 net.cpp:157] Top shape: 64 512 14 14 (6422528)
I1126 19:48:42.644021 20571 net.cpp:165] Memory required for data: 2830799620
I1126 19:48:42.644024 20571 layer_factory.hpp:76] Creating layer inception_4c/pool_proj
I1126 19:48:42.644034 20571 net.cpp:106] Creating Layer inception_4c/pool_proj
I1126 19:48:42.644038 20571 net.cpp:454] inception_4c/pool_proj <- inception_4c/pool
I1126 19:48:42.644045 20571 net.cpp:411] inception_4c/pool_proj -> inception_4c/pool_proj
I1126 19:48:42.645460 20571 net.cpp:150] Setting up inception_4c/pool_proj
I1126 19:48:42.645475 20571 net.cpp:157] Top shape: 64 64 14 14 (802816)
I1126 19:48:42.645479 20571 net.cpp:165] Memory required for data: 2834010884
I1126 19:48:42.645485 20571 layer_factory.hpp:76] Creating layer inception_4c/relu_pool_proj
I1126 19:48:42.645491 20571 net.cpp:106] Creating Layer inception_4c/relu_pool_proj
I1126 19:48:42.645496 20571 net.cpp:454] inception_4c/relu_pool_proj <- inception_4c/pool_proj
I1126 19:48:42.645501 20571 net.cpp:397] inception_4c/relu_pool_proj -> inception_4c/pool_proj (in-place)
I1126 19:48:42.645815 20571 net.cpp:150] Setting up inception_4c/relu_pool_proj
I1126 19:48:42.645829 20571 net.cpp:157] Top shape: 64 64 14 14 (802816)
I1126 19:48:42.645833 20571 net.cpp:165] Memory required for data: 2837222148
I1126 19:48:42.645836 20571 layer_factory.hpp:76] Creating layer inception_4c/output
I1126 19:48:42.645843 20571 net.cpp:106] Creating Layer inception_4c/output
I1126 19:48:42.645846 20571 net.cpp:454] inception_4c/output <- inception_4c/1x1
I1126 19:48:42.645850 20571 net.cpp:454] inception_4c/output <- inception_4c/3x3
I1126 19:48:42.645855 20571 net.cpp:454] inception_4c/output <- inception_4c/5x5
I1126 19:48:42.645859 20571 net.cpp:454] inception_4c/output <- inception_4c/pool_proj
I1126 19:48:42.645864 20571 net.cpp:411] inception_4c/output -> inception_4c/output
I1126 19:48:42.645900 20571 net.cpp:150] Setting up inception_4c/output
I1126 19:48:42.645906 20571 net.cpp:157] Top shape: 64 512 14 14 (6422528)
I1126 19:48:42.645910 20571 net.cpp:165] Memory required for data: 2862912260
I1126 19:48:42.645912 20571 layer_factory.hpp:76] Creating layer inception_4c/output_inception_4c/output_0_split
I1126 19:48:42.645920 20571 net.cpp:106] Creating Layer inception_4c/output_inception_4c/output_0_split
I1126 19:48:42.645923 20571 net.cpp:454] inception_4c/output_inception_4c/output_0_split <- inception_4c/output
I1126 19:48:42.645928 20571 net.cpp:411] inception_4c/output_inception_4c/output_0_split -> inception_4c/output_inception_4c/output_0_split_0
I1126 19:48:42.645934 20571 net.cpp:411] inception_4c/output_inception_4c/output_0_split -> inception_4c/output_inception_4c/output_0_split_1
I1126 19:48:42.645939 20571 net.cpp:411] inception_4c/output_inception_4c/output_0_split -> inception_4c/output_inception_4c/output_0_split_2
I1126 19:48:42.645946 20571 net.cpp:411] inception_4c/output_inception_4c/output_0_split -> inception_4c/output_inception_4c/output_0_split_3
I1126 19:48:42.646013 20571 net.cpp:150] Setting up inception_4c/output_inception_4c/output_0_split
I1126 19:48:42.646020 20571 net.cpp:157] Top shape: 64 512 14 14 (6422528)
I1126 19:48:42.646023 20571 net.cpp:157] Top shape: 64 512 14 14 (6422528)
I1126 19:48:42.646028 20571 net.cpp:157] Top shape: 64 512 14 14 (6422528)
I1126 19:48:42.646030 20571 net.cpp:157] Top shape: 64 512 14 14 (6422528)
I1126 19:48:42.646034 20571 net.cpp:165] Memory required for data: 2965672708
I1126 19:48:42.646036 20571 layer_factory.hpp:76] Creating layer inception_4d/1x1
I1126 19:48:42.646045 20571 net.cpp:106] Creating Layer inception_4d/1x1
I1126 19:48:42.646049 20571 net.cpp:454] inception_4d/1x1 <- inception_4c/output_inception_4c/output_0_split_0
I1126 19:48:42.646055 20571 net.cpp:411] inception_4d/1x1 -> inception_4d/1x1
I1126 19:48:42.647331 20571 net.cpp:150] Setting up inception_4d/1x1
I1126 19:48:42.647346 20571 net.cpp:157] Top shape: 64 112 14 14 (1404928)
I1126 19:48:42.647351 20571 net.cpp:165] Memory required for data: 2971292420
I1126 19:48:42.647356 20571 layer_factory.hpp:76] Creating layer inception_4d/relu_1x1
I1126 19:48:42.647364 20571 net.cpp:106] Creating Layer inception_4d/relu_1x1
I1126 19:48:42.647368 20571 net.cpp:454] inception_4d/relu_1x1 <- inception_4d/1x1
I1126 19:48:42.647374 20571 net.cpp:397] inception_4d/relu_1x1 -> inception_4d/1x1 (in-place)
I1126 19:48:42.647701 20571 net.cpp:150] Setting up inception_4d/relu_1x1
I1126 19:48:42.647716 20571 net.cpp:157] Top shape: 64 112 14 14 (1404928)
I1126 19:48:42.647718 20571 net.cpp:165] Memory required for data: 2976912132
I1126 19:48:42.647722 20571 layer_factory.hpp:76] Creating layer inception_4d/3x3_reduce
I1126 19:48:42.647732 20571 net.cpp:106] Creating Layer inception_4d/3x3_reduce
I1126 19:48:42.647737 20571 net.cpp:454] inception_4d/3x3_reduce <- inception_4c/output_inception_4c/output_0_split_1
I1126 19:48:42.647744 20571 net.cpp:411] inception_4d/3x3_reduce -> inception_4d/3x3_reduce
I1126 19:48:42.649356 20571 net.cpp:150] Setting up inception_4d/3x3_reduce
I1126 19:48:42.649372 20571 net.cpp:157] Top shape: 64 144 14 14 (1806336)
I1126 19:48:42.649376 20571 net.cpp:165] Memory required for data: 2984137476
I1126 19:48:42.649382 20571 layer_factory.hpp:76] Creating layer inception_4d/relu_3x3_reduce
I1126 19:48:42.649389 20571 net.cpp:106] Creating Layer inception_4d/relu_3x3_reduce
I1126 19:48:42.649394 20571 net.cpp:454] inception_4d/relu_3x3_reduce <- inception_4d/3x3_reduce
I1126 19:48:42.649399 20571 net.cpp:397] inception_4d/relu_3x3_reduce -> inception_4d/3x3_reduce (in-place)
I1126 19:48:42.649580 20571 net.cpp:150] Setting up inception_4d/relu_3x3_reduce
I1126 19:48:42.649592 20571 net.cpp:157] Top shape: 64 144 14 14 (1806336)
I1126 19:48:42.649595 20571 net.cpp:165] Memory required for data: 2991362820
I1126 19:48:42.649598 20571 layer_factory.hpp:76] Creating layer inception_4d/3x3
I1126 19:48:42.649608 20571 net.cpp:106] Creating Layer inception_4d/3x3
I1126 19:48:42.649612 20571 net.cpp:454] inception_4d/3x3 <- inception_4d/3x3_reduce
I1126 19:48:42.649618 20571 net.cpp:411] inception_4d/3x3 -> inception_4d/3x3
I1126 19:48:42.653589 20571 net.cpp:150] Setting up inception_4d/3x3
I1126 19:48:42.653604 20571 net.cpp:157] Top shape: 64 288 14 14 (3612672)
I1126 19:48:42.653609 20571 net.cpp:165] Memory required for data: 3005813508
I1126 19:48:42.653615 20571 layer_factory.hpp:76] Creating layer inception_4d/relu_3x3
I1126 19:48:42.653622 20571 net.cpp:106] Creating Layer inception_4d/relu_3x3
I1126 19:48:42.653627 20571 net.cpp:454] inception_4d/relu_3x3 <- inception_4d/3x3
I1126 19:48:42.653632 20571 net.cpp:397] inception_4d/relu_3x3 -> inception_4d/3x3 (in-place)
I1126 19:48:42.653946 20571 net.cpp:150] Setting up inception_4d/relu_3x3
I1126 19:48:42.653960 20571 net.cpp:157] Top shape: 64 288 14 14 (3612672)
I1126 19:48:42.653964 20571 net.cpp:165] Memory required for data: 3020264196
I1126 19:48:42.653967 20571 layer_factory.hpp:76] Creating layer inception_4d/5x5_reduce
I1126 19:48:42.653978 20571 net.cpp:106] Creating Layer inception_4d/5x5_reduce
I1126 19:48:42.653982 20571 net.cpp:454] inception_4d/5x5_reduce <- inception_4c/output_inception_4c/output_0_split_2
I1126 19:48:42.653990 20571 net.cpp:411] inception_4d/5x5_reduce -> inception_4d/5x5_reduce
I1126 19:48:42.655050 20571 net.cpp:150] Setting up inception_4d/5x5_reduce
I1126 19:48:42.655066 20571 net.cpp:157] Top shape: 64 32 14 14 (401408)
I1126 19:48:42.655068 20571 net.cpp:165] Memory required for data: 3021869828
I1126 19:48:42.655076 20571 layer_factory.hpp:76] Creating layer inception_4d/relu_5x5_reduce
I1126 19:48:42.655082 20571 net.cpp:106] Creating Layer inception_4d/relu_5x5_reduce
I1126 19:48:42.655087 20571 net.cpp:454] inception_4d/relu_5x5_reduce <- inception_4d/5x5_reduce
I1126 19:48:42.655094 20571 net.cpp:397] inception_4d/relu_5x5_reduce -> inception_4d/5x5_reduce (in-place)
I1126 19:48:42.655411 20571 net.cpp:150] Setting up inception_4d/relu_5x5_reduce
I1126 19:48:42.655424 20571 net.cpp:157] Top shape: 64 32 14 14 (401408)
I1126 19:48:42.655431 20571 net.cpp:165] Memory required for data: 3023475460
I1126 19:48:42.655436 20571 layer_factory.hpp:76] Creating layer inception_4d/5x5
I1126 19:48:42.655444 20571 net.cpp:106] Creating Layer inception_4d/5x5
I1126 19:48:42.655448 20571 net.cpp:454] inception_4d/5x5 <- inception_4d/5x5_reduce
I1126 19:48:42.655454 20571 net.cpp:411] inception_4d/5x5 -> inception_4d/5x5
I1126 19:48:42.656888 20571 net.cpp:150] Setting up inception_4d/5x5
I1126 19:48:42.656903 20571 net.cpp:157] Top shape: 64 64 14 14 (802816)
I1126 19:48:42.656908 20571 net.cpp:165] Memory required for data: 3026686724
I1126 19:48:42.656913 20571 layer_factory.hpp:76] Creating layer inception_4d/relu_5x5
I1126 19:48:42.656919 20571 net.cpp:106] Creating Layer inception_4d/relu_5x5
I1126 19:48:42.656924 20571 net.cpp:454] inception_4d/relu_5x5 <- inception_4d/5x5
I1126 19:48:42.656929 20571 net.cpp:397] inception_4d/relu_5x5 -> inception_4d/5x5 (in-place)
I1126 19:48:42.657105 20571 net.cpp:150] Setting up inception_4d/relu_5x5
I1126 19:48:42.657116 20571 net.cpp:157] Top shape: 64 64 14 14 (802816)
I1126 19:48:42.657120 20571 net.cpp:165] Memory required for data: 3029897988
I1126 19:48:42.657124 20571 layer_factory.hpp:76] Creating layer inception_4d/pool
I1126 19:48:42.657130 20571 net.cpp:106] Creating Layer inception_4d/pool
I1126 19:48:42.657133 20571 net.cpp:454] inception_4d/pool <- inception_4c/output_inception_4c/output_0_split_3
I1126 19:48:42.657138 20571 net.cpp:411] inception_4d/pool -> inception_4d/pool
I1126 19:48:42.657496 20571 net.cpp:150] Setting up inception_4d/pool
I1126 19:48:42.657510 20571 net.cpp:157] Top shape: 64 512 14 14 (6422528)
I1126 19:48:42.657515 20571 net.cpp:165] Memory required for data: 3055588100
I1126 19:48:42.657518 20571 layer_factory.hpp:76] Creating layer inception_4d/pool_proj
I1126 19:48:42.657526 20571 net.cpp:106] Creating Layer inception_4d/pool_proj
I1126 19:48:42.657529 20571 net.cpp:454] inception_4d/pool_proj <- inception_4d/pool
I1126 19:48:42.657537 20571 net.cpp:411] inception_4d/pool_proj -> inception_4d/pool_proj
I1126 19:48:42.658836 20571 net.cpp:150] Setting up inception_4d/pool_proj
I1126 19:48:42.658851 20571 net.cpp:157] Top shape: 64 64 14 14 (802816)
I1126 19:48:42.658855 20571 net.cpp:165] Memory required for data: 3058799364
I1126 19:48:42.658864 20571 layer_factory.hpp:76] Creating layer inception_4d/relu_pool_proj
I1126 19:48:42.658869 20571 net.cpp:106] Creating Layer inception_4d/relu_pool_proj
I1126 19:48:42.658874 20571 net.cpp:454] inception_4d/relu_pool_proj <- inception_4d/pool_proj
I1126 19:48:42.658881 20571 net.cpp:397] inception_4d/relu_pool_proj -> inception_4d/pool_proj (in-place)
I1126 19:48:42.659059 20571 net.cpp:150] Setting up inception_4d/relu_pool_proj
I1126 19:48:42.659070 20571 net.cpp:157] Top shape: 64 64 14 14 (802816)
I1126 19:48:42.659072 20571 net.cpp:165] Memory required for data: 3062010628
I1126 19:48:42.659076 20571 layer_factory.hpp:76] Creating layer inception_4d/output
I1126 19:48:42.659081 20571 net.cpp:106] Creating Layer inception_4d/output
I1126 19:48:42.659085 20571 net.cpp:454] inception_4d/output <- inception_4d/1x1
I1126 19:48:42.659090 20571 net.cpp:454] inception_4d/output <- inception_4d/3x3
I1126 19:48:42.659093 20571 net.cpp:454] inception_4d/output <- inception_4d/5x5
I1126 19:48:42.659097 20571 net.cpp:454] inception_4d/output <- inception_4d/pool_proj
I1126 19:48:42.659102 20571 net.cpp:411] inception_4d/output -> inception_4d/output
I1126 19:48:42.659139 20571 net.cpp:150] Setting up inception_4d/output
I1126 19:48:42.659145 20571 net.cpp:157] Top shape: 64 528 14 14 (6623232)
I1126 19:48:42.659148 20571 net.cpp:165] Memory required for data: 3088503556
I1126 19:48:42.659152 20571 layer_factory.hpp:76] Creating layer inception_4d/output_inception_4d/output_0_split
I1126 19:48:42.659157 20571 net.cpp:106] Creating Layer inception_4d/output_inception_4d/output_0_split
I1126 19:48:42.659160 20571 net.cpp:454] inception_4d/output_inception_4d/output_0_split <- inception_4d/output
I1126 19:48:42.659165 20571 net.cpp:411] inception_4d/output_inception_4d/output_0_split -> inception_4d/output_inception_4d/output_0_split_0
I1126 19:48:42.659173 20571 net.cpp:411] inception_4d/output_inception_4d/output_0_split -> inception_4d/output_inception_4d/output_0_split_1
I1126 19:48:42.659178 20571 net.cpp:411] inception_4d/output_inception_4d/output_0_split -> inception_4d/output_inception_4d/output_0_split_2
I1126 19:48:42.659184 20571 net.cpp:411] inception_4d/output_inception_4d/output_0_split -> inception_4d/output_inception_4d/output_0_split_3
I1126 19:48:42.659189 20571 net.cpp:411] inception_4d/output_inception_4d/output_0_split -> inception_4d/output_inception_4d/output_0_split_4
I1126 19:48:42.659276 20571 net.cpp:150] Setting up inception_4d/output_inception_4d/output_0_split
I1126 19:48:42.659286 20571 net.cpp:157] Top shape: 64 528 14 14 (6623232)
I1126 19:48:42.659289 20571 net.cpp:157] Top shape: 64 528 14 14 (6623232)
I1126 19:48:42.659293 20571 net.cpp:157] Top shape: 64 528 14 14 (6623232)
I1126 19:48:42.659297 20571 net.cpp:157] Top shape: 64 528 14 14 (6623232)
I1126 19:48:42.659301 20571 net.cpp:157] Top shape: 64 528 14 14 (6623232)
I1126 19:48:42.659303 20571 net.cpp:165] Memory required for data: 3220968196
I1126 19:48:42.659307 20571 layer_factory.hpp:76] Creating layer loss2/ave_pool
I1126 19:48:42.659312 20571 net.cpp:106] Creating Layer loss2/ave_pool
I1126 19:48:42.659315 20571 net.cpp:454] loss2/ave_pool <- inception_4d/output_inception_4d/output_0_split_0
I1126 19:48:42.659320 20571 net.cpp:411] loss2/ave_pool -> loss2/ave_pool
I1126 19:48:42.659672 20571 net.cpp:150] Setting up loss2/ave_pool
I1126 19:48:42.659685 20571 net.cpp:157] Top shape: 64 528 4 4 (540672)
I1126 19:48:42.659689 20571 net.cpp:165] Memory required for data: 3223130884
I1126 19:48:42.659693 20571 layer_factory.hpp:76] Creating layer loss2/conv
I1126 19:48:42.659703 20571 net.cpp:106] Creating Layer loss2/conv
I1126 19:48:42.659708 20571 net.cpp:454] loss2/conv <- loss2/ave_pool
I1126 19:48:42.659713 20571 net.cpp:411] loss2/conv -> loss2/conv
I1126 19:48:42.661545 20571 net.cpp:150] Setting up loss2/conv
I1126 19:48:42.661561 20571 net.cpp:157] Top shape: 64 128 4 4 (131072)
I1126 19:48:42.661564 20571 net.cpp:165] Memory required for data: 3223655172
I1126 19:48:42.661571 20571 layer_factory.hpp:76] Creating layer loss2/relu_conv
I1126 19:48:42.661578 20571 net.cpp:106] Creating Layer loss2/relu_conv
I1126 19:48:42.661583 20571 net.cpp:454] loss2/relu_conv <- loss2/conv
I1126 19:48:42.661588 20571 net.cpp:397] loss2/relu_conv -> loss2/conv (in-place)
I1126 19:48:42.662039 20571 net.cpp:150] Setting up loss2/relu_conv
I1126 19:48:42.662052 20571 net.cpp:157] Top shape: 64 128 4 4 (131072)
I1126 19:48:42.662056 20571 net.cpp:165] Memory required for data: 3224179460
I1126 19:48:42.662060 20571 layer_factory.hpp:76] Creating layer loss2/fc
I1126 19:48:42.662070 20571 net.cpp:106] Creating Layer loss2/fc
I1126 19:48:42.662073 20571 net.cpp:454] loss2/fc <- loss2/conv
I1126 19:48:42.662080 20571 net.cpp:411] loss2/fc -> loss2/fc
I1126 19:48:42.677567 20571 net.cpp:150] Setting up loss2/fc
I1126 19:48:42.677582 20571 net.cpp:157] Top shape: 64 1024 (65536)
I1126 19:48:42.677587 20571 net.cpp:165] Memory required for data: 3224441604
I1126 19:48:42.677592 20571 layer_factory.hpp:76] Creating layer loss2/relu_fc
I1126 19:48:42.677598 20571 net.cpp:106] Creating Layer loss2/relu_fc
I1126 19:48:42.677603 20571 net.cpp:454] loss2/relu_fc <- loss2/fc
I1126 19:48:42.677608 20571 net.cpp:397] loss2/relu_fc -> loss2/fc (in-place)
I1126 19:48:42.677809 20571 net.cpp:150] Setting up loss2/relu_fc
I1126 19:48:42.677820 20571 net.cpp:157] Top shape: 64 1024 (65536)
I1126 19:48:42.677824 20571 net.cpp:165] Memory required for data: 3224703748
I1126 19:48:42.677827 20571 layer_factory.hpp:76] Creating layer loss2/drop_fc
I1126 19:48:42.677836 20571 net.cpp:106] Creating Layer loss2/drop_fc
I1126 19:48:42.677840 20571 net.cpp:454] loss2/drop_fc <- loss2/fc
I1126 19:48:42.677845 20571 net.cpp:397] loss2/drop_fc -> loss2/fc (in-place)
I1126 19:48:42.677884 20571 net.cpp:150] Setting up loss2/drop_fc
I1126 19:48:42.677892 20571 net.cpp:157] Top shape: 64 1024 (65536)
I1126 19:48:42.677896 20571 net.cpp:165] Memory required for data: 3224965892
I1126 19:48:42.677898 20571 layer_factory.hpp:76] Creating layer loss2/classifier-attribute
I1126 19:48:42.677906 20571 net.cpp:106] Creating Layer loss2/classifier-attribute
I1126 19:48:42.677909 20571 net.cpp:454] loss2/classifier-attribute <- loss2/fc
I1126 19:48:42.677916 20571 net.cpp:411] loss2/classifier-attribute -> loss2/classifier-attribute
I1126 19:48:42.755136 20571 net.cpp:150] Setting up loss2/classifier-attribute
I1126 19:48:42.755162 20571 net.cpp:157] Top shape: 64 9999 (639936)
I1126 19:48:42.755165 20571 net.cpp:165] Memory required for data: 3227525636
I1126 19:48:42.755173 20571 layer_factory.hpp:76] Creating layer loss2/loss
I1126 19:48:42.755184 20571 net.cpp:106] Creating Layer loss2/loss
I1126 19:48:42.755192 20571 net.cpp:454] loss2/loss <- loss2/classifier-attribute
I1126 19:48:42.755198 20571 net.cpp:454] loss2/loss <- label_data_1_split_1
I1126 19:48:42.755205 20571 net.cpp:411] loss2/loss -> loss2/loss1
I1126 19:48:42.755216 20571 layer_factory.hpp:76] Creating layer loss2/loss
I1126 19:48:42.757026 20571 net.cpp:150] Setting up loss2/loss
I1126 19:48:42.757041 20571 net.cpp:157] Top shape: (1)
I1126 19:48:42.757045 20571 net.cpp:160]     with loss weight 0.3
I1126 19:48:42.757056 20571 net.cpp:165] Memory required for data: 3227525640
I1126 19:48:42.757061 20571 layer_factory.hpp:76] Creating layer inception_4e/1x1
I1126 19:48:42.757072 20571 net.cpp:106] Creating Layer inception_4e/1x1
I1126 19:48:42.757078 20571 net.cpp:454] inception_4e/1x1 <- inception_4d/output_inception_4d/output_0_split_1
I1126 19:48:42.757084 20571 net.cpp:411] inception_4e/1x1 -> inception_4e/1x1
I1126 19:48:42.759106 20571 net.cpp:150] Setting up inception_4e/1x1
I1126 19:48:42.759124 20571 net.cpp:157] Top shape: 64 256 14 14 (3211264)
I1126 19:48:42.759127 20571 net.cpp:165] Memory required for data: 3240370696
I1126 19:48:42.759133 20571 layer_factory.hpp:76] Creating layer inception_4e/relu_1x1
I1126 19:48:42.759140 20571 net.cpp:106] Creating Layer inception_4e/relu_1x1
I1126 19:48:42.759145 20571 net.cpp:454] inception_4e/relu_1x1 <- inception_4e/1x1
I1126 19:48:42.759150 20571 net.cpp:397] inception_4e/relu_1x1 -> inception_4e/1x1 (in-place)
I1126 19:48:42.759331 20571 net.cpp:150] Setting up inception_4e/relu_1x1
I1126 19:48:42.759343 20571 net.cpp:157] Top shape: 64 256 14 14 (3211264)
I1126 19:48:42.759346 20571 net.cpp:165] Memory required for data: 3253215752
I1126 19:48:42.759351 20571 layer_factory.hpp:76] Creating layer inception_4e/3x3_reduce
I1126 19:48:42.759358 20571 net.cpp:106] Creating Layer inception_4e/3x3_reduce
I1126 19:48:42.759362 20571 net.cpp:454] inception_4e/3x3_reduce <- inception_4d/output_inception_4d/output_0_split_2
I1126 19:48:42.759371 20571 net.cpp:411] inception_4e/3x3_reduce -> inception_4e/3x3_reduce
I1126 19:48:42.761469 20571 net.cpp:150] Setting up inception_4e/3x3_reduce
I1126 19:48:42.761484 20571 net.cpp:157] Top shape: 64 160 14 14 (2007040)
I1126 19:48:42.761488 20571 net.cpp:165] Memory required for data: 3261243912
I1126 19:48:42.761495 20571 layer_factory.hpp:76] Creating layer inception_4e/relu_3x3_reduce
I1126 19:48:42.761503 20571 net.cpp:106] Creating Layer inception_4e/relu_3x3_reduce
I1126 19:48:42.761507 20571 net.cpp:454] inception_4e/relu_3x3_reduce <- inception_4e/3x3_reduce
I1126 19:48:42.761513 20571 net.cpp:397] inception_4e/relu_3x3_reduce -> inception_4e/3x3_reduce (in-place)
I1126 19:48:42.761865 20571 net.cpp:150] Setting up inception_4e/relu_3x3_reduce
I1126 19:48:42.761879 20571 net.cpp:157] Top shape: 64 160 14 14 (2007040)
I1126 19:48:42.761883 20571 net.cpp:165] Memory required for data: 3269272072
I1126 19:48:42.761886 20571 layer_factory.hpp:76] Creating layer inception_4e/3x3
I1126 19:48:42.761895 20571 net.cpp:106] Creating Layer inception_4e/3x3
I1126 19:48:42.761900 20571 net.cpp:454] inception_4e/3x3 <- inception_4e/3x3_reduce
I1126 19:48:42.761907 20571 net.cpp:411] inception_4e/3x3 -> inception_4e/3x3
I1126 19:48:42.766441 20571 net.cpp:150] Setting up inception_4e/3x3
I1126 19:48:42.766456 20571 net.cpp:157] Top shape: 64 320 14 14 (4014080)
I1126 19:48:42.766460 20571 net.cpp:165] Memory required for data: 3285328392
I1126 19:48:42.766466 20571 layer_factory.hpp:76] Creating layer inception_4e/relu_3x3
I1126 19:48:42.766472 20571 net.cpp:106] Creating Layer inception_4e/relu_3x3
I1126 19:48:42.766476 20571 net.cpp:454] inception_4e/relu_3x3 <- inception_4e/3x3
I1126 19:48:42.766484 20571 net.cpp:397] inception_4e/relu_3x3 -> inception_4e/3x3 (in-place)
I1126 19:48:42.766804 20571 net.cpp:150] Setting up inception_4e/relu_3x3
I1126 19:48:42.766819 20571 net.cpp:157] Top shape: 64 320 14 14 (4014080)
I1126 19:48:42.766823 20571 net.cpp:165] Memory required for data: 3301384712
I1126 19:48:42.766825 20571 layer_factory.hpp:76] Creating layer inception_4e/5x5_reduce
I1126 19:48:42.766835 20571 net.cpp:106] Creating Layer inception_4e/5x5_reduce
I1126 19:48:42.766839 20571 net.cpp:454] inception_4e/5x5_reduce <- inception_4d/output_inception_4d/output_0_split_3
I1126 19:48:42.766849 20571 net.cpp:411] inception_4e/5x5_reduce -> inception_4e/5x5_reduce
I1126 19:48:42.768093 20571 net.cpp:150] Setting up inception_4e/5x5_reduce
I1126 19:48:42.768108 20571 net.cpp:157] Top shape: 64 32 14 14 (401408)
I1126 19:48:42.768111 20571 net.cpp:165] Memory required for data: 3302990344
I1126 19:48:42.768118 20571 layer_factory.hpp:76] Creating layer inception_4e/relu_5x5_reduce
I1126 19:48:42.768126 20571 net.cpp:106] Creating Layer inception_4e/relu_5x5_reduce
I1126 19:48:42.768131 20571 net.cpp:454] inception_4e/relu_5x5_reduce <- inception_4e/5x5_reduce
I1126 19:48:42.768136 20571 net.cpp:397] inception_4e/relu_5x5_reduce -> inception_4e/5x5_reduce (in-place)
I1126 19:48:42.768316 20571 net.cpp:150] Setting up inception_4e/relu_5x5_reduce
I1126 19:48:42.768327 20571 net.cpp:157] Top shape: 64 32 14 14 (401408)
I1126 19:48:42.768331 20571 net.cpp:165] Memory required for data: 3304595976
I1126 19:48:42.768334 20571 layer_factory.hpp:76] Creating layer inception_4e/5x5
I1126 19:48:42.768360 20571 net.cpp:106] Creating Layer inception_4e/5x5
I1126 19:48:42.768364 20571 net.cpp:454] inception_4e/5x5 <- inception_4e/5x5_reduce
I1126 19:48:42.768370 20571 net.cpp:411] inception_4e/5x5 -> inception_4e/5x5
I1126 19:48:42.770158 20571 net.cpp:150] Setting up inception_4e/5x5
I1126 19:48:42.770172 20571 net.cpp:157] Top shape: 64 128 14 14 (1605632)
I1126 19:48:42.770176 20571 net.cpp:165] Memory required for data: 3311018504
I1126 19:48:42.770184 20571 layer_factory.hpp:76] Creating layer inception_4e/relu_5x5
I1126 19:48:42.770190 20571 net.cpp:106] Creating Layer inception_4e/relu_5x5
I1126 19:48:42.770195 20571 net.cpp:454] inception_4e/relu_5x5 <- inception_4e/5x5
I1126 19:48:42.770201 20571 net.cpp:397] inception_4e/relu_5x5 -> inception_4e/5x5 (in-place)
I1126 19:48:42.770534 20571 net.cpp:150] Setting up inception_4e/relu_5x5
I1126 19:48:42.770547 20571 net.cpp:157] Top shape: 64 128 14 14 (1605632)
I1126 19:48:42.770551 20571 net.cpp:165] Memory required for data: 3317441032
I1126 19:48:42.770555 20571 layer_factory.hpp:76] Creating layer inception_4e/pool
I1126 19:48:42.770565 20571 net.cpp:106] Creating Layer inception_4e/pool
I1126 19:48:42.770568 20571 net.cpp:454] inception_4e/pool <- inception_4d/output_inception_4d/output_0_split_4
I1126 19:48:42.770576 20571 net.cpp:411] inception_4e/pool -> inception_4e/pool
I1126 19:48:42.770799 20571 net.cpp:150] Setting up inception_4e/pool
I1126 19:48:42.770812 20571 net.cpp:157] Top shape: 64 528 14 14 (6623232)
I1126 19:48:42.770814 20571 net.cpp:165] Memory required for data: 3343933960
I1126 19:48:42.770818 20571 layer_factory.hpp:76] Creating layer inception_4e/pool_proj
I1126 19:48:42.770826 20571 net.cpp:106] Creating Layer inception_4e/pool_proj
I1126 19:48:42.770831 20571 net.cpp:454] inception_4e/pool_proj <- inception_4e/pool
I1126 19:48:42.770838 20571 net.cpp:411] inception_4e/pool_proj -> inception_4e/pool_proj
I1126 19:48:42.772404 20571 net.cpp:150] Setting up inception_4e/pool_proj
I1126 19:48:42.772419 20571 net.cpp:157] Top shape: 64 128 14 14 (1605632)
I1126 19:48:42.772423 20571 net.cpp:165] Memory required for data: 3350356488
I1126 19:48:42.772430 20571 layer_factory.hpp:76] Creating layer inception_4e/relu_pool_proj
I1126 19:48:42.772435 20571 net.cpp:106] Creating Layer inception_4e/relu_pool_proj
I1126 19:48:42.772441 20571 net.cpp:454] inception_4e/relu_pool_proj <- inception_4e/pool_proj
I1126 19:48:42.772447 20571 net.cpp:397] inception_4e/relu_pool_proj -> inception_4e/pool_proj (in-place)
I1126 19:48:42.772774 20571 net.cpp:150] Setting up inception_4e/relu_pool_proj
I1126 19:48:42.772789 20571 net.cpp:157] Top shape: 64 128 14 14 (1605632)
I1126 19:48:42.772792 20571 net.cpp:165] Memory required for data: 3356779016
I1126 19:48:42.772795 20571 layer_factory.hpp:76] Creating layer inception_4e/output
I1126 19:48:42.772804 20571 net.cpp:106] Creating Layer inception_4e/output
I1126 19:48:42.772807 20571 net.cpp:454] inception_4e/output <- inception_4e/1x1
I1126 19:48:42.772812 20571 net.cpp:454] inception_4e/output <- inception_4e/3x3
I1126 19:48:42.772816 20571 net.cpp:454] inception_4e/output <- inception_4e/5x5
I1126 19:48:42.772820 20571 net.cpp:454] inception_4e/output <- inception_4e/pool_proj
I1126 19:48:42.772825 20571 net.cpp:411] inception_4e/output -> inception_4e/output
I1126 19:48:42.772864 20571 net.cpp:150] Setting up inception_4e/output
I1126 19:48:42.772871 20571 net.cpp:157] Top shape: 64 832 14 14 (10436608)
I1126 19:48:42.772873 20571 net.cpp:165] Memory required for data: 3398525448
I1126 19:48:42.772876 20571 layer_factory.hpp:76] Creating layer pool4/3x3_s2
I1126 19:48:42.772883 20571 net.cpp:106] Creating Layer pool4/3x3_s2
I1126 19:48:42.772887 20571 net.cpp:454] pool4/3x3_s2 <- inception_4e/output
I1126 19:48:42.772893 20571 net.cpp:411] pool4/3x3_s2 -> pool4/3x3_s2
I1126 19:48:42.773121 20571 net.cpp:150] Setting up pool4/3x3_s2
I1126 19:48:42.773134 20571 net.cpp:157] Top shape: 64 832 7 7 (2609152)
I1126 19:48:42.773138 20571 net.cpp:165] Memory required for data: 3408962056
I1126 19:48:42.773140 20571 layer_factory.hpp:76] Creating layer pool4/3x3_s2_pool4/3x3_s2_0_split
I1126 19:48:42.773146 20571 net.cpp:106] Creating Layer pool4/3x3_s2_pool4/3x3_s2_0_split
I1126 19:48:42.773150 20571 net.cpp:454] pool4/3x3_s2_pool4/3x3_s2_0_split <- pool4/3x3_s2
I1126 19:48:42.773159 20571 net.cpp:411] pool4/3x3_s2_pool4/3x3_s2_0_split -> pool4/3x3_s2_pool4/3x3_s2_0_split_0
I1126 19:48:42.773166 20571 net.cpp:411] pool4/3x3_s2_pool4/3x3_s2_0_split -> pool4/3x3_s2_pool4/3x3_s2_0_split_1
I1126 19:48:42.773171 20571 net.cpp:411] pool4/3x3_s2_pool4/3x3_s2_0_split -> pool4/3x3_s2_pool4/3x3_s2_0_split_2
I1126 19:48:42.773177 20571 net.cpp:411] pool4/3x3_s2_pool4/3x3_s2_0_split -> pool4/3x3_s2_pool4/3x3_s2_0_split_3
I1126 19:48:42.773257 20571 net.cpp:150] Setting up pool4/3x3_s2_pool4/3x3_s2_0_split
I1126 19:48:42.773264 20571 net.cpp:157] Top shape: 64 832 7 7 (2609152)
I1126 19:48:42.773268 20571 net.cpp:157] Top shape: 64 832 7 7 (2609152)
I1126 19:48:42.773272 20571 net.cpp:157] Top shape: 64 832 7 7 (2609152)
I1126 19:48:42.773275 20571 net.cpp:157] Top shape: 64 832 7 7 (2609152)
I1126 19:48:42.773278 20571 net.cpp:165] Memory required for data: 3450708488
I1126 19:48:42.773282 20571 layer_factory.hpp:76] Creating layer inception_5a/1x1
I1126 19:48:42.773289 20571 net.cpp:106] Creating Layer inception_5a/1x1
I1126 19:48:42.773293 20571 net.cpp:454] inception_5a/1x1 <- pool4/3x3_s2_pool4/3x3_s2_0_split_0
I1126 19:48:42.773298 20571 net.cpp:411] inception_5a/1x1 -> inception_5a/1x1
I1126 19:48:42.776199 20571 net.cpp:150] Setting up inception_5a/1x1
I1126 19:48:42.776214 20571 net.cpp:157] Top shape: 64 256 7 7 (802816)
I1126 19:48:42.776218 20571 net.cpp:165] Memory required for data: 3453919752
I1126 19:48:42.776226 20571 layer_factory.hpp:76] Creating layer inception_5a/relu_1x1
I1126 19:48:42.776232 20571 net.cpp:106] Creating Layer inception_5a/relu_1x1
I1126 19:48:42.776237 20571 net.cpp:454] inception_5a/relu_1x1 <- inception_5a/1x1
I1126 19:48:42.776242 20571 net.cpp:397] inception_5a/relu_1x1 -> inception_5a/1x1 (in-place)
I1126 19:48:42.776556 20571 net.cpp:150] Setting up inception_5a/relu_1x1
I1126 19:48:42.776569 20571 net.cpp:157] Top shape: 64 256 7 7 (802816)
I1126 19:48:42.776573 20571 net.cpp:165] Memory required for data: 3457131016
I1126 19:48:42.776576 20571 layer_factory.hpp:76] Creating layer inception_5a/3x3_reduce
I1126 19:48:42.776588 20571 net.cpp:106] Creating Layer inception_5a/3x3_reduce
I1126 19:48:42.776592 20571 net.cpp:454] inception_5a/3x3_reduce <- pool4/3x3_s2_pool4/3x3_s2_0_split_1
I1126 19:48:42.776599 20571 net.cpp:411] inception_5a/3x3_reduce -> inception_5a/3x3_reduce
I1126 19:48:42.779026 20571 net.cpp:150] Setting up inception_5a/3x3_reduce
I1126 19:48:42.779042 20571 net.cpp:157] Top shape: 64 160 7 7 (501760)
I1126 19:48:42.779044 20571 net.cpp:165] Memory required for data: 3459138056
I1126 19:48:42.779052 20571 layer_factory.hpp:76] Creating layer inception_5a/relu_3x3_reduce
I1126 19:48:42.779058 20571 net.cpp:106] Creating Layer inception_5a/relu_3x3_reduce
I1126 19:48:42.779063 20571 net.cpp:454] inception_5a/relu_3x3_reduce <- inception_5a/3x3_reduce
I1126 19:48:42.779068 20571 net.cpp:397] inception_5a/relu_3x3_reduce -> inception_5a/3x3_reduce (in-place)
I1126 19:48:42.779400 20571 net.cpp:150] Setting up inception_5a/relu_3x3_reduce
I1126 19:48:42.779414 20571 net.cpp:157] Top shape: 64 160 7 7 (501760)
I1126 19:48:42.779417 20571 net.cpp:165] Memory required for data: 3461145096
I1126 19:48:42.779422 20571 layer_factory.hpp:76] Creating layer inception_5a/3x3
I1126 19:48:42.779433 20571 net.cpp:106] Creating Layer inception_5a/3x3
I1126 19:48:42.779436 20571 net.cpp:454] inception_5a/3x3 <- inception_5a/3x3_reduce
I1126 19:48:42.779443 20571 net.cpp:411] inception_5a/3x3 -> inception_5a/3x3
I1126 19:48:42.784127 20571 net.cpp:150] Setting up inception_5a/3x3
I1126 19:48:42.784143 20571 net.cpp:157] Top shape: 64 320 7 7 (1003520)
I1126 19:48:42.784147 20571 net.cpp:165] Memory required for data: 3465159176
I1126 19:48:42.784153 20571 layer_factory.hpp:76] Creating layer inception_5a/relu_3x3
I1126 19:48:42.784160 20571 net.cpp:106] Creating Layer inception_5a/relu_3x3
I1126 19:48:42.784165 20571 net.cpp:454] inception_5a/relu_3x3 <- inception_5a/3x3
I1126 19:48:42.784171 20571 net.cpp:397] inception_5a/relu_3x3 -> inception_5a/3x3 (in-place)
I1126 19:48:42.784359 20571 net.cpp:150] Setting up inception_5a/relu_3x3
I1126 19:48:42.784371 20571 net.cpp:157] Top shape: 64 320 7 7 (1003520)
I1126 19:48:42.784374 20571 net.cpp:165] Memory required for data: 3469173256
I1126 19:48:42.784378 20571 layer_factory.hpp:76] Creating layer inception_5a/5x5_reduce
I1126 19:48:42.784387 20571 net.cpp:106] Creating Layer inception_5a/5x5_reduce
I1126 19:48:42.784392 20571 net.cpp:454] inception_5a/5x5_reduce <- pool4/3x3_s2_pool4/3x3_s2_0_split_2
I1126 19:48:42.784399 20571 net.cpp:411] inception_5a/5x5_reduce -> inception_5a/5x5_reduce
I1126 19:48:42.785742 20571 net.cpp:150] Setting up inception_5a/5x5_reduce
I1126 19:48:42.785756 20571 net.cpp:157] Top shape: 64 32 7 7 (100352)
I1126 19:48:42.785759 20571 net.cpp:165] Memory required for data: 3469574664
I1126 19:48:42.785766 20571 layer_factory.hpp:76] Creating layer inception_5a/relu_5x5_reduce
I1126 19:48:42.785773 20571 net.cpp:106] Creating Layer inception_5a/relu_5x5_reduce
I1126 19:48:42.785778 20571 net.cpp:454] inception_5a/relu_5x5_reduce <- inception_5a/5x5_reduce
I1126 19:48:42.785785 20571 net.cpp:397] inception_5a/relu_5x5_reduce -> inception_5a/5x5_reduce (in-place)
I1126 19:48:42.785979 20571 net.cpp:150] Setting up inception_5a/relu_5x5_reduce
I1126 19:48:42.785990 20571 net.cpp:157] Top shape: 64 32 7 7 (100352)
I1126 19:48:42.785994 20571 net.cpp:165] Memory required for data: 3469976072
I1126 19:48:42.785997 20571 layer_factory.hpp:76] Creating layer inception_5a/5x5
I1126 19:48:42.786006 20571 net.cpp:106] Creating Layer inception_5a/5x5
I1126 19:48:42.786011 20571 net.cpp:454] inception_5a/5x5 <- inception_5a/5x5_reduce
I1126 19:48:42.786016 20571 net.cpp:411] inception_5a/5x5 -> inception_5a/5x5
I1126 19:48:42.787807 20571 net.cpp:150] Setting up inception_5a/5x5
I1126 19:48:42.787822 20571 net.cpp:157] Top shape: 64 128 7 7 (401408)
I1126 19:48:42.787825 20571 net.cpp:165] Memory required for data: 3471581704
I1126 19:48:42.787832 20571 layer_factory.hpp:76] Creating layer inception_5a/relu_5x5
I1126 19:48:42.787837 20571 net.cpp:106] Creating Layer inception_5a/relu_5x5
I1126 19:48:42.787842 20571 net.cpp:454] inception_5a/relu_5x5 <- inception_5a/5x5
I1126 19:48:42.787849 20571 net.cpp:397] inception_5a/relu_5x5 -> inception_5a/5x5 (in-place)
I1126 19:48:42.788193 20571 net.cpp:150] Setting up inception_5a/relu_5x5
I1126 19:48:42.788208 20571 net.cpp:157] Top shape: 64 128 7 7 (401408)
I1126 19:48:42.788213 20571 net.cpp:165] Memory required for data: 3473187336
I1126 19:48:42.788215 20571 layer_factory.hpp:76] Creating layer inception_5a/pool
I1126 19:48:42.788223 20571 net.cpp:106] Creating Layer inception_5a/pool
I1126 19:48:42.788228 20571 net.cpp:454] inception_5a/pool <- pool4/3x3_s2_pool4/3x3_s2_0_split_3
I1126 19:48:42.788233 20571 net.cpp:411] inception_5a/pool -> inception_5a/pool
I1126 19:48:42.788460 20571 net.cpp:150] Setting up inception_5a/pool
I1126 19:48:42.788471 20571 net.cpp:157] Top shape: 64 832 7 7 (2609152)
I1126 19:48:42.788475 20571 net.cpp:165] Memory required for data: 3483623944
I1126 19:48:42.788477 20571 layer_factory.hpp:76] Creating layer inception_5a/pool_proj
I1126 19:48:42.788487 20571 net.cpp:106] Creating Layer inception_5a/pool_proj
I1126 19:48:42.788491 20571 net.cpp:454] inception_5a/pool_proj <- inception_5a/pool
I1126 19:48:42.788497 20571 net.cpp:411] inception_5a/pool_proj -> inception_5a/pool_proj
I1126 19:48:42.790802 20571 net.cpp:150] Setting up inception_5a/pool_proj
I1126 19:48:42.790817 20571 net.cpp:157] Top shape: 64 128 7 7 (401408)
I1126 19:48:42.790820 20571 net.cpp:165] Memory required for data: 3485229576
I1126 19:48:42.790827 20571 layer_factory.hpp:76] Creating layer inception_5a/relu_pool_proj
I1126 19:48:42.790834 20571 net.cpp:106] Creating Layer inception_5a/relu_pool_proj
I1126 19:48:42.790839 20571 net.cpp:454] inception_5a/relu_pool_proj <- inception_5a/pool_proj
I1126 19:48:42.790844 20571 net.cpp:397] inception_5a/relu_pool_proj -> inception_5a/pool_proj (in-place)
I1126 19:48:42.791178 20571 net.cpp:150] Setting up inception_5a/relu_pool_proj
I1126 19:48:42.791193 20571 net.cpp:157] Top shape: 64 128 7 7 (401408)
I1126 19:48:42.791195 20571 net.cpp:165] Memory required for data: 3486835208
I1126 19:48:42.791199 20571 layer_factory.hpp:76] Creating layer inception_5a/output
I1126 19:48:42.791208 20571 net.cpp:106] Creating Layer inception_5a/output
I1126 19:48:42.791211 20571 net.cpp:454] inception_5a/output <- inception_5a/1x1
I1126 19:48:42.791216 20571 net.cpp:454] inception_5a/output <- inception_5a/3x3
I1126 19:48:42.791220 20571 net.cpp:454] inception_5a/output <- inception_5a/5x5
I1126 19:48:42.791224 20571 net.cpp:454] inception_5a/output <- inception_5a/pool_proj
I1126 19:48:42.791229 20571 net.cpp:411] inception_5a/output -> inception_5a/output
I1126 19:48:42.791270 20571 net.cpp:150] Setting up inception_5a/output
I1126 19:48:42.791276 20571 net.cpp:157] Top shape: 64 832 7 7 (2609152)
I1126 19:48:42.791280 20571 net.cpp:165] Memory required for data: 3497271816
I1126 19:48:42.791282 20571 layer_factory.hpp:76] Creating layer inception_5a/output_inception_5a/output_0_split
I1126 19:48:42.791288 20571 net.cpp:106] Creating Layer inception_5a/output_inception_5a/output_0_split
I1126 19:48:42.791291 20571 net.cpp:454] inception_5a/output_inception_5a/output_0_split <- inception_5a/output
I1126 19:48:42.791297 20571 net.cpp:411] inception_5a/output_inception_5a/output_0_split -> inception_5a/output_inception_5a/output_0_split_0
I1126 19:48:42.791304 20571 net.cpp:411] inception_5a/output_inception_5a/output_0_split -> inception_5a/output_inception_5a/output_0_split_1
I1126 19:48:42.791309 20571 net.cpp:411] inception_5a/output_inception_5a/output_0_split -> inception_5a/output_inception_5a/output_0_split_2
I1126 19:48:42.791314 20571 net.cpp:411] inception_5a/output_inception_5a/output_0_split -> inception_5a/output_inception_5a/output_0_split_3
I1126 19:48:42.791394 20571 net.cpp:150] Setting up inception_5a/output_inception_5a/output_0_split
I1126 19:48:42.791404 20571 net.cpp:157] Top shape: 64 832 7 7 (2609152)
I1126 19:48:42.791407 20571 net.cpp:157] Top shape: 64 832 7 7 (2609152)
I1126 19:48:42.791411 20571 net.cpp:157] Top shape: 64 832 7 7 (2609152)
I1126 19:48:42.791414 20571 net.cpp:157] Top shape: 64 832 7 7 (2609152)
I1126 19:48:42.791417 20571 net.cpp:165] Memory required for data: 3539018248
I1126 19:48:42.791420 20571 layer_factory.hpp:76] Creating layer inception_5b/1x1
I1126 19:48:42.791429 20571 net.cpp:106] Creating Layer inception_5b/1x1
I1126 19:48:42.791432 20571 net.cpp:454] inception_5b/1x1 <- inception_5a/output_inception_5a/output_0_split_0
I1126 19:48:42.791437 20571 net.cpp:411] inception_5b/1x1 -> inception_5b/1x1
I1126 19:48:42.795011 20571 net.cpp:150] Setting up inception_5b/1x1
I1126 19:48:42.795025 20571 net.cpp:157] Top shape: 64 384 7 7 (1204224)
I1126 19:48:42.795029 20571 net.cpp:165] Memory required for data: 3543835144
I1126 19:48:42.795037 20571 layer_factory.hpp:76] Creating layer inception_5b/relu_1x1
I1126 19:48:42.795042 20571 net.cpp:106] Creating Layer inception_5b/relu_1x1
I1126 19:48:42.795047 20571 net.cpp:454] inception_5b/relu_1x1 <- inception_5b/1x1
I1126 19:48:42.795053 20571 net.cpp:397] inception_5b/relu_1x1 -> inception_5b/1x1 (in-place)
I1126 19:48:42.795375 20571 net.cpp:150] Setting up inception_5b/relu_1x1
I1126 19:48:42.795389 20571 net.cpp:157] Top shape: 64 384 7 7 (1204224)
I1126 19:48:42.795393 20571 net.cpp:165] Memory required for data: 3548652040
I1126 19:48:42.795397 20571 layer_factory.hpp:76] Creating layer inception_5b/3x3_reduce
I1126 19:48:42.795405 20571 net.cpp:106] Creating Layer inception_5b/3x3_reduce
I1126 19:48:42.795409 20571 net.cpp:454] inception_5b/3x3_reduce <- inception_5a/output_inception_5a/output_0_split_1
I1126 19:48:42.795415 20571 net.cpp:411] inception_5b/3x3_reduce -> inception_5b/3x3_reduce
I1126 19:48:42.798020 20571 net.cpp:150] Setting up inception_5b/3x3_reduce
I1126 19:48:42.798037 20571 net.cpp:157] Top shape: 64 192 7 7 (602112)
I1126 19:48:42.798040 20571 net.cpp:165] Memory required for data: 3551060488
I1126 19:48:42.798046 20571 layer_factory.hpp:76] Creating layer inception_5b/relu_3x3_reduce
I1126 19:48:42.798053 20571 net.cpp:106] Creating Layer inception_5b/relu_3x3_reduce
I1126 19:48:42.798056 20571 net.cpp:454] inception_5b/relu_3x3_reduce <- inception_5b/3x3_reduce
I1126 19:48:42.798063 20571 net.cpp:397] inception_5b/relu_3x3_reduce -> inception_5b/3x3_reduce (in-place)
I1126 19:48:42.798252 20571 net.cpp:150] Setting up inception_5b/relu_3x3_reduce
I1126 19:48:42.798264 20571 net.cpp:157] Top shape: 64 192 7 7 (602112)
I1126 19:48:42.798267 20571 net.cpp:165] Memory required for data: 3553468936
I1126 19:48:42.798271 20571 layer_factory.hpp:76] Creating layer inception_5b/3x3
I1126 19:48:42.798280 20571 net.cpp:106] Creating Layer inception_5b/3x3
I1126 19:48:42.798285 20571 net.cpp:454] inception_5b/3x3 <- inception_5b/3x3_reduce
I1126 19:48:42.798291 20571 net.cpp:411] inception_5b/3x3 -> inception_5b/3x3
I1126 19:48:42.804599 20571 net.cpp:150] Setting up inception_5b/3x3
I1126 19:48:42.804615 20571 net.cpp:157] Top shape: 64 384 7 7 (1204224)
I1126 19:48:42.804620 20571 net.cpp:165] Memory required for data: 3558285832
I1126 19:48:42.804626 20571 layer_factory.hpp:76] Creating layer inception_5b/relu_3x3
I1126 19:48:42.804632 20571 net.cpp:106] Creating Layer inception_5b/relu_3x3
I1126 19:48:42.804636 20571 net.cpp:454] inception_5b/relu_3x3 <- inception_5b/3x3
I1126 19:48:42.804643 20571 net.cpp:397] inception_5b/relu_3x3 -> inception_5b/3x3 (in-place)
I1126 19:48:42.804994 20571 net.cpp:150] Setting up inception_5b/relu_3x3
I1126 19:48:42.805011 20571 net.cpp:157] Top shape: 64 384 7 7 (1204224)
I1126 19:48:42.805014 20571 net.cpp:165] Memory required for data: 3563102728
I1126 19:48:42.805017 20571 layer_factory.hpp:76] Creating layer inception_5b/5x5_reduce
I1126 19:48:42.805025 20571 net.cpp:106] Creating Layer inception_5b/5x5_reduce
I1126 19:48:42.805029 20571 net.cpp:454] inception_5b/5x5_reduce <- inception_5a/output_inception_5a/output_0_split_2
I1126 19:48:42.805037 20571 net.cpp:411] inception_5b/5x5_reduce -> inception_5b/5x5_reduce
I1126 19:48:42.806758 20571 net.cpp:150] Setting up inception_5b/5x5_reduce
I1126 19:48:42.806772 20571 net.cpp:157] Top shape: 64 48 7 7 (150528)
I1126 19:48:42.806777 20571 net.cpp:165] Memory required for data: 3563704840
I1126 19:48:42.806782 20571 layer_factory.hpp:76] Creating layer inception_5b/relu_5x5_reduce
I1126 19:48:42.806790 20571 net.cpp:106] Creating Layer inception_5b/relu_5x5_reduce
I1126 19:48:42.806795 20571 net.cpp:454] inception_5b/relu_5x5_reduce <- inception_5b/5x5_reduce
I1126 19:48:42.806800 20571 net.cpp:397] inception_5b/relu_5x5_reduce -> inception_5b/5x5_reduce (in-place)
I1126 19:48:42.807135 20571 net.cpp:150] Setting up inception_5b/relu_5x5_reduce
I1126 19:48:42.807149 20571 net.cpp:157] Top shape: 64 48 7 7 (150528)
I1126 19:48:42.807153 20571 net.cpp:165] Memory required for data: 3564306952
I1126 19:48:42.807157 20571 layer_factory.hpp:76] Creating layer inception_5b/5x5
I1126 19:48:42.807168 20571 net.cpp:106] Creating Layer inception_5b/5x5
I1126 19:48:42.807173 20571 net.cpp:454] inception_5b/5x5 <- inception_5b/5x5_reduce
I1126 19:48:42.807178 20571 net.cpp:411] inception_5b/5x5 -> inception_5b/5x5
I1126 19:48:42.809355 20571 net.cpp:150] Setting up inception_5b/5x5
I1126 19:48:42.809370 20571 net.cpp:157] Top shape: 64 128 7 7 (401408)
I1126 19:48:42.809375 20571 net.cpp:165] Memory required for data: 3565912584
I1126 19:48:42.809381 20571 layer_factory.hpp:76] Creating layer inception_5b/relu_5x5
I1126 19:48:42.809387 20571 net.cpp:106] Creating Layer inception_5b/relu_5x5
I1126 19:48:42.809391 20571 net.cpp:454] inception_5b/relu_5x5 <- inception_5b/5x5
I1126 19:48:42.809396 20571 net.cpp:397] inception_5b/relu_5x5 -> inception_5b/5x5 (in-place)
I1126 19:48:42.809582 20571 net.cpp:150] Setting up inception_5b/relu_5x5
I1126 19:48:42.809593 20571 net.cpp:157] Top shape: 64 128 7 7 (401408)
I1126 19:48:42.809597 20571 net.cpp:165] Memory required for data: 3567518216
I1126 19:48:42.809600 20571 layer_factory.hpp:76] Creating layer inception_5b/pool
I1126 19:48:42.809608 20571 net.cpp:106] Creating Layer inception_5b/pool
I1126 19:48:42.809612 20571 net.cpp:454] inception_5b/pool <- inception_5a/output_inception_5a/output_0_split_3
I1126 19:48:42.809617 20571 net.cpp:411] inception_5b/pool -> inception_5b/pool
I1126 19:48:42.809996 20571 net.cpp:150] Setting up inception_5b/pool
I1126 19:48:42.810010 20571 net.cpp:157] Top shape: 64 832 7 7 (2609152)
I1126 19:48:42.810014 20571 net.cpp:165] Memory required for data: 3577954824
I1126 19:48:42.810017 20571 layer_factory.hpp:76] Creating layer inception_5b/pool_proj
I1126 19:48:42.810026 20571 net.cpp:106] Creating Layer inception_5b/pool_proj
I1126 19:48:42.810031 20571 net.cpp:454] inception_5b/pool_proj <- inception_5b/pool
I1126 19:48:42.810039 20571 net.cpp:411] inception_5b/pool_proj -> inception_5b/pool_proj
I1126 19:48:42.812330 20571 net.cpp:150] Setting up inception_5b/pool_proj
I1126 19:48:42.812345 20571 net.cpp:157] Top shape: 64 128 7 7 (401408)
I1126 19:48:42.812348 20571 net.cpp:165] Memory required for data: 3579560456
I1126 19:48:42.812355 20571 layer_factory.hpp:76] Creating layer inception_5b/relu_pool_proj
I1126 19:48:42.812361 20571 net.cpp:106] Creating Layer inception_5b/relu_pool_proj
I1126 19:48:42.812366 20571 net.cpp:454] inception_5b/relu_pool_proj <- inception_5b/pool_proj
I1126 19:48:42.812372 20571 net.cpp:397] inception_5b/relu_pool_proj -> inception_5b/pool_proj (in-place)
I1126 19:48:42.812568 20571 net.cpp:150] Setting up inception_5b/relu_pool_proj
I1126 19:48:42.812580 20571 net.cpp:157] Top shape: 64 128 7 7 (401408)
I1126 19:48:42.812583 20571 net.cpp:165] Memory required for data: 3581166088
I1126 19:48:42.812587 20571 layer_factory.hpp:76] Creating layer inception_5b/output
I1126 19:48:42.812594 20571 net.cpp:106] Creating Layer inception_5b/output
I1126 19:48:42.812598 20571 net.cpp:454] inception_5b/output <- inception_5b/1x1
I1126 19:48:42.812603 20571 net.cpp:454] inception_5b/output <- inception_5b/3x3
I1126 19:48:42.812608 20571 net.cpp:454] inception_5b/output <- inception_5b/5x5
I1126 19:48:42.812610 20571 net.cpp:454] inception_5b/output <- inception_5b/pool_proj
I1126 19:48:42.812615 20571 net.cpp:411] inception_5b/output -> inception_5b/output
I1126 19:48:42.812659 20571 net.cpp:150] Setting up inception_5b/output
I1126 19:48:42.812670 20571 net.cpp:157] Top shape: 64 1024 7 7 (3211264)
I1126 19:48:42.812674 20571 net.cpp:165] Memory required for data: 3594011144
I1126 19:48:42.812676 20571 layer_factory.hpp:76] Creating layer pool5/7x7_s1
I1126 19:48:42.812681 20571 net.cpp:106] Creating Layer pool5/7x7_s1
I1126 19:48:42.812685 20571 net.cpp:454] pool5/7x7_s1 <- inception_5b/output
I1126 19:48:42.812693 20571 net.cpp:411] pool5/7x7_s1 -> pool5/7x7_s1
I1126 19:48:42.813051 20571 net.cpp:150] Setting up pool5/7x7_s1
I1126 19:48:42.813066 20571 net.cpp:157] Top shape: 64 1024 1 1 (65536)
I1126 19:48:42.813069 20571 net.cpp:165] Memory required for data: 3594273288
I1126 19:48:42.813072 20571 layer_factory.hpp:76] Creating layer pool5/drop_7x7_s1
I1126 19:48:42.813081 20571 net.cpp:106] Creating Layer pool5/drop_7x7_s1
I1126 19:48:42.813084 20571 net.cpp:454] pool5/drop_7x7_s1 <- pool5/7x7_s1
I1126 19:48:42.813089 20571 net.cpp:397] pool5/drop_7x7_s1 -> pool5/7x7_s1 (in-place)
I1126 19:48:42.813130 20571 net.cpp:150] Setting up pool5/drop_7x7_s1
I1126 19:48:42.813138 20571 net.cpp:157] Top shape: 64 1024 1 1 (65536)
I1126 19:48:42.813139 20571 net.cpp:165] Memory required for data: 3594535432
I1126 19:48:42.813143 20571 layer_factory.hpp:76] Creating layer loss3/classifier-attribute
I1126 19:48:42.813149 20571 net.cpp:106] Creating Layer loss3/classifier-attribute
I1126 19:48:42.813154 20571 net.cpp:454] loss3/classifier-attribute <- pool5/7x7_s1
I1126 19:48:42.813160 20571 net.cpp:411] loss3/classifier-attribute -> loss3/classifier-attribute
I1126 19:48:42.890354 20571 net.cpp:150] Setting up loss3/classifier-attribute
I1126 19:48:42.890378 20571 net.cpp:157] Top shape: 64 9999 (639936)
I1126 19:48:42.890383 20571 net.cpp:165] Memory required for data: 3597095176
I1126 19:48:42.890393 20571 layer_factory.hpp:76] Creating layer loss3/loss3
I1126 19:48:42.890403 20571 net.cpp:106] Creating Layer loss3/loss3
I1126 19:48:42.890410 20571 net.cpp:454] loss3/loss3 <- loss3/classifier-attribute
I1126 19:48:42.890418 20571 net.cpp:454] loss3/loss3 <- label_data_1_split_2
I1126 19:48:42.890424 20571 net.cpp:411] loss3/loss3 -> loss3/loss3
…
I1126 19:48:42.900879 20571 net.cpp:322] The NetState phase (1) differed from the phase (0) specified by a rule in layer data
I1126 19:48:42.901845 20571 net.cpp:49] Initializing net from parameters: 
name: "GoogleNet-finetune-for-cigit"
state {
  phase: TEST
}
layer {
  name: "data"
  type: "ImageData"
  top: "data"
  top: "label"
  include {
    phase: TEST
  }
  transform_param {
    mirror: false
    crop_size: 224
    mean_value: 104
    mean_value: 117
    mean_value: 123
  }
  image_data_param {
    source: "pad_test.txt"
    batch_size: 64
    new_height: 256
    new_width: 256
  }
}
layer {
  name: "conv1/7x7_s2"
  type: "Convolution"
  bottom: "data"
  top: "conv1/7x7_s2"
  param {
    lr_mult: 1
    decay_mult: 1
  }
  param {
    lr_mult: 2
    decay_mult: 0
  }
  convolution_param {
    num_output: 64
    pad: 3
    kernel_size: 7
    stride: 2
    weight_filler {
      type: "xavier"
    }
    bias_filler {
      type: "constant"
      value: 0.2
    }
  }
}
layer {
  name: "conv1/relu_7x7"
  type: "ReLU"
  bottom: "conv1/7x7_s2"
  top: "conv1/7x7_s2"
}
layer {
  name: "pool1/3x3_s2"
  type: "Pooling"
  bottom: "conv1/7x7_s2"
  top: "pool1/3x3_s2"
  pooling_param {
    pool: MAX
    kernel_size: 3
    stride: 2
  }
}
layer {
  name: "pool1/norm1"
  type: "LRN"
  bottom: "pool1/3x3_s2"
  top: "pool1/norm1"
  lrn_param {
    local_size: 5
    alpha: 0.0001
    beta: 0.75
  }
}
layer {
  name: "conv2/3x3_reduce"
  type: "Convolution"
  bottom: "pool1/norm1"
  top: "conv2/3x3_reduce"
  param {
    lr_mult: 1
    decay_mult: 1
  }
  param {
    lr_mult: 2
    decay_mult: 0
  }
  convolution_param {
    num_output: 64
    kernel_size: 1
    weight_filler {
      type: "xavier"
    }
    bias_filler {
      type: "constant"
      value: 0.2
    }
  }
}
layer {
  name: "conv2/relu_3x3_reduce"
  type: "ReLU"
  bottom: "conv2/3x3_reduce"
  top: "conv2/3x3_reduce"
}
layer {
  name: "conv2/3x3"
  type: "Convolution"
  bottom: "conv2/3x3_reduce"
  top: "conv2/3x3"
  param {
    lr_mult: 1
    decay_mult: 1
  }
  param {
    lr_mult: 2
    decay_mult: 0
  }
  convolution_param {
    num_output: 192
    pad: 1
    kernel_size: 3
    weight_filler {
      type: "xavier"
    }
    bias_filler {
      type: "constant"
      value: 0.2
    }
  }
}
layer {
  name: "conv2/relu_3x3"
  type: "ReLU"
  bottom: "conv2/3x3"
  top: "conv2/3x3"
}
layer {
  name: "conv2/norm2"
  type: "LRN"
  bottom: "conv2/3x3"
  top: "conv2/norm2"
  lrn_param {
    local_size: 5
    alpha: 0.0001
    beta: 0.75
  }
}
layer {
  name: "pool2/3x3_s2"
  type: "Pooling"
  bottom: "conv2/norm2"
  top: "pool2/3x3_s2"
  pooling_param {
    pool: MAX
    kernel_size: 3
    stride: 2
  }
}
layer {
  name: "inception_3a/1x1"
  type: "Convolution"
  bottom: "pool2/3x3_s2"
  top: "inception_3a/1x1"
  param {
    lr_mult: 1
    decay_mult: 1
  }
  param {
    lr_mult: 2
    decay_mult: 0
  }
  convolution_param {
    num_output: 64
    kernel_size: 1
    weight_filler {
      type: "xavier"
    }
    bias_filler {
      type: "constant"
      value: 0.2
    }
  }
}
layer {
  name: "inception_3a/relu_1x1"
  type: "ReLU"
  bottom: "inception_3a/1x1"
  top: "inception_3a/1x1"
}
layer {
  name: "inception_3a/3x3_reduce"
  type: "Convolution"
  bottom: "pool2/3x3_s2"
  top: "inception_3a/3x3_reduce"
  param {
    lr_mult: 1
    decay_mult: 1
  }
  param {
    lr_mult: 2
    decay_mult: 0
  }
  convolution_param {
    num_output: 96
    kernel_size: 1
    weight_filler {
      type: "xavier"
    }
    bias_filler {
      type: "constant"
      value: 0.2
    }
  }
}
layer {
  name: "inception_3a/relu_3x3_reduce"
  type: "ReLU"
  bottom: "inception_3a/3x3_reduce"
  top: "inception_3a/3x3_reduce"
}
layer {
  name: "inception_3a/3x3"
  type: "Convolution"
  bottom: "inception_3a/3x3_reduce"
  top: "inception_3a/3x3"
  param {
    lr_mult: 1
    decay_mult: 1
  }
  param {
    lr_mult: 2
    decay_mult: 0
  }
  convolution_param {
    num_output: 128
    pad: 1
    kernel_size: 3
    weight_filler {
      type: "xavier"
    }
    bias_filler {
      type: "constant"
      value: 0.2
    }
  }
}
layer {
  name: "inception_3a/relu_3x3"
  type: "ReLU"
  bottom: "inception_3a/3x3"
  top: "inception_3a/3x3"
}
layer {
  name: "inception_3a/5x5_reduce"
  type: "Convolution"
  bottom: "pool2/3x3_s2"
  top: "inception_3a/5x5_reduce"
  param {
    lr_mult: 1
    decay_mult: 1
  }
  param {
    lr_mult: 2
    decay_mult: 0
  }
  convolution_param {
    num_output: 16
    kernel_size: 1
    weight_filler {
      type: "xavier"
    }
    bias_filler {
      type: "constant"
      value: 0.2
    }
  }
}
layer {
  name: "inception_3a/relu_5x5_reduce"
  type: "ReLU"
  bottom: "inception_3a/5x5_reduce"
  top: "inception_3a/5x5_reduce"
}
layer {
  name: "inception_3a/5x5"
  type: "Convolution"
  bottom: "inception_3a/5x5_reduce"
  top: "inception_3a/5x5"
  param {
    lr_mult: 1
    decay_mult: 1
  }
  param {
    lr_mult: 2
    decay_mult: 0
  }
  convolution_param {
    num_output: 32
    pad: 2
    kernel_size: 5
    weight_filler {
      type: "xavier"
    }
    bias_filler {
      type: "constant"
      value: 0.2
    }
  }
}
layer {
  name: "inception_3a/relu_5x5"
  type: "ReLU"
  bottom: "inception_3a/5x5"
  top: "inception_3a/5x5"
}
layer {
  name: "inception_3a/pool"
  type: "Pooling"
  bottom: "pool2/3x3_s2"
  top: "inception_3a/pool"
  pooling_param {
    pool: MAX
    kernel_size: 3
    stride: 1
    pad: 1
  }
}
layer {
  name: "inception_3a/pool_proj"
  type: "Convolution"
  bottom: "inception_3a/pool"
  top: "inception_3a/pool_proj"
  param {
    lr_mult: 1
    decay_mult: 1
  }
  param {
    lr_mult: 2
    decay_mult: 0
  }
  convolution_param {
    num_output: 32
    kernel_size: 1
    weight_filler {
      type: "xavier"
    }
    bias_filler {
      type: "constant"
      value: 0.2
    }
  }
}
layer {
  name: "inception_3a/relu_pool_proj"
  type: "ReLU"
  bottom: "inception_3a/pool_proj"
  top: "inception_3a/pool_proj"
}
layer {
  name: "inception_3a/output"
  type: "Concat"
  bottom: "inception_3a/1x1"
  bottom: "inception_3a/3x3"
  bottom: "inception_3a/5x5"
  bottom: "inception_3a/pool_proj"
  top: "inception_3a/output"
}
layer {
  name: "inception_3b/1x1"
  type: "Convolution"
  bottom: "inception_3a/output"
  top: "inception_3b/1x1"
  param {
    lr_mult: 1
    decay_mult: 1
  }
  param {
    lr_mult: 2
    decay_mult: 0
  }
  convolution_param {
    num_output: 128
    kernel_size: 1
    weight_filler {
      type: "xavier"
    }
    bias_filler {
      type: "constant"
      value: 0.2
    }
  }
}
layer {
  name: "inception_3b/relu_1x1"
  type: "ReLU"
  bottom: "inception_3b/1x1"
  top: "inception_3b/1x1"
}
layer {
  name: "inception_3b/3x3_reduce"
  type: "Convolution"
  bottom: "inception_3a/output"
  top: "inception_3b/3x3_reduce"
  param {
    lr_mult: 1
    decay_mult: 1
  }
  param {
    lr_mult: 2
    decay_mult: 0
  }
  convolution_param {
    num_output: 128
    kernel_size: 1
    weight_filler {
      type: "xavier"
    }
    bias_filler {
      type: "constant"
      value: 0.2
    }
  }
}
layer {
  name: "inception_3b/relu_3x3_reduce"
  type: "ReLU"
  bottom: "inception_3b/3x3_reduce"
  top: "inception_3b/3x3_reduce"
}
layer {
  name: "inception_3b/3x3"
  type: "Convolution"
  bottom: "inception_3b/3x3_reduce"
  top: "inception_3b/3x3"
  param {
    lr_mult: 1
    decay_mult: 1
  }
  param {
    lr_mult: 2
    decay_mult: 0
  }
  convolution_param {
    num_output: 192
    pad: 1
    kernel_size: 3
    weight_filler {
      type: "xavier"
    }
    bias_filler {
      type: "constant"
      value: 0.2
    }
  }
}
layer {
  name: "inception_3b/relu_3x3"
  type: "ReLU"
  bottom: "inception_3b/3x3"
  top: "inception_3b/3x3"
}
layer {
  name: "inception_3b/5x5_reduce"
  type: "Convolution"
  bottom: "inception_3a/output"
  top: "inception_3b/5x5_reduce"
  param {
    lr_mult: 1
    decay_mult: 1
  }
  param {
    lr_mult: 2
    decay_mult: 0
  }
  convolution_param {
    num_output: 32
    kernel_size: 1
    weight_filler {
      type: "xavier"
    }
    bias_filler {
      type: "constant"
      value: 0.2
    }
  }
}
layer {
  name: "inception_3b/relu_5x5_reduce"
  type: "ReLU"
  bottom: "inception_3b/5x5_reduce"
  top: "inception_3b/5x5_reduce"
}
layer {
  name: "inception_3b/5x5"
  type: "Convolution"
  bottom: "inception_3b/5x5_reduce"
  top: "inception_3b/5x5"
  param {
    lr_mult: 1
    decay_mult: 1
  }
  param {
    lr_mult: 2
    decay_mult: 0
  }
  convolution_param {
    num_output: 96
    pad: 2
    kernel_size: 5
    weight_filler {
      type: "xavier"
    }
    bias_filler {
      type: "constant"
      value: 0.2
    }
  }
}
layer {
  name: "inception_3b/relu_5x5"
  type: "ReLU"
  bottom: "inception_3b/5x5"
  top: "inception_3b/5x5"
}
layer {
  name: "inception_3b/pool"
  type: "Pooling"
  bottom: "inception_3a/output"
  top: "inception_3b/pool"
  pooling_param {
    pool: MAX
    kernel_size: 3
    stride: 1
    pad: 1
  }
}
layer {
  name: "inception_3b/pool_proj"
  type: "Convolution"
  bottom: "inception_3b/pool"
  top: "inception_3b/pool_proj"
  param {
    lr_mult: 1
    decay_mult: 1
  }
  param {
    lr_mult: 2
    decay_mult: 0
  }
  convolution_param {
    num_output: 64
    kernel_size: 1
    weight_filler {
      type: "xavier"
    }
    bias_filler {
      type: "constant"
      value: 0.2
    }
  }
}
layer {
  name: "inception_3b/relu_pool_proj"
  type: "ReLU"
  bottom: "inception_3b/pool_proj"
  top: "inception_3b/pool_proj"
}
layer {
  name: "inception_3b/output"
  type: "Concat"
  bottom: "inception_3b/1x1"
  bottom: "inception_3b/3x3"
  bottom: "inception_3b/5x5"
  bottom: "inception_3b/pool_proj"
  top: "inception_3b/output"
}
layer {
  name: "pool3/3x3_s2"
  type: "Pooling"
  bottom: "inception_3b/output"
  top: "pool3/3x3_s2"
  pooling_param {
    pool: MAX
    kernel_size: 3
    stride: 2
  }
}
layer {
  name: "inception_4a/1x1"
  type: "Convolution"
  bottom: "pool3/3x3_s2"
  top: "inception_4a/1x1"
  param {
    lr_mult: 1
    decay_mult: 1
  }
  param {
    lr_mult: 2
    decay_mult: 0
  }
  convolution_param {
    num_output: 192
    kernel_size: 1
    weight_filler {
      type: "xavier"
    }
    bias_filler {
      type: "constant"
      value: 0.2
    }
  }
}
layer {
  name: "inception_4a/relu_1x1"
  type: "ReLU"
  bottom: "inception_4a/1x1"
  top: "inception_4a/1x1"
}
layer {
  name: "inception_4a/3x3_reduce"
  type: "Convolution"
  bottom: "pool3/3x3_s2"
  top: "inception_4a/3x3_reduce"
  param {
    lr_mult: 1
    decay_mult: 1
  }
  param {
    lr_mult: 2
    decay_mult: 0
  }
  convolution_param {
    num_output: 96
    kernel_size: 1
    weight_filler {
      type: "xavier"
    }
    bias_filler {
      type: "constant"
      value: 0.2
    }
  }
}
layer {
  name: "inception_4a/relu_3x3_reduce"
  type: "ReLU"
  bottom: "inception_4a/3x3_reduce"
  top: "inception_4a/3x3_reduce"
}
layer {
  name: "inception_4a/3x3"
  type: "Convolution"
  bottom: "inception_4a/3x3_reduce"
  top: "inception_4a/3x3"
  param {
    lr_mult: 1
    decay_mult: 1
  }
  param {
    lr_mult: 2
    decay_mult: 0
  }
  convolution_param {
    num_output: 208
    pad: 1
    kernel_size: 3
    weight_filler {
      type: "xavier"
    }
    bias_filler {
      type: "constant"
      value: 0.2
    }
  }
}
layer {
  name: "inception_4a/relu_3x3"
  type: "ReLU"
  bottom: "inception_4a/3x3"
  top: "inception_4a/3x3"
}
layer {
  name: "inception_4a/5x5_reduce"
  type: "Convolution"
  bottom: "pool3/3x3_s2"
  top: "inception_4a/5x5_reduce"
  param {
    lr_mult: 1
    decay_mult: 1
  }
  param {
    lr_mult: 2
    decay_mult: 0
  }
  convolution_param {
    num_output: 16
    kernel_size: 1
    weight_filler {
      type: "xavier"
    }
    bias_filler {
      type: "constant"
      value: 0.2
    }
  }
}
layer {
  name: "inception_4a/relu_5x5_reduce"
  type: "ReLU"
  bottom: "inception_4a/5x5_reduce"
  top: "inception_4a/5x5_reduce"
}
layer {
  name: "inception_4a/5x5"
  type: "Convolution"
  bottom: "inception_4a/5x5_reduce"
  top: "inception_4a/5x5"
  param {
    lr_mult: 1
    decay_mult: 1
  }
  param {
    lr_mult: 2
    decay_mult: 0
  }
  convolution_param {
    num_output: 48
    pad: 2
    kernel_size: 5
    weight_filler {
      type: "xavier"
    }
    bias_filler {
      type: "constant"
      value: 0.2
    }
  }
}
layer {
  name: "inception_4a/relu_5x5"
  type: "ReLU"
  bottom: "inception_4a/5x5"
  top: "inception_4a/5x5"
}
layer {
  name: "inception_4a/pool"
  type: "Pooling"
  bottom: "pool3/3x3_s2"
  top: "inception_4a/pool"
  pooling_param {
    pool: MAX
    kernel_size: 3
    stride: 1
    pad: 1
  }
}
layer {
  name: "inception_4a/pool_proj"
  type: "Convolution"
  bottom: "inception_4a/pool"
  top: "inception_4a/pool_proj"
  param {
    lr_mult: 1
    decay_mult: 1
  }
  param {
    lr_mult: 2
    decay_mult: 0
  }
  convolution_param {
    num_output: 64
    kernel_size: 1
    weight_filler {
      type: "xavier"
    }
    bias_filler {
      type: "constant"
      value: 0.2
    }
  }
}
layer {
  name: "inception_4a/relu_pool_proj"
  type: "ReLU"
  bottom: "inception_4a/pool_proj"
  top: "inception_4a/pool_proj"
}
layer {
  name: "inception_4a/output"
  type: "Concat"
  bottom: "inception_4a/1x1"
  bottom: "inception_4a/3x3"
  bottom: "inception_4a/5x5"
  bottom: "inception_4a/pool_proj"
  top: "inception_4a/output"
}
layer {
  name: "loss1/ave_pool"
  type: "Pooling"
  bottom: "inception_4a/output"
  top: "loss1/ave_pool"
  pooling_param {
    pool: AVE
    kernel_size: 5
    stride: 3
  }
}
layer {
  name: "loss1/conv"
  type: "Convolution"
  bottom: "loss1/ave_pool"
  top: "loss1/conv"
  param {
    lr_mult: 1
    decay_mult: 1
  }
  param {
    lr_mult: 2
    decay_mult: 0
  }
  convolution_param {
    num_output: 128
    kernel_size: 1
    weight_filler {
      type: "xavier"
    }
    bias_filler {
      type: "constant"
      value: 0.2
    }
  }
}
layer {
  name: "loss1/relu_conv"
  type: "ReLU"
  bottom: "loss1/conv"
  top: "loss1/conv"
}
layer {
  name: "loss1/fc"
  type: "InnerProduct"
  bottom: "loss1/conv"
  top: "loss1/fc"
  param {
    lr_mult: 1
    decay_mult: 1
  }
  param {
    lr_mult: 2
    decay_mult: 0
  }
…
I1126 19:48:43.148483 20571 net.cpp:106] Creating Layer inception_4c/pool
I1126 19:48:43.148485 20571 net.cpp:454] inception_4c/pool <- inception_4b/output_inception_4b/output_0_split_3
I1126 19:48:43.148490 20571 net.cpp:411] inception_4c/pool -> inception_4c/pool
I1126 19:48:43.148725 20571 net.cpp:150] Setting up inception_4c/pool
I1126 19:48:43.148736 20571 net.cpp:157] Top shape: 64 512 14 14 (6422528)
I1126 19:48:43.148740 20571 net.cpp:165] Memory required for data: 2835919880
I1126 19:48:43.148742 20571 layer_factory.hpp:76] Creating layer inception_4c/pool_proj
I1126 19:48:43.148751 20571 net.cpp:106] Creating Layer inception_4c/pool_proj
I1126 19:48:43.148754 20571 net.cpp:454] inception_4c/pool_proj <- inception_4c/pool
I1126 19:48:43.148761 20571 net.cpp:411] inception_4c/pool_proj -> inception_4c/pool_proj
I1126 19:48:43.150187 20571 net.cpp:150] Setting up inception_4c/pool_proj
I1126 19:48:43.150199 20571 net.cpp:157] Top shape: 64 64 14 14 (802816)
I1126 19:48:43.150202 20571 net.cpp:165] Memory required for data: 2839131144
I1126 19:48:43.150208 20571 layer_factory.hpp:76] Creating layer inception_4c/relu_pool_proj
I1126 19:48:43.150214 20571 net.cpp:106] Creating Layer inception_4c/relu_pool_proj
I1126 19:48:43.150218 20571 net.cpp:454] inception_4c/relu_pool_proj <- inception_4c/pool_proj
I1126 19:48:43.150223 20571 net.cpp:397] inception_4c/relu_pool_proj -> inception_4c/pool_proj (in-place)
I1126 19:48:43.150558 20571 net.cpp:150] Setting up inception_4c/relu_pool_proj
I1126 19:48:43.150570 20571 net.cpp:157] Top shape: 64 64 14 14 (802816)
I1126 19:48:43.150574 20571 net.cpp:165] Memory required for data: 2842342408
I1126 19:48:43.150579 20571 layer_factory.hpp:76] Creating layer inception_4c/output
I1126 19:48:43.150586 20571 net.cpp:106] Creating Layer inception_4c/output
I1126 19:48:43.150590 20571 net.cpp:454] inception_4c/output <- inception_4c/1x1
I1126 19:48:43.150594 20571 net.cpp:454] inception_4c/output <- inception_4c/3x3
I1126 19:48:43.150599 20571 net.cpp:454] inception_4c/output <- inception_4c/5x5
I1126 19:48:43.150601 20571 net.cpp:454] inception_4c/output <- inception_4c/pool_proj
I1126 19:48:43.150606 20571 net.cpp:411] inception_4c/output -> inception_4c/output
I1126 19:48:43.150653 20571 net.cpp:150] Setting up inception_4c/output
I1126 19:48:43.150660 20571 net.cpp:157] Top shape: 64 512 14 14 (6422528)
I1126 19:48:43.150662 20571 net.cpp:165] Memory required for data: 2868032520
I1126 19:48:43.150665 20571 layer_factory.hpp:76] Creating layer inception_4c/output_inception_4c/output_0_split
I1126 19:48:43.150671 20571 net.cpp:106] Creating Layer inception_4c/output_inception_4c/output_0_split
I1126 19:48:43.150673 20571 net.cpp:454] inception_4c/output_inception_4c/output_0_split <- inception_4c/output
I1126 19:48:43.150678 20571 net.cpp:411] inception_4c/output_inception_4c/output_0_split -> inception_4c/output_inception_4c/output_0_split_0
I1126 19:48:43.150684 20571 net.cpp:411] inception_4c/output_inception_4c/output_0_split -> inception_4c/output_inception_4c/output_0_split_1
I1126 19:48:43.150689 20571 net.cpp:411] inception_4c/output_inception_4c/output_0_split -> inception_4c/output_inception_4c/output_0_split_2
I1126 19:48:43.150694 20571 net.cpp:411] inception_4c/output_inception_4c/output_0_split -> inception_4c/output_inception_4c/output_0_split_3
I1126 19:48:43.150789 20571 net.cpp:150] Setting up inception_4c/output_inception_4c/output_0_split
I1126 19:48:43.150799 20571 net.cpp:157] Top shape: 64 512 14 14 (6422528)
I1126 19:48:43.150802 20571 net.cpp:157] Top shape: 64 512 14 14 (6422528)
I1126 19:48:43.150805 20571 net.cpp:157] Top shape: 64 512 14 14 (6422528)
I1126 19:48:43.150809 20571 net.cpp:157] Top shape: 64 512 14 14 (6422528)
I1126 19:48:43.150810 20571 net.cpp:165] Memory required for data: 2970792968
I1126 19:48:43.150813 20571 layer_factory.hpp:76] Creating layer inception_4d/1x1
I1126 19:48:43.150820 20571 net.cpp:106] Creating Layer inception_4d/1x1
I1126 19:48:43.150823 20571 net.cpp:454] inception_4d/1x1 <- inception_4c/output_inception_4c/output_0_split_0
I1126 19:48:43.150830 20571 net.cpp:411] inception_4d/1x1 -> inception_4d/1x1
I1126 19:48:43.152307 20571 net.cpp:150] Setting up inception_4d/1x1
I1126 19:48:43.152321 20571 net.cpp:157] Top shape: 64 112 14 14 (1404928)
I1126 19:48:43.152325 20571 net.cpp:165] Memory required for data: 2976412680
I1126 19:48:43.152331 20571 layer_factory.hpp:76] Creating layer inception_4d/relu_1x1
I1126 19:48:43.152336 20571 net.cpp:106] Creating Layer inception_4d/relu_1x1
I1126 19:48:43.152339 20571 net.cpp:454] inception_4d/relu_1x1 <- inception_4d/1x1
I1126 19:48:43.152345 20571 net.cpp:397] inception_4d/relu_1x1 -> inception_4d/1x1 (in-place)
I1126 19:48:43.152685 20571 net.cpp:150] Setting up inception_4d/relu_1x1
I1126 19:48:43.152700 20571 net.cpp:157] Top shape: 64 112 14 14 (1404928)
I1126 19:48:43.152704 20571 net.cpp:165] Memory required for data: 2982032392
I1126 19:48:43.152708 20571 layer_factory.hpp:76] Creating layer inception_4d/3x3_reduce
I1126 19:48:43.152714 20571 net.cpp:106] Creating Layer inception_4d/3x3_reduce
I1126 19:48:43.152719 20571 net.cpp:454] inception_4d/3x3_reduce <- inception_4c/output_inception_4c/output_0_split_1
I1126 19:48:43.152724 20571 net.cpp:411] inception_4d/3x3_reduce -> inception_4d/3x3_reduce
I1126 19:48:43.154381 20571 net.cpp:150] Setting up inception_4d/3x3_reduce
I1126 19:48:43.154393 20571 net.cpp:157] Top shape: 64 144 14 14 (1806336)
I1126 19:48:43.154397 20571 net.cpp:165] Memory required for data: 2989257736
I1126 19:48:43.154402 20571 layer_factory.hpp:76] Creating layer inception_4d/relu_3x3_reduce
I1126 19:48:43.154409 20571 net.cpp:106] Creating Layer inception_4d/relu_3x3_reduce
I1126 19:48:43.154413 20571 net.cpp:454] inception_4d/relu_3x3_reduce <- inception_4d/3x3_reduce
I1126 19:48:43.154418 20571 net.cpp:397] inception_4d/relu_3x3_reduce -> inception_4d/3x3_reduce (in-place)
I1126 19:48:43.154608 20571 net.cpp:150] Setting up inception_4d/relu_3x3_reduce
I1126 19:48:43.154618 20571 net.cpp:157] Top shape: 64 144 14 14 (1806336)
I1126 19:48:43.154620 20571 net.cpp:165] Memory required for data: 2996483080
I1126 19:48:43.154623 20571 layer_factory.hpp:76] Creating layer inception_4d/3x3
I1126 19:48:43.154631 20571 net.cpp:106] Creating Layer inception_4d/3x3
I1126 19:48:43.154635 20571 net.cpp:454] inception_4d/3x3 <- inception_4d/3x3_reduce
I1126 19:48:43.154641 20571 net.cpp:411] inception_4d/3x3 -> inception_4d/3x3
I1126 19:48:43.158521 20571 net.cpp:150] Setting up inception_4d/3x3
I1126 19:48:43.158535 20571 net.cpp:157] Top shape: 64 288 14 14 (3612672)
I1126 19:48:43.158540 20571 net.cpp:165] Memory required for data: 3010933768
I1126 19:48:43.158545 20571 layer_factory.hpp:76] Creating layer inception_4d/relu_3x3
I1126 19:48:43.158550 20571 net.cpp:106] Creating Layer inception_4d/relu_3x3
I1126 19:48:43.158555 20571 net.cpp:454] inception_4d/relu_3x3 <- inception_4d/3x3
I1126 19:48:43.158560 20571 net.cpp:397] inception_4d/relu_3x3 -> inception_4d/3x3 (in-place)
I1126 19:48:43.158890 20571 net.cpp:150] Setting up inception_4d/relu_3x3
I1126 19:48:43.158905 20571 net.cpp:157] Top shape: 64 288 14 14 (3612672)
I1126 19:48:43.158907 20571 net.cpp:165] Memory required for data: 3025384456
I1126 19:48:43.158911 20571 layer_factory.hpp:76] Creating layer inception_4d/5x5_reduce
I1126 19:48:43.158918 20571 net.cpp:106] Creating Layer inception_4d/5x5_reduce
I1126 19:48:43.158922 20571 net.cpp:454] inception_4d/5x5_reduce <- inception_4c/output_inception_4c/output_0_split_2
I1126 19:48:43.158929 20571 net.cpp:411] inception_4d/5x5_reduce -> inception_4d/5x5_reduce
I1126 19:48:43.160295 20571 net.cpp:150] Setting up inception_4d/5x5_reduce
I1126 19:48:43.160310 20571 net.cpp:157] Top shape: 64 32 14 14 (401408)
I1126 19:48:43.160313 20571 net.cpp:165] Memory required for data: 3026990088
I1126 19:48:43.160320 20571 layer_factory.hpp:76] Creating layer inception_4d/relu_5x5_reduce
I1126 19:48:43.160326 20571 net.cpp:106] Creating Layer inception_4d/relu_5x5_reduce
I1126 19:48:43.160331 20571 net.cpp:454] inception_4d/relu_5x5_reduce <- inception_4d/5x5_reduce
I1126 19:48:43.160334 20571 net.cpp:397] inception_4d/relu_5x5_reduce -> inception_4d/5x5_reduce (in-place)
I1126 19:48:43.160670 20571 net.cpp:150] Setting up inception_4d/relu_5x5_reduce
I1126 19:48:43.160682 20571 net.cpp:157] Top shape: 64 32 14 14 (401408)
I1126 19:48:43.160686 20571 net.cpp:165] Memory required for data: 3028595720
I1126 19:48:43.160689 20571 layer_factory.hpp:76] Creating layer inception_4d/5x5
I1126 19:48:43.160698 20571 net.cpp:106] Creating Layer inception_4d/5x5
I1126 19:48:43.160702 20571 net.cpp:454] inception_4d/5x5 <- inception_4d/5x5_reduce
I1126 19:48:43.160707 20571 net.cpp:411] inception_4d/5x5 -> inception_4d/5x5
I1126 19:48:43.162273 20571 net.cpp:150] Setting up inception_4d/5x5
I1126 19:48:43.162286 20571 net.cpp:157] Top shape: 64 64 14 14 (802816)
I1126 19:48:43.162289 20571 net.cpp:165] Memory required for data: 3031806984
I1126 19:48:43.162295 20571 layer_factory.hpp:76] Creating layer inception_4d/relu_5x5
I1126 19:48:43.162300 20571 net.cpp:106] Creating Layer inception_4d/relu_5x5
I1126 19:48:43.162307 20571 net.cpp:454] inception_4d/relu_5x5 <- inception_4d/5x5
I1126 19:48:43.162310 20571 net.cpp:397] inception_4d/relu_5x5 -> inception_4d/5x5 (in-place)
I1126 19:48:43.162503 20571 net.cpp:150] Setting up inception_4d/relu_5x5
I1126 19:48:43.162513 20571 net.cpp:157] Top shape: 64 64 14 14 (802816)
I1126 19:48:43.162516 20571 net.cpp:165] Memory required for data: 3035018248
I1126 19:48:43.162519 20571 layer_factory.hpp:76] Creating layer inception_4d/pool
I1126 19:48:43.162526 20571 net.cpp:106] Creating Layer inception_4d/pool
I1126 19:48:43.162530 20571 net.cpp:454] inception_4d/pool <- inception_4c/output_inception_4c/output_0_split_3
I1126 19:48:43.162534 20571 net.cpp:411] inception_4d/pool -> inception_4d/pool
I1126 19:48:43.162917 20571 net.cpp:150] Setting up inception_4d/pool
I1126 19:48:43.162930 20571 net.cpp:157] Top shape: 64 512 14 14 (6422528)
I1126 19:48:43.162935 20571 net.cpp:165] Memory required for data: 3060708360
I1126 19:48:43.162940 20571 layer_factory.hpp:76] Creating layer inception_4d/pool_proj
I1126 19:48:43.162946 20571 net.cpp:106] Creating Layer inception_4d/pool_proj
I1126 19:48:43.162960 20571 net.cpp:454] inception_4d/pool_proj <- inception_4d/pool
I1126 19:48:43.162966 20571 net.cpp:411] inception_4d/pool_proj -> inception_4d/pool_proj
I1126 19:48:43.164419 20571 net.cpp:150] Setting up inception_4d/pool_proj
I1126 19:48:43.164433 20571 net.cpp:157] Top shape: 64 64 14 14 (802816)
I1126 19:48:43.164435 20571 net.cpp:165] Memory required for data: 3063919624
I1126 19:48:43.164441 20571 layer_factory.hpp:76] Creating layer inception_4d/relu_pool_proj
I1126 19:48:43.164446 20571 net.cpp:106] Creating Layer inception_4d/relu_pool_proj
I1126 19:48:43.164450 20571 net.cpp:454] inception_4d/relu_pool_proj <- inception_4d/pool_proj
I1126 19:48:43.164456 20571 net.cpp:397] inception_4d/relu_pool_proj -> inception_4d/pool_proj (in-place)
I1126 19:48:43.164646 20571 net.cpp:150] Setting up inception_4d/relu_pool_proj
I1126 19:48:43.164657 20571 net.cpp:157] Top shape: 64 64 14 14 (802816)
I1126 19:48:43.164660 20571 net.cpp:165] Memory required for data: 3067130888
I1126 19:48:43.164664 20571 layer_factory.hpp:76] Creating layer inception_4d/output
I1126 19:48:43.164669 20571 net.cpp:106] Creating Layer inception_4d/output
I1126 19:48:43.164672 20571 net.cpp:454] inception_4d/output <- inception_4d/1x1
I1126 19:48:43.164676 20571 net.cpp:454] inception_4d/output <- inception_4d/3x3
I1126 19:48:43.164680 20571 net.cpp:454] inception_4d/output <- inception_4d/5x5
I1126 19:48:43.164683 20571 net.cpp:454] inception_4d/output <- inception_4d/pool_proj
I1126 19:48:43.164687 20571 net.cpp:411] inception_4d/output -> inception_4d/output
I1126 19:48:43.164732 20571 net.cpp:150] Setting up inception_4d/output
I1126 19:48:43.164738 20571 net.cpp:157] Top shape: 64 528 14 14 (6623232)
I1126 19:48:43.164741 20571 net.cpp:165] Memory required for data: 3093623816
I1126 19:48:43.164744 20571 layer_factory.hpp:76] Creating layer inception_4d/output_inception_4d/output_0_split
I1126 19:48:43.164749 20571 net.cpp:106] Creating Layer inception_4d/output_inception_4d/output_0_split
I1126 19:48:43.164753 20571 net.cpp:454] inception_4d/output_inception_4d/output_0_split <- inception_4d/output
I1126 19:48:43.164758 20571 net.cpp:411] inception_4d/output_inception_4d/output_0_split -> inception_4d/output_inception_4d/output_0_split_0
I1126 19:48:43.164763 20571 net.cpp:411] inception_4d/output_inception_4d/output_0_split -> inception_4d/output_inception_4d/output_0_split_1
I1126 19:48:43.164769 20571 net.cpp:411] inception_4d/output_inception_4d/output_0_split -> inception_4d/output_inception_4d/output_0_split_2
I1126 19:48:43.164774 20571 net.cpp:411] inception_4d/output_inception_4d/output_0_split -> inception_4d/output_inception_4d/output_0_split_3
I1126 19:48:43.164778 20571 net.cpp:411] inception_4d/output_inception_4d/output_0_split -> inception_4d/output_inception_4d/output_0_split_4
I1126 19:48:43.164897 20571 net.cpp:150] Setting up inception_4d/output_inception_4d/output_0_split
I1126 19:48:43.164904 20571 net.cpp:157] Top shape: 64 528 14 14 (6623232)
I1126 19:48:43.164908 20571 net.cpp:157] Top shape: 64 528 14 14 (6623232)
I1126 19:48:43.164911 20571 net.cpp:157] Top shape: 64 528 14 14 (6623232)
I1126 19:48:43.164914 20571 net.cpp:157] Top shape: 64 528 14 14 (6623232)
I1126 19:48:43.164917 20571 net.cpp:157] Top shape: 64 528 14 14 (6623232)
I1126 19:48:43.164921 20571 net.cpp:165] Memory required for data: 3226088456
I1126 19:48:43.164923 20571 layer_factory.hpp:76] Creating layer loss2/ave_pool
I1126 19:48:43.164928 20571 net.cpp:106] Creating Layer loss2/ave_pool
I1126 19:48:43.164932 20571 net.cpp:454] loss2/ave_pool <- inception_4d/output_inception_4d/output_0_split_0
I1126 19:48:43.164937 20571 net.cpp:411] loss2/ave_pool -> loss2/ave_pool
I1126 19:48:43.165303 20571 net.cpp:150] Setting up loss2/ave_pool
I1126 19:48:43.165315 20571 net.cpp:157] Top shape: 64 528 4 4 (540672)
I1126 19:48:43.165318 20571 net.cpp:165] Memory required for data: 3228251144
I1126 19:48:43.165321 20571 layer_factory.hpp:76] Creating layer loss2/conv
I1126 19:48:43.165329 20571 net.cpp:106] Creating Layer loss2/conv
I1126 19:48:43.165333 20571 net.cpp:454] loss2/conv <- loss2/ave_pool
I1126 19:48:43.165339 20571 net.cpp:411] loss2/conv -> loss2/conv
I1126 19:48:43.167240 20571 net.cpp:150] Setting up loss2/conv
I1126 19:48:43.167253 20571 net.cpp:157] Top shape: 64 128 4 4 (131072)
I1126 19:48:43.167256 20571 net.cpp:165] Memory required for data: 3228775432
I1126 19:48:43.167263 20571 layer_factory.hpp:76] Creating layer loss2/relu_conv
I1126 19:48:43.167269 20571 net.cpp:106] Creating Layer loss2/relu_conv
I1126 19:48:43.167273 20571 net.cpp:454] loss2/relu_conv <- loss2/conv
I1126 19:48:43.167278 20571 net.cpp:397] loss2/relu_conv -> loss2/conv (in-place)
I1126 19:48:43.167619 20571 net.cpp:150] Setting up loss2/relu_conv
I1126 19:48:43.167631 20571 net.cpp:157] Top shape: 64 128 4 4 (131072)
I1126 19:48:43.167636 20571 net.cpp:165] Memory required for data: 3229299720
I1126 19:48:43.167639 20571 layer_factory.hpp:76] Creating layer loss2/fc
I1126 19:48:43.167646 20571 net.cpp:106] Creating Layer loss2/fc
I1126 19:48:43.167649 20571 net.cpp:454] loss2/fc <- loss2/conv
I1126 19:48:43.167654 20571 net.cpp:411] loss2/fc -> loss2/fc
I1126 19:48:43.181793 20571 net.cpp:150] Setting up loss2/fc
I1126 19:48:43.181807 20571 net.cpp:157] Top shape: 64 1024 (65536)
I1126 19:48:43.181810 20571 net.cpp:165] Memory required for data: 3229561864
I1126 19:48:43.181816 20571 layer_factory.hpp:76] Creating layer loss2/relu_fc
I1126 19:48:43.181823 20571 net.cpp:106] Creating Layer loss2/relu_fc
I1126 19:48:43.181825 20571 net.cpp:454] loss2/relu_fc <- loss2/fc
I1126 19:48:43.181831 20571 net.cpp:397] loss2/relu_fc -> loss2/fc (in-place)
I1126 19:48:43.182040 20571 net.cpp:150] Setting up loss2/relu_fc
I1126 19:48:43.182050 20571 net.cpp:157] Top shape: 64 1024 (65536)
I1126 19:48:43.182054 20571 net.cpp:165] Memory required for data: 3229824008
I1126 19:48:43.182056 20571 layer_factory.hpp:76] Creating layer loss2/drop_fc
I1126 19:48:43.182063 20571 net.cpp:106] Creating Layer loss2/drop_fc
I1126 19:48:43.182066 20571 net.cpp:454] loss2/drop_fc <- loss2/fc
I1126 19:48:43.182071 20571 net.cpp:397] loss2/drop_fc -> loss2/fc (in-place)
I1126 19:48:43.182114 20571 net.cpp:150] Setting up loss2/drop_fc
I1126 19:48:43.182121 20571 net.cpp:157] Top shape: 64 1024 (65536)
I1126 19:48:43.182124 20571 net.cpp:165] Memory required for data: 3230086152
I1126 19:48:43.182126 20571 layer_factory.hpp:76] Creating layer loss2/classifier-attribute
I1126 19:48:43.182133 20571 net.cpp:106] Creating Layer loss2/classifier-attribute
I1126 19:48:43.182135 20571 net.cpp:454] loss2/classifier-attribute <- loss2/fc
I1126 19:48:43.182143 20571 net.cpp:411] loss2/classifier-attribute -> loss2/classifier-attribute
I1126 19:48:43.251603 20571 net.cpp:150] Setting up loss2/classifier-attribute
I1126 19:48:43.251624 20571 net.cpp:157] Top shape: 64 9999 (639936)
I1126 19:48:43.251627 20571 net.cpp:165] Memory required for data: 3232645896
I1126 19:48:43.251636 20571 layer_factory.hpp:76] Creating layer loss2/classifier-attribute_loss2/classifier-attribute_0_split
I1126 19:48:43.251646 20571 net.cpp:106] Creating Layer loss2/classifier-attribute_loss2/classifier-attribute_0_split
I1126 19:48:43.251652 20571 net.cpp:454] loss2/classifier-attribute_loss2/classifier-attribute_0_split <- loss2/classifier-attribute
I1126 19:48:43.251658 20571 net.cpp:411] loss2/classifier-attribute_loss2/classifier-attribute_0_split -> loss2/classifier-attribute_loss2/classifier-attribute_0_split_0
I1126 19:48:43.251667 20571 net.cpp:411] loss2/classifier-attribute_loss2/classifier-attribute_0_split -> loss2/classifier-attribute_loss2/classifier-attribute_0_split_1
I1126 19:48:43.251729 20571 net.cpp:150] Setting up loss2/classifier-attribute_loss2/classifier-attribute_0_split
I1126 19:48:43.251741 20571 net.cpp:157] Top shape: 64 9999 (639936)
I1126 19:48:43.251745 20571 net.cpp:157] Top shape: 64 9999 (639936)
I1126 19:48:43.251747 20571 net.cpp:165] Memory required for data: 3237765384
I1126 19:48:43.251750 20571 layer_factory.hpp:76] Creating layer loss2/loss
I1126 19:48:43.251755 20571 net.cpp:106] Creating Layer loss2/loss
I1126 19:48:43.251759 20571 net.cpp:454] loss2/loss <- loss2/classifier-attribute_loss2/classifier-attribute_0_split_0
I1126 19:48:43.251762 20571 net.cpp:454] loss2/loss <- label_data_1_split_2
…
I1126 19:48:43.253541 20571 net.cpp:150] Setting up loss2/top-1
I1126 19:48:43.253545 20571 net.cpp:157] Top shape: (1)
I1126 19:48:43.253547 20571 net.cpp:165] Memory required for data: 3237765392
I1126 19:48:43.253551 20571 layer_factory.hpp:76] Creating layer inception_4e/1x1
I1126 19:48:43.253558 20571 net.cpp:106] Creating Layer inception_4e/1x1
I1126 19:48:43.253561 20571 net.cpp:454] inception_4e/1x1 <- inception_4d/output_inception_4d/output_0_split_1
I1126 19:48:43.253567 20571 net.cpp:411] inception_4e/1x1 -> inception_4e/1x1
I1126 19:48:43.255625 20571 net.cpp:150] Setting up inception_4e/1x1
I1126 19:48:43.255637 20571 net.cpp:157] Top shape: 64 256 14 14 (3211264)
I1126 19:48:43.255641 20571 net.cpp:165] Memory required for data: 3250610448
I1126 19:48:43.255646 20571 layer_factory.hpp:76] Creating layer inception_4e/relu_1x1
I1126 19:48:43.255653 20571 net.cpp:106] Creating Layer inception_4e/relu_1x1
I1126 19:48:43.255657 20571 net.cpp:454] inception_4e/relu_1x1 <- inception_4e/1x1
I1126 19:48:43.255662 20571 net.cpp:397] inception_4e/relu_1x1 -> inception_4e/1x1 (in-place)
I1126 19:48:43.255849 20571 net.cpp:150] Setting up inception_4e/relu_1x1
I1126 19:48:43.255859 20571 net.cpp:157] Top shape: 64 256 14 14 (3211264)
I1126 19:48:43.255862 20571 net.cpp:165] Memory required for data: 3263455504
I1126 19:48:43.255866 20571 layer_factory.hpp:76] Creating layer inception_4e/3x3_reduce
I1126 19:48:43.255873 20571 net.cpp:106] Creating Layer inception_4e/3x3_reduce
I1126 19:48:43.255877 20571 net.cpp:454] inception_4e/3x3_reduce <- inception_4d/output_inception_4d/output_0_split_2
I1126 19:48:43.255882 20571 net.cpp:411] inception_4e/3x3_reduce -> inception_4e/3x3_reduce
I1126 19:48:43.258033 20571 net.cpp:150] Setting up inception_4e/3x3_reduce
I1126 19:48:43.258046 20571 net.cpp:157] Top shape: 64 160 14 14 (2007040)
I1126 19:48:43.258050 20571 net.cpp:165] Memory required for data: 3271483664
I1126 19:48:43.258055 20571 layer_factory.hpp:76] Creating layer inception_4e/relu_3x3_reduce
I1126 19:48:43.258064 20571 net.cpp:106] Creating Layer inception_4e/relu_3x3_reduce
I1126 19:48:43.258067 20571 net.cpp:454] inception_4e/relu_3x3_reduce <- inception_4e/3x3_reduce
I1126 19:48:43.258072 20571 net.cpp:397] inception_4e/relu_3x3_reduce -> inception_4e/3x3_reduce (in-place)
I1126 19:48:43.258404 20571 net.cpp:150] Setting up inception_4e/relu_3x3_reduce
I1126 19:48:43.258419 20571 net.cpp:157] Top shape: 64 160 14 14 (2007040)
I1126 19:48:43.258421 20571 net.cpp:165] Memory required for data: 3279511824
I1126 19:48:43.258425 20571 layer_factory.hpp:76] Creating layer inception_4e/3x3
I1126 19:48:43.258448 20571 net.cpp:106] Creating Layer inception_4e/3x3
I1126 19:48:43.258455 20571 net.cpp:454] inception_4e/3x3 <- inception_4e/3x3_reduce
I1126 19:48:43.258460 20571 net.cpp:411] inception_4e/3x3 -> inception_4e/3x3
I1126 19:48:43.262737 20571 net.cpp:150] Setting up inception_4e/3x3
I1126 19:48:43.262749 20571 net.cpp:157] Top shape: 64 320 14 14 (4014080)
I1126 19:48:43.262753 20571 net.cpp:165] Memory required for data: 3295568144
I1126 19:48:43.262759 20571 layer_factory.hpp:76] Creating layer inception_4e/relu_3x3
I1126 19:48:43.262764 20571 net.cpp:106] Creating Layer inception_4e/relu_3x3
I1126 19:48:43.262768 20571 net.cpp:454] inception_4e/relu_3x3 <- inception_4e/3x3
I1126 19:48:43.262775 20571 net.cpp:397] inception_4e/relu_3x3 -> inception_4e/3x3 (in-place)
I1126 19:48:43.263116 20571 net.cpp:150] Setting up inception_4e/relu_3x3
I1126 19:48:43.263128 20571 net.cpp:157] Top shape: 64 320 14 14 (4014080)
I1126 19:48:43.263133 20571 net.cpp:165] Memory required for data: 3311624464
I1126 19:48:43.263135 20571 layer_factory.hpp:76] Creating layer inception_4e/5x5_reduce
I1126 19:48:43.263149 20571 net.cpp:106] Creating Layer inception_4e/5x5_reduce
I1126 19:48:43.263154 20571 net.cpp:454] inception_4e/5x5_reduce <- inception_4d/output_inception_4d/output_0_split_3
I1126 19:48:43.263160 20571 net.cpp:411] inception_4e/5x5_reduce -> inception_4e/5x5_reduce
I1126 19:48:43.264639 20571 net.cpp:150] Setting up inception_4e/5x5_reduce
I1126 19:48:43.264653 20571 net.cpp:157] Top shape: 64 32 14 14 (401408)
I1126 19:48:43.264657 20571 net.cpp:165] Memory required for data: 3313230096
I1126 19:48:43.264662 20571 layer_factory.hpp:76] Creating layer inception_4e/relu_5x5_reduce
I1126 19:48:43.264668 20571 net.cpp:106] Creating Layer inception_4e/relu_5x5_reduce
I1126 19:48:43.264672 20571 net.cpp:454] inception_4e/relu_5x5_reduce <- inception_4e/5x5_reduce
I1126 19:48:43.264677 20571 net.cpp:397] inception_4e/relu_5x5_reduce -> inception_4e/5x5_reduce (in-place)
I1126 19:48:43.264860 20571 net.cpp:150] Setting up inception_4e/relu_5x5_reduce
I1126 19:48:43.264869 20571 net.cpp:157] Top shape: 64 32 14 14 (401408)
I1126 19:48:43.264873 20571 net.cpp:165] Memory required for data: 3314835728
I1126 19:48:43.264875 20571 layer_factory.hpp:76] Creating layer inception_4e/5x5
I1126 19:48:43.264883 20571 net.cpp:106] Creating Layer inception_4e/5x5
I1126 19:48:43.264888 20571 net.cpp:454] inception_4e/5x5 <- inception_4e/5x5_reduce
I1126 19:48:43.264894 20571 net.cpp:411] inception_4e/5x5 -> inception_4e/5x5
I1126 19:48:43.266778 20571 net.cpp:150] Setting up inception_4e/5x5
I1126 19:48:43.266793 20571 net.cpp:157] Top shape: 64 128 14 14 (1605632)
I1126 19:48:43.266796 20571 net.cpp:165] Memory required for data: 3321258256
I1126 19:48:43.266801 20571 layer_factory.hpp:76] Creating layer inception_4e/relu_5x5
I1126 19:48:43.266808 20571 net.cpp:106] Creating Layer inception_4e/relu_5x5
I1126 19:48:43.266810 20571 net.cpp:454] inception_4e/relu_5x5 <- inception_4e/5x5
I1126 19:48:43.266815 20571 net.cpp:397] inception_4e/relu_5x5 -> inception_4e/5x5 (in-place)
I1126 19:48:43.267145 20571 net.cpp:150] Setting up inception_4e/relu_5x5
I1126 19:48:43.267158 20571 net.cpp:157] Top shape: 64 128 14 14 (1605632)
I1126 19:48:43.267163 20571 net.cpp:165] Memory required for data: 3327680784
I1126 19:48:43.267165 20571 layer_factory.hpp:76] Creating layer inception_4e/pool
I1126 19:48:43.267171 20571 net.cpp:106] Creating Layer inception_4e/pool
I1126 19:48:43.267175 20571 net.cpp:454] inception_4e/pool <- inception_4d/output_inception_4d/output_0_split_4
I1126 19:48:43.267180 20571 net.cpp:411] inception_4e/pool -> inception_4e/pool
I1126 19:48:43.267423 20571 net.cpp:150] Setting up inception_4e/pool
I1126 19:48:43.267433 20571 net.cpp:157] Top shape: 64 528 14 14 (6623232)
I1126 19:48:43.267436 20571 net.cpp:165] Memory required for data: 3354173712
I1126 19:48:43.267439 20571 layer_factory.hpp:76] Creating layer inception_4e/pool_proj
I1126 19:48:43.267446 20571 net.cpp:106] Creating Layer inception_4e/pool_proj
I1126 19:48:43.267452 20571 net.cpp:454] inception_4e/pool_proj <- inception_4e/pool
I1126 19:48:43.267457 20571 net.cpp:411] inception_4e/pool_proj -> inception_4e/pool_proj
I1126 19:48:43.269127 20571 net.cpp:150] Setting up inception_4e/pool_proj
I1126 19:48:43.269140 20571 net.cpp:157] Top shape: 64 128 14 14 (1605632)
I1126 19:48:43.269145 20571 net.cpp:165] Memory required for data: 3360596240
I1126 19:48:43.269150 20571 layer_factory.hpp:76] Creating layer inception_4e/relu_pool_proj
I1126 19:48:43.269155 20571 net.cpp:106] Creating Layer inception_4e/relu_pool_proj
I1126 19:48:43.269158 20571 net.cpp:454] inception_4e/relu_pool_proj <- inception_4e/pool_proj
I1126 19:48:43.269165 20571 net.cpp:397] inception_4e/relu_pool_proj -> inception_4e/pool_proj (in-place)
I1126 19:48:43.269498 20571 net.cpp:150] Setting up inception_4e/relu_pool_proj
I1126 19:48:43.269510 20571 net.cpp:157] Top shape: 64 128 14 14 (1605632)
I1126 19:48:43.269513 20571 net.cpp:165] Memory required for data: 3367018768
I1126 19:48:43.269517 20571 layer_factory.hpp:76] Creating layer inception_4e/output
I1126 19:48:43.269522 20571 net.cpp:106] Creating Layer inception_4e/output
I1126 19:48:43.269526 20571 net.cpp:454] inception_4e/output <- inception_4e/1x1
I1126 19:48:43.269531 20571 net.cpp:454] inception_4e/output <- inception_4e/3x3
I1126 19:48:43.269533 20571 net.cpp:454] inception_4e/output <- inception_4e/5x5
I1126 19:48:43.269537 20571 net.cpp:454] inception_4e/output <- inception_4e/pool_proj
I1126 19:48:43.269542 20571 net.cpp:411] inception_4e/output -> inception_4e/output
I1126 19:48:43.269593 20571 net.cpp:150] Setting up inception_4e/output
I1126 19:48:43.269601 20571 net.cpp:157] Top shape: 64 832 14 14 (10436608)
I1126 19:48:43.269603 20571 net.cpp:165] Memory required for data: 3408765200
I1126 19:48:43.269606 20571 layer_factory.hpp:76] Creating layer pool4/3x3_s2
I1126 19:48:43.269613 20571 net.cpp:106] Creating Layer pool4/3x3_s2
I1126 19:48:43.269615 20571 net.cpp:454] pool4/3x3_s2 <- inception_4e/output
I1126 19:48:43.269619 20571 net.cpp:411] pool4/3x3_s2 -> pool4/3x3_s2
I1126 19:48:43.269865 20571 net.cpp:150] Setting up pool4/3x3_s2
I1126 19:48:43.269875 20571 net.cpp:157] Top shape: 64 832 7 7 (2609152)
I1126 19:48:43.269877 20571 net.cpp:165] Memory required for data: 3419201808
I1126 19:48:43.269881 20571 layer_factory.hpp:76] Creating layer pool4/3x3_s2_pool4/3x3_s2_0_split
I1126 19:48:43.269887 20571 net.cpp:106] Creating Layer pool4/3x3_s2_pool4/3x3_s2_0_split
I1126 19:48:43.269891 20571 net.cpp:454] pool4/3x3_s2_pool4/3x3_s2_0_split <- pool4/3x3_s2
I1126 19:48:43.269896 20571 net.cpp:411] pool4/3x3_s2_pool4/3x3_s2_0_split -> pool4/3x3_s2_pool4/3x3_s2_0_split_0
I1126 19:48:43.269901 20571 net.cpp:411] pool4/3x3_s2_pool4/3x3_s2_0_split -> pool4/3x3_s2_pool4/3x3_s2_0_split_1
I1126 19:48:43.269906 20571 net.cpp:411] pool4/3x3_s2_pool4/3x3_s2_0_split -> pool4/3x3_s2_pool4/3x3_s2_0_split_2
I1126 19:48:43.269911 20571 net.cpp:411] pool4/3x3_s2_pool4/3x3_s2_0_split -> pool4/3x3_s2_pool4/3x3_s2_0_split_3
I1126 19:48:43.270011 20571 net.cpp:150] Setting up pool4/3x3_s2_pool4/3x3_s2_0_split
I1126 19:48:43.270018 20571 net.cpp:157] Top shape: 64 832 7 7 (2609152)
I1126 19:48:43.270022 20571 net.cpp:157] Top shape: 64 832 7 7 (2609152)
I1126 19:48:43.270025 20571 net.cpp:157] Top shape: 64 832 7 7 (2609152)
I1126 19:48:43.270028 20571 net.cpp:157] Top shape: 64 832 7 7 (2609152)
I1126 19:48:43.270031 20571 net.cpp:165] Memory required for data: 3460948240
I1126 19:48:43.270035 20571 layer_factory.hpp:76] Creating layer inception_5a/1x1
I1126 19:48:43.270041 20571 net.cpp:106] Creating Layer inception_5a/1x1
I1126 19:48:43.270045 20571 net.cpp:454] inception_5a/1x1 <- pool4/3x3_s2_pool4/3x3_s2_0_split_0
I1126 19:48:43.270051 20571 net.cpp:411] inception_5a/1x1 -> inception_5a/1x1
I1126 19:48:43.272927 20571 net.cpp:150] Setting up inception_5a/1x1
I1126 19:48:43.272941 20571 net.cpp:157] Top shape: 64 256 7 7 (802816)
I1126 19:48:43.272944 20571 net.cpp:165] Memory required for data: 3464159504
I1126 19:48:43.272950 20571 layer_factory.hpp:76] Creating layer inception_5a/relu_1x1
I1126 19:48:43.272956 20571 net.cpp:106] Creating Layer inception_5a/relu_1x1
I1126 19:48:43.272960 20571 net.cpp:454] inception_5a/relu_1x1 <- inception_5a/1x1
I1126 19:48:43.272964 20571 net.cpp:397] inception_5a/relu_1x1 -> inception_5a/1x1 (in-place)
I1126 19:48:43.273159 20571 net.cpp:150] Setting up inception_5a/relu_1x1
I1126 19:48:43.273169 20571 net.cpp:157] Top shape: 64 256 7 7 (802816)
I1126 19:48:43.273171 20571 net.cpp:165] Memory required for data: 3467370768
I1126 19:48:43.273175 20571 layer_factory.hpp:76] Creating layer inception_5a/3x3_reduce
I1126 19:48:43.273183 20571 net.cpp:106] Creating Layer inception_5a/3x3_reduce
I1126 19:48:43.273186 20571 net.cpp:454] inception_5a/3x3_reduce <- pool4/3x3_s2_pool4/3x3_s2_0_split_1
I1126 19:48:43.273192 20571 net.cpp:411] inception_5a/3x3_reduce -> inception_5a/3x3_reduce
I1126 19:48:43.275672 20571 net.cpp:150] Setting up inception_5a/3x3_reduce
I1126 19:48:43.275686 20571 net.cpp:157] Top shape: 64 160 7 7 (501760)
I1126 19:48:43.275689 20571 net.cpp:165] Memory required for data: 3469377808
I1126 19:48:43.275696 20571 layer_factory.hpp:76] Creating layer inception_5a/relu_3x3_reduce
I1126 19:48:43.275701 20571 net.cpp:106] Creating Layer inception_5a/relu_3x3_reduce
I1126 19:48:43.275704 20571 net.cpp:454] inception_5a/relu_3x3_reduce <- inception_5a/3x3_reduce
I1126 19:48:43.275709 20571 net.cpp:397] inception_5a/relu_3x3_reduce -> inception_5a/3x3_reduce (in-place)
I1126 19:48:43.276052 20571 net.cpp:150] Setting up inception_5a/relu_3x3_reduce
I1126 19:48:43.276065 20571 net.cpp:157] Top shape: 64 160 7 7 (501760)
I1126 19:48:43.276068 20571 net.cpp:165] Memory required for data: 3471384848
I1126 19:48:43.276072 20571 layer_factory.hpp:76] Creating layer inception_5a/3x3
I1126 19:48:43.276080 20571 net.cpp:106] Creating Layer inception_5a/3x3
I1126 19:48:43.276084 20571 net.cpp:454] inception_5a/3x3 <- inception_5a/3x3_reduce
I1126 19:48:43.276089 20571 net.cpp:411] inception_5a/3x3 -> inception_5a/3x3
I1126 19:48:43.280565 20571 net.cpp:150] Setting up inception_5a/3x3
I1126 19:48:43.280578 20571 net.cpp:157] Top shape: 64 320 7 7 (1003520)
I1126 19:48:43.280582 20571 net.cpp:165] Memory required for data: 3475398928
I1126 19:48:43.280588 20571 layer_factory.hpp:76] Creating layer inception_5a/relu_3x3
I1126 19:48:43.280593 20571 net.cpp:106] Creating Layer inception_5a/relu_3x3
I1126 19:48:43.280597 20571 net.cpp:454] inception_5a/relu_3x3 <- inception_5a/3x3
I1126 19:48:43.280603 20571 net.cpp:397] inception_5a/relu_3x3 -> inception_5a/3x3 (in-place)
I1126 19:48:43.280817 20571 net.cpp:150] Setting up inception_5a/relu_3x3
I1126 19:48:43.280828 20571 net.cpp:157] Top shape: 64 320 7 7 (1003520)
I1126 19:48:43.280832 20571 net.cpp:165] Memory required for data: 3479413008
I1126 19:48:43.280834 20571 layer_factory.hpp:76] Creating layer inception_5a/5x5_reduce
I1126 19:48:43.280843 20571 net.cpp:106] Creating Layer inception_5a/5x5_reduce
I1126 19:48:43.280849 20571 net.cpp:454] inception_5a/5x5_reduce <- pool4/3x3_s2_pool4/3x3_s2_0_split_2
I1126 19:48:43.280858 20571 net.cpp:411] inception_5a/5x5_reduce -> inception_5a/5x5_reduce
I1126 19:48:43.282713 20571 net.cpp:150] Setting up inception_5a/5x5_reduce
I1126 19:48:43.282727 20571 net.cpp:157] Top shape: 64 32 7 7 (100352)
I1126 19:48:43.282730 20571 net.cpp:165] Memory required for data: 3479814416
I1126 19:48:43.282735 20571 layer_factory.hpp:76] Creating layer inception_5a/relu_5x5_reduce
I1126 19:48:43.282742 20571 net.cpp:106] Creating Layer inception_5a/relu_5x5_reduce
I1126 19:48:43.282744 20571 net.cpp:454] inception_5a/relu_5x5_reduce <- inception_5a/5x5_reduce
I1126 19:48:43.282752 20571 net.cpp:397] inception_5a/relu_5x5_reduce -> inception_5a/5x5_reduce (in-place)
I1126 19:48:43.282945 20571 net.cpp:150] Setting up inception_5a/relu_5x5_reduce
I1126 19:48:43.282954 20571 net.cpp:157] Top shape: 64 32 7 7 (100352)
I1126 19:48:43.282958 20571 net.cpp:165] Memory required for data: 3480215824
I1126 19:48:43.282961 20571 layer_factory.hpp:76] Creating layer inception_5a/5x5
I1126 19:48:43.282968 20571 net.cpp:106] Creating Layer inception_5a/5x5
I1126 19:48:43.282973 20571 net.cpp:454] inception_5a/5x5 <- inception_5a/5x5_reduce
I1126 19:48:43.282979 20571 net.cpp:411] inception_5a/5x5 -> inception_5a/5x5
I1126 19:48:43.284970 20571 net.cpp:150] Setting up inception_5a/5x5
I1126 19:48:43.284983 20571 net.cpp:157] Top shape: 64 128 7 7 (401408)
I1126 19:48:43.284986 20571 net.cpp:165] Memory required for data: 3481821456
I1126 19:48:43.284992 20571 layer_factory.hpp:76] Creating layer inception_5a/relu_5x5
I1126 19:48:43.284997 20571 net.cpp:106] Creating Layer inception_5a/relu_5x5
I1126 19:48:43.285001 20571 net.cpp:454] inception_5a/relu_5x5 <- inception_5a/5x5
I1126 19:48:43.285007 20571 net.cpp:397] inception_5a/relu_5x5 -> inception_5a/5x5 (in-place)
I1126 19:48:43.285374 20571 net.cpp:150] Setting up inception_5a/relu_5x5
I1126 19:48:43.285387 20571 net.cpp:157] Top shape: 64 128 7 7 (401408)
I1126 19:48:43.285390 20571 net.cpp:165] Memory required for data: 3483427088
I1126 19:48:43.285393 20571 layer_factory.hpp:76] Creating layer inception_5a/pool
I1126 19:48:43.285399 20571 net.cpp:106] Creating Layer inception_5a/pool
I1126 19:48:43.285404 20571 net.cpp:454] inception_5a/pool <- pool4/3x3_s2_pool4/3x3_s2_0_split_3
I1126 19:48:43.285409 20571 net.cpp:411] inception_5a/pool -> inception_5a/pool
I1126 19:48:43.285672 20571 net.cpp:150] Setting up inception_5a/pool
I1126 19:48:43.285682 20571 net.cpp:157] Top shape: 64 832 7 7 (2609152)
I1126 19:48:43.285686 20571 net.cpp:165] Memory required for data: 3493863696
I1126 19:48:43.285689 20571 layer_factory.hpp:76] Creating layer inception_5a/pool_proj
I1126 19:48:43.285697 20571 net.cpp:106] Creating Layer inception_5a/pool_proj
I1126 19:48:43.285701 20571 net.cpp:454] inception_5a/pool_proj <- inception_5a/pool
I1126 19:48:43.285707 20571 net.cpp:411] inception_5a/pool_proj -> inception_5a/pool_proj
I1126 19:48:43.288031 20571 net.cpp:150] Setting up inception_5a/pool_proj
I1126 19:48:43.288045 20571 net.cpp:157] Top shape: 64 128 7 7 (401408)
I1126 19:48:43.288048 20571 net.cpp:165] Memory required for data: 3495469328
I1126 19:48:43.288054 20571 layer_factory.hpp:76] Creating layer inception_5a/relu_pool_proj
I1126 19:48:43.288059 20571 net.cpp:106] Creating Layer inception_5a/relu_pool_proj
I1126 19:48:43.288064 20571 net.cpp:454] inception_5a/relu_pool_proj <- inception_5a/pool_proj
I1126 19:48:43.288069 20571 net.cpp:397] inception_5a/relu_pool_proj -> inception_5a/pool_proj (in-place)
I1126 19:48:43.288417 20571 net.cpp:150] Setting up inception_5a/relu_pool_proj
I1126 19:48:43.288430 20571 net.cpp:157] Top shape: 64 128 7 7 (401408)
I1126 19:48:43.288434 20571 net.cpp:165] Memory required for data: 3497074960
I1126 19:48:43.288436 20571 layer_factory.hpp:76] Creating layer inception_5a/output
I1126 19:48:43.288442 20571 net.cpp:106] Creating Layer inception_5a/output
I1126 19:48:43.288445 20571 net.cpp:454] inception_5a/output <- inception_5a/1x1
I1126 19:48:43.288450 20571 net.cpp:454] inception_5a/output <- inception_5a/3x3
I1126 19:48:43.288455 20571 net.cpp:454] inception_5a/output <- inception_5a/5x5
I1126 19:48:43.288457 20571 net.cpp:454] inception_5a/output <- inception_5a/pool_proj
I1126 19:48:43.288465 20571 net.cpp:411] inception_5a/output -> inception_5a/output
I1126 19:48:43.288523 20571 net.cpp:150] Setting up inception_5a/output
I1126 19:48:43.288532 20571 net.cpp:157] Top shape: 64 832 7 7 (2609152)
I1126 19:48:43.288534 20571 net.cpp:165] Memory required for data: 3507511568
I1126 19:48:43.288537 20571 layer_factory.hpp:76] Creating layer inception_5a/output_inception_5a/output_0_split
I1126 19:48:43.288543 20571 net.cpp:106] Creating Layer inception_5a/output_inception_5a/output_0_split
I1126 19:48:43.288547 20571 net.cpp:454] inception_5a/output_inception_5a/output_0_split <- inception_5a/output
I1126 19:48:43.288552 20571 net.cpp:411] inception_5a/output_inception_5a/output_0_split -> inception_5a/output_inception_5a/output_0_split_0
I1126 19:48:43.288558 20571 net.cpp:411] inception_5a/output_inception_5a/output_0_split -> inception_5a/output_inception_5a/output_0_split_1
I1126 19:48:43.288564 20571 net.cpp:411] inception_5a/output_inception_5a/output_0_split -> inception_5a/output_inception_5a/output_0_split_2
I1126 19:48:43.288573 20571 net.cpp:411] inception_5a/output_inception_5a/output_0_split -> inception_5a/output_inception_5a/output_0_split_3
I1126 19:48:43.288688 20571 net.cpp:150] Setting up inception_5a/output_inception_5a/output_0_split
I1126 19:48:43.288697 20571 net.cpp:157] Top shape: 64 832 7 7 (2609152)
I1126 19:48:43.288699 20571 net.cpp:157] Top shape: 64 832 7 7 (2609152)
I1126 19:48:43.288702 20571 net.cpp:157] Top shape: 64 832 7 7 (2609152)
I1126 19:48:43.288705 20571 net.cpp:157] Top shape: 64 832 7 7 (2609152)
I1126 19:48:43.288708 20571 net.cpp:165] Memory required for data: 3549258000
I1126 19:48:43.288712 20571 layer_factory.hpp:76] Creating layer inception_5b/1x1
I1126 19:48:43.288719 20571 net.cpp:106] Creating Layer inception_5b/1x1
I1126 19:48:43.288723 20571 net.cpp:454] inception_5b/1x1 <- inception_5a/output_inception_5a/output_0_split_0
I1126 19:48:43.288728 20571 net.cpp:411] inception_5b/1x1 -> inception_5b/1x1
I1126 19:48:43.292151 20571 net.cpp:150] Setting up inception_5b/1x1
I1126 19:48:43.292163 20571 net.cpp:157] Top shape: 64 384 7 7 (1204224)
I1126 19:48:43.292167 20571 net.cpp:165] Memory required for data: 3554074896
I1126 19:48:43.292172 20571 layer_factory.hpp:76] Creating layer inception_5b/relu_1x1
I1126 19:48:43.292179 20571 net.cpp:106] Creating Layer inception_5b/relu_1x1
I1126 19:48:43.292183 20571 net.cpp:454] inception_5b/relu_1x1 <- inception_5b/1x1
I1126 19:48:43.292187 20571 net.cpp:397] inception_5b/relu_1x1 -> inception_5b/1x1 (in-place)
I1126 19:48:43.292536 20571 net.cpp:150] Setting up inception_5b/relu_1x1
I1126 19:48:43.292549 20571 net.cpp:157] Top shape: 64 384 7 7 (1204224)
I1126 19:48:43.292552 20571 net.cpp:165] Memory required for data: 3558891792
I1126 19:48:43.292556 20571 layer_factory.hpp:76] Creating layer inception_5b/3x3_reduce
I1126 19:48:43.292563 20571 net.cpp:106] Creating Layer inception_5b/3x3_reduce
I1126 19:48:43.292567 20571 net.cpp:454] inception_5b/3x3_reduce <- inception_5a/output_inception_5a/output_0_split_1
I1126 19:48:43.292573 20571 net.cpp:411] inception_5b/3x3_reduce -> inception_5b/3x3_reduce
I1126 19:48:43.295233 20571 net.cpp:150] Setting up inception_5b/3x3_reduce
I1126 19:48:43.295248 20571 net.cpp:157] Top shape: 64 192 7 7 (602112)
I1126 19:48:43.295250 20571 net.cpp:165] Memory required for data: 3561300240
I1126 19:48:43.295256 20571 layer_factory.hpp:76] Creating layer inception_5b/relu_3x3_reduce
I1126 19:48:43.295263 20571 net.cpp:106] Creating Layer inception_5b/relu_3x3_reduce
I1126 19:48:43.295266 20571 net.cpp:454] inception_5b/relu_3x3_reduce <- inception_5b/3x3_reduce
I1126 19:48:43.295277 20571 net.cpp:397] inception_5b/relu_3x3_reduce -> inception_5b/3x3_reduce (in-place)
I1126 19:48:43.295471 20571 net.cpp:150] Setting up inception_5b/relu_3x3_reduce
I1126 19:48:43.295481 20571 net.cpp:157] Top shape: 64 192 7 7 (602112)
I1126 19:48:43.295485 20571 net.cpp:165] Memory required for data: 3563708688
I1126 19:48:43.295487 20571 layer_factory.hpp:76] Creating layer inception_5b/3x3
I1126 19:48:43.295495 20571 net.cpp:106] Creating Layer inception_5b/3x3
I1126 19:48:43.295498 20571 net.cpp:454] inception_5b/3x3 <- inception_5b/3x3_reduce
I1126 19:48:43.295505 20571 net.cpp:411] inception_5b/3x3 -> inception_5b/3x3
I1126 19:48:43.301353 20571 net.cpp:150] Setting up inception_5b/3x3
I1126 19:48:43.301367 20571 net.cpp:157] Top shape: 64 384 7 7 (1204224)
I1126 19:48:43.301370 20571 net.cpp:165] Memory required for data: 3568525584
I1126 19:48:43.301375 20571 layer_factory.hpp:76] Creating layer inception_5b/relu_3x3
I1126 19:48:43.301383 20571 net.cpp:106] Creating Layer inception_5b/relu_3x3
I1126 19:48:43.301386 20571 net.cpp:454] inception_5b/relu_3x3 <- inception_5b/3x3
I1126 19:48:43.301390 20571 net.cpp:397] inception_5b/relu_3x3 -> inception_5b/3x3 (in-place)
I1126 19:48:43.301740 20571 net.cpp:150] Setting up inception_5b/relu_3x3
I1126 19:48:43.301753 20571 net.cpp:157] Top shape: 64 384 7 7 (1204224)
I1126 19:48:43.301755 20571 net.cpp:165] Memory required for data: 3573342480
I1126 19:48:43.301759 20571 layer_factory.hpp:76] Creating layer inception_5b/5x5_reduce
I1126 19:48:43.301767 20571 net.cpp:106] Creating Layer inception_5b/5x5_reduce
I1126 19:48:43.301770 20571 net.cpp:454] inception_5b/5x5_reduce <- inception_5a/output_inception_5a/output_0_split_2
I1126 19:48:43.301777 20571 net.cpp:411] inception_5b/5x5_reduce -> inception_5b/5x5_reduce
I1126 19:48:43.303565 20571 net.cpp:150] Setting up inception_5b/5x5_reduce
I1126 19:48:43.303580 20571 net.cpp:157] Top shape: 64 48 7 7 (150528)
I1126 19:48:43.303583 20571 net.cpp:165] Memory required for data: 3573944592
I1126 19:48:43.303589 20571 layer_factory.hpp:76] Creating layer inception_5b/relu_5x5_reduce
I1126 19:48:43.303594 20571 net.cpp:106] Creating Layer inception_5b/relu_5x5_reduce
I1126 19:48:43.303598 20571 net.cpp:454] inception_5b/relu_5x5_reduce <- inception_5b/5x5_reduce
I1126 19:48:43.303604 20571 net.cpp:397] inception_5b/relu_5x5_reduce -> inception_5b/5x5_reduce (in-place)
I1126 19:48:43.303961 20571 net.cpp:150] Setting up inception_5b/relu_5x5_reduce
I1126 19:48:43.303975 20571 net.cpp:157] Top shape: 64 48 7 7 (150528)
I1126 19:48:43.303978 20571 net.cpp:165] Memory required for data: 3574546704
I1126 19:48:43.303982 20571 layer_factory.hpp:76] Creating layer inception_5b/5x5
I1126 19:48:43.303989 20571 net.cpp:106] Creating Layer inception_5b/5x5
I1126 19:48:43.303993 20571 net.cpp:454] inception_5b/5x5 <- inception_5b/5x5_reduce
I1126 19:48:43.303999 20571 net.cpp:411] inception_5b/5x5 -> inception_5b/5x5
I1126 19:48:43.305982 20571 net.cpp:150] Setting up inception_5b/5x5
I1126 19:48:43.305995 20571 net.cpp:157] Top shape: 64 128 7 7 (401408)
I1126 19:48:43.305999 20571 net.cpp:165] Memory required for data: 3576152336
I1126 19:48:43.306005 20571 layer_factory.hpp:76] Creating layer inception_5b/relu_5x5
I1126 19:48:43.306010 20571 net.cpp:106] Creating Layer inception_5b/relu_5x5
I1126 19:48:43.306015 20571 net.cpp:454] inception_5b/relu_5x5 <- inception_5b/5x5
I1126 19:48:43.306020 20571 net.cpp:397] inception_5b/relu_5x5 -> inception_5b/5x5 (in-place)
I1126 19:48:43.306211 20571 net.cpp:150] Setting up inception_5b/relu_5x5
I1126 19:48:43.306221 20571 net.cpp:157] Top shape: 64 128 7 7 (401408)
I1126 19:48:43.306224 20571 net.cpp:165] Memory required for data: 3577757968
I1126 19:48:43.306227 20571 layer_factory.hpp:76] Creating layer inception_5b/pool
I1126 19:48:43.306232 20571 net.cpp:106] Creating Layer inception_5b/pool
I1126 19:48:43.306236 20571 net.cpp:454] inception_5b/pool <- inception_5a/output_inception_5a/output_0_split_3
I1126 19:48:43.306242 20571 net.cpp:411] inception_5b/pool -> inception_5b/pool
I1126 19:48:43.306640 20571 net.cpp:150] Setting up inception_5b/pool
I1126 19:48:43.306653 20571 net.cpp:157] Top shape: 64 832 7 7 (2609152)
I1126 19:48:43.306656 20571 net.cpp:165] Memory required for data: 3588194576
I1126 19:48:43.306659 20571 layer_factory.hpp:76] Creating layer inception_5b/pool_proj
I1126 19:48:43.306668 20571 net.cpp:106] Creating Layer inception_5b/pool_proj
I1126 19:48:43.306673 20571 net.cpp:454] inception_5b/pool_proj <- inception_5b/pool
I1126 19:48:43.306679 20571 net.cpp:411] inception_5b/pool_proj -> inception_5b/pool_proj
I1126 19:48:43.308780 20571 net.cpp:150] Setting up inception_5b/pool_proj
I1126 19:48:43.308804 20571 net.cpp:157] Top shape: 64 128 7 7 (401408)
I1126 19:48:43.308807 20571 net.cpp:165] Memory required for data: 3589800208
I1126 19:48:43.308814 20571 layer_factory.hpp:76] Creating layer inception_5b/relu_pool_proj
I1126 19:48:43.308820 20571 net.cpp:106] Creating Layer inception_5b/relu_pool_proj
I1126 19:48:43.308823 20571 net.cpp:454] inception_5b/relu_pool_proj <- inception_5b/pool_proj
I1126 19:48:43.308827 20571 net.cpp:397] inception_5b/relu_pool_proj -> inception_5b/pool_proj (in-place)
I1126 19:48:43.309020 20571 net.cpp:150] Setting up inception_5b/relu_pool_proj
I1126 19:48:43.309029 20571 net.cpp:157] Top shape: 64 128 7 7 (401408)
I1126 19:48:43.309032 20571 net.cpp:165] Memory required for data: 3591405840
I1126 19:48:43.309036 20571 layer_factory.hpp:76] Creating layer inception_5b/output
I1126 19:48:43.309042 20571 net.cpp:106] Creating Layer inception_5b/output
I1126 19:48:43.309046 20571 net.cpp:454] inception_5b/output <- inception_5b/1x1
I1126 19:48:43.309051 20571 net.cpp:454] inception_5b/output <- inception_5b/3x3
I1126 19:48:43.309053 20571 net.cpp:454] inception_5b/output <- inception_5b/5x5
I1126 19:48:43.309057 20571 net.cpp:454] inception_5b/output <- inception_5b/pool_proj
I1126 19:48:43.309062 20571 net.cpp:411] inception_5b/output -> inception_5b/output
I1126 19:48:43.309087 20571 net.cpp:150] Setting up inception_5b/output
I1126 19:48:43.309092 20571 net.cpp:157] Top shape: 64 1024 7 7 (3211264)
I1126 19:48:43.309093 20571 net.cpp:165] Memory required for data: 3604250896
I1126 19:48:43.309097 20571 layer_factory.hpp:76] Creating layer pool5/7x7_s1
I1126 19:48:43.309103 20571 net.cpp:106] Creating Layer pool5/7x7_s1
I1126 19:48:43.309105 20571 net.cpp:454] pool5/7x7_s1 <- inception_5b/output
I1126 19:48:43.309110 20571 net.cpp:411] pool5/7x7_s1 -> pool5/7x7_s1
I1126 19:48:43.309587 20571 net.cpp:150] Setting up pool5/7x7_s1
I1126 19:48:43.309598 20571 net.cpp:157] Top shape: 64 1024 1 1 (65536)
I1126 19:48:43.309602 20571 net.cpp:165] Memory required for data: 3604513040
I1126 19:48:43.309604 20571 layer_factory.hpp:76] Creating layer pool5/drop_7x7_s1
I1126 19:48:43.309612 20571 net.cpp:106] Creating Layer pool5/drop_7x7_s1
I1126 19:48:43.309615 20571 net.cpp:454] pool5/drop_7x7_s1 <- pool5/7x7_s1
I1126 19:48:43.309622 20571 net.cpp:397] pool5/drop_7x7_s1 -> pool5/7x7_s1 (in-place)
I1126 19:48:43.309645 20571 net.cpp:150] Setting up pool5/drop_7x7_s1
I1126 19:48:43.309650 20571 net.cpp:157] Top shape: 64 1024 1 1 (65536)
I1126 19:48:43.309653 20571 net.cpp:165] Memory required for data: 3604775184
I1126 19:48:43.309656 20571 layer_factory.hpp:76] Creating layer loss3/classifier-attribute
I1126 19:48:43.309662 20571 net.cpp:106] Creating Layer loss3/classifier-attribute
I1126 19:48:43.309665 20571 net.cpp:454] loss3/classifier-attribute <- pool5/7x7_s1
I1126 19:48:43.309671 20571 net.cpp:411] loss3/classifier-attribute -> loss3/classifier-attribute
I1126 19:48:43.377214 20571 net.cpp:150] Setting up loss3/classifier-attribute
I1126 19:48:43.377234 20571 net.cpp:157] Top shape: 64 9999 (639936)
I1126 19:48:43.377249 20571 net.cpp:165] Memory required for data: 3607334928
I1126 19:48:43.377256 20571 layer_factory.hpp:76] Creating layer loss3/classifier-attribute_loss3/classifier-attribute_0_split
I1126 19:48:43.377265 20571 net.cpp:106] Creating Layer loss3/classifier-attribute_loss3/classifier-attribute_0_split
I1126 19:48:43.377272 20571 net.cpp:454] loss3/classifier-attribute_loss3/classifier-attribute_0_split <- loss3/classifier-attribute
I1126 19:48:43.377279 20571 net.cpp:411] loss3/classifier-attribute_loss3/classifier-attribute_0_split -> loss3/classifier-attribute_loss3/classifier-attribute_0_split_0
I1126 19:48:43.377286 20571 net.cpp:411] loss3/classifier-attribute_loss3/classifier-attribute_0_split -> loss3/classifier-attribute_loss3/classifier-attribute_0_split_1
I1126 19:48:43.377321 20571 net.cpp:150] Setting up loss3/classifier-attribute_loss3/classifier-attribute_0_split
I1126 19:48:43.377326 20571 net.cpp:157] Top shape: 64 9999 (639936)
I1126 19:48:43.377329 20571 net.cpp:157] Top shape: 64 9999 (639936)
I1126 19:48:43.377331 20571 net.cpp:165] Memory required for data: 3612454416
I1126 19:48:43.377334 20571 layer_factory.hpp:76] Creating layer loss3/loss3
I1126 19:48:43.377341 20571 net.cpp:106] Creating Layer loss3/loss3
I1126 19:48:43.377344 20571 net.cpp:454] loss3/loss3 <- loss3/classifier-attribute_loss3/classifier-attribute_0_split_0
I1126 19:48:43.377348 20571 net.cpp:454] loss3/loss3 <- label_data_1_split_4
…
