…
I1125 19:43:47.785936 26345 net.cpp:322] The NetState phase (0) differed from the phase (1) specified by a rule in layer loss3/top-1
I1125 19:43:47.787413 26345 net.cpp:49] Initializing net from parameters: 
name: "GoogleNet-finetune-for-cigit"
state {
  phase: TRAIN
}
layer {
  name: "data"
  type: "ImageData"
  top: "data"
  top: "label"
  include {
    phase: TRAIN
  }
  transform_param {
    mirror: true
    crop_size: 224
    mean_value: 104
    mean_value: 117
    mean_value: 123
  }
  image_data_param {
    source: "pad_train.txt"
    batch_size: 64
    shuffle: true
    new_height: 256
    new_width: 256
  }
}
layer {
  name: "conv1/7x7_s2"
  type: "Convolution"
  bottom: "data"
  top: "conv1/7x7_s2"
  param {
    lr_mult: 1
    decay_mult: 1
  }
  param {
    lr_mult: 2
    decay_mult: 0
  }
  convolution_param {
    num_output: 64
    pad: 3
    kernel_size: 7
    stride: 2
    weight_filler {
      type: "xavier"
    }
    bias_filler {
      type: "constant"
      value: 0.2
    }
  }
}
layer {
  name: "conv1/relu_7x7"
  type: "ReLU"
  bottom: "conv1/7x7_s2"
  top: "conv1/7x7_s2"
}
layer {
  name: "pool1/3x3_s2"
  type: "Pooling"
  bottom: "conv1/7x7_s2"
  top: "pool1/3x3_s2"
  pooling_param {
    pool: MAX
    kernel_size: 3
    stride: 2
  }
}
layer {
  name: "pool1/norm1"
  type: "LRN"
  bottom: "pool1/3x3_s2"
  top: "pool1/norm1"
  lrn_param {
    local_size: 5
    alpha: 0.0001
    beta: 0.75
  }
}
layer {
  name: "conv2/3x3_reduce"
  type: "Convolution"
  bottom: "pool1/norm1"
  top: "conv2/3x3_reduce"
  param {
    lr_mult: 1
    decay_mult: 1
  }
  param {
    lr_mult: 2
    decay_mult: 0
  }
  convolution_param {
    num_output: 64
    kernel_size: 1
    weight_filler {
      type: "xavier"
    }
    bias_filler {
      type: "constant"
      value: 0.2
    }
  }
}
layer {
  name: "conv2/relu_3x3_reduce"
  type: "ReLU"
  bottom: "conv2/3x3_reduce"
  top: "conv2/3x3_reduce"
}
layer {
  name: "conv2/3x3"
  type: "Convolution"
  bottom: "conv2/3x3_reduce"
  top: "conv2/3x3"
  param {
    lr_mult: 1
    decay_mult: 1
  }
  param {
    lr_mult: 2
    decay_mult: 0
  }
  convolution_param {
    num_output: 192
    pad: 1
    kernel_size: 3
    weight_filler {
      type: "xavier"
    }
    bias_filler {
      type: "constant"
      value: 0.2
    }
  }
}
layer {
  name: "conv2/relu_3x3"
  type: "ReLU"
  bottom: "conv2/3x3"
  top: "conv2/3x3"
}
layer {
  name: "conv2/norm2"
  type: "LRN"
  bottom: "conv2/3x3"
  top: "conv2/norm2"
  lrn_param {
    local_size: 5
    alpha: 0.0001
    beta: 0.75
  }
}
layer {
  name: "pool2/3x3_s2"
  type: "Pooling"
  bottom: "conv2/norm2"
  top: "pool2/3x3_s2"
  pooling_param {
    pool: MAX
    kernel_size: 3
    stride: 2
  }
}
layer {
  name: "inception_3a/1x1"
  type: "Convolution"
  bottom: "pool2/3x3_s2"
  top: "inception_3a/1x1"
  param {
    lr_mult: 1
    decay_mult: 1
  }
  param {
    lr_mult: 2
    decay_mult: 0
  }
  convolution_param {
    num_output: 64
    kernel_size: 1
    weight_filler {
      type: "xavier"
    }
    bias_filler {
      type: "constant"
      value: 0.2
    }
  }
}
layer {
  name: "inception_3a/relu_1x1"
  type: "ReLU"
  bottom: "inception_3a/1x1"
  top: "inception_3a/1x1"
}
layer {
  name: "inception_3a/3x3_reduce"
  type: "Convolution"
  bottom: "pool2/3x3_s2"
  top: "inception_3a/3x3_reduce"
  param {
    lr_mult: 1
    decay_mult: 1
  }
  param {
    lr_mult: 2
    decay_mult: 0
  }
  convolution_param {
    num_output: 96
    kernel_size: 1
    weight_filler {
      type: "xavier"
    }
    bias_filler {
      type: "constant"
      value: 0.2
    }
  }
}
layer {
  name: "inception_3a/relu_3x3_reduce"
  type: "ReLU"
  bottom: "inception_3a/3x3_reduce"
  top: "inception_3a/3x3_reduce"
}
layer {
  name: "inception_3a/3x3"
  type: "Convolution"
  bottom: "inception_3a/3x3_reduce"
  top: "inception_3a/3x3"
  param {
    lr_mult: 1
    decay_mult: 1
  }
  param {
    lr_mult: 2
    decay_mult: 0
  }
  convolution_param {
    num_output: 128
    pad: 1
    kernel_size: 3
    weight_filler {
      type: "xavier"
    }
    bias_filler {
      type: "constant"
      value: 0.2
    }
  }
}
layer {
  name: "inception_3a/relu_3x3"
  type: "ReLU"
  bottom: "inception_3a/3x3"
  top: "inception_3a/3x3"
}
layer {
  name: "inception_3a/5x5_reduce"
  type: "Convolution"
  bottom: "pool2/3x3_s2"
  top: "inception_3a/5x5_reduce"
  param {
    lr_mult: 1
    decay_mult: 1
  }
  param {
    lr_mult: 2
    decay_mult: 0
  }
  convolution_param {
    num_output: 16
    kernel_size: 1
    weight_filler {
      type: "xavier"
    }
    bias_filler {
      type: "constant"
      value: 0.2
    }
  }
}
layer {
  name: "inception_3a/relu_5x5_reduce"
  type: "ReLU"
  bottom: "inception_3a/5x5_reduce"
  top: "inception_3a/5x5_reduce"
}
layer {
  name: "inception_3a/5x5"
  type: "Convolution"
  bottom: "inception_3a/5x5_reduce"
  top: "inception_3a/5x5"
  param {
    lr_mult: 1
    decay_mult: 1
  }
  param {
    lr_mult: 2
    decay_mult: 0
  }
  convolution_param {
    num_output: 32
    pad: 2
    kernel_size: 5
    weight_filler {
      type: "xavier"
    }
    bias_filler {
      type: "constant"
      value: 0.2
    }
  }
}
layer {
  name: "inception_3a/relu_5x5"
  type: "ReLU"
  bottom: "inception_3a/5x5"
  top: "inception_3a/5x5"
}
layer {
  name: "inception_3a/pool"
  type: "Pooling"
  bottom: "pool2/3x3_s2"
  top: "inception_3a/pool"
  pooling_param {
    pool: MAX
    kernel_size: 3
    stride: 1
    pad: 1
  }
}
layer {
  name: "inception_3a/pool_proj"
  type: "Convolution"
  bottom: "inception_3a/pool"
  top: "inception_3a/pool_proj"
  param {
    lr_mult: 1
    decay_mult: 1
  }
  param {
    lr_mult: 2
    decay_mult: 0
  }
  convolution_param {
    num_output: 32
    kernel_size: 1
    weight_filler {
      type: "xavier"
    }
    bias_filler {
      type: "constant"
      value: 0.2
    }
  }
}
layer {
  name: "inception_3a/relu_pool_proj"
  type: "ReLU"
  bottom: "inception_3a/pool_proj"
  top: "inception_3a/pool_proj"
}
layer {
  name: "inception_3a/output"
  type: "Concat"
  bottom: "inception_3a/1x1"
  bottom: "inception_3a/3x3"
  bottom: "inception_3a/5x5"
  bottom: "inception_3a/pool_proj"
  top: "inception_3a/output"
}
layer {
  name: "inception_3b/1x1"
  type: "Convolution"
  bottom: "inception_3a/output"
  top: "inception_3b/1x1"
  param {
    lr_mult: 1
    decay_mult: 1
  }
  param {
    lr_mult: 2
    decay_mult: 0
  }
  convolution_param {
    num_output: 128
    kernel_size: 1
    weight_filler {
      type: "xavier"
    }
    bias_filler {
      type: "constant"
      value: 0.2
    }
  }
}
layer {
  name: "inception_3b/relu_1x1"
  type: "ReLU"
  bottom: "inception_3b/1x1"
  top: "inception_3b/1x1"
}
layer {
  name: "inception_3b/3x3_reduce"
  type: "Convolution"
  bottom: "inception_3a/output"
  top: "inception_3b/3x3_reduce"
  param {
    lr_mult: 1
    decay_mult: 1
  }
  param {
    lr_mult: 2
    decay_mult: 0
  }
  convolution_param {
    num_output: 128
    kernel_size: 1
    weight_filler {
      type: "xavier"
    }
    bias_filler {
      type: "constant"
      value: 0.2
    }
  }
}
layer {
  name: "inception_3b/relu_3x3_reduce"
  type: "ReLU"
  bottom: "inception_3b/3x3_reduce"
  top: "inception_3b/3x3_reduce"
}
layer {
  name: "inception_3b/3x3"
  type: "Convolution"
  bottom: "inception_3b/3x3_reduce"
  top: "inception_3b/3x3"
  param {
    lr_mult: 1
    decay_mult: 1
  }
  param {
    lr_mult: 2
    decay_mult: 0
  }
  convolution_param {
    num_output: 192
    pad: 1
    kernel_size: 3
    weight_filler {
      type: "xavier"
    }
    bias_filler {
      type: "constant"
      value: 0.2
    }
  }
}
layer {
  name: "inception_3b/relu_3x3"
  type: "ReLU"
  bottom: "inception_3b/3x3"
  top: "inception_3b/3x3"
}
layer {
  name: "inception_3b/5x5_reduce"
  type: "Convolution"
  bottom: "inception_3a/output"
  top: "inception_3b/5x5_reduce"
  param {
    lr_mult: 1
    decay_mult: 1
  }
  param {
    lr_mult: 2
    decay_mult: 0
  }
  convolution_param {
    num_output: 32
    kernel_size: 1
    weight_filler {
      type: "xavier"
    }
    bias_filler {
      type: "constant"
      value: 0.2
    }
  }
}
layer {
  name: "inception_3b/relu_5x5_reduce"
  type: "ReLU"
  bottom: "inception_3b/5x5_reduce"
  top: "inception_3b/5x5_reduce"
}
layer {
  name: "inception_3b/5x5"
  type: "Convolution"
  bottom: "inception_3b/5x5_reduce"
  top: "inception_3b/5x5"
  param {
    lr_mult: 1
    decay_mult: 1
  }
  param {
    lr_mult: 2
    decay_mult: 0
  }
  convolution_param {
    num_output: 96
    pad: 2
    kernel_size: 5
    weight_filler {
      type: "xavier"
    }
    bias_filler {
      type: "constant"
      value: 0.2
    }
  }
}
layer {
  name: "inception_3b/relu_5x5"
  type: "ReLU"
  bottom: "inception_3b/5x5"
  top: "inception_3b/5x5"
}
layer {
  name: "inception_3b/pool"
  type: "Pooling"
  bottom: "inception_3a/output"
  top: "inception_3b/pool"
  pooling_param {
    pool: MAX
    kernel_size: 3
    stride: 1
    pad: 1
  }
}
layer {
  name: "inception_3b/pool_proj"
  type: "Convolution"
  bottom: "inception_3b/pool"
  top: "inception_3b/pool_proj"
  param {
    lr_mult: 1
    decay_mult: 1
  }
  param {
    lr_mult: 2
    decay_mult: 0
  }
  convolution_param {
    num_output: 64
    kernel_size: 1
    weight_filler {
      type: "xavier"
    }
    bias_filler {
      type: "constant"
      value: 0.2
    }
  }
}
layer {
  name: "inception_3b/relu_pool_proj"
  type: "ReLU"
  bottom: "inception_3b/pool_proj"
  top: "inception_3b/pool_proj"
}
layer {
  name: "inception_3b/output"
  type: "Concat"
  bottom: "inception_3b/1x1"
  bottom: "inception_3b/3x3"
  bottom: "inception_3b/5x5"
  bottom: "inception_3b/pool_proj"
  top: "inception_3b/output"
}
layer {
  name: "pool3/3x3_s2"
  type: "Pooling"
  bottom: "inception_3b/output"
  top: "pool3/3x3_s2"
  pooling_param {
    pool: MAX
    kernel_size: 3
    stride: 2
  }
}
layer {
  name: "inception_4a/1x1"
  type: "Convolution"
  bottom: "pool3/3x3_s2"
  top: "inception_4a/1x1"
  param {
    lr_mult: 1
    decay_mult: 1
  }
  param {
    lr_mult: 2
    decay_mult: 0
  }
  convolution_param {
    num_output: 192
    kernel_size: 1
    weight_filler {
      type: "xavier"
    }
    bias_filler {
      type: "constant"
      value: 0.2
    }
  }
}
layer {
  name: "inception_4a/relu_1x1"
  type: "ReLU"
  bottom: "inception_4a/1x1"
  top: "inception_4a/1x1"
}
layer {
  name: "inception_4a/3x3_reduce"
  type: "Convolution"
  bottom: "pool3/3x3_s2"
  top: "inception_4a/3x3_reduce"
  param {
    lr_mult: 1
    decay_mult: 1
  }
  param {
    lr_mult: 2
    decay_mult: 0
  }
  convolution_param {
    num_output: 96
    kernel_size: 1
    weight_filler {
      type: "xavier"
    }
    bias_filler {
      type: "constant"
      value: 0.2
    }
  }
}
layer {
  name: "inception_4a/relu_3x3_reduce"
  type: "ReLU"
  bottom: "inception_4a/3x3_reduce"
  top: "inception_4a/3x3_reduce"
}
layer {
  name: "inception_4a/3x3"
  type: "Convolution"
  bottom: "inception_4a/3x3_reduce"
  top: "inception_4a/3x3"
  param {
    lr_mult: 1
    decay_mult: 1
  }
  param {
    lr_mult: 2
    decay_mult: 0
  }
  convolution_param {
    num_output: 208
    pad: 1
    kernel_size: 3
    weight_filler {
      type: "xavier"
    }
    bias_filler {
      type: "constant"
      value: 0.2
    }
  }
}
layer {
  name: "inception_4a/relu_3x3"
  type: "ReLU"
  bottom: "inception_4a/3x3"
  top: "inception_4a/3x3"
}
layer {
  name: "inception_4a/5x5_reduce"
  type: "Convolution"
  bottom: "pool3/3x3_s2"
  top: "inception_4a/5x5_reduce"
  param {
    lr_mult: 1
    decay_mult: 1
  }
  param {
    lr_mult: 2
    decay_mult: 0
  }
  convolution_param {
    num_output: 16
    kernel_size: 1
    weight_filler {
      type: "xavier"
    }
    bias_filler {
      type: "constant"
      value: 0.2
    }
  }
}
layer {
  name: "inception_4a/relu_5x5_reduce"
  type: "ReLU"
  bottom: "inception_4a/5x5_reduce"
  top: "inception_4a/5x5_reduce"
}
layer {
  name: "inception_4a/5x5"
  type: "Convolution"
  bottom: "inception_4a/5x5_reduce"
  top: "inception_4a/5x5"
  param {
    lr_mult: 1
    decay_mult: 1
  }
  param {
    lr_mult: 2
    decay_mult: 0
  }
  convolution_param {
    num_output: 48
    pad: 2
    kernel_size: 5
    weight_filler {
      type: "xavier"
    }
    bias_filler {
      type: "constant"
      value: 0.2
    }
  }
}
layer {
  name: "inception_4a/relu_5x5"
  type: "ReLU"
  bottom: "inception_4a/5x5"
  top: "inception_4a/5x5"
}
layer {
  name: "inception_4a/pool"
  type: "Pooling"
  bottom: "pool3/3x3_s2"
  top: "inception_4a/pool"
  pooling_param {
    pool: MAX
    kernel_size: 3
    stride: 1
    pad: 1
  }
}
layer {
  name: "inception_4a/pool_proj"
  type: "Convolution"
  bottom: "inception_4a/pool"
  top: "inception_4a/pool_proj"
  param {
    lr_mult: 1
    decay_mult: 1
  }
  param {
    lr_mult: 2
    decay_mult: 0
  }
  convolution_param {
    num_output: 64
    kernel_size: 1
    weight_filler {
      type: "xavier"
    }
    bias_filler {
      type: "constant"
      value: 0.2
    }
  }
}
layer {
  name: "inception_4a/relu_pool_proj"
  type: "ReLU"
  bottom: "inception_4a/pool_proj"
  top: "inception_4a/pool_proj"
}
layer {
  name: "inception_4a/output"
  type: "Concat"
  bottom: "inception_4a/1x1"
  bottom: "inception_4a/3x3"
  bottom: "inception_4a/5x5"
  bottom: "inception_4a/pool_proj"
  top: "inception_4a/output"
}
layer {
  name: "loss1/ave_pool"
  type: "Pooling"
  bottom: "inception_4a/output"
  top: "loss1/ave_pool"
  pooling_param {
    pool: AVE
    kernel_size: 5
    stride: 3
  }
}
layer {
  name: "loss1/conv"
  type: "Convolution"
  bottom: "loss1/ave_pool"
  top: "loss1/conv"
  param {
    lr_mult: 1
    decay_mult: 1
  }
  param {
    lr_mult: 2
    decay_mult: 0
  }
  convolution_param {
    num_output: 128
    kernel_size: 1
    weight_filler {
      type: "xavier"
    }
    bias_filler {
      type: "constant"
      value: 0.2
    }
  }
}
layer {
  name: "loss1/relu_conv"
  type: "ReLU"
  bottom: "loss1/conv"
  top: "loss1/conv"
}
layer {
  name: "loss1/fc"
  type: "InnerProduct"
  bottom: "loss1/conv"
  top: "loss1/fc"
  param {
    lr_mult: 1
    decay_mult: 1
  }
  param {
    lr_mult: 2
    decay_mult: 0
  }
  inner_product_param {
    num_output: 1024
    weight_filler {
      type: "xavier"
    }
    bias_filler {
      type: "constant"
      value: 0.2
    }
  }
}
layer {
  name: "loss1/relu_fc"
  type: "ReLU"
  bottom: "loss1/fc"
  top: "loss1/fc"
}
layer {
  name: "loss1/drop_fc"
  type: "Dropout"
  bottom: "loss1/fc"
  top: "loss1/fc"
  dropout_param {
    dropout_ratio: 0.7
  }
}
layer {
  name: "loss1/classifier-attribute"
  type: "InnerProduct"
  bottom: "loss1/fc"
  top: "loss1/classifier-attribute"
  param {
    lr_mult: 10
    decay_mult: 1
  }
  param {
    lr_mult: 20
    decay_mult: 0
  }
  inner_product_param {
    num_output: 5
    weight_filler {
      type: "xavier"
    }
    bias_filler {
      type: "constant"
      value: 0
    }
  }
}
layer {
  name: "loss1/loss"
  type: "SoftmaxWithLoss"
  bottom: "loss1/classifier-attribute"
  bottom: "label"
  top: "loss1/loss1"
  loss_weight: 0.3
}
layer {
  name: "inception_4b/1x1"
  type: "Convolution"
  bottom: "inception_4a/output"
  top: "inception_4b/1x1"
  param {
    lr_mult: 1
    decay_mult: 1
  }
  param {
    lr_mult: 2
    decay_mult: 0
  }
  convolution_param {
    num_output: 160
    kernel_size: 1
    weight_filler {
      type: "xavier"
    }
    bias_filler {
      type: "constant"
      value: 0.2
    }
  }
}
layer {
  name: "inception_4b/relu_1x1"
  type: "ReLU"
  bottom: "inception_4b/1x1"
  top: "inception_4b/1x1"
}
layer {
  name: "inception_4b/3x3_reduce"
  type: "Convolution"
  bottom: "inception_4a/output"
  top: "inception_4b/3x3_reduce"
  param {
    lr_mult: 1
    decay_mult: 1
  }
  param {
    lr_mult: 2
    decay_mult: 0
  }
  convolution_param {
    num_output: 112
    kernel_size: 1
    weight_filler {
      type: "xavier"
    }
    bias_filler {
      type: "constant"
      value: 0.2
    }
  }
}
layer {
  name: "inception_4b/relu_3x3_reduce"
  type: "ReLU"
  bottom: "inception_4b/3x3_reduce"
  top: "inception_4b/3x3_reduce"
}
layer {
  name: "inception_4b/3x3"
  type: "Convolution"
  bottom: "inception_4b/3x3_reduce"
  top: "inception_4b/3x3"
  param {
    lr_mult: 1
    decay_mult: 1
  }
  param {
    lr_mult: 2
    decay_mult: 0
  }
  convolution_param {
    num_output: 224
    pad: 1
    kernel_size: 3
    weight_filler {
      type: "xavier"
    }
    bias_filler {
      type: "constant"
      value: 0.2
    }
  }
}
layer {
  name: "inception_4b/relu_3x3"
  type: "ReLU"
  bottom: "inception_4b/3x3"
  top: "inception_4b/3x3"
}
layer {
  name: "inception_4b/5x5_reduce"
  type: "Convolution"
  bottom: "inception_4a/output"
  top: "inception_4b/5x5_reduce"
  param {
    lr_mult: 1
    decay_mult: 1
  }
  param {
    lr_mult: 2
    decay_mult: 0
  }
  convolution_param {
    num_output: 24
    kernel_size: 1
    weight_filler {
      type: "xavier"
    }
    bias_filler {
      type: "constant"
      value: 0.2
    }
  }
}
layer {
  name: "inception_4b/relu_5x5_reduce"
  type: "ReLU"
  bottom: "inception_4b/5x5_reduce"
  top: "inception_4b/5x5_reduce"
}
layer {
  name: "inception_4b/5x5"
  type: "Convolution"
  bottom: "inception_4b/5x5_reduce"
  top: "inception_4b/5x5"
  param {
    lr_mult: 1
    decay_mult: 1
  }
  param {
    lr_mult: 2
    decay_mult: 0
  }
  convolution_param {
    num_output: 64
    pad: 2
    kernel_size: 5
    weight_filler {
      type: "xavier"
    }
    bias_filler {
      type: "constant"
      value: 0.2
    }
  }
}
layer {
  name: "inception_4b/relu_5x5"
  type: "ReLU"
  bottom: "inception_4b/5x5"
  top: "inception_4b/5x5"
}
layer {
  name: "inception_4b/pool"
  type: "Pooling"
  bottom: "inception_4a/output"
  top: "inception_4b/pool"
  pooling_param {
    pool: MAX
    kernel_size: 3
    stride: 1
    pad: 1
  }
}
layer {
  name: "inception_4b/pool_proj"
  type: "Convolution"
  bottom: "inception_4b/pool"
  top: "inception_4b/pool_proj"
  param {
    lr_mult: 1
    decay_mult: 1
  }
  param {
    lr_mult: 2
    decay_mult: 0
  }
  convolution_param {
    num_output: 64
    kernel_size: 1
    weight_filler {
      type: "xavier"
    }
    bias_filler {
      type: "constant"
      value: 0.2
    }
  }
}
layer {
  name: "inception_4b/relu_pool_proj"
  type: "ReLU"
  bottom: "inception_4b/pool_proj"
  top: "inception_4b/pool_proj"
}
layer {
  name: "inception_4b/output"
  type: "Concat"
  bottom: "inception_4b/1x1"
  bottom: "inception_4b/3x3"
  bottom: "inception_4b/5x5"
  bottom: "inception_4b/pool_proj"
  top: "inception_4b/output"
}
layer {
  name: "inception_4c/1x1"
  type: "Convolution"
  bottom: "inception_4b/output"
  top: "inception_4c/1x1"
  param {
    lr_mult: 1
    decay_mult: 1
  }
  param {
    lr_mult: 2
    decay_mult: 0
  }
  convolution_param {
    num_output: 128
    kernel_size: 1
    weight_filler {
      type: "xavier"
    }
    bias_filler {
      type: "constant"
      value: 0.2
    }
  }
}
layer {
  name: "inception_4c/relu_1x1"
  type: "ReLU"
  bottom: "inception_4c/1x1"
  top: "inception_4c/1x1"
}
layer {
  name: "inception_4c/3x3_reduce"
  type: "Convolution"
  bottom: "inception_4b/output"
  top: "inception_4c/3x3_reduce"
  param {
    lr_mult: 1
    decay_mult: 1
  }
  param {
    lr_mult: 2
    decay_mult: 0
  }
  convolution_param {
    num_output: 128
    kernel_size: 1
    weight_filler {
      type: "xavier"
    }
    bias_filler {
      type: "constant"
      value: 0.2
    }
  }
}
layer {
  name: "inception_4c/relu_3x3_reduce"
  type: "ReLU"
  bottom: "inception_4c/3x3_reduce"
  top: "inception_4c/3x3_reduce"
}
layer {
  name: "inception_4c/3x3"
  type: "Convolution"
  bottom: "inception_4c/3x3_reduce"
  top: "inception_4c/3x3"
  param {
    lr_mult: 1
    decay_mult: 1
  }
  param {
    lr_mult: 2
    decay_mult: 0
  }
  convolution_param {
    num_output: 256
    pad: 1
    kernel_size: 3
    weight_filler {
      type: "xavier"
    }
    bias_filler {
      type: "constant"
      value: 0.2
    }
  }
}
layer {
  name: "inception_4c/relu_3x3"
  type: "ReLU"
  bottom: "inception_4c/3x3"
  top: "inception_4c/3x3"
}
layer {
  name: "inception_4c/5x5_reduce"
  type: "Convolution"
  bottom: "inception_4b/output"
  top: "inception_4c/5x5_reduce"
  param {
    lr_mult: 1
    decay_mult: 1
  }
  param {
    lr_mult: 2
    decay_mult: 0
  }
  convolution_param {
    num_output: 24
    kernel_size: 1
    weight_filler {
      type: "xavier"
    }
    bias_filler {
      type: "constant"
      value: 0.2
    }
  }
}
layer {
  name: "inception_4c/relu_5x5_reduce"
  type: "ReLU"
  bottom: "inception_4c/5x5_reduce"
  top: "inception_4c/5x5_reduce"
}
layer {
  name: "inception_4c/5x5"
  type: "Convolution"
  bottom: "inception_4c/5x5_reduce"
  top: "inception_4c/5x5"
  param {
    lr_mult: 1
    decay_mult: 1
  }
  param {
    lr_mult: 2
    decay_mult: 0
  }
  convolution_param {
    num_output: 64
    pad: 2
    kernel_size: 5
    weight_filler {
      type: "xavier"
    }
    bias_filler {
      type: "constant"
      value: 0.2
    }
  }
}
layer {
  name: "inception_4c/relu_5x5"
  type: "ReLU"
  bottom: "inception_4c/5x5"
  top: "inception_4c/5x5"
}
layer {
  name: "inception_4c/pool"
  type: "Pooling"
  bottom: "inception_4b/output"
  top: "inception_4c/pool"
  pooling_param {
    pool: MAX
    kernel_size: 3
    stride: 1
    pad: 1
  }
}
layer {
  name: "inception_4c/pool_proj"
  type: "Convolution"
  bottom: "inception_4c/pool"
  top: "inception_4c/pool_proj"
  param {
    lr_mult: 1
    decay_mult: 1
  }
  param {
    lr_mult: 2
    decay_mult: 0
  }
  convolution_param {
    num_output: 64
    kernel_size: 1
    weight_filler {
      type: "xavier"
    }
    bias_filler {
      type: "constant"
      value: 0.2
    }
  }
}
layer {
  name: "inception_4c/relu_pool_proj"
  type: "ReLU"
  bottom: "inception_4c/pool_proj"
  top: "inception_4c/pool_proj"
}
layer {
  name: "inception_4c/output"
  type: "Concat"
  bottom: "inception_4c/1x1"
  bottom: "inception_4c/3x3"
  bottom: "inception_4c/5x5"
  bottom: "inception_4c/pool_proj"
  top: "inception_4c/output"
}
layer {
  name: "inception_4d/1x1"
  type: "Convolution"
  bottom: "inception_4c/output"
  top: "inception_4d/1x1"
  param {
    lr_mult: 1
    decay_mult: 1
  }
  param {
    lr_mult: 2
    decay_mult: 0
  }
  convolution_param {
    num_output: 112
    kernel_size: 1
    weight_filler {
      type: "xavier"
    }
    bias_filler {
      type: "constant"
      value: 0.2
    }
  }
}
layer {
  name: "inception_4d/relu_1x1"
  type: "ReLU"
  bottom: "inception_4d/1x1"
  top: "inception_4d/1x1"
}
layer {
  name: "inception_4d/3x3_reduce"
  type: "Convolution"
  bottom: "inception_4c/output"
  top: "inception_4d/3x3_reduce"
  param {
    lr_mult: 1
    decay_mult: 1
  }
  param {
    lr_mult: 2
    decay_mult: 0
  }
  convolution_param {
    num_output: 144
    kernel_size: 1
    weight_filler {
      type: "xavier"
    }
    bias_filler {
      type: "constant"
      value: 0.2
    }
  }
}
layer {
  name: "inception_4d/relu_3x3_reduce"
  type: "ReLU"
  bottom: "inception_4d/3x3_reduce"
  top: "inception_4d/3x3_reduce"
}
layer {
  name: "inception_4d/3x3"
  type: "Convolution"
  bottom: "inception_4d/3x3_reduce"
  top: "inception_4d/3x3"
  param {
    lr_mult: 1
    decay_mult: 1
  }
  param {
    lr_mult: 2
    decay_mult: 0
  }
  convolution_param {
    num_output: 288
    pad: 1
    kernel_size: 3
    weight_filler {
      type: "xavier"
    }
    bias_filler {
      type: "constant"
      value: 0.2
    }
  }
}
layer {
  name: "inception_4d/relu_3x3"
  type: "ReLU"
  bottom: "inception_4d/3x3"
  top: "inception_4d/3x3"
}
layer {
  name: "inception_4d/5x5_reduce"
  type: "Convolution"
  bottom: "inception_4c/output"
  top: "inception_4d/5x5_reduce"
  param {
    lr_mult: 1
    decay_mult: 1
  }
  param {
    lr_mult: 2
    decay_mult: 0
  }
  convolution_param {
    num_output: 32
    kernel_size: 1
    weight_filler {
      type: "xavier"
    }
    bias_filler {
      type: "constant"
      value: 0.2
    }
  }
}
layer {
  name: "inception_4d/relu_5x5_reduce"
  type: "ReLU"
  bottom: "inception_4d/5x5_reduce"
  top: "inception_4d/5x5_reduce"
}
layer {
  name: "inception_4d/5x5"
  type: "Convolution"
  bottom: "inception_4d/5x5_reduce"
  top: "inception_4d/5x5"
  param {
    lr_mult: 1
    decay_mult: 1
  }
  param {
    lr_mult: 2
    decay_mult: 0
  }
  convolution_param {
    num_output: 64
    pad: 2
    kernel_size: 5
    weight_filler {
      type: "xavier"
    }
    bias_filler {
      type: "constant"
      value: 0.2
    }
  }
}
layer {
  name: "inception_4d/relu_5x5"
  type: "ReLU"
  bottom: "inception_4d/5x5"
  top: "inception_4d/5x5"
}
layer {
  name: "inception_4d/pool"
  type: "Pooling"
  bottom: "inception_4c/output"
  top: "inception_4d/pool"
  pooling_param {
    pool: MAX
    kernel_size: 3
    stride: 1
    pad: 1
  }
}
layer {
  name: "inception_4d/pool_proj"
  type: "Convolution"
  bottom: "inception_4d/pool"
  top: "inception_4d/pool_proj"
  param {
    lr_mult: 1
    decay_mult: 1
  }
  param {
    lr_mult: 2
    decay_mult: 0
  }
  convolution_param {
    num_output: 64
    kernel_size: 1
    weight_filler {
      type: "xavier"
    }
    bias_filler {
      type: "constant"
      value: 0.2
    }
  }
}
layer {
  name: "inception_4d/relu_pool_proj"
  type: "ReLU"
  bottom: "inception_4d/pool_proj"
  top: "inception_4d/pool_proj"
}
layer {
  name: "inception_4d/output"
  type: "Concat"
  bottom: "inception_4d/1x1"
  bottom: "inception_4d/3x3"
  bottom: "inception_4d/5x5"
  bottom: "inception_4d/pool_proj"
  top: "inception_4d/output"
}
layer {
  name: "loss2/ave_pool"
  type: "Pooling"
  bottom: "inception_4d/output"
  top: "loss2/ave_pool"
  pooling_param {
    pool: AVE
    kernel_size: 5
    stride: 3
  }
}
layer {
  name: "loss2/conv"
  type: "Convolution"
  bottom: "loss2/ave_pool"
  top: "loss2/conv"
  param {
    lr_mult: 1
    decay_mult: 1
  }
  param {
    lr_mult: 2
    decay_mult: 0
  }
  convolution_param {
    num_output: 128
    kernel_size: 1
    weight_filler {
      type: "xavier"
    }
    bias_filler {
      type: "constant"
      value: 0.2
    }
  }
}
layer {
  name: "loss2/relu_conv"
  type: "ReLU"
  bottom: "loss2/conv"
  top: "loss2/conv"
}
layer {
  name: "loss2/fc"
  type: "InnerProduct"
  bottom: "loss2/conv"
  top: "loss2/fc"
  param {
    lr_mult: 1
    decay_mult: 1
  }
  param {
    lr_mult: 2
    decay_mult: 0
  }
  inner_product_param {
    num_output: 1024
    weight_filler {
      type: "xavier"
    }
    bias_filler {
      type: "constant"
      value: 0.2
    }
  }
}
layer {
  name: "loss2/relu_fc"
  type: "ReLU"
  bottom: "loss2/fc"
  top: "loss2/fc"
}
layer {
  name: "loss2/drop_fc"
  type: "Dropout"
  bottom: "loss2/fc"
  top: "loss2/fc"
  dropout_param {
    dropout_ratio: 0.7
  }
}
layer {
  name: "loss2/classifier-attribute"
  type: "InnerProduct"
  bottom: "loss2/fc"
  top: "loss2/classifier-attribute"
  param {
    lr_mult: 10
    decay_mult: 1
  }
  param {
    lr_mult: 20
    decay_mult: 0
  }
  inner_product_param {
    num_output: 5
    weight_filler {
      type: "xavier"
    }
    bias_filler {
      type: "constant"
      value: 0
    }
  }
}
layer {
  name: "loss2/loss"
  type: "SoftmaxWithLoss"
  bottom: "loss2/classifier-attribute"
  bottom: "label"
  top: "loss2/loss1"
  loss_weight: 0.3
}
layer {
  name: "inception_4e/1x1"
  type: "Convolution"
  bottom: "inception_4d/output"
  top: "inception_4e/1x1"
  param {
    lr_mult: 1
    decay_mult: 1
  }
  param {
    lr_mult: 2
    decay_mult: 0
  }
  convolution_param {
    num_output: 256
    kernel_size: 1
    weight_filler {
      type: "xavier"
    }
    bias_filler {
      type: "constant"
      value: 0.2
    }
  }
}
layer {
  name: "inception_4e/relu_1x1"
  type: "ReLU"
  bottom: "inception_4e/1x1"
  top: "inception_4e/1x1"
}
layer {
  name: "inception_4e/3x3_reduce"
  type: "Convolution"
  bottom: "inception_4d/output"
  top: "inception_4e/3x3_reduce"
  param {
    lr_mult: 1
    decay_mult: 1
  }
  param {
    lr_mult: 2
    decay_mult: 0
  }
  convolution_param {
    num_output: 160
    kernel_size: 1
    weight_filler {
      type: "xavier"
    }
    bias_filler {
      type: "constant"
      value: 0.2
    }
  }
}
layer {
  name: "inception_4e/relu_3x3_reduce"
  type: "ReLU"
  bottom: "inception_4e/3x3_reduce"
  top: "inception_4e/3x3_reduce"
}
layer {
  name: "inception_4e/3x3"
  type: "Convolution"
  bottom: "inception_4e/3x3_reduce"
  top: "inception_4e/3x3"
  param {
    lr_mult: 1
    decay_mult: 1
  }
  param {
    lr_mult: 2
    decay_mult: 0
  }
  convolution_param {
    num_output: 320
    pad: 1
    kernel_size: 3
    weight_filler {
      type: "xavier"
    }
    bias_filler {
      type: "constant"
      value: 0.2
    }
  }
}
layer {
  name: "inception_4e/relu_3x3"
  type: "ReLU"
  bottom: "inception_4e/3x3"
  top: "inception_4e/3x3"
}
layer {
  name: "inception_4e/5x5_reduce"
  type: "Convolution"
  bottom: "inception_4d/output"
  top: "inception_4e/5x5_reduce"
  param {
    lr_mult: 1
    decay_mult: 1
  }
  param {
    lr_mult: 2
    decay_mult: 0
  }
  convolution_param {
    num_output: 32
    kernel_size: 1
    weight_filler {
      type: "xavier"
    }
    bias_filler {
      type: "constant"
      value: 0.2
    }
  }
}
layer {
  name: "inception_4e/relu_5x5_reduce"
  type: "ReLU"
  bottom: "inception_4e/5x5_reduce"
  top: "inception_4e/5x5_reduce"
}
layer {
  name: "inception_4e/5x5"
  type: "Convolution"
  bottom: "inception_4e/5x5_reduce"
  top: "inception_4e/5x5"
  param {
    lr_mult: 1
    decay_mult: 1
  }
  param {
    lr_mult: 2
    decay_mult: 0
  }
  convolution_param {
    num_output: 128
    pad: 2
    kernel_size: 5
    weight_filler {
      type: "xavier"
    }
    bias_filler {
      type: "constant"
      value: 0.2
    }
  }
}
layer {
  name: "inception_4e/relu_5x5"
  type: "ReLU"
  bottom: "inception_4e/5x5"
  top: "inception_4e/5x5"
}
layer {
  name: "inception_4e/pool"
  type: "Pooling"
  bottom: "inception_
I1125 19:43:47.788096 26345 layer_factory.hpp:76] Creating layer data
I1125 19:43:47.788132 26345 net.cpp:106] Creating Layer data
I1125 19:43:47.788141 26345 net.cpp:411] data -> data
I1125 19:43:47.788166 26345 net.cpp:411] data -> label
I1125 19:43:47.788578 26345 image_data_layer.cpp:36] Opening file pad_train.txt
I1125 19:43:47.893385 26345 image_data_layer.cpp:46] Shuffling data
I1125 19:43:47.911051 26345 image_data_layer.cpp:51] A total of 124881 images.
I1125 19:43:47.935739 26345 image_data_layer.cpp:78] output data size: 64,3,224,224
I1125 19:43:47.989748 26345 net.cpp:150] Setting up data
I1125 19:43:47.989780 26345 net.cpp:157] Top shape: 64 3 224 224 (9633792)
I1125 19:43:47.989787 26345 net.cpp:157] Top shape: 64 (64)
I1125 19:43:47.989794 26345 net.cpp:165] Memory required for data: 38535424
I1125 19:43:47.989804 26345 layer_factory.hpp:76] Creating layer label_data_1_split
I1125 19:43:47.989821 26345 net.cpp:106] Creating Layer label_data_1_split
I1125 19:43:47.989832 26345 net.cpp:454] label_data_1_split <- label
I1125 19:43:47.989850 26345 net.cpp:411] label_data_1_split -> label_data_1_split_0
I1125 19:43:47.989859 26345 net.cpp:411] label_data_1_split -> label_data_1_split_1
I1125 19:43:47.989867 26345 net.cpp:411] label_data_1_split -> label_data_1_split_2
I1125 19:43:47.989928 26345 net.cpp:150] Setting up label_data_1_split
I1125 19:43:47.989939 26345 net.cpp:157] Top shape: 64 (64)
I1125 19:43:47.989949 26345 net.cpp:157] Top shape: 64 (64)
I1125 19:43:47.989958 26345 net.cpp:157] Top shape: 64 (64)
I1125 19:43:47.989965 26345 net.cpp:165] Memory required for data: 38536192
I1125 19:43:47.989970 26345 layer_factory.hpp:76] Creating layer conv1/7x7_s2
I1125 19:43:47.989989 26345 net.cpp:106] Creating Layer conv1/7x7_s2
I1125 19:43:47.989996 26345 net.cpp:454] conv1/7x7_s2 <- data
I1125 19:43:47.990006 26345 net.cpp:411] conv1/7x7_s2 -> conv1/7x7_s2
I1125 19:43:48.140365 26345 net.cpp:150] Setting up conv1/7x7_s2
I1125 19:43:48.140388 26345 net.cpp:157] Top shape: 64 64 112 112 (51380224)
I1125 19:43:48.140393 26345 net.cpp:165] Memory required for data: 244057088
I1125 19:43:48.140414 26345 layer_factory.hpp:76] Creating layer conv1/relu_7x7
I1125 19:43:48.140425 26345 net.cpp:106] Creating Layer conv1/relu_7x7
I1125 19:43:48.140432 26345 net.cpp:454] conv1/relu_7x7 <- conv1/7x7_s2
I1125 19:43:48.140439 26345 net.cpp:397] conv1/relu_7x7 -> conv1/7x7_s2 (in-place)
I1125 19:43:48.140727 26345 net.cpp:150] Setting up conv1/relu_7x7
I1125 19:43:48.140740 26345 net.cpp:157] Top shape: 64 64 112 112 (51380224)
I1125 19:43:48.140744 26345 net.cpp:165] Memory required for data: 449577984
I1125 19:43:48.140748 26345 layer_factory.hpp:76] Creating layer pool1/3x3_s2
I1125 19:43:48.140758 26345 net.cpp:106] Creating Layer pool1/3x3_s2
I1125 19:43:48.140760 26345 net.cpp:454] pool1/3x3_s2 <- conv1/7x7_s2
I1125 19:43:48.140766 26345 net.cpp:411] pool1/3x3_s2 -> pool1/3x3_s2
I1125 19:43:48.140955 26345 net.cpp:150] Setting up pool1/3x3_s2
I1125 19:43:48.140966 26345 net.cpp:157] Top shape: 64 64 56 56 (12845056)
I1125 19:43:48.140969 26345 net.cpp:165] Memory required for data: 500958208
I1125 19:43:48.140974 26345 layer_factory.hpp:76] Creating layer pool1/norm1
I1125 19:43:48.140983 26345 net.cpp:106] Creating Layer pool1/norm1
I1125 19:43:48.140987 26345 net.cpp:454] pool1/norm1 <- pool1/3x3_s2
I1125 19:43:48.140992 26345 net.cpp:411] pool1/norm1 -> pool1/norm1
I1125 19:43:48.141301 26345 net.cpp:150] Setting up pool1/norm1
I1125 19:43:48.141314 26345 net.cpp:157] Top shape: 64 64 56 56 (12845056)
I1125 19:43:48.141319 26345 net.cpp:165] Memory required for data: 552338432
I1125 19:43:48.141322 26345 layer_factory.hpp:76] Creating layer conv2/3x3_reduce
I1125 19:43:48.141332 26345 net.cpp:106] Creating Layer conv2/3x3_reduce
I1125 19:43:48.141336 26345 net.cpp:454] conv2/3x3_reduce <- pool1/norm1
I1125 19:43:48.141342 26345 net.cpp:411] conv2/3x3_reduce -> conv2/3x3_reduce
I1125 19:43:48.142621 26345 net.cpp:150] Setting up conv2/3x3_reduce
I1125 19:43:48.142637 26345 net.cpp:157] Top shape: 64 64 56 56 (12845056)
I1125 19:43:48.142642 26345 net.cpp:165] Memory required for data: 603718656
I1125 19:43:48.142652 26345 layer_factory.hpp:76] Creating layer conv2/relu_3x3_reduce
I1125 19:43:48.142657 26345 net.cpp:106] Creating Layer conv2/relu_3x3_reduce
I1125 19:43:48.142662 26345 net.cpp:454] conv2/relu_3x3_reduce <- conv2/3x3_reduce
I1125 19:43:48.142666 26345 net.cpp:397] conv2/relu_3x3_reduce -> conv2/3x3_reduce (in-place)
I1125 19:43:48.142947 26345 net.cpp:150] Setting up conv2/relu_3x3_reduce
I1125 19:43:48.142961 26345 net.cpp:157] Top shape: 64 64 56 56 (12845056)
I1125 19:43:48.142966 26345 net.cpp:165] Memory required for data: 655098880
I1125 19:43:48.142969 26345 layer_factory.hpp:76] Creating layer conv2/3x3
I1125 19:43:48.142978 26345 net.cpp:106] Creating Layer conv2/3x3
I1125 19:43:48.142982 26345 net.cpp:454] conv2/3x3 <- conv2/3x3_reduce
I1125 19:43:48.142988 26345 net.cpp:411] conv2/3x3 -> conv2/3x3
I1125 19:43:48.145164 26345 net.cpp:150] Setting up conv2/3x3
I1125 19:43:48.145184 26345 net.cpp:157] Top shape: 64 192 56 56 (38535168)
I1125 19:43:48.145194 26345 net.cpp:165] Memory required for data: 809239552
I1125 19:43:48.145208 26345 layer_factory.hpp:76] Creating layer conv2/relu_3x3
I1125 19:43:48.145229 26345 net.cpp:106] Creating Layer conv2/relu_3x3
I1125 19:43:48.145236 26345 net.cpp:454] conv2/relu_3x3 <- conv2/3x3
I1125 19:43:48.145246 26345 net.cpp:397] conv2/relu_3x3 -> conv2/3x3 (in-place)
I1125 19:43:48.145468 26345 net.cpp:150] Setting up conv2/relu_3x3
I1125 19:43:48.145486 26345 net.cpp:157] Top shape: 64 192 56 56 (38535168)
I1125 19:43:48.145494 26345 net.cpp:165] Memory required for data: 963380224
I1125 19:43:48.145500 26345 layer_factory.hpp:76] Creating layer conv2/norm2
I1125 19:43:48.145511 26345 net.cpp:106] Creating Layer conv2/norm2
I1125 19:43:48.145517 26345 net.cpp:454] conv2/norm2 <- conv2/3x3
I1125 19:43:48.145525 26345 net.cpp:411] conv2/norm2 -> conv2/norm2
I1125 19:43:48.145948 26345 net.cpp:150] Setting up conv2/norm2
I1125 19:43:48.145967 26345 net.cpp:157] Top shape: 64 192 56 56 (38535168)
I1125 19:43:48.145973 26345 net.cpp:165] Memory required for data: 1117520896
I1125 19:43:48.145977 26345 layer_factory.hpp:76] Creating layer pool2/3x3_s2
I1125 19:43:48.145984 26345 net.cpp:106] Creating Layer pool2/3x3_s2
I1125 19:43:48.145988 26345 net.cpp:454] pool2/3x3_s2 <- conv2/norm2
I1125 19:43:48.145994 26345 net.cpp:411] pool2/3x3_s2 -> pool2/3x3_s2
I1125 19:43:48.146224 26345 net.cpp:150] Setting up pool2/3x3_s2
I1125 19:43:48.146240 26345 net.cpp:157] Top shape: 64 192 28 28 (9633792)
I1125 19:43:48.146250 26345 net.cpp:165] Memory required for data: 1156056064
I1125 19:43:48.146255 26345 layer_factory.hpp:76] Creating layer pool2/3x3_s2_pool2/3x3_s2_0_split
I1125 19:43:48.146265 26345 net.cpp:106] Creating Layer pool2/3x3_s2_pool2/3x3_s2_0_split
I1125 19:43:48.146271 26345 net.cpp:454] pool2/3x3_s2_pool2/3x3_s2_0_split <- pool2/3x3_s2
I1125 19:43:48.146281 26345 net.cpp:411] pool2/3x3_s2_pool2/3x3_s2_0_split -> pool2/3x3_s2_pool2/3x3_s2_0_split_0
I1125 19:43:48.146291 26345 net.cpp:411] pool2/3x3_s2_pool2/3x3_s2_0_split -> pool2/3x3_s2_pool2/3x3_s2_0_split_1
I1125 19:43:48.146304 26345 net.cpp:411] pool2/3x3_s2_pool2/3x3_s2_0_split -> pool2/3x3_s2_pool2/3x3_s2_0_split_2
I1125 19:43:48.146317 26345 net.cpp:411] pool2/3x3_s2_pool2/3x3_s2_0_split -> pool2/3x3_s2_pool2/3x3_s2_0_split_3
I1125 19:43:48.146402 26345 net.cpp:150] Setting up pool2/3x3_s2_pool2/3x3_s2_0_split
I1125 19:43:48.146420 26345 net.cpp:157] Top shape: 64 192 28 28 (9633792)
I1125 19:43:48.146427 26345 net.cpp:157] Top shape: 64 192 28 28 (9633792)
I1125 19:43:48.146435 26345 net.cpp:157] Top shape: 64 192 28 28 (9633792)
I1125 19:43:48.146440 26345 net.cpp:157] Top shape: 64 192 28 28 (9633792)
I1125 19:43:48.146446 26345 net.cpp:165] Memory required for data: 1310196736
I1125 19:43:48.146482 26345 layer_factory.hpp:76] Creating layer inception_3a/1x1
I1125 19:43:48.146499 26345 net.cpp:106] Creating Layer inception_3a/1x1
I1125 19:43:48.146507 26345 net.cpp:454] inception_3a/1x1 <- pool2/3x3_s2_pool2/3x3_s2_0_split_0
I1125 19:43:48.146517 26345 net.cpp:411] inception_3a/1x1 -> inception_3a/1x1
I1125 19:43:48.148432 26345 net.cpp:150] Setting up inception_3a/1x1
I1125 19:43:48.148453 26345 net.cpp:157] Top shape: 64 64 28 28 (3211264)
I1125 19:43:48.148458 26345 net.cpp:165] Memory required for data: 1323041792
I1125 19:43:48.148468 26345 layer_factory.hpp:76] Creating layer inception_3a/relu_1x1
I1125 19:43:48.148478 26345 net.cpp:106] Creating Layer inception_3a/relu_1x1
I1125 19:43:48.148483 26345 net.cpp:454] inception_3a/relu_1x1 <- inception_3a/1x1
I1125 19:43:48.148489 26345 net.cpp:397] inception_3a/relu_1x1 -> inception_3a/1x1 (in-place)
I1125 19:43:48.148854 26345 net.cpp:150] Setting up inception_3a/relu_1x1
I1125 19:43:48.148870 26345 net.cpp:157] Top shape: 64 64 28 28 (3211264)
I1125 19:43:48.148875 26345 net.cpp:165] Memory required for data: 1335886848
I1125 19:43:48.148880 26345 layer_factory.hpp:76] Creating layer inception_3a/3x3_reduce
I1125 19:43:48.148890 26345 net.cpp:106] Creating Layer inception_3a/3x3_reduce
I1125 19:43:48.148896 26345 net.cpp:454] inception_3a/3x3_reduce <- pool2/3x3_s2_pool2/3x3_s2_0_split_1
I1125 19:43:48.148905 26345 net.cpp:411] inception_3a/3x3_reduce -> inception_3a/3x3_reduce
I1125 19:43:48.150847 26345 net.cpp:150] Setting up inception_3a/3x3_reduce
I1125 19:43:48.150866 26345 net.cpp:157] Top shape: 64 96 28 28 (4816896)
I1125 19:43:48.150878 26345 net.cpp:165] Memory required for data: 1355154432
I1125 19:43:48.150892 26345 layer_factory.hpp:76] Creating layer inception_3a/relu_3x3_reduce
I1125 19:43:48.150902 26345 net.cpp:106] Creating Layer inception_3a/relu_3x3_reduce
I1125 19:43:48.150907 26345 net.cpp:454] inception_3a/relu_3x3_reduce <- inception_3a/3x3_reduce
I1125 19:43:48.150914 26345 net.cpp:397] inception_3a/relu_3x3_reduce -> inception_3a/3x3_reduce (in-place)
I1125 19:43:48.151124 26345 net.cpp:150] Setting up inception_3a/relu_3x3_reduce
I1125 19:43:48.151137 26345 net.cpp:157] Top shape: 64 96 28 28 (4816896)
I1125 19:43:48.151141 26345 net.cpp:165] Memory required for data: 1374422016
I1125 19:43:48.151146 26345 layer_factory.hpp:76] Creating layer inception_3a/3x3
I1125 19:43:48.151156 26345 net.cpp:106] Creating Layer inception_3a/3x3
I1125 19:43:48.151161 26345 net.cpp:454] inception_3a/3x3 <- inception_3a/3x3_reduce
I1125 19:43:48.151170 26345 net.cpp:411] inception_3a/3x3 -> inception_3a/3x3
I1125 19:43:48.153566 26345 net.cpp:150] Setting up inception_3a/3x3
I1125 19:43:48.153586 26345 net.cpp:157] Top shape: 64 128 28 28 (6422528)
I1125 19:43:48.153591 26345 net.cpp:165] Memory required for data: 1400112128
I1125 19:43:48.153600 26345 layer_factory.hpp:76] Creating layer inception_3a/relu_3x3
I1125 19:43:48.153609 26345 net.cpp:106] Creating Layer inception_3a/relu_3x3
I1125 19:43:48.153614 26345 net.cpp:454] inception_3a/relu_3x3 <- inception_3a/3x3
I1125 19:43:48.153621 26345 net.cpp:397] inception_3a/relu_3x3 -> inception_3a/3x3 (in-place)
I1125 19:43:48.153825 26345 net.cpp:150] Setting up inception_3a/relu_3x3
I1125 19:43:48.153837 26345 net.cpp:157] Top shape: 64 128 28 28 (6422528)
I1125 19:43:48.153842 26345 net.cpp:165] Memory required for data: 1425802240
I1125 19:43:48.153847 26345 layer_factory.hpp:76] Creating layer inception_3a/5x5_reduce
I1125 19:43:48.153857 26345 net.cpp:106] Creating Layer inception_3a/5x5_reduce
I1125 19:43:48.153863 26345 net.cpp:454] inception_3a/5x5_reduce <- pool2/3x3_s2_pool2/3x3_s2_0_split_2
I1125 19:43:48.153872 26345 net.cpp:411] inception_3a/5x5_reduce -> inception_3a/5x5_reduce
I1125 19:43:48.155089 26345 net.cpp:150] Setting up inception_3a/5x5_reduce
I1125 19:43:48.155107 26345 net.cpp:157] Top shape: 64 16 28 28 (802816)
I1125 19:43:48.155113 26345 net.cpp:165] Memory required for data: 1429013504
I1125 19:43:48.155122 26345 layer_factory.hpp:76] Creating layer inception_3a/relu_5x5_reduce
I1125 19:43:48.155129 26345 net.cpp:106] Creating Layer inception_3a/relu_5x5_reduce
I1125 19:43:48.155134 26345 net.cpp:454] inception_3a/relu_5x5_reduce <- inception_3a/5x5_reduce
I1125 19:43:48.155141 26345 net.cpp:397] inception_3a/relu_5x5_reduce -> inception_3a/5x5_reduce (in-place)
I1125 19:43:48.155504 26345 net.cpp:150] Setting up inception_3a/relu_5x5_reduce
I1125 19:43:48.155520 26345 net.cpp:157] Top shape: 64 16 28 28 (802816)
I1125 19:43:48.155525 26345 net.cpp:165] Memory required for data: 1432224768
I1125 19:43:48.155530 26345 layer_factory.hpp:76] Creating layer inception_3a/5x5
I1125 19:43:48.155542 26345 net.cpp:106] Creating Layer inception_3a/5x5
I1125 19:43:48.155547 26345 net.cpp:454] inception_3a/5x5 <- inception_3a/5x5_reduce
I1125 19:43:48.155556 26345 net.cpp:411] inception_3a/5x5 -> inception_3a/5x5
I1125 19:43:48.156908 26345 net.cpp:150] Setting up inception_3a/5x5
I1125 19:43:48.156929 26345 net.cpp:157] Top shape: 64 32 28 28 (1605632)
I1125 19:43:48.156937 26345 net.cpp:165] Memory required for data: 1438647296
I1125 19:43:48.156952 26345 layer_factory.hpp:76] Creating layer inception_3a/relu_5x5
I1125 19:43:48.156968 26345 net.cpp:106] Creating Layer inception_3a/relu_5x5
I1125 19:43:48.156977 26345 net.cpp:454] inception_3a/relu_5x5 <- inception_3a/5x5
I1125 19:43:48.156990 26345 net.cpp:397] inception_3a/relu_5x5 -> inception_3a/5x5 (in-place)
I1125 19:43:48.157253 26345 net.cpp:150] Setting up inception_3a/relu_5x5
I1125 19:43:48.157271 26345 net.cpp:157] Top shape: 64 32 28 28 (1605632)
I1125 19:43:48.157279 26345 net.cpp:165] Memory required for data: 1445069824
I1125 19:43:48.157289 26345 layer_factory.hpp:76] Creating layer inception_3a/pool
I1125 19:43:48.157301 26345 net.cpp:106] Creating Layer inception_3a/pool
I1125 19:43:48.157310 26345 net.cpp:454] inception_3a/pool <- pool2/3x3_s2_pool2/3x3_s2_0_split_3
I1125 19:43:48.157325 26345 net.cpp:411] inception_3a/pool -> inception_3a/pool
I1125 19:43:48.157759 26345 net.cpp:150] Setting up inception_3a/pool
I1125 19:43:48.157779 26345 net.cpp:157] Top shape: 64 192 28 28 (9633792)
I1125 19:43:48.157788 26345 net.cpp:165] Memory required for data: 1483604992
I1125 19:43:48.157798 26345 layer_factory.hpp:76] Creating layer inception_3a/pool_proj
I1125 19:43:48.157817 26345 net.cpp:106] Creating Layer inception_3a/pool_proj
I1125 19:43:48.157832 26345 net.cpp:454] inception_3a/pool_proj <- inception_3a/pool
I1125 19:43:48.157850 26345 net.cpp:411] inception_3a/pool_proj -> inception_3a/pool_proj
I1125 19:43:48.159252 26345 net.cpp:150] Setting up inception_3a/pool_proj
I1125 19:43:48.159270 26345 net.cpp:157] Top shape: 64 32 28 28 (1605632)
I1125 19:43:48.159276 26345 net.cpp:165] Memory required for data: 1490027520
I1125 19:43:48.159294 26345 layer_factory.hpp:76] Creating layer inception_3a/relu_pool_proj
I1125 19:43:48.159307 26345 net.cpp:106] Creating Layer inception_3a/relu_pool_proj
I1125 19:43:48.159315 26345 net.cpp:454] inception_3a/relu_pool_proj <- inception_3a/pool_proj
I1125 19:43:48.159325 26345 net.cpp:397] inception_3a/relu_pool_proj -> inception_3a/pool_proj (in-place)
I1125 19:43:48.159626 26345 net.cpp:150] Setting up inception_3a/relu_pool_proj
I1125 19:43:48.159641 26345 net.cpp:157] Top shape: 64 32 28 28 (1605632)
I1125 19:43:48.159647 26345 net.cpp:165] Memory required for data: 1496450048
I1125 19:43:48.159653 26345 layer_factory.hpp:76] Creating layer inception_3a/output
I1125 19:43:48.159667 26345 net.cpp:106] Creating Layer inception_3a/output
I1125 19:43:48.159675 26345 net.cpp:454] inception_3a/output <- inception_3a/1x1
I1125 19:43:48.159683 26345 net.cpp:454] inception_3a/output <- inception_3a/3x3
I1125 19:43:48.159693 26345 net.cpp:454] inception_3a/output <- inception_3a/5x5
I1125 19:43:48.159700 26345 net.cpp:454] inception_3a/output <- inception_3a/pool_proj
I1125 19:43:48.159710 26345 net.cpp:411] inception_3a/output -> inception_3a/output
I1125 19:43:48.159750 26345 net.cpp:150] Setting up inception_3a/output
I1125 19:43:48.159761 26345 net.cpp:157] Top shape: 64 256 28 28 (12845056)
I1125 19:43:48.159767 26345 net.cpp:165] Memory required for data: 1547830272
I1125 19:43:48.159772 26345 layer_factory.hpp:76] Creating layer inception_3a/output_inception_3a/output_0_split
I1125 19:43:48.159783 26345 net.cpp:106] Creating Layer inception_3a/output_inception_3a/output_0_split
I1125 19:43:48.159791 26345 net.cpp:454] inception_3a/output_inception_3a/output_0_split <- inception_3a/output
I1125 19:43:48.159801 26345 net.cpp:411] inception_3a/output_inception_3a/output_0_split -> inception_3a/output_inception_3a/output_0_split_0
I1125 19:43:48.159811 26345 net.cpp:411] inception_3a/output_inception_3a/output_0_split -> inception_3a/output_inception_3a/output_0_split_1
I1125 19:43:48.159823 26345 net.cpp:411] inception_3a/output_inception_3a/output_0_split -> inception_3a/output_inception_3a/output_0_split_2
I1125 19:43:48.159834 26345 net.cpp:411] inception_3a/output_inception_3a/output_0_split -> inception_3a/output_inception_3a/output_0_split_3
I1125 19:43:48.159904 26345 net.cpp:150] Setting up inception_3a/output_inception_3a/output_0_split
I1125 19:43:48.159914 26345 net.cpp:157] Top shape: 64 256 28 28 (12845056)
I1125 19:43:48.159922 26345 net.cpp:157] Top shape: 64 256 28 28 (12845056)
I1125 19:43:48.159929 26345 net.cpp:157] Top shape: 64 256 28 28 (12845056)
I1125 19:43:48.159939 26345 net.cpp:157] Top shape: 64 256 28 28 (12845056)
I1125 19:43:48.159945 26345 net.cpp:165] Memory required for data: 1753351168
I1125 19:43:48.159951 26345 layer_factory.hpp:76] Creating layer inception_3b/1x1
I1125 19:43:48.159965 26345 net.cpp:106] Creating Layer inception_3b/1x1
I1125 19:43:48.159971 26345 net.cpp:454] inception_3b/1x1 <- inception_3a/output_inception_3a/output_0_split_0
I1125 19:43:48.159983 26345 net.cpp:411] inception_3b/1x1 -> inception_3b/1x1
I1125 19:43:48.161172 26345 net.cpp:150] Setting up inception_3b/1x1
I1125 19:43:48.161188 26345 net.cpp:157] Top shape: 64 128 28 28 (6422528)
I1125 19:43:48.161195 26345 net.cpp:165] Memory required for data: 1779041280
I1125 19:43:48.161206 26345 layer_factory.hpp:76] Creating layer inception_3b/relu_1x1
I1125 19:43:48.161217 26345 net.cpp:106] Creating Layer inception_3b/relu_1x1
I1125 19:43:48.161226 26345 net.cpp:454] inception_3b/relu_1x1 <- inception_3b/1x1
I1125 19:43:48.161236 26345 net.cpp:397] inception_3b/relu_1x1 -> inception_3b/1x1 (in-place)
I1125 19:43:48.161407 26345 net.cpp:150] Setting up inception_3b/relu_1x1
I1125 19:43:48.161419 26345 net.cpp:157] Top shape: 64 128 28 28 (6422528)
I1125 19:43:48.161425 26345 net.cpp:165] Memory required for data: 1804731392
I1125 19:43:48.161432 26345 layer_factory.hpp:76] Creating layer inception_3b/3x3_reduce
I1125 19:43:48.161445 26345 net.cpp:106] Creating Layer inception_3b/3x3_reduce
I1125 19:43:48.161453 26345 net.cpp:454] inception_3b/3x3_reduce <- inception_3a/output_inception_3a/output_0_split_1
I1125 19:43:48.161465 26345 net.cpp:411] inception_3b/3x3_reduce -> inception_3b/3x3_reduce
I1125 19:43:48.162948 26345 net.cpp:150] Setting up inception_3b/3x3_reduce
I1125 19:43:48.162988 26345 net.cpp:157] Top shape: 64 128 28 28 (6422528)
I1125 19:43:48.162999 26345 net.cpp:165] Memory required for data: 1830421504
I1125 19:43:48.163010 26345 layer_factory.hpp:76] Creating layer inception_3b/relu_3x3_reduce
I1125 19:43:48.163020 26345 net.cpp:106] Creating Layer inception_3b/relu_3x3_reduce
I1125 19:43:48.163027 26345 net.cpp:454] inception_3b/relu_3x3_reduce <- inception_3b/3x3_reduce
I1125 19:43:48.163038 26345 net.cpp:397] inception_3b/relu_3x3_reduce -> inception_3b/3x3_reduce (in-place)
I1125 19:43:48.163434 26345 net.cpp:150] Setting up inception_3b/relu_3x3_reduce
I1125 19:43:48.163451 26345 net.cpp:157] Top shape: 64 128 28 28 (6422528)
I1125 19:43:48.163458 26345 net.cpp:165] Memory required for data: 1856111616
I1125 19:43:48.163465 26345 layer_factory.hpp:76] Creating layer inception_3b/3x3
I1125 19:43:48.163482 26345 net.cpp:106] Creating Layer inception_3b/3x3
I1125 19:43:48.163492 26345 net.cpp:454] inception_3b/3x3 <- inception_3b/3x3_reduce
I1125 19:43:48.163506 26345 net.cpp:411] inception_3b/3x3 -> inception_3b/3x3
I1125 19:43:48.166214 26345 net.cpp:150] Setting up inception_3b/3x3
I1125 19:43:48.166230 26345 net.cpp:157] Top shape: 64 192 28 28 (9633792)
I1125 19:43:48.166234 26345 net.cpp:165] Memory required for data: 1894646784
I1125 19:43:48.166241 26345 layer_factory.hpp:76] Creating layer inception_3b/relu_3x3
I1125 19:43:48.166249 26345 net.cpp:106] Creating Layer inception_3b/relu_3x3
I1125 19:43:48.166254 26345 net.cpp:454] inception_3b/relu_3x3 <- inception_3b/3x3
I1125 19:43:48.166259 26345 net.cpp:397] inception_3b/relu_3x3 -> inception_3b/3x3 (in-place)
I1125 19:43:48.166692 26345 net.cpp:150] Setting up inception_3b/relu_3x3
I1125 19:43:48.166704 26345 net.cpp:157] Top shape: 64 192 28 28 (9633792)
I1125 19:43:48.166710 26345 net.cpp:165] Memory required for data: 1933181952
I1125 19:43:48.166714 26345 layer_factory.hpp:76] Creating layer inception_3b/5x5_reduce
I1125 19:43:48.166723 26345 net.cpp:106] Creating Layer inception_3b/5x5_reduce
I1125 19:43:48.166728 26345 net.cpp:454] inception_3b/5x5_reduce <- inception_3a/output_inception_3a/output_0_split_2
I1125 19:43:48.166736 26345 net.cpp:411] inception_3b/5x5_reduce -> inception_3b/5x5_reduce
I1125 19:43:48.167759 26345 net.cpp:150] Setting up inception_3b/5x5_reduce
I1125 19:43:48.167773 26345 net.cpp:157] Top shape: 64 32 28 28 (1605632)
I1125 19:43:48.167778 26345 net.cpp:165] Memory required for data: 1939604480
I1125 19:43:48.167783 26345 layer_factory.hpp:76] Creating layer inception_3b/relu_5x5_reduce
I1125 19:43:48.167791 26345 net.cpp:106] Creating Layer inception_3b/relu_5x5_reduce
I1125 19:43:48.167795 26345 net.cpp:454] inception_3b/relu_5x5_reduce <- inception_3b/5x5_reduce
I1125 19:43:48.167803 26345 net.cpp:397] inception_3b/relu_5x5_reduce -> inception_3b/5x5_reduce (in-place)
I1125 19:43:48.167969 26345 net.cpp:150] Setting up inception_3b/relu_5x5_reduce
I1125 19:43:48.167979 26345 net.cpp:157] Top shape: 64 32 28 28 (1605632)
I1125 19:43:48.167982 26345 net.cpp:165] Memory required for data: 1946027008
I1125 19:43:48.167985 26345 layer_factory.hpp:76] Creating layer inception_3b/5x5
I1125 19:43:48.167994 26345 net.cpp:106] Creating Layer inception_3b/5x5
I1125 19:43:48.167999 26345 net.cpp:454] inception_3b/5x5 <- inception_3b/5x5_reduce
I1125 19:43:48.168005 26345 net.cpp:411] inception_3b/5x5 -> inception_3b/5x5
I1125 19:43:48.169914 26345 net.cpp:150] Setting up inception_3b/5x5
I1125 19:43:48.169929 26345 net.cpp:157] Top shape: 64 96 28 28 (4816896)
I1125 19:43:48.169932 26345 net.cpp:165] Memory required for data: 1965294592
I1125 19:43:48.169939 26345 layer_factory.hpp:76] Creating layer inception_3b/relu_5x5
I1125 19:43:48.169946 26345 net.cpp:106] Creating Layer inception_3b/relu_5x5
I1125 19:43:48.169951 26345 net.cpp:454] inception_3b/relu_5x5 <- inception_3b/5x5
I1125 19:43:48.169956 26345 net.cpp:397] inception_3b/relu_5x5 -> inception_3b/5x5 (in-place)
I1125 19:43:48.170251 26345 net.cpp:150] Setting up inception_3b/relu_5x5
I1125 19:43:48.170264 26345 net.cpp:157] Top shape: 64 96 28 28 (4816896)
I1125 19:43:48.170267 26345 net.cpp:165] Memory required for data: 1984562176
I1125 19:43:48.170271 26345 layer_factory.hpp:76] Creating layer inception_3b/pool
I1125 19:43:48.170279 26345 net.cpp:106] Creating Layer inception_3b/pool
I1125 19:43:48.170284 26345 net.cpp:454] inception_3b/pool <- inception_3a/output_inception_3a/output_0_split_3
I1125 19:43:48.170292 26345 net.cpp:411] inception_3b/pool -> inception_3b/pool
I1125 19:43:48.170482 26345 net.cpp:150] Setting up inception_3b/pool
I1125 19:43:48.170493 26345 net.cpp:157] Top shape: 64 256 28 28 (12845056)
I1125 19:43:48.170497 26345 net.cpp:165] Memory required for data: 2035942400
I1125 19:43:48.170501 26345 layer_factory.hpp:76] Creating layer inception_3b/pool_proj
I1125 19:43:48.170508 26345 net.cpp:106] Creating Layer inception_3b/pool_proj
I1125 19:43:48.170513 26345 net.cpp:454] inception_3b/pool_proj <- inception_3b/pool
I1125 19:43:48.170521 26345 net.cpp:411] inception_3b/pool_proj -> inception_3b/pool_proj
I1125 19:43:48.171583 26345 net.cpp:150] Setting up inception_3b/pool_proj
I1125 19:43:48.171597 26345 net.cpp:157] Top shape: 64 64 28 28 (3211264)
I1125 19:43:48.171600 26345 net.cpp:165] Memory required for data: 2048787456
I1125 19:43:48.171607 26345 layer_factory.hpp:76] Creating layer inception_3b/relu_pool_proj
I1125 19:43:48.171620 26345 net.cpp:106] Creating Layer inception_3b/relu_pool_proj
I1125 19:43:48.171625 26345 net.cpp:454] inception_3b/relu_pool_proj <- inception_3b/pool_proj
I1125 19:43:48.171632 26345 net.cpp:397] inception_3b/relu_pool_proj -> inception_3b/pool_proj (in-place)
I1125 19:43:48.171797 26345 net.cpp:150] Setting up inception_3b/relu_pool_proj
I1125 19:43:48.171807 26345 net.cpp:157] Top shape: 64 64 28 28 (3211264)
I1125 19:43:48.171810 26345 net.cpp:165] Memory required for data: 2061632512
I1125 19:43:48.171813 26345 layer_factory.hpp:76] Creating layer inception_3b/output
I1125 19:43:48.171819 26345 net.cpp:106] Creating Layer inception_3b/output
I1125 19:43:48.171823 26345 net.cpp:454] inception_3b/output <- inception_3b/1x1
I1125 19:43:48.171828 26345 net.cpp:454] inception_3b/output <- inception_3b/3x3
I1125 19:43:48.171831 26345 net.cpp:454] inception_3b/output <- inception_3b/5x5
I1125 19:43:48.171835 26345 net.cpp:454] inception_3b/output <- inception_3b/pool_proj
I1125 19:43:48.171843 26345 net.cpp:411] inception_3b/output -> inception_3b/output
I1125 19:43:48.171874 26345 net.cpp:150] Setting up inception_3b/output
I1125 19:43:48.171880 26345 net.cpp:157] Top shape: 64 480 28 28 (24084480)
I1125 19:43:48.171883 26345 net.cpp:165] Memory required for data: 2157970432
I1125 19:43:48.171886 26345 layer_factory.hpp:76] Creating layer pool3/3x3_s2
I1125 19:43:48.171893 26345 net.cpp:106] Creating Layer pool3/3x3_s2
I1125 19:43:48.171900 26345 net.cpp:454] pool3/3x3_s2 <- inception_3b/output
I1125 19:43:48.171905 26345 net.cpp:411] pool3/3x3_s2 -> pool3/3x3_s2
I1125 19:43:48.172266 26345 net.cpp:150] Setting up pool3/3x3_s2
I1125 19:43:48.172281 26345 net.cpp:157] Top shape: 64 480 14 14 (6021120)
I1125 19:43:48.172283 26345 net.cpp:165] Memory required for data: 2182054912
I1125 19:43:48.172287 26345 layer_factory.hpp:76] Creating layer pool3/3x3_s2_pool3/3x3_s2_0_split
I1125 19:43:48.172293 26345 net.cpp:106] Creating Layer pool3/3x3_s2_pool3/3x3_s2_0_split
I1125 19:43:48.172297 26345 net.cpp:454] pool3/3x3_s2_pool3/3x3_s2_0_split <- pool3/3x3_s2
I1125 19:43:48.172303 26345 net.cpp:411] pool3/3x3_s2_pool3/3x3_s2_0_split -> pool3/3x3_s2_pool3/3x3_s2_0_split_0
I1125 19:43:48.172310 26345 net.cpp:411] pool3/3x3_s2_pool3/3x3_s2_0_split -> pool3/3x3_s2_pool3/3x3_s2_0_split_1
I1125 19:43:48.172317 26345 net.cpp:411] pool3/3x3_s2_pool3/3x3_s2_0_split -> pool3/3x3_s2_pool3/3x3_s2_0_split_2
I1125 19:43:48.172322 26345 net.cpp:411] pool3/3x3_s2_pool3/3x3_s2_0_split -> pool3/3x3_s2_pool3/3x3_s2_0_split_3
I1125 19:43:48.172377 26345 net.cpp:150] Setting up pool3/3x3_s2_pool3/3x3_s2_0_split
I1125 19:43:48.172384 26345 net.cpp:157] Top shape: 64 480 14 14 (6021120)
I1125 19:43:48.172389 26345 net.cpp:157] Top shape: 64 480 14 14 (6021120)
I1125 19:43:48.172391 26345 net.cpp:157] Top shape: 64 480 14 14 (6021120)
I1125 19:43:48.172395 26345 net.cpp:157] Top shape: 64 480 14 14 (6021120)
I1125 19:43:48.172399 26345 net.cpp:165] Memory required for data: 2278392832
I1125 19:43:48.172401 26345 layer_factory.hpp:76] Creating layer inception_4a/1x1
I1125 19:43:48.172411 26345 net.cpp:106] Creating Layer inception_4a/1x1
I1125 19:43:48.172415 26345 net.cpp:454] inception_4a/1x1 <- pool3/3x3_s2_pool3/3x3_s2_0_split_0
I1125 19:43:48.172420 26345 net.cpp:411] inception_4a/1x1 -> inception_4a/1x1
I1125 19:43:48.174069 26345 net.cpp:150] Setting up inception_4a/1x1
I1125 19:43:48.174083 26345 net.cpp:157] Top shape: 64 192 14 14 (2408448)
I1125 19:43:48.174088 26345 net.cpp:165] Memory required for data: 2288026624
I1125 19:43:48.174093 26345 layer_factory.hpp:76] Creating layer inception_4a/relu_1x1
I1125 19:43:48.174101 26345 net.cpp:106] Creating Layer inception_4a/relu_1x1
I1125 19:43:48.174105 26345 net.cpp:454] inception_4a/relu_1x1 <- inception_4a/1x1
I1125 19:43:48.174110 26345 net.cpp:397] inception_4a/relu_1x1 -> inception_4a/1x1 (in-place)
I1125 19:43:48.174350 26345 net.cpp:150] Setting up inception_4a/relu_1x1
I1125 19:43:48.174365 26345 net.cpp:157] Top shape: 64 192 14 14 (2408448)
I1125 19:43:48.174373 26345 net.cpp:165] Memory required for data: 2297660416
I1125 19:43:48.174381 26345 layer_factory.hpp:76] Creating layer inception_4a/3x3_reduce
I1125 19:43:48.174396 26345 net.cpp:106] Creating Layer inception_4a/3x3_reduce
I1125 19:43:48.174406 26345 net.cpp:454] inception_4a/3x3_reduce <- pool3/3x3_s2_pool3/3x3_s2_0_split_1
I1125 19:43:48.174419 26345 net.cpp:411] inception_4a/3x3_reduce -> inception_4a/3x3_reduce
I1125 19:43:48.175757 26345 net.cpp:150] Setting up inception_4a/3x3_reduce
I1125 19:43:48.175771 26345 net.cpp:157] Top shape: 64 96 14 14 (1204224)
I1125 19:43:48.175776 26345 net.cpp:165] Memory required for data: 2302477312
I1125 19:43:48.175791 26345 layer_factory.hpp:76] Creating layer inception_4a/relu_3x3_reduce
I1125 19:43:48.175796 26345 net.cpp:106] Creating Layer inception_4a/relu_3x3_reduce
I1125 19:43:48.175801 26345 net.cpp:454] inception_4a/relu_3x3_reduce <- inception_4a/3x3_reduce
I1125 19:43:48.175806 26345 net.cpp:397] inception_4a/relu_3x3_reduce -> inception_4a/3x3_reduce (in-place)
I1125 19:43:48.176100 26345 net.cpp:150] Setting up inception_4a/relu_3x3_reduce
I1125 19:43:48.176115 26345 net.cpp:157] Top shape: 64 96 14 14 (1204224)
I1125 19:43:48.176121 26345 net.cpp:165] Memory required for data: 2307294208
I1125 19:43:48.176127 26345 layer_factory.hpp:76] Creating layer inception_4a/3x3
I1125 19:43:48.176138 26345 net.cpp:106] Creating Layer inception_4a/3x3
I1125 19:43:48.176144 26345 net.cpp:454] inception_4a/3x3 <- inception_4a/3x3_reduce
I1125 19:43:48.176157 26345 net.cpp:411] inception_4a/3x3 -> inception_4a/3x3
I1125 19:43:48.178617 26345 net.cpp:150] Setting up inception_4a/3x3
I1125 19:43:48.178633 26345 net.cpp:157] Top shape: 64 208 14 14 (2609152)
I1125 19:43:48.178640 26345 net.cpp:165] Memory required for data: 2317730816
I1125 19:43:48.178650 26345 layer_factory.hpp:76] Creating layer inception_4a/relu_3x3
I1125 19:43:48.178660 26345 net.cpp:106] Creating Layer inception_4a/relu_3x3
I1125 19:43:48.178669 26345 net.cpp:454] inception_4a/relu_3x3 <- inception_4a/3x3
I1125 19:43:48.178679 26345 net.cpp:397] inception_4a/relu_3x3 -> inception_4a/3x3 (in-place)
I1125 19:43:48.178990 26345 net.cpp:150] Setting up inception_4a/relu_3x3
I1125 19:43:48.179005 26345 net.cpp:157] Top shape: 64 208 14 14 (2609152)
I1125 19:43:48.179011 26345 net.cpp:165] Memory required for data: 2328167424
I1125 19:43:48.179018 26345 layer_factory.hpp:76] Creating layer inception_4a/5x5_reduce
I1125 19:43:48.179031 26345 net.cpp:106] Creating Layer inception_4a/5x5_reduce
I1125 19:43:48.179044 26345 net.cpp:454] inception_4a/5x5_reduce <- pool3/3x3_s2_pool3/3x3_s2_0_split_2
I1125 19:43:48.179056 26345 net.cpp:411] inception_4a/5x5_reduce -> inception_4a/5x5_reduce
I1125 19:43:48.180481 26345 net.cpp:150] Setting up inception_4a/5x5_reduce
I1125 19:43:48.180502 26345 net.cpp:157] Top shape: 64 16 14 14 (200704)
I1125 19:43:48.180510 26345 net.cpp:165] Memory required for data: 2328970240
I1125 19:43:48.180519 26345 layer_factory.hpp:76] Creating layer inception_4a/relu_5x5_reduce
I1125 19:43:48.180536 26345 net.cpp:106] Creating Layer inception_4a/relu_5x5_reduce
I1125 19:43:48.180546 26345 net.cpp:454] inception_4a/relu_5x5_reduce <- inception_4a/5x5_reduce
I1125 19:43:48.180554 26345 net.cpp:397] inception_4a/relu_5x5_reduce -> inception_4a/5x5_reduce (in-place)
I1125 19:43:48.180969 26345 net.cpp:150] Setting up inception_4a/relu_5x5_reduce
I1125 19:43:48.181013 26345 net.cpp:157] Top shape: 64 16 14 14 (200704)
I1125 19:43:48.181036 26345 net.cpp:165] Memory required for data: 2329773056
I1125 19:43:48.181044 26345 layer_factory.hpp:76] Creating layer inception_4a/5x5
I1125 19:43:48.181062 26345 net.cpp:106] Creating Layer inception_4a/5x5
I1125 19:43:48.181072 26345 net.cpp:454] inception_4a/5x5 <- inception_4a/5x5_reduce
I1125 19:43:48.181083 26345 net.cpp:411] inception_4a/5x5 -> inception_4a/5x5
I1125 19:43:48.182307 26345 net.cpp:150] Setting up inception_4a/5x5
I1125 19:43:48.182327 26345 net.cpp:157] Top shape: 64 48 14 14 (602112)
I1125 19:43:48.182332 26345 net.cpp:165] Memory required for data: 2332181504
I1125 19:43:48.182343 26345 layer_factory.hpp:76] Creating layer inception_4a/relu_5x5
I1125 19:43:48.182356 26345 net.cpp:106] Creating Layer inception_4a/relu_5x5
I1125 19:43:48.182364 26345 net.cpp:454] inception_4a/relu_5x5 <- inception_4a/5x5
I1125 19:43:48.182374 26345 net.cpp:397] inception_4a/relu_5x5 -> inception_4a/5x5 (in-place)
I1125 19:43:48.182679 26345 net.cpp:150] Setting up inception_4a/relu_5x5
I1125 19:43:48.182695 26345 net.cpp:157] Top shape: 64 48 14 14 (602112)
I1125 19:43:48.182701 26345 net.cpp:165] Memory required for data: 2334589952
I1125 19:43:48.182708 26345 layer_factory.hpp:76] Creating layer inception_4a/pool
I1125 19:43:48.182718 26345 net.cpp:106] Creating Layer inception_4a/pool
I1125 19:43:48.182726 26345 net.cpp:454] inception_4a/pool <- pool3/3x3_s2_pool3/3x3_s2_0_split_3
I1125 19:43:48.182736 26345 net.cpp:411] inception_4a/pool -> inception_4a/pool
I1125 19:43:48.182966 26345 net.cpp:150] Setting up inception_4a/pool
I1125 19:43:48.182981 26345 net.cpp:157] Top shape: 64 480 14 14 (6021120)
I1125 19:43:48.182987 26345 net.cpp:165] Memory required for data: 2358674432
I1125 19:43:48.182993 26345 layer_factory.hpp:76] Creating layer inception_4a/pool_proj
I1125 19:43:48.183007 26345 net.cpp:106] Creating Layer inception_4a/pool_proj
I1125 19:43:48.183015 26345 net.cpp:454] inception_4a/pool_proj <- inception_4a/pool
I1125 19:43:48.183028 26345 net.cpp:411] inception_4a/pool_proj -> inception_4a/pool_proj
I1125 19:43:48.184252 26345 net.cpp:150] Setting up inception_4a/pool_proj
I1125 19:43:48.184267 26345 net.cpp:157] Top shape: 64 64 14 14 (802816)
I1125 19:43:48.184273 26345 net.cpp:165] Memory required for data: 2361885696
I1125 19:43:48.184283 26345 layer_factory.hpp:76] Creating layer inception_4a/relu_pool_proj
I1125 19:43:48.184293 26345 net.cpp:106] Creating Layer inception_4a/relu_pool_proj
I1125 19:43:48.184299 26345 net.cpp:454] inception_4a/relu_pool_proj <- inception_4a/pool_proj
I1125 19:43:48.184311 26345 net.cpp:397] inception_4a/relu_pool_proj -> inception_4a/pool_proj (in-place)
I1125 19:43:48.184613 26345 net.cpp:150] Setting up inception_4a/relu_pool_proj
I1125 19:43:48.184628 26345 net.cpp:157] Top shape: 64 64 14 14 (802816)
I1125 19:43:48.184633 26345 net.cpp:165] Memory required for data: 2365096960
I1125 19:43:48.184639 26345 layer_factory.hpp:76] Creating layer inception_4a/output
I1125 19:43:48.184649 26345 net.cpp:106] Creating Layer inception_4a/output
I1125 19:43:48.184656 26345 net.cpp:454] inception_4a/output <- inception_4a/1x1
I1125 19:43:48.184669 26345 net.cpp:454] inception_4a/output <- inception_4a/3x3
I1125 19:43:48.184679 26345 net.cpp:454] inception_4a/output <- inception_4a/5x5
I1125 19:43:48.184689 26345 net.cpp:454] inception_4a/output <- inception_4a/pool_proj
I1125 19:43:48.184703 26345 net.cpp:411] inception_4a/output -> inception_4a/output
I1125 19:43:48.184747 26345 net.cpp:150] Setting up inception_4a/output
I1125 19:43:48.184757 26345 net.cpp:157] Top shape: 64 512 14 14 (6422528)
I1125 19:43:48.184763 26345 net.cpp:165] Memory required for data: 2390787072
I1125 19:43:48.184769 26345 layer_factory.hpp:76] Creating layer inception_4a/output_inception_4a/output_0_split
I1125 19:43:48.184779 26345 net.cpp:106] Creating Layer inception_4a/output_inception_4a/output_0_split
I1125 19:43:48.184787 26345 net.cpp:454] inception_4a/output_inception_4a/output_0_split <- inception_4a/output
I1125 19:43:48.184797 26345 net.cpp:411] inception_4a/output_inception_4a/output_0_split -> inception_4a/output_inception_4a/output_0_split_0
I1125 19:43:48.184810 26345 net.cpp:411] inception_4a/output_inception_4a/output_0_split -> inception_4a/output_inception_4a/output_0_split_1
I1125 19:43:48.184823 26345 net.cpp:411] inception_4a/output_inception_4a/output_0_split -> inception_4a/output_inception_4a/output_0_split_2
I1125 19:43:48.184834 26345 net.cpp:411] inception_4a/output_inception_4a/output_0_split -> inception_4a/output_inception_4a/output_0_split_3
I1125 19:43:48.184845 26345 net.cpp:411] inception_4a/output_inception_4a/output_0_split -> inception_4a/output_inception_4a/output_0_split_4
I1125 19:43:48.184929 26345 net.cpp:150] Setting up inception_4a/output_inception_4a/output_0_split
I1125 19:43:48.184942 26345 net.cpp:157] Top shape: 64 512 14 14 (6422528)
I1125 19:43:48.184950 26345 net.cpp:157] Top shape: 64 512 14 14 (6422528)
I1125 19:43:48.184959 26345 net.cpp:157] Top shape: 64 512 14 14 (6422528)
I1125 19:43:48.184967 26345 net.cpp:157] Top shape: 64 512 14 14 (6422528)
I1125 19:43:48.184976 26345 net.cpp:157] Top shape: 64 512 14 14 (6422528)
I1125 19:43:48.184983 26345 net.cpp:165] Memory required for data: 2519237632
I1125 19:43:48.184989 26345 layer_factory.hpp:76] Creating layer loss1/ave_pool
I1125 19:43:48.184998 26345 net.cpp:106] Creating Layer loss1/ave_pool
I1125 19:43:48.185005 26345 net.cpp:454] loss1/ave_pool <- inception_4a/output_inception_4a/output_0_split_0
I1125 19:43:48.185014 26345 net.cpp:411] loss1/ave_pool -> loss1/ave_pool
I1125 19:43:48.185204 26345 net.cpp:150] Setting up loss1/ave_pool
I1125 19:43:48.185217 26345 net.cpp:157] Top shape: 64 512 4 4 (524288)
I1125 19:43:48.185223 26345 net.cpp:165] Memory required for data: 2521334784
I1125 19:43:48.185228 26345 layer_factory.hpp:76] Creating layer loss1/conv
I1125 19:43:48.185242 26345 net.cpp:106] Creating Layer loss1/conv
I1125 19:43:48.185250 26345 net.cpp:454] loss1/conv <- loss1/ave_pool
I1125 19:43:48.185264 26345 net.cpp:411] loss1/conv -> loss1/conv
I1125 19:43:48.186676 26345 net.cpp:150] Setting up loss1/conv
I1125 19:43:48.186691 26345 net.cpp:157] Top shape: 64 128 4 4 (131072)
I1125 19:43:48.186697 26345 net.cpp:165] Memory required for data: 2521859072
I1125 19:43:48.186708 26345 layer_factory.hpp:76] Creating layer loss1/relu_conv
I1125 19:43:48.186720 26345 net.cpp:106] Creating Layer loss1/relu_conv
I1125 19:43:48.186729 26345 net.cpp:454] loss1/relu_conv <- loss1/conv
I1125 19:43:48.186738 26345 net.cpp:397] loss1/relu_conv -> loss1/conv (in-place)
I1125 19:43:48.186944 26345 net.cpp:150] Setting up loss1/relu_conv
I1125 19:43:48.186959 26345 net.cpp:157] Top shape: 64 128 4 4 (131072)
I1125 19:43:48.186964 26345 net.cpp:165] Memory required for data: 2522383360
I1125 19:43:48.186970 26345 layer_factory.hpp:76] Creating layer loss1/fc
I1125 19:43:48.186982 26345 net.cpp:106] Creating Layer loss1/fc
I1125 19:43:48.186990 26345 net.cpp:454] loss1/fc <- loss1/conv
I1125 19:43:48.187010 26345 net.cpp:411] loss1/fc -> loss1/fc
I1125 19:43:48.202975 26345 net.cpp:150] Setting up loss1/fc
I1125 19:43:48.202999 26345 net.cpp:157] Top shape: 64 1024 (65536)
I1125 19:43:48.203006 26345 net.cpp:165] Memory required for data: 2522645504
I1125 19:43:48.203017 26345 layer_factory.hpp:76] Creating layer loss1/relu_fc
I1125 19:43:48.203032 26345 net.cpp:106] Creating Layer loss1/relu_fc
I1125 19:43:48.203048 26345 net.cpp:454] loss1/relu_fc <- loss1/fc
I1125 19:43:48.203063 26345 net.cpp:397] loss1/relu_fc -> loss1/fc (in-place)
I1125 19:43:48.203508 26345 net.cpp:150] Setting up loss1/relu_fc
I1125 19:43:48.203523 26345 net.cpp:157] Top shape: 64 1024 (65536)
I1125 19:43:48.203529 26345 net.cpp:165] Memory required for data: 2522907648
I1125 19:43:48.203536 26345 layer_factory.hpp:76] Creating layer loss1/drop_fc
I1125 19:43:48.203562 26345 net.cpp:106] Creating Layer loss1/drop_fc
I1125 19:43:48.203569 26345 net.cpp:454] loss1/drop_fc <- loss1/fc
I1125 19:43:48.203578 26345 net.cpp:397] loss1/drop_fc -> loss1/fc (in-place)
I1125 19:43:48.203629 26345 net.cpp:150] Setting up loss1/drop_fc
I1125 19:43:48.203639 26345 net.cpp:157] Top shape: 64 1024 (65536)
I1125 19:43:48.203645 26345 net.cpp:165] Memory required for data: 2523169792
I1125 19:43:48.203652 26345 layer_factory.hpp:76] Creating layer loss1/classifier-attribute
I1125 19:43:48.203665 26345 net.cpp:106] Creating Layer loss1/classifier-attribute
I1125 19:43:48.203672 26345 net.cpp:454] loss1/classifier-attribute <- loss1/fc
I1125 19:43:48.203682 26345 net.cpp:411] loss1/classifier-attribute -> loss1/classifier-attribute
I1125 19:43:48.203846 26345 net.cpp:150] Setting up loss1/classifier-attribute
I1125 19:43:48.203857 26345 net.cpp:157] Top shape: 64 5 (320)
I1125 19:43:48.203862 26345 net.cpp:165] Memory required for data: 2523171072
I1125 19:43:48.203873 26345 layer_factory.hpp:76] Creating layer loss1/loss
I1125 19:43:48.203888 26345 net.cpp:106] Creating Layer loss1/loss
I1125 19:43:48.203896 26345 net.cpp:454] loss1/loss <- loss1/classifier-attribute
I1125 19:43:48.203903 26345 net.cpp:454] loss1/loss <- label_data_1_split_0
I1125 19:43:48.203915 26345 net.cpp:411] loss1/loss -> loss1/loss1
I1125 19:43:48.203934 26345 layer_factory.hpp:76] Creating layer loss1/loss
I1125 19:43:48.204203 26345 net.cpp:150] Setting up loss1/loss
I1125 19:43:48.204216 26345 net.cpp:157] Top shape: (1)
I1125 19:43:48.204222 26345 net.cpp:160]     with loss weight 0.3
I1125 19:43:48.204249 26345 net.cpp:165] Memory required for data: 2523171076
I1125 19:43:48.204257 26345 layer_factory.hpp:76] Creating layer inception_4b/1x1
I1125 19:43:48.204272 26345 net.cpp:106] Creating Layer inception_4b/1x1
I1125 19:43:48.204278 26345 net.cpp:454] inception_4b/1x1 <- inception_4a/output_inception_4a/output_0_split_1
I1125 19:43:48.204291 26345 net.cpp:411] inception_4b/1x1 -> inception_4b/1x1
I1125 19:43:48.206336 26345 net.cpp:150] Setting up inception_4b/1x1
I1125 19:43:48.206357 26345 net.cpp:157] Top shape: 64 160 14 14 (2007040)
I1125 19:43:48.206362 26345 net.cpp:165] Memory required for data: 2531199236
I1125 19:43:48.206373 26345 layer_factory.hpp:76] Creating layer inception_4b/relu_1x1
I1125 19:43:48.206387 26345 net.cpp:106] Creating Layer inception_4b/relu_1x1
I1125 19:43:48.206398 26345 net.cpp:454] inception_4b/relu_1x1 <- inception_4b/1x1
I1125 19:43:48.206413 26345 net.cpp:397] inception_4b/relu_1x1 -> inception_4b/1x1 (in-place)
I1125 19:43:48.206835 26345 net.cpp:150] Setting up inception_4b/relu_1x1
I1125 19:43:48.206853 26345 net.cpp:157] Top shape: 64 160 14 14 (2007040)
I1125 19:43:48.206861 26345 net.cpp:165] Memory required for data: 2539227396
I1125 19:43:48.206884 26345 layer_factory.hpp:76] Creating layer inception_4b/3x3_reduce
I1125 19:43:48.206899 26345 net.cpp:106] Creating Layer inception_4b/3x3_reduce
I1125 19:43:48.206907 26345 net.cpp:454] inception_4b/3x3_reduce <- inception_4a/output_inception_4a/output_0_split_2
I1125 19:43:48.206919 26345 net.cpp:411] inception_4b/3x3_reduce -> inception_4b/3x3_reduce
I1125 19:43:48.208808 26345 net.cpp:150] Setting up inception_4b/3x3_reduce
I1125 19:43:48.208823 26345 net.cpp:157] Top shape: 64 112 14 14 (1404928)
I1125 19:43:48.208828 26345 net.cpp:165] Memory required for data: 2544847108
I1125 19:43:48.208834 26345 layer_factory.hpp:76] Creating layer inception_4b/relu_3x3_reduce
I1125 19:43:48.208842 26345 net.cpp:106] Creating Layer inception_4b/relu_3x3_reduce
I1125 19:43:48.208847 26345 net.cpp:454] inception_4b/relu_3x3_reduce <- inception_4b/3x3_reduce
I1125 19:43:48.208852 26345 net.cpp:397] inception_4b/relu_3x3_reduce -> inception_4b/3x3_reduce (in-place)
I1125 19:43:48.209018 26345 net.cpp:150] Setting up inception_4b/relu_3x3_reduce
I1125 19:43:48.209028 26345 net.cpp:157] Top shape: 64 112 14 14 (1404928)
I1125 19:43:48.209031 26345 net.cpp:165] Memory required for data: 2550466820
I1125 19:43:48.209035 26345 layer_factory.hpp:76] Creating layer inception_4b/3x3
I1125 19:43:48.209045 26345 net.cpp:106] Creating Layer inception_4b/3x3
I1125 19:43:48.209050 26345 net.cpp:454] inception_4b/3x3 <- inception_4b/3x3_reduce
I1125 19:43:48.209056 26345 net.cpp:411] inception_4b/3x3 -> inception_4b/3x3
I1125 19:43:48.211966 26345 net.cpp:150] Setting up inception_4b/3x3
I1125 19:43:48.211983 26345 net.cpp:157] Top shape: 64 224 14 14 (2809856)
I1125 19:43:48.211989 26345 net.cpp:165] Memory required for data: 2561706244
I1125 19:43:48.212000 26345 layer_factory.hpp:76] Creating layer inception_4b/relu_3x3
I1125 19:43:48.212028 26345 net.cpp:106] Creating Layer inception_4b/relu_3x3
I1125 19:43:48.212038 26345 net.cpp:454] inception_4b/relu_3x3 <- inception_4b/3x3
I1125 19:43:48.212047 26345 net.cpp:397] inception_4b/relu_3x3 -> inception_4b/3x3 (in-place)
I1125 19:43:48.212227 26345 net.cpp:150] Setting up inception_4b/relu_3x3
I1125 19:43:48.212240 26345 net.cpp:157] Top shape: 64 224 14 14 (2809856)
I1125 19:43:48.212245 26345 net.cpp:165] Memory required for data: 2572945668
I1125 19:43:48.212254 26345 layer_factory.hpp:76] Creating layer inception_4b/5x5_reduce
I1125 19:43:48.212268 26345 net.cpp:106] Creating Layer inception_4b/5x5_reduce
I1125 19:43:48.212275 26345 net.cpp:454] inception_4b/5x5_reduce <- inception_4a/output_inception_4a/output_0_split_3
I1125 19:43:48.212288 26345 net.cpp:411] inception_4b/5x5_reduce -> inception_4b/5x5_reduce
I1125 19:43:48.213384 26345 net.cpp:150] Setting up inception_4b/5x5_reduce
I1125 19:43:48.213400 26345 net.cpp:157] Top shape: 64 24 14 14 (301056)
I1125 19:43:48.213407 26345 net.cpp:165] Memory required for data: 2574149892
I1125 19:43:48.213419 26345 layer_factory.hpp:76] Creating layer inception_4b/relu_5x5_reduce
I1125 19:43:48.213428 26345 net.cpp:106] Creating Layer inception_4b/relu_5x5_reduce
I1125 19:43:48.213433 26345 net.cpp:454] inception_4b/relu_5x5_reduce <- inception_4b/5x5_reduce
I1125 19:43:48.213438 26345 net.cpp:397] inception_4b/relu_5x5_reduce -> inception_4b/5x5_reduce (in-place)
I1125 19:43:48.213853 26345 net.cpp:150] Setting up inception_4b/relu_5x5_reduce
I1125 19:43:48.213871 26345 net.cpp:157] Top shape: 64 24 14 14 (301056)
I1125 19:43:48.213874 26345 net.cpp:165] Memory required for data: 2575354116
I1125 19:43:48.213878 26345 layer_factory.hpp:76] Creating layer inception_4b/5x5
I1125 19:43:48.213886 26345 net.cpp:106] Creating Layer inception_4b/5x5
I1125 19:43:48.213891 26345 net.cpp:454] inception_4b/5x5 <- inception_4b/5x5_reduce
I1125 19:43:48.213897 26345 net.cpp:411] inception_4b/5x5 -> inception_4b/5x5
I1125 19:43:48.215193 26345 net.cpp:150] Setting up inception_4b/5x5
I1125 19:43:48.215209 26345 net.cpp:157] Top shape: 64 64 14 14 (802816)
I1125 19:43:48.215211 26345 net.cpp:165] Memory required for data: 2578565380
I1125 19:43:48.215219 26345 layer_factory.hpp:76] Creating layer inception_4b/relu_5x5
I1125 19:43:48.215225 26345 net.cpp:106] Creating Layer inception_4b/relu_5x5
I1125 19:43:48.215230 26345 net.cpp:454] inception_4b/relu_5x5 <- inception_4b/5x5
I1125 19:43:48.215236 26345 net.cpp:397] inception_4b/relu_5x5 -> inception_4b/5x5 (in-place)
I1125 19:43:48.215401 26345 net.cpp:150] Setting up inception_4b/relu_5x5
I1125 19:43:48.215410 26345 net.cpp:157] Top shape: 64 64 14 14 (802816)
I1125 19:43:48.215415 26345 net.cpp:165] Memory required for data: 2581776644
I1125 19:43:48.215417 26345 layer_factory.hpp:76] Creating layer inception_4b/pool
I1125 19:43:48.215425 26345 net.cpp:106] Creating Layer inception_4b/pool
I1125 19:43:48.215430 26345 net.cpp:454] inception_4b/pool <- inception_4a/output_inception_4a/output_0_split_4
I1125 19:43:48.215435 26345 net.cpp:411] inception_4b/pool -> inception_4b/pool
I1125 19:43:48.215772 26345 net.cpp:150] Setting up inception_4b/pool
I1125 19:43:48.215785 26345 net.cpp:157] Top shape: 64 512 14 14 (6422528)
I1125 19:43:48.215788 26345 net.cpp:165] Memory required for data: 2607466756
I1125 19:43:48.215792 26345 layer_factory.hpp:76] Creating layer inception_4b/pool_proj
I1125 19:43:48.215802 26345 net.cpp:106] Creating Layer inception_4b/pool_proj
I1125 19:43:48.215806 26345 net.cpp:454] inception_4b/pool_proj <- inception_4b/pool
I1125 19:43:48.215814 26345 net.cpp:411] inception_4b/pool_proj -> inception_4b/pool_proj
I1125 19:43:48.216964 26345 net.cpp:150] Setting up inception_4b/pool_proj
I1125 19:43:48.216979 26345 net.cpp:157] Top shape: 64 64 14 14 (802816)
I1125 19:43:48.216982 26345 net.cpp:165] Memory required for data: 2610678020
I1125 19:43:48.216989 26345 layer_factory.hpp:76] Creating layer inception_4b/relu_pool_proj
I1125 19:43:48.216996 26345 net.cpp:106] Creating Layer inception_4b/relu_pool_proj
I1125 19:43:48.217000 26345 net.cpp:454] inception_4b/relu_pool_proj <- inception_4b/pool_proj
I1125 19:43:48.217005 26345 net.cpp:397] inception_4b/relu_pool_proj -> inception_4b/pool_proj (in-place)
I1125 19:43:48.217334 26345 net.cpp:150] Setting up inception_4b/relu_pool_proj
I1125 19:43:48.217352 26345 net.cpp:157] Top shape: 64 64 14 14 (802816)
I1125 19:43:48.217360 26345 net.cpp:165] Memory required for data: 2613889284
I1125 19:43:48.217366 26345 layer_factory.hpp:76] Creating layer inception_4b/output
I1125 19:43:48.217375 26345 net.cpp:106] Creating Layer inception_4b/output
I1125 19:43:48.217381 26345 net.cpp:454] inception_4b/output <- inception_4b/1x1
I1125 19:43:48.217389 26345 net.cpp:454] inception_4b/output <- inception_4b/3x3
I1125 19:43:48.217396 26345 net.cpp:454] inception_4b/output <- inception_4b/5x5
I1125 19:43:48.217402 26345 net.cpp:454] inception_4b/output <- inception_4b/pool_proj
I1125 19:43:48.217409 26345 net.cpp:411] inception_4b/output -> inception_4b/output
I1125 19:43:48.217461 26345 net.cpp:150] Setting up inception_4b/output
I1125 19:43:48.217475 26345 net.cpp:157] Top shape: 64 512 14 14 (6422528)
I1125 19:43:48.217483 26345 net.cpp:165] Memory required for data: 2639579396
I1125 19:43:48.217489 26345 layer_factory.hpp:76] Creating layer inception_4b/output_inception_4b/output_0_split
I1125 19:43:48.217499 26345 net.cpp:106] Creating Layer inception_4b/output_inception_4b/output_0_split
I1125 19:43:48.217504 26345 net.cpp:454] inception_4b/output_inception_4b/output_0_split <- inception_4b/output
I1125 19:43:48.217514 26345 net.cpp:411] inception_4b/output_inception_4b/output_0_split -> inception_4b/output_inception_4b/output_0_split_0
I1125 19:43:48.217527 26345 net.cpp:411] inception_4b/output_inception_4b/output_0_split -> inception_4b/output_inception_4b/output_0_split_1
I1125 19:43:48.217540 26345 net.cpp:411] inception_4b/output_inception_4b/output_0_split -> inception_4b/output_inception_4b/output_0_split_2
I1125 19:43:48.217551 26345 net.cpp:411] inception_4b/output_inception_4b/output_0_split -> inception_4b/output_inception_4b/output_0_split_3
I1125 19:43:48.217656 26345 net.cpp:150] Setting up inception_4b/output_inception_4b/output_0_split
I1125 19:43:48.217667 26345 net.cpp:157] Top shape: 64 512 14 14 (6422528)
I1125 19:43:48.217671 26345 net.cpp:157] Top shape: 64 512 14 14 (6422528)
I1125 19:43:48.217675 26345 net.cpp:157] Top shape: 64 512 14 14 (6422528)
I1125 19:43:48.217679 26345 net.cpp:157] Top shape: 64 512 14 14 (6422528)
I1125 19:43:48.217682 26345 net.cpp:165] Memory required for data: 2742339844
I1125 19:43:48.217685 26345 layer_factory.hpp:76] Creating layer inception_4c/1x1
I1125 19:43:48.217694 26345 net.cpp:106] Creating Layer inception_4c/1x1
I1125 19:43:48.217699 26345 net.cpp:454] inception_4c/1x1 <- inception_4b/output_inception_4b/output_0_split_0
I1125 19:43:48.217705 26345 net.cpp:411] inception_4c/1x1 -> inception_4c/1x1
I1125 19:43:48.219148 26345 net.cpp:150] Setting up inception_4c/1x1
I1125 19:43:48.219168 26345 net.cpp:157] Top shape: 64 128 14 14 (1605632)
I1125 19:43:48.219172 26345 net.cpp:165] Memory required for data: 2748762372
I1125 19:43:48.219178 26345 layer_factory.hpp:76] Creating layer inception_4c/relu_1x1
I1125 19:43:48.219187 26345 net.cpp:106] Creating Layer inception_4c/relu_1x1
I1125 19:43:48.219190 26345 net.cpp:454] inception_4c/relu_1x1 <- inception_4c/1x1
I1125 19:43:48.219195 26345 net.cpp:397] inception_4c/relu_1x1 -> inception_4c/1x1 (in-place)
I1125 19:43:48.219363 26345 net.cpp:150] Setting up inception_4c/relu_1x1
I1125 19:43:48.219372 26345 net.cpp:157] Top shape: 64 128 14 14 (1605632)
I1125 19:43:48.219377 26345 net.cpp:165] Memory required for data: 2755184900
I1125 19:43:48.219379 26345 layer_factory.hpp:76] Creating layer inception_4c/3x3_reduce
I1125 19:43:48.219388 26345 net.cpp:106] Creating Layer inception_4c/3x3_reduce
I1125 19:43:48.219393 26345 net.cpp:454] inception_4c/3x3_reduce <- inception_4b/output_inception_4b/output_0_split_1
I1125 19:43:48.219399 26345 net.cpp:411] inception_4c/3x3_reduce -> inception_4c/3x3_reduce
I1125 19:43:48.220830 26345 net.cpp:150] Setting up inception_4c/3x3_reduce
I1125 19:43:48.220844 26345 net.cpp:157] Top shape: 64 128 14 14 (1605632)
I1125 19:43:48.220849 26345 net.cpp:165] Memory required for data: 2761607428
I1125 19:43:48.220854 26345 layer_factory.hpp:76] Creating layer inception_4c/relu_3x3_reduce
I1125 19:43:48.220861 26345 net.cpp:106] Creating Layer inception_4c/relu_3x3_reduce
I1125 19:43:48.220866 26345 net.cpp:454] inception_4c/relu_3x3_reduce <- inception_4c/3x3_reduce
I1125 19:43:48.220871 26345 net.cpp:397] inception_4c/relu_3x3_reduce -> inception_4c/3x3_reduce (in-place)
I1125 19:43:48.221187 26345 net.cpp:150] Setting up inception_4c/relu_3x3_reduce
I1125 19:43:48.221199 26345 net.cpp:157] Top shape: 64 128 14 14 (1605632)
I1125 19:43:48.221204 26345 net.cpp:165] Memory required for data: 2768029956
I1125 19:43:48.221206 26345 layer_factory.hpp:76] Creating layer inception_4c/3x3
I1125 19:43:48.221225 26345 net.cpp:106] Creating Layer inception_4c/3x3
I1125 19:43:48.221231 26345 net.cpp:454] inception_4c/3x3 <- inception_4c/3x3_reduce
I1125 19:43:48.221238 26345 net.cpp:411] inception_4c/3x3 -> inception_4c/3x3
I1125 19:43:48.224967 26345 net.cpp:150] Setting up inception_4c/3x3
I1125 19:43:48.224989 26345 net.cpp:157] Top shape: 64 256 14 14 (3211264)
I1125 19:43:48.224997 26345 net.cpp:165] Memory required for data: 2780875012
I1125 19:43:48.225024 26345 layer_factory.hpp:76] Creating layer inception_4c/relu_3x3
I1125 19:43:48.225039 26345 net.cpp:106] Creating Layer inception_4c/relu_3x3
I1125 19:43:48.225047 26345 net.cpp:454] inception_4c/relu_3x3 <- inception_4c/3x3
I1125 19:43:48.225070 26345 net.cpp:397] inception_4c/relu_3x3 -> inception_4c/3x3 (in-place)
I1125 19:43:48.225455 26345 net.cpp:150] Setting up inception_4c/relu_3x3
I1125 19:43:48.225471 26345 net.cpp:157] Top shape: 64 256 14 14 (3211264)
I1125 19:43:48.225474 26345 net.cpp:165] Memory required for data: 2793720068
I1125 19:43:48.225478 26345 layer_factory.hpp:76] Creating layer inception_4c/5x5_reduce
I1125 19:43:48.225486 26345 net.cpp:106] Creating Layer inception_4c/5x5_reduce
I1125 19:43:48.225491 26345 net.cpp:454] inception_4c/5x5_reduce <- inception_4b/output_inception_4b/output_0_split_2
I1125 19:43:48.225497 26345 net.cpp:411] inception_4c/5x5_reduce -> inception_4c/5x5_reduce
I1125 19:43:48.226604 26345 net.cpp:150] Setting up inception_4c/5x5_reduce
I1125 19:43:48.226619 26345 net.cpp:157] Top shape: 64 24 14 14 (301056)
I1125 19:43:48.226622 26345 net.cpp:165] Memory required for data: 2794924292
I1125 19:43:48.226629 26345 layer_factory.hpp:76] Creating layer inception_4c/relu_5x5_reduce
I1125 19:43:48.226637 26345 net.cpp:106] Creating Layer inception_4c/relu_5x5_reduce
I1125 19:43:48.226641 26345 net.cpp:454] inception_4c/relu_5x5_reduce <- inception_4c/5x5_reduce
I1125 19:43:48.226646 26345 net.cpp:397] inception_4c/relu_5x5_reduce -> inception_4c/5x5_reduce (in-place)
I1125 19:43:48.226816 26345 net.cpp:150] Setting up inception_4c/relu_5x5_reduce
I1125 19:43:48.226826 26345 net.cpp:157] Top shape: 64 24 14 14 (301056)
I1125 19:43:48.226830 26345 net.cpp:165] Memory required for data: 2796128516
I1125 19:43:48.226833 26345 layer_factory.hpp:76] Creating layer inception_4c/5x5
I1125 19:43:48.226841 26345 net.cpp:106] Creating Layer inception_4c/5x5
I1125 19:43:48.226845 26345 net.cpp:454] inception_4c/5x5 <- inception_4c/5x5_reduce
I1125 19:43:48.226852 26345 net.cpp:411] inception_4c/5x5 -> inception_4c/5x5
I1125 19:43:48.228600 26345 net.cpp:150] Setting up inception_4c/5x5
I1125 19:43:48.228615 26345 net.cpp:157] Top shape: 64 64 14 14 (802816)
I1125 19:43:48.228621 26345 net.cpp:165] Memory required for data: 2799339780
I1125 19:43:48.228627 26345 layer_factory.hpp:76] Creating layer inception_4c/relu_5x5
I1125 19:43:48.228633 26345 net.cpp:106] Creating Layer inception_4c/relu_5x5
I1125 19:43:48.228637 26345 net.cpp:454] inception_4c/relu_5x5 <- inception_4c/5x5
I1125 19:43:48.228642 26345 net.cpp:397] inception_4c/relu_5x5 -> inception_4c/5x5 (in-place)
I1125 19:43:48.228957 26345 net.cpp:150] Setting up inception_4c/relu_5x5
I1125 19:43:48.228971 26345 net.cpp:157] Top shape: 64 64 14 14 (802816)
I1125 19:43:48.228976 26345 net.cpp:165] Memory required for data: 2802551044
I1125 19:43:48.228978 26345 layer_factory.hpp:76] Creating layer inception_4c/pool
I1125 19:43:48.228986 26345 net.cpp:106] Creating Layer inception_4c/pool
I1125 19:43:48.228989 26345 net.cpp:454] inception_4c/pool <- inception_4b/output_inception_4b/output_0_split_3
I1125 19:43:48.228996 26345 net.cpp:411] inception_4c/pool -> inception_4c/pool
I1125 19:43:48.229209 26345 net.cpp:150] Setting up inception_4c/pool
I1125 19:43:48.229223 26345 net.cpp:157] Top shape: 64 512 14 14 (6422528)
I1125 19:43:48.229229 26345 net.cpp:165] Memory required for data: 2828241156
I1125 19:43:48.229235 26345 layer_factory.hpp:76] Creating layer inception_4c/pool_proj
I1125 19:43:48.229270 26345 net.cpp:106] Creating Layer inception_4c/pool_proj
I1125 19:43:48.229282 26345 net.cpp:454] inception_4c/pool_proj <- inception_4c/pool
I1125 19:43:48.229296 26345 net.cpp:411] inception_4c/pool_proj -> inception_4c/pool_proj
I1125 19:43:48.230670 26345 net.cpp:150] Setting up inception_4c/pool_proj
I1125 19:43:48.230686 26345 net.cpp:157] Top shape: 64 64 14 14 (802816)
I1125 19:43:48.230690 26345 net.cpp:165] Memory required for data: 2831452420
I1125 19:43:48.230696 26345 layer_factory.hpp:76] Creating layer inception_4c/relu_pool_proj
I1125 19:43:48.230702 26345 net.cpp:106] Creating Layer inception_4c/relu_pool_proj
I1125 19:43:48.230706 26345 net.cpp:454] inception_4c/relu_pool_proj <- inception_4c/pool_proj
I1125 19:43:48.230712 26345 net.cpp:397] inception_4c/relu_pool_proj -> inception_4c/pool_proj (in-place)
I1125 19:43:48.231034 26345 net.cpp:150] Setting up inception_4c/relu_pool_proj
I1125 19:43:48.231048 26345 net.cpp:157] Top shape: 64 64 14 14 (802816)
I1125 19:43:48.231052 26345 net.cpp:165] Memory required for data: 2834663684
I1125 19:43:48.231055 26345 layer_factory.hpp:76] Creating layer inception_4c/output
I1125 19:43:48.231062 26345 net.cpp:106] Creating Layer inception_4c/output
I1125 19:43:48.231065 26345 net.cpp:454] inception_4c/output <- inception_4c/1x1
I1125 19:43:48.231070 26345 net.cpp:454] inception_4c/output <- inception_4c/3x3
I1125 19:43:48.231075 26345 net.cpp:454] inception_4c/output <- inception_4c/5x5
I1125 19:43:48.231077 26345 net.cpp:454] inception_4c/output <- inception_4c/pool_proj
I1125 19:43:48.231083 26345 net.cpp:411] inception_4c/output -> inception_4c/output
I1125 19:43:48.231117 26345 net.cpp:150] Setting up inception_4c/output
I1125 19:43:48.231125 26345 net.cpp:157] Top shape: 64 512 14 14 (6422528)
I1125 19:43:48.231128 26345 net.cpp:165] Memory required for data: 2860353796
I1125 19:43:48.231132 26345 layer_factory.hpp:76] Creating layer inception_4c/output_inception_4c/output_0_split
I1125 19:43:48.231139 26345 net.cpp:106] Creating Layer inception_4c/output_inception_4c/output_0_split
I1125 19:43:48.231142 26345 net.cpp:454] inception_4c/output_inception_4c/output_0_split <- inception_4c/output
I1125 19:43:48.231148 26345 net.cpp:411] inception_4c/output_inception_4c/output_0_split -> inception_4c/output_inception_4c/output_0_split_0
I1125 19:43:48.231153 26345 net.cpp:411] inception_4c/output_inception_4c/output_0_split -> inception_4c/output_inception_4c/output_0_split_1
I1125 19:43:48.231160 26345 net.cpp:411] inception_4c/output_inception_4c/output_0_split -> inception_4c/output_inception_4c/output_0_split_2
I1125 19:43:48.231166 26345 net.cpp:411] inception_4c/output_inception_4c/output_0_split -> inception_4c/output_inception_4c/output_0_split_3
I1125 19:43:48.231236 26345 net.cpp:150] Setting up inception_4c/output_inception_4c/output_0_split
I1125 19:43:48.231246 26345 net.cpp:157] Top shape: 64 512 14 14 (6422528)
I1125 19:43:48.231253 26345 net.cpp:157] Top shape: 64 512 14 14 (6422528)
I1125 19:43:48.231259 26345 net.cpp:157] Top shape: 64 512 14 14 (6422528)
I1125 19:43:48.231268 26345 net.cpp:157] Top shape: 64 512 14 14 (6422528)
I1125 19:43:48.231274 26345 net.cpp:165] Memory required for data: 2963114244
I1125 19:43:48.231278 26345 layer_factory.hpp:76] Creating layer inception_4d/1x1
I1125 19:43:48.231287 26345 net.cpp:106] Creating Layer inception_4d/1x1
I1125 19:43:48.231290 26345 net.cpp:454] inception_4d/1x1 <- inception_4c/output_inception_4c/output_0_split_0
I1125 19:43:48.231297 26345 net.cpp:411] inception_4d/1x1 -> inception_4d/1x1
I1125 19:43:48.232560 26345 net.cpp:150] Setting up inception_4d/1x1
I1125 19:43:48.232575 26345 net.cpp:157] Top shape: 64 112 14 14 (1404928)
I1125 19:43:48.232579 26345 net.cpp:165] Memory required for data: 2968733956
I1125 19:43:48.232585 26345 layer_factory.hpp:76] Creating layer inception_4d/relu_1x1
I1125 19:43:48.232591 26345 net.cpp:106] Creating Layer inception_4d/relu_1x1
I1125 19:43:48.232595 26345 net.cpp:454] inception_4d/relu_1x1 <- inception_4d/1x1
I1125 19:43:48.232600 26345 net.cpp:397] inception_4d/relu_1x1 -> inception_4d/1x1 (in-place)
I1125 19:43:48.232905 26345 net.cpp:150] Setting up inception_4d/relu_1x1
I1125 19:43:48.232918 26345 net.cpp:157] Top shape: 64 112 14 14 (1404928)
I1125 19:43:48.232921 26345 net.cpp:165] Memory required for data: 2974353668
I1125 19:43:48.232925 26345 layer_factory.hpp:76] Creating layer inception_4d/3x3_reduce
I1125 19:43:48.232934 26345 net.cpp:106] Creating Layer inception_4d/3x3_reduce
I1125 19:43:48.232939 26345 net.cpp:454] inception_4d/3x3_reduce <- inception_4c/output_inception_4c/output_0_split_1
I1125 19:43:48.232944 26345 net.cpp:411] inception_4d/3x3_reduce -> inception_4d/3x3_reduce
I1125 19:43:48.234618 26345 net.cpp:150] Setting up inception_4d/3x3_reduce
I1125 19:43:48.234633 26345 net.cpp:157] Top shape: 64 144 14 14 (1806336)
I1125 19:43:48.234637 26345 net.cpp:165] Memory required for data: 2981579012
I1125 19:43:48.234644 26345 layer_factory.hpp:76] Creating layer inception_4d/relu_3x3_reduce
I1125 19:43:48.234653 26345 net.cpp:106] Creating Layer inception_4d/relu_3x3_reduce
I1125 19:43:48.234658 26345 net.cpp:454] inception_4d/relu_3x3_reduce <- inception_4d/3x3_reduce
I1125 19:43:48.234664 26345 net.cpp:397] inception_4d/relu_3x3_reduce -> inception_4d/3x3_reduce (in-place)
I1125 19:43:48.234839 26345 net.cpp:150] Setting up inception_4d/relu_3x3_reduce
I1125 19:43:48.234848 26345 net.cpp:157] Top shape: 64 144 14 14 (1806336)
I1125 19:43:48.234853 26345 net.cpp:165] Memory required for data: 2988804356
I1125 19:43:48.234856 26345 layer_factory.hpp:76] Creating layer inception_4d/3x3
I1125 19:43:48.234866 26345 net.cpp:106] Creating Layer inception_4d/3x3
I1125 19:43:48.234884 26345 net.cpp:454] inception_4d/3x3 <- inception_4d/3x3_reduce
I1125 19:43:48.234894 26345 net.cpp:411] inception_4d/3x3 -> inception_4d/3x3
I1125 19:43:48.238929 26345 net.cpp:150] Setting up inception_4d/3x3
I1125 19:43:48.238945 26345 net.cpp:157] Top shape: 64 288 14 14 (3612672)
I1125 19:43:48.238948 26345 net.cpp:165] Memory required for data: 3003255044
I1125 19:43:48.238955 26345 layer_factory.hpp:76] Creating layer inception_4d/relu_3x3
I1125 19:43:48.238960 26345 net.cpp:106] Creating Layer inception_4d/relu_3x3
I1125 19:43:48.238968 26345 net.cpp:454] inception_4d/relu_3x3 <- inception_4d/3x3
I1125 19:43:48.238976 26345 net.cpp:397] inception_4d/relu_3x3 -> inception_4d/3x3 (in-place)
I1125 19:43:48.239279 26345 net.cpp:150] Setting up inception_4d/relu_3x3
I1125 19:43:48.239290 26345 net.cpp:157] Top shape: 64 288 14 14 (3612672)
I1125 19:43:48.239295 26345 net.cpp:165] Memory required for data: 3017705732
I1125 19:43:48.239298 26345 layer_factory.hpp:76] Creating layer inception_4d/5x5_reduce
I1125 19:43:48.239310 26345 net.cpp:106] Creating Layer inception_4d/5x5_reduce
I1125 19:43:48.239315 26345 net.cpp:454] inception_4d/5x5_reduce <- inception_4c/output_inception_4c/output_0_split_2
I1125 19:43:48.239323 26345 net.cpp:411] inception_4d/5x5_reduce -> inception_4d/5x5_reduce
I1125 19:43:48.240370 26345 net.cpp:150] Setting up inception_4d/5x5_reduce
I1125 19:43:48.240382 26345 net.cpp:157] Top shape: 64 32 14 14 (401408)
I1125 19:43:48.240386 26345 net.cpp:165] Memory required for data: 3019311364
I1125 19:43:48.240393 26345 layer_factory.hpp:76] Creating layer inception_4d/relu_5x5_reduce
I1125 19:43:48.240398 26345 net.cpp:106] Creating Layer inception_4d/relu_5x5_reduce
I1125 19:43:48.240402 26345 net.cpp:454] inception_4d/relu_5x5_reduce <- inception_4d/5x5_reduce
I1125 19:43:48.240419 26345 net.cpp:397] inception_4d/relu_5x5_reduce -> inception_4d/5x5_reduce (in-place)
I1125 19:43:48.240733 26345 net.cpp:150] Setting up inception_4d/relu_5x5_reduce
I1125 19:43:48.240748 26345 net.cpp:157] Top shape: 64 32 14 14 (401408)
I1125 19:43:48.240754 26345 net.cpp:165] Memory required for data: 3020916996
I1125 19:43:48.240761 26345 layer_factory.hpp:76] Creating layer inception_4d/5x5
I1125 19:43:48.240792 26345 net.cpp:106] Creating Layer inception_4d/5x5
I1125 19:43:48.240800 26345 net.cpp:454] inception_4d/5x5 <- inception_4d/5x5_reduce
I1125 19:43:48.240813 26345 net.cpp:411] inception_4d/5x5 -> inception_4d/5x5
I1125 19:43:48.242585 26345 net.cpp:150] Setting up inception_4d/5x5
I1125 19:43:48.242604 26345 net.cpp:157] Top shape: 64 64 14 14 (802816)
I1125 19:43:48.242632 26345 net.cpp:165] Memory required for data: 3024128260
I1125 19:43:48.242660 26345 layer_factory.hpp:76] Creating layer inception_4d/relu_5x5
I1125 19:43:48.242684 26345 net.cpp:106] Creating Layer inception_4d/relu_5x5
I1125 19:43:48.242705 26345 net.cpp:454] inception_4d/relu_5x5 <- inception_4d/5x5
I1125 19:43:48.242729 26345 net.cpp:397] inception_4d/relu_5x5 -> inception_4d/5x5 (in-place)
I1125 19:43:48.243012 26345 net.cpp:150] Setting up inception_4d/relu_5x5
I1125 19:43:48.243031 26345 net.cpp:157] Top shape: 64 64 14 14 (802816)
I1125 19:43:48.243057 26345 net.cpp:165] Memory required for data: 3027339524
I1125 19:43:48.243079 26345 layer_factory.hpp:76] Creating layer inception_4d/pool
I1125 19:43:48.243103 26345 net.cpp:106] Creating Layer inception_4d/pool
I1125 19:43:48.243131 26345 net.cpp:454] inception_4d/pool <- inception_4c/output_inception_4c/output_0_split_3
I1125 19:43:48.243161 26345 net.cpp:411] inception_4d/pool -> inception_4d/pool
I1125 19:43:48.243577 26345 net.cpp:150] Setting up inception_4d/pool
I1125 19:43:48.243593 26345 net.cpp:157] Top shape: 64 512 14 14 (6422528)
I1125 19:43:48.243599 26345 net.cpp:165] Memory required for data: 3053029636
I1125 19:43:48.243621 26345 layer_factory.hpp:76] Creating layer inception_4d/pool_proj
I1125 19:43:48.243638 26345 net.cpp:106] Creating Layer inception_4d/pool_proj
I1125 19:43:48.243645 26345 net.cpp:454] inception_4d/pool_proj <- inception_4d/pool
I1125 19:43:48.243659 26345 net.cpp:411] inception_4d/pool_proj -> inception_4d/pool_proj
I1125 19:43:48.244962 26345 net.cpp:150] Setting up inception_4d/pool_proj
I1125 19:43:48.244979 26345 net.cpp:157] Top shape: 64 64 14 14 (802816)
I1125 19:43:48.244985 26345 net.cpp:165] Memory required for data: 3056240900
I1125 19:43:48.245010 26345 layer_factory.hpp:76] Creating layer inception_4d/relu_pool_proj
I1125 19:43:48.245021 26345 net.cpp:106] Creating Layer inception_4d/relu_pool_proj
I1125 19:43:48.245030 26345 net.cpp:454] inception_4d/relu_pool_proj <- inception_4d/pool_proj
I1125 19:43:48.245043 26345 net.cpp:397] inception_4d/relu_pool_proj -> inception_4d/pool_proj (in-place)
I1125 19:43:48.245230 26345 net.cpp:150] Setting up inception_4d/relu_pool_proj
I1125 19:43:48.245244 26345 net.cpp:157] Top shape: 64 64 14 14 (802816)
I1125 19:43:48.245250 26345 net.cpp:165] Memory required for data: 3059452164
I1125 19:43:48.245259 26345 layer_factory.hpp:76] Creating layer inception_4d/output
I1125 19:43:48.245270 26345 net.cpp:106] Creating Layer inception_4d/output
I1125 19:43:48.245276 26345 net.cpp:454] inception_4d/output <- inception_4d/1x1
I1125 19:43:48.245286 26345 net.cpp:454] inception_4d/output <- inception_4d/3x3
I1125 19:43:48.245295 26345 net.cpp:454] inception_4d/output <- inception_4d/5x5
I1125 19:43:48.245303 26345 net.cpp:454] inception_4d/output <- inception_4d/pool_proj
I1125 19:43:48.245313 26345 net.cpp:411] inception_4d/output -> inception_4d/output
I1125 19:43:48.245358 26345 net.cpp:150] Setting up inception_4d/output
I1125 19:43:48.245369 26345 net.cpp:157] Top shape: 64 528 14 14 (6623232)
I1125 19:43:48.245378 26345 net.cpp:165] Memory required for data: 3085945092
I1125 19:43:48.245384 26345 layer_factory.hpp:76] Creating layer inception_4d/output_inception_4d/output_0_split
I1125 19:43:48.245398 26345 net.cpp:106] Creating Layer inception_4d/output_inception_4d/output_0_split
I1125 19:43:48.245404 26345 net.cpp:454] inception_4d/output_inception_4d/output_0_split <- inception_4d/output
I1125 19:43:48.245415 26345 net.cpp:411] inception_4d/output_inception_4d/output_0_split -> inception_4d/output_inception_4d/output_0_split_0
I1125 19:43:48.245427 26345 net.cpp:411] inception_4d/output_inception_4d/output_0_split -> inception_4d/output_inception_4d/output_0_split_1
I1125 19:43:48.245439 26345 net.cpp:411] inception_4d/output_inception_4d/output_0_split -> inception_4d/output_inception_4d/output_0_split_2
I1125 19:43:48.245450 26345 net.cpp:411] inception_4d/output_inception_4d/output_0_split -> inception_4d/output_inception_4d/output_0_split_3
I1125 19:43:48.245460 26345 net.cpp:411] inception_4d/output_inception_4d/output_0_split -> inception_4d/output_inception_4d/output_0_split_4
I1125 19:43:48.245574 26345 net.cpp:150] Setting up inception_4d/output_inception_4d/output_0_split
I1125 19:43:48.245587 26345 net.cpp:157] Top shape: 64 528 14 14 (6623232)
I1125 19:43:48.245594 26345 net.cpp:157] Top shape: 64 528 14 14 (6623232)
I1125 19:43:48.245605 26345 net.cpp:157] Top shape: 64 528 14 14 (6623232)
I1125 19:43:48.245614 26345 net.cpp:157] Top shape: 64 528 14 14 (6623232)
I1125 19:43:48.245621 26345 net.cpp:157] Top shape: 64 528 14 14 (6623232)
I1125 19:43:48.245628 26345 net.cpp:165] Memory required for data: 3218409732
I1125 19:43:48.245636 26345 layer_factory.hpp:76] Creating layer loss2/ave_pool
I1125 19:43:48.245647 26345 net.cpp:106] Creating Layer loss2/ave_pool
I1125 19:43:48.245656 26345 net.cpp:454] loss2/ave_pool <- inception_4d/output_inception_4d/output_0_split_0
I1125 19:43:48.245669 26345 net.cpp:411] loss2/ave_pool -> loss2/ave_pool
I1125 19:43:48.246021 26345 net.cpp:150] Setting up loss2/ave_pool
I1125 19:43:48.246037 26345 net.cpp:157] Top shape: 64 528 4 4 (540672)
I1125 19:43:48.246042 26345 net.cpp:165] Memory required for data: 3220572420
I1125 19:43:48.246063 26345 layer_factory.hpp:76] Creating layer loss2/conv
I1125 19:43:48.246080 26345 net.cpp:106] Creating Layer loss2/conv
I1125 19:43:48.246088 26345 net.cpp:454] loss2/conv <- loss2/ave_pool
I1125 19:43:48.246103 26345 net.cpp:411] loss2/conv -> loss2/conv
I1125 19:43:48.247952 26345 net.cpp:150] Setting up loss2/conv
I1125 19:43:48.247972 26345 net.cpp:157] Top shape: 64 128 4 4 (131072)
I1125 19:43:48.247977 26345 net.cpp:165] Memory required for data: 3221096708
I1125 19:43:48.247988 26345 layer_factory.hpp:76] Creating layer loss2/relu_conv
I1125 19:43:48.248002 26345 net.cpp:106] Creating Layer loss2/relu_conv
I1125 19:43:48.248009 26345 net.cpp:454] loss2/relu_conv <- loss2/conv
I1125 19:43:48.248019 26345 net.cpp:397] loss2/relu_conv -> loss2/conv (in-place)
I1125 19:43:48.248456 26345 net.cpp:150] Setting up loss2/relu_conv
I1125 19:43:48.248471 26345 net.cpp:157] Top shape: 64 128 4 4 (131072)
I1125 19:43:48.248477 26345 net.cpp:165] Memory required for data: 3221620996
I1125 19:43:48.248486 26345 layer_factory.hpp:76] Creating layer loss2/fc
I1125 19:43:48.248497 26345 net.cpp:106] Creating Layer loss2/fc
I1125 19:43:48.248504 26345 net.cpp:454] loss2/fc <- loss2/conv
I1125 19:43:48.248517 26345 net.cpp:411] loss2/fc -> loss2/fc
I1125 19:43:48.264760 26345 net.cpp:150] Setting up loss2/fc
I1125 19:43:48.264792 26345 net.cpp:157] Top shape: 64 1024 (65536)
I1125 19:43:48.264801 26345 net.cpp:165] Memory required for data: 3221883140
I1125 19:43:48.264816 26345 layer_factory.hpp:76] Creating layer loss2/relu_fc
I1125 19:43:48.264828 26345 net.cpp:106] Creating Layer loss2/relu_fc
I1125 19:43:48.264840 26345 net.cpp:454] loss2/relu_fc <- loss2/fc
I1125 19:43:48.264853 26345 net.cpp:397] loss2/relu_fc -> loss2/fc (in-place)
I1125 19:43:48.265187 26345 net.cpp:150] Setting up loss2/relu_fc
I1125 19:43:48.265207 26345 net.cpp:157] Top shape: 64 1024 (65536)
I1125 19:43:48.265215 26345 net.cpp:165] Memory required for data: 3222145284
I1125 19:43:48.265224 26345 layer_factory.hpp:76] Creating layer loss2/drop_fc
I1125 19:43:48.265240 26345 net.cpp:106] Creating Layer loss2/drop_fc
I1125 19:43:48.265251 26345 net.cpp:454] loss2/drop_fc <- loss2/fc
I1125 19:43:48.265260 26345 net.cpp:397] loss2/drop_fc -> loss2/fc (in-place)
I1125 19:43:48.265311 26345 net.cpp:150] Setting up loss2/drop_fc
I1125 19:43:48.265324 26345 net.cpp:157] Top shape: 64 1024 (65536)
I1125 19:43:48.265332 26345 net.cpp:165] Memory required for data: 3222407428
I1125 19:43:48.265338 26345 layer_factory.hpp:76] Creating layer loss2/classifier-attribute
I1125 19:43:48.265355 26345 net.cpp:106] Creating Layer loss2/classifier-attribute
I1125 19:43:48.265364 26345 net.cpp:454] loss2/classifier-attribute <- loss2/fc
I1125 19:43:48.265375 26345 net.cpp:411] loss2/classifier-attribute -> loss2/classifier-attribute
I1125 19:43:48.265638 26345 net.cpp:150] Setting up loss2/classifier-attribute
I1125 19:43:48.265655 26345 net.cpp:157] Top shape: 64 5 (320)
I1125 19:43:48.265661 26345 net.cpp:165] Memory required for data: 3222408708
I1125 19:43:48.265671 26345 layer_factory.hpp:76] Creating layer loss2/loss
I1125 19:43:48.265686 26345 net.cpp:106] Creating Layer loss2/loss
I1125 19:43:48.265694 26345 net.cpp:454] loss2/loss <- loss2/classifier-attribute
I1125 19:43:48.265703 26345 net.cpp:454] loss2/loss <- label_data_1_split_1
I1125 19:43:48.265713 26345 net.cpp:411] loss2/loss -> loss2/loss1
I1125 19:43:48.265728 26345 layer_factory.hpp:76] Creating layer loss2/loss
I1125 19:43:48.266299 26345 net.cpp:150] Setting up loss2/loss
I1125 19:43:48.266312 26345 net.cpp:157] Top shape: (1)
I1125 19:43:48.266316 26345 net.cpp:160]     with loss weight 0.3
I1125 19:43:48.266326 26345 net.cpp:165] Memory required for data: 3222408712
I1125 19:43:48.266330 26345 layer_factory.hpp:76] Creating layer inception_4e/1x1
I1125 19:43:48.266340 26345 net.cpp:106] Creating Layer inception_4e/1x1
I1125 19:43:48.266347 26345 net.cpp:454] inception_4e/1x1 <- inception_4d/output_inception_4d/output_0_split_1
I1125 19:43:48.266353 26345 net.cpp:411] inception_4e/1x1 -> inception_4e/1x1
I1125 19:43:48.268347 26345 net.cpp:150] Setting up inception_4e/1x1
I1125 19:43:48.268362 26345 net.cpp:157] Top shape: 64 256 14 14 (3211264)
I1125 19:43:48.268367 26345 net.cpp:165] Memory required for data: 3235253768
I1125 19:43:48.268373 26345 layer_factory.hpp:76] Creating layer inception_4e/relu_1x1
I1125 19:43:48.268379 26345 net.cpp:106] Creating Layer inception_4e/relu_1x1
I1125 19:43:48.268383 26345 net.cpp:454] inception_4e/relu_1x1 <- inception_4e/1x1
I1125 19:43:48.268388 26345 net.cpp:397] inception_4e/relu_1x1 -> inception_4e/1x1 (in-place)
I1125 19:43:48.268563 26345 net.cpp:150] Setting up inception_4e/relu_1x1
I1125 19:43:48.268573 26345 net.cpp:157] Top shape: 64 256 14 14 (3211264)
I1125 19:43:48.268576 26345 net.cpp:165] Memory required for data: 3248098824
I1125 19:43:48.268580 26345 layer_factory.hpp:76] Creating layer inception_4e/3x3_reduce
I1125 19:43:48.268589 26345 net.cpp:106] Creating Layer inception_4e/3x3_reduce
I1125 19:43:48.268592 26345 net.cpp:454] inception_4e/3x3_reduce <- inception_4d/output_inception_4d/output_0_split_2
I1125 19:43:48.268599 26345 net.cpp:411] inception_4e/3x3_reduce -> inception_4e/3x3_reduce
I1125 19:43:48.270663 26345 net.cpp:150] Setting up inception_4e/3x3_reduce
I1125 19:43:48.270680 26345 net.cpp:157] Top shape: 64 160 14 14 (2007040)
I1125 19:43:48.270686 26345 net.cpp:165] Memory required for data: 3256126984
I1125 19:43:48.270697 26345 layer_factory.hpp:76] Creating layer inception_4e/relu_3x3_reduce
I1125 19:43:48.270710 26345 net.cpp:106] Creating Layer inception_4e/relu_3x3_reduce
I1125 19:43:48.270715 26345 net.cpp:454] inception_4e/relu_3x3_reduce <- inception_4e/3x3_reduce
I1125 19:43:48.270725 26345 net.cpp:397] inception_4e/relu_3x3_reduce -> inception_4e/3x3_reduce (in-place)
I1125 19:43:48.271056 26345 net.cpp:150] Setting up inception_4e/relu_3x3_reduce
I1125 19:43:48.271070 26345 net.cpp:157] Top shape: 64 160 14 14 (2007040)
I1125 19:43:48.271073 26345 net.cpp:165] Memory required for data: 3264155144
I1125 19:43:48.271080 26345 layer_factory.hpp:76] Creating layer inception_4e/3x3
I1125 19:43:48.271095 26345 net.cpp:106] Creating Layer inception_4e/3x3
I1125 19:43:48.271103 26345 net.cpp:454] inception_4e/3x3 <- inception_4e/3x3_reduce
I1125 19:43:48.271114 26345 net.cpp:411] inception_4e/3x3 -> inception_4e/3x3
I1125 19:43:48.275712 26345 net.cpp:150] Setting up inception_4e/3x3
I1125 19:43:48.275733 26345 net.cpp:157] Top shape: 64 320 14 14 (4014080)
I1125 19:43:48.275738 26345 net.cpp:165] Memory required for data: 3280211464
I1125 19:43:48.275744 26345 layer_factory.hpp:76] Creating layer inception_4e/relu_3x3
I1125 19:43:48.275754 26345 net.cpp:106] Creating Layer inception_4e/relu_3x3
I1125 19:43:48.275763 26345 net.cpp:454] inception_4e/relu_3x3 <- inception_4e/3x3
I1125 19:43:48.275769 26345 net.cpp:397] inception_4e/relu_3x3 -> inception_4e/3x3 (in-place)
I1125 19:43:48.276083 26345 net.cpp:150] Setting up inception_4e/relu_3x3
I1125 19:43:48.276096 26345 net.cpp:157] Top shape: 64 320 14 14 (4014080)
I1125 19:43:48.276100 26345 net.cpp:165] Memory required for data: 3296267784
I1125 19:43:48.276103 26345 layer_factory.hpp:76] Creating layer inception_4e/5x5_reduce
I1125 19:43:48.276115 26345 net.cpp:106] Creating Layer inception_4e/5x5_reduce
I1125 19:43:48.276121 26345 net.cpp:454] inception_4e/5x5_reduce <- inception_4d/output_inception_4d/output_0_split_3
I1125 19:43:48.276129 26345 net.cpp:411] inception_4e/5x5_reduce -> inception_4e/5x5_reduce
I1125 19:43:48.277330 26345 net.cpp:150] Setting up inception_4e/5x5_reduce
I1125 19:43:48.277348 26345 net.cpp:157] Top shape: 64 32 14 14 (401408)
I1125 19:43:48.277354 26345 net.cpp:165] Memory required for data: 3297873416
I1125 19:43:48.277364 26345 layer_factory.hpp:76] Creating layer inception_4e/relu_5x5_reduce
I1125 19:43:48.277390 26345 net.cpp:106] Creating Layer inception_4e/relu_5x5_reduce
I1125 19:43:48.277400 26345 net.cpp:454] inception_4e/relu_5x5_reduce <- inception_4e/5x5_reduce
I1125 19:43:48.277405 26345 net.cpp:397] inception_4e/relu_5x5_reduce -> inception_4e/5x5_reduce (in-place)
I1125 19:43:48.277597 26345 net.cpp:150] Setting up inception_4e/relu_5x5_reduce
I1125 19:43:48.277611 26345 net.cpp:157] Top shape: 64 32 14 14 (401408)
I1125 19:43:48.277616 26345 net.cpp:165] Memory required for data: 3299479048
I1125 19:43:48.277622 26345 layer_factory.hpp:76] Creating layer inception_4e/5x5
I1125 19:43:48.277657 26345 net.cpp:106] Creating Layer inception_4e/5x5
I1125 19:43:48.277667 26345 net.cpp:454] inception_4e/5x5 <- inception_4e/5x5_reduce
I1125 19:43:48.277678 26345 net.cpp:411] inception_4e/5x5 -> inception_4e/5x5
I1125 19:43:48.279501 26345 net.cpp:150] Setting up inception_4e/5x5
I1125 19:43:48.279517 26345 net.cpp:157] Top shape: 64 128 14 14 (1605632)
I1125 19:43:48.279521 26345 net.cpp:165] Memory required for data: 3305901576
I1125 19:43:48.279531 26345 layer_factory.hpp:76] Creating layer inception_4e/relu_5x5
I1125 19:43:48.279537 26345 net.cpp:106] Creating Layer inception_4e/relu_5x5
I1125 19:43:48.279541 26345 net.cpp:454] inception_4e/relu_5x5 <- inception_4e/5x5
I1125 19:43:48.279548 26345 net.cpp:397] inception_4e/relu_5x5 -> inception_4e/5x5 (in-place)
I1125 19:43:48.279866 26345 net.cpp:150] Setting up inception_4e/relu_5x5
I1125 19:43:48.279880 26345 net.cpp:157] Top shape: 64 128 14 14 (1605632)
I1125 19:43:48.279883 26345 net.cpp:165] Memory required for data: 3312324104
I1125 19:43:48.279887 26345 layer_factory.hpp:76] Creating layer inception_4e/pool
I1125 19:43:48.279893 26345 net.cpp:106] Creating Layer inception_4e/pool
I1125 19:43:48.279898 26345 net.cpp:454] inception_4e/pool <- inception_4d/output_inception_4d/output_0_split_4
I1125 19:43:48.279907 26345 net.cpp:411] inception_4e/pool -> inception_4e/pool
I1125 19:43:48.280122 26345 net.cpp:150] Setting up inception_4e/pool
I1125 19:43:48.280133 26345 net.cpp:157] Top shape: 64 528 14 14 (6623232)
I1125 19:43:48.280136 26345 net.cpp:165] Memory required for data: 3338817032
I1125 19:43:48.280140 26345 layer_factory.hpp:76] Creating layer inception_4e/pool_proj
I1125 19:43:48.280148 26345 net.cpp:106] Creating Layer inception_4e/pool_proj
I1125 19:43:48.280153 26345 net.cpp:454] inception_4e/pool_proj <- inception_4e/pool
I1125 19:43:48.280159 26345 net.cpp:411] inception_4e/pool_proj -> inception_4e/pool_proj
I1125 19:43:48.281674 26345 net.cpp:150] Setting up inception_4e/pool_proj
I1125 19:43:48.281687 26345 net.cpp:157] Top shape: 64 128 14 14 (1605632)
I1125 19:43:48.281692 26345 net.cpp:165] Memory required for data: 3345239560
I1125 19:43:48.281697 26345 layer_factory.hpp:76] Creating layer inception_4e/relu_pool_proj
I1125 19:43:48.281704 26345 net.cpp:106] Creating Layer inception_4e/relu_pool_proj
I1125 19:43:48.281709 26345 net.cpp:454] inception_4e/relu_pool_proj <- inception_4e/pool_proj
I1125 19:43:48.281714 26345 net.cpp:397] inception_4e/relu_pool_proj -> inception_4e/pool_proj (in-place)
I1125 19:43:48.282027 26345 net.cpp:150] Setting up inception_4e/relu_pool_proj
I1125 19:43:48.282039 26345 net.cpp:157] Top shape: 64 128 14 14 (1605632)
I1125 19:43:48.282043 26345 net.cpp:165] Memory required for data: 3351662088
I1125 19:43:48.282047 26345 layer_factory.hpp:76] Creating layer inception_4e/output
I1125 19:43:48.282054 26345 net.cpp:106] Creating Layer inception_4e/output
I1125 19:43:48.282058 26345 net.cpp:454] inception_4e/output <- inception_4e/1x1
I1125 19:43:48.282063 26345 net.cpp:454] inception_4e/output <- inception_4e/3x3
I1125 19:43:48.282066 26345 net.cpp:454] inception_4e/output <- inception_4e/5x5
I1125 19:43:48.282070 26345 net.cpp:454] inception_4e/output <- inception_4e/pool_proj
I1125 19:43:48.282075 26345 net.cpp:411] inception_4e/output -> inception_4e/output
I1125 19:43:48.282114 26345 net.cpp:150] Setting up inception_4e/output
I1125 19:43:48.282122 26345 net.cpp:157] Top shape: 64 832 14 14 (10436608)
I1125 19:43:48.282125 26345 net.cpp:165] Memory required for data: 3393408520
I1125 19:43:48.282129 26345 layer_factory.hpp:76] Creating layer pool4/3x3_s2
I1125 19:43:48.282135 26345 net.cpp:106] Creating Layer pool4/3x3_s2
I1125 19:43:48.282137 26345 net.cpp:454] pool4/3x3_s2 <- inception_4e/output
I1125 19:43:48.282145 26345 net.cpp:411] pool4/3x3_s2 -> pool4/3x3_s2
I1125 19:43:48.282357 26345 net.cpp:150] Setting up pool4/3x3_s2
I1125 19:43:48.282367 26345 net.cpp:157] Top shape: 64 832 7 7 (2609152)
I1125 19:43:48.282371 26345 net.cpp:165] Memory required for data: 3403845128
I1125 19:43:48.282374 26345 layer_factory.hpp:76] Creating layer pool4/3x3_s2_pool4/3x3_s2_0_split
I1125 19:43:48.282382 26345 net.cpp:106] Creating Layer pool4/3x3_s2_pool4/3x3_s2_0_split
I1125 19:43:48.282385 26345 net.cpp:454] pool4/3x3_s2_pool4/3x3_s2_0_split <- pool4/3x3_s2
I1125 19:43:48.282390 26345 net.cpp:411] pool4/3x3_s2_pool4/3x3_s2_0_split -> pool4/3x3_s2_pool4/3x3_s2_0_split_0
I1125 19:43:48.282397 26345 net.cpp:411] pool4/3x3_s2_pool4/3x3_s2_0_split -> pool4/3x3_s2_pool4/3x3_s2_0_split_1
I1125 19:43:48.282403 26345 net.cpp:411] pool4/3x3_s2_pool4/3x3_s2_0_split -> pool4/3x3_s2_pool4/3x3_s2_0_split_2
I1125 19:43:48.282409 26345 net.cpp:411] pool4/3x3_s2_pool4/3x3_s2_0_split -> pool4/3x3_s2_pool4/3x3_s2_0_split_3
I1125 19:43:48.282480 26345 net.cpp:150] Setting up pool4/3x3_s2_pool4/3x3_s2_0_split
I1125 19:43:48.282486 26345 net.cpp:157] Top shape: 64 832 7 7 (2609152)
I1125 19:43:48.282490 26345 net.cpp:157] Top shape: 64 832 7 7 (2609152)
I1125 19:43:48.282495 26345 net.cpp:157] Top shape: 64 832 7 7 (2609152)
I1125 19:43:48.282497 26345 net.cpp:157] Top shape: 64 832 7 7 (2609152)
I1125 19:43:48.282500 26345 net.cpp:165] Memory required for data: 3445591560
I1125 19:43:48.282503 26345 layer_factory.hpp:76] Creating layer inception_5a/1x1
I1125 19:43:48.282511 26345 net.cpp:106] Creating Layer inception_5a/1x1
I1125 19:43:48.282515 26345 net.cpp:454] inception_5a/1x1 <- pool4/3x3_s2_pool4/3x3_s2_0_split_0
I1125 19:43:48.282521 26345 net.cpp:411] inception_5a/1x1 -> inception_5a/1x1
I1125 19:43:48.285446 26345 net.cpp:150] Setting up inception_5a/1x1
I1125 19:43:48.285464 26345 net.cpp:157] Top shape: 64 256 7 7 (802816)
I1125 19:43:48.285467 26345 net.cpp:165] Memory required for data: 3448802824
I1125 19:43:48.285473 26345 layer_factory.hpp:76] Creating layer inception_5a/relu_1x1
I1125 19:43:48.285481 26345 net.cpp:106] Creating Layer inception_5a/relu_1x1
I1125 19:43:48.285485 26345 net.cpp:454] inception_5a/relu_1x1 <- inception_5a/1x1
I1125 19:43:48.285490 26345 net.cpp:397] inception_5a/relu_1x1 -> inception_5a/1x1 (in-place)
I1125 19:43:48.285802 26345 net.cpp:150] Setting up inception_5a/relu_1x1
I1125 19:43:48.285817 26345 net.cpp:157] Top shape: 64 256 7 7 (802816)
I1125 19:43:48.285820 26345 net.cpp:165] Memory required for data: 3452014088
I1125 19:43:48.285825 26345 layer_factory.hpp:76] Creating layer inception_5a/3x3_reduce
I1125 19:43:48.285833 26345 net.cpp:106] Creating Layer inception_5a/3x3_reduce
I1125 19:43:48.285837 26345 net.cpp:454] inception_5a/3x3_reduce <- pool4/3x3_s2_pool4/3x3_s2_0_split_1
I1125 19:43:48.285845 26345 net.cpp:411] inception_5a/3x3_reduce -> inception_5a/3x3_reduce
I1125 19:43:48.288458 26345 net.cpp:150] Setting up inception_5a/3x3_reduce
I1125 19:43:48.288477 26345 net.cpp:157] Top shape: 64 160 7 7 (501760)
I1125 19:43:48.288485 26345 net.cpp:165] Memory required for data: 3454021128
I1125 19:43:48.288494 26345 layer_factory.hpp:76] Creating layer inception_5a/relu_3x3_reduce
I1125 19:43:48.288507 26345 net.cpp:106] Creating Layer inception_5a/relu_3x3_reduce
I1125 19:43:48.288514 26345 net.cpp:454] inception_5a/relu_3x3_reduce <- inception_5a/3x3_reduce
I1125 19:43:48.288524 26345 net.cpp:397] inception_5a/relu_3x3_reduce -> inception_5a/3x3_reduce (in-place)
I1125 19:43:48.288975 26345 net.cpp:150] Setting up inception_5a/relu_3x3_reduce
I1125 19:43:48.289014 26345 net.cpp:157] Top shape: 64 160 7 7 (501760)
I1125 19:43:48.289026 26345 net.cpp:165] Memory required for data: 3456028168
I1125 19:43:48.289032 26345 layer_factory.hpp:76] Creating layer inception_5a/3x3
I1125 19:43:48.289048 26345 net.cpp:106] Creating Layer inception_5a/3x3
I1125 19:43:48.289057 26345 net.cpp:454] inception_5a/3x3 <- inception_5a/3x3_reduce
I1125 19:43:48.289067 26345 net.cpp:411] inception_5a/3x3 -> inception_5a/3x3
I1125 19:43:48.295179 26345 net.cpp:150] Setting up inception_5a/3x3
I1125 19:43:48.295204 26345 net.cpp:157] Top shape: 64 320 7 7 (1003520)
I1125 19:43:48.295210 26345 net.cpp:165] Memory required for data: 3460042248
I1125 19:43:48.295222 26345 layer_factory.hpp:76] Creating layer inception_5a/relu_3x3
I1125 19:43:48.295234 26345 net.cpp:106] Creating Layer inception_5a/relu_3x3
I1125 19:43:48.295269 26345 net.cpp:454] inception_5a/relu_3x3 <- inception_5a/3x3
I1125 19:43:48.295301 26345 net.cpp:397] inception_5a/relu_3x3 -> inception_5a/3x3 (in-place)
I1125 19:43:48.295542 26345 net.cpp:150] Setting up inception_5a/relu_3x3
I1125 19:43:48.295555 26345 net.cpp:157] Top shape: 64 320 7 7 (1003520)
I1125 19:43:48.295558 26345 net.cpp:165] Memory required for data: 3464056328
I1125 19:43:48.295562 26345 layer_factory.hpp:76] Creating layer inception_5a/5x5_reduce
I1125 19:43:48.295572 26345 net.cpp:106] Creating Layer inception_5a/5x5_reduce
I1125 19:43:48.295580 26345 net.cpp:454] inception_5a/5x5_reduce <- pool4/3x3_s2_pool4/3x3_s2_0_split_2
I1125 19:43:48.295593 26345 net.cpp:411] inception_5a/5x5_reduce -> inception_5a/5x5_reduce
I1125 19:43:48.297214 26345 net.cpp:150] Setting up inception_5a/5x5_reduce
I1125 19:43:48.297230 26345 net.cpp:157] Top shape: 64 32 7 7 (100352)
I1125 19:43:48.297237 26345 net.cpp:165] Memory required for data: 3464457736
I1125 19:43:48.297247 26345 layer_factory.hpp:76] Creating layer inception_5a/relu_5x5_reduce
I1125 19:43:48.297262 26345 net.cpp:106] Creating Layer inception_5a/relu_5x5_reduce
I1125 19:43:48.297271 26345 net.cpp:454] inception_5a/relu_5x5_reduce <- inception_5a/5x5_reduce
I1125 19:43:48.297281 26345 net.cpp:397] inception_5a/relu_5x5_reduce -> inception_5a/5x5_reduce (in-place)
I1125 19:43:48.297510 26345 net.cpp:150] Setting up inception_5a/relu_5x5_reduce
I1125 19:43:48.297526 26345 net.cpp:157] Top shape: 64 32 7 7 (100352)
I1125 19:43:48.297534 26345 net.cpp:165] Memory required for data: 3464859144
I1125 19:43:48.297540 26345 layer_factory.hpp:76] Creating layer inception_5a/5x5
I1125 19:43:48.297555 26345 net.cpp:106] Creating Layer inception_5a/5x5
I1125 19:43:48.297564 26345 net.cpp:454] inception_5a/5x5 <- inception_5a/5x5_reduce
I1125 19:43:48.297570 26345 net.cpp:411] inception_5a/5x5 -> inception_5a/5x5
I1125 19:43:48.299690 26345 net.cpp:150] Setting up inception_5a/5x5
I1125 19:43:48.299710 26345 net.cpp:157] Top shape: 64 128 7 7 (401408)
I1125 19:43:48.299716 26345 net.cpp:165] Memory required for data: 3466464776
I1125 19:43:48.299727 26345 layer_factory.hpp:76] Creating layer inception_5a/relu_5x5
I1125 19:43:48.299738 26345 net.cpp:106] Creating Layer inception_5a/relu_5x5
I1125 19:43:48.299748 26345 net.cpp:454] inception_5a/relu_5x5 <- inception_5a/5x5
I1125 19:43:48.299759 26345 net.cpp:397] inception_5a/relu_5x5 -> inception_5a/5x5 (in-place)
I1125 19:43:48.300138 26345 net.cpp:150] Setting up inception_5a/relu_5x5
I1125 19:43:48.300153 26345 net.cpp:157] Top shape: 64 128 7 7 (401408)
I1125 19:43:48.300155 26345 net.cpp:165] Memory required for data: 3468070408
I1125 19:43:48.300159 26345 layer_factory.hpp:76] Creating layer inception_5a/pool
I1125 19:43:48.300168 26345 net.cpp:106] Creating Layer inception_5a/pool
I1125 19:43:48.300175 26345 net.cpp:454] inception_5a/pool <- pool4/3x3_s2_pool4/3x3_s2_0_split_3
I1125 19:43:48.300184 26345 net.cpp:411] inception_5a/pool -> inception_5a/pool
I1125 19:43:48.300485 26345 net.cpp:150] Setting up inception_5a/pool
I1125 19:43:48.300500 26345 net.cpp:157] Top shape: 64 832 7 7 (2609152)
I1125 19:43:48.300503 26345 net.cpp:165] Memory required for data: 3478507016
I1125 19:43:48.300508 26345 layer_factory.hpp:76] Creating layer inception_5a/pool_proj
I1125 19:43:48.300516 26345 net.cpp:106] Creating Layer inception_5a/pool_proj
I1125 19:43:48.300520 26345 net.cpp:454] inception_5a/pool_proj <- inception_5a/pool
I1125 19:43:48.300528 26345 net.cpp:411] inception_5a/pool_proj -> inception_5a/pool_proj
I1125 19:43:48.303119 26345 net.cpp:150] Setting up inception_5a/pool_proj
I1125 19:43:48.303134 26345 net.cpp:157] Top shape: 64 128 7 7 (401408)
I1125 19:43:48.303138 26345 net.cpp:165] Memory required for data: 3480112648
I1125 19:43:48.303145 26345 layer_factory.hpp:76] Creating layer inception_5a/relu_pool_proj
I1125 19:43:48.303153 26345 net.cpp:106] Creating Layer inception_5a/relu_pool_proj
I1125 19:43:48.303158 26345 net.cpp:454] inception_5a/relu_pool_proj <- inception_5a/pool_proj
I1125 19:43:48.303164 26345 net.cpp:397] inception_5a/relu_pool_proj -> inception_5a/pool_proj (in-place)
I1125 19:43:48.303526 26345 net.cpp:150] Setting up inception_5a/relu_pool_proj
I1125 19:43:48.303541 26345 net.cpp:157] Top shape: 64 128 7 7 (401408)
I1125 19:43:48.303544 26345 net.cpp:165] Memory required for data: 3481718280
I1125 19:43:48.303549 26345 layer_factory.hpp:76] Creating layer inception_5a/output
I1125 19:43:48.303558 26345 net.cpp:106] Creating Layer inception_5a/output
I1125 19:43:48.303565 26345 net.cpp:454] inception_5a/output <- inception_5a/1x1
I1125 19:43:48.303573 26345 net.cpp:454] inception_5a/output <- inception_5a/3x3
I1125 19:43:48.303582 26345 net.cpp:454] inception_5a/output <- inception_5a/5x5
I1125 19:43:48.303591 26345 net.cpp:454] inception_5a/output <- inception_5a/pool_proj
I1125 19:43:48.303604 26345 net.cpp:411] inception_5a/output -> inception_5a/output
I1125 19:43:48.303649 26345 net.cpp:150] Setting up inception_5a/output
I1125 19:43:48.303660 26345 net.cpp:157] Top shape: 64 832 7 7 (2609152)
I1125 19:43:48.303668 26345 net.cpp:165] Memory required for data: 3492154888
I1125 19:43:48.303671 26345 layer_factory.hpp:76] Creating layer inception_5a/output_inception_5a/output_0_split
I1125 19:43:48.303681 26345 net.cpp:106] Creating Layer inception_5a/output_inception_5a/output_0_split
I1125 19:43:48.303686 26345 net.cpp:454] inception_5a/output_inception_5a/output_0_split <- inception_5a/output
I1125 19:43:48.303694 26345 net.cpp:411] inception_5a/output_inception_5a/output_0_split -> inception_5a/output_inception_5a/output_0_split_0
I1125 19:43:48.303704 26345 net.cpp:411] inception_5a/output_inception_5a/output_0_split -> inception_5a/output_inception_5a/output_0_split_1
I1125 19:43:48.303717 26345 net.cpp:411] inception_5a/output_inception_5a/output_0_split -> inception_5a/output_inception_5a/output_0_split_2
I1125 19:43:48.303731 26345 net.cpp:411] inception_5a/output_inception_5a/output_0_split -> inception_5a/output_inception_5a/output_0_split_3
I1125 19:43:48.303872 26345 net.cpp:150] Setting up inception_5a/output_inception_5a/output_0_split
I1125 19:43:48.303886 26345 net.cpp:157] Top shape: 64 832 7 7 (2609152)
I1125 19:43:48.303892 26345 net.cpp:157] Top shape: 64 832 7 7 (2609152)
I1125 19:43:48.303897 26345 net.cpp:157] Top shape: 64 832 7 7 (2609152)
I1125 19:43:48.303902 26345 net.cpp:157] Top shape: 64 832 7 7 (2609152)
I1125 19:43:48.303910 26345 net.cpp:165] Memory required for data: 3533901320
I1125 19:43:48.303916 26345 layer_factory.hpp:76] Creating layer inception_5b/1x1
I1125 19:43:48.303931 26345 net.cpp:106] Creating Layer inception_5b/1x1
I1125 19:43:48.303938 26345 net.cpp:454] inception_5b/1x1 <- inception_5a/output_inception_5a/output_0_split_0
I1125 19:43:48.303948 26345 net.cpp:411] inception_5b/1x1 -> inception_5b/1x1
I1125 19:43:48.307956 26345 net.cpp:150] Setting up inception_5b/1x1
I1125 19:43:48.307971 26345 net.cpp:157] Top shape: 64 384 7 7 (1204224)
I1125 19:43:48.307976 26345 net.cpp:165] Memory required for data: 3538718216
I1125 19:43:48.307982 26345 layer_factory.hpp:76] Creating layer inception_5b/relu_1x1
I1125 19:43:48.307989 26345 net.cpp:106] Creating Layer inception_5b/relu_1x1
I1125 19:43:48.307994 26345 net.cpp:454] inception_5b/relu_1x1 <- inception_5b/1x1
I1125 19:43:48.308001 26345 net.cpp:397] inception_5b/relu_1x1 -> inception_5b/1x1 (in-place)
I1125 19:43:48.308318 26345 net.cpp:150] Setting up inception_5b/relu_1x1
I1125 19:43:48.308331 26345 net.cpp:157] Top shape: 64 384 7 7 (1204224)
I1125 19:43:48.308336 26345 net.cpp:165] Memory required for data: 3543535112
I1125 19:43:48.308342 26345 layer_factory.hpp:76] Creating layer inception_5b/3x3_reduce
I1125 19:43:48.308351 26345 net.cpp:106] Creating Layer inception_5b/3x3_reduce
I1125 19:43:48.308354 26345 net.cpp:454] inception_5b/3x3_reduce <- inception_5a/output_inception_5a/output_0_split_1
I1125 19:43:48.308361 26345 net.cpp:411] inception_5b/3x3_reduce -> inception_5b/3x3_reduce
I1125 19:43:48.310926 26345 net.cpp:150] Setting up inception_5b/3x3_reduce
I1125 19:43:48.310940 26345 net.cpp:157] Top shape: 64 192 7 7 (602112)
I1125 19:43:48.310945 26345 net.cpp:165] Memory required for data: 3545943560
I1125 19:43:48.310950 26345 layer_factory.hpp:76] Creating layer inception_5b/relu_3x3_reduce
I1125 19:43:48.310956 26345 net.cpp:106] Creating Layer inception_5b/relu_3x3_reduce
I1125 19:43:48.310961 26345 net.cpp:454] inception_5b/relu_3x3_reduce <- inception_5b/3x3_reduce
I1125 19:43:48.310967 26345 net.cpp:397] inception_5b/relu_3x3_reduce -> inception_5b/3x3_reduce (in-place)
I1125 19:43:48.311147 26345 net.cpp:150] Setting up inception_5b/relu_3x3_reduce
I1125 19:43:48.311158 26345 net.cpp:157] Top shape: 64 192 7 7 (602112)
I1125 19:43:48.311162 26345 net.cpp:165] Memory required for data: 3548352008
I1125 19:43:48.311166 26345 layer_factory.hpp:76] Creating layer inception_5b/3x3
I1125 19:43:48.311173 26345 net.cpp:106] Creating Layer inception_5b/3x3
I1125 19:43:48.311177 26345 net.cpp:454] inception_5b/3x3 <- inception_5b/3x3_reduce
I1125 19:43:48.311184 26345 net.cpp:411] inception_5b/3x3 -> inception_5b/3x3
I1125 19:43:48.317476 26345 net.cpp:150] Setting up inception_5b/3x3
I1125 19:43:48.317493 26345 net.cpp:157] Top shape: 64 384 7 7 (1204224)
I1125 19:43:48.317497 26345 net.cpp:165] Memory required for data: 3553168904
I1125 19:43:48.317504 26345 layer_factory.hpp:76] Creating layer inception_5b/relu_3x3
I1125 19:43:48.317510 26345 net.cpp:106] Creating Layer inception_5b/relu_3x3
I1125 19:43:48.317515 26345 net.cpp:454] inception_5b/relu_3x3 <- inception_5b/3x3
I1125 19:43:48.317520 26345 net.cpp:397] inception_5b/relu_3x3 -> inception_5b/3x3 (in-place)
I1125 19:43:48.317855 26345 net.cpp:150] Setting up inception_5b/relu_3x3
I1125 19:43:48.317868 26345 net.cpp:157] Top shape: 64 384 7 7 (1204224)
I1125 19:43:48.317872 26345 net.cpp:165] Memory required for data: 3557985800
I1125 19:43:48.317875 26345 layer_factory.hpp:76] Creating layer inception_5b/5x5_reduce
I1125 19:43:48.317884 26345 net.cpp:106] Creating Layer inception_5b/5x5_reduce
I1125 19:43:48.317889 26345 net.cpp:454] inception_5b/5x5_reduce <- inception_5a/output_inception_5a/output_0_split_2
I1125 19:43:48.317896 26345 net.cpp:411] inception_5b/5x5_reduce -> inception_5b/5x5_reduce
I1125 19:43:48.319618 26345 net.cpp:150] Setting up inception_5b/5x5_reduce
I1125 19:43:48.319633 26345 net.cpp:157] Top shape: 64 48 7 7 (150528)
I1125 19:43:48.319636 26345 net.cpp:165] Memory required for data: 3558587912
I1125 19:43:48.319643 26345 layer_factory.hpp:76] Creating layer inception_5b/relu_5x5_reduce
I1125 19:43:48.319648 26345 net.cpp:106] Creating Layer inception_5b/relu_5x5_reduce
I1125 19:43:48.319653 26345 net.cpp:454] inception_5b/relu_5x5_reduce <- inception_5b/5x5_reduce
I1125 19:43:48.319659 26345 net.cpp:397] inception_5b/relu_5x5_reduce -> inception_5b/5x5_reduce (in-place)
I1125 19:43:48.320010 26345 net.cpp:150] Setting up inception_5b/relu_5x5_reduce
I1125 19:43:48.320024 26345 net.cpp:157] Top shape: 64 48 7 7 (150528)
I1125 19:43:48.320026 26345 net.cpp:165] Memory required for data: 3559190024
I1125 19:43:48.320030 26345 layer_factory.hpp:76] Creating layer inception_5b/5x5
I1125 19:43:48.320040 26345 net.cpp:106] Creating Layer inception_5b/5x5
I1125 19:43:48.320044 26345 net.cpp:454] inception_5b/5x5 <- inception_5b/5x5_reduce
I1125 19:43:48.320050 26345 net.cpp:411] inception_5b/5x5 -> inception_5b/5x5
I1125 19:43:48.322157 26345 net.cpp:150] Setting up inception_5b/5x5
I1125 19:43:48.322171 26345 net.cpp:157] Top shape: 64 128 7 7 (401408)
I1125 19:43:48.322175 26345 net.cpp:165] Memory required for data: 3560795656
I1125 19:43:48.322181 26345 layer_factory.hpp:76] Creating layer inception_5b/relu_5x5
I1125 19:43:48.322187 26345 net.cpp:106] Creating Layer inception_5b/relu_5x5
I1125 19:43:48.322191 26345 net.cpp:454] inception_5b/relu_5x5 <- inception_5b/5x5
I1125 19:43:48.322196 26345 net.cpp:397] inception_5b/relu_5x5 -> inception_5b/5x5 (in-place)
I1125 19:43:48.322379 26345 net.cpp:150] Setting up inception_5b/relu_5x5
I1125 19:43:48.322389 26345 net.cpp:157] Top shape: 64 128 7 7 (401408)
I1125 19:43:48.322392 26345 net.cpp:165] Memory required for data: 3562401288
I1125 19:43:48.322396 26345 layer_factory.hpp:76] Creating layer inception_5b/pool
I1125 19:43:48.322403 26345 net.cpp:106] Creating Layer inception_5b/pool
I1125 19:43:48.322407 26345 net.cpp:454] inception_5b/pool <- inception_5a/output_inception_5a/output_0_split_3
I1125 19:43:48.322412 26345 net.cpp:411] inception_5b/pool -> inception_5b/pool
I1125 19:43:48.322778 26345 net.cpp:150] Setting up inception_5b/pool
I1125 19:43:48.322793 26345 net.cpp:157] Top shape: 64 832 7 7 (2609152)
I1125 19:43:48.322798 26345 net.cpp:165] Memory required for data: 3572837896
I1125 19:43:48.322800 26345 layer_factory.hpp:76] Creating layer inception_5b/pool_proj
I1125 19:43:48.322808 26345 net.cpp:106] Creating Layer inception_5b/pool_proj
I1125 19:43:48.322813 26345 net.cpp:454] inception_5b/pool_proj <- inception_5b/pool
I1125 19:43:48.322819 26345 net.cpp:411] inception_5b/pool_proj -> inception_5b/pool_proj
I1125 19:43:48.325112 26345 net.cpp:150] Setting up inception_5b/pool_proj
I1125 19:43:48.325127 26345 net.cpp:157] Top shape: 64 128 7 7 (401408)
I1125 19:43:48.325131 26345 net.cpp:165] Memory required for data: 3574443528
I1125 19:43:48.325137 26345 layer_factory.hpp:76] Creating layer inception_5b/relu_pool_proj
I1125 19:43:48.325145 26345 net.cpp:106] Creating Layer inception_5b/relu_pool_proj
I1125 19:43:48.325150 26345 net.cpp:454] inception_5b/relu_pool_proj <- inception_5b/pool_proj
I1125 19:43:48.325155 26345 net.cpp:397] inception_5b/relu_pool_proj -> inception_5b/pool_proj (in-place)
I1125 19:43:48.325345 26345 net.cpp:150] Setting up inception_5b/relu_pool_proj
I1125 19:43:48.325355 26345 net.cpp:157] Top shape: 64 128 7 7 (401408)
I1125 19:43:48.325357 26345 net.cpp:165] Memory required for data: 3576049160
I1125 19:43:48.325361 26345 layer_factory.hpp:76] Creating layer inception_5b/output
I1125 19:43:48.325368 26345 net.cpp:106] Creating Layer inception_5b/output
I1125 19:43:48.325372 26345 net.cpp:454] inception_5b/output <- inception_5b/1x1
I1125 19:43:48.325376 26345 net.cpp:454] inception_5b/output <- inception_5b/3x3
I1125 19:43:48.325381 26345 net.cpp:454] inception_5b/output <- inception_5b/5x5
I1125 19:43:48.325384 26345 net.cpp:454] inception_5b/output <- inception_5b/pool_proj
I1125 19:43:48.325388 26345 net.cpp:411] inception_5b/output -> inception_5b/output
I1125 19:43:48.325428 26345 net.cpp:150] Setting up inception_5b/output
I1125 19:43:48.325436 26345 net.cpp:157] Top shape: 64 1024 7 7 (3211264)
I1125 19:43:48.325439 26345 net.cpp:165] Memory required for data: 3588894216
I1125 19:43:48.325443 26345 layer_factory.hpp:76] Creating layer pool5/7x7_s1
I1125 19:43:48.325449 26345 net.cpp:106] Creating Layer pool5/7x7_s1
I1125 19:43:48.325453 26345 net.cpp:454] pool5/7x7_s1 <- inception_5b/output
I1125 19:43:48.325459 26345 net.cpp:411] pool5/7x7_s1 -> pool5/7x7_s1
I1125 19:43:48.325800 26345 net.cpp:150] Setting up pool5/7x7_s1
I1125 19:43:48.325814 26345 net.cpp:157] Top shape: 64 1024 1 1 (65536)
I1125 19:43:48.325817 26345 net.cpp:165] Memory required for data: 3589156360
I1125 19:43:48.325821 26345 layer_factory.hpp:76] Creating layer pool5/drop_7x7_s1
I1125 19:43:48.325829 26345 net.cpp:106] Creating Layer pool5/drop_7x7_s1
I1125 19:43:48.325832 26345 net.cpp:454] pool5/drop_7x7_s1 <- pool5/7x7_s1
I1125 19:43:48.325836 26345 net.cpp:397] pool5/drop_7x7_s1 -> pool5/7x7_s1 (in-place)
I1125 19:43:48.325873 26345 net.cpp:150] Setting up pool5/drop_7x7_s1
I1125 19:43:48.325881 26345 net.cpp:157] Top shape: 64 1024 1 1 (65536)
I1125 19:43:48.325884 26345 net.cpp:165] Memory required for data: 3589418504
I1125 19:43:48.325887 26345 layer_factory.hpp:76] Creating layer loss3/classifier-attribute
I1125 19:43:48.325896 26345 net.cpp:106] Creating Layer loss3/classifier-attribute
I1125 19:43:48.325898 26345 net.cpp:454] loss3/classifier-attribute <- pool5/7x7_s1
I1125 19:43:48.325904 26345 net.cpp:411] loss3/classifier-attribute -> loss3/classifier-attribute
I1125 19:43:48.326084 26345 net.cpp:150] Setting up loss3/classifier-attribute
I1125 19:43:48.326093 26345 net.cpp:157] Top shape: 64 5 (320)
I1125 19:43:48.326097 26345 net.cpp:165] Memory required for data: 3589419784
I1125 19:43:48.326102 26345 layer_factory.hpp:76] Creating layer loss3/loss3
I1125 19:43:48.326108 26345 net.cpp:106] Creating Layer loss3/loss3
I1125 19:43:48.326112 26345 net.cpp:454] loss3/loss3 <- loss3/classifier-attribute
I1125 19:43:48.326117 26345 net.cpp:454] loss3/loss3 <- label_data_1_split_2
I1125 19:43:48.326123 26345 net.cpp:411] loss3/loss3 -> loss3/loss3
…
I1125 19:43:48.331233 26345 net.cpp:322] The NetState phase (1) differed from the phase (0) specified by a rule in layer data
I1125 19:43:48.332172 26345 net.cpp:49] Initializing net from parameters: 
name: "GoogleNet-finetune-for-cigit"
state {
  phase: TEST
}
layer {
  name: "data"
  type: "ImageData"
  top: "data"
  top: "label"
  include {
    phase: TEST
  }
  transform_param {
    mirror: false
    crop_size: 224
    mean_value: 104
    mean_value: 117
    mean_value: 123
  }
  image_data_param {
    source: "pad_test.txt"
    batch_size: 64
    new_height: 256
    new_width: 256
  }
}
layer {
  name: "conv1/7x7_s2"
  type: "Convolution"
  bottom: "data"
  top: "conv1/7x7_s2"
  param {
    lr_mult: 1
    decay_mult: 1
  }
  param {
    lr_mult: 2
    decay_mult: 0
  }
  convolution_param {
    num_output: 64
    pad: 3
    kernel_size: 7
    stride: 2
    weight_filler {
      type: "xavier"
    }
    bias_filler {
      type: "constant"
      value: 0.2
    }
  }
}
layer {
  name: "conv1/relu_7x7"
  type: "ReLU"
  bottom: "conv1/7x7_s2"
  top: "conv1/7x7_s2"
}
layer {
  name: "pool1/3x3_s2"
  type: "Pooling"
  bottom: "conv1/7x7_s2"
  top: "pool1/3x3_s2"
  pooling_param {
    pool: MAX
    kernel_size: 3
    stride: 2
  }
}
layer {
  name: "pool1/norm1"
  type: "LRN"
  bottom: "pool1/3x3_s2"
  top: "pool1/norm1"
  lrn_param {
    local_size: 5
    alpha: 0.0001
    beta: 0.75
  }
}
layer {
  name: "conv2/3x3_reduce"
  type: "Convolution"
  bottom: "pool1/norm1"
  top: "conv2/3x3_reduce"
  param {
    lr_mult: 1
    decay_mult: 1
  }
  param {
    lr_mult: 2
    decay_mult: 0
  }
  convolution_param {
    num_output: 64
    kernel_size: 1
    weight_filler {
      type: "xavier"
    }
    bias_filler {
      type: "constant"
      value: 0.2
    }
  }
}
layer {
  name: "conv2/relu_3x3_reduce"
  type: "ReLU"
  bottom: "conv2/3x3_reduce"
  top: "conv2/3x3_reduce"
}
layer {
  name: "conv2/3x3"
  type: "Convolution"
  bottom: "conv2/3x3_reduce"
  top: "conv2/3x3"
  param {
    lr_mult: 1
    decay_mult: 1
  }
  param {
    lr_mult: 2
    decay_mult: 0
  }
  convolution_param {
    num_output: 192
    pad: 1
    kernel_size: 3
    weight_filler {
      type: "xavier"
    }
    bias_filler {
      type: "constant"
      value: 0.2
    }
  }
}
layer {
  name: "conv2/relu_3x3"
  type: "ReLU"
  bottom: "conv2/3x3"
  top: "conv2/3x3"
}
layer {
  name: "conv2/norm2"
  type: "LRN"
  bottom: "conv2/3x3"
  top: "conv2/norm2"
  lrn_param {
    local_size: 5
    alpha: 0.0001
    beta: 0.75
  }
}
layer {
  name: "pool2/3x3_s2"
  type: "Pooling"
  bottom: "conv2/norm2"
  top: "pool2/3x3_s2"
  pooling_param {
    pool: MAX
    kernel_size: 3
    stride: 2
  }
}
layer {
  name: "inception_3a/1x1"
  type: "Convolution"
  bottom: "pool2/3x3_s2"
  top: "inception_3a/1x1"
  param {
    lr_mult: 1
    decay_mult: 1
  }
  param {
    lr_mult: 2
    decay_mult: 0
  }
  convolution_param {
    num_output: 64
    kernel_size: 1
    weight_filler {
      type: "xavier"
    }
    bias_filler {
      type: "constant"
      value: 0.2
    }
  }
}
layer {
  name: "inception_3a/relu_1x1"
  type: "ReLU"
  bottom: "inception_3a/1x1"
  top: "inception_3a/1x1"
}
layer {
  name: "inception_3a/3x3_reduce"
  type: "Convolution"
  bottom: "pool2/3x3_s2"
  top: "inception_3a/3x3_reduce"
  param {
    lr_mult: 1
    decay_mult: 1
  }
  param {
    lr_mult: 2
    decay_mult: 0
  }
  convolution_param {
    num_output: 96
    kernel_size: 1
    weight_filler {
      type: "xavier"
    }
    bias_filler {
      type: "constant"
      value: 0.2
    }
  }
}
layer {
  name: "inception_3a/relu_3x3_reduce"
  type: "ReLU"
  bottom: "inception_3a/3x3_reduce"
  top: "inception_3a/3x3_reduce"
}
layer {
  name: "inception_3a/3x3"
  type: "Convolution"
  bottom: "inception_3a/3x3_reduce"
  top: "inception_3a/3x3"
  param {
    lr_mult: 1
    decay_mult: 1
  }
  param {
    lr_mult: 2
    decay_mult: 0
  }
  convolution_param {
    num_output: 128
    pad: 1
    kernel_size: 3
    weight_filler {
      type: "xavier"
    }
    bias_filler {
      type: "constant"
      value: 0.2
    }
  }
}
layer {
  name: "inception_3a/relu_3x3"
  type: "ReLU"
  bottom: "inception_3a/3x3"
  top: "inception_3a/3x3"
}
layer {
  name: "inception_3a/5x5_reduce"
  type: "Convolution"
  bottom: "pool2/3x3_s2"
  top: "inception_3a/5x5_reduce"
  param {
    lr_mult: 1
    decay_mult: 1
  }
  param {
    lr_mult: 2
    decay_mult: 0
  }
  convolution_param {
    num_output: 16
    kernel_size: 1
    weight_filler {
      type: "xavier"
    }
    bias_filler {
      type: "constant"
      value: 0.2
    }
  }
}
layer {
  name: "inception_3a/relu_5x5_reduce"
  type: "ReLU"
  bottom: "inception_3a/5x5_reduce"
  top: "inception_3a/5x5_reduce"
}
layer {
  name: "inception_3a/5x5"
  type: "Convolution"
  bottom: "inception_3a/5x5_reduce"
  top: "inception_3a/5x5"
  param {
    lr_mult: 1
    decay_mult: 1
  }
  param {
    lr_mult: 2
    decay_mult: 0
  }
  convolution_param {
    num_output: 32
    pad: 2
    kernel_size: 5
    weight_filler {
      type: "xavier"
    }
    bias_filler {
      type: "constant"
      value: 0.2
    }
  }
}
layer {
  name: "inception_3a/relu_5x5"
  type: "ReLU"
  bottom: "inception_3a/5x5"
  top: "inception_3a/5x5"
}
layer {
  name: "inception_3a/pool"
  type: "Pooling"
  bottom: "pool2/3x3_s2"
  top: "inception_3a/pool"
  pooling_param {
    pool: MAX
    kernel_size: 3
    stride: 1
    pad: 1
  }
}
layer {
  name: "inception_3a/pool_proj"
  type: "Convolution"
  bottom: "inception_3a/pool"
  top: "inception_3a/pool_proj"
  param {
    lr_mult: 1
    decay_mult: 1
  }
  param {
    lr_mult: 2
    decay_mult: 0
  }
  convolution_param {
    num_output: 32
    kernel_size: 1
    weight_filler {
      type: "xavier"
    }
    bias_filler {
      type: "constant"
      value: 0.2
    }
  }
}
layer {
  name: "inception_3a/relu_pool_proj"
  type: "ReLU"
  bottom: "inception_3a/pool_proj"
  top: "inception_3a/pool_proj"
}
layer {
  name: "inception_3a/output"
  type: "Concat"
  bottom: "inception_3a/1x1"
  bottom: "inception_3a/3x3"
  bottom: "inception_3a/5x5"
  bottom: "inception_3a/pool_proj"
  top: "inception_3a/output"
}
layer {
  name: "inception_3b/1x1"
  type: "Convolution"
  bottom: "inception_3a/output"
  top: "inception_3b/1x1"
  param {
    lr_mult: 1
    decay_mult: 1
  }
  param {
    lr_mult: 2
    decay_mult: 0
  }
  convolution_param {
    num_output: 128
    kernel_size: 1
    weight_filler {
      type: "xavier"
    }
    bias_filler {
      type: "constant"
      value: 0.2
    }
  }
}
layer {
  name: "inception_3b/relu_1x1"
  type: "ReLU"
  bottom: "inception_3b/1x1"
  top: "inception_3b/1x1"
}
layer {
  name: "inception_3b/3x3_reduce"
  type: "Convolution"
  bottom: "inception_3a/output"
  top: "inception_3b/3x3_reduce"
  param {
    lr_mult: 1
    decay_mult: 1
  }
  param {
    lr_mult: 2
    decay_mult: 0
  }
  convolution_param {
    num_output: 128
    kernel_size: 1
    weight_filler {
      type: "xavier"
    }
    bias_filler {
      type: "constant"
      value: 0.2
    }
  }
}
layer {
  name: "inception_3b/relu_3x3_reduce"
  type: "ReLU"
  bottom: "inception_3b/3x3_reduce"
  top: "inception_3b/3x3_reduce"
}
layer {
  name: "inception_3b/3x3"
  type: "Convolution"
  bottom: "inception_3b/3x3_reduce"
  top: "inception_3b/3x3"
  param {
    lr_mult: 1
    decay_mult: 1
  }
  param {
    lr_mult: 2
    decay_mult: 0
  }
  convolution_param {
    num_output: 192
    pad: 1
    kernel_size: 3
    weight_filler {
      type: "xavier"
    }
    bias_filler {
      type: "constant"
      value: 0.2
    }
  }
}
layer {
  name: "inception_3b/relu_3x3"
  type: "ReLU"
  bottom: "inception_3b/3x3"
  top: "inception_3b/3x3"
}
layer {
  name: "inception_3b/5x5_reduce"
  type: "Convolution"
  bottom: "inception_3a/output"
  top: "inception_3b/5x5_reduce"
  param {
    lr_mult: 1
    decay_mult: 1
  }
  param {
    lr_mult: 2
    decay_mult: 0
  }
  convolution_param {
    num_output: 32
    kernel_size: 1
    weight_filler {
      type: "xavier"
    }
    bias_filler {
      type: "constant"
      value: 0.2
    }
  }
}
layer {
  name: "inception_3b/relu_5x5_reduce"
  type: "ReLU"
  bottom: "inception_3b/5x5_reduce"
  top: "inception_3b/5x5_reduce"
}
layer {
  name: "inception_3b/5x5"
  type: "Convolution"
  bottom: "inception_3b/5x5_reduce"
  top: "inception_3b/5x5"
  param {
    lr_mult: 1
    decay_mult: 1
  }
  param {
    lr_mult: 2
    decay_mult: 0
  }
  convolution_param {
    num_output: 96
    pad: 2
    kernel_size: 5
    weight_filler {
      type: "xavier"
    }
    bias_filler {
      type: "constant"
      value: 0.2
    }
  }
}
layer {
  name: "inception_3b/relu_5x5"
  type: "ReLU"
  bottom: "inception_3b/5x5"
  top: "inception_3b/5x5"
}
layer {
  name: "inception_3b/pool"
  type: "Pooling"
  bottom: "inception_3a/output"
  top: "inception_3b/pool"
  pooling_param {
    pool: MAX
    kernel_size: 3
    stride: 1
    pad: 1
  }
}
layer {
  name: "inception_3b/pool_proj"
  type: "Convolution"
  bottom: "inception_3b/pool"
  top: "inception_3b/pool_proj"
  param {
    lr_mult: 1
    decay_mult: 1
  }
  param {
    lr_mult: 2
    decay_mult: 0
  }
  convolution_param {
    num_output: 64
    kernel_size: 1
    weight_filler {
      type: "xavier"
    }
    bias_filler {
      type: "constant"
      value: 0.2
    }
  }
}
layer {
  name: "inception_3b/relu_pool_proj"
  type: "ReLU"
  bottom: "inception_3b/pool_proj"
  top: "inception_3b/pool_proj"
}
layer {
  name: "inception_3b/output"
  type: "Concat"
  bottom: "inception_3b/1x1"
  bottom: "inception_3b/3x3"
  bottom: "inception_3b/5x5"
  bottom: "inception_3b/pool_proj"
  top: "inception_3b/output"
}
layer {
  name: "pool3/3x3_s2"
  type: "Pooling"
  bottom: "inception_3b/output"
  top: "pool3/3x3_s2"
  pooling_param {
    pool: MAX
    kernel_size: 3
    stride: 2
  }
}
layer {
  name: "inception_4a/1x1"
  type: "Convolution"
  bottom: "pool3/3x3_s2"
  top: "inception_4a/1x1"
  param {
    lr_mult: 1
    decay_mult: 1
  }
  param {
    lr_mult: 2
    decay_mult: 0
  }
  convolution_param {
    num_output: 192
    kernel_size: 1
    weight_filler {
      type: "xavier"
    }
    bias_filler {
      type: "constant"
      value: 0.2
    }
  }
}
layer {
  name: "inception_4a/relu_1x1"
  type: "ReLU"
  bottom: "inception_4a/1x1"
  top: "inception_4a/1x1"
}
layer {
  name: "inception_4a/3x3_reduce"
  type: "Convolution"
  bottom: "pool3/3x3_s2"
  top: "inception_4a/3x3_reduce"
  param {
    lr_mult: 1
    decay_mult: 1
  }
  param {
    lr_mult: 2
    decay_mult: 0
  }
  convolution_param {
    num_output: 96
    kernel_size: 1
    weight_filler {
      type: "xavier"
    }
    bias_filler {
      type: "constant"
      value: 0.2
    }
  }
}
layer {
  name: "inception_4a/relu_3x3_reduce"
  type: "ReLU"
  bottom: "inception_4a/3x3_reduce"
  top: "inception_4a/3x3_reduce"
}
layer {
  name: "inception_4a/3x3"
  type: "Convolution"
  bottom: "inception_4a/3x3_reduce"
  top: "inception_4a/3x3"
  param {
    lr_mult: 1
    decay_mult: 1
  }
  param {
    lr_mult: 2
    decay_mult: 0
  }
  convolution_param {
    num_output: 208
    pad: 1
    kernel_size: 3
    weight_filler {
      type: "xavier"
    }
    bias_filler {
      type: "constant"
      value: 0.2
    }
  }
}
layer {
  name: "inception_4a/relu_3x3"
  type: "ReLU"
  bottom: "inception_4a/3x3"
  top: "inception_4a/3x3"
}
layer {
  name: "inception_4a/5x5_reduce"
  type: "Convolution"
  bottom: "pool3/3x3_s2"
  top: "inception_4a/5x5_reduce"
  param {
    lr_mult: 1
    decay_mult: 1
  }
  param {
    lr_mult: 2
    decay_mult: 0
  }
  convolution_param {
    num_output: 16
    kernel_size: 1
    weight_filler {
      type: "xavier"
    }
    bias_filler {
      type: "constant"
      value: 0.2
    }
  }
}
layer {
  name: "inception_4a/relu_5x5_reduce"
  type: "ReLU"
  bottom: "inception_4a/5x5_reduce"
  top: "inception_4a/5x5_reduce"
}
layer {
  name: "inception_4a/5x5"
  type: "Convolution"
  bottom: "inception_4a/5x5_reduce"
  top: "inception_4a/5x5"
  param {
    lr_mult: 1
    decay_mult: 1
  }
  param {
    lr_mult: 2
    decay_mult: 0
  }
  convolution_param {
    num_output: 48
    pad: 2
    kernel_size: 5
    weight_filler {
      type: "xavier"
    }
    bias_filler {
      type: "constant"
      value: 0.2
    }
  }
}
layer {
  name: "inception_4a/relu_5x5"
  type: "ReLU"
  bottom: "inception_4a/5x5"
  top: "inception_4a/5x5"
}
layer {
  name: "inception_4a/pool"
  type: "Pooling"
  bottom: "pool3/3x3_s2"
  top: "inception_4a/pool"
  pooling_param {
    pool: MAX
    kernel_size: 3
    stride: 1
    pad: 1
  }
}
layer {
  name: "inception_4a/pool_proj"
  type: "Convolution"
  bottom: "inception_4a/pool"
  top: "inception_4a/pool_proj"
  param {
    lr_mult: 1
    decay_mult: 1
  }
  param {
    lr_mult: 2
    decay_mult: 0
  }
  convolution_param {
    num_output: 64
    kernel_size: 1
    weight_filler {
      type: "xavier"
    }
    bias_filler {
      type: "constant"
      value: 0.2
    }
  }
}
layer {
  name: "inception_4a/relu_pool_proj"
  type: "ReLU"
  bottom: "inception_4a/pool_proj"
  top: "inception_4a/pool_proj"
}
layer {
  name: "inception_4a/output"
  type: "Concat"
  bottom: "inception_4a/1x1"
  bottom: "inception_4a/3x3"
  bottom: "inception_4a/5x5"
  bottom: "inception_4a/pool_proj"
  top: "inception_4a/output"
}
layer {
  name: "loss1/ave_pool"
  type: "Pooling"
  bottom: "inception_4a/output"
  top: "loss1/ave_pool"
  pooling_param {
    pool: AVE
    kernel_size: 5
    stride: 3
  }
}
layer {
  name: "loss1/conv"
  type: "Convolution"
  bottom: "loss1/ave_pool"
  top: "loss1/conv"
  param {
    lr_mult: 1
    decay_mult: 1
  }
  param {
    lr_mult: 2
    decay_mult: 0
  }
  convolution_param {
    num_output: 128
    kernel_size: 1
    weight_filler {
      type: "xavier"
    }
    bias_filler {
      type: "constant"
      value: 0.2
    }
  }
}
layer {
  name: "loss1/relu_conv"
  type: "ReLU"
  bottom: "loss1/conv"
  top: "loss1/conv"
}
layer {
  name: "loss1/fc"
  type: "InnerProduct"
  bottom: "loss1/conv"
  top: "loss1/fc"
  param {
    lr_mult: 1
    decay_mult: 1
  }
  param {
    lr_mult: 2
    decay_mult: 0
  }
  inner_product_param {
…
I1125 19:43:48.531460 26345 layer_factory.hpp:76] Creating layer inception_4c/pool
I1125 19:43:48.531471 26345 net.cpp:106] Creating Layer inception_4c/pool
I1125 19:43:48.531478 26345 net.cpp:454] inception_4c/pool <- inception_4b/output_inception_4b/output_0_split_3
I1125 19:43:48.531504 26345 net.cpp:411] inception_4c/pool -> inception_4c/pool
I1125 19:43:48.531870 26345 net.cpp:150] Setting up inception_4c/pool
I1125 19:43:48.531888 26345 net.cpp:157] Top shape: 64 512 14 14 (6422528)
I1125 19:43:48.531894 26345 net.cpp:165] Memory required for data: 2828244488
I1125 19:43:48.531901 26345 layer_factory.hpp:76] Creating layer inception_4c/pool_proj
I1125 19:43:48.531916 26345 net.cpp:106] Creating Layer inception_4c/pool_proj
I1125 19:43:48.531925 26345 net.cpp:454] inception_4c/pool_proj <- inception_4c/pool
I1125 19:43:48.531936 26345 net.cpp:411] inception_4c/pool_proj -> inception_4c/pool_proj
I1125 19:43:48.534009 26345 net.cpp:150] Setting up inception_4c/pool_proj
I1125 19:43:48.534029 26345 net.cpp:157] Top shape: 64 64 14 14 (802816)
I1125 19:43:48.534034 26345 net.cpp:165] Memory required for data: 2831455752
I1125 19:43:48.534045 26345 layer_factory.hpp:76] Creating layer inception_4c/relu_pool_proj
I1125 19:43:48.534054 26345 net.cpp:106] Creating Layer inception_4c/relu_pool_proj
I1125 19:43:48.534062 26345 net.cpp:454] inception_4c/relu_pool_proj <- inception_4c/pool_proj
I1125 19:43:48.534072 26345 net.cpp:397] inception_4c/relu_pool_proj -> inception_4c/pool_proj (in-place)
I1125 19:43:48.534523 26345 net.cpp:150] Setting up inception_4c/relu_pool_proj
I1125 19:43:48.534564 26345 net.cpp:157] Top shape: 64 64 14 14 (802816)
I1125 19:43:48.534574 26345 net.cpp:165] Memory required for data: 2834667016
I1125 19:43:48.534580 26345 layer_factory.hpp:76] Creating layer inception_4c/output
I1125 19:43:48.534590 26345 net.cpp:106] Creating Layer inception_4c/output
I1125 19:43:48.534597 26345 net.cpp:454] inception_4c/output <- inception_4c/1x1
I1125 19:43:48.534606 26345 net.cpp:454] inception_4c/output <- inception_4c/3x3
I1125 19:43:48.534615 26345 net.cpp:454] inception_4c/output <- inception_4c/5x5
I1125 19:43:48.534621 26345 net.cpp:454] inception_4c/output <- inception_4c/pool_proj
I1125 19:43:48.534632 26345 net.cpp:411] inception_4c/output -> inception_4c/output
I1125 19:43:48.534700 26345 net.cpp:150] Setting up inception_4c/output
I1125 19:43:48.534714 26345 net.cpp:157] Top shape: 64 512 14 14 (6422528)
I1125 19:43:48.534740 26345 net.cpp:165] Memory required for data: 2860357128
I1125 19:43:48.534749 26345 layer_factory.hpp:76] Creating layer inception_4c/output_inception_4c/output_0_split
I1125 19:43:48.534759 26345 net.cpp:106] Creating Layer inception_4c/output_inception_4c/output_0_split
I1125 19:43:48.534766 26345 net.cpp:454] inception_4c/output_inception_4c/output_0_split <- inception_4c/output
I1125 19:43:48.534776 26345 net.cpp:411] inception_4c/output_inception_4c/output_0_split -> inception_4c/output_inception_4c/output_0_split_0
I1125 19:43:48.534803 26345 net.cpp:411] inception_4c/output_inception_4c/output_0_split -> inception_4c/output_inception_4c/output_0_split_1
I1125 19:43:48.534818 26345 net.cpp:411] inception_4c/output_inception_4c/output_0_split -> inception_4c/output_inception_4c/output_0_split_2
I1125 19:43:48.534828 26345 net.cpp:411] inception_4c/output_inception_4c/output_0_split -> inception_4c/output_inception_4c/output_0_split_3
I1125 19:43:48.534981 26345 net.cpp:150] Setting up inception_4c/output_inception_4c/output_0_split
I1125 19:43:48.534994 26345 net.cpp:157] Top shape: 64 512 14 14 (6422528)
I1125 19:43:48.535002 26345 net.cpp:157] Top shape: 64 512 14 14 (6422528)
I1125 19:43:48.535011 26345 net.cpp:157] Top shape: 64 512 14 14 (6422528)
I1125 19:43:48.535017 26345 net.cpp:157] Top shape: 64 512 14 14 (6422528)
I1125 19:43:48.535023 26345 net.cpp:165] Memory required for data: 2963117576
I1125 19:43:48.535029 26345 layer_factory.hpp:76] Creating layer inception_4d/1x1
I1125 19:43:48.535046 26345 net.cpp:106] Creating Layer inception_4d/1x1
I1125 19:43:48.535074 26345 net.cpp:454] inception_4d/1x1 <- inception_4c/output_inception_4c/output_0_split_0
I1125 19:43:48.535094 26345 net.cpp:411] inception_4d/1x1 -> inception_4d/1x1
I1125 19:43:48.537220 26345 net.cpp:150] Setting up inception_4d/1x1
I1125 19:43:48.537237 26345 net.cpp:157] Top shape: 64 112 14 14 (1404928)
I1125 19:43:48.537243 26345 net.cpp:165] Memory required for data: 2968737288
I1125 19:43:48.537253 26345 layer_factory.hpp:76] Creating layer inception_4d/relu_1x1
I1125 19:43:48.537264 26345 net.cpp:106] Creating Layer inception_4d/relu_1x1
I1125 19:43:48.537272 26345 net.cpp:454] inception_4d/relu_1x1 <- inception_4d/1x1
I1125 19:43:48.537282 26345 net.cpp:397] inception_4d/relu_1x1 -> inception_4d/1x1 (in-place)
I1125 19:43:48.537739 26345 net.cpp:150] Setting up inception_4d/relu_1x1
I1125 19:43:48.537757 26345 net.cpp:157] Top shape: 64 112 14 14 (1404928)
I1125 19:43:48.537765 26345 net.cpp:165] Memory required for data: 2974357000
I1125 19:43:48.537770 26345 layer_factory.hpp:76] Creating layer inception_4d/3x3_reduce
I1125 19:43:48.537786 26345 net.cpp:106] Creating Layer inception_4d/3x3_reduce
I1125 19:43:48.537793 26345 net.cpp:454] inception_4d/3x3_reduce <- inception_4c/output_inception_4c/output_0_split_1
I1125 19:43:48.537802 26345 net.cpp:411] inception_4d/3x3_reduce -> inception_4d/3x3_reduce
I1125 19:43:48.540215 26345 net.cpp:150] Setting up inception_4d/3x3_reduce
I1125 19:43:48.540235 26345 net.cpp:157] Top shape: 64 144 14 14 (1806336)
I1125 19:43:48.540242 26345 net.cpp:165] Memory required for data: 2981582344
I1125 19:43:48.540256 26345 layer_factory.hpp:76] Creating layer inception_4d/relu_3x3_reduce
I1125 19:43:48.540267 26345 net.cpp:106] Creating Layer inception_4d/relu_3x3_reduce
I1125 19:43:48.540276 26345 net.cpp:454] inception_4d/relu_3x3_reduce <- inception_4d/3x3_reduce
I1125 19:43:48.540285 26345 net.cpp:397] inception_4d/relu_3x3_reduce -> inception_4d/3x3_reduce (in-place)
I1125 19:43:48.540591 26345 net.cpp:150] Setting up inception_4d/relu_3x3_reduce
I1125 19:43:48.540606 26345 net.cpp:157] Top shape: 64 144 14 14 (1806336)
I1125 19:43:48.540611 26345 net.cpp:165] Memory required for data: 2988807688
I1125 19:43:48.540616 26345 layer_factory.hpp:76] Creating layer inception_4d/3x3
I1125 19:43:48.540628 26345 net.cpp:106] Creating Layer inception_4d/3x3
I1125 19:43:48.540633 26345 net.cpp:454] inception_4d/3x3 <- inception_4d/3x3_reduce
I1125 19:43:48.540645 26345 net.cpp:411] inception_4d/3x3 -> inception_4d/3x3
I1125 19:43:48.546121 26345 net.cpp:150] Setting up inception_4d/3x3
I1125 19:43:48.546145 26345 net.cpp:157] Top shape: 64 288 14 14 (3612672)
I1125 19:43:48.546152 26345 net.cpp:165] Memory required for data: 3003258376
I1125 19:43:48.546162 26345 layer_factory.hpp:76] Creating layer inception_4d/relu_3x3
I1125 19:43:48.546172 26345 net.cpp:106] Creating Layer inception_4d/relu_3x3
I1125 19:43:48.546178 26345 net.cpp:454] inception_4d/relu_3x3 <- inception_4d/3x3
I1125 19:43:48.546188 26345 net.cpp:397] inception_4d/relu_3x3 -> inception_4d/3x3 (in-place)
I1125 19:43:48.546623 26345 net.cpp:150] Setting up inception_4d/relu_3x3
I1125 19:43:48.546638 26345 net.cpp:157] Top shape: 64 288 14 14 (3612672)
I1125 19:43:48.546643 26345 net.cpp:165] Memory required for data: 3017709064
I1125 19:43:48.546648 26345 layer_factory.hpp:76] Creating layer inception_4d/5x5_reduce
I1125 19:43:48.546664 26345 net.cpp:106] Creating Layer inception_4d/5x5_reduce
I1125 19:43:48.546674 26345 net.cpp:454] inception_4d/5x5_reduce <- inception_4c/output_inception_4c/output_0_split_2
I1125 19:43:48.546684 26345 net.cpp:411] inception_4d/5x5_reduce -> inception_4d/5x5_reduce
I1125 19:43:48.549337 26345 net.cpp:150] Setting up inception_4d/5x5_reduce
I1125 19:43:48.549366 26345 net.cpp:157] Top shape: 64 32 14 14 (401408)
I1125 19:43:48.549372 26345 net.cpp:165] Memory required for data: 3019314696
I1125 19:43:48.549384 26345 layer_factory.hpp:76] Creating layer inception_4d/relu_5x5_reduce
I1125 19:43:48.549396 26345 net.cpp:106] Creating Layer inception_4d/relu_5x5_reduce
I1125 19:43:48.549406 26345 net.cpp:454] inception_4d/relu_5x5_reduce <- inception_4d/5x5_reduce
I1125 19:43:48.549415 26345 net.cpp:397] inception_4d/relu_5x5_reduce -> inception_4d/5x5_reduce (in-place)
I1125 19:43:48.549886 26345 net.cpp:150] Setting up inception_4d/relu_5x5_reduce
I1125 19:43:48.549901 26345 net.cpp:157] Top shape: 64 32 14 14 (401408)
I1125 19:43:48.549906 26345 net.cpp:165] Memory required for data: 3020920328
I1125 19:43:48.549912 26345 layer_factory.hpp:76] Creating layer inception_4d/5x5
I1125 19:43:48.549928 26345 net.cpp:106] Creating Layer inception_4d/5x5
I1125 19:43:48.549934 26345 net.cpp:454] inception_4d/5x5 <- inception_4d/5x5_reduce
I1125 19:43:48.549943 26345 net.cpp:411] inception_4d/5x5 -> inception_4d/5x5
I1125 19:43:48.552253 26345 net.cpp:150] Setting up inception_4d/5x5
I1125 19:43:48.552270 26345 net.cpp:157] Top shape: 64 64 14 14 (802816)
I1125 19:43:48.552276 26345 net.cpp:165] Memory required for data: 3024131592
I1125 19:43:48.552286 26345 layer_factory.hpp:76] Creating layer inception_4d/relu_5x5
I1125 19:43:48.552295 26345 net.cpp:106] Creating Layer inception_4d/relu_5x5
I1125 19:43:48.552302 26345 net.cpp:454] inception_4d/relu_5x5 <- inception_4d/5x5
I1125 19:43:48.552314 26345 net.cpp:397] inception_4d/relu_5x5 -> inception_4d/5x5 (in-place)
I1125 19:43:48.552597 26345 net.cpp:150] Setting up inception_4d/relu_5x5
I1125 19:43:48.552610 26345 net.cpp:157] Top shape: 64 64 14 14 (802816)
I1125 19:43:48.552615 26345 net.cpp:165] Memory required for data: 3027342856
I1125 19:43:48.552621 26345 layer_factory.hpp:76] Creating layer inception_4d/pool
I1125 19:43:48.552631 26345 net.cpp:106] Creating Layer inception_4d/pool
I1125 19:43:48.552639 26345 net.cpp:454] inception_4d/pool <- inception_4c/output_inception_4c/output_0_split_3
I1125 19:43:48.552646 26345 net.cpp:411] inception_4d/pool -> inception_4d/pool
I1125 19:43:48.553187 26345 net.cpp:150] Setting up inception_4d/pool
I1125 19:43:48.553205 26345 net.cpp:157] Top shape: 64 512 14 14 (6422528)
I1125 19:43:48.553210 26345 net.cpp:165] Memory required for data: 3053032968
I1125 19:43:48.553215 26345 layer_factory.hpp:76] Creating layer inception_4d/pool_proj
I1125 19:43:48.553226 26345 net.cpp:106] Creating Layer inception_4d/pool_proj
I1125 19:43:48.553232 26345 net.cpp:454] inception_4d/pool_proj <- inception_4d/pool
I1125 19:43:48.553243 26345 net.cpp:411] inception_4d/pool_proj -> inception_4d/pool_proj
I1125 19:43:48.555387 26345 net.cpp:150] Setting up inception_4d/pool_proj
I1125 19:43:48.555409 26345 net.cpp:157] Top shape: 64 64 14 14 (802816)
I1125 19:43:48.555414 26345 net.cpp:165] Memory required for data: 3056244232
I1125 19:43:48.555424 26345 layer_factory.hpp:76] Creating layer inception_4d/relu_pool_proj
I1125 19:43:48.555434 26345 net.cpp:106] Creating Layer inception_4d/relu_pool_proj
I1125 19:43:48.555440 26345 net.cpp:454] inception_4d/relu_pool_proj <- inception_4d/pool_proj
I1125 19:43:48.555449 26345 net.cpp:397] inception_4d/relu_pool_proj -> inception_4d/pool_proj (in-place)
I1125 19:43:48.555727 26345 net.cpp:150] Setting up inception_4d/relu_pool_proj
I1125 19:43:48.555740 26345 net.cpp:157] Top shape: 64 64 14 14 (802816)
I1125 19:43:48.555747 26345 net.cpp:165] Memory required for data: 3059455496
I1125 19:43:48.555752 26345 layer_factory.hpp:76] Creating layer inception_4d/output
I1125 19:43:48.555762 26345 net.cpp:106] Creating Layer inception_4d/output
I1125 19:43:48.555768 26345 net.cpp:454] inception_4d/output <- inception_4d/1x1
I1125 19:43:48.555774 26345 net.cpp:454] inception_4d/output <- inception_4d/3x3
I1125 19:43:48.555781 26345 net.cpp:454] inception_4d/output <- inception_4d/5x5
I1125 19:43:48.555788 26345 net.cpp:454] inception_4d/output <- inception_4d/pool_proj
I1125 19:43:48.555795 26345 net.cpp:411] inception_4d/output -> inception_4d/output
I1125 19:43:48.555858 26345 net.cpp:150] Setting up inception_4d/output
I1125 19:43:48.555869 26345 net.cpp:157] Top shape: 64 528 14 14 (6623232)
I1125 19:43:48.555874 26345 net.cpp:165] Memory required for data: 3085948424
I1125 19:43:48.555879 26345 layer_factory.hpp:76] Creating layer inception_4d/output_inception_4d/output_0_split
I1125 19:43:48.555891 26345 net.cpp:106] Creating Layer inception_4d/output_inception_4d/output_0_split
I1125 19:43:48.555896 26345 net.cpp:454] inception_4d/output_inception_4d/output_0_split <- inception_4d/output
I1125 19:43:48.555904 26345 net.cpp:411] inception_4d/output_inception_4d/output_0_split -> inception_4d/output_inception_4d/output_0_split_0
I1125 19:43:48.555914 26345 net.cpp:411] inception_4d/output_inception_4d/output_0_split -> inception_4d/output_inception_4d/output_0_split_1
I1125 19:43:48.555924 26345 net.cpp:411] inception_4d/output_inception_4d/output_0_split -> inception_4d/output_inception_4d/output_0_split_2
I1125 19:43:48.555933 26345 net.cpp:411] inception_4d/output_inception_4d/output_0_split -> inception_4d/output_inception_4d/output_0_split_3
I1125 19:43:48.555941 26345 net.cpp:411] inception_4d/output_inception_4d/output_0_split -> inception_4d/output_inception_4d/output_0_split_4
I1125 19:43:48.556156 26345 net.cpp:150] Setting up inception_4d/output_inception_4d/output_0_split
I1125 19:43:48.556169 26345 net.cpp:157] Top shape: 64 528 14 14 (6623232)
I1125 19:43:48.556174 26345 net.cpp:157] Top shape: 64 528 14 14 (6623232)
I1125 19:43:48.556180 26345 net.cpp:157] Top shape: 64 528 14 14 (6623232)
I1125 19:43:48.556186 26345 net.cpp:157] Top shape: 64 528 14 14 (6623232)
I1125 19:43:48.556192 26345 net.cpp:157] Top shape: 64 528 14 14 (6623232)
I1125 19:43:48.556197 26345 net.cpp:165] Memory required for data: 3218413064
I1125 19:43:48.556202 26345 layer_factory.hpp:76] Creating layer loss2/ave_pool
I1125 19:43:48.556211 26345 net.cpp:106] Creating Layer loss2/ave_pool
I1125 19:43:48.556219 26345 net.cpp:454] loss2/ave_pool <- inception_4d/output_inception_4d/output_0_split_0
I1125 19:43:48.556228 26345 net.cpp:411] loss2/ave_pool -> loss2/ave_pool
I1125 19:43:48.556728 26345 net.cpp:150] Setting up loss2/ave_pool
I1125 19:43:48.556743 26345 net.cpp:157] Top shape: 64 528 4 4 (540672)
I1125 19:43:48.556748 26345 net.cpp:165] Memory required for data: 3220575752
I1125 19:43:48.556754 26345 layer_factory.hpp:76] Creating layer loss2/conv
I1125 19:43:48.556767 26345 net.cpp:106] Creating Layer loss2/conv
I1125 19:43:48.556773 26345 net.cpp:454] loss2/conv <- loss2/ave_pool
I1125 19:43:48.556785 26345 net.cpp:411] loss2/conv -> loss2/conv
I1125 19:43:48.559571 26345 net.cpp:150] Setting up loss2/conv
I1125 19:43:48.559588 26345 net.cpp:157] Top shape: 64 128 4 4 (131072)
I1125 19:43:48.559597 26345 net.cpp:165] Memory required for data: 3221100040
I1125 19:43:48.559607 26345 layer_factory.hpp:76] Creating layer loss2/relu_conv
I1125 19:43:48.559617 26345 net.cpp:106] Creating Layer loss2/relu_conv
I1125 19:43:48.559623 26345 net.cpp:454] loss2/relu_conv <- loss2/conv
I1125 19:43:48.559631 26345 net.cpp:397] loss2/relu_conv -> loss2/conv (in-place)
I1125 19:43:48.560091 26345 net.cpp:150] Setting up loss2/relu_conv
I1125 19:43:48.560106 26345 net.cpp:157] Top shape: 64 128 4 4 (131072)
I1125 19:43:48.560112 26345 net.cpp:165] Memory required for data: 3221624328
I1125 19:43:48.560118 26345 layer_factory.hpp:76] Creating layer loss2/fc
I1125 19:43:48.560128 26345 net.cpp:106] Creating Layer loss2/fc
I1125 19:43:48.560134 26345 net.cpp:454] loss2/fc <- loss2/conv
I1125 19:43:48.560147 26345 net.cpp:411] loss2/fc -> loss2/fc
I1125 19:43:48.579999 26345 net.cpp:150] Setting up loss2/fc
I1125 19:43:48.580024 26345 net.cpp:157] Top shape: 64 1024 (65536)
I1125 19:43:48.580030 26345 net.cpp:165] Memory required for data: 3221886472
I1125 19:43:48.580044 26345 layer_factory.hpp:76] Creating layer loss2/relu_fc
I1125 19:43:48.580060 26345 net.cpp:106] Creating Layer loss2/relu_fc
I1125 19:43:48.580070 26345 net.cpp:454] loss2/relu_fc <- loss2/fc
I1125 19:43:48.580080 26345 net.cpp:397] loss2/relu_fc -> loss2/fc (in-place)
I1125 19:43:48.580435 26345 net.cpp:150] Setting up loss2/relu_fc
I1125 19:43:48.580457 26345 net.cpp:157] Top shape: 64 1024 (65536)
I1125 19:43:48.580463 26345 net.cpp:165] Memory required for data: 3222148616
I1125 19:43:48.580468 26345 layer_factory.hpp:76] Creating layer loss2/drop_fc
I1125 19:43:48.580482 26345 net.cpp:106] Creating Layer loss2/drop_fc
I1125 19:43:48.580488 26345 net.cpp:454] loss2/drop_fc <- loss2/fc
I1125 19:43:48.580495 26345 net.cpp:397] loss2/drop_fc -> loss2/fc (in-place)
I1125 19:43:48.580554 26345 net.cpp:150] Setting up loss2/drop_fc
I1125 19:43:48.580565 26345 net.cpp:157] Top shape: 64 1024 (65536)
I1125 19:43:48.580570 26345 net.cpp:165] Memory required for data: 3222410760
I1125 19:43:48.580575 26345 layer_factory.hpp:76] Creating layer loss2/classifier-attribute
I1125 19:43:48.580588 26345 net.cpp:106] Creating Layer loss2/classifier-attribute
I1125 19:43:48.580595 26345 net.cpp:454] loss2/classifier-attribute <- loss2/fc
I1125 19:43:48.580605 26345 net.cpp:411] loss2/classifier-attribute -> loss2/classifier-attribute
I1125 19:43:48.580950 26345 net.cpp:150] Setting up loss2/classifier-attribute
I1125 19:43:48.580966 26345 net.cpp:157] Top shape: 64 5 (320)
I1125 19:43:48.580971 26345 net.cpp:165] Memory required for data: 3222412040
I1125 19:43:48.580981 26345 layer_factory.hpp:76] Creating layer loss2/classifier-attribute_loss2/classifier-attribute_0_split
I1125 19:43:48.580991 26345 net.cpp:106] Creating Layer loss2/classifier-attribute_loss2/classifier-attribute_0_split
I1125 19:43:48.580996 26345 net.cpp:454] loss2/classifier-attribute_loss2/classifier-attribute_0_split <- loss2/classifier-attribute
I1125 19:43:48.581006 26345 net.cpp:411] loss2/classifier-attribute_loss2/classifier-attribute_0_split -> loss2/classifier-attribute_loss2/classifier-attribute_0_split_0
I1125 19:43:48.581015 26345 net.cpp:411] loss2/classifier-attribute_loss2/classifier-attribute_0_split -> loss2/classifier-attribute_loss2/classifier-attribute_0_split_1
I1125 19:43:48.581099 26345 net.cpp:150] Setting up loss2/classifier-attribute_loss2/classifier-attribute_0_split
I1125 19:43:48.581109 26345 net.cpp:157] Top shape: 64 5 (320)
I1125 19:43:48.581115 26345 net.cpp:157] Top shape: 64 5 (320)
I1125 19:43:48.581120 26345 net.cpp:165] Memory required for data: 3222414600
I1125 19:43:48.581125 26345 layer_factory.hpp:76] Creating layer loss2/loss
I1125 19:43:48.581132 26345 net.cpp:106] Creating Layer loss2/loss
I1125 19:43:48.581138 26345 net.cpp:454] loss2/loss <- loss2/classifier-attribute_loss2/classifier-attribute_0_split_0
I1125 19:43:48.581146 26345 net.cpp:454] loss2/loss <- label_data_1_split_2
…
I1125 19:43:48.582056 26345 net.cpp:150] Setting up loss2/top-1
I1125 19:43:48.582062 26345 net.cpp:157] Top shape: (1)
I1125 19:43:48.582067 26345 net.cpp:165] Memory required for data: 3222414608
I1125 19:43:48.582072 26345 layer_factory.hpp:76] Creating layer inception_4e/1x1
I1125 19:43:48.582085 26345 net.cpp:106] Creating Layer inception_4e/1x1
I1125 19:43:48.582093 26345 net.cpp:454] inception_4e/1x1 <- inception_4d/output_inception_4d/output_0_split_1
I1125 19:43:48.582101 26345 net.cpp:411] inception_4e/1x1 -> inception_4e/1x1
I1125 19:43:48.585029 26345 net.cpp:150] Setting up inception_4e/1x1
I1125 19:43:48.585049 26345 net.cpp:157] Top shape: 64 256 14 14 (3211264)
I1125 19:43:48.585057 26345 net.cpp:165] Memory required for data: 3235259664
I1125 19:43:48.585067 26345 layer_factory.hpp:76] Creating layer inception_4e/relu_1x1
I1125 19:43:48.585078 26345 net.cpp:106] Creating Layer inception_4e/relu_1x1
I1125 19:43:48.585086 26345 net.cpp:454] inception_4e/relu_1x1 <- inception_4e/1x1
I1125 19:43:48.585094 26345 net.cpp:397] inception_4e/relu_1x1 -> inception_4e/1x1 (in-place)
I1125 19:43:48.585377 26345 net.cpp:150] Setting up inception_4e/relu_1x1
I1125 19:43:48.585393 26345 net.cpp:157] Top shape: 64 256 14 14 (3211264)
I1125 19:43:48.585399 26345 net.cpp:165] Memory required for data: 3248104720
I1125 19:43:48.585404 26345 layer_factory.hpp:76] Creating layer inception_4e/3x3_reduce
I1125 19:43:48.585418 26345 net.cpp:106] Creating Layer inception_4e/3x3_reduce
I1125 19:43:48.585424 26345 net.cpp:454] inception_4e/3x3_reduce <- inception_4d/output_inception_4d/output_0_split_2
I1125 19:43:48.585433 26345 net.cpp:411] inception_4e/3x3_reduce -> inception_4e/3x3_reduce
I1125 19:43:48.588538 26345 net.cpp:150] Setting up inception_4e/3x3_reduce
I1125 19:43:48.588557 26345 net.cpp:157] Top shape: 64 160 14 14 (2007040)
I1125 19:43:48.588564 26345 net.cpp:165] Memory required for data: 3256132880
I1125 19:43:48.588573 26345 layer_factory.hpp:76] Creating layer inception_4e/relu_3x3_reduce
I1125 19:43:48.588584 26345 net.cpp:106] Creating Layer inception_4e/relu_3x3_reduce
I1125 19:43:48.588590 26345 net.cpp:454] inception_4e/relu_3x3_reduce <- inception_4e/3x3_reduce
I1125 19:43:48.588603 26345 net.cpp:397] inception_4e/relu_3x3_reduce -> inception_4e/3x3_reduce (in-place)
I1125 19:43:48.589076 26345 net.cpp:150] Setting up inception_4e/relu_3x3_reduce
I1125 19:43:48.589092 26345 net.cpp:157] Top shape: 64 160 14 14 (2007040)
I1125 19:43:48.589097 26345 net.cpp:165] Memory required for data: 3264161040
I1125 19:43:48.589102 26345 layer_factory.hpp:76] Creating layer inception_4e/3x3
I1125 19:43:48.589131 26345 net.cpp:106] Creating Layer inception_4e/3x3
I1125 19:43:48.589140 26345 net.cpp:454] inception_4e/3x3 <- inception_4e/3x3_reduce
I1125 19:43:48.589150 26345 net.cpp:411] inception_4e/3x3 -> inception_4e/3x3
I1125 19:43:48.595491 26345 net.cpp:150] Setting up inception_4e/3x3
I1125 19:43:48.595520 26345 net.cpp:157] Top shape: 64 320 14 14 (4014080)
I1125 19:43:48.595527 26345 net.cpp:165] Memory required for data: 3280217360
I1125 19:43:48.595567 26345 layer_factory.hpp:76] Creating layer inception_4e/relu_3x3
I1125 19:43:48.595584 26345 net.cpp:106] Creating Layer inception_4e/relu_3x3
I1125 19:43:48.595595 26345 net.cpp:454] inception_4e/relu_3x3 <- inception_4e/3x3
I1125 19:43:48.595608 26345 net.cpp:397] inception_4e/relu_3x3 -> inception_4e/3x3 (in-place)
I1125 19:43:48.596109 26345 net.cpp:150] Setting up inception_4e/relu_3x3
I1125 19:43:48.596128 26345 net.cpp:157] Top shape: 64 320 14 14 (4014080)
I1125 19:43:48.596134 26345 net.cpp:165] Memory required for data: 3296273680
I1125 19:43:48.596142 26345 layer_factory.hpp:76] Creating layer inception_4e/5x5_reduce
I1125 19:43:48.596156 26345 net.cpp:106] Creating Layer inception_4e/5x5_reduce
I1125 19:43:48.596163 26345 net.cpp:454] inception_4e/5x5_reduce <- inception_4d/output_inception_4d/output_0_split_3
I1125 19:43:48.596173 26345 net.cpp:411] inception_4e/5x5_reduce -> inception_4e/5x5_reduce
I1125 19:43:48.598418 26345 net.cpp:150] Setting up inception_4e/5x5_reduce
I1125 19:43:48.598439 26345 net.cpp:157] Top shape: 64 32 14 14 (401408)
I1125 19:43:48.598445 26345 net.cpp:165] Memory required for data: 3297879312
I1125 19:43:48.598455 26345 layer_factory.hpp:76] Creating layer inception_4e/relu_5x5_reduce
I1125 19:43:48.598466 26345 net.cpp:106] Creating Layer inception_4e/relu_5x5_reduce
I1125 19:43:48.598474 26345 net.cpp:454] inception_4e/relu_5x5_reduce <- inception_4e/5x5_reduce
I1125 19:43:48.598481 26345 net.cpp:397] inception_4e/relu_5x5_reduce -> inception_4e/5x5_reduce (in-place)
I1125 19:43:48.599061 26345 net.cpp:150] Setting up inception_4e/relu_5x5_reduce
I1125 19:43:48.599079 26345 net.cpp:157] Top shape: 64 32 14 14 (401408)
I1125 19:43:48.599086 26345 net.cpp:165] Memory required for data: 3299484944
I1125 19:43:48.599092 26345 layer_factory.hpp:76] Creating layer inception_4e/5x5
I1125 19:43:48.599104 26345 net.cpp:106] Creating Layer inception_4e/5x5
I1125 19:43:48.599110 26345 net.cpp:454] inception_4e/5x5 <- inception_4e/5x5_reduce
I1125 19:43:48.599122 26345 net.cpp:411] inception_4e/5x5 -> inception_4e/5x5
I1125 19:43:48.601941 26345 net.cpp:150] Setting up inception_4e/5x5
I1125 19:43:48.601961 26345 net.cpp:157] Top shape: 64 128 14 14 (1605632)
I1125 19:43:48.601968 26345 net.cpp:165] Memory required for data: 3305907472
I1125 19:43:48.601977 26345 layer_factory.hpp:76] Creating layer inception_4e/relu_5x5
I1125 19:43:48.601989 26345 net.cpp:106] Creating Layer inception_4e/relu_5x5
I1125 19:43:48.601997 26345 net.cpp:454] inception_4e/relu_5x5 <- inception_4e/5x5
I1125 19:43:48.602005 26345 net.cpp:397] inception_4e/relu_5x5 -> inception_4e/5x5 (in-place)
I1125 19:43:48.602466 26345 net.cpp:150] Setting up inception_4e/relu_5x5
I1125 19:43:48.602483 26345 net.cpp:157] Top shape: 64 128 14 14 (1605632)
I1125 19:43:48.602490 26345 net.cpp:165] Memory required for data: 3312330000
I1125 19:43:48.602496 26345 layer_factory.hpp:76] Creating layer inception_4e/pool
I1125 19:43:48.602509 26345 net.cpp:106] Creating Layer inception_4e/pool
I1125 19:43:48.602516 26345 net.cpp:454] inception_4e/pool <- inception_4d/output_inception_4d/output_0_split_4
I1125 19:43:48.602525 26345 net.cpp:411] inception_4e/pool -> inception_4e/pool
I1125 19:43:48.602913 26345 net.cpp:150] Setting up inception_4e/pool
I1125 19:43:48.602933 26345 net.cpp:157] Top shape: 64 528 14 14 (6623232)
I1125 19:43:48.602946 26345 net.cpp:165] Memory required for data: 3338822928
I1125 19:43:48.602952 26345 layer_factory.hpp:76] Creating layer inception_4e/pool_proj
I1125 19:43:48.602967 26345 net.cpp:106] Creating Layer inception_4e/pool_proj
I1125 19:43:48.602974 26345 net.cpp:454] inception_4e/pool_proj <- inception_4e/pool
I1125 19:43:48.602987 26345 net.cpp:411] inception_4e/pool_proj -> inception_4e/pool_proj
I1125 19:43:48.605379 26345 net.cpp:150] Setting up inception_4e/pool_proj
I1125 19:43:48.605398 26345 net.cpp:157] Top shape: 64 128 14 14 (1605632)
I1125 19:43:48.605403 26345 net.cpp:165] Memory required for data: 3345245456
I1125 19:43:48.605413 26345 layer_factory.hpp:76] Creating layer inception_4e/relu_pool_proj
I1125 19:43:48.605422 26345 net.cpp:106] Creating Layer inception_4e/relu_pool_proj
I1125 19:43:48.605427 26345 net.cpp:454] inception_4e/relu_pool_proj <- inception_4e/pool_proj
I1125 19:43:48.605437 26345 net.cpp:397] inception_4e/relu_pool_proj -> inception_4e/pool_proj (in-place)
I1125 19:43:48.605898 26345 net.cpp:150] Setting up inception_4e/relu_pool_proj
I1125 19:43:48.605916 26345 net.cpp:157] Top shape: 64 128 14 14 (1605632)
I1125 19:43:48.605921 26345 net.cpp:165] Memory required for data: 3351667984
I1125 19:43:48.605927 26345 layer_factory.hpp:76] Creating layer inception_4e/output
I1125 19:43:48.605937 26345 net.cpp:106] Creating Layer inception_4e/output
I1125 19:43:48.605944 26345 net.cpp:454] inception_4e/output <- inception_4e/1x1
I1125 19:43:48.605952 26345 net.cpp:454] inception_4e/output <- inception_4e/3x3
I1125 19:43:48.605957 26345 net.cpp:454] inception_4e/output <- inception_4e/5x5
I1125 19:43:48.605963 26345 net.cpp:454] inception_4e/output <- inception_4e/pool_proj
I1125 19:43:48.605973 26345 net.cpp:411] inception_4e/output -> inception_4e/output
I1125 19:43:48.606032 26345 net.cpp:150] Setting up inception_4e/output
I1125 19:43:48.606045 26345 net.cpp:157] Top shape: 64 832 14 14 (10436608)
I1125 19:43:48.606050 26345 net.cpp:165] Memory required for data: 3393414416
I1125 19:43:48.606055 26345 layer_factory.hpp:76] Creating layer pool4/3x3_s2
I1125 19:43:48.606066 26345 net.cpp:106] Creating Layer pool4/3x3_s2
I1125 19:43:48.606076 26345 net.cpp:454] pool4/3x3_s2 <- inception_4e/output
I1125 19:43:48.606086 26345 net.cpp:411] pool4/3x3_s2 -> pool4/3x3_s2
I1125 19:43:48.606479 26345 net.cpp:150] Setting up pool4/3x3_s2
I1125 19:43:48.606497 26345 net.cpp:157] Top shape: 64 832 7 7 (2609152)
I1125 19:43:48.606503 26345 net.cpp:165] Memory required for data: 3403851024
I1125 19:43:48.606508 26345 layer_factory.hpp:76] Creating layer pool4/3x3_s2_pool4/3x3_s2_0_split
I1125 19:43:48.606516 26345 net.cpp:106] Creating Layer pool4/3x3_s2_pool4/3x3_s2_0_split
I1125 19:43:48.606523 26345 net.cpp:454] pool4/3x3_s2_pool4/3x3_s2_0_split <- pool4/3x3_s2
I1125 19:43:48.606533 26345 net.cpp:411] pool4/3x3_s2_pool4/3x3_s2_0_split -> pool4/3x3_s2_pool4/3x3_s2_0_split_0
I1125 19:43:48.606545 26345 net.cpp:411] pool4/3x3_s2_pool4/3x3_s2_0_split -> pool4/3x3_s2_pool4/3x3_s2_0_split_1
I1125 19:43:48.606556 26345 net.cpp:411] pool4/3x3_s2_pool4/3x3_s2_0_split -> pool4/3x3_s2_pool4/3x3_s2_0_split_2
I1125 19:43:48.606567 26345 net.cpp:411] pool4/3x3_s2_pool4/3x3_s2_0_split -> pool4/3x3_s2_pool4/3x3_s2_0_split_3
I1125 19:43:48.606757 26345 net.cpp:150] Setting up pool4/3x3_s2_pool4/3x3_s2_0_split
I1125 19:43:48.606775 26345 net.cpp:157] Top shape: 64 832 7 7 (2609152)
I1125 19:43:48.606784 26345 net.cpp:157] Top shape: 64 832 7 7 (2609152)
I1125 19:43:48.606791 26345 net.cpp:157] Top shape: 64 832 7 7 (2609152)
I1125 19:43:48.606796 26345 net.cpp:157] Top shape: 64 832 7 7 (2609152)
I1125 19:43:48.606801 26345 net.cpp:165] Memory required for data: 3445597456
I1125 19:43:48.606806 26345 layer_factory.hpp:76] Creating layer inception_5a/1x1
I1125 19:43:48.606819 26345 net.cpp:106] Creating Layer inception_5a/1x1
I1125 19:43:48.606825 26345 net.cpp:454] inception_5a/1x1 <- pool4/3x3_s2_pool4/3x3_s2_0_split_0
I1125 19:43:48.606835 26345 net.cpp:411] inception_5a/1x1 -> inception_5a/1x1
I1125 19:43:48.610954 26345 net.cpp:150] Setting up inception_5a/1x1
I1125 19:43:48.610972 26345 net.cpp:157] Top shape: 64 256 7 7 (802816)
I1125 19:43:48.610977 26345 net.cpp:165] Memory required for data: 3448808720
I1125 19:43:48.610987 26345 layer_factory.hpp:76] Creating layer inception_5a/relu_1x1
I1125 19:43:48.610997 26345 net.cpp:106] Creating Layer inception_5a/relu_1x1
I1125 19:43:48.611004 26345 net.cpp:454] inception_5a/relu_1x1 <- inception_5a/1x1
I1125 19:43:48.611016 26345 net.cpp:397] inception_5a/relu_1x1 -> inception_5a/1x1 (in-place)
I1125 19:43:48.611305 26345 net.cpp:150] Setting up inception_5a/relu_1x1
I1125 19:43:48.611322 26345 net.cpp:157] Top shape: 64 256 7 7 (802816)
I1125 19:43:48.611327 26345 net.cpp:165] Memory required for data: 3452019984
I1125 19:43:48.611333 26345 layer_factory.hpp:76] Creating layer inception_5a/3x3_reduce
I1125 19:43:48.611345 26345 net.cpp:106] Creating Layer inception_5a/3x3_reduce
I1125 19:43:48.611351 26345 net.cpp:454] inception_5a/3x3_reduce <- pool4/3x3_s2_pool4/3x3_s2_0_split_1
I1125 19:43:48.611361 26345 net.cpp:411] inception_5a/3x3_reduce -> inception_5a/3x3_reduce
I1125 19:43:48.614996 26345 net.cpp:150] Setting up inception_5a/3x3_reduce
I1125 19:43:48.615026 26345 net.cpp:157] Top shape: 64 160 7 7 (501760)
I1125 19:43:48.615033 26345 net.cpp:165] Memory required for data: 3454027024
I1125 19:43:48.615043 26345 layer_factory.hpp:76] Creating layer inception_5a/relu_3x3_reduce
I1125 19:43:48.615052 26345 net.cpp:106] Creating Layer inception_5a/relu_3x3_reduce
I1125 19:43:48.615058 26345 net.cpp:454] inception_5a/relu_3x3_reduce <- inception_5a/3x3_reduce
I1125 19:43:48.615067 26345 net.cpp:397] inception_5a/relu_3x3_reduce -> inception_5a/3x3_reduce (in-place)
I1125 19:43:48.615536 26345 net.cpp:150] Setting up inception_5a/relu_3x3_reduce
I1125 19:43:48.615556 26345 net.cpp:157] Top shape: 64 160 7 7 (501760)
I1125 19:43:48.615561 26345 net.cpp:165] Memory required for data: 3456034064
I1125 19:43:48.615566 26345 layer_factory.hpp:76] Creating layer inception_5a/3x3
I1125 19:43:48.615579 26345 net.cpp:106] Creating Layer inception_5a/3x3
I1125 19:43:48.615586 26345 net.cpp:454] inception_5a/3x3 <- inception_5a/3x3_reduce
I1125 19:43:48.615597 26345 net.cpp:411] inception_5a/3x3 -> inception_5a/3x3
I1125 19:43:48.622072 26345 net.cpp:150] Setting up inception_5a/3x3
I1125 19:43:48.622097 26345 net.cpp:157] Top shape: 64 320 7 7 (1003520)
I1125 19:43:48.622104 26345 net.cpp:165] Memory required for data: 3460048144
I1125 19:43:48.622115 26345 layer_factory.hpp:76] Creating layer inception_5a/relu_3x3
I1125 19:43:48.622129 26345 net.cpp:106] Creating Layer inception_5a/relu_3x3
I1125 19:43:48.622139 26345 net.cpp:454] inception_5a/relu_3x3 <- inception_5a/3x3
I1125 19:43:48.622150 26345 net.cpp:397] inception_5a/relu_3x3 -> inception_5a/3x3 (in-place)
I1125 19:43:48.622428 26345 net.cpp:150] Setting up inception_5a/relu_3x3
I1125 19:43:48.622444 26345 net.cpp:157] Top shape: 64 320 7 7 (1003520)
I1125 19:43:48.622452 26345 net.cpp:165] Memory required for data: 3464062224
I1125 19:43:48.622457 26345 layer_factory.hpp:76] Creating layer inception_5a/5x5_reduce
I1125 19:43:48.622472 26345 net.cpp:106] Creating Layer inception_5a/5x5_reduce
I1125 19:43:48.622479 26345 net.cpp:454] inception_5a/5x5_reduce <- pool4/3x3_s2_pool4/3x3_s2_0_split_2
I1125 19:43:48.622496 26345 net.cpp:411] inception_5a/5x5_reduce -> inception_5a/5x5_reduce
I1125 19:43:48.625465 26345 net.cpp:150] Setting up inception_5a/5x5_reduce
I1125 19:43:48.625486 26345 net.cpp:157] Top shape: 64 32 7 7 (100352)
I1125 19:43:48.625493 26345 net.cpp:165] Memory required for data: 3464463632
I1125 19:43:48.625502 26345 layer_factory.hpp:76] Creating layer inception_5a/relu_5x5_reduce
I1125 19:43:48.625515 26345 net.cpp:106] Creating Layer inception_5a/relu_5x5_reduce
I1125 19:43:48.625524 26345 net.cpp:454] inception_5a/relu_5x5_reduce <- inception_5a/5x5_reduce
I1125 19:43:48.625536 26345 net.cpp:397] inception_5a/relu_5x5_reduce -> inception_5a/5x5_reduce (in-place)
I1125 19:43:48.625809 26345 net.cpp:150] Setting up inception_5a/relu_5x5_reduce
I1125 19:43:48.625849 26345 net.cpp:157] Top shape: 64 32 7 7 (100352)
I1125 19:43:48.625859 26345 net.cpp:165] Memory required for data: 3464865040
I1125 19:43:48.625866 26345 layer_factory.hpp:76] Creating layer inception_5a/5x5
I1125 19:43:48.625881 26345 net.cpp:106] Creating Layer inception_5a/5x5
I1125 19:43:48.625888 26345 net.cpp:454] inception_5a/5x5 <- inception_5a/5x5_reduce
I1125 19:43:48.625900 26345 net.cpp:411] inception_5a/5x5 -> inception_5a/5x5
I1125 19:43:48.628756 26345 net.cpp:150] Setting up inception_5a/5x5
I1125 19:43:48.628777 26345 net.cpp:157] Top shape: 64 128 7 7 (401408)
I1125 19:43:48.628784 26345 net.cpp:165] Memory required for data: 3466470672
I1125 19:43:48.628794 26345 layer_factory.hpp:76] Creating layer inception_5a/relu_5x5
I1125 19:43:48.628804 26345 net.cpp:106] Creating Layer inception_5a/relu_5x5
I1125 19:43:48.628811 26345 net.cpp:454] inception_5a/relu_5x5 <- inception_5a/5x5
I1125 19:43:48.628819 26345 net.cpp:397] inception_5a/relu_5x5 -> inception_5a/5x5 (in-place)
I1125 19:43:48.629297 26345 net.cpp:150] Setting up inception_5a/relu_5x5
I1125 19:43:48.629314 26345 net.cpp:157] Top shape: 64 128 7 7 (401408)
I1125 19:43:48.629322 26345 net.cpp:165] Memory required for data: 3468076304
I1125 19:43:48.629328 26345 layer_factory.hpp:76] Creating layer inception_5a/pool
I1125 19:43:48.629338 26345 net.cpp:106] Creating Layer inception_5a/pool
I1125 19:43:48.629345 26345 net.cpp:454] inception_5a/pool <- pool4/3x3_s2_pool4/3x3_s2_0_split_3
I1125 19:43:48.629364 26345 net.cpp:411] inception_5a/pool -> inception_5a/pool
I1125 19:43:48.629762 26345 net.cpp:150] Setting up inception_5a/pool
I1125 19:43:48.629782 26345 net.cpp:157] Top shape: 64 832 7 7 (2609152)
I1125 19:43:48.629791 26345 net.cpp:165] Memory required for data: 3478512912
I1125 19:43:48.629796 26345 layer_factory.hpp:76] Creating layer inception_5a/pool_proj
I1125 19:43:48.629809 26345 net.cpp:106] Creating Layer inception_5a/pool_proj
I1125 19:43:48.629815 26345 net.cpp:454] inception_5a/pool_proj <- inception_5a/pool
I1125 19:43:48.629827 26345 net.cpp:411] inception_5a/pool_proj -> inception_5a/pool_proj
I1125 19:43:48.633136 26345 net.cpp:150] Setting up inception_5a/pool_proj
I1125 19:43:48.633178 26345 net.cpp:157] Top shape: 64 128 7 7 (401408)
I1125 19:43:48.633189 26345 net.cpp:165] Memory required for data: 3480118544
I1125 19:43:48.633200 26345 layer_factory.hpp:76] Creating layer inception_5a/relu_pool_proj
I1125 19:43:48.633209 26345 net.cpp:106] Creating Layer inception_5a/relu_pool_proj
I1125 19:43:48.633219 26345 net.cpp:454] inception_5a/relu_pool_proj <- inception_5a/pool_proj
I1125 19:43:48.633227 26345 net.cpp:397] inception_5a/relu_pool_proj -> inception_5a/pool_proj (in-place)
I1125 19:43:48.633695 26345 net.cpp:150] Setting up inception_5a/relu_pool_proj
I1125 19:43:48.633731 26345 net.cpp:157] Top shape: 64 128 7 7 (401408)
I1125 19:43:48.633741 26345 net.cpp:165] Memory required for data: 3481724176
I1125 19:43:48.633747 26345 layer_factory.hpp:76] Creating layer inception_5a/output
I1125 19:43:48.633759 26345 net.cpp:106] Creating Layer inception_5a/output
I1125 19:43:48.633764 26345 net.cpp:454] inception_5a/output <- inception_5a/1x1
I1125 19:43:48.633772 26345 net.cpp:454] inception_5a/output <- inception_5a/3x3
I1125 19:43:48.633780 26345 net.cpp:454] inception_5a/output <- inception_5a/5x5
I1125 19:43:48.633785 26345 net.cpp:454] inception_5a/output <- inception_5a/pool_proj
I1125 19:43:48.633793 26345 net.cpp:411] inception_5a/output -> inception_5a/output
I1125 19:43:48.633859 26345 net.cpp:150] Setting up inception_5a/output
I1125 19:43:48.633873 26345 net.cpp:157] Top shape: 64 832 7 7 (2609152)
I1125 19:43:48.633878 26345 net.cpp:165] Memory required for data: 3492160784
I1125 19:43:48.633883 26345 layer_factory.hpp:76] Creating layer inception_5a/output_inception_5a/output_0_split
I1125 19:43:48.633898 26345 net.cpp:106] Creating Layer inception_5a/output_inception_5a/output_0_split
I1125 19:43:48.633905 26345 net.cpp:454] inception_5a/output_inception_5a/output_0_split <- inception_5a/output
I1125 19:43:48.633915 26345 net.cpp:411] inception_5a/output_inception_5a/output_0_split -> inception_5a/output_inception_5a/output_0_split_0
I1125 19:43:48.633925 26345 net.cpp:411] inception_5a/output_inception_5a/output_0_split -> inception_5a/output_inception_5a/output_0_split_1
I1125 19:43:48.633935 26345 net.cpp:411] inception_5a/output_inception_5a/output_0_split -> inception_5a/output_inception_5a/output_0_split_2
I1125 19:43:48.633944 26345 net.cpp:411] inception_5a/output_inception_5a/output_0_split -> inception_5a/output_inception_5a/output_0_split_3
I1125 19:43:48.634109 26345 net.cpp:150] Setting up inception_5a/output_inception_5a/output_0_split
I1125 19:43:48.634124 26345 net.cpp:157] Top shape: 64 832 7 7 (2609152)
I1125 19:43:48.634135 26345 net.cpp:157] Top shape: 64 832 7 7 (2609152)
I1125 19:43:48.634142 26345 net.cpp:157] Top shape: 64 832 7 7 (2609152)
I1125 19:43:48.634148 26345 net.cpp:157] Top shape: 64 832 7 7 (2609152)
I1125 19:43:48.634153 26345 net.cpp:165] Memory required for data: 3533907216
I1125 19:43:48.634160 26345 layer_factory.hpp:76] Creating layer inception_5b/1x1
I1125 19:43:48.634171 26345 net.cpp:106] Creating Layer inception_5b/1x1
I1125 19:43:48.634179 26345 net.cpp:454] inception_5b/1x1 <- inception_5a/output_inception_5a/output_0_split_0
I1125 19:43:48.634191 26345 net.cpp:411] inception_5b/1x1 -> inception_5b/1x1
I1125 19:43:48.639109 26345 net.cpp:150] Setting up inception_5b/1x1
I1125 19:43:48.639133 26345 net.cpp:157] Top shape: 64 384 7 7 (1204224)
I1125 19:43:48.639140 26345 net.cpp:165] Memory required for data: 3538724112
I1125 19:43:48.639150 26345 layer_factory.hpp:76] Creating layer inception_5b/relu_1x1
I1125 19:43:48.639163 26345 net.cpp:106] Creating Layer inception_5b/relu_1x1
I1125 19:43:48.639171 26345 net.cpp:454] inception_5b/relu_1x1 <- inception_5b/1x1
I1125 19:43:48.639179 26345 net.cpp:397] inception_5b/relu_1x1 -> inception_5b/1x1 (in-place)
I1125 19:43:48.639652 26345 net.cpp:150] Setting up inception_5b/relu_1x1
I1125 19:43:48.639669 26345 net.cpp:157] Top shape: 64 384 7 7 (1204224)
I1125 19:43:48.639675 26345 net.cpp:165] Memory required for data: 3543541008
I1125 19:43:48.639681 26345 layer_factory.hpp:76] Creating layer inception_5b/3x3_reduce
I1125 19:43:48.639695 26345 net.cpp:106] Creating Layer inception_5b/3x3_reduce
I1125 19:43:48.639703 26345 net.cpp:454] inception_5b/3x3_reduce <- inception_5a/output_inception_5a/output_0_split_1
I1125 19:43:48.639714 26345 net.cpp:411] inception_5b/3x3_reduce -> inception_5b/3x3_reduce
I1125 19:43:48.643523 26345 net.cpp:150] Setting up inception_5b/3x3_reduce
I1125 19:43:48.643545 26345 net.cpp:157] Top shape: 64 192 7 7 (602112)
I1125 19:43:48.643551 26345 net.cpp:165] Memory required for data: 3545949456
I1125 19:43:48.643561 26345 layer_factory.hpp:76] Creating layer inception_5b/relu_3x3_reduce
I1125 19:43:48.643575 26345 net.cpp:106] Creating Layer inception_5b/relu_3x3_reduce
I1125 19:43:48.643584 26345 net.cpp:454] inception_5b/relu_3x3_reduce <- inception_5b/3x3_reduce
I1125 19:43:48.643591 26345 net.cpp:397] inception_5b/relu_3x3_reduce -> inception_5b/3x3_reduce (in-place)
I1125 19:43:48.643870 26345 net.cpp:150] Setting up inception_5b/relu_3x3_reduce
I1125 19:43:48.643887 26345 net.cpp:157] Top shape: 64 192 7 7 (602112)
I1125 19:43:48.643893 26345 net.cpp:165] Memory required for data: 3548357904
I1125 19:43:48.643898 26345 layer_factory.hpp:76] Creating layer inception_5b/3x3
I1125 19:43:48.643910 26345 net.cpp:106] Creating Layer inception_5b/3x3
I1125 19:43:48.643916 26345 net.cpp:454] inception_5b/3x3 <- inception_5b/3x3_reduce
I1125 19:43:48.643926 26345 net.cpp:411] inception_5b/3x3 -> inception_5b/3x3
I1125 19:43:48.652565 26345 net.cpp:150] Setting up inception_5b/3x3
I1125 19:43:48.652593 26345 net.cpp:157] Top shape: 64 384 7 7 (1204224)
I1125 19:43:48.652601 26345 net.cpp:165] Memory required for data: 3553174800
I1125 19:43:48.652612 26345 layer_factory.hpp:76] Creating layer inception_5b/relu_3x3
I1125 19:43:48.652628 26345 net.cpp:106] Creating Layer inception_5b/relu_3x3
I1125 19:43:48.652639 26345 net.cpp:454] inception_5b/relu_3x3 <- inception_5b/3x3
I1125 19:43:48.652652 26345 net.cpp:397] inception_5b/relu_3x3 -> inception_5b/3x3 (in-place)
I1125 19:43:48.653128 26345 net.cpp:150] Setting up inception_5b/relu_3x3
I1125 19:43:48.653146 26345 net.cpp:157] Top shape: 64 384 7 7 (1204224)
I1125 19:43:48.653153 26345 net.cpp:165] Memory required for data: 3557991696
I1125 19:43:48.653158 26345 layer_factory.hpp:76] Creating layer inception_5b/5x5_reduce
I1125 19:43:48.653174 26345 net.cpp:106] Creating Layer inception_5b/5x5_reduce
I1125 19:43:48.653185 26345 net.cpp:454] inception_5b/5x5_reduce <- inception_5a/output_inception_5a/output_0_split_2
I1125 19:43:48.653201 26345 net.cpp:411] inception_5b/5x5_reduce -> inception_5b/5x5_reduce
I1125 19:43:48.655681 26345 net.cpp:150] Setting up inception_5b/5x5_reduce
I1125 19:43:48.655702 26345 net.cpp:157] Top shape: 64 48 7 7 (150528)
I1125 19:43:48.655709 26345 net.cpp:165] Memory required for data: 3558593808
I1125 19:43:48.655719 26345 layer_factory.hpp:76] Creating layer inception_5b/relu_5x5_reduce
I1125 19:43:48.655730 26345 net.cpp:106] Creating Layer inception_5b/relu_5x5_reduce
I1125 19:43:48.655736 26345 net.cpp:454] inception_5b/relu_5x5_reduce <- inception_5b/5x5_reduce
I1125 19:43:48.655745 26345 net.cpp:397] inception_5b/relu_5x5_reduce -> inception_5b/5x5_reduce (in-place)
I1125 19:43:48.656224 26345 net.cpp:150] Setting up inception_5b/relu_5x5_reduce
I1125 19:43:48.656244 26345 net.cpp:157] Top shape: 64 48 7 7 (150528)
I1125 19:43:48.656249 26345 net.cpp:165] Memory required for data: 3559195920
I1125 19:43:48.656255 26345 layer_factory.hpp:76] Creating layer inception_5b/5x5
I1125 19:43:48.656270 26345 net.cpp:106] Creating Layer inception_5b/5x5
I1125 19:43:48.656275 26345 net.cpp:454] inception_5b/5x5 <- inception_5b/5x5_reduce
I1125 19:43:48.656286 26345 net.cpp:411] inception_5b/5x5 -> inception_5b/5x5
I1125 19:43:48.659070 26345 net.cpp:150] Setting up inception_5b/5x5
I1125 19:43:48.659088 26345 net.cpp:157] Top shape: 64 128 7 7 (401408)
I1125 19:43:48.659096 26345 net.cpp:165] Memory required for data: 3560801552
I1125 19:43:48.659106 26345 layer_factory.hpp:76] Creating layer inception_5b/relu_5x5
I1125 19:43:48.659116 26345 net.cpp:106] Creating Layer inception_5b/relu_5x5
I1125 19:43:48.659123 26345 net.cpp:454] inception_5b/relu_5x5 <- inception_5b/5x5
I1125 19:43:48.659133 26345 net.cpp:397] inception_5b/relu_5x5 -> inception_5b/5x5 (in-place)
I1125 19:43:48.659435 26345 net.cpp:150] Setting up inception_5b/relu_5x5
I1125 19:43:48.659451 26345 net.cpp:157] Top shape: 64 128 7 7 (401408)
I1125 19:43:48.659458 26345 net.cpp:165] Memory required for data: 3562407184
I1125 19:43:48.659464 26345 layer_factory.hpp:76] Creating layer inception_5b/pool
I1125 19:43:48.659476 26345 net.cpp:106] Creating Layer inception_5b/pool
I1125 19:43:48.659483 26345 net.cpp:454] inception_5b/pool <- inception_5a/output_inception_5a/output_0_split_3
I1125 19:43:48.659497 26345 net.cpp:411] inception_5b/pool -> inception_5b/pool
I1125 19:43:48.660015 26345 net.cpp:150] Setting up inception_5b/pool
I1125 19:43:48.660033 26345 net.cpp:157] Top shape: 64 832 7 7 (2609152)
I1125 19:43:48.660039 26345 net.cpp:165] Memory required for data: 3572843792
I1125 19:43:48.660044 26345 layer_factory.hpp:76] Creating layer inception_5b/pool_proj
I1125 19:43:48.660058 26345 net.cpp:106] Creating Layer inception_5b/pool_proj
I1125 19:43:48.660066 26345 net.cpp:454] inception_5b/pool_proj <- inception_5b/pool
I1125 19:43:48.660080 26345 net.cpp:411] inception_5b/pool_proj -> inception_5b/pool_proj
I1125 19:43:48.663138 26345 net.cpp:150] Setting up inception_5b/pool_proj
I1125 19:43:48.663163 26345 net.cpp:157] Top shape: 64 128 7 7 (401408)
I1125 19:43:48.663171 26345 net.cpp:165] Memory required for data: 3574449424
I1125 19:43:48.663182 26345 layer_factory.hpp:76] Creating layer inception_5b/relu_pool_proj
I1125 19:43:48.663198 26345 net.cpp:106] Creating Layer inception_5b/relu_pool_proj
I1125 19:43:48.663209 26345 net.cpp:454] inception_5b/relu_pool_proj <- inception_5b/pool_proj
I1125 19:43:48.663218 26345 net.cpp:397] inception_5b/relu_pool_proj -> inception_5b/pool_proj (in-place)
I1125 19:43:48.663508 26345 net.cpp:150] Setting up inception_5b/relu_pool_proj
I1125 19:43:48.663534 26345 net.cpp:157] Top shape: 64 128 7 7 (401408)
I1125 19:43:48.663542 26345 net.cpp:165] Memory required for data: 3576055056
I1125 19:43:48.663547 26345 layer_factory.hpp:76] Creating layer inception_5b/output
I1125 19:43:48.663557 26345 net.cpp:106] Creating Layer inception_5b/output
I1125 19:43:48.663563 26345 net.cpp:454] inception_5b/output <- inception_5b/1x1
I1125 19:43:48.663571 26345 net.cpp:454] inception_5b/output <- inception_5b/3x3
I1125 19:43:48.663579 26345 net.cpp:454] inception_5b/output <- inception_5b/5x5
I1125 19:43:48.663585 26345 net.cpp:454] inception_5b/output <- inception_5b/pool_proj
I1125 19:43:48.663594 26345 net.cpp:411] inception_5b/output -> inception_5b/output
I1125 19:43:48.663640 26345 net.cpp:150] Setting up inception_5b/output
I1125 19:43:48.663650 26345 net.cpp:157] Top shape: 64 1024 7 7 (3211264)
I1125 19:43:48.663657 26345 net.cpp:165] Memory required for data: 3588900112
I1125 19:43:48.663662 26345 layer_factory.hpp:76] Creating layer pool5/7x7_s1
I1125 19:43:48.663672 26345 net.cpp:106] Creating Layer pool5/7x7_s1
I1125 19:43:48.663679 26345 net.cpp:454] pool5/7x7_s1 <- inception_5b/output
I1125 19:43:48.663688 26345 net.cpp:411] pool5/7x7_s1 -> pool5/7x7_s1
I1125 19:43:48.664357 26345 net.cpp:150] Setting up pool5/7x7_s1
I1125 19:43:48.664397 26345 net.cpp:157] Top shape: 64 1024 1 1 (65536)
I1125 19:43:48.664418 26345 net.cpp:165] Memory required for data: 3589162256
I1125 19:43:48.664438 26345 layer_factory.hpp:76] Creating layer pool5/drop_7x7_s1
I1125 19:43:48.664469 26345 net.cpp:106] Creating Layer pool5/drop_7x7_s1
I1125 19:43:48.664492 26345 net.cpp:454] pool5/drop_7x7_s1 <- pool5/7x7_s1
I1125 19:43:48.664515 26345 net.cpp:397] pool5/drop_7x7_s1 -> pool5/7x7_s1 (in-place)
I1125 19:43:48.664571 26345 net.cpp:150] Setting up pool5/drop_7x7_s1
I1125 19:43:48.664597 26345 net.cpp:157] Top shape: 64 1024 1 1 (65536)
I1125 19:43:48.664613 26345 net.cpp:165] Memory required for data: 3589424400
I1125 19:43:48.664630 26345 layer_factory.hpp:76] Creating layer loss3/classifier-attribute
I1125 19:43:48.664651 26345 net.cpp:106] Creating Layer loss3/classifier-attribute
I1125 19:43:48.664670 26345 net.cpp:454] loss3/classifier-attribute <- pool5/7x7_s1
I1125 19:43:48.664692 26345 net.cpp:411] loss3/classifier-attribute -> loss3/classifier-attribute
I1125 19:43:48.664927 26345 net.cpp:150] Setting up loss3/classifier-attribute
I1125 19:43:48.664958 26345 net.cpp:157] Top shape: 64 5 (320)
I1125 19:43:48.664976 26345 net.cpp:165] Memory required for data: 3589425680
I1125 19:43:48.664999 26345 layer_factory.hpp:76] Creating layer loss3/classifier-attribute_loss3/classifier-attribute_0_split
I1125 19:43:48.665022 26345 net.cpp:106] Creating Layer loss3/classifier-attribute_loss3/classifier-attribute_0_split
I1125 19:43:48.665043 26345 net.cpp:454] loss3/classifier-attribute_loss3/classifier-attribute_0_split <- loss3/classifier-attribute
I1125 19:43:48.665067 26345 net.cpp:411] loss3/classifier-attribute_loss3/classifier-attribute_0_split -> loss3/classifier-attribute_loss3/classifier-attribute_0_split_0
I1125 19:43:48.665093 26345 net.cpp:411] loss3/classifier-attribute_loss3/classifier-attribute_0_split -> loss3/classifier-attribute_loss3/classifier-attribute_0_split_1
I1125 19:43:48.665164 26345 net.cpp:150] Setting up loss3/classifier-attribute_loss3/classifier-attribute_0_split
I1125 19:43:48.665189 26345 net.cpp:157] Top shape: 64 5 (320)
I1125 19:43:48.665207 26345 net.cpp:157] Top shape: 64 5 (320)
I1125 19:43:48.665223 26345 net.cpp:165] Memory required for data: 3589428240
I1125 19:43:48.665240 26345 layer_factory.hpp:76] Creating layer loss3/loss3
I1125 19:43:48.665259 26345 net.cpp:106] Creating Layer loss3/loss3
I1125 19:43:48.665277 26345 net.cpp:454] loss3/loss3 <- loss3/classifier-attribute_loss3/classifier-attribute_0_split_0
I1125 19:43:48.665295 26345 net.cpp:454] loss3/loss3 <- label_data_1_split_4
…
