…
I1125 18:53:57.629101 17955 net.cpp:322] The NetState phase (0) differed from the phase (1) specified by a rule in layer loss3/top-1
I1125 18:53:57.631219 17955 net.cpp:49] Initializing net from parameters: 
name: "GoogleNet-finetune-for-cigit"
state {
  phase: TRAIN
}
layer {
  name: "data"
  type: "ImageData"
  top: "data"
  top: "label"
  include {
    phase: TRAIN
  }
  transform_param {
    mirror: true
    crop_size: 224
    mean_value: 104
    mean_value: 117
    mean_value: 123
  }
  image_data_param {
    source: "pad_train.txt"
    batch_size: 64
    shuffle: true
    new_height: 256
    new_width: 256
  }
}
layer {
  name: "conv1/7x7_s2"
  type: "Convolution"
  bottom: "data"
  top: "conv1/7x7_s2"
  param {
    lr_mult: 1
    decay_mult: 1
  }
  param {
    lr_mult: 2
    decay_mult: 0
  }
  convolution_param {
    num_output: 64
    pad: 3
    kernel_size: 7
    stride: 2
    weight_filler {
      type: "xavier"
    }
    bias_filler {
      type: "constant"
      value: 0.2
    }
  }
}
layer {
  name: "conv1/relu_7x7"
  type: "ReLU"
  bottom: "conv1/7x7_s2"
  top: "conv1/7x7_s2"
}
layer {
  name: "pool1/3x3_s2"
  type: "Pooling"
  bottom: "conv1/7x7_s2"
  top: "pool1/3x3_s2"
  pooling_param {
    pool: MAX
    kernel_size: 3
    stride: 2
  }
}
layer {
  name: "pool1/norm1"
  type: "LRN"
  bottom: "pool1/3x3_s2"
  top: "pool1/norm1"
  lrn_param {
    local_size: 5
    alpha: 0.0001
    beta: 0.75
  }
}
layer {
  name: "conv2/3x3_reduce"
  type: "Convolution"
  bottom: "pool1/norm1"
  top: "conv2/3x3_reduce"
  param {
    lr_mult: 1
    decay_mult: 1
  }
  param {
    lr_mult: 2
    decay_mult: 0
  }
  convolution_param {
    num_output: 64
    kernel_size: 1
    weight_filler {
      type: "xavier"
    }
    bias_filler {
      type: "constant"
      value: 0.2
    }
  }
}
layer {
  name: "conv2/relu_3x3_reduce"
  type: "ReLU"
  bottom: "conv2/3x3_reduce"
  top: "conv2/3x3_reduce"
}
layer {
  name: "conv2/3x3"
  type: "Convolution"
  bottom: "conv2/3x3_reduce"
  top: "conv2/3x3"
  param {
    lr_mult: 1
    decay_mult: 1
  }
  param {
    lr_mult: 2
    decay_mult: 0
  }
  convolution_param {
    num_output: 192
    pad: 1
    kernel_size: 3
    weight_filler {
      type: "xavier"
    }
    bias_filler {
      type: "constant"
      value: 0.2
    }
  }
}
layer {
  name: "conv2/relu_3x3"
  type: "ReLU"
  bottom: "conv2/3x3"
  top: "conv2/3x3"
}
layer {
  name: "conv2/norm2"
  type: "LRN"
  bottom: "conv2/3x3"
  top: "conv2/norm2"
  lrn_param {
    local_size: 5
    alpha: 0.0001
    beta: 0.75
  }
}
layer {
  name: "pool2/3x3_s2"
  type: "Pooling"
  bottom: "conv2/norm2"
  top: "pool2/3x3_s2"
  pooling_param {
    pool: MAX
    kernel_size: 3
    stride: 2
  }
}
layer {
  name: "inception_3a/1x1"
  type: "Convolution"
  bottom: "pool2/3x3_s2"
  top: "inception_3a/1x1"
  param {
    lr_mult: 1
    decay_mult: 1
  }
  param {
    lr_mult: 2
    decay_mult: 0
  }
  convolution_param {
    num_output: 64
    kernel_size: 1
    weight_filler {
      type: "xavier"
    }
    bias_filler {
      type: "constant"
      value: 0.2
    }
  }
}
layer {
  name: "inception_3a/relu_1x1"
  type: "ReLU"
  bottom: "inception_3a/1x1"
  top: "inception_3a/1x1"
}
layer {
  name: "inception_3a/3x3_reduce"
  type: "Convolution"
  bottom: "pool2/3x3_s2"
  top: "inception_3a/3x3_reduce"
  param {
    lr_mult: 1
    decay_mult: 1
  }
  param {
    lr_mult: 2
    decay_mult: 0
  }
  convolution_param {
    num_output: 96
    kernel_size: 1
    weight_filler {
      type: "xavier"
    }
    bias_filler {
      type: "constant"
      value: 0.2
    }
  }
}
layer {
  name: "inception_3a/relu_3x3_reduce"
  type: "ReLU"
  bottom: "inception_3a/3x3_reduce"
  top: "inception_3a/3x3_reduce"
}
layer {
  name: "inception_3a/3x3"
  type: "Convolution"
  bottom: "inception_3a/3x3_reduce"
  top: "inception_3a/3x3"
  param {
    lr_mult: 1
    decay_mult: 1
  }
  param {
    lr_mult: 2
    decay_mult: 0
  }
  convolution_param {
    num_output: 128
    pad: 1
    kernel_size: 3
    weight_filler {
      type: "xavier"
    }
    bias_filler {
      type: "constant"
      value: 0.2
    }
  }
}
layer {
  name: "inception_3a/relu_3x3"
  type: "ReLU"
  bottom: "inception_3a/3x3"
  top: "inception_3a/3x3"
}
layer {
  name: "inception_3a/5x5_reduce"
  type: "Convolution"
  bottom: "pool2/3x3_s2"
  top: "inception_3a/5x5_reduce"
  param {
    lr_mult: 1
    decay_mult: 1
  }
  param {
    lr_mult: 2
    decay_mult: 0
  }
  convolution_param {
    num_output: 16
    kernel_size: 1
    weight_filler {
      type: "xavier"
    }
    bias_filler {
      type: "constant"
      value: 0.2
    }
  }
}
layer {
  name: "inception_3a/relu_5x5_reduce"
  type: "ReLU"
  bottom: "inception_3a/5x5_reduce"
  top: "inception_3a/5x5_reduce"
}
layer {
  name: "inception_3a/5x5"
  type: "Convolution"
  bottom: "inception_3a/5x5_reduce"
  top: "inception_3a/5x5"
  param {
    lr_mult: 1
    decay_mult: 1
  }
  param {
    lr_mult: 2
    decay_mult: 0
  }
  convolution_param {
    num_output: 32
    pad: 2
    kernel_size: 5
    weight_filler {
      type: "xavier"
    }
    bias_filler {
      type: "constant"
      value: 0.2
    }
  }
}
layer {
  name: "inception_3a/relu_5x5"
  type: "ReLU"
  bottom: "inception_3a/5x5"
  top: "inception_3a/5x5"
}
layer {
  name: "inception_3a/pool"
  type: "Pooling"
  bottom: "pool2/3x3_s2"
  top: "inception_3a/pool"
  pooling_param {
    pool: MAX
    kernel_size: 3
    stride: 1
    pad: 1
  }
}
layer {
  name: "inception_3a/pool_proj"
  type: "Convolution"
  bottom: "inception_3a/pool"
  top: "inception_3a/pool_proj"
  param {
    lr_mult: 1
    decay_mult: 1
  }
  param {
    lr_mult: 2
    decay_mult: 0
  }
  convolution_param {
    num_output: 32
    kernel_size: 1
    weight_filler {
      type: "xavier"
    }
    bias_filler {
      type: "constant"
      value: 0.2
    }
  }
}
layer {
  name: "inception_3a/relu_pool_proj"
  type: "ReLU"
  bottom: "inception_3a/pool_proj"
  top: "inception_3a/pool_proj"
}
layer {
  name: "inception_3a/output"
  type: "Concat"
  bottom: "inception_3a/1x1"
  bottom: "inception_3a/3x3"
  bottom: "inception_3a/5x5"
  bottom: "inception_3a/pool_proj"
  top: "inception_3a/output"
}
layer {
  name: "inception_3b/1x1"
  type: "Convolution"
  bottom: "inception_3a/output"
  top: "inception_3b/1x1"
  param {
    lr_mult: 1
    decay_mult: 1
  }
  param {
    lr_mult: 2
    decay_mult: 0
  }
  convolution_param {
    num_output: 128
    kernel_size: 1
    weight_filler {
      type: "xavier"
    }
    bias_filler {
      type: "constant"
      value: 0.2
    }
  }
}
layer {
  name: "inception_3b/relu_1x1"
  type: "ReLU"
  bottom: "inception_3b/1x1"
  top: "inception_3b/1x1"
}
layer {
  name: "inception_3b/3x3_reduce"
  type: "Convolution"
  bottom: "inception_3a/output"
  top: "inception_3b/3x3_reduce"
  param {
    lr_mult: 1
    decay_mult: 1
  }
  param {
    lr_mult: 2
    decay_mult: 0
  }
  convolution_param {
    num_output: 128
    kernel_size: 1
    weight_filler {
      type: "xavier"
    }
    bias_filler {
      type: "constant"
      value: 0.2
    }
  }
}
layer {
  name: "inception_3b/relu_3x3_reduce"
  type: "ReLU"
  bottom: "inception_3b/3x3_reduce"
  top: "inception_3b/3x3_reduce"
}
layer {
  name: "inception_3b/3x3"
  type: "Convolution"
  bottom: "inception_3b/3x3_reduce"
  top: "inception_3b/3x3"
  param {
    lr_mult: 1
    decay_mult: 1
  }
  param {
    lr_mult: 2
    decay_mult: 0
  }
  convolution_param {
    num_output: 192
    pad: 1
    kernel_size: 3
    weight_filler {
      type: "xavier"
    }
    bias_filler {
      type: "constant"
      value: 0.2
    }
  }
}
layer {
  name: "inception_3b/relu_3x3"
  type: "ReLU"
  bottom: "inception_3b/3x3"
  top: "inception_3b/3x3"
}
layer {
  name: "inception_3b/5x5_reduce"
  type: "Convolution"
  bottom: "inception_3a/output"
  top: "inception_3b/5x5_reduce"
  param {
    lr_mult: 1
    decay_mult: 1
  }
  param {
    lr_mult: 2
    decay_mult: 0
  }
  convolution_param {
    num_output: 32
    kernel_size: 1
    weight_filler {
      type: "xavier"
    }
    bias_filler {
      type: "constant"
      value: 0.2
    }
  }
}
layer {
  name: "inception_3b/relu_5x5_reduce"
  type: "ReLU"
  bottom: "inception_3b/5x5_reduce"
  top: "inception_3b/5x5_reduce"
}
layer {
  name: "inception_3b/5x5"
  type: "Convolution"
  bottom: "inception_3b/5x5_reduce"
  top: "inception_3b/5x5"
  param {
    lr_mult: 1
    decay_mult: 1
  }
  param {
    lr_mult: 2
    decay_mult: 0
  }
  convolution_param {
    num_output: 96
    pad: 2
    kernel_size: 5
    weight_filler {
      type: "xavier"
    }
    bias_filler {
      type: "constant"
      value: 0.2
    }
  }
}
layer {
  name: "inception_3b/relu_5x5"
  type: "ReLU"
  bottom: "inception_3b/5x5"
  top: "inception_3b/5x5"
}
layer {
  name: "inception_3b/pool"
  type: "Pooling"
  bottom: "inception_3a/output"
  top: "inception_3b/pool"
  pooling_param {
    pool: MAX
    kernel_size: 3
    stride: 1
    pad: 1
  }
}
layer {
  name: "inception_3b/pool_proj"
  type: "Convolution"
  bottom: "inception_3b/pool"
  top: "inception_3b/pool_proj"
  param {
    lr_mult: 1
    decay_mult: 1
  }
  param {
    lr_mult: 2
    decay_mult: 0
  }
  convolution_param {
    num_output: 64
    kernel_size: 1
    weight_filler {
      type: "xavier"
    }
    bias_filler {
      type: "constant"
      value: 0.2
    }
  }
}
layer {
  name: "inception_3b/relu_pool_proj"
  type: "ReLU"
  bottom: "inception_3b/pool_proj"
  top: "inception_3b/pool_proj"
}
layer {
  name: "inception_3b/output"
  type: "Concat"
  bottom: "inception_3b/1x1"
  bottom: "inception_3b/3x3"
  bottom: "inception_3b/5x5"
  bottom: "inception_3b/pool_proj"
  top: "inception_3b/output"
}
layer {
  name: "pool3/3x3_s2"
  type: "Pooling"
  bottom: "inception_3b/output"
  top: "pool3/3x3_s2"
  pooling_param {
    pool: MAX
    kernel_size: 3
    stride: 2
  }
}
layer {
  name: "inception_4a/1x1"
  type: "Convolution"
  bottom: "pool3/3x3_s2"
  top: "inception_4a/1x1"
  param {
    lr_mult: 1
    decay_mult: 1
  }
  param {
    lr_mult: 2
    decay_mult: 0
  }
  convolution_param {
    num_output: 192
    kernel_size: 1
    weight_filler {
      type: "xavier"
    }
    bias_filler {
      type: "constant"
      value: 0.2
    }
  }
}
layer {
  name: "inception_4a/relu_1x1"
  type: "ReLU"
  bottom: "inception_4a/1x1"
  top: "inception_4a/1x1"
}
layer {
  name: "inception_4a/3x3_reduce"
  type: "Convolution"
  bottom: "pool3/3x3_s2"
  top: "inception_4a/3x3_reduce"
  param {
    lr_mult: 1
    decay_mult: 1
  }
  param {
    lr_mult: 2
    decay_mult: 0
  }
  convolution_param {
    num_output: 96
    kernel_size: 1
    weight_filler {
      type: "xavier"
    }
    bias_filler {
      type: "constant"
      value: 0.2
    }
  }
}
layer {
  name: "inception_4a/relu_3x3_reduce"
  type: "ReLU"
  bottom: "inception_4a/3x3_reduce"
  top: "inception_4a/3x3_reduce"
}
layer {
  name: "inception_4a/3x3"
  type: "Convolution"
  bottom: "inception_4a/3x3_reduce"
  top: "inception_4a/3x3"
  param {
    lr_mult: 1
    decay_mult: 1
  }
  param {
    lr_mult: 2
    decay_mult: 0
  }
  convolution_param {
    num_output: 208
    pad: 1
    kernel_size: 3
    weight_filler {
      type: "xavier"
    }
    bias_filler {
      type: "constant"
      value: 0.2
    }
  }
}
layer {
  name: "inception_4a/relu_3x3"
  type: "ReLU"
  bottom: "inception_4a/3x3"
  top: "inception_4a/3x3"
}
layer {
  name: "inception_4a/5x5_reduce"
  type: "Convolution"
  bottom: "pool3/3x3_s2"
  top: "inception_4a/5x5_reduce"
  param {
    lr_mult: 1
    decay_mult: 1
  }
  param {
    lr_mult: 2
    decay_mult: 0
  }
  convolution_param {
    num_output: 16
    kernel_size: 1
    weight_filler {
      type: "xavier"
    }
    bias_filler {
      type: "constant"
      value: 0.2
    }
  }
}
layer {
  name: "inception_4a/relu_5x5_reduce"
  type: "ReLU"
  bottom: "inception_4a/5x5_reduce"
  top: "inception_4a/5x5_reduce"
}
layer {
  name: "inception_4a/5x5"
  type: "Convolution"
  bottom: "inception_4a/5x5_reduce"
  top: "inception_4a/5x5"
  param {
    lr_mult: 1
    decay_mult: 1
  }
  param {
    lr_mult: 2
    decay_mult: 0
  }
  convolution_param {
    num_output: 48
    pad: 2
    kernel_size: 5
    weight_filler {
      type: "xavier"
    }
    bias_filler {
      type: "constant"
      value: 0.2
    }
  }
}
layer {
  name: "inception_4a/relu_5x5"
  type: "ReLU"
  bottom: "inception_4a/5x5"
  top: "inception_4a/5x5"
}
layer {
  name: "inception_4a/pool"
  type: "Pooling"
  bottom: "pool3/3x3_s2"
  top: "inception_4a/pool"
  pooling_param {
    pool: MAX
    kernel_size: 3
    stride: 1
    pad: 1
  }
}
layer {
  name: "inception_4a/pool_proj"
  type: "Convolution"
  bottom: "inception_4a/pool"
  top: "inception_4a/pool_proj"
  param {
    lr_mult: 1
    decay_mult: 1
  }
  param {
    lr_mult: 2
    decay_mult: 0
  }
  convolution_param {
    num_output: 64
    kernel_size: 1
    weight_filler {
      type: "xavier"
    }
    bias_filler {
      type: "constant"
      value: 0.2
    }
  }
}
layer {
  name: "inception_4a/relu_pool_proj"
  type: "ReLU"
  bottom: "inception_4a/pool_proj"
  top: "inception_4a/pool_proj"
}
layer {
  name: "inception_4a/output"
  type: "Concat"
  bottom: "inception_4a/1x1"
  bottom: "inception_4a/3x3"
  bottom: "inception_4a/5x5"
  bottom: "inception_4a/pool_proj"
  top: "inception_4a/output"
}
layer {
  name: "loss1/ave_pool"
  type: "Pooling"
  bottom: "inception_4a/output"
  top: "loss1/ave_pool"
  pooling_param {
    pool: AVE
    kernel_size: 5
    stride: 3
  }
}
layer {
  name: "loss1/conv"
  type: "Convolution"
  bottom: "loss1/ave_pool"
  top: "loss1/conv"
  param {
    lr_mult: 1
    decay_mult: 1
  }
  param {
    lr_mult: 2
    decay_mult: 0
  }
  convolution_param {
    num_output: 128
    kernel_size: 1
    weight_filler {
      type: "xavier"
    }
    bias_filler {
      type: "constant"
      value: 0.2
    }
  }
}
layer {
  name: "loss1/relu_conv"
  type: "ReLU"
  bottom: "loss1/conv"
  top: "loss1/conv"
}
layer {
  name: "loss1/fc"
  type: "InnerProduct"
  bottom: "loss1/conv"
  top: "loss1/fc"
  param {
    lr_mult: 1
    decay_mult: 1
  }
  param {
    lr_mult: 2
    decay_mult: 0
  }
  inner_product_param {
    num_output: 1024
    weight_filler {
      type: "xavier"
    }
    bias_filler {
      type: "constant"
      value: 0.2
    }
  }
}
layer {
  name: "loss1/relu_fc"
  type: "ReLU"
  bottom: "loss1/fc"
  top: "loss1/fc"
}
layer {
  name: "loss1/drop_fc"
  type: "Dropout"
  bottom: "loss1/fc"
  top: "loss1/fc"
  dropout_param {
    dropout_ratio: 0.7
  }
}
layer {
  name: "loss1/classifier-attribute"
  type: "InnerProduct"
  bottom: "loss1/fc"
  top: "loss1/classifier-attribute"
  param {
    lr_mult: 10
    decay_mult: 1
  }
  param {
    lr_mult: 20
    decay_mult: 0
  }
  inner_product_param {
    num_output: 11
    weight_filler {
      type: "xavier"
    }
    bias_filler {
      type: "constant"
      value: 0
    }
  }
}
layer {
  name: "loss1/loss"
  type: "SoftmaxWithLoss"
  bottom: "loss1/classifier-attribute"
  bottom: "label"
  top: "loss1/loss1"
  loss_weight: 0.3
}
layer {
  name: "inception_4b/1x1"
  type: "Convolution"
  bottom: "inception_4a/output"
  top: "inception_4b/1x1"
  param {
    lr_mult: 1
    decay_mult: 1
  }
  param {
    lr_mult: 2
    decay_mult: 0
  }
  convolution_param {
    num_output: 160
    kernel_size: 1
    weight_filler {
      type: "xavier"
    }
    bias_filler {
      type: "constant"
      value: 0.2
    }
  }
}
layer {
  name: "inception_4b/relu_1x1"
  type: "ReLU"
  bottom: "inception_4b/1x1"
  top: "inception_4b/1x1"
}
layer {
  name: "inception_4b/3x3_reduce"
  type: "Convolution"
  bottom: "inception_4a/output"
  top: "inception_4b/3x3_reduce"
  param {
    lr_mult: 1
    decay_mult: 1
  }
  param {
    lr_mult: 2
    decay_mult: 0
  }
  convolution_param {
    num_output: 112
    kernel_size: 1
    weight_filler {
      type: "xavier"
    }
    bias_filler {
      type: "constant"
      value: 0.2
    }
  }
}
layer {
  name: "inception_4b/relu_3x3_reduce"
  type: "ReLU"
  bottom: "inception_4b/3x3_reduce"
  top: "inception_4b/3x3_reduce"
}
layer {
  name: "inception_4b/3x3"
  type: "Convolution"
  bottom: "inception_4b/3x3_reduce"
  top: "inception_4b/3x3"
  param {
    lr_mult: 1
    decay_mult: 1
  }
  param {
    lr_mult: 2
    decay_mult: 0
  }
  convolution_param {
    num_output: 224
    pad: 1
    kernel_size: 3
    weight_filler {
      type: "xavier"
    }
    bias_filler {
      type: "constant"
      value: 0.2
    }
  }
}
layer {
  name: "inception_4b/relu_3x3"
  type: "ReLU"
  bottom: "inception_4b/3x3"
  top: "inception_4b/3x3"
}
layer {
  name: "inception_4b/5x5_reduce"
  type: "Convolution"
  bottom: "inception_4a/output"
  top: "inception_4b/5x5_reduce"
  param {
    lr_mult: 1
    decay_mult: 1
  }
  param {
    lr_mult: 2
    decay_mult: 0
  }
  convolution_param {
    num_output: 24
    kernel_size: 1
    weight_filler {
      type: "xavier"
    }
    bias_filler {
      type: "constant"
      value: 0.2
    }
  }
}
layer {
  name: "inception_4b/relu_5x5_reduce"
  type: "ReLU"
  bottom: "inception_4b/5x5_reduce"
  top: "inception_4b/5x5_reduce"
}
layer {
  name: "inception_4b/5x5"
  type: "Convolution"
  bottom: "inception_4b/5x5_reduce"
  top: "inception_4b/5x5"
  param {
    lr_mult: 1
    decay_mult: 1
  }
  param {
    lr_mult: 2
    decay_mult: 0
  }
  convolution_param {
    num_output: 64
    pad: 2
    kernel_size: 5
    weight_filler {
      type: "xavier"
    }
    bias_filler {
      type: "constant"
      value: 0.2
    }
  }
}
layer {
  name: "inception_4b/relu_5x5"
  type: "ReLU"
  bottom: "inception_4b/5x5"
  top: "inception_4b/5x5"
}
layer {
  name: "inception_4b/pool"
  type: "Pooling"
  bottom: "inception_4a/output"
  top: "inception_4b/pool"
  pooling_param {
    pool: MAX
    kernel_size: 3
    stride: 1
    pad: 1
  }
}
layer {
  name: "inception_4b/pool_proj"
  type: "Convolution"
  bottom: "inception_4b/pool"
  top: "inception_4b/pool_proj"
  param {
    lr_mult: 1
    decay_mult: 1
  }
  param {
    lr_mult: 2
    decay_mult: 0
  }
  convolution_param {
    num_output: 64
    kernel_size: 1
    weight_filler {
      type: "xavier"
    }
    bias_filler {
      type: "constant"
      value: 0.2
    }
  }
}
layer {
  name: "inception_4b/relu_pool_proj"
  type: "ReLU"
  bottom: "inception_4b/pool_proj"
  top: "inception_4b/pool_proj"
}
layer {
  name: "inception_4b/output"
  type: "Concat"
  bottom: "inception_4b/1x1"
  bottom: "inception_4b/3x3"
  bottom: "inception_4b/5x5"
  bottom: "inception_4b/pool_proj"
  top: "inception_4b/output"
}
layer {
  name: "inception_4c/1x1"
  type: "Convolution"
  bottom: "inception_4b/output"
  top: "inception_4c/1x1"
  param {
    lr_mult: 1
    decay_mult: 1
  }
  param {
    lr_mult: 2
    decay_mult: 0
  }
  convolution_param {
    num_output: 128
    kernel_size: 1
    weight_filler {
      type: "xavier"
    }
    bias_filler {
      type: "constant"
      value: 0.2
    }
  }
}
layer {
  name: "inception_4c/relu_1x1"
  type: "ReLU"
  bottom: "inception_4c/1x1"
  top: "inception_4c/1x1"
}
layer {
  name: "inception_4c/3x3_reduce"
  type: "Convolution"
  bottom: "inception_4b/output"
  top: "inception_4c/3x3_reduce"
  param {
    lr_mult: 1
    decay_mult: 1
  }
  param {
    lr_mult: 2
    decay_mult: 0
  }
  convolution_param {
    num_output: 128
    kernel_size: 1
    weight_filler {
      type: "xavier"
    }
    bias_filler {
      type: "constant"
      value: 0.2
    }
  }
}
layer {
  name: "inception_4c/relu_3x3_reduce"
  type: "ReLU"
  bottom: "inception_4c/3x3_reduce"
  top: "inception_4c/3x3_reduce"
}
layer {
  name: "inception_4c/3x3"
  type: "Convolution"
  bottom: "inception_4c/3x3_reduce"
  top: "inception_4c/3x3"
  param {
    lr_mult: 1
    decay_mult: 1
  }
  param {
    lr_mult: 2
    decay_mult: 0
  }
  convolution_param {
    num_output: 256
    pad: 1
    kernel_size: 3
    weight_filler {
      type: "xavier"
    }
    bias_filler {
      type: "constant"
      value: 0.2
    }
  }
}
layer {
  name: "inception_4c/relu_3x3"
  type: "ReLU"
  bottom: "inception_4c/3x3"
  top: "inception_4c/3x3"
}
layer {
  name: "inception_4c/5x5_reduce"
  type: "Convolution"
  bottom: "inception_4b/output"
  top: "inception_4c/5x5_reduce"
  param {
    lr_mult: 1
    decay_mult: 1
  }
  param {
    lr_mult: 2
    decay_mult: 0
  }
  convolution_param {
    num_output: 24
    kernel_size: 1
    weight_filler {
      type: "xavier"
    }
    bias_filler {
      type: "constant"
      value: 0.2
    }
  }
}
layer {
  name: "inception_4c/relu_5x5_reduce"
  type: "ReLU"
  bottom: "inception_4c/5x5_reduce"
  top: "inception_4c/5x5_reduce"
}
layer {
  name: "inception_4c/5x5"
  type: "Convolution"
  bottom: "inception_4c/5x5_reduce"
  top: "inception_4c/5x5"
  param {
    lr_mult: 1
    decay_mult: 1
  }
  param {
    lr_mult: 2
    decay_mult: 0
  }
  convolution_param {
    num_output: 64
    pad: 2
    kernel_size: 5
    weight_filler {
      type: "xavier"
    }
    bias_filler {
      type: "constant"
      value: 0.2
    }
  }
}
layer {
  name: "inception_4c/relu_5x5"
  type: "ReLU"
  bottom: "inception_4c/5x5"
  top: "inception_4c/5x5"
}
layer {
  name: "inception_4c/pool"
  type: "Pooling"
  bottom: "inception_4b/output"
  top: "inception_4c/pool"
  pooling_param {
    pool: MAX
    kernel_size: 3
    stride: 1
    pad: 1
  }
}
layer {
  name: "inception_4c/pool_proj"
  type: "Convolution"
  bottom: "inception_4c/pool"
  top: "inception_4c/pool_proj"
  param {
    lr_mult: 1
    decay_mult: 1
  }
  param {
    lr_mult: 2
    decay_mult: 0
  }
  convolution_param {
    num_output: 64
    kernel_size: 1
    weight_filler {
      type: "xavier"
    }
    bias_filler {
      type: "constant"
      value: 0.2
    }
  }
}
layer {
  name: "inception_4c/relu_pool_proj"
  type: "ReLU"
  bottom: "inception_4c/pool_proj"
  top: "inception_4c/pool_proj"
}
layer {
  name: "inception_4c/output"
  type: "Concat"
  bottom: "inception_4c/1x1"
  bottom: "inception_4c/3x3"
  bottom: "inception_4c/5x5"
  bottom: "inception_4c/pool_proj"
  top: "inception_4c/output"
}
layer {
  name: "inception_4d/1x1"
  type: "Convolution"
  bottom: "inception_4c/output"
  top: "inception_4d/1x1"
  param {
    lr_mult: 1
    decay_mult: 1
  }
  param {
    lr_mult: 2
    decay_mult: 0
  }
  convolution_param {
    num_output: 112
    kernel_size: 1
    weight_filler {
      type: "xavier"
    }
    bias_filler {
      type: "constant"
      value: 0.2
    }
  }
}
layer {
  name: "inception_4d/relu_1x1"
  type: "ReLU"
  bottom: "inception_4d/1x1"
  top: "inception_4d/1x1"
}
layer {
  name: "inception_4d/3x3_reduce"
  type: "Convolution"
  bottom: "inception_4c/output"
  top: "inception_4d/3x3_reduce"
  param {
    lr_mult: 1
    decay_mult: 1
  }
  param {
    lr_mult: 2
    decay_mult: 0
  }
  convolution_param {
    num_output: 144
    kernel_size: 1
    weight_filler {
      type: "xavier"
    }
    bias_filler {
      type: "constant"
      value: 0.2
    }
  }
}
layer {
  name: "inception_4d/relu_3x3_reduce"
  type: "ReLU"
  bottom: "inception_4d/3x3_reduce"
  top: "inception_4d/3x3_reduce"
}
layer {
  name: "inception_4d/3x3"
  type: "Convolution"
  bottom: "inception_4d/3x3_reduce"
  top: "inception_4d/3x3"
  param {
    lr_mult: 1
    decay_mult: 1
  }
  param {
    lr_mult: 2
    decay_mult: 0
  }
  convolution_param {
    num_output: 288
    pad: 1
    kernel_size: 3
    weight_filler {
      type: "xavier"
    }
    bias_filler {
      type: "constant"
      value: 0.2
    }
  }
}
layer {
  name: "inception_4d/relu_3x3"
  type: "ReLU"
  bottom: "inception_4d/3x3"
  top: "inception_4d/3x3"
}
layer {
  name: "inception_4d/5x5_reduce"
  type: "Convolution"
  bottom: "inception_4c/output"
  top: "inception_4d/5x5_reduce"
  param {
    lr_mult: 1
    decay_mult: 1
  }
  param {
    lr_mult: 2
    decay_mult: 0
  }
  convolution_param {
    num_output: 32
    kernel_size: 1
    weight_filler {
      type: "xavier"
    }
    bias_filler {
      type: "constant"
      value: 0.2
    }
  }
}
layer {
  name: "inception_4d/relu_5x5_reduce"
  type: "ReLU"
  bottom: "inception_4d/5x5_reduce"
  top: "inception_4d/5x5_reduce"
}
layer {
  name: "inception_4d/5x5"
  type: "Convolution"
  bottom: "inception_4d/5x5_reduce"
  top: "inception_4d/5x5"
  param {
    lr_mult: 1
    decay_mult: 1
  }
  param {
    lr_mult: 2
    decay_mult: 0
  }
  convolution_param {
    num_output: 64
    pad: 2
    kernel_size: 5
    weight_filler {
      type: "xavier"
    }
    bias_filler {
      type: "constant"
      value: 0.2
    }
  }
}
layer {
  name: "inception_4d/relu_5x5"
  type: "ReLU"
  bottom: "inception_4d/5x5"
  top: "inception_4d/5x5"
}
layer {
  name: "inception_4d/pool"
  type: "Pooling"
  bottom: "inception_4c/output"
  top: "inception_4d/pool"
  pooling_param {
    pool: MAX
    kernel_size: 3
    stride: 1
    pad: 1
  }
}
layer {
  name: "inception_4d/pool_proj"
  type: "Convolution"
  bottom: "inception_4d/pool"
  top: "inception_4d/pool_proj"
  param {
    lr_mult: 1
    decay_mult: 1
  }
  param {
    lr_mult: 2
    decay_mult: 0
  }
  convolution_param {
    num_output: 64
    kernel_size: 1
    weight_filler {
      type: "xavier"
    }
    bias_filler {
      type: "constant"
      value: 0.2
    }
  }
}
layer {
  name: "inception_4d/relu_pool_proj"
  type: "ReLU"
  bottom: "inception_4d/pool_proj"
  top: "inception_4d/pool_proj"
}
layer {
  name: "inception_4d/output"
  type: "Concat"
  bottom: "inception_4d/1x1"
  bottom: "inception_4d/3x3"
  bottom: "inception_4d/5x5"
  bottom: "inception_4d/pool_proj"
  top: "inception_4d/output"
}
layer {
  name: "loss2/ave_pool"
  type: "Pooling"
  bottom: "inception_4d/output"
  top: "loss2/ave_pool"
  pooling_param {
    pool: AVE
    kernel_size: 5
    stride: 3
  }
}
layer {
  name: "loss2/conv"
  type: "Convolution"
  bottom: "loss2/ave_pool"
  top: "loss2/conv"
  param {
    lr_mult: 1
    decay_mult: 1
  }
  param {
    lr_mult: 2
    decay_mult: 0
  }
  convolution_param {
    num_output: 128
    kernel_size: 1
    weight_filler {
      type: "xavier"
    }
    bias_filler {
      type: "constant"
      value: 0.2
    }
  }
}
layer {
  name: "loss2/relu_conv"
  type: "ReLU"
  bottom: "loss2/conv"
  top: "loss2/conv"
}
layer {
  name: "loss2/fc"
  type: "InnerProduct"
  bottom: "loss2/conv"
  top: "loss2/fc"
  param {
    lr_mult: 1
    decay_mult: 1
  }
  param {
    lr_mult: 2
    decay_mult: 0
  }
  inner_product_param {
    num_output: 1024
    weight_filler {
      type: "xavier"
    }
    bias_filler {
      type: "constant"
      value: 0.2
    }
  }
}
layer {
  name: "loss2/relu_fc"
  type: "ReLU"
  bottom: "loss2/fc"
  top: "loss2/fc"
}
layer {
  name: "loss2/drop_fc"
  type: "Dropout"
  bottom: "loss2/fc"
  top: "loss2/fc"
  dropout_param {
    dropout_ratio: 0.7
  }
}
layer {
  name: "loss2/classifier-attribute"
  type: "InnerProduct"
  bottom: "loss2/fc"
  top: "loss2/classifier-attribute"
  param {
    lr_mult: 10
    decay_mult: 1
  }
  param {
    lr_mult: 20
    decay_mult: 0
  }
  inner_product_param {
    num_output: 11
    weight_filler {
      type: "xavier"
    }
    bias_filler {
      type: "constant"
      value: 0
    }
  }
}
layer {
  name: "loss2/loss"
  type: "SoftmaxWithLoss"
  bottom: "loss2/classifier-attribute"
  bottom: "label"
  top: "loss2/loss1"
  loss_weight: 0.3
}
layer {
  name: "inception_4e/1x1"
  type: "Convolution"
  bottom: "inception_4d/output"
  top: "inception_4e/1x1"
  param {
    lr_mult: 1
    decay_mult: 1
  }
  param {
    lr_mult: 2
    decay_mult: 0
  }
  convolution_param {
    num_output: 256
    kernel_size: 1
    weight_filler {
      type: "xavier"
    }
    bias_filler {
      type: "constant"
      value: 0.2
    }
  }
}
layer {
  name: "inception_4e/relu_1x1"
  type: "ReLU"
  bottom: "inception_4e/1x1"
  top: "inception_4e/1x1"
}
layer {
  name: "inception_4e/3x3_reduce"
  type: "Convolution"
  bottom: "inception_4d/output"
  top: "inception_4e/3x3_reduce"
  param {
    lr_mult: 1
    decay_mult: 1
  }
  param {
    lr_mult: 2
    decay_mult: 0
  }
  convolution_param {
    num_output: 160
    kernel_size: 1
    weight_filler {
      type: "xavier"
    }
    bias_filler {
      type: "constant"
      value: 0.2
    }
  }
}
layer {
  name: "inception_4e/relu_3x3_reduce"
  type: "ReLU"
  bottom: "inception_4e/3x3_reduce"
  top: "inception_4e/3x3_reduce"
}
layer {
  name: "inception_4e/3x3"
  type: "Convolution"
  bottom: "inception_4e/3x3_reduce"
  top: "inception_4e/3x3"
  param {
    lr_mult: 1
    decay_mult: 1
  }
  param {
    lr_mult: 2
    decay_mult: 0
  }
  convolution_param {
    num_output: 320
    pad: 1
    kernel_size: 3
    weight_filler {
      type: "xavier"
    }
    bias_filler {
      type: "constant"
      value: 0.2
    }
  }
}
layer {
  name: "inception_4e/relu_3x3"
  type: "ReLU"
  bottom: "inception_4e/3x3"
  top: "inception_4e/3x3"
}
layer {
  name: "inception_4e/5x5_reduce"
  type: "Convolution"
  bottom: "inception_4d/output"
  top: "inception_4e/5x5_reduce"
  param {
    lr_mult: 1
    decay_mult: 1
  }
  param {
    lr_mult: 2
    decay_mult: 0
  }
  convolution_param {
    num_output: 32
    kernel_size: 1
    weight_filler {
      type: "xavier"
    }
    bias_filler {
      type: "constant"
      value: 0.2
    }
  }
}
layer {
  name: "inception_4e/relu_5x5_reduce"
  type: "ReLU"
  bottom: "inception_4e/5x5_reduce"
  top: "inception_4e/5x5_reduce"
}
layer {
  name: "inception_4e/5x5"
  type: "Convolution"
  bottom: "inception_4e/5x5_reduce"
  top: "inception_4e/5x5"
  param {
    lr_mult: 1
    decay_mult: 1
  }
  param {
    lr_mult: 2
    decay_mult: 0
  }
  convolution_param {
    num_output: 128
    pad: 2
    kernel_size: 5
    weight_filler {
      type: "xavier"
    }
    bias_filler {
      type: "constant"
      value: 0.2
    }
  }
}
layer {
  name: "inception_4e/relu_5x5"
  type: "ReLU"
  bottom: "inception_4e/5x5"
  top: "inception_4e/5x5"
}
layer {
  name: "inception_4e/pool"
  type: "Pooling"
  bottom: "inceptio
I1125 18:53:57.632887 17955 layer_factory.hpp:76] Creating layer data
I1125 18:53:57.632962 17955 net.cpp:106] Creating Layer data
I1125 18:53:57.632982 17955 net.cpp:411] data -> data
I1125 18:53:57.633033 17955 net.cpp:411] data -> label
I1125 18:53:57.633952 17955 image_data_layer.cpp:36] Opening file pad_train.txt
I1125 18:53:57.657349 17955 image_data_layer.cpp:46] Shuffling data
I1125 18:53:57.661380 17955 image_data_layer.cpp:51] A total of 47247 images.
I1125 18:53:57.682176 17955 image_data_layer.cpp:78] output data size: 64,3,224,224
I1125 18:53:57.739053 17955 net.cpp:150] Setting up data
I1125 18:53:57.739121 17955 net.cpp:157] Top shape: 64 3 224 224 (9633792)
I1125 18:53:57.739130 17955 net.cpp:157] Top shape: 64 (64)
I1125 18:53:57.739132 17955 net.cpp:165] Memory required for data: 38535424
I1125 18:53:57.739142 17955 layer_factory.hpp:76] Creating layer label_data_1_split
I1125 18:53:57.739161 17955 net.cpp:106] Creating Layer label_data_1_split
I1125 18:53:57.739168 17955 net.cpp:454] label_data_1_split <- label
I1125 18:53:57.739181 17955 net.cpp:411] label_data_1_split -> label_data_1_split_0
I1125 18:53:57.739190 17955 net.cpp:411] label_data_1_split -> label_data_1_split_1
I1125 18:53:57.739197 17955 net.cpp:411] label_data_1_split -> label_data_1_split_2
I1125 18:53:57.739292 17955 net.cpp:150] Setting up label_data_1_split
I1125 18:53:57.739302 17955 net.cpp:157] Top shape: 64 (64)
I1125 18:53:57.739306 17955 net.cpp:157] Top shape: 64 (64)
I1125 18:53:57.739310 17955 net.cpp:157] Top shape: 64 (64)
I1125 18:53:57.739313 17955 net.cpp:165] Memory required for data: 38536192
I1125 18:53:57.739317 17955 layer_factory.hpp:76] Creating layer conv1/7x7_s2
I1125 18:53:57.739333 17955 net.cpp:106] Creating Layer conv1/7x7_s2
I1125 18:53:57.739337 17955 net.cpp:454] conv1/7x7_s2 <- data
I1125 18:53:57.739343 17955 net.cpp:411] conv1/7x7_s2 -> conv1/7x7_s2
I1125 18:53:57.904727 17955 net.cpp:150] Setting up conv1/7x7_s2
I1125 18:53:57.904757 17955 net.cpp:157] Top shape: 64 64 112 112 (51380224)
I1125 18:53:57.904762 17955 net.cpp:165] Memory required for data: 244057088
I1125 18:53:57.904784 17955 layer_factory.hpp:76] Creating layer conv1/relu_7x7
I1125 18:53:57.904796 17955 net.cpp:106] Creating Layer conv1/relu_7x7
I1125 18:53:57.904803 17955 net.cpp:454] conv1/relu_7x7 <- conv1/7x7_s2
I1125 18:53:57.904808 17955 net.cpp:397] conv1/relu_7x7 -> conv1/7x7_s2 (in-place)
I1125 18:53:57.905107 17955 net.cpp:150] Setting up conv1/relu_7x7
I1125 18:53:57.905122 17955 net.cpp:157] Top shape: 64 64 112 112 (51380224)
I1125 18:53:57.905125 17955 net.cpp:165] Memory required for data: 449577984
I1125 18:53:57.905129 17955 layer_factory.hpp:76] Creating layer pool1/3x3_s2
I1125 18:53:57.905139 17955 net.cpp:106] Creating Layer pool1/3x3_s2
I1125 18:53:57.905143 17955 net.cpp:454] pool1/3x3_s2 <- conv1/7x7_s2
I1125 18:53:57.905148 17955 net.cpp:411] pool1/3x3_s2 -> pool1/3x3_s2
I1125 18:53:57.905342 17955 net.cpp:150] Setting up pool1/3x3_s2
I1125 18:53:57.905354 17955 net.cpp:157] Top shape: 64 64 56 56 (12845056)
I1125 18:53:57.905357 17955 net.cpp:165] Memory required for data: 500958208
I1125 18:53:57.905361 17955 layer_factory.hpp:76] Creating layer pool1/norm1
I1125 18:53:57.905372 17955 net.cpp:106] Creating Layer pool1/norm1
I1125 18:53:57.905376 17955 net.cpp:454] pool1/norm1 <- pool1/3x3_s2
I1125 18:53:57.905382 17955 net.cpp:411] pool1/norm1 -> pool1/norm1
I1125 18:53:57.905704 17955 net.cpp:150] Setting up pool1/norm1
I1125 18:53:57.905719 17955 net.cpp:157] Top shape: 64 64 56 56 (12845056)
I1125 18:53:57.905722 17955 net.cpp:165] Memory required for data: 552338432
I1125 18:53:57.905725 17955 layer_factory.hpp:76] Creating layer conv2/3x3_reduce
I1125 18:53:57.905736 17955 net.cpp:106] Creating Layer conv2/3x3_reduce
I1125 18:53:57.905740 17955 net.cpp:454] conv2/3x3_reduce <- pool1/norm1
I1125 18:53:57.905745 17955 net.cpp:411] conv2/3x3_reduce -> conv2/3x3_reduce
I1125 18:53:57.907017 17955 net.cpp:150] Setting up conv2/3x3_reduce
I1125 18:53:57.907035 17955 net.cpp:157] Top shape: 64 64 56 56 (12845056)
I1125 18:53:57.907039 17955 net.cpp:165] Memory required for data: 603718656
I1125 18:53:57.907048 17955 layer_factory.hpp:76] Creating layer conv2/relu_3x3_reduce
I1125 18:53:57.907054 17955 net.cpp:106] Creating Layer conv2/relu_3x3_reduce
I1125 18:53:57.907058 17955 net.cpp:454] conv2/relu_3x3_reduce <- conv2/3x3_reduce
I1125 18:53:57.907065 17955 net.cpp:397] conv2/relu_3x3_reduce -> conv2/3x3_reduce (in-place)
I1125 18:53:57.907347 17955 net.cpp:150] Setting up conv2/relu_3x3_reduce
I1125 18:53:57.907361 17955 net.cpp:157] Top shape: 64 64 56 56 (12845056)
I1125 18:53:57.907366 17955 net.cpp:165] Memory required for data: 655098880
I1125 18:53:57.907369 17955 layer_factory.hpp:76] Creating layer conv2/3x3
I1125 18:53:57.907379 17955 net.cpp:106] Creating Layer conv2/3x3
I1125 18:53:57.907383 17955 net.cpp:454] conv2/3x3 <- conv2/3x3_reduce
I1125 18:53:57.907389 17955 net.cpp:411] conv2/3x3 -> conv2/3x3
I1125 18:53:57.909489 17955 net.cpp:150] Setting up conv2/3x3
I1125 18:53:57.909507 17955 net.cpp:157] Top shape: 64 192 56 56 (38535168)
I1125 18:53:57.909510 17955 net.cpp:165] Memory required for data: 809239552
I1125 18:53:57.909519 17955 layer_factory.hpp:76] Creating layer conv2/relu_3x3
I1125 18:53:57.909526 17955 net.cpp:106] Creating Layer conv2/relu_3x3
I1125 18:53:57.909529 17955 net.cpp:454] conv2/relu_3x3 <- conv2/3x3
I1125 18:53:57.909536 17955 net.cpp:397] conv2/relu_3x3 -> conv2/3x3 (in-place)
I1125 18:53:57.909703 17955 net.cpp:150] Setting up conv2/relu_3x3
I1125 18:53:57.909716 17955 net.cpp:157] Top shape: 64 192 56 56 (38535168)
I1125 18:53:57.909719 17955 net.cpp:165] Memory required for data: 963380224
I1125 18:53:57.909723 17955 layer_factory.hpp:76] Creating layer conv2/norm2
I1125 18:53:57.909729 17955 net.cpp:106] Creating Layer conv2/norm2
I1125 18:53:57.909732 17955 net.cpp:454] conv2/norm2 <- conv2/3x3
I1125 18:53:57.909739 17955 net.cpp:411] conv2/norm2 -> conv2/norm2
I1125 18:53:57.910075 17955 net.cpp:150] Setting up conv2/norm2
I1125 18:53:57.910089 17955 net.cpp:157] Top shape: 64 192 56 56 (38535168)
I1125 18:53:57.910094 17955 net.cpp:165] Memory required for data: 1117520896
I1125 18:53:57.910096 17955 layer_factory.hpp:76] Creating layer pool2/3x3_s2
I1125 18:53:57.910104 17955 net.cpp:106] Creating Layer pool2/3x3_s2
I1125 18:53:57.910107 17955 net.cpp:454] pool2/3x3_s2 <- conv2/norm2
I1125 18:53:57.910115 17955 net.cpp:411] pool2/3x3_s2 -> pool2/3x3_s2
I1125 18:53:57.910297 17955 net.cpp:150] Setting up pool2/3x3_s2
I1125 18:53:57.910308 17955 net.cpp:157] Top shape: 64 192 28 28 (9633792)
I1125 18:53:57.910311 17955 net.cpp:165] Memory required for data: 1156056064
I1125 18:53:57.910315 17955 layer_factory.hpp:76] Creating layer pool2/3x3_s2_pool2/3x3_s2_0_split
I1125 18:53:57.910322 17955 net.cpp:106] Creating Layer pool2/3x3_s2_pool2/3x3_s2_0_split
I1125 18:53:57.910326 17955 net.cpp:454] pool2/3x3_s2_pool2/3x3_s2_0_split <- pool2/3x3_s2
I1125 18:53:57.910331 17955 net.cpp:411] pool2/3x3_s2_pool2/3x3_s2_0_split -> pool2/3x3_s2_pool2/3x3_s2_0_split_0
I1125 18:53:57.910336 17955 net.cpp:411] pool2/3x3_s2_pool2/3x3_s2_0_split -> pool2/3x3_s2_pool2/3x3_s2_0_split_1
I1125 18:53:57.910344 17955 net.cpp:411] pool2/3x3_s2_pool2/3x3_s2_0_split -> pool2/3x3_s2_pool2/3x3_s2_0_split_2
I1125 18:53:57.910349 17955 net.cpp:411] pool2/3x3_s2_pool2/3x3_s2_0_split -> pool2/3x3_s2_pool2/3x3_s2_0_split_3
I1125 18:53:57.910403 17955 net.cpp:150] Setting up pool2/3x3_s2_pool2/3x3_s2_0_split
I1125 18:53:57.910409 17955 net.cpp:157] Top shape: 64 192 28 28 (9633792)
I1125 18:53:57.910413 17955 net.cpp:157] Top shape: 64 192 28 28 (9633792)
I1125 18:53:57.910416 17955 net.cpp:157] Top shape: 64 192 28 28 (9633792)
I1125 18:53:57.910419 17955 net.cpp:157] Top shape: 64 192 28 28 (9633792)
I1125 18:53:57.910423 17955 net.cpp:165] Memory required for data: 1310196736
I1125 18:53:57.910425 17955 layer_factory.hpp:76] Creating layer inception_3a/1x1
I1125 18:53:57.910437 17955 net.cpp:106] Creating Layer inception_3a/1x1
I1125 18:53:57.910441 17955 net.cpp:454] inception_3a/1x1 <- pool2/3x3_s2_pool2/3x3_s2_0_split_0
I1125 18:53:57.910449 17955 net.cpp:411] inception_3a/1x1 -> inception_3a/1x1
I1125 18:53:57.911957 17955 net.cpp:150] Setting up inception_3a/1x1
I1125 18:53:57.911973 17955 net.cpp:157] Top shape: 64 64 28 28 (3211264)
I1125 18:53:57.911978 17955 net.cpp:165] Memory required for data: 1323041792
I1125 18:53:57.911983 17955 layer_factory.hpp:76] Creating layer inception_3a/relu_1x1
I1125 18:53:57.911990 17955 net.cpp:106] Creating Layer inception_3a/relu_1x1
I1125 18:53:57.911993 17955 net.cpp:454] inception_3a/relu_1x1 <- inception_3a/1x1
I1125 18:53:57.911998 17955 net.cpp:397] inception_3a/relu_1x1 -> inception_3a/1x1 (in-place)
I1125 18:53:57.912308 17955 net.cpp:150] Setting up inception_3a/relu_1x1
I1125 18:53:57.912323 17955 net.cpp:157] Top shape: 64 64 28 28 (3211264)
I1125 18:53:57.912327 17955 net.cpp:165] Memory required for data: 1335886848
I1125 18:53:57.912330 17955 layer_factory.hpp:76] Creating layer inception_3a/3x3_reduce
I1125 18:53:57.912339 17955 net.cpp:106] Creating Layer inception_3a/3x3_reduce
I1125 18:53:57.912343 17955 net.cpp:454] inception_3a/3x3_reduce <- pool2/3x3_s2_pool2/3x3_s2_0_split_1
I1125 18:53:57.912351 17955 net.cpp:411] inception_3a/3x3_reduce -> inception_3a/3x3_reduce
I1125 18:53:57.913879 17955 net.cpp:150] Setting up inception_3a/3x3_reduce
I1125 18:53:57.913894 17955 net.cpp:157] Top shape: 64 96 28 28 (4816896)
I1125 18:53:57.913898 17955 net.cpp:165] Memory required for data: 1355154432
I1125 18:53:57.913908 17955 layer_factory.hpp:76] Creating layer inception_3a/relu_3x3_reduce
I1125 18:53:57.913918 17955 net.cpp:106] Creating Layer inception_3a/relu_3x3_reduce
I1125 18:53:57.913921 17955 net.cpp:454] inception_3a/relu_3x3_reduce <- inception_3a/3x3_reduce
I1125 18:53:57.913926 17955 net.cpp:397] inception_3a/relu_3x3_reduce -> inception_3a/3x3_reduce (in-place)
I1125 18:53:57.914094 17955 net.cpp:150] Setting up inception_3a/relu_3x3_reduce
I1125 18:53:57.914105 17955 net.cpp:157] Top shape: 64 96 28 28 (4816896)
I1125 18:53:57.914108 17955 net.cpp:165] Memory required for data: 1374422016
I1125 18:53:57.914111 17955 layer_factory.hpp:76] Creating layer inception_3a/3x3
I1125 18:53:57.914121 17955 net.cpp:106] Creating Layer inception_3a/3x3
I1125 18:53:57.914124 17955 net.cpp:454] inception_3a/3x3 <- inception_3a/3x3_reduce
I1125 18:53:57.914131 17955 net.cpp:411] inception_3a/3x3 -> inception_3a/3x3
I1125 18:53:57.915935 17955 net.cpp:150] Setting up inception_3a/3x3
I1125 18:53:57.915951 17955 net.cpp:157] Top shape: 64 128 28 28 (6422528)
I1125 18:53:57.915954 17955 net.cpp:165] Memory required for data: 1400112128
I1125 18:53:57.915961 17955 layer_factory.hpp:76] Creating layer inception_3a/relu_3x3
I1125 18:53:57.915968 17955 net.cpp:106] Creating Layer inception_3a/relu_3x3
I1125 18:53:57.915972 17955 net.cpp:454] inception_3a/relu_3x3 <- inception_3a/3x3
I1125 18:53:57.915979 17955 net.cpp:397] inception_3a/relu_3x3 -> inception_3a/3x3 (in-place)
I1125 18:53:57.916144 17955 net.cpp:150] Setting up inception_3a/relu_3x3
I1125 18:53:57.916156 17955 net.cpp:157] Top shape: 64 128 28 28 (6422528)
I1125 18:53:57.916158 17955 net.cpp:165] Memory required for data: 1425802240
I1125 18:53:57.916162 17955 layer_factory.hpp:76] Creating layer inception_3a/5x5_reduce
I1125 18:53:57.916172 17955 net.cpp:106] Creating Layer inception_3a/5x5_reduce
I1125 18:53:57.916177 17955 net.cpp:454] inception_3a/5x5_reduce <- pool2/3x3_s2_pool2/3x3_s2_0_split_2
I1125 18:53:57.916182 17955 net.cpp:411] inception_3a/5x5_reduce -> inception_3a/5x5_reduce
I1125 18:53:57.917166 17955 net.cpp:150] Setting up inception_3a/5x5_reduce
I1125 18:53:57.917181 17955 net.cpp:157] Top shape: 64 16 28 28 (802816)
I1125 18:53:57.917184 17955 net.cpp:165] Memory required for data: 1429013504
I1125 18:53:57.917191 17955 layer_factory.hpp:76] Creating layer inception_3a/relu_5x5_reduce
I1125 18:53:57.917196 17955 net.cpp:106] Creating Layer inception_3a/relu_5x5_reduce
I1125 18:53:57.917201 17955 net.cpp:454] inception_3a/relu_5x5_reduce <- inception_3a/5x5_reduce
I1125 18:53:57.917207 17955 net.cpp:397] inception_3a/relu_5x5_reduce -> inception_3a/5x5_reduce (in-place)
I1125 18:53:57.917515 17955 net.cpp:150] Setting up inception_3a/relu_5x5_reduce
I1125 18:53:57.917531 17955 net.cpp:157] Top shape: 64 16 28 28 (802816)
I1125 18:53:57.917533 17955 net.cpp:165] Memory required for data: 1432224768
I1125 18:53:57.917537 17955 layer_factory.hpp:76] Creating layer inception_3a/5x5
I1125 18:53:57.917546 17955 net.cpp:106] Creating Layer inception_3a/5x5
I1125 18:53:57.917551 17955 net.cpp:454] inception_3a/5x5 <- inception_3a/5x5_reduce
I1125 18:53:57.917557 17955 net.cpp:411] inception_3a/5x5 -> inception_3a/5x5
I1125 18:53:57.918606 17955 net.cpp:150] Setting up inception_3a/5x5
I1125 18:53:57.918622 17955 net.cpp:157] Top shape: 64 32 28 28 (1605632)
I1125 18:53:57.918624 17955 net.cpp:165] Memory required for data: 1438647296
I1125 18:53:57.918630 17955 layer_factory.hpp:76] Creating layer inception_3a/relu_5x5
I1125 18:53:57.918638 17955 net.cpp:106] Creating Layer inception_3a/relu_5x5
I1125 18:53:57.918642 17955 net.cpp:454] inception_3a/relu_5x5 <- inception_3a/5x5
I1125 18:53:57.918648 17955 net.cpp:397] inception_3a/relu_5x5 -> inception_3a/5x5 (in-place)
I1125 18:53:57.918848 17955 net.cpp:150] Setting up inception_3a/relu_5x5
I1125 18:53:57.918860 17955 net.cpp:157] Top shape: 64 32 28 28 (1605632)
I1125 18:53:57.918864 17955 net.cpp:165] Memory required for data: 1445069824
I1125 18:53:57.918867 17955 layer_factory.hpp:76] Creating layer inception_3a/pool
I1125 18:53:57.918874 17955 net.cpp:106] Creating Layer inception_3a/pool
I1125 18:53:57.918877 17955 net.cpp:454] inception_3a/pool <- pool2/3x3_s2_pool2/3x3_s2_0_split_3
I1125 18:53:57.918884 17955 net.cpp:411] inception_3a/pool -> inception_3a/pool
I1125 18:53:57.919215 17955 net.cpp:150] Setting up inception_3a/pool
I1125 18:53:57.919229 17955 net.cpp:157] Top shape: 64 192 28 28 (9633792)
I1125 18:53:57.919234 17955 net.cpp:165] Memory required for data: 1483604992
I1125 18:53:57.919236 17955 layer_factory.hpp:76] Creating layer inception_3a/pool_proj
I1125 18:53:57.919246 17955 net.cpp:106] Creating Layer inception_3a/pool_proj
I1125 18:53:57.919250 17955 net.cpp:454] inception_3a/pool_proj <- inception_3a/pool
I1125 18:53:57.919257 17955 net.cpp:411] inception_3a/pool_proj -> inception_3a/pool_proj
I1125 18:53:57.920133 17955 net.cpp:150] Setting up inception_3a/pool_proj
I1125 18:53:57.920148 17955 net.cpp:157] Top shape: 64 32 28 28 (1605632)
I1125 18:53:57.920152 17955 net.cpp:165] Memory required for data: 1490027520
I1125 18:53:57.920163 17955 layer_factory.hpp:76] Creating layer inception_3a/relu_pool_proj
I1125 18:53:57.920171 17955 net.cpp:106] Creating Layer inception_3a/relu_pool_proj
I1125 18:53:57.920173 17955 net.cpp:454] inception_3a/relu_pool_proj <- inception_3a/pool_proj
I1125 18:53:57.920178 17955 net.cpp:397] inception_3a/relu_pool_proj -> inception_3a/pool_proj (in-place)
I1125 18:53:57.920482 17955 net.cpp:150] Setting up inception_3a/relu_pool_proj
I1125 18:53:57.920495 17955 net.cpp:157] Top shape: 64 32 28 28 (1605632)
I1125 18:53:57.920498 17955 net.cpp:165] Memory required for data: 1496450048
I1125 18:53:57.920502 17955 layer_factory.hpp:76] Creating layer inception_3a/output
I1125 18:53:57.920511 17955 net.cpp:106] Creating Layer inception_3a/output
I1125 18:53:57.920516 17955 net.cpp:454] inception_3a/output <- inception_3a/1x1
I1125 18:53:57.920519 17955 net.cpp:454] inception_3a/output <- inception_3a/3x3
I1125 18:53:57.920523 17955 net.cpp:454] inception_3a/output <- inception_3a/5x5
I1125 18:53:57.920527 17955 net.cpp:454] inception_3a/output <- inception_3a/pool_proj
I1125 18:53:57.920531 17955 net.cpp:411] inception_3a/output -> inception_3a/output
I1125 18:53:57.920565 17955 net.cpp:150] Setting up inception_3a/output
I1125 18:53:57.920572 17955 net.cpp:157] Top shape: 64 256 28 28 (12845056)
I1125 18:53:57.920574 17955 net.cpp:165] Memory required for data: 1547830272
I1125 18:53:57.920578 17955 layer_factory.hpp:76] Creating layer inception_3a/output_inception_3a/output_0_split
I1125 18:53:57.920585 17955 net.cpp:106] Creating Layer inception_3a/output_inception_3a/output_0_split
I1125 18:53:57.920589 17955 net.cpp:454] inception_3a/output_inception_3a/output_0_split <- inception_3a/output
I1125 18:53:57.920594 17955 net.cpp:411] inception_3a/output_inception_3a/output_0_split -> inception_3a/output_inception_3a/output_0_split_0
I1125 18:53:57.920599 17955 net.cpp:411] inception_3a/output_inception_3a/output_0_split -> inception_3a/output_inception_3a/output_0_split_1
I1125 18:53:57.920605 17955 net.cpp:411] inception_3a/output_inception_3a/output_0_split -> inception_3a/output_inception_3a/output_0_split_2
I1125 18:53:57.920610 17955 net.cpp:411] inception_3a/output_inception_3a/output_0_split -> inception_3a/output_inception_3a/output_0_split_3
I1125 18:53:57.920665 17955 net.cpp:150] Setting up inception_3a/output_inception_3a/output_0_split
I1125 18:53:57.920671 17955 net.cpp:157] Top shape: 64 256 28 28 (12845056)
I1125 18:53:57.920675 17955 net.cpp:157] Top shape: 64 256 28 28 (12845056)
I1125 18:53:57.920678 17955 net.cpp:157] Top shape: 64 256 28 28 (12845056)
I1125 18:53:57.920682 17955 net.cpp:157] Top shape: 64 256 28 28 (12845056)
I1125 18:53:57.920686 17955 net.cpp:165] Memory required for data: 1753351168
I1125 18:53:57.920688 17955 layer_factory.hpp:76] Creating layer inception_3b/1x1
I1125 18:53:57.920696 17955 net.cpp:106] Creating Layer inception_3b/1x1
I1125 18:53:57.920701 17955 net.cpp:454] inception_3b/1x1 <- inception_3a/output_inception_3a/output_0_split_0
I1125 18:53:57.920706 17955 net.cpp:411] inception_3b/1x1 -> inception_3b/1x1
I1125 18:53:57.921897 17955 net.cpp:150] Setting up inception_3b/1x1
I1125 18:53:57.921913 17955 net.cpp:157] Top shape: 64 128 28 28 (6422528)
I1125 18:53:57.921916 17955 net.cpp:165] Memory required for data: 1779041280
I1125 18:53:57.921922 17955 layer_factory.hpp:76] Creating layer inception_3b/relu_1x1
I1125 18:53:57.921931 17955 net.cpp:106] Creating Layer inception_3b/relu_1x1
I1125 18:53:57.921934 17955 net.cpp:454] inception_3b/relu_1x1 <- inception_3b/1x1
I1125 18:53:57.921939 17955 net.cpp:397] inception_3b/relu_1x1 -> inception_3b/1x1 (in-place)
I1125 18:53:57.922106 17955 net.cpp:150] Setting up inception_3b/relu_1x1
I1125 18:53:57.922122 17955 net.cpp:157] Top shape: 64 128 28 28 (6422528)
I1125 18:53:57.922124 17955 net.cpp:165] Memory required for data: 1804731392
I1125 18:53:57.922127 17955 layer_factory.hpp:76] Creating layer inception_3b/3x3_reduce
I1125 18:53:57.922137 17955 net.cpp:106] Creating Layer inception_3b/3x3_reduce
I1125 18:53:57.922140 17955 net.cpp:454] inception_3b/3x3_reduce <- inception_3a/output_inception_3a/output_0_split_1
I1125 18:53:57.922148 17955 net.cpp:411] inception_3b/3x3_reduce -> inception_3b/3x3_reduce
I1125 18:53:57.923336 17955 net.cpp:150] Setting up inception_3b/3x3_reduce
I1125 18:53:57.923352 17955 net.cpp:157] Top shape: 64 128 28 28 (6422528)
I1125 18:53:57.923354 17955 net.cpp:165] Memory required for data: 1830421504
I1125 18:53:57.923362 17955 layer_factory.hpp:76] Creating layer inception_3b/relu_3x3_reduce
I1125 18:53:57.923367 17955 net.cpp:106] Creating Layer inception_3b/relu_3x3_reduce
I1125 18:53:57.923370 17955 net.cpp:454] inception_3b/relu_3x3_reduce <- inception_3b/3x3_reduce
I1125 18:53:57.923377 17955 net.cpp:397] inception_3b/relu_3x3_reduce -> inception_3b/3x3_reduce (in-place)
I1125 18:53:57.923678 17955 net.cpp:150] Setting up inception_3b/relu_3x3_reduce
I1125 18:53:57.923691 17955 net.cpp:157] Top shape: 64 128 28 28 (6422528)
I1125 18:53:57.923696 17955 net.cpp:165] Memory required for data: 1856111616
I1125 18:53:57.923698 17955 layer_factory.hpp:76] Creating layer inception_3b/3x3
I1125 18:53:57.923712 17955 net.cpp:106] Creating Layer inception_3b/3x3
I1125 18:53:57.923715 17955 net.cpp:454] inception_3b/3x3 <- inception_3b/3x3_reduce
I1125 18:53:57.923723 17955 net.cpp:411] inception_3b/3x3 -> inception_3b/3x3
I1125 18:53:57.926421 17955 net.cpp:150] Setting up inception_3b/3x3
I1125 18:53:57.926436 17955 net.cpp:157] Top shape: 64 192 28 28 (9633792)
I1125 18:53:57.926440 17955 net.cpp:165] Memory required for data: 1894646784
I1125 18:53:57.926446 17955 layer_factory.hpp:76] Creating layer inception_3b/relu_3x3
I1125 18:53:57.926455 17955 net.cpp:106] Creating Layer inception_3b/relu_3x3
I1125 18:53:57.926458 17955 net.cpp:454] inception_3b/relu_3x3 <- inception_3b/3x3
I1125 18:53:57.926465 17955 net.cpp:397] inception_3b/relu_3x3 -> inception_3b/3x3 (in-place)
I1125 18:53:57.926928 17955 net.cpp:150] Setting up inception_3b/relu_3x3
I1125 18:53:57.926944 17955 net.cpp:157] Top shape: 64 192 28 28 (9633792)
I1125 18:53:57.926946 17955 net.cpp:165] Memory required for data: 1933181952
I1125 18:53:57.926950 17955 layer_factory.hpp:76] Creating layer inception_3b/5x5_reduce
I1125 18:53:57.926959 17955 net.cpp:106] Creating Layer inception_3b/5x5_reduce
I1125 18:53:57.926964 17955 net.cpp:454] inception_3b/5x5_reduce <- inception_3a/output_inception_3a/output_0_split_2
I1125 18:53:57.926971 17955 net.cpp:411] inception_3b/5x5_reduce -> inception_3b/5x5_reduce
I1125 18:53:57.928020 17955 net.cpp:150] Setting up inception_3b/5x5_reduce
I1125 18:53:57.928035 17955 net.cpp:157] Top shape: 64 32 28 28 (1605632)
I1125 18:53:57.928038 17955 net.cpp:165] Memory required for data: 1939604480
I1125 18:53:57.928045 17955 layer_factory.hpp:76] Creating layer inception_3b/relu_5x5_reduce
I1125 18:53:57.928052 17955 net.cpp:106] Creating Layer inception_3b/relu_5x5_reduce
I1125 18:53:57.928056 17955 net.cpp:454] inception_3b/relu_5x5_reduce <- inception_3b/5x5_reduce
I1125 18:53:57.928061 17955 net.cpp:397] inception_3b/relu_5x5_reduce -> inception_3b/5x5_reduce (in-place)
I1125 18:53:57.928228 17955 net.cpp:150] Setting up inception_3b/relu_5x5_reduce
I1125 18:53:57.928238 17955 net.cpp:157] Top shape: 64 32 28 28 (1605632)
I1125 18:53:57.928241 17955 net.cpp:165] Memory required for data: 1946027008
I1125 18:53:57.928246 17955 layer_factory.hpp:76] Creating layer inception_3b/5x5
I1125 18:53:57.928253 17955 net.cpp:106] Creating Layer inception_3b/5x5
I1125 18:53:57.928258 17955 net.cpp:454] inception_3b/5x5 <- inception_3b/5x5_reduce
I1125 18:53:57.928266 17955 net.cpp:411] inception_3b/5x5 -> inception_3b/5x5
I1125 18:53:57.930191 17955 net.cpp:150] Setting up inception_3b/5x5
I1125 18:53:57.930207 17955 net.cpp:157] Top shape: 64 96 28 28 (4816896)
I1125 18:53:57.930209 17955 net.cpp:165] Memory required for data: 1965294592
I1125 18:53:57.930217 17955 layer_factory.hpp:76] Creating layer inception_3b/relu_5x5
I1125 18:53:57.930222 17955 net.cpp:106] Creating Layer inception_3b/relu_5x5
I1125 18:53:57.930225 17955 net.cpp:454] inception_3b/relu_5x5 <- inception_3b/5x5
I1125 18:53:57.930232 17955 net.cpp:397] inception_3b/relu_5x5 -> inception_3b/5x5 (in-place)
I1125 18:53:57.930536 17955 net.cpp:150] Setting up inception_3b/relu_5x5
I1125 18:53:57.930551 17955 net.cpp:157] Top shape: 64 96 28 28 (4816896)
I1125 18:53:57.930553 17955 net.cpp:165] Memory required for data: 1984562176
I1125 18:53:57.930557 17955 layer_factory.hpp:76] Creating layer inception_3b/pool
I1125 18:53:57.930563 17955 net.cpp:106] Creating Layer inception_3b/pool
I1125 18:53:57.930567 17955 net.cpp:454] inception_3b/pool <- inception_3a/output_inception_3a/output_0_split_3
I1125 18:53:57.930598 17955 net.cpp:411] inception_3b/pool -> inception_3b/pool
I1125 18:53:57.930804 17955 net.cpp:150] Setting up inception_3b/pool
I1125 18:53:57.930816 17955 net.cpp:157] Top shape: 64 256 28 28 (12845056)
I1125 18:53:57.930820 17955 net.cpp:165] Memory required for data: 2035942400
I1125 18:53:57.930824 17955 layer_factory.hpp:76] Creating layer inception_3b/pool_proj
I1125 18:53:57.930831 17955 net.cpp:106] Creating Layer inception_3b/pool_proj
I1125 18:53:57.930835 17955 net.cpp:454] inception_3b/pool_proj <- inception_3b/pool
I1125 18:53:57.930842 17955 net.cpp:411] inception_3b/pool_proj -> inception_3b/pool_proj
I1125 18:53:57.931972 17955 net.cpp:150] Setting up inception_3b/pool_proj
I1125 18:53:57.931987 17955 net.cpp:157] Top shape: 64 64 28 28 (3211264)
I1125 18:53:57.931990 17955 net.cpp:165] Memory required for data: 2048787456
I1125 18:53:57.931996 17955 layer_factory.hpp:76] Creating layer inception_3b/relu_pool_proj
I1125 18:53:57.932004 17955 net.cpp:106] Creating Layer inception_3b/relu_pool_proj
I1125 18:53:57.932008 17955 net.cpp:454] inception_3b/relu_pool_proj <- inception_3b/pool_proj
I1125 18:53:57.932013 17955 net.cpp:397] inception_3b/relu_pool_proj -> inception_3b/pool_proj (in-place)
I1125 18:53:57.932181 17955 net.cpp:150] Setting up inception_3b/relu_pool_proj
I1125 18:53:57.932193 17955 net.cpp:157] Top shape: 64 64 28 28 (3211264)
I1125 18:53:57.932195 17955 net.cpp:165] Memory required for data: 2061632512
I1125 18:53:57.932199 17955 layer_factory.hpp:76] Creating layer inception_3b/output
I1125 18:53:57.932204 17955 net.cpp:106] Creating Layer inception_3b/output
I1125 18:53:57.932207 17955 net.cpp:454] inception_3b/output <- inception_3b/1x1
I1125 18:53:57.932214 17955 net.cpp:454] inception_3b/output <- inception_3b/3x3
I1125 18:53:57.932217 17955 net.cpp:454] inception_3b/output <- inception_3b/5x5
I1125 18:53:57.932220 17955 net.cpp:454] inception_3b/output <- inception_3b/pool_proj
I1125 18:53:57.932225 17955 net.cpp:411] inception_3b/output -> inception_3b/output
I1125 18:53:57.932255 17955 net.cpp:150] Setting up inception_3b/output
I1125 18:53:57.932260 17955 net.cpp:157] Top shape: 64 480 28 28 (24084480)
I1125 18:53:57.932262 17955 net.cpp:165] Memory required for data: 2157970432
I1125 18:53:57.932265 17955 layer_factory.hpp:76] Creating layer pool3/3x3_s2
I1125 18:53:57.932272 17955 net.cpp:106] Creating Layer pool3/3x3_s2
I1125 18:53:57.932276 17955 net.cpp:454] pool3/3x3_s2 <- inception_3b/output
I1125 18:53:57.932281 17955 net.cpp:411] pool3/3x3_s2 -> pool3/3x3_s2
I1125 18:53:57.932610 17955 net.cpp:150] Setting up pool3/3x3_s2
I1125 18:53:57.932623 17955 net.cpp:157] Top shape: 64 480 14 14 (6021120)
I1125 18:53:57.932627 17955 net.cpp:165] Memory required for data: 2182054912
I1125 18:53:57.932631 17955 layer_factory.hpp:76] Creating layer pool3/3x3_s2_pool3/3x3_s2_0_split
I1125 18:53:57.932636 17955 net.cpp:106] Creating Layer pool3/3x3_s2_pool3/3x3_s2_0_split
I1125 18:53:57.932641 17955 net.cpp:454] pool3/3x3_s2_pool3/3x3_s2_0_split <- pool3/3x3_s2
I1125 18:53:57.932646 17955 net.cpp:411] pool3/3x3_s2_pool3/3x3_s2_0_split -> pool3/3x3_s2_pool3/3x3_s2_0_split_0
I1125 18:53:57.932653 17955 net.cpp:411] pool3/3x3_s2_pool3/3x3_s2_0_split -> pool3/3x3_s2_pool3/3x3_s2_0_split_1
I1125 18:53:57.932658 17955 net.cpp:411] pool3/3x3_s2_pool3/3x3_s2_0_split -> pool3/3x3_s2_pool3/3x3_s2_0_split_2
I1125 18:53:57.932663 17955 net.cpp:411] pool3/3x3_s2_pool3/3x3_s2_0_split -> pool3/3x3_s2_pool3/3x3_s2_0_split_3
I1125 18:53:57.932724 17955 net.cpp:150] Setting up pool3/3x3_s2_pool3/3x3_s2_0_split
I1125 18:53:57.932730 17955 net.cpp:157] Top shape: 64 480 14 14 (6021120)
I1125 18:53:57.932734 17955 net.cpp:157] Top shape: 64 480 14 14 (6021120)
I1125 18:53:57.932737 17955 net.cpp:157] Top shape: 64 480 14 14 (6021120)
I1125 18:53:57.932740 17955 net.cpp:157] Top shape: 64 480 14 14 (6021120)
I1125 18:53:57.932744 17955 net.cpp:165] Memory required for data: 2278392832
I1125 18:53:57.932746 17955 layer_factory.hpp:76] Creating layer inception_4a/1x1
I1125 18:53:57.932756 17955 net.cpp:106] Creating Layer inception_4a/1x1
I1125 18:53:57.932760 17955 net.cpp:454] inception_4a/1x1 <- pool3/3x3_s2_pool3/3x3_s2_0_split_0
I1125 18:53:57.932765 17955 net.cpp:411] inception_4a/1x1 -> inception_4a/1x1
I1125 18:53:57.934458 17955 net.cpp:150] Setting up inception_4a/1x1
I1125 18:53:57.934473 17955 net.cpp:157] Top shape: 64 192 14 14 (2408448)
I1125 18:53:57.934476 17955 net.cpp:165] Memory required for data: 2288026624
I1125 18:53:57.934483 17955 layer_factory.hpp:76] Creating layer inception_4a/relu_1x1
I1125 18:53:57.934490 17955 net.cpp:106] Creating Layer inception_4a/relu_1x1
I1125 18:53:57.934494 17955 net.cpp:454] inception_4a/relu_1x1 <- inception_4a/1x1
I1125 18:53:57.934500 17955 net.cpp:397] inception_4a/relu_1x1 -> inception_4a/1x1 (in-place)
I1125 18:53:57.934672 17955 net.cpp:150] Setting up inception_4a/relu_1x1
I1125 18:53:57.934684 17955 net.cpp:157] Top shape: 64 192 14 14 (2408448)
I1125 18:53:57.934686 17955 net.cpp:165] Memory required for data: 2297660416
I1125 18:53:57.934689 17955 layer_factory.hpp:76] Creating layer inception_4a/3x3_reduce
I1125 18:53:57.934697 17955 net.cpp:106] Creating Layer inception_4a/3x3_reduce
I1125 18:53:57.934702 17955 net.cpp:454] inception_4a/3x3_reduce <- pool3/3x3_s2_pool3/3x3_s2_0_split_1
I1125 18:53:57.934708 17955 net.cpp:411] inception_4a/3x3_reduce -> inception_4a/3x3_reduce
I1125 18:53:57.936035 17955 net.cpp:150] Setting up inception_4a/3x3_reduce
I1125 18:53:57.936050 17955 net.cpp:157] Top shape: 64 96 14 14 (1204224)
I1125 18:53:57.936054 17955 net.cpp:165] Memory required for data: 2302477312
I1125 18:53:57.936069 17955 layer_factory.hpp:76] Creating layer inception_4a/relu_3x3_reduce
I1125 18:53:57.936074 17955 net.cpp:106] Creating Layer inception_4a/relu_3x3_reduce
I1125 18:53:57.936079 17955 net.cpp:454] inception_4a/relu_3x3_reduce <- inception_4a/3x3_reduce
I1125 18:53:57.936084 17955 net.cpp:397] inception_4a/relu_3x3_reduce -> inception_4a/3x3_reduce (in-place)
I1125 18:53:57.936389 17955 net.cpp:150] Setting up inception_4a/relu_3x3_reduce
I1125 18:53:57.936403 17955 net.cpp:157] Top shape: 64 96 14 14 (1204224)
I1125 18:53:57.936408 17955 net.cpp:165] Memory required for data: 2307294208
I1125 18:53:57.936410 17955 layer_factory.hpp:76] Creating layer inception_4a/3x3
I1125 18:53:57.936419 17955 net.cpp:106] Creating Layer inception_4a/3x3
I1125 18:53:57.936422 17955 net.cpp:454] inception_4a/3x3 <- inception_4a/3x3_reduce
I1125 18:53:57.936430 17955 net.cpp:411] inception_4a/3x3 -> inception_4a/3x3
I1125 18:53:57.938875 17955 net.cpp:150] Setting up inception_4a/3x3
I1125 18:53:57.938891 17955 net.cpp:157] Top shape: 64 208 14 14 (2609152)
I1125 18:53:57.938894 17955 net.cpp:165] Memory required for data: 2317730816
I1125 18:53:57.938901 17955 layer_factory.hpp:76] Creating layer inception_4a/relu_3x3
I1125 18:53:57.938910 17955 net.cpp:106] Creating Layer inception_4a/relu_3x3
I1125 18:53:57.938913 17955 net.cpp:454] inception_4a/relu_3x3 <- inception_4a/3x3
I1125 18:53:57.938918 17955 net.cpp:397] inception_4a/relu_3x3 -> inception_4a/3x3 (in-place)
I1125 18:53:57.939218 17955 net.cpp:150] Setting up inception_4a/relu_3x3
I1125 18:53:57.939232 17955 net.cpp:157] Top shape: 64 208 14 14 (2609152)
I1125 18:53:57.939235 17955 net.cpp:165] Memory required for data: 2328167424
I1125 18:53:57.939239 17955 layer_factory.hpp:76] Creating layer inception_4a/5x5_reduce
I1125 18:53:57.939249 17955 net.cpp:106] Creating Layer inception_4a/5x5_reduce
I1125 18:53:57.939252 17955 net.cpp:454] inception_4a/5x5_reduce <- pool3/3x3_s2_pool3/3x3_s2_0_split_2
I1125 18:53:57.939260 17955 net.cpp:411] inception_4a/5x5_reduce -> inception_4a/5x5_reduce
I1125 18:53:57.940331 17955 net.cpp:150] Setting up inception_4a/5x5_reduce
I1125 18:53:57.940346 17955 net.cpp:157] Top shape: 64 16 14 14 (200704)
I1125 18:53:57.940349 17955 net.cpp:165] Memory required for data: 2328970240
I1125 18:53:57.940356 17955 layer_factory.hpp:76] Creating layer inception_4a/relu_5x5_reduce
I1125 18:53:57.940362 17955 net.cpp:106] Creating Layer inception_4a/relu_5x5_reduce
I1125 18:53:57.940366 17955 net.cpp:454] inception_4a/relu_5x5_reduce <- inception_4a/5x5_reduce
I1125 18:53:57.940371 17955 net.cpp:397] inception_4a/relu_5x5_reduce -> inception_4a/5x5_reduce (in-place)
I1125 18:53:57.940665 17955 net.cpp:150] Setting up inception_4a/relu_5x5_reduce
I1125 18:53:57.940678 17955 net.cpp:157] Top shape: 64 16 14 14 (200704)
I1125 18:53:57.940682 17955 net.cpp:165] Memory required for data: 2329773056
I1125 18:53:57.940685 17955 layer_factory.hpp:76] Creating layer inception_4a/5x5
I1125 18:53:57.940697 17955 net.cpp:106] Creating Layer inception_4a/5x5
I1125 18:53:57.940701 17955 net.cpp:454] inception_4a/5x5 <- inception_4a/5x5_reduce
I1125 18:53:57.940707 17955 net.cpp:411] inception_4a/5x5 -> inception_4a/5x5
I1125 18:53:57.941841 17955 net.cpp:150] Setting up inception_4a/5x5
I1125 18:53:57.941856 17955 net.cpp:157] Top shape: 64 48 14 14 (602112)
I1125 18:53:57.941859 17955 net.cpp:165] Memory required for data: 2332181504
I1125 18:53:57.941865 17955 layer_factory.hpp:76] Creating layer inception_4a/relu_5x5
I1125 18:53:57.941874 17955 net.cpp:106] Creating Layer inception_4a/relu_5x5
I1125 18:53:57.941877 17955 net.cpp:454] inception_4a/relu_5x5 <- inception_4a/5x5
I1125 18:53:57.941884 17955 net.cpp:397] inception_4a/relu_5x5 -> inception_4a/5x5 (in-place)
I1125 18:53:57.942188 17955 net.cpp:150] Setting up inception_4a/relu_5x5
I1125 18:53:57.942203 17955 net.cpp:157] Top shape: 64 48 14 14 (602112)
I1125 18:53:57.942208 17955 net.cpp:165] Memory required for data: 2334589952
I1125 18:53:57.942210 17955 layer_factory.hpp:76] Creating layer inception_4a/pool
I1125 18:53:57.942217 17955 net.cpp:106] Creating Layer inception_4a/pool
I1125 18:53:57.942220 17955 net.cpp:454] inception_4a/pool <- pool3/3x3_s2_pool3/3x3_s2_0_split_3
I1125 18:53:57.942226 17955 net.cpp:411] inception_4a/pool -> inception_4a/pool
I1125 18:53:57.942432 17955 net.cpp:150] Setting up inception_4a/pool
I1125 18:53:57.942443 17955 net.cpp:157] Top shape: 64 480 14 14 (6021120)
I1125 18:53:57.942447 17955 net.cpp:165] Memory required for data: 2358674432
I1125 18:53:57.942451 17955 layer_factory.hpp:76] Creating layer inception_4a/pool_proj
I1125 18:53:57.942458 17955 net.cpp:106] Creating Layer inception_4a/pool_proj
I1125 18:53:57.942463 17955 net.cpp:454] inception_4a/pool_proj <- inception_4a/pool
I1125 18:53:57.942471 17955 net.cpp:411] inception_4a/pool_proj -> inception_4a/pool_proj
I1125 18:53:57.943668 17955 net.cpp:150] Setting up inception_4a/pool_proj
I1125 18:53:57.943683 17955 net.cpp:157] Top shape: 64 64 14 14 (802816)
I1125 18:53:57.943686 17955 net.cpp:165] Memory required for data: 2361885696
I1125 18:53:57.943693 17955 layer_factory.hpp:76] Creating layer inception_4a/relu_pool_proj
I1125 18:53:57.943699 17955 net.cpp:106] Creating Layer inception_4a/relu_pool_proj
I1125 18:53:57.943702 17955 net.cpp:454] inception_4a/relu_pool_proj <- inception_4a/pool_proj
I1125 18:53:57.943709 17955 net.cpp:397] inception_4a/relu_pool_proj -> inception_4a/pool_proj (in-place)
I1125 18:53:57.944013 17955 net.cpp:150] Setting up inception_4a/relu_pool_proj
I1125 18:53:57.944027 17955 net.cpp:157] Top shape: 64 64 14 14 (802816)
I1125 18:53:57.944031 17955 net.cpp:165] Memory required for data: 2365096960
I1125 18:53:57.944035 17955 layer_factory.hpp:76] Creating layer inception_4a/output
I1125 18:53:57.944041 17955 net.cpp:106] Creating Layer inception_4a/output
I1125 18:53:57.944043 17955 net.cpp:454] inception_4a/output <- inception_4a/1x1
I1125 18:53:57.944051 17955 net.cpp:454] inception_4a/output <- inception_4a/3x3
I1125 18:53:57.944056 17955 net.cpp:454] inception_4a/output <- inception_4a/5x5
I1125 18:53:57.944059 17955 net.cpp:454] inception_4a/output <- inception_4a/pool_proj
I1125 18:53:57.944064 17955 net.cpp:411] inception_4a/output -> inception_4a/output
I1125 18:53:57.944098 17955 net.cpp:150] Setting up inception_4a/output
I1125 18:53:57.944104 17955 net.cpp:157] Top shape: 64 512 14 14 (6422528)
I1125 18:53:57.944108 17955 net.cpp:165] Memory required for data: 2390787072
I1125 18:53:57.944110 17955 layer_factory.hpp:76] Creating layer inception_4a/output_inception_4a/output_0_split
I1125 18:53:57.944116 17955 net.cpp:106] Creating Layer inception_4a/output_inception_4a/output_0_split
I1125 18:53:57.944119 17955 net.cpp:454] inception_4a/output_inception_4a/output_0_split <- inception_4a/output
I1125 18:53:57.944125 17955 net.cpp:411] inception_4a/output_inception_4a/output_0_split -> inception_4a/output_inception_4a/output_0_split_0
I1125 18:53:57.944131 17955 net.cpp:411] inception_4a/output_inception_4a/output_0_split -> inception_4a/output_inception_4a/output_0_split_1
I1125 18:53:57.944138 17955 net.cpp:411] inception_4a/output_inception_4a/output_0_split -> inception_4a/output_inception_4a/output_0_split_2
I1125 18:53:57.944142 17955 net.cpp:411] inception_4a/output_inception_4a/output_0_split -> inception_4a/output_inception_4a/output_0_split_3
I1125 18:53:57.944147 17955 net.cpp:411] inception_4a/output_inception_4a/output_0_split -> inception_4a/output_inception_4a/output_0_split_4
I1125 18:53:57.944217 17955 net.cpp:150] Setting up inception_4a/output_inception_4a/output_0_split
I1125 18:53:57.944227 17955 net.cpp:157] Top shape: 64 512 14 14 (6422528)
I1125 18:53:57.944231 17955 net.cpp:157] Top shape: 64 512 14 14 (6422528)
I1125 18:53:57.944234 17955 net.cpp:157] Top shape: 64 512 14 14 (6422528)
I1125 18:53:57.944237 17955 net.cpp:157] Top shape: 64 512 14 14 (6422528)
I1125 18:53:57.944242 17955 net.cpp:157] Top shape: 64 512 14 14 (6422528)
I1125 18:53:57.944244 17955 net.cpp:165] Memory required for data: 2519237632
I1125 18:53:57.944247 17955 layer_factory.hpp:76] Creating layer loss1/ave_pool
I1125 18:53:57.944252 17955 net.cpp:106] Creating Layer loss1/ave_pool
I1125 18:53:57.944255 17955 net.cpp:454] loss1/ave_pool <- inception_4a/output_inception_4a/output_0_split_0
I1125 18:53:57.944260 17955 net.cpp:411] loss1/ave_pool -> loss1/ave_pool
I1125 18:53:57.944449 17955 net.cpp:150] Setting up loss1/ave_pool
I1125 18:53:57.944459 17955 net.cpp:157] Top shape: 64 512 4 4 (524288)
I1125 18:53:57.944463 17955 net.cpp:165] Memory required for data: 2521334784
I1125 18:53:57.944466 17955 layer_factory.hpp:76] Creating layer loss1/conv
I1125 18:53:57.944475 17955 net.cpp:106] Creating Layer loss1/conv
I1125 18:53:57.944479 17955 net.cpp:454] loss1/conv <- loss1/ave_pool
I1125 18:53:57.944485 17955 net.cpp:411] loss1/conv -> loss1/conv
I1125 18:53:57.945904 17955 net.cpp:150] Setting up loss1/conv
I1125 18:53:57.945919 17955 net.cpp:157] Top shape: 64 128 4 4 (131072)
I1125 18:53:57.945921 17955 net.cpp:165] Memory required for data: 2521859072
I1125 18:53:57.945927 17955 layer_factory.hpp:76] Creating layer loss1/relu_conv
I1125 18:53:57.945935 17955 net.cpp:106] Creating Layer loss1/relu_conv
I1125 18:53:57.945940 17955 net.cpp:454] loss1/relu_conv <- loss1/conv
I1125 18:53:57.945945 17955 net.cpp:397] loss1/relu_conv -> loss1/conv (in-place)
I1125 18:53:57.946115 17955 net.cpp:150] Setting up loss1/relu_conv
I1125 18:53:57.946125 17955 net.cpp:157] Top shape: 64 128 4 4 (131072)
I1125 18:53:57.946128 17955 net.cpp:165] Memory required for data: 2522383360
I1125 18:53:57.946131 17955 layer_factory.hpp:76] Creating layer loss1/fc
I1125 18:53:57.946138 17955 net.cpp:106] Creating Layer loss1/fc
I1125 18:53:57.946142 17955 net.cpp:454] loss1/fc <- loss1/conv
I1125 18:53:57.946149 17955 net.cpp:411] loss1/fc -> loss1/fc
I1125 18:53:57.961721 17955 net.cpp:150] Setting up loss1/fc
I1125 18:53:57.961737 17955 net.cpp:157] Top shape: 64 1024 (65536)
I1125 18:53:57.961741 17955 net.cpp:165] Memory required for data: 2522645504
I1125 18:53:57.961747 17955 layer_factory.hpp:76] Creating layer loss1/relu_fc
I1125 18:53:57.961753 17955 net.cpp:106] Creating Layer loss1/relu_fc
I1125 18:53:57.961757 17955 net.cpp:454] loss1/relu_fc <- loss1/fc
I1125 18:53:57.961762 17955 net.cpp:397] loss1/relu_fc -> loss1/fc (in-place)
I1125 18:53:57.962079 17955 net.cpp:150] Setting up loss1/relu_fc
I1125 18:53:57.962092 17955 net.cpp:157] Top shape: 64 1024 (65536)
I1125 18:53:57.962095 17955 net.cpp:165] Memory required for data: 2522907648
I1125 18:53:57.962098 17955 layer_factory.hpp:76] Creating layer loss1/drop_fc
I1125 18:53:57.962116 17955 net.cpp:106] Creating Layer loss1/drop_fc
I1125 18:53:57.962121 17955 net.cpp:454] loss1/drop_fc <- loss1/fc
I1125 18:53:57.962126 17955 net.cpp:397] loss1/drop_fc -> loss1/fc (in-place)
I1125 18:53:57.962164 17955 net.cpp:150] Setting up loss1/drop_fc
I1125 18:53:57.962170 17955 net.cpp:157] Top shape: 64 1024 (65536)
I1125 18:53:57.962173 17955 net.cpp:165] Memory required for data: 2523169792
I1125 18:53:57.962177 17955 layer_factory.hpp:76] Creating layer loss1/classifier-attribute
I1125 18:53:57.962185 17955 net.cpp:106] Creating Layer loss1/classifier-attribute
I1125 18:53:57.962188 17955 net.cpp:454] loss1/classifier-attribute <- loss1/fc
I1125 18:53:57.962193 17955 net.cpp:411] loss1/classifier-attribute -> loss1/classifier-attribute
I1125 18:53:57.962388 17955 net.cpp:150] Setting up loss1/classifier-attribute
I1125 18:53:57.962396 17955 net.cpp:157] Top shape: 64 11 (704)
I1125 18:53:57.962399 17955 net.cpp:165] Memory required for data: 2523172608
I1125 18:53:57.962405 17955 layer_factory.hpp:76] Creating layer loss1/loss
I1125 18:53:57.962414 17955 net.cpp:106] Creating Layer loss1/loss
I1125 18:53:57.962417 17955 net.cpp:454] loss1/loss <- loss1/classifier-attribute
I1125 18:53:57.962422 17955 net.cpp:454] loss1/loss <- label_data_1_split_0
I1125 18:53:57.962429 17955 net.cpp:411] loss1/loss -> loss1/loss1
I1125 18:53:57.962440 17955 layer_factory.hpp:76] Creating layer loss1/loss
I1125 18:53:57.962703 17955 net.cpp:150] Setting up loss1/loss
I1125 18:53:57.962714 17955 net.cpp:157] Top shape: (1)
I1125 18:53:57.962718 17955 net.cpp:160]     with loss weight 0.3
I1125 18:53:57.962738 17955 net.cpp:165] Memory required for data: 2523172612
I1125 18:53:57.962741 17955 layer_factory.hpp:76] Creating layer inception_4b/1x1
I1125 18:53:57.962751 17955 net.cpp:106] Creating Layer inception_4b/1x1
I1125 18:53:57.962755 17955 net.cpp:454] inception_4b/1x1 <- inception_4a/output_inception_4a/output_0_split_1
I1125 18:53:57.962762 17955 net.cpp:411] inception_4b/1x1 -> inception_4b/1x1
I1125 18:53:57.964311 17955 net.cpp:150] Setting up inception_4b/1x1
I1125 18:53:57.964326 17955 net.cpp:157] Top shape: 64 160 14 14 (2007040)
I1125 18:53:57.964329 17955 net.cpp:165] Memory required for data: 2531200772
I1125 18:53:57.964336 17955 layer_factory.hpp:76] Creating layer inception_4b/relu_1x1
I1125 18:53:57.964344 17955 net.cpp:106] Creating Layer inception_4b/relu_1x1
I1125 18:53:57.964347 17955 net.cpp:454] inception_4b/relu_1x1 <- inception_4b/1x1
I1125 18:53:57.964352 17955 net.cpp:397] inception_4b/relu_1x1 -> inception_4b/1x1 (in-place)
I1125 18:53:57.964659 17955 net.cpp:150] Setting up inception_4b/relu_1x1
I1125 18:53:57.964673 17955 net.cpp:157] Top shape: 64 160 14 14 (2007040)
I1125 18:53:57.964678 17955 net.cpp:165] Memory required for data: 2539228932
I1125 18:53:57.964681 17955 layer_factory.hpp:76] Creating layer inception_4b/3x3_reduce
I1125 18:53:57.964689 17955 net.cpp:106] Creating Layer inception_4b/3x3_reduce
I1125 18:53:57.964692 17955 net.cpp:454] inception_4b/3x3_reduce <- inception_4a/output_inception_4a/output_0_split_2
I1125 18:53:57.964699 17955 net.cpp:411] inception_4b/3x3_reduce -> inception_4b/3x3_reduce
I1125 18:53:57.966511 17955 net.cpp:150] Setting up inception_4b/3x3_reduce
I1125 18:53:57.966526 17955 net.cpp:157] Top shape: 64 112 14 14 (1404928)
I1125 18:53:57.966529 17955 net.cpp:165] Memory required for data: 2544848644
I1125 18:53:57.966536 17955 layer_factory.hpp:76] Creating layer inception_4b/relu_3x3_reduce
I1125 18:53:57.966542 17955 net.cpp:106] Creating Layer inception_4b/relu_3x3_reduce
I1125 18:53:57.966547 17955 net.cpp:454] inception_4b/relu_3x3_reduce <- inception_4b/3x3_reduce
I1125 18:53:57.966553 17955 net.cpp:397] inception_4b/relu_3x3_reduce -> inception_4b/3x3_reduce (in-place)
I1125 18:53:57.966722 17955 net.cpp:150] Setting up inception_4b/relu_3x3_reduce
I1125 18:53:57.966732 17955 net.cpp:157] Top shape: 64 112 14 14 (1404928)
I1125 18:53:57.966734 17955 net.cpp:165] Memory required for data: 2550468356
I1125 18:53:57.966738 17955 layer_factory.hpp:76] Creating layer inception_4b/3x3
I1125 18:53:57.966748 17955 net.cpp:106] Creating Layer inception_4b/3x3
I1125 18:53:57.966753 17955 net.cpp:454] inception_4b/3x3 <- inception_4b/3x3_reduce
I1125 18:53:57.966758 17955 net.cpp:411] inception_4b/3x3 -> inception_4b/3x3
I1125 18:53:57.969656 17955 net.cpp:150] Setting up inception_4b/3x3
I1125 18:53:57.969671 17955 net.cpp:157] Top shape: 64 224 14 14 (2809856)
I1125 18:53:57.969676 17955 net.cpp:165] Memory required for data: 2561707780
I1125 18:53:57.969681 17955 layer_factory.hpp:76] Creating layer inception_4b/relu_3x3
I1125 18:53:57.969689 17955 net.cpp:106] Creating Layer inception_4b/relu_3x3
I1125 18:53:57.969693 17955 net.cpp:454] inception_4b/relu_3x3 <- inception_4b/3x3
I1125 18:53:57.969701 17955 net.cpp:397] inception_4b/relu_3x3 -> inception_4b/3x3 (in-place)
I1125 18:53:57.969871 17955 net.cpp:150] Setting up inception_4b/relu_3x3
I1125 18:53:57.969880 17955 net.cpp:157] Top shape: 64 224 14 14 (2809856)
I1125 18:53:57.969884 17955 net.cpp:165] Memory required for data: 2572947204
I1125 18:53:57.969887 17955 layer_factory.hpp:76] Creating layer inception_4b/5x5_reduce
I1125 18:53:57.969898 17955 net.cpp:106] Creating Layer inception_4b/5x5_reduce
I1125 18:53:57.969902 17955 net.cpp:454] inception_4b/5x5_reduce <- inception_4a/output_inception_4a/output_0_split_3
I1125 18:53:57.969908 17955 net.cpp:411] inception_4b/5x5_reduce -> inception_4b/5x5_reduce
I1125 18:53:57.971015 17955 net.cpp:150] Setting up inception_4b/5x5_reduce
I1125 18:53:57.971030 17955 net.cpp:157] Top shape: 64 24 14 14 (301056)
I1125 18:53:57.971035 17955 net.cpp:165] Memory required for data: 2574151428
I1125 18:53:57.971040 17955 layer_factory.hpp:76] Creating layer inception_4b/relu_5x5_reduce
I1125 18:53:57.971047 17955 net.cpp:106] Creating Layer inception_4b/relu_5x5_reduce
I1125 18:53:57.971051 17955 net.cpp:454] inception_4b/relu_5x5_reduce <- inception_4b/5x5_reduce
I1125 18:53:57.971058 17955 net.cpp:397] inception_4b/relu_5x5_reduce -> inception_4b/5x5_reduce (in-place)
I1125 18:53:57.971487 17955 net.cpp:150] Setting up inception_4b/relu_5x5_reduce
I1125 18:53:57.971500 17955 net.cpp:157] Top shape: 64 24 14 14 (301056)
I1125 18:53:57.971504 17955 net.cpp:165] Memory required for data: 2575355652
I1125 18:53:57.971508 17955 layer_factory.hpp:76] Creating layer inception_4b/5x5
I1125 18:53:57.971516 17955 net.cpp:106] Creating Layer inception_4b/5x5
I1125 18:53:57.971519 17955 net.cpp:454] inception_4b/5x5 <- inception_4b/5x5_reduce
I1125 18:53:57.971528 17955 net.cpp:411] inception_4b/5x5 -> inception_4b/5x5
I1125 18:53:57.972854 17955 net.cpp:150] Setting up inception_4b/5x5
I1125 18:53:57.972869 17955 net.cpp:157] Top shape: 64 64 14 14 (802816)
I1125 18:53:57.972873 17955 net.cpp:165] Memory required for data: 2578566916
I1125 18:53:57.972880 17955 layer_factory.hpp:76] Creating layer inception_4b/relu_5x5
I1125 18:53:57.972887 17955 net.cpp:106] Creating Layer inception_4b/relu_5x5
I1125 18:53:57.972890 17955 net.cpp:454] inception_4b/relu_5x5 <- inception_4b/5x5
I1125 18:53:57.972898 17955 net.cpp:397] inception_4b/relu_5x5 -> inception_4b/5x5 (in-place)
I1125 18:53:57.973067 17955 net.cpp:150] Setting up inception_4b/relu_5x5
I1125 18:53:57.973076 17955 net.cpp:157] Top shape: 64 64 14 14 (802816)
I1125 18:53:57.973079 17955 net.cpp:165] Memory required for data: 2581778180
I1125 18:53:57.973083 17955 layer_factory.hpp:76] Creating layer inception_4b/pool
I1125 18:53:57.973090 17955 net.cpp:106] Creating Layer inception_4b/pool
I1125 18:53:57.973094 17955 net.cpp:454] inception_4b/pool <- inception_4a/output_inception_4a/output_0_split_4
I1125 18:53:57.973099 17955 net.cpp:411] inception_4b/pool -> inception_4b/pool
I1125 18:53:57.973450 17955 net.cpp:150] Setting up inception_4b/pool
I1125 18:53:57.973464 17955 net.cpp:157] Top shape: 64 512 14 14 (6422528)
I1125 18:53:57.973469 17955 net.cpp:165] Memory required for data: 2607468292
I1125 18:53:57.973471 17955 layer_factory.hpp:76] Creating layer inception_4b/pool_proj
I1125 18:53:57.973481 17955 net.cpp:106] Creating Layer inception_4b/pool_proj
I1125 18:53:57.973485 17955 net.cpp:454] inception_4b/pool_proj <- inception_4b/pool
I1125 18:53:57.973494 17955 net.cpp:411] inception_4b/pool_proj -> inception_4b/pool_proj
I1125 18:53:57.974609 17955 net.cpp:150] Setting up inception_4b/pool_proj
I1125 18:53:57.974623 17955 net.cpp:157] Top shape: 64 64 14 14 (802816)
I1125 18:53:57.974627 17955 net.cpp:165] Memory required for data: 2610679556
I1125 18:53:57.974633 17955 layer_factory.hpp:76] Creating layer inception_4b/relu_pool_proj
I1125 18:53:57.974640 17955 net.cpp:106] Creating Layer inception_4b/relu_pool_proj
I1125 18:53:57.974644 17955 net.cpp:454] inception_4b/relu_pool_proj <- inception_4b/pool_proj
I1125 18:53:57.974650 17955 net.cpp:397] inception_4b/relu_pool_proj -> inception_4b/pool_proj (in-place)
I1125 18:53:57.974964 17955 net.cpp:150] Setting up inception_4b/relu_pool_proj
I1125 18:53:57.974979 17955 net.cpp:157] Top shape: 64 64 14 14 (802816)
I1125 18:53:57.974983 17955 net.cpp:165] Memory required for data: 2613890820
I1125 18:53:57.974987 17955 layer_factory.hpp:76] Creating layer inception_4b/output
I1125 18:53:57.974993 17955 net.cpp:106] Creating Layer inception_4b/output
I1125 18:53:57.974997 17955 net.cpp:454] inception_4b/output <- inception_4b/1x1
I1125 18:53:57.975002 17955 net.cpp:454] inception_4b/output <- inception_4b/3x3
I1125 18:53:57.975005 17955 net.cpp:454] inception_4b/output <- inception_4b/5x5
I1125 18:53:57.975009 17955 net.cpp:454] inception_4b/output <- inception_4b/pool_proj
I1125 18:53:57.975013 17955 net.cpp:411] inception_4b/output -> inception_4b/output
I1125 18:53:57.975049 17955 net.cpp:150] Setting up inception_4b/output
I1125 18:53:57.975056 17955 net.cpp:157] Top shape: 64 512 14 14 (6422528)
I1125 18:53:57.975059 17955 net.cpp:165] Memory required for data: 2639580932
I1125 18:53:57.975062 17955 layer_factory.hpp:76] Creating layer inception_4b/output_inception_4b/output_0_split
I1125 18:53:57.975069 17955 net.cpp:106] Creating Layer inception_4b/output_inception_4b/output_0_split
I1125 18:53:57.975071 17955 net.cpp:454] inception_4b/output_inception_4b/output_0_split <- inception_4b/output
I1125 18:53:57.975077 17955 net.cpp:411] inception_4b/output_inception_4b/output_0_split -> inception_4b/output_inception_4b/output_0_split_0
I1125 18:53:57.975083 17955 net.cpp:411] inception_4b/output_inception_4b/output_0_split -> inception_4b/output_inception_4b/output_0_split_1
I1125 18:53:57.975090 17955 net.cpp:411] inception_4b/output_inception_4b/output_0_split -> inception_4b/output_inception_4b/output_0_split_2
I1125 18:53:57.975095 17955 net.cpp:411] inception_4b/output_inception_4b/output_0_split -> inception_4b/output_inception_4b/output_0_split_3
I1125 18:53:57.975157 17955 net.cpp:150] Setting up inception_4b/output_inception_4b/output_0_split
I1125 18:53:57.975163 17955 net.cpp:157] Top shape: 64 512 14 14 (6422528)
I1125 18:53:57.975167 17955 net.cpp:157] Top shape: 64 512 14 14 (6422528)
I1125 18:53:57.975172 17955 net.cpp:157] Top shape: 64 512 14 14 (6422528)
I1125 18:53:57.975174 17955 net.cpp:157] Top shape: 64 512 14 14 (6422528)
I1125 18:53:57.975178 17955 net.cpp:165] Memory required for data: 2742341380
I1125 18:53:57.975180 17955 layer_factory.hpp:76] Creating layer inception_4c/1x1
I1125 18:53:57.975188 17955 net.cpp:106] Creating Layer inception_4c/1x1
I1125 18:53:57.975193 17955 net.cpp:454] inception_4c/1x1 <- inception_4b/output_inception_4b/output_0_split_0
I1125 18:53:57.975198 17955 net.cpp:411] inception_4c/1x1 -> inception_4c/1x1
I1125 18:53:57.976629 17955 net.cpp:150] Setting up inception_4c/1x1
I1125 18:53:57.976644 17955 net.cpp:157] Top shape: 64 128 14 14 (1605632)
I1125 18:53:57.976649 17955 net.cpp:165] Memory required for data: 2748763908
I1125 18:53:57.976655 17955 layer_factory.hpp:76] Creating layer inception_4c/relu_1x1
I1125 18:53:57.976665 17955 net.cpp:106] Creating Layer inception_4c/relu_1x1
I1125 18:53:57.976668 17955 net.cpp:454] inception_4c/relu_1x1 <- inception_4c/1x1
I1125 18:53:57.976673 17955 net.cpp:397] inception_4c/relu_1x1 -> inception_4c/1x1 (in-place)
I1125 18:53:57.976845 17955 net.cpp:150] Setting up inception_4c/relu_1x1
I1125 18:53:57.976855 17955 net.cpp:157] Top shape: 64 128 14 14 (1605632)
I1125 18:53:57.976857 17955 net.cpp:165] Memory required for data: 2755186436
I1125 18:53:57.976861 17955 layer_factory.hpp:76] Creating layer inception_4c/3x3_reduce
I1125 18:53:57.976871 17955 net.cpp:106] Creating Layer inception_4c/3x3_reduce
I1125 18:53:57.976874 17955 net.cpp:454] inception_4c/3x3_reduce <- inception_4b/output_inception_4b/output_0_split_1
I1125 18:53:57.976881 17955 net.cpp:411] inception_4c/3x3_reduce -> inception_4c/3x3_reduce
I1125 18:53:57.978363 17955 net.cpp:150] Setting up inception_4c/3x3_reduce
I1125 18:53:57.978379 17955 net.cpp:157] Top shape: 64 128 14 14 (1605632)
I1125 18:53:57.978382 17955 net.cpp:165] Memory required for data: 2761608964
I1125 18:53:57.978389 17955 layer_factory.hpp:76] Creating layer inception_4c/relu_3x3_reduce
I1125 18:53:57.978395 17955 net.cpp:106] Creating Layer inception_4c/relu_3x3_reduce
I1125 18:53:57.978400 17955 net.cpp:454] inception_4c/relu_3x3_reduce <- inception_4c/3x3_reduce
I1125 18:53:57.978405 17955 net.cpp:397] inception_4c/relu_3x3_reduce -> inception_4c/3x3_reduce (in-place)
I1125 18:53:57.978721 17955 net.cpp:150] Setting up inception_4c/relu_3x3_reduce
I1125 18:53:57.978735 17955 net.cpp:157] Top shape: 64 128 14 14 (1605632)
I1125 18:53:57.978739 17955 net.cpp:165] Memory required for data: 2768031492
I1125 18:53:57.978742 17955 layer_factory.hpp:76] Creating layer inception_4c/3x3
I1125 18:53:57.978754 17955 net.cpp:106] Creating Layer inception_4c/3x3
I1125 18:53:57.978759 17955 net.cpp:454] inception_4c/3x3 <- inception_4c/3x3_reduce
I1125 18:53:57.978765 17955 net.cpp:411] inception_4c/3x3 -> inception_4c/3x3
I1125 18:53:57.981993 17955 net.cpp:150] Setting up inception_4c/3x3
I1125 18:53:57.982009 17955 net.cpp:157] Top shape: 64 256 14 14 (3211264)
I1125 18:53:57.982013 17955 net.cpp:165] Memory required for data: 2780876548
I1125 18:53:57.982031 17955 layer_factory.hpp:76] Creating layer inception_4c/relu_3x3
I1125 18:53:57.982039 17955 net.cpp:106] Creating Layer inception_4c/relu_3x3
I1125 18:53:57.982043 17955 net.cpp:454] inception_4c/relu_3x3 <- inception_4c/3x3
I1125 18:53:57.982048 17955 net.cpp:397] inception_4c/relu_3x3 -> inception_4c/3x3 (in-place)
I1125 18:53:57.982357 17955 net.cpp:150] Setting up inception_4c/relu_3x3
I1125 18:53:57.982372 17955 net.cpp:157] Top shape: 64 256 14 14 (3211264)
I1125 18:53:57.982375 17955 net.cpp:165] Memory required for data: 2793721604
I1125 18:53:57.982378 17955 layer_factory.hpp:76] Creating layer inception_4c/5x5_reduce
I1125 18:53:57.982386 17955 net.cpp:106] Creating Layer inception_4c/5x5_reduce
I1125 18:53:57.982390 17955 net.cpp:454] inception_4c/5x5_reduce <- inception_4b/output_inception_4b/output_0_split_2
I1125 18:53:57.982398 17955 net.cpp:411] inception_4c/5x5_reduce -> inception_4c/5x5_reduce
I1125 18:53:57.983562 17955 net.cpp:150] Setting up inception_4c/5x5_reduce
I1125 18:53:57.983578 17955 net.cpp:157] Top shape: 64 24 14 14 (301056)
I1125 18:53:57.983582 17955 net.cpp:165] Memory required for data: 2794925828
I1125 18:53:57.983588 17955 layer_factory.hpp:76] Creating layer inception_4c/relu_5x5_reduce
I1125 18:53:57.983597 17955 net.cpp:106] Creating Layer inception_4c/relu_5x5_reduce
I1125 18:53:57.983602 17955 net.cpp:454] inception_4c/relu_5x5_reduce <- inception_4c/5x5_reduce
I1125 18:53:57.983606 17955 net.cpp:397] inception_4c/relu_5x5_reduce -> inception_4c/5x5_reduce (in-place)
I1125 18:53:57.983777 17955 net.cpp:150] Setting up inception_4c/relu_5x5_reduce
I1125 18:53:57.983788 17955 net.cpp:157] Top shape: 64 24 14 14 (301056)
I1125 18:53:57.983791 17955 net.cpp:165] Memory required for data: 2796130052
I1125 18:53:57.983794 17955 layer_factory.hpp:76] Creating layer inception_4c/5x5
I1125 18:53:57.983803 17955 net.cpp:106] Creating Layer inception_4c/5x5
I1125 18:53:57.983808 17955 net.cpp:454] inception_4c/5x5 <- inception_4c/5x5_reduce
I1125 18:53:57.983814 17955 net.cpp:411] inception_4c/5x5 -> inception_4c/5x5
I1125 18:53:57.985530 17955 net.cpp:150] Setting up inception_4c/5x5
I1125 18:53:57.985546 17955 net.cpp:157] Top shape: 64 64 14 14 (802816)
I1125 18:53:57.985550 17955 net.cpp:165] Memory required for data: 2799341316
I1125 18:53:57.985558 17955 layer_factory.hpp:76] Creating layer inception_4c/relu_5x5
I1125 18:53:57.985563 17955 net.cpp:106] Creating Layer inception_4c/relu_5x5
I1125 18:53:57.985566 17955 net.cpp:454] inception_4c/relu_5x5 <- inception_4c/5x5
I1125 18:53:57.985574 17955 net.cpp:397] inception_4c/relu_5x5 -> inception_4c/5x5 (in-place)
I1125 18:53:57.985889 17955 net.cpp:150] Setting up inception_4c/relu_5x5
I1125 18:53:57.985904 17955 net.cpp:157] Top shape: 64 64 14 14 (802816)
I1125 18:53:57.985908 17955 net.cpp:165] Memory required for data: 2802552580
I1125 18:53:57.985911 17955 layer_factory.hpp:76] Creating layer inception_4c/pool
I1125 18:53:57.985918 17955 net.cpp:106] Creating Layer inception_4c/pool
I1125 18:53:57.985921 17955 net.cpp:454] inception_4c/pool <- inception_4b/output_inception_4b/output_0_split_3
I1125 18:53:57.985927 17955 net.cpp:411] inception_4c/pool -> inception_4c/pool
I1125 18:53:57.986136 17955 net.cpp:150] Setting up inception_4c/pool
I1125 18:53:57.986148 17955 net.cpp:157] Top shape: 64 512 14 14 (6422528)
I1125 18:53:57.986151 17955 net.cpp:165] Memory required for data: 2828242692
I1125 18:53:57.986155 17955 layer_factory.hpp:76] Creating layer inception_4c/pool_proj
I1125 18:53:57.986163 17955 net.cpp:106] Creating Layer inception_4c/pool_proj
I1125 18:53:57.986167 17955 net.cpp:454] inception_4c/pool_proj <- inception_4c/pool
I1125 18:53:57.986176 17955 net.cpp:411] inception_4c/pool_proj -> inception_4c/pool_proj
I1125 18:53:57.987543 17955 net.cpp:150] Setting up inception_4c/pool_proj
I1125 18:53:57.987558 17955 net.cpp:157] Top shape: 64 64 14 14 (802816)
I1125 18:53:57.987561 17955 net.cpp:165] Memory required for data: 2831453956
I1125 18:53:57.987568 17955 layer_factory.hpp:76] Creating layer inception_4c/relu_pool_proj
I1125 18:53:57.987573 17955 net.cpp:106] Creating Layer inception_4c/relu_pool_proj
I1125 18:53:57.987577 17955 net.cpp:454] inception_4c/relu_pool_proj <- inception_4c/pool_proj
I1125 18:53:57.987584 17955 net.cpp:397] inception_4c/relu_pool_proj -> inception_4c/pool_proj (in-place)
I1125 18:53:57.987893 17955 net.cpp:150] Setting up inception_4c/relu_pool_proj
I1125 18:53:57.987907 17955 net.cpp:157] Top shape: 64 64 14 14 (802816)
I1125 18:53:57.987910 17955 net.cpp:165] Memory required for data: 2834665220
I1125 18:53:57.987915 17955 layer_factory.hpp:76] Creating layer inception_4c/output
I1125 18:53:57.987920 17955 net.cpp:106] Creating Layer inception_4c/output
I1125 18:53:57.987923 17955 net.cpp:454] inception_4c/output <- inception_4c/1x1
I1125 18:53:57.987928 17955 net.cpp:454] inception_4c/output <- inception_4c/3x3
I1125 18:53:57.987932 17955 net.cpp:454] inception_4c/output <- inception_4c/5x5
I1125 18:53:57.987936 17955 net.cpp:454] inception_4c/output <- inception_4c/pool_proj
I1125 18:53:57.987942 17955 net.cpp:411] inception_4c/output -> inception_4c/output
I1125 18:53:57.987977 17955 net.cpp:150] Setting up inception_4c/output
I1125 18:53:57.987982 17955 net.cpp:157] Top shape: 64 512 14 14 (6422528)
I1125 18:53:57.987985 17955 net.cpp:165] Memory required for data: 2860355332
I1125 18:53:57.987987 17955 layer_factory.hpp:76] Creating layer inception_4c/output_inception_4c/output_0_split
I1125 18:53:57.987994 17955 net.cpp:106] Creating Layer inception_4c/output_inception_4c/output_0_split
I1125 18:53:57.987998 17955 net.cpp:454] inception_4c/output_inception_4c/output_0_split <- inception_4c/output
I1125 18:53:57.988003 17955 net.cpp:411] inception_4c/output_inception_4c/output_0_split -> inception_4c/output_inception_4c/output_0_split_0
I1125 18:53:57.988009 17955 net.cpp:411] inception_4c/output_inception_4c/output_0_split -> inception_4c/output_inception_4c/output_0_split_1
I1125 18:53:57.988016 17955 net.cpp:411] inception_4c/output_inception_4c/output_0_split -> inception_4c/output_inception_4c/output_0_split_2
I1125 18:53:57.988023 17955 net.cpp:411] inception_4c/output_inception_4c/output_0_split -> inception_4c/output_inception_4c/output_0_split_3
I1125 18:53:57.988086 17955 net.cpp:150] Setting up inception_4c/output_inception_4c/output_0_split
I1125 18:53:57.988092 17955 net.cpp:157] Top shape: 64 512 14 14 (6422528)
I1125 18:53:57.988096 17955 net.cpp:157] Top shape: 64 512 14 14 (6422528)
I1125 18:53:57.988100 17955 net.cpp:157] Top shape: 64 512 14 14 (6422528)
I1125 18:53:57.988103 17955 net.cpp:157] Top shape: 64 512 14 14 (6422528)
I1125 18:53:57.988106 17955 net.cpp:165] Memory required for data: 2963115780
I1125 18:53:57.988108 17955 layer_factory.hpp:76] Creating layer inception_4d/1x1
I1125 18:53:57.988117 17955 net.cpp:106] Creating Layer inception_4d/1x1
I1125 18:53:57.988121 17955 net.cpp:454] inception_4d/1x1 <- inception_4c/output_inception_4c/output_0_split_0
I1125 18:53:57.988126 17955 net.cpp:411] inception_4d/1x1 -> inception_4d/1x1
I1125 18:53:57.989387 17955 net.cpp:150] Setting up inception_4d/1x1
I1125 18:53:57.989401 17955 net.cpp:157] Top shape: 64 112 14 14 (1404928)
I1125 18:53:57.989405 17955 net.cpp:165] Memory required for data: 2968735492
I1125 18:53:57.989411 17955 layer_factory.hpp:76] Creating layer inception_4d/relu_1x1
I1125 18:53:57.989418 17955 net.cpp:106] Creating Layer inception_4d/relu_1x1
I1125 18:53:57.989420 17955 net.cpp:454] inception_4d/relu_1x1 <- inception_4d/1x1
I1125 18:53:57.989425 17955 net.cpp:397] inception_4d/relu_1x1 -> inception_4d/1x1 (in-place)
I1125 18:53:57.989756 17955 net.cpp:150] Setting up inception_4d/relu_1x1
I1125 18:53:57.989770 17955 net.cpp:157] Top shape: 64 112 14 14 (1404928)
I1125 18:53:57.989774 17955 net.cpp:165] Memory required for data: 2974355204
I1125 18:53:57.989778 17955 layer_factory.hpp:76] Creating layer inception_4d/3x3_reduce
I1125 18:53:57.989787 17955 net.cpp:106] Creating Layer inception_4d/3x3_reduce
I1125 18:53:57.989792 17955 net.cpp:454] inception_4d/3x3_reduce <- inception_4c/output_inception_4c/output_0_split_1
I1125 18:53:57.989799 17955 net.cpp:411] inception_4d/3x3_reduce -> inception_4d/3x3_reduce
I1125 18:53:57.991508 17955 net.cpp:150] Setting up inception_4d/3x3_reduce
I1125 18:53:57.991523 17955 net.cpp:157] Top shape: 64 144 14 14 (1806336)
I1125 18:53:57.991528 17955 net.cpp:165] Memory required for data: 2981580548
I1125 18:53:57.991533 17955 layer_factory.hpp:76] Creating layer inception_4d/relu_3x3_reduce
I1125 18:53:57.991540 17955 net.cpp:106] Creating Layer inception_4d/relu_3x3_reduce
I1125 18:53:57.991545 17955 net.cpp:454] inception_4d/relu_3x3_reduce <- inception_4d/3x3_reduce
I1125 18:53:57.991550 17955 net.cpp:397] inception_4d/relu_3x3_reduce -> inception_4d/3x3_reduce (in-place)
I1125 18:53:57.991722 17955 net.cpp:150] Setting up inception_4d/relu_3x3_reduce
I1125 18:53:57.991734 17955 net.cpp:157] Top shape: 64 144 14 14 (1806336)
I1125 18:53:57.991736 17955 net.cpp:165] Memory required for data: 2988805892
I1125 18:53:57.991740 17955 layer_factory.hpp:76] Creating layer inception_4d/3x3
I1125 18:53:57.991749 17955 net.cpp:106] Creating Layer inception_4d/3x3
I1125 18:53:57.991753 17955 net.cpp:454] inception_4d/3x3 <- inception_4d/3x3_reduce
I1125 18:53:57.991760 17955 net.cpp:411] inception_4d/3x3 -> inception_4d/3x3
I1125 18:53:57.995721 17955 net.cpp:150] Setting up inception_4d/3x3
I1125 18:53:57.995736 17955 net.cpp:157] Top shape: 64 288 14 14 (3612672)
I1125 18:53:57.995740 17955 net.cpp:165] Memory required for data: 3003256580
I1125 18:53:57.995746 17955 layer_factory.hpp:76] Creating layer inception_4d/relu_3x3
I1125 18:53:57.995753 17955 net.cpp:106] Creating Layer inception_4d/relu_3x3
I1125 18:53:57.995756 17955 net.cpp:454] inception_4d/relu_3x3 <- inception_4d/3x3
I1125 18:53:57.995764 17955 net.cpp:397] inception_4d/relu_3x3 -> inception_4d/3x3 (in-place)
I1125 18:53:57.996075 17955 net.cpp:150] Setting up inception_4d/relu_3x3
I1125 18:53:57.996089 17955 net.cpp:157] Top shape: 64 288 14 14 (3612672)
I1125 18:53:57.996093 17955 net.cpp:165] Memory required for data: 3017707268
I1125 18:53:57.996096 17955 layer_factory.hpp:76] Creating layer inception_4d/5x5_reduce
I1125 18:53:57.996106 17955 net.cpp:106] Creating Layer inception_4d/5x5_reduce
I1125 18:53:57.996110 17955 net.cpp:454] inception_4d/5x5_reduce <- inception_4c/output_inception_4c/output_0_split_2
I1125 18:53:57.996119 17955 net.cpp:411] inception_4d/5x5_reduce -> inception_4d/5x5_reduce
I1125 18:53:57.997148 17955 net.cpp:150] Setting up inception_4d/5x5_reduce
I1125 18:53:57.997162 17955 net.cpp:157] Top shape: 64 32 14 14 (401408)
I1125 18:53:57.997166 17955 net.cpp:165] Memory required for data: 3019312900
I1125 18:53:57.997172 17955 layer_factory.hpp:76] Creating layer inception_4d/relu_5x5_reduce
I1125 18:53:57.997179 17955 net.cpp:106] Creating Layer inception_4d/relu_5x5_reduce
I1125 18:53:57.997182 17955 net.cpp:454] inception_4d/relu_5x5_reduce <- inception_4d/5x5_reduce
I1125 18:53:57.997189 17955 net.cpp:397] inception_4d/relu_5x5_reduce -> inception_4d/5x5_reduce (in-place)
I1125 18:53:57.997526 17955 net.cpp:150] Setting up inception_4d/relu_5x5_reduce
I1125 18:53:57.997540 17955 net.cpp:157] Top shape: 64 32 14 14 (401408)
I1125 18:53:57.997544 17955 net.cpp:165] Memory required for data: 3020918532
I1125 18:53:57.997547 17955 layer_factory.hpp:76] Creating layer inception_4d/5x5
I1125 18:53:57.997557 17955 net.cpp:106] Creating Layer inception_4d/5x5
I1125 18:53:57.997561 17955 net.cpp:454] inception_4d/5x5 <- inception_4d/5x5_reduce
I1125 18:53:57.997570 17955 net.cpp:411] inception_4d/5x5 -> inception_4d/5x5
I1125 18:53:57.998965 17955 net.cpp:150] Setting up inception_4d/5x5
I1125 18:53:57.998980 17955 net.cpp:157] Top shape: 64 64 14 14 (802816)
I1125 18:53:57.998983 17955 net.cpp:165] Memory required for data: 3024129796
I1125 18:53:57.998991 17955 layer_factory.hpp:76] Creating layer inception_4d/relu_5x5
I1125 18:53:57.998996 17955 net.cpp:106] Creating Layer inception_4d/relu_5x5
I1125 18:53:57.999001 17955 net.cpp:454] inception_4d/relu_5x5 <- inception_4d/5x5
I1125 18:53:57.999006 17955 net.cpp:397] inception_4d/relu_5x5 -> inception_4d/5x5 (in-place)
I1125 18:53:57.999181 17955 net.cpp:150] Setting up inception_4d/relu_5x5
I1125 18:53:57.999191 17955 net.cpp:157] Top shape: 64 64 14 14 (802816)
I1125 18:53:57.999194 17955 net.cpp:165] Memory required for data: 3027341060
I1125 18:53:57.999198 17955 layer_factory.hpp:76] Creating layer inception_4d/pool
I1125 18:53:57.999203 17955 net.cpp:106] Creating Layer inception_4d/pool
I1125 18:53:57.999207 17955 net.cpp:454] inception_4d/pool <- inception_4c/output_inception_4c/output_0_split_3
I1125 18:53:57.999214 17955 net.cpp:411] inception_4d/pool -> inception_4d/pool
I1125 18:53:57.999565 17955 net.cpp:150] Setting up inception_4d/pool
I1125 18:53:57.999579 17955 net.cpp:157] Top shape: 64 512 14 14 (6422528)
I1125 18:53:57.999583 17955 net.cpp:165] Memory required for data: 3053031172
I1125 18:53:57.999586 17955 layer_factory.hpp:76] Creating layer inception_4d/pool_proj
I1125 18:53:57.999595 17955 net.cpp:106] Creating Layer inception_4d/pool_proj
I1125 18:53:57.999600 17955 net.cpp:454] inception_4d/pool_proj <- inception_4d/pool
I1125 18:53:57.999608 17955 net.cpp:411] inception_4d/pool_proj -> inception_4d/pool_proj
I1125 18:53:58.000870 17955 net.cpp:150] Setting up inception_4d/pool_proj
I1125 18:53:58.000888 17955 net.cpp:157] Top shape: 64 64 14 14 (802816)
I1125 18:53:58.000892 17955 net.cpp:165] Memory required for data: 3056242436
I1125 18:53:58.000898 17955 layer_factory.hpp:76] Creating layer inception_4d/relu_pool_proj
I1125 18:53:58.000905 17955 net.cpp:106] Creating Layer inception_4d/relu_pool_proj
I1125 18:53:58.000908 17955 net.cpp:454] inception_4d/relu_pool_proj <- inception_4d/pool_proj
I1125 18:53:58.000916 17955 net.cpp:397] inception_4d/relu_pool_proj -> inception_4d/pool_proj (in-place)
I1125 18:53:58.001091 17955 net.cpp:150] Setting up inception_4d/relu_pool_proj
I1125 18:53:58.001103 17955 net.cpp:157] Top shape: 64 64 14 14 (802816)
I1125 18:53:58.001106 17955 net.cpp:165] Memory required for data: 3059453700
I1125 18:53:58.001111 17955 layer_factory.hpp:76] Creating layer inception_4d/output
I1125 18:53:58.001116 17955 net.cpp:106] Creating Layer inception_4d/output
I1125 18:53:58.001119 17955 net.cpp:454] inception_4d/output <- inception_4d/1x1
I1125 18:53:58.001124 17955 net.cpp:454] inception_4d/output <- inception_4d/3x3
I1125 18:53:58.001128 17955 net.cpp:454] inception_4d/output <- inception_4d/5x5
I1125 18:53:58.001132 17955 net.cpp:454] inception_4d/output <- inception_4d/pool_proj
I1125 18:53:58.001137 17955 net.cpp:411] inception_4d/output -> inception_4d/output
I1125 18:53:58.001173 17955 net.cpp:150] Setting up inception_4d/output
I1125 18:53:58.001179 17955 net.cpp:157] Top shape: 64 528 14 14 (6623232)
I1125 18:53:58.001183 17955 net.cpp:165] Memory required for data: 3085946628
I1125 18:53:58.001185 17955 layer_factory.hpp:76] Creating layer inception_4d/output_inception_4d/output_0_split
I1125 18:53:58.001193 17955 net.cpp:106] Creating Layer inception_4d/output_inception_4d/output_0_split
I1125 18:53:58.001196 17955 net.cpp:454] inception_4d/output_inception_4d/output_0_split <- inception_4d/output
I1125 18:53:58.001201 17955 net.cpp:411] inception_4d/output_inception_4d/output_0_split -> inception_4d/output_inception_4d/output_0_split_0
I1125 18:53:58.001207 17955 net.cpp:411] inception_4d/output_inception_4d/output_0_split -> inception_4d/output_inception_4d/output_0_split_1
I1125 18:53:58.001212 17955 net.cpp:411] inception_4d/output_inception_4d/output_0_split -> inception_4d/output_inception_4d/output_0_split_2
I1125 18:53:58.001217 17955 net.cpp:411] inception_4d/output_inception_4d/output_0_split -> inception_4d/output_inception_4d/output_0_split_3
I1125 18:53:58.001222 17955 net.cpp:411] inception_4d/output_inception_4d/output_0_split -> inception_4d/output_inception_4d/output_0_split_4
I1125 18:53:58.001309 17955 net.cpp:150] Setting up inception_4d/output_inception_4d/output_0_split
I1125 18:53:58.001317 17955 net.cpp:157] Top shape: 64 528 14 14 (6623232)
I1125 18:53:58.001322 17955 net.cpp:157] Top shape: 64 528 14 14 (6623232)
I1125 18:53:58.001324 17955 net.cpp:157] Top shape: 64 528 14 14 (6623232)
I1125 18:53:58.001327 17955 net.cpp:157] Top shape: 64 528 14 14 (6623232)
I1125 18:53:58.001332 17955 net.cpp:157] Top shape: 64 528 14 14 (6623232)
I1125 18:53:58.001333 17955 net.cpp:165] Memory required for data: 3218411268
I1125 18:53:58.001338 17955 layer_factory.hpp:76] Creating layer loss2/ave_pool
I1125 18:53:58.001343 17955 net.cpp:106] Creating Layer loss2/ave_pool
I1125 18:53:58.001345 17955 net.cpp:454] loss2/ave_pool <- inception_4d/output_inception_4d/output_0_split_0
I1125 18:53:58.001353 17955 net.cpp:411] loss2/ave_pool -> loss2/ave_pool
I1125 18:53:58.001720 17955 net.cpp:150] Setting up loss2/ave_pool
I1125 18:53:58.001734 17955 net.cpp:157] Top shape: 64 528 4 4 (540672)
I1125 18:53:58.001739 17955 net.cpp:165] Memory required for data: 3220573956
I1125 18:53:58.001741 17955 layer_factory.hpp:76] Creating layer loss2/conv
I1125 18:53:58.001750 17955 net.cpp:106] Creating Layer loss2/conv
I1125 18:53:58.001755 17955 net.cpp:454] loss2/conv <- loss2/ave_pool
I1125 18:53:58.001762 17955 net.cpp:411] loss2/conv -> loss2/conv
I1125 18:53:58.003574 17955 net.cpp:150] Setting up loss2/conv
I1125 18:53:58.003590 17955 net.cpp:157] Top shape: 64 128 4 4 (131072)
I1125 18:53:58.003594 17955 net.cpp:165] Memory required for data: 3221098244
I1125 18:53:58.003600 17955 layer_factory.hpp:76] Creating layer loss2/relu_conv
I1125 18:53:58.003608 17955 net.cpp:106] Creating Layer loss2/relu_conv
I1125 18:53:58.003612 17955 net.cpp:454] loss2/relu_conv <- loss2/conv
I1125 18:53:58.003618 17955 net.cpp:397] loss2/relu_conv -> loss2/conv (in-place)
I1125 18:53:58.004056 17955 net.cpp:150] Setting up loss2/relu_conv
I1125 18:53:58.004070 17955 net.cpp:157] Top shape: 64 128 4 4 (131072)
I1125 18:53:58.004075 17955 net.cpp:165] Memory required for data: 3221622532
I1125 18:53:58.004077 17955 layer_factory.hpp:76] Creating layer loss2/fc
I1125 18:53:58.004086 17955 net.cpp:106] Creating Layer loss2/fc
I1125 18:53:58.004091 17955 net.cpp:454] loss2/fc <- loss2/conv
I1125 18:53:58.004097 17955 net.cpp:411] loss2/fc -> loss2/fc
I1125 18:53:58.019651 17955 net.cpp:150] Setting up loss2/fc
I1125 18:53:58.019667 17955 net.cpp:157] Top shape: 64 1024 (65536)
I1125 18:53:58.019671 17955 net.cpp:165] Memory required for data: 3221884676
I1125 18:53:58.019677 17955 layer_factory.hpp:76] Creating layer loss2/relu_fc
I1125 18:53:58.019685 17955 net.cpp:106] Creating Layer loss2/relu_fc
I1125 18:53:58.019688 17955 net.cpp:454] loss2/relu_fc <- loss2/fc
I1125 18:53:58.019695 17955 net.cpp:397] loss2/relu_fc -> loss2/fc (in-place)
I1125 18:53:58.019891 17955 net.cpp:150] Setting up loss2/relu_fc
I1125 18:53:58.019901 17955 net.cpp:157] Top shape: 64 1024 (65536)
I1125 18:53:58.019904 17955 net.cpp:165] Memory required for data: 3222146820
I1125 18:53:58.019907 17955 layer_factory.hpp:76] Creating layer loss2/drop_fc
I1125 18:53:58.019917 17955 net.cpp:106] Creating Layer loss2/drop_fc
I1125 18:53:58.019920 17955 net.cpp:454] loss2/drop_fc <- loss2/fc
I1125 18:53:58.019927 17955 net.cpp:397] loss2/drop_fc -> loss2/fc (in-place)
I1125 18:53:58.019961 17955 net.cpp:150] Setting up loss2/drop_fc
I1125 18:53:58.019969 17955 net.cpp:157] Top shape: 64 1024 (65536)
I1125 18:53:58.019973 17955 net.cpp:165] Memory required for data: 3222408964
I1125 18:53:58.019975 17955 layer_factory.hpp:76] Creating layer loss2/classifier-attribute
I1125 18:53:58.019984 17955 net.cpp:106] Creating Layer loss2/classifier-attribute
I1125 18:53:58.019987 17955 net.cpp:454] loss2/classifier-attribute <- loss2/fc
I1125 18:53:58.019994 17955 net.cpp:411] loss2/classifier-attribute -> loss2/classifier-attribute
I1125 18:53:58.020198 17955 net.cpp:150] Setting up loss2/classifier-attribute
I1125 18:53:58.020207 17955 net.cpp:157] Top shape: 64 11 (704)
I1125 18:53:58.020210 17955 net.cpp:165] Memory required for data: 3222411780
I1125 18:53:58.020216 17955 layer_factory.hpp:76] Creating layer loss2/loss
I1125 18:53:58.020225 17955 net.cpp:106] Creating Layer loss2/loss
I1125 18:53:58.020228 17955 net.cpp:454] loss2/loss <- loss2/classifier-attribute
I1125 18:53:58.020233 17955 net.cpp:454] loss2/loss <- label_data_1_split_1
I1125 18:53:58.020238 17955 net.cpp:411] loss2/loss -> loss2/loss1
I1125 18:53:58.020246 17955 layer_factory.hpp:76] Creating layer loss2/loss
I1125 18:53:58.020679 17955 net.cpp:150] Setting up loss2/loss
I1125 18:53:58.020694 17955 net.cpp:157] Top shape: (1)
I1125 18:53:58.020696 17955 net.cpp:160]     with loss weight 0.3
I1125 18:53:58.020706 17955 net.cpp:165] Memory required for data: 3222411784
I1125 18:53:58.020710 17955 layer_factory.hpp:76] Creating layer inception_4e/1x1
I1125 18:53:58.020720 17955 net.cpp:106] Creating Layer inception_4e/1x1
I1125 18:53:58.020725 17955 net.cpp:454] inception_4e/1x1 <- inception_4d/output_inception_4d/output_0_split_1
I1125 18:53:58.020732 17955 net.cpp:411] inception_4e/1x1 -> inception_4e/1x1
I1125 18:53:58.022689 17955 net.cpp:150] Setting up inception_4e/1x1
I1125 18:53:58.022704 17955 net.cpp:157] Top shape: 64 256 14 14 (3211264)
I1125 18:53:58.022708 17955 net.cpp:165] Memory required for data: 3235256840
I1125 18:53:58.022714 17955 layer_factory.hpp:76] Creating layer inception_4e/relu_1x1
I1125 18:53:58.022721 17955 net.cpp:106] Creating Layer inception_4e/relu_1x1
I1125 18:53:58.022724 17955 net.cpp:454] inception_4e/relu_1x1 <- inception_4e/1x1
I1125 18:53:58.022729 17955 net.cpp:397] inception_4e/relu_1x1 -> inception_4e/1x1 (in-place)
I1125 18:53:58.022920 17955 net.cpp:150] Setting up inception_4e/relu_1x1
I1125 18:53:58.022933 17955 net.cpp:157] Top shape: 64 256 14 14 (3211264)
I1125 18:53:58.022936 17955 net.cpp:165] Memory required for data: 3248101896
I1125 18:53:58.022940 17955 layer_factory.hpp:76] Creating layer inception_4e/3x3_reduce
I1125 18:53:58.022948 17955 net.cpp:106] Creating Layer inception_4e/3x3_reduce
I1125 18:53:58.022953 17955 net.cpp:454] inception_4e/3x3_reduce <- inception_4d/output_inception_4d/output_0_split_2
I1125 18:53:58.022959 17955 net.cpp:411] inception_4e/3x3_reduce -> inception_4e/3x3_reduce
I1125 18:53:58.025022 17955 net.cpp:150] Setting up inception_4e/3x3_reduce
I1125 18:53:58.025038 17955 net.cpp:157] Top shape: 64 160 14 14 (2007040)
I1125 18:53:58.025041 17955 net.cpp:165] Memory required for data: 3256130056
I1125 18:53:58.025048 17955 layer_factory.hpp:76] Creating layer inception_4e/relu_3x3_reduce
I1125 18:53:58.025055 17955 net.cpp:106] Creating Layer inception_4e/relu_3x3_reduce
I1125 18:53:58.025059 17955 net.cpp:454] inception_4e/relu_3x3_reduce <- inception_4e/3x3_reduce
I1125 18:53:58.025066 17955 net.cpp:397] inception_4e/relu_3x3_reduce -> inception_4e/3x3_reduce (in-place)
I1125 18:53:58.025385 17955 net.cpp:150] Setting up inception_4e/relu_3x3_reduce
I1125 18:53:58.025399 17955 net.cpp:157] Top shape: 64 160 14 14 (2007040)
I1125 18:53:58.025403 17955 net.cpp:165] Memory required for data: 3264158216
I1125 18:53:58.025406 17955 layer_factory.hpp:76] Creating layer inception_4e/3x3
I1125 18:53:58.025415 17955 net.cpp:106] Creating Layer inception_4e/3x3
I1125 18:53:58.025420 17955 net.cpp:454] inception_4e/3x3 <- inception_4e/3x3_reduce
I1125 18:53:58.025429 17955 net.cpp:411] inception_4e/3x3 -> inception_4e/3x3
I1125 18:53:58.029932 17955 net.cpp:150] Setting up inception_4e/3x3
I1125 18:53:58.029947 17955 net.cpp:157] Top shape: 64 320 14 14 (4014080)
I1125 18:53:58.029950 17955 net.cpp:165] Memory required for data: 3280214536
I1125 18:53:58.029956 17955 layer_factory.hpp:76] Creating layer inception_4e/relu_3x3
I1125 18:53:58.029963 17955 net.cpp:106] Creating Layer inception_4e/relu_3x3
I1125 18:53:58.029966 17955 net.cpp:454] inception_4e/relu_3x3 <- inception_4e/3x3
I1125 18:53:58.029973 17955 net.cpp:397] inception_4e/relu_3x3 -> inception_4e/3x3 (in-place)
I1125 18:53:58.030297 17955 net.cpp:150] Setting up inception_4e/relu_3x3
I1125 18:53:58.030309 17955 net.cpp:157] Top shape: 64 320 14 14 (4014080)
I1125 18:53:58.030313 17955 net.cpp:165] Memory required for data: 3296270856
I1125 18:53:58.030316 17955 layer_factory.hpp:76] Creating layer inception_4e/5x5_reduce
I1125 18:53:58.030326 17955 net.cpp:106] Creating Layer inception_4e/5x5_reduce
I1125 18:53:58.030330 17955 net.cpp:454] inception_4e/5x5_reduce <- inception_4d/output_inception_4d/output_0_split_3
I1125 18:53:58.030339 17955 net.cpp:411] inception_4e/5x5_reduce -> inception_4e/5x5_reduce
I1125 18:53:58.031551 17955 net.cpp:150] Setting up inception_4e/5x5_reduce
I1125 18:53:58.031568 17955 net.cpp:157] Top shape: 64 32 14 14 (401408)
I1125 18:53:58.031571 17955 net.cpp:165] Memory required for data: 3297876488
I1125 18:53:58.031577 17955 layer_factory.hpp:76] Creating layer inception_4e/relu_5x5_reduce
I1125 18:53:58.031586 17955 net.cpp:106] Creating Layer inception_4e/relu_5x5_reduce
I1125 18:53:58.031590 17955 net.cpp:454] inception_4e/relu_5x5_reduce <- inception_4e/5x5_reduce
I1125 18:53:58.031596 17955 net.cpp:397] inception_4e/relu_5x5_reduce -> inception_4e/5x5_reduce (in-place)
I1125 18:53:58.031774 17955 net.cpp:150] Setting up inception_4e/relu_5x5_reduce
I1125 18:53:58.031785 17955 net.cpp:157] Top shape: 64 32 14 14 (401408)
I1125 18:53:58.031787 17955 net.cpp:165] Memory required for data: 3299482120
I1125 18:53:58.031791 17955 layer_factory.hpp:76] Creating layer inception_4e/5x5
I1125 18:53:58.031816 17955 net.cpp:106] Creating Layer inception_4e/5x5
I1125 18:53:58.031821 17955 net.cpp:454] inception_4e/5x5 <- inception_4e/5x5_reduce
I1125 18:53:58.031826 17955 net.cpp:411] inception_4e/5x5 -> inception_4e/5x5
I1125 18:53:58.033572 17955 net.cpp:150] Setting up inception_4e/5x5
I1125 18:53:58.033587 17955 net.cpp:157] Top shape: 64 128 14 14 (1605632)
I1125 18:53:58.033591 17955 net.cpp:165] Memory required for data: 3305904648
I1125 18:53:58.033599 17955 layer_factory.hpp:76] Creating layer inception_4e/relu_5x5
I1125 18:53:58.033606 17955 net.cpp:106] Creating Layer inception_4e/relu_5x5
I1125 18:53:58.033609 17955 net.cpp:454] inception_4e/relu_5x5 <- inception_4e/5x5
I1125 18:53:58.033617 17955 net.cpp:397] inception_4e/relu_5x5 -> inception_4e/5x5 (in-place)
I1125 18:53:58.033939 17955 net.cpp:150] Setting up inception_4e/relu_5x5
I1125 18:53:58.033952 17955 net.cpp:157] Top shape: 64 128 14 14 (1605632)
I1125 18:53:58.033957 17955 net.cpp:165] Memory required for data: 3312327176
I1125 18:53:58.033959 17955 layer_factory.hpp:76] Creating layer inception_4e/pool
I1125 18:53:58.033967 17955 net.cpp:106] Creating Layer inception_4e/pool
I1125 18:53:58.033970 17955 net.cpp:454] inception_4e/pool <- inception_4d/output_inception_4d/output_0_split_4
I1125 18:53:58.033977 17955 net.cpp:411] inception_4e/pool -> inception_4e/pool
I1125 18:53:58.034204 17955 net.cpp:150] Setting up inception_4e/pool
I1125 18:53:58.034216 17955 net.cpp:157] Top shape: 64 528 14 14 (6623232)
I1125 18:53:58.034219 17955 net.cpp:165] Memory required for data: 3338820104
I1125 18:53:58.034222 17955 layer_factory.hpp:76] Creating layer inception_4e/pool_proj
I1125 18:53:58.034231 17955 net.cpp:106] Creating Layer inception_4e/pool_proj
I1125 18:53:58.034236 17955 net.cpp:454] inception_4e/pool_proj <- inception_4e/pool
I1125 18:53:58.034243 17955 net.cpp:411] inception_4e/pool_proj -> inception_4e/pool_proj
I1125 18:53:58.035756 17955 net.cpp:150] Setting up inception_4e/pool_proj
I1125 18:53:58.035771 17955 net.cpp:157] Top shape: 64 128 14 14 (1605632)
I1125 18:53:58.035774 17955 net.cpp:165] Memory required for data: 3345242632
I1125 18:53:58.035781 17955 layer_factory.hpp:76] Creating layer inception_4e/relu_pool_proj
I1125 18:53:58.035789 17955 net.cpp:106] Creating Layer inception_4e/relu_pool_proj
I1125 18:53:58.035792 17955 net.cpp:454] inception_4e/relu_pool_proj <- inception_4e/pool_proj
I1125 18:53:58.035797 17955 net.cpp:397] inception_4e/relu_pool_proj -> inception_4e/pool_proj (in-place)
I1125 18:53:58.036118 17955 net.cpp:150] Setting up inception_4e/relu_pool_proj
I1125 18:53:58.036133 17955 net.cpp:157] Top shape: 64 128 14 14 (1605632)
I1125 18:53:58.036135 17955 net.cpp:165] Memory required for data: 3351665160
I1125 18:53:58.036139 17955 layer_factory.hpp:76] Creating layer inception_4e/output
I1125 18:53:58.036146 17955 net.cpp:106] Creating Layer inception_4e/output
I1125 18:53:58.036150 17955 net.cpp:454] inception_4e/output <- inception_4e/1x1
I1125 18:53:58.036155 17955 net.cpp:454] inception_4e/output <- inception_4e/3x3
I1125 18:53:58.036159 17955 net.cpp:454] inception_4e/output <- inception_4e/5x5
I1125 18:53:58.036164 17955 net.cpp:454] inception_4e/output <- inception_4e/pool_proj
I1125 18:53:58.036169 17955 net.cpp:411] inception_4e/output -> inception_4e/output
I1125 18:53:58.036207 17955 net.cpp:150] Setting up inception_4e/output
I1125 18:53:58.036214 17955 net.cpp:157] Top shape: 64 832 14 14 (10436608)
I1125 18:53:58.036217 17955 net.cpp:165] Memory required for data: 3393411592
I1125 18:53:58.036221 17955 layer_factory.hpp:76] Creating layer pool4/3x3_s2
I1125 18:53:58.036226 17955 net.cpp:106] Creating Layer pool4/3x3_s2
I1125 18:53:58.036229 17955 net.cpp:454] pool4/3x3_s2 <- inception_4e/output
I1125 18:53:58.036237 17955 net.cpp:411] pool4/3x3_s2 -> pool4/3x3_s2
I1125 18:53:58.036448 17955 net.cpp:150] Setting up pool4/3x3_s2
I1125 18:53:58.036459 17955 net.cpp:157] Top shape: 64 832 7 7 (2609152)
I1125 18:53:58.036463 17955 net.cpp:165] Memory required for data: 3403848200
I1125 18:53:58.036465 17955 layer_factory.hpp:76] Creating layer pool4/3x3_s2_pool4/3x3_s2_0_split
I1125 18:53:58.036475 17955 net.cpp:106] Creating Layer pool4/3x3_s2_pool4/3x3_s2_0_split
I1125 18:53:58.036479 17955 net.cpp:454] pool4/3x3_s2_pool4/3x3_s2_0_split <- pool4/3x3_s2
I1125 18:53:58.036485 17955 net.cpp:411] pool4/3x3_s2_pool4/3x3_s2_0_split -> pool4/3x3_s2_pool4/3x3_s2_0_split_0
I1125 18:53:58.036491 17955 net.cpp:411] pool4/3x3_s2_pool4/3x3_s2_0_split -> pool4/3x3_s2_pool4/3x3_s2_0_split_1
I1125 18:53:58.036497 17955 net.cpp:411] pool4/3x3_s2_pool4/3x3_s2_0_split -> pool4/3x3_s2_pool4/3x3_s2_0_split_2
I1125 18:53:58.036504 17955 net.cpp:411] pool4/3x3_s2_pool4/3x3_s2_0_split -> pool4/3x3_s2_pool4/3x3_s2_0_split_3
I1125 18:53:58.036586 17955 net.cpp:150] Setting up pool4/3x3_s2_pool4/3x3_s2_0_split
I1125 18:53:58.036594 17955 net.cpp:157] Top shape: 64 832 7 7 (2609152)
I1125 18:53:58.036598 17955 net.cpp:157] Top shape: 64 832 7 7 (2609152)
I1125 18:53:58.036602 17955 net.cpp:157] Top shape: 64 832 7 7 (2609152)
I1125 18:53:58.036605 17955 net.cpp:157] Top shape: 64 832 7 7 (2609152)
I1125 18:53:58.036607 17955 net.cpp:165] Memory required for data: 3445594632
I1125 18:53:58.036612 17955 layer_factory.hpp:76] Creating layer inception_5a/1x1
I1125 18:53:58.036619 17955 net.cpp:106] Creating Layer inception_5a/1x1
I1125 18:53:58.036623 17955 net.cpp:454] inception_5a/1x1 <- pool4/3x3_s2_pool4/3x3_s2_0_split_0
I1125 18:53:58.036640 17955 net.cpp:411] inception_5a/1x1 -> inception_5a/1x1
I1125 18:53:58.039513 17955 net.cpp:150] Setting up inception_5a/1x1
I1125 18:53:58.039528 17955 net.cpp:157] Top shape: 64 256 7 7 (802816)
I1125 18:53:58.039532 17955 net.cpp:165] Memory required for data: 3448805896
I1125 18:53:58.039538 17955 layer_factory.hpp:76] Creating layer inception_5a/relu_1x1
I1125 18:53:58.039546 17955 net.cpp:106] Creating Layer inception_5a/relu_1x1
I1125 18:53:58.039551 17955 net.cpp:454] inception_5a/relu_1x1 <- inception_5a/1x1
I1125 18:53:58.039557 17955 net.cpp:397] inception_5a/relu_1x1 -> inception_5a/1x1 (in-place)
I1125 18:53:58.039893 17955 net.cpp:150] Setting up inception_5a/relu_1x1
I1125 18:53:58.039907 17955 net.cpp:157] Top shape: 64 256 7 7 (802816)
I1125 18:53:58.039911 17955 net.cpp:165] Memory required for data: 3452017160
I1125 18:53:58.039914 17955 layer_factory.hpp:76] Creating layer inception_5a/3x3_reduce
I1125 18:53:58.039924 17955 net.cpp:106] Creating Layer inception_5a/3x3_reduce
I1125 18:53:58.039929 17955 net.cpp:454] inception_5a/3x3_reduce <- pool4/3x3_s2_pool4/3x3_s2_0_split_1
I1125 18:53:58.039937 17955 net.cpp:411] inception_5a/3x3_reduce -> inception_5a/3x3_reduce
I1125 18:53:58.042340 17955 net.cpp:150] Setting up inception_5a/3x3_reduce
I1125 18:53:58.042354 17955 net.cpp:157] Top shape: 64 160 7 7 (501760)
I1125 18:53:58.042358 17955 net.cpp:165] Memory required for data: 3454024200
I1125 18:53:58.042364 17955 layer_factory.hpp:76] Creating layer inception_5a/relu_3x3_reduce
I1125 18:53:58.042371 17955 net.cpp:106] Creating Layer inception_5a/relu_3x3_reduce
I1125 18:53:58.042376 17955 net.cpp:454] inception_5a/relu_3x3_reduce <- inception_5a/3x3_reduce
I1125 18:53:58.042382 17955 net.cpp:397] inception_5a/relu_3x3_reduce -> inception_5a/3x3_reduce (in-place)
I1125 18:53:58.042711 17955 net.cpp:150] Setting up inception_5a/relu_3x3_reduce
I1125 18:53:58.042726 17955 net.cpp:157] Top shape: 64 160 7 7 (501760)
I1125 18:53:58.042728 17955 net.cpp:165] Memory required for data: 3456031240
I1125 18:53:58.042732 17955 layer_factory.hpp:76] Creating layer inception_5a/3x3
I1125 18:53:58.042743 17955 net.cpp:106] Creating Layer inception_5a/3x3
I1125 18:53:58.042747 17955 net.cpp:454] inception_5a/3x3 <- inception_5a/3x3_reduce
I1125 18:53:58.042754 17955 net.cpp:411] inception_5a/3x3 -> inception_5a/3x3
I1125 18:53:58.047425 17955 net.cpp:150] Setting up inception_5a/3x3
I1125 18:53:58.047441 17955 net.cpp:157] Top shape: 64 320 7 7 (1003520)
I1125 18:53:58.047446 17955 net.cpp:165] Memory required for data: 3460045320
I1125 18:53:58.047452 17955 layer_factory.hpp:76] Creating layer inception_5a/relu_3x3
I1125 18:53:58.047458 17955 net.cpp:106] Creating Layer inception_5a/relu_3x3
I1125 18:53:58.047462 17955 net.cpp:454] inception_5a/relu_3x3 <- inception_5a/3x3
I1125 18:53:58.047468 17955 net.cpp:397] inception_5a/relu_3x3 -> inception_5a/3x3 (in-place)
I1125 18:53:58.047651 17955 net.cpp:150] Setting up inception_5a/relu_3x3
I1125 18:53:58.047662 17955 net.cpp:157] Top shape: 64 320 7 7 (1003520)
I1125 18:53:58.047664 17955 net.cpp:165] Memory required for data: 3464059400
I1125 18:53:58.047668 17955 layer_factory.hpp:76] Creating layer inception_5a/5x5_reduce
I1125 18:53:58.047677 17955 net.cpp:106] Creating Layer inception_5a/5x5_reduce
I1125 18:53:58.047683 17955 net.cpp:454] inception_5a/5x5_reduce <- pool4/3x3_s2_pool4/3x3_s2_0_split_2
I1125 18:53:58.047689 17955 net.cpp:411] inception_5a/5x5_reduce -> inception_5a/5x5_reduce
I1125 18:53:58.048997 17955 net.cpp:150] Setting up inception_5a/5x5_reduce
I1125 18:53:58.049011 17955 net.cpp:157] Top shape: 64 32 7 7 (100352)
I1125 18:53:58.049015 17955 net.cpp:165] Memory required for data: 3464460808
I1125 18:53:58.049021 17955 layer_factory.hpp:76] Creating layer inception_5a/relu_5x5_reduce
I1125 18:53:58.049029 17955 net.cpp:106] Creating Layer inception_5a/relu_5x5_reduce
I1125 18:53:58.049033 17955 net.cpp:454] inception_5a/relu_5x5_reduce <- inception_5a/5x5_reduce
I1125 18:53:58.049041 17955 net.cpp:397] inception_5a/relu_5x5_reduce -> inception_5a/5x5_reduce (in-place)
I1125 18:53:58.049221 17955 net.cpp:150] Setting up inception_5a/relu_5x5_reduce
I1125 18:53:58.049232 17955 net.cpp:157] Top shape: 64 32 7 7 (100352)
I1125 18:53:58.049235 17955 net.cpp:165] Memory required for data: 3464862216
I1125 18:53:58.049239 17955 layer_factory.hpp:76] Creating layer inception_5a/5x5
I1125 18:53:58.049248 17955 net.cpp:106] Creating Layer inception_5a/5x5
I1125 18:53:58.049252 17955 net.cpp:454] inception_5a/5x5 <- inception_5a/5x5_reduce
I1125 18:53:58.049258 17955 net.cpp:411] inception_5a/5x5 -> inception_5a/5x5
I1125 18:53:58.051038 17955 net.cpp:150] Setting up inception_5a/5x5
I1125 18:53:58.051053 17955 net.cpp:157] Top shape: 64 128 7 7 (401408)
I1125 18:53:58.051056 17955 net.cpp:165] Memory required for data: 3466467848
I1125 18:53:58.051064 17955 layer_factory.hpp:76] Creating layer inception_5a/relu_5x5
I1125 18:53:58.051070 17955 net.cpp:106] Creating Layer inception_5a/relu_5x5
I1125 18:53:58.051074 17955 net.cpp:454] inception_5a/relu_5x5 <- inception_5a/5x5
I1125 18:53:58.051079 17955 net.cpp:397] inception_5a/relu_5x5 -> inception_5a/5x5 (in-place)
I1125 18:53:58.051409 17955 net.cpp:150] Setting up inception_5a/relu_5x5
I1125 18:53:58.051424 17955 net.cpp:157] Top shape: 64 128 7 7 (401408)
I1125 18:53:58.051426 17955 net.cpp:165] Memory required for data: 3468073480
I1125 18:53:58.051430 17955 layer_factory.hpp:76] Creating layer inception_5a/pool
I1125 18:53:58.051437 17955 net.cpp:106] Creating Layer inception_5a/pool
I1125 18:53:58.051442 17955 net.cpp:454] inception_5a/pool <- pool4/3x3_s2_pool4/3x3_s2_0_split_3
I1125 18:53:58.051447 17955 net.cpp:411] inception_5a/pool -> inception_5a/pool
I1125 18:53:58.051678 17955 net.cpp:150] Setting up inception_5a/pool
I1125 18:53:58.051690 17955 net.cpp:157] Top shape: 64 832 7 7 (2609152)
I1125 18:53:58.051693 17955 net.cpp:165] Memory required for data: 3478510088
I1125 18:53:58.051697 17955 layer_factory.hpp:76] Creating layer inception_5a/pool_proj
I1125 18:53:58.051707 17955 net.cpp:106] Creating Layer inception_5a/pool_proj
I1125 18:53:58.051710 17955 net.cpp:454] inception_5a/pool_proj <- inception_5a/pool
I1125 18:53:58.051717 17955 net.cpp:411] inception_5a/pool_proj -> inception_5a/pool_proj
I1125 18:53:58.053941 17955 net.cpp:150] Setting up inception_5a/pool_proj
I1125 18:53:58.053957 17955 net.cpp:157] Top shape: 64 128 7 7 (401408)
I1125 18:53:58.053961 17955 net.cpp:165] Memory required for data: 3480115720
I1125 18:53:58.053967 17955 layer_factory.hpp:76] Creating layer inception_5a/relu_pool_proj
I1125 18:53:58.053974 17955 net.cpp:106] Creating Layer inception_5a/relu_pool_proj
I1125 18:53:58.053979 17955 net.cpp:454] inception_5a/relu_pool_proj <- inception_5a/pool_proj
I1125 18:53:58.053985 17955 net.cpp:397] inception_5a/relu_pool_proj -> inception_5a/pool_proj (in-place)
I1125 18:53:58.054312 17955 net.cpp:150] Setting up inception_5a/relu_pool_proj
I1125 18:53:58.054327 17955 net.cpp:157] Top shape: 64 128 7 7 (401408)
I1125 18:53:58.054330 17955 net.cpp:165] Memory required for data: 3481721352
I1125 18:53:58.054334 17955 layer_factory.hpp:76] Creating layer inception_5a/output
I1125 18:53:58.054340 17955 net.cpp:106] Creating Layer inception_5a/output
I1125 18:53:58.054344 17955 net.cpp:454] inception_5a/output <- inception_5a/1x1
I1125 18:53:58.054349 17955 net.cpp:454] inception_5a/output <- inception_5a/3x3
I1125 18:53:58.054353 17955 net.cpp:454] inception_5a/output <- inception_5a/5x5
I1125 18:53:58.054358 17955 net.cpp:454] inception_5a/output <- inception_5a/pool_proj
I1125 18:53:58.054364 17955 net.cpp:411] inception_5a/output -> inception_5a/output
I1125 18:53:58.054404 17955 net.cpp:150] Setting up inception_5a/output
I1125 18:53:58.054409 17955 net.cpp:157] Top shape: 64 832 7 7 (2609152)
I1125 18:53:58.054412 17955 net.cpp:165] Memory required for data: 3492157960
I1125 18:53:58.054415 17955 layer_factory.hpp:76] Creating layer inception_5a/output_inception_5a/output_0_split
I1125 18:53:58.054422 17955 net.cpp:106] Creating Layer inception_5a/output_inception_5a/output_0_split
I1125 18:53:58.054426 17955 net.cpp:454] inception_5a/output_inception_5a/output_0_split <- inception_5a/output
I1125 18:53:58.054431 17955 net.cpp:411] inception_5a/output_inception_5a/output_0_split -> inception_5a/output_inception_5a/output_0_split_0
I1125 18:53:58.054437 17955 net.cpp:411] inception_5a/output_inception_5a/output_0_split -> inception_5a/output_inception_5a/output_0_split_1
I1125 18:53:58.054442 17955 net.cpp:411] inception_5a/output_inception_5a/output_0_split -> inception_5a/output_inception_5a/output_0_split_2
I1125 18:53:58.054450 17955 net.cpp:411] inception_5a/output_inception_5a/output_0_split -> inception_5a/output_inception_5a/output_0_split_3
I1125 18:53:58.054543 17955 net.cpp:150] Setting up inception_5a/output_inception_5a/output_0_split
I1125 18:53:58.054553 17955 net.cpp:157] Top shape: 64 832 7 7 (2609152)
I1125 18:53:58.054558 17955 net.cpp:157] Top shape: 64 832 7 7 (2609152)
I1125 18:53:58.054561 17955 net.cpp:157] Top shape: 64 832 7 7 (2609152)
I1125 18:53:58.054564 17955 net.cpp:157] Top shape: 64 832 7 7 (2609152)
I1125 18:53:58.054566 17955 net.cpp:165] Memory required for data: 3533904392
I1125 18:53:58.054570 17955 layer_factory.hpp:76] Creating layer inception_5b/1x1
I1125 18:53:58.054579 17955 net.cpp:106] Creating Layer inception_5b/1x1
I1125 18:53:58.054584 17955 net.cpp:454] inception_5b/1x1 <- inception_5a/output_inception_5a/output_0_split_0
I1125 18:53:58.054590 17955 net.cpp:411] inception_5b/1x1 -> inception_5b/1x1
I1125 18:53:58.058166 17955 net.cpp:150] Setting up inception_5b/1x1
I1125 18:53:58.058182 17955 net.cpp:157] Top shape: 64 384 7 7 (1204224)
I1125 18:53:58.058187 17955 net.cpp:165] Memory required for data: 3538721288
I1125 18:53:58.058193 17955 layer_factory.hpp:76] Creating layer inception_5b/relu_1x1
I1125 18:53:58.058199 17955 net.cpp:106] Creating Layer inception_5b/relu_1x1
I1125 18:53:58.058203 17955 net.cpp:454] inception_5b/relu_1x1 <- inception_5b/1x1
I1125 18:53:58.058208 17955 net.cpp:397] inception_5b/relu_1x1 -> inception_5b/1x1 (in-place)
I1125 18:53:58.058537 17955 net.cpp:150] Setting up inception_5b/relu_1x1
I1125 18:53:58.058552 17955 net.cpp:157] Top shape: 64 384 7 7 (1204224)
I1125 18:53:58.058554 17955 net.cpp:165] Memory required for data: 3543538184
I1125 18:53:58.058558 17955 layer_factory.hpp:76] Creating layer inception_5b/3x3_reduce
I1125 18:53:58.058567 17955 net.cpp:106] Creating Layer inception_5b/3x3_reduce
I1125 18:53:58.058571 17955 net.cpp:454] inception_5b/3x3_reduce <- inception_5a/output_inception_5a/output_0_split_1
I1125 18:53:58.058578 17955 net.cpp:411] inception_5b/3x3_reduce -> inception_5b/3x3_reduce
I1125 18:53:58.061175 17955 net.cpp:150] Setting up inception_5b/3x3_reduce
I1125 18:53:58.061192 17955 net.cpp:157] Top shape: 64 192 7 7 (602112)
I1125 18:53:58.061195 17955 net.cpp:165] Memory required for data: 3545946632
I1125 18:53:58.061203 17955 layer_factory.hpp:76] Creating layer inception_5b/relu_3x3_reduce
I1125 18:53:58.061208 17955 net.cpp:106] Creating Layer inception_5b/relu_3x3_reduce
I1125 18:53:58.061213 17955 net.cpp:454] inception_5b/relu_3x3_reduce <- inception_5b/3x3_reduce
I1125 18:53:58.061219 17955 net.cpp:397] inception_5b/relu_3x3_reduce -> inception_5b/3x3_reduce (in-place)
I1125 18:53:58.061406 17955 net.cpp:150] Setting up inception_5b/relu_3x3_reduce
I1125 18:53:58.061419 17955 net.cpp:157] Top shape: 64 192 7 7 (602112)
I1125 18:53:58.061421 17955 net.cpp:165] Memory required for data: 3548355080
I1125 18:53:58.061425 17955 layer_factory.hpp:76] Creating layer inception_5b/3x3
I1125 18:53:58.061432 17955 net.cpp:106] Creating Layer inception_5b/3x3
I1125 18:53:58.061436 17955 net.cpp:454] inception_5b/3x3 <- inception_5b/3x3_reduce
I1125 18:53:58.061444 17955 net.cpp:411] inception_5b/3x3 -> inception_5b/3x3
I1125 18:53:58.070834 17955 net.cpp:150] Setting up inception_5b/3x3
I1125 18:53:58.070854 17955 net.cpp:157] Top shape: 64 384 7 7 (1204224)
I1125 18:53:58.070858 17955 net.cpp:165] Memory required for data: 3553171976
I1125 18:53:58.070865 17955 layer_factory.hpp:76] Creating layer inception_5b/relu_3x3
I1125 18:53:58.070871 17955 net.cpp:106] Creating Layer inception_5b/relu_3x3
I1125 18:53:58.070876 17955 net.cpp:454] inception_5b/relu_3x3 <- inception_5b/3x3
I1125 18:53:58.070881 17955 net.cpp:397] inception_5b/relu_3x3 -> inception_5b/3x3 (in-place)
I1125 18:53:58.071219 17955 net.cpp:150] Setting up inception_5b/relu_3x3
I1125 18:53:58.071233 17955 net.cpp:157] Top shape: 64 384 7 7 (1204224)
I1125 18:53:58.071236 17955 net.cpp:165] Memory required for data: 3557988872
I1125 18:53:58.071239 17955 layer_factory.hpp:76] Creating layer inception_5b/5x5_reduce
I1125 18:53:58.071249 17955 net.cpp:106] Creating Layer inception_5b/5x5_reduce
I1125 18:53:58.071254 17955 net.cpp:454] inception_5b/5x5_reduce <- inception_5a/output_inception_5a/output_0_split_2
I1125 18:53:58.071261 17955 net.cpp:411] inception_5b/5x5_reduce -> inception_5b/5x5_reduce
I1125 18:53:58.072950 17955 net.cpp:150] Setting up inception_5b/5x5_reduce
I1125 18:53:58.072965 17955 net.cpp:157] Top shape: 64 48 7 7 (150528)
I1125 18:53:58.072969 17955 net.cpp:165] Memory required for data: 3558590984
I1125 18:53:58.072975 17955 layer_factory.hpp:76] Creating layer inception_5b/relu_5x5_reduce
I1125 18:53:58.072981 17955 net.cpp:106] Creating Layer inception_5b/relu_5x5_reduce
I1125 18:53:58.072985 17955 net.cpp:454] inception_5b/relu_5x5_reduce <- inception_5b/5x5_reduce
I1125 18:53:58.072993 17955 net.cpp:397] inception_5b/relu_5x5_reduce -> inception_5b/5x5_reduce (in-place)
I1125 18:53:58.073345 17955 net.cpp:150] Setting up inception_5b/relu_5x5_reduce
I1125 18:53:58.073359 17955 net.cpp:157] Top shape: 64 48 7 7 (150528)
I1125 18:53:58.073364 17955 net.cpp:165] Memory required for data: 3559193096
I1125 18:53:58.073366 17955 layer_factory.hpp:76] Creating layer inception_5b/5x5
I1125 18:53:58.073375 17955 net.cpp:106] Creating Layer inception_5b/5x5
I1125 18:53:58.073380 17955 net.cpp:454] inception_5b/5x5 <- inception_5b/5x5_reduce
I1125 18:53:58.073386 17955 net.cpp:411] inception_5b/5x5 -> inception_5b/5x5
I1125 18:53:58.075486 17955 net.cpp:150] Setting up inception_5b/5x5
I1125 18:53:58.075501 17955 net.cpp:157] Top shape: 64 128 7 7 (401408)
I1125 18:53:58.075505 17955 net.cpp:165] Memory required for data: 3560798728
I1125 18:53:58.075511 17955 layer_factory.hpp:76] Creating layer inception_5b/relu_5x5
I1125 18:53:58.075517 17955 net.cpp:106] Creating Layer inception_5b/relu_5x5
I1125 18:53:58.075521 17955 net.cpp:454] inception_5b/relu_5x5 <- inception_5b/5x5
I1125 18:53:58.075526 17955 net.cpp:397] inception_5b/relu_5x5 -> inception_5b/5x5 (in-place)
I1125 18:53:58.075721 17955 net.cpp:150] Setting up inception_5b/relu_5x5
I1125 18:53:58.075731 17955 net.cpp:157] Top shape: 64 128 7 7 (401408)
I1125 18:53:58.075734 17955 net.cpp:165] Memory required for data: 3562404360
I1125 18:53:58.075738 17955 layer_factory.hpp:76] Creating layer inception_5b/pool
I1125 18:53:58.075745 17955 net.cpp:106] Creating Layer inception_5b/pool
I1125 18:53:58.075749 17955 net.cpp:454] inception_5b/pool <- inception_5a/output_inception_5a/output_0_split_3
I1125 18:53:58.075754 17955 net.cpp:411] inception_5b/pool -> inception_5b/pool
I1125 18:53:58.076123 17955 net.cpp:150] Setting up inception_5b/pool
I1125 18:53:58.076138 17955 net.cpp:157] Top shape: 64 832 7 7 (2609152)
I1125 18:53:58.076143 17955 net.cpp:165] Memory required for data: 3572840968
I1125 18:53:58.076146 17955 layer_factory.hpp:76] Creating layer inception_5b/pool_proj
I1125 18:53:58.076154 17955 net.cpp:106] Creating Layer inception_5b/pool_proj
I1125 18:53:58.076159 17955 net.cpp:454] inception_5b/pool_proj <- inception_5b/pool
I1125 18:53:58.076165 17955 net.cpp:411] inception_5b/pool_proj -> inception_5b/pool_proj
I1125 18:53:58.078436 17955 net.cpp:150] Setting up inception_5b/pool_proj
I1125 18:53:58.078451 17955 net.cpp:157] Top shape: 64 128 7 7 (401408)
I1125 18:53:58.078454 17955 net.cpp:165] Memory required for data: 3574446600
I1125 18:53:58.078461 17955 layer_factory.hpp:76] Creating layer inception_5b/relu_pool_proj
I1125 18:53:58.078485 17955 net.cpp:106] Creating Layer inception_5b/relu_pool_proj
I1125 18:53:58.078491 17955 net.cpp:454] inception_5b/relu_pool_proj <- inception_5b/pool_proj
I1125 18:53:58.078496 17955 net.cpp:397] inception_5b/relu_pool_proj -> inception_5b/pool_proj (in-place)
I1125 18:53:58.078685 17955 net.cpp:150] Setting up inception_5b/relu_pool_proj
I1125 18:53:58.078696 17955 net.cpp:157] Top shape: 64 128 7 7 (401408)
I1125 18:53:58.078699 17955 net.cpp:165] Memory required for data: 3576052232
I1125 18:53:58.078703 17955 layer_factory.hpp:76] Creating layer inception_5b/output
I1125 18:53:58.078712 17955 net.cpp:106] Creating Layer inception_5b/output
I1125 18:53:58.078719 17955 net.cpp:454] inception_5b/output <- inception_5b/1x1
I1125 18:53:58.078724 17955 net.cpp:454] inception_5b/output <- inception_5b/3x3
I1125 18:53:58.078728 17955 net.cpp:454] inception_5b/output <- inception_5b/5x5
I1125 18:53:58.078732 17955 net.cpp:454] inception_5b/output <- inception_5b/pool_proj
I1125 18:53:58.078737 17955 net.cpp:411] inception_5b/output -> inception_5b/output
I1125 18:53:58.078776 17955 net.cpp:150] Setting up inception_5b/output
I1125 18:53:58.078783 17955 net.cpp:157] Top shape: 64 1024 7 7 (3211264)
I1125 18:53:58.078786 17955 net.cpp:165] Memory required for data: 3588897288
I1125 18:53:58.078790 17955 layer_factory.hpp:76] Creating layer pool5/7x7_s1
I1125 18:53:58.078811 17955 net.cpp:106] Creating Layer pool5/7x7_s1
I1125 18:53:58.078819 17955 net.cpp:454] pool5/7x7_s1 <- inception_5b/output
I1125 18:53:58.078824 17955 net.cpp:411] pool5/7x7_s1 -> pool5/7x7_s1
I1125 18:53:58.079180 17955 net.cpp:150] Setting up pool5/7x7_s1
I1125 18:53:58.079195 17955 net.cpp:157] Top shape: 64 1024 1 1 (65536)
I1125 18:53:58.079198 17955 net.cpp:165] Memory required for data: 3589159432
I1125 18:53:58.079202 17955 layer_factory.hpp:76] Creating layer pool5/drop_7x7_s1
I1125 18:53:58.079208 17955 net.cpp:106] Creating Layer pool5/drop_7x7_s1
I1125 18:53:58.079212 17955 net.cpp:454] pool5/drop_7x7_s1 <- pool5/7x7_s1
I1125 18:53:58.079217 17955 net.cpp:397] pool5/drop_7x7_s1 -> pool5/7x7_s1 (in-place)
I1125 18:53:58.079255 17955 net.cpp:150] Setting up pool5/drop_7x7_s1
I1125 18:53:58.079263 17955 net.cpp:157] Top shape: 64 1024 1 1 (65536)
I1125 18:53:58.079267 17955 net.cpp:165] Memory required for data: 3589421576
I1125 18:53:58.079269 17955 layer_factory.hpp:76] Creating layer loss3/classifier-attribute
I1125 18:53:58.079277 17955 net.cpp:106] Creating Layer loss3/classifier-attribute
I1125 18:53:58.079282 17955 net.cpp:454] loss3/classifier-attribute <- pool5/7x7_s1
I1125 18:53:58.079287 17955 net.cpp:411] loss3/classifier-attribute -> loss3/classifier-attribute
I1125 18:53:58.079567 17955 net.cpp:150] Setting up loss3/classifier-attribute
I1125 18:53:58.079577 17955 net.cpp:157] Top shape: 64 11 (704)
I1125 18:53:58.079581 17955 net.cpp:165] Memory required for data: 3589424392
I1125 18:53:58.079588 17955 layer_factory.hpp:76] Creating layer loss3/loss3
I1125 18:53:58.079596 17955 net.cpp:106] Creating Layer loss3/loss3
I1125 18:53:58.079601 17955 net.cpp:454] loss3/loss3 <- loss3/classifier-attribute
I1125 18:53:58.079607 17955 net.cpp:454] loss3/loss3 <- label_data_1_split_2
I1125 18:53:58.079614 17955 net.cpp:411] loss3/loss3 -> loss3/loss3
…
I1125 18:53:58.090513 17955 net.cpp:322] The NetState phase (1) differed from the phase (0) specified by a rule in layer data
I1125 18:53:58.091909 17955 net.cpp:49] Initializing net from parameters: 
name: "GoogleNet-finetune-for-cigit"
state {
  phase: TEST
}
layer {
  name: "data"
  type: "ImageData"
  top: "data"
  top: "label"
  include {
    phase: TEST
  }
  transform_param {
    mirror: false
    crop_size: 224
    mean_value: 104
    mean_value: 117
    mean_value: 123
  }
  image_data_param {
    source: "pad_test.txt"
    batch_size: 64
    new_height: 256
    new_width: 256
  }
}
layer {
  name: "conv1/7x7_s2"
  type: "Convolution"
  bottom: "data"
  top: "conv1/7x7_s2"
  param {
    lr_mult: 1
    decay_mult: 1
  }
  param {
    lr_mult: 2
    decay_mult: 0
  }
  convolution_param {
    num_output: 64
    pad: 3
    kernel_size: 7
    stride: 2
    weight_filler {
      type: "xavier"
    }
    bias_filler {
      type: "constant"
      value: 0.2
    }
  }
}
layer {
  name: "conv1/relu_7x7"
  type: "ReLU"
  bottom: "conv1/7x7_s2"
  top: "conv1/7x7_s2"
}
layer {
  name: "pool1/3x3_s2"
  type: "Pooling"
  bottom: "conv1/7x7_s2"
  top: "pool1/3x3_s2"
  pooling_param {
    pool: MAX
    kernel_size: 3
    stride: 2
  }
}
layer {
  name: "pool1/norm1"
  type: "LRN"
  bottom: "pool1/3x3_s2"
  top: "pool1/norm1"
  lrn_param {
    local_size: 5
    alpha: 0.0001
    beta: 0.75
  }
}
layer {
  name: "conv2/3x3_reduce"
  type: "Convolution"
  bottom: "pool1/norm1"
  top: "conv2/3x3_reduce"
  param {
    lr_mult: 1
    decay_mult: 1
  }
  param {
    lr_mult: 2
    decay_mult: 0
  }
  convolution_param {
    num_output: 64
    kernel_size: 1
    weight_filler {
      type: "xavier"
    }
    bias_filler {
      type: "constant"
      value: 0.2
    }
  }
}
layer {
  name: "conv2/relu_3x3_reduce"
  type: "ReLU"
  bottom: "conv2/3x3_reduce"
  top: "conv2/3x3_reduce"
}
layer {
  name: "conv2/3x3"
  type: "Convolution"
  bottom: "conv2/3x3_reduce"
  top: "conv2/3x3"
  param {
    lr_mult: 1
    decay_mult: 1
  }
  param {
    lr_mult: 2
    decay_mult: 0
  }
  convolution_param {
    num_output: 192
    pad: 1
    kernel_size: 3
    weight_filler {
      type: "xavier"
    }
    bias_filler {
      type: "constant"
      value: 0.2
    }
  }
}
layer {
  name: "conv2/relu_3x3"
  type: "ReLU"
  bottom: "conv2/3x3"
  top: "conv2/3x3"
}
layer {
  name: "conv2/norm2"
  type: "LRN"
  bottom: "conv2/3x3"
  top: "conv2/norm2"
  lrn_param {
    local_size: 5
    alpha: 0.0001
    beta: 0.75
  }
}
layer {
  name: "pool2/3x3_s2"
  type: "Pooling"
  bottom: "conv2/norm2"
  top: "pool2/3x3_s2"
  pooling_param {
    pool: MAX
    kernel_size: 3
    stride: 2
  }
}
layer {
  name: "inception_3a/1x1"
  type: "Convolution"
  bottom: "pool2/3x3_s2"
  top: "inception_3a/1x1"
  param {
    lr_mult: 1
    decay_mult: 1
  }
  param {
    lr_mult: 2
    decay_mult: 0
  }
  convolution_param {
    num_output: 64
    kernel_size: 1
    weight_filler {
      type: "xavier"
    }
    bias_filler {
      type: "constant"
      value: 0.2
    }
  }
}
layer {
  name: "inception_3a/relu_1x1"
  type: "ReLU"
  bottom: "inception_3a/1x1"
  top: "inception_3a/1x1"
}
layer {
  name: "inception_3a/3x3_reduce"
  type: "Convolution"
  bottom: "pool2/3x3_s2"
  top: "inception_3a/3x3_reduce"
  param {
    lr_mult: 1
    decay_mult: 1
  }
  param {
    lr_mult: 2
    decay_mult: 0
  }
  convolution_param {
    num_output: 96
    kernel_size: 1
    weight_filler {
      type: "xavier"
    }
    bias_filler {
      type: "constant"
      value: 0.2
    }
  }
}
layer {
  name: "inception_3a/relu_3x3_reduce"
  type: "ReLU"
  bottom: "inception_3a/3x3_reduce"
  top: "inception_3a/3x3_reduce"
}
layer {
  name: "inception_3a/3x3"
  type: "Convolution"
  bottom: "inception_3a/3x3_reduce"
  top: "inception_3a/3x3"
  param {
    lr_mult: 1
    decay_mult: 1
  }
  param {
    lr_mult: 2
    decay_mult: 0
  }
  convolution_param {
    num_output: 128
    pad: 1
    kernel_size: 3
    weight_filler {
      type: "xavier"
    }
    bias_filler {
      type: "constant"
      value: 0.2
    }
  }
}
layer {
  name: "inception_3a/relu_3x3"
  type: "ReLU"
  bottom: "inception_3a/3x3"
  top: "inception_3a/3x3"
}
layer {
  name: "inception_3a/5x5_reduce"
  type: "Convolution"
  bottom: "pool2/3x3_s2"
  top: "inception_3a/5x5_reduce"
  param {
    lr_mult: 1
    decay_mult: 1
  }
  param {
    lr_mult: 2
    decay_mult: 0
  }
  convolution_param {
    num_output: 16
    kernel_size: 1
    weight_filler {
      type: "xavier"
    }
    bias_filler {
      type: "constant"
      value: 0.2
    }
  }
}
layer {
  name: "inception_3a/relu_5x5_reduce"
  type: "ReLU"
  bottom: "inception_3a/5x5_reduce"
  top: "inception_3a/5x5_reduce"
}
layer {
  name: "inception_3a/5x5"
  type: "Convolution"
  bottom: "inception_3a/5x5_reduce"
  top: "inception_3a/5x5"
  param {
    lr_mult: 1
    decay_mult: 1
  }
  param {
    lr_mult: 2
    decay_mult: 0
  }
  convolution_param {
    num_output: 32
    pad: 2
    kernel_size: 5
    weight_filler {
      type: "xavier"
    }
    bias_filler {
      type: "constant"
      value: 0.2
    }
  }
}
layer {
  name: "inception_3a/relu_5x5"
  type: "ReLU"
  bottom: "inception_3a/5x5"
  top: "inception_3a/5x5"
}
layer {
  name: "inception_3a/pool"
  type: "Pooling"
  bottom: "pool2/3x3_s2"
  top: "inception_3a/pool"
  pooling_param {
    pool: MAX
    kernel_size: 3
    stride: 1
    pad: 1
  }
}
layer {
  name: "inception_3a/pool_proj"
  type: "Convolution"
  bottom: "inception_3a/pool"
  top: "inception_3a/pool_proj"
  param {
    lr_mult: 1
    decay_mult: 1
  }
  param {
    lr_mult: 2
    decay_mult: 0
  }
  convolution_param {
    num_output: 32
    kernel_size: 1
    weight_filler {
      type: "xavier"
    }
    bias_filler {
      type: "constant"
      value: 0.2
    }
  }
}
layer {
  name: "inception_3a/relu_pool_proj"
  type: "ReLU"
  bottom: "inception_3a/pool_proj"
  top: "inception_3a/pool_proj"
}
layer {
  name: "inception_3a/output"
  type: "Concat"
  bottom: "inception_3a/1x1"
  bottom: "inception_3a/3x3"
  bottom: "inception_3a/5x5"
  bottom: "inception_3a/pool_proj"
  top: "inception_3a/output"
}
layer {
  name: "inception_3b/1x1"
  type: "Convolution"
  bottom: "inception_3a/output"
  top: "inception_3b/1x1"
  param {
    lr_mult: 1
    decay_mult: 1
  }
  param {
    lr_mult: 2
    decay_mult: 0
  }
  convolution_param {
    num_output: 128
    kernel_size: 1
    weight_filler {
      type: "xavier"
    }
    bias_filler {
      type: "constant"
      value: 0.2
    }
  }
}
layer {
  name: "inception_3b/relu_1x1"
  type: "ReLU"
  bottom: "inception_3b/1x1"
  top: "inception_3b/1x1"
}
layer {
  name: "inception_3b/3x3_reduce"
  type: "Convolution"
  bottom: "inception_3a/output"
  top: "inception_3b/3x3_reduce"
  param {
    lr_mult: 1
    decay_mult: 1
  }
  param {
    lr_mult: 2
    decay_mult: 0
  }
  convolution_param {
    num_output: 128
    kernel_size: 1
    weight_filler {
      type: "xavier"
    }
    bias_filler {
      type: "constant"
      value: 0.2
    }
  }
}
layer {
  name: "inception_3b/relu_3x3_reduce"
  type: "ReLU"
  bottom: "inception_3b/3x3_reduce"
  top: "inception_3b/3x3_reduce"
}
layer {
  name: "inception_3b/3x3"
  type: "Convolution"
  bottom: "inception_3b/3x3_reduce"
  top: "inception_3b/3x3"
  param {
    lr_mult: 1
    decay_mult: 1
  }
  param {
    lr_mult: 2
    decay_mult: 0
  }
  convolution_param {
    num_output: 192
    pad: 1
    kernel_size: 3
    weight_filler {
      type: "xavier"
    }
    bias_filler {
      type: "constant"
      value: 0.2
    }
  }
}
layer {
  name: "inception_3b/relu_3x3"
  type: "ReLU"
  bottom: "inception_3b/3x3"
  top: "inception_3b/3x3"
}
layer {
  name: "inception_3b/5x5_reduce"
  type: "Convolution"
  bottom: "inception_3a/output"
  top: "inception_3b/5x5_reduce"
  param {
    lr_mult: 1
    decay_mult: 1
  }
  param {
    lr_mult: 2
    decay_mult: 0
  }
  convolution_param {
    num_output: 32
    kernel_size: 1
    weight_filler {
      type: "xavier"
    }
    bias_filler {
      type: "constant"
      value: 0.2
    }
  }
}
layer {
  name: "inception_3b/relu_5x5_reduce"
  type: "ReLU"
  bottom: "inception_3b/5x5_reduce"
  top: "inception_3b/5x5_reduce"
}
layer {
  name: "inception_3b/5x5"
  type: "Convolution"
  bottom: "inception_3b/5x5_reduce"
  top: "inception_3b/5x5"
  param {
    lr_mult: 1
    decay_mult: 1
  }
  param {
    lr_mult: 2
    decay_mult: 0
  }
  convolution_param {
    num_output: 96
    pad: 2
    kernel_size: 5
    weight_filler {
      type: "xavier"
    }
    bias_filler {
      type: "constant"
      value: 0.2
    }
  }
}
layer {
  name: "inception_3b/relu_5x5"
  type: "ReLU"
  bottom: "inception_3b/5x5"
  top: "inception_3b/5x5"
}
layer {
  name: "inception_3b/pool"
  type: "Pooling"
  bottom: "inception_3a/output"
  top: "inception_3b/pool"
  pooling_param {
    pool: MAX
    kernel_size: 3
    stride: 1
    pad: 1
  }
}
layer {
  name: "inception_3b/pool_proj"
  type: "Convolution"
  bottom: "inception_3b/pool"
  top: "inception_3b/pool_proj"
  param {
    lr_mult: 1
    decay_mult: 1
  }
  param {
    lr_mult: 2
    decay_mult: 0
  }
  convolution_param {
    num_output: 64
    kernel_size: 1
    weight_filler {
      type: "xavier"
    }
    bias_filler {
      type: "constant"
      value: 0.2
    }
  }
}
layer {
  name: "inception_3b/relu_pool_proj"
  type: "ReLU"
  bottom: "inception_3b/pool_proj"
  top: "inception_3b/pool_proj"
}
layer {
  name: "inception_3b/output"
  type: "Concat"
  bottom: "inception_3b/1x1"
  bottom: "inception_3b/3x3"
  bottom: "inception_3b/5x5"
  bottom: "inception_3b/pool_proj"
  top: "inception_3b/output"
}
layer {
  name: "pool3/3x3_s2"
  type: "Pooling"
  bottom: "inception_3b/output"
  top: "pool3/3x3_s2"
  pooling_param {
    pool: MAX
    kernel_size: 3
    stride: 2
  }
}
layer {
  name: "inception_4a/1x1"
  type: "Convolution"
  bottom: "pool3/3x3_s2"
  top: "inception_4a/1x1"
  param {
    lr_mult: 1
    decay_mult: 1
  }
  param {
    lr_mult: 2
    decay_mult: 0
  }
  convolution_param {
    num_output: 192
    kernel_size: 1
    weight_filler {
      type: "xavier"
    }
    bias_filler {
      type: "constant"
      value: 0.2
    }
  }
}
layer {
  name: "inception_4a/relu_1x1"
  type: "ReLU"
  bottom: "inception_4a/1x1"
  top: "inception_4a/1x1"
}
layer {
  name: "inception_4a/3x3_reduce"
  type: "Convolution"
  bottom: "pool3/3x3_s2"
  top: "inception_4a/3x3_reduce"
  param {
    lr_mult: 1
    decay_mult: 1
  }
  param {
    lr_mult: 2
    decay_mult: 0
  }
  convolution_param {
    num_output: 96
    kernel_size: 1
    weight_filler {
      type: "xavier"
    }
    bias_filler {
      type: "constant"
      value: 0.2
    }
  }
}
layer {
  name: "inception_4a/relu_3x3_reduce"
  type: "ReLU"
  bottom: "inception_4a/3x3_reduce"
  top: "inception_4a/3x3_reduce"
}
layer {
  name: "inception_4a/3x3"
  type: "Convolution"
  bottom: "inception_4a/3x3_reduce"
  top: "inception_4a/3x3"
  param {
    lr_mult: 1
    decay_mult: 1
  }
  param {
    lr_mult: 2
    decay_mult: 0
  }
  convolution_param {
    num_output: 208
    pad: 1
    kernel_size: 3
    weight_filler {
      type: "xavier"
    }
    bias_filler {
      type: "constant"
      value: 0.2
    }
  }
}
layer {
  name: "inception_4a/relu_3x3"
  type: "ReLU"
  bottom: "inception_4a/3x3"
  top: "inception_4a/3x3"
}
layer {
  name: "inception_4a/5x5_reduce"
  type: "Convolution"
  bottom: "pool3/3x3_s2"
  top: "inception_4a/5x5_reduce"
  param {
    lr_mult: 1
    decay_mult: 1
  }
  param {
    lr_mult: 2
    decay_mult: 0
  }
  convolution_param {
    num_output: 16
    kernel_size: 1
    weight_filler {
      type: "xavier"
    }
    bias_filler {
      type: "constant"
      value: 0.2
    }
  }
}
layer {
  name: "inception_4a/relu_5x5_reduce"
  type: "ReLU"
  bottom: "inception_4a/5x5_reduce"
  top: "inception_4a/5x5_reduce"
}
layer {
  name: "inception_4a/5x5"
  type: "Convolution"
  bottom: "inception_4a/5x5_reduce"
  top: "inception_4a/5x5"
  param {
    lr_mult: 1
    decay_mult: 1
  }
  param {
    lr_mult: 2
    decay_mult: 0
  }
  convolution_param {
    num_output: 48
    pad: 2
    kernel_size: 5
    weight_filler {
      type: "xavier"
    }
    bias_filler {
      type: "constant"
      value: 0.2
    }
  }
}
layer {
  name: "inception_4a/relu_5x5"
  type: "ReLU"
  bottom: "inception_4a/5x5"
  top: "inception_4a/5x5"
}
layer {
  name: "inception_4a/pool"
  type: "Pooling"
  bottom: "pool3/3x3_s2"
  top: "inception_4a/pool"
  pooling_param {
    pool: MAX
    kernel_size: 3
    stride: 1
    pad: 1
  }
}
layer {
  name: "inception_4a/pool_proj"
  type: "Convolution"
  bottom: "inception_4a/pool"
  top: "inception_4a/pool_proj"
  param {
    lr_mult: 1
    decay_mult: 1
  }
  param {
    lr_mult: 2
    decay_mult: 0
  }
  convolution_param {
    num_output: 64
    kernel_size: 1
    weight_filler {
      type: "xavier"
    }
    bias_filler {
      type: "constant"
      value: 0.2
    }
  }
}
layer {
  name: "inception_4a/relu_pool_proj"
  type: "ReLU"
  bottom: "inception_4a/pool_proj"
  top: "inception_4a/pool_proj"
}
layer {
  name: "inception_4a/output"
  type: "Concat"
  bottom: "inception_4a/1x1"
  bottom: "inception_4a/3x3"
  bottom: "inception_4a/5x5"
  bottom: "inception_4a/pool_proj"
  top: "inception_4a/output"
}
layer {
  name: "loss1/ave_pool"
  type: "Pooling"
  bottom: "inception_4a/output"
  top: "loss1/ave_pool"
  pooling_param {
    pool: AVE
    kernel_size: 5
    stride: 3
  }
}
layer {
  name: "loss1/conv"
  type: "Convolution"
  bottom: "loss1/ave_pool"
  top: "loss1/conv"
  param {
    lr_mult: 1
    decay_mult: 1
  }
  param {
    lr_mult: 2
    decay_mult: 0
  }
  convolution_param {
    num_output: 128
    kernel_size: 1
    weight_filler {
      type: "xavier"
    }
    bias_filler {
      type: "constant"
      value: 0.2
    }
  }
}
layer {
  name: "loss1/relu_conv"
  type: "ReLU"
  bottom: "loss1/conv"
  top: "loss1/conv"
}
layer {
  name: "loss1/fc"
  type: "InnerProduct"
  bottom: "loss1/conv"
  top: "loss1/fc"
  param {
    lr_mult: 1
    decay_mult: 1
  }
  param {
    lr_mult: 2
    decay_mult: 0
  }
  inner_product_param {
…
I1125 18:53:58.262596 17955 layer_factory.hpp:76] Creating layer inception_4c/pool
I1125 18:53:58.262603 17955 net.cpp:106] Creating Layer inception_4c/pool
I1125 18:53:58.262608 17955 net.cpp:454] inception_4c/pool <- inception_4b/output_inception_4b/output_0_split_3
I1125 18:53:58.262614 17955 net.cpp:411] inception_4c/pool -> inception_4c/pool
I1125 18:53:58.262890 17955 net.cpp:150] Setting up inception_4c/pool
I1125 18:53:58.262903 17955 net.cpp:157] Top shape: 64 512 14 14 (6422528)
I1125 18:53:58.262907 17955 net.cpp:165] Memory required for data: 2828249096
I1125 18:53:58.262910 17955 layer_factory.hpp:76] Creating layer inception_4c/pool_proj
I1125 18:53:58.262918 17955 net.cpp:106] Creating Layer inception_4c/pool_proj
I1125 18:53:58.262923 17955 net.cpp:454] inception_4c/pool_proj <- inception_4c/pool
I1125 18:53:58.262929 17955 net.cpp:411] inception_4c/pool_proj -> inception_4c/pool_proj
I1125 18:53:58.264477 17955 net.cpp:150] Setting up inception_4c/pool_proj
I1125 18:53:58.264492 17955 net.cpp:157] Top shape: 64 64 14 14 (802816)
I1125 18:53:58.264497 17955 net.cpp:165] Memory required for data: 2831460360
I1125 18:53:58.264503 17955 layer_factory.hpp:76] Creating layer inception_4c/relu_pool_proj
I1125 18:53:58.264508 17955 net.cpp:106] Creating Layer inception_4c/relu_pool_proj
I1125 18:53:58.264513 17955 net.cpp:454] inception_4c/relu_pool_proj <- inception_4c/pool_proj
I1125 18:53:58.264519 17955 net.cpp:397] inception_4c/relu_pool_proj -> inception_4c/pool_proj (in-place)
I1125 18:53:58.264873 17955 net.cpp:150] Setting up inception_4c/relu_pool_proj
I1125 18:53:58.264888 17955 net.cpp:157] Top shape: 64 64 14 14 (802816)
I1125 18:53:58.264890 17955 net.cpp:165] Memory required for data: 2834671624
I1125 18:53:58.264894 17955 layer_factory.hpp:76] Creating layer inception_4c/output
I1125 18:53:58.264900 17955 net.cpp:106] Creating Layer inception_4c/output
I1125 18:53:58.264904 17955 net.cpp:454] inception_4c/output <- inception_4c/1x1
I1125 18:53:58.264909 17955 net.cpp:454] inception_4c/output <- inception_4c/3x3
I1125 18:53:58.264912 17955 net.cpp:454] inception_4c/output <- inception_4c/5x5
I1125 18:53:58.264916 17955 net.cpp:454] inception_4c/output <- inception_4c/pool_proj
I1125 18:53:58.264922 17955 net.cpp:411] inception_4c/output -> inception_4c/output
I1125 18:53:58.264971 17955 net.cpp:150] Setting up inception_4c/output
I1125 18:53:58.264977 17955 net.cpp:157] Top shape: 64 512 14 14 (6422528)
I1125 18:53:58.264981 17955 net.cpp:165] Memory required for data: 2860361736
I1125 18:53:58.264983 17955 layer_factory.hpp:76] Creating layer inception_4c/output_inception_4c/output_0_split
I1125 18:53:58.264992 17955 net.cpp:106] Creating Layer inception_4c/output_inception_4c/output_0_split
I1125 18:53:58.264997 17955 net.cpp:454] inception_4c/output_inception_4c/output_0_split <- inception_4c/output
I1125 18:53:58.265002 17955 net.cpp:411] inception_4c/output_inception_4c/output_0_split -> inception_4c/output_inception_4c/output_0_split_0
I1125 18:53:58.265007 17955 net.cpp:411] inception_4c/output_inception_4c/output_0_split -> inception_4c/output_inception_4c/output_0_split_1
I1125 18:53:58.265014 17955 net.cpp:411] inception_4c/output_inception_4c/output_0_split -> inception_4c/output_inception_4c/output_0_split_2
I1125 18:53:58.265020 17955 net.cpp:411] inception_4c/output_inception_4c/output_0_split -> inception_4c/output_inception_4c/output_0_split_3
I1125 18:53:58.265118 17955 net.cpp:150] Setting up inception_4c/output_inception_4c/output_0_split
I1125 18:53:58.265127 17955 net.cpp:157] Top shape: 64 512 14 14 (6422528)
I1125 18:53:58.265131 17955 net.cpp:157] Top shape: 64 512 14 14 (6422528)
I1125 18:53:58.265135 17955 net.cpp:157] Top shape: 64 512 14 14 (6422528)
I1125 18:53:58.265137 17955 net.cpp:157] Top shape: 64 512 14 14 (6422528)
I1125 18:53:58.265141 17955 net.cpp:165] Memory required for data: 2963122184
I1125 18:53:58.265143 17955 layer_factory.hpp:76] Creating layer inception_4d/1x1
I1125 18:53:58.265152 17955 net.cpp:106] Creating Layer inception_4d/1x1
I1125 18:53:58.265156 17955 net.cpp:454] inception_4d/1x1 <- inception_4c/output_inception_4c/output_0_split_0
I1125 18:53:58.265162 17955 net.cpp:411] inception_4d/1x1 -> inception_4d/1x1
I1125 18:53:58.266679 17955 net.cpp:150] Setting up inception_4d/1x1
I1125 18:53:58.266695 17955 net.cpp:157] Top shape: 64 112 14 14 (1404928)
I1125 18:53:58.266697 17955 net.cpp:165] Memory required for data: 2968741896
I1125 18:53:58.266705 17955 layer_factory.hpp:76] Creating layer inception_4d/relu_1x1
I1125 18:53:58.266711 17955 net.cpp:106] Creating Layer inception_4d/relu_1x1
I1125 18:53:58.266716 17955 net.cpp:454] inception_4d/relu_1x1 <- inception_4d/1x1
I1125 18:53:58.266722 17955 net.cpp:397] inception_4d/relu_1x1 -> inception_4d/1x1 (in-place)
I1125 18:53:58.267099 17955 net.cpp:150] Setting up inception_4d/relu_1x1
I1125 18:53:58.267114 17955 net.cpp:157] Top shape: 64 112 14 14 (1404928)
I1125 18:53:58.267117 17955 net.cpp:165] Memory required for data: 2974361608
I1125 18:53:58.267122 17955 layer_factory.hpp:76] Creating layer inception_4d/3x3_reduce
I1125 18:53:58.267130 17955 net.cpp:106] Creating Layer inception_4d/3x3_reduce
I1125 18:53:58.267134 17955 net.cpp:454] inception_4d/3x3_reduce <- inception_4c/output_inception_4c/output_0_split_1
I1125 18:53:58.267141 17955 net.cpp:411] inception_4d/3x3_reduce -> inception_4d/3x3_reduce
I1125 18:53:58.268947 17955 net.cpp:150] Setting up inception_4d/3x3_reduce
I1125 18:53:58.268961 17955 net.cpp:157] Top shape: 64 144 14 14 (1806336)
I1125 18:53:58.268965 17955 net.cpp:165] Memory required for data: 2981586952
I1125 18:53:58.268971 17955 layer_factory.hpp:76] Creating layer inception_4d/relu_3x3_reduce
I1125 18:53:58.268980 17955 net.cpp:106] Creating Layer inception_4d/relu_3x3_reduce
I1125 18:53:58.268985 17955 net.cpp:454] inception_4d/relu_3x3_reduce <- inception_4d/3x3_reduce
I1125 18:53:58.268990 17955 net.cpp:397] inception_4d/relu_3x3_reduce -> inception_4d/3x3_reduce (in-place)
I1125 18:53:58.269191 17955 net.cpp:150] Setting up inception_4d/relu_3x3_reduce
I1125 18:53:58.269202 17955 net.cpp:157] Top shape: 64 144 14 14 (1806336)
I1125 18:53:58.269206 17955 net.cpp:165] Memory required for data: 2988812296
I1125 18:53:58.269209 17955 layer_factory.hpp:76] Creating layer inception_4d/3x3
I1125 18:53:58.269218 17955 net.cpp:106] Creating Layer inception_4d/3x3
I1125 18:53:58.269222 17955 net.cpp:454] inception_4d/3x3 <- inception_4d/3x3_reduce
I1125 18:53:58.269229 17955 net.cpp:411] inception_4d/3x3 -> inception_4d/3x3
I1125 18:53:58.273478 17955 net.cpp:150] Setting up inception_4d/3x3
I1125 18:53:58.273493 17955 net.cpp:157] Top shape: 64 288 14 14 (3612672)
I1125 18:53:58.273496 17955 net.cpp:165] Memory required for data: 3003262984
I1125 18:53:58.273504 17955 layer_factory.hpp:76] Creating layer inception_4d/relu_3x3
I1125 18:53:58.273509 17955 net.cpp:106] Creating Layer inception_4d/relu_3x3
I1125 18:53:58.273514 17955 net.cpp:454] inception_4d/relu_3x3 <- inception_4d/3x3
I1125 18:53:58.273519 17955 net.cpp:397] inception_4d/relu_3x3 -> inception_4d/3x3 (in-place)
I1125 18:53:58.273875 17955 net.cpp:150] Setting up inception_4d/relu_3x3
I1125 18:53:58.273890 17955 net.cpp:157] Top shape: 64 288 14 14 (3612672)
I1125 18:53:58.273895 17955 net.cpp:165] Memory required for data: 3017713672
I1125 18:53:58.273897 17955 layer_factory.hpp:76] Creating layer inception_4d/5x5_reduce
I1125 18:53:58.273905 17955 net.cpp:106] Creating Layer inception_4d/5x5_reduce
I1125 18:53:58.273910 17955 net.cpp:454] inception_4d/5x5_reduce <- inception_4c/output_inception_4c/output_0_split_2
I1125 18:53:58.273917 17955 net.cpp:411] inception_4d/5x5_reduce -> inception_4d/5x5_reduce
I1125 18:53:58.275370 17955 net.cpp:150] Setting up inception_4d/5x5_reduce
I1125 18:53:58.275385 17955 net.cpp:157] Top shape: 64 32 14 14 (401408)
I1125 18:53:58.275389 17955 net.cpp:165] Memory required for data: 3019319304
I1125 18:53:58.275395 17955 layer_factory.hpp:76] Creating layer inception_4d/relu_5x5_reduce
I1125 18:53:58.275403 17955 net.cpp:106] Creating Layer inception_4d/relu_5x5_reduce
I1125 18:53:58.275408 17955 net.cpp:454] inception_4d/relu_5x5_reduce <- inception_4d/5x5_reduce
I1125 18:53:58.275414 17955 net.cpp:397] inception_4d/relu_5x5_reduce -> inception_4d/5x5_reduce (in-place)
I1125 18:53:58.275789 17955 net.cpp:150] Setting up inception_4d/relu_5x5_reduce
I1125 18:53:58.275801 17955 net.cpp:157] Top shape: 64 32 14 14 (401408)
I1125 18:53:58.275804 17955 net.cpp:165] Memory required for data: 3020924936
I1125 18:53:58.275809 17955 layer_factory.hpp:76] Creating layer inception_4d/5x5
I1125 18:53:58.275818 17955 net.cpp:106] Creating Layer inception_4d/5x5
I1125 18:53:58.275822 17955 net.cpp:454] inception_4d/5x5 <- inception_4d/5x5_reduce
I1125 18:53:58.275830 17955 net.cpp:411] inception_4d/5x5 -> inception_4d/5x5
I1125 18:53:58.277506 17955 net.cpp:150] Setting up inception_4d/5x5
I1125 18:53:58.277520 17955 net.cpp:157] Top shape: 64 64 14 14 (802816)
I1125 18:53:58.277523 17955 net.cpp:165] Memory required for data: 3024136200
I1125 18:53:58.277530 17955 layer_factory.hpp:76] Creating layer inception_4d/relu_5x5
I1125 18:53:58.277536 17955 net.cpp:106] Creating Layer inception_4d/relu_5x5
I1125 18:53:58.277540 17955 net.cpp:454] inception_4d/relu_5x5 <- inception_4d/5x5
I1125 18:53:58.277545 17955 net.cpp:397] inception_4d/relu_5x5 -> inception_4d/5x5 (in-place)
I1125 18:53:58.277750 17955 net.cpp:150] Setting up inception_4d/relu_5x5
I1125 18:53:58.277762 17955 net.cpp:157] Top shape: 64 64 14 14 (802816)
I1125 18:53:58.277765 17955 net.cpp:165] Memory required for data: 3027347464
I1125 18:53:58.277768 17955 layer_factory.hpp:76] Creating layer inception_4d/pool
I1125 18:53:58.277776 17955 net.cpp:106] Creating Layer inception_4d/pool
I1125 18:53:58.277781 17955 net.cpp:454] inception_4d/pool <- inception_4c/output_inception_4c/output_0_split_3
I1125 18:53:58.277786 17955 net.cpp:411] inception_4d/pool -> inception_4d/pool
I1125 18:53:58.278210 17955 net.cpp:150] Setting up inception_4d/pool
I1125 18:53:58.278224 17955 net.cpp:157] Top shape: 64 512 14 14 (6422528)
I1125 18:53:58.278229 17955 net.cpp:165] Memory required for data: 3053037576
I1125 18:53:58.278234 17955 layer_factory.hpp:76] Creating layer inception_4d/pool_proj
I1125 18:53:58.278241 17955 net.cpp:106] Creating Layer inception_4d/pool_proj
I1125 18:53:58.278245 17955 net.cpp:454] inception_4d/pool_proj <- inception_4d/pool
I1125 18:53:58.278252 17955 net.cpp:411] inception_4d/pool_proj -> inception_4d/pool_proj
I1125 18:53:58.279819 17955 net.cpp:150] Setting up inception_4d/pool_proj
I1125 18:53:58.279834 17955 net.cpp:157] Top shape: 64 64 14 14 (802816)
I1125 18:53:58.279839 17955 net.cpp:165] Memory required for data: 3056248840
I1125 18:53:58.279844 17955 layer_factory.hpp:76] Creating layer inception_4d/relu_pool_proj
I1125 18:53:58.279850 17955 net.cpp:106] Creating Layer inception_4d/relu_pool_proj
I1125 18:53:58.279855 17955 net.cpp:454] inception_4d/relu_pool_proj <- inception_4d/pool_proj
I1125 18:53:58.279861 17955 net.cpp:397] inception_4d/relu_pool_proj -> inception_4d/pool_proj (in-place)
I1125 18:53:58.280066 17955 net.cpp:150] Setting up inception_4d/relu_pool_proj
I1125 18:53:58.280079 17955 net.cpp:157] Top shape: 64 64 14 14 (802816)
I1125 18:53:58.280082 17955 net.cpp:165] Memory required for data: 3059460104
I1125 18:53:58.280086 17955 layer_factory.hpp:76] Creating layer inception_4d/output
I1125 18:53:58.280092 17955 net.cpp:106] Creating Layer inception_4d/output
I1125 18:53:58.280095 17955 net.cpp:454] inception_4d/output <- inception_4d/1x1
I1125 18:53:58.280100 17955 net.cpp:454] inception_4d/output <- inception_4d/3x3
I1125 18:53:58.280104 17955 net.cpp:454] inception_4d/output <- inception_4d/5x5
I1125 18:53:58.280108 17955 net.cpp:454] inception_4d/output <- inception_4d/pool_proj
I1125 18:53:58.280112 17955 net.cpp:411] inception_4d/output -> inception_4d/output
I1125 18:53:58.280163 17955 net.cpp:150] Setting up inception_4d/output
I1125 18:53:58.280172 17955 net.cpp:157] Top shape: 64 528 14 14 (6623232)
I1125 18:53:58.280175 17955 net.cpp:165] Memory required for data: 3085953032
I1125 18:53:58.280179 17955 layer_factory.hpp:76] Creating layer inception_4d/output_inception_4d/output_0_split
I1125 18:53:58.280184 17955 net.cpp:106] Creating Layer inception_4d/output_inception_4d/output_0_split
I1125 18:53:58.280189 17955 net.cpp:454] inception_4d/output_inception_4d/output_0_split <- inception_4d/output
I1125 18:53:58.280194 17955 net.cpp:411] inception_4d/output_inception_4d/output_0_split -> inception_4d/output_inception_4d/output_0_split_0
I1125 18:53:58.280200 17955 net.cpp:411] inception_4d/output_inception_4d/output_0_split -> inception_4d/output_inception_4d/output_0_split_1
I1125 18:53:58.280206 17955 net.cpp:411] inception_4d/output_inception_4d/output_0_split -> inception_4d/output_inception_4d/output_0_split_2
I1125 18:53:58.280211 17955 net.cpp:411] inception_4d/output_inception_4d/output_0_split -> inception_4d/output_inception_4d/output_0_split_3
I1125 18:53:58.280216 17955 net.cpp:411] inception_4d/output_inception_4d/output_0_split -> inception_4d/output_inception_4d/output_0_split_4
I1125 18:53:58.280342 17955 net.cpp:150] Setting up inception_4d/output_inception_4d/output_0_split
I1125 18:53:58.280350 17955 net.cpp:157] Top shape: 64 528 14 14 (6623232)
I1125 18:53:58.280354 17955 net.cpp:157] Top shape: 64 528 14 14 (6623232)
I1125 18:53:58.280359 17955 net.cpp:157] Top shape: 64 528 14 14 (6623232)
I1125 18:53:58.280361 17955 net.cpp:157] Top shape: 64 528 14 14 (6623232)
I1125 18:53:58.280367 17955 net.cpp:157] Top shape: 64 528 14 14 (6623232)
I1125 18:53:58.280370 17955 net.cpp:165] Memory required for data: 3218417672
I1125 18:53:58.280385 17955 layer_factory.hpp:76] Creating layer loss2/ave_pool
I1125 18:53:58.280391 17955 net.cpp:106] Creating Layer loss2/ave_pool
I1125 18:53:58.280395 17955 net.cpp:454] loss2/ave_pool <- inception_4d/output_inception_4d/output_0_split_0
I1125 18:53:58.280403 17955 net.cpp:411] loss2/ave_pool -> loss2/ave_pool
I1125 18:53:58.280807 17955 net.cpp:150] Setting up loss2/ave_pool
I1125 18:53:58.280820 17955 net.cpp:157] Top shape: 64 528 4 4 (540672)
I1125 18:53:58.280824 17955 net.cpp:165] Memory required for data: 3220580360
I1125 18:53:58.280828 17955 layer_factory.hpp:76] Creating layer loss2/conv
I1125 18:53:58.280838 17955 net.cpp:106] Creating Layer loss2/conv
I1125 18:53:58.280843 17955 net.cpp:454] loss2/conv <- loss2/ave_pool
I1125 18:53:58.280849 17955 net.cpp:411] loss2/conv -> loss2/conv
I1125 18:53:58.282944 17955 net.cpp:150] Setting up loss2/conv
I1125 18:53:58.282960 17955 net.cpp:157] Top shape: 64 128 4 4 (131072)
I1125 18:53:58.282964 17955 net.cpp:165] Memory required for data: 3221104648
I1125 18:53:58.282970 17955 layer_factory.hpp:76] Creating layer loss2/relu_conv
I1125 18:53:58.282979 17955 net.cpp:106] Creating Layer loss2/relu_conv
I1125 18:53:58.282982 17955 net.cpp:454] loss2/relu_conv <- loss2/conv
I1125 18:53:58.282987 17955 net.cpp:397] loss2/relu_conv -> loss2/conv (in-place)
I1125 18:53:58.283354 17955 net.cpp:150] Setting up loss2/relu_conv
I1125 18:53:58.283367 17955 net.cpp:157] Top shape: 64 128 4 4 (131072)
I1125 18:53:58.283372 17955 net.cpp:165] Memory required for data: 3221628936
I1125 18:53:58.283375 17955 layer_factory.hpp:76] Creating layer loss2/fc
I1125 18:53:58.283383 17955 net.cpp:106] Creating Layer loss2/fc
I1125 18:53:58.283387 17955 net.cpp:454] loss2/fc <- loss2/conv
I1125 18:53:58.283392 17955 net.cpp:411] loss2/fc -> loss2/fc
I1125 18:53:58.299026 17955 net.cpp:150] Setting up loss2/fc
I1125 18:53:58.299042 17955 net.cpp:157] Top shape: 64 1024 (65536)
I1125 18:53:58.299046 17955 net.cpp:165] Memory required for data: 3221891080
I1125 18:53:58.299052 17955 layer_factory.hpp:76] Creating layer loss2/relu_fc
I1125 18:53:58.299058 17955 net.cpp:106] Creating Layer loss2/relu_fc
I1125 18:53:58.299062 17955 net.cpp:454] loss2/relu_fc <- loss2/fc
I1125 18:53:58.299069 17955 net.cpp:397] loss2/relu_fc -> loss2/fc (in-place)
I1125 18:53:58.299291 17955 net.cpp:150] Setting up loss2/relu_fc
I1125 18:53:58.299304 17955 net.cpp:157] Top shape: 64 1024 (65536)
I1125 18:53:58.299306 17955 net.cpp:165] Memory required for data: 3222153224
I1125 18:53:58.299310 17955 layer_factory.hpp:76] Creating layer loss2/drop_fc
I1125 18:53:58.299319 17955 net.cpp:106] Creating Layer loss2/drop_fc
I1125 18:53:58.299324 17955 net.cpp:454] loss2/drop_fc <- loss2/fc
I1125 18:53:58.299329 17955 net.cpp:397] loss2/drop_fc -> loss2/fc (in-place)
I1125 18:53:58.299377 17955 net.cpp:150] Setting up loss2/drop_fc
I1125 18:53:58.299386 17955 net.cpp:157] Top shape: 64 1024 (65536)
I1125 18:53:58.299389 17955 net.cpp:165] Memory required for data: 3222415368
I1125 18:53:58.299392 17955 layer_factory.hpp:76] Creating layer loss2/classifier-attribute
I1125 18:53:58.299398 17955 net.cpp:106] Creating Layer loss2/classifier-attribute
I1125 18:53:58.299402 17955 net.cpp:454] loss2/classifier-attribute <- loss2/fc
I1125 18:53:58.299409 17955 net.cpp:411] loss2/classifier-attribute -> loss2/classifier-attribute
I1125 18:53:58.299671 17955 net.cpp:150] Setting up loss2/classifier-attribute
I1125 18:53:58.299680 17955 net.cpp:157] Top shape: 64 11 (704)
I1125 18:53:58.299684 17955 net.cpp:165] Memory required for data: 3222418184
I1125 18:53:58.299690 17955 layer_factory.hpp:76] Creating layer loss2/classifier-attribute_loss2/classifier-attribute_0_split
I1125 18:53:58.299695 17955 net.cpp:106] Creating Layer loss2/classifier-attribute_loss2/classifier-attribute_0_split
I1125 18:53:58.299700 17955 net.cpp:454] loss2/classifier-attribute_loss2/classifier-attribute_0_split <- loss2/classifier-attribute
I1125 18:53:58.299705 17955 net.cpp:411] loss2/classifier-attribute_loss2/classifier-attribute_0_split -> loss2/classifier-attribute_loss2/classifier-attribute_0_split_0
I1125 18:53:58.299711 17955 net.cpp:411] loss2/classifier-attribute_loss2/classifier-attribute_0_split -> loss2/classifier-attribute_loss2/classifier-attribute_0_split_1
I1125 18:53:58.299774 17955 net.cpp:150] Setting up loss2/classifier-attribute_loss2/classifier-attribute_0_split
I1125 18:53:58.299782 17955 net.cpp:157] Top shape: 64 11 (704)
I1125 18:53:58.299787 17955 net.cpp:157] Top shape: 64 11 (704)
I1125 18:53:58.299789 17955 net.cpp:165] Memory required for data: 3222423816
I1125 18:53:58.299793 17955 layer_factory.hpp:76] Creating layer loss2/loss
I1125 18:53:58.299798 17955 net.cpp:106] Creating Layer loss2/loss
I1125 18:53:58.299803 17955 net.cpp:454] loss2/loss <- loss2/classifier-attribute_loss2/classifier-attribute_0_split_0
I1125 18:53:58.299806 17955 net.cpp:454] loss2/loss <- label_data_1_split_2
…
I1125 18:53:58.300432 17955 net.cpp:150] Setting up loss2/top-1
I1125 18:53:58.300436 17955 net.cpp:157] Top shape: (1)
I1125 18:53:58.300438 17955 net.cpp:165] Memory required for data: 3222423824
I1125 18:53:58.300441 17955 layer_factory.hpp:76] Creating layer inception_4e/1x1
I1125 18:53:58.300451 17955 net.cpp:106] Creating Layer inception_4e/1x1
I1125 18:53:58.300454 17955 net.cpp:454] inception_4e/1x1 <- inception_4d/output_inception_4d/output_0_split_1
I1125 18:53:58.300462 17955 net.cpp:411] inception_4e/1x1 -> inception_4e/1x1
I1125 18:53:58.302723 17955 net.cpp:150] Setting up inception_4e/1x1
I1125 18:53:58.302738 17955 net.cpp:157] Top shape: 64 256 14 14 (3211264)
I1125 18:53:58.302742 17955 net.cpp:165] Memory required for data: 3235268880
I1125 18:53:58.302749 17955 layer_factory.hpp:76] Creating layer inception_4e/relu_1x1
I1125 18:53:58.302757 17955 net.cpp:106] Creating Layer inception_4e/relu_1x1
I1125 18:53:58.302760 17955 net.cpp:454] inception_4e/relu_1x1 <- inception_4e/1x1
I1125 18:53:58.302767 17955 net.cpp:397] inception_4e/relu_1x1 -> inception_4e/1x1 (in-place)
I1125 18:53:58.302983 17955 net.cpp:150] Setting up inception_4e/relu_1x1
I1125 18:53:58.302994 17955 net.cpp:157] Top shape: 64 256 14 14 (3211264)
I1125 18:53:58.302999 17955 net.cpp:165] Memory required for data: 3248113936
I1125 18:53:58.303001 17955 layer_factory.hpp:76] Creating layer inception_4e/3x3_reduce
I1125 18:53:58.303011 17955 net.cpp:106] Creating Layer inception_4e/3x3_reduce
I1125 18:53:58.303015 17955 net.cpp:454] inception_4e/3x3_reduce <- inception_4d/output_inception_4d/output_0_split_2
I1125 18:53:58.303021 17955 net.cpp:411] inception_4e/3x3_reduce -> inception_4e/3x3_reduce
I1125 18:53:58.305371 17955 net.cpp:150] Setting up inception_4e/3x3_reduce
I1125 18:53:58.305387 17955 net.cpp:157] Top shape: 64 160 14 14 (2007040)
I1125 18:53:58.305389 17955 net.cpp:165] Memory required for data: 3256142096
I1125 18:53:58.305395 17955 layer_factory.hpp:76] Creating layer inception_4e/relu_3x3_reduce
I1125 18:53:58.305402 17955 net.cpp:106] Creating Layer inception_4e/relu_3x3_reduce
I1125 18:53:58.305407 17955 net.cpp:454] inception_4e/relu_3x3_reduce <- inception_4e/3x3_reduce
I1125 18:53:58.305413 17955 net.cpp:397] inception_4e/relu_3x3_reduce -> inception_4e/3x3_reduce (in-place)
I1125 18:53:58.305781 17955 net.cpp:150] Setting up inception_4e/relu_3x3_reduce
I1125 18:53:58.305795 17955 net.cpp:157] Top shape: 64 160 14 14 (2007040)
I1125 18:53:58.305799 17955 net.cpp:165] Memory required for data: 3264170256
I1125 18:53:58.305802 17955 layer_factory.hpp:76] Creating layer inception_4e/3x3
I1125 18:53:58.305826 17955 net.cpp:106] Creating Layer inception_4e/3x3
I1125 18:53:58.305831 17955 net.cpp:454] inception_4e/3x3 <- inception_4e/3x3_reduce
I1125 18:53:58.305837 17955 net.cpp:411] inception_4e/3x3 -> inception_4e/3x3
I1125 18:53:58.310590 17955 net.cpp:150] Setting up inception_4e/3x3
I1125 18:53:58.310606 17955 net.cpp:157] Top shape: 64 320 14 14 (4014080)
I1125 18:53:58.310609 17955 net.cpp:165] Memory required for data: 3280226576
I1125 18:53:58.310616 17955 layer_factory.hpp:76] Creating layer inception_4e/relu_3x3
I1125 18:53:58.310623 17955 net.cpp:106] Creating Layer inception_4e/relu_3x3
I1125 18:53:58.310627 17955 net.cpp:454] inception_4e/relu_3x3 <- inception_4e/3x3
I1125 18:53:58.310636 17955 net.cpp:397] inception_4e/relu_3x3 -> inception_4e/3x3 (in-place)
I1125 18:53:58.311002 17955 net.cpp:150] Setting up inception_4e/relu_3x3
I1125 18:53:58.311017 17955 net.cpp:157] Top shape: 64 320 14 14 (4014080)
I1125 18:53:58.311020 17955 net.cpp:165] Memory required for data: 3296282896
I1125 18:53:58.311023 17955 layer_factory.hpp:76] Creating layer inception_4e/5x5_reduce
I1125 18:53:58.311033 17955 net.cpp:106] Creating Layer inception_4e/5x5_reduce
I1125 18:53:58.311038 17955 net.cpp:454] inception_4e/5x5_reduce <- inception_4d/output_inception_4d/output_0_split_3
I1125 18:53:58.311044 17955 net.cpp:411] inception_4e/5x5_reduce -> inception_4e/5x5_reduce
I1125 18:53:58.312681 17955 net.cpp:150] Setting up inception_4e/5x5_reduce
I1125 18:53:58.312697 17955 net.cpp:157] Top shape: 64 32 14 14 (401408)
I1125 18:53:58.312700 17955 net.cpp:165] Memory required for data: 3297888528
I1125 18:53:58.312707 17955 layer_factory.hpp:76] Creating layer inception_4e/relu_5x5_reduce
I1125 18:53:58.312716 17955 net.cpp:106] Creating Layer inception_4e/relu_5x5_reduce
I1125 18:53:58.312721 17955 net.cpp:454] inception_4e/relu_5x5_reduce <- inception_4e/5x5_reduce
I1125 18:53:58.312726 17955 net.cpp:397] inception_4e/relu_5x5_reduce -> inception_4e/5x5_reduce (in-place)
I1125 18:53:58.312934 17955 net.cpp:150] Setting up inception_4e/relu_5x5_reduce
I1125 18:53:58.312947 17955 net.cpp:157] Top shape: 64 32 14 14 (401408)
I1125 18:53:58.312949 17955 net.cpp:165] Memory required for data: 3299494160
I1125 18:53:58.312952 17955 layer_factory.hpp:76] Creating layer inception_4e/5x5
I1125 18:53:58.312961 17955 net.cpp:106] Creating Layer inception_4e/5x5
I1125 18:53:58.312965 17955 net.cpp:454] inception_4e/5x5 <- inception_4e/5x5_reduce
I1125 18:53:58.312973 17955 net.cpp:411] inception_4e/5x5 -> inception_4e/5x5
I1125 18:53:58.315022 17955 net.cpp:150] Setting up inception_4e/5x5
I1125 18:53:58.315038 17955 net.cpp:157] Top shape: 64 128 14 14 (1605632)
I1125 18:53:58.315042 17955 net.cpp:165] Memory required for data: 3305916688
I1125 18:53:58.315048 17955 layer_factory.hpp:76] Creating layer inception_4e/relu_5x5
I1125 18:53:58.315055 17955 net.cpp:106] Creating Layer inception_4e/relu_5x5
I1125 18:53:58.315060 17955 net.cpp:454] inception_4e/relu_5x5 <- inception_4e/5x5
I1125 18:53:58.315067 17955 net.cpp:397] inception_4e/relu_5x5 -> inception_4e/5x5 (in-place)
I1125 18:53:58.315434 17955 net.cpp:150] Setting up inception_4e/relu_5x5
I1125 18:53:58.315448 17955 net.cpp:157] Top shape: 64 128 14 14 (1605632)
I1125 18:53:58.315451 17955 net.cpp:165] Memory required for data: 3312339216
I1125 18:53:58.315455 17955 layer_factory.hpp:76] Creating layer inception_4e/pool
I1125 18:53:58.315464 17955 net.cpp:106] Creating Layer inception_4e/pool
I1125 18:53:58.315469 17955 net.cpp:454] inception_4e/pool <- inception_4d/output_inception_4d/output_0_split_4
I1125 18:53:58.315474 17955 net.cpp:411] inception_4e/pool -> inception_4e/pool
I1125 18:53:58.315738 17955 net.cpp:150] Setting up inception_4e/pool
I1125 18:53:58.315750 17955 net.cpp:157] Top shape: 64 528 14 14 (6623232)
I1125 18:53:58.315753 17955 net.cpp:165] Memory required for data: 3338832144
I1125 18:53:58.315757 17955 layer_factory.hpp:76] Creating layer inception_4e/pool_proj
I1125 18:53:58.315765 17955 net.cpp:106] Creating Layer inception_4e/pool_proj
I1125 18:53:58.315770 17955 net.cpp:454] inception_4e/pool_proj <- inception_4e/pool
I1125 18:53:58.315778 17955 net.cpp:411] inception_4e/pool_proj -> inception_4e/pool_proj
I1125 18:53:58.317607 17955 net.cpp:150] Setting up inception_4e/pool_proj
I1125 18:53:58.317622 17955 net.cpp:157] Top shape: 64 128 14 14 (1605632)
I1125 18:53:58.317626 17955 net.cpp:165] Memory required for data: 3345254672
I1125 18:53:58.317634 17955 layer_factory.hpp:76] Creating layer inception_4e/relu_pool_proj
I1125 18:53:58.317641 17955 net.cpp:106] Creating Layer inception_4e/relu_pool_proj
I1125 18:53:58.317644 17955 net.cpp:454] inception_4e/relu_pool_proj <- inception_4e/pool_proj
I1125 18:53:58.317651 17955 net.cpp:397] inception_4e/relu_pool_proj -> inception_4e/pool_proj (in-place)
I1125 18:53:58.318020 17955 net.cpp:150] Setting up inception_4e/relu_pool_proj
I1125 18:53:58.318035 17955 net.cpp:157] Top shape: 64 128 14 14 (1605632)
I1125 18:53:58.318038 17955 net.cpp:165] Memory required for data: 3351677200
I1125 18:53:58.318042 17955 layer_factory.hpp:76] Creating layer inception_4e/output
I1125 18:53:58.318048 17955 net.cpp:106] Creating Layer inception_4e/output
I1125 18:53:58.318053 17955 net.cpp:454] inception_4e/output <- inception_4e/1x1
I1125 18:53:58.318058 17955 net.cpp:454] inception_4e/output <- inception_4e/3x3
I1125 18:53:58.318061 17955 net.cpp:454] inception_4e/output <- inception_4e/5x5
I1125 18:53:58.318065 17955 net.cpp:454] inception_4e/output <- inception_4e/pool_proj
I1125 18:53:58.318071 17955 net.cpp:411] inception_4e/output -> inception_4e/output
I1125 18:53:58.318125 17955 net.cpp:150] Setting up inception_4e/output
I1125 18:53:58.318131 17955 net.cpp:157] Top shape: 64 832 14 14 (10436608)
I1125 18:53:58.318135 17955 net.cpp:165] Memory required for data: 3393423632
I1125 18:53:58.318137 17955 layer_factory.hpp:76] Creating layer pool4/3x3_s2
I1125 18:53:58.318145 17955 net.cpp:106] Creating Layer pool4/3x3_s2
I1125 18:53:58.318150 17955 net.cpp:454] pool4/3x3_s2 <- inception_4e/output
I1125 18:53:58.318156 17955 net.cpp:411] pool4/3x3_s2 -> pool4/3x3_s2
I1125 18:53:58.318420 17955 net.cpp:150] Setting up pool4/3x3_s2
I1125 18:53:58.318433 17955 net.cpp:157] Top shape: 64 832 7 7 (2609152)
I1125 18:53:58.318435 17955 net.cpp:165] Memory required for data: 3403860240
I1125 18:53:58.318439 17955 layer_factory.hpp:76] Creating layer pool4/3x3_s2_pool4/3x3_s2_0_split
I1125 18:53:58.318444 17955 net.cpp:106] Creating Layer pool4/3x3_s2_pool4/3x3_s2_0_split
I1125 18:53:58.318449 17955 net.cpp:454] pool4/3x3_s2_pool4/3x3_s2_0_split <- pool4/3x3_s2
I1125 18:53:58.318481 17955 net.cpp:411] pool4/3x3_s2_pool4/3x3_s2_0_split -> pool4/3x3_s2_pool4/3x3_s2_0_split_0
I1125 18:53:58.318496 17955 net.cpp:411] pool4/3x3_s2_pool4/3x3_s2_0_split -> pool4/3x3_s2_pool4/3x3_s2_0_split_1
I1125 18:53:58.318502 17955 net.cpp:411] pool4/3x3_s2_pool4/3x3_s2_0_split -> pool4/3x3_s2_pool4/3x3_s2_0_split_2
I1125 18:53:58.318508 17955 net.cpp:411] pool4/3x3_s2_pool4/3x3_s2_0_split -> pool4/3x3_s2_pool4/3x3_s2_0_split_3
I1125 18:53:58.318625 17955 net.cpp:150] Setting up pool4/3x3_s2_pool4/3x3_s2_0_split
I1125 18:53:58.318634 17955 net.cpp:157] Top shape: 64 832 7 7 (2609152)
I1125 18:53:58.318639 17955 net.cpp:157] Top shape: 64 832 7 7 (2609152)
I1125 18:53:58.318641 17955 net.cpp:157] Top shape: 64 832 7 7 (2609152)
I1125 18:53:58.318645 17955 net.cpp:157] Top shape: 64 832 7 7 (2609152)
I1125 18:53:58.318649 17955 net.cpp:165] Memory required for data: 3445606672
I1125 18:53:58.318651 17955 layer_factory.hpp:76] Creating layer inception_5a/1x1
I1125 18:53:58.318663 17955 net.cpp:106] Creating Layer inception_5a/1x1
I1125 18:53:58.318667 17955 net.cpp:454] inception_5a/1x1 <- pool4/3x3_s2_pool4/3x3_s2_0_split_0
I1125 18:53:58.318672 17955 net.cpp:411] inception_5a/1x1 -> inception_5a/1x1
I1125 18:53:58.321858 17955 net.cpp:150] Setting up inception_5a/1x1
I1125 18:53:58.321873 17955 net.cpp:157] Top shape: 64 256 7 7 (802816)
I1125 18:53:58.321877 17955 net.cpp:165] Memory required for data: 3448817936
I1125 18:53:58.321884 17955 layer_factory.hpp:76] Creating layer inception_5a/relu_1x1
I1125 18:53:58.321890 17955 net.cpp:106] Creating Layer inception_5a/relu_1x1
I1125 18:53:58.321894 17955 net.cpp:454] inception_5a/relu_1x1 <- inception_5a/1x1
I1125 18:53:58.321902 17955 net.cpp:397] inception_5a/relu_1x1 -> inception_5a/1x1 (in-place)
I1125 18:53:58.322131 17955 net.cpp:150] Setting up inception_5a/relu_1x1
I1125 18:53:58.322146 17955 net.cpp:157] Top shape: 64 256 7 7 (802816)
I1125 18:53:58.322150 17955 net.cpp:165] Memory required for data: 3452029200
I1125 18:53:58.322154 17955 layer_factory.hpp:76] Creating layer inception_5a/3x3_reduce
I1125 18:53:58.322161 17955 net.cpp:106] Creating Layer inception_5a/3x3_reduce
I1125 18:53:58.322165 17955 net.cpp:454] inception_5a/3x3_reduce <- pool4/3x3_s2_pool4/3x3_s2_0_split_1
I1125 18:53:58.322172 17955 net.cpp:411] inception_5a/3x3_reduce -> inception_5a/3x3_reduce
I1125 18:53:58.324978 17955 net.cpp:150] Setting up inception_5a/3x3_reduce
I1125 18:53:58.324995 17955 net.cpp:157] Top shape: 64 160 7 7 (501760)
I1125 18:53:58.324998 17955 net.cpp:165] Memory required for data: 3454036240
I1125 18:53:58.325004 17955 layer_factory.hpp:76] Creating layer inception_5a/relu_3x3_reduce
I1125 18:53:58.325011 17955 net.cpp:106] Creating Layer inception_5a/relu_3x3_reduce
I1125 18:53:58.325016 17955 net.cpp:454] inception_5a/relu_3x3_reduce <- inception_5a/3x3_reduce
I1125 18:53:58.325021 17955 net.cpp:397] inception_5a/relu_3x3_reduce -> inception_5a/3x3_reduce (in-place)
I1125 18:53:58.325386 17955 net.cpp:150] Setting up inception_5a/relu_3x3_reduce
I1125 18:53:58.325399 17955 net.cpp:157] Top shape: 64 160 7 7 (501760)
I1125 18:53:58.325403 17955 net.cpp:165] Memory required for data: 3456043280
I1125 18:53:58.325407 17955 layer_factory.hpp:76] Creating layer inception_5a/3x3
I1125 18:53:58.325417 17955 net.cpp:106] Creating Layer inception_5a/3x3
I1125 18:53:58.325422 17955 net.cpp:454] inception_5a/3x3 <- inception_5a/3x3_reduce
I1125 18:53:58.325426 17955 net.cpp:411] inception_5a/3x3 -> inception_5a/3x3
I1125 18:53:58.330394 17955 net.cpp:150] Setting up inception_5a/3x3
I1125 18:53:58.330410 17955 net.cpp:157] Top shape: 64 320 7 7 (1003520)
I1125 18:53:58.330416 17955 net.cpp:165] Memory required for data: 3460057360
I1125 18:53:58.330423 17955 layer_factory.hpp:76] Creating layer inception_5a/relu_3x3
I1125 18:53:58.330430 17955 net.cpp:106] Creating Layer inception_5a/relu_3x3
I1125 18:53:58.330433 17955 net.cpp:454] inception_5a/relu_3x3 <- inception_5a/3x3
I1125 18:53:58.330438 17955 net.cpp:397] inception_5a/relu_3x3 -> inception_5a/3x3 (in-place)
I1125 18:53:58.330652 17955 net.cpp:150] Setting up inception_5a/relu_3x3
I1125 18:53:58.330664 17955 net.cpp:157] Top shape: 64 320 7 7 (1003520)
I1125 18:53:58.330667 17955 net.cpp:165] Memory required for data: 3464071440
I1125 18:53:58.330672 17955 layer_factory.hpp:76] Creating layer inception_5a/5x5_reduce
I1125 18:53:58.330680 17955 net.cpp:106] Creating Layer inception_5a/5x5_reduce
I1125 18:53:58.330684 17955 net.cpp:454] inception_5a/5x5_reduce <- pool4/3x3_s2_pool4/3x3_s2_0_split_2
I1125 18:53:58.330693 17955 net.cpp:411] inception_5a/5x5_reduce -> inception_5a/5x5_reduce
I1125 18:53:58.332746 17955 net.cpp:150] Setting up inception_5a/5x5_reduce
I1125 18:53:58.332763 17955 net.cpp:157] Top shape: 64 32 7 7 (100352)
I1125 18:53:58.332767 17955 net.cpp:165] Memory required for data: 3464472848
I1125 18:53:58.332773 17955 layer_factory.hpp:76] Creating layer inception_5a/relu_5x5_reduce
I1125 18:53:58.332779 17955 net.cpp:106] Creating Layer inception_5a/relu_5x5_reduce
I1125 18:53:58.332783 17955 net.cpp:454] inception_5a/relu_5x5_reduce <- inception_5a/5x5_reduce
I1125 18:53:58.332792 17955 net.cpp:397] inception_5a/relu_5x5_reduce -> inception_5a/5x5_reduce (in-place)
I1125 18:53:58.333075 17955 net.cpp:150] Setting up inception_5a/relu_5x5_reduce
I1125 18:53:58.333086 17955 net.cpp:157] Top shape: 64 32 7 7 (100352)
I1125 18:53:58.333091 17955 net.cpp:165] Memory required for data: 3464874256
I1125 18:53:58.333093 17955 layer_factory.hpp:76] Creating layer inception_5a/5x5
I1125 18:53:58.333103 17955 net.cpp:106] Creating Layer inception_5a/5x5
I1125 18:53:58.333108 17955 net.cpp:454] inception_5a/5x5 <- inception_5a/5x5_reduce
I1125 18:53:58.333115 17955 net.cpp:411] inception_5a/5x5 -> inception_5a/5x5
I1125 18:53:58.335304 17955 net.cpp:150] Setting up inception_5a/5x5
I1125 18:53:58.335319 17955 net.cpp:157] Top shape: 64 128 7 7 (401408)
I1125 18:53:58.335322 17955 net.cpp:165] Memory required for data: 3466479888
I1125 18:53:58.335330 17955 layer_factory.hpp:76] Creating layer inception_5a/relu_5x5
I1125 18:53:58.335335 17955 net.cpp:106] Creating Layer inception_5a/relu_5x5
I1125 18:53:58.335340 17955 net.cpp:454] inception_5a/relu_5x5 <- inception_5a/5x5
I1125 18:53:58.335345 17955 net.cpp:397] inception_5a/relu_5x5 -> inception_5a/5x5 (in-place)
I1125 18:53:58.335739 17955 net.cpp:150] Setting up inception_5a/relu_5x5
I1125 18:53:58.335753 17955 net.cpp:157] Top shape: 64 128 7 7 (401408)
I1125 18:53:58.335757 17955 net.cpp:165] Memory required for data: 3468085520
I1125 18:53:58.335760 17955 layer_factory.hpp:76] Creating layer inception_5a/pool
I1125 18:53:58.335767 17955 net.cpp:106] Creating Layer inception_5a/pool
I1125 18:53:58.335772 17955 net.cpp:454] inception_5a/pool <- pool4/3x3_s2_pool4/3x3_s2_0_split_3
I1125 18:53:58.335779 17955 net.cpp:411] inception_5a/pool -> inception_5a/pool
I1125 18:53:58.336066 17955 net.cpp:150] Setting up inception_5a/pool
I1125 18:53:58.336078 17955 net.cpp:157] Top shape: 64 832 7 7 (2609152)
I1125 18:53:58.336081 17955 net.cpp:165] Memory required for data: 3478522128
I1125 18:53:58.336086 17955 layer_factory.hpp:76] Creating layer inception_5a/pool_proj
I1125 18:53:58.336093 17955 net.cpp:106] Creating Layer inception_5a/pool_proj
I1125 18:53:58.336098 17955 net.cpp:454] inception_5a/pool_proj <- inception_5a/pool
I1125 18:53:58.336107 17955 net.cpp:411] inception_5a/pool_proj -> inception_5a/pool_proj
I1125 18:53:58.338624 17955 net.cpp:150] Setting up inception_5a/pool_proj
I1125 18:53:58.338639 17955 net.cpp:157] Top shape: 64 128 7 7 (401408)
I1125 18:53:58.338642 17955 net.cpp:165] Memory required for data: 3480127760
I1125 18:53:58.338649 17955 layer_factory.hpp:76] Creating layer inception_5a/relu_pool_proj
I1125 18:53:58.338655 17955 net.cpp:106] Creating Layer inception_5a/relu_pool_proj
I1125 18:53:58.338660 17955 net.cpp:454] inception_5a/relu_pool_proj <- inception_5a/pool_proj
I1125 18:53:58.338666 17955 net.cpp:397] inception_5a/relu_pool_proj -> inception_5a/pool_proj (in-place)
I1125 18:53:58.339057 17955 net.cpp:150] Setting up inception_5a/relu_pool_proj
I1125 18:53:58.339072 17955 net.cpp:157] Top shape: 64 128 7 7 (401408)
I1125 18:53:58.339076 17955 net.cpp:165] Memory required for data: 3481733392
I1125 18:53:58.339081 17955 layer_factory.hpp:76] Creating layer inception_5a/output
I1125 18:53:58.339087 17955 net.cpp:106] Creating Layer inception_5a/output
I1125 18:53:58.339090 17955 net.cpp:454] inception_5a/output <- inception_5a/1x1
I1125 18:53:58.339095 17955 net.cpp:454] inception_5a/output <- inception_5a/3x3
I1125 18:53:58.339104 17955 net.cpp:454] inception_5a/output <- inception_5a/5x5
I1125 18:53:58.339108 17955 net.cpp:454] inception_5a/output <- inception_5a/pool_proj
I1125 18:53:58.339113 17955 net.cpp:411] inception_5a/output -> inception_5a/output
I1125 18:53:58.339167 17955 net.cpp:150] Setting up inception_5a/output
I1125 18:53:58.339174 17955 net.cpp:157] Top shape: 64 832 7 7 (2609152)
I1125 18:53:58.339177 17955 net.cpp:165] Memory required for data: 3492170000
I1125 18:53:58.339180 17955 layer_factory.hpp:76] Creating layer inception_5a/output_inception_5a/output_0_split
I1125 18:53:58.339190 17955 net.cpp:106] Creating Layer inception_5a/output_inception_5a/output_0_split
I1125 18:53:58.339195 17955 net.cpp:454] inception_5a/output_inception_5a/output_0_split <- inception_5a/output
I1125 18:53:58.339200 17955 net.cpp:411] inception_5a/output_inception_5a/output_0_split -> inception_5a/output_inception_5a/output_0_split_0
I1125 18:53:58.339208 17955 net.cpp:411] inception_5a/output_inception_5a/output_0_split -> inception_5a/output_inception_5a/output_0_split_1
I1125 18:53:58.339215 17955 net.cpp:411] inception_5a/output_inception_5a/output_0_split -> inception_5a/output_inception_5a/output_0_split_2
I1125 18:53:58.339220 17955 net.cpp:411] inception_5a/output_inception_5a/output_0_split -> inception_5a/output_inception_5a/output_0_split_3
I1125 18:53:58.339330 17955 net.cpp:150] Setting up inception_5a/output_inception_5a/output_0_split
I1125 18:53:58.339340 17955 net.cpp:157] Top shape: 64 832 7 7 (2609152)
I1125 18:53:58.339344 17955 net.cpp:157] Top shape: 64 832 7 7 (2609152)
I1125 18:53:58.339347 17955 net.cpp:157] Top shape: 64 832 7 7 (2609152)
I1125 18:53:58.339350 17955 net.cpp:157] Top shape: 64 832 7 7 (2609152)
I1125 18:53:58.339354 17955 net.cpp:165] Memory required for data: 3533916432
I1125 18:53:58.339359 17955 layer_factory.hpp:76] Creating layer inception_5b/1x1
I1125 18:53:58.339370 17955 net.cpp:106] Creating Layer inception_5b/1x1
I1125 18:53:58.339373 17955 net.cpp:454] inception_5b/1x1 <- inception_5a/output_inception_5a/output_0_split_0
I1125 18:53:58.339380 17955 net.cpp:411] inception_5b/1x1 -> inception_5b/1x1
I1125 18:53:58.343183 17955 net.cpp:150] Setting up inception_5b/1x1
I1125 18:53:58.343199 17955 net.cpp:157] Top shape: 64 384 7 7 (1204224)
I1125 18:53:58.343202 17955 net.cpp:165] Memory required for data: 3538733328
I1125 18:53:58.343209 17955 layer_factory.hpp:76] Creating layer inception_5b/relu_1x1
I1125 18:53:58.343215 17955 net.cpp:106] Creating Layer inception_5b/relu_1x1
I1125 18:53:58.343219 17955 net.cpp:454] inception_5b/relu_1x1 <- inception_5b/1x1
I1125 18:53:58.343226 17955 net.cpp:397] inception_5b/relu_1x1 -> inception_5b/1x1 (in-place)
I1125 18:53:58.343608 17955 net.cpp:150] Setting up inception_5b/relu_1x1
I1125 18:53:58.343622 17955 net.cpp:157] Top shape: 64 384 7 7 (1204224)
I1125 18:53:58.343626 17955 net.cpp:165] Memory required for data: 3543550224
I1125 18:53:58.343629 17955 layer_factory.hpp:76] Creating layer inception_5b/3x3_reduce
I1125 18:53:58.343639 17955 net.cpp:106] Creating Layer inception_5b/3x3_reduce
I1125 18:53:58.343643 17955 net.cpp:454] inception_5b/3x3_reduce <- inception_5a/output_inception_5a/output_0_split_1
I1125 18:53:58.343652 17955 net.cpp:411] inception_5b/3x3_reduce -> inception_5b/3x3_reduce
I1125 18:53:58.346542 17955 net.cpp:150] Setting up inception_5b/3x3_reduce
I1125 18:53:58.346557 17955 net.cpp:157] Top shape: 64 192 7 7 (602112)
I1125 18:53:58.346561 17955 net.cpp:165] Memory required for data: 3545958672
I1125 18:53:58.346567 17955 layer_factory.hpp:76] Creating layer inception_5b/relu_3x3_reduce
I1125 18:53:58.346575 17955 net.cpp:106] Creating Layer inception_5b/relu_3x3_reduce
I1125 18:53:58.346580 17955 net.cpp:454] inception_5b/relu_3x3_reduce <- inception_5b/3x3_reduce
I1125 18:53:58.346585 17955 net.cpp:397] inception_5b/relu_3x3_reduce -> inception_5b/3x3_reduce (in-place)
I1125 18:53:58.346814 17955 net.cpp:150] Setting up inception_5b/relu_3x3_reduce
I1125 18:53:58.346827 17955 net.cpp:157] Top shape: 64 192 7 7 (602112)
I1125 18:53:58.346830 17955 net.cpp:165] Memory required for data: 3548367120
I1125 18:53:58.346834 17955 layer_factory.hpp:76] Creating layer inception_5b/3x3
I1125 18:53:58.346843 17955 net.cpp:106] Creating Layer inception_5b/3x3
I1125 18:53:58.346848 17955 net.cpp:454] inception_5b/3x3 <- inception_5b/3x3_reduce
I1125 18:53:58.346854 17955 net.cpp:411] inception_5b/3x3 -> inception_5b/3x3
I1125 18:53:58.353385 17955 net.cpp:150] Setting up inception_5b/3x3
I1125 18:53:58.353404 17955 net.cpp:157] Top shape: 64 384 7 7 (1204224)
I1125 18:53:58.353407 17955 net.cpp:165] Memory required for data: 3553184016
I1125 18:53:58.353415 17955 layer_factory.hpp:76] Creating layer inception_5b/relu_3x3
I1125 18:53:58.353422 17955 net.cpp:106] Creating Layer inception_5b/relu_3x3
I1125 18:53:58.353427 17955 net.cpp:454] inception_5b/relu_3x3 <- inception_5b/3x3
I1125 18:53:58.353432 17955 net.cpp:397] inception_5b/relu_3x3 -> inception_5b/3x3 (in-place)
I1125 18:53:58.353823 17955 net.cpp:150] Setting up inception_5b/relu_3x3
I1125 18:53:58.353837 17955 net.cpp:157] Top shape: 64 384 7 7 (1204224)
I1125 18:53:58.353842 17955 net.cpp:165] Memory required for data: 3558000912
I1125 18:53:58.353844 17955 layer_factory.hpp:76] Creating layer inception_5b/5x5_reduce
I1125 18:53:58.353854 17955 net.cpp:106] Creating Layer inception_5b/5x5_reduce
I1125 18:53:58.353858 17955 net.cpp:454] inception_5b/5x5_reduce <- inception_5a/output_inception_5a/output_0_split_2
I1125 18:53:58.353866 17955 net.cpp:411] inception_5b/5x5_reduce -> inception_5b/5x5_reduce
I1125 18:53:58.355743 17955 net.cpp:150] Setting up inception_5b/5x5_reduce
I1125 18:53:58.355759 17955 net.cpp:157] Top shape: 64 48 7 7 (150528)
I1125 18:53:58.355763 17955 net.cpp:165] Memory required for data: 3558603024
I1125 18:53:58.355769 17955 layer_factory.hpp:76] Creating layer inception_5b/relu_5x5_reduce
I1125 18:53:58.355777 17955 net.cpp:106] Creating Layer inception_5b/relu_5x5_reduce
I1125 18:53:58.355782 17955 net.cpp:454] inception_5b/relu_5x5_reduce <- inception_5b/5x5_reduce
I1125 18:53:58.355788 17955 net.cpp:397] inception_5b/relu_5x5_reduce -> inception_5b/5x5_reduce (in-place)
I1125 18:53:58.356173 17955 net.cpp:150] Setting up inception_5b/relu_5x5_reduce
I1125 18:53:58.356186 17955 net.cpp:157] Top shape: 64 48 7 7 (150528)
I1125 18:53:58.356189 17955 net.cpp:165] Memory required for data: 3559205136
I1125 18:53:58.356194 17955 layer_factory.hpp:76] Creating layer inception_5b/5x5
I1125 18:53:58.356204 17955 net.cpp:106] Creating Layer inception_5b/5x5
I1125 18:53:58.356207 17955 net.cpp:454] inception_5b/5x5 <- inception_5b/5x5_reduce
I1125 18:53:58.356215 17955 net.cpp:411] inception_5b/5x5 -> inception_5b/5x5
I1125 18:53:58.358405 17955 net.cpp:150] Setting up inception_5b/5x5
I1125 18:53:58.358420 17955 net.cpp:157] Top shape: 64 128 7 7 (401408)
I1125 18:53:58.358423 17955 net.cpp:165] Memory required for data: 3560810768
I1125 18:53:58.358429 17955 layer_factory.hpp:76] Creating layer inception_5b/relu_5x5
I1125 18:53:58.358438 17955 net.cpp:106] Creating Layer inception_5b/relu_5x5
I1125 18:53:58.358441 17955 net.cpp:454] inception_5b/relu_5x5 <- inception_5b/5x5
I1125 18:53:58.358448 17955 net.cpp:397] inception_5b/relu_5x5 -> inception_5b/5x5 (in-place)
I1125 18:53:58.358664 17955 net.cpp:150] Setting up inception_5b/relu_5x5
I1125 18:53:58.358676 17955 net.cpp:157] Top shape: 64 128 7 7 (401408)
I1125 18:53:58.358680 17955 net.cpp:165] Memory required for data: 3562416400
I1125 18:53:58.358682 17955 layer_factory.hpp:76] Creating layer inception_5b/pool
I1125 18:53:58.358690 17955 net.cpp:106] Creating Layer inception_5b/pool
I1125 18:53:58.358695 17955 net.cpp:454] inception_5b/pool <- inception_5a/output_inception_5a/output_0_split_3
I1125 18:53:58.358702 17955 net.cpp:411] inception_5b/pool -> inception_5b/pool
I1125 18:53:58.359132 17955 net.cpp:150] Setting up inception_5b/pool
I1125 18:53:58.359145 17955 net.cpp:157] Top shape: 64 832 7 7 (2609152)
I1125 18:53:58.359149 17955 net.cpp:165] Memory required for data: 3572853008
I1125 18:53:58.359153 17955 layer_factory.hpp:76] Creating layer inception_5b/pool_proj
I1125 18:53:58.359163 17955 net.cpp:106] Creating Layer inception_5b/pool_proj
I1125 18:53:58.359166 17955 net.cpp:454] inception_5b/pool_proj <- inception_5b/pool
I1125 18:53:58.359172 17955 net.cpp:411] inception_5b/pool_proj -> inception_5b/pool_proj
I1125 18:53:58.361546 17955 net.cpp:150] Setting up inception_5b/pool_proj
I1125 18:53:58.361562 17955 net.cpp:157] Top shape: 64 128 7 7 (401408)
I1125 18:53:58.361565 17955 net.cpp:165] Memory required for data: 3574458640
I1125 18:53:58.361572 17955 layer_factory.hpp:76] Creating layer inception_5b/relu_pool_proj
I1125 18:53:58.361579 17955 net.cpp:106] Creating Layer inception_5b/relu_pool_proj
I1125 18:53:58.361584 17955 net.cpp:454] inception_5b/relu_pool_proj <- inception_5b/pool_proj
I1125 18:53:58.361591 17955 net.cpp:397] inception_5b/relu_pool_proj -> inception_5b/pool_proj (in-place)
I1125 18:53:58.361814 17955 net.cpp:150] Setting up inception_5b/relu_pool_proj
I1125 18:53:58.361827 17955 net.cpp:157] Top shape: 64 128 7 7 (401408)
I1125 18:53:58.361830 17955 net.cpp:165] Memory required for data: 3576064272
I1125 18:53:58.361835 17955 layer_factory.hpp:76] Creating layer inception_5b/output
I1125 18:53:58.361840 17955 net.cpp:106] Creating Layer inception_5b/output
I1125 18:53:58.361845 17955 net.cpp:454] inception_5b/output <- inception_5b/1x1
I1125 18:53:58.361850 17955 net.cpp:454] inception_5b/output <- inception_5b/3x3
I1125 18:53:58.361853 17955 net.cpp:454] inception_5b/output <- inception_5b/5x5
I1125 18:53:58.361857 17955 net.cpp:454] inception_5b/output <- inception_5b/pool_proj
I1125 18:53:58.361862 17955 net.cpp:411] inception_5b/output -> inception_5b/output
I1125 18:53:58.361891 17955 net.cpp:150] Setting up inception_5b/output
I1125 18:53:58.361897 17955 net.cpp:157] Top shape: 64 1024 7 7 (3211264)
I1125 18:53:58.361901 17955 net.cpp:165] Memory required for data: 3588909328
I1125 18:53:58.361903 17955 layer_factory.hpp:76] Creating layer pool5/7x7_s1
I1125 18:53:58.361910 17955 net.cpp:106] Creating Layer pool5/7x7_s1
I1125 18:53:58.361914 17955 net.cpp:454] pool5/7x7_s1 <- inception_5b/output
I1125 18:53:58.361919 17955 net.cpp:411] pool5/7x7_s1 -> pool5/7x7_s1
I1125 18:53:58.362452 17955 net.cpp:150] Setting up pool5/7x7_s1
I1125 18:53:58.362465 17955 net.cpp:157] Top shape: 64 1024 1 1 (65536)
I1125 18:53:58.362468 17955 net.cpp:165] Memory required for data: 3589171472
I1125 18:53:58.362473 17955 layer_factory.hpp:76] Creating layer pool5/drop_7x7_s1
I1125 18:53:58.362481 17955 net.cpp:106] Creating Layer pool5/drop_7x7_s1
I1125 18:53:58.362485 17955 net.cpp:454] pool5/drop_7x7_s1 <- pool5/7x7_s1
I1125 18:53:58.362490 17955 net.cpp:397] pool5/drop_7x7_s1 -> pool5/7x7_s1 (in-place)
I1125 18:53:58.362516 17955 net.cpp:150] Setting up pool5/drop_7x7_s1
I1125 18:53:58.362524 17955 net.cpp:157] Top shape: 64 1024 1 1 (65536)
I1125 18:53:58.362526 17955 net.cpp:165] Memory required for data: 3589433616
I1125 18:53:58.362529 17955 layer_factory.hpp:76] Creating layer loss3/classifier-attribute
I1125 18:53:58.362536 17955 net.cpp:106] Creating Layer loss3/classifier-attribute
I1125 18:53:58.362540 17955 net.cpp:454] loss3/classifier-attribute <- pool5/7x7_s1
I1125 18:53:58.362546 17955 net.cpp:411] loss3/classifier-attribute -> loss3/classifier-attribute
I1125 18:53:58.362746 17955 net.cpp:150] Setting up loss3/classifier-attribute
I1125 18:53:58.362756 17955 net.cpp:157] Top shape: 64 11 (704)
I1125 18:53:58.362758 17955 net.cpp:165] Memory required for data: 3589436432
I1125 18:53:58.362763 17955 layer_factory.hpp:76] Creating layer loss3/classifier-attribute_loss3/classifier-attribute_0_split
I1125 18:53:58.362769 17955 net.cpp:106] Creating Layer loss3/classifier-attribute_loss3/classifier-attribute_0_split
I1125 18:53:58.362773 17955 net.cpp:454] loss3/classifier-attribute_loss3/classifier-attribute_0_split <- loss3/classifier-attribute
I1125 18:53:58.362778 17955 net.cpp:411] loss3/classifier-attribute_loss3/classifier-attribute_0_split -> loss3/classifier-attribute_loss3/classifier-attribute_0_split_0
I1125 18:53:58.362784 17955 net.cpp:411] loss3/classifier-attribute_loss3/classifier-attribute_0_split -> loss3/classifier-attribute_loss3/classifier-attribute_0_split_1
I1125 18:53:58.362826 17955 net.cpp:150] Setting up loss3/classifier-attribute_loss3/classifier-attribute_0_split
I1125 18:53:58.362833 17955 net.cpp:157] Top shape: 64 11 (704)
I1125 18:53:58.362838 17955 net.cpp:157] Top shape: 64 11 (704)
I1125 18:53:58.362839 17955 net.cpp:165] Memory required for data: 3589442064
I1125 18:53:58.362843 17955 layer_factory.hpp:76] Creating layer loss3/loss3
I1125 18:53:58.362848 17955 net.cpp:106] Creating Layer loss3/loss3
I1125 18:53:58.362851 17955 net.cpp:454] loss3/loss3 <- loss3/classifier-attribute_loss3/classifier-attribute_0_split_0
I1125 18:53:58.362856 17955 net.cpp:454] loss3/loss3 <- label_data_1_split_4
…
