…
I1126 19:49:11.799944 19721 net.cpp:322] The NetState phase (0) differed from the phase (1) specified by a rule in layer loss3/top-1
I1126 19:49:11.800828 19721 net.cpp:49] Initializing net from parameters: 
name: "GoogleNet-finetune-for-cigit"
state {
  phase: TRAIN
}
layer {
  name: "data"
  type: "ImageData"
  top: "data"
  top: "label"
  include {
    phase: TRAIN
  }
  transform_param {
    mirror: true
    crop_size: 224
    mean_value: 104
    mean_value: 117
    mean_value: 123
  }
  image_data_param {
    source: "pad_train.txt"
    batch_size: 64
    shuffle: true
    new_height: 256
    new_width: 256
  }
}
layer {
  name: "conv1/7x7_s2"
  type: "Convolution"
  bottom: "data"
  top: "conv1/7x7_s2"
  param {
    lr_mult: 1
    decay_mult: 1
  }
  param {
    lr_mult: 2
    decay_mult: 0
  }
  convolution_param {
    num_output: 64
    pad: 3
    kernel_size: 7
    stride: 2
    weight_filler {
      type: "xavier"
    }
    bias_filler {
      type: "constant"
      value: 0.2
    }
  }
}
layer {
  name: "conv1/relu_7x7"
  type: "ReLU"
  bottom: "conv1/7x7_s2"
  top: "conv1/7x7_s2"
}
layer {
  name: "pool1/3x3_s2"
  type: "Pooling"
  bottom: "conv1/7x7_s2"
  top: "pool1/3x3_s2"
  pooling_param {
    pool: MAX
    kernel_size: 3
    stride: 2
  }
}
layer {
  name: "pool1/norm1"
  type: "LRN"
  bottom: "pool1/3x3_s2"
  top: "pool1/norm1"
  lrn_param {
    local_size: 5
    alpha: 0.0001
    beta: 0.75
  }
}
layer {
  name: "conv2/3x3_reduce"
  type: "Convolution"
  bottom: "pool1/norm1"
  top: "conv2/3x3_reduce"
  param {
    lr_mult: 1
    decay_mult: 1
  }
  param {
    lr_mult: 2
    decay_mult: 0
  }
  convolution_param {
    num_output: 64
    kernel_size: 1
    weight_filler {
      type: "xavier"
    }
    bias_filler {
      type: "constant"
      value: 0.2
    }
  }
}
layer {
  name: "conv2/relu_3x3_reduce"
  type: "ReLU"
  bottom: "conv2/3x3_reduce"
  top: "conv2/3x3_reduce"
}
layer {
  name: "conv2/3x3"
  type: "Convolution"
  bottom: "conv2/3x3_reduce"
  top: "conv2/3x3"
  param {
    lr_mult: 1
    decay_mult: 1
  }
  param {
    lr_mult: 2
    decay_mult: 0
  }
  convolution_param {
    num_output: 192
    pad: 1
    kernel_size: 3
    weight_filler {
      type: "xavier"
    }
    bias_filler {
      type: "constant"
      value: 0.2
    }
  }
}
layer {
  name: "conv2/relu_3x3"
  type: "ReLU"
  bottom: "conv2/3x3"
  top: "conv2/3x3"
}
layer {
  name: "conv2/norm2"
  type: "LRN"
  bottom: "conv2/3x3"
  top: "conv2/norm2"
  lrn_param {
    local_size: 5
    alpha: 0.0001
    beta: 0.75
  }
}
layer {
  name: "pool2/3x3_s2"
  type: "Pooling"
  bottom: "conv2/norm2"
  top: "pool2/3x3_s2"
  pooling_param {
    pool: MAX
    kernel_size: 3
    stride: 2
  }
}
layer {
  name: "inception_3a/1x1"
  type: "Convolution"
  bottom: "pool2/3x3_s2"
  top: "inception_3a/1x1"
  param {
    lr_mult: 1
    decay_mult: 1
  }
  param {
    lr_mult: 2
    decay_mult: 0
  }
  convolution_param {
    num_output: 64
    kernel_size: 1
    weight_filler {
      type: "xavier"
    }
    bias_filler {
      type: "constant"
      value: 0.2
    }
  }
}
layer {
  name: "inception_3a/relu_1x1"
  type: "ReLU"
  bottom: "inception_3a/1x1"
  top: "inception_3a/1x1"
}
layer {
  name: "inception_3a/3x3_reduce"
  type: "Convolution"
  bottom: "pool2/3x3_s2"
  top: "inception_3a/3x3_reduce"
  param {
    lr_mult: 1
    decay_mult: 1
  }
  param {
    lr_mult: 2
    decay_mult: 0
  }
  convolution_param {
    num_output: 96
    kernel_size: 1
    weight_filler {
      type: "xavier"
    }
    bias_filler {
      type: "constant"
      value: 0.2
    }
  }
}
layer {
  name: "inception_3a/relu_3x3_reduce"
  type: "ReLU"
  bottom: "inception_3a/3x3_reduce"
  top: "inception_3a/3x3_reduce"
}
layer {
  name: "inception_3a/3x3"
  type: "Convolution"
  bottom: "inception_3a/3x3_reduce"
  top: "inception_3a/3x3"
  param {
    lr_mult: 1
    decay_mult: 1
  }
  param {
    lr_mult: 2
    decay_mult: 0
  }
  convolution_param {
    num_output: 128
    pad: 1
    kernel_size: 3
    weight_filler {
      type: "xavier"
    }
    bias_filler {
      type: "constant"
      value: 0.2
    }
  }
}
layer {
  name: "inception_3a/relu_3x3"
  type: "ReLU"
  bottom: "inception_3a/3x3"
  top: "inception_3a/3x3"
}
layer {
  name: "inception_3a/5x5_reduce"
  type: "Convolution"
  bottom: "pool2/3x3_s2"
  top: "inception_3a/5x5_reduce"
  param {
    lr_mult: 1
    decay_mult: 1
  }
  param {
    lr_mult: 2
    decay_mult: 0
  }
  convolution_param {
    num_output: 16
    kernel_size: 1
    weight_filler {
      type: "xavier"
    }
    bias_filler {
      type: "constant"
      value: 0.2
    }
  }
}
layer {
  name: "inception_3a/relu_5x5_reduce"
  type: "ReLU"
  bottom: "inception_3a/5x5_reduce"
  top: "inception_3a/5x5_reduce"
}
layer {
  name: "inception_3a/5x5"
  type: "Convolution"
  bottom: "inception_3a/5x5_reduce"
  top: "inception_3a/5x5"
  param {
    lr_mult: 1
    decay_mult: 1
  }
  param {
    lr_mult: 2
    decay_mult: 0
  }
  convolution_param {
    num_output: 32
    pad: 2
    kernel_size: 5
    weight_filler {
      type: "xavier"
    }
    bias_filler {
      type: "constant"
      value: 0.2
    }
  }
}
layer {
  name: "inception_3a/relu_5x5"
  type: "ReLU"
  bottom: "inception_3a/5x5"
  top: "inception_3a/5x5"
}
layer {
  name: "inception_3a/pool"
  type: "Pooling"
  bottom: "pool2/3x3_s2"
  top: "inception_3a/pool"
  pooling_param {
    pool: MAX
    kernel_size: 3
    stride: 1
    pad: 1
  }
}
layer {
  name: "inception_3a/pool_proj"
  type: "Convolution"
  bottom: "inception_3a/pool"
  top: "inception_3a/pool_proj"
  param {
    lr_mult: 1
    decay_mult: 1
  }
  param {
    lr_mult: 2
    decay_mult: 0
  }
  convolution_param {
    num_output: 32
    kernel_size: 1
    weight_filler {
      type: "xavier"
    }
    bias_filler {
      type: "constant"
      value: 0.2
    }
  }
}
layer {
  name: "inception_3a/relu_pool_proj"
  type: "ReLU"
  bottom: "inception_3a/pool_proj"
  top: "inception_3a/pool_proj"
}
layer {
  name: "inception_3a/output"
  type: "Concat"
  bottom: "inception_3a/1x1"
  bottom: "inception_3a/3x3"
  bottom: "inception_3a/5x5"
  bottom: "inception_3a/pool_proj"
  top: "inception_3a/output"
}
layer {
  name: "inception_3b/1x1"
  type: "Convolution"
  bottom: "inception_3a/output"
  top: "inception_3b/1x1"
  param {
    lr_mult: 1
    decay_mult: 1
  }
  param {
    lr_mult: 2
    decay_mult: 0
  }
  convolution_param {
    num_output: 128
    kernel_size: 1
    weight_filler {
      type: "xavier"
    }
    bias_filler {
      type: "constant"
      value: 0.2
    }
  }
}
layer {
  name: "inception_3b/relu_1x1"
  type: "ReLU"
  bottom: "inception_3b/1x1"
  top: "inception_3b/1x1"
}
layer {
  name: "inception_3b/3x3_reduce"
  type: "Convolution"
  bottom: "inception_3a/output"
  top: "inception_3b/3x3_reduce"
  param {
    lr_mult: 1
    decay_mult: 1
  }
  param {
    lr_mult: 2
    decay_mult: 0
  }
  convolution_param {
    num_output: 128
    kernel_size: 1
    weight_filler {
      type: "xavier"
    }
    bias_filler {
      type: "constant"
      value: 0.2
    }
  }
}
layer {
  name: "inception_3b/relu_3x3_reduce"
  type: "ReLU"
  bottom: "inception_3b/3x3_reduce"
  top: "inception_3b/3x3_reduce"
}
layer {
  name: "inception_3b/3x3"
  type: "Convolution"
  bottom: "inception_3b/3x3_reduce"
  top: "inception_3b/3x3"
  param {
    lr_mult: 1
    decay_mult: 1
  }
  param {
    lr_mult: 2
    decay_mult: 0
  }
  convolution_param {
    num_output: 192
    pad: 1
    kernel_size: 3
    weight_filler {
      type: "xavier"
    }
    bias_filler {
      type: "constant"
      value: 0.2
    }
  }
}
layer {
  name: "inception_3b/relu_3x3"
  type: "ReLU"
  bottom: "inception_3b/3x3"
  top: "inception_3b/3x3"
}
layer {
  name: "inception_3b/5x5_reduce"
  type: "Convolution"
  bottom: "inception_3a/output"
  top: "inception_3b/5x5_reduce"
  param {
    lr_mult: 1
    decay_mult: 1
  }
  param {
    lr_mult: 2
    decay_mult: 0
  }
  convolution_param {
    num_output: 32
    kernel_size: 1
    weight_filler {
      type: "xavier"
    }
    bias_filler {
      type: "constant"
      value: 0.2
    }
  }
}
layer {
  name: "inception_3b/relu_5x5_reduce"
  type: "ReLU"
  bottom: "inception_3b/5x5_reduce"
  top: "inception_3b/5x5_reduce"
}
layer {
  name: "inception_3b/5x5"
  type: "Convolution"
  bottom: "inception_3b/5x5_reduce"
  top: "inception_3b/5x5"
  param {
    lr_mult: 1
    decay_mult: 1
  }
  param {
    lr_mult: 2
    decay_mult: 0
  }
  convolution_param {
    num_output: 96
    pad: 2
    kernel_size: 5
    weight_filler {
      type: "xavier"
    }
    bias_filler {
      type: "constant"
      value: 0.2
    }
  }
}
layer {
  name: "inception_3b/relu_5x5"
  type: "ReLU"
  bottom: "inception_3b/5x5"
  top: "inception_3b/5x5"
}
layer {
  name: "inception_3b/pool"
  type: "Pooling"
  bottom: "inception_3a/output"
  top: "inception_3b/pool"
  pooling_param {
    pool: MAX
    kernel_size: 3
    stride: 1
    pad: 1
  }
}
layer {
  name: "inception_3b/pool_proj"
  type: "Convolution"
  bottom: "inception_3b/pool"
  top: "inception_3b/pool_proj"
  param {
    lr_mult: 1
    decay_mult: 1
  }
  param {
    lr_mult: 2
    decay_mult: 0
  }
  convolution_param {
    num_output: 64
    kernel_size: 1
    weight_filler {
      type: "xavier"
    }
    bias_filler {
      type: "constant"
      value: 0.2
    }
  }
}
layer {
  name: "inception_3b/relu_pool_proj"
  type: "ReLU"
  bottom: "inception_3b/pool_proj"
  top: "inception_3b/pool_proj"
}
layer {
  name: "inception_3b/output"
  type: "Concat"
  bottom: "inception_3b/1x1"
  bottom: "inception_3b/3x3"
  bottom: "inception_3b/5x5"
  bottom: "inception_3b/pool_proj"
  top: "inception_3b/output"
}
layer {
  name: "pool3/3x3_s2"
  type: "Pooling"
  bottom: "inception_3b/output"
  top: "pool3/3x3_s2"
  pooling_param {
    pool: MAX
    kernel_size: 3
    stride: 2
  }
}
layer {
  name: "inception_4a/1x1"
  type: "Convolution"
  bottom: "pool3/3x3_s2"
  top: "inception_4a/1x1"
  param {
    lr_mult: 1
    decay_mult: 1
  }
  param {
    lr_mult: 2
    decay_mult: 0
  }
  convolution_param {
    num_output: 192
    kernel_size: 1
    weight_filler {
      type: "xavier"
    }
    bias_filler {
      type: "constant"
      value: 0.2
    }
  }
}
layer {
  name: "inception_4a/relu_1x1"
  type: "ReLU"
  bottom: "inception_4a/1x1"
  top: "inception_4a/1x1"
}
layer {
  name: "inception_4a/3x3_reduce"
  type: "Convolution"
  bottom: "pool3/3x3_s2"
  top: "inception_4a/3x3_reduce"
  param {
    lr_mult: 1
    decay_mult: 1
  }
  param {
    lr_mult: 2
    decay_mult: 0
  }
  convolution_param {
    num_output: 96
    kernel_size: 1
    weight_filler {
      type: "xavier"
    }
    bias_filler {
      type: "constant"
      value: 0.2
    }
  }
}
layer {
  name: "inception_4a/relu_3x3_reduce"
  type: "ReLU"
  bottom: "inception_4a/3x3_reduce"
  top: "inception_4a/3x3_reduce"
}
layer {
  name: "inception_4a/3x3"
  type: "Convolution"
  bottom: "inception_4a/3x3_reduce"
  top: "inception_4a/3x3"
  param {
    lr_mult: 1
    decay_mult: 1
  }
  param {
    lr_mult: 2
    decay_mult: 0
  }
  convolution_param {
    num_output: 208
    pad: 1
    kernel_size: 3
    weight_filler {
      type: "xavier"
    }
    bias_filler {
      type: "constant"
      value: 0.2
    }
  }
}
layer {
  name: "inception_4a/relu_3x3"
  type: "ReLU"
  bottom: "inception_4a/3x3"
  top: "inception_4a/3x3"
}
layer {
  name: "inception_4a/5x5_reduce"
  type: "Convolution"
  bottom: "pool3/3x3_s2"
  top: "inception_4a/5x5_reduce"
  param {
    lr_mult: 1
    decay_mult: 1
  }
  param {
    lr_mult: 2
    decay_mult: 0
  }
  convolution_param {
    num_output: 16
    kernel_size: 1
    weight_filler {
      type: "xavier"
    }
    bias_filler {
      type: "constant"
      value: 0.2
    }
  }
}
layer {
  name: "inception_4a/relu_5x5_reduce"
  type: "ReLU"
  bottom: "inception_4a/5x5_reduce"
  top: "inception_4a/5x5_reduce"
}
layer {
  name: "inception_4a/5x5"
  type: "Convolution"
  bottom: "inception_4a/5x5_reduce"
  top: "inception_4a/5x5"
  param {
    lr_mult: 1
    decay_mult: 1
  }
  param {
    lr_mult: 2
    decay_mult: 0
  }
  convolution_param {
    num_output: 48
    pad: 2
    kernel_size: 5
    weight_filler {
      type: "xavier"
    }
    bias_filler {
      type: "constant"
      value: 0.2
    }
  }
}
layer {
  name: "inception_4a/relu_5x5"
  type: "ReLU"
  bottom: "inception_4a/5x5"
  top: "inception_4a/5x5"
}
layer {
  name: "inception_4a/pool"
  type: "Pooling"
  bottom: "pool3/3x3_s2"
  top: "inception_4a/pool"
  pooling_param {
    pool: MAX
    kernel_size: 3
    stride: 1
    pad: 1
  }
}
layer {
  name: "inception_4a/pool_proj"
  type: "Convolution"
  bottom: "inception_4a/pool"
  top: "inception_4a/pool_proj"
  param {
    lr_mult: 1
    decay_mult: 1
  }
  param {
    lr_mult: 2
    decay_mult: 0
  }
  convolution_param {
    num_output: 64
    kernel_size: 1
    weight_filler {
      type: "xavier"
    }
    bias_filler {
      type: "constant"
      value: 0.2
    }
  }
}
layer {
  name: "inception_4a/relu_pool_proj"
  type: "ReLU"
  bottom: "inception_4a/pool_proj"
  top: "inception_4a/pool_proj"
}
layer {
  name: "inception_4a/output"
  type: "Concat"
  bottom: "inception_4a/1x1"
  bottom: "inception_4a/3x3"
  bottom: "inception_4a/5x5"
  bottom: "inception_4a/pool_proj"
  top: "inception_4a/output"
}
layer {
  name: "loss1/ave_pool"
  type: "Pooling"
  bottom: "inception_4a/output"
  top: "loss1/ave_pool"
  pooling_param {
    pool: AVE
    kernel_size: 5
    stride: 3
  }
}
layer {
  name: "loss1/conv"
  type: "Convolution"
  bottom: "loss1/ave_pool"
  top: "loss1/conv"
  param {
    lr_mult: 1
    decay_mult: 1
  }
  param {
    lr_mult: 2
    decay_mult: 0
  }
  convolution_param {
    num_output: 128
    kernel_size: 1
    weight_filler {
      type: "xavier"
    }
    bias_filler {
      type: "constant"
      value: 0.2
    }
  }
}
layer {
  name: "loss1/relu_conv"
  type: "ReLU"
  bottom: "loss1/conv"
  top: "loss1/conv"
}
layer {
  name: "loss1/fc"
  type: "InnerProduct"
  bottom: "loss1/conv"
  top: "loss1/fc"
  param {
    lr_mult: 1
    decay_mult: 1
  }
  param {
    lr_mult: 2
    decay_mult: 0
  }
  inner_product_param {
    num_output: 1024
    weight_filler {
      type: "xavier"
    }
    bias_filler {
      type: "constant"
      value: 0.2
    }
  }
}
layer {
  name: "loss1/relu_fc"
  type: "ReLU"
  bottom: "loss1/fc"
  top: "loss1/fc"
}
layer {
  name: "loss1/drop_fc"
  type: "Dropout"
  bottom: "loss1/fc"
  top: "loss1/fc"
  dropout_param {
    dropout_ratio: 0.7
  }
}
layer {
  name: "loss1/classifier-attribute"
  type: "InnerProduct"
  bottom: "loss1/fc"
  top: "loss1/classifier-attribute"
  param {
    lr_mult: 10
    decay_mult: 1
  }
  param {
    lr_mult: 20
    decay_mult: 0
  }
  inner_product_param {
    num_output: 9999
    weight_filler {
      type: "xavier"
    }
    bias_filler {
      type: "constant"
      value: 0
    }
  }
}
layer {
  name: "loss1/loss"
  type: "SoftmaxWithLoss"
  bottom: "loss1/classifier-attribute"
  bottom: "label"
  top: "loss1/loss1"
  loss_weight: 0.3
}
layer {
  name: "inception_4b/1x1"
  type: "Convolution"
  bottom: "inception_4a/output"
  top: "inception_4b/1x1"
  param {
    lr_mult: 1
    decay_mult: 1
  }
  param {
    lr_mult: 2
    decay_mult: 0
  }
  convolution_param {
    num_output: 160
    kernel_size: 1
    weight_filler {
      type: "xavier"
    }
    bias_filler {
      type: "constant"
      value: 0.2
    }
  }
}
layer {
  name: "inception_4b/relu_1x1"
  type: "ReLU"
  bottom: "inception_4b/1x1"
  top: "inception_4b/1x1"
}
layer {
  name: "inception_4b/3x3_reduce"
  type: "Convolution"
  bottom: "inception_4a/output"
  top: "inception_4b/3x3_reduce"
  param {
    lr_mult: 1
    decay_mult: 1
  }
  param {
    lr_mult: 2
    decay_mult: 0
  }
  convolution_param {
    num_output: 112
    kernel_size: 1
    weight_filler {
      type: "xavier"
    }
    bias_filler {
      type: "constant"
      value: 0.2
    }
  }
}
layer {
  name: "inception_4b/relu_3x3_reduce"
  type: "ReLU"
  bottom: "inception_4b/3x3_reduce"
  top: "inception_4b/3x3_reduce"
}
layer {
  name: "inception_4b/3x3"
  type: "Convolution"
  bottom: "inception_4b/3x3_reduce"
  top: "inception_4b/3x3"
  param {
    lr_mult: 1
    decay_mult: 1
  }
  param {
    lr_mult: 2
    decay_mult: 0
  }
  convolution_param {
    num_output: 224
    pad: 1
    kernel_size: 3
    weight_filler {
      type: "xavier"
    }
    bias_filler {
      type: "constant"
      value: 0.2
    }
  }
}
layer {
  name: "inception_4b/relu_3x3"
  type: "ReLU"
  bottom: "inception_4b/3x3"
  top: "inception_4b/3x3"
}
layer {
  name: "inception_4b/5x5_reduce"
  type: "Convolution"
  bottom: "inception_4a/output"
  top: "inception_4b/5x5_reduce"
  param {
    lr_mult: 1
    decay_mult: 1
  }
  param {
    lr_mult: 2
    decay_mult: 0
  }
  convolution_param {
    num_output: 24
    kernel_size: 1
    weight_filler {
      type: "xavier"
    }
    bias_filler {
      type: "constant"
      value: 0.2
    }
  }
}
layer {
  name: "inception_4b/relu_5x5_reduce"
  type: "ReLU"
  bottom: "inception_4b/5x5_reduce"
  top: "inception_4b/5x5_reduce"
}
layer {
  name: "inception_4b/5x5"
  type: "Convolution"
  bottom: "inception_4b/5x5_reduce"
  top: "inception_4b/5x5"
  param {
    lr_mult: 1
    decay_mult: 1
  }
  param {
    lr_mult: 2
    decay_mult: 0
  }
  convolution_param {
    num_output: 64
    pad: 2
    kernel_size: 5
    weight_filler {
      type: "xavier"
    }
    bias_filler {
      type: "constant"
      value: 0.2
    }
  }
}
layer {
  name: "inception_4b/relu_5x5"
  type: "ReLU"
  bottom: "inception_4b/5x5"
  top: "inception_4b/5x5"
}
layer {
  name: "inception_4b/pool"
  type: "Pooling"
  bottom: "inception_4a/output"
  top: "inception_4b/pool"
  pooling_param {
    pool: MAX
    kernel_size: 3
    stride: 1
    pad: 1
  }
}
layer {
  name: "inception_4b/pool_proj"
  type: "Convolution"
  bottom: "inception_4b/pool"
  top: "inception_4b/pool_proj"
  param {
    lr_mult: 1
    decay_mult: 1
  }
  param {
    lr_mult: 2
    decay_mult: 0
  }
  convolution_param {
    num_output: 64
    kernel_size: 1
    weight_filler {
      type: "xavier"
    }
    bias_filler {
      type: "constant"
      value: 0.2
    }
  }
}
layer {
  name: "inception_4b/relu_pool_proj"
  type: "ReLU"
  bottom: "inception_4b/pool_proj"
  top: "inception_4b/pool_proj"
}
layer {
  name: "inception_4b/output"
  type: "Concat"
  bottom: "inception_4b/1x1"
  bottom: "inception_4b/3x3"
  bottom: "inception_4b/5x5"
  bottom: "inception_4b/pool_proj"
  top: "inception_4b/output"
}
layer {
  name: "inception_4c/1x1"
  type: "Convolution"
  bottom: "inception_4b/output"
  top: "inception_4c/1x1"
  param {
    lr_mult: 1
    decay_mult: 1
  }
  param {
    lr_mult: 2
    decay_mult: 0
  }
  convolution_param {
    num_output: 128
    kernel_size: 1
    weight_filler {
      type: "xavier"
    }
    bias_filler {
      type: "constant"
      value: 0.2
    }
  }
}
layer {
  name: "inception_4c/relu_1x1"
  type: "ReLU"
  bottom: "inception_4c/1x1"
  top: "inception_4c/1x1"
}
layer {
  name: "inception_4c/3x3_reduce"
  type: "Convolution"
  bottom: "inception_4b/output"
  top: "inception_4c/3x3_reduce"
  param {
    lr_mult: 1
    decay_mult: 1
  }
  param {
    lr_mult: 2
    decay_mult: 0
  }
  convolution_param {
    num_output: 128
    kernel_size: 1
    weight_filler {
      type: "xavier"
    }
    bias_filler {
      type: "constant"
      value: 0.2
    }
  }
}
layer {
  name: "inception_4c/relu_3x3_reduce"
  type: "ReLU"
  bottom: "inception_4c/3x3_reduce"
  top: "inception_4c/3x3_reduce"
}
layer {
  name: "inception_4c/3x3"
  type: "Convolution"
  bottom: "inception_4c/3x3_reduce"
  top: "inception_4c/3x3"
  param {
    lr_mult: 1
    decay_mult: 1
  }
  param {
    lr_mult: 2
    decay_mult: 0
  }
  convolution_param {
    num_output: 256
    pad: 1
    kernel_size: 3
    weight_filler {
      type: "xavier"
    }
    bias_filler {
      type: "constant"
      value: 0.2
    }
  }
}
layer {
  name: "inception_4c/relu_3x3"
  type: "ReLU"
  bottom: "inception_4c/3x3"
  top: "inception_4c/3x3"
}
layer {
  name: "inception_4c/5x5_reduce"
  type: "Convolution"
  bottom: "inception_4b/output"
  top: "inception_4c/5x5_reduce"
  param {
    lr_mult: 1
    decay_mult: 1
  }
  param {
    lr_mult: 2
    decay_mult: 0
  }
  convolution_param {
    num_output: 24
    kernel_size: 1
    weight_filler {
      type: "xavier"
    }
    bias_filler {
      type: "constant"
      value: 0.2
    }
  }
}
layer {
  name: "inception_4c/relu_5x5_reduce"
  type: "ReLU"
  bottom: "inception_4c/5x5_reduce"
  top: "inception_4c/5x5_reduce"
}
layer {
  name: "inception_4c/5x5"
  type: "Convolution"
  bottom: "inception_4c/5x5_reduce"
  top: "inception_4c/5x5"
  param {
    lr_mult: 1
    decay_mult: 1
  }
  param {
    lr_mult: 2
    decay_mult: 0
  }
  convolution_param {
    num_output: 64
    pad: 2
    kernel_size: 5
    weight_filler {
      type: "xavier"
    }
    bias_filler {
      type: "constant"
      value: 0.2
    }
  }
}
layer {
  name: "inception_4c/relu_5x5"
  type: "ReLU"
  bottom: "inception_4c/5x5"
  top: "inception_4c/5x5"
}
layer {
  name: "inception_4c/pool"
  type: "Pooling"
  bottom: "inception_4b/output"
  top: "inception_4c/pool"
  pooling_param {
    pool: MAX
    kernel_size: 3
    stride: 1
    pad: 1
  }
}
layer {
  name: "inception_4c/pool_proj"
  type: "Convolution"
  bottom: "inception_4c/pool"
  top: "inception_4c/pool_proj"
  param {
    lr_mult: 1
    decay_mult: 1
  }
  param {
    lr_mult: 2
    decay_mult: 0
  }
  convolution_param {
    num_output: 64
    kernel_size: 1
    weight_filler {
      type: "xavier"
    }
    bias_filler {
      type: "constant"
      value: 0.2
    }
  }
}
layer {
  name: "inception_4c/relu_pool_proj"
  type: "ReLU"
  bottom: "inception_4c/pool_proj"
  top: "inception_4c/pool_proj"
}
layer {
  name: "inception_4c/output"
  type: "Concat"
  bottom: "inception_4c/1x1"
  bottom: "inception_4c/3x3"
  bottom: "inception_4c/5x5"
  bottom: "inception_4c/pool_proj"
  top: "inception_4c/output"
}
layer {
  name: "inception_4d/1x1"
  type: "Convolution"
  bottom: "inception_4c/output"
  top: "inception_4d/1x1"
  param {
    lr_mult: 1
    decay_mult: 1
  }
  param {
    lr_mult: 2
    decay_mult: 0
  }
  convolution_param {
    num_output: 112
    kernel_size: 1
    weight_filler {
      type: "xavier"
    }
    bias_filler {
      type: "constant"
      value: 0.2
    }
  }
}
layer {
  name: "inception_4d/relu_1x1"
  type: "ReLU"
  bottom: "inception_4d/1x1"
  top: "inception_4d/1x1"
}
layer {
  name: "inception_4d/3x3_reduce"
  type: "Convolution"
  bottom: "inception_4c/output"
  top: "inception_4d/3x3_reduce"
  param {
    lr_mult: 1
    decay_mult: 1
  }
  param {
    lr_mult: 2
    decay_mult: 0
  }
  convolution_param {
    num_output: 144
    kernel_size: 1
    weight_filler {
      type: "xavier"
    }
    bias_filler {
      type: "constant"
      value: 0.2
    }
  }
}
layer {
  name: "inception_4d/relu_3x3_reduce"
  type: "ReLU"
  bottom: "inception_4d/3x3_reduce"
  top: "inception_4d/3x3_reduce"
}
layer {
  name: "inception_4d/3x3"
  type: "Convolution"
  bottom: "inception_4d/3x3_reduce"
  top: "inception_4d/3x3"
  param {
    lr_mult: 1
    decay_mult: 1
  }
  param {
    lr_mult: 2
    decay_mult: 0
  }
  convolution_param {
    num_output: 288
    pad: 1
    kernel_size: 3
    weight_filler {
      type: "xavier"
    }
    bias_filler {
      type: "constant"
      value: 0.2
    }
  }
}
layer {
  name: "inception_4d/relu_3x3"
  type: "ReLU"
  bottom: "inception_4d/3x3"
  top: "inception_4d/3x3"
}
layer {
  name: "inception_4d/5x5_reduce"
  type: "Convolution"
  bottom: "inception_4c/output"
  top: "inception_4d/5x5_reduce"
  param {
    lr_mult: 1
    decay_mult: 1
  }
  param {
    lr_mult: 2
    decay_mult: 0
  }
  convolution_param {
    num_output: 32
    kernel_size: 1
    weight_filler {
      type: "xavier"
    }
    bias_filler {
      type: "constant"
      value: 0.2
    }
  }
}
layer {
  name: "inception_4d/relu_5x5_reduce"
  type: "ReLU"
  bottom: "inception_4d/5x5_reduce"
  top: "inception_4d/5x5_reduce"
}
layer {
  name: "inception_4d/5x5"
  type: "Convolution"
  bottom: "inception_4d/5x5_reduce"
  top: "inception_4d/5x5"
  param {
    lr_mult: 1
    decay_mult: 1
  }
  param {
    lr_mult: 2
    decay_mult: 0
  }
  convolution_param {
    num_output: 64
    pad: 2
    kernel_size: 5
    weight_filler {
      type: "xavier"
    }
    bias_filler {
      type: "constant"
      value: 0.2
    }
  }
}
layer {
  name: "inception_4d/relu_5x5"
  type: "ReLU"
  bottom: "inception_4d/5x5"
  top: "inception_4d/5x5"
}
layer {
  name: "inception_4d/pool"
  type: "Pooling"
  bottom: "inception_4c/output"
  top: "inception_4d/pool"
  pooling_param {
    pool: MAX
    kernel_size: 3
    stride: 1
    pad: 1
  }
}
layer {
  name: "inception_4d/pool_proj"
  type: "Convolution"
  bottom: "inception_4d/pool"
  top: "inception_4d/pool_proj"
  param {
    lr_mult: 1
    decay_mult: 1
  }
  param {
    lr_mult: 2
    decay_mult: 0
  }
  convolution_param {
    num_output: 64
    kernel_size: 1
    weight_filler {
      type: "xavier"
    }
    bias_filler {
      type: "constant"
      value: 0.2
    }
  }
}
layer {
  name: "inception_4d/relu_pool_proj"
  type: "ReLU"
  bottom: "inception_4d/pool_proj"
  top: "inception_4d/pool_proj"
}
layer {
  name: "inception_4d/output"
  type: "Concat"
  bottom: "inception_4d/1x1"
  bottom: "inception_4d/3x3"
  bottom: "inception_4d/5x5"
  bottom: "inception_4d/pool_proj"
  top: "inception_4d/output"
}
layer {
  name: "loss2/ave_pool"
  type: "Pooling"
  bottom: "inception_4d/output"
  top: "loss2/ave_pool"
  pooling_param {
    pool: AVE
    kernel_size: 5
    stride: 3
  }
}
layer {
  name: "loss2/conv"
  type: "Convolution"
  bottom: "loss2/ave_pool"
  top: "loss2/conv"
  param {
    lr_mult: 1
    decay_mult: 1
  }
  param {
    lr_mult: 2
    decay_mult: 0
  }
  convolution_param {
    num_output: 128
    kernel_size: 1
    weight_filler {
      type: "xavier"
    }
    bias_filler {
      type: "constant"
      value: 0.2
    }
  }
}
layer {
  name: "loss2/relu_conv"
  type: "ReLU"
  bottom: "loss2/conv"
  top: "loss2/conv"
}
layer {
  name: "loss2/fc"
  type: "InnerProduct"
  bottom: "loss2/conv"
  top: "loss2/fc"
  param {
    lr_mult: 1
    decay_mult: 1
  }
  param {
    lr_mult: 2
    decay_mult: 0
  }
  inner_product_param {
    num_output: 1024
    weight_filler {
      type: "xavier"
    }
    bias_filler {
      type: "constant"
      value: 0.2
    }
  }
}
layer {
  name: "loss2/relu_fc"
  type: "ReLU"
  bottom: "loss2/fc"
  top: "loss2/fc"
}
layer {
  name: "loss2/drop_fc"
  type: "Dropout"
  bottom: "loss2/fc"
  top: "loss2/fc"
  dropout_param {
    dropout_ratio: 0.7
  }
}
layer {
  name: "loss2/classifier-attribute"
  type: "InnerProduct"
  bottom: "loss2/fc"
  top: "loss2/classifier-attribute"
  param {
    lr_mult: 10
    decay_mult: 1
  }
  param {
    lr_mult: 20
    decay_mult: 0
  }
  inner_product_param {
    num_output: 9999
    weight_filler {
      type: "xavier"
    }
    bias_filler {
      type: "constant"
      value: 0
    }
  }
}
layer {
  name: "loss2/loss"
  type: "SoftmaxWithLoss"
  bottom: "loss2/classifier-attribute"
  bottom: "label"
  top: "loss2/loss1"
  loss_weight: 0.3
}
layer {
  name: "inception_4e/1x1"
  type: "Convolution"
  bottom: "inception_4d/output"
  top: "inception_4e/1x1"
  param {
    lr_mult: 1
    decay_mult: 1
  }
  param {
    lr_mult: 2
    decay_mult: 0
  }
  convolution_param {
    num_output: 256
    kernel_size: 1
    weight_filler {
      type: "xavier"
    }
    bias_filler {
      type: "constant"
      value: 0.2
    }
  }
}
layer {
  name: "inception_4e/relu_1x1"
  type: "ReLU"
  bottom: "inception_4e/1x1"
  top: "inception_4e/1x1"
}
layer {
  name: "inception_4e/3x3_reduce"
  type: "Convolution"
  bottom: "inception_4d/output"
  top: "inception_4e/3x3_reduce"
  param {
    lr_mult: 1
    decay_mult: 1
  }
  param {
    lr_mult: 2
    decay_mult: 0
  }
  convolution_param {
    num_output: 160
    kernel_size: 1
    weight_filler {
      type: "xavier"
    }
    bias_filler {
      type: "constant"
      value: 0.2
    }
  }
}
layer {
  name: "inception_4e/relu_3x3_reduce"
  type: "ReLU"
  bottom: "inception_4e/3x3_reduce"
  top: "inception_4e/3x3_reduce"
}
layer {
  name: "inception_4e/3x3"
  type: "Convolution"
  bottom: "inception_4e/3x3_reduce"
  top: "inception_4e/3x3"
  param {
    lr_mult: 1
    decay_mult: 1
  }
  param {
    lr_mult: 2
    decay_mult: 0
  }
  convolution_param {
    num_output: 320
    pad: 1
    kernel_size: 3
    weight_filler {
      type: "xavier"
    }
    bias_filler {
      type: "constant"
      value: 0.2
    }
  }
}
layer {
  name: "inception_4e/relu_3x3"
  type: "ReLU"
  bottom: "inception_4e/3x3"
  top: "inception_4e/3x3"
}
layer {
  name: "inception_4e/5x5_reduce"
  type: "Convolution"
  bottom: "inception_4d/output"
  top: "inception_4e/5x5_reduce"
  param {
    lr_mult: 1
    decay_mult: 1
  }
  param {
    lr_mult: 2
    decay_mult: 0
  }
  convolution_param {
    num_output: 32
    kernel_size: 1
    weight_filler {
      type: "xavier"
    }
    bias_filler {
      type: "constant"
      value: 0.2
    }
  }
}
layer {
  name: "inception_4e/relu_5x5_reduce"
  type: "ReLU"
  bottom: "inception_4e/5x5_reduce"
  top: "inception_4e/5x5_reduce"
}
layer {
  name: "inception_4e/5x5"
  type: "Convolution"
  bottom: "inception_4e/5x5_reduce"
  top: "inception_4e/5x5"
  param {
    lr_mult: 1
    decay_mult: 1
  }
  param {
    lr_mult: 2
    decay_mult: 0
  }
  convolution_param {
    num_output: 128
    pad: 2
    kernel_size: 5
    weight_filler {
      type: "xavier"
    }
    bias_filler {
      type: "constant"
      value: 0.2
    }
  }
}
layer {
  name: "inception_4e/relu_5x5"
  type: "ReLU"
  bottom: "inception_4e/5x5"
  top: "inception_4e/5x5"
}
layer {
  name: "inception_4e/pool"
  type: "Pooling"
  bottom: "ince
I1126 19:49:11.801610 19721 layer_factory.hpp:76] Creating layer data
I1126 19:49:11.801656 19721 net.cpp:106] Creating Layer data
I1126 19:49:11.801666 19721 net.cpp:411] data -> data
I1126 19:49:11.801697 19721 net.cpp:411] data -> label
I1126 19:49:11.802163 19721 image_data_layer.cpp:36] Opening file pad_train.txt
I1126 19:49:12.014870 19721 image_data_layer.cpp:46] Shuffling data
I1126 19:49:12.042037 19721 image_data_layer.cpp:51] A total of 181676 images.
I1126 19:49:12.067610 19721 image_data_layer.cpp:78] output data size: 64,3,224,224
I1126 19:49:12.123392 19721 net.cpp:150] Setting up data
I1126 19:49:12.123459 19721 net.cpp:157] Top shape: 64 3 224 224 (9633792)
I1126 19:49:12.123466 19721 net.cpp:157] Top shape: 64 (64)
I1126 19:49:12.123471 19721 net.cpp:165] Memory required for data: 38535424
I1126 19:49:12.123478 19721 layer_factory.hpp:76] Creating layer label_data_1_split
I1126 19:49:12.123493 19721 net.cpp:106] Creating Layer label_data_1_split
I1126 19:49:12.123500 19721 net.cpp:454] label_data_1_split <- label
I1126 19:49:12.123512 19721 net.cpp:411] label_data_1_split -> label_data_1_split_0
I1126 19:49:12.123523 19721 net.cpp:411] label_data_1_split -> label_data_1_split_1
I1126 19:49:12.123530 19721 net.cpp:411] label_data_1_split -> label_data_1_split_2
I1126 19:49:12.123594 19721 net.cpp:150] Setting up label_data_1_split
I1126 19:49:12.123602 19721 net.cpp:157] Top shape: 64 (64)
I1126 19:49:12.123606 19721 net.cpp:157] Top shape: 64 (64)
I1126 19:49:12.123610 19721 net.cpp:157] Top shape: 64 (64)
I1126 19:49:12.123613 19721 net.cpp:165] Memory required for data: 38536192
I1126 19:49:12.123616 19721 layer_factory.hpp:76] Creating layer conv1/7x7_s2
I1126 19:49:12.123631 19721 net.cpp:106] Creating Layer conv1/7x7_s2
I1126 19:49:12.123635 19721 net.cpp:454] conv1/7x7_s2 <- data
I1126 19:49:12.123641 19721 net.cpp:411] conv1/7x7_s2 -> conv1/7x7_s2
I1126 19:49:12.279486 19721 net.cpp:150] Setting up conv1/7x7_s2
I1126 19:49:12.279513 19721 net.cpp:157] Top shape: 64 64 112 112 (51380224)
I1126 19:49:12.279517 19721 net.cpp:165] Memory required for data: 244057088
I1126 19:49:12.279538 19721 layer_factory.hpp:76] Creating layer conv1/relu_7x7
I1126 19:49:12.279551 19721 net.cpp:106] Creating Layer conv1/relu_7x7
I1126 19:49:12.279556 19721 net.cpp:454] conv1/relu_7x7 <- conv1/7x7_s2
I1126 19:49:12.279561 19721 net.cpp:397] conv1/relu_7x7 -> conv1/7x7_s2 (in-place)
I1126 19:49:12.279863 19721 net.cpp:150] Setting up conv1/relu_7x7
I1126 19:49:12.279877 19721 net.cpp:157] Top shape: 64 64 112 112 (51380224)
I1126 19:49:12.279881 19721 net.cpp:165] Memory required for data: 449577984
I1126 19:49:12.279885 19721 layer_factory.hpp:76] Creating layer pool1/3x3_s2
I1126 19:49:12.279892 19721 net.cpp:106] Creating Layer pool1/3x3_s2
I1126 19:49:12.279896 19721 net.cpp:454] pool1/3x3_s2 <- conv1/7x7_s2
I1126 19:49:12.279903 19721 net.cpp:411] pool1/3x3_s2 -> pool1/3x3_s2
I1126 19:49:12.280105 19721 net.cpp:150] Setting up pool1/3x3_s2
I1126 19:49:12.280117 19721 net.cpp:157] Top shape: 64 64 56 56 (12845056)
I1126 19:49:12.280120 19721 net.cpp:165] Memory required for data: 500958208
I1126 19:49:12.280123 19721 layer_factory.hpp:76] Creating layer pool1/norm1
I1126 19:49:12.280135 19721 net.cpp:106] Creating Layer pool1/norm1
I1126 19:49:12.280139 19721 net.cpp:454] pool1/norm1 <- pool1/3x3_s2
I1126 19:49:12.280144 19721 net.cpp:411] pool1/norm1 -> pool1/norm1
I1126 19:49:12.280467 19721 net.cpp:150] Setting up pool1/norm1
I1126 19:49:12.280480 19721 net.cpp:157] Top shape: 64 64 56 56 (12845056)
I1126 19:49:12.280483 19721 net.cpp:165] Memory required for data: 552338432
I1126 19:49:12.280488 19721 layer_factory.hpp:76] Creating layer conv2/3x3_reduce
I1126 19:49:12.280498 19721 net.cpp:106] Creating Layer conv2/3x3_reduce
I1126 19:49:12.280503 19721 net.cpp:454] conv2/3x3_reduce <- pool1/norm1
I1126 19:49:12.280508 19721 net.cpp:411] conv2/3x3_reduce -> conv2/3x3_reduce
I1126 19:49:12.281812 19721 net.cpp:150] Setting up conv2/3x3_reduce
I1126 19:49:12.281828 19721 net.cpp:157] Top shape: 64 64 56 56 (12845056)
I1126 19:49:12.281831 19721 net.cpp:165] Memory required for data: 603718656
I1126 19:49:12.281841 19721 layer_factory.hpp:76] Creating layer conv2/relu_3x3_reduce
I1126 19:49:12.281847 19721 net.cpp:106] Creating Layer conv2/relu_3x3_reduce
I1126 19:49:12.281851 19721 net.cpp:454] conv2/relu_3x3_reduce <- conv2/3x3_reduce
I1126 19:49:12.281857 19721 net.cpp:397] conv2/relu_3x3_reduce -> conv2/3x3_reduce (in-place)
I1126 19:49:12.282148 19721 net.cpp:150] Setting up conv2/relu_3x3_reduce
I1126 19:49:12.282161 19721 net.cpp:157] Top shape: 64 64 56 56 (12845056)
I1126 19:49:12.282166 19721 net.cpp:165] Memory required for data: 655098880
I1126 19:49:12.282168 19721 layer_factory.hpp:76] Creating layer conv2/3x3
I1126 19:49:12.282179 19721 net.cpp:106] Creating Layer conv2/3x3
I1126 19:49:12.282183 19721 net.cpp:454] conv2/3x3 <- conv2/3x3_reduce
I1126 19:49:12.282191 19721 net.cpp:411] conv2/3x3 -> conv2/3x3
I1126 19:49:12.284241 19721 net.cpp:150] Setting up conv2/3x3
I1126 19:49:12.284256 19721 net.cpp:157] Top shape: 64 192 56 56 (38535168)
I1126 19:49:12.284260 19721 net.cpp:165] Memory required for data: 809239552
I1126 19:49:12.284270 19721 layer_factory.hpp:76] Creating layer conv2/relu_3x3
I1126 19:49:12.284301 19721 net.cpp:106] Creating Layer conv2/relu_3x3
I1126 19:49:12.284307 19721 net.cpp:454] conv2/relu_3x3 <- conv2/3x3
I1126 19:49:12.284313 19721 net.cpp:397] conv2/relu_3x3 -> conv2/3x3 (in-place)
I1126 19:49:12.284483 19721 net.cpp:150] Setting up conv2/relu_3x3
I1126 19:49:12.284494 19721 net.cpp:157] Top shape: 64 192 56 56 (38535168)
I1126 19:49:12.284497 19721 net.cpp:165] Memory required for data: 963380224
I1126 19:49:12.284502 19721 layer_factory.hpp:76] Creating layer conv2/norm2
I1126 19:49:12.284507 19721 net.cpp:106] Creating Layer conv2/norm2
I1126 19:49:12.284510 19721 net.cpp:454] conv2/norm2 <- conv2/3x3
I1126 19:49:12.284518 19721 net.cpp:411] conv2/norm2 -> conv2/norm2
I1126 19:49:12.284832 19721 net.cpp:150] Setting up conv2/norm2
I1126 19:49:12.284844 19721 net.cpp:157] Top shape: 64 192 56 56 (38535168)
I1126 19:49:12.284847 19721 net.cpp:165] Memory required for data: 1117520896
I1126 19:49:12.284852 19721 layer_factory.hpp:76] Creating layer pool2/3x3_s2
I1126 19:49:12.284859 19721 net.cpp:106] Creating Layer pool2/3x3_s2
I1126 19:49:12.284863 19721 net.cpp:454] pool2/3x3_s2 <- conv2/norm2
I1126 19:49:12.284868 19721 net.cpp:411] pool2/3x3_s2 -> pool2/3x3_s2
I1126 19:49:12.285048 19721 net.cpp:150] Setting up pool2/3x3_s2
I1126 19:49:12.285058 19721 net.cpp:157] Top shape: 64 192 28 28 (9633792)
I1126 19:49:12.285060 19721 net.cpp:165] Memory required for data: 1156056064
I1126 19:49:12.285064 19721 layer_factory.hpp:76] Creating layer pool2/3x3_s2_pool2/3x3_s2_0_split
I1126 19:49:12.285070 19721 net.cpp:106] Creating Layer pool2/3x3_s2_pool2/3x3_s2_0_split
I1126 19:49:12.285074 19721 net.cpp:454] pool2/3x3_s2_pool2/3x3_s2_0_split <- pool2/3x3_s2
I1126 19:49:12.285081 19721 net.cpp:411] pool2/3x3_s2_pool2/3x3_s2_0_split -> pool2/3x3_s2_pool2/3x3_s2_0_split_0
I1126 19:49:12.285087 19721 net.cpp:411] pool2/3x3_s2_pool2/3x3_s2_0_split -> pool2/3x3_s2_pool2/3x3_s2_0_split_1
I1126 19:49:12.285094 19721 net.cpp:411] pool2/3x3_s2_pool2/3x3_s2_0_split -> pool2/3x3_s2_pool2/3x3_s2_0_split_2
I1126 19:49:12.285099 19721 net.cpp:411] pool2/3x3_s2_pool2/3x3_s2_0_split -> pool2/3x3_s2_pool2/3x3_s2_0_split_3
I1126 19:49:12.285150 19721 net.cpp:150] Setting up pool2/3x3_s2_pool2/3x3_s2_0_split
I1126 19:49:12.285156 19721 net.cpp:157] Top shape: 64 192 28 28 (9633792)
I1126 19:49:12.285161 19721 net.cpp:157] Top shape: 64 192 28 28 (9633792)
I1126 19:49:12.285163 19721 net.cpp:157] Top shape: 64 192 28 28 (9633792)
I1126 19:49:12.285167 19721 net.cpp:157] Top shape: 64 192 28 28 (9633792)
I1126 19:49:12.285169 19721 net.cpp:165] Memory required for data: 1310196736
I1126 19:49:12.285172 19721 layer_factory.hpp:76] Creating layer inception_3a/1x1
I1126 19:49:12.285182 19721 net.cpp:106] Creating Layer inception_3a/1x1
I1126 19:49:12.285187 19721 net.cpp:454] inception_3a/1x1 <- pool2/3x3_s2_pool2/3x3_s2_0_split_0
I1126 19:49:12.285192 19721 net.cpp:411] inception_3a/1x1 -> inception_3a/1x1
I1126 19:49:12.286609 19721 net.cpp:150] Setting up inception_3a/1x1
I1126 19:49:12.286625 19721 net.cpp:157] Top shape: 64 64 28 28 (3211264)
I1126 19:49:12.286628 19721 net.cpp:165] Memory required for data: 1323041792
I1126 19:49:12.286635 19721 layer_factory.hpp:76] Creating layer inception_3a/relu_1x1
I1126 19:49:12.286641 19721 net.cpp:106] Creating Layer inception_3a/relu_1x1
I1126 19:49:12.286644 19721 net.cpp:454] inception_3a/relu_1x1 <- inception_3a/1x1
I1126 19:49:12.286651 19721 net.cpp:397] inception_3a/relu_1x1 -> inception_3a/1x1 (in-place)
I1126 19:49:12.286960 19721 net.cpp:150] Setting up inception_3a/relu_1x1
I1126 19:49:12.286974 19721 net.cpp:157] Top shape: 64 64 28 28 (3211264)
I1126 19:49:12.286978 19721 net.cpp:165] Memory required for data: 1335886848
I1126 19:49:12.286981 19721 layer_factory.hpp:76] Creating layer inception_3a/3x3_reduce
I1126 19:49:12.286990 19721 net.cpp:106] Creating Layer inception_3a/3x3_reduce
I1126 19:49:12.286994 19721 net.cpp:454] inception_3a/3x3_reduce <- pool2/3x3_s2_pool2/3x3_s2_0_split_1
I1126 19:49:12.287001 19721 net.cpp:411] inception_3a/3x3_reduce -> inception_3a/3x3_reduce
I1126 19:49:12.288496 19721 net.cpp:150] Setting up inception_3a/3x3_reduce
I1126 19:49:12.288511 19721 net.cpp:157] Top shape: 64 96 28 28 (4816896)
I1126 19:49:12.288513 19721 net.cpp:165] Memory required for data: 1355154432
I1126 19:49:12.288523 19721 layer_factory.hpp:76] Creating layer inception_3a/relu_3x3_reduce
I1126 19:49:12.288532 19721 net.cpp:106] Creating Layer inception_3a/relu_3x3_reduce
I1126 19:49:12.288537 19721 net.cpp:454] inception_3a/relu_3x3_reduce <- inception_3a/3x3_reduce
I1126 19:49:12.288542 19721 net.cpp:397] inception_3a/relu_3x3_reduce -> inception_3a/3x3_reduce (in-place)
I1126 19:49:12.288703 19721 net.cpp:150] Setting up inception_3a/relu_3x3_reduce
I1126 19:49:12.288714 19721 net.cpp:157] Top shape: 64 96 28 28 (4816896)
I1126 19:49:12.288717 19721 net.cpp:165] Memory required for data: 1374422016
I1126 19:49:12.288720 19721 layer_factory.hpp:76] Creating layer inception_3a/3x3
I1126 19:49:12.288732 19721 net.cpp:106] Creating Layer inception_3a/3x3
I1126 19:49:12.288734 19721 net.cpp:454] inception_3a/3x3 <- inception_3a/3x3_reduce
I1126 19:49:12.288741 19721 net.cpp:411] inception_3a/3x3 -> inception_3a/3x3
I1126 19:49:12.290518 19721 net.cpp:150] Setting up inception_3a/3x3
I1126 19:49:12.290534 19721 net.cpp:157] Top shape: 64 128 28 28 (6422528)
I1126 19:49:12.290536 19721 net.cpp:165] Memory required for data: 1400112128
I1126 19:49:12.290544 19721 layer_factory.hpp:76] Creating layer inception_3a/relu_3x3
I1126 19:49:12.290550 19721 net.cpp:106] Creating Layer inception_3a/relu_3x3
I1126 19:49:12.290555 19721 net.cpp:454] inception_3a/relu_3x3 <- inception_3a/3x3
I1126 19:49:12.290560 19721 net.cpp:397] inception_3a/relu_3x3 -> inception_3a/3x3 (in-place)
I1126 19:49:12.290720 19721 net.cpp:150] Setting up inception_3a/relu_3x3
I1126 19:49:12.290731 19721 net.cpp:157] Top shape: 64 128 28 28 (6422528)
I1126 19:49:12.290735 19721 net.cpp:165] Memory required for data: 1425802240
I1126 19:49:12.290737 19721 layer_factory.hpp:76] Creating layer inception_3a/5x5_reduce
I1126 19:49:12.290746 19721 net.cpp:106] Creating Layer inception_3a/5x5_reduce
I1126 19:49:12.290750 19721 net.cpp:454] inception_3a/5x5_reduce <- pool2/3x3_s2_pool2/3x3_s2_0_split_2
I1126 19:49:12.290756 19721 net.cpp:411] inception_3a/5x5_reduce -> inception_3a/5x5_reduce
I1126 19:49:12.291743 19721 net.cpp:150] Setting up inception_3a/5x5_reduce
I1126 19:49:12.291759 19721 net.cpp:157] Top shape: 64 16 28 28 (802816)
I1126 19:49:12.291761 19721 net.cpp:165] Memory required for data: 1429013504
I1126 19:49:12.291769 19721 layer_factory.hpp:76] Creating layer inception_3a/relu_5x5_reduce
I1126 19:49:12.291774 19721 net.cpp:106] Creating Layer inception_3a/relu_5x5_reduce
I1126 19:49:12.291777 19721 net.cpp:454] inception_3a/relu_5x5_reduce <- inception_3a/5x5_reduce
I1126 19:49:12.291784 19721 net.cpp:397] inception_3a/relu_5x5_reduce -> inception_3a/5x5_reduce (in-place)
I1126 19:49:12.292078 19721 net.cpp:150] Setting up inception_3a/relu_5x5_reduce
I1126 19:49:12.292091 19721 net.cpp:157] Top shape: 64 16 28 28 (802816)
I1126 19:49:12.292095 19721 net.cpp:165] Memory required for data: 1432224768
I1126 19:49:12.292098 19721 layer_factory.hpp:76] Creating layer inception_3a/5x5
I1126 19:49:12.292109 19721 net.cpp:106] Creating Layer inception_3a/5x5
I1126 19:49:12.292112 19721 net.cpp:454] inception_3a/5x5 <- inception_3a/5x5_reduce
I1126 19:49:12.292119 19721 net.cpp:411] inception_3a/5x5 -> inception_3a/5x5
I1126 19:49:12.293136 19721 net.cpp:150] Setting up inception_3a/5x5
I1126 19:49:12.293151 19721 net.cpp:157] Top shape: 64 32 28 28 (1605632)
I1126 19:49:12.293155 19721 net.cpp:165] Memory required for data: 1438647296
I1126 19:49:12.293161 19721 layer_factory.hpp:76] Creating layer inception_3a/relu_5x5
I1126 19:49:12.293167 19721 net.cpp:106] Creating Layer inception_3a/relu_5x5
I1126 19:49:12.293171 19721 net.cpp:454] inception_3a/relu_5x5 <- inception_3a/5x5
I1126 19:49:12.293176 19721 net.cpp:397] inception_3a/relu_5x5 -> inception_3a/5x5 (in-place)
I1126 19:49:12.293346 19721 net.cpp:150] Setting up inception_3a/relu_5x5
I1126 19:49:12.293357 19721 net.cpp:157] Top shape: 64 32 28 28 (1605632)
I1126 19:49:12.293360 19721 net.cpp:165] Memory required for data: 1445069824
I1126 19:49:12.293364 19721 layer_factory.hpp:76] Creating layer inception_3a/pool
I1126 19:49:12.293371 19721 net.cpp:106] Creating Layer inception_3a/pool
I1126 19:49:12.293375 19721 net.cpp:454] inception_3a/pool <- pool2/3x3_s2_pool2/3x3_s2_0_split_3
I1126 19:49:12.293380 19721 net.cpp:411] inception_3a/pool -> inception_3a/pool
I1126 19:49:12.293715 19721 net.cpp:150] Setting up inception_3a/pool
I1126 19:49:12.293728 19721 net.cpp:157] Top shape: 64 192 28 28 (9633792)
I1126 19:49:12.293732 19721 net.cpp:165] Memory required for data: 1483604992
I1126 19:49:12.293735 19721 layer_factory.hpp:76] Creating layer inception_3a/pool_proj
I1126 19:49:12.293745 19721 net.cpp:106] Creating Layer inception_3a/pool_proj
I1126 19:49:12.293748 19721 net.cpp:454] inception_3a/pool_proj <- inception_3a/pool
I1126 19:49:12.293754 19721 net.cpp:411] inception_3a/pool_proj -> inception_3a/pool_proj
I1126 19:49:12.294641 19721 net.cpp:150] Setting up inception_3a/pool_proj
I1126 19:49:12.294654 19721 net.cpp:157] Top shape: 64 32 28 28 (1605632)
I1126 19:49:12.294658 19721 net.cpp:165] Memory required for data: 1490027520
I1126 19:49:12.294669 19721 layer_factory.hpp:76] Creating layer inception_3a/relu_pool_proj
I1126 19:49:12.294675 19721 net.cpp:106] Creating Layer inception_3a/relu_pool_proj
I1126 19:49:12.294678 19721 net.cpp:454] inception_3a/relu_pool_proj <- inception_3a/pool_proj
I1126 19:49:12.294683 19721 net.cpp:397] inception_3a/relu_pool_proj -> inception_3a/pool_proj (in-place)
I1126 19:49:12.294993 19721 net.cpp:150] Setting up inception_3a/relu_pool_proj
I1126 19:49:12.295007 19721 net.cpp:157] Top shape: 64 32 28 28 (1605632)
I1126 19:49:12.295011 19721 net.cpp:165] Memory required for data: 1496450048
I1126 19:49:12.295014 19721 layer_factory.hpp:76] Creating layer inception_3a/output
I1126 19:49:12.295022 19721 net.cpp:106] Creating Layer inception_3a/output
I1126 19:49:12.295027 19721 net.cpp:454] inception_3a/output <- inception_3a/1x1
I1126 19:49:12.295030 19721 net.cpp:454] inception_3a/output <- inception_3a/3x3
I1126 19:49:12.295034 19721 net.cpp:454] inception_3a/output <- inception_3a/5x5
I1126 19:49:12.295038 19721 net.cpp:454] inception_3a/output <- inception_3a/pool_proj
I1126 19:49:12.295044 19721 net.cpp:411] inception_3a/output -> inception_3a/output
I1126 19:49:12.295076 19721 net.cpp:150] Setting up inception_3a/output
I1126 19:49:12.295083 19721 net.cpp:157] Top shape: 64 256 28 28 (12845056)
I1126 19:49:12.295086 19721 net.cpp:165] Memory required for data: 1547830272
I1126 19:49:12.295089 19721 layer_factory.hpp:76] Creating layer inception_3a/output_inception_3a/output_0_split
I1126 19:49:12.295095 19721 net.cpp:106] Creating Layer inception_3a/output_inception_3a/output_0_split
I1126 19:49:12.295099 19721 net.cpp:454] inception_3a/output_inception_3a/output_0_split <- inception_3a/output
I1126 19:49:12.295102 19721 net.cpp:411] inception_3a/output_inception_3a/output_0_split -> inception_3a/output_inception_3a/output_0_split_0
I1126 19:49:12.295109 19721 net.cpp:411] inception_3a/output_inception_3a/output_0_split -> inception_3a/output_inception_3a/output_0_split_1
I1126 19:49:12.295114 19721 net.cpp:411] inception_3a/output_inception_3a/output_0_split -> inception_3a/output_inception_3a/output_0_split_2
I1126 19:49:12.295122 19721 net.cpp:411] inception_3a/output_inception_3a/output_0_split -> inception_3a/output_inception_3a/output_0_split_3
I1126 19:49:12.295179 19721 net.cpp:150] Setting up inception_3a/output_inception_3a/output_0_split
I1126 19:49:12.295184 19721 net.cpp:157] Top shape: 64 256 28 28 (12845056)
I1126 19:49:12.295188 19721 net.cpp:157] Top shape: 64 256 28 28 (12845056)
I1126 19:49:12.295192 19721 net.cpp:157] Top shape: 64 256 28 28 (12845056)
I1126 19:49:12.295195 19721 net.cpp:157] Top shape: 64 256 28 28 (12845056)
I1126 19:49:12.295198 19721 net.cpp:165] Memory required for data: 1753351168
I1126 19:49:12.295200 19721 layer_factory.hpp:76] Creating layer inception_3b/1x1
I1126 19:49:12.295209 19721 net.cpp:106] Creating Layer inception_3b/1x1
I1126 19:49:12.295212 19721 net.cpp:454] inception_3b/1x1 <- inception_3a/output_inception_3a/output_0_split_0
I1126 19:49:12.295218 19721 net.cpp:411] inception_3b/1x1 -> inception_3b/1x1
I1126 19:49:12.296355 19721 net.cpp:150] Setting up inception_3b/1x1
I1126 19:49:12.296370 19721 net.cpp:157] Top shape: 64 128 28 28 (6422528)
I1126 19:49:12.296373 19721 net.cpp:165] Memory required for data: 1779041280
I1126 19:49:12.296380 19721 layer_factory.hpp:76] Creating layer inception_3b/relu_1x1
I1126 19:49:12.296386 19721 net.cpp:106] Creating Layer inception_3b/relu_1x1
I1126 19:49:12.296389 19721 net.cpp:454] inception_3b/relu_1x1 <- inception_3b/1x1
I1126 19:49:12.296396 19721 net.cpp:397] inception_3b/relu_1x1 -> inception_3b/1x1 (in-place)
I1126 19:49:12.296573 19721 net.cpp:150] Setting up inception_3b/relu_1x1
I1126 19:49:12.296586 19721 net.cpp:157] Top shape: 64 128 28 28 (6422528)
I1126 19:49:12.296588 19721 net.cpp:165] Memory required for data: 1804731392
I1126 19:49:12.296591 19721 layer_factory.hpp:76] Creating layer inception_3b/3x3_reduce
I1126 19:49:12.296600 19721 net.cpp:106] Creating Layer inception_3b/3x3_reduce
I1126 19:49:12.296605 19721 net.cpp:454] inception_3b/3x3_reduce <- inception_3a/output_inception_3a/output_0_split_1
I1126 19:49:12.296612 19721 net.cpp:411] inception_3b/3x3_reduce -> inception_3b/3x3_reduce
I1126 19:49:12.297767 19721 net.cpp:150] Setting up inception_3b/3x3_reduce
I1126 19:49:12.297781 19721 net.cpp:157] Top shape: 64 128 28 28 (6422528)
I1126 19:49:12.297785 19721 net.cpp:165] Memory required for data: 1830421504
I1126 19:49:12.297791 19721 layer_factory.hpp:76] Creating layer inception_3b/relu_3x3_reduce
I1126 19:49:12.297798 19721 net.cpp:106] Creating Layer inception_3b/relu_3x3_reduce
I1126 19:49:12.297802 19721 net.cpp:454] inception_3b/relu_3x3_reduce <- inception_3b/3x3_reduce
I1126 19:49:12.297807 19721 net.cpp:397] inception_3b/relu_3x3_reduce -> inception_3b/3x3_reduce (in-place)
I1126 19:49:12.298101 19721 net.cpp:150] Setting up inception_3b/relu_3x3_reduce
I1126 19:49:12.298115 19721 net.cpp:157] Top shape: 64 128 28 28 (6422528)
I1126 19:49:12.298118 19721 net.cpp:165] Memory required for data: 1856111616
I1126 19:49:12.298122 19721 layer_factory.hpp:76] Creating layer inception_3b/3x3
I1126 19:49:12.298135 19721 net.cpp:106] Creating Layer inception_3b/3x3
I1126 19:49:12.298138 19721 net.cpp:454] inception_3b/3x3 <- inception_3b/3x3_reduce
I1126 19:49:12.298146 19721 net.cpp:411] inception_3b/3x3 -> inception_3b/3x3
I1126 19:49:12.300819 19721 net.cpp:150] Setting up inception_3b/3x3
I1126 19:49:12.300834 19721 net.cpp:157] Top shape: 64 192 28 28 (9633792)
I1126 19:49:12.300838 19721 net.cpp:165] Memory required for data: 1894646784
I1126 19:49:12.300844 19721 layer_factory.hpp:76] Creating layer inception_3b/relu_3x3
I1126 19:49:12.300851 19721 net.cpp:106] Creating Layer inception_3b/relu_3x3
I1126 19:49:12.300855 19721 net.cpp:454] inception_3b/relu_3x3 <- inception_3b/3x3
I1126 19:49:12.300860 19721 net.cpp:397] inception_3b/relu_3x3 -> inception_3b/3x3 (in-place)
I1126 19:49:12.301303 19721 net.cpp:150] Setting up inception_3b/relu_3x3
I1126 19:49:12.301318 19721 net.cpp:157] Top shape: 64 192 28 28 (9633792)
I1126 19:49:12.301321 19721 net.cpp:165] Memory required for data: 1933181952
I1126 19:49:12.301326 19721 layer_factory.hpp:76] Creating layer inception_3b/5x5_reduce
I1126 19:49:12.301333 19721 net.cpp:106] Creating Layer inception_3b/5x5_reduce
I1126 19:49:12.301337 19721 net.cpp:454] inception_3b/5x5_reduce <- inception_3a/output_inception_3a/output_0_split_2
I1126 19:49:12.301344 19721 net.cpp:411] inception_3b/5x5_reduce -> inception_3b/5x5_reduce
I1126 19:49:12.302356 19721 net.cpp:150] Setting up inception_3b/5x5_reduce
I1126 19:49:12.302371 19721 net.cpp:157] Top shape: 64 32 28 28 (1605632)
I1126 19:49:12.302374 19721 net.cpp:165] Memory required for data: 1939604480
I1126 19:49:12.302381 19721 layer_factory.hpp:76] Creating layer inception_3b/relu_5x5_reduce
I1126 19:49:12.302388 19721 net.cpp:106] Creating Layer inception_3b/relu_5x5_reduce
I1126 19:49:12.302392 19721 net.cpp:454] inception_3b/relu_5x5_reduce <- inception_3b/5x5_reduce
I1126 19:49:12.302397 19721 net.cpp:397] inception_3b/relu_5x5_reduce -> inception_3b/5x5_reduce (in-place)
I1126 19:49:12.302564 19721 net.cpp:150] Setting up inception_3b/relu_5x5_reduce
I1126 19:49:12.302575 19721 net.cpp:157] Top shape: 64 32 28 28 (1605632)
I1126 19:49:12.302578 19721 net.cpp:165] Memory required for data: 1946027008
I1126 19:49:12.302582 19721 layer_factory.hpp:76] Creating layer inception_3b/5x5
I1126 19:49:12.302590 19721 net.cpp:106] Creating Layer inception_3b/5x5
I1126 19:49:12.302594 19721 net.cpp:454] inception_3b/5x5 <- inception_3b/5x5_reduce
I1126 19:49:12.302602 19721 net.cpp:411] inception_3b/5x5 -> inception_3b/5x5
I1126 19:49:12.304509 19721 net.cpp:150] Setting up inception_3b/5x5
I1126 19:49:12.304525 19721 net.cpp:157] Top shape: 64 96 28 28 (4816896)
I1126 19:49:12.304529 19721 net.cpp:165] Memory required for data: 1965294592
I1126 19:49:12.304535 19721 layer_factory.hpp:76] Creating layer inception_3b/relu_5x5
I1126 19:49:12.304541 19721 net.cpp:106] Creating Layer inception_3b/relu_5x5
I1126 19:49:12.304544 19721 net.cpp:454] inception_3b/relu_5x5 <- inception_3b/5x5
I1126 19:49:12.304551 19721 net.cpp:397] inception_3b/relu_5x5 -> inception_3b/5x5 (in-place)
I1126 19:49:12.304850 19721 net.cpp:150] Setting up inception_3b/relu_5x5
I1126 19:49:12.304863 19721 net.cpp:157] Top shape: 64 96 28 28 (4816896)
I1126 19:49:12.304867 19721 net.cpp:165] Memory required for data: 1984562176
I1126 19:49:12.304870 19721 layer_factory.hpp:76] Creating layer inception_3b/pool
I1126 19:49:12.304878 19721 net.cpp:106] Creating Layer inception_3b/pool
I1126 19:49:12.304883 19721 net.cpp:454] inception_3b/pool <- inception_3a/output_inception_3a/output_0_split_3
I1126 19:49:12.304888 19721 net.cpp:411] inception_3b/pool -> inception_3b/pool
I1126 19:49:12.305080 19721 net.cpp:150] Setting up inception_3b/pool
I1126 19:49:12.305091 19721 net.cpp:157] Top shape: 64 256 28 28 (12845056)
I1126 19:49:12.305095 19721 net.cpp:165] Memory required for data: 2035942400
I1126 19:49:12.305099 19721 layer_factory.hpp:76] Creating layer inception_3b/pool_proj
I1126 19:49:12.305106 19721 net.cpp:106] Creating Layer inception_3b/pool_proj
I1126 19:49:12.305110 19721 net.cpp:454] inception_3b/pool_proj <- inception_3b/pool
I1126 19:49:12.305117 19721 net.cpp:411] inception_3b/pool_proj -> inception_3b/pool_proj
I1126 19:49:12.306192 19721 net.cpp:150] Setting up inception_3b/pool_proj
I1126 19:49:12.306206 19721 net.cpp:157] Top shape: 64 64 28 28 (3211264)
I1126 19:49:12.306210 19721 net.cpp:165] Memory required for data: 2048787456
I1126 19:49:12.306216 19721 layer_factory.hpp:76] Creating layer inception_3b/relu_pool_proj
I1126 19:49:12.306222 19721 net.cpp:106] Creating Layer inception_3b/relu_pool_proj
I1126 19:49:12.306226 19721 net.cpp:454] inception_3b/relu_pool_proj <- inception_3b/pool_proj
I1126 19:49:12.306232 19721 net.cpp:397] inception_3b/relu_pool_proj -> inception_3b/pool_proj (in-place)
I1126 19:49:12.306399 19721 net.cpp:150] Setting up inception_3b/relu_pool_proj
I1126 19:49:12.306409 19721 net.cpp:157] Top shape: 64 64 28 28 (3211264)
I1126 19:49:12.306413 19721 net.cpp:165] Memory required for data: 2061632512
I1126 19:49:12.306416 19721 layer_factory.hpp:76] Creating layer inception_3b/output
I1126 19:49:12.306423 19721 net.cpp:106] Creating Layer inception_3b/output
I1126 19:49:12.306427 19721 net.cpp:454] inception_3b/output <- inception_3b/1x1
I1126 19:49:12.306432 19721 net.cpp:454] inception_3b/output <- inception_3b/3x3
I1126 19:49:12.306434 19721 net.cpp:454] inception_3b/output <- inception_3b/5x5
I1126 19:49:12.306438 19721 net.cpp:454] inception_3b/output <- inception_3b/pool_proj
I1126 19:49:12.306442 19721 net.cpp:411] inception_3b/output -> inception_3b/output
I1126 19:49:12.306471 19721 net.cpp:150] Setting up inception_3b/output
I1126 19:49:12.306478 19721 net.cpp:157] Top shape: 64 480 28 28 (24084480)
I1126 19:49:12.306480 19721 net.cpp:165] Memory required for data: 2157970432
I1126 19:49:12.306483 19721 layer_factory.hpp:76] Creating layer pool3/3x3_s2
I1126 19:49:12.306488 19721 net.cpp:106] Creating Layer pool3/3x3_s2
I1126 19:49:12.306491 19721 net.cpp:454] pool3/3x3_s2 <- inception_3b/output
I1126 19:49:12.306498 19721 net.cpp:411] pool3/3x3_s2 -> pool3/3x3_s2
I1126 19:49:12.306826 19721 net.cpp:150] Setting up pool3/3x3_s2
I1126 19:49:12.306840 19721 net.cpp:157] Top shape: 64 480 14 14 (6021120)
I1126 19:49:12.306843 19721 net.cpp:165] Memory required for data: 2182054912
I1126 19:49:12.306846 19721 layer_factory.hpp:76] Creating layer pool3/3x3_s2_pool3/3x3_s2_0_split
I1126 19:49:12.306852 19721 net.cpp:106] Creating Layer pool3/3x3_s2_pool3/3x3_s2_0_split
I1126 19:49:12.306855 19721 net.cpp:454] pool3/3x3_s2_pool3/3x3_s2_0_split <- pool3/3x3_s2
I1126 19:49:12.306862 19721 net.cpp:411] pool3/3x3_s2_pool3/3x3_s2_0_split -> pool3/3x3_s2_pool3/3x3_s2_0_split_0
I1126 19:49:12.306870 19721 net.cpp:411] pool3/3x3_s2_pool3/3x3_s2_0_split -> pool3/3x3_s2_pool3/3x3_s2_0_split_1
I1126 19:49:12.306875 19721 net.cpp:411] pool3/3x3_s2_pool3/3x3_s2_0_split -> pool3/3x3_s2_pool3/3x3_s2_0_split_2
I1126 19:49:12.306881 19721 net.cpp:411] pool3/3x3_s2_pool3/3x3_s2_0_split -> pool3/3x3_s2_pool3/3x3_s2_0_split_3
I1126 19:49:12.306938 19721 net.cpp:150] Setting up pool3/3x3_s2_pool3/3x3_s2_0_split
I1126 19:49:12.306944 19721 net.cpp:157] Top shape: 64 480 14 14 (6021120)
I1126 19:49:12.306948 19721 net.cpp:157] Top shape: 64 480 14 14 (6021120)
I1126 19:49:12.306951 19721 net.cpp:157] Top shape: 64 480 14 14 (6021120)
I1126 19:49:12.306954 19721 net.cpp:157] Top shape: 64 480 14 14 (6021120)
I1126 19:49:12.306957 19721 net.cpp:165] Memory required for data: 2278392832
I1126 19:49:12.306960 19721 layer_factory.hpp:76] Creating layer inception_4a/1x1
I1126 19:49:12.306968 19721 net.cpp:106] Creating Layer inception_4a/1x1
I1126 19:49:12.306972 19721 net.cpp:454] inception_4a/1x1 <- pool3/3x3_s2_pool3/3x3_s2_0_split_0
I1126 19:49:12.306977 19721 net.cpp:411] inception_4a/1x1 -> inception_4a/1x1
I1126 19:49:12.308673 19721 net.cpp:150] Setting up inception_4a/1x1
I1126 19:49:12.308688 19721 net.cpp:157] Top shape: 64 192 14 14 (2408448)
I1126 19:49:12.308692 19721 net.cpp:165] Memory required for data: 2288026624
I1126 19:49:12.308701 19721 layer_factory.hpp:76] Creating layer inception_4a/relu_1x1
I1126 19:49:12.308707 19721 net.cpp:106] Creating Layer inception_4a/relu_1x1
I1126 19:49:12.308712 19721 net.cpp:454] inception_4a/relu_1x1 <- inception_4a/1x1
I1126 19:49:12.308718 19721 net.cpp:397] inception_4a/relu_1x1 -> inception_4a/1x1 (in-place)
I1126 19:49:12.308892 19721 net.cpp:150] Setting up inception_4a/relu_1x1
I1126 19:49:12.308902 19721 net.cpp:157] Top shape: 64 192 14 14 (2408448)
I1126 19:49:12.308905 19721 net.cpp:165] Memory required for data: 2297660416
I1126 19:49:12.308908 19721 layer_factory.hpp:76] Creating layer inception_4a/3x3_reduce
I1126 19:49:12.308917 19721 net.cpp:106] Creating Layer inception_4a/3x3_reduce
I1126 19:49:12.308922 19721 net.cpp:454] inception_4a/3x3_reduce <- pool3/3x3_s2_pool3/3x3_s2_0_split_1
I1126 19:49:12.308928 19721 net.cpp:411] inception_4a/3x3_reduce -> inception_4a/3x3_reduce
I1126 19:49:12.310204 19721 net.cpp:150] Setting up inception_4a/3x3_reduce
I1126 19:49:12.310219 19721 net.cpp:157] Top shape: 64 96 14 14 (1204224)
I1126 19:49:12.310222 19721 net.cpp:165] Memory required for data: 2302477312
I1126 19:49:12.310233 19721 layer_factory.hpp:76] Creating layer inception_4a/relu_3x3_reduce
I1126 19:49:12.310240 19721 net.cpp:106] Creating Layer inception_4a/relu_3x3_reduce
I1126 19:49:12.310245 19721 net.cpp:454] inception_4a/relu_3x3_reduce <- inception_4a/3x3_reduce
I1126 19:49:12.310250 19721 net.cpp:397] inception_4a/relu_3x3_reduce -> inception_4a/3x3_reduce (in-place)
I1126 19:49:12.310571 19721 net.cpp:150] Setting up inception_4a/relu_3x3_reduce
I1126 19:49:12.310585 19721 net.cpp:157] Top shape: 64 96 14 14 (1204224)
I1126 19:49:12.310587 19721 net.cpp:165] Memory required for data: 2307294208
I1126 19:49:12.310590 19721 layer_factory.hpp:76] Creating layer inception_4a/3x3
I1126 19:49:12.310600 19721 net.cpp:106] Creating Layer inception_4a/3x3
I1126 19:49:12.310603 19721 net.cpp:454] inception_4a/3x3 <- inception_4a/3x3_reduce
I1126 19:49:12.310611 19721 net.cpp:411] inception_4a/3x3 -> inception_4a/3x3
I1126 19:49:12.313076 19721 net.cpp:150] Setting up inception_4a/3x3
I1126 19:49:12.313091 19721 net.cpp:157] Top shape: 64 208 14 14 (2609152)
I1126 19:49:12.313096 19721 net.cpp:165] Memory required for data: 2317730816
I1126 19:49:12.313102 19721 layer_factory.hpp:76] Creating layer inception_4a/relu_3x3
I1126 19:49:12.313108 19721 net.cpp:106] Creating Layer inception_4a/relu_3x3
I1126 19:49:12.313112 19721 net.cpp:454] inception_4a/relu_3x3 <- inception_4a/3x3
I1126 19:49:12.313117 19721 net.cpp:397] inception_4a/relu_3x3 -> inception_4a/3x3 (in-place)
I1126 19:49:12.313416 19721 net.cpp:150] Setting up inception_4a/relu_3x3
I1126 19:49:12.313431 19721 net.cpp:157] Top shape: 64 208 14 14 (2609152)
I1126 19:49:12.313434 19721 net.cpp:165] Memory required for data: 2328167424
I1126 19:49:12.313438 19721 layer_factory.hpp:76] Creating layer inception_4a/5x5_reduce
I1126 19:49:12.313447 19721 net.cpp:106] Creating Layer inception_4a/5x5_reduce
I1126 19:49:12.313452 19721 net.cpp:454] inception_4a/5x5_reduce <- pool3/3x3_s2_pool3/3x3_s2_0_split_2
I1126 19:49:12.313458 19721 net.cpp:411] inception_4a/5x5_reduce -> inception_4a/5x5_reduce
I1126 19:49:12.314496 19721 net.cpp:150] Setting up inception_4a/5x5_reduce
I1126 19:49:12.314510 19721 net.cpp:157] Top shape: 64 16 14 14 (200704)
I1126 19:49:12.314514 19721 net.cpp:165] Memory required for data: 2328970240
I1126 19:49:12.314520 19721 layer_factory.hpp:76] Creating layer inception_4a/relu_5x5_reduce
I1126 19:49:12.314527 19721 net.cpp:106] Creating Layer inception_4a/relu_5x5_reduce
I1126 19:49:12.314532 19721 net.cpp:454] inception_4a/relu_5x5_reduce <- inception_4a/5x5_reduce
I1126 19:49:12.314538 19721 net.cpp:397] inception_4a/relu_5x5_reduce -> inception_4a/5x5_reduce (in-place)
I1126 19:49:12.314841 19721 net.cpp:150] Setting up inception_4a/relu_5x5_reduce
I1126 19:49:12.314854 19721 net.cpp:157] Top shape: 64 16 14 14 (200704)
I1126 19:49:12.314857 19721 net.cpp:165] Memory required for data: 2329773056
I1126 19:49:12.314860 19721 layer_factory.hpp:76] Creating layer inception_4a/5x5
I1126 19:49:12.314870 19721 net.cpp:106] Creating Layer inception_4a/5x5
I1126 19:49:12.314874 19721 net.cpp:454] inception_4a/5x5 <- inception_4a/5x5_reduce
I1126 19:49:12.314880 19721 net.cpp:411] inception_4a/5x5 -> inception_4a/5x5
I1126 19:49:12.315989 19721 net.cpp:150] Setting up inception_4a/5x5
I1126 19:49:12.316004 19721 net.cpp:157] Top shape: 64 48 14 14 (602112)
I1126 19:49:12.316007 19721 net.cpp:165] Memory required for data: 2332181504
I1126 19:49:12.316014 19721 layer_factory.hpp:76] Creating layer inception_4a/relu_5x5
I1126 19:49:12.316020 19721 net.cpp:106] Creating Layer inception_4a/relu_5x5
I1126 19:49:12.316023 19721 net.cpp:454] inception_4a/relu_5x5 <- inception_4a/5x5
I1126 19:49:12.316028 19721 net.cpp:397] inception_4a/relu_5x5 -> inception_4a/5x5 (in-place)
I1126 19:49:12.316336 19721 net.cpp:150] Setting up inception_4a/relu_5x5
I1126 19:49:12.316349 19721 net.cpp:157] Top shape: 64 48 14 14 (602112)
I1126 19:49:12.316352 19721 net.cpp:165] Memory required for data: 2334589952
I1126 19:49:12.316356 19721 layer_factory.hpp:76] Creating layer inception_4a/pool
I1126 19:49:12.316362 19721 net.cpp:106] Creating Layer inception_4a/pool
I1126 19:49:12.316366 19721 net.cpp:454] inception_4a/pool <- pool3/3x3_s2_pool3/3x3_s2_0_split_3
I1126 19:49:12.316372 19721 net.cpp:411] inception_4a/pool -> inception_4a/pool
I1126 19:49:12.316572 19721 net.cpp:150] Setting up inception_4a/pool
I1126 19:49:12.316591 19721 net.cpp:157] Top shape: 64 480 14 14 (6021120)
I1126 19:49:12.316596 19721 net.cpp:165] Memory required for data: 2358674432
I1126 19:49:12.316598 19721 layer_factory.hpp:76] Creating layer inception_4a/pool_proj
I1126 19:49:12.316606 19721 net.cpp:106] Creating Layer inception_4a/pool_proj
I1126 19:49:12.316612 19721 net.cpp:454] inception_4a/pool_proj <- inception_4a/pool
I1126 19:49:12.316618 19721 net.cpp:411] inception_4a/pool_proj -> inception_4a/pool_proj
I1126 19:49:12.317813 19721 net.cpp:150] Setting up inception_4a/pool_proj
I1126 19:49:12.317827 19721 net.cpp:157] Top shape: 64 64 14 14 (802816)
I1126 19:49:12.317831 19721 net.cpp:165] Memory required for data: 2361885696
I1126 19:49:12.317837 19721 layer_factory.hpp:76] Creating layer inception_4a/relu_pool_proj
I1126 19:49:12.317843 19721 net.cpp:106] Creating Layer inception_4a/relu_pool_proj
I1126 19:49:12.317848 19721 net.cpp:454] inception_4a/relu_pool_proj <- inception_4a/pool_proj
I1126 19:49:12.317852 19721 net.cpp:397] inception_4a/relu_pool_proj -> inception_4a/pool_proj (in-place)
I1126 19:49:12.318176 19721 net.cpp:150] Setting up inception_4a/relu_pool_proj
I1126 19:49:12.318188 19721 net.cpp:157] Top shape: 64 64 14 14 (802816)
I1126 19:49:12.318192 19721 net.cpp:165] Memory required for data: 2365096960
I1126 19:49:12.318195 19721 layer_factory.hpp:76] Creating layer inception_4a/output
I1126 19:49:12.318203 19721 net.cpp:106] Creating Layer inception_4a/output
I1126 19:49:12.318207 19721 net.cpp:454] inception_4a/output <- inception_4a/1x1
I1126 19:49:12.318212 19721 net.cpp:454] inception_4a/output <- inception_4a/3x3
I1126 19:49:12.318215 19721 net.cpp:454] inception_4a/output <- inception_4a/5x5
I1126 19:49:12.318219 19721 net.cpp:454] inception_4a/output <- inception_4a/pool_proj
I1126 19:49:12.318223 19721 net.cpp:411] inception_4a/output -> inception_4a/output
I1126 19:49:12.318259 19721 net.cpp:150] Setting up inception_4a/output
I1126 19:49:12.318266 19721 net.cpp:157] Top shape: 64 512 14 14 (6422528)
I1126 19:49:12.318269 19721 net.cpp:165] Memory required for data: 2390787072
I1126 19:49:12.318272 19721 layer_factory.hpp:76] Creating layer inception_4a/output_inception_4a/output_0_split
I1126 19:49:12.318279 19721 net.cpp:106] Creating Layer inception_4a/output_inception_4a/output_0_split
I1126 19:49:12.318281 19721 net.cpp:454] inception_4a/output_inception_4a/output_0_split <- inception_4a/output
I1126 19:49:12.318287 19721 net.cpp:411] inception_4a/output_inception_4a/output_0_split -> inception_4a/output_inception_4a/output_0_split_0
I1126 19:49:12.318295 19721 net.cpp:411] inception_4a/output_inception_4a/output_0_split -> inception_4a/output_inception_4a/output_0_split_1
I1126 19:49:12.318300 19721 net.cpp:411] inception_4a/output_inception_4a/output_0_split -> inception_4a/output_inception_4a/output_0_split_2
I1126 19:49:12.318305 19721 net.cpp:411] inception_4a/output_inception_4a/output_0_split -> inception_4a/output_inception_4a/output_0_split_3
I1126 19:49:12.318310 19721 net.cpp:411] inception_4a/output_inception_4a/output_0_split -> inception_4a/output_inception_4a/output_0_split_4
I1126 19:49:12.318383 19721 net.cpp:150] Setting up inception_4a/output_inception_4a/output_0_split
I1126 19:49:12.318392 19721 net.cpp:157] Top shape: 64 512 14 14 (6422528)
I1126 19:49:12.318397 19721 net.cpp:157] Top shape: 64 512 14 14 (6422528)
I1126 19:49:12.318399 19721 net.cpp:157] Top shape: 64 512 14 14 (6422528)
I1126 19:49:12.318403 19721 net.cpp:157] Top shape: 64 512 14 14 (6422528)
I1126 19:49:12.318406 19721 net.cpp:157] Top shape: 64 512 14 14 (6422528)
I1126 19:49:12.318408 19721 net.cpp:165] Memory required for data: 2519237632
I1126 19:49:12.318411 19721 layer_factory.hpp:76] Creating layer loss1/ave_pool
I1126 19:49:12.318418 19721 net.cpp:106] Creating Layer loss1/ave_pool
I1126 19:49:12.318420 19721 net.cpp:454] loss1/ave_pool <- inception_4a/output_inception_4a/output_0_split_0
I1126 19:49:12.318428 19721 net.cpp:411] loss1/ave_pool -> loss1/ave_pool
I1126 19:49:12.318614 19721 net.cpp:150] Setting up loss1/ave_pool
I1126 19:49:12.318625 19721 net.cpp:157] Top shape: 64 512 4 4 (524288)
I1126 19:49:12.318629 19721 net.cpp:165] Memory required for data: 2521334784
I1126 19:49:12.318632 19721 layer_factory.hpp:76] Creating layer loss1/conv
I1126 19:49:12.318640 19721 net.cpp:106] Creating Layer loss1/conv
I1126 19:49:12.318645 19721 net.cpp:454] loss1/conv <- loss1/ave_pool
I1126 19:49:12.318651 19721 net.cpp:411] loss1/conv -> loss1/conv
I1126 19:49:12.320067 19721 net.cpp:150] Setting up loss1/conv
I1126 19:49:12.320082 19721 net.cpp:157] Top shape: 64 128 4 4 (131072)
I1126 19:49:12.320086 19721 net.cpp:165] Memory required for data: 2521859072
I1126 19:49:12.320092 19721 layer_factory.hpp:76] Creating layer loss1/relu_conv
I1126 19:49:12.320098 19721 net.cpp:106] Creating Layer loss1/relu_conv
I1126 19:49:12.320102 19721 net.cpp:454] loss1/relu_conv <- loss1/conv
I1126 19:49:12.320108 19721 net.cpp:397] loss1/relu_conv -> loss1/conv (in-place)
I1126 19:49:12.320273 19721 net.cpp:150] Setting up loss1/relu_conv
I1126 19:49:12.320284 19721 net.cpp:157] Top shape: 64 128 4 4 (131072)
I1126 19:49:12.320288 19721 net.cpp:165] Memory required for data: 2522383360
I1126 19:49:12.320291 19721 layer_factory.hpp:76] Creating layer loss1/fc
I1126 19:49:12.320299 19721 net.cpp:106] Creating Layer loss1/fc
I1126 19:49:12.320302 19721 net.cpp:454] loss1/fc <- loss1/conv
I1126 19:49:12.320309 19721 net.cpp:411] loss1/fc -> loss1/fc
I1126 19:49:12.335850 19721 net.cpp:150] Setting up loss1/fc
I1126 19:49:12.335867 19721 net.cpp:157] Top shape: 64 1024 (65536)
I1126 19:49:12.335870 19721 net.cpp:165] Memory required for data: 2522645504
I1126 19:49:12.335877 19721 layer_factory.hpp:76] Creating layer loss1/relu_fc
I1126 19:49:12.335885 19721 net.cpp:106] Creating Layer loss1/relu_fc
I1126 19:49:12.335888 19721 net.cpp:454] loss1/relu_fc <- loss1/fc
I1126 19:49:12.335922 19721 net.cpp:397] loss1/relu_fc -> loss1/fc (in-place)
I1126 19:49:12.336256 19721 net.cpp:150] Setting up loss1/relu_fc
I1126 19:49:12.336271 19721 net.cpp:157] Top shape: 64 1024 (65536)
I1126 19:49:12.336273 19721 net.cpp:165] Memory required for data: 2522907648
I1126 19:49:12.336277 19721 layer_factory.hpp:76] Creating layer loss1/drop_fc
I1126 19:49:12.336293 19721 net.cpp:106] Creating Layer loss1/drop_fc
I1126 19:49:12.336297 19721 net.cpp:454] loss1/drop_fc <- loss1/fc
I1126 19:49:12.336303 19721 net.cpp:397] loss1/drop_fc -> loss1/fc (in-place)
I1126 19:49:12.336341 19721 net.cpp:150] Setting up loss1/drop_fc
I1126 19:49:12.336346 19721 net.cpp:157] Top shape: 64 1024 (65536)
I1126 19:49:12.336349 19721 net.cpp:165] Memory required for data: 2523169792
I1126 19:49:12.336354 19721 layer_factory.hpp:76] Creating layer loss1/classifier-attribute
I1126 19:49:12.336361 19721 net.cpp:106] Creating Layer loss1/classifier-attribute
I1126 19:49:12.336365 19721 net.cpp:454] loss1/classifier-attribute <- loss1/fc
I1126 19:49:12.336371 19721 net.cpp:411] loss1/classifier-attribute -> loss1/classifier-attribute
I1126 19:49:12.413549 19721 net.cpp:150] Setting up loss1/classifier-attribute
I1126 19:49:12.413574 19721 net.cpp:157] Top shape: 64 9999 (639936)
I1126 19:49:12.413578 19721 net.cpp:165] Memory required for data: 2525729536
I1126 19:49:12.413586 19721 layer_factory.hpp:76] Creating layer loss1/loss
I1126 19:49:12.413600 19721 net.cpp:106] Creating Layer loss1/loss
I1126 19:49:12.413609 19721 net.cpp:454] loss1/loss <- loss1/classifier-attribute
I1126 19:49:12.413615 19721 net.cpp:454] loss1/loss <- label_data_1_split_0
I1126 19:49:12.413620 19721 net.cpp:411] loss1/loss -> loss1/loss1
I1126 19:49:12.413637 19721 layer_factory.hpp:76] Creating layer loss1/loss
I1126 19:49:12.415228 19721 net.cpp:150] Setting up loss1/loss
I1126 19:49:12.415242 19721 net.cpp:157] Top shape: (1)
I1126 19:49:12.415246 19721 net.cpp:160]     with loss weight 0.3
I1126 19:49:12.415267 19721 net.cpp:165] Memory required for data: 2525729540
I1126 19:49:12.415271 19721 layer_factory.hpp:76] Creating layer inception_4b/1x1
I1126 19:49:12.415282 19721 net.cpp:106] Creating Layer inception_4b/1x1
I1126 19:49:12.415287 19721 net.cpp:454] inception_4b/1x1 <- inception_4a/output_inception_4a/output_0_split_1
I1126 19:49:12.415293 19721 net.cpp:411] inception_4b/1x1 -> inception_4b/1x1
I1126 19:49:12.416894 19721 net.cpp:150] Setting up inception_4b/1x1
I1126 19:49:12.416909 19721 net.cpp:157] Top shape: 64 160 14 14 (2007040)
I1126 19:49:12.416913 19721 net.cpp:165] Memory required for data: 2533757700
I1126 19:49:12.416920 19721 layer_factory.hpp:76] Creating layer inception_4b/relu_1x1
I1126 19:49:12.416928 19721 net.cpp:106] Creating Layer inception_4b/relu_1x1
I1126 19:49:12.416931 19721 net.cpp:454] inception_4b/relu_1x1 <- inception_4b/1x1
I1126 19:49:12.416939 19721 net.cpp:397] inception_4b/relu_1x1 -> inception_4b/1x1 (in-place)
I1126 19:49:12.417243 19721 net.cpp:150] Setting up inception_4b/relu_1x1
I1126 19:49:12.417256 19721 net.cpp:157] Top shape: 64 160 14 14 (2007040)
I1126 19:49:12.417260 19721 net.cpp:165] Memory required for data: 2541785860
I1126 19:49:12.417263 19721 layer_factory.hpp:76] Creating layer inception_4b/3x3_reduce
I1126 19:49:12.417273 19721 net.cpp:106] Creating Layer inception_4b/3x3_reduce
I1126 19:49:12.417278 19721 net.cpp:454] inception_4b/3x3_reduce <- inception_4a/output_inception_4a/output_0_split_2
I1126 19:49:12.417284 19721 net.cpp:411] inception_4b/3x3_reduce -> inception_4b/3x3_reduce
I1126 19:49:12.419148 19721 net.cpp:150] Setting up inception_4b/3x3_reduce
I1126 19:49:12.419163 19721 net.cpp:157] Top shape: 64 112 14 14 (1404928)
I1126 19:49:12.419167 19721 net.cpp:165] Memory required for data: 2547405572
I1126 19:49:12.419173 19721 layer_factory.hpp:76] Creating layer inception_4b/relu_3x3_reduce
I1126 19:49:12.419179 19721 net.cpp:106] Creating Layer inception_4b/relu_3x3_reduce
I1126 19:49:12.419183 19721 net.cpp:454] inception_4b/relu_3x3_reduce <- inception_4b/3x3_reduce
I1126 19:49:12.419190 19721 net.cpp:397] inception_4b/relu_3x3_reduce -> inception_4b/3x3_reduce (in-place)
I1126 19:49:12.419361 19721 net.cpp:150] Setting up inception_4b/relu_3x3_reduce
I1126 19:49:12.419373 19721 net.cpp:157] Top shape: 64 112 14 14 (1404928)
I1126 19:49:12.419375 19721 net.cpp:165] Memory required for data: 2553025284
I1126 19:49:12.419378 19721 layer_factory.hpp:76] Creating layer inception_4b/3x3
I1126 19:49:12.419389 19721 net.cpp:106] Creating Layer inception_4b/3x3
I1126 19:49:12.419392 19721 net.cpp:454] inception_4b/3x3 <- inception_4b/3x3_reduce
I1126 19:49:12.419399 19721 net.cpp:411] inception_4b/3x3 -> inception_4b/3x3
I1126 19:49:12.422267 19721 net.cpp:150] Setting up inception_4b/3x3
I1126 19:49:12.422282 19721 net.cpp:157] Top shape: 64 224 14 14 (2809856)
I1126 19:49:12.422286 19721 net.cpp:165] Memory required for data: 2564264708
I1126 19:49:12.422292 19721 layer_factory.hpp:76] Creating layer inception_4b/relu_3x3
I1126 19:49:12.422298 19721 net.cpp:106] Creating Layer inception_4b/relu_3x3
I1126 19:49:12.422302 19721 net.cpp:454] inception_4b/relu_3x3 <- inception_4b/3x3
I1126 19:49:12.422308 19721 net.cpp:397] inception_4b/relu_3x3 -> inception_4b/3x3 (in-place)
I1126 19:49:12.422479 19721 net.cpp:150] Setting up inception_4b/relu_3x3
I1126 19:49:12.422492 19721 net.cpp:157] Top shape: 64 224 14 14 (2809856)
I1126 19:49:12.422494 19721 net.cpp:165] Memory required for data: 2575504132
I1126 19:49:12.422497 19721 layer_factory.hpp:76] Creating layer inception_4b/5x5_reduce
I1126 19:49:12.422504 19721 net.cpp:106] Creating Layer inception_4b/5x5_reduce
I1126 19:49:12.422508 19721 net.cpp:454] inception_4b/5x5_reduce <- inception_4a/output_inception_4a/output_0_split_3
I1126 19:49:12.422515 19721 net.cpp:411] inception_4b/5x5_reduce -> inception_4b/5x5_reduce
I1126 19:49:12.423645 19721 net.cpp:150] Setting up inception_4b/5x5_reduce
I1126 19:49:12.423660 19721 net.cpp:157] Top shape: 64 24 14 14 (301056)
I1126 19:49:12.423663 19721 net.cpp:165] Memory required for data: 2576708356
I1126 19:49:12.423670 19721 layer_factory.hpp:76] Creating layer inception_4b/relu_5x5_reduce
I1126 19:49:12.423676 19721 net.cpp:106] Creating Layer inception_4b/relu_5x5_reduce
I1126 19:49:12.423681 19721 net.cpp:454] inception_4b/relu_5x5_reduce <- inception_4b/5x5_reduce
I1126 19:49:12.423686 19721 net.cpp:397] inception_4b/relu_5x5_reduce -> inception_4b/5x5_reduce (in-place)
I1126 19:49:12.424113 19721 net.cpp:150] Setting up inception_4b/relu_5x5_reduce
I1126 19:49:12.424129 19721 net.cpp:157] Top shape: 64 24 14 14 (301056)
I1126 19:49:12.424132 19721 net.cpp:165] Memory required for data: 2577912580
I1126 19:49:12.424135 19721 layer_factory.hpp:76] Creating layer inception_4b/5x5
I1126 19:49:12.424144 19721 net.cpp:106] Creating Layer inception_4b/5x5
I1126 19:49:12.424147 19721 net.cpp:454] inception_4b/5x5 <- inception_4b/5x5_reduce
I1126 19:49:12.424156 19721 net.cpp:411] inception_4b/5x5 -> inception_4b/5x5
I1126 19:49:12.425473 19721 net.cpp:150] Setting up inception_4b/5x5
I1126 19:49:12.425489 19721 net.cpp:157] Top shape: 64 64 14 14 (802816)
I1126 19:49:12.425493 19721 net.cpp:165] Memory required for data: 2581123844
I1126 19:49:12.425499 19721 layer_factory.hpp:76] Creating layer inception_4b/relu_5x5
I1126 19:49:12.425505 19721 net.cpp:106] Creating Layer inception_4b/relu_5x5
I1126 19:49:12.425509 19721 net.cpp:454] inception_4b/relu_5x5 <- inception_4b/5x5
I1126 19:49:12.425515 19721 net.cpp:397] inception_4b/relu_5x5 -> inception_4b/5x5 (in-place)
I1126 19:49:12.425683 19721 net.cpp:150] Setting up inception_4b/relu_5x5
I1126 19:49:12.425693 19721 net.cpp:157] Top shape: 64 64 14 14 (802816)
I1126 19:49:12.425696 19721 net.cpp:165] Memory required for data: 2584335108
I1126 19:49:12.425699 19721 layer_factory.hpp:76] Creating layer inception_4b/pool
I1126 19:49:12.425709 19721 net.cpp:106] Creating Layer inception_4b/pool
I1126 19:49:12.425712 19721 net.cpp:454] inception_4b/pool <- inception_4a/output_inception_4a/output_0_split_4
I1126 19:49:12.425717 19721 net.cpp:411] inception_4b/pool -> inception_4b/pool
I1126 19:49:12.426065 19721 net.cpp:150] Setting up inception_4b/pool
I1126 19:49:12.426080 19721 net.cpp:157] Top shape: 64 512 14 14 (6422528)
I1126 19:49:12.426084 19721 net.cpp:165] Memory required for data: 2610025220
I1126 19:49:12.426087 19721 layer_factory.hpp:76] Creating layer inception_4b/pool_proj
I1126 19:49:12.426096 19721 net.cpp:106] Creating Layer inception_4b/pool_proj
I1126 19:49:12.426100 19721 net.cpp:454] inception_4b/pool_proj <- inception_4b/pool
I1126 19:49:12.426107 19721 net.cpp:411] inception_4b/pool_proj -> inception_4b/pool_proj
I1126 19:49:12.427244 19721 net.cpp:150] Setting up inception_4b/pool_proj
I1126 19:49:12.427259 19721 net.cpp:157] Top shape: 64 64 14 14 (802816)
I1126 19:49:12.427263 19721 net.cpp:165] Memory required for data: 2613236484
I1126 19:49:12.427269 19721 layer_factory.hpp:76] Creating layer inception_4b/relu_pool_proj
I1126 19:49:12.427276 19721 net.cpp:106] Creating Layer inception_4b/relu_pool_proj
I1126 19:49:12.427280 19721 net.cpp:454] inception_4b/relu_pool_proj <- inception_4b/pool_proj
I1126 19:49:12.427285 19721 net.cpp:397] inception_4b/relu_pool_proj -> inception_4b/pool_proj (in-place)
I1126 19:49:12.427595 19721 net.cpp:150] Setting up inception_4b/relu_pool_proj
I1126 19:49:12.427610 19721 net.cpp:157] Top shape: 64 64 14 14 (802816)
I1126 19:49:12.427614 19721 net.cpp:165] Memory required for data: 2616447748
I1126 19:49:12.427618 19721 layer_factory.hpp:76] Creating layer inception_4b/output
I1126 19:49:12.427623 19721 net.cpp:106] Creating Layer inception_4b/output
I1126 19:49:12.427628 19721 net.cpp:454] inception_4b/output <- inception_4b/1x1
I1126 19:49:12.427631 19721 net.cpp:454] inception_4b/output <- inception_4b/3x3
I1126 19:49:12.427635 19721 net.cpp:454] inception_4b/output <- inception_4b/5x5
I1126 19:49:12.427639 19721 net.cpp:454] inception_4b/output <- inception_4b/pool_proj
I1126 19:49:12.427644 19721 net.cpp:411] inception_4b/output -> inception_4b/output
I1126 19:49:12.427680 19721 net.cpp:150] Setting up inception_4b/output
I1126 19:49:12.427685 19721 net.cpp:157] Top shape: 64 512 14 14 (6422528)
I1126 19:49:12.427687 19721 net.cpp:165] Memory required for data: 2642137860
I1126 19:49:12.427690 19721 layer_factory.hpp:76] Creating layer inception_4b/output_inception_4b/output_0_split
I1126 19:49:12.427697 19721 net.cpp:106] Creating Layer inception_4b/output_inception_4b/output_0_split
I1126 19:49:12.427700 19721 net.cpp:454] inception_4b/output_inception_4b/output_0_split <- inception_4b/output
I1126 19:49:12.427706 19721 net.cpp:411] inception_4b/output_inception_4b/output_0_split -> inception_4b/output_inception_4b/output_0_split_0
I1126 19:49:12.427712 19721 net.cpp:411] inception_4b/output_inception_4b/output_0_split -> inception_4b/output_inception_4b/output_0_split_1
I1126 19:49:12.427717 19721 net.cpp:411] inception_4b/output_inception_4b/output_0_split -> inception_4b/output_inception_4b/output_0_split_2
I1126 19:49:12.427722 19721 net.cpp:411] inception_4b/output_inception_4b/output_0_split -> inception_4b/output_inception_4b/output_0_split_3
I1126 19:49:12.427786 19721 net.cpp:150] Setting up inception_4b/output_inception_4b/output_0_split
I1126 19:49:12.427793 19721 net.cpp:157] Top shape: 64 512 14 14 (6422528)
I1126 19:49:12.427796 19721 net.cpp:157] Top shape: 64 512 14 14 (6422528)
I1126 19:49:12.427799 19721 net.cpp:157] Top shape: 64 512 14 14 (6422528)
I1126 19:49:12.427803 19721 net.cpp:157] Top shape: 64 512 14 14 (6422528)
I1126 19:49:12.427805 19721 net.cpp:165] Memory required for data: 2744898308
I1126 19:49:12.427809 19721 layer_factory.hpp:76] Creating layer inception_4c/1x1
I1126 19:49:12.427816 19721 net.cpp:106] Creating Layer inception_4c/1x1
I1126 19:49:12.427820 19721 net.cpp:454] inception_4c/1x1 <- inception_4b/output_inception_4b/output_0_split_0
I1126 19:49:12.427825 19721 net.cpp:411] inception_4c/1x1 -> inception_4c/1x1
I1126 19:49:12.429329 19721 net.cpp:150] Setting up inception_4c/1x1
I1126 19:49:12.429344 19721 net.cpp:157] Top shape: 64 128 14 14 (1605632)
I1126 19:49:12.429348 19721 net.cpp:165] Memory required for data: 2751320836
I1126 19:49:12.429354 19721 layer_factory.hpp:76] Creating layer inception_4c/relu_1x1
I1126 19:49:12.429363 19721 net.cpp:106] Creating Layer inception_4c/relu_1x1
I1126 19:49:12.429368 19721 net.cpp:454] inception_4c/relu_1x1 <- inception_4c/1x1
I1126 19:49:12.429373 19721 net.cpp:397] inception_4c/relu_1x1 -> inception_4c/1x1 (in-place)
I1126 19:49:12.429541 19721 net.cpp:150] Setting up inception_4c/relu_1x1
I1126 19:49:12.429553 19721 net.cpp:157] Top shape: 64 128 14 14 (1605632)
I1126 19:49:12.429555 19721 net.cpp:165] Memory required for data: 2757743364
I1126 19:49:12.429558 19721 layer_factory.hpp:76] Creating layer inception_4c/3x3_reduce
I1126 19:49:12.429566 19721 net.cpp:106] Creating Layer inception_4c/3x3_reduce
I1126 19:49:12.429570 19721 net.cpp:454] inception_4c/3x3_reduce <- inception_4b/output_inception_4b/output_0_split_1
I1126 19:49:12.429577 19721 net.cpp:411] inception_4c/3x3_reduce -> inception_4c/3x3_reduce
I1126 19:49:12.431044 19721 net.cpp:150] Setting up inception_4c/3x3_reduce
I1126 19:49:12.431059 19721 net.cpp:157] Top shape: 64 128 14 14 (1605632)
I1126 19:49:12.431062 19721 net.cpp:165] Memory required for data: 2764165892
I1126 19:49:12.431068 19721 layer_factory.hpp:76] Creating layer inception_4c/relu_3x3_reduce
I1126 19:49:12.431076 19721 net.cpp:106] Creating Layer inception_4c/relu_3x3_reduce
I1126 19:49:12.431080 19721 net.cpp:454] inception_4c/relu_3x3_reduce <- inception_4c/3x3_reduce
I1126 19:49:12.431084 19721 net.cpp:397] inception_4c/relu_3x3_reduce -> inception_4c/3x3_reduce (in-place)
I1126 19:49:12.431399 19721 net.cpp:150] Setting up inception_4c/relu_3x3_reduce
I1126 19:49:12.431412 19721 net.cpp:157] Top shape: 64 128 14 14 (1605632)
I1126 19:49:12.431416 19721 net.cpp:165] Memory required for data: 2770588420
I1126 19:49:12.431419 19721 layer_factory.hpp:76] Creating layer inception_4c/3x3
I1126 19:49:12.431429 19721 net.cpp:106] Creating Layer inception_4c/3x3
I1126 19:49:12.431433 19721 net.cpp:454] inception_4c/3x3 <- inception_4c/3x3_reduce
I1126 19:49:12.431439 19721 net.cpp:411] inception_4c/3x3 -> inception_4c/3x3
I1126 19:49:12.434682 19721 net.cpp:150] Setting up inception_4c/3x3
I1126 19:49:12.434698 19721 net.cpp:157] Top shape: 64 256 14 14 (3211264)
I1126 19:49:12.434702 19721 net.cpp:165] Memory required for data: 2783433476
I1126 19:49:12.434720 19721 layer_factory.hpp:76] Creating layer inception_4c/relu_3x3
I1126 19:49:12.434726 19721 net.cpp:106] Creating Layer inception_4c/relu_3x3
I1126 19:49:12.434731 19721 net.cpp:454] inception_4c/relu_3x3 <- inception_4c/3x3
I1126 19:49:12.434736 19721 net.cpp:397] inception_4c/relu_3x3 -> inception_4c/3x3 (in-place)
I1126 19:49:12.435051 19721 net.cpp:150] Setting up inception_4c/relu_3x3
I1126 19:49:12.435066 19721 net.cpp:157] Top shape: 64 256 14 14 (3211264)
I1126 19:49:12.435070 19721 net.cpp:165] Memory required for data: 2796278532
I1126 19:49:12.435075 19721 layer_factory.hpp:76] Creating layer inception_4c/5x5_reduce
I1126 19:49:12.435081 19721 net.cpp:106] Creating Layer inception_4c/5x5_reduce
I1126 19:49:12.435086 19721 net.cpp:454] inception_4c/5x5_reduce <- inception_4b/output_inception_4b/output_0_split_2
I1126 19:49:12.435093 19721 net.cpp:411] inception_4c/5x5_reduce -> inception_4c/5x5_reduce
I1126 19:49:12.436247 19721 net.cpp:150] Setting up inception_4c/5x5_reduce
I1126 19:49:12.436262 19721 net.cpp:157] Top shape: 64 24 14 14 (301056)
I1126 19:49:12.436265 19721 net.cpp:165] Memory required for data: 2797482756
I1126 19:49:12.436272 19721 layer_factory.hpp:76] Creating layer inception_4c/relu_5x5_reduce
I1126 19:49:12.436280 19721 net.cpp:106] Creating Layer inception_4c/relu_5x5_reduce
I1126 19:49:12.436283 19721 net.cpp:454] inception_4c/relu_5x5_reduce <- inception_4c/5x5_reduce
I1126 19:49:12.436288 19721 net.cpp:397] inception_4c/relu_5x5_reduce -> inception_4c/5x5_reduce (in-place)
I1126 19:49:12.436465 19721 net.cpp:150] Setting up inception_4c/relu_5x5_reduce
I1126 19:49:12.436475 19721 net.cpp:157] Top shape: 64 24 14 14 (301056)
I1126 19:49:12.436478 19721 net.cpp:165] Memory required for data: 2798686980
I1126 19:49:12.436481 19721 layer_factory.hpp:76] Creating layer inception_4c/5x5
I1126 19:49:12.436496 19721 net.cpp:106] Creating Layer inception_4c/5x5
I1126 19:49:12.436501 19721 net.cpp:454] inception_4c/5x5 <- inception_4c/5x5_reduce
I1126 19:49:12.436507 19721 net.cpp:411] inception_4c/5x5 -> inception_4c/5x5
I1126 19:49:12.438205 19721 net.cpp:150] Setting up inception_4c/5x5
I1126 19:49:12.438222 19721 net.cpp:157] Top shape: 64 64 14 14 (802816)
I1126 19:49:12.438226 19721 net.cpp:165] Memory required for data: 2801898244
I1126 19:49:12.438232 19721 layer_factory.hpp:76] Creating layer inception_4c/relu_5x5
I1126 19:49:12.438238 19721 net.cpp:106] Creating Layer inception_4c/relu_5x5
I1126 19:49:12.438242 19721 net.cpp:454] inception_4c/relu_5x5 <- inception_4c/5x5
I1126 19:49:12.438248 19721 net.cpp:397] inception_4c/relu_5x5 -> inception_4c/5x5 (in-place)
I1126 19:49:12.438561 19721 net.cpp:150] Setting up inception_4c/relu_5x5
I1126 19:49:12.438575 19721 net.cpp:157] Top shape: 64 64 14 14 (802816)
I1126 19:49:12.438578 19721 net.cpp:165] Memory required for data: 2805109508
I1126 19:49:12.438582 19721 layer_factory.hpp:76] Creating layer inception_4c/pool
I1126 19:49:12.438588 19721 net.cpp:106] Creating Layer inception_4c/pool
I1126 19:49:12.438592 19721 net.cpp:454] inception_4c/pool <- inception_4b/output_inception_4b/output_0_split_3
I1126 19:49:12.438597 19721 net.cpp:411] inception_4c/pool -> inception_4c/pool
I1126 19:49:12.438812 19721 net.cpp:150] Setting up inception_4c/pool
I1126 19:49:12.438823 19721 net.cpp:157] Top shape: 64 512 14 14 (6422528)
I1126 19:49:12.438827 19721 net.cpp:165] Memory required for data: 2830799620
I1126 19:49:12.438829 19721 layer_factory.hpp:76] Creating layer inception_4c/pool_proj
I1126 19:49:12.438838 19721 net.cpp:106] Creating Layer inception_4c/pool_proj
I1126 19:49:12.438841 19721 net.cpp:454] inception_4c/pool_proj <- inception_4c/pool
I1126 19:49:12.438848 19721 net.cpp:411] inception_4c/pool_proj -> inception_4c/pool_proj
I1126 19:49:12.440233 19721 net.cpp:150] Setting up inception_4c/pool_proj
I1126 19:49:12.440248 19721 net.cpp:157] Top shape: 64 64 14 14 (802816)
I1126 19:49:12.440251 19721 net.cpp:165] Memory required for data: 2834010884
I1126 19:49:12.440258 19721 layer_factory.hpp:76] Creating layer inception_4c/relu_pool_proj
I1126 19:49:12.440263 19721 net.cpp:106] Creating Layer inception_4c/relu_pool_proj
I1126 19:49:12.440268 19721 net.cpp:454] inception_4c/relu_pool_proj <- inception_4c/pool_proj
I1126 19:49:12.440274 19721 net.cpp:397] inception_4c/relu_pool_proj -> inception_4c/pool_proj (in-place)
I1126 19:49:12.440585 19721 net.cpp:150] Setting up inception_4c/relu_pool_proj
I1126 19:49:12.440598 19721 net.cpp:157] Top shape: 64 64 14 14 (802816)
I1126 19:49:12.440603 19721 net.cpp:165] Memory required for data: 2837222148
I1126 19:49:12.440605 19721 layer_factory.hpp:76] Creating layer inception_4c/output
I1126 19:49:12.440611 19721 net.cpp:106] Creating Layer inception_4c/output
I1126 19:49:12.440615 19721 net.cpp:454] inception_4c/output <- inception_4c/1x1
I1126 19:49:12.440619 19721 net.cpp:454] inception_4c/output <- inception_4c/3x3
I1126 19:49:12.440623 19721 net.cpp:454] inception_4c/output <- inception_4c/5x5
I1126 19:49:12.440628 19721 net.cpp:454] inception_4c/output <- inception_4c/pool_proj
I1126 19:49:12.440634 19721 net.cpp:411] inception_4c/output -> inception_4c/output
I1126 19:49:12.440668 19721 net.cpp:150] Setting up inception_4c/output
I1126 19:49:12.440675 19721 net.cpp:157] Top shape: 64 512 14 14 (6422528)
I1126 19:49:12.440676 19721 net.cpp:165] Memory required for data: 2862912260
I1126 19:49:12.440680 19721 layer_factory.hpp:76] Creating layer inception_4c/output_inception_4c/output_0_split
I1126 19:49:12.440687 19721 net.cpp:106] Creating Layer inception_4c/output_inception_4c/output_0_split
I1126 19:49:12.440690 19721 net.cpp:454] inception_4c/output_inception_4c/output_0_split <- inception_4c/output
I1126 19:49:12.440696 19721 net.cpp:411] inception_4c/output_inception_4c/output_0_split -> inception_4c/output_inception_4c/output_0_split_0
I1126 19:49:12.440701 19721 net.cpp:411] inception_4c/output_inception_4c/output_0_split -> inception_4c/output_inception_4c/output_0_split_1
I1126 19:49:12.440708 19721 net.cpp:411] inception_4c/output_inception_4c/output_0_split -> inception_4c/output_inception_4c/output_0_split_2
I1126 19:49:12.440714 19721 net.cpp:411] inception_4c/output_inception_4c/output_0_split -> inception_4c/output_inception_4c/output_0_split_3
I1126 19:49:12.440779 19721 net.cpp:150] Setting up inception_4c/output_inception_4c/output_0_split
I1126 19:49:12.440785 19721 net.cpp:157] Top shape: 64 512 14 14 (6422528)
I1126 19:49:12.440789 19721 net.cpp:157] Top shape: 64 512 14 14 (6422528)
I1126 19:49:12.440793 19721 net.cpp:157] Top shape: 64 512 14 14 (6422528)
I1126 19:49:12.440795 19721 net.cpp:157] Top shape: 64 512 14 14 (6422528)
I1126 19:49:12.440798 19721 net.cpp:165] Memory required for data: 2965672708
I1126 19:49:12.440801 19721 layer_factory.hpp:76] Creating layer inception_4d/1x1
I1126 19:49:12.440809 19721 net.cpp:106] Creating Layer inception_4d/1x1
I1126 19:49:12.440812 19721 net.cpp:454] inception_4d/1x1 <- inception_4c/output_inception_4c/output_0_split_0
I1126 19:49:12.440819 19721 net.cpp:411] inception_4d/1x1 -> inception_4d/1x1
I1126 19:49:12.442095 19721 net.cpp:150] Setting up inception_4d/1x1
I1126 19:49:12.442111 19721 net.cpp:157] Top shape: 64 112 14 14 (1404928)
I1126 19:49:12.442113 19721 net.cpp:165] Memory required for data: 2971292420
I1126 19:49:12.442121 19721 layer_factory.hpp:76] Creating layer inception_4d/relu_1x1
I1126 19:49:12.442126 19721 net.cpp:106] Creating Layer inception_4d/relu_1x1
I1126 19:49:12.442129 19721 net.cpp:454] inception_4d/relu_1x1 <- inception_4d/1x1
I1126 19:49:12.442134 19721 net.cpp:397] inception_4d/relu_1x1 -> inception_4d/1x1 (in-place)
I1126 19:49:12.442451 19721 net.cpp:150] Setting up inception_4d/relu_1x1
I1126 19:49:12.442463 19721 net.cpp:157] Top shape: 64 112 14 14 (1404928)
I1126 19:49:12.442466 19721 net.cpp:165] Memory required for data: 2976912132
I1126 19:49:12.442471 19721 layer_factory.hpp:76] Creating layer inception_4d/3x3_reduce
I1126 19:49:12.442479 19721 net.cpp:106] Creating Layer inception_4d/3x3_reduce
I1126 19:49:12.442483 19721 net.cpp:454] inception_4d/3x3_reduce <- inception_4c/output_inception_4c/output_0_split_1
I1126 19:49:12.442489 19721 net.cpp:411] inception_4d/3x3_reduce -> inception_4d/3x3_reduce
I1126 19:49:12.444054 19721 net.cpp:150] Setting up inception_4d/3x3_reduce
I1126 19:49:12.444069 19721 net.cpp:157] Top shape: 64 144 14 14 (1806336)
I1126 19:49:12.444072 19721 net.cpp:165] Memory required for data: 2984137476
I1126 19:49:12.444078 19721 layer_factory.hpp:76] Creating layer inception_4d/relu_3x3_reduce
I1126 19:49:12.444085 19721 net.cpp:106] Creating Layer inception_4d/relu_3x3_reduce
I1126 19:49:12.444090 19721 net.cpp:454] inception_4d/relu_3x3_reduce <- inception_4d/3x3_reduce
I1126 19:49:12.444095 19721 net.cpp:397] inception_4d/relu_3x3_reduce -> inception_4d/3x3_reduce (in-place)
I1126 19:49:12.444272 19721 net.cpp:150] Setting up inception_4d/relu_3x3_reduce
I1126 19:49:12.444283 19721 net.cpp:157] Top shape: 64 144 14 14 (1806336)
I1126 19:49:12.444286 19721 net.cpp:165] Memory required for data: 2991362820
I1126 19:49:12.444289 19721 layer_factory.hpp:76] Creating layer inception_4d/3x3
I1126 19:49:12.444298 19721 net.cpp:106] Creating Layer inception_4d/3x3
I1126 19:49:12.444303 19721 net.cpp:454] inception_4d/3x3 <- inception_4d/3x3_reduce
I1126 19:49:12.444309 19721 net.cpp:411] inception_4d/3x3 -> inception_4d/3x3
I1126 19:49:12.448264 19721 net.cpp:150] Setting up inception_4d/3x3
I1126 19:49:12.448279 19721 net.cpp:157] Top shape: 64 288 14 14 (3612672)
I1126 19:49:12.448283 19721 net.cpp:165] Memory required for data: 3005813508
I1126 19:49:12.448290 19721 layer_factory.hpp:76] Creating layer inception_4d/relu_3x3
I1126 19:49:12.448295 19721 net.cpp:106] Creating Layer inception_4d/relu_3x3
I1126 19:49:12.448300 19721 net.cpp:454] inception_4d/relu_3x3 <- inception_4d/3x3
I1126 19:49:12.448304 19721 net.cpp:397] inception_4d/relu_3x3 -> inception_4d/3x3 (in-place)
I1126 19:49:12.448621 19721 net.cpp:150] Setting up inception_4d/relu_3x3
I1126 19:49:12.448634 19721 net.cpp:157] Top shape: 64 288 14 14 (3612672)
I1126 19:49:12.448638 19721 net.cpp:165] Memory required for data: 3020264196
I1126 19:49:12.448642 19721 layer_factory.hpp:76] Creating layer inception_4d/5x5_reduce
I1126 19:49:12.448652 19721 net.cpp:106] Creating Layer inception_4d/5x5_reduce
I1126 19:49:12.448657 19721 net.cpp:454] inception_4d/5x5_reduce <- inception_4c/output_inception_4c/output_0_split_2
I1126 19:49:12.448663 19721 net.cpp:411] inception_4d/5x5_reduce -> inception_4d/5x5_reduce
I1126 19:49:12.449709 19721 net.cpp:150] Setting up inception_4d/5x5_reduce
I1126 19:49:12.449723 19721 net.cpp:157] Top shape: 64 32 14 14 (401408)
I1126 19:49:12.449726 19721 net.cpp:165] Memory required for data: 3021869828
I1126 19:49:12.449733 19721 layer_factory.hpp:76] Creating layer inception_4d/relu_5x5_reduce
I1126 19:49:12.449738 19721 net.cpp:106] Creating Layer inception_4d/relu_5x5_reduce
I1126 19:49:12.449743 19721 net.cpp:454] inception_4d/relu_5x5_reduce <- inception_4d/5x5_reduce
I1126 19:49:12.449748 19721 net.cpp:397] inception_4d/relu_5x5_reduce -> inception_4d/5x5_reduce (in-place)
I1126 19:49:12.450073 19721 net.cpp:150] Setting up inception_4d/relu_5x5_reduce
I1126 19:49:12.450086 19721 net.cpp:157] Top shape: 64 32 14 14 (401408)
I1126 19:49:12.450090 19721 net.cpp:165] Memory required for data: 3023475460
I1126 19:49:12.450093 19721 layer_factory.hpp:76] Creating layer inception_4d/5x5
I1126 19:49:12.450103 19721 net.cpp:106] Creating Layer inception_4d/5x5
I1126 19:49:12.450106 19721 net.cpp:454] inception_4d/5x5 <- inception_4d/5x5_reduce
I1126 19:49:12.450114 19721 net.cpp:411] inception_4d/5x5 -> inception_4d/5x5
I1126 19:49:12.451520 19721 net.cpp:150] Setting up inception_4d/5x5
I1126 19:49:12.451535 19721 net.cpp:157] Top shape: 64 64 14 14 (802816)
I1126 19:49:12.451539 19721 net.cpp:165] Memory required for data: 3026686724
I1126 19:49:12.451545 19721 layer_factory.hpp:76] Creating layer inception_4d/relu_5x5
I1126 19:49:12.451552 19721 net.cpp:106] Creating Layer inception_4d/relu_5x5
I1126 19:49:12.451556 19721 net.cpp:454] inception_4d/relu_5x5 <- inception_4d/5x5
I1126 19:49:12.451560 19721 net.cpp:397] inception_4d/relu_5x5 -> inception_4d/5x5 (in-place)
I1126 19:49:12.451738 19721 net.cpp:150] Setting up inception_4d/relu_5x5
I1126 19:49:12.451750 19721 net.cpp:157] Top shape: 64 64 14 14 (802816)
I1126 19:49:12.451752 19721 net.cpp:165] Memory required for data: 3029897988
I1126 19:49:12.451756 19721 layer_factory.hpp:76] Creating layer inception_4d/pool
I1126 19:49:12.451763 19721 net.cpp:106] Creating Layer inception_4d/pool
I1126 19:49:12.451767 19721 net.cpp:454] inception_4d/pool <- inception_4c/output_inception_4c/output_0_split_3
I1126 19:49:12.451773 19721 net.cpp:411] inception_4d/pool -> inception_4d/pool
I1126 19:49:12.452157 19721 net.cpp:150] Setting up inception_4d/pool
I1126 19:49:12.452170 19721 net.cpp:157] Top shape: 64 512 14 14 (6422528)
I1126 19:49:12.452174 19721 net.cpp:165] Memory required for data: 3055588100
I1126 19:49:12.452178 19721 layer_factory.hpp:76] Creating layer inception_4d/pool_proj
I1126 19:49:12.452188 19721 net.cpp:106] Creating Layer inception_4d/pool_proj
I1126 19:49:12.452191 19721 net.cpp:454] inception_4d/pool_proj <- inception_4d/pool
I1126 19:49:12.452196 19721 net.cpp:411] inception_4d/pool_proj -> inception_4d/pool_proj
I1126 19:49:12.453486 19721 net.cpp:150] Setting up inception_4d/pool_proj
I1126 19:49:12.453500 19721 net.cpp:157] Top shape: 64 64 14 14 (802816)
I1126 19:49:12.453505 19721 net.cpp:165] Memory required for data: 3058799364
I1126 19:49:12.453510 19721 layer_factory.hpp:76] Creating layer inception_4d/relu_pool_proj
I1126 19:49:12.453516 19721 net.cpp:106] Creating Layer inception_4d/relu_pool_proj
I1126 19:49:12.453521 19721 net.cpp:454] inception_4d/relu_pool_proj <- inception_4d/pool_proj
I1126 19:49:12.453526 19721 net.cpp:397] inception_4d/relu_pool_proj -> inception_4d/pool_proj (in-place)
I1126 19:49:12.453701 19721 net.cpp:150] Setting up inception_4d/relu_pool_proj
I1126 19:49:12.453711 19721 net.cpp:157] Top shape: 64 64 14 14 (802816)
I1126 19:49:12.453716 19721 net.cpp:165] Memory required for data: 3062010628
I1126 19:49:12.453718 19721 layer_factory.hpp:76] Creating layer inception_4d/output
I1126 19:49:12.453727 19721 net.cpp:106] Creating Layer inception_4d/output
I1126 19:49:12.453730 19721 net.cpp:454] inception_4d/output <- inception_4d/1x1
I1126 19:49:12.453735 19721 net.cpp:454] inception_4d/output <- inception_4d/3x3
I1126 19:49:12.453739 19721 net.cpp:454] inception_4d/output <- inception_4d/5x5
I1126 19:49:12.453742 19721 net.cpp:454] inception_4d/output <- inception_4d/pool_proj
I1126 19:49:12.453747 19721 net.cpp:411] inception_4d/output -> inception_4d/output
I1126 19:49:12.453783 19721 net.cpp:150] Setting up inception_4d/output
I1126 19:49:12.453788 19721 net.cpp:157] Top shape: 64 528 14 14 (6623232)
I1126 19:49:12.453791 19721 net.cpp:165] Memory required for data: 3088503556
I1126 19:49:12.453794 19721 layer_factory.hpp:76] Creating layer inception_4d/output_inception_4d/output_0_split
I1126 19:49:12.453800 19721 net.cpp:106] Creating Layer inception_4d/output_inception_4d/output_0_split
I1126 19:49:12.453804 19721 net.cpp:454] inception_4d/output_inception_4d/output_0_split <- inception_4d/output
I1126 19:49:12.453810 19721 net.cpp:411] inception_4d/output_inception_4d/output_0_split -> inception_4d/output_inception_4d/output_0_split_0
I1126 19:49:12.453816 19721 net.cpp:411] inception_4d/output_inception_4d/output_0_split -> inception_4d/output_inception_4d/output_0_split_1
I1126 19:49:12.453821 19721 net.cpp:411] inception_4d/output_inception_4d/output_0_split -> inception_4d/output_inception_4d/output_0_split_2
I1126 19:49:12.453827 19721 net.cpp:411] inception_4d/output_inception_4d/output_0_split -> inception_4d/output_inception_4d/output_0_split_3
I1126 19:49:12.453832 19721 net.cpp:411] inception_4d/output_inception_4d/output_0_split -> inception_4d/output_inception_4d/output_0_split_4
I1126 19:49:12.453917 19721 net.cpp:150] Setting up inception_4d/output_inception_4d/output_0_split
I1126 19:49:12.453925 19721 net.cpp:157] Top shape: 64 528 14 14 (6623232)
I1126 19:49:12.453929 19721 net.cpp:157] Top shape: 64 528 14 14 (6623232)
I1126 19:49:12.453933 19721 net.cpp:157] Top shape: 64 528 14 14 (6623232)
I1126 19:49:12.453936 19721 net.cpp:157] Top shape: 64 528 14 14 (6623232)
I1126 19:49:12.453939 19721 net.cpp:157] Top shape: 64 528 14 14 (6623232)
I1126 19:49:12.453943 19721 net.cpp:165] Memory required for data: 3220968196
I1126 19:49:12.453945 19721 layer_factory.hpp:76] Creating layer loss2/ave_pool
I1126 19:49:12.453953 19721 net.cpp:106] Creating Layer loss2/ave_pool
I1126 19:49:12.453955 19721 net.cpp:454] loss2/ave_pool <- inception_4d/output_inception_4d/output_0_split_0
I1126 19:49:12.453961 19721 net.cpp:411] loss2/ave_pool -> loss2/ave_pool
I1126 19:49:12.454303 19721 net.cpp:150] Setting up loss2/ave_pool
I1126 19:49:12.454316 19721 net.cpp:157] Top shape: 64 528 4 4 (540672)
I1126 19:49:12.454320 19721 net.cpp:165] Memory required for data: 3223130884
I1126 19:49:12.454324 19721 layer_factory.hpp:76] Creating layer loss2/conv
I1126 19:49:12.454332 19721 net.cpp:106] Creating Layer loss2/conv
I1126 19:49:12.454336 19721 net.cpp:454] loss2/conv <- loss2/ave_pool
I1126 19:49:12.454344 19721 net.cpp:411] loss2/conv -> loss2/conv
I1126 19:49:12.456164 19721 net.cpp:150] Setting up loss2/conv
I1126 19:49:12.456179 19721 net.cpp:157] Top shape: 64 128 4 4 (131072)
I1126 19:49:12.456183 19721 net.cpp:165] Memory required for data: 3223655172
I1126 19:49:12.456189 19721 layer_factory.hpp:76] Creating layer loss2/relu_conv
I1126 19:49:12.456197 19721 net.cpp:106] Creating Layer loss2/relu_conv
I1126 19:49:12.456202 19721 net.cpp:454] loss2/relu_conv <- loss2/conv
I1126 19:49:12.456207 19721 net.cpp:397] loss2/relu_conv -> loss2/conv (in-place)
I1126 19:49:12.456651 19721 net.cpp:150] Setting up loss2/relu_conv
I1126 19:49:12.456671 19721 net.cpp:157] Top shape: 64 128 4 4 (131072)
I1126 19:49:12.456676 19721 net.cpp:165] Memory required for data: 3224179460
I1126 19:49:12.456678 19721 layer_factory.hpp:76] Creating layer loss2/fc
I1126 19:49:12.456687 19721 net.cpp:106] Creating Layer loss2/fc
I1126 19:49:12.456691 19721 net.cpp:454] loss2/fc <- loss2/conv
I1126 19:49:12.456696 19721 net.cpp:411] loss2/fc -> loss2/fc
I1126 19:49:12.472211 19721 net.cpp:150] Setting up loss2/fc
I1126 19:49:12.472226 19721 net.cpp:157] Top shape: 64 1024 (65536)
I1126 19:49:12.472230 19721 net.cpp:165] Memory required for data: 3224441604
I1126 19:49:12.472236 19721 layer_factory.hpp:76] Creating layer loss2/relu_fc
I1126 19:49:12.472242 19721 net.cpp:106] Creating Layer loss2/relu_fc
I1126 19:49:12.472247 19721 net.cpp:454] loss2/relu_fc <- loss2/fc
I1126 19:49:12.472254 19721 net.cpp:397] loss2/relu_fc -> loss2/fc (in-place)
I1126 19:49:12.472450 19721 net.cpp:150] Setting up loss2/relu_fc
I1126 19:49:12.472461 19721 net.cpp:157] Top shape: 64 1024 (65536)
I1126 19:49:12.472465 19721 net.cpp:165] Memory required for data: 3224703748
I1126 19:49:12.472467 19721 layer_factory.hpp:76] Creating layer loss2/drop_fc
I1126 19:49:12.472476 19721 net.cpp:106] Creating Layer loss2/drop_fc
I1126 19:49:12.472479 19721 net.cpp:454] loss2/drop_fc <- loss2/fc
I1126 19:49:12.472483 19721 net.cpp:397] loss2/drop_fc -> loss2/fc (in-place)
I1126 19:49:12.472518 19721 net.cpp:150] Setting up loss2/drop_fc
I1126 19:49:12.472527 19721 net.cpp:157] Top shape: 64 1024 (65536)
I1126 19:49:12.472529 19721 net.cpp:165] Memory required for data: 3224965892
I1126 19:49:12.472532 19721 layer_factory.hpp:76] Creating layer loss2/classifier-attribute
I1126 19:49:12.472539 19721 net.cpp:106] Creating Layer loss2/classifier-attribute
I1126 19:49:12.472543 19721 net.cpp:454] loss2/classifier-attribute <- loss2/fc
I1126 19:49:12.472549 19721 net.cpp:411] loss2/classifier-attribute -> loss2/classifier-attribute
I1126 19:49:12.549621 19721 net.cpp:150] Setting up loss2/classifier-attribute
I1126 19:49:12.549646 19721 net.cpp:157] Top shape: 64 9999 (639936)
I1126 19:49:12.549649 19721 net.cpp:165] Memory required for data: 3227525636
I1126 19:49:12.549659 19721 layer_factory.hpp:76] Creating layer loss2/loss
I1126 19:49:12.549670 19721 net.cpp:106] Creating Layer loss2/loss
I1126 19:49:12.549676 19721 net.cpp:454] loss2/loss <- loss2/classifier-attribute
I1126 19:49:12.549684 19721 net.cpp:454] loss2/loss <- label_data_1_split_1
I1126 19:49:12.549690 19721 net.cpp:411] loss2/loss -> loss2/loss1
I1126 19:49:12.549700 19721 layer_factory.hpp:76] Creating layer loss2/loss
I1126 19:49:12.551487 19721 net.cpp:150] Setting up loss2/loss
I1126 19:49:12.551502 19721 net.cpp:157] Top shape: (1)
I1126 19:49:12.551506 19721 net.cpp:160]     with loss weight 0.3
I1126 19:49:12.551517 19721 net.cpp:165] Memory required for data: 3227525640
I1126 19:49:12.551520 19721 layer_factory.hpp:76] Creating layer inception_4e/1x1
I1126 19:49:12.551532 19721 net.cpp:106] Creating Layer inception_4e/1x1
I1126 19:49:12.551537 19721 net.cpp:454] inception_4e/1x1 <- inception_4d/output_inception_4d/output_0_split_1
I1126 19:49:12.551543 19721 net.cpp:411] inception_4e/1x1 -> inception_4e/1x1
I1126 19:49:12.553547 19721 net.cpp:150] Setting up inception_4e/1x1
I1126 19:49:12.553562 19721 net.cpp:157] Top shape: 64 256 14 14 (3211264)
I1126 19:49:12.553566 19721 net.cpp:165] Memory required for data: 3240370696
I1126 19:49:12.553573 19721 layer_factory.hpp:76] Creating layer inception_4e/relu_1x1
I1126 19:49:12.553580 19721 net.cpp:106] Creating Layer inception_4e/relu_1x1
I1126 19:49:12.553583 19721 net.cpp:454] inception_4e/relu_1x1 <- inception_4e/1x1
I1126 19:49:12.553589 19721 net.cpp:397] inception_4e/relu_1x1 -> inception_4e/1x1 (in-place)
I1126 19:49:12.553766 19721 net.cpp:150] Setting up inception_4e/relu_1x1
I1126 19:49:12.553776 19721 net.cpp:157] Top shape: 64 256 14 14 (3211264)
I1126 19:49:12.553781 19721 net.cpp:165] Memory required for data: 3253215752
I1126 19:49:12.553783 19721 layer_factory.hpp:76] Creating layer inception_4e/3x3_reduce
I1126 19:49:12.553792 19721 net.cpp:106] Creating Layer inception_4e/3x3_reduce
I1126 19:49:12.553797 19721 net.cpp:454] inception_4e/3x3_reduce <- inception_4d/output_inception_4d/output_0_split_2
I1126 19:49:12.553803 19721 net.cpp:411] inception_4e/3x3_reduce -> inception_4e/3x3_reduce
I1126 19:49:12.555888 19721 net.cpp:150] Setting up inception_4e/3x3_reduce
I1126 19:49:12.555904 19721 net.cpp:157] Top shape: 64 160 14 14 (2007040)
I1126 19:49:12.555907 19721 net.cpp:165] Memory required for data: 3261243912
I1126 19:49:12.555914 19721 layer_factory.hpp:76] Creating layer inception_4e/relu_3x3_reduce
I1126 19:49:12.555922 19721 net.cpp:106] Creating Layer inception_4e/relu_3x3_reduce
I1126 19:49:12.555927 19721 net.cpp:454] inception_4e/relu_3x3_reduce <- inception_4e/3x3_reduce
I1126 19:49:12.555932 19721 net.cpp:397] inception_4e/relu_3x3_reduce -> inception_4e/3x3_reduce (in-place)
I1126 19:49:12.556254 19721 net.cpp:150] Setting up inception_4e/relu_3x3_reduce
I1126 19:49:12.556267 19721 net.cpp:157] Top shape: 64 160 14 14 (2007040)
I1126 19:49:12.556272 19721 net.cpp:165] Memory required for data: 3269272072
I1126 19:49:12.556274 19721 layer_factory.hpp:76] Creating layer inception_4e/3x3
I1126 19:49:12.556283 19721 net.cpp:106] Creating Layer inception_4e/3x3
I1126 19:49:12.556288 19721 net.cpp:454] inception_4e/3x3 <- inception_4e/3x3_reduce
I1126 19:49:12.556295 19721 net.cpp:411] inception_4e/3x3 -> inception_4e/3x3
I1126 19:49:12.560807 19721 net.cpp:150] Setting up inception_4e/3x3
I1126 19:49:12.560824 19721 net.cpp:157] Top shape: 64 320 14 14 (4014080)
I1126 19:49:12.560827 19721 net.cpp:165] Memory required for data: 3285328392
I1126 19:49:12.560834 19721 layer_factory.hpp:76] Creating layer inception_4e/relu_3x3
I1126 19:49:12.560839 19721 net.cpp:106] Creating Layer inception_4e/relu_3x3
I1126 19:49:12.560845 19721 net.cpp:454] inception_4e/relu_3x3 <- inception_4e/3x3
I1126 19:49:12.560850 19721 net.cpp:397] inception_4e/relu_3x3 -> inception_4e/3x3 (in-place)
I1126 19:49:12.561175 19721 net.cpp:150] Setting up inception_4e/relu_3x3
I1126 19:49:12.561188 19721 net.cpp:157] Top shape: 64 320 14 14 (4014080)
I1126 19:49:12.561192 19721 net.cpp:165] Memory required for data: 3301384712
I1126 19:49:12.561195 19721 layer_factory.hpp:76] Creating layer inception_4e/5x5_reduce
I1126 19:49:12.561204 19721 net.cpp:106] Creating Layer inception_4e/5x5_reduce
I1126 19:49:12.561208 19721 net.cpp:454] inception_4e/5x5_reduce <- inception_4d/output_inception_4d/output_0_split_3
I1126 19:49:12.561215 19721 net.cpp:411] inception_4e/5x5_reduce -> inception_4e/5x5_reduce
I1126 19:49:12.562432 19721 net.cpp:150] Setting up inception_4e/5x5_reduce
I1126 19:49:12.562446 19721 net.cpp:157] Top shape: 64 32 14 14 (401408)
I1126 19:49:12.562449 19721 net.cpp:165] Memory required for data: 3302990344
I1126 19:49:12.562456 19721 layer_factory.hpp:76] Creating layer inception_4e/relu_5x5_reduce
I1126 19:49:12.562463 19721 net.cpp:106] Creating Layer inception_4e/relu_5x5_reduce
I1126 19:49:12.562468 19721 net.cpp:454] inception_4e/relu_5x5_reduce <- inception_4e/5x5_reduce
I1126 19:49:12.562472 19721 net.cpp:397] inception_4e/relu_5x5_reduce -> inception_4e/5x5_reduce (in-place)
I1126 19:49:12.562652 19721 net.cpp:150] Setting up inception_4e/relu_5x5_reduce
I1126 19:49:12.562662 19721 net.cpp:157] Top shape: 64 32 14 14 (401408)
I1126 19:49:12.562665 19721 net.cpp:165] Memory required for data: 3304595976
I1126 19:49:12.562669 19721 layer_factory.hpp:76] Creating layer inception_4e/5x5
I1126 19:49:12.562693 19721 net.cpp:106] Creating Layer inception_4e/5x5
I1126 19:49:12.562700 19721 net.cpp:454] inception_4e/5x5 <- inception_4e/5x5_reduce
I1126 19:49:12.562710 19721 net.cpp:411] inception_4e/5x5 -> inception_4e/5x5
I1126 19:49:12.564489 19721 net.cpp:150] Setting up inception_4e/5x5
I1126 19:49:12.564505 19721 net.cpp:157] Top shape: 64 128 14 14 (1605632)
I1126 19:49:12.564509 19721 net.cpp:165] Memory required for data: 3311018504
I1126 19:49:12.564517 19721 layer_factory.hpp:76] Creating layer inception_4e/relu_5x5
I1126 19:49:12.564522 19721 net.cpp:106] Creating Layer inception_4e/relu_5x5
I1126 19:49:12.564527 19721 net.cpp:454] inception_4e/relu_5x5 <- inception_4e/5x5
I1126 19:49:12.564532 19721 net.cpp:397] inception_4e/relu_5x5 -> inception_4e/5x5 (in-place)
I1126 19:49:12.564858 19721 net.cpp:150] Setting up inception_4e/relu_5x5
I1126 19:49:12.564872 19721 net.cpp:157] Top shape: 64 128 14 14 (1605632)
I1126 19:49:12.564875 19721 net.cpp:165] Memory required for data: 3317441032
I1126 19:49:12.564878 19721 layer_factory.hpp:76] Creating layer inception_4e/pool
I1126 19:49:12.564885 19721 net.cpp:106] Creating Layer inception_4e/pool
I1126 19:49:12.564890 19721 net.cpp:454] inception_4e/pool <- inception_4d/output_inception_4d/output_0_split_4
I1126 19:49:12.564896 19721 net.cpp:411] inception_4e/pool -> inception_4e/pool
I1126 19:49:12.565114 19721 net.cpp:150] Setting up inception_4e/pool
I1126 19:49:12.565125 19721 net.cpp:157] Top shape: 64 528 14 14 (6623232)
I1126 19:49:12.565129 19721 net.cpp:165] Memory required for data: 3343933960
I1126 19:49:12.565131 19721 layer_factory.hpp:76] Creating layer inception_4e/pool_proj
I1126 19:49:12.565140 19721 net.cpp:106] Creating Layer inception_4e/pool_proj
I1126 19:49:12.565146 19721 net.cpp:454] inception_4e/pool_proj <- inception_4e/pool
I1126 19:49:12.565153 19721 net.cpp:411] inception_4e/pool_proj -> inception_4e/pool_proj
I1126 19:49:12.566689 19721 net.cpp:150] Setting up inception_4e/pool_proj
I1126 19:49:12.566704 19721 net.cpp:157] Top shape: 64 128 14 14 (1605632)
I1126 19:49:12.566709 19721 net.cpp:165] Memory required for data: 3350356488
I1126 19:49:12.566715 19721 layer_factory.hpp:76] Creating layer inception_4e/relu_pool_proj
I1126 19:49:12.566720 19721 net.cpp:106] Creating Layer inception_4e/relu_pool_proj
I1126 19:49:12.566723 19721 net.cpp:454] inception_4e/relu_pool_proj <- inception_4e/pool_proj
I1126 19:49:12.566730 19721 net.cpp:397] inception_4e/relu_pool_proj -> inception_4e/pool_proj (in-place)
I1126 19:49:12.567065 19721 net.cpp:150] Setting up inception_4e/relu_pool_proj
I1126 19:49:12.567080 19721 net.cpp:157] Top shape: 64 128 14 14 (1605632)
I1126 19:49:12.567082 19721 net.cpp:165] Memory required for data: 3356779016
I1126 19:49:12.567085 19721 layer_factory.hpp:76] Creating layer inception_4e/output
I1126 19:49:12.567095 19721 net.cpp:106] Creating Layer inception_4e/output
I1126 19:49:12.567098 19721 net.cpp:454] inception_4e/output <- inception_4e/1x1
I1126 19:49:12.567102 19721 net.cpp:454] inception_4e/output <- inception_4e/3x3
I1126 19:49:12.567106 19721 net.cpp:454] inception_4e/output <- inception_4e/5x5
I1126 19:49:12.567111 19721 net.cpp:454] inception_4e/output <- inception_4e/pool_proj
I1126 19:49:12.567116 19721 net.cpp:411] inception_4e/output -> inception_4e/output
I1126 19:49:12.567157 19721 net.cpp:150] Setting up inception_4e/output
I1126 19:49:12.567162 19721 net.cpp:157] Top shape: 64 832 14 14 (10436608)
I1126 19:49:12.567165 19721 net.cpp:165] Memory required for data: 3398525448
I1126 19:49:12.567168 19721 layer_factory.hpp:76] Creating layer pool4/3x3_s2
I1126 19:49:12.567173 19721 net.cpp:106] Creating Layer pool4/3x3_s2
I1126 19:49:12.567178 19721 net.cpp:454] pool4/3x3_s2 <- inception_4e/output
I1126 19:49:12.567183 19721 net.cpp:411] pool4/3x3_s2 -> pool4/3x3_s2
I1126 19:49:12.567402 19721 net.cpp:150] Setting up pool4/3x3_s2
I1126 19:49:12.567414 19721 net.cpp:157] Top shape: 64 832 7 7 (2609152)
I1126 19:49:12.567419 19721 net.cpp:165] Memory required for data: 3408962056
I1126 19:49:12.567421 19721 layer_factory.hpp:76] Creating layer pool4/3x3_s2_pool4/3x3_s2_0_split
I1126 19:49:12.567427 19721 net.cpp:106] Creating Layer pool4/3x3_s2_pool4/3x3_s2_0_split
I1126 19:49:12.567430 19721 net.cpp:454] pool4/3x3_s2_pool4/3x3_s2_0_split <- pool4/3x3_s2
I1126 19:49:12.567435 19721 net.cpp:411] pool4/3x3_s2_pool4/3x3_s2_0_split -> pool4/3x3_s2_pool4/3x3_s2_0_split_0
I1126 19:49:12.567441 19721 net.cpp:411] pool4/3x3_s2_pool4/3x3_s2_0_split -> pool4/3x3_s2_pool4/3x3_s2_0_split_1
I1126 19:49:12.567447 19721 net.cpp:411] pool4/3x3_s2_pool4/3x3_s2_0_split -> pool4/3x3_s2_pool4/3x3_s2_0_split_2
I1126 19:49:12.567452 19721 net.cpp:411] pool4/3x3_s2_pool4/3x3_s2_0_split -> pool4/3x3_s2_pool4/3x3_s2_0_split_3
I1126 19:49:12.567525 19721 net.cpp:150] Setting up pool4/3x3_s2_pool4/3x3_s2_0_split
I1126 19:49:12.567533 19721 net.cpp:157] Top shape: 64 832 7 7 (2609152)
I1126 19:49:12.567538 19721 net.cpp:157] Top shape: 64 832 7 7 (2609152)
I1126 19:49:12.567540 19721 net.cpp:157] Top shape: 64 832 7 7 (2609152)
I1126 19:49:12.567543 19721 net.cpp:157] Top shape: 64 832 7 7 (2609152)
I1126 19:49:12.567546 19721 net.cpp:165] Memory required for data: 3450708488
I1126 19:49:12.567549 19721 layer_factory.hpp:76] Creating layer inception_5a/1x1
I1126 19:49:12.567558 19721 net.cpp:106] Creating Layer inception_5a/1x1
I1126 19:49:12.567561 19721 net.cpp:454] inception_5a/1x1 <- pool4/3x3_s2_pool4/3x3_s2_0_split_0
I1126 19:49:12.567567 19721 net.cpp:411] inception_5a/1x1 -> inception_5a/1x1
I1126 19:49:12.570487 19721 net.cpp:150] Setting up inception_5a/1x1
I1126 19:49:12.570502 19721 net.cpp:157] Top shape: 64 256 7 7 (802816)
I1126 19:49:12.570507 19721 net.cpp:165] Memory required for data: 3453919752
I1126 19:49:12.570513 19721 layer_factory.hpp:76] Creating layer inception_5a/relu_1x1
I1126 19:49:12.570518 19721 net.cpp:106] Creating Layer inception_5a/relu_1x1
I1126 19:49:12.570523 19721 net.cpp:454] inception_5a/relu_1x1 <- inception_5a/1x1
I1126 19:49:12.570528 19721 net.cpp:397] inception_5a/relu_1x1 -> inception_5a/1x1 (in-place)
I1126 19:49:12.570847 19721 net.cpp:150] Setting up inception_5a/relu_1x1
I1126 19:49:12.570860 19721 net.cpp:157] Top shape: 64 256 7 7 (802816)
I1126 19:49:12.570863 19721 net.cpp:165] Memory required for data: 3457131016
I1126 19:49:12.570868 19721 layer_factory.hpp:76] Creating layer inception_5a/3x3_reduce
I1126 19:49:12.570876 19721 net.cpp:106] Creating Layer inception_5a/3x3_reduce
I1126 19:49:12.570880 19721 net.cpp:454] inception_5a/3x3_reduce <- pool4/3x3_s2_pool4/3x3_s2_0_split_1
I1126 19:49:12.570888 19721 net.cpp:411] inception_5a/3x3_reduce -> inception_5a/3x3_reduce
I1126 19:49:12.573272 19721 net.cpp:150] Setting up inception_5a/3x3_reduce
I1126 19:49:12.573288 19721 net.cpp:157] Top shape: 64 160 7 7 (501760)
I1126 19:49:12.573292 19721 net.cpp:165] Memory required for data: 3459138056
I1126 19:49:12.573298 19721 layer_factory.hpp:76] Creating layer inception_5a/relu_3x3_reduce
I1126 19:49:12.573303 19721 net.cpp:106] Creating Layer inception_5a/relu_3x3_reduce
I1126 19:49:12.573308 19721 net.cpp:454] inception_5a/relu_3x3_reduce <- inception_5a/3x3_reduce
I1126 19:49:12.573312 19721 net.cpp:397] inception_5a/relu_3x3_reduce -> inception_5a/3x3_reduce (in-place)
I1126 19:49:12.573640 19721 net.cpp:150] Setting up inception_5a/relu_3x3_reduce
I1126 19:49:12.573653 19721 net.cpp:157] Top shape: 64 160 7 7 (501760)
I1126 19:49:12.573657 19721 net.cpp:165] Memory required for data: 3461145096
I1126 19:49:12.573660 19721 layer_factory.hpp:76] Creating layer inception_5a/3x3
I1126 19:49:12.573669 19721 net.cpp:106] Creating Layer inception_5a/3x3
I1126 19:49:12.573673 19721 net.cpp:454] inception_5a/3x3 <- inception_5a/3x3_reduce
I1126 19:49:12.573679 19721 net.cpp:411] inception_5a/3x3 -> inception_5a/3x3
I1126 19:49:12.578341 19721 net.cpp:150] Setting up inception_5a/3x3
I1126 19:49:12.578356 19721 net.cpp:157] Top shape: 64 320 7 7 (1003520)
I1126 19:49:12.578359 19721 net.cpp:165] Memory required for data: 3465159176
I1126 19:49:12.578366 19721 layer_factory.hpp:76] Creating layer inception_5a/relu_3x3
I1126 19:49:12.578372 19721 net.cpp:106] Creating Layer inception_5a/relu_3x3
I1126 19:49:12.578377 19721 net.cpp:454] inception_5a/relu_3x3 <- inception_5a/3x3
I1126 19:49:12.578380 19721 net.cpp:397] inception_5a/relu_3x3 -> inception_5a/3x3 (in-place)
I1126 19:49:12.578569 19721 net.cpp:150] Setting up inception_5a/relu_3x3
I1126 19:49:12.578582 19721 net.cpp:157] Top shape: 64 320 7 7 (1003520)
I1126 19:49:12.578584 19721 net.cpp:165] Memory required for data: 3469173256
I1126 19:49:12.578588 19721 layer_factory.hpp:76] Creating layer inception_5a/5x5_reduce
I1126 19:49:12.578598 19721 net.cpp:106] Creating Layer inception_5a/5x5_reduce
I1126 19:49:12.578603 19721 net.cpp:454] inception_5a/5x5_reduce <- pool4/3x3_s2_pool4/3x3_s2_0_split_2
I1126 19:49:12.578610 19721 net.cpp:411] inception_5a/5x5_reduce -> inception_5a/5x5_reduce
I1126 19:49:12.579926 19721 net.cpp:150] Setting up inception_5a/5x5_reduce
I1126 19:49:12.579941 19721 net.cpp:157] Top shape: 64 32 7 7 (100352)
I1126 19:49:12.579946 19721 net.cpp:165] Memory required for data: 3469574664
I1126 19:49:12.579952 19721 layer_factory.hpp:76] Creating layer inception_5a/relu_5x5_reduce
I1126 19:49:12.579959 19721 net.cpp:106] Creating Layer inception_5a/relu_5x5_reduce
I1126 19:49:12.579963 19721 net.cpp:454] inception_5a/relu_5x5_reduce <- inception_5a/5x5_reduce
I1126 19:49:12.579968 19721 net.cpp:397] inception_5a/relu_5x5_reduce -> inception_5a/5x5_reduce (in-place)
I1126 19:49:12.580163 19721 net.cpp:150] Setting up inception_5a/relu_5x5_reduce
I1126 19:49:12.580174 19721 net.cpp:157] Top shape: 64 32 7 7 (100352)
I1126 19:49:12.580178 19721 net.cpp:165] Memory required for data: 3469976072
I1126 19:49:12.580181 19721 layer_factory.hpp:76] Creating layer inception_5a/5x5
I1126 19:49:12.580189 19721 net.cpp:106] Creating Layer inception_5a/5x5
I1126 19:49:12.580194 19721 net.cpp:454] inception_5a/5x5 <- inception_5a/5x5_reduce
I1126 19:49:12.580199 19721 net.cpp:411] inception_5a/5x5 -> inception_5a/5x5
I1126 19:49:12.581979 19721 net.cpp:150] Setting up inception_5a/5x5
I1126 19:49:12.581993 19721 net.cpp:157] Top shape: 64 128 7 7 (401408)
I1126 19:49:12.581997 19721 net.cpp:165] Memory required for data: 3471581704
I1126 19:49:12.582003 19721 layer_factory.hpp:76] Creating layer inception_5a/relu_5x5
I1126 19:49:12.582010 19721 net.cpp:106] Creating Layer inception_5a/relu_5x5
I1126 19:49:12.582013 19721 net.cpp:454] inception_5a/relu_5x5 <- inception_5a/5x5
I1126 19:49:12.582020 19721 net.cpp:397] inception_5a/relu_5x5 -> inception_5a/5x5 (in-place)
I1126 19:49:12.582350 19721 net.cpp:150] Setting up inception_5a/relu_5x5
I1126 19:49:12.582365 19721 net.cpp:157] Top shape: 64 128 7 7 (401408)
I1126 19:49:12.582367 19721 net.cpp:165] Memory required for data: 3473187336
I1126 19:49:12.582371 19721 layer_factory.hpp:76] Creating layer inception_5a/pool
I1126 19:49:12.582381 19721 net.cpp:106] Creating Layer inception_5a/pool
I1126 19:49:12.582386 19721 net.cpp:454] inception_5a/pool <- pool4/3x3_s2_pool4/3x3_s2_0_split_3
I1126 19:49:12.582391 19721 net.cpp:411] inception_5a/pool -> inception_5a/pool
I1126 19:49:12.582622 19721 net.cpp:150] Setting up inception_5a/pool
I1126 19:49:12.582633 19721 net.cpp:157] Top shape: 64 832 7 7 (2609152)
I1126 19:49:12.582635 19721 net.cpp:165] Memory required for data: 3483623944
I1126 19:49:12.582639 19721 layer_factory.hpp:76] Creating layer inception_5a/pool_proj
I1126 19:49:12.582648 19721 net.cpp:106] Creating Layer inception_5a/pool_proj
I1126 19:49:12.582651 19721 net.cpp:454] inception_5a/pool_proj <- inception_5a/pool
I1126 19:49:12.582659 19721 net.cpp:411] inception_5a/pool_proj -> inception_5a/pool_proj
I1126 19:49:12.584902 19721 net.cpp:150] Setting up inception_5a/pool_proj
I1126 19:49:12.584918 19721 net.cpp:157] Top shape: 64 128 7 7 (401408)
I1126 19:49:12.584920 19721 net.cpp:165] Memory required for data: 3485229576
I1126 19:49:12.584928 19721 layer_factory.hpp:76] Creating layer inception_5a/relu_pool_proj
I1126 19:49:12.584933 19721 net.cpp:106] Creating Layer inception_5a/relu_pool_proj
I1126 19:49:12.584938 19721 net.cpp:454] inception_5a/relu_pool_proj <- inception_5a/pool_proj
I1126 19:49:12.584942 19721 net.cpp:397] inception_5a/relu_pool_proj -> inception_5a/pool_proj (in-place)
I1126 19:49:12.585278 19721 net.cpp:150] Setting up inception_5a/relu_pool_proj
I1126 19:49:12.585291 19721 net.cpp:157] Top shape: 64 128 7 7 (401408)
I1126 19:49:12.585295 19721 net.cpp:165] Memory required for data: 3486835208
I1126 19:49:12.585299 19721 layer_factory.hpp:76] Creating layer inception_5a/output
I1126 19:49:12.585304 19721 net.cpp:106] Creating Layer inception_5a/output
I1126 19:49:12.585309 19721 net.cpp:454] inception_5a/output <- inception_5a/1x1
I1126 19:49:12.585314 19721 net.cpp:454] inception_5a/output <- inception_5a/3x3
I1126 19:49:12.585316 19721 net.cpp:454] inception_5a/output <- inception_5a/5x5
I1126 19:49:12.585320 19721 net.cpp:454] inception_5a/output <- inception_5a/pool_proj
I1126 19:49:12.585325 19721 net.cpp:411] inception_5a/output -> inception_5a/output
I1126 19:49:12.585366 19721 net.cpp:150] Setting up inception_5a/output
I1126 19:49:12.585371 19721 net.cpp:157] Top shape: 64 832 7 7 (2609152)
I1126 19:49:12.585374 19721 net.cpp:165] Memory required for data: 3497271816
I1126 19:49:12.585377 19721 layer_factory.hpp:76] Creating layer inception_5a/output_inception_5a/output_0_split
I1126 19:49:12.585383 19721 net.cpp:106] Creating Layer inception_5a/output_inception_5a/output_0_split
I1126 19:49:12.585387 19721 net.cpp:454] inception_5a/output_inception_5a/output_0_split <- inception_5a/output
I1126 19:49:12.585392 19721 net.cpp:411] inception_5a/output_inception_5a/output_0_split -> inception_5a/output_inception_5a/output_0_split_0
I1126 19:49:12.585398 19721 net.cpp:411] inception_5a/output_inception_5a/output_0_split -> inception_5a/output_inception_5a/output_0_split_1
I1126 19:49:12.585403 19721 net.cpp:411] inception_5a/output_inception_5a/output_0_split -> inception_5a/output_inception_5a/output_0_split_2
I1126 19:49:12.585409 19721 net.cpp:411] inception_5a/output_inception_5a/output_0_split -> inception_5a/output_inception_5a/output_0_split_3
I1126 19:49:12.585487 19721 net.cpp:150] Setting up inception_5a/output_inception_5a/output_0_split
I1126 19:49:12.585495 19721 net.cpp:157] Top shape: 64 832 7 7 (2609152)
I1126 19:49:12.585500 19721 net.cpp:157] Top shape: 64 832 7 7 (2609152)
I1126 19:49:12.585503 19721 net.cpp:157] Top shape: 64 832 7 7 (2609152)
I1126 19:49:12.585507 19721 net.cpp:157] Top shape: 64 832 7 7 (2609152)
I1126 19:49:12.585510 19721 net.cpp:165] Memory required for data: 3539018248
I1126 19:49:12.585512 19721 layer_factory.hpp:76] Creating layer inception_5b/1x1
I1126 19:49:12.585521 19721 net.cpp:106] Creating Layer inception_5b/1x1
I1126 19:49:12.585528 19721 net.cpp:454] inception_5b/1x1 <- inception_5a/output_inception_5a/output_0_split_0
I1126 19:49:12.585536 19721 net.cpp:411] inception_5b/1x1 -> inception_5b/1x1
I1126 19:49:12.589100 19721 net.cpp:150] Setting up inception_5b/1x1
I1126 19:49:12.589117 19721 net.cpp:157] Top shape: 64 384 7 7 (1204224)
I1126 19:49:12.589120 19721 net.cpp:165] Memory required for data: 3543835144
I1126 19:49:12.589126 19721 layer_factory.hpp:76] Creating layer inception_5b/relu_1x1
I1126 19:49:12.589133 19721 net.cpp:106] Creating Layer inception_5b/relu_1x1
I1126 19:49:12.589136 19721 net.cpp:454] inception_5b/relu_1x1 <- inception_5b/1x1
I1126 19:49:12.589143 19721 net.cpp:397] inception_5b/relu_1x1 -> inception_5b/1x1 (in-place)
I1126 19:49:12.589478 19721 net.cpp:150] Setting up inception_5b/relu_1x1
I1126 19:49:12.589493 19721 net.cpp:157] Top shape: 64 384 7 7 (1204224)
I1126 19:49:12.589495 19721 net.cpp:165] Memory required for data: 3548652040
I1126 19:49:12.589499 19721 layer_factory.hpp:76] Creating layer inception_5b/3x3_reduce
I1126 19:49:12.589507 19721 net.cpp:106] Creating Layer inception_5b/3x3_reduce
I1126 19:49:12.589512 19721 net.cpp:454] inception_5b/3x3_reduce <- inception_5a/output_inception_5a/output_0_split_1
I1126 19:49:12.589519 19721 net.cpp:411] inception_5b/3x3_reduce -> inception_5b/3x3_reduce
I1126 19:49:12.592128 19721 net.cpp:150] Setting up inception_5b/3x3_reduce
I1126 19:49:12.592144 19721 net.cpp:157] Top shape: 64 192 7 7 (602112)
I1126 19:49:12.592149 19721 net.cpp:165] Memory required for data: 3551060488
I1126 19:49:12.592154 19721 layer_factory.hpp:76] Creating layer inception_5b/relu_3x3_reduce
I1126 19:49:12.592161 19721 net.cpp:106] Creating Layer inception_5b/relu_3x3_reduce
I1126 19:49:12.592166 19721 net.cpp:454] inception_5b/relu_3x3_reduce <- inception_5b/3x3_reduce
I1126 19:49:12.592171 19721 net.cpp:397] inception_5b/relu_3x3_reduce -> inception_5b/3x3_reduce (in-place)
I1126 19:49:12.592357 19721 net.cpp:150] Setting up inception_5b/relu_3x3_reduce
I1126 19:49:12.592368 19721 net.cpp:157] Top shape: 64 192 7 7 (602112)
I1126 19:49:12.592371 19721 net.cpp:165] Memory required for data: 3553468936
I1126 19:49:12.592375 19721 layer_factory.hpp:76] Creating layer inception_5b/3x3
I1126 19:49:12.592385 19721 net.cpp:106] Creating Layer inception_5b/3x3
I1126 19:49:12.592391 19721 net.cpp:454] inception_5b/3x3 <- inception_5b/3x3_reduce
I1126 19:49:12.592396 19721 net.cpp:411] inception_5b/3x3 -> inception_5b/3x3
I1126 19:49:12.598672 19721 net.cpp:150] Setting up inception_5b/3x3
I1126 19:49:12.598690 19721 net.cpp:157] Top shape: 64 384 7 7 (1204224)
I1126 19:49:12.598695 19721 net.cpp:165] Memory required for data: 3558285832
I1126 19:49:12.598701 19721 layer_factory.hpp:76] Creating layer inception_5b/relu_3x3
I1126 19:49:12.598707 19721 net.cpp:106] Creating Layer inception_5b/relu_3x3
I1126 19:49:12.598711 19721 net.cpp:454] inception_5b/relu_3x3 <- inception_5b/3x3
I1126 19:49:12.598716 19721 net.cpp:397] inception_5b/relu_3x3 -> inception_5b/3x3 (in-place)
I1126 19:49:12.599071 19721 net.cpp:150] Setting up inception_5b/relu_3x3
I1126 19:49:12.599089 19721 net.cpp:157] Top shape: 64 384 7 7 (1204224)
I1126 19:49:12.599093 19721 net.cpp:165] Memory required for data: 3563102728
I1126 19:49:12.599097 19721 layer_factory.hpp:76] Creating layer inception_5b/5x5_reduce
I1126 19:49:12.599105 19721 net.cpp:106] Creating Layer inception_5b/5x5_reduce
I1126 19:49:12.599109 19721 net.cpp:454] inception_5b/5x5_reduce <- inception_5a/output_inception_5a/output_0_split_2
I1126 19:49:12.599117 19721 net.cpp:411] inception_5b/5x5_reduce -> inception_5b/5x5_reduce
I1126 19:49:12.600867 19721 net.cpp:150] Setting up inception_5b/5x5_reduce
I1126 19:49:12.600883 19721 net.cpp:157] Top shape: 64 48 7 7 (150528)
I1126 19:49:12.600886 19721 net.cpp:165] Memory required for data: 3563704840
I1126 19:49:12.600893 19721 layer_factory.hpp:76] Creating layer inception_5b/relu_5x5_reduce
I1126 19:49:12.600898 19721 net.cpp:106] Creating Layer inception_5b/relu_5x5_reduce
I1126 19:49:12.600903 19721 net.cpp:454] inception_5b/relu_5x5_reduce <- inception_5b/5x5_reduce
I1126 19:49:12.600908 19721 net.cpp:397] inception_5b/relu_5x5_reduce -> inception_5b/5x5_reduce (in-place)
I1126 19:49:12.601248 19721 net.cpp:150] Setting up inception_5b/relu_5x5_reduce
I1126 19:49:12.601260 19721 net.cpp:157] Top shape: 64 48 7 7 (150528)
I1126 19:49:12.601263 19721 net.cpp:165] Memory required for data: 3564306952
I1126 19:49:12.601268 19721 layer_factory.hpp:76] Creating layer inception_5b/5x5
I1126 19:49:12.601276 19721 net.cpp:106] Creating Layer inception_5b/5x5
I1126 19:49:12.601281 19721 net.cpp:454] inception_5b/5x5 <- inception_5b/5x5_reduce
I1126 19:49:12.601289 19721 net.cpp:411] inception_5b/5x5 -> inception_5b/5x5
I1126 19:49:12.603436 19721 net.cpp:150] Setting up inception_5b/5x5
I1126 19:49:12.603451 19721 net.cpp:157] Top shape: 64 128 7 7 (401408)
I1126 19:49:12.603456 19721 net.cpp:165] Memory required for data: 3565912584
I1126 19:49:12.603461 19721 layer_factory.hpp:76] Creating layer inception_5b/relu_5x5
I1126 19:49:12.603469 19721 net.cpp:106] Creating Layer inception_5b/relu_5x5
I1126 19:49:12.603473 19721 net.cpp:454] inception_5b/relu_5x5 <- inception_5b/5x5
I1126 19:49:12.603482 19721 net.cpp:397] inception_5b/relu_5x5 -> inception_5b/5x5 (in-place)
I1126 19:49:12.603667 19721 net.cpp:150] Setting up inception_5b/relu_5x5
I1126 19:49:12.603679 19721 net.cpp:157] Top shape: 64 128 7 7 (401408)
I1126 19:49:12.603682 19721 net.cpp:165] Memory required for data: 3567518216
I1126 19:49:12.603685 19721 layer_factory.hpp:76] Creating layer inception_5b/pool
I1126 19:49:12.603693 19721 net.cpp:106] Creating Layer inception_5b/pool
I1126 19:49:12.603696 19721 net.cpp:454] inception_5b/pool <- inception_5a/output_inception_5a/output_0_split_3
I1126 19:49:12.603701 19721 net.cpp:411] inception_5b/pool -> inception_5b/pool
I1126 19:49:12.604077 19721 net.cpp:150] Setting up inception_5b/pool
I1126 19:49:12.604091 19721 net.cpp:157] Top shape: 64 832 7 7 (2609152)
I1126 19:49:12.604094 19721 net.cpp:165] Memory required for data: 3577954824
I1126 19:49:12.604099 19721 layer_factory.hpp:76] Creating layer inception_5b/pool_proj
I1126 19:49:12.604107 19721 net.cpp:106] Creating Layer inception_5b/pool_proj
I1126 19:49:12.604111 19721 net.cpp:454] inception_5b/pool_proj <- inception_5b/pool
I1126 19:49:12.604118 19721 net.cpp:411] inception_5b/pool_proj -> inception_5b/pool_proj
I1126 19:49:12.606398 19721 net.cpp:150] Setting up inception_5b/pool_proj
I1126 19:49:12.606412 19721 net.cpp:157] Top shape: 64 128 7 7 (401408)
I1126 19:49:12.606416 19721 net.cpp:165] Memory required for data: 3579560456
I1126 19:49:12.606422 19721 layer_factory.hpp:76] Creating layer inception_5b/relu_pool_proj
I1126 19:49:12.606428 19721 net.cpp:106] Creating Layer inception_5b/relu_pool_proj
I1126 19:49:12.606432 19721 net.cpp:454] inception_5b/relu_pool_proj <- inception_5b/pool_proj
I1126 19:49:12.606439 19721 net.cpp:397] inception_5b/relu_pool_proj -> inception_5b/pool_proj (in-place)
I1126 19:49:12.606624 19721 net.cpp:150] Setting up inception_5b/relu_pool_proj
I1126 19:49:12.606637 19721 net.cpp:157] Top shape: 64 128 7 7 (401408)
I1126 19:49:12.606639 19721 net.cpp:165] Memory required for data: 3581166088
I1126 19:49:12.606643 19721 layer_factory.hpp:76] Creating layer inception_5b/output
I1126 19:49:12.606649 19721 net.cpp:106] Creating Layer inception_5b/output
I1126 19:49:12.606653 19721 net.cpp:454] inception_5b/output <- inception_5b/1x1
I1126 19:49:12.606657 19721 net.cpp:454] inception_5b/output <- inception_5b/3x3
I1126 19:49:12.606662 19721 net.cpp:454] inception_5b/output <- inception_5b/5x5
I1126 19:49:12.606665 19721 net.cpp:454] inception_5b/output <- inception_5b/pool_proj
I1126 19:49:12.606669 19721 net.cpp:411] inception_5b/output -> inception_5b/output
I1126 19:49:12.606711 19721 net.cpp:150] Setting up inception_5b/output
I1126 19:49:12.606719 19721 net.cpp:157] Top shape: 64 1024 7 7 (3211264)
I1126 19:49:12.606721 19721 net.cpp:165] Memory required for data: 3594011144
I1126 19:49:12.606724 19721 layer_factory.hpp:76] Creating layer pool5/7x7_s1
I1126 19:49:12.606731 19721 net.cpp:106] Creating Layer pool5/7x7_s1
I1126 19:49:12.606735 19721 net.cpp:454] pool5/7x7_s1 <- inception_5b/output
I1126 19:49:12.606739 19721 net.cpp:411] pool5/7x7_s1 -> pool5/7x7_s1
I1126 19:49:12.607101 19721 net.cpp:150] Setting up pool5/7x7_s1
I1126 19:49:12.607116 19721 net.cpp:157] Top shape: 64 1024 1 1 (65536)
I1126 19:49:12.607120 19721 net.cpp:165] Memory required for data: 3594273288
I1126 19:49:12.607123 19721 layer_factory.hpp:76] Creating layer pool5/drop_7x7_s1
I1126 19:49:12.607131 19721 net.cpp:106] Creating Layer pool5/drop_7x7_s1
I1126 19:49:12.607134 19721 net.cpp:454] pool5/drop_7x7_s1 <- pool5/7x7_s1
I1126 19:49:12.607139 19721 net.cpp:397] pool5/drop_7x7_s1 -> pool5/7x7_s1 (in-place)
I1126 19:49:12.607177 19721 net.cpp:150] Setting up pool5/drop_7x7_s1
I1126 19:49:12.607183 19721 net.cpp:157] Top shape: 64 1024 1 1 (65536)
I1126 19:49:12.607187 19721 net.cpp:165] Memory required for data: 3594535432
I1126 19:49:12.607189 19721 layer_factory.hpp:76] Creating layer loss3/classifier-attribute
I1126 19:49:12.607195 19721 net.cpp:106] Creating Layer loss3/classifier-attribute
I1126 19:49:12.607198 19721 net.cpp:454] loss3/classifier-attribute <- pool5/7x7_s1
I1126 19:49:12.607206 19721 net.cpp:411] loss3/classifier-attribute -> loss3/classifier-attribute
I1126 19:49:12.684367 19721 net.cpp:150] Setting up loss3/classifier-attribute
I1126 19:49:12.684392 19721 net.cpp:157] Top shape: 64 9999 (639936)
I1126 19:49:12.684396 19721 net.cpp:165] Memory required for data: 3597095176
I1126 19:49:12.684406 19721 layer_factory.hpp:76] Creating layer loss3/loss3
I1126 19:49:12.684414 19721 net.cpp:106] Creating Layer loss3/loss3
I1126 19:49:12.684420 19721 net.cpp:454] loss3/loss3 <- loss3/classifier-attribute
I1126 19:49:12.684427 19721 net.cpp:454] loss3/loss3 <- label_data_1_split_2
I1126 19:49:12.684432 19721 net.cpp:411] loss3/loss3 -> loss3/loss3
…
I1126 19:49:12.696100 19721 net.cpp:322] The NetState phase (1) differed from the phase (0) specified by a rule in layer data
I1126 19:49:12.698405 19721 net.cpp:49] Initializing net from parameters: 
name: "GoogleNet-finetune-for-cigit"
state {
  phase: TEST
}
layer {
  name: "data"
  type: "ImageData"
  top: "data"
  top: "label"
  include {
    phase: TEST
  }
  transform_param {
    mirror: false
    crop_size: 224
    mean_value: 104
    mean_value: 117
    mean_value: 123
  }
  image_data_param {
    source: "pad_test.txt"
    batch_size: 64
    new_height: 256
    new_width: 256
  }
}
layer {
  name: "conv1/7x7_s2"
  type: "Convolution"
  bottom: "data"
  top: "conv1/7x7_s2"
  param {
    lr_mult: 1
    decay_mult: 1
  }
  param {
    lr_mult: 2
    decay_mult: 0
  }
  convolution_param {
    num_output: 64
    pad: 3
    kernel_size: 7
    stride: 2
    weight_filler {
      type: "xavier"
    }
    bias_filler {
      type: "constant"
      value: 0.2
    }
  }
}
layer {
  name: "conv1/relu_7x7"
  type: "ReLU"
  bottom: "conv1/7x7_s2"
  top: "conv1/7x7_s2"
}
layer {
  name: "pool1/3x3_s2"
  type: "Pooling"
  bottom: "conv1/7x7_s2"
  top: "pool1/3x3_s2"
  pooling_param {
    pool: MAX
    kernel_size: 3
    stride: 2
  }
}
layer {
  name: "pool1/norm1"
  type: "LRN"
  bottom: "pool1/3x3_s2"
  top: "pool1/norm1"
  lrn_param {
    local_size: 5
    alpha: 0.0001
    beta: 0.75
  }
}
layer {
  name: "conv2/3x3_reduce"
  type: "Convolution"
  bottom: "pool1/norm1"
  top: "conv2/3x3_reduce"
  param {
    lr_mult: 1
    decay_mult: 1
  }
  param {
    lr_mult: 2
    decay_mult: 0
  }
  convolution_param {
    num_output: 64
    kernel_size: 1
    weight_filler {
      type: "xavier"
    }
    bias_filler {
      type: "constant"
      value: 0.2
    }
  }
}
layer {
  name: "conv2/relu_3x3_reduce"
  type: "ReLU"
  bottom: "conv2/3x3_reduce"
  top: "conv2/3x3_reduce"
}
layer {
  name: "conv2/3x3"
  type: "Convolution"
  bottom: "conv2/3x3_reduce"
  top: "conv2/3x3"
  param {
    lr_mult: 1
    decay_mult: 1
  }
  param {
    lr_mult: 2
    decay_mult: 0
  }
  convolution_param {
    num_output: 192
    pad: 1
    kernel_size: 3
    weight_filler {
      type: "xavier"
    }
    bias_filler {
      type: "constant"
      value: 0.2
    }
  }
}
layer {
  name: "conv2/relu_3x3"
  type: "ReLU"
  bottom: "conv2/3x3"
  top: "conv2/3x3"
}
layer {
  name: "conv2/norm2"
  type: "LRN"
  bottom: "conv2/3x3"
  top: "conv2/norm2"
  lrn_param {
    local_size: 5
    alpha: 0.0001
    beta: 0.75
  }
}
layer {
  name: "pool2/3x3_s2"
  type: "Pooling"
  bottom: "conv2/norm2"
  top: "pool2/3x3_s2"
  pooling_param {
    pool: MAX
    kernel_size: 3
    stride: 2
  }
}
layer {
  name: "inception_3a/1x1"
  type: "Convolution"
  bottom: "pool2/3x3_s2"
  top: "inception_3a/1x1"
  param {
    lr_mult: 1
    decay_mult: 1
  }
  param {
    lr_mult: 2
    decay_mult: 0
  }
  convolution_param {
    num_output: 64
    kernel_size: 1
    weight_filler {
      type: "xavier"
    }
    bias_filler {
      type: "constant"
      value: 0.2
    }
  }
}
layer {
  name: "inception_3a/relu_1x1"
  type: "ReLU"
  bottom: "inception_3a/1x1"
  top: "inception_3a/1x1"
}
layer {
  name: "inception_3a/3x3_reduce"
  type: "Convolution"
  bottom: "pool2/3x3_s2"
  top: "inception_3a/3x3_reduce"
  param {
    lr_mult: 1
    decay_mult: 1
  }
  param {
    lr_mult: 2
    decay_mult: 0
  }
  convolution_param {
    num_output: 96
    kernel_size: 1
    weight_filler {
      type: "xavier"
    }
    bias_filler {
      type: "constant"
      value: 0.2
    }
  }
}
layer {
  name: "inception_3a/relu_3x3_reduce"
  type: "ReLU"
  bottom: "inception_3a/3x3_reduce"
  top: "inception_3a/3x3_reduce"
}
layer {
  name: "inception_3a/3x3"
  type: "Convolution"
  bottom: "inception_3a/3x3_reduce"
  top: "inception_3a/3x3"
  param {
    lr_mult: 1
    decay_mult: 1
  }
  param {
    lr_mult: 2
    decay_mult: 0
  }
  convolution_param {
    num_output: 128
    pad: 1
    kernel_size: 3
    weight_filler {
      type: "xavier"
    }
    bias_filler {
      type: "constant"
      value: 0.2
    }
  }
}
layer {
  name: "inception_3a/relu_3x3"
  type: "ReLU"
  bottom: "inception_3a/3x3"
  top: "inception_3a/3x3"
}
layer {
  name: "inception_3a/5x5_reduce"
  type: "Convolution"
  bottom: "pool2/3x3_s2"
  top: "inception_3a/5x5_reduce"
  param {
    lr_mult: 1
    decay_mult: 1
  }
  param {
    lr_mult: 2
    decay_mult: 0
  }
  convolution_param {
    num_output: 16
    kernel_size: 1
    weight_filler {
      type: "xavier"
    }
    bias_filler {
      type: "constant"
      value: 0.2
    }
  }
}
layer {
  name: "inception_3a/relu_5x5_reduce"
  type: "ReLU"
  bottom: "inception_3a/5x5_reduce"
  top: "inception_3a/5x5_reduce"
}
layer {
  name: "inception_3a/5x5"
  type: "Convolution"
  bottom: "inception_3a/5x5_reduce"
  top: "inception_3a/5x5"
  param {
    lr_mult: 1
    decay_mult: 1
  }
  param {
    lr_mult: 2
    decay_mult: 0
  }
  convolution_param {
    num_output: 32
    pad: 2
    kernel_size: 5
    weight_filler {
      type: "xavier"
    }
    bias_filler {
      type: "constant"
      value: 0.2
    }
  }
}
layer {
  name: "inception_3a/relu_5x5"
  type: "ReLU"
  bottom: "inception_3a/5x5"
  top: "inception_3a/5x5"
}
layer {
  name: "inception_3a/pool"
  type: "Pooling"
  bottom: "pool2/3x3_s2"
  top: "inception_3a/pool"
  pooling_param {
    pool: MAX
    kernel_size: 3
    stride: 1
    pad: 1
  }
}
layer {
  name: "inception_3a/pool_proj"
  type: "Convolution"
  bottom: "inception_3a/pool"
  top: "inception_3a/pool_proj"
  param {
    lr_mult: 1
    decay_mult: 1
  }
  param {
    lr_mult: 2
    decay_mult: 0
  }
  convolution_param {
    num_output: 32
    kernel_size: 1
    weight_filler {
      type: "xavier"
    }
    bias_filler {
      type: "constant"
      value: 0.2
    }
  }
}
layer {
  name: "inception_3a/relu_pool_proj"
  type: "ReLU"
  bottom: "inception_3a/pool_proj"
  top: "inception_3a/pool_proj"
}
layer {
  name: "inception_3a/output"
  type: "Concat"
  bottom: "inception_3a/1x1"
  bottom: "inception_3a/3x3"
  bottom: "inception_3a/5x5"
  bottom: "inception_3a/pool_proj"
  top: "inception_3a/output"
}
layer {
  name: "inception_3b/1x1"
  type: "Convolution"
  bottom: "inception_3a/output"
  top: "inception_3b/1x1"
  param {
    lr_mult: 1
    decay_mult: 1
  }
  param {
    lr_mult: 2
    decay_mult: 0
  }
  convolution_param {
    num_output: 128
    kernel_size: 1
    weight_filler {
      type: "xavier"
    }
    bias_filler {
      type: "constant"
      value: 0.2
    }
  }
}
layer {
  name: "inception_3b/relu_1x1"
  type: "ReLU"
  bottom: "inception_3b/1x1"
  top: "inception_3b/1x1"
}
layer {
  name: "inception_3b/3x3_reduce"
  type: "Convolution"
  bottom: "inception_3a/output"
  top: "inception_3b/3x3_reduce"
  param {
    lr_mult: 1
    decay_mult: 1
  }
  param {
    lr_mult: 2
    decay_mult: 0
  }
  convolution_param {
    num_output: 128
    kernel_size: 1
    weight_filler {
      type: "xavier"
    }
    bias_filler {
      type: "constant"
      value: 0.2
    }
  }
}
layer {
  name: "inception_3b/relu_3x3_reduce"
  type: "ReLU"
  bottom: "inception_3b/3x3_reduce"
  top: "inception_3b/3x3_reduce"
}
layer {
  name: "inception_3b/3x3"
  type: "Convolution"
  bottom: "inception_3b/3x3_reduce"
  top: "inception_3b/3x3"
  param {
    lr_mult: 1
    decay_mult: 1
  }
  param {
    lr_mult: 2
    decay_mult: 0
  }
  convolution_param {
    num_output: 192
    pad: 1
    kernel_size: 3
    weight_filler {
      type: "xavier"
    }
    bias_filler {
      type: "constant"
      value: 0.2
    }
  }
}
layer {
  name: "inception_3b/relu_3x3"
  type: "ReLU"
  bottom: "inception_3b/3x3"
  top: "inception_3b/3x3"
}
layer {
  name: "inception_3b/5x5_reduce"
  type: "Convolution"
  bottom: "inception_3a/output"
  top: "inception_3b/5x5_reduce"
  param {
    lr_mult: 1
    decay_mult: 1
  }
  param {
    lr_mult: 2
    decay_mult: 0
  }
  convolution_param {
    num_output: 32
    kernel_size: 1
    weight_filler {
      type: "xavier"
    }
    bias_filler {
      type: "constant"
      value: 0.2
    }
  }
}
layer {
  name: "inception_3b/relu_5x5_reduce"
  type: "ReLU"
  bottom: "inception_3b/5x5_reduce"
  top: "inception_3b/5x5_reduce"
}
layer {
  name: "inception_3b/5x5"
  type: "Convolution"
  bottom: "inception_3b/5x5_reduce"
  top: "inception_3b/5x5"
  param {
    lr_mult: 1
    decay_mult: 1
  }
  param {
    lr_mult: 2
    decay_mult: 0
  }
  convolution_param {
    num_output: 96
    pad: 2
    kernel_size: 5
    weight_filler {
      type: "xavier"
    }
    bias_filler {
      type: "constant"
      value: 0.2
    }
  }
}
layer {
  name: "inception_3b/relu_5x5"
  type: "ReLU"
  bottom: "inception_3b/5x5"
  top: "inception_3b/5x5"
}
layer {
  name: "inception_3b/pool"
  type: "Pooling"
  bottom: "inception_3a/output"
  top: "inception_3b/pool"
  pooling_param {
    pool: MAX
    kernel_size: 3
    stride: 1
    pad: 1
  }
}
layer {
  name: "inception_3b/pool_proj"
  type: "Convolution"
  bottom: "inception_3b/pool"
  top: "inception_3b/pool_proj"
  param {
    lr_mult: 1
    decay_mult: 1
  }
  param {
    lr_mult: 2
    decay_mult: 0
  }
  convolution_param {
    num_output: 64
    kernel_size: 1
    weight_filler {
      type: "xavier"
    }
    bias_filler {
      type: "constant"
      value: 0.2
    }
  }
}
layer {
  name: "inception_3b/relu_pool_proj"
  type: "ReLU"
  bottom: "inception_3b/pool_proj"
  top: "inception_3b/pool_proj"
}
layer {
  name: "inception_3b/output"
  type: "Concat"
  bottom: "inception_3b/1x1"
  bottom: "inception_3b/3x3"
  bottom: "inception_3b/5x5"
  bottom: "inception_3b/pool_proj"
  top: "inception_3b/output"
}
layer {
  name: "pool3/3x3_s2"
  type: "Pooling"
  bottom: "inception_3b/output"
  top: "pool3/3x3_s2"
  pooling_param {
    pool: MAX
    kernel_size: 3
    stride: 2
  }
}
layer {
  name: "inception_4a/1x1"
  type: "Convolution"
  bottom: "pool3/3x3_s2"
  top: "inception_4a/1x1"
  param {
    lr_mult: 1
    decay_mult: 1
  }
  param {
    lr_mult: 2
    decay_mult: 0
  }
  convolution_param {
    num_output: 192
    kernel_size: 1
    weight_filler {
      type: "xavier"
    }
    bias_filler {
      type: "constant"
      value: 0.2
    }
  }
}
layer {
  name: "inception_4a/relu_1x1"
  type: "ReLU"
  bottom: "inception_4a/1x1"
  top: "inception_4a/1x1"
}
layer {
  name: "inception_4a/3x3_reduce"
  type: "Convolution"
  bottom: "pool3/3x3_s2"
  top: "inception_4a/3x3_reduce"
  param {
    lr_mult: 1
    decay_mult: 1
  }
  param {
    lr_mult: 2
    decay_mult: 0
  }
  convolution_param {
    num_output: 96
    kernel_size: 1
    weight_filler {
      type: "xavier"
    }
    bias_filler {
      type: "constant"
      value: 0.2
    }
  }
}
layer {
  name: "inception_4a/relu_3x3_reduce"
  type: "ReLU"
  bottom: "inception_4a/3x3_reduce"
  top: "inception_4a/3x3_reduce"
}
layer {
  name: "inception_4a/3x3"
  type: "Convolution"
  bottom: "inception_4a/3x3_reduce"
  top: "inception_4a/3x3"
  param {
    lr_mult: 1
    decay_mult: 1
  }
  param {
    lr_mult: 2
    decay_mult: 0
  }
  convolution_param {
    num_output: 208
    pad: 1
    kernel_size: 3
    weight_filler {
      type: "xavier"
    }
    bias_filler {
      type: "constant"
      value: 0.2
    }
  }
}
layer {
  name: "inception_4a/relu_3x3"
  type: "ReLU"
  bottom: "inception_4a/3x3"
  top: "inception_4a/3x3"
}
layer {
  name: "inception_4a/5x5_reduce"
  type: "Convolution"
  bottom: "pool3/3x3_s2"
  top: "inception_4a/5x5_reduce"
  param {
    lr_mult: 1
    decay_mult: 1
  }
  param {
    lr_mult: 2
    decay_mult: 0
  }
  convolution_param {
    num_output: 16
    kernel_size: 1
    weight_filler {
      type: "xavier"
    }
    bias_filler {
      type: "constant"
      value: 0.2
    }
  }
}
layer {
  name: "inception_4a/relu_5x5_reduce"
  type: "ReLU"
  bottom: "inception_4a/5x5_reduce"
  top: "inception_4a/5x5_reduce"
}
layer {
  name: "inception_4a/5x5"
  type: "Convolution"
  bottom: "inception_4a/5x5_reduce"
  top: "inception_4a/5x5"
  param {
    lr_mult: 1
    decay_mult: 1
  }
  param {
    lr_mult: 2
    decay_mult: 0
  }
  convolution_param {
    num_output: 48
    pad: 2
    kernel_size: 5
    weight_filler {
      type: "xavier"
    }
    bias_filler {
      type: "constant"
      value: 0.2
    }
  }
}
layer {
  name: "inception_4a/relu_5x5"
  type: "ReLU"
  bottom: "inception_4a/5x5"
  top: "inception_4a/5x5"
}
layer {
  name: "inception_4a/pool"
  type: "Pooling"
  bottom: "pool3/3x3_s2"
  top: "inception_4a/pool"
  pooling_param {
    pool: MAX
    kernel_size: 3
    stride: 1
    pad: 1
  }
}
layer {
  name: "inception_4a/pool_proj"
  type: "Convolution"
  bottom: "inception_4a/pool"
  top: "inception_4a/pool_proj"
  param {
    lr_mult: 1
    decay_mult: 1
  }
  param {
    lr_mult: 2
    decay_mult: 0
  }
  convolution_param {
    num_output: 64
    kernel_size: 1
    weight_filler {
      type: "xavier"
    }
    bias_filler {
      type: "constant"
      value: 0.2
    }
  }
}
layer {
  name: "inception_4a/relu_pool_proj"
  type: "ReLU"
  bottom: "inception_4a/pool_proj"
  top: "inception_4a/pool_proj"
}
layer {
  name: "inception_4a/output"
  type: "Concat"
  bottom: "inception_4a/1x1"
  bottom: "inception_4a/3x3"
  bottom: "inception_4a/5x5"
  bottom: "inception_4a/pool_proj"
  top: "inception_4a/output"
}
layer {
  name: "loss1/ave_pool"
  type: "Pooling"
  bottom: "inception_4a/output"
  top: "loss1/ave_pool"
  pooling_param {
    pool: AVE
    kernel_size: 5
    stride: 3
  }
}
layer {
  name: "loss1/conv"
  type: "Convolution"
  bottom: "loss1/ave_pool"
  top: "loss1/conv"
  param {
    lr_mult: 1
    decay_mult: 1
  }
  param {
    lr_mult: 2
    decay_mult: 0
  }
  convolution_param {
    num_output: 128
    kernel_size: 1
    weight_filler {
      type: "xavier"
    }
    bias_filler {
      type: "constant"
      value: 0.2
    }
  }
}
layer {
  name: "loss1/relu_conv"
  type: "ReLU"
  bottom: "loss1/conv"
  top: "loss1/conv"
}
layer {
  name: "loss1/fc"
  type: "InnerProduct"
  bottom: "loss1/conv"
  top: "loss1/fc"
  param {
    lr_mult: 1
    decay_mult: 1
  }
  param {
    lr_mult: 2
    decay_mult: 0
  }
…
I1126 19:49:12.990268 19721 net.cpp:106] Creating Layer inception_4c/pool
I1126 19:49:12.990272 19721 net.cpp:454] inception_4c/pool <- inception_4b/output_inception_4b/output_0_split_3
I1126 19:49:12.990278 19721 net.cpp:411] inception_4c/pool -> inception_4c/pool
I1126 19:49:12.990515 19721 net.cpp:150] Setting up inception_4c/pool
I1126 19:49:12.990525 19721 net.cpp:157] Top shape: 64 512 14 14 (6422528)
I1126 19:49:12.990528 19721 net.cpp:165] Memory required for data: 2835919880
I1126 19:49:12.990532 19721 layer_factory.hpp:76] Creating layer inception_4c/pool_proj
I1126 19:49:12.990540 19721 net.cpp:106] Creating Layer inception_4c/pool_proj
I1126 19:49:12.990545 19721 net.cpp:454] inception_4c/pool_proj <- inception_4c/pool
I1126 19:49:12.990550 19721 net.cpp:411] inception_4c/pool_proj -> inception_4c/pool_proj
I1126 19:49:12.991983 19721 net.cpp:150] Setting up inception_4c/pool_proj
I1126 19:49:12.991997 19721 net.cpp:157] Top shape: 64 64 14 14 (802816)
I1126 19:49:12.992000 19721 net.cpp:165] Memory required for data: 2839131144
I1126 19:49:12.992007 19721 layer_factory.hpp:76] Creating layer inception_4c/relu_pool_proj
I1126 19:49:12.992013 19721 net.cpp:106] Creating Layer inception_4c/relu_pool_proj
I1126 19:49:12.992017 19721 net.cpp:454] inception_4c/relu_pool_proj <- inception_4c/pool_proj
I1126 19:49:12.992022 19721 net.cpp:397] inception_4c/relu_pool_proj -> inception_4c/pool_proj (in-place)
I1126 19:49:12.992360 19721 net.cpp:150] Setting up inception_4c/relu_pool_proj
I1126 19:49:12.992372 19721 net.cpp:157] Top shape: 64 64 14 14 (802816)
I1126 19:49:12.992375 19721 net.cpp:165] Memory required for data: 2842342408
I1126 19:49:12.992378 19721 layer_factory.hpp:76] Creating layer inception_4c/output
I1126 19:49:12.992386 19721 net.cpp:106] Creating Layer inception_4c/output
I1126 19:49:12.992390 19721 net.cpp:454] inception_4c/output <- inception_4c/1x1
I1126 19:49:12.992394 19721 net.cpp:454] inception_4c/output <- inception_4c/3x3
I1126 19:49:12.992398 19721 net.cpp:454] inception_4c/output <- inception_4c/5x5
I1126 19:49:12.992403 19721 net.cpp:454] inception_4c/output <- inception_4c/pool_proj
I1126 19:49:12.992406 19721 net.cpp:411] inception_4c/output -> inception_4c/output
I1126 19:49:12.992451 19721 net.cpp:150] Setting up inception_4c/output
I1126 19:49:12.992457 19721 net.cpp:157] Top shape: 64 512 14 14 (6422528)
I1126 19:49:12.992460 19721 net.cpp:165] Memory required for data: 2868032520
I1126 19:49:12.992463 19721 layer_factory.hpp:76] Creating layer inception_4c/output_inception_4c/output_0_split
I1126 19:49:12.992468 19721 net.cpp:106] Creating Layer inception_4c/output_inception_4c/output_0_split
I1126 19:49:12.992472 19721 net.cpp:454] inception_4c/output_inception_4c/output_0_split <- inception_4c/output
I1126 19:49:12.992480 19721 net.cpp:411] inception_4c/output_inception_4c/output_0_split -> inception_4c/output_inception_4c/output_0_split_0
I1126 19:49:12.992486 19721 net.cpp:411] inception_4c/output_inception_4c/output_0_split -> inception_4c/output_inception_4c/output_0_split_1
I1126 19:49:12.992491 19721 net.cpp:411] inception_4c/output_inception_4c/output_0_split -> inception_4c/output_inception_4c/output_0_split_2
I1126 19:49:12.992496 19721 net.cpp:411] inception_4c/output_inception_4c/output_0_split -> inception_4c/output_inception_4c/output_0_split_3
I1126 19:49:12.992589 19721 net.cpp:150] Setting up inception_4c/output_inception_4c/output_0_split
I1126 19:49:12.992599 19721 net.cpp:157] Top shape: 64 512 14 14 (6422528)
I1126 19:49:12.992602 19721 net.cpp:157] Top shape: 64 512 14 14 (6422528)
I1126 19:49:12.992605 19721 net.cpp:157] Top shape: 64 512 14 14 (6422528)
I1126 19:49:12.992609 19721 net.cpp:157] Top shape: 64 512 14 14 (6422528)
I1126 19:49:12.992611 19721 net.cpp:165] Memory required for data: 2970792968
I1126 19:49:12.992614 19721 layer_factory.hpp:76] Creating layer inception_4d/1x1
I1126 19:49:12.992621 19721 net.cpp:106] Creating Layer inception_4d/1x1
I1126 19:49:12.992625 19721 net.cpp:454] inception_4d/1x1 <- inception_4c/output_inception_4c/output_0_split_0
I1126 19:49:12.992662 19721 net.cpp:411] inception_4d/1x1 -> inception_4d/1x1
I1126 19:49:12.994145 19721 net.cpp:150] Setting up inception_4d/1x1
I1126 19:49:12.994160 19721 net.cpp:157] Top shape: 64 112 14 14 (1404928)
I1126 19:49:12.994164 19721 net.cpp:165] Memory required for data: 2976412680
I1126 19:49:12.994170 19721 layer_factory.hpp:76] Creating layer inception_4d/relu_1x1
I1126 19:49:12.994175 19721 net.cpp:106] Creating Layer inception_4d/relu_1x1
I1126 19:49:12.994179 19721 net.cpp:454] inception_4d/relu_1x1 <- inception_4d/1x1
I1126 19:49:12.994184 19721 net.cpp:397] inception_4d/relu_1x1 -> inception_4d/1x1 (in-place)
I1126 19:49:12.994524 19721 net.cpp:150] Setting up inception_4d/relu_1x1
I1126 19:49:12.994539 19721 net.cpp:157] Top shape: 64 112 14 14 (1404928)
I1126 19:49:12.994541 19721 net.cpp:165] Memory required for data: 2982032392
I1126 19:49:12.994544 19721 layer_factory.hpp:76] Creating layer inception_4d/3x3_reduce
I1126 19:49:12.994552 19721 net.cpp:106] Creating Layer inception_4d/3x3_reduce
I1126 19:49:12.994555 19721 net.cpp:454] inception_4d/3x3_reduce <- inception_4c/output_inception_4c/output_0_split_1
I1126 19:49:12.994563 19721 net.cpp:411] inception_4d/3x3_reduce -> inception_4d/3x3_reduce
I1126 19:49:12.996304 19721 net.cpp:150] Setting up inception_4d/3x3_reduce
I1126 19:49:12.996318 19721 net.cpp:157] Top shape: 64 144 14 14 (1806336)
I1126 19:49:12.996322 19721 net.cpp:165] Memory required for data: 2989257736
I1126 19:49:12.996328 19721 layer_factory.hpp:76] Creating layer inception_4d/relu_3x3_reduce
I1126 19:49:12.996335 19721 net.cpp:106] Creating Layer inception_4d/relu_3x3_reduce
I1126 19:49:12.996338 19721 net.cpp:454] inception_4d/relu_3x3_reduce <- inception_4d/3x3_reduce
I1126 19:49:12.996345 19721 net.cpp:397] inception_4d/relu_3x3_reduce -> inception_4d/3x3_reduce (in-place)
I1126 19:49:12.996557 19721 net.cpp:150] Setting up inception_4d/relu_3x3_reduce
I1126 19:49:12.996568 19721 net.cpp:157] Top shape: 64 144 14 14 (1806336)
I1126 19:49:12.996572 19721 net.cpp:165] Memory required for data: 2996483080
I1126 19:49:12.996575 19721 layer_factory.hpp:76] Creating layer inception_4d/3x3
I1126 19:49:12.996583 19721 net.cpp:106] Creating Layer inception_4d/3x3
I1126 19:49:12.996587 19721 net.cpp:454] inception_4d/3x3 <- inception_4d/3x3_reduce
I1126 19:49:12.996595 19721 net.cpp:411] inception_4d/3x3 -> inception_4d/3x3
I1126 19:49:13.000725 19721 net.cpp:150] Setting up inception_4d/3x3
I1126 19:49:13.000740 19721 net.cpp:157] Top shape: 64 288 14 14 (3612672)
I1126 19:49:13.000743 19721 net.cpp:165] Memory required for data: 3010933768
I1126 19:49:13.000749 19721 layer_factory.hpp:76] Creating layer inception_4d/relu_3x3
I1126 19:49:13.000754 19721 net.cpp:106] Creating Layer inception_4d/relu_3x3
I1126 19:49:13.000758 19721 net.cpp:454] inception_4d/relu_3x3 <- inception_4d/3x3
I1126 19:49:13.000764 19721 net.cpp:397] inception_4d/relu_3x3 -> inception_4d/3x3 (in-place)
I1126 19:49:13.001111 19721 net.cpp:150] Setting up inception_4d/relu_3x3
I1126 19:49:13.001126 19721 net.cpp:157] Top shape: 64 288 14 14 (3612672)
I1126 19:49:13.001128 19721 net.cpp:165] Memory required for data: 3025384456
I1126 19:49:13.001132 19721 layer_factory.hpp:76] Creating layer inception_4d/5x5_reduce
I1126 19:49:13.001139 19721 net.cpp:106] Creating Layer inception_4d/5x5_reduce
I1126 19:49:13.001143 19721 net.cpp:454] inception_4d/5x5_reduce <- inception_4c/output_inception_4c/output_0_split_2
I1126 19:49:13.001152 19721 net.cpp:411] inception_4d/5x5_reduce -> inception_4d/5x5_reduce
I1126 19:49:13.002581 19721 net.cpp:150] Setting up inception_4d/5x5_reduce
I1126 19:49:13.002596 19721 net.cpp:157] Top shape: 64 32 14 14 (401408)
I1126 19:49:13.002599 19721 net.cpp:165] Memory required for data: 3026990088
I1126 19:49:13.002605 19721 layer_factory.hpp:76] Creating layer inception_4d/relu_5x5_reduce
I1126 19:49:13.002612 19721 net.cpp:106] Creating Layer inception_4d/relu_5x5_reduce
I1126 19:49:13.002616 19721 net.cpp:454] inception_4d/relu_5x5_reduce <- inception_4d/5x5_reduce
I1126 19:49:13.002622 19721 net.cpp:397] inception_4d/relu_5x5_reduce -> inception_4d/5x5_reduce (in-place)
I1126 19:49:13.002972 19721 net.cpp:150] Setting up inception_4d/relu_5x5_reduce
I1126 19:49:13.002986 19721 net.cpp:157] Top shape: 64 32 14 14 (401408)
I1126 19:49:13.002990 19721 net.cpp:165] Memory required for data: 3028595720
I1126 19:49:13.002992 19721 layer_factory.hpp:76] Creating layer inception_4d/5x5
I1126 19:49:13.003002 19721 net.cpp:106] Creating Layer inception_4d/5x5
I1126 19:49:13.003007 19721 net.cpp:454] inception_4d/5x5 <- inception_4d/5x5_reduce
I1126 19:49:13.003012 19721 net.cpp:411] inception_4d/5x5 -> inception_4d/5x5
I1126 19:49:13.004601 19721 net.cpp:150] Setting up inception_4d/5x5
I1126 19:49:13.004616 19721 net.cpp:157] Top shape: 64 64 14 14 (802816)
I1126 19:49:13.004618 19721 net.cpp:165] Memory required for data: 3031806984
I1126 19:49:13.004624 19721 layer_factory.hpp:76] Creating layer inception_4d/relu_5x5
I1126 19:49:13.004631 19721 net.cpp:106] Creating Layer inception_4d/relu_5x5
I1126 19:49:13.004634 19721 net.cpp:454] inception_4d/relu_5x5 <- inception_4d/5x5
I1126 19:49:13.004639 19721 net.cpp:397] inception_4d/relu_5x5 -> inception_4d/5x5 (in-place)
I1126 19:49:13.004837 19721 net.cpp:150] Setting up inception_4d/relu_5x5
I1126 19:49:13.004848 19721 net.cpp:157] Top shape: 64 64 14 14 (802816)
I1126 19:49:13.004851 19721 net.cpp:165] Memory required for data: 3035018248
I1126 19:49:13.004854 19721 layer_factory.hpp:76] Creating layer inception_4d/pool
I1126 19:49:13.004861 19721 net.cpp:106] Creating Layer inception_4d/pool
I1126 19:49:13.004865 19721 net.cpp:454] inception_4d/pool <- inception_4c/output_inception_4c/output_0_split_3
I1126 19:49:13.004871 19721 net.cpp:411] inception_4d/pool -> inception_4d/pool
I1126 19:49:13.005271 19721 net.cpp:150] Setting up inception_4d/pool
I1126 19:49:13.005285 19721 net.cpp:157] Top shape: 64 512 14 14 (6422528)
I1126 19:49:13.005290 19721 net.cpp:165] Memory required for data: 3060708360
I1126 19:49:13.005292 19721 layer_factory.hpp:76] Creating layer inception_4d/pool_proj
I1126 19:49:13.005300 19721 net.cpp:106] Creating Layer inception_4d/pool_proj
I1126 19:49:13.005303 19721 net.cpp:454] inception_4d/pool_proj <- inception_4d/pool
I1126 19:49:13.005311 19721 net.cpp:411] inception_4d/pool_proj -> inception_4d/pool_proj
I1126 19:49:13.006789 19721 net.cpp:150] Setting up inception_4d/pool_proj
I1126 19:49:13.006813 19721 net.cpp:157] Top shape: 64 64 14 14 (802816)
I1126 19:49:13.006817 19721 net.cpp:165] Memory required for data: 3063919624
I1126 19:49:13.006824 19721 layer_factory.hpp:76] Creating layer inception_4d/relu_pool_proj
I1126 19:49:13.006829 19721 net.cpp:106] Creating Layer inception_4d/relu_pool_proj
I1126 19:49:13.006834 19721 net.cpp:454] inception_4d/relu_pool_proj <- inception_4d/pool_proj
I1126 19:49:13.006839 19721 net.cpp:397] inception_4d/relu_pool_proj -> inception_4d/pool_proj (in-place)
I1126 19:49:13.007036 19721 net.cpp:150] Setting up inception_4d/relu_pool_proj
I1126 19:49:13.007048 19721 net.cpp:157] Top shape: 64 64 14 14 (802816)
I1126 19:49:13.007051 19721 net.cpp:165] Memory required for data: 3067130888
I1126 19:49:13.007055 19721 layer_factory.hpp:76] Creating layer inception_4d/output
I1126 19:49:13.007061 19721 net.cpp:106] Creating Layer inception_4d/output
I1126 19:49:13.007064 19721 net.cpp:454] inception_4d/output <- inception_4d/1x1
I1126 19:49:13.007068 19721 net.cpp:454] inception_4d/output <- inception_4d/3x3
I1126 19:49:13.007072 19721 net.cpp:454] inception_4d/output <- inception_4d/5x5
I1126 19:49:13.007076 19721 net.cpp:454] inception_4d/output <- inception_4d/pool_proj
I1126 19:49:13.007081 19721 net.cpp:411] inception_4d/output -> inception_4d/output
I1126 19:49:13.007125 19721 net.cpp:150] Setting up inception_4d/output
I1126 19:49:13.007134 19721 net.cpp:157] Top shape: 64 528 14 14 (6623232)
I1126 19:49:13.007138 19721 net.cpp:165] Memory required for data: 3093623816
I1126 19:49:13.007139 19721 layer_factory.hpp:76] Creating layer inception_4d/output_inception_4d/output_0_split
I1126 19:49:13.007146 19721 net.cpp:106] Creating Layer inception_4d/output_inception_4d/output_0_split
I1126 19:49:13.007150 19721 net.cpp:454] inception_4d/output_inception_4d/output_0_split <- inception_4d/output
I1126 19:49:13.007155 19721 net.cpp:411] inception_4d/output_inception_4d/output_0_split -> inception_4d/output_inception_4d/output_0_split_0
I1126 19:49:13.007161 19721 net.cpp:411] inception_4d/output_inception_4d/output_0_split -> inception_4d/output_inception_4d/output_0_split_1
I1126 19:49:13.007166 19721 net.cpp:411] inception_4d/output_inception_4d/output_0_split -> inception_4d/output_inception_4d/output_0_split_2
I1126 19:49:13.007172 19721 net.cpp:411] inception_4d/output_inception_4d/output_0_split -> inception_4d/output_inception_4d/output_0_split_3
I1126 19:49:13.007177 19721 net.cpp:411] inception_4d/output_inception_4d/output_0_split -> inception_4d/output_inception_4d/output_0_split_4
I1126 19:49:13.007297 19721 net.cpp:150] Setting up inception_4d/output_inception_4d/output_0_split
I1126 19:49:13.007304 19721 net.cpp:157] Top shape: 64 528 14 14 (6623232)
I1126 19:49:13.007308 19721 net.cpp:157] Top shape: 64 528 14 14 (6623232)
I1126 19:49:13.007311 19721 net.cpp:157] Top shape: 64 528 14 14 (6623232)
I1126 19:49:13.007314 19721 net.cpp:157] Top shape: 64 528 14 14 (6623232)
I1126 19:49:13.007318 19721 net.cpp:157] Top shape: 64 528 14 14 (6623232)
I1126 19:49:13.007320 19721 net.cpp:165] Memory required for data: 3226088456
I1126 19:49:13.007324 19721 layer_factory.hpp:76] Creating layer loss2/ave_pool
I1126 19:49:13.007329 19721 net.cpp:106] Creating Layer loss2/ave_pool
I1126 19:49:13.007333 19721 net.cpp:454] loss2/ave_pool <- inception_4d/output_inception_4d/output_0_split_0
I1126 19:49:13.007339 19721 net.cpp:411] loss2/ave_pool -> loss2/ave_pool
I1126 19:49:13.007719 19721 net.cpp:150] Setting up loss2/ave_pool
I1126 19:49:13.007731 19721 net.cpp:157] Top shape: 64 528 4 4 (540672)
I1126 19:49:13.007735 19721 net.cpp:165] Memory required for data: 3228251144
I1126 19:49:13.007738 19721 layer_factory.hpp:76] Creating layer loss2/conv
I1126 19:49:13.007747 19721 net.cpp:106] Creating Layer loss2/conv
I1126 19:49:13.007751 19721 net.cpp:454] loss2/conv <- loss2/ave_pool
I1126 19:49:13.007758 19721 net.cpp:411] loss2/conv -> loss2/conv
I1126 19:49:13.009749 19721 net.cpp:150] Setting up loss2/conv
I1126 19:49:13.009763 19721 net.cpp:157] Top shape: 64 128 4 4 (131072)
I1126 19:49:13.009768 19721 net.cpp:165] Memory required for data: 3228775432
I1126 19:49:13.009773 19721 layer_factory.hpp:76] Creating layer loss2/relu_conv
I1126 19:49:13.009780 19721 net.cpp:106] Creating Layer loss2/relu_conv
I1126 19:49:13.009784 19721 net.cpp:454] loss2/relu_conv <- loss2/conv
I1126 19:49:13.009789 19721 net.cpp:397] loss2/relu_conv -> loss2/conv (in-place)
I1126 19:49:13.010144 19721 net.cpp:150] Setting up loss2/relu_conv
I1126 19:49:13.010157 19721 net.cpp:157] Top shape: 64 128 4 4 (131072)
I1126 19:49:13.010161 19721 net.cpp:165] Memory required for data: 3229299720
I1126 19:49:13.010165 19721 layer_factory.hpp:76] Creating layer loss2/fc
I1126 19:49:13.010172 19721 net.cpp:106] Creating Layer loss2/fc
I1126 19:49:13.010176 19721 net.cpp:454] loss2/fc <- loss2/conv
I1126 19:49:13.010182 19721 net.cpp:411] loss2/fc -> loss2/fc
I1126 19:49:13.025666 19721 net.cpp:150] Setting up loss2/fc
I1126 19:49:13.025681 19721 net.cpp:157] Top shape: 64 1024 (65536)
I1126 19:49:13.025684 19721 net.cpp:165] Memory required for data: 3229561864
I1126 19:49:13.025691 19721 layer_factory.hpp:76] Creating layer loss2/relu_fc
I1126 19:49:13.025697 19721 net.cpp:106] Creating Layer loss2/relu_fc
I1126 19:49:13.025702 19721 net.cpp:454] loss2/relu_fc <- loss2/fc
I1126 19:49:13.025707 19721 net.cpp:397] loss2/relu_fc -> loss2/fc (in-place)
I1126 19:49:13.025921 19721 net.cpp:150] Setting up loss2/relu_fc
I1126 19:49:13.025933 19721 net.cpp:157] Top shape: 64 1024 (65536)
I1126 19:49:13.025935 19721 net.cpp:165] Memory required for data: 3229824008
I1126 19:49:13.025938 19721 layer_factory.hpp:76] Creating layer loss2/drop_fc
I1126 19:49:13.025945 19721 net.cpp:106] Creating Layer loss2/drop_fc
I1126 19:49:13.025949 19721 net.cpp:454] loss2/drop_fc <- loss2/fc
I1126 19:49:13.025954 19721 net.cpp:397] loss2/drop_fc -> loss2/fc (in-place)
I1126 19:49:13.026000 19721 net.cpp:150] Setting up loss2/drop_fc
I1126 19:49:13.026007 19721 net.cpp:157] Top shape: 64 1024 (65536)
I1126 19:49:13.026010 19721 net.cpp:165] Memory required for data: 3230086152
I1126 19:49:13.026013 19721 layer_factory.hpp:76] Creating layer loss2/classifier-attribute
I1126 19:49:13.026021 19721 net.cpp:106] Creating Layer loss2/classifier-attribute
I1126 19:49:13.026024 19721 net.cpp:454] loss2/classifier-attribute <- loss2/fc
I1126 19:49:13.026031 19721 net.cpp:411] loss2/classifier-attribute -> loss2/classifier-attribute
I1126 19:49:13.103226 19721 net.cpp:150] Setting up loss2/classifier-attribute
I1126 19:49:13.103252 19721 net.cpp:157] Top shape: 64 9999 (639936)
I1126 19:49:13.103255 19721 net.cpp:165] Memory required for data: 3232645896
I1126 19:49:13.103266 19721 layer_factory.hpp:76] Creating layer loss2/classifier-attribute_loss2/classifier-attribute_0_split
I1126 19:49:13.103276 19721 net.cpp:106] Creating Layer loss2/classifier-attribute_loss2/classifier-attribute_0_split
I1126 19:49:13.103283 19721 net.cpp:454] loss2/classifier-attribute_loss2/classifier-attribute_0_split <- loss2/classifier-attribute
I1126 19:49:13.103291 19721 net.cpp:411] loss2/classifier-attribute_loss2/classifier-attribute_0_split -> loss2/classifier-attribute_loss2/classifier-attribute_0_split_0
I1126 19:49:13.103298 19721 net.cpp:411] loss2/classifier-attribute_loss2/classifier-attribute_0_split -> loss2/classifier-attribute_loss2/classifier-attribute_0_split_1
I1126 19:49:13.103373 19721 net.cpp:150] Setting up loss2/classifier-attribute_loss2/classifier-attribute_0_split
I1126 19:49:13.103381 19721 net.cpp:157] Top shape: 64 9999 (639936)
I1126 19:49:13.103385 19721 net.cpp:157] Top shape: 64 9999 (639936)
I1126 19:49:13.103389 19721 net.cpp:165] Memory required for data: 3237765384
I1126 19:49:13.103391 19721 layer_factory.hpp:76] Creating layer loss2/loss
I1126 19:49:13.103397 19721 net.cpp:106] Creating Layer loss2/loss
I1126 19:49:13.103401 19721 net.cpp:454] loss2/loss <- loss2/classifier-attribute_loss2/classifier-attribute_0_split_0
I1126 19:49:13.103405 19721 net.cpp:454] loss2/loss <- label_data_1_split_2
…
I1126 19:49:13.105422 19721 net.cpp:150] Setting up loss2/top-1
I1126 19:49:13.105427 19721 net.cpp:157] Top shape: (1)
I1126 19:49:13.105429 19721 net.cpp:165] Memory required for data: 3237765392
I1126 19:49:13.105432 19721 layer_factory.hpp:76] Creating layer inception_4e/1x1
I1126 19:49:13.105442 19721 net.cpp:106] Creating Layer inception_4e/1x1
I1126 19:49:13.105445 19721 net.cpp:454] inception_4e/1x1 <- inception_4d/output_inception_4d/output_0_split_1
I1126 19:49:13.105453 19721 net.cpp:411] inception_4e/1x1 -> inception_4e/1x1
I1126 19:49:13.107743 19721 net.cpp:150] Setting up inception_4e/1x1
I1126 19:49:13.107758 19721 net.cpp:157] Top shape: 64 256 14 14 (3211264)
I1126 19:49:13.107763 19721 net.cpp:165] Memory required for data: 3250610448
I1126 19:49:13.107769 19721 layer_factory.hpp:76] Creating layer inception_4e/relu_1x1
I1126 19:49:13.107777 19721 net.cpp:106] Creating Layer inception_4e/relu_1x1
I1126 19:49:13.107784 19721 net.cpp:454] inception_4e/relu_1x1 <- inception_4e/1x1
I1126 19:49:13.107789 19721 net.cpp:397] inception_4e/relu_1x1 -> inception_4e/1x1 (in-place)
I1126 19:49:13.108010 19721 net.cpp:150] Setting up inception_4e/relu_1x1
I1126 19:49:13.108021 19721 net.cpp:157] Top shape: 64 256 14 14 (3211264)
I1126 19:49:13.108023 19721 net.cpp:165] Memory required for data: 3263455504
I1126 19:49:13.108027 19721 layer_factory.hpp:76] Creating layer inception_4e/3x3_reduce
I1126 19:49:13.108036 19721 net.cpp:106] Creating Layer inception_4e/3x3_reduce
I1126 19:49:13.108041 19721 net.cpp:454] inception_4e/3x3_reduce <- inception_4d/output_inception_4d/output_0_split_2
I1126 19:49:13.108045 19721 net.cpp:411] inception_4e/3x3_reduce -> inception_4e/3x3_reduce
I1126 19:49:13.110404 19721 net.cpp:150] Setting up inception_4e/3x3_reduce
I1126 19:49:13.110419 19721 net.cpp:157] Top shape: 64 160 14 14 (2007040)
I1126 19:49:13.110424 19721 net.cpp:165] Memory required for data: 3271483664
I1126 19:49:13.110430 19721 layer_factory.hpp:76] Creating layer inception_4e/relu_3x3_reduce
I1126 19:49:13.110436 19721 net.cpp:106] Creating Layer inception_4e/relu_3x3_reduce
I1126 19:49:13.110440 19721 net.cpp:454] inception_4e/relu_3x3_reduce <- inception_4e/3x3_reduce
I1126 19:49:13.110447 19721 net.cpp:397] inception_4e/relu_3x3_reduce -> inception_4e/3x3_reduce (in-place)
I1126 19:49:13.110828 19721 net.cpp:150] Setting up inception_4e/relu_3x3_reduce
I1126 19:49:13.110844 19721 net.cpp:157] Top shape: 64 160 14 14 (2007040)
I1126 19:49:13.110847 19721 net.cpp:165] Memory required for data: 3279511824
I1126 19:49:13.110852 19721 layer_factory.hpp:76] Creating layer inception_4e/3x3
I1126 19:49:13.110877 19721 net.cpp:106] Creating Layer inception_4e/3x3
I1126 19:49:13.110882 19721 net.cpp:454] inception_4e/3x3 <- inception_4e/3x3_reduce
I1126 19:49:13.110888 19721 net.cpp:411] inception_4e/3x3 -> inception_4e/3x3
I1126 19:49:13.115638 19721 net.cpp:150] Setting up inception_4e/3x3
I1126 19:49:13.115653 19721 net.cpp:157] Top shape: 64 320 14 14 (4014080)
I1126 19:49:13.115656 19721 net.cpp:165] Memory required for data: 3295568144
I1126 19:49:13.115664 19721 layer_factory.hpp:76] Creating layer inception_4e/relu_3x3
I1126 19:49:13.115669 19721 net.cpp:106] Creating Layer inception_4e/relu_3x3
I1126 19:49:13.115674 19721 net.cpp:454] inception_4e/relu_3x3 <- inception_4e/3x3
I1126 19:49:13.115680 19721 net.cpp:397] inception_4e/relu_3x3 -> inception_4e/3x3 (in-place)
I1126 19:49:13.116066 19721 net.cpp:150] Setting up inception_4e/relu_3x3
I1126 19:49:13.116080 19721 net.cpp:157] Top shape: 64 320 14 14 (4014080)
I1126 19:49:13.116083 19721 net.cpp:165] Memory required for data: 3311624464
I1126 19:49:13.116087 19721 layer_factory.hpp:76] Creating layer inception_4e/5x5_reduce
I1126 19:49:13.116096 19721 net.cpp:106] Creating Layer inception_4e/5x5_reduce
I1126 19:49:13.116101 19721 net.cpp:454] inception_4e/5x5_reduce <- inception_4d/output_inception_4d/output_0_split_3
I1126 19:49:13.116109 19721 net.cpp:411] inception_4e/5x5_reduce -> inception_4e/5x5_reduce
I1126 19:49:13.117750 19721 net.cpp:150] Setting up inception_4e/5x5_reduce
I1126 19:49:13.117766 19721 net.cpp:157] Top shape: 64 32 14 14 (401408)
I1126 19:49:13.117769 19721 net.cpp:165] Memory required for data: 3313230096
I1126 19:49:13.117776 19721 layer_factory.hpp:76] Creating layer inception_4e/relu_5x5_reduce
I1126 19:49:13.117782 19721 net.cpp:106] Creating Layer inception_4e/relu_5x5_reduce
I1126 19:49:13.117786 19721 net.cpp:454] inception_4e/relu_5x5_reduce <- inception_4e/5x5_reduce
I1126 19:49:13.117792 19721 net.cpp:397] inception_4e/relu_5x5_reduce -> inception_4e/5x5_reduce (in-place)
I1126 19:49:13.118016 19721 net.cpp:150] Setting up inception_4e/relu_5x5_reduce
I1126 19:49:13.118027 19721 net.cpp:157] Top shape: 64 32 14 14 (401408)
I1126 19:49:13.118031 19721 net.cpp:165] Memory required for data: 3314835728
I1126 19:49:13.118034 19721 layer_factory.hpp:76] Creating layer inception_4e/5x5
I1126 19:49:13.118043 19721 net.cpp:106] Creating Layer inception_4e/5x5
I1126 19:49:13.118047 19721 net.cpp:454] inception_4e/5x5 <- inception_4e/5x5_reduce
I1126 19:49:13.118054 19721 net.cpp:411] inception_4e/5x5 -> inception_4e/5x5
I1126 19:49:13.120072 19721 net.cpp:150] Setting up inception_4e/5x5
I1126 19:49:13.120090 19721 net.cpp:157] Top shape: 64 128 14 14 (1605632)
I1126 19:49:13.120095 19721 net.cpp:165] Memory required for data: 3321258256
I1126 19:49:13.120101 19721 layer_factory.hpp:76] Creating layer inception_4e/relu_5x5
I1126 19:49:13.120106 19721 net.cpp:106] Creating Layer inception_4e/relu_5x5
I1126 19:49:13.120110 19721 net.cpp:454] inception_4e/relu_5x5 <- inception_4e/5x5
I1126 19:49:13.120115 19721 net.cpp:397] inception_4e/relu_5x5 -> inception_4e/5x5 (in-place)
I1126 19:49:13.120508 19721 net.cpp:150] Setting up inception_4e/relu_5x5
I1126 19:49:13.120524 19721 net.cpp:157] Top shape: 64 128 14 14 (1605632)
I1126 19:49:13.120527 19721 net.cpp:165] Memory required for data: 3327680784
I1126 19:49:13.120532 19721 layer_factory.hpp:76] Creating layer inception_4e/pool
I1126 19:49:13.120538 19721 net.cpp:106] Creating Layer inception_4e/pool
I1126 19:49:13.120543 19721 net.cpp:454] inception_4e/pool <- inception_4d/output_inception_4d/output_0_split_4
I1126 19:49:13.120548 19721 net.cpp:411] inception_4e/pool -> inception_4e/pool
I1126 19:49:13.120820 19721 net.cpp:150] Setting up inception_4e/pool
I1126 19:49:13.120831 19721 net.cpp:157] Top shape: 64 528 14 14 (6623232)
I1126 19:49:13.120836 19721 net.cpp:165] Memory required for data: 3354173712
I1126 19:49:13.120838 19721 layer_factory.hpp:76] Creating layer inception_4e/pool_proj
I1126 19:49:13.120847 19721 net.cpp:106] Creating Layer inception_4e/pool_proj
I1126 19:49:13.120851 19721 net.cpp:454] inception_4e/pool_proj <- inception_4e/pool
I1126 19:49:13.120858 19721 net.cpp:411] inception_4e/pool_proj -> inception_4e/pool_proj
I1126 19:49:13.122695 19721 net.cpp:150] Setting up inception_4e/pool_proj
I1126 19:49:13.122710 19721 net.cpp:157] Top shape: 64 128 14 14 (1605632)
I1126 19:49:13.122714 19721 net.cpp:165] Memory required for data: 3360596240
I1126 19:49:13.122720 19721 layer_factory.hpp:76] Creating layer inception_4e/relu_pool_proj
I1126 19:49:13.122726 19721 net.cpp:106] Creating Layer inception_4e/relu_pool_proj
I1126 19:49:13.122730 19721 net.cpp:454] inception_4e/relu_pool_proj <- inception_4e/pool_proj
I1126 19:49:13.122736 19721 net.cpp:397] inception_4e/relu_pool_proj -> inception_4e/pool_proj (in-place)
I1126 19:49:13.123111 19721 net.cpp:150] Setting up inception_4e/relu_pool_proj
I1126 19:49:13.123126 19721 net.cpp:157] Top shape: 64 128 14 14 (1605632)
I1126 19:49:13.123129 19721 net.cpp:165] Memory required for data: 3367018768
I1126 19:49:13.123132 19721 layer_factory.hpp:76] Creating layer inception_4e/output
I1126 19:49:13.123139 19721 net.cpp:106] Creating Layer inception_4e/output
I1126 19:49:13.123142 19721 net.cpp:454] inception_4e/output <- inception_4e/1x1
I1126 19:49:13.123147 19721 net.cpp:454] inception_4e/output <- inception_4e/3x3
I1126 19:49:13.123152 19721 net.cpp:454] inception_4e/output <- inception_4e/5x5
I1126 19:49:13.123155 19721 net.cpp:454] inception_4e/output <- inception_4e/pool_proj
I1126 19:49:13.123162 19721 net.cpp:411] inception_4e/output -> inception_4e/output
I1126 19:49:13.123219 19721 net.cpp:150] Setting up inception_4e/output
I1126 19:49:13.123225 19721 net.cpp:157] Top shape: 64 832 14 14 (10436608)
I1126 19:49:13.123229 19721 net.cpp:165] Memory required for data: 3408765200
I1126 19:49:13.123231 19721 layer_factory.hpp:76] Creating layer pool4/3x3_s2
I1126 19:49:13.123237 19721 net.cpp:106] Creating Layer pool4/3x3_s2
I1126 19:49:13.123241 19721 net.cpp:454] pool4/3x3_s2 <- inception_4e/output
I1126 19:49:13.123246 19721 net.cpp:411] pool4/3x3_s2 -> pool4/3x3_s2
I1126 19:49:13.123518 19721 net.cpp:150] Setting up pool4/3x3_s2
I1126 19:49:13.123530 19721 net.cpp:157] Top shape: 64 832 7 7 (2609152)
I1126 19:49:13.123533 19721 net.cpp:165] Memory required for data: 3419201808
I1126 19:49:13.123536 19721 layer_factory.hpp:76] Creating layer pool4/3x3_s2_pool4/3x3_s2_0_split
I1126 19:49:13.123544 19721 net.cpp:106] Creating Layer pool4/3x3_s2_pool4/3x3_s2_0_split
I1126 19:49:13.123548 19721 net.cpp:454] pool4/3x3_s2_pool4/3x3_s2_0_split <- pool4/3x3_s2
I1126 19:49:13.123553 19721 net.cpp:411] pool4/3x3_s2_pool4/3x3_s2_0_split -> pool4/3x3_s2_pool4/3x3_s2_0_split_0
I1126 19:49:13.123558 19721 net.cpp:411] pool4/3x3_s2_pool4/3x3_s2_0_split -> pool4/3x3_s2_pool4/3x3_s2_0_split_1
I1126 19:49:13.123564 19721 net.cpp:411] pool4/3x3_s2_pool4/3x3_s2_0_split -> pool4/3x3_s2_pool4/3x3_s2_0_split_2
I1126 19:49:13.123569 19721 net.cpp:411] pool4/3x3_s2_pool4/3x3_s2_0_split -> pool4/3x3_s2_pool4/3x3_s2_0_split_3
I1126 19:49:13.123680 19721 net.cpp:150] Setting up pool4/3x3_s2_pool4/3x3_s2_0_split
I1126 19:49:13.123689 19721 net.cpp:157] Top shape: 64 832 7 7 (2609152)
I1126 19:49:13.123692 19721 net.cpp:157] Top shape: 64 832 7 7 (2609152)
I1126 19:49:13.123697 19721 net.cpp:157] Top shape: 64 832 7 7 (2609152)
I1126 19:49:13.123699 19721 net.cpp:157] Top shape: 64 832 7 7 (2609152)
I1126 19:49:13.123703 19721 net.cpp:165] Memory required for data: 3460948240
I1126 19:49:13.123705 19721 layer_factory.hpp:76] Creating layer inception_5a/1x1
I1126 19:49:13.123713 19721 net.cpp:106] Creating Layer inception_5a/1x1
I1126 19:49:13.123718 19721 net.cpp:454] inception_5a/1x1 <- pool4/3x3_s2_pool4/3x3_s2_0_split_0
I1126 19:49:13.123724 19721 net.cpp:411] inception_5a/1x1 -> inception_5a/1x1
I1126 19:49:13.126945 19721 net.cpp:150] Setting up inception_5a/1x1
I1126 19:49:13.126960 19721 net.cpp:157] Top shape: 64 256 7 7 (802816)
I1126 19:49:13.126965 19721 net.cpp:165] Memory required for data: 3464159504
I1126 19:49:13.126971 19721 layer_factory.hpp:76] Creating layer inception_5a/relu_1x1
I1126 19:49:13.126981 19721 net.cpp:106] Creating Layer inception_5a/relu_1x1
I1126 19:49:13.126986 19721 net.cpp:454] inception_5a/relu_1x1 <- inception_5a/1x1
I1126 19:49:13.126991 19721 net.cpp:397] inception_5a/relu_1x1 -> inception_5a/1x1 (in-place)
I1126 19:49:13.127203 19721 net.cpp:150] Setting up inception_5a/relu_1x1
I1126 19:49:13.127215 19721 net.cpp:157] Top shape: 64 256 7 7 (802816)
I1126 19:49:13.127218 19721 net.cpp:165] Memory required for data: 3467370768
I1126 19:49:13.127223 19721 layer_factory.hpp:76] Creating layer inception_5a/3x3_reduce
I1126 19:49:13.127231 19721 net.cpp:106] Creating Layer inception_5a/3x3_reduce
I1126 19:49:13.127235 19721 net.cpp:454] inception_5a/3x3_reduce <- pool4/3x3_s2_pool4/3x3_s2_0_split_1
I1126 19:49:13.127243 19721 net.cpp:411] inception_5a/3x3_reduce -> inception_5a/3x3_reduce
I1126 19:49:13.130034 19721 net.cpp:150] Setting up inception_5a/3x3_reduce
I1126 19:49:13.130049 19721 net.cpp:157] Top shape: 64 160 7 7 (501760)
I1126 19:49:13.130053 19721 net.cpp:165] Memory required for data: 3469377808
I1126 19:49:13.130060 19721 layer_factory.hpp:76] Creating layer inception_5a/relu_3x3_reduce
I1126 19:49:13.130066 19721 net.cpp:106] Creating Layer inception_5a/relu_3x3_reduce
I1126 19:49:13.130071 19721 net.cpp:454] inception_5a/relu_3x3_reduce <- inception_5a/3x3_reduce
I1126 19:49:13.130077 19721 net.cpp:397] inception_5a/relu_3x3_reduce -> inception_5a/3x3_reduce (in-place)
I1126 19:49:13.130452 19721 net.cpp:150] Setting up inception_5a/relu_3x3_reduce
I1126 19:49:13.130465 19721 net.cpp:157] Top shape: 64 160 7 7 (501760)
I1126 19:49:13.130470 19721 net.cpp:165] Memory required for data: 3471384848
I1126 19:49:13.130472 19721 layer_factory.hpp:76] Creating layer inception_5a/3x3
I1126 19:49:13.130482 19721 net.cpp:106] Creating Layer inception_5a/3x3
I1126 19:49:13.130486 19721 net.cpp:454] inception_5a/3x3 <- inception_5a/3x3_reduce
I1126 19:49:13.130492 19721 net.cpp:411] inception_5a/3x3 -> inception_5a/3x3
I1126 19:49:13.135484 19721 net.cpp:150] Setting up inception_5a/3x3
I1126 19:49:13.135500 19721 net.cpp:157] Top shape: 64 320 7 7 (1003520)
I1126 19:49:13.135504 19721 net.cpp:165] Memory required for data: 3475398928
I1126 19:49:13.135511 19721 layer_factory.hpp:76] Creating layer inception_5a/relu_3x3
I1126 19:49:13.135516 19721 net.cpp:106] Creating Layer inception_5a/relu_3x3
I1126 19:49:13.135521 19721 net.cpp:454] inception_5a/relu_3x3 <- inception_5a/3x3
I1126 19:49:13.135527 19721 net.cpp:397] inception_5a/relu_3x3 -> inception_5a/3x3 (in-place)
I1126 19:49:13.135735 19721 net.cpp:150] Setting up inception_5a/relu_3x3
I1126 19:49:13.135746 19721 net.cpp:157] Top shape: 64 320 7 7 (1003520)
I1126 19:49:13.135751 19721 net.cpp:165] Memory required for data: 3479413008
I1126 19:49:13.135753 19721 layer_factory.hpp:76] Creating layer inception_5a/5x5_reduce
I1126 19:49:13.135762 19721 net.cpp:106] Creating Layer inception_5a/5x5_reduce
I1126 19:49:13.135766 19721 net.cpp:454] inception_5a/5x5_reduce <- pool4/3x3_s2_pool4/3x3_s2_0_split_2
I1126 19:49:13.135774 19721 net.cpp:411] inception_5a/5x5_reduce -> inception_5a/5x5_reduce
I1126 19:49:13.137795 19721 net.cpp:150] Setting up inception_5a/5x5_reduce
I1126 19:49:13.137810 19721 net.cpp:157] Top shape: 64 32 7 7 (100352)
I1126 19:49:13.137814 19721 net.cpp:165] Memory required for data: 3479814416
I1126 19:49:13.137821 19721 layer_factory.hpp:76] Creating layer inception_5a/relu_5x5_reduce
I1126 19:49:13.137827 19721 net.cpp:106] Creating Layer inception_5a/relu_5x5_reduce
I1126 19:49:13.137831 19721 net.cpp:454] inception_5a/relu_5x5_reduce <- inception_5a/5x5_reduce
I1126 19:49:13.137838 19721 net.cpp:397] inception_5a/relu_5x5_reduce -> inception_5a/5x5_reduce (in-place)
I1126 19:49:13.138052 19721 net.cpp:150] Setting up inception_5a/relu_5x5_reduce
I1126 19:49:13.138064 19721 net.cpp:157] Top shape: 64 32 7 7 (100352)
I1126 19:49:13.138067 19721 net.cpp:165] Memory required for data: 3480215824
I1126 19:49:13.138072 19721 layer_factory.hpp:76] Creating layer inception_5a/5x5
I1126 19:49:13.138079 19721 net.cpp:106] Creating Layer inception_5a/5x5
I1126 19:49:13.138087 19721 net.cpp:454] inception_5a/5x5 <- inception_5a/5x5_reduce
I1126 19:49:13.138094 19721 net.cpp:411] inception_5a/5x5 -> inception_5a/5x5
I1126 19:49:13.140297 19721 net.cpp:150] Setting up inception_5a/5x5
I1126 19:49:13.140313 19721 net.cpp:157] Top shape: 64 128 7 7 (401408)
I1126 19:49:13.140317 19721 net.cpp:165] Memory required for data: 3481821456
I1126 19:49:13.140323 19721 layer_factory.hpp:76] Creating layer inception_5a/relu_5x5
I1126 19:49:13.140331 19721 net.cpp:106] Creating Layer inception_5a/relu_5x5
I1126 19:49:13.140334 19721 net.cpp:454] inception_5a/relu_5x5 <- inception_5a/5x5
I1126 19:49:13.140341 19721 net.cpp:397] inception_5a/relu_5x5 -> inception_5a/5x5 (in-place)
I1126 19:49:13.140725 19721 net.cpp:150] Setting up inception_5a/relu_5x5
I1126 19:49:13.140740 19721 net.cpp:157] Top shape: 64 128 7 7 (401408)
I1126 19:49:13.140743 19721 net.cpp:165] Memory required for data: 3483427088
I1126 19:49:13.140746 19721 layer_factory.hpp:76] Creating layer inception_5a/pool
I1126 19:49:13.140753 19721 net.cpp:106] Creating Layer inception_5a/pool
I1126 19:49:13.140758 19721 net.cpp:454] inception_5a/pool <- pool4/3x3_s2_pool4/3x3_s2_0_split_3
I1126 19:49:13.140764 19721 net.cpp:411] inception_5a/pool -> inception_5a/pool
I1126 19:49:13.141083 19721 net.cpp:150] Setting up inception_5a/pool
I1126 19:49:13.141096 19721 net.cpp:157] Top shape: 64 832 7 7 (2609152)
I1126 19:49:13.141099 19721 net.cpp:165] Memory required for data: 3493863696
I1126 19:49:13.141103 19721 layer_factory.hpp:76] Creating layer inception_5a/pool_proj
I1126 19:49:13.141113 19721 net.cpp:106] Creating Layer inception_5a/pool_proj
I1126 19:49:13.141116 19721 net.cpp:454] inception_5a/pool_proj <- inception_5a/pool
I1126 19:49:13.141124 19721 net.cpp:411] inception_5a/pool_proj -> inception_5a/pool_proj
I1126 19:49:13.143641 19721 net.cpp:150] Setting up inception_5a/pool_proj
I1126 19:49:13.143656 19721 net.cpp:157] Top shape: 64 128 7 7 (401408)
I1126 19:49:13.143661 19721 net.cpp:165] Memory required for data: 3495469328
I1126 19:49:13.143666 19721 layer_factory.hpp:76] Creating layer inception_5a/relu_pool_proj
I1126 19:49:13.143672 19721 net.cpp:106] Creating Layer inception_5a/relu_pool_proj
I1126 19:49:13.143677 19721 net.cpp:454] inception_5a/relu_pool_proj <- inception_5a/pool_proj
I1126 19:49:13.143683 19721 net.cpp:397] inception_5a/relu_pool_proj -> inception_5a/pool_proj (in-place)
I1126 19:49:13.144059 19721 net.cpp:150] Setting up inception_5a/relu_pool_proj
I1126 19:49:13.144073 19721 net.cpp:157] Top shape: 64 128 7 7 (401408)
I1126 19:49:13.144076 19721 net.cpp:165] Memory required for data: 3497074960
I1126 19:49:13.144079 19721 layer_factory.hpp:76] Creating layer inception_5a/output
I1126 19:49:13.144085 19721 net.cpp:106] Creating Layer inception_5a/output
I1126 19:49:13.144089 19721 net.cpp:454] inception_5a/output <- inception_5a/1x1
I1126 19:49:13.144094 19721 net.cpp:454] inception_5a/output <- inception_5a/3x3
I1126 19:49:13.144098 19721 net.cpp:454] inception_5a/output <- inception_5a/5x5
I1126 19:49:13.144103 19721 net.cpp:454] inception_5a/output <- inception_5a/pool_proj
I1126 19:49:13.144110 19721 net.cpp:411] inception_5a/output -> inception_5a/output
I1126 19:49:13.144167 19721 net.cpp:150] Setting up inception_5a/output
I1126 19:49:13.144173 19721 net.cpp:157] Top shape: 64 832 7 7 (2609152)
I1126 19:49:13.144176 19721 net.cpp:165] Memory required for data: 3507511568
I1126 19:49:13.144179 19721 layer_factory.hpp:76] Creating layer inception_5a/output_inception_5a/output_0_split
I1126 19:49:13.144186 19721 net.cpp:106] Creating Layer inception_5a/output_inception_5a/output_0_split
I1126 19:49:13.144189 19721 net.cpp:454] inception_5a/output_inception_5a/output_0_split <- inception_5a/output
I1126 19:49:13.144194 19721 net.cpp:411] inception_5a/output_inception_5a/output_0_split -> inception_5a/output_inception_5a/output_0_split_0
I1126 19:49:13.144202 19721 net.cpp:411] inception_5a/output_inception_5a/output_0_split -> inception_5a/output_inception_5a/output_0_split_1
I1126 19:49:13.144207 19721 net.cpp:411] inception_5a/output_inception_5a/output_0_split -> inception_5a/output_inception_5a/output_0_split_2
I1126 19:49:13.144213 19721 net.cpp:411] inception_5a/output_inception_5a/output_0_split -> inception_5a/output_inception_5a/output_0_split_3
I1126 19:49:13.144333 19721 net.cpp:150] Setting up inception_5a/output_inception_5a/output_0_split
I1126 19:49:13.144342 19721 net.cpp:157] Top shape: 64 832 7 7 (2609152)
I1126 19:49:13.144346 19721 net.cpp:157] Top shape: 64 832 7 7 (2609152)
I1126 19:49:13.144350 19721 net.cpp:157] Top shape: 64 832 7 7 (2609152)
I1126 19:49:13.144352 19721 net.cpp:157] Top shape: 64 832 7 7 (2609152)
I1126 19:49:13.144356 19721 net.cpp:165] Memory required for data: 3549258000
I1126 19:49:13.144358 19721 layer_factory.hpp:76] Creating layer inception_5b/1x1
I1126 19:49:13.144367 19721 net.cpp:106] Creating Layer inception_5b/1x1
I1126 19:49:13.144372 19721 net.cpp:454] inception_5b/1x1 <- inception_5a/output_inception_5a/output_0_split_0
I1126 19:49:13.144378 19721 net.cpp:411] inception_5b/1x1 -> inception_5b/1x1
I1126 19:49:13.148159 19721 net.cpp:150] Setting up inception_5b/1x1
I1126 19:49:13.148175 19721 net.cpp:157] Top shape: 64 384 7 7 (1204224)
I1126 19:49:13.148178 19721 net.cpp:165] Memory required for data: 3554074896
I1126 19:49:13.148185 19721 layer_factory.hpp:76] Creating layer inception_5b/relu_1x1
I1126 19:49:13.148192 19721 net.cpp:106] Creating Layer inception_5b/relu_1x1
I1126 19:49:13.148196 19721 net.cpp:454] inception_5b/relu_1x1 <- inception_5b/1x1
I1126 19:49:13.148201 19721 net.cpp:397] inception_5b/relu_1x1 -> inception_5b/1x1 (in-place)
I1126 19:49:13.148578 19721 net.cpp:150] Setting up inception_5b/relu_1x1
I1126 19:49:13.148594 19721 net.cpp:157] Top shape: 64 384 7 7 (1204224)
I1126 19:49:13.148597 19721 net.cpp:165] Memory required for data: 3558891792
I1126 19:49:13.148602 19721 layer_factory.hpp:76] Creating layer inception_5b/3x3_reduce
I1126 19:49:13.148609 19721 net.cpp:106] Creating Layer inception_5b/3x3_reduce
I1126 19:49:13.148613 19721 net.cpp:454] inception_5b/3x3_reduce <- inception_5a/output_inception_5a/output_0_split_1
I1126 19:49:13.148622 19721 net.cpp:411] inception_5b/3x3_reduce -> inception_5b/3x3_reduce
I1126 19:49:13.151516 19721 net.cpp:150] Setting up inception_5b/3x3_reduce
I1126 19:49:13.151533 19721 net.cpp:157] Top shape: 64 192 7 7 (602112)
I1126 19:49:13.151537 19721 net.cpp:165] Memory required for data: 3561300240
I1126 19:49:13.151543 19721 layer_factory.hpp:76] Creating layer inception_5b/relu_3x3_reduce
I1126 19:49:13.151549 19721 net.cpp:106] Creating Layer inception_5b/relu_3x3_reduce
I1126 19:49:13.151554 19721 net.cpp:454] inception_5b/relu_3x3_reduce <- inception_5b/3x3_reduce
I1126 19:49:13.151561 19721 net.cpp:397] inception_5b/relu_3x3_reduce -> inception_5b/3x3_reduce (in-place)
I1126 19:49:13.151773 19721 net.cpp:150] Setting up inception_5b/relu_3x3_reduce
I1126 19:49:13.151785 19721 net.cpp:157] Top shape: 64 192 7 7 (602112)
I1126 19:49:13.151788 19721 net.cpp:165] Memory required for data: 3563708688
I1126 19:49:13.151792 19721 layer_factory.hpp:76] Creating layer inception_5b/3x3
I1126 19:49:13.151800 19721 net.cpp:106] Creating Layer inception_5b/3x3
I1126 19:49:13.151804 19721 net.cpp:454] inception_5b/3x3 <- inception_5b/3x3_reduce
I1126 19:49:13.151811 19721 net.cpp:411] inception_5b/3x3 -> inception_5b/3x3
I1126 19:49:13.158319 19721 net.cpp:150] Setting up inception_5b/3x3
I1126 19:49:13.158334 19721 net.cpp:157] Top shape: 64 384 7 7 (1204224)
I1126 19:49:13.158339 19721 net.cpp:165] Memory required for data: 3568525584
I1126 19:49:13.158344 19721 layer_factory.hpp:76] Creating layer inception_5b/relu_3x3
I1126 19:49:13.158351 19721 net.cpp:106] Creating Layer inception_5b/relu_3x3
I1126 19:49:13.158356 19721 net.cpp:454] inception_5b/relu_3x3 <- inception_5b/3x3
I1126 19:49:13.158361 19721 net.cpp:397] inception_5b/relu_3x3 -> inception_5b/3x3 (in-place)
I1126 19:49:13.158751 19721 net.cpp:150] Setting up inception_5b/relu_3x3
I1126 19:49:13.158766 19721 net.cpp:157] Top shape: 64 384 7 7 (1204224)
I1126 19:49:13.158768 19721 net.cpp:165] Memory required for data: 3573342480
I1126 19:49:13.158771 19721 layer_factory.hpp:76] Creating layer inception_5b/5x5_reduce
I1126 19:49:13.158782 19721 net.cpp:106] Creating Layer inception_5b/5x5_reduce
I1126 19:49:13.158785 19721 net.cpp:454] inception_5b/5x5_reduce <- inception_5a/output_inception_5a/output_0_split_2
I1126 19:49:13.158794 19721 net.cpp:411] inception_5b/5x5_reduce -> inception_5b/5x5_reduce
I1126 19:49:13.160801 19721 net.cpp:150] Setting up inception_5b/5x5_reduce
I1126 19:49:13.160817 19721 net.cpp:157] Top shape: 64 48 7 7 (150528)
I1126 19:49:13.160821 19721 net.cpp:165] Memory required for data: 3573944592
I1126 19:49:13.160828 19721 layer_factory.hpp:76] Creating layer inception_5b/relu_5x5_reduce
I1126 19:49:13.160835 19721 net.cpp:106] Creating Layer inception_5b/relu_5x5_reduce
I1126 19:49:13.160838 19721 net.cpp:454] inception_5b/relu_5x5_reduce <- inception_5b/5x5_reduce
I1126 19:49:13.160845 19721 net.cpp:397] inception_5b/relu_5x5_reduce -> inception_5b/5x5_reduce (in-place)
I1126 19:49:13.161252 19721 net.cpp:150] Setting up inception_5b/relu_5x5_reduce
I1126 19:49:13.161267 19721 net.cpp:157] Top shape: 64 48 7 7 (150528)
I1126 19:49:13.161270 19721 net.cpp:165] Memory required for data: 3574546704
I1126 19:49:13.161274 19721 layer_factory.hpp:76] Creating layer inception_5b/5x5
I1126 19:49:13.161283 19721 net.cpp:106] Creating Layer inception_5b/5x5
I1126 19:49:13.161286 19721 net.cpp:454] inception_5b/5x5 <- inception_5b/5x5_reduce
I1126 19:49:13.161294 19721 net.cpp:411] inception_5b/5x5 -> inception_5b/5x5
I1126 19:49:13.163506 19721 net.cpp:150] Setting up inception_5b/5x5
I1126 19:49:13.163521 19721 net.cpp:157] Top shape: 64 128 7 7 (401408)
I1126 19:49:13.163524 19721 net.cpp:165] Memory required for data: 3576152336
I1126 19:49:13.163530 19721 layer_factory.hpp:76] Creating layer inception_5b/relu_5x5
I1126 19:49:13.163538 19721 net.cpp:106] Creating Layer inception_5b/relu_5x5
I1126 19:49:13.163542 19721 net.cpp:454] inception_5b/relu_5x5 <- inception_5b/5x5
I1126 19:49:13.163548 19721 net.cpp:397] inception_5b/relu_5x5 -> inception_5b/5x5 (in-place)
I1126 19:49:13.163772 19721 net.cpp:150] Setting up inception_5b/relu_5x5
I1126 19:49:13.163784 19721 net.cpp:157] Top shape: 64 128 7 7 (401408)
I1126 19:49:13.163787 19721 net.cpp:165] Memory required for data: 3577757968
I1126 19:49:13.163790 19721 layer_factory.hpp:76] Creating layer inception_5b/pool
I1126 19:49:13.163796 19721 net.cpp:106] Creating Layer inception_5b/pool
I1126 19:49:13.163800 19721 net.cpp:454] inception_5b/pool <- inception_5a/output_inception_5a/output_0_split_3
I1126 19:49:13.163807 19721 net.cpp:411] inception_5b/pool -> inception_5b/pool
I1126 19:49:13.164242 19721 net.cpp:150] Setting up inception_5b/pool
I1126 19:49:13.164254 19721 net.cpp:157] Top shape: 64 832 7 7 (2609152)
I1126 19:49:13.164258 19721 net.cpp:165] Memory required for data: 3588194576
I1126 19:49:13.164261 19721 layer_factory.hpp:76] Creating layer inception_5b/pool_proj
I1126 19:49:13.164271 19721 net.cpp:106] Creating Layer inception_5b/pool_proj
I1126 19:49:13.164275 19721 net.cpp:454] inception_5b/pool_proj <- inception_5b/pool
I1126 19:49:13.164283 19721 net.cpp:411] inception_5b/pool_proj -> inception_5b/pool_proj
I1126 19:49:13.166625 19721 net.cpp:150] Setting up inception_5b/pool_proj
I1126 19:49:13.166642 19721 net.cpp:157] Top shape: 64 128 7 7 (401408)
I1126 19:49:13.166646 19721 net.cpp:165] Memory required for data: 3589800208
I1126 19:49:13.166652 19721 layer_factory.hpp:76] Creating layer inception_5b/relu_pool_proj
I1126 19:49:13.166658 19721 net.cpp:106] Creating Layer inception_5b/relu_pool_proj
I1126 19:49:13.166662 19721 net.cpp:454] inception_5b/relu_pool_proj <- inception_5b/pool_proj
I1126 19:49:13.166668 19721 net.cpp:397] inception_5b/relu_pool_proj -> inception_5b/pool_proj (in-place)
I1126 19:49:13.166893 19721 net.cpp:150] Setting up inception_5b/relu_pool_proj
I1126 19:49:13.166904 19721 net.cpp:157] Top shape: 64 128 7 7 (401408)
I1126 19:49:13.166908 19721 net.cpp:165] Memory required for data: 3591405840
I1126 19:49:13.166911 19721 layer_factory.hpp:76] Creating layer inception_5b/output
I1126 19:49:13.166919 19721 net.cpp:106] Creating Layer inception_5b/output
I1126 19:49:13.166923 19721 net.cpp:454] inception_5b/output <- inception_5b/1x1
I1126 19:49:13.166928 19721 net.cpp:454] inception_5b/output <- inception_5b/3x3
I1126 19:49:13.166931 19721 net.cpp:454] inception_5b/output <- inception_5b/5x5
I1126 19:49:13.166935 19721 net.cpp:454] inception_5b/output <- inception_5b/pool_proj
I1126 19:49:13.166940 19721 net.cpp:411] inception_5b/output -> inception_5b/output
I1126 19:49:13.166970 19721 net.cpp:150] Setting up inception_5b/output
I1126 19:49:13.166975 19721 net.cpp:157] Top shape: 64 1024 7 7 (3211264)
I1126 19:49:13.166978 19721 net.cpp:165] Memory required for data: 3604250896
I1126 19:49:13.166981 19721 layer_factory.hpp:76] Creating layer pool5/7x7_s1
I1126 19:49:13.166988 19721 net.cpp:106] Creating Layer pool5/7x7_s1
I1126 19:49:13.166992 19721 net.cpp:454] pool5/7x7_s1 <- inception_5b/output
I1126 19:49:13.166997 19721 net.cpp:411] pool5/7x7_s1 -> pool5/7x7_s1
I1126 19:49:13.167527 19721 net.cpp:150] Setting up pool5/7x7_s1
I1126 19:49:13.167541 19721 net.cpp:157] Top shape: 64 1024 1 1 (65536)
I1126 19:49:13.167546 19721 net.cpp:165] Memory required for data: 3604513040
I1126 19:49:13.167548 19721 layer_factory.hpp:76] Creating layer pool5/drop_7x7_s1
I1126 19:49:13.167557 19721 net.cpp:106] Creating Layer pool5/drop_7x7_s1
I1126 19:49:13.167562 19721 net.cpp:454] pool5/drop_7x7_s1 <- pool5/7x7_s1
I1126 19:49:13.167565 19721 net.cpp:397] pool5/drop_7x7_s1 -> pool5/7x7_s1 (in-place)
I1126 19:49:13.167593 19721 net.cpp:150] Setting up pool5/drop_7x7_s1
I1126 19:49:13.167598 19721 net.cpp:157] Top shape: 64 1024 1 1 (65536)
I1126 19:49:13.167600 19721 net.cpp:165] Memory required for data: 3604775184
I1126 19:49:13.167603 19721 layer_factory.hpp:76] Creating layer loss3/classifier-attribute
I1126 19:49:13.167610 19721 net.cpp:106] Creating Layer loss3/classifier-attribute
I1126 19:49:13.167613 19721 net.cpp:454] loss3/classifier-attribute <- pool5/7x7_s1
I1126 19:49:13.167620 19721 net.cpp:411] loss3/classifier-attribute -> loss3/classifier-attribute
I1126 19:49:13.245250 19721 net.cpp:150] Setting up loss3/classifier-attribute
I1126 19:49:13.245275 19721 net.cpp:157] Top shape: 64 9999 (639936)
I1126 19:49:13.245280 19721 net.cpp:165] Memory required for data: 3607334928
I1126 19:49:13.245288 19721 layer_factory.hpp:76] Creating layer loss3/classifier-attribute_loss3/classifier-attribute_0_split
I1126 19:49:13.245297 19721 net.cpp:106] Creating Layer loss3/classifier-attribute_loss3/classifier-attribute_0_split
I1126 19:49:13.245304 19721 net.cpp:454] loss3/classifier-attribute_loss3/classifier-attribute_0_split <- loss3/classifier-attribute
I1126 19:49:13.245311 19721 net.cpp:411] loss3/classifier-attribute_loss3/classifier-attribute_0_split -> loss3/classifier-attribute_loss3/classifier-attribute_0_split_0
I1126 19:49:13.245319 19721 net.cpp:411] loss3/classifier-attribute_loss3/classifier-attribute_0_split -> loss3/classifier-attribute_loss3/classifier-attribute_0_split_1
I1126 19:49:13.245358 19721 net.cpp:150] Setting up loss3/classifier-attribute_loss3/classifier-attribute_0_split
I1126 19:49:13.245363 19721 net.cpp:157] Top shape: 64 9999 (639936)
I1126 19:49:13.245368 19721 net.cpp:157] Top shape: 64 9999 (639936)
I1126 19:49:13.245370 19721 net.cpp:165] Memory required for data: 3612454416
I1126 19:49:13.245373 19721 layer_factory.hpp:76] Creating layer loss3/loss3
I1126 19:49:13.245379 19721 net.cpp:106] Creating Layer loss3/loss3
I1126 19:49:13.245383 19721 net.cpp:454] loss3/loss3 <- loss3/classifier-attribute_loss3/classifier-attribute_0_split_0
I1126 19:49:13.245388 19721 net.cpp:454] loss3/loss3 <- label_data_1_split_4
…
