…
I1126 12:30:31.990079 19057 net.cpp:322] The NetState phase (0) differed from the phase (1) specified by a rule in layer loss3/top-1
I1126 12:30:31.992182 19057 net.cpp:49] Initializing net from parameters: 
name: "GoogleNet-finetune-for-cigit"
state {
  phase: TRAIN
}
layer {
  name: "data"
  type: "ImageData"
  top: "data"
  top: "label"
  include {
    phase: TRAIN
  }
  transform_param {
    mirror: true
    crop_size: 224
    mean_value: 104
    mean_value: 117
    mean_value: 123
  }
  image_data_param {
    source: "pad_train.txt"
    batch_size: 64
    shuffle: true
    new_height: 256
    new_width: 256
  }
}
layer {
  name: "conv1/7x7_s2"
  type: "Convolution"
  bottom: "data"
  top: "conv1/7x7_s2"
  param {
    lr_mult: 1
    decay_mult: 1
  }
  param {
    lr_mult: 2
    decay_mult: 0
  }
  convolution_param {
    num_output: 64
    pad: 3
    kernel_size: 7
    stride: 2
    weight_filler {
      type: "xavier"
    }
    bias_filler {
      type: "constant"
      value: 0.2
    }
  }
}
layer {
  name: "conv1/relu_7x7"
  type: "ReLU"
  bottom: "conv1/7x7_s2"
  top: "conv1/7x7_s2"
}
layer {
  name: "pool1/3x3_s2"
  type: "Pooling"
  bottom: "conv1/7x7_s2"
  top: "pool1/3x3_s2"
  pooling_param {
    pool: MAX
    kernel_size: 3
    stride: 2
  }
}
layer {
  name: "pool1/norm1"
  type: "LRN"
  bottom: "pool1/3x3_s2"
  top: "pool1/norm1"
  lrn_param {
    local_size: 5
    alpha: 0.0001
    beta: 0.75
  }
}
layer {
  name: "conv2/3x3_reduce"
  type: "Convolution"
  bottom: "pool1/norm1"
  top: "conv2/3x3_reduce"
  param {
    lr_mult: 1
    decay_mult: 1
  }
  param {
    lr_mult: 2
    decay_mult: 0
  }
  convolution_param {
    num_output: 64
    kernel_size: 1
    weight_filler {
      type: "xavier"
    }
    bias_filler {
      type: "constant"
      value: 0.2
    }
  }
}
layer {
  name: "conv2/relu_3x3_reduce"
  type: "ReLU"
  bottom: "conv2/3x3_reduce"
  top: "conv2/3x3_reduce"
}
layer {
  name: "conv2/3x3"
  type: "Convolution"
  bottom: "conv2/3x3_reduce"
  top: "conv2/3x3"
  param {
    lr_mult: 1
    decay_mult: 1
  }
  param {
    lr_mult: 2
    decay_mult: 0
  }
  convolution_param {
    num_output: 192
    pad: 1
    kernel_size: 3
    weight_filler {
      type: "xavier"
    }
    bias_filler {
      type: "constant"
      value: 0.2
    }
  }
}
layer {
  name: "conv2/relu_3x3"
  type: "ReLU"
  bottom: "conv2/3x3"
  top: "conv2/3x3"
}
layer {
  name: "conv2/norm2"
  type: "LRN"
  bottom: "conv2/3x3"
  top: "conv2/norm2"
  lrn_param {
    local_size: 5
    alpha: 0.0001
    beta: 0.75
  }
}
layer {
  name: "pool2/3x3_s2"
  type: "Pooling"
  bottom: "conv2/norm2"
  top: "pool2/3x3_s2"
  pooling_param {
    pool: MAX
    kernel_size: 3
    stride: 2
  }
}
layer {
  name: "inception_3a/1x1"
  type: "Convolution"
  bottom: "pool2/3x3_s2"
  top: "inception_3a/1x1"
  param {
    lr_mult: 1
    decay_mult: 1
  }
  param {
    lr_mult: 2
    decay_mult: 0
  }
  convolution_param {
    num_output: 64
    kernel_size: 1
    weight_filler {
      type: "xavier"
    }
    bias_filler {
      type: "constant"
      value: 0.2
    }
  }
}
layer {
  name: "inception_3a/relu_1x1"
  type: "ReLU"
  bottom: "inception_3a/1x1"
  top: "inception_3a/1x1"
}
layer {
  name: "inception_3a/3x3_reduce"
  type: "Convolution"
  bottom: "pool2/3x3_s2"
  top: "inception_3a/3x3_reduce"
  param {
    lr_mult: 1
    decay_mult: 1
  }
  param {
    lr_mult: 2
    decay_mult: 0
  }
  convolution_param {
    num_output: 96
    kernel_size: 1
    weight_filler {
      type: "xavier"
    }
    bias_filler {
      type: "constant"
      value: 0.2
    }
  }
}
layer {
  name: "inception_3a/relu_3x3_reduce"
  type: "ReLU"
  bottom: "inception_3a/3x3_reduce"
  top: "inception_3a/3x3_reduce"
}
layer {
  name: "inception_3a/3x3"
  type: "Convolution"
  bottom: "inception_3a/3x3_reduce"
  top: "inception_3a/3x3"
  param {
    lr_mult: 1
    decay_mult: 1
  }
  param {
    lr_mult: 2
    decay_mult: 0
  }
  convolution_param {
    num_output: 128
    pad: 1
    kernel_size: 3
    weight_filler {
      type: "xavier"
    }
    bias_filler {
      type: "constant"
      value: 0.2
    }
  }
}
layer {
  name: "inception_3a/relu_3x3"
  type: "ReLU"
  bottom: "inception_3a/3x3"
  top: "inception_3a/3x3"
}
layer {
  name: "inception_3a/5x5_reduce"
  type: "Convolution"
  bottom: "pool2/3x3_s2"
  top: "inception_3a/5x5_reduce"
  param {
    lr_mult: 1
    decay_mult: 1
  }
  param {
    lr_mult: 2
    decay_mult: 0
  }
  convolution_param {
    num_output: 16
    kernel_size: 1
    weight_filler {
      type: "xavier"
    }
    bias_filler {
      type: "constant"
      value: 0.2
    }
  }
}
layer {
  name: "inception_3a/relu_5x5_reduce"
  type: "ReLU"
  bottom: "inception_3a/5x5_reduce"
  top: "inception_3a/5x5_reduce"
}
layer {
  name: "inception_3a/5x5"
  type: "Convolution"
  bottom: "inception_3a/5x5_reduce"
  top: "inception_3a/5x5"
  param {
    lr_mult: 1
    decay_mult: 1
  }
  param {
    lr_mult: 2
    decay_mult: 0
  }
  convolution_param {
    num_output: 32
    pad: 2
    kernel_size: 5
    weight_filler {
      type: "xavier"
    }
    bias_filler {
      type: "constant"
      value: 0.2
    }
  }
}
layer {
  name: "inception_3a/relu_5x5"
  type: "ReLU"
  bottom: "inception_3a/5x5"
  top: "inception_3a/5x5"
}
layer {
  name: "inception_3a/pool"
  type: "Pooling"
  bottom: "pool2/3x3_s2"
  top: "inception_3a/pool"
  pooling_param {
    pool: MAX
    kernel_size: 3
    stride: 1
    pad: 1
  }
}
layer {
  name: "inception_3a/pool_proj"
  type: "Convolution"
  bottom: "inception_3a/pool"
  top: "inception_3a/pool_proj"
  param {
    lr_mult: 1
    decay_mult: 1
  }
  param {
    lr_mult: 2
    decay_mult: 0
  }
  convolution_param {
    num_output: 32
    kernel_size: 1
    weight_filler {
      type: "xavier"
    }
    bias_filler {
      type: "constant"
      value: 0.2
    }
  }
}
layer {
  name: "inception_3a/relu_pool_proj"
  type: "ReLU"
  bottom: "inception_3a/pool_proj"
  top: "inception_3a/pool_proj"
}
layer {
  name: "inception_3a/output"
  type: "Concat"
  bottom: "inception_3a/1x1"
  bottom: "inception_3a/3x3"
  bottom: "inception_3a/5x5"
  bottom: "inception_3a/pool_proj"
  top: "inception_3a/output"
}
layer {
  name: "inception_3b/1x1"
  type: "Convolution"
  bottom: "inception_3a/output"
  top: "inception_3b/1x1"
  param {
    lr_mult: 1
    decay_mult: 1
  }
  param {
    lr_mult: 2
    decay_mult: 0
  }
  convolution_param {
    num_output: 128
    kernel_size: 1
    weight_filler {
      type: "xavier"
    }
    bias_filler {
      type: "constant"
      value: 0.2
    }
  }
}
layer {
  name: "inception_3b/relu_1x1"
  type: "ReLU"
  bottom: "inception_3b/1x1"
  top: "inception_3b/1x1"
}
layer {
  name: "inception_3b/3x3_reduce"
  type: "Convolution"
  bottom: "inception_3a/output"
  top: "inception_3b/3x3_reduce"
  param {
    lr_mult: 1
    decay_mult: 1
  }
  param {
    lr_mult: 2
    decay_mult: 0
  }
  convolution_param {
    num_output: 128
    kernel_size: 1
    weight_filler {
      type: "xavier"
    }
    bias_filler {
      type: "constant"
      value: 0.2
    }
  }
}
layer {
  name: "inception_3b/relu_3x3_reduce"
  type: "ReLU"
  bottom: "inception_3b/3x3_reduce"
  top: "inception_3b/3x3_reduce"
}
layer {
  name: "inception_3b/3x3"
  type: "Convolution"
  bottom: "inception_3b/3x3_reduce"
  top: "inception_3b/3x3"
  param {
    lr_mult: 1
    decay_mult: 1
  }
  param {
    lr_mult: 2
    decay_mult: 0
  }
  convolution_param {
    num_output: 192
    pad: 1
    kernel_size: 3
    weight_filler {
      type: "xavier"
    }
    bias_filler {
      type: "constant"
      value: 0.2
    }
  }
}
layer {
  name: "inception_3b/relu_3x3"
  type: "ReLU"
  bottom: "inception_3b/3x3"
  top: "inception_3b/3x3"
}
layer {
  name: "inception_3b/5x5_reduce"
  type: "Convolution"
  bottom: "inception_3a/output"
  top: "inception_3b/5x5_reduce"
  param {
    lr_mult: 1
    decay_mult: 1
  }
  param {
    lr_mult: 2
    decay_mult: 0
  }
  convolution_param {
    num_output: 32
    kernel_size: 1
    weight_filler {
      type: "xavier"
    }
    bias_filler {
      type: "constant"
      value: 0.2
    }
  }
}
layer {
  name: "inception_3b/relu_5x5_reduce"
  type: "ReLU"
  bottom: "inception_3b/5x5_reduce"
  top: "inception_3b/5x5_reduce"
}
layer {
  name: "inception_3b/5x5"
  type: "Convolution"
  bottom: "inception_3b/5x5_reduce"
  top: "inception_3b/5x5"
  param {
    lr_mult: 1
    decay_mult: 1
  }
  param {
    lr_mult: 2
    decay_mult: 0
  }
  convolution_param {
    num_output: 96
    pad: 2
    kernel_size: 5
    weight_filler {
      type: "xavier"
    }
    bias_filler {
      type: "constant"
      value: 0.2
    }
  }
}
layer {
  name: "inception_3b/relu_5x5"
  type: "ReLU"
  bottom: "inception_3b/5x5"
  top: "inception_3b/5x5"
}
layer {
  name: "inception_3b/pool"
  type: "Pooling"
  bottom: "inception_3a/output"
  top: "inception_3b/pool"
  pooling_param {
    pool: MAX
    kernel_size: 3
    stride: 1
    pad: 1
  }
}
layer {
  name: "inception_3b/pool_proj"
  type: "Convolution"
  bottom: "inception_3b/pool"
  top: "inception_3b/pool_proj"
  param {
    lr_mult: 1
    decay_mult: 1
  }
  param {
    lr_mult: 2
    decay_mult: 0
  }
  convolution_param {
    num_output: 64
    kernel_size: 1
    weight_filler {
      type: "xavier"
    }
    bias_filler {
      type: "constant"
      value: 0.2
    }
  }
}
layer {
  name: "inception_3b/relu_pool_proj"
  type: "ReLU"
  bottom: "inception_3b/pool_proj"
  top: "inception_3b/pool_proj"
}
layer {
  name: "inception_3b/output"
  type: "Concat"
  bottom: "inception_3b/1x1"
  bottom: "inception_3b/3x3"
  bottom: "inception_3b/5x5"
  bottom: "inception_3b/pool_proj"
  top: "inception_3b/output"
}
layer {
  name: "pool3/3x3_s2"
  type: "Pooling"
  bottom: "inception_3b/output"
  top: "pool3/3x3_s2"
  pooling_param {
    pool: MAX
    kernel_size: 3
    stride: 2
  }
}
layer {
  name: "inception_4a/1x1"
  type: "Convolution"
  bottom: "pool3/3x3_s2"
  top: "inception_4a/1x1"
  param {
    lr_mult: 1
    decay_mult: 1
  }
  param {
    lr_mult: 2
    decay_mult: 0
  }
  convolution_param {
    num_output: 192
    kernel_size: 1
    weight_filler {
      type: "xavier"
    }
    bias_filler {
      type: "constant"
      value: 0.2
    }
  }
}
layer {
  name: "inception_4a/relu_1x1"
  type: "ReLU"
  bottom: "inception_4a/1x1"
  top: "inception_4a/1x1"
}
layer {
  name: "inception_4a/3x3_reduce"
  type: "Convolution"
  bottom: "pool3/3x3_s2"
  top: "inception_4a/3x3_reduce"
  param {
    lr_mult: 1
    decay_mult: 1
  }
  param {
    lr_mult: 2
    decay_mult: 0
  }
  convolution_param {
    num_output: 96
    kernel_size: 1
    weight_filler {
      type: "xavier"
    }
    bias_filler {
      type: "constant"
      value: 0.2
    }
  }
}
layer {
  name: "inception_4a/relu_3x3_reduce"
  type: "ReLU"
  bottom: "inception_4a/3x3_reduce"
  top: "inception_4a/3x3_reduce"
}
layer {
  name: "inception_4a/3x3"
  type: "Convolution"
  bottom: "inception_4a/3x3_reduce"
  top: "inception_4a/3x3"
  param {
    lr_mult: 1
    decay_mult: 1
  }
  param {
    lr_mult: 2
    decay_mult: 0
  }
  convolution_param {
    num_output: 208
    pad: 1
    kernel_size: 3
    weight_filler {
      type: "xavier"
    }
    bias_filler {
      type: "constant"
      value: 0.2
    }
  }
}
layer {
  name: "inception_4a/relu_3x3"
  type: "ReLU"
  bottom: "inception_4a/3x3"
  top: "inception_4a/3x3"
}
layer {
  name: "inception_4a/5x5_reduce"
  type: "Convolution"
  bottom: "pool3/3x3_s2"
  top: "inception_4a/5x5_reduce"
  param {
    lr_mult: 1
    decay_mult: 1
  }
  param {
    lr_mult: 2
    decay_mult: 0
  }
  convolution_param {
    num_output: 16
    kernel_size: 1
    weight_filler {
      type: "xavier"
    }
    bias_filler {
      type: "constant"
      value: 0.2
    }
  }
}
layer {
  name: "inception_4a/relu_5x5_reduce"
  type: "ReLU"
  bottom: "inception_4a/5x5_reduce"
  top: "inception_4a/5x5_reduce"
}
layer {
  name: "inception_4a/5x5"
  type: "Convolution"
  bottom: "inception_4a/5x5_reduce"
  top: "inception_4a/5x5"
  param {
    lr_mult: 1
    decay_mult: 1
  }
  param {
    lr_mult: 2
    decay_mult: 0
  }
  convolution_param {
    num_output: 48
    pad: 2
    kernel_size: 5
    weight_filler {
      type: "xavier"
    }
    bias_filler {
      type: "constant"
      value: 0.2
    }
  }
}
layer {
  name: "inception_4a/relu_5x5"
  type: "ReLU"
  bottom: "inception_4a/5x5"
  top: "inception_4a/5x5"
}
layer {
  name: "inception_4a/pool"
  type: "Pooling"
  bottom: "pool3/3x3_s2"
  top: "inception_4a/pool"
  pooling_param {
    pool: MAX
    kernel_size: 3
    stride: 1
    pad: 1
  }
}
layer {
  name: "inception_4a/pool_proj"
  type: "Convolution"
  bottom: "inception_4a/pool"
  top: "inception_4a/pool_proj"
  param {
    lr_mult: 1
    decay_mult: 1
  }
  param {
    lr_mult: 2
    decay_mult: 0
  }
  convolution_param {
    num_output: 64
    kernel_size: 1
    weight_filler {
      type: "xavier"
    }
    bias_filler {
      type: "constant"
      value: 0.2
    }
  }
}
layer {
  name: "inception_4a/relu_pool_proj"
  type: "ReLU"
  bottom: "inception_4a/pool_proj"
  top: "inception_4a/pool_proj"
}
layer {
  name: "inception_4a/output"
  type: "Concat"
  bottom: "inception_4a/1x1"
  bottom: "inception_4a/3x3"
  bottom: "inception_4a/5x5"
  bottom: "inception_4a/pool_proj"
  top: "inception_4a/output"
}
layer {
  name: "loss1/ave_pool"
  type: "Pooling"
  bottom: "inception_4a/output"
  top: "loss1/ave_pool"
  pooling_param {
    pool: AVE
    kernel_size: 5
    stride: 3
  }
}
layer {
  name: "loss1/conv"
  type: "Convolution"
  bottom: "loss1/ave_pool"
  top: "loss1/conv"
  param {
    lr_mult: 1
    decay_mult: 1
  }
  param {
    lr_mult: 2
    decay_mult: 0
  }
  convolution_param {
    num_output: 128
    kernel_size: 1
    weight_filler {
      type: "xavier"
    }
    bias_filler {
      type: "constant"
      value: 0.2
    }
  }
}
layer {
  name: "loss1/relu_conv"
  type: "ReLU"
  bottom: "loss1/conv"
  top: "loss1/conv"
}
layer {
  name: "loss1/fc"
  type: "InnerProduct"
  bottom: "loss1/conv"
  top: "loss1/fc"
  param {
    lr_mult: 1
    decay_mult: 1
  }
  param {
    lr_mult: 2
    decay_mult: 0
  }
  inner_product_param {
    num_output: 1024
    weight_filler {
      type: "xavier"
    }
    bias_filler {
      type: "constant"
      value: 0.2
    }
  }
}
layer {
  name: "loss1/relu_fc"
  type: "ReLU"
  bottom: "loss1/fc"
  top: "loss1/fc"
}
layer {
  name: "loss1/drop_fc"
  type: "Dropout"
  bottom: "loss1/fc"
  top: "loss1/fc"
  dropout_param {
    dropout_ratio: 0.7
  }
}
layer {
  name: "loss1/classifier-attribute"
  type: "InnerProduct"
  bottom: "loss1/fc"
  top: "loss1/classifier-attribute"
  param {
    lr_mult: 10
    decay_mult: 1
  }
  param {
    lr_mult: 20
    decay_mult: 0
  }
  inner_product_param {
    num_output: 6
    weight_filler {
      type: "xavier"
    }
    bias_filler {
      type: "constant"
      value: 0
    }
  }
}
layer {
  name: "loss1/loss"
  type: "SoftmaxWithLoss"
  bottom: "loss1/classifier-attribute"
  bottom: "label"
  top: "loss1/loss1"
  loss_weight: 0.3
}
layer {
  name: "inception_4b/1x1"
  type: "Convolution"
  bottom: "inception_4a/output"
  top: "inception_4b/1x1"
  param {
    lr_mult: 1
    decay_mult: 1
  }
  param {
    lr_mult: 2
    decay_mult: 0
  }
  convolution_param {
    num_output: 160
    kernel_size: 1
    weight_filler {
      type: "xavier"
    }
    bias_filler {
      type: "constant"
      value: 0.2
    }
  }
}
layer {
  name: "inception_4b/relu_1x1"
  type: "ReLU"
  bottom: "inception_4b/1x1"
  top: "inception_4b/1x1"
}
layer {
  name: "inception_4b/3x3_reduce"
  type: "Convolution"
  bottom: "inception_4a/output"
  top: "inception_4b/3x3_reduce"
  param {
    lr_mult: 1
    decay_mult: 1
  }
  param {
    lr_mult: 2
    decay_mult: 0
  }
  convolution_param {
    num_output: 112
    kernel_size: 1
    weight_filler {
      type: "xavier"
    }
    bias_filler {
      type: "constant"
      value: 0.2
    }
  }
}
layer {
  name: "inception_4b/relu_3x3_reduce"
  type: "ReLU"
  bottom: "inception_4b/3x3_reduce"
  top: "inception_4b/3x3_reduce"
}
layer {
  name: "inception_4b/3x3"
  type: "Convolution"
  bottom: "inception_4b/3x3_reduce"
  top: "inception_4b/3x3"
  param {
    lr_mult: 1
    decay_mult: 1
  }
  param {
    lr_mult: 2
    decay_mult: 0
  }
  convolution_param {
    num_output: 224
    pad: 1
    kernel_size: 3
    weight_filler {
      type: "xavier"
    }
    bias_filler {
      type: "constant"
      value: 0.2
    }
  }
}
layer {
  name: "inception_4b/relu_3x3"
  type: "ReLU"
  bottom: "inception_4b/3x3"
  top: "inception_4b/3x3"
}
layer {
  name: "inception_4b/5x5_reduce"
  type: "Convolution"
  bottom: "inception_4a/output"
  top: "inception_4b/5x5_reduce"
  param {
    lr_mult: 1
    decay_mult: 1
  }
  param {
    lr_mult: 2
    decay_mult: 0
  }
  convolution_param {
    num_output: 24
    kernel_size: 1
    weight_filler {
      type: "xavier"
    }
    bias_filler {
      type: "constant"
      value: 0.2
    }
  }
}
layer {
  name: "inception_4b/relu_5x5_reduce"
  type: "ReLU"
  bottom: "inception_4b/5x5_reduce"
  top: "inception_4b/5x5_reduce"
}
layer {
  name: "inception_4b/5x5"
  type: "Convolution"
  bottom: "inception_4b/5x5_reduce"
  top: "inception_4b/5x5"
  param {
    lr_mult: 1
    decay_mult: 1
  }
  param {
    lr_mult: 2
    decay_mult: 0
  }
  convolution_param {
    num_output: 64
    pad: 2
    kernel_size: 5
    weight_filler {
      type: "xavier"
    }
    bias_filler {
      type: "constant"
      value: 0.2
    }
  }
}
layer {
  name: "inception_4b/relu_5x5"
  type: "ReLU"
  bottom: "inception_4b/5x5"
  top: "inception_4b/5x5"
}
layer {
  name: "inception_4b/pool"
  type: "Pooling"
  bottom: "inception_4a/output"
  top: "inception_4b/pool"
  pooling_param {
    pool: MAX
    kernel_size: 3
    stride: 1
    pad: 1
  }
}
layer {
  name: "inception_4b/pool_proj"
  type: "Convolution"
  bottom: "inception_4b/pool"
  top: "inception_4b/pool_proj"
  param {
    lr_mult: 1
    decay_mult: 1
  }
  param {
    lr_mult: 2
    decay_mult: 0
  }
  convolution_param {
    num_output: 64
    kernel_size: 1
    weight_filler {
      type: "xavier"
    }
    bias_filler {
      type: "constant"
      value: 0.2
    }
  }
}
layer {
  name: "inception_4b/relu_pool_proj"
  type: "ReLU"
  bottom: "inception_4b/pool_proj"
  top: "inception_4b/pool_proj"
}
layer {
  name: "inception_4b/output"
  type: "Concat"
  bottom: "inception_4b/1x1"
  bottom: "inception_4b/3x3"
  bottom: "inception_4b/5x5"
  bottom: "inception_4b/pool_proj"
  top: "inception_4b/output"
}
layer {
  name: "inception_4c/1x1"
  type: "Convolution"
  bottom: "inception_4b/output"
  top: "inception_4c/1x1"
  param {
    lr_mult: 1
    decay_mult: 1
  }
  param {
    lr_mult: 2
    decay_mult: 0
  }
  convolution_param {
    num_output: 128
    kernel_size: 1
    weight_filler {
      type: "xavier"
    }
    bias_filler {
      type: "constant"
      value: 0.2
    }
  }
}
layer {
  name: "inception_4c/relu_1x1"
  type: "ReLU"
  bottom: "inception_4c/1x1"
  top: "inception_4c/1x1"
}
layer {
  name: "inception_4c/3x3_reduce"
  type: "Convolution"
  bottom: "inception_4b/output"
  top: "inception_4c/3x3_reduce"
  param {
    lr_mult: 1
    decay_mult: 1
  }
  param {
    lr_mult: 2
    decay_mult: 0
  }
  convolution_param {
    num_output: 128
    kernel_size: 1
    weight_filler {
      type: "xavier"
    }
    bias_filler {
      type: "constant"
      value: 0.2
    }
  }
}
layer {
  name: "inception_4c/relu_3x3_reduce"
  type: "ReLU"
  bottom: "inception_4c/3x3_reduce"
  top: "inception_4c/3x3_reduce"
}
layer {
  name: "inception_4c/3x3"
  type: "Convolution"
  bottom: "inception_4c/3x3_reduce"
  top: "inception_4c/3x3"
  param {
    lr_mult: 1
    decay_mult: 1
  }
  param {
    lr_mult: 2
    decay_mult: 0
  }
  convolution_param {
    num_output: 256
    pad: 1
    kernel_size: 3
    weight_filler {
      type: "xavier"
    }
    bias_filler {
      type: "constant"
      value: 0.2
    }
  }
}
layer {
  name: "inception_4c/relu_3x3"
  type: "ReLU"
  bottom: "inception_4c/3x3"
  top: "inception_4c/3x3"
}
layer {
  name: "inception_4c/5x5_reduce"
  type: "Convolution"
  bottom: "inception_4b/output"
  top: "inception_4c/5x5_reduce"
  param {
    lr_mult: 1
    decay_mult: 1
  }
  param {
    lr_mult: 2
    decay_mult: 0
  }
  convolution_param {
    num_output: 24
    kernel_size: 1
    weight_filler {
      type: "xavier"
    }
    bias_filler {
      type: "constant"
      value: 0.2
    }
  }
}
layer {
  name: "inception_4c/relu_5x5_reduce"
  type: "ReLU"
  bottom: "inception_4c/5x5_reduce"
  top: "inception_4c/5x5_reduce"
}
layer {
  name: "inception_4c/5x5"
  type: "Convolution"
  bottom: "inception_4c/5x5_reduce"
  top: "inception_4c/5x5"
  param {
    lr_mult: 1
    decay_mult: 1
  }
  param {
    lr_mult: 2
    decay_mult: 0
  }
  convolution_param {
    num_output: 64
    pad: 2
    kernel_size: 5
    weight_filler {
      type: "xavier"
    }
    bias_filler {
      type: "constant"
      value: 0.2
    }
  }
}
layer {
  name: "inception_4c/relu_5x5"
  type: "ReLU"
  bottom: "inception_4c/5x5"
  top: "inception_4c/5x5"
}
layer {
  name: "inception_4c/pool"
  type: "Pooling"
  bottom: "inception_4b/output"
  top: "inception_4c/pool"
  pooling_param {
    pool: MAX
    kernel_size: 3
    stride: 1
    pad: 1
  }
}
layer {
  name: "inception_4c/pool_proj"
  type: "Convolution"
  bottom: "inception_4c/pool"
  top: "inception_4c/pool_proj"
  param {
    lr_mult: 1
    decay_mult: 1
  }
  param {
    lr_mult: 2
    decay_mult: 0
  }
  convolution_param {
    num_output: 64
    kernel_size: 1
    weight_filler {
      type: "xavier"
    }
    bias_filler {
      type: "constant"
      value: 0.2
    }
  }
}
layer {
  name: "inception_4c/relu_pool_proj"
  type: "ReLU"
  bottom: "inception_4c/pool_proj"
  top: "inception_4c/pool_proj"
}
layer {
  name: "inception_4c/output"
  type: "Concat"
  bottom: "inception_4c/1x1"
  bottom: "inception_4c/3x3"
  bottom: "inception_4c/5x5"
  bottom: "inception_4c/pool_proj"
  top: "inception_4c/output"
}
layer {
  name: "inception_4d/1x1"
  type: "Convolution"
  bottom: "inception_4c/output"
  top: "inception_4d/1x1"
  param {
    lr_mult: 1
    decay_mult: 1
  }
  param {
    lr_mult: 2
    decay_mult: 0
  }
  convolution_param {
    num_output: 112
    kernel_size: 1
    weight_filler {
      type: "xavier"
    }
    bias_filler {
      type: "constant"
      value: 0.2
    }
  }
}
layer {
  name: "inception_4d/relu_1x1"
  type: "ReLU"
  bottom: "inception_4d/1x1"
  top: "inception_4d/1x1"
}
layer {
  name: "inception_4d/3x3_reduce"
  type: "Convolution"
  bottom: "inception_4c/output"
  top: "inception_4d/3x3_reduce"
  param {
    lr_mult: 1
    decay_mult: 1
  }
  param {
    lr_mult: 2
    decay_mult: 0
  }
  convolution_param {
    num_output: 144
    kernel_size: 1
    weight_filler {
      type: "xavier"
    }
    bias_filler {
      type: "constant"
      value: 0.2
    }
  }
}
layer {
  name: "inception_4d/relu_3x3_reduce"
  type: "ReLU"
  bottom: "inception_4d/3x3_reduce"
  top: "inception_4d/3x3_reduce"
}
layer {
  name: "inception_4d/3x3"
  type: "Convolution"
  bottom: "inception_4d/3x3_reduce"
  top: "inception_4d/3x3"
  param {
    lr_mult: 1
    decay_mult: 1
  }
  param {
    lr_mult: 2
    decay_mult: 0
  }
  convolution_param {
    num_output: 288
    pad: 1
    kernel_size: 3
    weight_filler {
      type: "xavier"
    }
    bias_filler {
      type: "constant"
      value: 0.2
    }
  }
}
layer {
  name: "inception_4d/relu_3x3"
  type: "ReLU"
  bottom: "inception_4d/3x3"
  top: "inception_4d/3x3"
}
layer {
  name: "inception_4d/5x5_reduce"
  type: "Convolution"
  bottom: "inception_4c/output"
  top: "inception_4d/5x5_reduce"
  param {
    lr_mult: 1
    decay_mult: 1
  }
  param {
    lr_mult: 2
    decay_mult: 0
  }
  convolution_param {
    num_output: 32
    kernel_size: 1
    weight_filler {
      type: "xavier"
    }
    bias_filler {
      type: "constant"
      value: 0.2
    }
  }
}
layer {
  name: "inception_4d/relu_5x5_reduce"
  type: "ReLU"
  bottom: "inception_4d/5x5_reduce"
  top: "inception_4d/5x5_reduce"
}
layer {
  name: "inception_4d/5x5"
  type: "Convolution"
  bottom: "inception_4d/5x5_reduce"
  top: "inception_4d/5x5"
  param {
    lr_mult: 1
    decay_mult: 1
  }
  param {
    lr_mult: 2
    decay_mult: 0
  }
  convolution_param {
    num_output: 64
    pad: 2
    kernel_size: 5
    weight_filler {
      type: "xavier"
    }
    bias_filler {
      type: "constant"
      value: 0.2
    }
  }
}
layer {
  name: "inception_4d/relu_5x5"
  type: "ReLU"
  bottom: "inception_4d/5x5"
  top: "inception_4d/5x5"
}
layer {
  name: "inception_4d/pool"
  type: "Pooling"
  bottom: "inception_4c/output"
  top: "inception_4d/pool"
  pooling_param {
    pool: MAX
    kernel_size: 3
    stride: 1
    pad: 1
  }
}
layer {
  name: "inception_4d/pool_proj"
  type: "Convolution"
  bottom: "inception_4d/pool"
  top: "inception_4d/pool_proj"
  param {
    lr_mult: 1
    decay_mult: 1
  }
  param {
    lr_mult: 2
    decay_mult: 0
  }
  convolution_param {
    num_output: 64
    kernel_size: 1
    weight_filler {
      type: "xavier"
    }
    bias_filler {
      type: "constant"
      value: 0.2
    }
  }
}
layer {
  name: "inception_4d/relu_pool_proj"
  type: "ReLU"
  bottom: "inception_4d/pool_proj"
  top: "inception_4d/pool_proj"
}
layer {
  name: "inception_4d/output"
  type: "Concat"
  bottom: "inception_4d/1x1"
  bottom: "inception_4d/3x3"
  bottom: "inception_4d/5x5"
  bottom: "inception_4d/pool_proj"
  top: "inception_4d/output"
}
layer {
  name: "loss2/ave_pool"
  type: "Pooling"
  bottom: "inception_4d/output"
  top: "loss2/ave_pool"
  pooling_param {
    pool: AVE
    kernel_size: 5
    stride: 3
  }
}
layer {
  name: "loss2/conv"
  type: "Convolution"
  bottom: "loss2/ave_pool"
  top: "loss2/conv"
  param {
    lr_mult: 1
    decay_mult: 1
  }
  param {
    lr_mult: 2
    decay_mult: 0
  }
  convolution_param {
    num_output: 128
    kernel_size: 1
    weight_filler {
      type: "xavier"
    }
    bias_filler {
      type: "constant"
      value: 0.2
    }
  }
}
layer {
  name: "loss2/relu_conv"
  type: "ReLU"
  bottom: "loss2/conv"
  top: "loss2/conv"
}
layer {
  name: "loss2/fc"
  type: "InnerProduct"
  bottom: "loss2/conv"
  top: "loss2/fc"
  param {
    lr_mult: 1
    decay_mult: 1
  }
  param {
    lr_mult: 2
    decay_mult: 0
  }
  inner_product_param {
    num_output: 1024
    weight_filler {
      type: "xavier"
    }
    bias_filler {
      type: "constant"
      value: 0.2
    }
  }
}
layer {
  name: "loss2/relu_fc"
  type: "ReLU"
  bottom: "loss2/fc"
  top: "loss2/fc"
}
layer {
  name: "loss2/drop_fc"
  type: "Dropout"
  bottom: "loss2/fc"
  top: "loss2/fc"
  dropout_param {
    dropout_ratio: 0.7
  }
}
layer {
  name: "loss2/classifier-attribute"
  type: "InnerProduct"
  bottom: "loss2/fc"
  top: "loss2/classifier-attribute"
  param {
    lr_mult: 10
    decay_mult: 1
  }
  param {
    lr_mult: 20
    decay_mult: 0
  }
  inner_product_param {
    num_output: 6
    weight_filler {
      type: "xavier"
    }
    bias_filler {
      type: "constant"
      value: 0
    }
  }
}
layer {
  name: "loss2/loss"
  type: "SoftmaxWithLoss"
  bottom: "loss2/classifier-attribute"
  bottom: "label"
  top: "loss2/loss1"
  loss_weight: 0.3
}
layer {
  name: "inception_4e/1x1"
  type: "Convolution"
  bottom: "inception_4d/output"
  top: "inception_4e/1x1"
  param {
    lr_mult: 1
    decay_mult: 1
  }
  param {
    lr_mult: 2
    decay_mult: 0
  }
  convolution_param {
    num_output: 256
    kernel_size: 1
    weight_filler {
      type: "xavier"
    }
    bias_filler {
      type: "constant"
      value: 0.2
    }
  }
}
layer {
  name: "inception_4e/relu_1x1"
  type: "ReLU"
  bottom: "inception_4e/1x1"
  top: "inception_4e/1x1"
}
layer {
  name: "inception_4e/3x3_reduce"
  type: "Convolution"
  bottom: "inception_4d/output"
  top: "inception_4e/3x3_reduce"
  param {
    lr_mult: 1
    decay_mult: 1
  }
  param {
    lr_mult: 2
    decay_mult: 0
  }
  convolution_param {
    num_output: 160
    kernel_size: 1
    weight_filler {
      type: "xavier"
    }
    bias_filler {
      type: "constant"
      value: 0.2
    }
  }
}
layer {
  name: "inception_4e/relu_3x3_reduce"
  type: "ReLU"
  bottom: "inception_4e/3x3_reduce"
  top: "inception_4e/3x3_reduce"
}
layer {
  name: "inception_4e/3x3"
  type: "Convolution"
  bottom: "inception_4e/3x3_reduce"
  top: "inception_4e/3x3"
  param {
    lr_mult: 1
    decay_mult: 1
  }
  param {
    lr_mult: 2
    decay_mult: 0
  }
  convolution_param {
    num_output: 320
    pad: 1
    kernel_size: 3
    weight_filler {
      type: "xavier"
    }
    bias_filler {
      type: "constant"
      value: 0.2
    }
  }
}
layer {
  name: "inception_4e/relu_3x3"
  type: "ReLU"
  bottom: "inception_4e/3x3"
  top: "inception_4e/3x3"
}
layer {
  name: "inception_4e/5x5_reduce"
  type: "Convolution"
  bottom: "inception_4d/output"
  top: "inception_4e/5x5_reduce"
  param {
    lr_mult: 1
    decay_mult: 1
  }
  param {
    lr_mult: 2
    decay_mult: 0
  }
  convolution_param {
    num_output: 32
    kernel_size: 1
    weight_filler {
      type: "xavier"
    }
    bias_filler {
      type: "constant"
      value: 0.2
    }
  }
}
layer {
  name: "inception_4e/relu_5x5_reduce"
  type: "ReLU"
  bottom: "inception_4e/5x5_reduce"
  top: "inception_4e/5x5_reduce"
}
layer {
  name: "inception_4e/5x5"
  type: "Convolution"
  bottom: "inception_4e/5x5_reduce"
  top: "inception_4e/5x5"
  param {
    lr_mult: 1
    decay_mult: 1
  }
  param {
    lr_mult: 2
    decay_mult: 0
  }
  convolution_param {
    num_output: 128
    pad: 2
    kernel_size: 5
    weight_filler {
      type: "xavier"
    }
    bias_filler {
      type: "constant"
      value: 0.2
    }
  }
}
layer {
  name: "inception_4e/relu_5x5"
  type: "ReLU"
  bottom: "inception_4e/5x5"
  top: "inception_4e/5x5"
}
layer {
  name: "inception_4e/pool"
  type: "Pooling"
  bottom: "inception_
I1126 12:30:31.993837 19057 layer_factory.hpp:76] Creating layer data
I1126 12:30:31.993911 19057 net.cpp:106] Creating Layer data
I1126 12:30:31.993932 19057 net.cpp:411] data -> data
I1126 12:30:31.993983 19057 net.cpp:411] data -> label
I1126 12:30:31.994926 19057 image_data_layer.cpp:36] Opening file pad_train.txt
I1126 12:30:32.250306 19057 image_data_layer.cpp:46] Shuffling data
I1126 12:30:32.272027 19057 image_data_layer.cpp:51] A total of 169272 images.
I1126 12:30:32.308410 19057 image_data_layer.cpp:78] output data size: 64,3,224,224
I1126 12:30:32.364035 19057 net.cpp:150] Setting up data
I1126 12:30:32.364097 19057 net.cpp:157] Top shape: 64 3 224 224 (9633792)
I1126 12:30:32.364104 19057 net.cpp:157] Top shape: 64 (64)
I1126 12:30:32.364109 19057 net.cpp:165] Memory required for data: 38535424
I1126 12:30:32.364117 19057 layer_factory.hpp:76] Creating layer label_data_1_split
I1126 12:30:32.364132 19057 net.cpp:106] Creating Layer label_data_1_split
I1126 12:30:32.364138 19057 net.cpp:454] label_data_1_split <- label
I1126 12:30:32.364151 19057 net.cpp:411] label_data_1_split -> label_data_1_split_0
I1126 12:30:32.364161 19057 net.cpp:411] label_data_1_split -> label_data_1_split_1
I1126 12:30:32.364166 19057 net.cpp:411] label_data_1_split -> label_data_1_split_2
I1126 12:30:32.364250 19057 net.cpp:150] Setting up label_data_1_split
I1126 12:30:32.364260 19057 net.cpp:157] Top shape: 64 (64)
I1126 12:30:32.364264 19057 net.cpp:157] Top shape: 64 (64)
I1126 12:30:32.364269 19057 net.cpp:157] Top shape: 64 (64)
I1126 12:30:32.364271 19057 net.cpp:165] Memory required for data: 38536192
I1126 12:30:32.364275 19057 layer_factory.hpp:76] Creating layer conv1/7x7_s2
I1126 12:30:32.364291 19057 net.cpp:106] Creating Layer conv1/7x7_s2
I1126 12:30:32.364295 19057 net.cpp:454] conv1/7x7_s2 <- data
I1126 12:30:32.364300 19057 net.cpp:411] conv1/7x7_s2 -> conv1/7x7_s2
I1126 12:30:32.564292 19057 net.cpp:150] Setting up conv1/7x7_s2
I1126 12:30:32.564338 19057 net.cpp:157] Top shape: 64 64 112 112 (51380224)
I1126 12:30:32.564348 19057 net.cpp:165] Memory required for data: 244057088
I1126 12:30:32.564389 19057 layer_factory.hpp:76] Creating layer conv1/relu_7x7
I1126 12:30:32.564411 19057 net.cpp:106] Creating Layer conv1/relu_7x7
I1126 12:30:32.564422 19057 net.cpp:454] conv1/relu_7x7 <- conv1/7x7_s2
I1126 12:30:32.564436 19057 net.cpp:397] conv1/relu_7x7 -> conv1/7x7_s2 (in-place)
I1126 12:30:32.565044 19057 net.cpp:150] Setting up conv1/relu_7x7
I1126 12:30:32.565073 19057 net.cpp:157] Top shape: 64 64 112 112 (51380224)
I1126 12:30:32.565083 19057 net.cpp:165] Memory required for data: 449577984
I1126 12:30:32.565093 19057 layer_factory.hpp:76] Creating layer pool1/3x3_s2
I1126 12:30:32.565111 19057 net.cpp:106] Creating Layer pool1/3x3_s2
I1126 12:30:32.565120 19057 net.cpp:454] pool1/3x3_s2 <- conv1/7x7_s2
I1126 12:30:32.565134 19057 net.cpp:411] pool1/3x3_s2 -> pool1/3x3_s2
I1126 12:30:32.565569 19057 net.cpp:150] Setting up pool1/3x3_s2
I1126 12:30:32.565592 19057 net.cpp:157] Top shape: 64 64 56 56 (12845056)
I1126 12:30:32.565600 19057 net.cpp:165] Memory required for data: 500958208
I1126 12:30:32.565608 19057 layer_factory.hpp:76] Creating layer pool1/norm1
I1126 12:30:32.565629 19057 net.cpp:106] Creating Layer pool1/norm1
I1126 12:30:32.565637 19057 net.cpp:454] pool1/norm1 <- pool1/3x3_s2
I1126 12:30:32.565649 19057 net.cpp:411] pool1/norm1 -> pool1/norm1
I1126 12:30:32.566285 19057 net.cpp:150] Setting up pool1/norm1
I1126 12:30:32.566313 19057 net.cpp:157] Top shape: 64 64 56 56 (12845056)
I1126 12:30:32.566320 19057 net.cpp:165] Memory required for data: 552338432
I1126 12:30:32.566329 19057 layer_factory.hpp:76] Creating layer conv2/3x3_reduce
I1126 12:30:32.566349 19057 net.cpp:106] Creating Layer conv2/3x3_reduce
I1126 12:30:32.566357 19057 net.cpp:454] conv2/3x3_reduce <- pool1/norm1
I1126 12:30:32.566372 19057 net.cpp:411] conv2/3x3_reduce -> conv2/3x3_reduce
I1126 12:30:32.568951 19057 net.cpp:150] Setting up conv2/3x3_reduce
I1126 12:30:32.568985 19057 net.cpp:157] Top shape: 64 64 56 56 (12845056)
I1126 12:30:32.568995 19057 net.cpp:165] Memory required for data: 603718656
I1126 12:30:32.569016 19057 layer_factory.hpp:76] Creating layer conv2/relu_3x3_reduce
I1126 12:30:32.569031 19057 net.cpp:106] Creating Layer conv2/relu_3x3_reduce
I1126 12:30:32.569039 19057 net.cpp:454] conv2/relu_3x3_reduce <- conv2/3x3_reduce
I1126 12:30:32.569052 19057 net.cpp:397] conv2/relu_3x3_reduce -> conv2/3x3_reduce (in-place)
I1126 12:30:32.569623 19057 net.cpp:150] Setting up conv2/relu_3x3_reduce
I1126 12:30:32.569651 19057 net.cpp:157] Top shape: 64 64 56 56 (12845056)
I1126 12:30:32.569659 19057 net.cpp:165] Memory required for data: 655098880
I1126 12:30:32.569667 19057 layer_factory.hpp:76] Creating layer conv2/3x3
I1126 12:30:32.569689 19057 net.cpp:106] Creating Layer conv2/3x3
I1126 12:30:32.569697 19057 net.cpp:454] conv2/3x3 <- conv2/3x3_reduce
I1126 12:30:32.569711 19057 net.cpp:411] conv2/3x3 -> conv2/3x3
I1126 12:30:32.572682 19057 net.cpp:150] Setting up conv2/3x3
I1126 12:30:32.572700 19057 net.cpp:157] Top shape: 64 192 56 56 (38535168)
I1126 12:30:32.572705 19057 net.cpp:165] Memory required for data: 809239552
I1126 12:30:32.572715 19057 layer_factory.hpp:76] Creating layer conv2/relu_3x3
I1126 12:30:32.572722 19057 net.cpp:106] Creating Layer conv2/relu_3x3
I1126 12:30:32.572726 19057 net.cpp:454] conv2/relu_3x3 <- conv2/3x3
I1126 12:30:32.572733 19057 net.cpp:397] conv2/relu_3x3 -> conv2/3x3 (in-place)
I1126 12:30:32.572906 19057 net.cpp:150] Setting up conv2/relu_3x3
I1126 12:30:32.572917 19057 net.cpp:157] Top shape: 64 192 56 56 (38535168)
I1126 12:30:32.572921 19057 net.cpp:165] Memory required for data: 963380224
I1126 12:30:32.572926 19057 layer_factory.hpp:76] Creating layer conv2/norm2
I1126 12:30:32.572939 19057 net.cpp:106] Creating Layer conv2/norm2
I1126 12:30:32.572943 19057 net.cpp:454] conv2/norm2 <- conv2/3x3
I1126 12:30:32.572948 19057 net.cpp:411] conv2/norm2 -> conv2/norm2
I1126 12:30:32.573289 19057 net.cpp:150] Setting up conv2/norm2
I1126 12:30:32.573305 19057 net.cpp:157] Top shape: 64 192 56 56 (38535168)
I1126 12:30:32.573308 19057 net.cpp:165] Memory required for data: 1117520896
I1126 12:30:32.573312 19057 layer_factory.hpp:76] Creating layer pool2/3x3_s2
I1126 12:30:32.573320 19057 net.cpp:106] Creating Layer pool2/3x3_s2
I1126 12:30:32.573324 19057 net.cpp:454] pool2/3x3_s2 <- conv2/norm2
I1126 12:30:32.573330 19057 net.cpp:411] pool2/3x3_s2 -> pool2/3x3_s2
I1126 12:30:32.573518 19057 net.cpp:150] Setting up pool2/3x3_s2
I1126 12:30:32.573529 19057 net.cpp:157] Top shape: 64 192 28 28 (9633792)
I1126 12:30:32.573534 19057 net.cpp:165] Memory required for data: 1156056064
I1126 12:30:32.573537 19057 layer_factory.hpp:76] Creating layer pool2/3x3_s2_pool2/3x3_s2_0_split
I1126 12:30:32.573544 19057 net.cpp:106] Creating Layer pool2/3x3_s2_pool2/3x3_s2_0_split
I1126 12:30:32.573547 19057 net.cpp:454] pool2/3x3_s2_pool2/3x3_s2_0_split <- pool2/3x3_s2
I1126 12:30:32.573554 19057 net.cpp:411] pool2/3x3_s2_pool2/3x3_s2_0_split -> pool2/3x3_s2_pool2/3x3_s2_0_split_0
I1126 12:30:32.573560 19057 net.cpp:411] pool2/3x3_s2_pool2/3x3_s2_0_split -> pool2/3x3_s2_pool2/3x3_s2_0_split_1
I1126 12:30:32.573566 19057 net.cpp:411] pool2/3x3_s2_pool2/3x3_s2_0_split -> pool2/3x3_s2_pool2/3x3_s2_0_split_2
I1126 12:30:32.573572 19057 net.cpp:411] pool2/3x3_s2_pool2/3x3_s2_0_split -> pool2/3x3_s2_pool2/3x3_s2_0_split_3
I1126 12:30:32.573624 19057 net.cpp:150] Setting up pool2/3x3_s2_pool2/3x3_s2_0_split
I1126 12:30:32.573632 19057 net.cpp:157] Top shape: 64 192 28 28 (9633792)
I1126 12:30:32.573637 19057 net.cpp:157] Top shape: 64 192 28 28 (9633792)
I1126 12:30:32.573640 19057 net.cpp:157] Top shape: 64 192 28 28 (9633792)
I1126 12:30:32.573644 19057 net.cpp:157] Top shape: 64 192 28 28 (9633792)
I1126 12:30:32.573647 19057 net.cpp:165] Memory required for data: 1310196736
I1126 12:30:32.573652 19057 layer_factory.hpp:76] Creating layer inception_3a/1x1
I1126 12:30:32.573659 19057 net.cpp:106] Creating Layer inception_3a/1x1
I1126 12:30:32.573663 19057 net.cpp:454] inception_3a/1x1 <- pool2/3x3_s2_pool2/3x3_s2_0_split_0
I1126 12:30:32.573669 19057 net.cpp:411] inception_3a/1x1 -> inception_3a/1x1
I1126 12:30:32.575219 19057 net.cpp:150] Setting up inception_3a/1x1
I1126 12:30:32.575238 19057 net.cpp:157] Top shape: 64 64 28 28 (3211264)
I1126 12:30:32.575242 19057 net.cpp:165] Memory required for data: 1323041792
I1126 12:30:32.575249 19057 layer_factory.hpp:76] Creating layer inception_3a/relu_1x1
I1126 12:30:32.575256 19057 net.cpp:106] Creating Layer inception_3a/relu_1x1
I1126 12:30:32.575261 19057 net.cpp:454] inception_3a/relu_1x1 <- inception_3a/1x1
I1126 12:30:32.575266 19057 net.cpp:397] inception_3a/relu_1x1 -> inception_3a/1x1 (in-place)
I1126 12:30:32.575582 19057 net.cpp:150] Setting up inception_3a/relu_1x1
I1126 12:30:32.575598 19057 net.cpp:157] Top shape: 64 64 28 28 (3211264)
I1126 12:30:32.575601 19057 net.cpp:165] Memory required for data: 1335886848
I1126 12:30:32.575605 19057 layer_factory.hpp:76] Creating layer inception_3a/3x3_reduce
I1126 12:30:32.575613 19057 net.cpp:106] Creating Layer inception_3a/3x3_reduce
I1126 12:30:32.575618 19057 net.cpp:454] inception_3a/3x3_reduce <- pool2/3x3_s2_pool2/3x3_s2_0_split_1
I1126 12:30:32.575624 19057 net.cpp:411] inception_3a/3x3_reduce -> inception_3a/3x3_reduce
I1126 12:30:32.577219 19057 net.cpp:150] Setting up inception_3a/3x3_reduce
I1126 12:30:32.577236 19057 net.cpp:157] Top shape: 64 96 28 28 (4816896)
I1126 12:30:32.577240 19057 net.cpp:165] Memory required for data: 1355154432
I1126 12:30:32.577250 19057 layer_factory.hpp:76] Creating layer inception_3a/relu_3x3_reduce
I1126 12:30:32.577260 19057 net.cpp:106] Creating Layer inception_3a/relu_3x3_reduce
I1126 12:30:32.577265 19057 net.cpp:454] inception_3a/relu_3x3_reduce <- inception_3a/3x3_reduce
I1126 12:30:32.577270 19057 net.cpp:397] inception_3a/relu_3x3_reduce -> inception_3a/3x3_reduce (in-place)
I1126 12:30:32.577440 19057 net.cpp:150] Setting up inception_3a/relu_3x3_reduce
I1126 12:30:32.577452 19057 net.cpp:157] Top shape: 64 96 28 28 (4816896)
I1126 12:30:32.577456 19057 net.cpp:165] Memory required for data: 1374422016
I1126 12:30:32.577460 19057 layer_factory.hpp:76] Creating layer inception_3a/3x3
I1126 12:30:32.577468 19057 net.cpp:106] Creating Layer inception_3a/3x3
I1126 12:30:32.577472 19057 net.cpp:454] inception_3a/3x3 <- inception_3a/3x3_reduce
I1126 12:30:32.577478 19057 net.cpp:411] inception_3a/3x3 -> inception_3a/3x3
I1126 12:30:32.579393 19057 net.cpp:150] Setting up inception_3a/3x3
I1126 12:30:32.579411 19057 net.cpp:157] Top shape: 64 128 28 28 (6422528)
I1126 12:30:32.579416 19057 net.cpp:165] Memory required for data: 1400112128
I1126 12:30:32.579422 19057 layer_factory.hpp:76] Creating layer inception_3a/relu_3x3
I1126 12:30:32.579428 19057 net.cpp:106] Creating Layer inception_3a/relu_3x3
I1126 12:30:32.579433 19057 net.cpp:454] inception_3a/relu_3x3 <- inception_3a/3x3
I1126 12:30:32.579438 19057 net.cpp:397] inception_3a/relu_3x3 -> inception_3a/3x3 (in-place)
I1126 12:30:32.579609 19057 net.cpp:150] Setting up inception_3a/relu_3x3
I1126 12:30:32.579622 19057 net.cpp:157] Top shape: 64 128 28 28 (6422528)
I1126 12:30:32.579624 19057 net.cpp:165] Memory required for data: 1425802240
I1126 12:30:32.579628 19057 layer_factory.hpp:76] Creating layer inception_3a/5x5_reduce
I1126 12:30:32.579638 19057 net.cpp:106] Creating Layer inception_3a/5x5_reduce
I1126 12:30:32.579641 19057 net.cpp:454] inception_3a/5x5_reduce <- pool2/3x3_s2_pool2/3x3_s2_0_split_2
I1126 12:30:32.579648 19057 net.cpp:411] inception_3a/5x5_reduce -> inception_3a/5x5_reduce
I1126 12:30:32.580699 19057 net.cpp:150] Setting up inception_3a/5x5_reduce
I1126 12:30:32.580718 19057 net.cpp:157] Top shape: 64 16 28 28 (802816)
I1126 12:30:32.580721 19057 net.cpp:165] Memory required for data: 1429013504
I1126 12:30:32.580729 19057 layer_factory.hpp:76] Creating layer inception_3a/relu_5x5_reduce
I1126 12:30:32.580735 19057 net.cpp:106] Creating Layer inception_3a/relu_5x5_reduce
I1126 12:30:32.580741 19057 net.cpp:454] inception_3a/relu_5x5_reduce <- inception_3a/5x5_reduce
I1126 12:30:32.580750 19057 net.cpp:397] inception_3a/relu_5x5_reduce -> inception_3a/5x5_reduce (in-place)
I1126 12:30:32.581084 19057 net.cpp:150] Setting up inception_3a/relu_5x5_reduce
I1126 12:30:32.581099 19057 net.cpp:157] Top shape: 64 16 28 28 (802816)
I1126 12:30:32.581102 19057 net.cpp:165] Memory required for data: 1432224768
I1126 12:30:32.581106 19057 layer_factory.hpp:76] Creating layer inception_3a/5x5
I1126 12:30:32.581117 19057 net.cpp:106] Creating Layer inception_3a/5x5
I1126 12:30:32.581121 19057 net.cpp:454] inception_3a/5x5 <- inception_3a/5x5_reduce
I1126 12:30:32.581130 19057 net.cpp:411] inception_3a/5x5 -> inception_3a/5x5
I1126 12:30:32.582281 19057 net.cpp:150] Setting up inception_3a/5x5
I1126 12:30:32.582298 19057 net.cpp:157] Top shape: 64 32 28 28 (1605632)
I1126 12:30:32.582303 19057 net.cpp:165] Memory required for data: 1438647296
I1126 12:30:32.582309 19057 layer_factory.hpp:76] Creating layer inception_3a/relu_5x5
I1126 12:30:32.582319 19057 net.cpp:106] Creating Layer inception_3a/relu_5x5
I1126 12:30:32.582322 19057 net.cpp:454] inception_3a/relu_5x5 <- inception_3a/5x5
I1126 12:30:32.582329 19057 net.cpp:397] inception_3a/relu_5x5 -> inception_3a/5x5 (in-place)
I1126 12:30:32.582523 19057 net.cpp:150] Setting up inception_3a/relu_5x5
I1126 12:30:32.582536 19057 net.cpp:157] Top shape: 64 32 28 28 (1605632)
I1126 12:30:32.582540 19057 net.cpp:165] Memory required for data: 1445069824
I1126 12:30:32.582543 19057 layer_factory.hpp:76] Creating layer inception_3a/pool
I1126 12:30:32.582551 19057 net.cpp:106] Creating Layer inception_3a/pool
I1126 12:30:32.582556 19057 net.cpp:454] inception_3a/pool <- pool2/3x3_s2_pool2/3x3_s2_0_split_3
I1126 12:30:32.582562 19057 net.cpp:411] inception_3a/pool -> inception_3a/pool
I1126 12:30:32.582967 19057 net.cpp:150] Setting up inception_3a/pool
I1126 12:30:32.582983 19057 net.cpp:157] Top shape: 64 192 28 28 (9633792)
I1126 12:30:32.582986 19057 net.cpp:165] Memory required for data: 1483604992
I1126 12:30:32.582990 19057 layer_factory.hpp:76] Creating layer inception_3a/pool_proj
I1126 12:30:32.583001 19057 net.cpp:106] Creating Layer inception_3a/pool_proj
I1126 12:30:32.583006 19057 net.cpp:454] inception_3a/pool_proj <- inception_3a/pool
I1126 12:30:32.583014 19057 net.cpp:411] inception_3a/pool_proj -> inception_3a/pool_proj
I1126 12:30:32.583936 19057 net.cpp:150] Setting up inception_3a/pool_proj
I1126 12:30:32.583952 19057 net.cpp:157] Top shape: 64 32 28 28 (1605632)
I1126 12:30:32.583956 19057 net.cpp:165] Memory required for data: 1490027520
I1126 12:30:32.583967 19057 layer_factory.hpp:76] Creating layer inception_3a/relu_pool_proj
I1126 12:30:32.583974 19057 net.cpp:106] Creating Layer inception_3a/relu_pool_proj
I1126 12:30:32.583978 19057 net.cpp:454] inception_3a/relu_pool_proj <- inception_3a/pool_proj
I1126 12:30:32.583983 19057 net.cpp:397] inception_3a/relu_pool_proj -> inception_3a/pool_proj (in-place)
I1126 12:30:32.584295 19057 net.cpp:150] Setting up inception_3a/relu_pool_proj
I1126 12:30:32.584308 19057 net.cpp:157] Top shape: 64 32 28 28 (1605632)
I1126 12:30:32.584311 19057 net.cpp:165] Memory required for data: 1496450048
I1126 12:30:32.584316 19057 layer_factory.hpp:76] Creating layer inception_3a/output
I1126 12:30:32.584324 19057 net.cpp:106] Creating Layer inception_3a/output
I1126 12:30:32.584328 19057 net.cpp:454] inception_3a/output <- inception_3a/1x1
I1126 12:30:32.584334 19057 net.cpp:454] inception_3a/output <- inception_3a/3x3
I1126 12:30:32.584338 19057 net.cpp:454] inception_3a/output <- inception_3a/5x5
I1126 12:30:32.584342 19057 net.cpp:454] inception_3a/output <- inception_3a/pool_proj
I1126 12:30:32.584347 19057 net.cpp:411] inception_3a/output -> inception_3a/output
I1126 12:30:32.584383 19057 net.cpp:150] Setting up inception_3a/output
I1126 12:30:32.584388 19057 net.cpp:157] Top shape: 64 256 28 28 (12845056)
I1126 12:30:32.584391 19057 net.cpp:165] Memory required for data: 1547830272
I1126 12:30:32.584395 19057 layer_factory.hpp:76] Creating layer inception_3a/output_inception_3a/output_0_split
I1126 12:30:32.584403 19057 net.cpp:106] Creating Layer inception_3a/output_inception_3a/output_0_split
I1126 12:30:32.584406 19057 net.cpp:454] inception_3a/output_inception_3a/output_0_split <- inception_3a/output
I1126 12:30:32.584410 19057 net.cpp:411] inception_3a/output_inception_3a/output_0_split -> inception_3a/output_inception_3a/output_0_split_0
I1126 12:30:32.584416 19057 net.cpp:411] inception_3a/output_inception_3a/output_0_split -> inception_3a/output_inception_3a/output_0_split_1
I1126 12:30:32.584422 19057 net.cpp:411] inception_3a/output_inception_3a/output_0_split -> inception_3a/output_inception_3a/output_0_split_2
I1126 12:30:32.584427 19057 net.cpp:411] inception_3a/output_inception_3a/output_0_split -> inception_3a/output_inception_3a/output_0_split_3
I1126 12:30:32.584483 19057 net.cpp:150] Setting up inception_3a/output_inception_3a/output_0_split
I1126 12:30:32.584489 19057 net.cpp:157] Top shape: 64 256 28 28 (12845056)
I1126 12:30:32.584492 19057 net.cpp:157] Top shape: 64 256 28 28 (12845056)
I1126 12:30:32.584496 19057 net.cpp:157] Top shape: 64 256 28 28 (12845056)
I1126 12:30:32.584499 19057 net.cpp:157] Top shape: 64 256 28 28 (12845056)
I1126 12:30:32.584502 19057 net.cpp:165] Memory required for data: 1753351168
I1126 12:30:32.584506 19057 layer_factory.hpp:76] Creating layer inception_3b/1x1
I1126 12:30:32.584517 19057 net.cpp:106] Creating Layer inception_3b/1x1
I1126 12:30:32.584519 19057 net.cpp:454] inception_3b/1x1 <- inception_3a/output_inception_3a/output_0_split_0
I1126 12:30:32.584527 19057 net.cpp:411] inception_3b/1x1 -> inception_3b/1x1
I1126 12:30:32.585693 19057 net.cpp:150] Setting up inception_3b/1x1
I1126 12:30:32.585710 19057 net.cpp:157] Top shape: 64 128 28 28 (6422528)
I1126 12:30:32.585713 19057 net.cpp:165] Memory required for data: 1779041280
I1126 12:30:32.585719 19057 layer_factory.hpp:76] Creating layer inception_3b/relu_1x1
I1126 12:30:32.585727 19057 net.cpp:106] Creating Layer inception_3b/relu_1x1
I1126 12:30:32.585731 19057 net.cpp:454] inception_3b/relu_1x1 <- inception_3b/1x1
I1126 12:30:32.585737 19057 net.cpp:397] inception_3b/relu_1x1 -> inception_3b/1x1 (in-place)
I1126 12:30:32.585911 19057 net.cpp:150] Setting up inception_3b/relu_1x1
I1126 12:30:32.585922 19057 net.cpp:157] Top shape: 64 128 28 28 (6422528)
I1126 12:30:32.585925 19057 net.cpp:165] Memory required for data: 1804731392
I1126 12:30:32.585929 19057 layer_factory.hpp:76] Creating layer inception_3b/3x3_reduce
I1126 12:30:32.585938 19057 net.cpp:106] Creating Layer inception_3b/3x3_reduce
I1126 12:30:32.585942 19057 net.cpp:454] inception_3b/3x3_reduce <- inception_3a/output_inception_3a/output_0_split_1
I1126 12:30:32.585949 19057 net.cpp:411] inception_3b/3x3_reduce -> inception_3b/3x3_reduce
I1126 12:30:32.587137 19057 net.cpp:150] Setting up inception_3b/3x3_reduce
I1126 12:30:32.587153 19057 net.cpp:157] Top shape: 64 128 28 28 (6422528)
I1126 12:30:32.587157 19057 net.cpp:165] Memory required for data: 1830421504
I1126 12:30:32.587163 19057 layer_factory.hpp:76] Creating layer inception_3b/relu_3x3_reduce
I1126 12:30:32.587169 19057 net.cpp:106] Creating Layer inception_3b/relu_3x3_reduce
I1126 12:30:32.587173 19057 net.cpp:454] inception_3b/relu_3x3_reduce <- inception_3b/3x3_reduce
I1126 12:30:32.587179 19057 net.cpp:397] inception_3b/relu_3x3_reduce -> inception_3b/3x3_reduce (in-place)
I1126 12:30:32.587489 19057 net.cpp:150] Setting up inception_3b/relu_3x3_reduce
I1126 12:30:32.587503 19057 net.cpp:157] Top shape: 64 128 28 28 (6422528)
I1126 12:30:32.587507 19057 net.cpp:165] Memory required for data: 1856111616
I1126 12:30:32.587510 19057 layer_factory.hpp:76] Creating layer inception_3b/3x3
I1126 12:30:32.587524 19057 net.cpp:106] Creating Layer inception_3b/3x3
I1126 12:30:32.587528 19057 net.cpp:454] inception_3b/3x3 <- inception_3b/3x3_reduce
I1126 12:30:32.587534 19057 net.cpp:411] inception_3b/3x3 -> inception_3b/3x3
I1126 12:30:32.590253 19057 net.cpp:150] Setting up inception_3b/3x3
I1126 12:30:32.590270 19057 net.cpp:157] Top shape: 64 192 28 28 (9633792)
I1126 12:30:32.590272 19057 net.cpp:165] Memory required for data: 1894646784
I1126 12:30:32.590279 19057 layer_factory.hpp:76] Creating layer inception_3b/relu_3x3
I1126 12:30:32.590287 19057 net.cpp:106] Creating Layer inception_3b/relu_3x3
I1126 12:30:32.590291 19057 net.cpp:454] inception_3b/relu_3x3 <- inception_3b/3x3
I1126 12:30:32.590296 19057 net.cpp:397] inception_3b/relu_3x3 -> inception_3b/3x3 (in-place)
I1126 12:30:32.590756 19057 net.cpp:150] Setting up inception_3b/relu_3x3
I1126 12:30:32.590773 19057 net.cpp:157] Top shape: 64 192 28 28 (9633792)
I1126 12:30:32.590776 19057 net.cpp:165] Memory required for data: 1933181952
I1126 12:30:32.590780 19057 layer_factory.hpp:76] Creating layer inception_3b/5x5_reduce
I1126 12:30:32.590788 19057 net.cpp:106] Creating Layer inception_3b/5x5_reduce
I1126 12:30:32.590792 19057 net.cpp:454] inception_3b/5x5_reduce <- inception_3a/output_inception_3a/output_0_split_2
I1126 12:30:32.590811 19057 net.cpp:411] inception_3b/5x5_reduce -> inception_3b/5x5_reduce
I1126 12:30:32.591869 19057 net.cpp:150] Setting up inception_3b/5x5_reduce
I1126 12:30:32.591884 19057 net.cpp:157] Top shape: 64 32 28 28 (1605632)
I1126 12:30:32.591888 19057 net.cpp:165] Memory required for data: 1939604480
I1126 12:30:32.591894 19057 layer_factory.hpp:76] Creating layer inception_3b/relu_5x5_reduce
I1126 12:30:32.591902 19057 net.cpp:106] Creating Layer inception_3b/relu_5x5_reduce
I1126 12:30:32.591907 19057 net.cpp:454] inception_3b/relu_5x5_reduce <- inception_3b/5x5_reduce
I1126 12:30:32.591912 19057 net.cpp:397] inception_3b/relu_5x5_reduce -> inception_3b/5x5_reduce (in-place)
I1126 12:30:32.592087 19057 net.cpp:150] Setting up inception_3b/relu_5x5_reduce
I1126 12:30:32.592099 19057 net.cpp:157] Top shape: 64 32 28 28 (1605632)
I1126 12:30:32.592103 19057 net.cpp:165] Memory required for data: 1946027008
I1126 12:30:32.592106 19057 layer_factory.hpp:76] Creating layer inception_3b/5x5
I1126 12:30:32.592118 19057 net.cpp:106] Creating Layer inception_3b/5x5
I1126 12:30:32.592121 19057 net.cpp:454] inception_3b/5x5 <- inception_3b/5x5_reduce
I1126 12:30:32.592128 19057 net.cpp:411] inception_3b/5x5 -> inception_3b/5x5
I1126 12:30:32.594080 19057 net.cpp:150] Setting up inception_3b/5x5
I1126 12:30:32.594096 19057 net.cpp:157] Top shape: 64 96 28 28 (4816896)
I1126 12:30:32.594099 19057 net.cpp:165] Memory required for data: 1965294592
I1126 12:30:32.594106 19057 layer_factory.hpp:76] Creating layer inception_3b/relu_5x5
I1126 12:30:32.594112 19057 net.cpp:106] Creating Layer inception_3b/relu_5x5
I1126 12:30:32.594116 19057 net.cpp:454] inception_3b/relu_5x5 <- inception_3b/5x5
I1126 12:30:32.594123 19057 net.cpp:397] inception_3b/relu_5x5 -> inception_3b/5x5 (in-place)
I1126 12:30:32.594430 19057 net.cpp:150] Setting up inception_3b/relu_5x5
I1126 12:30:32.594444 19057 net.cpp:157] Top shape: 64 96 28 28 (4816896)
I1126 12:30:32.594449 19057 net.cpp:165] Memory required for data: 1984562176
I1126 12:30:32.594451 19057 layer_factory.hpp:76] Creating layer inception_3b/pool
I1126 12:30:32.594460 19057 net.cpp:106] Creating Layer inception_3b/pool
I1126 12:30:32.594463 19057 net.cpp:454] inception_3b/pool <- inception_3a/output_inception_3a/output_0_split_3
I1126 12:30:32.594470 19057 net.cpp:411] inception_3b/pool -> inception_3b/pool
I1126 12:30:32.594666 19057 net.cpp:150] Setting up inception_3b/pool
I1126 12:30:32.594678 19057 net.cpp:157] Top shape: 64 256 28 28 (12845056)
I1126 12:30:32.594681 19057 net.cpp:165] Memory required for data: 2035942400
I1126 12:30:32.594686 19057 layer_factory.hpp:76] Creating layer inception_3b/pool_proj
I1126 12:30:32.594693 19057 net.cpp:106] Creating Layer inception_3b/pool_proj
I1126 12:30:32.594697 19057 net.cpp:454] inception_3b/pool_proj <- inception_3b/pool
I1126 12:30:32.594704 19057 net.cpp:411] inception_3b/pool_proj -> inception_3b/pool_proj
I1126 12:30:32.595800 19057 net.cpp:150] Setting up inception_3b/pool_proj
I1126 12:30:32.595815 19057 net.cpp:157] Top shape: 64 64 28 28 (3211264)
I1126 12:30:32.595819 19057 net.cpp:165] Memory required for data: 2048787456
I1126 12:30:32.595825 19057 layer_factory.hpp:76] Creating layer inception_3b/relu_pool_proj
I1126 12:30:32.595834 19057 net.cpp:106] Creating Layer inception_3b/relu_pool_proj
I1126 12:30:32.595837 19057 net.cpp:454] inception_3b/relu_pool_proj <- inception_3b/pool_proj
I1126 12:30:32.595844 19057 net.cpp:397] inception_3b/relu_pool_proj -> inception_3b/pool_proj (in-place)
I1126 12:30:32.596014 19057 net.cpp:150] Setting up inception_3b/relu_pool_proj
I1126 12:30:32.596026 19057 net.cpp:157] Top shape: 64 64 28 28 (3211264)
I1126 12:30:32.596029 19057 net.cpp:165] Memory required for data: 2061632512
I1126 12:30:32.596032 19057 layer_factory.hpp:76] Creating layer inception_3b/output
I1126 12:30:32.596040 19057 net.cpp:106] Creating Layer inception_3b/output
I1126 12:30:32.596045 19057 net.cpp:454] inception_3b/output <- inception_3b/1x1
I1126 12:30:32.596050 19057 net.cpp:454] inception_3b/output <- inception_3b/3x3
I1126 12:30:32.596053 19057 net.cpp:454] inception_3b/output <- inception_3b/5x5
I1126 12:30:32.596056 19057 net.cpp:454] inception_3b/output <- inception_3b/pool_proj
I1126 12:30:32.596061 19057 net.cpp:411] inception_3b/output -> inception_3b/output
I1126 12:30:32.596092 19057 net.cpp:150] Setting up inception_3b/output
I1126 12:30:32.596098 19057 net.cpp:157] Top shape: 64 480 28 28 (24084480)
I1126 12:30:32.596101 19057 net.cpp:165] Memory required for data: 2157970432
I1126 12:30:32.596104 19057 layer_factory.hpp:76] Creating layer pool3/3x3_s2
I1126 12:30:32.596109 19057 net.cpp:106] Creating Layer pool3/3x3_s2
I1126 12:30:32.596113 19057 net.cpp:454] pool3/3x3_s2 <- inception_3b/output
I1126 12:30:32.596119 19057 net.cpp:411] pool3/3x3_s2 -> pool3/3x3_s2
I1126 12:30:32.596451 19057 net.cpp:150] Setting up pool3/3x3_s2
I1126 12:30:32.596464 19057 net.cpp:157] Top shape: 64 480 14 14 (6021120)
I1126 12:30:32.596468 19057 net.cpp:165] Memory required for data: 2182054912
I1126 12:30:32.596472 19057 layer_factory.hpp:76] Creating layer pool3/3x3_s2_pool3/3x3_s2_0_split
I1126 12:30:32.596477 19057 net.cpp:106] Creating Layer pool3/3x3_s2_pool3/3x3_s2_0_split
I1126 12:30:32.596482 19057 net.cpp:454] pool3/3x3_s2_pool3/3x3_s2_0_split <- pool3/3x3_s2
I1126 12:30:32.596489 19057 net.cpp:411] pool3/3x3_s2_pool3/3x3_s2_0_split -> pool3/3x3_s2_pool3/3x3_s2_0_split_0
I1126 12:30:32.596498 19057 net.cpp:411] pool3/3x3_s2_pool3/3x3_s2_0_split -> pool3/3x3_s2_pool3/3x3_s2_0_split_1
I1126 12:30:32.596503 19057 net.cpp:411] pool3/3x3_s2_pool3/3x3_s2_0_split -> pool3/3x3_s2_pool3/3x3_s2_0_split_2
I1126 12:30:32.596508 19057 net.cpp:411] pool3/3x3_s2_pool3/3x3_s2_0_split -> pool3/3x3_s2_pool3/3x3_s2_0_split_3
I1126 12:30:32.596567 19057 net.cpp:150] Setting up pool3/3x3_s2_pool3/3x3_s2_0_split
I1126 12:30:32.596573 19057 net.cpp:157] Top shape: 64 480 14 14 (6021120)
I1126 12:30:32.596576 19057 net.cpp:157] Top shape: 64 480 14 14 (6021120)
I1126 12:30:32.596580 19057 net.cpp:157] Top shape: 64 480 14 14 (6021120)
I1126 12:30:32.596583 19057 net.cpp:157] Top shape: 64 480 14 14 (6021120)
I1126 12:30:32.596586 19057 net.cpp:165] Memory required for data: 2278392832
I1126 12:30:32.596590 19057 layer_factory.hpp:76] Creating layer inception_4a/1x1
I1126 12:30:32.596597 19057 net.cpp:106] Creating Layer inception_4a/1x1
I1126 12:30:32.596602 19057 net.cpp:454] inception_4a/1x1 <- pool3/3x3_s2_pool3/3x3_s2_0_split_0
I1126 12:30:32.596607 19057 net.cpp:411] inception_4a/1x1 -> inception_4a/1x1
I1126 12:30:32.598304 19057 net.cpp:150] Setting up inception_4a/1x1
I1126 12:30:32.598319 19057 net.cpp:157] Top shape: 64 192 14 14 (2408448)
I1126 12:30:32.598322 19057 net.cpp:165] Memory required for data: 2288026624
I1126 12:30:32.598331 19057 layer_factory.hpp:76] Creating layer inception_4a/relu_1x1
I1126 12:30:32.598338 19057 net.cpp:106] Creating Layer inception_4a/relu_1x1
I1126 12:30:32.598341 19057 net.cpp:454] inception_4a/relu_1x1 <- inception_4a/1x1
I1126 12:30:32.598347 19057 net.cpp:397] inception_4a/relu_1x1 -> inception_4a/1x1 (in-place)
I1126 12:30:32.598521 19057 net.cpp:150] Setting up inception_4a/relu_1x1
I1126 12:30:32.598532 19057 net.cpp:157] Top shape: 64 192 14 14 (2408448)
I1126 12:30:32.598536 19057 net.cpp:165] Memory required for data: 2297660416
I1126 12:30:32.598539 19057 layer_factory.hpp:76] Creating layer inception_4a/3x3_reduce
I1126 12:30:32.598547 19057 net.cpp:106] Creating Layer inception_4a/3x3_reduce
I1126 12:30:32.598552 19057 net.cpp:454] inception_4a/3x3_reduce <- pool3/3x3_s2_pool3/3x3_s2_0_split_1
I1126 12:30:32.598559 19057 net.cpp:411] inception_4a/3x3_reduce -> inception_4a/3x3_reduce
I1126 12:30:32.599869 19057 net.cpp:150] Setting up inception_4a/3x3_reduce
I1126 12:30:32.599885 19057 net.cpp:157] Top shape: 64 96 14 14 (1204224)
I1126 12:30:32.599889 19057 net.cpp:165] Memory required for data: 2302477312
I1126 12:30:32.599901 19057 layer_factory.hpp:76] Creating layer inception_4a/relu_3x3_reduce
I1126 12:30:32.599908 19057 net.cpp:106] Creating Layer inception_4a/relu_3x3_reduce
I1126 12:30:32.599912 19057 net.cpp:454] inception_4a/relu_3x3_reduce <- inception_4a/3x3_reduce
I1126 12:30:32.599917 19057 net.cpp:397] inception_4a/relu_3x3_reduce -> inception_4a/3x3_reduce (in-place)
I1126 12:30:32.600229 19057 net.cpp:150] Setting up inception_4a/relu_3x3_reduce
I1126 12:30:32.600244 19057 net.cpp:157] Top shape: 64 96 14 14 (1204224)
I1126 12:30:32.600246 19057 net.cpp:165] Memory required for data: 2307294208
I1126 12:30:32.600250 19057 layer_factory.hpp:76] Creating layer inception_4a/3x3
I1126 12:30:32.600260 19057 net.cpp:106] Creating Layer inception_4a/3x3
I1126 12:30:32.600263 19057 net.cpp:454] inception_4a/3x3 <- inception_4a/3x3_reduce
I1126 12:30:32.600271 19057 net.cpp:411] inception_4a/3x3 -> inception_4a/3x3
I1126 12:30:32.602742 19057 net.cpp:150] Setting up inception_4a/3x3
I1126 12:30:32.602757 19057 net.cpp:157] Top shape: 64 208 14 14 (2609152)
I1126 12:30:32.602761 19057 net.cpp:165] Memory required for data: 2317730816
I1126 12:30:32.602767 19057 layer_factory.hpp:76] Creating layer inception_4a/relu_3x3
I1126 12:30:32.602774 19057 net.cpp:106] Creating Layer inception_4a/relu_3x3
I1126 12:30:32.602778 19057 net.cpp:454] inception_4a/relu_3x3 <- inception_4a/3x3
I1126 12:30:32.602783 19057 net.cpp:397] inception_4a/relu_3x3 -> inception_4a/3x3 (in-place)
I1126 12:30:32.603098 19057 net.cpp:150] Setting up inception_4a/relu_3x3
I1126 12:30:32.603113 19057 net.cpp:157] Top shape: 64 208 14 14 (2609152)
I1126 12:30:32.603117 19057 net.cpp:165] Memory required for data: 2328167424
I1126 12:30:32.603121 19057 layer_factory.hpp:76] Creating layer inception_4a/5x5_reduce
I1126 12:30:32.603132 19057 net.cpp:106] Creating Layer inception_4a/5x5_reduce
I1126 12:30:32.603135 19057 net.cpp:454] inception_4a/5x5_reduce <- pool3/3x3_s2_pool3/3x3_s2_0_split_2
I1126 12:30:32.603142 19057 net.cpp:411] inception_4a/5x5_reduce -> inception_4a/5x5_reduce
I1126 12:30:32.604200 19057 net.cpp:150] Setting up inception_4a/5x5_reduce
I1126 12:30:32.604215 19057 net.cpp:157] Top shape: 64 16 14 14 (200704)
I1126 12:30:32.604219 19057 net.cpp:165] Memory required for data: 2328970240
I1126 12:30:32.604225 19057 layer_factory.hpp:76] Creating layer inception_4a/relu_5x5_reduce
I1126 12:30:32.604233 19057 net.cpp:106] Creating Layer inception_4a/relu_5x5_reduce
I1126 12:30:32.604238 19057 net.cpp:454] inception_4a/relu_5x5_reduce <- inception_4a/5x5_reduce
I1126 12:30:32.604243 19057 net.cpp:397] inception_4a/relu_5x5_reduce -> inception_4a/5x5_reduce (in-place)
I1126 12:30:32.604542 19057 net.cpp:150] Setting up inception_4a/relu_5x5_reduce
I1126 12:30:32.604557 19057 net.cpp:157] Top shape: 64 16 14 14 (200704)
I1126 12:30:32.604560 19057 net.cpp:165] Memory required for data: 2329773056
I1126 12:30:32.604563 19057 layer_factory.hpp:76] Creating layer inception_4a/5x5
I1126 12:30:32.604573 19057 net.cpp:106] Creating Layer inception_4a/5x5
I1126 12:30:32.604578 19057 net.cpp:454] inception_4a/5x5 <- inception_4a/5x5_reduce
I1126 12:30:32.604583 19057 net.cpp:411] inception_4a/5x5 -> inception_4a/5x5
I1126 12:30:32.605710 19057 net.cpp:150] Setting up inception_4a/5x5
I1126 12:30:32.605726 19057 net.cpp:157] Top shape: 64 48 14 14 (602112)
I1126 12:30:32.605729 19057 net.cpp:165] Memory required for data: 2332181504
I1126 12:30:32.605736 19057 layer_factory.hpp:76] Creating layer inception_4a/relu_5x5
I1126 12:30:32.605741 19057 net.cpp:106] Creating Layer inception_4a/relu_5x5
I1126 12:30:32.605746 19057 net.cpp:454] inception_4a/relu_5x5 <- inception_4a/5x5
I1126 12:30:32.605751 19057 net.cpp:397] inception_4a/relu_5x5 -> inception_4a/5x5 (in-place)
I1126 12:30:32.606058 19057 net.cpp:150] Setting up inception_4a/relu_5x5
I1126 12:30:32.606073 19057 net.cpp:157] Top shape: 64 48 14 14 (602112)
I1126 12:30:32.606077 19057 net.cpp:165] Memory required for data: 2334589952
I1126 12:30:32.606081 19057 layer_factory.hpp:76] Creating layer inception_4a/pool
I1126 12:30:32.606086 19057 net.cpp:106] Creating Layer inception_4a/pool
I1126 12:30:32.606091 19057 net.cpp:454] inception_4a/pool <- pool3/3x3_s2_pool3/3x3_s2_0_split_3
I1126 12:30:32.606096 19057 net.cpp:411] inception_4a/pool -> inception_4a/pool
I1126 12:30:32.606299 19057 net.cpp:150] Setting up inception_4a/pool
I1126 12:30:32.606310 19057 net.cpp:157] Top shape: 64 480 14 14 (6021120)
I1126 12:30:32.606313 19057 net.cpp:165] Memory required for data: 2358674432
I1126 12:30:32.606317 19057 layer_factory.hpp:76] Creating layer inception_4a/pool_proj
I1126 12:30:32.606326 19057 net.cpp:106] Creating Layer inception_4a/pool_proj
I1126 12:30:32.606330 19057 net.cpp:454] inception_4a/pool_proj <- inception_4a/pool
I1126 12:30:32.606338 19057 net.cpp:411] inception_4a/pool_proj -> inception_4a/pool_proj
I1126 12:30:32.607539 19057 net.cpp:150] Setting up inception_4a/pool_proj
I1126 12:30:32.607554 19057 net.cpp:157] Top shape: 64 64 14 14 (802816)
I1126 12:30:32.607558 19057 net.cpp:165] Memory required for data: 2361885696
I1126 12:30:32.607564 19057 layer_factory.hpp:76] Creating layer inception_4a/relu_pool_proj
I1126 12:30:32.607571 19057 net.cpp:106] Creating Layer inception_4a/relu_pool_proj
I1126 12:30:32.607575 19057 net.cpp:454] inception_4a/relu_pool_proj <- inception_4a/pool_proj
I1126 12:30:32.607580 19057 net.cpp:397] inception_4a/relu_pool_proj -> inception_4a/pool_proj (in-place)
I1126 12:30:32.607887 19057 net.cpp:150] Setting up inception_4a/relu_pool_proj
I1126 12:30:32.607902 19057 net.cpp:157] Top shape: 64 64 14 14 (802816)
I1126 12:30:32.607904 19057 net.cpp:165] Memory required for data: 2365096960
I1126 12:30:32.607908 19057 layer_factory.hpp:76] Creating layer inception_4a/output
I1126 12:30:32.607916 19057 net.cpp:106] Creating Layer inception_4a/output
I1126 12:30:32.607920 19057 net.cpp:454] inception_4a/output <- inception_4a/1x1
I1126 12:30:32.607925 19057 net.cpp:454] inception_4a/output <- inception_4a/3x3
I1126 12:30:32.607929 19057 net.cpp:454] inception_4a/output <- inception_4a/5x5
I1126 12:30:32.607933 19057 net.cpp:454] inception_4a/output <- inception_4a/pool_proj
I1126 12:30:32.607939 19057 net.cpp:411] inception_4a/output -> inception_4a/output
I1126 12:30:32.607974 19057 net.cpp:150] Setting up inception_4a/output
I1126 12:30:32.607980 19057 net.cpp:157] Top shape: 64 512 14 14 (6422528)
I1126 12:30:32.607981 19057 net.cpp:165] Memory required for data: 2390787072
I1126 12:30:32.607985 19057 layer_factory.hpp:76] Creating layer inception_4a/output_inception_4a/output_0_split
I1126 12:30:32.607990 19057 net.cpp:106] Creating Layer inception_4a/output_inception_4a/output_0_split
I1126 12:30:32.607995 19057 net.cpp:454] inception_4a/output_inception_4a/output_0_split <- inception_4a/output
I1126 12:30:32.608000 19057 net.cpp:411] inception_4a/output_inception_4a/output_0_split -> inception_4a/output_inception_4a/output_0_split_0
I1126 12:30:32.608006 19057 net.cpp:411] inception_4a/output_inception_4a/output_0_split -> inception_4a/output_inception_4a/output_0_split_1
I1126 12:30:32.608012 19057 net.cpp:411] inception_4a/output_inception_4a/output_0_split -> inception_4a/output_inception_4a/output_0_split_2
I1126 12:30:32.608017 19057 net.cpp:411] inception_4a/output_inception_4a/output_0_split -> inception_4a/output_inception_4a/output_0_split_3
I1126 12:30:32.608022 19057 net.cpp:411] inception_4a/output_inception_4a/output_0_split -> inception_4a/output_inception_4a/output_0_split_4
I1126 12:30:32.608096 19057 net.cpp:150] Setting up inception_4a/output_inception_4a/output_0_split
I1126 12:30:32.608103 19057 net.cpp:157] Top shape: 64 512 14 14 (6422528)
I1126 12:30:32.608106 19057 net.cpp:157] Top shape: 64 512 14 14 (6422528)
I1126 12:30:32.608110 19057 net.cpp:157] Top shape: 64 512 14 14 (6422528)
I1126 12:30:32.608114 19057 net.cpp:157] Top shape: 64 512 14 14 (6422528)
I1126 12:30:32.608116 19057 net.cpp:157] Top shape: 64 512 14 14 (6422528)
I1126 12:30:32.608119 19057 net.cpp:165] Memory required for data: 2519237632
I1126 12:30:32.608122 19057 layer_factory.hpp:76] Creating layer loss1/ave_pool
I1126 12:30:32.608127 19057 net.cpp:106] Creating Layer loss1/ave_pool
I1126 12:30:32.608131 19057 net.cpp:454] loss1/ave_pool <- inception_4a/output_inception_4a/output_0_split_0
I1126 12:30:32.608135 19057 net.cpp:411] loss1/ave_pool -> loss1/ave_pool
I1126 12:30:32.608324 19057 net.cpp:150] Setting up loss1/ave_pool
I1126 12:30:32.608335 19057 net.cpp:157] Top shape: 64 512 4 4 (524288)
I1126 12:30:32.608337 19057 net.cpp:165] Memory required for data: 2521334784
I1126 12:30:32.608340 19057 layer_factory.hpp:76] Creating layer loss1/conv
I1126 12:30:32.608350 19057 net.cpp:106] Creating Layer loss1/conv
I1126 12:30:32.608353 19057 net.cpp:454] loss1/conv <- loss1/ave_pool
I1126 12:30:32.608361 19057 net.cpp:411] loss1/conv -> loss1/conv
I1126 12:30:32.609776 19057 net.cpp:150] Setting up loss1/conv
I1126 12:30:32.609792 19057 net.cpp:157] Top shape: 64 128 4 4 (131072)
I1126 12:30:32.609797 19057 net.cpp:165] Memory required for data: 2521859072
I1126 12:30:32.609802 19057 layer_factory.hpp:76] Creating layer loss1/relu_conv
I1126 12:30:32.609808 19057 net.cpp:106] Creating Layer loss1/relu_conv
I1126 12:30:32.609812 19057 net.cpp:454] loss1/relu_conv <- loss1/conv
I1126 12:30:32.609818 19057 net.cpp:397] loss1/relu_conv -> loss1/conv (in-place)
I1126 12:30:32.609983 19057 net.cpp:150] Setting up loss1/relu_conv
I1126 12:30:32.609994 19057 net.cpp:157] Top shape: 64 128 4 4 (131072)
I1126 12:30:32.609997 19057 net.cpp:165] Memory required for data: 2522383360
I1126 12:30:32.610000 19057 layer_factory.hpp:76] Creating layer loss1/fc
I1126 12:30:32.610009 19057 net.cpp:106] Creating Layer loss1/fc
I1126 12:30:32.610013 19057 net.cpp:454] loss1/fc <- loss1/conv
I1126 12:30:32.610018 19057 net.cpp:411] loss1/fc -> loss1/fc
I1126 12:30:32.625686 19057 net.cpp:150] Setting up loss1/fc
I1126 12:30:32.625701 19057 net.cpp:157] Top shape: 64 1024 (65536)
I1126 12:30:32.625705 19057 net.cpp:165] Memory required for data: 2522645504
I1126 12:30:32.625711 19057 layer_factory.hpp:76] Creating layer loss1/relu_fc
I1126 12:30:32.625717 19057 net.cpp:106] Creating Layer loss1/relu_fc
I1126 12:30:32.625721 19057 net.cpp:454] loss1/relu_fc <- loss1/fc
I1126 12:30:32.625725 19057 net.cpp:397] loss1/relu_fc -> loss1/fc (in-place)
I1126 12:30:32.626039 19057 net.cpp:150] Setting up loss1/relu_fc
I1126 12:30:32.626052 19057 net.cpp:157] Top shape: 64 1024 (65536)
I1126 12:30:32.626055 19057 net.cpp:165] Memory required for data: 2522907648
I1126 12:30:32.626060 19057 layer_factory.hpp:76] Creating layer loss1/drop_fc
I1126 12:30:32.626075 19057 net.cpp:106] Creating Layer loss1/drop_fc
I1126 12:30:32.626080 19057 net.cpp:454] loss1/drop_fc <- loss1/fc
I1126 12:30:32.626087 19057 net.cpp:397] loss1/drop_fc -> loss1/fc (in-place)
I1126 12:30:32.626124 19057 net.cpp:150] Setting up loss1/drop_fc
I1126 12:30:32.626130 19057 net.cpp:157] Top shape: 64 1024 (65536)
I1126 12:30:32.626134 19057 net.cpp:165] Memory required for data: 2523169792
I1126 12:30:32.626138 19057 layer_factory.hpp:76] Creating layer loss1/classifier-attribute
I1126 12:30:32.626147 19057 net.cpp:106] Creating Layer loss1/classifier-attribute
I1126 12:30:32.626150 19057 net.cpp:454] loss1/classifier-attribute <- loss1/fc
I1126 12:30:32.626157 19057 net.cpp:411] loss1/classifier-attribute -> loss1/classifier-attribute
I1126 12:30:32.626307 19057 net.cpp:150] Setting up loss1/classifier-attribute
I1126 12:30:32.626317 19057 net.cpp:157] Top shape: 64 6 (384)
I1126 12:30:32.626319 19057 net.cpp:165] Memory required for data: 2523171328
I1126 12:30:32.626325 19057 layer_factory.hpp:76] Creating layer loss1/loss
I1126 12:30:32.626335 19057 net.cpp:106] Creating Layer loss1/loss
I1126 12:30:32.626339 19057 net.cpp:454] loss1/loss <- loss1/classifier-attribute
I1126 12:30:32.626344 19057 net.cpp:454] loss1/loss <- label_data_1_split_0
I1126 12:30:32.626348 19057 net.cpp:411] loss1/loss -> loss1/loss1
I1126 12:30:32.626360 19057 layer_factory.hpp:76] Creating layer loss1/loss
I1126 12:30:32.626623 19057 net.cpp:150] Setting up loss1/loss
I1126 12:30:32.626636 19057 net.cpp:157] Top shape: (1)
I1126 12:30:32.626638 19057 net.cpp:160]     with loss weight 0.3
I1126 12:30:32.626659 19057 net.cpp:165] Memory required for data: 2523171332
I1126 12:30:32.626663 19057 layer_factory.hpp:76] Creating layer inception_4b/1x1
I1126 12:30:32.626673 19057 net.cpp:106] Creating Layer inception_4b/1x1
I1126 12:30:32.626677 19057 net.cpp:454] inception_4b/1x1 <- inception_4a/output_inception_4a/output_0_split_1
I1126 12:30:32.626685 19057 net.cpp:411] inception_4b/1x1 -> inception_4b/1x1
I1126 12:30:32.628221 19057 net.cpp:150] Setting up inception_4b/1x1
I1126 12:30:32.628238 19057 net.cpp:157] Top shape: 64 160 14 14 (2007040)
I1126 12:30:32.628242 19057 net.cpp:165] Memory required for data: 2531199492
I1126 12:30:32.628248 19057 layer_factory.hpp:76] Creating layer inception_4b/relu_1x1
I1126 12:30:32.628254 19057 net.cpp:106] Creating Layer inception_4b/relu_1x1
I1126 12:30:32.628258 19057 net.cpp:454] inception_4b/relu_1x1 <- inception_4b/1x1
I1126 12:30:32.628264 19057 net.cpp:397] inception_4b/relu_1x1 -> inception_4b/1x1 (in-place)
I1126 12:30:32.628581 19057 net.cpp:150] Setting up inception_4b/relu_1x1
I1126 12:30:32.628595 19057 net.cpp:157] Top shape: 64 160 14 14 (2007040)
I1126 12:30:32.628598 19057 net.cpp:165] Memory required for data: 2539227652
I1126 12:30:32.628602 19057 layer_factory.hpp:76] Creating layer inception_4b/3x3_reduce
I1126 12:30:32.628610 19057 net.cpp:106] Creating Layer inception_4b/3x3_reduce
I1126 12:30:32.628614 19057 net.cpp:454] inception_4b/3x3_reduce <- inception_4a/output_inception_4a/output_0_split_2
I1126 12:30:32.628621 19057 net.cpp:411] inception_4b/3x3_reduce -> inception_4b/3x3_reduce
I1126 12:30:32.630429 19057 net.cpp:150] Setting up inception_4b/3x3_reduce
I1126 12:30:32.630444 19057 net.cpp:157] Top shape: 64 112 14 14 (1404928)
I1126 12:30:32.630446 19057 net.cpp:165] Memory required for data: 2544847364
I1126 12:30:32.630452 19057 layer_factory.hpp:76] Creating layer inception_4b/relu_3x3_reduce
I1126 12:30:32.630460 19057 net.cpp:106] Creating Layer inception_4b/relu_3x3_reduce
I1126 12:30:32.630465 19057 net.cpp:454] inception_4b/relu_3x3_reduce <- inception_4b/3x3_reduce
I1126 12:30:32.630470 19057 net.cpp:397] inception_4b/relu_3x3_reduce -> inception_4b/3x3_reduce (in-place)
I1126 12:30:32.630640 19057 net.cpp:150] Setting up inception_4b/relu_3x3_reduce
I1126 12:30:32.630650 19057 net.cpp:157] Top shape: 64 112 14 14 (1404928)
I1126 12:30:32.630652 19057 net.cpp:165] Memory required for data: 2550467076
I1126 12:30:32.630656 19057 layer_factory.hpp:76] Creating layer inception_4b/3x3
I1126 12:30:32.630666 19057 net.cpp:106] Creating Layer inception_4b/3x3
I1126 12:30:32.630669 19057 net.cpp:454] inception_4b/3x3 <- inception_4b/3x3_reduce
I1126 12:30:32.630674 19057 net.cpp:411] inception_4b/3x3 -> inception_4b/3x3
I1126 12:30:32.633543 19057 net.cpp:150] Setting up inception_4b/3x3
I1126 12:30:32.633558 19057 net.cpp:157] Top shape: 64 224 14 14 (2809856)
I1126 12:30:32.633561 19057 net.cpp:165] Memory required for data: 2561706500
I1126 12:30:32.633568 19057 layer_factory.hpp:76] Creating layer inception_4b/relu_3x3
I1126 12:30:32.633574 19057 net.cpp:106] Creating Layer inception_4b/relu_3x3
I1126 12:30:32.633579 19057 net.cpp:454] inception_4b/relu_3x3 <- inception_4b/3x3
I1126 12:30:32.633584 19057 net.cpp:397] inception_4b/relu_3x3 -> inception_4b/3x3 (in-place)
I1126 12:30:32.633754 19057 net.cpp:150] Setting up inception_4b/relu_3x3
I1126 12:30:32.633765 19057 net.cpp:157] Top shape: 64 224 14 14 (2809856)
I1126 12:30:32.633769 19057 net.cpp:165] Memory required for data: 2572945924
I1126 12:30:32.633772 19057 layer_factory.hpp:76] Creating layer inception_4b/5x5_reduce
I1126 12:30:32.633780 19057 net.cpp:106] Creating Layer inception_4b/5x5_reduce
I1126 12:30:32.633785 19057 net.cpp:454] inception_4b/5x5_reduce <- inception_4a/output_inception_4a/output_0_split_3
I1126 12:30:32.633792 19057 net.cpp:411] inception_4b/5x5_reduce -> inception_4b/5x5_reduce
I1126 12:30:32.634889 19057 net.cpp:150] Setting up inception_4b/5x5_reduce
I1126 12:30:32.634906 19057 net.cpp:157] Top shape: 64 24 14 14 (301056)
I1126 12:30:32.634909 19057 net.cpp:165] Memory required for data: 2574150148
I1126 12:30:32.634915 19057 layer_factory.hpp:76] Creating layer inception_4b/relu_5x5_reduce
I1126 12:30:32.634922 19057 net.cpp:106] Creating Layer inception_4b/relu_5x5_reduce
I1126 12:30:32.634925 19057 net.cpp:454] inception_4b/relu_5x5_reduce <- inception_4b/5x5_reduce
I1126 12:30:32.634932 19057 net.cpp:397] inception_4b/relu_5x5_reduce -> inception_4b/5x5_reduce (in-place)
I1126 12:30:32.635355 19057 net.cpp:150] Setting up inception_4b/relu_5x5_reduce
I1126 12:30:32.635370 19057 net.cpp:157] Top shape: 64 24 14 14 (301056)
I1126 12:30:32.635372 19057 net.cpp:165] Memory required for data: 2575354372
I1126 12:30:32.635376 19057 layer_factory.hpp:76] Creating layer inception_4b/5x5
I1126 12:30:32.635385 19057 net.cpp:106] Creating Layer inception_4b/5x5
I1126 12:30:32.635390 19057 net.cpp:454] inception_4b/5x5 <- inception_4b/5x5_reduce
I1126 12:30:32.635396 19057 net.cpp:411] inception_4b/5x5 -> inception_4b/5x5
I1126 12:30:32.636704 19057 net.cpp:150] Setting up inception_4b/5x5
I1126 12:30:32.636718 19057 net.cpp:157] Top shape: 64 64 14 14 (802816)
I1126 12:30:32.636723 19057 net.cpp:165] Memory required for data: 2578565636
I1126 12:30:32.636729 19057 layer_factory.hpp:76] Creating layer inception_4b/relu_5x5
I1126 12:30:32.636734 19057 net.cpp:106] Creating Layer inception_4b/relu_5x5
I1126 12:30:32.636739 19057 net.cpp:454] inception_4b/relu_5x5 <- inception_4b/5x5
I1126 12:30:32.636745 19057 net.cpp:397] inception_4b/relu_5x5 -> inception_4b/5x5 (in-place)
I1126 12:30:32.636915 19057 net.cpp:150] Setting up inception_4b/relu_5x5
I1126 12:30:32.636925 19057 net.cpp:157] Top shape: 64 64 14 14 (802816)
I1126 12:30:32.636929 19057 net.cpp:165] Memory required for data: 2581776900
I1126 12:30:32.636932 19057 layer_factory.hpp:76] Creating layer inception_4b/pool
I1126 12:30:32.636940 19057 net.cpp:106] Creating Layer inception_4b/pool
I1126 12:30:32.636943 19057 net.cpp:454] inception_4b/pool <- inception_4a/output_inception_4a/output_0_split_4
I1126 12:30:32.636948 19057 net.cpp:411] inception_4b/pool -> inception_4b/pool
I1126 12:30:32.637292 19057 net.cpp:150] Setting up inception_4b/pool
I1126 12:30:32.637307 19057 net.cpp:157] Top shape: 64 512 14 14 (6422528)
I1126 12:30:32.637310 19057 net.cpp:165] Memory required for data: 2607467012
I1126 12:30:32.637315 19057 layer_factory.hpp:76] Creating layer inception_4b/pool_proj
I1126 12:30:32.637322 19057 net.cpp:106] Creating Layer inception_4b/pool_proj
I1126 12:30:32.637326 19057 net.cpp:454] inception_4b/pool_proj <- inception_4b/pool
I1126 12:30:32.637333 19057 net.cpp:411] inception_4b/pool_proj -> inception_4b/pool_proj
I1126 12:30:32.638425 19057 net.cpp:150] Setting up inception_4b/pool_proj
I1126 12:30:32.638440 19057 net.cpp:157] Top shape: 64 64 14 14 (802816)
I1126 12:30:32.638444 19057 net.cpp:165] Memory required for data: 2610678276
I1126 12:30:32.638452 19057 layer_factory.hpp:76] Creating layer inception_4b/relu_pool_proj
I1126 12:30:32.638458 19057 net.cpp:106] Creating Layer inception_4b/relu_pool_proj
I1126 12:30:32.638461 19057 net.cpp:454] inception_4b/relu_pool_proj <- inception_4b/pool_proj
I1126 12:30:32.638466 19057 net.cpp:397] inception_4b/relu_pool_proj -> inception_4b/pool_proj (in-place)
I1126 12:30:32.638772 19057 net.cpp:150] Setting up inception_4b/relu_pool_proj
I1126 12:30:32.638787 19057 net.cpp:157] Top shape: 64 64 14 14 (802816)
I1126 12:30:32.638790 19057 net.cpp:165] Memory required for data: 2613889540
I1126 12:30:32.638793 19057 layer_factory.hpp:76] Creating layer inception_4b/output
I1126 12:30:32.638813 19057 net.cpp:106] Creating Layer inception_4b/output
I1126 12:30:32.638818 19057 net.cpp:454] inception_4b/output <- inception_4b/1x1
I1126 12:30:32.638823 19057 net.cpp:454] inception_4b/output <- inception_4b/3x3
I1126 12:30:32.638826 19057 net.cpp:454] inception_4b/output <- inception_4b/5x5
I1126 12:30:32.638830 19057 net.cpp:454] inception_4b/output <- inception_4b/pool_proj
I1126 12:30:32.638834 19057 net.cpp:411] inception_4b/output -> inception_4b/output
I1126 12:30:32.638872 19057 net.cpp:150] Setting up inception_4b/output
I1126 12:30:32.638880 19057 net.cpp:157] Top shape: 64 512 14 14 (6422528)
I1126 12:30:32.638881 19057 net.cpp:165] Memory required for data: 2639579652
I1126 12:30:32.638885 19057 layer_factory.hpp:76] Creating layer inception_4b/output_inception_4b/output_0_split
I1126 12:30:32.638891 19057 net.cpp:106] Creating Layer inception_4b/output_inception_4b/output_0_split
I1126 12:30:32.638895 19057 net.cpp:454] inception_4b/output_inception_4b/output_0_split <- inception_4b/output
I1126 12:30:32.638900 19057 net.cpp:411] inception_4b/output_inception_4b/output_0_split -> inception_4b/output_inception_4b/output_0_split_0
I1126 12:30:32.638906 19057 net.cpp:411] inception_4b/output_inception_4b/output_0_split -> inception_4b/output_inception_4b/output_0_split_1
I1126 12:30:32.638911 19057 net.cpp:411] inception_4b/output_inception_4b/output_0_split -> inception_4b/output_inception_4b/output_0_split_2
I1126 12:30:32.638916 19057 net.cpp:411] inception_4b/output_inception_4b/output_0_split -> inception_4b/output_inception_4b/output_0_split_3
I1126 12:30:32.638981 19057 net.cpp:150] Setting up inception_4b/output_inception_4b/output_0_split
I1126 12:30:32.638998 19057 net.cpp:157] Top shape: 64 512 14 14 (6422528)
I1126 12:30:32.639003 19057 net.cpp:157] Top shape: 64 512 14 14 (6422528)
I1126 12:30:32.639005 19057 net.cpp:157] Top shape: 64 512 14 14 (6422528)
I1126 12:30:32.639008 19057 net.cpp:157] Top shape: 64 512 14 14 (6422528)
I1126 12:30:32.639011 19057 net.cpp:165] Memory required for data: 2742340100
I1126 12:30:32.639014 19057 layer_factory.hpp:76] Creating layer inception_4c/1x1
I1126 12:30:32.639024 19057 net.cpp:106] Creating Layer inception_4c/1x1
I1126 12:30:32.639026 19057 net.cpp:454] inception_4c/1x1 <- inception_4b/output_inception_4b/output_0_split_0
I1126 12:30:32.639034 19057 net.cpp:411] inception_4c/1x1 -> inception_4c/1x1
I1126 12:30:32.640470 19057 net.cpp:150] Setting up inception_4c/1x1
I1126 12:30:32.640483 19057 net.cpp:157] Top shape: 64 128 14 14 (1605632)
I1126 12:30:32.640487 19057 net.cpp:165] Memory required for data: 2748762628
I1126 12:30:32.640493 19057 layer_factory.hpp:76] Creating layer inception_4c/relu_1x1
I1126 12:30:32.640501 19057 net.cpp:106] Creating Layer inception_4c/relu_1x1
I1126 12:30:32.640506 19057 net.cpp:454] inception_4c/relu_1x1 <- inception_4c/1x1
I1126 12:30:32.640513 19057 net.cpp:397] inception_4c/relu_1x1 -> inception_4c/1x1 (in-place)
I1126 12:30:32.640681 19057 net.cpp:150] Setting up inception_4c/relu_1x1
I1126 12:30:32.640691 19057 net.cpp:157] Top shape: 64 128 14 14 (1605632)
I1126 12:30:32.640694 19057 net.cpp:165] Memory required for data: 2755185156
I1126 12:30:32.640697 19057 layer_factory.hpp:76] Creating layer inception_4c/3x3_reduce
I1126 12:30:32.640707 19057 net.cpp:106] Creating Layer inception_4c/3x3_reduce
I1126 12:30:32.640709 19057 net.cpp:454] inception_4c/3x3_reduce <- inception_4b/output_inception_4b/output_0_split_1
I1126 12:30:32.640717 19057 net.cpp:411] inception_4c/3x3_reduce -> inception_4c/3x3_reduce
I1126 12:30:32.642154 19057 net.cpp:150] Setting up inception_4c/3x3_reduce
I1126 12:30:32.642169 19057 net.cpp:157] Top shape: 64 128 14 14 (1605632)
I1126 12:30:32.642174 19057 net.cpp:165] Memory required for data: 2761607684
I1126 12:30:32.642179 19057 layer_factory.hpp:76] Creating layer inception_4c/relu_3x3_reduce
I1126 12:30:32.642186 19057 net.cpp:106] Creating Layer inception_4c/relu_3x3_reduce
I1126 12:30:32.642190 19057 net.cpp:454] inception_4c/relu_3x3_reduce <- inception_4c/3x3_reduce
I1126 12:30:32.642195 19057 net.cpp:397] inception_4c/relu_3x3_reduce -> inception_4c/3x3_reduce (in-place)
I1126 12:30:32.642504 19057 net.cpp:150] Setting up inception_4c/relu_3x3_reduce
I1126 12:30:32.642518 19057 net.cpp:157] Top shape: 64 128 14 14 (1605632)
I1126 12:30:32.642521 19057 net.cpp:165] Memory required for data: 2768030212
I1126 12:30:32.642524 19057 layer_factory.hpp:76] Creating layer inception_4c/3x3
I1126 12:30:32.642535 19057 net.cpp:106] Creating Layer inception_4c/3x3
I1126 12:30:32.642539 19057 net.cpp:454] inception_4c/3x3 <- inception_4c/3x3_reduce
I1126 12:30:32.642545 19057 net.cpp:411] inception_4c/3x3 -> inception_4c/3x3
I1126 12:30:32.645768 19057 net.cpp:150] Setting up inception_4c/3x3
I1126 12:30:32.645783 19057 net.cpp:157] Top shape: 64 256 14 14 (3211264)
I1126 12:30:32.645787 19057 net.cpp:165] Memory required for data: 2780875268
I1126 12:30:32.645804 19057 layer_factory.hpp:76] Creating layer inception_4c/relu_3x3
I1126 12:30:32.645812 19057 net.cpp:106] Creating Layer inception_4c/relu_3x3
I1126 12:30:32.645817 19057 net.cpp:454] inception_4c/relu_3x3 <- inception_4c/3x3
I1126 12:30:32.645822 19057 net.cpp:397] inception_4c/relu_3x3 -> inception_4c/3x3 (in-place)
I1126 12:30:32.646129 19057 net.cpp:150] Setting up inception_4c/relu_3x3
I1126 12:30:32.646143 19057 net.cpp:157] Top shape: 64 256 14 14 (3211264)
I1126 12:30:32.646147 19057 net.cpp:165] Memory required for data: 2793720324
I1126 12:30:32.646150 19057 layer_factory.hpp:76] Creating layer inception_4c/5x5_reduce
I1126 12:30:32.646158 19057 net.cpp:106] Creating Layer inception_4c/5x5_reduce
I1126 12:30:32.646162 19057 net.cpp:454] inception_4c/5x5_reduce <- inception_4b/output_inception_4b/output_0_split_2
I1126 12:30:32.646170 19057 net.cpp:411] inception_4c/5x5_reduce -> inception_4c/5x5_reduce
I1126 12:30:32.647297 19057 net.cpp:150] Setting up inception_4c/5x5_reduce
I1126 12:30:32.647312 19057 net.cpp:157] Top shape: 64 24 14 14 (301056)
I1126 12:30:32.647315 19057 net.cpp:165] Memory required for data: 2794924548
I1126 12:30:32.647323 19057 layer_factory.hpp:76] Creating layer inception_4c/relu_5x5_reduce
I1126 12:30:32.647330 19057 net.cpp:106] Creating Layer inception_4c/relu_5x5_reduce
I1126 12:30:32.647335 19057 net.cpp:454] inception_4c/relu_5x5_reduce <- inception_4c/5x5_reduce
I1126 12:30:32.647341 19057 net.cpp:397] inception_4c/relu_5x5_reduce -> inception_4c/5x5_reduce (in-place)
I1126 12:30:32.647514 19057 net.cpp:150] Setting up inception_4c/relu_5x5_reduce
I1126 12:30:32.647524 19057 net.cpp:157] Top shape: 64 24 14 14 (301056)
I1126 12:30:32.647528 19057 net.cpp:165] Memory required for data: 2796128772
I1126 12:30:32.647531 19057 layer_factory.hpp:76] Creating layer inception_4c/5x5
I1126 12:30:32.647541 19057 net.cpp:106] Creating Layer inception_4c/5x5
I1126 12:30:32.647544 19057 net.cpp:454] inception_4c/5x5 <- inception_4c/5x5_reduce
I1126 12:30:32.647552 19057 net.cpp:411] inception_4c/5x5 -> inception_4c/5x5
I1126 12:30:32.649250 19057 net.cpp:150] Setting up inception_4c/5x5
I1126 12:30:32.649266 19057 net.cpp:157] Top shape: 64 64 14 14 (802816)
I1126 12:30:32.649269 19057 net.cpp:165] Memory required for data: 2799340036
I1126 12:30:32.649276 19057 layer_factory.hpp:76] Creating layer inception_4c/relu_5x5
I1126 12:30:32.649282 19057 net.cpp:106] Creating Layer inception_4c/relu_5x5
I1126 12:30:32.649286 19057 net.cpp:454] inception_4c/relu_5x5 <- inception_4c/5x5
I1126 12:30:32.649291 19057 net.cpp:397] inception_4c/relu_5x5 -> inception_4c/5x5 (in-place)
I1126 12:30:32.649605 19057 net.cpp:150] Setting up inception_4c/relu_5x5
I1126 12:30:32.649619 19057 net.cpp:157] Top shape: 64 64 14 14 (802816)
I1126 12:30:32.649622 19057 net.cpp:165] Memory required for data: 2802551300
I1126 12:30:32.649626 19057 layer_factory.hpp:76] Creating layer inception_4c/pool
I1126 12:30:32.649632 19057 net.cpp:106] Creating Layer inception_4c/pool
I1126 12:30:32.649636 19057 net.cpp:454] inception_4c/pool <- inception_4b/output_inception_4b/output_0_split_3
I1126 12:30:32.649641 19057 net.cpp:411] inception_4c/pool -> inception_4c/pool
I1126 12:30:32.649852 19057 net.cpp:150] Setting up inception_4c/pool
I1126 12:30:32.649863 19057 net.cpp:157] Top shape: 64 512 14 14 (6422528)
I1126 12:30:32.649868 19057 net.cpp:165] Memory required for data: 2828241412
I1126 12:30:32.649870 19057 layer_factory.hpp:76] Creating layer inception_4c/pool_proj
I1126 12:30:32.649879 19057 net.cpp:106] Creating Layer inception_4c/pool_proj
I1126 12:30:32.649883 19057 net.cpp:454] inception_4c/pool_proj <- inception_4c/pool
I1126 12:30:32.649889 19057 net.cpp:411] inception_4c/pool_proj -> inception_4c/pool_proj
I1126 12:30:32.651331 19057 net.cpp:150] Setting up inception_4c/pool_proj
I1126 12:30:32.651346 19057 net.cpp:157] Top shape: 64 64 14 14 (802816)
I1126 12:30:32.651350 19057 net.cpp:165] Memory required for data: 2831452676
I1126 12:30:32.651356 19057 layer_factory.hpp:76] Creating layer inception_4c/relu_pool_proj
I1126 12:30:32.651363 19057 net.cpp:106] Creating Layer inception_4c/relu_pool_proj
I1126 12:30:32.651367 19057 net.cpp:454] inception_4c/relu_pool_proj <- inception_4c/pool_proj
I1126 12:30:32.651374 19057 net.cpp:397] inception_4c/relu_pool_proj -> inception_4c/pool_proj (in-place)
I1126 12:30:32.651684 19057 net.cpp:150] Setting up inception_4c/relu_pool_proj
I1126 12:30:32.651697 19057 net.cpp:157] Top shape: 64 64 14 14 (802816)
I1126 12:30:32.651700 19057 net.cpp:165] Memory required for data: 2834663940
I1126 12:30:32.651705 19057 layer_factory.hpp:76] Creating layer inception_4c/output
I1126 12:30:32.651711 19057 net.cpp:106] Creating Layer inception_4c/output
I1126 12:30:32.651716 19057 net.cpp:454] inception_4c/output <- inception_4c/1x1
I1126 12:30:32.651721 19057 net.cpp:454] inception_4c/output <- inception_4c/3x3
I1126 12:30:32.651726 19057 net.cpp:454] inception_4c/output <- inception_4c/5x5
I1126 12:30:32.651729 19057 net.cpp:454] inception_4c/output <- inception_4c/pool_proj
I1126 12:30:32.651734 19057 net.cpp:411] inception_4c/output -> inception_4c/output
I1126 12:30:32.651769 19057 net.cpp:150] Setting up inception_4c/output
I1126 12:30:32.651774 19057 net.cpp:157] Top shape: 64 512 14 14 (6422528)
I1126 12:30:32.651777 19057 net.cpp:165] Memory required for data: 2860354052
I1126 12:30:32.651780 19057 layer_factory.hpp:76] Creating layer inception_4c/output_inception_4c/output_0_split
I1126 12:30:32.651787 19057 net.cpp:106] Creating Layer inception_4c/output_inception_4c/output_0_split
I1126 12:30:32.651792 19057 net.cpp:454] inception_4c/output_inception_4c/output_0_split <- inception_4c/output
I1126 12:30:32.651798 19057 net.cpp:411] inception_4c/output_inception_4c/output_0_split -> inception_4c/output_inception_4c/output_0_split_0
I1126 12:30:32.651804 19057 net.cpp:411] inception_4c/output_inception_4c/output_0_split -> inception_4c/output_inception_4c/output_0_split_1
I1126 12:30:32.651810 19057 net.cpp:411] inception_4c/output_inception_4c/output_0_split -> inception_4c/output_inception_4c/output_0_split_2
I1126 12:30:32.651815 19057 net.cpp:411] inception_4c/output_inception_4c/output_0_split -> inception_4c/output_inception_4c/output_0_split_3
I1126 12:30:32.651880 19057 net.cpp:150] Setting up inception_4c/output_inception_4c/output_0_split
I1126 12:30:32.651886 19057 net.cpp:157] Top shape: 64 512 14 14 (6422528)
I1126 12:30:32.651890 19057 net.cpp:157] Top shape: 64 512 14 14 (6422528)
I1126 12:30:32.651893 19057 net.cpp:157] Top shape: 64 512 14 14 (6422528)
I1126 12:30:32.651897 19057 net.cpp:157] Top shape: 64 512 14 14 (6422528)
I1126 12:30:32.651900 19057 net.cpp:165] Memory required for data: 2963114500
I1126 12:30:32.651902 19057 layer_factory.hpp:76] Creating layer inception_4d/1x1
I1126 12:30:32.651911 19057 net.cpp:106] Creating Layer inception_4d/1x1
I1126 12:30:32.651914 19057 net.cpp:454] inception_4d/1x1 <- inception_4c/output_inception_4c/output_0_split_0
I1126 12:30:32.651921 19057 net.cpp:411] inception_4d/1x1 -> inception_4d/1x1
I1126 12:30:32.653189 19057 net.cpp:150] Setting up inception_4d/1x1
I1126 12:30:32.653204 19057 net.cpp:157] Top shape: 64 112 14 14 (1404928)
I1126 12:30:32.653208 19057 net.cpp:165] Memory required for data: 2968734212
I1126 12:30:32.653213 19057 layer_factory.hpp:76] Creating layer inception_4d/relu_1x1
I1126 12:30:32.653220 19057 net.cpp:106] Creating Layer inception_4d/relu_1x1
I1126 12:30:32.653224 19057 net.cpp:454] inception_4d/relu_1x1 <- inception_4d/1x1
I1126 12:30:32.653229 19057 net.cpp:397] inception_4d/relu_1x1 -> inception_4d/1x1 (in-place)
I1126 12:30:32.653549 19057 net.cpp:150] Setting up inception_4d/relu_1x1
I1126 12:30:32.653563 19057 net.cpp:157] Top shape: 64 112 14 14 (1404928)
I1126 12:30:32.653566 19057 net.cpp:165] Memory required for data: 2974353924
I1126 12:30:32.653569 19057 layer_factory.hpp:76] Creating layer inception_4d/3x3_reduce
I1126 12:30:32.653578 19057 net.cpp:106] Creating Layer inception_4d/3x3_reduce
I1126 12:30:32.653584 19057 net.cpp:454] inception_4d/3x3_reduce <- inception_4c/output_inception_4c/output_0_split_1
I1126 12:30:32.653590 19057 net.cpp:411] inception_4d/3x3_reduce -> inception_4d/3x3_reduce
I1126 12:30:32.655151 19057 net.cpp:150] Setting up inception_4d/3x3_reduce
I1126 12:30:32.655165 19057 net.cpp:157] Top shape: 64 144 14 14 (1806336)
I1126 12:30:32.655169 19057 net.cpp:165] Memory required for data: 2981579268
I1126 12:30:32.655175 19057 layer_factory.hpp:76] Creating layer inception_4d/relu_3x3_reduce
I1126 12:30:32.655182 19057 net.cpp:106] Creating Layer inception_4d/relu_3x3_reduce
I1126 12:30:32.655186 19057 net.cpp:454] inception_4d/relu_3x3_reduce <- inception_4d/3x3_reduce
I1126 12:30:32.655192 19057 net.cpp:397] inception_4d/relu_3x3_reduce -> inception_4d/3x3_reduce (in-place)
I1126 12:30:32.655369 19057 net.cpp:150] Setting up inception_4d/relu_3x3_reduce
I1126 12:30:32.655380 19057 net.cpp:157] Top shape: 64 144 14 14 (1806336)
I1126 12:30:32.655383 19057 net.cpp:165] Memory required for data: 2988804612
I1126 12:30:32.655387 19057 layer_factory.hpp:76] Creating layer inception_4d/3x3
I1126 12:30:32.655395 19057 net.cpp:106] Creating Layer inception_4d/3x3
I1126 12:30:32.655400 19057 net.cpp:454] inception_4d/3x3 <- inception_4d/3x3_reduce
I1126 12:30:32.655406 19057 net.cpp:411] inception_4d/3x3 -> inception_4d/3x3
I1126 12:30:32.659374 19057 net.cpp:150] Setting up inception_4d/3x3
I1126 12:30:32.659390 19057 net.cpp:157] Top shape: 64 288 14 14 (3612672)
I1126 12:30:32.659394 19057 net.cpp:165] Memory required for data: 3003255300
I1126 12:30:32.659400 19057 layer_factory.hpp:76] Creating layer inception_4d/relu_3x3
I1126 12:30:32.659406 19057 net.cpp:106] Creating Layer inception_4d/relu_3x3
I1126 12:30:32.659410 19057 net.cpp:454] inception_4d/relu_3x3 <- inception_4d/3x3
I1126 12:30:32.659417 19057 net.cpp:397] inception_4d/relu_3x3 -> inception_4d/3x3 (in-place)
I1126 12:30:32.659730 19057 net.cpp:150] Setting up inception_4d/relu_3x3
I1126 12:30:32.659744 19057 net.cpp:157] Top shape: 64 288 14 14 (3612672)
I1126 12:30:32.659747 19057 net.cpp:165] Memory required for data: 3017705988
I1126 12:30:32.659751 19057 layer_factory.hpp:76] Creating layer inception_4d/5x5_reduce
I1126 12:30:32.659761 19057 net.cpp:106] Creating Layer inception_4d/5x5_reduce
I1126 12:30:32.659765 19057 net.cpp:454] inception_4d/5x5_reduce <- inception_4c/output_inception_4c/output_0_split_2
I1126 12:30:32.659773 19057 net.cpp:411] inception_4d/5x5_reduce -> inception_4d/5x5_reduce
I1126 12:30:32.660809 19057 net.cpp:150] Setting up inception_4d/5x5_reduce
I1126 12:30:32.660823 19057 net.cpp:157] Top shape: 64 32 14 14 (401408)
I1126 12:30:32.660826 19057 net.cpp:165] Memory required for data: 3019311620
I1126 12:30:32.660833 19057 layer_factory.hpp:76] Creating layer inception_4d/relu_5x5_reduce
I1126 12:30:32.660840 19057 net.cpp:106] Creating Layer inception_4d/relu_5x5_reduce
I1126 12:30:32.660843 19057 net.cpp:454] inception_4d/relu_5x5_reduce <- inception_4d/5x5_reduce
I1126 12:30:32.660851 19057 net.cpp:397] inception_4d/relu_5x5_reduce -> inception_4d/5x5_reduce (in-place)
I1126 12:30:32.661170 19057 net.cpp:150] Setting up inception_4d/relu_5x5_reduce
I1126 12:30:32.661185 19057 net.cpp:157] Top shape: 64 32 14 14 (401408)
I1126 12:30:32.661188 19057 net.cpp:165] Memory required for data: 3020917252
I1126 12:30:32.661191 19057 layer_factory.hpp:76] Creating layer inception_4d/5x5
I1126 12:30:32.661201 19057 net.cpp:106] Creating Layer inception_4d/5x5
I1126 12:30:32.661206 19057 net.cpp:454] inception_4d/5x5 <- inception_4d/5x5_reduce
I1126 12:30:32.661212 19057 net.cpp:411] inception_4d/5x5 -> inception_4d/5x5
I1126 12:30:32.662605 19057 net.cpp:150] Setting up inception_4d/5x5
I1126 12:30:32.662619 19057 net.cpp:157] Top shape: 64 64 14 14 (802816)
I1126 12:30:32.662622 19057 net.cpp:165] Memory required for data: 3024128516
I1126 12:30:32.662628 19057 layer_factory.hpp:76] Creating layer inception_4d/relu_5x5
I1126 12:30:32.662636 19057 net.cpp:106] Creating Layer inception_4d/relu_5x5
I1126 12:30:32.662639 19057 net.cpp:454] inception_4d/relu_5x5 <- inception_4d/5x5
I1126 12:30:32.662644 19057 net.cpp:397] inception_4d/relu_5x5 -> inception_4d/5x5 (in-place)
I1126 12:30:32.662833 19057 net.cpp:150] Setting up inception_4d/relu_5x5
I1126 12:30:32.662845 19057 net.cpp:157] Top shape: 64 64 14 14 (802816)
I1126 12:30:32.662848 19057 net.cpp:165] Memory required for data: 3027339780
I1126 12:30:32.662853 19057 layer_factory.hpp:76] Creating layer inception_4d/pool
I1126 12:30:32.662859 19057 net.cpp:106] Creating Layer inception_4d/pool
I1126 12:30:32.662863 19057 net.cpp:454] inception_4d/pool <- inception_4c/output_inception_4c/output_0_split_3
I1126 12:30:32.662869 19057 net.cpp:411] inception_4d/pool -> inception_4d/pool
I1126 12:30:32.663229 19057 net.cpp:150] Setting up inception_4d/pool
I1126 12:30:32.663244 19057 net.cpp:157] Top shape: 64 512 14 14 (6422528)
I1126 12:30:32.663246 19057 net.cpp:165] Memory required for data: 3053029892
I1126 12:30:32.663250 19057 layer_factory.hpp:76] Creating layer inception_4d/pool_proj
I1126 12:30:32.663259 19057 net.cpp:106] Creating Layer inception_4d/pool_proj
I1126 12:30:32.663264 19057 net.cpp:454] inception_4d/pool_proj <- inception_4d/pool
I1126 12:30:32.663269 19057 net.cpp:411] inception_4d/pool_proj -> inception_4d/pool_proj
I1126 12:30:32.664541 19057 net.cpp:150] Setting up inception_4d/pool_proj
I1126 12:30:32.664556 19057 net.cpp:157] Top shape: 64 64 14 14 (802816)
I1126 12:30:32.664559 19057 net.cpp:165] Memory required for data: 3056241156
I1126 12:30:32.664566 19057 layer_factory.hpp:76] Creating layer inception_4d/relu_pool_proj
I1126 12:30:32.664572 19057 net.cpp:106] Creating Layer inception_4d/relu_pool_proj
I1126 12:30:32.664576 19057 net.cpp:454] inception_4d/relu_pool_proj <- inception_4d/pool_proj
I1126 12:30:32.664582 19057 net.cpp:397] inception_4d/relu_pool_proj -> inception_4d/pool_proj (in-place)
I1126 12:30:32.664758 19057 net.cpp:150] Setting up inception_4d/relu_pool_proj
I1126 12:30:32.664770 19057 net.cpp:157] Top shape: 64 64 14 14 (802816)
I1126 12:30:32.664773 19057 net.cpp:165] Memory required for data: 3059452420
I1126 12:30:32.664777 19057 layer_factory.hpp:76] Creating layer inception_4d/output
I1126 12:30:32.664783 19057 net.cpp:106] Creating Layer inception_4d/output
I1126 12:30:32.664786 19057 net.cpp:454] inception_4d/output <- inception_4d/1x1
I1126 12:30:32.664791 19057 net.cpp:454] inception_4d/output <- inception_4d/3x3
I1126 12:30:32.664794 19057 net.cpp:454] inception_4d/output <- inception_4d/5x5
I1126 12:30:32.664798 19057 net.cpp:454] inception_4d/output <- inception_4d/pool_proj
I1126 12:30:32.664803 19057 net.cpp:411] inception_4d/output -> inception_4d/output
I1126 12:30:32.664839 19057 net.cpp:150] Setting up inception_4d/output
I1126 12:30:32.664845 19057 net.cpp:157] Top shape: 64 528 14 14 (6623232)
I1126 12:30:32.664847 19057 net.cpp:165] Memory required for data: 3085945348
I1126 12:30:32.664851 19057 layer_factory.hpp:76] Creating layer inception_4d/output_inception_4d/output_0_split
I1126 12:30:32.664856 19057 net.cpp:106] Creating Layer inception_4d/output_inception_4d/output_0_split
I1126 12:30:32.664861 19057 net.cpp:454] inception_4d/output_inception_4d/output_0_split <- inception_4d/output
I1126 12:30:32.664866 19057 net.cpp:411] inception_4d/output_inception_4d/output_0_split -> inception_4d/output_inception_4d/output_0_split_0
I1126 12:30:32.664872 19057 net.cpp:411] inception_4d/output_inception_4d/output_0_split -> inception_4d/output_inception_4d/output_0_split_1
I1126 12:30:32.664878 19057 net.cpp:411] inception_4d/output_inception_4d/output_0_split -> inception_4d/output_inception_4d/output_0_split_2
I1126 12:30:32.664883 19057 net.cpp:411] inception_4d/output_inception_4d/output_0_split -> inception_4d/output_inception_4d/output_0_split_3
I1126 12:30:32.664888 19057 net.cpp:411] inception_4d/output_inception_4d/output_0_split -> inception_4d/output_inception_4d/output_0_split_4
I1126 12:30:32.664973 19057 net.cpp:150] Setting up inception_4d/output_inception_4d/output_0_split
I1126 12:30:32.664981 19057 net.cpp:157] Top shape: 64 528 14 14 (6623232)
I1126 12:30:32.664985 19057 net.cpp:157] Top shape: 64 528 14 14 (6623232)
I1126 12:30:32.664988 19057 net.cpp:157] Top shape: 64 528 14 14 (6623232)
I1126 12:30:32.664993 19057 net.cpp:157] Top shape: 64 528 14 14 (6623232)
I1126 12:30:32.664995 19057 net.cpp:157] Top shape: 64 528 14 14 (6623232)
I1126 12:30:32.664999 19057 net.cpp:165] Memory required for data: 3218409988
I1126 12:30:32.665001 19057 layer_factory.hpp:76] Creating layer loss2/ave_pool
I1126 12:30:32.665007 19057 net.cpp:106] Creating Layer loss2/ave_pool
I1126 12:30:32.665010 19057 net.cpp:454] loss2/ave_pool <- inception_4d/output_inception_4d/output_0_split_0
I1126 12:30:32.665016 19057 net.cpp:411] loss2/ave_pool -> loss2/ave_pool
I1126 12:30:32.665357 19057 net.cpp:150] Setting up loss2/ave_pool
I1126 12:30:32.665371 19057 net.cpp:157] Top shape: 64 528 4 4 (540672)
I1126 12:30:32.665374 19057 net.cpp:165] Memory required for data: 3220572676
I1126 12:30:32.665377 19057 layer_factory.hpp:76] Creating layer loss2/conv
I1126 12:30:32.665388 19057 net.cpp:106] Creating Layer loss2/conv
I1126 12:30:32.665392 19057 net.cpp:454] loss2/conv <- loss2/ave_pool
I1126 12:30:32.665400 19057 net.cpp:411] loss2/conv -> loss2/conv
I1126 12:30:32.667191 19057 net.cpp:150] Setting up loss2/conv
I1126 12:30:32.667207 19057 net.cpp:157] Top shape: 64 128 4 4 (131072)
I1126 12:30:32.667210 19057 net.cpp:165] Memory required for data: 3221096964
I1126 12:30:32.667217 19057 layer_factory.hpp:76] Creating layer loss2/relu_conv
I1126 12:30:32.667224 19057 net.cpp:106] Creating Layer loss2/relu_conv
I1126 12:30:32.667228 19057 net.cpp:454] loss2/relu_conv <- loss2/conv
I1126 12:30:32.667233 19057 net.cpp:397] loss2/relu_conv -> loss2/conv (in-place)
I1126 12:30:32.667671 19057 net.cpp:150] Setting up loss2/relu_conv
I1126 12:30:32.667686 19057 net.cpp:157] Top shape: 64 128 4 4 (131072)
I1126 12:30:32.667690 19057 net.cpp:165] Memory required for data: 3221621252
I1126 12:30:32.667693 19057 layer_factory.hpp:76] Creating layer loss2/fc
I1126 12:30:32.667701 19057 net.cpp:106] Creating Layer loss2/fc
I1126 12:30:32.667704 19057 net.cpp:454] loss2/fc <- loss2/conv
I1126 12:30:32.667711 19057 net.cpp:411] loss2/fc -> loss2/fc
I1126 12:30:32.683243 19057 net.cpp:150] Setting up loss2/fc
I1126 12:30:32.683259 19057 net.cpp:157] Top shape: 64 1024 (65536)
I1126 12:30:32.683262 19057 net.cpp:165] Memory required for data: 3221883396
I1126 12:30:32.683269 19057 layer_factory.hpp:76] Creating layer loss2/relu_fc
I1126 12:30:32.683276 19057 net.cpp:106] Creating Layer loss2/relu_fc
I1126 12:30:32.683281 19057 net.cpp:454] loss2/relu_fc <- loss2/fc
I1126 12:30:32.683286 19057 net.cpp:397] loss2/relu_fc -> loss2/fc (in-place)
I1126 12:30:32.683477 19057 net.cpp:150] Setting up loss2/relu_fc
I1126 12:30:32.683490 19057 net.cpp:157] Top shape: 64 1024 (65536)
I1126 12:30:32.683492 19057 net.cpp:165] Memory required for data: 3222145540
I1126 12:30:32.683495 19057 layer_factory.hpp:76] Creating layer loss2/drop_fc
I1126 12:30:32.683504 19057 net.cpp:106] Creating Layer loss2/drop_fc
I1126 12:30:32.683508 19057 net.cpp:454] loss2/drop_fc <- loss2/fc
I1126 12:30:32.683513 19057 net.cpp:397] loss2/drop_fc -> loss2/fc (in-place)
I1126 12:30:32.683549 19057 net.cpp:150] Setting up loss2/drop_fc
I1126 12:30:32.683557 19057 net.cpp:157] Top shape: 64 1024 (65536)
I1126 12:30:32.683560 19057 net.cpp:165] Memory required for data: 3222407684
I1126 12:30:32.683563 19057 layer_factory.hpp:76] Creating layer loss2/classifier-attribute
I1126 12:30:32.683571 19057 net.cpp:106] Creating Layer loss2/classifier-attribute
I1126 12:30:32.683575 19057 net.cpp:454] loss2/classifier-attribute <- loss2/fc
I1126 12:30:32.683580 19057 net.cpp:411] loss2/classifier-attribute -> loss2/classifier-attribute
I1126 12:30:32.683748 19057 net.cpp:150] Setting up loss2/classifier-attribute
I1126 12:30:32.683758 19057 net.cpp:157] Top shape: 64 6 (384)
I1126 12:30:32.683760 19057 net.cpp:165] Memory required for data: 3222409220
I1126 12:30:32.683766 19057 layer_factory.hpp:76] Creating layer loss2/loss
I1126 12:30:32.683773 19057 net.cpp:106] Creating Layer loss2/loss
I1126 12:30:32.683776 19057 net.cpp:454] loss2/loss <- loss2/classifier-attribute
I1126 12:30:32.683780 19057 net.cpp:454] loss2/loss <- label_data_1_split_1
I1126 12:30:32.683787 19057 net.cpp:411] loss2/loss -> loss2/loss1
I1126 12:30:32.683794 19057 layer_factory.hpp:76] Creating layer loss2/loss
I1126 12:30:32.684219 19057 net.cpp:150] Setting up loss2/loss
I1126 12:30:32.684233 19057 net.cpp:157] Top shape: (1)
I1126 12:30:32.684237 19057 net.cpp:160]     with loss weight 0.3
I1126 12:30:32.684247 19057 net.cpp:165] Memory required for data: 3222409224
I1126 12:30:32.684252 19057 layer_factory.hpp:76] Creating layer inception_4e/1x1
I1126 12:30:32.684260 19057 net.cpp:106] Creating Layer inception_4e/1x1
I1126 12:30:32.684264 19057 net.cpp:454] inception_4e/1x1 <- inception_4d/output_inception_4d/output_0_split_1
I1126 12:30:32.684270 19057 net.cpp:411] inception_4e/1x1 -> inception_4e/1x1
I1126 12:30:32.686198 19057 net.cpp:150] Setting up inception_4e/1x1
I1126 12:30:32.686213 19057 net.cpp:157] Top shape: 64 256 14 14 (3211264)
I1126 12:30:32.686218 19057 net.cpp:165] Memory required for data: 3235254280
I1126 12:30:32.686223 19057 layer_factory.hpp:76] Creating layer inception_4e/relu_1x1
I1126 12:30:32.686229 19057 net.cpp:106] Creating Layer inception_4e/relu_1x1
I1126 12:30:32.686233 19057 net.cpp:454] inception_4e/relu_1x1 <- inception_4e/1x1
I1126 12:30:32.686239 19057 net.cpp:397] inception_4e/relu_1x1 -> inception_4e/1x1 (in-place)
I1126 12:30:32.686420 19057 net.cpp:150] Setting up inception_4e/relu_1x1
I1126 12:30:32.686431 19057 net.cpp:157] Top shape: 64 256 14 14 (3211264)
I1126 12:30:32.686434 19057 net.cpp:165] Memory required for data: 3248099336
I1126 12:30:32.686439 19057 layer_factory.hpp:76] Creating layer inception_4e/3x3_reduce
I1126 12:30:32.686446 19057 net.cpp:106] Creating Layer inception_4e/3x3_reduce
I1126 12:30:32.686450 19057 net.cpp:454] inception_4e/3x3_reduce <- inception_4d/output_inception_4d/output_0_split_2
I1126 12:30:32.686457 19057 net.cpp:411] inception_4e/3x3_reduce -> inception_4e/3x3_reduce
I1126 12:30:32.688513 19057 net.cpp:150] Setting up inception_4e/3x3_reduce
I1126 12:30:32.688529 19057 net.cpp:157] Top shape: 64 160 14 14 (2007040)
I1126 12:30:32.688532 19057 net.cpp:165] Memory required for data: 3256127496
I1126 12:30:32.688539 19057 layer_factory.hpp:76] Creating layer inception_4e/relu_3x3_reduce
I1126 12:30:32.688544 19057 net.cpp:106] Creating Layer inception_4e/relu_3x3_reduce
I1126 12:30:32.688549 19057 net.cpp:454] inception_4e/relu_3x3_reduce <- inception_4e/3x3_reduce
I1126 12:30:32.688555 19057 net.cpp:397] inception_4e/relu_3x3_reduce -> inception_4e/3x3_reduce (in-place)
I1126 12:30:32.688875 19057 net.cpp:150] Setting up inception_4e/relu_3x3_reduce
I1126 12:30:32.688889 19057 net.cpp:157] Top shape: 64 160 14 14 (2007040)
I1126 12:30:32.688894 19057 net.cpp:165] Memory required for data: 3264155656
I1126 12:30:32.688896 19057 layer_factory.hpp:76] Creating layer inception_4e/3x3
I1126 12:30:32.688905 19057 net.cpp:106] Creating Layer inception_4e/3x3
I1126 12:30:32.688910 19057 net.cpp:454] inception_4e/3x3 <- inception_4e/3x3_reduce
I1126 12:30:32.688917 19057 net.cpp:411] inception_4e/3x3 -> inception_4e/3x3
I1126 12:30:32.693404 19057 net.cpp:150] Setting up inception_4e/3x3
I1126 12:30:32.693419 19057 net.cpp:157] Top shape: 64 320 14 14 (4014080)
I1126 12:30:32.693423 19057 net.cpp:165] Memory required for data: 3280211976
I1126 12:30:32.693429 19057 layer_factory.hpp:76] Creating layer inception_4e/relu_3x3
I1126 12:30:32.693435 19057 net.cpp:106] Creating Layer inception_4e/relu_3x3
I1126 12:30:32.693439 19057 net.cpp:454] inception_4e/relu_3x3 <- inception_4e/3x3
I1126 12:30:32.693444 19057 net.cpp:397] inception_4e/relu_3x3 -> inception_4e/3x3 (in-place)
I1126 12:30:32.693764 19057 net.cpp:150] Setting up inception_4e/relu_3x3
I1126 12:30:32.693778 19057 net.cpp:157] Top shape: 64 320 14 14 (4014080)
I1126 12:30:32.693781 19057 net.cpp:165] Memory required for data: 3296268296
I1126 12:30:32.693784 19057 layer_factory.hpp:76] Creating layer inception_4e/5x5_reduce
I1126 12:30:32.693794 19057 net.cpp:106] Creating Layer inception_4e/5x5_reduce
I1126 12:30:32.693799 19057 net.cpp:454] inception_4e/5x5_reduce <- inception_4d/output_inception_4d/output_0_split_3
I1126 12:30:32.693806 19057 net.cpp:411] inception_4e/5x5_reduce -> inception_4e/5x5_reduce
I1126 12:30:32.695010 19057 net.cpp:150] Setting up inception_4e/5x5_reduce
I1126 12:30:32.695025 19057 net.cpp:157] Top shape: 64 32 14 14 (401408)
I1126 12:30:32.695029 19057 net.cpp:165] Memory required for data: 3297873928
I1126 12:30:32.695035 19057 layer_factory.hpp:76] Creating layer inception_4e/relu_5x5_reduce
I1126 12:30:32.695040 19057 net.cpp:106] Creating Layer inception_4e/relu_5x5_reduce
I1126 12:30:32.695045 19057 net.cpp:454] inception_4e/relu_5x5_reduce <- inception_4e/5x5_reduce
I1126 12:30:32.695051 19057 net.cpp:397] inception_4e/relu_5x5_reduce -> inception_4e/5x5_reduce (in-place)
I1126 12:30:32.695230 19057 net.cpp:150] Setting up inception_4e/relu_5x5_reduce
I1126 12:30:32.695240 19057 net.cpp:157] Top shape: 64 32 14 14 (401408)
I1126 12:30:32.695243 19057 net.cpp:165] Memory required for data: 3299479560
I1126 12:30:32.695247 19057 layer_factory.hpp:76] Creating layer inception_4e/5x5
I1126 12:30:32.695271 19057 net.cpp:106] Creating Layer inception_4e/5x5
I1126 12:30:32.695274 19057 net.cpp:454] inception_4e/5x5 <- inception_4e/5x5_reduce
I1126 12:30:32.695282 19057 net.cpp:411] inception_4e/5x5 -> inception_4e/5x5
I1126 12:30:32.697021 19057 net.cpp:150] Setting up inception_4e/5x5
I1126 12:30:32.697034 19057 net.cpp:157] Top shape: 64 128 14 14 (1605632)
I1126 12:30:32.697038 19057 net.cpp:165] Memory required for data: 3305902088
I1126 12:30:32.697046 19057 layer_factory.hpp:76] Creating layer inception_4e/relu_5x5
I1126 12:30:32.697052 19057 net.cpp:106] Creating Layer inception_4e/relu_5x5
I1126 12:30:32.697057 19057 net.cpp:454] inception_4e/relu_5x5 <- inception_4e/5x5
I1126 12:30:32.697062 19057 net.cpp:397] inception_4e/relu_5x5 -> inception_4e/5x5 (in-place)
I1126 12:30:32.697386 19057 net.cpp:150] Setting up inception_4e/relu_5x5
I1126 12:30:32.697399 19057 net.cpp:157] Top shape: 64 128 14 14 (1605632)
I1126 12:30:32.697402 19057 net.cpp:165] Memory required for data: 3312324616
I1126 12:30:32.697407 19057 layer_factory.hpp:76] Creating layer inception_4e/pool
I1126 12:30:32.697414 19057 net.cpp:106] Creating Layer inception_4e/pool
I1126 12:30:32.697418 19057 net.cpp:454] inception_4e/pool <- inception_4d/output_inception_4d/output_0_split_4
I1126 12:30:32.697423 19057 net.cpp:411] inception_4e/pool -> inception_4e/pool
I1126 12:30:32.697643 19057 net.cpp:150] Setting up inception_4e/pool
I1126 12:30:32.697654 19057 net.cpp:157] Top shape: 64 528 14 14 (6623232)
I1126 12:30:32.697657 19057 net.cpp:165] Memory required for data: 3338817544
I1126 12:30:32.697660 19057 layer_factory.hpp:76] Creating layer inception_4e/pool_proj
I1126 12:30:32.697669 19057 net.cpp:106] Creating Layer inception_4e/pool_proj
I1126 12:30:32.697674 19057 net.cpp:454] inception_4e/pool_proj <- inception_4e/pool
I1126 12:30:32.697680 19057 net.cpp:411] inception_4e/pool_proj -> inception_4e/pool_proj
I1126 12:30:32.699210 19057 net.cpp:150] Setting up inception_4e/pool_proj
I1126 12:30:32.699225 19057 net.cpp:157] Top shape: 64 128 14 14 (1605632)
I1126 12:30:32.699229 19057 net.cpp:165] Memory required for data: 3345240072
I1126 12:30:32.699235 19057 layer_factory.hpp:76] Creating layer inception_4e/relu_pool_proj
I1126 12:30:32.699241 19057 net.cpp:106] Creating Layer inception_4e/relu_pool_proj
I1126 12:30:32.699245 19057 net.cpp:454] inception_4e/relu_pool_proj <- inception_4e/pool_proj
I1126 12:30:32.699251 19057 net.cpp:397] inception_4e/relu_pool_proj -> inception_4e/pool_proj (in-place)
I1126 12:30:32.699570 19057 net.cpp:150] Setting up inception_4e/relu_pool_proj
I1126 12:30:32.699584 19057 net.cpp:157] Top shape: 64 128 14 14 (1605632)
I1126 12:30:32.699587 19057 net.cpp:165] Memory required for data: 3351662600
I1126 12:30:32.699591 19057 layer_factory.hpp:76] Creating layer inception_4e/output
I1126 12:30:32.699599 19057 net.cpp:106] Creating Layer inception_4e/output
I1126 12:30:32.699602 19057 net.cpp:454] inception_4e/output <- inception_4e/1x1
I1126 12:30:32.699606 19057 net.cpp:454] inception_4e/output <- inception_4e/3x3
I1126 12:30:32.699611 19057 net.cpp:454] inception_4e/output <- inception_4e/5x5
I1126 12:30:32.699615 19057 net.cpp:454] inception_4e/output <- inception_4e/pool_proj
I1126 12:30:32.699621 19057 net.cpp:411] inception_4e/output -> inception_4e/output
I1126 12:30:32.699658 19057 net.cpp:150] Setting up inception_4e/output
I1126 12:30:32.699664 19057 net.cpp:157] Top shape: 64 832 14 14 (10436608)
I1126 12:30:32.699667 19057 net.cpp:165] Memory required for data: 3393409032
I1126 12:30:32.699671 19057 layer_factory.hpp:76] Creating layer pool4/3x3_s2
I1126 12:30:32.699677 19057 net.cpp:106] Creating Layer pool4/3x3_s2
I1126 12:30:32.699681 19057 net.cpp:454] pool4/3x3_s2 <- inception_4e/output
I1126 12:30:32.699687 19057 net.cpp:411] pool4/3x3_s2 -> pool4/3x3_s2
I1126 12:30:32.699901 19057 net.cpp:150] Setting up pool4/3x3_s2
I1126 12:30:32.699913 19057 net.cpp:157] Top shape: 64 832 7 7 (2609152)
I1126 12:30:32.699916 19057 net.cpp:165] Memory required for data: 3403845640
I1126 12:30:32.699919 19057 layer_factory.hpp:76] Creating layer pool4/3x3_s2_pool4/3x3_s2_0_split
I1126 12:30:32.699925 19057 net.cpp:106] Creating Layer pool4/3x3_s2_pool4/3x3_s2_0_split
I1126 12:30:32.699929 19057 net.cpp:454] pool4/3x3_s2_pool4/3x3_s2_0_split <- pool4/3x3_s2
I1126 12:30:32.699939 19057 net.cpp:411] pool4/3x3_s2_pool4/3x3_s2_0_split -> pool4/3x3_s2_pool4/3x3_s2_0_split_0
I1126 12:30:32.699945 19057 net.cpp:411] pool4/3x3_s2_pool4/3x3_s2_0_split -> pool4/3x3_s2_pool4/3x3_s2_0_split_1
I1126 12:30:32.699951 19057 net.cpp:411] pool4/3x3_s2_pool4/3x3_s2_0_split -> pool4/3x3_s2_pool4/3x3_s2_0_split_2
I1126 12:30:32.699956 19057 net.cpp:411] pool4/3x3_s2_pool4/3x3_s2_0_split -> pool4/3x3_s2_pool4/3x3_s2_0_split_3
I1126 12:30:32.700029 19057 net.cpp:150] Setting up pool4/3x3_s2_pool4/3x3_s2_0_split
I1126 12:30:32.700037 19057 net.cpp:157] Top shape: 64 832 7 7 (2609152)
I1126 12:30:32.700042 19057 net.cpp:157] Top shape: 64 832 7 7 (2609152)
I1126 12:30:32.700045 19057 net.cpp:157] Top shape: 64 832 7 7 (2609152)
I1126 12:30:32.700048 19057 net.cpp:157] Top shape: 64 832 7 7 (2609152)
I1126 12:30:32.700052 19057 net.cpp:165] Memory required for data: 3445592072
I1126 12:30:32.700054 19057 layer_factory.hpp:76] Creating layer inception_5a/1x1
I1126 12:30:32.700064 19057 net.cpp:106] Creating Layer inception_5a/1x1
I1126 12:30:32.700068 19057 net.cpp:454] inception_5a/1x1 <- pool4/3x3_s2_pool4/3x3_s2_0_split_0
I1126 12:30:32.700074 19057 net.cpp:411] inception_5a/1x1 -> inception_5a/1x1
I1126 12:30:32.702939 19057 net.cpp:150] Setting up inception_5a/1x1
I1126 12:30:32.702955 19057 net.cpp:157] Top shape: 64 256 7 7 (802816)
I1126 12:30:32.702958 19057 net.cpp:165] Memory required for data: 3448803336
I1126 12:30:32.702965 19057 layer_factory.hpp:76] Creating layer inception_5a/relu_1x1
I1126 12:30:32.702971 19057 net.cpp:106] Creating Layer inception_5a/relu_1x1
I1126 12:30:32.702976 19057 net.cpp:454] inception_5a/relu_1x1 <- inception_5a/1x1
I1126 12:30:32.702982 19057 net.cpp:397] inception_5a/relu_1x1 -> inception_5a/1x1 (in-place)
I1126 12:30:32.703294 19057 net.cpp:150] Setting up inception_5a/relu_1x1
I1126 12:30:32.703308 19057 net.cpp:157] Top shape: 64 256 7 7 (802816)
I1126 12:30:32.703311 19057 net.cpp:165] Memory required for data: 3452014600
I1126 12:30:32.703315 19057 layer_factory.hpp:76] Creating layer inception_5a/3x3_reduce
I1126 12:30:32.703326 19057 net.cpp:106] Creating Layer inception_5a/3x3_reduce
I1126 12:30:32.703330 19057 net.cpp:454] inception_5a/3x3_reduce <- pool4/3x3_s2_pool4/3x3_s2_0_split_1
I1126 12:30:32.703337 19057 net.cpp:411] inception_5a/3x3_reduce -> inception_5a/3x3_reduce
I1126 12:30:32.705729 19057 net.cpp:150] Setting up inception_5a/3x3_reduce
I1126 12:30:32.705744 19057 net.cpp:157] Top shape: 64 160 7 7 (501760)
I1126 12:30:32.705749 19057 net.cpp:165] Memory required for data: 3454021640
I1126 12:30:32.705754 19057 layer_factory.hpp:76] Creating layer inception_5a/relu_3x3_reduce
I1126 12:30:32.705761 19057 net.cpp:106] Creating Layer inception_5a/relu_3x3_reduce
I1126 12:30:32.705765 19057 net.cpp:454] inception_5a/relu_3x3_reduce <- inception_5a/3x3_reduce
I1126 12:30:32.705771 19057 net.cpp:397] inception_5a/relu_3x3_reduce -> inception_5a/3x3_reduce (in-place)
I1126 12:30:32.706104 19057 net.cpp:150] Setting up inception_5a/relu_3x3_reduce
I1126 12:30:32.706117 19057 net.cpp:157] Top shape: 64 160 7 7 (501760)
I1126 12:30:32.706121 19057 net.cpp:165] Memory required for data: 3456028680
I1126 12:30:32.706125 19057 layer_factory.hpp:76] Creating layer inception_5a/3x3
I1126 12:30:32.706135 19057 net.cpp:106] Creating Layer inception_5a/3x3
I1126 12:30:32.706138 19057 net.cpp:454] inception_5a/3x3 <- inception_5a/3x3_reduce
I1126 12:30:32.706146 19057 net.cpp:411] inception_5a/3x3 -> inception_5a/3x3
I1126 12:30:32.710809 19057 net.cpp:150] Setting up inception_5a/3x3
I1126 12:30:32.710824 19057 net.cpp:157] Top shape: 64 320 7 7 (1003520)
I1126 12:30:32.710829 19057 net.cpp:165] Memory required for data: 3460042760
I1126 12:30:32.710834 19057 layer_factory.hpp:76] Creating layer inception_5a/relu_3x3
I1126 12:30:32.710842 19057 net.cpp:106] Creating Layer inception_5a/relu_3x3
I1126 12:30:32.710846 19057 net.cpp:454] inception_5a/relu_3x3 <- inception_5a/3x3
I1126 12:30:32.710854 19057 net.cpp:397] inception_5a/relu_3x3 -> inception_5a/3x3 (in-place)
I1126 12:30:32.711047 19057 net.cpp:150] Setting up inception_5a/relu_3x3
I1126 12:30:32.711060 19057 net.cpp:157] Top shape: 64 320 7 7 (1003520)
I1126 12:30:32.711062 19057 net.cpp:165] Memory required for data: 3464056840
I1126 12:30:32.711066 19057 layer_factory.hpp:76] Creating layer inception_5a/5x5_reduce
I1126 12:30:32.711076 19057 net.cpp:106] Creating Layer inception_5a/5x5_reduce
I1126 12:30:32.711081 19057 net.cpp:454] inception_5a/5x5_reduce <- pool4/3x3_s2_pool4/3x3_s2_0_split_2
I1126 12:30:32.711087 19057 net.cpp:411] inception_5a/5x5_reduce -> inception_5a/5x5_reduce
I1126 12:30:32.712383 19057 net.cpp:150] Setting up inception_5a/5x5_reduce
I1126 12:30:32.712399 19057 net.cpp:157] Top shape: 64 32 7 7 (100352)
I1126 12:30:32.712402 19057 net.cpp:165] Memory required for data: 3464458248
I1126 12:30:32.712409 19057 layer_factory.hpp:76] Creating layer inception_5a/relu_5x5_reduce
I1126 12:30:32.712414 19057 net.cpp:106] Creating Layer inception_5a/relu_5x5_reduce
I1126 12:30:32.712419 19057 net.cpp:454] inception_5a/relu_5x5_reduce <- inception_5a/5x5_reduce
I1126 12:30:32.712425 19057 net.cpp:397] inception_5a/relu_5x5_reduce -> inception_5a/5x5_reduce (in-place)
I1126 12:30:32.712605 19057 net.cpp:150] Setting up inception_5a/relu_5x5_reduce
I1126 12:30:32.712616 19057 net.cpp:157] Top shape: 64 32 7 7 (100352)
I1126 12:30:32.712620 19057 net.cpp:165] Memory required for data: 3464859656
I1126 12:30:32.712623 19057 layer_factory.hpp:76] Creating layer inception_5a/5x5
I1126 12:30:32.712632 19057 net.cpp:106] Creating Layer inception_5a/5x5
I1126 12:30:32.712636 19057 net.cpp:454] inception_5a/5x5 <- inception_5a/5x5_reduce
I1126 12:30:32.712643 19057 net.cpp:411] inception_5a/5x5 -> inception_5a/5x5
I1126 12:30:32.714401 19057 net.cpp:150] Setting up inception_5a/5x5
I1126 12:30:32.714416 19057 net.cpp:157] Top shape: 64 128 7 7 (401408)
I1126 12:30:32.714419 19057 net.cpp:165] Memory required for data: 3466465288
I1126 12:30:32.714426 19057 layer_factory.hpp:76] Creating layer inception_5a/relu_5x5
I1126 12:30:32.714432 19057 net.cpp:106] Creating Layer inception_5a/relu_5x5
I1126 12:30:32.714435 19057 net.cpp:454] inception_5a/relu_5x5 <- inception_5a/5x5
I1126 12:30:32.714442 19057 net.cpp:397] inception_5a/relu_5x5 -> inception_5a/5x5 (in-place)
I1126 12:30:32.714768 19057 net.cpp:150] Setting up inception_5a/relu_5x5
I1126 12:30:32.714781 19057 net.cpp:157] Top shape: 64 128 7 7 (401408)
I1126 12:30:32.714786 19057 net.cpp:165] Memory required for data: 3468070920
I1126 12:30:32.714788 19057 layer_factory.hpp:76] Creating layer inception_5a/pool
I1126 12:30:32.714794 19057 net.cpp:106] Creating Layer inception_5a/pool
I1126 12:30:32.714809 19057 net.cpp:454] inception_5a/pool <- pool4/3x3_s2_pool4/3x3_s2_0_split_3
I1126 12:30:32.714818 19057 net.cpp:411] inception_5a/pool -> inception_5a/pool
I1126 12:30:32.715039 19057 net.cpp:150] Setting up inception_5a/pool
I1126 12:30:32.715050 19057 net.cpp:157] Top shape: 64 832 7 7 (2609152)
I1126 12:30:32.715054 19057 net.cpp:165] Memory required for data: 3478507528
I1126 12:30:32.715057 19057 layer_factory.hpp:76] Creating layer inception_5a/pool_proj
I1126 12:30:32.715067 19057 net.cpp:106] Creating Layer inception_5a/pool_proj
I1126 12:30:32.715071 19057 net.cpp:454] inception_5a/pool_proj <- inception_5a/pool
I1126 12:30:32.715077 19057 net.cpp:411] inception_5a/pool_proj -> inception_5a/pool_proj
I1126 12:30:32.717280 19057 net.cpp:150] Setting up inception_5a/pool_proj
I1126 12:30:32.717295 19057 net.cpp:157] Top shape: 64 128 7 7 (401408)
I1126 12:30:32.717299 19057 net.cpp:165] Memory required for data: 3480113160
I1126 12:30:32.717305 19057 layer_factory.hpp:76] Creating layer inception_5a/relu_pool_proj
I1126 12:30:32.717314 19057 net.cpp:106] Creating Layer inception_5a/relu_pool_proj
I1126 12:30:32.717317 19057 net.cpp:454] inception_5a/relu_pool_proj <- inception_5a/pool_proj
I1126 12:30:32.717324 19057 net.cpp:397] inception_5a/relu_pool_proj -> inception_5a/pool_proj (in-place)
I1126 12:30:32.717653 19057 net.cpp:150] Setting up inception_5a/relu_pool_proj
I1126 12:30:32.717667 19057 net.cpp:157] Top shape: 64 128 7 7 (401408)
I1126 12:30:32.717670 19057 net.cpp:165] Memory required for data: 3481718792
I1126 12:30:32.717674 19057 layer_factory.hpp:76] Creating layer inception_5a/output
I1126 12:30:32.717681 19057 net.cpp:106] Creating Layer inception_5a/output
I1126 12:30:32.717686 19057 net.cpp:454] inception_5a/output <- inception_5a/1x1
I1126 12:30:32.717691 19057 net.cpp:454] inception_5a/output <- inception_5a/3x3
I1126 12:30:32.717695 19057 net.cpp:454] inception_5a/output <- inception_5a/5x5
I1126 12:30:32.717699 19057 net.cpp:454] inception_5a/output <- inception_5a/pool_proj
I1126 12:30:32.717703 19057 net.cpp:411] inception_5a/output -> inception_5a/output
I1126 12:30:32.717743 19057 net.cpp:150] Setting up inception_5a/output
I1126 12:30:32.717749 19057 net.cpp:157] Top shape: 64 832 7 7 (2609152)
I1126 12:30:32.717751 19057 net.cpp:165] Memory required for data: 3492155400
I1126 12:30:32.717754 19057 layer_factory.hpp:76] Creating layer inception_5a/output_inception_5a/output_0_split
I1126 12:30:32.717761 19057 net.cpp:106] Creating Layer inception_5a/output_inception_5a/output_0_split
I1126 12:30:32.717764 19057 net.cpp:454] inception_5a/output_inception_5a/output_0_split <- inception_5a/output
I1126 12:30:32.717772 19057 net.cpp:411] inception_5a/output_inception_5a/output_0_split -> inception_5a/output_inception_5a/output_0_split_0
I1126 12:30:32.717777 19057 net.cpp:411] inception_5a/output_inception_5a/output_0_split -> inception_5a/output_inception_5a/output_0_split_1
I1126 12:30:32.717783 19057 net.cpp:411] inception_5a/output_inception_5a/output_0_split -> inception_5a/output_inception_5a/output_0_split_2
I1126 12:30:32.717788 19057 net.cpp:411] inception_5a/output_inception_5a/output_0_split -> inception_5a/output_inception_5a/output_0_split_3
I1126 12:30:32.717864 19057 net.cpp:150] Setting up inception_5a/output_inception_5a/output_0_split
I1126 12:30:32.717872 19057 net.cpp:157] Top shape: 64 832 7 7 (2609152)
I1126 12:30:32.717876 19057 net.cpp:157] Top shape: 64 832 7 7 (2609152)
I1126 12:30:32.717880 19057 net.cpp:157] Top shape: 64 832 7 7 (2609152)
I1126 12:30:32.717883 19057 net.cpp:157] Top shape: 64 832 7 7 (2609152)
I1126 12:30:32.717886 19057 net.cpp:165] Memory required for data: 3533901832
I1126 12:30:32.717890 19057 layer_factory.hpp:76] Creating layer inception_5b/1x1
I1126 12:30:32.717898 19057 net.cpp:106] Creating Layer inception_5b/1x1
I1126 12:30:32.717902 19057 net.cpp:454] inception_5b/1x1 <- inception_5a/output_inception_5a/output_0_split_0
I1126 12:30:32.717907 19057 net.cpp:411] inception_5b/1x1 -> inception_5b/1x1
I1126 12:30:32.721451 19057 net.cpp:150] Setting up inception_5b/1x1
I1126 12:30:32.721465 19057 net.cpp:157] Top shape: 64 384 7 7 (1204224)
I1126 12:30:32.721470 19057 net.cpp:165] Memory required for data: 3538718728
I1126 12:30:32.721477 19057 layer_factory.hpp:76] Creating layer inception_5b/relu_1x1
I1126 12:30:32.721482 19057 net.cpp:106] Creating Layer inception_5b/relu_1x1
I1126 12:30:32.721487 19057 net.cpp:454] inception_5b/relu_1x1 <- inception_5b/1x1
I1126 12:30:32.721492 19057 net.cpp:397] inception_5b/relu_1x1 -> inception_5b/1x1 (in-place)
I1126 12:30:32.721820 19057 net.cpp:150] Setting up inception_5b/relu_1x1
I1126 12:30:32.721835 19057 net.cpp:157] Top shape: 64 384 7 7 (1204224)
I1126 12:30:32.721838 19057 net.cpp:165] Memory required for data: 3543535624
I1126 12:30:32.721843 19057 layer_factory.hpp:76] Creating layer inception_5b/3x3_reduce
I1126 12:30:32.721850 19057 net.cpp:106] Creating Layer inception_5b/3x3_reduce
I1126 12:30:32.721855 19057 net.cpp:454] inception_5b/3x3_reduce <- inception_5a/output_inception_5a/output_0_split_1
I1126 12:30:32.721861 19057 net.cpp:411] inception_5b/3x3_reduce -> inception_5b/3x3_reduce
I1126 12:30:32.724469 19057 net.cpp:150] Setting up inception_5b/3x3_reduce
I1126 12:30:32.724485 19057 net.cpp:157] Top shape: 64 192 7 7 (602112)
I1126 12:30:32.724489 19057 net.cpp:165] Memory required for data: 3545944072
I1126 12:30:32.724495 19057 layer_factory.hpp:76] Creating layer inception_5b/relu_3x3_reduce
I1126 12:30:32.724501 19057 net.cpp:106] Creating Layer inception_5b/relu_3x3_reduce
I1126 12:30:32.724505 19057 net.cpp:454] inception_5b/relu_3x3_reduce <- inception_5b/3x3_reduce
I1126 12:30:32.724511 19057 net.cpp:397] inception_5b/relu_3x3_reduce -> inception_5b/3x3_reduce (in-place)
I1126 12:30:32.724696 19057 net.cpp:150] Setting up inception_5b/relu_3x3_reduce
I1126 12:30:32.724709 19057 net.cpp:157] Top shape: 64 192 7 7 (602112)
I1126 12:30:32.724711 19057 net.cpp:165] Memory required for data: 3548352520
I1126 12:30:32.724714 19057 layer_factory.hpp:76] Creating layer inception_5b/3x3
I1126 12:30:32.724723 19057 net.cpp:106] Creating Layer inception_5b/3x3
I1126 12:30:32.724727 19057 net.cpp:454] inception_5b/3x3 <- inception_5b/3x3_reduce
I1126 12:30:32.724735 19057 net.cpp:411] inception_5b/3x3 -> inception_5b/3x3
I1126 12:30:32.731027 19057 net.cpp:150] Setting up inception_5b/3x3
I1126 12:30:32.731045 19057 net.cpp:157] Top shape: 64 384 7 7 (1204224)
I1126 12:30:32.731050 19057 net.cpp:165] Memory required for data: 3553169416
I1126 12:30:32.731056 19057 layer_factory.hpp:76] Creating layer inception_5b/relu_3x3
I1126 12:30:32.731062 19057 net.cpp:106] Creating Layer inception_5b/relu_3x3
I1126 12:30:32.731066 19057 net.cpp:454] inception_5b/relu_3x3 <- inception_5b/3x3
I1126 12:30:32.731072 19057 net.cpp:397] inception_5b/relu_3x3 -> inception_5b/3x3 (in-place)
I1126 12:30:32.731417 19057 net.cpp:150] Setting up inception_5b/relu_3x3
I1126 12:30:32.731432 19057 net.cpp:157] Top shape: 64 384 7 7 (1204224)
I1126 12:30:32.731436 19057 net.cpp:165] Memory required for data: 3557986312
I1126 12:30:32.731439 19057 layer_factory.hpp:76] Creating layer inception_5b/5x5_reduce
I1126 12:30:32.731448 19057 net.cpp:106] Creating Layer inception_5b/5x5_reduce
I1126 12:30:32.731452 19057 net.cpp:454] inception_5b/5x5_reduce <- inception_5a/output_inception_5a/output_0_split_2
I1126 12:30:32.731459 19057 net.cpp:411] inception_5b/5x5_reduce -> inception_5b/5x5_reduce
I1126 12:30:32.733139 19057 net.cpp:150] Setting up inception_5b/5x5_reduce
I1126 12:30:32.733155 19057 net.cpp:157] Top shape: 64 48 7 7 (150528)
I1126 12:30:32.733158 19057 net.cpp:165] Memory required for data: 3558588424
I1126 12:30:32.733165 19057 layer_factory.hpp:76] Creating layer inception_5b/relu_5x5_reduce
I1126 12:30:32.733178 19057 net.cpp:106] Creating Layer inception_5b/relu_5x5_reduce
I1126 12:30:32.733183 19057 net.cpp:454] inception_5b/relu_5x5_reduce <- inception_5b/5x5_reduce
I1126 12:30:32.733188 19057 net.cpp:397] inception_5b/relu_5x5_reduce -> inception_5b/5x5_reduce (in-place)
I1126 12:30:32.733528 19057 net.cpp:150] Setting up inception_5b/relu_5x5_reduce
I1126 12:30:32.733542 19057 net.cpp:157] Top shape: 64 48 7 7 (150528)
I1126 12:30:32.733546 19057 net.cpp:165] Memory required for data: 3559190536
I1126 12:30:32.733549 19057 layer_factory.hpp:76] Creating layer inception_5b/5x5
I1126 12:30:32.733561 19057 net.cpp:106] Creating Layer inception_5b/5x5
I1126 12:30:32.733566 19057 net.cpp:454] inception_5b/5x5 <- inception_5b/5x5_reduce
I1126 12:30:32.733572 19057 net.cpp:411] inception_5b/5x5 -> inception_5b/5x5
I1126 12:30:32.735687 19057 net.cpp:150] Setting up inception_5b/5x5
I1126 12:30:32.735702 19057 net.cpp:157] Top shape: 64 128 7 7 (401408)
I1126 12:30:32.735707 19057 net.cpp:165] Memory required for data: 3560796168
I1126 12:30:32.735713 19057 layer_factory.hpp:76] Creating layer inception_5b/relu_5x5
I1126 12:30:32.735719 19057 net.cpp:106] Creating Layer inception_5b/relu_5x5
I1126 12:30:32.735723 19057 net.cpp:454] inception_5b/relu_5x5 <- inception_5b/5x5
I1126 12:30:32.735728 19057 net.cpp:397] inception_5b/relu_5x5 -> inception_5b/5x5 (in-place)
I1126 12:30:32.735914 19057 net.cpp:150] Setting up inception_5b/relu_5x5
I1126 12:30:32.735925 19057 net.cpp:157] Top shape: 64 128 7 7 (401408)
I1126 12:30:32.735929 19057 net.cpp:165] Memory required for data: 3562401800
I1126 12:30:32.735932 19057 layer_factory.hpp:76] Creating layer inception_5b/pool
I1126 12:30:32.735939 19057 net.cpp:106] Creating Layer inception_5b/pool
I1126 12:30:32.735942 19057 net.cpp:454] inception_5b/pool <- inception_5a/output_inception_5a/output_0_split_3
I1126 12:30:32.735949 19057 net.cpp:411] inception_5b/pool -> inception_5b/pool
I1126 12:30:32.736326 19057 net.cpp:150] Setting up inception_5b/pool
I1126 12:30:32.736340 19057 net.cpp:157] Top shape: 64 832 7 7 (2609152)
I1126 12:30:32.736343 19057 net.cpp:165] Memory required for data: 3572838408
I1126 12:30:32.736346 19057 layer_factory.hpp:76] Creating layer inception_5b/pool_proj
I1126 12:30:32.736356 19057 net.cpp:106] Creating Layer inception_5b/pool_proj
I1126 12:30:32.736361 19057 net.cpp:454] inception_5b/pool_proj <- inception_5b/pool
I1126 12:30:32.736367 19057 net.cpp:411] inception_5b/pool_proj -> inception_5b/pool_proj
I1126 12:30:32.738620 19057 net.cpp:150] Setting up inception_5b/pool_proj
I1126 12:30:32.738634 19057 net.cpp:157] Top shape: 64 128 7 7 (401408)
I1126 12:30:32.738637 19057 net.cpp:165] Memory required for data: 3574444040
I1126 12:30:32.738644 19057 layer_factory.hpp:76] Creating layer inception_5b/relu_pool_proj
I1126 12:30:32.738649 19057 net.cpp:106] Creating Layer inception_5b/relu_pool_proj
I1126 12:30:32.738654 19057 net.cpp:454] inception_5b/relu_pool_proj <- inception_5b/pool_proj
I1126 12:30:32.738661 19057 net.cpp:397] inception_5b/relu_pool_proj -> inception_5b/pool_proj (in-place)
I1126 12:30:32.738864 19057 net.cpp:150] Setting up inception_5b/relu_pool_proj
I1126 12:30:32.738878 19057 net.cpp:157] Top shape: 64 128 7 7 (401408)
I1126 12:30:32.738880 19057 net.cpp:165] Memory required for data: 3576049672
I1126 12:30:32.738884 19057 layer_factory.hpp:76] Creating layer inception_5b/output
I1126 12:30:32.738893 19057 net.cpp:106] Creating Layer inception_5b/output
I1126 12:30:32.738896 19057 net.cpp:454] inception_5b/output <- inception_5b/1x1
I1126 12:30:32.738900 19057 net.cpp:454] inception_5b/output <- inception_5b/3x3
I1126 12:30:32.738905 19057 net.cpp:454] inception_5b/output <- inception_5b/5x5
I1126 12:30:32.738909 19057 net.cpp:454] inception_5b/output <- inception_5b/pool_proj
I1126 12:30:32.738914 19057 net.cpp:411] inception_5b/output -> inception_5b/output
I1126 12:30:32.738953 19057 net.cpp:150] Setting up inception_5b/output
I1126 12:30:32.738968 19057 net.cpp:157] Top shape: 64 1024 7 7 (3211264)
I1126 12:30:32.738971 19057 net.cpp:165] Memory required for data: 3588894728
I1126 12:30:32.738975 19057 layer_factory.hpp:76] Creating layer pool5/7x7_s1
I1126 12:30:32.738981 19057 net.cpp:106] Creating Layer pool5/7x7_s1
I1126 12:30:32.738984 19057 net.cpp:454] pool5/7x7_s1 <- inception_5b/output
I1126 12:30:32.738991 19057 net.cpp:411] pool5/7x7_s1 -> pool5/7x7_s1
I1126 12:30:32.739341 19057 net.cpp:150] Setting up pool5/7x7_s1
I1126 12:30:32.739356 19057 net.cpp:157] Top shape: 64 1024 1 1 (65536)
I1126 12:30:32.739358 19057 net.cpp:165] Memory required for data: 3589156872
I1126 12:30:32.739362 19057 layer_factory.hpp:76] Creating layer pool5/drop_7x7_s1
I1126 12:30:32.739370 19057 net.cpp:106] Creating Layer pool5/drop_7x7_s1
I1126 12:30:32.739374 19057 net.cpp:454] pool5/drop_7x7_s1 <- pool5/7x7_s1
I1126 12:30:32.739379 19057 net.cpp:397] pool5/drop_7x7_s1 -> pool5/7x7_s1 (in-place)
I1126 12:30:32.739415 19057 net.cpp:150] Setting up pool5/drop_7x7_s1
I1126 12:30:32.739421 19057 net.cpp:157] Top shape: 64 1024 1 1 (65536)
I1126 12:30:32.739423 19057 net.cpp:165] Memory required for data: 3589419016
I1126 12:30:32.739426 19057 layer_factory.hpp:76] Creating layer loss3/classifier-attribute
I1126 12:30:32.739435 19057 net.cpp:106] Creating Layer loss3/classifier-attribute
I1126 12:30:32.739439 19057 net.cpp:454] loss3/classifier-attribute <- pool5/7x7_s1
I1126 12:30:32.739446 19057 net.cpp:411] loss3/classifier-attribute -> loss3/classifier-attribute
I1126 12:30:32.739630 19057 net.cpp:150] Setting up loss3/classifier-attribute
I1126 12:30:32.739639 19057 net.cpp:157] Top shape: 64 6 (384)
I1126 12:30:32.739642 19057 net.cpp:165] Memory required for data: 3589420552
I1126 12:30:32.739648 19057 layer_factory.hpp:76] Creating layer loss3/loss3
I1126 12:30:32.739655 19057 net.cpp:106] Creating Layer loss3/loss3
I1126 12:30:32.739658 19057 net.cpp:454] loss3/loss3 <- loss3/classifier-attribute
I1126 12:30:32.739662 19057 net.cpp:454] loss3/loss3 <- label_data_1_split_2
I1126 12:30:32.739667 19057 net.cpp:411] loss3/loss3 -> loss3/loss3
…
I1126 12:30:32.750022 19057 net.cpp:322] The NetState phase (1) differed from the phase (0) specified by a rule in layer data
I1126 12:30:32.751457 19057 net.cpp:49] Initializing net from parameters: 
name: "GoogleNet-finetune-for-cigit"
state {
  phase: TEST
}
layer {
  name: "data"
  type: "ImageData"
  top: "data"
  top: "label"
  include {
    phase: TEST
  }
  transform_param {
    mirror: false
    crop_size: 224
    mean_value: 104
    mean_value: 117
    mean_value: 123
  }
  image_data_param {
    source: "pad_test.txt"
    batch_size: 64
    new_height: 256
    new_width: 256
  }
}
layer {
  name: "conv1/7x7_s2"
  type: "Convolution"
  bottom: "data"
  top: "conv1/7x7_s2"
  param {
    lr_mult: 1
    decay_mult: 1
  }
  param {
    lr_mult: 2
    decay_mult: 0
  }
  convolution_param {
    num_output: 64
    pad: 3
    kernel_size: 7
    stride: 2
    weight_filler {
      type: "xavier"
    }
    bias_filler {
      type: "constant"
      value: 0.2
    }
  }
}
layer {
  name: "conv1/relu_7x7"
  type: "ReLU"
  bottom: "conv1/7x7_s2"
  top: "conv1/7x7_s2"
}
layer {
  name: "pool1/3x3_s2"
  type: "Pooling"
  bottom: "conv1/7x7_s2"
  top: "pool1/3x3_s2"
  pooling_param {
    pool: MAX
    kernel_size: 3
    stride: 2
  }
}
layer {
  name: "pool1/norm1"
  type: "LRN"
  bottom: "pool1/3x3_s2"
  top: "pool1/norm1"
  lrn_param {
    local_size: 5
    alpha: 0.0001
    beta: 0.75
  }
}
layer {
  name: "conv2/3x3_reduce"
  type: "Convolution"
  bottom: "pool1/norm1"
  top: "conv2/3x3_reduce"
  param {
    lr_mult: 1
    decay_mult: 1
  }
  param {
    lr_mult: 2
    decay_mult: 0
  }
  convolution_param {
    num_output: 64
    kernel_size: 1
    weight_filler {
      type: "xavier"
    }
    bias_filler {
      type: "constant"
      value: 0.2
    }
  }
}
layer {
  name: "conv2/relu_3x3_reduce"
  type: "ReLU"
  bottom: "conv2/3x3_reduce"
  top: "conv2/3x3_reduce"
}
layer {
  name: "conv2/3x3"
  type: "Convolution"
  bottom: "conv2/3x3_reduce"
  top: "conv2/3x3"
  param {
    lr_mult: 1
    decay_mult: 1
  }
  param {
    lr_mult: 2
    decay_mult: 0
  }
  convolution_param {
    num_output: 192
    pad: 1
    kernel_size: 3
    weight_filler {
      type: "xavier"
    }
    bias_filler {
      type: "constant"
      value: 0.2
    }
  }
}
layer {
  name: "conv2/relu_3x3"
  type: "ReLU"
  bottom: "conv2/3x3"
  top: "conv2/3x3"
}
layer {
  name: "conv2/norm2"
  type: "LRN"
  bottom: "conv2/3x3"
  top: "conv2/norm2"
  lrn_param {
    local_size: 5
    alpha: 0.0001
    beta: 0.75
  }
}
layer {
  name: "pool2/3x3_s2"
  type: "Pooling"
  bottom: "conv2/norm2"
  top: "pool2/3x3_s2"
  pooling_param {
    pool: MAX
    kernel_size: 3
    stride: 2
  }
}
layer {
  name: "inception_3a/1x1"
  type: "Convolution"
  bottom: "pool2/3x3_s2"
  top: "inception_3a/1x1"
  param {
    lr_mult: 1
    decay_mult: 1
  }
  param {
    lr_mult: 2
    decay_mult: 0
  }
  convolution_param {
    num_output: 64
    kernel_size: 1
    weight_filler {
      type: "xavier"
    }
    bias_filler {
      type: "constant"
      value: 0.2
    }
  }
}
layer {
  name: "inception_3a/relu_1x1"
  type: "ReLU"
  bottom: "inception_3a/1x1"
  top: "inception_3a/1x1"
}
layer {
  name: "inception_3a/3x3_reduce"
  type: "Convolution"
  bottom: "pool2/3x3_s2"
  top: "inception_3a/3x3_reduce"
  param {
    lr_mult: 1
    decay_mult: 1
  }
  param {
    lr_mult: 2
    decay_mult: 0
  }
  convolution_param {
    num_output: 96
    kernel_size: 1
    weight_filler {
      type: "xavier"
    }
    bias_filler {
      type: "constant"
      value: 0.2
    }
  }
}
layer {
  name: "inception_3a/relu_3x3_reduce"
  type: "ReLU"
  bottom: "inception_3a/3x3_reduce"
  top: "inception_3a/3x3_reduce"
}
layer {
  name: "inception_3a/3x3"
  type: "Convolution"
  bottom: "inception_3a/3x3_reduce"
  top: "inception_3a/3x3"
  param {
    lr_mult: 1
    decay_mult: 1
  }
  param {
    lr_mult: 2
    decay_mult: 0
  }
  convolution_param {
    num_output: 128
    pad: 1
    kernel_size: 3
    weight_filler {
      type: "xavier"
    }
    bias_filler {
      type: "constant"
      value: 0.2
    }
  }
}
layer {
  name: "inception_3a/relu_3x3"
  type: "ReLU"
  bottom: "inception_3a/3x3"
  top: "inception_3a/3x3"
}
layer {
  name: "inception_3a/5x5_reduce"
  type: "Convolution"
  bottom: "pool2/3x3_s2"
  top: "inception_3a/5x5_reduce"
  param {
    lr_mult: 1
    decay_mult: 1
  }
  param {
    lr_mult: 2
    decay_mult: 0
  }
  convolution_param {
    num_output: 16
    kernel_size: 1
    weight_filler {
      type: "xavier"
    }
    bias_filler {
      type: "constant"
      value: 0.2
    }
  }
}
layer {
  name: "inception_3a/relu_5x5_reduce"
  type: "ReLU"
  bottom: "inception_3a/5x5_reduce"
  top: "inception_3a/5x5_reduce"
}
layer {
  name: "inception_3a/5x5"
  type: "Convolution"
  bottom: "inception_3a/5x5_reduce"
  top: "inception_3a/5x5"
  param {
    lr_mult: 1
    decay_mult: 1
  }
  param {
    lr_mult: 2
    decay_mult: 0
  }
  convolution_param {
    num_output: 32
    pad: 2
    kernel_size: 5
    weight_filler {
      type: "xavier"
    }
    bias_filler {
      type: "constant"
      value: 0.2
    }
  }
}
layer {
  name: "inception_3a/relu_5x5"
  type: "ReLU"
  bottom: "inception_3a/5x5"
  top: "inception_3a/5x5"
}
layer {
  name: "inception_3a/pool"
  type: "Pooling"
  bottom: "pool2/3x3_s2"
  top: "inception_3a/pool"
  pooling_param {
    pool: MAX
    kernel_size: 3
    stride: 1
    pad: 1
  }
}
layer {
  name: "inception_3a/pool_proj"
  type: "Convolution"
  bottom: "inception_3a/pool"
  top: "inception_3a/pool_proj"
  param {
    lr_mult: 1
    decay_mult: 1
  }
  param {
    lr_mult: 2
    decay_mult: 0
  }
  convolution_param {
    num_output: 32
    kernel_size: 1
    weight_filler {
      type: "xavier"
    }
    bias_filler {
      type: "constant"
      value: 0.2
    }
  }
}
layer {
  name: "inception_3a/relu_pool_proj"
  type: "ReLU"
  bottom: "inception_3a/pool_proj"
  top: "inception_3a/pool_proj"
}
layer {
  name: "inception_3a/output"
  type: "Concat"
  bottom: "inception_3a/1x1"
  bottom: "inception_3a/3x3"
  bottom: "inception_3a/5x5"
  bottom: "inception_3a/pool_proj"
  top: "inception_3a/output"
}
layer {
  name: "inception_3b/1x1"
  type: "Convolution"
  bottom: "inception_3a/output"
  top: "inception_3b/1x1"
  param {
    lr_mult: 1
    decay_mult: 1
  }
  param {
    lr_mult: 2
    decay_mult: 0
  }
  convolution_param {
    num_output: 128
    kernel_size: 1
    weight_filler {
      type: "xavier"
    }
    bias_filler {
      type: "constant"
      value: 0.2
    }
  }
}
layer {
  name: "inception_3b/relu_1x1"
  type: "ReLU"
  bottom: "inception_3b/1x1"
  top: "inception_3b/1x1"
}
layer {
  name: "inception_3b/3x3_reduce"
  type: "Convolution"
  bottom: "inception_3a/output"
  top: "inception_3b/3x3_reduce"
  param {
    lr_mult: 1
    decay_mult: 1
  }
  param {
    lr_mult: 2
    decay_mult: 0
  }
  convolution_param {
    num_output: 128
    kernel_size: 1
    weight_filler {
      type: "xavier"
    }
    bias_filler {
      type: "constant"
      value: 0.2
    }
  }
}
layer {
  name: "inception_3b/relu_3x3_reduce"
  type: "ReLU"
  bottom: "inception_3b/3x3_reduce"
  top: "inception_3b/3x3_reduce"
}
layer {
  name: "inception_3b/3x3"
  type: "Convolution"
  bottom: "inception_3b/3x3_reduce"
  top: "inception_3b/3x3"
  param {
    lr_mult: 1
    decay_mult: 1
  }
  param {
    lr_mult: 2
    decay_mult: 0
  }
  convolution_param {
    num_output: 192
    pad: 1
    kernel_size: 3
    weight_filler {
      type: "xavier"
    }
    bias_filler {
      type: "constant"
      value: 0.2
    }
  }
}
layer {
  name: "inception_3b/relu_3x3"
  type: "ReLU"
  bottom: "inception_3b/3x3"
  top: "inception_3b/3x3"
}
layer {
  name: "inception_3b/5x5_reduce"
  type: "Convolution"
  bottom: "inception_3a/output"
  top: "inception_3b/5x5_reduce"
  param {
    lr_mult: 1
    decay_mult: 1
  }
  param {
    lr_mult: 2
    decay_mult: 0
  }
  convolution_param {
    num_output: 32
    kernel_size: 1
    weight_filler {
      type: "xavier"
    }
    bias_filler {
      type: "constant"
      value: 0.2
    }
  }
}
layer {
  name: "inception_3b/relu_5x5_reduce"
  type: "ReLU"
  bottom: "inception_3b/5x5_reduce"
  top: "inception_3b/5x5_reduce"
}
layer {
  name: "inception_3b/5x5"
  type: "Convolution"
  bottom: "inception_3b/5x5_reduce"
  top: "inception_3b/5x5"
  param {
    lr_mult: 1
    decay_mult: 1
  }
  param {
    lr_mult: 2
    decay_mult: 0
  }
  convolution_param {
    num_output: 96
    pad: 2
    kernel_size: 5
    weight_filler {
      type: "xavier"
    }
    bias_filler {
      type: "constant"
      value: 0.2
    }
  }
}
layer {
  name: "inception_3b/relu_5x5"
  type: "ReLU"
  bottom: "inception_3b/5x5"
  top: "inception_3b/5x5"
}
layer {
  name: "inception_3b/pool"
  type: "Pooling"
  bottom: "inception_3a/output"
  top: "inception_3b/pool"
  pooling_param {
    pool: MAX
    kernel_size: 3
    stride: 1
    pad: 1
  }
}
layer {
  name: "inception_3b/pool_proj"
  type: "Convolution"
  bottom: "inception_3b/pool"
  top: "inception_3b/pool_proj"
  param {
    lr_mult: 1
    decay_mult: 1
  }
  param {
    lr_mult: 2
    decay_mult: 0
  }
  convolution_param {
    num_output: 64
    kernel_size: 1
    weight_filler {
      type: "xavier"
    }
    bias_filler {
      type: "constant"
      value: 0.2
    }
  }
}
layer {
  name: "inception_3b/relu_pool_proj"
  type: "ReLU"
  bottom: "inception_3b/pool_proj"
  top: "inception_3b/pool_proj"
}
layer {
  name: "inception_3b/output"
  type: "Concat"
  bottom: "inception_3b/1x1"
  bottom: "inception_3b/3x3"
  bottom: "inception_3b/5x5"
  bottom: "inception_3b/pool_proj"
  top: "inception_3b/output"
}
layer {
  name: "pool3/3x3_s2"
  type: "Pooling"
  bottom: "inception_3b/output"
  top: "pool3/3x3_s2"
  pooling_param {
    pool: MAX
    kernel_size: 3
    stride: 2
  }
}
layer {
  name: "inception_4a/1x1"
  type: "Convolution"
  bottom: "pool3/3x3_s2"
  top: "inception_4a/1x1"
  param {
    lr_mult: 1
    decay_mult: 1
  }
  param {
    lr_mult: 2
    decay_mult: 0
  }
  convolution_param {
    num_output: 192
    kernel_size: 1
    weight_filler {
      type: "xavier"
    }
    bias_filler {
      type: "constant"
      value: 0.2
    }
  }
}
layer {
  name: "inception_4a/relu_1x1"
  type: "ReLU"
  bottom: "inception_4a/1x1"
  top: "inception_4a/1x1"
}
layer {
  name: "inception_4a/3x3_reduce"
  type: "Convolution"
  bottom: "pool3/3x3_s2"
  top: "inception_4a/3x3_reduce"
  param {
    lr_mult: 1
    decay_mult: 1
  }
  param {
    lr_mult: 2
    decay_mult: 0
  }
  convolution_param {
    num_output: 96
    kernel_size: 1
    weight_filler {
      type: "xavier"
    }
    bias_filler {
      type: "constant"
      value: 0.2
    }
  }
}
layer {
  name: "inception_4a/relu_3x3_reduce"
  type: "ReLU"
  bottom: "inception_4a/3x3_reduce"
  top: "inception_4a/3x3_reduce"
}
layer {
  name: "inception_4a/3x3"
  type: "Convolution"
  bottom: "inception_4a/3x3_reduce"
  top: "inception_4a/3x3"
  param {
    lr_mult: 1
    decay_mult: 1
  }
  param {
    lr_mult: 2
    decay_mult: 0
  }
  convolution_param {
    num_output: 208
    pad: 1
    kernel_size: 3
    weight_filler {
      type: "xavier"
    }
    bias_filler {
      type: "constant"
      value: 0.2
    }
  }
}
layer {
  name: "inception_4a/relu_3x3"
  type: "ReLU"
  bottom: "inception_4a/3x3"
  top: "inception_4a/3x3"
}
layer {
  name: "inception_4a/5x5_reduce"
  type: "Convolution"
  bottom: "pool3/3x3_s2"
  top: "inception_4a/5x5_reduce"
  param {
    lr_mult: 1
    decay_mult: 1
  }
  param {
    lr_mult: 2
    decay_mult: 0
  }
  convolution_param {
    num_output: 16
    kernel_size: 1
    weight_filler {
      type: "xavier"
    }
    bias_filler {
      type: "constant"
      value: 0.2
    }
  }
}
layer {
  name: "inception_4a/relu_5x5_reduce"
  type: "ReLU"
  bottom: "inception_4a/5x5_reduce"
  top: "inception_4a/5x5_reduce"
}
layer {
  name: "inception_4a/5x5"
  type: "Convolution"
  bottom: "inception_4a/5x5_reduce"
  top: "inception_4a/5x5"
  param {
    lr_mult: 1
    decay_mult: 1
  }
  param {
    lr_mult: 2
    decay_mult: 0
  }
  convolution_param {
    num_output: 48
    pad: 2
    kernel_size: 5
    weight_filler {
      type: "xavier"
    }
    bias_filler {
      type: "constant"
      value: 0.2
    }
  }
}
layer {
  name: "inception_4a/relu_5x5"
  type: "ReLU"
  bottom: "inception_4a/5x5"
  top: "inception_4a/5x5"
}
layer {
  name: "inception_4a/pool"
  type: "Pooling"
  bottom: "pool3/3x3_s2"
  top: "inception_4a/pool"
  pooling_param {
    pool: MAX
    kernel_size: 3
    stride: 1
    pad: 1
  }
}
layer {
  name: "inception_4a/pool_proj"
  type: "Convolution"
  bottom: "inception_4a/pool"
  top: "inception_4a/pool_proj"
  param {
    lr_mult: 1
    decay_mult: 1
  }
  param {
    lr_mult: 2
    decay_mult: 0
  }
  convolution_param {
    num_output: 64
    kernel_size: 1
    weight_filler {
      type: "xavier"
    }
    bias_filler {
      type: "constant"
      value: 0.2
    }
  }
}
layer {
  name: "inception_4a/relu_pool_proj"
  type: "ReLU"
  bottom: "inception_4a/pool_proj"
  top: "inception_4a/pool_proj"
}
layer {
  name: "inception_4a/output"
  type: "Concat"
  bottom: "inception_4a/1x1"
  bottom: "inception_4a/3x3"
  bottom: "inception_4a/5x5"
  bottom: "inception_4a/pool_proj"
  top: "inception_4a/output"
}
layer {
  name: "loss1/ave_pool"
  type: "Pooling"
  bottom: "inception_4a/output"
  top: "loss1/ave_pool"
  pooling_param {
    pool: AVE
    kernel_size: 5
    stride: 3
  }
}
layer {
  name: "loss1/conv"
  type: "Convolution"
  bottom: "loss1/ave_pool"
  top: "loss1/conv"
  param {
    lr_mult: 1
    decay_mult: 1
  }
  param {
    lr_mult: 2
    decay_mult: 0
  }
  convolution_param {
    num_output: 128
    kernel_size: 1
    weight_filler {
      type: "xavier"
    }
    bias_filler {
      type: "constant"
      value: 0.2
    }
  }
}
layer {
  name: "loss1/relu_conv"
  type: "ReLU"
  bottom: "loss1/conv"
  top: "loss1/conv"
}
layer {
  name: "loss1/fc"
  type: "InnerProduct"
  bottom: "loss1/conv"
  top: "loss1/fc"
  param {
    lr_mult: 1
    decay_mult: 1
  }
  param {
    lr_mult: 2
    decay_mult: 0
  }
  inner_product_param {
…
I1126 12:30:32.977082 19057 layer_factory.hpp:76] Creating layer inception_4c/pool
I1126 12:30:32.977089 19057 net.cpp:106] Creating Layer inception_4c/pool
I1126 12:30:32.977093 19057 net.cpp:454] inception_4c/pool <- inception_4b/output_inception_4b/output_0_split_3
I1126 12:30:32.977098 19057 net.cpp:411] inception_4c/pool -> inception_4c/pool
I1126 12:30:32.977355 19057 net.cpp:150] Setting up inception_4c/pool
I1126 12:30:32.977367 19057 net.cpp:157] Top shape: 64 512 14 14 (6422528)
I1126 12:30:32.977370 19057 net.cpp:165] Memory required for data: 2828245256
I1126 12:30:32.977375 19057 layer_factory.hpp:76] Creating layer inception_4c/pool_proj
I1126 12:30:32.977383 19057 net.cpp:106] Creating Layer inception_4c/pool_proj
I1126 12:30:32.977391 19057 net.cpp:454] inception_4c/pool_proj <- inception_4c/pool
I1126 12:30:32.977398 19057 net.cpp:411] inception_4c/pool_proj -> inception_4c/pool_proj
I1126 12:30:32.978952 19057 net.cpp:150] Setting up inception_4c/pool_proj
I1126 12:30:32.978967 19057 net.cpp:157] Top shape: 64 64 14 14 (802816)
I1126 12:30:32.978971 19057 net.cpp:165] Memory required for data: 2831456520
I1126 12:30:32.978977 19057 layer_factory.hpp:76] Creating layer inception_4c/relu_pool_proj
I1126 12:30:32.978986 19057 net.cpp:106] Creating Layer inception_4c/relu_pool_proj
I1126 12:30:32.978989 19057 net.cpp:454] inception_4c/relu_pool_proj <- inception_4c/pool_proj
I1126 12:30:32.978994 19057 net.cpp:397] inception_4c/relu_pool_proj -> inception_4c/pool_proj (in-place)
I1126 12:30:32.979360 19057 net.cpp:150] Setting up inception_4c/relu_pool_proj
I1126 12:30:32.979374 19057 net.cpp:157] Top shape: 64 64 14 14 (802816)
I1126 12:30:32.979377 19057 net.cpp:165] Memory required for data: 2834667784
I1126 12:30:32.979380 19057 layer_factory.hpp:76] Creating layer inception_4c/output
I1126 12:30:32.979388 19057 net.cpp:106] Creating Layer inception_4c/output
I1126 12:30:32.979393 19057 net.cpp:454] inception_4c/output <- inception_4c/1x1
I1126 12:30:32.979398 19057 net.cpp:454] inception_4c/output <- inception_4c/3x3
I1126 12:30:32.979401 19057 net.cpp:454] inception_4c/output <- inception_4c/5x5
I1126 12:30:32.979404 19057 net.cpp:454] inception_4c/output <- inception_4c/pool_proj
I1126 12:30:32.979409 19057 net.cpp:411] inception_4c/output -> inception_4c/output
I1126 12:30:32.979461 19057 net.cpp:150] Setting up inception_4c/output
I1126 12:30:32.979467 19057 net.cpp:157] Top shape: 64 512 14 14 (6422528)
I1126 12:30:32.979470 19057 net.cpp:165] Memory required for data: 2860357896
I1126 12:30:32.979475 19057 layer_factory.hpp:76] Creating layer inception_4c/output_inception_4c/output_0_split
I1126 12:30:32.979480 19057 net.cpp:106] Creating Layer inception_4c/output_inception_4c/output_0_split
I1126 12:30:32.979483 19057 net.cpp:454] inception_4c/output_inception_4c/output_0_split <- inception_4c/output
I1126 12:30:32.979490 19057 net.cpp:411] inception_4c/output_inception_4c/output_0_split -> inception_4c/output_inception_4c/output_0_split_0
I1126 12:30:32.979496 19057 net.cpp:411] inception_4c/output_inception_4c/output_0_split -> inception_4c/output_inception_4c/output_0_split_1
I1126 12:30:32.979501 19057 net.cpp:411] inception_4c/output_inception_4c/output_0_split -> inception_4c/output_inception_4c/output_0_split_2
I1126 12:30:32.979506 19057 net.cpp:411] inception_4c/output_inception_4c/output_0_split -> inception_4c/output_inception_4c/output_0_split_3
I1126 12:30:32.979610 19057 net.cpp:150] Setting up inception_4c/output_inception_4c/output_0_split
I1126 12:30:32.979619 19057 net.cpp:157] Top shape: 64 512 14 14 (6422528)
I1126 12:30:32.979624 19057 net.cpp:157] Top shape: 64 512 14 14 (6422528)
I1126 12:30:32.979626 19057 net.cpp:157] Top shape: 64 512 14 14 (6422528)
I1126 12:30:32.979630 19057 net.cpp:157] Top shape: 64 512 14 14 (6422528)
I1126 12:30:32.979632 19057 net.cpp:165] Memory required for data: 2963118344
I1126 12:30:32.979636 19057 layer_factory.hpp:76] Creating layer inception_4d/1x1
I1126 12:30:32.979645 19057 net.cpp:106] Creating Layer inception_4d/1x1
I1126 12:30:32.979650 19057 net.cpp:454] inception_4d/1x1 <- inception_4c/output_inception_4c/output_0_split_0
I1126 12:30:32.979655 19057 net.cpp:411] inception_4d/1x1 -> inception_4d/1x1
I1126 12:30:32.981184 19057 net.cpp:150] Setting up inception_4d/1x1
I1126 12:30:32.981199 19057 net.cpp:157] Top shape: 64 112 14 14 (1404928)
I1126 12:30:32.981202 19057 net.cpp:165] Memory required for data: 2968738056
I1126 12:30:32.981209 19057 layer_factory.hpp:76] Creating layer inception_4d/relu_1x1
I1126 12:30:32.981216 19057 net.cpp:106] Creating Layer inception_4d/relu_1x1
I1126 12:30:32.981220 19057 net.cpp:454] inception_4d/relu_1x1 <- inception_4d/1x1
I1126 12:30:32.981226 19057 net.cpp:397] inception_4d/relu_1x1 -> inception_4d/1x1 (in-place)
I1126 12:30:32.981596 19057 net.cpp:150] Setting up inception_4d/relu_1x1
I1126 12:30:32.981611 19057 net.cpp:157] Top shape: 64 112 14 14 (1404928)
I1126 12:30:32.981614 19057 net.cpp:165] Memory required for data: 2974357768
I1126 12:30:32.981617 19057 layer_factory.hpp:76] Creating layer inception_4d/3x3_reduce
I1126 12:30:32.981627 19057 net.cpp:106] Creating Layer inception_4d/3x3_reduce
I1126 12:30:32.981631 19057 net.cpp:454] inception_4d/3x3_reduce <- inception_4c/output_inception_4c/output_0_split_1
I1126 12:30:32.981637 19057 net.cpp:411] inception_4d/3x3_reduce -> inception_4d/3x3_reduce
I1126 12:30:32.983506 19057 net.cpp:150] Setting up inception_4d/3x3_reduce
I1126 12:30:32.983521 19057 net.cpp:157] Top shape: 64 144 14 14 (1806336)
I1126 12:30:32.983525 19057 net.cpp:165] Memory required for data: 2981583112
I1126 12:30:32.983531 19057 layer_factory.hpp:76] Creating layer inception_4d/relu_3x3_reduce
I1126 12:30:32.983537 19057 net.cpp:106] Creating Layer inception_4d/relu_3x3_reduce
I1126 12:30:32.983541 19057 net.cpp:454] inception_4d/relu_3x3_reduce <- inception_4d/3x3_reduce
I1126 12:30:32.983548 19057 net.cpp:397] inception_4d/relu_3x3_reduce -> inception_4d/3x3_reduce (in-place)
I1126 12:30:32.983753 19057 net.cpp:150] Setting up inception_4d/relu_3x3_reduce
I1126 12:30:32.983764 19057 net.cpp:157] Top shape: 64 144 14 14 (1806336)
I1126 12:30:32.983767 19057 net.cpp:165] Memory required for data: 2988808456
I1126 12:30:32.983772 19057 layer_factory.hpp:76] Creating layer inception_4d/3x3
I1126 12:30:32.983780 19057 net.cpp:106] Creating Layer inception_4d/3x3
I1126 12:30:32.983784 19057 net.cpp:454] inception_4d/3x3 <- inception_4d/3x3_reduce
I1126 12:30:32.983790 19057 net.cpp:411] inception_4d/3x3 -> inception_4d/3x3
I1126 12:30:32.988008 19057 net.cpp:150] Setting up inception_4d/3x3
I1126 12:30:32.988023 19057 net.cpp:157] Top shape: 64 288 14 14 (3612672)
I1126 12:30:32.988028 19057 net.cpp:165] Memory required for data: 3003259144
I1126 12:30:32.988034 19057 layer_factory.hpp:76] Creating layer inception_4d/relu_3x3
I1126 12:30:32.988040 19057 net.cpp:106] Creating Layer inception_4d/relu_3x3
I1126 12:30:32.988044 19057 net.cpp:454] inception_4d/relu_3x3 <- inception_4d/3x3
I1126 12:30:32.988050 19057 net.cpp:397] inception_4d/relu_3x3 -> inception_4d/3x3 (in-place)
I1126 12:30:32.988404 19057 net.cpp:150] Setting up inception_4d/relu_3x3
I1126 12:30:32.988417 19057 net.cpp:157] Top shape: 64 288 14 14 (3612672)
I1126 12:30:32.988421 19057 net.cpp:165] Memory required for data: 3017709832
I1126 12:30:32.988425 19057 layer_factory.hpp:76] Creating layer inception_4d/5x5_reduce
I1126 12:30:32.988435 19057 net.cpp:106] Creating Layer inception_4d/5x5_reduce
I1126 12:30:32.988440 19057 net.cpp:454] inception_4d/5x5_reduce <- inception_4c/output_inception_4c/output_0_split_2
I1126 12:30:32.988447 19057 net.cpp:411] inception_4d/5x5_reduce -> inception_4d/5x5_reduce
I1126 12:30:32.990314 19057 net.cpp:150] Setting up inception_4d/5x5_reduce
I1126 12:30:32.990329 19057 net.cpp:157] Top shape: 64 32 14 14 (401408)
I1126 12:30:32.990332 19057 net.cpp:165] Memory required for data: 3019315464
I1126 12:30:32.990339 19057 layer_factory.hpp:76] Creating layer inception_4d/relu_5x5_reduce
I1126 12:30:32.990346 19057 net.cpp:106] Creating Layer inception_4d/relu_5x5_reduce
I1126 12:30:32.990351 19057 net.cpp:454] inception_4d/relu_5x5_reduce <- inception_4d/5x5_reduce
I1126 12:30:32.990357 19057 net.cpp:397] inception_4d/relu_5x5_reduce -> inception_4d/5x5_reduce (in-place)
I1126 12:30:32.990720 19057 net.cpp:150] Setting up inception_4d/relu_5x5_reduce
I1126 12:30:32.990734 19057 net.cpp:157] Top shape: 64 32 14 14 (401408)
I1126 12:30:32.990737 19057 net.cpp:165] Memory required for data: 3020921096
I1126 12:30:32.990741 19057 layer_factory.hpp:76] Creating layer inception_4d/5x5
I1126 12:30:32.990751 19057 net.cpp:106] Creating Layer inception_4d/5x5
I1126 12:30:32.990756 19057 net.cpp:454] inception_4d/5x5 <- inception_4d/5x5_reduce
I1126 12:30:32.990761 19057 net.cpp:411] inception_4d/5x5 -> inception_4d/5x5
I1126 12:30:32.992442 19057 net.cpp:150] Setting up inception_4d/5x5
I1126 12:30:32.992457 19057 net.cpp:157] Top shape: 64 64 14 14 (802816)
I1126 12:30:32.992461 19057 net.cpp:165] Memory required for data: 3024132360
I1126 12:30:32.992467 19057 layer_factory.hpp:76] Creating layer inception_4d/relu_5x5
I1126 12:30:32.992473 19057 net.cpp:106] Creating Layer inception_4d/relu_5x5
I1126 12:30:32.992477 19057 net.cpp:454] inception_4d/relu_5x5 <- inception_4d/5x5
I1126 12:30:32.992482 19057 net.cpp:397] inception_4d/relu_5x5 -> inception_4d/5x5 (in-place)
I1126 12:30:32.992689 19057 net.cpp:150] Setting up inception_4d/relu_5x5
I1126 12:30:32.992701 19057 net.cpp:157] Top shape: 64 64 14 14 (802816)
I1126 12:30:32.992704 19057 net.cpp:165] Memory required for data: 3027343624
I1126 12:30:32.992707 19057 layer_factory.hpp:76] Creating layer inception_4d/pool
I1126 12:30:32.992715 19057 net.cpp:106] Creating Layer inception_4d/pool
I1126 12:30:32.992719 19057 net.cpp:454] inception_4d/pool <- inception_4c/output_inception_4c/output_0_split_3
I1126 12:30:32.992724 19057 net.cpp:411] inception_4d/pool -> inception_4d/pool
I1126 12:30:32.993145 19057 net.cpp:150] Setting up inception_4d/pool
I1126 12:30:32.993160 19057 net.cpp:157] Top shape: 64 512 14 14 (6422528)
I1126 12:30:32.993163 19057 net.cpp:165] Memory required for data: 3053033736
I1126 12:30:32.993167 19057 layer_factory.hpp:76] Creating layer inception_4d/pool_proj
I1126 12:30:32.993175 19057 net.cpp:106] Creating Layer inception_4d/pool_proj
I1126 12:30:32.993180 19057 net.cpp:454] inception_4d/pool_proj <- inception_4d/pool
I1126 12:30:32.993186 19057 net.cpp:411] inception_4d/pool_proj -> inception_4d/pool_proj
I1126 12:30:32.994743 19057 net.cpp:150] Setting up inception_4d/pool_proj
I1126 12:30:32.994758 19057 net.cpp:157] Top shape: 64 64 14 14 (802816)
I1126 12:30:32.994762 19057 net.cpp:165] Memory required for data: 3056245000
I1126 12:30:32.994768 19057 layer_factory.hpp:76] Creating layer inception_4d/relu_pool_proj
I1126 12:30:32.994776 19057 net.cpp:106] Creating Layer inception_4d/relu_pool_proj
I1126 12:30:32.994779 19057 net.cpp:454] inception_4d/relu_pool_proj <- inception_4d/pool_proj
I1126 12:30:32.994786 19057 net.cpp:397] inception_4d/relu_pool_proj -> inception_4d/pool_proj (in-place)
I1126 12:30:32.994999 19057 net.cpp:150] Setting up inception_4d/relu_pool_proj
I1126 12:30:32.995013 19057 net.cpp:157] Top shape: 64 64 14 14 (802816)
I1126 12:30:32.995017 19057 net.cpp:165] Memory required for data: 3059456264
I1126 12:30:32.995020 19057 layer_factory.hpp:76] Creating layer inception_4d/output
I1126 12:30:32.995026 19057 net.cpp:106] Creating Layer inception_4d/output
I1126 12:30:32.995030 19057 net.cpp:454] inception_4d/output <- inception_4d/1x1
I1126 12:30:32.995034 19057 net.cpp:454] inception_4d/output <- inception_4d/3x3
I1126 12:30:32.995038 19057 net.cpp:454] inception_4d/output <- inception_4d/5x5
I1126 12:30:32.995043 19057 net.cpp:454] inception_4d/output <- inception_4d/pool_proj
I1126 12:30:32.995048 19057 net.cpp:411] inception_4d/output -> inception_4d/output
I1126 12:30:32.995098 19057 net.cpp:150] Setting up inception_4d/output
I1126 12:30:32.995110 19057 net.cpp:157] Top shape: 64 528 14 14 (6623232)
I1126 12:30:32.995111 19057 net.cpp:165] Memory required for data: 3085949192
I1126 12:30:32.995115 19057 layer_factory.hpp:76] Creating layer inception_4d/output_inception_4d/output_0_split
I1126 12:30:32.995122 19057 net.cpp:106] Creating Layer inception_4d/output_inception_4d/output_0_split
I1126 12:30:32.995126 19057 net.cpp:454] inception_4d/output_inception_4d/output_0_split <- inception_4d/output
I1126 12:30:32.995131 19057 net.cpp:411] inception_4d/output_inception_4d/output_0_split -> inception_4d/output_inception_4d/output_0_split_0
I1126 12:30:32.995137 19057 net.cpp:411] inception_4d/output_inception_4d/output_0_split -> inception_4d/output_inception_4d/output_0_split_1
I1126 12:30:32.995143 19057 net.cpp:411] inception_4d/output_inception_4d/output_0_split -> inception_4d/output_inception_4d/output_0_split_2
I1126 12:30:32.995148 19057 net.cpp:411] inception_4d/output_inception_4d/output_0_split -> inception_4d/output_inception_4d/output_0_split_3
I1126 12:30:32.995153 19057 net.cpp:411] inception_4d/output_inception_4d/output_0_split -> inception_4d/output_inception_4d/output_0_split_4
I1126 12:30:32.995282 19057 net.cpp:150] Setting up inception_4d/output_inception_4d/output_0_split
I1126 12:30:32.995291 19057 net.cpp:157] Top shape: 64 528 14 14 (6623232)
I1126 12:30:32.995296 19057 net.cpp:157] Top shape: 64 528 14 14 (6623232)
I1126 12:30:32.995299 19057 net.cpp:157] Top shape: 64 528 14 14 (6623232)
I1126 12:30:32.995302 19057 net.cpp:157] Top shape: 64 528 14 14 (6623232)
I1126 12:30:32.995307 19057 net.cpp:157] Top shape: 64 528 14 14 (6623232)
I1126 12:30:32.995309 19057 net.cpp:165] Memory required for data: 3218413832
I1126 12:30:32.995313 19057 layer_factory.hpp:76] Creating layer loss2/ave_pool
I1126 12:30:32.995318 19057 net.cpp:106] Creating Layer loss2/ave_pool
I1126 12:30:32.995322 19057 net.cpp:454] loss2/ave_pool <- inception_4d/output_inception_4d/output_0_split_0
I1126 12:30:32.995329 19057 net.cpp:411] loss2/ave_pool -> loss2/ave_pool
I1126 12:30:32.995743 19057 net.cpp:150] Setting up loss2/ave_pool
I1126 12:30:32.995757 19057 net.cpp:157] Top shape: 64 528 4 4 (540672)
I1126 12:30:32.995761 19057 net.cpp:165] Memory required for data: 3220576520
I1126 12:30:32.995764 19057 layer_factory.hpp:76] Creating layer loss2/conv
I1126 12:30:32.995774 19057 net.cpp:106] Creating Layer loss2/conv
I1126 12:30:32.995779 19057 net.cpp:454] loss2/conv <- loss2/ave_pool
I1126 12:30:32.995785 19057 net.cpp:411] loss2/conv -> loss2/conv
I1126 12:30:32.997895 19057 net.cpp:150] Setting up loss2/conv
I1126 12:30:32.997910 19057 net.cpp:157] Top shape: 64 128 4 4 (131072)
I1126 12:30:32.997913 19057 net.cpp:165] Memory required for data: 3221100808
I1126 12:30:32.997920 19057 layer_factory.hpp:76] Creating layer loss2/relu_conv
I1126 12:30:32.997927 19057 net.cpp:106] Creating Layer loss2/relu_conv
I1126 12:30:32.997932 19057 net.cpp:454] loss2/relu_conv <- loss2/conv
I1126 12:30:32.997938 19057 net.cpp:397] loss2/relu_conv -> loss2/conv (in-place)
I1126 12:30:32.998306 19057 net.cpp:150] Setting up loss2/relu_conv
I1126 12:30:32.998322 19057 net.cpp:157] Top shape: 64 128 4 4 (131072)
I1126 12:30:32.998324 19057 net.cpp:165] Memory required for data: 3221625096
I1126 12:30:32.998328 19057 layer_factory.hpp:76] Creating layer loss2/fc
I1126 12:30:32.998335 19057 net.cpp:106] Creating Layer loss2/fc
I1126 12:30:32.998339 19057 net.cpp:454] loss2/fc <- loss2/conv
I1126 12:30:32.998347 19057 net.cpp:411] loss2/fc -> loss2/fc
I1126 12:30:33.013957 19057 net.cpp:150] Setting up loss2/fc
I1126 12:30:33.013977 19057 net.cpp:157] Top shape: 64 1024 (65536)
I1126 12:30:33.013979 19057 net.cpp:165] Memory required for data: 3221887240
I1126 12:30:33.013986 19057 layer_factory.hpp:76] Creating layer loss2/relu_fc
I1126 12:30:33.013993 19057 net.cpp:106] Creating Layer loss2/relu_fc
I1126 12:30:33.014000 19057 net.cpp:454] loss2/relu_fc <- loss2/fc
I1126 12:30:33.014015 19057 net.cpp:397] loss2/relu_fc -> loss2/fc (in-place)
I1126 12:30:33.014233 19057 net.cpp:150] Setting up loss2/relu_fc
I1126 12:30:33.014245 19057 net.cpp:157] Top shape: 64 1024 (65536)
I1126 12:30:33.014248 19057 net.cpp:165] Memory required for data: 3222149384
I1126 12:30:33.014252 19057 layer_factory.hpp:76] Creating layer loss2/drop_fc
I1126 12:30:33.014261 19057 net.cpp:106] Creating Layer loss2/drop_fc
I1126 12:30:33.014266 19057 net.cpp:454] loss2/drop_fc <- loss2/fc
I1126 12:30:33.014271 19057 net.cpp:397] loss2/drop_fc -> loss2/fc (in-place)
I1126 12:30:33.014319 19057 net.cpp:150] Setting up loss2/drop_fc
I1126 12:30:33.014328 19057 net.cpp:157] Top shape: 64 1024 (65536)
I1126 12:30:33.014331 19057 net.cpp:165] Memory required for data: 3222411528
I1126 12:30:33.014334 19057 layer_factory.hpp:76] Creating layer loss2/classifier-attribute
I1126 12:30:33.014343 19057 net.cpp:106] Creating Layer loss2/classifier-attribute
I1126 12:30:33.014346 19057 net.cpp:454] loss2/classifier-attribute <- loss2/fc
I1126 12:30:33.014351 19057 net.cpp:411] loss2/classifier-attribute -> loss2/classifier-attribute
I1126 12:30:33.014581 19057 net.cpp:150] Setting up loss2/classifier-attribute
I1126 12:30:33.014592 19057 net.cpp:157] Top shape: 64 6 (384)
I1126 12:30:33.014595 19057 net.cpp:165] Memory required for data: 3222413064
I1126 12:30:33.014601 19057 layer_factory.hpp:76] Creating layer loss2/classifier-attribute_loss2/classifier-attribute_0_split
I1126 12:30:33.014607 19057 net.cpp:106] Creating Layer loss2/classifier-attribute_loss2/classifier-attribute_0_split
I1126 12:30:33.014611 19057 net.cpp:454] loss2/classifier-attribute_loss2/classifier-attribute_0_split <- loss2/classifier-attribute
I1126 12:30:33.014617 19057 net.cpp:411] loss2/classifier-attribute_loss2/classifier-attribute_0_split -> loss2/classifier-attribute_loss2/classifier-attribute_0_split_0
I1126 12:30:33.014623 19057 net.cpp:411] loss2/classifier-attribute_loss2/classifier-attribute_0_split -> loss2/classifier-attribute_loss2/classifier-attribute_0_split_1
I1126 12:30:33.014688 19057 net.cpp:150] Setting up loss2/classifier-attribute_loss2/classifier-attribute_0_split
I1126 12:30:33.014699 19057 net.cpp:157] Top shape: 64 6 (384)
I1126 12:30:33.014703 19057 net.cpp:157] Top shape: 64 6 (384)
I1126 12:30:33.014706 19057 net.cpp:165] Memory required for data: 3222416136
I1126 12:30:33.014709 19057 layer_factory.hpp:76] Creating layer loss2/loss
I1126 12:30:33.014714 19057 net.cpp:106] Creating Layer loss2/loss
I1126 12:30:33.014719 19057 net.cpp:454] loss2/loss <- loss2/classifier-attribute_loss2/classifier-attribute_0_split_0
I1126 12:30:33.014724 19057 net.cpp:454] loss2/loss <- label_data_1_split_2
…
I1126 12:30:33.015336 19057 net.cpp:150] Setting up loss2/top-1
I1126 12:30:33.015341 19057 net.cpp:157] Top shape: (1)
I1126 12:30:33.015343 19057 net.cpp:165] Memory required for data: 3222416144
I1126 12:30:33.015347 19057 layer_factory.hpp:76] Creating layer inception_4e/1x1
I1126 12:30:33.015378 19057 net.cpp:106] Creating Layer inception_4e/1x1
I1126 12:30:33.015384 19057 net.cpp:454] inception_4e/1x1 <- inception_4d/output_inception_4d/output_0_split_1
I1126 12:30:33.015393 19057 net.cpp:411] inception_4e/1x1 -> inception_4e/1x1
I1126 12:30:33.017630 19057 net.cpp:150] Setting up inception_4e/1x1
I1126 12:30:33.017647 19057 net.cpp:157] Top shape: 64 256 14 14 (3211264)
I1126 12:30:33.017650 19057 net.cpp:165] Memory required for data: 3235261200
I1126 12:30:33.017657 19057 layer_factory.hpp:76] Creating layer inception_4e/relu_1x1
I1126 12:30:33.017665 19057 net.cpp:106] Creating Layer inception_4e/relu_1x1
I1126 12:30:33.017669 19057 net.cpp:454] inception_4e/relu_1x1 <- inception_4e/1x1
I1126 12:30:33.017674 19057 net.cpp:397] inception_4e/relu_1x1 -> inception_4e/1x1 (in-place)
I1126 12:30:33.017882 19057 net.cpp:150] Setting up inception_4e/relu_1x1
I1126 12:30:33.017894 19057 net.cpp:157] Top shape: 64 256 14 14 (3211264)
I1126 12:30:33.017897 19057 net.cpp:165] Memory required for data: 3248106256
I1126 12:30:33.017901 19057 layer_factory.hpp:76] Creating layer inception_4e/3x3_reduce
I1126 12:30:33.017911 19057 net.cpp:106] Creating Layer inception_4e/3x3_reduce
I1126 12:30:33.017915 19057 net.cpp:454] inception_4e/3x3_reduce <- inception_4d/output_inception_4d/output_0_split_2
I1126 12:30:33.017921 19057 net.cpp:411] inception_4e/3x3_reduce -> inception_4e/3x3_reduce
I1126 12:30:33.020272 19057 net.cpp:150] Setting up inception_4e/3x3_reduce
I1126 12:30:33.020287 19057 net.cpp:157] Top shape: 64 160 14 14 (2007040)
I1126 12:30:33.020292 19057 net.cpp:165] Memory required for data: 3256134416
I1126 12:30:33.020298 19057 layer_factory.hpp:76] Creating layer inception_4e/relu_3x3_reduce
I1126 12:30:33.020303 19057 net.cpp:106] Creating Layer inception_4e/relu_3x3_reduce
I1126 12:30:33.020308 19057 net.cpp:454] inception_4e/relu_3x3_reduce <- inception_4e/3x3_reduce
I1126 12:30:33.020314 19057 net.cpp:397] inception_4e/relu_3x3_reduce -> inception_4e/3x3_reduce (in-place)
I1126 12:30:33.020704 19057 net.cpp:150] Setting up inception_4e/relu_3x3_reduce
I1126 12:30:33.020717 19057 net.cpp:157] Top shape: 64 160 14 14 (2007040)
I1126 12:30:33.020720 19057 net.cpp:165] Memory required for data: 3264162576
I1126 12:30:33.020725 19057 layer_factory.hpp:76] Creating layer inception_4e/3x3
I1126 12:30:33.020750 19057 net.cpp:106] Creating Layer inception_4e/3x3
I1126 12:30:33.020755 19057 net.cpp:454] inception_4e/3x3 <- inception_4e/3x3_reduce
I1126 12:30:33.020761 19057 net.cpp:411] inception_4e/3x3 -> inception_4e/3x3
I1126 12:30:33.025537 19057 net.cpp:150] Setting up inception_4e/3x3
I1126 12:30:33.025553 19057 net.cpp:157] Top shape: 64 320 14 14 (4014080)
I1126 12:30:33.025557 19057 net.cpp:165] Memory required for data: 3280218896
I1126 12:30:33.025565 19057 layer_factory.hpp:76] Creating layer inception_4e/relu_3x3
I1126 12:30:33.025571 19057 net.cpp:106] Creating Layer inception_4e/relu_3x3
I1126 12:30:33.025575 19057 net.cpp:454] inception_4e/relu_3x3 <- inception_4e/3x3
I1126 12:30:33.025580 19057 net.cpp:397] inception_4e/relu_3x3 -> inception_4e/3x3 (in-place)
I1126 12:30:33.025949 19057 net.cpp:150] Setting up inception_4e/relu_3x3
I1126 12:30:33.025962 19057 net.cpp:157] Top shape: 64 320 14 14 (4014080)
I1126 12:30:33.025966 19057 net.cpp:165] Memory required for data: 3296275216
I1126 12:30:33.025970 19057 layer_factory.hpp:76] Creating layer inception_4e/5x5_reduce
I1126 12:30:33.025980 19057 net.cpp:106] Creating Layer inception_4e/5x5_reduce
I1126 12:30:33.025985 19057 net.cpp:454] inception_4e/5x5_reduce <- inception_4d/output_inception_4d/output_0_split_3
I1126 12:30:33.025992 19057 net.cpp:411] inception_4e/5x5_reduce -> inception_4e/5x5_reduce
I1126 12:30:33.027652 19057 net.cpp:150] Setting up inception_4e/5x5_reduce
I1126 12:30:33.027667 19057 net.cpp:157] Top shape: 64 32 14 14 (401408)
I1126 12:30:33.027672 19057 net.cpp:165] Memory required for data: 3297880848
I1126 12:30:33.027678 19057 layer_factory.hpp:76] Creating layer inception_4e/relu_5x5_reduce
I1126 12:30:33.027684 19057 net.cpp:106] Creating Layer inception_4e/relu_5x5_reduce
I1126 12:30:33.027688 19057 net.cpp:454] inception_4e/relu_5x5_reduce <- inception_4e/5x5_reduce
I1126 12:30:33.027694 19057 net.cpp:397] inception_4e/relu_5x5_reduce -> inception_4e/5x5_reduce (in-place)
I1126 12:30:33.027902 19057 net.cpp:150] Setting up inception_4e/relu_5x5_reduce
I1126 12:30:33.027915 19057 net.cpp:157] Top shape: 64 32 14 14 (401408)
I1126 12:30:33.027918 19057 net.cpp:165] Memory required for data: 3299486480
I1126 12:30:33.027922 19057 layer_factory.hpp:76] Creating layer inception_4e/5x5
I1126 12:30:33.027930 19057 net.cpp:106] Creating Layer inception_4e/5x5
I1126 12:30:33.027933 19057 net.cpp:454] inception_4e/5x5 <- inception_4e/5x5_reduce
I1126 12:30:33.027940 19057 net.cpp:411] inception_4e/5x5 -> inception_4e/5x5
I1126 12:30:33.029970 19057 net.cpp:150] Setting up inception_4e/5x5
I1126 12:30:33.029985 19057 net.cpp:157] Top shape: 64 128 14 14 (1605632)
I1126 12:30:33.029989 19057 net.cpp:165] Memory required for data: 3305909008
I1126 12:30:33.029996 19057 layer_factory.hpp:76] Creating layer inception_4e/relu_5x5
I1126 12:30:33.030001 19057 net.cpp:106] Creating Layer inception_4e/relu_5x5
I1126 12:30:33.030006 19057 net.cpp:454] inception_4e/relu_5x5 <- inception_4e/5x5
I1126 12:30:33.030012 19057 net.cpp:397] inception_4e/relu_5x5 -> inception_4e/5x5 (in-place)
I1126 12:30:33.030380 19057 net.cpp:150] Setting up inception_4e/relu_5x5
I1126 12:30:33.030395 19057 net.cpp:157] Top shape: 64 128 14 14 (1605632)
I1126 12:30:33.030398 19057 net.cpp:165] Memory required for data: 3312331536
I1126 12:30:33.030401 19057 layer_factory.hpp:76] Creating layer inception_4e/pool
I1126 12:30:33.030408 19057 net.cpp:106] Creating Layer inception_4e/pool
I1126 12:30:33.030412 19057 net.cpp:454] inception_4e/pool <- inception_4d/output_inception_4d/output_0_split_4
I1126 12:30:33.030419 19057 net.cpp:411] inception_4e/pool -> inception_4e/pool
I1126 12:30:33.030690 19057 net.cpp:150] Setting up inception_4e/pool
I1126 12:30:33.030701 19057 net.cpp:157] Top shape: 64 528 14 14 (6623232)
I1126 12:30:33.030705 19057 net.cpp:165] Memory required for data: 3338824464
I1126 12:30:33.030709 19057 layer_factory.hpp:76] Creating layer inception_4e/pool_proj
I1126 12:30:33.030717 19057 net.cpp:106] Creating Layer inception_4e/pool_proj
I1126 12:30:33.030721 19057 net.cpp:454] inception_4e/pool_proj <- inception_4e/pool
I1126 12:30:33.030727 19057 net.cpp:411] inception_4e/pool_proj -> inception_4e/pool_proj
I1126 12:30:33.032555 19057 net.cpp:150] Setting up inception_4e/pool_proj
I1126 12:30:33.032570 19057 net.cpp:157] Top shape: 64 128 14 14 (1605632)
I1126 12:30:33.032574 19057 net.cpp:165] Memory required for data: 3345246992
I1126 12:30:33.032580 19057 layer_factory.hpp:76] Creating layer inception_4e/relu_pool_proj
I1126 12:30:33.032588 19057 net.cpp:106] Creating Layer inception_4e/relu_pool_proj
I1126 12:30:33.032593 19057 net.cpp:454] inception_4e/relu_pool_proj <- inception_4e/pool_proj
I1126 12:30:33.032598 19057 net.cpp:397] inception_4e/relu_pool_proj -> inception_4e/pool_proj (in-place)
I1126 12:30:33.032966 19057 net.cpp:150] Setting up inception_4e/relu_pool_proj
I1126 12:30:33.032979 19057 net.cpp:157] Top shape: 64 128 14 14 (1605632)
I1126 12:30:33.032984 19057 net.cpp:165] Memory required for data: 3351669520
I1126 12:30:33.032986 19057 layer_factory.hpp:76] Creating layer inception_4e/output
I1126 12:30:33.032994 19057 net.cpp:106] Creating Layer inception_4e/output
I1126 12:30:33.032999 19057 net.cpp:454] inception_4e/output <- inception_4e/1x1
I1126 12:30:33.033005 19057 net.cpp:454] inception_4e/output <- inception_4e/3x3
I1126 12:30:33.033010 19057 net.cpp:454] inception_4e/output <- inception_4e/5x5
I1126 12:30:33.033013 19057 net.cpp:454] inception_4e/output <- inception_4e/pool_proj
I1126 12:30:33.033018 19057 net.cpp:411] inception_4e/output -> inception_4e/output
I1126 12:30:33.033071 19057 net.cpp:150] Setting up inception_4e/output
I1126 12:30:33.033078 19057 net.cpp:157] Top shape: 64 832 14 14 (10436608)
I1126 12:30:33.033082 19057 net.cpp:165] Memory required for data: 3393415952
I1126 12:30:33.033084 19057 layer_factory.hpp:76] Creating layer pool4/3x3_s2
I1126 12:30:33.033092 19057 net.cpp:106] Creating Layer pool4/3x3_s2
I1126 12:30:33.033097 19057 net.cpp:454] pool4/3x3_s2 <- inception_4e/output
I1126 12:30:33.033102 19057 net.cpp:411] pool4/3x3_s2 -> pool4/3x3_s2
I1126 12:30:33.033368 19057 net.cpp:150] Setting up pool4/3x3_s2
I1126 12:30:33.033380 19057 net.cpp:157] Top shape: 64 832 7 7 (2609152)
I1126 12:30:33.033383 19057 net.cpp:165] Memory required for data: 3403852560
I1126 12:30:33.033386 19057 layer_factory.hpp:76] Creating layer pool4/3x3_s2_pool4/3x3_s2_0_split
I1126 12:30:33.033392 19057 net.cpp:106] Creating Layer pool4/3x3_s2_pool4/3x3_s2_0_split
I1126 12:30:33.033396 19057 net.cpp:454] pool4/3x3_s2_pool4/3x3_s2_0_split <- pool4/3x3_s2
I1126 12:30:33.033401 19057 net.cpp:411] pool4/3x3_s2_pool4/3x3_s2_0_split -> pool4/3x3_s2_pool4/3x3_s2_0_split_0
I1126 12:30:33.033408 19057 net.cpp:411] pool4/3x3_s2_pool4/3x3_s2_0_split -> pool4/3x3_s2_pool4/3x3_s2_0_split_1
I1126 12:30:33.033414 19057 net.cpp:411] pool4/3x3_s2_pool4/3x3_s2_0_split -> pool4/3x3_s2_pool4/3x3_s2_0_split_2
I1126 12:30:33.033421 19057 net.cpp:411] pool4/3x3_s2_pool4/3x3_s2_0_split -> pool4/3x3_s2_pool4/3x3_s2_0_split_3
I1126 12:30:33.033534 19057 net.cpp:150] Setting up pool4/3x3_s2_pool4/3x3_s2_0_split
I1126 12:30:33.033542 19057 net.cpp:157] Top shape: 64 832 7 7 (2609152)
I1126 12:30:33.033546 19057 net.cpp:157] Top shape: 64 832 7 7 (2609152)
I1126 12:30:33.033550 19057 net.cpp:157] Top shape: 64 832 7 7 (2609152)
I1126 12:30:33.033553 19057 net.cpp:157] Top shape: 64 832 7 7 (2609152)
I1126 12:30:33.033556 19057 net.cpp:165] Memory required for data: 3445598992
I1126 12:30:33.033560 19057 layer_factory.hpp:76] Creating layer inception_5a/1x1
I1126 12:30:33.033568 19057 net.cpp:106] Creating Layer inception_5a/1x1
I1126 12:30:33.033572 19057 net.cpp:454] inception_5a/1x1 <- pool4/3x3_s2_pool4/3x3_s2_0_split_0
I1126 12:30:33.033579 19057 net.cpp:411] inception_5a/1x1 -> inception_5a/1x1
I1126 12:30:33.036747 19057 net.cpp:150] Setting up inception_5a/1x1
I1126 12:30:33.036764 19057 net.cpp:157] Top shape: 64 256 7 7 (802816)
I1126 12:30:33.036767 19057 net.cpp:165] Memory required for data: 3448810256
I1126 12:30:33.036774 19057 layer_factory.hpp:76] Creating layer inception_5a/relu_1x1
I1126 12:30:33.036780 19057 net.cpp:106] Creating Layer inception_5a/relu_1x1
I1126 12:30:33.036784 19057 net.cpp:454] inception_5a/relu_1x1 <- inception_5a/1x1
I1126 12:30:33.036789 19057 net.cpp:397] inception_5a/relu_1x1 -> inception_5a/1x1 (in-place)
I1126 12:30:33.037010 19057 net.cpp:150] Setting up inception_5a/relu_1x1
I1126 12:30:33.037022 19057 net.cpp:157] Top shape: 64 256 7 7 (802816)
I1126 12:30:33.037025 19057 net.cpp:165] Memory required for data: 3452021520
I1126 12:30:33.037029 19057 layer_factory.hpp:76] Creating layer inception_5a/3x3_reduce
I1126 12:30:33.037039 19057 net.cpp:106] Creating Layer inception_5a/3x3_reduce
I1126 12:30:33.037042 19057 net.cpp:454] inception_5a/3x3_reduce <- pool4/3x3_s2_pool4/3x3_s2_0_split_1
I1126 12:30:33.037050 19057 net.cpp:411] inception_5a/3x3_reduce -> inception_5a/3x3_reduce
I1126 12:30:33.039896 19057 net.cpp:150] Setting up inception_5a/3x3_reduce
I1126 12:30:33.039913 19057 net.cpp:157] Top shape: 64 160 7 7 (501760)
I1126 12:30:33.039917 19057 net.cpp:165] Memory required for data: 3454028560
I1126 12:30:33.039924 19057 layer_factory.hpp:76] Creating layer inception_5a/relu_3x3_reduce
I1126 12:30:33.039930 19057 net.cpp:106] Creating Layer inception_5a/relu_3x3_reduce
I1126 12:30:33.039934 19057 net.cpp:454] inception_5a/relu_3x3_reduce <- inception_5a/3x3_reduce
I1126 12:30:33.039939 19057 net.cpp:397] inception_5a/relu_3x3_reduce -> inception_5a/3x3_reduce (in-place)
I1126 12:30:33.040304 19057 net.cpp:150] Setting up inception_5a/relu_3x3_reduce
I1126 12:30:33.040320 19057 net.cpp:157] Top shape: 64 160 7 7 (501760)
I1126 12:30:33.040324 19057 net.cpp:165] Memory required for data: 3456035600
I1126 12:30:33.040328 19057 layer_factory.hpp:76] Creating layer inception_5a/3x3
I1126 12:30:33.040335 19057 net.cpp:106] Creating Layer inception_5a/3x3
I1126 12:30:33.040339 19057 net.cpp:454] inception_5a/3x3 <- inception_5a/3x3_reduce
I1126 12:30:33.040348 19057 net.cpp:411] inception_5a/3x3 -> inception_5a/3x3
I1126 12:30:33.045295 19057 net.cpp:150] Setting up inception_5a/3x3
I1126 12:30:33.045312 19057 net.cpp:157] Top shape: 64 320 7 7 (1003520)
I1126 12:30:33.045316 19057 net.cpp:165] Memory required for data: 3460049680
I1126 12:30:33.045323 19057 layer_factory.hpp:76] Creating layer inception_5a/relu_3x3
I1126 12:30:33.045330 19057 net.cpp:106] Creating Layer inception_5a/relu_3x3
I1126 12:30:33.045334 19057 net.cpp:454] inception_5a/relu_3x3 <- inception_5a/3x3
I1126 12:30:33.045339 19057 net.cpp:397] inception_5a/relu_3x3 -> inception_5a/3x3 (in-place)
I1126 12:30:33.045552 19057 net.cpp:150] Setting up inception_5a/relu_3x3
I1126 12:30:33.045562 19057 net.cpp:157] Top shape: 64 320 7 7 (1003520)
I1126 12:30:33.045567 19057 net.cpp:165] Memory required for data: 3464063760
I1126 12:30:33.045569 19057 layer_factory.hpp:76] Creating layer inception_5a/5x5_reduce
I1126 12:30:33.045579 19057 net.cpp:106] Creating Layer inception_5a/5x5_reduce
I1126 12:30:33.045583 19057 net.cpp:454] inception_5a/5x5_reduce <- pool4/3x3_s2_pool4/3x3_s2_0_split_2
I1126 12:30:33.045589 19057 net.cpp:411] inception_5a/5x5_reduce -> inception_5a/5x5_reduce
I1126 12:30:33.047655 19057 net.cpp:150] Setting up inception_5a/5x5_reduce
I1126 12:30:33.047672 19057 net.cpp:157] Top shape: 64 32 7 7 (100352)
I1126 12:30:33.047675 19057 net.cpp:165] Memory required for data: 3464465168
I1126 12:30:33.047682 19057 layer_factory.hpp:76] Creating layer inception_5a/relu_5x5_reduce
I1126 12:30:33.047689 19057 net.cpp:106] Creating Layer inception_5a/relu_5x5_reduce
I1126 12:30:33.047693 19057 net.cpp:454] inception_5a/relu_5x5_reduce <- inception_5a/5x5_reduce
I1126 12:30:33.047699 19057 net.cpp:397] inception_5a/relu_5x5_reduce -> inception_5a/5x5_reduce (in-place)
I1126 12:30:33.047914 19057 net.cpp:150] Setting up inception_5a/relu_5x5_reduce
I1126 12:30:33.047925 19057 net.cpp:157] Top shape: 64 32 7 7 (100352)
I1126 12:30:33.047929 19057 net.cpp:165] Memory required for data: 3464866576
I1126 12:30:33.047932 19057 layer_factory.hpp:76] Creating layer inception_5a/5x5
I1126 12:30:33.047941 19057 net.cpp:106] Creating Layer inception_5a/5x5
I1126 12:30:33.047945 19057 net.cpp:454] inception_5a/5x5 <- inception_5a/5x5_reduce
I1126 12:30:33.047952 19057 net.cpp:411] inception_5a/5x5 -> inception_5a/5x5
I1126 12:30:33.050175 19057 net.cpp:150] Setting up inception_5a/5x5
I1126 12:30:33.050192 19057 net.cpp:157] Top shape: 64 128 7 7 (401408)
I1126 12:30:33.050196 19057 net.cpp:165] Memory required for data: 3466472208
I1126 12:30:33.050202 19057 layer_factory.hpp:76] Creating layer inception_5a/relu_5x5
I1126 12:30:33.050209 19057 net.cpp:106] Creating Layer inception_5a/relu_5x5
I1126 12:30:33.050214 19057 net.cpp:454] inception_5a/relu_5x5 <- inception_5a/5x5
I1126 12:30:33.050220 19057 net.cpp:397] inception_5a/relu_5x5 -> inception_5a/5x5 (in-place)
I1126 12:30:33.050603 19057 net.cpp:150] Setting up inception_5a/relu_5x5
I1126 12:30:33.050618 19057 net.cpp:157] Top shape: 64 128 7 7 (401408)
I1126 12:30:33.050622 19057 net.cpp:165] Memory required for data: 3468077840
I1126 12:30:33.050626 19057 layer_factory.hpp:76] Creating layer inception_5a/pool
I1126 12:30:33.050632 19057 net.cpp:106] Creating Layer inception_5a/pool
I1126 12:30:33.050637 19057 net.cpp:454] inception_5a/pool <- pool4/3x3_s2_pool4/3x3_s2_0_split_3
I1126 12:30:33.050642 19057 net.cpp:411] inception_5a/pool -> inception_5a/pool
I1126 12:30:33.050951 19057 net.cpp:150] Setting up inception_5a/pool
I1126 12:30:33.050964 19057 net.cpp:157] Top shape: 64 832 7 7 (2609152)
I1126 12:30:33.050968 19057 net.cpp:165] Memory required for data: 3478514448
I1126 12:30:33.050971 19057 layer_factory.hpp:76] Creating layer inception_5a/pool_proj
I1126 12:30:33.050981 19057 net.cpp:106] Creating Layer inception_5a/pool_proj
I1126 12:30:33.050986 19057 net.cpp:454] inception_5a/pool_proj <- inception_5a/pool
I1126 12:30:33.050992 19057 net.cpp:411] inception_5a/pool_proj -> inception_5a/pool_proj
I1126 12:30:33.053544 19057 net.cpp:150] Setting up inception_5a/pool_proj
I1126 12:30:33.053558 19057 net.cpp:157] Top shape: 64 128 7 7 (401408)
I1126 12:30:33.053562 19057 net.cpp:165] Memory required for data: 3480120080
I1126 12:30:33.053570 19057 layer_factory.hpp:76] Creating layer inception_5a/relu_pool_proj
I1126 12:30:33.053576 19057 net.cpp:106] Creating Layer inception_5a/relu_pool_proj
I1126 12:30:33.053581 19057 net.cpp:454] inception_5a/relu_pool_proj <- inception_5a/pool_proj
I1126 12:30:33.053588 19057 net.cpp:397] inception_5a/relu_pool_proj -> inception_5a/pool_proj (in-place)
I1126 12:30:33.053971 19057 net.cpp:150] Setting up inception_5a/relu_pool_proj
I1126 12:30:33.053985 19057 net.cpp:157] Top shape: 64 128 7 7 (401408)
I1126 12:30:33.053988 19057 net.cpp:165] Memory required for data: 3481725712
I1126 12:30:33.053992 19057 layer_factory.hpp:76] Creating layer inception_5a/output
I1126 12:30:33.053998 19057 net.cpp:106] Creating Layer inception_5a/output
I1126 12:30:33.054003 19057 net.cpp:454] inception_5a/output <- inception_5a/1x1
I1126 12:30:33.054008 19057 net.cpp:454] inception_5a/output <- inception_5a/3x3
I1126 12:30:33.054011 19057 net.cpp:454] inception_5a/output <- inception_5a/5x5
I1126 12:30:33.054015 19057 net.cpp:454] inception_5a/output <- inception_5a/pool_proj
I1126 12:30:33.054021 19057 net.cpp:411] inception_5a/output -> inception_5a/output
I1126 12:30:33.054075 19057 net.cpp:150] Setting up inception_5a/output
I1126 12:30:33.054081 19057 net.cpp:157] Top shape: 64 832 7 7 (2609152)
I1126 12:30:33.054085 19057 net.cpp:165] Memory required for data: 3492162320
I1126 12:30:33.054087 19057 layer_factory.hpp:76] Creating layer inception_5a/output_inception_5a/output_0_split
I1126 12:30:33.054098 19057 net.cpp:106] Creating Layer inception_5a/output_inception_5a/output_0_split
I1126 12:30:33.054103 19057 net.cpp:454] inception_5a/output_inception_5a/output_0_split <- inception_5a/output
I1126 12:30:33.054108 19057 net.cpp:411] inception_5a/output_inception_5a/output_0_split -> inception_5a/output_inception_5a/output_0_split_0
I1126 12:30:33.054116 19057 net.cpp:411] inception_5a/output_inception_5a/output_0_split -> inception_5a/output_inception_5a/output_0_split_1
I1126 12:30:33.054121 19057 net.cpp:411] inception_5a/output_inception_5a/output_0_split -> inception_5a/output_inception_5a/output_0_split_2
I1126 12:30:33.054127 19057 net.cpp:411] inception_5a/output_inception_5a/output_0_split -> inception_5a/output_inception_5a/output_0_split_3
I1126 12:30:33.054247 19057 net.cpp:150] Setting up inception_5a/output_inception_5a/output_0_split
I1126 12:30:33.054257 19057 net.cpp:157] Top shape: 64 832 7 7 (2609152)
I1126 12:30:33.054261 19057 net.cpp:157] Top shape: 64 832 7 7 (2609152)
I1126 12:30:33.054265 19057 net.cpp:157] Top shape: 64 832 7 7 (2609152)
I1126 12:30:33.054268 19057 net.cpp:157] Top shape: 64 832 7 7 (2609152)
I1126 12:30:33.054270 19057 net.cpp:165] Memory required for data: 3533908752
I1126 12:30:33.054275 19057 layer_factory.hpp:76] Creating layer inception_5b/1x1
I1126 12:30:33.054283 19057 net.cpp:106] Creating Layer inception_5b/1x1
I1126 12:30:33.054286 19057 net.cpp:454] inception_5b/1x1 <- inception_5a/output_inception_5a/output_0_split_0
I1126 12:30:33.054293 19057 net.cpp:411] inception_5b/1x1 -> inception_5b/1x1
I1126 12:30:33.058102 19057 net.cpp:150] Setting up inception_5b/1x1
I1126 12:30:33.058118 19057 net.cpp:157] Top shape: 64 384 7 7 (1204224)
I1126 12:30:33.058122 19057 net.cpp:165] Memory required for data: 3538725648
I1126 12:30:33.058130 19057 layer_factory.hpp:76] Creating layer inception_5b/relu_1x1
I1126 12:30:33.058135 19057 net.cpp:106] Creating Layer inception_5b/relu_1x1
I1126 12:30:33.058140 19057 net.cpp:454] inception_5b/relu_1x1 <- inception_5b/1x1
I1126 12:30:33.058147 19057 net.cpp:397] inception_5b/relu_1x1 -> inception_5b/1x1 (in-place)
I1126 12:30:33.058531 19057 net.cpp:150] Setting up inception_5b/relu_1x1
I1126 12:30:33.058545 19057 net.cpp:157] Top shape: 64 384 7 7 (1204224)
I1126 12:30:33.058549 19057 net.cpp:165] Memory required for data: 3543542544
I1126 12:30:33.058552 19057 layer_factory.hpp:76] Creating layer inception_5b/3x3_reduce
I1126 12:30:33.058562 19057 net.cpp:106] Creating Layer inception_5b/3x3_reduce
I1126 12:30:33.058567 19057 net.cpp:454] inception_5b/3x3_reduce <- inception_5a/output_inception_5a/output_0_split_1
I1126 12:30:33.058573 19057 net.cpp:411] inception_5b/3x3_reduce -> inception_5b/3x3_reduce
I1126 12:30:33.061514 19057 net.cpp:150] Setting up inception_5b/3x3_reduce
I1126 12:30:33.061530 19057 net.cpp:157] Top shape: 64 192 7 7 (602112)
I1126 12:30:33.061534 19057 net.cpp:165] Memory required for data: 3545950992
I1126 12:30:33.061542 19057 layer_factory.hpp:76] Creating layer inception_5b/relu_3x3_reduce
I1126 12:30:33.061547 19057 net.cpp:106] Creating Layer inception_5b/relu_3x3_reduce
I1126 12:30:33.061552 19057 net.cpp:454] inception_5b/relu_3x3_reduce <- inception_5b/3x3_reduce
I1126 12:30:33.061560 19057 net.cpp:397] inception_5b/relu_3x3_reduce -> inception_5b/3x3_reduce (in-place)
I1126 12:30:33.061774 19057 net.cpp:150] Setting up inception_5b/relu_3x3_reduce
I1126 12:30:33.061786 19057 net.cpp:157] Top shape: 64 192 7 7 (602112)
I1126 12:30:33.061790 19057 net.cpp:165] Memory required for data: 3548359440
I1126 12:30:33.061794 19057 layer_factory.hpp:76] Creating layer inception_5b/3x3
I1126 12:30:33.061801 19057 net.cpp:106] Creating Layer inception_5b/3x3
I1126 12:30:33.061805 19057 net.cpp:454] inception_5b/3x3 <- inception_5b/3x3_reduce
I1126 12:30:33.061812 19057 net.cpp:411] inception_5b/3x3 -> inception_5b/3x3
I1126 12:30:33.068282 19057 net.cpp:150] Setting up inception_5b/3x3
I1126 12:30:33.068298 19057 net.cpp:157] Top shape: 64 384 7 7 (1204224)
I1126 12:30:33.068302 19057 net.cpp:165] Memory required for data: 3553176336
I1126 12:30:33.068308 19057 layer_factory.hpp:76] Creating layer inception_5b/relu_3x3
I1126 12:30:33.068315 19057 net.cpp:106] Creating Layer inception_5b/relu_3x3
I1126 12:30:33.068320 19057 net.cpp:454] inception_5b/relu_3x3 <- inception_5b/3x3
I1126 12:30:33.068325 19057 net.cpp:397] inception_5b/relu_3x3 -> inception_5b/3x3 (in-place)
I1126 12:30:33.068709 19057 net.cpp:150] Setting up inception_5b/relu_3x3
I1126 12:30:33.068723 19057 net.cpp:157] Top shape: 64 384 7 7 (1204224)
I1126 12:30:33.068727 19057 net.cpp:165] Memory required for data: 3557993232
I1126 12:30:33.068729 19057 layer_factory.hpp:76] Creating layer inception_5b/5x5_reduce
I1126 12:30:33.068738 19057 net.cpp:106] Creating Layer inception_5b/5x5_reduce
I1126 12:30:33.068743 19057 net.cpp:454] inception_5b/5x5_reduce <- inception_5a/output_inception_5a/output_0_split_2
I1126 12:30:33.068750 19057 net.cpp:411] inception_5b/5x5_reduce -> inception_5b/5x5_reduce
I1126 12:30:33.070592 19057 net.cpp:150] Setting up inception_5b/5x5_reduce
I1126 12:30:33.070608 19057 net.cpp:157] Top shape: 64 48 7 7 (150528)
I1126 12:30:33.070612 19057 net.cpp:165] Memory required for data: 3558595344
I1126 12:30:33.070618 19057 layer_factory.hpp:76] Creating layer inception_5b/relu_5x5_reduce
I1126 12:30:33.070626 19057 net.cpp:106] Creating Layer inception_5b/relu_5x5_reduce
I1126 12:30:33.070629 19057 net.cpp:454] inception_5b/relu_5x5_reduce <- inception_5b/5x5_reduce
I1126 12:30:33.070637 19057 net.cpp:397] inception_5b/relu_5x5_reduce -> inception_5b/5x5_reduce (in-place)
I1126 12:30:33.071069 19057 net.cpp:150] Setting up inception_5b/relu_5x5_reduce
I1126 12:30:33.071084 19057 net.cpp:157] Top shape: 64 48 7 7 (150528)
I1126 12:30:33.071087 19057 net.cpp:165] Memory required for data: 3559197456
I1126 12:30:33.071091 19057 layer_factory.hpp:76] Creating layer inception_5b/5x5
I1126 12:30:33.071100 19057 net.cpp:106] Creating Layer inception_5b/5x5
I1126 12:30:33.071105 19057 net.cpp:454] inception_5b/5x5 <- inception_5b/5x5_reduce
I1126 12:30:33.071113 19057 net.cpp:411] inception_5b/5x5 -> inception_5b/5x5
I1126 12:30:33.073278 19057 net.cpp:150] Setting up inception_5b/5x5
I1126 12:30:33.073293 19057 net.cpp:157] Top shape: 64 128 7 7 (401408)
I1126 12:30:33.073297 19057 net.cpp:165] Memory required for data: 3560803088
I1126 12:30:33.073303 19057 layer_factory.hpp:76] Creating layer inception_5b/relu_5x5
I1126 12:30:33.073312 19057 net.cpp:106] Creating Layer inception_5b/relu_5x5
I1126 12:30:33.073315 19057 net.cpp:454] inception_5b/relu_5x5 <- inception_5b/5x5
I1126 12:30:33.073323 19057 net.cpp:397] inception_5b/relu_5x5 -> inception_5b/5x5 (in-place)
I1126 12:30:33.073537 19057 net.cpp:150] Setting up inception_5b/relu_5x5
I1126 12:30:33.073549 19057 net.cpp:157] Top shape: 64 128 7 7 (401408)
I1126 12:30:33.073552 19057 net.cpp:165] Memory required for data: 3562408720
I1126 12:30:33.073556 19057 layer_factory.hpp:76] Creating layer inception_5b/pool
I1126 12:30:33.073564 19057 net.cpp:106] Creating Layer inception_5b/pool
I1126 12:30:33.073567 19057 net.cpp:454] inception_5b/pool <- inception_5a/output_inception_5a/output_0_split_3
I1126 12:30:33.073572 19057 net.cpp:411] inception_5b/pool -> inception_5b/pool
I1126 12:30:33.073982 19057 net.cpp:150] Setting up inception_5b/pool
I1126 12:30:33.073995 19057 net.cpp:157] Top shape: 64 832 7 7 (2609152)
I1126 12:30:33.073999 19057 net.cpp:165] Memory required for data: 3572845328
I1126 12:30:33.074002 19057 layer_factory.hpp:76] Creating layer inception_5b/pool_proj
I1126 12:30:33.074013 19057 net.cpp:106] Creating Layer inception_5b/pool_proj
I1126 12:30:33.074018 19057 net.cpp:454] inception_5b/pool_proj <- inception_5b/pool
I1126 12:30:33.074023 19057 net.cpp:411] inception_5b/pool_proj -> inception_5b/pool_proj
I1126 12:30:33.076396 19057 net.cpp:150] Setting up inception_5b/pool_proj
I1126 12:30:33.076412 19057 net.cpp:157] Top shape: 64 128 7 7 (401408)
I1126 12:30:33.076416 19057 net.cpp:165] Memory required for data: 3574450960
I1126 12:30:33.076422 19057 layer_factory.hpp:76] Creating layer inception_5b/relu_pool_proj
I1126 12:30:33.076428 19057 net.cpp:106] Creating Layer inception_5b/relu_pool_proj
I1126 12:30:33.076432 19057 net.cpp:454] inception_5b/relu_pool_proj <- inception_5b/pool_proj
I1126 12:30:33.076439 19057 net.cpp:397] inception_5b/relu_pool_proj -> inception_5b/pool_proj (in-place)
I1126 12:30:33.076650 19057 net.cpp:150] Setting up inception_5b/relu_pool_proj
I1126 12:30:33.076663 19057 net.cpp:157] Top shape: 64 128 7 7 (401408)
I1126 12:30:33.076665 19057 net.cpp:165] Memory required for data: 3576056592
I1126 12:30:33.076669 19057 layer_factory.hpp:76] Creating layer inception_5b/output
I1126 12:30:33.076676 19057 net.cpp:106] Creating Layer inception_5b/output
I1126 12:30:33.076680 19057 net.cpp:454] inception_5b/output <- inception_5b/1x1
I1126 12:30:33.076685 19057 net.cpp:454] inception_5b/output <- inception_5b/3x3
I1126 12:30:33.076689 19057 net.cpp:454] inception_5b/output <- inception_5b/5x5
I1126 12:30:33.076692 19057 net.cpp:454] inception_5b/output <- inception_5b/pool_proj
I1126 12:30:33.076697 19057 net.cpp:411] inception_5b/output -> inception_5b/output
I1126 12:30:33.076727 19057 net.cpp:150] Setting up inception_5b/output
I1126 12:30:33.076732 19057 net.cpp:157] Top shape: 64 1024 7 7 (3211264)
I1126 12:30:33.076735 19057 net.cpp:165] Memory required for data: 3588901648
I1126 12:30:33.076738 19057 layer_factory.hpp:76] Creating layer pool5/7x7_s1
I1126 12:30:33.076745 19057 net.cpp:106] Creating Layer pool5/7x7_s1
I1126 12:30:33.076747 19057 net.cpp:454] pool5/7x7_s1 <- inception_5b/output
I1126 12:30:33.076755 19057 net.cpp:411] pool5/7x7_s1 -> pool5/7x7_s1
I1126 12:30:33.077280 19057 net.cpp:150] Setting up pool5/7x7_s1
I1126 12:30:33.077294 19057 net.cpp:157] Top shape: 64 1024 1 1 (65536)
I1126 12:30:33.077298 19057 net.cpp:165] Memory required for data: 3589163792
I1126 12:30:33.077302 19057 layer_factory.hpp:76] Creating layer pool5/drop_7x7_s1
I1126 12:30:33.077308 19057 net.cpp:106] Creating Layer pool5/drop_7x7_s1
I1126 12:30:33.077312 19057 net.cpp:454] pool5/drop_7x7_s1 <- pool5/7x7_s1
I1126 12:30:33.077319 19057 net.cpp:397] pool5/drop_7x7_s1 -> pool5/7x7_s1 (in-place)
I1126 12:30:33.077344 19057 net.cpp:150] Setting up pool5/drop_7x7_s1
I1126 12:30:33.077349 19057 net.cpp:157] Top shape: 64 1024 1 1 (65536)
I1126 12:30:33.077353 19057 net.cpp:165] Memory required for data: 3589425936
I1126 12:30:33.077355 19057 layer_factory.hpp:76] Creating layer loss3/classifier-attribute
I1126 12:30:33.077365 19057 net.cpp:106] Creating Layer loss3/classifier-attribute
I1126 12:30:33.077368 19057 net.cpp:454] loss3/classifier-attribute <- pool5/7x7_s1
I1126 12:30:33.077375 19057 net.cpp:411] loss3/classifier-attribute -> loss3/classifier-attribute
I1126 12:30:33.077535 19057 net.cpp:150] Setting up loss3/classifier-attribute
I1126 12:30:33.077574 19057 net.cpp:157] Top shape: 64 6 (384)
I1126 12:30:33.077580 19057 net.cpp:165] Memory required for data: 3589427472
I1126 12:30:33.077586 19057 layer_factory.hpp:76] Creating layer loss3/classifier-attribute_loss3/classifier-attribute_0_split
I1126 12:30:33.077592 19057 net.cpp:106] Creating Layer loss3/classifier-attribute_loss3/classifier-attribute_0_split
I1126 12:30:33.077596 19057 net.cpp:454] loss3/classifier-attribute_loss3/classifier-attribute_0_split <- loss3/classifier-attribute
I1126 12:30:33.077602 19057 net.cpp:411] loss3/classifier-attribute_loss3/classifier-attribute_0_split -> loss3/classifier-attribute_loss3/classifier-attribute_0_split_0
I1126 12:30:33.077608 19057 net.cpp:411] loss3/classifier-attribute_loss3/classifier-attribute_0_split -> loss3/classifier-attribute_loss3/classifier-attribute_0_split_1
I1126 12:30:33.077651 19057 net.cpp:150] Setting up loss3/classifier-attribute_loss3/classifier-attribute_0_split
I1126 12:30:33.077658 19057 net.cpp:157] Top shape: 64 6 (384)
I1126 12:30:33.077662 19057 net.cpp:157] Top shape: 64 6 (384)
I1126 12:30:33.077664 19057 net.cpp:165] Memory required for data: 3589430544
I1126 12:30:33.077667 19057 layer_factory.hpp:76] Creating layer loss3/loss3
I1126 12:30:33.077673 19057 net.cpp:106] Creating Layer loss3/loss3
I1126 12:30:33.077677 19057 net.cpp:454] loss3/loss3 <- loss3/classifier-attribute_loss3/classifier-attribute_0_split_0
I1126 12:30:33.077682 19057 net.cpp:454] loss3/loss3 <- label_data_1_split_4
…
