…
I1126 19:49:33.491734 19735 net.cpp:322] The NetState phase (0) differed from the phase (1) specified by a rule in layer loss3/top-1
I1126 19:49:33.493834 19735 net.cpp:49] Initializing net from parameters: 
name: "GoogleNet-finetune-for-cigit"
state {
  phase: TRAIN
}
layer {
  name: "data"
  type: "ImageData"
  top: "data"
  top: "label"
  include {
    phase: TRAIN
  }
  transform_param {
    mirror: true
    crop_size: 224
    mean_value: 104
    mean_value: 117
    mean_value: 123
  }
  image_data_param {
    source: "pad_train.txt"
    batch_size: 64
    shuffle: true
    new_height: 256
    new_width: 256
  }
}
layer {
  name: "conv1/7x7_s2"
  type: "Convolution"
  bottom: "data"
  top: "conv1/7x7_s2"
  param {
    lr_mult: 1
    decay_mult: 1
  }
  param {
    lr_mult: 2
    decay_mult: 0
  }
  convolution_param {
    num_output: 64
    pad: 3
    kernel_size: 7
    stride: 2
    weight_filler {
      type: "xavier"
    }
    bias_filler {
      type: "constant"
      value: 0.2
    }
  }
}
layer {
  name: "conv1/relu_7x7"
  type: "ReLU"
  bottom: "conv1/7x7_s2"
  top: "conv1/7x7_s2"
}
layer {
  name: "pool1/3x3_s2"
  type: "Pooling"
  bottom: "conv1/7x7_s2"
  top: "pool1/3x3_s2"
  pooling_param {
    pool: MAX
    kernel_size: 3
    stride: 2
  }
}
layer {
  name: "pool1/norm1"
  type: "LRN"
  bottom: "pool1/3x3_s2"
  top: "pool1/norm1"
  lrn_param {
    local_size: 5
    alpha: 0.0001
    beta: 0.75
  }
}
layer {
  name: "conv2/3x3_reduce"
  type: "Convolution"
  bottom: "pool1/norm1"
  top: "conv2/3x3_reduce"
  param {
    lr_mult: 1
    decay_mult: 1
  }
  param {
    lr_mult: 2
    decay_mult: 0
  }
  convolution_param {
    num_output: 64
    kernel_size: 1
    weight_filler {
      type: "xavier"
    }
    bias_filler {
      type: "constant"
      value: 0.2
    }
  }
}
layer {
  name: "conv2/relu_3x3_reduce"
  type: "ReLU"
  bottom: "conv2/3x3_reduce"
  top: "conv2/3x3_reduce"
}
layer {
  name: "conv2/3x3"
  type: "Convolution"
  bottom: "conv2/3x3_reduce"
  top: "conv2/3x3"
  param {
    lr_mult: 1
    decay_mult: 1
  }
  param {
    lr_mult: 2
    decay_mult: 0
  }
  convolution_param {
    num_output: 192
    pad: 1
    kernel_size: 3
    weight_filler {
      type: "xavier"
    }
    bias_filler {
      type: "constant"
      value: 0.2
    }
  }
}
layer {
  name: "conv2/relu_3x3"
  type: "ReLU"
  bottom: "conv2/3x3"
  top: "conv2/3x3"
}
layer {
  name: "conv2/norm2"
  type: "LRN"
  bottom: "conv2/3x3"
  top: "conv2/norm2"
  lrn_param {
    local_size: 5
    alpha: 0.0001
    beta: 0.75
  }
}
layer {
  name: "pool2/3x3_s2"
  type: "Pooling"
  bottom: "conv2/norm2"
  top: "pool2/3x3_s2"
  pooling_param {
    pool: MAX
    kernel_size: 3
    stride: 2
  }
}
layer {
  name: "inception_3a/1x1"
  type: "Convolution"
  bottom: "pool2/3x3_s2"
  top: "inception_3a/1x1"
  param {
    lr_mult: 1
    decay_mult: 1
  }
  param {
    lr_mult: 2
    decay_mult: 0
  }
  convolution_param {
    num_output: 64
    kernel_size: 1
    weight_filler {
      type: "xavier"
    }
    bias_filler {
      type: "constant"
      value: 0.2
    }
  }
}
layer {
  name: "inception_3a/relu_1x1"
  type: "ReLU"
  bottom: "inception_3a/1x1"
  top: "inception_3a/1x1"
}
layer {
  name: "inception_3a/3x3_reduce"
  type: "Convolution"
  bottom: "pool2/3x3_s2"
  top: "inception_3a/3x3_reduce"
  param {
    lr_mult: 1
    decay_mult: 1
  }
  param {
    lr_mult: 2
    decay_mult: 0
  }
  convolution_param {
    num_output: 96
    kernel_size: 1
    weight_filler {
      type: "xavier"
    }
    bias_filler {
      type: "constant"
      value: 0.2
    }
  }
}
layer {
  name: "inception_3a/relu_3x3_reduce"
  type: "ReLU"
  bottom: "inception_3a/3x3_reduce"
  top: "inception_3a/3x3_reduce"
}
layer {
  name: "inception_3a/3x3"
  type: "Convolution"
  bottom: "inception_3a/3x3_reduce"
  top: "inception_3a/3x3"
  param {
    lr_mult: 1
    decay_mult: 1
  }
  param {
    lr_mult: 2
    decay_mult: 0
  }
  convolution_param {
    num_output: 128
    pad: 1
    kernel_size: 3
    weight_filler {
      type: "xavier"
    }
    bias_filler {
      type: "constant"
      value: 0.2
    }
  }
}
layer {
  name: "inception_3a/relu_3x3"
  type: "ReLU"
  bottom: "inception_3a/3x3"
  top: "inception_3a/3x3"
}
layer {
  name: "inception_3a/5x5_reduce"
  type: "Convolution"
  bottom: "pool2/3x3_s2"
  top: "inception_3a/5x5_reduce"
  param {
    lr_mult: 1
    decay_mult: 1
  }
  param {
    lr_mult: 2
    decay_mult: 0
  }
  convolution_param {
    num_output: 16
    kernel_size: 1
    weight_filler {
      type: "xavier"
    }
    bias_filler {
      type: "constant"
      value: 0.2
    }
  }
}
layer {
  name: "inception_3a/relu_5x5_reduce"
  type: "ReLU"
  bottom: "inception_3a/5x5_reduce"
  top: "inception_3a/5x5_reduce"
}
layer {
  name: "inception_3a/5x5"
  type: "Convolution"
  bottom: "inception_3a/5x5_reduce"
  top: "inception_3a/5x5"
  param {
    lr_mult: 1
    decay_mult: 1
  }
  param {
    lr_mult: 2
    decay_mult: 0
  }
  convolution_param {
    num_output: 32
    pad: 2
    kernel_size: 5
    weight_filler {
      type: "xavier"
    }
    bias_filler {
      type: "constant"
      value: 0.2
    }
  }
}
layer {
  name: "inception_3a/relu_5x5"
  type: "ReLU"
  bottom: "inception_3a/5x5"
  top: "inception_3a/5x5"
}
layer {
  name: "inception_3a/pool"
  type: "Pooling"
  bottom: "pool2/3x3_s2"
  top: "inception_3a/pool"
  pooling_param {
    pool: MAX
    kernel_size: 3
    stride: 1
    pad: 1
  }
}
layer {
  name: "inception_3a/pool_proj"
  type: "Convolution"
  bottom: "inception_3a/pool"
  top: "inception_3a/pool_proj"
  param {
    lr_mult: 1
    decay_mult: 1
  }
  param {
    lr_mult: 2
    decay_mult: 0
  }
  convolution_param {
    num_output: 32
    kernel_size: 1
    weight_filler {
      type: "xavier"
    }
    bias_filler {
      type: "constant"
      value: 0.2
    }
  }
}
layer {
  name: "inception_3a/relu_pool_proj"
  type: "ReLU"
  bottom: "inception_3a/pool_proj"
  top: "inception_3a/pool_proj"
}
layer {
  name: "inception_3a/output"
  type: "Concat"
  bottom: "inception_3a/1x1"
  bottom: "inception_3a/3x3"
  bottom: "inception_3a/5x5"
  bottom: "inception_3a/pool_proj"
  top: "inception_3a/output"
}
layer {
  name: "inception_3b/1x1"
  type: "Convolution"
  bottom: "inception_3a/output"
  top: "inception_3b/1x1"
  param {
    lr_mult: 1
    decay_mult: 1
  }
  param {
    lr_mult: 2
    decay_mult: 0
  }
  convolution_param {
    num_output: 128
    kernel_size: 1
    weight_filler {
      type: "xavier"
    }
    bias_filler {
      type: "constant"
      value: 0.2
    }
  }
}
layer {
  name: "inception_3b/relu_1x1"
  type: "ReLU"
  bottom: "inception_3b/1x1"
  top: "inception_3b/1x1"
}
layer {
  name: "inception_3b/3x3_reduce"
  type: "Convolution"
  bottom: "inception_3a/output"
  top: "inception_3b/3x3_reduce"
  param {
    lr_mult: 1
    decay_mult: 1
  }
  param {
    lr_mult: 2
    decay_mult: 0
  }
  convolution_param {
    num_output: 128
    kernel_size: 1
    weight_filler {
      type: "xavier"
    }
    bias_filler {
      type: "constant"
      value: 0.2
    }
  }
}
layer {
  name: "inception_3b/relu_3x3_reduce"
  type: "ReLU"
  bottom: "inception_3b/3x3_reduce"
  top: "inception_3b/3x3_reduce"
}
layer {
  name: "inception_3b/3x3"
  type: "Convolution"
  bottom: "inception_3b/3x3_reduce"
  top: "inception_3b/3x3"
  param {
    lr_mult: 1
    decay_mult: 1
  }
  param {
    lr_mult: 2
    decay_mult: 0
  }
  convolution_param {
    num_output: 192
    pad: 1
    kernel_size: 3
    weight_filler {
      type: "xavier"
    }
    bias_filler {
      type: "constant"
      value: 0.2
    }
  }
}
layer {
  name: "inception_3b/relu_3x3"
  type: "ReLU"
  bottom: "inception_3b/3x3"
  top: "inception_3b/3x3"
}
layer {
  name: "inception_3b/5x5_reduce"
  type: "Convolution"
  bottom: "inception_3a/output"
  top: "inception_3b/5x5_reduce"
  param {
    lr_mult: 1
    decay_mult: 1
  }
  param {
    lr_mult: 2
    decay_mult: 0
  }
  convolution_param {
    num_output: 32
    kernel_size: 1
    weight_filler {
      type: "xavier"
    }
    bias_filler {
      type: "constant"
      value: 0.2
    }
  }
}
layer {
  name: "inception_3b/relu_5x5_reduce"
  type: "ReLU"
  bottom: "inception_3b/5x5_reduce"
  top: "inception_3b/5x5_reduce"
}
layer {
  name: "inception_3b/5x5"
  type: "Convolution"
  bottom: "inception_3b/5x5_reduce"
  top: "inception_3b/5x5"
  param {
    lr_mult: 1
    decay_mult: 1
  }
  param {
    lr_mult: 2
    decay_mult: 0
  }
  convolution_param {
    num_output: 96
    pad: 2
    kernel_size: 5
    weight_filler {
      type: "xavier"
    }
    bias_filler {
      type: "constant"
      value: 0.2
    }
  }
}
layer {
  name: "inception_3b/relu_5x5"
  type: "ReLU"
  bottom: "inception_3b/5x5"
  top: "inception_3b/5x5"
}
layer {
  name: "inception_3b/pool"
  type: "Pooling"
  bottom: "inception_3a/output"
  top: "inception_3b/pool"
  pooling_param {
    pool: MAX
    kernel_size: 3
    stride: 1
    pad: 1
  }
}
layer {
  name: "inception_3b/pool_proj"
  type: "Convolution"
  bottom: "inception_3b/pool"
  top: "inception_3b/pool_proj"
  param {
    lr_mult: 1
    decay_mult: 1
  }
  param {
    lr_mult: 2
    decay_mult: 0
  }
  convolution_param {
    num_output: 64
    kernel_size: 1
    weight_filler {
      type: "xavier"
    }
    bias_filler {
      type: "constant"
      value: 0.2
    }
  }
}
layer {
  name: "inception_3b/relu_pool_proj"
  type: "ReLU"
  bottom: "inception_3b/pool_proj"
  top: "inception_3b/pool_proj"
}
layer {
  name: "inception_3b/output"
  type: "Concat"
  bottom: "inception_3b/1x1"
  bottom: "inception_3b/3x3"
  bottom: "inception_3b/5x5"
  bottom: "inception_3b/pool_proj"
  top: "inception_3b/output"
}
layer {
  name: "pool3/3x3_s2"
  type: "Pooling"
  bottom: "inception_3b/output"
  top: "pool3/3x3_s2"
  pooling_param {
    pool: MAX
    kernel_size: 3
    stride: 2
  }
}
layer {
  name: "inception_4a/1x1"
  type: "Convolution"
  bottom: "pool3/3x3_s2"
  top: "inception_4a/1x1"
  param {
    lr_mult: 1
    decay_mult: 1
  }
  param {
    lr_mult: 2
    decay_mult: 0
  }
  convolution_param {
    num_output: 192
    kernel_size: 1
    weight_filler {
      type: "xavier"
    }
    bias_filler {
      type: "constant"
      value: 0.2
    }
  }
}
layer {
  name: "inception_4a/relu_1x1"
  type: "ReLU"
  bottom: "inception_4a/1x1"
  top: "inception_4a/1x1"
}
layer {
  name: "inception_4a/3x3_reduce"
  type: "Convolution"
  bottom: "pool3/3x3_s2"
  top: "inception_4a/3x3_reduce"
  param {
    lr_mult: 1
    decay_mult: 1
  }
  param {
    lr_mult: 2
    decay_mult: 0
  }
  convolution_param {
    num_output: 96
    kernel_size: 1
    weight_filler {
      type: "xavier"
    }
    bias_filler {
      type: "constant"
      value: 0.2
    }
  }
}
layer {
  name: "inception_4a/relu_3x3_reduce"
  type: "ReLU"
  bottom: "inception_4a/3x3_reduce"
  top: "inception_4a/3x3_reduce"
}
layer {
  name: "inception_4a/3x3"
  type: "Convolution"
  bottom: "inception_4a/3x3_reduce"
  top: "inception_4a/3x3"
  param {
    lr_mult: 1
    decay_mult: 1
  }
  param {
    lr_mult: 2
    decay_mult: 0
  }
  convolution_param {
    num_output: 208
    pad: 1
    kernel_size: 3
    weight_filler {
      type: "xavier"
    }
    bias_filler {
      type: "constant"
      value: 0.2
    }
  }
}
layer {
  name: "inception_4a/relu_3x3"
  type: "ReLU"
  bottom: "inception_4a/3x3"
  top: "inception_4a/3x3"
}
layer {
  name: "inception_4a/5x5_reduce"
  type: "Convolution"
  bottom: "pool3/3x3_s2"
  top: "inception_4a/5x5_reduce"
  param {
    lr_mult: 1
    decay_mult: 1
  }
  param {
    lr_mult: 2
    decay_mult: 0
  }
  convolution_param {
    num_output: 16
    kernel_size: 1
    weight_filler {
      type: "xavier"
    }
    bias_filler {
      type: "constant"
      value: 0.2
    }
  }
}
layer {
  name: "inception_4a/relu_5x5_reduce"
  type: "ReLU"
  bottom: "inception_4a/5x5_reduce"
  top: "inception_4a/5x5_reduce"
}
layer {
  name: "inception_4a/5x5"
  type: "Convolution"
  bottom: "inception_4a/5x5_reduce"
  top: "inception_4a/5x5"
  param {
    lr_mult: 1
    decay_mult: 1
  }
  param {
    lr_mult: 2
    decay_mult: 0
  }
  convolution_param {
    num_output: 48
    pad: 2
    kernel_size: 5
    weight_filler {
      type: "xavier"
    }
    bias_filler {
      type: "constant"
      value: 0.2
    }
  }
}
layer {
  name: "inception_4a/relu_5x5"
  type: "ReLU"
  bottom: "inception_4a/5x5"
  top: "inception_4a/5x5"
}
layer {
  name: "inception_4a/pool"
  type: "Pooling"
  bottom: "pool3/3x3_s2"
  top: "inception_4a/pool"
  pooling_param {
    pool: MAX
    kernel_size: 3
    stride: 1
    pad: 1
  }
}
layer {
  name: "inception_4a/pool_proj"
  type: "Convolution"
  bottom: "inception_4a/pool"
  top: "inception_4a/pool_proj"
  param {
    lr_mult: 1
    decay_mult: 1
  }
  param {
    lr_mult: 2
    decay_mult: 0
  }
  convolution_param {
    num_output: 64
    kernel_size: 1
    weight_filler {
      type: "xavier"
    }
    bias_filler {
      type: "constant"
      value: 0.2
    }
  }
}
layer {
  name: "inception_4a/relu_pool_proj"
  type: "ReLU"
  bottom: "inception_4a/pool_proj"
  top: "inception_4a/pool_proj"
}
layer {
  name: "inception_4a/output"
  type: "Concat"
  bottom: "inception_4a/1x1"
  bottom: "inception_4a/3x3"
  bottom: "inception_4a/5x5"
  bottom: "inception_4a/pool_proj"
  top: "inception_4a/output"
}
layer {
  name: "loss1/ave_pool"
  type: "Pooling"
  bottom: "inception_4a/output"
  top: "loss1/ave_pool"
  pooling_param {
    pool: AVE
    kernel_size: 5
    stride: 3
  }
}
layer {
  name: "loss1/conv"
  type: "Convolution"
  bottom: "loss1/ave_pool"
  top: "loss1/conv"
  param {
    lr_mult: 1
    decay_mult: 1
  }
  param {
    lr_mult: 2
    decay_mult: 0
  }
  convolution_param {
    num_output: 128
    kernel_size: 1
    weight_filler {
      type: "xavier"
    }
    bias_filler {
      type: "constant"
      value: 0.2
    }
  }
}
layer {
  name: "loss1/relu_conv"
  type: "ReLU"
  bottom: "loss1/conv"
  top: "loss1/conv"
}
layer {
  name: "loss1/fc"
  type: "InnerProduct"
  bottom: "loss1/conv"
  top: "loss1/fc"
  param {
    lr_mult: 1
    decay_mult: 1
  }
  param {
    lr_mult: 2
    decay_mult: 0
  }
  inner_product_param {
    num_output: 1024
    weight_filler {
      type: "xavier"
    }
    bias_filler {
      type: "constant"
      value: 0.2
    }
  }
}
layer {
  name: "loss1/relu_fc"
  type: "ReLU"
  bottom: "loss1/fc"
  top: "loss1/fc"
}
layer {
  name: "loss1/drop_fc"
  type: "Dropout"
  bottom: "loss1/fc"
  top: "loss1/fc"
  dropout_param {
    dropout_ratio: 0.7
  }
}
layer {
  name: "loss1/classifier-attribute"
  type: "InnerProduct"
  bottom: "loss1/fc"
  top: "loss1/classifier-attribute"
  param {
    lr_mult: 10
    decay_mult: 1
  }
  param {
    lr_mult: 20
    decay_mult: 0
  }
  inner_product_param {
    num_output: 9999
    weight_filler {
      type: "xavier"
    }
    bias_filler {
      type: "constant"
      value: 0
    }
  }
}
layer {
  name: "loss1/loss"
  type: "SoftmaxWithLoss"
  bottom: "loss1/classifier-attribute"
  bottom: "label"
  top: "loss1/loss1"
  loss_weight: 0.3
}
layer {
  name: "inception_4b/1x1"
  type: "Convolution"
  bottom: "inception_4a/output"
  top: "inception_4b/1x1"
  param {
    lr_mult: 1
    decay_mult: 1
  }
  param {
    lr_mult: 2
    decay_mult: 0
  }
  convolution_param {
    num_output: 160
    kernel_size: 1
    weight_filler {
      type: "xavier"
    }
    bias_filler {
      type: "constant"
      value: 0.2
    }
  }
}
layer {
  name: "inception_4b/relu_1x1"
  type: "ReLU"
  bottom: "inception_4b/1x1"
  top: "inception_4b/1x1"
}
layer {
  name: "inception_4b/3x3_reduce"
  type: "Convolution"
  bottom: "inception_4a/output"
  top: "inception_4b/3x3_reduce"
  param {
    lr_mult: 1
    decay_mult: 1
  }
  param {
    lr_mult: 2
    decay_mult: 0
  }
  convolution_param {
    num_output: 112
    kernel_size: 1
    weight_filler {
      type: "xavier"
    }
    bias_filler {
      type: "constant"
      value: 0.2
    }
  }
}
layer {
  name: "inception_4b/relu_3x3_reduce"
  type: "ReLU"
  bottom: "inception_4b/3x3_reduce"
  top: "inception_4b/3x3_reduce"
}
layer {
  name: "inception_4b/3x3"
  type: "Convolution"
  bottom: "inception_4b/3x3_reduce"
  top: "inception_4b/3x3"
  param {
    lr_mult: 1
    decay_mult: 1
  }
  param {
    lr_mult: 2
    decay_mult: 0
  }
  convolution_param {
    num_output: 224
    pad: 1
    kernel_size: 3
    weight_filler {
      type: "xavier"
    }
    bias_filler {
      type: "constant"
      value: 0.2
    }
  }
}
layer {
  name: "inception_4b/relu_3x3"
  type: "ReLU"
  bottom: "inception_4b/3x3"
  top: "inception_4b/3x3"
}
layer {
  name: "inception_4b/5x5_reduce"
  type: "Convolution"
  bottom: "inception_4a/output"
  top: "inception_4b/5x5_reduce"
  param {
    lr_mult: 1
    decay_mult: 1
  }
  param {
    lr_mult: 2
    decay_mult: 0
  }
  convolution_param {
    num_output: 24
    kernel_size: 1
    weight_filler {
      type: "xavier"
    }
    bias_filler {
      type: "constant"
      value: 0.2
    }
  }
}
layer {
  name: "inception_4b/relu_5x5_reduce"
  type: "ReLU"
  bottom: "inception_4b/5x5_reduce"
  top: "inception_4b/5x5_reduce"
}
layer {
  name: "inception_4b/5x5"
  type: "Convolution"
  bottom: "inception_4b/5x5_reduce"
  top: "inception_4b/5x5"
  param {
    lr_mult: 1
    decay_mult: 1
  }
  param {
    lr_mult: 2
    decay_mult: 0
  }
  convolution_param {
    num_output: 64
    pad: 2
    kernel_size: 5
    weight_filler {
      type: "xavier"
    }
    bias_filler {
      type: "constant"
      value: 0.2
    }
  }
}
layer {
  name: "inception_4b/relu_5x5"
  type: "ReLU"
  bottom: "inception_4b/5x5"
  top: "inception_4b/5x5"
}
layer {
  name: "inception_4b/pool"
  type: "Pooling"
  bottom: "inception_4a/output"
  top: "inception_4b/pool"
  pooling_param {
    pool: MAX
    kernel_size: 3
    stride: 1
    pad: 1
  }
}
layer {
  name: "inception_4b/pool_proj"
  type: "Convolution"
  bottom: "inception_4b/pool"
  top: "inception_4b/pool_proj"
  param {
    lr_mult: 1
    decay_mult: 1
  }
  param {
    lr_mult: 2
    decay_mult: 0
  }
  convolution_param {
    num_output: 64
    kernel_size: 1
    weight_filler {
      type: "xavier"
    }
    bias_filler {
      type: "constant"
      value: 0.2
    }
  }
}
layer {
  name: "inception_4b/relu_pool_proj"
  type: "ReLU"
  bottom: "inception_4b/pool_proj"
  top: "inception_4b/pool_proj"
}
layer {
  name: "inception_4b/output"
  type: "Concat"
  bottom: "inception_4b/1x1"
  bottom: "inception_4b/3x3"
  bottom: "inception_4b/5x5"
  bottom: "inception_4b/pool_proj"
  top: "inception_4b/output"
}
layer {
  name: "inception_4c/1x1"
  type: "Convolution"
  bottom: "inception_4b/output"
  top: "inception_4c/1x1"
  param {
    lr_mult: 1
    decay_mult: 1
  }
  param {
    lr_mult: 2
    decay_mult: 0
  }
  convolution_param {
    num_output: 128
    kernel_size: 1
    weight_filler {
      type: "xavier"
    }
    bias_filler {
      type: "constant"
      value: 0.2
    }
  }
}
layer {
  name: "inception_4c/relu_1x1"
  type: "ReLU"
  bottom: "inception_4c/1x1"
  top: "inception_4c/1x1"
}
layer {
  name: "inception_4c/3x3_reduce"
  type: "Convolution"
  bottom: "inception_4b/output"
  top: "inception_4c/3x3_reduce"
  param {
    lr_mult: 1
    decay_mult: 1
  }
  param {
    lr_mult: 2
    decay_mult: 0
  }
  convolution_param {
    num_output: 128
    kernel_size: 1
    weight_filler {
      type: "xavier"
    }
    bias_filler {
      type: "constant"
      value: 0.2
    }
  }
}
layer {
  name: "inception_4c/relu_3x3_reduce"
  type: "ReLU"
  bottom: "inception_4c/3x3_reduce"
  top: "inception_4c/3x3_reduce"
}
layer {
  name: "inception_4c/3x3"
  type: "Convolution"
  bottom: "inception_4c/3x3_reduce"
  top: "inception_4c/3x3"
  param {
    lr_mult: 1
    decay_mult: 1
  }
  param {
    lr_mult: 2
    decay_mult: 0
  }
  convolution_param {
    num_output: 256
    pad: 1
    kernel_size: 3
    weight_filler {
      type: "xavier"
    }
    bias_filler {
      type: "constant"
      value: 0.2
    }
  }
}
layer {
  name: "inception_4c/relu_3x3"
  type: "ReLU"
  bottom: "inception_4c/3x3"
  top: "inception_4c/3x3"
}
layer {
  name: "inception_4c/5x5_reduce"
  type: "Convolution"
  bottom: "inception_4b/output"
  top: "inception_4c/5x5_reduce"
  param {
    lr_mult: 1
    decay_mult: 1
  }
  param {
    lr_mult: 2
    decay_mult: 0
  }
  convolution_param {
    num_output: 24
    kernel_size: 1
    weight_filler {
      type: "xavier"
    }
    bias_filler {
      type: "constant"
      value: 0.2
    }
  }
}
layer {
  name: "inception_4c/relu_5x5_reduce"
  type: "ReLU"
  bottom: "inception_4c/5x5_reduce"
  top: "inception_4c/5x5_reduce"
}
layer {
  name: "inception_4c/5x5"
  type: "Convolution"
  bottom: "inception_4c/5x5_reduce"
  top: "inception_4c/5x5"
  param {
    lr_mult: 1
    decay_mult: 1
  }
  param {
    lr_mult: 2
    decay_mult: 0
  }
  convolution_param {
    num_output: 64
    pad: 2
    kernel_size: 5
    weight_filler {
      type: "xavier"
    }
    bias_filler {
      type: "constant"
      value: 0.2
    }
  }
}
layer {
  name: "inception_4c/relu_5x5"
  type: "ReLU"
  bottom: "inception_4c/5x5"
  top: "inception_4c/5x5"
}
layer {
  name: "inception_4c/pool"
  type: "Pooling"
  bottom: "inception_4b/output"
  top: "inception_4c/pool"
  pooling_param {
    pool: MAX
    kernel_size: 3
    stride: 1
    pad: 1
  }
}
layer {
  name: "inception_4c/pool_proj"
  type: "Convolution"
  bottom: "inception_4c/pool"
  top: "inception_4c/pool_proj"
  param {
    lr_mult: 1
    decay_mult: 1
  }
  param {
    lr_mult: 2
    decay_mult: 0
  }
  convolution_param {
    num_output: 64
    kernel_size: 1
    weight_filler {
      type: "xavier"
    }
    bias_filler {
      type: "constant"
      value: 0.2
    }
  }
}
layer {
  name: "inception_4c/relu_pool_proj"
  type: "ReLU"
  bottom: "inception_4c/pool_proj"
  top: "inception_4c/pool_proj"
}
layer {
  name: "inception_4c/output"
  type: "Concat"
  bottom: "inception_4c/1x1"
  bottom: "inception_4c/3x3"
  bottom: "inception_4c/5x5"
  bottom: "inception_4c/pool_proj"
  top: "inception_4c/output"
}
layer {
  name: "inception_4d/1x1"
  type: "Convolution"
  bottom: "inception_4c/output"
  top: "inception_4d/1x1"
  param {
    lr_mult: 1
    decay_mult: 1
  }
  param {
    lr_mult: 2
    decay_mult: 0
  }
  convolution_param {
    num_output: 112
    kernel_size: 1
    weight_filler {
      type: "xavier"
    }
    bias_filler {
      type: "constant"
      value: 0.2
    }
  }
}
layer {
  name: "inception_4d/relu_1x1"
  type: "ReLU"
  bottom: "inception_4d/1x1"
  top: "inception_4d/1x1"
}
layer {
  name: "inception_4d/3x3_reduce"
  type: "Convolution"
  bottom: "inception_4c/output"
  top: "inception_4d/3x3_reduce"
  param {
    lr_mult: 1
    decay_mult: 1
  }
  param {
    lr_mult: 2
    decay_mult: 0
  }
  convolution_param {
    num_output: 144
    kernel_size: 1
    weight_filler {
      type: "xavier"
    }
    bias_filler {
      type: "constant"
      value: 0.2
    }
  }
}
layer {
  name: "inception_4d/relu_3x3_reduce"
  type: "ReLU"
  bottom: "inception_4d/3x3_reduce"
  top: "inception_4d/3x3_reduce"
}
layer {
  name: "inception_4d/3x3"
  type: "Convolution"
  bottom: "inception_4d/3x3_reduce"
  top: "inception_4d/3x3"
  param {
    lr_mult: 1
    decay_mult: 1
  }
  param {
    lr_mult: 2
    decay_mult: 0
  }
  convolution_param {
    num_output: 288
    pad: 1
    kernel_size: 3
    weight_filler {
      type: "xavier"
    }
    bias_filler {
      type: "constant"
      value: 0.2
    }
  }
}
layer {
  name: "inception_4d/relu_3x3"
  type: "ReLU"
  bottom: "inception_4d/3x3"
  top: "inception_4d/3x3"
}
layer {
  name: "inception_4d/5x5_reduce"
  type: "Convolution"
  bottom: "inception_4c/output"
  top: "inception_4d/5x5_reduce"
  param {
    lr_mult: 1
    decay_mult: 1
  }
  param {
    lr_mult: 2
    decay_mult: 0
  }
  convolution_param {
    num_output: 32
    kernel_size: 1
    weight_filler {
      type: "xavier"
    }
    bias_filler {
      type: "constant"
      value: 0.2
    }
  }
}
layer {
  name: "inception_4d/relu_5x5_reduce"
  type: "ReLU"
  bottom: "inception_4d/5x5_reduce"
  top: "inception_4d/5x5_reduce"
}
layer {
  name: "inception_4d/5x5"
  type: "Convolution"
  bottom: "inception_4d/5x5_reduce"
  top: "inception_4d/5x5"
  param {
    lr_mult: 1
    decay_mult: 1
  }
  param {
    lr_mult: 2
    decay_mult: 0
  }
  convolution_param {
    num_output: 64
    pad: 2
    kernel_size: 5
    weight_filler {
      type: "xavier"
    }
    bias_filler {
      type: "constant"
      value: 0.2
    }
  }
}
layer {
  name: "inception_4d/relu_5x5"
  type: "ReLU"
  bottom: "inception_4d/5x5"
  top: "inception_4d/5x5"
}
layer {
  name: "inception_4d/pool"
  type: "Pooling"
  bottom: "inception_4c/output"
  top: "inception_4d/pool"
  pooling_param {
    pool: MAX
    kernel_size: 3
    stride: 1
    pad: 1
  }
}
layer {
  name: "inception_4d/pool_proj"
  type: "Convolution"
  bottom: "inception_4d/pool"
  top: "inception_4d/pool_proj"
  param {
    lr_mult: 1
    decay_mult: 1
  }
  param {
    lr_mult: 2
    decay_mult: 0
  }
  convolution_param {
    num_output: 64
    kernel_size: 1
    weight_filler {
      type: "xavier"
    }
    bias_filler {
      type: "constant"
      value: 0.2
    }
  }
}
layer {
  name: "inception_4d/relu_pool_proj"
  type: "ReLU"
  bottom: "inception_4d/pool_proj"
  top: "inception_4d/pool_proj"
}
layer {
  name: "inception_4d/output"
  type: "Concat"
  bottom: "inception_4d/1x1"
  bottom: "inception_4d/3x3"
  bottom: "inception_4d/5x5"
  bottom: "inception_4d/pool_proj"
  top: "inception_4d/output"
}
layer {
  name: "loss2/ave_pool"
  type: "Pooling"
  bottom: "inception_4d/output"
  top: "loss2/ave_pool"
  pooling_param {
    pool: AVE
    kernel_size: 5
    stride: 3
  }
}
layer {
  name: "loss2/conv"
  type: "Convolution"
  bottom: "loss2/ave_pool"
  top: "loss2/conv"
  param {
    lr_mult: 1
    decay_mult: 1
  }
  param {
    lr_mult: 2
    decay_mult: 0
  }
  convolution_param {
    num_output: 128
    kernel_size: 1
    weight_filler {
      type: "xavier"
    }
    bias_filler {
      type: "constant"
      value: 0.2
    }
  }
}
layer {
  name: "loss2/relu_conv"
  type: "ReLU"
  bottom: "loss2/conv"
  top: "loss2/conv"
}
layer {
  name: "loss2/fc"
  type: "InnerProduct"
  bottom: "loss2/conv"
  top: "loss2/fc"
  param {
    lr_mult: 1
    decay_mult: 1
  }
  param {
    lr_mult: 2
    decay_mult: 0
  }
  inner_product_param {
    num_output: 1024
    weight_filler {
      type: "xavier"
    }
    bias_filler {
      type: "constant"
      value: 0.2
    }
  }
}
layer {
  name: "loss2/relu_fc"
  type: "ReLU"
  bottom: "loss2/fc"
  top: "loss2/fc"
}
layer {
  name: "loss2/drop_fc"
  type: "Dropout"
  bottom: "loss2/fc"
  top: "loss2/fc"
  dropout_param {
    dropout_ratio: 0.7
  }
}
layer {
  name: "loss2/classifier-attribute"
  type: "InnerProduct"
  bottom: "loss2/fc"
  top: "loss2/classifier-attribute"
  param {
    lr_mult: 10
    decay_mult: 1
  }
  param {
    lr_mult: 20
    decay_mult: 0
  }
  inner_product_param {
    num_output: 9999
    weight_filler {
      type: "xavier"
    }
    bias_filler {
      type: "constant"
      value: 0
    }
  }
}
layer {
  name: "loss2/loss"
  type: "SoftmaxWithLoss"
  bottom: "loss2/classifier-attribute"
  bottom: "label"
  top: "loss2/loss1"
  loss_weight: 0.3
}
layer {
  name: "inception_4e/1x1"
  type: "Convolution"
  bottom: "inception_4d/output"
  top: "inception_4e/1x1"
  param {
    lr_mult: 1
    decay_mult: 1
  }
  param {
    lr_mult: 2
    decay_mult: 0
  }
  convolution_param {
    num_output: 256
    kernel_size: 1
    weight_filler {
      type: "xavier"
    }
    bias_filler {
      type: "constant"
      value: 0.2
    }
  }
}
layer {
  name: "inception_4e/relu_1x1"
  type: "ReLU"
  bottom: "inception_4e/1x1"
  top: "inception_4e/1x1"
}
layer {
  name: "inception_4e/3x3_reduce"
  type: "Convolution"
  bottom: "inception_4d/output"
  top: "inception_4e/3x3_reduce"
  param {
    lr_mult: 1
    decay_mult: 1
  }
  param {
    lr_mult: 2
    decay_mult: 0
  }
  convolution_param {
    num_output: 160
    kernel_size: 1
    weight_filler {
      type: "xavier"
    }
    bias_filler {
      type: "constant"
      value: 0.2
    }
  }
}
layer {
  name: "inception_4e/relu_3x3_reduce"
  type: "ReLU"
  bottom: "inception_4e/3x3_reduce"
  top: "inception_4e/3x3_reduce"
}
layer {
  name: "inception_4e/3x3"
  type: "Convolution"
  bottom: "inception_4e/3x3_reduce"
  top: "inception_4e/3x3"
  param {
    lr_mult: 1
    decay_mult: 1
  }
  param {
    lr_mult: 2
    decay_mult: 0
  }
  convolution_param {
    num_output: 320
    pad: 1
    kernel_size: 3
    weight_filler {
      type: "xavier"
    }
    bias_filler {
      type: "constant"
      value: 0.2
    }
  }
}
layer {
  name: "inception_4e/relu_3x3"
  type: "ReLU"
  bottom: "inception_4e/3x3"
  top: "inception_4e/3x3"
}
layer {
  name: "inception_4e/5x5_reduce"
  type: "Convolution"
  bottom: "inception_4d/output"
  top: "inception_4e/5x5_reduce"
  param {
    lr_mult: 1
    decay_mult: 1
  }
  param {
    lr_mult: 2
    decay_mult: 0
  }
  convolution_param {
    num_output: 32
    kernel_size: 1
    weight_filler {
      type: "xavier"
    }
    bias_filler {
      type: "constant"
      value: 0.2
    }
  }
}
layer {
  name: "inception_4e/relu_5x5_reduce"
  type: "ReLU"
  bottom: "inception_4e/5x5_reduce"
  top: "inception_4e/5x5_reduce"
}
layer {
  name: "inception_4e/5x5"
  type: "Convolution"
  bottom: "inception_4e/5x5_reduce"
  top: "inception_4e/5x5"
  param {
    lr_mult: 1
    decay_mult: 1
  }
  param {
    lr_mult: 2
    decay_mult: 0
  }
  convolution_param {
    num_output: 128
    pad: 2
    kernel_size: 5
    weight_filler {
      type: "xavier"
    }
    bias_filler {
      type: "constant"
      value: 0.2
    }
  }
}
layer {
  name: "inception_4e/relu_5x5"
  type: "ReLU"
  bottom: "inception_4e/5x5"
  top: "inception_4e/5x5"
}
layer {
  name: "inception_4e/pool"
  type: "Pooling"
  bottom: "ince
I1126 19:49:33.495303 19735 layer_factory.hpp:76] Creating layer data
I1126 19:49:33.495345 19735 net.cpp:106] Creating Layer data
I1126 19:49:33.495357 19735 net.cpp:411] data -> data
I1126 19:49:33.495383 19735 net.cpp:411] data -> label
I1126 19:49:33.495803 19735 image_data_layer.cpp:36] Opening file pad_train.txt
I1126 19:49:33.667088 19735 image_data_layer.cpp:46] Shuffling data
I1126 19:49:33.684093 19735 image_data_layer.cpp:51] A total of 152723 images.
I1126 19:49:33.713312 19735 image_data_layer.cpp:78] output data size: 64,3,224,224
I1126 19:49:33.765885 19735 net.cpp:150] Setting up data
I1126 19:49:33.765943 19735 net.cpp:157] Top shape: 64 3 224 224 (9633792)
I1126 19:49:33.765952 19735 net.cpp:157] Top shape: 64 (64)
I1126 19:49:33.765955 19735 net.cpp:165] Memory required for data: 38535424
I1126 19:49:33.765964 19735 layer_factory.hpp:76] Creating layer label_data_1_split
I1126 19:49:33.765986 19735 net.cpp:106] Creating Layer label_data_1_split
I1126 19:49:33.765992 19735 net.cpp:454] label_data_1_split <- label
I1126 19:49:33.766005 19735 net.cpp:411] label_data_1_split -> label_data_1_split_0
I1126 19:49:33.766015 19735 net.cpp:411] label_data_1_split -> label_data_1_split_1
I1126 19:49:33.766024 19735 net.cpp:411] label_data_1_split -> label_data_1_split_2
I1126 19:49:33.766101 19735 net.cpp:150] Setting up label_data_1_split
I1126 19:49:33.766110 19735 net.cpp:157] Top shape: 64 (64)
I1126 19:49:33.766116 19735 net.cpp:157] Top shape: 64 (64)
I1126 19:49:33.766121 19735 net.cpp:157] Top shape: 64 (64)
I1126 19:49:33.766124 19735 net.cpp:165] Memory required for data: 38536192
I1126 19:49:33.766127 19735 layer_factory.hpp:76] Creating layer conv1/7x7_s2
I1126 19:49:33.766142 19735 net.cpp:106] Creating Layer conv1/7x7_s2
I1126 19:49:33.766147 19735 net.cpp:454] conv1/7x7_s2 <- data
I1126 19:49:33.766155 19735 net.cpp:411] conv1/7x7_s2 -> conv1/7x7_s2
I1126 19:49:33.921397 19735 net.cpp:150] Setting up conv1/7x7_s2
I1126 19:49:33.921422 19735 net.cpp:157] Top shape: 64 64 112 112 (51380224)
I1126 19:49:33.921425 19735 net.cpp:165] Memory required for data: 244057088
I1126 19:49:33.921445 19735 layer_factory.hpp:76] Creating layer conv1/relu_7x7
I1126 19:49:33.921457 19735 net.cpp:106] Creating Layer conv1/relu_7x7
I1126 19:49:33.921459 19735 net.cpp:454] conv1/relu_7x7 <- conv1/7x7_s2
I1126 19:49:33.921466 19735 net.cpp:397] conv1/relu_7x7 -> conv1/7x7_s2 (in-place)
I1126 19:49:33.921737 19735 net.cpp:150] Setting up conv1/relu_7x7
I1126 19:49:33.921751 19735 net.cpp:157] Top shape: 64 64 112 112 (51380224)
I1126 19:49:33.921754 19735 net.cpp:165] Memory required for data: 449577984
I1126 19:49:33.921757 19735 layer_factory.hpp:76] Creating layer pool1/3x3_s2
I1126 19:49:33.921766 19735 net.cpp:106] Creating Layer pool1/3x3_s2
I1126 19:49:33.921769 19735 net.cpp:454] pool1/3x3_s2 <- conv1/7x7_s2
I1126 19:49:33.921774 19735 net.cpp:411] pool1/3x3_s2 -> pool1/3x3_s2
I1126 19:49:33.921948 19735 net.cpp:150] Setting up pool1/3x3_s2
I1126 19:49:33.921958 19735 net.cpp:157] Top shape: 64 64 56 56 (12845056)
I1126 19:49:33.921962 19735 net.cpp:165] Memory required for data: 500958208
I1126 19:49:33.921964 19735 layer_factory.hpp:76] Creating layer pool1/norm1
I1126 19:49:33.921974 19735 net.cpp:106] Creating Layer pool1/norm1
I1126 19:49:33.921977 19735 net.cpp:454] pool1/norm1 <- pool1/3x3_s2
I1126 19:49:33.921983 19735 net.cpp:411] pool1/norm1 -> pool1/norm1
I1126 19:49:33.922273 19735 net.cpp:150] Setting up pool1/norm1
I1126 19:49:33.922286 19735 net.cpp:157] Top shape: 64 64 56 56 (12845056)
I1126 19:49:33.922289 19735 net.cpp:165] Memory required for data: 552338432
I1126 19:49:33.922293 19735 layer_factory.hpp:76] Creating layer conv2/3x3_reduce
I1126 19:49:33.922302 19735 net.cpp:106] Creating Layer conv2/3x3_reduce
I1126 19:49:33.922307 19735 net.cpp:454] conv2/3x3_reduce <- pool1/norm1
I1126 19:49:33.922312 19735 net.cpp:411] conv2/3x3_reduce -> conv2/3x3_reduce
I1126 19:49:33.923532 19735 net.cpp:150] Setting up conv2/3x3_reduce
I1126 19:49:33.923547 19735 net.cpp:157] Top shape: 64 64 56 56 (12845056)
I1126 19:49:33.923550 19735 net.cpp:165] Memory required for data: 603718656
I1126 19:49:33.923558 19735 layer_factory.hpp:76] Creating layer conv2/relu_3x3_reduce
I1126 19:49:33.923564 19735 net.cpp:106] Creating Layer conv2/relu_3x3_reduce
I1126 19:49:33.923568 19735 net.cpp:454] conv2/relu_3x3_reduce <- conv2/3x3_reduce
I1126 19:49:33.923574 19735 net.cpp:397] conv2/relu_3x3_reduce -> conv2/3x3_reduce (in-place)
I1126 19:49:33.923846 19735 net.cpp:150] Setting up conv2/relu_3x3_reduce
I1126 19:49:33.923858 19735 net.cpp:157] Top shape: 64 64 56 56 (12845056)
I1126 19:49:33.923861 19735 net.cpp:165] Memory required for data: 655098880
I1126 19:49:33.923866 19735 layer_factory.hpp:76] Creating layer conv2/3x3
I1126 19:49:33.923874 19735 net.cpp:106] Creating Layer conv2/3x3
I1126 19:49:33.923878 19735 net.cpp:454] conv2/3x3 <- conv2/3x3_reduce
I1126 19:49:33.923884 19735 net.cpp:411] conv2/3x3 -> conv2/3x3
I1126 19:49:33.925797 19735 net.cpp:150] Setting up conv2/3x3
I1126 19:49:33.925812 19735 net.cpp:157] Top shape: 64 192 56 56 (38535168)
I1126 19:49:33.925814 19735 net.cpp:165] Memory required for data: 809239552
I1126 19:49:33.925822 19735 layer_factory.hpp:76] Creating layer conv2/relu_3x3
I1126 19:49:33.925830 19735 net.cpp:106] Creating Layer conv2/relu_3x3
I1126 19:49:33.925833 19735 net.cpp:454] conv2/relu_3x3 <- conv2/3x3
I1126 19:49:33.925839 19735 net.cpp:397] conv2/relu_3x3 -> conv2/3x3 (in-place)
I1126 19:49:33.925988 19735 net.cpp:150] Setting up conv2/relu_3x3
I1126 19:49:33.925998 19735 net.cpp:157] Top shape: 64 192 56 56 (38535168)
I1126 19:49:33.926002 19735 net.cpp:165] Memory required for data: 963380224
I1126 19:49:33.926004 19735 layer_factory.hpp:76] Creating layer conv2/norm2
I1126 19:49:33.926012 19735 net.cpp:106] Creating Layer conv2/norm2
I1126 19:49:33.926014 19735 net.cpp:454] conv2/norm2 <- conv2/3x3
I1126 19:49:33.926018 19735 net.cpp:411] conv2/norm2 -> conv2/norm2
I1126 19:49:33.926314 19735 net.cpp:150] Setting up conv2/norm2
I1126 19:49:33.926326 19735 net.cpp:157] Top shape: 64 192 56 56 (38535168)
I1126 19:49:33.926329 19735 net.cpp:165] Memory required for data: 1117520896
I1126 19:49:33.926333 19735 layer_factory.hpp:76] Creating layer pool2/3x3_s2
I1126 19:49:33.926340 19735 net.cpp:106] Creating Layer pool2/3x3_s2
I1126 19:49:33.926343 19735 net.cpp:454] pool2/3x3_s2 <- conv2/norm2
I1126 19:49:33.926348 19735 net.cpp:411] pool2/3x3_s2 -> pool2/3x3_s2
I1126 19:49:33.926522 19735 net.cpp:150] Setting up pool2/3x3_s2
I1126 19:49:33.926532 19735 net.cpp:157] Top shape: 64 192 28 28 (9633792)
I1126 19:49:33.926534 19735 net.cpp:165] Memory required for data: 1156056064
I1126 19:49:33.926537 19735 layer_factory.hpp:76] Creating layer pool2/3x3_s2_pool2/3x3_s2_0_split
I1126 19:49:33.926543 19735 net.cpp:106] Creating Layer pool2/3x3_s2_pool2/3x3_s2_0_split
I1126 19:49:33.926547 19735 net.cpp:454] pool2/3x3_s2_pool2/3x3_s2_0_split <- pool2/3x3_s2
I1126 19:49:33.926553 19735 net.cpp:411] pool2/3x3_s2_pool2/3x3_s2_0_split -> pool2/3x3_s2_pool2/3x3_s2_0_split_0
I1126 19:49:33.926558 19735 net.cpp:411] pool2/3x3_s2_pool2/3x3_s2_0_split -> pool2/3x3_s2_pool2/3x3_s2_0_split_1
I1126 19:49:33.926563 19735 net.cpp:411] pool2/3x3_s2_pool2/3x3_s2_0_split -> pool2/3x3_s2_pool2/3x3_s2_0_split_2
I1126 19:49:33.926568 19735 net.cpp:411] pool2/3x3_s2_pool2/3x3_s2_0_split -> pool2/3x3_s2_pool2/3x3_s2_0_split_3
I1126 19:49:33.926614 19735 net.cpp:150] Setting up pool2/3x3_s2_pool2/3x3_s2_0_split
I1126 19:49:33.926621 19735 net.cpp:157] Top shape: 64 192 28 28 (9633792)
I1126 19:49:33.926626 19735 net.cpp:157] Top shape: 64 192 28 28 (9633792)
I1126 19:49:33.926630 19735 net.cpp:157] Top shape: 64 192 28 28 (9633792)
I1126 19:49:33.926635 19735 net.cpp:157] Top shape: 64 192 28 28 (9633792)
I1126 19:49:33.926636 19735 net.cpp:165] Memory required for data: 1310196736
I1126 19:49:33.926640 19735 layer_factory.hpp:76] Creating layer inception_3a/1x1
I1126 19:49:33.926651 19735 net.cpp:106] Creating Layer inception_3a/1x1
I1126 19:49:33.926654 19735 net.cpp:454] inception_3a/1x1 <- pool2/3x3_s2_pool2/3x3_s2_0_split_0
I1126 19:49:33.926659 19735 net.cpp:411] inception_3a/1x1 -> inception_3a/1x1
I1126 19:49:33.928001 19735 net.cpp:150] Setting up inception_3a/1x1
I1126 19:49:33.928016 19735 net.cpp:157] Top shape: 64 64 28 28 (3211264)
I1126 19:49:33.928020 19735 net.cpp:165] Memory required for data: 1323041792
I1126 19:49:33.928025 19735 layer_factory.hpp:76] Creating layer inception_3a/relu_1x1
I1126 19:49:33.928030 19735 net.cpp:106] Creating Layer inception_3a/relu_1x1
I1126 19:49:33.928035 19735 net.cpp:454] inception_3a/relu_1x1 <- inception_3a/1x1
I1126 19:49:33.928040 19735 net.cpp:397] inception_3a/relu_1x1 -> inception_3a/1x1 (in-place)
I1126 19:49:33.928313 19735 net.cpp:150] Setting up inception_3a/relu_1x1
I1126 19:49:33.928326 19735 net.cpp:157] Top shape: 64 64 28 28 (3211264)
I1126 19:49:33.928329 19735 net.cpp:165] Memory required for data: 1335886848
I1126 19:49:33.928333 19735 layer_factory.hpp:76] Creating layer inception_3a/3x3_reduce
I1126 19:49:33.928340 19735 net.cpp:106] Creating Layer inception_3a/3x3_reduce
I1126 19:49:33.928344 19735 net.cpp:454] inception_3a/3x3_reduce <- pool2/3x3_s2_pool2/3x3_s2_0_split_1
I1126 19:49:33.928350 19735 net.cpp:411] inception_3a/3x3_reduce -> inception_3a/3x3_reduce
I1126 19:49:33.929720 19735 net.cpp:150] Setting up inception_3a/3x3_reduce
I1126 19:49:33.929734 19735 net.cpp:157] Top shape: 64 96 28 28 (4816896)
I1126 19:49:33.929738 19735 net.cpp:165] Memory required for data: 1355154432
I1126 19:49:33.929745 19735 layer_factory.hpp:76] Creating layer inception_3a/relu_3x3_reduce
I1126 19:49:33.929754 19735 net.cpp:106] Creating Layer inception_3a/relu_3x3_reduce
I1126 19:49:33.929757 19735 net.cpp:454] inception_3a/relu_3x3_reduce <- inception_3a/3x3_reduce
I1126 19:49:33.929762 19735 net.cpp:397] inception_3a/relu_3x3_reduce -> inception_3a/3x3_reduce (in-place)
I1126 19:49:33.929915 19735 net.cpp:150] Setting up inception_3a/relu_3x3_reduce
I1126 19:49:33.929925 19735 net.cpp:157] Top shape: 64 96 28 28 (4816896)
I1126 19:49:33.929929 19735 net.cpp:165] Memory required for data: 1374422016
I1126 19:49:33.929931 19735 layer_factory.hpp:76] Creating layer inception_3a/3x3
I1126 19:49:33.929939 19735 net.cpp:106] Creating Layer inception_3a/3x3
I1126 19:49:33.929942 19735 net.cpp:454] inception_3a/3x3 <- inception_3a/3x3_reduce
I1126 19:49:33.929949 19735 net.cpp:411] inception_3a/3x3 -> inception_3a/3x3
I1126 19:49:33.931610 19735 net.cpp:150] Setting up inception_3a/3x3
I1126 19:49:33.931623 19735 net.cpp:157] Top shape: 64 128 28 28 (6422528)
I1126 19:49:33.931628 19735 net.cpp:165] Memory required for data: 1400112128
I1126 19:49:33.931634 19735 layer_factory.hpp:76] Creating layer inception_3a/relu_3x3
I1126 19:49:33.931639 19735 net.cpp:106] Creating Layer inception_3a/relu_3x3
I1126 19:49:33.931643 19735 net.cpp:454] inception_3a/relu_3x3 <- inception_3a/3x3
I1126 19:49:33.931648 19735 net.cpp:397] inception_3a/relu_3x3 -> inception_3a/3x3 (in-place)
I1126 19:49:33.931797 19735 net.cpp:150] Setting up inception_3a/relu_3x3
I1126 19:49:33.931807 19735 net.cpp:157] Top shape: 64 128 28 28 (6422528)
I1126 19:49:33.931809 19735 net.cpp:165] Memory required for data: 1425802240
I1126 19:49:33.931813 19735 layer_factory.hpp:76] Creating layer inception_3a/5x5_reduce
I1126 19:49:33.931820 19735 net.cpp:106] Creating Layer inception_3a/5x5_reduce
I1126 19:49:33.931823 19735 net.cpp:454] inception_3a/5x5_reduce <- pool2/3x3_s2_pool2/3x3_s2_0_split_2
I1126 19:49:33.931830 19735 net.cpp:411] inception_3a/5x5_reduce -> inception_3a/5x5_reduce
I1126 19:49:33.932740 19735 net.cpp:150] Setting up inception_3a/5x5_reduce
I1126 19:49:33.932754 19735 net.cpp:157] Top shape: 64 16 28 28 (802816)
I1126 19:49:33.932756 19735 net.cpp:165] Memory required for data: 1429013504
I1126 19:49:33.932762 19735 layer_factory.hpp:76] Creating layer inception_3a/relu_5x5_reduce
I1126 19:49:33.932770 19735 net.cpp:106] Creating Layer inception_3a/relu_5x5_reduce
I1126 19:49:33.932772 19735 net.cpp:454] inception_3a/relu_5x5_reduce <- inception_3a/5x5_reduce
I1126 19:49:33.932777 19735 net.cpp:397] inception_3a/relu_5x5_reduce -> inception_3a/5x5_reduce (in-place)
I1126 19:49:33.933050 19735 net.cpp:150] Setting up inception_3a/relu_5x5_reduce
I1126 19:49:33.933063 19735 net.cpp:157] Top shape: 64 16 28 28 (802816)
I1126 19:49:33.933065 19735 net.cpp:165] Memory required for data: 1432224768
I1126 19:49:33.933069 19735 layer_factory.hpp:76] Creating layer inception_3a/5x5
I1126 19:49:33.933079 19735 net.cpp:106] Creating Layer inception_3a/5x5
I1126 19:49:33.933082 19735 net.cpp:454] inception_3a/5x5 <- inception_3a/5x5_reduce
I1126 19:49:33.933087 19735 net.cpp:411] inception_3a/5x5 -> inception_3a/5x5
I1126 19:49:33.934034 19735 net.cpp:150] Setting up inception_3a/5x5
I1126 19:49:33.934048 19735 net.cpp:157] Top shape: 64 32 28 28 (1605632)
I1126 19:49:33.934051 19735 net.cpp:165] Memory required for data: 1438647296
I1126 19:49:33.934057 19735 layer_factory.hpp:76] Creating layer inception_3a/relu_5x5
I1126 19:49:33.934063 19735 net.cpp:106] Creating Layer inception_3a/relu_5x5
I1126 19:49:33.934067 19735 net.cpp:454] inception_3a/relu_5x5 <- inception_3a/5x5
I1126 19:49:33.934070 19735 net.cpp:397] inception_3a/relu_5x5 -> inception_3a/5x5 (in-place)
I1126 19:49:33.934221 19735 net.cpp:150] Setting up inception_3a/relu_5x5
I1126 19:49:33.934231 19735 net.cpp:157] Top shape: 64 32 28 28 (1605632)
I1126 19:49:33.934233 19735 net.cpp:165] Memory required for data: 1445069824
I1126 19:49:33.934237 19735 layer_factory.hpp:76] Creating layer inception_3a/pool
I1126 19:49:33.934242 19735 net.cpp:106] Creating Layer inception_3a/pool
I1126 19:49:33.934247 19735 net.cpp:454] inception_3a/pool <- pool2/3x3_s2_pool2/3x3_s2_0_split_3
I1126 19:49:33.934252 19735 net.cpp:411] inception_3a/pool -> inception_3a/pool
I1126 19:49:33.934550 19735 net.cpp:150] Setting up inception_3a/pool
I1126 19:49:33.934587 19735 net.cpp:157] Top shape: 64 192 28 28 (9633792)
I1126 19:49:33.934597 19735 net.cpp:165] Memory required for data: 1483604992
I1126 19:49:33.934600 19735 layer_factory.hpp:76] Creating layer inception_3a/pool_proj
I1126 19:49:33.934607 19735 net.cpp:106] Creating Layer inception_3a/pool_proj
I1126 19:49:33.934612 19735 net.cpp:454] inception_3a/pool_proj <- inception_3a/pool
I1126 19:49:33.934622 19735 net.cpp:411] inception_3a/pool_proj -> inception_3a/pool_proj
I1126 19:49:33.935436 19735 net.cpp:150] Setting up inception_3a/pool_proj
I1126 19:49:33.935448 19735 net.cpp:157] Top shape: 64 32 28 28 (1605632)
I1126 19:49:33.935452 19735 net.cpp:165] Memory required for data: 1490027520
I1126 19:49:33.935462 19735 layer_factory.hpp:76] Creating layer inception_3a/relu_pool_proj
I1126 19:49:33.935467 19735 net.cpp:106] Creating Layer inception_3a/relu_pool_proj
I1126 19:49:33.935472 19735 net.cpp:454] inception_3a/relu_pool_proj <- inception_3a/pool_proj
I1126 19:49:33.935477 19735 net.cpp:397] inception_3a/relu_pool_proj -> inception_3a/pool_proj (in-place)
I1126 19:49:33.935750 19735 net.cpp:150] Setting up inception_3a/relu_pool_proj
I1126 19:49:33.935762 19735 net.cpp:157] Top shape: 64 32 28 28 (1605632)
I1126 19:49:33.935765 19735 net.cpp:165] Memory required for data: 1496450048
I1126 19:49:33.935768 19735 layer_factory.hpp:76] Creating layer inception_3a/output
I1126 19:49:33.935775 19735 net.cpp:106] Creating Layer inception_3a/output
I1126 19:49:33.935780 19735 net.cpp:454] inception_3a/output <- inception_3a/1x1
I1126 19:49:33.935783 19735 net.cpp:454] inception_3a/output <- inception_3a/3x3
I1126 19:49:33.935786 19735 net.cpp:454] inception_3a/output <- inception_3a/5x5
I1126 19:49:33.935791 19735 net.cpp:454] inception_3a/output <- inception_3a/pool_proj
I1126 19:49:33.935796 19735 net.cpp:411] inception_3a/output -> inception_3a/output
I1126 19:49:33.935828 19735 net.cpp:150] Setting up inception_3a/output
I1126 19:49:33.935834 19735 net.cpp:157] Top shape: 64 256 28 28 (12845056)
I1126 19:49:33.935837 19735 net.cpp:165] Memory required for data: 1547830272
I1126 19:49:33.935840 19735 layer_factory.hpp:76] Creating layer inception_3a/output_inception_3a/output_0_split
I1126 19:49:33.935845 19735 net.cpp:106] Creating Layer inception_3a/output_inception_3a/output_0_split
I1126 19:49:33.935848 19735 net.cpp:454] inception_3a/output_inception_3a/output_0_split <- inception_3a/output
I1126 19:49:33.935853 19735 net.cpp:411] inception_3a/output_inception_3a/output_0_split -> inception_3a/output_inception_3a/output_0_split_0
I1126 19:49:33.935858 19735 net.cpp:411] inception_3a/output_inception_3a/output_0_split -> inception_3a/output_inception_3a/output_0_split_1
I1126 19:49:33.935863 19735 net.cpp:411] inception_3a/output_inception_3a/output_0_split -> inception_3a/output_inception_3a/output_0_split_2
I1126 19:49:33.935868 19735 net.cpp:411] inception_3a/output_inception_3a/output_0_split -> inception_3a/output_inception_3a/output_0_split_3
I1126 19:49:33.935919 19735 net.cpp:150] Setting up inception_3a/output_inception_3a/output_0_split
I1126 19:49:33.935925 19735 net.cpp:157] Top shape: 64 256 28 28 (12845056)
I1126 19:49:33.935928 19735 net.cpp:157] Top shape: 64 256 28 28 (12845056)
I1126 19:49:33.935931 19735 net.cpp:157] Top shape: 64 256 28 28 (12845056)
I1126 19:49:33.935935 19735 net.cpp:157] Top shape: 64 256 28 28 (12845056)
I1126 19:49:33.935937 19735 net.cpp:165] Memory required for data: 1753351168
I1126 19:49:33.935940 19735 layer_factory.hpp:76] Creating layer inception_3b/1x1
I1126 19:49:33.935947 19735 net.cpp:106] Creating Layer inception_3b/1x1
I1126 19:49:33.935950 19735 net.cpp:454] inception_3b/1x1 <- inception_3a/output_inception_3a/output_0_split_0
I1126 19:49:33.935956 19735 net.cpp:411] inception_3b/1x1 -> inception_3b/1x1
I1126 19:49:33.937038 19735 net.cpp:150] Setting up inception_3b/1x1
I1126 19:49:33.937052 19735 net.cpp:157] Top shape: 64 128 28 28 (6422528)
I1126 19:49:33.937054 19735 net.cpp:165] Memory required for data: 1779041280
I1126 19:49:33.937060 19735 layer_factory.hpp:76] Creating layer inception_3b/relu_1x1
I1126 19:49:33.937067 19735 net.cpp:106] Creating Layer inception_3b/relu_1x1
I1126 19:49:33.937069 19735 net.cpp:454] inception_3b/relu_1x1 <- inception_3b/1x1
I1126 19:49:33.937075 19735 net.cpp:397] inception_3b/relu_1x1 -> inception_3b/1x1 (in-place)
I1126 19:49:33.937230 19735 net.cpp:150] Setting up inception_3b/relu_1x1
I1126 19:49:33.937239 19735 net.cpp:157] Top shape: 64 128 28 28 (6422528)
I1126 19:49:33.937242 19735 net.cpp:165] Memory required for data: 1804731392
I1126 19:49:33.937245 19735 layer_factory.hpp:76] Creating layer inception_3b/3x3_reduce
I1126 19:49:33.937253 19735 net.cpp:106] Creating Layer inception_3b/3x3_reduce
I1126 19:49:33.937258 19735 net.cpp:454] inception_3b/3x3_reduce <- inception_3a/output_inception_3a/output_0_split_1
I1126 19:49:33.937263 19735 net.cpp:411] inception_3b/3x3_reduce -> inception_3b/3x3_reduce
I1126 19:49:33.938331 19735 net.cpp:150] Setting up inception_3b/3x3_reduce
I1126 19:49:33.938344 19735 net.cpp:157] Top shape: 64 128 28 28 (6422528)
I1126 19:49:33.938346 19735 net.cpp:165] Memory required for data: 1830421504
I1126 19:49:33.938352 19735 layer_factory.hpp:76] Creating layer inception_3b/relu_3x3_reduce
I1126 19:49:33.938359 19735 net.cpp:106] Creating Layer inception_3b/relu_3x3_reduce
I1126 19:49:33.938362 19735 net.cpp:454] inception_3b/relu_3x3_reduce <- inception_3b/3x3_reduce
I1126 19:49:33.938367 19735 net.cpp:397] inception_3b/relu_3x3_reduce -> inception_3b/3x3_reduce (in-place)
I1126 19:49:33.938642 19735 net.cpp:150] Setting up inception_3b/relu_3x3_reduce
I1126 19:49:33.938654 19735 net.cpp:157] Top shape: 64 128 28 28 (6422528)
I1126 19:49:33.938657 19735 net.cpp:165] Memory required for data: 1856111616
I1126 19:49:33.938662 19735 layer_factory.hpp:76] Creating layer inception_3b/3x3
I1126 19:49:33.938671 19735 net.cpp:106] Creating Layer inception_3b/3x3
I1126 19:49:33.938675 19735 net.cpp:454] inception_3b/3x3 <- inception_3b/3x3_reduce
I1126 19:49:33.938681 19735 net.cpp:411] inception_3b/3x3 -> inception_3b/3x3
I1126 19:49:33.941108 19735 net.cpp:150] Setting up inception_3b/3x3
I1126 19:49:33.941123 19735 net.cpp:157] Top shape: 64 192 28 28 (9633792)
I1126 19:49:33.941125 19735 net.cpp:165] Memory required for data: 1894646784
I1126 19:49:33.941131 19735 layer_factory.hpp:76] Creating layer inception_3b/relu_3x3
I1126 19:49:33.941138 19735 net.cpp:106] Creating Layer inception_3b/relu_3x3
I1126 19:49:33.941141 19735 net.cpp:454] inception_3b/relu_3x3 <- inception_3b/3x3
I1126 19:49:33.941145 19735 net.cpp:397] inception_3b/relu_3x3 -> inception_3b/3x3 (in-place)
I1126 19:49:33.941561 19735 net.cpp:150] Setting up inception_3b/relu_3x3
I1126 19:49:33.941573 19735 net.cpp:157] Top shape: 64 192 28 28 (9633792)
I1126 19:49:33.941576 19735 net.cpp:165] Memory required for data: 1933181952
I1126 19:49:33.941581 19735 layer_factory.hpp:76] Creating layer inception_3b/5x5_reduce
I1126 19:49:33.941588 19735 net.cpp:106] Creating Layer inception_3b/5x5_reduce
I1126 19:49:33.941592 19735 net.cpp:454] inception_3b/5x5_reduce <- inception_3a/output_inception_3a/output_0_split_2
I1126 19:49:33.941597 19735 net.cpp:411] inception_3b/5x5_reduce -> inception_3b/5x5_reduce
I1126 19:49:33.942541 19735 net.cpp:150] Setting up inception_3b/5x5_reduce
I1126 19:49:33.942554 19735 net.cpp:157] Top shape: 64 32 28 28 (1605632)
I1126 19:49:33.942558 19735 net.cpp:165] Memory required for data: 1939604480
I1126 19:49:33.942564 19735 layer_factory.hpp:76] Creating layer inception_3b/relu_5x5_reduce
I1126 19:49:33.942569 19735 net.cpp:106] Creating Layer inception_3b/relu_5x5_reduce
I1126 19:49:33.942574 19735 net.cpp:454] inception_3b/relu_5x5_reduce <- inception_3b/5x5_reduce
I1126 19:49:33.942579 19735 net.cpp:397] inception_3b/relu_5x5_reduce -> inception_3b/5x5_reduce (in-place)
I1126 19:49:33.942733 19735 net.cpp:150] Setting up inception_3b/relu_5x5_reduce
I1126 19:49:33.942742 19735 net.cpp:157] Top shape: 64 32 28 28 (1605632)
I1126 19:49:33.942744 19735 net.cpp:165] Memory required for data: 1946027008
I1126 19:49:33.942747 19735 layer_factory.hpp:76] Creating layer inception_3b/5x5
I1126 19:49:33.942755 19735 net.cpp:106] Creating Layer inception_3b/5x5
I1126 19:49:33.942759 19735 net.cpp:454] inception_3b/5x5 <- inception_3b/5x5_reduce
I1126 19:49:33.942765 19735 net.cpp:411] inception_3b/5x5 -> inception_3b/5x5
I1126 19:49:33.944520 19735 net.cpp:150] Setting up inception_3b/5x5
I1126 19:49:33.944533 19735 net.cpp:157] Top shape: 64 96 28 28 (4816896)
I1126 19:49:33.944537 19735 net.cpp:165] Memory required for data: 1965294592
I1126 19:49:33.944542 19735 layer_factory.hpp:76] Creating layer inception_3b/relu_5x5
I1126 19:49:33.944547 19735 net.cpp:106] Creating Layer inception_3b/relu_5x5
I1126 19:49:33.944551 19735 net.cpp:454] inception_3b/relu_5x5 <- inception_3b/5x5
I1126 19:49:33.944557 19735 net.cpp:397] inception_3b/relu_5x5 -> inception_3b/5x5 (in-place)
I1126 19:49:33.944835 19735 net.cpp:150] Setting up inception_3b/relu_5x5
I1126 19:49:33.944849 19735 net.cpp:157] Top shape: 64 96 28 28 (4816896)
I1126 19:49:33.944851 19735 net.cpp:165] Memory required for data: 1984562176
I1126 19:49:33.944854 19735 layer_factory.hpp:76] Creating layer inception_3b/pool
I1126 19:49:33.944860 19735 net.cpp:106] Creating Layer inception_3b/pool
I1126 19:49:33.944864 19735 net.cpp:454] inception_3b/pool <- inception_3a/output_inception_3a/output_0_split_3
I1126 19:49:33.944869 19735 net.cpp:411] inception_3b/pool -> inception_3b/pool
I1126 19:49:33.945045 19735 net.cpp:150] Setting up inception_3b/pool
I1126 19:49:33.945055 19735 net.cpp:157] Top shape: 64 256 28 28 (12845056)
I1126 19:49:33.945058 19735 net.cpp:165] Memory required for data: 2035942400
I1126 19:49:33.945061 19735 layer_factory.hpp:76] Creating layer inception_3b/pool_proj
I1126 19:49:33.945070 19735 net.cpp:106] Creating Layer inception_3b/pool_proj
I1126 19:49:33.945073 19735 net.cpp:454] inception_3b/pool_proj <- inception_3b/pool
I1126 19:49:33.945080 19735 net.cpp:411] inception_3b/pool_proj -> inception_3b/pool_proj
I1126 19:49:33.946094 19735 net.cpp:150] Setting up inception_3b/pool_proj
I1126 19:49:33.946106 19735 net.cpp:157] Top shape: 64 64 28 28 (3211264)
I1126 19:49:33.946110 19735 net.cpp:165] Memory required for data: 2048787456
I1126 19:49:33.946115 19735 layer_factory.hpp:76] Creating layer inception_3b/relu_pool_proj
I1126 19:49:33.946120 19735 net.cpp:106] Creating Layer inception_3b/relu_pool_proj
I1126 19:49:33.946123 19735 net.cpp:454] inception_3b/relu_pool_proj <- inception_3b/pool_proj
I1126 19:49:33.946130 19735 net.cpp:397] inception_3b/relu_pool_proj -> inception_3b/pool_proj (in-place)
I1126 19:49:33.946285 19735 net.cpp:150] Setting up inception_3b/relu_pool_proj
I1126 19:49:33.946295 19735 net.cpp:157] Top shape: 64 64 28 28 (3211264)
I1126 19:49:33.946297 19735 net.cpp:165] Memory required for data: 2061632512
I1126 19:49:33.946300 19735 layer_factory.hpp:76] Creating layer inception_3b/output
I1126 19:49:33.946307 19735 net.cpp:106] Creating Layer inception_3b/output
I1126 19:49:33.946310 19735 net.cpp:454] inception_3b/output <- inception_3b/1x1
I1126 19:49:33.946315 19735 net.cpp:454] inception_3b/output <- inception_3b/3x3
I1126 19:49:33.946318 19735 net.cpp:454] inception_3b/output <- inception_3b/5x5
I1126 19:49:33.946321 19735 net.cpp:454] inception_3b/output <- inception_3b/pool_proj
I1126 19:49:33.946326 19735 net.cpp:411] inception_3b/output -> inception_3b/output
I1126 19:49:33.946352 19735 net.cpp:150] Setting up inception_3b/output
I1126 19:49:33.946357 19735 net.cpp:157] Top shape: 64 480 28 28 (24084480)
I1126 19:49:33.946359 19735 net.cpp:165] Memory required for data: 2157970432
I1126 19:49:33.946362 19735 layer_factory.hpp:76] Creating layer pool3/3x3_s2
I1126 19:49:33.946367 19735 net.cpp:106] Creating Layer pool3/3x3_s2
I1126 19:49:33.946369 19735 net.cpp:454] pool3/3x3_s2 <- inception_3b/output
I1126 19:49:33.946375 19735 net.cpp:411] pool3/3x3_s2 -> pool3/3x3_s2
I1126 19:49:33.946677 19735 net.cpp:150] Setting up pool3/3x3_s2
I1126 19:49:33.946688 19735 net.cpp:157] Top shape: 64 480 14 14 (6021120)
I1126 19:49:33.946691 19735 net.cpp:165] Memory required for data: 2182054912
I1126 19:49:33.946694 19735 layer_factory.hpp:76] Creating layer pool3/3x3_s2_pool3/3x3_s2_0_split
I1126 19:49:33.946702 19735 net.cpp:106] Creating Layer pool3/3x3_s2_pool3/3x3_s2_0_split
I1126 19:49:33.946704 19735 net.cpp:454] pool3/3x3_s2_pool3/3x3_s2_0_split <- pool3/3x3_s2
I1126 19:49:33.946709 19735 net.cpp:411] pool3/3x3_s2_pool3/3x3_s2_0_split -> pool3/3x3_s2_pool3/3x3_s2_0_split_0
I1126 19:49:33.946715 19735 net.cpp:411] pool3/3x3_s2_pool3/3x3_s2_0_split -> pool3/3x3_s2_pool3/3x3_s2_0_split_1
I1126 19:49:33.946720 19735 net.cpp:411] pool3/3x3_s2_pool3/3x3_s2_0_split -> pool3/3x3_s2_pool3/3x3_s2_0_split_2
I1126 19:49:33.946727 19735 net.cpp:411] pool3/3x3_s2_pool3/3x3_s2_0_split -> pool3/3x3_s2_pool3/3x3_s2_0_split_3
I1126 19:49:33.946777 19735 net.cpp:150] Setting up pool3/3x3_s2_pool3/3x3_s2_0_split
I1126 19:49:33.946789 19735 net.cpp:157] Top shape: 64 480 14 14 (6021120)
I1126 19:49:33.946794 19735 net.cpp:157] Top shape: 64 480 14 14 (6021120)
I1126 19:49:33.946796 19735 net.cpp:157] Top shape: 64 480 14 14 (6021120)
I1126 19:49:33.946810 19735 net.cpp:157] Top shape: 64 480 14 14 (6021120)
I1126 19:49:33.946812 19735 net.cpp:165] Memory required for data: 2278392832
I1126 19:49:33.946815 19735 layer_factory.hpp:76] Creating layer inception_4a/1x1
I1126 19:49:33.946823 19735 net.cpp:106] Creating Layer inception_4a/1x1
I1126 19:49:33.946826 19735 net.cpp:454] inception_4a/1x1 <- pool3/3x3_s2_pool3/3x3_s2_0_split_0
I1126 19:49:33.946835 19735 net.cpp:411] inception_4a/1x1 -> inception_4a/1x1
I1126 19:49:33.948387 19735 net.cpp:150] Setting up inception_4a/1x1
I1126 19:49:33.948401 19735 net.cpp:157] Top shape: 64 192 14 14 (2408448)
I1126 19:49:33.948405 19735 net.cpp:165] Memory required for data: 2288026624
I1126 19:49:33.948411 19735 layer_factory.hpp:76] Creating layer inception_4a/relu_1x1
I1126 19:49:33.948416 19735 net.cpp:106] Creating Layer inception_4a/relu_1x1
I1126 19:49:33.948420 19735 net.cpp:454] inception_4a/relu_1x1 <- inception_4a/1x1
I1126 19:49:33.948426 19735 net.cpp:397] inception_4a/relu_1x1 -> inception_4a/1x1 (in-place)
I1126 19:49:33.948578 19735 net.cpp:150] Setting up inception_4a/relu_1x1
I1126 19:49:33.948587 19735 net.cpp:157] Top shape: 64 192 14 14 (2408448)
I1126 19:49:33.948590 19735 net.cpp:165] Memory required for data: 2297660416
I1126 19:49:33.948593 19735 layer_factory.hpp:76] Creating layer inception_4a/3x3_reduce
I1126 19:49:33.948601 19735 net.cpp:106] Creating Layer inception_4a/3x3_reduce
I1126 19:49:33.948606 19735 net.cpp:454] inception_4a/3x3_reduce <- pool3/3x3_s2_pool3/3x3_s2_0_split_1
I1126 19:49:33.948611 19735 net.cpp:411] inception_4a/3x3_reduce -> inception_4a/3x3_reduce
I1126 19:49:33.949791 19735 net.cpp:150] Setting up inception_4a/3x3_reduce
I1126 19:49:33.949803 19735 net.cpp:157] Top shape: 64 96 14 14 (1204224)
I1126 19:49:33.949806 19735 net.cpp:165] Memory required for data: 2302477312
I1126 19:49:33.949817 19735 layer_factory.hpp:76] Creating layer inception_4a/relu_3x3_reduce
I1126 19:49:33.949822 19735 net.cpp:106] Creating Layer inception_4a/relu_3x3_reduce
I1126 19:49:33.949826 19735 net.cpp:454] inception_4a/relu_3x3_reduce <- inception_4a/3x3_reduce
I1126 19:49:33.949832 19735 net.cpp:397] inception_4a/relu_3x3_reduce -> inception_4a/3x3_reduce (in-place)
I1126 19:49:33.950105 19735 net.cpp:150] Setting up inception_4a/relu_3x3_reduce
I1126 19:49:33.950117 19735 net.cpp:157] Top shape: 64 96 14 14 (1204224)
I1126 19:49:33.950120 19735 net.cpp:165] Memory required for data: 2307294208
I1126 19:49:33.950124 19735 layer_factory.hpp:76] Creating layer inception_4a/3x3
I1126 19:49:33.950132 19735 net.cpp:106] Creating Layer inception_4a/3x3
I1126 19:49:33.950135 19735 net.cpp:454] inception_4a/3x3 <- inception_4a/3x3_reduce
I1126 19:49:33.950142 19735 net.cpp:411] inception_4a/3x3 -> inception_4a/3x3
I1126 19:49:33.952363 19735 net.cpp:150] Setting up inception_4a/3x3
I1126 19:49:33.952378 19735 net.cpp:157] Top shape: 64 208 14 14 (2609152)
I1126 19:49:33.952381 19735 net.cpp:165] Memory required for data: 2317730816
I1126 19:49:33.952386 19735 layer_factory.hpp:76] Creating layer inception_4a/relu_3x3
I1126 19:49:33.952391 19735 net.cpp:106] Creating Layer inception_4a/relu_3x3
I1126 19:49:33.952395 19735 net.cpp:454] inception_4a/relu_3x3 <- inception_4a/3x3
I1126 19:49:33.952399 19735 net.cpp:397] inception_4a/relu_3x3 -> inception_4a/3x3 (in-place)
I1126 19:49:33.952672 19735 net.cpp:150] Setting up inception_4a/relu_3x3
I1126 19:49:33.952685 19735 net.cpp:157] Top shape: 64 208 14 14 (2609152)
I1126 19:49:33.952688 19735 net.cpp:165] Memory required for data: 2328167424
I1126 19:49:33.952692 19735 layer_factory.hpp:76] Creating layer inception_4a/5x5_reduce
I1126 19:49:33.952708 19735 net.cpp:106] Creating Layer inception_4a/5x5_reduce
I1126 19:49:33.952721 19735 net.cpp:454] inception_4a/5x5_reduce <- pool3/3x3_s2_pool3/3x3_s2_0_split_2
I1126 19:49:33.952728 19735 net.cpp:411] inception_4a/5x5_reduce -> inception_4a/5x5_reduce
I1126 19:49:33.953683 19735 net.cpp:150] Setting up inception_4a/5x5_reduce
I1126 19:49:33.953696 19735 net.cpp:157] Top shape: 64 16 14 14 (200704)
I1126 19:49:33.953699 19735 net.cpp:165] Memory required for data: 2328970240
I1126 19:49:33.953706 19735 layer_factory.hpp:76] Creating layer inception_4a/relu_5x5_reduce
I1126 19:49:33.953711 19735 net.cpp:106] Creating Layer inception_4a/relu_5x5_reduce
I1126 19:49:33.953716 19735 net.cpp:454] inception_4a/relu_5x5_reduce <- inception_4a/5x5_reduce
I1126 19:49:33.953721 19735 net.cpp:397] inception_4a/relu_5x5_reduce -> inception_4a/5x5_reduce (in-place)
I1126 19:49:33.953994 19735 net.cpp:150] Setting up inception_4a/relu_5x5_reduce
I1126 19:49:33.954005 19735 net.cpp:157] Top shape: 64 16 14 14 (200704)
I1126 19:49:33.954010 19735 net.cpp:165] Memory required for data: 2329773056
I1126 19:49:33.954012 19735 layer_factory.hpp:76] Creating layer inception_4a/5x5
I1126 19:49:33.954021 19735 net.cpp:106] Creating Layer inception_4a/5x5
I1126 19:49:33.954025 19735 net.cpp:454] inception_4a/5x5 <- inception_4a/5x5_reduce
I1126 19:49:33.954032 19735 net.cpp:411] inception_4a/5x5 -> inception_4a/5x5
I1126 19:49:33.955090 19735 net.cpp:150] Setting up inception_4a/5x5
I1126 19:49:33.955103 19735 net.cpp:157] Top shape: 64 48 14 14 (602112)
I1126 19:49:33.955106 19735 net.cpp:165] Memory required for data: 2332181504
I1126 19:49:33.955112 19735 layer_factory.hpp:76] Creating layer inception_4a/relu_5x5
I1126 19:49:33.955118 19735 net.cpp:106] Creating Layer inception_4a/relu_5x5
I1126 19:49:33.955121 19735 net.cpp:454] inception_4a/relu_5x5 <- inception_4a/5x5
I1126 19:49:33.955127 19735 net.cpp:397] inception_4a/relu_5x5 -> inception_4a/5x5 (in-place)
I1126 19:49:33.955404 19735 net.cpp:150] Setting up inception_4a/relu_5x5
I1126 19:49:33.955416 19735 net.cpp:157] Top shape: 64 48 14 14 (602112)
I1126 19:49:33.955420 19735 net.cpp:165] Memory required for data: 2334589952
I1126 19:49:33.955422 19735 layer_factory.hpp:76] Creating layer inception_4a/pool
I1126 19:49:33.955428 19735 net.cpp:106] Creating Layer inception_4a/pool
I1126 19:49:33.955431 19735 net.cpp:454] inception_4a/pool <- pool3/3x3_s2_pool3/3x3_s2_0_split_3
I1126 19:49:33.955437 19735 net.cpp:411] inception_4a/pool -> inception_4a/pool
I1126 19:49:33.955616 19735 net.cpp:150] Setting up inception_4a/pool
I1126 19:49:33.955626 19735 net.cpp:157] Top shape: 64 480 14 14 (6021120)
I1126 19:49:33.955628 19735 net.cpp:165] Memory required for data: 2358674432
I1126 19:49:33.955631 19735 layer_factory.hpp:76] Creating layer inception_4a/pool_proj
I1126 19:49:33.955639 19735 net.cpp:106] Creating Layer inception_4a/pool_proj
I1126 19:49:33.955642 19735 net.cpp:454] inception_4a/pool_proj <- inception_4a/pool
I1126 19:49:33.955648 19735 net.cpp:411] inception_4a/pool_proj -> inception_4a/pool_proj
I1126 19:49:33.956734 19735 net.cpp:150] Setting up inception_4a/pool_proj
I1126 19:49:33.956748 19735 net.cpp:157] Top shape: 64 64 14 14 (802816)
I1126 19:49:33.956750 19735 net.cpp:165] Memory required for data: 2361885696
I1126 19:49:33.956755 19735 layer_factory.hpp:76] Creating layer inception_4a/relu_pool_proj
I1126 19:49:33.956763 19735 net.cpp:106] Creating Layer inception_4a/relu_pool_proj
I1126 19:49:33.956766 19735 net.cpp:454] inception_4a/relu_pool_proj <- inception_4a/pool_proj
I1126 19:49:33.956771 19735 net.cpp:397] inception_4a/relu_pool_proj -> inception_4a/pool_proj (in-place)
I1126 19:49:33.957049 19735 net.cpp:150] Setting up inception_4a/relu_pool_proj
I1126 19:49:33.957062 19735 net.cpp:157] Top shape: 64 64 14 14 (802816)
I1126 19:49:33.957064 19735 net.cpp:165] Memory required for data: 2365096960
I1126 19:49:33.957067 19735 layer_factory.hpp:76] Creating layer inception_4a/output
I1126 19:49:33.957073 19735 net.cpp:106] Creating Layer inception_4a/output
I1126 19:49:33.957077 19735 net.cpp:454] inception_4a/output <- inception_4a/1x1
I1126 19:49:33.957082 19735 net.cpp:454] inception_4a/output <- inception_4a/3x3
I1126 19:49:33.957085 19735 net.cpp:454] inception_4a/output <- inception_4a/5x5
I1126 19:49:33.957088 19735 net.cpp:454] inception_4a/output <- inception_4a/pool_proj
I1126 19:49:33.957093 19735 net.cpp:411] inception_4a/output -> inception_4a/output
I1126 19:49:33.957121 19735 net.cpp:150] Setting up inception_4a/output
I1126 19:49:33.957126 19735 net.cpp:157] Top shape: 64 512 14 14 (6422528)
I1126 19:49:33.957129 19735 net.cpp:165] Memory required for data: 2390787072
I1126 19:49:33.957131 19735 layer_factory.hpp:76] Creating layer inception_4a/output_inception_4a/output_0_split
I1126 19:49:33.957137 19735 net.cpp:106] Creating Layer inception_4a/output_inception_4a/output_0_split
I1126 19:49:33.957140 19735 net.cpp:454] inception_4a/output_inception_4a/output_0_split <- inception_4a/output
I1126 19:49:33.957146 19735 net.cpp:411] inception_4a/output_inception_4a/output_0_split -> inception_4a/output_inception_4a/output_0_split_0
I1126 19:49:33.957152 19735 net.cpp:411] inception_4a/output_inception_4a/output_0_split -> inception_4a/output_inception_4a/output_0_split_1
I1126 19:49:33.957157 19735 net.cpp:411] inception_4a/output_inception_4a/output_0_split -> inception_4a/output_inception_4a/output_0_split_2
I1126 19:49:33.957162 19735 net.cpp:411] inception_4a/output_inception_4a/output_0_split -> inception_4a/output_inception_4a/output_0_split_3
I1126 19:49:33.957167 19735 net.cpp:411] inception_4a/output_inception_4a/output_0_split -> inception_4a/output_inception_4a/output_0_split_4
I1126 19:49:33.957232 19735 net.cpp:150] Setting up inception_4a/output_inception_4a/output_0_split
I1126 19:49:33.957239 19735 net.cpp:157] Top shape: 64 512 14 14 (6422528)
I1126 19:49:33.957243 19735 net.cpp:157] Top shape: 64 512 14 14 (6422528)
I1126 19:49:33.957247 19735 net.cpp:157] Top shape: 64 512 14 14 (6422528)
I1126 19:49:33.957249 19735 net.cpp:157] Top shape: 64 512 14 14 (6422528)
I1126 19:49:33.957252 19735 net.cpp:157] Top shape: 64 512 14 14 (6422528)
I1126 19:49:33.957255 19735 net.cpp:165] Memory required for data: 2519237632
I1126 19:49:33.957258 19735 layer_factory.hpp:76] Creating layer loss1/ave_pool
I1126 19:49:33.957262 19735 net.cpp:106] Creating Layer loss1/ave_pool
I1126 19:49:33.957265 19735 net.cpp:454] loss1/ave_pool <- inception_4a/output_inception_4a/output_0_split_0
I1126 19:49:33.957273 19735 net.cpp:411] loss1/ave_pool -> loss1/ave_pool
I1126 19:49:33.957439 19735 net.cpp:150] Setting up loss1/ave_pool
I1126 19:49:33.957448 19735 net.cpp:157] Top shape: 64 512 4 4 (524288)
I1126 19:49:33.957451 19735 net.cpp:165] Memory required for data: 2521334784
I1126 19:49:33.957454 19735 layer_factory.hpp:76] Creating layer loss1/conv
I1126 19:49:33.957463 19735 net.cpp:106] Creating Layer loss1/conv
I1126 19:49:33.957468 19735 net.cpp:454] loss1/conv <- loss1/ave_pool
I1126 19:49:33.957473 19735 net.cpp:411] loss1/conv -> loss1/conv
I1126 19:49:33.958807 19735 net.cpp:150] Setting up loss1/conv
I1126 19:49:33.958819 19735 net.cpp:157] Top shape: 64 128 4 4 (131072)
I1126 19:49:33.958823 19735 net.cpp:165] Memory required for data: 2521859072
I1126 19:49:33.958829 19735 layer_factory.hpp:76] Creating layer loss1/relu_conv
I1126 19:49:33.958834 19735 net.cpp:106] Creating Layer loss1/relu_conv
I1126 19:49:33.958838 19735 net.cpp:454] loss1/relu_conv <- loss1/conv
I1126 19:49:33.958843 19735 net.cpp:397] loss1/relu_conv -> loss1/conv (in-place)
I1126 19:49:33.958994 19735 net.cpp:150] Setting up loss1/relu_conv
I1126 19:49:33.959004 19735 net.cpp:157] Top shape: 64 128 4 4 (131072)
I1126 19:49:33.959007 19735 net.cpp:165] Memory required for data: 2522383360
I1126 19:49:33.959010 19735 layer_factory.hpp:76] Creating layer loss1/fc
I1126 19:49:33.959017 19735 net.cpp:106] Creating Layer loss1/fc
I1126 19:49:33.959020 19735 net.cpp:454] loss1/fc <- loss1/conv
I1126 19:49:33.959027 19735 net.cpp:411] loss1/fc -> loss1/fc
I1126 19:49:33.973009 19735 net.cpp:150] Setting up loss1/fc
I1126 19:49:33.973023 19735 net.cpp:157] Top shape: 64 1024 (65536)
I1126 19:49:33.973027 19735 net.cpp:165] Memory required for data: 2522645504
I1126 19:49:33.973032 19735 layer_factory.hpp:76] Creating layer loss1/relu_fc
I1126 19:49:33.973038 19735 net.cpp:106] Creating Layer loss1/relu_fc
I1126 19:49:33.973042 19735 net.cpp:454] loss1/relu_fc <- loss1/fc
I1126 19:49:33.973047 19735 net.cpp:397] loss1/relu_fc -> loss1/fc (in-place)
I1126 19:49:33.973335 19735 net.cpp:150] Setting up loss1/relu_fc
I1126 19:49:33.973347 19735 net.cpp:157] Top shape: 64 1024 (65536)
I1126 19:49:33.973351 19735 net.cpp:165] Memory required for data: 2522907648
I1126 19:49:33.973353 19735 layer_factory.hpp:76] Creating layer loss1/drop_fc
I1126 19:49:33.973368 19735 net.cpp:106] Creating Layer loss1/drop_fc
I1126 19:49:33.973372 19735 net.cpp:454] loss1/drop_fc <- loss1/fc
I1126 19:49:33.973376 19735 net.cpp:397] loss1/drop_fc -> loss1/fc (in-place)
I1126 19:49:33.973409 19735 net.cpp:150] Setting up loss1/drop_fc
I1126 19:49:33.973414 19735 net.cpp:157] Top shape: 64 1024 (65536)
I1126 19:49:33.973417 19735 net.cpp:165] Memory required for data: 2523169792
I1126 19:49:33.973420 19735 layer_factory.hpp:76] Creating layer loss1/classifier-attribute
I1126 19:49:33.973428 19735 net.cpp:106] Creating Layer loss1/classifier-attribute
I1126 19:49:33.973431 19735 net.cpp:454] loss1/classifier-attribute <- loss1/fc
I1126 19:49:33.973436 19735 net.cpp:411] loss1/classifier-attribute -> loss1/classifier-attribute
I1126 19:49:34.043104 19735 net.cpp:150] Setting up loss1/classifier-attribute
I1126 19:49:34.043126 19735 net.cpp:157] Top shape: 64 9999 (639936)
I1126 19:49:34.043130 19735 net.cpp:165] Memory required for data: 2525729536
I1126 19:49:34.043138 19735 layer_factory.hpp:76] Creating layer loss1/loss
I1126 19:49:34.043149 19735 net.cpp:106] Creating Layer loss1/loss
I1126 19:49:34.043154 19735 net.cpp:454] loss1/loss <- loss1/classifier-attribute
I1126 19:49:34.043160 19735 net.cpp:454] loss1/loss <- label_data_1_split_0
I1126 19:49:34.043165 19735 net.cpp:411] loss1/loss -> loss1/loss1
I1126 19:49:34.043179 19735 layer_factory.hpp:76] Creating layer loss1/loss
I1126 19:49:34.044597 19735 net.cpp:150] Setting up loss1/loss
I1126 19:49:34.044610 19735 net.cpp:157] Top shape: (1)
I1126 19:49:34.044613 19735 net.cpp:160]     with loss weight 0.3
I1126 19:49:34.044632 19735 net.cpp:165] Memory required for data: 2525729540
I1126 19:49:34.044636 19735 layer_factory.hpp:76] Creating layer inception_4b/1x1
I1126 19:49:34.044646 19735 net.cpp:106] Creating Layer inception_4b/1x1
I1126 19:49:34.044651 19735 net.cpp:454] inception_4b/1x1 <- inception_4a/output_inception_4a/output_0_split_1
I1126 19:49:34.044656 19735 net.cpp:411] inception_4b/1x1 -> inception_4b/1x1
I1126 19:49:34.046105 19735 net.cpp:150] Setting up inception_4b/1x1
I1126 19:49:34.046119 19735 net.cpp:157] Top shape: 64 160 14 14 (2007040)
I1126 19:49:34.046123 19735 net.cpp:165] Memory required for data: 2533757700
I1126 19:49:34.046128 19735 layer_factory.hpp:76] Creating layer inception_4b/relu_1x1
I1126 19:49:34.046134 19735 net.cpp:106] Creating Layer inception_4b/relu_1x1
I1126 19:49:34.046138 19735 net.cpp:454] inception_4b/relu_1x1 <- inception_4b/1x1
I1126 19:49:34.046144 19735 net.cpp:397] inception_4b/relu_1x1 -> inception_4b/1x1 (in-place)
I1126 19:49:34.046421 19735 net.cpp:150] Setting up inception_4b/relu_1x1
I1126 19:49:34.046432 19735 net.cpp:157] Top shape: 64 160 14 14 (2007040)
I1126 19:49:34.046435 19735 net.cpp:165] Memory required for data: 2541785860
I1126 19:49:34.046438 19735 layer_factory.hpp:76] Creating layer inception_4b/3x3_reduce
I1126 19:49:34.046447 19735 net.cpp:106] Creating Layer inception_4b/3x3_reduce
I1126 19:49:34.046452 19735 net.cpp:454] inception_4b/3x3_reduce <- inception_4a/output_inception_4a/output_0_split_2
I1126 19:49:34.046458 19735 net.cpp:411] inception_4b/3x3_reduce -> inception_4b/3x3_reduce
I1126 19:49:34.048126 19735 net.cpp:150] Setting up inception_4b/3x3_reduce
I1126 19:49:34.048140 19735 net.cpp:157] Top shape: 64 112 14 14 (1404928)
I1126 19:49:34.048143 19735 net.cpp:165] Memory required for data: 2547405572
I1126 19:49:34.048148 19735 layer_factory.hpp:76] Creating layer inception_4b/relu_3x3_reduce
I1126 19:49:34.048154 19735 net.cpp:106] Creating Layer inception_4b/relu_3x3_reduce
I1126 19:49:34.048159 19735 net.cpp:454] inception_4b/relu_3x3_reduce <- inception_4b/3x3_reduce
I1126 19:49:34.048164 19735 net.cpp:397] inception_4b/relu_3x3_reduce -> inception_4b/3x3_reduce (in-place)
I1126 19:49:34.048317 19735 net.cpp:150] Setting up inception_4b/relu_3x3_reduce
I1126 19:49:34.048326 19735 net.cpp:157] Top shape: 64 112 14 14 (1404928)
I1126 19:49:34.048329 19735 net.cpp:165] Memory required for data: 2553025284
I1126 19:49:34.048332 19735 layer_factory.hpp:76] Creating layer inception_4b/3x3
I1126 19:49:34.048341 19735 net.cpp:106] Creating Layer inception_4b/3x3
I1126 19:49:34.048346 19735 net.cpp:454] inception_4b/3x3 <- inception_4b/3x3_reduce
I1126 19:49:34.048351 19735 net.cpp:411] inception_4b/3x3 -> inception_4b/3x3
I1126 19:49:34.050978 19735 net.cpp:150] Setting up inception_4b/3x3
I1126 19:49:34.050992 19735 net.cpp:157] Top shape: 64 224 14 14 (2809856)
I1126 19:49:34.050995 19735 net.cpp:165] Memory required for data: 2564264708
I1126 19:49:34.051002 19735 layer_factory.hpp:76] Creating layer inception_4b/relu_3x3
I1126 19:49:34.051007 19735 net.cpp:106] Creating Layer inception_4b/relu_3x3
I1126 19:49:34.051010 19735 net.cpp:454] inception_4b/relu_3x3 <- inception_4b/3x3
I1126 19:49:34.051017 19735 net.cpp:397] inception_4b/relu_3x3 -> inception_4b/3x3 (in-place)
I1126 19:49:34.051173 19735 net.cpp:150] Setting up inception_4b/relu_3x3
I1126 19:49:34.051183 19735 net.cpp:157] Top shape: 64 224 14 14 (2809856)
I1126 19:49:34.051187 19735 net.cpp:165] Memory required for data: 2575504132
I1126 19:49:34.051189 19735 layer_factory.hpp:76] Creating layer inception_4b/5x5_reduce
I1126 19:49:34.051197 19735 net.cpp:106] Creating Layer inception_4b/5x5_reduce
I1126 19:49:34.051199 19735 net.cpp:454] inception_4b/5x5_reduce <- inception_4a/output_inception_4a/output_0_split_3
I1126 19:49:34.051208 19735 net.cpp:411] inception_4b/5x5_reduce -> inception_4b/5x5_reduce
I1126 19:49:34.052218 19735 net.cpp:150] Setting up inception_4b/5x5_reduce
I1126 19:49:34.052232 19735 net.cpp:157] Top shape: 64 24 14 14 (301056)
I1126 19:49:34.052234 19735 net.cpp:165] Memory required for data: 2576708356
I1126 19:49:34.052239 19735 layer_factory.hpp:76] Creating layer inception_4b/relu_5x5_reduce
I1126 19:49:34.052247 19735 net.cpp:106] Creating Layer inception_4b/relu_5x5_reduce
I1126 19:49:34.052250 19735 net.cpp:454] inception_4b/relu_5x5_reduce <- inception_4b/5x5_reduce
I1126 19:49:34.052255 19735 net.cpp:397] inception_4b/relu_5x5_reduce -> inception_4b/5x5_reduce (in-place)
I1126 19:49:34.052647 19735 net.cpp:150] Setting up inception_4b/relu_5x5_reduce
I1126 19:49:34.052659 19735 net.cpp:157] Top shape: 64 24 14 14 (301056)
I1126 19:49:34.052662 19735 net.cpp:165] Memory required for data: 2577912580
I1126 19:49:34.052666 19735 layer_factory.hpp:76] Creating layer inception_4b/5x5
I1126 19:49:34.052675 19735 net.cpp:106] Creating Layer inception_4b/5x5
I1126 19:49:34.052680 19735 net.cpp:454] inception_4b/5x5 <- inception_4b/5x5_reduce
I1126 19:49:34.052685 19735 net.cpp:411] inception_4b/5x5 -> inception_4b/5x5
I1126 19:49:34.053920 19735 net.cpp:150] Setting up inception_4b/5x5
I1126 19:49:34.053932 19735 net.cpp:157] Top shape: 64 64 14 14 (802816)
I1126 19:49:34.053936 19735 net.cpp:165] Memory required for data: 2581123844
I1126 19:49:34.053941 19735 layer_factory.hpp:76] Creating layer inception_4b/relu_5x5
I1126 19:49:34.053947 19735 net.cpp:106] Creating Layer inception_4b/relu_5x5
I1126 19:49:34.053951 19735 net.cpp:454] inception_4b/relu_5x5 <- inception_4b/5x5
I1126 19:49:34.053956 19735 net.cpp:397] inception_4b/relu_5x5 -> inception_4b/5x5 (in-place)
I1126 19:49:34.054113 19735 net.cpp:150] Setting up inception_4b/relu_5x5
I1126 19:49:34.054123 19735 net.cpp:157] Top shape: 64 64 14 14 (802816)
I1126 19:49:34.054126 19735 net.cpp:165] Memory required for data: 2584335108
I1126 19:49:34.054129 19735 layer_factory.hpp:76] Creating layer inception_4b/pool
I1126 19:49:34.054136 19735 net.cpp:106] Creating Layer inception_4b/pool
I1126 19:49:34.054139 19735 net.cpp:454] inception_4b/pool <- inception_4a/output_inception_4a/output_0_split_4
I1126 19:49:34.054144 19735 net.cpp:411] inception_4b/pool -> inception_4b/pool
I1126 19:49:34.054466 19735 net.cpp:150] Setting up inception_4b/pool
I1126 19:49:34.054479 19735 net.cpp:157] Top shape: 64 512 14 14 (6422528)
I1126 19:49:34.054483 19735 net.cpp:165] Memory required for data: 2610025220
I1126 19:49:34.054486 19735 layer_factory.hpp:76] Creating layer inception_4b/pool_proj
I1126 19:49:34.054493 19735 net.cpp:106] Creating Layer inception_4b/pool_proj
I1126 19:49:34.054497 19735 net.cpp:454] inception_4b/pool_proj <- inception_4b/pool
I1126 19:49:34.054504 19735 net.cpp:411] inception_4b/pool_proj -> inception_4b/pool_proj
I1126 19:49:34.055524 19735 net.cpp:150] Setting up inception_4b/pool_proj
I1126 19:49:34.055538 19735 net.cpp:157] Top shape: 64 64 14 14 (802816)
I1126 19:49:34.055542 19735 net.cpp:165] Memory required for data: 2613236484
I1126 19:49:34.055547 19735 layer_factory.hpp:76] Creating layer inception_4b/relu_pool_proj
I1126 19:49:34.055553 19735 net.cpp:106] Creating Layer inception_4b/relu_pool_proj
I1126 19:49:34.055557 19735 net.cpp:454] inception_4b/relu_pool_proj <- inception_4b/pool_proj
I1126 19:49:34.055562 19735 net.cpp:397] inception_4b/relu_pool_proj -> inception_4b/pool_proj (in-place)
I1126 19:49:34.055843 19735 net.cpp:150] Setting up inception_4b/relu_pool_proj
I1126 19:49:34.055856 19735 net.cpp:157] Top shape: 64 64 14 14 (802816)
I1126 19:49:34.055860 19735 net.cpp:165] Memory required for data: 2616447748
I1126 19:49:34.055862 19735 layer_factory.hpp:76] Creating layer inception_4b/output
I1126 19:49:34.055868 19735 net.cpp:106] Creating Layer inception_4b/output
I1126 19:49:34.055872 19735 net.cpp:454] inception_4b/output <- inception_4b/1x1
I1126 19:49:34.055876 19735 net.cpp:454] inception_4b/output <- inception_4b/3x3
I1126 19:49:34.055879 19735 net.cpp:454] inception_4b/output <- inception_4b/5x5
I1126 19:49:34.055883 19735 net.cpp:454] inception_4b/output <- inception_4b/pool_proj
I1126 19:49:34.055887 19735 net.cpp:411] inception_4b/output -> inception_4b/output
I1126 19:49:34.055924 19735 net.cpp:150] Setting up inception_4b/output
I1126 19:49:34.055938 19735 net.cpp:157] Top shape: 64 512 14 14 (6422528)
I1126 19:49:34.055940 19735 net.cpp:165] Memory required for data: 2642137860
I1126 19:49:34.055943 19735 layer_factory.hpp:76] Creating layer inception_4b/output_inception_4b/output_0_split
I1126 19:49:34.055948 19735 net.cpp:106] Creating Layer inception_4b/output_inception_4b/output_0_split
I1126 19:49:34.055954 19735 net.cpp:454] inception_4b/output_inception_4b/output_0_split <- inception_4b/output
I1126 19:49:34.055958 19735 net.cpp:411] inception_4b/output_inception_4b/output_0_split -> inception_4b/output_inception_4b/output_0_split_0
I1126 19:49:34.055964 19735 net.cpp:411] inception_4b/output_inception_4b/output_0_split -> inception_4b/output_inception_4b/output_0_split_1
I1126 19:49:34.055969 19735 net.cpp:411] inception_4b/output_inception_4b/output_0_split -> inception_4b/output_inception_4b/output_0_split_2
I1126 19:49:34.055974 19735 net.cpp:411] inception_4b/output_inception_4b/output_0_split -> inception_4b/output_inception_4b/output_0_split_3
I1126 19:49:34.056038 19735 net.cpp:150] Setting up inception_4b/output_inception_4b/output_0_split
I1126 19:49:34.056046 19735 net.cpp:157] Top shape: 64 512 14 14 (6422528)
I1126 19:49:34.056049 19735 net.cpp:157] Top shape: 64 512 14 14 (6422528)
I1126 19:49:34.056052 19735 net.cpp:157] Top shape: 64 512 14 14 (6422528)
I1126 19:49:34.056056 19735 net.cpp:157] Top shape: 64 512 14 14 (6422528)
I1126 19:49:34.056058 19735 net.cpp:165] Memory required for data: 2744898308
I1126 19:49:34.056061 19735 layer_factory.hpp:76] Creating layer inception_4c/1x1
I1126 19:49:34.056069 19735 net.cpp:106] Creating Layer inception_4c/1x1
I1126 19:49:34.056072 19735 net.cpp:454] inception_4c/1x1 <- inception_4b/output_inception_4b/output_0_split_0
I1126 19:49:34.056077 19735 net.cpp:411] inception_4c/1x1 -> inception_4c/1x1
I1126 19:49:34.057387 19735 net.cpp:150] Setting up inception_4c/1x1
I1126 19:49:34.057401 19735 net.cpp:157] Top shape: 64 128 14 14 (1605632)
I1126 19:49:34.057404 19735 net.cpp:165] Memory required for data: 2751320836
I1126 19:49:34.057410 19735 layer_factory.hpp:76] Creating layer inception_4c/relu_1x1
I1126 19:49:34.057418 19735 net.cpp:106] Creating Layer inception_4c/relu_1x1
I1126 19:49:34.057422 19735 net.cpp:454] inception_4c/relu_1x1 <- inception_4c/1x1
I1126 19:49:34.057426 19735 net.cpp:397] inception_4c/relu_1x1 -> inception_4c/1x1 (in-place)
I1126 19:49:34.057581 19735 net.cpp:150] Setting up inception_4c/relu_1x1
I1126 19:49:34.057590 19735 net.cpp:157] Top shape: 64 128 14 14 (1605632)
I1126 19:49:34.057593 19735 net.cpp:165] Memory required for data: 2757743364
I1126 19:49:34.057596 19735 layer_factory.hpp:76] Creating layer inception_4c/3x3_reduce
I1126 19:49:34.057605 19735 net.cpp:106] Creating Layer inception_4c/3x3_reduce
I1126 19:49:34.057607 19735 net.cpp:454] inception_4c/3x3_reduce <- inception_4b/output_inception_4b/output_0_split_1
I1126 19:49:34.057615 19735 net.cpp:411] inception_4c/3x3_reduce -> inception_4c/3x3_reduce
I1126 19:49:34.058936 19735 net.cpp:150] Setting up inception_4c/3x3_reduce
I1126 19:49:34.058949 19735 net.cpp:157] Top shape: 64 128 14 14 (1605632)
I1126 19:49:34.058953 19735 net.cpp:165] Memory required for data: 2764165892
I1126 19:49:34.058959 19735 layer_factory.hpp:76] Creating layer inception_4c/relu_3x3_reduce
I1126 19:49:34.058965 19735 net.cpp:106] Creating Layer inception_4c/relu_3x3_reduce
I1126 19:49:34.058969 19735 net.cpp:454] inception_4c/relu_3x3_reduce <- inception_4c/3x3_reduce
I1126 19:49:34.058974 19735 net.cpp:397] inception_4c/relu_3x3_reduce -> inception_4c/3x3_reduce (in-place)
I1126 19:49:34.059260 19735 net.cpp:150] Setting up inception_4c/relu_3x3_reduce
I1126 19:49:34.059273 19735 net.cpp:157] Top shape: 64 128 14 14 (1605632)
I1126 19:49:34.059275 19735 net.cpp:165] Memory required for data: 2770588420
I1126 19:49:34.059279 19735 layer_factory.hpp:76] Creating layer inception_4c/3x3
I1126 19:49:34.059289 19735 net.cpp:106] Creating Layer inception_4c/3x3
I1126 19:49:34.059293 19735 net.cpp:454] inception_4c/3x3 <- inception_4c/3x3_reduce
I1126 19:49:34.059298 19735 net.cpp:411] inception_4c/3x3 -> inception_4c/3x3
I1126 19:49:34.062216 19735 net.cpp:150] Setting up inception_4c/3x3
I1126 19:49:34.062229 19735 net.cpp:157] Top shape: 64 256 14 14 (3211264)
I1126 19:49:34.062233 19735 net.cpp:165] Memory required for data: 2783433476
I1126 19:49:34.062249 19735 layer_factory.hpp:76] Creating layer inception_4c/relu_3x3
I1126 19:49:34.062255 19735 net.cpp:106] Creating Layer inception_4c/relu_3x3
I1126 19:49:34.062259 19735 net.cpp:454] inception_4c/relu_3x3 <- inception_4c/3x3
I1126 19:49:34.062263 19735 net.cpp:397] inception_4c/relu_3x3 -> inception_4c/3x3 (in-place)
I1126 19:49:34.062544 19735 net.cpp:150] Setting up inception_4c/relu_3x3
I1126 19:49:34.062558 19735 net.cpp:157] Top shape: 64 256 14 14 (3211264)
I1126 19:49:34.062561 19735 net.cpp:165] Memory required for data: 2796278532
I1126 19:49:34.062564 19735 layer_factory.hpp:76] Creating layer inception_4c/5x5_reduce
I1126 19:49:34.062572 19735 net.cpp:106] Creating Layer inception_4c/5x5_reduce
I1126 19:49:34.062575 19735 net.cpp:454] inception_4c/5x5_reduce <- inception_4b/output_inception_4b/output_0_split_2
I1126 19:49:34.062582 19735 net.cpp:411] inception_4c/5x5_reduce -> inception_4c/5x5_reduce
I1126 19:49:34.063606 19735 net.cpp:150] Setting up inception_4c/5x5_reduce
I1126 19:49:34.063617 19735 net.cpp:157] Top shape: 64 24 14 14 (301056)
I1126 19:49:34.063621 19735 net.cpp:165] Memory required for data: 2797482756
I1126 19:49:34.063627 19735 layer_factory.hpp:76] Creating layer inception_4c/relu_5x5_reduce
I1126 19:49:34.063633 19735 net.cpp:106] Creating Layer inception_4c/relu_5x5_reduce
I1126 19:49:34.063637 19735 net.cpp:454] inception_4c/relu_5x5_reduce <- inception_4c/5x5_reduce
I1126 19:49:34.063642 19735 net.cpp:397] inception_4c/relu_5x5_reduce -> inception_4c/5x5_reduce (in-place)
I1126 19:49:34.063797 19735 net.cpp:150] Setting up inception_4c/relu_5x5_reduce
I1126 19:49:34.063807 19735 net.cpp:157] Top shape: 64 24 14 14 (301056)
I1126 19:49:34.063809 19735 net.cpp:165] Memory required for data: 2798686980
I1126 19:49:34.063812 19735 layer_factory.hpp:76] Creating layer inception_4c/5x5
I1126 19:49:34.063820 19735 net.cpp:106] Creating Layer inception_4c/5x5
I1126 19:49:34.063823 19735 net.cpp:454] inception_4c/5x5 <- inception_4c/5x5_reduce
I1126 19:49:34.063830 19735 net.cpp:411] inception_4c/5x5 -> inception_4c/5x5
I1126 19:49:34.065384 19735 net.cpp:150] Setting up inception_4c/5x5
I1126 19:49:34.065398 19735 net.cpp:157] Top shape: 64 64 14 14 (802816)
I1126 19:49:34.065402 19735 net.cpp:165] Memory required for data: 2801898244
I1126 19:49:34.065408 19735 layer_factory.hpp:76] Creating layer inception_4c/relu_5x5
I1126 19:49:34.065413 19735 net.cpp:106] Creating Layer inception_4c/relu_5x5
I1126 19:49:34.065418 19735 net.cpp:454] inception_4c/relu_5x5 <- inception_4c/5x5
I1126 19:49:34.065421 19735 net.cpp:397] inception_4c/relu_5x5 -> inception_4c/5x5 (in-place)
I1126 19:49:34.065711 19735 net.cpp:150] Setting up inception_4c/relu_5x5
I1126 19:49:34.065722 19735 net.cpp:157] Top shape: 64 64 14 14 (802816)
I1126 19:49:34.065726 19735 net.cpp:165] Memory required for data: 2805109508
I1126 19:49:34.065728 19735 layer_factory.hpp:76] Creating layer inception_4c/pool
I1126 19:49:34.065734 19735 net.cpp:106] Creating Layer inception_4c/pool
I1126 19:49:34.065738 19735 net.cpp:454] inception_4c/pool <- inception_4b/output_inception_4b/output_0_split_3
I1126 19:49:34.065743 19735 net.cpp:411] inception_4c/pool -> inception_4c/pool
I1126 19:49:34.065933 19735 net.cpp:150] Setting up inception_4c/pool
I1126 19:49:34.065943 19735 net.cpp:157] Top shape: 64 512 14 14 (6422528)
I1126 19:49:34.065946 19735 net.cpp:165] Memory required for data: 2830799620
I1126 19:49:34.065949 19735 layer_factory.hpp:76] Creating layer inception_4c/pool_proj
I1126 19:49:34.065958 19735 net.cpp:106] Creating Layer inception_4c/pool_proj
I1126 19:49:34.065960 19735 net.cpp:454] inception_4c/pool_proj <- inception_4c/pool
I1126 19:49:34.065968 19735 net.cpp:411] inception_4c/pool_proj -> inception_4c/pool_proj
I1126 19:49:34.067260 19735 net.cpp:150] Setting up inception_4c/pool_proj
I1126 19:49:34.067275 19735 net.cpp:157] Top shape: 64 64 14 14 (802816)
I1126 19:49:34.067277 19735 net.cpp:165] Memory required for data: 2834010884
I1126 19:49:34.067283 19735 layer_factory.hpp:76] Creating layer inception_4c/relu_pool_proj
I1126 19:49:34.067288 19735 net.cpp:106] Creating Layer inception_4c/relu_pool_proj
I1126 19:49:34.067292 19735 net.cpp:454] inception_4c/relu_pool_proj <- inception_4c/pool_proj
I1126 19:49:34.067298 19735 net.cpp:397] inception_4c/relu_pool_proj -> inception_4c/pool_proj (in-place)
I1126 19:49:34.067581 19735 net.cpp:150] Setting up inception_4c/relu_pool_proj
I1126 19:49:34.067594 19735 net.cpp:157] Top shape: 64 64 14 14 (802816)
I1126 19:49:34.067596 19735 net.cpp:165] Memory required for data: 2837222148
I1126 19:49:34.067600 19735 layer_factory.hpp:76] Creating layer inception_4c/output
I1126 19:49:34.067605 19735 net.cpp:106] Creating Layer inception_4c/output
I1126 19:49:34.067610 19735 net.cpp:454] inception_4c/output <- inception_4c/1x1
I1126 19:49:34.067613 19735 net.cpp:454] inception_4c/output <- inception_4c/3x3
I1126 19:49:34.067623 19735 net.cpp:454] inception_4c/output <- inception_4c/5x5
I1126 19:49:34.067626 19735 net.cpp:454] inception_4c/output <- inception_4c/pool_proj
I1126 19:49:34.067631 19735 net.cpp:411] inception_4c/output -> inception_4c/output
I1126 19:49:34.067662 19735 net.cpp:150] Setting up inception_4c/output
I1126 19:49:34.067668 19735 net.cpp:157] Top shape: 64 512 14 14 (6422528)
I1126 19:49:34.067670 19735 net.cpp:165] Memory required for data: 2862912260
I1126 19:49:34.067673 19735 layer_factory.hpp:76] Creating layer inception_4c/output_inception_4c/output_0_split
I1126 19:49:34.067680 19735 net.cpp:106] Creating Layer inception_4c/output_inception_4c/output_0_split
I1126 19:49:34.067683 19735 net.cpp:454] inception_4c/output_inception_4c/output_0_split <- inception_4c/output
I1126 19:49:34.067687 19735 net.cpp:411] inception_4c/output_inception_4c/output_0_split -> inception_4c/output_inception_4c/output_0_split_0
I1126 19:49:34.067694 19735 net.cpp:411] inception_4c/output_inception_4c/output_0_split -> inception_4c/output_inception_4c/output_0_split_1
I1126 19:49:34.067703 19735 net.cpp:411] inception_4c/output_inception_4c/output_0_split -> inception_4c/output_inception_4c/output_0_split_2
I1126 19:49:34.067708 19735 net.cpp:411] inception_4c/output_inception_4c/output_0_split -> inception_4c/output_inception_4c/output_0_split_3
I1126 19:49:34.067769 19735 net.cpp:150] Setting up inception_4c/output_inception_4c/output_0_split
I1126 19:49:34.067775 19735 net.cpp:157] Top shape: 64 512 14 14 (6422528)
I1126 19:49:34.067778 19735 net.cpp:157] Top shape: 64 512 14 14 (6422528)
I1126 19:49:34.067781 19735 net.cpp:157] Top shape: 64 512 14 14 (6422528)
I1126 19:49:34.067785 19735 net.cpp:157] Top shape: 64 512 14 14 (6422528)
I1126 19:49:34.067787 19735 net.cpp:165] Memory required for data: 2965672708
I1126 19:49:34.067790 19735 layer_factory.hpp:76] Creating layer inception_4d/1x1
I1126 19:49:34.067797 19735 net.cpp:106] Creating Layer inception_4d/1x1
I1126 19:49:34.067800 19735 net.cpp:454] inception_4d/1x1 <- inception_4c/output_inception_4c/output_0_split_0
I1126 19:49:34.067806 19735 net.cpp:411] inception_4d/1x1 -> inception_4d/1x1
I1126 19:49:34.068972 19735 net.cpp:150] Setting up inception_4d/1x1
I1126 19:49:34.068984 19735 net.cpp:157] Top shape: 64 112 14 14 (1404928)
I1126 19:49:34.068989 19735 net.cpp:165] Memory required for data: 2971292420
I1126 19:49:34.068994 19735 layer_factory.hpp:76] Creating layer inception_4d/relu_1x1
I1126 19:49:34.069000 19735 net.cpp:106] Creating Layer inception_4d/relu_1x1
I1126 19:49:34.069002 19735 net.cpp:454] inception_4d/relu_1x1 <- inception_4d/1x1
I1126 19:49:34.069007 19735 net.cpp:397] inception_4d/relu_1x1 -> inception_4d/1x1 (in-place)
I1126 19:49:34.069294 19735 net.cpp:150] Setting up inception_4d/relu_1x1
I1126 19:49:34.069306 19735 net.cpp:157] Top shape: 64 112 14 14 (1404928)
I1126 19:49:34.069309 19735 net.cpp:165] Memory required for data: 2976912132
I1126 19:49:34.069313 19735 layer_factory.hpp:76] Creating layer inception_4d/3x3_reduce
I1126 19:49:34.069320 19735 net.cpp:106] Creating Layer inception_4d/3x3_reduce
I1126 19:49:34.069324 19735 net.cpp:454] inception_4d/3x3_reduce <- inception_4c/output_inception_4c/output_0_split_1
I1126 19:49:34.069330 19735 net.cpp:411] inception_4d/3x3_reduce -> inception_4d/3x3_reduce
I1126 19:49:34.070771 19735 net.cpp:150] Setting up inception_4d/3x3_reduce
I1126 19:49:34.070785 19735 net.cpp:157] Top shape: 64 144 14 14 (1806336)
I1126 19:49:34.070787 19735 net.cpp:165] Memory required for data: 2984137476
I1126 19:49:34.070793 19735 layer_factory.hpp:76] Creating layer inception_4d/relu_3x3_reduce
I1126 19:49:34.070804 19735 net.cpp:106] Creating Layer inception_4d/relu_3x3_reduce
I1126 19:49:34.070808 19735 net.cpp:454] inception_4d/relu_3x3_reduce <- inception_4d/3x3_reduce
I1126 19:49:34.070813 19735 net.cpp:397] inception_4d/relu_3x3_reduce -> inception_4d/3x3_reduce (in-place)
I1126 19:49:34.070971 19735 net.cpp:150] Setting up inception_4d/relu_3x3_reduce
I1126 19:49:34.070981 19735 net.cpp:157] Top shape: 64 144 14 14 (1806336)
I1126 19:49:34.070983 19735 net.cpp:165] Memory required for data: 2991362820
I1126 19:49:34.070987 19735 layer_factory.hpp:76] Creating layer inception_4d/3x3
I1126 19:49:34.070994 19735 net.cpp:106] Creating Layer inception_4d/3x3
I1126 19:49:34.070998 19735 net.cpp:454] inception_4d/3x3 <- inception_4d/3x3_reduce
I1126 19:49:34.071004 19735 net.cpp:411] inception_4d/3x3 -> inception_4d/3x3
I1126 19:49:34.074604 19735 net.cpp:150] Setting up inception_4d/3x3
I1126 19:49:34.074616 19735 net.cpp:157] Top shape: 64 288 14 14 (3612672)
I1126 19:49:34.074620 19735 net.cpp:165] Memory required for data: 3005813508
I1126 19:49:34.074625 19735 layer_factory.hpp:76] Creating layer inception_4d/relu_3x3
I1126 19:49:34.074630 19735 net.cpp:106] Creating Layer inception_4d/relu_3x3
I1126 19:49:34.074635 19735 net.cpp:454] inception_4d/relu_3x3 <- inception_4d/3x3
I1126 19:49:34.074638 19735 net.cpp:397] inception_4d/relu_3x3 -> inception_4d/3x3 (in-place)
I1126 19:49:34.074934 19735 net.cpp:150] Setting up inception_4d/relu_3x3
I1126 19:49:34.074946 19735 net.cpp:157] Top shape: 64 288 14 14 (3612672)
I1126 19:49:34.074950 19735 net.cpp:165] Memory required for data: 3020264196
I1126 19:49:34.074954 19735 layer_factory.hpp:76] Creating layer inception_4d/5x5_reduce
I1126 19:49:34.074962 19735 net.cpp:106] Creating Layer inception_4d/5x5_reduce
I1126 19:49:34.074969 19735 net.cpp:454] inception_4d/5x5_reduce <- inception_4c/output_inception_4c/output_0_split_2
I1126 19:49:34.074975 19735 net.cpp:411] inception_4d/5x5_reduce -> inception_4d/5x5_reduce
I1126 19:49:34.075930 19735 net.cpp:150] Setting up inception_4d/5x5_reduce
I1126 19:49:34.075942 19735 net.cpp:157] Top shape: 64 32 14 14 (401408)
I1126 19:49:34.075947 19735 net.cpp:165] Memory required for data: 3021869828
I1126 19:49:34.075953 19735 layer_factory.hpp:76] Creating layer inception_4d/relu_5x5_reduce
I1126 19:49:34.075958 19735 net.cpp:106] Creating Layer inception_4d/relu_5x5_reduce
I1126 19:49:34.075961 19735 net.cpp:454] inception_4d/relu_5x5_reduce <- inception_4d/5x5_reduce
I1126 19:49:34.075968 19735 net.cpp:397] inception_4d/relu_5x5_reduce -> inception_4d/5x5_reduce (in-place)
I1126 19:49:34.076256 19735 net.cpp:150] Setting up inception_4d/relu_5x5_reduce
I1126 19:49:34.076268 19735 net.cpp:157] Top shape: 64 32 14 14 (401408)
I1126 19:49:34.076272 19735 net.cpp:165] Memory required for data: 3023475460
I1126 19:49:34.076274 19735 layer_factory.hpp:76] Creating layer inception_4d/5x5
I1126 19:49:34.076283 19735 net.cpp:106] Creating Layer inception_4d/5x5
I1126 19:49:34.076288 19735 net.cpp:454] inception_4d/5x5 <- inception_4d/5x5_reduce
I1126 19:49:34.076295 19735 net.cpp:411] inception_4d/5x5 -> inception_4d/5x5
I1126 19:49:34.077564 19735 net.cpp:150] Setting up inception_4d/5x5
I1126 19:49:34.077577 19735 net.cpp:157] Top shape: 64 64 14 14 (802816)
I1126 19:49:34.077580 19735 net.cpp:165] Memory required for data: 3026686724
I1126 19:49:34.077586 19735 layer_factory.hpp:76] Creating layer inception_4d/relu_5x5
I1126 19:49:34.077592 19735 net.cpp:106] Creating Layer inception_4d/relu_5x5
I1126 19:49:34.077596 19735 net.cpp:454] inception_4d/relu_5x5 <- inception_4d/5x5
I1126 19:49:34.077600 19735 net.cpp:397] inception_4d/relu_5x5 -> inception_4d/5x5 (in-place)
I1126 19:49:34.077761 19735 net.cpp:150] Setting up inception_4d/relu_5x5
I1126 19:49:34.077771 19735 net.cpp:157] Top shape: 64 64 14 14 (802816)
I1126 19:49:34.077775 19735 net.cpp:165] Memory required for data: 3029897988
I1126 19:49:34.077777 19735 layer_factory.hpp:76] Creating layer inception_4d/pool
I1126 19:49:34.077783 19735 net.cpp:106] Creating Layer inception_4d/pool
I1126 19:49:34.077787 19735 net.cpp:454] inception_4d/pool <- inception_4c/output_inception_4c/output_0_split_3
I1126 19:49:34.077793 19735 net.cpp:411] inception_4d/pool -> inception_4d/pool
I1126 19:49:34.078119 19735 net.cpp:150] Setting up inception_4d/pool
I1126 19:49:34.078131 19735 net.cpp:157] Top shape: 64 512 14 14 (6422528)
I1126 19:49:34.078135 19735 net.cpp:165] Memory required for data: 3055588100
I1126 19:49:34.078137 19735 layer_factory.hpp:76] Creating layer inception_4d/pool_proj
I1126 19:49:34.078145 19735 net.cpp:106] Creating Layer inception_4d/pool_proj
I1126 19:49:34.078150 19735 net.cpp:454] inception_4d/pool_proj <- inception_4d/pool
I1126 19:49:34.078155 19735 net.cpp:411] inception_4d/pool_proj -> inception_4d/pool_proj
I1126 19:49:34.079352 19735 net.cpp:150] Setting up inception_4d/pool_proj
I1126 19:49:34.079365 19735 net.cpp:157] Top shape: 64 64 14 14 (802816)
I1126 19:49:34.079368 19735 net.cpp:165] Memory required for data: 3058799364
I1126 19:49:34.079375 19735 layer_factory.hpp:76] Creating layer inception_4d/relu_pool_proj
I1126 19:49:34.079380 19735 net.cpp:106] Creating Layer inception_4d/relu_pool_proj
I1126 19:49:34.079383 19735 net.cpp:454] inception_4d/relu_pool_proj <- inception_4d/pool_proj
I1126 19:49:34.079390 19735 net.cpp:397] inception_4d/relu_pool_proj -> inception_4d/pool_proj (in-place)
I1126 19:49:34.079560 19735 net.cpp:150] Setting up inception_4d/relu_pool_proj
I1126 19:49:34.079571 19735 net.cpp:157] Top shape: 64 64 14 14 (802816)
I1126 19:49:34.079573 19735 net.cpp:165] Memory required for data: 3062010628
I1126 19:49:34.079576 19735 layer_factory.hpp:76] Creating layer inception_4d/output
I1126 19:49:34.079581 19735 net.cpp:106] Creating Layer inception_4d/output
I1126 19:49:34.079586 19735 net.cpp:454] inception_4d/output <- inception_4d/1x1
I1126 19:49:34.079589 19735 net.cpp:454] inception_4d/output <- inception_4d/3x3
I1126 19:49:34.079593 19735 net.cpp:454] inception_4d/output <- inception_4d/5x5
I1126 19:49:34.079596 19735 net.cpp:454] inception_4d/output <- inception_4d/pool_proj
I1126 19:49:34.079601 19735 net.cpp:411] inception_4d/output -> inception_4d/output
I1126 19:49:34.079632 19735 net.cpp:150] Setting up inception_4d/output
I1126 19:49:34.079639 19735 net.cpp:157] Top shape: 64 528 14 14 (6623232)
I1126 19:49:34.079641 19735 net.cpp:165] Memory required for data: 3088503556
I1126 19:49:34.079644 19735 layer_factory.hpp:76] Creating layer inception_4d/output_inception_4d/output_0_split
I1126 19:49:34.079650 19735 net.cpp:106] Creating Layer inception_4d/output_inception_4d/output_0_split
I1126 19:49:34.079653 19735 net.cpp:454] inception_4d/output_inception_4d/output_0_split <- inception_4d/output
I1126 19:49:34.079658 19735 net.cpp:411] inception_4d/output_inception_4d/output_0_split -> inception_4d/output_inception_4d/output_0_split_0
I1126 19:49:34.079664 19735 net.cpp:411] inception_4d/output_inception_4d/output_0_split -> inception_4d/output_inception_4d/output_0_split_1
I1126 19:49:34.079669 19735 net.cpp:411] inception_4d/output_inception_4d/output_0_split -> inception_4d/output_inception_4d/output_0_split_2
I1126 19:49:34.079674 19735 net.cpp:411] inception_4d/output_inception_4d/output_0_split -> inception_4d/output_inception_4d/output_0_split_3
I1126 19:49:34.079681 19735 net.cpp:411] inception_4d/output_inception_4d/output_0_split -> inception_4d/output_inception_4d/output_0_split_4
I1126 19:49:34.079757 19735 net.cpp:150] Setting up inception_4d/output_inception_4d/output_0_split
I1126 19:49:34.079764 19735 net.cpp:157] Top shape: 64 528 14 14 (6623232)
I1126 19:49:34.079768 19735 net.cpp:157] Top shape: 64 528 14 14 (6623232)
I1126 19:49:34.079771 19735 net.cpp:157] Top shape: 64 528 14 14 (6623232)
I1126 19:49:34.079774 19735 net.cpp:157] Top shape: 64 528 14 14 (6623232)
I1126 19:49:34.079778 19735 net.cpp:157] Top shape: 64 528 14 14 (6623232)
I1126 19:49:34.079780 19735 net.cpp:165] Memory required for data: 3220968196
I1126 19:49:34.079783 19735 layer_factory.hpp:76] Creating layer loss2/ave_pool
I1126 19:49:34.079789 19735 net.cpp:106] Creating Layer loss2/ave_pool
I1126 19:49:34.079792 19735 net.cpp:454] loss2/ave_pool <- inception_4d/output_inception_4d/output_0_split_0
I1126 19:49:34.079798 19735 net.cpp:411] loss2/ave_pool -> loss2/ave_pool
I1126 19:49:34.080108 19735 net.cpp:150] Setting up loss2/ave_pool
I1126 19:49:34.080121 19735 net.cpp:157] Top shape: 64 528 4 4 (540672)
I1126 19:49:34.080123 19735 net.cpp:165] Memory required for data: 3223130884
I1126 19:49:34.080127 19735 layer_factory.hpp:76] Creating layer loss2/conv
I1126 19:49:34.080134 19735 net.cpp:106] Creating Layer loss2/conv
I1126 19:49:34.080139 19735 net.cpp:454] loss2/conv <- loss2/ave_pool
I1126 19:49:34.080145 19735 net.cpp:411] loss2/conv -> loss2/conv
I1126 19:49:34.081763 19735 net.cpp:150] Setting up loss2/conv
I1126 19:49:34.081775 19735 net.cpp:157] Top shape: 64 128 4 4 (131072)
I1126 19:49:34.081779 19735 net.cpp:165] Memory required for data: 3223655172
I1126 19:49:34.081784 19735 layer_factory.hpp:76] Creating layer loss2/relu_conv
I1126 19:49:34.081790 19735 net.cpp:106] Creating Layer loss2/relu_conv
I1126 19:49:34.081794 19735 net.cpp:454] loss2/relu_conv <- loss2/conv
I1126 19:49:34.081799 19735 net.cpp:397] loss2/relu_conv -> loss2/conv (in-place)
I1126 19:49:34.082202 19735 net.cpp:150] Setting up loss2/relu_conv
I1126 19:49:34.082216 19735 net.cpp:157] Top shape: 64 128 4 4 (131072)
I1126 19:49:34.082219 19735 net.cpp:165] Memory required for data: 3224179460
I1126 19:49:34.082222 19735 layer_factory.hpp:76] Creating layer loss2/fc
I1126 19:49:34.082229 19735 net.cpp:106] Creating Layer loss2/fc
I1126 19:49:34.082234 19735 net.cpp:454] loss2/fc <- loss2/conv
I1126 19:49:34.082240 19735 net.cpp:411] loss2/fc -> loss2/fc
I1126 19:49:34.096268 19735 net.cpp:150] Setting up loss2/fc
I1126 19:49:34.096282 19735 net.cpp:157] Top shape: 64 1024 (65536)
I1126 19:49:34.096285 19735 net.cpp:165] Memory required for data: 3224441604
I1126 19:49:34.096292 19735 layer_factory.hpp:76] Creating layer loss2/relu_fc
I1126 19:49:34.096298 19735 net.cpp:106] Creating Layer loss2/relu_fc
I1126 19:49:34.096302 19735 net.cpp:454] loss2/relu_fc <- loss2/fc
I1126 19:49:34.096307 19735 net.cpp:397] loss2/relu_fc -> loss2/fc (in-place)
I1126 19:49:34.096487 19735 net.cpp:150] Setting up loss2/relu_fc
I1126 19:49:34.096496 19735 net.cpp:157] Top shape: 64 1024 (65536)
I1126 19:49:34.096499 19735 net.cpp:165] Memory required for data: 3224703748
I1126 19:49:34.096503 19735 layer_factory.hpp:76] Creating layer loss2/drop_fc
I1126 19:49:34.096510 19735 net.cpp:106] Creating Layer loss2/drop_fc
I1126 19:49:34.096514 19735 net.cpp:454] loss2/drop_fc <- loss2/fc
I1126 19:49:34.096518 19735 net.cpp:397] loss2/drop_fc -> loss2/fc (in-place)
I1126 19:49:34.096549 19735 net.cpp:150] Setting up loss2/drop_fc
I1126 19:49:34.096556 19735 net.cpp:157] Top shape: 64 1024 (65536)
I1126 19:49:34.096560 19735 net.cpp:165] Memory required for data: 3224965892
I1126 19:49:34.096561 19735 layer_factory.hpp:76] Creating layer loss2/classifier-attribute
I1126 19:49:34.096570 19735 net.cpp:106] Creating Layer loss2/classifier-attribute
I1126 19:49:34.096572 19735 net.cpp:454] loss2/classifier-attribute <- loss2/fc
I1126 19:49:34.096577 19735 net.cpp:411] loss2/classifier-attribute -> loss2/classifier-attribute
I1126 19:49:34.169379 19735 net.cpp:150] Setting up loss2/classifier-attribute
I1126 19:49:34.169400 19735 net.cpp:157] Top shape: 64 9999 (639936)
I1126 19:49:34.169404 19735 net.cpp:165] Memory required for data: 3227525636
I1126 19:49:34.169411 19735 layer_factory.hpp:76] Creating layer loss2/loss
I1126 19:49:34.169421 19735 net.cpp:106] Creating Layer loss2/loss
I1126 19:49:34.169428 19735 net.cpp:454] loss2/loss <- loss2/classifier-attribute
I1126 19:49:34.169435 19735 net.cpp:454] loss2/loss <- label_data_1_split_1
I1126 19:49:34.169440 19735 net.cpp:411] loss2/loss -> loss2/loss1
I1126 19:49:34.169450 19735 layer_factory.hpp:76] Creating layer loss2/loss
I1126 19:49:34.171042 19735 net.cpp:150] Setting up loss2/loss
I1126 19:49:34.171056 19735 net.cpp:157] Top shape: (1)
I1126 19:49:34.171058 19735 net.cpp:160]     with loss weight 0.3
I1126 19:49:34.171068 19735 net.cpp:165] Memory required for data: 3227525640
I1126 19:49:34.171072 19735 layer_factory.hpp:76] Creating layer inception_4e/1x1
I1126 19:49:34.171082 19735 net.cpp:106] Creating Layer inception_4e/1x1
I1126 19:49:34.171085 19735 net.cpp:454] inception_4e/1x1 <- inception_4d/output_inception_4d/output_0_split_1
I1126 19:49:34.171092 19735 net.cpp:411] inception_4e/1x1 -> inception_4e/1x1
I1126 19:49:34.172922 19735 net.cpp:150] Setting up inception_4e/1x1
I1126 19:49:34.172935 19735 net.cpp:157] Top shape: 64 256 14 14 (3211264)
I1126 19:49:34.172938 19735 net.cpp:165] Memory required for data: 3240370696
I1126 19:49:34.172945 19735 layer_factory.hpp:76] Creating layer inception_4e/relu_1x1
I1126 19:49:34.172950 19735 net.cpp:106] Creating Layer inception_4e/relu_1x1
I1126 19:49:34.172955 19735 net.cpp:454] inception_4e/relu_1x1 <- inception_4e/1x1
I1126 19:49:34.172960 19735 net.cpp:397] inception_4e/relu_1x1 -> inception_4e/1x1 (in-place)
I1126 19:49:34.173123 19735 net.cpp:150] Setting up inception_4e/relu_1x1
I1126 19:49:34.173133 19735 net.cpp:157] Top shape: 64 256 14 14 (3211264)
I1126 19:49:34.173135 19735 net.cpp:165] Memory required for data: 3253215752
I1126 19:49:34.173138 19735 layer_factory.hpp:76] Creating layer inception_4e/3x3_reduce
I1126 19:49:34.173147 19735 net.cpp:106] Creating Layer inception_4e/3x3_reduce
I1126 19:49:34.173151 19735 net.cpp:454] inception_4e/3x3_reduce <- inception_4d/output_inception_4d/output_0_split_2
I1126 19:49:34.173157 19735 net.cpp:411] inception_4e/3x3_reduce -> inception_4e/3x3_reduce
I1126 19:49:34.175055 19735 net.cpp:150] Setting up inception_4e/3x3_reduce
I1126 19:49:34.175070 19735 net.cpp:157] Top shape: 64 160 14 14 (2007040)
I1126 19:49:34.175072 19735 net.cpp:165] Memory required for data: 3261243912
I1126 19:49:34.175079 19735 layer_factory.hpp:76] Creating layer inception_4e/relu_3x3_reduce
I1126 19:49:34.175086 19735 net.cpp:106] Creating Layer inception_4e/relu_3x3_reduce
I1126 19:49:34.175091 19735 net.cpp:454] inception_4e/relu_3x3_reduce <- inception_4e/3x3_reduce
I1126 19:49:34.175096 19735 net.cpp:397] inception_4e/relu_3x3_reduce -> inception_4e/3x3_reduce (in-place)
I1126 19:49:34.175392 19735 net.cpp:150] Setting up inception_4e/relu_3x3_reduce
I1126 19:49:34.175403 19735 net.cpp:157] Top shape: 64 160 14 14 (2007040)
I1126 19:49:34.175407 19735 net.cpp:165] Memory required for data: 3269272072
I1126 19:49:34.175410 19735 layer_factory.hpp:76] Creating layer inception_4e/3x3
I1126 19:49:34.175420 19735 net.cpp:106] Creating Layer inception_4e/3x3
I1126 19:49:34.175426 19735 net.cpp:454] inception_4e/3x3 <- inception_4e/3x3_reduce
I1126 19:49:34.175431 19735 net.cpp:411] inception_4e/3x3 -> inception_4e/3x3
I1126 19:49:34.179735 19735 net.cpp:150] Setting up inception_4e/3x3
I1126 19:49:34.179751 19735 net.cpp:157] Top shape: 64 320 14 14 (4014080)
I1126 19:49:34.179755 19735 net.cpp:165] Memory required for data: 3285328392
I1126 19:49:34.179764 19735 layer_factory.hpp:76] Creating layer inception_4e/relu_3x3
I1126 19:49:34.179771 19735 net.cpp:106] Creating Layer inception_4e/relu_3x3
I1126 19:49:34.179776 19735 net.cpp:454] inception_4e/relu_3x3 <- inception_4e/3x3
I1126 19:49:34.179782 19735 net.cpp:397] inception_4e/relu_3x3 -> inception_4e/3x3 (in-place)
I1126 19:49:34.180138 19735 net.cpp:150] Setting up inception_4e/relu_3x3
I1126 19:49:34.180152 19735 net.cpp:157] Top shape: 64 320 14 14 (4014080)
I1126 19:49:34.180156 19735 net.cpp:165] Memory required for data: 3301384712
I1126 19:49:34.180160 19735 layer_factory.hpp:76] Creating layer inception_4e/5x5_reduce
I1126 19:49:34.180171 19735 net.cpp:106] Creating Layer inception_4e/5x5_reduce
I1126 19:49:34.180176 19735 net.cpp:454] inception_4e/5x5_reduce <- inception_4d/output_inception_4d/output_0_split_3
I1126 19:49:34.180186 19735 net.cpp:411] inception_4e/5x5_reduce -> inception_4e/5x5_reduce
I1126 19:49:34.181617 19735 net.cpp:150] Setting up inception_4e/5x5_reduce
I1126 19:49:34.181632 19735 net.cpp:157] Top shape: 64 32 14 14 (401408)
I1126 19:49:34.181637 19735 net.cpp:165] Memory required for data: 3302990344
I1126 19:49:34.181643 19735 layer_factory.hpp:76] Creating layer inception_4e/relu_5x5_reduce
I1126 19:49:34.181651 19735 net.cpp:106] Creating Layer inception_4e/relu_5x5_reduce
I1126 19:49:34.181656 19735 net.cpp:454] inception_4e/relu_5x5_reduce <- inception_4e/5x5_reduce
I1126 19:49:34.181663 19735 net.cpp:397] inception_4e/relu_5x5_reduce -> inception_4e/5x5_reduce (in-place)
I1126 19:49:34.181874 19735 net.cpp:150] Setting up inception_4e/relu_5x5_reduce
I1126 19:49:34.181885 19735 net.cpp:157] Top shape: 64 32 14 14 (401408)
I1126 19:49:34.181888 19735 net.cpp:165] Memory required for data: 3304595976
I1126 19:49:34.181892 19735 layer_factory.hpp:76] Creating layer inception_4e/5x5
I1126 19:49:34.181918 19735 net.cpp:106] Creating Layer inception_4e/5x5
I1126 19:49:34.181924 19735 net.cpp:454] inception_4e/5x5 <- inception_4e/5x5_reduce
I1126 19:49:34.181936 19735 net.cpp:411] inception_4e/5x5 -> inception_4e/5x5
I1126 19:49:34.183977 19735 net.cpp:150] Setting up inception_4e/5x5
I1126 19:49:34.183992 19735 net.cpp:157] Top shape: 64 128 14 14 (1605632)
I1126 19:49:34.183997 19735 net.cpp:165] Memory required for data: 3311018504
I1126 19:49:34.184005 19735 layer_factory.hpp:76] Creating layer inception_4e/relu_5x5
I1126 19:49:34.184011 19735 net.cpp:106] Creating Layer inception_4e/relu_5x5
I1126 19:49:34.184016 19735 net.cpp:454] inception_4e/relu_5x5 <- inception_4e/5x5
I1126 19:49:34.184022 19735 net.cpp:397] inception_4e/relu_5x5 -> inception_4e/5x5 (in-place)
I1126 19:49:34.184381 19735 net.cpp:150] Setting up inception_4e/relu_5x5
I1126 19:49:34.184396 19735 net.cpp:157] Top shape: 64 128 14 14 (1605632)
I1126 19:49:34.184401 19735 net.cpp:165] Memory required for data: 3317441032
I1126 19:49:34.184404 19735 layer_factory.hpp:76] Creating layer inception_4e/pool
I1126 19:49:34.184412 19735 net.cpp:106] Creating Layer inception_4e/pool
I1126 19:49:34.184417 19735 net.cpp:454] inception_4e/pool <- inception_4d/output_inception_4d/output_0_split_4
I1126 19:49:34.184424 19735 net.cpp:411] inception_4e/pool -> inception_4e/pool
I1126 19:49:34.184684 19735 net.cpp:150] Setting up inception_4e/pool
I1126 19:49:34.184696 19735 net.cpp:157] Top shape: 64 528 14 14 (6623232)
I1126 19:49:34.184700 19735 net.cpp:165] Memory required for data: 3343933960
I1126 19:49:34.184705 19735 layer_factory.hpp:76] Creating layer inception_4e/pool_proj
I1126 19:49:34.184712 19735 net.cpp:106] Creating Layer inception_4e/pool_proj
I1126 19:49:34.184718 19735 net.cpp:454] inception_4e/pool_proj <- inception_4e/pool
I1126 19:49:34.184726 19735 net.cpp:411] inception_4e/pool_proj -> inception_4e/pool_proj
I1126 19:49:34.186488 19735 net.cpp:150] Setting up inception_4e/pool_proj
I1126 19:49:34.186503 19735 net.cpp:157] Top shape: 64 128 14 14 (1605632)
I1126 19:49:34.186507 19735 net.cpp:165] Memory required for data: 3350356488
I1126 19:49:34.186514 19735 layer_factory.hpp:76] Creating layer inception_4e/relu_pool_proj
I1126 19:49:34.186522 19735 net.cpp:106] Creating Layer inception_4e/relu_pool_proj
I1126 19:49:34.186527 19735 net.cpp:454] inception_4e/relu_pool_proj <- inception_4e/pool_proj
I1126 19:49:34.186533 19735 net.cpp:397] inception_4e/relu_pool_proj -> inception_4e/pool_proj (in-place)
I1126 19:49:34.186914 19735 net.cpp:150] Setting up inception_4e/relu_pool_proj
I1126 19:49:34.186928 19735 net.cpp:157] Top shape: 64 128 14 14 (1605632)
I1126 19:49:34.186933 19735 net.cpp:165] Memory required for data: 3356779016
I1126 19:49:34.186936 19735 layer_factory.hpp:76] Creating layer inception_4e/output
I1126 19:49:34.186946 19735 net.cpp:106] Creating Layer inception_4e/output
I1126 19:49:34.186952 19735 net.cpp:454] inception_4e/output <- inception_4e/1x1
I1126 19:49:34.186957 19735 net.cpp:454] inception_4e/output <- inception_4e/3x3
I1126 19:49:34.186965 19735 net.cpp:454] inception_4e/output <- inception_4e/5x5
I1126 19:49:34.186969 19735 net.cpp:454] inception_4e/output <- inception_4e/pool_proj
I1126 19:49:34.186975 19735 net.cpp:411] inception_4e/output -> inception_4e/output
I1126 19:49:34.187018 19735 net.cpp:150] Setting up inception_4e/output
I1126 19:49:34.187026 19735 net.cpp:157] Top shape: 64 832 14 14 (10436608)
I1126 19:49:34.187029 19735 net.cpp:165] Memory required for data: 3398525448
I1126 19:49:34.187033 19735 layer_factory.hpp:76] Creating layer pool4/3x3_s2
I1126 19:49:34.187041 19735 net.cpp:106] Creating Layer pool4/3x3_s2
I1126 19:49:34.187044 19735 net.cpp:454] pool4/3x3_s2 <- inception_4e/output
I1126 19:49:34.187052 19735 net.cpp:411] pool4/3x3_s2 -> pool4/3x3_s2
I1126 19:49:34.187283 19735 net.cpp:150] Setting up pool4/3x3_s2
I1126 19:49:34.187294 19735 net.cpp:157] Top shape: 64 832 7 7 (2609152)
I1126 19:49:34.187296 19735 net.cpp:165] Memory required for data: 3408962056
I1126 19:49:34.187299 19735 layer_factory.hpp:76] Creating layer pool4/3x3_s2_pool4/3x3_s2_0_split
I1126 19:49:34.187305 19735 net.cpp:106] Creating Layer pool4/3x3_s2_pool4/3x3_s2_0_split
I1126 19:49:34.187309 19735 net.cpp:454] pool4/3x3_s2_pool4/3x3_s2_0_split <- pool4/3x3_s2
I1126 19:49:34.187314 19735 net.cpp:411] pool4/3x3_s2_pool4/3x3_s2_0_split -> pool4/3x3_s2_pool4/3x3_s2_0_split_0
I1126 19:49:34.187319 19735 net.cpp:411] pool4/3x3_s2_pool4/3x3_s2_0_split -> pool4/3x3_s2_pool4/3x3_s2_0_split_1
I1126 19:49:34.187325 19735 net.cpp:411] pool4/3x3_s2_pool4/3x3_s2_0_split -> pool4/3x3_s2_pool4/3x3_s2_0_split_2
I1126 19:49:34.187330 19735 net.cpp:411] pool4/3x3_s2_pool4/3x3_s2_0_split -> pool4/3x3_s2_pool4/3x3_s2_0_split_3
I1126 19:49:34.187396 19735 net.cpp:150] Setting up pool4/3x3_s2_pool4/3x3_s2_0_split
I1126 19:49:34.187402 19735 net.cpp:157] Top shape: 64 832 7 7 (2609152)
I1126 19:49:34.187404 19735 net.cpp:157] Top shape: 64 832 7 7 (2609152)
I1126 19:49:34.187408 19735 net.cpp:157] Top shape: 64 832 7 7 (2609152)
I1126 19:49:34.187412 19735 net.cpp:157] Top shape: 64 832 7 7 (2609152)
I1126 19:49:34.187413 19735 net.cpp:165] Memory required for data: 3450708488
I1126 19:49:34.187417 19735 layer_factory.hpp:76] Creating layer inception_5a/1x1
I1126 19:49:34.187423 19735 net.cpp:106] Creating Layer inception_5a/1x1
I1126 19:49:34.187427 19735 net.cpp:454] inception_5a/1x1 <- pool4/3x3_s2_pool4/3x3_s2_0_split_0
I1126 19:49:34.187433 19735 net.cpp:411] inception_5a/1x1 -> inception_5a/1x1
I1126 19:49:34.190037 19735 net.cpp:150] Setting up inception_5a/1x1
I1126 19:49:34.190050 19735 net.cpp:157] Top shape: 64 256 7 7 (802816)
I1126 19:49:34.190053 19735 net.cpp:165] Memory required for data: 3453919752
I1126 19:49:34.190059 19735 layer_factory.hpp:76] Creating layer inception_5a/relu_1x1
I1126 19:49:34.190065 19735 net.cpp:106] Creating Layer inception_5a/relu_1x1
I1126 19:49:34.190068 19735 net.cpp:454] inception_5a/relu_1x1 <- inception_5a/1x1
I1126 19:49:34.190073 19735 net.cpp:397] inception_5a/relu_1x1 -> inception_5a/1x1 (in-place)
I1126 19:49:34.190358 19735 net.cpp:150] Setting up inception_5a/relu_1x1
I1126 19:49:34.190371 19735 net.cpp:157] Top shape: 64 256 7 7 (802816)
I1126 19:49:34.190373 19735 net.cpp:165] Memory required for data: 3457131016
I1126 19:49:34.190377 19735 layer_factory.hpp:76] Creating layer inception_5a/3x3_reduce
I1126 19:49:34.190387 19735 net.cpp:106] Creating Layer inception_5a/3x3_reduce
I1126 19:49:34.190392 19735 net.cpp:454] inception_5a/3x3_reduce <- pool4/3x3_s2_pool4/3x3_s2_0_split_1
I1126 19:49:34.190399 19735 net.cpp:411] inception_5a/3x3_reduce -> inception_5a/3x3_reduce
I1126 19:49:34.192556 19735 net.cpp:150] Setting up inception_5a/3x3_reduce
I1126 19:49:34.192569 19735 net.cpp:157] Top shape: 64 160 7 7 (501760)
I1126 19:49:34.192574 19735 net.cpp:165] Memory required for data: 3459138056
I1126 19:49:34.192579 19735 layer_factory.hpp:76] Creating layer inception_5a/relu_3x3_reduce
I1126 19:49:34.192584 19735 net.cpp:106] Creating Layer inception_5a/relu_3x3_reduce
I1126 19:49:34.192587 19735 net.cpp:454] inception_5a/relu_3x3_reduce <- inception_5a/3x3_reduce
I1126 19:49:34.192592 19735 net.cpp:397] inception_5a/relu_3x3_reduce -> inception_5a/3x3_reduce (in-place)
I1126 19:49:34.192895 19735 net.cpp:150] Setting up inception_5a/relu_3x3_reduce
I1126 19:49:34.192908 19735 net.cpp:157] Top shape: 64 160 7 7 (501760)
I1126 19:49:34.192910 19735 net.cpp:165] Memory required for data: 3461145096
I1126 19:49:34.192914 19735 layer_factory.hpp:76] Creating layer inception_5a/3x3
I1126 19:49:34.192921 19735 net.cpp:106] Creating Layer inception_5a/3x3
I1126 19:49:34.192925 19735 net.cpp:454] inception_5a/3x3 <- inception_5a/3x3_reduce
I1126 19:49:34.192931 19735 net.cpp:411] inception_5a/3x3 -> inception_5a/3x3
I1126 19:49:34.197168 19735 net.cpp:150] Setting up inception_5a/3x3
I1126 19:49:34.197181 19735 net.cpp:157] Top shape: 64 320 7 7 (1003520)
I1126 19:49:34.197185 19735 net.cpp:165] Memory required for data: 3465159176
I1126 19:49:34.197190 19735 layer_factory.hpp:76] Creating layer inception_5a/relu_3x3
I1126 19:49:34.197196 19735 net.cpp:106] Creating Layer inception_5a/relu_3x3
I1126 19:49:34.197199 19735 net.cpp:454] inception_5a/relu_3x3 <- inception_5a/3x3
I1126 19:49:34.197204 19735 net.cpp:397] inception_5a/relu_3x3 -> inception_5a/3x3 (in-place)
I1126 19:49:34.197368 19735 net.cpp:150] Setting up inception_5a/relu_3x3
I1126 19:49:34.197378 19735 net.cpp:157] Top shape: 64 320 7 7 (1003520)
I1126 19:49:34.197381 19735 net.cpp:165] Memory required for data: 3469173256
I1126 19:49:34.197383 19735 layer_factory.hpp:76] Creating layer inception_5a/5x5_reduce
I1126 19:49:34.197392 19735 net.cpp:106] Creating Layer inception_5a/5x5_reduce
I1126 19:49:34.197396 19735 net.cpp:454] inception_5a/5x5_reduce <- pool4/3x3_s2_pool4/3x3_s2_0_split_2
I1126 19:49:34.197402 19735 net.cpp:411] inception_5a/5x5_reduce -> inception_5a/5x5_reduce
I1126 19:49:34.198590 19735 net.cpp:150] Setting up inception_5a/5x5_reduce
I1126 19:49:34.198602 19735 net.cpp:157] Top shape: 64 32 7 7 (100352)
I1126 19:49:34.198606 19735 net.cpp:165] Memory required for data: 3469574664
I1126 19:49:34.198611 19735 layer_factory.hpp:76] Creating layer inception_5a/relu_5x5_reduce
I1126 19:49:34.198621 19735 net.cpp:106] Creating Layer inception_5a/relu_5x5_reduce
I1126 19:49:34.198627 19735 net.cpp:454] inception_5a/relu_5x5_reduce <- inception_5a/5x5_reduce
I1126 19:49:34.198632 19735 net.cpp:397] inception_5a/relu_5x5_reduce -> inception_5a/5x5_reduce (in-place)
I1126 19:49:34.198807 19735 net.cpp:150] Setting up inception_5a/relu_5x5_reduce
I1126 19:49:34.198817 19735 net.cpp:157] Top shape: 64 32 7 7 (100352)
I1126 19:49:34.198819 19735 net.cpp:165] Memory required for data: 3469976072
I1126 19:49:34.198823 19735 layer_factory.hpp:76] Creating layer inception_5a/5x5
I1126 19:49:34.198832 19735 net.cpp:106] Creating Layer inception_5a/5x5
I1126 19:49:34.198835 19735 net.cpp:454] inception_5a/5x5 <- inception_5a/5x5_reduce
I1126 19:49:34.198842 19735 net.cpp:411] inception_5a/5x5 -> inception_5a/5x5
I1126 19:49:34.200475 19735 net.cpp:150] Setting up inception_5a/5x5
I1126 19:49:34.200489 19735 net.cpp:157] Top shape: 64 128 7 7 (401408)
I1126 19:49:34.200491 19735 net.cpp:165] Memory required for data: 3471581704
I1126 19:49:34.200497 19735 layer_factory.hpp:76] Creating layer inception_5a/relu_5x5
I1126 19:49:34.200505 19735 net.cpp:106] Creating Layer inception_5a/relu_5x5
I1126 19:49:34.200507 19735 net.cpp:454] inception_5a/relu_5x5 <- inception_5a/5x5
I1126 19:49:34.200512 19735 net.cpp:397] inception_5a/relu_5x5 -> inception_5a/5x5 (in-place)
I1126 19:49:34.200808 19735 net.cpp:150] Setting up inception_5a/relu_5x5
I1126 19:49:34.200819 19735 net.cpp:157] Top shape: 64 128 7 7 (401408)
I1126 19:49:34.200822 19735 net.cpp:165] Memory required for data: 3473187336
I1126 19:49:34.200825 19735 layer_factory.hpp:76] Creating layer inception_5a/pool
I1126 19:49:34.200834 19735 net.cpp:106] Creating Layer inception_5a/pool
I1126 19:49:34.200839 19735 net.cpp:454] inception_5a/pool <- pool4/3x3_s2_pool4/3x3_s2_0_split_3
I1126 19:49:34.200845 19735 net.cpp:411] inception_5a/pool -> inception_5a/pool
I1126 19:49:34.201045 19735 net.cpp:150] Setting up inception_5a/pool
I1126 19:49:34.201055 19735 net.cpp:157] Top shape: 64 832 7 7 (2609152)
I1126 19:49:34.201057 19735 net.cpp:165] Memory required for data: 3483623944
I1126 19:49:34.201061 19735 layer_factory.hpp:76] Creating layer inception_5a/pool_proj
I1126 19:49:34.201068 19735 net.cpp:106] Creating Layer inception_5a/pool_proj
I1126 19:49:34.201072 19735 net.cpp:454] inception_5a/pool_proj <- inception_5a/pool
I1126 19:49:34.201078 19735 net.cpp:411] inception_5a/pool_proj -> inception_5a/pool_proj
I1126 19:49:34.203090 19735 net.cpp:150] Setting up inception_5a/pool_proj
I1126 19:49:34.203104 19735 net.cpp:157] Top shape: 64 128 7 7 (401408)
I1126 19:49:34.203107 19735 net.cpp:165] Memory required for data: 3485229576
I1126 19:49:34.203114 19735 layer_factory.hpp:76] Creating layer inception_5a/relu_pool_proj
I1126 19:49:34.203119 19735 net.cpp:106] Creating Layer inception_5a/relu_pool_proj
I1126 19:49:34.203122 19735 net.cpp:454] inception_5a/relu_pool_proj <- inception_5a/pool_proj
I1126 19:49:34.203126 19735 net.cpp:397] inception_5a/relu_pool_proj -> inception_5a/pool_proj (in-place)
I1126 19:49:34.203431 19735 net.cpp:150] Setting up inception_5a/relu_pool_proj
I1126 19:49:34.203444 19735 net.cpp:157] Top shape: 64 128 7 7 (401408)
I1126 19:49:34.203446 19735 net.cpp:165] Memory required for data: 3486835208
I1126 19:49:34.203450 19735 layer_factory.hpp:76] Creating layer inception_5a/output
I1126 19:49:34.203455 19735 net.cpp:106] Creating Layer inception_5a/output
I1126 19:49:34.203459 19735 net.cpp:454] inception_5a/output <- inception_5a/1x1
I1126 19:49:34.203464 19735 net.cpp:454] inception_5a/output <- inception_5a/3x3
I1126 19:49:34.203467 19735 net.cpp:454] inception_5a/output <- inception_5a/5x5
I1126 19:49:34.203471 19735 net.cpp:454] inception_5a/output <- inception_5a/pool_proj
I1126 19:49:34.203475 19735 net.cpp:411] inception_5a/output -> inception_5a/output
I1126 19:49:34.203510 19735 net.cpp:150] Setting up inception_5a/output
I1126 19:49:34.203518 19735 net.cpp:157] Top shape: 64 832 7 7 (2609152)
I1126 19:49:34.203521 19735 net.cpp:165] Memory required for data: 3497271816
I1126 19:49:34.203524 19735 layer_factory.hpp:76] Creating layer inception_5a/output_inception_5a/output_0_split
I1126 19:49:34.203529 19735 net.cpp:106] Creating Layer inception_5a/output_inception_5a/output_0_split
I1126 19:49:34.203532 19735 net.cpp:454] inception_5a/output_inception_5a/output_0_split <- inception_5a/output
I1126 19:49:34.203537 19735 net.cpp:411] inception_5a/output_inception_5a/output_0_split -> inception_5a/output_inception_5a/output_0_split_0
I1126 19:49:34.203542 19735 net.cpp:411] inception_5a/output_inception_5a/output_0_split -> inception_5a/output_inception_5a/output_0_split_1
I1126 19:49:34.203548 19735 net.cpp:411] inception_5a/output_inception_5a/output_0_split -> inception_5a/output_inception_5a/output_0_split_2
I1126 19:49:34.203553 19735 net.cpp:411] inception_5a/output_inception_5a/output_0_split -> inception_5a/output_inception_5a/output_0_split_3
I1126 19:49:34.203622 19735 net.cpp:150] Setting up inception_5a/output_inception_5a/output_0_split
I1126 19:49:34.203629 19735 net.cpp:157] Top shape: 64 832 7 7 (2609152)
I1126 19:49:34.203634 19735 net.cpp:157] Top shape: 64 832 7 7 (2609152)
I1126 19:49:34.203636 19735 net.cpp:157] Top shape: 64 832 7 7 (2609152)
I1126 19:49:34.203639 19735 net.cpp:157] Top shape: 64 832 7 7 (2609152)
I1126 19:49:34.203642 19735 net.cpp:165] Memory required for data: 3539018248
I1126 19:49:34.203644 19735 layer_factory.hpp:76] Creating layer inception_5b/1x1
I1126 19:49:34.203652 19735 net.cpp:106] Creating Layer inception_5b/1x1
I1126 19:49:34.203655 19735 net.cpp:454] inception_5b/1x1 <- inception_5a/output_inception_5a/output_0_split_0
I1126 19:49:34.203661 19735 net.cpp:411] inception_5b/1x1 -> inception_5b/1x1
I1126 19:49:34.206893 19735 net.cpp:150] Setting up inception_5b/1x1
I1126 19:49:34.206907 19735 net.cpp:157] Top shape: 64 384 7 7 (1204224)
I1126 19:49:34.206910 19735 net.cpp:165] Memory required for data: 3543835144
I1126 19:49:34.206917 19735 layer_factory.hpp:76] Creating layer inception_5b/relu_1x1
I1126 19:49:34.206921 19735 net.cpp:106] Creating Layer inception_5b/relu_1x1
I1126 19:49:34.206925 19735 net.cpp:454] inception_5b/relu_1x1 <- inception_5b/1x1
I1126 19:49:34.206930 19735 net.cpp:397] inception_5b/relu_1x1 -> inception_5b/1x1 (in-place)
I1126 19:49:34.207222 19735 net.cpp:150] Setting up inception_5b/relu_1x1
I1126 19:49:34.207234 19735 net.cpp:157] Top shape: 64 384 7 7 (1204224)
I1126 19:49:34.207238 19735 net.cpp:165] Memory required for data: 3548652040
I1126 19:49:34.207242 19735 layer_factory.hpp:76] Creating layer inception_5b/3x3_reduce
I1126 19:49:34.207249 19735 net.cpp:106] Creating Layer inception_5b/3x3_reduce
I1126 19:49:34.207252 19735 net.cpp:454] inception_5b/3x3_reduce <- inception_5a/output_inception_5a/output_0_split_1
I1126 19:49:34.207258 19735 net.cpp:411] inception_5b/3x3_reduce -> inception_5b/3x3_reduce
I1126 19:49:34.209585 19735 net.cpp:150] Setting up inception_5b/3x3_reduce
I1126 19:49:34.209599 19735 net.cpp:157] Top shape: 64 192 7 7 (602112)
I1126 19:49:34.209602 19735 net.cpp:165] Memory required for data: 3551060488
I1126 19:49:34.209609 19735 layer_factory.hpp:76] Creating layer inception_5b/relu_3x3_reduce
I1126 19:49:34.209614 19735 net.cpp:106] Creating Layer inception_5b/relu_3x3_reduce
I1126 19:49:34.209619 19735 net.cpp:454] inception_5b/relu_3x3_reduce <- inception_5b/3x3_reduce
I1126 19:49:34.209624 19735 net.cpp:397] inception_5b/relu_3x3_reduce -> inception_5b/3x3_reduce (in-place)
I1126 19:49:34.209789 19735 net.cpp:150] Setting up inception_5b/relu_3x3_reduce
I1126 19:49:34.209799 19735 net.cpp:157] Top shape: 64 192 7 7 (602112)
I1126 19:49:34.209801 19735 net.cpp:165] Memory required for data: 3553468936
I1126 19:49:34.209805 19735 layer_factory.hpp:76] Creating layer inception_5b/3x3
I1126 19:49:34.209813 19735 net.cpp:106] Creating Layer inception_5b/3x3
I1126 19:49:34.209816 19735 net.cpp:454] inception_5b/3x3 <- inception_5b/3x3_reduce
I1126 19:49:34.209822 19735 net.cpp:411] inception_5b/3x3 -> inception_5b/3x3
I1126 19:49:34.215528 19735 net.cpp:150] Setting up inception_5b/3x3
I1126 19:49:34.215544 19735 net.cpp:157] Top shape: 64 384 7 7 (1204224)
I1126 19:49:34.215548 19735 net.cpp:165] Memory required for data: 3558285832
I1126 19:49:34.215553 19735 layer_factory.hpp:76] Creating layer inception_5b/relu_3x3
I1126 19:49:34.215559 19735 net.cpp:106] Creating Layer inception_5b/relu_3x3
I1126 19:49:34.215564 19735 net.cpp:454] inception_5b/relu_3x3 <- inception_5b/3x3
I1126 19:49:34.215569 19735 net.cpp:397] inception_5b/relu_3x3 -> inception_5b/3x3 (in-place)
I1126 19:49:34.215875 19735 net.cpp:150] Setting up inception_5b/relu_3x3
I1126 19:49:34.215888 19735 net.cpp:157] Top shape: 64 384 7 7 (1204224)
I1126 19:49:34.215890 19735 net.cpp:165] Memory required for data: 3563102728
I1126 19:49:34.215893 19735 layer_factory.hpp:76] Creating layer inception_5b/5x5_reduce
I1126 19:49:34.215901 19735 net.cpp:106] Creating Layer inception_5b/5x5_reduce
I1126 19:49:34.215908 19735 net.cpp:454] inception_5b/5x5_reduce <- inception_5a/output_inception_5a/output_0_split_2
I1126 19:49:34.215914 19735 net.cpp:411] inception_5b/5x5_reduce -> inception_5b/5x5_reduce
I1126 19:49:34.217478 19735 net.cpp:150] Setting up inception_5b/5x5_reduce
I1126 19:49:34.217490 19735 net.cpp:157] Top shape: 64 48 7 7 (150528)
I1126 19:49:34.217494 19735 net.cpp:165] Memory required for data: 3563704840
I1126 19:49:34.217500 19735 layer_factory.hpp:76] Creating layer inception_5b/relu_5x5_reduce
I1126 19:49:34.217505 19735 net.cpp:106] Creating Layer inception_5b/relu_5x5_reduce
I1126 19:49:34.217509 19735 net.cpp:454] inception_5b/relu_5x5_reduce <- inception_5b/5x5_reduce
I1126 19:49:34.217514 19735 net.cpp:397] inception_5b/relu_5x5_reduce -> inception_5b/5x5_reduce (in-place)
I1126 19:49:34.217815 19735 net.cpp:150] Setting up inception_5b/relu_5x5_reduce
I1126 19:49:34.217828 19735 net.cpp:157] Top shape: 64 48 7 7 (150528)
I1126 19:49:34.217830 19735 net.cpp:165] Memory required for data: 3564306952
I1126 19:49:34.217833 19735 layer_factory.hpp:76] Creating layer inception_5b/5x5
I1126 19:49:34.217842 19735 net.cpp:106] Creating Layer inception_5b/5x5
I1126 19:49:34.217847 19735 net.cpp:454] inception_5b/5x5 <- inception_5b/5x5_reduce
I1126 19:49:34.217854 19735 net.cpp:411] inception_5b/5x5 -> inception_5b/5x5
I1126 19:49:34.219801 19735 net.cpp:150] Setting up inception_5b/5x5
I1126 19:49:34.219815 19735 net.cpp:157] Top shape: 64 128 7 7 (401408)
I1126 19:49:34.219817 19735 net.cpp:165] Memory required for data: 3565912584
I1126 19:49:34.219823 19735 layer_factory.hpp:76] Creating layer inception_5b/relu_5x5
I1126 19:49:34.219828 19735 net.cpp:106] Creating Layer inception_5b/relu_5x5
I1126 19:49:34.219832 19735 net.cpp:454] inception_5b/relu_5x5 <- inception_5b/5x5
I1126 19:49:34.219838 19735 net.cpp:397] inception_5b/relu_5x5 -> inception_5b/5x5 (in-place)
I1126 19:49:34.220005 19735 net.cpp:150] Setting up inception_5b/relu_5x5
I1126 19:49:34.220013 19735 net.cpp:157] Top shape: 64 128 7 7 (401408)
I1126 19:49:34.220016 19735 net.cpp:165] Memory required for data: 3567518216
I1126 19:49:34.220019 19735 layer_factory.hpp:76] Creating layer inception_5b/pool
I1126 19:49:34.220026 19735 net.cpp:106] Creating Layer inception_5b/pool
I1126 19:49:34.220029 19735 net.cpp:454] inception_5b/pool <- inception_5a/output_inception_5a/output_0_split_3
I1126 19:49:34.220034 19735 net.cpp:411] inception_5b/pool -> inception_5b/pool
I1126 19:49:34.220371 19735 net.cpp:150] Setting up inception_5b/pool
I1126 19:49:34.220383 19735 net.cpp:157] Top shape: 64 832 7 7 (2609152)
I1126 19:49:34.220386 19735 net.cpp:165] Memory required for data: 3577954824
I1126 19:49:34.220389 19735 layer_factory.hpp:76] Creating layer inception_5b/pool_proj
I1126 19:49:34.220397 19735 net.cpp:106] Creating Layer inception_5b/pool_proj
I1126 19:49:34.220403 19735 net.cpp:454] inception_5b/pool_proj <- inception_5b/pool
I1126 19:49:34.220408 19735 net.cpp:411] inception_5b/pool_proj -> inception_5b/pool_proj
I1126 19:49:34.222460 19735 net.cpp:150] Setting up inception_5b/pool_proj
I1126 19:49:34.222472 19735 net.cpp:157] Top shape: 64 128 7 7 (401408)
I1126 19:49:34.222476 19735 net.cpp:165] Memory required for data: 3579560456
I1126 19:49:34.222481 19735 layer_factory.hpp:76] Creating layer inception_5b/relu_pool_proj
I1126 19:49:34.222488 19735 net.cpp:106] Creating Layer inception_5b/relu_pool_proj
I1126 19:49:34.222492 19735 net.cpp:454] inception_5b/relu_pool_proj <- inception_5b/pool_proj
I1126 19:49:34.222497 19735 net.cpp:397] inception_5b/relu_pool_proj -> inception_5b/pool_proj (in-place)
I1126 19:49:34.222667 19735 net.cpp:150] Setting up inception_5b/relu_pool_proj
I1126 19:49:34.222676 19735 net.cpp:157] Top shape: 64 128 7 7 (401408)
I1126 19:49:34.222679 19735 net.cpp:165] Memory required for data: 3581166088
I1126 19:49:34.222682 19735 layer_factory.hpp:76] Creating layer inception_5b/output
I1126 19:49:34.222688 19735 net.cpp:106] Creating Layer inception_5b/output
I1126 19:49:34.222692 19735 net.cpp:454] inception_5b/output <- inception_5b/1x1
I1126 19:49:34.222697 19735 net.cpp:454] inception_5b/output <- inception_5b/3x3
I1126 19:49:34.222699 19735 net.cpp:454] inception_5b/output <- inception_5b/5x5
I1126 19:49:34.222703 19735 net.cpp:454] inception_5b/output <- inception_5b/pool_proj
I1126 19:49:34.222707 19735 net.cpp:411] inception_5b/output -> inception_5b/output
I1126 19:49:34.222743 19735 net.cpp:150] Setting up inception_5b/output
I1126 19:49:34.222750 19735 net.cpp:157] Top shape: 64 1024 7 7 (3211264)
I1126 19:49:34.222753 19735 net.cpp:165] Memory required for data: 3594011144
I1126 19:49:34.222755 19735 layer_factory.hpp:76] Creating layer pool5/7x7_s1
I1126 19:49:34.222761 19735 net.cpp:106] Creating Layer pool5/7x7_s1
I1126 19:49:34.222764 19735 net.cpp:454] pool5/7x7_s1 <- inception_5b/output
I1126 19:49:34.222769 19735 net.cpp:411] pool5/7x7_s1 -> pool5/7x7_s1
I1126 19:49:34.223108 19735 net.cpp:150] Setting up pool5/7x7_s1
I1126 19:49:34.223119 19735 net.cpp:157] Top shape: 64 1024 1 1 (65536)
I1126 19:49:34.223122 19735 net.cpp:165] Memory required for data: 3594273288
I1126 19:49:34.223125 19735 layer_factory.hpp:76] Creating layer pool5/drop_7x7_s1
I1126 19:49:34.223132 19735 net.cpp:106] Creating Layer pool5/drop_7x7_s1
I1126 19:49:34.223136 19735 net.cpp:454] pool5/drop_7x7_s1 <- pool5/7x7_s1
I1126 19:49:34.223141 19735 net.cpp:397] pool5/drop_7x7_s1 -> pool5/7x7_s1 (in-place)
I1126 19:49:34.223176 19735 net.cpp:150] Setting up pool5/drop_7x7_s1
I1126 19:49:34.223183 19735 net.cpp:157] Top shape: 64 1024 1 1 (65536)
I1126 19:49:34.223186 19735 net.cpp:165] Memory required for data: 3594535432
I1126 19:49:34.223189 19735 layer_factory.hpp:76] Creating layer loss3/classifier-attribute
I1126 19:49:34.223198 19735 net.cpp:106] Creating Layer loss3/classifier-attribute
I1126 19:49:34.223203 19735 net.cpp:454] loss3/classifier-attribute <- pool5/7x7_s1
I1126 19:49:34.223208 19735 net.cpp:411] loss3/classifier-attribute -> loss3/classifier-attribute
I1126 19:49:34.291069 19735 net.cpp:150] Setting up loss3/classifier-attribute
I1126 19:49:34.291091 19735 net.cpp:157] Top shape: 64 9999 (639936)
I1126 19:49:34.291095 19735 net.cpp:165] Memory required for data: 3597095176
I1126 19:49:34.291102 19735 layer_factory.hpp:76] Creating layer loss3/loss3
I1126 19:49:34.291110 19735 net.cpp:106] Creating Layer loss3/loss3
I1126 19:49:34.291115 19735 net.cpp:454] loss3/loss3 <- loss3/classifier-attribute
I1126 19:49:34.291122 19735 net.cpp:454] loss3/loss3 <- label_data_1_split_2
I1126 19:49:34.291129 19735 net.cpp:411] loss3/loss3 -> loss3/loss3
…
I1126 19:49:34.302547 19735 net.cpp:322] The NetState phase (1) differed from the phase (0) specified by a rule in layer data
I1126 19:49:34.304839 19735 net.cpp:49] Initializing net from parameters: 
name: "GoogleNet-finetune-for-cigit"
state {
  phase: TEST
}
layer {
  name: "data"
  type: "ImageData"
  top: "data"
  top: "label"
  include {
    phase: TEST
  }
  transform_param {
    mirror: false
    crop_size: 224
    mean_value: 104
    mean_value: 117
    mean_value: 123
  }
  image_data_param {
    source: "pad_test.txt"
    batch_size: 64
    new_height: 256
    new_width: 256
  }
}
layer {
  name: "conv1/7x7_s2"
  type: "Convolution"
  bottom: "data"
  top: "conv1/7x7_s2"
  param {
    lr_mult: 1
    decay_mult: 1
  }
  param {
    lr_mult: 2
    decay_mult: 0
  }
  convolution_param {
    num_output: 64
    pad: 3
    kernel_size: 7
    stride: 2
    weight_filler {
      type: "xavier"
    }
    bias_filler {
      type: "constant"
      value: 0.2
    }
  }
}
layer {
  name: "conv1/relu_7x7"
  type: "ReLU"
  bottom: "conv1/7x7_s2"
  top: "conv1/7x7_s2"
}
layer {
  name: "pool1/3x3_s2"
  type: "Pooling"
  bottom: "conv1/7x7_s2"
  top: "pool1/3x3_s2"
  pooling_param {
    pool: MAX
    kernel_size: 3
    stride: 2
  }
}
layer {
  name: "pool1/norm1"
  type: "LRN"
  bottom: "pool1/3x3_s2"
  top: "pool1/norm1"
  lrn_param {
    local_size: 5
    alpha: 0.0001
    beta: 0.75
  }
}
layer {
  name: "conv2/3x3_reduce"
  type: "Convolution"
  bottom: "pool1/norm1"
  top: "conv2/3x3_reduce"
  param {
    lr_mult: 1
    decay_mult: 1
  }
  param {
    lr_mult: 2
    decay_mult: 0
  }
  convolution_param {
    num_output: 64
    kernel_size: 1
    weight_filler {
      type: "xavier"
    }
    bias_filler {
      type: "constant"
      value: 0.2
    }
  }
}
layer {
  name: "conv2/relu_3x3_reduce"
  type: "ReLU"
  bottom: "conv2/3x3_reduce"
  top: "conv2/3x3_reduce"
}
layer {
  name: "conv2/3x3"
  type: "Convolution"
  bottom: "conv2/3x3_reduce"
  top: "conv2/3x3"
  param {
    lr_mult: 1
    decay_mult: 1
  }
  param {
    lr_mult: 2
    decay_mult: 0
  }
  convolution_param {
    num_output: 192
    pad: 1
    kernel_size: 3
    weight_filler {
      type: "xavier"
    }
    bias_filler {
      type: "constant"
      value: 0.2
    }
  }
}
layer {
  name: "conv2/relu_3x3"
  type: "ReLU"
  bottom: "conv2/3x3"
  top: "conv2/3x3"
}
layer {
  name: "conv2/norm2"
  type: "LRN"
  bottom: "conv2/3x3"
  top: "conv2/norm2"
  lrn_param {
    local_size: 5
    alpha: 0.0001
    beta: 0.75
  }
}
layer {
  name: "pool2/3x3_s2"
  type: "Pooling"
  bottom: "conv2/norm2"
  top: "pool2/3x3_s2"
  pooling_param {
    pool: MAX
    kernel_size: 3
    stride: 2
  }
}
layer {
  name: "inception_3a/1x1"
  type: "Convolution"
  bottom: "pool2/3x3_s2"
  top: "inception_3a/1x1"
  param {
    lr_mult: 1
    decay_mult: 1
  }
  param {
    lr_mult: 2
    decay_mult: 0
  }
  convolution_param {
    num_output: 64
    kernel_size: 1
    weight_filler {
      type: "xavier"
    }
    bias_filler {
      type: "constant"
      value: 0.2
    }
  }
}
layer {
  name: "inception_3a/relu_1x1"
  type: "ReLU"
  bottom: "inception_3a/1x1"
  top: "inception_3a/1x1"
}
layer {
  name: "inception_3a/3x3_reduce"
  type: "Convolution"
  bottom: "pool2/3x3_s2"
  top: "inception_3a/3x3_reduce"
  param {
    lr_mult: 1
    decay_mult: 1
  }
  param {
    lr_mult: 2
    decay_mult: 0
  }
  convolution_param {
    num_output: 96
    kernel_size: 1
    weight_filler {
      type: "xavier"
    }
    bias_filler {
      type: "constant"
      value: 0.2
    }
  }
}
layer {
  name: "inception_3a/relu_3x3_reduce"
  type: "ReLU"
  bottom: "inception_3a/3x3_reduce"
  top: "inception_3a/3x3_reduce"
}
layer {
  name: "inception_3a/3x3"
  type: "Convolution"
  bottom: "inception_3a/3x3_reduce"
  top: "inception_3a/3x3"
  param {
    lr_mult: 1
    decay_mult: 1
  }
  param {
    lr_mult: 2
    decay_mult: 0
  }
  convolution_param {
    num_output: 128
    pad: 1
    kernel_size: 3
    weight_filler {
      type: "xavier"
    }
    bias_filler {
      type: "constant"
      value: 0.2
    }
  }
}
layer {
  name: "inception_3a/relu_3x3"
  type: "ReLU"
  bottom: "inception_3a/3x3"
  top: "inception_3a/3x3"
}
layer {
  name: "inception_3a/5x5_reduce"
  type: "Convolution"
  bottom: "pool2/3x3_s2"
  top: "inception_3a/5x5_reduce"
  param {
    lr_mult: 1
    decay_mult: 1
  }
  param {
    lr_mult: 2
    decay_mult: 0
  }
  convolution_param {
    num_output: 16
    kernel_size: 1
    weight_filler {
      type: "xavier"
    }
    bias_filler {
      type: "constant"
      value: 0.2
    }
  }
}
layer {
  name: "inception_3a/relu_5x5_reduce"
  type: "ReLU"
  bottom: "inception_3a/5x5_reduce"
  top: "inception_3a/5x5_reduce"
}
layer {
  name: "inception_3a/5x5"
  type: "Convolution"
  bottom: "inception_3a/5x5_reduce"
  top: "inception_3a/5x5"
  param {
    lr_mult: 1
    decay_mult: 1
  }
  param {
    lr_mult: 2
    decay_mult: 0
  }
  convolution_param {
    num_output: 32
    pad: 2
    kernel_size: 5
    weight_filler {
      type: "xavier"
    }
    bias_filler {
      type: "constant"
      value: 0.2
    }
  }
}
layer {
  name: "inception_3a/relu_5x5"
  type: "ReLU"
  bottom: "inception_3a/5x5"
  top: "inception_3a/5x5"
}
layer {
  name: "inception_3a/pool"
  type: "Pooling"
  bottom: "pool2/3x3_s2"
  top: "inception_3a/pool"
  pooling_param {
    pool: MAX
    kernel_size: 3
    stride: 1
    pad: 1
  }
}
layer {
  name: "inception_3a/pool_proj"
  type: "Convolution"
  bottom: "inception_3a/pool"
  top: "inception_3a/pool_proj"
  param {
    lr_mult: 1
    decay_mult: 1
  }
  param {
    lr_mult: 2
    decay_mult: 0
  }
  convolution_param {
    num_output: 32
    kernel_size: 1
    weight_filler {
      type: "xavier"
    }
    bias_filler {
      type: "constant"
      value: 0.2
    }
  }
}
layer {
  name: "inception_3a/relu_pool_proj"
  type: "ReLU"
  bottom: "inception_3a/pool_proj"
  top: "inception_3a/pool_proj"
}
layer {
  name: "inception_3a/output"
  type: "Concat"
  bottom: "inception_3a/1x1"
  bottom: "inception_3a/3x3"
  bottom: "inception_3a/5x5"
  bottom: "inception_3a/pool_proj"
  top: "inception_3a/output"
}
layer {
  name: "inception_3b/1x1"
  type: "Convolution"
  bottom: "inception_3a/output"
  top: "inception_3b/1x1"
  param {
    lr_mult: 1
    decay_mult: 1
  }
  param {
    lr_mult: 2
    decay_mult: 0
  }
  convolution_param {
    num_output: 128
    kernel_size: 1
    weight_filler {
      type: "xavier"
    }
    bias_filler {
      type: "constant"
      value: 0.2
    }
  }
}
layer {
  name: "inception_3b/relu_1x1"
  type: "ReLU"
  bottom: "inception_3b/1x1"
  top: "inception_3b/1x1"
}
layer {
  name: "inception_3b/3x3_reduce"
  type: "Convolution"
  bottom: "inception_3a/output"
  top: "inception_3b/3x3_reduce"
  param {
    lr_mult: 1
    decay_mult: 1
  }
  param {
    lr_mult: 2
    decay_mult: 0
  }
  convolution_param {
    num_output: 128
    kernel_size: 1
    weight_filler {
      type: "xavier"
    }
    bias_filler {
      type: "constant"
      value: 0.2
    }
  }
}
layer {
  name: "inception_3b/relu_3x3_reduce"
  type: "ReLU"
  bottom: "inception_3b/3x3_reduce"
  top: "inception_3b/3x3_reduce"
}
layer {
  name: "inception_3b/3x3"
  type: "Convolution"
  bottom: "inception_3b/3x3_reduce"
  top: "inception_3b/3x3"
  param {
    lr_mult: 1
    decay_mult: 1
  }
  param {
    lr_mult: 2
    decay_mult: 0
  }
  convolution_param {
    num_output: 192
    pad: 1
    kernel_size: 3
    weight_filler {
      type: "xavier"
    }
    bias_filler {
      type: "constant"
      value: 0.2
    }
  }
}
layer {
  name: "inception_3b/relu_3x3"
  type: "ReLU"
  bottom: "inception_3b/3x3"
  top: "inception_3b/3x3"
}
layer {
  name: "inception_3b/5x5_reduce"
  type: "Convolution"
  bottom: "inception_3a/output"
  top: "inception_3b/5x5_reduce"
  param {
    lr_mult: 1
    decay_mult: 1
  }
  param {
    lr_mult: 2
    decay_mult: 0
  }
  convolution_param {
    num_output: 32
    kernel_size: 1
    weight_filler {
      type: "xavier"
    }
    bias_filler {
      type: "constant"
      value: 0.2
    }
  }
}
layer {
  name: "inception_3b/relu_5x5_reduce"
  type: "ReLU"
  bottom: "inception_3b/5x5_reduce"
  top: "inception_3b/5x5_reduce"
}
layer {
  name: "inception_3b/5x5"
  type: "Convolution"
  bottom: "inception_3b/5x5_reduce"
  top: "inception_3b/5x5"
  param {
    lr_mult: 1
    decay_mult: 1
  }
  param {
    lr_mult: 2
    decay_mult: 0
  }
  convolution_param {
    num_output: 96
    pad: 2
    kernel_size: 5
    weight_filler {
      type: "xavier"
    }
    bias_filler {
      type: "constant"
      value: 0.2
    }
  }
}
layer {
  name: "inception_3b/relu_5x5"
  type: "ReLU"
  bottom: "inception_3b/5x5"
  top: "inception_3b/5x5"
}
layer {
  name: "inception_3b/pool"
  type: "Pooling"
  bottom: "inception_3a/output"
  top: "inception_3b/pool"
  pooling_param {
    pool: MAX
    kernel_size: 3
    stride: 1
    pad: 1
  }
}
layer {
  name: "inception_3b/pool_proj"
  type: "Convolution"
  bottom: "inception_3b/pool"
  top: "inception_3b/pool_proj"
  param {
    lr_mult: 1
    decay_mult: 1
  }
  param {
    lr_mult: 2
    decay_mult: 0
  }
  convolution_param {
    num_output: 64
    kernel_size: 1
    weight_filler {
      type: "xavier"
    }
    bias_filler {
      type: "constant"
      value: 0.2
    }
  }
}
layer {
  name: "inception_3b/relu_pool_proj"
  type: "ReLU"
  bottom: "inception_3b/pool_proj"
  top: "inception_3b/pool_proj"
}
layer {
  name: "inception_3b/output"
  type: "Concat"
  bottom: "inception_3b/1x1"
  bottom: "inception_3b/3x3"
  bottom: "inception_3b/5x5"
  bottom: "inception_3b/pool_proj"
  top: "inception_3b/output"
}
layer {
  name: "pool3/3x3_s2"
  type: "Pooling"
  bottom: "inception_3b/output"
  top: "pool3/3x3_s2"
  pooling_param {
    pool: MAX
    kernel_size: 3
    stride: 2
  }
}
layer {
  name: "inception_4a/1x1"
  type: "Convolution"
  bottom: "pool3/3x3_s2"
  top: "inception_4a/1x1"
  param {
    lr_mult: 1
    decay_mult: 1
  }
  param {
    lr_mult: 2
    decay_mult: 0
  }
  convolution_param {
    num_output: 192
    kernel_size: 1
    weight_filler {
      type: "xavier"
    }
    bias_filler {
      type: "constant"
      value: 0.2
    }
  }
}
layer {
  name: "inception_4a/relu_1x1"
  type: "ReLU"
  bottom: "inception_4a/1x1"
  top: "inception_4a/1x1"
}
layer {
  name: "inception_4a/3x3_reduce"
  type: "Convolution"
  bottom: "pool3/3x3_s2"
  top: "inception_4a/3x3_reduce"
  param {
    lr_mult: 1
    decay_mult: 1
  }
  param {
    lr_mult: 2
    decay_mult: 0
  }
  convolution_param {
    num_output: 96
    kernel_size: 1
    weight_filler {
      type: "xavier"
    }
    bias_filler {
      type: "constant"
      value: 0.2
    }
  }
}
layer {
  name: "inception_4a/relu_3x3_reduce"
  type: "ReLU"
  bottom: "inception_4a/3x3_reduce"
  top: "inception_4a/3x3_reduce"
}
layer {
  name: "inception_4a/3x3"
  type: "Convolution"
  bottom: "inception_4a/3x3_reduce"
  top: "inception_4a/3x3"
  param {
    lr_mult: 1
    decay_mult: 1
  }
  param {
    lr_mult: 2
    decay_mult: 0
  }
  convolution_param {
    num_output: 208
    pad: 1
    kernel_size: 3
    weight_filler {
      type: "xavier"
    }
    bias_filler {
      type: "constant"
      value: 0.2
    }
  }
}
layer {
  name: "inception_4a/relu_3x3"
  type: "ReLU"
  bottom: "inception_4a/3x3"
  top: "inception_4a/3x3"
}
layer {
  name: "inception_4a/5x5_reduce"
  type: "Convolution"
  bottom: "pool3/3x3_s2"
  top: "inception_4a/5x5_reduce"
  param {
    lr_mult: 1
    decay_mult: 1
  }
  param {
    lr_mult: 2
    decay_mult: 0
  }
  convolution_param {
    num_output: 16
    kernel_size: 1
    weight_filler {
      type: "xavier"
    }
    bias_filler {
      type: "constant"
      value: 0.2
    }
  }
}
layer {
  name: "inception_4a/relu_5x5_reduce"
  type: "ReLU"
  bottom: "inception_4a/5x5_reduce"
  top: "inception_4a/5x5_reduce"
}
layer {
  name: "inception_4a/5x5"
  type: "Convolution"
  bottom: "inception_4a/5x5_reduce"
  top: "inception_4a/5x5"
  param {
    lr_mult: 1
    decay_mult: 1
  }
  param {
    lr_mult: 2
    decay_mult: 0
  }
  convolution_param {
    num_output: 48
    pad: 2
    kernel_size: 5
    weight_filler {
      type: "xavier"
    }
    bias_filler {
      type: "constant"
      value: 0.2
    }
  }
}
layer {
  name: "inception_4a/relu_5x5"
  type: "ReLU"
  bottom: "inception_4a/5x5"
  top: "inception_4a/5x5"
}
layer {
  name: "inception_4a/pool"
  type: "Pooling"
  bottom: "pool3/3x3_s2"
  top: "inception_4a/pool"
  pooling_param {
    pool: MAX
    kernel_size: 3
    stride: 1
    pad: 1
  }
}
layer {
  name: "inception_4a/pool_proj"
  type: "Convolution"
  bottom: "inception_4a/pool"
  top: "inception_4a/pool_proj"
  param {
    lr_mult: 1
    decay_mult: 1
  }
  param {
    lr_mult: 2
    decay_mult: 0
  }
  convolution_param {
    num_output: 64
    kernel_size: 1
    weight_filler {
      type: "xavier"
    }
    bias_filler {
      type: "constant"
      value: 0.2
    }
  }
}
layer {
  name: "inception_4a/relu_pool_proj"
  type: "ReLU"
  bottom: "inception_4a/pool_proj"
  top: "inception_4a/pool_proj"
}
layer {
  name: "inception_4a/output"
  type: "Concat"
  bottom: "inception_4a/1x1"
  bottom: "inception_4a/3x3"
  bottom: "inception_4a/5x5"
  bottom: "inception_4a/pool_proj"
  top: "inception_4a/output"
}
layer {
  name: "loss1/ave_pool"
  type: "Pooling"
  bottom: "inception_4a/output"
  top: "loss1/ave_pool"
  pooling_param {
    pool: AVE
    kernel_size: 5
    stride: 3
  }
}
layer {
  name: "loss1/conv"
  type: "Convolution"
  bottom: "loss1/ave_pool"
  top: "loss1/conv"
  param {
    lr_mult: 1
    decay_mult: 1
  }
  param {
    lr_mult: 2
    decay_mult: 0
  }
  convolution_param {
    num_output: 128
    kernel_size: 1
    weight_filler {
      type: "xavier"
    }
    bias_filler {
      type: "constant"
      value: 0.2
    }
  }
}
layer {
  name: "loss1/relu_conv"
  type: "ReLU"
  bottom: "loss1/conv"
  top: "loss1/conv"
}
layer {
  name: "loss1/fc"
  type: "InnerProduct"
  bottom: "loss1/conv"
  top: "loss1/fc"
  param {
    lr_mult: 1
    decay_mult: 1
  }
  param {
    lr_mult: 2
    decay_mult: 0
  }
…
I1126 19:49:34.587168 19735 net.cpp:106] Creating Layer inception_4c/pool
I1126 19:49:34.587172 19735 net.cpp:454] inception_4c/pool <- inception_4b/output_inception_4b/output_0_split_3
I1126 19:49:34.587178 19735 net.cpp:411] inception_4c/pool -> inception_4c/pool
I1126 19:49:34.587443 19735 net.cpp:150] Setting up inception_4c/pool
I1126 19:49:34.587457 19735 net.cpp:157] Top shape: 64 512 14 14 (6422528)
I1126 19:49:34.587461 19735 net.cpp:165] Memory required for data: 2835919880
I1126 19:49:34.587466 19735 layer_factory.hpp:76] Creating layer inception_4c/pool_proj
I1126 19:49:34.587473 19735 net.cpp:106] Creating Layer inception_4c/pool_proj
I1126 19:49:34.587477 19735 net.cpp:454] inception_4c/pool_proj <- inception_4c/pool
I1126 19:49:34.587484 19735 net.cpp:411] inception_4c/pool_proj -> inception_4c/pool_proj
I1126 19:49:34.589059 19735 net.cpp:150] Setting up inception_4c/pool_proj
I1126 19:49:34.589074 19735 net.cpp:157] Top shape: 64 64 14 14 (802816)
I1126 19:49:34.589077 19735 net.cpp:165] Memory required for data: 2839131144
I1126 19:49:34.589084 19735 layer_factory.hpp:76] Creating layer inception_4c/relu_pool_proj
I1126 19:49:34.589089 19735 net.cpp:106] Creating Layer inception_4c/relu_pool_proj
I1126 19:49:34.589093 19735 net.cpp:454] inception_4c/relu_pool_proj <- inception_4c/pool_proj
I1126 19:49:34.589100 19735 net.cpp:397] inception_4c/relu_pool_proj -> inception_4c/pool_proj (in-place)
I1126 19:49:34.589465 19735 net.cpp:150] Setting up inception_4c/relu_pool_proj
I1126 19:49:34.589478 19735 net.cpp:157] Top shape: 64 64 14 14 (802816)
I1126 19:49:34.589483 19735 net.cpp:165] Memory required for data: 2842342408
I1126 19:49:34.589485 19735 layer_factory.hpp:76] Creating layer inception_4c/output
I1126 19:49:34.589494 19735 net.cpp:106] Creating Layer inception_4c/output
I1126 19:49:34.589498 19735 net.cpp:454] inception_4c/output <- inception_4c/1x1
I1126 19:49:34.589504 19735 net.cpp:454] inception_4c/output <- inception_4c/3x3
I1126 19:49:34.589507 19735 net.cpp:454] inception_4c/output <- inception_4c/5x5
I1126 19:49:34.589511 19735 net.cpp:454] inception_4c/output <- inception_4c/pool_proj
I1126 19:49:34.589516 19735 net.cpp:411] inception_4c/output -> inception_4c/output
I1126 19:49:34.589563 19735 net.cpp:150] Setting up inception_4c/output
I1126 19:49:34.589570 19735 net.cpp:157] Top shape: 64 512 14 14 (6422528)
I1126 19:49:34.589572 19735 net.cpp:165] Memory required for data: 2868032520
I1126 19:49:34.589576 19735 layer_factory.hpp:76] Creating layer inception_4c/output_inception_4c/output_0_split
I1126 19:49:34.589581 19735 net.cpp:106] Creating Layer inception_4c/output_inception_4c/output_0_split
I1126 19:49:34.589584 19735 net.cpp:454] inception_4c/output_inception_4c/output_0_split <- inception_4c/output
I1126 19:49:34.589592 19735 net.cpp:411] inception_4c/output_inception_4c/output_0_split -> inception_4c/output_inception_4c/output_0_split_0
I1126 19:49:34.589598 19735 net.cpp:411] inception_4c/output_inception_4c/output_0_split -> inception_4c/output_inception_4c/output_0_split_1
I1126 19:49:34.589607 19735 net.cpp:411] inception_4c/output_inception_4c/output_0_split -> inception_4c/output_inception_4c/output_0_split_2
I1126 19:49:34.589614 19735 net.cpp:411] inception_4c/output_inception_4c/output_0_split -> inception_4c/output_inception_4c/output_0_split_3
I1126 19:49:34.589735 19735 net.cpp:150] Setting up inception_4c/output_inception_4c/output_0_split
I1126 19:49:34.589743 19735 net.cpp:157] Top shape: 64 512 14 14 (6422528)
I1126 19:49:34.589747 19735 net.cpp:157] Top shape: 64 512 14 14 (6422528)
I1126 19:49:34.589751 19735 net.cpp:157] Top shape: 64 512 14 14 (6422528)
I1126 19:49:34.589754 19735 net.cpp:157] Top shape: 64 512 14 14 (6422528)
I1126 19:49:34.589757 19735 net.cpp:165] Memory required for data: 2970792968
I1126 19:49:34.589761 19735 layer_factory.hpp:76] Creating layer inception_4d/1x1
I1126 19:49:34.589769 19735 net.cpp:106] Creating Layer inception_4d/1x1
I1126 19:49:34.589773 19735 net.cpp:454] inception_4d/1x1 <- inception_4c/output_inception_4c/output_0_split_0
I1126 19:49:34.589781 19735 net.cpp:411] inception_4d/1x1 -> inception_4d/1x1
I1126 19:49:34.591480 19735 net.cpp:150] Setting up inception_4d/1x1
I1126 19:49:34.591496 19735 net.cpp:157] Top shape: 64 112 14 14 (1404928)
I1126 19:49:34.591500 19735 net.cpp:165] Memory required for data: 2976412680
I1126 19:49:34.591507 19735 layer_factory.hpp:76] Creating layer inception_4d/relu_1x1
I1126 19:49:34.591514 19735 net.cpp:106] Creating Layer inception_4d/relu_1x1
I1126 19:49:34.591519 19735 net.cpp:454] inception_4d/relu_1x1 <- inception_4d/1x1
I1126 19:49:34.591524 19735 net.cpp:397] inception_4d/relu_1x1 -> inception_4d/1x1 (in-place)
I1126 19:49:34.591894 19735 net.cpp:150] Setting up inception_4d/relu_1x1
I1126 19:49:34.591908 19735 net.cpp:157] Top shape: 64 112 14 14 (1404928)
I1126 19:49:34.591912 19735 net.cpp:165] Memory required for data: 2982032392
I1126 19:49:34.591914 19735 layer_factory.hpp:76] Creating layer inception_4d/3x3_reduce
I1126 19:49:34.591924 19735 net.cpp:106] Creating Layer inception_4d/3x3_reduce
I1126 19:49:34.591928 19735 net.cpp:454] inception_4d/3x3_reduce <- inception_4c/output_inception_4c/output_0_split_1
I1126 19:49:34.591935 19735 net.cpp:411] inception_4d/3x3_reduce -> inception_4d/3x3_reduce
I1126 19:49:34.593811 19735 net.cpp:150] Setting up inception_4d/3x3_reduce
I1126 19:49:34.593825 19735 net.cpp:157] Top shape: 64 144 14 14 (1806336)
I1126 19:49:34.593829 19735 net.cpp:165] Memory required for data: 2989257736
I1126 19:49:34.593835 19735 layer_factory.hpp:76] Creating layer inception_4d/relu_3x3_reduce
I1126 19:49:34.593842 19735 net.cpp:106] Creating Layer inception_4d/relu_3x3_reduce
I1126 19:49:34.593845 19735 net.cpp:454] inception_4d/relu_3x3_reduce <- inception_4d/3x3_reduce
I1126 19:49:34.593850 19735 net.cpp:397] inception_4d/relu_3x3_reduce -> inception_4d/3x3_reduce (in-place)
I1126 19:49:34.594058 19735 net.cpp:150] Setting up inception_4d/relu_3x3_reduce
I1126 19:49:34.594069 19735 net.cpp:157] Top shape: 64 144 14 14 (1806336)
I1126 19:49:34.594074 19735 net.cpp:165] Memory required for data: 2996483080
I1126 19:49:34.594076 19735 layer_factory.hpp:76] Creating layer inception_4d/3x3
I1126 19:49:34.594084 19735 net.cpp:106] Creating Layer inception_4d/3x3
I1126 19:49:34.594089 19735 net.cpp:454] inception_4d/3x3 <- inception_4d/3x3_reduce
I1126 19:49:34.594095 19735 net.cpp:411] inception_4d/3x3 -> inception_4d/3x3
I1126 19:49:34.598433 19735 net.cpp:150] Setting up inception_4d/3x3
I1126 19:49:34.598448 19735 net.cpp:157] Top shape: 64 288 14 14 (3612672)
I1126 19:49:34.598451 19735 net.cpp:165] Memory required for data: 3010933768
I1126 19:49:34.598459 19735 layer_factory.hpp:76] Creating layer inception_4d/relu_3x3
I1126 19:49:34.598464 19735 net.cpp:106] Creating Layer inception_4d/relu_3x3
I1126 19:49:34.598469 19735 net.cpp:454] inception_4d/relu_3x3 <- inception_4d/3x3
I1126 19:49:34.598477 19735 net.cpp:397] inception_4d/relu_3x3 -> inception_4d/3x3 (in-place)
I1126 19:49:34.598872 19735 net.cpp:150] Setting up inception_4d/relu_3x3
I1126 19:49:34.598886 19735 net.cpp:157] Top shape: 64 288 14 14 (3612672)
I1126 19:49:34.598889 19735 net.cpp:165] Memory required for data: 3025384456
I1126 19:49:34.598893 19735 layer_factory.hpp:76] Creating layer inception_4d/5x5_reduce
I1126 19:49:34.598904 19735 net.cpp:106] Creating Layer inception_4d/5x5_reduce
I1126 19:49:34.598908 19735 net.cpp:454] inception_4d/5x5_reduce <- inception_4c/output_inception_4c/output_0_split_2
I1126 19:49:34.598917 19735 net.cpp:411] inception_4d/5x5_reduce -> inception_4d/5x5_reduce
I1126 19:49:34.600400 19735 net.cpp:150] Setting up inception_4d/5x5_reduce
I1126 19:49:34.600415 19735 net.cpp:157] Top shape: 64 32 14 14 (401408)
I1126 19:49:34.600419 19735 net.cpp:165] Memory required for data: 3026990088
I1126 19:49:34.600426 19735 layer_factory.hpp:76] Creating layer inception_4d/relu_5x5_reduce
I1126 19:49:34.600432 19735 net.cpp:106] Creating Layer inception_4d/relu_5x5_reduce
I1126 19:49:34.600436 19735 net.cpp:454] inception_4d/relu_5x5_reduce <- inception_4d/5x5_reduce
I1126 19:49:34.600442 19735 net.cpp:397] inception_4d/relu_5x5_reduce -> inception_4d/5x5_reduce (in-place)
I1126 19:49:34.600812 19735 net.cpp:150] Setting up inception_4d/relu_5x5_reduce
I1126 19:49:34.600826 19735 net.cpp:157] Top shape: 64 32 14 14 (401408)
I1126 19:49:34.600829 19735 net.cpp:165] Memory required for data: 3028595720
I1126 19:49:34.600832 19735 layer_factory.hpp:76] Creating layer inception_4d/5x5
I1126 19:49:34.600841 19735 net.cpp:106] Creating Layer inception_4d/5x5
I1126 19:49:34.600846 19735 net.cpp:454] inception_4d/5x5 <- inception_4d/5x5_reduce
I1126 19:49:34.600852 19735 net.cpp:411] inception_4d/5x5 -> inception_4d/5x5
I1126 19:49:34.602581 19735 net.cpp:150] Setting up inception_4d/5x5
I1126 19:49:34.602596 19735 net.cpp:157] Top shape: 64 64 14 14 (802816)
I1126 19:49:34.602599 19735 net.cpp:165] Memory required for data: 3031806984
I1126 19:49:34.602607 19735 layer_factory.hpp:76] Creating layer inception_4d/relu_5x5
I1126 19:49:34.602613 19735 net.cpp:106] Creating Layer inception_4d/relu_5x5
I1126 19:49:34.602619 19735 net.cpp:454] inception_4d/relu_5x5 <- inception_4d/5x5
I1126 19:49:34.602630 19735 net.cpp:397] inception_4d/relu_5x5 -> inception_4d/5x5 (in-place)
I1126 19:49:34.602874 19735 net.cpp:150] Setting up inception_4d/relu_5x5
I1126 19:49:34.602890 19735 net.cpp:157] Top shape: 64 64 14 14 (802816)
I1126 19:49:34.602895 19735 net.cpp:165] Memory required for data: 3035018248
I1126 19:49:34.602900 19735 layer_factory.hpp:76] Creating layer inception_4d/pool
I1126 19:49:34.602907 19735 net.cpp:106] Creating Layer inception_4d/pool
I1126 19:49:34.602911 19735 net.cpp:454] inception_4d/pool <- inception_4c/output_inception_4c/output_0_split_3
I1126 19:49:34.602916 19735 net.cpp:411] inception_4d/pool -> inception_4d/pool
I1126 19:49:34.603339 19735 net.cpp:150] Setting up inception_4d/pool
I1126 19:49:34.603353 19735 net.cpp:157] Top shape: 64 512 14 14 (6422528)
I1126 19:49:34.603356 19735 net.cpp:165] Memory required for data: 3060708360
I1126 19:49:34.603359 19735 layer_factory.hpp:76] Creating layer inception_4d/pool_proj
I1126 19:49:34.603368 19735 net.cpp:106] Creating Layer inception_4d/pool_proj
I1126 19:49:34.603373 19735 net.cpp:454] inception_4d/pool_proj <- inception_4d/pool
I1126 19:49:34.603380 19735 net.cpp:411] inception_4d/pool_proj -> inception_4d/pool_proj
I1126 19:49:34.605023 19735 net.cpp:150] Setting up inception_4d/pool_proj
I1126 19:49:34.605037 19735 net.cpp:157] Top shape: 64 64 14 14 (802816)
I1126 19:49:34.605041 19735 net.cpp:165] Memory required for data: 3063919624
I1126 19:49:34.605047 19735 layer_factory.hpp:76] Creating layer inception_4d/relu_pool_proj
I1126 19:49:34.605054 19735 net.cpp:106] Creating Layer inception_4d/relu_pool_proj
I1126 19:49:34.605058 19735 net.cpp:454] inception_4d/relu_pool_proj <- inception_4d/pool_proj
I1126 19:49:34.605065 19735 net.cpp:397] inception_4d/relu_pool_proj -> inception_4d/pool_proj (in-place)
I1126 19:49:34.605274 19735 net.cpp:150] Setting up inception_4d/relu_pool_proj
I1126 19:49:34.605286 19735 net.cpp:157] Top shape: 64 64 14 14 (802816)
I1126 19:49:34.605289 19735 net.cpp:165] Memory required for data: 3067130888
I1126 19:49:34.605293 19735 layer_factory.hpp:76] Creating layer inception_4d/output
I1126 19:49:34.605301 19735 net.cpp:106] Creating Layer inception_4d/output
I1126 19:49:34.605305 19735 net.cpp:454] inception_4d/output <- inception_4d/1x1
I1126 19:49:34.605309 19735 net.cpp:454] inception_4d/output <- inception_4d/3x3
I1126 19:49:34.605314 19735 net.cpp:454] inception_4d/output <- inception_4d/5x5
I1126 19:49:34.605317 19735 net.cpp:454] inception_4d/output <- inception_4d/pool_proj
I1126 19:49:34.605321 19735 net.cpp:411] inception_4d/output -> inception_4d/output
I1126 19:49:34.605373 19735 net.cpp:150] Setting up inception_4d/output
I1126 19:49:34.605383 19735 net.cpp:157] Top shape: 64 528 14 14 (6623232)
I1126 19:49:34.605386 19735 net.cpp:165] Memory required for data: 3093623816
I1126 19:49:34.605389 19735 layer_factory.hpp:76] Creating layer inception_4d/output_inception_4d/output_0_split
I1126 19:49:34.605396 19735 net.cpp:106] Creating Layer inception_4d/output_inception_4d/output_0_split
I1126 19:49:34.605399 19735 net.cpp:454] inception_4d/output_inception_4d/output_0_split <- inception_4d/output
I1126 19:49:34.605411 19735 net.cpp:411] inception_4d/output_inception_4d/output_0_split -> inception_4d/output_inception_4d/output_0_split_0
I1126 19:49:34.605418 19735 net.cpp:411] inception_4d/output_inception_4d/output_0_split -> inception_4d/output_inception_4d/output_0_split_1
I1126 19:49:34.605423 19735 net.cpp:411] inception_4d/output_inception_4d/output_0_split -> inception_4d/output_inception_4d/output_0_split_2
I1126 19:49:34.605429 19735 net.cpp:411] inception_4d/output_inception_4d/output_0_split -> inception_4d/output_inception_4d/output_0_split_3
I1126 19:49:34.605435 19735 net.cpp:411] inception_4d/output_inception_4d/output_0_split -> inception_4d/output_inception_4d/output_0_split_4
I1126 19:49:34.605592 19735 net.cpp:150] Setting up inception_4d/output_inception_4d/output_0_split
I1126 19:49:34.605609 19735 net.cpp:157] Top shape: 64 528 14 14 (6623232)
I1126 19:49:34.605615 19735 net.cpp:157] Top shape: 64 528 14 14 (6623232)
I1126 19:49:34.605618 19735 net.cpp:157] Top shape: 64 528 14 14 (6623232)
I1126 19:49:34.605623 19735 net.cpp:157] Top shape: 64 528 14 14 (6623232)
I1126 19:49:34.605626 19735 net.cpp:157] Top shape: 64 528 14 14 (6623232)
I1126 19:49:34.605628 19735 net.cpp:165] Memory required for data: 3226088456
I1126 19:49:34.605633 19735 layer_factory.hpp:76] Creating layer loss2/ave_pool
I1126 19:49:34.605639 19735 net.cpp:106] Creating Layer loss2/ave_pool
I1126 19:49:34.605645 19735 net.cpp:454] loss2/ave_pool <- inception_4d/output_inception_4d/output_0_split_0
I1126 19:49:34.605654 19735 net.cpp:411] loss2/ave_pool -> loss2/ave_pool
I1126 19:49:34.606060 19735 net.cpp:150] Setting up loss2/ave_pool
I1126 19:49:34.606073 19735 net.cpp:157] Top shape: 64 528 4 4 (540672)
I1126 19:49:34.606076 19735 net.cpp:165] Memory required for data: 3228251144
I1126 19:49:34.606081 19735 layer_factory.hpp:76] Creating layer loss2/conv
I1126 19:49:34.606089 19735 net.cpp:106] Creating Layer loss2/conv
I1126 19:49:34.606093 19735 net.cpp:454] loss2/conv <- loss2/ave_pool
I1126 19:49:34.606101 19735 net.cpp:411] loss2/conv -> loss2/conv
I1126 19:49:34.608180 19735 net.cpp:150] Setting up loss2/conv
I1126 19:49:34.608194 19735 net.cpp:157] Top shape: 64 128 4 4 (131072)
I1126 19:49:34.608198 19735 net.cpp:165] Memory required for data: 3228775432
I1126 19:49:34.608206 19735 layer_factory.hpp:76] Creating layer loss2/relu_conv
I1126 19:49:34.608212 19735 net.cpp:106] Creating Layer loss2/relu_conv
I1126 19:49:34.608217 19735 net.cpp:454] loss2/relu_conv <- loss2/conv
I1126 19:49:34.608222 19735 net.cpp:397] loss2/relu_conv -> loss2/conv (in-place)
I1126 19:49:34.608608 19735 net.cpp:150] Setting up loss2/relu_conv
I1126 19:49:34.608621 19735 net.cpp:157] Top shape: 64 128 4 4 (131072)
I1126 19:49:34.608625 19735 net.cpp:165] Memory required for data: 3229299720
I1126 19:49:34.608628 19735 layer_factory.hpp:76] Creating layer loss2/fc
I1126 19:49:34.608638 19735 net.cpp:106] Creating Layer loss2/fc
I1126 19:49:34.608641 19735 net.cpp:454] loss2/fc <- loss2/conv
I1126 19:49:34.608647 19735 net.cpp:411] loss2/fc -> loss2/fc
I1126 19:49:34.623368 19735 net.cpp:150] Setting up loss2/fc
I1126 19:49:34.623383 19735 net.cpp:157] Top shape: 64 1024 (65536)
I1126 19:49:34.623386 19735 net.cpp:165] Memory required for data: 3229561864
I1126 19:49:34.623394 19735 layer_factory.hpp:76] Creating layer loss2/relu_fc
I1126 19:49:34.623399 19735 net.cpp:106] Creating Layer loss2/relu_fc
I1126 19:49:34.623402 19735 net.cpp:454] loss2/relu_fc <- loss2/fc
I1126 19:49:34.623409 19735 net.cpp:397] loss2/relu_fc -> loss2/fc (in-place)
I1126 19:49:34.623638 19735 net.cpp:150] Setting up loss2/relu_fc
I1126 19:49:34.623652 19735 net.cpp:157] Top shape: 64 1024 (65536)
I1126 19:49:34.623656 19735 net.cpp:165] Memory required for data: 3229824008
I1126 19:49:34.623659 19735 layer_factory.hpp:76] Creating layer loss2/drop_fc
I1126 19:49:34.623666 19735 net.cpp:106] Creating Layer loss2/drop_fc
I1126 19:49:34.623668 19735 net.cpp:454] loss2/drop_fc <- loss2/fc
I1126 19:49:34.623672 19735 net.cpp:397] loss2/drop_fc -> loss2/fc (in-place)
I1126 19:49:34.623721 19735 net.cpp:150] Setting up loss2/drop_fc
I1126 19:49:34.623730 19735 net.cpp:157] Top shape: 64 1024 (65536)
I1126 19:49:34.623734 19735 net.cpp:165] Memory required for data: 3230086152
I1126 19:49:34.623746 19735 layer_factory.hpp:76] Creating layer loss2/classifier-attribute
I1126 19:49:34.623754 19735 net.cpp:106] Creating Layer loss2/classifier-attribute
I1126 19:49:34.623756 19735 net.cpp:454] loss2/classifier-attribute <- loss2/fc
I1126 19:49:34.623761 19735 net.cpp:411] loss2/classifier-attribute -> loss2/classifier-attribute
I1126 19:49:34.691696 19735 net.cpp:150] Setting up loss2/classifier-attribute
I1126 19:49:34.691717 19735 net.cpp:157] Top shape: 64 9999 (639936)
I1126 19:49:34.691721 19735 net.cpp:165] Memory required for data: 3232645896
I1126 19:49:34.691730 19735 layer_factory.hpp:76] Creating layer loss2/classifier-attribute_loss2/classifier-attribute_0_split
I1126 19:49:34.691738 19735 net.cpp:106] Creating Layer loss2/classifier-attribute_loss2/classifier-attribute_0_split
I1126 19:49:34.691743 19735 net.cpp:454] loss2/classifier-attribute_loss2/classifier-attribute_0_split <- loss2/classifier-attribute
I1126 19:49:34.691751 19735 net.cpp:411] loss2/classifier-attribute_loss2/classifier-attribute_0_split -> loss2/classifier-attribute_loss2/classifier-attribute_0_split_0
I1126 19:49:34.691759 19735 net.cpp:411] loss2/classifier-attribute_loss2/classifier-attribute_0_split -> loss2/classifier-attribute_loss2/classifier-attribute_0_split_1
I1126 19:49:34.691848 19735 net.cpp:150] Setting up loss2/classifier-attribute_loss2/classifier-attribute_0_split
I1126 19:49:34.691859 19735 net.cpp:157] Top shape: 64 9999 (639936)
I1126 19:49:34.691862 19735 net.cpp:157] Top shape: 64 9999 (639936)
I1126 19:49:34.691865 19735 net.cpp:165] Memory required for data: 3237765384
I1126 19:49:34.691869 19735 layer_factory.hpp:76] Creating layer loss2/loss
I1126 19:49:34.691874 19735 net.cpp:106] Creating Layer loss2/loss
I1126 19:49:34.691877 19735 net.cpp:454] loss2/loss <- loss2/classifier-attribute_loss2/classifier-attribute_0_split_0
I1126 19:49:34.691882 19735 net.cpp:454] loss2/loss <- label_data_1_split_2
…
I1126 19:49:34.696619 19735 net.cpp:150] Setting up loss2/top-1
I1126 19:49:34.696624 19735 net.cpp:157] Top shape: (1)
I1126 19:49:34.696625 19735 net.cpp:165] Memory required for data: 3237765392
I1126 19:49:34.696629 19735 layer_factory.hpp:76] Creating layer inception_4e/1x1
I1126 19:49:34.696638 19735 net.cpp:106] Creating Layer inception_4e/1x1
I1126 19:49:34.696643 19735 net.cpp:454] inception_4e/1x1 <- inception_4d/output_inception_4d/output_0_split_1
I1126 19:49:34.696648 19735 net.cpp:411] inception_4e/1x1 -> inception_4e/1x1
I1126 19:49:34.698820 19735 net.cpp:150] Setting up inception_4e/1x1
I1126 19:49:34.698834 19735 net.cpp:157] Top shape: 64 256 14 14 (3211264)
I1126 19:49:34.698837 19735 net.cpp:165] Memory required for data: 3250610448
I1126 19:49:34.698843 19735 layer_factory.hpp:76] Creating layer inception_4e/relu_1x1
I1126 19:49:34.698850 19735 net.cpp:106] Creating Layer inception_4e/relu_1x1
I1126 19:49:34.698853 19735 net.cpp:454] inception_4e/relu_1x1 <- inception_4e/1x1
I1126 19:49:34.698858 19735 net.cpp:397] inception_4e/relu_1x1 -> inception_4e/1x1 (in-place)
I1126 19:49:34.699102 19735 net.cpp:150] Setting up inception_4e/relu_1x1
I1126 19:49:34.699120 19735 net.cpp:157] Top shape: 64 256 14 14 (3211264)
I1126 19:49:34.699126 19735 net.cpp:165] Memory required for data: 3263455504
I1126 19:49:34.699131 19735 layer_factory.hpp:76] Creating layer inception_4e/3x3_reduce
I1126 19:49:34.699142 19735 net.cpp:106] Creating Layer inception_4e/3x3_reduce
I1126 19:49:34.699147 19735 net.cpp:454] inception_4e/3x3_reduce <- inception_4d/output_inception_4d/output_0_split_2
I1126 19:49:34.699154 19735 net.cpp:411] inception_4e/3x3_reduce -> inception_4e/3x3_reduce
I1126 19:49:34.701982 19735 net.cpp:150] Setting up inception_4e/3x3_reduce
I1126 19:49:34.701998 19735 net.cpp:157] Top shape: 64 160 14 14 (2007040)
I1126 19:49:34.702003 19735 net.cpp:165] Memory required for data: 3271483664
I1126 19:49:34.702010 19735 layer_factory.hpp:76] Creating layer inception_4e/relu_3x3_reduce
I1126 19:49:34.702019 19735 net.cpp:106] Creating Layer inception_4e/relu_3x3_reduce
I1126 19:49:34.702025 19735 net.cpp:454] inception_4e/relu_3x3_reduce <- inception_4e/3x3_reduce
I1126 19:49:34.702031 19735 net.cpp:397] inception_4e/relu_3x3_reduce -> inception_4e/3x3_reduce (in-place)
I1126 19:49:34.702539 19735 net.cpp:150] Setting up inception_4e/relu_3x3_reduce
I1126 19:49:34.702555 19735 net.cpp:157] Top shape: 64 160 14 14 (2007040)
I1126 19:49:34.702561 19735 net.cpp:165] Memory required for data: 3279511824
I1126 19:49:34.702567 19735 layer_factory.hpp:76] Creating layer inception_4e/3x3
I1126 19:49:34.702595 19735 net.cpp:106] Creating Layer inception_4e/3x3
I1126 19:49:34.702601 19735 net.cpp:454] inception_4e/3x3 <- inception_4e/3x3_reduce
I1126 19:49:34.702610 19735 net.cpp:411] inception_4e/3x3 -> inception_4e/3x3
I1126 19:49:34.707072 19735 net.cpp:150] Setting up inception_4e/3x3
I1126 19:49:34.707087 19735 net.cpp:157] Top shape: 64 320 14 14 (4014080)
I1126 19:49:34.707089 19735 net.cpp:165] Memory required for data: 3295568144
I1126 19:49:34.707095 19735 layer_factory.hpp:76] Creating layer inception_4e/relu_3x3
I1126 19:49:34.707103 19735 net.cpp:106] Creating Layer inception_4e/relu_3x3
I1126 19:49:34.707106 19735 net.cpp:454] inception_4e/relu_3x3 <- inception_4e/3x3
I1126 19:49:34.707110 19735 net.cpp:397] inception_4e/relu_3x3 -> inception_4e/3x3 (in-place)
I1126 19:49:34.707458 19735 net.cpp:150] Setting up inception_4e/relu_3x3
I1126 19:49:34.707471 19735 net.cpp:157] Top shape: 64 320 14 14 (4014080)
I1126 19:49:34.707474 19735 net.cpp:165] Memory required for data: 3311624464
I1126 19:49:34.707478 19735 layer_factory.hpp:76] Creating layer inception_4e/5x5_reduce
I1126 19:49:34.707486 19735 net.cpp:106] Creating Layer inception_4e/5x5_reduce
I1126 19:49:34.707490 19735 net.cpp:454] inception_4e/5x5_reduce <- inception_4d/output_inception_4d/output_0_split_3
I1126 19:49:34.707495 19735 net.cpp:411] inception_4e/5x5_reduce -> inception_4e/5x5_reduce
I1126 19:49:34.709072 19735 net.cpp:150] Setting up inception_4e/5x5_reduce
I1126 19:49:34.709085 19735 net.cpp:157] Top shape: 64 32 14 14 (401408)
I1126 19:49:34.709089 19735 net.cpp:165] Memory required for data: 3313230096
I1126 19:49:34.709095 19735 layer_factory.hpp:76] Creating layer inception_4e/relu_5x5_reduce
I1126 19:49:34.709101 19735 net.cpp:106] Creating Layer inception_4e/relu_5x5_reduce
I1126 19:49:34.709105 19735 net.cpp:454] inception_4e/relu_5x5_reduce <- inception_4e/5x5_reduce
I1126 19:49:34.709111 19735 net.cpp:397] inception_4e/relu_5x5_reduce -> inception_4e/5x5_reduce (in-place)
I1126 19:49:34.709309 19735 net.cpp:150] Setting up inception_4e/relu_5x5_reduce
I1126 19:49:34.709321 19735 net.cpp:157] Top shape: 64 32 14 14 (401408)
I1126 19:49:34.709323 19735 net.cpp:165] Memory required for data: 3314835728
I1126 19:49:34.709326 19735 layer_factory.hpp:76] Creating layer inception_4e/5x5
I1126 19:49:34.709336 19735 net.cpp:106] Creating Layer inception_4e/5x5
I1126 19:49:34.709339 19735 net.cpp:454] inception_4e/5x5 <- inception_4e/5x5_reduce
I1126 19:49:34.709345 19735 net.cpp:411] inception_4e/5x5 -> inception_4e/5x5
I1126 19:49:34.711344 19735 net.cpp:150] Setting up inception_4e/5x5
I1126 19:49:34.711357 19735 net.cpp:157] Top shape: 64 128 14 14 (1605632)
I1126 19:49:34.711361 19735 net.cpp:165] Memory required for data: 3321258256
I1126 19:49:34.711367 19735 layer_factory.hpp:76] Creating layer inception_4e/relu_5x5
I1126 19:49:34.711374 19735 net.cpp:106] Creating Layer inception_4e/relu_5x5
I1126 19:49:34.711377 19735 net.cpp:454] inception_4e/relu_5x5 <- inception_4e/5x5
I1126 19:49:34.711383 19735 net.cpp:397] inception_4e/relu_5x5 -> inception_4e/5x5 (in-place)
I1126 19:49:34.711730 19735 net.cpp:150] Setting up inception_4e/relu_5x5
I1126 19:49:34.711743 19735 net.cpp:157] Top shape: 64 128 14 14 (1605632)
I1126 19:49:34.711746 19735 net.cpp:165] Memory required for data: 3327680784
I1126 19:49:34.711750 19735 layer_factory.hpp:76] Creating layer inception_4e/pool
I1126 19:49:34.711756 19735 net.cpp:106] Creating Layer inception_4e/pool
I1126 19:49:34.711760 19735 net.cpp:454] inception_4e/pool <- inception_4d/output_inception_4d/output_0_split_4
I1126 19:49:34.711766 19735 net.cpp:411] inception_4e/pool -> inception_4e/pool
I1126 19:49:34.712014 19735 net.cpp:150] Setting up inception_4e/pool
I1126 19:49:34.712024 19735 net.cpp:157] Top shape: 64 528 14 14 (6623232)
I1126 19:49:34.712028 19735 net.cpp:165] Memory required for data: 3354173712
I1126 19:49:34.712033 19735 layer_factory.hpp:76] Creating layer inception_4e/pool_proj
I1126 19:49:34.712044 19735 net.cpp:106] Creating Layer inception_4e/pool_proj
I1126 19:49:34.712047 19735 net.cpp:454] inception_4e/pool_proj <- inception_4e/pool
I1126 19:49:34.712054 19735 net.cpp:411] inception_4e/pool_proj -> inception_4e/pool_proj
I1126 19:49:34.713743 19735 net.cpp:150] Setting up inception_4e/pool_proj
I1126 19:49:34.713757 19735 net.cpp:157] Top shape: 64 128 14 14 (1605632)
I1126 19:49:34.713759 19735 net.cpp:165] Memory required for data: 3360596240
I1126 19:49:34.713765 19735 layer_factory.hpp:76] Creating layer inception_4e/relu_pool_proj
I1126 19:49:34.713771 19735 net.cpp:106] Creating Layer inception_4e/relu_pool_proj
I1126 19:49:34.713775 19735 net.cpp:454] inception_4e/relu_pool_proj <- inception_4e/pool_proj
I1126 19:49:34.713781 19735 net.cpp:397] inception_4e/relu_pool_proj -> inception_4e/pool_proj (in-place)
I1126 19:49:34.714140 19735 net.cpp:150] Setting up inception_4e/relu_pool_proj
I1126 19:49:34.714153 19735 net.cpp:157] Top shape: 64 128 14 14 (1605632)
I1126 19:49:34.714156 19735 net.cpp:165] Memory required for data: 3367018768
I1126 19:49:34.714161 19735 layer_factory.hpp:76] Creating layer inception_4e/output
I1126 19:49:34.714169 19735 net.cpp:106] Creating Layer inception_4e/output
I1126 19:49:34.714174 19735 net.cpp:454] inception_4e/output <- inception_4e/1x1
I1126 19:49:34.714177 19735 net.cpp:454] inception_4e/output <- inception_4e/3x3
I1126 19:49:34.714180 19735 net.cpp:454] inception_4e/output <- inception_4e/5x5
I1126 19:49:34.714184 19735 net.cpp:454] inception_4e/output <- inception_4e/pool_proj
I1126 19:49:34.714189 19735 net.cpp:411] inception_4e/output -> inception_4e/output
I1126 19:49:34.714234 19735 net.cpp:150] Setting up inception_4e/output
I1126 19:49:34.714243 19735 net.cpp:157] Top shape: 64 832 14 14 (10436608)
I1126 19:49:34.714248 19735 net.cpp:165] Memory required for data: 3408765200
I1126 19:49:34.714253 19735 layer_factory.hpp:76] Creating layer pool4/3x3_s2
I1126 19:49:34.714267 19735 net.cpp:106] Creating Layer pool4/3x3_s2
I1126 19:49:34.714272 19735 net.cpp:454] pool4/3x3_s2 <- inception_4e/output
I1126 19:49:34.714279 19735 net.cpp:411] pool4/3x3_s2 -> pool4/3x3_s2
I1126 19:49:34.714553 19735 net.cpp:150] Setting up pool4/3x3_s2
I1126 19:49:34.714565 19735 net.cpp:157] Top shape: 64 832 7 7 (2609152)
I1126 19:49:34.714568 19735 net.cpp:165] Memory required for data: 3419201808
I1126 19:49:34.714571 19735 layer_factory.hpp:76] Creating layer pool4/3x3_s2_pool4/3x3_s2_0_split
I1126 19:49:34.714578 19735 net.cpp:106] Creating Layer pool4/3x3_s2_pool4/3x3_s2_0_split
I1126 19:49:34.714581 19735 net.cpp:454] pool4/3x3_s2_pool4/3x3_s2_0_split <- pool4/3x3_s2
I1126 19:49:34.714591 19735 net.cpp:411] pool4/3x3_s2_pool4/3x3_s2_0_split -> pool4/3x3_s2_pool4/3x3_s2_0_split_0
I1126 19:49:34.714601 19735 net.cpp:411] pool4/3x3_s2_pool4/3x3_s2_0_split -> pool4/3x3_s2_pool4/3x3_s2_0_split_1
I1126 19:49:34.714612 19735 net.cpp:411] pool4/3x3_s2_pool4/3x3_s2_0_split -> pool4/3x3_s2_pool4/3x3_s2_0_split_2
I1126 19:49:34.714622 19735 net.cpp:411] pool4/3x3_s2_pool4/3x3_s2_0_split -> pool4/3x3_s2_pool4/3x3_s2_0_split_3
I1126 19:49:34.714758 19735 net.cpp:150] Setting up pool4/3x3_s2_pool4/3x3_s2_0_split
I1126 19:49:34.714768 19735 net.cpp:157] Top shape: 64 832 7 7 (2609152)
I1126 19:49:34.714772 19735 net.cpp:157] Top shape: 64 832 7 7 (2609152)
I1126 19:49:34.714779 19735 net.cpp:157] Top shape: 64 832 7 7 (2609152)
I1126 19:49:34.714784 19735 net.cpp:157] Top shape: 64 832 7 7 (2609152)
I1126 19:49:34.714789 19735 net.cpp:165] Memory required for data: 3460948240
I1126 19:49:34.714794 19735 layer_factory.hpp:76] Creating layer inception_5a/1x1
I1126 19:49:34.714818 19735 net.cpp:106] Creating Layer inception_5a/1x1
I1126 19:49:34.714826 19735 net.cpp:454] inception_5a/1x1 <- pool4/3x3_s2_pool4/3x3_s2_0_split_0
I1126 19:49:34.714839 19735 net.cpp:411] inception_5a/1x1 -> inception_5a/1x1
I1126 19:49:34.717845 19735 net.cpp:150] Setting up inception_5a/1x1
I1126 19:49:34.717859 19735 net.cpp:157] Top shape: 64 256 7 7 (802816)
I1126 19:49:34.717862 19735 net.cpp:165] Memory required for data: 3464159504
I1126 19:49:34.717869 19735 layer_factory.hpp:76] Creating layer inception_5a/relu_1x1
I1126 19:49:34.717875 19735 net.cpp:106] Creating Layer inception_5a/relu_1x1
I1126 19:49:34.717880 19735 net.cpp:454] inception_5a/relu_1x1 <- inception_5a/1x1
I1126 19:49:34.717885 19735 net.cpp:397] inception_5a/relu_1x1 -> inception_5a/1x1 (in-place)
I1126 19:49:34.718109 19735 net.cpp:150] Setting up inception_5a/relu_1x1
I1126 19:49:34.718122 19735 net.cpp:157] Top shape: 64 256 7 7 (802816)
I1126 19:49:34.718124 19735 net.cpp:165] Memory required for data: 3467370768
I1126 19:49:34.718129 19735 layer_factory.hpp:76] Creating layer inception_5a/3x3_reduce
I1126 19:49:34.718142 19735 net.cpp:106] Creating Layer inception_5a/3x3_reduce
I1126 19:49:34.718149 19735 net.cpp:454] inception_5a/3x3_reduce <- pool4/3x3_s2_pool4/3x3_s2_0_split_1
I1126 19:49:34.718159 19735 net.cpp:411] inception_5a/3x3_reduce -> inception_5a/3x3_reduce
I1126 19:49:34.720783 19735 net.cpp:150] Setting up inception_5a/3x3_reduce
I1126 19:49:34.720798 19735 net.cpp:157] Top shape: 64 160 7 7 (501760)
I1126 19:49:34.720801 19735 net.cpp:165] Memory required for data: 3469377808
I1126 19:49:34.720808 19735 layer_factory.hpp:76] Creating layer inception_5a/relu_3x3_reduce
I1126 19:49:34.720814 19735 net.cpp:106] Creating Layer inception_5a/relu_3x3_reduce
I1126 19:49:34.720820 19735 net.cpp:454] inception_5a/relu_3x3_reduce <- inception_5a/3x3_reduce
I1126 19:49:34.720829 19735 net.cpp:397] inception_5a/relu_3x3_reduce -> inception_5a/3x3_reduce (in-place)
I1126 19:49:34.721206 19735 net.cpp:150] Setting up inception_5a/relu_3x3_reduce
I1126 19:49:34.721220 19735 net.cpp:157] Top shape: 64 160 7 7 (501760)
I1126 19:49:34.721223 19735 net.cpp:165] Memory required for data: 3471384848
I1126 19:49:34.721226 19735 layer_factory.hpp:76] Creating layer inception_5a/3x3
I1126 19:49:34.721236 19735 net.cpp:106] Creating Layer inception_5a/3x3
I1126 19:49:34.721243 19735 net.cpp:454] inception_5a/3x3 <- inception_5a/3x3_reduce
I1126 19:49:34.721256 19735 net.cpp:411] inception_5a/3x3 -> inception_5a/3x3
I1126 19:49:34.725829 19735 net.cpp:150] Setting up inception_5a/3x3
I1126 19:49:34.725843 19735 net.cpp:157] Top shape: 64 320 7 7 (1003520)
I1126 19:49:34.725847 19735 net.cpp:165] Memory required for data: 3475398928
I1126 19:49:34.725853 19735 layer_factory.hpp:76] Creating layer inception_5a/relu_3x3
I1126 19:49:34.725858 19735 net.cpp:106] Creating Layer inception_5a/relu_3x3
I1126 19:49:34.725862 19735 net.cpp:454] inception_5a/relu_3x3 <- inception_5a/3x3
I1126 19:49:34.725869 19735 net.cpp:397] inception_5a/relu_3x3 -> inception_5a/3x3 (in-place)
I1126 19:49:34.726091 19735 net.cpp:150] Setting up inception_5a/relu_3x3
I1126 19:49:34.726105 19735 net.cpp:157] Top shape: 64 320 7 7 (1003520)
I1126 19:49:34.726109 19735 net.cpp:165] Memory required for data: 3479413008
I1126 19:49:34.726115 19735 layer_factory.hpp:76] Creating layer inception_5a/5x5_reduce
I1126 19:49:34.726127 19735 net.cpp:106] Creating Layer inception_5a/5x5_reduce
I1126 19:49:34.726135 19735 net.cpp:454] inception_5a/5x5_reduce <- pool4/3x3_s2_pool4/3x3_s2_0_split_2
I1126 19:49:34.726147 19735 net.cpp:411] inception_5a/5x5_reduce -> inception_5a/5x5_reduce
I1126 19:49:34.728039 19735 net.cpp:150] Setting up inception_5a/5x5_reduce
I1126 19:49:34.728051 19735 net.cpp:157] Top shape: 64 32 7 7 (100352)
I1126 19:49:34.728055 19735 net.cpp:165] Memory required for data: 3479814416
I1126 19:49:34.728061 19735 layer_factory.hpp:76] Creating layer inception_5a/relu_5x5_reduce
I1126 19:49:34.728066 19735 net.cpp:106] Creating Layer inception_5a/relu_5x5_reduce
I1126 19:49:34.728071 19735 net.cpp:454] inception_5a/relu_5x5_reduce <- inception_5a/5x5_reduce
I1126 19:49:34.728077 19735 net.cpp:397] inception_5a/relu_5x5_reduce -> inception_5a/5x5_reduce (in-place)
I1126 19:49:34.728323 19735 net.cpp:150] Setting up inception_5a/relu_5x5_reduce
I1126 19:49:34.728338 19735 net.cpp:157] Top shape: 64 32 7 7 (100352)
I1126 19:49:34.728341 19735 net.cpp:165] Memory required for data: 3480215824
I1126 19:49:34.728346 19735 layer_factory.hpp:76] Creating layer inception_5a/5x5
I1126 19:49:34.728359 19735 net.cpp:106] Creating Layer inception_5a/5x5
I1126 19:49:34.728368 19735 net.cpp:454] inception_5a/5x5 <- inception_5a/5x5_reduce
I1126 19:49:34.728379 19735 net.cpp:411] inception_5a/5x5 -> inception_5a/5x5
I1126 19:49:34.730492 19735 net.cpp:150] Setting up inception_5a/5x5
I1126 19:49:34.730505 19735 net.cpp:157] Top shape: 64 128 7 7 (401408)
I1126 19:49:34.730509 19735 net.cpp:165] Memory required for data: 3481821456
I1126 19:49:34.730515 19735 layer_factory.hpp:76] Creating layer inception_5a/relu_5x5
I1126 19:49:34.730521 19735 net.cpp:106] Creating Layer inception_5a/relu_5x5
I1126 19:49:34.730525 19735 net.cpp:454] inception_5a/relu_5x5 <- inception_5a/5x5
I1126 19:49:34.730532 19735 net.cpp:397] inception_5a/relu_5x5 -> inception_5a/5x5 (in-place)
I1126 19:49:34.730947 19735 net.cpp:150] Setting up inception_5a/relu_5x5
I1126 19:49:34.730960 19735 net.cpp:157] Top shape: 64 128 7 7 (401408)
I1126 19:49:34.730964 19735 net.cpp:165] Memory required for data: 3483427088
I1126 19:49:34.730969 19735 layer_factory.hpp:76] Creating layer inception_5a/pool
I1126 19:49:34.730978 19735 net.cpp:106] Creating Layer inception_5a/pool
I1126 19:49:34.730983 19735 net.cpp:454] inception_5a/pool <- pool4/3x3_s2_pool4/3x3_s2_0_split_3
I1126 19:49:34.730994 19735 net.cpp:411] inception_5a/pool -> inception_5a/pool
I1126 19:49:34.731295 19735 net.cpp:150] Setting up inception_5a/pool
I1126 19:49:34.731312 19735 net.cpp:157] Top shape: 64 832 7 7 (2609152)
I1126 19:49:34.731315 19735 net.cpp:165] Memory required for data: 3493863696
I1126 19:49:34.731320 19735 layer_factory.hpp:76] Creating layer inception_5a/pool_proj
I1126 19:49:34.731331 19735 net.cpp:106] Creating Layer inception_5a/pool_proj
I1126 19:49:34.731338 19735 net.cpp:454] inception_5a/pool_proj <- inception_5a/pool
I1126 19:49:34.731349 19735 net.cpp:411] inception_5a/pool_proj -> inception_5a/pool_proj
I1126 19:49:34.733707 19735 net.cpp:150] Setting up inception_5a/pool_proj
I1126 19:49:34.733721 19735 net.cpp:157] Top shape: 64 128 7 7 (401408)
I1126 19:49:34.733724 19735 net.cpp:165] Memory required for data: 3495469328
I1126 19:49:34.733731 19735 layer_factory.hpp:76] Creating layer inception_5a/relu_pool_proj
I1126 19:49:34.733736 19735 net.cpp:106] Creating Layer inception_5a/relu_pool_proj
I1126 19:49:34.733741 19735 net.cpp:454] inception_5a/relu_pool_proj <- inception_5a/pool_proj
I1126 19:49:34.733747 19735 net.cpp:397] inception_5a/relu_pool_proj -> inception_5a/pool_proj (in-place)
I1126 19:49:34.734125 19735 net.cpp:150] Setting up inception_5a/relu_pool_proj
I1126 19:49:34.734140 19735 net.cpp:157] Top shape: 64 128 7 7 (401408)
I1126 19:49:34.734146 19735 net.cpp:165] Memory required for data: 3497074960
I1126 19:49:34.734151 19735 layer_factory.hpp:76] Creating layer inception_5a/output
I1126 19:49:34.734163 19735 net.cpp:106] Creating Layer inception_5a/output
I1126 19:49:34.734170 19735 net.cpp:454] inception_5a/output <- inception_5a/1x1
I1126 19:49:34.734175 19735 net.cpp:454] inception_5a/output <- inception_5a/3x3
I1126 19:49:34.734181 19735 net.cpp:454] inception_5a/output <- inception_5a/5x5
I1126 19:49:34.734186 19735 net.cpp:454] inception_5a/output <- inception_5a/pool_proj
I1126 19:49:34.734194 19735 net.cpp:411] inception_5a/output -> inception_5a/output
I1126 19:49:34.734266 19735 net.cpp:150] Setting up inception_5a/output
I1126 19:49:34.734277 19735 net.cpp:157] Top shape: 64 832 7 7 (2609152)
I1126 19:49:34.734280 19735 net.cpp:165] Memory required for data: 3507511568
I1126 19:49:34.734284 19735 layer_factory.hpp:76] Creating layer inception_5a/output_inception_5a/output_0_split
I1126 19:49:34.734293 19735 net.cpp:106] Creating Layer inception_5a/output_inception_5a/output_0_split
I1126 19:49:34.734299 19735 net.cpp:454] inception_5a/output_inception_5a/output_0_split <- inception_5a/output
I1126 19:49:34.734309 19735 net.cpp:411] inception_5a/output_inception_5a/output_0_split -> inception_5a/output_inception_5a/output_0_split_0
I1126 19:49:34.734321 19735 net.cpp:411] inception_5a/output_inception_5a/output_0_split -> inception_5a/output_inception_5a/output_0_split_1
I1126 19:49:34.734331 19735 net.cpp:411] inception_5a/output_inception_5a/output_0_split -> inception_5a/output_inception_5a/output_0_split_2
I1126 19:49:34.734340 19735 net.cpp:411] inception_5a/output_inception_5a/output_0_split -> inception_5a/output_inception_5a/output_0_split_3
I1126 19:49:34.734486 19735 net.cpp:150] Setting up inception_5a/output_inception_5a/output_0_split
I1126 19:49:34.734500 19735 net.cpp:157] Top shape: 64 832 7 7 (2609152)
I1126 19:49:34.734508 19735 net.cpp:157] Top shape: 64 832 7 7 (2609152)
I1126 19:49:34.734514 19735 net.cpp:157] Top shape: 64 832 7 7 (2609152)
I1126 19:49:34.734520 19735 net.cpp:157] Top shape: 64 832 7 7 (2609152)
I1126 19:49:34.734524 19735 net.cpp:165] Memory required for data: 3549258000
I1126 19:49:34.734530 19735 layer_factory.hpp:76] Creating layer inception_5b/1x1
I1126 19:49:34.734541 19735 net.cpp:106] Creating Layer inception_5b/1x1
I1126 19:49:34.734547 19735 net.cpp:454] inception_5b/1x1 <- inception_5a/output_inception_5a/output_0_split_0
I1126 19:49:34.734560 19735 net.cpp:411] inception_5b/1x1 -> inception_5b/1x1
I1126 19:49:34.738113 19735 net.cpp:150] Setting up inception_5b/1x1
I1126 19:49:34.738127 19735 net.cpp:157] Top shape: 64 384 7 7 (1204224)
I1126 19:49:34.738131 19735 net.cpp:165] Memory required for data: 3554074896
I1126 19:49:34.738137 19735 layer_factory.hpp:76] Creating layer inception_5b/relu_1x1
I1126 19:49:34.738143 19735 net.cpp:106] Creating Layer inception_5b/relu_1x1
I1126 19:49:34.738147 19735 net.cpp:454] inception_5b/relu_1x1 <- inception_5b/1x1
I1126 19:49:34.738152 19735 net.cpp:397] inception_5b/relu_1x1 -> inception_5b/1x1 (in-place)
I1126 19:49:34.738512 19735 net.cpp:150] Setting up inception_5b/relu_1x1
I1126 19:49:34.738523 19735 net.cpp:157] Top shape: 64 384 7 7 (1204224)
I1126 19:49:34.738528 19735 net.cpp:165] Memory required for data: 3558891792
I1126 19:49:34.738530 19735 layer_factory.hpp:76] Creating layer inception_5b/3x3_reduce
I1126 19:49:34.738539 19735 net.cpp:106] Creating Layer inception_5b/3x3_reduce
I1126 19:49:34.738544 19735 net.cpp:454] inception_5b/3x3_reduce <- inception_5a/output_inception_5a/output_0_split_1
I1126 19:49:34.738549 19735 net.cpp:411] inception_5b/3x3_reduce -> inception_5b/3x3_reduce
I1126 19:49:34.741273 19735 net.cpp:150] Setting up inception_5b/3x3_reduce
I1126 19:49:34.741286 19735 net.cpp:157] Top shape: 64 192 7 7 (602112)
I1126 19:49:34.741291 19735 net.cpp:165] Memory required for data: 3561300240
I1126 19:49:34.741297 19735 layer_factory.hpp:76] Creating layer inception_5b/relu_3x3_reduce
I1126 19:49:34.741302 19735 net.cpp:106] Creating Layer inception_5b/relu_3x3_reduce
I1126 19:49:34.741307 19735 net.cpp:454] inception_5b/relu_3x3_reduce <- inception_5b/3x3_reduce
I1126 19:49:34.741312 19735 net.cpp:397] inception_5b/relu_3x3_reduce -> inception_5b/3x3_reduce (in-place)
I1126 19:49:34.741536 19735 net.cpp:150] Setting up inception_5b/relu_3x3_reduce
I1126 19:49:34.741549 19735 net.cpp:157] Top shape: 64 192 7 7 (602112)
I1126 19:49:34.741554 19735 net.cpp:165] Memory required for data: 3563708688
I1126 19:49:34.741559 19735 layer_factory.hpp:76] Creating layer inception_5b/3x3
I1126 19:49:34.741572 19735 net.cpp:106] Creating Layer inception_5b/3x3
I1126 19:49:34.741580 19735 net.cpp:454] inception_5b/3x3 <- inception_5b/3x3_reduce
I1126 19:49:34.741586 19735 net.cpp:411] inception_5b/3x3 -> inception_5b/3x3
I1126 19:49:34.747573 19735 net.cpp:150] Setting up inception_5b/3x3
I1126 19:49:34.747587 19735 net.cpp:157] Top shape: 64 384 7 7 (1204224)
I1126 19:49:34.747591 19735 net.cpp:165] Memory required for data: 3568525584
I1126 19:49:34.747596 19735 layer_factory.hpp:76] Creating layer inception_5b/relu_3x3
I1126 19:49:34.747603 19735 net.cpp:106] Creating Layer inception_5b/relu_3x3
I1126 19:49:34.747607 19735 net.cpp:454] inception_5b/relu_3x3 <- inception_5b/3x3
I1126 19:49:34.747612 19735 net.cpp:397] inception_5b/relu_3x3 -> inception_5b/3x3 (in-place)
I1126 19:49:34.748011 19735 net.cpp:150] Setting up inception_5b/relu_3x3
I1126 19:49:34.748025 19735 net.cpp:157] Top shape: 64 384 7 7 (1204224)
I1126 19:49:34.748029 19735 net.cpp:165] Memory required for data: 3573342480
I1126 19:49:34.748034 19735 layer_factory.hpp:76] Creating layer inception_5b/5x5_reduce
I1126 19:49:34.748040 19735 net.cpp:106] Creating Layer inception_5b/5x5_reduce
I1126 19:49:34.748044 19735 net.cpp:454] inception_5b/5x5_reduce <- inception_5a/output_inception_5a/output_0_split_2
I1126 19:49:34.748051 19735 net.cpp:411] inception_5b/5x5_reduce -> inception_5b/5x5_reduce
I1126 19:49:34.749932 19735 net.cpp:150] Setting up inception_5b/5x5_reduce
I1126 19:49:34.749945 19735 net.cpp:157] Top shape: 64 48 7 7 (150528)
I1126 19:49:34.749948 19735 net.cpp:165] Memory required for data: 3573944592
I1126 19:49:34.749954 19735 layer_factory.hpp:76] Creating layer inception_5b/relu_5x5_reduce
I1126 19:49:34.749963 19735 net.cpp:106] Creating Layer inception_5b/relu_5x5_reduce
I1126 19:49:34.749966 19735 net.cpp:454] inception_5b/relu_5x5_reduce <- inception_5b/5x5_reduce
I1126 19:49:34.749970 19735 net.cpp:397] inception_5b/relu_5x5_reduce -> inception_5b/5x5_reduce (in-place)
I1126 19:49:34.750329 19735 net.cpp:150] Setting up inception_5b/relu_5x5_reduce
I1126 19:49:34.750340 19735 net.cpp:157] Top shape: 64 48 7 7 (150528)
I1126 19:49:34.750344 19735 net.cpp:165] Memory required for data: 3574546704
I1126 19:49:34.750347 19735 layer_factory.hpp:76] Creating layer inception_5b/5x5
I1126 19:49:34.750356 19735 net.cpp:106] Creating Layer inception_5b/5x5
I1126 19:49:34.750360 19735 net.cpp:454] inception_5b/5x5 <- inception_5b/5x5_reduce
I1126 19:49:34.750366 19735 net.cpp:411] inception_5b/5x5 -> inception_5b/5x5
I1126 19:49:34.752435 19735 net.cpp:150] Setting up inception_5b/5x5
I1126 19:49:34.752450 19735 net.cpp:157] Top shape: 64 128 7 7 (401408)
I1126 19:49:34.752454 19735 net.cpp:165] Memory required for data: 3576152336
I1126 19:49:34.752460 19735 layer_factory.hpp:76] Creating layer inception_5b/relu_5x5
I1126 19:49:34.752465 19735 net.cpp:106] Creating Layer inception_5b/relu_5x5
I1126 19:49:34.752470 19735 net.cpp:454] inception_5b/relu_5x5 <- inception_5b/5x5
I1126 19:49:34.752473 19735 net.cpp:397] inception_5b/relu_5x5 -> inception_5b/5x5 (in-place)
I1126 19:49:34.752676 19735 net.cpp:150] Setting up inception_5b/relu_5x5
I1126 19:49:34.752686 19735 net.cpp:157] Top shape: 64 128 7 7 (401408)
I1126 19:49:34.752688 19735 net.cpp:165] Memory required for data: 3577757968
I1126 19:49:34.752691 19735 layer_factory.hpp:76] Creating layer inception_5b/pool
I1126 19:49:34.752697 19735 net.cpp:106] Creating Layer inception_5b/pool
I1126 19:49:34.752701 19735 net.cpp:454] inception_5b/pool <- inception_5a/output_inception_5a/output_0_split_3
I1126 19:49:34.752707 19735 net.cpp:411] inception_5b/pool -> inception_5b/pool
I1126 19:49:34.753092 19735 net.cpp:150] Setting up inception_5b/pool
I1126 19:49:34.753103 19735 net.cpp:157] Top shape: 64 832 7 7 (2609152)
I1126 19:49:34.753106 19735 net.cpp:165] Memory required for data: 3588194576
I1126 19:49:34.753109 19735 layer_factory.hpp:76] Creating layer inception_5b/pool_proj
I1126 19:49:34.753118 19735 net.cpp:106] Creating Layer inception_5b/pool_proj
I1126 19:49:34.753123 19735 net.cpp:454] inception_5b/pool_proj <- inception_5b/pool
I1126 19:49:34.753129 19735 net.cpp:411] inception_5b/pool_proj -> inception_5b/pool_proj
I1126 19:49:34.755305 19735 net.cpp:150] Setting up inception_5b/pool_proj
I1126 19:49:34.755318 19735 net.cpp:157] Top shape: 64 128 7 7 (401408)
I1126 19:49:34.755321 19735 net.cpp:165] Memory required for data: 3589800208
I1126 19:49:34.755327 19735 layer_factory.hpp:76] Creating layer inception_5b/relu_pool_proj
I1126 19:49:34.755334 19735 net.cpp:106] Creating Layer inception_5b/relu_pool_proj
I1126 19:49:34.755338 19735 net.cpp:454] inception_5b/relu_pool_proj <- inception_5b/pool_proj
I1126 19:49:34.755343 19735 net.cpp:397] inception_5b/relu_pool_proj -> inception_5b/pool_proj (in-place)
I1126 19:49:34.755545 19735 net.cpp:150] Setting up inception_5b/relu_pool_proj
I1126 19:49:34.755556 19735 net.cpp:157] Top shape: 64 128 7 7 (401408)
I1126 19:49:34.755559 19735 net.cpp:165] Memory required for data: 3591405840
I1126 19:49:34.755563 19735 layer_factory.hpp:76] Creating layer inception_5b/output
I1126 19:49:34.755571 19735 net.cpp:106] Creating Layer inception_5b/output
I1126 19:49:34.755578 19735 net.cpp:454] inception_5b/output <- inception_5b/1x1
I1126 19:49:34.755584 19735 net.cpp:454] inception_5b/output <- inception_5b/3x3
I1126 19:49:34.755590 19735 net.cpp:454] inception_5b/output <- inception_5b/5x5
I1126 19:49:34.755596 19735 net.cpp:454] inception_5b/output <- inception_5b/pool_proj
I1126 19:49:34.755601 19735 net.cpp:411] inception_5b/output -> inception_5b/output
I1126 19:49:34.755635 19735 net.cpp:150] Setting up inception_5b/output
I1126 19:49:34.755641 19735 net.cpp:157] Top shape: 64 1024 7 7 (3211264)
I1126 19:49:34.755643 19735 net.cpp:165] Memory required for data: 3604250896
I1126 19:49:34.755646 19735 layer_factory.hpp:76] Creating layer pool5/7x7_s1
I1126 19:49:34.755653 19735 net.cpp:106] Creating Layer pool5/7x7_s1
I1126 19:49:34.755656 19735 net.cpp:454] pool5/7x7_s1 <- inception_5b/output
I1126 19:49:34.755661 19735 net.cpp:411] pool5/7x7_s1 -> pool5/7x7_s1
I1126 19:49:34.756160 19735 net.cpp:150] Setting up pool5/7x7_s1
I1126 19:49:34.756173 19735 net.cpp:157] Top shape: 64 1024 1 1 (65536)
I1126 19:49:34.756176 19735 net.cpp:165] Memory required for data: 3604513040
I1126 19:49:34.756180 19735 layer_factory.hpp:76] Creating layer pool5/drop_7x7_s1
I1126 19:49:34.756186 19735 net.cpp:106] Creating Layer pool5/drop_7x7_s1
I1126 19:49:34.756189 19735 net.cpp:454] pool5/drop_7x7_s1 <- pool5/7x7_s1
I1126 19:49:34.756193 19735 net.cpp:397] pool5/drop_7x7_s1 -> pool5/7x7_s1 (in-place)
I1126 19:49:34.756217 19735 net.cpp:150] Setting up pool5/drop_7x7_s1
I1126 19:49:34.756223 19735 net.cpp:157] Top shape: 64 1024 1 1 (65536)
I1126 19:49:34.756225 19735 net.cpp:165] Memory required for data: 3604775184
I1126 19:49:34.756228 19735 layer_factory.hpp:76] Creating layer loss3/classifier-attribute
I1126 19:49:34.756235 19735 net.cpp:106] Creating Layer loss3/classifier-attribute
I1126 19:49:34.756238 19735 net.cpp:454] loss3/classifier-attribute <- pool5/7x7_s1
I1126 19:49:34.756243 19735 net.cpp:411] loss3/classifier-attribute -> loss3/classifier-attribute
I1126 19:49:34.826447 19735 net.cpp:150] Setting up loss3/classifier-attribute
I1126 19:49:34.826469 19735 net.cpp:157] Top shape: 64 9999 (639936)
I1126 19:49:34.826472 19735 net.cpp:165] Memory required for data: 3607334928
I1126 19:49:34.826480 19735 layer_factory.hpp:76] Creating layer loss3/classifier-attribute_loss3/classifier-attribute_0_split
I1126 19:49:34.826490 19735 net.cpp:106] Creating Layer loss3/classifier-attribute_loss3/classifier-attribute_0_split
I1126 19:49:34.826496 19735 net.cpp:454] loss3/classifier-attribute_loss3/classifier-attribute_0_split <- loss3/classifier-attribute
I1126 19:49:34.826503 19735 net.cpp:411] loss3/classifier-attribute_loss3/classifier-attribute_0_split -> loss3/classifier-attribute_loss3/classifier-attribute_0_split_0
I1126 19:49:34.826513 19735 net.cpp:411] loss3/classifier-attribute_loss3/classifier-attribute_0_split -> loss3/classifier-attribute_loss3/classifier-attribute_0_split_1
I1126 19:49:34.826545 19735 net.cpp:150] Setting up loss3/classifier-attribute_loss3/classifier-attribute_0_split
I1126 19:49:34.826550 19735 net.cpp:157] Top shape: 64 9999 (639936)
I1126 19:49:34.826555 19735 net.cpp:157] Top shape: 64 9999 (639936)
I1126 19:49:34.826557 19735 net.cpp:165] Memory required for data: 3612454416
I1126 19:49:34.826560 19735 layer_factory.hpp:76] Creating layer loss3/loss3
I1126 19:49:34.826566 19735 net.cpp:106] Creating Layer loss3/loss3
I1126 19:49:34.826570 19735 net.cpp:454] loss3/loss3 <- loss3/classifier-attribute_loss3/classifier-attribute_0_split_0
I1126 19:49:34.826573 19735 net.cpp:454] loss3/loss3 <- label_data_1_split_4
…
