…
I1124 22:50:55.164574 14720 net.cpp:322] The NetState phase (0) differed from the phase (1) specified by a rule in layer loss3/top-1
I1124 22:50:55.165493 14720 net.cpp:49] Initializing net from parameters: 
name: "GoogleNet-finetune-for-cigit"
state {
  phase: TRAIN
}
layer {
  name: "data"
  type: "ImageData"
  top: "data"
  top: "label"
  include {
    phase: TRAIN
  }
  transform_param {
    mirror: true
    crop_size: 224
    mean_value: 104
    mean_value: 117
    mean_value: 123
  }
  image_data_param {
    source: "pad_train.txt"
    batch_size: 64
    shuffle: true
    new_height: 256
    new_width: 256
  }
}
layer {
  name: "conv1/7x7_s2"
  type: "Convolution"
  bottom: "data"
  top: "conv1/7x7_s2"
  param {
    lr_mult: 1
    decay_mult: 1
  }
  param {
    lr_mult: 2
    decay_mult: 0
  }
  convolution_param {
    num_output: 64
    pad: 3
    kernel_size: 7
    stride: 2
    weight_filler {
      type: "xavier"
    }
    bias_filler {
      type: "constant"
      value: 0.2
    }
  }
}
layer {
  name: "conv1/relu_7x7"
  type: "ReLU"
  bottom: "conv1/7x7_s2"
  top: "conv1/7x7_s2"
}
layer {
  name: "pool1/3x3_s2"
  type: "Pooling"
  bottom: "conv1/7x7_s2"
  top: "pool1/3x3_s2"
  pooling_param {
    pool: MAX
    kernel_size: 3
    stride: 2
  }
}
layer {
  name: "pool1/norm1"
  type: "LRN"
  bottom: "pool1/3x3_s2"
  top: "pool1/norm1"
  lrn_param {
    local_size: 5
    alpha: 0.0001
    beta: 0.75
  }
}
layer {
  name: "conv2/3x3_reduce"
  type: "Convolution"
  bottom: "pool1/norm1"
  top: "conv2/3x3_reduce"
  param {
    lr_mult: 1
    decay_mult: 1
  }
  param {
    lr_mult: 2
    decay_mult: 0
  }
  convolution_param {
    num_output: 64
    kernel_size: 1
    weight_filler {
      type: "xavier"
    }
    bias_filler {
      type: "constant"
      value: 0.2
    }
  }
}
layer {
  name: "conv2/relu_3x3_reduce"
  type: "ReLU"
  bottom: "conv2/3x3_reduce"
  top: "conv2/3x3_reduce"
}
layer {
  name: "conv2/3x3"
  type: "Convolution"
  bottom: "conv2/3x3_reduce"
  top: "conv2/3x3"
  param {
    lr_mult: 1
    decay_mult: 1
  }
  param {
    lr_mult: 2
    decay_mult: 0
  }
  convolution_param {
    num_output: 192
    pad: 1
    kernel_size: 3
    weight_filler {
      type: "xavier"
    }
    bias_filler {
      type: "constant"
      value: 0.2
    }
  }
}
layer {
  name: "conv2/relu_3x3"
  type: "ReLU"
  bottom: "conv2/3x3"
  top: "conv2/3x3"
}
layer {
  name: "conv2/norm2"
  type: "LRN"
  bottom: "conv2/3x3"
  top: "conv2/norm2"
  lrn_param {
    local_size: 5
    alpha: 0.0001
    beta: 0.75
  }
}
layer {
  name: "pool2/3x3_s2"
  type: "Pooling"
  bottom: "conv2/norm2"
  top: "pool2/3x3_s2"
  pooling_param {
    pool: MAX
    kernel_size: 3
    stride: 2
  }
}
layer {
  name: "inception_3a/1x1"
  type: "Convolution"
  bottom: "pool2/3x3_s2"
  top: "inception_3a/1x1"
  param {
    lr_mult: 1
    decay_mult: 1
  }
  param {
    lr_mult: 2
    decay_mult: 0
  }
  convolution_param {
    num_output: 64
    kernel_size: 1
    weight_filler {
      type: "xavier"
    }
    bias_filler {
      type: "constant"
      value: 0.2
    }
  }
}
layer {
  name: "inception_3a/relu_1x1"
  type: "ReLU"
  bottom: "inception_3a/1x1"
  top: "inception_3a/1x1"
}
layer {
  name: "inception_3a/3x3_reduce"
  type: "Convolution"
  bottom: "pool2/3x3_s2"
  top: "inception_3a/3x3_reduce"
  param {
    lr_mult: 1
    decay_mult: 1
  }
  param {
    lr_mult: 2
    decay_mult: 0
  }
  convolution_param {
    num_output: 96
    kernel_size: 1
    weight_filler {
      type: "xavier"
    }
    bias_filler {
      type: "constant"
      value: 0.2
    }
  }
}
layer {
  name: "inception_3a/relu_3x3_reduce"
  type: "ReLU"
  bottom: "inception_3a/3x3_reduce"
  top: "inception_3a/3x3_reduce"
}
layer {
  name: "inception_3a/3x3"
  type: "Convolution"
  bottom: "inception_3a/3x3_reduce"
  top: "inception_3a/3x3"
  param {
    lr_mult: 1
    decay_mult: 1
  }
  param {
    lr_mult: 2
    decay_mult: 0
  }
  convolution_param {
    num_output: 128
    pad: 1
    kernel_size: 3
    weight_filler {
      type: "xavier"
    }
    bias_filler {
      type: "constant"
      value: 0.2
    }
  }
}
layer {
  name: "inception_3a/relu_3x3"
  type: "ReLU"
  bottom: "inception_3a/3x3"
  top: "inception_3a/3x3"
}
layer {
  name: "inception_3a/5x5_reduce"
  type: "Convolution"
  bottom: "pool2/3x3_s2"
  top: "inception_3a/5x5_reduce"
  param {
    lr_mult: 1
    decay_mult: 1
  }
  param {
    lr_mult: 2
    decay_mult: 0
  }
  convolution_param {
    num_output: 16
    kernel_size: 1
    weight_filler {
      type: "xavier"
    }
    bias_filler {
      type: "constant"
      value: 0.2
    }
  }
}
layer {
  name: "inception_3a/relu_5x5_reduce"
  type: "ReLU"
  bottom: "inception_3a/5x5_reduce"
  top: "inception_3a/5x5_reduce"
}
layer {
  name: "inception_3a/5x5"
  type: "Convolution"
  bottom: "inception_3a/5x5_reduce"
  top: "inception_3a/5x5"
  param {
    lr_mult: 1
    decay_mult: 1
  }
  param {
    lr_mult: 2
    decay_mult: 0
  }
  convolution_param {
    num_output: 32
    pad: 2
    kernel_size: 5
    weight_filler {
      type: "xavier"
    }
    bias_filler {
      type: "constant"
      value: 0.2
    }
  }
}
layer {
  name: "inception_3a/relu_5x5"
  type: "ReLU"
  bottom: "inception_3a/5x5"
  top: "inception_3a/5x5"
}
layer {
  name: "inception_3a/pool"
  type: "Pooling"
  bottom: "pool2/3x3_s2"
  top: "inception_3a/pool"
  pooling_param {
    pool: MAX
    kernel_size: 3
    stride: 1
    pad: 1
  }
}
layer {
  name: "inception_3a/pool_proj"
  type: "Convolution"
  bottom: "inception_3a/pool"
  top: "inception_3a/pool_proj"
  param {
    lr_mult: 1
    decay_mult: 1
  }
  param {
    lr_mult: 2
    decay_mult: 0
  }
  convolution_param {
    num_output: 32
    kernel_size: 1
    weight_filler {
      type: "xavier"
    }
    bias_filler {
      type: "constant"
      value: 0.2
    }
  }
}
layer {
  name: "inception_3a/relu_pool_proj"
  type: "ReLU"
  bottom: "inception_3a/pool_proj"
  top: "inception_3a/pool_proj"
}
layer {
  name: "inception_3a/output"
  type: "Concat"
  bottom: "inception_3a/1x1"
  bottom: "inception_3a/3x3"
  bottom: "inception_3a/5x5"
  bottom: "inception_3a/pool_proj"
  top: "inception_3a/output"
}
layer {
  name: "inception_3b/1x1"
  type: "Convolution"
  bottom: "inception_3a/output"
  top: "inception_3b/1x1"
  param {
    lr_mult: 1
    decay_mult: 1
  }
  param {
    lr_mult: 2
    decay_mult: 0
  }
  convolution_param {
    num_output: 128
    kernel_size: 1
    weight_filler {
      type: "xavier"
    }
    bias_filler {
      type: "constant"
      value: 0.2
    }
  }
}
layer {
  name: "inception_3b/relu_1x1"
  type: "ReLU"
  bottom: "inception_3b/1x1"
  top: "inception_3b/1x1"
}
layer {
  name: "inception_3b/3x3_reduce"
  type: "Convolution"
  bottom: "inception_3a/output"
  top: "inception_3b/3x3_reduce"
  param {
    lr_mult: 1
    decay_mult: 1
  }
  param {
    lr_mult: 2
    decay_mult: 0
  }
  convolution_param {
    num_output: 128
    kernel_size: 1
    weight_filler {
      type: "xavier"
    }
    bias_filler {
      type: "constant"
      value: 0.2
    }
  }
}
layer {
  name: "inception_3b/relu_3x3_reduce"
  type: "ReLU"
  bottom: "inception_3b/3x3_reduce"
  top: "inception_3b/3x3_reduce"
}
layer {
  name: "inception_3b/3x3"
  type: "Convolution"
  bottom: "inception_3b/3x3_reduce"
  top: "inception_3b/3x3"
  param {
    lr_mult: 1
    decay_mult: 1
  }
  param {
    lr_mult: 2
    decay_mult: 0
  }
  convolution_param {
    num_output: 192
    pad: 1
    kernel_size: 3
    weight_filler {
      type: "xavier"
    }
    bias_filler {
      type: "constant"
      value: 0.2
    }
  }
}
layer {
  name: "inception_3b/relu_3x3"
  type: "ReLU"
  bottom: "inception_3b/3x3"
  top: "inception_3b/3x3"
}
layer {
  name: "inception_3b/5x5_reduce"
  type: "Convolution"
  bottom: "inception_3a/output"
  top: "inception_3b/5x5_reduce"
  param {
    lr_mult: 1
    decay_mult: 1
  }
  param {
    lr_mult: 2
    decay_mult: 0
  }
  convolution_param {
    num_output: 32
    kernel_size: 1
    weight_filler {
      type: "xavier"
    }
    bias_filler {
      type: "constant"
      value: 0.2
    }
  }
}
layer {
  name: "inception_3b/relu_5x5_reduce"
  type: "ReLU"
  bottom: "inception_3b/5x5_reduce"
  top: "inception_3b/5x5_reduce"
}
layer {
  name: "inception_3b/5x5"
  type: "Convolution"
  bottom: "inception_3b/5x5_reduce"
  top: "inception_3b/5x5"
  param {
    lr_mult: 1
    decay_mult: 1
  }
  param {
    lr_mult: 2
    decay_mult: 0
  }
  convolution_param {
    num_output: 96
    pad: 2
    kernel_size: 5
    weight_filler {
      type: "xavier"
    }
    bias_filler {
      type: "constant"
      value: 0.2
    }
  }
}
layer {
  name: "inception_3b/relu_5x5"
  type: "ReLU"
  bottom: "inception_3b/5x5"
  top: "inception_3b/5x5"
}
layer {
  name: "inception_3b/pool"
  type: "Pooling"
  bottom: "inception_3a/output"
  top: "inception_3b/pool"
  pooling_param {
    pool: MAX
    kernel_size: 3
    stride: 1
    pad: 1
  }
}
layer {
  name: "inception_3b/pool_proj"
  type: "Convolution"
  bottom: "inception_3b/pool"
  top: "inception_3b/pool_proj"
  param {
    lr_mult: 1
    decay_mult: 1
  }
  param {
    lr_mult: 2
    decay_mult: 0
  }
  convolution_param {
    num_output: 64
    kernel_size: 1
    weight_filler {
      type: "xavier"
    }
    bias_filler {
      type: "constant"
      value: 0.2
    }
  }
}
layer {
  name: "inception_3b/relu_pool_proj"
  type: "ReLU"
  bottom: "inception_3b/pool_proj"
  top: "inception_3b/pool_proj"
}
layer {
  name: "inception_3b/output"
  type: "Concat"
  bottom: "inception_3b/1x1"
  bottom: "inception_3b/3x3"
  bottom: "inception_3b/5x5"
  bottom: "inception_3b/pool_proj"
  top: "inception_3b/output"
}
layer {
  name: "pool3/3x3_s2"
  type: "Pooling"
  bottom: "inception_3b/output"
  top: "pool3/3x3_s2"
  pooling_param {
    pool: MAX
    kernel_size: 3
    stride: 2
  }
}
layer {
  name: "inception_4a/1x1"
  type: "Convolution"
  bottom: "pool3/3x3_s2"
  top: "inception_4a/1x1"
  param {
    lr_mult: 1
    decay_mult: 1
  }
  param {
    lr_mult: 2
    decay_mult: 0
  }
  convolution_param {
    num_output: 192
    kernel_size: 1
    weight_filler {
      type: "xavier"
    }
    bias_filler {
      type: "constant"
      value: 0.2
    }
  }
}
layer {
  name: "inception_4a/relu_1x1"
  type: "ReLU"
  bottom: "inception_4a/1x1"
  top: "inception_4a/1x1"
}
layer {
  name: "inception_4a/3x3_reduce"
  type: "Convolution"
  bottom: "pool3/3x3_s2"
  top: "inception_4a/3x3_reduce"
  param {
    lr_mult: 1
    decay_mult: 1
  }
  param {
    lr_mult: 2
    decay_mult: 0
  }
  convolution_param {
    num_output: 96
    kernel_size: 1
    weight_filler {
      type: "xavier"
    }
    bias_filler {
      type: "constant"
      value: 0.2
    }
  }
}
layer {
  name: "inception_4a/relu_3x3_reduce"
  type: "ReLU"
  bottom: "inception_4a/3x3_reduce"
  top: "inception_4a/3x3_reduce"
}
layer {
  name: "inception_4a/3x3"
  type: "Convolution"
  bottom: "inception_4a/3x3_reduce"
  top: "inception_4a/3x3"
  param {
    lr_mult: 1
    decay_mult: 1
  }
  param {
    lr_mult: 2
    decay_mult: 0
  }
  convolution_param {
    num_output: 208
    pad: 1
    kernel_size: 3
    weight_filler {
      type: "xavier"
    }
    bias_filler {
      type: "constant"
      value: 0.2
    }
  }
}
layer {
  name: "inception_4a/relu_3x3"
  type: "ReLU"
  bottom: "inception_4a/3x3"
  top: "inception_4a/3x3"
}
layer {
  name: "inception_4a/5x5_reduce"
  type: "Convolution"
  bottom: "pool3/3x3_s2"
  top: "inception_4a/5x5_reduce"
  param {
    lr_mult: 1
    decay_mult: 1
  }
  param {
    lr_mult: 2
    decay_mult: 0
  }
  convolution_param {
    num_output: 16
    kernel_size: 1
    weight_filler {
      type: "xavier"
    }
    bias_filler {
      type: "constant"
      value: 0.2
    }
  }
}
layer {
  name: "inception_4a/relu_5x5_reduce"
  type: "ReLU"
  bottom: "inception_4a/5x5_reduce"
  top: "inception_4a/5x5_reduce"
}
layer {
  name: "inception_4a/5x5"
  type: "Convolution"
  bottom: "inception_4a/5x5_reduce"
  top: "inception_4a/5x5"
  param {
    lr_mult: 1
    decay_mult: 1
  }
  param {
    lr_mult: 2
    decay_mult: 0
  }
  convolution_param {
    num_output: 48
    pad: 2
    kernel_size: 5
    weight_filler {
      type: "xavier"
    }
    bias_filler {
      type: "constant"
      value: 0.2
    }
  }
}
layer {
  name: "inception_4a/relu_5x5"
  type: "ReLU"
  bottom: "inception_4a/5x5"
  top: "inception_4a/5x5"
}
layer {
  name: "inception_4a/pool"
  type: "Pooling"
  bottom: "pool3/3x3_s2"
  top: "inception_4a/pool"
  pooling_param {
    pool: MAX
    kernel_size: 3
    stride: 1
    pad: 1
  }
}
layer {
  name: "inception_4a/pool_proj"
  type: "Convolution"
  bottom: "inception_4a/pool"
  top: "inception_4a/pool_proj"
  param {
    lr_mult: 1
    decay_mult: 1
  }
  param {
    lr_mult: 2
    decay_mult: 0
  }
  convolution_param {
    num_output: 64
    kernel_size: 1
    weight_filler {
      type: "xavier"
    }
    bias_filler {
      type: "constant"
      value: 0.2
    }
  }
}
layer {
  name: "inception_4a/relu_pool_proj"
  type: "ReLU"
  bottom: "inception_4a/pool_proj"
  top: "inception_4a/pool_proj"
}
layer {
  name: "inception_4a/output"
  type: "Concat"
  bottom: "inception_4a/1x1"
  bottom: "inception_4a/3x3"
  bottom: "inception_4a/5x5"
  bottom: "inception_4a/pool_proj"
  top: "inception_4a/output"
}
layer {
  name: "loss1/ave_pool"
  type: "Pooling"
  bottom: "inception_4a/output"
  top: "loss1/ave_pool"
  pooling_param {
    pool: AVE
    kernel_size: 5
    stride: 3
  }
}
layer {
  name: "loss1/conv"
  type: "Convolution"
  bottom: "loss1/ave_pool"
  top: "loss1/conv"
  param {
    lr_mult: 1
    decay_mult: 1
  }
  param {
    lr_mult: 2
    decay_mult: 0
  }
  convolution_param {
    num_output: 128
    kernel_size: 1
    weight_filler {
      type: "xavier"
    }
    bias_filler {
      type: "constant"
      value: 0.2
    }
  }
}
layer {
  name: "loss1/relu_conv"
  type: "ReLU"
  bottom: "loss1/conv"
  top: "loss1/conv"
}
layer {
  name: "loss1/fc"
  type: "InnerProduct"
  bottom: "loss1/conv"
  top: "loss1/fc"
  param {
    lr_mult: 1
    decay_mult: 1
  }
  param {
    lr_mult: 2
    decay_mult: 0
  }
  inner_product_param {
    num_output: 1024
    weight_filler {
      type: "xavier"
    }
    bias_filler {
      type: "constant"
      value: 0.2
    }
  }
}
layer {
  name: "loss1/relu_fc"
  type: "ReLU"
  bottom: "loss1/fc"
  top: "loss1/fc"
}
layer {
  name: "loss1/drop_fc"
  type: "Dropout"
  bottom: "loss1/fc"
  top: "loss1/fc"
  dropout_param {
    dropout_ratio: 0.7
  }
}
layer {
  name: "loss1/classifier-attribute"
  type: "InnerProduct"
  bottom: "loss1/fc"
  top: "loss1/classifier-attribute"
  param {
    lr_mult: 10
    decay_mult: 1
  }
  param {
    lr_mult: 20
    decay_mult: 0
  }
  inner_product_param {
    num_output: 16
    weight_filler {
      type: "xavier"
    }
    bias_filler {
      type: "constant"
      value: 0
    }
  }
}
layer {
  name: "loss1/loss"
  type: "SoftmaxWithLoss"
  bottom: "loss1/classifier-attribute"
  bottom: "label"
  top: "loss1/loss1"
  loss_weight: 0.3
}
layer {
  name: "inception_4b/1x1"
  type: "Convolution"
  bottom: "inception_4a/output"
  top: "inception_4b/1x1"
  param {
    lr_mult: 1
    decay_mult: 1
  }
  param {
    lr_mult: 2
    decay_mult: 0
  }
  convolution_param {
    num_output: 160
    kernel_size: 1
    weight_filler {
      type: "xavier"
    }
    bias_filler {
      type: "constant"
      value: 0.2
    }
  }
}
layer {
  name: "inception_4b/relu_1x1"
  type: "ReLU"
  bottom: "inception_4b/1x1"
  top: "inception_4b/1x1"
}
layer {
  name: "inception_4b/3x3_reduce"
  type: "Convolution"
  bottom: "inception_4a/output"
  top: "inception_4b/3x3_reduce"
  param {
    lr_mult: 1
    decay_mult: 1
  }
  param {
    lr_mult: 2
    decay_mult: 0
  }
  convolution_param {
    num_output: 112
    kernel_size: 1
    weight_filler {
      type: "xavier"
    }
    bias_filler {
      type: "constant"
      value: 0.2
    }
  }
}
layer {
  name: "inception_4b/relu_3x3_reduce"
  type: "ReLU"
  bottom: "inception_4b/3x3_reduce"
  top: "inception_4b/3x3_reduce"
}
layer {
  name: "inception_4b/3x3"
  type: "Convolution"
  bottom: "inception_4b/3x3_reduce"
  top: "inception_4b/3x3"
  param {
    lr_mult: 1
    decay_mult: 1
  }
  param {
    lr_mult: 2
    decay_mult: 0
  }
  convolution_param {
    num_output: 224
    pad: 1
    kernel_size: 3
    weight_filler {
      type: "xavier"
    }
    bias_filler {
      type: "constant"
      value: 0.2
    }
  }
}
layer {
  name: "inception_4b/relu_3x3"
  type: "ReLU"
  bottom: "inception_4b/3x3"
  top: "inception_4b/3x3"
}
layer {
  name: "inception_4b/5x5_reduce"
  type: "Convolution"
  bottom: "inception_4a/output"
  top: "inception_4b/5x5_reduce"
  param {
    lr_mult: 1
    decay_mult: 1
  }
  param {
    lr_mult: 2
    decay_mult: 0
  }
  convolution_param {
    num_output: 24
    kernel_size: 1
    weight_filler {
      type: "xavier"
    }
    bias_filler {
      type: "constant"
      value: 0.2
    }
  }
}
layer {
  name: "inception_4b/relu_5x5_reduce"
  type: "ReLU"
  bottom: "inception_4b/5x5_reduce"
  top: "inception_4b/5x5_reduce"
}
layer {
  name: "inception_4b/5x5"
  type: "Convolution"
  bottom: "inception_4b/5x5_reduce"
  top: "inception_4b/5x5"
  param {
    lr_mult: 1
    decay_mult: 1
  }
  param {
    lr_mult: 2
    decay_mult: 0
  }
  convolution_param {
    num_output: 64
    pad: 2
    kernel_size: 5
    weight_filler {
      type: "xavier"
    }
    bias_filler {
      type: "constant"
      value: 0.2
    }
  }
}
layer {
  name: "inception_4b/relu_5x5"
  type: "ReLU"
  bottom: "inception_4b/5x5"
  top: "inception_4b/5x5"
}
layer {
  name: "inception_4b/pool"
  type: "Pooling"
  bottom: "inception_4a/output"
  top: "inception_4b/pool"
  pooling_param {
    pool: MAX
    kernel_size: 3
    stride: 1
    pad: 1
  }
}
layer {
  name: "inception_4b/pool_proj"
  type: "Convolution"
  bottom: "inception_4b/pool"
  top: "inception_4b/pool_proj"
  param {
    lr_mult: 1
    decay_mult: 1
  }
  param {
    lr_mult: 2
    decay_mult: 0
  }
  convolution_param {
    num_output: 64
    kernel_size: 1
    weight_filler {
      type: "xavier"
    }
    bias_filler {
      type: "constant"
      value: 0.2
    }
  }
}
layer {
  name: "inception_4b/relu_pool_proj"
  type: "ReLU"
  bottom: "inception_4b/pool_proj"
  top: "inception_4b/pool_proj"
}
layer {
  name: "inception_4b/output"
  type: "Concat"
  bottom: "inception_4b/1x1"
  bottom: "inception_4b/3x3"
  bottom: "inception_4b/5x5"
  bottom: "inception_4b/pool_proj"
  top: "inception_4b/output"
}
layer {
  name: "inception_4c/1x1"
  type: "Convolution"
  bottom: "inception_4b/output"
  top: "inception_4c/1x1"
  param {
    lr_mult: 1
    decay_mult: 1
  }
  param {
    lr_mult: 2
    decay_mult: 0
  }
  convolution_param {
    num_output: 128
    kernel_size: 1
    weight_filler {
      type: "xavier"
    }
    bias_filler {
      type: "constant"
      value: 0.2
    }
  }
}
layer {
  name: "inception_4c/relu_1x1"
  type: "ReLU"
  bottom: "inception_4c/1x1"
  top: "inception_4c/1x1"
}
layer {
  name: "inception_4c/3x3_reduce"
  type: "Convolution"
  bottom: "inception_4b/output"
  top: "inception_4c/3x3_reduce"
  param {
    lr_mult: 1
    decay_mult: 1
  }
  param {
    lr_mult: 2
    decay_mult: 0
  }
  convolution_param {
    num_output: 128
    kernel_size: 1
    weight_filler {
      type: "xavier"
    }
    bias_filler {
      type: "constant"
      value: 0.2
    }
  }
}
layer {
  name: "inception_4c/relu_3x3_reduce"
  type: "ReLU"
  bottom: "inception_4c/3x3_reduce"
  top: "inception_4c/3x3_reduce"
}
layer {
  name: "inception_4c/3x3"
  type: "Convolution"
  bottom: "inception_4c/3x3_reduce"
  top: "inception_4c/3x3"
  param {
    lr_mult: 1
    decay_mult: 1
  }
  param {
    lr_mult: 2
    decay_mult: 0
  }
  convolution_param {
    num_output: 256
    pad: 1
    kernel_size: 3
    weight_filler {
      type: "xavier"
    }
    bias_filler {
      type: "constant"
      value: 0.2
    }
  }
}
layer {
  name: "inception_4c/relu_3x3"
  type: "ReLU"
  bottom: "inception_4c/3x3"
  top: "inception_4c/3x3"
}
layer {
  name: "inception_4c/5x5_reduce"
  type: "Convolution"
  bottom: "inception_4b/output"
  top: "inception_4c/5x5_reduce"
  param {
    lr_mult: 1
    decay_mult: 1
  }
  param {
    lr_mult: 2
    decay_mult: 0
  }
  convolution_param {
    num_output: 24
    kernel_size: 1
    weight_filler {
      type: "xavier"
    }
    bias_filler {
      type: "constant"
      value: 0.2
    }
  }
}
layer {
  name: "inception_4c/relu_5x5_reduce"
  type: "ReLU"
  bottom: "inception_4c/5x5_reduce"
  top: "inception_4c/5x5_reduce"
}
layer {
  name: "inception_4c/5x5"
  type: "Convolution"
  bottom: "inception_4c/5x5_reduce"
  top: "inception_4c/5x5"
  param {
    lr_mult: 1
    decay_mult: 1
  }
  param {
    lr_mult: 2
    decay_mult: 0
  }
  convolution_param {
    num_output: 64
    pad: 2
    kernel_size: 5
    weight_filler {
      type: "xavier"
    }
    bias_filler {
      type: "constant"
      value: 0.2
    }
  }
}
layer {
  name: "inception_4c/relu_5x5"
  type: "ReLU"
  bottom: "inception_4c/5x5"
  top: "inception_4c/5x5"
}
layer {
  name: "inception_4c/pool"
  type: "Pooling"
  bottom: "inception_4b/output"
  top: "inception_4c/pool"
  pooling_param {
    pool: MAX
    kernel_size: 3
    stride: 1
    pad: 1
  }
}
layer {
  name: "inception_4c/pool_proj"
  type: "Convolution"
  bottom: "inception_4c/pool"
  top: "inception_4c/pool_proj"
  param {
    lr_mult: 1
    decay_mult: 1
  }
  param {
    lr_mult: 2
    decay_mult: 0
  }
  convolution_param {
    num_output: 64
    kernel_size: 1
    weight_filler {
      type: "xavier"
    }
    bias_filler {
      type: "constant"
      value: 0.2
    }
  }
}
layer {
  name: "inception_4c/relu_pool_proj"
  type: "ReLU"
  bottom: "inception_4c/pool_proj"
  top: "inception_4c/pool_proj"
}
layer {
  name: "inception_4c/output"
  type: "Concat"
  bottom: "inception_4c/1x1"
  bottom: "inception_4c/3x3"
  bottom: "inception_4c/5x5"
  bottom: "inception_4c/pool_proj"
  top: "inception_4c/output"
}
layer {
  name: "inception_4d/1x1"
  type: "Convolution"
  bottom: "inception_4c/output"
  top: "inception_4d/1x1"
  param {
    lr_mult: 1
    decay_mult: 1
  }
  param {
    lr_mult: 2
    decay_mult: 0
  }
  convolution_param {
    num_output: 112
    kernel_size: 1
    weight_filler {
      type: "xavier"
    }
    bias_filler {
      type: "constant"
      value: 0.2
    }
  }
}
layer {
  name: "inception_4d/relu_1x1"
  type: "ReLU"
  bottom: "inception_4d/1x1"
  top: "inception_4d/1x1"
}
layer {
  name: "inception_4d/3x3_reduce"
  type: "Convolution"
  bottom: "inception_4c/output"
  top: "inception_4d/3x3_reduce"
  param {
    lr_mult: 1
    decay_mult: 1
  }
  param {
    lr_mult: 2
    decay_mult: 0
  }
  convolution_param {
    num_output: 144
    kernel_size: 1
    weight_filler {
      type: "xavier"
    }
    bias_filler {
      type: "constant"
      value: 0.2
    }
  }
}
layer {
  name: "inception_4d/relu_3x3_reduce"
  type: "ReLU"
  bottom: "inception_4d/3x3_reduce"
  top: "inception_4d/3x3_reduce"
}
layer {
  name: "inception_4d/3x3"
  type: "Convolution"
  bottom: "inception_4d/3x3_reduce"
  top: "inception_4d/3x3"
  param {
    lr_mult: 1
    decay_mult: 1
  }
  param {
    lr_mult: 2
    decay_mult: 0
  }
  convolution_param {
    num_output: 288
    pad: 1
    kernel_size: 3
    weight_filler {
      type: "xavier"
    }
    bias_filler {
      type: "constant"
      value: 0.2
    }
  }
}
layer {
  name: "inception_4d/relu_3x3"
  type: "ReLU"
  bottom: "inception_4d/3x3"
  top: "inception_4d/3x3"
}
layer {
  name: "inception_4d/5x5_reduce"
  type: "Convolution"
  bottom: "inception_4c/output"
  top: "inception_4d/5x5_reduce"
  param {
    lr_mult: 1
    decay_mult: 1
  }
  param {
    lr_mult: 2
    decay_mult: 0
  }
  convolution_param {
    num_output: 32
    kernel_size: 1
    weight_filler {
      type: "xavier"
    }
    bias_filler {
      type: "constant"
      value: 0.2
    }
  }
}
layer {
  name: "inception_4d/relu_5x5_reduce"
  type: "ReLU"
  bottom: "inception_4d/5x5_reduce"
  top: "inception_4d/5x5_reduce"
}
layer {
  name: "inception_4d/5x5"
  type: "Convolution"
  bottom: "inception_4d/5x5_reduce"
  top: "inception_4d/5x5"
  param {
    lr_mult: 1
    decay_mult: 1
  }
  param {
    lr_mult: 2
    decay_mult: 0
  }
  convolution_param {
    num_output: 64
    pad: 2
    kernel_size: 5
    weight_filler {
      type: "xavier"
    }
    bias_filler {
      type: "constant"
      value: 0.2
    }
  }
}
layer {
  name: "inception_4d/relu_5x5"
  type: "ReLU"
  bottom: "inception_4d/5x5"
  top: "inception_4d/5x5"
}
layer {
  name: "inception_4d/pool"
  type: "Pooling"
  bottom: "inception_4c/output"
  top: "inception_4d/pool"
  pooling_param {
    pool: MAX
    kernel_size: 3
    stride: 1
    pad: 1
  }
}
layer {
  name: "inception_4d/pool_proj"
  type: "Convolution"
  bottom: "inception_4d/pool"
  top: "inception_4d/pool_proj"
  param {
    lr_mult: 1
    decay_mult: 1
  }
  param {
    lr_mult: 2
    decay_mult: 0
  }
  convolution_param {
    num_output: 64
    kernel_size: 1
    weight_filler {
      type: "xavier"
    }
    bias_filler {
      type: "constant"
      value: 0.2
    }
  }
}
layer {
  name: "inception_4d/relu_pool_proj"
  type: "ReLU"
  bottom: "inception_4d/pool_proj"
  top: "inception_4d/pool_proj"
}
layer {
  name: "inception_4d/output"
  type: "Concat"
  bottom: "inception_4d/1x1"
  bottom: "inception_4d/3x3"
  bottom: "inception_4d/5x5"
  bottom: "inception_4d/pool_proj"
  top: "inception_4d/output"
}
layer {
  name: "loss2/ave_pool"
  type: "Pooling"
  bottom: "inception_4d/output"
  top: "loss2/ave_pool"
  pooling_param {
    pool: AVE
    kernel_size: 5
    stride: 3
  }
}
layer {
  name: "loss2/conv"
  type: "Convolution"
  bottom: "loss2/ave_pool"
  top: "loss2/conv"
  param {
    lr_mult: 1
    decay_mult: 1
  }
  param {
    lr_mult: 2
    decay_mult: 0
  }
  convolution_param {
    num_output: 128
    kernel_size: 1
    weight_filler {
      type: "xavier"
    }
    bias_filler {
      type: "constant"
      value: 0.2
    }
  }
}
layer {
  name: "loss2/relu_conv"
  type: "ReLU"
  bottom: "loss2/conv"
  top: "loss2/conv"
}
layer {
  name: "loss2/fc"
  type: "InnerProduct"
  bottom: "loss2/conv"
  top: "loss2/fc"
  param {
    lr_mult: 1
    decay_mult: 1
  }
  param {
    lr_mult: 2
    decay_mult: 0
  }
  inner_product_param {
    num_output: 1024
    weight_filler {
      type: "xavier"
    }
    bias_filler {
      type: "constant"
      value: 0.2
    }
  }
}
layer {
  name: "loss2/relu_fc"
  type: "ReLU"
  bottom: "loss2/fc"
  top: "loss2/fc"
}
layer {
  name: "loss2/drop_fc"
  type: "Dropout"
  bottom: "loss2/fc"
  top: "loss2/fc"
  dropout_param {
    dropout_ratio: 0.7
  }
}
layer {
  name: "loss2/classifier-attribute"
  type: "InnerProduct"
  bottom: "loss2/fc"
  top: "loss2/classifier-attribute"
  param {
    lr_mult: 10
    decay_mult: 1
  }
  param {
    lr_mult: 20
    decay_mult: 0
  }
  inner_product_param {
    num_output: 16
    weight_filler {
      type: "xavier"
    }
    bias_filler {
      type: "constant"
      value: 0
    }
  }
}
layer {
  name: "loss2/loss"
  type: "SoftmaxWithLoss"
  bottom: "loss2/classifier-attribute"
  bottom: "label"
  top: "loss2/loss1"
  loss_weight: 0.3
}
layer {
  name: "inception_4e/1x1"
  type: "Convolution"
  bottom: "inception_4d/output"
  top: "inception_4e/1x1"
  param {
    lr_mult: 1
    decay_mult: 1
  }
  param {
    lr_mult: 2
    decay_mult: 0
  }
  convolution_param {
    num_output: 256
    kernel_size: 1
    weight_filler {
      type: "xavier"
    }
    bias_filler {
      type: "constant"
      value: 0.2
    }
  }
}
layer {
  name: "inception_4e/relu_1x1"
  type: "ReLU"
  bottom: "inception_4e/1x1"
  top: "inception_4e/1x1"
}
layer {
  name: "inception_4e/3x3_reduce"
  type: "Convolution"
  bottom: "inception_4d/output"
  top: "inception_4e/3x3_reduce"
  param {
    lr_mult: 1
    decay_mult: 1
  }
  param {
    lr_mult: 2
    decay_mult: 0
  }
  convolution_param {
    num_output: 160
    kernel_size: 1
    weight_filler {
      type: "xavier"
    }
    bias_filler {
      type: "constant"
      value: 0.2
    }
  }
}
layer {
  name: "inception_4e/relu_3x3_reduce"
  type: "ReLU"
  bottom: "inception_4e/3x3_reduce"
  top: "inception_4e/3x3_reduce"
}
layer {
  name: "inception_4e/3x3"
  type: "Convolution"
  bottom: "inception_4e/3x3_reduce"
  top: "inception_4e/3x3"
  param {
    lr_mult: 1
    decay_mult: 1
  }
  param {
    lr_mult: 2
    decay_mult: 0
  }
  convolution_param {
    num_output: 320
    pad: 1
    kernel_size: 3
    weight_filler {
      type: "xavier"
    }
    bias_filler {
      type: "constant"
      value: 0.2
    }
  }
}
layer {
  name: "inception_4e/relu_3x3"
  type: "ReLU"
  bottom: "inception_4e/3x3"
  top: "inception_4e/3x3"
}
layer {
  name: "inception_4e/5x5_reduce"
  type: "Convolution"
  bottom: "inception_4d/output"
  top: "inception_4e/5x5_reduce"
  param {
    lr_mult: 1
    decay_mult: 1
  }
  param {
    lr_mult: 2
    decay_mult: 0
  }
  convolution_param {
    num_output: 32
    kernel_size: 1
    weight_filler {
      type: "xavier"
    }
    bias_filler {
      type: "constant"
      value: 0.2
    }
  }
}
layer {
  name: "inception_4e/relu_5x5_reduce"
  type: "ReLU"
  bottom: "inception_4e/5x5_reduce"
  top: "inception_4e/5x5_reduce"
}
layer {
  name: "inception_4e/5x5"
  type: "Convolution"
  bottom: "inception_4e/5x5_reduce"
  top: "inception_4e/5x5"
  param {
    lr_mult: 1
    decay_mult: 1
  }
  param {
    lr_mult: 2
    decay_mult: 0
  }
  convolution_param {
    num_output: 128
    pad: 2
    kernel_size: 5
    weight_filler {
      type: "xavier"
    }
    bias_filler {
      type: "constant"
      value: 0.2
    }
  }
}
layer {
  name: "inception_4e/relu_5x5"
  type: "ReLU"
  bottom: "inception_4e/5x5"
  top: "inception_4e/5x5"
}
layer {
  name: "inception_4e/pool"
  type: "Pooling"
  bottom: "inceptio
I1124 22:50:55.166296 14720 layer_factory.hpp:76] Creating layer data
I1124 22:50:55.166345 14720 net.cpp:106] Creating Layer data
I1124 22:50:55.166357 14720 net.cpp:411] data -> data
I1124 22:50:55.166390 14720 net.cpp:411] data -> label
I1124 22:50:55.166873 14720 image_data_layer.cpp:36] Opening file pad_train.txt
I1124 22:50:55.390992 14720 image_data_layer.cpp:46] Shuffling data
I1124 22:50:55.418066 14720 image_data_layer.cpp:51] A total of 193988 images.
I1124 22:50:55.436864 14720 image_data_layer.cpp:78] output data size: 64,3,224,224
I1124 22:50:55.490011 14720 net.cpp:150] Setting up data
I1124 22:50:55.490078 14720 net.cpp:157] Top shape: 64 3 224 224 (9633792)
I1124 22:50:55.490085 14720 net.cpp:157] Top shape: 64 (64)
I1124 22:50:55.490089 14720 net.cpp:165] Memory required for data: 38535424
I1124 22:50:55.490097 14720 layer_factory.hpp:76] Creating layer label_data_1_split
I1124 22:50:55.490113 14720 net.cpp:106] Creating Layer label_data_1_split
I1124 22:50:55.490119 14720 net.cpp:454] label_data_1_split <- label
I1124 22:50:55.490133 14720 net.cpp:411] label_data_1_split -> label_data_1_split_0
I1124 22:50:55.490142 14720 net.cpp:411] label_data_1_split -> label_data_1_split_1
I1124 22:50:55.490149 14720 net.cpp:411] label_data_1_split -> label_data_1_split_2
I1124 22:50:55.490264 14720 net.cpp:150] Setting up label_data_1_split
I1124 22:50:55.490275 14720 net.cpp:157] Top shape: 64 (64)
I1124 22:50:55.490279 14720 net.cpp:157] Top shape: 64 (64)
I1124 22:50:55.490283 14720 net.cpp:157] Top shape: 64 (64)
I1124 22:50:55.490286 14720 net.cpp:165] Memory required for data: 38536192
I1124 22:50:55.490290 14720 layer_factory.hpp:76] Creating layer conv1/7x7_s2
I1124 22:50:55.490306 14720 net.cpp:106] Creating Layer conv1/7x7_s2
I1124 22:50:55.490310 14720 net.cpp:454] conv1/7x7_s2 <- data
I1124 22:50:55.490316 14720 net.cpp:411] conv1/7x7_s2 -> conv1/7x7_s2
I1124 22:50:55.647291 14720 net.cpp:150] Setting up conv1/7x7_s2
I1124 22:50:55.647318 14720 net.cpp:157] Top shape: 64 64 112 112 (51380224)
I1124 22:50:55.647323 14720 net.cpp:165] Memory required for data: 244057088
I1124 22:50:55.647346 14720 layer_factory.hpp:76] Creating layer conv1/relu_7x7
I1124 22:50:55.647359 14720 net.cpp:106] Creating Layer conv1/relu_7x7
I1124 22:50:55.647367 14720 net.cpp:454] conv1/relu_7x7 <- conv1/7x7_s2
I1124 22:50:55.647373 14720 net.cpp:397] conv1/relu_7x7 -> conv1/7x7_s2 (in-place)
I1124 22:50:55.647660 14720 net.cpp:150] Setting up conv1/relu_7x7
I1124 22:50:55.647675 14720 net.cpp:157] Top shape: 64 64 112 112 (51380224)
I1124 22:50:55.647678 14720 net.cpp:165] Memory required for data: 449577984
I1124 22:50:55.647681 14720 layer_factory.hpp:76] Creating layer pool1/3x3_s2
I1124 22:50:55.647691 14720 net.cpp:106] Creating Layer pool1/3x3_s2
I1124 22:50:55.647698 14720 net.cpp:454] pool1/3x3_s2 <- conv1/7x7_s2
I1124 22:50:55.647704 14720 net.cpp:411] pool1/3x3_s2 -> pool1/3x3_s2
I1124 22:50:55.647893 14720 net.cpp:150] Setting up pool1/3x3_s2
I1124 22:50:55.647905 14720 net.cpp:157] Top shape: 64 64 56 56 (12845056)
I1124 22:50:55.647908 14720 net.cpp:165] Memory required for data: 500958208
I1124 22:50:55.647912 14720 layer_factory.hpp:76] Creating layer pool1/norm1
I1124 22:50:55.647924 14720 net.cpp:106] Creating Layer pool1/norm1
I1124 22:50:55.647929 14720 net.cpp:454] pool1/norm1 <- pool1/3x3_s2
I1124 22:50:55.647934 14720 net.cpp:411] pool1/norm1 -> pool1/norm1
I1124 22:50:55.648272 14720 net.cpp:150] Setting up pool1/norm1
I1124 22:50:55.648286 14720 net.cpp:157] Top shape: 64 64 56 56 (12845056)
I1124 22:50:55.648290 14720 net.cpp:165] Memory required for data: 552338432
I1124 22:50:55.648294 14720 layer_factory.hpp:76] Creating layer conv2/3x3_reduce
I1124 22:50:55.648305 14720 net.cpp:106] Creating Layer conv2/3x3_reduce
I1124 22:50:55.648309 14720 net.cpp:454] conv2/3x3_reduce <- pool1/norm1
I1124 22:50:55.648316 14720 net.cpp:411] conv2/3x3_reduce -> conv2/3x3_reduce
I1124 22:50:55.649631 14720 net.cpp:150] Setting up conv2/3x3_reduce
I1124 22:50:55.649647 14720 net.cpp:157] Top shape: 64 64 56 56 (12845056)
I1124 22:50:55.649652 14720 net.cpp:165] Memory required for data: 603718656
I1124 22:50:55.649660 14720 layer_factory.hpp:76] Creating layer conv2/relu_3x3_reduce
I1124 22:50:55.649668 14720 net.cpp:106] Creating Layer conv2/relu_3x3_reduce
I1124 22:50:55.649673 14720 net.cpp:454] conv2/relu_3x3_reduce <- conv2/3x3_reduce
I1124 22:50:55.649679 14720 net.cpp:397] conv2/relu_3x3_reduce -> conv2/3x3_reduce (in-place)
I1124 22:50:55.649966 14720 net.cpp:150] Setting up conv2/relu_3x3_reduce
I1124 22:50:55.649981 14720 net.cpp:157] Top shape: 64 64 56 56 (12845056)
I1124 22:50:55.649984 14720 net.cpp:165] Memory required for data: 655098880
I1124 22:50:55.649988 14720 layer_factory.hpp:76] Creating layer conv2/3x3
I1124 22:50:55.650001 14720 net.cpp:106] Creating Layer conv2/3x3
I1124 22:50:55.650004 14720 net.cpp:454] conv2/3x3 <- conv2/3x3_reduce
I1124 22:50:55.650010 14720 net.cpp:411] conv2/3x3 -> conv2/3x3
I1124 22:50:55.652072 14720 net.cpp:150] Setting up conv2/3x3
I1124 22:50:55.652087 14720 net.cpp:157] Top shape: 64 192 56 56 (38535168)
I1124 22:50:55.652091 14720 net.cpp:165] Memory required for data: 809239552
I1124 22:50:55.652102 14720 layer_factory.hpp:76] Creating layer conv2/relu_3x3
I1124 22:50:55.652109 14720 net.cpp:106] Creating Layer conv2/relu_3x3
I1124 22:50:55.652114 14720 net.cpp:454] conv2/relu_3x3 <- conv2/3x3
I1124 22:50:55.652120 14720 net.cpp:397] conv2/relu_3x3 -> conv2/3x3 (in-place)
I1124 22:50:55.652281 14720 net.cpp:150] Setting up conv2/relu_3x3
I1124 22:50:55.652292 14720 net.cpp:157] Top shape: 64 192 56 56 (38535168)
I1124 22:50:55.652297 14720 net.cpp:165] Memory required for data: 963380224
I1124 22:50:55.652299 14720 layer_factory.hpp:76] Creating layer conv2/norm2
I1124 22:50:55.652307 14720 net.cpp:106] Creating Layer conv2/norm2
I1124 22:50:55.652312 14720 net.cpp:454] conv2/norm2 <- conv2/3x3
I1124 22:50:55.652318 14720 net.cpp:411] conv2/norm2 -> conv2/norm2
I1124 22:50:55.652645 14720 net.cpp:150] Setting up conv2/norm2
I1124 22:50:55.652659 14720 net.cpp:157] Top shape: 64 192 56 56 (38535168)
I1124 22:50:55.652663 14720 net.cpp:165] Memory required for data: 1117520896
I1124 22:50:55.652667 14720 layer_factory.hpp:76] Creating layer pool2/3x3_s2
I1124 22:50:55.652673 14720 net.cpp:106] Creating Layer pool2/3x3_s2
I1124 22:50:55.652678 14720 net.cpp:454] pool2/3x3_s2 <- conv2/norm2
I1124 22:50:55.652683 14720 net.cpp:411] pool2/3x3_s2 -> pool2/3x3_s2
I1124 22:50:55.652863 14720 net.cpp:150] Setting up pool2/3x3_s2
I1124 22:50:55.652874 14720 net.cpp:157] Top shape: 64 192 28 28 (9633792)
I1124 22:50:55.652878 14720 net.cpp:165] Memory required for data: 1156056064
I1124 22:50:55.652881 14720 layer_factory.hpp:76] Creating layer pool2/3x3_s2_pool2/3x3_s2_0_split
I1124 22:50:55.652889 14720 net.cpp:106] Creating Layer pool2/3x3_s2_pool2/3x3_s2_0_split
I1124 22:50:55.652892 14720 net.cpp:454] pool2/3x3_s2_pool2/3x3_s2_0_split <- pool2/3x3_s2
I1124 22:50:55.652899 14720 net.cpp:411] pool2/3x3_s2_pool2/3x3_s2_0_split -> pool2/3x3_s2_pool2/3x3_s2_0_split_0
I1124 22:50:55.652904 14720 net.cpp:411] pool2/3x3_s2_pool2/3x3_s2_0_split -> pool2/3x3_s2_pool2/3x3_s2_0_split_1
I1124 22:50:55.652910 14720 net.cpp:411] pool2/3x3_s2_pool2/3x3_s2_0_split -> pool2/3x3_s2_pool2/3x3_s2_0_split_2
I1124 22:50:55.652916 14720 net.cpp:411] pool2/3x3_s2_pool2/3x3_s2_0_split -> pool2/3x3_s2_pool2/3x3_s2_0_split_3
I1124 22:50:55.652968 14720 net.cpp:150] Setting up pool2/3x3_s2_pool2/3x3_s2_0_split
I1124 22:50:55.652976 14720 net.cpp:157] Top shape: 64 192 28 28 (9633792)
I1124 22:50:55.652981 14720 net.cpp:157] Top shape: 64 192 28 28 (9633792)
I1124 22:50:55.652984 14720 net.cpp:157] Top shape: 64 192 28 28 (9633792)
I1124 22:50:55.652988 14720 net.cpp:157] Top shape: 64 192 28 28 (9633792)
I1124 22:50:55.652990 14720 net.cpp:165] Memory required for data: 1310196736
I1124 22:50:55.652994 14720 layer_factory.hpp:76] Creating layer inception_3a/1x1
I1124 22:50:55.653003 14720 net.cpp:106] Creating Layer inception_3a/1x1
I1124 22:50:55.653008 14720 net.cpp:454] inception_3a/1x1 <- pool2/3x3_s2_pool2/3x3_s2_0_split_0
I1124 22:50:55.653017 14720 net.cpp:411] inception_3a/1x1 -> inception_3a/1x1
I1124 22:50:55.654456 14720 net.cpp:150] Setting up inception_3a/1x1
I1124 22:50:55.654472 14720 net.cpp:157] Top shape: 64 64 28 28 (3211264)
I1124 22:50:55.654475 14720 net.cpp:165] Memory required for data: 1323041792
I1124 22:50:55.654482 14720 layer_factory.hpp:76] Creating layer inception_3a/relu_1x1
I1124 22:50:55.654490 14720 net.cpp:106] Creating Layer inception_3a/relu_1x1
I1124 22:50:55.654495 14720 net.cpp:454] inception_3a/relu_1x1 <- inception_3a/1x1
I1124 22:50:55.654500 14720 net.cpp:397] inception_3a/relu_1x1 -> inception_3a/1x1 (in-place)
I1124 22:50:55.654824 14720 net.cpp:150] Setting up inception_3a/relu_1x1
I1124 22:50:55.654837 14720 net.cpp:157] Top shape: 64 64 28 28 (3211264)
I1124 22:50:55.654841 14720 net.cpp:165] Memory required for data: 1335886848
I1124 22:50:55.654844 14720 layer_factory.hpp:76] Creating layer inception_3a/3x3_reduce
I1124 22:50:55.654855 14720 net.cpp:106] Creating Layer inception_3a/3x3_reduce
I1124 22:50:55.654858 14720 net.cpp:454] inception_3a/3x3_reduce <- pool2/3x3_s2_pool2/3x3_s2_0_split_1
I1124 22:50:55.654865 14720 net.cpp:411] inception_3a/3x3_reduce -> inception_3a/3x3_reduce
I1124 22:50:55.656371 14720 net.cpp:150] Setting up inception_3a/3x3_reduce
I1124 22:50:55.656388 14720 net.cpp:157] Top shape: 64 96 28 28 (4816896)
I1124 22:50:55.656391 14720 net.cpp:165] Memory required for data: 1355154432
I1124 22:50:55.656402 14720 layer_factory.hpp:76] Creating layer inception_3a/relu_3x3_reduce
I1124 22:50:55.656411 14720 net.cpp:106] Creating Layer inception_3a/relu_3x3_reduce
I1124 22:50:55.656415 14720 net.cpp:454] inception_3a/relu_3x3_reduce <- inception_3a/3x3_reduce
I1124 22:50:55.656420 14720 net.cpp:397] inception_3a/relu_3x3_reduce -> inception_3a/3x3_reduce (in-place)
I1124 22:50:55.656585 14720 net.cpp:150] Setting up inception_3a/relu_3x3_reduce
I1124 22:50:55.656596 14720 net.cpp:157] Top shape: 64 96 28 28 (4816896)
I1124 22:50:55.656599 14720 net.cpp:165] Memory required for data: 1374422016
I1124 22:50:55.656602 14720 layer_factory.hpp:76] Creating layer inception_3a/3x3
I1124 22:50:55.656611 14720 net.cpp:106] Creating Layer inception_3a/3x3
I1124 22:50:55.656615 14720 net.cpp:454] inception_3a/3x3 <- inception_3a/3x3_reduce
I1124 22:50:55.656621 14720 net.cpp:411] inception_3a/3x3 -> inception_3a/3x3
I1124 22:50:55.658399 14720 net.cpp:150] Setting up inception_3a/3x3
I1124 22:50:55.658416 14720 net.cpp:157] Top shape: 64 128 28 28 (6422528)
I1124 22:50:55.658418 14720 net.cpp:165] Memory required for data: 1400112128
I1124 22:50:55.658426 14720 layer_factory.hpp:76] Creating layer inception_3a/relu_3x3
I1124 22:50:55.658432 14720 net.cpp:106] Creating Layer inception_3a/relu_3x3
I1124 22:50:55.658434 14720 net.cpp:454] inception_3a/relu_3x3 <- inception_3a/3x3
I1124 22:50:55.658442 14720 net.cpp:397] inception_3a/relu_3x3 -> inception_3a/3x3 (in-place)
I1124 22:50:55.658604 14720 net.cpp:150] Setting up inception_3a/relu_3x3
I1124 22:50:55.658617 14720 net.cpp:157] Top shape: 64 128 28 28 (6422528)
I1124 22:50:55.658620 14720 net.cpp:165] Memory required for data: 1425802240
I1124 22:50:55.658623 14720 layer_factory.hpp:76] Creating layer inception_3a/5x5_reduce
I1124 22:50:55.658632 14720 net.cpp:106] Creating Layer inception_3a/5x5_reduce
I1124 22:50:55.658635 14720 net.cpp:454] inception_3a/5x5_reduce <- pool2/3x3_s2_pool2/3x3_s2_0_split_2
I1124 22:50:55.658643 14720 net.cpp:411] inception_3a/5x5_reduce -> inception_3a/5x5_reduce
I1124 22:50:55.659611 14720 net.cpp:150] Setting up inception_3a/5x5_reduce
I1124 22:50:55.659626 14720 net.cpp:157] Top shape: 64 16 28 28 (802816)
I1124 22:50:55.659631 14720 net.cpp:165] Memory required for data: 1429013504
I1124 22:50:55.659637 14720 layer_factory.hpp:76] Creating layer inception_3a/relu_5x5_reduce
I1124 22:50:55.659643 14720 net.cpp:106] Creating Layer inception_3a/relu_5x5_reduce
I1124 22:50:55.659647 14720 net.cpp:454] inception_3a/relu_5x5_reduce <- inception_3a/5x5_reduce
I1124 22:50:55.659654 14720 net.cpp:397] inception_3a/relu_5x5_reduce -> inception_3a/5x5_reduce (in-place)
I1124 22:50:55.659958 14720 net.cpp:150] Setting up inception_3a/relu_5x5_reduce
I1124 22:50:55.659972 14720 net.cpp:157] Top shape: 64 16 28 28 (802816)
I1124 22:50:55.659976 14720 net.cpp:165] Memory required for data: 1432224768
I1124 22:50:55.659981 14720 layer_factory.hpp:76] Creating layer inception_3a/5x5
I1124 22:50:55.659989 14720 net.cpp:106] Creating Layer inception_3a/5x5
I1124 22:50:55.659993 14720 net.cpp:454] inception_3a/5x5 <- inception_3a/5x5_reduce
I1124 22:50:55.660001 14720 net.cpp:411] inception_3a/5x5 -> inception_3a/5x5
I1124 22:50:55.661026 14720 net.cpp:150] Setting up inception_3a/5x5
I1124 22:50:55.661041 14720 net.cpp:157] Top shape: 64 32 28 28 (1605632)
I1124 22:50:55.661044 14720 net.cpp:165] Memory required for data: 1438647296
I1124 22:50:55.661051 14720 layer_factory.hpp:76] Creating layer inception_3a/relu_5x5
I1124 22:50:55.661056 14720 net.cpp:106] Creating Layer inception_3a/relu_5x5
I1124 22:50:55.661061 14720 net.cpp:454] inception_3a/relu_5x5 <- inception_3a/5x5
I1124 22:50:55.661067 14720 net.cpp:397] inception_3a/relu_5x5 -> inception_3a/5x5 (in-place)
I1124 22:50:55.661227 14720 net.cpp:150] Setting up inception_3a/relu_5x5
I1124 22:50:55.661238 14720 net.cpp:157] Top shape: 64 32 28 28 (1605632)
I1124 22:50:55.661242 14720 net.cpp:165] Memory required for data: 1445069824
I1124 22:50:55.661245 14720 layer_factory.hpp:76] Creating layer inception_3a/pool
I1124 22:50:55.661252 14720 net.cpp:106] Creating Layer inception_3a/pool
I1124 22:50:55.661255 14720 net.cpp:454] inception_3a/pool <- pool2/3x3_s2_pool2/3x3_s2_0_split_3
I1124 22:50:55.661260 14720 net.cpp:411] inception_3a/pool -> inception_3a/pool
I1124 22:50:55.661581 14720 net.cpp:150] Setting up inception_3a/pool
I1124 22:50:55.661594 14720 net.cpp:157] Top shape: 64 192 28 28 (9633792)
I1124 22:50:55.661597 14720 net.cpp:165] Memory required for data: 1483604992
I1124 22:50:55.661600 14720 layer_factory.hpp:76] Creating layer inception_3a/pool_proj
I1124 22:50:55.661610 14720 net.cpp:106] Creating Layer inception_3a/pool_proj
I1124 22:50:55.661614 14720 net.cpp:454] inception_3a/pool_proj <- inception_3a/pool
I1124 22:50:55.661622 14720 net.cpp:411] inception_3a/pool_proj -> inception_3a/pool_proj
I1124 22:50:55.662487 14720 net.cpp:150] Setting up inception_3a/pool_proj
I1124 22:50:55.662502 14720 net.cpp:157] Top shape: 64 32 28 28 (1605632)
I1124 22:50:55.662505 14720 net.cpp:165] Memory required for data: 1490027520
I1124 22:50:55.662514 14720 layer_factory.hpp:76] Creating layer inception_3a/relu_pool_proj
I1124 22:50:55.662520 14720 net.cpp:106] Creating Layer inception_3a/relu_pool_proj
I1124 22:50:55.662524 14720 net.cpp:454] inception_3a/relu_pool_proj <- inception_3a/pool_proj
I1124 22:50:55.662531 14720 net.cpp:397] inception_3a/relu_pool_proj -> inception_3a/pool_proj (in-place)
I1124 22:50:55.662828 14720 net.cpp:150] Setting up inception_3a/relu_pool_proj
I1124 22:50:55.662842 14720 net.cpp:157] Top shape: 64 32 28 28 (1605632)
I1124 22:50:55.662847 14720 net.cpp:165] Memory required for data: 1496450048
I1124 22:50:55.662850 14720 layer_factory.hpp:76] Creating layer inception_3a/output
I1124 22:50:55.662861 14720 net.cpp:106] Creating Layer inception_3a/output
I1124 22:50:55.662865 14720 net.cpp:454] inception_3a/output <- inception_3a/1x1
I1124 22:50:55.662870 14720 net.cpp:454] inception_3a/output <- inception_3a/3x3
I1124 22:50:55.662874 14720 net.cpp:454] inception_3a/output <- inception_3a/5x5
I1124 22:50:55.662878 14720 net.cpp:454] inception_3a/output <- inception_3a/pool_proj
I1124 22:50:55.662883 14720 net.cpp:411] inception_3a/output -> inception_3a/output
I1124 22:50:55.662916 14720 net.cpp:150] Setting up inception_3a/output
I1124 22:50:55.662922 14720 net.cpp:157] Top shape: 64 256 28 28 (12845056)
I1124 22:50:55.662925 14720 net.cpp:165] Memory required for data: 1547830272
I1124 22:50:55.662928 14720 layer_factory.hpp:76] Creating layer inception_3a/output_inception_3a/output_0_split
I1124 22:50:55.662935 14720 net.cpp:106] Creating Layer inception_3a/output_inception_3a/output_0_split
I1124 22:50:55.662937 14720 net.cpp:454] inception_3a/output_inception_3a/output_0_split <- inception_3a/output
I1124 22:50:55.662945 14720 net.cpp:411] inception_3a/output_inception_3a/output_0_split -> inception_3a/output_inception_3a/output_0_split_0
I1124 22:50:55.662950 14720 net.cpp:411] inception_3a/output_inception_3a/output_0_split -> inception_3a/output_inception_3a/output_0_split_1
I1124 22:50:55.662956 14720 net.cpp:411] inception_3a/output_inception_3a/output_0_split -> inception_3a/output_inception_3a/output_0_split_2
I1124 22:50:55.662961 14720 net.cpp:411] inception_3a/output_inception_3a/output_0_split -> inception_3a/output_inception_3a/output_0_split_3
I1124 22:50:55.663017 14720 net.cpp:150] Setting up inception_3a/output_inception_3a/output_0_split
I1124 22:50:55.663022 14720 net.cpp:157] Top shape: 64 256 28 28 (12845056)
I1124 22:50:55.663027 14720 net.cpp:157] Top shape: 64 256 28 28 (12845056)
I1124 22:50:55.663029 14720 net.cpp:157] Top shape: 64 256 28 28 (12845056)
I1124 22:50:55.663033 14720 net.cpp:157] Top shape: 64 256 28 28 (12845056)
I1124 22:50:55.663035 14720 net.cpp:165] Memory required for data: 1753351168
I1124 22:50:55.663039 14720 layer_factory.hpp:76] Creating layer inception_3b/1x1
I1124 22:50:55.663048 14720 net.cpp:106] Creating Layer inception_3b/1x1
I1124 22:50:55.663053 14720 net.cpp:454] inception_3b/1x1 <- inception_3a/output_inception_3a/output_0_split_0
I1124 22:50:55.663058 14720 net.cpp:411] inception_3b/1x1 -> inception_3b/1x1
I1124 22:50:55.664221 14720 net.cpp:150] Setting up inception_3b/1x1
I1124 22:50:55.664237 14720 net.cpp:157] Top shape: 64 128 28 28 (6422528)
I1124 22:50:55.664242 14720 net.cpp:165] Memory required for data: 1779041280
I1124 22:50:55.664247 14720 layer_factory.hpp:76] Creating layer inception_3b/relu_1x1
I1124 22:50:55.664253 14720 net.cpp:106] Creating Layer inception_3b/relu_1x1
I1124 22:50:55.664258 14720 net.cpp:454] inception_3b/relu_1x1 <- inception_3b/1x1
I1124 22:50:55.664263 14720 net.cpp:397] inception_3b/relu_1x1 -> inception_3b/1x1 (in-place)
I1124 22:50:55.664427 14720 net.cpp:150] Setting up inception_3b/relu_1x1
I1124 22:50:55.664438 14720 net.cpp:157] Top shape: 64 128 28 28 (6422528)
I1124 22:50:55.664441 14720 net.cpp:165] Memory required for data: 1804731392
I1124 22:50:55.664444 14720 layer_factory.hpp:76] Creating layer inception_3b/3x3_reduce
I1124 22:50:55.664453 14720 net.cpp:106] Creating Layer inception_3b/3x3_reduce
I1124 22:50:55.664458 14720 net.cpp:454] inception_3b/3x3_reduce <- inception_3a/output_inception_3a/output_0_split_1
I1124 22:50:55.664464 14720 net.cpp:411] inception_3b/3x3_reduce -> inception_3b/3x3_reduce
I1124 22:50:55.665622 14720 net.cpp:150] Setting up inception_3b/3x3_reduce
I1124 22:50:55.665637 14720 net.cpp:157] Top shape: 64 128 28 28 (6422528)
I1124 22:50:55.665640 14720 net.cpp:165] Memory required for data: 1830421504
I1124 22:50:55.665647 14720 layer_factory.hpp:76] Creating layer inception_3b/relu_3x3_reduce
I1124 22:50:55.665653 14720 net.cpp:106] Creating Layer inception_3b/relu_3x3_reduce
I1124 22:50:55.665657 14720 net.cpp:454] inception_3b/relu_3x3_reduce <- inception_3b/3x3_reduce
I1124 22:50:55.665663 14720 net.cpp:397] inception_3b/relu_3x3_reduce -> inception_3b/3x3_reduce (in-place)
I1124 22:50:55.665966 14720 net.cpp:150] Setting up inception_3b/relu_3x3_reduce
I1124 22:50:55.665980 14720 net.cpp:157] Top shape: 64 128 28 28 (6422528)
I1124 22:50:55.665983 14720 net.cpp:165] Memory required for data: 1856111616
I1124 22:50:55.665987 14720 layer_factory.hpp:76] Creating layer inception_3b/3x3
I1124 22:50:55.665999 14720 net.cpp:106] Creating Layer inception_3b/3x3
I1124 22:50:55.666005 14720 net.cpp:454] inception_3b/3x3 <- inception_3b/3x3_reduce
I1124 22:50:55.666012 14720 net.cpp:411] inception_3b/3x3 -> inception_3b/3x3
I1124 22:50:55.668692 14720 net.cpp:150] Setting up inception_3b/3x3
I1124 22:50:55.668707 14720 net.cpp:157] Top shape: 64 192 28 28 (9633792)
I1124 22:50:55.668711 14720 net.cpp:165] Memory required for data: 1894646784
I1124 22:50:55.668719 14720 layer_factory.hpp:76] Creating layer inception_3b/relu_3x3
I1124 22:50:55.668725 14720 net.cpp:106] Creating Layer inception_3b/relu_3x3
I1124 22:50:55.668730 14720 net.cpp:454] inception_3b/relu_3x3 <- inception_3b/3x3
I1124 22:50:55.668735 14720 net.cpp:397] inception_3b/relu_3x3 -> inception_3b/3x3 (in-place)
I1124 22:50:55.669183 14720 net.cpp:150] Setting up inception_3b/relu_3x3
I1124 22:50:55.669198 14720 net.cpp:157] Top shape: 64 192 28 28 (9633792)
I1124 22:50:55.669201 14720 net.cpp:165] Memory required for data: 1933181952
I1124 22:50:55.669204 14720 layer_factory.hpp:76] Creating layer inception_3b/5x5_reduce
I1124 22:50:55.669214 14720 net.cpp:106] Creating Layer inception_3b/5x5_reduce
I1124 22:50:55.669219 14720 net.cpp:454] inception_3b/5x5_reduce <- inception_3a/output_inception_3a/output_0_split_2
I1124 22:50:55.669227 14720 net.cpp:411] inception_3b/5x5_reduce -> inception_3b/5x5_reduce
I1124 22:50:55.670248 14720 net.cpp:150] Setting up inception_3b/5x5_reduce
I1124 22:50:55.670263 14720 net.cpp:157] Top shape: 64 32 28 28 (1605632)
I1124 22:50:55.670266 14720 net.cpp:165] Memory required for data: 1939604480
I1124 22:50:55.670272 14720 layer_factory.hpp:76] Creating layer inception_3b/relu_5x5_reduce
I1124 22:50:55.670279 14720 net.cpp:106] Creating Layer inception_3b/relu_5x5_reduce
I1124 22:50:55.670284 14720 net.cpp:454] inception_3b/relu_5x5_reduce <- inception_3b/5x5_reduce
I1124 22:50:55.670290 14720 net.cpp:397] inception_3b/relu_5x5_reduce -> inception_3b/5x5_reduce (in-place)
I1124 22:50:55.670455 14720 net.cpp:150] Setting up inception_3b/relu_5x5_reduce
I1124 22:50:55.670466 14720 net.cpp:157] Top shape: 64 32 28 28 (1605632)
I1124 22:50:55.670469 14720 net.cpp:165] Memory required for data: 1946027008
I1124 22:50:55.670474 14720 layer_factory.hpp:76] Creating layer inception_3b/5x5
I1124 22:50:55.670483 14720 net.cpp:106] Creating Layer inception_3b/5x5
I1124 22:50:55.670487 14720 net.cpp:454] inception_3b/5x5 <- inception_3b/5x5_reduce
I1124 22:50:55.670493 14720 net.cpp:411] inception_3b/5x5 -> inception_3b/5x5
I1124 22:50:55.672418 14720 net.cpp:150] Setting up inception_3b/5x5
I1124 22:50:55.672435 14720 net.cpp:157] Top shape: 64 96 28 28 (4816896)
I1124 22:50:55.672438 14720 net.cpp:165] Memory required for data: 1965294592
I1124 22:50:55.672444 14720 layer_factory.hpp:76] Creating layer inception_3b/relu_5x5
I1124 22:50:55.672452 14720 net.cpp:106] Creating Layer inception_3b/relu_5x5
I1124 22:50:55.672456 14720 net.cpp:454] inception_3b/relu_5x5 <- inception_3b/5x5
I1124 22:50:55.672461 14720 net.cpp:397] inception_3b/relu_5x5 -> inception_3b/5x5 (in-place)
I1124 22:50:55.672765 14720 net.cpp:150] Setting up inception_3b/relu_5x5
I1124 22:50:55.672778 14720 net.cpp:157] Top shape: 64 96 28 28 (4816896)
I1124 22:50:55.672782 14720 net.cpp:165] Memory required for data: 1984562176
I1124 22:50:55.672785 14720 layer_factory.hpp:76] Creating layer inception_3b/pool
I1124 22:50:55.672792 14720 net.cpp:106] Creating Layer inception_3b/pool
I1124 22:50:55.672797 14720 net.cpp:454] inception_3b/pool <- inception_3a/output_inception_3a/output_0_split_3
I1124 22:50:55.672803 14720 net.cpp:411] inception_3b/pool -> inception_3b/pool
I1124 22:50:55.672996 14720 net.cpp:150] Setting up inception_3b/pool
I1124 22:50:55.673007 14720 net.cpp:157] Top shape: 64 256 28 28 (12845056)
I1124 22:50:55.673009 14720 net.cpp:165] Memory required for data: 2035942400
I1124 22:50:55.673012 14720 layer_factory.hpp:76] Creating layer inception_3b/pool_proj
I1124 22:50:55.673023 14720 net.cpp:106] Creating Layer inception_3b/pool_proj
I1124 22:50:55.673027 14720 net.cpp:454] inception_3b/pool_proj <- inception_3b/pool
I1124 22:50:55.673033 14720 net.cpp:411] inception_3b/pool_proj -> inception_3b/pool_proj
I1124 22:50:55.674095 14720 net.cpp:150] Setting up inception_3b/pool_proj
I1124 22:50:55.674111 14720 net.cpp:157] Top shape: 64 64 28 28 (3211264)
I1124 22:50:55.674115 14720 net.cpp:165] Memory required for data: 2048787456
I1124 22:50:55.674121 14720 layer_factory.hpp:76] Creating layer inception_3b/relu_pool_proj
I1124 22:50:55.674127 14720 net.cpp:106] Creating Layer inception_3b/relu_pool_proj
I1124 22:50:55.674131 14720 net.cpp:454] inception_3b/relu_pool_proj <- inception_3b/pool_proj
I1124 22:50:55.674139 14720 net.cpp:397] inception_3b/relu_pool_proj -> inception_3b/pool_proj (in-place)
I1124 22:50:55.674307 14720 net.cpp:150] Setting up inception_3b/relu_pool_proj
I1124 22:50:55.674319 14720 net.cpp:157] Top shape: 64 64 28 28 (3211264)
I1124 22:50:55.674321 14720 net.cpp:165] Memory required for data: 2061632512
I1124 22:50:55.674324 14720 layer_factory.hpp:76] Creating layer inception_3b/output
I1124 22:50:55.674330 14720 net.cpp:106] Creating Layer inception_3b/output
I1124 22:50:55.674336 14720 net.cpp:454] inception_3b/output <- inception_3b/1x1
I1124 22:50:55.674340 14720 net.cpp:454] inception_3b/output <- inception_3b/3x3
I1124 22:50:55.674345 14720 net.cpp:454] inception_3b/output <- inception_3b/5x5
I1124 22:50:55.674348 14720 net.cpp:454] inception_3b/output <- inception_3b/pool_proj
I1124 22:50:55.674353 14720 net.cpp:411] inception_3b/output -> inception_3b/output
I1124 22:50:55.674381 14720 net.cpp:150] Setting up inception_3b/output
I1124 22:50:55.674386 14720 net.cpp:157] Top shape: 64 480 28 28 (24084480)
I1124 22:50:55.674389 14720 net.cpp:165] Memory required for data: 2157970432
I1124 22:50:55.674392 14720 layer_factory.hpp:76] Creating layer pool3/3x3_s2
I1124 22:50:55.674399 14720 net.cpp:106] Creating Layer pool3/3x3_s2
I1124 22:50:55.674403 14720 net.cpp:454] pool3/3x3_s2 <- inception_3b/output
I1124 22:50:55.674408 14720 net.cpp:411] pool3/3x3_s2 -> pool3/3x3_s2
I1124 22:50:55.674731 14720 net.cpp:150] Setting up pool3/3x3_s2
I1124 22:50:55.674746 14720 net.cpp:157] Top shape: 64 480 14 14 (6021120)
I1124 22:50:55.674748 14720 net.cpp:165] Memory required for data: 2182054912
I1124 22:50:55.674752 14720 layer_factory.hpp:76] Creating layer pool3/3x3_s2_pool3/3x3_s2_0_split
I1124 22:50:55.674758 14720 net.cpp:106] Creating Layer pool3/3x3_s2_pool3/3x3_s2_0_split
I1124 22:50:55.674762 14720 net.cpp:454] pool3/3x3_s2_pool3/3x3_s2_0_split <- pool3/3x3_s2
I1124 22:50:55.674769 14720 net.cpp:411] pool3/3x3_s2_pool3/3x3_s2_0_split -> pool3/3x3_s2_pool3/3x3_s2_0_split_0
I1124 22:50:55.674777 14720 net.cpp:411] pool3/3x3_s2_pool3/3x3_s2_0_split -> pool3/3x3_s2_pool3/3x3_s2_0_split_1
I1124 22:50:55.674782 14720 net.cpp:411] pool3/3x3_s2_pool3/3x3_s2_0_split -> pool3/3x3_s2_pool3/3x3_s2_0_split_2
I1124 22:50:55.674789 14720 net.cpp:411] pool3/3x3_s2_pool3/3x3_s2_0_split -> pool3/3x3_s2_pool3/3x3_s2_0_split_3
I1124 22:50:55.674852 14720 net.cpp:150] Setting up pool3/3x3_s2_pool3/3x3_s2_0_split
I1124 22:50:55.674860 14720 net.cpp:157] Top shape: 64 480 14 14 (6021120)
I1124 22:50:55.674863 14720 net.cpp:157] Top shape: 64 480 14 14 (6021120)
I1124 22:50:55.674867 14720 net.cpp:157] Top shape: 64 480 14 14 (6021120)
I1124 22:50:55.674871 14720 net.cpp:157] Top shape: 64 480 14 14 (6021120)
I1124 22:50:55.674873 14720 net.cpp:165] Memory required for data: 2278392832
I1124 22:50:55.674877 14720 layer_factory.hpp:76] Creating layer inception_4a/1x1
I1124 22:50:55.674885 14720 net.cpp:106] Creating Layer inception_4a/1x1
I1124 22:50:55.674888 14720 net.cpp:454] inception_4a/1x1 <- pool3/3x3_s2_pool3/3x3_s2_0_split_0
I1124 22:50:55.674896 14720 net.cpp:411] inception_4a/1x1 -> inception_4a/1x1
I1124 22:50:55.676585 14720 net.cpp:150] Setting up inception_4a/1x1
I1124 22:50:55.676600 14720 net.cpp:157] Top shape: 64 192 14 14 (2408448)
I1124 22:50:55.676604 14720 net.cpp:165] Memory required for data: 2288026624
I1124 22:50:55.676612 14720 layer_factory.hpp:76] Creating layer inception_4a/relu_1x1
I1124 22:50:55.676620 14720 net.cpp:106] Creating Layer inception_4a/relu_1x1
I1124 22:50:55.676623 14720 net.cpp:454] inception_4a/relu_1x1 <- inception_4a/1x1
I1124 22:50:55.676628 14720 net.cpp:397] inception_4a/relu_1x1 -> inception_4a/1x1 (in-place)
I1124 22:50:55.676800 14720 net.cpp:150] Setting up inception_4a/relu_1x1
I1124 22:50:55.676815 14720 net.cpp:157] Top shape: 64 192 14 14 (2408448)
I1124 22:50:55.676817 14720 net.cpp:165] Memory required for data: 2297660416
I1124 22:50:55.676821 14720 layer_factory.hpp:76] Creating layer inception_4a/3x3_reduce
I1124 22:50:55.676830 14720 net.cpp:106] Creating Layer inception_4a/3x3_reduce
I1124 22:50:55.676833 14720 net.cpp:454] inception_4a/3x3_reduce <- pool3/3x3_s2_pool3/3x3_s2_0_split_1
I1124 22:50:55.676841 14720 net.cpp:411] inception_4a/3x3_reduce -> inception_4a/3x3_reduce
I1124 22:50:55.678114 14720 net.cpp:150] Setting up inception_4a/3x3_reduce
I1124 22:50:55.678129 14720 net.cpp:157] Top shape: 64 96 14 14 (1204224)
I1124 22:50:55.678133 14720 net.cpp:165] Memory required for data: 2302477312
I1124 22:50:55.678144 14720 layer_factory.hpp:76] Creating layer inception_4a/relu_3x3_reduce
I1124 22:50:55.678151 14720 net.cpp:106] Creating Layer inception_4a/relu_3x3_reduce
I1124 22:50:55.678156 14720 net.cpp:454] inception_4a/relu_3x3_reduce <- inception_4a/3x3_reduce
I1124 22:50:55.678161 14720 net.cpp:397] inception_4a/relu_3x3_reduce -> inception_4a/3x3_reduce (in-place)
I1124 22:50:55.678459 14720 net.cpp:150] Setting up inception_4a/relu_3x3_reduce
I1124 22:50:55.678473 14720 net.cpp:157] Top shape: 64 96 14 14 (1204224)
I1124 22:50:55.678478 14720 net.cpp:165] Memory required for data: 2307294208
I1124 22:50:55.678480 14720 layer_factory.hpp:76] Creating layer inception_4a/3x3
I1124 22:50:55.678491 14720 net.cpp:106] Creating Layer inception_4a/3x3
I1124 22:50:55.678496 14720 net.cpp:454] inception_4a/3x3 <- inception_4a/3x3_reduce
I1124 22:50:55.678503 14720 net.cpp:411] inception_4a/3x3 -> inception_4a/3x3
I1124 22:50:55.680941 14720 net.cpp:150] Setting up inception_4a/3x3
I1124 22:50:55.680958 14720 net.cpp:157] Top shape: 64 208 14 14 (2609152)
I1124 22:50:55.680960 14720 net.cpp:165] Memory required for data: 2317730816
I1124 22:50:55.680968 14720 layer_factory.hpp:76] Creating layer inception_4a/relu_3x3
I1124 22:50:55.680974 14720 net.cpp:106] Creating Layer inception_4a/relu_3x3
I1124 22:50:55.680976 14720 net.cpp:454] inception_4a/relu_3x3 <- inception_4a/3x3
I1124 22:50:55.680984 14720 net.cpp:397] inception_4a/relu_3x3 -> inception_4a/3x3 (in-place)
I1124 22:50:55.681284 14720 net.cpp:150] Setting up inception_4a/relu_3x3
I1124 22:50:55.681298 14720 net.cpp:157] Top shape: 64 208 14 14 (2609152)
I1124 22:50:55.681301 14720 net.cpp:165] Memory required for data: 2328167424
I1124 22:50:55.681305 14720 layer_factory.hpp:76] Creating layer inception_4a/5x5_reduce
I1124 22:50:55.681314 14720 net.cpp:106] Creating Layer inception_4a/5x5_reduce
I1124 22:50:55.681318 14720 net.cpp:454] inception_4a/5x5_reduce <- pool3/3x3_s2_pool3/3x3_s2_0_split_2
I1124 22:50:55.681326 14720 net.cpp:411] inception_4a/5x5_reduce -> inception_4a/5x5_reduce
I1124 22:50:55.682359 14720 net.cpp:150] Setting up inception_4a/5x5_reduce
I1124 22:50:55.682374 14720 net.cpp:157] Top shape: 64 16 14 14 (200704)
I1124 22:50:55.682378 14720 net.cpp:165] Memory required for data: 2328970240
I1124 22:50:55.682384 14720 layer_factory.hpp:76] Creating layer inception_4a/relu_5x5_reduce
I1124 22:50:55.682391 14720 net.cpp:106] Creating Layer inception_4a/relu_5x5_reduce
I1124 22:50:55.682395 14720 net.cpp:454] inception_4a/relu_5x5_reduce <- inception_4a/5x5_reduce
I1124 22:50:55.682400 14720 net.cpp:397] inception_4a/relu_5x5_reduce -> inception_4a/5x5_reduce (in-place)
I1124 22:50:55.682693 14720 net.cpp:150] Setting up inception_4a/relu_5x5_reduce
I1124 22:50:55.682709 14720 net.cpp:157] Top shape: 64 16 14 14 (200704)
I1124 22:50:55.682713 14720 net.cpp:165] Memory required for data: 2329773056
I1124 22:50:55.682718 14720 layer_factory.hpp:76] Creating layer inception_4a/5x5
I1124 22:50:55.682725 14720 net.cpp:106] Creating Layer inception_4a/5x5
I1124 22:50:55.682729 14720 net.cpp:454] inception_4a/5x5 <- inception_4a/5x5_reduce
I1124 22:50:55.682737 14720 net.cpp:411] inception_4a/5x5 -> inception_4a/5x5
I1124 22:50:55.683845 14720 net.cpp:150] Setting up inception_4a/5x5
I1124 22:50:55.683859 14720 net.cpp:157] Top shape: 64 48 14 14 (602112)
I1124 22:50:55.683863 14720 net.cpp:165] Memory required for data: 2332181504
I1124 22:50:55.683869 14720 layer_factory.hpp:76] Creating layer inception_4a/relu_5x5
I1124 22:50:55.683878 14720 net.cpp:106] Creating Layer inception_4a/relu_5x5
I1124 22:50:55.683882 14720 net.cpp:454] inception_4a/relu_5x5 <- inception_4a/5x5
I1124 22:50:55.683888 14720 net.cpp:397] inception_4a/relu_5x5 -> inception_4a/5x5 (in-place)
I1124 22:50:55.684193 14720 net.cpp:150] Setting up inception_4a/relu_5x5
I1124 22:50:55.684208 14720 net.cpp:157] Top shape: 64 48 14 14 (602112)
I1124 22:50:55.684212 14720 net.cpp:165] Memory required for data: 2334589952
I1124 22:50:55.684216 14720 layer_factory.hpp:76] Creating layer inception_4a/pool
I1124 22:50:55.684223 14720 net.cpp:106] Creating Layer inception_4a/pool
I1124 22:50:55.684228 14720 net.cpp:454] inception_4a/pool <- pool3/3x3_s2_pool3/3x3_s2_0_split_3
I1124 22:50:55.684233 14720 net.cpp:411] inception_4a/pool -> inception_4a/pool
I1124 22:50:55.684430 14720 net.cpp:150] Setting up inception_4a/pool
I1124 22:50:55.684442 14720 net.cpp:157] Top shape: 64 480 14 14 (6021120)
I1124 22:50:55.684445 14720 net.cpp:165] Memory required for data: 2358674432
I1124 22:50:55.684448 14720 layer_factory.hpp:76] Creating layer inception_4a/pool_proj
I1124 22:50:55.684458 14720 net.cpp:106] Creating Layer inception_4a/pool_proj
I1124 22:50:55.684461 14720 net.cpp:454] inception_4a/pool_proj <- inception_4a/pool
I1124 22:50:55.684468 14720 net.cpp:411] inception_4a/pool_proj -> inception_4a/pool_proj
I1124 22:50:55.685657 14720 net.cpp:150] Setting up inception_4a/pool_proj
I1124 22:50:55.685670 14720 net.cpp:157] Top shape: 64 64 14 14 (802816)
I1124 22:50:55.685674 14720 net.cpp:165] Memory required for data: 2361885696
I1124 22:50:55.685680 14720 layer_factory.hpp:76] Creating layer inception_4a/relu_pool_proj
I1124 22:50:55.685686 14720 net.cpp:106] Creating Layer inception_4a/relu_pool_proj
I1124 22:50:55.685691 14720 net.cpp:454] inception_4a/relu_pool_proj <- inception_4a/pool_proj
I1124 22:50:55.685698 14720 net.cpp:397] inception_4a/relu_pool_proj -> inception_4a/pool_proj (in-place)
I1124 22:50:55.685999 14720 net.cpp:150] Setting up inception_4a/relu_pool_proj
I1124 22:50:55.686013 14720 net.cpp:157] Top shape: 64 64 14 14 (802816)
I1124 22:50:55.686017 14720 net.cpp:165] Memory required for data: 2365096960
I1124 22:50:55.686020 14720 layer_factory.hpp:76] Creating layer inception_4a/output
I1124 22:50:55.686028 14720 net.cpp:106] Creating Layer inception_4a/output
I1124 22:50:55.686033 14720 net.cpp:454] inception_4a/output <- inception_4a/1x1
I1124 22:50:55.686038 14720 net.cpp:454] inception_4a/output <- inception_4a/3x3
I1124 22:50:55.686041 14720 net.cpp:454] inception_4a/output <- inception_4a/5x5
I1124 22:50:55.686045 14720 net.cpp:454] inception_4a/output <- inception_4a/pool_proj
I1124 22:50:55.686049 14720 net.cpp:411] inception_4a/output -> inception_4a/output
I1124 22:50:55.686081 14720 net.cpp:150] Setting up inception_4a/output
I1124 22:50:55.686087 14720 net.cpp:157] Top shape: 64 512 14 14 (6422528)
I1124 22:50:55.686090 14720 net.cpp:165] Memory required for data: 2390787072
I1124 22:50:55.686094 14720 layer_factory.hpp:76] Creating layer inception_4a/output_inception_4a/output_0_split
I1124 22:50:55.686100 14720 net.cpp:106] Creating Layer inception_4a/output_inception_4a/output_0_split
I1124 22:50:55.686105 14720 net.cpp:454] inception_4a/output_inception_4a/output_0_split <- inception_4a/output
I1124 22:50:55.686110 14720 net.cpp:411] inception_4a/output_inception_4a/output_0_split -> inception_4a/output_inception_4a/output_0_split_0
I1124 22:50:55.686116 14720 net.cpp:411] inception_4a/output_inception_4a/output_0_split -> inception_4a/output_inception_4a/output_0_split_1
I1124 22:50:55.686122 14720 net.cpp:411] inception_4a/output_inception_4a/output_0_split -> inception_4a/output_inception_4a/output_0_split_2
I1124 22:50:55.686127 14720 net.cpp:411] inception_4a/output_inception_4a/output_0_split -> inception_4a/output_inception_4a/output_0_split_3
I1124 22:50:55.686132 14720 net.cpp:411] inception_4a/output_inception_4a/output_0_split -> inception_4a/output_inception_4a/output_0_split_4
I1124 22:50:55.686203 14720 net.cpp:150] Setting up inception_4a/output_inception_4a/output_0_split
I1124 22:50:55.686211 14720 net.cpp:157] Top shape: 64 512 14 14 (6422528)
I1124 22:50:55.686215 14720 net.cpp:157] Top shape: 64 512 14 14 (6422528)
I1124 22:50:55.686218 14720 net.cpp:157] Top shape: 64 512 14 14 (6422528)
I1124 22:50:55.686223 14720 net.cpp:157] Top shape: 64 512 14 14 (6422528)
I1124 22:50:55.686225 14720 net.cpp:157] Top shape: 64 512 14 14 (6422528)
I1124 22:50:55.686228 14720 net.cpp:165] Memory required for data: 2519237632
I1124 22:50:55.686231 14720 layer_factory.hpp:76] Creating layer loss1/ave_pool
I1124 22:50:55.686239 14720 net.cpp:106] Creating Layer loss1/ave_pool
I1124 22:50:55.686241 14720 net.cpp:454] loss1/ave_pool <- inception_4a/output_inception_4a/output_0_split_0
I1124 22:50:55.686246 14720 net.cpp:411] loss1/ave_pool -> loss1/ave_pool
I1124 22:50:55.686427 14720 net.cpp:150] Setting up loss1/ave_pool
I1124 22:50:55.686439 14720 net.cpp:157] Top shape: 64 512 4 4 (524288)
I1124 22:50:55.686441 14720 net.cpp:165] Memory required for data: 2521334784
I1124 22:50:55.686445 14720 layer_factory.hpp:76] Creating layer loss1/conv
I1124 22:50:55.686453 14720 net.cpp:106] Creating Layer loss1/conv
I1124 22:50:55.686458 14720 net.cpp:454] loss1/conv <- loss1/ave_pool
I1124 22:50:55.686465 14720 net.cpp:411] loss1/conv -> loss1/conv
I1124 22:50:55.687872 14720 net.cpp:150] Setting up loss1/conv
I1124 22:50:55.687888 14720 net.cpp:157] Top shape: 64 128 4 4 (131072)
I1124 22:50:55.687892 14720 net.cpp:165] Memory required for data: 2521859072
I1124 22:50:55.687898 14720 layer_factory.hpp:76] Creating layer loss1/relu_conv
I1124 22:50:55.687904 14720 net.cpp:106] Creating Layer loss1/relu_conv
I1124 22:50:55.687908 14720 net.cpp:454] loss1/relu_conv <- loss1/conv
I1124 22:50:55.687916 14720 net.cpp:397] loss1/relu_conv -> loss1/conv (in-place)
I1124 22:50:55.688097 14720 net.cpp:150] Setting up loss1/relu_conv
I1124 22:50:55.688108 14720 net.cpp:157] Top shape: 64 128 4 4 (131072)
I1124 22:50:55.688112 14720 net.cpp:165] Memory required for data: 2522383360
I1124 22:50:55.688117 14720 layer_factory.hpp:76] Creating layer loss1/fc
I1124 22:50:55.688124 14720 net.cpp:106] Creating Layer loss1/fc
I1124 22:50:55.688128 14720 net.cpp:454] loss1/fc <- loss1/conv
I1124 22:50:55.688134 14720 net.cpp:411] loss1/fc -> loss1/fc
I1124 22:50:55.703708 14720 net.cpp:150] Setting up loss1/fc
I1124 22:50:55.703723 14720 net.cpp:157] Top shape: 64 1024 (65536)
I1124 22:50:55.703727 14720 net.cpp:165] Memory required for data: 2522645504
I1124 22:50:55.703733 14720 layer_factory.hpp:76] Creating layer loss1/relu_fc
I1124 22:50:55.703742 14720 net.cpp:106] Creating Layer loss1/relu_fc
I1124 22:50:55.703745 14720 net.cpp:454] loss1/relu_fc <- loss1/fc
I1124 22:50:55.703752 14720 net.cpp:397] loss1/relu_fc -> loss1/fc (in-place)
I1124 22:50:55.704079 14720 net.cpp:150] Setting up loss1/relu_fc
I1124 22:50:55.704094 14720 net.cpp:157] Top shape: 64 1024 (65536)
I1124 22:50:55.704097 14720 net.cpp:165] Memory required for data: 2522907648
I1124 22:50:55.704102 14720 layer_factory.hpp:76] Creating layer loss1/drop_fc
I1124 22:50:55.704118 14720 net.cpp:106] Creating Layer loss1/drop_fc
I1124 22:50:55.704123 14720 net.cpp:454] loss1/drop_fc <- loss1/fc
I1124 22:50:55.704128 14720 net.cpp:397] loss1/drop_fc -> loss1/fc (in-place)
I1124 22:50:55.704167 14720 net.cpp:150] Setting up loss1/drop_fc
I1124 22:50:55.704174 14720 net.cpp:157] Top shape: 64 1024 (65536)
I1124 22:50:55.704177 14720 net.cpp:165] Memory required for data: 2523169792
I1124 22:50:55.704180 14720 layer_factory.hpp:76] Creating layer loss1/classifier-attribute
I1124 22:50:55.704188 14720 net.cpp:106] Creating Layer loss1/classifier-attribute
I1124 22:50:55.704191 14720 net.cpp:454] loss1/classifier-attribute <- loss1/fc
I1124 22:50:55.704196 14720 net.cpp:411] loss1/classifier-attribute -> loss1/classifier-attribute
I1124 22:50:55.704422 14720 net.cpp:150] Setting up loss1/classifier-attribute
I1124 22:50:55.704432 14720 net.cpp:157] Top shape: 64 16 (1024)
I1124 22:50:55.704435 14720 net.cpp:165] Memory required for data: 2523173888
I1124 22:50:55.704442 14720 layer_factory.hpp:76] Creating layer loss1/loss
I1124 22:50:55.704449 14720 net.cpp:106] Creating Layer loss1/loss
I1124 22:50:55.704453 14720 net.cpp:454] loss1/loss <- loss1/classifier-attribute
I1124 22:50:55.704457 14720 net.cpp:454] loss1/loss <- label_data_1_split_0
I1124 22:50:55.704464 14720 net.cpp:411] loss1/loss -> loss1/loss1
I1124 22:50:55.704476 14720 layer_factory.hpp:76] Creating layer loss1/loss
I1124 22:50:55.704738 14720 net.cpp:150] Setting up loss1/loss
I1124 22:50:55.704749 14720 net.cpp:157] Top shape: (1)
I1124 22:50:55.704752 14720 net.cpp:160]     with loss weight 0.3
I1124 22:50:55.704776 14720 net.cpp:165] Memory required for data: 2523173892
I1124 22:50:55.704779 14720 layer_factory.hpp:76] Creating layer inception_4b/1x1
I1124 22:50:55.704788 14720 net.cpp:106] Creating Layer inception_4b/1x1
I1124 22:50:55.704792 14720 net.cpp:454] inception_4b/1x1 <- inception_4a/output_inception_4a/output_0_split_1
I1124 22:50:55.704799 14720 net.cpp:411] inception_4b/1x1 -> inception_4b/1x1
I1124 22:50:55.706310 14720 net.cpp:150] Setting up inception_4b/1x1
I1124 22:50:55.706326 14720 net.cpp:157] Top shape: 64 160 14 14 (2007040)
I1124 22:50:55.706328 14720 net.cpp:165] Memory required for data: 2531202052
I1124 22:50:55.706334 14720 layer_factory.hpp:76] Creating layer inception_4b/relu_1x1
I1124 22:50:55.706341 14720 net.cpp:106] Creating Layer inception_4b/relu_1x1
I1124 22:50:55.706344 14720 net.cpp:454] inception_4b/relu_1x1 <- inception_4b/1x1
I1124 22:50:55.706353 14720 net.cpp:397] inception_4b/relu_1x1 -> inception_4b/1x1 (in-place)
I1124 22:50:55.706656 14720 net.cpp:150] Setting up inception_4b/relu_1x1
I1124 22:50:55.706670 14720 net.cpp:157] Top shape: 64 160 14 14 (2007040)
I1124 22:50:55.706675 14720 net.cpp:165] Memory required for data: 2539230212
I1124 22:50:55.706677 14720 layer_factory.hpp:76] Creating layer inception_4b/3x3_reduce
I1124 22:50:55.706686 14720 net.cpp:106] Creating Layer inception_4b/3x3_reduce
I1124 22:50:55.706691 14720 net.cpp:454] inception_4b/3x3_reduce <- inception_4a/output_inception_4a/output_0_split_2
I1124 22:50:55.706698 14720 net.cpp:411] inception_4b/3x3_reduce -> inception_4b/3x3_reduce
I1124 22:50:55.708526 14720 net.cpp:150] Setting up inception_4b/3x3_reduce
I1124 22:50:55.708542 14720 net.cpp:157] Top shape: 64 112 14 14 (1404928)
I1124 22:50:55.708546 14720 net.cpp:165] Memory required for data: 2544849924
I1124 22:50:55.708552 14720 layer_factory.hpp:76] Creating layer inception_4b/relu_3x3_reduce
I1124 22:50:55.708559 14720 net.cpp:106] Creating Layer inception_4b/relu_3x3_reduce
I1124 22:50:55.708562 14720 net.cpp:454] inception_4b/relu_3x3_reduce <- inception_4b/3x3_reduce
I1124 22:50:55.708570 14720 net.cpp:397] inception_4b/relu_3x3_reduce -> inception_4b/3x3_reduce (in-place)
I1124 22:50:55.708736 14720 net.cpp:150] Setting up inception_4b/relu_3x3_reduce
I1124 22:50:55.708748 14720 net.cpp:157] Top shape: 64 112 14 14 (1404928)
I1124 22:50:55.708752 14720 net.cpp:165] Memory required for data: 2550469636
I1124 22:50:55.708755 14720 layer_factory.hpp:76] Creating layer inception_4b/3x3
I1124 22:50:55.708763 14720 net.cpp:106] Creating Layer inception_4b/3x3
I1124 22:50:55.708767 14720 net.cpp:454] inception_4b/3x3 <- inception_4b/3x3_reduce
I1124 22:50:55.708775 14720 net.cpp:411] inception_4b/3x3 -> inception_4b/3x3
I1124 22:50:55.711633 14720 net.cpp:150] Setting up inception_4b/3x3
I1124 22:50:55.711648 14720 net.cpp:157] Top shape: 64 224 14 14 (2809856)
I1124 22:50:55.711652 14720 net.cpp:165] Memory required for data: 2561709060
I1124 22:50:55.711658 14720 layer_factory.hpp:76] Creating layer inception_4b/relu_3x3
I1124 22:50:55.711665 14720 net.cpp:106] Creating Layer inception_4b/relu_3x3
I1124 22:50:55.711670 14720 net.cpp:454] inception_4b/relu_3x3 <- inception_4b/3x3
I1124 22:50:55.711675 14720 net.cpp:397] inception_4b/relu_3x3 -> inception_4b/3x3 (in-place)
I1124 22:50:55.711844 14720 net.cpp:150] Setting up inception_4b/relu_3x3
I1124 22:50:55.711855 14720 net.cpp:157] Top shape: 64 224 14 14 (2809856)
I1124 22:50:55.711858 14720 net.cpp:165] Memory required for data: 2572948484
I1124 22:50:55.711863 14720 layer_factory.hpp:76] Creating layer inception_4b/5x5_reduce
I1124 22:50:55.711874 14720 net.cpp:106] Creating Layer inception_4b/5x5_reduce
I1124 22:50:55.711879 14720 net.cpp:454] inception_4b/5x5_reduce <- inception_4a/output_inception_4a/output_0_split_3
I1124 22:50:55.711884 14720 net.cpp:411] inception_4b/5x5_reduce -> inception_4b/5x5_reduce
I1124 22:50:55.713016 14720 net.cpp:150] Setting up inception_4b/5x5_reduce
I1124 22:50:55.713032 14720 net.cpp:157] Top shape: 64 24 14 14 (301056)
I1124 22:50:55.713035 14720 net.cpp:165] Memory required for data: 2574152708
I1124 22:50:55.713042 14720 layer_factory.hpp:76] Creating layer inception_4b/relu_5x5_reduce
I1124 22:50:55.713047 14720 net.cpp:106] Creating Layer inception_4b/relu_5x5_reduce
I1124 22:50:55.713052 14720 net.cpp:454] inception_4b/relu_5x5_reduce <- inception_4b/5x5_reduce
I1124 22:50:55.713057 14720 net.cpp:397] inception_4b/relu_5x5_reduce -> inception_4b/5x5_reduce (in-place)
I1124 22:50:55.713482 14720 net.cpp:150] Setting up inception_4b/relu_5x5_reduce
I1124 22:50:55.713496 14720 net.cpp:157] Top shape: 64 24 14 14 (301056)
I1124 22:50:55.713500 14720 net.cpp:165] Memory required for data: 2575356932
I1124 22:50:55.713503 14720 layer_factory.hpp:76] Creating layer inception_4b/5x5
I1124 22:50:55.713513 14720 net.cpp:106] Creating Layer inception_4b/5x5
I1124 22:50:55.713518 14720 net.cpp:454] inception_4b/5x5 <- inception_4b/5x5_reduce
I1124 22:50:55.713524 14720 net.cpp:411] inception_4b/5x5 -> inception_4b/5x5
I1124 22:50:55.714825 14720 net.cpp:150] Setting up inception_4b/5x5
I1124 22:50:55.714840 14720 net.cpp:157] Top shape: 64 64 14 14 (802816)
I1124 22:50:55.714844 14720 net.cpp:165] Memory required for data: 2578568196
I1124 22:50:55.714851 14720 layer_factory.hpp:76] Creating layer inception_4b/relu_5x5
I1124 22:50:55.714857 14720 net.cpp:106] Creating Layer inception_4b/relu_5x5
I1124 22:50:55.714861 14720 net.cpp:454] inception_4b/relu_5x5 <- inception_4b/5x5
I1124 22:50:55.714865 14720 net.cpp:397] inception_4b/relu_5x5 -> inception_4b/5x5 (in-place)
I1124 22:50:55.715035 14720 net.cpp:150] Setting up inception_4b/relu_5x5
I1124 22:50:55.715045 14720 net.cpp:157] Top shape: 64 64 14 14 (802816)
I1124 22:50:55.715049 14720 net.cpp:165] Memory required for data: 2581779460
I1124 22:50:55.715052 14720 layer_factory.hpp:76] Creating layer inception_4b/pool
I1124 22:50:55.715059 14720 net.cpp:106] Creating Layer inception_4b/pool
I1124 22:50:55.715064 14720 net.cpp:454] inception_4b/pool <- inception_4a/output_inception_4a/output_0_split_4
I1124 22:50:55.715068 14720 net.cpp:411] inception_4b/pool -> inception_4b/pool
I1124 22:50:55.715410 14720 net.cpp:150] Setting up inception_4b/pool
I1124 22:50:55.715425 14720 net.cpp:157] Top shape: 64 512 14 14 (6422528)
I1124 22:50:55.715428 14720 net.cpp:165] Memory required for data: 2607469572
I1124 22:50:55.715431 14720 layer_factory.hpp:76] Creating layer inception_4b/pool_proj
I1124 22:50:55.715441 14720 net.cpp:106] Creating Layer inception_4b/pool_proj
I1124 22:50:55.715446 14720 net.cpp:454] inception_4b/pool_proj <- inception_4b/pool
I1124 22:50:55.715454 14720 net.cpp:411] inception_4b/pool_proj -> inception_4b/pool_proj
I1124 22:50:55.716557 14720 net.cpp:150] Setting up inception_4b/pool_proj
I1124 22:50:55.716572 14720 net.cpp:157] Top shape: 64 64 14 14 (802816)
I1124 22:50:55.716575 14720 net.cpp:165] Memory required for data: 2610680836
I1124 22:50:55.716581 14720 layer_factory.hpp:76] Creating layer inception_4b/relu_pool_proj
I1124 22:50:55.716588 14720 net.cpp:106] Creating Layer inception_4b/relu_pool_proj
I1124 22:50:55.716593 14720 net.cpp:454] inception_4b/relu_pool_proj <- inception_4b/pool_proj
I1124 22:50:55.716601 14720 net.cpp:397] inception_4b/relu_pool_proj -> inception_4b/pool_proj (in-place)
I1124 22:50:55.716907 14720 net.cpp:150] Setting up inception_4b/relu_pool_proj
I1124 22:50:55.716920 14720 net.cpp:157] Top shape: 64 64 14 14 (802816)
I1124 22:50:55.716924 14720 net.cpp:165] Memory required for data: 2613892100
I1124 22:50:55.716928 14720 layer_factory.hpp:76] Creating layer inception_4b/output
I1124 22:50:55.716935 14720 net.cpp:106] Creating Layer inception_4b/output
I1124 22:50:55.716939 14720 net.cpp:454] inception_4b/output <- inception_4b/1x1
I1124 22:50:55.716944 14720 net.cpp:454] inception_4b/output <- inception_4b/3x3
I1124 22:50:55.716948 14720 net.cpp:454] inception_4b/output <- inception_4b/5x5
I1124 22:50:55.716953 14720 net.cpp:454] inception_4b/output <- inception_4b/pool_proj
I1124 22:50:55.716956 14720 net.cpp:411] inception_4b/output -> inception_4b/output
I1124 22:50:55.716991 14720 net.cpp:150] Setting up inception_4b/output
I1124 22:50:55.716998 14720 net.cpp:157] Top shape: 64 512 14 14 (6422528)
I1124 22:50:55.717001 14720 net.cpp:165] Memory required for data: 2639582212
I1124 22:50:55.717005 14720 layer_factory.hpp:76] Creating layer inception_4b/output_inception_4b/output_0_split
I1124 22:50:55.717010 14720 net.cpp:106] Creating Layer inception_4b/output_inception_4b/output_0_split
I1124 22:50:55.717013 14720 net.cpp:454] inception_4b/output_inception_4b/output_0_split <- inception_4b/output
I1124 22:50:55.717020 14720 net.cpp:411] inception_4b/output_inception_4b/output_0_split -> inception_4b/output_inception_4b/output_0_split_0
I1124 22:50:55.717025 14720 net.cpp:411] inception_4b/output_inception_4b/output_0_split -> inception_4b/output_inception_4b/output_0_split_1
I1124 22:50:55.717031 14720 net.cpp:411] inception_4b/output_inception_4b/output_0_split -> inception_4b/output_inception_4b/output_0_split_2
I1124 22:50:55.717036 14720 net.cpp:411] inception_4b/output_inception_4b/output_0_split -> inception_4b/output_inception_4b/output_0_split_3
I1124 22:50:55.717100 14720 net.cpp:150] Setting up inception_4b/output_inception_4b/output_0_split
I1124 22:50:55.717106 14720 net.cpp:157] Top shape: 64 512 14 14 (6422528)
I1124 22:50:55.717110 14720 net.cpp:157] Top shape: 64 512 14 14 (6422528)
I1124 22:50:55.717113 14720 net.cpp:157] Top shape: 64 512 14 14 (6422528)
I1124 22:50:55.717118 14720 net.cpp:157] Top shape: 64 512 14 14 (6422528)
I1124 22:50:55.717120 14720 net.cpp:165] Memory required for data: 2742342660
I1124 22:50:55.717123 14720 layer_factory.hpp:76] Creating layer inception_4c/1x1
I1124 22:50:55.717133 14720 net.cpp:106] Creating Layer inception_4c/1x1
I1124 22:50:55.717136 14720 net.cpp:454] inception_4c/1x1 <- inception_4b/output_inception_4b/output_0_split_0
I1124 22:50:55.717141 14720 net.cpp:411] inception_4c/1x1 -> inception_4c/1x1
I1124 22:50:55.718565 14720 net.cpp:150] Setting up inception_4c/1x1
I1124 22:50:55.718580 14720 net.cpp:157] Top shape: 64 128 14 14 (1605632)
I1124 22:50:55.718586 14720 net.cpp:165] Memory required for data: 2748765188
I1124 22:50:55.718592 14720 layer_factory.hpp:76] Creating layer inception_4c/relu_1x1
I1124 22:50:55.718598 14720 net.cpp:106] Creating Layer inception_4c/relu_1x1
I1124 22:50:55.718602 14720 net.cpp:454] inception_4c/relu_1x1 <- inception_4c/1x1
I1124 22:50:55.718608 14720 net.cpp:397] inception_4c/relu_1x1 -> inception_4c/1x1 (in-place)
I1124 22:50:55.718776 14720 net.cpp:150] Setting up inception_4c/relu_1x1
I1124 22:50:55.718787 14720 net.cpp:157] Top shape: 64 128 14 14 (1605632)
I1124 22:50:55.718791 14720 net.cpp:165] Memory required for data: 2755187716
I1124 22:50:55.718794 14720 layer_factory.hpp:76] Creating layer inception_4c/3x3_reduce
I1124 22:50:55.718803 14720 net.cpp:106] Creating Layer inception_4c/3x3_reduce
I1124 22:50:55.718808 14720 net.cpp:454] inception_4c/3x3_reduce <- inception_4b/output_inception_4b/output_0_split_1
I1124 22:50:55.718814 14720 net.cpp:411] inception_4c/3x3_reduce -> inception_4c/3x3_reduce
I1124 22:50:55.720260 14720 net.cpp:150] Setting up inception_4c/3x3_reduce
I1124 22:50:55.720275 14720 net.cpp:157] Top shape: 64 128 14 14 (1605632)
I1124 22:50:55.720279 14720 net.cpp:165] Memory required for data: 2761610244
I1124 22:50:55.720285 14720 layer_factory.hpp:76] Creating layer inception_4c/relu_3x3_reduce
I1124 22:50:55.720293 14720 net.cpp:106] Creating Layer inception_4c/relu_3x3_reduce
I1124 22:50:55.720298 14720 net.cpp:454] inception_4c/relu_3x3_reduce <- inception_4c/3x3_reduce
I1124 22:50:55.720304 14720 net.cpp:397] inception_4c/relu_3x3_reduce -> inception_4c/3x3_reduce (in-place)
I1124 22:50:55.720613 14720 net.cpp:150] Setting up inception_4c/relu_3x3_reduce
I1124 22:50:55.720626 14720 net.cpp:157] Top shape: 64 128 14 14 (1605632)
I1124 22:50:55.720631 14720 net.cpp:165] Memory required for data: 2768032772
I1124 22:50:55.720635 14720 layer_factory.hpp:76] Creating layer inception_4c/3x3
I1124 22:50:55.720643 14720 net.cpp:106] Creating Layer inception_4c/3x3
I1124 22:50:55.720648 14720 net.cpp:454] inception_4c/3x3 <- inception_4c/3x3_reduce
I1124 22:50:55.720654 14720 net.cpp:411] inception_4c/3x3 -> inception_4c/3x3
I1124 22:50:55.723875 14720 net.cpp:150] Setting up inception_4c/3x3
I1124 22:50:55.723891 14720 net.cpp:157] Top shape: 64 256 14 14 (3211264)
I1124 22:50:55.723893 14720 net.cpp:165] Memory required for data: 2780877828
I1124 22:50:55.723912 14720 layer_factory.hpp:76] Creating layer inception_4c/relu_3x3
I1124 22:50:55.723922 14720 net.cpp:106] Creating Layer inception_4c/relu_3x3
I1124 22:50:55.723925 14720 net.cpp:454] inception_4c/relu_3x3 <- inception_4c/3x3
I1124 22:50:55.723930 14720 net.cpp:397] inception_4c/relu_3x3 -> inception_4c/3x3 (in-place)
I1124 22:50:55.724251 14720 net.cpp:150] Setting up inception_4c/relu_3x3
I1124 22:50:55.724266 14720 net.cpp:157] Top shape: 64 256 14 14 (3211264)
I1124 22:50:55.724268 14720 net.cpp:165] Memory required for data: 2793722884
I1124 22:50:55.724272 14720 layer_factory.hpp:76] Creating layer inception_4c/5x5_reduce
I1124 22:50:55.724282 14720 net.cpp:106] Creating Layer inception_4c/5x5_reduce
I1124 22:50:55.724287 14720 net.cpp:454] inception_4c/5x5_reduce <- inception_4b/output_inception_4b/output_0_split_2
I1124 22:50:55.724293 14720 net.cpp:411] inception_4c/5x5_reduce -> inception_4c/5x5_reduce
I1124 22:50:55.725409 14720 net.cpp:150] Setting up inception_4c/5x5_reduce
I1124 22:50:55.725425 14720 net.cpp:157] Top shape: 64 24 14 14 (301056)
I1124 22:50:55.725428 14720 net.cpp:165] Memory required for data: 2794927108
I1124 22:50:55.725435 14720 layer_factory.hpp:76] Creating layer inception_4c/relu_5x5_reduce
I1124 22:50:55.725440 14720 net.cpp:106] Creating Layer inception_4c/relu_5x5_reduce
I1124 22:50:55.725445 14720 net.cpp:454] inception_4c/relu_5x5_reduce <- inception_4c/5x5_reduce
I1124 22:50:55.725451 14720 net.cpp:397] inception_4c/relu_5x5_reduce -> inception_4c/5x5_reduce (in-place)
I1124 22:50:55.725625 14720 net.cpp:150] Setting up inception_4c/relu_5x5_reduce
I1124 22:50:55.725636 14720 net.cpp:157] Top shape: 64 24 14 14 (301056)
I1124 22:50:55.725639 14720 net.cpp:165] Memory required for data: 2796131332
I1124 22:50:55.725643 14720 layer_factory.hpp:76] Creating layer inception_4c/5x5
I1124 22:50:55.725651 14720 net.cpp:106] Creating Layer inception_4c/5x5
I1124 22:50:55.725656 14720 net.cpp:454] inception_4c/5x5 <- inception_4c/5x5_reduce
I1124 22:50:55.725661 14720 net.cpp:411] inception_4c/5x5 -> inception_4c/5x5
I1124 22:50:55.727377 14720 net.cpp:150] Setting up inception_4c/5x5
I1124 22:50:55.727392 14720 net.cpp:157] Top shape: 64 64 14 14 (802816)
I1124 22:50:55.727396 14720 net.cpp:165] Memory required for data: 2799342596
I1124 22:50:55.727402 14720 layer_factory.hpp:76] Creating layer inception_4c/relu_5x5
I1124 22:50:55.727409 14720 net.cpp:106] Creating Layer inception_4c/relu_5x5
I1124 22:50:55.727413 14720 net.cpp:454] inception_4c/relu_5x5 <- inception_4c/5x5
I1124 22:50:55.727418 14720 net.cpp:397] inception_4c/relu_5x5 -> inception_4c/5x5 (in-place)
I1124 22:50:55.727737 14720 net.cpp:150] Setting up inception_4c/relu_5x5
I1124 22:50:55.727751 14720 net.cpp:157] Top shape: 64 64 14 14 (802816)
I1124 22:50:55.727756 14720 net.cpp:165] Memory required for data: 2802553860
I1124 22:50:55.727758 14720 layer_factory.hpp:76] Creating layer inception_4c/pool
I1124 22:50:55.727767 14720 net.cpp:106] Creating Layer inception_4c/pool
I1124 22:50:55.727771 14720 net.cpp:454] inception_4c/pool <- inception_4b/output_inception_4b/output_0_split_3
I1124 22:50:55.727777 14720 net.cpp:411] inception_4c/pool -> inception_4c/pool
I1124 22:50:55.728000 14720 net.cpp:150] Setting up inception_4c/pool
I1124 22:50:55.728013 14720 net.cpp:157] Top shape: 64 512 14 14 (6422528)
I1124 22:50:55.728016 14720 net.cpp:165] Memory required for data: 2828243972
I1124 22:50:55.728019 14720 layer_factory.hpp:76] Creating layer inception_4c/pool_proj
I1124 22:50:55.728029 14720 net.cpp:106] Creating Layer inception_4c/pool_proj
I1124 22:50:55.728034 14720 net.cpp:454] inception_4c/pool_proj <- inception_4c/pool
I1124 22:50:55.728041 14720 net.cpp:411] inception_4c/pool_proj -> inception_4c/pool_proj
I1124 22:50:55.729432 14720 net.cpp:150] Setting up inception_4c/pool_proj
I1124 22:50:55.729447 14720 net.cpp:157] Top shape: 64 64 14 14 (802816)
I1124 22:50:55.729451 14720 net.cpp:165] Memory required for data: 2831455236
I1124 22:50:55.729457 14720 layer_factory.hpp:76] Creating layer inception_4c/relu_pool_proj
I1124 22:50:55.729465 14720 net.cpp:106] Creating Layer inception_4c/relu_pool_proj
I1124 22:50:55.729468 14720 net.cpp:454] inception_4c/relu_pool_proj <- inception_4c/pool_proj
I1124 22:50:55.729473 14720 net.cpp:397] inception_4c/relu_pool_proj -> inception_4c/pool_proj (in-place)
I1124 22:50:55.729787 14720 net.cpp:150] Setting up inception_4c/relu_pool_proj
I1124 22:50:55.729801 14720 net.cpp:157] Top shape: 64 64 14 14 (802816)
I1124 22:50:55.729805 14720 net.cpp:165] Memory required for data: 2834666500
I1124 22:50:55.729809 14720 layer_factory.hpp:76] Creating layer inception_4c/output
I1124 22:50:55.729815 14720 net.cpp:106] Creating Layer inception_4c/output
I1124 22:50:55.729820 14720 net.cpp:454] inception_4c/output <- inception_4c/1x1
I1124 22:50:55.729825 14720 net.cpp:454] inception_4c/output <- inception_4c/3x3
I1124 22:50:55.729830 14720 net.cpp:454] inception_4c/output <- inception_4c/5x5
I1124 22:50:55.729833 14720 net.cpp:454] inception_4c/output <- inception_4c/pool_proj
I1124 22:50:55.729837 14720 net.cpp:411] inception_4c/output -> inception_4c/output
I1124 22:50:55.729873 14720 net.cpp:150] Setting up inception_4c/output
I1124 22:50:55.729881 14720 net.cpp:157] Top shape: 64 512 14 14 (6422528)
I1124 22:50:55.729883 14720 net.cpp:165] Memory required for data: 2860356612
I1124 22:50:55.729887 14720 layer_factory.hpp:76] Creating layer inception_4c/output_inception_4c/output_0_split
I1124 22:50:55.729893 14720 net.cpp:106] Creating Layer inception_4c/output_inception_4c/output_0_split
I1124 22:50:55.729897 14720 net.cpp:454] inception_4c/output_inception_4c/output_0_split <- inception_4c/output
I1124 22:50:55.729902 14720 net.cpp:411] inception_4c/output_inception_4c/output_0_split -> inception_4c/output_inception_4c/output_0_split_0
I1124 22:50:55.729907 14720 net.cpp:411] inception_4c/output_inception_4c/output_0_split -> inception_4c/output_inception_4c/output_0_split_1
I1124 22:50:55.729913 14720 net.cpp:411] inception_4c/output_inception_4c/output_0_split -> inception_4c/output_inception_4c/output_0_split_2
I1124 22:50:55.729918 14720 net.cpp:411] inception_4c/output_inception_4c/output_0_split -> inception_4c/output_inception_4c/output_0_split_3
I1124 22:50:55.729985 14720 net.cpp:150] Setting up inception_4c/output_inception_4c/output_0_split
I1124 22:50:55.729991 14720 net.cpp:157] Top shape: 64 512 14 14 (6422528)
I1124 22:50:55.729995 14720 net.cpp:157] Top shape: 64 512 14 14 (6422528)
I1124 22:50:55.729998 14720 net.cpp:157] Top shape: 64 512 14 14 (6422528)
I1124 22:50:55.730002 14720 net.cpp:157] Top shape: 64 512 14 14 (6422528)
I1124 22:50:55.730005 14720 net.cpp:165] Memory required for data: 2963117060
I1124 22:50:55.730008 14720 layer_factory.hpp:76] Creating layer inception_4d/1x1
I1124 22:50:55.730021 14720 net.cpp:106] Creating Layer inception_4d/1x1
I1124 22:50:55.730026 14720 net.cpp:454] inception_4d/1x1 <- inception_4c/output_inception_4c/output_0_split_0
I1124 22:50:55.730032 14720 net.cpp:411] inception_4d/1x1 -> inception_4d/1x1
I1124 22:50:55.731297 14720 net.cpp:150] Setting up inception_4d/1x1
I1124 22:50:55.731312 14720 net.cpp:157] Top shape: 64 112 14 14 (1404928)
I1124 22:50:55.731315 14720 net.cpp:165] Memory required for data: 2968736772
I1124 22:50:55.731323 14720 layer_factory.hpp:76] Creating layer inception_4d/relu_1x1
I1124 22:50:55.731329 14720 net.cpp:106] Creating Layer inception_4d/relu_1x1
I1124 22:50:55.731333 14720 net.cpp:454] inception_4d/relu_1x1 <- inception_4d/1x1
I1124 22:50:55.731339 14720 net.cpp:397] inception_4d/relu_1x1 -> inception_4d/1x1 (in-place)
I1124 22:50:55.731653 14720 net.cpp:150] Setting up inception_4d/relu_1x1
I1124 22:50:55.731667 14720 net.cpp:157] Top shape: 64 112 14 14 (1404928)
I1124 22:50:55.731670 14720 net.cpp:165] Memory required for data: 2974356484
I1124 22:50:55.731674 14720 layer_factory.hpp:76] Creating layer inception_4d/3x3_reduce
I1124 22:50:55.731684 14720 net.cpp:106] Creating Layer inception_4d/3x3_reduce
I1124 22:50:55.731688 14720 net.cpp:454] inception_4d/3x3_reduce <- inception_4c/output_inception_4c/output_0_split_1
I1124 22:50:55.731696 14720 net.cpp:411] inception_4d/3x3_reduce -> inception_4d/3x3_reduce
I1124 22:50:55.733253 14720 net.cpp:150] Setting up inception_4d/3x3_reduce
I1124 22:50:55.733268 14720 net.cpp:157] Top shape: 64 144 14 14 (1806336)
I1124 22:50:55.733271 14720 net.cpp:165] Memory required for data: 2981581828
I1124 22:50:55.733278 14720 layer_factory.hpp:76] Creating layer inception_4d/relu_3x3_reduce
I1124 22:50:55.733285 14720 net.cpp:106] Creating Layer inception_4d/relu_3x3_reduce
I1124 22:50:55.733290 14720 net.cpp:454] inception_4d/relu_3x3_reduce <- inception_4d/3x3_reduce
I1124 22:50:55.733295 14720 net.cpp:397] inception_4d/relu_3x3_reduce -> inception_4d/3x3_reduce (in-place)
I1124 22:50:55.733471 14720 net.cpp:150] Setting up inception_4d/relu_3x3_reduce
I1124 22:50:55.733484 14720 net.cpp:157] Top shape: 64 144 14 14 (1806336)
I1124 22:50:55.733486 14720 net.cpp:165] Memory required for data: 2988807172
I1124 22:50:55.733489 14720 layer_factory.hpp:76] Creating layer inception_4d/3x3
I1124 22:50:55.733500 14720 net.cpp:106] Creating Layer inception_4d/3x3
I1124 22:50:55.733505 14720 net.cpp:454] inception_4d/3x3 <- inception_4d/3x3_reduce
I1124 22:50:55.733510 14720 net.cpp:411] inception_4d/3x3 -> inception_4d/3x3
I1124 22:50:55.737445 14720 net.cpp:150] Setting up inception_4d/3x3
I1124 22:50:55.737462 14720 net.cpp:157] Top shape: 64 288 14 14 (3612672)
I1124 22:50:55.737464 14720 net.cpp:165] Memory required for data: 3003257860
I1124 22:50:55.737471 14720 layer_factory.hpp:76] Creating layer inception_4d/relu_3x3
I1124 22:50:55.737478 14720 net.cpp:106] Creating Layer inception_4d/relu_3x3
I1124 22:50:55.737483 14720 net.cpp:454] inception_4d/relu_3x3 <- inception_4d/3x3
I1124 22:50:55.737488 14720 net.cpp:397] inception_4d/relu_3x3 -> inception_4d/3x3 (in-place)
I1124 22:50:55.737802 14720 net.cpp:150] Setting up inception_4d/relu_3x3
I1124 22:50:55.737817 14720 net.cpp:157] Top shape: 64 288 14 14 (3612672)
I1124 22:50:55.737820 14720 net.cpp:165] Memory required for data: 3017708548
I1124 22:50:55.737823 14720 layer_factory.hpp:76] Creating layer inception_4d/5x5_reduce
I1124 22:50:55.737835 14720 net.cpp:106] Creating Layer inception_4d/5x5_reduce
I1124 22:50:55.737839 14720 net.cpp:454] inception_4d/5x5_reduce <- inception_4c/output_inception_4c/output_0_split_2
I1124 22:50:55.737846 14720 net.cpp:411] inception_4d/5x5_reduce -> inception_4d/5x5_reduce
I1124 22:50:55.738875 14720 net.cpp:150] Setting up inception_4d/5x5_reduce
I1124 22:50:55.738890 14720 net.cpp:157] Top shape: 64 32 14 14 (401408)
I1124 22:50:55.738893 14720 net.cpp:165] Memory required for data: 3019314180
I1124 22:50:55.738900 14720 layer_factory.hpp:76] Creating layer inception_4d/relu_5x5_reduce
I1124 22:50:55.738908 14720 net.cpp:106] Creating Layer inception_4d/relu_5x5_reduce
I1124 22:50:55.738912 14720 net.cpp:454] inception_4d/relu_5x5_reduce <- inception_4d/5x5_reduce
I1124 22:50:55.738919 14720 net.cpp:397] inception_4d/relu_5x5_reduce -> inception_4d/5x5_reduce (in-place)
I1124 22:50:55.739233 14720 net.cpp:150] Setting up inception_4d/relu_5x5_reduce
I1124 22:50:55.739246 14720 net.cpp:157] Top shape: 64 32 14 14 (401408)
I1124 22:50:55.739250 14720 net.cpp:165] Memory required for data: 3020919812
I1124 22:50:55.739253 14720 layer_factory.hpp:76] Creating layer inception_4d/5x5
I1124 22:50:55.739262 14720 net.cpp:106] Creating Layer inception_4d/5x5
I1124 22:50:55.739267 14720 net.cpp:454] inception_4d/5x5 <- inception_4d/5x5_reduce
I1124 22:50:55.739274 14720 net.cpp:411] inception_4d/5x5 -> inception_4d/5x5
I1124 22:50:55.740664 14720 net.cpp:150] Setting up inception_4d/5x5
I1124 22:50:55.740679 14720 net.cpp:157] Top shape: 64 64 14 14 (802816)
I1124 22:50:55.740684 14720 net.cpp:165] Memory required for data: 3024131076
I1124 22:50:55.740689 14720 layer_factory.hpp:76] Creating layer inception_4d/relu_5x5
I1124 22:50:55.740695 14720 net.cpp:106] Creating Layer inception_4d/relu_5x5
I1124 22:50:55.740700 14720 net.cpp:454] inception_4d/relu_5x5 <- inception_4d/5x5
I1124 22:50:55.740707 14720 net.cpp:397] inception_4d/relu_5x5 -> inception_4d/5x5 (in-place)
I1124 22:50:55.740881 14720 net.cpp:150] Setting up inception_4d/relu_5x5
I1124 22:50:55.740893 14720 net.cpp:157] Top shape: 64 64 14 14 (802816)
I1124 22:50:55.740896 14720 net.cpp:165] Memory required for data: 3027342340
I1124 22:50:55.740900 14720 layer_factory.hpp:76] Creating layer inception_4d/pool
I1124 22:50:55.740906 14720 net.cpp:106] Creating Layer inception_4d/pool
I1124 22:50:55.740911 14720 net.cpp:454] inception_4d/pool <- inception_4c/output_inception_4c/output_0_split_3
I1124 22:50:55.740916 14720 net.cpp:411] inception_4d/pool -> inception_4d/pool
I1124 22:50:55.741267 14720 net.cpp:150] Setting up inception_4d/pool
I1124 22:50:55.741281 14720 net.cpp:157] Top shape: 64 512 14 14 (6422528)
I1124 22:50:55.741284 14720 net.cpp:165] Memory required for data: 3053032452
I1124 22:50:55.741288 14720 layer_factory.hpp:76] Creating layer inception_4d/pool_proj
I1124 22:50:55.741297 14720 net.cpp:106] Creating Layer inception_4d/pool_proj
I1124 22:50:55.741300 14720 net.cpp:454] inception_4d/pool_proj <- inception_4d/pool
I1124 22:50:55.741307 14720 net.cpp:411] inception_4d/pool_proj -> inception_4d/pool_proj
I1124 22:50:55.742588 14720 net.cpp:150] Setting up inception_4d/pool_proj
I1124 22:50:55.742604 14720 net.cpp:157] Top shape: 64 64 14 14 (802816)
I1124 22:50:55.742609 14720 net.cpp:165] Memory required for data: 3056243716
I1124 22:50:55.742614 14720 layer_factory.hpp:76] Creating layer inception_4d/relu_pool_proj
I1124 22:50:55.742620 14720 net.cpp:106] Creating Layer inception_4d/relu_pool_proj
I1124 22:50:55.742624 14720 net.cpp:454] inception_4d/relu_pool_proj <- inception_4d/pool_proj
I1124 22:50:55.742630 14720 net.cpp:397] inception_4d/relu_pool_proj -> inception_4d/pool_proj (in-place)
I1124 22:50:55.742806 14720 net.cpp:150] Setting up inception_4d/relu_pool_proj
I1124 22:50:55.742817 14720 net.cpp:157] Top shape: 64 64 14 14 (802816)
I1124 22:50:55.742820 14720 net.cpp:165] Memory required for data: 3059454980
I1124 22:50:55.742825 14720 layer_factory.hpp:76] Creating layer inception_4d/output
I1124 22:50:55.742830 14720 net.cpp:106] Creating Layer inception_4d/output
I1124 22:50:55.742835 14720 net.cpp:454] inception_4d/output <- inception_4d/1x1
I1124 22:50:55.742840 14720 net.cpp:454] inception_4d/output <- inception_4d/3x3
I1124 22:50:55.742843 14720 net.cpp:454] inception_4d/output <- inception_4d/5x5
I1124 22:50:55.742846 14720 net.cpp:454] inception_4d/output <- inception_4d/pool_proj
I1124 22:50:55.742852 14720 net.cpp:411] inception_4d/output -> inception_4d/output
I1124 22:50:55.742890 14720 net.cpp:150] Setting up inception_4d/output
I1124 22:50:55.742897 14720 net.cpp:157] Top shape: 64 528 14 14 (6623232)
I1124 22:50:55.742899 14720 net.cpp:165] Memory required for data: 3085947908
I1124 22:50:55.742902 14720 layer_factory.hpp:76] Creating layer inception_4d/output_inception_4d/output_0_split
I1124 22:50:55.742908 14720 net.cpp:106] Creating Layer inception_4d/output_inception_4d/output_0_split
I1124 22:50:55.742913 14720 net.cpp:454] inception_4d/output_inception_4d/output_0_split <- inception_4d/output
I1124 22:50:55.742918 14720 net.cpp:411] inception_4d/output_inception_4d/output_0_split -> inception_4d/output_inception_4d/output_0_split_0
I1124 22:50:55.742924 14720 net.cpp:411] inception_4d/output_inception_4d/output_0_split -> inception_4d/output_inception_4d/output_0_split_1
I1124 22:50:55.742931 14720 net.cpp:411] inception_4d/output_inception_4d/output_0_split -> inception_4d/output_inception_4d/output_0_split_2
I1124 22:50:55.742936 14720 net.cpp:411] inception_4d/output_inception_4d/output_0_split -> inception_4d/output_inception_4d/output_0_split_3
I1124 22:50:55.742941 14720 net.cpp:411] inception_4d/output_inception_4d/output_0_split -> inception_4d/output_inception_4d/output_0_split_4
I1124 22:50:55.743026 14720 net.cpp:150] Setting up inception_4d/output_inception_4d/output_0_split
I1124 22:50:55.743036 14720 net.cpp:157] Top shape: 64 528 14 14 (6623232)
I1124 22:50:55.743039 14720 net.cpp:157] Top shape: 64 528 14 14 (6623232)
I1124 22:50:55.743043 14720 net.cpp:157] Top shape: 64 528 14 14 (6623232)
I1124 22:50:55.743047 14720 net.cpp:157] Top shape: 64 528 14 14 (6623232)
I1124 22:50:55.743051 14720 net.cpp:157] Top shape: 64 528 14 14 (6623232)
I1124 22:50:55.743053 14720 net.cpp:165] Memory required for data: 3218412548
I1124 22:50:55.743057 14720 layer_factory.hpp:76] Creating layer loss2/ave_pool
I1124 22:50:55.743062 14720 net.cpp:106] Creating Layer loss2/ave_pool
I1124 22:50:55.743065 14720 net.cpp:454] loss2/ave_pool <- inception_4d/output_inception_4d/output_0_split_0
I1124 22:50:55.743072 14720 net.cpp:411] loss2/ave_pool -> loss2/ave_pool
I1124 22:50:55.743419 14720 net.cpp:150] Setting up loss2/ave_pool
I1124 22:50:55.743432 14720 net.cpp:157] Top shape: 64 528 4 4 (540672)
I1124 22:50:55.743437 14720 net.cpp:165] Memory required for data: 3220575236
I1124 22:50:55.743440 14720 layer_factory.hpp:76] Creating layer loss2/conv
I1124 22:50:55.743448 14720 net.cpp:106] Creating Layer loss2/conv
I1124 22:50:55.743453 14720 net.cpp:454] loss2/conv <- loss2/ave_pool
I1124 22:50:55.743458 14720 net.cpp:411] loss2/conv -> loss2/conv
I1124 22:50:55.745249 14720 net.cpp:150] Setting up loss2/conv
I1124 22:50:55.745265 14720 net.cpp:157] Top shape: 64 128 4 4 (131072)
I1124 22:50:55.745268 14720 net.cpp:165] Memory required for data: 3221099524
I1124 22:50:55.745275 14720 layer_factory.hpp:76] Creating layer loss2/relu_conv
I1124 22:50:55.745282 14720 net.cpp:106] Creating Layer loss2/relu_conv
I1124 22:50:55.745286 14720 net.cpp:454] loss2/relu_conv <- loss2/conv
I1124 22:50:55.745292 14720 net.cpp:397] loss2/relu_conv -> loss2/conv (in-place)
I1124 22:50:55.745734 14720 net.cpp:150] Setting up loss2/relu_conv
I1124 22:50:55.745748 14720 net.cpp:157] Top shape: 64 128 4 4 (131072)
I1124 22:50:55.745753 14720 net.cpp:165] Memory required for data: 3221623812
I1124 22:50:55.745756 14720 layer_factory.hpp:76] Creating layer loss2/fc
I1124 22:50:55.745764 14720 net.cpp:106] Creating Layer loss2/fc
I1124 22:50:55.745769 14720 net.cpp:454] loss2/fc <- loss2/conv
I1124 22:50:55.745775 14720 net.cpp:411] loss2/fc -> loss2/fc
I1124 22:50:55.761298 14720 net.cpp:150] Setting up loss2/fc
I1124 22:50:55.761313 14720 net.cpp:157] Top shape: 64 1024 (65536)
I1124 22:50:55.761317 14720 net.cpp:165] Memory required for data: 3221885956
I1124 22:50:55.761323 14720 layer_factory.hpp:76] Creating layer loss2/relu_fc
I1124 22:50:55.761329 14720 net.cpp:106] Creating Layer loss2/relu_fc
I1124 22:50:55.761333 14720 net.cpp:454] loss2/relu_fc <- loss2/fc
I1124 22:50:55.761340 14720 net.cpp:397] loss2/relu_fc -> loss2/fc (in-place)
I1124 22:50:55.761529 14720 net.cpp:150] Setting up loss2/relu_fc
I1124 22:50:55.761541 14720 net.cpp:157] Top shape: 64 1024 (65536)
I1124 22:50:55.761544 14720 net.cpp:165] Memory required for data: 3222148100
I1124 22:50:55.761548 14720 layer_factory.hpp:76] Creating layer loss2/drop_fc
I1124 22:50:55.761556 14720 net.cpp:106] Creating Layer loss2/drop_fc
I1124 22:50:55.761560 14720 net.cpp:454] loss2/drop_fc <- loss2/fc
I1124 22:50:55.761565 14720 net.cpp:397] loss2/drop_fc -> loss2/fc (in-place)
I1124 22:50:55.761601 14720 net.cpp:150] Setting up loss2/drop_fc
I1124 22:50:55.761611 14720 net.cpp:157] Top shape: 64 1024 (65536)
I1124 22:50:55.761615 14720 net.cpp:165] Memory required for data: 3222410244
I1124 22:50:55.761617 14720 layer_factory.hpp:76] Creating layer loss2/classifier-attribute
I1124 22:50:55.761626 14720 net.cpp:106] Creating Layer loss2/classifier-attribute
I1124 22:50:55.761629 14720 net.cpp:454] loss2/classifier-attribute <- loss2/fc
I1124 22:50:55.761636 14720 net.cpp:411] loss2/classifier-attribute -> loss2/classifier-attribute
I1124 22:50:55.761872 14720 net.cpp:150] Setting up loss2/classifier-attribute
I1124 22:50:55.761881 14720 net.cpp:157] Top shape: 64 16 (1024)
I1124 22:50:55.761884 14720 net.cpp:165] Memory required for data: 3222414340
I1124 22:50:55.761890 14720 layer_factory.hpp:76] Creating layer loss2/loss
I1124 22:50:55.761896 14720 net.cpp:106] Creating Layer loss2/loss
I1124 22:50:55.761900 14720 net.cpp:454] loss2/loss <- loss2/classifier-attribute
I1124 22:50:55.761904 14720 net.cpp:454] loss2/loss <- label_data_1_split_1
I1124 22:50:55.761910 14720 net.cpp:411] loss2/loss -> loss2/loss1
I1124 22:50:55.761917 14720 layer_factory.hpp:76] Creating layer loss2/loss
I1124 22:50:55.762341 14720 net.cpp:150] Setting up loss2/loss
I1124 22:50:55.762356 14720 net.cpp:157] Top shape: (1)
I1124 22:50:55.762359 14720 net.cpp:160]     with loss weight 0.3
I1124 22:50:55.762370 14720 net.cpp:165] Memory required for data: 3222414344
I1124 22:50:55.762373 14720 layer_factory.hpp:76] Creating layer inception_4e/1x1
I1124 22:50:55.762382 14720 net.cpp:106] Creating Layer inception_4e/1x1
I1124 22:50:55.762387 14720 net.cpp:454] inception_4e/1x1 <- inception_4d/output_inception_4d/output_0_split_1
I1124 22:50:55.762393 14720 net.cpp:411] inception_4e/1x1 -> inception_4e/1x1
I1124 22:50:55.764331 14720 net.cpp:150] Setting up inception_4e/1x1
I1124 22:50:55.764348 14720 net.cpp:157] Top shape: 64 256 14 14 (3211264)
I1124 22:50:55.764350 14720 net.cpp:165] Memory required for data: 3235259400
I1124 22:50:55.764358 14720 layer_factory.hpp:76] Creating layer inception_4e/relu_1x1
I1124 22:50:55.764364 14720 net.cpp:106] Creating Layer inception_4e/relu_1x1
I1124 22:50:55.764369 14720 net.cpp:454] inception_4e/relu_1x1 <- inception_4e/1x1
I1124 22:50:55.764375 14720 net.cpp:397] inception_4e/relu_1x1 -> inception_4e/1x1 (in-place)
I1124 22:50:55.764554 14720 net.cpp:150] Setting up inception_4e/relu_1x1
I1124 22:50:55.764564 14720 net.cpp:157] Top shape: 64 256 14 14 (3211264)
I1124 22:50:55.764569 14720 net.cpp:165] Memory required for data: 3248104456
I1124 22:50:55.764571 14720 layer_factory.hpp:76] Creating layer inception_4e/3x3_reduce
I1124 22:50:55.764580 14720 net.cpp:106] Creating Layer inception_4e/3x3_reduce
I1124 22:50:55.764585 14720 net.cpp:454] inception_4e/3x3_reduce <- inception_4d/output_inception_4d/output_0_split_2
I1124 22:50:55.764592 14720 net.cpp:411] inception_4e/3x3_reduce -> inception_4e/3x3_reduce
I1124 22:50:55.766635 14720 net.cpp:150] Setting up inception_4e/3x3_reduce
I1124 22:50:55.766651 14720 net.cpp:157] Top shape: 64 160 14 14 (2007040)
I1124 22:50:55.766654 14720 net.cpp:165] Memory required for data: 3256132616
I1124 22:50:55.766661 14720 layer_factory.hpp:76] Creating layer inception_4e/relu_3x3_reduce
I1124 22:50:55.766667 14720 net.cpp:106] Creating Layer inception_4e/relu_3x3_reduce
I1124 22:50:55.766671 14720 net.cpp:454] inception_4e/relu_3x3_reduce <- inception_4e/3x3_reduce
I1124 22:50:55.766676 14720 net.cpp:397] inception_4e/relu_3x3_reduce -> inception_4e/3x3_reduce (in-place)
I1124 22:50:55.766999 14720 net.cpp:150] Setting up inception_4e/relu_3x3_reduce
I1124 22:50:55.767012 14720 net.cpp:157] Top shape: 64 160 14 14 (2007040)
I1124 22:50:55.767016 14720 net.cpp:165] Memory required for data: 3264160776
I1124 22:50:55.767019 14720 layer_factory.hpp:76] Creating layer inception_4e/3x3
I1124 22:50:55.767030 14720 net.cpp:106] Creating Layer inception_4e/3x3
I1124 22:50:55.767035 14720 net.cpp:454] inception_4e/3x3 <- inception_4e/3x3_reduce
I1124 22:50:55.767041 14720 net.cpp:411] inception_4e/3x3 -> inception_4e/3x3
I1124 22:50:55.771527 14720 net.cpp:150] Setting up inception_4e/3x3
I1124 22:50:55.771543 14720 net.cpp:157] Top shape: 64 320 14 14 (4014080)
I1124 22:50:55.771545 14720 net.cpp:165] Memory required for data: 3280217096
I1124 22:50:55.771553 14720 layer_factory.hpp:76] Creating layer inception_4e/relu_3x3
I1124 22:50:55.771559 14720 net.cpp:106] Creating Layer inception_4e/relu_3x3
I1124 22:50:55.771564 14720 net.cpp:454] inception_4e/relu_3x3 <- inception_4e/3x3
I1124 22:50:55.771569 14720 net.cpp:397] inception_4e/relu_3x3 -> inception_4e/3x3 (in-place)
I1124 22:50:55.771888 14720 net.cpp:150] Setting up inception_4e/relu_3x3
I1124 22:50:55.771903 14720 net.cpp:157] Top shape: 64 320 14 14 (4014080)
I1124 22:50:55.771906 14720 net.cpp:165] Memory required for data: 3296273416
I1124 22:50:55.771909 14720 layer_factory.hpp:76] Creating layer inception_4e/5x5_reduce
I1124 22:50:55.771920 14720 net.cpp:106] Creating Layer inception_4e/5x5_reduce
I1124 22:50:55.771925 14720 net.cpp:454] inception_4e/5x5_reduce <- inception_4d/output_inception_4d/output_0_split_3
I1124 22:50:55.771931 14720 net.cpp:411] inception_4e/5x5_reduce -> inception_4e/5x5_reduce
I1124 22:50:55.773169 14720 net.cpp:150] Setting up inception_4e/5x5_reduce
I1124 22:50:55.773185 14720 net.cpp:157] Top shape: 64 32 14 14 (401408)
I1124 22:50:55.773190 14720 net.cpp:165] Memory required for data: 3297879048
I1124 22:50:55.773195 14720 layer_factory.hpp:76] Creating layer inception_4e/relu_5x5_reduce
I1124 22:50:55.773201 14720 net.cpp:106] Creating Layer inception_4e/relu_5x5_reduce
I1124 22:50:55.773206 14720 net.cpp:454] inception_4e/relu_5x5_reduce <- inception_4e/5x5_reduce
I1124 22:50:55.773212 14720 net.cpp:397] inception_4e/relu_5x5_reduce -> inception_4e/5x5_reduce (in-place)
I1124 22:50:55.773391 14720 net.cpp:150] Setting up inception_4e/relu_5x5_reduce
I1124 22:50:55.773401 14720 net.cpp:157] Top shape: 64 32 14 14 (401408)
I1124 22:50:55.773406 14720 net.cpp:165] Memory required for data: 3299484680
I1124 22:50:55.773408 14720 layer_factory.hpp:76] Creating layer inception_4e/5x5
I1124 22:50:55.773434 14720 net.cpp:106] Creating Layer inception_4e/5x5
I1124 22:50:55.773439 14720 net.cpp:454] inception_4e/5x5 <- inception_4e/5x5_reduce
I1124 22:50:55.773445 14720 net.cpp:411] inception_4e/5x5 -> inception_4e/5x5
I1124 22:50:55.775212 14720 net.cpp:150] Setting up inception_4e/5x5
I1124 22:50:55.775228 14720 net.cpp:157] Top shape: 64 128 14 14 (1605632)
I1124 22:50:55.775231 14720 net.cpp:165] Memory required for data: 3305907208
I1124 22:50:55.775238 14720 layer_factory.hpp:76] Creating layer inception_4e/relu_5x5
I1124 22:50:55.775246 14720 net.cpp:106] Creating Layer inception_4e/relu_5x5
I1124 22:50:55.775250 14720 net.cpp:454] inception_4e/relu_5x5 <- inception_4e/5x5
I1124 22:50:55.775256 14720 net.cpp:397] inception_4e/relu_5x5 -> inception_4e/5x5 (in-place)
I1124 22:50:55.775578 14720 net.cpp:150] Setting up inception_4e/relu_5x5
I1124 22:50:55.775591 14720 net.cpp:157] Top shape: 64 128 14 14 (1605632)
I1124 22:50:55.775595 14720 net.cpp:165] Memory required for data: 3312329736
I1124 22:50:55.775599 14720 layer_factory.hpp:76] Creating layer inception_4e/pool
I1124 22:50:55.775606 14720 net.cpp:106] Creating Layer inception_4e/pool
I1124 22:50:55.775611 14720 net.cpp:454] inception_4e/pool <- inception_4d/output_inception_4d/output_0_split_4
I1124 22:50:55.775617 14720 net.cpp:411] inception_4e/pool -> inception_4e/pool
I1124 22:50:55.775842 14720 net.cpp:150] Setting up inception_4e/pool
I1124 22:50:55.775854 14720 net.cpp:157] Top shape: 64 528 14 14 (6623232)
I1124 22:50:55.775857 14720 net.cpp:165] Memory required for data: 3338822664
I1124 22:50:55.775861 14720 layer_factory.hpp:76] Creating layer inception_4e/pool_proj
I1124 22:50:55.775871 14720 net.cpp:106] Creating Layer inception_4e/pool_proj
I1124 22:50:55.775876 14720 net.cpp:454] inception_4e/pool_proj <- inception_4e/pool
I1124 22:50:55.775881 14720 net.cpp:411] inception_4e/pool_proj -> inception_4e/pool_proj
I1124 22:50:55.777456 14720 net.cpp:150] Setting up inception_4e/pool_proj
I1124 22:50:55.777472 14720 net.cpp:157] Top shape: 64 128 14 14 (1605632)
I1124 22:50:55.777475 14720 net.cpp:165] Memory required for data: 3345245192
I1124 22:50:55.777482 14720 layer_factory.hpp:76] Creating layer inception_4e/relu_pool_proj
I1124 22:50:55.777488 14720 net.cpp:106] Creating Layer inception_4e/relu_pool_proj
I1124 22:50:55.777493 14720 net.cpp:454] inception_4e/relu_pool_proj <- inception_4e/pool_proj
I1124 22:50:55.777498 14720 net.cpp:397] inception_4e/relu_pool_proj -> inception_4e/pool_proj (in-place)
I1124 22:50:55.777827 14720 net.cpp:150] Setting up inception_4e/relu_pool_proj
I1124 22:50:55.777842 14720 net.cpp:157] Top shape: 64 128 14 14 (1605632)
I1124 22:50:55.777847 14720 net.cpp:165] Memory required for data: 3351667720
I1124 22:50:55.777849 14720 layer_factory.hpp:76] Creating layer inception_4e/output
I1124 22:50:55.777856 14720 net.cpp:106] Creating Layer inception_4e/output
I1124 22:50:55.777860 14720 net.cpp:454] inception_4e/output <- inception_4e/1x1
I1124 22:50:55.777865 14720 net.cpp:454] inception_4e/output <- inception_4e/3x3
I1124 22:50:55.777869 14720 net.cpp:454] inception_4e/output <- inception_4e/5x5
I1124 22:50:55.777874 14720 net.cpp:454] inception_4e/output <- inception_4e/pool_proj
I1124 22:50:55.777879 14720 net.cpp:411] inception_4e/output -> inception_4e/output
I1124 22:50:55.777920 14720 net.cpp:150] Setting up inception_4e/output
I1124 22:50:55.777926 14720 net.cpp:157] Top shape: 64 832 14 14 (10436608)
I1124 22:50:55.777930 14720 net.cpp:165] Memory required for data: 3393414152
I1124 22:50:55.777932 14720 layer_factory.hpp:76] Creating layer pool4/3x3_s2
I1124 22:50:55.777940 14720 net.cpp:106] Creating Layer pool4/3x3_s2
I1124 22:50:55.777943 14720 net.cpp:454] pool4/3x3_s2 <- inception_4e/output
I1124 22:50:55.777950 14720 net.cpp:411] pool4/3x3_s2 -> pool4/3x3_s2
I1124 22:50:55.778167 14720 net.cpp:150] Setting up pool4/3x3_s2
I1124 22:50:55.778178 14720 net.cpp:157] Top shape: 64 832 7 7 (2609152)
I1124 22:50:55.778182 14720 net.cpp:165] Memory required for data: 3403850760
I1124 22:50:55.778185 14720 layer_factory.hpp:76] Creating layer pool4/3x3_s2_pool4/3x3_s2_0_split
I1124 22:50:55.778192 14720 net.cpp:106] Creating Layer pool4/3x3_s2_pool4/3x3_s2_0_split
I1124 22:50:55.778195 14720 net.cpp:454] pool4/3x3_s2_pool4/3x3_s2_0_split <- pool4/3x3_s2
I1124 22:50:55.778201 14720 net.cpp:411] pool4/3x3_s2_pool4/3x3_s2_0_split -> pool4/3x3_s2_pool4/3x3_s2_0_split_0
I1124 22:50:55.778208 14720 net.cpp:411] pool4/3x3_s2_pool4/3x3_s2_0_split -> pool4/3x3_s2_pool4/3x3_s2_0_split_1
I1124 22:50:55.778213 14720 net.cpp:411] pool4/3x3_s2_pool4/3x3_s2_0_split -> pool4/3x3_s2_pool4/3x3_s2_0_split_2
I1124 22:50:55.778219 14720 net.cpp:411] pool4/3x3_s2_pool4/3x3_s2_0_split -> pool4/3x3_s2_pool4/3x3_s2_0_split_3
I1124 22:50:55.778295 14720 net.cpp:150] Setting up pool4/3x3_s2_pool4/3x3_s2_0_split
I1124 22:50:55.778304 14720 net.cpp:157] Top shape: 64 832 7 7 (2609152)
I1124 22:50:55.778308 14720 net.cpp:157] Top shape: 64 832 7 7 (2609152)
I1124 22:50:55.778312 14720 net.cpp:157] Top shape: 64 832 7 7 (2609152)
I1124 22:50:55.778316 14720 net.cpp:157] Top shape: 64 832 7 7 (2609152)
I1124 22:50:55.778319 14720 net.cpp:165] Memory required for data: 3445597192
I1124 22:50:55.778322 14720 layer_factory.hpp:76] Creating layer inception_5a/1x1
I1124 22:50:55.778329 14720 net.cpp:106] Creating Layer inception_5a/1x1
I1124 22:50:55.778333 14720 net.cpp:454] inception_5a/1x1 <- pool4/3x3_s2_pool4/3x3_s2_0_split_0
I1124 22:50:55.778340 14720 net.cpp:411] inception_5a/1x1 -> inception_5a/1x1
I1124 22:50:55.781219 14720 net.cpp:150] Setting up inception_5a/1x1
I1124 22:50:55.781234 14720 net.cpp:157] Top shape: 64 256 7 7 (802816)
I1124 22:50:55.781237 14720 net.cpp:165] Memory required for data: 3448808456
I1124 22:50:55.781244 14720 layer_factory.hpp:76] Creating layer inception_5a/relu_1x1
I1124 22:50:55.781250 14720 net.cpp:106] Creating Layer inception_5a/relu_1x1
I1124 22:50:55.781254 14720 net.cpp:454] inception_5a/relu_1x1 <- inception_5a/1x1
I1124 22:50:55.781260 14720 net.cpp:397] inception_5a/relu_1x1 -> inception_5a/1x1 (in-place)
I1124 22:50:55.781569 14720 net.cpp:150] Setting up inception_5a/relu_1x1
I1124 22:50:55.781584 14720 net.cpp:157] Top shape: 64 256 7 7 (802816)
I1124 22:50:55.781587 14720 net.cpp:165] Memory required for data: 3452019720
I1124 22:50:55.781591 14720 layer_factory.hpp:76] Creating layer inception_5a/3x3_reduce
I1124 22:50:55.781600 14720 net.cpp:106] Creating Layer inception_5a/3x3_reduce
I1124 22:50:55.781605 14720 net.cpp:454] inception_5a/3x3_reduce <- pool4/3x3_s2_pool4/3x3_s2_0_split_1
I1124 22:50:55.781615 14720 net.cpp:411] inception_5a/3x3_reduce -> inception_5a/3x3_reduce
I1124 22:50:55.784030 14720 net.cpp:150] Setting up inception_5a/3x3_reduce
I1124 22:50:55.784045 14720 net.cpp:157] Top shape: 64 160 7 7 (501760)
I1124 22:50:55.784049 14720 net.cpp:165] Memory required for data: 3454026760
I1124 22:50:55.784055 14720 layer_factory.hpp:76] Creating layer inception_5a/relu_3x3_reduce
I1124 22:50:55.784061 14720 net.cpp:106] Creating Layer inception_5a/relu_3x3_reduce
I1124 22:50:55.784066 14720 net.cpp:454] inception_5a/relu_3x3_reduce <- inception_5a/3x3_reduce
I1124 22:50:55.784073 14720 net.cpp:397] inception_5a/relu_3x3_reduce -> inception_5a/3x3_reduce (in-place)
I1124 22:50:55.784400 14720 net.cpp:150] Setting up inception_5a/relu_3x3_reduce
I1124 22:50:55.784415 14720 net.cpp:157] Top shape: 64 160 7 7 (501760)
I1124 22:50:55.784417 14720 net.cpp:165] Memory required for data: 3456033800
I1124 22:50:55.784421 14720 layer_factory.hpp:76] Creating layer inception_5a/3x3
I1124 22:50:55.784430 14720 net.cpp:106] Creating Layer inception_5a/3x3
I1124 22:50:55.784435 14720 net.cpp:454] inception_5a/3x3 <- inception_5a/3x3_reduce
I1124 22:50:55.784442 14720 net.cpp:411] inception_5a/3x3 -> inception_5a/3x3
I1124 22:50:55.789122 14720 net.cpp:150] Setting up inception_5a/3x3
I1124 22:50:55.789137 14720 net.cpp:157] Top shape: 64 320 7 7 (1003520)
I1124 22:50:55.789141 14720 net.cpp:165] Memory required for data: 3460047880
I1124 22:50:55.789149 14720 layer_factory.hpp:76] Creating layer inception_5a/relu_3x3
I1124 22:50:55.789156 14720 net.cpp:106] Creating Layer inception_5a/relu_3x3
I1124 22:50:55.789161 14720 net.cpp:454] inception_5a/relu_3x3 <- inception_5a/3x3
I1124 22:50:55.789166 14720 net.cpp:397] inception_5a/relu_3x3 -> inception_5a/3x3 (in-place)
I1124 22:50:55.789351 14720 net.cpp:150] Setting up inception_5a/relu_3x3
I1124 22:50:55.789363 14720 net.cpp:157] Top shape: 64 320 7 7 (1003520)
I1124 22:50:55.789366 14720 net.cpp:165] Memory required for data: 3464061960
I1124 22:50:55.789371 14720 layer_factory.hpp:76] Creating layer inception_5a/5x5_reduce
I1124 22:50:55.789379 14720 net.cpp:106] Creating Layer inception_5a/5x5_reduce
I1124 22:50:55.789383 14720 net.cpp:454] inception_5a/5x5_reduce <- pool4/3x3_s2_pool4/3x3_s2_0_split_2
I1124 22:50:55.789391 14720 net.cpp:411] inception_5a/5x5_reduce -> inception_5a/5x5_reduce
I1124 22:50:55.790688 14720 net.cpp:150] Setting up inception_5a/5x5_reduce
I1124 22:50:55.790701 14720 net.cpp:157] Top shape: 64 32 7 7 (100352)
I1124 22:50:55.790705 14720 net.cpp:165] Memory required for data: 3464463368
I1124 22:50:55.790712 14720 layer_factory.hpp:76] Creating layer inception_5a/relu_5x5_reduce
I1124 22:50:55.790719 14720 net.cpp:106] Creating Layer inception_5a/relu_5x5_reduce
I1124 22:50:55.790722 14720 net.cpp:454] inception_5a/relu_5x5_reduce <- inception_5a/5x5_reduce
I1124 22:50:55.790727 14720 net.cpp:397] inception_5a/relu_5x5_reduce -> inception_5a/5x5_reduce (in-place)
I1124 22:50:55.790910 14720 net.cpp:150] Setting up inception_5a/relu_5x5_reduce
I1124 22:50:55.790921 14720 net.cpp:157] Top shape: 64 32 7 7 (100352)
I1124 22:50:55.790925 14720 net.cpp:165] Memory required for data: 3464864776
I1124 22:50:55.790927 14720 layer_factory.hpp:76] Creating layer inception_5a/5x5
I1124 22:50:55.790936 14720 net.cpp:106] Creating Layer inception_5a/5x5
I1124 22:50:55.790941 14720 net.cpp:454] inception_5a/5x5 <- inception_5a/5x5_reduce
I1124 22:50:55.790948 14720 net.cpp:411] inception_5a/5x5 -> inception_5a/5x5
I1124 22:50:55.792748 14720 net.cpp:150] Setting up inception_5a/5x5
I1124 22:50:55.792765 14720 net.cpp:157] Top shape: 64 128 7 7 (401408)
I1124 22:50:55.792769 14720 net.cpp:165] Memory required for data: 3466470408
I1124 22:50:55.792775 14720 layer_factory.hpp:76] Creating layer inception_5a/relu_5x5
I1124 22:50:55.792781 14720 net.cpp:106] Creating Layer inception_5a/relu_5x5
I1124 22:50:55.792785 14720 net.cpp:454] inception_5a/relu_5x5 <- inception_5a/5x5
I1124 22:50:55.792791 14720 net.cpp:397] inception_5a/relu_5x5 -> inception_5a/5x5 (in-place)
I1124 22:50:55.793125 14720 net.cpp:150] Setting up inception_5a/relu_5x5
I1124 22:50:55.793139 14720 net.cpp:157] Top shape: 64 128 7 7 (401408)
I1124 22:50:55.793145 14720 net.cpp:165] Memory required for data: 3468076040
I1124 22:50:55.793148 14720 layer_factory.hpp:76] Creating layer inception_5a/pool
I1124 22:50:55.793155 14720 net.cpp:106] Creating Layer inception_5a/pool
I1124 22:50:55.793159 14720 net.cpp:454] inception_5a/pool <- pool4/3x3_s2_pool4/3x3_s2_0_split_3
I1124 22:50:55.793164 14720 net.cpp:411] inception_5a/pool -> inception_5a/pool
I1124 22:50:55.793392 14720 net.cpp:150] Setting up inception_5a/pool
I1124 22:50:55.793404 14720 net.cpp:157] Top shape: 64 832 7 7 (2609152)
I1124 22:50:55.793407 14720 net.cpp:165] Memory required for data: 3478512648
I1124 22:50:55.793411 14720 layer_factory.hpp:76] Creating layer inception_5a/pool_proj
I1124 22:50:55.793419 14720 net.cpp:106] Creating Layer inception_5a/pool_proj
I1124 22:50:55.793424 14720 net.cpp:454] inception_5a/pool_proj <- inception_5a/pool
I1124 22:50:55.793431 14720 net.cpp:411] inception_5a/pool_proj -> inception_5a/pool_proj
I1124 22:50:55.795657 14720 net.cpp:150] Setting up inception_5a/pool_proj
I1124 22:50:55.795671 14720 net.cpp:157] Top shape: 64 128 7 7 (401408)
I1124 22:50:55.795675 14720 net.cpp:165] Memory required for data: 3480118280
I1124 22:50:55.795681 14720 layer_factory.hpp:76] Creating layer inception_5a/relu_pool_proj
I1124 22:50:55.795687 14720 net.cpp:106] Creating Layer inception_5a/relu_pool_proj
I1124 22:50:55.795693 14720 net.cpp:454] inception_5a/relu_pool_proj <- inception_5a/pool_proj
I1124 22:50:55.795699 14720 net.cpp:397] inception_5a/relu_pool_proj -> inception_5a/pool_proj (in-place)
I1124 22:50:55.796053 14720 net.cpp:150] Setting up inception_5a/relu_pool_proj
I1124 22:50:55.796067 14720 net.cpp:157] Top shape: 64 128 7 7 (401408)
I1124 22:50:55.796071 14720 net.cpp:165] Memory required for data: 3481723912
I1124 22:50:55.796074 14720 layer_factory.hpp:76] Creating layer inception_5a/output
I1124 22:50:55.796082 14720 net.cpp:106] Creating Layer inception_5a/output
I1124 22:50:55.796087 14720 net.cpp:454] inception_5a/output <- inception_5a/1x1
I1124 22:50:55.796092 14720 net.cpp:454] inception_5a/output <- inception_5a/3x3
I1124 22:50:55.796097 14720 net.cpp:454] inception_5a/output <- inception_5a/5x5
I1124 22:50:55.796100 14720 net.cpp:454] inception_5a/output <- inception_5a/pool_proj
I1124 22:50:55.796104 14720 net.cpp:411] inception_5a/output -> inception_5a/output
I1124 22:50:55.796149 14720 net.cpp:150] Setting up inception_5a/output
I1124 22:50:55.796154 14720 net.cpp:157] Top shape: 64 832 7 7 (2609152)
I1124 22:50:55.796157 14720 net.cpp:165] Memory required for data: 3492160520
I1124 22:50:55.796160 14720 layer_factory.hpp:76] Creating layer inception_5a/output_inception_5a/output_0_split
I1124 22:50:55.796169 14720 net.cpp:106] Creating Layer inception_5a/output_inception_5a/output_0_split
I1124 22:50:55.796172 14720 net.cpp:454] inception_5a/output_inception_5a/output_0_split <- inception_5a/output
I1124 22:50:55.796178 14720 net.cpp:411] inception_5a/output_inception_5a/output_0_split -> inception_5a/output_inception_5a/output_0_split_0
I1124 22:50:55.796185 14720 net.cpp:411] inception_5a/output_inception_5a/output_0_split -> inception_5a/output_inception_5a/output_0_split_1
I1124 22:50:55.796190 14720 net.cpp:411] inception_5a/output_inception_5a/output_0_split -> inception_5a/output_inception_5a/output_0_split_2
I1124 22:50:55.796195 14720 net.cpp:411] inception_5a/output_inception_5a/output_0_split -> inception_5a/output_inception_5a/output_0_split_3
I1124 22:50:55.796270 14720 net.cpp:150] Setting up inception_5a/output_inception_5a/output_0_split
I1124 22:50:55.796279 14720 net.cpp:157] Top shape: 64 832 7 7 (2609152)
I1124 22:50:55.796283 14720 net.cpp:157] Top shape: 64 832 7 7 (2609152)
I1124 22:50:55.796288 14720 net.cpp:157] Top shape: 64 832 7 7 (2609152)
I1124 22:50:55.796290 14720 net.cpp:157] Top shape: 64 832 7 7 (2609152)
I1124 22:50:55.796293 14720 net.cpp:165] Memory required for data: 3533906952
I1124 22:50:55.796296 14720 layer_factory.hpp:76] Creating layer inception_5b/1x1
I1124 22:50:55.796304 14720 net.cpp:106] Creating Layer inception_5b/1x1
I1124 22:50:55.796308 14720 net.cpp:454] inception_5b/1x1 <- inception_5a/output_inception_5a/output_0_split_0
I1124 22:50:55.796315 14720 net.cpp:411] inception_5b/1x1 -> inception_5b/1x1
I1124 22:50:55.799867 14720 net.cpp:150] Setting up inception_5b/1x1
I1124 22:50:55.799883 14720 net.cpp:157] Top shape: 64 384 7 7 (1204224)
I1124 22:50:55.799887 14720 net.cpp:165] Memory required for data: 3538723848
I1124 22:50:55.799893 14720 layer_factory.hpp:76] Creating layer inception_5b/relu_1x1
I1124 22:50:55.799901 14720 net.cpp:106] Creating Layer inception_5b/relu_1x1
I1124 22:50:55.799904 14720 net.cpp:454] inception_5b/relu_1x1 <- inception_5b/1x1
I1124 22:50:55.799911 14720 net.cpp:397] inception_5b/relu_1x1 -> inception_5b/1x1 (in-place)
I1124 22:50:55.800246 14720 net.cpp:150] Setting up inception_5b/relu_1x1
I1124 22:50:55.800261 14720 net.cpp:157] Top shape: 64 384 7 7 (1204224)
I1124 22:50:55.800264 14720 net.cpp:165] Memory required for data: 3543540744
I1124 22:50:55.800268 14720 layer_factory.hpp:76] Creating layer inception_5b/3x3_reduce
I1124 22:50:55.800276 14720 net.cpp:106] Creating Layer inception_5b/3x3_reduce
I1124 22:50:55.800282 14720 net.cpp:454] inception_5b/3x3_reduce <- inception_5a/output_inception_5a/output_0_split_1
I1124 22:50:55.800287 14720 net.cpp:411] inception_5b/3x3_reduce -> inception_5b/3x3_reduce
I1124 22:50:55.802870 14720 net.cpp:150] Setting up inception_5b/3x3_reduce
I1124 22:50:55.802886 14720 net.cpp:157] Top shape: 64 192 7 7 (602112)
I1124 22:50:55.802891 14720 net.cpp:165] Memory required for data: 3545949192
I1124 22:50:55.802896 14720 layer_factory.hpp:76] Creating layer inception_5b/relu_3x3_reduce
I1124 22:50:55.802903 14720 net.cpp:106] Creating Layer inception_5b/relu_3x3_reduce
I1124 22:50:55.802908 14720 net.cpp:454] inception_5b/relu_3x3_reduce <- inception_5b/3x3_reduce
I1124 22:50:55.802913 14720 net.cpp:397] inception_5b/relu_3x3_reduce -> inception_5b/3x3_reduce (in-place)
I1124 22:50:55.803099 14720 net.cpp:150] Setting up inception_5b/relu_3x3_reduce
I1124 22:50:55.803112 14720 net.cpp:157] Top shape: 64 192 7 7 (602112)
I1124 22:50:55.803114 14720 net.cpp:165] Memory required for data: 3548357640
I1124 22:50:55.803117 14720 layer_factory.hpp:76] Creating layer inception_5b/3x3
I1124 22:50:55.803127 14720 net.cpp:106] Creating Layer inception_5b/3x3
I1124 22:50:55.803131 14720 net.cpp:454] inception_5b/3x3 <- inception_5b/3x3_reduce
I1124 22:50:55.803138 14720 net.cpp:411] inception_5b/3x3 -> inception_5b/3x3
I1124 22:50:55.809442 14720 net.cpp:150] Setting up inception_5b/3x3
I1124 22:50:55.809458 14720 net.cpp:157] Top shape: 64 384 7 7 (1204224)
I1124 22:50:55.809461 14720 net.cpp:165] Memory required for data: 3553174536
I1124 22:50:55.809468 14720 layer_factory.hpp:76] Creating layer inception_5b/relu_3x3
I1124 22:50:55.809474 14720 net.cpp:106] Creating Layer inception_5b/relu_3x3
I1124 22:50:55.809478 14720 net.cpp:454] inception_5b/relu_3x3 <- inception_5b/3x3
I1124 22:50:55.809485 14720 net.cpp:397] inception_5b/relu_3x3 -> inception_5b/3x3 (in-place)
I1124 22:50:55.809828 14720 net.cpp:150] Setting up inception_5b/relu_3x3
I1124 22:50:55.809841 14720 net.cpp:157] Top shape: 64 384 7 7 (1204224)
I1124 22:50:55.809844 14720 net.cpp:165] Memory required for data: 3557991432
I1124 22:50:55.809849 14720 layer_factory.hpp:76] Creating layer inception_5b/5x5_reduce
I1124 22:50:55.809857 14720 net.cpp:106] Creating Layer inception_5b/5x5_reduce
I1124 22:50:55.809862 14720 net.cpp:454] inception_5b/5x5_reduce <- inception_5a/output_inception_5a/output_0_split_2
I1124 22:50:55.809870 14720 net.cpp:411] inception_5b/5x5_reduce -> inception_5b/5x5_reduce
I1124 22:50:55.811563 14720 net.cpp:150] Setting up inception_5b/5x5_reduce
I1124 22:50:55.811578 14720 net.cpp:157] Top shape: 64 48 7 7 (150528)
I1124 22:50:55.811581 14720 net.cpp:165] Memory required for data: 3558593544
I1124 22:50:55.811588 14720 layer_factory.hpp:76] Creating layer inception_5b/relu_5x5_reduce
I1124 22:50:55.811595 14720 net.cpp:106] Creating Layer inception_5b/relu_5x5_reduce
I1124 22:50:55.811599 14720 net.cpp:454] inception_5b/relu_5x5_reduce <- inception_5b/5x5_reduce
I1124 22:50:55.811605 14720 net.cpp:397] inception_5b/relu_5x5_reduce -> inception_5b/5x5_reduce (in-place)
I1124 22:50:55.811939 14720 net.cpp:150] Setting up inception_5b/relu_5x5_reduce
I1124 22:50:55.811964 14720 net.cpp:157] Top shape: 64 48 7 7 (150528)
I1124 22:50:55.811967 14720 net.cpp:165] Memory required for data: 3559195656
I1124 22:50:55.811970 14720 layer_factory.hpp:76] Creating layer inception_5b/5x5
I1124 22:50:55.811980 14720 net.cpp:106] Creating Layer inception_5b/5x5
I1124 22:50:55.811985 14720 net.cpp:454] inception_5b/5x5 <- inception_5b/5x5_reduce
I1124 22:50:55.811993 14720 net.cpp:411] inception_5b/5x5 -> inception_5b/5x5
I1124 22:50:55.814101 14720 net.cpp:150] Setting up inception_5b/5x5
I1124 22:50:55.814116 14720 net.cpp:157] Top shape: 64 128 7 7 (401408)
I1124 22:50:55.814121 14720 net.cpp:165] Memory required for data: 3560801288
I1124 22:50:55.814126 14720 layer_factory.hpp:76] Creating layer inception_5b/relu_5x5
I1124 22:50:55.814132 14720 net.cpp:106] Creating Layer inception_5b/relu_5x5
I1124 22:50:55.814137 14720 net.cpp:454] inception_5b/relu_5x5 <- inception_5b/5x5
I1124 22:50:55.814143 14720 net.cpp:397] inception_5b/relu_5x5 -> inception_5b/5x5 (in-place)
I1124 22:50:55.814327 14720 net.cpp:150] Setting up inception_5b/relu_5x5
I1124 22:50:55.814345 14720 net.cpp:157] Top shape: 64 128 7 7 (401408)
I1124 22:50:55.814348 14720 net.cpp:165] Memory required for data: 3562406920
I1124 22:50:55.814352 14720 layer_factory.hpp:76] Creating layer inception_5b/pool
I1124 22:50:55.814358 14720 net.cpp:106] Creating Layer inception_5b/pool
I1124 22:50:55.814363 14720 net.cpp:454] inception_5b/pool <- inception_5a/output_inception_5a/output_0_split_3
I1124 22:50:55.814368 14720 net.cpp:411] inception_5b/pool -> inception_5b/pool
I1124 22:50:55.814741 14720 net.cpp:150] Setting up inception_5b/pool
I1124 22:50:55.814755 14720 net.cpp:157] Top shape: 64 832 7 7 (2609152)
I1124 22:50:55.814759 14720 net.cpp:165] Memory required for data: 3572843528
I1124 22:50:55.814762 14720 layer_factory.hpp:76] Creating layer inception_5b/pool_proj
I1124 22:50:55.814771 14720 net.cpp:106] Creating Layer inception_5b/pool_proj
I1124 22:50:55.814776 14720 net.cpp:454] inception_5b/pool_proj <- inception_5b/pool
I1124 22:50:55.814782 14720 net.cpp:411] inception_5b/pool_proj -> inception_5b/pool_proj
I1124 22:50:55.817077 14720 net.cpp:150] Setting up inception_5b/pool_proj
I1124 22:50:55.817095 14720 net.cpp:157] Top shape: 64 128 7 7 (401408)
I1124 22:50:55.817098 14720 net.cpp:165] Memory required for data: 3574449160
I1124 22:50:55.817104 14720 layer_factory.hpp:76] Creating layer inception_5b/relu_pool_proj
I1124 22:50:55.817111 14720 net.cpp:106] Creating Layer inception_5b/relu_pool_proj
I1124 22:50:55.817116 14720 net.cpp:454] inception_5b/relu_pool_proj <- inception_5b/pool_proj
I1124 22:50:55.817121 14720 net.cpp:397] inception_5b/relu_pool_proj -> inception_5b/pool_proj (in-place)
I1124 22:50:55.817306 14720 net.cpp:150] Setting up inception_5b/relu_pool_proj
I1124 22:50:55.817317 14720 net.cpp:157] Top shape: 64 128 7 7 (401408)
I1124 22:50:55.817319 14720 net.cpp:165] Memory required for data: 3576054792
I1124 22:50:55.817323 14720 layer_factory.hpp:76] Creating layer inception_5b/output
I1124 22:50:55.817329 14720 net.cpp:106] Creating Layer inception_5b/output
I1124 22:50:55.817333 14720 net.cpp:454] inception_5b/output <- inception_5b/1x1
I1124 22:50:55.817337 14720 net.cpp:454] inception_5b/output <- inception_5b/3x3
I1124 22:50:55.817342 14720 net.cpp:454] inception_5b/output <- inception_5b/5x5
I1124 22:50:55.817345 14720 net.cpp:454] inception_5b/output <- inception_5b/pool_proj
I1124 22:50:55.817351 14720 net.cpp:411] inception_5b/output -> inception_5b/output
I1124 22:50:55.817390 14720 net.cpp:150] Setting up inception_5b/output
I1124 22:50:55.817397 14720 net.cpp:157] Top shape: 64 1024 7 7 (3211264)
I1124 22:50:55.817399 14720 net.cpp:165] Memory required for data: 3588899848
I1124 22:50:55.817404 14720 layer_factory.hpp:76] Creating layer pool5/7x7_s1
I1124 22:50:55.817410 14720 net.cpp:106] Creating Layer pool5/7x7_s1
I1124 22:50:55.817414 14720 net.cpp:454] pool5/7x7_s1 <- inception_5b/output
I1124 22:50:55.817420 14720 net.cpp:411] pool5/7x7_s1 -> pool5/7x7_s1
I1124 22:50:55.817777 14720 net.cpp:150] Setting up pool5/7x7_s1
I1124 22:50:55.817791 14720 net.cpp:157] Top shape: 64 1024 1 1 (65536)
I1124 22:50:55.817795 14720 net.cpp:165] Memory required for data: 3589161992
I1124 22:50:55.817798 14720 layer_factory.hpp:76] Creating layer pool5/drop_7x7_s1
I1124 22:50:55.817806 14720 net.cpp:106] Creating Layer pool5/drop_7x7_s1
I1124 22:50:55.817809 14720 net.cpp:454] pool5/drop_7x7_s1 <- pool5/7x7_s1
I1124 22:50:55.817816 14720 net.cpp:397] pool5/drop_7x7_s1 -> pool5/7x7_s1 (in-place)
I1124 22:50:55.817852 14720 net.cpp:150] Setting up pool5/drop_7x7_s1
I1124 22:50:55.817860 14720 net.cpp:157] Top shape: 64 1024 1 1 (65536)
I1124 22:50:55.817863 14720 net.cpp:165] Memory required for data: 3589424136
I1124 22:50:55.817867 14720 layer_factory.hpp:76] Creating layer loss3/classifier-attribute
I1124 22:50:55.817873 14720 net.cpp:106] Creating Layer loss3/classifier-attribute
I1124 22:50:55.817876 14720 net.cpp:454] loss3/classifier-attribute <- pool5/7x7_s1
I1124 22:50:55.817883 14720 net.cpp:411] loss3/classifier-attribute -> loss3/classifier-attribute
I1124 22:50:55.818141 14720 net.cpp:150] Setting up loss3/classifier-attribute
I1124 22:50:55.818151 14720 net.cpp:157] Top shape: 64 16 (1024)
I1124 22:50:55.818155 14720 net.cpp:165] Memory required for data: 3589428232
I1124 22:50:55.818161 14720 layer_factory.hpp:76] Creating layer loss3/loss3
I1124 22:50:55.818168 14720 net.cpp:106] Creating Layer loss3/loss3
I1124 22:50:55.818172 14720 net.cpp:454] loss3/loss3 <- loss3/classifier-attribute
I1124 22:50:55.818177 14720 net.cpp:454] loss3/loss3 <- label_data_1_split_2
I1124 22:50:55.818182 14720 net.cpp:411] loss3/loss3 -> loss3/loss3
…
I1124 22:50:55.828549 14720 net.cpp:322] The NetState phase (1) differed from the phase (0) specified by a rule in layer data
I1124 22:50:55.830919 14720 net.cpp:49] Initializing net from parameters: 
name: "GoogleNet-finetune-for-cigit"
state {
  phase: TEST
}
layer {
  name: "data"
  type: "ImageData"
  top: "data"
  top: "label"
  include {
    phase: TEST
  }
  transform_param {
    mirror: false
    crop_size: 224
    mean_value: 104
    mean_value: 117
    mean_value: 123
  }
  image_data_param {
    source: "pad_test.txt"
    batch_size: 64
    new_height: 256
    new_width: 256
  }
}
layer {
  name: "conv1/7x7_s2"
  type: "Convolution"
  bottom: "data"
  top: "conv1/7x7_s2"
  param {
    lr_mult: 1
    decay_mult: 1
  }
  param {
    lr_mult: 2
    decay_mult: 0
  }
  convolution_param {
    num_output: 64
    pad: 3
    kernel_size: 7
    stride: 2
    weight_filler {
      type: "xavier"
    }
    bias_filler {
      type: "constant"
      value: 0.2
    }
  }
}
layer {
  name: "conv1/relu_7x7"
  type: "ReLU"
  bottom: "conv1/7x7_s2"
  top: "conv1/7x7_s2"
}
layer {
  name: "pool1/3x3_s2"
  type: "Pooling"
  bottom: "conv1/7x7_s2"
  top: "pool1/3x3_s2"
  pooling_param {
    pool: MAX
    kernel_size: 3
    stride: 2
  }
}
layer {
  name: "pool1/norm1"
  type: "LRN"
  bottom: "pool1/3x3_s2"
  top: "pool1/norm1"
  lrn_param {
    local_size: 5
    alpha: 0.0001
    beta: 0.75
  }
}
layer {
  name: "conv2/3x3_reduce"
  type: "Convolution"
  bottom: "pool1/norm1"
  top: "conv2/3x3_reduce"
  param {
    lr_mult: 1
    decay_mult: 1
  }
  param {
    lr_mult: 2
    decay_mult: 0
  }
  convolution_param {
    num_output: 64
    kernel_size: 1
    weight_filler {
      type: "xavier"
    }
    bias_filler {
      type: "constant"
      value: 0.2
    }
  }
}
layer {
  name: "conv2/relu_3x3_reduce"
  type: "ReLU"
  bottom: "conv2/3x3_reduce"
  top: "conv2/3x3_reduce"
}
layer {
  name: "conv2/3x3"
  type: "Convolution"
  bottom: "conv2/3x3_reduce"
  top: "conv2/3x3"
  param {
    lr_mult: 1
    decay_mult: 1
  }
  param {
    lr_mult: 2
    decay_mult: 0
  }
  convolution_param {
    num_output: 192
    pad: 1
    kernel_size: 3
    weight_filler {
      type: "xavier"
    }
    bias_filler {
      type: "constant"
      value: 0.2
    }
  }
}
layer {
  name: "conv2/relu_3x3"
  type: "ReLU"
  bottom: "conv2/3x3"
  top: "conv2/3x3"
}
layer {
  name: "conv2/norm2"
  type: "LRN"
  bottom: "conv2/3x3"
  top: "conv2/norm2"
  lrn_param {
    local_size: 5
    alpha: 0.0001
    beta: 0.75
  }
}
layer {
  name: "pool2/3x3_s2"
  type: "Pooling"
  bottom: "conv2/norm2"
  top: "pool2/3x3_s2"
  pooling_param {
    pool: MAX
    kernel_size: 3
    stride: 2
  }
}
layer {
  name: "inception_3a/1x1"
  type: "Convolution"
  bottom: "pool2/3x3_s2"
  top: "inception_3a/1x1"
  param {
    lr_mult: 1
    decay_mult: 1
  }
  param {
    lr_mult: 2
    decay_mult: 0
  }
  convolution_param {
    num_output: 64
    kernel_size: 1
    weight_filler {
      type: "xavier"
    }
    bias_filler {
      type: "constant"
      value: 0.2
    }
  }
}
layer {
  name: "inception_3a/relu_1x1"
  type: "ReLU"
  bottom: "inception_3a/1x1"
  top: "inception_3a/1x1"
}
layer {
  name: "inception_3a/3x3_reduce"
  type: "Convolution"
  bottom: "pool2/3x3_s2"
  top: "inception_3a/3x3_reduce"
  param {
    lr_mult: 1
    decay_mult: 1
  }
  param {
    lr_mult: 2
    decay_mult: 0
  }
  convolution_param {
    num_output: 96
    kernel_size: 1
    weight_filler {
      type: "xavier"
    }
    bias_filler {
      type: "constant"
      value: 0.2
    }
  }
}
layer {
  name: "inception_3a/relu_3x3_reduce"
  type: "ReLU"
  bottom: "inception_3a/3x3_reduce"
  top: "inception_3a/3x3_reduce"
}
layer {
  name: "inception_3a/3x3"
  type: "Convolution"
  bottom: "inception_3a/3x3_reduce"
  top: "inception_3a/3x3"
  param {
    lr_mult: 1
    decay_mult: 1
  }
  param {
    lr_mult: 2
    decay_mult: 0
  }
  convolution_param {
    num_output: 128
    pad: 1
    kernel_size: 3
    weight_filler {
      type: "xavier"
    }
    bias_filler {
      type: "constant"
      value: 0.2
    }
  }
}
layer {
  name: "inception_3a/relu_3x3"
  type: "ReLU"
  bottom: "inception_3a/3x3"
  top: "inception_3a/3x3"
}
layer {
  name: "inception_3a/5x5_reduce"
  type: "Convolution"
  bottom: "pool2/3x3_s2"
  top: "inception_3a/5x5_reduce"
  param {
    lr_mult: 1
    decay_mult: 1
  }
  param {
    lr_mult: 2
    decay_mult: 0
  }
  convolution_param {
    num_output: 16
    kernel_size: 1
    weight_filler {
      type: "xavier"
    }
    bias_filler {
      type: "constant"
      value: 0.2
    }
  }
}
layer {
  name: "inception_3a/relu_5x5_reduce"
  type: "ReLU"
  bottom: "inception_3a/5x5_reduce"
  top: "inception_3a/5x5_reduce"
}
layer {
  name: "inception_3a/5x5"
  type: "Convolution"
  bottom: "inception_3a/5x5_reduce"
  top: "inception_3a/5x5"
  param {
    lr_mult: 1
    decay_mult: 1
  }
  param {
    lr_mult: 2
    decay_mult: 0
  }
  convolution_param {
    num_output: 32
    pad: 2
    kernel_size: 5
    weight_filler {
      type: "xavier"
    }
    bias_filler {
      type: "constant"
      value: 0.2
    }
  }
}
layer {
  name: "inception_3a/relu_5x5"
  type: "ReLU"
  bottom: "inception_3a/5x5"
  top: "inception_3a/5x5"
}
layer {
  name: "inception_3a/pool"
  type: "Pooling"
  bottom: "pool2/3x3_s2"
  top: "inception_3a/pool"
  pooling_param {
    pool: MAX
    kernel_size: 3
    stride: 1
    pad: 1
  }
}
layer {
  name: "inception_3a/pool_proj"
  type: "Convolution"
  bottom: "inception_3a/pool"
  top: "inception_3a/pool_proj"
  param {
    lr_mult: 1
    decay_mult: 1
  }
  param {
    lr_mult: 2
    decay_mult: 0
  }
  convolution_param {
    num_output: 32
    kernel_size: 1
    weight_filler {
      type: "xavier"
    }
    bias_filler {
      type: "constant"
      value: 0.2
    }
  }
}
layer {
  name: "inception_3a/relu_pool_proj"
  type: "ReLU"
  bottom: "inception_3a/pool_proj"
  top: "inception_3a/pool_proj"
}
layer {
  name: "inception_3a/output"
  type: "Concat"
  bottom: "inception_3a/1x1"
  bottom: "inception_3a/3x3"
  bottom: "inception_3a/5x5"
  bottom: "inception_3a/pool_proj"
  top: "inception_3a/output"
}
layer {
  name: "inception_3b/1x1"
  type: "Convolution"
  bottom: "inception_3a/output"
  top: "inception_3b/1x1"
  param {
    lr_mult: 1
    decay_mult: 1
  }
  param {
    lr_mult: 2
    decay_mult: 0
  }
  convolution_param {
    num_output: 128
    kernel_size: 1
    weight_filler {
      type: "xavier"
    }
    bias_filler {
      type: "constant"
      value: 0.2
    }
  }
}
layer {
  name: "inception_3b/relu_1x1"
  type: "ReLU"
  bottom: "inception_3b/1x1"
  top: "inception_3b/1x1"
}
layer {
  name: "inception_3b/3x3_reduce"
  type: "Convolution"
  bottom: "inception_3a/output"
  top: "inception_3b/3x3_reduce"
  param {
    lr_mult: 1
    decay_mult: 1
  }
  param {
    lr_mult: 2
    decay_mult: 0
  }
  convolution_param {
    num_output: 128
    kernel_size: 1
    weight_filler {
      type: "xavier"
    }
    bias_filler {
      type: "constant"
      value: 0.2
    }
  }
}
layer {
  name: "inception_3b/relu_3x3_reduce"
  type: "ReLU"
  bottom: "inception_3b/3x3_reduce"
  top: "inception_3b/3x3_reduce"
}
layer {
  name: "inception_3b/3x3"
  type: "Convolution"
  bottom: "inception_3b/3x3_reduce"
  top: "inception_3b/3x3"
  param {
    lr_mult: 1
    decay_mult: 1
  }
  param {
    lr_mult: 2
    decay_mult: 0
  }
  convolution_param {
    num_output: 192
    pad: 1
    kernel_size: 3
    weight_filler {
      type: "xavier"
    }
    bias_filler {
      type: "constant"
      value: 0.2
    }
  }
}
layer {
  name: "inception_3b/relu_3x3"
  type: "ReLU"
  bottom: "inception_3b/3x3"
  top: "inception_3b/3x3"
}
layer {
  name: "inception_3b/5x5_reduce"
  type: "Convolution"
  bottom: "inception_3a/output"
  top: "inception_3b/5x5_reduce"
  param {
    lr_mult: 1
    decay_mult: 1
  }
  param {
    lr_mult: 2
    decay_mult: 0
  }
  convolution_param {
    num_output: 32
    kernel_size: 1
    weight_filler {
      type: "xavier"
    }
    bias_filler {
      type: "constant"
      value: 0.2
    }
  }
}
layer {
  name: "inception_3b/relu_5x5_reduce"
  type: "ReLU"
  bottom: "inception_3b/5x5_reduce"
  top: "inception_3b/5x5_reduce"
}
layer {
  name: "inception_3b/5x5"
  type: "Convolution"
  bottom: "inception_3b/5x5_reduce"
  top: "inception_3b/5x5"
  param {
    lr_mult: 1
    decay_mult: 1
  }
  param {
    lr_mult: 2
    decay_mult: 0
  }
  convolution_param {
    num_output: 96
    pad: 2
    kernel_size: 5
    weight_filler {
      type: "xavier"
    }
    bias_filler {
      type: "constant"
      value: 0.2
    }
  }
}
layer {
  name: "inception_3b/relu_5x5"
  type: "ReLU"
  bottom: "inception_3b/5x5"
  top: "inception_3b/5x5"
}
layer {
  name: "inception_3b/pool"
  type: "Pooling"
  bottom: "inception_3a/output"
  top: "inception_3b/pool"
  pooling_param {
    pool: MAX
    kernel_size: 3
    stride: 1
    pad: 1
  }
}
layer {
  name: "inception_3b/pool_proj"
  type: "Convolution"
  bottom: "inception_3b/pool"
  top: "inception_3b/pool_proj"
  param {
    lr_mult: 1
    decay_mult: 1
  }
  param {
    lr_mult: 2
    decay_mult: 0
  }
  convolution_param {
    num_output: 64
    kernel_size: 1
    weight_filler {
      type: "xavier"
    }
    bias_filler {
      type: "constant"
      value: 0.2
    }
  }
}
layer {
  name: "inception_3b/relu_pool_proj"
  type: "ReLU"
  bottom: "inception_3b/pool_proj"
  top: "inception_3b/pool_proj"
}
layer {
  name: "inception_3b/output"
  type: "Concat"
  bottom: "inception_3b/1x1"
  bottom: "inception_3b/3x3"
  bottom: "inception_3b/5x5"
  bottom: "inception_3b/pool_proj"
  top: "inception_3b/output"
}
layer {
  name: "pool3/3x3_s2"
  type: "Pooling"
  bottom: "inception_3b/output"
  top: "pool3/3x3_s2"
  pooling_param {
    pool: MAX
    kernel_size: 3
    stride: 2
  }
}
layer {
  name: "inception_4a/1x1"
  type: "Convolution"
  bottom: "pool3/3x3_s2"
  top: "inception_4a/1x1"
  param {
    lr_mult: 1
    decay_mult: 1
  }
  param {
    lr_mult: 2
    decay_mult: 0
  }
  convolution_param {
    num_output: 192
    kernel_size: 1
    weight_filler {
      type: "xavier"
    }
    bias_filler {
      type: "constant"
      value: 0.2
    }
  }
}
layer {
  name: "inception_4a/relu_1x1"
  type: "ReLU"
  bottom: "inception_4a/1x1"
  top: "inception_4a/1x1"
}
layer {
  name: "inception_4a/3x3_reduce"
  type: "Convolution"
  bottom: "pool3/3x3_s2"
  top: "inception_4a/3x3_reduce"
  param {
    lr_mult: 1
    decay_mult: 1
  }
  param {
    lr_mult: 2
    decay_mult: 0
  }
  convolution_param {
    num_output: 96
    kernel_size: 1
    weight_filler {
      type: "xavier"
    }
    bias_filler {
      type: "constant"
      value: 0.2
    }
  }
}
layer {
  name: "inception_4a/relu_3x3_reduce"
  type: "ReLU"
  bottom: "inception_4a/3x3_reduce"
  top: "inception_4a/3x3_reduce"
}
layer {
  name: "inception_4a/3x3"
  type: "Convolution"
  bottom: "inception_4a/3x3_reduce"
  top: "inception_4a/3x3"
  param {
    lr_mult: 1
    decay_mult: 1
  }
  param {
    lr_mult: 2
    decay_mult: 0
  }
  convolution_param {
    num_output: 208
    pad: 1
    kernel_size: 3
    weight_filler {
      type: "xavier"
    }
    bias_filler {
      type: "constant"
      value: 0.2
    }
  }
}
layer {
  name: "inception_4a/relu_3x3"
  type: "ReLU"
  bottom: "inception_4a/3x3"
  top: "inception_4a/3x3"
}
layer {
  name: "inception_4a/5x5_reduce"
  type: "Convolution"
  bottom: "pool3/3x3_s2"
  top: "inception_4a/5x5_reduce"
  param {
    lr_mult: 1
    decay_mult: 1
  }
  param {
    lr_mult: 2
    decay_mult: 0
  }
  convolution_param {
    num_output: 16
    kernel_size: 1
    weight_filler {
      type: "xavier"
    }
    bias_filler {
      type: "constant"
      value: 0.2
    }
  }
}
layer {
  name: "inception_4a/relu_5x5_reduce"
  type: "ReLU"
  bottom: "inception_4a/5x5_reduce"
  top: "inception_4a/5x5_reduce"
}
layer {
  name: "inception_4a/5x5"
  type: "Convolution"
  bottom: "inception_4a/5x5_reduce"
  top: "inception_4a/5x5"
  param {
    lr_mult: 1
    decay_mult: 1
  }
  param {
    lr_mult: 2
    decay_mult: 0
  }
  convolution_param {
    num_output: 48
    pad: 2
    kernel_size: 5
    weight_filler {
      type: "xavier"
    }
    bias_filler {
      type: "constant"
      value: 0.2
    }
  }
}
layer {
  name: "inception_4a/relu_5x5"
  type: "ReLU"
  bottom: "inception_4a/5x5"
  top: "inception_4a/5x5"
}
layer {
  name: "inception_4a/pool"
  type: "Pooling"
  bottom: "pool3/3x3_s2"
  top: "inception_4a/pool"
  pooling_param {
    pool: MAX
    kernel_size: 3
    stride: 1
    pad: 1
  }
}
layer {
  name: "inception_4a/pool_proj"
  type: "Convolution"
  bottom: "inception_4a/pool"
  top: "inception_4a/pool_proj"
  param {
    lr_mult: 1
    decay_mult: 1
  }
  param {
    lr_mult: 2
    decay_mult: 0
  }
  convolution_param {
    num_output: 64
    kernel_size: 1
    weight_filler {
      type: "xavier"
    }
    bias_filler {
      type: "constant"
      value: 0.2
    }
  }
}
layer {
  name: "inception_4a/relu_pool_proj"
  type: "ReLU"
  bottom: "inception_4a/pool_proj"
  top: "inception_4a/pool_proj"
}
layer {
  name: "inception_4a/output"
  type: "Concat"
  bottom: "inception_4a/1x1"
  bottom: "inception_4a/3x3"
  bottom: "inception_4a/5x5"
  bottom: "inception_4a/pool_proj"
  top: "inception_4a/output"
}
layer {
  name: "loss1/ave_pool"
  type: "Pooling"
  bottom: "inception_4a/output"
  top: "loss1/ave_pool"
  pooling_param {
    pool: AVE
    kernel_size: 5
    stride: 3
  }
}
layer {
  name: "loss1/conv"
  type: "Convolution"
  bottom: "loss1/ave_pool"
  top: "loss1/conv"
  param {
    lr_mult: 1
    decay_mult: 1
  }
  param {
    lr_mult: 2
    decay_mult: 0
  }
  convolution_param {
    num_output: 128
    kernel_size: 1
    weight_filler {
      type: "xavier"
    }
    bias_filler {
      type: "constant"
      value: 0.2
    }
  }
}
layer {
  name: "loss1/relu_conv"
  type: "ReLU"
  bottom: "loss1/conv"
  top: "loss1/conv"
}
layer {
  name: "loss1/fc"
  type: "InnerProduct"
  bottom: "loss1/conv"
  top: "loss1/fc"
  param {
    lr_mult: 1
    decay_mult: 1
  }
  param {
    lr_mult: 2
    decay_mult: 0
  }
  inner_product_param {
…
I1124 22:50:56.080392 14720 net.cpp:106] Creating Layer inception_4c/pool
I1124 22:50:56.080396 14720 net.cpp:454] inception_4c/pool <- inception_4b/output_inception_4b/output_0_split_3
I1124 22:50:56.080402 14720 net.cpp:411] inception_4c/pool -> inception_4c/pool
I1124 22:50:56.080656 14720 net.cpp:150] Setting up inception_4c/pool
I1124 22:50:56.080667 14720 net.cpp:157] Top shape: 64 512 14 14 (6422528)
I1124 22:50:56.080670 14720 net.cpp:165] Memory required for data: 2828252936
I1124 22:50:56.080673 14720 layer_factory.hpp:76] Creating layer inception_4c/pool_proj
I1124 22:50:56.080682 14720 net.cpp:106] Creating Layer inception_4c/pool_proj
I1124 22:50:56.080687 14720 net.cpp:454] inception_4c/pool_proj <- inception_4c/pool
I1124 22:50:56.080693 14720 net.cpp:411] inception_4c/pool_proj -> inception_4c/pool_proj
I1124 22:50:56.082191 14720 net.cpp:150] Setting up inception_4c/pool_proj
I1124 22:50:56.082206 14720 net.cpp:157] Top shape: 64 64 14 14 (802816)
I1124 22:50:56.082209 14720 net.cpp:165] Memory required for data: 2831464200
I1124 22:50:56.082216 14720 layer_factory.hpp:76] Creating layer inception_4c/relu_pool_proj
I1124 22:50:56.082224 14720 net.cpp:106] Creating Layer inception_4c/relu_pool_proj
I1124 22:50:56.082228 14720 net.cpp:454] inception_4c/relu_pool_proj <- inception_4c/pool_proj
I1124 22:50:56.082234 14720 net.cpp:397] inception_4c/relu_pool_proj -> inception_4c/pool_proj (in-place)
I1124 22:50:56.082592 14720 net.cpp:150] Setting up inception_4c/relu_pool_proj
I1124 22:50:56.082607 14720 net.cpp:157] Top shape: 64 64 14 14 (802816)
I1124 22:50:56.082609 14720 net.cpp:165] Memory required for data: 2834675464
I1124 22:50:56.082613 14720 layer_factory.hpp:76] Creating layer inception_4c/output
I1124 22:50:56.082620 14720 net.cpp:106] Creating Layer inception_4c/output
I1124 22:50:56.082625 14720 net.cpp:454] inception_4c/output <- inception_4c/1x1
I1124 22:50:56.082630 14720 net.cpp:454] inception_4c/output <- inception_4c/3x3
I1124 22:50:56.082634 14720 net.cpp:454] inception_4c/output <- inception_4c/5x5
I1124 22:50:56.082639 14720 net.cpp:454] inception_4c/output <- inception_4c/pool_proj
I1124 22:50:56.082643 14720 net.cpp:411] inception_4c/output -> inception_4c/output
I1124 22:50:56.082700 14720 net.cpp:150] Setting up inception_4c/output
I1124 22:50:56.082706 14720 net.cpp:157] Top shape: 64 512 14 14 (6422528)
I1124 22:50:56.082710 14720 net.cpp:165] Memory required for data: 2860365576
I1124 22:50:56.082712 14720 layer_factory.hpp:76] Creating layer inception_4c/output_inception_4c/output_0_split
I1124 22:50:56.082718 14720 net.cpp:106] Creating Layer inception_4c/output_inception_4c/output_0_split
I1124 22:50:56.082721 14720 net.cpp:454] inception_4c/output_inception_4c/output_0_split <- inception_4c/output
I1124 22:50:56.082729 14720 net.cpp:411] inception_4c/output_inception_4c/output_0_split -> inception_4c/output_inception_4c/output_0_split_0
I1124 22:50:56.082736 14720 net.cpp:411] inception_4c/output_inception_4c/output_0_split -> inception_4c/output_inception_4c/output_0_split_1
I1124 22:50:56.082741 14720 net.cpp:411] inception_4c/output_inception_4c/output_0_split -> inception_4c/output_inception_4c/output_0_split_2
I1124 22:50:56.082747 14720 net.cpp:411] inception_4c/output_inception_4c/output_0_split -> inception_4c/output_inception_4c/output_0_split_3
I1124 22:50:56.082849 14720 net.cpp:150] Setting up inception_4c/output_inception_4c/output_0_split
I1124 22:50:56.082857 14720 net.cpp:157] Top shape: 64 512 14 14 (6422528)
I1124 22:50:56.082861 14720 net.cpp:157] Top shape: 64 512 14 14 (6422528)
I1124 22:50:56.082864 14720 net.cpp:157] Top shape: 64 512 14 14 (6422528)
I1124 22:50:56.082869 14720 net.cpp:157] Top shape: 64 512 14 14 (6422528)
I1124 22:50:56.082871 14720 net.cpp:165] Memory required for data: 2963126024
I1124 22:50:56.082875 14720 layer_factory.hpp:76] Creating layer inception_4d/1x1
I1124 22:50:56.082885 14720 net.cpp:106] Creating Layer inception_4d/1x1
I1124 22:50:56.082887 14720 net.cpp:454] inception_4d/1x1 <- inception_4c/output_inception_4c/output_0_split_0
I1124 22:50:56.082893 14720 net.cpp:411] inception_4d/1x1 -> inception_4d/1x1
I1124 22:50:56.084424 14720 net.cpp:150] Setting up inception_4d/1x1
I1124 22:50:56.084439 14720 net.cpp:157] Top shape: 64 112 14 14 (1404928)
I1124 22:50:56.084441 14720 net.cpp:165] Memory required for data: 2968745736
I1124 22:50:56.084449 14720 layer_factory.hpp:76] Creating layer inception_4d/relu_1x1
I1124 22:50:56.084455 14720 net.cpp:106] Creating Layer inception_4d/relu_1x1
I1124 22:50:56.084460 14720 net.cpp:454] inception_4d/relu_1x1 <- inception_4d/1x1
I1124 22:50:56.084466 14720 net.cpp:397] inception_4d/relu_1x1 -> inception_4d/1x1 (in-place)
I1124 22:50:56.084830 14720 net.cpp:150] Setting up inception_4d/relu_1x1
I1124 22:50:56.084844 14720 net.cpp:157] Top shape: 64 112 14 14 (1404928)
I1124 22:50:56.084848 14720 net.cpp:165] Memory required for data: 2974365448
I1124 22:50:56.084851 14720 layer_factory.hpp:76] Creating layer inception_4d/3x3_reduce
I1124 22:50:56.084861 14720 net.cpp:106] Creating Layer inception_4d/3x3_reduce
I1124 22:50:56.084866 14720 net.cpp:454] inception_4d/3x3_reduce <- inception_4c/output_inception_4c/output_0_split_1
I1124 22:50:56.084872 14720 net.cpp:411] inception_4d/3x3_reduce -> inception_4d/3x3_reduce
I1124 22:50:56.086673 14720 net.cpp:150] Setting up inception_4d/3x3_reduce
I1124 22:50:56.086686 14720 net.cpp:157] Top shape: 64 144 14 14 (1806336)
I1124 22:50:56.086690 14720 net.cpp:165] Memory required for data: 2981590792
I1124 22:50:56.086696 14720 layer_factory.hpp:76] Creating layer inception_4d/relu_3x3_reduce
I1124 22:50:56.086704 14720 net.cpp:106] Creating Layer inception_4d/relu_3x3_reduce
I1124 22:50:56.086707 14720 net.cpp:454] inception_4d/relu_3x3_reduce <- inception_4d/3x3_reduce
I1124 22:50:56.086714 14720 net.cpp:397] inception_4d/relu_3x3_reduce -> inception_4d/3x3_reduce (in-place)
I1124 22:50:56.086918 14720 net.cpp:150] Setting up inception_4d/relu_3x3_reduce
I1124 22:50:56.086930 14720 net.cpp:157] Top shape: 64 144 14 14 (1806336)
I1124 22:50:56.086933 14720 net.cpp:165] Memory required for data: 2988816136
I1124 22:50:56.086937 14720 layer_factory.hpp:76] Creating layer inception_4d/3x3
I1124 22:50:56.086946 14720 net.cpp:106] Creating Layer inception_4d/3x3
I1124 22:50:56.086951 14720 net.cpp:454] inception_4d/3x3 <- inception_4d/3x3_reduce
I1124 22:50:56.086958 14720 net.cpp:411] inception_4d/3x3 -> inception_4d/3x3
I1124 22:50:56.091197 14720 net.cpp:150] Setting up inception_4d/3x3
I1124 22:50:56.091213 14720 net.cpp:157] Top shape: 64 288 14 14 (3612672)
I1124 22:50:56.091217 14720 net.cpp:165] Memory required for data: 3003266824
I1124 22:50:56.091224 14720 layer_factory.hpp:76] Creating layer inception_4d/relu_3x3
I1124 22:50:56.091230 14720 net.cpp:106] Creating Layer inception_4d/relu_3x3
I1124 22:50:56.091234 14720 net.cpp:454] inception_4d/relu_3x3 <- inception_4d/3x3
I1124 22:50:56.091241 14720 net.cpp:397] inception_4d/relu_3x3 -> inception_4d/3x3 (in-place)
I1124 22:50:56.091598 14720 net.cpp:150] Setting up inception_4d/relu_3x3
I1124 22:50:56.091612 14720 net.cpp:157] Top shape: 64 288 14 14 (3612672)
I1124 22:50:56.091616 14720 net.cpp:165] Memory required for data: 3017717512
I1124 22:50:56.091619 14720 layer_factory.hpp:76] Creating layer inception_4d/5x5_reduce
I1124 22:50:56.091631 14720 net.cpp:106] Creating Layer inception_4d/5x5_reduce
I1124 22:50:56.091636 14720 net.cpp:454] inception_4d/5x5_reduce <- inception_4c/output_inception_4c/output_0_split_2
I1124 22:50:56.091642 14720 net.cpp:411] inception_4d/5x5_reduce -> inception_4d/5x5_reduce
I1124 22:50:56.093080 14720 net.cpp:150] Setting up inception_4d/5x5_reduce
I1124 22:50:56.093096 14720 net.cpp:157] Top shape: 64 32 14 14 (401408)
I1124 22:50:56.093099 14720 net.cpp:165] Memory required for data: 3019323144
I1124 22:50:56.093106 14720 layer_factory.hpp:76] Creating layer inception_4d/relu_5x5_reduce
I1124 22:50:56.093112 14720 net.cpp:106] Creating Layer inception_4d/relu_5x5_reduce
I1124 22:50:56.093116 14720 net.cpp:454] inception_4d/relu_5x5_reduce <- inception_4d/5x5_reduce
I1124 22:50:56.093122 14720 net.cpp:397] inception_4d/relu_5x5_reduce -> inception_4d/5x5_reduce (in-place)
I1124 22:50:56.093526 14720 net.cpp:150] Setting up inception_4d/relu_5x5_reduce
I1124 22:50:56.093541 14720 net.cpp:157] Top shape: 64 32 14 14 (401408)
I1124 22:50:56.093545 14720 net.cpp:165] Memory required for data: 3020928776
I1124 22:50:56.093549 14720 layer_factory.hpp:76] Creating layer inception_4d/5x5
I1124 22:50:56.093585 14720 net.cpp:106] Creating Layer inception_4d/5x5
I1124 22:50:56.093590 14720 net.cpp:454] inception_4d/5x5 <- inception_4d/5x5_reduce
I1124 22:50:56.093597 14720 net.cpp:411] inception_4d/5x5 -> inception_4d/5x5
I1124 22:50:56.095265 14720 net.cpp:150] Setting up inception_4d/5x5
I1124 22:50:56.095280 14720 net.cpp:157] Top shape: 64 64 14 14 (802816)
I1124 22:50:56.095283 14720 net.cpp:165] Memory required for data: 3024140040
I1124 22:50:56.095290 14720 layer_factory.hpp:76] Creating layer inception_4d/relu_5x5
I1124 22:50:56.095296 14720 net.cpp:106] Creating Layer inception_4d/relu_5x5
I1124 22:50:56.095300 14720 net.cpp:454] inception_4d/relu_5x5 <- inception_4d/5x5
I1124 22:50:56.095307 14720 net.cpp:397] inception_4d/relu_5x5 -> inception_4d/5x5 (in-place)
I1124 22:50:56.095510 14720 net.cpp:150] Setting up inception_4d/relu_5x5
I1124 22:50:56.095521 14720 net.cpp:157] Top shape: 64 64 14 14 (802816)
I1124 22:50:56.095525 14720 net.cpp:165] Memory required for data: 3027351304
I1124 22:50:56.095528 14720 layer_factory.hpp:76] Creating layer inception_4d/pool
I1124 22:50:56.095536 14720 net.cpp:106] Creating Layer inception_4d/pool
I1124 22:50:56.095541 14720 net.cpp:454] inception_4d/pool <- inception_4c/output_inception_4c/output_0_split_3
I1124 22:50:56.095546 14720 net.cpp:411] inception_4d/pool -> inception_4d/pool
I1124 22:50:56.095978 14720 net.cpp:150] Setting up inception_4d/pool
I1124 22:50:56.095993 14720 net.cpp:157] Top shape: 64 512 14 14 (6422528)
I1124 22:50:56.095996 14720 net.cpp:165] Memory required for data: 3053041416
I1124 22:50:56.096000 14720 layer_factory.hpp:76] Creating layer inception_4d/pool_proj
I1124 22:50:56.096010 14720 net.cpp:106] Creating Layer inception_4d/pool_proj
I1124 22:50:56.096015 14720 net.cpp:454] inception_4d/pool_proj <- inception_4d/pool
I1124 22:50:56.096021 14720 net.cpp:411] inception_4d/pool_proj -> inception_4d/pool_proj
I1124 22:50:56.097570 14720 net.cpp:150] Setting up inception_4d/pool_proj
I1124 22:50:56.097585 14720 net.cpp:157] Top shape: 64 64 14 14 (802816)
I1124 22:50:56.097589 14720 net.cpp:165] Memory required for data: 3056252680
I1124 22:50:56.097595 14720 layer_factory.hpp:76] Creating layer inception_4d/relu_pool_proj
I1124 22:50:56.097602 14720 net.cpp:106] Creating Layer inception_4d/relu_pool_proj
I1124 22:50:56.097607 14720 net.cpp:454] inception_4d/relu_pool_proj <- inception_4d/pool_proj
I1124 22:50:56.097612 14720 net.cpp:397] inception_4d/relu_pool_proj -> inception_4d/pool_proj (in-place)
I1124 22:50:56.097823 14720 net.cpp:150] Setting up inception_4d/relu_pool_proj
I1124 22:50:56.097834 14720 net.cpp:157] Top shape: 64 64 14 14 (802816)
I1124 22:50:56.097838 14720 net.cpp:165] Memory required for data: 3059463944
I1124 22:50:56.097842 14720 layer_factory.hpp:76] Creating layer inception_4d/output
I1124 22:50:56.097849 14720 net.cpp:106] Creating Layer inception_4d/output
I1124 22:50:56.097853 14720 net.cpp:454] inception_4d/output <- inception_4d/1x1
I1124 22:50:56.097858 14720 net.cpp:454] inception_4d/output <- inception_4d/3x3
I1124 22:50:56.097862 14720 net.cpp:454] inception_4d/output <- inception_4d/5x5
I1124 22:50:56.097867 14720 net.cpp:454] inception_4d/output <- inception_4d/pool_proj
I1124 22:50:56.097870 14720 net.cpp:411] inception_4d/output -> inception_4d/output
I1124 22:50:56.097919 14720 net.cpp:150] Setting up inception_4d/output
I1124 22:50:56.097926 14720 net.cpp:157] Top shape: 64 528 14 14 (6623232)
I1124 22:50:56.097929 14720 net.cpp:165] Memory required for data: 3085956872
I1124 22:50:56.097932 14720 layer_factory.hpp:76] Creating layer inception_4d/output_inception_4d/output_0_split
I1124 22:50:56.097939 14720 net.cpp:106] Creating Layer inception_4d/output_inception_4d/output_0_split
I1124 22:50:56.097942 14720 net.cpp:454] inception_4d/output_inception_4d/output_0_split <- inception_4d/output
I1124 22:50:56.097952 14720 net.cpp:411] inception_4d/output_inception_4d/output_0_split -> inception_4d/output_inception_4d/output_0_split_0
I1124 22:50:56.097959 14720 net.cpp:411] inception_4d/output_inception_4d/output_0_split -> inception_4d/output_inception_4d/output_0_split_1
I1124 22:50:56.097965 14720 net.cpp:411] inception_4d/output_inception_4d/output_0_split -> inception_4d/output_inception_4d/output_0_split_2
I1124 22:50:56.097973 14720 net.cpp:411] inception_4d/output_inception_4d/output_0_split -> inception_4d/output_inception_4d/output_0_split_3
I1124 22:50:56.097978 14720 net.cpp:411] inception_4d/output_inception_4d/output_0_split -> inception_4d/output_inception_4d/output_0_split_4
I1124 22:50:56.098100 14720 net.cpp:150] Setting up inception_4d/output_inception_4d/output_0_split
I1124 22:50:56.098109 14720 net.cpp:157] Top shape: 64 528 14 14 (6623232)
I1124 22:50:56.098114 14720 net.cpp:157] Top shape: 64 528 14 14 (6623232)
I1124 22:50:56.098116 14720 net.cpp:157] Top shape: 64 528 14 14 (6623232)
I1124 22:50:56.098120 14720 net.cpp:157] Top shape: 64 528 14 14 (6623232)
I1124 22:50:56.098124 14720 net.cpp:157] Top shape: 64 528 14 14 (6623232)
I1124 22:50:56.098127 14720 net.cpp:165] Memory required for data: 3218421512
I1124 22:50:56.098130 14720 layer_factory.hpp:76] Creating layer loss2/ave_pool
I1124 22:50:56.098136 14720 net.cpp:106] Creating Layer loss2/ave_pool
I1124 22:50:56.098140 14720 net.cpp:454] loss2/ave_pool <- inception_4d/output_inception_4d/output_0_split_0
I1124 22:50:56.098147 14720 net.cpp:411] loss2/ave_pool -> loss2/ave_pool
I1124 22:50:56.098546 14720 net.cpp:150] Setting up loss2/ave_pool
I1124 22:50:56.098561 14720 net.cpp:157] Top shape: 64 528 4 4 (540672)
I1124 22:50:56.098563 14720 net.cpp:165] Memory required for data: 3220584200
I1124 22:50:56.098567 14720 layer_factory.hpp:76] Creating layer loss2/conv
I1124 22:50:56.098577 14720 net.cpp:106] Creating Layer loss2/conv
I1124 22:50:56.098582 14720 net.cpp:454] loss2/conv <- loss2/ave_pool
I1124 22:50:56.098588 14720 net.cpp:411] loss2/conv -> loss2/conv
I1124 22:50:56.100644 14720 net.cpp:150] Setting up loss2/conv
I1124 22:50:56.100659 14720 net.cpp:157] Top shape: 64 128 4 4 (131072)
I1124 22:50:56.100663 14720 net.cpp:165] Memory required for data: 3221108488
I1124 22:50:56.100671 14720 layer_factory.hpp:76] Creating layer loss2/relu_conv
I1124 22:50:56.100677 14720 net.cpp:106] Creating Layer loss2/relu_conv
I1124 22:50:56.100682 14720 net.cpp:454] loss2/relu_conv <- loss2/conv
I1124 22:50:56.100687 14720 net.cpp:397] loss2/relu_conv -> loss2/conv (in-place)
I1124 22:50:56.101063 14720 net.cpp:150] Setting up loss2/relu_conv
I1124 22:50:56.101078 14720 net.cpp:157] Top shape: 64 128 4 4 (131072)
I1124 22:50:56.101083 14720 net.cpp:165] Memory required for data: 3221632776
I1124 22:50:56.101085 14720 layer_factory.hpp:76] Creating layer loss2/fc
I1124 22:50:56.101094 14720 net.cpp:106] Creating Layer loss2/fc
I1124 22:50:56.101099 14720 net.cpp:454] loss2/fc <- loss2/conv
I1124 22:50:56.101106 14720 net.cpp:411] loss2/fc -> loss2/fc
I1124 22:50:56.116737 14720 net.cpp:150] Setting up loss2/fc
I1124 22:50:56.116753 14720 net.cpp:157] Top shape: 64 1024 (65536)
I1124 22:50:56.116757 14720 net.cpp:165] Memory required for data: 3221894920
I1124 22:50:56.116763 14720 layer_factory.hpp:76] Creating layer loss2/relu_fc
I1124 22:50:56.116770 14720 net.cpp:106] Creating Layer loss2/relu_fc
I1124 22:50:56.116775 14720 net.cpp:454] loss2/relu_fc <- loss2/fc
I1124 22:50:56.116782 14720 net.cpp:397] loss2/relu_fc -> loss2/fc (in-place)
I1124 22:50:56.117010 14720 net.cpp:150] Setting up loss2/relu_fc
I1124 22:50:56.117022 14720 net.cpp:157] Top shape: 64 1024 (65536)
I1124 22:50:56.117027 14720 net.cpp:165] Memory required for data: 3222157064
I1124 22:50:56.117029 14720 layer_factory.hpp:76] Creating layer loss2/drop_fc
I1124 22:50:56.117036 14720 net.cpp:106] Creating Layer loss2/drop_fc
I1124 22:50:56.117040 14720 net.cpp:454] loss2/drop_fc <- loss2/fc
I1124 22:50:56.117045 14720 net.cpp:397] loss2/drop_fc -> loss2/fc (in-place)
I1124 22:50:56.117094 14720 net.cpp:150] Setting up loss2/drop_fc
I1124 22:50:56.117104 14720 net.cpp:157] Top shape: 64 1024 (65536)
I1124 22:50:56.117106 14720 net.cpp:165] Memory required for data: 3222419208
I1124 22:50:56.117110 14720 layer_factory.hpp:76] Creating layer loss2/classifier-attribute
I1124 22:50:56.117117 14720 net.cpp:106] Creating Layer loss2/classifier-attribute
I1124 22:50:56.117121 14720 net.cpp:454] loss2/classifier-attribute <- loss2/fc
I1124 22:50:56.117127 14720 net.cpp:411] loss2/classifier-attribute -> loss2/classifier-attribute
I1124 22:50:56.117419 14720 net.cpp:150] Setting up loss2/classifier-attribute
I1124 22:50:56.117429 14720 net.cpp:157] Top shape: 64 16 (1024)
I1124 22:50:56.117431 14720 net.cpp:165] Memory required for data: 3222423304
I1124 22:50:56.117437 14720 layer_factory.hpp:76] Creating layer loss2/classifier-attribute_loss2/classifier-attribute_0_split
I1124 22:50:56.117444 14720 net.cpp:106] Creating Layer loss2/classifier-attribute_loss2/classifier-attribute_0_split
I1124 22:50:56.117447 14720 net.cpp:454] loss2/classifier-attribute_loss2/classifier-attribute_0_split <- loss2/classifier-attribute
I1124 22:50:56.117454 14720 net.cpp:411] loss2/classifier-attribute_loss2/classifier-attribute_0_split -> loss2/classifier-attribute_loss2/classifier-attribute_0_split_0
I1124 22:50:56.117460 14720 net.cpp:411] loss2/classifier-attribute_loss2/classifier-attribute_0_split -> loss2/classifier-attribute_loss2/classifier-attribute_0_split_1
I1124 22:50:56.117523 14720 net.cpp:150] Setting up loss2/classifier-attribute_loss2/classifier-attribute_0_split
I1124 22:50:56.117529 14720 net.cpp:157] Top shape: 64 16 (1024)
I1124 22:50:56.117533 14720 net.cpp:157] Top shape: 64 16 (1024)
I1124 22:50:56.117537 14720 net.cpp:165] Memory required for data: 3222431496
I1124 22:50:56.117539 14720 layer_factory.hpp:76] Creating layer loss2/loss
I1124 22:50:56.117547 14720 net.cpp:106] Creating Layer loss2/loss
I1124 22:50:56.117550 14720 net.cpp:454] loss2/loss <- loss2/classifier-attribute_loss2/classifier-attribute_0_split_0
I1124 22:50:56.117555 14720 net.cpp:454] loss2/loss <- label_data_1_split_2
…
I1124 22:50:56.118160 14720 net.cpp:150] Setting up loss2/top-1
I1124 22:50:56.118165 14720 net.cpp:157] Top shape: (1)
I1124 22:50:56.118168 14720 net.cpp:165] Memory required for data: 3222431504
I1124 22:50:56.118171 14720 layer_factory.hpp:76] Creating layer inception_4e/1x1
I1124 22:50:56.118180 14720 net.cpp:106] Creating Layer inception_4e/1x1
I1124 22:50:56.118182 14720 net.cpp:454] inception_4e/1x1 <- inception_4d/output_inception_4d/output_0_split_1
I1124 22:50:56.118190 14720 net.cpp:411] inception_4e/1x1 -> inception_4e/1x1
I1124 22:50:56.120414 14720 net.cpp:150] Setting up inception_4e/1x1
I1124 22:50:56.120429 14720 net.cpp:157] Top shape: 64 256 14 14 (3211264)
I1124 22:50:56.120432 14720 net.cpp:165] Memory required for data: 3235276560
I1124 22:50:56.120439 14720 layer_factory.hpp:76] Creating layer inception_4e/relu_1x1
I1124 22:50:56.120446 14720 net.cpp:106] Creating Layer inception_4e/relu_1x1
I1124 22:50:56.120450 14720 net.cpp:454] inception_4e/relu_1x1 <- inception_4e/1x1
I1124 22:50:56.120456 14720 net.cpp:397] inception_4e/relu_1x1 -> inception_4e/1x1 (in-place)
I1124 22:50:56.120700 14720 net.cpp:150] Setting up inception_4e/relu_1x1
I1124 22:50:56.120712 14720 net.cpp:157] Top shape: 64 256 14 14 (3211264)
I1124 22:50:56.120717 14720 net.cpp:165] Memory required for data: 3248121616
I1124 22:50:56.120719 14720 layer_factory.hpp:76] Creating layer inception_4e/3x3_reduce
I1124 22:50:56.120729 14720 net.cpp:106] Creating Layer inception_4e/3x3_reduce
I1124 22:50:56.120733 14720 net.cpp:454] inception_4e/3x3_reduce <- inception_4d/output_inception_4d/output_0_split_2
I1124 22:50:56.120739 14720 net.cpp:411] inception_4e/3x3_reduce -> inception_4e/3x3_reduce
I1124 22:50:56.123070 14720 net.cpp:150] Setting up inception_4e/3x3_reduce
I1124 22:50:56.123083 14720 net.cpp:157] Top shape: 64 160 14 14 (2007040)
I1124 22:50:56.123087 14720 net.cpp:165] Memory required for data: 3256149776
I1124 22:50:56.123093 14720 layer_factory.hpp:76] Creating layer inception_4e/relu_3x3_reduce
I1124 22:50:56.123100 14720 net.cpp:106] Creating Layer inception_4e/relu_3x3_reduce
I1124 22:50:56.123106 14720 net.cpp:454] inception_4e/relu_3x3_reduce <- inception_4e/3x3_reduce
I1124 22:50:56.123112 14720 net.cpp:397] inception_4e/relu_3x3_reduce -> inception_4e/3x3_reduce (in-place)
I1124 22:50:56.123489 14720 net.cpp:150] Setting up inception_4e/relu_3x3_reduce
I1124 22:50:56.123503 14720 net.cpp:157] Top shape: 64 160 14 14 (2007040)
I1124 22:50:56.123507 14720 net.cpp:165] Memory required for data: 3264177936
I1124 22:50:56.123512 14720 layer_factory.hpp:76] Creating layer inception_4e/3x3
I1124 22:50:56.123535 14720 net.cpp:106] Creating Layer inception_4e/3x3
I1124 22:50:56.123540 14720 net.cpp:454] inception_4e/3x3 <- inception_4e/3x3_reduce
I1124 22:50:56.123548 14720 net.cpp:411] inception_4e/3x3 -> inception_4e/3x3
I1124 22:50:56.128350 14720 net.cpp:150] Setting up inception_4e/3x3
I1124 22:50:56.128366 14720 net.cpp:157] Top shape: 64 320 14 14 (4014080)
I1124 22:50:56.128371 14720 net.cpp:165] Memory required for data: 3280234256
I1124 22:50:56.128377 14720 layer_factory.hpp:76] Creating layer inception_4e/relu_3x3
I1124 22:50:56.128384 14720 net.cpp:106] Creating Layer inception_4e/relu_3x3
I1124 22:50:56.128388 14720 net.cpp:454] inception_4e/relu_3x3 <- inception_4e/3x3
I1124 22:50:56.128393 14720 net.cpp:397] inception_4e/relu_3x3 -> inception_4e/3x3 (in-place)
I1124 22:50:56.128754 14720 net.cpp:150] Setting up inception_4e/relu_3x3
I1124 22:50:56.128770 14720 net.cpp:157] Top shape: 64 320 14 14 (4014080)
I1124 22:50:56.128774 14720 net.cpp:165] Memory required for data: 3296290576
I1124 22:50:56.128777 14720 layer_factory.hpp:76] Creating layer inception_4e/5x5_reduce
I1124 22:50:56.128785 14720 net.cpp:106] Creating Layer inception_4e/5x5_reduce
I1124 22:50:56.128790 14720 net.cpp:454] inception_4e/5x5_reduce <- inception_4d/output_inception_4d/output_0_split_3
I1124 22:50:56.128798 14720 net.cpp:411] inception_4e/5x5_reduce -> inception_4e/5x5_reduce
I1124 22:50:56.130414 14720 net.cpp:150] Setting up inception_4e/5x5_reduce
I1124 22:50:56.130429 14720 net.cpp:157] Top shape: 64 32 14 14 (401408)
I1124 22:50:56.130434 14720 net.cpp:165] Memory required for data: 3297896208
I1124 22:50:56.130439 14720 layer_factory.hpp:76] Creating layer inception_4e/relu_5x5_reduce
I1124 22:50:56.130447 14720 net.cpp:106] Creating Layer inception_4e/relu_5x5_reduce
I1124 22:50:56.130451 14720 net.cpp:454] inception_4e/relu_5x5_reduce <- inception_4e/5x5_reduce
I1124 22:50:56.130457 14720 net.cpp:397] inception_4e/relu_5x5_reduce -> inception_4e/5x5_reduce (in-place)
I1124 22:50:56.130666 14720 net.cpp:150] Setting up inception_4e/relu_5x5_reduce
I1124 22:50:56.130676 14720 net.cpp:157] Top shape: 64 32 14 14 (401408)
I1124 22:50:56.130681 14720 net.cpp:165] Memory required for data: 3299501840
I1124 22:50:56.130683 14720 layer_factory.hpp:76] Creating layer inception_4e/5x5
I1124 22:50:56.130719 14720 net.cpp:106] Creating Layer inception_4e/5x5
I1124 22:50:56.130728 14720 net.cpp:454] inception_4e/5x5 <- inception_4e/5x5_reduce
I1124 22:50:56.130734 14720 net.cpp:411] inception_4e/5x5 -> inception_4e/5x5
I1124 22:50:56.132789 14720 net.cpp:150] Setting up inception_4e/5x5
I1124 22:50:56.132804 14720 net.cpp:157] Top shape: 64 128 14 14 (1605632)
I1124 22:50:56.132808 14720 net.cpp:165] Memory required for data: 3305924368
I1124 22:50:56.132815 14720 layer_factory.hpp:76] Creating layer inception_4e/relu_5x5
I1124 22:50:56.132822 14720 net.cpp:106] Creating Layer inception_4e/relu_5x5
I1124 22:50:56.132827 14720 net.cpp:454] inception_4e/relu_5x5 <- inception_4e/5x5
I1124 22:50:56.132833 14720 net.cpp:397] inception_4e/relu_5x5 -> inception_4e/5x5 (in-place)
I1124 22:50:56.133211 14720 net.cpp:150] Setting up inception_4e/relu_5x5
I1124 22:50:56.133226 14720 net.cpp:157] Top shape: 64 128 14 14 (1605632)
I1124 22:50:56.133230 14720 net.cpp:165] Memory required for data: 3312346896
I1124 22:50:56.133234 14720 layer_factory.hpp:76] Creating layer inception_4e/pool
I1124 22:50:56.133242 14720 net.cpp:106] Creating Layer inception_4e/pool
I1124 22:50:56.133246 14720 net.cpp:454] inception_4e/pool <- inception_4d/output_inception_4d/output_0_split_4
I1124 22:50:56.133252 14720 net.cpp:411] inception_4e/pool -> inception_4e/pool
I1124 22:50:56.133515 14720 net.cpp:150] Setting up inception_4e/pool
I1124 22:50:56.133528 14720 net.cpp:157] Top shape: 64 528 14 14 (6623232)
I1124 22:50:56.133533 14720 net.cpp:165] Memory required for data: 3338839824
I1124 22:50:56.133535 14720 layer_factory.hpp:76] Creating layer inception_4e/pool_proj
I1124 22:50:56.133544 14720 net.cpp:106] Creating Layer inception_4e/pool_proj
I1124 22:50:56.133548 14720 net.cpp:454] inception_4e/pool_proj <- inception_4e/pool
I1124 22:50:56.133554 14720 net.cpp:411] inception_4e/pool_proj -> inception_4e/pool_proj
I1124 22:50:56.135392 14720 net.cpp:150] Setting up inception_4e/pool_proj
I1124 22:50:56.135409 14720 net.cpp:157] Top shape: 64 128 14 14 (1605632)
I1124 22:50:56.135413 14720 net.cpp:165] Memory required for data: 3345262352
I1124 22:50:56.135421 14720 layer_factory.hpp:76] Creating layer inception_4e/relu_pool_proj
I1124 22:50:56.135426 14720 net.cpp:106] Creating Layer inception_4e/relu_pool_proj
I1124 22:50:56.135431 14720 net.cpp:454] inception_4e/relu_pool_proj <- inception_4e/pool_proj
I1124 22:50:56.135437 14720 net.cpp:397] inception_4e/relu_pool_proj -> inception_4e/pool_proj (in-place)
I1124 22:50:56.135809 14720 net.cpp:150] Setting up inception_4e/relu_pool_proj
I1124 22:50:56.135823 14720 net.cpp:157] Top shape: 64 128 14 14 (1605632)
I1124 22:50:56.135828 14720 net.cpp:165] Memory required for data: 3351684880
I1124 22:50:56.135830 14720 layer_factory.hpp:76] Creating layer inception_4e/output
I1124 22:50:56.135838 14720 net.cpp:106] Creating Layer inception_4e/output
I1124 22:50:56.135840 14720 net.cpp:454] inception_4e/output <- inception_4e/1x1
I1124 22:50:56.135845 14720 net.cpp:454] inception_4e/output <- inception_4e/3x3
I1124 22:50:56.135851 14720 net.cpp:454] inception_4e/output <- inception_4e/5x5
I1124 22:50:56.135855 14720 net.cpp:454] inception_4e/output <- inception_4e/pool_proj
I1124 22:50:56.135860 14720 net.cpp:411] inception_4e/output -> inception_4e/output
I1124 22:50:56.135913 14720 net.cpp:150] Setting up inception_4e/output
I1124 22:50:56.135921 14720 net.cpp:157] Top shape: 64 832 14 14 (10436608)
I1124 22:50:56.135923 14720 net.cpp:165] Memory required for data: 3393431312
I1124 22:50:56.135926 14720 layer_factory.hpp:76] Creating layer pool4/3x3_s2
I1124 22:50:56.135933 14720 net.cpp:106] Creating Layer pool4/3x3_s2
I1124 22:50:56.135937 14720 net.cpp:454] pool4/3x3_s2 <- inception_4e/output
I1124 22:50:56.135954 14720 net.cpp:411] pool4/3x3_s2 -> pool4/3x3_s2
I1124 22:50:56.136231 14720 net.cpp:150] Setting up pool4/3x3_s2
I1124 22:50:56.136245 14720 net.cpp:157] Top shape: 64 832 7 7 (2609152)
I1124 22:50:56.136247 14720 net.cpp:165] Memory required for data: 3403867920
I1124 22:50:56.136251 14720 layer_factory.hpp:76] Creating layer pool4/3x3_s2_pool4/3x3_s2_0_split
I1124 22:50:56.136257 14720 net.cpp:106] Creating Layer pool4/3x3_s2_pool4/3x3_s2_0_split
I1124 22:50:56.136261 14720 net.cpp:454] pool4/3x3_s2_pool4/3x3_s2_0_split <- pool4/3x3_s2
I1124 22:50:56.136268 14720 net.cpp:411] pool4/3x3_s2_pool4/3x3_s2_0_split -> pool4/3x3_s2_pool4/3x3_s2_0_split_0
I1124 22:50:56.136275 14720 net.cpp:411] pool4/3x3_s2_pool4/3x3_s2_0_split -> pool4/3x3_s2_pool4/3x3_s2_0_split_1
I1124 22:50:56.136281 14720 net.cpp:411] pool4/3x3_s2_pool4/3x3_s2_0_split -> pool4/3x3_s2_pool4/3x3_s2_0_split_2
I1124 22:50:56.136286 14720 net.cpp:411] pool4/3x3_s2_pool4/3x3_s2_0_split -> pool4/3x3_s2_pool4/3x3_s2_0_split_3
I1124 22:50:56.136391 14720 net.cpp:150] Setting up pool4/3x3_s2_pool4/3x3_s2_0_split
I1124 22:50:56.136401 14720 net.cpp:157] Top shape: 64 832 7 7 (2609152)
I1124 22:50:56.136405 14720 net.cpp:157] Top shape: 64 832 7 7 (2609152)
I1124 22:50:56.136409 14720 net.cpp:157] Top shape: 64 832 7 7 (2609152)
I1124 22:50:56.136412 14720 net.cpp:157] Top shape: 64 832 7 7 (2609152)
I1124 22:50:56.136415 14720 net.cpp:165] Memory required for data: 3445614352
I1124 22:50:56.136420 14720 layer_factory.hpp:76] Creating layer inception_5a/1x1
I1124 22:50:56.136426 14720 net.cpp:106] Creating Layer inception_5a/1x1
I1124 22:50:56.136430 14720 net.cpp:454] inception_5a/1x1 <- pool4/3x3_s2_pool4/3x3_s2_0_split_0
I1124 22:50:56.136437 14720 net.cpp:411] inception_5a/1x1 -> inception_5a/1x1
I1124 22:50:56.139595 14720 net.cpp:150] Setting up inception_5a/1x1
I1124 22:50:56.139611 14720 net.cpp:157] Top shape: 64 256 7 7 (802816)
I1124 22:50:56.139613 14720 net.cpp:165] Memory required for data: 3448825616
I1124 22:50:56.139621 14720 layer_factory.hpp:76] Creating layer inception_5a/relu_1x1
I1124 22:50:56.139626 14720 net.cpp:106] Creating Layer inception_5a/relu_1x1
I1124 22:50:56.139631 14720 net.cpp:454] inception_5a/relu_1x1 <- inception_5a/1x1
I1124 22:50:56.139637 14720 net.cpp:397] inception_5a/relu_1x1 -> inception_5a/1x1 (in-place)
I1124 22:50:56.139858 14720 net.cpp:150] Setting up inception_5a/relu_1x1
I1124 22:50:56.139870 14720 net.cpp:157] Top shape: 64 256 7 7 (802816)
I1124 22:50:56.139874 14720 net.cpp:165] Memory required for data: 3452036880
I1124 22:50:56.139878 14720 layer_factory.hpp:76] Creating layer inception_5a/3x3_reduce
I1124 22:50:56.139894 14720 net.cpp:106] Creating Layer inception_5a/3x3_reduce
I1124 22:50:56.139899 14720 net.cpp:454] inception_5a/3x3_reduce <- pool4/3x3_s2_pool4/3x3_s2_0_split_1
I1124 22:50:56.139906 14720 net.cpp:411] inception_5a/3x3_reduce -> inception_5a/3x3_reduce
I1124 22:50:56.142704 14720 net.cpp:150] Setting up inception_5a/3x3_reduce
I1124 22:50:56.142719 14720 net.cpp:157] Top shape: 64 160 7 7 (501760)
I1124 22:50:56.142724 14720 net.cpp:165] Memory required for data: 3454043920
I1124 22:50:56.142730 14720 layer_factory.hpp:76] Creating layer inception_5a/relu_3x3_reduce
I1124 22:50:56.142736 14720 net.cpp:106] Creating Layer inception_5a/relu_3x3_reduce
I1124 22:50:56.142741 14720 net.cpp:454] inception_5a/relu_3x3_reduce <- inception_5a/3x3_reduce
I1124 22:50:56.142747 14720 net.cpp:397] inception_5a/relu_3x3_reduce -> inception_5a/3x3_reduce (in-place)
I1124 22:50:56.143131 14720 net.cpp:150] Setting up inception_5a/relu_3x3_reduce
I1124 22:50:56.143146 14720 net.cpp:157] Top shape: 64 160 7 7 (501760)
I1124 22:50:56.143148 14720 net.cpp:165] Memory required for data: 3456050960
I1124 22:50:56.143152 14720 layer_factory.hpp:76] Creating layer inception_5a/3x3
I1124 22:50:56.143163 14720 net.cpp:106] Creating Layer inception_5a/3x3
I1124 22:50:56.143168 14720 net.cpp:454] inception_5a/3x3 <- inception_5a/3x3_reduce
I1124 22:50:56.143174 14720 net.cpp:411] inception_5a/3x3 -> inception_5a/3x3
I1124 22:50:56.154211 14720 net.cpp:150] Setting up inception_5a/3x3
I1124 22:50:56.154249 14720 net.cpp:157] Top shape: 64 320 7 7 (1003520)
I1124 22:50:56.154259 14720 net.cpp:165] Memory required for data: 3460065040
I1124 22:50:56.154278 14720 layer_factory.hpp:76] Creating layer inception_5a/relu_3x3
I1124 22:50:56.154295 14720 net.cpp:106] Creating Layer inception_5a/relu_3x3
I1124 22:50:56.154306 14720 net.cpp:454] inception_5a/relu_3x3 <- inception_5a/3x3
I1124 22:50:56.154320 14720 net.cpp:397] inception_5a/relu_3x3 -> inception_5a/3x3 (in-place)
I1124 22:50:56.154803 14720 net.cpp:150] Setting up inception_5a/relu_3x3
I1124 22:50:56.154824 14720 net.cpp:157] Top shape: 64 320 7 7 (1003520)
I1124 22:50:56.154832 14720 net.cpp:165] Memory required for data: 3464079120
I1124 22:50:56.154845 14720 layer_factory.hpp:76] Creating layer inception_5a/5x5_reduce
I1124 22:50:56.154865 14720 net.cpp:106] Creating Layer inception_5a/5x5_reduce
I1124 22:50:56.154876 14720 net.cpp:454] inception_5a/5x5_reduce <- pool4/3x3_s2_pool4/3x3_s2_0_split_2
I1124 22:50:56.154893 14720 net.cpp:411] inception_5a/5x5_reduce -> inception_5a/5x5_reduce
I1124 22:50:56.157799 14720 net.cpp:150] Setting up inception_5a/5x5_reduce
I1124 22:50:56.157816 14720 net.cpp:157] Top shape: 64 32 7 7 (100352)
I1124 22:50:56.157820 14720 net.cpp:165] Memory required for data: 3464480528
I1124 22:50:56.157826 14720 layer_factory.hpp:76] Creating layer inception_5a/relu_5x5_reduce
I1124 22:50:56.157832 14720 net.cpp:106] Creating Layer inception_5a/relu_5x5_reduce
I1124 22:50:56.157837 14720 net.cpp:454] inception_5a/relu_5x5_reduce <- inception_5a/5x5_reduce
I1124 22:50:56.157842 14720 net.cpp:397] inception_5a/relu_5x5_reduce -> inception_5a/5x5_reduce (in-place)
I1124 22:50:56.158084 14720 net.cpp:150] Setting up inception_5a/relu_5x5_reduce
I1124 22:50:56.158097 14720 net.cpp:157] Top shape: 64 32 7 7 (100352)
I1124 22:50:56.158100 14720 net.cpp:165] Memory required for data: 3464881936
I1124 22:50:56.158104 14720 layer_factory.hpp:76] Creating layer inception_5a/5x5
I1124 22:50:56.158113 14720 net.cpp:106] Creating Layer inception_5a/5x5
I1124 22:50:56.158118 14720 net.cpp:454] inception_5a/5x5 <- inception_5a/5x5_reduce
I1124 22:50:56.158148 14720 net.cpp:411] inception_5a/5x5 -> inception_5a/5x5
I1124 22:50:56.160372 14720 net.cpp:150] Setting up inception_5a/5x5
I1124 22:50:56.160387 14720 net.cpp:157] Top shape: 64 128 7 7 (401408)
I1124 22:50:56.160392 14720 net.cpp:165] Memory required for data: 3466487568
I1124 22:50:56.160398 14720 layer_factory.hpp:76] Creating layer inception_5a/relu_5x5
I1124 22:50:56.160405 14720 net.cpp:106] Creating Layer inception_5a/relu_5x5
I1124 22:50:56.160410 14720 net.cpp:454] inception_5a/relu_5x5 <- inception_5a/5x5
I1124 22:50:56.160415 14720 net.cpp:397] inception_5a/relu_5x5 -> inception_5a/5x5 (in-place)
I1124 22:50:56.160801 14720 net.cpp:150] Setting up inception_5a/relu_5x5
I1124 22:50:56.160815 14720 net.cpp:157] Top shape: 64 128 7 7 (401408)
I1124 22:50:56.160820 14720 net.cpp:165] Memory required for data: 3468093200
I1124 22:50:56.160823 14720 layer_factory.hpp:76] Creating layer inception_5a/pool
I1124 22:50:56.160831 14720 net.cpp:106] Creating Layer inception_5a/pool
I1124 22:50:56.160836 14720 net.cpp:454] inception_5a/pool <- pool4/3x3_s2_pool4/3x3_s2_0_split_3
I1124 22:50:56.160842 14720 net.cpp:411] inception_5a/pool -> inception_5a/pool
I1124 22:50:56.161154 14720 net.cpp:150] Setting up inception_5a/pool
I1124 22:50:56.161169 14720 net.cpp:157] Top shape: 64 832 7 7 (2609152)
I1124 22:50:56.161171 14720 net.cpp:165] Memory required for data: 3478529808
I1124 22:50:56.161175 14720 layer_factory.hpp:76] Creating layer inception_5a/pool_proj
I1124 22:50:56.161185 14720 net.cpp:106] Creating Layer inception_5a/pool_proj
I1124 22:50:56.161190 14720 net.cpp:454] inception_5a/pool_proj <- inception_5a/pool
I1124 22:50:56.161196 14720 net.cpp:411] inception_5a/pool_proj -> inception_5a/pool_proj
I1124 22:50:56.163741 14720 net.cpp:150] Setting up inception_5a/pool_proj
I1124 22:50:56.163756 14720 net.cpp:157] Top shape: 64 128 7 7 (401408)
I1124 22:50:56.163760 14720 net.cpp:165] Memory required for data: 3480135440
I1124 22:50:56.163768 14720 layer_factory.hpp:76] Creating layer inception_5a/relu_pool_proj
I1124 22:50:56.163774 14720 net.cpp:106] Creating Layer inception_5a/relu_pool_proj
I1124 22:50:56.163777 14720 net.cpp:454] inception_5a/relu_pool_proj <- inception_5a/pool_proj
I1124 22:50:56.163784 14720 net.cpp:397] inception_5a/relu_pool_proj -> inception_5a/pool_proj (in-place)
I1124 22:50:56.164189 14720 net.cpp:150] Setting up inception_5a/relu_pool_proj
I1124 22:50:56.164204 14720 net.cpp:157] Top shape: 64 128 7 7 (401408)
I1124 22:50:56.164208 14720 net.cpp:165] Memory required for data: 3481741072
I1124 22:50:56.164211 14720 layer_factory.hpp:76] Creating layer inception_5a/output
I1124 22:50:56.164218 14720 net.cpp:106] Creating Layer inception_5a/output
I1124 22:50:56.164227 14720 net.cpp:454] inception_5a/output <- inception_5a/1x1
I1124 22:50:56.164232 14720 net.cpp:454] inception_5a/output <- inception_5a/3x3
I1124 22:50:56.164237 14720 net.cpp:454] inception_5a/output <- inception_5a/5x5
I1124 22:50:56.164242 14720 net.cpp:454] inception_5a/output <- inception_5a/pool_proj
I1124 22:50:56.164250 14720 net.cpp:411] inception_5a/output -> inception_5a/output
I1124 22:50:56.164305 14720 net.cpp:150] Setting up inception_5a/output
I1124 22:50:56.164314 14720 net.cpp:157] Top shape: 64 832 7 7 (2609152)
I1124 22:50:56.164317 14720 net.cpp:165] Memory required for data: 3492177680
I1124 22:50:56.164321 14720 layer_factory.hpp:76] Creating layer inception_5a/output_inception_5a/output_0_split
I1124 22:50:56.164327 14720 net.cpp:106] Creating Layer inception_5a/output_inception_5a/output_0_split
I1124 22:50:56.164331 14720 net.cpp:454] inception_5a/output_inception_5a/output_0_split <- inception_5a/output
I1124 22:50:56.164336 14720 net.cpp:411] inception_5a/output_inception_5a/output_0_split -> inception_5a/output_inception_5a/output_0_split_0
I1124 22:50:56.164342 14720 net.cpp:411] inception_5a/output_inception_5a/output_0_split -> inception_5a/output_inception_5a/output_0_split_1
I1124 22:50:56.164348 14720 net.cpp:411] inception_5a/output_inception_5a/output_0_split -> inception_5a/output_inception_5a/output_0_split_2
I1124 22:50:56.164355 14720 net.cpp:411] inception_5a/output_inception_5a/output_0_split -> inception_5a/output_inception_5a/output_0_split_3
I1124 22:50:56.164470 14720 net.cpp:150] Setting up inception_5a/output_inception_5a/output_0_split
I1124 22:50:56.164479 14720 net.cpp:157] Top shape: 64 832 7 7 (2609152)
I1124 22:50:56.164484 14720 net.cpp:157] Top shape: 64 832 7 7 (2609152)
I1124 22:50:56.164487 14720 net.cpp:157] Top shape: 64 832 7 7 (2609152)
I1124 22:50:56.164490 14720 net.cpp:157] Top shape: 64 832 7 7 (2609152)
I1124 22:50:56.164494 14720 net.cpp:165] Memory required for data: 3533924112
I1124 22:50:56.164497 14720 layer_factory.hpp:76] Creating layer inception_5b/1x1
I1124 22:50:56.164505 14720 net.cpp:106] Creating Layer inception_5b/1x1
I1124 22:50:56.164510 14720 net.cpp:454] inception_5b/1x1 <- inception_5a/output_inception_5a/output_0_split_0
I1124 22:50:56.164516 14720 net.cpp:411] inception_5b/1x1 -> inception_5b/1x1
I1124 22:50:56.168287 14720 net.cpp:150] Setting up inception_5b/1x1
I1124 22:50:56.168301 14720 net.cpp:157] Top shape: 64 384 7 7 (1204224)
I1124 22:50:56.168305 14720 net.cpp:165] Memory required for data: 3538741008
I1124 22:50:56.168313 14720 layer_factory.hpp:76] Creating layer inception_5b/relu_1x1
I1124 22:50:56.168318 14720 net.cpp:106] Creating Layer inception_5b/relu_1x1
I1124 22:50:56.168324 14720 net.cpp:454] inception_5b/relu_1x1 <- inception_5b/1x1
I1124 22:50:56.168329 14720 net.cpp:397] inception_5b/relu_1x1 -> inception_5b/1x1 (in-place)
I1124 22:50:56.168709 14720 net.cpp:150] Setting up inception_5b/relu_1x1
I1124 22:50:56.168722 14720 net.cpp:157] Top shape: 64 384 7 7 (1204224)
I1124 22:50:56.168726 14720 net.cpp:165] Memory required for data: 3543557904
I1124 22:50:56.168730 14720 layer_factory.hpp:76] Creating layer inception_5b/3x3_reduce
I1124 22:50:56.168740 14720 net.cpp:106] Creating Layer inception_5b/3x3_reduce
I1124 22:50:56.168745 14720 net.cpp:454] inception_5b/3x3_reduce <- inception_5a/output_inception_5a/output_0_split_1
I1124 22:50:56.168756 14720 net.cpp:411] inception_5b/3x3_reduce -> inception_5b/3x3_reduce
I1124 22:50:56.174679 14720 net.cpp:150] Setting up inception_5b/3x3_reduce
I1124 22:50:56.174695 14720 net.cpp:157] Top shape: 64 192 7 7 (602112)
I1124 22:50:56.174700 14720 net.cpp:165] Memory required for data: 3545966352
I1124 22:50:56.174706 14720 layer_factory.hpp:76] Creating layer inception_5b/relu_3x3_reduce
I1124 22:50:56.174713 14720 net.cpp:106] Creating Layer inception_5b/relu_3x3_reduce
I1124 22:50:56.174718 14720 net.cpp:454] inception_5b/relu_3x3_reduce <- inception_5b/3x3_reduce
I1124 22:50:56.174723 14720 net.cpp:397] inception_5b/relu_3x3_reduce -> inception_5b/3x3_reduce (in-place)
I1124 22:50:56.174967 14720 net.cpp:150] Setting up inception_5b/relu_3x3_reduce
I1124 22:50:56.174979 14720 net.cpp:157] Top shape: 64 192 7 7 (602112)
I1124 22:50:56.174983 14720 net.cpp:165] Memory required for data: 3548374800
I1124 22:50:56.174985 14720 layer_factory.hpp:76] Creating layer inception_5b/3x3
I1124 22:50:56.174996 14720 net.cpp:106] Creating Layer inception_5b/3x3
I1124 22:50:56.175000 14720 net.cpp:454] inception_5b/3x3 <- inception_5b/3x3_reduce
I1124 22:50:56.175007 14720 net.cpp:411] inception_5b/3x3 -> inception_5b/3x3
I1124 22:50:56.181459 14720 net.cpp:150] Setting up inception_5b/3x3
I1124 22:50:56.181475 14720 net.cpp:157] Top shape: 64 384 7 7 (1204224)
I1124 22:50:56.181479 14720 net.cpp:165] Memory required for data: 3553191696
I1124 22:50:56.181485 14720 layer_factory.hpp:76] Creating layer inception_5b/relu_3x3
I1124 22:50:56.181491 14720 net.cpp:106] Creating Layer inception_5b/relu_3x3
I1124 22:50:56.181496 14720 net.cpp:454] inception_5b/relu_3x3 <- inception_5b/3x3
I1124 22:50:56.181524 14720 net.cpp:397] inception_5b/relu_3x3 -> inception_5b/3x3 (in-place)
I1124 22:50:56.181916 14720 net.cpp:150] Setting up inception_5b/relu_3x3
I1124 22:50:56.181931 14720 net.cpp:157] Top shape: 64 384 7 7 (1204224)
I1124 22:50:56.181933 14720 net.cpp:165] Memory required for data: 3558008592
I1124 22:50:56.181937 14720 layer_factory.hpp:76] Creating layer inception_5b/5x5_reduce
I1124 22:50:56.181947 14720 net.cpp:106] Creating Layer inception_5b/5x5_reduce
I1124 22:50:56.181951 14720 net.cpp:454] inception_5b/5x5_reduce <- inception_5a/output_inception_5a/output_0_split_2
I1124 22:50:56.181959 14720 net.cpp:411] inception_5b/5x5_reduce -> inception_5b/5x5_reduce
I1124 22:50:56.183770 14720 net.cpp:150] Setting up inception_5b/5x5_reduce
I1124 22:50:56.183784 14720 net.cpp:157] Top shape: 64 48 7 7 (150528)
I1124 22:50:56.183789 14720 net.cpp:165] Memory required for data: 3558610704
I1124 22:50:56.183795 14720 layer_factory.hpp:76] Creating layer inception_5b/relu_5x5_reduce
I1124 22:50:56.183802 14720 net.cpp:106] Creating Layer inception_5b/relu_5x5_reduce
I1124 22:50:56.183807 14720 net.cpp:454] inception_5b/relu_5x5_reduce <- inception_5b/5x5_reduce
I1124 22:50:56.183814 14720 net.cpp:397] inception_5b/relu_5x5_reduce -> inception_5b/5x5_reduce (in-place)
I1124 22:50:56.184211 14720 net.cpp:150] Setting up inception_5b/relu_5x5_reduce
I1124 22:50:56.184224 14720 net.cpp:157] Top shape: 64 48 7 7 (150528)
I1124 22:50:56.184228 14720 net.cpp:165] Memory required for data: 3559212816
I1124 22:50:56.184232 14720 layer_factory.hpp:76] Creating layer inception_5b/5x5
I1124 22:50:56.184242 14720 net.cpp:106] Creating Layer inception_5b/5x5
I1124 22:50:56.184247 14720 net.cpp:454] inception_5b/5x5 <- inception_5b/5x5_reduce
I1124 22:50:56.184255 14720 net.cpp:411] inception_5b/5x5 -> inception_5b/5x5
I1124 22:50:56.186815 14720 net.cpp:150] Setting up inception_5b/5x5
I1124 22:50:56.186831 14720 net.cpp:157] Top shape: 64 128 7 7 (401408)
I1124 22:50:56.186836 14720 net.cpp:165] Memory required for data: 3560818448
I1124 22:50:56.186843 14720 layer_factory.hpp:76] Creating layer inception_5b/relu_5x5
I1124 22:50:56.186851 14720 net.cpp:106] Creating Layer inception_5b/relu_5x5
I1124 22:50:56.186856 14720 net.cpp:454] inception_5b/relu_5x5 <- inception_5b/5x5
I1124 22:50:56.186863 14720 net.cpp:397] inception_5b/relu_5x5 -> inception_5b/5x5 (in-place)
I1124 22:50:56.187111 14720 net.cpp:150] Setting up inception_5b/relu_5x5
I1124 22:50:56.187125 14720 net.cpp:157] Top shape: 64 128 7 7 (401408)
I1124 22:50:56.187129 14720 net.cpp:165] Memory required for data: 3562424080
I1124 22:50:56.187134 14720 layer_factory.hpp:76] Creating layer inception_5b/pool
I1124 22:50:56.187140 14720 net.cpp:106] Creating Layer inception_5b/pool
I1124 22:50:56.187145 14720 net.cpp:454] inception_5b/pool <- inception_5a/output_inception_5a/output_0_split_3
I1124 22:50:56.187151 14720 net.cpp:411] inception_5b/pool -> inception_5b/pool
I1124 22:50:56.187609 14720 net.cpp:150] Setting up inception_5b/pool
I1124 22:50:56.187625 14720 net.cpp:157] Top shape: 64 832 7 7 (2609152)
I1124 22:50:56.187629 14720 net.cpp:165] Memory required for data: 3572860688
I1124 22:50:56.187633 14720 layer_factory.hpp:76] Creating layer inception_5b/pool_proj
I1124 22:50:56.187644 14720 net.cpp:106] Creating Layer inception_5b/pool_proj
I1124 22:50:56.187649 14720 net.cpp:454] inception_5b/pool_proj <- inception_5b/pool
I1124 22:50:56.187657 14720 net.cpp:411] inception_5b/pool_proj -> inception_5b/pool_proj
I1124 22:50:56.190402 14720 net.cpp:150] Setting up inception_5b/pool_proj
I1124 22:50:56.190418 14720 net.cpp:157] Top shape: 64 128 7 7 (401408)
I1124 22:50:56.190423 14720 net.cpp:165] Memory required for data: 3574466320
I1124 22:50:56.190431 14720 layer_factory.hpp:76] Creating layer inception_5b/relu_pool_proj
I1124 22:50:56.190439 14720 net.cpp:106] Creating Layer inception_5b/relu_pool_proj
I1124 22:50:56.190446 14720 net.cpp:454] inception_5b/relu_pool_proj <- inception_5b/pool_proj
I1124 22:50:56.190453 14720 net.cpp:397] inception_5b/relu_pool_proj -> inception_5b/pool_proj (in-place)
I1124 22:50:56.190696 14720 net.cpp:150] Setting up inception_5b/relu_pool_proj
I1124 22:50:56.190708 14720 net.cpp:157] Top shape: 64 128 7 7 (401408)
I1124 22:50:56.190712 14720 net.cpp:165] Memory required for data: 3576071952
I1124 22:50:56.190716 14720 layer_factory.hpp:76] Creating layer inception_5b/output
I1124 22:50:56.190724 14720 net.cpp:106] Creating Layer inception_5b/output
I1124 22:50:56.190729 14720 net.cpp:454] inception_5b/output <- inception_5b/1x1
I1124 22:50:56.190735 14720 net.cpp:454] inception_5b/output <- inception_5b/3x3
I1124 22:50:56.190739 14720 net.cpp:454] inception_5b/output <- inception_5b/5x5
I1124 22:50:56.190744 14720 net.cpp:454] inception_5b/output <- inception_5b/pool_proj
I1124 22:50:56.190750 14720 net.cpp:411] inception_5b/output -> inception_5b/output
I1124 22:50:56.190784 14720 net.cpp:150] Setting up inception_5b/output
I1124 22:50:56.190791 14720 net.cpp:157] Top shape: 64 1024 7 7 (3211264)
I1124 22:50:56.190795 14720 net.cpp:165] Memory required for data: 3588917008
I1124 22:50:56.190798 14720 layer_factory.hpp:76] Creating layer pool5/7x7_s1
I1124 22:50:56.190805 14720 net.cpp:106] Creating Layer pool5/7x7_s1
I1124 22:50:56.190809 14720 net.cpp:454] pool5/7x7_s1 <- inception_5b/output
I1124 22:50:56.190816 14720 net.cpp:411] pool5/7x7_s1 -> pool5/7x7_s1
I1124 22:50:56.191401 14720 net.cpp:150] Setting up pool5/7x7_s1
I1124 22:50:56.191417 14720 net.cpp:157] Top shape: 64 1024 1 1 (65536)
I1124 22:50:56.191421 14720 net.cpp:165] Memory required for data: 3589179152
I1124 22:50:56.191426 14720 layer_factory.hpp:76] Creating layer pool5/drop_7x7_s1
I1124 22:50:56.191433 14720 net.cpp:106] Creating Layer pool5/drop_7x7_s1
I1124 22:50:56.191437 14720 net.cpp:454] pool5/drop_7x7_s1 <- pool5/7x7_s1
I1124 22:50:56.191448 14720 net.cpp:397] pool5/drop_7x7_s1 -> pool5/7x7_s1 (in-place)
I1124 22:50:56.191480 14720 net.cpp:150] Setting up pool5/drop_7x7_s1
I1124 22:50:56.191488 14720 net.cpp:157] Top shape: 64 1024 1 1 (65536)
I1124 22:50:56.191490 14720 net.cpp:165] Memory required for data: 3589441296
I1124 22:50:56.191494 14720 layer_factory.hpp:76] Creating layer loss3/classifier-attribute
I1124 22:50:56.191503 14720 net.cpp:106] Creating Layer loss3/classifier-attribute
I1124 22:50:56.191506 14720 net.cpp:454] loss3/classifier-attribute <- pool5/7x7_s1
I1124 22:50:56.191516 14720 net.cpp:411] loss3/classifier-attribute -> loss3/classifier-attribute
I1124 22:50:56.191783 14720 net.cpp:150] Setting up loss3/classifier-attribute
I1124 22:50:56.191794 14720 net.cpp:157] Top shape: 64 16 (1024)
I1124 22:50:56.191798 14720 net.cpp:165] Memory required for data: 3589445392
I1124 22:50:56.191805 14720 layer_factory.hpp:76] Creating layer loss3/classifier-attribute_loss3/classifier-attribute_0_split
I1124 22:50:56.191813 14720 net.cpp:106] Creating Layer loss3/classifier-attribute_loss3/classifier-attribute_0_split
I1124 22:50:56.191818 14720 net.cpp:454] loss3/classifier-attribute_loss3/classifier-attribute_0_split <- loss3/classifier-attribute
I1124 22:50:56.191824 14720 net.cpp:411] loss3/classifier-attribute_loss3/classifier-attribute_0_split -> loss3/classifier-attribute_loss3/classifier-attribute_0_split_0
I1124 22:50:56.191831 14720 net.cpp:411] loss3/classifier-attribute_loss3/classifier-attribute_0_split -> loss3/classifier-attribute_loss3/classifier-attribute_0_split_1
I1124 22:50:56.191874 14720 net.cpp:150] Setting up loss3/classifier-attribute_loss3/classifier-attribute_0_split
I1124 22:50:56.191880 14720 net.cpp:157] Top shape: 64 16 (1024)
I1124 22:50:56.191884 14720 net.cpp:157] Top shape: 64 16 (1024)
I1124 22:50:56.191889 14720 net.cpp:165] Memory required for data: 3589453584
I1124 22:50:56.191891 14720 layer_factory.hpp:76] Creating layer loss3/loss3
I1124 22:50:56.191898 14720 net.cpp:106] Creating Layer loss3/loss3
I1124 22:50:56.191903 14720 net.cpp:454] loss3/loss3 <- loss3/classifier-attribute_loss3/classifier-attribute_0_split_0
I1124 22:50:56.191908 14720 net.cpp:454] loss3/loss3 <- label_data_1_split_4
…
