…
I1124 22:51:49.731621 14803 net.cpp:322] The NetState phase (0) differed from the phase (1) specified by a rule in layer loss3/top-1
I1124 22:51:49.733608 14803 net.cpp:49] Initializing net from parameters: 
name: "GoogleNet-finetune-for-cigit"
state {
  phase: TRAIN
}
layer {
  name: "data"
  type: "ImageData"
  top: "data"
  top: "label"
  include {
    phase: TRAIN
  }
  transform_param {
    mirror: true
    crop_size: 224
    mean_value: 104
    mean_value: 117
    mean_value: 123
  }
  image_data_param {
    source: "pad_train.txt"
    batch_size: 64
    shuffle: true
    new_height: 256
    new_width: 256
  }
}
layer {
  name: "conv1/7x7_s2"
  type: "Convolution"
  bottom: "data"
  top: "conv1/7x7_s2"
  param {
    lr_mult: 1
    decay_mult: 1
  }
  param {
    lr_mult: 2
    decay_mult: 0
  }
  convolution_param {
    num_output: 64
    pad: 3
    kernel_size: 7
    stride: 2
    weight_filler {
      type: "xavier"
    }
    bias_filler {
      type: "constant"
      value: 0.2
    }
  }
}
layer {
  name: "conv1/relu_7x7"
  type: "ReLU"
  bottom: "conv1/7x7_s2"
  top: "conv1/7x7_s2"
}
layer {
  name: "pool1/3x3_s2"
  type: "Pooling"
  bottom: "conv1/7x7_s2"
  top: "pool1/3x3_s2"
  pooling_param {
    pool: MAX
    kernel_size: 3
    stride: 2
  }
}
layer {
  name: "pool1/norm1"
  type: "LRN"
  bottom: "pool1/3x3_s2"
  top: "pool1/norm1"
  lrn_param {
    local_size: 5
    alpha: 0.0001
    beta: 0.75
  }
}
layer {
  name: "conv2/3x3_reduce"
  type: "Convolution"
  bottom: "pool1/norm1"
  top: "conv2/3x3_reduce"
  param {
    lr_mult: 1
    decay_mult: 1
  }
  param {
    lr_mult: 2
    decay_mult: 0
  }
  convolution_param {
    num_output: 64
    kernel_size: 1
    weight_filler {
      type: "xavier"
    }
    bias_filler {
      type: "constant"
      value: 0.2
    }
  }
}
layer {
  name: "conv2/relu_3x3_reduce"
  type: "ReLU"
  bottom: "conv2/3x3_reduce"
  top: "conv2/3x3_reduce"
}
layer {
  name: "conv2/3x3"
  type: "Convolution"
  bottom: "conv2/3x3_reduce"
  top: "conv2/3x3"
  param {
    lr_mult: 1
    decay_mult: 1
  }
  param {
    lr_mult: 2
    decay_mult: 0
  }
  convolution_param {
    num_output: 192
    pad: 1
    kernel_size: 3
    weight_filler {
      type: "xavier"
    }
    bias_filler {
      type: "constant"
      value: 0.2
    }
  }
}
layer {
  name: "conv2/relu_3x3"
  type: "ReLU"
  bottom: "conv2/3x3"
  top: "conv2/3x3"
}
layer {
  name: "conv2/norm2"
  type: "LRN"
  bottom: "conv2/3x3"
  top: "conv2/norm2"
  lrn_param {
    local_size: 5
    alpha: 0.0001
    beta: 0.75
  }
}
layer {
  name: "pool2/3x3_s2"
  type: "Pooling"
  bottom: "conv2/norm2"
  top: "pool2/3x3_s2"
  pooling_param {
    pool: MAX
    kernel_size: 3
    stride: 2
  }
}
layer {
  name: "inception_3a/1x1"
  type: "Convolution"
  bottom: "pool2/3x3_s2"
  top: "inception_3a/1x1"
  param {
    lr_mult: 1
    decay_mult: 1
  }
  param {
    lr_mult: 2
    decay_mult: 0
  }
  convolution_param {
    num_output: 64
    kernel_size: 1
    weight_filler {
      type: "xavier"
    }
    bias_filler {
      type: "constant"
      value: 0.2
    }
  }
}
layer {
  name: "inception_3a/relu_1x1"
  type: "ReLU"
  bottom: "inception_3a/1x1"
  top: "inception_3a/1x1"
}
layer {
  name: "inception_3a/3x3_reduce"
  type: "Convolution"
  bottom: "pool2/3x3_s2"
  top: "inception_3a/3x3_reduce"
  param {
    lr_mult: 1
    decay_mult: 1
  }
  param {
    lr_mult: 2
    decay_mult: 0
  }
  convolution_param {
    num_output: 96
    kernel_size: 1
    weight_filler {
      type: "xavier"
    }
    bias_filler {
      type: "constant"
      value: 0.2
    }
  }
}
layer {
  name: "inception_3a/relu_3x3_reduce"
  type: "ReLU"
  bottom: "inception_3a/3x3_reduce"
  top: "inception_3a/3x3_reduce"
}
layer {
  name: "inception_3a/3x3"
  type: "Convolution"
  bottom: "inception_3a/3x3_reduce"
  top: "inception_3a/3x3"
  param {
    lr_mult: 1
    decay_mult: 1
  }
  param {
    lr_mult: 2
    decay_mult: 0
  }
  convolution_param {
    num_output: 128
    pad: 1
    kernel_size: 3
    weight_filler {
      type: "xavier"
    }
    bias_filler {
      type: "constant"
      value: 0.2
    }
  }
}
layer {
  name: "inception_3a/relu_3x3"
  type: "ReLU"
  bottom: "inception_3a/3x3"
  top: "inception_3a/3x3"
}
layer {
  name: "inception_3a/5x5_reduce"
  type: "Convolution"
  bottom: "pool2/3x3_s2"
  top: "inception_3a/5x5_reduce"
  param {
    lr_mult: 1
    decay_mult: 1
  }
  param {
    lr_mult: 2
    decay_mult: 0
  }
  convolution_param {
    num_output: 16
    kernel_size: 1
    weight_filler {
      type: "xavier"
    }
    bias_filler {
      type: "constant"
      value: 0.2
    }
  }
}
layer {
  name: "inception_3a/relu_5x5_reduce"
  type: "ReLU"
  bottom: "inception_3a/5x5_reduce"
  top: "inception_3a/5x5_reduce"
}
layer {
  name: "inception_3a/5x5"
  type: "Convolution"
  bottom: "inception_3a/5x5_reduce"
  top: "inception_3a/5x5"
  param {
    lr_mult: 1
    decay_mult: 1
  }
  param {
    lr_mult: 2
    decay_mult: 0
  }
  convolution_param {
    num_output: 32
    pad: 2
    kernel_size: 5
    weight_filler {
      type: "xavier"
    }
    bias_filler {
      type: "constant"
      value: 0.2
    }
  }
}
layer {
  name: "inception_3a/relu_5x5"
  type: "ReLU"
  bottom: "inception_3a/5x5"
  top: "inception_3a/5x5"
}
layer {
  name: "inception_3a/pool"
  type: "Pooling"
  bottom: "pool2/3x3_s2"
  top: "inception_3a/pool"
  pooling_param {
    pool: MAX
    kernel_size: 3
    stride: 1
    pad: 1
  }
}
layer {
  name: "inception_3a/pool_proj"
  type: "Convolution"
  bottom: "inception_3a/pool"
  top: "inception_3a/pool_proj"
  param {
    lr_mult: 1
    decay_mult: 1
  }
  param {
    lr_mult: 2
    decay_mult: 0
  }
  convolution_param {
    num_output: 32
    kernel_size: 1
    weight_filler {
      type: "xavier"
    }
    bias_filler {
      type: "constant"
      value: 0.2
    }
  }
}
layer {
  name: "inception_3a/relu_pool_proj"
  type: "ReLU"
  bottom: "inception_3a/pool_proj"
  top: "inception_3a/pool_proj"
}
layer {
  name: "inception_3a/output"
  type: "Concat"
  bottom: "inception_3a/1x1"
  bottom: "inception_3a/3x3"
  bottom: "inception_3a/5x5"
  bottom: "inception_3a/pool_proj"
  top: "inception_3a/output"
}
layer {
  name: "inception_3b/1x1"
  type: "Convolution"
  bottom: "inception_3a/output"
  top: "inception_3b/1x1"
  param {
    lr_mult: 1
    decay_mult: 1
  }
  param {
    lr_mult: 2
    decay_mult: 0
  }
  convolution_param {
    num_output: 128
    kernel_size: 1
    weight_filler {
      type: "xavier"
    }
    bias_filler {
      type: "constant"
      value: 0.2
    }
  }
}
layer {
  name: "inception_3b/relu_1x1"
  type: "ReLU"
  bottom: "inception_3b/1x1"
  top: "inception_3b/1x1"
}
layer {
  name: "inception_3b/3x3_reduce"
  type: "Convolution"
  bottom: "inception_3a/output"
  top: "inception_3b/3x3_reduce"
  param {
    lr_mult: 1
    decay_mult: 1
  }
  param {
    lr_mult: 2
    decay_mult: 0
  }
  convolution_param {
    num_output: 128
    kernel_size: 1
    weight_filler {
      type: "xavier"
    }
    bias_filler {
      type: "constant"
      value: 0.2
    }
  }
}
layer {
  name: "inception_3b/relu_3x3_reduce"
  type: "ReLU"
  bottom: "inception_3b/3x3_reduce"
  top: "inception_3b/3x3_reduce"
}
layer {
  name: "inception_3b/3x3"
  type: "Convolution"
  bottom: "inception_3b/3x3_reduce"
  top: "inception_3b/3x3"
  param {
    lr_mult: 1
    decay_mult: 1
  }
  param {
    lr_mult: 2
    decay_mult: 0
  }
  convolution_param {
    num_output: 192
    pad: 1
    kernel_size: 3
    weight_filler {
      type: "xavier"
    }
    bias_filler {
      type: "constant"
      value: 0.2
    }
  }
}
layer {
  name: "inception_3b/relu_3x3"
  type: "ReLU"
  bottom: "inception_3b/3x3"
  top: "inception_3b/3x3"
}
layer {
  name: "inception_3b/5x5_reduce"
  type: "Convolution"
  bottom: "inception_3a/output"
  top: "inception_3b/5x5_reduce"
  param {
    lr_mult: 1
    decay_mult: 1
  }
  param {
    lr_mult: 2
    decay_mult: 0
  }
  convolution_param {
    num_output: 32
    kernel_size: 1
    weight_filler {
      type: "xavier"
    }
    bias_filler {
      type: "constant"
      value: 0.2
    }
  }
}
layer {
  name: "inception_3b/relu_5x5_reduce"
  type: "ReLU"
  bottom: "inception_3b/5x5_reduce"
  top: "inception_3b/5x5_reduce"
}
layer {
  name: "inception_3b/5x5"
  type: "Convolution"
  bottom: "inception_3b/5x5_reduce"
  top: "inception_3b/5x5"
  param {
    lr_mult: 1
    decay_mult: 1
  }
  param {
    lr_mult: 2
    decay_mult: 0
  }
  convolution_param {
    num_output: 96
    pad: 2
    kernel_size: 5
    weight_filler {
      type: "xavier"
    }
    bias_filler {
      type: "constant"
      value: 0.2
    }
  }
}
layer {
  name: "inception_3b/relu_5x5"
  type: "ReLU"
  bottom: "inception_3b/5x5"
  top: "inception_3b/5x5"
}
layer {
  name: "inception_3b/pool"
  type: "Pooling"
  bottom: "inception_3a/output"
  top: "inception_3b/pool"
  pooling_param {
    pool: MAX
    kernel_size: 3
    stride: 1
    pad: 1
  }
}
layer {
  name: "inception_3b/pool_proj"
  type: "Convolution"
  bottom: "inception_3b/pool"
  top: "inception_3b/pool_proj"
  param {
    lr_mult: 1
    decay_mult: 1
  }
  param {
    lr_mult: 2
    decay_mult: 0
  }
  convolution_param {
    num_output: 64
    kernel_size: 1
    weight_filler {
      type: "xavier"
    }
    bias_filler {
      type: "constant"
      value: 0.2
    }
  }
}
layer {
  name: "inception_3b/relu_pool_proj"
  type: "ReLU"
  bottom: "inception_3b/pool_proj"
  top: "inception_3b/pool_proj"
}
layer {
  name: "inception_3b/output"
  type: "Concat"
  bottom: "inception_3b/1x1"
  bottom: "inception_3b/3x3"
  bottom: "inception_3b/5x5"
  bottom: "inception_3b/pool_proj"
  top: "inception_3b/output"
}
layer {
  name: "pool3/3x3_s2"
  type: "Pooling"
  bottom: "inception_3b/output"
  top: "pool3/3x3_s2"
  pooling_param {
    pool: MAX
    kernel_size: 3
    stride: 2
  }
}
layer {
  name: "inception_4a/1x1"
  type: "Convolution"
  bottom: "pool3/3x3_s2"
  top: "inception_4a/1x1"
  param {
    lr_mult: 1
    decay_mult: 1
  }
  param {
    lr_mult: 2
    decay_mult: 0
  }
  convolution_param {
    num_output: 192
    kernel_size: 1
    weight_filler {
      type: "xavier"
    }
    bias_filler {
      type: "constant"
      value: 0.2
    }
  }
}
layer {
  name: "inception_4a/relu_1x1"
  type: "ReLU"
  bottom: "inception_4a/1x1"
  top: "inception_4a/1x1"
}
layer {
  name: "inception_4a/3x3_reduce"
  type: "Convolution"
  bottom: "pool3/3x3_s2"
  top: "inception_4a/3x3_reduce"
  param {
    lr_mult: 1
    decay_mult: 1
  }
  param {
    lr_mult: 2
    decay_mult: 0
  }
  convolution_param {
    num_output: 96
    kernel_size: 1
    weight_filler {
      type: "xavier"
    }
    bias_filler {
      type: "constant"
      value: 0.2
    }
  }
}
layer {
  name: "inception_4a/relu_3x3_reduce"
  type: "ReLU"
  bottom: "inception_4a/3x3_reduce"
  top: "inception_4a/3x3_reduce"
}
layer {
  name: "inception_4a/3x3"
  type: "Convolution"
  bottom: "inception_4a/3x3_reduce"
  top: "inception_4a/3x3"
  param {
    lr_mult: 1
    decay_mult: 1
  }
  param {
    lr_mult: 2
    decay_mult: 0
  }
  convolution_param {
    num_output: 208
    pad: 1
    kernel_size: 3
    weight_filler {
      type: "xavier"
    }
    bias_filler {
      type: "constant"
      value: 0.2
    }
  }
}
layer {
  name: "inception_4a/relu_3x3"
  type: "ReLU"
  bottom: "inception_4a/3x3"
  top: "inception_4a/3x3"
}
layer {
  name: "inception_4a/5x5_reduce"
  type: "Convolution"
  bottom: "pool3/3x3_s2"
  top: "inception_4a/5x5_reduce"
  param {
    lr_mult: 1
    decay_mult: 1
  }
  param {
    lr_mult: 2
    decay_mult: 0
  }
  convolution_param {
    num_output: 16
    kernel_size: 1
    weight_filler {
      type: "xavier"
    }
    bias_filler {
      type: "constant"
      value: 0.2
    }
  }
}
layer {
  name: "inception_4a/relu_5x5_reduce"
  type: "ReLU"
  bottom: "inception_4a/5x5_reduce"
  top: "inception_4a/5x5_reduce"
}
layer {
  name: "inception_4a/5x5"
  type: "Convolution"
  bottom: "inception_4a/5x5_reduce"
  top: "inception_4a/5x5"
  param {
    lr_mult: 1
    decay_mult: 1
  }
  param {
    lr_mult: 2
    decay_mult: 0
  }
  convolution_param {
    num_output: 48
    pad: 2
    kernel_size: 5
    weight_filler {
      type: "xavier"
    }
    bias_filler {
      type: "constant"
      value: 0.2
    }
  }
}
layer {
  name: "inception_4a/relu_5x5"
  type: "ReLU"
  bottom: "inception_4a/5x5"
  top: "inception_4a/5x5"
}
layer {
  name: "inception_4a/pool"
  type: "Pooling"
  bottom: "pool3/3x3_s2"
  top: "inception_4a/pool"
  pooling_param {
    pool: MAX
    kernel_size: 3
    stride: 1
    pad: 1
  }
}
layer {
  name: "inception_4a/pool_proj"
  type: "Convolution"
  bottom: "inception_4a/pool"
  top: "inception_4a/pool_proj"
  param {
    lr_mult: 1
    decay_mult: 1
  }
  param {
    lr_mult: 2
    decay_mult: 0
  }
  convolution_param {
    num_output: 64
    kernel_size: 1
    weight_filler {
      type: "xavier"
    }
    bias_filler {
      type: "constant"
      value: 0.2
    }
  }
}
layer {
  name: "inception_4a/relu_pool_proj"
  type: "ReLU"
  bottom: "inception_4a/pool_proj"
  top: "inception_4a/pool_proj"
}
layer {
  name: "inception_4a/output"
  type: "Concat"
  bottom: "inception_4a/1x1"
  bottom: "inception_4a/3x3"
  bottom: "inception_4a/5x5"
  bottom: "inception_4a/pool_proj"
  top: "inception_4a/output"
}
layer {
  name: "loss1/ave_pool"
  type: "Pooling"
  bottom: "inception_4a/output"
  top: "loss1/ave_pool"
  pooling_param {
    pool: AVE
    kernel_size: 5
    stride: 3
  }
}
layer {
  name: "loss1/conv"
  type: "Convolution"
  bottom: "loss1/ave_pool"
  top: "loss1/conv"
  param {
    lr_mult: 1
    decay_mult: 1
  }
  param {
    lr_mult: 2
    decay_mult: 0
  }
  convolution_param {
    num_output: 128
    kernel_size: 1
    weight_filler {
      type: "xavier"
    }
    bias_filler {
      type: "constant"
      value: 0.2
    }
  }
}
layer {
  name: "loss1/relu_conv"
  type: "ReLU"
  bottom: "loss1/conv"
  top: "loss1/conv"
}
layer {
  name: "loss1/fc"
  type: "InnerProduct"
  bottom: "loss1/conv"
  top: "loss1/fc"
  param {
    lr_mult: 1
    decay_mult: 1
  }
  param {
    lr_mult: 2
    decay_mult: 0
  }
  inner_product_param {
    num_output: 1024
    weight_filler {
      type: "xavier"
    }
    bias_filler {
      type: "constant"
      value: 0.2
    }
  }
}
layer {
  name: "loss1/relu_fc"
  type: "ReLU"
  bottom: "loss1/fc"
  top: "loss1/fc"
}
layer {
  name: "loss1/drop_fc"
  type: "Dropout"
  bottom: "loss1/fc"
  top: "loss1/fc"
  dropout_param {
    dropout_ratio: 0.7
  }
}
layer {
  name: "loss1/classifier-attribute"
  type: "InnerProduct"
  bottom: "loss1/fc"
  top: "loss1/classifier-attribute"
  param {
    lr_mult: 10
    decay_mult: 1
  }
  param {
    lr_mult: 20
    decay_mult: 0
  }
  inner_product_param {
    num_output: 15
    weight_filler {
      type: "xavier"
    }
    bias_filler {
      type: "constant"
      value: 0
    }
  }
}
layer {
  name: "loss1/loss"
  type: "SoftmaxWithLoss"
  bottom: "loss1/classifier-attribute"
  bottom: "label"
  top: "loss1/loss1"
  loss_weight: 0.3
}
layer {
  name: "inception_4b/1x1"
  type: "Convolution"
  bottom: "inception_4a/output"
  top: "inception_4b/1x1"
  param {
    lr_mult: 1
    decay_mult: 1
  }
  param {
    lr_mult: 2
    decay_mult: 0
  }
  convolution_param {
    num_output: 160
    kernel_size: 1
    weight_filler {
      type: "xavier"
    }
    bias_filler {
      type: "constant"
      value: 0.2
    }
  }
}
layer {
  name: "inception_4b/relu_1x1"
  type: "ReLU"
  bottom: "inception_4b/1x1"
  top: "inception_4b/1x1"
}
layer {
  name: "inception_4b/3x3_reduce"
  type: "Convolution"
  bottom: "inception_4a/output"
  top: "inception_4b/3x3_reduce"
  param {
    lr_mult: 1
    decay_mult: 1
  }
  param {
    lr_mult: 2
    decay_mult: 0
  }
  convolution_param {
    num_output: 112
    kernel_size: 1
    weight_filler {
      type: "xavier"
    }
    bias_filler {
      type: "constant"
      value: 0.2
    }
  }
}
layer {
  name: "inception_4b/relu_3x3_reduce"
  type: "ReLU"
  bottom: "inception_4b/3x3_reduce"
  top: "inception_4b/3x3_reduce"
}
layer {
  name: "inception_4b/3x3"
  type: "Convolution"
  bottom: "inception_4b/3x3_reduce"
  top: "inception_4b/3x3"
  param {
    lr_mult: 1
    decay_mult: 1
  }
  param {
    lr_mult: 2
    decay_mult: 0
  }
  convolution_param {
    num_output: 224
    pad: 1
    kernel_size: 3
    weight_filler {
      type: "xavier"
    }
    bias_filler {
      type: "constant"
      value: 0.2
    }
  }
}
layer {
  name: "inception_4b/relu_3x3"
  type: "ReLU"
  bottom: "inception_4b/3x3"
  top: "inception_4b/3x3"
}
layer {
  name: "inception_4b/5x5_reduce"
  type: "Convolution"
  bottom: "inception_4a/output"
  top: "inception_4b/5x5_reduce"
  param {
    lr_mult: 1
    decay_mult: 1
  }
  param {
    lr_mult: 2
    decay_mult: 0
  }
  convolution_param {
    num_output: 24
    kernel_size: 1
    weight_filler {
      type: "xavier"
    }
    bias_filler {
      type: "constant"
      value: 0.2
    }
  }
}
layer {
  name: "inception_4b/relu_5x5_reduce"
  type: "ReLU"
  bottom: "inception_4b/5x5_reduce"
  top: "inception_4b/5x5_reduce"
}
layer {
  name: "inception_4b/5x5"
  type: "Convolution"
  bottom: "inception_4b/5x5_reduce"
  top: "inception_4b/5x5"
  param {
    lr_mult: 1
    decay_mult: 1
  }
  param {
    lr_mult: 2
    decay_mult: 0
  }
  convolution_param {
    num_output: 64
    pad: 2
    kernel_size: 5
    weight_filler {
      type: "xavier"
    }
    bias_filler {
      type: "constant"
      value: 0.2
    }
  }
}
layer {
  name: "inception_4b/relu_5x5"
  type: "ReLU"
  bottom: "inception_4b/5x5"
  top: "inception_4b/5x5"
}
layer {
  name: "inception_4b/pool"
  type: "Pooling"
  bottom: "inception_4a/output"
  top: "inception_4b/pool"
  pooling_param {
    pool: MAX
    kernel_size: 3
    stride: 1
    pad: 1
  }
}
layer {
  name: "inception_4b/pool_proj"
  type: "Convolution"
  bottom: "inception_4b/pool"
  top: "inception_4b/pool_proj"
  param {
    lr_mult: 1
    decay_mult: 1
  }
  param {
    lr_mult: 2
    decay_mult: 0
  }
  convolution_param {
    num_output: 64
    kernel_size: 1
    weight_filler {
      type: "xavier"
    }
    bias_filler {
      type: "constant"
      value: 0.2
    }
  }
}
layer {
  name: "inception_4b/relu_pool_proj"
  type: "ReLU"
  bottom: "inception_4b/pool_proj"
  top: "inception_4b/pool_proj"
}
layer {
  name: "inception_4b/output"
  type: "Concat"
  bottom: "inception_4b/1x1"
  bottom: "inception_4b/3x3"
  bottom: "inception_4b/5x5"
  bottom: "inception_4b/pool_proj"
  top: "inception_4b/output"
}
layer {
  name: "inception_4c/1x1"
  type: "Convolution"
  bottom: "inception_4b/output"
  top: "inception_4c/1x1"
  param {
    lr_mult: 1
    decay_mult: 1
  }
  param {
    lr_mult: 2
    decay_mult: 0
  }
  convolution_param {
    num_output: 128
    kernel_size: 1
    weight_filler {
      type: "xavier"
    }
    bias_filler {
      type: "constant"
      value: 0.2
    }
  }
}
layer {
  name: "inception_4c/relu_1x1"
  type: "ReLU"
  bottom: "inception_4c/1x1"
  top: "inception_4c/1x1"
}
layer {
  name: "inception_4c/3x3_reduce"
  type: "Convolution"
  bottom: "inception_4b/output"
  top: "inception_4c/3x3_reduce"
  param {
    lr_mult: 1
    decay_mult: 1
  }
  param {
    lr_mult: 2
    decay_mult: 0
  }
  convolution_param {
    num_output: 128
    kernel_size: 1
    weight_filler {
      type: "xavier"
    }
    bias_filler {
      type: "constant"
      value: 0.2
    }
  }
}
layer {
  name: "inception_4c/relu_3x3_reduce"
  type: "ReLU"
  bottom: "inception_4c/3x3_reduce"
  top: "inception_4c/3x3_reduce"
}
layer {
  name: "inception_4c/3x3"
  type: "Convolution"
  bottom: "inception_4c/3x3_reduce"
  top: "inception_4c/3x3"
  param {
    lr_mult: 1
    decay_mult: 1
  }
  param {
    lr_mult: 2
    decay_mult: 0
  }
  convolution_param {
    num_output: 256
    pad: 1
    kernel_size: 3
    weight_filler {
      type: "xavier"
    }
    bias_filler {
      type: "constant"
      value: 0.2
    }
  }
}
layer {
  name: "inception_4c/relu_3x3"
  type: "ReLU"
  bottom: "inception_4c/3x3"
  top: "inception_4c/3x3"
}
layer {
  name: "inception_4c/5x5_reduce"
  type: "Convolution"
  bottom: "inception_4b/output"
  top: "inception_4c/5x5_reduce"
  param {
    lr_mult: 1
    decay_mult: 1
  }
  param {
    lr_mult: 2
    decay_mult: 0
  }
  convolution_param {
    num_output: 24
    kernel_size: 1
    weight_filler {
      type: "xavier"
    }
    bias_filler {
      type: "constant"
      value: 0.2
    }
  }
}
layer {
  name: "inception_4c/relu_5x5_reduce"
  type: "ReLU"
  bottom: "inception_4c/5x5_reduce"
  top: "inception_4c/5x5_reduce"
}
layer {
  name: "inception_4c/5x5"
  type: "Convolution"
  bottom: "inception_4c/5x5_reduce"
  top: "inception_4c/5x5"
  param {
    lr_mult: 1
    decay_mult: 1
  }
  param {
    lr_mult: 2
    decay_mult: 0
  }
  convolution_param {
    num_output: 64
    pad: 2
    kernel_size: 5
    weight_filler {
      type: "xavier"
    }
    bias_filler {
      type: "constant"
      value: 0.2
    }
  }
}
layer {
  name: "inception_4c/relu_5x5"
  type: "ReLU"
  bottom: "inception_4c/5x5"
  top: "inception_4c/5x5"
}
layer {
  name: "inception_4c/pool"
  type: "Pooling"
  bottom: "inception_4b/output"
  top: "inception_4c/pool"
  pooling_param {
    pool: MAX
    kernel_size: 3
    stride: 1
    pad: 1
  }
}
layer {
  name: "inception_4c/pool_proj"
  type: "Convolution"
  bottom: "inception_4c/pool"
  top: "inception_4c/pool_proj"
  param {
    lr_mult: 1
    decay_mult: 1
  }
  param {
    lr_mult: 2
    decay_mult: 0
  }
  convolution_param {
    num_output: 64
    kernel_size: 1
    weight_filler {
      type: "xavier"
    }
    bias_filler {
      type: "constant"
      value: 0.2
    }
  }
}
layer {
  name: "inception_4c/relu_pool_proj"
  type: "ReLU"
  bottom: "inception_4c/pool_proj"
  top: "inception_4c/pool_proj"
}
layer {
  name: "inception_4c/output"
  type: "Concat"
  bottom: "inception_4c/1x1"
  bottom: "inception_4c/3x3"
  bottom: "inception_4c/5x5"
  bottom: "inception_4c/pool_proj"
  top: "inception_4c/output"
}
layer {
  name: "inception_4d/1x1"
  type: "Convolution"
  bottom: "inception_4c/output"
  top: "inception_4d/1x1"
  param {
    lr_mult: 1
    decay_mult: 1
  }
  param {
    lr_mult: 2
    decay_mult: 0
  }
  convolution_param {
    num_output: 112
    kernel_size: 1
    weight_filler {
      type: "xavier"
    }
    bias_filler {
      type: "constant"
      value: 0.2
    }
  }
}
layer {
  name: "inception_4d/relu_1x1"
  type: "ReLU"
  bottom: "inception_4d/1x1"
  top: "inception_4d/1x1"
}
layer {
  name: "inception_4d/3x3_reduce"
  type: "Convolution"
  bottom: "inception_4c/output"
  top: "inception_4d/3x3_reduce"
  param {
    lr_mult: 1
    decay_mult: 1
  }
  param {
    lr_mult: 2
    decay_mult: 0
  }
  convolution_param {
    num_output: 144
    kernel_size: 1
    weight_filler {
      type: "xavier"
    }
    bias_filler {
      type: "constant"
      value: 0.2
    }
  }
}
layer {
  name: "inception_4d/relu_3x3_reduce"
  type: "ReLU"
  bottom: "inception_4d/3x3_reduce"
  top: "inception_4d/3x3_reduce"
}
layer {
  name: "inception_4d/3x3"
  type: "Convolution"
  bottom: "inception_4d/3x3_reduce"
  top: "inception_4d/3x3"
  param {
    lr_mult: 1
    decay_mult: 1
  }
  param {
    lr_mult: 2
    decay_mult: 0
  }
  convolution_param {
    num_output: 288
    pad: 1
    kernel_size: 3
    weight_filler {
      type: "xavier"
    }
    bias_filler {
      type: "constant"
      value: 0.2
    }
  }
}
layer {
  name: "inception_4d/relu_3x3"
  type: "ReLU"
  bottom: "inception_4d/3x3"
  top: "inception_4d/3x3"
}
layer {
  name: "inception_4d/5x5_reduce"
  type: "Convolution"
  bottom: "inception_4c/output"
  top: "inception_4d/5x5_reduce"
  param {
    lr_mult: 1
    decay_mult: 1
  }
  param {
    lr_mult: 2
    decay_mult: 0
  }
  convolution_param {
    num_output: 32
    kernel_size: 1
    weight_filler {
      type: "xavier"
    }
    bias_filler {
      type: "constant"
      value: 0.2
    }
  }
}
layer {
  name: "inception_4d/relu_5x5_reduce"
  type: "ReLU"
  bottom: "inception_4d/5x5_reduce"
  top: "inception_4d/5x5_reduce"
}
layer {
  name: "inception_4d/5x5"
  type: "Convolution"
  bottom: "inception_4d/5x5_reduce"
  top: "inception_4d/5x5"
  param {
    lr_mult: 1
    decay_mult: 1
  }
  param {
    lr_mult: 2
    decay_mult: 0
  }
  convolution_param {
    num_output: 64
    pad: 2
    kernel_size: 5
    weight_filler {
      type: "xavier"
    }
    bias_filler {
      type: "constant"
      value: 0.2
    }
  }
}
layer {
  name: "inception_4d/relu_5x5"
  type: "ReLU"
  bottom: "inception_4d/5x5"
  top: "inception_4d/5x5"
}
layer {
  name: "inception_4d/pool"
  type: "Pooling"
  bottom: "inception_4c/output"
  top: "inception_4d/pool"
  pooling_param {
    pool: MAX
    kernel_size: 3
    stride: 1
    pad: 1
  }
}
layer {
  name: "inception_4d/pool_proj"
  type: "Convolution"
  bottom: "inception_4d/pool"
  top: "inception_4d/pool_proj"
  param {
    lr_mult: 1
    decay_mult: 1
  }
  param {
    lr_mult: 2
    decay_mult: 0
  }
  convolution_param {
    num_output: 64
    kernel_size: 1
    weight_filler {
      type: "xavier"
    }
    bias_filler {
      type: "constant"
      value: 0.2
    }
  }
}
layer {
  name: "inception_4d/relu_pool_proj"
  type: "ReLU"
  bottom: "inception_4d/pool_proj"
  top: "inception_4d/pool_proj"
}
layer {
  name: "inception_4d/output"
  type: "Concat"
  bottom: "inception_4d/1x1"
  bottom: "inception_4d/3x3"
  bottom: "inception_4d/5x5"
  bottom: "inception_4d/pool_proj"
  top: "inception_4d/output"
}
layer {
  name: "loss2/ave_pool"
  type: "Pooling"
  bottom: "inception_4d/output"
  top: "loss2/ave_pool"
  pooling_param {
    pool: AVE
    kernel_size: 5
    stride: 3
  }
}
layer {
  name: "loss2/conv"
  type: "Convolution"
  bottom: "loss2/ave_pool"
  top: "loss2/conv"
  param {
    lr_mult: 1
    decay_mult: 1
  }
  param {
    lr_mult: 2
    decay_mult: 0
  }
  convolution_param {
    num_output: 128
    kernel_size: 1
    weight_filler {
      type: "xavier"
    }
    bias_filler {
      type: "constant"
      value: 0.2
    }
  }
}
layer {
  name: "loss2/relu_conv"
  type: "ReLU"
  bottom: "loss2/conv"
  top: "loss2/conv"
}
layer {
  name: "loss2/fc"
  type: "InnerProduct"
  bottom: "loss2/conv"
  top: "loss2/fc"
  param {
    lr_mult: 1
    decay_mult: 1
  }
  param {
    lr_mult: 2
    decay_mult: 0
  }
  inner_product_param {
    num_output: 1024
    weight_filler {
      type: "xavier"
    }
    bias_filler {
      type: "constant"
      value: 0.2
    }
  }
}
layer {
  name: "loss2/relu_fc"
  type: "ReLU"
  bottom: "loss2/fc"
  top: "loss2/fc"
}
layer {
  name: "loss2/drop_fc"
  type: "Dropout"
  bottom: "loss2/fc"
  top: "loss2/fc"
  dropout_param {
    dropout_ratio: 0.7
  }
}
layer {
  name: "loss2/classifier-attribute"
  type: "InnerProduct"
  bottom: "loss2/fc"
  top: "loss2/classifier-attribute"
  param {
    lr_mult: 10
    decay_mult: 1
  }
  param {
    lr_mult: 20
    decay_mult: 0
  }
  inner_product_param {
    num_output: 15
    weight_filler {
      type: "xavier"
    }
    bias_filler {
      type: "constant"
      value: 0
    }
  }
}
layer {
  name: "loss2/loss"
  type: "SoftmaxWithLoss"
  bottom: "loss2/classifier-attribute"
  bottom: "label"
  top: "loss2/loss1"
  loss_weight: 0.3
}
layer {
  name: "inception_4e/1x1"
  type: "Convolution"
  bottom: "inception_4d/output"
  top: "inception_4e/1x1"
  param {
    lr_mult: 1
    decay_mult: 1
  }
  param {
    lr_mult: 2
    decay_mult: 0
  }
  convolution_param {
    num_output: 256
    kernel_size: 1
    weight_filler {
      type: "xavier"
    }
    bias_filler {
      type: "constant"
      value: 0.2
    }
  }
}
layer {
  name: "inception_4e/relu_1x1"
  type: "ReLU"
  bottom: "inception_4e/1x1"
  top: "inception_4e/1x1"
}
layer {
  name: "inception_4e/3x3_reduce"
  type: "Convolution"
  bottom: "inception_4d/output"
  top: "inception_4e/3x3_reduce"
  param {
    lr_mult: 1
    decay_mult: 1
  }
  param {
    lr_mult: 2
    decay_mult: 0
  }
  convolution_param {
    num_output: 160
    kernel_size: 1
    weight_filler {
      type: "xavier"
    }
    bias_filler {
      type: "constant"
      value: 0.2
    }
  }
}
layer {
  name: "inception_4e/relu_3x3_reduce"
  type: "ReLU"
  bottom: "inception_4e/3x3_reduce"
  top: "inception_4e/3x3_reduce"
}
layer {
  name: "inception_4e/3x3"
  type: "Convolution"
  bottom: "inception_4e/3x3_reduce"
  top: "inception_4e/3x3"
  param {
    lr_mult: 1
    decay_mult: 1
  }
  param {
    lr_mult: 2
    decay_mult: 0
  }
  convolution_param {
    num_output: 320
    pad: 1
    kernel_size: 3
    weight_filler {
      type: "xavier"
    }
    bias_filler {
      type: "constant"
      value: 0.2
    }
  }
}
layer {
  name: "inception_4e/relu_3x3"
  type: "ReLU"
  bottom: "inception_4e/3x3"
  top: "inception_4e/3x3"
}
layer {
  name: "inception_4e/5x5_reduce"
  type: "Convolution"
  bottom: "inception_4d/output"
  top: "inception_4e/5x5_reduce"
  param {
    lr_mult: 1
    decay_mult: 1
  }
  param {
    lr_mult: 2
    decay_mult: 0
  }
  convolution_param {
    num_output: 32
    kernel_size: 1
    weight_filler {
      type: "xavier"
    }
    bias_filler {
      type: "constant"
      value: 0.2
    }
  }
}
layer {
  name: "inception_4e/relu_5x5_reduce"
  type: "ReLU"
  bottom: "inception_4e/5x5_reduce"
  top: "inception_4e/5x5_reduce"
}
layer {
  name: "inception_4e/5x5"
  type: "Convolution"
  bottom: "inception_4e/5x5_reduce"
  top: "inception_4e/5x5"
  param {
    lr_mult: 1
    decay_mult: 1
  }
  param {
    lr_mult: 2
    decay_mult: 0
  }
  convolution_param {
    num_output: 128
    pad: 2
    kernel_size: 5
    weight_filler {
      type: "xavier"
    }
    bias_filler {
      type: "constant"
      value: 0.2
    }
  }
}
layer {
  name: "inception_4e/relu_5x5"
  type: "ReLU"
  bottom: "inception_4e/5x5"
  top: "inception_4e/5x5"
}
layer {
  name: "inception_4e/pool"
  type: "Pooling"
  bottom: "inceptio
I1124 22:51:49.735162 14803 layer_factory.hpp:76] Creating layer data
I1124 22:51:49.735234 14803 net.cpp:106] Creating Layer data
I1124 22:51:49.735252 14803 net.cpp:411] data -> data
I1124 22:51:49.735309 14803 net.cpp:411] data -> label
I1124 22:51:49.736171 14803 image_data_layer.cpp:36] Opening file pad_train.txt
I1124 22:51:49.934315 14803 image_data_layer.cpp:46] Shuffling data
I1124 22:51:49.959183 14803 image_data_layer.cpp:51] A total of 181505 images.
I1124 22:51:49.997637 14803 image_data_layer.cpp:78] output data size: 64,3,224,224
I1124 22:51:50.052471 14803 net.cpp:150] Setting up data
I1124 22:51:50.052544 14803 net.cpp:157] Top shape: 64 3 224 224 (9633792)
I1124 22:51:50.052552 14803 net.cpp:157] Top shape: 64 (64)
I1124 22:51:50.052556 14803 net.cpp:165] Memory required for data: 38535424
I1124 22:51:50.052564 14803 layer_factory.hpp:76] Creating layer label_data_1_split
I1124 22:51:50.052578 14803 net.cpp:106] Creating Layer label_data_1_split
I1124 22:51:50.052585 14803 net.cpp:454] label_data_1_split <- label
I1124 22:51:50.052597 14803 net.cpp:411] label_data_1_split -> label_data_1_split_0
I1124 22:51:50.052608 14803 net.cpp:411] label_data_1_split -> label_data_1_split_1
I1124 22:51:50.052613 14803 net.cpp:411] label_data_1_split -> label_data_1_split_2
I1124 22:51:50.052728 14803 net.cpp:150] Setting up label_data_1_split
I1124 22:51:50.052739 14803 net.cpp:157] Top shape: 64 (64)
I1124 22:51:50.052743 14803 net.cpp:157] Top shape: 64 (64)
I1124 22:51:50.052747 14803 net.cpp:157] Top shape: 64 (64)
I1124 22:51:50.052749 14803 net.cpp:165] Memory required for data: 38536192
I1124 22:51:50.052753 14803 layer_factory.hpp:76] Creating layer conv1/7x7_s2
I1124 22:51:50.052768 14803 net.cpp:106] Creating Layer conv1/7x7_s2
I1124 22:51:50.052772 14803 net.cpp:454] conv1/7x7_s2 <- data
I1124 22:51:50.052778 14803 net.cpp:411] conv1/7x7_s2 -> conv1/7x7_s2
I1124 22:51:50.212263 14803 net.cpp:150] Setting up conv1/7x7_s2
I1124 22:51:50.212291 14803 net.cpp:157] Top shape: 64 64 112 112 (51380224)
I1124 22:51:50.212294 14803 net.cpp:165] Memory required for data: 244057088
I1124 22:51:50.212316 14803 layer_factory.hpp:76] Creating layer conv1/relu_7x7
I1124 22:51:50.212328 14803 net.cpp:106] Creating Layer conv1/relu_7x7
I1124 22:51:50.212333 14803 net.cpp:454] conv1/relu_7x7 <- conv1/7x7_s2
I1124 22:51:50.212340 14803 net.cpp:397] conv1/relu_7x7 -> conv1/7x7_s2 (in-place)
I1124 22:51:50.212632 14803 net.cpp:150] Setting up conv1/relu_7x7
I1124 22:51:50.212646 14803 net.cpp:157] Top shape: 64 64 112 112 (51380224)
I1124 22:51:50.212651 14803 net.cpp:165] Memory required for data: 449577984
I1124 22:51:50.212654 14803 layer_factory.hpp:76] Creating layer pool1/3x3_s2
I1124 22:51:50.212663 14803 net.cpp:106] Creating Layer pool1/3x3_s2
I1124 22:51:50.212667 14803 net.cpp:454] pool1/3x3_s2 <- conv1/7x7_s2
I1124 22:51:50.212672 14803 net.cpp:411] pool1/3x3_s2 -> pool1/3x3_s2
I1124 22:51:50.212883 14803 net.cpp:150] Setting up pool1/3x3_s2
I1124 22:51:50.212894 14803 net.cpp:157] Top shape: 64 64 56 56 (12845056)
I1124 22:51:50.212898 14803 net.cpp:165] Memory required for data: 500958208
I1124 22:51:50.212901 14803 layer_factory.hpp:76] Creating layer pool1/norm1
I1124 22:51:50.212913 14803 net.cpp:106] Creating Layer pool1/norm1
I1124 22:51:50.212918 14803 net.cpp:454] pool1/norm1 <- pool1/3x3_s2
I1124 22:51:50.212923 14803 net.cpp:411] pool1/norm1 -> pool1/norm1
I1124 22:51:50.213441 14803 net.cpp:150] Setting up pool1/norm1
I1124 22:51:50.213461 14803 net.cpp:157] Top shape: 64 64 56 56 (12845056)
I1124 22:51:50.213465 14803 net.cpp:165] Memory required for data: 552338432
I1124 22:51:50.213470 14803 layer_factory.hpp:76] Creating layer conv2/3x3_reduce
I1124 22:51:50.213482 14803 net.cpp:106] Creating Layer conv2/3x3_reduce
I1124 22:51:50.213487 14803 net.cpp:454] conv2/3x3_reduce <- pool1/norm1
I1124 22:51:50.213495 14803 net.cpp:411] conv2/3x3_reduce -> conv2/3x3_reduce
I1124 22:51:50.214870 14803 net.cpp:150] Setting up conv2/3x3_reduce
I1124 22:51:50.214889 14803 net.cpp:157] Top shape: 64 64 56 56 (12845056)
I1124 22:51:50.214892 14803 net.cpp:165] Memory required for data: 603718656
I1124 22:51:50.214902 14803 layer_factory.hpp:76] Creating layer conv2/relu_3x3_reduce
I1124 22:51:50.214910 14803 net.cpp:106] Creating Layer conv2/relu_3x3_reduce
I1124 22:51:50.214915 14803 net.cpp:454] conv2/relu_3x3_reduce <- conv2/3x3_reduce
I1124 22:51:50.214920 14803 net.cpp:397] conv2/relu_3x3_reduce -> conv2/3x3_reduce (in-place)
I1124 22:51:50.215219 14803 net.cpp:150] Setting up conv2/relu_3x3_reduce
I1124 22:51:50.215234 14803 net.cpp:157] Top shape: 64 64 56 56 (12845056)
I1124 22:51:50.215236 14803 net.cpp:165] Memory required for data: 655098880
I1124 22:51:50.215240 14803 layer_factory.hpp:76] Creating layer conv2/3x3
I1124 22:51:50.215251 14803 net.cpp:106] Creating Layer conv2/3x3
I1124 22:51:50.215255 14803 net.cpp:454] conv2/3x3 <- conv2/3x3_reduce
I1124 22:51:50.215261 14803 net.cpp:411] conv2/3x3 -> conv2/3x3
I1124 22:51:50.217325 14803 net.cpp:150] Setting up conv2/3x3
I1124 22:51:50.217341 14803 net.cpp:157] Top shape: 64 192 56 56 (38535168)
I1124 22:51:50.217344 14803 net.cpp:165] Memory required for data: 809239552
I1124 22:51:50.217355 14803 layer_factory.hpp:76] Creating layer conv2/relu_3x3
I1124 22:51:50.217360 14803 net.cpp:106] Creating Layer conv2/relu_3x3
I1124 22:51:50.217365 14803 net.cpp:454] conv2/relu_3x3 <- conv2/3x3
I1124 22:51:50.217370 14803 net.cpp:397] conv2/relu_3x3 -> conv2/3x3 (in-place)
I1124 22:51:50.217525 14803 net.cpp:150] Setting up conv2/relu_3x3
I1124 22:51:50.217536 14803 net.cpp:157] Top shape: 64 192 56 56 (38535168)
I1124 22:51:50.217540 14803 net.cpp:165] Memory required for data: 963380224
I1124 22:51:50.217543 14803 layer_factory.hpp:76] Creating layer conv2/norm2
I1124 22:51:50.217550 14803 net.cpp:106] Creating Layer conv2/norm2
I1124 22:51:50.217553 14803 net.cpp:454] conv2/norm2 <- conv2/3x3
I1124 22:51:50.217560 14803 net.cpp:411] conv2/norm2 -> conv2/norm2
I1124 22:51:50.217870 14803 net.cpp:150] Setting up conv2/norm2
I1124 22:51:50.217883 14803 net.cpp:157] Top shape: 64 192 56 56 (38535168)
I1124 22:51:50.217887 14803 net.cpp:165] Memory required for data: 1117520896
I1124 22:51:50.217890 14803 layer_factory.hpp:76] Creating layer pool2/3x3_s2
I1124 22:51:50.217897 14803 net.cpp:106] Creating Layer pool2/3x3_s2
I1124 22:51:50.217901 14803 net.cpp:454] pool2/3x3_s2 <- conv2/norm2
I1124 22:51:50.217906 14803 net.cpp:411] pool2/3x3_s2 -> pool2/3x3_s2
I1124 22:51:50.218089 14803 net.cpp:150] Setting up pool2/3x3_s2
I1124 22:51:50.218101 14803 net.cpp:157] Top shape: 64 192 28 28 (9633792)
I1124 22:51:50.218104 14803 net.cpp:165] Memory required for data: 1156056064
I1124 22:51:50.218107 14803 layer_factory.hpp:76] Creating layer pool2/3x3_s2_pool2/3x3_s2_0_split
I1124 22:51:50.218114 14803 net.cpp:106] Creating Layer pool2/3x3_s2_pool2/3x3_s2_0_split
I1124 22:51:50.218118 14803 net.cpp:454] pool2/3x3_s2_pool2/3x3_s2_0_split <- pool2/3x3_s2
I1124 22:51:50.218123 14803 net.cpp:411] pool2/3x3_s2_pool2/3x3_s2_0_split -> pool2/3x3_s2_pool2/3x3_s2_0_split_0
I1124 22:51:50.218130 14803 net.cpp:411] pool2/3x3_s2_pool2/3x3_s2_0_split -> pool2/3x3_s2_pool2/3x3_s2_0_split_1
I1124 22:51:50.218135 14803 net.cpp:411] pool2/3x3_s2_pool2/3x3_s2_0_split -> pool2/3x3_s2_pool2/3x3_s2_0_split_2
I1124 22:51:50.218142 14803 net.cpp:411] pool2/3x3_s2_pool2/3x3_s2_0_split -> pool2/3x3_s2_pool2/3x3_s2_0_split_3
I1124 22:51:50.218190 14803 net.cpp:150] Setting up pool2/3x3_s2_pool2/3x3_s2_0_split
I1124 22:51:50.218197 14803 net.cpp:157] Top shape: 64 192 28 28 (9633792)
I1124 22:51:50.218201 14803 net.cpp:157] Top shape: 64 192 28 28 (9633792)
I1124 22:51:50.218205 14803 net.cpp:157] Top shape: 64 192 28 28 (9633792)
I1124 22:51:50.218209 14803 net.cpp:157] Top shape: 64 192 28 28 (9633792)
I1124 22:51:50.218212 14803 net.cpp:165] Memory required for data: 1310196736
I1124 22:51:50.218215 14803 layer_factory.hpp:76] Creating layer inception_3a/1x1
I1124 22:51:50.218224 14803 net.cpp:106] Creating Layer inception_3a/1x1
I1124 22:51:50.218227 14803 net.cpp:454] inception_3a/1x1 <- pool2/3x3_s2_pool2/3x3_s2_0_split_0
I1124 22:51:50.218233 14803 net.cpp:411] inception_3a/1x1 -> inception_3a/1x1
I1124 22:51:50.219682 14803 net.cpp:150] Setting up inception_3a/1x1
I1124 22:51:50.219699 14803 net.cpp:157] Top shape: 64 64 28 28 (3211264)
I1124 22:51:50.219703 14803 net.cpp:165] Memory required for data: 1323041792
I1124 22:51:50.219709 14803 layer_factory.hpp:76] Creating layer inception_3a/relu_1x1
I1124 22:51:50.219717 14803 net.cpp:106] Creating Layer inception_3a/relu_1x1
I1124 22:51:50.219720 14803 net.cpp:454] inception_3a/relu_1x1 <- inception_3a/1x1
I1124 22:51:50.219727 14803 net.cpp:397] inception_3a/relu_1x1 -> inception_3a/1x1 (in-place)
I1124 22:51:50.220021 14803 net.cpp:150] Setting up inception_3a/relu_1x1
I1124 22:51:50.220034 14803 net.cpp:157] Top shape: 64 64 28 28 (3211264)
I1124 22:51:50.220038 14803 net.cpp:165] Memory required for data: 1335886848
I1124 22:51:50.220042 14803 layer_factory.hpp:76] Creating layer inception_3a/3x3_reduce
I1124 22:51:50.220051 14803 net.cpp:106] Creating Layer inception_3a/3x3_reduce
I1124 22:51:50.220054 14803 net.cpp:454] inception_3a/3x3_reduce <- pool2/3x3_s2_pool2/3x3_s2_0_split_1
I1124 22:51:50.220060 14803 net.cpp:411] inception_3a/3x3_reduce -> inception_3a/3x3_reduce
I1124 22:51:50.221559 14803 net.cpp:150] Setting up inception_3a/3x3_reduce
I1124 22:51:50.221573 14803 net.cpp:157] Top shape: 64 96 28 28 (4816896)
I1124 22:51:50.221577 14803 net.cpp:165] Memory required for data: 1355154432
I1124 22:51:50.221587 14803 layer_factory.hpp:76] Creating layer inception_3a/relu_3x3_reduce
I1124 22:51:50.221596 14803 net.cpp:106] Creating Layer inception_3a/relu_3x3_reduce
I1124 22:51:50.221601 14803 net.cpp:454] inception_3a/relu_3x3_reduce <- inception_3a/3x3_reduce
I1124 22:51:50.221606 14803 net.cpp:397] inception_3a/relu_3x3_reduce -> inception_3a/3x3_reduce (in-place)
I1124 22:51:50.221776 14803 net.cpp:150] Setting up inception_3a/relu_3x3_reduce
I1124 22:51:50.221787 14803 net.cpp:157] Top shape: 64 96 28 28 (4816896)
I1124 22:51:50.221791 14803 net.cpp:165] Memory required for data: 1374422016
I1124 22:51:50.221794 14803 layer_factory.hpp:76] Creating layer inception_3a/3x3
I1124 22:51:50.221803 14803 net.cpp:106] Creating Layer inception_3a/3x3
I1124 22:51:50.221807 14803 net.cpp:454] inception_3a/3x3 <- inception_3a/3x3_reduce
I1124 22:51:50.221813 14803 net.cpp:411] inception_3a/3x3 -> inception_3a/3x3
I1124 22:51:50.223651 14803 net.cpp:150] Setting up inception_3a/3x3
I1124 22:51:50.223667 14803 net.cpp:157] Top shape: 64 128 28 28 (6422528)
I1124 22:51:50.223670 14803 net.cpp:165] Memory required for data: 1400112128
I1124 22:51:50.223677 14803 layer_factory.hpp:76] Creating layer inception_3a/relu_3x3
I1124 22:51:50.223685 14803 net.cpp:106] Creating Layer inception_3a/relu_3x3
I1124 22:51:50.223690 14803 net.cpp:454] inception_3a/relu_3x3 <- inception_3a/3x3
I1124 22:51:50.223695 14803 net.cpp:397] inception_3a/relu_3x3 -> inception_3a/3x3 (in-place)
I1124 22:51:50.223860 14803 net.cpp:150] Setting up inception_3a/relu_3x3
I1124 22:51:50.223871 14803 net.cpp:157] Top shape: 64 128 28 28 (6422528)
I1124 22:51:50.223875 14803 net.cpp:165] Memory required for data: 1425802240
I1124 22:51:50.223877 14803 layer_factory.hpp:76] Creating layer inception_3a/5x5_reduce
I1124 22:51:50.223886 14803 net.cpp:106] Creating Layer inception_3a/5x5_reduce
I1124 22:51:50.223891 14803 net.cpp:454] inception_3a/5x5_reduce <- pool2/3x3_s2_pool2/3x3_s2_0_split_2
I1124 22:51:50.223897 14803 net.cpp:411] inception_3a/5x5_reduce -> inception_3a/5x5_reduce
I1124 22:51:50.224867 14803 net.cpp:150] Setting up inception_3a/5x5_reduce
I1124 22:51:50.224882 14803 net.cpp:157] Top shape: 64 16 28 28 (802816)
I1124 22:51:50.224885 14803 net.cpp:165] Memory required for data: 1429013504
I1124 22:51:50.224891 14803 layer_factory.hpp:76] Creating layer inception_3a/relu_5x5_reduce
I1124 22:51:50.224900 14803 net.cpp:106] Creating Layer inception_3a/relu_5x5_reduce
I1124 22:51:50.224903 14803 net.cpp:454] inception_3a/relu_5x5_reduce <- inception_3a/5x5_reduce
I1124 22:51:50.224910 14803 net.cpp:397] inception_3a/relu_5x5_reduce -> inception_3a/5x5_reduce (in-place)
I1124 22:51:50.225209 14803 net.cpp:150] Setting up inception_3a/relu_5x5_reduce
I1124 22:51:50.225224 14803 net.cpp:157] Top shape: 64 16 28 28 (802816)
I1124 22:51:50.225229 14803 net.cpp:165] Memory required for data: 1432224768
I1124 22:51:50.225232 14803 layer_factory.hpp:76] Creating layer inception_3a/5x5
I1124 22:51:50.225240 14803 net.cpp:106] Creating Layer inception_3a/5x5
I1124 22:51:50.225244 14803 net.cpp:454] inception_3a/5x5 <- inception_3a/5x5_reduce
I1124 22:51:50.225251 14803 net.cpp:411] inception_3a/5x5 -> inception_3a/5x5
I1124 22:51:50.226316 14803 net.cpp:150] Setting up inception_3a/5x5
I1124 22:51:50.226333 14803 net.cpp:157] Top shape: 64 32 28 28 (1605632)
I1124 22:51:50.226337 14803 net.cpp:165] Memory required for data: 1438647296
I1124 22:51:50.226343 14803 layer_factory.hpp:76] Creating layer inception_3a/relu_5x5
I1124 22:51:50.226352 14803 net.cpp:106] Creating Layer inception_3a/relu_5x5
I1124 22:51:50.226356 14803 net.cpp:454] inception_3a/relu_5x5 <- inception_3a/5x5
I1124 22:51:50.226361 14803 net.cpp:397] inception_3a/relu_5x5 -> inception_3a/5x5 (in-place)
I1124 22:51:50.226531 14803 net.cpp:150] Setting up inception_3a/relu_5x5
I1124 22:51:50.226541 14803 net.cpp:157] Top shape: 64 32 28 28 (1605632)
I1124 22:51:50.226544 14803 net.cpp:165] Memory required for data: 1445069824
I1124 22:51:50.226547 14803 layer_factory.hpp:76] Creating layer inception_3a/pool
I1124 22:51:50.226553 14803 net.cpp:106] Creating Layer inception_3a/pool
I1124 22:51:50.226557 14803 net.cpp:454] inception_3a/pool <- pool2/3x3_s2_pool2/3x3_s2_0_split_3
I1124 22:51:50.226568 14803 net.cpp:411] inception_3a/pool -> inception_3a/pool
I1124 22:51:50.226900 14803 net.cpp:150] Setting up inception_3a/pool
I1124 22:51:50.226914 14803 net.cpp:157] Top shape: 64 192 28 28 (9633792)
I1124 22:51:50.226917 14803 net.cpp:165] Memory required for data: 1483604992
I1124 22:51:50.226922 14803 layer_factory.hpp:76] Creating layer inception_3a/pool_proj
I1124 22:51:50.226932 14803 net.cpp:106] Creating Layer inception_3a/pool_proj
I1124 22:51:50.226935 14803 net.cpp:454] inception_3a/pool_proj <- inception_3a/pool
I1124 22:51:50.226943 14803 net.cpp:411] inception_3a/pool_proj -> inception_3a/pool_proj
I1124 22:51:50.227800 14803 net.cpp:150] Setting up inception_3a/pool_proj
I1124 22:51:50.227814 14803 net.cpp:157] Top shape: 64 32 28 28 (1605632)
I1124 22:51:50.227818 14803 net.cpp:165] Memory required for data: 1490027520
I1124 22:51:50.227829 14803 layer_factory.hpp:76] Creating layer inception_3a/relu_pool_proj
I1124 22:51:50.227836 14803 net.cpp:106] Creating Layer inception_3a/relu_pool_proj
I1124 22:51:50.227840 14803 net.cpp:454] inception_3a/relu_pool_proj <- inception_3a/pool_proj
I1124 22:51:50.227845 14803 net.cpp:397] inception_3a/relu_pool_proj -> inception_3a/pool_proj (in-place)
I1124 22:51:50.228144 14803 net.cpp:150] Setting up inception_3a/relu_pool_proj
I1124 22:51:50.228157 14803 net.cpp:157] Top shape: 64 32 28 28 (1605632)
I1124 22:51:50.228162 14803 net.cpp:165] Memory required for data: 1496450048
I1124 22:51:50.228164 14803 layer_factory.hpp:76] Creating layer inception_3a/output
I1124 22:51:50.228173 14803 net.cpp:106] Creating Layer inception_3a/output
I1124 22:51:50.228176 14803 net.cpp:454] inception_3a/output <- inception_3a/1x1
I1124 22:51:50.228181 14803 net.cpp:454] inception_3a/output <- inception_3a/3x3
I1124 22:51:50.228185 14803 net.cpp:454] inception_3a/output <- inception_3a/5x5
I1124 22:51:50.228188 14803 net.cpp:454] inception_3a/output <- inception_3a/pool_proj
I1124 22:51:50.228194 14803 net.cpp:411] inception_3a/output -> inception_3a/output
I1124 22:51:50.228231 14803 net.cpp:150] Setting up inception_3a/output
I1124 22:51:50.228237 14803 net.cpp:157] Top shape: 64 256 28 28 (12845056)
I1124 22:51:50.228240 14803 net.cpp:165] Memory required for data: 1547830272
I1124 22:51:50.228243 14803 layer_factory.hpp:76] Creating layer inception_3a/output_inception_3a/output_0_split
I1124 22:51:50.228255 14803 net.cpp:106] Creating Layer inception_3a/output_inception_3a/output_0_split
I1124 22:51:50.228257 14803 net.cpp:454] inception_3a/output_inception_3a/output_0_split <- inception_3a/output
I1124 22:51:50.228262 14803 net.cpp:411] inception_3a/output_inception_3a/output_0_split -> inception_3a/output_inception_3a/output_0_split_0
I1124 22:51:50.228268 14803 net.cpp:411] inception_3a/output_inception_3a/output_0_split -> inception_3a/output_inception_3a/output_0_split_1
I1124 22:51:50.228274 14803 net.cpp:411] inception_3a/output_inception_3a/output_0_split -> inception_3a/output_inception_3a/output_0_split_2
I1124 22:51:50.228281 14803 net.cpp:411] inception_3a/output_inception_3a/output_0_split -> inception_3a/output_inception_3a/output_0_split_3
I1124 22:51:50.228337 14803 net.cpp:150] Setting up inception_3a/output_inception_3a/output_0_split
I1124 22:51:50.228343 14803 net.cpp:157] Top shape: 64 256 28 28 (12845056)
I1124 22:51:50.228346 14803 net.cpp:157] Top shape: 64 256 28 28 (12845056)
I1124 22:51:50.228351 14803 net.cpp:157] Top shape: 64 256 28 28 (12845056)
I1124 22:51:50.228356 14803 net.cpp:157] Top shape: 64 256 28 28 (12845056)
I1124 22:51:50.228359 14803 net.cpp:165] Memory required for data: 1753351168
I1124 22:51:50.228363 14803 layer_factory.hpp:76] Creating layer inception_3b/1x1
I1124 22:51:50.228371 14803 net.cpp:106] Creating Layer inception_3b/1x1
I1124 22:51:50.228374 14803 net.cpp:454] inception_3b/1x1 <- inception_3a/output_inception_3a/output_0_split_0
I1124 22:51:50.228381 14803 net.cpp:411] inception_3b/1x1 -> inception_3b/1x1
I1124 22:51:50.229527 14803 net.cpp:150] Setting up inception_3b/1x1
I1124 22:51:50.229542 14803 net.cpp:157] Top shape: 64 128 28 28 (6422528)
I1124 22:51:50.229545 14803 net.cpp:165] Memory required for data: 1779041280
I1124 22:51:50.229552 14803 layer_factory.hpp:76] Creating layer inception_3b/relu_1x1
I1124 22:51:50.229558 14803 net.cpp:106] Creating Layer inception_3b/relu_1x1
I1124 22:51:50.229562 14803 net.cpp:454] inception_3b/relu_1x1 <- inception_3b/1x1
I1124 22:51:50.229568 14803 net.cpp:397] inception_3b/relu_1x1 -> inception_3b/1x1 (in-place)
I1124 22:51:50.229734 14803 net.cpp:150] Setting up inception_3b/relu_1x1
I1124 22:51:50.229746 14803 net.cpp:157] Top shape: 64 128 28 28 (6422528)
I1124 22:51:50.229749 14803 net.cpp:165] Memory required for data: 1804731392
I1124 22:51:50.229753 14803 layer_factory.hpp:76] Creating layer inception_3b/3x3_reduce
I1124 22:51:50.229760 14803 net.cpp:106] Creating Layer inception_3b/3x3_reduce
I1124 22:51:50.229764 14803 net.cpp:454] inception_3b/3x3_reduce <- inception_3a/output_inception_3a/output_0_split_1
I1124 22:51:50.229771 14803 net.cpp:411] inception_3b/3x3_reduce -> inception_3b/3x3_reduce
I1124 22:51:50.230954 14803 net.cpp:150] Setting up inception_3b/3x3_reduce
I1124 22:51:50.230969 14803 net.cpp:157] Top shape: 64 128 28 28 (6422528)
I1124 22:51:50.230973 14803 net.cpp:165] Memory required for data: 1830421504
I1124 22:51:50.230979 14803 layer_factory.hpp:76] Creating layer inception_3b/relu_3x3_reduce
I1124 22:51:50.230985 14803 net.cpp:106] Creating Layer inception_3b/relu_3x3_reduce
I1124 22:51:50.230988 14803 net.cpp:454] inception_3b/relu_3x3_reduce <- inception_3b/3x3_reduce
I1124 22:51:50.230995 14803 net.cpp:397] inception_3b/relu_3x3_reduce -> inception_3b/3x3_reduce (in-place)
I1124 22:51:50.231292 14803 net.cpp:150] Setting up inception_3b/relu_3x3_reduce
I1124 22:51:50.231304 14803 net.cpp:157] Top shape: 64 128 28 28 (6422528)
I1124 22:51:50.231308 14803 net.cpp:165] Memory required for data: 1856111616
I1124 22:51:50.231312 14803 layer_factory.hpp:76] Creating layer inception_3b/3x3
I1124 22:51:50.231324 14803 net.cpp:106] Creating Layer inception_3b/3x3
I1124 22:51:50.231328 14803 net.cpp:454] inception_3b/3x3 <- inception_3b/3x3_reduce
I1124 22:51:50.231335 14803 net.cpp:411] inception_3b/3x3 -> inception_3b/3x3
I1124 22:51:50.234000 14803 net.cpp:150] Setting up inception_3b/3x3
I1124 22:51:50.234015 14803 net.cpp:157] Top shape: 64 192 28 28 (9633792)
I1124 22:51:50.234019 14803 net.cpp:165] Memory required for data: 1894646784
I1124 22:51:50.234025 14803 layer_factory.hpp:76] Creating layer inception_3b/relu_3x3
I1124 22:51:50.234031 14803 net.cpp:106] Creating Layer inception_3b/relu_3x3
I1124 22:51:50.234035 14803 net.cpp:454] inception_3b/relu_3x3 <- inception_3b/3x3
I1124 22:51:50.234040 14803 net.cpp:397] inception_3b/relu_3x3 -> inception_3b/3x3 (in-place)
I1124 22:51:50.234489 14803 net.cpp:150] Setting up inception_3b/relu_3x3
I1124 22:51:50.234503 14803 net.cpp:157] Top shape: 64 192 28 28 (9633792)
I1124 22:51:50.234506 14803 net.cpp:165] Memory required for data: 1933181952
I1124 22:51:50.234510 14803 layer_factory.hpp:76] Creating layer inception_3b/5x5_reduce
I1124 22:51:50.234520 14803 net.cpp:106] Creating Layer inception_3b/5x5_reduce
I1124 22:51:50.234525 14803 net.cpp:454] inception_3b/5x5_reduce <- inception_3a/output_inception_3a/output_0_split_2
I1124 22:51:50.234531 14803 net.cpp:411] inception_3b/5x5_reduce -> inception_3b/5x5_reduce
I1124 22:51:50.235573 14803 net.cpp:150] Setting up inception_3b/5x5_reduce
I1124 22:51:50.235589 14803 net.cpp:157] Top shape: 64 32 28 28 (1605632)
I1124 22:51:50.235592 14803 net.cpp:165] Memory required for data: 1939604480
I1124 22:51:50.235599 14803 layer_factory.hpp:76] Creating layer inception_3b/relu_5x5_reduce
I1124 22:51:50.235605 14803 net.cpp:106] Creating Layer inception_3b/relu_5x5_reduce
I1124 22:51:50.235608 14803 net.cpp:454] inception_3b/relu_5x5_reduce <- inception_3b/5x5_reduce
I1124 22:51:50.235615 14803 net.cpp:397] inception_3b/relu_5x5_reduce -> inception_3b/5x5_reduce (in-place)
I1124 22:51:50.235780 14803 net.cpp:150] Setting up inception_3b/relu_5x5_reduce
I1124 22:51:50.235791 14803 net.cpp:157] Top shape: 64 32 28 28 (1605632)
I1124 22:51:50.235795 14803 net.cpp:165] Memory required for data: 1946027008
I1124 22:51:50.235797 14803 layer_factory.hpp:76] Creating layer inception_3b/5x5
I1124 22:51:50.235806 14803 net.cpp:106] Creating Layer inception_3b/5x5
I1124 22:51:50.235810 14803 net.cpp:454] inception_3b/5x5 <- inception_3b/5x5_reduce
I1124 22:51:50.235817 14803 net.cpp:411] inception_3b/5x5 -> inception_3b/5x5
I1124 22:51:50.237725 14803 net.cpp:150] Setting up inception_3b/5x5
I1124 22:51:50.237740 14803 net.cpp:157] Top shape: 64 96 28 28 (4816896)
I1124 22:51:50.237743 14803 net.cpp:165] Memory required for data: 1965294592
I1124 22:51:50.237751 14803 layer_factory.hpp:76] Creating layer inception_3b/relu_5x5
I1124 22:51:50.237756 14803 net.cpp:106] Creating Layer inception_3b/relu_5x5
I1124 22:51:50.237761 14803 net.cpp:454] inception_3b/relu_5x5 <- inception_3b/5x5
I1124 22:51:50.237766 14803 net.cpp:397] inception_3b/relu_5x5 -> inception_3b/5x5 (in-place)
I1124 22:51:50.238068 14803 net.cpp:150] Setting up inception_3b/relu_5x5
I1124 22:51:50.238085 14803 net.cpp:157] Top shape: 64 96 28 28 (4816896)
I1124 22:51:50.238087 14803 net.cpp:165] Memory required for data: 1984562176
I1124 22:51:50.238091 14803 layer_factory.hpp:76] Creating layer inception_3b/pool
I1124 22:51:50.238098 14803 net.cpp:106] Creating Layer inception_3b/pool
I1124 22:51:50.238101 14803 net.cpp:454] inception_3b/pool <- inception_3a/output_inception_3a/output_0_split_3
I1124 22:51:50.238107 14803 net.cpp:411] inception_3b/pool -> inception_3b/pool
I1124 22:51:50.238303 14803 net.cpp:150] Setting up inception_3b/pool
I1124 22:51:50.238314 14803 net.cpp:157] Top shape: 64 256 28 28 (12845056)
I1124 22:51:50.238317 14803 net.cpp:165] Memory required for data: 2035942400
I1124 22:51:50.238322 14803 layer_factory.hpp:76] Creating layer inception_3b/pool_proj
I1124 22:51:50.238330 14803 net.cpp:106] Creating Layer inception_3b/pool_proj
I1124 22:51:50.238334 14803 net.cpp:454] inception_3b/pool_proj <- inception_3b/pool
I1124 22:51:50.238340 14803 net.cpp:411] inception_3b/pool_proj -> inception_3b/pool_proj
I1124 22:51:50.239418 14803 net.cpp:150] Setting up inception_3b/pool_proj
I1124 22:51:50.239434 14803 net.cpp:157] Top shape: 64 64 28 28 (3211264)
I1124 22:51:50.239436 14803 net.cpp:165] Memory required for data: 2048787456
I1124 22:51:50.239444 14803 layer_factory.hpp:76] Creating layer inception_3b/relu_pool_proj
I1124 22:51:50.239449 14803 net.cpp:106] Creating Layer inception_3b/relu_pool_proj
I1124 22:51:50.239452 14803 net.cpp:454] inception_3b/relu_pool_proj <- inception_3b/pool_proj
I1124 22:51:50.239459 14803 net.cpp:397] inception_3b/relu_pool_proj -> inception_3b/pool_proj (in-place)
I1124 22:51:50.239629 14803 net.cpp:150] Setting up inception_3b/relu_pool_proj
I1124 22:51:50.239641 14803 net.cpp:157] Top shape: 64 64 28 28 (3211264)
I1124 22:51:50.239645 14803 net.cpp:165] Memory required for data: 2061632512
I1124 22:51:50.239648 14803 layer_factory.hpp:76] Creating layer inception_3b/output
I1124 22:51:50.239655 14803 net.cpp:106] Creating Layer inception_3b/output
I1124 22:51:50.239657 14803 net.cpp:454] inception_3b/output <- inception_3b/1x1
I1124 22:51:50.239662 14803 net.cpp:454] inception_3b/output <- inception_3b/3x3
I1124 22:51:50.239666 14803 net.cpp:454] inception_3b/output <- inception_3b/5x5
I1124 22:51:50.239670 14803 net.cpp:454] inception_3b/output <- inception_3b/pool_proj
I1124 22:51:50.239673 14803 net.cpp:411] inception_3b/output -> inception_3b/output
I1124 22:51:50.239702 14803 net.cpp:150] Setting up inception_3b/output
I1124 22:51:50.239708 14803 net.cpp:157] Top shape: 64 480 28 28 (24084480)
I1124 22:51:50.239711 14803 net.cpp:165] Memory required for data: 2157970432
I1124 22:51:50.239713 14803 layer_factory.hpp:76] Creating layer pool3/3x3_s2
I1124 22:51:50.239722 14803 net.cpp:106] Creating Layer pool3/3x3_s2
I1124 22:51:50.239724 14803 net.cpp:454] pool3/3x3_s2 <- inception_3b/output
I1124 22:51:50.239729 14803 net.cpp:411] pool3/3x3_s2 -> pool3/3x3_s2
I1124 22:51:50.240054 14803 net.cpp:150] Setting up pool3/3x3_s2
I1124 22:51:50.240067 14803 net.cpp:157] Top shape: 64 480 14 14 (6021120)
I1124 22:51:50.240070 14803 net.cpp:165] Memory required for data: 2182054912
I1124 22:51:50.240074 14803 layer_factory.hpp:76] Creating layer pool3/3x3_s2_pool3/3x3_s2_0_split
I1124 22:51:50.240082 14803 net.cpp:106] Creating Layer pool3/3x3_s2_pool3/3x3_s2_0_split
I1124 22:51:50.240085 14803 net.cpp:454] pool3/3x3_s2_pool3/3x3_s2_0_split <- pool3/3x3_s2
I1124 22:51:50.240090 14803 net.cpp:411] pool3/3x3_s2_pool3/3x3_s2_0_split -> pool3/3x3_s2_pool3/3x3_s2_0_split_0
I1124 22:51:50.240097 14803 net.cpp:411] pool3/3x3_s2_pool3/3x3_s2_0_split -> pool3/3x3_s2_pool3/3x3_s2_0_split_1
I1124 22:51:50.240103 14803 net.cpp:411] pool3/3x3_s2_pool3/3x3_s2_0_split -> pool3/3x3_s2_pool3/3x3_s2_0_split_2
I1124 22:51:50.240108 14803 net.cpp:411] pool3/3x3_s2_pool3/3x3_s2_0_split -> pool3/3x3_s2_pool3/3x3_s2_0_split_3
I1124 22:51:50.240164 14803 net.cpp:150] Setting up pool3/3x3_s2_pool3/3x3_s2_0_split
I1124 22:51:50.240170 14803 net.cpp:157] Top shape: 64 480 14 14 (6021120)
I1124 22:51:50.240175 14803 net.cpp:157] Top shape: 64 480 14 14 (6021120)
I1124 22:51:50.240177 14803 net.cpp:157] Top shape: 64 480 14 14 (6021120)
I1124 22:51:50.240180 14803 net.cpp:157] Top shape: 64 480 14 14 (6021120)
I1124 22:51:50.240183 14803 net.cpp:165] Memory required for data: 2278392832
I1124 22:51:50.240186 14803 layer_factory.hpp:76] Creating layer inception_4a/1x1
I1124 22:51:50.240195 14803 net.cpp:106] Creating Layer inception_4a/1x1
I1124 22:51:50.240198 14803 net.cpp:454] inception_4a/1x1 <- pool3/3x3_s2_pool3/3x3_s2_0_split_0
I1124 22:51:50.240205 14803 net.cpp:411] inception_4a/1x1 -> inception_4a/1x1
I1124 22:51:50.241895 14803 net.cpp:150] Setting up inception_4a/1x1
I1124 22:51:50.241910 14803 net.cpp:157] Top shape: 64 192 14 14 (2408448)
I1124 22:51:50.241914 14803 net.cpp:165] Memory required for data: 2288026624
I1124 22:51:50.241920 14803 layer_factory.hpp:76] Creating layer inception_4a/relu_1x1
I1124 22:51:50.241926 14803 net.cpp:106] Creating Layer inception_4a/relu_1x1
I1124 22:51:50.241930 14803 net.cpp:454] inception_4a/relu_1x1 <- inception_4a/1x1
I1124 22:51:50.241935 14803 net.cpp:397] inception_4a/relu_1x1 -> inception_4a/1x1 (in-place)
I1124 22:51:50.242110 14803 net.cpp:150] Setting up inception_4a/relu_1x1
I1124 22:51:50.242121 14803 net.cpp:157] Top shape: 64 192 14 14 (2408448)
I1124 22:51:50.242125 14803 net.cpp:165] Memory required for data: 2297660416
I1124 22:51:50.242128 14803 layer_factory.hpp:76] Creating layer inception_4a/3x3_reduce
I1124 22:51:50.242136 14803 net.cpp:106] Creating Layer inception_4a/3x3_reduce
I1124 22:51:50.242141 14803 net.cpp:454] inception_4a/3x3_reduce <- pool3/3x3_s2_pool3/3x3_s2_0_split_1
I1124 22:51:50.242147 14803 net.cpp:411] inception_4a/3x3_reduce -> inception_4a/3x3_reduce
I1124 22:51:50.243463 14803 net.cpp:150] Setting up inception_4a/3x3_reduce
I1124 22:51:50.243479 14803 net.cpp:157] Top shape: 64 96 14 14 (1204224)
I1124 22:51:50.243481 14803 net.cpp:165] Memory required for data: 2302477312
I1124 22:51:50.243494 14803 layer_factory.hpp:76] Creating layer inception_4a/relu_3x3_reduce
I1124 22:51:50.243500 14803 net.cpp:106] Creating Layer inception_4a/relu_3x3_reduce
I1124 22:51:50.243505 14803 net.cpp:454] inception_4a/relu_3x3_reduce <- inception_4a/3x3_reduce
I1124 22:51:50.243510 14803 net.cpp:397] inception_4a/relu_3x3_reduce -> inception_4a/3x3_reduce (in-place)
I1124 22:51:50.243839 14803 net.cpp:150] Setting up inception_4a/relu_3x3_reduce
I1124 22:51:50.243852 14803 net.cpp:157] Top shape: 64 96 14 14 (1204224)
I1124 22:51:50.243856 14803 net.cpp:165] Memory required for data: 2307294208
I1124 22:51:50.243860 14803 layer_factory.hpp:76] Creating layer inception_4a/3x3
I1124 22:51:50.243870 14803 net.cpp:106] Creating Layer inception_4a/3x3
I1124 22:51:50.243875 14803 net.cpp:454] inception_4a/3x3 <- inception_4a/3x3_reduce
I1124 22:51:50.243881 14803 net.cpp:411] inception_4a/3x3 -> inception_4a/3x3
I1124 22:51:50.246309 14803 net.cpp:150] Setting up inception_4a/3x3
I1124 22:51:50.246323 14803 net.cpp:157] Top shape: 64 208 14 14 (2609152)
I1124 22:51:50.246326 14803 net.cpp:165] Memory required for data: 2317730816
I1124 22:51:50.246332 14803 layer_factory.hpp:76] Creating layer inception_4a/relu_3x3
I1124 22:51:50.246340 14803 net.cpp:106] Creating Layer inception_4a/relu_3x3
I1124 22:51:50.246345 14803 net.cpp:454] inception_4a/relu_3x3 <- inception_4a/3x3
I1124 22:51:50.246351 14803 net.cpp:397] inception_4a/relu_3x3 -> inception_4a/3x3 (in-place)
I1124 22:51:50.246649 14803 net.cpp:150] Setting up inception_4a/relu_3x3
I1124 22:51:50.246662 14803 net.cpp:157] Top shape: 64 208 14 14 (2609152)
I1124 22:51:50.246665 14803 net.cpp:165] Memory required for data: 2328167424
I1124 22:51:50.246668 14803 layer_factory.hpp:76] Creating layer inception_4a/5x5_reduce
I1124 22:51:50.246680 14803 net.cpp:106] Creating Layer inception_4a/5x5_reduce
I1124 22:51:50.246683 14803 net.cpp:454] inception_4a/5x5_reduce <- pool3/3x3_s2_pool3/3x3_s2_0_split_2
I1124 22:51:50.246690 14803 net.cpp:411] inception_4a/5x5_reduce -> inception_4a/5x5_reduce
I1124 22:51:50.247768 14803 net.cpp:150] Setting up inception_4a/5x5_reduce
I1124 22:51:50.247784 14803 net.cpp:157] Top shape: 64 16 14 14 (200704)
I1124 22:51:50.247788 14803 net.cpp:165] Memory required for data: 2328970240
I1124 22:51:50.247794 14803 layer_factory.hpp:76] Creating layer inception_4a/relu_5x5_reduce
I1124 22:51:50.247800 14803 net.cpp:106] Creating Layer inception_4a/relu_5x5_reduce
I1124 22:51:50.247804 14803 net.cpp:454] inception_4a/relu_5x5_reduce <- inception_4a/5x5_reduce
I1124 22:51:50.247810 14803 net.cpp:397] inception_4a/relu_5x5_reduce -> inception_4a/5x5_reduce (in-place)
I1124 22:51:50.248107 14803 net.cpp:150] Setting up inception_4a/relu_5x5_reduce
I1124 22:51:50.248121 14803 net.cpp:157] Top shape: 64 16 14 14 (200704)
I1124 22:51:50.248124 14803 net.cpp:165] Memory required for data: 2329773056
I1124 22:51:50.248127 14803 layer_factory.hpp:76] Creating layer inception_4a/5x5
I1124 22:51:50.248137 14803 net.cpp:106] Creating Layer inception_4a/5x5
I1124 22:51:50.248142 14803 net.cpp:454] inception_4a/5x5 <- inception_4a/5x5_reduce
I1124 22:51:50.248148 14803 net.cpp:411] inception_4a/5x5 -> inception_4a/5x5
I1124 22:51:50.249281 14803 net.cpp:150] Setting up inception_4a/5x5
I1124 22:51:50.249296 14803 net.cpp:157] Top shape: 64 48 14 14 (602112)
I1124 22:51:50.249300 14803 net.cpp:165] Memory required for data: 2332181504
I1124 22:51:50.249306 14803 layer_factory.hpp:76] Creating layer inception_4a/relu_5x5
I1124 22:51:50.249315 14803 net.cpp:106] Creating Layer inception_4a/relu_5x5
I1124 22:51:50.249318 14803 net.cpp:454] inception_4a/relu_5x5 <- inception_4a/5x5
I1124 22:51:50.249323 14803 net.cpp:397] inception_4a/relu_5x5 -> inception_4a/5x5 (in-place)
I1124 22:51:50.249625 14803 net.cpp:150] Setting up inception_4a/relu_5x5
I1124 22:51:50.249640 14803 net.cpp:157] Top shape: 64 48 14 14 (602112)
I1124 22:51:50.249644 14803 net.cpp:165] Memory required for data: 2334589952
I1124 22:51:50.249647 14803 layer_factory.hpp:76] Creating layer inception_4a/pool
I1124 22:51:50.249653 14803 net.cpp:106] Creating Layer inception_4a/pool
I1124 22:51:50.249657 14803 net.cpp:454] inception_4a/pool <- pool3/3x3_s2_pool3/3x3_s2_0_split_3
I1124 22:51:50.249663 14803 net.cpp:411] inception_4a/pool -> inception_4a/pool
I1124 22:51:50.249861 14803 net.cpp:150] Setting up inception_4a/pool
I1124 22:51:50.249872 14803 net.cpp:157] Top shape: 64 480 14 14 (6021120)
I1124 22:51:50.249876 14803 net.cpp:165] Memory required for data: 2358674432
I1124 22:51:50.249879 14803 layer_factory.hpp:76] Creating layer inception_4a/pool_proj
I1124 22:51:50.249888 14803 net.cpp:106] Creating Layer inception_4a/pool_proj
I1124 22:51:50.249893 14803 net.cpp:454] inception_4a/pool_proj <- inception_4a/pool
I1124 22:51:50.249900 14803 net.cpp:411] inception_4a/pool_proj -> inception_4a/pool_proj
I1124 22:51:50.251106 14803 net.cpp:150] Setting up inception_4a/pool_proj
I1124 22:51:50.251122 14803 net.cpp:157] Top shape: 64 64 14 14 (802816)
I1124 22:51:50.251126 14803 net.cpp:165] Memory required for data: 2361885696
I1124 22:51:50.251132 14803 layer_factory.hpp:76] Creating layer inception_4a/relu_pool_proj
I1124 22:51:50.251137 14803 net.cpp:106] Creating Layer inception_4a/relu_pool_proj
I1124 22:51:50.251142 14803 net.cpp:454] inception_4a/relu_pool_proj <- inception_4a/pool_proj
I1124 22:51:50.251147 14803 net.cpp:397] inception_4a/relu_pool_proj -> inception_4a/pool_proj (in-place)
I1124 22:51:50.251447 14803 net.cpp:150] Setting up inception_4a/relu_pool_proj
I1124 22:51:50.251461 14803 net.cpp:157] Top shape: 64 64 14 14 (802816)
I1124 22:51:50.251466 14803 net.cpp:165] Memory required for data: 2365096960
I1124 22:51:50.251468 14803 layer_factory.hpp:76] Creating layer inception_4a/output
I1124 22:51:50.251476 14803 net.cpp:106] Creating Layer inception_4a/output
I1124 22:51:50.251479 14803 net.cpp:454] inception_4a/output <- inception_4a/1x1
I1124 22:51:50.251483 14803 net.cpp:454] inception_4a/output <- inception_4a/3x3
I1124 22:51:50.251487 14803 net.cpp:454] inception_4a/output <- inception_4a/5x5
I1124 22:51:50.251492 14803 net.cpp:454] inception_4a/output <- inception_4a/pool_proj
I1124 22:51:50.251495 14803 net.cpp:411] inception_4a/output -> inception_4a/output
I1124 22:51:50.251528 14803 net.cpp:150] Setting up inception_4a/output
I1124 22:51:50.251533 14803 net.cpp:157] Top shape: 64 512 14 14 (6422528)
I1124 22:51:50.251536 14803 net.cpp:165] Memory required for data: 2390787072
I1124 22:51:50.251539 14803 layer_factory.hpp:76] Creating layer inception_4a/output_inception_4a/output_0_split
I1124 22:51:50.251546 14803 net.cpp:106] Creating Layer inception_4a/output_inception_4a/output_0_split
I1124 22:51:50.251550 14803 net.cpp:454] inception_4a/output_inception_4a/output_0_split <- inception_4a/output
I1124 22:51:50.251555 14803 net.cpp:411] inception_4a/output_inception_4a/output_0_split -> inception_4a/output_inception_4a/output_0_split_0
I1124 22:51:50.251561 14803 net.cpp:411] inception_4a/output_inception_4a/output_0_split -> inception_4a/output_inception_4a/output_0_split_1
I1124 22:51:50.251566 14803 net.cpp:411] inception_4a/output_inception_4a/output_0_split -> inception_4a/output_inception_4a/output_0_split_2
I1124 22:51:50.251571 14803 net.cpp:411] inception_4a/output_inception_4a/output_0_split -> inception_4a/output_inception_4a/output_0_split_3
I1124 22:51:50.251576 14803 net.cpp:411] inception_4a/output_inception_4a/output_0_split -> inception_4a/output_inception_4a/output_0_split_4
I1124 22:51:50.251649 14803 net.cpp:150] Setting up inception_4a/output_inception_4a/output_0_split
I1124 22:51:50.251663 14803 net.cpp:157] Top shape: 64 512 14 14 (6422528)
I1124 22:51:50.251667 14803 net.cpp:157] Top shape: 64 512 14 14 (6422528)
I1124 22:51:50.251672 14803 net.cpp:157] Top shape: 64 512 14 14 (6422528)
I1124 22:51:50.251675 14803 net.cpp:157] Top shape: 64 512 14 14 (6422528)
I1124 22:51:50.251678 14803 net.cpp:157] Top shape: 64 512 14 14 (6422528)
I1124 22:51:50.251682 14803 net.cpp:165] Memory required for data: 2519237632
I1124 22:51:50.251684 14803 layer_factory.hpp:76] Creating layer loss1/ave_pool
I1124 22:51:50.251690 14803 net.cpp:106] Creating Layer loss1/ave_pool
I1124 22:51:50.251693 14803 net.cpp:454] loss1/ave_pool <- inception_4a/output_inception_4a/output_0_split_0
I1124 22:51:50.251700 14803 net.cpp:411] loss1/ave_pool -> loss1/ave_pool
I1124 22:51:50.251884 14803 net.cpp:150] Setting up loss1/ave_pool
I1124 22:51:50.251896 14803 net.cpp:157] Top shape: 64 512 4 4 (524288)
I1124 22:51:50.251900 14803 net.cpp:165] Memory required for data: 2521334784
I1124 22:51:50.251904 14803 layer_factory.hpp:76] Creating layer loss1/conv
I1124 22:51:50.251911 14803 net.cpp:106] Creating Layer loss1/conv
I1124 22:51:50.251916 14803 net.cpp:454] loss1/conv <- loss1/ave_pool
I1124 22:51:50.251924 14803 net.cpp:411] loss1/conv -> loss1/conv
I1124 22:51:50.253329 14803 net.cpp:150] Setting up loss1/conv
I1124 22:51:50.253345 14803 net.cpp:157] Top shape: 64 128 4 4 (131072)
I1124 22:51:50.253347 14803 net.cpp:165] Memory required for data: 2521859072
I1124 22:51:50.253355 14803 layer_factory.hpp:76] Creating layer loss1/relu_conv
I1124 22:51:50.253360 14803 net.cpp:106] Creating Layer loss1/relu_conv
I1124 22:51:50.253363 14803 net.cpp:454] loss1/relu_conv <- loss1/conv
I1124 22:51:50.253371 14803 net.cpp:397] loss1/relu_conv -> loss1/conv (in-place)
I1124 22:51:50.253535 14803 net.cpp:150] Setting up loss1/relu_conv
I1124 22:51:50.253545 14803 net.cpp:157] Top shape: 64 128 4 4 (131072)
I1124 22:51:50.253548 14803 net.cpp:165] Memory required for data: 2522383360
I1124 22:51:50.253551 14803 layer_factory.hpp:76] Creating layer loss1/fc
I1124 22:51:50.253561 14803 net.cpp:106] Creating Layer loss1/fc
I1124 22:51:50.253564 14803 net.cpp:454] loss1/fc <- loss1/conv
I1124 22:51:50.253569 14803 net.cpp:411] loss1/fc -> loss1/fc
I1124 22:51:50.269240 14803 net.cpp:150] Setting up loss1/fc
I1124 22:51:50.269255 14803 net.cpp:157] Top shape: 64 1024 (65536)
I1124 22:51:50.269258 14803 net.cpp:165] Memory required for data: 2522645504
I1124 22:51:50.269265 14803 layer_factory.hpp:76] Creating layer loss1/relu_fc
I1124 22:51:50.269271 14803 net.cpp:106] Creating Layer loss1/relu_fc
I1124 22:51:50.269275 14803 net.cpp:454] loss1/relu_fc <- loss1/fc
I1124 22:51:50.269281 14803 net.cpp:397] loss1/relu_fc -> loss1/fc (in-place)
I1124 22:51:50.269595 14803 net.cpp:150] Setting up loss1/relu_fc
I1124 22:51:50.269609 14803 net.cpp:157] Top shape: 64 1024 (65536)
I1124 22:51:50.269613 14803 net.cpp:165] Memory required for data: 2522907648
I1124 22:51:50.269616 14803 layer_factory.hpp:76] Creating layer loss1/drop_fc
I1124 22:51:50.269631 14803 net.cpp:106] Creating Layer loss1/drop_fc
I1124 22:51:50.269635 14803 net.cpp:454] loss1/drop_fc <- loss1/fc
I1124 22:51:50.269642 14803 net.cpp:397] loss1/drop_fc -> loss1/fc (in-place)
I1124 22:51:50.269680 14803 net.cpp:150] Setting up loss1/drop_fc
I1124 22:51:50.269690 14803 net.cpp:157] Top shape: 64 1024 (65536)
I1124 22:51:50.269692 14803 net.cpp:165] Memory required for data: 2523169792
I1124 22:51:50.269696 14803 layer_factory.hpp:76] Creating layer loss1/classifier-attribute
I1124 22:51:50.269703 14803 net.cpp:106] Creating Layer loss1/classifier-attribute
I1124 22:51:50.269708 14803 net.cpp:454] loss1/classifier-attribute <- loss1/fc
I1124 22:51:50.269714 14803 net.cpp:411] loss1/classifier-attribute -> loss1/classifier-attribute
I1124 22:51:50.269932 14803 net.cpp:150] Setting up loss1/classifier-attribute
I1124 22:51:50.269940 14803 net.cpp:157] Top shape: 64 15 (960)
I1124 22:51:50.269943 14803 net.cpp:165] Memory required for data: 2523173632
I1124 22:51:50.269949 14803 layer_factory.hpp:76] Creating layer loss1/loss
I1124 22:51:50.269961 14803 net.cpp:106] Creating Layer loss1/loss
I1124 22:51:50.269968 14803 net.cpp:454] loss1/loss <- loss1/classifier-attribute
I1124 22:51:50.269973 14803 net.cpp:454] loss1/loss <- label_data_1_split_0
I1124 22:51:50.269978 14803 net.cpp:411] loss1/loss -> loss1/loss1
I1124 22:51:50.269989 14803 layer_factory.hpp:76] Creating layer loss1/loss
I1124 22:51:50.270249 14803 net.cpp:150] Setting up loss1/loss
I1124 22:51:50.270262 14803 net.cpp:157] Top shape: (1)
I1124 22:51:50.270265 14803 net.cpp:160]     with loss weight 0.3
I1124 22:51:50.270287 14803 net.cpp:165] Memory required for data: 2523173636
I1124 22:51:50.270290 14803 layer_factory.hpp:76] Creating layer inception_4b/1x1
I1124 22:51:50.270298 14803 net.cpp:106] Creating Layer inception_4b/1x1
I1124 22:51:50.270303 14803 net.cpp:454] inception_4b/1x1 <- inception_4a/output_inception_4a/output_0_split_1
I1124 22:51:50.270309 14803 net.cpp:411] inception_4b/1x1 -> inception_4b/1x1
I1124 22:51:50.271855 14803 net.cpp:150] Setting up inception_4b/1x1
I1124 22:51:50.271870 14803 net.cpp:157] Top shape: 64 160 14 14 (2007040)
I1124 22:51:50.271874 14803 net.cpp:165] Memory required for data: 2531201796
I1124 22:51:50.271880 14803 layer_factory.hpp:76] Creating layer inception_4b/relu_1x1
I1124 22:51:50.271888 14803 net.cpp:106] Creating Layer inception_4b/relu_1x1
I1124 22:51:50.271893 14803 net.cpp:454] inception_4b/relu_1x1 <- inception_4b/1x1
I1124 22:51:50.271899 14803 net.cpp:397] inception_4b/relu_1x1 -> inception_4b/1x1 (in-place)
I1124 22:51:50.272208 14803 net.cpp:150] Setting up inception_4b/relu_1x1
I1124 22:51:50.272222 14803 net.cpp:157] Top shape: 64 160 14 14 (2007040)
I1124 22:51:50.272225 14803 net.cpp:165] Memory required for data: 2539229956
I1124 22:51:50.272228 14803 layer_factory.hpp:76] Creating layer inception_4b/3x3_reduce
I1124 22:51:50.272239 14803 net.cpp:106] Creating Layer inception_4b/3x3_reduce
I1124 22:51:50.272243 14803 net.cpp:454] inception_4b/3x3_reduce <- inception_4a/output_inception_4a/output_0_split_2
I1124 22:51:50.272249 14803 net.cpp:411] inception_4b/3x3_reduce -> inception_4b/3x3_reduce
I1124 22:51:50.274049 14803 net.cpp:150] Setting up inception_4b/3x3_reduce
I1124 22:51:50.274063 14803 net.cpp:157] Top shape: 64 112 14 14 (1404928)
I1124 22:51:50.274066 14803 net.cpp:165] Memory required for data: 2544849668
I1124 22:51:50.274073 14803 layer_factory.hpp:76] Creating layer inception_4b/relu_3x3_reduce
I1124 22:51:50.274080 14803 net.cpp:106] Creating Layer inception_4b/relu_3x3_reduce
I1124 22:51:50.274085 14803 net.cpp:454] inception_4b/relu_3x3_reduce <- inception_4b/3x3_reduce
I1124 22:51:50.274090 14803 net.cpp:397] inception_4b/relu_3x3_reduce -> inception_4b/3x3_reduce (in-place)
I1124 22:51:50.274260 14803 net.cpp:150] Setting up inception_4b/relu_3x3_reduce
I1124 22:51:50.274271 14803 net.cpp:157] Top shape: 64 112 14 14 (1404928)
I1124 22:51:50.274274 14803 net.cpp:165] Memory required for data: 2550469380
I1124 22:51:50.274278 14803 layer_factory.hpp:76] Creating layer inception_4b/3x3
I1124 22:51:50.274288 14803 net.cpp:106] Creating Layer inception_4b/3x3
I1124 22:51:50.274293 14803 net.cpp:454] inception_4b/3x3 <- inception_4b/3x3_reduce
I1124 22:51:50.274301 14803 net.cpp:411] inception_4b/3x3 -> inception_4b/3x3
I1124 22:51:50.277184 14803 net.cpp:150] Setting up inception_4b/3x3
I1124 22:51:50.277199 14803 net.cpp:157] Top shape: 64 224 14 14 (2809856)
I1124 22:51:50.277204 14803 net.cpp:165] Memory required for data: 2561708804
I1124 22:51:50.277209 14803 layer_factory.hpp:76] Creating layer inception_4b/relu_3x3
I1124 22:51:50.277215 14803 net.cpp:106] Creating Layer inception_4b/relu_3x3
I1124 22:51:50.277220 14803 net.cpp:454] inception_4b/relu_3x3 <- inception_4b/3x3
I1124 22:51:50.277225 14803 net.cpp:397] inception_4b/relu_3x3 -> inception_4b/3x3 (in-place)
I1124 22:51:50.277396 14803 net.cpp:150] Setting up inception_4b/relu_3x3
I1124 22:51:50.277407 14803 net.cpp:157] Top shape: 64 224 14 14 (2809856)
I1124 22:51:50.277410 14803 net.cpp:165] Memory required for data: 2572948228
I1124 22:51:50.277415 14803 layer_factory.hpp:76] Creating layer inception_4b/5x5_reduce
I1124 22:51:50.277423 14803 net.cpp:106] Creating Layer inception_4b/5x5_reduce
I1124 22:51:50.277427 14803 net.cpp:454] inception_4b/5x5_reduce <- inception_4a/output_inception_4a/output_0_split_3
I1124 22:51:50.277434 14803 net.cpp:411] inception_4b/5x5_reduce -> inception_4b/5x5_reduce
I1124 22:51:50.278530 14803 net.cpp:150] Setting up inception_4b/5x5_reduce
I1124 22:51:50.278545 14803 net.cpp:157] Top shape: 64 24 14 14 (301056)
I1124 22:51:50.278548 14803 net.cpp:165] Memory required for data: 2574152452
I1124 22:51:50.278554 14803 layer_factory.hpp:76] Creating layer inception_4b/relu_5x5_reduce
I1124 22:51:50.278560 14803 net.cpp:106] Creating Layer inception_4b/relu_5x5_reduce
I1124 22:51:50.278564 14803 net.cpp:454] inception_4b/relu_5x5_reduce <- inception_4b/5x5_reduce
I1124 22:51:50.278571 14803 net.cpp:397] inception_4b/relu_5x5_reduce -> inception_4b/5x5_reduce (in-place)
I1124 22:51:50.279018 14803 net.cpp:150] Setting up inception_4b/relu_5x5_reduce
I1124 22:51:50.279032 14803 net.cpp:157] Top shape: 64 24 14 14 (301056)
I1124 22:51:50.279036 14803 net.cpp:165] Memory required for data: 2575356676
I1124 22:51:50.279039 14803 layer_factory.hpp:76] Creating layer inception_4b/5x5
I1124 22:51:50.279048 14803 net.cpp:106] Creating Layer inception_4b/5x5
I1124 22:51:50.279052 14803 net.cpp:454] inception_4b/5x5 <- inception_4b/5x5_reduce
I1124 22:51:50.279058 14803 net.cpp:411] inception_4b/5x5 -> inception_4b/5x5
I1124 22:51:50.280382 14803 net.cpp:150] Setting up inception_4b/5x5
I1124 22:51:50.280397 14803 net.cpp:157] Top shape: 64 64 14 14 (802816)
I1124 22:51:50.280401 14803 net.cpp:165] Memory required for data: 2578567940
I1124 22:51:50.280407 14803 layer_factory.hpp:76] Creating layer inception_4b/relu_5x5
I1124 22:51:50.280413 14803 net.cpp:106] Creating Layer inception_4b/relu_5x5
I1124 22:51:50.280417 14803 net.cpp:454] inception_4b/relu_5x5 <- inception_4b/5x5
I1124 22:51:50.280424 14803 net.cpp:397] inception_4b/relu_5x5 -> inception_4b/5x5 (in-place)
I1124 22:51:50.280593 14803 net.cpp:150] Setting up inception_4b/relu_5x5
I1124 22:51:50.280606 14803 net.cpp:157] Top shape: 64 64 14 14 (802816)
I1124 22:51:50.280609 14803 net.cpp:165] Memory required for data: 2581779204
I1124 22:51:50.280612 14803 layer_factory.hpp:76] Creating layer inception_4b/pool
I1124 22:51:50.280618 14803 net.cpp:106] Creating Layer inception_4b/pool
I1124 22:51:50.280622 14803 net.cpp:454] inception_4b/pool <- inception_4a/output_inception_4a/output_0_split_4
I1124 22:51:50.280627 14803 net.cpp:411] inception_4b/pool -> inception_4b/pool
I1124 22:51:50.280971 14803 net.cpp:150] Setting up inception_4b/pool
I1124 22:51:50.280984 14803 net.cpp:157] Top shape: 64 512 14 14 (6422528)
I1124 22:51:50.280987 14803 net.cpp:165] Memory required for data: 2607469316
I1124 22:51:50.280992 14803 layer_factory.hpp:76] Creating layer inception_4b/pool_proj
I1124 22:51:50.281002 14803 net.cpp:106] Creating Layer inception_4b/pool_proj
I1124 22:51:50.281008 14803 net.cpp:454] inception_4b/pool_proj <- inception_4b/pool
I1124 22:51:50.281013 14803 net.cpp:411] inception_4b/pool_proj -> inception_4b/pool_proj
I1124 22:51:50.282099 14803 net.cpp:150] Setting up inception_4b/pool_proj
I1124 22:51:50.282114 14803 net.cpp:157] Top shape: 64 64 14 14 (802816)
I1124 22:51:50.282116 14803 net.cpp:165] Memory required for data: 2610680580
I1124 22:51:50.282122 14803 layer_factory.hpp:76] Creating layer inception_4b/relu_pool_proj
I1124 22:51:50.282130 14803 net.cpp:106] Creating Layer inception_4b/relu_pool_proj
I1124 22:51:50.282135 14803 net.cpp:454] inception_4b/relu_pool_proj <- inception_4b/pool_proj
I1124 22:51:50.282140 14803 net.cpp:397] inception_4b/relu_pool_proj -> inception_4b/pool_proj (in-place)
I1124 22:51:50.282454 14803 net.cpp:150] Setting up inception_4b/relu_pool_proj
I1124 22:51:50.282466 14803 net.cpp:157] Top shape: 64 64 14 14 (802816)
I1124 22:51:50.282470 14803 net.cpp:165] Memory required for data: 2613891844
I1124 22:51:50.282474 14803 layer_factory.hpp:76] Creating layer inception_4b/output
I1124 22:51:50.282481 14803 net.cpp:106] Creating Layer inception_4b/output
I1124 22:51:50.282485 14803 net.cpp:454] inception_4b/output <- inception_4b/1x1
I1124 22:51:50.282490 14803 net.cpp:454] inception_4b/output <- inception_4b/3x3
I1124 22:51:50.282495 14803 net.cpp:454] inception_4b/output <- inception_4b/5x5
I1124 22:51:50.282498 14803 net.cpp:454] inception_4b/output <- inception_4b/pool_proj
I1124 22:51:50.282503 14803 net.cpp:411] inception_4b/output -> inception_4b/output
I1124 22:51:50.282538 14803 net.cpp:150] Setting up inception_4b/output
I1124 22:51:50.282543 14803 net.cpp:157] Top shape: 64 512 14 14 (6422528)
I1124 22:51:50.282546 14803 net.cpp:165] Memory required for data: 2639581956
I1124 22:51:50.282549 14803 layer_factory.hpp:76] Creating layer inception_4b/output_inception_4b/output_0_split
I1124 22:51:50.282557 14803 net.cpp:106] Creating Layer inception_4b/output_inception_4b/output_0_split
I1124 22:51:50.282560 14803 net.cpp:454] inception_4b/output_inception_4b/output_0_split <- inception_4b/output
I1124 22:51:50.282565 14803 net.cpp:411] inception_4b/output_inception_4b/output_0_split -> inception_4b/output_inception_4b/output_0_split_0
I1124 22:51:50.282572 14803 net.cpp:411] inception_4b/output_inception_4b/output_0_split -> inception_4b/output_inception_4b/output_0_split_1
I1124 22:51:50.282577 14803 net.cpp:411] inception_4b/output_inception_4b/output_0_split -> inception_4b/output_inception_4b/output_0_split_2
I1124 22:51:50.282582 14803 net.cpp:411] inception_4b/output_inception_4b/output_0_split -> inception_4b/output_inception_4b/output_0_split_3
I1124 22:51:50.282650 14803 net.cpp:150] Setting up inception_4b/output_inception_4b/output_0_split
I1124 22:51:50.282657 14803 net.cpp:157] Top shape: 64 512 14 14 (6422528)
I1124 22:51:50.282661 14803 net.cpp:157] Top shape: 64 512 14 14 (6422528)
I1124 22:51:50.282665 14803 net.cpp:157] Top shape: 64 512 14 14 (6422528)
I1124 22:51:50.282670 14803 net.cpp:157] Top shape: 64 512 14 14 (6422528)
I1124 22:51:50.282671 14803 net.cpp:165] Memory required for data: 2742342404
I1124 22:51:50.282675 14803 layer_factory.hpp:76] Creating layer inception_4c/1x1
I1124 22:51:50.282683 14803 net.cpp:106] Creating Layer inception_4c/1x1
I1124 22:51:50.282690 14803 net.cpp:454] inception_4c/1x1 <- inception_4b/output_inception_4b/output_0_split_0
I1124 22:51:50.282696 14803 net.cpp:411] inception_4c/1x1 -> inception_4c/1x1
I1124 22:51:50.284173 14803 net.cpp:150] Setting up inception_4c/1x1
I1124 22:51:50.284188 14803 net.cpp:157] Top shape: 64 128 14 14 (1605632)
I1124 22:51:50.284193 14803 net.cpp:165] Memory required for data: 2748764932
I1124 22:51:50.284198 14803 layer_factory.hpp:76] Creating layer inception_4c/relu_1x1
I1124 22:51:50.284204 14803 net.cpp:106] Creating Layer inception_4c/relu_1x1
I1124 22:51:50.284209 14803 net.cpp:454] inception_4c/relu_1x1 <- inception_4c/1x1
I1124 22:51:50.284215 14803 net.cpp:397] inception_4c/relu_1x1 -> inception_4c/1x1 (in-place)
I1124 22:51:50.284389 14803 net.cpp:150] Setting up inception_4c/relu_1x1
I1124 22:51:50.284399 14803 net.cpp:157] Top shape: 64 128 14 14 (1605632)
I1124 22:51:50.284404 14803 net.cpp:165] Memory required for data: 2755187460
I1124 22:51:50.284406 14803 layer_factory.hpp:76] Creating layer inception_4c/3x3_reduce
I1124 22:51:50.284415 14803 net.cpp:106] Creating Layer inception_4c/3x3_reduce
I1124 22:51:50.284420 14803 net.cpp:454] inception_4c/3x3_reduce <- inception_4b/output_inception_4b/output_0_split_1
I1124 22:51:50.284426 14803 net.cpp:411] inception_4c/3x3_reduce -> inception_4c/3x3_reduce
I1124 22:51:50.285867 14803 net.cpp:150] Setting up inception_4c/3x3_reduce
I1124 22:51:50.285881 14803 net.cpp:157] Top shape: 64 128 14 14 (1605632)
I1124 22:51:50.285884 14803 net.cpp:165] Memory required for data: 2761609988
I1124 22:51:50.285892 14803 layer_factory.hpp:76] Creating layer inception_4c/relu_3x3_reduce
I1124 22:51:50.285897 14803 net.cpp:106] Creating Layer inception_4c/relu_3x3_reduce
I1124 22:51:50.285900 14803 net.cpp:454] inception_4c/relu_3x3_reduce <- inception_4c/3x3_reduce
I1124 22:51:50.285905 14803 net.cpp:397] inception_4c/relu_3x3_reduce -> inception_4c/3x3_reduce (in-place)
I1124 22:51:50.286216 14803 net.cpp:150] Setting up inception_4c/relu_3x3_reduce
I1124 22:51:50.286229 14803 net.cpp:157] Top shape: 64 128 14 14 (1605632)
I1124 22:51:50.286233 14803 net.cpp:165] Memory required for data: 2768032516
I1124 22:51:50.286237 14803 layer_factory.hpp:76] Creating layer inception_4c/3x3
I1124 22:51:50.286247 14803 net.cpp:106] Creating Layer inception_4c/3x3
I1124 22:51:50.286252 14803 net.cpp:454] inception_4c/3x3 <- inception_4c/3x3_reduce
I1124 22:51:50.286257 14803 net.cpp:411] inception_4c/3x3 -> inception_4c/3x3
I1124 22:51:50.289496 14803 net.cpp:150] Setting up inception_4c/3x3
I1124 22:51:50.289511 14803 net.cpp:157] Top shape: 64 256 14 14 (3211264)
I1124 22:51:50.289515 14803 net.cpp:165] Memory required for data: 2780877572
I1124 22:51:50.289533 14803 layer_factory.hpp:76] Creating layer inception_4c/relu_3x3
I1124 22:51:50.289541 14803 net.cpp:106] Creating Layer inception_4c/relu_3x3
I1124 22:51:50.289544 14803 net.cpp:454] inception_4c/relu_3x3 <- inception_4c/3x3
I1124 22:51:50.289549 14803 net.cpp:397] inception_4c/relu_3x3 -> inception_4c/3x3 (in-place)
I1124 22:51:50.289855 14803 net.cpp:150] Setting up inception_4c/relu_3x3
I1124 22:51:50.289870 14803 net.cpp:157] Top shape: 64 256 14 14 (3211264)
I1124 22:51:50.289873 14803 net.cpp:165] Memory required for data: 2793722628
I1124 22:51:50.289877 14803 layer_factory.hpp:76] Creating layer inception_4c/5x5_reduce
I1124 22:51:50.289886 14803 net.cpp:106] Creating Layer inception_4c/5x5_reduce
I1124 22:51:50.289891 14803 net.cpp:454] inception_4c/5x5_reduce <- inception_4b/output_inception_4b/output_0_split_2
I1124 22:51:50.289897 14803 net.cpp:411] inception_4c/5x5_reduce -> inception_4c/5x5_reduce
I1124 22:51:50.291030 14803 net.cpp:150] Setting up inception_4c/5x5_reduce
I1124 22:51:50.291045 14803 net.cpp:157] Top shape: 64 24 14 14 (301056)
I1124 22:51:50.291049 14803 net.cpp:165] Memory required for data: 2794926852
I1124 22:51:50.291054 14803 layer_factory.hpp:76] Creating layer inception_4c/relu_5x5_reduce
I1124 22:51:50.291060 14803 net.cpp:106] Creating Layer inception_4c/relu_5x5_reduce
I1124 22:51:50.291064 14803 net.cpp:454] inception_4c/relu_5x5_reduce <- inception_4c/5x5_reduce
I1124 22:51:50.291071 14803 net.cpp:397] inception_4c/relu_5x5_reduce -> inception_4c/5x5_reduce (in-place)
I1124 22:51:50.291265 14803 net.cpp:150] Setting up inception_4c/relu_5x5_reduce
I1124 22:51:50.291277 14803 net.cpp:157] Top shape: 64 24 14 14 (301056)
I1124 22:51:50.291281 14803 net.cpp:165] Memory required for data: 2796131076
I1124 22:51:50.291285 14803 layer_factory.hpp:76] Creating layer inception_4c/5x5
I1124 22:51:50.291293 14803 net.cpp:106] Creating Layer inception_4c/5x5
I1124 22:51:50.291298 14803 net.cpp:454] inception_4c/5x5 <- inception_4c/5x5_reduce
I1124 22:51:50.291304 14803 net.cpp:411] inception_4c/5x5 -> inception_4c/5x5
I1124 22:51:50.293041 14803 net.cpp:150] Setting up inception_4c/5x5
I1124 22:51:50.293056 14803 net.cpp:157] Top shape: 64 64 14 14 (802816)
I1124 22:51:50.293061 14803 net.cpp:165] Memory required for data: 2799342340
I1124 22:51:50.293066 14803 layer_factory.hpp:76] Creating layer inception_4c/relu_5x5
I1124 22:51:50.293073 14803 net.cpp:106] Creating Layer inception_4c/relu_5x5
I1124 22:51:50.293077 14803 net.cpp:454] inception_4c/relu_5x5 <- inception_4c/5x5
I1124 22:51:50.293084 14803 net.cpp:397] inception_4c/relu_5x5 -> inception_4c/5x5 (in-place)
I1124 22:51:50.293401 14803 net.cpp:150] Setting up inception_4c/relu_5x5
I1124 22:51:50.293414 14803 net.cpp:157] Top shape: 64 64 14 14 (802816)
I1124 22:51:50.293417 14803 net.cpp:165] Memory required for data: 2802553604
I1124 22:51:50.293421 14803 layer_factory.hpp:76] Creating layer inception_4c/pool
I1124 22:51:50.293427 14803 net.cpp:106] Creating Layer inception_4c/pool
I1124 22:51:50.293431 14803 net.cpp:454] inception_4c/pool <- inception_4b/output_inception_4b/output_0_split_3
I1124 22:51:50.293437 14803 net.cpp:411] inception_4c/pool -> inception_4c/pool
I1124 22:51:50.293642 14803 net.cpp:150] Setting up inception_4c/pool
I1124 22:51:50.293653 14803 net.cpp:157] Top shape: 64 512 14 14 (6422528)
I1124 22:51:50.293656 14803 net.cpp:165] Memory required for data: 2828243716
I1124 22:51:50.293660 14803 layer_factory.hpp:76] Creating layer inception_4c/pool_proj
I1124 22:51:50.293669 14803 net.cpp:106] Creating Layer inception_4c/pool_proj
I1124 22:51:50.293676 14803 net.cpp:454] inception_4c/pool_proj <- inception_4c/pool
I1124 22:51:50.293684 14803 net.cpp:411] inception_4c/pool_proj -> inception_4c/pool_proj
I1124 22:51:50.295070 14803 net.cpp:150] Setting up inception_4c/pool_proj
I1124 22:51:50.295085 14803 net.cpp:157] Top shape: 64 64 14 14 (802816)
I1124 22:51:50.295089 14803 net.cpp:165] Memory required for data: 2831454980
I1124 22:51:50.295095 14803 layer_factory.hpp:76] Creating layer inception_4c/relu_pool_proj
I1124 22:51:50.295101 14803 net.cpp:106] Creating Layer inception_4c/relu_pool_proj
I1124 22:51:50.295106 14803 net.cpp:454] inception_4c/relu_pool_proj <- inception_4c/pool_proj
I1124 22:51:50.295112 14803 net.cpp:397] inception_4c/relu_pool_proj -> inception_4c/pool_proj (in-place)
I1124 22:51:50.295423 14803 net.cpp:150] Setting up inception_4c/relu_pool_proj
I1124 22:51:50.295438 14803 net.cpp:157] Top shape: 64 64 14 14 (802816)
I1124 22:51:50.295440 14803 net.cpp:165] Memory required for data: 2834666244
I1124 22:51:50.295444 14803 layer_factory.hpp:76] Creating layer inception_4c/output
I1124 22:51:50.295449 14803 net.cpp:106] Creating Layer inception_4c/output
I1124 22:51:50.295454 14803 net.cpp:454] inception_4c/output <- inception_4c/1x1
I1124 22:51:50.295460 14803 net.cpp:454] inception_4c/output <- inception_4c/3x3
I1124 22:51:50.295464 14803 net.cpp:454] inception_4c/output <- inception_4c/5x5
I1124 22:51:50.295467 14803 net.cpp:454] inception_4c/output <- inception_4c/pool_proj
I1124 22:51:50.295472 14803 net.cpp:411] inception_4c/output -> inception_4c/output
I1124 22:51:50.295508 14803 net.cpp:150] Setting up inception_4c/output
I1124 22:51:50.295516 14803 net.cpp:157] Top shape: 64 512 14 14 (6422528)
I1124 22:51:50.295519 14803 net.cpp:165] Memory required for data: 2860356356
I1124 22:51:50.295522 14803 layer_factory.hpp:76] Creating layer inception_4c/output_inception_4c/output_0_split
I1124 22:51:50.295527 14803 net.cpp:106] Creating Layer inception_4c/output_inception_4c/output_0_split
I1124 22:51:50.295531 14803 net.cpp:454] inception_4c/output_inception_4c/output_0_split <- inception_4c/output
I1124 22:51:50.295536 14803 net.cpp:411] inception_4c/output_inception_4c/output_0_split -> inception_4c/output_inception_4c/output_0_split_0
I1124 22:51:50.295547 14803 net.cpp:411] inception_4c/output_inception_4c/output_0_split -> inception_4c/output_inception_4c/output_0_split_1
I1124 22:51:50.295554 14803 net.cpp:411] inception_4c/output_inception_4c/output_0_split -> inception_4c/output_inception_4c/output_0_split_2
I1124 22:51:50.295559 14803 net.cpp:411] inception_4c/output_inception_4c/output_0_split -> inception_4c/output_inception_4c/output_0_split_3
I1124 22:51:50.295630 14803 net.cpp:150] Setting up inception_4c/output_inception_4c/output_0_split
I1124 22:51:50.295639 14803 net.cpp:157] Top shape: 64 512 14 14 (6422528)
I1124 22:51:50.295642 14803 net.cpp:157] Top shape: 64 512 14 14 (6422528)
I1124 22:51:50.295645 14803 net.cpp:157] Top shape: 64 512 14 14 (6422528)
I1124 22:51:50.295650 14803 net.cpp:157] Top shape: 64 512 14 14 (6422528)
I1124 22:51:50.295652 14803 net.cpp:165] Memory required for data: 2963116804
I1124 22:51:50.295655 14803 layer_factory.hpp:76] Creating layer inception_4d/1x1
I1124 22:51:50.295663 14803 net.cpp:106] Creating Layer inception_4d/1x1
I1124 22:51:50.295670 14803 net.cpp:454] inception_4d/1x1 <- inception_4c/output_inception_4c/output_0_split_0
I1124 22:51:50.295675 14803 net.cpp:411] inception_4d/1x1 -> inception_4d/1x1
I1124 22:51:50.296957 14803 net.cpp:150] Setting up inception_4d/1x1
I1124 22:51:50.296970 14803 net.cpp:157] Top shape: 64 112 14 14 (1404928)
I1124 22:51:50.296974 14803 net.cpp:165] Memory required for data: 2968736516
I1124 22:51:50.296980 14803 layer_factory.hpp:76] Creating layer inception_4d/relu_1x1
I1124 22:51:50.296986 14803 net.cpp:106] Creating Layer inception_4d/relu_1x1
I1124 22:51:50.296990 14803 net.cpp:454] inception_4d/relu_1x1 <- inception_4d/1x1
I1124 22:51:50.296998 14803 net.cpp:397] inception_4d/relu_1x1 -> inception_4d/1x1 (in-place)
I1124 22:51:50.297319 14803 net.cpp:150] Setting up inception_4d/relu_1x1
I1124 22:51:50.297333 14803 net.cpp:157] Top shape: 64 112 14 14 (1404928)
I1124 22:51:50.297336 14803 net.cpp:165] Memory required for data: 2974356228
I1124 22:51:50.297340 14803 layer_factory.hpp:76] Creating layer inception_4d/3x3_reduce
I1124 22:51:50.297349 14803 net.cpp:106] Creating Layer inception_4d/3x3_reduce
I1124 22:51:50.297353 14803 net.cpp:454] inception_4d/3x3_reduce <- inception_4c/output_inception_4c/output_0_split_1
I1124 22:51:50.297360 14803 net.cpp:411] inception_4d/3x3_reduce -> inception_4d/3x3_reduce
I1124 22:51:50.299217 14803 net.cpp:150] Setting up inception_4d/3x3_reduce
I1124 22:51:50.299232 14803 net.cpp:157] Top shape: 64 144 14 14 (1806336)
I1124 22:51:50.299237 14803 net.cpp:165] Memory required for data: 2981581572
I1124 22:51:50.299242 14803 layer_factory.hpp:76] Creating layer inception_4d/relu_3x3_reduce
I1124 22:51:50.299248 14803 net.cpp:106] Creating Layer inception_4d/relu_3x3_reduce
I1124 22:51:50.299252 14803 net.cpp:454] inception_4d/relu_3x3_reduce <- inception_4d/3x3_reduce
I1124 22:51:50.299258 14803 net.cpp:397] inception_4d/relu_3x3_reduce -> inception_4d/3x3_reduce (in-place)
I1124 22:51:50.299435 14803 net.cpp:150] Setting up inception_4d/relu_3x3_reduce
I1124 22:51:50.299446 14803 net.cpp:157] Top shape: 64 144 14 14 (1806336)
I1124 22:51:50.299450 14803 net.cpp:165] Memory required for data: 2988806916
I1124 22:51:50.299453 14803 layer_factory.hpp:76] Creating layer inception_4d/3x3
I1124 22:51:50.299463 14803 net.cpp:106] Creating Layer inception_4d/3x3
I1124 22:51:50.299468 14803 net.cpp:454] inception_4d/3x3 <- inception_4d/3x3_reduce
I1124 22:51:50.299474 14803 net.cpp:411] inception_4d/3x3 -> inception_4d/3x3
I1124 22:51:50.303469 14803 net.cpp:150] Setting up inception_4d/3x3
I1124 22:51:50.303485 14803 net.cpp:157] Top shape: 64 288 14 14 (3612672)
I1124 22:51:50.303489 14803 net.cpp:165] Memory required for data: 3003257604
I1124 22:51:50.303495 14803 layer_factory.hpp:76] Creating layer inception_4d/relu_3x3
I1124 22:51:50.303503 14803 net.cpp:106] Creating Layer inception_4d/relu_3x3
I1124 22:51:50.303508 14803 net.cpp:454] inception_4d/relu_3x3 <- inception_4d/3x3
I1124 22:51:50.303513 14803 net.cpp:397] inception_4d/relu_3x3 -> inception_4d/3x3 (in-place)
I1124 22:51:50.303830 14803 net.cpp:150] Setting up inception_4d/relu_3x3
I1124 22:51:50.303846 14803 net.cpp:157] Top shape: 64 288 14 14 (3612672)
I1124 22:51:50.303849 14803 net.cpp:165] Memory required for data: 3017708292
I1124 22:51:50.303853 14803 layer_factory.hpp:76] Creating layer inception_4d/5x5_reduce
I1124 22:51:50.303861 14803 net.cpp:106] Creating Layer inception_4d/5x5_reduce
I1124 22:51:50.303865 14803 net.cpp:454] inception_4d/5x5_reduce <- inception_4c/output_inception_4c/output_0_split_2
I1124 22:51:50.303874 14803 net.cpp:411] inception_4d/5x5_reduce -> inception_4d/5x5_reduce
I1124 22:51:50.304918 14803 net.cpp:150] Setting up inception_4d/5x5_reduce
I1124 22:51:50.304934 14803 net.cpp:157] Top shape: 64 32 14 14 (401408)
I1124 22:51:50.304937 14803 net.cpp:165] Memory required for data: 3019313924
I1124 22:51:50.304944 14803 layer_factory.hpp:76] Creating layer inception_4d/relu_5x5_reduce
I1124 22:51:50.304949 14803 net.cpp:106] Creating Layer inception_4d/relu_5x5_reduce
I1124 22:51:50.304954 14803 net.cpp:454] inception_4d/relu_5x5_reduce <- inception_4d/5x5_reduce
I1124 22:51:50.304958 14803 net.cpp:397] inception_4d/relu_5x5_reduce -> inception_4d/5x5_reduce (in-place)
I1124 22:51:50.305284 14803 net.cpp:150] Setting up inception_4d/relu_5x5_reduce
I1124 22:51:50.305299 14803 net.cpp:157] Top shape: 64 32 14 14 (401408)
I1124 22:51:50.305301 14803 net.cpp:165] Memory required for data: 3020919556
I1124 22:51:50.305305 14803 layer_factory.hpp:76] Creating layer inception_4d/5x5
I1124 22:51:50.305312 14803 net.cpp:106] Creating Layer inception_4d/5x5
I1124 22:51:50.305316 14803 net.cpp:454] inception_4d/5x5 <- inception_4d/5x5_reduce
I1124 22:51:50.305323 14803 net.cpp:411] inception_4d/5x5 -> inception_4d/5x5
I1124 22:51:50.306857 14803 net.cpp:150] Setting up inception_4d/5x5
I1124 22:51:50.306872 14803 net.cpp:157] Top shape: 64 64 14 14 (802816)
I1124 22:51:50.306876 14803 net.cpp:165] Memory required for data: 3024130820
I1124 22:51:50.306882 14803 layer_factory.hpp:76] Creating layer inception_4d/relu_5x5
I1124 22:51:50.306890 14803 net.cpp:106] Creating Layer inception_4d/relu_5x5
I1124 22:51:50.306895 14803 net.cpp:454] inception_4d/relu_5x5 <- inception_4d/5x5
I1124 22:51:50.306900 14803 net.cpp:397] inception_4d/relu_5x5 -> inception_4d/5x5 (in-place)
I1124 22:51:50.307080 14803 net.cpp:150] Setting up inception_4d/relu_5x5
I1124 22:51:50.307090 14803 net.cpp:157] Top shape: 64 64 14 14 (802816)
I1124 22:51:50.307092 14803 net.cpp:165] Memory required for data: 3027342084
I1124 22:51:50.307096 14803 layer_factory.hpp:76] Creating layer inception_4d/pool
I1124 22:51:50.307103 14803 net.cpp:106] Creating Layer inception_4d/pool
I1124 22:51:50.307111 14803 net.cpp:454] inception_4d/pool <- inception_4c/output_inception_4c/output_0_split_3
I1124 22:51:50.307116 14803 net.cpp:411] inception_4d/pool -> inception_4d/pool
I1124 22:51:50.307478 14803 net.cpp:150] Setting up inception_4d/pool
I1124 22:51:50.307492 14803 net.cpp:157] Top shape: 64 512 14 14 (6422528)
I1124 22:51:50.307495 14803 net.cpp:165] Memory required for data: 3053032196
I1124 22:51:50.307498 14803 layer_factory.hpp:76] Creating layer inception_4d/pool_proj
I1124 22:51:50.307507 14803 net.cpp:106] Creating Layer inception_4d/pool_proj
I1124 22:51:50.307512 14803 net.cpp:454] inception_4d/pool_proj <- inception_4d/pool
I1124 22:51:50.307519 14803 net.cpp:411] inception_4d/pool_proj -> inception_4d/pool_proj
I1124 22:51:50.308800 14803 net.cpp:150] Setting up inception_4d/pool_proj
I1124 22:51:50.308816 14803 net.cpp:157] Top shape: 64 64 14 14 (802816)
I1124 22:51:50.308820 14803 net.cpp:165] Memory required for data: 3056243460
I1124 22:51:50.308826 14803 layer_factory.hpp:76] Creating layer inception_4d/relu_pool_proj
I1124 22:51:50.308832 14803 net.cpp:106] Creating Layer inception_4d/relu_pool_proj
I1124 22:51:50.308836 14803 net.cpp:454] inception_4d/relu_pool_proj <- inception_4d/pool_proj
I1124 22:51:50.308842 14803 net.cpp:397] inception_4d/relu_pool_proj -> inception_4d/pool_proj (in-place)
I1124 22:51:50.309025 14803 net.cpp:150] Setting up inception_4d/relu_pool_proj
I1124 22:51:50.309034 14803 net.cpp:157] Top shape: 64 64 14 14 (802816)
I1124 22:51:50.309038 14803 net.cpp:165] Memory required for data: 3059454724
I1124 22:51:50.309041 14803 layer_factory.hpp:76] Creating layer inception_4d/output
I1124 22:51:50.309047 14803 net.cpp:106] Creating Layer inception_4d/output
I1124 22:51:50.309051 14803 net.cpp:454] inception_4d/output <- inception_4d/1x1
I1124 22:51:50.309056 14803 net.cpp:454] inception_4d/output <- inception_4d/3x3
I1124 22:51:50.309059 14803 net.cpp:454] inception_4d/output <- inception_4d/5x5
I1124 22:51:50.309062 14803 net.cpp:454] inception_4d/output <- inception_4d/pool_proj
I1124 22:51:50.309068 14803 net.cpp:411] inception_4d/output -> inception_4d/output
I1124 22:51:50.309103 14803 net.cpp:150] Setting up inception_4d/output
I1124 22:51:50.309108 14803 net.cpp:157] Top shape: 64 528 14 14 (6623232)
I1124 22:51:50.309110 14803 net.cpp:165] Memory required for data: 3085947652
I1124 22:51:50.309114 14803 layer_factory.hpp:76] Creating layer inception_4d/output_inception_4d/output_0_split
I1124 22:51:50.309121 14803 net.cpp:106] Creating Layer inception_4d/output_inception_4d/output_0_split
I1124 22:51:50.309125 14803 net.cpp:454] inception_4d/output_inception_4d/output_0_split <- inception_4d/output
I1124 22:51:50.309130 14803 net.cpp:411] inception_4d/output_inception_4d/output_0_split -> inception_4d/output_inception_4d/output_0_split_0
I1124 22:51:50.309137 14803 net.cpp:411] inception_4d/output_inception_4d/output_0_split -> inception_4d/output_inception_4d/output_0_split_1
I1124 22:51:50.309144 14803 net.cpp:411] inception_4d/output_inception_4d/output_0_split -> inception_4d/output_inception_4d/output_0_split_2
I1124 22:51:50.309149 14803 net.cpp:411] inception_4d/output_inception_4d/output_0_split -> inception_4d/output_inception_4d/output_0_split_3
I1124 22:51:50.309154 14803 net.cpp:411] inception_4d/output_inception_4d/output_0_split -> inception_4d/output_inception_4d/output_0_split_4
I1124 22:51:50.309236 14803 net.cpp:150] Setting up inception_4d/output_inception_4d/output_0_split
I1124 22:51:50.309243 14803 net.cpp:157] Top shape: 64 528 14 14 (6623232)
I1124 22:51:50.309247 14803 net.cpp:157] Top shape: 64 528 14 14 (6623232)
I1124 22:51:50.309252 14803 net.cpp:157] Top shape: 64 528 14 14 (6623232)
I1124 22:51:50.309254 14803 net.cpp:157] Top shape: 64 528 14 14 (6623232)
I1124 22:51:50.309257 14803 net.cpp:157] Top shape: 64 528 14 14 (6623232)
I1124 22:51:50.309260 14803 net.cpp:165] Memory required for data: 3218412292
I1124 22:51:50.309263 14803 layer_factory.hpp:76] Creating layer loss2/ave_pool
I1124 22:51:50.309270 14803 net.cpp:106] Creating Layer loss2/ave_pool
I1124 22:51:50.309274 14803 net.cpp:454] loss2/ave_pool <- inception_4d/output_inception_4d/output_0_split_0
I1124 22:51:50.309279 14803 net.cpp:411] loss2/ave_pool -> loss2/ave_pool
I1124 22:51:50.309635 14803 net.cpp:150] Setting up loss2/ave_pool
I1124 22:51:50.309650 14803 net.cpp:157] Top shape: 64 528 4 4 (540672)
I1124 22:51:50.309653 14803 net.cpp:165] Memory required for data: 3220574980
I1124 22:51:50.309658 14803 layer_factory.hpp:76] Creating layer loss2/conv
I1124 22:51:50.309665 14803 net.cpp:106] Creating Layer loss2/conv
I1124 22:51:50.309669 14803 net.cpp:454] loss2/conv <- loss2/ave_pool
I1124 22:51:50.309676 14803 net.cpp:411] loss2/conv -> loss2/conv
I1124 22:51:50.311503 14803 net.cpp:150] Setting up loss2/conv
I1124 22:51:50.311519 14803 net.cpp:157] Top shape: 64 128 4 4 (131072)
I1124 22:51:50.311523 14803 net.cpp:165] Memory required for data: 3221099268
I1124 22:51:50.311530 14803 layer_factory.hpp:76] Creating layer loss2/relu_conv
I1124 22:51:50.311537 14803 net.cpp:106] Creating Layer loss2/relu_conv
I1124 22:51:50.311540 14803 net.cpp:454] loss2/relu_conv <- loss2/conv
I1124 22:51:50.311547 14803 net.cpp:397] loss2/relu_conv -> loss2/conv (in-place)
I1124 22:51:50.312003 14803 net.cpp:150] Setting up loss2/relu_conv
I1124 22:51:50.312017 14803 net.cpp:157] Top shape: 64 128 4 4 (131072)
I1124 22:51:50.312021 14803 net.cpp:165] Memory required for data: 3221623556
I1124 22:51:50.312024 14803 layer_factory.hpp:76] Creating layer loss2/fc
I1124 22:51:50.312033 14803 net.cpp:106] Creating Layer loss2/fc
I1124 22:51:50.312038 14803 net.cpp:454] loss2/fc <- loss2/conv
I1124 22:51:50.312043 14803 net.cpp:411] loss2/fc -> loss2/fc
I1124 22:51:50.327736 14803 net.cpp:150] Setting up loss2/fc
I1124 22:51:50.327752 14803 net.cpp:157] Top shape: 64 1024 (65536)
I1124 22:51:50.327755 14803 net.cpp:165] Memory required for data: 3221885700
I1124 22:51:50.327761 14803 layer_factory.hpp:76] Creating layer loss2/relu_fc
I1124 22:51:50.327767 14803 net.cpp:106] Creating Layer loss2/relu_fc
I1124 22:51:50.327772 14803 net.cpp:454] loss2/relu_fc <- loss2/fc
I1124 22:51:50.327776 14803 net.cpp:397] loss2/relu_fc -> loss2/fc (in-place)
I1124 22:51:50.327976 14803 net.cpp:150] Setting up loss2/relu_fc
I1124 22:51:50.327988 14803 net.cpp:157] Top shape: 64 1024 (65536)
I1124 22:51:50.327991 14803 net.cpp:165] Memory required for data: 3222147844
I1124 22:51:50.327996 14803 layer_factory.hpp:76] Creating layer loss2/drop_fc
I1124 22:51:50.328001 14803 net.cpp:106] Creating Layer loss2/drop_fc
I1124 22:51:50.328006 14803 net.cpp:454] loss2/drop_fc <- loss2/fc
I1124 22:51:50.328011 14803 net.cpp:397] loss2/drop_fc -> loss2/fc (in-place)
I1124 22:51:50.328050 14803 net.cpp:150] Setting up loss2/drop_fc
I1124 22:51:50.328058 14803 net.cpp:157] Top shape: 64 1024 (65536)
I1124 22:51:50.328061 14803 net.cpp:165] Memory required for data: 3222409988
I1124 22:51:50.328063 14803 layer_factory.hpp:76] Creating layer loss2/classifier-attribute
I1124 22:51:50.328070 14803 net.cpp:106] Creating Layer loss2/classifier-attribute
I1124 22:51:50.328073 14803 net.cpp:454] loss2/classifier-attribute <- loss2/fc
I1124 22:51:50.328080 14803 net.cpp:411] loss2/classifier-attribute -> loss2/classifier-attribute
I1124 22:51:50.328323 14803 net.cpp:150] Setting up loss2/classifier-attribute
I1124 22:51:50.328332 14803 net.cpp:157] Top shape: 64 15 (960)
I1124 22:51:50.328336 14803 net.cpp:165] Memory required for data: 3222413828
I1124 22:51:50.328341 14803 layer_factory.hpp:76] Creating layer loss2/loss
I1124 22:51:50.328348 14803 net.cpp:106] Creating Layer loss2/loss
I1124 22:51:50.328352 14803 net.cpp:454] loss2/loss <- loss2/classifier-attribute
I1124 22:51:50.328356 14803 net.cpp:454] loss2/loss <- label_data_1_split_1
I1124 22:51:50.328361 14803 net.cpp:411] loss2/loss -> loss2/loss1
I1124 22:51:50.328369 14803 layer_factory.hpp:76] Creating layer loss2/loss
I1124 22:51:50.328795 14803 net.cpp:150] Setting up loss2/loss
I1124 22:51:50.328809 14803 net.cpp:157] Top shape: (1)
I1124 22:51:50.328812 14803 net.cpp:160]     with loss weight 0.3
I1124 22:51:50.328822 14803 net.cpp:165] Memory required for data: 3222413832
I1124 22:51:50.328826 14803 layer_factory.hpp:76] Creating layer inception_4e/1x1
I1124 22:51:50.328836 14803 net.cpp:106] Creating Layer inception_4e/1x1
I1124 22:51:50.328840 14803 net.cpp:454] inception_4e/1x1 <- inception_4d/output_inception_4d/output_0_split_1
I1124 22:51:50.328848 14803 net.cpp:411] inception_4e/1x1 -> inception_4e/1x1
I1124 22:51:50.330788 14803 net.cpp:150] Setting up inception_4e/1x1
I1124 22:51:50.330814 14803 net.cpp:157] Top shape: 64 256 14 14 (3211264)
I1124 22:51:50.330818 14803 net.cpp:165] Memory required for data: 3235258888
I1124 22:51:50.330826 14803 layer_factory.hpp:76] Creating layer inception_4e/relu_1x1
I1124 22:51:50.330832 14803 net.cpp:106] Creating Layer inception_4e/relu_1x1
I1124 22:51:50.330837 14803 net.cpp:454] inception_4e/relu_1x1 <- inception_4e/1x1
I1124 22:51:50.330842 14803 net.cpp:397] inception_4e/relu_1x1 -> inception_4e/1x1 (in-place)
I1124 22:51:50.331025 14803 net.cpp:150] Setting up inception_4e/relu_1x1
I1124 22:51:50.331037 14803 net.cpp:157] Top shape: 64 256 14 14 (3211264)
I1124 22:51:50.331040 14803 net.cpp:165] Memory required for data: 3248103944
I1124 22:51:50.331043 14803 layer_factory.hpp:76] Creating layer inception_4e/3x3_reduce
I1124 22:51:50.331054 14803 net.cpp:106] Creating Layer inception_4e/3x3_reduce
I1124 22:51:50.331061 14803 net.cpp:454] inception_4e/3x3_reduce <- inception_4d/output_inception_4d/output_0_split_2
I1124 22:51:50.331068 14803 net.cpp:411] inception_4e/3x3_reduce -> inception_4e/3x3_reduce
I1124 22:51:50.333134 14803 net.cpp:150] Setting up inception_4e/3x3_reduce
I1124 22:51:50.333149 14803 net.cpp:157] Top shape: 64 160 14 14 (2007040)
I1124 22:51:50.333153 14803 net.cpp:165] Memory required for data: 3256132104
I1124 22:51:50.333159 14803 layer_factory.hpp:76] Creating layer inception_4e/relu_3x3_reduce
I1124 22:51:50.333168 14803 net.cpp:106] Creating Layer inception_4e/relu_3x3_reduce
I1124 22:51:50.333171 14803 net.cpp:454] inception_4e/relu_3x3_reduce <- inception_4e/3x3_reduce
I1124 22:51:50.333178 14803 net.cpp:397] inception_4e/relu_3x3_reduce -> inception_4e/3x3_reduce (in-place)
I1124 22:51:50.333497 14803 net.cpp:150] Setting up inception_4e/relu_3x3_reduce
I1124 22:51:50.333510 14803 net.cpp:157] Top shape: 64 160 14 14 (2007040)
I1124 22:51:50.333514 14803 net.cpp:165] Memory required for data: 3264160264
I1124 22:51:50.333518 14803 layer_factory.hpp:76] Creating layer inception_4e/3x3
I1124 22:51:50.333528 14803 net.cpp:106] Creating Layer inception_4e/3x3
I1124 22:51:50.333533 14803 net.cpp:454] inception_4e/3x3 <- inception_4e/3x3_reduce
I1124 22:51:50.333539 14803 net.cpp:411] inception_4e/3x3 -> inception_4e/3x3
I1124 22:51:50.338037 14803 net.cpp:150] Setting up inception_4e/3x3
I1124 22:51:50.338053 14803 net.cpp:157] Top shape: 64 320 14 14 (4014080)
I1124 22:51:50.338057 14803 net.cpp:165] Memory required for data: 3280216584
I1124 22:51:50.338063 14803 layer_factory.hpp:76] Creating layer inception_4e/relu_3x3
I1124 22:51:50.338069 14803 net.cpp:106] Creating Layer inception_4e/relu_3x3
I1124 22:51:50.338073 14803 net.cpp:454] inception_4e/relu_3x3 <- inception_4e/3x3
I1124 22:51:50.338078 14803 net.cpp:397] inception_4e/relu_3x3 -> inception_4e/3x3 (in-place)
I1124 22:51:50.338399 14803 net.cpp:150] Setting up inception_4e/relu_3x3
I1124 22:51:50.338414 14803 net.cpp:157] Top shape: 64 320 14 14 (4014080)
I1124 22:51:50.338418 14803 net.cpp:165] Memory required for data: 3296272904
I1124 22:51:50.338421 14803 layer_factory.hpp:76] Creating layer inception_4e/5x5_reduce
I1124 22:51:50.338429 14803 net.cpp:106] Creating Layer inception_4e/5x5_reduce
I1124 22:51:50.338433 14803 net.cpp:454] inception_4e/5x5_reduce <- inception_4d/output_inception_4d/output_0_split_3
I1124 22:51:50.338443 14803 net.cpp:411] inception_4e/5x5_reduce -> inception_4e/5x5_reduce
I1124 22:51:50.339669 14803 net.cpp:150] Setting up inception_4e/5x5_reduce
I1124 22:51:50.339684 14803 net.cpp:157] Top shape: 64 32 14 14 (401408)
I1124 22:51:50.339687 14803 net.cpp:165] Memory required for data: 3297878536
I1124 22:51:50.339694 14803 layer_factory.hpp:76] Creating layer inception_4e/relu_5x5_reduce
I1124 22:51:50.339701 14803 net.cpp:106] Creating Layer inception_4e/relu_5x5_reduce
I1124 22:51:50.339706 14803 net.cpp:454] inception_4e/relu_5x5_reduce <- inception_4e/5x5_reduce
I1124 22:51:50.339712 14803 net.cpp:397] inception_4e/relu_5x5_reduce -> inception_4e/5x5_reduce (in-place)
I1124 22:51:50.339893 14803 net.cpp:150] Setting up inception_4e/relu_5x5_reduce
I1124 22:51:50.339905 14803 net.cpp:157] Top shape: 64 32 14 14 (401408)
I1124 22:51:50.339907 14803 net.cpp:165] Memory required for data: 3299484168
I1124 22:51:50.339911 14803 layer_factory.hpp:76] Creating layer inception_4e/5x5
I1124 22:51:50.339933 14803 net.cpp:106] Creating Layer inception_4e/5x5
I1124 22:51:50.339938 14803 net.cpp:454] inception_4e/5x5 <- inception_4e/5x5_reduce
I1124 22:51:50.339946 14803 net.cpp:411] inception_4e/5x5 -> inception_4e/5x5
I1124 22:51:50.341683 14803 net.cpp:150] Setting up inception_4e/5x5
I1124 22:51:50.341698 14803 net.cpp:157] Top shape: 64 128 14 14 (1605632)
I1124 22:51:50.341702 14803 net.cpp:165] Memory required for data: 3305906696
I1124 22:51:50.341709 14803 layer_factory.hpp:76] Creating layer inception_4e/relu_5x5
I1124 22:51:50.341714 14803 net.cpp:106] Creating Layer inception_4e/relu_5x5
I1124 22:51:50.341719 14803 net.cpp:454] inception_4e/relu_5x5 <- inception_4e/5x5
I1124 22:51:50.341725 14803 net.cpp:397] inception_4e/relu_5x5 -> inception_4e/5x5 (in-place)
I1124 22:51:50.342046 14803 net.cpp:150] Setting up inception_4e/relu_5x5
I1124 22:51:50.342061 14803 net.cpp:157] Top shape: 64 128 14 14 (1605632)
I1124 22:51:50.342063 14803 net.cpp:165] Memory required for data: 3312329224
I1124 22:51:50.342067 14803 layer_factory.hpp:76] Creating layer inception_4e/pool
I1124 22:51:50.342075 14803 net.cpp:106] Creating Layer inception_4e/pool
I1124 22:51:50.342080 14803 net.cpp:454] inception_4e/pool <- inception_4d/output_inception_4d/output_0_split_4
I1124 22:51:50.342085 14803 net.cpp:411] inception_4e/pool -> inception_4e/pool
I1124 22:51:50.342304 14803 net.cpp:150] Setting up inception_4e/pool
I1124 22:51:50.342315 14803 net.cpp:157] Top shape: 64 528 14 14 (6623232)
I1124 22:51:50.342319 14803 net.cpp:165] Memory required for data: 3338822152
I1124 22:51:50.342321 14803 layer_factory.hpp:76] Creating layer inception_4e/pool_proj
I1124 22:51:50.342334 14803 net.cpp:106] Creating Layer inception_4e/pool_proj
I1124 22:51:50.342339 14803 net.cpp:454] inception_4e/pool_proj <- inception_4e/pool
I1124 22:51:50.342345 14803 net.cpp:411] inception_4e/pool_proj -> inception_4e/pool_proj
I1124 22:51:50.343880 14803 net.cpp:150] Setting up inception_4e/pool_proj
I1124 22:51:50.343895 14803 net.cpp:157] Top shape: 64 128 14 14 (1605632)
I1124 22:51:50.343899 14803 net.cpp:165] Memory required for data: 3345244680
I1124 22:51:50.343905 14803 layer_factory.hpp:76] Creating layer inception_4e/relu_pool_proj
I1124 22:51:50.343912 14803 net.cpp:106] Creating Layer inception_4e/relu_pool_proj
I1124 22:51:50.343917 14803 net.cpp:454] inception_4e/relu_pool_proj <- inception_4e/pool_proj
I1124 22:51:50.343922 14803 net.cpp:397] inception_4e/relu_pool_proj -> inception_4e/pool_proj (in-place)
I1124 22:51:50.344246 14803 net.cpp:150] Setting up inception_4e/relu_pool_proj
I1124 22:51:50.344260 14803 net.cpp:157] Top shape: 64 128 14 14 (1605632)
I1124 22:51:50.344264 14803 net.cpp:165] Memory required for data: 3351667208
I1124 22:51:50.344267 14803 layer_factory.hpp:76] Creating layer inception_4e/output
I1124 22:51:50.344275 14803 net.cpp:106] Creating Layer inception_4e/output
I1124 22:51:50.344280 14803 net.cpp:454] inception_4e/output <- inception_4e/1x1
I1124 22:51:50.344285 14803 net.cpp:454] inception_4e/output <- inception_4e/3x3
I1124 22:51:50.344287 14803 net.cpp:454] inception_4e/output <- inception_4e/5x5
I1124 22:51:50.344291 14803 net.cpp:454] inception_4e/output <- inception_4e/pool_proj
I1124 22:51:50.344295 14803 net.cpp:411] inception_4e/output -> inception_4e/output
I1124 22:51:50.344334 14803 net.cpp:150] Setting up inception_4e/output
I1124 22:51:50.344342 14803 net.cpp:157] Top shape: 64 832 14 14 (10436608)
I1124 22:51:50.344346 14803 net.cpp:165] Memory required for data: 3393413640
I1124 22:51:50.344348 14803 layer_factory.hpp:76] Creating layer pool4/3x3_s2
I1124 22:51:50.344357 14803 net.cpp:106] Creating Layer pool4/3x3_s2
I1124 22:51:50.344360 14803 net.cpp:454] pool4/3x3_s2 <- inception_4e/output
I1124 22:51:50.344365 14803 net.cpp:411] pool4/3x3_s2 -> pool4/3x3_s2
I1124 22:51:50.344581 14803 net.cpp:150] Setting up pool4/3x3_s2
I1124 22:51:50.344593 14803 net.cpp:157] Top shape: 64 832 7 7 (2609152)
I1124 22:51:50.344595 14803 net.cpp:165] Memory required for data: 3403850248
I1124 22:51:50.344599 14803 layer_factory.hpp:76] Creating layer pool4/3x3_s2_pool4/3x3_s2_0_split
I1124 22:51:50.344604 14803 net.cpp:106] Creating Layer pool4/3x3_s2_pool4/3x3_s2_0_split
I1124 22:51:50.344609 14803 net.cpp:454] pool4/3x3_s2_pool4/3x3_s2_0_split <- pool4/3x3_s2
I1124 22:51:50.344614 14803 net.cpp:411] pool4/3x3_s2_pool4/3x3_s2_0_split -> pool4/3x3_s2_pool4/3x3_s2_0_split_0
I1124 22:51:50.344620 14803 net.cpp:411] pool4/3x3_s2_pool4/3x3_s2_0_split -> pool4/3x3_s2_pool4/3x3_s2_0_split_1
I1124 22:51:50.344626 14803 net.cpp:411] pool4/3x3_s2_pool4/3x3_s2_0_split -> pool4/3x3_s2_pool4/3x3_s2_0_split_2
I1124 22:51:50.344631 14803 net.cpp:411] pool4/3x3_s2_pool4/3x3_s2_0_split -> pool4/3x3_s2_pool4/3x3_s2_0_split_3
I1124 22:51:50.344704 14803 net.cpp:150] Setting up pool4/3x3_s2_pool4/3x3_s2_0_split
I1124 22:51:50.344712 14803 net.cpp:157] Top shape: 64 832 7 7 (2609152)
I1124 22:51:50.344717 14803 net.cpp:157] Top shape: 64 832 7 7 (2609152)
I1124 22:51:50.344719 14803 net.cpp:157] Top shape: 64 832 7 7 (2609152)
I1124 22:51:50.344723 14803 net.cpp:157] Top shape: 64 832 7 7 (2609152)
I1124 22:51:50.344727 14803 net.cpp:165] Memory required for data: 3445596680
I1124 22:51:50.344729 14803 layer_factory.hpp:76] Creating layer inception_5a/1x1
I1124 22:51:50.344738 14803 net.cpp:106] Creating Layer inception_5a/1x1
I1124 22:51:50.344744 14803 net.cpp:454] inception_5a/1x1 <- pool4/3x3_s2_pool4/3x3_s2_0_split_0
I1124 22:51:50.344751 14803 net.cpp:411] inception_5a/1x1 -> inception_5a/1x1
I1124 22:51:50.347681 14803 net.cpp:150] Setting up inception_5a/1x1
I1124 22:51:50.347697 14803 net.cpp:157] Top shape: 64 256 7 7 (802816)
I1124 22:51:50.347699 14803 net.cpp:165] Memory required for data: 3448807944
I1124 22:51:50.347707 14803 layer_factory.hpp:76] Creating layer inception_5a/relu_1x1
I1124 22:51:50.347712 14803 net.cpp:106] Creating Layer inception_5a/relu_1x1
I1124 22:51:50.347717 14803 net.cpp:454] inception_5a/relu_1x1 <- inception_5a/1x1
I1124 22:51:50.347723 14803 net.cpp:397] inception_5a/relu_1x1 -> inception_5a/1x1 (in-place)
I1124 22:51:50.348037 14803 net.cpp:150] Setting up inception_5a/relu_1x1
I1124 22:51:50.348050 14803 net.cpp:157] Top shape: 64 256 7 7 (802816)
I1124 22:51:50.348054 14803 net.cpp:165] Memory required for data: 3452019208
I1124 22:51:50.348057 14803 layer_factory.hpp:76] Creating layer inception_5a/3x3_reduce
I1124 22:51:50.348067 14803 net.cpp:106] Creating Layer inception_5a/3x3_reduce
I1124 22:51:50.348073 14803 net.cpp:454] inception_5a/3x3_reduce <- pool4/3x3_s2_pool4/3x3_s2_0_split_1
I1124 22:51:50.348080 14803 net.cpp:411] inception_5a/3x3_reduce -> inception_5a/3x3_reduce
I1124 22:51:50.350474 14803 net.cpp:150] Setting up inception_5a/3x3_reduce
I1124 22:51:50.350488 14803 net.cpp:157] Top shape: 64 160 7 7 (501760)
I1124 22:51:50.350492 14803 net.cpp:165] Memory required for data: 3454026248
I1124 22:51:50.350498 14803 layer_factory.hpp:76] Creating layer inception_5a/relu_3x3_reduce
I1124 22:51:50.350504 14803 net.cpp:106] Creating Layer inception_5a/relu_3x3_reduce
I1124 22:51:50.350509 14803 net.cpp:454] inception_5a/relu_3x3_reduce <- inception_5a/3x3_reduce
I1124 22:51:50.350517 14803 net.cpp:397] inception_5a/relu_3x3_reduce -> inception_5a/3x3_reduce (in-place)
I1124 22:51:50.350865 14803 net.cpp:150] Setting up inception_5a/relu_3x3_reduce
I1124 22:51:50.350879 14803 net.cpp:157] Top shape: 64 160 7 7 (501760)
I1124 22:51:50.350883 14803 net.cpp:165] Memory required for data: 3456033288
I1124 22:51:50.350886 14803 layer_factory.hpp:76] Creating layer inception_5a/3x3
I1124 22:51:50.350896 14803 net.cpp:106] Creating Layer inception_5a/3x3
I1124 22:51:50.350901 14803 net.cpp:454] inception_5a/3x3 <- inception_5a/3x3_reduce
I1124 22:51:50.350908 14803 net.cpp:411] inception_5a/3x3 -> inception_5a/3x3
I1124 22:51:50.355581 14803 net.cpp:150] Setting up inception_5a/3x3
I1124 22:51:50.355597 14803 net.cpp:157] Top shape: 64 320 7 7 (1003520)
I1124 22:51:50.355600 14803 net.cpp:165] Memory required for data: 3460047368
I1124 22:51:50.355607 14803 layer_factory.hpp:76] Creating layer inception_5a/relu_3x3
I1124 22:51:50.355612 14803 net.cpp:106] Creating Layer inception_5a/relu_3x3
I1124 22:51:50.355617 14803 net.cpp:454] inception_5a/relu_3x3 <- inception_5a/3x3
I1124 22:51:50.355623 14803 net.cpp:397] inception_5a/relu_3x3 -> inception_5a/3x3 (in-place)
I1124 22:51:50.355808 14803 net.cpp:150] Setting up inception_5a/relu_3x3
I1124 22:51:50.355820 14803 net.cpp:157] Top shape: 64 320 7 7 (1003520)
I1124 22:51:50.355823 14803 net.cpp:165] Memory required for data: 3464061448
I1124 22:51:50.355828 14803 layer_factory.hpp:76] Creating layer inception_5a/5x5_reduce
I1124 22:51:50.355835 14803 net.cpp:106] Creating Layer inception_5a/5x5_reduce
I1124 22:51:50.355840 14803 net.cpp:454] inception_5a/5x5_reduce <- pool4/3x3_s2_pool4/3x3_s2_0_split_2
I1124 22:51:50.355849 14803 net.cpp:411] inception_5a/5x5_reduce -> inception_5a/5x5_reduce
I1124 22:51:50.357146 14803 net.cpp:150] Setting up inception_5a/5x5_reduce
I1124 22:51:50.357161 14803 net.cpp:157] Top shape: 64 32 7 7 (100352)
I1124 22:51:50.357164 14803 net.cpp:165] Memory required for data: 3464462856
I1124 22:51:50.357170 14803 layer_factory.hpp:76] Creating layer inception_5a/relu_5x5_reduce
I1124 22:51:50.357178 14803 net.cpp:106] Creating Layer inception_5a/relu_5x5_reduce
I1124 22:51:50.357183 14803 net.cpp:454] inception_5a/relu_5x5_reduce <- inception_5a/5x5_reduce
I1124 22:51:50.357190 14803 net.cpp:397] inception_5a/relu_5x5_reduce -> inception_5a/5x5_reduce (in-place)
I1124 22:51:50.357372 14803 net.cpp:150] Setting up inception_5a/relu_5x5_reduce
I1124 22:51:50.357383 14803 net.cpp:157] Top shape: 64 32 7 7 (100352)
I1124 22:51:50.357385 14803 net.cpp:165] Memory required for data: 3464864264
I1124 22:51:50.357389 14803 layer_factory.hpp:76] Creating layer inception_5a/5x5
I1124 22:51:50.357400 14803 net.cpp:106] Creating Layer inception_5a/5x5
I1124 22:51:50.357408 14803 net.cpp:454] inception_5a/5x5 <- inception_5a/5x5_reduce
I1124 22:51:50.357414 14803 net.cpp:411] inception_5a/5x5 -> inception_5a/5x5
I1124 22:51:50.359200 14803 net.cpp:150] Setting up inception_5a/5x5
I1124 22:51:50.359215 14803 net.cpp:157] Top shape: 64 128 7 7 (401408)
I1124 22:51:50.359218 14803 net.cpp:165] Memory required for data: 3466469896
I1124 22:51:50.359225 14803 layer_factory.hpp:76] Creating layer inception_5a/relu_5x5
I1124 22:51:50.359232 14803 net.cpp:106] Creating Layer inception_5a/relu_5x5
I1124 22:51:50.359237 14803 net.cpp:454] inception_5a/relu_5x5 <- inception_5a/5x5
I1124 22:51:50.359242 14803 net.cpp:397] inception_5a/relu_5x5 -> inception_5a/5x5 (in-place)
I1124 22:51:50.359572 14803 net.cpp:150] Setting up inception_5a/relu_5x5
I1124 22:51:50.359586 14803 net.cpp:157] Top shape: 64 128 7 7 (401408)
I1124 22:51:50.359590 14803 net.cpp:165] Memory required for data: 3468075528
I1124 22:51:50.359593 14803 layer_factory.hpp:76] Creating layer inception_5a/pool
I1124 22:51:50.359601 14803 net.cpp:106] Creating Layer inception_5a/pool
I1124 22:51:50.359606 14803 net.cpp:454] inception_5a/pool <- pool4/3x3_s2_pool4/3x3_s2_0_split_3
I1124 22:51:50.359612 14803 net.cpp:411] inception_5a/pool -> inception_5a/pool
I1124 22:51:50.359832 14803 net.cpp:150] Setting up inception_5a/pool
I1124 22:51:50.359843 14803 net.cpp:157] Top shape: 64 832 7 7 (2609152)
I1124 22:51:50.359846 14803 net.cpp:165] Memory required for data: 3478512136
I1124 22:51:50.359849 14803 layer_factory.hpp:76] Creating layer inception_5a/pool_proj
I1124 22:51:50.359858 14803 net.cpp:106] Creating Layer inception_5a/pool_proj
I1124 22:51:50.359863 14803 net.cpp:454] inception_5a/pool_proj <- inception_5a/pool
I1124 22:51:50.359870 14803 net.cpp:411] inception_5a/pool_proj -> inception_5a/pool_proj
I1124 22:51:50.362087 14803 net.cpp:150] Setting up inception_5a/pool_proj
I1124 22:51:50.362102 14803 net.cpp:157] Top shape: 64 128 7 7 (401408)
I1124 22:51:50.362105 14803 net.cpp:165] Memory required for data: 3480117768
I1124 22:51:50.362112 14803 layer_factory.hpp:76] Creating layer inception_5a/relu_pool_proj
I1124 22:51:50.362118 14803 net.cpp:106] Creating Layer inception_5a/relu_pool_proj
I1124 22:51:50.362121 14803 net.cpp:454] inception_5a/relu_pool_proj <- inception_5a/pool_proj
I1124 22:51:50.362128 14803 net.cpp:397] inception_5a/relu_pool_proj -> inception_5a/pool_proj (in-place)
I1124 22:51:50.362457 14803 net.cpp:150] Setting up inception_5a/relu_pool_proj
I1124 22:51:50.362469 14803 net.cpp:157] Top shape: 64 128 7 7 (401408)
I1124 22:51:50.362473 14803 net.cpp:165] Memory required for data: 3481723400
I1124 22:51:50.362476 14803 layer_factory.hpp:76] Creating layer inception_5a/output
I1124 22:51:50.362483 14803 net.cpp:106] Creating Layer inception_5a/output
I1124 22:51:50.362488 14803 net.cpp:454] inception_5a/output <- inception_5a/1x1
I1124 22:51:50.362493 14803 net.cpp:454] inception_5a/output <- inception_5a/3x3
I1124 22:51:50.362496 14803 net.cpp:454] inception_5a/output <- inception_5a/5x5
I1124 22:51:50.362500 14803 net.cpp:454] inception_5a/output <- inception_5a/pool_proj
I1124 22:51:50.362506 14803 net.cpp:411] inception_5a/output -> inception_5a/output
I1124 22:51:50.362546 14803 net.cpp:150] Setting up inception_5a/output
I1124 22:51:50.362555 14803 net.cpp:157] Top shape: 64 832 7 7 (2609152)
I1124 22:51:50.362558 14803 net.cpp:165] Memory required for data: 3492160008
I1124 22:51:50.362561 14803 layer_factory.hpp:76] Creating layer inception_5a/output_inception_5a/output_0_split
I1124 22:51:50.362566 14803 net.cpp:106] Creating Layer inception_5a/output_inception_5a/output_0_split
I1124 22:51:50.362571 14803 net.cpp:454] inception_5a/output_inception_5a/output_0_split <- inception_5a/output
I1124 22:51:50.362576 14803 net.cpp:411] inception_5a/output_inception_5a/output_0_split -> inception_5a/output_inception_5a/output_0_split_0
I1124 22:51:50.362586 14803 net.cpp:411] inception_5a/output_inception_5a/output_0_split -> inception_5a/output_inception_5a/output_0_split_1
I1124 22:51:50.362593 14803 net.cpp:411] inception_5a/output_inception_5a/output_0_split -> inception_5a/output_inception_5a/output_0_split_2
I1124 22:51:50.362599 14803 net.cpp:411] inception_5a/output_inception_5a/output_0_split -> inception_5a/output_inception_5a/output_0_split_3
I1124 22:51:50.362678 14803 net.cpp:150] Setting up inception_5a/output_inception_5a/output_0_split
I1124 22:51:50.362684 14803 net.cpp:157] Top shape: 64 832 7 7 (2609152)
I1124 22:51:50.362689 14803 net.cpp:157] Top shape: 64 832 7 7 (2609152)
I1124 22:51:50.362691 14803 net.cpp:157] Top shape: 64 832 7 7 (2609152)
I1124 22:51:50.362695 14803 net.cpp:157] Top shape: 64 832 7 7 (2609152)
I1124 22:51:50.362699 14803 net.cpp:165] Memory required for data: 3533906440
I1124 22:51:50.362701 14803 layer_factory.hpp:76] Creating layer inception_5b/1x1
I1124 22:51:50.362710 14803 net.cpp:106] Creating Layer inception_5b/1x1
I1124 22:51:50.362715 14803 net.cpp:454] inception_5b/1x1 <- inception_5a/output_inception_5a/output_0_split_0
I1124 22:51:50.362721 14803 net.cpp:411] inception_5b/1x1 -> inception_5b/1x1
I1124 22:51:50.366281 14803 net.cpp:150] Setting up inception_5b/1x1
I1124 22:51:50.366297 14803 net.cpp:157] Top shape: 64 384 7 7 (1204224)
I1124 22:51:50.366300 14803 net.cpp:165] Memory required for data: 3538723336
I1124 22:51:50.366307 14803 layer_factory.hpp:76] Creating layer inception_5b/relu_1x1
I1124 22:51:50.366313 14803 net.cpp:106] Creating Layer inception_5b/relu_1x1
I1124 22:51:50.366317 14803 net.cpp:454] inception_5b/relu_1x1 <- inception_5b/1x1
I1124 22:51:50.366322 14803 net.cpp:397] inception_5b/relu_1x1 -> inception_5b/1x1 (in-place)
I1124 22:51:50.366644 14803 net.cpp:150] Setting up inception_5b/relu_1x1
I1124 22:51:50.366658 14803 net.cpp:157] Top shape: 64 384 7 7 (1204224)
I1124 22:51:50.366662 14803 net.cpp:165] Memory required for data: 3543540232
I1124 22:51:50.366665 14803 layer_factory.hpp:76] Creating layer inception_5b/3x3_reduce
I1124 22:51:50.366673 14803 net.cpp:106] Creating Layer inception_5b/3x3_reduce
I1124 22:51:50.366678 14803 net.cpp:454] inception_5b/3x3_reduce <- inception_5a/output_inception_5a/output_0_split_1
I1124 22:51:50.366684 14803 net.cpp:411] inception_5b/3x3_reduce -> inception_5b/3x3_reduce
I1124 22:51:50.369282 14803 net.cpp:150] Setting up inception_5b/3x3_reduce
I1124 22:51:50.369298 14803 net.cpp:157] Top shape: 64 192 7 7 (602112)
I1124 22:51:50.369302 14803 net.cpp:165] Memory required for data: 3545948680
I1124 22:51:50.369308 14803 layer_factory.hpp:76] Creating layer inception_5b/relu_3x3_reduce
I1124 22:51:50.369314 14803 net.cpp:106] Creating Layer inception_5b/relu_3x3_reduce
I1124 22:51:50.369319 14803 net.cpp:454] inception_5b/relu_3x3_reduce <- inception_5b/3x3_reduce
I1124 22:51:50.369325 14803 net.cpp:397] inception_5b/relu_3x3_reduce -> inception_5b/3x3_reduce (in-place)
I1124 22:51:50.369513 14803 net.cpp:150] Setting up inception_5b/relu_3x3_reduce
I1124 22:51:50.369524 14803 net.cpp:157] Top shape: 64 192 7 7 (602112)
I1124 22:51:50.369526 14803 net.cpp:165] Memory required for data: 3548357128
I1124 22:51:50.369529 14803 layer_factory.hpp:76] Creating layer inception_5b/3x3
I1124 22:51:50.369539 14803 net.cpp:106] Creating Layer inception_5b/3x3
I1124 22:51:50.369544 14803 net.cpp:454] inception_5b/3x3 <- inception_5b/3x3_reduce
I1124 22:51:50.369552 14803 net.cpp:411] inception_5b/3x3 -> inception_5b/3x3
I1124 22:51:50.375866 14803 net.cpp:150] Setting up inception_5b/3x3
I1124 22:51:50.375882 14803 net.cpp:157] Top shape: 64 384 7 7 (1204224)
I1124 22:51:50.375886 14803 net.cpp:165] Memory required for data: 3553174024
I1124 22:51:50.375893 14803 layer_factory.hpp:76] Creating layer inception_5b/relu_3x3
I1124 22:51:50.375900 14803 net.cpp:106] Creating Layer inception_5b/relu_3x3
I1124 22:51:50.375903 14803 net.cpp:454] inception_5b/relu_3x3 <- inception_5b/3x3
I1124 22:51:50.375910 14803 net.cpp:397] inception_5b/relu_3x3 -> inception_5b/3x3 (in-place)
I1124 22:51:50.376253 14803 net.cpp:150] Setting up inception_5b/relu_3x3
I1124 22:51:50.376267 14803 net.cpp:157] Top shape: 64 384 7 7 (1204224)
I1124 22:51:50.376271 14803 net.cpp:165] Memory required for data: 3557990920
I1124 22:51:50.376274 14803 layer_factory.hpp:76] Creating layer inception_5b/5x5_reduce
I1124 22:51:50.376283 14803 net.cpp:106] Creating Layer inception_5b/5x5_reduce
I1124 22:51:50.376288 14803 net.cpp:454] inception_5b/5x5_reduce <- inception_5a/output_inception_5a/output_0_split_2
I1124 22:51:50.376296 14803 net.cpp:411] inception_5b/5x5_reduce -> inception_5b/5x5_reduce
I1124 22:51:50.377990 14803 net.cpp:150] Setting up inception_5b/5x5_reduce
I1124 22:51:50.378005 14803 net.cpp:157] Top shape: 64 48 7 7 (150528)
I1124 22:51:50.378008 14803 net.cpp:165] Memory required for data: 3558593032
I1124 22:51:50.378015 14803 layer_factory.hpp:76] Creating layer inception_5b/relu_5x5_reduce
I1124 22:51:50.378021 14803 net.cpp:106] Creating Layer inception_5b/relu_5x5_reduce
I1124 22:51:50.378026 14803 net.cpp:454] inception_5b/relu_5x5_reduce <- inception_5b/5x5_reduce
I1124 22:51:50.378032 14803 net.cpp:397] inception_5b/relu_5x5_reduce -> inception_5b/5x5_reduce (in-place)
I1124 22:51:50.378365 14803 net.cpp:150] Setting up inception_5b/relu_5x5_reduce
I1124 22:51:50.378378 14803 net.cpp:157] Top shape: 64 48 7 7 (150528)
I1124 22:51:50.378382 14803 net.cpp:165] Memory required for data: 3559195144
I1124 22:51:50.378386 14803 layer_factory.hpp:76] Creating layer inception_5b/5x5
I1124 22:51:50.378396 14803 net.cpp:106] Creating Layer inception_5b/5x5
I1124 22:51:50.378399 14803 net.cpp:454] inception_5b/5x5 <- inception_5b/5x5_reduce
I1124 22:51:50.378407 14803 net.cpp:411] inception_5b/5x5 -> inception_5b/5x5
I1124 22:51:50.380522 14803 net.cpp:150] Setting up inception_5b/5x5
I1124 22:51:50.380537 14803 net.cpp:157] Top shape: 64 128 7 7 (401408)
I1124 22:51:50.380542 14803 net.cpp:165] Memory required for data: 3560800776
I1124 22:51:50.380548 14803 layer_factory.hpp:76] Creating layer inception_5b/relu_5x5
I1124 22:51:50.380554 14803 net.cpp:106] Creating Layer inception_5b/relu_5x5
I1124 22:51:50.380559 14803 net.cpp:454] inception_5b/relu_5x5 <- inception_5b/5x5
I1124 22:51:50.380564 14803 net.cpp:397] inception_5b/relu_5x5 -> inception_5b/5x5 (in-place)
I1124 22:51:50.380749 14803 net.cpp:150] Setting up inception_5b/relu_5x5
I1124 22:51:50.380760 14803 net.cpp:157] Top shape: 64 128 7 7 (401408)
I1124 22:51:50.380764 14803 net.cpp:165] Memory required for data: 3562406408
I1124 22:51:50.380766 14803 layer_factory.hpp:76] Creating layer inception_5b/pool
I1124 22:51:50.380774 14803 net.cpp:106] Creating Layer inception_5b/pool
I1124 22:51:50.380781 14803 net.cpp:454] inception_5b/pool <- inception_5a/output_inception_5a/output_0_split_3
I1124 22:51:50.380787 14803 net.cpp:411] inception_5b/pool -> inception_5b/pool
I1124 22:51:50.381163 14803 net.cpp:150] Setting up inception_5b/pool
I1124 22:51:50.381177 14803 net.cpp:157] Top shape: 64 832 7 7 (2609152)
I1124 22:51:50.381181 14803 net.cpp:165] Memory required for data: 3572843016
I1124 22:51:50.381184 14803 layer_factory.hpp:76] Creating layer inception_5b/pool_proj
I1124 22:51:50.381193 14803 net.cpp:106] Creating Layer inception_5b/pool_proj
I1124 22:51:50.381198 14803 net.cpp:454] inception_5b/pool_proj <- inception_5b/pool
I1124 22:51:50.381204 14803 net.cpp:411] inception_5b/pool_proj -> inception_5b/pool_proj
I1124 22:51:50.383455 14803 net.cpp:150] Setting up inception_5b/pool_proj
I1124 22:51:50.383471 14803 net.cpp:157] Top shape: 64 128 7 7 (401408)
I1124 22:51:50.383474 14803 net.cpp:165] Memory required for data: 3574448648
I1124 22:51:50.383481 14803 layer_factory.hpp:76] Creating layer inception_5b/relu_pool_proj
I1124 22:51:50.383488 14803 net.cpp:106] Creating Layer inception_5b/relu_pool_proj
I1124 22:51:50.383493 14803 net.cpp:454] inception_5b/relu_pool_proj <- inception_5b/pool_proj
I1124 22:51:50.383498 14803 net.cpp:397] inception_5b/relu_pool_proj -> inception_5b/pool_proj (in-place)
I1124 22:51:50.383685 14803 net.cpp:150] Setting up inception_5b/relu_pool_proj
I1124 22:51:50.383697 14803 net.cpp:157] Top shape: 64 128 7 7 (401408)
I1124 22:51:50.383699 14803 net.cpp:165] Memory required for data: 3576054280
I1124 22:51:50.383703 14803 layer_factory.hpp:76] Creating layer inception_5b/output
I1124 22:51:50.383708 14803 net.cpp:106] Creating Layer inception_5b/output
I1124 22:51:50.383713 14803 net.cpp:454] inception_5b/output <- inception_5b/1x1
I1124 22:51:50.383718 14803 net.cpp:454] inception_5b/output <- inception_5b/3x3
I1124 22:51:50.383721 14803 net.cpp:454] inception_5b/output <- inception_5b/5x5
I1124 22:51:50.383724 14803 net.cpp:454] inception_5b/output <- inception_5b/pool_proj
I1124 22:51:50.383730 14803 net.cpp:411] inception_5b/output -> inception_5b/output
I1124 22:51:50.383771 14803 net.cpp:150] Setting up inception_5b/output
I1124 22:51:50.383780 14803 net.cpp:157] Top shape: 64 1024 7 7 (3211264)
I1124 22:51:50.383782 14803 net.cpp:165] Memory required for data: 3588899336
I1124 22:51:50.383785 14803 layer_factory.hpp:76] Creating layer pool5/7x7_s1
I1124 22:51:50.383791 14803 net.cpp:106] Creating Layer pool5/7x7_s1
I1124 22:51:50.383795 14803 net.cpp:454] pool5/7x7_s1 <- inception_5b/output
I1124 22:51:50.383800 14803 net.cpp:411] pool5/7x7_s1 -> pool5/7x7_s1
I1124 22:51:50.384158 14803 net.cpp:150] Setting up pool5/7x7_s1
I1124 22:51:50.384171 14803 net.cpp:157] Top shape: 64 1024 1 1 (65536)
I1124 22:51:50.384176 14803 net.cpp:165] Memory required for data: 3589161480
I1124 22:51:50.384178 14803 layer_factory.hpp:76] Creating layer pool5/drop_7x7_s1
I1124 22:51:50.384186 14803 net.cpp:106] Creating Layer pool5/drop_7x7_s1
I1124 22:51:50.384189 14803 net.cpp:454] pool5/drop_7x7_s1 <- pool5/7x7_s1
I1124 22:51:50.384196 14803 net.cpp:397] pool5/drop_7x7_s1 -> pool5/7x7_s1 (in-place)
I1124 22:51:50.384232 14803 net.cpp:150] Setting up pool5/drop_7x7_s1
I1124 22:51:50.384239 14803 net.cpp:157] Top shape: 64 1024 1 1 (65536)
I1124 22:51:50.384243 14803 net.cpp:165] Memory required for data: 3589423624
I1124 22:51:50.384245 14803 layer_factory.hpp:76] Creating layer loss3/classifier-attribute
I1124 22:51:50.384259 14803 net.cpp:106] Creating Layer loss3/classifier-attribute
I1124 22:51:50.384264 14803 net.cpp:454] loss3/classifier-attribute <- pool5/7x7_s1
I1124 22:51:50.384271 14803 net.cpp:411] loss3/classifier-attribute -> loss3/classifier-attribute
I1124 22:51:50.384523 14803 net.cpp:150] Setting up loss3/classifier-attribute
I1124 22:51:50.384532 14803 net.cpp:157] Top shape: 64 15 (960)
I1124 22:51:50.384536 14803 net.cpp:165] Memory required for data: 3589427464
I1124 22:51:50.384541 14803 layer_factory.hpp:76] Creating layer loss3/loss3
I1124 22:51:50.384548 14803 net.cpp:106] Creating Layer loss3/loss3
I1124 22:51:50.384552 14803 net.cpp:454] loss3/loss3 <- loss3/classifier-attribute
I1124 22:51:50.384557 14803 net.cpp:454] loss3/loss3 <- label_data_1_split_2
I1124 22:51:50.384562 14803 net.cpp:411] loss3/loss3 -> loss3/loss3
…
I1124 22:51:50.395074 14803 net.cpp:322] The NetState phase (1) differed from the phase (0) specified by a rule in layer data
I1124 22:51:50.397389 14803 net.cpp:49] Initializing net from parameters: 
name: "GoogleNet-finetune-for-cigit"
state {
  phase: TEST
}
layer {
  name: "data"
  type: "ImageData"
  top: "data"
  top: "label"
  include {
    phase: TEST
  }
  transform_param {
    mirror: false
    crop_size: 224
    mean_value: 104
    mean_value: 117
    mean_value: 123
  }
  image_data_param {
    source: "pad_test.txt"
    batch_size: 64
    new_height: 256
    new_width: 256
  }
}
layer {
  name: "conv1/7x7_s2"
  type: "Convolution"
  bottom: "data"
  top: "conv1/7x7_s2"
  param {
    lr_mult: 1
    decay_mult: 1
  }
  param {
    lr_mult: 2
    decay_mult: 0
  }
  convolution_param {
    num_output: 64
    pad: 3
    kernel_size: 7
    stride: 2
    weight_filler {
      type: "xavier"
    }
    bias_filler {
      type: "constant"
      value: 0.2
    }
  }
}
layer {
  name: "conv1/relu_7x7"
  type: "ReLU"
  bottom: "conv1/7x7_s2"
  top: "conv1/7x7_s2"
}
layer {
  name: "pool1/3x3_s2"
  type: "Pooling"
  bottom: "conv1/7x7_s2"
  top: "pool1/3x3_s2"
  pooling_param {
    pool: MAX
    kernel_size: 3
    stride: 2
  }
}
layer {
  name: "pool1/norm1"
  type: "LRN"
  bottom: "pool1/3x3_s2"
  top: "pool1/norm1"
  lrn_param {
    local_size: 5
    alpha: 0.0001
    beta: 0.75
  }
}
layer {
  name: "conv2/3x3_reduce"
  type: "Convolution"
  bottom: "pool1/norm1"
  top: "conv2/3x3_reduce"
  param {
    lr_mult: 1
    decay_mult: 1
  }
  param {
    lr_mult: 2
    decay_mult: 0
  }
  convolution_param {
    num_output: 64
    kernel_size: 1
    weight_filler {
      type: "xavier"
    }
    bias_filler {
      type: "constant"
      value: 0.2
    }
  }
}
layer {
  name: "conv2/relu_3x3_reduce"
  type: "ReLU"
  bottom: "conv2/3x3_reduce"
  top: "conv2/3x3_reduce"
}
layer {
  name: "conv2/3x3"
  type: "Convolution"
  bottom: "conv2/3x3_reduce"
  top: "conv2/3x3"
  param {
    lr_mult: 1
    decay_mult: 1
  }
  param {
    lr_mult: 2
    decay_mult: 0
  }
  convolution_param {
    num_output: 192
    pad: 1
    kernel_size: 3
    weight_filler {
      type: "xavier"
    }
    bias_filler {
      type: "constant"
      value: 0.2
    }
  }
}
layer {
  name: "conv2/relu_3x3"
  type: "ReLU"
  bottom: "conv2/3x3"
  top: "conv2/3x3"
}
layer {
  name: "conv2/norm2"
  type: "LRN"
  bottom: "conv2/3x3"
  top: "conv2/norm2"
  lrn_param {
    local_size: 5
    alpha: 0.0001
    beta: 0.75
  }
}
layer {
  name: "pool2/3x3_s2"
  type: "Pooling"
  bottom: "conv2/norm2"
  top: "pool2/3x3_s2"
  pooling_param {
    pool: MAX
    kernel_size: 3
    stride: 2
  }
}
layer {
  name: "inception_3a/1x1"
  type: "Convolution"
  bottom: "pool2/3x3_s2"
  top: "inception_3a/1x1"
  param {
    lr_mult: 1
    decay_mult: 1
  }
  param {
    lr_mult: 2
    decay_mult: 0
  }
  convolution_param {
    num_output: 64
    kernel_size: 1
    weight_filler {
      type: "xavier"
    }
    bias_filler {
      type: "constant"
      value: 0.2
    }
  }
}
layer {
  name: "inception_3a/relu_1x1"
  type: "ReLU"
  bottom: "inception_3a/1x1"
  top: "inception_3a/1x1"
}
layer {
  name: "inception_3a/3x3_reduce"
  type: "Convolution"
  bottom: "pool2/3x3_s2"
  top: "inception_3a/3x3_reduce"
  param {
    lr_mult: 1
    decay_mult: 1
  }
  param {
    lr_mult: 2
    decay_mult: 0
  }
  convolution_param {
    num_output: 96
    kernel_size: 1
    weight_filler {
      type: "xavier"
    }
    bias_filler {
      type: "constant"
      value: 0.2
    }
  }
}
layer {
  name: "inception_3a/relu_3x3_reduce"
  type: "ReLU"
  bottom: "inception_3a/3x3_reduce"
  top: "inception_3a/3x3_reduce"
}
layer {
  name: "inception_3a/3x3"
  type: "Convolution"
  bottom: "inception_3a/3x3_reduce"
  top: "inception_3a/3x3"
  param {
    lr_mult: 1
    decay_mult: 1
  }
  param {
    lr_mult: 2
    decay_mult: 0
  }
  convolution_param {
    num_output: 128
    pad: 1
    kernel_size: 3
    weight_filler {
      type: "xavier"
    }
    bias_filler {
      type: "constant"
      value: 0.2
    }
  }
}
layer {
  name: "inception_3a/relu_3x3"
  type: "ReLU"
  bottom: "inception_3a/3x3"
  top: "inception_3a/3x3"
}
layer {
  name: "inception_3a/5x5_reduce"
  type: "Convolution"
  bottom: "pool2/3x3_s2"
  top: "inception_3a/5x5_reduce"
  param {
    lr_mult: 1
    decay_mult: 1
  }
  param {
    lr_mult: 2
    decay_mult: 0
  }
  convolution_param {
    num_output: 16
    kernel_size: 1
    weight_filler {
      type: "xavier"
    }
    bias_filler {
      type: "constant"
      value: 0.2
    }
  }
}
layer {
  name: "inception_3a/relu_5x5_reduce"
  type: "ReLU"
  bottom: "inception_3a/5x5_reduce"
  top: "inception_3a/5x5_reduce"
}
layer {
  name: "inception_3a/5x5"
  type: "Convolution"
  bottom: "inception_3a/5x5_reduce"
  top: "inception_3a/5x5"
  param {
    lr_mult: 1
    decay_mult: 1
  }
  param {
    lr_mult: 2
    decay_mult: 0
  }
  convolution_param {
    num_output: 32
    pad: 2
    kernel_size: 5
    weight_filler {
      type: "xavier"
    }
    bias_filler {
      type: "constant"
      value: 0.2
    }
  }
}
layer {
  name: "inception_3a/relu_5x5"
  type: "ReLU"
  bottom: "inception_3a/5x5"
  top: "inception_3a/5x5"
}
layer {
  name: "inception_3a/pool"
  type: "Pooling"
  bottom: "pool2/3x3_s2"
  top: "inception_3a/pool"
  pooling_param {
    pool: MAX
    kernel_size: 3
    stride: 1
    pad: 1
  }
}
layer {
  name: "inception_3a/pool_proj"
  type: "Convolution"
  bottom: "inception_3a/pool"
  top: "inception_3a/pool_proj"
  param {
    lr_mult: 1
    decay_mult: 1
  }
  param {
    lr_mult: 2
    decay_mult: 0
  }
  convolution_param {
    num_output: 32
    kernel_size: 1
    weight_filler {
      type: "xavier"
    }
    bias_filler {
      type: "constant"
      value: 0.2
    }
  }
}
layer {
  name: "inception_3a/relu_pool_proj"
  type: "ReLU"
  bottom: "inception_3a/pool_proj"
  top: "inception_3a/pool_proj"
}
layer {
  name: "inception_3a/output"
  type: "Concat"
  bottom: "inception_3a/1x1"
  bottom: "inception_3a/3x3"
  bottom: "inception_3a/5x5"
  bottom: "inception_3a/pool_proj"
  top: "inception_3a/output"
}
layer {
  name: "inception_3b/1x1"
  type: "Convolution"
  bottom: "inception_3a/output"
  top: "inception_3b/1x1"
  param {
    lr_mult: 1
    decay_mult: 1
  }
  param {
    lr_mult: 2
    decay_mult: 0
  }
  convolution_param {
    num_output: 128
    kernel_size: 1
    weight_filler {
      type: "xavier"
    }
    bias_filler {
      type: "constant"
      value: 0.2
    }
  }
}
layer {
  name: "inception_3b/relu_1x1"
  type: "ReLU"
  bottom: "inception_3b/1x1"
  top: "inception_3b/1x1"
}
layer {
  name: "inception_3b/3x3_reduce"
  type: "Convolution"
  bottom: "inception_3a/output"
  top: "inception_3b/3x3_reduce"
  param {
    lr_mult: 1
    decay_mult: 1
  }
  param {
    lr_mult: 2
    decay_mult: 0
  }
  convolution_param {
    num_output: 128
    kernel_size: 1
    weight_filler {
      type: "xavier"
    }
    bias_filler {
      type: "constant"
      value: 0.2
    }
  }
}
layer {
  name: "inception_3b/relu_3x3_reduce"
  type: "ReLU"
  bottom: "inception_3b/3x3_reduce"
  top: "inception_3b/3x3_reduce"
}
layer {
  name: "inception_3b/3x3"
  type: "Convolution"
  bottom: "inception_3b/3x3_reduce"
  top: "inception_3b/3x3"
  param {
    lr_mult: 1
    decay_mult: 1
  }
  param {
    lr_mult: 2
    decay_mult: 0
  }
  convolution_param {
    num_output: 192
    pad: 1
    kernel_size: 3
    weight_filler {
      type: "xavier"
    }
    bias_filler {
      type: "constant"
      value: 0.2
    }
  }
}
layer {
  name: "inception_3b/relu_3x3"
  type: "ReLU"
  bottom: "inception_3b/3x3"
  top: "inception_3b/3x3"
}
layer {
  name: "inception_3b/5x5_reduce"
  type: "Convolution"
  bottom: "inception_3a/output"
  top: "inception_3b/5x5_reduce"
  param {
    lr_mult: 1
    decay_mult: 1
  }
  param {
    lr_mult: 2
    decay_mult: 0
  }
  convolution_param {
    num_output: 32
    kernel_size: 1
    weight_filler {
      type: "xavier"
    }
    bias_filler {
      type: "constant"
      value: 0.2
    }
  }
}
layer {
  name: "inception_3b/relu_5x5_reduce"
  type: "ReLU"
  bottom: "inception_3b/5x5_reduce"
  top: "inception_3b/5x5_reduce"
}
layer {
  name: "inception_3b/5x5"
  type: "Convolution"
  bottom: "inception_3b/5x5_reduce"
  top: "inception_3b/5x5"
  param {
    lr_mult: 1
    decay_mult: 1
  }
  param {
    lr_mult: 2
    decay_mult: 0
  }
  convolution_param {
    num_output: 96
    pad: 2
    kernel_size: 5
    weight_filler {
      type: "xavier"
    }
    bias_filler {
      type: "constant"
      value: 0.2
    }
  }
}
layer {
  name: "inception_3b/relu_5x5"
  type: "ReLU"
  bottom: "inception_3b/5x5"
  top: "inception_3b/5x5"
}
layer {
  name: "inception_3b/pool"
  type: "Pooling"
  bottom: "inception_3a/output"
  top: "inception_3b/pool"
  pooling_param {
    pool: MAX
    kernel_size: 3
    stride: 1
    pad: 1
  }
}
layer {
  name: "inception_3b/pool_proj"
  type: "Convolution"
  bottom: "inception_3b/pool"
  top: "inception_3b/pool_proj"
  param {
    lr_mult: 1
    decay_mult: 1
  }
  param {
    lr_mult: 2
    decay_mult: 0
  }
  convolution_param {
    num_output: 64
    kernel_size: 1
    weight_filler {
      type: "xavier"
    }
    bias_filler {
      type: "constant"
      value: 0.2
    }
  }
}
layer {
  name: "inception_3b/relu_pool_proj"
  type: "ReLU"
  bottom: "inception_3b/pool_proj"
  top: "inception_3b/pool_proj"
}
layer {
  name: "inception_3b/output"
  type: "Concat"
  bottom: "inception_3b/1x1"
  bottom: "inception_3b/3x3"
  bottom: "inception_3b/5x5"
  bottom: "inception_3b/pool_proj"
  top: "inception_3b/output"
}
layer {
  name: "pool3/3x3_s2"
  type: "Pooling"
  bottom: "inception_3b/output"
  top: "pool3/3x3_s2"
  pooling_param {
    pool: MAX
    kernel_size: 3
    stride: 2
  }
}
layer {
  name: "inception_4a/1x1"
  type: "Convolution"
  bottom: "pool3/3x3_s2"
  top: "inception_4a/1x1"
  param {
    lr_mult: 1
    decay_mult: 1
  }
  param {
    lr_mult: 2
    decay_mult: 0
  }
  convolution_param {
    num_output: 192
    kernel_size: 1
    weight_filler {
      type: "xavier"
    }
    bias_filler {
      type: "constant"
      value: 0.2
    }
  }
}
layer {
  name: "inception_4a/relu_1x1"
  type: "ReLU"
  bottom: "inception_4a/1x1"
  top: "inception_4a/1x1"
}
layer {
  name: "inception_4a/3x3_reduce"
  type: "Convolution"
  bottom: "pool3/3x3_s2"
  top: "inception_4a/3x3_reduce"
  param {
    lr_mult: 1
    decay_mult: 1
  }
  param {
    lr_mult: 2
    decay_mult: 0
  }
  convolution_param {
    num_output: 96
    kernel_size: 1
    weight_filler {
      type: "xavier"
    }
    bias_filler {
      type: "constant"
      value: 0.2
    }
  }
}
layer {
  name: "inception_4a/relu_3x3_reduce"
  type: "ReLU"
  bottom: "inception_4a/3x3_reduce"
  top: "inception_4a/3x3_reduce"
}
layer {
  name: "inception_4a/3x3"
  type: "Convolution"
  bottom: "inception_4a/3x3_reduce"
  top: "inception_4a/3x3"
  param {
    lr_mult: 1
    decay_mult: 1
  }
  param {
    lr_mult: 2
    decay_mult: 0
  }
  convolution_param {
    num_output: 208
    pad: 1
    kernel_size: 3
    weight_filler {
      type: "xavier"
    }
    bias_filler {
      type: "constant"
      value: 0.2
    }
  }
}
layer {
  name: "inception_4a/relu_3x3"
  type: "ReLU"
  bottom: "inception_4a/3x3"
  top: "inception_4a/3x3"
}
layer {
  name: "inception_4a/5x5_reduce"
  type: "Convolution"
  bottom: "pool3/3x3_s2"
  top: "inception_4a/5x5_reduce"
  param {
    lr_mult: 1
    decay_mult: 1
  }
  param {
    lr_mult: 2
    decay_mult: 0
  }
  convolution_param {
    num_output: 16
    kernel_size: 1
    weight_filler {
      type: "xavier"
    }
    bias_filler {
      type: "constant"
      value: 0.2
    }
  }
}
layer {
  name: "inception_4a/relu_5x5_reduce"
  type: "ReLU"
  bottom: "inception_4a/5x5_reduce"
  top: "inception_4a/5x5_reduce"
}
layer {
  name: "inception_4a/5x5"
  type: "Convolution"
  bottom: "inception_4a/5x5_reduce"
  top: "inception_4a/5x5"
  param {
    lr_mult: 1
    decay_mult: 1
  }
  param {
    lr_mult: 2
    decay_mult: 0
  }
  convolution_param {
    num_output: 48
    pad: 2
    kernel_size: 5
    weight_filler {
      type: "xavier"
    }
    bias_filler {
      type: "constant"
      value: 0.2
    }
  }
}
layer {
  name: "inception_4a/relu_5x5"
  type: "ReLU"
  bottom: "inception_4a/5x5"
  top: "inception_4a/5x5"
}
layer {
  name: "inception_4a/pool"
  type: "Pooling"
  bottom: "pool3/3x3_s2"
  top: "inception_4a/pool"
  pooling_param {
    pool: MAX
    kernel_size: 3
    stride: 1
    pad: 1
  }
}
layer {
  name: "inception_4a/pool_proj"
  type: "Convolution"
  bottom: "inception_4a/pool"
  top: "inception_4a/pool_proj"
  param {
    lr_mult: 1
    decay_mult: 1
  }
  param {
    lr_mult: 2
    decay_mult: 0
  }
  convolution_param {
    num_output: 64
    kernel_size: 1
    weight_filler {
      type: "xavier"
    }
    bias_filler {
      type: "constant"
      value: 0.2
    }
  }
}
layer {
  name: "inception_4a/relu_pool_proj"
  type: "ReLU"
  bottom: "inception_4a/pool_proj"
  top: "inception_4a/pool_proj"
}
layer {
  name: "inception_4a/output"
  type: "Concat"
  bottom: "inception_4a/1x1"
  bottom: "inception_4a/3x3"
  bottom: "inception_4a/5x5"
  bottom: "inception_4a/pool_proj"
  top: "inception_4a/output"
}
layer {
  name: "loss1/ave_pool"
  type: "Pooling"
  bottom: "inception_4a/output"
  top: "loss1/ave_pool"
  pooling_param {
    pool: AVE
    kernel_size: 5
    stride: 3
  }
}
layer {
  name: "loss1/conv"
  type: "Convolution"
  bottom: "loss1/ave_pool"
  top: "loss1/conv"
  param {
    lr_mult: 1
    decay_mult: 1
  }
  param {
    lr_mult: 2
    decay_mult: 0
  }
  convolution_param {
    num_output: 128
    kernel_size: 1
    weight_filler {
      type: "xavier"
    }
    bias_filler {
      type: "constant"
      value: 0.2
    }
  }
}
layer {
  name: "loss1/relu_conv"
  type: "ReLU"
  bottom: "loss1/conv"
  top: "loss1/conv"
}
layer {
  name: "loss1/fc"
  type: "InnerProduct"
  bottom: "loss1/conv"
  top: "loss1/fc"
  param {
    lr_mult: 1
    decay_mult: 1
  }
  param {
    lr_mult: 2
    decay_mult: 0
  }
  inner_product_param {
…
I1124 22:51:50.651379 14803 layer_factory.hpp:76] Creating layer inception_4c/pool
I1124 22:51:50.651386 14803 net.cpp:106] Creating Layer inception_4c/pool
I1124 22:51:50.651391 14803 net.cpp:454] inception_4c/pool <- inception_4b/output_inception_4b/output_0_split_3
I1124 22:51:50.651396 14803 net.cpp:411] inception_4c/pool -> inception_4c/pool
I1124 22:51:50.651655 14803 net.cpp:150] Setting up inception_4c/pool
I1124 22:51:50.651669 14803 net.cpp:157] Top shape: 64 512 14 14 (6422528)
I1124 22:51:50.651671 14803 net.cpp:165] Memory required for data: 2828252168
I1124 22:51:50.651674 14803 layer_factory.hpp:76] Creating layer inception_4c/pool_proj
I1124 22:51:50.651684 14803 net.cpp:106] Creating Layer inception_4c/pool_proj
I1124 22:51:50.651687 14803 net.cpp:454] inception_4c/pool_proj <- inception_4c/pool
I1124 22:51:50.651695 14803 net.cpp:411] inception_4c/pool_proj -> inception_4c/pool_proj
I1124 22:51:50.653256 14803 net.cpp:150] Setting up inception_4c/pool_proj
I1124 22:51:50.653271 14803 net.cpp:157] Top shape: 64 64 14 14 (802816)
I1124 22:51:50.653275 14803 net.cpp:165] Memory required for data: 2831463432
I1124 22:51:50.653281 14803 layer_factory.hpp:76] Creating layer inception_4c/relu_pool_proj
I1124 22:51:50.653288 14803 net.cpp:106] Creating Layer inception_4c/relu_pool_proj
I1124 22:51:50.653293 14803 net.cpp:454] inception_4c/relu_pool_proj <- inception_4c/pool_proj
I1124 22:51:50.653298 14803 net.cpp:397] inception_4c/relu_pool_proj -> inception_4c/pool_proj (in-place)
I1124 22:51:50.653656 14803 net.cpp:150] Setting up inception_4c/relu_pool_proj
I1124 22:51:50.653671 14803 net.cpp:157] Top shape: 64 64 14 14 (802816)
I1124 22:51:50.653673 14803 net.cpp:165] Memory required for data: 2834674696
I1124 22:51:50.653677 14803 layer_factory.hpp:76] Creating layer inception_4c/output
I1124 22:51:50.653684 14803 net.cpp:106] Creating Layer inception_4c/output
I1124 22:51:50.653689 14803 net.cpp:454] inception_4c/output <- inception_4c/1x1
I1124 22:51:50.653693 14803 net.cpp:454] inception_4c/output <- inception_4c/3x3
I1124 22:51:50.653697 14803 net.cpp:454] inception_4c/output <- inception_4c/5x5
I1124 22:51:50.653702 14803 net.cpp:454] inception_4c/output <- inception_4c/pool_proj
I1124 22:51:50.653705 14803 net.cpp:411] inception_4c/output -> inception_4c/output
I1124 22:51:50.653759 14803 net.cpp:150] Setting up inception_4c/output
I1124 22:51:50.653769 14803 net.cpp:157] Top shape: 64 512 14 14 (6422528)
I1124 22:51:50.653771 14803 net.cpp:165] Memory required for data: 2860364808
I1124 22:51:50.653774 14803 layer_factory.hpp:76] Creating layer inception_4c/output_inception_4c/output_0_split
I1124 22:51:50.653780 14803 net.cpp:106] Creating Layer inception_4c/output_inception_4c/output_0_split
I1124 22:51:50.653784 14803 net.cpp:454] inception_4c/output_inception_4c/output_0_split <- inception_4c/output
I1124 22:51:50.653791 14803 net.cpp:411] inception_4c/output_inception_4c/output_0_split -> inception_4c/output_inception_4c/output_0_split_0
I1124 22:51:50.653797 14803 net.cpp:411] inception_4c/output_inception_4c/output_0_split -> inception_4c/output_inception_4c/output_0_split_1
I1124 22:51:50.653803 14803 net.cpp:411] inception_4c/output_inception_4c/output_0_split -> inception_4c/output_inception_4c/output_0_split_2
I1124 22:51:50.653808 14803 net.cpp:411] inception_4c/output_inception_4c/output_0_split -> inception_4c/output_inception_4c/output_0_split_3
I1124 22:51:50.653919 14803 net.cpp:150] Setting up inception_4c/output_inception_4c/output_0_split
I1124 22:51:50.653928 14803 net.cpp:157] Top shape: 64 512 14 14 (6422528)
I1124 22:51:50.653931 14803 net.cpp:157] Top shape: 64 512 14 14 (6422528)
I1124 22:51:50.653935 14803 net.cpp:157] Top shape: 64 512 14 14 (6422528)
I1124 22:51:50.653939 14803 net.cpp:157] Top shape: 64 512 14 14 (6422528)
I1124 22:51:50.653942 14803 net.cpp:165] Memory required for data: 2963125256
I1124 22:51:50.653945 14803 layer_factory.hpp:76] Creating layer inception_4d/1x1
I1124 22:51:50.653954 14803 net.cpp:106] Creating Layer inception_4d/1x1
I1124 22:51:50.653959 14803 net.cpp:454] inception_4d/1x1 <- inception_4c/output_inception_4c/output_0_split_0
I1124 22:51:50.653964 14803 net.cpp:411] inception_4d/1x1 -> inception_4d/1x1
I1124 22:51:50.655544 14803 net.cpp:150] Setting up inception_4d/1x1
I1124 22:51:50.655558 14803 net.cpp:157] Top shape: 64 112 14 14 (1404928)
I1124 22:51:50.655563 14803 net.cpp:165] Memory required for data: 2968744968
I1124 22:51:50.655571 14803 layer_factory.hpp:76] Creating layer inception_4d/relu_1x1
I1124 22:51:50.655580 14803 net.cpp:106] Creating Layer inception_4d/relu_1x1
I1124 22:51:50.655583 14803 net.cpp:454] inception_4d/relu_1x1 <- inception_4d/1x1
I1124 22:51:50.655588 14803 net.cpp:397] inception_4d/relu_1x1 -> inception_4d/1x1 (in-place)
I1124 22:51:50.655956 14803 net.cpp:150] Setting up inception_4d/relu_1x1
I1124 22:51:50.655969 14803 net.cpp:157] Top shape: 64 112 14 14 (1404928)
I1124 22:51:50.655972 14803 net.cpp:165] Memory required for data: 2974364680
I1124 22:51:50.655978 14803 layer_factory.hpp:76] Creating layer inception_4d/3x3_reduce
I1124 22:51:50.655999 14803 net.cpp:106] Creating Layer inception_4d/3x3_reduce
I1124 22:51:50.656004 14803 net.cpp:454] inception_4d/3x3_reduce <- inception_4c/output_inception_4c/output_0_split_1
I1124 22:51:50.656010 14803 net.cpp:411] inception_4d/3x3_reduce -> inception_4d/3x3_reduce
I1124 22:51:50.657850 14803 net.cpp:150] Setting up inception_4d/3x3_reduce
I1124 22:51:50.657865 14803 net.cpp:157] Top shape: 64 144 14 14 (1806336)
I1124 22:51:50.657867 14803 net.cpp:165] Memory required for data: 2981590024
I1124 22:51:50.657874 14803 layer_factory.hpp:76] Creating layer inception_4d/relu_3x3_reduce
I1124 22:51:50.657879 14803 net.cpp:106] Creating Layer inception_4d/relu_3x3_reduce
I1124 22:51:50.657883 14803 net.cpp:454] inception_4d/relu_3x3_reduce <- inception_4d/3x3_reduce
I1124 22:51:50.657891 14803 net.cpp:397] inception_4d/relu_3x3_reduce -> inception_4d/3x3_reduce (in-place)
I1124 22:51:50.658099 14803 net.cpp:150] Setting up inception_4d/relu_3x3_reduce
I1124 22:51:50.658110 14803 net.cpp:157] Top shape: 64 144 14 14 (1806336)
I1124 22:51:50.658113 14803 net.cpp:165] Memory required for data: 2988815368
I1124 22:51:50.658118 14803 layer_factory.hpp:76] Creating layer inception_4d/3x3
I1124 22:51:50.658126 14803 net.cpp:106] Creating Layer inception_4d/3x3
I1124 22:51:50.658130 14803 net.cpp:454] inception_4d/3x3 <- inception_4d/3x3_reduce
I1124 22:51:50.658138 14803 net.cpp:411] inception_4d/3x3 -> inception_4d/3x3
I1124 22:51:50.662405 14803 net.cpp:150] Setting up inception_4d/3x3
I1124 22:51:50.662421 14803 net.cpp:157] Top shape: 64 288 14 14 (3612672)
I1124 22:51:50.662425 14803 net.cpp:165] Memory required for data: 3003266056
I1124 22:51:50.662431 14803 layer_factory.hpp:76] Creating layer inception_4d/relu_3x3
I1124 22:51:50.662439 14803 net.cpp:106] Creating Layer inception_4d/relu_3x3
I1124 22:51:50.662443 14803 net.cpp:454] inception_4d/relu_3x3 <- inception_4d/3x3
I1124 22:51:50.662448 14803 net.cpp:397] inception_4d/relu_3x3 -> inception_4d/3x3 (in-place)
I1124 22:51:50.662871 14803 net.cpp:150] Setting up inception_4d/relu_3x3
I1124 22:51:50.662886 14803 net.cpp:157] Top shape: 64 288 14 14 (3612672)
I1124 22:51:50.662889 14803 net.cpp:165] Memory required for data: 3017716744
I1124 22:51:50.662894 14803 layer_factory.hpp:76] Creating layer inception_4d/5x5_reduce
I1124 22:51:50.662902 14803 net.cpp:106] Creating Layer inception_4d/5x5_reduce
I1124 22:51:50.662907 14803 net.cpp:454] inception_4d/5x5_reduce <- inception_4c/output_inception_4c/output_0_split_2
I1124 22:51:50.662914 14803 net.cpp:411] inception_4d/5x5_reduce -> inception_4d/5x5_reduce
I1124 22:51:50.664391 14803 net.cpp:150] Setting up inception_4d/5x5_reduce
I1124 22:51:50.664407 14803 net.cpp:157] Top shape: 64 32 14 14 (401408)
I1124 22:51:50.664410 14803 net.cpp:165] Memory required for data: 3019322376
I1124 22:51:50.664417 14803 layer_factory.hpp:76] Creating layer inception_4d/relu_5x5_reduce
I1124 22:51:50.664423 14803 net.cpp:106] Creating Layer inception_4d/relu_5x5_reduce
I1124 22:51:50.664427 14803 net.cpp:454] inception_4d/relu_5x5_reduce <- inception_4d/5x5_reduce
I1124 22:51:50.664434 14803 net.cpp:397] inception_4d/relu_5x5_reduce -> inception_4d/5x5_reduce (in-place)
I1124 22:51:50.664801 14803 net.cpp:150] Setting up inception_4d/relu_5x5_reduce
I1124 22:51:50.664815 14803 net.cpp:157] Top shape: 64 32 14 14 (401408)
I1124 22:51:50.664819 14803 net.cpp:165] Memory required for data: 3020928008
I1124 22:51:50.664822 14803 layer_factory.hpp:76] Creating layer inception_4d/5x5
I1124 22:51:50.664831 14803 net.cpp:106] Creating Layer inception_4d/5x5
I1124 22:51:50.664835 14803 net.cpp:454] inception_4d/5x5 <- inception_4d/5x5_reduce
I1124 22:51:50.664844 14803 net.cpp:411] inception_4d/5x5 -> inception_4d/5x5
I1124 22:51:50.666594 14803 net.cpp:150] Setting up inception_4d/5x5
I1124 22:51:50.666610 14803 net.cpp:157] Top shape: 64 64 14 14 (802816)
I1124 22:51:50.666613 14803 net.cpp:165] Memory required for data: 3024139272
I1124 22:51:50.666620 14803 layer_factory.hpp:76] Creating layer inception_4d/relu_5x5
I1124 22:51:50.666627 14803 net.cpp:106] Creating Layer inception_4d/relu_5x5
I1124 22:51:50.666632 14803 net.cpp:454] inception_4d/relu_5x5 <- inception_4d/5x5
I1124 22:51:50.666637 14803 net.cpp:397] inception_4d/relu_5x5 -> inception_4d/5x5 (in-place)
I1124 22:51:50.666872 14803 net.cpp:150] Setting up inception_4d/relu_5x5
I1124 22:51:50.666883 14803 net.cpp:157] Top shape: 64 64 14 14 (802816)
I1124 22:51:50.666887 14803 net.cpp:165] Memory required for data: 3027350536
I1124 22:51:50.666890 14803 layer_factory.hpp:76] Creating layer inception_4d/pool
I1124 22:51:50.666900 14803 net.cpp:106] Creating Layer inception_4d/pool
I1124 22:51:50.666904 14803 net.cpp:454] inception_4d/pool <- inception_4c/output_inception_4c/output_0_split_3
I1124 22:51:50.666911 14803 net.cpp:411] inception_4d/pool -> inception_4d/pool
I1124 22:51:50.667338 14803 net.cpp:150] Setting up inception_4d/pool
I1124 22:51:50.667352 14803 net.cpp:157] Top shape: 64 512 14 14 (6422528)
I1124 22:51:50.667356 14803 net.cpp:165] Memory required for data: 3053040648
I1124 22:51:50.667359 14803 layer_factory.hpp:76] Creating layer inception_4d/pool_proj
I1124 22:51:50.667368 14803 net.cpp:106] Creating Layer inception_4d/pool_proj
I1124 22:51:50.667372 14803 net.cpp:454] inception_4d/pool_proj <- inception_4d/pool
I1124 22:51:50.667378 14803 net.cpp:411] inception_4d/pool_proj -> inception_4d/pool_proj
I1124 22:51:50.668963 14803 net.cpp:150] Setting up inception_4d/pool_proj
I1124 22:51:50.668979 14803 net.cpp:157] Top shape: 64 64 14 14 (802816)
I1124 22:51:50.668983 14803 net.cpp:165] Memory required for data: 3056251912
I1124 22:51:50.668990 14803 layer_factory.hpp:76] Creating layer inception_4d/relu_pool_proj
I1124 22:51:50.668997 14803 net.cpp:106] Creating Layer inception_4d/relu_pool_proj
I1124 22:51:50.669000 14803 net.cpp:454] inception_4d/relu_pool_proj <- inception_4d/pool_proj
I1124 22:51:50.669006 14803 net.cpp:397] inception_4d/relu_pool_proj -> inception_4d/pool_proj (in-place)
I1124 22:51:50.669212 14803 net.cpp:150] Setting up inception_4d/relu_pool_proj
I1124 22:51:50.669224 14803 net.cpp:157] Top shape: 64 64 14 14 (802816)
I1124 22:51:50.669227 14803 net.cpp:165] Memory required for data: 3059463176
I1124 22:51:50.669230 14803 layer_factory.hpp:76] Creating layer inception_4d/output
I1124 22:51:50.669236 14803 net.cpp:106] Creating Layer inception_4d/output
I1124 22:51:50.669240 14803 net.cpp:454] inception_4d/output <- inception_4d/1x1
I1124 22:51:50.669245 14803 net.cpp:454] inception_4d/output <- inception_4d/3x3
I1124 22:51:50.669248 14803 net.cpp:454] inception_4d/output <- inception_4d/5x5
I1124 22:51:50.669252 14803 net.cpp:454] inception_4d/output <- inception_4d/pool_proj
I1124 22:51:50.669258 14803 net.cpp:411] inception_4d/output -> inception_4d/output
I1124 22:51:50.669307 14803 net.cpp:150] Setting up inception_4d/output
I1124 22:51:50.669316 14803 net.cpp:157] Top shape: 64 528 14 14 (6623232)
I1124 22:51:50.669318 14803 net.cpp:165] Memory required for data: 3085956104
I1124 22:51:50.669322 14803 layer_factory.hpp:76] Creating layer inception_4d/output_inception_4d/output_0_split
I1124 22:51:50.669329 14803 net.cpp:106] Creating Layer inception_4d/output_inception_4d/output_0_split
I1124 22:51:50.669333 14803 net.cpp:454] inception_4d/output_inception_4d/output_0_split <- inception_4d/output
I1124 22:51:50.669338 14803 net.cpp:411] inception_4d/output_inception_4d/output_0_split -> inception_4d/output_inception_4d/output_0_split_0
I1124 22:51:50.669347 14803 net.cpp:411] inception_4d/output_inception_4d/output_0_split -> inception_4d/output_inception_4d/output_0_split_1
I1124 22:51:50.669351 14803 net.cpp:411] inception_4d/output_inception_4d/output_0_split -> inception_4d/output_inception_4d/output_0_split_2
I1124 22:51:50.669358 14803 net.cpp:411] inception_4d/output_inception_4d/output_0_split -> inception_4d/output_inception_4d/output_0_split_3
I1124 22:51:50.669363 14803 net.cpp:411] inception_4d/output_inception_4d/output_0_split -> inception_4d/output_inception_4d/output_0_split_4
I1124 22:51:50.669491 14803 net.cpp:150] Setting up inception_4d/output_inception_4d/output_0_split
I1124 22:51:50.669499 14803 net.cpp:157] Top shape: 64 528 14 14 (6623232)
I1124 22:51:50.669503 14803 net.cpp:157] Top shape: 64 528 14 14 (6623232)
I1124 22:51:50.669507 14803 net.cpp:157] Top shape: 64 528 14 14 (6623232)
I1124 22:51:50.669510 14803 net.cpp:157] Top shape: 64 528 14 14 (6623232)
I1124 22:51:50.669514 14803 net.cpp:157] Top shape: 64 528 14 14 (6623232)
I1124 22:51:50.669517 14803 net.cpp:165] Memory required for data: 3218420744
I1124 22:51:50.669520 14803 layer_factory.hpp:76] Creating layer loss2/ave_pool
I1124 22:51:50.669528 14803 net.cpp:106] Creating Layer loss2/ave_pool
I1124 22:51:50.669531 14803 net.cpp:454] loss2/ave_pool <- inception_4d/output_inception_4d/output_0_split_0
I1124 22:51:50.669536 14803 net.cpp:411] loss2/ave_pool -> loss2/ave_pool
I1124 22:51:50.669939 14803 net.cpp:150] Setting up loss2/ave_pool
I1124 22:51:50.669955 14803 net.cpp:157] Top shape: 64 528 4 4 (540672)
I1124 22:51:50.669958 14803 net.cpp:165] Memory required for data: 3220583432
I1124 22:51:50.669962 14803 layer_factory.hpp:76] Creating layer loss2/conv
I1124 22:51:50.669970 14803 net.cpp:106] Creating Layer loss2/conv
I1124 22:51:50.669975 14803 net.cpp:454] loss2/conv <- loss2/ave_pool
I1124 22:51:50.669981 14803 net.cpp:411] loss2/conv -> loss2/conv
I1124 22:51:50.672061 14803 net.cpp:150] Setting up loss2/conv
I1124 22:51:50.672076 14803 net.cpp:157] Top shape: 64 128 4 4 (131072)
I1124 22:51:50.672080 14803 net.cpp:165] Memory required for data: 3221107720
I1124 22:51:50.672086 14803 layer_factory.hpp:76] Creating layer loss2/relu_conv
I1124 22:51:50.672094 14803 net.cpp:106] Creating Layer loss2/relu_conv
I1124 22:51:50.672099 14803 net.cpp:454] loss2/relu_conv <- loss2/conv
I1124 22:51:50.672104 14803 net.cpp:397] loss2/relu_conv -> loss2/conv (in-place)
I1124 22:51:50.672474 14803 net.cpp:150] Setting up loss2/relu_conv
I1124 22:51:50.672489 14803 net.cpp:157] Top shape: 64 128 4 4 (131072)
I1124 22:51:50.672493 14803 net.cpp:165] Memory required for data: 3221632008
I1124 22:51:50.672497 14803 layer_factory.hpp:76] Creating layer loss2/fc
I1124 22:51:50.672504 14803 net.cpp:106] Creating Layer loss2/fc
I1124 22:51:50.672508 14803 net.cpp:454] loss2/fc <- loss2/conv
I1124 22:51:50.672516 14803 net.cpp:411] loss2/fc -> loss2/fc
I1124 22:51:50.688125 14803 net.cpp:150] Setting up loss2/fc
I1124 22:51:50.688140 14803 net.cpp:157] Top shape: 64 1024 (65536)
I1124 22:51:50.688143 14803 net.cpp:165] Memory required for data: 3221894152
I1124 22:51:50.688150 14803 layer_factory.hpp:76] Creating layer loss2/relu_fc
I1124 22:51:50.688158 14803 net.cpp:106] Creating Layer loss2/relu_fc
I1124 22:51:50.688163 14803 net.cpp:454] loss2/relu_fc <- loss2/fc
I1124 22:51:50.688169 14803 net.cpp:397] loss2/relu_fc -> loss2/fc (in-place)
I1124 22:51:50.688390 14803 net.cpp:150] Setting up loss2/relu_fc
I1124 22:51:50.688402 14803 net.cpp:157] Top shape: 64 1024 (65536)
I1124 22:51:50.688405 14803 net.cpp:165] Memory required for data: 3222156296
I1124 22:51:50.688410 14803 layer_factory.hpp:76] Creating layer loss2/drop_fc
I1124 22:51:50.688416 14803 net.cpp:106] Creating Layer loss2/drop_fc
I1124 22:51:50.688419 14803 net.cpp:454] loss2/drop_fc <- loss2/fc
I1124 22:51:50.688426 14803 net.cpp:397] loss2/drop_fc -> loss2/fc (in-place)
I1124 22:51:50.688473 14803 net.cpp:150] Setting up loss2/drop_fc
I1124 22:51:50.688483 14803 net.cpp:157] Top shape: 64 1024 (65536)
I1124 22:51:50.688487 14803 net.cpp:165] Memory required for data: 3222418440
I1124 22:51:50.688489 14803 layer_factory.hpp:76] Creating layer loss2/classifier-attribute
I1124 22:51:50.688496 14803 net.cpp:106] Creating Layer loss2/classifier-attribute
I1124 22:51:50.688499 14803 net.cpp:454] loss2/classifier-attribute <- loss2/fc
I1124 22:51:50.688506 14803 net.cpp:411] loss2/classifier-attribute -> loss2/classifier-attribute
I1124 22:51:50.688812 14803 net.cpp:150] Setting up loss2/classifier-attribute
I1124 22:51:50.688822 14803 net.cpp:157] Top shape: 64 15 (960)
I1124 22:51:50.688824 14803 net.cpp:165] Memory required for data: 3222422280
I1124 22:51:50.688830 14803 layer_factory.hpp:76] Creating layer loss2/classifier-attribute_loss2/classifier-attribute_0_split
I1124 22:51:50.688835 14803 net.cpp:106] Creating Layer loss2/classifier-attribute_loss2/classifier-attribute_0_split
I1124 22:51:50.688839 14803 net.cpp:454] loss2/classifier-attribute_loss2/classifier-attribute_0_split <- loss2/classifier-attribute
I1124 22:51:50.688846 14803 net.cpp:411] loss2/classifier-attribute_loss2/classifier-attribute_0_split -> loss2/classifier-attribute_loss2/classifier-attribute_0_split_0
I1124 22:51:50.688853 14803 net.cpp:411] loss2/classifier-attribute_loss2/classifier-attribute_0_split -> loss2/classifier-attribute_loss2/classifier-attribute_0_split_1
I1124 22:51:50.688921 14803 net.cpp:150] Setting up loss2/classifier-attribute_loss2/classifier-attribute_0_split
I1124 22:51:50.688930 14803 net.cpp:157] Top shape: 64 15 (960)
I1124 22:51:50.688933 14803 net.cpp:157] Top shape: 64 15 (960)
I1124 22:51:50.688936 14803 net.cpp:165] Memory required for data: 3222429960
I1124 22:51:50.688940 14803 layer_factory.hpp:76] Creating layer loss2/loss
I1124 22:51:50.688944 14803 net.cpp:106] Creating Layer loss2/loss
I1124 22:51:50.688948 14803 net.cpp:454] loss2/loss <- loss2/classifier-attribute_loss2/classifier-attribute_0_split_0
I1124 22:51:50.688952 14803 net.cpp:454] loss2/loss <- label_data_1_split_2
…
I1124 22:51:50.689575 14803 net.cpp:150] Setting up loss2/top-1
I1124 22:51:50.689580 14803 net.cpp:157] Top shape: (1)
I1124 22:51:50.689584 14803 net.cpp:165] Memory required for data: 3222429968
I1124 22:51:50.689585 14803 layer_factory.hpp:76] Creating layer inception_4e/1x1
I1124 22:51:50.689594 14803 net.cpp:106] Creating Layer inception_4e/1x1
I1124 22:51:50.689597 14803 net.cpp:454] inception_4e/1x1 <- inception_4d/output_inception_4d/output_0_split_1
I1124 22:51:50.689604 14803 net.cpp:411] inception_4e/1x1 -> inception_4e/1x1
I1124 22:51:50.691886 14803 net.cpp:150] Setting up inception_4e/1x1
I1124 22:51:50.691901 14803 net.cpp:157] Top shape: 64 256 14 14 (3211264)
I1124 22:51:50.691905 14803 net.cpp:165] Memory required for data: 3235275024
I1124 22:51:50.691912 14803 layer_factory.hpp:76] Creating layer inception_4e/relu_1x1
I1124 22:51:50.691920 14803 net.cpp:106] Creating Layer inception_4e/relu_1x1
I1124 22:51:50.691925 14803 net.cpp:454] inception_4e/relu_1x1 <- inception_4e/1x1
I1124 22:51:50.691929 14803 net.cpp:397] inception_4e/relu_1x1 -> inception_4e/1x1 (in-place)
I1124 22:51:50.692140 14803 net.cpp:150] Setting up inception_4e/relu_1x1
I1124 22:51:50.692152 14803 net.cpp:157] Top shape: 64 256 14 14 (3211264)
I1124 22:51:50.692154 14803 net.cpp:165] Memory required for data: 3248120080
I1124 22:51:50.692158 14803 layer_factory.hpp:76] Creating layer inception_4e/3x3_reduce
I1124 22:51:50.692167 14803 net.cpp:106] Creating Layer inception_4e/3x3_reduce
I1124 22:51:50.692172 14803 net.cpp:454] inception_4e/3x3_reduce <- inception_4d/output_inception_4d/output_0_split_2
I1124 22:51:50.692179 14803 net.cpp:411] inception_4e/3x3_reduce -> inception_4e/3x3_reduce
I1124 22:51:50.694563 14803 net.cpp:150] Setting up inception_4e/3x3_reduce
I1124 22:51:50.694578 14803 net.cpp:157] Top shape: 64 160 14 14 (2007040)
I1124 22:51:50.694582 14803 net.cpp:165] Memory required for data: 3256148240
I1124 22:51:50.694588 14803 layer_factory.hpp:76] Creating layer inception_4e/relu_3x3_reduce
I1124 22:51:50.694597 14803 net.cpp:106] Creating Layer inception_4e/relu_3x3_reduce
I1124 22:51:50.694600 14803 net.cpp:454] inception_4e/relu_3x3_reduce <- inception_4e/3x3_reduce
I1124 22:51:50.694605 14803 net.cpp:397] inception_4e/relu_3x3_reduce -> inception_4e/3x3_reduce (in-place)
I1124 22:51:50.694995 14803 net.cpp:150] Setting up inception_4e/relu_3x3_reduce
I1124 22:51:50.695010 14803 net.cpp:157] Top shape: 64 160 14 14 (2007040)
I1124 22:51:50.695015 14803 net.cpp:165] Memory required for data: 3264176400
I1124 22:51:50.695019 14803 layer_factory.hpp:76] Creating layer inception_4e/3x3
I1124 22:51:50.695044 14803 net.cpp:106] Creating Layer inception_4e/3x3
I1124 22:51:50.695055 14803 net.cpp:454] inception_4e/3x3 <- inception_4e/3x3_reduce
I1124 22:51:50.695061 14803 net.cpp:411] inception_4e/3x3 -> inception_4e/3x3
I1124 22:51:50.699883 14803 net.cpp:150] Setting up inception_4e/3x3
I1124 22:51:50.699899 14803 net.cpp:157] Top shape: 64 320 14 14 (4014080)
I1124 22:51:50.699903 14803 net.cpp:165] Memory required for data: 3280232720
I1124 22:51:50.699910 14803 layer_factory.hpp:76] Creating layer inception_4e/relu_3x3
I1124 22:51:50.699918 14803 net.cpp:106] Creating Layer inception_4e/relu_3x3
I1124 22:51:50.699923 14803 net.cpp:454] inception_4e/relu_3x3 <- inception_4e/3x3
I1124 22:51:50.699928 14803 net.cpp:397] inception_4e/relu_3x3 -> inception_4e/3x3 (in-place)
I1124 22:51:50.700325 14803 net.cpp:150] Setting up inception_4e/relu_3x3
I1124 22:51:50.700340 14803 net.cpp:157] Top shape: 64 320 14 14 (4014080)
I1124 22:51:50.700343 14803 net.cpp:165] Memory required for data: 3296289040
I1124 22:51:50.700347 14803 layer_factory.hpp:76] Creating layer inception_4e/5x5_reduce
I1124 22:51:50.700358 14803 net.cpp:106] Creating Layer inception_4e/5x5_reduce
I1124 22:51:50.700362 14803 net.cpp:454] inception_4e/5x5_reduce <- inception_4d/output_inception_4d/output_0_split_3
I1124 22:51:50.700371 14803 net.cpp:411] inception_4e/5x5_reduce -> inception_4e/5x5_reduce
I1124 22:51:50.702039 14803 net.cpp:150] Setting up inception_4e/5x5_reduce
I1124 22:51:50.702054 14803 net.cpp:157] Top shape: 64 32 14 14 (401408)
I1124 22:51:50.702056 14803 net.cpp:165] Memory required for data: 3297894672
I1124 22:51:50.702064 14803 layer_factory.hpp:76] Creating layer inception_4e/relu_5x5_reduce
I1124 22:51:50.702069 14803 net.cpp:106] Creating Layer inception_4e/relu_5x5_reduce
I1124 22:51:50.702074 14803 net.cpp:454] inception_4e/relu_5x5_reduce <- inception_4e/5x5_reduce
I1124 22:51:50.702078 14803 net.cpp:397] inception_4e/relu_5x5_reduce -> inception_4e/5x5_reduce (in-place)
I1124 22:51:50.702287 14803 net.cpp:150] Setting up inception_4e/relu_5x5_reduce
I1124 22:51:50.702299 14803 net.cpp:157] Top shape: 64 32 14 14 (401408)
I1124 22:51:50.702302 14803 net.cpp:165] Memory required for data: 3299500304
I1124 22:51:50.702306 14803 layer_factory.hpp:76] Creating layer inception_4e/5x5
I1124 22:51:50.702316 14803 net.cpp:106] Creating Layer inception_4e/5x5
I1124 22:51:50.702319 14803 net.cpp:454] inception_4e/5x5 <- inception_4e/5x5_reduce
I1124 22:51:50.702327 14803 net.cpp:411] inception_4e/5x5 -> inception_4e/5x5
I1124 22:51:50.704381 14803 net.cpp:150] Setting up inception_4e/5x5
I1124 22:51:50.704397 14803 net.cpp:157] Top shape: 64 128 14 14 (1605632)
I1124 22:51:50.704401 14803 net.cpp:165] Memory required for data: 3305922832
I1124 22:51:50.704407 14803 layer_factory.hpp:76] Creating layer inception_4e/relu_5x5
I1124 22:51:50.704414 14803 net.cpp:106] Creating Layer inception_4e/relu_5x5
I1124 22:51:50.704418 14803 net.cpp:454] inception_4e/relu_5x5 <- inception_4e/5x5
I1124 22:51:50.704423 14803 net.cpp:397] inception_4e/relu_5x5 -> inception_4e/5x5 (in-place)
I1124 22:51:50.704810 14803 net.cpp:150] Setting up inception_4e/relu_5x5
I1124 22:51:50.704824 14803 net.cpp:157] Top shape: 64 128 14 14 (1605632)
I1124 22:51:50.704828 14803 net.cpp:165] Memory required for data: 3312345360
I1124 22:51:50.704831 14803 layer_factory.hpp:76] Creating layer inception_4e/pool
I1124 22:51:50.704838 14803 net.cpp:106] Creating Layer inception_4e/pool
I1124 22:51:50.704843 14803 net.cpp:454] inception_4e/pool <- inception_4d/output_inception_4d/output_0_split_4
I1124 22:51:50.704849 14803 net.cpp:411] inception_4e/pool -> inception_4e/pool
I1124 22:51:50.705122 14803 net.cpp:150] Setting up inception_4e/pool
I1124 22:51:50.705134 14803 net.cpp:157] Top shape: 64 528 14 14 (6623232)
I1124 22:51:50.705137 14803 net.cpp:165] Memory required for data: 3338838288
I1124 22:51:50.705140 14803 layer_factory.hpp:76] Creating layer inception_4e/pool_proj
I1124 22:51:50.705150 14803 net.cpp:106] Creating Layer inception_4e/pool_proj
I1124 22:51:50.705154 14803 net.cpp:454] inception_4e/pool_proj <- inception_4e/pool
I1124 22:51:50.705162 14803 net.cpp:411] inception_4e/pool_proj -> inception_4e/pool_proj
I1124 22:51:50.707002 14803 net.cpp:150] Setting up inception_4e/pool_proj
I1124 22:51:50.707016 14803 net.cpp:157] Top shape: 64 128 14 14 (1605632)
I1124 22:51:50.707020 14803 net.cpp:165] Memory required for data: 3345260816
I1124 22:51:50.707027 14803 layer_factory.hpp:76] Creating layer inception_4e/relu_pool_proj
I1124 22:51:50.707033 14803 net.cpp:106] Creating Layer inception_4e/relu_pool_proj
I1124 22:51:50.707037 14803 net.cpp:454] inception_4e/relu_pool_proj <- inception_4e/pool_proj
I1124 22:51:50.707044 14803 net.cpp:397] inception_4e/relu_pool_proj -> inception_4e/pool_proj (in-place)
I1124 22:51:50.707437 14803 net.cpp:150] Setting up inception_4e/relu_pool_proj
I1124 22:51:50.707451 14803 net.cpp:157] Top shape: 64 128 14 14 (1605632)
I1124 22:51:50.707454 14803 net.cpp:165] Memory required for data: 3351683344
I1124 22:51:50.707458 14803 layer_factory.hpp:76] Creating layer inception_4e/output
I1124 22:51:50.707465 14803 net.cpp:106] Creating Layer inception_4e/output
I1124 22:51:50.707469 14803 net.cpp:454] inception_4e/output <- inception_4e/1x1
I1124 22:51:50.707475 14803 net.cpp:454] inception_4e/output <- inception_4e/3x3
I1124 22:51:50.707480 14803 net.cpp:454] inception_4e/output <- inception_4e/5x5
I1124 22:51:50.707484 14803 net.cpp:454] inception_4e/output <- inception_4e/pool_proj
I1124 22:51:50.707489 14803 net.cpp:411] inception_4e/output -> inception_4e/output
I1124 22:51:50.707542 14803 net.cpp:150] Setting up inception_4e/output
I1124 22:51:50.707552 14803 net.cpp:157] Top shape: 64 832 14 14 (10436608)
I1124 22:51:50.707556 14803 net.cpp:165] Memory required for data: 3393429776
I1124 22:51:50.707558 14803 layer_factory.hpp:76] Creating layer pool4/3x3_s2
I1124 22:51:50.707564 14803 net.cpp:106] Creating Layer pool4/3x3_s2
I1124 22:51:50.707567 14803 net.cpp:454] pool4/3x3_s2 <- inception_4e/output
I1124 22:51:50.707574 14803 net.cpp:411] pool4/3x3_s2 -> pool4/3x3_s2
I1124 22:51:50.707842 14803 net.cpp:150] Setting up pool4/3x3_s2
I1124 22:51:50.707854 14803 net.cpp:157] Top shape: 64 832 7 7 (2609152)
I1124 22:51:50.707859 14803 net.cpp:165] Memory required for data: 3403866384
I1124 22:51:50.707862 14803 layer_factory.hpp:76] Creating layer pool4/3x3_s2_pool4/3x3_s2_0_split
I1124 22:51:50.707869 14803 net.cpp:106] Creating Layer pool4/3x3_s2_pool4/3x3_s2_0_split
I1124 22:51:50.707872 14803 net.cpp:454] pool4/3x3_s2_pool4/3x3_s2_0_split <- pool4/3x3_s2
I1124 22:51:50.707877 14803 net.cpp:411] pool4/3x3_s2_pool4/3x3_s2_0_split -> pool4/3x3_s2_pool4/3x3_s2_0_split_0
I1124 22:51:50.707883 14803 net.cpp:411] pool4/3x3_s2_pool4/3x3_s2_0_split -> pool4/3x3_s2_pool4/3x3_s2_0_split_1
I1124 22:51:50.707888 14803 net.cpp:411] pool4/3x3_s2_pool4/3x3_s2_0_split -> pool4/3x3_s2_pool4/3x3_s2_0_split_2
I1124 22:51:50.707895 14803 net.cpp:411] pool4/3x3_s2_pool4/3x3_s2_0_split -> pool4/3x3_s2_pool4/3x3_s2_0_split_3
I1124 22:51:50.708009 14803 net.cpp:150] Setting up pool4/3x3_s2_pool4/3x3_s2_0_split
I1124 22:51:50.708019 14803 net.cpp:157] Top shape: 64 832 7 7 (2609152)
I1124 22:51:50.708022 14803 net.cpp:157] Top shape: 64 832 7 7 (2609152)
I1124 22:51:50.708025 14803 net.cpp:157] Top shape: 64 832 7 7 (2609152)
I1124 22:51:50.708029 14803 net.cpp:157] Top shape: 64 832 7 7 (2609152)
I1124 22:51:50.708032 14803 net.cpp:165] Memory required for data: 3445612816
I1124 22:51:50.708035 14803 layer_factory.hpp:76] Creating layer inception_5a/1x1
I1124 22:51:50.708045 14803 net.cpp:106] Creating Layer inception_5a/1x1
I1124 22:51:50.708047 14803 net.cpp:454] inception_5a/1x1 <- pool4/3x3_s2_pool4/3x3_s2_0_split_0
I1124 22:51:50.708055 14803 net.cpp:411] inception_5a/1x1 -> inception_5a/1x1
I1124 22:51:50.711275 14803 net.cpp:150] Setting up inception_5a/1x1
I1124 22:51:50.711292 14803 net.cpp:157] Top shape: 64 256 7 7 (802816)
I1124 22:51:50.711297 14803 net.cpp:165] Memory required for data: 3448824080
I1124 22:51:50.711303 14803 layer_factory.hpp:76] Creating layer inception_5a/relu_1x1
I1124 22:51:50.711309 14803 net.cpp:106] Creating Layer inception_5a/relu_1x1
I1124 22:51:50.711313 14803 net.cpp:454] inception_5a/relu_1x1 <- inception_5a/1x1
I1124 22:51:50.711319 14803 net.cpp:397] inception_5a/relu_1x1 -> inception_5a/1x1 (in-place)
I1124 22:51:50.711539 14803 net.cpp:150] Setting up inception_5a/relu_1x1
I1124 22:51:50.711550 14803 net.cpp:157] Top shape: 64 256 7 7 (802816)
I1124 22:51:50.711555 14803 net.cpp:165] Memory required for data: 3452035344
I1124 22:51:50.711557 14803 layer_factory.hpp:76] Creating layer inception_5a/3x3_reduce
I1124 22:51:50.711566 14803 net.cpp:106] Creating Layer inception_5a/3x3_reduce
I1124 22:51:50.711570 14803 net.cpp:454] inception_5a/3x3_reduce <- pool4/3x3_s2_pool4/3x3_s2_0_split_1
I1124 22:51:50.711577 14803 net.cpp:411] inception_5a/3x3_reduce -> inception_5a/3x3_reduce
I1124 22:51:50.714406 14803 net.cpp:150] Setting up inception_5a/3x3_reduce
I1124 22:51:50.714421 14803 net.cpp:157] Top shape: 64 160 7 7 (501760)
I1124 22:51:50.714426 14803 net.cpp:165] Memory required for data: 3454042384
I1124 22:51:50.714432 14803 layer_factory.hpp:76] Creating layer inception_5a/relu_3x3_reduce
I1124 22:51:50.714438 14803 net.cpp:106] Creating Layer inception_5a/relu_3x3_reduce
I1124 22:51:50.714442 14803 net.cpp:454] inception_5a/relu_3x3_reduce <- inception_5a/3x3_reduce
I1124 22:51:50.714448 14803 net.cpp:397] inception_5a/relu_3x3_reduce -> inception_5a/3x3_reduce (in-place)
I1124 22:51:50.714833 14803 net.cpp:150] Setting up inception_5a/relu_3x3_reduce
I1124 22:51:50.714846 14803 net.cpp:157] Top shape: 64 160 7 7 (501760)
I1124 22:51:50.714849 14803 net.cpp:165] Memory required for data: 3456049424
I1124 22:51:50.714854 14803 layer_factory.hpp:76] Creating layer inception_5a/3x3
I1124 22:51:50.714864 14803 net.cpp:106] Creating Layer inception_5a/3x3
I1124 22:51:50.714869 14803 net.cpp:454] inception_5a/3x3 <- inception_5a/3x3_reduce
I1124 22:51:50.714875 14803 net.cpp:411] inception_5a/3x3 -> inception_5a/3x3
I1124 22:51:50.719887 14803 net.cpp:150] Setting up inception_5a/3x3
I1124 22:51:50.719902 14803 net.cpp:157] Top shape: 64 320 7 7 (1003520)
I1124 22:51:50.719907 14803 net.cpp:165] Memory required for data: 3460063504
I1124 22:51:50.719913 14803 layer_factory.hpp:76] Creating layer inception_5a/relu_3x3
I1124 22:51:50.719921 14803 net.cpp:106] Creating Layer inception_5a/relu_3x3
I1124 22:51:50.719925 14803 net.cpp:454] inception_5a/relu_3x3 <- inception_5a/3x3
I1124 22:51:50.719931 14803 net.cpp:397] inception_5a/relu_3x3 -> inception_5a/3x3 (in-place)
I1124 22:51:50.720145 14803 net.cpp:150] Setting up inception_5a/relu_3x3
I1124 22:51:50.720157 14803 net.cpp:157] Top shape: 64 320 7 7 (1003520)
I1124 22:51:50.720160 14803 net.cpp:165] Memory required for data: 3464077584
I1124 22:51:50.720165 14803 layer_factory.hpp:76] Creating layer inception_5a/5x5_reduce
I1124 22:51:50.720175 14803 net.cpp:106] Creating Layer inception_5a/5x5_reduce
I1124 22:51:50.720180 14803 net.cpp:454] inception_5a/5x5_reduce <- pool4/3x3_s2_pool4/3x3_s2_0_split_2
I1124 22:51:50.720186 14803 net.cpp:411] inception_5a/5x5_reduce -> inception_5a/5x5_reduce
I1124 22:51:50.722251 14803 net.cpp:150] Setting up inception_5a/5x5_reduce
I1124 22:51:50.722267 14803 net.cpp:157] Top shape: 64 32 7 7 (100352)
I1124 22:51:50.722270 14803 net.cpp:165] Memory required for data: 3464478992
I1124 22:51:50.722277 14803 layer_factory.hpp:76] Creating layer inception_5a/relu_5x5_reduce
I1124 22:51:50.722283 14803 net.cpp:106] Creating Layer inception_5a/relu_5x5_reduce
I1124 22:51:50.722287 14803 net.cpp:454] inception_5a/relu_5x5_reduce <- inception_5a/5x5_reduce
I1124 22:51:50.722295 14803 net.cpp:397] inception_5a/relu_5x5_reduce -> inception_5a/5x5_reduce (in-place)
I1124 22:51:50.722548 14803 net.cpp:150] Setting up inception_5a/relu_5x5_reduce
I1124 22:51:50.722561 14803 net.cpp:157] Top shape: 64 32 7 7 (100352)
I1124 22:51:50.722564 14803 net.cpp:165] Memory required for data: 3464880400
I1124 22:51:50.722568 14803 layer_factory.hpp:76] Creating layer inception_5a/5x5
I1124 22:51:50.722578 14803 net.cpp:106] Creating Layer inception_5a/5x5
I1124 22:51:50.722581 14803 net.cpp:454] inception_5a/5x5 <- inception_5a/5x5_reduce
I1124 22:51:50.722589 14803 net.cpp:411] inception_5a/5x5 -> inception_5a/5x5
I1124 22:51:50.724846 14803 net.cpp:150] Setting up inception_5a/5x5
I1124 22:51:50.724861 14803 net.cpp:157] Top shape: 64 128 7 7 (401408)
I1124 22:51:50.724865 14803 net.cpp:165] Memory required for data: 3466486032
I1124 22:51:50.724872 14803 layer_factory.hpp:76] Creating layer inception_5a/relu_5x5
I1124 22:51:50.724880 14803 net.cpp:106] Creating Layer inception_5a/relu_5x5
I1124 22:51:50.724884 14803 net.cpp:454] inception_5a/relu_5x5 <- inception_5a/5x5
I1124 22:51:50.724889 14803 net.cpp:397] inception_5a/relu_5x5 -> inception_5a/5x5 (in-place)
I1124 22:51:50.725280 14803 net.cpp:150] Setting up inception_5a/relu_5x5
I1124 22:51:50.725294 14803 net.cpp:157] Top shape: 64 128 7 7 (401408)
I1124 22:51:50.725297 14803 net.cpp:165] Memory required for data: 3468091664
I1124 22:51:50.725301 14803 layer_factory.hpp:76] Creating layer inception_5a/pool
I1124 22:51:50.725309 14803 net.cpp:106] Creating Layer inception_5a/pool
I1124 22:51:50.725314 14803 net.cpp:454] inception_5a/pool <- pool4/3x3_s2_pool4/3x3_s2_0_split_3
I1124 22:51:50.725319 14803 net.cpp:411] inception_5a/pool -> inception_5a/pool
I1124 22:51:50.725623 14803 net.cpp:150] Setting up inception_5a/pool
I1124 22:51:50.725636 14803 net.cpp:157] Top shape: 64 832 7 7 (2609152)
I1124 22:51:50.725641 14803 net.cpp:165] Memory required for data: 3478528272
I1124 22:51:50.725643 14803 layer_factory.hpp:76] Creating layer inception_5a/pool_proj
I1124 22:51:50.725654 14803 net.cpp:106] Creating Layer inception_5a/pool_proj
I1124 22:51:50.725659 14803 net.cpp:454] inception_5a/pool_proj <- inception_5a/pool
I1124 22:51:50.725666 14803 net.cpp:411] inception_5a/pool_proj -> inception_5a/pool_proj
I1124 22:51:50.728220 14803 net.cpp:150] Setting up inception_5a/pool_proj
I1124 22:51:50.728236 14803 net.cpp:157] Top shape: 64 128 7 7 (401408)
I1124 22:51:50.728240 14803 net.cpp:165] Memory required for data: 3480133904
I1124 22:51:50.728246 14803 layer_factory.hpp:76] Creating layer inception_5a/relu_pool_proj
I1124 22:51:50.728255 14803 net.cpp:106] Creating Layer inception_5a/relu_pool_proj
I1124 22:51:50.728260 14803 net.cpp:454] inception_5a/relu_pool_proj <- inception_5a/pool_proj
I1124 22:51:50.728265 14803 net.cpp:397] inception_5a/relu_pool_proj -> inception_5a/pool_proj (in-place)
I1124 22:51:50.728646 14803 net.cpp:150] Setting up inception_5a/relu_pool_proj
I1124 22:51:50.728660 14803 net.cpp:157] Top shape: 64 128 7 7 (401408)
I1124 22:51:50.728663 14803 net.cpp:165] Memory required for data: 3481739536
I1124 22:51:50.728667 14803 layer_factory.hpp:76] Creating layer inception_5a/output
I1124 22:51:50.728675 14803 net.cpp:106] Creating Layer inception_5a/output
I1124 22:51:50.728679 14803 net.cpp:454] inception_5a/output <- inception_5a/1x1
I1124 22:51:50.728684 14803 net.cpp:454] inception_5a/output <- inception_5a/3x3
I1124 22:51:50.728688 14803 net.cpp:454] inception_5a/output <- inception_5a/5x5
I1124 22:51:50.728693 14803 net.cpp:454] inception_5a/output <- inception_5a/pool_proj
I1124 22:51:50.728696 14803 net.cpp:411] inception_5a/output -> inception_5a/output
I1124 22:51:50.728752 14803 net.cpp:150] Setting up inception_5a/output
I1124 22:51:50.728761 14803 net.cpp:157] Top shape: 64 832 7 7 (2609152)
I1124 22:51:50.728765 14803 net.cpp:165] Memory required for data: 3492176144
I1124 22:51:50.728767 14803 layer_factory.hpp:76] Creating layer inception_5a/output_inception_5a/output_0_split
I1124 22:51:50.728773 14803 net.cpp:106] Creating Layer inception_5a/output_inception_5a/output_0_split
I1124 22:51:50.728776 14803 net.cpp:454] inception_5a/output_inception_5a/output_0_split <- inception_5a/output
I1124 22:51:50.728785 14803 net.cpp:411] inception_5a/output_inception_5a/output_0_split -> inception_5a/output_inception_5a/output_0_split_0
I1124 22:51:50.728792 14803 net.cpp:411] inception_5a/output_inception_5a/output_0_split -> inception_5a/output_inception_5a/output_0_split_1
I1124 22:51:50.728798 14803 net.cpp:411] inception_5a/output_inception_5a/output_0_split -> inception_5a/output_inception_5a/output_0_split_2
I1124 22:51:50.728803 14803 net.cpp:411] inception_5a/output_inception_5a/output_0_split -> inception_5a/output_inception_5a/output_0_split_3
I1124 22:51:50.728927 14803 net.cpp:150] Setting up inception_5a/output_inception_5a/output_0_split
I1124 22:51:50.728936 14803 net.cpp:157] Top shape: 64 832 7 7 (2609152)
I1124 22:51:50.728940 14803 net.cpp:157] Top shape: 64 832 7 7 (2609152)
I1124 22:51:50.728945 14803 net.cpp:157] Top shape: 64 832 7 7 (2609152)
I1124 22:51:50.728947 14803 net.cpp:157] Top shape: 64 832 7 7 (2609152)
I1124 22:51:50.728950 14803 net.cpp:165] Memory required for data: 3533922576
I1124 22:51:50.728953 14803 layer_factory.hpp:76] Creating layer inception_5b/1x1
I1124 22:51:50.728963 14803 net.cpp:106] Creating Layer inception_5b/1x1
I1124 22:51:50.728967 14803 net.cpp:454] inception_5b/1x1 <- inception_5a/output_inception_5a/output_0_split_0
I1124 22:51:50.728972 14803 net.cpp:411] inception_5b/1x1 -> inception_5b/1x1
I1124 22:51:50.732791 14803 net.cpp:150] Setting up inception_5b/1x1
I1124 22:51:50.732808 14803 net.cpp:157] Top shape: 64 384 7 7 (1204224)
I1124 22:51:50.732812 14803 net.cpp:165] Memory required for data: 3538739472
I1124 22:51:50.732820 14803 layer_factory.hpp:76] Creating layer inception_5b/relu_1x1
I1124 22:51:50.732825 14803 net.cpp:106] Creating Layer inception_5b/relu_1x1
I1124 22:51:50.732830 14803 net.cpp:454] inception_5b/relu_1x1 <- inception_5b/1x1
I1124 22:51:50.732834 14803 net.cpp:397] inception_5b/relu_1x1 -> inception_5b/1x1 (in-place)
I1124 22:51:50.733218 14803 net.cpp:150] Setting up inception_5b/relu_1x1
I1124 22:51:50.733233 14803 net.cpp:157] Top shape: 64 384 7 7 (1204224)
I1124 22:51:50.733237 14803 net.cpp:165] Memory required for data: 3543556368
I1124 22:51:50.733240 14803 layer_factory.hpp:76] Creating layer inception_5b/3x3_reduce
I1124 22:51:50.733250 14803 net.cpp:106] Creating Layer inception_5b/3x3_reduce
I1124 22:51:50.733254 14803 net.cpp:454] inception_5b/3x3_reduce <- inception_5a/output_inception_5a/output_0_split_1
I1124 22:51:50.733261 14803 net.cpp:411] inception_5b/3x3_reduce -> inception_5b/3x3_reduce
I1124 22:51:50.736219 14803 net.cpp:150] Setting up inception_5b/3x3_reduce
I1124 22:51:50.736235 14803 net.cpp:157] Top shape: 64 192 7 7 (602112)
I1124 22:51:50.736239 14803 net.cpp:165] Memory required for data: 3545964816
I1124 22:51:50.736246 14803 layer_factory.hpp:76] Creating layer inception_5b/relu_3x3_reduce
I1124 22:51:50.736253 14803 net.cpp:106] Creating Layer inception_5b/relu_3x3_reduce
I1124 22:51:50.736256 14803 net.cpp:454] inception_5b/relu_3x3_reduce <- inception_5b/3x3_reduce
I1124 22:51:50.736261 14803 net.cpp:397] inception_5b/relu_3x3_reduce -> inception_5b/3x3_reduce (in-place)
I1124 22:51:50.736479 14803 net.cpp:150] Setting up inception_5b/relu_3x3_reduce
I1124 22:51:50.736491 14803 net.cpp:157] Top shape: 64 192 7 7 (602112)
I1124 22:51:50.736495 14803 net.cpp:165] Memory required for data: 3548373264
I1124 22:51:50.736498 14803 layer_factory.hpp:76] Creating layer inception_5b/3x3
I1124 22:51:50.736508 14803 net.cpp:106] Creating Layer inception_5b/3x3
I1124 22:51:50.736512 14803 net.cpp:454] inception_5b/3x3 <- inception_5b/3x3_reduce
I1124 22:51:50.736520 14803 net.cpp:411] inception_5b/3x3 -> inception_5b/3x3
I1124 22:51:50.744691 14803 net.cpp:150] Setting up inception_5b/3x3
I1124 22:51:50.744707 14803 net.cpp:157] Top shape: 64 384 7 7 (1204224)
I1124 22:51:50.744710 14803 net.cpp:165] Memory required for data: 3553190160
I1124 22:51:50.744717 14803 layer_factory.hpp:76] Creating layer inception_5b/relu_3x3
I1124 22:51:50.744725 14803 net.cpp:106] Creating Layer inception_5b/relu_3x3
I1124 22:51:50.744729 14803 net.cpp:454] inception_5b/relu_3x3 <- inception_5b/3x3
I1124 22:51:50.744735 14803 net.cpp:397] inception_5b/relu_3x3 -> inception_5b/3x3 (in-place)
I1124 22:51:50.745115 14803 net.cpp:150] Setting up inception_5b/relu_3x3
I1124 22:51:50.745129 14803 net.cpp:157] Top shape: 64 384 7 7 (1204224)
I1124 22:51:50.745132 14803 net.cpp:165] Memory required for data: 3558007056
I1124 22:51:50.745136 14803 layer_factory.hpp:76] Creating layer inception_5b/5x5_reduce
I1124 22:51:50.745146 14803 net.cpp:106] Creating Layer inception_5b/5x5_reduce
I1124 22:51:50.745151 14803 net.cpp:454] inception_5b/5x5_reduce <- inception_5a/output_inception_5a/output_0_split_2
I1124 22:51:50.745157 14803 net.cpp:411] inception_5b/5x5_reduce -> inception_5b/5x5_reduce
I1124 22:51:50.747002 14803 net.cpp:150] Setting up inception_5b/5x5_reduce
I1124 22:51:50.747017 14803 net.cpp:157] Top shape: 64 48 7 7 (150528)
I1124 22:51:50.747021 14803 net.cpp:165] Memory required for data: 3558609168
I1124 22:51:50.747027 14803 layer_factory.hpp:76] Creating layer inception_5b/relu_5x5_reduce
I1124 22:51:50.747035 14803 net.cpp:106] Creating Layer inception_5b/relu_5x5_reduce
I1124 22:51:50.747038 14803 net.cpp:454] inception_5b/relu_5x5_reduce <- inception_5b/5x5_reduce
I1124 22:51:50.747043 14803 net.cpp:397] inception_5b/relu_5x5_reduce -> inception_5b/5x5_reduce (in-place)
I1124 22:51:50.747458 14803 net.cpp:150] Setting up inception_5b/relu_5x5_reduce
I1124 22:51:50.747473 14803 net.cpp:157] Top shape: 64 48 7 7 (150528)
I1124 22:51:50.747478 14803 net.cpp:165] Memory required for data: 3559211280
I1124 22:51:50.747481 14803 layer_factory.hpp:76] Creating layer inception_5b/5x5
I1124 22:51:50.747499 14803 net.cpp:106] Creating Layer inception_5b/5x5
I1124 22:51:50.747505 14803 net.cpp:454] inception_5b/5x5 <- inception_5b/5x5_reduce
I1124 22:51:50.747514 14803 net.cpp:411] inception_5b/5x5 -> inception_5b/5x5
I1124 22:51:50.749963 14803 net.cpp:150] Setting up inception_5b/5x5
I1124 22:51:50.749979 14803 net.cpp:157] Top shape: 64 128 7 7 (401408)
I1124 22:51:50.749984 14803 net.cpp:165] Memory required for data: 3560816912
I1124 22:51:50.749990 14803 layer_factory.hpp:76] Creating layer inception_5b/relu_5x5
I1124 22:51:50.749999 14803 net.cpp:106] Creating Layer inception_5b/relu_5x5
I1124 22:51:50.750004 14803 net.cpp:454] inception_5b/relu_5x5 <- inception_5b/5x5
I1124 22:51:50.750011 14803 net.cpp:397] inception_5b/relu_5x5 -> inception_5b/5x5 (in-place)
I1124 22:51:50.750252 14803 net.cpp:150] Setting up inception_5b/relu_5x5
I1124 22:51:50.750264 14803 net.cpp:157] Top shape: 64 128 7 7 (401408)
I1124 22:51:50.750268 14803 net.cpp:165] Memory required for data: 3562422544
I1124 22:51:50.750272 14803 layer_factory.hpp:76] Creating layer inception_5b/pool
I1124 22:51:50.750279 14803 net.cpp:106] Creating Layer inception_5b/pool
I1124 22:51:50.750283 14803 net.cpp:454] inception_5b/pool <- inception_5a/output_inception_5a/output_0_split_3
I1124 22:51:50.750291 14803 net.cpp:411] inception_5b/pool -> inception_5b/pool
I1124 22:51:50.750744 14803 net.cpp:150] Setting up inception_5b/pool
I1124 22:51:50.750759 14803 net.cpp:157] Top shape: 64 832 7 7 (2609152)
I1124 22:51:50.750762 14803 net.cpp:165] Memory required for data: 3572859152
I1124 22:51:50.750766 14803 layer_factory.hpp:76] Creating layer inception_5b/pool_proj
I1124 22:51:50.750777 14803 net.cpp:106] Creating Layer inception_5b/pool_proj
I1124 22:51:50.750782 14803 net.cpp:454] inception_5b/pool_proj <- inception_5b/pool
I1124 22:51:50.750789 14803 net.cpp:411] inception_5b/pool_proj -> inception_5b/pool_proj
I1124 22:51:50.753456 14803 net.cpp:150] Setting up inception_5b/pool_proj
I1124 22:51:50.753473 14803 net.cpp:157] Top shape: 64 128 7 7 (401408)
I1124 22:51:50.753479 14803 net.cpp:165] Memory required for data: 3574464784
I1124 22:51:50.753485 14803 layer_factory.hpp:76] Creating layer inception_5b/relu_pool_proj
I1124 22:51:50.753492 14803 net.cpp:106] Creating Layer inception_5b/relu_pool_proj
I1124 22:51:50.753497 14803 net.cpp:454] inception_5b/relu_pool_proj <- inception_5b/pool_proj
I1124 22:51:50.753502 14803 net.cpp:397] inception_5b/relu_pool_proj -> inception_5b/pool_proj (in-place)
I1124 22:51:50.753744 14803 net.cpp:150] Setting up inception_5b/relu_pool_proj
I1124 22:51:50.753757 14803 net.cpp:157] Top shape: 64 128 7 7 (401408)
I1124 22:51:50.753761 14803 net.cpp:165] Memory required for data: 3576070416
I1124 22:51:50.753764 14803 layer_factory.hpp:76] Creating layer inception_5b/output
I1124 22:51:50.753772 14803 net.cpp:106] Creating Layer inception_5b/output
I1124 22:51:50.753775 14803 net.cpp:454] inception_5b/output <- inception_5b/1x1
I1124 22:51:50.753780 14803 net.cpp:454] inception_5b/output <- inception_5b/3x3
I1124 22:51:50.753785 14803 net.cpp:454] inception_5b/output <- inception_5b/5x5
I1124 22:51:50.753789 14803 net.cpp:454] inception_5b/output <- inception_5b/pool_proj
I1124 22:51:50.753796 14803 net.cpp:411] inception_5b/output -> inception_5b/output
I1124 22:51:50.753829 14803 net.cpp:150] Setting up inception_5b/output
I1124 22:51:50.753834 14803 net.cpp:157] Top shape: 64 1024 7 7 (3211264)
I1124 22:51:50.753837 14803 net.cpp:165] Memory required for data: 3588915472
I1124 22:51:50.753841 14803 layer_factory.hpp:76] Creating layer pool5/7x7_s1
I1124 22:51:50.753849 14803 net.cpp:106] Creating Layer pool5/7x7_s1
I1124 22:51:50.753854 14803 net.cpp:454] pool5/7x7_s1 <- inception_5b/output
I1124 22:51:50.753859 14803 net.cpp:411] pool5/7x7_s1 -> pool5/7x7_s1
I1124 22:51:50.754431 14803 net.cpp:150] Setting up pool5/7x7_s1
I1124 22:51:50.754446 14803 net.cpp:157] Top shape: 64 1024 1 1 (65536)
I1124 22:51:50.754449 14803 net.cpp:165] Memory required for data: 3589177616
I1124 22:51:50.754453 14803 layer_factory.hpp:76] Creating layer pool5/drop_7x7_s1
I1124 22:51:50.754462 14803 net.cpp:106] Creating Layer pool5/drop_7x7_s1
I1124 22:51:50.754467 14803 net.cpp:454] pool5/drop_7x7_s1 <- pool5/7x7_s1
I1124 22:51:50.754472 14803 net.cpp:397] pool5/drop_7x7_s1 -> pool5/7x7_s1 (in-place)
I1124 22:51:50.754503 14803 net.cpp:150] Setting up pool5/drop_7x7_s1
I1124 22:51:50.754513 14803 net.cpp:157] Top shape: 64 1024 1 1 (65536)
I1124 22:51:50.754516 14803 net.cpp:165] Memory required for data: 3589439760
I1124 22:51:50.754520 14803 layer_factory.hpp:76] Creating layer loss3/classifier-attribute
I1124 22:51:50.754530 14803 net.cpp:106] Creating Layer loss3/classifier-attribute
I1124 22:51:50.754534 14803 net.cpp:454] loss3/classifier-attribute <- pool5/7x7_s1
I1124 22:51:50.754540 14803 net.cpp:411] loss3/classifier-attribute -> loss3/classifier-attribute
I1124 22:51:50.754812 14803 net.cpp:150] Setting up loss3/classifier-attribute
I1124 22:51:50.754822 14803 net.cpp:157] Top shape: 64 15 (960)
I1124 22:51:50.754827 14803 net.cpp:165] Memory required for data: 3589443600
I1124 22:51:50.754833 14803 layer_factory.hpp:76] Creating layer loss3/classifier-attribute_loss3/classifier-attribute_0_split
I1124 22:51:50.754839 14803 net.cpp:106] Creating Layer loss3/classifier-attribute_loss3/classifier-attribute_0_split
I1124 22:51:50.754844 14803 net.cpp:454] loss3/classifier-attribute_loss3/classifier-attribute_0_split <- loss3/classifier-attribute
I1124 22:51:50.754864 14803 net.cpp:411] loss3/classifier-attribute_loss3/classifier-attribute_0_split -> loss3/classifier-attribute_loss3/classifier-attribute_0_split_0
I1124 22:51:50.754874 14803 net.cpp:411] loss3/classifier-attribute_loss3/classifier-attribute_0_split -> loss3/classifier-attribute_loss3/classifier-attribute_0_split_1
I1124 22:51:50.754920 14803 net.cpp:150] Setting up loss3/classifier-attribute_loss3/classifier-attribute_0_split
I1124 22:51:50.754928 14803 net.cpp:157] Top shape: 64 15 (960)
I1124 22:51:50.754933 14803 net.cpp:157] Top shape: 64 15 (960)
I1124 22:51:50.754936 14803 net.cpp:165] Memory required for data: 3589451280
I1124 22:51:50.754940 14803 layer_factory.hpp:76] Creating layer loss3/loss3
I1124 22:51:50.754946 14803 net.cpp:106] Creating Layer loss3/loss3
I1124 22:51:50.754951 14803 net.cpp:454] loss3/loss3 <- loss3/classifier-attribute_loss3/classifier-attribute_0_split_0
I1124 22:51:50.754956 14803 net.cpp:454] loss3/loss3 <- label_data_1_split_4
…
