…
I1124 13:29:26.247778 13317 net.cpp:322] The NetState phase (0) differed from the phase (1) specified by a rule in layer loss3/top-1
I1124 13:29:26.248662 13317 net.cpp:49] Initializing net from parameters: 
name: "GoogleNet-finetune-for-cigit"
state {
  phase: TRAIN
}
layer {
  name: "data"
  type: "ImageData"
  top: "data"
  top: "label"
  include {
    phase: TRAIN
  }
  transform_param {
    mirror: true
    crop_size: 224
    mean_value: 104
    mean_value: 117
    mean_value: 123
  }
  image_data_param {
    source: "pad_train.txt"
    batch_size: 64
    shuffle: true
    new_height: 256
    new_width: 256
  }
}
layer {
  name: "conv1/7x7_s2"
  type: "Convolution"
  bottom: "data"
  top: "conv1/7x7_s2"
  param {
    lr_mult: 1
    decay_mult: 1
  }
  param {
    lr_mult: 2
    decay_mult: 0
  }
  convolution_param {
    num_output: 64
    pad: 3
    kernel_size: 7
    stride: 2
    weight_filler {
      type: "xavier"
    }
    bias_filler {
      type: "constant"
      value: 0.2
    }
  }
}
layer {
  name: "conv1/relu_7x7"
  type: "ReLU"
  bottom: "conv1/7x7_s2"
  top: "conv1/7x7_s2"
}
layer {
  name: "pool1/3x3_s2"
  type: "Pooling"
  bottom: "conv1/7x7_s2"
  top: "pool1/3x3_s2"
  pooling_param {
    pool: MAX
    kernel_size: 3
    stride: 2
  }
}
layer {
  name: "pool1/norm1"
  type: "LRN"
  bottom: "pool1/3x3_s2"
  top: "pool1/norm1"
  lrn_param {
    local_size: 5
    alpha: 0.0001
    beta: 0.75
  }
}
layer {
  name: "conv2/3x3_reduce"
  type: "Convolution"
  bottom: "pool1/norm1"
  top: "conv2/3x3_reduce"
  param {
    lr_mult: 1
    decay_mult: 1
  }
  param {
    lr_mult: 2
    decay_mult: 0
  }
  convolution_param {
    num_output: 64
    kernel_size: 1
    weight_filler {
      type: "xavier"
    }
    bias_filler {
      type: "constant"
      value: 0.2
    }
  }
}
layer {
  name: "conv2/relu_3x3_reduce"
  type: "ReLU"
  bottom: "conv2/3x3_reduce"
  top: "conv2/3x3_reduce"
}
layer {
  name: "conv2/3x3"
  type: "Convolution"
  bottom: "conv2/3x3_reduce"
  top: "conv2/3x3"
  param {
    lr_mult: 1
    decay_mult: 1
  }
  param {
    lr_mult: 2
    decay_mult: 0
  }
  convolution_param {
    num_output: 192
    pad: 1
    kernel_size: 3
    weight_filler {
      type: "xavier"
    }
    bias_filler {
      type: "constant"
      value: 0.2
    }
  }
}
layer {
  name: "conv2/relu_3x3"
  type: "ReLU"
  bottom: "conv2/3x3"
  top: "conv2/3x3"
}
layer {
  name: "conv2/norm2"
  type: "LRN"
  bottom: "conv2/3x3"
  top: "conv2/norm2"
  lrn_param {
    local_size: 5
    alpha: 0.0001
    beta: 0.75
  }
}
layer {
  name: "pool2/3x3_s2"
  type: "Pooling"
  bottom: "conv2/norm2"
  top: "pool2/3x3_s2"
  pooling_param {
    pool: MAX
    kernel_size: 3
    stride: 2
  }
}
layer {
  name: "inception_3a/1x1"
  type: "Convolution"
  bottom: "pool2/3x3_s2"
  top: "inception_3a/1x1"
  param {
    lr_mult: 1
    decay_mult: 1
  }
  param {
    lr_mult: 2
    decay_mult: 0
  }
  convolution_param {
    num_output: 64
    kernel_size: 1
    weight_filler {
      type: "xavier"
    }
    bias_filler {
      type: "constant"
      value: 0.2
    }
  }
}
layer {
  name: "inception_3a/relu_1x1"
  type: "ReLU"
  bottom: "inception_3a/1x1"
  top: "inception_3a/1x1"
}
layer {
  name: "inception_3a/3x3_reduce"
  type: "Convolution"
  bottom: "pool2/3x3_s2"
  top: "inception_3a/3x3_reduce"
  param {
    lr_mult: 1
    decay_mult: 1
  }
  param {
    lr_mult: 2
    decay_mult: 0
  }
  convolution_param {
    num_output: 96
    kernel_size: 1
    weight_filler {
      type: "xavier"
    }
    bias_filler {
      type: "constant"
      value: 0.2
    }
  }
}
layer {
  name: "inception_3a/relu_3x3_reduce"
  type: "ReLU"
  bottom: "inception_3a/3x3_reduce"
  top: "inception_3a/3x3_reduce"
}
layer {
  name: "inception_3a/3x3"
  type: "Convolution"
  bottom: "inception_3a/3x3_reduce"
  top: "inception_3a/3x3"
  param {
    lr_mult: 1
    decay_mult: 1
  }
  param {
    lr_mult: 2
    decay_mult: 0
  }
  convolution_param {
    num_output: 128
    pad: 1
    kernel_size: 3
    weight_filler {
      type: "xavier"
    }
    bias_filler {
      type: "constant"
      value: 0.2
    }
  }
}
layer {
  name: "inception_3a/relu_3x3"
  type: "ReLU"
  bottom: "inception_3a/3x3"
  top: "inception_3a/3x3"
}
layer {
  name: "inception_3a/5x5_reduce"
  type: "Convolution"
  bottom: "pool2/3x3_s2"
  top: "inception_3a/5x5_reduce"
  param {
    lr_mult: 1
    decay_mult: 1
  }
  param {
    lr_mult: 2
    decay_mult: 0
  }
  convolution_param {
    num_output: 16
    kernel_size: 1
    weight_filler {
      type: "xavier"
    }
    bias_filler {
      type: "constant"
      value: 0.2
    }
  }
}
layer {
  name: "inception_3a/relu_5x5_reduce"
  type: "ReLU"
  bottom: "inception_3a/5x5_reduce"
  top: "inception_3a/5x5_reduce"
}
layer {
  name: "inception_3a/5x5"
  type: "Convolution"
  bottom: "inception_3a/5x5_reduce"
  top: "inception_3a/5x5"
  param {
    lr_mult: 1
    decay_mult: 1
  }
  param {
    lr_mult: 2
    decay_mult: 0
  }
  convolution_param {
    num_output: 32
    pad: 2
    kernel_size: 5
    weight_filler {
      type: "xavier"
    }
    bias_filler {
      type: "constant"
      value: 0.2
    }
  }
}
layer {
  name: "inception_3a/relu_5x5"
  type: "ReLU"
  bottom: "inception_3a/5x5"
  top: "inception_3a/5x5"
}
layer {
  name: "inception_3a/pool"
  type: "Pooling"
  bottom: "pool2/3x3_s2"
  top: "inception_3a/pool"
  pooling_param {
    pool: MAX
    kernel_size: 3
    stride: 1
    pad: 1
  }
}
layer {
  name: "inception_3a/pool_proj"
  type: "Convolution"
  bottom: "inception_3a/pool"
  top: "inception_3a/pool_proj"
  param {
    lr_mult: 1
    decay_mult: 1
  }
  param {
    lr_mult: 2
    decay_mult: 0
  }
  convolution_param {
    num_output: 32
    kernel_size: 1
    weight_filler {
      type: "xavier"
    }
    bias_filler {
      type: "constant"
      value: 0.2
    }
  }
}
layer {
  name: "inception_3a/relu_pool_proj"
  type: "ReLU"
  bottom: "inception_3a/pool_proj"
  top: "inception_3a/pool_proj"
}
layer {
  name: "inception_3a/output"
  type: "Concat"
  bottom: "inception_3a/1x1"
  bottom: "inception_3a/3x3"
  bottom: "inception_3a/5x5"
  bottom: "inception_3a/pool_proj"
  top: "inception_3a/output"
}
layer {
  name: "inception_3b/1x1"
  type: "Convolution"
  bottom: "inception_3a/output"
  top: "inception_3b/1x1"
  param {
    lr_mult: 1
    decay_mult: 1
  }
  param {
    lr_mult: 2
    decay_mult: 0
  }
  convolution_param {
    num_output: 128
    kernel_size: 1
    weight_filler {
      type: "xavier"
    }
    bias_filler {
      type: "constant"
      value: 0.2
    }
  }
}
layer {
  name: "inception_3b/relu_1x1"
  type: "ReLU"
  bottom: "inception_3b/1x1"
  top: "inception_3b/1x1"
}
layer {
  name: "inception_3b/3x3_reduce"
  type: "Convolution"
  bottom: "inception_3a/output"
  top: "inception_3b/3x3_reduce"
  param {
    lr_mult: 1
    decay_mult: 1
  }
  param {
    lr_mult: 2
    decay_mult: 0
  }
  convolution_param {
    num_output: 128
    kernel_size: 1
    weight_filler {
      type: "xavier"
    }
    bias_filler {
      type: "constant"
      value: 0.2
    }
  }
}
layer {
  name: "inception_3b/relu_3x3_reduce"
  type: "ReLU"
  bottom: "inception_3b/3x3_reduce"
  top: "inception_3b/3x3_reduce"
}
layer {
  name: "inception_3b/3x3"
  type: "Convolution"
  bottom: "inception_3b/3x3_reduce"
  top: "inception_3b/3x3"
  param {
    lr_mult: 1
    decay_mult: 1
  }
  param {
    lr_mult: 2
    decay_mult: 0
  }
  convolution_param {
    num_output: 192
    pad: 1
    kernel_size: 3
    weight_filler {
      type: "xavier"
    }
    bias_filler {
      type: "constant"
      value: 0.2
    }
  }
}
layer {
  name: "inception_3b/relu_3x3"
  type: "ReLU"
  bottom: "inception_3b/3x3"
  top: "inception_3b/3x3"
}
layer {
  name: "inception_3b/5x5_reduce"
  type: "Convolution"
  bottom: "inception_3a/output"
  top: "inception_3b/5x5_reduce"
  param {
    lr_mult: 1
    decay_mult: 1
  }
  param {
    lr_mult: 2
    decay_mult: 0
  }
  convolution_param {
    num_output: 32
    kernel_size: 1
    weight_filler {
      type: "xavier"
    }
    bias_filler {
      type: "constant"
      value: 0.2
    }
  }
}
layer {
  name: "inception_3b/relu_5x5_reduce"
  type: "ReLU"
  bottom: "inception_3b/5x5_reduce"
  top: "inception_3b/5x5_reduce"
}
layer {
  name: "inception_3b/5x5"
  type: "Convolution"
  bottom: "inception_3b/5x5_reduce"
  top: "inception_3b/5x5"
  param {
    lr_mult: 1
    decay_mult: 1
  }
  param {
    lr_mult: 2
    decay_mult: 0
  }
  convolution_param {
    num_output: 96
    pad: 2
    kernel_size: 5
    weight_filler {
      type: "xavier"
    }
    bias_filler {
      type: "constant"
      value: 0.2
    }
  }
}
layer {
  name: "inception_3b/relu_5x5"
  type: "ReLU"
  bottom: "inception_3b/5x5"
  top: "inception_3b/5x5"
}
layer {
  name: "inception_3b/pool"
  type: "Pooling"
  bottom: "inception_3a/output"
  top: "inception_3b/pool"
  pooling_param {
    pool: MAX
    kernel_size: 3
    stride: 1
    pad: 1
  }
}
layer {
  name: "inception_3b/pool_proj"
  type: "Convolution"
  bottom: "inception_3b/pool"
  top: "inception_3b/pool_proj"
  param {
    lr_mult: 1
    decay_mult: 1
  }
  param {
    lr_mult: 2
    decay_mult: 0
  }
  convolution_param {
    num_output: 64
    kernel_size: 1
    weight_filler {
      type: "xavier"
    }
    bias_filler {
      type: "constant"
      value: 0.2
    }
  }
}
layer {
  name: "inception_3b/relu_pool_proj"
  type: "ReLU"
  bottom: "inception_3b/pool_proj"
  top: "inception_3b/pool_proj"
}
layer {
  name: "inception_3b/output"
  type: "Concat"
  bottom: "inception_3b/1x1"
  bottom: "inception_3b/3x3"
  bottom: "inception_3b/5x5"
  bottom: "inception_3b/pool_proj"
  top: "inception_3b/output"
}
layer {
  name: "pool3/3x3_s2"
  type: "Pooling"
  bottom: "inception_3b/output"
  top: "pool3/3x3_s2"
  pooling_param {
    pool: MAX
    kernel_size: 3
    stride: 2
  }
}
layer {
  name: "inception_4a/1x1"
  type: "Convolution"
  bottom: "pool3/3x3_s2"
  top: "inception_4a/1x1"
  param {
    lr_mult: 1
    decay_mult: 1
  }
  param {
    lr_mult: 2
    decay_mult: 0
  }
  convolution_param {
    num_output: 192
    kernel_size: 1
    weight_filler {
      type: "xavier"
    }
    bias_filler {
      type: "constant"
      value: 0.2
    }
  }
}
layer {
  name: "inception_4a/relu_1x1"
  type: "ReLU"
  bottom: "inception_4a/1x1"
  top: "inception_4a/1x1"
}
layer {
  name: "inception_4a/3x3_reduce"
  type: "Convolution"
  bottom: "pool3/3x3_s2"
  top: "inception_4a/3x3_reduce"
  param {
    lr_mult: 1
    decay_mult: 1
  }
  param {
    lr_mult: 2
    decay_mult: 0
  }
  convolution_param {
    num_output: 96
    kernel_size: 1
    weight_filler {
      type: "xavier"
    }
    bias_filler {
      type: "constant"
      value: 0.2
    }
  }
}
layer {
  name: "inception_4a/relu_3x3_reduce"
  type: "ReLU"
  bottom: "inception_4a/3x3_reduce"
  top: "inception_4a/3x3_reduce"
}
layer {
  name: "inception_4a/3x3"
  type: "Convolution"
  bottom: "inception_4a/3x3_reduce"
  top: "inception_4a/3x3"
  param {
    lr_mult: 1
    decay_mult: 1
  }
  param {
    lr_mult: 2
    decay_mult: 0
  }
  convolution_param {
    num_output: 208
    pad: 1
    kernel_size: 3
    weight_filler {
      type: "xavier"
    }
    bias_filler {
      type: "constant"
      value: 0.2
    }
  }
}
layer {
  name: "inception_4a/relu_3x3"
  type: "ReLU"
  bottom: "inception_4a/3x3"
  top: "inception_4a/3x3"
}
layer {
  name: "inception_4a/5x5_reduce"
  type: "Convolution"
  bottom: "pool3/3x3_s2"
  top: "inception_4a/5x5_reduce"
  param {
    lr_mult: 1
    decay_mult: 1
  }
  param {
    lr_mult: 2
    decay_mult: 0
  }
  convolution_param {
    num_output: 16
    kernel_size: 1
    weight_filler {
      type: "xavier"
    }
    bias_filler {
      type: "constant"
      value: 0.2
    }
  }
}
layer {
  name: "inception_4a/relu_5x5_reduce"
  type: "ReLU"
  bottom: "inception_4a/5x5_reduce"
  top: "inception_4a/5x5_reduce"
}
layer {
  name: "inception_4a/5x5"
  type: "Convolution"
  bottom: "inception_4a/5x5_reduce"
  top: "inception_4a/5x5"
  param {
    lr_mult: 1
    decay_mult: 1
  }
  param {
    lr_mult: 2
    decay_mult: 0
  }
  convolution_param {
    num_output: 48
    pad: 2
    kernel_size: 5
    weight_filler {
      type: "xavier"
    }
    bias_filler {
      type: "constant"
      value: 0.2
    }
  }
}
layer {
  name: "inception_4a/relu_5x5"
  type: "ReLU"
  bottom: "inception_4a/5x5"
  top: "inception_4a/5x5"
}
layer {
  name: "inception_4a/pool"
  type: "Pooling"
  bottom: "pool3/3x3_s2"
  top: "inception_4a/pool"
  pooling_param {
    pool: MAX
    kernel_size: 3
    stride: 1
    pad: 1
  }
}
layer {
  name: "inception_4a/pool_proj"
  type: "Convolution"
  bottom: "inception_4a/pool"
  top: "inception_4a/pool_proj"
  param {
    lr_mult: 1
    decay_mult: 1
  }
  param {
    lr_mult: 2
    decay_mult: 0
  }
  convolution_param {
    num_output: 64
    kernel_size: 1
    weight_filler {
      type: "xavier"
    }
    bias_filler {
      type: "constant"
      value: 0.2
    }
  }
}
layer {
  name: "inception_4a/relu_pool_proj"
  type: "ReLU"
  bottom: "inception_4a/pool_proj"
  top: "inception_4a/pool_proj"
}
layer {
  name: "inception_4a/output"
  type: "Concat"
  bottom: "inception_4a/1x1"
  bottom: "inception_4a/3x3"
  bottom: "inception_4a/5x5"
  bottom: "inception_4a/pool_proj"
  top: "inception_4a/output"
}
layer {
  name: "loss1/ave_pool"
  type: "Pooling"
  bottom: "inception_4a/output"
  top: "loss1/ave_pool"
  pooling_param {
    pool: AVE
    kernel_size: 5
    stride: 3
  }
}
layer {
  name: "loss1/conv"
  type: "Convolution"
  bottom: "loss1/ave_pool"
  top: "loss1/conv"
  param {
    lr_mult: 1
    decay_mult: 1
  }
  param {
    lr_mult: 2
    decay_mult: 0
  }
  convolution_param {
    num_output: 128
    kernel_size: 1
    weight_filler {
      type: "xavier"
    }
    bias_filler {
      type: "constant"
      value: 0.2
    }
  }
}
layer {
  name: "loss1/relu_conv"
  type: "ReLU"
  bottom: "loss1/conv"
  top: "loss1/conv"
}
layer {
  name: "loss1/fc"
  type: "InnerProduct"
  bottom: "loss1/conv"
  top: "loss1/fc"
  param {
    lr_mult: 1
    decay_mult: 1
  }
  param {
    lr_mult: 2
    decay_mult: 0
  }
  inner_product_param {
    num_output: 1024
    weight_filler {
      type: "xavier"
    }
    bias_filler {
      type: "constant"
      value: 0.2
    }
  }
}
layer {
  name: "loss1/relu_fc"
  type: "ReLU"
  bottom: "loss1/fc"
  top: "loss1/fc"
}
layer {
  name: "loss1/drop_fc"
  type: "Dropout"
  bottom: "loss1/fc"
  top: "loss1/fc"
  dropout_param {
    dropout_ratio: 0.7
  }
}
layer {
  name: "loss1/classifier-attribute"
  type: "InnerProduct"
  bottom: "loss1/fc"
  top: "loss1/classifier-attribute"
  param {
    lr_mult: 10
    decay_mult: 1
  }
  param {
    lr_mult: 20
    decay_mult: 0
  }
  inner_product_param {
    num_output: 9
    weight_filler {
      type: "xavier"
    }
    bias_filler {
      type: "constant"
      value: 0
    }
  }
}
layer {
  name: "loss1/loss"
  type: "SoftmaxWithLoss"
  bottom: "loss1/classifier-attribute"
  bottom: "label"
  top: "loss1/loss1"
  loss_weight: 0.3
}
layer {
  name: "inception_4b/1x1"
  type: "Convolution"
  bottom: "inception_4a/output"
  top: "inception_4b/1x1"
  param {
    lr_mult: 1
    decay_mult: 1
  }
  param {
    lr_mult: 2
    decay_mult: 0
  }
  convolution_param {
    num_output: 160
    kernel_size: 1
    weight_filler {
      type: "xavier"
    }
    bias_filler {
      type: "constant"
      value: 0.2
    }
  }
}
layer {
  name: "inception_4b/relu_1x1"
  type: "ReLU"
  bottom: "inception_4b/1x1"
  top: "inception_4b/1x1"
}
layer {
  name: "inception_4b/3x3_reduce"
  type: "Convolution"
  bottom: "inception_4a/output"
  top: "inception_4b/3x3_reduce"
  param {
    lr_mult: 1
    decay_mult: 1
  }
  param {
    lr_mult: 2
    decay_mult: 0
  }
  convolution_param {
    num_output: 112
    kernel_size: 1
    weight_filler {
      type: "xavier"
    }
    bias_filler {
      type: "constant"
      value: 0.2
    }
  }
}
layer {
  name: "inception_4b/relu_3x3_reduce"
  type: "ReLU"
  bottom: "inception_4b/3x3_reduce"
  top: "inception_4b/3x3_reduce"
}
layer {
  name: "inception_4b/3x3"
  type: "Convolution"
  bottom: "inception_4b/3x3_reduce"
  top: "inception_4b/3x3"
  param {
    lr_mult: 1
    decay_mult: 1
  }
  param {
    lr_mult: 2
    decay_mult: 0
  }
  convolution_param {
    num_output: 224
    pad: 1
    kernel_size: 3
    weight_filler {
      type: "xavier"
    }
    bias_filler {
      type: "constant"
      value: 0.2
    }
  }
}
layer {
  name: "inception_4b/relu_3x3"
  type: "ReLU"
  bottom: "inception_4b/3x3"
  top: "inception_4b/3x3"
}
layer {
  name: "inception_4b/5x5_reduce"
  type: "Convolution"
  bottom: "inception_4a/output"
  top: "inception_4b/5x5_reduce"
  param {
    lr_mult: 1
    decay_mult: 1
  }
  param {
    lr_mult: 2
    decay_mult: 0
  }
  convolution_param {
    num_output: 24
    kernel_size: 1
    weight_filler {
      type: "xavier"
    }
    bias_filler {
      type: "constant"
      value: 0.2
    }
  }
}
layer {
  name: "inception_4b/relu_5x5_reduce"
  type: "ReLU"
  bottom: "inception_4b/5x5_reduce"
  top: "inception_4b/5x5_reduce"
}
layer {
  name: "inception_4b/5x5"
  type: "Convolution"
  bottom: "inception_4b/5x5_reduce"
  top: "inception_4b/5x5"
  param {
    lr_mult: 1
    decay_mult: 1
  }
  param {
    lr_mult: 2
    decay_mult: 0
  }
  convolution_param {
    num_output: 64
    pad: 2
    kernel_size: 5
    weight_filler {
      type: "xavier"
    }
    bias_filler {
      type: "constant"
      value: 0.2
    }
  }
}
layer {
  name: "inception_4b/relu_5x5"
  type: "ReLU"
  bottom: "inception_4b/5x5"
  top: "inception_4b/5x5"
}
layer {
  name: "inception_4b/pool"
  type: "Pooling"
  bottom: "inception_4a/output"
  top: "inception_4b/pool"
  pooling_param {
    pool: MAX
    kernel_size: 3
    stride: 1
    pad: 1
  }
}
layer {
  name: "inception_4b/pool_proj"
  type: "Convolution"
  bottom: "inception_4b/pool"
  top: "inception_4b/pool_proj"
  param {
    lr_mult: 1
    decay_mult: 1
  }
  param {
    lr_mult: 2
    decay_mult: 0
  }
  convolution_param {
    num_output: 64
    kernel_size: 1
    weight_filler {
      type: "xavier"
    }
    bias_filler {
      type: "constant"
      value: 0.2
    }
  }
}
layer {
  name: "inception_4b/relu_pool_proj"
  type: "ReLU"
  bottom: "inception_4b/pool_proj"
  top: "inception_4b/pool_proj"
}
layer {
  name: "inception_4b/output"
  type: "Concat"
  bottom: "inception_4b/1x1"
  bottom: "inception_4b/3x3"
  bottom: "inception_4b/5x5"
  bottom: "inception_4b/pool_proj"
  top: "inception_4b/output"
}
layer {
  name: "inception_4c/1x1"
  type: "Convolution"
  bottom: "inception_4b/output"
  top: "inception_4c/1x1"
  param {
    lr_mult: 1
    decay_mult: 1
  }
  param {
    lr_mult: 2
    decay_mult: 0
  }
  convolution_param {
    num_output: 128
    kernel_size: 1
    weight_filler {
      type: "xavier"
    }
    bias_filler {
      type: "constant"
      value: 0.2
    }
  }
}
layer {
  name: "inception_4c/relu_1x1"
  type: "ReLU"
  bottom: "inception_4c/1x1"
  top: "inception_4c/1x1"
}
layer {
  name: "inception_4c/3x3_reduce"
  type: "Convolution"
  bottom: "inception_4b/output"
  top: "inception_4c/3x3_reduce"
  param {
    lr_mult: 1
    decay_mult: 1
  }
  param {
    lr_mult: 2
    decay_mult: 0
  }
  convolution_param {
    num_output: 128
    kernel_size: 1
    weight_filler {
      type: "xavier"
    }
    bias_filler {
      type: "constant"
      value: 0.2
    }
  }
}
layer {
  name: "inception_4c/relu_3x3_reduce"
  type: "ReLU"
  bottom: "inception_4c/3x3_reduce"
  top: "inception_4c/3x3_reduce"
}
layer {
  name: "inception_4c/3x3"
  type: "Convolution"
  bottom: "inception_4c/3x3_reduce"
  top: "inception_4c/3x3"
  param {
    lr_mult: 1
    decay_mult: 1
  }
  param {
    lr_mult: 2
    decay_mult: 0
  }
  convolution_param {
    num_output: 256
    pad: 1
    kernel_size: 3
    weight_filler {
      type: "xavier"
    }
    bias_filler {
      type: "constant"
      value: 0.2
    }
  }
}
layer {
  name: "inception_4c/relu_3x3"
  type: "ReLU"
  bottom: "inception_4c/3x3"
  top: "inception_4c/3x3"
}
layer {
  name: "inception_4c/5x5_reduce"
  type: "Convolution"
  bottom: "inception_4b/output"
  top: "inception_4c/5x5_reduce"
  param {
    lr_mult: 1
    decay_mult: 1
  }
  param {
    lr_mult: 2
    decay_mult: 0
  }
  convolution_param {
    num_output: 24
    kernel_size: 1
    weight_filler {
      type: "xavier"
    }
    bias_filler {
      type: "constant"
      value: 0.2
    }
  }
}
layer {
  name: "inception_4c/relu_5x5_reduce"
  type: "ReLU"
  bottom: "inception_4c/5x5_reduce"
  top: "inception_4c/5x5_reduce"
}
layer {
  name: "inception_4c/5x5"
  type: "Convolution"
  bottom: "inception_4c/5x5_reduce"
  top: "inception_4c/5x5"
  param {
    lr_mult: 1
    decay_mult: 1
  }
  param {
    lr_mult: 2
    decay_mult: 0
  }
  convolution_param {
    num_output: 64
    pad: 2
    kernel_size: 5
    weight_filler {
      type: "xavier"
    }
    bias_filler {
      type: "constant"
      value: 0.2
    }
  }
}
layer {
  name: "inception_4c/relu_5x5"
  type: "ReLU"
  bottom: "inception_4c/5x5"
  top: "inception_4c/5x5"
}
layer {
  name: "inception_4c/pool"
  type: "Pooling"
  bottom: "inception_4b/output"
  top: "inception_4c/pool"
  pooling_param {
    pool: MAX
    kernel_size: 3
    stride: 1
    pad: 1
  }
}
layer {
  name: "inception_4c/pool_proj"
  type: "Convolution"
  bottom: "inception_4c/pool"
  top: "inception_4c/pool_proj"
  param {
    lr_mult: 1
    decay_mult: 1
  }
  param {
    lr_mult: 2
    decay_mult: 0
  }
  convolution_param {
    num_output: 64
    kernel_size: 1
    weight_filler {
      type: "xavier"
    }
    bias_filler {
      type: "constant"
      value: 0.2
    }
  }
}
layer {
  name: "inception_4c/relu_pool_proj"
  type: "ReLU"
  bottom: "inception_4c/pool_proj"
  top: "inception_4c/pool_proj"
}
layer {
  name: "inception_4c/output"
  type: "Concat"
  bottom: "inception_4c/1x1"
  bottom: "inception_4c/3x3"
  bottom: "inception_4c/5x5"
  bottom: "inception_4c/pool_proj"
  top: "inception_4c/output"
}
layer {
  name: "inception_4d/1x1"
  type: "Convolution"
  bottom: "inception_4c/output"
  top: "inception_4d/1x1"
  param {
    lr_mult: 1
    decay_mult: 1
  }
  param {
    lr_mult: 2
    decay_mult: 0
  }
  convolution_param {
    num_output: 112
    kernel_size: 1
    weight_filler {
      type: "xavier"
    }
    bias_filler {
      type: "constant"
      value: 0.2
    }
  }
}
layer {
  name: "inception_4d/relu_1x1"
  type: "ReLU"
  bottom: "inception_4d/1x1"
  top: "inception_4d/1x1"
}
layer {
  name: "inception_4d/3x3_reduce"
  type: "Convolution"
  bottom: "inception_4c/output"
  top: "inception_4d/3x3_reduce"
  param {
    lr_mult: 1
    decay_mult: 1
  }
  param {
    lr_mult: 2
    decay_mult: 0
  }
  convolution_param {
    num_output: 144
    kernel_size: 1
    weight_filler {
      type: "xavier"
    }
    bias_filler {
      type: "constant"
      value: 0.2
    }
  }
}
layer {
  name: "inception_4d/relu_3x3_reduce"
  type: "ReLU"
  bottom: "inception_4d/3x3_reduce"
  top: "inception_4d/3x3_reduce"
}
layer {
  name: "inception_4d/3x3"
  type: "Convolution"
  bottom: "inception_4d/3x3_reduce"
  top: "inception_4d/3x3"
  param {
    lr_mult: 1
    decay_mult: 1
  }
  param {
    lr_mult: 2
    decay_mult: 0
  }
  convolution_param {
    num_output: 288
    pad: 1
    kernel_size: 3
    weight_filler {
      type: "xavier"
    }
    bias_filler {
      type: "constant"
      value: 0.2
    }
  }
}
layer {
  name: "inception_4d/relu_3x3"
  type: "ReLU"
  bottom: "inception_4d/3x3"
  top: "inception_4d/3x3"
}
layer {
  name: "inception_4d/5x5_reduce"
  type: "Convolution"
  bottom: "inception_4c/output"
  top: "inception_4d/5x5_reduce"
  param {
    lr_mult: 1
    decay_mult: 1
  }
  param {
    lr_mult: 2
    decay_mult: 0
  }
  convolution_param {
    num_output: 32
    kernel_size: 1
    weight_filler {
      type: "xavier"
    }
    bias_filler {
      type: "constant"
      value: 0.2
    }
  }
}
layer {
  name: "inception_4d/relu_5x5_reduce"
  type: "ReLU"
  bottom: "inception_4d/5x5_reduce"
  top: "inception_4d/5x5_reduce"
}
layer {
  name: "inception_4d/5x5"
  type: "Convolution"
  bottom: "inception_4d/5x5_reduce"
  top: "inception_4d/5x5"
  param {
    lr_mult: 1
    decay_mult: 1
  }
  param {
    lr_mult: 2
    decay_mult: 0
  }
  convolution_param {
    num_output: 64
    pad: 2
    kernel_size: 5
    weight_filler {
      type: "xavier"
    }
    bias_filler {
      type: "constant"
      value: 0.2
    }
  }
}
layer {
  name: "inception_4d/relu_5x5"
  type: "ReLU"
  bottom: "inception_4d/5x5"
  top: "inception_4d/5x5"
}
layer {
  name: "inception_4d/pool"
  type: "Pooling"
  bottom: "inception_4c/output"
  top: "inception_4d/pool"
  pooling_param {
    pool: MAX
    kernel_size: 3
    stride: 1
    pad: 1
  }
}
layer {
  name: "inception_4d/pool_proj"
  type: "Convolution"
  bottom: "inception_4d/pool"
  top: "inception_4d/pool_proj"
  param {
    lr_mult: 1
    decay_mult: 1
  }
  param {
    lr_mult: 2
    decay_mult: 0
  }
  convolution_param {
    num_output: 64
    kernel_size: 1
    weight_filler {
      type: "xavier"
    }
    bias_filler {
      type: "constant"
      value: 0.2
    }
  }
}
layer {
  name: "inception_4d/relu_pool_proj"
  type: "ReLU"
  bottom: "inception_4d/pool_proj"
  top: "inception_4d/pool_proj"
}
layer {
  name: "inception_4d/output"
  type: "Concat"
  bottom: "inception_4d/1x1"
  bottom: "inception_4d/3x3"
  bottom: "inception_4d/5x5"
  bottom: "inception_4d/pool_proj"
  top: "inception_4d/output"
}
layer {
  name: "loss2/ave_pool"
  type: "Pooling"
  bottom: "inception_4d/output"
  top: "loss2/ave_pool"
  pooling_param {
    pool: AVE
    kernel_size: 5
    stride: 3
  }
}
layer {
  name: "loss2/conv"
  type: "Convolution"
  bottom: "loss2/ave_pool"
  top: "loss2/conv"
  param {
    lr_mult: 1
    decay_mult: 1
  }
  param {
    lr_mult: 2
    decay_mult: 0
  }
  convolution_param {
    num_output: 128
    kernel_size: 1
    weight_filler {
      type: "xavier"
    }
    bias_filler {
      type: "constant"
      value: 0.2
    }
  }
}
layer {
  name: "loss2/relu_conv"
  type: "ReLU"
  bottom: "loss2/conv"
  top: "loss2/conv"
}
layer {
  name: "loss2/fc"
  type: "InnerProduct"
  bottom: "loss2/conv"
  top: "loss2/fc"
  param {
    lr_mult: 1
    decay_mult: 1
  }
  param {
    lr_mult: 2
    decay_mult: 0
  }
  inner_product_param {
    num_output: 1024
    weight_filler {
      type: "xavier"
    }
    bias_filler {
      type: "constant"
      value: 0.2
    }
  }
}
layer {
  name: "loss2/relu_fc"
  type: "ReLU"
  bottom: "loss2/fc"
  top: "loss2/fc"
}
layer {
  name: "loss2/drop_fc"
  type: "Dropout"
  bottom: "loss2/fc"
  top: "loss2/fc"
  dropout_param {
    dropout_ratio: 0.7
  }
}
layer {
  name: "loss2/classifier-attribute"
  type: "InnerProduct"
  bottom: "loss2/fc"
  top: "loss2/classifier-attribute"
  param {
    lr_mult: 10
    decay_mult: 1
  }
  param {
    lr_mult: 20
    decay_mult: 0
  }
  inner_product_param {
    num_output: 9
    weight_filler {
      type: "xavier"
    }
    bias_filler {
      type: "constant"
      value: 0
    }
  }
}
layer {
  name: "loss2/loss"
  type: "SoftmaxWithLoss"
  bottom: "loss2/classifier-attribute"
  bottom: "label"
  top: "loss2/loss1"
  loss_weight: 0.3
}
layer {
  name: "inception_4e/1x1"
  type: "Convolution"
  bottom: "inception_4d/output"
  top: "inception_4e/1x1"
  param {
    lr_mult: 1
    decay_mult: 1
  }
  param {
    lr_mult: 2
    decay_mult: 0
  }
  convolution_param {
    num_output: 256
    kernel_size: 1
    weight_filler {
      type: "xavier"
    }
    bias_filler {
      type: "constant"
      value: 0.2
    }
  }
}
layer {
  name: "inception_4e/relu_1x1"
  type: "ReLU"
  bottom: "inception_4e/1x1"
  top: "inception_4e/1x1"
}
layer {
  name: "inception_4e/3x3_reduce"
  type: "Convolution"
  bottom: "inception_4d/output"
  top: "inception_4e/3x3_reduce"
  param {
    lr_mult: 1
    decay_mult: 1
  }
  param {
    lr_mult: 2
    decay_mult: 0
  }
  convolution_param {
    num_output: 160
    kernel_size: 1
    weight_filler {
      type: "xavier"
    }
    bias_filler {
      type: "constant"
      value: 0.2
    }
  }
}
layer {
  name: "inception_4e/relu_3x3_reduce"
  type: "ReLU"
  bottom: "inception_4e/3x3_reduce"
  top: "inception_4e/3x3_reduce"
}
layer {
  name: "inception_4e/3x3"
  type: "Convolution"
  bottom: "inception_4e/3x3_reduce"
  top: "inception_4e/3x3"
  param {
    lr_mult: 1
    decay_mult: 1
  }
  param {
    lr_mult: 2
    decay_mult: 0
  }
  convolution_param {
    num_output: 320
    pad: 1
    kernel_size: 3
    weight_filler {
      type: "xavier"
    }
    bias_filler {
      type: "constant"
      value: 0.2
    }
  }
}
layer {
  name: "inception_4e/relu_3x3"
  type: "ReLU"
  bottom: "inception_4e/3x3"
  top: "inception_4e/3x3"
}
layer {
  name: "inception_4e/5x5_reduce"
  type: "Convolution"
  bottom: "inception_4d/output"
  top: "inception_4e/5x5_reduce"
  param {
    lr_mult: 1
    decay_mult: 1
  }
  param {
    lr_mult: 2
    decay_mult: 0
  }
  convolution_param {
    num_output: 32
    kernel_size: 1
    weight_filler {
      type: "xavier"
    }
    bias_filler {
      type: "constant"
      value: 0.2
    }
  }
}
layer {
  name: "inception_4e/relu_5x5_reduce"
  type: "ReLU"
  bottom: "inception_4e/5x5_reduce"
  top: "inception_4e/5x5_reduce"
}
layer {
  name: "inception_4e/5x5"
  type: "Convolution"
  bottom: "inception_4e/5x5_reduce"
  top: "inception_4e/5x5"
  param {
    lr_mult: 1
    decay_mult: 1
  }
  param {
    lr_mult: 2
    decay_mult: 0
  }
  convolution_param {
    num_output: 128
    pad: 2
    kernel_size: 5
    weight_filler {
      type: "xavier"
    }
    bias_filler {
      type: "constant"
      value: 0.2
    }
  }
}
layer {
  name: "inception_4e/relu_5x5"
  type: "ReLU"
  bottom: "inception_4e/5x5"
  top: "inception_4e/5x5"
}
layer {
  name: "inception_4e/pool"
  type: "Pooling"
  bottom: "inception_
I1124 13:29:26.249449 13317 layer_factory.hpp:76] Creating layer data
I1124 13:29:26.249493 13317 net.cpp:106] Creating Layer data
I1124 13:29:26.249503 13317 net.cpp:411] data -> data
I1124 13:29:26.249533 13317 net.cpp:411] data -> label
I1124 13:29:26.250000 13317 image_data_layer.cpp:36] Opening file pad_train.txt
I1124 13:29:26.377214 13317 image_data_layer.cpp:46] Shuffling data
I1124 13:29:26.390928 13317 image_data_layer.cpp:51] A total of 135036 images.
I1124 13:29:26.429865 13317 image_data_layer.cpp:78] output data size: 64,3,224,224
I1124 13:29:26.487510 13317 net.cpp:150] Setting up data
I1124 13:29:26.487550 13317 net.cpp:157] Top shape: 64 3 224 224 (9633792)
I1124 13:29:26.487555 13317 net.cpp:157] Top shape: 64 (64)
I1124 13:29:26.487558 13317 net.cpp:165] Memory required for data: 38535424
I1124 13:29:26.487566 13317 layer_factory.hpp:76] Creating layer label_data_1_split
I1124 13:29:26.487581 13317 net.cpp:106] Creating Layer label_data_1_split
I1124 13:29:26.487587 13317 net.cpp:454] label_data_1_split <- label
I1124 13:29:26.487599 13317 net.cpp:411] label_data_1_split -> label_data_1_split_0
I1124 13:29:26.487609 13317 net.cpp:411] label_data_1_split -> label_data_1_split_1
I1124 13:29:26.487615 13317 net.cpp:411] label_data_1_split -> label_data_1_split_2
I1124 13:29:26.487751 13317 net.cpp:150] Setting up label_data_1_split
I1124 13:29:26.487761 13317 net.cpp:157] Top shape: 64 (64)
I1124 13:29:26.487766 13317 net.cpp:157] Top shape: 64 (64)
I1124 13:29:26.487768 13317 net.cpp:157] Top shape: 64 (64)
I1124 13:29:26.487771 13317 net.cpp:165] Memory required for data: 38536192
I1124 13:29:26.487776 13317 layer_factory.hpp:76] Creating layer conv1/7x7_s2
I1124 13:29:26.487790 13317 net.cpp:106] Creating Layer conv1/7x7_s2
I1124 13:29:26.487794 13317 net.cpp:454] conv1/7x7_s2 <- data
I1124 13:29:26.487799 13317 net.cpp:411] conv1/7x7_s2 -> conv1/7x7_s2
I1124 13:29:26.641288 13317 net.cpp:150] Setting up conv1/7x7_s2
I1124 13:29:26.641314 13317 net.cpp:157] Top shape: 64 64 112 112 (51380224)
I1124 13:29:26.641319 13317 net.cpp:165] Memory required for data: 244057088
I1124 13:29:26.641338 13317 layer_factory.hpp:76] Creating layer conv1/relu_7x7
I1124 13:29:26.641350 13317 net.cpp:106] Creating Layer conv1/relu_7x7
I1124 13:29:26.641355 13317 net.cpp:454] conv1/relu_7x7 <- conv1/7x7_s2
I1124 13:29:26.641361 13317 net.cpp:397] conv1/relu_7x7 -> conv1/7x7_s2 (in-place)
I1124 13:29:26.641664 13317 net.cpp:150] Setting up conv1/relu_7x7
I1124 13:29:26.641679 13317 net.cpp:157] Top shape: 64 64 112 112 (51380224)
I1124 13:29:26.641681 13317 net.cpp:165] Memory required for data: 449577984
I1124 13:29:26.641685 13317 layer_factory.hpp:76] Creating layer pool1/3x3_s2
I1124 13:29:26.641695 13317 net.cpp:106] Creating Layer pool1/3x3_s2
I1124 13:29:26.641700 13317 net.cpp:454] pool1/3x3_s2 <- conv1/7x7_s2
I1124 13:29:26.641705 13317 net.cpp:411] pool1/3x3_s2 -> pool1/3x3_s2
I1124 13:29:26.641907 13317 net.cpp:150] Setting up pool1/3x3_s2
I1124 13:29:26.641919 13317 net.cpp:157] Top shape: 64 64 56 56 (12845056)
I1124 13:29:26.641922 13317 net.cpp:165] Memory required for data: 500958208
I1124 13:29:26.641926 13317 layer_factory.hpp:76] Creating layer pool1/norm1
I1124 13:29:26.641937 13317 net.cpp:106] Creating Layer pool1/norm1
I1124 13:29:26.641939 13317 net.cpp:454] pool1/norm1 <- pool1/3x3_s2
I1124 13:29:26.641947 13317 net.cpp:411] pool1/norm1 -> pool1/norm1
I1124 13:29:26.642268 13317 net.cpp:150] Setting up pool1/norm1
I1124 13:29:26.642282 13317 net.cpp:157] Top shape: 64 64 56 56 (12845056)
I1124 13:29:26.642284 13317 net.cpp:165] Memory required for data: 552338432
I1124 13:29:26.642288 13317 layer_factory.hpp:76] Creating layer conv2/3x3_reduce
I1124 13:29:26.642299 13317 net.cpp:106] Creating Layer conv2/3x3_reduce
I1124 13:29:26.642302 13317 net.cpp:454] conv2/3x3_reduce <- pool1/norm1
I1124 13:29:26.642309 13317 net.cpp:411] conv2/3x3_reduce -> conv2/3x3_reduce
I1124 13:29:26.643596 13317 net.cpp:150] Setting up conv2/3x3_reduce
I1124 13:29:26.643612 13317 net.cpp:157] Top shape: 64 64 56 56 (12845056)
I1124 13:29:26.643616 13317 net.cpp:165] Memory required for data: 603718656
I1124 13:29:26.643625 13317 layer_factory.hpp:76] Creating layer conv2/relu_3x3_reduce
I1124 13:29:26.643632 13317 net.cpp:106] Creating Layer conv2/relu_3x3_reduce
I1124 13:29:26.643636 13317 net.cpp:454] conv2/relu_3x3_reduce <- conv2/3x3_reduce
I1124 13:29:26.643641 13317 net.cpp:397] conv2/relu_3x3_reduce -> conv2/3x3_reduce (in-place)
I1124 13:29:26.643932 13317 net.cpp:150] Setting up conv2/relu_3x3_reduce
I1124 13:29:26.643946 13317 net.cpp:157] Top shape: 64 64 56 56 (12845056)
I1124 13:29:26.643949 13317 net.cpp:165] Memory required for data: 655098880
I1124 13:29:26.643952 13317 layer_factory.hpp:76] Creating layer conv2/3x3
I1124 13:29:26.643966 13317 net.cpp:106] Creating Layer conv2/3x3
I1124 13:29:26.643970 13317 net.cpp:454] conv2/3x3 <- conv2/3x3_reduce
I1124 13:29:26.643976 13317 net.cpp:411] conv2/3x3 -> conv2/3x3
I1124 13:29:26.646034 13317 net.cpp:150] Setting up conv2/3x3
I1124 13:29:26.646047 13317 net.cpp:157] Top shape: 64 192 56 56 (38535168)
I1124 13:29:26.646051 13317 net.cpp:165] Memory required for data: 809239552
I1124 13:29:26.646061 13317 layer_factory.hpp:76] Creating layer conv2/relu_3x3
I1124 13:29:26.646067 13317 net.cpp:106] Creating Layer conv2/relu_3x3
I1124 13:29:26.646071 13317 net.cpp:454] conv2/relu_3x3 <- conv2/3x3
I1124 13:29:26.646078 13317 net.cpp:397] conv2/relu_3x3 -> conv2/3x3 (in-place)
I1124 13:29:26.646248 13317 net.cpp:150] Setting up conv2/relu_3x3
I1124 13:29:26.646261 13317 net.cpp:157] Top shape: 64 192 56 56 (38535168)
I1124 13:29:26.646265 13317 net.cpp:165] Memory required for data: 963380224
I1124 13:29:26.646268 13317 layer_factory.hpp:76] Creating layer conv2/norm2
I1124 13:29:26.646275 13317 net.cpp:106] Creating Layer conv2/norm2
I1124 13:29:26.646278 13317 net.cpp:454] conv2/norm2 <- conv2/3x3
I1124 13:29:26.646286 13317 net.cpp:411] conv2/norm2 -> conv2/norm2
I1124 13:29:26.646606 13317 net.cpp:150] Setting up conv2/norm2
I1124 13:29:26.646620 13317 net.cpp:157] Top shape: 64 192 56 56 (38535168)
I1124 13:29:26.646623 13317 net.cpp:165] Memory required for data: 1117520896
I1124 13:29:26.646626 13317 layer_factory.hpp:76] Creating layer pool2/3x3_s2
I1124 13:29:26.646632 13317 net.cpp:106] Creating Layer pool2/3x3_s2
I1124 13:29:26.646636 13317 net.cpp:454] pool2/3x3_s2 <- conv2/norm2
I1124 13:29:26.646643 13317 net.cpp:411] pool2/3x3_s2 -> pool2/3x3_s2
I1124 13:29:26.646836 13317 net.cpp:150] Setting up pool2/3x3_s2
I1124 13:29:26.646847 13317 net.cpp:157] Top shape: 64 192 28 28 (9633792)
I1124 13:29:26.646850 13317 net.cpp:165] Memory required for data: 1156056064
I1124 13:29:26.646853 13317 layer_factory.hpp:76] Creating layer pool2/3x3_s2_pool2/3x3_s2_0_split
I1124 13:29:26.646862 13317 net.cpp:106] Creating Layer pool2/3x3_s2_pool2/3x3_s2_0_split
I1124 13:29:26.646865 13317 net.cpp:454] pool2/3x3_s2_pool2/3x3_s2_0_split <- pool2/3x3_s2
I1124 13:29:26.646870 13317 net.cpp:411] pool2/3x3_s2_pool2/3x3_s2_0_split -> pool2/3x3_s2_pool2/3x3_s2_0_split_0
I1124 13:29:26.646877 13317 net.cpp:411] pool2/3x3_s2_pool2/3x3_s2_0_split -> pool2/3x3_s2_pool2/3x3_s2_0_split_1
I1124 13:29:26.646885 13317 net.cpp:411] pool2/3x3_s2_pool2/3x3_s2_0_split -> pool2/3x3_s2_pool2/3x3_s2_0_split_2
I1124 13:29:26.646893 13317 net.cpp:411] pool2/3x3_s2_pool2/3x3_s2_0_split -> pool2/3x3_s2_pool2/3x3_s2_0_split_3
I1124 13:29:26.646945 13317 net.cpp:150] Setting up pool2/3x3_s2_pool2/3x3_s2_0_split
I1124 13:29:26.646952 13317 net.cpp:157] Top shape: 64 192 28 28 (9633792)
I1124 13:29:26.646956 13317 net.cpp:157] Top shape: 64 192 28 28 (9633792)
I1124 13:29:26.646960 13317 net.cpp:157] Top shape: 64 192 28 28 (9633792)
I1124 13:29:26.646963 13317 net.cpp:157] Top shape: 64 192 28 28 (9633792)
I1124 13:29:26.646966 13317 net.cpp:165] Memory required for data: 1310196736
I1124 13:29:26.646970 13317 layer_factory.hpp:76] Creating layer inception_3a/1x1
I1124 13:29:26.646978 13317 net.cpp:106] Creating Layer inception_3a/1x1
I1124 13:29:26.646984 13317 net.cpp:454] inception_3a/1x1 <- pool2/3x3_s2_pool2/3x3_s2_0_split_0
I1124 13:29:26.646991 13317 net.cpp:411] inception_3a/1x1 -> inception_3a/1x1
I1124 13:29:26.648423 13317 net.cpp:150] Setting up inception_3a/1x1
I1124 13:29:26.648438 13317 net.cpp:157] Top shape: 64 64 28 28 (3211264)
I1124 13:29:26.648442 13317 net.cpp:165] Memory required for data: 1323041792
I1124 13:29:26.648448 13317 layer_factory.hpp:76] Creating layer inception_3a/relu_1x1
I1124 13:29:26.648455 13317 net.cpp:106] Creating Layer inception_3a/relu_1x1
I1124 13:29:26.648459 13317 net.cpp:454] inception_3a/relu_1x1 <- inception_3a/1x1
I1124 13:29:26.648464 13317 net.cpp:397] inception_3a/relu_1x1 -> inception_3a/1x1 (in-place)
I1124 13:29:26.648763 13317 net.cpp:150] Setting up inception_3a/relu_1x1
I1124 13:29:26.648777 13317 net.cpp:157] Top shape: 64 64 28 28 (3211264)
I1124 13:29:26.648780 13317 net.cpp:165] Memory required for data: 1335886848
I1124 13:29:26.648783 13317 layer_factory.hpp:76] Creating layer inception_3a/3x3_reduce
I1124 13:29:26.648792 13317 net.cpp:106] Creating Layer inception_3a/3x3_reduce
I1124 13:29:26.648797 13317 net.cpp:454] inception_3a/3x3_reduce <- pool2/3x3_s2_pool2/3x3_s2_0_split_1
I1124 13:29:26.648802 13317 net.cpp:411] inception_3a/3x3_reduce -> inception_3a/3x3_reduce
I1124 13:29:26.650295 13317 net.cpp:150] Setting up inception_3a/3x3_reduce
I1124 13:29:26.650310 13317 net.cpp:157] Top shape: 64 96 28 28 (4816896)
I1124 13:29:26.650313 13317 net.cpp:165] Memory required for data: 1355154432
I1124 13:29:26.650323 13317 layer_factory.hpp:76] Creating layer inception_3a/relu_3x3_reduce
I1124 13:29:26.650332 13317 net.cpp:106] Creating Layer inception_3a/relu_3x3_reduce
I1124 13:29:26.650336 13317 net.cpp:454] inception_3a/relu_3x3_reduce <- inception_3a/3x3_reduce
I1124 13:29:26.650341 13317 net.cpp:397] inception_3a/relu_3x3_reduce -> inception_3a/3x3_reduce (in-place)
I1124 13:29:26.650507 13317 net.cpp:150] Setting up inception_3a/relu_3x3_reduce
I1124 13:29:26.650517 13317 net.cpp:157] Top shape: 64 96 28 28 (4816896)
I1124 13:29:26.650521 13317 net.cpp:165] Memory required for data: 1374422016
I1124 13:29:26.650524 13317 layer_factory.hpp:76] Creating layer inception_3a/3x3
I1124 13:29:26.650534 13317 net.cpp:106] Creating Layer inception_3a/3x3
I1124 13:29:26.650539 13317 net.cpp:454] inception_3a/3x3 <- inception_3a/3x3_reduce
I1124 13:29:26.650545 13317 net.cpp:411] inception_3a/3x3 -> inception_3a/3x3
I1124 13:29:26.652334 13317 net.cpp:150] Setting up inception_3a/3x3
I1124 13:29:26.652348 13317 net.cpp:157] Top shape: 64 128 28 28 (6422528)
I1124 13:29:26.652353 13317 net.cpp:165] Memory required for data: 1400112128
I1124 13:29:26.652359 13317 layer_factory.hpp:76] Creating layer inception_3a/relu_3x3
I1124 13:29:26.652364 13317 net.cpp:106] Creating Layer inception_3a/relu_3x3
I1124 13:29:26.652369 13317 net.cpp:454] inception_3a/relu_3x3 <- inception_3a/3x3
I1124 13:29:26.652374 13317 net.cpp:397] inception_3a/relu_3x3 -> inception_3a/3x3 (in-place)
I1124 13:29:26.652537 13317 net.cpp:150] Setting up inception_3a/relu_3x3
I1124 13:29:26.652549 13317 net.cpp:157] Top shape: 64 128 28 28 (6422528)
I1124 13:29:26.652551 13317 net.cpp:165] Memory required for data: 1425802240
I1124 13:29:26.652554 13317 layer_factory.hpp:76] Creating layer inception_3a/5x5_reduce
I1124 13:29:26.652562 13317 net.cpp:106] Creating Layer inception_3a/5x5_reduce
I1124 13:29:26.652566 13317 net.cpp:454] inception_3a/5x5_reduce <- pool2/3x3_s2_pool2/3x3_s2_0_split_2
I1124 13:29:26.652573 13317 net.cpp:411] inception_3a/5x5_reduce -> inception_3a/5x5_reduce
I1124 13:29:26.653542 13317 net.cpp:150] Setting up inception_3a/5x5_reduce
I1124 13:29:26.653556 13317 net.cpp:157] Top shape: 64 16 28 28 (802816)
I1124 13:29:26.653559 13317 net.cpp:165] Memory required for data: 1429013504
I1124 13:29:26.653565 13317 layer_factory.hpp:76] Creating layer inception_3a/relu_5x5_reduce
I1124 13:29:26.653573 13317 net.cpp:106] Creating Layer inception_3a/relu_5x5_reduce
I1124 13:29:26.653576 13317 net.cpp:454] inception_3a/relu_5x5_reduce <- inception_3a/5x5_reduce
I1124 13:29:26.653583 13317 net.cpp:397] inception_3a/relu_5x5_reduce -> inception_3a/5x5_reduce (in-place)
I1124 13:29:26.653872 13317 net.cpp:150] Setting up inception_3a/relu_5x5_reduce
I1124 13:29:26.653884 13317 net.cpp:157] Top shape: 64 16 28 28 (802816)
I1124 13:29:26.653887 13317 net.cpp:165] Memory required for data: 1432224768
I1124 13:29:26.653892 13317 layer_factory.hpp:76] Creating layer inception_3a/5x5
I1124 13:29:26.653900 13317 net.cpp:106] Creating Layer inception_3a/5x5
I1124 13:29:26.653903 13317 net.cpp:454] inception_3a/5x5 <- inception_3a/5x5_reduce
I1124 13:29:26.653910 13317 net.cpp:411] inception_3a/5x5 -> inception_3a/5x5
I1124 13:29:26.654955 13317 net.cpp:150] Setting up inception_3a/5x5
I1124 13:29:26.654969 13317 net.cpp:157] Top shape: 64 32 28 28 (1605632)
I1124 13:29:26.654973 13317 net.cpp:165] Memory required for data: 1438647296
I1124 13:29:26.654979 13317 layer_factory.hpp:76] Creating layer inception_3a/relu_5x5
I1124 13:29:26.654984 13317 net.cpp:106] Creating Layer inception_3a/relu_5x5
I1124 13:29:26.654989 13317 net.cpp:454] inception_3a/relu_5x5 <- inception_3a/5x5
I1124 13:29:26.654994 13317 net.cpp:397] inception_3a/relu_5x5 -> inception_3a/5x5 (in-place)
I1124 13:29:26.655158 13317 net.cpp:150] Setting up inception_3a/relu_5x5
I1124 13:29:26.655167 13317 net.cpp:157] Top shape: 64 32 28 28 (1605632)
I1124 13:29:26.655170 13317 net.cpp:165] Memory required for data: 1445069824
I1124 13:29:26.655174 13317 layer_factory.hpp:76] Creating layer inception_3a/pool
I1124 13:29:26.655179 13317 net.cpp:106] Creating Layer inception_3a/pool
I1124 13:29:26.655182 13317 net.cpp:454] inception_3a/pool <- pool2/3x3_s2_pool2/3x3_s2_0_split_3
I1124 13:29:26.655187 13317 net.cpp:411] inception_3a/pool -> inception_3a/pool
I1124 13:29:26.655508 13317 net.cpp:150] Setting up inception_3a/pool
I1124 13:29:26.655521 13317 net.cpp:157] Top shape: 64 192 28 28 (9633792)
I1124 13:29:26.655524 13317 net.cpp:165] Memory required for data: 1483604992
I1124 13:29:26.655527 13317 layer_factory.hpp:76] Creating layer inception_3a/pool_proj
I1124 13:29:26.655536 13317 net.cpp:106] Creating Layer inception_3a/pool_proj
I1124 13:29:26.655540 13317 net.cpp:454] inception_3a/pool_proj <- inception_3a/pool
I1124 13:29:26.655547 13317 net.cpp:411] inception_3a/pool_proj -> inception_3a/pool_proj
I1124 13:29:26.656405 13317 net.cpp:150] Setting up inception_3a/pool_proj
I1124 13:29:26.656419 13317 net.cpp:157] Top shape: 64 32 28 28 (1605632)
I1124 13:29:26.656422 13317 net.cpp:165] Memory required for data: 1490027520
I1124 13:29:26.656432 13317 layer_factory.hpp:76] Creating layer inception_3a/relu_pool_proj
I1124 13:29:26.656438 13317 net.cpp:106] Creating Layer inception_3a/relu_pool_proj
I1124 13:29:26.656441 13317 net.cpp:454] inception_3a/relu_pool_proj <- inception_3a/pool_proj
I1124 13:29:26.656448 13317 net.cpp:397] inception_3a/relu_pool_proj -> inception_3a/pool_proj (in-place)
I1124 13:29:26.656751 13317 net.cpp:150] Setting up inception_3a/relu_pool_proj
I1124 13:29:26.656764 13317 net.cpp:157] Top shape: 64 32 28 28 (1605632)
I1124 13:29:26.656769 13317 net.cpp:165] Memory required for data: 1496450048
I1124 13:29:26.656771 13317 layer_factory.hpp:76] Creating layer inception_3a/output
I1124 13:29:26.656782 13317 net.cpp:106] Creating Layer inception_3a/output
I1124 13:29:26.656785 13317 net.cpp:454] inception_3a/output <- inception_3a/1x1
I1124 13:29:26.656790 13317 net.cpp:454] inception_3a/output <- inception_3a/3x3
I1124 13:29:26.656793 13317 net.cpp:454] inception_3a/output <- inception_3a/5x5
I1124 13:29:26.656797 13317 net.cpp:454] inception_3a/output <- inception_3a/pool_proj
I1124 13:29:26.656801 13317 net.cpp:411] inception_3a/output -> inception_3a/output
I1124 13:29:26.656834 13317 net.cpp:150] Setting up inception_3a/output
I1124 13:29:26.656841 13317 net.cpp:157] Top shape: 64 256 28 28 (12845056)
I1124 13:29:26.656844 13317 net.cpp:165] Memory required for data: 1547830272
I1124 13:29:26.656847 13317 layer_factory.hpp:76] Creating layer inception_3a/output_inception_3a/output_0_split
I1124 13:29:26.656852 13317 net.cpp:106] Creating Layer inception_3a/output_inception_3a/output_0_split
I1124 13:29:26.656857 13317 net.cpp:454] inception_3a/output_inception_3a/output_0_split <- inception_3a/output
I1124 13:29:26.656862 13317 net.cpp:411] inception_3a/output_inception_3a/output_0_split -> inception_3a/output_inception_3a/output_0_split_0
I1124 13:29:26.656868 13317 net.cpp:411] inception_3a/output_inception_3a/output_0_split -> inception_3a/output_inception_3a/output_0_split_1
I1124 13:29:26.656875 13317 net.cpp:411] inception_3a/output_inception_3a/output_0_split -> inception_3a/output_inception_3a/output_0_split_2
I1124 13:29:26.656880 13317 net.cpp:411] inception_3a/output_inception_3a/output_0_split -> inception_3a/output_inception_3a/output_0_split_3
I1124 13:29:26.656937 13317 net.cpp:150] Setting up inception_3a/output_inception_3a/output_0_split
I1124 13:29:26.656944 13317 net.cpp:157] Top shape: 64 256 28 28 (12845056)
I1124 13:29:26.656947 13317 net.cpp:157] Top shape: 64 256 28 28 (12845056)
I1124 13:29:26.656951 13317 net.cpp:157] Top shape: 64 256 28 28 (12845056)
I1124 13:29:26.656955 13317 net.cpp:157] Top shape: 64 256 28 28 (12845056)
I1124 13:29:26.656957 13317 net.cpp:165] Memory required for data: 1753351168
I1124 13:29:26.656960 13317 layer_factory.hpp:76] Creating layer inception_3b/1x1
I1124 13:29:26.656970 13317 net.cpp:106] Creating Layer inception_3b/1x1
I1124 13:29:26.656973 13317 net.cpp:454] inception_3b/1x1 <- inception_3a/output_inception_3a/output_0_split_0
I1124 13:29:26.656980 13317 net.cpp:411] inception_3b/1x1 -> inception_3b/1x1
I1124 13:29:26.658126 13317 net.cpp:150] Setting up inception_3b/1x1
I1124 13:29:26.658140 13317 net.cpp:157] Top shape: 64 128 28 28 (6422528)
I1124 13:29:26.658144 13317 net.cpp:165] Memory required for data: 1779041280
I1124 13:29:26.658150 13317 layer_factory.hpp:76] Creating layer inception_3b/relu_1x1
I1124 13:29:26.658157 13317 net.cpp:106] Creating Layer inception_3b/relu_1x1
I1124 13:29:26.658161 13317 net.cpp:454] inception_3b/relu_1x1 <- inception_3b/1x1
I1124 13:29:26.658166 13317 net.cpp:397] inception_3b/relu_1x1 -> inception_3b/1x1 (in-place)
I1124 13:29:26.658331 13317 net.cpp:150] Setting up inception_3b/relu_1x1
I1124 13:29:26.658341 13317 net.cpp:157] Top shape: 64 128 28 28 (6422528)
I1124 13:29:26.658344 13317 net.cpp:165] Memory required for data: 1804731392
I1124 13:29:26.658347 13317 layer_factory.hpp:76] Creating layer inception_3b/3x3_reduce
I1124 13:29:26.658356 13317 net.cpp:106] Creating Layer inception_3b/3x3_reduce
I1124 13:29:26.658360 13317 net.cpp:454] inception_3b/3x3_reduce <- inception_3a/output_inception_3a/output_0_split_1
I1124 13:29:26.658366 13317 net.cpp:411] inception_3b/3x3_reduce -> inception_3b/3x3_reduce
I1124 13:29:26.659534 13317 net.cpp:150] Setting up inception_3b/3x3_reduce
I1124 13:29:26.659548 13317 net.cpp:157] Top shape: 64 128 28 28 (6422528)
I1124 13:29:26.659553 13317 net.cpp:165] Memory required for data: 1830421504
I1124 13:29:26.659559 13317 layer_factory.hpp:76] Creating layer inception_3b/relu_3x3_reduce
I1124 13:29:26.659564 13317 net.cpp:106] Creating Layer inception_3b/relu_3x3_reduce
I1124 13:29:26.659569 13317 net.cpp:454] inception_3b/relu_3x3_reduce <- inception_3b/3x3_reduce
I1124 13:29:26.659572 13317 net.cpp:397] inception_3b/relu_3x3_reduce -> inception_3b/3x3_reduce (in-place)
I1124 13:29:26.659873 13317 net.cpp:150] Setting up inception_3b/relu_3x3_reduce
I1124 13:29:26.659886 13317 net.cpp:157] Top shape: 64 128 28 28 (6422528)
I1124 13:29:26.659889 13317 net.cpp:165] Memory required for data: 1856111616
I1124 13:29:26.659893 13317 layer_factory.hpp:76] Creating layer inception_3b/3x3
I1124 13:29:26.659905 13317 net.cpp:106] Creating Layer inception_3b/3x3
I1124 13:29:26.659909 13317 net.cpp:454] inception_3b/3x3 <- inception_3b/3x3_reduce
I1124 13:29:26.659916 13317 net.cpp:411] inception_3b/3x3 -> inception_3b/3x3
I1124 13:29:26.662582 13317 net.cpp:150] Setting up inception_3b/3x3
I1124 13:29:26.662596 13317 net.cpp:157] Top shape: 64 192 28 28 (9633792)
I1124 13:29:26.662600 13317 net.cpp:165] Memory required for data: 1894646784
I1124 13:29:26.662606 13317 layer_factory.hpp:76] Creating layer inception_3b/relu_3x3
I1124 13:29:26.662613 13317 net.cpp:106] Creating Layer inception_3b/relu_3x3
I1124 13:29:26.662617 13317 net.cpp:454] inception_3b/relu_3x3 <- inception_3b/3x3
I1124 13:29:26.662622 13317 net.cpp:397] inception_3b/relu_3x3 -> inception_3b/3x3 (in-place)
I1124 13:29:26.663099 13317 net.cpp:150] Setting up inception_3b/relu_3x3
I1124 13:29:26.663113 13317 net.cpp:157] Top shape: 64 192 28 28 (9633792)
I1124 13:29:26.663116 13317 net.cpp:165] Memory required for data: 1933181952
I1124 13:29:26.663120 13317 layer_factory.hpp:76] Creating layer inception_3b/5x5_reduce
I1124 13:29:26.663130 13317 net.cpp:106] Creating Layer inception_3b/5x5_reduce
I1124 13:29:26.663133 13317 net.cpp:454] inception_3b/5x5_reduce <- inception_3a/output_inception_3a/output_0_split_2
I1124 13:29:26.663141 13317 net.cpp:411] inception_3b/5x5_reduce -> inception_3b/5x5_reduce
I1124 13:29:26.664180 13317 net.cpp:150] Setting up inception_3b/5x5_reduce
I1124 13:29:26.664193 13317 net.cpp:157] Top shape: 64 32 28 28 (1605632)
I1124 13:29:26.664196 13317 net.cpp:165] Memory required for data: 1939604480
I1124 13:29:26.664203 13317 layer_factory.hpp:76] Creating layer inception_3b/relu_5x5_reduce
I1124 13:29:26.664209 13317 net.cpp:106] Creating Layer inception_3b/relu_5x5_reduce
I1124 13:29:26.664214 13317 net.cpp:454] inception_3b/relu_5x5_reduce <- inception_3b/5x5_reduce
I1124 13:29:26.664219 13317 net.cpp:397] inception_3b/relu_5x5_reduce -> inception_3b/5x5_reduce (in-place)
I1124 13:29:26.664383 13317 net.cpp:150] Setting up inception_3b/relu_5x5_reduce
I1124 13:29:26.664393 13317 net.cpp:157] Top shape: 64 32 28 28 (1605632)
I1124 13:29:26.664397 13317 net.cpp:165] Memory required for data: 1946027008
I1124 13:29:26.664400 13317 layer_factory.hpp:76] Creating layer inception_3b/5x5
I1124 13:29:26.664410 13317 net.cpp:106] Creating Layer inception_3b/5x5
I1124 13:29:26.664414 13317 net.cpp:454] inception_3b/5x5 <- inception_3b/5x5_reduce
I1124 13:29:26.664419 13317 net.cpp:411] inception_3b/5x5 -> inception_3b/5x5
I1124 13:29:26.666328 13317 net.cpp:150] Setting up inception_3b/5x5
I1124 13:29:26.666343 13317 net.cpp:157] Top shape: 64 96 28 28 (4816896)
I1124 13:29:26.666347 13317 net.cpp:165] Memory required for data: 1965294592
I1124 13:29:26.666352 13317 layer_factory.hpp:76] Creating layer inception_3b/relu_5x5
I1124 13:29:26.666360 13317 net.cpp:106] Creating Layer inception_3b/relu_5x5
I1124 13:29:26.666363 13317 net.cpp:454] inception_3b/relu_5x5 <- inception_3b/5x5
I1124 13:29:26.666368 13317 net.cpp:397] inception_3b/relu_5x5 -> inception_3b/5x5 (in-place)
I1124 13:29:26.666672 13317 net.cpp:150] Setting up inception_3b/relu_5x5
I1124 13:29:26.666685 13317 net.cpp:157] Top shape: 64 96 28 28 (4816896)
I1124 13:29:26.666689 13317 net.cpp:165] Memory required for data: 1984562176
I1124 13:29:26.666692 13317 layer_factory.hpp:76] Creating layer inception_3b/pool
I1124 13:29:26.666698 13317 net.cpp:106] Creating Layer inception_3b/pool
I1124 13:29:26.666703 13317 net.cpp:454] inception_3b/pool <- inception_3a/output_inception_3a/output_0_split_3
I1124 13:29:26.666709 13317 net.cpp:411] inception_3b/pool -> inception_3b/pool
I1124 13:29:26.666916 13317 net.cpp:150] Setting up inception_3b/pool
I1124 13:29:26.666929 13317 net.cpp:157] Top shape: 64 256 28 28 (12845056)
I1124 13:29:26.666931 13317 net.cpp:165] Memory required for data: 2035942400
I1124 13:29:26.666935 13317 layer_factory.hpp:76] Creating layer inception_3b/pool_proj
I1124 13:29:26.666944 13317 net.cpp:106] Creating Layer inception_3b/pool_proj
I1124 13:29:26.666951 13317 net.cpp:454] inception_3b/pool_proj <- inception_3b/pool
I1124 13:29:26.666959 13317 net.cpp:411] inception_3b/pool_proj -> inception_3b/pool_proj
I1124 13:29:26.668026 13317 net.cpp:150] Setting up inception_3b/pool_proj
I1124 13:29:26.668040 13317 net.cpp:157] Top shape: 64 64 28 28 (3211264)
I1124 13:29:26.668043 13317 net.cpp:165] Memory required for data: 2048787456
I1124 13:29:26.668050 13317 layer_factory.hpp:76] Creating layer inception_3b/relu_pool_proj
I1124 13:29:26.668057 13317 net.cpp:106] Creating Layer inception_3b/relu_pool_proj
I1124 13:29:26.668061 13317 net.cpp:454] inception_3b/relu_pool_proj <- inception_3b/pool_proj
I1124 13:29:26.668066 13317 net.cpp:397] inception_3b/relu_pool_proj -> inception_3b/pool_proj (in-place)
I1124 13:29:26.668231 13317 net.cpp:150] Setting up inception_3b/relu_pool_proj
I1124 13:29:26.668241 13317 net.cpp:157] Top shape: 64 64 28 28 (3211264)
I1124 13:29:26.668244 13317 net.cpp:165] Memory required for data: 2061632512
I1124 13:29:26.668248 13317 layer_factory.hpp:76] Creating layer inception_3b/output
I1124 13:29:26.668253 13317 net.cpp:106] Creating Layer inception_3b/output
I1124 13:29:26.668257 13317 net.cpp:454] inception_3b/output <- inception_3b/1x1
I1124 13:29:26.668262 13317 net.cpp:454] inception_3b/output <- inception_3b/3x3
I1124 13:29:26.668267 13317 net.cpp:454] inception_3b/output <- inception_3b/5x5
I1124 13:29:26.668269 13317 net.cpp:454] inception_3b/output <- inception_3b/pool_proj
I1124 13:29:26.668274 13317 net.cpp:411] inception_3b/output -> inception_3b/output
I1124 13:29:26.668301 13317 net.cpp:150] Setting up inception_3b/output
I1124 13:29:26.668308 13317 net.cpp:157] Top shape: 64 480 28 28 (24084480)
I1124 13:29:26.668311 13317 net.cpp:165] Memory required for data: 2157970432
I1124 13:29:26.668314 13317 layer_factory.hpp:76] Creating layer pool3/3x3_s2
I1124 13:29:26.668321 13317 net.cpp:106] Creating Layer pool3/3x3_s2
I1124 13:29:26.668325 13317 net.cpp:454] pool3/3x3_s2 <- inception_3b/output
I1124 13:29:26.668333 13317 net.cpp:411] pool3/3x3_s2 -> pool3/3x3_s2
I1124 13:29:26.668658 13317 net.cpp:150] Setting up pool3/3x3_s2
I1124 13:29:26.668671 13317 net.cpp:157] Top shape: 64 480 14 14 (6021120)
I1124 13:29:26.668674 13317 net.cpp:165] Memory required for data: 2182054912
I1124 13:29:26.668678 13317 layer_factory.hpp:76] Creating layer pool3/3x3_s2_pool3/3x3_s2_0_split
I1124 13:29:26.668684 13317 net.cpp:106] Creating Layer pool3/3x3_s2_pool3/3x3_s2_0_split
I1124 13:29:26.668687 13317 net.cpp:454] pool3/3x3_s2_pool3/3x3_s2_0_split <- pool3/3x3_s2
I1124 13:29:26.668694 13317 net.cpp:411] pool3/3x3_s2_pool3/3x3_s2_0_split -> pool3/3x3_s2_pool3/3x3_s2_0_split_0
I1124 13:29:26.668701 13317 net.cpp:411] pool3/3x3_s2_pool3/3x3_s2_0_split -> pool3/3x3_s2_pool3/3x3_s2_0_split_1
I1124 13:29:26.668706 13317 net.cpp:411] pool3/3x3_s2_pool3/3x3_s2_0_split -> pool3/3x3_s2_pool3/3x3_s2_0_split_2
I1124 13:29:26.668711 13317 net.cpp:411] pool3/3x3_s2_pool3/3x3_s2_0_split -> pool3/3x3_s2_pool3/3x3_s2_0_split_3
I1124 13:29:26.668768 13317 net.cpp:150] Setting up pool3/3x3_s2_pool3/3x3_s2_0_split
I1124 13:29:26.668777 13317 net.cpp:157] Top shape: 64 480 14 14 (6021120)
I1124 13:29:26.668781 13317 net.cpp:157] Top shape: 64 480 14 14 (6021120)
I1124 13:29:26.668784 13317 net.cpp:157] Top shape: 64 480 14 14 (6021120)
I1124 13:29:26.668788 13317 net.cpp:157] Top shape: 64 480 14 14 (6021120)
I1124 13:29:26.668790 13317 net.cpp:165] Memory required for data: 2278392832
I1124 13:29:26.668794 13317 layer_factory.hpp:76] Creating layer inception_4a/1x1
I1124 13:29:26.668802 13317 net.cpp:106] Creating Layer inception_4a/1x1
I1124 13:29:26.668804 13317 net.cpp:454] inception_4a/1x1 <- pool3/3x3_s2_pool3/3x3_s2_0_split_0
I1124 13:29:26.668812 13317 net.cpp:411] inception_4a/1x1 -> inception_4a/1x1
I1124 13:29:26.670474 13317 net.cpp:150] Setting up inception_4a/1x1
I1124 13:29:26.670487 13317 net.cpp:157] Top shape: 64 192 14 14 (2408448)
I1124 13:29:26.670490 13317 net.cpp:165] Memory required for data: 2288026624
I1124 13:29:26.670498 13317 layer_factory.hpp:76] Creating layer inception_4a/relu_1x1
I1124 13:29:26.670505 13317 net.cpp:106] Creating Layer inception_4a/relu_1x1
I1124 13:29:26.670508 13317 net.cpp:454] inception_4a/relu_1x1 <- inception_4a/1x1
I1124 13:29:26.670512 13317 net.cpp:397] inception_4a/relu_1x1 -> inception_4a/1x1 (in-place)
I1124 13:29:26.670682 13317 net.cpp:150] Setting up inception_4a/relu_1x1
I1124 13:29:26.670692 13317 net.cpp:157] Top shape: 64 192 14 14 (2408448)
I1124 13:29:26.670696 13317 net.cpp:165] Memory required for data: 2297660416
I1124 13:29:26.670699 13317 layer_factory.hpp:76] Creating layer inception_4a/3x3_reduce
I1124 13:29:26.670708 13317 net.cpp:106] Creating Layer inception_4a/3x3_reduce
I1124 13:29:26.670713 13317 net.cpp:454] inception_4a/3x3_reduce <- pool3/3x3_s2_pool3/3x3_s2_0_split_1
I1124 13:29:26.670719 13317 net.cpp:411] inception_4a/3x3_reduce -> inception_4a/3x3_reduce
I1124 13:29:26.672019 13317 net.cpp:150] Setting up inception_4a/3x3_reduce
I1124 13:29:26.672035 13317 net.cpp:157] Top shape: 64 96 14 14 (1204224)
I1124 13:29:26.672039 13317 net.cpp:165] Memory required for data: 2302477312
I1124 13:29:26.672049 13317 layer_factory.hpp:76] Creating layer inception_4a/relu_3x3_reduce
I1124 13:29:26.672057 13317 net.cpp:106] Creating Layer inception_4a/relu_3x3_reduce
I1124 13:29:26.672061 13317 net.cpp:454] inception_4a/relu_3x3_reduce <- inception_4a/3x3_reduce
I1124 13:29:26.672066 13317 net.cpp:397] inception_4a/relu_3x3_reduce -> inception_4a/3x3_reduce (in-place)
I1124 13:29:26.672364 13317 net.cpp:150] Setting up inception_4a/relu_3x3_reduce
I1124 13:29:26.672377 13317 net.cpp:157] Top shape: 64 96 14 14 (1204224)
I1124 13:29:26.672380 13317 net.cpp:165] Memory required for data: 2307294208
I1124 13:29:26.672384 13317 layer_factory.hpp:76] Creating layer inception_4a/3x3
I1124 13:29:26.672392 13317 net.cpp:106] Creating Layer inception_4a/3x3
I1124 13:29:26.672396 13317 net.cpp:454] inception_4a/3x3 <- inception_4a/3x3_reduce
I1124 13:29:26.672404 13317 net.cpp:411] inception_4a/3x3 -> inception_4a/3x3
I1124 13:29:26.674837 13317 net.cpp:150] Setting up inception_4a/3x3
I1124 13:29:26.674851 13317 net.cpp:157] Top shape: 64 208 14 14 (2609152)
I1124 13:29:26.674854 13317 net.cpp:165] Memory required for data: 2317730816
I1124 13:29:26.674861 13317 layer_factory.hpp:76] Creating layer inception_4a/relu_3x3
I1124 13:29:26.674866 13317 net.cpp:106] Creating Layer inception_4a/relu_3x3
I1124 13:29:26.674870 13317 net.cpp:454] inception_4a/relu_3x3 <- inception_4a/3x3
I1124 13:29:26.674876 13317 net.cpp:397] inception_4a/relu_3x3 -> inception_4a/3x3 (in-place)
I1124 13:29:26.675179 13317 net.cpp:150] Setting up inception_4a/relu_3x3
I1124 13:29:26.675192 13317 net.cpp:157] Top shape: 64 208 14 14 (2609152)
I1124 13:29:26.675195 13317 net.cpp:165] Memory required for data: 2328167424
I1124 13:29:26.675199 13317 layer_factory.hpp:76] Creating layer inception_4a/5x5_reduce
I1124 13:29:26.675207 13317 net.cpp:106] Creating Layer inception_4a/5x5_reduce
I1124 13:29:26.675211 13317 net.cpp:454] inception_4a/5x5_reduce <- pool3/3x3_s2_pool3/3x3_s2_0_split_2
I1124 13:29:26.675220 13317 net.cpp:411] inception_4a/5x5_reduce -> inception_4a/5x5_reduce
I1124 13:29:26.676254 13317 net.cpp:150] Setting up inception_4a/5x5_reduce
I1124 13:29:26.676266 13317 net.cpp:157] Top shape: 64 16 14 14 (200704)
I1124 13:29:26.676270 13317 net.cpp:165] Memory required for data: 2328970240
I1124 13:29:26.676276 13317 layer_factory.hpp:76] Creating layer inception_4a/relu_5x5_reduce
I1124 13:29:26.676283 13317 net.cpp:106] Creating Layer inception_4a/relu_5x5_reduce
I1124 13:29:26.676287 13317 net.cpp:454] inception_4a/relu_5x5_reduce <- inception_4a/5x5_reduce
I1124 13:29:26.676292 13317 net.cpp:397] inception_4a/relu_5x5_reduce -> inception_4a/5x5_reduce (in-place)
I1124 13:29:26.676584 13317 net.cpp:150] Setting up inception_4a/relu_5x5_reduce
I1124 13:29:26.676599 13317 net.cpp:157] Top shape: 64 16 14 14 (200704)
I1124 13:29:26.676601 13317 net.cpp:165] Memory required for data: 2329773056
I1124 13:29:26.676604 13317 layer_factory.hpp:76] Creating layer inception_4a/5x5
I1124 13:29:26.676612 13317 net.cpp:106] Creating Layer inception_4a/5x5
I1124 13:29:26.676616 13317 net.cpp:454] inception_4a/5x5 <- inception_4a/5x5_reduce
I1124 13:29:26.676623 13317 net.cpp:411] inception_4a/5x5 -> inception_4a/5x5
I1124 13:29:26.677737 13317 net.cpp:150] Setting up inception_4a/5x5
I1124 13:29:26.677752 13317 net.cpp:157] Top shape: 64 48 14 14 (602112)
I1124 13:29:26.677754 13317 net.cpp:165] Memory required for data: 2332181504
I1124 13:29:26.677762 13317 layer_factory.hpp:76] Creating layer inception_4a/relu_5x5
I1124 13:29:26.677767 13317 net.cpp:106] Creating Layer inception_4a/relu_5x5
I1124 13:29:26.677770 13317 net.cpp:454] inception_4a/relu_5x5 <- inception_4a/5x5
I1124 13:29:26.677778 13317 net.cpp:397] inception_4a/relu_5x5 -> inception_4a/5x5 (in-place)
I1124 13:29:26.678076 13317 net.cpp:150] Setting up inception_4a/relu_5x5
I1124 13:29:26.678088 13317 net.cpp:157] Top shape: 64 48 14 14 (602112)
I1124 13:29:26.678092 13317 net.cpp:165] Memory required for data: 2334589952
I1124 13:29:26.678094 13317 layer_factory.hpp:76] Creating layer inception_4a/pool
I1124 13:29:26.678102 13317 net.cpp:106] Creating Layer inception_4a/pool
I1124 13:29:26.678107 13317 net.cpp:454] inception_4a/pool <- pool3/3x3_s2_pool3/3x3_s2_0_split_3
I1124 13:29:26.678112 13317 net.cpp:411] inception_4a/pool -> inception_4a/pool
I1124 13:29:26.678308 13317 net.cpp:150] Setting up inception_4a/pool
I1124 13:29:26.678318 13317 net.cpp:157] Top shape: 64 480 14 14 (6021120)
I1124 13:29:26.678321 13317 net.cpp:165] Memory required for data: 2358674432
I1124 13:29:26.678325 13317 layer_factory.hpp:76] Creating layer inception_4a/pool_proj
I1124 13:29:26.678334 13317 net.cpp:106] Creating Layer inception_4a/pool_proj
I1124 13:29:26.678339 13317 net.cpp:454] inception_4a/pool_proj <- inception_4a/pool
I1124 13:29:26.678346 13317 net.cpp:411] inception_4a/pool_proj -> inception_4a/pool_proj
I1124 13:29:26.679549 13317 net.cpp:150] Setting up inception_4a/pool_proj
I1124 13:29:26.679564 13317 net.cpp:157] Top shape: 64 64 14 14 (802816)
I1124 13:29:26.679568 13317 net.cpp:165] Memory required for data: 2361885696
I1124 13:29:26.679574 13317 layer_factory.hpp:76] Creating layer inception_4a/relu_pool_proj
I1124 13:29:26.679579 13317 net.cpp:106] Creating Layer inception_4a/relu_pool_proj
I1124 13:29:26.679584 13317 net.cpp:454] inception_4a/relu_pool_proj <- inception_4a/pool_proj
I1124 13:29:26.679591 13317 net.cpp:397] inception_4a/relu_pool_proj -> inception_4a/pool_proj (in-place)
I1124 13:29:26.679889 13317 net.cpp:150] Setting up inception_4a/relu_pool_proj
I1124 13:29:26.679903 13317 net.cpp:157] Top shape: 64 64 14 14 (802816)
I1124 13:29:26.679905 13317 net.cpp:165] Memory required for data: 2365096960
I1124 13:29:26.679909 13317 layer_factory.hpp:76] Creating layer inception_4a/output
I1124 13:29:26.679915 13317 net.cpp:106] Creating Layer inception_4a/output
I1124 13:29:26.679919 13317 net.cpp:454] inception_4a/output <- inception_4a/1x1
I1124 13:29:26.679924 13317 net.cpp:454] inception_4a/output <- inception_4a/3x3
I1124 13:29:26.679929 13317 net.cpp:454] inception_4a/output <- inception_4a/5x5
I1124 13:29:26.679939 13317 net.cpp:454] inception_4a/output <- inception_4a/pool_proj
I1124 13:29:26.679942 13317 net.cpp:411] inception_4a/output -> inception_4a/output
I1124 13:29:26.679973 13317 net.cpp:150] Setting up inception_4a/output
I1124 13:29:26.679980 13317 net.cpp:157] Top shape: 64 512 14 14 (6422528)
I1124 13:29:26.679983 13317 net.cpp:165] Memory required for data: 2390787072
I1124 13:29:26.679986 13317 layer_factory.hpp:76] Creating layer inception_4a/output_inception_4a/output_0_split
I1124 13:29:26.679994 13317 net.cpp:106] Creating Layer inception_4a/output_inception_4a/output_0_split
I1124 13:29:26.679998 13317 net.cpp:454] inception_4a/output_inception_4a/output_0_split <- inception_4a/output
I1124 13:29:26.680003 13317 net.cpp:411] inception_4a/output_inception_4a/output_0_split -> inception_4a/output_inception_4a/output_0_split_0
I1124 13:29:26.680011 13317 net.cpp:411] inception_4a/output_inception_4a/output_0_split -> inception_4a/output_inception_4a/output_0_split_1
I1124 13:29:26.680018 13317 net.cpp:411] inception_4a/output_inception_4a/output_0_split -> inception_4a/output_inception_4a/output_0_split_2
I1124 13:29:26.680024 13317 net.cpp:411] inception_4a/output_inception_4a/output_0_split -> inception_4a/output_inception_4a/output_0_split_3
I1124 13:29:26.680030 13317 net.cpp:411] inception_4a/output_inception_4a/output_0_split -> inception_4a/output_inception_4a/output_0_split_4
I1124 13:29:26.680100 13317 net.cpp:150] Setting up inception_4a/output_inception_4a/output_0_split
I1124 13:29:26.680107 13317 net.cpp:157] Top shape: 64 512 14 14 (6422528)
I1124 13:29:26.680111 13317 net.cpp:157] Top shape: 64 512 14 14 (6422528)
I1124 13:29:26.680115 13317 net.cpp:157] Top shape: 64 512 14 14 (6422528)
I1124 13:29:26.680119 13317 net.cpp:157] Top shape: 64 512 14 14 (6422528)
I1124 13:29:26.680122 13317 net.cpp:157] Top shape: 64 512 14 14 (6422528)
I1124 13:29:26.680125 13317 net.cpp:165] Memory required for data: 2519237632
I1124 13:29:26.680129 13317 layer_factory.hpp:76] Creating layer loss1/ave_pool
I1124 13:29:26.680135 13317 net.cpp:106] Creating Layer loss1/ave_pool
I1124 13:29:26.680140 13317 net.cpp:454] loss1/ave_pool <- inception_4a/output_inception_4a/output_0_split_0
I1124 13:29:26.680143 13317 net.cpp:411] loss1/ave_pool -> loss1/ave_pool
I1124 13:29:26.680341 13317 net.cpp:150] Setting up loss1/ave_pool
I1124 13:29:26.680352 13317 net.cpp:157] Top shape: 64 512 4 4 (524288)
I1124 13:29:26.680356 13317 net.cpp:165] Memory required for data: 2521334784
I1124 13:29:26.680358 13317 layer_factory.hpp:76] Creating layer loss1/conv
I1124 13:29:26.680367 13317 net.cpp:106] Creating Layer loss1/conv
I1124 13:29:26.680372 13317 net.cpp:454] loss1/conv <- loss1/ave_pool
I1124 13:29:26.680379 13317 net.cpp:411] loss1/conv -> loss1/conv
I1124 13:29:26.681787 13317 net.cpp:150] Setting up loss1/conv
I1124 13:29:26.681800 13317 net.cpp:157] Top shape: 64 128 4 4 (131072)
I1124 13:29:26.681807 13317 net.cpp:165] Memory required for data: 2521859072
I1124 13:29:26.681813 13317 layer_factory.hpp:76] Creating layer loss1/relu_conv
I1124 13:29:26.681819 13317 net.cpp:106] Creating Layer loss1/relu_conv
I1124 13:29:26.681824 13317 net.cpp:454] loss1/relu_conv <- loss1/conv
I1124 13:29:26.681829 13317 net.cpp:397] loss1/relu_conv -> loss1/conv (in-place)
I1124 13:29:26.681994 13317 net.cpp:150] Setting up loss1/relu_conv
I1124 13:29:26.682005 13317 net.cpp:157] Top shape: 64 128 4 4 (131072)
I1124 13:29:26.682008 13317 net.cpp:165] Memory required for data: 2522383360
I1124 13:29:26.682011 13317 layer_factory.hpp:76] Creating layer loss1/fc
I1124 13:29:26.682018 13317 net.cpp:106] Creating Layer loss1/fc
I1124 13:29:26.682023 13317 net.cpp:454] loss1/fc <- loss1/conv
I1124 13:29:26.682029 13317 net.cpp:411] loss1/fc -> loss1/fc
I1124 13:29:26.697578 13317 net.cpp:150] Setting up loss1/fc
I1124 13:29:26.697592 13317 net.cpp:157] Top shape: 64 1024 (65536)
I1124 13:29:26.697597 13317 net.cpp:165] Memory required for data: 2522645504
I1124 13:29:26.697602 13317 layer_factory.hpp:76] Creating layer loss1/relu_fc
I1124 13:29:26.697609 13317 net.cpp:106] Creating Layer loss1/relu_fc
I1124 13:29:26.697613 13317 net.cpp:454] loss1/relu_fc <- loss1/fc
I1124 13:29:26.697618 13317 net.cpp:397] loss1/relu_fc -> loss1/fc (in-place)
I1124 13:29:26.697945 13317 net.cpp:150] Setting up loss1/relu_fc
I1124 13:29:26.697959 13317 net.cpp:157] Top shape: 64 1024 (65536)
I1124 13:29:26.697962 13317 net.cpp:165] Memory required for data: 2522907648
I1124 13:29:26.697967 13317 layer_factory.hpp:76] Creating layer loss1/drop_fc
I1124 13:29:26.697984 13317 net.cpp:106] Creating Layer loss1/drop_fc
I1124 13:29:26.697988 13317 net.cpp:454] loss1/drop_fc <- loss1/fc
I1124 13:29:26.697993 13317 net.cpp:397] loss1/drop_fc -> loss1/fc (in-place)
I1124 13:29:26.698032 13317 net.cpp:150] Setting up loss1/drop_fc
I1124 13:29:26.698040 13317 net.cpp:157] Top shape: 64 1024 (65536)
I1124 13:29:26.698043 13317 net.cpp:165] Memory required for data: 2523169792
I1124 13:29:26.698047 13317 layer_factory.hpp:76] Creating layer loss1/classifier-attribute
I1124 13:29:26.698065 13317 net.cpp:106] Creating Layer loss1/classifier-attribute
I1124 13:29:26.698070 13317 net.cpp:454] loss1/classifier-attribute <- loss1/fc
I1124 13:29:26.698074 13317 net.cpp:411] loss1/classifier-attribute -> loss1/classifier-attribute
I1124 13:29:26.698251 13317 net.cpp:150] Setting up loss1/classifier-attribute
I1124 13:29:26.698261 13317 net.cpp:157] Top shape: 64 9 (576)
I1124 13:29:26.698263 13317 net.cpp:165] Memory required for data: 2523172096
I1124 13:29:26.698268 13317 layer_factory.hpp:76] Creating layer loss1/loss
I1124 13:29:26.698277 13317 net.cpp:106] Creating Layer loss1/loss
I1124 13:29:26.698281 13317 net.cpp:454] loss1/loss <- loss1/classifier-attribute
I1124 13:29:26.698284 13317 net.cpp:454] loss1/loss <- label_data_1_split_0
I1124 13:29:26.698289 13317 net.cpp:411] loss1/loss -> loss1/loss1
I1124 13:29:26.698303 13317 layer_factory.hpp:76] Creating layer loss1/loss
I1124 13:29:26.698564 13317 net.cpp:150] Setting up loss1/loss
I1124 13:29:26.698575 13317 net.cpp:157] Top shape: (1)
I1124 13:29:26.698577 13317 net.cpp:160]     with loss weight 0.3
I1124 13:29:26.698597 13317 net.cpp:165] Memory required for data: 2523172100
I1124 13:29:26.698602 13317 layer_factory.hpp:76] Creating layer inception_4b/1x1
I1124 13:29:26.698611 13317 net.cpp:106] Creating Layer inception_4b/1x1
I1124 13:29:26.698616 13317 net.cpp:454] inception_4b/1x1 <- inception_4a/output_inception_4a/output_0_split_1
I1124 13:29:26.698621 13317 net.cpp:411] inception_4b/1x1 -> inception_4b/1x1
I1124 13:29:26.700161 13317 net.cpp:150] Setting up inception_4b/1x1
I1124 13:29:26.700176 13317 net.cpp:157] Top shape: 64 160 14 14 (2007040)
I1124 13:29:26.700179 13317 net.cpp:165] Memory required for data: 2531200260
I1124 13:29:26.700186 13317 layer_factory.hpp:76] Creating layer inception_4b/relu_1x1
I1124 13:29:26.700191 13317 net.cpp:106] Creating Layer inception_4b/relu_1x1
I1124 13:29:26.700196 13317 net.cpp:454] inception_4b/relu_1x1 <- inception_4b/1x1
I1124 13:29:26.700204 13317 net.cpp:397] inception_4b/relu_1x1 -> inception_4b/1x1 (in-place)
I1124 13:29:26.700510 13317 net.cpp:150] Setting up inception_4b/relu_1x1
I1124 13:29:26.700522 13317 net.cpp:157] Top shape: 64 160 14 14 (2007040)
I1124 13:29:26.700525 13317 net.cpp:165] Memory required for data: 2539228420
I1124 13:29:26.700530 13317 layer_factory.hpp:76] Creating layer inception_4b/3x3_reduce
I1124 13:29:26.700538 13317 net.cpp:106] Creating Layer inception_4b/3x3_reduce
I1124 13:29:26.700541 13317 net.cpp:454] inception_4b/3x3_reduce <- inception_4a/output_inception_4a/output_0_split_2
I1124 13:29:26.700549 13317 net.cpp:411] inception_4b/3x3_reduce -> inception_4b/3x3_reduce
I1124 13:29:26.702369 13317 net.cpp:150] Setting up inception_4b/3x3_reduce
I1124 13:29:26.702383 13317 net.cpp:157] Top shape: 64 112 14 14 (1404928)
I1124 13:29:26.702388 13317 net.cpp:165] Memory required for data: 2544848132
I1124 13:29:26.702394 13317 layer_factory.hpp:76] Creating layer inception_4b/relu_3x3_reduce
I1124 13:29:26.702399 13317 net.cpp:106] Creating Layer inception_4b/relu_3x3_reduce
I1124 13:29:26.702404 13317 net.cpp:454] inception_4b/relu_3x3_reduce <- inception_4b/3x3_reduce
I1124 13:29:26.702410 13317 net.cpp:397] inception_4b/relu_3x3_reduce -> inception_4b/3x3_reduce (in-place)
I1124 13:29:26.702579 13317 net.cpp:150] Setting up inception_4b/relu_3x3_reduce
I1124 13:29:26.702589 13317 net.cpp:157] Top shape: 64 112 14 14 (1404928)
I1124 13:29:26.702594 13317 net.cpp:165] Memory required for data: 2550467844
I1124 13:29:26.702596 13317 layer_factory.hpp:76] Creating layer inception_4b/3x3
I1124 13:29:26.702605 13317 net.cpp:106] Creating Layer inception_4b/3x3
I1124 13:29:26.702607 13317 net.cpp:454] inception_4b/3x3 <- inception_4b/3x3_reduce
I1124 13:29:26.702615 13317 net.cpp:411] inception_4b/3x3 -> inception_4b/3x3
I1124 13:29:26.705492 13317 net.cpp:150] Setting up inception_4b/3x3
I1124 13:29:26.705507 13317 net.cpp:157] Top shape: 64 224 14 14 (2809856)
I1124 13:29:26.705512 13317 net.cpp:165] Memory required for data: 2561707268
I1124 13:29:26.705518 13317 layer_factory.hpp:76] Creating layer inception_4b/relu_3x3
I1124 13:29:26.705524 13317 net.cpp:106] Creating Layer inception_4b/relu_3x3
I1124 13:29:26.705529 13317 net.cpp:454] inception_4b/relu_3x3 <- inception_4b/3x3
I1124 13:29:26.705534 13317 net.cpp:397] inception_4b/relu_3x3 -> inception_4b/3x3 (in-place)
I1124 13:29:26.705703 13317 net.cpp:150] Setting up inception_4b/relu_3x3
I1124 13:29:26.705714 13317 net.cpp:157] Top shape: 64 224 14 14 (2809856)
I1124 13:29:26.705718 13317 net.cpp:165] Memory required for data: 2572946692
I1124 13:29:26.705721 13317 layer_factory.hpp:76] Creating layer inception_4b/5x5_reduce
I1124 13:29:26.705732 13317 net.cpp:106] Creating Layer inception_4b/5x5_reduce
I1124 13:29:26.705736 13317 net.cpp:454] inception_4b/5x5_reduce <- inception_4a/output_inception_4a/output_0_split_3
I1124 13:29:26.705742 13317 net.cpp:411] inception_4b/5x5_reduce -> inception_4b/5x5_reduce
I1124 13:29:26.706840 13317 net.cpp:150] Setting up inception_4b/5x5_reduce
I1124 13:29:26.706856 13317 net.cpp:157] Top shape: 64 24 14 14 (301056)
I1124 13:29:26.706858 13317 net.cpp:165] Memory required for data: 2574150916
I1124 13:29:26.706866 13317 layer_factory.hpp:76] Creating layer inception_4b/relu_5x5_reduce
I1124 13:29:26.706871 13317 net.cpp:106] Creating Layer inception_4b/relu_5x5_reduce
I1124 13:29:26.706876 13317 net.cpp:454] inception_4b/relu_5x5_reduce <- inception_4b/5x5_reduce
I1124 13:29:26.706881 13317 net.cpp:397] inception_4b/relu_5x5_reduce -> inception_4b/5x5_reduce (in-place)
I1124 13:29:26.707310 13317 net.cpp:150] Setting up inception_4b/relu_5x5_reduce
I1124 13:29:26.707324 13317 net.cpp:157] Top shape: 64 24 14 14 (301056)
I1124 13:29:26.707326 13317 net.cpp:165] Memory required for data: 2575355140
I1124 13:29:26.707330 13317 layer_factory.hpp:76] Creating layer inception_4b/5x5
I1124 13:29:26.707339 13317 net.cpp:106] Creating Layer inception_4b/5x5
I1124 13:29:26.707343 13317 net.cpp:454] inception_4b/5x5 <- inception_4b/5x5_reduce
I1124 13:29:26.707350 13317 net.cpp:411] inception_4b/5x5 -> inception_4b/5x5
I1124 13:29:26.708650 13317 net.cpp:150] Setting up inception_4b/5x5
I1124 13:29:26.708665 13317 net.cpp:157] Top shape: 64 64 14 14 (802816)
I1124 13:29:26.708668 13317 net.cpp:165] Memory required for data: 2578566404
I1124 13:29:26.708675 13317 layer_factory.hpp:76] Creating layer inception_4b/relu_5x5
I1124 13:29:26.708681 13317 net.cpp:106] Creating Layer inception_4b/relu_5x5
I1124 13:29:26.708685 13317 net.cpp:454] inception_4b/relu_5x5 <- inception_4b/5x5
I1124 13:29:26.708690 13317 net.cpp:397] inception_4b/relu_5x5 -> inception_4b/5x5 (in-place)
I1124 13:29:26.708856 13317 net.cpp:150] Setting up inception_4b/relu_5x5
I1124 13:29:26.708868 13317 net.cpp:157] Top shape: 64 64 14 14 (802816)
I1124 13:29:26.708870 13317 net.cpp:165] Memory required for data: 2581777668
I1124 13:29:26.708873 13317 layer_factory.hpp:76] Creating layer inception_4b/pool
I1124 13:29:26.708880 13317 net.cpp:106] Creating Layer inception_4b/pool
I1124 13:29:26.708884 13317 net.cpp:454] inception_4b/pool <- inception_4a/output_inception_4a/output_0_split_4
I1124 13:29:26.708889 13317 net.cpp:411] inception_4b/pool -> inception_4b/pool
I1124 13:29:26.709239 13317 net.cpp:150] Setting up inception_4b/pool
I1124 13:29:26.709252 13317 net.cpp:157] Top shape: 64 512 14 14 (6422528)
I1124 13:29:26.709255 13317 net.cpp:165] Memory required for data: 2607467780
I1124 13:29:26.709259 13317 layer_factory.hpp:76] Creating layer inception_4b/pool_proj
I1124 13:29:26.709269 13317 net.cpp:106] Creating Layer inception_4b/pool_proj
I1124 13:29:26.709274 13317 net.cpp:454] inception_4b/pool_proj <- inception_4b/pool
I1124 13:29:26.709280 13317 net.cpp:411] inception_4b/pool_proj -> inception_4b/pool_proj
I1124 13:29:26.710376 13317 net.cpp:150] Setting up inception_4b/pool_proj
I1124 13:29:26.710391 13317 net.cpp:157] Top shape: 64 64 14 14 (802816)
I1124 13:29:26.710393 13317 net.cpp:165] Memory required for data: 2610679044
I1124 13:29:26.710400 13317 layer_factory.hpp:76] Creating layer inception_4b/relu_pool_proj
I1124 13:29:26.710405 13317 net.cpp:106] Creating Layer inception_4b/relu_pool_proj
I1124 13:29:26.710409 13317 net.cpp:454] inception_4b/relu_pool_proj <- inception_4b/pool_proj
I1124 13:29:26.710418 13317 net.cpp:397] inception_4b/relu_pool_proj -> inception_4b/pool_proj (in-place)
I1124 13:29:26.710722 13317 net.cpp:150] Setting up inception_4b/relu_pool_proj
I1124 13:29:26.710736 13317 net.cpp:157] Top shape: 64 64 14 14 (802816)
I1124 13:29:26.710739 13317 net.cpp:165] Memory required for data: 2613890308
I1124 13:29:26.710742 13317 layer_factory.hpp:76] Creating layer inception_4b/output
I1124 13:29:26.710748 13317 net.cpp:106] Creating Layer inception_4b/output
I1124 13:29:26.710752 13317 net.cpp:454] inception_4b/output <- inception_4b/1x1
I1124 13:29:26.710758 13317 net.cpp:454] inception_4b/output <- inception_4b/3x3
I1124 13:29:26.710762 13317 net.cpp:454] inception_4b/output <- inception_4b/5x5
I1124 13:29:26.710765 13317 net.cpp:454] inception_4b/output <- inception_4b/pool_proj
I1124 13:29:26.710770 13317 net.cpp:411] inception_4b/output -> inception_4b/output
I1124 13:29:26.710816 13317 net.cpp:150] Setting up inception_4b/output
I1124 13:29:26.710824 13317 net.cpp:157] Top shape: 64 512 14 14 (6422528)
I1124 13:29:26.710826 13317 net.cpp:165] Memory required for data: 2639580420
I1124 13:29:26.710830 13317 layer_factory.hpp:76] Creating layer inception_4b/output_inception_4b/output_0_split
I1124 13:29:26.710835 13317 net.cpp:106] Creating Layer inception_4b/output_inception_4b/output_0_split
I1124 13:29:26.710839 13317 net.cpp:454] inception_4b/output_inception_4b/output_0_split <- inception_4b/output
I1124 13:29:26.710844 13317 net.cpp:411] inception_4b/output_inception_4b/output_0_split -> inception_4b/output_inception_4b/output_0_split_0
I1124 13:29:26.710851 13317 net.cpp:411] inception_4b/output_inception_4b/output_0_split -> inception_4b/output_inception_4b/output_0_split_1
I1124 13:29:26.710856 13317 net.cpp:411] inception_4b/output_inception_4b/output_0_split -> inception_4b/output_inception_4b/output_0_split_2
I1124 13:29:26.710862 13317 net.cpp:411] inception_4b/output_inception_4b/output_0_split -> inception_4b/output_inception_4b/output_0_split_3
I1124 13:29:26.710932 13317 net.cpp:150] Setting up inception_4b/output_inception_4b/output_0_split
I1124 13:29:26.710938 13317 net.cpp:157] Top shape: 64 512 14 14 (6422528)
I1124 13:29:26.710942 13317 net.cpp:157] Top shape: 64 512 14 14 (6422528)
I1124 13:29:26.710945 13317 net.cpp:157] Top shape: 64 512 14 14 (6422528)
I1124 13:29:26.710948 13317 net.cpp:157] Top shape: 64 512 14 14 (6422528)
I1124 13:29:26.710952 13317 net.cpp:165] Memory required for data: 2742340868
I1124 13:29:26.710954 13317 layer_factory.hpp:76] Creating layer inception_4c/1x1
I1124 13:29:26.710963 13317 net.cpp:106] Creating Layer inception_4c/1x1
I1124 13:29:26.710966 13317 net.cpp:454] inception_4c/1x1 <- inception_4b/output_inception_4b/output_0_split_0
I1124 13:29:26.710973 13317 net.cpp:411] inception_4c/1x1 -> inception_4c/1x1
I1124 13:29:26.712390 13317 net.cpp:150] Setting up inception_4c/1x1
I1124 13:29:26.712404 13317 net.cpp:157] Top shape: 64 128 14 14 (1605632)
I1124 13:29:26.712409 13317 net.cpp:165] Memory required for data: 2748763396
I1124 13:29:26.712414 13317 layer_factory.hpp:76] Creating layer inception_4c/relu_1x1
I1124 13:29:26.712422 13317 net.cpp:106] Creating Layer inception_4c/relu_1x1
I1124 13:29:26.712426 13317 net.cpp:454] inception_4c/relu_1x1 <- inception_4c/1x1
I1124 13:29:26.712434 13317 net.cpp:397] inception_4c/relu_1x1 -> inception_4c/1x1 (in-place)
I1124 13:29:26.712601 13317 net.cpp:150] Setting up inception_4c/relu_1x1
I1124 13:29:26.712612 13317 net.cpp:157] Top shape: 64 128 14 14 (1605632)
I1124 13:29:26.712616 13317 net.cpp:165] Memory required for data: 2755185924
I1124 13:29:26.712620 13317 layer_factory.hpp:76] Creating layer inception_4c/3x3_reduce
I1124 13:29:26.712627 13317 net.cpp:106] Creating Layer inception_4c/3x3_reduce
I1124 13:29:26.712631 13317 net.cpp:454] inception_4c/3x3_reduce <- inception_4b/output_inception_4b/output_0_split_1
I1124 13:29:26.712637 13317 net.cpp:411] inception_4c/3x3_reduce -> inception_4c/3x3_reduce
I1124 13:29:26.714076 13317 net.cpp:150] Setting up inception_4c/3x3_reduce
I1124 13:29:26.714090 13317 net.cpp:157] Top shape: 64 128 14 14 (1605632)
I1124 13:29:26.714093 13317 net.cpp:165] Memory required for data: 2761608452
I1124 13:29:26.714099 13317 layer_factory.hpp:76] Creating layer inception_4c/relu_3x3_reduce
I1124 13:29:26.714107 13317 net.cpp:106] Creating Layer inception_4c/relu_3x3_reduce
I1124 13:29:26.714112 13317 net.cpp:454] inception_4c/relu_3x3_reduce <- inception_4c/3x3_reduce
I1124 13:29:26.714117 13317 net.cpp:397] inception_4c/relu_3x3_reduce -> inception_4c/3x3_reduce (in-place)
I1124 13:29:26.714424 13317 net.cpp:150] Setting up inception_4c/relu_3x3_reduce
I1124 13:29:26.714437 13317 net.cpp:157] Top shape: 64 128 14 14 (1605632)
I1124 13:29:26.714440 13317 net.cpp:165] Memory required for data: 2768030980
I1124 13:29:26.714444 13317 layer_factory.hpp:76] Creating layer inception_4c/3x3
I1124 13:29:26.714453 13317 net.cpp:106] Creating Layer inception_4c/3x3
I1124 13:29:26.714457 13317 net.cpp:454] inception_4c/3x3 <- inception_4c/3x3_reduce
I1124 13:29:26.714464 13317 net.cpp:411] inception_4c/3x3 -> inception_4c/3x3
I1124 13:29:26.717701 13317 net.cpp:150] Setting up inception_4c/3x3
I1124 13:29:26.717716 13317 net.cpp:157] Top shape: 64 256 14 14 (3211264)
I1124 13:29:26.717720 13317 net.cpp:165] Memory required for data: 2780876036
I1124 13:29:26.717737 13317 layer_factory.hpp:76] Creating layer inception_4c/relu_3x3
I1124 13:29:26.717746 13317 net.cpp:106] Creating Layer inception_4c/relu_3x3
I1124 13:29:26.717751 13317 net.cpp:454] inception_4c/relu_3x3 <- inception_4c/3x3
I1124 13:29:26.717756 13317 net.cpp:397] inception_4c/relu_3x3 -> inception_4c/3x3 (in-place)
I1124 13:29:26.718065 13317 net.cpp:150] Setting up inception_4c/relu_3x3
I1124 13:29:26.718077 13317 net.cpp:157] Top shape: 64 256 14 14 (3211264)
I1124 13:29:26.718080 13317 net.cpp:165] Memory required for data: 2793721092
I1124 13:29:26.718085 13317 layer_factory.hpp:76] Creating layer inception_4c/5x5_reduce
I1124 13:29:26.718093 13317 net.cpp:106] Creating Layer inception_4c/5x5_reduce
I1124 13:29:26.718097 13317 net.cpp:454] inception_4c/5x5_reduce <- inception_4b/output_inception_4b/output_0_split_2
I1124 13:29:26.718104 13317 net.cpp:411] inception_4c/5x5_reduce -> inception_4c/5x5_reduce
I1124 13:29:26.719251 13317 net.cpp:150] Setting up inception_4c/5x5_reduce
I1124 13:29:26.719266 13317 net.cpp:157] Top shape: 64 24 14 14 (301056)
I1124 13:29:26.719270 13317 net.cpp:165] Memory required for data: 2794925316
I1124 13:29:26.719277 13317 layer_factory.hpp:76] Creating layer inception_4c/relu_5x5_reduce
I1124 13:29:26.719283 13317 net.cpp:106] Creating Layer inception_4c/relu_5x5_reduce
I1124 13:29:26.719287 13317 net.cpp:454] inception_4c/relu_5x5_reduce <- inception_4c/5x5_reduce
I1124 13:29:26.719292 13317 net.cpp:397] inception_4c/relu_5x5_reduce -> inception_4c/5x5_reduce (in-place)
I1124 13:29:26.719465 13317 net.cpp:150] Setting up inception_4c/relu_5x5_reduce
I1124 13:29:26.719475 13317 net.cpp:157] Top shape: 64 24 14 14 (301056)
I1124 13:29:26.719478 13317 net.cpp:165] Memory required for data: 2796129540
I1124 13:29:26.719482 13317 layer_factory.hpp:76] Creating layer inception_4c/5x5
I1124 13:29:26.719491 13317 net.cpp:106] Creating Layer inception_4c/5x5
I1124 13:29:26.719494 13317 net.cpp:454] inception_4c/5x5 <- inception_4c/5x5_reduce
I1124 13:29:26.719501 13317 net.cpp:411] inception_4c/5x5 -> inception_4c/5x5
I1124 13:29:26.721217 13317 net.cpp:150] Setting up inception_4c/5x5
I1124 13:29:26.721231 13317 net.cpp:157] Top shape: 64 64 14 14 (802816)
I1124 13:29:26.721235 13317 net.cpp:165] Memory required for data: 2799340804
I1124 13:29:26.721241 13317 layer_factory.hpp:76] Creating layer inception_4c/relu_5x5
I1124 13:29:26.721248 13317 net.cpp:106] Creating Layer inception_4c/relu_5x5
I1124 13:29:26.721253 13317 net.cpp:454] inception_4c/relu_5x5 <- inception_4c/5x5
I1124 13:29:26.721258 13317 net.cpp:397] inception_4c/relu_5x5 -> inception_4c/5x5 (in-place)
I1124 13:29:26.721573 13317 net.cpp:150] Setting up inception_4c/relu_5x5
I1124 13:29:26.721587 13317 net.cpp:157] Top shape: 64 64 14 14 (802816)
I1124 13:29:26.721590 13317 net.cpp:165] Memory required for data: 2802552068
I1124 13:29:26.721593 13317 layer_factory.hpp:76] Creating layer inception_4c/pool
I1124 13:29:26.721601 13317 net.cpp:106] Creating Layer inception_4c/pool
I1124 13:29:26.721606 13317 net.cpp:454] inception_4c/pool <- inception_4b/output_inception_4b/output_0_split_3
I1124 13:29:26.721611 13317 net.cpp:411] inception_4c/pool -> inception_4c/pool
I1124 13:29:26.721822 13317 net.cpp:150] Setting up inception_4c/pool
I1124 13:29:26.721832 13317 net.cpp:157] Top shape: 64 512 14 14 (6422528)
I1124 13:29:26.721835 13317 net.cpp:165] Memory required for data: 2828242180
I1124 13:29:26.721838 13317 layer_factory.hpp:76] Creating layer inception_4c/pool_proj
I1124 13:29:26.721848 13317 net.cpp:106] Creating Layer inception_4c/pool_proj
I1124 13:29:26.721851 13317 net.cpp:454] inception_4c/pool_proj <- inception_4c/pool
I1124 13:29:26.721858 13317 net.cpp:411] inception_4c/pool_proj -> inception_4c/pool_proj
I1124 13:29:26.723244 13317 net.cpp:150] Setting up inception_4c/pool_proj
I1124 13:29:26.723260 13317 net.cpp:157] Top shape: 64 64 14 14 (802816)
I1124 13:29:26.723264 13317 net.cpp:165] Memory required for data: 2831453444
I1124 13:29:26.723270 13317 layer_factory.hpp:76] Creating layer inception_4c/relu_pool_proj
I1124 13:29:26.723276 13317 net.cpp:106] Creating Layer inception_4c/relu_pool_proj
I1124 13:29:26.723280 13317 net.cpp:454] inception_4c/relu_pool_proj <- inception_4c/pool_proj
I1124 13:29:26.723285 13317 net.cpp:397] inception_4c/relu_pool_proj -> inception_4c/pool_proj (in-place)
I1124 13:29:26.723597 13317 net.cpp:150] Setting up inception_4c/relu_pool_proj
I1124 13:29:26.723609 13317 net.cpp:157] Top shape: 64 64 14 14 (802816)
I1124 13:29:26.723613 13317 net.cpp:165] Memory required for data: 2834664708
I1124 13:29:26.723616 13317 layer_factory.hpp:76] Creating layer inception_4c/output
I1124 13:29:26.723623 13317 net.cpp:106] Creating Layer inception_4c/output
I1124 13:29:26.723625 13317 net.cpp:454] inception_4c/output <- inception_4c/1x1
I1124 13:29:26.723630 13317 net.cpp:454] inception_4c/output <- inception_4c/3x3
I1124 13:29:26.723634 13317 net.cpp:454] inception_4c/output <- inception_4c/5x5
I1124 13:29:26.723637 13317 net.cpp:454] inception_4c/output <- inception_4c/pool_proj
I1124 13:29:26.723642 13317 net.cpp:411] inception_4c/output -> inception_4c/output
I1124 13:29:26.723678 13317 net.cpp:150] Setting up inception_4c/output
I1124 13:29:26.723685 13317 net.cpp:157] Top shape: 64 512 14 14 (6422528)
I1124 13:29:26.723687 13317 net.cpp:165] Memory required for data: 2860354820
I1124 13:29:26.723690 13317 layer_factory.hpp:76] Creating layer inception_4c/output_inception_4c/output_0_split
I1124 13:29:26.723696 13317 net.cpp:106] Creating Layer inception_4c/output_inception_4c/output_0_split
I1124 13:29:26.723701 13317 net.cpp:454] inception_4c/output_inception_4c/output_0_split <- inception_4c/output
I1124 13:29:26.723705 13317 net.cpp:411] inception_4c/output_inception_4c/output_0_split -> inception_4c/output_inception_4c/output_0_split_0
I1124 13:29:26.723711 13317 net.cpp:411] inception_4c/output_inception_4c/output_0_split -> inception_4c/output_inception_4c/output_0_split_1
I1124 13:29:26.723716 13317 net.cpp:411] inception_4c/output_inception_4c/output_0_split -> inception_4c/output_inception_4c/output_0_split_2
I1124 13:29:26.723721 13317 net.cpp:411] inception_4c/output_inception_4c/output_0_split -> inception_4c/output_inception_4c/output_0_split_3
I1124 13:29:26.723788 13317 net.cpp:150] Setting up inception_4c/output_inception_4c/output_0_split
I1124 13:29:26.723793 13317 net.cpp:157] Top shape: 64 512 14 14 (6422528)
I1124 13:29:26.723798 13317 net.cpp:157] Top shape: 64 512 14 14 (6422528)
I1124 13:29:26.723801 13317 net.cpp:157] Top shape: 64 512 14 14 (6422528)
I1124 13:29:26.723805 13317 net.cpp:157] Top shape: 64 512 14 14 (6422528)
I1124 13:29:26.723808 13317 net.cpp:165] Memory required for data: 2963115268
I1124 13:29:26.723810 13317 layer_factory.hpp:76] Creating layer inception_4d/1x1
I1124 13:29:26.723819 13317 net.cpp:106] Creating Layer inception_4d/1x1
I1124 13:29:26.723822 13317 net.cpp:454] inception_4d/1x1 <- inception_4c/output_inception_4c/output_0_split_0
I1124 13:29:26.723829 13317 net.cpp:411] inception_4d/1x1 -> inception_4d/1x1
I1124 13:29:26.725092 13317 net.cpp:150] Setting up inception_4d/1x1
I1124 13:29:26.725106 13317 net.cpp:157] Top shape: 64 112 14 14 (1404928)
I1124 13:29:26.725109 13317 net.cpp:165] Memory required for data: 2968734980
I1124 13:29:26.725116 13317 layer_factory.hpp:76] Creating layer inception_4d/relu_1x1
I1124 13:29:26.725123 13317 net.cpp:106] Creating Layer inception_4d/relu_1x1
I1124 13:29:26.725127 13317 net.cpp:454] inception_4d/relu_1x1 <- inception_4d/1x1
I1124 13:29:26.725132 13317 net.cpp:397] inception_4d/relu_1x1 -> inception_4d/1x1 (in-place)
I1124 13:29:26.725445 13317 net.cpp:150] Setting up inception_4d/relu_1x1
I1124 13:29:26.725458 13317 net.cpp:157] Top shape: 64 112 14 14 (1404928)
I1124 13:29:26.725462 13317 net.cpp:165] Memory required for data: 2974354692
I1124 13:29:26.725466 13317 layer_factory.hpp:76] Creating layer inception_4d/3x3_reduce
I1124 13:29:26.725476 13317 net.cpp:106] Creating Layer inception_4d/3x3_reduce
I1124 13:29:26.725479 13317 net.cpp:454] inception_4d/3x3_reduce <- inception_4c/output_inception_4c/output_0_split_1
I1124 13:29:26.725486 13317 net.cpp:411] inception_4d/3x3_reduce -> inception_4d/3x3_reduce
I1124 13:29:26.727054 13317 net.cpp:150] Setting up inception_4d/3x3_reduce
I1124 13:29:26.727068 13317 net.cpp:157] Top shape: 64 144 14 14 (1806336)
I1124 13:29:26.727072 13317 net.cpp:165] Memory required for data: 2981580036
I1124 13:29:26.727077 13317 layer_factory.hpp:76] Creating layer inception_4d/relu_3x3_reduce
I1124 13:29:26.727084 13317 net.cpp:106] Creating Layer inception_4d/relu_3x3_reduce
I1124 13:29:26.727089 13317 net.cpp:454] inception_4d/relu_3x3_reduce <- inception_4d/3x3_reduce
I1124 13:29:26.727094 13317 net.cpp:397] inception_4d/relu_3x3_reduce -> inception_4d/3x3_reduce (in-place)
I1124 13:29:26.727267 13317 net.cpp:150] Setting up inception_4d/relu_3x3_reduce
I1124 13:29:26.727277 13317 net.cpp:157] Top shape: 64 144 14 14 (1806336)
I1124 13:29:26.727280 13317 net.cpp:165] Memory required for data: 2988805380
I1124 13:29:26.727283 13317 layer_factory.hpp:76] Creating layer inception_4d/3x3
I1124 13:29:26.727293 13317 net.cpp:106] Creating Layer inception_4d/3x3
I1124 13:29:26.727296 13317 net.cpp:454] inception_4d/3x3 <- inception_4d/3x3_reduce
I1124 13:29:26.727301 13317 net.cpp:411] inception_4d/3x3 -> inception_4d/3x3
I1124 13:29:26.731268 13317 net.cpp:150] Setting up inception_4d/3x3
I1124 13:29:26.731286 13317 net.cpp:157] Top shape: 64 288 14 14 (3612672)
I1124 13:29:26.731288 13317 net.cpp:165] Memory required for data: 3003256068
I1124 13:29:26.731294 13317 layer_factory.hpp:76] Creating layer inception_4d/relu_3x3
I1124 13:29:26.731300 13317 net.cpp:106] Creating Layer inception_4d/relu_3x3
I1124 13:29:26.731304 13317 net.cpp:454] inception_4d/relu_3x3 <- inception_4d/3x3
I1124 13:29:26.731310 13317 net.cpp:397] inception_4d/relu_3x3 -> inception_4d/3x3 (in-place)
I1124 13:29:26.731624 13317 net.cpp:150] Setting up inception_4d/relu_3x3
I1124 13:29:26.731637 13317 net.cpp:157] Top shape: 64 288 14 14 (3612672)
I1124 13:29:26.731640 13317 net.cpp:165] Memory required for data: 3017706756
I1124 13:29:26.731644 13317 layer_factory.hpp:76] Creating layer inception_4d/5x5_reduce
I1124 13:29:26.731654 13317 net.cpp:106] Creating Layer inception_4d/5x5_reduce
I1124 13:29:26.731658 13317 net.cpp:454] inception_4d/5x5_reduce <- inception_4c/output_inception_4c/output_0_split_2
I1124 13:29:26.731664 13317 net.cpp:411] inception_4d/5x5_reduce -> inception_4d/5x5_reduce
I1124 13:29:26.732708 13317 net.cpp:150] Setting up inception_4d/5x5_reduce
I1124 13:29:26.732722 13317 net.cpp:157] Top shape: 64 32 14 14 (401408)
I1124 13:29:26.732725 13317 net.cpp:165] Memory required for data: 3019312388
I1124 13:29:26.732733 13317 layer_factory.hpp:76] Creating layer inception_4d/relu_5x5_reduce
I1124 13:29:26.732738 13317 net.cpp:106] Creating Layer inception_4d/relu_5x5_reduce
I1124 13:29:26.732741 13317 net.cpp:454] inception_4d/relu_5x5_reduce <- inception_4d/5x5_reduce
I1124 13:29:26.732748 13317 net.cpp:397] inception_4d/relu_5x5_reduce -> inception_4d/5x5_reduce (in-place)
I1124 13:29:26.733067 13317 net.cpp:150] Setting up inception_4d/relu_5x5_reduce
I1124 13:29:26.733080 13317 net.cpp:157] Top shape: 64 32 14 14 (401408)
I1124 13:29:26.733083 13317 net.cpp:165] Memory required for data: 3020918020
I1124 13:29:26.733088 13317 layer_factory.hpp:76] Creating layer inception_4d/5x5
I1124 13:29:26.733098 13317 net.cpp:106] Creating Layer inception_4d/5x5
I1124 13:29:26.733101 13317 net.cpp:454] inception_4d/5x5 <- inception_4d/5x5_reduce
I1124 13:29:26.733109 13317 net.cpp:411] inception_4d/5x5 -> inception_4d/5x5
I1124 13:29:26.734544 13317 net.cpp:150] Setting up inception_4d/5x5
I1124 13:29:26.734560 13317 net.cpp:157] Top shape: 64 64 14 14 (802816)
I1124 13:29:26.734562 13317 net.cpp:165] Memory required for data: 3024129284
I1124 13:29:26.734570 13317 layer_factory.hpp:76] Creating layer inception_4d/relu_5x5
I1124 13:29:26.734577 13317 net.cpp:106] Creating Layer inception_4d/relu_5x5
I1124 13:29:26.734590 13317 net.cpp:454] inception_4d/relu_5x5 <- inception_4d/5x5
I1124 13:29:26.734596 13317 net.cpp:397] inception_4d/relu_5x5 -> inception_4d/5x5 (in-place)
I1124 13:29:26.734778 13317 net.cpp:150] Setting up inception_4d/relu_5x5
I1124 13:29:26.734789 13317 net.cpp:157] Top shape: 64 64 14 14 (802816)
I1124 13:29:26.734792 13317 net.cpp:165] Memory required for data: 3027340548
I1124 13:29:26.734797 13317 layer_factory.hpp:76] Creating layer inception_4d/pool
I1124 13:29:26.734815 13317 net.cpp:106] Creating Layer inception_4d/pool
I1124 13:29:26.734820 13317 net.cpp:454] inception_4d/pool <- inception_4c/output_inception_4c/output_0_split_3
I1124 13:29:26.734825 13317 net.cpp:411] inception_4d/pool -> inception_4d/pool
I1124 13:29:26.735188 13317 net.cpp:150] Setting up inception_4d/pool
I1124 13:29:26.735200 13317 net.cpp:157] Top shape: 64 512 14 14 (6422528)
I1124 13:29:26.735203 13317 net.cpp:165] Memory required for data: 3053030660
I1124 13:29:26.735208 13317 layer_factory.hpp:76] Creating layer inception_4d/pool_proj
I1124 13:29:26.735216 13317 net.cpp:106] Creating Layer inception_4d/pool_proj
I1124 13:29:26.735220 13317 net.cpp:454] inception_4d/pool_proj <- inception_4d/pool
I1124 13:29:26.735227 13317 net.cpp:411] inception_4d/pool_proj -> inception_4d/pool_proj
I1124 13:29:26.736531 13317 net.cpp:150] Setting up inception_4d/pool_proj
I1124 13:29:26.736546 13317 net.cpp:157] Top shape: 64 64 14 14 (802816)
I1124 13:29:26.736549 13317 net.cpp:165] Memory required for data: 3056241924
I1124 13:29:26.736556 13317 layer_factory.hpp:76] Creating layer inception_4d/relu_pool_proj
I1124 13:29:26.736560 13317 net.cpp:106] Creating Layer inception_4d/relu_pool_proj
I1124 13:29:26.736565 13317 net.cpp:454] inception_4d/relu_pool_proj <- inception_4d/pool_proj
I1124 13:29:26.736572 13317 net.cpp:397] inception_4d/relu_pool_proj -> inception_4d/pool_proj (in-place)
I1124 13:29:26.736750 13317 net.cpp:150] Setting up inception_4d/relu_pool_proj
I1124 13:29:26.736762 13317 net.cpp:157] Top shape: 64 64 14 14 (802816)
I1124 13:29:26.736764 13317 net.cpp:165] Memory required for data: 3059453188
I1124 13:29:26.736768 13317 layer_factory.hpp:76] Creating layer inception_4d/output
I1124 13:29:26.736774 13317 net.cpp:106] Creating Layer inception_4d/output
I1124 13:29:26.736778 13317 net.cpp:454] inception_4d/output <- inception_4d/1x1
I1124 13:29:26.736783 13317 net.cpp:454] inception_4d/output <- inception_4d/3x3
I1124 13:29:26.736786 13317 net.cpp:454] inception_4d/output <- inception_4d/5x5
I1124 13:29:26.736789 13317 net.cpp:454] inception_4d/output <- inception_4d/pool_proj
I1124 13:29:26.736794 13317 net.cpp:411] inception_4d/output -> inception_4d/output
I1124 13:29:26.736830 13317 net.cpp:150] Setting up inception_4d/output
I1124 13:29:26.736836 13317 net.cpp:157] Top shape: 64 528 14 14 (6623232)
I1124 13:29:26.736840 13317 net.cpp:165] Memory required for data: 3085946116
I1124 13:29:26.736842 13317 layer_factory.hpp:76] Creating layer inception_4d/output_inception_4d/output_0_split
I1124 13:29:26.736848 13317 net.cpp:106] Creating Layer inception_4d/output_inception_4d/output_0_split
I1124 13:29:26.736851 13317 net.cpp:454] inception_4d/output_inception_4d/output_0_split <- inception_4d/output
I1124 13:29:26.736858 13317 net.cpp:411] inception_4d/output_inception_4d/output_0_split -> inception_4d/output_inception_4d/output_0_split_0
I1124 13:29:26.736865 13317 net.cpp:411] inception_4d/output_inception_4d/output_0_split -> inception_4d/output_inception_4d/output_0_split_1
I1124 13:29:26.736870 13317 net.cpp:411] inception_4d/output_inception_4d/output_0_split -> inception_4d/output_inception_4d/output_0_split_2
I1124 13:29:26.736876 13317 net.cpp:411] inception_4d/output_inception_4d/output_0_split -> inception_4d/output_inception_4d/output_0_split_3
I1124 13:29:26.736879 13317 net.cpp:411] inception_4d/output_inception_4d/output_0_split -> inception_4d/output_inception_4d/output_0_split_4
I1124 13:29:26.736965 13317 net.cpp:150] Setting up inception_4d/output_inception_4d/output_0_split
I1124 13:29:26.736974 13317 net.cpp:157] Top shape: 64 528 14 14 (6623232)
I1124 13:29:26.736979 13317 net.cpp:157] Top shape: 64 528 14 14 (6623232)
I1124 13:29:26.736981 13317 net.cpp:157] Top shape: 64 528 14 14 (6623232)
I1124 13:29:26.736984 13317 net.cpp:157] Top shape: 64 528 14 14 (6623232)
I1124 13:29:26.736989 13317 net.cpp:157] Top shape: 64 528 14 14 (6623232)
I1124 13:29:26.736990 13317 net.cpp:165] Memory required for data: 3218410756
I1124 13:29:26.736994 13317 layer_factory.hpp:76] Creating layer loss2/ave_pool
I1124 13:29:26.736999 13317 net.cpp:106] Creating Layer loss2/ave_pool
I1124 13:29:26.737002 13317 net.cpp:454] loss2/ave_pool <- inception_4d/output_inception_4d/output_0_split_0
I1124 13:29:26.737009 13317 net.cpp:411] loss2/ave_pool -> loss2/ave_pool
I1124 13:29:26.737351 13317 net.cpp:150] Setting up loss2/ave_pool
I1124 13:29:26.737365 13317 net.cpp:157] Top shape: 64 528 4 4 (540672)
I1124 13:29:26.737368 13317 net.cpp:165] Memory required for data: 3220573444
I1124 13:29:26.737371 13317 layer_factory.hpp:76] Creating layer loss2/conv
I1124 13:29:26.737380 13317 net.cpp:106] Creating Layer loss2/conv
I1124 13:29:26.737385 13317 net.cpp:454] loss2/conv <- loss2/ave_pool
I1124 13:29:26.737391 13317 net.cpp:411] loss2/conv -> loss2/conv
I1124 13:29:26.739205 13317 net.cpp:150] Setting up loss2/conv
I1124 13:29:26.739222 13317 net.cpp:157] Top shape: 64 128 4 4 (131072)
I1124 13:29:26.739224 13317 net.cpp:165] Memory required for data: 3221097732
I1124 13:29:26.739231 13317 layer_factory.hpp:76] Creating layer loss2/relu_conv
I1124 13:29:26.739238 13317 net.cpp:106] Creating Layer loss2/relu_conv
I1124 13:29:26.739241 13317 net.cpp:454] loss2/relu_conv <- loss2/conv
I1124 13:29:26.739246 13317 net.cpp:397] loss2/relu_conv -> loss2/conv (in-place)
I1124 13:29:26.739697 13317 net.cpp:150] Setting up loss2/relu_conv
I1124 13:29:26.739711 13317 net.cpp:157] Top shape: 64 128 4 4 (131072)
I1124 13:29:26.739714 13317 net.cpp:165] Memory required for data: 3221622020
I1124 13:29:26.739718 13317 layer_factory.hpp:76] Creating layer loss2/fc
I1124 13:29:26.739727 13317 net.cpp:106] Creating Layer loss2/fc
I1124 13:29:26.739730 13317 net.cpp:454] loss2/fc <- loss2/conv
I1124 13:29:26.739737 13317 net.cpp:411] loss2/fc -> loss2/fc
I1124 13:29:26.755234 13317 net.cpp:150] Setting up loss2/fc
I1124 13:29:26.755249 13317 net.cpp:157] Top shape: 64 1024 (65536)
I1124 13:29:26.755251 13317 net.cpp:165] Memory required for data: 3221884164
I1124 13:29:26.755257 13317 layer_factory.hpp:76] Creating layer loss2/relu_fc
I1124 13:29:26.755264 13317 net.cpp:106] Creating Layer loss2/relu_fc
I1124 13:29:26.755269 13317 net.cpp:454] loss2/relu_fc <- loss2/fc
I1124 13:29:26.755275 13317 net.cpp:397] loss2/relu_fc -> loss2/fc (in-place)
I1124 13:29:26.755465 13317 net.cpp:150] Setting up loss2/relu_fc
I1124 13:29:26.755477 13317 net.cpp:157] Top shape: 64 1024 (65536)
I1124 13:29:26.755481 13317 net.cpp:165] Memory required for data: 3222146308
I1124 13:29:26.755484 13317 layer_factory.hpp:76] Creating layer loss2/drop_fc
I1124 13:29:26.755491 13317 net.cpp:106] Creating Layer loss2/drop_fc
I1124 13:29:26.755494 13317 net.cpp:454] loss2/drop_fc <- loss2/fc
I1124 13:29:26.755499 13317 net.cpp:397] loss2/drop_fc -> loss2/fc (in-place)
I1124 13:29:26.755539 13317 net.cpp:150] Setting up loss2/drop_fc
I1124 13:29:26.755548 13317 net.cpp:157] Top shape: 64 1024 (65536)
I1124 13:29:26.755550 13317 net.cpp:165] Memory required for data: 3222408452
I1124 13:29:26.755553 13317 layer_factory.hpp:76] Creating layer loss2/classifier-attribute
I1124 13:29:26.755561 13317 net.cpp:106] Creating Layer loss2/classifier-attribute
I1124 13:29:26.755565 13317 net.cpp:454] loss2/classifier-attribute <- loss2/fc
I1124 13:29:26.755570 13317 net.cpp:411] loss2/classifier-attribute -> loss2/classifier-attribute
I1124 13:29:26.755764 13317 net.cpp:150] Setting up loss2/classifier-attribute
I1124 13:29:26.755774 13317 net.cpp:157] Top shape: 64 9 (576)
I1124 13:29:26.755776 13317 net.cpp:165] Memory required for data: 3222410756
I1124 13:29:26.755781 13317 layer_factory.hpp:76] Creating layer loss2/loss
I1124 13:29:26.755789 13317 net.cpp:106] Creating Layer loss2/loss
I1124 13:29:26.755792 13317 net.cpp:454] loss2/loss <- loss2/classifier-attribute
I1124 13:29:26.755796 13317 net.cpp:454] loss2/loss <- label_data_1_split_1
I1124 13:29:26.755802 13317 net.cpp:411] loss2/loss -> loss2/loss1
I1124 13:29:26.755810 13317 layer_factory.hpp:76] Creating layer loss2/loss
I1124 13:29:26.756235 13317 net.cpp:150] Setting up loss2/loss
I1124 13:29:26.756248 13317 net.cpp:157] Top shape: (1)
I1124 13:29:26.756252 13317 net.cpp:160]     with loss weight 0.3
I1124 13:29:26.756261 13317 net.cpp:165] Memory required for data: 3222410760
I1124 13:29:26.756264 13317 layer_factory.hpp:76] Creating layer inception_4e/1x1
I1124 13:29:26.756273 13317 net.cpp:106] Creating Layer inception_4e/1x1
I1124 13:29:26.756278 13317 net.cpp:454] inception_4e/1x1 <- inception_4d/output_inception_4d/output_0_split_1
I1124 13:29:26.756283 13317 net.cpp:411] inception_4e/1x1 -> inception_4e/1x1
I1124 13:29:26.758218 13317 net.cpp:150] Setting up inception_4e/1x1
I1124 13:29:26.758231 13317 net.cpp:157] Top shape: 64 256 14 14 (3211264)
I1124 13:29:26.758235 13317 net.cpp:165] Memory required for data: 3235255816
I1124 13:29:26.758241 13317 layer_factory.hpp:76] Creating layer inception_4e/relu_1x1
I1124 13:29:26.758249 13317 net.cpp:106] Creating Layer inception_4e/relu_1x1
I1124 13:29:26.758252 13317 net.cpp:454] inception_4e/relu_1x1 <- inception_4e/1x1
I1124 13:29:26.758257 13317 net.cpp:397] inception_4e/relu_1x1 -> inception_4e/1x1 (in-place)
I1124 13:29:26.758435 13317 net.cpp:150] Setting up inception_4e/relu_1x1
I1124 13:29:26.758446 13317 net.cpp:157] Top shape: 64 256 14 14 (3211264)
I1124 13:29:26.758450 13317 net.cpp:165] Memory required for data: 3248100872
I1124 13:29:26.758452 13317 layer_factory.hpp:76] Creating layer inception_4e/3x3_reduce
I1124 13:29:26.758460 13317 net.cpp:106] Creating Layer inception_4e/3x3_reduce
I1124 13:29:26.758465 13317 net.cpp:454] inception_4e/3x3_reduce <- inception_4d/output_inception_4d/output_0_split_2
I1124 13:29:26.758471 13317 net.cpp:411] inception_4e/3x3_reduce -> inception_4e/3x3_reduce
I1124 13:29:26.760543 13317 net.cpp:150] Setting up inception_4e/3x3_reduce
I1124 13:29:26.760558 13317 net.cpp:157] Top shape: 64 160 14 14 (2007040)
I1124 13:29:26.760562 13317 net.cpp:165] Memory required for data: 3256129032
I1124 13:29:26.760568 13317 layer_factory.hpp:76] Creating layer inception_4e/relu_3x3_reduce
I1124 13:29:26.760574 13317 net.cpp:106] Creating Layer inception_4e/relu_3x3_reduce
I1124 13:29:26.760578 13317 net.cpp:454] inception_4e/relu_3x3_reduce <- inception_4e/3x3_reduce
I1124 13:29:26.760586 13317 net.cpp:397] inception_4e/relu_3x3_reduce -> inception_4e/3x3_reduce (in-place)
I1124 13:29:26.760908 13317 net.cpp:150] Setting up inception_4e/relu_3x3_reduce
I1124 13:29:26.760921 13317 net.cpp:157] Top shape: 64 160 14 14 (2007040)
I1124 13:29:26.760926 13317 net.cpp:165] Memory required for data: 3264157192
I1124 13:29:26.760928 13317 layer_factory.hpp:76] Creating layer inception_4e/3x3
I1124 13:29:26.760937 13317 net.cpp:106] Creating Layer inception_4e/3x3
I1124 13:29:26.760941 13317 net.cpp:454] inception_4e/3x3 <- inception_4e/3x3_reduce
I1124 13:29:26.760948 13317 net.cpp:411] inception_4e/3x3 -> inception_4e/3x3
I1124 13:29:26.765462 13317 net.cpp:150] Setting up inception_4e/3x3
I1124 13:29:26.765477 13317 net.cpp:157] Top shape: 64 320 14 14 (4014080)
I1124 13:29:26.765480 13317 net.cpp:165] Memory required for data: 3280213512
I1124 13:29:26.765487 13317 layer_factory.hpp:76] Creating layer inception_4e/relu_3x3
I1124 13:29:26.765493 13317 net.cpp:106] Creating Layer inception_4e/relu_3x3
I1124 13:29:26.765497 13317 net.cpp:454] inception_4e/relu_3x3 <- inception_4e/3x3
I1124 13:29:26.765503 13317 net.cpp:397] inception_4e/relu_3x3 -> inception_4e/3x3 (in-place)
I1124 13:29:26.765821 13317 net.cpp:150] Setting up inception_4e/relu_3x3
I1124 13:29:26.765836 13317 net.cpp:157] Top shape: 64 320 14 14 (4014080)
I1124 13:29:26.765838 13317 net.cpp:165] Memory required for data: 3296269832
I1124 13:29:26.765842 13317 layer_factory.hpp:76] Creating layer inception_4e/5x5_reduce
I1124 13:29:26.765851 13317 net.cpp:106] Creating Layer inception_4e/5x5_reduce
I1124 13:29:26.765856 13317 net.cpp:454] inception_4e/5x5_reduce <- inception_4d/output_inception_4d/output_0_split_3
I1124 13:29:26.765862 13317 net.cpp:411] inception_4e/5x5_reduce -> inception_4e/5x5_reduce
I1124 13:29:26.767091 13317 net.cpp:150] Setting up inception_4e/5x5_reduce
I1124 13:29:26.767104 13317 net.cpp:157] Top shape: 64 32 14 14 (401408)
I1124 13:29:26.767107 13317 net.cpp:165] Memory required for data: 3297875464
I1124 13:29:26.767113 13317 layer_factory.hpp:76] Creating layer inception_4e/relu_5x5_reduce
I1124 13:29:26.767119 13317 net.cpp:106] Creating Layer inception_4e/relu_5x5_reduce
I1124 13:29:26.767123 13317 net.cpp:454] inception_4e/relu_5x5_reduce <- inception_4e/5x5_reduce
I1124 13:29:26.767130 13317 net.cpp:397] inception_4e/relu_5x5_reduce -> inception_4e/5x5_reduce (in-place)
I1124 13:29:26.767338 13317 net.cpp:150] Setting up inception_4e/relu_5x5_reduce
I1124 13:29:26.767350 13317 net.cpp:157] Top shape: 64 32 14 14 (401408)
I1124 13:29:26.767354 13317 net.cpp:165] Memory required for data: 3299481096
I1124 13:29:26.767357 13317 layer_factory.hpp:76] Creating layer inception_4e/5x5
I1124 13:29:26.767384 13317 net.cpp:106] Creating Layer inception_4e/5x5
I1124 13:29:26.767387 13317 net.cpp:454] inception_4e/5x5 <- inception_4e/5x5_reduce
I1124 13:29:26.767395 13317 net.cpp:411] inception_4e/5x5 -> inception_4e/5x5
I1124 13:29:26.769155 13317 net.cpp:150] Setting up inception_4e/5x5
I1124 13:29:26.769170 13317 net.cpp:157] Top shape: 64 128 14 14 (1605632)
I1124 13:29:26.769175 13317 net.cpp:165] Memory required for data: 3305903624
I1124 13:29:26.769181 13317 layer_factory.hpp:76] Creating layer inception_4e/relu_5x5
I1124 13:29:26.769187 13317 net.cpp:106] Creating Layer inception_4e/relu_5x5
I1124 13:29:26.769191 13317 net.cpp:454] inception_4e/relu_5x5 <- inception_4e/5x5
I1124 13:29:26.769196 13317 net.cpp:397] inception_4e/relu_5x5 -> inception_4e/5x5 (in-place)
I1124 13:29:26.769526 13317 net.cpp:150] Setting up inception_4e/relu_5x5
I1124 13:29:26.769538 13317 net.cpp:157] Top shape: 64 128 14 14 (1605632)
I1124 13:29:26.769542 13317 net.cpp:165] Memory required for data: 3312326152
I1124 13:29:26.769546 13317 layer_factory.hpp:76] Creating layer inception_4e/pool
I1124 13:29:26.769552 13317 net.cpp:106] Creating Layer inception_4e/pool
I1124 13:29:26.769556 13317 net.cpp:454] inception_4e/pool <- inception_4d/output_inception_4d/output_0_split_4
I1124 13:29:26.769562 13317 net.cpp:411] inception_4e/pool -> inception_4e/pool
I1124 13:29:26.769783 13317 net.cpp:150] Setting up inception_4e/pool
I1124 13:29:26.769794 13317 net.cpp:157] Top shape: 64 528 14 14 (6623232)
I1124 13:29:26.769798 13317 net.cpp:165] Memory required for data: 3338819080
I1124 13:29:26.769801 13317 layer_factory.hpp:76] Creating layer inception_4e/pool_proj
I1124 13:29:26.769809 13317 net.cpp:106] Creating Layer inception_4e/pool_proj
I1124 13:29:26.769814 13317 net.cpp:454] inception_4e/pool_proj <- inception_4e/pool
I1124 13:29:26.769820 13317 net.cpp:411] inception_4e/pool_proj -> inception_4e/pool_proj
I1124 13:29:26.771374 13317 net.cpp:150] Setting up inception_4e/pool_proj
I1124 13:29:26.771389 13317 net.cpp:157] Top shape: 64 128 14 14 (1605632)
I1124 13:29:26.771392 13317 net.cpp:165] Memory required for data: 3345241608
I1124 13:29:26.771399 13317 layer_factory.hpp:76] Creating layer inception_4e/relu_pool_proj
I1124 13:29:26.771404 13317 net.cpp:106] Creating Layer inception_4e/relu_pool_proj
I1124 13:29:26.771409 13317 net.cpp:454] inception_4e/relu_pool_proj <- inception_4e/pool_proj
I1124 13:29:26.771415 13317 net.cpp:397] inception_4e/relu_pool_proj -> inception_4e/pool_proj (in-place)
I1124 13:29:26.771738 13317 net.cpp:150] Setting up inception_4e/relu_pool_proj
I1124 13:29:26.771750 13317 net.cpp:157] Top shape: 64 128 14 14 (1605632)
I1124 13:29:26.771754 13317 net.cpp:165] Memory required for data: 3351664136
I1124 13:29:26.771757 13317 layer_factory.hpp:76] Creating layer inception_4e/output
I1124 13:29:26.771764 13317 net.cpp:106] Creating Layer inception_4e/output
I1124 13:29:26.771766 13317 net.cpp:454] inception_4e/output <- inception_4e/1x1
I1124 13:29:26.771771 13317 net.cpp:454] inception_4e/output <- inception_4e/3x3
I1124 13:29:26.771775 13317 net.cpp:454] inception_4e/output <- inception_4e/5x5
I1124 13:29:26.771778 13317 net.cpp:454] inception_4e/output <- inception_4e/pool_proj
I1124 13:29:26.771785 13317 net.cpp:411] inception_4e/output -> inception_4e/output
I1124 13:29:26.771824 13317 net.cpp:150] Setting up inception_4e/output
I1124 13:29:26.771831 13317 net.cpp:157] Top shape: 64 832 14 14 (10436608)
I1124 13:29:26.771833 13317 net.cpp:165] Memory required for data: 3393410568
I1124 13:29:26.771836 13317 layer_factory.hpp:76] Creating layer pool4/3x3_s2
I1124 13:29:26.771842 13317 net.cpp:106] Creating Layer pool4/3x3_s2
I1124 13:29:26.771845 13317 net.cpp:454] pool4/3x3_s2 <- inception_4e/output
I1124 13:29:26.771852 13317 net.cpp:411] pool4/3x3_s2 -> pool4/3x3_s2
I1124 13:29:26.772066 13317 net.cpp:150] Setting up pool4/3x3_s2
I1124 13:29:26.772078 13317 net.cpp:157] Top shape: 64 832 7 7 (2609152)
I1124 13:29:26.772080 13317 net.cpp:165] Memory required for data: 3403847176
I1124 13:29:26.772083 13317 layer_factory.hpp:76] Creating layer pool4/3x3_s2_pool4/3x3_s2_0_split
I1124 13:29:26.772090 13317 net.cpp:106] Creating Layer pool4/3x3_s2_pool4/3x3_s2_0_split
I1124 13:29:26.772094 13317 net.cpp:454] pool4/3x3_s2_pool4/3x3_s2_0_split <- pool4/3x3_s2
I1124 13:29:26.772099 13317 net.cpp:411] pool4/3x3_s2_pool4/3x3_s2_0_split -> pool4/3x3_s2_pool4/3x3_s2_0_split_0
I1124 13:29:26.772105 13317 net.cpp:411] pool4/3x3_s2_pool4/3x3_s2_0_split -> pool4/3x3_s2_pool4/3x3_s2_0_split_1
I1124 13:29:26.772110 13317 net.cpp:411] pool4/3x3_s2_pool4/3x3_s2_0_split -> pool4/3x3_s2_pool4/3x3_s2_0_split_2
I1124 13:29:26.772115 13317 net.cpp:411] pool4/3x3_s2_pool4/3x3_s2_0_split -> pool4/3x3_s2_pool4/3x3_s2_0_split_3
I1124 13:29:26.772192 13317 net.cpp:150] Setting up pool4/3x3_s2_pool4/3x3_s2_0_split
I1124 13:29:26.772198 13317 net.cpp:157] Top shape: 64 832 7 7 (2609152)
I1124 13:29:26.772202 13317 net.cpp:157] Top shape: 64 832 7 7 (2609152)
I1124 13:29:26.772207 13317 net.cpp:157] Top shape: 64 832 7 7 (2609152)
I1124 13:29:26.772209 13317 net.cpp:157] Top shape: 64 832 7 7 (2609152)
I1124 13:29:26.772212 13317 net.cpp:165] Memory required for data: 3445593608
I1124 13:29:26.772215 13317 layer_factory.hpp:76] Creating layer inception_5a/1x1
I1124 13:29:26.772223 13317 net.cpp:106] Creating Layer inception_5a/1x1
I1124 13:29:26.772228 13317 net.cpp:454] inception_5a/1x1 <- pool4/3x3_s2_pool4/3x3_s2_0_split_0
I1124 13:29:26.772233 13317 net.cpp:411] inception_5a/1x1 -> inception_5a/1x1
I1124 13:29:26.775110 13317 net.cpp:150] Setting up inception_5a/1x1
I1124 13:29:26.775125 13317 net.cpp:157] Top shape: 64 256 7 7 (802816)
I1124 13:29:26.775128 13317 net.cpp:165] Memory required for data: 3448804872
I1124 13:29:26.775135 13317 layer_factory.hpp:76] Creating layer inception_5a/relu_1x1
I1124 13:29:26.775141 13317 net.cpp:106] Creating Layer inception_5a/relu_1x1
I1124 13:29:26.775146 13317 net.cpp:454] inception_5a/relu_1x1 <- inception_5a/1x1
I1124 13:29:26.775151 13317 net.cpp:397] inception_5a/relu_1x1 -> inception_5a/1x1 (in-place)
I1124 13:29:26.775460 13317 net.cpp:150] Setting up inception_5a/relu_1x1
I1124 13:29:26.775475 13317 net.cpp:157] Top shape: 64 256 7 7 (802816)
I1124 13:29:26.775477 13317 net.cpp:165] Memory required for data: 3452016136
I1124 13:29:26.775480 13317 layer_factory.hpp:76] Creating layer inception_5a/3x3_reduce
I1124 13:29:26.775490 13317 net.cpp:106] Creating Layer inception_5a/3x3_reduce
I1124 13:29:26.775495 13317 net.cpp:454] inception_5a/3x3_reduce <- pool4/3x3_s2_pool4/3x3_s2_0_split_1
I1124 13:29:26.775501 13317 net.cpp:411] inception_5a/3x3_reduce -> inception_5a/3x3_reduce
I1124 13:29:26.777887 13317 net.cpp:150] Setting up inception_5a/3x3_reduce
I1124 13:29:26.777904 13317 net.cpp:157] Top shape: 64 160 7 7 (501760)
I1124 13:29:26.777907 13317 net.cpp:165] Memory required for data: 3454023176
I1124 13:29:26.777914 13317 layer_factory.hpp:76] Creating layer inception_5a/relu_3x3_reduce
I1124 13:29:26.777920 13317 net.cpp:106] Creating Layer inception_5a/relu_3x3_reduce
I1124 13:29:26.777925 13317 net.cpp:454] inception_5a/relu_3x3_reduce <- inception_5a/3x3_reduce
I1124 13:29:26.777930 13317 net.cpp:397] inception_5a/relu_3x3_reduce -> inception_5a/3x3_reduce (in-place)
I1124 13:29:26.778259 13317 net.cpp:150] Setting up inception_5a/relu_3x3_reduce
I1124 13:29:26.778273 13317 net.cpp:157] Top shape: 64 160 7 7 (501760)
I1124 13:29:26.778276 13317 net.cpp:165] Memory required for data: 3456030216
I1124 13:29:26.778280 13317 layer_factory.hpp:76] Creating layer inception_5a/3x3
I1124 13:29:26.778287 13317 net.cpp:106] Creating Layer inception_5a/3x3
I1124 13:29:26.778291 13317 net.cpp:454] inception_5a/3x3 <- inception_5a/3x3_reduce
I1124 13:29:26.778300 13317 net.cpp:411] inception_5a/3x3 -> inception_5a/3x3
I1124 13:29:26.782965 13317 net.cpp:150] Setting up inception_5a/3x3
I1124 13:29:26.782981 13317 net.cpp:157] Top shape: 64 320 7 7 (1003520)
I1124 13:29:26.782985 13317 net.cpp:165] Memory required for data: 3460044296
I1124 13:29:26.782991 13317 layer_factory.hpp:76] Creating layer inception_5a/relu_3x3
I1124 13:29:26.782997 13317 net.cpp:106] Creating Layer inception_5a/relu_3x3
I1124 13:29:26.783001 13317 net.cpp:454] inception_5a/relu_3x3 <- inception_5a/3x3
I1124 13:29:26.783006 13317 net.cpp:397] inception_5a/relu_3x3 -> inception_5a/3x3 (in-place)
I1124 13:29:26.783195 13317 net.cpp:150] Setting up inception_5a/relu_3x3
I1124 13:29:26.783205 13317 net.cpp:157] Top shape: 64 320 7 7 (1003520)
I1124 13:29:26.783208 13317 net.cpp:165] Memory required for data: 3464058376
I1124 13:29:26.783212 13317 layer_factory.hpp:76] Creating layer inception_5a/5x5_reduce
I1124 13:29:26.783221 13317 net.cpp:106] Creating Layer inception_5a/5x5_reduce
I1124 13:29:26.783226 13317 net.cpp:454] inception_5a/5x5_reduce <- pool4/3x3_s2_pool4/3x3_s2_0_split_2
I1124 13:29:26.783232 13317 net.cpp:411] inception_5a/5x5_reduce -> inception_5a/5x5_reduce
I1124 13:29:26.784529 13317 net.cpp:150] Setting up inception_5a/5x5_reduce
I1124 13:29:26.784543 13317 net.cpp:157] Top shape: 64 32 7 7 (100352)
I1124 13:29:26.784548 13317 net.cpp:165] Memory required for data: 3464459784
I1124 13:29:26.784554 13317 layer_factory.hpp:76] Creating layer inception_5a/relu_5x5_reduce
I1124 13:29:26.784559 13317 net.cpp:106] Creating Layer inception_5a/relu_5x5_reduce
I1124 13:29:26.784564 13317 net.cpp:454] inception_5a/relu_5x5_reduce <- inception_5a/5x5_reduce
I1124 13:29:26.784570 13317 net.cpp:397] inception_5a/relu_5x5_reduce -> inception_5a/5x5_reduce (in-place)
I1124 13:29:26.784754 13317 net.cpp:150] Setting up inception_5a/relu_5x5_reduce
I1124 13:29:26.784765 13317 net.cpp:157] Top shape: 64 32 7 7 (100352)
I1124 13:29:26.784768 13317 net.cpp:165] Memory required for data: 3464861192
I1124 13:29:26.784771 13317 layer_factory.hpp:76] Creating layer inception_5a/5x5
I1124 13:29:26.784778 13317 net.cpp:106] Creating Layer inception_5a/5x5
I1124 13:29:26.784783 13317 net.cpp:454] inception_5a/5x5 <- inception_5a/5x5_reduce
I1124 13:29:26.784790 13317 net.cpp:411] inception_5a/5x5 -> inception_5a/5x5
I1124 13:29:26.786579 13317 net.cpp:150] Setting up inception_5a/5x5
I1124 13:29:26.786593 13317 net.cpp:157] Top shape: 64 128 7 7 (401408)
I1124 13:29:26.786597 13317 net.cpp:165] Memory required for data: 3466466824
I1124 13:29:26.786603 13317 layer_factory.hpp:76] Creating layer inception_5a/relu_5x5
I1124 13:29:26.786609 13317 net.cpp:106] Creating Layer inception_5a/relu_5x5
I1124 13:29:26.786613 13317 net.cpp:454] inception_5a/relu_5x5 <- inception_5a/5x5
I1124 13:29:26.786619 13317 net.cpp:397] inception_5a/relu_5x5 -> inception_5a/5x5 (in-place)
I1124 13:29:26.786959 13317 net.cpp:150] Setting up inception_5a/relu_5x5
I1124 13:29:26.786973 13317 net.cpp:157] Top shape: 64 128 7 7 (401408)
I1124 13:29:26.786977 13317 net.cpp:165] Memory required for data: 3468072456
I1124 13:29:26.786979 13317 layer_factory.hpp:76] Creating layer inception_5a/pool
I1124 13:29:26.786986 13317 net.cpp:106] Creating Layer inception_5a/pool
I1124 13:29:26.786990 13317 net.cpp:454] inception_5a/pool <- pool4/3x3_s2_pool4/3x3_s2_0_split_3
I1124 13:29:26.786998 13317 net.cpp:411] inception_5a/pool -> inception_5a/pool
I1124 13:29:26.787217 13317 net.cpp:150] Setting up inception_5a/pool
I1124 13:29:26.787228 13317 net.cpp:157] Top shape: 64 832 7 7 (2609152)
I1124 13:29:26.787231 13317 net.cpp:165] Memory required for data: 3478509064
I1124 13:29:26.787235 13317 layer_factory.hpp:76] Creating layer inception_5a/pool_proj
I1124 13:29:26.787245 13317 net.cpp:106] Creating Layer inception_5a/pool_proj
I1124 13:29:26.787248 13317 net.cpp:454] inception_5a/pool_proj <- inception_5a/pool
I1124 13:29:26.787255 13317 net.cpp:411] inception_5a/pool_proj -> inception_5a/pool_proj
I1124 13:29:26.789465 13317 net.cpp:150] Setting up inception_5a/pool_proj
I1124 13:29:26.789480 13317 net.cpp:157] Top shape: 64 128 7 7 (401408)
I1124 13:29:26.789484 13317 net.cpp:165] Memory required for data: 3480114696
I1124 13:29:26.789490 13317 layer_factory.hpp:76] Creating layer inception_5a/relu_pool_proj
I1124 13:29:26.789496 13317 net.cpp:106] Creating Layer inception_5a/relu_pool_proj
I1124 13:29:26.789500 13317 net.cpp:454] inception_5a/relu_pool_proj <- inception_5a/pool_proj
I1124 13:29:26.789505 13317 net.cpp:397] inception_5a/relu_pool_proj -> inception_5a/pool_proj (in-place)
I1124 13:29:26.789834 13317 net.cpp:150] Setting up inception_5a/relu_pool_proj
I1124 13:29:26.789849 13317 net.cpp:157] Top shape: 64 128 7 7 (401408)
I1124 13:29:26.789851 13317 net.cpp:165] Memory required for data: 3481720328
I1124 13:29:26.789855 13317 layer_factory.hpp:76] Creating layer inception_5a/output
I1124 13:29:26.789861 13317 net.cpp:106] Creating Layer inception_5a/output
I1124 13:29:26.789865 13317 net.cpp:454] inception_5a/output <- inception_5a/1x1
I1124 13:29:26.789870 13317 net.cpp:454] inception_5a/output <- inception_5a/3x3
I1124 13:29:26.789873 13317 net.cpp:454] inception_5a/output <- inception_5a/5x5
I1124 13:29:26.789877 13317 net.cpp:454] inception_5a/output <- inception_5a/pool_proj
I1124 13:29:26.789881 13317 net.cpp:411] inception_5a/output -> inception_5a/output
I1124 13:29:26.789922 13317 net.cpp:150] Setting up inception_5a/output
I1124 13:29:26.789928 13317 net.cpp:157] Top shape: 64 832 7 7 (2609152)
I1124 13:29:26.789932 13317 net.cpp:165] Memory required for data: 3492156936
I1124 13:29:26.789934 13317 layer_factory.hpp:76] Creating layer inception_5a/output_inception_5a/output_0_split
I1124 13:29:26.789940 13317 net.cpp:106] Creating Layer inception_5a/output_inception_5a/output_0_split
I1124 13:29:26.789944 13317 net.cpp:454] inception_5a/output_inception_5a/output_0_split <- inception_5a/output
I1124 13:29:26.789949 13317 net.cpp:411] inception_5a/output_inception_5a/output_0_split -> inception_5a/output_inception_5a/output_0_split_0
I1124 13:29:26.789955 13317 net.cpp:411] inception_5a/output_inception_5a/output_0_split -> inception_5a/output_inception_5a/output_0_split_1
I1124 13:29:26.789962 13317 net.cpp:411] inception_5a/output_inception_5a/output_0_split -> inception_5a/output_inception_5a/output_0_split_2
I1124 13:29:26.789966 13317 net.cpp:411] inception_5a/output_inception_5a/output_0_split -> inception_5a/output_inception_5a/output_0_split_3
I1124 13:29:26.790043 13317 net.cpp:150] Setting up inception_5a/output_inception_5a/output_0_split
I1124 13:29:26.790051 13317 net.cpp:157] Top shape: 64 832 7 7 (2609152)
I1124 13:29:26.790055 13317 net.cpp:157] Top shape: 64 832 7 7 (2609152)
I1124 13:29:26.790058 13317 net.cpp:157] Top shape: 64 832 7 7 (2609152)
I1124 13:29:26.790061 13317 net.cpp:157] Top shape: 64 832 7 7 (2609152)
I1124 13:29:26.790065 13317 net.cpp:165] Memory required for data: 3533903368
I1124 13:29:26.790067 13317 layer_factory.hpp:76] Creating layer inception_5b/1x1
I1124 13:29:26.790076 13317 net.cpp:106] Creating Layer inception_5b/1x1
I1124 13:29:26.790078 13317 net.cpp:454] inception_5b/1x1 <- inception_5a/output_inception_5a/output_0_split_0
I1124 13:29:26.790086 13317 net.cpp:411] inception_5b/1x1 -> inception_5b/1x1
I1124 13:29:26.793642 13317 net.cpp:150] Setting up inception_5b/1x1
I1124 13:29:26.793658 13317 net.cpp:157] Top shape: 64 384 7 7 (1204224)
I1124 13:29:26.793661 13317 net.cpp:165] Memory required for data: 3538720264
I1124 13:29:26.793668 13317 layer_factory.hpp:76] Creating layer inception_5b/relu_1x1
I1124 13:29:26.793674 13317 net.cpp:106] Creating Layer inception_5b/relu_1x1
I1124 13:29:26.793678 13317 net.cpp:454] inception_5b/relu_1x1 <- inception_5b/1x1
I1124 13:29:26.793684 13317 net.cpp:397] inception_5b/relu_1x1 -> inception_5b/1x1 (in-place)
I1124 13:29:26.794005 13317 net.cpp:150] Setting up inception_5b/relu_1x1
I1124 13:29:26.794019 13317 net.cpp:157] Top shape: 64 384 7 7 (1204224)
I1124 13:29:26.794023 13317 net.cpp:165] Memory required for data: 3543537160
I1124 13:29:26.794026 13317 layer_factory.hpp:76] Creating layer inception_5b/3x3_reduce
I1124 13:29:26.794034 13317 net.cpp:106] Creating Layer inception_5b/3x3_reduce
I1124 13:29:26.794039 13317 net.cpp:454] inception_5b/3x3_reduce <- inception_5a/output_inception_5a/output_0_split_1
I1124 13:29:26.794044 13317 net.cpp:411] inception_5b/3x3_reduce -> inception_5b/3x3_reduce
I1124 13:29:26.796623 13317 net.cpp:150] Setting up inception_5b/3x3_reduce
I1124 13:29:26.796638 13317 net.cpp:157] Top shape: 64 192 7 7 (602112)
I1124 13:29:26.796643 13317 net.cpp:165] Memory required for data: 3545945608
I1124 13:29:26.796648 13317 layer_factory.hpp:76] Creating layer inception_5b/relu_3x3_reduce
I1124 13:29:26.796654 13317 net.cpp:106] Creating Layer inception_5b/relu_3x3_reduce
I1124 13:29:26.796658 13317 net.cpp:454] inception_5b/relu_3x3_reduce <- inception_5b/3x3_reduce
I1124 13:29:26.796665 13317 net.cpp:397] inception_5b/relu_3x3_reduce -> inception_5b/3x3_reduce (in-place)
I1124 13:29:26.796852 13317 net.cpp:150] Setting up inception_5b/relu_3x3_reduce
I1124 13:29:26.796864 13317 net.cpp:157] Top shape: 64 192 7 7 (602112)
I1124 13:29:26.796866 13317 net.cpp:165] Memory required for data: 3548354056
I1124 13:29:26.796869 13317 layer_factory.hpp:76] Creating layer inception_5b/3x3
I1124 13:29:26.796879 13317 net.cpp:106] Creating Layer inception_5b/3x3
I1124 13:29:26.796882 13317 net.cpp:454] inception_5b/3x3 <- inception_5b/3x3_reduce
I1124 13:29:26.796888 13317 net.cpp:411] inception_5b/3x3 -> inception_5b/3x3
I1124 13:29:26.803220 13317 net.cpp:150] Setting up inception_5b/3x3
I1124 13:29:26.803236 13317 net.cpp:157] Top shape: 64 384 7 7 (1204224)
I1124 13:29:26.803239 13317 net.cpp:165] Memory required for data: 3553170952
I1124 13:29:26.803246 13317 layer_factory.hpp:76] Creating layer inception_5b/relu_3x3
I1124 13:29:26.803253 13317 net.cpp:106] Creating Layer inception_5b/relu_3x3
I1124 13:29:26.803257 13317 net.cpp:454] inception_5b/relu_3x3 <- inception_5b/3x3
I1124 13:29:26.803262 13317 net.cpp:397] inception_5b/relu_3x3 -> inception_5b/3x3 (in-place)
I1124 13:29:26.803603 13317 net.cpp:150] Setting up inception_5b/relu_3x3
I1124 13:29:26.803617 13317 net.cpp:157] Top shape: 64 384 7 7 (1204224)
I1124 13:29:26.803620 13317 net.cpp:165] Memory required for data: 3557987848
I1124 13:29:26.803623 13317 layer_factory.hpp:76] Creating layer inception_5b/5x5_reduce
I1124 13:29:26.803633 13317 net.cpp:106] Creating Layer inception_5b/5x5_reduce
I1124 13:29:26.803637 13317 net.cpp:454] inception_5b/5x5_reduce <- inception_5a/output_inception_5a/output_0_split_2
I1124 13:29:26.803643 13317 net.cpp:411] inception_5b/5x5_reduce -> inception_5b/5x5_reduce
I1124 13:29:26.805341 13317 net.cpp:150] Setting up inception_5b/5x5_reduce
I1124 13:29:26.805356 13317 net.cpp:157] Top shape: 64 48 7 7 (150528)
I1124 13:29:26.805359 13317 net.cpp:165] Memory required for data: 3558589960
I1124 13:29:26.805366 13317 layer_factory.hpp:76] Creating layer inception_5b/relu_5x5_reduce
I1124 13:29:26.805371 13317 net.cpp:106] Creating Layer inception_5b/relu_5x5_reduce
I1124 13:29:26.805376 13317 net.cpp:454] inception_5b/relu_5x5_reduce <- inception_5b/5x5_reduce
I1124 13:29:26.805380 13317 net.cpp:397] inception_5b/relu_5x5_reduce -> inception_5b/5x5_reduce (in-place)
I1124 13:29:26.805716 13317 net.cpp:150] Setting up inception_5b/relu_5x5_reduce
I1124 13:29:26.805728 13317 net.cpp:157] Top shape: 64 48 7 7 (150528)
I1124 13:29:26.805732 13317 net.cpp:165] Memory required for data: 3559192072
I1124 13:29:26.805735 13317 layer_factory.hpp:76] Creating layer inception_5b/5x5
I1124 13:29:26.805745 13317 net.cpp:106] Creating Layer inception_5b/5x5
I1124 13:29:26.805749 13317 net.cpp:454] inception_5b/5x5 <- inception_5b/5x5_reduce
I1124 13:29:26.805755 13317 net.cpp:411] inception_5b/5x5 -> inception_5b/5x5
I1124 13:29:26.807909 13317 net.cpp:150] Setting up inception_5b/5x5
I1124 13:29:26.807924 13317 net.cpp:157] Top shape: 64 128 7 7 (401408)
I1124 13:29:26.807926 13317 net.cpp:165] Memory required for data: 3560797704
I1124 13:29:26.807932 13317 layer_factory.hpp:76] Creating layer inception_5b/relu_5x5
I1124 13:29:26.807940 13317 net.cpp:106] Creating Layer inception_5b/relu_5x5
I1124 13:29:26.807945 13317 net.cpp:454] inception_5b/relu_5x5 <- inception_5b/5x5
I1124 13:29:26.807950 13317 net.cpp:397] inception_5b/relu_5x5 -> inception_5b/5x5 (in-place)
I1124 13:29:26.808133 13317 net.cpp:150] Setting up inception_5b/relu_5x5
I1124 13:29:26.808145 13317 net.cpp:157] Top shape: 64 128 7 7 (401408)
I1124 13:29:26.808147 13317 net.cpp:165] Memory required for data: 3562403336
I1124 13:29:26.808151 13317 layer_factory.hpp:76] Creating layer inception_5b/pool
I1124 13:29:26.808156 13317 net.cpp:106] Creating Layer inception_5b/pool
I1124 13:29:26.808161 13317 net.cpp:454] inception_5b/pool <- inception_5a/output_inception_5a/output_0_split_3
I1124 13:29:26.808166 13317 net.cpp:411] inception_5b/pool -> inception_5b/pool
I1124 13:29:26.808549 13317 net.cpp:150] Setting up inception_5b/pool
I1124 13:29:26.808563 13317 net.cpp:157] Top shape: 64 832 7 7 (2609152)
I1124 13:29:26.808567 13317 net.cpp:165] Memory required for data: 3572839944
I1124 13:29:26.808569 13317 layer_factory.hpp:76] Creating layer inception_5b/pool_proj
I1124 13:29:26.808578 13317 net.cpp:106] Creating Layer inception_5b/pool_proj
I1124 13:29:26.808583 13317 net.cpp:454] inception_5b/pool_proj <- inception_5b/pool
I1124 13:29:26.808589 13317 net.cpp:411] inception_5b/pool_proj -> inception_5b/pool_proj
I1124 13:29:26.810868 13317 net.cpp:150] Setting up inception_5b/pool_proj
I1124 13:29:26.810883 13317 net.cpp:157] Top shape: 64 128 7 7 (401408)
I1124 13:29:26.810885 13317 net.cpp:165] Memory required for data: 3574445576
I1124 13:29:26.810892 13317 layer_factory.hpp:76] Creating layer inception_5b/relu_pool_proj
I1124 13:29:26.810899 13317 net.cpp:106] Creating Layer inception_5b/relu_pool_proj
I1124 13:29:26.810902 13317 net.cpp:454] inception_5b/relu_pool_proj <- inception_5b/pool_proj
I1124 13:29:26.810909 13317 net.cpp:397] inception_5b/relu_pool_proj -> inception_5b/pool_proj (in-place)
I1124 13:29:26.811096 13317 net.cpp:150] Setting up inception_5b/relu_pool_proj
I1124 13:29:26.811108 13317 net.cpp:157] Top shape: 64 128 7 7 (401408)
I1124 13:29:26.811111 13317 net.cpp:165] Memory required for data: 3576051208
I1124 13:29:26.811115 13317 layer_factory.hpp:76] Creating layer inception_5b/output
I1124 13:29:26.811121 13317 net.cpp:106] Creating Layer inception_5b/output
I1124 13:29:26.811125 13317 net.cpp:454] inception_5b/output <- inception_5b/1x1
I1124 13:29:26.811130 13317 net.cpp:454] inception_5b/output <- inception_5b/3x3
I1124 13:29:26.811133 13317 net.cpp:454] inception_5b/output <- inception_5b/5x5
I1124 13:29:26.811137 13317 net.cpp:454] inception_5b/output <- inception_5b/pool_proj
I1124 13:29:26.811141 13317 net.cpp:411] inception_5b/output -> inception_5b/output
I1124 13:29:26.811182 13317 net.cpp:150] Setting up inception_5b/output
I1124 13:29:26.811193 13317 net.cpp:157] Top shape: 64 1024 7 7 (3211264)
I1124 13:29:26.811197 13317 net.cpp:165] Memory required for data: 3588896264
I1124 13:29:26.811199 13317 layer_factory.hpp:76] Creating layer pool5/7x7_s1
I1124 13:29:26.811206 13317 net.cpp:106] Creating Layer pool5/7x7_s1
I1124 13:29:26.811209 13317 net.cpp:454] pool5/7x7_s1 <- inception_5b/output
I1124 13:29:26.811214 13317 net.cpp:411] pool5/7x7_s1 -> pool5/7x7_s1
I1124 13:29:26.811597 13317 net.cpp:150] Setting up pool5/7x7_s1
I1124 13:29:26.811611 13317 net.cpp:157] Top shape: 64 1024 1 1 (65536)
I1124 13:29:26.811615 13317 net.cpp:165] Memory required for data: 3589158408
I1124 13:29:26.811619 13317 layer_factory.hpp:76] Creating layer pool5/drop_7x7_s1
I1124 13:29:26.811627 13317 net.cpp:106] Creating Layer pool5/drop_7x7_s1
I1124 13:29:26.811631 13317 net.cpp:454] pool5/drop_7x7_s1 <- pool5/7x7_s1
I1124 13:29:26.811635 13317 net.cpp:397] pool5/drop_7x7_s1 -> pool5/7x7_s1 (in-place)
I1124 13:29:26.811676 13317 net.cpp:150] Setting up pool5/drop_7x7_s1
I1124 13:29:26.811681 13317 net.cpp:157] Top shape: 64 1024 1 1 (65536)
I1124 13:29:26.811684 13317 net.cpp:165] Memory required for data: 3589420552
I1124 13:29:26.811687 13317 layer_factory.hpp:76] Creating layer loss3/classifier-attribute
I1124 13:29:26.811693 13317 net.cpp:106] Creating Layer loss3/classifier-attribute
I1124 13:29:26.811697 13317 net.cpp:454] loss3/classifier-attribute <- pool5/7x7_s1
I1124 13:29:26.811703 13317 net.cpp:411] loss3/classifier-attribute -> loss3/classifier-attribute
I1124 13:29:26.811918 13317 net.cpp:150] Setting up loss3/classifier-attribute
I1124 13:29:26.811928 13317 net.cpp:157] Top shape: 64 9 (576)
I1124 13:29:26.811930 13317 net.cpp:165] Memory required for data: 3589422856
I1124 13:29:26.811938 13317 layer_factory.hpp:76] Creating layer loss3/loss3
I1124 13:29:26.811944 13317 net.cpp:106] Creating Layer loss3/loss3
I1124 13:29:26.811946 13317 net.cpp:454] loss3/loss3 <- loss3/classifier-attribute
I1124 13:29:26.811950 13317 net.cpp:454] loss3/loss3 <- label_data_1_split_2
I1124 13:29:26.811956 13317 net.cpp:411] loss3/loss3 -> loss3/loss3
…
I1124 13:29:26.820487 13317 net.cpp:322] The NetState phase (1) differed from the phase (0) specified by a rule in layer data
I1124 13:29:26.821429 13317 net.cpp:49] Initializing net from parameters: 
name: "GoogleNet-finetune-for-cigit"
state {
  phase: TEST
}
layer {
  name: "data"
  type: "ImageData"
  top: "data"
  top: "label"
  include {
    phase: TEST
  }
  transform_param {
    mirror: false
    crop_size: 224
    mean_value: 104
    mean_value: 117
    mean_value: 123
  }
  image_data_param {
    source: "pad_test.txt"
    batch_size: 64
    new_height: 256
    new_width: 256
  }
}
layer {
  name: "conv1/7x7_s2"
  type: "Convolution"
  bottom: "data"
  top: "conv1/7x7_s2"
  param {
    lr_mult: 1
    decay_mult: 1
  }
  param {
    lr_mult: 2
    decay_mult: 0
  }
  convolution_param {
    num_output: 64
    pad: 3
    kernel_size: 7
    stride: 2
    weight_filler {
      type: "xavier"
    }
    bias_filler {
      type: "constant"
      value: 0.2
    }
  }
}
layer {
  name: "conv1/relu_7x7"
  type: "ReLU"
  bottom: "conv1/7x7_s2"
  top: "conv1/7x7_s2"
}
layer {
  name: "pool1/3x3_s2"
  type: "Pooling"
  bottom: "conv1/7x7_s2"
  top: "pool1/3x3_s2"
  pooling_param {
    pool: MAX
    kernel_size: 3
    stride: 2
  }
}
layer {
  name: "pool1/norm1"
  type: "LRN"
  bottom: "pool1/3x3_s2"
  top: "pool1/norm1"
  lrn_param {
    local_size: 5
    alpha: 0.0001
    beta: 0.75
  }
}
layer {
  name: "conv2/3x3_reduce"
  type: "Convolution"
  bottom: "pool1/norm1"
  top: "conv2/3x3_reduce"
  param {
    lr_mult: 1
    decay_mult: 1
  }
  param {
    lr_mult: 2
    decay_mult: 0
  }
  convolution_param {
    num_output: 64
    kernel_size: 1
    weight_filler {
      type: "xavier"
    }
    bias_filler {
      type: "constant"
      value: 0.2
    }
  }
}
layer {
  name: "conv2/relu_3x3_reduce"
  type: "ReLU"
  bottom: "conv2/3x3_reduce"
  top: "conv2/3x3_reduce"
}
layer {
  name: "conv2/3x3"
  type: "Convolution"
  bottom: "conv2/3x3_reduce"
  top: "conv2/3x3"
  param {
    lr_mult: 1
    decay_mult: 1
  }
  param {
    lr_mult: 2
    decay_mult: 0
  }
  convolution_param {
    num_output: 192
    pad: 1
    kernel_size: 3
    weight_filler {
      type: "xavier"
    }
    bias_filler {
      type: "constant"
      value: 0.2
    }
  }
}
layer {
  name: "conv2/relu_3x3"
  type: "ReLU"
  bottom: "conv2/3x3"
  top: "conv2/3x3"
}
layer {
  name: "conv2/norm2"
  type: "LRN"
  bottom: "conv2/3x3"
  top: "conv2/norm2"
  lrn_param {
    local_size: 5
    alpha: 0.0001
    beta: 0.75
  }
}
layer {
  name: "pool2/3x3_s2"
  type: "Pooling"
  bottom: "conv2/norm2"
  top: "pool2/3x3_s2"
  pooling_param {
    pool: MAX
    kernel_size: 3
    stride: 2
  }
}
layer {
  name: "inception_3a/1x1"
  type: "Convolution"
  bottom: "pool2/3x3_s2"
  top: "inception_3a/1x1"
  param {
    lr_mult: 1
    decay_mult: 1
  }
  param {
    lr_mult: 2
    decay_mult: 0
  }
  convolution_param {
    num_output: 64
    kernel_size: 1
    weight_filler {
      type: "xavier"
    }
    bias_filler {
      type: "constant"
      value: 0.2
    }
  }
}
layer {
  name: "inception_3a/relu_1x1"
  type: "ReLU"
  bottom: "inception_3a/1x1"
  top: "inception_3a/1x1"
}
layer {
  name: "inception_3a/3x3_reduce"
  type: "Convolution"
  bottom: "pool2/3x3_s2"
  top: "inception_3a/3x3_reduce"
  param {
    lr_mult: 1
    decay_mult: 1
  }
  param {
    lr_mult: 2
    decay_mult: 0
  }
  convolution_param {
    num_output: 96
    kernel_size: 1
    weight_filler {
      type: "xavier"
    }
    bias_filler {
      type: "constant"
      value: 0.2
    }
  }
}
layer {
  name: "inception_3a/relu_3x3_reduce"
  type: "ReLU"
  bottom: "inception_3a/3x3_reduce"
  top: "inception_3a/3x3_reduce"
}
layer {
  name: "inception_3a/3x3"
  type: "Convolution"
  bottom: "inception_3a/3x3_reduce"
  top: "inception_3a/3x3"
  param {
    lr_mult: 1
    decay_mult: 1
  }
  param {
    lr_mult: 2
    decay_mult: 0
  }
  convolution_param {
    num_output: 128
    pad: 1
    kernel_size: 3
    weight_filler {
      type: "xavier"
    }
    bias_filler {
      type: "constant"
      value: 0.2
    }
  }
}
layer {
  name: "inception_3a/relu_3x3"
  type: "ReLU"
  bottom: "inception_3a/3x3"
  top: "inception_3a/3x3"
}
layer {
  name: "inception_3a/5x5_reduce"
  type: "Convolution"
  bottom: "pool2/3x3_s2"
  top: "inception_3a/5x5_reduce"
  param {
    lr_mult: 1
    decay_mult: 1
  }
  param {
    lr_mult: 2
    decay_mult: 0
  }
  convolution_param {
    num_output: 16
    kernel_size: 1
    weight_filler {
      type: "xavier"
    }
    bias_filler {
      type: "constant"
      value: 0.2
    }
  }
}
layer {
  name: "inception_3a/relu_5x5_reduce"
  type: "ReLU"
  bottom: "inception_3a/5x5_reduce"
  top: "inception_3a/5x5_reduce"
}
layer {
  name: "inception_3a/5x5"
  type: "Convolution"
  bottom: "inception_3a/5x5_reduce"
  top: "inception_3a/5x5"
  param {
    lr_mult: 1
    decay_mult: 1
  }
  param {
    lr_mult: 2
    decay_mult: 0
  }
  convolution_param {
    num_output: 32
    pad: 2
    kernel_size: 5
    weight_filler {
      type: "xavier"
    }
    bias_filler {
      type: "constant"
      value: 0.2
    }
  }
}
layer {
  name: "inception_3a/relu_5x5"
  type: "ReLU"
  bottom: "inception_3a/5x5"
  top: "inception_3a/5x5"
}
layer {
  name: "inception_3a/pool"
  type: "Pooling"
  bottom: "pool2/3x3_s2"
  top: "inception_3a/pool"
  pooling_param {
    pool: MAX
    kernel_size: 3
    stride: 1
    pad: 1
  }
}
layer {
  name: "inception_3a/pool_proj"
  type: "Convolution"
  bottom: "inception_3a/pool"
  top: "inception_3a/pool_proj"
  param {
    lr_mult: 1
    decay_mult: 1
  }
  param {
    lr_mult: 2
    decay_mult: 0
  }
  convolution_param {
    num_output: 32
    kernel_size: 1
    weight_filler {
      type: "xavier"
    }
    bias_filler {
      type: "constant"
      value: 0.2
    }
  }
}
layer {
  name: "inception_3a/relu_pool_proj"
  type: "ReLU"
  bottom: "inception_3a/pool_proj"
  top: "inception_3a/pool_proj"
}
layer {
  name: "inception_3a/output"
  type: "Concat"
  bottom: "inception_3a/1x1"
  bottom: "inception_3a/3x3"
  bottom: "inception_3a/5x5"
  bottom: "inception_3a/pool_proj"
  top: "inception_3a/output"
}
layer {
  name: "inception_3b/1x1"
  type: "Convolution"
  bottom: "inception_3a/output"
  top: "inception_3b/1x1"
  param {
    lr_mult: 1
    decay_mult: 1
  }
  param {
    lr_mult: 2
    decay_mult: 0
  }
  convolution_param {
    num_output: 128
    kernel_size: 1
    weight_filler {
      type: "xavier"
    }
    bias_filler {
      type: "constant"
      value: 0.2
    }
  }
}
layer {
  name: "inception_3b/relu_1x1"
  type: "ReLU"
  bottom: "inception_3b/1x1"
  top: "inception_3b/1x1"
}
layer {
  name: "inception_3b/3x3_reduce"
  type: "Convolution"
  bottom: "inception_3a/output"
  top: "inception_3b/3x3_reduce"
  param {
    lr_mult: 1
    decay_mult: 1
  }
  param {
    lr_mult: 2
    decay_mult: 0
  }
  convolution_param {
    num_output: 128
    kernel_size: 1
    weight_filler {
      type: "xavier"
    }
    bias_filler {
      type: "constant"
      value: 0.2
    }
  }
}
layer {
  name: "inception_3b/relu_3x3_reduce"
  type: "ReLU"
  bottom: "inception_3b/3x3_reduce"
  top: "inception_3b/3x3_reduce"
}
layer {
  name: "inception_3b/3x3"
  type: "Convolution"
  bottom: "inception_3b/3x3_reduce"
  top: "inception_3b/3x3"
  param {
    lr_mult: 1
    decay_mult: 1
  }
  param {
    lr_mult: 2
    decay_mult: 0
  }
  convolution_param {
    num_output: 192
    pad: 1
    kernel_size: 3
    weight_filler {
      type: "xavier"
    }
    bias_filler {
      type: "constant"
      value: 0.2
    }
  }
}
layer {
  name: "inception_3b/relu_3x3"
  type: "ReLU"
  bottom: "inception_3b/3x3"
  top: "inception_3b/3x3"
}
layer {
  name: "inception_3b/5x5_reduce"
  type: "Convolution"
  bottom: "inception_3a/output"
  top: "inception_3b/5x5_reduce"
  param {
    lr_mult: 1
    decay_mult: 1
  }
  param {
    lr_mult: 2
    decay_mult: 0
  }
  convolution_param {
    num_output: 32
    kernel_size: 1
    weight_filler {
      type: "xavier"
    }
    bias_filler {
      type: "constant"
      value: 0.2
    }
  }
}
layer {
  name: "inception_3b/relu_5x5_reduce"
  type: "ReLU"
  bottom: "inception_3b/5x5_reduce"
  top: "inception_3b/5x5_reduce"
}
layer {
  name: "inception_3b/5x5"
  type: "Convolution"
  bottom: "inception_3b/5x5_reduce"
  top: "inception_3b/5x5"
  param {
    lr_mult: 1
    decay_mult: 1
  }
  param {
    lr_mult: 2
    decay_mult: 0
  }
  convolution_param {
    num_output: 96
    pad: 2
    kernel_size: 5
    weight_filler {
      type: "xavier"
    }
    bias_filler {
      type: "constant"
      value: 0.2
    }
  }
}
layer {
  name: "inception_3b/relu_5x5"
  type: "ReLU"
  bottom: "inception_3b/5x5"
  top: "inception_3b/5x5"
}
layer {
  name: "inception_3b/pool"
  type: "Pooling"
  bottom: "inception_3a/output"
  top: "inception_3b/pool"
  pooling_param {
    pool: MAX
    kernel_size: 3
    stride: 1
    pad: 1
  }
}
layer {
  name: "inception_3b/pool_proj"
  type: "Convolution"
  bottom: "inception_3b/pool"
  top: "inception_3b/pool_proj"
  param {
    lr_mult: 1
    decay_mult: 1
  }
  param {
    lr_mult: 2
    decay_mult: 0
  }
  convolution_param {
    num_output: 64
    kernel_size: 1
    weight_filler {
      type: "xavier"
    }
    bias_filler {
      type: "constant"
      value: 0.2
    }
  }
}
layer {
  name: "inception_3b/relu_pool_proj"
  type: "ReLU"
  bottom: "inception_3b/pool_proj"
  top: "inception_3b/pool_proj"
}
layer {
  name: "inception_3b/output"
  type: "Concat"
  bottom: "inception_3b/1x1"
  bottom: "inception_3b/3x3"
  bottom: "inception_3b/5x5"
  bottom: "inception_3b/pool_proj"
  top: "inception_3b/output"
}
layer {
  name: "pool3/3x3_s2"
  type: "Pooling"
  bottom: "inception_3b/output"
  top: "pool3/3x3_s2"
  pooling_param {
    pool: MAX
    kernel_size: 3
    stride: 2
  }
}
layer {
  name: "inception_4a/1x1"
  type: "Convolution"
  bottom: "pool3/3x3_s2"
  top: "inception_4a/1x1"
  param {
    lr_mult: 1
    decay_mult: 1
  }
  param {
    lr_mult: 2
    decay_mult: 0
  }
  convolution_param {
    num_output: 192
    kernel_size: 1
    weight_filler {
      type: "xavier"
    }
    bias_filler {
      type: "constant"
      value: 0.2
    }
  }
}
layer {
  name: "inception_4a/relu_1x1"
  type: "ReLU"
  bottom: "inception_4a/1x1"
  top: "inception_4a/1x1"
}
layer {
  name: "inception_4a/3x3_reduce"
  type: "Convolution"
  bottom: "pool3/3x3_s2"
  top: "inception_4a/3x3_reduce"
  param {
    lr_mult: 1
    decay_mult: 1
  }
  param {
    lr_mult: 2
    decay_mult: 0
  }
  convolution_param {
    num_output: 96
    kernel_size: 1
    weight_filler {
      type: "xavier"
    }
    bias_filler {
      type: "constant"
      value: 0.2
    }
  }
}
layer {
  name: "inception_4a/relu_3x3_reduce"
  type: "ReLU"
  bottom: "inception_4a/3x3_reduce"
  top: "inception_4a/3x3_reduce"
}
layer {
  name: "inception_4a/3x3"
  type: "Convolution"
  bottom: "inception_4a/3x3_reduce"
  top: "inception_4a/3x3"
  param {
    lr_mult: 1
    decay_mult: 1
  }
  param {
    lr_mult: 2
    decay_mult: 0
  }
  convolution_param {
    num_output: 208
    pad: 1
    kernel_size: 3
    weight_filler {
      type: "xavier"
    }
    bias_filler {
      type: "constant"
      value: 0.2
    }
  }
}
layer {
  name: "inception_4a/relu_3x3"
  type: "ReLU"
  bottom: "inception_4a/3x3"
  top: "inception_4a/3x3"
}
layer {
  name: "inception_4a/5x5_reduce"
  type: "Convolution"
  bottom: "pool3/3x3_s2"
  top: "inception_4a/5x5_reduce"
  param {
    lr_mult: 1
    decay_mult: 1
  }
  param {
    lr_mult: 2
    decay_mult: 0
  }
  convolution_param {
    num_output: 16
    kernel_size: 1
    weight_filler {
      type: "xavier"
    }
    bias_filler {
      type: "constant"
      value: 0.2
    }
  }
}
layer {
  name: "inception_4a/relu_5x5_reduce"
  type: "ReLU"
  bottom: "inception_4a/5x5_reduce"
  top: "inception_4a/5x5_reduce"
}
layer {
  name: "inception_4a/5x5"
  type: "Convolution"
  bottom: "inception_4a/5x5_reduce"
  top: "inception_4a/5x5"
  param {
    lr_mult: 1
    decay_mult: 1
  }
  param {
    lr_mult: 2
    decay_mult: 0
  }
  convolution_param {
    num_output: 48
    pad: 2
    kernel_size: 5
    weight_filler {
      type: "xavier"
    }
    bias_filler {
      type: "constant"
      value: 0.2
    }
  }
}
layer {
  name: "inception_4a/relu_5x5"
  type: "ReLU"
  bottom: "inception_4a/5x5"
  top: "inception_4a/5x5"
}
layer {
  name: "inception_4a/pool"
  type: "Pooling"
  bottom: "pool3/3x3_s2"
  top: "inception_4a/pool"
  pooling_param {
    pool: MAX
    kernel_size: 3
    stride: 1
    pad: 1
  }
}
layer {
  name: "inception_4a/pool_proj"
  type: "Convolution"
  bottom: "inception_4a/pool"
  top: "inception_4a/pool_proj"
  param {
    lr_mult: 1
    decay_mult: 1
  }
  param {
    lr_mult: 2
    decay_mult: 0
  }
  convolution_param {
    num_output: 64
    kernel_size: 1
    weight_filler {
      type: "xavier"
    }
    bias_filler {
      type: "constant"
      value: 0.2
    }
  }
}
layer {
  name: "inception_4a/relu_pool_proj"
  type: "ReLU"
  bottom: "inception_4a/pool_proj"
  top: "inception_4a/pool_proj"
}
layer {
  name: "inception_4a/output"
  type: "Concat"
  bottom: "inception_4a/1x1"
  bottom: "inception_4a/3x3"
  bottom: "inception_4a/5x5"
  bottom: "inception_4a/pool_proj"
  top: "inception_4a/output"
}
layer {
  name: "loss1/ave_pool"
  type: "Pooling"
  bottom: "inception_4a/output"
  top: "loss1/ave_pool"
  pooling_param {
    pool: AVE
    kernel_size: 5
    stride: 3
  }
}
layer {
  name: "loss1/conv"
  type: "Convolution"
  bottom: "loss1/ave_pool"
  top: "loss1/conv"
  param {
    lr_mult: 1
    decay_mult: 1
  }
  param {
    lr_mult: 2
    decay_mult: 0
  }
  convolution_param {
    num_output: 128
    kernel_size: 1
    weight_filler {
      type: "xavier"
    }
    bias_filler {
      type: "constant"
      value: 0.2
    }
  }
}
layer {
  name: "loss1/relu_conv"
  type: "ReLU"
  bottom: "loss1/conv"
  top: "loss1/conv"
}
layer {
  name: "loss1/fc"
  type: "InnerProduct"
  bottom: "loss1/conv"
  top: "loss1/fc"
  param {
    lr_mult: 1
    decay_mult: 1
  }
  param {
    lr_mult: 2
    decay_mult: 0
  }
  inner_product_param {
…
I1124 13:29:27.017966 13317 layer_factory.hpp:76] Creating layer inception_4c/pool
I1124 13:29:27.017972 13317 net.cpp:106] Creating Layer inception_4c/pool
I1124 13:29:27.017976 13317 net.cpp:454] inception_4c/pool <- inception_4b/output_inception_4b/output_0_split_3
I1124 13:29:27.017982 13317 net.cpp:411] inception_4c/pool -> inception_4c/pool
I1124 13:29:27.018240 13317 net.cpp:150] Setting up inception_4c/pool
I1124 13:29:27.018251 13317 net.cpp:157] Top shape: 64 512 14 14 (6422528)
I1124 13:29:27.018255 13317 net.cpp:165] Memory required for data: 2828247560
I1124 13:29:27.018259 13317 layer_factory.hpp:76] Creating layer inception_4c/pool_proj
I1124 13:29:27.018266 13317 net.cpp:106] Creating Layer inception_4c/pool_proj
I1124 13:29:27.018270 13317 net.cpp:454] inception_4c/pool_proj <- inception_4c/pool
I1124 13:29:27.018276 13317 net.cpp:411] inception_4c/pool_proj -> inception_4c/pool_proj
I1124 13:29:27.019829 13317 net.cpp:150] Setting up inception_4c/pool_proj
I1124 13:29:27.019845 13317 net.cpp:157] Top shape: 64 64 14 14 (802816)
I1124 13:29:27.019848 13317 net.cpp:165] Memory required for data: 2831458824
I1124 13:29:27.019855 13317 layer_factory.hpp:76] Creating layer inception_4c/relu_pool_proj
I1124 13:29:27.019861 13317 net.cpp:106] Creating Layer inception_4c/relu_pool_proj
I1124 13:29:27.019865 13317 net.cpp:454] inception_4c/relu_pool_proj <- inception_4c/pool_proj
I1124 13:29:27.019871 13317 net.cpp:397] inception_4c/relu_pool_proj -> inception_4c/pool_proj (in-place)
I1124 13:29:27.020232 13317 net.cpp:150] Setting up inception_4c/relu_pool_proj
I1124 13:29:27.020246 13317 net.cpp:157] Top shape: 64 64 14 14 (802816)
I1124 13:29:27.020249 13317 net.cpp:165] Memory required for data: 2834670088
I1124 13:29:27.020253 13317 layer_factory.hpp:76] Creating layer inception_4c/output
I1124 13:29:27.020259 13317 net.cpp:106] Creating Layer inception_4c/output
I1124 13:29:27.020263 13317 net.cpp:454] inception_4c/output <- inception_4c/1x1
I1124 13:29:27.020267 13317 net.cpp:454] inception_4c/output <- inception_4c/3x3
I1124 13:29:27.020272 13317 net.cpp:454] inception_4c/output <- inception_4c/5x5
I1124 13:29:27.020275 13317 net.cpp:454] inception_4c/output <- inception_4c/pool_proj
I1124 13:29:27.020282 13317 net.cpp:411] inception_4c/output -> inception_4c/output
I1124 13:29:27.020330 13317 net.cpp:150] Setting up inception_4c/output
I1124 13:29:27.020336 13317 net.cpp:157] Top shape: 64 512 14 14 (6422528)
I1124 13:29:27.020339 13317 net.cpp:165] Memory required for data: 2860360200
I1124 13:29:27.020342 13317 layer_factory.hpp:76] Creating layer inception_4c/output_inception_4c/output_0_split
I1124 13:29:27.020349 13317 net.cpp:106] Creating Layer inception_4c/output_inception_4c/output_0_split
I1124 13:29:27.020351 13317 net.cpp:454] inception_4c/output_inception_4c/output_0_split <- inception_4c/output
I1124 13:29:27.020356 13317 net.cpp:411] inception_4c/output_inception_4c/output_0_split -> inception_4c/output_inception_4c/output_0_split_0
I1124 13:29:27.020364 13317 net.cpp:411] inception_4c/output_inception_4c/output_0_split -> inception_4c/output_inception_4c/output_0_split_1
I1124 13:29:27.020370 13317 net.cpp:411] inception_4c/output_inception_4c/output_0_split -> inception_4c/output_inception_4c/output_0_split_2
I1124 13:29:27.020375 13317 net.cpp:411] inception_4c/output_inception_4c/output_0_split -> inception_4c/output_inception_4c/output_0_split_3
I1124 13:29:27.020478 13317 net.cpp:150] Setting up inception_4c/output_inception_4c/output_0_split
I1124 13:29:27.020486 13317 net.cpp:157] Top shape: 64 512 14 14 (6422528)
I1124 13:29:27.020490 13317 net.cpp:157] Top shape: 64 512 14 14 (6422528)
I1124 13:29:27.020493 13317 net.cpp:157] Top shape: 64 512 14 14 (6422528)
I1124 13:29:27.020496 13317 net.cpp:157] Top shape: 64 512 14 14 (6422528)
I1124 13:29:27.020499 13317 net.cpp:165] Memory required for data: 2963120648
I1124 13:29:27.020503 13317 layer_factory.hpp:76] Creating layer inception_4d/1x1
I1124 13:29:27.020510 13317 net.cpp:106] Creating Layer inception_4d/1x1
I1124 13:29:27.020514 13317 net.cpp:454] inception_4d/1x1 <- inception_4c/output_inception_4c/output_0_split_0
I1124 13:29:27.020520 13317 net.cpp:411] inception_4d/1x1 -> inception_4d/1x1
I1124 13:29:27.022070 13317 net.cpp:150] Setting up inception_4d/1x1
I1124 13:29:27.022084 13317 net.cpp:157] Top shape: 64 112 14 14 (1404928)
I1124 13:29:27.022089 13317 net.cpp:165] Memory required for data: 2968740360
I1124 13:29:27.022094 13317 layer_factory.hpp:76] Creating layer inception_4d/relu_1x1
I1124 13:29:27.022101 13317 net.cpp:106] Creating Layer inception_4d/relu_1x1
I1124 13:29:27.022106 13317 net.cpp:454] inception_4d/relu_1x1 <- inception_4d/1x1
I1124 13:29:27.022112 13317 net.cpp:397] inception_4d/relu_1x1 -> inception_4d/1x1 (in-place)
I1124 13:29:27.022483 13317 net.cpp:150] Setting up inception_4d/relu_1x1
I1124 13:29:27.022496 13317 net.cpp:157] Top shape: 64 112 14 14 (1404928)
I1124 13:29:27.022500 13317 net.cpp:165] Memory required for data: 2974360072
I1124 13:29:27.022503 13317 layer_factory.hpp:76] Creating layer inception_4d/3x3_reduce
I1124 13:29:27.022513 13317 net.cpp:106] Creating Layer inception_4d/3x3_reduce
I1124 13:29:27.022518 13317 net.cpp:454] inception_4d/3x3_reduce <- inception_4c/output_inception_4c/output_0_split_1
I1124 13:29:27.022526 13317 net.cpp:411] inception_4d/3x3_reduce -> inception_4d/3x3_reduce
I1124 13:29:27.024363 13317 net.cpp:150] Setting up inception_4d/3x3_reduce
I1124 13:29:27.024379 13317 net.cpp:157] Top shape: 64 144 14 14 (1806336)
I1124 13:29:27.024381 13317 net.cpp:165] Memory required for data: 2981585416
I1124 13:29:27.024389 13317 layer_factory.hpp:76] Creating layer inception_4d/relu_3x3_reduce
I1124 13:29:27.024394 13317 net.cpp:106] Creating Layer inception_4d/relu_3x3_reduce
I1124 13:29:27.024399 13317 net.cpp:454] inception_4d/relu_3x3_reduce <- inception_4d/3x3_reduce
I1124 13:29:27.024404 13317 net.cpp:397] inception_4d/relu_3x3_reduce -> inception_4d/3x3_reduce (in-place)
I1124 13:29:27.024641 13317 net.cpp:150] Setting up inception_4d/relu_3x3_reduce
I1124 13:29:27.024652 13317 net.cpp:157] Top shape: 64 144 14 14 (1806336)
I1124 13:29:27.024655 13317 net.cpp:165] Memory required for data: 2988810760
I1124 13:29:27.024658 13317 layer_factory.hpp:76] Creating layer inception_4d/3x3
I1124 13:29:27.024668 13317 net.cpp:106] Creating Layer inception_4d/3x3
I1124 13:29:27.024672 13317 net.cpp:454] inception_4d/3x3 <- inception_4d/3x3_reduce
I1124 13:29:27.024680 13317 net.cpp:411] inception_4d/3x3 -> inception_4d/3x3
I1124 13:29:27.028955 13317 net.cpp:150] Setting up inception_4d/3x3
I1124 13:29:27.028970 13317 net.cpp:157] Top shape: 64 288 14 14 (3612672)
I1124 13:29:27.028975 13317 net.cpp:165] Memory required for data: 3003261448
I1124 13:29:27.028980 13317 layer_factory.hpp:76] Creating layer inception_4d/relu_3x3
I1124 13:29:27.028987 13317 net.cpp:106] Creating Layer inception_4d/relu_3x3
I1124 13:29:27.028991 13317 net.cpp:454] inception_4d/relu_3x3 <- inception_4d/3x3
I1124 13:29:27.028997 13317 net.cpp:397] inception_4d/relu_3x3 -> inception_4d/3x3 (in-place)
I1124 13:29:27.029382 13317 net.cpp:150] Setting up inception_4d/relu_3x3
I1124 13:29:27.029397 13317 net.cpp:157] Top shape: 64 288 14 14 (3612672)
I1124 13:29:27.029399 13317 net.cpp:165] Memory required for data: 3017712136
I1124 13:29:27.029403 13317 layer_factory.hpp:76] Creating layer inception_4d/5x5_reduce
I1124 13:29:27.029413 13317 net.cpp:106] Creating Layer inception_4d/5x5_reduce
I1124 13:29:27.029418 13317 net.cpp:454] inception_4d/5x5_reduce <- inception_4c/output_inception_4c/output_0_split_2
I1124 13:29:27.029427 13317 net.cpp:411] inception_4d/5x5_reduce -> inception_4d/5x5_reduce
I1124 13:29:27.030879 13317 net.cpp:150] Setting up inception_4d/5x5_reduce
I1124 13:29:27.030892 13317 net.cpp:157] Top shape: 64 32 14 14 (401408)
I1124 13:29:27.030896 13317 net.cpp:165] Memory required for data: 3019317768
I1124 13:29:27.030902 13317 layer_factory.hpp:76] Creating layer inception_4d/relu_5x5_reduce
I1124 13:29:27.030908 13317 net.cpp:106] Creating Layer inception_4d/relu_5x5_reduce
I1124 13:29:27.030912 13317 net.cpp:454] inception_4d/relu_5x5_reduce <- inception_4d/5x5_reduce
I1124 13:29:27.030920 13317 net.cpp:397] inception_4d/relu_5x5_reduce -> inception_4d/5x5_reduce (in-place)
I1124 13:29:27.031287 13317 net.cpp:150] Setting up inception_4d/relu_5x5_reduce
I1124 13:29:27.031301 13317 net.cpp:157] Top shape: 64 32 14 14 (401408)
I1124 13:29:27.031304 13317 net.cpp:165] Memory required for data: 3020923400
I1124 13:29:27.031308 13317 layer_factory.hpp:76] Creating layer inception_4d/5x5
I1124 13:29:27.031317 13317 net.cpp:106] Creating Layer inception_4d/5x5
I1124 13:29:27.031322 13317 net.cpp:454] inception_4d/5x5 <- inception_4d/5x5_reduce
I1124 13:29:27.031329 13317 net.cpp:411] inception_4d/5x5 -> inception_4d/5x5
I1124 13:29:27.033032 13317 net.cpp:150] Setting up inception_4d/5x5
I1124 13:29:27.033047 13317 net.cpp:157] Top shape: 64 64 14 14 (802816)
I1124 13:29:27.033051 13317 net.cpp:165] Memory required for data: 3024134664
I1124 13:29:27.033057 13317 layer_factory.hpp:76] Creating layer inception_4d/relu_5x5
I1124 13:29:27.033064 13317 net.cpp:106] Creating Layer inception_4d/relu_5x5
I1124 13:29:27.033069 13317 net.cpp:454] inception_4d/relu_5x5 <- inception_4d/5x5
I1124 13:29:27.033076 13317 net.cpp:397] inception_4d/relu_5x5 -> inception_4d/5x5 (in-place)
I1124 13:29:27.033283 13317 net.cpp:150] Setting up inception_4d/relu_5x5
I1124 13:29:27.033294 13317 net.cpp:157] Top shape: 64 64 14 14 (802816)
I1124 13:29:27.033298 13317 net.cpp:165] Memory required for data: 3027345928
I1124 13:29:27.033301 13317 layer_factory.hpp:76] Creating layer inception_4d/pool
I1124 13:29:27.033308 13317 net.cpp:106] Creating Layer inception_4d/pool
I1124 13:29:27.033313 13317 net.cpp:454] inception_4d/pool <- inception_4c/output_inception_4c/output_0_split_3
I1124 13:29:27.033318 13317 net.cpp:411] inception_4d/pool -> inception_4d/pool
I1124 13:29:27.033746 13317 net.cpp:150] Setting up inception_4d/pool
I1124 13:29:27.033759 13317 net.cpp:157] Top shape: 64 512 14 14 (6422528)
I1124 13:29:27.033763 13317 net.cpp:165] Memory required for data: 3053036040
I1124 13:29:27.033766 13317 layer_factory.hpp:76] Creating layer inception_4d/pool_proj
I1124 13:29:27.033776 13317 net.cpp:106] Creating Layer inception_4d/pool_proj
I1124 13:29:27.033781 13317 net.cpp:454] inception_4d/pool_proj <- inception_4d/pool
I1124 13:29:27.033787 13317 net.cpp:411] inception_4d/pool_proj -> inception_4d/pool_proj
I1124 13:29:27.035385 13317 net.cpp:150] Setting up inception_4d/pool_proj
I1124 13:29:27.035403 13317 net.cpp:157] Top shape: 64 64 14 14 (802816)
I1124 13:29:27.035405 13317 net.cpp:165] Memory required for data: 3056247304
I1124 13:29:27.035413 13317 layer_factory.hpp:76] Creating layer inception_4d/relu_pool_proj
I1124 13:29:27.035418 13317 net.cpp:106] Creating Layer inception_4d/relu_pool_proj
I1124 13:29:27.035423 13317 net.cpp:454] inception_4d/relu_pool_proj <- inception_4d/pool_proj
I1124 13:29:27.035428 13317 net.cpp:397] inception_4d/relu_pool_proj -> inception_4d/pool_proj (in-place)
I1124 13:29:27.035634 13317 net.cpp:150] Setting up inception_4d/relu_pool_proj
I1124 13:29:27.035645 13317 net.cpp:157] Top shape: 64 64 14 14 (802816)
I1124 13:29:27.035648 13317 net.cpp:165] Memory required for data: 3059458568
I1124 13:29:27.035652 13317 layer_factory.hpp:76] Creating layer inception_4d/output
I1124 13:29:27.035657 13317 net.cpp:106] Creating Layer inception_4d/output
I1124 13:29:27.035661 13317 net.cpp:454] inception_4d/output <- inception_4d/1x1
I1124 13:29:27.035666 13317 net.cpp:454] inception_4d/output <- inception_4d/3x3
I1124 13:29:27.035671 13317 net.cpp:454] inception_4d/output <- inception_4d/5x5
I1124 13:29:27.035676 13317 net.cpp:454] inception_4d/output <- inception_4d/pool_proj
I1124 13:29:27.035679 13317 net.cpp:411] inception_4d/output -> inception_4d/output
I1124 13:29:27.035727 13317 net.cpp:150] Setting up inception_4d/output
I1124 13:29:27.035733 13317 net.cpp:157] Top shape: 64 528 14 14 (6623232)
I1124 13:29:27.035737 13317 net.cpp:165] Memory required for data: 3085951496
I1124 13:29:27.035739 13317 layer_factory.hpp:76] Creating layer inception_4d/output_inception_4d/output_0_split
I1124 13:29:27.035748 13317 net.cpp:106] Creating Layer inception_4d/output_inception_4d/output_0_split
I1124 13:29:27.035751 13317 net.cpp:454] inception_4d/output_inception_4d/output_0_split <- inception_4d/output
I1124 13:29:27.035756 13317 net.cpp:411] inception_4d/output_inception_4d/output_0_split -> inception_4d/output_inception_4d/output_0_split_0
I1124 13:29:27.035763 13317 net.cpp:411] inception_4d/output_inception_4d/output_0_split -> inception_4d/output_inception_4d/output_0_split_1
I1124 13:29:27.035769 13317 net.cpp:411] inception_4d/output_inception_4d/output_0_split -> inception_4d/output_inception_4d/output_0_split_2
I1124 13:29:27.035774 13317 net.cpp:411] inception_4d/output_inception_4d/output_0_split -> inception_4d/output_inception_4d/output_0_split_3
I1124 13:29:27.035779 13317 net.cpp:411] inception_4d/output_inception_4d/output_0_split -> inception_4d/output_inception_4d/output_0_split_4
I1124 13:29:27.035909 13317 net.cpp:150] Setting up inception_4d/output_inception_4d/output_0_split
I1124 13:29:27.035918 13317 net.cpp:157] Top shape: 64 528 14 14 (6623232)
I1124 13:29:27.035923 13317 net.cpp:157] Top shape: 64 528 14 14 (6623232)
I1124 13:29:27.035925 13317 net.cpp:157] Top shape: 64 528 14 14 (6623232)
I1124 13:29:27.035928 13317 net.cpp:157] Top shape: 64 528 14 14 (6623232)
I1124 13:29:27.035933 13317 net.cpp:157] Top shape: 64 528 14 14 (6623232)
I1124 13:29:27.035934 13317 net.cpp:165] Memory required for data: 3218416136
I1124 13:29:27.035938 13317 layer_factory.hpp:76] Creating layer loss2/ave_pool
I1124 13:29:27.035945 13317 net.cpp:106] Creating Layer loss2/ave_pool
I1124 13:29:27.035948 13317 net.cpp:454] loss2/ave_pool <- inception_4d/output_inception_4d/output_0_split_0
I1124 13:29:27.035954 13317 net.cpp:411] loss2/ave_pool -> loss2/ave_pool
I1124 13:29:27.036360 13317 net.cpp:150] Setting up loss2/ave_pool
I1124 13:29:27.036375 13317 net.cpp:157] Top shape: 64 528 4 4 (540672)
I1124 13:29:27.036377 13317 net.cpp:165] Memory required for data: 3220578824
I1124 13:29:27.036381 13317 layer_factory.hpp:76] Creating layer loss2/conv
I1124 13:29:27.036388 13317 net.cpp:106] Creating Layer loss2/conv
I1124 13:29:27.036392 13317 net.cpp:454] loss2/conv <- loss2/ave_pool
I1124 13:29:27.036399 13317 net.cpp:411] loss2/conv -> loss2/conv
I1124 13:29:27.038449 13317 net.cpp:150] Setting up loss2/conv
I1124 13:29:27.038465 13317 net.cpp:157] Top shape: 64 128 4 4 (131072)
I1124 13:29:27.038468 13317 net.cpp:165] Memory required for data: 3221103112
I1124 13:29:27.038475 13317 layer_factory.hpp:76] Creating layer loss2/relu_conv
I1124 13:29:27.038480 13317 net.cpp:106] Creating Layer loss2/relu_conv
I1124 13:29:27.038485 13317 net.cpp:454] loss2/relu_conv <- loss2/conv
I1124 13:29:27.038491 13317 net.cpp:397] loss2/relu_conv -> loss2/conv (in-place)
I1124 13:29:27.038874 13317 net.cpp:150] Setting up loss2/relu_conv
I1124 13:29:27.038887 13317 net.cpp:157] Top shape: 64 128 4 4 (131072)
I1124 13:29:27.038892 13317 net.cpp:165] Memory required for data: 3221627400
I1124 13:29:27.038895 13317 layer_factory.hpp:76] Creating layer loss2/fc
I1124 13:29:27.038904 13317 net.cpp:106] Creating Layer loss2/fc
I1124 13:29:27.038908 13317 net.cpp:454] loss2/fc <- loss2/conv
I1124 13:29:27.038913 13317 net.cpp:411] loss2/fc -> loss2/fc
I1124 13:29:27.054555 13317 net.cpp:150] Setting up loss2/fc
I1124 13:29:27.054571 13317 net.cpp:157] Top shape: 64 1024 (65536)
I1124 13:29:27.054574 13317 net.cpp:165] Memory required for data: 3221889544
I1124 13:29:27.054581 13317 layer_factory.hpp:76] Creating layer loss2/relu_fc
I1124 13:29:27.054589 13317 net.cpp:106] Creating Layer loss2/relu_fc
I1124 13:29:27.054592 13317 net.cpp:454] loss2/relu_fc <- loss2/fc
I1124 13:29:27.054600 13317 net.cpp:397] loss2/relu_fc -> loss2/fc (in-place)
I1124 13:29:27.054831 13317 net.cpp:150] Setting up loss2/relu_fc
I1124 13:29:27.054843 13317 net.cpp:157] Top shape: 64 1024 (65536)
I1124 13:29:27.054847 13317 net.cpp:165] Memory required for data: 3222151688
I1124 13:29:27.054850 13317 layer_factory.hpp:76] Creating layer loss2/drop_fc
I1124 13:29:27.054857 13317 net.cpp:106] Creating Layer loss2/drop_fc
I1124 13:29:27.054860 13317 net.cpp:454] loss2/drop_fc <- loss2/fc
I1124 13:29:27.054867 13317 net.cpp:397] loss2/drop_fc -> loss2/fc (in-place)
I1124 13:29:27.054915 13317 net.cpp:150] Setting up loss2/drop_fc
I1124 13:29:27.054925 13317 net.cpp:157] Top shape: 64 1024 (65536)
I1124 13:29:27.054929 13317 net.cpp:165] Memory required for data: 3222413832
I1124 13:29:27.054931 13317 layer_factory.hpp:76] Creating layer loss2/classifier-attribute
I1124 13:29:27.054939 13317 net.cpp:106] Creating Layer loss2/classifier-attribute
I1124 13:29:27.054941 13317 net.cpp:454] loss2/classifier-attribute <- loss2/fc
I1124 13:29:27.054949 13317 net.cpp:411] loss2/classifier-attribute -> loss2/classifier-attribute
I1124 13:29:27.055201 13317 net.cpp:150] Setting up loss2/classifier-attribute
I1124 13:29:27.055209 13317 net.cpp:157] Top shape: 64 9 (576)
I1124 13:29:27.055212 13317 net.cpp:165] Memory required for data: 3222416136
I1124 13:29:27.055218 13317 layer_factory.hpp:76] Creating layer loss2/classifier-attribute_loss2/classifier-attribute_0_split
I1124 13:29:27.055225 13317 net.cpp:106] Creating Layer loss2/classifier-attribute_loss2/classifier-attribute_0_split
I1124 13:29:27.055229 13317 net.cpp:454] loss2/classifier-attribute_loss2/classifier-attribute_0_split <- loss2/classifier-attribute
I1124 13:29:27.055234 13317 net.cpp:411] loss2/classifier-attribute_loss2/classifier-attribute_0_split -> loss2/classifier-attribute_loss2/classifier-attribute_0_split_0
I1124 13:29:27.055239 13317 net.cpp:411] loss2/classifier-attribute_loss2/classifier-attribute_0_split -> loss2/classifier-attribute_loss2/classifier-attribute_0_split_1
I1124 13:29:27.055315 13317 net.cpp:150] Setting up loss2/classifier-attribute_loss2/classifier-attribute_0_split
I1124 13:29:27.055323 13317 net.cpp:157] Top shape: 64 9 (576)
I1124 13:29:27.055327 13317 net.cpp:157] Top shape: 64 9 (576)
I1124 13:29:27.055330 13317 net.cpp:165] Memory required for data: 3222420744
I1124 13:29:27.055333 13317 layer_factory.hpp:76] Creating layer loss2/loss
I1124 13:29:27.055338 13317 net.cpp:106] Creating Layer loss2/loss
I1124 13:29:27.055342 13317 net.cpp:454] loss2/loss <- loss2/classifier-attribute_loss2/classifier-attribute_0_split_0
I1124 13:29:27.055347 13317 net.cpp:454] loss2/loss <- label_data_1_split_2
…
I1124 13:29:27.055954 13317 net.cpp:150] Setting up loss2/top-1
I1124 13:29:27.055959 13317 net.cpp:157] Top shape: (1)
I1124 13:29:27.055961 13317 net.cpp:165] Memory required for data: 3222420752
I1124 13:29:27.055964 13317 layer_factory.hpp:76] Creating layer inception_4e/1x1
I1124 13:29:27.055974 13317 net.cpp:106] Creating Layer inception_4e/1x1
I1124 13:29:27.055976 13317 net.cpp:454] inception_4e/1x1 <- inception_4d/output_inception_4d/output_0_split_1
I1124 13:29:27.055982 13317 net.cpp:411] inception_4e/1x1 -> inception_4e/1x1
I1124 13:29:27.058225 13317 net.cpp:150] Setting up inception_4e/1x1
I1124 13:29:27.058240 13317 net.cpp:157] Top shape: 64 256 14 14 (3211264)
I1124 13:29:27.058243 13317 net.cpp:165] Memory required for data: 3235265808
I1124 13:29:27.058250 13317 layer_factory.hpp:76] Creating layer inception_4e/relu_1x1
I1124 13:29:27.058257 13317 net.cpp:106] Creating Layer inception_4e/relu_1x1
I1124 13:29:27.058262 13317 net.cpp:454] inception_4e/relu_1x1 <- inception_4e/1x1
I1124 13:29:27.058267 13317 net.cpp:397] inception_4e/relu_1x1 -> inception_4e/1x1 (in-place)
I1124 13:29:27.058475 13317 net.cpp:150] Setting up inception_4e/relu_1x1
I1124 13:29:27.058486 13317 net.cpp:157] Top shape: 64 256 14 14 (3211264)
I1124 13:29:27.058490 13317 net.cpp:165] Memory required for data: 3248110864
I1124 13:29:27.058492 13317 layer_factory.hpp:76] Creating layer inception_4e/3x3_reduce
I1124 13:29:27.058501 13317 net.cpp:106] Creating Layer inception_4e/3x3_reduce
I1124 13:29:27.058506 13317 net.cpp:454] inception_4e/3x3_reduce <- inception_4d/output_inception_4d/output_0_split_2
I1124 13:29:27.058512 13317 net.cpp:411] inception_4e/3x3_reduce -> inception_4e/3x3_reduce
I1124 13:29:27.060894 13317 net.cpp:150] Setting up inception_4e/3x3_reduce
I1124 13:29:27.060909 13317 net.cpp:157] Top shape: 64 160 14 14 (2007040)
I1124 13:29:27.060914 13317 net.cpp:165] Memory required for data: 3256139024
I1124 13:29:27.060920 13317 layer_factory.hpp:76] Creating layer inception_4e/relu_3x3_reduce
I1124 13:29:27.060925 13317 net.cpp:106] Creating Layer inception_4e/relu_3x3_reduce
I1124 13:29:27.060930 13317 net.cpp:454] inception_4e/relu_3x3_reduce <- inception_4e/3x3_reduce
I1124 13:29:27.060935 13317 net.cpp:397] inception_4e/relu_3x3_reduce -> inception_4e/3x3_reduce (in-place)
I1124 13:29:27.061306 13317 net.cpp:150] Setting up inception_4e/relu_3x3_reduce
I1124 13:29:27.061321 13317 net.cpp:157] Top shape: 64 160 14 14 (2007040)
I1124 13:29:27.061324 13317 net.cpp:165] Memory required for data: 3264167184
I1124 13:29:27.061328 13317 layer_factory.hpp:76] Creating layer inception_4e/3x3
I1124 13:29:27.061350 13317 net.cpp:106] Creating Layer inception_4e/3x3
I1124 13:29:27.061355 13317 net.cpp:454] inception_4e/3x3 <- inception_4e/3x3_reduce
I1124 13:29:27.061362 13317 net.cpp:411] inception_4e/3x3 -> inception_4e/3x3
I1124 13:29:27.066161 13317 net.cpp:150] Setting up inception_4e/3x3
I1124 13:29:27.066176 13317 net.cpp:157] Top shape: 64 320 14 14 (4014080)
I1124 13:29:27.066180 13317 net.cpp:165] Memory required for data: 3280223504
I1124 13:29:27.066187 13317 layer_factory.hpp:76] Creating layer inception_4e/relu_3x3
I1124 13:29:27.066195 13317 net.cpp:106] Creating Layer inception_4e/relu_3x3
I1124 13:29:27.066200 13317 net.cpp:454] inception_4e/relu_3x3 <- inception_4e/3x3
I1124 13:29:27.066205 13317 net.cpp:397] inception_4e/relu_3x3 -> inception_4e/3x3 (in-place)
I1124 13:29:27.066570 13317 net.cpp:150] Setting up inception_4e/relu_3x3
I1124 13:29:27.066583 13317 net.cpp:157] Top shape: 64 320 14 14 (4014080)
I1124 13:29:27.066587 13317 net.cpp:165] Memory required for data: 3296279824
I1124 13:29:27.066591 13317 layer_factory.hpp:76] Creating layer inception_4e/5x5_reduce
I1124 13:29:27.066601 13317 net.cpp:106] Creating Layer inception_4e/5x5_reduce
I1124 13:29:27.066604 13317 net.cpp:454] inception_4e/5x5_reduce <- inception_4d/output_inception_4d/output_0_split_3
I1124 13:29:27.066612 13317 net.cpp:411] inception_4e/5x5_reduce -> inception_4e/5x5_reduce
I1124 13:29:27.068276 13317 net.cpp:150] Setting up inception_4e/5x5_reduce
I1124 13:29:27.068291 13317 net.cpp:157] Top shape: 64 32 14 14 (401408)
I1124 13:29:27.068295 13317 net.cpp:165] Memory required for data: 3297885456
I1124 13:29:27.068300 13317 layer_factory.hpp:76] Creating layer inception_4e/relu_5x5_reduce
I1124 13:29:27.068306 13317 net.cpp:106] Creating Layer inception_4e/relu_5x5_reduce
I1124 13:29:27.068310 13317 net.cpp:454] inception_4e/relu_5x5_reduce <- inception_4e/5x5_reduce
I1124 13:29:27.068317 13317 net.cpp:397] inception_4e/relu_5x5_reduce -> inception_4e/5x5_reduce (in-place)
I1124 13:29:27.068526 13317 net.cpp:150] Setting up inception_4e/relu_5x5_reduce
I1124 13:29:27.068537 13317 net.cpp:157] Top shape: 64 32 14 14 (401408)
I1124 13:29:27.068542 13317 net.cpp:165] Memory required for data: 3299491088
I1124 13:29:27.068544 13317 layer_factory.hpp:76] Creating layer inception_4e/5x5
I1124 13:29:27.068553 13317 net.cpp:106] Creating Layer inception_4e/5x5
I1124 13:29:27.068557 13317 net.cpp:454] inception_4e/5x5 <- inception_4e/5x5_reduce
I1124 13:29:27.068564 13317 net.cpp:411] inception_4e/5x5 -> inception_4e/5x5
I1124 13:29:27.070592 13317 net.cpp:150] Setting up inception_4e/5x5
I1124 13:29:27.070606 13317 net.cpp:157] Top shape: 64 128 14 14 (1605632)
I1124 13:29:27.070611 13317 net.cpp:165] Memory required for data: 3305913616
I1124 13:29:27.070616 13317 layer_factory.hpp:76] Creating layer inception_4e/relu_5x5
I1124 13:29:27.070621 13317 net.cpp:106] Creating Layer inception_4e/relu_5x5
I1124 13:29:27.070626 13317 net.cpp:454] inception_4e/relu_5x5 <- inception_4e/5x5
I1124 13:29:27.070631 13317 net.cpp:397] inception_4e/relu_5x5 -> inception_4e/5x5 (in-place)
I1124 13:29:27.071020 13317 net.cpp:150] Setting up inception_4e/relu_5x5
I1124 13:29:27.071034 13317 net.cpp:157] Top shape: 64 128 14 14 (1605632)
I1124 13:29:27.071038 13317 net.cpp:165] Memory required for data: 3312336144
I1124 13:29:27.071041 13317 layer_factory.hpp:76] Creating layer inception_4e/pool
I1124 13:29:27.071048 13317 net.cpp:106] Creating Layer inception_4e/pool
I1124 13:29:27.071053 13317 net.cpp:454] inception_4e/pool <- inception_4d/output_inception_4d/output_0_split_4
I1124 13:29:27.071060 13317 net.cpp:411] inception_4e/pool -> inception_4e/pool
I1124 13:29:27.071334 13317 net.cpp:150] Setting up inception_4e/pool
I1124 13:29:27.071348 13317 net.cpp:157] Top shape: 64 528 14 14 (6623232)
I1124 13:29:27.071352 13317 net.cpp:165] Memory required for data: 3338829072
I1124 13:29:27.071354 13317 layer_factory.hpp:76] Creating layer inception_4e/pool_proj
I1124 13:29:27.071362 13317 net.cpp:106] Creating Layer inception_4e/pool_proj
I1124 13:29:27.071367 13317 net.cpp:454] inception_4e/pool_proj <- inception_4e/pool
I1124 13:29:27.071373 13317 net.cpp:411] inception_4e/pool_proj -> inception_4e/pool_proj
I1124 13:29:27.073204 13317 net.cpp:150] Setting up inception_4e/pool_proj
I1124 13:29:27.073217 13317 net.cpp:157] Top shape: 64 128 14 14 (1605632)
I1124 13:29:27.073221 13317 net.cpp:165] Memory required for data: 3345251600
I1124 13:29:27.073227 13317 layer_factory.hpp:76] Creating layer inception_4e/relu_pool_proj
I1124 13:29:27.073237 13317 net.cpp:106] Creating Layer inception_4e/relu_pool_proj
I1124 13:29:27.073253 13317 net.cpp:454] inception_4e/relu_pool_proj <- inception_4e/pool_proj
I1124 13:29:27.073259 13317 net.cpp:397] inception_4e/relu_pool_proj -> inception_4e/pool_proj (in-place)
I1124 13:29:27.073633 13317 net.cpp:150] Setting up inception_4e/relu_pool_proj
I1124 13:29:27.073647 13317 net.cpp:157] Top shape: 64 128 14 14 (1605632)
I1124 13:29:27.073650 13317 net.cpp:165] Memory required for data: 3351674128
I1124 13:29:27.073654 13317 layer_factory.hpp:76] Creating layer inception_4e/output
I1124 13:29:27.073662 13317 net.cpp:106] Creating Layer inception_4e/output
I1124 13:29:27.073667 13317 net.cpp:454] inception_4e/output <- inception_4e/1x1
I1124 13:29:27.073670 13317 net.cpp:454] inception_4e/output <- inception_4e/3x3
I1124 13:29:27.073674 13317 net.cpp:454] inception_4e/output <- inception_4e/5x5
I1124 13:29:27.073678 13317 net.cpp:454] inception_4e/output <- inception_4e/pool_proj
I1124 13:29:27.073683 13317 net.cpp:411] inception_4e/output -> inception_4e/output
I1124 13:29:27.073736 13317 net.cpp:150] Setting up inception_4e/output
I1124 13:29:27.073743 13317 net.cpp:157] Top shape: 64 832 14 14 (10436608)
I1124 13:29:27.073746 13317 net.cpp:165] Memory required for data: 3393420560
I1124 13:29:27.073750 13317 layer_factory.hpp:76] Creating layer pool4/3x3_s2
I1124 13:29:27.073755 13317 net.cpp:106] Creating Layer pool4/3x3_s2
I1124 13:29:27.073758 13317 net.cpp:454] pool4/3x3_s2 <- inception_4e/output
I1124 13:29:27.073765 13317 net.cpp:411] pool4/3x3_s2 -> pool4/3x3_s2
I1124 13:29:27.074035 13317 net.cpp:150] Setting up pool4/3x3_s2
I1124 13:29:27.074051 13317 net.cpp:157] Top shape: 64 832 7 7 (2609152)
I1124 13:29:27.074055 13317 net.cpp:165] Memory required for data: 3403857168
I1124 13:29:27.074059 13317 layer_factory.hpp:76] Creating layer pool4/3x3_s2_pool4/3x3_s2_0_split
I1124 13:29:27.074064 13317 net.cpp:106] Creating Layer pool4/3x3_s2_pool4/3x3_s2_0_split
I1124 13:29:27.074069 13317 net.cpp:454] pool4/3x3_s2_pool4/3x3_s2_0_split <- pool4/3x3_s2
I1124 13:29:27.074074 13317 net.cpp:411] pool4/3x3_s2_pool4/3x3_s2_0_split -> pool4/3x3_s2_pool4/3x3_s2_0_split_0
I1124 13:29:27.074079 13317 net.cpp:411] pool4/3x3_s2_pool4/3x3_s2_0_split -> pool4/3x3_s2_pool4/3x3_s2_0_split_1
I1124 13:29:27.074084 13317 net.cpp:411] pool4/3x3_s2_pool4/3x3_s2_0_split -> pool4/3x3_s2_pool4/3x3_s2_0_split_2
I1124 13:29:27.074091 13317 net.cpp:411] pool4/3x3_s2_pool4/3x3_s2_0_split -> pool4/3x3_s2_pool4/3x3_s2_0_split_3
I1124 13:29:27.074206 13317 net.cpp:150] Setting up pool4/3x3_s2_pool4/3x3_s2_0_split
I1124 13:29:27.074215 13317 net.cpp:157] Top shape: 64 832 7 7 (2609152)
I1124 13:29:27.074219 13317 net.cpp:157] Top shape: 64 832 7 7 (2609152)
I1124 13:29:27.074223 13317 net.cpp:157] Top shape: 64 832 7 7 (2609152)
I1124 13:29:27.074226 13317 net.cpp:157] Top shape: 64 832 7 7 (2609152)
I1124 13:29:27.074229 13317 net.cpp:165] Memory required for data: 3445603600
I1124 13:29:27.074231 13317 layer_factory.hpp:76] Creating layer inception_5a/1x1
I1124 13:29:27.074240 13317 net.cpp:106] Creating Layer inception_5a/1x1
I1124 13:29:27.074244 13317 net.cpp:454] inception_5a/1x1 <- pool4/3x3_s2_pool4/3x3_s2_0_split_0
I1124 13:29:27.074250 13317 net.cpp:411] inception_5a/1x1 -> inception_5a/1x1
I1124 13:29:27.077446 13317 net.cpp:150] Setting up inception_5a/1x1
I1124 13:29:27.077462 13317 net.cpp:157] Top shape: 64 256 7 7 (802816)
I1124 13:29:27.077466 13317 net.cpp:165] Memory required for data: 3448814864
I1124 13:29:27.077473 13317 layer_factory.hpp:76] Creating layer inception_5a/relu_1x1
I1124 13:29:27.077479 13317 net.cpp:106] Creating Layer inception_5a/relu_1x1
I1124 13:29:27.077483 13317 net.cpp:454] inception_5a/relu_1x1 <- inception_5a/1x1
I1124 13:29:27.077489 13317 net.cpp:397] inception_5a/relu_1x1 -> inception_5a/1x1 (in-place)
I1124 13:29:27.077702 13317 net.cpp:150] Setting up inception_5a/relu_1x1
I1124 13:29:27.077713 13317 net.cpp:157] Top shape: 64 256 7 7 (802816)
I1124 13:29:27.077718 13317 net.cpp:165] Memory required for data: 3452026128
I1124 13:29:27.077720 13317 layer_factory.hpp:76] Creating layer inception_5a/3x3_reduce
I1124 13:29:27.077729 13317 net.cpp:106] Creating Layer inception_5a/3x3_reduce
I1124 13:29:27.077733 13317 net.cpp:454] inception_5a/3x3_reduce <- pool4/3x3_s2_pool4/3x3_s2_0_split_1
I1124 13:29:27.077741 13317 net.cpp:411] inception_5a/3x3_reduce -> inception_5a/3x3_reduce
I1124 13:29:27.080569 13317 net.cpp:150] Setting up inception_5a/3x3_reduce
I1124 13:29:27.080585 13317 net.cpp:157] Top shape: 64 160 7 7 (501760)
I1124 13:29:27.080590 13317 net.cpp:165] Memory required for data: 3454033168
I1124 13:29:27.080595 13317 layer_factory.hpp:76] Creating layer inception_5a/relu_3x3_reduce
I1124 13:29:27.080601 13317 net.cpp:106] Creating Layer inception_5a/relu_3x3_reduce
I1124 13:29:27.080606 13317 net.cpp:454] inception_5a/relu_3x3_reduce <- inception_5a/3x3_reduce
I1124 13:29:27.080611 13317 net.cpp:397] inception_5a/relu_3x3_reduce -> inception_5a/3x3_reduce (in-place)
I1124 13:29:27.080982 13317 net.cpp:150] Setting up inception_5a/relu_3x3_reduce
I1124 13:29:27.080996 13317 net.cpp:157] Top shape: 64 160 7 7 (501760)
I1124 13:29:27.080999 13317 net.cpp:165] Memory required for data: 3456040208
I1124 13:29:27.081002 13317 layer_factory.hpp:76] Creating layer inception_5a/3x3
I1124 13:29:27.081012 13317 net.cpp:106] Creating Layer inception_5a/3x3
I1124 13:29:27.081017 13317 net.cpp:454] inception_5a/3x3 <- inception_5a/3x3_reduce
I1124 13:29:27.081023 13317 net.cpp:411] inception_5a/3x3 -> inception_5a/3x3
I1124 13:29:27.085971 13317 net.cpp:150] Setting up inception_5a/3x3
I1124 13:29:27.085988 13317 net.cpp:157] Top shape: 64 320 7 7 (1003520)
I1124 13:29:27.085990 13317 net.cpp:165] Memory required for data: 3460054288
I1124 13:29:27.085997 13317 layer_factory.hpp:76] Creating layer inception_5a/relu_3x3
I1124 13:29:27.086004 13317 net.cpp:106] Creating Layer inception_5a/relu_3x3
I1124 13:29:27.086009 13317 net.cpp:454] inception_5a/relu_3x3 <- inception_5a/3x3
I1124 13:29:27.086015 13317 net.cpp:397] inception_5a/relu_3x3 -> inception_5a/3x3 (in-place)
I1124 13:29:27.086228 13317 net.cpp:150] Setting up inception_5a/relu_3x3
I1124 13:29:27.086240 13317 net.cpp:157] Top shape: 64 320 7 7 (1003520)
I1124 13:29:27.086243 13317 net.cpp:165] Memory required for data: 3464068368
I1124 13:29:27.086246 13317 layer_factory.hpp:76] Creating layer inception_5a/5x5_reduce
I1124 13:29:27.086258 13317 net.cpp:106] Creating Layer inception_5a/5x5_reduce
I1124 13:29:27.086262 13317 net.cpp:454] inception_5a/5x5_reduce <- pool4/3x3_s2_pool4/3x3_s2_0_split_2
I1124 13:29:27.086268 13317 net.cpp:411] inception_5a/5x5_reduce -> inception_5a/5x5_reduce
I1124 13:29:27.088312 13317 net.cpp:150] Setting up inception_5a/5x5_reduce
I1124 13:29:27.088328 13317 net.cpp:157] Top shape: 64 32 7 7 (100352)
I1124 13:29:27.088331 13317 net.cpp:165] Memory required for data: 3464469776
I1124 13:29:27.088337 13317 layer_factory.hpp:76] Creating layer inception_5a/relu_5x5_reduce
I1124 13:29:27.088346 13317 net.cpp:106] Creating Layer inception_5a/relu_5x5_reduce
I1124 13:29:27.088349 13317 net.cpp:454] inception_5a/relu_5x5_reduce <- inception_5a/5x5_reduce
I1124 13:29:27.088356 13317 net.cpp:397] inception_5a/relu_5x5_reduce -> inception_5a/5x5_reduce (in-place)
I1124 13:29:27.088577 13317 net.cpp:150] Setting up inception_5a/relu_5x5_reduce
I1124 13:29:27.088588 13317 net.cpp:157] Top shape: 64 32 7 7 (100352)
I1124 13:29:27.088592 13317 net.cpp:165] Memory required for data: 3464871184
I1124 13:29:27.088594 13317 layer_factory.hpp:76] Creating layer inception_5a/5x5
I1124 13:29:27.088603 13317 net.cpp:106] Creating Layer inception_5a/5x5
I1124 13:29:27.088608 13317 net.cpp:454] inception_5a/5x5 <- inception_5a/5x5_reduce
I1124 13:29:27.088613 13317 net.cpp:411] inception_5a/5x5 -> inception_5a/5x5
I1124 13:29:27.090836 13317 net.cpp:150] Setting up inception_5a/5x5
I1124 13:29:27.090850 13317 net.cpp:157] Top shape: 64 128 7 7 (401408)
I1124 13:29:27.090854 13317 net.cpp:165] Memory required for data: 3466476816
I1124 13:29:27.090860 13317 layer_factory.hpp:76] Creating layer inception_5a/relu_5x5
I1124 13:29:27.090867 13317 net.cpp:106] Creating Layer inception_5a/relu_5x5
I1124 13:29:27.090873 13317 net.cpp:454] inception_5a/relu_5x5 <- inception_5a/5x5
I1124 13:29:27.090878 13317 net.cpp:397] inception_5a/relu_5x5 -> inception_5a/5x5 (in-place)
I1124 13:29:27.091264 13317 net.cpp:150] Setting up inception_5a/relu_5x5
I1124 13:29:27.091277 13317 net.cpp:157] Top shape: 64 128 7 7 (401408)
I1124 13:29:27.091281 13317 net.cpp:165] Memory required for data: 3468082448
I1124 13:29:27.091284 13317 layer_factory.hpp:76] Creating layer inception_5a/pool
I1124 13:29:27.091291 13317 net.cpp:106] Creating Layer inception_5a/pool
I1124 13:29:27.091296 13317 net.cpp:454] inception_5a/pool <- pool4/3x3_s2_pool4/3x3_s2_0_split_3
I1124 13:29:27.091301 13317 net.cpp:411] inception_5a/pool -> inception_5a/pool
I1124 13:29:27.091593 13317 net.cpp:150] Setting up inception_5a/pool
I1124 13:29:27.091606 13317 net.cpp:157] Top shape: 64 832 7 7 (2609152)
I1124 13:29:27.091610 13317 net.cpp:165] Memory required for data: 3478519056
I1124 13:29:27.091614 13317 layer_factory.hpp:76] Creating layer inception_5a/pool_proj
I1124 13:29:27.091622 13317 net.cpp:106] Creating Layer inception_5a/pool_proj
I1124 13:29:27.091626 13317 net.cpp:454] inception_5a/pool_proj <- inception_5a/pool
I1124 13:29:27.091632 13317 net.cpp:411] inception_5a/pool_proj -> inception_5a/pool_proj
I1124 13:29:27.094164 13317 net.cpp:150] Setting up inception_5a/pool_proj
I1124 13:29:27.094179 13317 net.cpp:157] Top shape: 64 128 7 7 (401408)
I1124 13:29:27.094183 13317 net.cpp:165] Memory required for data: 3480124688
I1124 13:29:27.094189 13317 layer_factory.hpp:76] Creating layer inception_5a/relu_pool_proj
I1124 13:29:27.094197 13317 net.cpp:106] Creating Layer inception_5a/relu_pool_proj
I1124 13:29:27.094202 13317 net.cpp:454] inception_5a/relu_pool_proj <- inception_5a/pool_proj
I1124 13:29:27.094207 13317 net.cpp:397] inception_5a/relu_pool_proj -> inception_5a/pool_proj (in-place)
I1124 13:29:27.094585 13317 net.cpp:150] Setting up inception_5a/relu_pool_proj
I1124 13:29:27.094599 13317 net.cpp:157] Top shape: 64 128 7 7 (401408)
I1124 13:29:27.094602 13317 net.cpp:165] Memory required for data: 3481730320
I1124 13:29:27.094605 13317 layer_factory.hpp:76] Creating layer inception_5a/output
I1124 13:29:27.094612 13317 net.cpp:106] Creating Layer inception_5a/output
I1124 13:29:27.094617 13317 net.cpp:454] inception_5a/output <- inception_5a/1x1
I1124 13:29:27.094621 13317 net.cpp:454] inception_5a/output <- inception_5a/3x3
I1124 13:29:27.094625 13317 net.cpp:454] inception_5a/output <- inception_5a/5x5
I1124 13:29:27.094630 13317 net.cpp:454] inception_5a/output <- inception_5a/pool_proj
I1124 13:29:27.094635 13317 net.cpp:411] inception_5a/output -> inception_5a/output
I1124 13:29:27.094688 13317 net.cpp:150] Setting up inception_5a/output
I1124 13:29:27.094697 13317 net.cpp:157] Top shape: 64 832 7 7 (2609152)
I1124 13:29:27.094701 13317 net.cpp:165] Memory required for data: 3492166928
I1124 13:29:27.094703 13317 layer_factory.hpp:76] Creating layer inception_5a/output_inception_5a/output_0_split
I1124 13:29:27.094709 13317 net.cpp:106] Creating Layer inception_5a/output_inception_5a/output_0_split
I1124 13:29:27.094713 13317 net.cpp:454] inception_5a/output_inception_5a/output_0_split <- inception_5a/output
I1124 13:29:27.094722 13317 net.cpp:411] inception_5a/output_inception_5a/output_0_split -> inception_5a/output_inception_5a/output_0_split_0
I1124 13:29:27.094728 13317 net.cpp:411] inception_5a/output_inception_5a/output_0_split -> inception_5a/output_inception_5a/output_0_split_1
I1124 13:29:27.094734 13317 net.cpp:411] inception_5a/output_inception_5a/output_0_split -> inception_5a/output_inception_5a/output_0_split_2
I1124 13:29:27.094739 13317 net.cpp:411] inception_5a/output_inception_5a/output_0_split -> inception_5a/output_inception_5a/output_0_split_3
I1124 13:29:27.094892 13317 net.cpp:150] Setting up inception_5a/output_inception_5a/output_0_split
I1124 13:29:27.094902 13317 net.cpp:157] Top shape: 64 832 7 7 (2609152)
I1124 13:29:27.094907 13317 net.cpp:157] Top shape: 64 832 7 7 (2609152)
I1124 13:29:27.094910 13317 net.cpp:157] Top shape: 64 832 7 7 (2609152)
I1124 13:29:27.094913 13317 net.cpp:157] Top shape: 64 832 7 7 (2609152)
I1124 13:29:27.094916 13317 net.cpp:165] Memory required for data: 3533913360
I1124 13:29:27.094919 13317 layer_factory.hpp:76] Creating layer inception_5b/1x1
I1124 13:29:27.094928 13317 net.cpp:106] Creating Layer inception_5b/1x1
I1124 13:29:27.094934 13317 net.cpp:454] inception_5b/1x1 <- inception_5a/output_inception_5a/output_0_split_0
I1124 13:29:27.094940 13317 net.cpp:411] inception_5b/1x1 -> inception_5b/1x1
I1124 13:29:27.098726 13317 net.cpp:150] Setting up inception_5b/1x1
I1124 13:29:27.098742 13317 net.cpp:157] Top shape: 64 384 7 7 (1204224)
I1124 13:29:27.098745 13317 net.cpp:165] Memory required for data: 3538730256
I1124 13:29:27.098752 13317 layer_factory.hpp:76] Creating layer inception_5b/relu_1x1
I1124 13:29:27.098757 13317 net.cpp:106] Creating Layer inception_5b/relu_1x1
I1124 13:29:27.098762 13317 net.cpp:454] inception_5b/relu_1x1 <- inception_5b/1x1
I1124 13:29:27.098767 13317 net.cpp:397] inception_5b/relu_1x1 -> inception_5b/1x1 (in-place)
I1124 13:29:27.099159 13317 net.cpp:150] Setting up inception_5b/relu_1x1
I1124 13:29:27.099174 13317 net.cpp:157] Top shape: 64 384 7 7 (1204224)
I1124 13:29:27.099179 13317 net.cpp:165] Memory required for data: 3543547152
I1124 13:29:27.099182 13317 layer_factory.hpp:76] Creating layer inception_5b/3x3_reduce
I1124 13:29:27.099191 13317 net.cpp:106] Creating Layer inception_5b/3x3_reduce
I1124 13:29:27.099195 13317 net.cpp:454] inception_5b/3x3_reduce <- inception_5a/output_inception_5a/output_0_split_1
I1124 13:29:27.099203 13317 net.cpp:411] inception_5b/3x3_reduce -> inception_5b/3x3_reduce
I1124 13:29:27.102152 13317 net.cpp:150] Setting up inception_5b/3x3_reduce
I1124 13:29:27.102167 13317 net.cpp:157] Top shape: 64 192 7 7 (602112)
I1124 13:29:27.102171 13317 net.cpp:165] Memory required for data: 3545955600
I1124 13:29:27.102177 13317 layer_factory.hpp:76] Creating layer inception_5b/relu_3x3_reduce
I1124 13:29:27.102183 13317 net.cpp:106] Creating Layer inception_5b/relu_3x3_reduce
I1124 13:29:27.102188 13317 net.cpp:454] inception_5b/relu_3x3_reduce <- inception_5b/3x3_reduce
I1124 13:29:27.102195 13317 net.cpp:397] inception_5b/relu_3x3_reduce -> inception_5b/3x3_reduce (in-place)
I1124 13:29:27.102417 13317 net.cpp:150] Setting up inception_5b/relu_3x3_reduce
I1124 13:29:27.102428 13317 net.cpp:157] Top shape: 64 192 7 7 (602112)
I1124 13:29:27.102432 13317 net.cpp:165] Memory required for data: 3548364048
I1124 13:29:27.102434 13317 layer_factory.hpp:76] Creating layer inception_5b/3x3
I1124 13:29:27.102443 13317 net.cpp:106] Creating Layer inception_5b/3x3
I1124 13:29:27.102447 13317 net.cpp:454] inception_5b/3x3 <- inception_5b/3x3_reduce
I1124 13:29:27.102454 13317 net.cpp:411] inception_5b/3x3 -> inception_5b/3x3
I1124 13:29:27.108983 13317 net.cpp:150] Setting up inception_5b/3x3
I1124 13:29:27.108999 13317 net.cpp:157] Top shape: 64 384 7 7 (1204224)
I1124 13:29:27.109002 13317 net.cpp:165] Memory required for data: 3553180944
I1124 13:29:27.109009 13317 layer_factory.hpp:76] Creating layer inception_5b/relu_3x3
I1124 13:29:27.109016 13317 net.cpp:106] Creating Layer inception_5b/relu_3x3
I1124 13:29:27.109021 13317 net.cpp:454] inception_5b/relu_3x3 <- inception_5b/3x3
I1124 13:29:27.109027 13317 net.cpp:397] inception_5b/relu_3x3 -> inception_5b/3x3 (in-place)
I1124 13:29:27.109411 13317 net.cpp:150] Setting up inception_5b/relu_3x3
I1124 13:29:27.109424 13317 net.cpp:157] Top shape: 64 384 7 7 (1204224)
I1124 13:29:27.109427 13317 net.cpp:165] Memory required for data: 3557997840
I1124 13:29:27.109431 13317 layer_factory.hpp:76] Creating layer inception_5b/5x5_reduce
I1124 13:29:27.109442 13317 net.cpp:106] Creating Layer inception_5b/5x5_reduce
I1124 13:29:27.109447 13317 net.cpp:454] inception_5b/5x5_reduce <- inception_5a/output_inception_5a/output_0_split_2
I1124 13:29:27.109453 13317 net.cpp:411] inception_5b/5x5_reduce -> inception_5b/5x5_reduce
I1124 13:29:27.111341 13317 net.cpp:150] Setting up inception_5b/5x5_reduce
I1124 13:29:27.111356 13317 net.cpp:157] Top shape: 64 48 7 7 (150528)
I1124 13:29:27.111359 13317 net.cpp:165] Memory required for data: 3558599952
I1124 13:29:27.111366 13317 layer_factory.hpp:76] Creating layer inception_5b/relu_5x5_reduce
I1124 13:29:27.111372 13317 net.cpp:106] Creating Layer inception_5b/relu_5x5_reduce
I1124 13:29:27.111377 13317 net.cpp:454] inception_5b/relu_5x5_reduce <- inception_5b/5x5_reduce
I1124 13:29:27.111382 13317 net.cpp:397] inception_5b/relu_5x5_reduce -> inception_5b/5x5_reduce (in-place)
I1124 13:29:27.111767 13317 net.cpp:150] Setting up inception_5b/relu_5x5_reduce
I1124 13:29:27.111779 13317 net.cpp:157] Top shape: 64 48 7 7 (150528)
I1124 13:29:27.111783 13317 net.cpp:165] Memory required for data: 3559202064
I1124 13:29:27.111786 13317 layer_factory.hpp:76] Creating layer inception_5b/5x5
I1124 13:29:27.111796 13317 net.cpp:106] Creating Layer inception_5b/5x5
I1124 13:29:27.111800 13317 net.cpp:454] inception_5b/5x5 <- inception_5b/5x5_reduce
I1124 13:29:27.111809 13317 net.cpp:411] inception_5b/5x5 -> inception_5b/5x5
I1124 13:29:27.113988 13317 net.cpp:150] Setting up inception_5b/5x5
I1124 13:29:27.114002 13317 net.cpp:157] Top shape: 64 128 7 7 (401408)
I1124 13:29:27.114006 13317 net.cpp:165] Memory required for data: 3560807696
I1124 13:29:27.114012 13317 layer_factory.hpp:76] Creating layer inception_5b/relu_5x5
I1124 13:29:27.114018 13317 net.cpp:106] Creating Layer inception_5b/relu_5x5
I1124 13:29:27.114022 13317 net.cpp:454] inception_5b/relu_5x5 <- inception_5b/5x5
I1124 13:29:27.114028 13317 net.cpp:397] inception_5b/relu_5x5 -> inception_5b/5x5 (in-place)
I1124 13:29:27.114243 13317 net.cpp:150] Setting up inception_5b/relu_5x5
I1124 13:29:27.114253 13317 net.cpp:157] Top shape: 64 128 7 7 (401408)
I1124 13:29:27.114256 13317 net.cpp:165] Memory required for data: 3562413328
I1124 13:29:27.114259 13317 layer_factory.hpp:76] Creating layer inception_5b/pool
I1124 13:29:27.114267 13317 net.cpp:106] Creating Layer inception_5b/pool
I1124 13:29:27.114271 13317 net.cpp:454] inception_5b/pool <- inception_5a/output_inception_5a/output_0_split_3
I1124 13:29:27.114276 13317 net.cpp:411] inception_5b/pool -> inception_5b/pool
I1124 13:29:27.114689 13317 net.cpp:150] Setting up inception_5b/pool
I1124 13:29:27.114702 13317 net.cpp:157] Top shape: 64 832 7 7 (2609152)
I1124 13:29:27.114706 13317 net.cpp:165] Memory required for data: 3572849936
I1124 13:29:27.114709 13317 layer_factory.hpp:76] Creating layer inception_5b/pool_proj
I1124 13:29:27.114718 13317 net.cpp:106] Creating Layer inception_5b/pool_proj
I1124 13:29:27.114723 13317 net.cpp:454] inception_5b/pool_proj <- inception_5b/pool
I1124 13:29:27.114729 13317 net.cpp:411] inception_5b/pool_proj -> inception_5b/pool_proj
I1124 13:29:27.117122 13317 net.cpp:150] Setting up inception_5b/pool_proj
I1124 13:29:27.117137 13317 net.cpp:157] Top shape: 64 128 7 7 (401408)
I1124 13:29:27.117141 13317 net.cpp:165] Memory required for data: 3574455568
I1124 13:29:27.117147 13317 layer_factory.hpp:76] Creating layer inception_5b/relu_pool_proj
I1124 13:29:27.117153 13317 net.cpp:106] Creating Layer inception_5b/relu_pool_proj
I1124 13:29:27.117157 13317 net.cpp:454] inception_5b/relu_pool_proj <- inception_5b/pool_proj
I1124 13:29:27.117162 13317 net.cpp:397] inception_5b/relu_pool_proj -> inception_5b/pool_proj (in-place)
I1124 13:29:27.117382 13317 net.cpp:150] Setting up inception_5b/relu_pool_proj
I1124 13:29:27.117393 13317 net.cpp:157] Top shape: 64 128 7 7 (401408)
I1124 13:29:27.117398 13317 net.cpp:165] Memory required for data: 3576061200
I1124 13:29:27.117400 13317 layer_factory.hpp:76] Creating layer inception_5b/output
I1124 13:29:27.117406 13317 net.cpp:106] Creating Layer inception_5b/output
I1124 13:29:27.117410 13317 net.cpp:454] inception_5b/output <- inception_5b/1x1
I1124 13:29:27.117415 13317 net.cpp:454] inception_5b/output <- inception_5b/3x3
I1124 13:29:27.117419 13317 net.cpp:454] inception_5b/output <- inception_5b/5x5
I1124 13:29:27.117424 13317 net.cpp:454] inception_5b/output <- inception_5b/pool_proj
I1124 13:29:27.117429 13317 net.cpp:411] inception_5b/output -> inception_5b/output
I1124 13:29:27.117458 13317 net.cpp:150] Setting up inception_5b/output
I1124 13:29:27.117465 13317 net.cpp:157] Top shape: 64 1024 7 7 (3211264)
I1124 13:29:27.117466 13317 net.cpp:165] Memory required for data: 3588906256
I1124 13:29:27.117470 13317 layer_factory.hpp:76] Creating layer pool5/7x7_s1
I1124 13:29:27.117476 13317 net.cpp:106] Creating Layer pool5/7x7_s1
I1124 13:29:27.117480 13317 net.cpp:454] pool5/7x7_s1 <- inception_5b/output
I1124 13:29:27.117485 13317 net.cpp:411] pool5/7x7_s1 -> pool5/7x7_s1
I1124 13:29:27.118017 13317 net.cpp:150] Setting up pool5/7x7_s1
I1124 13:29:27.118031 13317 net.cpp:157] Top shape: 64 1024 1 1 (65536)
I1124 13:29:27.118034 13317 net.cpp:165] Memory required for data: 3589168400
I1124 13:29:27.118037 13317 layer_factory.hpp:76] Creating layer pool5/drop_7x7_s1
I1124 13:29:27.118046 13317 net.cpp:106] Creating Layer pool5/drop_7x7_s1
I1124 13:29:27.118051 13317 net.cpp:454] pool5/drop_7x7_s1 <- pool5/7x7_s1
I1124 13:29:27.118057 13317 net.cpp:397] pool5/drop_7x7_s1 -> pool5/7x7_s1 (in-place)
I1124 13:29:27.118082 13317 net.cpp:150] Setting up pool5/drop_7x7_s1
I1124 13:29:27.118088 13317 net.cpp:157] Top shape: 64 1024 1 1 (65536)
I1124 13:29:27.118089 13317 net.cpp:165] Memory required for data: 3589430544
I1124 13:29:27.118093 13317 layer_factory.hpp:76] Creating layer loss3/classifier-attribute
I1124 13:29:27.118101 13317 net.cpp:106] Creating Layer loss3/classifier-attribute
I1124 13:29:27.118104 13317 net.cpp:454] loss3/classifier-attribute <- pool5/7x7_s1
I1124 13:29:27.118110 13317 net.cpp:411] loss3/classifier-attribute -> loss3/classifier-attribute
I1124 13:29:27.118285 13317 net.cpp:150] Setting up loss3/classifier-attribute
I1124 13:29:27.118294 13317 net.cpp:157] Top shape: 64 9 (576)
I1124 13:29:27.118297 13317 net.cpp:165] Memory required for data: 3589432848
I1124 13:29:27.118304 13317 layer_factory.hpp:76] Creating layer loss3/classifier-attribute_loss3/classifier-attribute_0_split
I1124 13:29:27.118309 13317 net.cpp:106] Creating Layer loss3/classifier-attribute_loss3/classifier-attribute_0_split
I1124 13:29:27.118314 13317 net.cpp:454] loss3/classifier-attribute_loss3/classifier-attribute_0_split <- loss3/classifier-attribute
I1124 13:29:27.118319 13317 net.cpp:411] loss3/classifier-attribute_loss3/classifier-attribute_0_split -> loss3/classifier-attribute_loss3/classifier-attribute_0_split_0
I1124 13:29:27.118325 13317 net.cpp:411] loss3/classifier-attribute_loss3/classifier-attribute_0_split -> loss3/classifier-attribute_loss3/classifier-attribute_0_split_1
I1124 13:29:27.118360 13317 net.cpp:150] Setting up loss3/classifier-attribute_loss3/classifier-attribute_0_split
I1124 13:29:27.118371 13317 net.cpp:157] Top shape: 64 9 (576)
I1124 13:29:27.118374 13317 net.cpp:157] Top shape: 64 9 (576)
I1124 13:29:27.118377 13317 net.cpp:165] Memory required for data: 3589437456
I1124 13:29:27.118381 13317 layer_factory.hpp:76] Creating layer loss3/loss3
I1124 13:29:27.118386 13317 net.cpp:106] Creating Layer loss3/loss3
I1124 13:29:27.118389 13317 net.cpp:454] loss3/loss3 <- loss3/classifier-attribute_loss3/classifier-attribute_0_split_0
I1124 13:29:27.118393 13317 net.cpp:454] loss3/loss3 <- label_data_1_split_4
…
