…
I1125 19:29:18.722549 18775 net.cpp:322] The NetState phase (0) differed from the phase (1) specified by a rule in layer loss3/top-1
I1125 19:29:18.724647 18775 net.cpp:49] Initializing net from parameters: 
name: "GoogleNet-finetune-for-cigit"
state {
  phase: TRAIN
}
layer {
  name: "data"
  type: "ImageData"
  top: "data"
  top: "label"
  include {
    phase: TRAIN
  }
  transform_param {
    mirror: true
    crop_size: 224
    mean_value: 104
    mean_value: 117
    mean_value: 123
  }
  image_data_param {
    source: "pad_train.txt"
    batch_size: 64
    shuffle: true
    new_height: 256
    new_width: 256
  }
}
layer {
  name: "conv1/7x7_s2"
  type: "Convolution"
  bottom: "data"
  top: "conv1/7x7_s2"
  param {
    lr_mult: 1
    decay_mult: 1
  }
  param {
    lr_mult: 2
    decay_mult: 0
  }
  convolution_param {
    num_output: 64
    pad: 3
    kernel_size: 7
    stride: 2
    weight_filler {
      type: "xavier"
    }
    bias_filler {
      type: "constant"
      value: 0.2
    }
  }
}
layer {
  name: "conv1/relu_7x7"
  type: "ReLU"
  bottom: "conv1/7x7_s2"
  top: "conv1/7x7_s2"
}
layer {
  name: "pool1/3x3_s2"
  type: "Pooling"
  bottom: "conv1/7x7_s2"
  top: "pool1/3x3_s2"
  pooling_param {
    pool: MAX
    kernel_size: 3
    stride: 2
  }
}
layer {
  name: "pool1/norm1"
  type: "LRN"
  bottom: "pool1/3x3_s2"
  top: "pool1/norm1"
  lrn_param {
    local_size: 5
    alpha: 0.0001
    beta: 0.75
  }
}
layer {
  name: "conv2/3x3_reduce"
  type: "Convolution"
  bottom: "pool1/norm1"
  top: "conv2/3x3_reduce"
  param {
    lr_mult: 1
    decay_mult: 1
  }
  param {
    lr_mult: 2
    decay_mult: 0
  }
  convolution_param {
    num_output: 64
    kernel_size: 1
    weight_filler {
      type: "xavier"
    }
    bias_filler {
      type: "constant"
      value: 0.2
    }
  }
}
layer {
  name: "conv2/relu_3x3_reduce"
  type: "ReLU"
  bottom: "conv2/3x3_reduce"
  top: "conv2/3x3_reduce"
}
layer {
  name: "conv2/3x3"
  type: "Convolution"
  bottom: "conv2/3x3_reduce"
  top: "conv2/3x3"
  param {
    lr_mult: 1
    decay_mult: 1
  }
  param {
    lr_mult: 2
    decay_mult: 0
  }
  convolution_param {
    num_output: 192
    pad: 1
    kernel_size: 3
    weight_filler {
      type: "xavier"
    }
    bias_filler {
      type: "constant"
      value: 0.2
    }
  }
}
layer {
  name: "conv2/relu_3x3"
  type: "ReLU"
  bottom: "conv2/3x3"
  top: "conv2/3x3"
}
layer {
  name: "conv2/norm2"
  type: "LRN"
  bottom: "conv2/3x3"
  top: "conv2/norm2"
  lrn_param {
    local_size: 5
    alpha: 0.0001
    beta: 0.75
  }
}
layer {
  name: "pool2/3x3_s2"
  type: "Pooling"
  bottom: "conv2/norm2"
  top: "pool2/3x3_s2"
  pooling_param {
    pool: MAX
    kernel_size: 3
    stride: 2
  }
}
layer {
  name: "inception_3a/1x1"
  type: "Convolution"
  bottom: "pool2/3x3_s2"
  top: "inception_3a/1x1"
  param {
    lr_mult: 1
    decay_mult: 1
  }
  param {
    lr_mult: 2
    decay_mult: 0
  }
  convolution_param {
    num_output: 64
    kernel_size: 1
    weight_filler {
      type: "xavier"
    }
    bias_filler {
      type: "constant"
      value: 0.2
    }
  }
}
layer {
  name: "inception_3a/relu_1x1"
  type: "ReLU"
  bottom: "inception_3a/1x1"
  top: "inception_3a/1x1"
}
layer {
  name: "inception_3a/3x3_reduce"
  type: "Convolution"
  bottom: "pool2/3x3_s2"
  top: "inception_3a/3x3_reduce"
  param {
    lr_mult: 1
    decay_mult: 1
  }
  param {
    lr_mult: 2
    decay_mult: 0
  }
  convolution_param {
    num_output: 96
    kernel_size: 1
    weight_filler {
      type: "xavier"
    }
    bias_filler {
      type: "constant"
      value: 0.2
    }
  }
}
layer {
  name: "inception_3a/relu_3x3_reduce"
  type: "ReLU"
  bottom: "inception_3a/3x3_reduce"
  top: "inception_3a/3x3_reduce"
}
layer {
  name: "inception_3a/3x3"
  type: "Convolution"
  bottom: "inception_3a/3x3_reduce"
  top: "inception_3a/3x3"
  param {
    lr_mult: 1
    decay_mult: 1
  }
  param {
    lr_mult: 2
    decay_mult: 0
  }
  convolution_param {
    num_output: 128
    pad: 1
    kernel_size: 3
    weight_filler {
      type: "xavier"
    }
    bias_filler {
      type: "constant"
      value: 0.2
    }
  }
}
layer {
  name: "inception_3a/relu_3x3"
  type: "ReLU"
  bottom: "inception_3a/3x3"
  top: "inception_3a/3x3"
}
layer {
  name: "inception_3a/5x5_reduce"
  type: "Convolution"
  bottom: "pool2/3x3_s2"
  top: "inception_3a/5x5_reduce"
  param {
    lr_mult: 1
    decay_mult: 1
  }
  param {
    lr_mult: 2
    decay_mult: 0
  }
  convolution_param {
    num_output: 16
    kernel_size: 1
    weight_filler {
      type: "xavier"
    }
    bias_filler {
      type: "constant"
      value: 0.2
    }
  }
}
layer {
  name: "inception_3a/relu_5x5_reduce"
  type: "ReLU"
  bottom: "inception_3a/5x5_reduce"
  top: "inception_3a/5x5_reduce"
}
layer {
  name: "inception_3a/5x5"
  type: "Convolution"
  bottom: "inception_3a/5x5_reduce"
  top: "inception_3a/5x5"
  param {
    lr_mult: 1
    decay_mult: 1
  }
  param {
    lr_mult: 2
    decay_mult: 0
  }
  convolution_param {
    num_output: 32
    pad: 2
    kernel_size: 5
    weight_filler {
      type: "xavier"
    }
    bias_filler {
      type: "constant"
      value: 0.2
    }
  }
}
layer {
  name: "inception_3a/relu_5x5"
  type: "ReLU"
  bottom: "inception_3a/5x5"
  top: "inception_3a/5x5"
}
layer {
  name: "inception_3a/pool"
  type: "Pooling"
  bottom: "pool2/3x3_s2"
  top: "inception_3a/pool"
  pooling_param {
    pool: MAX
    kernel_size: 3
    stride: 1
    pad: 1
  }
}
layer {
  name: "inception_3a/pool_proj"
  type: "Convolution"
  bottom: "inception_3a/pool"
  top: "inception_3a/pool_proj"
  param {
    lr_mult: 1
    decay_mult: 1
  }
  param {
    lr_mult: 2
    decay_mult: 0
  }
  convolution_param {
    num_output: 32
    kernel_size: 1
    weight_filler {
      type: "xavier"
    }
    bias_filler {
      type: "constant"
      value: 0.2
    }
  }
}
layer {
  name: "inception_3a/relu_pool_proj"
  type: "ReLU"
  bottom: "inception_3a/pool_proj"
  top: "inception_3a/pool_proj"
}
layer {
  name: "inception_3a/output"
  type: "Concat"
  bottom: "inception_3a/1x1"
  bottom: "inception_3a/3x3"
  bottom: "inception_3a/5x5"
  bottom: "inception_3a/pool_proj"
  top: "inception_3a/output"
}
layer {
  name: "inception_3b/1x1"
  type: "Convolution"
  bottom: "inception_3a/output"
  top: "inception_3b/1x1"
  param {
    lr_mult: 1
    decay_mult: 1
  }
  param {
    lr_mult: 2
    decay_mult: 0
  }
  convolution_param {
    num_output: 128
    kernel_size: 1
    weight_filler {
      type: "xavier"
    }
    bias_filler {
      type: "constant"
      value: 0.2
    }
  }
}
layer {
  name: "inception_3b/relu_1x1"
  type: "ReLU"
  bottom: "inception_3b/1x1"
  top: "inception_3b/1x1"
}
layer {
  name: "inception_3b/3x3_reduce"
  type: "Convolution"
  bottom: "inception_3a/output"
  top: "inception_3b/3x3_reduce"
  param {
    lr_mult: 1
    decay_mult: 1
  }
  param {
    lr_mult: 2
    decay_mult: 0
  }
  convolution_param {
    num_output: 128
    kernel_size: 1
    weight_filler {
      type: "xavier"
    }
    bias_filler {
      type: "constant"
      value: 0.2
    }
  }
}
layer {
  name: "inception_3b/relu_3x3_reduce"
  type: "ReLU"
  bottom: "inception_3b/3x3_reduce"
  top: "inception_3b/3x3_reduce"
}
layer {
  name: "inception_3b/3x3"
  type: "Convolution"
  bottom: "inception_3b/3x3_reduce"
  top: "inception_3b/3x3"
  param {
    lr_mult: 1
    decay_mult: 1
  }
  param {
    lr_mult: 2
    decay_mult: 0
  }
  convolution_param {
    num_output: 192
    pad: 1
    kernel_size: 3
    weight_filler {
      type: "xavier"
    }
    bias_filler {
      type: "constant"
      value: 0.2
    }
  }
}
layer {
  name: "inception_3b/relu_3x3"
  type: "ReLU"
  bottom: "inception_3b/3x3"
  top: "inception_3b/3x3"
}
layer {
  name: "inception_3b/5x5_reduce"
  type: "Convolution"
  bottom: "inception_3a/output"
  top: "inception_3b/5x5_reduce"
  param {
    lr_mult: 1
    decay_mult: 1
  }
  param {
    lr_mult: 2
    decay_mult: 0
  }
  convolution_param {
    num_output: 32
    kernel_size: 1
    weight_filler {
      type: "xavier"
    }
    bias_filler {
      type: "constant"
      value: 0.2
    }
  }
}
layer {
  name: "inception_3b/relu_5x5_reduce"
  type: "ReLU"
  bottom: "inception_3b/5x5_reduce"
  top: "inception_3b/5x5_reduce"
}
layer {
  name: "inception_3b/5x5"
  type: "Convolution"
  bottom: "inception_3b/5x5_reduce"
  top: "inception_3b/5x5"
  param {
    lr_mult: 1
    decay_mult: 1
  }
  param {
    lr_mult: 2
    decay_mult: 0
  }
  convolution_param {
    num_output: 96
    pad: 2
    kernel_size: 5
    weight_filler {
      type: "xavier"
    }
    bias_filler {
      type: "constant"
      value: 0.2
    }
  }
}
layer {
  name: "inception_3b/relu_5x5"
  type: "ReLU"
  bottom: "inception_3b/5x5"
  top: "inception_3b/5x5"
}
layer {
  name: "inception_3b/pool"
  type: "Pooling"
  bottom: "inception_3a/output"
  top: "inception_3b/pool"
  pooling_param {
    pool: MAX
    kernel_size: 3
    stride: 1
    pad: 1
  }
}
layer {
  name: "inception_3b/pool_proj"
  type: "Convolution"
  bottom: "inception_3b/pool"
  top: "inception_3b/pool_proj"
  param {
    lr_mult: 1
    decay_mult: 1
  }
  param {
    lr_mult: 2
    decay_mult: 0
  }
  convolution_param {
    num_output: 64
    kernel_size: 1
    weight_filler {
      type: "xavier"
    }
    bias_filler {
      type: "constant"
      value: 0.2
    }
  }
}
layer {
  name: "inception_3b/relu_pool_proj"
  type: "ReLU"
  bottom: "inception_3b/pool_proj"
  top: "inception_3b/pool_proj"
}
layer {
  name: "inception_3b/output"
  type: "Concat"
  bottom: "inception_3b/1x1"
  bottom: "inception_3b/3x3"
  bottom: "inception_3b/5x5"
  bottom: "inception_3b/pool_proj"
  top: "inception_3b/output"
}
layer {
  name: "pool3/3x3_s2"
  type: "Pooling"
  bottom: "inception_3b/output"
  top: "pool3/3x3_s2"
  pooling_param {
    pool: MAX
    kernel_size: 3
    stride: 2
  }
}
layer {
  name: "inception_4a/1x1"
  type: "Convolution"
  bottom: "pool3/3x3_s2"
  top: "inception_4a/1x1"
  param {
    lr_mult: 1
    decay_mult: 1
  }
  param {
    lr_mult: 2
    decay_mult: 0
  }
  convolution_param {
    num_output: 192
    kernel_size: 1
    weight_filler {
      type: "xavier"
    }
    bias_filler {
      type: "constant"
      value: 0.2
    }
  }
}
layer {
  name: "inception_4a/relu_1x1"
  type: "ReLU"
  bottom: "inception_4a/1x1"
  top: "inception_4a/1x1"
}
layer {
  name: "inception_4a/3x3_reduce"
  type: "Convolution"
  bottom: "pool3/3x3_s2"
  top: "inception_4a/3x3_reduce"
  param {
    lr_mult: 1
    decay_mult: 1
  }
  param {
    lr_mult: 2
    decay_mult: 0
  }
  convolution_param {
    num_output: 96
    kernel_size: 1
    weight_filler {
      type: "xavier"
    }
    bias_filler {
      type: "constant"
      value: 0.2
    }
  }
}
layer {
  name: "inception_4a/relu_3x3_reduce"
  type: "ReLU"
  bottom: "inception_4a/3x3_reduce"
  top: "inception_4a/3x3_reduce"
}
layer {
  name: "inception_4a/3x3"
  type: "Convolution"
  bottom: "inception_4a/3x3_reduce"
  top: "inception_4a/3x3"
  param {
    lr_mult: 1
    decay_mult: 1
  }
  param {
    lr_mult: 2
    decay_mult: 0
  }
  convolution_param {
    num_output: 208
    pad: 1
    kernel_size: 3
    weight_filler {
      type: "xavier"
    }
    bias_filler {
      type: "constant"
      value: 0.2
    }
  }
}
layer {
  name: "inception_4a/relu_3x3"
  type: "ReLU"
  bottom: "inception_4a/3x3"
  top: "inception_4a/3x3"
}
layer {
  name: "inception_4a/5x5_reduce"
  type: "Convolution"
  bottom: "pool3/3x3_s2"
  top: "inception_4a/5x5_reduce"
  param {
    lr_mult: 1
    decay_mult: 1
  }
  param {
    lr_mult: 2
    decay_mult: 0
  }
  convolution_param {
    num_output: 16
    kernel_size: 1
    weight_filler {
      type: "xavier"
    }
    bias_filler {
      type: "constant"
      value: 0.2
    }
  }
}
layer {
  name: "inception_4a/relu_5x5_reduce"
  type: "ReLU"
  bottom: "inception_4a/5x5_reduce"
  top: "inception_4a/5x5_reduce"
}
layer {
  name: "inception_4a/5x5"
  type: "Convolution"
  bottom: "inception_4a/5x5_reduce"
  top: "inception_4a/5x5"
  param {
    lr_mult: 1
    decay_mult: 1
  }
  param {
    lr_mult: 2
    decay_mult: 0
  }
  convolution_param {
    num_output: 48
    pad: 2
    kernel_size: 5
    weight_filler {
      type: "xavier"
    }
    bias_filler {
      type: "constant"
      value: 0.2
    }
  }
}
layer {
  name: "inception_4a/relu_5x5"
  type: "ReLU"
  bottom: "inception_4a/5x5"
  top: "inception_4a/5x5"
}
layer {
  name: "inception_4a/pool"
  type: "Pooling"
  bottom: "pool3/3x3_s2"
  top: "inception_4a/pool"
  pooling_param {
    pool: MAX
    kernel_size: 3
    stride: 1
    pad: 1
  }
}
layer {
  name: "inception_4a/pool_proj"
  type: "Convolution"
  bottom: "inception_4a/pool"
  top: "inception_4a/pool_proj"
  param {
    lr_mult: 1
    decay_mult: 1
  }
  param {
    lr_mult: 2
    decay_mult: 0
  }
  convolution_param {
    num_output: 64
    kernel_size: 1
    weight_filler {
      type: "xavier"
    }
    bias_filler {
      type: "constant"
      value: 0.2
    }
  }
}
layer {
  name: "inception_4a/relu_pool_proj"
  type: "ReLU"
  bottom: "inception_4a/pool_proj"
  top: "inception_4a/pool_proj"
}
layer {
  name: "inception_4a/output"
  type: "Concat"
  bottom: "inception_4a/1x1"
  bottom: "inception_4a/3x3"
  bottom: "inception_4a/5x5"
  bottom: "inception_4a/pool_proj"
  top: "inception_4a/output"
}
layer {
  name: "loss1/ave_pool"
  type: "Pooling"
  bottom: "inception_4a/output"
  top: "loss1/ave_pool"
  pooling_param {
    pool: AVE
    kernel_size: 5
    stride: 3
  }
}
layer {
  name: "loss1/conv"
  type: "Convolution"
  bottom: "loss1/ave_pool"
  top: "loss1/conv"
  param {
    lr_mult: 1
    decay_mult: 1
  }
  param {
    lr_mult: 2
    decay_mult: 0
  }
  convolution_param {
    num_output: 128
    kernel_size: 1
    weight_filler {
      type: "xavier"
    }
    bias_filler {
      type: "constant"
      value: 0.2
    }
  }
}
layer {
  name: "loss1/relu_conv"
  type: "ReLU"
  bottom: "loss1/conv"
  top: "loss1/conv"
}
layer {
  name: "loss1/fc"
  type: "InnerProduct"
  bottom: "loss1/conv"
  top: "loss1/fc"
  param {
    lr_mult: 1
    decay_mult: 1
  }
  param {
    lr_mult: 2
    decay_mult: 0
  }
  inner_product_param {
    num_output: 1024
    weight_filler {
      type: "xavier"
    }
    bias_filler {
      type: "constant"
      value: 0.2
    }
  }
}
layer {
  name: "loss1/relu_fc"
  type: "ReLU"
  bottom: "loss1/fc"
  top: "loss1/fc"
}
layer {
  name: "loss1/drop_fc"
  type: "Dropout"
  bottom: "loss1/fc"
  top: "loss1/fc"
  dropout_param {
    dropout_ratio: 0.7
  }
}
layer {
  name: "loss1/classifier-attribute"
  type: "InnerProduct"
  bottom: "loss1/fc"
  top: "loss1/classifier-attribute"
  param {
    lr_mult: 10
    decay_mult: 1
  }
  param {
    lr_mult: 20
    decay_mult: 0
  }
  inner_product_param {
    num_output: 6
    weight_filler {
      type: "xavier"
    }
    bias_filler {
      type: "constant"
      value: 0
    }
  }
}
layer {
  name: "loss1/loss"
  type: "SoftmaxWithLoss"
  bottom: "loss1/classifier-attribute"
  bottom: "label"
  top: "loss1/loss1"
  loss_weight: 0.3
}
layer {
  name: "inception_4b/1x1"
  type: "Convolution"
  bottom: "inception_4a/output"
  top: "inception_4b/1x1"
  param {
    lr_mult: 1
    decay_mult: 1
  }
  param {
    lr_mult: 2
    decay_mult: 0
  }
  convolution_param {
    num_output: 160
    kernel_size: 1
    weight_filler {
      type: "xavier"
    }
    bias_filler {
      type: "constant"
      value: 0.2
    }
  }
}
layer {
  name: "inception_4b/relu_1x1"
  type: "ReLU"
  bottom: "inception_4b/1x1"
  top: "inception_4b/1x1"
}
layer {
  name: "inception_4b/3x3_reduce"
  type: "Convolution"
  bottom: "inception_4a/output"
  top: "inception_4b/3x3_reduce"
  param {
    lr_mult: 1
    decay_mult: 1
  }
  param {
    lr_mult: 2
    decay_mult: 0
  }
  convolution_param {
    num_output: 112
    kernel_size: 1
    weight_filler {
      type: "xavier"
    }
    bias_filler {
      type: "constant"
      value: 0.2
    }
  }
}
layer {
  name: "inception_4b/relu_3x3_reduce"
  type: "ReLU"
  bottom: "inception_4b/3x3_reduce"
  top: "inception_4b/3x3_reduce"
}
layer {
  name: "inception_4b/3x3"
  type: "Convolution"
  bottom: "inception_4b/3x3_reduce"
  top: "inception_4b/3x3"
  param {
    lr_mult: 1
    decay_mult: 1
  }
  param {
    lr_mult: 2
    decay_mult: 0
  }
  convolution_param {
    num_output: 224
    pad: 1
    kernel_size: 3
    weight_filler {
      type: "xavier"
    }
    bias_filler {
      type: "constant"
      value: 0.2
    }
  }
}
layer {
  name: "inception_4b/relu_3x3"
  type: "ReLU"
  bottom: "inception_4b/3x3"
  top: "inception_4b/3x3"
}
layer {
  name: "inception_4b/5x5_reduce"
  type: "Convolution"
  bottom: "inception_4a/output"
  top: "inception_4b/5x5_reduce"
  param {
    lr_mult: 1
    decay_mult: 1
  }
  param {
    lr_mult: 2
    decay_mult: 0
  }
  convolution_param {
    num_output: 24
    kernel_size: 1
    weight_filler {
      type: "xavier"
    }
    bias_filler {
      type: "constant"
      value: 0.2
    }
  }
}
layer {
  name: "inception_4b/relu_5x5_reduce"
  type: "ReLU"
  bottom: "inception_4b/5x5_reduce"
  top: "inception_4b/5x5_reduce"
}
layer {
  name: "inception_4b/5x5"
  type: "Convolution"
  bottom: "inception_4b/5x5_reduce"
  top: "inception_4b/5x5"
  param {
    lr_mult: 1
    decay_mult: 1
  }
  param {
    lr_mult: 2
    decay_mult: 0
  }
  convolution_param {
    num_output: 64
    pad: 2
    kernel_size: 5
    weight_filler {
      type: "xavier"
    }
    bias_filler {
      type: "constant"
      value: 0.2
    }
  }
}
layer {
  name: "inception_4b/relu_5x5"
  type: "ReLU"
  bottom: "inception_4b/5x5"
  top: "inception_4b/5x5"
}
layer {
  name: "inception_4b/pool"
  type: "Pooling"
  bottom: "inception_4a/output"
  top: "inception_4b/pool"
  pooling_param {
    pool: MAX
    kernel_size: 3
    stride: 1
    pad: 1
  }
}
layer {
  name: "inception_4b/pool_proj"
  type: "Convolution"
  bottom: "inception_4b/pool"
  top: "inception_4b/pool_proj"
  param {
    lr_mult: 1
    decay_mult: 1
  }
  param {
    lr_mult: 2
    decay_mult: 0
  }
  convolution_param {
    num_output: 64
    kernel_size: 1
    weight_filler {
      type: "xavier"
    }
    bias_filler {
      type: "constant"
      value: 0.2
    }
  }
}
layer {
  name: "inception_4b/relu_pool_proj"
  type: "ReLU"
  bottom: "inception_4b/pool_proj"
  top: "inception_4b/pool_proj"
}
layer {
  name: "inception_4b/output"
  type: "Concat"
  bottom: "inception_4b/1x1"
  bottom: "inception_4b/3x3"
  bottom: "inception_4b/5x5"
  bottom: "inception_4b/pool_proj"
  top: "inception_4b/output"
}
layer {
  name: "inception_4c/1x1"
  type: "Convolution"
  bottom: "inception_4b/output"
  top: "inception_4c/1x1"
  param {
    lr_mult: 1
    decay_mult: 1
  }
  param {
    lr_mult: 2
    decay_mult: 0
  }
  convolution_param {
    num_output: 128
    kernel_size: 1
    weight_filler {
      type: "xavier"
    }
    bias_filler {
      type: "constant"
      value: 0.2
    }
  }
}
layer {
  name: "inception_4c/relu_1x1"
  type: "ReLU"
  bottom: "inception_4c/1x1"
  top: "inception_4c/1x1"
}
layer {
  name: "inception_4c/3x3_reduce"
  type: "Convolution"
  bottom: "inception_4b/output"
  top: "inception_4c/3x3_reduce"
  param {
    lr_mult: 1
    decay_mult: 1
  }
  param {
    lr_mult: 2
    decay_mult: 0
  }
  convolution_param {
    num_output: 128
    kernel_size: 1
    weight_filler {
      type: "xavier"
    }
    bias_filler {
      type: "constant"
      value: 0.2
    }
  }
}
layer {
  name: "inception_4c/relu_3x3_reduce"
  type: "ReLU"
  bottom: "inception_4c/3x3_reduce"
  top: "inception_4c/3x3_reduce"
}
layer {
  name: "inception_4c/3x3"
  type: "Convolution"
  bottom: "inception_4c/3x3_reduce"
  top: "inception_4c/3x3"
  param {
    lr_mult: 1
    decay_mult: 1
  }
  param {
    lr_mult: 2
    decay_mult: 0
  }
  convolution_param {
    num_output: 256
    pad: 1
    kernel_size: 3
    weight_filler {
      type: "xavier"
    }
    bias_filler {
      type: "constant"
      value: 0.2
    }
  }
}
layer {
  name: "inception_4c/relu_3x3"
  type: "ReLU"
  bottom: "inception_4c/3x3"
  top: "inception_4c/3x3"
}
layer {
  name: "inception_4c/5x5_reduce"
  type: "Convolution"
  bottom: "inception_4b/output"
  top: "inception_4c/5x5_reduce"
  param {
    lr_mult: 1
    decay_mult: 1
  }
  param {
    lr_mult: 2
    decay_mult: 0
  }
  convolution_param {
    num_output: 24
    kernel_size: 1
    weight_filler {
      type: "xavier"
    }
    bias_filler {
      type: "constant"
      value: 0.2
    }
  }
}
layer {
  name: "inception_4c/relu_5x5_reduce"
  type: "ReLU"
  bottom: "inception_4c/5x5_reduce"
  top: "inception_4c/5x5_reduce"
}
layer {
  name: "inception_4c/5x5"
  type: "Convolution"
  bottom: "inception_4c/5x5_reduce"
  top: "inception_4c/5x5"
  param {
    lr_mult: 1
    decay_mult: 1
  }
  param {
    lr_mult: 2
    decay_mult: 0
  }
  convolution_param {
    num_output: 64
    pad: 2
    kernel_size: 5
    weight_filler {
      type: "xavier"
    }
    bias_filler {
      type: "constant"
      value: 0.2
    }
  }
}
layer {
  name: "inception_4c/relu_5x5"
  type: "ReLU"
  bottom: "inception_4c/5x5"
  top: "inception_4c/5x5"
}
layer {
  name: "inception_4c/pool"
  type: "Pooling"
  bottom: "inception_4b/output"
  top: "inception_4c/pool"
  pooling_param {
    pool: MAX
    kernel_size: 3
    stride: 1
    pad: 1
  }
}
layer {
  name: "inception_4c/pool_proj"
  type: "Convolution"
  bottom: "inception_4c/pool"
  top: "inception_4c/pool_proj"
  param {
    lr_mult: 1
    decay_mult: 1
  }
  param {
    lr_mult: 2
    decay_mult: 0
  }
  convolution_param {
    num_output: 64
    kernel_size: 1
    weight_filler {
      type: "xavier"
    }
    bias_filler {
      type: "constant"
      value: 0.2
    }
  }
}
layer {
  name: "inception_4c/relu_pool_proj"
  type: "ReLU"
  bottom: "inception_4c/pool_proj"
  top: "inception_4c/pool_proj"
}
layer {
  name: "inception_4c/output"
  type: "Concat"
  bottom: "inception_4c/1x1"
  bottom: "inception_4c/3x3"
  bottom: "inception_4c/5x5"
  bottom: "inception_4c/pool_proj"
  top: "inception_4c/output"
}
layer {
  name: "inception_4d/1x1"
  type: "Convolution"
  bottom: "inception_4c/output"
  top: "inception_4d/1x1"
  param {
    lr_mult: 1
    decay_mult: 1
  }
  param {
    lr_mult: 2
    decay_mult: 0
  }
  convolution_param {
    num_output: 112
    kernel_size: 1
    weight_filler {
      type: "xavier"
    }
    bias_filler {
      type: "constant"
      value: 0.2
    }
  }
}
layer {
  name: "inception_4d/relu_1x1"
  type: "ReLU"
  bottom: "inception_4d/1x1"
  top: "inception_4d/1x1"
}
layer {
  name: "inception_4d/3x3_reduce"
  type: "Convolution"
  bottom: "inception_4c/output"
  top: "inception_4d/3x3_reduce"
  param {
    lr_mult: 1
    decay_mult: 1
  }
  param {
    lr_mult: 2
    decay_mult: 0
  }
  convolution_param {
    num_output: 144
    kernel_size: 1
    weight_filler {
      type: "xavier"
    }
    bias_filler {
      type: "constant"
      value: 0.2
    }
  }
}
layer {
  name: "inception_4d/relu_3x3_reduce"
  type: "ReLU"
  bottom: "inception_4d/3x3_reduce"
  top: "inception_4d/3x3_reduce"
}
layer {
  name: "inception_4d/3x3"
  type: "Convolution"
  bottom: "inception_4d/3x3_reduce"
  top: "inception_4d/3x3"
  param {
    lr_mult: 1
    decay_mult: 1
  }
  param {
    lr_mult: 2
    decay_mult: 0
  }
  convolution_param {
    num_output: 288
    pad: 1
    kernel_size: 3
    weight_filler {
      type: "xavier"
    }
    bias_filler {
      type: "constant"
      value: 0.2
    }
  }
}
layer {
  name: "inception_4d/relu_3x3"
  type: "ReLU"
  bottom: "inception_4d/3x3"
  top: "inception_4d/3x3"
}
layer {
  name: "inception_4d/5x5_reduce"
  type: "Convolution"
  bottom: "inception_4c/output"
  top: "inception_4d/5x5_reduce"
  param {
    lr_mult: 1
    decay_mult: 1
  }
  param {
    lr_mult: 2
    decay_mult: 0
  }
  convolution_param {
    num_output: 32
    kernel_size: 1
    weight_filler {
      type: "xavier"
    }
    bias_filler {
      type: "constant"
      value: 0.2
    }
  }
}
layer {
  name: "inception_4d/relu_5x5_reduce"
  type: "ReLU"
  bottom: "inception_4d/5x5_reduce"
  top: "inception_4d/5x5_reduce"
}
layer {
  name: "inception_4d/5x5"
  type: "Convolution"
  bottom: "inception_4d/5x5_reduce"
  top: "inception_4d/5x5"
  param {
    lr_mult: 1
    decay_mult: 1
  }
  param {
    lr_mult: 2
    decay_mult: 0
  }
  convolution_param {
    num_output: 64
    pad: 2
    kernel_size: 5
    weight_filler {
      type: "xavier"
    }
    bias_filler {
      type: "constant"
      value: 0.2
    }
  }
}
layer {
  name: "inception_4d/relu_5x5"
  type: "ReLU"
  bottom: "inception_4d/5x5"
  top: "inception_4d/5x5"
}
layer {
  name: "inception_4d/pool"
  type: "Pooling"
  bottom: "inception_4c/output"
  top: "inception_4d/pool"
  pooling_param {
    pool: MAX
    kernel_size: 3
    stride: 1
    pad: 1
  }
}
layer {
  name: "inception_4d/pool_proj"
  type: "Convolution"
  bottom: "inception_4d/pool"
  top: "inception_4d/pool_proj"
  param {
    lr_mult: 1
    decay_mult: 1
  }
  param {
    lr_mult: 2
    decay_mult: 0
  }
  convolution_param {
    num_output: 64
    kernel_size: 1
    weight_filler {
      type: "xavier"
    }
    bias_filler {
      type: "constant"
      value: 0.2
    }
  }
}
layer {
  name: "inception_4d/relu_pool_proj"
  type: "ReLU"
  bottom: "inception_4d/pool_proj"
  top: "inception_4d/pool_proj"
}
layer {
  name: "inception_4d/output"
  type: "Concat"
  bottom: "inception_4d/1x1"
  bottom: "inception_4d/3x3"
  bottom: "inception_4d/5x5"
  bottom: "inception_4d/pool_proj"
  top: "inception_4d/output"
}
layer {
  name: "loss2/ave_pool"
  type: "Pooling"
  bottom: "inception_4d/output"
  top: "loss2/ave_pool"
  pooling_param {
    pool: AVE
    kernel_size: 5
    stride: 3
  }
}
layer {
  name: "loss2/conv"
  type: "Convolution"
  bottom: "loss2/ave_pool"
  top: "loss2/conv"
  param {
    lr_mult: 1
    decay_mult: 1
  }
  param {
    lr_mult: 2
    decay_mult: 0
  }
  convolution_param {
    num_output: 128
    kernel_size: 1
    weight_filler {
      type: "xavier"
    }
    bias_filler {
      type: "constant"
      value: 0.2
    }
  }
}
layer {
  name: "loss2/relu_conv"
  type: "ReLU"
  bottom: "loss2/conv"
  top: "loss2/conv"
}
layer {
  name: "loss2/fc"
  type: "InnerProduct"
  bottom: "loss2/conv"
  top: "loss2/fc"
  param {
    lr_mult: 1
    decay_mult: 1
  }
  param {
    lr_mult: 2
    decay_mult: 0
  }
  inner_product_param {
    num_output: 1024
    weight_filler {
      type: "xavier"
    }
    bias_filler {
      type: "constant"
      value: 0.2
    }
  }
}
layer {
  name: "loss2/relu_fc"
  type: "ReLU"
  bottom: "loss2/fc"
  top: "loss2/fc"
}
layer {
  name: "loss2/drop_fc"
  type: "Dropout"
  bottom: "loss2/fc"
  top: "loss2/fc"
  dropout_param {
    dropout_ratio: 0.7
  }
}
layer {
  name: "loss2/classifier-attribute"
  type: "InnerProduct"
  bottom: "loss2/fc"
  top: "loss2/classifier-attribute"
  param {
    lr_mult: 10
    decay_mult: 1
  }
  param {
    lr_mult: 20
    decay_mult: 0
  }
  inner_product_param {
    num_output: 6
    weight_filler {
      type: "xavier"
    }
    bias_filler {
      type: "constant"
      value: 0
    }
  }
}
layer {
  name: "loss2/loss"
  type: "SoftmaxWithLoss"
  bottom: "loss2/classifier-attribute"
  bottom: "label"
  top: "loss2/loss1"
  loss_weight: 0.3
}
layer {
  name: "inception_4e/1x1"
  type: "Convolution"
  bottom: "inception_4d/output"
  top: "inception_4e/1x1"
  param {
    lr_mult: 1
    decay_mult: 1
  }
  param {
    lr_mult: 2
    decay_mult: 0
  }
  convolution_param {
    num_output: 256
    kernel_size: 1
    weight_filler {
      type: "xavier"
    }
    bias_filler {
      type: "constant"
      value: 0.2
    }
  }
}
layer {
  name: "inception_4e/relu_1x1"
  type: "ReLU"
  bottom: "inception_4e/1x1"
  top: "inception_4e/1x1"
}
layer {
  name: "inception_4e/3x3_reduce"
  type: "Convolution"
  bottom: "inception_4d/output"
  top: "inception_4e/3x3_reduce"
  param {
    lr_mult: 1
    decay_mult: 1
  }
  param {
    lr_mult: 2
    decay_mult: 0
  }
  convolution_param {
    num_output: 160
    kernel_size: 1
    weight_filler {
      type: "xavier"
    }
    bias_filler {
      type: "constant"
      value: 0.2
    }
  }
}
layer {
  name: "inception_4e/relu_3x3_reduce"
  type: "ReLU"
  bottom: "inception_4e/3x3_reduce"
  top: "inception_4e/3x3_reduce"
}
layer {
  name: "inception_4e/3x3"
  type: "Convolution"
  bottom: "inception_4e/3x3_reduce"
  top: "inception_4e/3x3"
  param {
    lr_mult: 1
    decay_mult: 1
  }
  param {
    lr_mult: 2
    decay_mult: 0
  }
  convolution_param {
    num_output: 320
    pad: 1
    kernel_size: 3
    weight_filler {
      type: "xavier"
    }
    bias_filler {
      type: "constant"
      value: 0.2
    }
  }
}
layer {
  name: "inception_4e/relu_3x3"
  type: "ReLU"
  bottom: "inception_4e/3x3"
  top: "inception_4e/3x3"
}
layer {
  name: "inception_4e/5x5_reduce"
  type: "Convolution"
  bottom: "inception_4d/output"
  top: "inception_4e/5x5_reduce"
  param {
    lr_mult: 1
    decay_mult: 1
  }
  param {
    lr_mult: 2
    decay_mult: 0
  }
  convolution_param {
    num_output: 32
    kernel_size: 1
    weight_filler {
      type: "xavier"
    }
    bias_filler {
      type: "constant"
      value: 0.2
    }
  }
}
layer {
  name: "inception_4e/relu_5x5_reduce"
  type: "ReLU"
  bottom: "inception_4e/5x5_reduce"
  top: "inception_4e/5x5_reduce"
}
layer {
  name: "inception_4e/5x5"
  type: "Convolution"
  bottom: "inception_4e/5x5_reduce"
  top: "inception_4e/5x5"
  param {
    lr_mult: 1
    decay_mult: 1
  }
  param {
    lr_mult: 2
    decay_mult: 0
  }
  convolution_param {
    num_output: 128
    pad: 2
    kernel_size: 5
    weight_filler {
      type: "xavier"
    }
    bias_filler {
      type: "constant"
      value: 0.2
    }
  }
}
layer {
  name: "inception_4e/relu_5x5"
  type: "ReLU"
  bottom: "inception_4e/5x5"
  top: "inception_4e/5x5"
}
layer {
  name: "inception_4e/pool"
  type: "Pooling"
  bottom: "inception_
I1125 19:29:18.726301 18775 layer_factory.hpp:76] Creating layer data
I1125 19:29:18.726375 18775 net.cpp:106] Creating Layer data
I1125 19:29:18.726394 18775 net.cpp:411] data -> data
I1125 19:29:18.726446 18775 net.cpp:411] data -> label
I1125 19:29:18.727335 18775 image_data_layer.cpp:36] Opening file pad_train.txt
I1125 19:29:18.848345 18775 image_data_layer.cpp:46] Shuffling data
I1125 19:29:18.862548 18775 image_data_layer.cpp:51] A total of 141614 images.
I1125 19:29:18.879914 18775 image_data_layer.cpp:78] output data size: 64,3,224,224
I1125 19:29:18.934511 18775 net.cpp:150] Setting up data
I1125 19:29:18.934578 18775 net.cpp:157] Top shape: 64 3 224 224 (9633792)
I1125 19:29:18.934587 18775 net.cpp:157] Top shape: 64 (64)
I1125 19:29:18.934589 18775 net.cpp:165] Memory required for data: 38535424
I1125 19:29:18.934598 18775 layer_factory.hpp:76] Creating layer label_data_1_split
I1125 19:29:18.934613 18775 net.cpp:106] Creating Layer label_data_1_split
I1125 19:29:18.934619 18775 net.cpp:454] label_data_1_split <- label
I1125 19:29:18.934633 18775 net.cpp:411] label_data_1_split -> label_data_1_split_0
I1125 19:29:18.934643 18775 net.cpp:411] label_data_1_split -> label_data_1_split_1
I1125 19:29:18.934648 18775 net.cpp:411] label_data_1_split -> label_data_1_split_2
I1125 19:29:18.934768 18775 net.cpp:150] Setting up label_data_1_split
I1125 19:29:18.934778 18775 net.cpp:157] Top shape: 64 (64)
I1125 19:29:18.934782 18775 net.cpp:157] Top shape: 64 (64)
I1125 19:29:18.934785 18775 net.cpp:157] Top shape: 64 (64)
I1125 19:29:18.934788 18775 net.cpp:165] Memory required for data: 38536192
I1125 19:29:18.934792 18775 layer_factory.hpp:76] Creating layer conv1/7x7_s2
I1125 19:29:18.934808 18775 net.cpp:106] Creating Layer conv1/7x7_s2
I1125 19:29:18.934811 18775 net.cpp:454] conv1/7x7_s2 <- data
I1125 19:29:18.934818 18775 net.cpp:411] conv1/7x7_s2 -> conv1/7x7_s2
I1125 19:29:19.092317 18775 net.cpp:150] Setting up conv1/7x7_s2
I1125 19:29:19.092346 18775 net.cpp:157] Top shape: 64 64 112 112 (51380224)
I1125 19:29:19.092351 18775 net.cpp:165] Memory required for data: 244057088
I1125 19:29:19.092372 18775 layer_factory.hpp:76] Creating layer conv1/relu_7x7
I1125 19:29:19.092385 18775 net.cpp:106] Creating Layer conv1/relu_7x7
I1125 19:29:19.092389 18775 net.cpp:454] conv1/relu_7x7 <- conv1/7x7_s2
I1125 19:29:19.092397 18775 net.cpp:397] conv1/relu_7x7 -> conv1/7x7_s2 (in-place)
I1125 19:29:19.092694 18775 net.cpp:150] Setting up conv1/relu_7x7
I1125 19:29:19.092710 18775 net.cpp:157] Top shape: 64 64 112 112 (51380224)
I1125 19:29:19.092712 18775 net.cpp:165] Memory required for data: 449577984
I1125 19:29:19.092716 18775 layer_factory.hpp:76] Creating layer pool1/3x3_s2
I1125 19:29:19.092726 18775 net.cpp:106] Creating Layer pool1/3x3_s2
I1125 19:29:19.092730 18775 net.cpp:454] pool1/3x3_s2 <- conv1/7x7_s2
I1125 19:29:19.092735 18775 net.cpp:411] pool1/3x3_s2 -> pool1/3x3_s2
I1125 19:29:19.092927 18775 net.cpp:150] Setting up pool1/3x3_s2
I1125 19:29:19.092939 18775 net.cpp:157] Top shape: 64 64 56 56 (12845056)
I1125 19:29:19.092942 18775 net.cpp:165] Memory required for data: 500958208
I1125 19:29:19.092946 18775 layer_factory.hpp:76] Creating layer pool1/norm1
I1125 19:29:19.092957 18775 net.cpp:106] Creating Layer pool1/norm1
I1125 19:29:19.092960 18775 net.cpp:454] pool1/norm1 <- pool1/3x3_s2
I1125 19:29:19.092965 18775 net.cpp:411] pool1/norm1 -> pool1/norm1
I1125 19:29:19.093273 18775 net.cpp:150] Setting up pool1/norm1
I1125 19:29:19.093287 18775 net.cpp:157] Top shape: 64 64 56 56 (12845056)
I1125 19:29:19.093291 18775 net.cpp:165] Memory required for data: 552338432
I1125 19:29:19.093294 18775 layer_factory.hpp:76] Creating layer conv2/3x3_reduce
I1125 19:29:19.093304 18775 net.cpp:106] Creating Layer conv2/3x3_reduce
I1125 19:29:19.093308 18775 net.cpp:454] conv2/3x3_reduce <- pool1/norm1
I1125 19:29:19.093314 18775 net.cpp:411] conv2/3x3_reduce -> conv2/3x3_reduce
I1125 19:29:19.094569 18775 net.cpp:150] Setting up conv2/3x3_reduce
I1125 19:29:19.094585 18775 net.cpp:157] Top shape: 64 64 56 56 (12845056)
I1125 19:29:19.094589 18775 net.cpp:165] Memory required for data: 603718656
I1125 19:29:19.094599 18775 layer_factory.hpp:76] Creating layer conv2/relu_3x3_reduce
I1125 19:29:19.094605 18775 net.cpp:106] Creating Layer conv2/relu_3x3_reduce
I1125 19:29:19.094609 18775 net.cpp:454] conv2/relu_3x3_reduce <- conv2/3x3_reduce
I1125 19:29:19.094614 18775 net.cpp:397] conv2/relu_3x3_reduce -> conv2/3x3_reduce (in-place)
I1125 19:29:19.094887 18775 net.cpp:150] Setting up conv2/relu_3x3_reduce
I1125 19:29:19.094902 18775 net.cpp:157] Top shape: 64 64 56 56 (12845056)
I1125 19:29:19.094905 18775 net.cpp:165] Memory required for data: 655098880
I1125 19:29:19.094909 18775 layer_factory.hpp:76] Creating layer conv2/3x3
I1125 19:29:19.094919 18775 net.cpp:106] Creating Layer conv2/3x3
I1125 19:29:19.094923 18775 net.cpp:454] conv2/3x3 <- conv2/3x3_reduce
I1125 19:29:19.094929 18775 net.cpp:411] conv2/3x3 -> conv2/3x3
I1125 19:29:19.096928 18775 net.cpp:150] Setting up conv2/3x3
I1125 19:29:19.096945 18775 net.cpp:157] Top shape: 64 192 56 56 (38535168)
I1125 19:29:19.096948 18775 net.cpp:165] Memory required for data: 809239552
I1125 19:29:19.096957 18775 layer_factory.hpp:76] Creating layer conv2/relu_3x3
I1125 19:29:19.096963 18775 net.cpp:106] Creating Layer conv2/relu_3x3
I1125 19:29:19.096967 18775 net.cpp:454] conv2/relu_3x3 <- conv2/3x3
I1125 19:29:19.096972 18775 net.cpp:397] conv2/relu_3x3 -> conv2/3x3 (in-place)
I1125 19:29:19.097126 18775 net.cpp:150] Setting up conv2/relu_3x3
I1125 19:29:19.097136 18775 net.cpp:157] Top shape: 64 192 56 56 (38535168)
I1125 19:29:19.097139 18775 net.cpp:165] Memory required for data: 963380224
I1125 19:29:19.097143 18775 layer_factory.hpp:76] Creating layer conv2/norm2
I1125 19:29:19.097149 18775 net.cpp:106] Creating Layer conv2/norm2
I1125 19:29:19.097153 18775 net.cpp:454] conv2/norm2 <- conv2/3x3
I1125 19:29:19.097162 18775 net.cpp:411] conv2/norm2 -> conv2/norm2
I1125 19:29:19.097476 18775 net.cpp:150] Setting up conv2/norm2
I1125 19:29:19.097491 18775 net.cpp:157] Top shape: 64 192 56 56 (38535168)
I1125 19:29:19.097494 18775 net.cpp:165] Memory required for data: 1117520896
I1125 19:29:19.097497 18775 layer_factory.hpp:76] Creating layer pool2/3x3_s2
I1125 19:29:19.097506 18775 net.cpp:106] Creating Layer pool2/3x3_s2
I1125 19:29:19.097509 18775 net.cpp:454] pool2/3x3_s2 <- conv2/norm2
I1125 19:29:19.097514 18775 net.cpp:411] pool2/3x3_s2 -> pool2/3x3_s2
I1125 19:29:19.097692 18775 net.cpp:150] Setting up pool2/3x3_s2
I1125 19:29:19.097703 18775 net.cpp:157] Top shape: 64 192 28 28 (9633792)
I1125 19:29:19.097707 18775 net.cpp:165] Memory required for data: 1156056064
I1125 19:29:19.097709 18775 layer_factory.hpp:76] Creating layer pool2/3x3_s2_pool2/3x3_s2_0_split
I1125 19:29:19.097718 18775 net.cpp:106] Creating Layer pool2/3x3_s2_pool2/3x3_s2_0_split
I1125 19:29:19.097722 18775 net.cpp:454] pool2/3x3_s2_pool2/3x3_s2_0_split <- pool2/3x3_s2
I1125 19:29:19.097728 18775 net.cpp:411] pool2/3x3_s2_pool2/3x3_s2_0_split -> pool2/3x3_s2_pool2/3x3_s2_0_split_0
I1125 19:29:19.097734 18775 net.cpp:411] pool2/3x3_s2_pool2/3x3_s2_0_split -> pool2/3x3_s2_pool2/3x3_s2_0_split_1
I1125 19:29:19.097739 18775 net.cpp:411] pool2/3x3_s2_pool2/3x3_s2_0_split -> pool2/3x3_s2_pool2/3x3_s2_0_split_2
I1125 19:29:19.097744 18775 net.cpp:411] pool2/3x3_s2_pool2/3x3_s2_0_split -> pool2/3x3_s2_pool2/3x3_s2_0_split_3
I1125 19:29:19.097795 18775 net.cpp:150] Setting up pool2/3x3_s2_pool2/3x3_s2_0_split
I1125 19:29:19.097802 18775 net.cpp:157] Top shape: 64 192 28 28 (9633792)
I1125 19:29:19.097807 18775 net.cpp:157] Top shape: 64 192 28 28 (9633792)
I1125 19:29:19.097811 18775 net.cpp:157] Top shape: 64 192 28 28 (9633792)
I1125 19:29:19.097815 18775 net.cpp:157] Top shape: 64 192 28 28 (9633792)
I1125 19:29:19.097817 18775 net.cpp:165] Memory required for data: 1310196736
I1125 19:29:19.097820 18775 layer_factory.hpp:76] Creating layer inception_3a/1x1
I1125 19:29:19.097827 18775 net.cpp:106] Creating Layer inception_3a/1x1
I1125 19:29:19.097831 18775 net.cpp:454] inception_3a/1x1 <- pool2/3x3_s2_pool2/3x3_s2_0_split_0
I1125 19:29:19.097837 18775 net.cpp:411] inception_3a/1x1 -> inception_3a/1x1
I1125 19:29:19.099287 18775 net.cpp:150] Setting up inception_3a/1x1
I1125 19:29:19.099303 18775 net.cpp:157] Top shape: 64 64 28 28 (3211264)
I1125 19:29:19.099308 18775 net.cpp:165] Memory required for data: 1323041792
I1125 19:29:19.099314 18775 layer_factory.hpp:76] Creating layer inception_3a/relu_1x1
I1125 19:29:19.099320 18775 net.cpp:106] Creating Layer inception_3a/relu_1x1
I1125 19:29:19.099324 18775 net.cpp:454] inception_3a/relu_1x1 <- inception_3a/1x1
I1125 19:29:19.099333 18775 net.cpp:397] inception_3a/relu_1x1 -> inception_3a/1x1 (in-place)
I1125 19:29:19.099628 18775 net.cpp:150] Setting up inception_3a/relu_1x1
I1125 19:29:19.099642 18775 net.cpp:157] Top shape: 64 64 28 28 (3211264)
I1125 19:29:19.099645 18775 net.cpp:165] Memory required for data: 1335886848
I1125 19:29:19.099649 18775 layer_factory.hpp:76] Creating layer inception_3a/3x3_reduce
I1125 19:29:19.099658 18775 net.cpp:106] Creating Layer inception_3a/3x3_reduce
I1125 19:29:19.099663 18775 net.cpp:454] inception_3a/3x3_reduce <- pool2/3x3_s2_pool2/3x3_s2_0_split_1
I1125 19:29:19.099669 18775 net.cpp:411] inception_3a/3x3_reduce -> inception_3a/3x3_reduce
I1125 19:29:19.101169 18775 net.cpp:150] Setting up inception_3a/3x3_reduce
I1125 19:29:19.101186 18775 net.cpp:157] Top shape: 64 96 28 28 (4816896)
I1125 19:29:19.101189 18775 net.cpp:165] Memory required for data: 1355154432
I1125 19:29:19.101198 18775 layer_factory.hpp:76] Creating layer inception_3a/relu_3x3_reduce
I1125 19:29:19.101207 18775 net.cpp:106] Creating Layer inception_3a/relu_3x3_reduce
I1125 19:29:19.101212 18775 net.cpp:454] inception_3a/relu_3x3_reduce <- inception_3a/3x3_reduce
I1125 19:29:19.101217 18775 net.cpp:397] inception_3a/relu_3x3_reduce -> inception_3a/3x3_reduce (in-place)
I1125 19:29:19.101409 18775 net.cpp:150] Setting up inception_3a/relu_3x3_reduce
I1125 19:29:19.101421 18775 net.cpp:157] Top shape: 64 96 28 28 (4816896)
I1125 19:29:19.101424 18775 net.cpp:165] Memory required for data: 1374422016
I1125 19:29:19.101428 18775 layer_factory.hpp:76] Creating layer inception_3a/3x3
I1125 19:29:19.101438 18775 net.cpp:106] Creating Layer inception_3a/3x3
I1125 19:29:19.101441 18775 net.cpp:454] inception_3a/3x3 <- inception_3a/3x3_reduce
I1125 19:29:19.101449 18775 net.cpp:411] inception_3a/3x3 -> inception_3a/3x3
I1125 19:29:19.103226 18775 net.cpp:150] Setting up inception_3a/3x3
I1125 19:29:19.103241 18775 net.cpp:157] Top shape: 64 128 28 28 (6422528)
I1125 19:29:19.103245 18775 net.cpp:165] Memory required for data: 1400112128
I1125 19:29:19.103251 18775 layer_factory.hpp:76] Creating layer inception_3a/relu_3x3
I1125 19:29:19.103257 18775 net.cpp:106] Creating Layer inception_3a/relu_3x3
I1125 19:29:19.103260 18775 net.cpp:454] inception_3a/relu_3x3 <- inception_3a/3x3
I1125 19:29:19.103267 18775 net.cpp:397] inception_3a/relu_3x3 -> inception_3a/3x3 (in-place)
I1125 19:29:19.103472 18775 net.cpp:150] Setting up inception_3a/relu_3x3
I1125 19:29:19.103483 18775 net.cpp:157] Top shape: 64 128 28 28 (6422528)
I1125 19:29:19.103487 18775 net.cpp:165] Memory required for data: 1425802240
I1125 19:29:19.103490 18775 layer_factory.hpp:76] Creating layer inception_3a/5x5_reduce
I1125 19:29:19.103499 18775 net.cpp:106] Creating Layer inception_3a/5x5_reduce
I1125 19:29:19.103504 18775 net.cpp:454] inception_3a/5x5_reduce <- pool2/3x3_s2_pool2/3x3_s2_0_split_2
I1125 19:29:19.103510 18775 net.cpp:411] inception_3a/5x5_reduce -> inception_3a/5x5_reduce
I1125 19:29:19.104509 18775 net.cpp:150] Setting up inception_3a/5x5_reduce
I1125 19:29:19.104524 18775 net.cpp:157] Top shape: 64 16 28 28 (802816)
I1125 19:29:19.104528 18775 net.cpp:165] Memory required for data: 1429013504
I1125 19:29:19.104535 18775 layer_factory.hpp:76] Creating layer inception_3a/relu_5x5_reduce
I1125 19:29:19.104542 18775 net.cpp:106] Creating Layer inception_3a/relu_5x5_reduce
I1125 19:29:19.104547 18775 net.cpp:454] inception_3a/relu_5x5_reduce <- inception_3a/5x5_reduce
I1125 19:29:19.104552 18775 net.cpp:397] inception_3a/relu_5x5_reduce -> inception_3a/5x5_reduce (in-place)
I1125 19:29:19.104847 18775 net.cpp:150] Setting up inception_3a/relu_5x5_reduce
I1125 19:29:19.104861 18775 net.cpp:157] Top shape: 64 16 28 28 (802816)
I1125 19:29:19.104864 18775 net.cpp:165] Memory required for data: 1432224768
I1125 19:29:19.104868 18775 layer_factory.hpp:76] Creating layer inception_3a/5x5
I1125 19:29:19.104877 18775 net.cpp:106] Creating Layer inception_3a/5x5
I1125 19:29:19.104882 18775 net.cpp:454] inception_3a/5x5 <- inception_3a/5x5_reduce
I1125 19:29:19.104888 18775 net.cpp:411] inception_3a/5x5 -> inception_3a/5x5
I1125 19:29:19.105939 18775 net.cpp:150] Setting up inception_3a/5x5
I1125 19:29:19.105953 18775 net.cpp:157] Top shape: 64 32 28 28 (1605632)
I1125 19:29:19.105957 18775 net.cpp:165] Memory required for data: 1438647296
I1125 19:29:19.105963 18775 layer_factory.hpp:76] Creating layer inception_3a/relu_5x5
I1125 19:29:19.105970 18775 net.cpp:106] Creating Layer inception_3a/relu_5x5
I1125 19:29:19.105974 18775 net.cpp:454] inception_3a/relu_5x5 <- inception_3a/5x5
I1125 19:29:19.105980 18775 net.cpp:397] inception_3a/relu_5x5 -> inception_3a/5x5 (in-place)
I1125 19:29:19.106153 18775 net.cpp:150] Setting up inception_3a/relu_5x5
I1125 19:29:19.106164 18775 net.cpp:157] Top shape: 64 32 28 28 (1605632)
I1125 19:29:19.106168 18775 net.cpp:165] Memory required for data: 1445069824
I1125 19:29:19.106170 18775 layer_factory.hpp:76] Creating layer inception_3a/pool
I1125 19:29:19.106176 18775 net.cpp:106] Creating Layer inception_3a/pool
I1125 19:29:19.106180 18775 net.cpp:454] inception_3a/pool <- pool2/3x3_s2_pool2/3x3_s2_0_split_3
I1125 19:29:19.106186 18775 net.cpp:411] inception_3a/pool -> inception_3a/pool
I1125 19:29:19.106508 18775 net.cpp:150] Setting up inception_3a/pool
I1125 19:29:19.106521 18775 net.cpp:157] Top shape: 64 192 28 28 (9633792)
I1125 19:29:19.106525 18775 net.cpp:165] Memory required for data: 1483604992
I1125 19:29:19.106528 18775 layer_factory.hpp:76] Creating layer inception_3a/pool_proj
I1125 19:29:19.106539 18775 net.cpp:106] Creating Layer inception_3a/pool_proj
I1125 19:29:19.106542 18775 net.cpp:454] inception_3a/pool_proj <- inception_3a/pool
I1125 19:29:19.106549 18775 net.cpp:411] inception_3a/pool_proj -> inception_3a/pool_proj
I1125 19:29:19.107400 18775 net.cpp:150] Setting up inception_3a/pool_proj
I1125 19:29:19.107414 18775 net.cpp:157] Top shape: 64 32 28 28 (1605632)
I1125 19:29:19.107419 18775 net.cpp:165] Memory required for data: 1490027520
I1125 19:29:19.107427 18775 layer_factory.hpp:76] Creating layer inception_3a/relu_pool_proj
I1125 19:29:19.107434 18775 net.cpp:106] Creating Layer inception_3a/relu_pool_proj
I1125 19:29:19.107439 18775 net.cpp:454] inception_3a/relu_pool_proj <- inception_3a/pool_proj
I1125 19:29:19.107444 18775 net.cpp:397] inception_3a/relu_pool_proj -> inception_3a/pool_proj (in-place)
I1125 19:29:19.107755 18775 net.cpp:150] Setting up inception_3a/relu_pool_proj
I1125 19:29:19.107769 18775 net.cpp:157] Top shape: 64 32 28 28 (1605632)
I1125 19:29:19.107772 18775 net.cpp:165] Memory required for data: 1496450048
I1125 19:29:19.107775 18775 layer_factory.hpp:76] Creating layer inception_3a/output
I1125 19:29:19.107787 18775 net.cpp:106] Creating Layer inception_3a/output
I1125 19:29:19.107790 18775 net.cpp:454] inception_3a/output <- inception_3a/1x1
I1125 19:29:19.107796 18775 net.cpp:454] inception_3a/output <- inception_3a/3x3
I1125 19:29:19.107800 18775 net.cpp:454] inception_3a/output <- inception_3a/5x5
I1125 19:29:19.107805 18775 net.cpp:454] inception_3a/output <- inception_3a/pool_proj
I1125 19:29:19.107810 18775 net.cpp:411] inception_3a/output -> inception_3a/output
I1125 19:29:19.107841 18775 net.cpp:150] Setting up inception_3a/output
I1125 19:29:19.107846 18775 net.cpp:157] Top shape: 64 256 28 28 (12845056)
I1125 19:29:19.107849 18775 net.cpp:165] Memory required for data: 1547830272
I1125 19:29:19.107853 18775 layer_factory.hpp:76] Creating layer inception_3a/output_inception_3a/output_0_split
I1125 19:29:19.107861 18775 net.cpp:106] Creating Layer inception_3a/output_inception_3a/output_0_split
I1125 19:29:19.107863 18775 net.cpp:454] inception_3a/output_inception_3a/output_0_split <- inception_3a/output
I1125 19:29:19.107868 18775 net.cpp:411] inception_3a/output_inception_3a/output_0_split -> inception_3a/output_inception_3a/output_0_split_0
I1125 19:29:19.107874 18775 net.cpp:411] inception_3a/output_inception_3a/output_0_split -> inception_3a/output_inception_3a/output_0_split_1
I1125 19:29:19.107879 18775 net.cpp:411] inception_3a/output_inception_3a/output_0_split -> inception_3a/output_inception_3a/output_0_split_2
I1125 19:29:19.107885 18775 net.cpp:411] inception_3a/output_inception_3a/output_0_split -> inception_3a/output_inception_3a/output_0_split_3
I1125 19:29:19.107939 18775 net.cpp:150] Setting up inception_3a/output_inception_3a/output_0_split
I1125 19:29:19.107949 18775 net.cpp:157] Top shape: 64 256 28 28 (12845056)
I1125 19:29:19.107954 18775 net.cpp:157] Top shape: 64 256 28 28 (12845056)
I1125 19:29:19.107957 18775 net.cpp:157] Top shape: 64 256 28 28 (12845056)
I1125 19:29:19.107960 18775 net.cpp:157] Top shape: 64 256 28 28 (12845056)
I1125 19:29:19.107964 18775 net.cpp:165] Memory required for data: 1753351168
I1125 19:29:19.107966 18775 layer_factory.hpp:76] Creating layer inception_3b/1x1
I1125 19:29:19.107975 18775 net.cpp:106] Creating Layer inception_3b/1x1
I1125 19:29:19.107980 18775 net.cpp:454] inception_3b/1x1 <- inception_3a/output_inception_3a/output_0_split_0
I1125 19:29:19.107985 18775 net.cpp:411] inception_3b/1x1 -> inception_3b/1x1
I1125 19:29:19.109124 18775 net.cpp:150] Setting up inception_3b/1x1
I1125 19:29:19.109140 18775 net.cpp:157] Top shape: 64 128 28 28 (6422528)
I1125 19:29:19.109143 18775 net.cpp:165] Memory required for data: 1779041280
I1125 19:29:19.109150 18775 layer_factory.hpp:76] Creating layer inception_3b/relu_1x1
I1125 19:29:19.109156 18775 net.cpp:106] Creating Layer inception_3b/relu_1x1
I1125 19:29:19.109159 18775 net.cpp:454] inception_3b/relu_1x1 <- inception_3b/1x1
I1125 19:29:19.109164 18775 net.cpp:397] inception_3b/relu_1x1 -> inception_3b/1x1 (in-place)
I1125 19:29:19.109333 18775 net.cpp:150] Setting up inception_3b/relu_1x1
I1125 19:29:19.109343 18775 net.cpp:157] Top shape: 64 128 28 28 (6422528)
I1125 19:29:19.109346 18775 net.cpp:165] Memory required for data: 1804731392
I1125 19:29:19.109349 18775 layer_factory.hpp:76] Creating layer inception_3b/3x3_reduce
I1125 19:29:19.109357 18775 net.cpp:106] Creating Layer inception_3b/3x3_reduce
I1125 19:29:19.109361 18775 net.cpp:454] inception_3b/3x3_reduce <- inception_3a/output_inception_3a/output_0_split_1
I1125 19:29:19.109370 18775 net.cpp:411] inception_3b/3x3_reduce -> inception_3b/3x3_reduce
I1125 19:29:19.110553 18775 net.cpp:150] Setting up inception_3b/3x3_reduce
I1125 19:29:19.110566 18775 net.cpp:157] Top shape: 64 128 28 28 (6422528)
I1125 19:29:19.110570 18775 net.cpp:165] Memory required for data: 1830421504
I1125 19:29:19.110576 18775 layer_factory.hpp:76] Creating layer inception_3b/relu_3x3_reduce
I1125 19:29:19.110582 18775 net.cpp:106] Creating Layer inception_3b/relu_3x3_reduce
I1125 19:29:19.110586 18775 net.cpp:454] inception_3b/relu_3x3_reduce <- inception_3b/3x3_reduce
I1125 19:29:19.110594 18775 net.cpp:397] inception_3b/relu_3x3_reduce -> inception_3b/3x3_reduce (in-place)
I1125 19:29:19.110891 18775 net.cpp:150] Setting up inception_3b/relu_3x3_reduce
I1125 19:29:19.110905 18775 net.cpp:157] Top shape: 64 128 28 28 (6422528)
I1125 19:29:19.110909 18775 net.cpp:165] Memory required for data: 1856111616
I1125 19:29:19.110913 18775 layer_factory.hpp:76] Creating layer inception_3b/3x3
I1125 19:29:19.110925 18775 net.cpp:106] Creating Layer inception_3b/3x3
I1125 19:29:19.110929 18775 net.cpp:454] inception_3b/3x3 <- inception_3b/3x3_reduce
I1125 19:29:19.110935 18775 net.cpp:411] inception_3b/3x3 -> inception_3b/3x3
I1125 19:29:19.113620 18775 net.cpp:150] Setting up inception_3b/3x3
I1125 19:29:19.113636 18775 net.cpp:157] Top shape: 64 192 28 28 (9633792)
I1125 19:29:19.113641 18775 net.cpp:165] Memory required for data: 1894646784
I1125 19:29:19.113647 18775 layer_factory.hpp:76] Creating layer inception_3b/relu_3x3
I1125 19:29:19.113653 18775 net.cpp:106] Creating Layer inception_3b/relu_3x3
I1125 19:29:19.113657 18775 net.cpp:454] inception_3b/relu_3x3 <- inception_3b/3x3
I1125 19:29:19.113663 18775 net.cpp:397] inception_3b/relu_3x3 -> inception_3b/3x3 (in-place)
I1125 19:29:19.114110 18775 net.cpp:150] Setting up inception_3b/relu_3x3
I1125 19:29:19.114125 18775 net.cpp:157] Top shape: 64 192 28 28 (9633792)
I1125 19:29:19.114128 18775 net.cpp:165] Memory required for data: 1933181952
I1125 19:29:19.114132 18775 layer_factory.hpp:76] Creating layer inception_3b/5x5_reduce
I1125 19:29:19.114141 18775 net.cpp:106] Creating Layer inception_3b/5x5_reduce
I1125 19:29:19.114145 18775 net.cpp:454] inception_3b/5x5_reduce <- inception_3a/output_inception_3a/output_0_split_2
I1125 19:29:19.114152 18775 net.cpp:411] inception_3b/5x5_reduce -> inception_3b/5x5_reduce
I1125 19:29:19.115192 18775 net.cpp:150] Setting up inception_3b/5x5_reduce
I1125 19:29:19.115207 18775 net.cpp:157] Top shape: 64 32 28 28 (1605632)
I1125 19:29:19.115211 18775 net.cpp:165] Memory required for data: 1939604480
I1125 19:29:19.115216 18775 layer_factory.hpp:76] Creating layer inception_3b/relu_5x5_reduce
I1125 19:29:19.115224 18775 net.cpp:106] Creating Layer inception_3b/relu_5x5_reduce
I1125 19:29:19.115228 18775 net.cpp:454] inception_3b/relu_5x5_reduce <- inception_3b/5x5_reduce
I1125 19:29:19.115236 18775 net.cpp:397] inception_3b/relu_5x5_reduce -> inception_3b/5x5_reduce (in-place)
I1125 19:29:19.115406 18775 net.cpp:150] Setting up inception_3b/relu_5x5_reduce
I1125 19:29:19.115418 18775 net.cpp:157] Top shape: 64 32 28 28 (1605632)
I1125 19:29:19.115422 18775 net.cpp:165] Memory required for data: 1946027008
I1125 19:29:19.115425 18775 layer_factory.hpp:76] Creating layer inception_3b/5x5
I1125 19:29:19.115434 18775 net.cpp:106] Creating Layer inception_3b/5x5
I1125 19:29:19.115438 18775 net.cpp:454] inception_3b/5x5 <- inception_3b/5x5_reduce
I1125 19:29:19.115445 18775 net.cpp:411] inception_3b/5x5 -> inception_3b/5x5
I1125 19:29:19.117364 18775 net.cpp:150] Setting up inception_3b/5x5
I1125 19:29:19.117380 18775 net.cpp:157] Top shape: 64 96 28 28 (4816896)
I1125 19:29:19.117384 18775 net.cpp:165] Memory required for data: 1965294592
I1125 19:29:19.117390 18775 layer_factory.hpp:76] Creating layer inception_3b/relu_5x5
I1125 19:29:19.117396 18775 net.cpp:106] Creating Layer inception_3b/relu_5x5
I1125 19:29:19.117400 18775 net.cpp:454] inception_3b/relu_5x5 <- inception_3b/5x5
I1125 19:29:19.117406 18775 net.cpp:397] inception_3b/relu_5x5 -> inception_3b/5x5 (in-place)
I1125 19:29:19.117707 18775 net.cpp:150] Setting up inception_3b/relu_5x5
I1125 19:29:19.117720 18775 net.cpp:157] Top shape: 64 96 28 28 (4816896)
I1125 19:29:19.117724 18775 net.cpp:165] Memory required for data: 1984562176
I1125 19:29:19.117727 18775 layer_factory.hpp:76] Creating layer inception_3b/pool
I1125 19:29:19.117735 18775 net.cpp:106] Creating Layer inception_3b/pool
I1125 19:29:19.117738 18775 net.cpp:454] inception_3b/pool <- inception_3a/output_inception_3a/output_0_split_3
I1125 19:29:19.117744 18775 net.cpp:411] inception_3b/pool -> inception_3b/pool
I1125 19:29:19.117934 18775 net.cpp:150] Setting up inception_3b/pool
I1125 19:29:19.117945 18775 net.cpp:157] Top shape: 64 256 28 28 (12845056)
I1125 19:29:19.117949 18775 net.cpp:165] Memory required for data: 2035942400
I1125 19:29:19.117952 18775 layer_factory.hpp:76] Creating layer inception_3b/pool_proj
I1125 19:29:19.117962 18775 net.cpp:106] Creating Layer inception_3b/pool_proj
I1125 19:29:19.117966 18775 net.cpp:454] inception_3b/pool_proj <- inception_3b/pool
I1125 19:29:19.117971 18775 net.cpp:411] inception_3b/pool_proj -> inception_3b/pool_proj
I1125 19:29:19.119035 18775 net.cpp:150] Setting up inception_3b/pool_proj
I1125 19:29:19.119050 18775 net.cpp:157] Top shape: 64 64 28 28 (3211264)
I1125 19:29:19.119053 18775 net.cpp:165] Memory required for data: 2048787456
I1125 19:29:19.119060 18775 layer_factory.hpp:76] Creating layer inception_3b/relu_pool_proj
I1125 19:29:19.119065 18775 net.cpp:106] Creating Layer inception_3b/relu_pool_proj
I1125 19:29:19.119070 18775 net.cpp:454] inception_3b/relu_pool_proj <- inception_3b/pool_proj
I1125 19:29:19.119073 18775 net.cpp:397] inception_3b/relu_pool_proj -> inception_3b/pool_proj (in-place)
I1125 19:29:19.119251 18775 net.cpp:150] Setting up inception_3b/relu_pool_proj
I1125 19:29:19.119261 18775 net.cpp:157] Top shape: 64 64 28 28 (3211264)
I1125 19:29:19.119264 18775 net.cpp:165] Memory required for data: 2061632512
I1125 19:29:19.119268 18775 layer_factory.hpp:76] Creating layer inception_3b/output
I1125 19:29:19.119276 18775 net.cpp:106] Creating Layer inception_3b/output
I1125 19:29:19.119279 18775 net.cpp:454] inception_3b/output <- inception_3b/1x1
I1125 19:29:19.119283 18775 net.cpp:454] inception_3b/output <- inception_3b/3x3
I1125 19:29:19.119287 18775 net.cpp:454] inception_3b/output <- inception_3b/5x5
I1125 19:29:19.119292 18775 net.cpp:454] inception_3b/output <- inception_3b/pool_proj
I1125 19:29:19.119295 18775 net.cpp:411] inception_3b/output -> inception_3b/output
I1125 19:29:19.119325 18775 net.cpp:150] Setting up inception_3b/output
I1125 19:29:19.119331 18775 net.cpp:157] Top shape: 64 480 28 28 (24084480)
I1125 19:29:19.119334 18775 net.cpp:165] Memory required for data: 2157970432
I1125 19:29:19.119338 18775 layer_factory.hpp:76] Creating layer pool3/3x3_s2
I1125 19:29:19.119343 18775 net.cpp:106] Creating Layer pool3/3x3_s2
I1125 19:29:19.119348 18775 net.cpp:454] pool3/3x3_s2 <- inception_3b/output
I1125 19:29:19.119352 18775 net.cpp:411] pool3/3x3_s2 -> pool3/3x3_s2
I1125 19:29:19.119680 18775 net.cpp:150] Setting up pool3/3x3_s2
I1125 19:29:19.119694 18775 net.cpp:157] Top shape: 64 480 14 14 (6021120)
I1125 19:29:19.119699 18775 net.cpp:165] Memory required for data: 2182054912
I1125 19:29:19.119701 18775 layer_factory.hpp:76] Creating layer pool3/3x3_s2_pool3/3x3_s2_0_split
I1125 19:29:19.119707 18775 net.cpp:106] Creating Layer pool3/3x3_s2_pool3/3x3_s2_0_split
I1125 19:29:19.119712 18775 net.cpp:454] pool3/3x3_s2_pool3/3x3_s2_0_split <- pool3/3x3_s2
I1125 19:29:19.119717 18775 net.cpp:411] pool3/3x3_s2_pool3/3x3_s2_0_split -> pool3/3x3_s2_pool3/3x3_s2_0_split_0
I1125 19:29:19.119724 18775 net.cpp:411] pool3/3x3_s2_pool3/3x3_s2_0_split -> pool3/3x3_s2_pool3/3x3_s2_0_split_1
I1125 19:29:19.119729 18775 net.cpp:411] pool3/3x3_s2_pool3/3x3_s2_0_split -> pool3/3x3_s2_pool3/3x3_s2_0_split_2
I1125 19:29:19.119735 18775 net.cpp:411] pool3/3x3_s2_pool3/3x3_s2_0_split -> pool3/3x3_s2_pool3/3x3_s2_0_split_3
I1125 19:29:19.119793 18775 net.cpp:150] Setting up pool3/3x3_s2_pool3/3x3_s2_0_split
I1125 19:29:19.119799 18775 net.cpp:157] Top shape: 64 480 14 14 (6021120)
I1125 19:29:19.119802 18775 net.cpp:157] Top shape: 64 480 14 14 (6021120)
I1125 19:29:19.119807 18775 net.cpp:157] Top shape: 64 480 14 14 (6021120)
I1125 19:29:19.119809 18775 net.cpp:157] Top shape: 64 480 14 14 (6021120)
I1125 19:29:19.119812 18775 net.cpp:165] Memory required for data: 2278392832
I1125 19:29:19.119815 18775 layer_factory.hpp:76] Creating layer inception_4a/1x1
I1125 19:29:19.119824 18775 net.cpp:106] Creating Layer inception_4a/1x1
I1125 19:29:19.119827 18775 net.cpp:454] inception_4a/1x1 <- pool3/3x3_s2_pool3/3x3_s2_0_split_0
I1125 19:29:19.119832 18775 net.cpp:411] inception_4a/1x1 -> inception_4a/1x1
I1125 19:29:19.121520 18775 net.cpp:150] Setting up inception_4a/1x1
I1125 19:29:19.121537 18775 net.cpp:157] Top shape: 64 192 14 14 (2408448)
I1125 19:29:19.121541 18775 net.cpp:165] Memory required for data: 2288026624
I1125 19:29:19.121548 18775 layer_factory.hpp:76] Creating layer inception_4a/relu_1x1
I1125 19:29:19.121554 18775 net.cpp:106] Creating Layer inception_4a/relu_1x1
I1125 19:29:19.121558 18775 net.cpp:454] inception_4a/relu_1x1 <- inception_4a/1x1
I1125 19:29:19.121563 18775 net.cpp:397] inception_4a/relu_1x1 -> inception_4a/1x1 (in-place)
I1125 19:29:19.121733 18775 net.cpp:150] Setting up inception_4a/relu_1x1
I1125 19:29:19.121744 18775 net.cpp:157] Top shape: 64 192 14 14 (2408448)
I1125 19:29:19.121747 18775 net.cpp:165] Memory required for data: 2297660416
I1125 19:29:19.121752 18775 layer_factory.hpp:76] Creating layer inception_4a/3x3_reduce
I1125 19:29:19.121759 18775 net.cpp:106] Creating Layer inception_4a/3x3_reduce
I1125 19:29:19.121763 18775 net.cpp:454] inception_4a/3x3_reduce <- pool3/3x3_s2_pool3/3x3_s2_0_split_1
I1125 19:29:19.121770 18775 net.cpp:411] inception_4a/3x3_reduce -> inception_4a/3x3_reduce
I1125 19:29:19.123051 18775 net.cpp:150] Setting up inception_4a/3x3_reduce
I1125 19:29:19.123065 18775 net.cpp:157] Top shape: 64 96 14 14 (1204224)
I1125 19:29:19.123070 18775 net.cpp:165] Memory required for data: 2302477312
I1125 19:29:19.123081 18775 layer_factory.hpp:76] Creating layer inception_4a/relu_3x3_reduce
I1125 19:29:19.123087 18775 net.cpp:106] Creating Layer inception_4a/relu_3x3_reduce
I1125 19:29:19.123092 18775 net.cpp:454] inception_4a/relu_3x3_reduce <- inception_4a/3x3_reduce
I1125 19:29:19.123098 18775 net.cpp:397] inception_4a/relu_3x3_reduce -> inception_4a/3x3_reduce (in-place)
I1125 19:29:19.123400 18775 net.cpp:150] Setting up inception_4a/relu_3x3_reduce
I1125 19:29:19.123414 18775 net.cpp:157] Top shape: 64 96 14 14 (1204224)
I1125 19:29:19.123417 18775 net.cpp:165] Memory required for data: 2307294208
I1125 19:29:19.123421 18775 layer_factory.hpp:76] Creating layer inception_4a/3x3
I1125 19:29:19.123431 18775 net.cpp:106] Creating Layer inception_4a/3x3
I1125 19:29:19.123435 18775 net.cpp:454] inception_4a/3x3 <- inception_4a/3x3_reduce
I1125 19:29:19.123441 18775 net.cpp:411] inception_4a/3x3 -> inception_4a/3x3
I1125 19:29:19.125888 18775 net.cpp:150] Setting up inception_4a/3x3
I1125 19:29:19.125903 18775 net.cpp:157] Top shape: 64 208 14 14 (2609152)
I1125 19:29:19.125907 18775 net.cpp:165] Memory required for data: 2317730816
I1125 19:29:19.125915 18775 layer_factory.hpp:76] Creating layer inception_4a/relu_3x3
I1125 19:29:19.125919 18775 net.cpp:106] Creating Layer inception_4a/relu_3x3
I1125 19:29:19.125923 18775 net.cpp:454] inception_4a/relu_3x3 <- inception_4a/3x3
I1125 19:29:19.125931 18775 net.cpp:397] inception_4a/relu_3x3 -> inception_4a/3x3 (in-place)
I1125 19:29:19.126240 18775 net.cpp:150] Setting up inception_4a/relu_3x3
I1125 19:29:19.126255 18775 net.cpp:157] Top shape: 64 208 14 14 (2609152)
I1125 19:29:19.126257 18775 net.cpp:165] Memory required for data: 2328167424
I1125 19:29:19.126261 18775 layer_factory.hpp:76] Creating layer inception_4a/5x5_reduce
I1125 19:29:19.126271 18775 net.cpp:106] Creating Layer inception_4a/5x5_reduce
I1125 19:29:19.126276 18775 net.cpp:454] inception_4a/5x5_reduce <- pool3/3x3_s2_pool3/3x3_s2_0_split_2
I1125 19:29:19.126282 18775 net.cpp:411] inception_4a/5x5_reduce -> inception_4a/5x5_reduce
I1125 19:29:19.127317 18775 net.cpp:150] Setting up inception_4a/5x5_reduce
I1125 19:29:19.127332 18775 net.cpp:157] Top shape: 64 16 14 14 (200704)
I1125 19:29:19.127337 18775 net.cpp:165] Memory required for data: 2328970240
I1125 19:29:19.127343 18775 layer_factory.hpp:76] Creating layer inception_4a/relu_5x5_reduce
I1125 19:29:19.127349 18775 net.cpp:106] Creating Layer inception_4a/relu_5x5_reduce
I1125 19:29:19.127353 18775 net.cpp:454] inception_4a/relu_5x5_reduce <- inception_4a/5x5_reduce
I1125 19:29:19.127360 18775 net.cpp:397] inception_4a/relu_5x5_reduce -> inception_4a/5x5_reduce (in-place)
I1125 19:29:19.127655 18775 net.cpp:150] Setting up inception_4a/relu_5x5_reduce
I1125 19:29:19.127668 18775 net.cpp:157] Top shape: 64 16 14 14 (200704)
I1125 19:29:19.127671 18775 net.cpp:165] Memory required for data: 2329773056
I1125 19:29:19.127676 18775 layer_factory.hpp:76] Creating layer inception_4a/5x5
I1125 19:29:19.127684 18775 net.cpp:106] Creating Layer inception_4a/5x5
I1125 19:29:19.127688 18775 net.cpp:454] inception_4a/5x5 <- inception_4a/5x5_reduce
I1125 19:29:19.127694 18775 net.cpp:411] inception_4a/5x5 -> inception_4a/5x5
I1125 19:29:19.128825 18775 net.cpp:150] Setting up inception_4a/5x5
I1125 19:29:19.128841 18775 net.cpp:157] Top shape: 64 48 14 14 (602112)
I1125 19:29:19.128844 18775 net.cpp:165] Memory required for data: 2332181504
I1125 19:29:19.128850 18775 layer_factory.hpp:76] Creating layer inception_4a/relu_5x5
I1125 19:29:19.128859 18775 net.cpp:106] Creating Layer inception_4a/relu_5x5
I1125 19:29:19.128864 18775 net.cpp:454] inception_4a/relu_5x5 <- inception_4a/5x5
I1125 19:29:19.128868 18775 net.cpp:397] inception_4a/relu_5x5 -> inception_4a/5x5 (in-place)
I1125 19:29:19.129187 18775 net.cpp:150] Setting up inception_4a/relu_5x5
I1125 19:29:19.129201 18775 net.cpp:157] Top shape: 64 48 14 14 (602112)
I1125 19:29:19.129204 18775 net.cpp:165] Memory required for data: 2334589952
I1125 19:29:19.129209 18775 layer_factory.hpp:76] Creating layer inception_4a/pool
I1125 19:29:19.129215 18775 net.cpp:106] Creating Layer inception_4a/pool
I1125 19:29:19.129220 18775 net.cpp:454] inception_4a/pool <- pool3/3x3_s2_pool3/3x3_s2_0_split_3
I1125 19:29:19.129226 18775 net.cpp:411] inception_4a/pool -> inception_4a/pool
I1125 19:29:19.129427 18775 net.cpp:150] Setting up inception_4a/pool
I1125 19:29:19.129439 18775 net.cpp:157] Top shape: 64 480 14 14 (6021120)
I1125 19:29:19.129442 18775 net.cpp:165] Memory required for data: 2358674432
I1125 19:29:19.129446 18775 layer_factory.hpp:76] Creating layer inception_4a/pool_proj
I1125 19:29:19.129456 18775 net.cpp:106] Creating Layer inception_4a/pool_proj
I1125 19:29:19.129459 18775 net.cpp:454] inception_4a/pool_proj <- inception_4a/pool
I1125 19:29:19.129467 18775 net.cpp:411] inception_4a/pool_proj -> inception_4a/pool_proj
I1125 19:29:19.130664 18775 net.cpp:150] Setting up inception_4a/pool_proj
I1125 19:29:19.130678 18775 net.cpp:157] Top shape: 64 64 14 14 (802816)
I1125 19:29:19.130682 18775 net.cpp:165] Memory required for data: 2361885696
I1125 19:29:19.130688 18775 layer_factory.hpp:76] Creating layer inception_4a/relu_pool_proj
I1125 19:29:19.130695 18775 net.cpp:106] Creating Layer inception_4a/relu_pool_proj
I1125 19:29:19.130699 18775 net.cpp:454] inception_4a/relu_pool_proj <- inception_4a/pool_proj
I1125 19:29:19.130707 18775 net.cpp:397] inception_4a/relu_pool_proj -> inception_4a/pool_proj (in-place)
I1125 19:29:19.131018 18775 net.cpp:150] Setting up inception_4a/relu_pool_proj
I1125 19:29:19.131031 18775 net.cpp:157] Top shape: 64 64 14 14 (802816)
I1125 19:29:19.131036 18775 net.cpp:165] Memory required for data: 2365096960
I1125 19:29:19.131038 18775 layer_factory.hpp:76] Creating layer inception_4a/output
I1125 19:29:19.131045 18775 net.cpp:106] Creating Layer inception_4a/output
I1125 19:29:19.131049 18775 net.cpp:454] inception_4a/output <- inception_4a/1x1
I1125 19:29:19.131054 18775 net.cpp:454] inception_4a/output <- inception_4a/3x3
I1125 19:29:19.131058 18775 net.cpp:454] inception_4a/output <- inception_4a/5x5
I1125 19:29:19.131062 18775 net.cpp:454] inception_4a/output <- inception_4a/pool_proj
I1125 19:29:19.131067 18775 net.cpp:411] inception_4a/output -> inception_4a/output
I1125 19:29:19.131100 18775 net.cpp:150] Setting up inception_4a/output
I1125 19:29:19.131111 18775 net.cpp:157] Top shape: 64 512 14 14 (6422528)
I1125 19:29:19.131114 18775 net.cpp:165] Memory required for data: 2390787072
I1125 19:29:19.131117 18775 layer_factory.hpp:76] Creating layer inception_4a/output_inception_4a/output_0_split
I1125 19:29:19.131122 18775 net.cpp:106] Creating Layer inception_4a/output_inception_4a/output_0_split
I1125 19:29:19.131125 18775 net.cpp:454] inception_4a/output_inception_4a/output_0_split <- inception_4a/output
I1125 19:29:19.131131 18775 net.cpp:411] inception_4a/output_inception_4a/output_0_split -> inception_4a/output_inception_4a/output_0_split_0
I1125 19:29:19.131139 18775 net.cpp:411] inception_4a/output_inception_4a/output_0_split -> inception_4a/output_inception_4a/output_0_split_1
I1125 19:29:19.131145 18775 net.cpp:411] inception_4a/output_inception_4a/output_0_split -> inception_4a/output_inception_4a/output_0_split_2
I1125 19:29:19.131150 18775 net.cpp:411] inception_4a/output_inception_4a/output_0_split -> inception_4a/output_inception_4a/output_0_split_3
I1125 19:29:19.131155 18775 net.cpp:411] inception_4a/output_inception_4a/output_0_split -> inception_4a/output_inception_4a/output_0_split_4
I1125 19:29:19.131233 18775 net.cpp:150] Setting up inception_4a/output_inception_4a/output_0_split
I1125 19:29:19.131247 18775 net.cpp:157] Top shape: 64 512 14 14 (6422528)
I1125 19:29:19.131250 18775 net.cpp:157] Top shape: 64 512 14 14 (6422528)
I1125 19:29:19.131253 18775 net.cpp:157] Top shape: 64 512 14 14 (6422528)
I1125 19:29:19.131258 18775 net.cpp:157] Top shape: 64 512 14 14 (6422528)
I1125 19:29:19.131260 18775 net.cpp:157] Top shape: 64 512 14 14 (6422528)
I1125 19:29:19.131263 18775 net.cpp:165] Memory required for data: 2519237632
I1125 19:29:19.131266 18775 layer_factory.hpp:76] Creating layer loss1/ave_pool
I1125 19:29:19.131274 18775 net.cpp:106] Creating Layer loss1/ave_pool
I1125 19:29:19.131278 18775 net.cpp:454] loss1/ave_pool <- inception_4a/output_inception_4a/output_0_split_0
I1125 19:29:19.131283 18775 net.cpp:411] loss1/ave_pool -> loss1/ave_pool
I1125 19:29:19.131470 18775 net.cpp:150] Setting up loss1/ave_pool
I1125 19:29:19.131481 18775 net.cpp:157] Top shape: 64 512 4 4 (524288)
I1125 19:29:19.131484 18775 net.cpp:165] Memory required for data: 2521334784
I1125 19:29:19.131489 18775 layer_factory.hpp:76] Creating layer loss1/conv
I1125 19:29:19.131496 18775 net.cpp:106] Creating Layer loss1/conv
I1125 19:29:19.131500 18775 net.cpp:454] loss1/conv <- loss1/ave_pool
I1125 19:29:19.131506 18775 net.cpp:411] loss1/conv -> loss1/conv
I1125 19:29:19.132923 18775 net.cpp:150] Setting up loss1/conv
I1125 19:29:19.132938 18775 net.cpp:157] Top shape: 64 128 4 4 (131072)
I1125 19:29:19.132941 18775 net.cpp:165] Memory required for data: 2521859072
I1125 19:29:19.132947 18775 layer_factory.hpp:76] Creating layer loss1/relu_conv
I1125 19:29:19.132953 18775 net.cpp:106] Creating Layer loss1/relu_conv
I1125 19:29:19.132957 18775 net.cpp:454] loss1/relu_conv <- loss1/conv
I1125 19:29:19.132962 18775 net.cpp:397] loss1/relu_conv -> loss1/conv (in-place)
I1125 19:29:19.133127 18775 net.cpp:150] Setting up loss1/relu_conv
I1125 19:29:19.133137 18775 net.cpp:157] Top shape: 64 128 4 4 (131072)
I1125 19:29:19.133141 18775 net.cpp:165] Memory required for data: 2522383360
I1125 19:29:19.133144 18775 layer_factory.hpp:76] Creating layer loss1/fc
I1125 19:29:19.133152 18775 net.cpp:106] Creating Layer loss1/fc
I1125 19:29:19.133157 18775 net.cpp:454] loss1/fc <- loss1/conv
I1125 19:29:19.133162 18775 net.cpp:411] loss1/fc -> loss1/fc
I1125 19:29:19.148808 18775 net.cpp:150] Setting up loss1/fc
I1125 19:29:19.148824 18775 net.cpp:157] Top shape: 64 1024 (65536)
I1125 19:29:19.148828 18775 net.cpp:165] Memory required for data: 2522645504
I1125 19:29:19.148834 18775 layer_factory.hpp:76] Creating layer loss1/relu_fc
I1125 19:29:19.148840 18775 net.cpp:106] Creating Layer loss1/relu_fc
I1125 19:29:19.148844 18775 net.cpp:454] loss1/relu_fc <- loss1/fc
I1125 19:29:19.148850 18775 net.cpp:397] loss1/relu_fc -> loss1/fc (in-place)
I1125 19:29:19.149168 18775 net.cpp:150] Setting up loss1/relu_fc
I1125 19:29:19.149181 18775 net.cpp:157] Top shape: 64 1024 (65536)
I1125 19:29:19.149184 18775 net.cpp:165] Memory required for data: 2522907648
I1125 19:29:19.149188 18775 layer_factory.hpp:76] Creating layer loss1/drop_fc
I1125 19:29:19.149204 18775 net.cpp:106] Creating Layer loss1/drop_fc
I1125 19:29:19.149209 18775 net.cpp:454] loss1/drop_fc <- loss1/fc
I1125 19:29:19.149214 18775 net.cpp:397] loss1/drop_fc -> loss1/fc (in-place)
I1125 19:29:19.149253 18775 net.cpp:150] Setting up loss1/drop_fc
I1125 19:29:19.149260 18775 net.cpp:157] Top shape: 64 1024 (65536)
I1125 19:29:19.149263 18775 net.cpp:165] Memory required for data: 2523169792
I1125 19:29:19.149266 18775 layer_factory.hpp:76] Creating layer loss1/classifier-attribute
I1125 19:29:19.149274 18775 net.cpp:106] Creating Layer loss1/classifier-attribute
I1125 19:29:19.149277 18775 net.cpp:454] loss1/classifier-attribute <- loss1/fc
I1125 19:29:19.149282 18775 net.cpp:411] loss1/classifier-attribute -> loss1/classifier-attribute
I1125 19:29:19.149437 18775 net.cpp:150] Setting up loss1/classifier-attribute
I1125 19:29:19.149446 18775 net.cpp:157] Top shape: 64 6 (384)
I1125 19:29:19.149449 18775 net.cpp:165] Memory required for data: 2523171328
I1125 19:29:19.149456 18775 layer_factory.hpp:76] Creating layer loss1/loss
I1125 19:29:19.149463 18775 net.cpp:106] Creating Layer loss1/loss
I1125 19:29:19.149467 18775 net.cpp:454] loss1/loss <- loss1/classifier-attribute
I1125 19:29:19.149471 18775 net.cpp:454] loss1/loss <- label_data_1_split_0
I1125 19:29:19.149478 18775 net.cpp:411] loss1/loss -> loss1/loss1
I1125 19:29:19.149490 18775 layer_factory.hpp:76] Creating layer loss1/loss
I1125 19:29:19.149756 18775 net.cpp:150] Setting up loss1/loss
I1125 19:29:19.149767 18775 net.cpp:157] Top shape: (1)
I1125 19:29:19.149770 18775 net.cpp:160]     with loss weight 0.3
I1125 19:29:19.149791 18775 net.cpp:165] Memory required for data: 2523171332
I1125 19:29:19.149796 18775 layer_factory.hpp:76] Creating layer inception_4b/1x1
I1125 19:29:19.149804 18775 net.cpp:106] Creating Layer inception_4b/1x1
I1125 19:29:19.149808 18775 net.cpp:454] inception_4b/1x1 <- inception_4a/output_inception_4a/output_0_split_1
I1125 19:29:19.149816 18775 net.cpp:411] inception_4b/1x1 -> inception_4b/1x1
I1125 19:29:19.151355 18775 net.cpp:150] Setting up inception_4b/1x1
I1125 19:29:19.151377 18775 net.cpp:157] Top shape: 64 160 14 14 (2007040)
I1125 19:29:19.151381 18775 net.cpp:165] Memory required for data: 2531199492
I1125 19:29:19.151387 18775 layer_factory.hpp:76] Creating layer inception_4b/relu_1x1
I1125 19:29:19.151396 18775 net.cpp:106] Creating Layer inception_4b/relu_1x1
I1125 19:29:19.151399 18775 net.cpp:454] inception_4b/relu_1x1 <- inception_4b/1x1
I1125 19:29:19.151406 18775 net.cpp:397] inception_4b/relu_1x1 -> inception_4b/1x1 (in-place)
I1125 19:29:19.151711 18775 net.cpp:150] Setting up inception_4b/relu_1x1
I1125 19:29:19.151726 18775 net.cpp:157] Top shape: 64 160 14 14 (2007040)
I1125 19:29:19.151728 18775 net.cpp:165] Memory required for data: 2539227652
I1125 19:29:19.151732 18775 layer_factory.hpp:76] Creating layer inception_4b/3x3_reduce
I1125 19:29:19.151742 18775 net.cpp:106] Creating Layer inception_4b/3x3_reduce
I1125 19:29:19.151746 18775 net.cpp:454] inception_4b/3x3_reduce <- inception_4a/output_inception_4a/output_0_split_2
I1125 19:29:19.151752 18775 net.cpp:411] inception_4b/3x3_reduce -> inception_4b/3x3_reduce
I1125 19:29:19.153576 18775 net.cpp:150] Setting up inception_4b/3x3_reduce
I1125 19:29:19.153591 18775 net.cpp:157] Top shape: 64 112 14 14 (1404928)
I1125 19:29:19.153595 18775 net.cpp:165] Memory required for data: 2544847364
I1125 19:29:19.153601 18775 layer_factory.hpp:76] Creating layer inception_4b/relu_3x3_reduce
I1125 19:29:19.153609 18775 net.cpp:106] Creating Layer inception_4b/relu_3x3_reduce
I1125 19:29:19.153614 18775 net.cpp:454] inception_4b/relu_3x3_reduce <- inception_4b/3x3_reduce
I1125 19:29:19.153620 18775 net.cpp:397] inception_4b/relu_3x3_reduce -> inception_4b/3x3_reduce (in-place)
I1125 19:29:19.153792 18775 net.cpp:150] Setting up inception_4b/relu_3x3_reduce
I1125 19:29:19.153805 18775 net.cpp:157] Top shape: 64 112 14 14 (1404928)
I1125 19:29:19.153807 18775 net.cpp:165] Memory required for data: 2550467076
I1125 19:29:19.153810 18775 layer_factory.hpp:76] Creating layer inception_4b/3x3
I1125 19:29:19.153820 18775 net.cpp:106] Creating Layer inception_4b/3x3
I1125 19:29:19.153823 18775 net.cpp:454] inception_4b/3x3 <- inception_4b/3x3_reduce
I1125 19:29:19.153830 18775 net.cpp:411] inception_4b/3x3 -> inception_4b/3x3
I1125 19:29:19.156729 18775 net.cpp:150] Setting up inception_4b/3x3
I1125 19:29:19.156745 18775 net.cpp:157] Top shape: 64 224 14 14 (2809856)
I1125 19:29:19.156750 18775 net.cpp:165] Memory required for data: 2561706500
I1125 19:29:19.156756 18775 layer_factory.hpp:76] Creating layer inception_4b/relu_3x3
I1125 19:29:19.156762 18775 net.cpp:106] Creating Layer inception_4b/relu_3x3
I1125 19:29:19.156766 18775 net.cpp:454] inception_4b/relu_3x3 <- inception_4b/3x3
I1125 19:29:19.156772 18775 net.cpp:397] inception_4b/relu_3x3 -> inception_4b/3x3 (in-place)
I1125 19:29:19.156944 18775 net.cpp:150] Setting up inception_4b/relu_3x3
I1125 19:29:19.156955 18775 net.cpp:157] Top shape: 64 224 14 14 (2809856)
I1125 19:29:19.156957 18775 net.cpp:165] Memory required for data: 2572945924
I1125 19:29:19.156961 18775 layer_factory.hpp:76] Creating layer inception_4b/5x5_reduce
I1125 19:29:19.156970 18775 net.cpp:106] Creating Layer inception_4b/5x5_reduce
I1125 19:29:19.156975 18775 net.cpp:454] inception_4b/5x5_reduce <- inception_4a/output_inception_4a/output_0_split_3
I1125 19:29:19.156980 18775 net.cpp:411] inception_4b/5x5_reduce -> inception_4b/5x5_reduce
I1125 19:29:19.158082 18775 net.cpp:150] Setting up inception_4b/5x5_reduce
I1125 19:29:19.158098 18775 net.cpp:157] Top shape: 64 24 14 14 (301056)
I1125 19:29:19.158102 18775 net.cpp:165] Memory required for data: 2574150148
I1125 19:29:19.158108 18775 layer_factory.hpp:76] Creating layer inception_4b/relu_5x5_reduce
I1125 19:29:19.158114 18775 net.cpp:106] Creating Layer inception_4b/relu_5x5_reduce
I1125 19:29:19.158119 18775 net.cpp:454] inception_4b/relu_5x5_reduce <- inception_4b/5x5_reduce
I1125 19:29:19.158124 18775 net.cpp:397] inception_4b/relu_5x5_reduce -> inception_4b/5x5_reduce (in-place)
I1125 19:29:19.158555 18775 net.cpp:150] Setting up inception_4b/relu_5x5_reduce
I1125 19:29:19.158568 18775 net.cpp:157] Top shape: 64 24 14 14 (301056)
I1125 19:29:19.158572 18775 net.cpp:165] Memory required for data: 2575354372
I1125 19:29:19.158576 18775 layer_factory.hpp:76] Creating layer inception_4b/5x5
I1125 19:29:19.158586 18775 net.cpp:106] Creating Layer inception_4b/5x5
I1125 19:29:19.158591 18775 net.cpp:454] inception_4b/5x5 <- inception_4b/5x5_reduce
I1125 19:29:19.158597 18775 net.cpp:411] inception_4b/5x5 -> inception_4b/5x5
I1125 19:29:19.159921 18775 net.cpp:150] Setting up inception_4b/5x5
I1125 19:29:19.159935 18775 net.cpp:157] Top shape: 64 64 14 14 (802816)
I1125 19:29:19.159940 18775 net.cpp:165] Memory required for data: 2578565636
I1125 19:29:19.159955 18775 layer_factory.hpp:76] Creating layer inception_4b/relu_5x5
I1125 19:29:19.159962 18775 net.cpp:106] Creating Layer inception_4b/relu_5x5
I1125 19:29:19.159967 18775 net.cpp:454] inception_4b/relu_5x5 <- inception_4b/5x5
I1125 19:29:19.159973 18775 net.cpp:397] inception_4b/relu_5x5 -> inception_4b/5x5 (in-place)
I1125 19:29:19.160143 18775 net.cpp:150] Setting up inception_4b/relu_5x5
I1125 19:29:19.160154 18775 net.cpp:157] Top shape: 64 64 14 14 (802816)
I1125 19:29:19.160157 18775 net.cpp:165] Memory required for data: 2581776900
I1125 19:29:19.160161 18775 layer_factory.hpp:76] Creating layer inception_4b/pool
I1125 19:29:19.160168 18775 net.cpp:106] Creating Layer inception_4b/pool
I1125 19:29:19.160172 18775 net.cpp:454] inception_4b/pool <- inception_4a/output_inception_4a/output_0_split_4
I1125 19:29:19.160177 18775 net.cpp:411] inception_4b/pool -> inception_4b/pool
I1125 19:29:19.160524 18775 net.cpp:150] Setting up inception_4b/pool
I1125 19:29:19.160538 18775 net.cpp:157] Top shape: 64 512 14 14 (6422528)
I1125 19:29:19.160542 18775 net.cpp:165] Memory required for data: 2607467012
I1125 19:29:19.160545 18775 layer_factory.hpp:76] Creating layer inception_4b/pool_proj
I1125 19:29:19.160555 18775 net.cpp:106] Creating Layer inception_4b/pool_proj
I1125 19:29:19.160559 18775 net.cpp:454] inception_4b/pool_proj <- inception_4b/pool
I1125 19:29:19.160567 18775 net.cpp:411] inception_4b/pool_proj -> inception_4b/pool_proj
I1125 19:29:19.161661 18775 net.cpp:150] Setting up inception_4b/pool_proj
I1125 19:29:19.161676 18775 net.cpp:157] Top shape: 64 64 14 14 (802816)
I1125 19:29:19.161679 18775 net.cpp:165] Memory required for data: 2610678276
I1125 19:29:19.161685 18775 layer_factory.hpp:76] Creating layer inception_4b/relu_pool_proj
I1125 19:29:19.161695 18775 net.cpp:106] Creating Layer inception_4b/relu_pool_proj
I1125 19:29:19.161700 18775 net.cpp:454] inception_4b/relu_pool_proj <- inception_4b/pool_proj
I1125 19:29:19.161705 18775 net.cpp:397] inception_4b/relu_pool_proj -> inception_4b/pool_proj (in-place)
I1125 19:29:19.162019 18775 net.cpp:150] Setting up inception_4b/relu_pool_proj
I1125 19:29:19.162032 18775 net.cpp:157] Top shape: 64 64 14 14 (802816)
I1125 19:29:19.162035 18775 net.cpp:165] Memory required for data: 2613889540
I1125 19:29:19.162039 18775 layer_factory.hpp:76] Creating layer inception_4b/output
I1125 19:29:19.162047 18775 net.cpp:106] Creating Layer inception_4b/output
I1125 19:29:19.162051 18775 net.cpp:454] inception_4b/output <- inception_4b/1x1
I1125 19:29:19.162056 18775 net.cpp:454] inception_4b/output <- inception_4b/3x3
I1125 19:29:19.162060 18775 net.cpp:454] inception_4b/output <- inception_4b/5x5
I1125 19:29:19.162063 18775 net.cpp:454] inception_4b/output <- inception_4b/pool_proj
I1125 19:29:19.162067 18775 net.cpp:411] inception_4b/output -> inception_4b/output
I1125 19:29:19.162103 18775 net.cpp:150] Setting up inception_4b/output
I1125 19:29:19.162109 18775 net.cpp:157] Top shape: 64 512 14 14 (6422528)
I1125 19:29:19.162112 18775 net.cpp:165] Memory required for data: 2639579652
I1125 19:29:19.162116 18775 layer_factory.hpp:76] Creating layer inception_4b/output_inception_4b/output_0_split
I1125 19:29:19.162122 18775 net.cpp:106] Creating Layer inception_4b/output_inception_4b/output_0_split
I1125 19:29:19.162124 18775 net.cpp:454] inception_4b/output_inception_4b/output_0_split <- inception_4b/output
I1125 19:29:19.162132 18775 net.cpp:411] inception_4b/output_inception_4b/output_0_split -> inception_4b/output_inception_4b/output_0_split_0
I1125 19:29:19.162137 18775 net.cpp:411] inception_4b/output_inception_4b/output_0_split -> inception_4b/output_inception_4b/output_0_split_1
I1125 19:29:19.162142 18775 net.cpp:411] inception_4b/output_inception_4b/output_0_split -> inception_4b/output_inception_4b/output_0_split_2
I1125 19:29:19.162147 18775 net.cpp:411] inception_4b/output_inception_4b/output_0_split -> inception_4b/output_inception_4b/output_0_split_3
I1125 19:29:19.162214 18775 net.cpp:150] Setting up inception_4b/output_inception_4b/output_0_split
I1125 19:29:19.162220 18775 net.cpp:157] Top shape: 64 512 14 14 (6422528)
I1125 19:29:19.162225 18775 net.cpp:157] Top shape: 64 512 14 14 (6422528)
I1125 19:29:19.162227 18775 net.cpp:157] Top shape: 64 512 14 14 (6422528)
I1125 19:29:19.162231 18775 net.cpp:157] Top shape: 64 512 14 14 (6422528)
I1125 19:29:19.162233 18775 net.cpp:165] Memory required for data: 2742340100
I1125 19:29:19.162236 18775 layer_factory.hpp:76] Creating layer inception_4c/1x1
I1125 19:29:19.162245 18775 net.cpp:106] Creating Layer inception_4c/1x1
I1125 19:29:19.162250 18775 net.cpp:454] inception_4c/1x1 <- inception_4b/output_inception_4b/output_0_split_0
I1125 19:29:19.162255 18775 net.cpp:411] inception_4c/1x1 -> inception_4c/1x1
I1125 19:29:19.163692 18775 net.cpp:150] Setting up inception_4c/1x1
I1125 19:29:19.163707 18775 net.cpp:157] Top shape: 64 128 14 14 (1605632)
I1125 19:29:19.163710 18775 net.cpp:165] Memory required for data: 2748762628
I1125 19:29:19.163717 18775 layer_factory.hpp:76] Creating layer inception_4c/relu_1x1
I1125 19:29:19.163723 18775 net.cpp:106] Creating Layer inception_4c/relu_1x1
I1125 19:29:19.163727 18775 net.cpp:454] inception_4c/relu_1x1 <- inception_4c/1x1
I1125 19:29:19.163732 18775 net.cpp:397] inception_4c/relu_1x1 -> inception_4c/1x1 (in-place)
I1125 19:29:19.163899 18775 net.cpp:150] Setting up inception_4c/relu_1x1
I1125 19:29:19.163910 18775 net.cpp:157] Top shape: 64 128 14 14 (1605632)
I1125 19:29:19.163913 18775 net.cpp:165] Memory required for data: 2755185156
I1125 19:29:19.163918 18775 layer_factory.hpp:76] Creating layer inception_4c/3x3_reduce
I1125 19:29:19.163925 18775 net.cpp:106] Creating Layer inception_4c/3x3_reduce
I1125 19:29:19.163929 18775 net.cpp:454] inception_4c/3x3_reduce <- inception_4b/output_inception_4b/output_0_split_1
I1125 19:29:19.163936 18775 net.cpp:411] inception_4c/3x3_reduce -> inception_4c/3x3_reduce
I1125 19:29:19.165388 18775 net.cpp:150] Setting up inception_4c/3x3_reduce
I1125 19:29:19.165405 18775 net.cpp:157] Top shape: 64 128 14 14 (1605632)
I1125 19:29:19.165410 18775 net.cpp:165] Memory required for data: 2761607684
I1125 19:29:19.165416 18775 layer_factory.hpp:76] Creating layer inception_4c/relu_3x3_reduce
I1125 19:29:19.165421 18775 net.cpp:106] Creating Layer inception_4c/relu_3x3_reduce
I1125 19:29:19.165426 18775 net.cpp:454] inception_4c/relu_3x3_reduce <- inception_4c/3x3_reduce
I1125 19:29:19.165431 18775 net.cpp:397] inception_4c/relu_3x3_reduce -> inception_4c/3x3_reduce (in-place)
I1125 19:29:19.165741 18775 net.cpp:150] Setting up inception_4c/relu_3x3_reduce
I1125 19:29:19.165756 18775 net.cpp:157] Top shape: 64 128 14 14 (1605632)
I1125 19:29:19.165760 18775 net.cpp:165] Memory required for data: 2768030212
I1125 19:29:19.165763 18775 layer_factory.hpp:76] Creating layer inception_4c/3x3
I1125 19:29:19.165771 18775 net.cpp:106] Creating Layer inception_4c/3x3
I1125 19:29:19.165776 18775 net.cpp:454] inception_4c/3x3 <- inception_4c/3x3_reduce
I1125 19:29:19.165782 18775 net.cpp:411] inception_4c/3x3 -> inception_4c/3x3
I1125 19:29:19.169001 18775 net.cpp:150] Setting up inception_4c/3x3
I1125 19:29:19.169016 18775 net.cpp:157] Top shape: 64 256 14 14 (3211264)
I1125 19:29:19.169020 18775 net.cpp:165] Memory required for data: 2780875268
I1125 19:29:19.169039 18775 layer_factory.hpp:76] Creating layer inception_4c/relu_3x3
I1125 19:29:19.169047 18775 net.cpp:106] Creating Layer inception_4c/relu_3x3
I1125 19:29:19.169052 18775 net.cpp:454] inception_4c/relu_3x3 <- inception_4c/3x3
I1125 19:29:19.169056 18775 net.cpp:397] inception_4c/relu_3x3 -> inception_4c/3x3 (in-place)
I1125 19:29:19.169366 18775 net.cpp:150] Setting up inception_4c/relu_3x3
I1125 19:29:19.169380 18775 net.cpp:157] Top shape: 64 256 14 14 (3211264)
I1125 19:29:19.169384 18775 net.cpp:165] Memory required for data: 2793720324
I1125 19:29:19.169387 18775 layer_factory.hpp:76] Creating layer inception_4c/5x5_reduce
I1125 19:29:19.169399 18775 net.cpp:106] Creating Layer inception_4c/5x5_reduce
I1125 19:29:19.169402 18775 net.cpp:454] inception_4c/5x5_reduce <- inception_4b/output_inception_4b/output_0_split_2
I1125 19:29:19.169409 18775 net.cpp:411] inception_4c/5x5_reduce -> inception_4c/5x5_reduce
I1125 19:29:19.170531 18775 net.cpp:150] Setting up inception_4c/5x5_reduce
I1125 19:29:19.170547 18775 net.cpp:157] Top shape: 64 24 14 14 (301056)
I1125 19:29:19.170549 18775 net.cpp:165] Memory required for data: 2794924548
I1125 19:29:19.170557 18775 layer_factory.hpp:76] Creating layer inception_4c/relu_5x5_reduce
I1125 19:29:19.170562 18775 net.cpp:106] Creating Layer inception_4c/relu_5x5_reduce
I1125 19:29:19.170567 18775 net.cpp:454] inception_4c/relu_5x5_reduce <- inception_4c/5x5_reduce
I1125 19:29:19.170572 18775 net.cpp:397] inception_4c/relu_5x5_reduce -> inception_4c/5x5_reduce (in-place)
I1125 19:29:19.170744 18775 net.cpp:150] Setting up inception_4c/relu_5x5_reduce
I1125 19:29:19.170755 18775 net.cpp:157] Top shape: 64 24 14 14 (301056)
I1125 19:29:19.170759 18775 net.cpp:165] Memory required for data: 2796128772
I1125 19:29:19.170763 18775 layer_factory.hpp:76] Creating layer inception_4c/5x5
I1125 19:29:19.170770 18775 net.cpp:106] Creating Layer inception_4c/5x5
I1125 19:29:19.170774 18775 net.cpp:454] inception_4c/5x5 <- inception_4c/5x5_reduce
I1125 19:29:19.170783 18775 net.cpp:411] inception_4c/5x5 -> inception_4c/5x5
I1125 19:29:19.172524 18775 net.cpp:150] Setting up inception_4c/5x5
I1125 19:29:19.172540 18775 net.cpp:157] Top shape: 64 64 14 14 (802816)
I1125 19:29:19.172544 18775 net.cpp:165] Memory required for data: 2799340036
I1125 19:29:19.172550 18775 layer_factory.hpp:76] Creating layer inception_4c/relu_5x5
I1125 19:29:19.172559 18775 net.cpp:106] Creating Layer inception_4c/relu_5x5
I1125 19:29:19.172562 18775 net.cpp:454] inception_4c/relu_5x5 <- inception_4c/5x5
I1125 19:29:19.172567 18775 net.cpp:397] inception_4c/relu_5x5 -> inception_4c/5x5 (in-place)
I1125 19:29:19.172888 18775 net.cpp:150] Setting up inception_4c/relu_5x5
I1125 19:29:19.172900 18775 net.cpp:157] Top shape: 64 64 14 14 (802816)
I1125 19:29:19.172904 18775 net.cpp:165] Memory required for data: 2802551300
I1125 19:29:19.172909 18775 layer_factory.hpp:76] Creating layer inception_4c/pool
I1125 19:29:19.172916 18775 net.cpp:106] Creating Layer inception_4c/pool
I1125 19:29:19.172920 18775 net.cpp:454] inception_4c/pool <- inception_4b/output_inception_4b/output_0_split_3
I1125 19:29:19.172926 18775 net.cpp:411] inception_4c/pool -> inception_4c/pool
I1125 19:29:19.173135 18775 net.cpp:150] Setting up inception_4c/pool
I1125 19:29:19.173146 18775 net.cpp:157] Top shape: 64 512 14 14 (6422528)
I1125 19:29:19.173149 18775 net.cpp:165] Memory required for data: 2828241412
I1125 19:29:19.173153 18775 layer_factory.hpp:76] Creating layer inception_4c/pool_proj
I1125 19:29:19.173162 18775 net.cpp:106] Creating Layer inception_4c/pool_proj
I1125 19:29:19.173166 18775 net.cpp:454] inception_4c/pool_proj <- inception_4c/pool
I1125 19:29:19.173173 18775 net.cpp:411] inception_4c/pool_proj -> inception_4c/pool_proj
I1125 19:29:19.174584 18775 net.cpp:150] Setting up inception_4c/pool_proj
I1125 19:29:19.174600 18775 net.cpp:157] Top shape: 64 64 14 14 (802816)
I1125 19:29:19.174603 18775 net.cpp:165] Memory required for data: 2831452676
I1125 19:29:19.174609 18775 layer_factory.hpp:76] Creating layer inception_4c/relu_pool_proj
I1125 19:29:19.174617 18775 net.cpp:106] Creating Layer inception_4c/relu_pool_proj
I1125 19:29:19.174620 18775 net.cpp:454] inception_4c/relu_pool_proj <- inception_4c/pool_proj
I1125 19:29:19.174628 18775 net.cpp:397] inception_4c/relu_pool_proj -> inception_4c/pool_proj (in-place)
I1125 19:29:19.174942 18775 net.cpp:150] Setting up inception_4c/relu_pool_proj
I1125 19:29:19.174957 18775 net.cpp:157] Top shape: 64 64 14 14 (802816)
I1125 19:29:19.174960 18775 net.cpp:165] Memory required for data: 2834663940
I1125 19:29:19.174964 18775 layer_factory.hpp:76] Creating layer inception_4c/output
I1125 19:29:19.174970 18775 net.cpp:106] Creating Layer inception_4c/output
I1125 19:29:19.174974 18775 net.cpp:454] inception_4c/output <- inception_4c/1x1
I1125 19:29:19.174978 18775 net.cpp:454] inception_4c/output <- inception_4c/3x3
I1125 19:29:19.174983 18775 net.cpp:454] inception_4c/output <- inception_4c/5x5
I1125 19:29:19.174988 18775 net.cpp:454] inception_4c/output <- inception_4c/pool_proj
I1125 19:29:19.174993 18775 net.cpp:411] inception_4c/output -> inception_4c/output
I1125 19:29:19.175029 18775 net.cpp:150] Setting up inception_4c/output
I1125 19:29:19.175036 18775 net.cpp:157] Top shape: 64 512 14 14 (6422528)
I1125 19:29:19.175039 18775 net.cpp:165] Memory required for data: 2860354052
I1125 19:29:19.175041 18775 layer_factory.hpp:76] Creating layer inception_4c/output_inception_4c/output_0_split
I1125 19:29:19.175047 18775 net.cpp:106] Creating Layer inception_4c/output_inception_4c/output_0_split
I1125 19:29:19.175050 18775 net.cpp:454] inception_4c/output_inception_4c/output_0_split <- inception_4c/output
I1125 19:29:19.175055 18775 net.cpp:411] inception_4c/output_inception_4c/output_0_split -> inception_4c/output_inception_4c/output_0_split_0
I1125 19:29:19.175061 18775 net.cpp:411] inception_4c/output_inception_4c/output_0_split -> inception_4c/output_inception_4c/output_0_split_1
I1125 19:29:19.175068 18775 net.cpp:411] inception_4c/output_inception_4c/output_0_split -> inception_4c/output_inception_4c/output_0_split_2
I1125 19:29:19.175074 18775 net.cpp:411] inception_4c/output_inception_4c/output_0_split -> inception_4c/output_inception_4c/output_0_split_3
I1125 19:29:19.175142 18775 net.cpp:150] Setting up inception_4c/output_inception_4c/output_0_split
I1125 19:29:19.175148 18775 net.cpp:157] Top shape: 64 512 14 14 (6422528)
I1125 19:29:19.175150 18775 net.cpp:157] Top shape: 64 512 14 14 (6422528)
I1125 19:29:19.175154 18775 net.cpp:157] Top shape: 64 512 14 14 (6422528)
I1125 19:29:19.175158 18775 net.cpp:157] Top shape: 64 512 14 14 (6422528)
I1125 19:29:19.175160 18775 net.cpp:165] Memory required for data: 2963114500
I1125 19:29:19.175163 18775 layer_factory.hpp:76] Creating layer inception_4d/1x1
I1125 19:29:19.175171 18775 net.cpp:106] Creating Layer inception_4d/1x1
I1125 19:29:19.175175 18775 net.cpp:454] inception_4d/1x1 <- inception_4c/output_inception_4c/output_0_split_0
I1125 19:29:19.175181 18775 net.cpp:411] inception_4d/1x1 -> inception_4d/1x1
I1125 19:29:19.176466 18775 net.cpp:150] Setting up inception_4d/1x1
I1125 19:29:19.176482 18775 net.cpp:157] Top shape: 64 112 14 14 (1404928)
I1125 19:29:19.176486 18775 net.cpp:165] Memory required for data: 2968734212
I1125 19:29:19.176492 18775 layer_factory.hpp:76] Creating layer inception_4d/relu_1x1
I1125 19:29:19.176499 18775 net.cpp:106] Creating Layer inception_4d/relu_1x1
I1125 19:29:19.176503 18775 net.cpp:454] inception_4d/relu_1x1 <- inception_4d/1x1
I1125 19:29:19.176512 18775 net.cpp:397] inception_4d/relu_1x1 -> inception_4d/1x1 (in-place)
I1125 19:29:19.176834 18775 net.cpp:150] Setting up inception_4d/relu_1x1
I1125 19:29:19.176848 18775 net.cpp:157] Top shape: 64 112 14 14 (1404928)
I1125 19:29:19.176851 18775 net.cpp:165] Memory required for data: 2974353924
I1125 19:29:19.176856 18775 layer_factory.hpp:76] Creating layer inception_4d/3x3_reduce
I1125 19:29:19.176864 18775 net.cpp:106] Creating Layer inception_4d/3x3_reduce
I1125 19:29:19.176868 18775 net.cpp:454] inception_4d/3x3_reduce <- inception_4c/output_inception_4c/output_0_split_1
I1125 19:29:19.176874 18775 net.cpp:411] inception_4d/3x3_reduce -> inception_4d/3x3_reduce
I1125 19:29:19.178437 18775 net.cpp:150] Setting up inception_4d/3x3_reduce
I1125 19:29:19.178452 18775 net.cpp:157] Top shape: 64 144 14 14 (1806336)
I1125 19:29:19.178457 18775 net.cpp:165] Memory required for data: 2981579268
I1125 19:29:19.178463 18775 layer_factory.hpp:76] Creating layer inception_4d/relu_3x3_reduce
I1125 19:29:19.178469 18775 net.cpp:106] Creating Layer inception_4d/relu_3x3_reduce
I1125 19:29:19.178473 18775 net.cpp:454] inception_4d/relu_3x3_reduce <- inception_4d/3x3_reduce
I1125 19:29:19.178479 18775 net.cpp:397] inception_4d/relu_3x3_reduce -> inception_4d/3x3_reduce (in-place)
I1125 19:29:19.178655 18775 net.cpp:150] Setting up inception_4d/relu_3x3_reduce
I1125 19:29:19.178668 18775 net.cpp:157] Top shape: 64 144 14 14 (1806336)
I1125 19:29:19.178670 18775 net.cpp:165] Memory required for data: 2988804612
I1125 19:29:19.178673 18775 layer_factory.hpp:76] Creating layer inception_4d/3x3
I1125 19:29:19.178683 18775 net.cpp:106] Creating Layer inception_4d/3x3
I1125 19:29:19.178686 18775 net.cpp:454] inception_4d/3x3 <- inception_4d/3x3_reduce
I1125 19:29:19.178699 18775 net.cpp:411] inception_4d/3x3 -> inception_4d/3x3
I1125 19:29:19.182651 18775 net.cpp:150] Setting up inception_4d/3x3
I1125 19:29:19.182667 18775 net.cpp:157] Top shape: 64 288 14 14 (3612672)
I1125 19:29:19.182670 18775 net.cpp:165] Memory required for data: 3003255300
I1125 19:29:19.182677 18775 layer_factory.hpp:76] Creating layer inception_4d/relu_3x3
I1125 19:29:19.182682 18775 net.cpp:106] Creating Layer inception_4d/relu_3x3
I1125 19:29:19.182687 18775 net.cpp:454] inception_4d/relu_3x3 <- inception_4d/3x3
I1125 19:29:19.182693 18775 net.cpp:397] inception_4d/relu_3x3 -> inception_4d/3x3 (in-place)
I1125 19:29:19.183007 18775 net.cpp:150] Setting up inception_4d/relu_3x3
I1125 19:29:19.183020 18775 net.cpp:157] Top shape: 64 288 14 14 (3612672)
I1125 19:29:19.183023 18775 net.cpp:165] Memory required for data: 3017705988
I1125 19:29:19.183027 18775 layer_factory.hpp:76] Creating layer inception_4d/5x5_reduce
I1125 19:29:19.183037 18775 net.cpp:106] Creating Layer inception_4d/5x5_reduce
I1125 19:29:19.183042 18775 net.cpp:454] inception_4d/5x5_reduce <- inception_4c/output_inception_4c/output_0_split_2
I1125 19:29:19.183048 18775 net.cpp:411] inception_4d/5x5_reduce -> inception_4d/5x5_reduce
I1125 19:29:19.184134 18775 net.cpp:150] Setting up inception_4d/5x5_reduce
I1125 19:29:19.184149 18775 net.cpp:157] Top shape: 64 32 14 14 (401408)
I1125 19:29:19.184154 18775 net.cpp:165] Memory required for data: 3019311620
I1125 19:29:19.184159 18775 layer_factory.hpp:76] Creating layer inception_4d/relu_5x5_reduce
I1125 19:29:19.184165 18775 net.cpp:106] Creating Layer inception_4d/relu_5x5_reduce
I1125 19:29:19.184168 18775 net.cpp:454] inception_4d/relu_5x5_reduce <- inception_4d/5x5_reduce
I1125 19:29:19.184175 18775 net.cpp:397] inception_4d/relu_5x5_reduce -> inception_4d/5x5_reduce (in-place)
I1125 19:29:19.184496 18775 net.cpp:150] Setting up inception_4d/relu_5x5_reduce
I1125 19:29:19.184510 18775 net.cpp:157] Top shape: 64 32 14 14 (401408)
I1125 19:29:19.184515 18775 net.cpp:165] Memory required for data: 3020917252
I1125 19:29:19.184520 18775 layer_factory.hpp:76] Creating layer inception_4d/5x5
I1125 19:29:19.184528 18775 net.cpp:106] Creating Layer inception_4d/5x5
I1125 19:29:19.184535 18775 net.cpp:454] inception_4d/5x5 <- inception_4d/5x5_reduce
I1125 19:29:19.184545 18775 net.cpp:411] inception_4d/5x5 -> inception_4d/5x5
I1125 19:29:19.185950 18775 net.cpp:150] Setting up inception_4d/5x5
I1125 19:29:19.185966 18775 net.cpp:157] Top shape: 64 64 14 14 (802816)
I1125 19:29:19.185968 18775 net.cpp:165] Memory required for data: 3024128516
I1125 19:29:19.185976 18775 layer_factory.hpp:76] Creating layer inception_4d/relu_5x5
I1125 19:29:19.185981 18775 net.cpp:106] Creating Layer inception_4d/relu_5x5
I1125 19:29:19.185986 18775 net.cpp:454] inception_4d/relu_5x5 <- inception_4d/5x5
I1125 19:29:19.185993 18775 net.cpp:397] inception_4d/relu_5x5 -> inception_4d/5x5 (in-place)
I1125 19:29:19.186177 18775 net.cpp:150] Setting up inception_4d/relu_5x5
I1125 19:29:19.186188 18775 net.cpp:157] Top shape: 64 64 14 14 (802816)
I1125 19:29:19.186192 18775 net.cpp:165] Memory required for data: 3027339780
I1125 19:29:19.186195 18775 layer_factory.hpp:76] Creating layer inception_4d/pool
I1125 19:29:19.186202 18775 net.cpp:106] Creating Layer inception_4d/pool
I1125 19:29:19.186205 18775 net.cpp:454] inception_4d/pool <- inception_4c/output_inception_4c/output_0_split_3
I1125 19:29:19.186210 18775 net.cpp:411] inception_4d/pool -> inception_4d/pool
I1125 19:29:19.186568 18775 net.cpp:150] Setting up inception_4d/pool
I1125 19:29:19.186581 18775 net.cpp:157] Top shape: 64 512 14 14 (6422528)
I1125 19:29:19.186585 18775 net.cpp:165] Memory required for data: 3053029892
I1125 19:29:19.186589 18775 layer_factory.hpp:76] Creating layer inception_4d/pool_proj
I1125 19:29:19.186597 18775 net.cpp:106] Creating Layer inception_4d/pool_proj
I1125 19:29:19.186602 18775 net.cpp:454] inception_4d/pool_proj <- inception_4d/pool
I1125 19:29:19.186609 18775 net.cpp:411] inception_4d/pool_proj -> inception_4d/pool_proj
I1125 19:29:19.187908 18775 net.cpp:150] Setting up inception_4d/pool_proj
I1125 19:29:19.187923 18775 net.cpp:157] Top shape: 64 64 14 14 (802816)
I1125 19:29:19.187927 18775 net.cpp:165] Memory required for data: 3056241156
I1125 19:29:19.187933 18775 layer_factory.hpp:76] Creating layer inception_4d/relu_pool_proj
I1125 19:29:19.187938 18775 net.cpp:106] Creating Layer inception_4d/relu_pool_proj
I1125 19:29:19.187953 18775 net.cpp:454] inception_4d/relu_pool_proj <- inception_4d/pool_proj
I1125 19:29:19.187961 18775 net.cpp:397] inception_4d/relu_pool_proj -> inception_4d/pool_proj (in-place)
I1125 19:29:19.188145 18775 net.cpp:150] Setting up inception_4d/relu_pool_proj
I1125 19:29:19.188158 18775 net.cpp:157] Top shape: 64 64 14 14 (802816)
I1125 19:29:19.188160 18775 net.cpp:165] Memory required for data: 3059452420
I1125 19:29:19.188164 18775 layer_factory.hpp:76] Creating layer inception_4d/output
I1125 19:29:19.188171 18775 net.cpp:106] Creating Layer inception_4d/output
I1125 19:29:19.188175 18775 net.cpp:454] inception_4d/output <- inception_4d/1x1
I1125 19:29:19.188180 18775 net.cpp:454] inception_4d/output <- inception_4d/3x3
I1125 19:29:19.188184 18775 net.cpp:454] inception_4d/output <- inception_4d/5x5
I1125 19:29:19.188187 18775 net.cpp:454] inception_4d/output <- inception_4d/pool_proj
I1125 19:29:19.188191 18775 net.cpp:411] inception_4d/output -> inception_4d/output
I1125 19:29:19.188227 18775 net.cpp:150] Setting up inception_4d/output
I1125 19:29:19.188233 18775 net.cpp:157] Top shape: 64 528 14 14 (6623232)
I1125 19:29:19.188236 18775 net.cpp:165] Memory required for data: 3085945348
I1125 19:29:19.188240 18775 layer_factory.hpp:76] Creating layer inception_4d/output_inception_4d/output_0_split
I1125 19:29:19.188246 18775 net.cpp:106] Creating Layer inception_4d/output_inception_4d/output_0_split
I1125 19:29:19.188248 18775 net.cpp:454] inception_4d/output_inception_4d/output_0_split <- inception_4d/output
I1125 19:29:19.188254 18775 net.cpp:411] inception_4d/output_inception_4d/output_0_split -> inception_4d/output_inception_4d/output_0_split_0
I1125 19:29:19.188261 18775 net.cpp:411] inception_4d/output_inception_4d/output_0_split -> inception_4d/output_inception_4d/output_0_split_1
I1125 19:29:19.188266 18775 net.cpp:411] inception_4d/output_inception_4d/output_0_split -> inception_4d/output_inception_4d/output_0_split_2
I1125 19:29:19.188272 18775 net.cpp:411] inception_4d/output_inception_4d/output_0_split -> inception_4d/output_inception_4d/output_0_split_3
I1125 19:29:19.188277 18775 net.cpp:411] inception_4d/output_inception_4d/output_0_split -> inception_4d/output_inception_4d/output_0_split_4
I1125 19:29:19.188364 18775 net.cpp:150] Setting up inception_4d/output_inception_4d/output_0_split
I1125 19:29:19.188372 18775 net.cpp:157] Top shape: 64 528 14 14 (6623232)
I1125 19:29:19.188376 18775 net.cpp:157] Top shape: 64 528 14 14 (6623232)
I1125 19:29:19.188380 18775 net.cpp:157] Top shape: 64 528 14 14 (6623232)
I1125 19:29:19.188383 18775 net.cpp:157] Top shape: 64 528 14 14 (6623232)
I1125 19:29:19.188386 18775 net.cpp:157] Top shape: 64 528 14 14 (6623232)
I1125 19:29:19.188390 18775 net.cpp:165] Memory required for data: 3218409988
I1125 19:29:19.188392 18775 layer_factory.hpp:76] Creating layer loss2/ave_pool
I1125 19:29:19.188398 18775 net.cpp:106] Creating Layer loss2/ave_pool
I1125 19:29:19.188401 18775 net.cpp:454] loss2/ave_pool <- inception_4d/output_inception_4d/output_0_split_0
I1125 19:29:19.188407 18775 net.cpp:411] loss2/ave_pool -> loss2/ave_pool
I1125 19:29:19.188752 18775 net.cpp:150] Setting up loss2/ave_pool
I1125 19:29:19.188766 18775 net.cpp:157] Top shape: 64 528 4 4 (540672)
I1125 19:29:19.188771 18775 net.cpp:165] Memory required for data: 3220572676
I1125 19:29:19.188773 18775 layer_factory.hpp:76] Creating layer loss2/conv
I1125 19:29:19.188782 18775 net.cpp:106] Creating Layer loss2/conv
I1125 19:29:19.188786 18775 net.cpp:454] loss2/conv <- loss2/ave_pool
I1125 19:29:19.188793 18775 net.cpp:411] loss2/conv -> loss2/conv
I1125 19:29:19.190604 18775 net.cpp:150] Setting up loss2/conv
I1125 19:29:19.190621 18775 net.cpp:157] Top shape: 64 128 4 4 (131072)
I1125 19:29:19.190625 18775 net.cpp:165] Memory required for data: 3221096964
I1125 19:29:19.190631 18775 layer_factory.hpp:76] Creating layer loss2/relu_conv
I1125 19:29:19.190637 18775 net.cpp:106] Creating Layer loss2/relu_conv
I1125 19:29:19.190641 18775 net.cpp:454] loss2/relu_conv <- loss2/conv
I1125 19:29:19.190647 18775 net.cpp:397] loss2/relu_conv -> loss2/conv (in-place)
I1125 19:29:19.191092 18775 net.cpp:150] Setting up loss2/relu_conv
I1125 19:29:19.191107 18775 net.cpp:157] Top shape: 64 128 4 4 (131072)
I1125 19:29:19.191109 18775 net.cpp:165] Memory required for data: 3221621252
I1125 19:29:19.191113 18775 layer_factory.hpp:76] Creating layer loss2/fc
I1125 19:29:19.191121 18775 net.cpp:106] Creating Layer loss2/fc
I1125 19:29:19.191125 18775 net.cpp:454] loss2/fc <- loss2/conv
I1125 19:29:19.191133 18775 net.cpp:411] loss2/fc -> loss2/fc
I1125 19:29:19.206631 18775 net.cpp:150] Setting up loss2/fc
I1125 19:29:19.206645 18775 net.cpp:157] Top shape: 64 1024 (65536)
I1125 19:29:19.206650 18775 net.cpp:165] Memory required for data: 3221883396
I1125 19:29:19.206655 18775 layer_factory.hpp:76] Creating layer loss2/relu_fc
I1125 19:29:19.206661 18775 net.cpp:106] Creating Layer loss2/relu_fc
I1125 19:29:19.206665 18775 net.cpp:454] loss2/relu_fc <- loss2/fc
I1125 19:29:19.206672 18775 net.cpp:397] loss2/relu_fc -> loss2/fc (in-place)
I1125 19:29:19.206869 18775 net.cpp:150] Setting up loss2/relu_fc
I1125 19:29:19.206882 18775 net.cpp:157] Top shape: 64 1024 (65536)
I1125 19:29:19.206887 18775 net.cpp:165] Memory required for data: 3222145540
I1125 19:29:19.206889 18775 layer_factory.hpp:76] Creating layer loss2/drop_fc
I1125 19:29:19.206897 18775 net.cpp:106] Creating Layer loss2/drop_fc
I1125 19:29:19.206899 18775 net.cpp:454] loss2/drop_fc <- loss2/fc
I1125 19:29:19.206904 18775 net.cpp:397] loss2/drop_fc -> loss2/fc (in-place)
I1125 19:29:19.206943 18775 net.cpp:150] Setting up loss2/drop_fc
I1125 19:29:19.206953 18775 net.cpp:157] Top shape: 64 1024 (65536)
I1125 19:29:19.206955 18775 net.cpp:165] Memory required for data: 3222407684
I1125 19:29:19.206959 18775 layer_factory.hpp:76] Creating layer loss2/classifier-attribute
I1125 19:29:19.206966 18775 net.cpp:106] Creating Layer loss2/classifier-attribute
I1125 19:29:19.206970 18775 net.cpp:454] loss2/classifier-attribute <- loss2/fc
I1125 19:29:19.206975 18775 net.cpp:411] loss2/classifier-attribute -> loss2/classifier-attribute
I1125 19:29:19.207170 18775 net.cpp:150] Setting up loss2/classifier-attribute
I1125 19:29:19.207180 18775 net.cpp:157] Top shape: 64 6 (384)
I1125 19:29:19.207183 18775 net.cpp:165] Memory required for data: 3222409220
I1125 19:29:19.207190 18775 layer_factory.hpp:76] Creating layer loss2/loss
I1125 19:29:19.207196 18775 net.cpp:106] Creating Layer loss2/loss
I1125 19:29:19.207201 18775 net.cpp:454] loss2/loss <- loss2/classifier-attribute
I1125 19:29:19.207204 18775 net.cpp:454] loss2/loss <- label_data_1_split_1
I1125 19:29:19.207211 18775 net.cpp:411] loss2/loss -> loss2/loss1
I1125 19:29:19.207218 18775 layer_factory.hpp:76] Creating layer loss2/loss
I1125 19:29:19.207645 18775 net.cpp:150] Setting up loss2/loss
I1125 19:29:19.207659 18775 net.cpp:157] Top shape: (1)
I1125 19:29:19.207664 18775 net.cpp:160]     with loss weight 0.3
I1125 19:29:19.207674 18775 net.cpp:165] Memory required for data: 3222409224
I1125 19:29:19.207677 18775 layer_factory.hpp:76] Creating layer inception_4e/1x1
I1125 19:29:19.207690 18775 net.cpp:106] Creating Layer inception_4e/1x1
I1125 19:29:19.207702 18775 net.cpp:454] inception_4e/1x1 <- inception_4d/output_inception_4d/output_0_split_1
I1125 19:29:19.207710 18775 net.cpp:411] inception_4e/1x1 -> inception_4e/1x1
I1125 19:29:19.209676 18775 net.cpp:150] Setting up inception_4e/1x1
I1125 19:29:19.209692 18775 net.cpp:157] Top shape: 64 256 14 14 (3211264)
I1125 19:29:19.209695 18775 net.cpp:165] Memory required for data: 3235254280
I1125 19:29:19.209702 18775 layer_factory.hpp:76] Creating layer inception_4e/relu_1x1
I1125 19:29:19.209709 18775 net.cpp:106] Creating Layer inception_4e/relu_1x1
I1125 19:29:19.209713 18775 net.cpp:454] inception_4e/relu_1x1 <- inception_4e/1x1
I1125 19:29:19.209718 18775 net.cpp:397] inception_4e/relu_1x1 -> inception_4e/1x1 (in-place)
I1125 19:29:19.209897 18775 net.cpp:150] Setting up inception_4e/relu_1x1
I1125 19:29:19.209908 18775 net.cpp:157] Top shape: 64 256 14 14 (3211264)
I1125 19:29:19.209910 18775 net.cpp:165] Memory required for data: 3248099336
I1125 19:29:19.209913 18775 layer_factory.hpp:76] Creating layer inception_4e/3x3_reduce
I1125 19:29:19.209923 18775 net.cpp:106] Creating Layer inception_4e/3x3_reduce
I1125 19:29:19.209926 18775 net.cpp:454] inception_4e/3x3_reduce <- inception_4d/output_inception_4d/output_0_split_2
I1125 19:29:19.209933 18775 net.cpp:411] inception_4e/3x3_reduce -> inception_4e/3x3_reduce
I1125 19:29:19.212020 18775 net.cpp:150] Setting up inception_4e/3x3_reduce
I1125 19:29:19.212035 18775 net.cpp:157] Top shape: 64 160 14 14 (2007040)
I1125 19:29:19.212039 18775 net.cpp:165] Memory required for data: 3256127496
I1125 19:29:19.212045 18775 layer_factory.hpp:76] Creating layer inception_4e/relu_3x3_reduce
I1125 19:29:19.212051 18775 net.cpp:106] Creating Layer inception_4e/relu_3x3_reduce
I1125 19:29:19.212055 18775 net.cpp:454] inception_4e/relu_3x3_reduce <- inception_4e/3x3_reduce
I1125 19:29:19.212062 18775 net.cpp:397] inception_4e/relu_3x3_reduce -> inception_4e/3x3_reduce (in-place)
I1125 19:29:19.212389 18775 net.cpp:150] Setting up inception_4e/relu_3x3_reduce
I1125 19:29:19.212404 18775 net.cpp:157] Top shape: 64 160 14 14 (2007040)
I1125 19:29:19.212407 18775 net.cpp:165] Memory required for data: 3264155656
I1125 19:29:19.212411 18775 layer_factory.hpp:76] Creating layer inception_4e/3x3
I1125 19:29:19.212420 18775 net.cpp:106] Creating Layer inception_4e/3x3
I1125 19:29:19.212424 18775 net.cpp:454] inception_4e/3x3 <- inception_4e/3x3_reduce
I1125 19:29:19.212431 18775 net.cpp:411] inception_4e/3x3 -> inception_4e/3x3
I1125 19:29:19.216927 18775 net.cpp:150] Setting up inception_4e/3x3
I1125 19:29:19.216943 18775 net.cpp:157] Top shape: 64 320 14 14 (4014080)
I1125 19:29:19.216946 18775 net.cpp:165] Memory required for data: 3280211976
I1125 19:29:19.216953 18775 layer_factory.hpp:76] Creating layer inception_4e/relu_3x3
I1125 19:29:19.216959 18775 net.cpp:106] Creating Layer inception_4e/relu_3x3
I1125 19:29:19.216964 18775 net.cpp:454] inception_4e/relu_3x3 <- inception_4e/3x3
I1125 19:29:19.216969 18775 net.cpp:397] inception_4e/relu_3x3 -> inception_4e/3x3 (in-place)
I1125 19:29:19.217288 18775 net.cpp:150] Setting up inception_4e/relu_3x3
I1125 19:29:19.217303 18775 net.cpp:157] Top shape: 64 320 14 14 (4014080)
I1125 19:29:19.217308 18775 net.cpp:165] Memory required for data: 3296268296
I1125 19:29:19.217310 18775 layer_factory.hpp:76] Creating layer inception_4e/5x5_reduce
I1125 19:29:19.217319 18775 net.cpp:106] Creating Layer inception_4e/5x5_reduce
I1125 19:29:19.217324 18775 net.cpp:454] inception_4e/5x5_reduce <- inception_4d/output_inception_4d/output_0_split_3
I1125 19:29:19.217330 18775 net.cpp:411] inception_4e/5x5_reduce -> inception_4e/5x5_reduce
I1125 19:29:19.218574 18775 net.cpp:150] Setting up inception_4e/5x5_reduce
I1125 19:29:19.218590 18775 net.cpp:157] Top shape: 64 32 14 14 (401408)
I1125 19:29:19.218592 18775 net.cpp:165] Memory required for data: 3297873928
I1125 19:29:19.218600 18775 layer_factory.hpp:76] Creating layer inception_4e/relu_5x5_reduce
I1125 19:29:19.218605 18775 net.cpp:106] Creating Layer inception_4e/relu_5x5_reduce
I1125 19:29:19.218610 18775 net.cpp:454] inception_4e/relu_5x5_reduce <- inception_4e/5x5_reduce
I1125 19:29:19.218616 18775 net.cpp:397] inception_4e/relu_5x5_reduce -> inception_4e/5x5_reduce (in-place)
I1125 19:29:19.218792 18775 net.cpp:150] Setting up inception_4e/relu_5x5_reduce
I1125 19:29:19.218803 18775 net.cpp:157] Top shape: 64 32 14 14 (401408)
I1125 19:29:19.218807 18775 net.cpp:165] Memory required for data: 3299479560
I1125 19:29:19.218811 18775 layer_factory.hpp:76] Creating layer inception_4e/5x5
I1125 19:29:19.218834 18775 net.cpp:106] Creating Layer inception_4e/5x5
I1125 19:29:19.218839 18775 net.cpp:454] inception_4e/5x5 <- inception_4e/5x5_reduce
I1125 19:29:19.218845 18775 net.cpp:411] inception_4e/5x5 -> inception_4e/5x5
I1125 19:29:19.220604 18775 net.cpp:150] Setting up inception_4e/5x5
I1125 19:29:19.220619 18775 net.cpp:157] Top shape: 64 128 14 14 (1605632)
I1125 19:29:19.220623 18775 net.cpp:165] Memory required for data: 3305902088
I1125 19:29:19.220629 18775 layer_factory.hpp:76] Creating layer inception_4e/relu_5x5
I1125 19:29:19.220638 18775 net.cpp:106] Creating Layer inception_4e/relu_5x5
I1125 19:29:19.220641 18775 net.cpp:454] inception_4e/relu_5x5 <- inception_4e/5x5
I1125 19:29:19.220649 18775 net.cpp:397] inception_4e/relu_5x5 -> inception_4e/5x5 (in-place)
I1125 19:29:19.220971 18775 net.cpp:150] Setting up inception_4e/relu_5x5
I1125 19:29:19.220985 18775 net.cpp:157] Top shape: 64 128 14 14 (1605632)
I1125 19:29:19.220990 18775 net.cpp:165] Memory required for data: 3312324616
I1125 19:29:19.220993 18775 layer_factory.hpp:76] Creating layer inception_4e/pool
I1125 19:29:19.221001 18775 net.cpp:106] Creating Layer inception_4e/pool
I1125 19:29:19.221014 18775 net.cpp:454] inception_4e/pool <- inception_4d/output_inception_4d/output_0_split_4
I1125 19:29:19.221019 18775 net.cpp:411] inception_4e/pool -> inception_4e/pool
I1125 19:29:19.221240 18775 net.cpp:150] Setting up inception_4e/pool
I1125 19:29:19.221252 18775 net.cpp:157] Top shape: 64 528 14 14 (6623232)
I1125 19:29:19.221256 18775 net.cpp:165] Memory required for data: 3338817544
I1125 19:29:19.221259 18775 layer_factory.hpp:76] Creating layer inception_4e/pool_proj
I1125 19:29:19.221268 18775 net.cpp:106] Creating Layer inception_4e/pool_proj
I1125 19:29:19.221272 18775 net.cpp:454] inception_4e/pool_proj <- inception_4e/pool
I1125 19:29:19.221277 18775 net.cpp:411] inception_4e/pool_proj -> inception_4e/pool_proj
I1125 19:29:19.222812 18775 net.cpp:150] Setting up inception_4e/pool_proj
I1125 19:29:19.222826 18775 net.cpp:157] Top shape: 64 128 14 14 (1605632)
I1125 19:29:19.222831 18775 net.cpp:165] Memory required for data: 3345240072
I1125 19:29:19.222836 18775 layer_factory.hpp:76] Creating layer inception_4e/relu_pool_proj
I1125 19:29:19.222842 18775 net.cpp:106] Creating Layer inception_4e/relu_pool_proj
I1125 19:29:19.222846 18775 net.cpp:454] inception_4e/relu_pool_proj <- inception_4e/pool_proj
I1125 19:29:19.222851 18775 net.cpp:397] inception_4e/relu_pool_proj -> inception_4e/pool_proj (in-place)
I1125 19:29:19.223177 18775 net.cpp:150] Setting up inception_4e/relu_pool_proj
I1125 19:29:19.223191 18775 net.cpp:157] Top shape: 64 128 14 14 (1605632)
I1125 19:29:19.223194 18775 net.cpp:165] Memory required for data: 3351662600
I1125 19:29:19.223198 18775 layer_factory.hpp:76] Creating layer inception_4e/output
I1125 19:29:19.223204 18775 net.cpp:106] Creating Layer inception_4e/output
I1125 19:29:19.223208 18775 net.cpp:454] inception_4e/output <- inception_4e/1x1
I1125 19:29:19.223212 18775 net.cpp:454] inception_4e/output <- inception_4e/3x3
I1125 19:29:19.223217 18775 net.cpp:454] inception_4e/output <- inception_4e/5x5
I1125 19:29:19.223220 18775 net.cpp:454] inception_4e/output <- inception_4e/pool_proj
I1125 19:29:19.223225 18775 net.cpp:411] inception_4e/output -> inception_4e/output
I1125 19:29:19.223264 18775 net.cpp:150] Setting up inception_4e/output
I1125 19:29:19.223274 18775 net.cpp:157] Top shape: 64 832 14 14 (10436608)
I1125 19:29:19.223278 18775 net.cpp:165] Memory required for data: 3393409032
I1125 19:29:19.223280 18775 layer_factory.hpp:76] Creating layer pool4/3x3_s2
I1125 19:29:19.223286 18775 net.cpp:106] Creating Layer pool4/3x3_s2
I1125 19:29:19.223289 18775 net.cpp:454] pool4/3x3_s2 <- inception_4e/output
I1125 19:29:19.223294 18775 net.cpp:411] pool4/3x3_s2 -> pool4/3x3_s2
I1125 19:29:19.223513 18775 net.cpp:150] Setting up pool4/3x3_s2
I1125 19:29:19.223525 18775 net.cpp:157] Top shape: 64 832 7 7 (2609152)
I1125 19:29:19.223527 18775 net.cpp:165] Memory required for data: 3403845640
I1125 19:29:19.223531 18775 layer_factory.hpp:76] Creating layer pool4/3x3_s2_pool4/3x3_s2_0_split
I1125 19:29:19.223536 18775 net.cpp:106] Creating Layer pool4/3x3_s2_pool4/3x3_s2_0_split
I1125 19:29:19.223541 18775 net.cpp:454] pool4/3x3_s2_pool4/3x3_s2_0_split <- pool4/3x3_s2
I1125 19:29:19.223546 18775 net.cpp:411] pool4/3x3_s2_pool4/3x3_s2_0_split -> pool4/3x3_s2_pool4/3x3_s2_0_split_0
I1125 19:29:19.223552 18775 net.cpp:411] pool4/3x3_s2_pool4/3x3_s2_0_split -> pool4/3x3_s2_pool4/3x3_s2_0_split_1
I1125 19:29:19.223558 18775 net.cpp:411] pool4/3x3_s2_pool4/3x3_s2_0_split -> pool4/3x3_s2_pool4/3x3_s2_0_split_2
I1125 19:29:19.223563 18775 net.cpp:411] pool4/3x3_s2_pool4/3x3_s2_0_split -> pool4/3x3_s2_pool4/3x3_s2_0_split_3
I1125 19:29:19.223641 18775 net.cpp:150] Setting up pool4/3x3_s2_pool4/3x3_s2_0_split
I1125 19:29:19.223649 18775 net.cpp:157] Top shape: 64 832 7 7 (2609152)
I1125 19:29:19.223654 18775 net.cpp:157] Top shape: 64 832 7 7 (2609152)
I1125 19:29:19.223656 18775 net.cpp:157] Top shape: 64 832 7 7 (2609152)
I1125 19:29:19.223660 18775 net.cpp:157] Top shape: 64 832 7 7 (2609152)
I1125 19:29:19.223662 18775 net.cpp:165] Memory required for data: 3445592072
I1125 19:29:19.223666 18775 layer_factory.hpp:76] Creating layer inception_5a/1x1
I1125 19:29:19.223675 18775 net.cpp:106] Creating Layer inception_5a/1x1
I1125 19:29:19.223678 18775 net.cpp:454] inception_5a/1x1 <- pool4/3x3_s2_pool4/3x3_s2_0_split_0
I1125 19:29:19.223683 18775 net.cpp:411] inception_5a/1x1 -> inception_5a/1x1
I1125 19:29:19.226629 18775 net.cpp:150] Setting up inception_5a/1x1
I1125 19:29:19.226644 18775 net.cpp:157] Top shape: 64 256 7 7 (802816)
I1125 19:29:19.226649 18775 net.cpp:165] Memory required for data: 3448803336
I1125 19:29:19.226655 18775 layer_factory.hpp:76] Creating layer inception_5a/relu_1x1
I1125 19:29:19.226662 18775 net.cpp:106] Creating Layer inception_5a/relu_1x1
I1125 19:29:19.226666 18775 net.cpp:454] inception_5a/relu_1x1 <- inception_5a/1x1
I1125 19:29:19.226672 18775 net.cpp:397] inception_5a/relu_1x1 -> inception_5a/1x1 (in-place)
I1125 19:29:19.226985 18775 net.cpp:150] Setting up inception_5a/relu_1x1
I1125 19:29:19.227001 18775 net.cpp:157] Top shape: 64 256 7 7 (802816)
I1125 19:29:19.227005 18775 net.cpp:165] Memory required for data: 3452014600
I1125 19:29:19.227008 18775 layer_factory.hpp:76] Creating layer inception_5a/3x3_reduce
I1125 19:29:19.227016 18775 net.cpp:106] Creating Layer inception_5a/3x3_reduce
I1125 19:29:19.227020 18775 net.cpp:454] inception_5a/3x3_reduce <- pool4/3x3_s2_pool4/3x3_s2_0_split_1
I1125 19:29:19.227030 18775 net.cpp:411] inception_5a/3x3_reduce -> inception_5a/3x3_reduce
I1125 19:29:19.229454 18775 net.cpp:150] Setting up inception_5a/3x3_reduce
I1125 19:29:19.229470 18775 net.cpp:157] Top shape: 64 160 7 7 (501760)
I1125 19:29:19.229473 18775 net.cpp:165] Memory required for data: 3454021640
I1125 19:29:19.229480 18775 layer_factory.hpp:76] Creating layer inception_5a/relu_3x3_reduce
I1125 19:29:19.229486 18775 net.cpp:106] Creating Layer inception_5a/relu_3x3_reduce
I1125 19:29:19.229491 18775 net.cpp:454] inception_5a/relu_3x3_reduce <- inception_5a/3x3_reduce
I1125 19:29:19.229498 18775 net.cpp:397] inception_5a/relu_3x3_reduce -> inception_5a/3x3_reduce (in-place)
I1125 19:29:19.229827 18775 net.cpp:150] Setting up inception_5a/relu_3x3_reduce
I1125 19:29:19.229841 18775 net.cpp:157] Top shape: 64 160 7 7 (501760)
I1125 19:29:19.229846 18775 net.cpp:165] Memory required for data: 3456028680
I1125 19:29:19.229848 18775 layer_factory.hpp:76] Creating layer inception_5a/3x3
I1125 19:29:19.229857 18775 net.cpp:106] Creating Layer inception_5a/3x3
I1125 19:29:19.229861 18775 net.cpp:454] inception_5a/3x3 <- inception_5a/3x3_reduce
I1125 19:29:19.229868 18775 net.cpp:411] inception_5a/3x3 -> inception_5a/3x3
I1125 19:29:19.234529 18775 net.cpp:150] Setting up inception_5a/3x3
I1125 19:29:19.234544 18775 net.cpp:157] Top shape: 64 320 7 7 (1003520)
I1125 19:29:19.234547 18775 net.cpp:165] Memory required for data: 3460042760
I1125 19:29:19.234554 18775 layer_factory.hpp:76] Creating layer inception_5a/relu_3x3
I1125 19:29:19.234561 18775 net.cpp:106] Creating Layer inception_5a/relu_3x3
I1125 19:29:19.234565 18775 net.cpp:454] inception_5a/relu_3x3 <- inception_5a/3x3
I1125 19:29:19.234571 18775 net.cpp:397] inception_5a/relu_3x3 -> inception_5a/3x3 (in-place)
I1125 19:29:19.234756 18775 net.cpp:150] Setting up inception_5a/relu_3x3
I1125 19:29:19.234769 18775 net.cpp:157] Top shape: 64 320 7 7 (1003520)
I1125 19:29:19.234773 18775 net.cpp:165] Memory required for data: 3464056840
I1125 19:29:19.234776 18775 layer_factory.hpp:76] Creating layer inception_5a/5x5_reduce
I1125 19:29:19.234786 18775 net.cpp:106] Creating Layer inception_5a/5x5_reduce
I1125 19:29:19.234789 18775 net.cpp:454] inception_5a/5x5_reduce <- pool4/3x3_s2_pool4/3x3_s2_0_split_2
I1125 19:29:19.234796 18775 net.cpp:411] inception_5a/5x5_reduce -> inception_5a/5x5_reduce
I1125 19:29:19.236141 18775 net.cpp:150] Setting up inception_5a/5x5_reduce
I1125 19:29:19.236156 18775 net.cpp:157] Top shape: 64 32 7 7 (100352)
I1125 19:29:19.236160 18775 net.cpp:165] Memory required for data: 3464458248
I1125 19:29:19.236166 18775 layer_factory.hpp:76] Creating layer inception_5a/relu_5x5_reduce
I1125 19:29:19.236171 18775 net.cpp:106] Creating Layer inception_5a/relu_5x5_reduce
I1125 19:29:19.236176 18775 net.cpp:454] inception_5a/relu_5x5_reduce <- inception_5a/5x5_reduce
I1125 19:29:19.236182 18775 net.cpp:397] inception_5a/relu_5x5_reduce -> inception_5a/5x5_reduce (in-place)
I1125 19:29:19.236366 18775 net.cpp:150] Setting up inception_5a/relu_5x5_reduce
I1125 19:29:19.236378 18775 net.cpp:157] Top shape: 64 32 7 7 (100352)
I1125 19:29:19.236382 18775 net.cpp:165] Memory required for data: 3464859656
I1125 19:29:19.236397 18775 layer_factory.hpp:76] Creating layer inception_5a/5x5
I1125 19:29:19.236407 18775 net.cpp:106] Creating Layer inception_5a/5x5
I1125 19:29:19.236412 18775 net.cpp:454] inception_5a/5x5 <- inception_5a/5x5_reduce
I1125 19:29:19.236418 18775 net.cpp:411] inception_5a/5x5 -> inception_5a/5x5
I1125 19:29:19.238991 18775 net.cpp:150] Setting up inception_5a/5x5
I1125 19:29:19.239029 18775 net.cpp:157] Top shape: 64 128 7 7 (401408)
I1125 19:29:19.239038 18775 net.cpp:165] Memory required for data: 3466465288
I1125 19:29:19.239055 18775 layer_factory.hpp:76] Creating layer inception_5a/relu_5x5
I1125 19:29:19.239069 18775 net.cpp:106] Creating Layer inception_5a/relu_5x5
I1125 19:29:19.239079 18775 net.cpp:454] inception_5a/relu_5x5 <- inception_5a/5x5
I1125 19:29:19.239092 18775 net.cpp:397] inception_5a/relu_5x5 -> inception_5a/5x5 (in-place)
I1125 19:29:19.239778 18775 net.cpp:150] Setting up inception_5a/relu_5x5
I1125 19:29:19.239809 18775 net.cpp:157] Top shape: 64 128 7 7 (401408)
I1125 19:29:19.239816 18775 net.cpp:165] Memory required for data: 3468070920
I1125 19:29:19.239825 18775 layer_factory.hpp:76] Creating layer inception_5a/pool
I1125 19:29:19.239838 18775 net.cpp:106] Creating Layer inception_5a/pool
I1125 19:29:19.239848 18775 net.cpp:454] inception_5a/pool <- pool4/3x3_s2_pool4/3x3_s2_0_split_3
I1125 19:29:19.239864 18775 net.cpp:411] inception_5a/pool -> inception_5a/pool
I1125 19:29:19.240419 18775 net.cpp:150] Setting up inception_5a/pool
I1125 19:29:19.240448 18775 net.cpp:157] Top shape: 64 832 7 7 (2609152)
I1125 19:29:19.240456 18775 net.cpp:165] Memory required for data: 3478507528
I1125 19:29:19.240464 18775 layer_factory.hpp:76] Creating layer inception_5a/pool_proj
I1125 19:29:19.240481 18775 net.cpp:106] Creating Layer inception_5a/pool_proj
I1125 19:29:19.240491 18775 net.cpp:454] inception_5a/pool_proj <- inception_5a/pool
I1125 19:29:19.240507 18775 net.cpp:411] inception_5a/pool_proj -> inception_5a/pool_proj
I1125 19:29:19.245462 18775 net.cpp:150] Setting up inception_5a/pool_proj
I1125 19:29:19.245496 18775 net.cpp:157] Top shape: 64 128 7 7 (401408)
I1125 19:29:19.245506 18775 net.cpp:165] Memory required for data: 3480113160
I1125 19:29:19.245519 18775 layer_factory.hpp:76] Creating layer inception_5a/relu_pool_proj
I1125 19:29:19.245535 18775 net.cpp:106] Creating Layer inception_5a/relu_pool_proj
I1125 19:29:19.245545 18775 net.cpp:454] inception_5a/relu_pool_proj <- inception_5a/pool_proj
I1125 19:29:19.245558 18775 net.cpp:397] inception_5a/relu_pool_proj -> inception_5a/pool_proj (in-place)
I1125 19:29:19.246237 18775 net.cpp:150] Setting up inception_5a/relu_pool_proj
I1125 19:29:19.246266 18775 net.cpp:157] Top shape: 64 128 7 7 (401408)
I1125 19:29:19.246275 18775 net.cpp:165] Memory required for data: 3481718792
I1125 19:29:19.246284 18775 layer_factory.hpp:76] Creating layer inception_5a/output
I1125 19:29:19.246299 18775 net.cpp:106] Creating Layer inception_5a/output
I1125 19:29:19.246309 18775 net.cpp:454] inception_5a/output <- inception_5a/1x1
I1125 19:29:19.246320 18775 net.cpp:454] inception_5a/output <- inception_5a/3x3
I1125 19:29:19.246330 18775 net.cpp:454] inception_5a/output <- inception_5a/5x5
I1125 19:29:19.246338 18775 net.cpp:454] inception_5a/output <- inception_5a/pool_proj
I1125 19:29:19.246348 18775 net.cpp:411] inception_5a/output -> inception_5a/output
I1125 19:29:19.246433 18775 net.cpp:150] Setting up inception_5a/output
I1125 19:29:19.246450 18775 net.cpp:157] Top shape: 64 832 7 7 (2609152)
I1125 19:29:19.246458 18775 net.cpp:165] Memory required for data: 3492155400
I1125 19:29:19.246464 18775 layer_factory.hpp:76] Creating layer inception_5a/output_inception_5a/output_0_split
I1125 19:29:19.246476 18775 net.cpp:106] Creating Layer inception_5a/output_inception_5a/output_0_split
I1125 19:29:19.246484 18775 net.cpp:454] inception_5a/output_inception_5a/output_0_split <- inception_5a/output
I1125 19:29:19.246498 18775 net.cpp:411] inception_5a/output_inception_5a/output_0_split -> inception_5a/output_inception_5a/output_0_split_0
I1125 19:29:19.246515 18775 net.cpp:411] inception_5a/output_inception_5a/output_0_split -> inception_5a/output_inception_5a/output_0_split_1
I1125 19:29:19.246536 18775 net.cpp:411] inception_5a/output_inception_5a/output_0_split -> inception_5a/output_inception_5a/output_0_split_2
I1125 19:29:19.246551 18775 net.cpp:411] inception_5a/output_inception_5a/output_0_split -> inception_5a/output_inception_5a/output_0_split_3
I1125 19:29:19.246731 18775 net.cpp:150] Setting up inception_5a/output_inception_5a/output_0_split
I1125 19:29:19.246752 18775 net.cpp:157] Top shape: 64 832 7 7 (2609152)
I1125 19:29:19.246760 18775 net.cpp:157] Top shape: 64 832 7 7 (2609152)
I1125 19:29:19.246769 18775 net.cpp:157] Top shape: 64 832 7 7 (2609152)
I1125 19:29:19.246778 18775 net.cpp:157] Top shape: 64 832 7 7 (2609152)
I1125 19:29:19.246785 18775 net.cpp:165] Memory required for data: 3533901832
I1125 19:29:19.246793 18775 layer_factory.hpp:76] Creating layer inception_5b/1x1
I1125 19:29:19.246808 18775 net.cpp:106] Creating Layer inception_5b/1x1
I1125 19:29:19.246815 18775 net.cpp:454] inception_5b/1x1 <- inception_5a/output_inception_5a/output_0_split_0
I1125 19:29:19.246832 18775 net.cpp:411] inception_5b/1x1 -> inception_5b/1x1
I1125 19:29:19.251212 18775 net.cpp:150] Setting up inception_5b/1x1
I1125 19:29:19.251229 18775 net.cpp:157] Top shape: 64 384 7 7 (1204224)
I1125 19:29:19.251232 18775 net.cpp:165] Memory required for data: 3538718728
I1125 19:29:19.251240 18775 layer_factory.hpp:76] Creating layer inception_5b/relu_1x1
I1125 19:29:19.251245 18775 net.cpp:106] Creating Layer inception_5b/relu_1x1
I1125 19:29:19.251250 18775 net.cpp:454] inception_5b/relu_1x1 <- inception_5b/1x1
I1125 19:29:19.251255 18775 net.cpp:397] inception_5b/relu_1x1 -> inception_5b/1x1 (in-place)
I1125 19:29:19.251579 18775 net.cpp:150] Setting up inception_5b/relu_1x1
I1125 19:29:19.251595 18775 net.cpp:157] Top shape: 64 384 7 7 (1204224)
I1125 19:29:19.251597 18775 net.cpp:165] Memory required for data: 3543535624
I1125 19:29:19.251601 18775 layer_factory.hpp:76] Creating layer inception_5b/3x3_reduce
I1125 19:29:19.251610 18775 net.cpp:106] Creating Layer inception_5b/3x3_reduce
I1125 19:29:19.251615 18775 net.cpp:454] inception_5b/3x3_reduce <- inception_5a/output_inception_5a/output_0_split_1
I1125 19:29:19.251621 18775 net.cpp:411] inception_5b/3x3_reduce -> inception_5b/3x3_reduce
I1125 19:29:19.254204 18775 net.cpp:150] Setting up inception_5b/3x3_reduce
I1125 19:29:19.254220 18775 net.cpp:157] Top shape: 64 192 7 7 (602112)
I1125 19:29:19.254222 18775 net.cpp:165] Memory required for data: 3545944072
I1125 19:29:19.254230 18775 layer_factory.hpp:76] Creating layer inception_5b/relu_3x3_reduce
I1125 19:29:19.254236 18775 net.cpp:106] Creating Layer inception_5b/relu_3x3_reduce
I1125 19:29:19.254241 18775 net.cpp:454] inception_5b/relu_3x3_reduce <- inception_5b/3x3_reduce
I1125 19:29:19.254247 18775 net.cpp:397] inception_5b/relu_3x3_reduce -> inception_5b/3x3_reduce (in-place)
I1125 19:29:19.254431 18775 net.cpp:150] Setting up inception_5b/relu_3x3_reduce
I1125 19:29:19.254442 18775 net.cpp:157] Top shape: 64 192 7 7 (602112)
I1125 19:29:19.254446 18775 net.cpp:165] Memory required for data: 3548352520
I1125 19:29:19.254449 18775 layer_factory.hpp:76] Creating layer inception_5b/3x3
I1125 19:29:19.254458 18775 net.cpp:106] Creating Layer inception_5b/3x3
I1125 19:29:19.254462 18775 net.cpp:454] inception_5b/3x3 <- inception_5b/3x3_reduce
I1125 19:29:19.254469 18775 net.cpp:411] inception_5b/3x3 -> inception_5b/3x3
I1125 19:29:19.260778 18775 net.cpp:150] Setting up inception_5b/3x3
I1125 19:29:19.260795 18775 net.cpp:157] Top shape: 64 384 7 7 (1204224)
I1125 19:29:19.260799 18775 net.cpp:165] Memory required for data: 3553169416
I1125 19:29:19.260805 18775 layer_factory.hpp:76] Creating layer inception_5b/relu_3x3
I1125 19:29:19.260812 18775 net.cpp:106] Creating Layer inception_5b/relu_3x3
I1125 19:29:19.260815 18775 net.cpp:454] inception_5b/relu_3x3 <- inception_5b/3x3
I1125 19:29:19.260823 18775 net.cpp:397] inception_5b/relu_3x3 -> inception_5b/3x3 (in-place)
I1125 19:29:19.261163 18775 net.cpp:150] Setting up inception_5b/relu_3x3
I1125 19:29:19.261178 18775 net.cpp:157] Top shape: 64 384 7 7 (1204224)
I1125 19:29:19.261181 18775 net.cpp:165] Memory required for data: 3557986312
I1125 19:29:19.261184 18775 layer_factory.hpp:76] Creating layer inception_5b/5x5_reduce
I1125 19:29:19.261194 18775 net.cpp:106] Creating Layer inception_5b/5x5_reduce
I1125 19:29:19.261198 18775 net.cpp:454] inception_5b/5x5_reduce <- inception_5a/output_inception_5a/output_0_split_2
I1125 19:29:19.261205 18775 net.cpp:411] inception_5b/5x5_reduce -> inception_5b/5x5_reduce
I1125 19:29:19.262918 18775 net.cpp:150] Setting up inception_5b/5x5_reduce
I1125 19:29:19.262934 18775 net.cpp:157] Top shape: 64 48 7 7 (150528)
I1125 19:29:19.262938 18775 net.cpp:165] Memory required for data: 3558588424
I1125 19:29:19.262944 18775 layer_factory.hpp:76] Creating layer inception_5b/relu_5x5_reduce
I1125 19:29:19.262951 18775 net.cpp:106] Creating Layer inception_5b/relu_5x5_reduce
I1125 19:29:19.262956 18775 net.cpp:454] inception_5b/relu_5x5_reduce <- inception_5b/5x5_reduce
I1125 19:29:19.262961 18775 net.cpp:397] inception_5b/relu_5x5_reduce -> inception_5b/5x5_reduce (in-place)
I1125 19:29:19.263296 18775 net.cpp:150] Setting up inception_5b/relu_5x5_reduce
I1125 19:29:19.263311 18775 net.cpp:157] Top shape: 64 48 7 7 (150528)
I1125 19:29:19.263315 18775 net.cpp:165] Memory required for data: 3559190536
I1125 19:29:19.263319 18775 layer_factory.hpp:76] Creating layer inception_5b/5x5
I1125 19:29:19.263327 18775 net.cpp:106] Creating Layer inception_5b/5x5
I1125 19:29:19.263331 18775 net.cpp:454] inception_5b/5x5 <- inception_5b/5x5_reduce
I1125 19:29:19.263339 18775 net.cpp:411] inception_5b/5x5 -> inception_5b/5x5
I1125 19:29:19.265453 18775 net.cpp:150] Setting up inception_5b/5x5
I1125 19:29:19.265470 18775 net.cpp:157] Top shape: 64 128 7 7 (401408)
I1125 19:29:19.265473 18775 net.cpp:165] Memory required for data: 3560796168
I1125 19:29:19.265480 18775 layer_factory.hpp:76] Creating layer inception_5b/relu_5x5
I1125 19:29:19.265487 18775 net.cpp:106] Creating Layer inception_5b/relu_5x5
I1125 19:29:19.265491 18775 net.cpp:454] inception_5b/relu_5x5 <- inception_5b/5x5
I1125 19:29:19.265496 18775 net.cpp:397] inception_5b/relu_5x5 -> inception_5b/5x5 (in-place)
I1125 19:29:19.265679 18775 net.cpp:150] Setting up inception_5b/relu_5x5
I1125 19:29:19.265691 18775 net.cpp:157] Top shape: 64 128 7 7 (401408)
I1125 19:29:19.265694 18775 net.cpp:165] Memory required for data: 3562401800
I1125 19:29:19.265697 18775 layer_factory.hpp:76] Creating layer inception_5b/pool
I1125 19:29:19.265704 18775 net.cpp:106] Creating Layer inception_5b/pool
I1125 19:29:19.265708 18775 net.cpp:454] inception_5b/pool <- inception_5a/output_inception_5a/output_0_split_3
I1125 19:29:19.265714 18775 net.cpp:411] inception_5b/pool -> inception_5b/pool
I1125 19:29:19.266090 18775 net.cpp:150] Setting up inception_5b/pool
I1125 19:29:19.266104 18775 net.cpp:157] Top shape: 64 832 7 7 (2609152)
I1125 19:29:19.266108 18775 net.cpp:165] Memory required for data: 3572838408
I1125 19:29:19.266111 18775 layer_factory.hpp:76] Creating layer inception_5b/pool_proj
I1125 19:29:19.266122 18775 net.cpp:106] Creating Layer inception_5b/pool_proj
I1125 19:29:19.266129 18775 net.cpp:454] inception_5b/pool_proj <- inception_5b/pool
I1125 19:29:19.266136 18775 net.cpp:411] inception_5b/pool_proj -> inception_5b/pool_proj
I1125 19:29:19.268390 18775 net.cpp:150] Setting up inception_5b/pool_proj
I1125 19:29:19.268405 18775 net.cpp:157] Top shape: 64 128 7 7 (401408)
I1125 19:29:19.268409 18775 net.cpp:165] Memory required for data: 3574444040
I1125 19:29:19.268415 18775 layer_factory.hpp:76] Creating layer inception_5b/relu_pool_proj
I1125 19:29:19.268422 18775 net.cpp:106] Creating Layer inception_5b/relu_pool_proj
I1125 19:29:19.268426 18775 net.cpp:454] inception_5b/relu_pool_proj <- inception_5b/pool_proj
I1125 19:29:19.268431 18775 net.cpp:397] inception_5b/relu_pool_proj -> inception_5b/pool_proj (in-place)
I1125 19:29:19.268617 18775 net.cpp:150] Setting up inception_5b/relu_pool_proj
I1125 19:29:19.268630 18775 net.cpp:157] Top shape: 64 128 7 7 (401408)
I1125 19:29:19.268632 18775 net.cpp:165] Memory required for data: 3576049672
I1125 19:29:19.268635 18775 layer_factory.hpp:76] Creating layer inception_5b/output
I1125 19:29:19.268643 18775 net.cpp:106] Creating Layer inception_5b/output
I1125 19:29:19.268651 18775 net.cpp:454] inception_5b/output <- inception_5b/1x1
I1125 19:29:19.268656 18775 net.cpp:454] inception_5b/output <- inception_5b/3x3
I1125 19:29:19.268661 18775 net.cpp:454] inception_5b/output <- inception_5b/5x5
I1125 19:29:19.268664 18775 net.cpp:454] inception_5b/output <- inception_5b/pool_proj
I1125 19:29:19.268668 18775 net.cpp:411] inception_5b/output -> inception_5b/output
I1125 19:29:19.268709 18775 net.cpp:150] Setting up inception_5b/output
I1125 19:29:19.268718 18775 net.cpp:157] Top shape: 64 1024 7 7 (3211264)
I1125 19:29:19.268720 18775 net.cpp:165] Memory required for data: 3588894728
I1125 19:29:19.268724 18775 layer_factory.hpp:76] Creating layer pool5/7x7_s1
I1125 19:29:19.268729 18775 net.cpp:106] Creating Layer pool5/7x7_s1
I1125 19:29:19.268733 18775 net.cpp:454] pool5/7x7_s1 <- inception_5b/output
I1125 19:29:19.268739 18775 net.cpp:411] pool5/7x7_s1 -> pool5/7x7_s1
I1125 19:29:19.269105 18775 net.cpp:150] Setting up pool5/7x7_s1
I1125 19:29:19.269119 18775 net.cpp:157] Top shape: 64 1024 1 1 (65536)
I1125 19:29:19.269122 18775 net.cpp:165] Memory required for data: 3589156872
I1125 19:29:19.269126 18775 layer_factory.hpp:76] Creating layer pool5/drop_7x7_s1
I1125 19:29:19.269134 18775 net.cpp:106] Creating Layer pool5/drop_7x7_s1
I1125 19:29:19.269137 18775 net.cpp:454] pool5/drop_7x7_s1 <- pool5/7x7_s1
I1125 19:29:19.269145 18775 net.cpp:397] pool5/drop_7x7_s1 -> pool5/7x7_s1 (in-place)
I1125 19:29:19.269186 18775 net.cpp:150] Setting up pool5/drop_7x7_s1
I1125 19:29:19.269193 18775 net.cpp:157] Top shape: 64 1024 1 1 (65536)
I1125 19:29:19.269196 18775 net.cpp:165] Memory required for data: 3589419016
I1125 19:29:19.269201 18775 layer_factory.hpp:76] Creating layer loss3/classifier-attribute
I1125 19:29:19.269207 18775 net.cpp:106] Creating Layer loss3/classifier-attribute
I1125 19:29:19.269210 18775 net.cpp:454] loss3/classifier-attribute <- pool5/7x7_s1
I1125 19:29:19.269217 18775 net.cpp:411] loss3/classifier-attribute -> loss3/classifier-attribute
I1125 19:29:19.269423 18775 net.cpp:150] Setting up loss3/classifier-attribute
I1125 19:29:19.269433 18775 net.cpp:157] Top shape: 64 6 (384)
I1125 19:29:19.269435 18775 net.cpp:165] Memory required for data: 3589420552
I1125 19:29:19.269441 18775 layer_factory.hpp:76] Creating layer loss3/loss3
I1125 19:29:19.269449 18775 net.cpp:106] Creating Layer loss3/loss3
I1125 19:29:19.269454 18775 net.cpp:454] loss3/loss3 <- loss3/classifier-attribute
I1125 19:29:19.269457 18775 net.cpp:454] loss3/loss3 <- label_data_1_split_2
I1125 19:29:19.269462 18775 net.cpp:411] loss3/loss3 -> loss3/loss3
…
I1125 19:29:19.280150 18775 net.cpp:322] The NetState phase (1) differed from the phase (0) specified by a rule in layer data
I1125 19:29:19.281452 18775 net.cpp:49] Initializing net from parameters: 
name: "GoogleNet-finetune-for-cigit"
state {
  phase: TEST
}
layer {
  name: "data"
  type: "ImageData"
  top: "data"
  top: "label"
  include {
    phase: TEST
  }
  transform_param {
    mirror: false
    crop_size: 224
    mean_value: 104
    mean_value: 117
    mean_value: 123
  }
  image_data_param {
    source: "pad_test.txt"
    batch_size: 64
    new_height: 256
    new_width: 256
  }
}
layer {
  name: "conv1/7x7_s2"
  type: "Convolution"
  bottom: "data"
  top: "conv1/7x7_s2"
  param {
    lr_mult: 1
    decay_mult: 1
  }
  param {
    lr_mult: 2
    decay_mult: 0
  }
  convolution_param {
    num_output: 64
    pad: 3
    kernel_size: 7
    stride: 2
    weight_filler {
      type: "xavier"
    }
    bias_filler {
      type: "constant"
      value: 0.2
    }
  }
}
layer {
  name: "conv1/relu_7x7"
  type: "ReLU"
  bottom: "conv1/7x7_s2"
  top: "conv1/7x7_s2"
}
layer {
  name: "pool1/3x3_s2"
  type: "Pooling"
  bottom: "conv1/7x7_s2"
  top: "pool1/3x3_s2"
  pooling_param {
    pool: MAX
    kernel_size: 3
    stride: 2
  }
}
layer {
  name: "pool1/norm1"
  type: "LRN"
  bottom: "pool1/3x3_s2"
  top: "pool1/norm1"
  lrn_param {
    local_size: 5
    alpha: 0.0001
    beta: 0.75
  }
}
layer {
  name: "conv2/3x3_reduce"
  type: "Convolution"
  bottom: "pool1/norm1"
  top: "conv2/3x3_reduce"
  param {
    lr_mult: 1
    decay_mult: 1
  }
  param {
    lr_mult: 2
    decay_mult: 0
  }
  convolution_param {
    num_output: 64
    kernel_size: 1
    weight_filler {
      type: "xavier"
    }
    bias_filler {
      type: "constant"
      value: 0.2
    }
  }
}
layer {
  name: "conv2/relu_3x3_reduce"
  type: "ReLU"
  bottom: "conv2/3x3_reduce"
  top: "conv2/3x3_reduce"
}
layer {
  name: "conv2/3x3"
  type: "Convolution"
  bottom: "conv2/3x3_reduce"
  top: "conv2/3x3"
  param {
    lr_mult: 1
    decay_mult: 1
  }
  param {
    lr_mult: 2
    decay_mult: 0
  }
  convolution_param {
    num_output: 192
    pad: 1
    kernel_size: 3
    weight_filler {
      type: "xavier"
    }
    bias_filler {
      type: "constant"
      value: 0.2
    }
  }
}
layer {
  name: "conv2/relu_3x3"
  type: "ReLU"
  bottom: "conv2/3x3"
  top: "conv2/3x3"
}
layer {
  name: "conv2/norm2"
  type: "LRN"
  bottom: "conv2/3x3"
  top: "conv2/norm2"
  lrn_param {
    local_size: 5
    alpha: 0.0001
    beta: 0.75
  }
}
layer {
  name: "pool2/3x3_s2"
  type: "Pooling"
  bottom: "conv2/norm2"
  top: "pool2/3x3_s2"
  pooling_param {
    pool: MAX
    kernel_size: 3
    stride: 2
  }
}
layer {
  name: "inception_3a/1x1"
  type: "Convolution"
  bottom: "pool2/3x3_s2"
  top: "inception_3a/1x1"
  param {
    lr_mult: 1
    decay_mult: 1
  }
  param {
    lr_mult: 2
    decay_mult: 0
  }
  convolution_param {
    num_output: 64
    kernel_size: 1
    weight_filler {
      type: "xavier"
    }
    bias_filler {
      type: "constant"
      value: 0.2
    }
  }
}
layer {
  name: "inception_3a/relu_1x1"
  type: "ReLU"
  bottom: "inception_3a/1x1"
  top: "inception_3a/1x1"
}
layer {
  name: "inception_3a/3x3_reduce"
  type: "Convolution"
  bottom: "pool2/3x3_s2"
  top: "inception_3a/3x3_reduce"
  param {
    lr_mult: 1
    decay_mult: 1
  }
  param {
    lr_mult: 2
    decay_mult: 0
  }
  convolution_param {
    num_output: 96
    kernel_size: 1
    weight_filler {
      type: "xavier"
    }
    bias_filler {
      type: "constant"
      value: 0.2
    }
  }
}
layer {
  name: "inception_3a/relu_3x3_reduce"
  type: "ReLU"
  bottom: "inception_3a/3x3_reduce"
  top: "inception_3a/3x3_reduce"
}
layer {
  name: "inception_3a/3x3"
  type: "Convolution"
  bottom: "inception_3a/3x3_reduce"
  top: "inception_3a/3x3"
  param {
    lr_mult: 1
    decay_mult: 1
  }
  param {
    lr_mult: 2
    decay_mult: 0
  }
  convolution_param {
    num_output: 128
    pad: 1
    kernel_size: 3
    weight_filler {
      type: "xavier"
    }
    bias_filler {
      type: "constant"
      value: 0.2
    }
  }
}
layer {
  name: "inception_3a/relu_3x3"
  type: "ReLU"
  bottom: "inception_3a/3x3"
  top: "inception_3a/3x3"
}
layer {
  name: "inception_3a/5x5_reduce"
  type: "Convolution"
  bottom: "pool2/3x3_s2"
  top: "inception_3a/5x5_reduce"
  param {
    lr_mult: 1
    decay_mult: 1
  }
  param {
    lr_mult: 2
    decay_mult: 0
  }
  convolution_param {
    num_output: 16
    kernel_size: 1
    weight_filler {
      type: "xavier"
    }
    bias_filler {
      type: "constant"
      value: 0.2
    }
  }
}
layer {
  name: "inception_3a/relu_5x5_reduce"
  type: "ReLU"
  bottom: "inception_3a/5x5_reduce"
  top: "inception_3a/5x5_reduce"
}
layer {
  name: "inception_3a/5x5"
  type: "Convolution"
  bottom: "inception_3a/5x5_reduce"
  top: "inception_3a/5x5"
  param {
    lr_mult: 1
    decay_mult: 1
  }
  param {
    lr_mult: 2
    decay_mult: 0
  }
  convolution_param {
    num_output: 32
    pad: 2
    kernel_size: 5
    weight_filler {
      type: "xavier"
    }
    bias_filler {
      type: "constant"
      value: 0.2
    }
  }
}
layer {
  name: "inception_3a/relu_5x5"
  type: "ReLU"
  bottom: "inception_3a/5x5"
  top: "inception_3a/5x5"
}
layer {
  name: "inception_3a/pool"
  type: "Pooling"
  bottom: "pool2/3x3_s2"
  top: "inception_3a/pool"
  pooling_param {
    pool: MAX
    kernel_size: 3
    stride: 1
    pad: 1
  }
}
layer {
  name: "inception_3a/pool_proj"
  type: "Convolution"
  bottom: "inception_3a/pool"
  top: "inception_3a/pool_proj"
  param {
    lr_mult: 1
    decay_mult: 1
  }
  param {
    lr_mult: 2
    decay_mult: 0
  }
  convolution_param {
    num_output: 32
    kernel_size: 1
    weight_filler {
      type: "xavier"
    }
    bias_filler {
      type: "constant"
      value: 0.2
    }
  }
}
layer {
  name: "inception_3a/relu_pool_proj"
  type: "ReLU"
  bottom: "inception_3a/pool_proj"
  top: "inception_3a/pool_proj"
}
layer {
  name: "inception_3a/output"
  type: "Concat"
  bottom: "inception_3a/1x1"
  bottom: "inception_3a/3x3"
  bottom: "inception_3a/5x5"
  bottom: "inception_3a/pool_proj"
  top: "inception_3a/output"
}
layer {
  name: "inception_3b/1x1"
  type: "Convolution"
  bottom: "inception_3a/output"
  top: "inception_3b/1x1"
  param {
    lr_mult: 1
    decay_mult: 1
  }
  param {
    lr_mult: 2
    decay_mult: 0
  }
  convolution_param {
    num_output: 128
    kernel_size: 1
    weight_filler {
      type: "xavier"
    }
    bias_filler {
      type: "constant"
      value: 0.2
    }
  }
}
layer {
  name: "inception_3b/relu_1x1"
  type: "ReLU"
  bottom: "inception_3b/1x1"
  top: "inception_3b/1x1"
}
layer {
  name: "inception_3b/3x3_reduce"
  type: "Convolution"
  bottom: "inception_3a/output"
  top: "inception_3b/3x3_reduce"
  param {
    lr_mult: 1
    decay_mult: 1
  }
  param {
    lr_mult: 2
    decay_mult: 0
  }
  convolution_param {
    num_output: 128
    kernel_size: 1
    weight_filler {
      type: "xavier"
    }
    bias_filler {
      type: "constant"
      value: 0.2
    }
  }
}
layer {
  name: "inception_3b/relu_3x3_reduce"
  type: "ReLU"
  bottom: "inception_3b/3x3_reduce"
  top: "inception_3b/3x3_reduce"
}
layer {
  name: "inception_3b/3x3"
  type: "Convolution"
  bottom: "inception_3b/3x3_reduce"
  top: "inception_3b/3x3"
  param {
    lr_mult: 1
    decay_mult: 1
  }
  param {
    lr_mult: 2
    decay_mult: 0
  }
  convolution_param {
    num_output: 192
    pad: 1
    kernel_size: 3
    weight_filler {
      type: "xavier"
    }
    bias_filler {
      type: "constant"
      value: 0.2
    }
  }
}
layer {
  name: "inception_3b/relu_3x3"
  type: "ReLU"
  bottom: "inception_3b/3x3"
  top: "inception_3b/3x3"
}
layer {
  name: "inception_3b/5x5_reduce"
  type: "Convolution"
  bottom: "inception_3a/output"
  top: "inception_3b/5x5_reduce"
  param {
    lr_mult: 1
    decay_mult: 1
  }
  param {
    lr_mult: 2
    decay_mult: 0
  }
  convolution_param {
    num_output: 32
    kernel_size: 1
    weight_filler {
      type: "xavier"
    }
    bias_filler {
      type: "constant"
      value: 0.2
    }
  }
}
layer {
  name: "inception_3b/relu_5x5_reduce"
  type: "ReLU"
  bottom: "inception_3b/5x5_reduce"
  top: "inception_3b/5x5_reduce"
}
layer {
  name: "inception_3b/5x5"
  type: "Convolution"
  bottom: "inception_3b/5x5_reduce"
  top: "inception_3b/5x5"
  param {
    lr_mult: 1
    decay_mult: 1
  }
  param {
    lr_mult: 2
    decay_mult: 0
  }
  convolution_param {
    num_output: 96
    pad: 2
    kernel_size: 5
    weight_filler {
      type: "xavier"
    }
    bias_filler {
      type: "constant"
      value: 0.2
    }
  }
}
layer {
  name: "inception_3b/relu_5x5"
  type: "ReLU"
  bottom: "inception_3b/5x5"
  top: "inception_3b/5x5"
}
layer {
  name: "inception_3b/pool"
  type: "Pooling"
  bottom: "inception_3a/output"
  top: "inception_3b/pool"
  pooling_param {
    pool: MAX
    kernel_size: 3
    stride: 1
    pad: 1
  }
}
layer {
  name: "inception_3b/pool_proj"
  type: "Convolution"
  bottom: "inception_3b/pool"
  top: "inception_3b/pool_proj"
  param {
    lr_mult: 1
    decay_mult: 1
  }
  param {
    lr_mult: 2
    decay_mult: 0
  }
  convolution_param {
    num_output: 64
    kernel_size: 1
    weight_filler {
      type: "xavier"
    }
    bias_filler {
      type: "constant"
      value: 0.2
    }
  }
}
layer {
  name: "inception_3b/relu_pool_proj"
  type: "ReLU"
  bottom: "inception_3b/pool_proj"
  top: "inception_3b/pool_proj"
}
layer {
  name: "inception_3b/output"
  type: "Concat"
  bottom: "inception_3b/1x1"
  bottom: "inception_3b/3x3"
  bottom: "inception_3b/5x5"
  bottom: "inception_3b/pool_proj"
  top: "inception_3b/output"
}
layer {
  name: "pool3/3x3_s2"
  type: "Pooling"
  bottom: "inception_3b/output"
  top: "pool3/3x3_s2"
  pooling_param {
    pool: MAX
    kernel_size: 3
    stride: 2
  }
}
layer {
  name: "inception_4a/1x1"
  type: "Convolution"
  bottom: "pool3/3x3_s2"
  top: "inception_4a/1x1"
  param {
    lr_mult: 1
    decay_mult: 1
  }
  param {
    lr_mult: 2
    decay_mult: 0
  }
  convolution_param {
    num_output: 192
    kernel_size: 1
    weight_filler {
      type: "xavier"
    }
    bias_filler {
      type: "constant"
      value: 0.2
    }
  }
}
layer {
  name: "inception_4a/relu_1x1"
  type: "ReLU"
  bottom: "inception_4a/1x1"
  top: "inception_4a/1x1"
}
layer {
  name: "inception_4a/3x3_reduce"
  type: "Convolution"
  bottom: "pool3/3x3_s2"
  top: "inception_4a/3x3_reduce"
  param {
    lr_mult: 1
    decay_mult: 1
  }
  param {
    lr_mult: 2
    decay_mult: 0
  }
  convolution_param {
    num_output: 96
    kernel_size: 1
    weight_filler {
      type: "xavier"
    }
    bias_filler {
      type: "constant"
      value: 0.2
    }
  }
}
layer {
  name: "inception_4a/relu_3x3_reduce"
  type: "ReLU"
  bottom: "inception_4a/3x3_reduce"
  top: "inception_4a/3x3_reduce"
}
layer {
  name: "inception_4a/3x3"
  type: "Convolution"
  bottom: "inception_4a/3x3_reduce"
  top: "inception_4a/3x3"
  param {
    lr_mult: 1
    decay_mult: 1
  }
  param {
    lr_mult: 2
    decay_mult: 0
  }
  convolution_param {
    num_output: 208
    pad: 1
    kernel_size: 3
    weight_filler {
      type: "xavier"
    }
    bias_filler {
      type: "constant"
      value: 0.2
    }
  }
}
layer {
  name: "inception_4a/relu_3x3"
  type: "ReLU"
  bottom: "inception_4a/3x3"
  top: "inception_4a/3x3"
}
layer {
  name: "inception_4a/5x5_reduce"
  type: "Convolution"
  bottom: "pool3/3x3_s2"
  top: "inception_4a/5x5_reduce"
  param {
    lr_mult: 1
    decay_mult: 1
  }
  param {
    lr_mult: 2
    decay_mult: 0
  }
  convolution_param {
    num_output: 16
    kernel_size: 1
    weight_filler {
      type: "xavier"
    }
    bias_filler {
      type: "constant"
      value: 0.2
    }
  }
}
layer {
  name: "inception_4a/relu_5x5_reduce"
  type: "ReLU"
  bottom: "inception_4a/5x5_reduce"
  top: "inception_4a/5x5_reduce"
}
layer {
  name: "inception_4a/5x5"
  type: "Convolution"
  bottom: "inception_4a/5x5_reduce"
  top: "inception_4a/5x5"
  param {
    lr_mult: 1
    decay_mult: 1
  }
  param {
    lr_mult: 2
    decay_mult: 0
  }
  convolution_param {
    num_output: 48
    pad: 2
    kernel_size: 5
    weight_filler {
      type: "xavier"
    }
    bias_filler {
      type: "constant"
      value: 0.2
    }
  }
}
layer {
  name: "inception_4a/relu_5x5"
  type: "ReLU"
  bottom: "inception_4a/5x5"
  top: "inception_4a/5x5"
}
layer {
  name: "inception_4a/pool"
  type: "Pooling"
  bottom: "pool3/3x3_s2"
  top: "inception_4a/pool"
  pooling_param {
    pool: MAX
    kernel_size: 3
    stride: 1
    pad: 1
  }
}
layer {
  name: "inception_4a/pool_proj"
  type: "Convolution"
  bottom: "inception_4a/pool"
  top: "inception_4a/pool_proj"
  param {
    lr_mult: 1
    decay_mult: 1
  }
  param {
    lr_mult: 2
    decay_mult: 0
  }
  convolution_param {
    num_output: 64
    kernel_size: 1
    weight_filler {
      type: "xavier"
    }
    bias_filler {
      type: "constant"
      value: 0.2
    }
  }
}
layer {
  name: "inception_4a/relu_pool_proj"
  type: "ReLU"
  bottom: "inception_4a/pool_proj"
  top: "inception_4a/pool_proj"
}
layer {
  name: "inception_4a/output"
  type: "Concat"
  bottom: "inception_4a/1x1"
  bottom: "inception_4a/3x3"
  bottom: "inception_4a/5x5"
  bottom: "inception_4a/pool_proj"
  top: "inception_4a/output"
}
layer {
  name: "loss1/ave_pool"
  type: "Pooling"
  bottom: "inception_4a/output"
  top: "loss1/ave_pool"
  pooling_param {
    pool: AVE
    kernel_size: 5
    stride: 3
  }
}
layer {
  name: "loss1/conv"
  type: "Convolution"
  bottom: "loss1/ave_pool"
  top: "loss1/conv"
  param {
    lr_mult: 1
    decay_mult: 1
  }
  param {
    lr_mult: 2
    decay_mult: 0
  }
  convolution_param {
    num_output: 128
    kernel_size: 1
    weight_filler {
      type: "xavier"
    }
    bias_filler {
      type: "constant"
      value: 0.2
    }
  }
}
layer {
  name: "loss1/relu_conv"
  type: "ReLU"
  bottom: "loss1/conv"
  top: "loss1/conv"
}
layer {
  name: "loss1/fc"
  type: "InnerProduct"
  bottom: "loss1/conv"
  top: "loss1/fc"
  param {
    lr_mult: 1
    decay_mult: 1
  }
  param {
    lr_mult: 2
    decay_mult: 0
  }
  inner_product_param {
…
I1125 19:29:19.479584 18775 layer_factory.hpp:76] Creating layer inception_4c/pool
I1125 19:29:19.479593 18775 net.cpp:106] Creating Layer inception_4c/pool
I1125 19:29:19.479596 18775 net.cpp:454] inception_4c/pool <- inception_4b/output_inception_4b/output_0_split_3
I1125 19:29:19.479603 18775 net.cpp:411] inception_4c/pool -> inception_4c/pool
I1125 19:29:19.479863 18775 net.cpp:150] Setting up inception_4c/pool
I1125 19:29:19.479874 18775 net.cpp:157] Top shape: 64 512 14 14 (6422528)
I1125 19:29:19.479878 18775 net.cpp:165] Memory required for data: 2828245256
I1125 19:29:19.479882 18775 layer_factory.hpp:76] Creating layer inception_4c/pool_proj
I1125 19:29:19.479890 18775 net.cpp:106] Creating Layer inception_4c/pool_proj
I1125 19:29:19.479894 18775 net.cpp:454] inception_4c/pool_proj <- inception_4c/pool
I1125 19:29:19.479900 18775 net.cpp:411] inception_4c/pool_proj -> inception_4c/pool_proj
I1125 19:29:19.481437 18775 net.cpp:150] Setting up inception_4c/pool_proj
I1125 19:29:19.481452 18775 net.cpp:157] Top shape: 64 64 14 14 (802816)
I1125 19:29:19.481456 18775 net.cpp:165] Memory required for data: 2831456520
I1125 19:29:19.481462 18775 layer_factory.hpp:76] Creating layer inception_4c/relu_pool_proj
I1125 19:29:19.481468 18775 net.cpp:106] Creating Layer inception_4c/relu_pool_proj
I1125 19:29:19.481472 18775 net.cpp:454] inception_4c/relu_pool_proj <- inception_4c/pool_proj
I1125 19:29:19.481479 18775 net.cpp:397] inception_4c/relu_pool_proj -> inception_4c/pool_proj (in-place)
I1125 19:29:19.481840 18775 net.cpp:150] Setting up inception_4c/relu_pool_proj
I1125 19:29:19.481854 18775 net.cpp:157] Top shape: 64 64 14 14 (802816)
I1125 19:29:19.481866 18775 net.cpp:165] Memory required for data: 2834667784
I1125 19:29:19.481869 18775 layer_factory.hpp:76] Creating layer inception_4c/output
I1125 19:29:19.481876 18775 net.cpp:106] Creating Layer inception_4c/output
I1125 19:29:19.481880 18775 net.cpp:454] inception_4c/output <- inception_4c/1x1
I1125 19:29:19.481885 18775 net.cpp:454] inception_4c/output <- inception_4c/3x3
I1125 19:29:19.481889 18775 net.cpp:454] inception_4c/output <- inception_4c/5x5
I1125 19:29:19.481892 18775 net.cpp:454] inception_4c/output <- inception_4c/pool_proj
I1125 19:29:19.481899 18775 net.cpp:411] inception_4c/output -> inception_4c/output
I1125 19:29:19.481951 18775 net.cpp:150] Setting up inception_4c/output
I1125 19:29:19.481958 18775 net.cpp:157] Top shape: 64 512 14 14 (6422528)
I1125 19:29:19.481961 18775 net.cpp:165] Memory required for data: 2860357896
I1125 19:29:19.481964 18775 layer_factory.hpp:76] Creating layer inception_4c/output_inception_4c/output_0_split
I1125 19:29:19.481971 18775 net.cpp:106] Creating Layer inception_4c/output_inception_4c/output_0_split
I1125 19:29:19.481974 18775 net.cpp:454] inception_4c/output_inception_4c/output_0_split <- inception_4c/output
I1125 19:29:19.481979 18775 net.cpp:411] inception_4c/output_inception_4c/output_0_split -> inception_4c/output_inception_4c/output_0_split_0
I1125 19:29:19.481986 18775 net.cpp:411] inception_4c/output_inception_4c/output_0_split -> inception_4c/output_inception_4c/output_0_split_1
I1125 19:29:19.481993 18775 net.cpp:411] inception_4c/output_inception_4c/output_0_split -> inception_4c/output_inception_4c/output_0_split_2
I1125 19:29:19.481999 18775 net.cpp:411] inception_4c/output_inception_4c/output_0_split -> inception_4c/output_inception_4c/output_0_split_3
I1125 19:29:19.482097 18775 net.cpp:150] Setting up inception_4c/output_inception_4c/output_0_split
I1125 19:29:19.482106 18775 net.cpp:157] Top shape: 64 512 14 14 (6422528)
I1125 19:29:19.482110 18775 net.cpp:157] Top shape: 64 512 14 14 (6422528)
I1125 19:29:19.482113 18775 net.cpp:157] Top shape: 64 512 14 14 (6422528)
I1125 19:29:19.482116 18775 net.cpp:157] Top shape: 64 512 14 14 (6422528)
I1125 19:29:19.482120 18775 net.cpp:165] Memory required for data: 2963118344
I1125 19:29:19.482123 18775 layer_factory.hpp:76] Creating layer inception_4d/1x1
I1125 19:29:19.482131 18775 net.cpp:106] Creating Layer inception_4d/1x1
I1125 19:29:19.482136 18775 net.cpp:454] inception_4d/1x1 <- inception_4c/output_inception_4c/output_0_split_0
I1125 19:29:19.482142 18775 net.cpp:411] inception_4d/1x1 -> inception_4d/1x1
I1125 19:29:19.483680 18775 net.cpp:150] Setting up inception_4d/1x1
I1125 19:29:19.483695 18775 net.cpp:157] Top shape: 64 112 14 14 (1404928)
I1125 19:29:19.483698 18775 net.cpp:165] Memory required for data: 2968738056
I1125 19:29:19.483705 18775 layer_factory.hpp:76] Creating layer inception_4d/relu_1x1
I1125 19:29:19.483711 18775 net.cpp:106] Creating Layer inception_4d/relu_1x1
I1125 19:29:19.483716 18775 net.cpp:454] inception_4d/relu_1x1 <- inception_4d/1x1
I1125 19:29:19.483722 18775 net.cpp:397] inception_4d/relu_1x1 -> inception_4d/1x1 (in-place)
I1125 19:29:19.484100 18775 net.cpp:150] Setting up inception_4d/relu_1x1
I1125 19:29:19.484115 18775 net.cpp:157] Top shape: 64 112 14 14 (1404928)
I1125 19:29:19.484118 18775 net.cpp:165] Memory required for data: 2974357768
I1125 19:29:19.484122 18775 layer_factory.hpp:76] Creating layer inception_4d/3x3_reduce
I1125 19:29:19.484132 18775 net.cpp:106] Creating Layer inception_4d/3x3_reduce
I1125 19:29:19.484135 18775 net.cpp:454] inception_4d/3x3_reduce <- inception_4c/output_inception_4c/output_0_split_1
I1125 19:29:19.484144 18775 net.cpp:411] inception_4d/3x3_reduce -> inception_4d/3x3_reduce
I1125 19:29:19.485932 18775 net.cpp:150] Setting up inception_4d/3x3_reduce
I1125 19:29:19.485949 18775 net.cpp:157] Top shape: 64 144 14 14 (1806336)
I1125 19:29:19.485954 18775 net.cpp:165] Memory required for data: 2981583112
I1125 19:29:19.485960 18775 layer_factory.hpp:76] Creating layer inception_4d/relu_3x3_reduce
I1125 19:29:19.485965 18775 net.cpp:106] Creating Layer inception_4d/relu_3x3_reduce
I1125 19:29:19.485970 18775 net.cpp:454] inception_4d/relu_3x3_reduce <- inception_4d/3x3_reduce
I1125 19:29:19.485975 18775 net.cpp:397] inception_4d/relu_3x3_reduce -> inception_4d/3x3_reduce (in-place)
I1125 19:29:19.486183 18775 net.cpp:150] Setting up inception_4d/relu_3x3_reduce
I1125 19:29:19.486194 18775 net.cpp:157] Top shape: 64 144 14 14 (1806336)
I1125 19:29:19.486197 18775 net.cpp:165] Memory required for data: 2988808456
I1125 19:29:19.486201 18775 layer_factory.hpp:76] Creating layer inception_4d/3x3
I1125 19:29:19.486209 18775 net.cpp:106] Creating Layer inception_4d/3x3
I1125 19:29:19.486213 18775 net.cpp:454] inception_4d/3x3 <- inception_4d/3x3_reduce
I1125 19:29:19.486220 18775 net.cpp:411] inception_4d/3x3 -> inception_4d/3x3
I1125 19:29:19.490454 18775 net.cpp:150] Setting up inception_4d/3x3
I1125 19:29:19.490469 18775 net.cpp:157] Top shape: 64 288 14 14 (3612672)
I1125 19:29:19.490473 18775 net.cpp:165] Memory required for data: 3003259144
I1125 19:29:19.490480 18775 layer_factory.hpp:76] Creating layer inception_4d/relu_3x3
I1125 19:29:19.490488 18775 net.cpp:106] Creating Layer inception_4d/relu_3x3
I1125 19:29:19.490492 18775 net.cpp:454] inception_4d/relu_3x3 <- inception_4d/3x3
I1125 19:29:19.490499 18775 net.cpp:397] inception_4d/relu_3x3 -> inception_4d/3x3 (in-place)
I1125 19:29:19.490866 18775 net.cpp:150] Setting up inception_4d/relu_3x3
I1125 19:29:19.490881 18775 net.cpp:157] Top shape: 64 288 14 14 (3612672)
I1125 19:29:19.490885 18775 net.cpp:165] Memory required for data: 3017709832
I1125 19:29:19.490888 18775 layer_factory.hpp:76] Creating layer inception_4d/5x5_reduce
I1125 19:29:19.490897 18775 net.cpp:106] Creating Layer inception_4d/5x5_reduce
I1125 19:29:19.490902 18775 net.cpp:454] inception_4d/5x5_reduce <- inception_4c/output_inception_4c/output_0_split_2
I1125 19:29:19.490911 18775 net.cpp:411] inception_4d/5x5_reduce -> inception_4d/5x5_reduce
I1125 19:29:19.492785 18775 net.cpp:150] Setting up inception_4d/5x5_reduce
I1125 19:29:19.492801 18775 net.cpp:157] Top shape: 64 32 14 14 (401408)
I1125 19:29:19.492805 18775 net.cpp:165] Memory required for data: 3019315464
I1125 19:29:19.492812 18775 layer_factory.hpp:76] Creating layer inception_4d/relu_5x5_reduce
I1125 19:29:19.492820 18775 net.cpp:106] Creating Layer inception_4d/relu_5x5_reduce
I1125 19:29:19.492825 18775 net.cpp:454] inception_4d/relu_5x5_reduce <- inception_4d/5x5_reduce
I1125 19:29:19.492830 18775 net.cpp:397] inception_4d/relu_5x5_reduce -> inception_4d/5x5_reduce (in-place)
I1125 19:29:19.493212 18775 net.cpp:150] Setting up inception_4d/relu_5x5_reduce
I1125 19:29:19.493226 18775 net.cpp:157] Top shape: 64 32 14 14 (401408)
I1125 19:29:19.493229 18775 net.cpp:165] Memory required for data: 3020921096
I1125 19:29:19.493232 18775 layer_factory.hpp:76] Creating layer inception_4d/5x5
I1125 19:29:19.493242 18775 net.cpp:106] Creating Layer inception_4d/5x5
I1125 19:29:19.493247 18775 net.cpp:454] inception_4d/5x5 <- inception_4d/5x5_reduce
I1125 19:29:19.493254 18775 net.cpp:411] inception_4d/5x5 -> inception_4d/5x5
I1125 19:29:19.494904 18775 net.cpp:150] Setting up inception_4d/5x5
I1125 19:29:19.494921 18775 net.cpp:157] Top shape: 64 64 14 14 (802816)
I1125 19:29:19.494925 18775 net.cpp:165] Memory required for data: 3024132360
I1125 19:29:19.494931 18775 layer_factory.hpp:76] Creating layer inception_4d/relu_5x5
I1125 19:29:19.494937 18775 net.cpp:106] Creating Layer inception_4d/relu_5x5
I1125 19:29:19.494941 18775 net.cpp:454] inception_4d/relu_5x5 <- inception_4d/5x5
I1125 19:29:19.494947 18775 net.cpp:397] inception_4d/relu_5x5 -> inception_4d/5x5 (in-place)
I1125 19:29:19.495152 18775 net.cpp:150] Setting up inception_4d/relu_5x5
I1125 19:29:19.495164 18775 net.cpp:157] Top shape: 64 64 14 14 (802816)
I1125 19:29:19.495167 18775 net.cpp:165] Memory required for data: 3027343624
I1125 19:29:19.495172 18775 layer_factory.hpp:76] Creating layer inception_4d/pool
I1125 19:29:19.495177 18775 net.cpp:106] Creating Layer inception_4d/pool
I1125 19:29:19.495182 18775 net.cpp:454] inception_4d/pool <- inception_4c/output_inception_4c/output_0_split_3
I1125 19:29:19.495187 18775 net.cpp:411] inception_4d/pool -> inception_4d/pool
I1125 19:29:19.495606 18775 net.cpp:150] Setting up inception_4d/pool
I1125 19:29:19.495620 18775 net.cpp:157] Top shape: 64 512 14 14 (6422528)
I1125 19:29:19.495623 18775 net.cpp:165] Memory required for data: 3053033736
I1125 19:29:19.495627 18775 layer_factory.hpp:76] Creating layer inception_4d/pool_proj
I1125 19:29:19.495636 18775 net.cpp:106] Creating Layer inception_4d/pool_proj
I1125 19:29:19.495640 18775 net.cpp:454] inception_4d/pool_proj <- inception_4d/pool
I1125 19:29:19.495647 18775 net.cpp:411] inception_4d/pool_proj -> inception_4d/pool_proj
I1125 19:29:19.497246 18775 net.cpp:150] Setting up inception_4d/pool_proj
I1125 19:29:19.497262 18775 net.cpp:157] Top shape: 64 64 14 14 (802816)
I1125 19:29:19.497265 18775 net.cpp:165] Memory required for data: 3056245000
I1125 19:29:19.497272 18775 layer_factory.hpp:76] Creating layer inception_4d/relu_pool_proj
I1125 19:29:19.497277 18775 net.cpp:106] Creating Layer inception_4d/relu_pool_proj
I1125 19:29:19.497282 18775 net.cpp:454] inception_4d/relu_pool_proj <- inception_4d/pool_proj
I1125 19:29:19.497287 18775 net.cpp:397] inception_4d/relu_pool_proj -> inception_4d/pool_proj (in-place)
I1125 19:29:19.497493 18775 net.cpp:150] Setting up inception_4d/relu_pool_proj
I1125 19:29:19.497504 18775 net.cpp:157] Top shape: 64 64 14 14 (802816)
I1125 19:29:19.497509 18775 net.cpp:165] Memory required for data: 3059456264
I1125 19:29:19.497511 18775 layer_factory.hpp:76] Creating layer inception_4d/output
I1125 19:29:19.497519 18775 net.cpp:106] Creating Layer inception_4d/output
I1125 19:29:19.497524 18775 net.cpp:454] inception_4d/output <- inception_4d/1x1
I1125 19:29:19.497527 18775 net.cpp:454] inception_4d/output <- inception_4d/3x3
I1125 19:29:19.497531 18775 net.cpp:454] inception_4d/output <- inception_4d/5x5
I1125 19:29:19.497535 18775 net.cpp:454] inception_4d/output <- inception_4d/pool_proj
I1125 19:29:19.497539 18775 net.cpp:411] inception_4d/output -> inception_4d/output
I1125 19:29:19.497596 18775 net.cpp:150] Setting up inception_4d/output
I1125 19:29:19.497606 18775 net.cpp:157] Top shape: 64 528 14 14 (6623232)
I1125 19:29:19.497609 18775 net.cpp:165] Memory required for data: 3085949192
I1125 19:29:19.497612 18775 layer_factory.hpp:76] Creating layer inception_4d/output_inception_4d/output_0_split
I1125 19:29:19.497618 18775 net.cpp:106] Creating Layer inception_4d/output_inception_4d/output_0_split
I1125 19:29:19.497622 18775 net.cpp:454] inception_4d/output_inception_4d/output_0_split <- inception_4d/output
I1125 19:29:19.497628 18775 net.cpp:411] inception_4d/output_inception_4d/output_0_split -> inception_4d/output_inception_4d/output_0_split_0
I1125 19:29:19.497634 18775 net.cpp:411] inception_4d/output_inception_4d/output_0_split -> inception_4d/output_inception_4d/output_0_split_1
I1125 19:29:19.497639 18775 net.cpp:411] inception_4d/output_inception_4d/output_0_split -> inception_4d/output_inception_4d/output_0_split_2
I1125 19:29:19.497645 18775 net.cpp:411] inception_4d/output_inception_4d/output_0_split -> inception_4d/output_inception_4d/output_0_split_3
I1125 19:29:19.497650 18775 net.cpp:411] inception_4d/output_inception_4d/output_0_split -> inception_4d/output_inception_4d/output_0_split_4
I1125 19:29:19.497781 18775 net.cpp:150] Setting up inception_4d/output_inception_4d/output_0_split
I1125 19:29:19.497789 18775 net.cpp:157] Top shape: 64 528 14 14 (6623232)
I1125 19:29:19.497793 18775 net.cpp:157] Top shape: 64 528 14 14 (6623232)
I1125 19:29:19.497797 18775 net.cpp:157] Top shape: 64 528 14 14 (6623232)
I1125 19:29:19.497800 18775 net.cpp:157] Top shape: 64 528 14 14 (6623232)
I1125 19:29:19.497803 18775 net.cpp:157] Top shape: 64 528 14 14 (6623232)
I1125 19:29:19.497807 18775 net.cpp:165] Memory required for data: 3218413832
I1125 19:29:19.497810 18775 layer_factory.hpp:76] Creating layer loss2/ave_pool
I1125 19:29:19.497817 18775 net.cpp:106] Creating Layer loss2/ave_pool
I1125 19:29:19.497820 18775 net.cpp:454] loss2/ave_pool <- inception_4d/output_inception_4d/output_0_split_0
I1125 19:29:19.497828 18775 net.cpp:411] loss2/ave_pool -> loss2/ave_pool
I1125 19:29:19.498229 18775 net.cpp:150] Setting up loss2/ave_pool
I1125 19:29:19.498244 18775 net.cpp:157] Top shape: 64 528 4 4 (540672)
I1125 19:29:19.498247 18775 net.cpp:165] Memory required for data: 3220576520
I1125 19:29:19.498250 18775 layer_factory.hpp:76] Creating layer loss2/conv
I1125 19:29:19.498260 18775 net.cpp:106] Creating Layer loss2/conv
I1125 19:29:19.498265 18775 net.cpp:454] loss2/conv <- loss2/ave_pool
I1125 19:29:19.498272 18775 net.cpp:411] loss2/conv -> loss2/conv
I1125 19:29:19.500344 18775 net.cpp:150] Setting up loss2/conv
I1125 19:29:19.500360 18775 net.cpp:157] Top shape: 64 128 4 4 (131072)
I1125 19:29:19.500362 18775 net.cpp:165] Memory required for data: 3221100808
I1125 19:29:19.500370 18775 layer_factory.hpp:76] Creating layer loss2/relu_conv
I1125 19:29:19.500375 18775 net.cpp:106] Creating Layer loss2/relu_conv
I1125 19:29:19.500380 18775 net.cpp:454] loss2/relu_conv <- loss2/conv
I1125 19:29:19.500387 18775 net.cpp:397] loss2/relu_conv -> loss2/conv (in-place)
I1125 19:29:19.500763 18775 net.cpp:150] Setting up loss2/relu_conv
I1125 19:29:19.500777 18775 net.cpp:157] Top shape: 64 128 4 4 (131072)
I1125 19:29:19.500782 18775 net.cpp:165] Memory required for data: 3221625096
I1125 19:29:19.500784 18775 layer_factory.hpp:76] Creating layer loss2/fc
I1125 19:29:19.500794 18775 net.cpp:106] Creating Layer loss2/fc
I1125 19:29:19.500798 18775 net.cpp:454] loss2/fc <- loss2/conv
I1125 19:29:19.500803 18775 net.cpp:411] loss2/fc -> loss2/fc
I1125 19:29:19.516782 18775 net.cpp:150] Setting up loss2/fc
I1125 19:29:19.516798 18775 net.cpp:157] Top shape: 64 1024 (65536)
I1125 19:29:19.516801 18775 net.cpp:165] Memory required for data: 3221887240
I1125 19:29:19.516808 18775 layer_factory.hpp:76] Creating layer loss2/relu_fc
I1125 19:29:19.516814 18775 net.cpp:106] Creating Layer loss2/relu_fc
I1125 19:29:19.516819 18775 net.cpp:454] loss2/relu_fc <- loss2/fc
I1125 19:29:19.516825 18775 net.cpp:397] loss2/relu_fc -> loss2/fc (in-place)
I1125 19:29:19.517050 18775 net.cpp:150] Setting up loss2/relu_fc
I1125 19:29:19.517062 18775 net.cpp:157] Top shape: 64 1024 (65536)
I1125 19:29:19.517074 18775 net.cpp:165] Memory required for data: 3222149384
I1125 19:29:19.517079 18775 layer_factory.hpp:76] Creating layer loss2/drop_fc
I1125 19:29:19.517086 18775 net.cpp:106] Creating Layer loss2/drop_fc
I1125 19:29:19.517091 18775 net.cpp:454] loss2/drop_fc <- loss2/fc
I1125 19:29:19.517097 18775 net.cpp:397] loss2/drop_fc -> loss2/fc (in-place)
I1125 19:29:19.517149 18775 net.cpp:150] Setting up loss2/drop_fc
I1125 19:29:19.517158 18775 net.cpp:157] Top shape: 64 1024 (65536)
I1125 19:29:19.517160 18775 net.cpp:165] Memory required for data: 3222411528
I1125 19:29:19.517163 18775 layer_factory.hpp:76] Creating layer loss2/classifier-attribute
I1125 19:29:19.517170 18775 net.cpp:106] Creating Layer loss2/classifier-attribute
I1125 19:29:19.517174 18775 net.cpp:454] loss2/classifier-attribute <- loss2/fc
I1125 19:29:19.517180 18775 net.cpp:411] loss2/classifier-attribute -> loss2/classifier-attribute
I1125 19:29:19.517402 18775 net.cpp:150] Setting up loss2/classifier-attribute
I1125 19:29:19.517411 18775 net.cpp:157] Top shape: 64 6 (384)
I1125 19:29:19.517415 18775 net.cpp:165] Memory required for data: 3222413064
I1125 19:29:19.517421 18775 layer_factory.hpp:76] Creating layer loss2/classifier-attribute_loss2/classifier-attribute_0_split
I1125 19:29:19.517427 18775 net.cpp:106] Creating Layer loss2/classifier-attribute_loss2/classifier-attribute_0_split
I1125 19:29:19.517431 18775 net.cpp:454] loss2/classifier-attribute_loss2/classifier-attribute_0_split <- loss2/classifier-attribute
I1125 19:29:19.517437 18775 net.cpp:411] loss2/classifier-attribute_loss2/classifier-attribute_0_split -> loss2/classifier-attribute_loss2/classifier-attribute_0_split_0
I1125 19:29:19.517444 18775 net.cpp:411] loss2/classifier-attribute_loss2/classifier-attribute_0_split -> loss2/classifier-attribute_loss2/classifier-attribute_0_split_1
I1125 19:29:19.517506 18775 net.cpp:150] Setting up loss2/classifier-attribute_loss2/classifier-attribute_0_split
I1125 19:29:19.517514 18775 net.cpp:157] Top shape: 64 6 (384)
I1125 19:29:19.517518 18775 net.cpp:157] Top shape: 64 6 (384)
I1125 19:29:19.517521 18775 net.cpp:165] Memory required for data: 3222416136
I1125 19:29:19.517524 18775 layer_factory.hpp:76] Creating layer loss2/loss
I1125 19:29:19.517531 18775 net.cpp:106] Creating Layer loss2/loss
I1125 19:29:19.517535 18775 net.cpp:454] loss2/loss <- loss2/classifier-attribute_loss2/classifier-attribute_0_split_0
I1125 19:29:19.517540 18775 net.cpp:454] loss2/loss <- label_data_1_split_2
…
I1125 19:29:19.518136 18775 net.cpp:150] Setting up loss2/top-1
I1125 19:29:19.518139 18775 net.cpp:157] Top shape: (1)
I1125 19:29:19.518142 18775 net.cpp:165] Memory required for data: 3222416144
I1125 19:29:19.518146 18775 layer_factory.hpp:76] Creating layer inception_4e/1x1
I1125 19:29:19.518156 18775 net.cpp:106] Creating Layer inception_4e/1x1
I1125 19:29:19.518159 18775 net.cpp:454] inception_4e/1x1 <- inception_4d/output_inception_4d/output_0_split_1
I1125 19:29:19.518167 18775 net.cpp:411] inception_4e/1x1 -> inception_4e/1x1
I1125 19:29:19.520393 18775 net.cpp:150] Setting up inception_4e/1x1
I1125 19:29:19.520408 18775 net.cpp:157] Top shape: 64 256 14 14 (3211264)
I1125 19:29:19.520412 18775 net.cpp:165] Memory required for data: 3235261200
I1125 19:29:19.520419 18775 layer_factory.hpp:76] Creating layer inception_4e/relu_1x1
I1125 19:29:19.520426 18775 net.cpp:106] Creating Layer inception_4e/relu_1x1
I1125 19:29:19.520429 18775 net.cpp:454] inception_4e/relu_1x1 <- inception_4e/1x1
I1125 19:29:19.520437 18775 net.cpp:397] inception_4e/relu_1x1 -> inception_4e/1x1 (in-place)
I1125 19:29:19.520642 18775 net.cpp:150] Setting up inception_4e/relu_1x1
I1125 19:29:19.520653 18775 net.cpp:157] Top shape: 64 256 14 14 (3211264)
I1125 19:29:19.520658 18775 net.cpp:165] Memory required for data: 3248106256
I1125 19:29:19.520660 18775 layer_factory.hpp:76] Creating layer inception_4e/3x3_reduce
I1125 19:29:19.520669 18775 net.cpp:106] Creating Layer inception_4e/3x3_reduce
I1125 19:29:19.520674 18775 net.cpp:454] inception_4e/3x3_reduce <- inception_4d/output_inception_4d/output_0_split_2
I1125 19:29:19.520681 18775 net.cpp:411] inception_4e/3x3_reduce -> inception_4e/3x3_reduce
I1125 19:29:19.523087 18775 net.cpp:150] Setting up inception_4e/3x3_reduce
I1125 19:29:19.523103 18775 net.cpp:157] Top shape: 64 160 14 14 (2007040)
I1125 19:29:19.523108 18775 net.cpp:165] Memory required for data: 3256134416
I1125 19:29:19.523114 18775 layer_factory.hpp:76] Creating layer inception_4e/relu_3x3_reduce
I1125 19:29:19.523120 18775 net.cpp:106] Creating Layer inception_4e/relu_3x3_reduce
I1125 19:29:19.523124 18775 net.cpp:454] inception_4e/relu_3x3_reduce <- inception_4e/3x3_reduce
I1125 19:29:19.523130 18775 net.cpp:397] inception_4e/relu_3x3_reduce -> inception_4e/3x3_reduce (in-place)
I1125 19:29:19.523507 18775 net.cpp:150] Setting up inception_4e/relu_3x3_reduce
I1125 19:29:19.523521 18775 net.cpp:157] Top shape: 64 160 14 14 (2007040)
I1125 19:29:19.523524 18775 net.cpp:165] Memory required for data: 3264162576
I1125 19:29:19.523529 18775 layer_factory.hpp:76] Creating layer inception_4e/3x3
I1125 19:29:19.523555 18775 net.cpp:106] Creating Layer inception_4e/3x3
I1125 19:29:19.523560 18775 net.cpp:454] inception_4e/3x3 <- inception_4e/3x3_reduce
I1125 19:29:19.523567 18775 net.cpp:411] inception_4e/3x3 -> inception_4e/3x3
I1125 19:29:19.528376 18775 net.cpp:150] Setting up inception_4e/3x3
I1125 19:29:19.528391 18775 net.cpp:157] Top shape: 64 320 14 14 (4014080)
I1125 19:29:19.528395 18775 net.cpp:165] Memory required for data: 3280218896
I1125 19:29:19.528403 18775 layer_factory.hpp:76] Creating layer inception_4e/relu_3x3
I1125 19:29:19.528410 18775 net.cpp:106] Creating Layer inception_4e/relu_3x3
I1125 19:29:19.528414 18775 net.cpp:454] inception_4e/relu_3x3 <- inception_4e/3x3
I1125 19:29:19.528420 18775 net.cpp:397] inception_4e/relu_3x3 -> inception_4e/3x3 (in-place)
I1125 19:29:19.528790 18775 net.cpp:150] Setting up inception_4e/relu_3x3
I1125 19:29:19.528805 18775 net.cpp:157] Top shape: 64 320 14 14 (4014080)
I1125 19:29:19.528807 18775 net.cpp:165] Memory required for data: 3296275216
I1125 19:29:19.528811 18775 layer_factory.hpp:76] Creating layer inception_4e/5x5_reduce
I1125 19:29:19.528821 18775 net.cpp:106] Creating Layer inception_4e/5x5_reduce
I1125 19:29:19.528825 18775 net.cpp:454] inception_4e/5x5_reduce <- inception_4d/output_inception_4d/output_0_split_3
I1125 19:29:19.528833 18775 net.cpp:411] inception_4e/5x5_reduce -> inception_4e/5x5_reduce
I1125 19:29:19.530460 18775 net.cpp:150] Setting up inception_4e/5x5_reduce
I1125 19:29:19.530474 18775 net.cpp:157] Top shape: 64 32 14 14 (401408)
I1125 19:29:19.530478 18775 net.cpp:165] Memory required for data: 3297880848
I1125 19:29:19.530484 18775 layer_factory.hpp:76] Creating layer inception_4e/relu_5x5_reduce
I1125 19:29:19.530490 18775 net.cpp:106] Creating Layer inception_4e/relu_5x5_reduce
I1125 19:29:19.530495 18775 net.cpp:454] inception_4e/relu_5x5_reduce <- inception_4e/5x5_reduce
I1125 19:29:19.530500 18775 net.cpp:397] inception_4e/relu_5x5_reduce -> inception_4e/5x5_reduce (in-place)
I1125 19:29:19.530711 18775 net.cpp:150] Setting up inception_4e/relu_5x5_reduce
I1125 19:29:19.530722 18775 net.cpp:157] Top shape: 64 32 14 14 (401408)
I1125 19:29:19.530725 18775 net.cpp:165] Memory required for data: 3299486480
I1125 19:29:19.530730 18775 layer_factory.hpp:76] Creating layer inception_4e/5x5
I1125 19:29:19.530740 18775 net.cpp:106] Creating Layer inception_4e/5x5
I1125 19:29:19.530743 18775 net.cpp:454] inception_4e/5x5 <- inception_4e/5x5_reduce
I1125 19:29:19.530750 18775 net.cpp:411] inception_4e/5x5 -> inception_4e/5x5
I1125 19:29:19.532771 18775 net.cpp:150] Setting up inception_4e/5x5
I1125 19:29:19.532788 18775 net.cpp:157] Top shape: 64 128 14 14 (1605632)
I1125 19:29:19.532791 18775 net.cpp:165] Memory required for data: 3305909008
I1125 19:29:19.532798 18775 layer_factory.hpp:76] Creating layer inception_4e/relu_5x5
I1125 19:29:19.532804 18775 net.cpp:106] Creating Layer inception_4e/relu_5x5
I1125 19:29:19.532807 18775 net.cpp:454] inception_4e/relu_5x5 <- inception_4e/5x5
I1125 19:29:19.532814 18775 net.cpp:397] inception_4e/relu_5x5 -> inception_4e/5x5 (in-place)
I1125 19:29:19.533186 18775 net.cpp:150] Setting up inception_4e/relu_5x5
I1125 19:29:19.533200 18775 net.cpp:157] Top shape: 64 128 14 14 (1605632)
I1125 19:29:19.533203 18775 net.cpp:165] Memory required for data: 3312331536
I1125 19:29:19.533207 18775 layer_factory.hpp:76] Creating layer inception_4e/pool
I1125 19:29:19.533215 18775 net.cpp:106] Creating Layer inception_4e/pool
I1125 19:29:19.533218 18775 net.cpp:454] inception_4e/pool <- inception_4d/output_inception_4d/output_0_split_4
I1125 19:29:19.533226 18775 net.cpp:411] inception_4e/pool -> inception_4e/pool
I1125 19:29:19.533504 18775 net.cpp:150] Setting up inception_4e/pool
I1125 19:29:19.533516 18775 net.cpp:157] Top shape: 64 528 14 14 (6623232)
I1125 19:29:19.533519 18775 net.cpp:165] Memory required for data: 3338824464
I1125 19:29:19.533522 18775 layer_factory.hpp:76] Creating layer inception_4e/pool_proj
I1125 19:29:19.533531 18775 net.cpp:106] Creating Layer inception_4e/pool_proj
I1125 19:29:19.533536 18775 net.cpp:454] inception_4e/pool_proj <- inception_4e/pool
I1125 19:29:19.533543 18775 net.cpp:411] inception_4e/pool_proj -> inception_4e/pool_proj
I1125 19:29:19.535351 18775 net.cpp:150] Setting up inception_4e/pool_proj
I1125 19:29:19.535367 18775 net.cpp:157] Top shape: 64 128 14 14 (1605632)
I1125 19:29:19.535370 18775 net.cpp:165] Memory required for data: 3345246992
I1125 19:29:19.535377 18775 layer_factory.hpp:76] Creating layer inception_4e/relu_pool_proj
I1125 19:29:19.535384 18775 net.cpp:106] Creating Layer inception_4e/relu_pool_proj
I1125 19:29:19.535388 18775 net.cpp:454] inception_4e/relu_pool_proj <- inception_4e/pool_proj
I1125 19:29:19.535393 18775 net.cpp:397] inception_4e/relu_pool_proj -> inception_4e/pool_proj (in-place)
I1125 19:29:19.535773 18775 net.cpp:150] Setting up inception_4e/relu_pool_proj
I1125 19:29:19.535787 18775 net.cpp:157] Top shape: 64 128 14 14 (1605632)
I1125 19:29:19.535790 18775 net.cpp:165] Memory required for data: 3351669520
I1125 19:29:19.535794 18775 layer_factory.hpp:76] Creating layer inception_4e/output
I1125 19:29:19.535801 18775 net.cpp:106] Creating Layer inception_4e/output
I1125 19:29:19.535809 18775 net.cpp:454] inception_4e/output <- inception_4e/1x1
I1125 19:29:19.535814 18775 net.cpp:454] inception_4e/output <- inception_4e/3x3
I1125 19:29:19.535819 18775 net.cpp:454] inception_4e/output <- inception_4e/5x5
I1125 19:29:19.535822 18775 net.cpp:454] inception_4e/output <- inception_4e/pool_proj
I1125 19:29:19.535826 18775 net.cpp:411] inception_4e/output -> inception_4e/output
I1125 19:29:19.535879 18775 net.cpp:150] Setting up inception_4e/output
I1125 19:29:19.535887 18775 net.cpp:157] Top shape: 64 832 14 14 (10436608)
I1125 19:29:19.535889 18775 net.cpp:165] Memory required for data: 3393415952
I1125 19:29:19.535892 18775 layer_factory.hpp:76] Creating layer pool4/3x3_s2
I1125 19:29:19.535898 18775 net.cpp:106] Creating Layer pool4/3x3_s2
I1125 19:29:19.535902 18775 net.cpp:454] pool4/3x3_s2 <- inception_4e/output
I1125 19:29:19.535908 18775 net.cpp:411] pool4/3x3_s2 -> pool4/3x3_s2
I1125 19:29:19.536201 18775 net.cpp:150] Setting up pool4/3x3_s2
I1125 19:29:19.536217 18775 net.cpp:157] Top shape: 64 832 7 7 (2609152)
I1125 19:29:19.536221 18775 net.cpp:165] Memory required for data: 3403852560
I1125 19:29:19.536224 18775 layer_factory.hpp:76] Creating layer pool4/3x3_s2_pool4/3x3_s2_0_split
I1125 19:29:19.536231 18775 net.cpp:106] Creating Layer pool4/3x3_s2_pool4/3x3_s2_0_split
I1125 19:29:19.536234 18775 net.cpp:454] pool4/3x3_s2_pool4/3x3_s2_0_split <- pool4/3x3_s2
I1125 19:29:19.536239 18775 net.cpp:411] pool4/3x3_s2_pool4/3x3_s2_0_split -> pool4/3x3_s2_pool4/3x3_s2_0_split_0
I1125 19:29:19.536247 18775 net.cpp:411] pool4/3x3_s2_pool4/3x3_s2_0_split -> pool4/3x3_s2_pool4/3x3_s2_0_split_1
I1125 19:29:19.536252 18775 net.cpp:411] pool4/3x3_s2_pool4/3x3_s2_0_split -> pool4/3x3_s2_pool4/3x3_s2_0_split_2
I1125 19:29:19.536258 18775 net.cpp:411] pool4/3x3_s2_pool4/3x3_s2_0_split -> pool4/3x3_s2_pool4/3x3_s2_0_split_3
I1125 19:29:19.536370 18775 net.cpp:150] Setting up pool4/3x3_s2_pool4/3x3_s2_0_split
I1125 19:29:19.536380 18775 net.cpp:157] Top shape: 64 832 7 7 (2609152)
I1125 19:29:19.536383 18775 net.cpp:157] Top shape: 64 832 7 7 (2609152)
I1125 19:29:19.536386 18775 net.cpp:157] Top shape: 64 832 7 7 (2609152)
I1125 19:29:19.536389 18775 net.cpp:157] Top shape: 64 832 7 7 (2609152)
I1125 19:29:19.536392 18775 net.cpp:165] Memory required for data: 3445598992
I1125 19:29:19.536396 18775 layer_factory.hpp:76] Creating layer inception_5a/1x1
I1125 19:29:19.536404 18775 net.cpp:106] Creating Layer inception_5a/1x1
I1125 19:29:19.536408 18775 net.cpp:454] inception_5a/1x1 <- pool4/3x3_s2_pool4/3x3_s2_0_split_0
I1125 19:29:19.536415 18775 net.cpp:411] inception_5a/1x1 -> inception_5a/1x1
I1125 19:29:19.539567 18775 net.cpp:150] Setting up inception_5a/1x1
I1125 19:29:19.539584 18775 net.cpp:157] Top shape: 64 256 7 7 (802816)
I1125 19:29:19.539588 18775 net.cpp:165] Memory required for data: 3448810256
I1125 19:29:19.539595 18775 layer_factory.hpp:76] Creating layer inception_5a/relu_1x1
I1125 19:29:19.539600 18775 net.cpp:106] Creating Layer inception_5a/relu_1x1
I1125 19:29:19.539605 18775 net.cpp:454] inception_5a/relu_1x1 <- inception_5a/1x1
I1125 19:29:19.539610 18775 net.cpp:397] inception_5a/relu_1x1 -> inception_5a/1x1 (in-place)
I1125 19:29:19.539830 18775 net.cpp:150] Setting up inception_5a/relu_1x1
I1125 19:29:19.539842 18775 net.cpp:157] Top shape: 64 256 7 7 (802816)
I1125 19:29:19.539845 18775 net.cpp:165] Memory required for data: 3452021520
I1125 19:29:19.539849 18775 layer_factory.hpp:76] Creating layer inception_5a/3x3_reduce
I1125 19:29:19.539858 18775 net.cpp:106] Creating Layer inception_5a/3x3_reduce
I1125 19:29:19.539862 18775 net.cpp:454] inception_5a/3x3_reduce <- pool4/3x3_s2_pool4/3x3_s2_0_split_1
I1125 19:29:19.539868 18775 net.cpp:411] inception_5a/3x3_reduce -> inception_5a/3x3_reduce
I1125 19:29:19.542656 18775 net.cpp:150] Setting up inception_5a/3x3_reduce
I1125 19:29:19.542671 18775 net.cpp:157] Top shape: 64 160 7 7 (501760)
I1125 19:29:19.542676 18775 net.cpp:165] Memory required for data: 3454028560
I1125 19:29:19.542682 18775 layer_factory.hpp:76] Creating layer inception_5a/relu_3x3_reduce
I1125 19:29:19.542688 18775 net.cpp:106] Creating Layer inception_5a/relu_3x3_reduce
I1125 19:29:19.542693 18775 net.cpp:454] inception_5a/relu_3x3_reduce <- inception_5a/3x3_reduce
I1125 19:29:19.542698 18775 net.cpp:397] inception_5a/relu_3x3_reduce -> inception_5a/3x3_reduce (in-place)
I1125 19:29:19.543062 18775 net.cpp:150] Setting up inception_5a/relu_3x3_reduce
I1125 19:29:19.543076 18775 net.cpp:157] Top shape: 64 160 7 7 (501760)
I1125 19:29:19.543079 18775 net.cpp:165] Memory required for data: 3456035600
I1125 19:29:19.543083 18775 layer_factory.hpp:76] Creating layer inception_5a/3x3
I1125 19:29:19.543093 18775 net.cpp:106] Creating Layer inception_5a/3x3
I1125 19:29:19.543097 18775 net.cpp:454] inception_5a/3x3 <- inception_5a/3x3_reduce
I1125 19:29:19.543107 18775 net.cpp:411] inception_5a/3x3 -> inception_5a/3x3
I1125 19:29:19.548065 18775 net.cpp:150] Setting up inception_5a/3x3
I1125 19:29:19.548081 18775 net.cpp:157] Top shape: 64 320 7 7 (1003520)
I1125 19:29:19.548084 18775 net.cpp:165] Memory required for data: 3460049680
I1125 19:29:19.548091 18775 layer_factory.hpp:76] Creating layer inception_5a/relu_3x3
I1125 19:29:19.548099 18775 net.cpp:106] Creating Layer inception_5a/relu_3x3
I1125 19:29:19.548104 18775 net.cpp:454] inception_5a/relu_3x3 <- inception_5a/3x3
I1125 19:29:19.548108 18775 net.cpp:397] inception_5a/relu_3x3 -> inception_5a/3x3 (in-place)
I1125 19:29:19.548319 18775 net.cpp:150] Setting up inception_5a/relu_3x3
I1125 19:29:19.548331 18775 net.cpp:157] Top shape: 64 320 7 7 (1003520)
I1125 19:29:19.548334 18775 net.cpp:165] Memory required for data: 3464063760
I1125 19:29:19.548338 18775 layer_factory.hpp:76] Creating layer inception_5a/5x5_reduce
I1125 19:29:19.548348 18775 net.cpp:106] Creating Layer inception_5a/5x5_reduce
I1125 19:29:19.548353 18775 net.cpp:454] inception_5a/5x5_reduce <- pool4/3x3_s2_pool4/3x3_s2_0_split_2
I1125 19:29:19.548359 18775 net.cpp:411] inception_5a/5x5_reduce -> inception_5a/5x5_reduce
I1125 19:29:19.550400 18775 net.cpp:150] Setting up inception_5a/5x5_reduce
I1125 19:29:19.550415 18775 net.cpp:157] Top shape: 64 32 7 7 (100352)
I1125 19:29:19.550418 18775 net.cpp:165] Memory required for data: 3464465168
I1125 19:29:19.550425 18775 layer_factory.hpp:76] Creating layer inception_5a/relu_5x5_reduce
I1125 19:29:19.550432 18775 net.cpp:106] Creating Layer inception_5a/relu_5x5_reduce
I1125 19:29:19.550437 18775 net.cpp:454] inception_5a/relu_5x5_reduce <- inception_5a/5x5_reduce
I1125 19:29:19.550443 18775 net.cpp:397] inception_5a/relu_5x5_reduce -> inception_5a/5x5_reduce (in-place)
I1125 19:29:19.550659 18775 net.cpp:150] Setting up inception_5a/relu_5x5_reduce
I1125 19:29:19.550670 18775 net.cpp:157] Top shape: 64 32 7 7 (100352)
I1125 19:29:19.550674 18775 net.cpp:165] Memory required for data: 3464866576
I1125 19:29:19.550678 18775 layer_factory.hpp:76] Creating layer inception_5a/5x5
I1125 19:29:19.550688 18775 net.cpp:106] Creating Layer inception_5a/5x5
I1125 19:29:19.550691 18775 net.cpp:454] inception_5a/5x5 <- inception_5a/5x5_reduce
I1125 19:29:19.550698 18775 net.cpp:411] inception_5a/5x5 -> inception_5a/5x5
I1125 19:29:19.552871 18775 net.cpp:150] Setting up inception_5a/5x5
I1125 19:29:19.552886 18775 net.cpp:157] Top shape: 64 128 7 7 (401408)
I1125 19:29:19.552891 18775 net.cpp:165] Memory required for data: 3466472208
I1125 19:29:19.552896 18775 layer_factory.hpp:76] Creating layer inception_5a/relu_5x5
I1125 19:29:19.552913 18775 net.cpp:106] Creating Layer inception_5a/relu_5x5
I1125 19:29:19.552919 18775 net.cpp:454] inception_5a/relu_5x5 <- inception_5a/5x5
I1125 19:29:19.552924 18775 net.cpp:397] inception_5a/relu_5x5 -> inception_5a/5x5 (in-place)
I1125 19:29:19.553313 18775 net.cpp:150] Setting up inception_5a/relu_5x5
I1125 19:29:19.553328 18775 net.cpp:157] Top shape: 64 128 7 7 (401408)
I1125 19:29:19.553331 18775 net.cpp:165] Memory required for data: 3468077840
I1125 19:29:19.553335 18775 layer_factory.hpp:76] Creating layer inception_5a/pool
I1125 19:29:19.553342 18775 net.cpp:106] Creating Layer inception_5a/pool
I1125 19:29:19.553347 18775 net.cpp:454] inception_5a/pool <- pool4/3x3_s2_pool4/3x3_s2_0_split_3
I1125 19:29:19.553352 18775 net.cpp:411] inception_5a/pool -> inception_5a/pool
I1125 19:29:19.553644 18775 net.cpp:150] Setting up inception_5a/pool
I1125 19:29:19.553658 18775 net.cpp:157] Top shape: 64 832 7 7 (2609152)
I1125 19:29:19.553660 18775 net.cpp:165] Memory required for data: 3478514448
I1125 19:29:19.553663 18775 layer_factory.hpp:76] Creating layer inception_5a/pool_proj
I1125 19:29:19.553673 18775 net.cpp:106] Creating Layer inception_5a/pool_proj
I1125 19:29:19.553678 18775 net.cpp:454] inception_5a/pool_proj <- inception_5a/pool
I1125 19:29:19.553684 18775 net.cpp:411] inception_5a/pool_proj -> inception_5a/pool_proj
I1125 19:29:19.556246 18775 net.cpp:150] Setting up inception_5a/pool_proj
I1125 19:29:19.556262 18775 net.cpp:157] Top shape: 64 128 7 7 (401408)
I1125 19:29:19.556264 18775 net.cpp:165] Memory required for data: 3480120080
I1125 19:29:19.556272 18775 layer_factory.hpp:76] Creating layer inception_5a/relu_pool_proj
I1125 19:29:19.556278 18775 net.cpp:106] Creating Layer inception_5a/relu_pool_proj
I1125 19:29:19.556283 18775 net.cpp:454] inception_5a/relu_pool_proj <- inception_5a/pool_proj
I1125 19:29:19.556290 18775 net.cpp:397] inception_5a/relu_pool_proj -> inception_5a/pool_proj (in-place)
I1125 19:29:19.556665 18775 net.cpp:150] Setting up inception_5a/relu_pool_proj
I1125 19:29:19.556679 18775 net.cpp:157] Top shape: 64 128 7 7 (401408)
I1125 19:29:19.556684 18775 net.cpp:165] Memory required for data: 3481725712
I1125 19:29:19.556686 18775 layer_factory.hpp:76] Creating layer inception_5a/output
I1125 19:29:19.556694 18775 net.cpp:106] Creating Layer inception_5a/output
I1125 19:29:19.556699 18775 net.cpp:454] inception_5a/output <- inception_5a/1x1
I1125 19:29:19.556704 18775 net.cpp:454] inception_5a/output <- inception_5a/3x3
I1125 19:29:19.556709 18775 net.cpp:454] inception_5a/output <- inception_5a/5x5
I1125 19:29:19.556712 18775 net.cpp:454] inception_5a/output <- inception_5a/pool_proj
I1125 19:29:19.556716 18775 net.cpp:411] inception_5a/output -> inception_5a/output
I1125 19:29:19.556771 18775 net.cpp:150] Setting up inception_5a/output
I1125 19:29:19.556778 18775 net.cpp:157] Top shape: 64 832 7 7 (2609152)
I1125 19:29:19.556782 18775 net.cpp:165] Memory required for data: 3492162320
I1125 19:29:19.556784 18775 layer_factory.hpp:76] Creating layer inception_5a/output_inception_5a/output_0_split
I1125 19:29:19.556792 18775 net.cpp:106] Creating Layer inception_5a/output_inception_5a/output_0_split
I1125 19:29:19.556794 18775 net.cpp:454] inception_5a/output_inception_5a/output_0_split <- inception_5a/output
I1125 19:29:19.556803 18775 net.cpp:411] inception_5a/output_inception_5a/output_0_split -> inception_5a/output_inception_5a/output_0_split_0
I1125 19:29:19.556810 18775 net.cpp:411] inception_5a/output_inception_5a/output_0_split -> inception_5a/output_inception_5a/output_0_split_1
I1125 19:29:19.556816 18775 net.cpp:411] inception_5a/output_inception_5a/output_0_split -> inception_5a/output_inception_5a/output_0_split_2
I1125 19:29:19.556821 18775 net.cpp:411] inception_5a/output_inception_5a/output_0_split -> inception_5a/output_inception_5a/output_0_split_3
I1125 19:29:19.556937 18775 net.cpp:150] Setting up inception_5a/output_inception_5a/output_0_split
I1125 19:29:19.556946 18775 net.cpp:157] Top shape: 64 832 7 7 (2609152)
I1125 19:29:19.556951 18775 net.cpp:157] Top shape: 64 832 7 7 (2609152)
I1125 19:29:19.556953 18775 net.cpp:157] Top shape: 64 832 7 7 (2609152)
I1125 19:29:19.556957 18775 net.cpp:157] Top shape: 64 832 7 7 (2609152)
I1125 19:29:19.556959 18775 net.cpp:165] Memory required for data: 3533908752
I1125 19:29:19.556963 18775 layer_factory.hpp:76] Creating layer inception_5b/1x1
I1125 19:29:19.556972 18775 net.cpp:106] Creating Layer inception_5b/1x1
I1125 19:29:19.556977 18775 net.cpp:454] inception_5b/1x1 <- inception_5a/output_inception_5a/output_0_split_0
I1125 19:29:19.556982 18775 net.cpp:411] inception_5b/1x1 -> inception_5b/1x1
I1125 19:29:19.560873 18775 net.cpp:150] Setting up inception_5b/1x1
I1125 19:29:19.560889 18775 net.cpp:157] Top shape: 64 384 7 7 (1204224)
I1125 19:29:19.560894 18775 net.cpp:165] Memory required for data: 3538725648
I1125 19:29:19.560900 18775 layer_factory.hpp:76] Creating layer inception_5b/relu_1x1
I1125 19:29:19.560906 18775 net.cpp:106] Creating Layer inception_5b/relu_1x1
I1125 19:29:19.560910 18775 net.cpp:454] inception_5b/relu_1x1 <- inception_5b/1x1
I1125 19:29:19.560915 18775 net.cpp:397] inception_5b/relu_1x1 -> inception_5b/1x1 (in-place)
I1125 19:29:19.561298 18775 net.cpp:150] Setting up inception_5b/relu_1x1
I1125 19:29:19.561312 18775 net.cpp:157] Top shape: 64 384 7 7 (1204224)
I1125 19:29:19.561316 18775 net.cpp:165] Memory required for data: 3543542544
I1125 19:29:19.561319 18775 layer_factory.hpp:76] Creating layer inception_5b/3x3_reduce
I1125 19:29:19.561328 18775 net.cpp:106] Creating Layer inception_5b/3x3_reduce
I1125 19:29:19.561333 18775 net.cpp:454] inception_5b/3x3_reduce <- inception_5a/output_inception_5a/output_0_split_1
I1125 19:29:19.561339 18775 net.cpp:411] inception_5b/3x3_reduce -> inception_5b/3x3_reduce
I1125 19:29:19.564225 18775 net.cpp:150] Setting up inception_5b/3x3_reduce
I1125 19:29:19.564241 18775 net.cpp:157] Top shape: 64 192 7 7 (602112)
I1125 19:29:19.564244 18775 net.cpp:165] Memory required for data: 3545950992
I1125 19:29:19.564251 18775 layer_factory.hpp:76] Creating layer inception_5b/relu_3x3_reduce
I1125 19:29:19.564257 18775 net.cpp:106] Creating Layer inception_5b/relu_3x3_reduce
I1125 19:29:19.564261 18775 net.cpp:454] inception_5b/relu_3x3_reduce <- inception_5b/3x3_reduce
I1125 19:29:19.564266 18775 net.cpp:397] inception_5b/relu_3x3_reduce -> inception_5b/3x3_reduce (in-place)
I1125 19:29:19.564482 18775 net.cpp:150] Setting up inception_5b/relu_3x3_reduce
I1125 19:29:19.564493 18775 net.cpp:157] Top shape: 64 192 7 7 (602112)
I1125 19:29:19.564496 18775 net.cpp:165] Memory required for data: 3548359440
I1125 19:29:19.564501 18775 layer_factory.hpp:76] Creating layer inception_5b/3x3
I1125 19:29:19.564509 18775 net.cpp:106] Creating Layer inception_5b/3x3
I1125 19:29:19.564513 18775 net.cpp:454] inception_5b/3x3 <- inception_5b/3x3_reduce
I1125 19:29:19.564520 18775 net.cpp:411] inception_5b/3x3 -> inception_5b/3x3
I1125 19:29:19.571001 18775 net.cpp:150] Setting up inception_5b/3x3
I1125 19:29:19.571017 18775 net.cpp:157] Top shape: 64 384 7 7 (1204224)
I1125 19:29:19.571020 18775 net.cpp:165] Memory required for data: 3553176336
I1125 19:29:19.571027 18775 layer_factory.hpp:76] Creating layer inception_5b/relu_3x3
I1125 19:29:19.571034 18775 net.cpp:106] Creating Layer inception_5b/relu_3x3
I1125 19:29:19.571038 18775 net.cpp:454] inception_5b/relu_3x3 <- inception_5b/3x3
I1125 19:29:19.571044 18775 net.cpp:397] inception_5b/relu_3x3 -> inception_5b/3x3 (in-place)
I1125 19:29:19.571429 18775 net.cpp:150] Setting up inception_5b/relu_3x3
I1125 19:29:19.571442 18775 net.cpp:157] Top shape: 64 384 7 7 (1204224)
I1125 19:29:19.571445 18775 net.cpp:165] Memory required for data: 3557993232
I1125 19:29:19.571449 18775 layer_factory.hpp:76] Creating layer inception_5b/5x5_reduce
I1125 19:29:19.571461 18775 net.cpp:106] Creating Layer inception_5b/5x5_reduce
I1125 19:29:19.571466 18775 net.cpp:454] inception_5b/5x5_reduce <- inception_5a/output_inception_5a/output_0_split_2
I1125 19:29:19.571473 18775 net.cpp:411] inception_5b/5x5_reduce -> inception_5b/5x5_reduce
I1125 19:29:19.573324 18775 net.cpp:150] Setting up inception_5b/5x5_reduce
I1125 19:29:19.573339 18775 net.cpp:157] Top shape: 64 48 7 7 (150528)
I1125 19:29:19.573343 18775 net.cpp:165] Memory required for data: 3558595344
I1125 19:29:19.573350 18775 layer_factory.hpp:76] Creating layer inception_5b/relu_5x5_reduce
I1125 19:29:19.573356 18775 net.cpp:106] Creating Layer inception_5b/relu_5x5_reduce
I1125 19:29:19.573360 18775 net.cpp:454] inception_5b/relu_5x5_reduce <- inception_5b/5x5_reduce
I1125 19:29:19.573366 18775 net.cpp:397] inception_5b/relu_5x5_reduce -> inception_5b/5x5_reduce (in-place)
I1125 19:29:19.573748 18775 net.cpp:150] Setting up inception_5b/relu_5x5_reduce
I1125 19:29:19.573762 18775 net.cpp:157] Top shape: 64 48 7 7 (150528)
I1125 19:29:19.573766 18775 net.cpp:165] Memory required for data: 3559197456
I1125 19:29:19.573770 18775 layer_factory.hpp:76] Creating layer inception_5b/5x5
I1125 19:29:19.573779 18775 net.cpp:106] Creating Layer inception_5b/5x5
I1125 19:29:19.573783 18775 net.cpp:454] inception_5b/5x5 <- inception_5b/5x5_reduce
I1125 19:29:19.573791 18775 net.cpp:411] inception_5b/5x5 -> inception_5b/5x5
I1125 19:29:19.575989 18775 net.cpp:150] Setting up inception_5b/5x5
I1125 19:29:19.576004 18775 net.cpp:157] Top shape: 64 128 7 7 (401408)
I1125 19:29:19.576007 18775 net.cpp:165] Memory required for data: 3560803088
I1125 19:29:19.576015 18775 layer_factory.hpp:76] Creating layer inception_5b/relu_5x5
I1125 19:29:19.576021 18775 net.cpp:106] Creating Layer inception_5b/relu_5x5
I1125 19:29:19.576026 18775 net.cpp:454] inception_5b/relu_5x5 <- inception_5b/5x5
I1125 19:29:19.576033 18775 net.cpp:397] inception_5b/relu_5x5 -> inception_5b/5x5 (in-place)
I1125 19:29:19.576253 18775 net.cpp:150] Setting up inception_5b/relu_5x5
I1125 19:29:19.576266 18775 net.cpp:157] Top shape: 64 128 7 7 (401408)
I1125 19:29:19.576268 18775 net.cpp:165] Memory required for data: 3562408720
I1125 19:29:19.576272 18775 layer_factory.hpp:76] Creating layer inception_5b/pool
I1125 19:29:19.576279 18775 net.cpp:106] Creating Layer inception_5b/pool
I1125 19:29:19.576284 18775 net.cpp:454] inception_5b/pool <- inception_5a/output_inception_5a/output_0_split_3
I1125 19:29:19.576289 18775 net.cpp:411] inception_5b/pool -> inception_5b/pool
I1125 19:29:19.576700 18775 net.cpp:150] Setting up inception_5b/pool
I1125 19:29:19.576714 18775 net.cpp:157] Top shape: 64 832 7 7 (2609152)
I1125 19:29:19.576717 18775 net.cpp:165] Memory required for data: 3572845328
I1125 19:29:19.576721 18775 layer_factory.hpp:76] Creating layer inception_5b/pool_proj
I1125 19:29:19.576731 18775 net.cpp:106] Creating Layer inception_5b/pool_proj
I1125 19:29:19.576735 18775 net.cpp:454] inception_5b/pool_proj <- inception_5b/pool
I1125 19:29:19.576745 18775 net.cpp:411] inception_5b/pool_proj -> inception_5b/pool_proj
I1125 19:29:19.579126 18775 net.cpp:150] Setting up inception_5b/pool_proj
I1125 19:29:19.579141 18775 net.cpp:157] Top shape: 64 128 7 7 (401408)
I1125 19:29:19.579145 18775 net.cpp:165] Memory required for data: 3574450960
I1125 19:29:19.579151 18775 layer_factory.hpp:76] Creating layer inception_5b/relu_pool_proj
I1125 19:29:19.579157 18775 net.cpp:106] Creating Layer inception_5b/relu_pool_proj
I1125 19:29:19.579162 18775 net.cpp:454] inception_5b/relu_pool_proj <- inception_5b/pool_proj
I1125 19:29:19.579167 18775 net.cpp:397] inception_5b/relu_pool_proj -> inception_5b/pool_proj (in-place)
I1125 19:29:19.579377 18775 net.cpp:150] Setting up inception_5b/relu_pool_proj
I1125 19:29:19.579388 18775 net.cpp:157] Top shape: 64 128 7 7 (401408)
I1125 19:29:19.579392 18775 net.cpp:165] Memory required for data: 3576056592
I1125 19:29:19.579396 18775 layer_factory.hpp:76] Creating layer inception_5b/output
I1125 19:29:19.579401 18775 net.cpp:106] Creating Layer inception_5b/output
I1125 19:29:19.579406 18775 net.cpp:454] inception_5b/output <- inception_5b/1x1
I1125 19:29:19.579411 18775 net.cpp:454] inception_5b/output <- inception_5b/3x3
I1125 19:29:19.579414 18775 net.cpp:454] inception_5b/output <- inception_5b/5x5
I1125 19:29:19.579417 18775 net.cpp:454] inception_5b/output <- inception_5b/pool_proj
I1125 19:29:19.579423 18775 net.cpp:411] inception_5b/output -> inception_5b/output
I1125 19:29:19.579452 18775 net.cpp:150] Setting up inception_5b/output
I1125 19:29:19.579458 18775 net.cpp:157] Top shape: 64 1024 7 7 (3211264)
I1125 19:29:19.579462 18775 net.cpp:165] Memory required for data: 3588901648
I1125 19:29:19.579464 18775 layer_factory.hpp:76] Creating layer pool5/7x7_s1
I1125 19:29:19.579471 18775 net.cpp:106] Creating Layer pool5/7x7_s1
I1125 19:29:19.579475 18775 net.cpp:454] pool5/7x7_s1 <- inception_5b/output
I1125 19:29:19.579480 18775 net.cpp:411] pool5/7x7_s1 -> pool5/7x7_s1
I1125 19:29:19.580024 18775 net.cpp:150] Setting up pool5/7x7_s1
I1125 19:29:19.580037 18775 net.cpp:157] Top shape: 64 1024 1 1 (65536)
I1125 19:29:19.580040 18775 net.cpp:165] Memory required for data: 3589163792
I1125 19:29:19.580044 18775 layer_factory.hpp:76] Creating layer pool5/drop_7x7_s1
I1125 19:29:19.580052 18775 net.cpp:106] Creating Layer pool5/drop_7x7_s1
I1125 19:29:19.580056 18775 net.cpp:454] pool5/drop_7x7_s1 <- pool5/7x7_s1
I1125 19:29:19.580061 18775 net.cpp:397] pool5/drop_7x7_s1 -> pool5/7x7_s1 (in-place)
I1125 19:29:19.580090 18775 net.cpp:150] Setting up pool5/drop_7x7_s1
I1125 19:29:19.580095 18775 net.cpp:157] Top shape: 64 1024 1 1 (65536)
I1125 19:29:19.580097 18775 net.cpp:165] Memory required for data: 3589425936
I1125 19:29:19.580101 18775 layer_factory.hpp:76] Creating layer loss3/classifier-attribute
I1125 19:29:19.580108 18775 net.cpp:106] Creating Layer loss3/classifier-attribute
I1125 19:29:19.580111 18775 net.cpp:454] loss3/classifier-attribute <- pool5/7x7_s1
I1125 19:29:19.580117 18775 net.cpp:411] loss3/classifier-attribute -> loss3/classifier-attribute
I1125 19:29:19.580273 18775 net.cpp:150] Setting up loss3/classifier-attribute
I1125 19:29:19.580282 18775 net.cpp:157] Top shape: 64 6 (384)
I1125 19:29:19.580286 18775 net.cpp:165] Memory required for data: 3589427472
I1125 19:29:19.580291 18775 layer_factory.hpp:76] Creating layer loss3/classifier-attribute_loss3/classifier-attribute_0_split
I1125 19:29:19.580297 18775 net.cpp:106] Creating Layer loss3/classifier-attribute_loss3/classifier-attribute_0_split
I1125 19:29:19.580302 18775 net.cpp:454] loss3/classifier-attribute_loss3/classifier-attribute_0_split <- loss3/classifier-attribute
I1125 19:29:19.580308 18775 net.cpp:411] loss3/classifier-attribute_loss3/classifier-attribute_0_split -> loss3/classifier-attribute_loss3/classifier-attribute_0_split_0
I1125 19:29:19.580314 18775 net.cpp:411] loss3/classifier-attribute_loss3/classifier-attribute_0_split -> loss3/classifier-attribute_loss3/classifier-attribute_0_split_1
I1125 19:29:19.580346 18775 net.cpp:150] Setting up loss3/classifier-attribute_loss3/classifier-attribute_0_split
I1125 19:29:19.580353 18775 net.cpp:157] Top shape: 64 6 (384)
I1125 19:29:19.580358 18775 net.cpp:157] Top shape: 64 6 (384)
I1125 19:29:19.580360 18775 net.cpp:165] Memory required for data: 3589430544
I1125 19:29:19.580363 18775 layer_factory.hpp:76] Creating layer loss3/loss3
I1125 19:29:19.580369 18775 net.cpp:106] Creating Layer loss3/loss3
I1125 19:29:19.580373 18775 net.cpp:454] loss3/loss3 <- loss3/classifier-attribute_loss3/classifier-attribute_0_split_0
I1125 19:29:19.580376 18775 net.cpp:454] loss3/loss3 <- label_data_1_split_4
…
