…
state {
  phase: TRAIN
}
layer {
  name: "data"
  type: "ImageData"
  top: "data"
  top: "dummylabel"
  include {
    phase: TRAIN
  }
  transform_param {
    mirror: true
    crop_size: 224
    mean_value: 104
    mean_value: 117
    mean_value: 123
  }
  image_data_param {
    source: "pad_train_shuffle.txt"
    batch_size: 64
    new_height: 256
    new_width: 256
  }
}
layer {
  name: "label"
  type: "Data"
  top: "classlabel"
  include {
    phase: TRAIN
  }
  data_param {
    source: "lmdb_train_pad"
    batch_size: 64
    backend: LMDB
  }
}
layer {
  name: "slice_attribute"
  type: "Slice"
  bottom: "classlabel"
  top: "00.category"
  top: "01.style"
  top: "02.collar_shape"
  top: "03.sleeve_length"
  top: "04.material"
  top: "05.pattern"
  top: "06.button_shape"
  top: "07.sleeve_length"
  top: "08.clothes_length"
  top: "09.fashion_elements"
  top: "10.season"
  top: "11.shape"
  top: "12.age"
  top: "13.skirt_length"
  top: "14.skirt_shape"
  top: "15.waist_shape"
  top: "16.combining"
  top: "17.onepiece_shape"
  top: "18.thickness"
  top: "19.pants_length"
  top: "20.pants_shape"
  top: "21.color"
  slice_param {
    slice_dim: 1
    slice_point: 1
    slice_point: 2
    slice_point: 3
    slice_point: 4
    slice_point: 5
    slice_point: 6
    slice_point: 7
    slice_point: 8
    slice_point: 9
    slice_point: 10
    slice_point: 11
    slice_point: 12
    slice_point: 13
    slice_point: 14
    slice_point: 15
    slice_point: 16
    slice_point: 17
    slice_point: 18
    slice_point: 19
    slice_point: 20
    slice_point: 21
  }
}
layer {
  name: "silence"
  type: "Silence"
  bottom: "dummylabel"
}
layer {
  name: "silence_01"
  type: "Silence"
  bottom: "01.style"
}
layer {
  name: "silence_03"
  type: "Silence"
  bottom: "03.sleeve_length"
}
layer {
  name: "silence_04"
  type: "Silence"
  bottom: "04.material"
}
layer {
  name: "silence_07"
  type: "Silence"
  bottom: "07.sleeve_length"
}
layer {
  name: "silence_08"
  type: "Silence"
  bottom: "08.clothes_length"
}
layer {
  name: "silence_10"
  type: "Silence"
  bottom: "10.season"
}
layer {
  name: "silence_11"
  type: "Silence"
  bottom: "11.shape"
}
layer {
  name: "silence_12"
  type: "Silence"
  bottom: "12.age"
}
layer {
  name: "silence_13"
  type: "Silence"
  bottom: "13.skirt_length"
}
layer {
  name: "silence_14"
  type: "Silence"
  bottom: "14.skirt_shape"
}
layer {
  name: "silence_15"
  type: "Silence"
  bottom: "15.waist_shape"
}
layer {
  name: "silence_16"
  type: "Silence"
  bottom: "16.combining"
}
layer {
  name: "silence_17"
  type: "Silence"
  bottom: "17.onepiece_shape"
}
layer {
  name: "silence_18"
  type: "Silence"
  bottom: "18.thickness"
}
layer {
  name: "silence_19"
  type: "Silence"
  bottom: "19.pants_length"
}
layer {
  name: "silence_20"
  type: "Silence"
  bottom: "20.pants_shape"
}
layer {
  name: "conv1/7x7_s2"
  type: "Convolution"
  bottom: "data"
  top: "conv1/7x7_s2"
  param {
    lr_mult: 1
    decay_mult: 1
  }
  param {
    lr_mult: 2
    decay_mult: 0
  }
  convolution_param {
    num_output: 64
    pad: 3
    kernel_size: 7
    stride: 2
    weight_filler {
      type: "xavier"
    }
    bias_filler {
      type: "constant"
      value: 0.2
    }
  }
}
layer {
  name: "conv1/relu_7x7"
  type: "ReLU"
  bottom: "conv1/7x7_s2"
  top: "conv1/7x7_s2"
}
layer {
  name: "pool1/3x3_s2"
  type: "Pooling"
  bottom: "conv1/7x7_s2"
  top: "pool1/3x3_s2"
  pooling_param {
    pool: MAX
    kernel_size: 3
    stride: 2
  }
}
layer {
  name: "pool1/norm1"
  type: "LRN"
  bottom: "pool1/3x3_s2"
  top: "pool1/norm1"
  lrn_param {
    local_size: 5
    alpha: 0.0001
    beta: 0.75
  }
}
layer {
  name: "conv2/3x3_reduce"
  type: "Convolution"
  bottom: "pool1/norm1"
  top: "conv2/3x3_reduce"
  param {
    lr_mult: 1
    decay_mult: 1
  }
  param {
    lr_mult: 2
    decay_mult: 0
  }
  convolution_param {
    num_output: 64
    kernel_size: 1
    weight_filler {
      type: "xavier"
    }
    bias_filler {
      type: "constant"
      value: 0.2
    }
  }
}
layer {
  name: "conv2/relu_3x3_reduce"
  type: "ReLU"
  bottom: "conv2/3x3_reduce"
  top: "conv2/3x3_reduce"
}
layer {
  name: "conv2/3x3"
  type: "Convolution"
  bottom: "conv2/3x3_reduce"
  top: "conv2/3x3"
  param {
    lr_mult: 1
    decay_mult: 1
  }
  param {
    lr_mult: 2
    decay_mult: 0
  }
  convolution_param {
    num_output: 192
    pad: 1
    kernel_size: 3
    weight_filler {
      type: "xavier"
    }
    bias_filler {
      type: "constant"
      value: 0.2
    }
  }
}
layer {
  name: "conv2/relu_3x3"
  type: "ReLU"
  bottom: "conv2/3x3"
  top: "conv2/3x3"
}
layer {
  name: "conv2/norm2"
  type: "LRN"
  bottom: "conv2/3x3"
  top: "conv2/norm2"
  lrn_param {
    local_size: 5
    alpha: 0.0001
    beta: 0.75
  }
}
layer {
  name: "pool2/3x3_s2"
  type: "Pooling"
  bottom: "conv2/norm2"
  top: "pool2/3x3_s2"
  pooling_param {
    pool: MAX
    kernel_size: 3
    stride: 2
  }
}
layer {
  name: "inception_3a/1x1"
  type: "Convolution"
  bottom: "pool2/3x3_s2"
  top: "inception_3a/1x1"
  param {
    lr_mult: 1
    decay_mult: 1
  }
  param {
    lr_mult: 2
    decay_mult: 0
  }
  convolution_param {
    num_output: 64
    kernel_size: 1
    weight_filler {
      type: "xavier"
    }
    bias_filler {
      type: "constant"
      value: 0.2
    }
  }
}
layer {
  name: "inception_3a/relu_1x1"
  type: "ReLU"
  bottom: "inception_3a/1x1"
  top: "inception_3a/1x1"
}
layer {
  name: "inception_3a/3x3_reduce"
  type: "Convolution"
  bottom: "pool2/3x3_s2"
  top: "inception_3a/3x3_reduce"
  param {
    lr_mult: 1
    decay_mult: 1
  }
  param {
    lr_mult: 2
    decay_mult: 0
  }
  convolution_param {
    num_output: 96
    kernel_size: 1
    weight_filler {
      type: "xavier"
    }
    bias_filler {
      type: "constant"
      value: 0.2
    }
  }
}
layer {
  name: "inception_3a/relu_3x3_reduce"
  type: "ReLU"
  bottom: "inception_3a/3x3_reduce"
  top: "inception_3a/3x3_reduce"
}
layer {
  name: "inception_3a/3x3"
  type: "Convolution"
  bottom: "inception_3a/3x3_reduce"
  top: "inception_3a/3x3"
  param {
    lr_mult: 1
    decay_mult: 1
  }
  param {
    lr_mult: 2
    decay_mult: 0
  }
  convolution_param {
    num_output: 128
    pad: 1
    kernel_size: 3
    weight_filler {
      type: "xavier"
    }
    bias_filler {
      type: "constant"
      value: 0.2
    }
  }
}
layer {
  name: "inception_3a/relu_3x3"
  type: "ReLU"
  bottom: "inception_3a/3x3"
  top: "inception_3a/3x3"
}
layer {
  name: "inception_3a/5x5_reduce"
  type: "Convolution"
  bottom: "pool2/3x3_s2"
  top: "inception_3a/5x5_reduce"
  param {
    lr_mult: 1
    decay_mult: 1
  }
  param {
    lr_mult: 2
    decay_mult: 0
  }
  convolution_param {
    num_output: 16
    kernel_size: 1
    weight_filler {
      type: "xavier"
    }
    bias_filler {
      type: "constant"
      value: 0.2
    }
  }
}
layer {
  name: "inception_3a/relu_5x5_reduce"
  type: "ReLU"
  bottom: "inception_3a/5x5_reduce"
  top: "inception_3a/5x5_reduce"
}
layer {
  name: "inception_3a/5x5"
  type: "Convolution"
  bottom: "inception_3a/5x5_reduce"
  top: "inception_3a/5x5"
  param {
    lr_mult: 1
    decay_mult: 1
  }
  param {
    lr_mult: 2
    decay_mult: 0
  }
  convolution_param {
    num_output: 32
    pad: 2
    kernel_size: 5
    weight_filler {
      type: "xavier"
    }
    bias_filler {
      type: "constant"
      value: 0.2
    }
  }
}
layer {
  name: "inception_3a/relu_5x5"
  type: "ReLU"
  bottom: "inception_3a/5x5"
  top: "inception_3a/5x5"
}
layer {
  name: "inception_3a/pool"
  type: "Pooling"
  bottom: "pool2/3x3_s2"
  top: "inception_3a/pool"
  pooling_param {
    pool: MAX
    kernel_size: 3
    stride: 1
    pad: 1
  }
}
layer {
  name: "inception_3a/pool_proj"
  type: "Convolution"
  bottom: "inception_3a/pool"
  top: "inception_3a/pool_proj"
  param {
    lr_mult: 1
    decay_mult: 1
  }
  param {
    lr_mult: 2
    decay_mult: 0
  }
  convolution_param {
    num_output: 32
    kernel_size: 1
    weight_filler {
      type: "xavier"
    }
    bias_filler {
      type: "constant"
      value: 0.2
    }
  }
}
layer {
  name: "inception_3a/relu_pool_proj"
  type: "ReLU"
  bottom: "inception_3a/pool_proj"
  top: "inception_3a/pool_proj"
}
layer {
  name: "inception_3a/output"
  type: "Concat"
  bottom: "inception_3a/1x1"
  bottom: "inception_3a/3x3"
  bottom: "inception_3a/5x5"
  bottom: "inception_3a/pool_proj"
  top: "inception_3a/output"
}
layer {
  name: "inception_3b/1x1"
  type: "Convolution"
  bottom: "inception_3a/output"
  top: "inception_3b/1x1"
  param {
    lr_mult: 1
    decay_mult: 1
  }
  param {
    lr_mult: 2
    decay_mult: 0
  }
  convolution_param {
    num_output: 128
    kernel_size: 1
    weight_filler {
      type: "xavier"
    }
    bias_filler {
      type: "constant"
      value: 0.2
    }
  }
}
layer {
  name: "inception_3b/relu_1x1"
  type: "ReLU"
  bottom: "inception_3b/1x1"
  top: "inception_3b/1x1"
}
layer {
  name: "inception_3b/3x3_reduce"
  type: "Convolution"
  bottom: "inception_3a/output"
  top: "inception_3b/3x3_reduce"
  param {
    lr_mult: 1
    decay_mult: 1
  }
  param {
    lr_mult: 2
    decay_mult: 0
  }
  convolution_param {
    num_output: 128
    kernel_size: 1
    weight_filler {
      type: "xavier"
    }
    bias_filler {
      type: "constant"
      value: 0.2
    }
  }
}
layer {
  name: "inception_3b/relu_3x3_reduce"
  type: "ReLU"
  bottom: "inception_3b/3x3_reduce"
  top: "inception_3b/3x3_reduce"
}
layer {
  name: "inception_3b/3x3"
  type: "Convolution"
  bottom: "inception_3b/3x3_reduce"
  top: "inception_3b/3x3"
  param {
    lr_mult: 1
    decay_mult: 1
  }
  param {
    lr_mult: 2
    decay_mult: 0
  }
  convolution_param {
    num_output: 192
    pad: 1
    kernel_size: 3
    weight_filler {
      type: "xavier"
    }
    bias_filler {
      type: "constant"
      value: 0.2
    }
  }
}
layer {
  name: "inception_3b/relu_3x3"
  type: "ReLU"
  bottom: "inception_3b/3x3"
  top: "inception_3b/3x3"
}
layer {
  name: "inception_3b/5x5_reduce"
  type: "Convolution"
  bottom: "inception_3a/output"
  top: "inception_3b/5x5_reduce"
  param {
    lr_mult: 1
    decay_mult: 1
  }
  param {
    lr_mult: 2
    decay_mult: 0
  }
  convolution_param {
    num_output: 32
    kernel_size: 1
    weight_filler {
      type: "xavier"
    }
    bias_filler {
      type: "constant"
      value: 0.2
    }
  }
}
layer {
  name: "inception_3b/relu_5x5_reduce"
  type: "ReLU"
  bottom: "inception_3b/5x5_reduce"
  top: "inception_3b/5x5_reduce"
}
layer {
  name: "inception_3b/5x5"
  type: "Convolution"
  bottom: "inception_3b/5x5_reduce"
  top: "inception_3b/5x5"
  param {
    lr_mult: 1
    decay_mult: 1
  }
  param {
    lr_mult: 2
    decay_mult: 0
  }
  convolution_param {
    num_output: 96
    pad: 2
    kernel_size: 5
    weight_filler {
      type: "xavier"
    }
    bias_filler {
      type: "constant"
      value: 0.2
    }
  }
}
layer {
  name: "inception_3b/relu_5x5"
  type: "ReLU"
  bottom: "inception_3b/5x5"
  top: "inception_3b/5x5"
}
layer {
  name: "inception_3b/pool"
  type: "Pooling"
  bottom: "inception_3a/output"
  top: "inception_3b/pool"
  pooling_param {
    pool: MAX
    kernel_size: 3
    stride: 1
    pad: 1
  }
}
layer {
  name: "inception_3b/pool_proj"
  type: "Convolution"
  bottom: "inception_3b/pool"
  top: "inception_3b/pool_proj"
  param {
    lr_mult: 1
    decay_mult: 1
  }
  param {
    lr_mult: 2
    decay_mult: 0
  }
  convolution_param {
    num_output: 64
    kernel_size: 1
    weight_filler {
      type: "xavier"
    }
    bias_filler {
      type: "constant"
      value: 0.2
    }
  }
}
layer {
  name: "inception_3b/relu_pool_proj"
  type: "ReLU"
  bottom: "inception_3b/pool_proj"
  top: "inception_3b/pool_proj"
}
layer {
  name: "inception_3b/output"
  type: "Concat"
  bottom: "inception_3b/1x1"
  bottom: "inception_3b/3x3"
  bottom: "inception_3b/5x5"
  bottom: "inception_3b/pool_proj"
  top: "inception_3b/output"
}
layer {
  name: "pool3/3x3_s2"
  type: "Pooling"
  bottom: "inception_3b/output"
  top: "pool3/3x3_s2"
  pooling_param {
    pool: MAX
    kernel_size: 3
    stride: 2
  }
}
layer {
  name: "inception_4a/1x1"
  type: "Convolution"
  bottom: "pool3/3x3_s2"
  top: "inception_4a/1x1"
  param {
    lr_mult: 1
    decay_mult: 1
  }
  param {
    lr_mult: 2
    decay_mult: 0
  }
  convolution_param {
    num_output: 192
    kernel_size: 1
    weight_filler {
      type: "xavier"
    }
    bias_filler {
      type: "constant"
      value: 0.2
    }
  }
}
layer {
  name: "inception_4a/relu_1x1"
  type: "ReLU"
  bottom: "inception_4a/1x1"
  top: "inception_4a/1x1"
}
layer {
  name: "inception_4a/3x3_reduce"
  type: "Convolution"
  bottom: "pool3/3x3_s2"
  top: "inception_4a/3x3_reduce"
  param {
    lr_mult: 1
    decay_mult: 1
  }
  param {
    lr_mult: 2
    decay_mult: 0
  }
  convolution_param {
    num_output: 96
    kernel_size: 1
    weight_filler {
      type: "xavier"
    }
    bias_filler {
      type: "constant"
      value: 0.2
    }
  }
}
layer {
  name: "inception_4a/relu_3x3_reduce"
  type: "ReLU"
  bottom: "inception_4a/3x3_reduce"
  top: "inception_4a/3x3_reduce"
}
layer {
  name: "inception_4a/3x3"
  type: "Convolution"
  bottom: "inception_4a/3x3_reduce"
  top: "inception_4a/3x3"
  param {
    lr_mult: 1
    decay_mult: 1
  }
  param {
    lr_mult: 2
    decay_mult: 0
  }
  convolution_param {
    num_output: 208
    pad: 1
    kernel_size: 3
    weight_filler {
      type: "xavier"
    }
    bias_filler {
      type: "constant"
      value: 0.2
    }
  }
}
layer {
  name: "inception_4a/relu_3x3"
  type: "ReLU"
  bottom: "inception_4a/3x3"
  top: "inception_4a/3x3"
}
layer {
  name: "inception_4a/5x5_reduce"
  type: "Convolution"
  bottom: "pool3/3x3_s2"
  top: "inception_4a/5x5_reduce"
  param {
    lr_mult: 1
    decay_mult: 1
  }
  param {
    lr_mult: 2
    decay_mult: 0
  }
  convolution_param {
    num_output: 16
    kernel_size: 1
    weight_filler {
      type: "xavier"
    }
    bias_filler {
      type: "constant"
      value: 0.2
    }
  }
}
layer {
  name: "inception_4a/relu_5x5_reduce"
  type: "ReLU"
  bottom: "inception_4a/5x5_reduce"
  top: "inception_4a/5x5_reduce"
}
layer {
  name: "inception_4a/5x5"
  type: "Convolution"
  bottom: "inception_4a/5x5_reduce"
  top: "inception_4a/5x5"
  param {
    lr_mult: 1
    decay_mult: 1
  }
  param {
    lr_mult: 2
    decay_mult: 0
  }
  convolution_param {
    num_output: 48
    pad: 2
    kernel_size: 5
    weight_filler {
      type: "xavier"
    }
    bias_filler {
      type: "constant"
      value: 0.2
    }
  }
}
layer {
  name: "inception_4a/relu_5x5"
  type: "ReLU"
  bottom: "inception_4a/5x5"
  top: "inception_4a/5x5"
}
layer {
  name: "inception_4a/pool"
  type: "Pooling"
  bottom: "pool3/3x3_s2"
  top: "inception_4a/pool"
  pooling_param {
    pool: MAX
    kernel_size: 3
    stride: 1
    pad: 1
  }
}
layer {
  name: "inception_4a/pool_proj"
  type: "Convolution"
  bottom: "inception_4a/pool"
  top: "inception_4a/pool_proj"
  param {
    lr_mult: 1
    decay_mult: 1
  }
  param {
    lr_mult: 2
    decay_mult: 0
  }
  convolution_param {
    num_output: 64
    kernel_size: 1
    weight_filler {
      type: "xavier"
    }
    bias_filler {
      type: "constant"
      value: 0.2
    }
  }
}
layer {
  name: "inception_4a/relu_pool_proj"
  type: "ReLU"
  bottom: "inception_4a/pool_proj"
  top: "inception_4a/pool_proj"
}
layer {
  name: "inception_4a/output"
  type: "Concat"
  bottom: "inception_4a/1x1"
  bottom: "inception_4a/3x3"
  bottom: "inception_4a/5x5"
  bottom: "inception_4a/pool_proj"
  top: "inception_4a/output"
}
layer {
  name: "loss1/ave_pool"
  type: "Pooling"
  bottom: "inception_4a/output"
  top: "loss1/ave_pool"
  pooling_param {
    pool: AVE
    kernel_size: 5
    stride: 3
  }
}
layer {
  name: "loss1/conv"
  type: "Convolution"
  bottom: "loss1/ave_pool"
  top: "loss1/conv"
  param {
    lr_mult: 1
    decay_mult: 1
  }
  param {
    lr_mult: 2
    decay_mult: 0
  }
  convolution_param {
    num_output: 128
    kernel_size: 1
    weight_filler {
      type: "xavier"
    }
    bias_filler {
      type: "constant"
      value: 0.2
    }
  }
}
layer {
  name: "loss1/relu_conv"
  type: "ReLU"
  bottom: "loss1/conv"
  top: "loss1/conv"
}
layer {
  name: "loss1/fc"
  type: "InnerProduct"
  bottom: "loss1/conv"
  top: "loss1/fc"
  param {
    lr_mult: 1
    decay_mult: 1
  }
  param {
    lr_mult: 2
    decay_mult: 0
  }
  inner_product_param {
    num_output: 1024
    weight_filler {
      type: "xavier"
    }
    bias_filler {
      type: "constant"
      value: 0.2
    }
  }
}
layer {
  name: "loss1/relu_fc"
  type: "ReLU"
  bottom: "loss1/fc"
  top: "loss1/fc"
}
layer {
  name: "loss1/drop_fc"
  type: "Dropout"
  bottom: "loss1/fc"
  top: "loss1/fc"
  dropout_param {
    dropout_ratio: 0.7
  }
}
layer {
  name: "loss1/classifier-00.category"
  type: "InnerProduct"
  bottom: "loss1/fc"
  top: "loss1/classifier-00.category"
  param {
    lr_mult: 10
    decay_mult: 1
  }
  param {
    lr_mult: 20
    decay_mult: 0
  }
  inner_product_param {
    num_output: 16
    weight_filler {
      type: "xavier"
    }
    bias_filler {
      type: "constant"
      value: 0
    }
  }
}
layer {
  name: "loss1/loss_00.category"
  type: "SoftmaxWithLoss"
  bottom: "loss1/classifier-00.category"
  bottom: "00.category"
  top: "loss1/loss_00.category"
  loss_weight: 0.3
}
layer {
  name: "loss1/classifier-02.collar_shape"
  type: "InnerProduct"
  bottom: "loss1/fc"
  top: "loss1/classifier-02.collar_shape"
  param {
    lr_mult: 10
    decay_mult: 1
  }
  param {
    lr_mult: 20
    decay_mult: 0
  }
  inner_product_param {
    num_output: 13
    weight_filler {
      type: "xavier"
    }
    bias_filler {
      type: "constant"
      value: 0
    }
  }
}
layer {
  name: "loss1/loss_02.collar_shape"
  type: "SoftmaxWithLoss"
  bottom: "loss1/classifier-02.collar_shape"
  bottom: "02.collar_shape"
  top: "loss1/loss_02.collar_shape"
  loss_weight: 0.3
}
layer {
  name: "loss1/classifier-05.pattern"
  type: "InnerProduct"
  bottom: "loss1/fc"
  top: "loss1/classifier-05.pattern"
  param {
    lr_mult: 10
    decay_mult: 1
  }
  param {
    lr_mult: 20
    decay_mult: 0
  }
  inner_product_param {
    num_output: 16
    weight_filler {
      type: "xavier"
    }
    bias_filler {
      type: "constant"
      value: 0
    }
  }
}
layer {
  name: "loss1/loss_05.pattern"
  type: "SoftmaxWithLoss"
  bottom: "loss1/classifier-05.pattern"
  bottom: "05.pattern"
  top: "loss1/loss_05.pattern"
  loss_weight: 0.3
}
layer {
  name: "loss1/classifier-06.button_shape"
  type: "InnerProduct"
  bottom: "loss1/fc"
  top: "loss1/classifier-06.button_shape"
  param {
    lr_mult: 10
    decay_mult: 1
  }
  param {
    lr_mult: 20
    decay_mult: 0
  }
  inner_product_param {
    num_output: 9
    weight_filler {
      type: "xavier"
    }
    bias_filler {
      type: "constant"
      value: 0
    }
  }
}
layer {
  name: "loss1/loss_06.button_shape"
  type: "SoftmaxWithLoss"
  bottom: "loss1/classifier-06.button_shape"
  bottom: "06.button_shape"
  top: "loss1/loss_06.button_shape"
  loss_weight: 0.3
}
layer {
  name: "loss1/classifier-09.fashion_elements"
  type: "InnerProduct"
  bottom: "loss1/fc"
  top: "loss1/classifier-09.fashion_elements"
  param {
    lr_mult: 10
    decay_mult: 1
  }
  param {
    lr_mult: 20
    decay_mult: 0
  }
  inner_product_param {
    num_output: 15
    weight_filler {
      type: "xavier"
    }
    bias_filler {
      type: "constant"
      value: 0
    }
  }
}
layer {
  name: "loss1/loss_09.fashion_elements"
  type: "SoftmaxWithLoss"
  bottom: "loss1/classifier-09.fashion_elements"
  bottom: "09.fashion_elements"
  top: "loss1/loss_09.fashion_elements"
  loss_weight: 0.3
}
layer {
  name: "loss1/classifier-21.color"
  type: "InnerProduct"
  bottom: "loss1/fc"
  top: "loss1/classifier-21.color"
  param {
    lr_mult: 10
    decay_mult: 1
  }
  param {
    lr_mult: 20
    decay_mult: 0
  }
  inner_product_param {
    num_output: 21
    weight_filler {
      type: "xavier"
    }
    bias_filler {
      type: "constant"
      value: 0
    }
  }
}
layer {
  name: "loss1/loss_21.color"
  type: "SoftmaxWithLoss"
  bottom: "loss1/classifier-21.color"
  bottom: "21.color"
  top: "loss1/loss_21.color"
  loss_weight: 0.3
}
layer {
  name: "inception_4b/1x1"
  type: "Convolution"
  bottom: "inception_4a/output"
  top: "inception_4b/1x1"
  param {
    lr_mult: 1
    decay_mult: 1
  }
  param {
    lr_mult: 2
    decay_mult: 0
  }
  convolution_param {
    num_output: 160
    kernel_size: 1
    weight_filler {
      type: "xavier"
    }
    bias_filler {
      type: "constant"
      value: 0.2
    }
  }
}
layer {
  name: "inception_4b/relu_1x1"
  type: "ReLU"
  bottom: "inception_4b/1x1"
  top: "inception_4b/1x1"
}
layer {
  name: "inception_4b/3x3_reduce"
  type: "Convolution"
  bottom: "inception_4a/output"
  top: "inception_4b/3x3_reduce"
  param {
    lr_mult: 1
    decay_mult: 1
  }
  param {
    lr_mult: 2
    decay_mult: 0
  }
  convolution_param {
    num_output: 112
    kernel_size: 1
    weight_filler {
      type: "xavier"
    }
    bias_filler {
      type: "constant"
      value: 0.2
    }
  }
}
layer {
  name: "inception_4b/relu_3x3_reduce"
  type: "ReLU"
  bottom: "inception_4b/3x3_reduce"
  top: "inception_4b/3x3_reduce"
}
layer {
  name: "inception_4b/3x3"
  type: "Convolution"
  bottom: "inception_4b/3x3_reduce"
  top: "inception_4b/3x3"
  param {
    lr_mult: 1
    decay_mult: 1
  }
  param {
    lr_mult: 2
    decay_mult: 0
  }
  convolution_param {
    num_output: 224
    pad: 1
    kernel_size: 3
    weight_filler {
      type: "xavier"
    }
    bias_filler {
      type: "constant"
      value: 0.2
    }
  }
}
layer {
  name: "inception_4b/relu_3x3"
  type: "ReLU"
  bottom: "inception_4b/3x3"
  top: "inception_4b/3x3"
}
layer {
  name: "inception_4b/5x5_reduce"
  type: "Convolution"
  bottom: "inception_4a/output"
  top: "inception_4b/5x5_reduce"
  param {
    lr_mult: 1
    decay_mult: 1
  }
  param {
    lr_mult: 2
    decay_mult: 0
  }
  convolution_param {
    num_output: 24
    kernel_size: 1
    weight_filler {
      type: "xavier"
    }
    bias_filler {
      type: "constant"
      value: 0.2
    }
  }
}
layer {
  name: "inception_4b/relu_5x5_reduce"
  type: "ReLU"
  bottom: "inception_4b/5x5_reduce"
  top: "inception_4b/5x5_reduce"
}
layer {
  name: "inception_4b/5x5"
  type: "Convolution"
  bottom: "inception_4b/5x5_reduce"
  top: "inception_4b/5x5"
  param {
    lr_mult: 1
    decay_mult: 1
  }
  param {
    lr_mult: 2
    decay_mult: 0
  }
  convolution_param {
    num_output: 64
    pad: 2
    kernel_size: 5
    weight_filler {
      type: "xavier"
    }
    bias_filler {
      type: "constant"
      value: 0.2
    }
  }
}
layer {
  name: "inception_4b/relu_5x5"
  type: "ReLU"
  bottom: "inception_4b/5x5"
  top: "inception_4b/5x5"
}
layer {
  name: "inception_4b/pool"
  type: "Pooling"
  bottom: "inception_4a/output"
  top: "inception_4b/pool"
  pooling_param {
    pool: MAX
    kernel_size: 3
    stride: 1
    pad: 1
  }
}
layer {
  name: "inception_4b/pool_proj"
  type: "Convolution"
  bottom: "inception_4b/pool"
  top: "inception_4b/pool_proj"
  param {
    lr_mult: 1
    decay_mult: 1
  }
  param {
    lr_mult: 2
    decay_mult: 0
  }
  convolution_param {
    num_output: 64
    kernel_size: 1
    weight_filler {
      type: "xavier"
    }
    bias_filler {
      type: "constant"
      value: 0.2
    }
  }
}
layer {
  name: "inception_4b/relu_pool_proj"
  type: "ReLU"
  bottom: "inception_4b/pool_proj"
  top: "inception_4b/pool_proj"
}
layer {
  name: "inception_4b/output"
  type: "Concat"
  bottom: "inception_4b/1x1"
  bottom: "inception_4b/3x3"
  bottom: "inception_4b/5x5"
  bottom: "inception_4b/pool_proj"
  top: "inception_4b/output"
}
layer {
  name: "inception_4c/1x1"
  type: "Convolution"
  bottom: "inception_4b/output"
  top: "inception_4c/1x1"
  param {
    lr_mult: 1
    decay_mult: 1
  }
  param {
    lr_mult: 2
    decay_mult: 0
  }
  convolution_param {
    num_output: 128
    kernel_size: 1
    weight_filler {
      type: "xavier"
    }
    bias_filler {
      type: "constant"
      value: 0.2
    }
  }
}
layer {
  name: "inception_4c/relu_1x1"
  type: "ReLU"
  bottom: "inception_4c/1x1"
  top: "inception_4c/1x1"
}
layer {
  name: "inception_4c/3x3_reduce"
  type: "Convolution"
  bottom: "inception_4b/output"
  top: "inception_4c/3x3_reduce"
  param {
    lr_mult: 1
    decay_mult: 1
  }
  param {
    lr_mult: 2
    decay_mult: 0
  }
  convolution_param {
    num_output: 128
    kernel_size: 1
    weight_filler {
      type: "xavier"
    }
    bias_filler {
      type: "constant"
      value: 0.2
    }
  }
}
layer {
  name: "inception_4c/relu_3x3_reduce"
  type: "ReLU"
  bottom: "inception_4c/3x3_reduce"
  top: "inception_4c/3x3_reduce"
}
layer {
  name: "inception_4c/3x3"
  type: "Convolution"
  bottom: "inception_4c/3x3_reduce"
  top: "inception_4c/3x3"
  param {
    lr_mult: 1
    decay_mult: 1
  }
  param {
    lr_mult: 2
    decay_mult: 0
  }
  convolution_param {
    num_output: 256
    pad: 1
    kernel_size: 3
    weight_filler {
      type: "xavier"
    }
    bias_filler {
      type: "constant"
      value: 0.2
    }
  }
}
layer {
  name: "inception_4c/relu_3x3"
  type: "ReLU"
  bottom: "inception_4c/3x3"
  top: "inception_4c/3x3"
}
layer {
  name: "inception_4c/5x5_reduce"
  type: "Convolution"
  bottom: "inception_4b/output"
  top: "inception_4c/5x5_reduce"
  param {
    lr_mult: 1
    decay_mult: 1
  }
  param {
    lr_mult: 2
    decay_mult: 0
  }
  convolution_param {
    num_output: 24
    kernel_size: 1
    weight_filler {
      type: "xavier"
    }
    bias_filler {
      type: "constant"
      value: 0.2
    }
  }
}
layer {
  name: "inception_4c/relu_5x5_reduce"
  type: "ReLU"
  bottom: "inception_4c/5x5_reduce"
  top: "inception_4c/5x5_reduce"
}
layer {
  name: "inception_4c/5x5"
  type: "Convolution"
  bottom: "inception_4c/5x5_reduce"
  top: "inception_4c/5x5"
  param {
    lr_mult: 1
    decay_mult: 1
  }
  param {
    lr_mult: 2
    decay_mult: 0
  }
  convolution_param {
    num_output: 64
    pad: 2
    kernel_size: 5
    weight_filler {
      type: "xavier"
    }
    bias_filler {
      type: "constant"
      value: 0.2
    }
  }
}
layer {
  name: "inception_4c/relu_5x5"
  type: "ReLU"
  bottom: "inception_4c/5x5"
  top: "inception_4c/5x5"
}
layer {
  name: "inception_4c/pool"
  type: "Pooling"
  bottom: "inception_4b/output"
  top: "inception_4c/pool"
  pooling_param {
    pool: MAX
    kernel_size: 3
    stride: 1
    pad: 1
  }
}
layer {
  name: "inception_4c/pool_proj"
  type: "Convolution"
  bottom: "inception_4c/pool"
  top: "inception_4c/pool_proj"
  param {
    lr_mult: 1
    decay_mult: 1
  }
  param {
    lr_mult: 2
    decay_mult: 0
  }
  convolution_param {
    num_output: 64
    kernel_size: 1
    weight_filler {
      type: "xavier"
    }
    bias_filler {
      type: "constant"
      value: 0.2
    }
  }
}
layer {
  name: "inception_4c/relu_pool_proj"
  type: "ReLU"
  bottom: "inception_4c/pool_proj"
  top: "inception_4c/pool_proj"
}
layer {
  name: "inception_4c/output"
  type: "Concat"
  bottom: "inception_4c/1x1"
  bottom: "inception_4c/3x3"
  bottom: "inception_4c/5x5"
  bottom: "inception_4c/pool_proj"
  top: "inception_4c/output"
}
layer {
  name: "inception_4d/1x1"
  type: "Convolution"
  bottom: "inception_4c/output"
  top: "inception_4d/1x1"
  param {
    lr_mult: 1
    decay_mult: 1
  }
  param {
    lr_mult: 2
    decay_mult: 0
  }
  convolution_param {
    num_output: 112
    kernel_size: 1
    weight_filler {
      type: "xavier"
    }
    bias_filler {
      type: "constant"
      value: 0.2
    }
  }
}
layer {
  name: "inception_4d/relu_1x1"
  type: "ReLU"
  bottom: "inception_4d/1x1"
  top: "inception_4d/1x1"
}
layer {
  name: "inception_4d/3x3_reduce"
  type: "Convolution"
  bottom: "inception_4c/output"
  top: "inception_4d/3x3_reduce"
  param {
    lr_mult: 1
    decay_mult: 1
  }
  param {
    lr_mult: 2
    decay_mult: 0
  }
  convolution_param {
    num_output: 144
    kernel_size: 1
    weight_filler {
      type: "xavier"
    }
    bias_filler {
      type: "constant"
      value: 0.2
    }
  }
}
layer {
  name: "inception_4d/relu_3x3_reduce"
  type: "ReLU"
  bottom: "inception_4d/3x3_reduce"
  top: "inception_4d/3x3_reduce"
}
layer {
  name: "inception_4d/3x3"
  type: "Convolution"
  bottom: "inception_4d/3x3_reduce"
  top: "inception_4d/3x3"
  param {
    lr_mult: 1
    decay_mult: 1
  }
  param {
    lr_mult: 2
    decay_mult: 0
  }
  convolution_param {
    num_output: 288
    pad: 1
    kernel_size: 3
    weight_filler {
      type: "xavier"
    }
    bias_filler {
      type: "constant"
      value: 0.2
    }
  }
}
layer {
  name: "inception_4d/relu_3x3"
  type: "ReLU"
  bottom: "inception_4d/3x3"
  top: "inception_4d/3x3"
}
layer {
  name: "inception_4d/5x5_reduce"
  type: "Convolution"
  bottom: "inception_4c/output"
  top: "inception_4d/5x5_reduce"
  param {
    lr_mult: 1
    decay_mult: 1
  }
  param {
    lr_mult: 2
    decay_mult: 0
  }
  convolution_param {
    num_output: 32
    kernel_size: 1
    weight_filler {
      type: "xavier"
    }
    bias_filler {
      type: "constant"
      value: 0.2
    }
  }
}
layer {
  name: "inception_4d/relu_5x5_reduce"
  type: "ReLU"
  bottom: "inception_4d/5x5_reduce"
  top: "inception_4d/5x5_reduce"
}
layer {
  name: "inception_4d/5x5"
  type: "Convolution"
  bottom: "inception_4d/5x5_reduce"
  top: "inception_4d/5x5"
  param {
    lr_mult: 1
    decay_mult: 1
  }
  param {
    lr_mult: 2
    decay_mult: 0
  }
  convolution_param {
    num_output: 64
    pad: 2
    kernel_size: 5
    weight_filler {
      type: "xavier"
    }
    bias_filler {
      type: "constant"
      value: 0.2
    }
  }
}
layer {
  name: "inception_4d/relu_5x5"
  ty
I1124 23:01:36.027905 23711 layer_factory.hpp:76] Creating layer data
I1124 23:01:36.027951 23711 net.cpp:106] Creating Layer data
I1124 23:01:36.027963 23711 net.cpp:411] data -> data
I1124 23:01:36.027992 23711 net.cpp:411] data -> dummylabel
I1124 23:01:36.028467 23711 image_data_layer.cpp:36] Opening file pad_train_shuffle.txt
I1124 23:01:36.125804 23711 image_data_layer.cpp:51] A total of 193988 images.
I1124 23:01:36.150041 23711 image_data_layer.cpp:78] output data size: 64,3,224,224
I1124 23:01:36.203582 23711 net.cpp:150] Setting up data
I1124 23:01:36.203621 23711 net.cpp:157] Top shape: 64 3 224 224 (9633792)
I1124 23:01:36.203631 23711 net.cpp:157] Top shape: 64 (64)
I1124 23:01:36.203634 23711 net.cpp:165] Memory required for data: 38535424
I1124 23:01:36.203642 23711 layer_factory.hpp:76] Creating layer label
I1124 23:01:36.203730 23711 net.cpp:106] Creating Layer label
I1124 23:01:36.203740 23711 net.cpp:411] label -> classlabel
I1124 23:01:36.209252 23719 db_lmdb.cpp:38] Opened lmdb lmdb_train_pad
I1124 23:01:36.209585 23711 data_layer.cpp:41] output data size: 64,22,1,1
I1124 23:01:36.210234 23711 net.cpp:150] Setting up label
I1124 23:01:36.210249 23711 net.cpp:157] Top shape: 64 22 1 1 (1408)
I1124 23:01:36.210253 23711 net.cpp:165] Memory required for data: 38541056
I1124 23:01:36.210258 23711 layer_factory.hpp:76] Creating layer slice_attribute
I1124 23:01:36.210271 23711 net.cpp:106] Creating Layer slice_attribute
I1124 23:01:36.210276 23711 net.cpp:454] slice_attribute <- classlabel
I1124 23:01:36.210289 23711 net.cpp:411] slice_attribute -> 00.category
I1124 23:01:36.210305 23711 net.cpp:411] slice_attribute -> 01.style
…
I1124 23:01:36.210448 23711 net.cpp:411] slice_attribute -> 15.waist_shape
I1124 23:01:36.210454 23711 net.cpp:411] slice_attribute -> 16.combining
I1124 23:01:36.210461 23711 net.cpp:411] slice_attribute -> 17.onepiece_shape
I1124 23:01:36.210469 23711 net.cpp:411] slice_attribute -> 18.thickness
I1124 23:01:36.210482 23711 net.cpp:411] slice_attribute -> 19.pants_length
I1124 23:01:36.210494 23711 net.cpp:411] slice_attribute -> 20.pants_shape
I1124 23:01:36.210501 23711 net.cpp:411] slice_attribute -> 21.color
I1124 23:01:36.210700 23711 net.cpp:150] Setting up slice_attribute
I1124 23:01:36.210714 23711 net.cpp:157] Top shape: 64 1 1 1 (64)
I1124 23:01:36.210726 23711 net.cpp:157] Top shape: 64 1 1 1 (64)
I1124 23:01:36.210729 23711 net.cpp:157] Top shape: 64 1 1 1 (64)
I1124 23:01:36.210733 23711 net.cpp:157] Top shape: 64 1 1 1 (64)
I1124 23:01:36.210736 23711 net.cpp:157] Top shape: 64 1 1 1 (64)
I1124 23:01:36.210741 23711 net.cpp:157] Top shape: 64 1 1 1 (64)
I1124 23:01:36.210744 23711 net.cpp:157] Top shape: 64 1 1 1 (64)
I1124 23:01:36.210747 23711 net.cpp:157] Top shape: 64 1 1 1 (64)
I1124 23:01:36.210752 23711 net.cpp:157] Top shape: 64 1 1 1 (64)
I1124 23:01:36.210754 23711 net.cpp:157] Top shape: 64 1 1 1 (64)
I1124 23:01:36.210757 23711 net.cpp:157] Top shape: 64 1 1 1 (64)
I1124 23:01:36.210762 23711 net.cpp:157] Top shape: 64 1 1 1 (64)
I1124 23:01:36.210765 23711 net.cpp:157] Top shape: 64 1 1 1 (64)
I1124 23:01:36.210769 23711 net.cpp:157] Top shape: 64 1 1 1 (64)
I1124 23:01:36.210773 23711 net.cpp:157] Top shape: 64 1 1 1 (64)
I1124 23:01:36.210777 23711 net.cpp:157] Top shape: 64 1 1 1 (64)
I1124 23:01:36.210780 23711 net.cpp:157] Top shape: 64 1 1 1 (64)
I1124 23:01:36.210783 23711 net.cpp:157] Top shape: 64 1 1 1 (64)
I1124 23:01:36.210788 23711 net.cpp:157] Top shape: 64 1 1 1 (64)
I1124 23:01:36.210790 23711 net.cpp:157] Top shape: 64 1 1 1 (64)
I1124 23:01:36.210794 23711 net.cpp:157] Top shape: 64 1 1 1 (64)
I1124 23:01:36.210798 23711 net.cpp:157] Top shape: 64 1 1 1 (64)
I1124 23:01:36.210800 23711 net.cpp:165] Memory required for data: 38546688
I1124 23:01:36.210804 23711 layer_factory.hpp:76] Creating layer 00.category_slice_attribute_0_split
I1124 23:01:36.210811 23711 net.cpp:106] Creating Layer 00.category_slice_attribute_0_split
I1124 23:01:36.210814 23711 net.cpp:454] 00.category_slice_attribute_0_split <- 00.category
I1124 23:01:36.210820 23711 net.cpp:411] 00.category_slice_attribute_0_split -> 00.category_slice_attribute_0_split_0
I1124 23:01:36.210826 23711 net.cpp:411] 00.category_slice_attribute_0_split -> 00.category_slice_attribute_0_split_1
I1124 23:01:36.210831 23711 net.cpp:411] 00.category_slice_attribute_0_split -> 00.category_slice_attribute_0_split_2
I1124 23:01:36.210887 23711 net.cpp:150] Setting up 00.category_slice_attribute_0_split
I1124 23:01:36.210896 23711 net.cpp:157] Top shape: 64 1 1 1 (64)
I1124 23:01:36.210901 23711 net.cpp:157] Top shape: 64 1 1 1 (64)
I1124 23:01:36.210903 23711 net.cpp:157] Top shape: 64 1 1 1 (64)
I1124 23:01:36.210906 23711 net.cpp:165] Memory required for data: 38547456
I1124 23:01:36.210909 23711 layer_factory.hpp:76] Creating layer 02.collar_shape_slice_attribute_2_split
I1124 23:01:36.210916 23711 net.cpp:106] Creating Layer 02.collar_shape_slice_attribute_2_split
I1124 23:01:36.210919 23711 net.cpp:454] 02.collar_shape_slice_attribute_2_split <- 02.collar_shape
I1124 23:01:36.210924 23711 net.cpp:411] 02.collar_shape_slice_attribute_2_split -> 02.collar_shape_slice_attribute_2_split_0
I1124 23:01:36.210929 23711 net.cpp:411] 02.collar_shape_slice_attribute_2_split -> 02.collar_shape_slice_attribute_2_split_1
I1124 23:01:36.210934 23711 net.cpp:411] 02.collar_shape_slice_attribute_2_split -> 02.collar_shape_slice_attribute_2_split_2
I1124 23:01:36.210968 23711 net.cpp:150] Setting up 02.collar_shape_slice_attribute_2_split
I1124 23:01:36.210973 23711 net.cpp:157] Top shape: 64 1 1 1 (64)
I1124 23:01:36.210976 23711 net.cpp:157] Top shape: 64 1 1 1 (64)
I1124 23:01:36.210979 23711 net.cpp:157] Top shape: 64 1 1 1 (64)
I1124 23:01:36.210983 23711 net.cpp:165] Memory required for data: 38548224
I1124 23:01:36.210985 23711 layer_factory.hpp:76] Creating layer 05.pattern_slice_attribute_5_split
I1124 23:01:36.210989 23711 net.cpp:106] Creating Layer 05.pattern_slice_attribute_5_split
I1124 23:01:36.210993 23711 net.cpp:454] 05.pattern_slice_attribute_5_split <- 05.pattern
I1124 23:01:36.210997 23711 net.cpp:411] 05.pattern_slice_attribute_5_split -> 05.pattern_slice_attribute_5_split_0
I1124 23:01:36.211002 23711 net.cpp:411] 05.pattern_slice_attribute_5_split -> 05.pattern_slice_attribute_5_split_1
I1124 23:01:36.211009 23711 net.cpp:411] 05.pattern_slice_attribute_5_split -> 05.pattern_slice_attribute_5_split_2
I1124 23:01:36.211040 23711 net.cpp:150] Setting up 05.pattern_slice_attribute_5_split
I1124 23:01:36.211045 23711 net.cpp:157] Top shape: 64 1 1 1 (64)
I1124 23:01:36.211048 23711 net.cpp:157] Top shape: 64 1 1 1 (64)
I1124 23:01:36.211052 23711 net.cpp:157] Top shape: 64 1 1 1 (64)
I1124 23:01:36.211055 23711 net.cpp:165] Memory required for data: 38548992
I1124 23:01:36.211058 23711 layer_factory.hpp:76] Creating layer 06.button_shape_slice_attribute_6_split
I1124 23:01:36.211062 23711 net.cpp:106] Creating Layer 06.button_shape_slice_attribute_6_split
I1124 23:01:36.211066 23711 net.cpp:454] 06.button_shape_slice_attribute_6_split <- 06.button_shape
I1124 23:01:36.211069 23711 net.cpp:411] 06.button_shape_slice_attribute_6_split -> 06.button_shape_slice_attribute_6_split_0
I1124 23:01:36.211074 23711 net.cpp:411] 06.button_shape_slice_attribute_6_split -> 06.button_shape_slice_attribute_6_split_1
I1124 23:01:36.211079 23711 net.cpp:411] 06.button_shape_slice_attribute_6_split -> 06.button_shape_slice_attribute_6_split_2
I1124 23:01:36.211109 23711 net.cpp:150] Setting up 06.button_shape_slice_attribute_6_split
I1124 23:01:36.211113 23711 net.cpp:157] Top shape: 64 1 1 1 (64)
I1124 23:01:36.211117 23711 net.cpp:157] Top shape: 64 1 1 1 (64)
I1124 23:01:36.211120 23711 net.cpp:157] Top shape: 64 1 1 1 (64)
I1124 23:01:36.211123 23711 net.cpp:165] Memory required for data: 38549760
I1124 23:01:36.211127 23711 layer_factory.hpp:76] Creating layer 09.fashion_elements_slice_attribute_9_split
I1124 23:01:36.211130 23711 net.cpp:106] Creating Layer 09.fashion_elements_slice_attribute_9_split
I1124 23:01:36.211133 23711 net.cpp:454] 09.fashion_elements_slice_attribute_9_split <- 09.fashion_elements
I1124 23:01:36.211138 23711 net.cpp:411] 09.fashion_elements_slice_attribute_9_split -> 09.fashion_elements_slice_attribute_9_split_0
I1124 23:01:36.211143 23711 net.cpp:411] 09.fashion_elements_slice_attribute_9_split -> 09.fashion_elements_slice_attribute_9_split_1
I1124 23:01:36.211148 23711 net.cpp:411] 09.fashion_elements_slice_attribute_9_split -> 09.fashion_elements_slice_attribute_9_split_2
I1124 23:01:36.211177 23711 net.cpp:150] Setting up 09.fashion_elements_slice_attribute_9_split
I1124 23:01:36.211181 23711 net.cpp:157] Top shape: 64 1 1 1 (64)
I1124 23:01:36.211185 23711 net.cpp:157] Top shape: 64 1 1 1 (64)
I1124 23:01:36.211189 23711 net.cpp:157] Top shape: 64 1 1 1 (64)
I1124 23:01:36.211191 23711 net.cpp:165] Memory required for data: 38550528
I1124 23:01:36.211194 23711 layer_factory.hpp:76] Creating layer 21.color_slice_attribute_21_split
I1124 23:01:36.211199 23711 net.cpp:106] Creating Layer 21.color_slice_attribute_21_split
I1124 23:01:36.211202 23711 net.cpp:454] 21.color_slice_attribute_21_split <- 21.color
I1124 23:01:36.211206 23711 net.cpp:411] 21.color_slice_attribute_21_split -> 21.color_slice_attribute_21_split_0
I1124 23:01:36.211212 23711 net.cpp:411] 21.color_slice_attribute_21_split -> 21.color_slice_attribute_21_split_1
I1124 23:01:36.211217 23711 net.cpp:411] 21.color_slice_attribute_21_split -> 21.color_slice_attribute_21_split_2
I1124 23:01:36.211247 23711 net.cpp:150] Setting up 21.color_slice_attribute_21_split
I1124 23:01:36.211252 23711 net.cpp:157] Top shape: 64 1 1 1 (64)
I1124 23:01:36.211256 23711 net.cpp:157] Top shape: 64 1 1 1 (64)
I1124 23:01:36.211258 23711 net.cpp:157] Top shape: 64 1 1 1 (64)
I1124 23:01:36.211261 23711 net.cpp:165] Memory required for data: 38551296
I1124 23:01:36.211264 23711 layer_factory.hpp:76] Creating layer silence
I1124 23:01:36.211271 23711 net.cpp:106] Creating Layer silence
I1124 23:01:36.211274 23711 net.cpp:454] silence <- dummylabel
I1124 23:01:36.211278 23711 net.cpp:150] Setting up silence
I1124 23:01:36.211282 23711 net.cpp:165] Memory required for data: 38551296
…
I1124 23:01:36.211592 23711 net.cpp:106] Creating Layer silence_20
I1124 23:01:36.211596 23711 net.cpp:454] silence_20 <- 20.pants_shape
I1124 23:01:36.211601 23711 net.cpp:150] Setting up silence_20
I1124 23:01:36.211604 23711 net.cpp:165] Memory required for data: 38551296
I1124 23:01:36.211607 23711 layer_factory.hpp:76] Creating layer conv1/7x7_s2
I1124 23:01:36.211621 23711 net.cpp:106] Creating Layer conv1/7x7_s2
I1124 23:01:36.211624 23711 net.cpp:454] conv1/7x7_s2 <- data
I1124 23:01:36.211632 23711 net.cpp:411] conv1/7x7_s2 -> conv1/7x7_s2
I1124 23:01:36.384397 23711 net.cpp:150] Setting up conv1/7x7_s2
I1124 23:01:36.384429 23711 net.cpp:157] Top shape: 64 64 112 112 (51380224)
I1124 23:01:36.384438 23711 net.cpp:165] Memory required for data: 244072192
I1124 23:01:36.384466 23711 layer_factory.hpp:76] Creating layer conv1/relu_7x7
I1124 23:01:36.384486 23711 net.cpp:106] Creating Layer conv1/relu_7x7
I1124 23:01:36.384497 23711 net.cpp:454] conv1/relu_7x7 <- conv1/7x7_s2
I1124 23:01:36.384505 23711 net.cpp:397] conv1/relu_7x7 -> conv1/7x7_s2 (in-place)
I1124 23:01:36.384938 23711 net.cpp:150] Setting up conv1/relu_7x7
I1124 23:01:36.384959 23711 net.cpp:157] Top shape: 64 64 112 112 (51380224)
I1124 23:01:36.384965 23711 net.cpp:165] Memory required for data: 449593088
I1124 23:01:36.384970 23711 layer_factory.hpp:76] Creating layer pool1/3x3_s2
I1124 23:01:36.384982 23711 net.cpp:106] Creating Layer pool1/3x3_s2
I1124 23:01:36.384990 23711 net.cpp:454] pool1/3x3_s2 <- conv1/7x7_s2
I1124 23:01:36.385002 23711 net.cpp:411] pool1/3x3_s2 -> pool1/3x3_s2
I1124 23:01:36.385311 23711 net.cpp:150] Setting up pool1/3x3_s2
I1124 23:01:36.385330 23711 net.cpp:157] Top shape: 64 64 56 56 (12845056)
I1124 23:01:36.385337 23711 net.cpp:165] Memory required for data: 500973312
I1124 23:01:36.385342 23711 layer_factory.hpp:76] Creating layer pool1/norm1
I1124 23:01:36.385356 23711 net.cpp:106] Creating Layer pool1/norm1
I1124 23:01:36.385365 23711 net.cpp:454] pool1/norm1 <- pool1/3x3_s2
I1124 23:01:36.385375 23711 net.cpp:411] pool1/norm1 -> pool1/norm1
I1124 23:01:36.385829 23711 net.cpp:150] Setting up pool1/norm1
I1124 23:01:36.385845 23711 net.cpp:157] Top shape: 64 64 56 56 (12845056)
I1124 23:01:36.385850 23711 net.cpp:165] Memory required for data: 552353536
I1124 23:01:36.385854 23711 layer_factory.hpp:76] Creating layer conv2/3x3_reduce
I1124 23:01:36.385865 23711 net.cpp:106] Creating Layer conv2/3x3_reduce
I1124 23:01:36.385870 23711 net.cpp:454] conv2/3x3_reduce <- pool1/norm1
I1124 23:01:36.385877 23711 net.cpp:411] conv2/3x3_reduce -> conv2/3x3_reduce
I1124 23:01:36.387293 23711 net.cpp:150] Setting up conv2/3x3_reduce
I1124 23:01:36.387316 23711 net.cpp:157] Top shape: 64 64 56 56 (12845056)
I1124 23:01:36.387325 23711 net.cpp:165] Memory required for data: 603733760
I1124 23:01:36.387341 23711 layer_factory.hpp:76] Creating layer conv2/relu_3x3_reduce
I1124 23:01:36.387353 23711 net.cpp:106] Creating Layer conv2/relu_3x3_reduce
I1124 23:01:36.387373 23711 net.cpp:454] conv2/relu_3x3_reduce <- conv2/3x3_reduce
I1124 23:01:36.387384 23711 net.cpp:397] conv2/relu_3x3_reduce -> conv2/3x3_reduce (in-place)
I1124 23:01:36.387593 23711 net.cpp:150] Setting up conv2/relu_3x3_reduce
I1124 23:01:36.387609 23711 net.cpp:157] Top shape: 64 64 56 56 (12845056)
I1124 23:01:36.387616 23711 net.cpp:165] Memory required for data: 655113984
I1124 23:01:36.387619 23711 layer_factory.hpp:76] Creating layer conv2/3x3
I1124 23:01:36.387634 23711 net.cpp:106] Creating Layer conv2/3x3
I1124 23:01:36.387641 23711 net.cpp:454] conv2/3x3 <- conv2/3x3_reduce
I1124 23:01:36.387652 23711 net.cpp:411] conv2/3x3 -> conv2/3x3
I1124 23:01:36.390239 23711 net.cpp:150] Setting up conv2/3x3
I1124 23:01:36.390259 23711 net.cpp:157] Top shape: 64 192 56 56 (38535168)
I1124 23:01:36.390264 23711 net.cpp:165] Memory required for data: 809254656
I1124 23:01:36.390274 23711 layer_factory.hpp:76] Creating layer conv2/relu_3x3
I1124 23:01:36.390281 23711 net.cpp:106] Creating Layer conv2/relu_3x3
I1124 23:01:36.390287 23711 net.cpp:454] conv2/relu_3x3 <- conv2/3x3
I1124 23:01:36.390300 23711 net.cpp:397] conv2/relu_3x3 -> conv2/3x3 (in-place)
I1124 23:01:36.390530 23711 net.cpp:150] Setting up conv2/relu_3x3
I1124 23:01:36.390542 23711 net.cpp:157] Top shape: 64 192 56 56 (38535168)
I1124 23:01:36.390545 23711 net.cpp:165] Memory required for data: 963395328
I1124 23:01:36.390549 23711 layer_factory.hpp:76] Creating layer conv2/norm2
I1124 23:01:36.390554 23711 net.cpp:106] Creating Layer conv2/norm2
I1124 23:01:36.390558 23711 net.cpp:454] conv2/norm2 <- conv2/3x3
I1124 23:01:36.390564 23711 net.cpp:411] conv2/norm2 -> conv2/norm2
I1124 23:01:36.390949 23711 net.cpp:150] Setting up conv2/norm2
I1124 23:01:36.390962 23711 net.cpp:157] Top shape: 64 192 56 56 (38535168)
I1124 23:01:36.390966 23711 net.cpp:165] Memory required for data: 1117536000
I1124 23:01:36.390969 23711 layer_factory.hpp:76] Creating layer pool2/3x3_s2
I1124 23:01:36.390975 23711 net.cpp:106] Creating Layer pool2/3x3_s2
I1124 23:01:36.390980 23711 net.cpp:454] pool2/3x3_s2 <- conv2/norm2
I1124 23:01:36.390986 23711 net.cpp:411] pool2/3x3_s2 -> pool2/3x3_s2
I1124 23:01:36.391204 23711 net.cpp:150] Setting up pool2/3x3_s2
I1124 23:01:36.391219 23711 net.cpp:157] Top shape: 64 192 28 28 (9633792)
I1124 23:01:36.391227 23711 net.cpp:165] Memory required for data: 1156071168
I1124 23:01:36.391233 23711 layer_factory.hpp:76] Creating layer pool2/3x3_s2_pool2/3x3_s2_0_split
I1124 23:01:36.391243 23711 net.cpp:106] Creating Layer pool2/3x3_s2_pool2/3x3_s2_0_split
I1124 23:01:36.391252 23711 net.cpp:454] pool2/3x3_s2_pool2/3x3_s2_0_split <- pool2/3x3_s2
I1124 23:01:36.391261 23711 net.cpp:411] pool2/3x3_s2_pool2/3x3_s2_0_split -> pool2/3x3_s2_pool2/3x3_s2_0_split_0
I1124 23:01:36.391276 23711 net.cpp:411] pool2/3x3_s2_pool2/3x3_s2_0_split -> pool2/3x3_s2_pool2/3x3_s2_0_split_1
I1124 23:01:36.391290 23711 net.cpp:411] pool2/3x3_s2_pool2/3x3_s2_0_split -> pool2/3x3_s2_pool2/3x3_s2_0_split_2
I1124 23:01:36.391299 23711 net.cpp:411] pool2/3x3_s2_pool2/3x3_s2_0_split -> pool2/3x3_s2_pool2/3x3_s2_0_split_3
I1124 23:01:36.391374 23711 net.cpp:150] Setting up pool2/3x3_s2_pool2/3x3_s2_0_split
I1124 23:01:36.391386 23711 net.cpp:157] Top shape: 64 192 28 28 (9633792)
I1124 23:01:36.391396 23711 net.cpp:157] Top shape: 64 192 28 28 (9633792)
I1124 23:01:36.391404 23711 net.cpp:157] Top shape: 64 192 28 28 (9633792)
I1124 23:01:36.391412 23711 net.cpp:157] Top shape: 64 192 28 28 (9633792)
I1124 23:01:36.391415 23711 net.cpp:165] Memory required for data: 1310211840
I1124 23:01:36.391418 23711 layer_factory.hpp:76] Creating layer inception_3a/1x1
I1124 23:01:36.391429 23711 net.cpp:106] Creating Layer inception_3a/1x1
I1124 23:01:36.391438 23711 net.cpp:454] inception_3a/1x1 <- pool2/3x3_s2_pool2/3x3_s2_0_split_0
I1124 23:01:36.391450 23711 net.cpp:411] inception_3a/1x1 -> inception_3a/1x1
I1124 23:01:36.393175 23711 net.cpp:150] Setting up inception_3a/1x1
I1124 23:01:36.393194 23711 net.cpp:157] Top shape: 64 64 28 28 (3211264)
I1124 23:01:36.393203 23711 net.cpp:165] Memory required for data: 1323056896
I1124 23:01:36.393215 23711 layer_factory.hpp:76] Creating layer inception_3a/relu_1x1
I1124 23:01:36.393224 23711 net.cpp:106] Creating Layer inception_3a/relu_1x1
I1124 23:01:36.393229 23711 net.cpp:454] inception_3a/relu_1x1 <- inception_3a/1x1
I1124 23:01:36.393237 23711 net.cpp:397] inception_3a/relu_1x1 -> inception_3a/1x1 (in-place)
I1124 23:01:36.393594 23711 net.cpp:150] Setting up inception_3a/relu_1x1
I1124 23:01:36.393606 23711 net.cpp:157] Top shape: 64 64 28 28 (3211264)
I1124 23:01:36.393611 23711 net.cpp:165] Memory required for data: 1335901952
I1124 23:01:36.393615 23711 layer_factory.hpp:76] Creating layer inception_3a/3x3_reduce
I1124 23:01:36.393630 23711 net.cpp:106] Creating Layer inception_3a/3x3_reduce
I1124 23:01:36.393638 23711 net.cpp:454] inception_3a/3x3_reduce <- pool2/3x3_s2_pool2/3x3_s2_0_split_1
I1124 23:01:36.393653 23711 net.cpp:411] inception_3a/3x3_reduce -> inception_3a/3x3_reduce
I1124 23:01:36.395555 23711 net.cpp:150] Setting up inception_3a/3x3_reduce
I1124 23:01:36.395570 23711 net.cpp:157] Top shape: 64 96 28 28 (4816896)
I1124 23:01:36.395573 23711 net.cpp:165] Memory required for data: 1355169536
I1124 23:01:36.395583 23711 layer_factory.hpp:76] Creating layer inception_3a/relu_3x3_reduce
I1124 23:01:36.395591 23711 net.cpp:106] Creating Layer inception_3a/relu_3x3_reduce
I1124 23:01:36.395594 23711 net.cpp:454] inception_3a/relu_3x3_reduce <- inception_3a/3x3_reduce
I1124 23:01:36.395598 23711 net.cpp:397] inception_3a/relu_3x3_reduce -> inception_3a/3x3_reduce (in-place)
I1124 23:01:36.395766 23711 net.cpp:150] Setting up inception_3a/relu_3x3_reduce
I1124 23:01:36.395776 23711 net.cpp:157] Top shape: 64 96 28 28 (4816896)
I1124 23:01:36.395779 23711 net.cpp:165] Memory required for data: 1374437120
I1124 23:01:36.395782 23711 layer_factory.hpp:76] Creating layer inception_3a/3x3
I1124 23:01:36.395790 23711 net.cpp:106] Creating Layer inception_3a/3x3
I1124 23:01:36.395795 23711 net.cpp:454] inception_3a/3x3 <- inception_3a/3x3_reduce
I1124 23:01:36.395800 23711 net.cpp:411] inception_3a/3x3 -> inception_3a/3x3
I1124 23:01:36.397795 23711 net.cpp:150] Setting up inception_3a/3x3
I1124 23:01:36.397814 23711 net.cpp:157] Top shape: 64 128 28 28 (6422528)
I1124 23:01:36.397820 23711 net.cpp:165] Memory required for data: 1400127232
I1124 23:01:36.397827 23711 layer_factory.hpp:76] Creating layer inception_3a/relu_3x3
I1124 23:01:36.397836 23711 net.cpp:106] Creating Layer inception_3a/relu_3x3
I1124 23:01:36.397841 23711 net.cpp:454] inception_3a/relu_3x3 <- inception_3a/3x3
I1124 23:01:36.397846 23711 net.cpp:397] inception_3a/relu_3x3 -> inception_3a/3x3 (in-place)
I1124 23:01:36.398056 23711 net.cpp:150] Setting up inception_3a/relu_3x3
I1124 23:01:36.398071 23711 net.cpp:157] Top shape: 64 128 28 28 (6422528)
I1124 23:01:36.398079 23711 net.cpp:165] Memory required for data: 1425817344
I1124 23:01:36.398083 23711 layer_factory.hpp:76] Creating layer inception_3a/5x5_reduce
I1124 23:01:36.398092 23711 net.cpp:106] Creating Layer inception_3a/5x5_reduce
I1124 23:01:36.398097 23711 net.cpp:454] inception_3a/5x5_reduce <- pool2/3x3_s2_pool2/3x3_s2_0_split_2
I1124 23:01:36.398103 23711 net.cpp:411] inception_3a/5x5_reduce -> inception_3a/5x5_reduce
I1124 23:01:36.399276 23711 net.cpp:150] Setting up inception_3a/5x5_reduce
I1124 23:01:36.399292 23711 net.cpp:157] Top shape: 64 16 28 28 (802816)
I1124 23:01:36.399297 23711 net.cpp:165] Memory required for data: 1429028608
I1124 23:01:36.399304 23711 layer_factory.hpp:76] Creating layer inception_3a/relu_5x5_reduce
I1124 23:01:36.399309 23711 net.cpp:106] Creating Layer inception_3a/relu_5x5_reduce
I1124 23:01:36.399315 23711 net.cpp:454] inception_3a/relu_5x5_reduce <- inception_3a/5x5_reduce
I1124 23:01:36.399327 23711 net.cpp:397] inception_3a/relu_5x5_reduce -> inception_3a/5x5_reduce (in-place)
I1124 23:01:36.399680 23711 net.cpp:150] Setting up inception_3a/relu_5x5_reduce
I1124 23:01:36.399698 23711 net.cpp:157] Top shape: 64 16 28 28 (802816)
I1124 23:01:36.399704 23711 net.cpp:165] Memory required for data: 1432239872
I1124 23:01:36.399709 23711 layer_factory.hpp:76] Creating layer inception_3a/5x5
I1124 23:01:36.399718 23711 net.cpp:106] Creating Layer inception_3a/5x5
I1124 23:01:36.399724 23711 net.cpp:454] inception_3a/5x5 <- inception_3a/5x5_reduce
I1124 23:01:36.399730 23711 net.cpp:411] inception_3a/5x5 -> inception_3a/5x5
I1124 23:01:36.400908 23711 net.cpp:150] Setting up inception_3a/5x5
I1124 23:01:36.400925 23711 net.cpp:157] Top shape: 64 32 28 28 (1605632)
I1124 23:01:36.400933 23711 net.cpp:165] Memory required for data: 1438662400
I1124 23:01:36.400944 23711 layer_factory.hpp:76] Creating layer inception_3a/relu_5x5
I1124 23:01:36.400957 23711 net.cpp:106] Creating Layer inception_3a/relu_5x5
I1124 23:01:36.400965 23711 net.cpp:454] inception_3a/relu_5x5 <- inception_3a/5x5
I1124 23:01:36.400975 23711 net.cpp:397] inception_3a/relu_5x5 -> inception_3a/5x5 (in-place)
I1124 23:01:36.401181 23711 net.cpp:150] Setting up inception_3a/relu_5x5
I1124 23:01:36.401196 23711 net.cpp:157] Top shape: 64 32 28 28 (1605632)
I1124 23:01:36.401206 23711 net.cpp:165] Memory required for data: 1445084928
I1124 23:01:36.401212 23711 layer_factory.hpp:76] Creating layer inception_3a/pool
I1124 23:01:36.401221 23711 net.cpp:106] Creating Layer inception_3a/pool
I1124 23:01:36.401229 23711 net.cpp:454] inception_3a/pool <- pool2/3x3_s2_pool2/3x3_s2_0_split_3
I1124 23:01:36.401238 23711 net.cpp:411] inception_3a/pool -> inception_3a/pool
I1124 23:01:36.401639 23711 net.cpp:150] Setting up inception_3a/pool
I1124 23:01:36.401657 23711 net.cpp:157] Top shape: 64 192 28 28 (9633792)
I1124 23:01:36.401664 23711 net.cpp:165] Memory required for data: 1483620096
I1124 23:01:36.401670 23711 layer_factory.hpp:76] Creating layer inception_3a/pool_proj
I1124 23:01:36.401682 23711 net.cpp:106] Creating Layer inception_3a/pool_proj
I1124 23:01:36.401687 23711 net.cpp:454] inception_3a/pool_proj <- inception_3a/pool
I1124 23:01:36.401695 23711 net.cpp:411] inception_3a/pool_proj -> inception_3a/pool_proj
I1124 23:01:36.402789 23711 net.cpp:150] Setting up inception_3a/pool_proj
I1124 23:01:36.402803 23711 net.cpp:157] Top shape: 64 32 28 28 (1605632)
I1124 23:01:36.402807 23711 net.cpp:165] Memory required for data: 1490042624
I1124 23:01:36.402822 23711 layer_factory.hpp:76] Creating layer inception_3a/relu_pool_proj
I1124 23:01:36.402832 23711 net.cpp:106] Creating Layer inception_3a/relu_pool_proj
I1124 23:01:36.402838 23711 net.cpp:454] inception_3a/relu_pool_proj <- inception_3a/pool_proj
I1124 23:01:36.402843 23711 net.cpp:397] inception_3a/relu_pool_proj -> inception_3a/pool_proj (in-place)
I1124 23:01:36.403163 23711 net.cpp:150] Setting up inception_3a/relu_pool_proj
I1124 23:01:36.403177 23711 net.cpp:157] Top shape: 64 32 28 28 (1605632)
I1124 23:01:36.403180 23711 net.cpp:165] Memory required for data: 1496465152
I1124 23:01:36.403185 23711 layer_factory.hpp:76] Creating layer inception_3a/output
I1124 23:01:36.403198 23711 net.cpp:106] Creating Layer inception_3a/output
I1124 23:01:36.403205 23711 net.cpp:454] inception_3a/output <- inception_3a/1x1
I1124 23:01:36.403213 23711 net.cpp:454] inception_3a/output <- inception_3a/3x3
I1124 23:01:36.403218 23711 net.cpp:454] inception_3a/output <- inception_3a/5x5
I1124 23:01:36.403224 23711 net.cpp:454] inception_3a/output <- inception_3a/pool_proj
I1124 23:01:36.403233 23711 net.cpp:411] inception_3a/output -> inception_3a/output
I1124 23:01:36.403276 23711 net.cpp:150] Setting up inception_3a/output
I1124 23:01:36.403286 23711 net.cpp:157] Top shape: 64 256 28 28 (12845056)
I1124 23:01:36.403291 23711 net.cpp:165] Memory required for data: 1547845376
I1124 23:01:36.403297 23711 layer_factory.hpp:76] Creating layer inception_3a/output_inception_3a/output_0_split
I1124 23:01:36.403307 23711 net.cpp:106] Creating Layer inception_3a/output_inception_3a/output_0_split
I1124 23:01:36.403313 23711 net.cpp:454] inception_3a/output_inception_3a/output_0_split <- inception_3a/output
I1124 23:01:36.403318 23711 net.cpp:411] inception_3a/output_inception_3a/output_0_split -> inception_3a/output_inception_3a/output_0_split_0
I1124 23:01:36.403326 23711 net.cpp:411] inception_3a/output_inception_3a/output_0_split -> inception_3a/output_inception_3a/output_0_split_1
I1124 23:01:36.403331 23711 net.cpp:411] inception_3a/output_inception_3a/output_0_split -> inception_3a/output_inception_3a/output_0_split_2
I1124 23:01:36.403349 23711 net.cpp:411] inception_3a/output_inception_3a/output_0_split -> inception_3a/output_inception_3a/output_0_split_3
I1124 23:01:36.403432 23711 net.cpp:150] Setting up inception_3a/output_inception_3a/output_0_split
I1124 23:01:36.403446 23711 net.cpp:157] Top shape: 64 256 28 28 (12845056)
I1124 23:01:36.403453 23711 net.cpp:157] Top shape: 64 256 28 28 (12845056)
I1124 23:01:36.403460 23711 net.cpp:157] Top shape: 64 256 28 28 (12845056)
I1124 23:01:36.403465 23711 net.cpp:157] Top shape: 64 256 28 28 (12845056)
I1124 23:01:36.403466 23711 net.cpp:165] Memory required for data: 1753366272
I1124 23:01:36.403470 23711 layer_factory.hpp:76] Creating layer inception_3b/1x1
I1124 23:01:36.403480 23711 net.cpp:106] Creating Layer inception_3b/1x1
I1124 23:01:36.403486 23711 net.cpp:454] inception_3b/1x1 <- inception_3a/output_inception_3a/output_0_split_0
I1124 23:01:36.403496 23711 net.cpp:411] inception_3b/1x1 -> inception_3b/1x1
I1124 23:01:36.404906 23711 net.cpp:150] Setting up inception_3b/1x1
I1124 23:01:36.404922 23711 net.cpp:157] Top shape: 64 128 28 28 (6422528)
I1124 23:01:36.404925 23711 net.cpp:165] Memory required for data: 1779056384
I1124 23:01:36.404932 23711 layer_factory.hpp:76] Creating layer inception_3b/relu_1x1
I1124 23:01:36.404938 23711 net.cpp:106] Creating Layer inception_3b/relu_1x1
I1124 23:01:36.404942 23711 net.cpp:454] inception_3b/relu_1x1 <- inception_3b/1x1
I1124 23:01:36.404947 23711 net.cpp:397] inception_3b/relu_1x1 -> inception_3b/1x1 (in-place)
I1124 23:01:36.405146 23711 net.cpp:150] Setting up inception_3b/relu_1x1
I1124 23:01:36.405164 23711 net.cpp:157] Top shape: 64 128 28 28 (6422528)
I1124 23:01:36.405169 23711 net.cpp:165] Memory required for data: 1804746496
I1124 23:01:36.405175 23711 layer_factory.hpp:76] Creating layer inception_3b/3x3_reduce
I1124 23:01:36.405189 23711 net.cpp:106] Creating Layer inception_3b/3x3_reduce
I1124 23:01:36.405195 23711 net.cpp:454] inception_3b/3x3_reduce <- inception_3a/output_inception_3a/output_0_split_1
I1124 23:01:36.405208 23711 net.cpp:411] inception_3b/3x3_reduce -> inception_3b/3x3_reduce
I1124 23:01:36.406625 23711 net.cpp:150] Setting up inception_3b/3x3_reduce
I1124 23:01:36.406637 23711 net.cpp:157] Top shape: 64 128 28 28 (6422528)
I1124 23:01:36.406641 23711 net.cpp:165] Memory required for data: 1830436608
I1124 23:01:36.406647 23711 layer_factory.hpp:76] Creating layer inception_3b/relu_3x3_reduce
I1124 23:01:36.406654 23711 net.cpp:106] Creating Layer inception_3b/relu_3x3_reduce
I1124 23:01:36.406658 23711 net.cpp:454] inception_3b/relu_3x3_reduce <- inception_3b/3x3_reduce
I1124 23:01:36.406664 23711 net.cpp:397] inception_3b/relu_3x3_reduce -> inception_3b/3x3_reduce (in-place)
I1124 23:01:36.406977 23711 net.cpp:150] Setting up inception_3b/relu_3x3_reduce
I1124 23:01:36.406991 23711 net.cpp:157] Top shape: 64 128 28 28 (6422528)
I1124 23:01:36.406993 23711 net.cpp:165] Memory required for data: 1856126720
I1124 23:01:36.406997 23711 layer_factory.hpp:76] Creating layer inception_3b/3x3
I1124 23:01:36.407006 23711 net.cpp:106] Creating Layer inception_3b/3x3
I1124 23:01:36.407011 23711 net.cpp:454] inception_3b/3x3 <- inception_3b/3x3_reduce
I1124 23:01:36.407016 23711 net.cpp:411] inception_3b/3x3 -> inception_3b/3x3
I1124 23:01:36.409807 23711 net.cpp:150] Setting up inception_3b/3x3
I1124 23:01:36.409824 23711 net.cpp:157] Top shape: 64 192 28 28 (9633792)
I1124 23:01:36.409831 23711 net.cpp:165] Memory required for data: 1894661888
I1124 23:01:36.409840 23711 layer_factory.hpp:76] Creating layer inception_3b/relu_3x3
I1124 23:01:36.409852 23711 net.cpp:106] Creating Layer inception_3b/relu_3x3
I1124 23:01:36.409860 23711 net.cpp:454] inception_3b/relu_3x3 <- inception_3b/3x3
I1124 23:01:36.409871 23711 net.cpp:397] inception_3b/relu_3x3 -> inception_3b/3x3 (in-place)
I1124 23:01:36.410174 23711 net.cpp:150] Setting up inception_3b/relu_3x3
I1124 23:01:36.410189 23711 net.cpp:157] Top shape: 64 192 28 28 (9633792)
I1124 23:01:36.410194 23711 net.cpp:165] Memory required for data: 1933197056
I1124 23:01:36.410200 23711 layer_factory.hpp:76] Creating layer inception_3b/5x5_reduce
I1124 23:01:36.410213 23711 net.cpp:106] Creating Layer inception_3b/5x5_reduce
I1124 23:01:36.410222 23711 net.cpp:454] inception_3b/5x5_reduce <- inception_3a/output_inception_3a/output_0_split_2
I1124 23:01:36.410233 23711 net.cpp:411] inception_3b/5x5_reduce -> inception_3b/5x5_reduce
I1124 23:01:36.411237 23711 net.cpp:150] Setting up inception_3b/5x5_reduce
I1124 23:01:36.411252 23711 net.cpp:157] Top shape: 64 32 28 28 (1605632)
I1124 23:01:36.411257 23711 net.cpp:165] Memory required for data: 1939619584
I1124 23:01:36.411268 23711 layer_factory.hpp:76] Creating layer inception_3b/relu_5x5_reduce
I1124 23:01:36.411279 23711 net.cpp:106] Creating Layer inception_3b/relu_5x5_reduce
I1124 23:01:36.411289 23711 net.cpp:454] inception_3b/relu_5x5_reduce <- inception_3b/5x5_reduce
I1124 23:01:36.411300 23711 net.cpp:397] inception_3b/relu_5x5_reduce -> inception_3b/5x5_reduce (in-place)
I1124 23:01:36.411466 23711 net.cpp:150] Setting up inception_3b/relu_5x5_reduce
I1124 23:01:36.411478 23711 net.cpp:157] Top shape: 64 32 28 28 (1605632)
I1124 23:01:36.411484 23711 net.cpp:165] Memory required for data: 1946042112
I1124 23:01:36.411494 23711 layer_factory.hpp:76] Creating layer inception_3b/5x5
I1124 23:01:36.411504 23711 net.cpp:106] Creating Layer inception_3b/5x5
I1124 23:01:36.411507 23711 net.cpp:454] inception_3b/5x5 <- inception_3b/5x5_reduce
I1124 23:01:36.411514 23711 net.cpp:411] inception_3b/5x5 -> inception_3b/5x5
I1124 23:01:36.413379 23711 net.cpp:150] Setting up inception_3b/5x5
I1124 23:01:36.413394 23711 net.cpp:157] Top shape: 64 96 28 28 (4816896)
I1124 23:01:36.413398 23711 net.cpp:165] Memory required for data: 1965309696
I1124 23:01:36.413404 23711 layer_factory.hpp:76] Creating layer inception_3b/relu_5x5
I1124 23:01:36.413409 23711 net.cpp:106] Creating Layer inception_3b/relu_5x5
I1124 23:01:36.413414 23711 net.cpp:454] inception_3b/relu_5x5 <- inception_3b/5x5
I1124 23:01:36.413419 23711 net.cpp:397] inception_3b/relu_5x5 -> inception_3b/5x5 (in-place)
I1124 23:01:36.413707 23711 net.cpp:150] Setting up inception_3b/relu_5x5
I1124 23:01:36.413719 23711 net.cpp:157] Top shape: 64 96 28 28 (4816896)
I1124 23:01:36.413722 23711 net.cpp:165] Memory required for data: 1984577280
I1124 23:01:36.413727 23711 layer_factory.hpp:76] Creating layer inception_3b/pool
I1124 23:01:36.413734 23711 net.cpp:106] Creating Layer inception_3b/pool
I1124 23:01:36.413738 23711 net.cpp:454] inception_3b/pool <- inception_3a/output_inception_3a/output_0_split_3
I1124 23:01:36.413743 23711 net.cpp:411] inception_3b/pool -> inception_3b/pool
I1124 23:01:36.413931 23711 net.cpp:150] Setting up inception_3b/pool
I1124 23:01:36.413941 23711 net.cpp:157] Top shape: 64 256 28 28 (12845056)
I1124 23:01:36.413944 23711 net.cpp:165] Memory required for data: 2035957504
I1124 23:01:36.413949 23711 layer_factory.hpp:76] Creating layer inception_3b/pool_proj
I1124 23:01:36.413956 23711 net.cpp:106] Creating Layer inception_3b/pool_proj
I1124 23:01:36.413960 23711 net.cpp:454] inception_3b/pool_proj <- inception_3b/pool
I1124 23:01:36.413967 23711 net.cpp:411] inception_3b/pool_proj -> inception_3b/pool_proj
I1124 23:01:36.415015 23711 net.cpp:150] Setting up inception_3b/pool_proj
I1124 23:01:36.415030 23711 net.cpp:157] Top shape: 64 64 28 28 (3211264)
I1124 23:01:36.415033 23711 net.cpp:165] Memory required for data: 2048802560
I1124 23:01:36.415040 23711 layer_factory.hpp:76] Creating layer inception_3b/relu_pool_proj
I1124 23:01:36.415052 23711 net.cpp:106] Creating Layer inception_3b/relu_pool_proj
I1124 23:01:36.415057 23711 net.cpp:454] inception_3b/relu_pool_proj <- inception_3b/pool_proj
I1124 23:01:36.415065 23711 net.cpp:397] inception_3b/relu_pool_proj -> inception_3b/pool_proj (in-place)
I1124 23:01:36.415434 23711 net.cpp:150] Setting up inception_3b/relu_pool_proj
I1124 23:01:36.415452 23711 net.cpp:157] Top shape: 64 64 28 28 (3211264)
I1124 23:01:36.415454 23711 net.cpp:165] Memory required for data: 2061647616
I1124 23:01:36.415459 23711 layer_factory.hpp:76] Creating layer inception_3b/output
I1124 23:01:36.415464 23711 net.cpp:106] Creating Layer inception_3b/output
I1124 23:01:36.415469 23711 net.cpp:454] inception_3b/output <- inception_3b/1x1
I1124 23:01:36.415477 23711 net.cpp:454] inception_3b/output <- inception_3b/3x3
I1124 23:01:36.415483 23711 net.cpp:454] inception_3b/output <- inception_3b/5x5
I1124 23:01:36.415490 23711 net.cpp:454] inception_3b/output <- inception_3b/pool_proj
I1124 23:01:36.415501 23711 net.cpp:411] inception_3b/output -> inception_3b/output
I1124 23:01:36.415544 23711 net.cpp:150] Setting up inception_3b/output
I1124 23:01:36.415555 23711 net.cpp:157] Top shape: 64 480 28 28 (24084480)
I1124 23:01:36.415561 23711 net.cpp:165] Memory required for data: 2157985536
I1124 23:01:36.415570 23711 layer_factory.hpp:76] Creating layer pool3/3x3_s2
I1124 23:01:36.415580 23711 net.cpp:106] Creating Layer pool3/3x3_s2
I1124 23:01:36.415588 23711 net.cpp:454] pool3/3x3_s2 <- inception_3b/output
I1124 23:01:36.415596 23711 net.cpp:411] pool3/3x3_s2 -> pool3/3x3_s2
I1124 23:01:36.415846 23711 net.cpp:150] Setting up pool3/3x3_s2
I1124 23:01:36.415858 23711 net.cpp:157] Top shape: 64 480 14 14 (6021120)
I1124 23:01:36.415861 23711 net.cpp:165] Memory required for data: 2182070016
I1124 23:01:36.415864 23711 layer_factory.hpp:76] Creating layer pool3/3x3_s2_pool3/3x3_s2_0_split
I1124 23:01:36.415870 23711 net.cpp:106] Creating Layer pool3/3x3_s2_pool3/3x3_s2_0_split
I1124 23:01:36.415876 23711 net.cpp:454] pool3/3x3_s2_pool3/3x3_s2_0_split <- pool3/3x3_s2
I1124 23:01:36.415881 23711 net.cpp:411] pool3/3x3_s2_pool3/3x3_s2_0_split -> pool3/3x3_s2_pool3/3x3_s2_0_split_0
I1124 23:01:36.415889 23711 net.cpp:411] pool3/3x3_s2_pool3/3x3_s2_0_split -> pool3/3x3_s2_pool3/3x3_s2_0_split_1
I1124 23:01:36.415895 23711 net.cpp:411] pool3/3x3_s2_pool3/3x3_s2_0_split -> pool3/3x3_s2_pool3/3x3_s2_0_split_2
I1124 23:01:36.415901 23711 net.cpp:411] pool3/3x3_s2_pool3/3x3_s2_0_split -> pool3/3x3_s2_pool3/3x3_s2_0_split_3
I1124 23:01:36.415957 23711 net.cpp:150] Setting up pool3/3x3_s2_pool3/3x3_s2_0_split
I1124 23:01:36.415964 23711 net.cpp:157] Top shape: 64 480 14 14 (6021120)
I1124 23:01:36.415967 23711 net.cpp:157] Top shape: 64 480 14 14 (6021120)
I1124 23:01:36.415971 23711 net.cpp:157] Top shape: 64 480 14 14 (6021120)
I1124 23:01:36.415974 23711 net.cpp:157] Top shape: 64 480 14 14 (6021120)
I1124 23:01:36.415977 23711 net.cpp:165] Memory required for data: 2278407936
I1124 23:01:36.415980 23711 layer_factory.hpp:76] Creating layer inception_4a/1x1
I1124 23:01:36.415988 23711 net.cpp:106] Creating Layer inception_4a/1x1
I1124 23:01:36.415993 23711 net.cpp:454] inception_4a/1x1 <- pool3/3x3_s2_pool3/3x3_s2_0_split_0
I1124 23:01:36.415998 23711 net.cpp:411] inception_4a/1x1 -> inception_4a/1x1
I1124 23:01:36.417824 23711 net.cpp:150] Setting up inception_4a/1x1
I1124 23:01:36.417841 23711 net.cpp:157] Top shape: 64 192 14 14 (2408448)
I1124 23:01:36.417848 23711 net.cpp:165] Memory required for data: 2288041728
I1124 23:01:36.417860 23711 layer_factory.hpp:76] Creating layer inception_4a/relu_1x1
I1124 23:01:36.417871 23711 net.cpp:106] Creating Layer inception_4a/relu_1x1
I1124 23:01:36.417878 23711 net.cpp:454] inception_4a/relu_1x1 <- inception_4a/1x1
I1124 23:01:36.417886 23711 net.cpp:397] inception_4a/relu_1x1 -> inception_4a/1x1 (in-place)
I1124 23:01:36.418066 23711 net.cpp:150] Setting up inception_4a/relu_1x1
I1124 23:01:36.418081 23711 net.cpp:157] Top shape: 64 192 14 14 (2408448)
I1124 23:01:36.418087 23711 net.cpp:165] Memory required for data: 2297675520
I1124 23:01:36.418092 23711 layer_factory.hpp:76] Creating layer inception_4a/3x3_reduce
I1124 23:01:36.418105 23711 net.cpp:106] Creating Layer inception_4a/3x3_reduce
I1124 23:01:36.418114 23711 net.cpp:454] inception_4a/3x3_reduce <- pool3/3x3_s2_pool3/3x3_s2_0_split_1
I1124 23:01:36.418128 23711 net.cpp:411] inception_4a/3x3_reduce -> inception_4a/3x3_reduce
I1124 23:01:36.419638 23711 net.cpp:150] Setting up inception_4a/3x3_reduce
I1124 23:01:36.419652 23711 net.cpp:157] Top shape: 64 96 14 14 (1204224)
I1124 23:01:36.419656 23711 net.cpp:165] Memory required for data: 2302492416
I1124 23:01:36.419668 23711 layer_factory.hpp:76] Creating layer inception_4a/relu_3x3_reduce
I1124 23:01:36.419674 23711 net.cpp:106] Creating Layer inception_4a/relu_3x3_reduce
I1124 23:01:36.419678 23711 net.cpp:454] inception_4a/relu_3x3_reduce <- inception_4a/3x3_reduce
I1124 23:01:36.419685 23711 net.cpp:397] inception_4a/relu_3x3_reduce -> inception_4a/3x3_reduce (in-place)
I1124 23:01:36.420056 23711 net.cpp:150] Setting up inception_4a/relu_3x3_reduce
I1124 23:01:36.420074 23711 net.cpp:157] Top shape: 64 96 14 14 (1204224)
I1124 23:01:36.420080 23711 net.cpp:165] Memory required for data: 2307309312
I1124 23:01:36.420085 23711 layer_factory.hpp:76] Creating layer inception_4a/3x3
I1124 23:01:36.420094 23711 net.cpp:106] Creating Layer inception_4a/3x3
I1124 23:01:36.420100 23711 net.cpp:454] inception_4a/3x3 <- inception_4a/3x3_reduce
I1124 23:01:36.420110 23711 net.cpp:411] inception_4a/3x3 -> inception_4a/3x3
I1124 23:01:36.423202 23711 net.cpp:150] Setting up inception_4a/3x3
I1124 23:01:36.423229 23711 net.cpp:157] Top shape: 64 208 14 14 (2609152)
I1124 23:01:36.423235 23711 net.cpp:165] Memory required for data: 2317745920
I1124 23:01:36.423249 23711 layer_factory.hpp:76] Creating layer inception_4a/relu_3x3
I1124 23:01:36.423260 23711 net.cpp:106] Creating Layer inception_4a/relu_3x3
I1124 23:01:36.423270 23711 net.cpp:454] inception_4a/relu_3x3 <- inception_4a/3x3
I1124 23:01:36.423281 23711 net.cpp:397] inception_4a/relu_3x3 -> inception_4a/3x3 (in-place)
I1124 23:01:36.423493 23711 net.cpp:150] Setting up inception_4a/relu_3x3
I1124 23:01:36.423506 23711 net.cpp:157] Top shape: 64 208 14 14 (2609152)
I1124 23:01:36.423511 23711 net.cpp:165] Memory required for data: 2328182528
I1124 23:01:36.423514 23711 layer_factory.hpp:76] Creating layer inception_4a/5x5_reduce
I1124 23:01:36.423526 23711 net.cpp:106] Creating Layer inception_4a/5x5_reduce
I1124 23:01:36.423533 23711 net.cpp:454] inception_4a/5x5_reduce <- pool3/3x3_s2_pool3/3x3_s2_0_split_2
I1124 23:01:36.423547 23711 net.cpp:411] inception_4a/5x5_reduce -> inception_4a/5x5_reduce
I1124 23:01:36.424921 23711 net.cpp:150] Setting up inception_4a/5x5_reduce
I1124 23:01:36.424937 23711 net.cpp:157] Top shape: 64 16 14 14 (200704)
I1124 23:01:36.424939 23711 net.cpp:165] Memory required for data: 2328985344
I1124 23:01:36.424947 23711 layer_factory.hpp:76] Creating layer inception_4a/relu_5x5_reduce
I1124 23:01:36.424952 23711 net.cpp:106] Creating Layer inception_4a/relu_5x5_reduce
I1124 23:01:36.424958 23711 net.cpp:454] inception_4a/relu_5x5_reduce <- inception_4a/5x5_reduce
I1124 23:01:36.424968 23711 net.cpp:397] inception_4a/relu_5x5_reduce -> inception_4a/5x5_reduce (in-place)
I1124 23:01:36.425194 23711 net.cpp:150] Setting up inception_4a/relu_5x5_reduce
I1124 23:01:36.425207 23711 net.cpp:157] Top shape: 64 16 14 14 (200704)
I1124 23:01:36.425211 23711 net.cpp:165] Memory required for data: 2329788160
I1124 23:01:36.425215 23711 layer_factory.hpp:76] Creating layer inception_4a/5x5
I1124 23:01:36.425225 23711 net.cpp:106] Creating Layer inception_4a/5x5
I1124 23:01:36.425235 23711 net.cpp:454] inception_4a/5x5 <- inception_4a/5x5_reduce
I1124 23:01:36.425241 23711 net.cpp:411] inception_4a/5x5 -> inception_4a/5x5
I1124 23:01:36.426694 23711 net.cpp:150] Setting up inception_4a/5x5
I1124 23:01:36.426715 23711 net.cpp:157] Top shape: 64 48 14 14 (602112)
I1124 23:01:36.426724 23711 net.cpp:165] Memory required for data: 2332196608
I1124 23:01:36.426733 23711 layer_factory.hpp:76] Creating layer inception_4a/relu_5x5
I1124 23:01:36.426741 23711 net.cpp:106] Creating Layer inception_4a/relu_5x5
I1124 23:01:36.426746 23711 net.cpp:454] inception_4a/relu_5x5 <- inception_4a/5x5
I1124 23:01:36.426753 23711 net.cpp:397] inception_4a/relu_5x5 -> inception_4a/5x5 (in-place)
I1124 23:01:36.427124 23711 net.cpp:150] Setting up inception_4a/relu_5x5
I1124 23:01:36.427137 23711 net.cpp:157] Top shape: 64 48 14 14 (602112)
I1124 23:01:36.427141 23711 net.cpp:165] Memory required for data: 2334605056
I1124 23:01:36.427145 23711 layer_factory.hpp:76] Creating layer inception_4a/pool
I1124 23:01:36.427151 23711 net.cpp:106] Creating Layer inception_4a/pool
I1124 23:01:36.427155 23711 net.cpp:454] inception_4a/pool <- pool3/3x3_s2_pool3/3x3_s2_0_split_3
I1124 23:01:36.427161 23711 net.cpp:411] inception_4a/pool -> inception_4a/pool
I1124 23:01:36.427386 23711 net.cpp:150] Setting up inception_4a/pool
I1124 23:01:36.427402 23711 net.cpp:157] Top shape: 64 480 14 14 (6021120)
I1124 23:01:36.427409 23711 net.cpp:165] Memory required for data: 2358689536
I1124 23:01:36.427417 23711 layer_factory.hpp:76] Creating layer inception_4a/pool_proj
I1124 23:01:36.427431 23711 net.cpp:106] Creating Layer inception_4a/pool_proj
I1124 23:01:36.427440 23711 net.cpp:454] inception_4a/pool_proj <- inception_4a/pool
I1124 23:01:36.427454 23711 net.cpp:411] inception_4a/pool_proj -> inception_4a/pool_proj
I1124 23:01:36.429031 23711 net.cpp:150] Setting up inception_4a/pool_proj
I1124 23:01:36.429049 23711 net.cpp:157] Top shape: 64 64 14 14 (802816)
I1124 23:01:36.429056 23711 net.cpp:165] Memory required for data: 2361900800
I1124 23:01:36.429066 23711 layer_factory.hpp:76] Creating layer inception_4a/relu_pool_proj
I1124 23:01:36.429080 23711 net.cpp:106] Creating Layer inception_4a/relu_pool_proj
I1124 23:01:36.429088 23711 net.cpp:454] inception_4a/relu_pool_proj <- inception_4a/pool_proj
I1124 23:01:36.429095 23711 net.cpp:397] inception_4a/relu_pool_proj -> inception_4a/pool_proj (in-place)
I1124 23:01:36.429472 23711 net.cpp:150] Setting up inception_4a/relu_pool_proj
I1124 23:01:36.429488 23711 net.cpp:157] Top shape: 64 64 14 14 (802816)
I1124 23:01:36.429497 23711 net.cpp:165] Memory required for data: 2365112064
I1124 23:01:36.429504 23711 layer_factory.hpp:76] Creating layer inception_4a/output
I1124 23:01:36.429517 23711 net.cpp:106] Creating Layer inception_4a/output
I1124 23:01:36.429524 23711 net.cpp:454] inception_4a/output <- inception_4a/1x1
I1124 23:01:36.429529 23711 net.cpp:454] inception_4a/output <- inception_4a/3x3
I1124 23:01:36.429534 23711 net.cpp:454] inception_4a/output <- inception_4a/5x5
I1124 23:01:36.429538 23711 net.cpp:454] inception_4a/output <- inception_4a/pool_proj
I1124 23:01:36.429545 23711 net.cpp:411] inception_4a/output -> inception_4a/output
I1124 23:01:36.429589 23711 net.cpp:150] Setting up inception_4a/output
I1124 23:01:36.429600 23711 net.cpp:157] Top shape: 64 512 14 14 (6422528)
I1124 23:01:36.429605 23711 net.cpp:165] Memory required for data: 2390802176
I1124 23:01:36.429610 23711 layer_factory.hpp:76] Creating layer inception_4a/output_inception_4a/output_0_split
I1124 23:01:36.429621 23711 net.cpp:106] Creating Layer inception_4a/output_inception_4a/output_0_split
I1124 23:01:36.429630 23711 net.cpp:454] inception_4a/output_inception_4a/output_0_split <- inception_4a/output
I1124 23:01:36.429643 23711 net.cpp:411] inception_4a/output_inception_4a/output_0_split -> inception_4a/output_inception_4a/output_0_split_0
I1124 23:01:36.429653 23711 net.cpp:411] inception_4a/output_inception_4a/output_0_split -> inception_4a/output_inception_4a/output_0_split_1
I1124 23:01:36.429661 23711 net.cpp:411] inception_4a/output_inception_4a/output_0_split -> inception_4a/output_inception_4a/output_0_split_2
I1124 23:01:36.429667 23711 net.cpp:411] inception_4a/output_inception_4a/output_0_split -> inception_4a/output_inception_4a/output_0_split_3
I1124 23:01:36.429678 23711 net.cpp:411] inception_4a/output_inception_4a/output_0_split -> inception_4a/output_inception_4a/output_0_split_4
I1124 23:01:36.429790 23711 net.cpp:150] Setting up inception_4a/output_inception_4a/output_0_split
I1124 23:01:36.429800 23711 net.cpp:157] Top shape: 64 512 14 14 (6422528)
I1124 23:01:36.429808 23711 net.cpp:157] Top shape: 64 512 14 14 (6422528)
I1124 23:01:36.429817 23711 net.cpp:157] Top shape: 64 512 14 14 (6422528)
I1124 23:01:36.429826 23711 net.cpp:157] Top shape: 64 512 14 14 (6422528)
I1124 23:01:36.429834 23711 net.cpp:157] Top shape: 64 512 14 14 (6422528)
I1124 23:01:36.429839 23711 net.cpp:165] Memory required for data: 2519252736
I1124 23:01:36.429843 23711 layer_factory.hpp:76] Creating layer loss1/ave_pool
I1124 23:01:36.429849 23711 net.cpp:106] Creating Layer loss1/ave_pool
I1124 23:01:36.429854 23711 net.cpp:454] loss1/ave_pool <- inception_4a/output_inception_4a/output_0_split_0
I1124 23:01:36.429862 23711 net.cpp:411] loss1/ave_pool -> loss1/ave_pool
I1124 23:01:36.430104 23711 net.cpp:150] Setting up loss1/ave_pool
I1124 23:01:36.430116 23711 net.cpp:157] Top shape: 64 512 4 4 (524288)
I1124 23:01:36.430119 23711 net.cpp:165] Memory required for data: 2521349888
I1124 23:01:36.430124 23711 layer_factory.hpp:76] Creating layer loss1/conv
I1124 23:01:36.430131 23711 net.cpp:106] Creating Layer loss1/conv
I1124 23:01:36.430138 23711 net.cpp:454] loss1/conv <- loss1/ave_pool
I1124 23:01:36.430151 23711 net.cpp:411] loss1/conv -> loss1/conv
I1124 23:01:36.431977 23711 net.cpp:150] Setting up loss1/conv
I1124 23:01:36.431991 23711 net.cpp:157] Top shape: 64 128 4 4 (131072)
I1124 23:01:36.431996 23711 net.cpp:165] Memory required for data: 2521874176
I1124 23:01:36.432006 23711 layer_factory.hpp:76] Creating layer loss1/relu_conv
I1124 23:01:36.432015 23711 net.cpp:106] Creating Layer loss1/relu_conv
I1124 23:01:36.432023 23711 net.cpp:454] loss1/relu_conv <- loss1/conv
I1124 23:01:36.432034 23711 net.cpp:397] loss1/relu_conv -> loss1/conv (in-place)
I1124 23:01:36.432248 23711 net.cpp:150] Setting up loss1/relu_conv
I1124 23:01:36.432263 23711 net.cpp:157] Top shape: 64 128 4 4 (131072)
I1124 23:01:36.432271 23711 net.cpp:165] Memory required for data: 2522398464
I1124 23:01:36.432274 23711 layer_factory.hpp:76] Creating layer loss1/fc
I1124 23:01:36.432284 23711 net.cpp:106] Creating Layer loss1/fc
I1124 23:01:36.432287 23711 net.cpp:454] loss1/fc <- loss1/conv
I1124 23:01:36.432296 23711 net.cpp:411] loss1/fc -> loss1/fc
I1124 23:01:36.450433 23711 net.cpp:150] Setting up loss1/fc
I1124 23:01:36.450460 23711 net.cpp:157] Top shape: 64 1024 (65536)
I1124 23:01:36.450466 23711 net.cpp:165] Memory required for data: 2522660608
I1124 23:01:36.450475 23711 layer_factory.hpp:76] Creating layer loss1/relu_fc
I1124 23:01:36.450486 23711 net.cpp:106] Creating Layer loss1/relu_fc
I1124 23:01:36.450495 23711 net.cpp:454] loss1/relu_fc <- loss1/fc
I1124 23:01:36.450510 23711 net.cpp:397] loss1/relu_fc -> loss1/fc (in-place)
I1124 23:01:36.450976 23711 net.cpp:150] Setting up loss1/relu_fc
I1124 23:01:36.450994 23711 net.cpp:157] Top shape: 64 1024 (65536)
I1124 23:01:36.451001 23711 net.cpp:165] Memory required for data: 2522922752
I1124 23:01:36.451006 23711 layer_factory.hpp:76] Creating layer loss1/drop_fc
I1124 23:01:36.451017 23711 net.cpp:106] Creating Layer loss1/drop_fc
I1124 23:01:36.451021 23711 net.cpp:454] loss1/drop_fc <- loss1/fc
I1124 23:01:36.451028 23711 net.cpp:397] loss1/drop_fc -> loss1/fc (in-place)
I1124 23:01:36.451072 23711 net.cpp:150] Setting up loss1/drop_fc
I1124 23:01:36.451083 23711 net.cpp:157] Top shape: 64 1024 (65536)
I1124 23:01:36.451088 23711 net.cpp:165] Memory required for data: 2523184896
I1124 23:01:36.451093 23711 layer_factory.hpp:76] Creating layer loss1/fc_loss1/drop_fc_0_split
I1124 23:01:36.451103 23711 net.cpp:106] Creating Layer loss1/fc_loss1/drop_fc_0_split
I1124 23:01:36.451109 23711 net.cpp:454] loss1/fc_loss1/drop_fc_0_split <- loss1/fc
I1124 23:01:36.451117 23711 net.cpp:411] loss1/fc_loss1/drop_fc_0_split -> loss1/fc_loss1/drop_fc_0_split_0
I1124 23:01:36.451131 23711 net.cpp:411] loss1/fc_loss1/drop_fc_0_split -> loss1/fc_loss1/drop_fc_0_split_1
I1124 23:01:36.451144 23711 net.cpp:411] loss1/fc_loss1/drop_fc_0_split -> loss1/fc_loss1/drop_fc_0_split_2
I1124 23:01:36.451156 23711 net.cpp:411] loss1/fc_loss1/drop_fc_0_split -> loss1/fc_loss1/drop_fc_0_split_3
I1124 23:01:36.451167 23711 net.cpp:411] loss1/fc_loss1/drop_fc_0_split -> loss1/fc_loss1/drop_fc_0_split_4
I1124 23:01:36.451180 23711 net.cpp:411] loss1/fc_loss1/drop_fc_0_split -> loss1/fc_loss1/drop_fc_0_split_5
I1124 23:01:36.451302 23711 net.cpp:150] Setting up loss1/fc_loss1/drop_fc_0_split
I1124 23:01:36.451314 23711 net.cpp:157] Top shape: 64 1024 (65536)
I1124 23:01:36.451323 23711 net.cpp:157] Top shape: 64 1024 (65536)
I1124 23:01:36.451326 23711 net.cpp:157] Top shape: 64 1024 (65536)
I1124 23:01:36.451329 23711 net.cpp:157] Top shape: 64 1024 (65536)
I1124 23:01:36.451333 23711 net.cpp:157] Top shape: 64 1024 (65536)
I1124 23:01:36.451336 23711 net.cpp:157] Top shape: 64 1024 (65536)
I1124 23:01:36.451339 23711 net.cpp:165] Memory required for data: 2524757760
I1124 23:01:36.451342 23711 layer_factory.hpp:76] Creating layer loss1/classifier-00.category
I1124 23:01:36.451352 23711 net.cpp:106] Creating Layer loss1/classifier-00.category
I1124 23:01:36.451359 23711 net.cpp:454] loss1/classifier-00.category <- loss1/fc_loss1/drop_fc_0_split_0
I1124 23:01:36.451370 23711 net.cpp:411] loss1/classifier-00.category -> loss1/classifier-00.category
I1124 23:01:36.451652 23711 net.cpp:150] Setting up loss1/classifier-00.category
I1124 23:01:36.451665 23711 net.cpp:157] Top shape: 64 16 (1024)
I1124 23:01:36.451671 23711 net.cpp:165] Memory required for data: 2524761856
I1124 23:01:36.451681 23711 layer_factory.hpp:76] Creating layer loss1/loss_00.category
I1124 23:01:36.451694 23711 net.cpp:106] Creating Layer loss1/loss_00.category
I1124 23:01:36.451704 23711 net.cpp:454] loss1/loss_00.category <- loss1/classifier-00.category
I1124 23:01:36.451709 23711 net.cpp:454] loss1/loss_00.category <- 00.category_slice_attribute_0_split_0
I1124 23:01:36.451714 23711 net.cpp:411] loss1/loss_00.category -> loss1/loss_00.category
I1124 23:01:36.451725 23711 layer_factory.hpp:76] Creating layer loss1/loss_00.category
I1124 23:01:36.452239 23711 net.cpp:150] Setting up loss1/loss_00.category
I1124 23:01:36.452256 23711 net.cpp:157] Top shape: (1)
I1124 23:01:36.452263 23711 net.cpp:160]     with loss weight 0.3
I1124 23:01:36.452285 23711 net.cpp:165] Memory required for data: 2524761860
I1124 23:01:36.452288 23711 layer_factory.hpp:76] Creating layer loss1/classifier-02.collar_shape
I1124 23:01:36.452296 23711 net.cpp:106] Creating Layer loss1/classifier-02.collar_shape
I1124 23:01:36.452301 23711 net.cpp:454] loss1/classifier-02.collar_shape <- loss1/fc_loss1/drop_fc_0_split_1
I1124 23:01:36.452306 23711 net.cpp:411] loss1/classifier-02.collar_shape -> loss1/classifier-02.collar_shape
I1124 23:01:36.452560 23711 net.cpp:150] Setting up loss1/classifier-02.collar_shape
I1124 23:01:36.452572 23711 net.cpp:157] Top shape: 64 13 (832)
I1124 23:01:36.452575 23711 net.cpp:165] Memory required for data: 2524765188
I1124 23:01:36.452581 23711 layer_factory.hpp:76] Creating layer loss1/loss_02.collar_shape
I1124 23:01:36.452587 23711 net.cpp:106] Creating Layer loss1/loss_02.collar_shape
I1124 23:01:36.452591 23711 net.cpp:454] loss1/loss_02.collar_shape <- loss1/classifier-02.collar_shape
I1124 23:01:36.452595 23711 net.cpp:454] loss1/loss_02.collar_shape <- 02.collar_shape_slice_attribute_2_split_0
I1124 23:01:36.452602 23711 net.cpp:411] loss1/loss_02.collar_shape -> loss1/loss_02.collar_shape
I1124 23:01:36.452611 23711 layer_factory.hpp:76] Creating layer loss1/loss_02.collar_shape
I1124 23:01:36.452939 23711 net.cpp:150] Setting up loss1/loss_02.collar_shape
I1124 23:01:36.452950 23711 net.cpp:157] Top shape: (1)
I1124 23:01:36.452952 23711 net.cpp:160]     with loss weight 0.3
I1124 23:01:36.452958 23711 net.cpp:165] Memory required for data: 2524765192
I1124 23:01:36.452961 23711 layer_factory.hpp:76] Creating layer loss1/classifier-05.pattern
I1124 23:01:36.452970 23711 net.cpp:106] Creating Layer loss1/classifier-05.pattern
I1124 23:01:36.452975 23711 net.cpp:454] loss1/classifier-05.pattern <- loss1/fc_loss1/drop_fc_0_split_2
I1124 23:01:36.452980 23711 net.cpp:411] loss1/classifier-05.pattern -> loss1/classifier-05.pattern
I1124 23:01:36.453246 23711 net.cpp:150] Setting up loss1/classifier-05.pattern
I1124 23:01:36.453261 23711 net.cpp:157] Top shape: 64 16 (1024)
I1124 23:01:36.453268 23711 net.cpp:165] Memory required for data: 2524769288
I1124 23:01:36.453277 23711 layer_factory.hpp:76] Creating layer loss1/loss_05.pattern
I1124 23:01:36.453286 23711 net.cpp:106] Creating Layer loss1/loss_05.pattern
I1124 23:01:36.453291 23711 net.cpp:454] loss1/loss_05.pattern <- loss1/classifier-05.pattern
I1124 23:01:36.453296 23711 net.cpp:454] loss1/loss_05.pattern <- 05.pattern_slice_attribute_5_split_0
I1124 23:01:36.453304 23711 net.cpp:411] loss1/loss_05.pattern -> loss1/loss_05.pattern
I1124 23:01:36.453310 23711 layer_factory.hpp:76] Creating layer loss1/loss_05.pattern
I1124 23:01:36.453835 23711 net.cpp:150] Setting up loss1/loss_05.pattern
I1124 23:01:36.453848 23711 net.cpp:157] Top shape: (1)
I1124 23:01:36.453852 23711 net.cpp:160]     with loss weight 0.3
I1124 23:01:36.453858 23711 net.cpp:165] Memory required for data: 2524769292
I1124 23:01:36.453861 23711 layer_factory.hpp:76] Creating layer loss1/classifier-06.button_shape
I1124 23:01:36.453871 23711 net.cpp:106] Creating Layer loss1/classifier-06.button_shape
I1124 23:01:36.453874 23711 net.cpp:454] loss1/classifier-06.button_shape <- loss1/fc_loss1/drop_fc_0_split_3
I1124 23:01:36.453881 23711 net.cpp:411] loss1/classifier-06.button_shape -> loss1/classifier-06.button_shape
I1124 23:01:36.454097 23711 net.cpp:150] Setting up loss1/classifier-06.button_shape
I1124 23:01:36.454107 23711 net.cpp:157] Top shape: 64 9 (576)
I1124 23:01:36.454109 23711 net.cpp:165] Memory required for data: 2524771596
I1124 23:01:36.454118 23711 layer_factory.hpp:76] Creating layer loss1/loss_06.button_shape
I1124 23:01:36.454128 23711 net.cpp:106] Creating Layer loss1/loss_06.button_shape
I1124 23:01:36.454133 23711 net.cpp:454] loss1/loss_06.button_shape <- loss1/classifier-06.button_shape
I1124 23:01:36.454139 23711 net.cpp:454] loss1/loss_06.button_shape <- 06.button_shape_slice_attribute_6_split_0
…
I1124 23:01:36.454524 23711 net.cpp:165] Memory required for data: 2524771600
I1124 23:01:36.454530 23711 layer_factory.hpp:76] Creating layer loss1/classifier-09.fashion_elements
I1124 23:01:36.454538 23711 net.cpp:106] Creating Layer loss1/classifier-09.fashion_elements
I1124 23:01:36.454542 23711 net.cpp:454] loss1/classifier-09.fashion_elements <- loss1/fc_loss1/drop_fc_0_split_4
I1124 23:01:36.454548 23711 net.cpp:411] loss1/classifier-09.fashion_elements -> loss1/classifier-09.fashion_elements
I1124 23:01:36.454815 23711 net.cpp:150] Setting up loss1/classifier-09.fashion_elements
I1124 23:01:36.454830 23711 net.cpp:157] Top shape: 64 15 (960)
I1124 23:01:36.454836 23711 net.cpp:165] Memory required for data: 2524775440
I1124 23:01:36.454843 23711 layer_factory.hpp:76] Creating layer loss1/loss_09.fashion_elements
I1124 23:01:36.454849 23711 net.cpp:106] Creating Layer loss1/loss_09.fashion_elements
I1124 23:01:36.454852 23711 net.cpp:454] loss1/loss_09.fashion_elements <- loss1/classifier-09.fashion_elements
I1124 23:01:36.454857 23711 net.cpp:454] loss1/loss_09.fashion_elements <- 09.fashion_elements_slice_attribute_9_split_0
I1124 23:01:36.454864 23711 net.cpp:411] loss1/loss_09.fashion_elements -> loss1/loss_09.fashion_elements
I1124 23:01:36.454876 23711 layer_factory.hpp:76] Creating layer loss1/loss_09.fashion_elements
I1124 23:01:36.455339 23711 net.cpp:150] Setting up loss1/loss_09.fashion_elements
I1124 23:01:36.455353 23711 net.cpp:157] Top shape: (1)
I1124 23:01:36.455356 23711 net.cpp:160]     with loss weight 0.3
I1124 23:01:36.455363 23711 net.cpp:165] Memory required for data: 2524775444
I1124 23:01:36.455365 23711 layer_factory.hpp:76] Creating layer loss1/classifier-21.color
I1124 23:01:36.455374 23711 net.cpp:106] Creating Layer loss1/classifier-21.color
I1124 23:01:36.455377 23711 net.cpp:454] loss1/classifier-21.color <- loss1/fc_loss1/drop_fc_0_split_5
I1124 23:01:36.455384 23711 net.cpp:411] loss1/classifier-21.color -> loss1/classifier-21.color
I1124 23:01:36.456220 23711 net.cpp:150] Setting up loss1/classifier-21.color
I1124 23:01:36.456234 23711 net.cpp:157] Top shape: 64 21 (1344)
I1124 23:01:36.456240 23711 net.cpp:165] Memory required for data: 2524780820
I1124 23:01:36.456250 23711 layer_factory.hpp:76] Creating layer loss1/loss_21.color
I1124 23:01:36.456262 23711 net.cpp:106] Creating Layer loss1/loss_21.color
I1124 23:01:36.456269 23711 net.cpp:454] loss1/loss_21.color <- loss1/classifier-21.color
I1124 23:01:36.456277 23711 net.cpp:454] loss1/loss_21.color <- 21.color_slice_attribute_21_split_0
I1124 23:01:36.456286 23711 net.cpp:411] loss1/loss_21.color -> loss1/loss_21.color
I1124 23:01:36.456295 23711 layer_factory.hpp:76] Creating layer loss1/loss_21.color
I1124 23:01:36.456643 23711 net.cpp:150] Setting up loss1/loss_21.color
I1124 23:01:36.456655 23711 net.cpp:157] Top shape: (1)
I1124 23:01:36.456658 23711 net.cpp:160]     with loss weight 0.3
I1124 23:01:36.456667 23711 net.cpp:165] Memory required for data: 2524780824
I1124 23:01:36.456673 23711 layer_factory.hpp:76] Creating layer inception_4b/1x1
I1124 23:01:36.456686 23711 net.cpp:106] Creating Layer inception_4b/1x1
I1124 23:01:36.456691 23711 net.cpp:454] inception_4b/1x1 <- inception_4a/output_inception_4a/output_0_split_1
I1124 23:01:36.456697 23711 net.cpp:411] inception_4b/1x1 -> inception_4b/1x1
I1124 23:01:36.458621 23711 net.cpp:150] Setting up inception_4b/1x1
I1124 23:01:36.458639 23711 net.cpp:157] Top shape: 64 160 14 14 (2007040)
I1124 23:01:36.458647 23711 net.cpp:165] Memory required for data: 2532808984
I1124 23:01:36.458653 23711 layer_factory.hpp:76] Creating layer inception_4b/relu_1x1
I1124 23:01:36.458660 23711 net.cpp:106] Creating Layer inception_4b/relu_1x1
I1124 23:01:36.458664 23711 net.cpp:454] inception_4b/relu_1x1 <- inception_4b/1x1
I1124 23:01:36.458672 23711 net.cpp:397] inception_4b/relu_1x1 -> inception_4b/1x1 (in-place)
I1124 23:01:36.459053 23711 net.cpp:150] Setting up inception_4b/relu_1x1
I1124 23:01:36.459066 23711 net.cpp:157] Top shape: 64 160 14 14 (2007040)
I1124 23:01:36.459069 23711 net.cpp:165] Memory required for data: 2540837144
I1124 23:01:36.459074 23711 layer_factory.hpp:76] Creating layer inception_4b/3x3_reduce
I1124 23:01:36.459082 23711 net.cpp:106] Creating Layer inception_4b/3x3_reduce
I1124 23:01:36.459086 23711 net.cpp:454] inception_4b/3x3_reduce <- inception_4a/output_inception_4a/output_0_split_2
I1124 23:01:36.459096 23711 net.cpp:411] inception_4b/3x3_reduce -> inception_4b/3x3_reduce
I1124 23:01:36.460681 23711 net.cpp:150] Setting up inception_4b/3x3_reduce
I1124 23:01:36.460695 23711 net.cpp:157] Top shape: 64 112 14 14 (1404928)
I1124 23:01:36.460698 23711 net.cpp:165] Memory required for data: 2546456856
I1124 23:01:36.460706 23711 layer_factory.hpp:76] Creating layer inception_4b/relu_3x3_reduce
I1124 23:01:36.460717 23711 net.cpp:106] Creating Layer inception_4b/relu_3x3_reduce
I1124 23:01:36.460726 23711 net.cpp:454] inception_4b/relu_3x3_reduce <- inception_4b/3x3_reduce
I1124 23:01:36.460734 23711 net.cpp:397] inception_4b/relu_3x3_reduce -> inception_4b/3x3_reduce (in-place)
I1124 23:01:36.461242 23711 net.cpp:150] Setting up inception_4b/relu_3x3_reduce
I1124 23:01:36.461257 23711 net.cpp:157] Top shape: 64 112 14 14 (1404928)
I1124 23:01:36.461263 23711 net.cpp:165] Memory required for data: 2552076568
I1124 23:01:36.461269 23711 layer_factory.hpp:76] Creating layer inception_4b/3x3
I1124 23:01:36.461283 23711 net.cpp:106] Creating Layer inception_4b/3x3
I1124 23:01:36.461292 23711 net.cpp:454] inception_4b/3x3 <- inception_4b/3x3_reduce
I1124 23:01:36.461308 23711 net.cpp:411] inception_4b/3x3 -> inception_4b/3x3
I1124 23:01:36.464758 23711 net.cpp:150] Setting up inception_4b/3x3
I1124 23:01:36.464779 23711 net.cpp:157] Top shape: 64 224 14 14 (2809856)
I1124 23:01:36.464787 23711 net.cpp:165] Memory required for data: 2563315992
I1124 23:01:36.464795 23711 layer_factory.hpp:76] Creating layer inception_4b/relu_3x3
I1124 23:01:36.464802 23711 net.cpp:106] Creating Layer inception_4b/relu_3x3
I1124 23:01:36.464807 23711 net.cpp:454] inception_4b/relu_3x3 <- inception_4b/3x3
I1124 23:01:36.464812 23711 net.cpp:397] inception_4b/relu_3x3 -> inception_4b/3x3 (in-place)
I1124 23:01:36.465034 23711 net.cpp:150] Setting up inception_4b/relu_3x3
I1124 23:01:36.465050 23711 net.cpp:157] Top shape: 64 224 14 14 (2809856)
I1124 23:01:36.465057 23711 net.cpp:165] Memory required for data: 2574555416
I1124 23:01:36.465060 23711 layer_factory.hpp:76] Creating layer inception_4b/5x5_reduce
I1124 23:01:36.465070 23711 net.cpp:106] Creating Layer inception_4b/5x5_reduce
I1124 23:01:36.465073 23711 net.cpp:454] inception_4b/5x5_reduce <- inception_4a/output_inception_4a/output_0_split_3
I1124 23:01:36.465083 23711 net.cpp:411] inception_4b/5x5_reduce -> inception_4b/5x5_reduce
I1124 23:01:36.466534 23711 net.cpp:150] Setting up inception_4b/5x5_reduce
I1124 23:01:36.466558 23711 net.cpp:157] Top shape: 64 24 14 14 (301056)
I1124 23:01:36.466585 23711 net.cpp:165] Memory required for data: 2575759640
I1124 23:01:36.466612 23711 layer_factory.hpp:76] Creating layer inception_4b/relu_5x5_reduce
I1124 23:01:36.466625 23711 net.cpp:106] Creating Layer inception_4b/relu_5x5_reduce
I1124 23:01:36.466634 23711 net.cpp:454] inception_4b/relu_5x5_reduce <- inception_4b/5x5_reduce
I1124 23:01:36.466645 23711 net.cpp:397] inception_4b/relu_5x5_reduce -> inception_4b/5x5_reduce (in-place)
I1124 23:01:36.466990 23711 net.cpp:150] Setting up inception_4b/relu_5x5_reduce
I1124 23:01:36.467006 23711 net.cpp:157] Top shape: 64 24 14 14 (301056)
I1124 23:01:36.467012 23711 net.cpp:165] Memory required for data: 2576963864
I1124 23:01:36.467017 23711 layer_factory.hpp:76] Creating layer inception_4b/5x5
I1124 23:01:36.467032 23711 net.cpp:106] Creating Layer inception_4b/5x5
I1124 23:01:36.467038 23711 net.cpp:454] inception_4b/5x5 <- inception_4b/5x5_reduce
I1124 23:01:36.467046 23711 net.cpp:411] inception_4b/5x5 -> inception_4b/5x5
I1124 23:01:36.468194 23711 net.cpp:150] Setting up inception_4b/5x5
I1124 23:01:36.468207 23711 net.cpp:157] Top shape: 64 64 14 14 (802816)
I1124 23:01:36.468211 23711 net.cpp:165] Memory required for data: 2580175128
I1124 23:01:36.468217 23711 layer_factory.hpp:76] Creating layer inception_4b/relu_5x5
I1124 23:01:36.468225 23711 net.cpp:106] Creating Layer inception_4b/relu_5x5
I1124 23:01:36.468230 23711 net.cpp:454] inception_4b/relu_5x5 <- inception_4b/5x5
I1124 23:01:36.468235 23711 net.cpp:397] inception_4b/relu_5x5 -> inception_4b/5x5 (in-place)
I1124 23:01:36.468534 23711 net.cpp:150] Setting up inception_4b/relu_5x5
I1124 23:01:36.468547 23711 net.cpp:157] Top shape: 64 64 14 14 (802816)
I1124 23:01:36.468551 23711 net.cpp:165] Memory required for data: 2583386392
I1124 23:01:36.468554 23711 layer_factory.hpp:76] Creating layer inception_4b/pool
I1124 23:01:36.468562 23711 net.cpp:106] Creating Layer inception_4b/pool
I1124 23:01:36.468567 23711 net.cpp:454] inception_4b/pool <- inception_4a/output_inception_4a/output_0_split_4
I1124 23:01:36.468574 23711 net.cpp:411] inception_4b/pool -> inception_4b/pool
I1124 23:01:36.468773 23711 net.cpp:150] Setting up inception_4b/pool
I1124 23:01:36.468783 23711 net.cpp:157] Top shape: 64 512 14 14 (6422528)
I1124 23:01:36.468788 23711 net.cpp:165] Memory required for data: 2609076504
I1124 23:01:36.468791 23711 layer_factory.hpp:76] Creating layer inception_4b/pool_proj
I1124 23:01:36.468802 23711 net.cpp:106] Creating Layer inception_4b/pool_proj
I1124 23:01:36.468807 23711 net.cpp:454] inception_4b/pool_proj <- inception_4b/pool
I1124 23:01:36.468813 23711 net.cpp:411] inception_4b/pool_proj -> inception_4b/pool_proj
I1124 23:01:36.470048 23711 net.cpp:150] Setting up inception_4b/pool_proj
I1124 23:01:36.470062 23711 net.cpp:157] Top shape: 64 64 14 14 (802816)
I1124 23:01:36.470065 23711 net.cpp:165] Memory required for data: 2612287768
I1124 23:01:36.470072 23711 layer_factory.hpp:76] Creating layer inception_4b/relu_pool_proj
I1124 23:01:36.470078 23711 net.cpp:106] Creating Layer inception_4b/relu_pool_proj
I1124 23:01:36.470083 23711 net.cpp:454] inception_4b/relu_pool_proj <- inception_4b/pool_proj
I1124 23:01:36.470088 23711 net.cpp:397] inception_4b/relu_pool_proj -> inception_4b/pool_proj (in-place)
I1124 23:01:36.470396 23711 net.cpp:150] Setting up inception_4b/relu_pool_proj
I1124 23:01:36.470408 23711 net.cpp:157] Top shape: 64 64 14 14 (802816)
I1124 23:01:36.470412 23711 net.cpp:165] Memory required for data: 2615499032
I1124 23:01:36.470415 23711 layer_factory.hpp:76] Creating layer inception_4b/output
I1124 23:01:36.470423 23711 net.cpp:106] Creating Layer inception_4b/output
I1124 23:01:36.470427 23711 net.cpp:454] inception_4b/output <- inception_4b/1x1
I1124 23:01:36.470432 23711 net.cpp:454] inception_4b/output <- inception_4b/3x3
I1124 23:01:36.470437 23711 net.cpp:454] inception_4b/output <- inception_4b/5x5
I1124 23:01:36.470440 23711 net.cpp:454] inception_4b/output <- inception_4b/pool_proj
I1124 23:01:36.470445 23711 net.cpp:411] inception_4b/output -> inception_4b/output
I1124 23:01:36.470479 23711 net.cpp:150] Setting up inception_4b/output
I1124 23:01:36.470485 23711 net.cpp:157] Top shape: 64 512 14 14 (6422528)
I1124 23:01:36.470489 23711 net.cpp:165] Memory required for data: 2641189144
I1124 23:01:36.470491 23711 layer_factory.hpp:76] Creating layer inception_4b/output_inception_4b/output_0_split
I1124 23:01:36.470496 23711 net.cpp:106] Creating Layer inception_4b/output_inception_4b/output_0_split
I1124 23:01:36.470500 23711 net.cpp:454] inception_4b/output_inception_4b/output_0_split <- inception_4b/output
I1124 23:01:36.470506 23711 net.cpp:411] inception_4b/output_inception_4b/output_0_split -> inception_4b/output_inception_4b/output_0_split_0
I1124 23:01:36.470513 23711 net.cpp:411] inception_4b/output_inception_4b/output_0_split -> inception_4b/output_inception_4b/output_0_split_1
I1124 23:01:36.470520 23711 net.cpp:411] inception_4b/output_inception_4b/output_0_split -> inception_4b/output_inception_4b/output_0_split_2
I1124 23:01:36.470525 23711 net.cpp:411] inception_4b/output_inception_4b/output_0_split -> inception_4b/output_inception_4b/output_0_split_3
I1124 23:01:36.470585 23711 net.cpp:150] Setting up inception_4b/output_inception_4b/output_0_split
I1124 23:01:36.470593 23711 net.cpp:157] Top shape: 64 512 14 14 (6422528)
I1124 23:01:36.470597 23711 net.cpp:157] Top shape: 64 512 14 14 (6422528)
I1124 23:01:36.470600 23711 net.cpp:157] Top shape: 64 512 14 14 (6422528)
I1124 23:01:36.470603 23711 net.cpp:157] Top shape: 64 512 14 14 (6422528)
I1124 23:01:36.470607 23711 net.cpp:165] Memory required for data: 2743949592
I1124 23:01:36.470609 23711 layer_factory.hpp:76] Creating layer inception_4c/1x1
I1124 23:01:36.470618 23711 net.cpp:106] Creating Layer inception_4c/1x1
I1124 23:01:36.470623 23711 net.cpp:454] inception_4c/1x1 <- inception_4b/output_inception_4b/output_0_split_0
I1124 23:01:36.470629 23711 net.cpp:411] inception_4c/1x1 -> inception_4c/1x1
I1124 23:01:36.472080 23711 net.cpp:150] Setting up inception_4c/1x1
I1124 23:01:36.472095 23711 net.cpp:157] Top shape: 64 128 14 14 (1605632)
I1124 23:01:36.472098 23711 net.cpp:165] Memory required for data: 2750372120
I1124 23:01:36.472105 23711 layer_factory.hpp:76] Creating layer inception_4c/relu_1x1
I1124 23:01:36.472112 23711 net.cpp:106] Creating Layer inception_4c/relu_1x1
I1124 23:01:36.472117 23711 net.cpp:454] inception_4c/relu_1x1 <- inception_4c/1x1
I1124 23:01:36.472123 23711 net.cpp:397] inception_4c/relu_1x1 -> inception_4c/1x1 (in-place)
I1124 23:01:36.472291 23711 net.cpp:150] Setting up inception_4c/relu_1x1
I1124 23:01:36.472301 23711 net.cpp:157] Top shape: 64 128 14 14 (1605632)
I1124 23:01:36.472304 23711 net.cpp:165] Memory required for data: 2756794648
I1124 23:01:36.472307 23711 layer_factory.hpp:76] Creating layer inception_4c/3x3_reduce
I1124 23:01:36.472318 23711 net.cpp:106] Creating Layer inception_4c/3x3_reduce
I1124 23:01:36.472323 23711 net.cpp:454] inception_4c/3x3_reduce <- inception_4b/output_inception_4b/output_0_split_1
I1124 23:01:36.472329 23711 net.cpp:411] inception_4c/3x3_reduce -> inception_4c/3x3_reduce
I1124 23:01:36.474227 23711 net.cpp:150] Setting up inception_4c/3x3_reduce
I1124 23:01:36.474241 23711 net.cpp:157] Top shape: 64 128 14 14 (1605632)
I1124 23:01:36.474246 23711 net.cpp:165] Memory required for data: 2763217176
I1124 23:01:36.474251 23711 layer_factory.hpp:76] Creating layer inception_4c/relu_3x3_reduce
I1124 23:01:36.474258 23711 net.cpp:106] Creating Layer inception_4c/relu_3x3_reduce
I1124 23:01:36.474263 23711 net.cpp:454] inception_4c/relu_3x3_reduce <- inception_4c/3x3_reduce
I1124 23:01:36.474268 23711 net.cpp:397] inception_4c/relu_3x3_reduce -> inception_4c/3x3_reduce (in-place)
I1124 23:01:36.474436 23711 net.cpp:150] Setting up inception_4c/relu_3x3_reduce
I1124 23:01:36.474445 23711 net.cpp:157] Top shape: 64 128 14 14 (1605632)
I1124 23:01:36.474448 23711 net.cpp:165] Memory required for data: 2769639704
I1124 23:01:36.474452 23711 layer_factory.hpp:76] Creating layer inception_4c/3x3
I1124 23:01:36.474462 23711 net.cpp:106] Creating Layer inception_4c/3x3
I1124 23:01:36.474467 23711 net.cpp:454] inception_4c/3x3 <- inception_4c/3x3_reduce
I1124 23:01:36.474472 23711 net.cpp:411] inception_4c/3x3 -> inception_4c/3x3
I1124 23:01:36.477916 23711 net.cpp:150] Setting up inception_4c/3x3
I1124 23:01:36.477938 23711 net.cpp:157] Top shape: 64 256 14 14 (3211264)
I1124 23:01:36.477942 23711 net.cpp:165] Memory required for data: 2782484760
I1124 23:01:36.477951 23711 layer_factory.hpp:76] Creating layer inception_4c/relu_3x3
I1124 23:01:36.477959 23711 net.cpp:106] Creating Layer inception_4c/relu_3x3
I1124 23:01:36.477965 23711 net.cpp:454] inception_4c/relu_3x3 <- inception_4c/3x3
I1124 23:01:36.477977 23711 net.cpp:397] inception_4c/relu_3x3 -> inception_4c/3x3 (in-place)
I1124 23:01:36.478303 23711 net.cpp:150] Setting up inception_4c/relu_3x3
I1124 23:01:36.478318 23711 net.cpp:157] Top shape: 64 256 14 14 (3211264)
I1124 23:01:36.478323 23711 net.cpp:165] Memory required for data: 2795329816
I1124 23:01:36.478329 23711 layer_factory.hpp:76] Creating layer inception_4c/5x5_reduce
I1124 23:01:36.478348 23711 net.cpp:106] Creating Layer inception_4c/5x5_reduce
I1124 23:01:36.478354 23711 net.cpp:454] inception_4c/5x5_reduce <- inception_4b/output_inception_4b/output_0_split_2
I1124 23:01:36.478363 23711 net.cpp:411] inception_4c/5x5_reduce -> inception_4c/5x5_reduce
I1124 23:01:36.479629 23711 net.cpp:150] Setting up inception_4c/5x5_reduce
I1124 23:01:36.479643 23711 net.cpp:157] Top shape: 64 24 14 14 (301056)
I1124 23:01:36.479646 23711 net.cpp:165] Memory required for data: 2796534040
I1124 23:01:36.479653 23711 layer_factory.hpp:76] Creating layer inception_4c/relu_5x5_reduce
I1124 23:01:36.479660 23711 net.cpp:106] Creating Layer inception_4c/relu_5x5_reduce
I1124 23:01:36.479663 23711 net.cpp:454] inception_4c/relu_5x5_reduce <- inception_4c/5x5_reduce
I1124 23:01:36.479670 23711 net.cpp:397] inception_4c/relu_5x5_reduce -> inception_4c/5x5_reduce (in-place)
I1124 23:01:36.479846 23711 net.cpp:150] Setting up inception_4c/relu_5x5_reduce
I1124 23:01:36.479857 23711 net.cpp:157] Top shape: 64 24 14 14 (301056)
I1124 23:01:36.479864 23711 net.cpp:165] Memory required for data: 2797738264
I1124 23:01:36.479871 23711 layer_factory.hpp:76] Creating layer inception_4c/5x5
I1124 23:01:36.479883 23711 net.cpp:106] Creating Layer inception_4c/5x5
I1124 23:01:36.479888 23711 net.cpp:454] inception_4c/5x5 <- inception_4c/5x5_reduce
I1124 23:01:36.479897 23711 net.cpp:411] inception_4c/5x5 -> inception_4c/5x5
I1124 23:01:36.481231 23711 net.cpp:150] Setting up inception_4c/5x5
I1124 23:01:36.481245 23711 net.cpp:157] Top shape: 64 64 14 14 (802816)
I1124 23:01:36.481248 23711 net.cpp:165] Memory required for data: 2800949528
I1124 23:01:36.481254 23711 layer_factory.hpp:76] Creating layer inception_4c/relu_5x5
I1124 23:01:36.481261 23711 net.cpp:106] Creating Layer inception_4c/relu_5x5
I1124 23:01:36.481264 23711 net.cpp:454] inception_4c/relu_5x5 <- inception_4c/5x5
I1124 23:01:36.481271 23711 net.cpp:397] inception_4c/relu_5x5 -> inception_4c/5x5 (in-place)
I1124 23:01:36.481437 23711 net.cpp:150] Setting up inception_4c/relu_5x5
I1124 23:01:36.481448 23711 net.cpp:157] Top shape: 64 64 14 14 (802816)
I1124 23:01:36.481451 23711 net.cpp:165] Memory required for data: 2804160792
I1124 23:01:36.481454 23711 layer_factory.hpp:76] Creating layer inception_4c/pool
I1124 23:01:36.481461 23711 net.cpp:106] Creating Layer inception_4c/pool
I1124 23:01:36.481464 23711 net.cpp:454] inception_4c/pool <- inception_4b/output_inception_4b/output_0_split_3
I1124 23:01:36.481469 23711 net.cpp:411] inception_4c/pool -> inception_4c/pool
I1124 23:01:36.481808 23711 net.cpp:150] Setting up inception_4c/pool
I1124 23:01:36.481820 23711 net.cpp:157] Top shape: 64 512 14 14 (6422528)
I1124 23:01:36.481824 23711 net.cpp:165] Memory required for data: 2829850904
I1124 23:01:36.481827 23711 layer_factory.hpp:76] Creating layer inception_4c/pool_proj
I1124 23:01:36.481848 23711 net.cpp:106] Creating Layer inception_4c/pool_proj
I1124 23:01:36.481853 23711 net.cpp:454] inception_4c/pool_proj <- inception_4c/pool
I1124 23:01:36.481860 23711 net.cpp:411] inception_4c/pool_proj -> inception_4c/pool_proj
I1124 23:01:36.483124 23711 net.cpp:150] Setting up inception_4c/pool_proj
I1124 23:01:36.483139 23711 net.cpp:157] Top shape: 64 64 14 14 (802816)
I1124 23:01:36.483141 23711 net.cpp:165] Memory required for data: 2833062168
I1124 23:01:36.483149 23711 layer_factory.hpp:76] Creating layer inception_4c/relu_pool_proj
I1124 23:01:36.483155 23711 net.cpp:106] Creating Layer inception_4c/relu_pool_proj
I1124 23:01:36.483160 23711 net.cpp:454] inception_4c/relu_pool_proj <- inception_4c/pool_proj
I1124 23:01:36.483165 23711 net.cpp:397] inception_4c/relu_pool_proj -> inception_4c/pool_proj (in-place)
I1124 23:01:36.483341 23711 net.cpp:150] Setting up inception_4c/relu_pool_proj
I1124 23:01:36.483350 23711 net.cpp:157] Top shape: 64 64 14 14 (802816)
I1124 23:01:36.483353 23711 net.cpp:165] Memory required for data: 2836273432
I1124 23:01:36.483356 23711 layer_factory.hpp:76] Creating layer inception_4c/output
I1124 23:01:36.483362 23711 net.cpp:106] Creating Layer inception_4c/output
I1124 23:01:36.483366 23711 net.cpp:454] inception_4c/output <- inception_4c/1x1
I1124 23:01:36.483371 23711 net.cpp:454] inception_4c/output <- inception_4c/3x3
I1124 23:01:36.483374 23711 net.cpp:454] inception_4c/output <- inception_4c/5x5
I1124 23:01:36.483377 23711 net.cpp:454] inception_4c/output <- inception_4c/pool_proj
I1124 23:01:36.483384 23711 net.cpp:411] inception_4c/output -> inception_4c/output
I1124 23:01:36.483417 23711 net.cpp:150] Setting up inception_4c/output
I1124 23:01:36.483424 23711 net.cpp:157] Top shape: 64 512 14 14 (6422528)
I1124 23:01:36.483428 23711 net.cpp:165] Memory required for data: 2861963544
I1124 23:01:36.483430 23711 layer_factory.hpp:76] Creating layer inception_4c/output_inception_4c/output_0_split
I1124 23:01:36.483436 23711 net.cpp:106] Creating Layer inception_4c/output_inception_4c/output_0_split
I1124 23:01:36.483440 23711 net.cpp:454] inception_4c/output_inception_4c/output_0_split <- inception_4c/output
I1124 23:01:36.483444 23711 net.cpp:411] inception_4c/output_inception_4c/output_0_split -> inception_4c/output_inception_4c/output_0_split_0
I1124 23:01:36.483450 23711 net.cpp:411] inception_4c/output_inception_4c/output_0_split -> inception_4c/output_inception_4c/output_0_split_1
I1124 23:01:36.483456 23711 net.cpp:411] inception_4c/output_inception_4c/output_0_split -> inception_4c/output_inception_4c/output_0_split_2
I1124 23:01:36.483465 23711 net.cpp:411] inception_4c/output_inception_4c/output_0_split -> inception_4c/output_inception_4c/output_0_split_3
I1124 23:01:36.483535 23711 net.cpp:150] Setting up inception_4c/output_inception_4c/output_0_split
I1124 23:01:36.483541 23711 net.cpp:157] Top shape: 64 512 14 14 (6422528)
I1124 23:01:36.483546 23711 net.cpp:157] Top shape: 64 512 14 14 (6422528)
I1124 23:01:36.483548 23711 net.cpp:157] Top shape: 64 512 14 14 (6422528)
I1124 23:01:36.483551 23711 net.cpp:157] Top shape: 64 512 14 14 (6422528)
I1124 23:01:36.483554 23711 net.cpp:165] Memory required for data: 2964723992
I1124 23:01:36.483557 23711 layer_factory.hpp:76] Creating layer inception_4d/1x1
I1124 23:01:36.483566 23711 net.cpp:106] Creating Layer inception_4d/1x1
I1124 23:01:36.483569 23711 net.cpp:454] inception_4d/1x1 <- inception_4c/output_inception_4c/output_0_split_0
I1124 23:01:36.483575 23711 net.cpp:411] inception_4d/1x1 -> inception_4d/1x1
I1124 23:01:36.485019 23711 net.cpp:150] Setting up inception_4d/1x1
I1124 23:01:36.485033 23711 net.cpp:157] Top shape: 64 112 14 14 (1404928)
I1124 23:01:36.485038 23711 net.cpp:165] Memory required for data: 2970343704
I1124 23:01:36.485044 23711 layer_factory.hpp:76] Creating layer inception_4d/relu_1x1
I1124 23:01:36.485049 23711 net.cpp:106] Creating Layer inception_4d/relu_1x1
I1124 23:01:36.485054 23711 net.cpp:454] inception_4d/relu_1x1 <- inception_4d/1x1
I1124 23:01:36.485059 23711 net.cpp:397] inception_4d/relu_1x1 -> inception_4d/1x1 (in-place)
I1124 23:01:36.485364 23711 net.cpp:150] Setting up inception_4d/relu_1x1
I1124 23:01:36.485379 23711 net.cpp:157] Top shape: 64 112 14 14 (1404928)
I1124 23:01:36.485384 23711 net.cpp:165] Memory required for data: 2975963416
I1124 23:01:36.485390 23711 layer_factory.hpp:76] Creating layer inception_4d/3x3_reduce
I1124 23:01:36.485404 23711 net.cpp:106] Creating Layer inception_4d/3x3_reduce
I1124 23:01:36.485414 23711 net.cpp:454] inception_4d/3x3_reduce <- inception_4c/output_inception_4c/output_0_split_1
I1124 23:01:36.485425 23711 net.cpp:411] inception_4d/3x3_reduce -> inception_4d/3x3_reduce
I1124 23:01:36.486852 23711 net.cpp:150] Setting up inception_4d/3x3_reduce
I1124 23:01:36.486876 23711 net.cpp:157] Top shape: 64 144 14 14 (1806336)
I1124 23:01:36.486886 23711 net.cpp:165] Memory required for data: 2983188760
I1124 23:01:36.486896 23711 layer_factory.hpp:76] Creating layer inception_4d/relu_3x3_reduce
I1124 23:01:36.486927 23711 net.cpp:106] Creating Layer inception_4d/relu_3x3_reduce
I1124 23:01:36.486937 23711 net.cpp:454] inception_4d/relu_3x3_reduce <- inception_4d/3x3_reduce
I1124 23:01:36.486945 23711 net.cpp:397] inception_4d/relu_3x3_reduce -> inception_4d/3x3_reduce (in-place)
I1124 23:01:36.487287 23711 net.cpp:150] Setting up inception_4d/relu_3x3_reduce
I1124 23:01:36.487301 23711 net.cpp:157] Top shape: 64 144 14 14 (1806336)
I1124 23:01:36.487305 23711 net.cpp:165] Memory required for data: 2990414104
I1124 23:01:36.487308 23711 layer_factory.hpp:76] Creating layer inception_4d/3x3
I1124 23:01:36.487318 23711 net.cpp:106] Creating Layer inception_4d/3x3
I1124 23:01:36.487321 23711 net.cpp:454] inception_4d/3x3 <- inception_4d/3x3_reduce
I1124 23:01:36.487329 23711 net.cpp:411] inception_4d/3x3 -> inception_4d/3x3
I1124 23:01:36.491436 23711 net.cpp:150] Setting up inception_4d/3x3
I1124 23:01:36.491452 23711 net.cpp:157] Top shape: 64 288 14 14 (3612672)
I1124 23:01:36.491456 23711 net.cpp:165] Memory required for data: 3004864792
I1124 23:01:36.491462 23711 layer_factory.hpp:76] Creating layer inception_4d/relu_3x3
I1124 23:01:36.491469 23711 net.cpp:106] Creating Layer inception_4d/relu_3x3
I1124 23:01:36.491474 23711 net.cpp:454] inception_4d/relu_3x3 <- inception_4d/3x3
I1124 23:01:36.491480 23711 net.cpp:397] inception_4d/relu_3x3 -> inception_4d/3x3 (in-place)
I1124 23:01:36.491652 23711 net.cpp:150] Setting up inception_4d/relu_3x3
I1124 23:01:36.491664 23711 net.cpp:157] Top shape: 64 288 14 14 (3612672)
I1124 23:01:36.491668 23711 net.cpp:165] Memory required for data: 3019315480
I1124 23:01:36.491672 23711 layer_factory.hpp:76] Creating layer inception_4d/5x5_reduce
I1124 23:01:36.491680 23711 net.cpp:106] Creating Layer inception_4d/5x5_reduce
I1124 23:01:36.491684 23711 net.cpp:454] inception_4d/5x5_reduce <- inception_4c/output_inception_4c/output_0_split_2
I1124 23:01:36.491690 23711 net.cpp:411] inception_4d/5x5_reduce -> inception_4d/5x5_reduce
I1124 23:01:36.492851 23711 net.cpp:150] Setting up inception_4d/5x5_reduce
I1124 23:01:36.492866 23711 net.cpp:157] Top shape: 64 32 14 14 (401408)
I1124 23:01:36.492871 23711 net.cpp:165] Memory required for data: 3020921112
I1124 23:01:36.492877 23711 layer_factory.hpp:76] Creating layer inception_4d/relu_5x5_reduce
I1124 23:01:36.492882 23711 net.cpp:106] Creating Layer inception_4d/relu_5x5_reduce
I1124 23:01:36.492887 23711 net.cpp:454] inception_4d/relu_5x5_reduce <- inception_4d/5x5_reduce
I1124 23:01:36.492892 23711 net.cpp:397] inception_4d/relu_5x5_reduce -> inception_4d/5x5_reduce (in-place)
I1124 23:01:36.493199 23711 net.cpp:150] Setting up inception_4d/relu_5x5_reduce
I1124 23:01:36.493213 23711 net.cpp:157] Top shape: 64 32 14 14 (401408)
I1124 23:01:36.493216 23711 net.cpp:165] Memory required for data: 3022526744
I1124 23:01:36.493221 23711 layer_factory.hpp:76] Creating layer inception_4d/5x5
I1124 23:01:36.493228 23711 net.cpp:106] Creating Layer inception_4d/5x5
I1124 23:01:36.493232 23711 net.cpp:454] inception_4d/5x5 <- inception_4d/5x5_reduce
I1124 23:01:36.493239 23711 net.cpp:411] inception_4d/5x5 -> inception_4d/5x5
I1124 23:01:36.494510 23711 net.cpp:150] Setting up inception_4d/5x5
I1124 23:01:36.494524 23711 net.cpp:157] Top shape: 64 64 14 14 (802816)
I1124 23:01:36.494527 23711 net.cpp:165] Memory required for data: 3025738008
I1124 23:01:36.494534 23711 layer_factory.hpp:76] Creating layer inception_4d/relu_5x5
I1124 23:01:36.494539 23711 net.cpp:106] Creating Layer inception_4d/relu_5x5
I1124 23:01:36.494544 23711 net.cpp:454] inception_4d/relu_5x5 <- inception_4d/5x5
I1124 23:01:36.494549 23711 net.cpp:397] inception_4d/relu_5x5 -> inception_4d/5x5 (in-place)
I1124 23:01:36.494866 23711 net.cpp:150] Setting up inception_4d/relu_5x5
I1124 23:01:36.494894 23711 net.cpp:157] Top shape: 64 64 14 14 (802816)
I1124 23:01:36.494899 23711 net.cpp:165] Memory required for data: 3028949272
I1124 23:01:36.494906 23711 layer_factory.hpp:76] Creating layer inception_4d/pool
I1124 23:01:36.494922 23711 net.cpp:106] Creating Layer inception_4d/pool
I1124 23:01:36.494927 23711 net.cpp:454] inception_4d/pool <- inception_4c/output_inception_4c/output_0_split_3
I1124 23:01:36.494933 23711 net.cpp:411] inception_4d/pool -> inception_4d/pool
I1124 23:01:36.495141 23711 net.cpp:150] Setting up inception_4d/pool
I1124 23:01:36.495154 23711 net.cpp:157] Top shape: 64 512 14 14 (6422528)
I1124 23:01:36.495157 23711 net.cpp:165] Memory required for data: 3054639384
I1124 23:01:36.495162 23711 layer_factory.hpp:76] Creating layer inception_4d/pool_proj
I1124 23:01:36.495167 23711 net.cpp:106] Creating Layer inception_4d/pool_proj
I1124 23:01:36.495172 23711 net.cpp:454] inception_4d/pool_proj <- inception_4d/pool
I1124 23:01:36.495178 23711 net.cpp:411] inception_4d/pool_proj -> inception_4d/pool_proj
I1124 23:01:36.496578 23711 net.cpp:150] Setting up inception_4d/pool_proj
I1124 23:01:36.496598 23711 net.cpp:157] Top shape: 64 64 14 14 (802816)
I1124 23:01:36.496600 23711 net.cpp:165] Memory required for data: 3057850648
I1124 23:01:36.496608 23711 layer_factory.hpp:76] Creating layer inception_4d/relu_pool_proj
I1124 23:01:36.496613 23711 net.cpp:106] Creating Layer inception_4d/relu_pool_proj
I1124 23:01:36.496618 23711 net.cpp:454] inception_4d/relu_pool_proj <- inception_4d/pool_proj
I1124 23:01:36.496623 23711 net.cpp:397] inception_4d/relu_pool_proj -> inception_4d/pool_proj (in-place)
I1124 23:01:36.496937 23711 net.cpp:150] Setting up inception_4d/relu_pool_proj
I1124 23:01:36.496951 23711 net.cpp:157] Top shape: 64 64 14 14 (802816)
I1124 23:01:36.496954 23711 net.cpp:165] Memory required for data: 3061061912
I1124 23:01:36.496958 23711 layer_factory.hpp:76] Creating layer inception_4d/output
I1124 23:01:36.496964 23711 net.cpp:106] Creating Layer inception_4d/output
I1124 23:01:36.496968 23711 net.cpp:454] inception_4d/output <- inception_4d/1x1
I1124 23:01:36.496973 23711 net.cpp:454] inception_4d/output <- inception_4d/3x3
I1124 23:01:36.496978 23711 net.cpp:454] inception_4d/output <- inception_4d/5x5
I1124 23:01:36.496981 23711 net.cpp:454] inception_4d/output <- inception_4d/pool_proj
I1124 23:01:36.496985 23711 net.cpp:411] inception_4d/output -> inception_4d/output
I1124 23:01:36.497025 23711 net.cpp:150] Setting up inception_4d/output
I1124 23:01:36.497031 23711 net.cpp:157] Top shape: 64 528 14 14 (6623232)
I1124 23:01:36.497035 23711 net.cpp:165] Memory required for data: 3087554840
I1124 23:01:36.497037 23711 layer_factory.hpp:76] Creating layer inception_4d/output_inception_4d/output_0_split
I1124 23:01:36.497045 23711 net.cpp:106] Creating Layer inception_4d/output_inception_4d/output_0_split
I1124 23:01:36.497047 23711 net.cpp:454] inception_4d/output_inception_4d/output_0_split <- inception_4d/output
I1124 23:01:36.497052 23711 net.cpp:411] inception_4d/output_inception_4d/output_0_split -> inception_4d/output_inception_4d/output_0_split_0
I1124 23:01:36.497058 23711 net.cpp:411] inception_4d/output_inception_4d/output_0_split -> inception_4d/output_inception_4d/output_0_split_1
I1124 23:01:36.497064 23711 net.cpp:411] inception_4d/output_inception_4d/output_0_split -> inception_4d/output_inception_4d/output_0_split_2
I1124 23:01:36.497071 23711 net.cpp:411] inception_4d/output_inception_4d/output_0_split -> inception_4d/output_inception_4d/output_0_split_3
I1124 23:01:36.497076 23711 net.cpp:411] inception_4d/output_inception_4d/output_0_split -> inception_4d/output_inception_4d/output_0_split_4
I1124 23:01:36.497156 23711 net.cpp:150] Setting up inception_4d/output_inception_4d/output_0_split
I1124 23:01:36.497164 23711 net.cpp:157] Top shape: 64 528 14 14 (6623232)
I1124 23:01:36.497167 23711 net.cpp:157] Top shape: 64 528 14 14 (6623232)
I1124 23:01:36.497170 23711 net.cpp:157] Top shape: 64 528 14 14 (6623232)
I1124 23:01:36.497174 23711 net.cpp:157] Top shape: 64 528 14 14 (6623232)
I1124 23:01:36.497177 23711 net.cpp:157] Top shape: 64 528 14 14 (6623232)
I1124 23:01:36.497179 23711 net.cpp:165] Memory required for data: 3220019480
I1124 23:01:36.497182 23711 layer_factory.hpp:76] Creating layer loss2/ave_pool
I1124 23:01:36.497189 23711 net.cpp:106] Creating Layer loss2/ave_pool
I1124 23:01:36.497191 23711 net.cpp:454] loss2/ave_pool <- inception_4d/output_inception_4d/output_0_split_0
I1124 23:01:36.497198 23711 net.cpp:411] loss2/ave_pool -> loss2/ave_pool
I1124 23:01:36.497387 23711 net.cpp:150] Setting up loss2/ave_pool
I1124 23:01:36.497398 23711 net.cpp:157] Top shape: 64 528 4 4 (540672)
I1124 23:01:36.497401 23711 net.cpp:165] Memory required for data: 3222182168
I1124 23:01:36.497405 23711 layer_factory.hpp:76] Creating layer loss2/conv
I1124 23:01:36.497412 23711 net.cpp:106] Creating Layer loss2/conv
I1124 23:01:36.497416 23711 net.cpp:454] loss2/conv <- loss2/ave_pool
I1124 23:01:36.497422 23711 net.cpp:411] loss2/conv -> loss2/conv
I1124 23:01:36.499368 23711 net.cpp:150] Setting up loss2/conv
I1124 23:01:36.499383 23711 net.cpp:157] Top shape: 64 128 4 4 (131072)
I1124 23:01:36.499387 23711 net.cpp:165] Memory required for data: 3222706456
I1124 23:01:36.499393 23711 layer_factory.hpp:76] Creating layer loss2/relu_conv
I1124 23:01:36.499399 23711 net.cpp:106] Creating Layer loss2/relu_conv
I1124 23:01:36.499403 23711 net.cpp:454] loss2/relu_conv <- loss2/conv
I1124 23:01:36.499409 23711 net.cpp:397] loss2/relu_conv -> loss2/conv (in-place)
I1124 23:01:36.499717 23711 net.cpp:150] Setting up loss2/relu_conv
I1124 23:01:36.499730 23711 net.cpp:157] Top shape: 64 128 4 4 (131072)
I1124 23:01:36.499733 23711 net.cpp:165] Memory required for data: 3223230744
I1124 23:01:36.499737 23711 layer_factory.hpp:76] Creating layer loss2/fc
I1124 23:01:36.499745 23711 net.cpp:106] Creating Layer loss2/fc
I1124 23:01:36.499749 23711 net.cpp:454] loss2/fc <- loss2/conv
I1124 23:01:36.499755 23711 net.cpp:411] loss2/fc -> loss2/fc
I1124 23:01:36.515604 23711 net.cpp:150] Setting up loss2/fc
I1124 23:01:36.515626 23711 net.cpp:157] Top shape: 64 1024 (65536)
I1124 23:01:36.515630 23711 net.cpp:165] Memory required for data: 3223492888
I1124 23:01:36.515640 23711 layer_factory.hpp:76] Creating layer loss2/relu_fc
I1124 23:01:36.515650 23711 net.cpp:106] Creating Layer loss2/relu_fc
I1124 23:01:36.515655 23711 net.cpp:454] loss2/relu_fc <- loss2/fc
I1124 23:01:36.515661 23711 net.cpp:397] loss2/relu_fc -> loss2/fc (in-place)
I1124 23:01:36.515898 23711 net.cpp:150] Setting up loss2/relu_fc
I1124 23:01:36.515908 23711 net.cpp:157] Top shape: 64 1024 (65536)
I1124 23:01:36.515911 23711 net.cpp:165] Memory required for data: 3223755032
I1124 23:01:36.515914 23711 layer_factory.hpp:76] Creating layer loss2/drop_fc
I1124 23:01:36.515921 23711 net.cpp:106] Creating Layer loss2/drop_fc
I1124 23:01:36.515924 23711 net.cpp:454] loss2/drop_fc <- loss2/fc
I1124 23:01:36.515931 23711 net.cpp:397] loss2/drop_fc -> loss2/fc (in-place)
I1124 23:01:36.515964 23711 net.cpp:150] Setting up loss2/drop_fc
I1124 23:01:36.515971 23711 net.cpp:157] Top shape: 64 1024 (65536)
I1124 23:01:36.515974 23711 net.cpp:165] Memory required for data: 3224017176
I1124 23:01:36.515977 23711 layer_factory.hpp:76] Creating layer loss2/fc_loss2/drop_fc_0_split
I1124 23:01:36.515983 23711 net.cpp:106] Creating Layer loss2/fc_loss2/drop_fc_0_split
I1124 23:01:36.515986 23711 net.cpp:454] loss2/fc_loss2/drop_fc_0_split <- loss2/fc
I1124 23:01:36.515991 23711 net.cpp:411] loss2/fc_loss2/drop_fc_0_split -> loss2/fc_loss2/drop_fc_0_split_0
I1124 23:01:36.516000 23711 net.cpp:411] loss2/fc_loss2/drop_fc_0_split -> loss2/fc_loss2/drop_fc_0_split_1
I1124 23:01:36.516006 23711 net.cpp:411] loss2/fc_loss2/drop_fc_0_split -> loss2/fc_loss2/drop_fc_0_split_2
I1124 23:01:36.516011 23711 net.cpp:411] loss2/fc_loss2/drop_fc_0_split -> loss2/fc_loss2/drop_fc_0_split_3
I1124 23:01:36.516016 23711 net.cpp:411] loss2/fc_loss2/drop_fc_0_split -> loss2/fc_loss2/drop_fc_0_split_4
I1124 23:01:36.516021 23711 net.cpp:411] loss2/fc_loss2/drop_fc_0_split -> loss2/fc_loss2/drop_fc_0_split_5
I1124 23:01:36.516124 23711 net.cpp:150] Setting up loss2/fc_loss2/drop_fc_0_split
I1124 23:01:36.516130 23711 net.cpp:157] Top shape: 64 1024 (65536)
I1124 23:01:36.516134 23711 net.cpp:157] Top shape: 64 1024 (65536)
I1124 23:01:36.516137 23711 net.cpp:157] Top shape: 64 1024 (65536)
I1124 23:01:36.516140 23711 net.cpp:157] Top shape: 64 1024 (65536)
I1124 23:01:36.516144 23711 net.cpp:157] Top shape: 64 1024 (65536)
I1124 23:01:36.516147 23711 net.cpp:157] Top shape: 64 1024 (65536)
I1124 23:01:36.516149 23711 net.cpp:165] Memory required for data: 3225590040
I1124 23:01:36.516154 23711 layer_factory.hpp:76] Creating layer loss2/classifier-00.category
I1124 23:01:36.516161 23711 net.cpp:106] Creating Layer loss2/classifier-00.category
I1124 23:01:36.516165 23711 net.cpp:454] loss2/classifier-00.category <- loss2/fc_loss2/drop_fc_0_split_0
I1124 23:01:36.516171 23711 net.cpp:411] loss2/classifier-00.category -> loss2/classifier-00.category
I1124 23:01:36.516402 23711 net.cpp:150] Setting up loss2/classifier-00.category
I1124 23:01:36.516410 23711 net.cpp:157] Top shape: 64 16 (1024)
I1124 23:01:36.516413 23711 net.cpp:165] Memory required for data: 3225594136
I1124 23:01:36.516419 23711 layer_factory.hpp:76] Creating layer loss2/loss_00.category
I1124 23:01:36.516425 23711 net.cpp:106] Creating Layer loss2/loss_00.category
I1124 23:01:36.516428 23711 net.cpp:454] loss2/loss_00.category <- loss2/classifier-00.category
I1124 23:01:36.516433 23711 net.cpp:454] loss2/loss_00.category <- 00.category_slice_attribute_0_split_1
I1124 23:01:36.516438 23711 net.cpp:411] loss2/loss_00.category -> loss2/loss_00.category
I1124 23:01:36.516446 23711 layer_factory.hpp:76] Creating layer loss2/loss_00.category
I1124 23:01:36.516932 23711 net.cpp:150] Setting up loss2/loss_00.category
I1124 23:01:36.516944 23711 net.cpp:157] Top shape: (1)
I1124 23:01:36.516948 23711 net.cpp:160]     with loss weight 0.3
I1124 23:01:36.516957 23711 net.cpp:165] Memory required for data: 3225594140
I1124 23:01:36.516962 23711 layer_factory.hpp:76] Creating layer loss2/classifier-02.collar_shape
I1124 23:01:36.516969 23711 net.cpp:106] Creating Layer loss2/classifier-02.collar_shape
I1124 23:01:36.516973 23711 net.cpp:454] loss2/classifier-02.collar_shape <- loss2/fc_loss2/drop_fc_0_split_1
I1124 23:01:36.516979 23711 net.cpp:411] loss2/classifier-02.collar_shape -> loss2/classifier-02.collar_shape
I1124 23:01:36.517194 23711 net.cpp:150] Setting up loss2/classifier-02.collar_shape
I1124 23:01:36.517204 23711 net.cpp:157] Top shape: 64 13 (832)
I1124 23:01:36.517210 23711 net.cpp:165] Memory required for data: 3225597468
I1124 23:01:36.517218 23711 layer_factory.hpp:76] Creating layer loss2/loss_02.collar_shape
I1124 23:01:36.517228 23711 net.cpp:106] Creating Layer loss2/loss_02.collar_shape
I1124 23:01:36.517236 23711 net.cpp:454] loss2/loss_02.collar_shape <- loss2/classifier-02.collar_shape
I1124 23:01:36.517244 23711 net.cpp:454] loss2/loss_02.collar_shape <- 02.collar_shape_slice_attribute_2_split_1
I1124 23:01:36.517252 23711 net.cpp:411] loss2/loss_02.collar_shape -> loss2/loss_02.collar_shape
I1124 23:01:36.517261 23711 layer_factory.hpp:76] Creating layer loss2/loss_02.collar_shape
I1124 23:01:36.517531 23711 net.cpp:150] Setting up loss2/loss_02.collar_shape
I1124 23:01:36.517541 23711 net.cpp:157] Top shape: (1)
I1124 23:01:36.517545 23711 net.cpp:160]     with loss weight 0.3
I1124 23:01:36.517550 23711 net.cpp:165] Memory required for data: 3225597472
I1124 23:01:36.517554 23711 layer_factory.hpp:76] Creating layer loss2/classifier-05.pattern
I1124 23:01:36.517562 23711 net.cpp:106] Creating Layer loss2/classifier-05.pattern
I1124 23:01:36.517566 23711 net.cpp:454] loss2/classifier-05.pattern <- loss2/fc_loss2/drop_fc_0_split_2
I1124 23:01:36.517572 23711 net.cpp:411] loss2/classifier-05.pattern -> loss2/classifier-05.pattern
I1124 23:01:36.517812 23711 net.cpp:150] Setting up loss2/classifier-05.pattern
I1124 23:01:36.517823 23711 net.cpp:157] Top shape: 64 16 (1024)
I1124 23:01:36.517828 23711 net.cpp:165] Memory required for data: 3225601568
I1124 23:01:36.517838 23711 layer_factory.hpp:76] Creating layer loss2/loss_05.pattern
I1124 23:01:36.517856 23711 net.cpp:106] Creating Layer loss2/loss_05.pattern
I1124 23:01:36.517866 23711 net.cpp:454] loss2/loss_05.pattern <- loss2/classifier-05.pattern
I1124 23:01:36.517875 23711 net.cpp:454] loss2/loss_05.pattern <- 05.pattern_slice_attribute_5_split_1
I1124 23:01:36.517889 23711 net.cpp:411] loss2/loss_05.pattern -> loss2/loss_05.pattern
I1124 23:01:36.517904 23711 layer_factory.hpp:76] Creating layer loss2/loss_05.pattern
I1124 23:01:36.518403 23711 net.cpp:150] Setting up loss2/loss_05.pattern
I1124 23:01:36.518416 23711 net.cpp:157] Top shape: (1)
I1124 23:01:36.518420 23711 net.cpp:160]     with loss weight 0.3
I1124 23:01:36.518426 23711 net.cpp:165] Memory required for data: 3225601572
I1124 23:01:36.518429 23711 layer_factory.hpp:76] Creating layer loss2/classifier-06.button_shape
I1124 23:01:36.518438 23711 net.cpp:106] Creating Layer loss2/classifier-06.button_shape
I1124 23:01:36.518442 23711 net.cpp:454] loss2/classifier-06.button_shape <- loss2/fc_loss2/drop_fc_0_split_3
I1124 23:01:36.518448 23711 net.cpp:411] loss2/classifier-06.button_shape -> loss2/classifier-06.button_shape
I1124 23:01:36.518635 23711 net.cpp:150] Setting up loss2/classifier-06.button_shape
I1124 23:01:36.518642 23711 net.cpp:157] Top shape: 64 9 (576)
I1124 23:01:36.518646 23711 net.cpp:165] Memory required for data: 3225603876
I1124 23:01:36.518651 23711 layer_factory.hpp:76] Creating layer loss2/loss_06.button_shape
I1124 23:01:36.518656 23711 net.cpp:106] Creating Layer loss2/loss_06.button_shape
I1124 23:01:36.518661 23711 net.cpp:454] loss2/loss_06.button_shape <- loss2/classifier-06.button_shape
I1124 23:01:36.518666 23711 net.cpp:454] loss2/loss_06.button_shape <- 06.button_shape_slice_attribute_6_split_1
…
I1124 23:01:36.518985 23711 net.cpp:165] Memory required for data: 3225603880
I1124 23:01:36.518988 23711 layer_factory.hpp:76] Creating layer loss2/classifier-09.fashion_elements
I1124 23:01:36.518996 23711 net.cpp:106] Creating Layer loss2/classifier-09.fashion_elements
I1124 23:01:36.519001 23711 net.cpp:454] loss2/classifier-09.fashion_elements <- loss2/fc_loss2/drop_fc_0_split_4
I1124 23:01:36.519006 23711 net.cpp:411] loss2/classifier-09.fashion_elements -> loss2/classifier-09.fashion_elements
I1124 23:01:36.519696 23711 net.cpp:150] Setting up loss2/classifier-09.fashion_elements
I1124 23:01:36.519709 23711 net.cpp:157] Top shape: 64 15 (960)
I1124 23:01:36.519713 23711 net.cpp:165] Memory required for data: 3225607720
I1124 23:01:36.519719 23711 layer_factory.hpp:76] Creating layer loss2/loss_09.fashion_elements
I1124 23:01:36.519726 23711 net.cpp:106] Creating Layer loss2/loss_09.fashion_elements
I1124 23:01:36.519729 23711 net.cpp:454] loss2/loss_09.fashion_elements <- loss2/classifier-09.fashion_elements
I1124 23:01:36.519734 23711 net.cpp:454] loss2/loss_09.fashion_elements <- 09.fashion_elements_slice_attribute_9_split_1
I1124 23:01:36.519739 23711 net.cpp:411] loss2/loss_09.fashion_elements -> loss2/loss_09.fashion_elements
I1124 23:01:36.519747 23711 layer_factory.hpp:76] Creating layer loss2/loss_09.fashion_elements
I1124 23:01:36.520164 23711 net.cpp:150] Setting up loss2/loss_09.fashion_elements
I1124 23:01:36.520175 23711 net.cpp:157] Top shape: (1)
I1124 23:01:36.520179 23711 net.cpp:160]     with loss weight 0.3
I1124 23:01:36.520184 23711 net.cpp:165] Memory required for data: 3225607724
I1124 23:01:36.520187 23711 layer_factory.hpp:76] Creating layer loss2/classifier-21.color
I1124 23:01:36.520195 23711 net.cpp:106] Creating Layer loss2/classifier-21.color
I1124 23:01:36.520197 23711 net.cpp:454] loss2/classifier-21.color <- loss2/fc_loss2/drop_fc_0_split_5
I1124 23:01:36.520205 23711 net.cpp:411] loss2/classifier-21.color -> loss2/classifier-21.color
I1124 23:01:36.520975 23711 net.cpp:150] Setting up loss2/classifier-21.color
I1124 23:01:36.520987 23711 net.cpp:157] Top shape: 64 21 (1344)
I1124 23:01:36.520990 23711 net.cpp:165] Memory required for data: 3225613100
I1124 23:01:36.520998 23711 layer_factory.hpp:76] Creating layer loss2/loss_21.color
I1124 23:01:36.521003 23711 net.cpp:106] Creating Layer loss2/loss_21.color
I1124 23:01:36.521008 23711 net.cpp:454] loss2/loss_21.color <- loss2/classifier-21.color
I1124 23:01:36.521013 23711 net.cpp:454] loss2/loss_21.color <- 21.color_slice_attribute_21_split_1
I1124 23:01:36.521023 23711 net.cpp:411] loss2/loss_21.color -> loss2/loss_21.color
I1124 23:01:36.521030 23711 layer_factory.hpp:76] Creating layer loss2/loss_21.color
I1124 23:01:36.521327 23711 net.cpp:150] Setting up loss2/loss_21.color
I1124 23:01:36.521342 23711 net.cpp:157] Top shape: (1)
I1124 23:01:36.521347 23711 net.cpp:160]     with loss weight 0.3
I1124 23:01:36.521376 23711 net.cpp:165] Memory required for data: 3225613104
I1124 23:01:36.521385 23711 layer_factory.hpp:76] Creating layer inception_4e/1x1
I1124 23:01:36.521400 23711 net.cpp:106] Creating Layer inception_4e/1x1
I1124 23:01:36.521409 23711 net.cpp:454] inception_4e/1x1 <- inception_4d/output_inception_4d/output_0_split_1
I1124 23:01:36.521425 23711 net.cpp:411] inception_4e/1x1 -> inception_4e/1x1
I1124 23:01:36.523418 23711 net.cpp:150] Setting up inception_4e/1x1
I1124 23:01:36.523434 23711 net.cpp:157] Top shape: 64 256 14 14 (3211264)
I1124 23:01:36.523440 23711 net.cpp:165] Memory required for data: 3238458160
I1124 23:01:36.523452 23711 layer_factory.hpp:76] Creating layer inception_4e/relu_1x1
I1124 23:01:36.523463 23711 net.cpp:106] Creating Layer inception_4e/relu_1x1
I1124 23:01:36.523468 23711 net.cpp:454] inception_4e/relu_1x1 <- inception_4e/1x1
I1124 23:01:36.523474 23711 net.cpp:397] inception_4e/relu_1x1 -> inception_4e/1x1 (in-place)
I1124 23:01:36.523788 23711 net.cpp:150] Setting up inception_4e/relu_1x1
I1124 23:01:36.523802 23711 net.cpp:157] Top shape: 64 256 14 14 (3211264)
I1124 23:01:36.523805 23711 net.cpp:165] Memory required for data: 3251303216
I1124 23:01:36.523808 23711 layer_factory.hpp:76] Creating layer inception_4e/3x3_reduce
I1124 23:01:36.523818 23711 net.cpp:106] Creating Layer inception_4e/3x3_reduce
I1124 23:01:36.523823 23711 net.cpp:454] inception_4e/3x3_reduce <- inception_4d/output_inception_4d/output_0_split_2
I1124 23:01:36.523829 23711 net.cpp:411] inception_4e/3x3_reduce -> inception_4e/3x3_reduce
I1124 23:01:36.525895 23711 net.cpp:150] Setting up inception_4e/3x3_reduce
I1124 23:01:36.525912 23711 net.cpp:157] Top shape: 64 160 14 14 (2007040)
I1124 23:01:36.525915 23711 net.cpp:165] Memory required for data: 3259331376
I1124 23:01:36.525921 23711 layer_factory.hpp:76] Creating layer inception_4e/relu_3x3_reduce
I1124 23:01:36.525928 23711 net.cpp:106] Creating Layer inception_4e/relu_3x3_reduce
I1124 23:01:36.525931 23711 net.cpp:454] inception_4e/relu_3x3_reduce <- inception_4e/3x3_reduce
I1124 23:01:36.525936 23711 net.cpp:397] inception_4e/relu_3x3_reduce -> inception_4e/3x3_reduce (in-place)
I1124 23:01:36.526108 23711 net.cpp:150] Setting up inception_4e/relu_3x3_reduce
I1124 23:01:36.526118 23711 net.cpp:157] Top shape: 64 160 14 14 (2007040)
I1124 23:01:36.526121 23711 net.cpp:165] Memory required for data: 3267359536
I1124 23:01:36.526124 23711 layer_factory.hpp:76] Creating layer inception_4e/3x3
I1124 23:01:36.526132 23711 net.cpp:106] Creating Layer inception_4e/3x3
I1124 23:01:36.526136 23711 net.cpp:454] inception_4e/3x3 <- inception_4e/3x3_reduce
I1124 23:01:36.526145 23711 net.cpp:411] inception_4e/3x3 -> inception_4e/3x3
I1124 23:01:36.530820 23711 net.cpp:150] Setting up inception_4e/3x3
I1124 23:01:36.530844 23711 net.cpp:157] Top shape: 64 320 14 14 (4014080)
I1124 23:01:36.530855 23711 net.cpp:165] Memory required for data: 3283415856
I1124 23:01:36.530866 23711 layer_factory.hpp:76] Creating layer inception_4e/relu_3x3
I1124 23:01:36.530910 23711 net.cpp:106] Creating Layer inception_4e/relu_3x3
I1124 23:01:36.530922 23711 net.cpp:454] inception_4e/relu_3x3 <- inception_4e/3x3
I1124 23:01:36.530928 23711 net.cpp:397] inception_4e/relu_3x3 -> inception_4e/3x3 (in-place)
I1124 23:01:36.531111 23711 net.cpp:150] Setting up inception_4e/relu_3x3
I1124 23:01:36.531121 23711 net.cpp:157] Top shape: 64 320 14 14 (4014080)
I1124 23:01:36.531126 23711 net.cpp:165] Memory required for data: 3299472176
I1124 23:01:36.531128 23711 layer_factory.hpp:76] Creating layer inception_4e/5x5_reduce
I1124 23:01:36.531147 23711 net.cpp:106] Creating Layer inception_4e/5x5_reduce
I1124 23:01:36.531152 23711 net.cpp:454] inception_4e/5x5_reduce <- inception_4d/output_inception_4d/output_0_split_3
I1124 23:01:36.531159 23711 net.cpp:411] inception_4e/5x5_reduce -> inception_4e/5x5_reduce
I1124 23:01:36.532413 23711 net.cpp:150] Setting up inception_4e/5x5_reduce
I1124 23:01:36.532429 23711 net.cpp:157] Top shape: 64 32 14 14 (401408)
I1124 23:01:36.532435 23711 net.cpp:165] Memory required for data: 3301077808
I1124 23:01:36.532446 23711 layer_factory.hpp:76] Creating layer inception_4e/relu_5x5_reduce
I1124 23:01:36.532457 23711 net.cpp:106] Creating Layer inception_4e/relu_5x5_reduce
I1124 23:01:36.532464 23711 net.cpp:454] inception_4e/relu_5x5_reduce <- inception_4e/5x5_reduce
I1124 23:01:36.532469 23711 net.cpp:397] inception_4e/relu_5x5_reduce -> inception_4e/5x5_reduce (in-place)
I1124 23:01:36.532783 23711 net.cpp:150] Setting up inception_4e/relu_5x5_reduce
I1124 23:01:36.532796 23711 net.cpp:157] Top shape: 64 32 14 14 (401408)
I1124 23:01:36.532800 23711 net.cpp:165] Memory required for data: 3302683440
I1124 23:01:36.532804 23711 layer_factory.hpp:76] Creating layer inception_4e/5x5
I1124 23:01:36.532812 23711 net.cpp:106] Creating Layer inception_4e/5x5
I1124 23:01:36.532817 23711 net.cpp:454] inception_4e/5x5 <- inception_4e/5x5_reduce
I1124 23:01:36.532824 23711 net.cpp:411] inception_4e/5x5 -> inception_4e/5x5
I1124 23:01:36.534703 23711 net.cpp:150] Setting up inception_4e/5x5
I1124 23:01:36.534719 23711 net.cpp:157] Top shape: 64 128 14 14 (1605632)
I1124 23:01:36.534725 23711 net.cpp:165] Memory required for data: 3309105968
I1124 23:01:36.534735 23711 layer_factory.hpp:76] Creating layer inception_4e/relu_5x5
I1124 23:01:36.534749 23711 net.cpp:106] Creating Layer inception_4e/relu_5x5
I1124 23:01:36.534754 23711 net.cpp:454] inception_4e/relu_5x5 <- inception_4e/5x5
I1124 23:01:36.534761 23711 net.cpp:397] inception_4e/relu_5x5 -> inception_4e/5x5 (in-place)
I1124 23:01:36.534945 23711 net.cpp:150] Setting up inception_4e/relu_5x5
I1124 23:01:36.534958 23711 net.cpp:157] Top shape: 64 128 14 14 (1605632)
I1124 23:01:36.534965 23711 net.cpp:165] Memory required for data: 3315528496
I1124 23:01:36.534970 23711 layer_factory.hpp:76] Creating layer inception_4e/pool
I1124 23:01:36.535003 23711 net.cpp:106] Creating Layer inception_4e/pool
I1124 23:01:36.535012 23711 net.cpp:454] inception_4e/pool <- inception_4d/output_inception_4d/output_0_split_4
I1124 23:01:36.535027 23711 net.cpp:411] inception_4e/pool -> inception_4e/pool
I1124 23:01:36.535408 23711 net.cpp:150] Setting up inception_4e/pool
I1124 23:01:36.535420 23711 net.cpp:157] Top shape: 64 528 14 14 (6623232)
I1124 23:01:36.535424 23711 net.cpp:165] Memory required for data: 3342021424
I1124 23:01:36.535428 23711 layer_factory.hpp:76] Creating layer inception_4e/pool_proj
I1124 23:01:36.535436 23711 net.cpp:106] Creating Layer inception_4e/pool_proj
I1124 23:01:36.535444 23711 net.cpp:454] inception_4e/pool_proj <- inception_4e/pool
I1124 23:01:36.535449 23711 net.cpp:411] inception_4e/pool_proj -> inception_4e/pool_proj
I1124 23:01:36.536859 23711 net.cpp:150] Setting up inception_4e/pool_proj
I1124 23:01:36.536875 23711 net.cpp:157] Top shape: 64 128 14 14 (1605632)
I1124 23:01:36.536880 23711 net.cpp:165] Memory required for data: 3348443952
I1124 23:01:36.536891 23711 layer_factory.hpp:76] Creating layer inception_4e/relu_pool_proj
I1124 23:01:36.536906 23711 net.cpp:106] Creating Layer inception_4e/relu_pool_proj
I1124 23:01:36.536914 23711 net.cpp:454] inception_4e/relu_pool_proj <- inception_4e/pool_proj
I1124 23:01:36.536941 23711 net.cpp:397] inception_4e/relu_pool_proj -> inception_4e/pool_proj (in-place)
I1124 23:01:36.537299 23711 net.cpp:150] Setting up inception_4e/relu_pool_proj
I1124 23:01:36.537317 23711 net.cpp:157] Top shape: 64 128 14 14 (1605632)
I1124 23:01:36.537322 23711 net.cpp:165] Memory required for data: 3354866480
I1124 23:01:36.537333 23711 layer_factory.hpp:76] Creating layer inception_4e/output
I1124 23:01:36.537341 23711 net.cpp:106] Creating Layer inception_4e/output
I1124 23:01:36.537345 23711 net.cpp:454] inception_4e/output <- inception_4e/1x1
I1124 23:01:36.537350 23711 net.cpp:454] inception_4e/output <- inception_4e/3x3
I1124 23:01:36.537354 23711 net.cpp:454] inception_4e/output <- inception_4e/5x5
I1124 23:01:36.537358 23711 net.cpp:454] inception_4e/output <- inception_4e/pool_proj
I1124 23:01:36.537364 23711 net.cpp:411] inception_4e/output -> inception_4e/output
I1124 23:01:36.537403 23711 net.cpp:150] Setting up inception_4e/output
I1124 23:01:36.537411 23711 net.cpp:157] Top shape: 64 832 14 14 (10436608)
I1124 23:01:36.537415 23711 net.cpp:165] Memory required for data: 3396612912
I1124 23:01:36.537417 23711 layer_factory.hpp:76] Creating layer pool4/3x3_s2
I1124 23:01:36.537427 23711 net.cpp:106] Creating Layer pool4/3x3_s2
I1124 23:01:36.537432 23711 net.cpp:454] pool4/3x3_s2 <- inception_4e/output
I1124 23:01:36.537437 23711 net.cpp:411] pool4/3x3_s2 -> pool4/3x3_s2
I1124 23:01:36.537652 23711 net.cpp:150] Setting up pool4/3x3_s2
I1124 23:01:36.537660 23711 net.cpp:157] Top shape: 64 832 7 7 (2609152)
I1124 23:01:36.537663 23711 net.cpp:165] Memory required for data: 3407049520
I1124 23:01:36.537667 23711 layer_factory.hpp:76] Creating layer pool4/3x3_s2_pool4/3x3_s2_0_split
I1124 23:01:36.537673 23711 net.cpp:106] Creating Layer pool4/3x3_s2_pool4/3x3_s2_0_split
I1124 23:01:36.537677 23711 net.cpp:454] pool4/3x3_s2_pool4/3x3_s2_0_split <- pool4/3x3_s2
I1124 23:01:36.537683 23711 net.cpp:411] pool4/3x3_s2_pool4/3x3_s2_0_split -> pool4/3x3_s2_pool4/3x3_s2_0_split_0
I1124 23:01:36.537688 23711 net.cpp:411] pool4/3x3_s2_pool4/3x3_s2_0_split -> pool4/3x3_s2_pool4/3x3_s2_0_split_1
I1124 23:01:36.537694 23711 net.cpp:411] pool4/3x3_s2_pool4/3x3_s2_0_split -> pool4/3x3_s2_pool4/3x3_s2_0_split_2
I1124 23:01:36.537699 23711 net.cpp:411] pool4/3x3_s2_pool4/3x3_s2_0_split -> pool4/3x3_s2_pool4/3x3_s2_0_split_3
I1124 23:01:36.537775 23711 net.cpp:150] Setting up pool4/3x3_s2_pool4/3x3_s2_0_split
I1124 23:01:36.537781 23711 net.cpp:157] Top shape: 64 832 7 7 (2609152)
I1124 23:01:36.537786 23711 net.cpp:157] Top shape: 64 832 7 7 (2609152)
I1124 23:01:36.537789 23711 net.cpp:157] Top shape: 64 832 7 7 (2609152)
I1124 23:01:36.537792 23711 net.cpp:157] Top shape: 64 832 7 7 (2609152)
I1124 23:01:36.537796 23711 net.cpp:165] Memory required for data: 3448795952
I1124 23:01:36.537798 23711 layer_factory.hpp:76] Creating layer inception_5a/1x1
I1124 23:01:36.537806 23711 net.cpp:106] Creating Layer inception_5a/1x1
I1124 23:01:36.537811 23711 net.cpp:454] inception_5a/1x1 <- pool4/3x3_s2_pool4/3x3_s2_0_split_0
I1124 23:01:36.537817 23711 net.cpp:411] inception_5a/1x1 -> inception_5a/1x1
I1124 23:01:36.540699 23711 net.cpp:150] Setting up inception_5a/1x1
I1124 23:01:36.540719 23711 net.cpp:157] Top shape: 64 256 7 7 (802816)
I1124 23:01:36.540724 23711 net.cpp:165] Memory required for data: 3452007216
I1124 23:01:36.540734 23711 layer_factory.hpp:76] Creating layer inception_5a/relu_1x1
I1124 23:01:36.540763 23711 net.cpp:106] Creating Layer inception_5a/relu_1x1
I1124 23:01:36.540773 23711 net.cpp:454] inception_5a/relu_1x1 <- inception_5a/1x1
I1124 23:01:36.540782 23711 net.cpp:397] inception_5a/relu_1x1 -> inception_5a/1x1 (in-place)
I1124 23:01:36.541177 23711 net.cpp:150] Setting up inception_5a/relu_1x1
I1124 23:01:36.541193 23711 net.cpp:157] Top shape: 64 256 7 7 (802816)
I1124 23:01:36.541198 23711 net.cpp:165] Memory required for data: 3455218480
I1124 23:01:36.541204 23711 layer_factory.hpp:76] Creating layer inception_5a/3x3_reduce
I1124 23:01:36.541221 23711 net.cpp:106] Creating Layer inception_5a/3x3_reduce
I1124 23:01:36.541227 23711 net.cpp:454] inception_5a/3x3_reduce <- pool4/3x3_s2_pool4/3x3_s2_0_split_1
I1124 23:01:36.541234 23711 net.cpp:411] inception_5a/3x3_reduce -> inception_5a/3x3_reduce
I1124 23:01:36.543670 23711 net.cpp:150] Setting up inception_5a/3x3_reduce
I1124 23:01:36.543687 23711 net.cpp:157] Top shape: 64 160 7 7 (501760)
I1124 23:01:36.543694 23711 net.cpp:165] Memory required for data: 3457225520
I1124 23:01:36.543704 23711 layer_factory.hpp:76] Creating layer inception_5a/relu_3x3_reduce
I1124 23:01:36.543716 23711 net.cpp:106] Creating Layer inception_5a/relu_3x3_reduce
I1124 23:01:36.543725 23711 net.cpp:454] inception_5a/relu_3x3_reduce <- inception_5a/3x3_reduce
I1124 23:01:36.543753 23711 net.cpp:397] inception_5a/relu_3x3_reduce -> inception_5a/3x3_reduce (in-place)
I1124 23:01:36.543951 23711 net.cpp:150] Setting up inception_5a/relu_3x3_reduce
I1124 23:01:36.543964 23711 net.cpp:157] Top shape: 64 160 7 7 (501760)
I1124 23:01:36.543970 23711 net.cpp:165] Memory required for data: 3459232560
I1124 23:01:36.543990 23711 layer_factory.hpp:76] Creating layer inception_5a/3x3
I1124 23:01:36.544003 23711 net.cpp:106] Creating Layer inception_5a/3x3
I1124 23:01:36.544013 23711 net.cpp:454] inception_5a/3x3 <- inception_5a/3x3_reduce
I1124 23:01:36.544028 23711 net.cpp:411] inception_5a/3x3 -> inception_5a/3x3
I1124 23:01:36.548717 23711 net.cpp:150] Setting up inception_5a/3x3
I1124 23:01:36.548735 23711 net.cpp:157] Top shape: 64 320 7 7 (1003520)
I1124 23:01:36.548741 23711 net.cpp:165] Memory required for data: 3463246640
I1124 23:01:36.548753 23711 layer_factory.hpp:76] Creating layer inception_5a/relu_3x3
I1124 23:01:36.548766 23711 net.cpp:106] Creating Layer inception_5a/relu_3x3
I1124 23:01:36.548773 23711 net.cpp:454] inception_5a/relu_3x3 <- inception_5a/3x3
I1124 23:01:36.548777 23711 net.cpp:397] inception_5a/relu_3x3 -> inception_5a/3x3 (in-place)
I1124 23:01:36.548965 23711 net.cpp:150] Setting up inception_5a/relu_3x3
I1124 23:01:36.548976 23711 net.cpp:157] Top shape: 64 320 7 7 (1003520)
I1124 23:01:36.548979 23711 net.cpp:165] Memory required for data: 3467260720
I1124 23:01:36.548982 23711 layer_factory.hpp:76] Creating layer inception_5a/5x5_reduce
I1124 23:01:36.548992 23711 net.cpp:106] Creating Layer inception_5a/5x5_reduce
I1124 23:01:36.548997 23711 net.cpp:454] inception_5a/5x5_reduce <- pool4/3x3_s2_pool4/3x3_s2_0_split_2
I1124 23:01:36.549005 23711 net.cpp:411] inception_5a/5x5_reduce -> inception_5a/5x5_reduce
I1124 23:01:36.550317 23711 net.cpp:150] Setting up inception_5a/5x5_reduce
I1124 23:01:36.550329 23711 net.cpp:157] Top shape: 64 32 7 7 (100352)
I1124 23:01:36.550333 23711 net.cpp:165] Memory required for data: 3467662128
I1124 23:01:36.550360 23711 layer_factory.hpp:76] Creating layer inception_5a/relu_5x5_reduce
I1124 23:01:36.550367 23711 net.cpp:106] Creating Layer inception_5a/relu_5x5_reduce
I1124 23:01:36.550372 23711 net.cpp:454] inception_5a/relu_5x5_reduce <- inception_5a/5x5_reduce
I1124 23:01:36.550377 23711 net.cpp:397] inception_5a/relu_5x5_reduce -> inception_5a/5x5_reduce (in-place)
I1124 23:01:36.550698 23711 net.cpp:150] Setting up inception_5a/relu_5x5_reduce
I1124 23:01:36.550709 23711 net.cpp:157] Top shape: 64 32 7 7 (100352)
I1124 23:01:36.550712 23711 net.cpp:165] Memory required for data: 3468063536
I1124 23:01:36.550715 23711 layer_factory.hpp:76] Creating layer inception_5a/5x5
I1124 23:01:36.550725 23711 net.cpp:106] Creating Layer inception_5a/5x5
I1124 23:01:36.550729 23711 net.cpp:454] inception_5a/5x5 <- inception_5a/5x5_reduce
I1124 23:01:36.550736 23711 net.cpp:411] inception_5a/5x5 -> inception_5a/5x5
I1124 23:01:36.552635 23711 net.cpp:150] Setting up inception_5a/5x5
I1124 23:01:36.552654 23711 net.cpp:157] Top shape: 64 128 7 7 (401408)
I1124 23:01:36.552657 23711 net.cpp:165] Memory required for data: 3469669168
I1124 23:01:36.552664 23711 layer_factory.hpp:76] Creating layer inception_5a/relu_5x5
I1124 23:01:36.552670 23711 net.cpp:106] Creating Layer inception_5a/relu_5x5
I1124 23:01:36.552680 23711 net.cpp:454] inception_5a/relu_5x5 <- inception_5a/5x5
I1124 23:01:36.552687 23711 net.cpp:397] inception_5a/relu_5x5 -> inception_5a/5x5 (in-place)
I1124 23:01:36.552870 23711 net.cpp:150] Setting up inception_5a/relu_5x5
I1124 23:01:36.552883 23711 net.cpp:157] Top shape: 64 128 7 7 (401408)
I1124 23:01:36.552889 23711 net.cpp:165] Memory required for data: 3471274800
I1124 23:01:36.552896 23711 layer_factory.hpp:76] Creating layer inception_5a/pool
I1124 23:01:36.552906 23711 net.cpp:106] Creating Layer inception_5a/pool
I1124 23:01:36.552913 23711 net.cpp:454] inception_5a/pool <- pool4/3x3_s2_pool4/3x3_s2_0_split_3
I1124 23:01:36.552919 23711 net.cpp:411] inception_5a/pool -> inception_5a/pool
I1124 23:01:36.553295 23711 net.cpp:150] Setting up inception_5a/pool
I1124 23:01:36.553308 23711 net.cpp:157] Top shape: 64 832 7 7 (2609152)
I1124 23:01:36.553313 23711 net.cpp:165] Memory required for data: 3481711408
I1124 23:01:36.553318 23711 layer_factory.hpp:76] Creating layer inception_5a/pool_proj
I1124 23:01:36.553333 23711 net.cpp:106] Creating Layer inception_5a/pool_proj
I1124 23:01:36.553344 23711 net.cpp:454] inception_5a/pool_proj <- inception_5a/pool
I1124 23:01:36.553357 23711 net.cpp:411] inception_5a/pool_proj -> inception_5a/pool_proj
I1124 23:01:36.555655 23711 net.cpp:150] Setting up inception_5a/pool_proj
I1124 23:01:36.555670 23711 net.cpp:157] Top shape: 64 128 7 7 (401408)
I1124 23:01:36.555675 23711 net.cpp:165] Memory required for data: 3483317040
I1124 23:01:36.555681 23711 layer_factory.hpp:76] Creating layer inception_5a/relu_pool_proj
I1124 23:01:36.555690 23711 net.cpp:106] Creating Layer inception_5a/relu_pool_proj
I1124 23:01:36.555694 23711 net.cpp:454] inception_5a/relu_pool_proj <- inception_5a/pool_proj
I1124 23:01:36.555699 23711 net.cpp:397] inception_5a/relu_pool_proj -> inception_5a/pool_proj (in-place)
I1124 23:01:36.556023 23711 net.cpp:150] Setting up inception_5a/relu_pool_proj
I1124 23:01:36.556036 23711 net.cpp:157] Top shape: 64 128 7 7 (401408)
I1124 23:01:36.556040 23711 net.cpp:165] Memory required for data: 3484922672
I1124 23:01:36.556042 23711 layer_factory.hpp:76] Creating layer inception_5a/output
I1124 23:01:36.556049 23711 net.cpp:106] Creating Layer inception_5a/output
I1124 23:01:36.556053 23711 net.cpp:454] inception_5a/output <- inception_5a/1x1
I1124 23:01:36.556058 23711 net.cpp:454] inception_5a/output <- inception_5a/3x3
I1124 23:01:36.556066 23711 net.cpp:454] inception_5a/output <- inception_5a/5x5
I1124 23:01:36.556069 23711 net.cpp:454] inception_5a/output <- inception_5a/pool_proj
I1124 23:01:36.556074 23711 net.cpp:411] inception_5a/output -> inception_5a/output
I1124 23:01:36.556115 23711 net.cpp:150] Setting up inception_5a/output
I1124 23:01:36.556123 23711 net.cpp:157] Top shape: 64 832 7 7 (2609152)
I1124 23:01:36.556125 23711 net.cpp:165] Memory required for data: 3495359280
…
I1124 23:01:36.810725 23711 net.cpp:150] Setting up inception_4c/output_inception_4c/output_0_split
I1124 23:01:36.810730 23711 net.cpp:157] Top shape: 64 512 14 14 (6422528)
I1124 23:01:36.810734 23711 net.cpp:157] Top shape: 64 512 14 14 (6422528)
I1124 23:01:36.810739 23711 net.cpp:157] Top shape: 64 512 14 14 (6422528)
I1124 23:01:36.810741 23711 net.cpp:157] Top shape: 64 512 14 14 (6422528)
I1124 23:01:36.810744 23711 net.cpp:165] Memory required for data: 2964774704
I1124 23:01:36.810746 23711 layer_factory.hpp:76] Creating layer inception_4d/1x1
I1124 23:01:36.810755 23711 net.cpp:106] Creating Layer inception_4d/1x1
I1124 23:01:36.810758 23711 net.cpp:454] inception_4d/1x1 <- inception_4c/output_inception_4c/output_0_split_0
I1124 23:01:36.810763 23711 net.cpp:411] inception_4d/1x1 -> inception_4d/1x1
I1124 23:01:36.812860 23711 net.cpp:150] Setting up inception_4d/1x1
I1124 23:01:36.812873 23711 net.cpp:157] Top shape: 64 112 14 14 (1404928)
I1124 23:01:36.812876 23711 net.cpp:165] Memory required for data: 2970394416
I1124 23:01:36.812882 23711 layer_factory.hpp:76] Creating layer inception_4d/relu_1x1
I1124 23:01:36.812888 23711 net.cpp:106] Creating Layer inception_4d/relu_1x1
I1124 23:01:36.812893 23711 net.cpp:454] inception_4d/relu_1x1 <- inception_4d/1x1
I1124 23:01:36.812898 23711 net.cpp:397] inception_4d/relu_1x1 -> inception_4d/1x1 (in-place)
I1124 23:01:36.813246 23711 net.cpp:150] Setting up inception_4d/relu_1x1
I1124 23:01:36.813256 23711 net.cpp:157] Top shape: 64 112 14 14 (1404928)
I1124 23:01:36.813261 23711 net.cpp:165] Memory required for data: 2976014128
I1124 23:01:36.813263 23711 layer_factory.hpp:76] Creating layer inception_4d/3x3_reduce
I1124 23:01:36.813272 23711 net.cpp:106] Creating Layer inception_4d/3x3_reduce
I1124 23:01:36.813277 23711 net.cpp:454] inception_4d/3x3_reduce <- inception_4c/output_inception_4c/output_0_split_1
I1124 23:01:36.813284 23711 net.cpp:411] inception_4d/3x3_reduce -> inception_4d/3x3_reduce
I1124 23:01:36.815001 23711 net.cpp:150] Setting up inception_4d/3x3_reduce
I1124 23:01:36.815013 23711 net.cpp:157] Top shape: 64 144 14 14 (1806336)
I1124 23:01:36.815017 23711 net.cpp:165] Memory required for data: 2983239472
I1124 23:01:36.815023 23711 layer_factory.hpp:76] Creating layer inception_4d/relu_3x3_reduce
I1124 23:01:36.815029 23711 net.cpp:106] Creating Layer inception_4d/relu_3x3_reduce
I1124 23:01:36.815033 23711 net.cpp:454] inception_4d/relu_3x3_reduce <- inception_4d/3x3_reduce
I1124 23:01:36.815039 23711 net.cpp:397] inception_4d/relu_3x3_reduce -> inception_4d/3x3_reduce (in-place)
I1124 23:01:36.815387 23711 net.cpp:150] Setting up inception_4d/relu_3x3_reduce
I1124 23:01:36.815397 23711 net.cpp:157] Top shape: 64 144 14 14 (1806336)
I1124 23:01:36.815400 23711 net.cpp:165] Memory required for data: 2990464816
I1124 23:01:36.815403 23711 layer_factory.hpp:76] Creating layer inception_4d/3x3
I1124 23:01:36.815412 23711 net.cpp:106] Creating Layer inception_4d/3x3
I1124 23:01:36.815417 23711 net.cpp:454] inception_4d/3x3 <- inception_4d/3x3_reduce
I1124 23:01:36.815423 23711 net.cpp:411] inception_4d/3x3 -> inception_4d/3x3
I1124 23:01:36.820016 23711 net.cpp:150] Setting up inception_4d/3x3
I1124 23:01:36.820031 23711 net.cpp:157] Top shape: 64 288 14 14 (3612672)
I1124 23:01:36.820035 23711 net.cpp:165] Memory required for data: 3004915504
I1124 23:01:36.820042 23711 layer_factory.hpp:76] Creating layer inception_4d/relu_3x3
I1124 23:01:36.820050 23711 net.cpp:106] Creating Layer inception_4d/relu_3x3
I1124 23:01:36.820055 23711 net.cpp:454] inception_4d/relu_3x3 <- inception_4d/3x3
I1124 23:01:36.820061 23711 net.cpp:397] inception_4d/relu_3x3 -> inception_4d/3x3 (in-place)
I1124 23:01:36.820261 23711 net.cpp:150] Setting up inception_4d/relu_3x3
I1124 23:01:36.820268 23711 net.cpp:157] Top shape: 64 288 14 14 (3612672)
I1124 23:01:36.820273 23711 net.cpp:165] Memory required for data: 3019366192
I1124 23:01:36.820276 23711 layer_factory.hpp:76] Creating layer inception_4d/5x5_reduce
I1124 23:01:36.820284 23711 net.cpp:106] Creating Layer inception_4d/5x5_reduce
I1124 23:01:36.820288 23711 net.cpp:454] inception_4d/5x5_reduce <- inception_4c/output_inception_4c/output_0_split_2
I1124 23:01:36.820297 23711 net.cpp:411] inception_4d/5x5_reduce -> inception_4d/5x5_reduce
I1124 23:01:36.821544 23711 net.cpp:150] Setting up inception_4d/5x5_reduce
I1124 23:01:36.821557 23711 net.cpp:157] Top shape: 64 32 14 14 (401408)
I1124 23:01:36.821559 23711 net.cpp:165] Memory required for data: 3020971824
I1124 23:01:36.821565 23711 layer_factory.hpp:76] Creating layer inception_4d/relu_5x5_reduce
I1124 23:01:36.821573 23711 net.cpp:106] Creating Layer inception_4d/relu_5x5_reduce
I1124 23:01:36.821578 23711 net.cpp:454] inception_4d/relu_5x5_reduce <- inception_4d/5x5_reduce
I1124 23:01:36.821583 23711 net.cpp:397] inception_4d/relu_5x5_reduce -> inception_4d/5x5_reduce (in-place)
I1124 23:01:36.821950 23711 net.cpp:150] Setting up inception_4d/relu_5x5_reduce
I1124 23:01:36.821961 23711 net.cpp:157] Top shape: 64 32 14 14 (401408)
I1124 23:01:36.821964 23711 net.cpp:165] Memory required for data: 3022577456
I1124 23:01:36.821969 23711 layer_factory.hpp:76] Creating layer inception_4d/5x5
I1124 23:01:36.821977 23711 net.cpp:106] Creating Layer inception_4d/5x5
I1124 23:01:36.821982 23711 net.cpp:454] inception_4d/5x5 <- inception_4d/5x5_reduce
I1124 23:01:36.821988 23711 net.cpp:411] inception_4d/5x5 -> inception_4d/5x5
I1124 23:01:36.823330 23711 net.cpp:150] Setting up inception_4d/5x5
I1124 23:01:36.823343 23711 net.cpp:157] Top shape: 64 64 14 14 (802816)
I1124 23:01:36.823346 23711 net.cpp:165] Memory required for data: 3025788720
I1124 23:01:36.823353 23711 layer_factory.hpp:76] Creating layer inception_4d/relu_5x5
I1124 23:01:36.823357 23711 net.cpp:106] Creating Layer inception_4d/relu_5x5
I1124 23:01:36.823362 23711 net.cpp:454] inception_4d/relu_5x5 <- inception_4d/5x5
I1124 23:01:36.823369 23711 net.cpp:397] inception_4d/relu_5x5 -> inception_4d/5x5 (in-place)
I1124 23:01:36.823854 23711 net.cpp:150] Setting up inception_4d/relu_5x5
I1124 23:01:36.823865 23711 net.cpp:157] Top shape: 64 64 14 14 (802816)
I1124 23:01:36.823868 23711 net.cpp:165] Memory required for data: 3028999984
I1124 23:01:36.823871 23711 layer_factory.hpp:76] Creating layer inception_4d/pool
I1124 23:01:36.823879 23711 net.cpp:106] Creating Layer inception_4d/pool
I1124 23:01:36.823882 23711 net.cpp:454] inception_4d/pool <- inception_4c/output_inception_4c/output_0_split_3
I1124 23:01:36.823892 23711 net.cpp:411] inception_4d/pool -> inception_4d/pool
I1124 23:01:36.824283 23711 net.cpp:150] Setting up inception_4d/pool
I1124 23:01:36.824295 23711 net.cpp:157] Top shape: 64 512 14 14 (6422528)
I1124 23:01:36.824297 23711 net.cpp:165] Memory required for data: 3054690096
I1124 23:01:36.824301 23711 layer_factory.hpp:76] Creating layer inception_4d/pool_proj
I1124 23:01:36.824311 23711 net.cpp:106] Creating Layer inception_4d/pool_proj
I1124 23:01:36.824314 23711 net.cpp:454] inception_4d/pool_proj <- inception_4d/pool
I1124 23:01:36.824321 23711 net.cpp:411] inception_4d/pool_proj -> inception_4d/pool_proj
I1124 23:01:36.825600 23711 net.cpp:150] Setting up inception_4d/pool_proj
I1124 23:01:36.825613 23711 net.cpp:157] Top shape: 64 64 14 14 (802816)
I1124 23:01:36.825615 23711 net.cpp:165] Memory required for data: 3057901360
I1124 23:01:36.825621 23711 layer_factory.hpp:76] Creating layer inception_4d/relu_pool_proj
I1124 23:01:36.825628 23711 net.cpp:106] Creating Layer inception_4d/relu_pool_proj
I1124 23:01:36.825631 23711 net.cpp:454] inception_4d/relu_pool_proj <- inception_4d/pool_proj
I1124 23:01:36.825639 23711 net.cpp:397] inception_4d/relu_pool_proj -> inception_4d/pool_proj (in-place)
I1124 23:01:36.825992 23711 net.cpp:150] Setting up inception_4d/relu_pool_proj
I1124 23:01:36.826004 23711 net.cpp:157] Top shape: 64 64 14 14 (802816)
I1124 23:01:36.826006 23711 net.cpp:165] Memory required for data: 3061112624
I1124 23:01:36.826009 23711 layer_factory.hpp:76] Creating layer inception_4d/output
I1124 23:01:36.826016 23711 net.cpp:106] Creating Layer inception_4d/output
I1124 23:01:36.826020 23711 net.cpp:454] inception_4d/output <- inception_4d/1x1
I1124 23:01:36.826025 23711 net.cpp:454] inception_4d/output <- inception_4d/3x3
I1124 23:01:36.826028 23711 net.cpp:454] inception_4d/output <- inception_4d/5x5
I1124 23:01:36.826032 23711 net.cpp:454] inception_4d/output <- inception_4d/pool_proj
I1124 23:01:36.826038 23711 net.cpp:411] inception_4d/output -> inception_4d/output
I1124 23:01:36.826067 23711 net.cpp:150] Setting up inception_4d/output
I1124 23:01:36.826072 23711 net.cpp:157] Top shape: 64 528 14 14 (6623232)
I1124 23:01:36.826076 23711 net.cpp:165] Memory required for data: 3087605552
I1124 23:01:36.826078 23711 layer_factory.hpp:76] Creating layer inception_4d/output_inception_4d/output_0_split
I1124 23:01:36.826084 23711 net.cpp:106] Creating Layer inception_4d/output_inception_4d/output_0_split
I1124 23:01:36.826087 23711 net.cpp:454] inception_4d/output_inception_4d/output_0_split <- inception_4d/output
I1124 23:01:36.826092 23711 net.cpp:411] inception_4d/output_inception_4d/output_0_split -> inception_4d/output_inception_4d/output_0_split_0
I1124 23:01:36.826100 23711 net.cpp:411] inception_4d/output_inception_4d/output_0_split -> inception_4d/output_inception_4d/output_0_split_1
I1124 23:01:36.826107 23711 net.cpp:411] inception_4d/output_inception_4d/output_0_split -> inception_4d/output_inception_4d/output_0_split_2
I1124 23:01:36.826112 23711 net.cpp:411] inception_4d/output_inception_4d/output_0_split -> inception_4d/output_inception_4d/output_0_split_3
I1124 23:01:36.826117 23711 net.cpp:411] inception_4d/output_inception_4d/output_0_split -> inception_4d/output_inception_4d/output_0_split_4
I1124 23:01:36.826181 23711 net.cpp:150] Setting up inception_4d/output_inception_4d/output_0_split
I1124 23:01:36.826187 23711 net.cpp:157] Top shape: 64 528 14 14 (6623232)
I1124 23:01:36.826191 23711 net.cpp:157] Top shape: 64 528 14 14 (6623232)
I1124 23:01:36.826195 23711 net.cpp:157] Top shape: 64 528 14 14 (6623232)
I1124 23:01:36.826198 23711 net.cpp:157] Top shape: 64 528 14 14 (6623232)
I1124 23:01:36.826201 23711 net.cpp:157] Top shape: 64 528 14 14 (6623232)
I1124 23:01:36.826205 23711 net.cpp:165] Memory required for data: 3220070192
I1124 23:01:36.826207 23711 layer_factory.hpp:76] Creating layer loss2/ave_pool
I1124 23:01:36.826212 23711 net.cpp:106] Creating Layer loss2/ave_pool
I1124 23:01:36.826215 23711 net.cpp:454] loss2/ave_pool <- inception_4d/output_inception_4d/output_0_split_0
I1124 23:01:36.826220 23711 net.cpp:411] loss2/ave_pool -> loss2/ave_pool
I1124 23:01:36.826436 23711 net.cpp:150] Setting up loss2/ave_pool
I1124 23:01:36.826444 23711 net.cpp:157] Top shape: 64 528 4 4 (540672)
I1124 23:01:36.826447 23711 net.cpp:165] Memory required for data: 3222232880
I1124 23:01:36.826450 23711 layer_factory.hpp:76] Creating layer loss2/conv
I1124 23:01:36.826458 23711 net.cpp:106] Creating Layer loss2/conv
I1124 23:01:36.826462 23711 net.cpp:454] loss2/conv <- loss2/ave_pool
I1124 23:01:36.826468 23711 net.cpp:411] loss2/conv -> loss2/conv
I1124 23:01:36.828532 23711 net.cpp:150] Setting up loss2/conv
I1124 23:01:36.828548 23711 net.cpp:157] Top shape: 64 128 4 4 (131072)
I1124 23:01:36.828552 23711 net.cpp:165] Memory required for data: 3222757168
I1124 23:01:36.828558 23711 layer_factory.hpp:76] Creating layer loss2/relu_conv
I1124 23:01:36.828564 23711 net.cpp:106] Creating Layer loss2/relu_conv
I1124 23:01:36.828568 23711 net.cpp:454] loss2/relu_conv <- loss2/conv
I1124 23:01:36.828574 23711 net.cpp:397] loss2/relu_conv -> loss2/conv (in-place)
I1124 23:01:36.828927 23711 net.cpp:150] Setting up loss2/relu_conv
I1124 23:01:36.828938 23711 net.cpp:157] Top shape: 64 128 4 4 (131072)
I1124 23:01:36.828940 23711 net.cpp:165] Memory required for data: 3223281456
I1124 23:01:36.828944 23711 layer_factory.hpp:76] Creating layer loss2/fc
I1124 23:01:36.828951 23711 net.cpp:106] Creating Layer loss2/fc
I1124 23:01:36.828954 23711 net.cpp:454] loss2/fc <- loss2/conv
I1124 23:01:36.828961 23711 net.cpp:411] loss2/fc -> loss2/fc
I1124 23:01:36.844735 23711 net.cpp:150] Setting up loss2/fc
I1124 23:01:36.844753 23711 net.cpp:157] Top shape: 64 1024 (65536)
I1124 23:01:36.844756 23711 net.cpp:165] Memory required for data: 3223543600
I1124 23:01:36.844764 23711 layer_factory.hpp:76] Creating layer loss2/relu_fc
I1124 23:01:36.844774 23711 net.cpp:106] Creating Layer loss2/relu_fc
I1124 23:01:36.844779 23711 net.cpp:454] loss2/relu_fc <- loss2/fc
I1124 23:01:36.844785 23711 net.cpp:397] loss2/relu_fc -> loss2/fc (in-place)
I1124 23:01:36.845057 23711 net.cpp:150] Setting up loss2/relu_fc
I1124 23:01:36.845065 23711 net.cpp:157] Top shape: 64 1024 (65536)
I1124 23:01:36.845068 23711 net.cpp:165] Memory required for data: 3223805744
I1124 23:01:36.845072 23711 layer_factory.hpp:76] Creating layer loss2/drop_fc
I1124 23:01:36.845079 23711 net.cpp:106] Creating Layer loss2/drop_fc
I1124 23:01:36.845082 23711 net.cpp:454] loss2/drop_fc <- loss2/fc
I1124 23:01:36.845088 23711 net.cpp:397] loss2/drop_fc -> loss2/fc (in-place)
I1124 23:01:36.845113 23711 net.cpp:150] Setting up loss2/drop_fc
I1124 23:01:36.845118 23711 net.cpp:157] Top shape: 64 1024 (65536)
I1124 23:01:36.845120 23711 net.cpp:165] Memory required for data: 3224067888
I1124 23:01:36.845124 23711 layer_factory.hpp:76] Creating layer loss2/fc_loss2/drop_fc_0_split
I1124 23:01:36.845130 23711 net.cpp:106] Creating Layer loss2/fc_loss2/drop_fc_0_split
I1124 23:01:36.845134 23711 net.cpp:454] loss2/fc_loss2/drop_fc_0_split <- loss2/fc
I1124 23:01:36.845139 23711 net.cpp:411] loss2/fc_loss2/drop_fc_0_split -> loss2/fc_loss2/drop_fc_0_split_0
I1124 23:01:36.845145 23711 net.cpp:411] loss2/fc_loss2/drop_fc_0_split -> loss2/fc_loss2/drop_fc_0_split_1
I1124 23:01:36.845151 23711 net.cpp:411] loss2/fc_loss2/drop_fc_0_split -> loss2/fc_loss2/drop_fc_0_split_2
I1124 23:01:36.845157 23711 net.cpp:411] loss2/fc_loss2/drop_fc_0_split -> loss2/fc_loss2/drop_fc_0_split_3
I1124 23:01:36.845162 23711 net.cpp:411] loss2/fc_loss2/drop_fc_0_split -> loss2/fc_loss2/drop_fc_0_split_4
I1124 23:01:36.845167 23711 net.cpp:411] loss2/fc_loss2/drop_fc_0_split -> loss2/fc_loss2/drop_fc_0_split_5
I1124 23:01:36.845248 23711 net.cpp:150] Setting up loss2/fc_loss2/drop_fc_0_split
I1124 23:01:36.845254 23711 net.cpp:157] Top shape: 64 1024 (65536)
I1124 23:01:36.845258 23711 net.cpp:157] Top shape: 64 1024 (65536)
I1124 23:01:36.845262 23711 net.cpp:157] Top shape: 64 1024 (65536)
I1124 23:01:36.845265 23711 net.cpp:157] Top shape: 64 1024 (65536)
I1124 23:01:36.845268 23711 net.cpp:157] Top shape: 64 1024 (65536)
I1124 23:01:36.845271 23711 net.cpp:157] Top shape: 64 1024 (65536)
I1124 23:01:36.845274 23711 net.cpp:165] Memory required for data: 3225640752
I1124 23:01:36.845278 23711 layer_factory.hpp:76] Creating layer loss2/classifier-00.category
I1124 23:01:36.845284 23711 net.cpp:106] Creating Layer loss2/classifier-00.category
I1124 23:01:36.845288 23711 net.cpp:454] loss2/classifier-00.category <- loss2/fc_loss2/drop_fc_0_split_0
I1124 23:01:36.845293 23711 net.cpp:411] loss2/classifier-00.category -> loss2/classifier-00.category
I1124 23:01:36.845505 23711 net.cpp:150] Setting up loss2/classifier-00.category
I1124 23:01:36.845511 23711 net.cpp:157] Top shape: 64 16 (1024)
I1124 23:01:36.845515 23711 net.cpp:165] Memory required for data: 3225644848
I1124 23:01:36.845520 23711 layer_factory.hpp:76] Creating layer loss2/classifier-00.category_loss2/classifier-00.category_0_split
I1124 23:01:36.845526 23711 net.cpp:106] Creating Layer loss2/classifier-00.category_loss2/classifier-00.category_0_split
I1124 23:01:36.845530 23711 net.cpp:454] loss2/classifier-00.category_loss2/classifier-00.category_0_split <- loss2/classifier-00.category
I1124 23:01:36.845535 23711 net.cpp:411] loss2/classifier-00.category_loss2/classifier-00.category_0_split -> loss2/classifier-00.category_loss2/classifier-00.category_0_split_0
I1124 23:01:36.845541 23711 net.cpp:411] loss2/classifier-00.category_loss2/classifier-00.category_0_split -> loss2/classifier-00.category_loss2/classifier-00.category_0_split_1
I1124 23:01:36.845571 23711 net.cpp:150] Setting up loss2/classifier-00.category_loss2/classifier-00.category_0_split
I1124 23:01:36.845577 23711 net.cpp:157] Top shape: 64 16 (1024)
I1124 23:01:36.845579 23711 net.cpp:157] Top shape: 64 16 (1024)
I1124 23:01:36.845582 23711 net.cpp:165] Memory required for data: 3225653040
I1124 23:01:36.845585 23711 layer_factory.hpp:76] Creating layer loss2/loss_00.category
I1124 23:01:36.845590 23711 net.cpp:106] Creating Layer loss2/loss_00.category
I1124 23:01:36.845593 23711 net.cpp:454] loss2/loss_00.category <- loss2/classifier-00.category_loss2/classifier-00.category_0_split_0
I1124 23:01:36.845598 23711 net.cpp:454] loss2/loss_00.category <- 00.category_slice_attribute_0_split_2
…
I1124 23:01:36.850430 23711 net.cpp:150] Setting up loss2_21.color/top-1
I1124 23:01:36.850435 23711 net.cpp:157] Top shape: (1)
I1124 23:01:36.850437 23711 net.cpp:165] Memory required for data: 3225709920
I1124 23:01:36.850440 23711 layer_factory.hpp:76] Creating layer inception_4e/1x1
I1124 23:01:36.850450 23711 net.cpp:106] Creating Layer inception_4e/1x1
I1124 23:01:36.850455 23711 net.cpp:454] inception_4e/1x1 <- inception_4d/output_inception_4d/output_0_split_1
I1124 23:01:36.850461 23711 net.cpp:411] inception_4e/1x1 -> inception_4e/1x1
I1124 23:01:36.852563 23711 net.cpp:150] Setting up inception_4e/1x1
I1124 23:01:36.852576 23711 net.cpp:157] Top shape: 64 256 14 14 (3211264)
I1124 23:01:36.852579 23711 net.cpp:165] Memory required for data: 3238554976
I1124 23:01:36.852586 23711 layer_factory.hpp:76] Creating layer inception_4e/relu_1x1
I1124 23:01:36.852591 23711 net.cpp:106] Creating Layer inception_4e/relu_1x1
I1124 23:01:36.852596 23711 net.cpp:454] inception_4e/relu_1x1 <- inception_4e/1x1
I1124 23:01:36.852602 23711 net.cpp:397] inception_4e/relu_1x1 -> inception_4e/1x1 (in-place)
I1124 23:01:36.852954 23711 net.cpp:150] Setting up inception_4e/relu_1x1
I1124 23:01:36.852965 23711 net.cpp:157] Top shape: 64 256 14 14 (3211264)
I1124 23:01:36.852968 23711 net.cpp:165] Memory required for data: 3251400032
I1124 23:01:36.852972 23711 layer_factory.hpp:76] Creating layer inception_4e/3x3_reduce
I1124 23:01:36.852982 23711 net.cpp:106] Creating Layer inception_4e/3x3_reduce
I1124 23:01:36.852987 23711 net.cpp:454] inception_4e/3x3_reduce <- inception_4d/output_inception_4d/output_0_split_2
I1124 23:01:36.852993 23711 net.cpp:411] inception_4e/3x3_reduce -> inception_4e/3x3_reduce
I1124 23:01:36.855258 23711 net.cpp:150] Setting up inception_4e/3x3_reduce
I1124 23:01:36.855273 23711 net.cpp:157] Top shape: 64 160 14 14 (2007040)
I1124 23:01:36.855276 23711 net.cpp:165] Memory required for data: 3259428192
I1124 23:01:36.855283 23711 layer_factory.hpp:76] Creating layer inception_4e/relu_3x3_reduce
I1124 23:01:36.855289 23711 net.cpp:106] Creating Layer inception_4e/relu_3x3_reduce
I1124 23:01:36.855295 23711 net.cpp:454] inception_4e/relu_3x3_reduce <- inception_4e/3x3_reduce
I1124 23:01:36.855301 23711 net.cpp:397] inception_4e/relu_3x3_reduce -> inception_4e/3x3_reduce (in-place)
I1124 23:01:36.855633 23711 net.cpp:150] Setting up inception_4e/relu_3x3_reduce
I1124 23:01:36.855641 23711 net.cpp:157] Top shape: 64 160 14 14 (2007040)
I1124 23:01:36.855645 23711 net.cpp:165] Memory required for data: 3267456352
I1124 23:01:36.855648 23711 layer_factory.hpp:76] Creating layer inception_4e/3x3
I1124 23:01:36.855656 23711 net.cpp:106] Creating Layer inception_4e/3x3
I1124 23:01:36.855661 23711 net.cpp:454] inception_4e/3x3 <- inception_4e/3x3_reduce
I1124 23:01:36.855667 23711 net.cpp:411] inception_4e/3x3 -> inception_4e/3x3
I1124 23:01:36.860576 23711 net.cpp:150] Setting up inception_4e/3x3
I1124 23:01:36.860594 23711 net.cpp:157] Top shape: 64 320 14 14 (4014080)
I1124 23:01:36.860597 23711 net.cpp:165] Memory required for data: 3283512672
I1124 23:01:36.860605 23711 layer_factory.hpp:76] Creating layer inception_4e/relu_3x3
I1124 23:01:36.860615 23711 net.cpp:106] Creating Layer inception_4e/relu_3x3
I1124 23:01:36.860620 23711 net.cpp:454] inception_4e/relu_3x3 <- inception_4e/3x3
I1124 23:01:36.860626 23711 net.cpp:397] inception_4e/relu_3x3 -> inception_4e/3x3 (in-place)
I1124 23:01:36.860831 23711 net.cpp:150] Setting up inception_4e/relu_3x3
I1124 23:01:36.860838 23711 net.cpp:157] Top shape: 64 320 14 14 (4014080)
I1124 23:01:36.860841 23711 net.cpp:165] Memory required for data: 3299568992
I1124 23:01:36.860844 23711 layer_factory.hpp:76] Creating layer inception_4e/5x5_reduce
I1124 23:01:36.860858 23711 net.cpp:106] Creating Layer inception_4e/5x5_reduce
I1124 23:01:36.860863 23711 net.cpp:454] inception_4e/5x5_reduce <- inception_4d/output_inception_4d/output_0_split_3
I1124 23:01:36.860869 23711 net.cpp:411] inception_4e/5x5_reduce -> inception_4e/5x5_reduce
I1124 23:01:36.862357 23711 net.cpp:150] Setting up inception_4e/5x5_reduce
I1124 23:01:36.862370 23711 net.cpp:157] Top shape: 64 32 14 14 (401408)
I1124 23:01:36.862373 23711 net.cpp:165] Memory required for data: 3301174624
I1124 23:01:36.862380 23711 layer_factory.hpp:76] Creating layer inception_4e/relu_5x5_reduce
I1124 23:01:36.862385 23711 net.cpp:106] Creating Layer inception_4e/relu_5x5_reduce
I1124 23:01:36.862390 23711 net.cpp:454] inception_4e/relu_5x5_reduce <- inception_4e/5x5_reduce
I1124 23:01:36.862396 23711 net.cpp:397] inception_4e/relu_5x5_reduce -> inception_4e/5x5_reduce (in-place)
I1124 23:01:36.862779 23711 net.cpp:150] Setting up inception_4e/relu_5x5_reduce
I1124 23:01:36.862790 23711 net.cpp:157] Top shape: 64 32 14 14 (401408)
I1124 23:01:36.862793 23711 net.cpp:165] Memory required for data: 3302780256
I1124 23:01:36.862797 23711 layer_factory.hpp:76] Creating layer inception_4e/5x5
I1124 23:01:36.862807 23711 net.cpp:106] Creating Layer inception_4e/5x5
I1124 23:01:36.862810 23711 net.cpp:454] inception_4e/5x5 <- inception_4e/5x5_reduce
I1124 23:01:36.862824 23711 net.cpp:411] inception_4e/5x5 -> inception_4e/5x5
I1124 23:01:36.864693 23711 net.cpp:150] Setting up inception_4e/5x5
I1124 23:01:36.864706 23711 net.cpp:157] Top shape: 64 128 14 14 (1605632)
I1124 23:01:36.864709 23711 net.cpp:165] Memory required for data: 3309202784
I1124 23:01:36.864717 23711 layer_factory.hpp:76] Creating layer inception_4e/relu_5x5
I1124 23:01:36.864722 23711 net.cpp:106] Creating Layer inception_4e/relu_5x5
I1124 23:01:36.864727 23711 net.cpp:454] inception_4e/relu_5x5 <- inception_4e/5x5
I1124 23:01:36.864733 23711 net.cpp:397] inception_4e/relu_5x5 -> inception_4e/5x5 (in-place)
I1124 23:01:36.864934 23711 net.cpp:150] Setting up inception_4e/relu_5x5
I1124 23:01:36.864943 23711 net.cpp:157] Top shape: 64 128 14 14 (1605632)
I1124 23:01:36.864945 23711 net.cpp:165] Memory required for data: 3315625312
I1124 23:01:36.864948 23711 layer_factory.hpp:76] Creating layer inception_4e/pool
I1124 23:01:36.864955 23711 net.cpp:106] Creating Layer inception_4e/pool
I1124 23:01:36.864960 23711 net.cpp:454] inception_4e/pool <- inception_4d/output_inception_4d/output_0_split_4
I1124 23:01:36.864965 23711 net.cpp:411] inception_4e/pool -> inception_4e/pool
I1124 23:01:36.865380 23711 net.cpp:150] Setting up inception_4e/pool
I1124 23:01:36.865391 23711 net.cpp:157] Top shape: 64 528 14 14 (6623232)
I1124 23:01:36.865393 23711 net.cpp:165] Memory required for data: 3342118240
I1124 23:01:36.865396 23711 layer_factory.hpp:76] Creating layer inception_4e/pool_proj
I1124 23:01:36.865406 23711 net.cpp:106] Creating Layer inception_4e/pool_proj
I1124 23:01:36.865411 23711 net.cpp:454] inception_4e/pool_proj <- inception_4e/pool
I1124 23:01:36.865417 23711 net.cpp:411] inception_4e/pool_proj -> inception_4e/pool_proj
I1124 23:01:36.866909 23711 net.cpp:150] Setting up inception_4e/pool_proj
I1124 23:01:36.866921 23711 net.cpp:157] Top shape: 64 128 14 14 (1605632)
I1124 23:01:36.866925 23711 net.cpp:165] Memory required for data: 3348540768
I1124 23:01:36.866932 23711 layer_factory.hpp:76] Creating layer inception_4e/relu_pool_proj
I1124 23:01:36.866940 23711 net.cpp:106] Creating Layer inception_4e/relu_pool_proj
I1124 23:01:36.866945 23711 net.cpp:454] inception_4e/relu_pool_proj <- inception_4e/pool_proj
I1124 23:01:36.866950 23711 net.cpp:397] inception_4e/relu_pool_proj -> inception_4e/pool_proj (in-place)
I1124 23:01:36.867319 23711 net.cpp:150] Setting up inception_4e/relu_pool_proj
I1124 23:01:36.867331 23711 net.cpp:157] Top shape: 64 128 14 14 (1605632)
I1124 23:01:36.867333 23711 net.cpp:165] Memory required for data: 3354963296
I1124 23:01:36.867337 23711 layer_factory.hpp:76] Creating layer inception_4e/output
I1124 23:01:36.867343 23711 net.cpp:106] Creating Layer inception_4e/output
I1124 23:01:36.867347 23711 net.cpp:454] inception_4e/output <- inception_4e/1x1
I1124 23:01:36.867352 23711 net.cpp:454] inception_4e/output <- inception_4e/3x3
I1124 23:01:36.867357 23711 net.cpp:454] inception_4e/output <- inception_4e/5x5
I1124 23:01:36.867360 23711 net.cpp:454] inception_4e/output <- inception_4e/pool_proj
I1124 23:01:36.867367 23711 net.cpp:411] inception_4e/output -> inception_4e/output
I1124 23:01:36.867395 23711 net.cpp:150] Setting up inception_4e/output
I1124 23:01:36.867400 23711 net.cpp:157] Top shape: 64 832 14 14 (10436608)
I1124 23:01:36.867403 23711 net.cpp:165] Memory required for data: 3396709728
I1124 23:01:36.867406 23711 layer_factory.hpp:76] Creating layer pool4/3x3_s2
I1124 23:01:36.867413 23711 net.cpp:106] Creating Layer pool4/3x3_s2
I1124 23:01:36.867418 23711 net.cpp:454] pool4/3x3_s2 <- inception_4e/output
I1124 23:01:36.867422 23711 net.cpp:411] pool4/3x3_s2 -> pool4/3x3_s2
I1124 23:01:36.867818 23711 net.cpp:150] Setting up pool4/3x3_s2
I1124 23:01:36.867830 23711 net.cpp:157] Top shape: 64 832 7 7 (2609152)
I1124 23:01:36.867832 23711 net.cpp:165] Memory required for data: 3407146336
I1124 23:01:36.867835 23711 layer_factory.hpp:76] Creating layer pool4/3x3_s2_pool4/3x3_s2_0_split
I1124 23:01:36.867842 23711 net.cpp:106] Creating Layer pool4/3x3_s2_pool4/3x3_s2_0_split
I1124 23:01:36.867846 23711 net.cpp:454] pool4/3x3_s2_pool4/3x3_s2_0_split <- pool4/3x3_s2
I1124 23:01:36.867851 23711 net.cpp:411] pool4/3x3_s2_pool4/3x3_s2_0_split -> pool4/3x3_s2_pool4/3x3_s2_0_split_0
I1124 23:01:36.867859 23711 net.cpp:411] pool4/3x3_s2_pool4/3x3_s2_0_split -> pool4/3x3_s2_pool4/3x3_s2_0_split_1
I1124 23:01:36.867866 23711 net.cpp:411] pool4/3x3_s2_pool4/3x3_s2_0_split -> pool4/3x3_s2_pool4/3x3_s2_0_split_2
I1124 23:01:36.867871 23711 net.cpp:411] pool4/3x3_s2_pool4/3x3_s2_0_split -> pool4/3x3_s2_pool4/3x3_s2_0_split_3
I1124 23:01:36.867928 23711 net.cpp:150] Setting up pool4/3x3_s2_pool4/3x3_s2_0_split
I1124 23:01:36.867933 23711 net.cpp:157] Top shape: 64 832 7 7 (2609152)
I1124 23:01:36.867936 23711 net.cpp:157] Top shape: 64 832 7 7 (2609152)
I1124 23:01:36.867939 23711 net.cpp:157] Top shape: 64 832 7 7 (2609152)
I1124 23:01:36.867943 23711 net.cpp:157] Top shape: 64 832 7 7 (2609152)
I1124 23:01:36.867945 23711 net.cpp:165] Memory required for data: 3448892768
I1124 23:01:36.867949 23711 layer_factory.hpp:76] Creating layer inception_5a/1x1
I1124 23:01:36.867956 23711 net.cpp:106] Creating Layer inception_5a/1x1
I1124 23:01:36.867960 23711 net.cpp:454] inception_5a/1x1 <- pool4/3x3_s2_pool4/3x3_s2_0_split_0
I1124 23:01:36.867967 23711 net.cpp:411] inception_5a/1x1 -> inception_5a/1x1
I1124 23:01:36.870837 23711 net.cpp:150] Setting up inception_5a/1x1
I1124 23:01:36.870851 23711 net.cpp:157] Top shape: 64 256 7 7 (802816)
I1124 23:01:36.870853 23711 net.cpp:165] Memory required for data: 3452104032
I1124 23:01:36.870859 23711 layer_factory.hpp:76] Creating layer inception_5a/relu_1x1
I1124 23:01:36.870865 23711 net.cpp:106] Creating Layer inception_5a/relu_1x1
I1124 23:01:36.870874 23711 net.cpp:454] inception_5a/relu_1x1 <- inception_5a/1x1
I1124 23:01:36.870882 23711 net.cpp:397] inception_5a/relu_1x1 -> inception_5a/1x1 (in-place)
I1124 23:01:36.871271 23711 net.cpp:150] Setting up inception_5a/relu_1x1
I1124 23:01:36.871284 23711 net.cpp:157] Top shape: 64 256 7 7 (802816)
I1124 23:01:36.871286 23711 net.cpp:165] Memory required for data: 3455315296
I1124 23:01:36.871289 23711 layer_factory.hpp:76] Creating layer inception_5a/3x3_reduce
I1124 23:01:36.871299 23711 net.cpp:106] Creating Layer inception_5a/3x3_reduce
I1124 23:01:36.871304 23711 net.cpp:454] inception_5a/3x3_reduce <- pool4/3x3_s2_pool4/3x3_s2_0_split_1
I1124 23:01:36.871311 23711 net.cpp:411] inception_5a/3x3_reduce -> inception_5a/3x3_reduce
I1124 23:01:36.873926 23711 net.cpp:150] Setting up inception_5a/3x3_reduce
I1124 23:01:36.873946 23711 net.cpp:157] Top shape: 64 160 7 7 (501760)
I1124 23:01:36.873950 23711 net.cpp:165] Memory required for data: 3457322336
I1124 23:01:36.873957 23711 layer_factory.hpp:76] Creating layer inception_5a/relu_3x3_reduce
I1124 23:01:36.873965 23711 net.cpp:106] Creating Layer inception_5a/relu_3x3_reduce
I1124 23:01:36.873972 23711 net.cpp:454] inception_5a/relu_3x3_reduce <- inception_5a/3x3_reduce
I1124 23:01:36.873980 23711 net.cpp:397] inception_5a/relu_3x3_reduce -> inception_5a/3x3_reduce (in-place)
I1124 23:01:36.874212 23711 net.cpp:150] Setting up inception_5a/relu_3x3_reduce
I1124 23:01:36.874222 23711 net.cpp:157] Top shape: 64 160 7 7 (501760)
I1124 23:01:36.874225 23711 net.cpp:165] Memory required for data: 3459329376
I1124 23:01:36.874228 23711 layer_factory.hpp:76] Creating layer inception_5a/3x3
I1124 23:01:36.874238 23711 net.cpp:106] Creating Layer inception_5a/3x3
I1124 23:01:36.874241 23711 net.cpp:454] inception_5a/3x3 <- inception_5a/3x3_reduce
I1124 23:01:36.874248 23711 net.cpp:411] inception_5a/3x3 -> inception_5a/3x3
I1124 23:01:36.879207 23711 net.cpp:150] Setting up inception_5a/3x3
I1124 23:01:36.879225 23711 net.cpp:157] Top shape: 64 320 7 7 (1003520)
I1124 23:01:36.879230 23711 net.cpp:165] Memory required for data: 3463343456
I1124 23:01:36.879236 23711 layer_factory.hpp:76] Creating layer inception_5a/relu_3x3
I1124 23:01:36.879245 23711 net.cpp:106] Creating Layer inception_5a/relu_3x3
I1124 23:01:36.879251 23711 net.cpp:454] inception_5a/relu_3x3 <- inception_5a/3x3
I1124 23:01:36.879258 23711 net.cpp:397] inception_5a/relu_3x3 -> inception_5a/3x3 (in-place)
I1124 23:01:36.879628 23711 net.cpp:150] Setting up inception_5a/relu_3x3
I1124 23:01:36.879639 23711 net.cpp:157] Top shape: 64 320 7 7 (1003520)
I1124 23:01:36.879642 23711 net.cpp:165] Memory required for data: 3467357536
I1124 23:01:36.879647 23711 layer_factory.hpp:76] Creating layer inception_5a/5x5_reduce
I1124 23:01:36.879657 23711 net.cpp:106] Creating Layer inception_5a/5x5_reduce
I1124 23:01:36.879662 23711 net.cpp:454] inception_5a/5x5_reduce <- pool4/3x3_s2_pool4/3x3_s2_0_split_2
I1124 23:01:36.879670 23711 net.cpp:411] inception_5a/5x5_reduce -> inception_5a/5x5_reduce
I1124 23:01:36.880941 23711 net.cpp:150] Setting up inception_5a/5x5_reduce
I1124 23:01:36.880954 23711 net.cpp:157] Top shape: 64 32 7 7 (100352)
I1124 23:01:36.880956 23711 net.cpp:165] Memory required for data: 3467758944
I1124 23:01:36.880986 23711 layer_factory.hpp:76] Creating layer inception_5a/relu_5x5_reduce
I1124 23:01:36.880993 23711 net.cpp:106] Creating Layer inception_5a/relu_5x5_reduce
I1124 23:01:36.880998 23711 net.cpp:454] inception_5a/relu_5x5_reduce <- inception_5a/5x5_reduce
I1124 23:01:36.881003 23711 net.cpp:397] inception_5a/relu_5x5_reduce -> inception_5a/5x5_reduce (in-place)
I1124 23:01:36.881368 23711 net.cpp:150] Setting up inception_5a/relu_5x5_reduce
I1124 23:01:36.881381 23711 net.cpp:157] Top shape: 64 32 7 7 (100352)
I1124 23:01:36.881384 23711 net.cpp:165] Memory required for data: 3468160352
I1124 23:01:36.881387 23711 layer_factory.hpp:76] Creating layer inception_5a/5x5
I1124 23:01:36.881395 23711 net.cpp:106] Creating Layer inception_5a/5x5
I1124 23:01:36.881399 23711 net.cpp:454] inception_5a/5x5 <- inception_5a/5x5_reduce
I1124 23:01:36.881407 23711 net.cpp:411] inception_5a/5x5 -> inception_5a/5x5
I1124 23:01:36.883326 23711 net.cpp:150] Setting up inception_5a/5x5
I1124 23:01:36.883338 23711 net.cpp:157] Top shape: 64 128 7 7 (401408)
I1124 23:01:36.883342 23711 net.cpp:165] Memory required for data: 3469765984
I1124 23:01:36.883347 23711 layer_factory.hpp:76] Creating layer inception_5a/relu_5x5
I1124 23:01:36.883354 23711 net.cpp:106] Creating Layer inception_5a/relu_5x5
I1124 23:01:36.883359 23711 net.cpp:454] inception_5a/relu_5x5 <- inception_5a/5x5
I1124 23:01:36.883364 23711 net.cpp:397] inception_5a/relu_5x5 -> inception_5a/5x5 (in-place)
I1124 23:01:36.883568 23711 net.cpp:150] Setting up inception_5a/relu_5x5
I1124 23:01:36.883577 23711 net.cpp:157] Top shape: 64 128 7 7 (401408)
I1124 23:01:36.883580 23711 net.cpp:165] Memory required for data: 3471371616
I1124 23:01:36.883584 23711 layer_factory.hpp:76] Creating layer inception_5a/pool
I1124 23:01:36.883589 23711 net.cpp:106] Creating Layer inception_5a/pool
I1124 23:01:36.883594 23711 net.cpp:454] inception_5a/pool <- pool4/3x3_s2_pool4/3x3_s2_0_split_3
I1124 23:01:36.883600 23711 net.cpp:411] inception_5a/pool -> inception_5a/pool
I1124 23:01:36.884136 23711 net.cpp:150] Setting up inception_5a/pool
I1124 23:01:36.884148 23711 net.cpp:157] Top shape: 64 832 7 7 (2609152)
I1124 23:01:36.884151 23711 net.cpp:165] Memory required for data: 3481808224
I1124 23:01:36.884155 23711 layer_factory.hpp:76] Creating layer inception_5a/pool_proj
I1124 23:01:36.884165 23711 net.cpp:106] Creating Layer inception_5a/pool_proj
I1124 23:01:36.884168 23711 net.cpp:454] inception_5a/pool_proj <- inception_5a/pool
I1124 23:01:36.884174 23711 net.cpp:411] inception_5a/pool_proj -> inception_5a/pool_proj
I1124 23:01:36.886528 23711 net.cpp:150] Setting up inception_5a/pool_proj
I1124 23:01:36.886540 23711 net.cpp:157] Top shape: 64 128 7 7 (401408)
I1124 23:01:36.886544 23711 net.cpp:165] Memory required for data: 3483413856
I1124 23:01:36.886550 23711 layer_factory.hpp:76] Creating layer inception_5a/relu_pool_proj
I1124 23:01:36.886556 23711 net.cpp:106] Creating Layer inception_5a/relu_pool_proj
I1124 23:01:36.886561 23711 net.cpp:454] inception_5a/relu_pool_proj <- inception_5a/pool_proj
I1124 23:01:36.886567 23711 net.cpp:397] inception_5a/relu_pool_proj -> inception_5a/pool_proj (in-place)
I1124 23:01:36.886777 23711 net.cpp:150] Setting up inception_5a/relu_pool_proj
I1124 23:01:36.886785 23711 net.cpp:157] Top shape: 64 128 7 7 (401408)
I1124 23:01:36.886788 23711 net.cpp:165] Memory required for data: 3485019488
I1124 23:01:36.886791 23711 layer_factory.hpp:76] Creating layer inception_5a/output
I1124 23:01:36.886798 23711 net.cpp:106] Creating Layer inception_5a/output
I1124 23:01:36.886802 23711 net.cpp:454] inception_5a/output <- inception_5a/1x1
I1124 23:01:36.886807 23711 net.cpp:454] inception_5a/output <- inception_5a/3x3
I1124 23:01:36.886811 23711 net.cpp:454] inception_5a/output <- inception_5a/5x5
I1124 23:01:36.886814 23711 net.cpp:454] inception_5a/output <- inception_5a/pool_proj
I1124 23:01:36.886819 23711 net.cpp:411] inception_5a/output -> inception_5a/output
I1124 23:01:36.886850 23711 net.cpp:150] Setting up inception_5a/output
I1124 23:01:36.886857 23711 net.cpp:157] Top shape: 64 832 7 7 (2609152)
I1124 23:01:36.886858 23711 net.cpp:165] Memory required for data: 3495456096
I1124 23:01:36.886862 23711 layer_factory.hpp:76] Creating layer inception_5a/output_inception_5a/output_0_split
I1124 23:01:36.886868 23711 net.cpp:106] Creating Layer inception_5a/output_inception_5a/output_0_split
I1124 23:01:36.886876 23711 net.cpp:454] inception_5a/output_inception_5a/output_0_split <- inception_5a/output
I1124 23:01:36.886883 23711 net.cpp:411] inception_5a/output_inception_5a/output_0_split -> inception_5a/output_inception_5a/output_0_split_0
I1124 23:01:36.886889 23711 net.cpp:411] inception_5a/output_inception_5a/output_0_split -> inception_5a/output_inception_5a/output_0_split_1
I1124 23:01:36.886894 23711 net.cpp:411] inception_5a/output_inception_5a/output_0_split -> inception_5a/output_inception_5a/output_0_split_2
I1124 23:01:36.886900 23711 net.cpp:411] inception_5a/output_inception_5a/output_0_split -> inception_5a/output_inception_5a/output_0_split_3
I1124 23:01:36.886960 23711 net.cpp:150] Setting up inception_5a/output_inception_5a/output_0_split
I1124 23:01:36.886966 23711 net.cpp:157] Top shape: 64 832 7 7 (2609152)
I1124 23:01:36.886970 23711 net.cpp:157] Top shape: 64 832 7 7 (2609152)
I1124 23:01:36.886973 23711 net.cpp:157] Top shape: 64 832 7 7 (2609152)
I1124 23:01:36.886977 23711 net.cpp:157] Top shape: 64 832 7 7 (2609152)
I1124 23:01:36.886979 23711 net.cpp:165] Memory required for data: 3537202528
I1124 23:01:36.886982 23711 layer_factory.hpp:76] Creating layer inception_5b/1x1
I1124 23:01:36.886989 23711 net.cpp:106] Creating Layer inception_5b/1x1
I1124 23:01:36.886993 23711 net.cpp:454] inception_5b/1x1 <- inception_5a/output_inception_5a/output_0_split_0
I1124 23:01:36.886999 23711 net.cpp:411] inception_5b/1x1 -> inception_5b/1x1
I1124 23:01:36.890732 23711 net.cpp:150] Setting up inception_5b/1x1
I1124 23:01:36.890745 23711 net.cpp:157] Top shape: 64 384 7 7 (1204224)
I1124 23:01:36.890749 23711 net.cpp:165] Memory required for data: 3542019424
I1124 23:01:36.890755 23711 layer_factory.hpp:76] Creating layer inception_5b/relu_1x1
I1124 23:01:36.890761 23711 net.cpp:106] Creating Layer inception_5b/relu_1x1
I1124 23:01:36.890766 23711 net.cpp:454] inception_5b/relu_1x1 <- inception_5b/1x1
I1124 23:01:36.890771 23711 net.cpp:397] inception_5b/relu_1x1 -> inception_5b/1x1 (in-place)
I1124 23:01:36.890990 23711 net.cpp:150] Setting up inception_5b/relu_1x1
I1124 23:01:36.890998 23711 net.cpp:157] Top shape: 64 384 7 7 (1204224)
I1124 23:01:36.891001 23711 net.cpp:165] Memory required for data: 3546836320
I1124 23:01:36.891005 23711 layer_factory.hpp:76] Creating layer inception_5b/3x3_reduce
I1124 23:01:36.891015 23711 net.cpp:106] Creating Layer inception_5b/3x3_reduce
I1124 23:01:36.891018 23711 net.cpp:454] inception_5b/3x3_reduce <- inception_5a/output_inception_5a/output_0_split_1
I1124 23:01:36.891026 23711 net.cpp:411] inception_5b/3x3_reduce -> inception_5b/3x3_reduce
I1124 23:01:36.893679 23711 net.cpp:150] Setting up inception_5b/3x3_reduce
I1124 23:01:36.893692 23711 net.cpp:157] Top shape: 64 192 7 7 (602112)
I1124 23:01:36.893695 23711 net.cpp:165] Memory required for data: 3549244768
I1124 23:01:36.893702 23711 layer_factory.hpp:76] Creating layer inception_5b/relu_3x3_reduce
I1124 23:01:36.893708 23711 net.cpp:106] Creating Layer inception_5b/relu_3x3_reduce
I1124 23:01:36.893713 23711 net.cpp:454] inception_5b/relu_3x3_reduce <- inception_5b/3x3_reduce
I1124 23:01:36.893718 23711 net.cpp:397] inception_5b/relu_3x3_reduce -> inception_5b/3x3_reduce (in-place)
I1124 23:01:36.894095 23711 net.cpp:150] Setting up inception_5b/relu_3x3_reduce
I1124 23:01:36.894106 23711 net.cpp:157] Top shape: 64 192 7 7 (602112)
I1124 23:01:36.894109 23711 net.cpp:165] Memory required for data: 3551653216
I1124 23:01:36.894114 23711 layer_factory.hpp:76] Creating layer inception_5b/3x3
I1124 23:01:36.894122 23711 net.cpp:106] Creating Layer inception_5b/3x3
I1124 23:01:36.894126 23711 net.cpp:454] inception_5b/3x3 <- inception_5b/3x3_reduce
I1124 23:01:36.894134 23711 net.cpp:411] inception_5b/3x3 -> inception_5b/3x3
I1124 23:01:36.900398 23711 net.cpp:150] Setting up inception_5b/3x3
I1124 23:01:36.900411 23711 net.cpp:157] Top shape: 64 384 7 7 (1204224)
I1124 23:01:36.900414 23711 net.cpp:165] Memory required for data: 3556470112
I1124 23:01:36.900421 23711 layer_factory.hpp:76] Creating layer inception_5b/relu_3x3
I1124 23:01:36.900429 23711 net.cpp:106] Creating Layer inception_5b/relu_3x3
I1124 23:01:36.900434 23711 net.cpp:454] inception_5b/relu_3x3 <- inception_5b/3x3
I1124 23:01:36.900439 23711 net.cpp:397] inception_5b/relu_3x3 -> inception_5b/3x3 (in-place)
I1124 23:01:36.900645 23711 net.cpp:150] Setting up inception_5b/relu_3x3
I1124 23:01:36.900652 23711 net.cpp:157] Top shape: 64 384 7 7 (1204224)
I1124 23:01:36.900655 23711 net.cpp:165] Memory required for data: 3561287008
I1124 23:01:36.900658 23711 layer_factory.hpp:76] Creating layer inception_5b/5x5_reduce
I1124 23:01:36.900667 23711 net.cpp:106] Creating Layer inception_5b/5x5_reduce
I1124 23:01:36.900672 23711 net.cpp:454] inception_5b/5x5_reduce <- inception_5a/output_inception_5a/output_0_split_2
I1124 23:01:36.900679 23711 net.cpp:411] inception_5b/5x5_reduce -> inception_5b/5x5_reduce
I1124 23:01:36.902179 23711 net.cpp:150] Setting up inception_5b/5x5_reduce
I1124 23:01:36.902190 23711 net.cpp:157] Top shape: 64 48 7 7 (150528)
I1124 23:01:36.902194 23711 net.cpp:165] Memory required for data: 3561889120
I1124 23:01:36.902199 23711 layer_factory.hpp:76] Creating layer inception_5b/relu_5x5_reduce
I1124 23:01:36.902206 23711 net.cpp:106] Creating Layer inception_5b/relu_5x5_reduce
I1124 23:01:36.902211 23711 net.cpp:454] inception_5b/relu_5x5_reduce <- inception_5b/5x5_reduce
I1124 23:01:36.902216 23711 net.cpp:397] inception_5b/relu_5x5_reduce -> inception_5b/5x5_reduce (in-place)
I1124 23:01:36.902426 23711 net.cpp:150] Setting up inception_5b/relu_5x5_reduce
I1124 23:01:36.902434 23711 net.cpp:157] Top shape: 64 48 7 7 (150528)
I1124 23:01:36.902437 23711 net.cpp:165] Memory required for data: 3562491232
I1124 23:01:36.902441 23711 layer_factory.hpp:76] Creating layer inception_5b/5x5
I1124 23:01:36.902452 23711 net.cpp:106] Creating Layer inception_5b/5x5
I1124 23:01:36.902456 23711 net.cpp:454] inception_5b/5x5 <- inception_5b/5x5_reduce
I1124 23:01:36.902462 23711 net.cpp:411] inception_5b/5x5 -> inception_5b/5x5
I1124 23:01:36.904712 23711 net.cpp:150] Setting up inception_5b/5x5
I1124 23:01:36.904724 23711 net.cpp:157] Top shape: 64 128 7 7 (401408)
I1124 23:01:36.904728 23711 net.cpp:165] Memory required for data: 3564096864
I1124 23:01:36.904734 23711 layer_factory.hpp:76] Creating layer inception_5b/relu_5x5
I1124 23:01:36.904739 23711 net.cpp:106] Creating Layer inception_5b/relu_5x5
I1124 23:01:36.904748 23711 net.cpp:454] inception_5b/relu_5x5 <- inception_5b/5x5
I1124 23:01:36.904753 23711 net.cpp:397] inception_5b/relu_5x5 -> inception_5b/5x5 (in-place)
I1124 23:01:36.905119 23711 net.cpp:150] Setting up inception_5b/relu_5x5
I1124 23:01:36.905130 23711 net.cpp:157] Top shape: 64 128 7 7 (401408)
I1124 23:01:36.905133 23711 net.cpp:165] Memory required for data: 3565702496
I1124 23:01:36.905136 23711 layer_factory.hpp:76] Creating layer inception_5b/pool
I1124 23:01:36.905144 23711 net.cpp:106] Creating Layer inception_5b/pool
I1124 23:01:36.905149 23711 net.cpp:454] inception_5b/pool <- inception_5a/output_inception_5a/output_0_split_3
I1124 23:01:36.905154 23711 net.cpp:411] inception_5b/pool -> inception_5b/pool
I1124 23:01:36.905395 23711 net.cpp:150] Setting up inception_5b/pool
I1124 23:01:36.905403 23711 net.cpp:157] Top shape: 64 832 7 7 (2609152)
I1124 23:01:36.905406 23711 net.cpp:165] Memory required for data: 3576139104
I1124 23:01:36.905410 23711 layer_factory.hpp:76] Creating layer inception_5b/pool_proj
I1124 23:01:36.905419 23711 net.cpp:106] Creating Layer inception_5b/pool_proj
I1124 23:01:36.905423 23711 net.cpp:454] inception_5b/pool_proj <- inception_5b/pool
I1124 23:01:36.905429 23711 net.cpp:411] inception_5b/pool_proj -> inception_5b/pool_proj
I1124 23:01:36.907791 23711 net.cpp:150] Setting up inception_5b/pool_proj
I1124 23:01:36.907806 23711 net.cpp:157] Top shape: 64 128 7 7 (401408)
I1124 23:01:36.907810 23711 net.cpp:165] Memory required for data: 3577744736
I1124 23:01:36.907816 23711 layer_factory.hpp:76] Creating layer inception_5b/relu_pool_proj
I1124 23:01:36.907821 23711 net.cpp:106] Creating Layer inception_5b/relu_pool_proj
I1124 23:01:36.907826 23711 net.cpp:454] inception_5b/relu_pool_proj <- inception_5b/pool_proj
I1124 23:01:36.907832 23711 net.cpp:397] inception_5b/relu_pool_proj -> inception_5b/pool_proj (in-place)
I1124 23:01:36.908216 23711 net.cpp:150] Setting up inception_5b/relu_pool_proj
I1124 23:01:36.908227 23711 net.cpp:157] Top shape: 64 128 7 7 (401408)
I1124 23:01:36.908231 23711 net.cpp:165] Memory required for data: 3579350368
I1124 23:01:36.908233 23711 layer_factory.hpp:76] Creating layer inception_5b/output
I1124 23:01:36.908241 23711 net.cpp:106] Creating Layer inception_5b/output
I1124 23:01:36.908244 23711 net.cpp:454] inception_5b/output <- inception_5b/1x1
I1124 23:01:36.908248 23711 net.cpp:454] inception_5b/output <- inception_5b/3x3
I1124 23:01:36.908252 23711 net.cpp:454] inception_5b/output <- inception_5b/5x5
I1124 23:01:36.908257 23711 net.cpp:454] inception_5b/output <- inception_5b/pool_proj
I1124 23:01:36.908264 23711 net.cpp:411] inception_5b/output -> inception_5b/output
I1124 23:01:36.908299 23711 net.cpp:150] Setting up inception_5b/output
I1124 23:01:36.908304 23711 net.cpp:157] Top shape: 64 1024 7 7 (3211264)
I1124 23:01:36.908308 23711 net.cpp:165] Memory required for data: 3592195424
I1124 23:01:36.908310 23711 layer_factory.hpp:76] Creating layer pool5/7x7_s1
I1124 23:01:36.908315 23711 net.cpp:106] Creating Layer pool5/7x7_s1
I1124 23:01:36.908319 23711 net.cpp:454] pool5/7x7_s1 <- inception_5b/output
I1124 23:01:36.908324 23711 net.cpp:411] pool5/7x7_s1 -> pool5/7x7_s1
I1124 23:01:36.908552 23711 net.cpp:150] Setting up pool5/7x7_s1
I1124 23:01:36.908560 23711 net.cpp:157] Top shape: 64 1024 1 1 (65536)
I1124 23:01:36.908563 23711 net.cpp:165] Memory required for data: 3592457568
I1124 23:01:36.908566 23711 layer_factory.hpp:76] Creating layer pool5/drop_7x7_s1
I1124 23:01:36.908573 23711 net.cpp:106] Creating Layer pool5/drop_7x7_s1
I1124 23:01:36.908577 23711 net.cpp:454] pool5/drop_7x7_s1 <- pool5/7x7_s1
I1124 23:01:36.908581 23711 net.cpp:397] pool5/drop_7x7_s1 -> pool5/7x7_s1 (in-place)
I1124 23:01:36.908608 23711 net.cpp:150] Setting up pool5/drop_7x7_s1
I1124 23:01:36.908613 23711 net.cpp:157] Top shape: 64 1024 1 1 (65536)
I1124 23:01:36.908615 23711 net.cpp:165] Memory required for data: 3592719712
I1124 23:01:36.908618 23711 layer_factory.hpp:76] Creating layer pool5/7x7_s1_pool5/drop_7x7_s1_0_split
I1124 23:01:36.908623 23711 net.cpp:106] Creating Layer pool5/7x7_s1_pool5/drop_7x7_s1_0_split
I1124 23:01:36.908627 23711 net.cpp:454] pool5/7x7_s1_pool5/drop_7x7_s1_0_split <- pool5/7x7_s1
I1124 23:01:36.908633 23711 net.cpp:411] pool5/7x7_s1_pool5/drop_7x7_s1_0_split -> pool5/7x7_s1_pool5/drop_7x7_s1_0_split_0
I1124 23:01:36.908639 23711 net.cpp:411] pool5/7x7_s1_pool5/drop_7x7_s1_0_split -> pool5/7x7_s1_pool5/drop_7x7_s1_0_split_1
I1124 23:01:36.908645 23711 net.cpp:411] pool5/7x7_s1_pool5/drop_7x7_s1_0_split -> pool5/7x7_s1_pool5/drop_7x7_s1_0_split_2
I1124 23:01:36.908650 23711 net.cpp:411] pool5/7x7_s1_pool5/drop_7x7_s1_0_split -> pool5/7x7_s1_pool5/drop_7x7_s1_0_split_3
I1124 23:01:36.908655 23711 net.cpp:411] pool5/7x7_s1_pool5/drop_7x7_s1_0_split -> pool5/7x7_s1_pool5/drop_7x7_s1_0_split_4
I1124 23:01:36.908660 23711 net.cpp:411] pool5/7x7_s1_pool5/drop_7x7_s1_0_split -> pool5/7x7_s1_pool5/drop_7x7_s1_0_split_5
I1124 23:01:36.908746 23711 net.cpp:150] Setting up pool5/7x7_s1_pool5/drop_7x7_s1_0_split
I1124 23:01:36.908751 23711 net.cpp:157] Top shape: 64 1024 1 1 (65536)
I1124 23:01:36.908754 23711 net.cpp:157] Top shape: 64 1024 1 1 (65536)
I1124 23:01:36.908757 23711 net.cpp:157] Top shape: 64 1024 1 1 (65536)
I1124 23:01:36.922626 23711 net.cpp:157] Top shape: 64 1024 1 1 (65536)
I1124 23:01:36.922639 23711 net.cpp:157] Top shape: 64 1024 1 1 (65536)
I1124 23:01:36.922647 23711 net.cpp:157] Top shape: 64 1024 1 1 (65536)
I1124 23:01:36.922652 23711 net.cpp:165] Memory required for data: 3594292576
I1124 23:01:36.922660 23711 layer_factory.hpp:76] Creating layer loss3/classifier-00.category
I1124 23:01:36.922682 23711 net.cpp:106] Creating Layer loss3/classifier-00.category
I1124 23:01:36.922694 23711 net.cpp:454] loss3/classifier-00.category <- pool5/7x7_s1_pool5/drop_7x7_s1_0_split_0
I1124 23:01:36.922711 23711 net.cpp:411] loss3/classifier-00.category -> loss3/classifier-00.category
I1124 23:01:36.923249 23711 net.cpp:150] Setting up loss3/classifier-00.category
I1124 23:01:36.923262 23711 net.cpp:157] Top shape: 64 16 (1024)
I1124 23:01:36.923269 23711 net.cpp:165] Memory required for data: 3594296672
I1124 23:01:36.923280 23711 layer_factory.hpp:76] Creating layer loss3/classifier-00.category_loss3/classifier-00.category_0_split
I1124 23:01:36.923290 23711 net.cpp:106] Creating Layer loss3/classifier-00.category_loss3/classifier-00.category_0_split
I1124 23:01:36.923297 23711 net.cpp:454] loss3/classifier-00.category_loss3/classifier-00.category_0_split <- loss3/classifier-00.category
I1124 23:01:36.923307 23711 net.cpp:411] loss3/classifier-00.category_loss3/classifier-00.category_0_split -> loss3/classifier-00.category_loss3/classifier-00.category_0_split_0
I1124 23:01:36.923338 23711 net.cpp:411] loss3/classifier-00.category_loss3/classifier-00.category_0_split -> loss3/classifier-00.category_loss3/classifier-00.category_0_split_1
I1124 23:01:36.923424 23711 net.cpp:150] Setting up loss3/classifier-00.category_loss3/classifier-00.category_0_split
I1124 23:01:36.923436 23711 net.cpp:157] Top shape: 64 16 (1024)
I1124 23:01:36.923444 23711 net.cpp:157] Top shape: 64 16 (1024)
I1124 23:01:36.923449 23711 net.cpp:165] Memory required for data: 3594304864
I1124 23:01:36.923455 23711 layer_factory.hpp:76] Creating layer loss3/loss_00.category
I1124 23:01:36.923465 23711 net.cpp:106] Creating Layer loss3/loss_00.category
I1124 23:01:36.923471 23711 net.cpp:454] loss3/loss_00.category <- loss3/classifier-00.category_loss3/classifier-00.category_0_split_0
I1124 23:01:36.923481 23711 net.cpp:454] loss3/loss_00.category <- 00.category_slice_attribute_0_split_4
…
