…
state {
  phase: TRAIN
}
layer {
  name: "data"
  type: "ImageData"
  top: "data"
  top: "dummylabel"
  include {
    phase: TRAIN
  }
  transform_param {
    mirror: true
    crop_size: 224
    mean_value: 104
    mean_value: 117
    mean_value: 123
  }
  image_data_param {
    source: "pad_train_shuffle.txt"
    batch_size: 64
    new_height: 256
    new_width: 256
  }
}
layer {
  name: "label"
  type: "Data"
  top: "classlabel"
  include {
    phase: TRAIN
  }
  data_param {
    source: "lmdb_train_pad"
    batch_size: 64
    backend: LMDB
  }
}
layer {
  name: "slice_attribute"
  type: "Slice"
  bottom: "classlabel"
  top: "00.category"
  top: "01.style"
  top: "02.collar_shape"
  top: "03.sleeve_length"
  top: "04.material"
  top: "05.pattern"
  top: "06.button_shape"
  top: "07.sleeve_length"
  top: "08.clothes_length"
  top: "09.fashion_elements"
  top: "10.season"
  top: "11.shape"
  top: "12.age"
  top: "13.skirt_length"
  top: "14.skirt_shape"
  top: "15.waist_shape"
  top: "16.combining"
  top: "17.onepiece_shape"
  top: "18.thickness"
  top: "19.pants_length"
  top: "20.pants_shape"
  top: "21.color"
  slice_param {
    slice_dim: 1
    slice_point: 1
    slice_point: 2
    slice_point: 3
    slice_point: 4
    slice_point: 5
    slice_point: 6
    slice_point: 7
    slice_point: 8
    slice_point: 9
    slice_point: 10
    slice_point: 11
    slice_point: 12
    slice_point: 13
    slice_point: 14
    slice_point: 15
    slice_point: 16
    slice_point: 17
    slice_point: 18
    slice_point: 19
    slice_point: 20
    slice_point: 21
  }
}
layer {
  name: "silence"
  type: "Silence"
  bottom: "dummylabel"
}
layer {
  name: "silence_01"
  type: "Silence"
  bottom: "01.style"
}
layer {
  name: "silence_03"
  type: "Silence"
  bottom: "03.sleeve_length"
}
layer {
  name: "silence_04"
  type: "Silence"
  bottom: "04.material"
}
layer {
  name: "silence_07"
  type: "Silence"
  bottom: "07.sleeve_length"
}
layer {
  name: "silence_08"
  type: "Silence"
  bottom: "08.clothes_length"
}
layer {
  name: "silence_10"
  type: "Silence"
  bottom: "10.season"
}
layer {
  name: "silence_11"
  type: "Silence"
  bottom: "11.shape"
}
layer {
  name: "silence_12"
  type: "Silence"
  bottom: "12.age"
}
layer {
  name: "silence_13"
  type: "Silence"
  bottom: "13.skirt_length"
}
layer {
  name: "silence_14"
  type: "Silence"
  bottom: "14.skirt_shape"
}
layer {
  name: "silence_15"
  type: "Silence"
  bottom: "15.waist_shape"
}
layer {
  name: "silence_16"
  type: "Silence"
  bottom: "16.combining"
}
layer {
  name: "silence_17"
  type: "Silence"
  bottom: "17.onepiece_shape"
}
layer {
  name: "silence_18"
  type: "Silence"
  bottom: "18.thickness"
}
layer {
  name: "silence_19"
  type: "Silence"
  bottom: "19.pants_length"
}
layer {
  name: "silence_20"
  type: "Silence"
  bottom: "20.pants_shape"
}
layer {
  name: "conv1/7x7_s2"
  type: "Convolution"
  bottom: "data"
  top: "conv1/7x7_s2"
  param {
    lr_mult: 1
    decay_mult: 1
  }
  param {
    lr_mult: 2
    decay_mult: 0
  }
  convolution_param {
    num_output: 64
    pad: 3
    kernel_size: 7
    stride: 2
    weight_filler {
      type: "xavier"
    }
    bias_filler {
      type: "constant"
      value: 0.2
    }
  }
}
layer {
  name: "conv1/relu_7x7"
  type: "ReLU"
  bottom: "conv1/7x7_s2"
  top: "conv1/7x7_s2"
}
layer {
  name: "pool1/3x3_s2"
  type: "Pooling"
  bottom: "conv1/7x7_s2"
  top: "pool1/3x3_s2"
  pooling_param {
    pool: MAX
    kernel_size: 3
    stride: 2
  }
}
layer {
  name: "pool1/norm1"
  type: "LRN"
  bottom: "pool1/3x3_s2"
  top: "pool1/norm1"
  lrn_param {
    local_size: 5
    alpha: 0.0001
    beta: 0.75
  }
}
layer {
  name: "conv2/3x3_reduce"
  type: "Convolution"
  bottom: "pool1/norm1"
  top: "conv2/3x3_reduce"
  param {
    lr_mult: 1
    decay_mult: 1
  }
  param {
    lr_mult: 2
    decay_mult: 0
  }
  convolution_param {
    num_output: 64
    kernel_size: 1
    weight_filler {
      type: "xavier"
    }
    bias_filler {
      type: "constant"
      value: 0.2
    }
  }
}
layer {
  name: "conv2/relu_3x3_reduce"
  type: "ReLU"
  bottom: "conv2/3x3_reduce"
  top: "conv2/3x3_reduce"
}
layer {
  name: "conv2/3x3"
  type: "Convolution"
  bottom: "conv2/3x3_reduce"
  top: "conv2/3x3"
  param {
    lr_mult: 1
    decay_mult: 1
  }
  param {
    lr_mult: 2
    decay_mult: 0
  }
  convolution_param {
    num_output: 192
    pad: 1
    kernel_size: 3
    weight_filler {
      type: "xavier"
    }
    bias_filler {
      type: "constant"
      value: 0.2
    }
  }
}
layer {
  name: "conv2/relu_3x3"
  type: "ReLU"
  bottom: "conv2/3x3"
  top: "conv2/3x3"
}
layer {
  name: "conv2/norm2"
  type: "LRN"
  bottom: "conv2/3x3"
  top: "conv2/norm2"
  lrn_param {
    local_size: 5
    alpha: 0.0001
    beta: 0.75
  }
}
layer {
  name: "pool2/3x3_s2"
  type: "Pooling"
  bottom: "conv2/norm2"
  top: "pool2/3x3_s2"
  pooling_param {
    pool: MAX
    kernel_size: 3
    stride: 2
  }
}
layer {
  name: "inception_3a/1x1"
  type: "Convolution"
  bottom: "pool2/3x3_s2"
  top: "inception_3a/1x1"
  param {
    lr_mult: 1
    decay_mult: 1
  }
  param {
    lr_mult: 2
    decay_mult: 0
  }
  convolution_param {
    num_output: 64
    kernel_size: 1
    weight_filler {
      type: "xavier"
    }
    bias_filler {
      type: "constant"
      value: 0.2
    }
  }
}
layer {
  name: "inception_3a/relu_1x1"
  type: "ReLU"
  bottom: "inception_3a/1x1"
  top: "inception_3a/1x1"
}
layer {
  name: "inception_3a/3x3_reduce"
  type: "Convolution"
  bottom: "pool2/3x3_s2"
  top: "inception_3a/3x3_reduce"
  param {
    lr_mult: 1
    decay_mult: 1
  }
  param {
    lr_mult: 2
    decay_mult: 0
  }
  convolution_param {
    num_output: 96
    kernel_size: 1
    weight_filler {
      type: "xavier"
    }
    bias_filler {
      type: "constant"
      value: 0.2
    }
  }
}
layer {
  name: "inception_3a/relu_3x3_reduce"
  type: "ReLU"
  bottom: "inception_3a/3x3_reduce"
  top: "inception_3a/3x3_reduce"
}
layer {
  name: "inception_3a/3x3"
  type: "Convolution"
  bottom: "inception_3a/3x3_reduce"
  top: "inception_3a/3x3"
  param {
    lr_mult: 1
    decay_mult: 1
  }
  param {
    lr_mult: 2
    decay_mult: 0
  }
  convolution_param {
    num_output: 128
    pad: 1
    kernel_size: 3
    weight_filler {
      type: "xavier"
    }
    bias_filler {
      type: "constant"
      value: 0.2
    }
  }
}
layer {
  name: "inception_3a/relu_3x3"
  type: "ReLU"
  bottom: "inception_3a/3x3"
  top: "inception_3a/3x3"
}
layer {
  name: "inception_3a/5x5_reduce"
  type: "Convolution"
  bottom: "pool2/3x3_s2"
  top: "inception_3a/5x5_reduce"
  param {
    lr_mult: 1
    decay_mult: 1
  }
  param {
    lr_mult: 2
    decay_mult: 0
  }
  convolution_param {
    num_output: 16
    kernel_size: 1
    weight_filler {
      type: "xavier"
    }
    bias_filler {
      type: "constant"
      value: 0.2
    }
  }
}
layer {
  name: "inception_3a/relu_5x5_reduce"
  type: "ReLU"
  bottom: "inception_3a/5x5_reduce"
  top: "inception_3a/5x5_reduce"
}
layer {
  name: "inception_3a/5x5"
  type: "Convolution"
  bottom: "inception_3a/5x5_reduce"
  top: "inception_3a/5x5"
  param {
    lr_mult: 1
    decay_mult: 1
  }
  param {
    lr_mult: 2
    decay_mult: 0
  }
  convolution_param {
    num_output: 32
    pad: 2
    kernel_size: 5
    weight_filler {
      type: "xavier"
    }
    bias_filler {
      type: "constant"
      value: 0.2
    }
  }
}
layer {
  name: "inception_3a/relu_5x5"
  type: "ReLU"
  bottom: "inception_3a/5x5"
  top: "inception_3a/5x5"
}
layer {
  name: "inception_3a/pool"
  type: "Pooling"
  bottom: "pool2/3x3_s2"
  top: "inception_3a/pool"
  pooling_param {
    pool: MAX
    kernel_size: 3
    stride: 1
    pad: 1
  }
}
layer {
  name: "inception_3a/pool_proj"
  type: "Convolution"
  bottom: "inception_3a/pool"
  top: "inception_3a/pool_proj"
  param {
    lr_mult: 1
    decay_mult: 1
  }
  param {
    lr_mult: 2
    decay_mult: 0
  }
  convolution_param {
    num_output: 32
    kernel_size: 1
    weight_filler {
      type: "xavier"
    }
    bias_filler {
      type: "constant"
      value: 0.2
    }
  }
}
layer {
  name: "inception_3a/relu_pool_proj"
  type: "ReLU"
  bottom: "inception_3a/pool_proj"
  top: "inception_3a/pool_proj"
}
layer {
  name: "inception_3a/output"
  type: "Concat"
  bottom: "inception_3a/1x1"
  bottom: "inception_3a/3x3"
  bottom: "inception_3a/5x5"
  bottom: "inception_3a/pool_proj"
  top: "inception_3a/output"
}
layer {
  name: "inception_3b/1x1"
  type: "Convolution"
  bottom: "inception_3a/output"
  top: "inception_3b/1x1"
  param {
    lr_mult: 1
    decay_mult: 1
  }
  param {
    lr_mult: 2
    decay_mult: 0
  }
  convolution_param {
    num_output: 128
    kernel_size: 1
    weight_filler {
      type: "xavier"
    }
    bias_filler {
      type: "constant"
      value: 0.2
    }
  }
}
layer {
  name: "inception_3b/relu_1x1"
  type: "ReLU"
  bottom: "inception_3b/1x1"
  top: "inception_3b/1x1"
}
layer {
  name: "inception_3b/3x3_reduce"
  type: "Convolution"
  bottom: "inception_3a/output"
  top: "inception_3b/3x3_reduce"
  param {
    lr_mult: 1
    decay_mult: 1
  }
  param {
    lr_mult: 2
    decay_mult: 0
  }
  convolution_param {
    num_output: 128
    kernel_size: 1
    weight_filler {
      type: "xavier"
    }
    bias_filler {
      type: "constant"
      value: 0.2
    }
  }
}
layer {
  name: "inception_3b/relu_3x3_reduce"
  type: "ReLU"
  bottom: "inception_3b/3x3_reduce"
  top: "inception_3b/3x3_reduce"
}
layer {
  name: "inception_3b/3x3"
  type: "Convolution"
  bottom: "inception_3b/3x3_reduce"
  top: "inception_3b/3x3"
  param {
    lr_mult: 1
    decay_mult: 1
  }
  param {
    lr_mult: 2
    decay_mult: 0
  }
  convolution_param {
    num_output: 192
    pad: 1
    kernel_size: 3
    weight_filler {
      type: "xavier"
    }
    bias_filler {
      type: "constant"
      value: 0.2
    }
  }
}
layer {
  name: "inception_3b/relu_3x3"
  type: "ReLU"
  bottom: "inception_3b/3x3"
  top: "inception_3b/3x3"
}
layer {
  name: "inception_3b/5x5_reduce"
  type: "Convolution"
  bottom: "inception_3a/output"
  top: "inception_3b/5x5_reduce"
  param {
    lr_mult: 1
    decay_mult: 1
  }
  param {
    lr_mult: 2
    decay_mult: 0
  }
  convolution_param {
    num_output: 32
    kernel_size: 1
    weight_filler {
      type: "xavier"
    }
    bias_filler {
      type: "constant"
      value: 0.2
    }
  }
}
layer {
  name: "inception_3b/relu_5x5_reduce"
  type: "ReLU"
  bottom: "inception_3b/5x5_reduce"
  top: "inception_3b/5x5_reduce"
}
layer {
  name: "inception_3b/5x5"
  type: "Convolution"
  bottom: "inception_3b/5x5_reduce"
  top: "inception_3b/5x5"
  param {
    lr_mult: 1
    decay_mult: 1
  }
  param {
    lr_mult: 2
    decay_mult: 0
  }
  convolution_param {
    num_output: 96
    pad: 2
    kernel_size: 5
    weight_filler {
      type: "xavier"
    }
    bias_filler {
      type: "constant"
      value: 0.2
    }
  }
}
layer {
  name: "inception_3b/relu_5x5"
  type: "ReLU"
  bottom: "inception_3b/5x5"
  top: "inception_3b/5x5"
}
layer {
  name: "inception_3b/pool"
  type: "Pooling"
  bottom: "inception_3a/output"
  top: "inception_3b/pool"
  pooling_param {
    pool: MAX
    kernel_size: 3
    stride: 1
    pad: 1
  }
}
layer {
  name: "inception_3b/pool_proj"
  type: "Convolution"
  bottom: "inception_3b/pool"
  top: "inception_3b/pool_proj"
  param {
    lr_mult: 1
    decay_mult: 1
  }
  param {
    lr_mult: 2
    decay_mult: 0
  }
  convolution_param {
    num_output: 64
    kernel_size: 1
    weight_filler {
      type: "xavier"
    }
    bias_filler {
      type: "constant"
      value: 0.2
    }
  }
}
layer {
  name: "inception_3b/relu_pool_proj"
  type: "ReLU"
  bottom: "inception_3b/pool_proj"
  top: "inception_3b/pool_proj"
}
layer {
  name: "inception_3b/output"
  type: "Concat"
  bottom: "inception_3b/1x1"
  bottom: "inception_3b/3x3"
  bottom: "inception_3b/5x5"
  bottom: "inception_3b/pool_proj"
  top: "inception_3b/output"
}
layer {
  name: "pool3/3x3_s2"
  type: "Pooling"
  bottom: "inception_3b/output"
  top: "pool3/3x3_s2"
  pooling_param {
    pool: MAX
    kernel_size: 3
    stride: 2
  }
}
layer {
  name: "inception_4a/1x1"
  type: "Convolution"
  bottom: "pool3/3x3_s2"
  top: "inception_4a/1x1"
  param {
    lr_mult: 1
    decay_mult: 1
  }
  param {
    lr_mult: 2
    decay_mult: 0
  }
  convolution_param {
    num_output: 192
    kernel_size: 1
    weight_filler {
      type: "xavier"
    }
    bias_filler {
      type: "constant"
      value: 0.2
    }
  }
}
layer {
  name: "inception_4a/relu_1x1"
  type: "ReLU"
  bottom: "inception_4a/1x1"
  top: "inception_4a/1x1"
}
layer {
  name: "inception_4a/3x3_reduce"
  type: "Convolution"
  bottom: "pool3/3x3_s2"
  top: "inception_4a/3x3_reduce"
  param {
    lr_mult: 1
    decay_mult: 1
  }
  param {
    lr_mult: 2
    decay_mult: 0
  }
  convolution_param {
    num_output: 96
    kernel_size: 1
    weight_filler {
      type: "xavier"
    }
    bias_filler {
      type: "constant"
      value: 0.2
    }
  }
}
layer {
  name: "inception_4a/relu_3x3_reduce"
  type: "ReLU"
  bottom: "inception_4a/3x3_reduce"
  top: "inception_4a/3x3_reduce"
}
layer {
  name: "inception_4a/3x3"
  type: "Convolution"
  bottom: "inception_4a/3x3_reduce"
  top: "inception_4a/3x3"
  param {
    lr_mult: 1
    decay_mult: 1
  }
  param {
    lr_mult: 2
    decay_mult: 0
  }
  convolution_param {
    num_output: 208
    pad: 1
    kernel_size: 3
    weight_filler {
      type: "xavier"
    }
    bias_filler {
      type: "constant"
      value: 0.2
    }
  }
}
layer {
  name: "inception_4a/relu_3x3"
  type: "ReLU"
  bottom: "inception_4a/3x3"
  top: "inception_4a/3x3"
}
layer {
  name: "inception_4a/5x5_reduce"
  type: "Convolution"
  bottom: "pool3/3x3_s2"
  top: "inception_4a/5x5_reduce"
  param {
    lr_mult: 1
    decay_mult: 1
  }
  param {
    lr_mult: 2
    decay_mult: 0
  }
  convolution_param {
    num_output: 16
    kernel_size: 1
    weight_filler {
      type: "xavier"
    }
    bias_filler {
      type: "constant"
      value: 0.2
    }
  }
}
layer {
  name: "inception_4a/relu_5x5_reduce"
  type: "ReLU"
  bottom: "inception_4a/5x5_reduce"
  top: "inception_4a/5x5_reduce"
}
layer {
  name: "inception_4a/5x5"
  type: "Convolution"
  bottom: "inception_4a/5x5_reduce"
  top: "inception_4a/5x5"
  param {
    lr_mult: 1
    decay_mult: 1
  }
  param {
    lr_mult: 2
    decay_mult: 0
  }
  convolution_param {
    num_output: 48
    pad: 2
    kernel_size: 5
    weight_filler {
      type: "xavier"
    }
    bias_filler {
      type: "constant"
      value: 0.2
    }
  }
}
layer {
  name: "inception_4a/relu_5x5"
  type: "ReLU"
  bottom: "inception_4a/5x5"
  top: "inception_4a/5x5"
}
layer {
  name: "inception_4a/pool"
  type: "Pooling"
  bottom: "pool3/3x3_s2"
  top: "inception_4a/pool"
  pooling_param {
    pool: MAX
    kernel_size: 3
    stride: 1
    pad: 1
  }
}
layer {
  name: "inception_4a/pool_proj"
  type: "Convolution"
  bottom: "inception_4a/pool"
  top: "inception_4a/pool_proj"
  param {
    lr_mult: 1
    decay_mult: 1
  }
  param {
    lr_mult: 2
    decay_mult: 0
  }
  convolution_param {
    num_output: 64
    kernel_size: 1
    weight_filler {
      type: "xavier"
    }
    bias_filler {
      type: "constant"
      value: 0.2
    }
  }
}
layer {
  name: "inception_4a/relu_pool_proj"
  type: "ReLU"
  bottom: "inception_4a/pool_proj"
  top: "inception_4a/pool_proj"
}
layer {
  name: "inception_4a/output"
  type: "Concat"
  bottom: "inception_4a/1x1"
  bottom: "inception_4a/3x3"
  bottom: "inception_4a/5x5"
  bottom: "inception_4a/pool_proj"
  top: "inception_4a/output"
}
layer {
  name: "loss1/ave_pool"
  type: "Pooling"
  bottom: "inception_4a/output"
  top: "loss1/ave_pool"
  pooling_param {
    pool: AVE
    kernel_size: 5
    stride: 3
  }
}
layer {
  name: "loss1/conv"
  type: "Convolution"
  bottom: "loss1/ave_pool"
  top: "loss1/conv"
  param {
    lr_mult: 1
    decay_mult: 1
  }
  param {
    lr_mult: 2
    decay_mult: 0
  }
  convolution_param {
    num_output: 128
    kernel_size: 1
    weight_filler {
      type: "xavier"
    }
    bias_filler {
      type: "constant"
      value: 0.2
    }
  }
}
layer {
  name: "loss1/relu_conv"
  type: "ReLU"
  bottom: "loss1/conv"
  top: "loss1/conv"
}
layer {
  name: "loss1/fc"
  type: "InnerProduct"
  bottom: "loss1/conv"
  top: "loss1/fc"
  param {
    lr_mult: 1
    decay_mult: 1
  }
  param {
    lr_mult: 2
    decay_mult: 0
  }
  inner_product_param {
    num_output: 1024
    weight_filler {
      type: "xavier"
    }
    bias_filler {
      type: "constant"
      value: 0.2
    }
  }
}
layer {
  name: "loss1/relu_fc"
  type: "ReLU"
  bottom: "loss1/fc"
  top: "loss1/fc"
}
layer {
  name: "loss1/drop_fc"
  type: "Dropout"
  bottom: "loss1/fc"
  top: "loss1/fc"
  dropout_param {
    dropout_ratio: 0.7
  }
}
layer {
  name: "loss1/classifier-00.category"
  type: "InnerProduct"
  bottom: "loss1/fc"
  top: "loss1/classifier-00.category"
  param {
    lr_mult: 10
    decay_mult: 1
  }
  param {
    lr_mult: 20
    decay_mult: 0
  }
  inner_product_param {
    num_output: 16
    weight_filler {
      type: "xavier"
    }
    bias_filler {
      type: "constant"
      value: 0
    }
  }
}
layer {
  name: "loss1/loss_00.category"
  type: "SoftmaxWithLoss"
  bottom: "loss1/classifier-00.category"
  bottom: "00.category"
  top: "loss1/loss_00.category"
  loss_weight: 0.3
}
layer {
  name: "loss1/classifier-02.collar_shape"
  type: "InnerProduct"
  bottom: "loss1/fc"
  top: "loss1/classifier-02.collar_shape"
  param {
    lr_mult: 10
    decay_mult: 1
  }
  param {
    lr_mult: 20
    decay_mult: 0
  }
  inner_product_param {
    num_output: 13
    weight_filler {
      type: "xavier"
    }
    bias_filler {
      type: "constant"
      value: 0
    }
  }
}
layer {
  name: "loss1/loss_02.collar_shape"
  type: "SoftmaxWithLoss"
  bottom: "loss1/classifier-02.collar_shape"
  bottom: "02.collar_shape"
  top: "loss1/loss_02.collar_shape"
  loss_weight: 0.3
}
layer {
  name: "loss1/classifier-05.pattern"
  type: "InnerProduct"
  bottom: "loss1/fc"
  top: "loss1/classifier-05.pattern"
  param {
    lr_mult: 10
    decay_mult: 1
  }
  param {
    lr_mult: 20
    decay_mult: 0
  }
  inner_product_param {
    num_output: 16
    weight_filler {
      type: "xavier"
    }
    bias_filler {
      type: "constant"
      value: 0
    }
  }
}
layer {
  name: "loss1/loss_05.pattern"
  type: "SoftmaxWithLoss"
  bottom: "loss1/classifier-05.pattern"
  bottom: "05.pattern"
  top: "loss1/loss_05.pattern"
  loss_weight: 0.3
}
layer {
  name: "loss1/classifier-06.button_shape"
  type: "InnerProduct"
  bottom: "loss1/fc"
  top: "loss1/classifier-06.button_shape"
  param {
    lr_mult: 10
    decay_mult: 1
  }
  param {
    lr_mult: 20
    decay_mult: 0
  }
  inner_product_param {
    num_output: 9
    weight_filler {
      type: "xavier"
    }
    bias_filler {
      type: "constant"
      value: 0
    }
  }
}
layer {
  name: "loss1/loss_06.button_shape"
  type: "SoftmaxWithLoss"
  bottom: "loss1/classifier-06.button_shape"
  bottom: "06.button_shape"
  top: "loss1/loss_06.button_shape"
  loss_weight: 0.3
}
layer {
  name: "loss1/classifier-09.fashion_elements"
  type: "InnerProduct"
  bottom: "loss1/fc"
  top: "loss1/classifier-09.fashion_elements"
  param {
    lr_mult: 10
    decay_mult: 1
  }
  param {
    lr_mult: 20
    decay_mult: 0
  }
  inner_product_param {
    num_output: 15
    weight_filler {
      type: "xavier"
    }
    bias_filler {
      type: "constant"
      value: 0
    }
  }
}
layer {
  name: "loss1/loss_09.fashion_elements"
  type: "SoftmaxWithLoss"
  bottom: "loss1/classifier-09.fashion_elements"
  bottom: "09.fashion_elements"
  top: "loss1/loss_09.fashion_elements"
  loss_weight: 0.3
}
layer {
  name: "loss1/classifier-21.color"
  type: "InnerProduct"
  bottom: "loss1/fc"
  top: "loss1/classifier-21.color"
  param {
    lr_mult: 10
    decay_mult: 1
  }
  param {
    lr_mult: 20
    decay_mult: 0
  }
  inner_product_param {
    num_output: 21
    weight_filler {
      type: "xavier"
    }
    bias_filler {
      type: "constant"
      value: 0
    }
  }
}
layer {
  name: "loss1/loss_21.color"
  type: "SoftmaxWithLoss"
  bottom: "loss1/classifier-21.color"
  bottom: "21.color"
  top: "loss1/loss_21.color"
  loss_weight: 0.3
}
layer {
  name: "inception_4b/1x1"
  type: "Convolution"
  bottom: "inception_4a/output"
  top: "inception_4b/1x1"
  param {
    lr_mult: 1
    decay_mult: 1
  }
  param {
    lr_mult: 2
    decay_mult: 0
  }
  convolution_param {
    num_output: 160
    kernel_size: 1
    weight_filler {
      type: "xavier"
    }
    bias_filler {
      type: "constant"
      value: 0.2
    }
  }
}
layer {
  name: "inception_4b/relu_1x1"
  type: "ReLU"
  bottom: "inception_4b/1x1"
  top: "inception_4b/1x1"
}
layer {
  name: "inception_4b/3x3_reduce"
  type: "Convolution"
  bottom: "inception_4a/output"
  top: "inception_4b/3x3_reduce"
  param {
    lr_mult: 1
    decay_mult: 1
  }
  param {
    lr_mult: 2
    decay_mult: 0
  }
  convolution_param {
    num_output: 112
    kernel_size: 1
    weight_filler {
      type: "xavier"
    }
    bias_filler {
      type: "constant"
      value: 0.2
    }
  }
}
layer {
  name: "inception_4b/relu_3x3_reduce"
  type: "ReLU"
  bottom: "inception_4b/3x3_reduce"
  top: "inception_4b/3x3_reduce"
}
layer {
  name: "inception_4b/3x3"
  type: "Convolution"
  bottom: "inception_4b/3x3_reduce"
  top: "inception_4b/3x3"
  param {
    lr_mult: 1
    decay_mult: 1
  }
  param {
    lr_mult: 2
    decay_mult: 0
  }
  convolution_param {
    num_output: 224
    pad: 1
    kernel_size: 3
    weight_filler {
      type: "xavier"
    }
    bias_filler {
      type: "constant"
      value: 0.2
    }
  }
}
layer {
  name: "inception_4b/relu_3x3"
  type: "ReLU"
  bottom: "inception_4b/3x3"
  top: "inception_4b/3x3"
}
layer {
  name: "inception_4b/5x5_reduce"
  type: "Convolution"
  bottom: "inception_4a/output"
  top: "inception_4b/5x5_reduce"
  param {
    lr_mult: 1
    decay_mult: 1
  }
  param {
    lr_mult: 2
    decay_mult: 0
  }
  convolution_param {
    num_output: 24
    kernel_size: 1
    weight_filler {
      type: "xavier"
    }
    bias_filler {
      type: "constant"
      value: 0.2
    }
  }
}
layer {
  name: "inception_4b/relu_5x5_reduce"
  type: "ReLU"
  bottom: "inception_4b/5x5_reduce"
  top: "inception_4b/5x5_reduce"
}
layer {
  name: "inception_4b/5x5"
  type: "Convolution"
  bottom: "inception_4b/5x5_reduce"
  top: "inception_4b/5x5"
  param {
    lr_mult: 1
    decay_mult: 1
  }
  param {
    lr_mult: 2
    decay_mult: 0
  }
  convolution_param {
    num_output: 64
    pad: 2
    kernel_size: 5
    weight_filler {
      type: "xavier"
    }
    bias_filler {
      type: "constant"
      value: 0.2
    }
  }
}
layer {
  name: "inception_4b/relu_5x5"
  type: "ReLU"
  bottom: "inception_4b/5x5"
  top: "inception_4b/5x5"
}
layer {
  name: "inception_4b/pool"
  type: "Pooling"
  bottom: "inception_4a/output"
  top: "inception_4b/pool"
  pooling_param {
    pool: MAX
    kernel_size: 3
    stride: 1
    pad: 1
  }
}
layer {
  name: "inception_4b/pool_proj"
  type: "Convolution"
  bottom: "inception_4b/pool"
  top: "inception_4b/pool_proj"
  param {
    lr_mult: 1
    decay_mult: 1
  }
  param {
    lr_mult: 2
    decay_mult: 0
  }
  convolution_param {
    num_output: 64
    kernel_size: 1
    weight_filler {
      type: "xavier"
    }
    bias_filler {
      type: "constant"
      value: 0.2
    }
  }
}
layer {
  name: "inception_4b/relu_pool_proj"
  type: "ReLU"
  bottom: "inception_4b/pool_proj"
  top: "inception_4b/pool_proj"
}
layer {
  name: "inception_4b/output"
  type: "Concat"
  bottom: "inception_4b/1x1"
  bottom: "inception_4b/3x3"
  bottom: "inception_4b/5x5"
  bottom: "inception_4b/pool_proj"
  top: "inception_4b/output"
}
layer {
  name: "inception_4c/1x1"
  type: "Convolution"
  bottom: "inception_4b/output"
  top: "inception_4c/1x1"
  param {
    lr_mult: 1
    decay_mult: 1
  }
  param {
    lr_mult: 2
    decay_mult: 0
  }
  convolution_param {
    num_output: 128
    kernel_size: 1
    weight_filler {
      type: "xavier"
    }
    bias_filler {
      type: "constant"
      value: 0.2
    }
  }
}
layer {
  name: "inception_4c/relu_1x1"
  type: "ReLU"
  bottom: "inception_4c/1x1"
  top: "inception_4c/1x1"
}
layer {
  name: "inception_4c/3x3_reduce"
  type: "Convolution"
  bottom: "inception_4b/output"
  top: "inception_4c/3x3_reduce"
  param {
    lr_mult: 1
    decay_mult: 1
  }
  param {
    lr_mult: 2
    decay_mult: 0
  }
  convolution_param {
    num_output: 128
    kernel_size: 1
    weight_filler {
      type: "xavier"
    }
    bias_filler {
      type: "constant"
      value: 0.2
    }
  }
}
layer {
  name: "inception_4c/relu_3x3_reduce"
  type: "ReLU"
  bottom: "inception_4c/3x3_reduce"
  top: "inception_4c/3x3_reduce"
}
layer {
  name: "inception_4c/3x3"
  type: "Convolution"
  bottom: "inception_4c/3x3_reduce"
  top: "inception_4c/3x3"
  param {
    lr_mult: 1
    decay_mult: 1
  }
  param {
    lr_mult: 2
    decay_mult: 0
  }
  convolution_param {
    num_output: 256
    pad: 1
    kernel_size: 3
    weight_filler {
      type: "xavier"
    }
    bias_filler {
      type: "constant"
      value: 0.2
    }
  }
}
layer {
  name: "inception_4c/relu_3x3"
  type: "ReLU"
  bottom: "inception_4c/3x3"
  top: "inception_4c/3x3"
}
layer {
  name: "inception_4c/5x5_reduce"
  type: "Convolution"
  bottom: "inception_4b/output"
  top: "inception_4c/5x5_reduce"
  param {
    lr_mult: 1
    decay_mult: 1
  }
  param {
    lr_mult: 2
    decay_mult: 0
  }
  convolution_param {
    num_output: 24
    kernel_size: 1
    weight_filler {
      type: "xavier"
    }
    bias_filler {
      type: "constant"
      value: 0.2
    }
  }
}
layer {
  name: "inception_4c/relu_5x5_reduce"
  type: "ReLU"
  bottom: "inception_4c/5x5_reduce"
  top: "inception_4c/5x5_reduce"
}
layer {
  name: "inception_4c/5x5"
  type: "Convolution"
  bottom: "inception_4c/5x5_reduce"
  top: "inception_4c/5x5"
  param {
    lr_mult: 1
    decay_mult: 1
  }
  param {
    lr_mult: 2
    decay_mult: 0
  }
  convolution_param {
    num_output: 64
    pad: 2
    kernel_size: 5
    weight_filler {
      type: "xavier"
    }
    bias_filler {
      type: "constant"
      value: 0.2
    }
  }
}
layer {
  name: "inception_4c/relu_5x5"
  type: "ReLU"
  bottom: "inception_4c/5x5"
  top: "inception_4c/5x5"
}
layer {
  name: "inception_4c/pool"
  type: "Pooling"
  bottom: "inception_4b/output"
  top: "inception_4c/pool"
  pooling_param {
    pool: MAX
    kernel_size: 3
    stride: 1
    pad: 1
  }
}
layer {
  name: "inception_4c/pool_proj"
  type: "Convolution"
  bottom: "inception_4c/pool"
  top: "inception_4c/pool_proj"
  param {
    lr_mult: 1
    decay_mult: 1
  }
  param {
    lr_mult: 2
    decay_mult: 0
  }
  convolution_param {
    num_output: 64
    kernel_size: 1
    weight_filler {
      type: "xavier"
    }
    bias_filler {
      type: "constant"
      value: 0.2
    }
  }
}
layer {
  name: "inception_4c/relu_pool_proj"
  type: "ReLU"
  bottom: "inception_4c/pool_proj"
  top: "inception_4c/pool_proj"
}
layer {
  name: "inception_4c/output"
  type: "Concat"
  bottom: "inception_4c/1x1"
  bottom: "inception_4c/3x3"
  bottom: "inception_4c/5x5"
  bottom: "inception_4c/pool_proj"
  top: "inception_4c/output"
}
layer {
  name: "inception_4d/1x1"
  type: "Convolution"
  bottom: "inception_4c/output"
  top: "inception_4d/1x1"
  param {
    lr_mult: 1
    decay_mult: 1
  }
  param {
    lr_mult: 2
    decay_mult: 0
  }
  convolution_param {
    num_output: 112
    kernel_size: 1
    weight_filler {
      type: "xavier"
    }
    bias_filler {
      type: "constant"
      value: 0.2
    }
  }
}
layer {
  name: "inception_4d/relu_1x1"
  type: "ReLU"
  bottom: "inception_4d/1x1"
  top: "inception_4d/1x1"
}
layer {
  name: "inception_4d/3x3_reduce"
  type: "Convolution"
  bottom: "inception_4c/output"
  top: "inception_4d/3x3_reduce"
  param {
    lr_mult: 1
    decay_mult: 1
  }
  param {
    lr_mult: 2
    decay_mult: 0
  }
  convolution_param {
    num_output: 144
    kernel_size: 1
    weight_filler {
      type: "xavier"
    }
    bias_filler {
      type: "constant"
      value: 0.2
    }
  }
}
layer {
  name: "inception_4d/relu_3x3_reduce"
  type: "ReLU"
  bottom: "inception_4d/3x3_reduce"
  top: "inception_4d/3x3_reduce"
}
layer {
  name: "inception_4d/3x3"
  type: "Convolution"
  bottom: "inception_4d/3x3_reduce"
  top: "inception_4d/3x3"
  param {
    lr_mult: 1
    decay_mult: 1
  }
  param {
    lr_mult: 2
    decay_mult: 0
  }
  convolution_param {
    num_output: 288
    pad: 1
    kernel_size: 3
    weight_filler {
      type: "xavier"
    }
    bias_filler {
      type: "constant"
      value: 0.2
    }
  }
}
layer {
  name: "inception_4d/relu_3x3"
  type: "ReLU"
  bottom: "inception_4d/3x3"
  top: "inception_4d/3x3"
}
layer {
  name: "inception_4d/5x5_reduce"
  type: "Convolution"
  bottom: "inception_4c/output"
  top: "inception_4d/5x5_reduce"
  param {
    lr_mult: 1
    decay_mult: 1
  }
  param {
    lr_mult: 2
    decay_mult: 0
  }
  convolution_param {
    num_output: 32
    kernel_size: 1
    weight_filler {
      type: "xavier"
    }
    bias_filler {
      type: "constant"
      value: 0.2
    }
  }
}
layer {
  name: "inception_4d/relu_5x5_reduce"
  type: "ReLU"
  bottom: "inception_4d/5x5_reduce"
  top: "inception_4d/5x5_reduce"
}
layer {
  name: "inception_4d/5x5"
  type: "Convolution"
  bottom: "inception_4d/5x5_reduce"
  top: "inception_4d/5x5"
  param {
    lr_mult: 1
    decay_mult: 1
  }
  param {
    lr_mult: 2
    decay_mult: 0
  }
  convolution_param {
    num_output: 64
    pad: 2
    kernel_size: 5
    weight_filler {
      type: "xavier"
    }
    bias_filler {
      type: "constant"
      value: 0.2
    }
  }
}
layer {
  name: "inception_4d/relu_5x5"
  ty
I1124 20:32:25.587981  3049 layer_factory.hpp:76] Creating layer data
I1124 20:32:25.588019  3049 net.cpp:106] Creating Layer data
I1124 20:32:25.588029  3049 net.cpp:411] data -> data
I1124 20:32:25.588057  3049 net.cpp:411] data -> dummylabel
I1124 20:32:25.588449  3049 image_data_layer.cpp:36] Opening file pad_train_shuffle.txt
I1124 20:32:25.683717  3049 image_data_layer.cpp:51] A total of 193988 images.
I1124 20:32:25.704974  3049 image_data_layer.cpp:78] output data size: 64,3,224,224
I1124 20:32:25.756880  3049 net.cpp:150] Setting up data
I1124 20:32:25.756903  3049 net.cpp:157] Top shape: 64 3 224 224 (9633792)
I1124 20:32:25.756909  3049 net.cpp:157] Top shape: 64 (64)
I1124 20:32:25.756912  3049 net.cpp:165] Memory required for data: 38535424
I1124 20:32:25.756919  3049 layer_factory.hpp:76] Creating layer label
I1124 20:32:25.757001  3049 net.cpp:106] Creating Layer label
I1124 20:32:25.757010  3049 net.cpp:411] label -> classlabel
I1124 20:32:25.763069  3056 db_lmdb.cpp:38] Opened lmdb lmdb_train_pad
I1124 20:32:25.763491  3049 data_layer.cpp:41] output data size: 64,22,1,1
I1124 20:32:25.764508  3049 net.cpp:150] Setting up label
I1124 20:32:25.764539  3049 net.cpp:157] Top shape: 64 22 1 1 (1408)
I1124 20:32:25.764554  3049 net.cpp:165] Memory required for data: 38541056
I1124 20:32:25.764570  3049 layer_factory.hpp:76] Creating layer slice_attribute
I1124 20:32:25.764606  3049 net.cpp:106] Creating Layer slice_attribute
I1124 20:32:25.764623  3049 net.cpp:454] slice_attribute <- classlabel
I1124 20:32:25.764654  3049 net.cpp:411] slice_attribute -> 00.category
I1124 20:32:25.764688  3049 net.cpp:411] slice_attribute -> 01.style
…
I1124 20:32:25.765043  3049 net.cpp:411] slice_attribute -> 15.waist_shape
I1124 20:32:25.765066  3049 net.cpp:411] slice_attribute -> 16.combining
I1124 20:32:25.765091  3049 net.cpp:411] slice_attribute -> 17.onepiece_shape
I1124 20:32:25.765116  3049 net.cpp:411] slice_attribute -> 18.thickness
I1124 20:32:25.765141  3049 net.cpp:411] slice_attribute -> 19.pants_length
I1124 20:32:25.765164  3049 net.cpp:411] slice_attribute -> 20.pants_shape
I1124 20:32:25.765188  3049 net.cpp:411] slice_attribute -> 21.color
I1124 20:32:25.765585  3049 net.cpp:150] Setting up slice_attribute
I1124 20:32:25.765602  3049 net.cpp:157] Top shape: 64 1 1 1 (64)
I1124 20:32:25.765616  3049 net.cpp:157] Top shape: 64 1 1 1 (64)
I1124 20:32:25.765630  3049 net.cpp:157] Top shape: 64 1 1 1 (64)
I1124 20:32:25.765645  3049 net.cpp:157] Top shape: 64 1 1 1 (64)
I1124 20:32:25.765658  3049 net.cpp:157] Top shape: 64 1 1 1 (64)
I1124 20:32:25.765674  3049 net.cpp:157] Top shape: 64 1 1 1 (64)
I1124 20:32:25.765689  3049 net.cpp:157] Top shape: 64 1 1 1 (64)
I1124 20:32:25.765703  3049 net.cpp:157] Top shape: 64 1 1 1 (64)
I1124 20:32:25.765718  3049 net.cpp:157] Top shape: 64 1 1 1 (64)
I1124 20:32:25.765733  3049 net.cpp:157] Top shape: 64 1 1 1 (64)
I1124 20:32:25.765748  3049 net.cpp:157] Top shape: 64 1 1 1 (64)
I1124 20:32:25.765761  3049 net.cpp:157] Top shape: 64 1 1 1 (64)
I1124 20:32:25.765776  3049 net.cpp:157] Top shape: 64 1 1 1 (64)
I1124 20:32:25.765790  3049 net.cpp:157] Top shape: 64 1 1 1 (64)
I1124 20:32:25.765805  3049 net.cpp:157] Top shape: 64 1 1 1 (64)
I1124 20:32:25.765820  3049 net.cpp:157] Top shape: 64 1 1 1 (64)
I1124 20:32:25.765835  3049 net.cpp:157] Top shape: 64 1 1 1 (64)
I1124 20:32:25.765849  3049 net.cpp:157] Top shape: 64 1 1 1 (64)
I1124 20:32:25.765863  3049 net.cpp:157] Top shape: 64 1 1 1 (64)
I1124 20:32:25.765878  3049 net.cpp:157] Top shape: 64 1 1 1 (64)
I1124 20:32:25.765892  3049 net.cpp:157] Top shape: 64 1 1 1 (64)
I1124 20:32:25.765907  3049 net.cpp:157] Top shape: 64 1 1 1 (64)
I1124 20:32:25.765918  3049 net.cpp:165] Memory required for data: 38546688
I1124 20:32:25.765931  3049 layer_factory.hpp:76] Creating layer 00.category_slice_attribute_0_split
I1124 20:32:25.765951  3049 net.cpp:106] Creating Layer 00.category_slice_attribute_0_split
I1124 20:32:25.765959  3049 net.cpp:454] 00.category_slice_attribute_0_split <- 00.category
I1124 20:32:25.765970  3049 net.cpp:411] 00.category_slice_attribute_0_split -> 00.category_slice_attribute_0_split_0
I1124 20:32:25.765983  3049 net.cpp:411] 00.category_slice_attribute_0_split -> 00.category_slice_attribute_0_split_1
I1124 20:32:25.765995  3049 net.cpp:411] 00.category_slice_attribute_0_split -> 00.category_slice_attribute_0_split_2
I1124 20:32:25.766067  3049 net.cpp:150] Setting up 00.category_slice_attribute_0_split
I1124 20:32:25.766077  3049 net.cpp:157] Top shape: 64 1 1 1 (64)
I1124 20:32:25.766086  3049 net.cpp:157] Top shape: 64 1 1 1 (64)
I1124 20:32:25.766093  3049 net.cpp:157] Top shape: 64 1 1 1 (64)
I1124 20:32:25.766100  3049 net.cpp:165] Memory required for data: 38547456
I1124 20:32:25.766108  3049 layer_factory.hpp:76] Creating layer 02.collar_shape_slice_attribute_2_split
I1124 20:32:25.766119  3049 net.cpp:106] Creating Layer 02.collar_shape_slice_attribute_2_split
I1124 20:32:25.766125  3049 net.cpp:454] 02.collar_shape_slice_attribute_2_split <- 02.collar_shape
I1124 20:32:25.766136  3049 net.cpp:411] 02.collar_shape_slice_attribute_2_split -> 02.collar_shape_slice_attribute_2_split_0
I1124 20:32:25.766147  3049 net.cpp:411] 02.collar_shape_slice_attribute_2_split -> 02.collar_shape_slice_attribute_2_split_1
I1124 20:32:25.766157  3049 net.cpp:411] 02.collar_shape_slice_attribute_2_split -> 02.collar_shape_slice_attribute_2_split_2
I1124 20:32:25.766218  3049 net.cpp:150] Setting up 02.collar_shape_slice_attribute_2_split
I1124 20:32:25.766230  3049 net.cpp:157] Top shape: 64 1 1 1 (64)
I1124 20:32:25.766238  3049 net.cpp:157] Top shape: 64 1 1 1 (64)
I1124 20:32:25.766247  3049 net.cpp:157] Top shape: 64 1 1 1 (64)
I1124 20:32:25.766252  3049 net.cpp:165] Memory required for data: 38548224
I1124 20:32:25.766258  3049 layer_factory.hpp:76] Creating layer 05.pattern_slice_attribute_5_split
I1124 20:32:25.766266  3049 net.cpp:106] Creating Layer 05.pattern_slice_attribute_5_split
I1124 20:32:25.766273  3049 net.cpp:454] 05.pattern_slice_attribute_5_split <- 05.pattern
I1124 20:32:25.766283  3049 net.cpp:411] 05.pattern_slice_attribute_5_split -> 05.pattern_slice_attribute_5_split_0
I1124 20:32:25.766294  3049 net.cpp:411] 05.pattern_slice_attribute_5_split -> 05.pattern_slice_attribute_5_split_1
I1124 20:32:25.766309  3049 net.cpp:411] 05.pattern_slice_attribute_5_split -> 05.pattern_slice_attribute_5_split_2
I1124 20:32:25.766398  3049 net.cpp:150] Setting up 05.pattern_slice_attribute_5_split
I1124 20:32:25.766427  3049 net.cpp:157] Top shape: 64 1 1 1 (64)
I1124 20:32:25.766438  3049 net.cpp:157] Top shape: 64 1 1 1 (64)
I1124 20:32:25.766450  3049 net.cpp:157] Top shape: 64 1 1 1 (64)
I1124 20:32:25.766456  3049 net.cpp:165] Memory required for data: 38548992
I1124 20:32:25.766463  3049 layer_factory.hpp:76] Creating layer 06.button_shape_slice_attribute_6_split
I1124 20:32:25.766475  3049 net.cpp:106] Creating Layer 06.button_shape_slice_attribute_6_split
I1124 20:32:25.766505  3049 net.cpp:454] 06.button_shape_slice_attribute_6_split <- 06.button_shape
I1124 20:32:25.766518  3049 net.cpp:411] 06.button_shape_slice_attribute_6_split -> 06.button_shape_slice_attribute_6_split_0
I1124 20:32:25.766530  3049 net.cpp:411] 06.button_shape_slice_attribute_6_split -> 06.button_shape_slice_attribute_6_split_1
I1124 20:32:25.766549  3049 net.cpp:411] 06.button_shape_slice_attribute_6_split -> 06.button_shape_slice_attribute_6_split_2
I1124 20:32:25.766613  3049 net.cpp:150] Setting up 06.button_shape_slice_attribute_6_split
I1124 20:32:25.766623  3049 net.cpp:157] Top shape: 64 1 1 1 (64)
I1124 20:32:25.766640  3049 net.cpp:157] Top shape: 64 1 1 1 (64)
I1124 20:32:25.766666  3049 net.cpp:157] Top shape: 64 1 1 1 (64)
I1124 20:32:25.766680  3049 net.cpp:165] Memory required for data: 38549760
I1124 20:32:25.766695  3049 layer_factory.hpp:76] Creating layer 09.fashion_elements_slice_attribute_9_split
I1124 20:32:25.766705  3049 net.cpp:106] Creating Layer 09.fashion_elements_slice_attribute_9_split
I1124 20:32:25.766712  3049 net.cpp:454] 09.fashion_elements_slice_attribute_9_split <- 09.fashion_elements
I1124 20:32:25.766732  3049 net.cpp:411] 09.fashion_elements_slice_attribute_9_split -> 09.fashion_elements_slice_attribute_9_split_0
I1124 20:32:25.766755  3049 net.cpp:411] 09.fashion_elements_slice_attribute_9_split -> 09.fashion_elements_slice_attribute_9_split_1
I1124 20:32:25.766780  3049 net.cpp:411] 09.fashion_elements_slice_attribute_9_split -> 09.fashion_elements_slice_attribute_9_split_2
I1124 20:32:25.766841  3049 net.cpp:150] Setting up 09.fashion_elements_slice_attribute_9_split
I1124 20:32:25.766855  3049 net.cpp:157] Top shape: 64 1 1 1 (64)
I1124 20:32:25.766862  3049 net.cpp:157] Top shape: 64 1 1 1 (64)
I1124 20:32:25.766911  3049 net.cpp:157] Top shape: 64 1 1 1 (64)
I1124 20:32:25.766917  3049 net.cpp:165] Memory required for data: 38550528
I1124 20:32:25.766926  3049 layer_factory.hpp:76] Creating layer 21.color_slice_attribute_21_split
I1124 20:32:25.766947  3049 net.cpp:106] Creating Layer 21.color_slice_attribute_21_split
I1124 20:32:25.766957  3049 net.cpp:454] 21.color_slice_attribute_21_split <- 21.color
I1124 20:32:25.766974  3049 net.cpp:411] 21.color_slice_attribute_21_split -> 21.color_slice_attribute_21_split_0
I1124 20:32:25.766989  3049 net.cpp:411] 21.color_slice_attribute_21_split -> 21.color_slice_attribute_21_split_1
I1124 20:32:25.767004  3049 net.cpp:411] 21.color_slice_attribute_21_split -> 21.color_slice_attribute_21_split_2
I1124 20:32:25.767073  3049 net.cpp:150] Setting up 21.color_slice_attribute_21_split
I1124 20:32:25.767086  3049 net.cpp:157] Top shape: 64 1 1 1 (64)
I1124 20:32:25.767112  3049 net.cpp:157] Top shape: 64 1 1 1 (64)
I1124 20:32:25.767122  3049 net.cpp:157] Top shape: 64 1 1 1 (64)
I1124 20:32:25.767130  3049 net.cpp:165] Memory required for data: 38551296
I1124 20:32:25.767139  3049 layer_factory.hpp:76] Creating layer silence
I1124 20:32:25.767156  3049 net.cpp:106] Creating Layer silence
I1124 20:32:25.767166  3049 net.cpp:454] silence <- dummylabel
I1124 20:32:25.767190  3049 net.cpp:150] Setting up silence
I1124 20:32:25.767199  3049 net.cpp:165] Memory required for data: 38551296
…
I1124 20:32:25.768080  3049 net.cpp:106] Creating Layer silence_20
I1124 20:32:25.768093  3049 net.cpp:454] silence_20 <- 20.pants_shape
I1124 20:32:25.768107  3049 net.cpp:150] Setting up silence_20
I1124 20:32:25.768131  3049 net.cpp:165] Memory required for data: 38551296
I1124 20:32:25.768144  3049 layer_factory.hpp:76] Creating layer conv1/7x7_s2
I1124 20:32:25.768172  3049 net.cpp:106] Creating Layer conv1/7x7_s2
I1124 20:32:25.768187  3049 net.cpp:454] conv1/7x7_s2 <- data
I1124 20:32:25.768208  3049 net.cpp:411] conv1/7x7_s2 -> conv1/7x7_s2
I1124 20:32:25.931538  3049 net.cpp:150] Setting up conv1/7x7_s2
I1124 20:32:25.931560  3049 net.cpp:157] Top shape: 64 64 112 112 (51380224)
I1124 20:32:25.931563  3049 net.cpp:165] Memory required for data: 244072192
I1124 20:32:25.931582  3049 layer_factory.hpp:76] Creating layer conv1/relu_7x7
I1124 20:32:25.931592  3049 net.cpp:106] Creating Layer conv1/relu_7x7
I1124 20:32:25.931597  3049 net.cpp:454] conv1/relu_7x7 <- conv1/7x7_s2
I1124 20:32:25.931603  3049 net.cpp:397] conv1/relu_7x7 -> conv1/7x7_s2 (in-place)
I1124 20:32:25.931867  3049 net.cpp:150] Setting up conv1/relu_7x7
I1124 20:32:25.931879  3049 net.cpp:157] Top shape: 64 64 112 112 (51380224)
I1124 20:32:25.931884  3049 net.cpp:165] Memory required for data: 449593088
I1124 20:32:25.931886  3049 layer_factory.hpp:76] Creating layer pool1/3x3_s2
I1124 20:32:25.931893  3049 net.cpp:106] Creating Layer pool1/3x3_s2
I1124 20:32:25.931896  3049 net.cpp:454] pool1/3x3_s2 <- conv1/7x7_s2
I1124 20:32:25.931901  3049 net.cpp:411] pool1/3x3_s2 -> pool1/3x3_s2
I1124 20:32:25.932076  3049 net.cpp:150] Setting up pool1/3x3_s2
I1124 20:32:25.932085  3049 net.cpp:157] Top shape: 64 64 56 56 (12845056)
I1124 20:32:25.932088  3049 net.cpp:165] Memory required for data: 500973312
I1124 20:32:25.932091  3049 layer_factory.hpp:76] Creating layer pool1/norm1
I1124 20:32:25.932103  3049 net.cpp:106] Creating Layer pool1/norm1
I1124 20:32:25.932107  3049 net.cpp:454] pool1/norm1 <- pool1/3x3_s2
I1124 20:32:25.932112  3049 net.cpp:411] pool1/norm1 -> pool1/norm1
I1124 20:32:25.932404  3049 net.cpp:150] Setting up pool1/norm1
I1124 20:32:25.932416  3049 net.cpp:157] Top shape: 64 64 56 56 (12845056)
I1124 20:32:25.932420  3049 net.cpp:165] Memory required for data: 552353536
I1124 20:32:25.932422  3049 layer_factory.hpp:76] Creating layer conv2/3x3_reduce
I1124 20:32:25.932432  3049 net.cpp:106] Creating Layer conv2/3x3_reduce
I1124 20:32:25.932436  3049 net.cpp:454] conv2/3x3_reduce <- pool1/norm1
I1124 20:32:25.932441  3049 net.cpp:411] conv2/3x3_reduce -> conv2/3x3_reduce
I1124 20:32:25.933302  3049 net.cpp:150] Setting up conv2/3x3_reduce
I1124 20:32:25.933315  3049 net.cpp:157] Top shape: 64 64 56 56 (12845056)
I1124 20:32:25.933318  3049 net.cpp:165] Memory required for data: 603733760
I1124 20:32:25.933326  3049 layer_factory.hpp:76] Creating layer conv2/relu_3x3_reduce
I1124 20:32:25.933334  3049 net.cpp:106] Creating Layer conv2/relu_3x3_reduce
I1124 20:32:25.933339  3049 net.cpp:454] conv2/relu_3x3_reduce <- conv2/3x3_reduce
I1124 20:32:25.933343  3049 net.cpp:397] conv2/relu_3x3_reduce -> conv2/3x3_reduce (in-place)
I1124 20:32:25.933485  3049 net.cpp:150] Setting up conv2/relu_3x3_reduce
I1124 20:32:25.933493  3049 net.cpp:157] Top shape: 64 64 56 56 (12845056)
I1124 20:32:25.933496  3049 net.cpp:165] Memory required for data: 655113984
I1124 20:32:25.933500  3049 layer_factory.hpp:76] Creating layer conv2/3x3
I1124 20:32:25.933511  3049 net.cpp:106] Creating Layer conv2/3x3
I1124 20:32:25.933514  3049 net.cpp:454] conv2/3x3 <- conv2/3x3_reduce
I1124 20:32:25.933521  3049 net.cpp:411] conv2/3x3 -> conv2/3x3
I1124 20:32:25.935442  3049 net.cpp:150] Setting up conv2/3x3
I1124 20:32:25.935457  3049 net.cpp:157] Top shape: 64 192 56 56 (38535168)
I1124 20:32:25.935463  3049 net.cpp:165] Memory required for data: 809254656
I1124 20:32:25.935477  3049 layer_factory.hpp:76] Creating layer conv2/relu_3x3
I1124 20:32:25.935485  3049 net.cpp:106] Creating Layer conv2/relu_3x3
I1124 20:32:25.935492  3049 net.cpp:454] conv2/relu_3x3 <- conv2/3x3
I1124 20:32:25.935502  3049 net.cpp:397] conv2/relu_3x3 -> conv2/3x3 (in-place)
I1124 20:32:25.935667  3049 net.cpp:150] Setting up conv2/relu_3x3
I1124 20:32:25.935680  3049 net.cpp:157] Top shape: 64 192 56 56 (38535168)
I1124 20:32:25.935686  3049 net.cpp:165] Memory required for data: 963395328
I1124 20:32:25.935691  3049 layer_factory.hpp:76] Creating layer conv2/norm2
I1124 20:32:25.935700  3049 net.cpp:106] Creating Layer conv2/norm2
I1124 20:32:25.935706  3049 net.cpp:454] conv2/norm2 <- conv2/3x3
I1124 20:32:25.935716  3049 net.cpp:411] conv2/norm2 -> conv2/norm2
I1124 20:32:25.936028  3049 net.cpp:150] Setting up conv2/norm2
I1124 20:32:25.936041  3049 net.cpp:157] Top shape: 64 192 56 56 (38535168)
I1124 20:32:25.936048  3049 net.cpp:165] Memory required for data: 1117536000
I1124 20:32:25.936053  3049 layer_factory.hpp:76] Creating layer pool2/3x3_s2
I1124 20:32:25.936061  3049 net.cpp:106] Creating Layer pool2/3x3_s2
I1124 20:32:25.936067  3049 net.cpp:454] pool2/3x3_s2 <- conv2/norm2
I1124 20:32:25.936079  3049 net.cpp:411] pool2/3x3_s2 -> pool2/3x3_s2
I1124 20:32:25.936256  3049 net.cpp:150] Setting up pool2/3x3_s2
I1124 20:32:25.936272  3049 net.cpp:157] Top shape: 64 192 28 28 (9633792)
I1124 20:32:25.936277  3049 net.cpp:165] Memory required for data: 1156071168
I1124 20:32:25.936282  3049 layer_factory.hpp:76] Creating layer pool2/3x3_s2_pool2/3x3_s2_0_split
I1124 20:32:25.936292  3049 net.cpp:106] Creating Layer pool2/3x3_s2_pool2/3x3_s2_0_split
I1124 20:32:25.936297  3049 net.cpp:454] pool2/3x3_s2_pool2/3x3_s2_0_split <- pool2/3x3_s2
I1124 20:32:25.936306  3049 net.cpp:411] pool2/3x3_s2_pool2/3x3_s2_0_split -> pool2/3x3_s2_pool2/3x3_s2_0_split_0
I1124 20:32:25.936316  3049 net.cpp:411] pool2/3x3_s2_pool2/3x3_s2_0_split -> pool2/3x3_s2_pool2/3x3_s2_0_split_1
I1124 20:32:25.936331  3049 net.cpp:411] pool2/3x3_s2_pool2/3x3_s2_0_split -> pool2/3x3_s2_pool2/3x3_s2_0_split_2
I1124 20:32:25.936342  3049 net.cpp:411] pool2/3x3_s2_pool2/3x3_s2_0_split -> pool2/3x3_s2_pool2/3x3_s2_0_split_3
I1124 20:32:25.936401  3049 net.cpp:150] Setting up pool2/3x3_s2_pool2/3x3_s2_0_split
I1124 20:32:25.936410  3049 net.cpp:157] Top shape: 64 192 28 28 (9633792)
I1124 20:32:25.936417  3049 net.cpp:157] Top shape: 64 192 28 28 (9633792)
I1124 20:32:25.936424  3049 net.cpp:157] Top shape: 64 192 28 28 (9633792)
I1124 20:32:25.936430  3049 net.cpp:157] Top shape: 64 192 28 28 (9633792)
I1124 20:32:25.936434  3049 net.cpp:165] Memory required for data: 1310211840
I1124 20:32:25.936440  3049 layer_factory.hpp:76] Creating layer inception_3a/1x1
I1124 20:32:25.936453  3049 net.cpp:106] Creating Layer inception_3a/1x1
I1124 20:32:25.936461  3049 net.cpp:454] inception_3a/1x1 <- pool2/3x3_s2_pool2/3x3_s2_0_split_0
I1124 20:32:25.936472  3049 net.cpp:411] inception_3a/1x1 -> inception_3a/1x1
I1124 20:32:25.937801  3049 net.cpp:150] Setting up inception_3a/1x1
I1124 20:32:25.937815  3049 net.cpp:157] Top shape: 64 64 28 28 (3211264)
I1124 20:32:25.937821  3049 net.cpp:165] Memory required for data: 1323056896
I1124 20:32:25.937831  3049 layer_factory.hpp:76] Creating layer inception_3a/relu_1x1
I1124 20:32:25.937840  3049 net.cpp:106] Creating Layer inception_3a/relu_1x1
I1124 20:32:25.937847  3049 net.cpp:454] inception_3a/relu_1x1 <- inception_3a/1x1
I1124 20:32:25.937858  3049 net.cpp:397] inception_3a/relu_1x1 -> inception_3a/1x1 (in-place)
I1124 20:32:25.938143  3049 net.cpp:150] Setting up inception_3a/relu_1x1
I1124 20:32:25.938158  3049 net.cpp:157] Top shape: 64 64 28 28 (3211264)
I1124 20:32:25.938163  3049 net.cpp:165] Memory required for data: 1335901952
I1124 20:32:25.938169  3049 layer_factory.hpp:76] Creating layer inception_3a/3x3_reduce
I1124 20:32:25.938180  3049 net.cpp:106] Creating Layer inception_3a/3x3_reduce
I1124 20:32:25.938187  3049 net.cpp:454] inception_3a/3x3_reduce <- pool2/3x3_s2_pool2/3x3_s2_0_split_1
I1124 20:32:25.938201  3049 net.cpp:411] inception_3a/3x3_reduce -> inception_3a/3x3_reduce
I1124 20:32:25.939704  3049 net.cpp:150] Setting up inception_3a/3x3_reduce
I1124 20:32:25.939719  3049 net.cpp:157] Top shape: 64 96 28 28 (4816896)
I1124 20:32:25.939725  3049 net.cpp:165] Memory required for data: 1355169536
I1124 20:32:25.939739  3049 layer_factory.hpp:76] Creating layer inception_3a/relu_3x3_reduce
I1124 20:32:25.939752  3049 net.cpp:106] Creating Layer inception_3a/relu_3x3_reduce
I1124 20:32:25.939760  3049 net.cpp:454] inception_3a/relu_3x3_reduce <- inception_3a/3x3_reduce
I1124 20:32:25.939769  3049 net.cpp:397] inception_3a/relu_3x3_reduce -> inception_3a/3x3_reduce (in-place)
I1124 20:32:25.939929  3049 net.cpp:150] Setting up inception_3a/relu_3x3_reduce
I1124 20:32:25.939941  3049 net.cpp:157] Top shape: 64 96 28 28 (4816896)
I1124 20:32:25.939946  3049 net.cpp:165] Memory required for data: 1374437120
I1124 20:32:25.939952  3049 layer_factory.hpp:76] Creating layer inception_3a/3x3
I1124 20:32:25.939965  3049 net.cpp:106] Creating Layer inception_3a/3x3
I1124 20:32:25.939972  3049 net.cpp:454] inception_3a/3x3 <- inception_3a/3x3_reduce
I1124 20:32:25.939981  3049 net.cpp:411] inception_3a/3x3 -> inception_3a/3x3
I1124 20:32:25.941493  3049 net.cpp:150] Setting up inception_3a/3x3
I1124 20:32:25.941507  3049 net.cpp:157] Top shape: 64 128 28 28 (6422528)
I1124 20:32:25.941514  3049 net.cpp:165] Memory required for data: 1400127232
I1124 20:32:25.941524  3049 layer_factory.hpp:76] Creating layer inception_3a/relu_3x3
I1124 20:32:25.941531  3049 net.cpp:106] Creating Layer inception_3a/relu_3x3
I1124 20:32:25.941542  3049 net.cpp:454] inception_3a/relu_3x3 <- inception_3a/3x3
I1124 20:32:25.941551  3049 net.cpp:397] inception_3a/relu_3x3 -> inception_3a/3x3 (in-place)
I1124 20:32:25.941707  3049 net.cpp:150] Setting up inception_3a/relu_3x3
I1124 20:32:25.941718  3049 net.cpp:157] Top shape: 64 128 28 28 (6422528)
I1124 20:32:25.941725  3049 net.cpp:165] Memory required for data: 1425817344
I1124 20:32:25.941730  3049 layer_factory.hpp:76] Creating layer inception_3a/5x5_reduce
I1124 20:32:25.941743  3049 net.cpp:106] Creating Layer inception_3a/5x5_reduce
I1124 20:32:25.941751  3049 net.cpp:454] inception_3a/5x5_reduce <- pool2/3x3_s2_pool2/3x3_s2_0_split_2
I1124 20:32:25.941761  3049 net.cpp:411] inception_3a/5x5_reduce -> inception_3a/5x5_reduce
I1124 20:32:25.942665  3049 net.cpp:150] Setting up inception_3a/5x5_reduce
I1124 20:32:25.942679  3049 net.cpp:157] Top shape: 64 16 28 28 (802816)
I1124 20:32:25.942684  3049 net.cpp:165] Memory required for data: 1429028608
I1124 20:32:25.942694  3049 layer_factory.hpp:76] Creating layer inception_3a/relu_5x5_reduce
I1124 20:32:25.942703  3049 net.cpp:106] Creating Layer inception_3a/relu_5x5_reduce
I1124 20:32:25.942709  3049 net.cpp:454] inception_3a/relu_5x5_reduce <- inception_3a/5x5_reduce
I1124 20:32:25.942720  3049 net.cpp:397] inception_3a/relu_5x5_reduce -> inception_3a/5x5_reduce (in-place)
I1124 20:32:25.943002  3049 net.cpp:150] Setting up inception_3a/relu_5x5_reduce
I1124 20:32:25.943016  3049 net.cpp:157] Top shape: 64 16 28 28 (802816)
I1124 20:32:25.943022  3049 net.cpp:165] Memory required for data: 1432239872
I1124 20:32:25.943027  3049 layer_factory.hpp:76] Creating layer inception_3a/5x5
I1124 20:32:25.943040  3049 net.cpp:106] Creating Layer inception_3a/5x5
I1124 20:32:25.943048  3049 net.cpp:454] inception_3a/5x5 <- inception_3a/5x5_reduce
I1124 20:32:25.943060  3049 net.cpp:411] inception_3a/5x5 -> inception_3a/5x5
I1124 20:32:25.944016  3049 net.cpp:150] Setting up inception_3a/5x5
I1124 20:32:25.944030  3049 net.cpp:157] Top shape: 64 32 28 28 (1605632)
I1124 20:32:25.944036  3049 net.cpp:165] Memory required for data: 1438662400
I1124 20:32:25.944046  3049 layer_factory.hpp:76] Creating layer inception_3a/relu_5x5
I1124 20:32:25.944056  3049 net.cpp:106] Creating Layer inception_3a/relu_5x5
I1124 20:32:25.944064  3049 net.cpp:454] inception_3a/relu_5x5 <- inception_3a/5x5
I1124 20:32:25.944073  3049 net.cpp:397] inception_3a/relu_5x5 -> inception_3a/5x5 (in-place)
I1124 20:32:25.944238  3049 net.cpp:150] Setting up inception_3a/relu_5x5
I1124 20:32:25.944250  3049 net.cpp:157] Top shape: 64 32 28 28 (1605632)
I1124 20:32:25.944255  3049 net.cpp:165] Memory required for data: 1445084928
I1124 20:32:25.944260  3049 layer_factory.hpp:76] Creating layer inception_3a/pool
I1124 20:32:25.944269  3049 net.cpp:106] Creating Layer inception_3a/pool
I1124 20:32:25.944277  3049 net.cpp:454] inception_3a/pool <- pool2/3x3_s2_pool2/3x3_s2_0_split_3
I1124 20:32:25.944286  3049 net.cpp:411] inception_3a/pool -> inception_3a/pool
I1124 20:32:25.944584  3049 net.cpp:150] Setting up inception_3a/pool
I1124 20:32:25.944597  3049 net.cpp:157] Top shape: 64 192 28 28 (9633792)
I1124 20:32:25.944603  3049 net.cpp:165] Memory required for data: 1483620096
I1124 20:32:25.944608  3049 layer_factory.hpp:76] Creating layer inception_3a/pool_proj
I1124 20:32:25.944622  3049 net.cpp:106] Creating Layer inception_3a/pool_proj
I1124 20:32:25.944628  3049 net.cpp:454] inception_3a/pool_proj <- inception_3a/pool
I1124 20:32:25.944640  3049 net.cpp:411] inception_3a/pool_proj -> inception_3a/pool_proj
I1124 20:32:25.945426  3049 net.cpp:150] Setting up inception_3a/pool_proj
I1124 20:32:25.945441  3049 net.cpp:157] Top shape: 64 32 28 28 (1605632)
I1124 20:32:25.945446  3049 net.cpp:165] Memory required for data: 1490042624
I1124 20:32:25.945461  3049 layer_factory.hpp:76] Creating layer inception_3a/relu_pool_proj
I1124 20:32:25.945472  3049 net.cpp:106] Creating Layer inception_3a/relu_pool_proj
I1124 20:32:25.945479  3049 net.cpp:454] inception_3a/relu_pool_proj <- inception_3a/pool_proj
I1124 20:32:25.945488  3049 net.cpp:397] inception_3a/relu_pool_proj -> inception_3a/pool_proj (in-place)
I1124 20:32:25.945768  3049 net.cpp:150] Setting up inception_3a/relu_pool_proj
I1124 20:32:25.945783  3049 net.cpp:157] Top shape: 64 32 28 28 (1605632)
I1124 20:32:25.945788  3049 net.cpp:165] Memory required for data: 1496465152
I1124 20:32:25.945793  3049 layer_factory.hpp:76] Creating layer inception_3a/output
I1124 20:32:25.945806  3049 net.cpp:106] Creating Layer inception_3a/output
I1124 20:32:25.945812  3049 net.cpp:454] inception_3a/output <- inception_3a/1x1
I1124 20:32:25.945819  3049 net.cpp:454] inception_3a/output <- inception_3a/3x3
I1124 20:32:25.945827  3049 net.cpp:454] inception_3a/output <- inception_3a/5x5
I1124 20:32:25.945833  3049 net.cpp:454] inception_3a/output <- inception_3a/pool_proj
I1124 20:32:25.945842  3049 net.cpp:411] inception_3a/output -> inception_3a/output
I1124 20:32:25.945879  3049 net.cpp:150] Setting up inception_3a/output
I1124 20:32:25.945889  3049 net.cpp:157] Top shape: 64 256 28 28 (12845056)
I1124 20:32:25.945894  3049 net.cpp:165] Memory required for data: 1547845376
I1124 20:32:25.945899  3049 layer_factory.hpp:76] Creating layer inception_3a/output_inception_3a/output_0_split
I1124 20:32:25.945909  3049 net.cpp:106] Creating Layer inception_3a/output_inception_3a/output_0_split
I1124 20:32:25.945917  3049 net.cpp:454] inception_3a/output_inception_3a/output_0_split <- inception_3a/output
I1124 20:32:25.945925  3049 net.cpp:411] inception_3a/output_inception_3a/output_0_split -> inception_3a/output_inception_3a/output_0_split_0
I1124 20:32:25.945937  3049 net.cpp:411] inception_3a/output_inception_3a/output_0_split -> inception_3a/output_inception_3a/output_0_split_1
I1124 20:32:25.945948  3049 net.cpp:411] inception_3a/output_inception_3a/output_0_split -> inception_3a/output_inception_3a/output_0_split_2
I1124 20:32:25.945971  3049 net.cpp:411] inception_3a/output_inception_3a/output_0_split -> inception_3a/output_inception_3a/output_0_split_3
I1124 20:32:25.946039  3049 net.cpp:150] Setting up inception_3a/output_inception_3a/output_0_split
I1124 20:32:25.946049  3049 net.cpp:157] Top shape: 64 256 28 28 (12845056)
I1124 20:32:25.946055  3049 net.cpp:157] Top shape: 64 256 28 28 (12845056)
I1124 20:32:25.946065  3049 net.cpp:157] Top shape: 64 256 28 28 (12845056)
I1124 20:32:25.946074  3049 net.cpp:157] Top shape: 64 256 28 28 (12845056)
I1124 20:32:25.946079  3049 net.cpp:165] Memory required for data: 1753366272
I1124 20:32:25.946084  3049 layer_factory.hpp:76] Creating layer inception_3b/1x1
I1124 20:32:25.946096  3049 net.cpp:106] Creating Layer inception_3b/1x1
I1124 20:32:25.946104  3049 net.cpp:454] inception_3b/1x1 <- inception_3a/output_inception_3a/output_0_split_0
I1124 20:32:25.946112  3049 net.cpp:411] inception_3b/1x1 -> inception_3b/1x1
I1124 20:32:25.947201  3049 net.cpp:150] Setting up inception_3b/1x1
I1124 20:32:25.947216  3049 net.cpp:157] Top shape: 64 128 28 28 (6422528)
I1124 20:32:25.947223  3049 net.cpp:165] Memory required for data: 1779056384
I1124 20:32:25.947234  3049 layer_factory.hpp:76] Creating layer inception_3b/relu_1x1
I1124 20:32:25.947242  3049 net.cpp:106] Creating Layer inception_3b/relu_1x1
I1124 20:32:25.947252  3049 net.cpp:454] inception_3b/relu_1x1 <- inception_3b/1x1
I1124 20:32:25.947259  3049 net.cpp:397] inception_3b/relu_1x1 -> inception_3b/1x1 (in-place)
I1124 20:32:25.947414  3049 net.cpp:150] Setting up inception_3b/relu_1x1
I1124 20:32:25.947425  3049 net.cpp:157] Top shape: 64 128 28 28 (6422528)
I1124 20:32:25.947430  3049 net.cpp:165] Memory required for data: 1804746496
I1124 20:32:25.947437  3049 layer_factory.hpp:76] Creating layer inception_3b/3x3_reduce
I1124 20:32:25.947448  3049 net.cpp:106] Creating Layer inception_3b/3x3_reduce
I1124 20:32:25.947456  3049 net.cpp:454] inception_3b/3x3_reduce <- inception_3a/output_inception_3a/output_0_split_1
I1124 20:32:25.947468  3049 net.cpp:411] inception_3b/3x3_reduce -> inception_3b/3x3_reduce
I1124 20:32:25.948531  3049 net.cpp:150] Setting up inception_3b/3x3_reduce
I1124 20:32:25.948546  3049 net.cpp:157] Top shape: 64 128 28 28 (6422528)
I1124 20:32:25.948551  3049 net.cpp:165] Memory required for data: 1830436608
I1124 20:32:25.948561  3049 layer_factory.hpp:76] Creating layer inception_3b/relu_3x3_reduce
I1124 20:32:25.948573  3049 net.cpp:106] Creating Layer inception_3b/relu_3x3_reduce
I1124 20:32:25.948581  3049 net.cpp:454] inception_3b/relu_3x3_reduce <- inception_3b/3x3_reduce
I1124 20:32:25.948590  3049 net.cpp:397] inception_3b/relu_3x3_reduce -> inception_3b/3x3_reduce (in-place)
I1124 20:32:25.948868  3049 net.cpp:150] Setting up inception_3b/relu_3x3_reduce
I1124 20:32:25.948882  3049 net.cpp:157] Top shape: 64 128 28 28 (6422528)
I1124 20:32:25.948889  3049 net.cpp:165] Memory required for data: 1856126720
I1124 20:32:25.948894  3049 layer_factory.hpp:76] Creating layer inception_3b/3x3
I1124 20:32:25.948904  3049 net.cpp:106] Creating Layer inception_3b/3x3
I1124 20:32:25.948912  3049 net.cpp:454] inception_3b/3x3 <- inception_3b/3x3_reduce
I1124 20:32:25.948925  3049 net.cpp:411] inception_3b/3x3 -> inception_3b/3x3
I1124 20:32:25.951545  3049 net.cpp:150] Setting up inception_3b/3x3
I1124 20:32:25.951560  3049 net.cpp:157] Top shape: 64 192 28 28 (9633792)
I1124 20:32:25.951565  3049 net.cpp:165] Memory required for data: 1894661888
I1124 20:32:25.951575  3049 layer_factory.hpp:76] Creating layer inception_3b/relu_3x3
I1124 20:32:25.951584  3049 net.cpp:106] Creating Layer inception_3b/relu_3x3
I1124 20:32:25.951591  3049 net.cpp:454] inception_3b/relu_3x3 <- inception_3b/3x3
I1124 20:32:25.951599  3049 net.cpp:397] inception_3b/relu_3x3 -> inception_3b/3x3 (in-place)
I1124 20:32:25.951882  3049 net.cpp:150] Setting up inception_3b/relu_3x3
I1124 20:32:25.951895  3049 net.cpp:157] Top shape: 64 192 28 28 (9633792)
I1124 20:32:25.951901  3049 net.cpp:165] Memory required for data: 1933197056
I1124 20:32:25.951906  3049 layer_factory.hpp:76] Creating layer inception_3b/5x5_reduce
I1124 20:32:25.951920  3049 net.cpp:106] Creating Layer inception_3b/5x5_reduce
I1124 20:32:25.951926  3049 net.cpp:454] inception_3b/5x5_reduce <- inception_3a/output_inception_3a/output_0_split_2
I1124 20:32:25.951938  3049 net.cpp:411] inception_3b/5x5_reduce -> inception_3b/5x5_reduce
I1124 20:32:25.952883  3049 net.cpp:150] Setting up inception_3b/5x5_reduce
I1124 20:32:25.952898  3049 net.cpp:157] Top shape: 64 32 28 28 (1605632)
I1124 20:32:25.952903  3049 net.cpp:165] Memory required for data: 1939619584
I1124 20:32:25.952913  3049 layer_factory.hpp:76] Creating layer inception_3b/relu_5x5_reduce
I1124 20:32:25.952922  3049 net.cpp:106] Creating Layer inception_3b/relu_5x5_reduce
I1124 20:32:25.952929  3049 net.cpp:454] inception_3b/relu_5x5_reduce <- inception_3b/5x5_reduce
I1124 20:32:25.952939  3049 net.cpp:397] inception_3b/relu_5x5_reduce -> inception_3b/5x5_reduce (in-place)
I1124 20:32:25.953099  3049 net.cpp:150] Setting up inception_3b/relu_5x5_reduce
I1124 20:32:25.953110  3049 net.cpp:157] Top shape: 64 32 28 28 (1605632)
I1124 20:32:25.953115  3049 net.cpp:165] Memory required for data: 1946042112
I1124 20:32:25.953120  3049 layer_factory.hpp:76] Creating layer inception_3b/5x5
I1124 20:32:25.953135  3049 net.cpp:106] Creating Layer inception_3b/5x5
I1124 20:32:25.953142  3049 net.cpp:454] inception_3b/5x5 <- inception_3b/5x5_reduce
I1124 20:32:25.953152  3049 net.cpp:411] inception_3b/5x5 -> inception_3b/5x5
I1124 20:32:25.955137  3049 net.cpp:150] Setting up inception_3b/5x5
I1124 20:32:25.955152  3049 net.cpp:157] Top shape: 64 96 28 28 (4816896)
I1124 20:32:25.955158  3049 net.cpp:165] Memory required for data: 1965309696
I1124 20:32:25.955168  3049 layer_factory.hpp:76] Creating layer inception_3b/relu_5x5
I1124 20:32:25.955176  3049 net.cpp:106] Creating Layer inception_3b/relu_5x5
I1124 20:32:25.955183  3049 net.cpp:454] inception_3b/relu_5x5 <- inception_3b/5x5
I1124 20:32:25.955193  3049 net.cpp:397] inception_3b/relu_5x5 -> inception_3b/5x5 (in-place)
I1124 20:32:25.955479  3049 net.cpp:150] Setting up inception_3b/relu_5x5
I1124 20:32:25.955492  3049 net.cpp:157] Top shape: 64 96 28 28 (4816896)
I1124 20:32:25.955498  3049 net.cpp:165] Memory required for data: 1984577280
I1124 20:32:25.955503  3049 layer_factory.hpp:76] Creating layer inception_3b/pool
I1124 20:32:25.955514  3049 net.cpp:106] Creating Layer inception_3b/pool
I1124 20:32:25.955521  3049 net.cpp:454] inception_3b/pool <- inception_3a/output_inception_3a/output_0_split_3
I1124 20:32:25.955530  3049 net.cpp:411] inception_3b/pool -> inception_3b/pool
I1124 20:32:25.955716  3049 net.cpp:150] Setting up inception_3b/pool
I1124 20:32:25.955729  3049 net.cpp:157] Top shape: 64 256 28 28 (12845056)
I1124 20:32:25.955734  3049 net.cpp:165] Memory required for data: 2035957504
I1124 20:32:25.955739  3049 layer_factory.hpp:76] Creating layer inception_3b/pool_proj
I1124 20:32:25.955752  3049 net.cpp:106] Creating Layer inception_3b/pool_proj
I1124 20:32:25.955760  3049 net.cpp:454] inception_3b/pool_proj <- inception_3b/pool
I1124 20:32:25.955773  3049 net.cpp:411] inception_3b/pool_proj -> inception_3b/pool_proj
I1124 20:32:25.956850  3049 net.cpp:150] Setting up inception_3b/pool_proj
I1124 20:32:25.956863  3049 net.cpp:157] Top shape: 64 64 28 28 (3211264)
I1124 20:32:25.956869  3049 net.cpp:165] Memory required for data: 2048802560
I1124 20:32:25.956879  3049 layer_factory.hpp:76] Creating layer inception_3b/relu_pool_proj
I1124 20:32:25.956897  3049 net.cpp:106] Creating Layer inception_3b/relu_pool_proj
I1124 20:32:25.956904  3049 net.cpp:454] inception_3b/relu_pool_proj <- inception_3b/pool_proj
I1124 20:32:25.956912  3049 net.cpp:397] inception_3b/relu_pool_proj -> inception_3b/pool_proj (in-place)
I1124 20:32:25.957193  3049 net.cpp:150] Setting up inception_3b/relu_pool_proj
I1124 20:32:25.957206  3049 net.cpp:157] Top shape: 64 64 28 28 (3211264)
I1124 20:32:25.957212  3049 net.cpp:165] Memory required for data: 2061647616
I1124 20:32:25.957218  3049 layer_factory.hpp:76] Creating layer inception_3b/output
I1124 20:32:25.957227  3049 net.cpp:106] Creating Layer inception_3b/output
I1124 20:32:25.957233  3049 net.cpp:454] inception_3b/output <- inception_3b/1x1
I1124 20:32:25.957242  3049 net.cpp:454] inception_3b/output <- inception_3b/3x3
I1124 20:32:25.957247  3049 net.cpp:454] inception_3b/output <- inception_3b/5x5
I1124 20:32:25.957253  3049 net.cpp:454] inception_3b/output <- inception_3b/pool_proj
I1124 20:32:25.957263  3049 net.cpp:411] inception_3b/output -> inception_3b/output
I1124 20:32:25.957298  3049 net.cpp:150] Setting up inception_3b/output
I1124 20:32:25.957309  3049 net.cpp:157] Top shape: 64 480 28 28 (24084480)
I1124 20:32:25.957315  3049 net.cpp:165] Memory required for data: 2157985536
I1124 20:32:25.957320  3049 layer_factory.hpp:76] Creating layer pool3/3x3_s2
I1124 20:32:25.957329  3049 net.cpp:106] Creating Layer pool3/3x3_s2
I1124 20:32:25.957335  3049 net.cpp:454] pool3/3x3_s2 <- inception_3b/output
I1124 20:32:25.957343  3049 net.cpp:411] pool3/3x3_s2 -> pool3/3x3_s2
I1124 20:32:25.957525  3049 net.cpp:150] Setting up pool3/3x3_s2
I1124 20:32:25.957536  3049 net.cpp:157] Top shape: 64 480 14 14 (6021120)
I1124 20:32:25.957541  3049 net.cpp:165] Memory required for data: 2182070016
I1124 20:32:25.957546  3049 layer_factory.hpp:76] Creating layer pool3/3x3_s2_pool3/3x3_s2_0_split
I1124 20:32:25.957556  3049 net.cpp:106] Creating Layer pool3/3x3_s2_pool3/3x3_s2_0_split
I1124 20:32:25.957561  3049 net.cpp:454] pool3/3x3_s2_pool3/3x3_s2_0_split <- pool3/3x3_s2
I1124 20:32:25.957571  3049 net.cpp:411] pool3/3x3_s2_pool3/3x3_s2_0_split -> pool3/3x3_s2_pool3/3x3_s2_0_split_0
I1124 20:32:25.957582  3049 net.cpp:411] pool3/3x3_s2_pool3/3x3_s2_0_split -> pool3/3x3_s2_pool3/3x3_s2_0_split_1
I1124 20:32:25.957594  3049 net.cpp:411] pool3/3x3_s2_pool3/3x3_s2_0_split -> pool3/3x3_s2_pool3/3x3_s2_0_split_2
I1124 20:32:25.957605  3049 net.cpp:411] pool3/3x3_s2_pool3/3x3_s2_0_split -> pool3/3x3_s2_pool3/3x3_s2_0_split_3
I1124 20:32:25.957665  3049 net.cpp:150] Setting up pool3/3x3_s2_pool3/3x3_s2_0_split
I1124 20:32:25.957674  3049 net.cpp:157] Top shape: 64 480 14 14 (6021120)
I1124 20:32:25.957681  3049 net.cpp:157] Top shape: 64 480 14 14 (6021120)
I1124 20:32:25.957687  3049 net.cpp:157] Top shape: 64 480 14 14 (6021120)
I1124 20:32:25.957695  3049 net.cpp:157] Top shape: 64 480 14 14 (6021120)
I1124 20:32:25.957700  3049 net.cpp:165] Memory required for data: 2278407936
I1124 20:32:25.957705  3049 layer_factory.hpp:76] Creating layer inception_4a/1x1
I1124 20:32:25.957716  3049 net.cpp:106] Creating Layer inception_4a/1x1
I1124 20:32:25.957723  3049 net.cpp:454] inception_4a/1x1 <- pool3/3x3_s2_pool3/3x3_s2_0_split_0
I1124 20:32:25.957732  3049 net.cpp:411] inception_4a/1x1 -> inception_4a/1x1
I1124 20:32:25.959169  3049 net.cpp:150] Setting up inception_4a/1x1
I1124 20:32:25.959184  3049 net.cpp:157] Top shape: 64 192 14 14 (2408448)
I1124 20:32:25.959190  3049 net.cpp:165] Memory required for data: 2288041728
I1124 20:32:25.959200  3049 layer_factory.hpp:76] Creating layer inception_4a/relu_1x1
I1124 20:32:25.959214  3049 net.cpp:106] Creating Layer inception_4a/relu_1x1
I1124 20:32:25.959226  3049 net.cpp:454] inception_4a/relu_1x1 <- inception_4a/1x1
I1124 20:32:25.959235  3049 net.cpp:397] inception_4a/relu_1x1 -> inception_4a/1x1 (in-place)
I1124 20:32:25.959393  3049 net.cpp:150] Setting up inception_4a/relu_1x1
I1124 20:32:25.959405  3049 net.cpp:157] Top shape: 64 192 14 14 (2408448)
I1124 20:32:25.959410  3049 net.cpp:165] Memory required for data: 2297675520
I1124 20:32:25.959416  3049 layer_factory.hpp:76] Creating layer inception_4a/3x3_reduce
I1124 20:32:25.959429  3049 net.cpp:106] Creating Layer inception_4a/3x3_reduce
I1124 20:32:25.959436  3049 net.cpp:454] inception_4a/3x3_reduce <- pool3/3x3_s2_pool3/3x3_s2_0_split_1
I1124 20:32:25.959449  3049 net.cpp:411] inception_4a/3x3_reduce -> inception_4a/3x3_reduce
I1124 20:32:25.960624  3049 net.cpp:150] Setting up inception_4a/3x3_reduce
I1124 20:32:25.960638  3049 net.cpp:157] Top shape: 64 96 14 14 (1204224)
I1124 20:32:25.960644  3049 net.cpp:165] Memory required for data: 2302492416
I1124 20:32:25.960664  3049 layer_factory.hpp:76] Creating layer inception_4a/relu_3x3_reduce
I1124 20:32:25.960675  3049 net.cpp:106] Creating Layer inception_4a/relu_3x3_reduce
I1124 20:32:25.960682  3049 net.cpp:454] inception_4a/relu_3x3_reduce <- inception_4a/3x3_reduce
I1124 20:32:25.960690  3049 net.cpp:397] inception_4a/relu_3x3_reduce -> inception_4a/3x3_reduce (in-place)
I1124 20:32:25.960971  3049 net.cpp:150] Setting up inception_4a/relu_3x3_reduce
I1124 20:32:25.960984  3049 net.cpp:157] Top shape: 64 96 14 14 (1204224)
I1124 20:32:25.960990  3049 net.cpp:165] Memory required for data: 2307309312
I1124 20:32:25.960995  3049 layer_factory.hpp:76] Creating layer inception_4a/3x3
I1124 20:32:25.961009  3049 net.cpp:106] Creating Layer inception_4a/3x3
I1124 20:32:25.961017  3049 net.cpp:454] inception_4a/3x3 <- inception_4a/3x3_reduce
I1124 20:32:25.961027  3049 net.cpp:411] inception_4a/3x3 -> inception_4a/3x3
I1124 20:32:25.963388  3049 net.cpp:150] Setting up inception_4a/3x3
I1124 20:32:25.963403  3049 net.cpp:157] Top shape: 64 208 14 14 (2609152)
I1124 20:32:25.963409  3049 net.cpp:165] Memory required for data: 2317745920
I1124 20:32:25.963418  3049 layer_factory.hpp:76] Creating layer inception_4a/relu_3x3
I1124 20:32:25.963428  3049 net.cpp:106] Creating Layer inception_4a/relu_3x3
I1124 20:32:25.963433  3049 net.cpp:454] inception_4a/relu_3x3 <- inception_4a/3x3
I1124 20:32:25.963444  3049 net.cpp:397] inception_4a/relu_3x3 -> inception_4a/3x3 (in-place)
I1124 20:32:25.963611  3049 net.cpp:150] Setting up inception_4a/relu_3x3
I1124 20:32:25.963624  3049 net.cpp:157] Top shape: 64 208 14 14 (2609152)
I1124 20:32:25.963629  3049 net.cpp:165] Memory required for data: 2328182528
I1124 20:32:25.963634  3049 layer_factory.hpp:76] Creating layer inception_4a/5x5_reduce
I1124 20:32:25.963646  3049 net.cpp:106] Creating Layer inception_4a/5x5_reduce
I1124 20:32:25.963655  3049 net.cpp:454] inception_4a/5x5_reduce <- pool3/3x3_s2_pool3/3x3_s2_0_split_2
I1124 20:32:25.963667  3049 net.cpp:411] inception_4a/5x5_reduce -> inception_4a/5x5_reduce
I1124 20:32:25.964786  3049 net.cpp:150] Setting up inception_4a/5x5_reduce
I1124 20:32:25.964800  3049 net.cpp:157] Top shape: 64 16 14 14 (200704)
I1124 20:32:25.964805  3049 net.cpp:165] Memory required for data: 2328985344
I1124 20:32:25.964815  3049 layer_factory.hpp:76] Creating layer inception_4a/relu_5x5_reduce
I1124 20:32:25.964824  3049 net.cpp:106] Creating Layer inception_4a/relu_5x5_reduce
I1124 20:32:25.964830  3049 net.cpp:454] inception_4a/relu_5x5_reduce <- inception_4a/5x5_reduce
I1124 20:32:25.964840  3049 net.cpp:397] inception_4a/relu_5x5_reduce -> inception_4a/5x5_reduce (in-place)
I1124 20:32:25.965000  3049 net.cpp:150] Setting up inception_4a/relu_5x5_reduce
I1124 20:32:25.965013  3049 net.cpp:157] Top shape: 64 16 14 14 (200704)
I1124 20:32:25.965018  3049 net.cpp:165] Memory required for data: 2329788160
I1124 20:32:25.965023  3049 layer_factory.hpp:76] Creating layer inception_4a/5x5
I1124 20:32:25.965035  3049 net.cpp:106] Creating Layer inception_4a/5x5
I1124 20:32:25.965044  3049 net.cpp:454] inception_4a/5x5 <- inception_4a/5x5_reduce
I1124 20:32:25.965057  3049 net.cpp:411] inception_4a/5x5 -> inception_4a/5x5
I1124 20:32:25.966074  3049 net.cpp:150] Setting up inception_4a/5x5
I1124 20:32:25.966089  3049 net.cpp:157] Top shape: 64 48 14 14 (602112)
I1124 20:32:25.966095  3049 net.cpp:165] Memory required for data: 2332196608
I1124 20:32:25.966105  3049 layer_factory.hpp:76] Creating layer inception_4a/relu_5x5
I1124 20:32:25.966114  3049 net.cpp:106] Creating Layer inception_4a/relu_5x5
I1124 20:32:25.966121  3049 net.cpp:454] inception_4a/relu_5x5 <- inception_4a/5x5
I1124 20:32:25.966130  3049 net.cpp:397] inception_4a/relu_5x5 -> inception_4a/5x5 (in-place)
I1124 20:32:25.966413  3049 net.cpp:150] Setting up inception_4a/relu_5x5
I1124 20:32:25.966426  3049 net.cpp:157] Top shape: 64 48 14 14 (602112)
I1124 20:32:25.966433  3049 net.cpp:165] Memory required for data: 2334605056
I1124 20:32:25.966439  3049 layer_factory.hpp:76] Creating layer inception_4a/pool
I1124 20:32:25.966446  3049 net.cpp:106] Creating Layer inception_4a/pool
I1124 20:32:25.966454  3049 net.cpp:454] inception_4a/pool <- pool3/3x3_s2_pool3/3x3_s2_0_split_3
I1124 20:32:25.966461  3049 net.cpp:411] inception_4a/pool -> inception_4a/pool
I1124 20:32:25.966646  3049 net.cpp:150] Setting up inception_4a/pool
I1124 20:32:25.966658  3049 net.cpp:157] Top shape: 64 480 14 14 (6021120)
I1124 20:32:25.966663  3049 net.cpp:165] Memory required for data: 2358689536
I1124 20:32:25.966668  3049 layer_factory.hpp:76] Creating layer inception_4a/pool_proj
I1124 20:32:25.966681  3049 net.cpp:106] Creating Layer inception_4a/pool_proj
I1124 20:32:25.966688  3049 net.cpp:454] inception_4a/pool_proj <- inception_4a/pool
I1124 20:32:25.966701  3049 net.cpp:411] inception_4a/pool_proj -> inception_4a/pool_proj
I1124 20:32:25.967799  3049 net.cpp:150] Setting up inception_4a/pool_proj
I1124 20:32:25.967813  3049 net.cpp:157] Top shape: 64 64 14 14 (802816)
I1124 20:32:25.967819  3049 net.cpp:165] Memory required for data: 2361900800
I1124 20:32:25.967828  3049 layer_factory.hpp:76] Creating layer inception_4a/relu_pool_proj
I1124 20:32:25.967839  3049 net.cpp:106] Creating Layer inception_4a/relu_pool_proj
I1124 20:32:25.967849  3049 net.cpp:454] inception_4a/relu_pool_proj <- inception_4a/pool_proj
I1124 20:32:25.967856  3049 net.cpp:397] inception_4a/relu_pool_proj -> inception_4a/pool_proj (in-place)
I1124 20:32:25.968145  3049 net.cpp:150] Setting up inception_4a/relu_pool_proj
I1124 20:32:25.968159  3049 net.cpp:157] Top shape: 64 64 14 14 (802816)
I1124 20:32:25.968164  3049 net.cpp:165] Memory required for data: 2365112064
I1124 20:32:25.968169  3049 layer_factory.hpp:76] Creating layer inception_4a/output
I1124 20:32:25.968181  3049 net.cpp:106] Creating Layer inception_4a/output
I1124 20:32:25.968189  3049 net.cpp:454] inception_4a/output <- inception_4a/1x1
I1124 20:32:25.968195  3049 net.cpp:454] inception_4a/output <- inception_4a/3x3
I1124 20:32:25.968204  3049 net.cpp:454] inception_4a/output <- inception_4a/5x5
I1124 20:32:25.968210  3049 net.cpp:454] inception_4a/output <- inception_4a/pool_proj
I1124 20:32:25.968217  3049 net.cpp:411] inception_4a/output -> inception_4a/output
I1124 20:32:25.968255  3049 net.cpp:150] Setting up inception_4a/output
I1124 20:32:25.968264  3049 net.cpp:157] Top shape: 64 512 14 14 (6422528)
I1124 20:32:25.968269  3049 net.cpp:165] Memory required for data: 2390802176
I1124 20:32:25.968274  3049 layer_factory.hpp:76] Creating layer inception_4a/output_inception_4a/output_0_split
I1124 20:32:25.968283  3049 net.cpp:106] Creating Layer inception_4a/output_inception_4a/output_0_split
I1124 20:32:25.968289  3049 net.cpp:454] inception_4a/output_inception_4a/output_0_split <- inception_4a/output
I1124 20:32:25.968299  3049 net.cpp:411] inception_4a/output_inception_4a/output_0_split -> inception_4a/output_inception_4a/output_0_split_0
I1124 20:32:25.968312  3049 net.cpp:411] inception_4a/output_inception_4a/output_0_split -> inception_4a/output_inception_4a/output_0_split_1
I1124 20:32:25.968323  3049 net.cpp:411] inception_4a/output_inception_4a/output_0_split -> inception_4a/output_inception_4a/output_0_split_2
I1124 20:32:25.968334  3049 net.cpp:411] inception_4a/output_inception_4a/output_0_split -> inception_4a/output_inception_4a/output_0_split_3
I1124 20:32:25.968345  3049 net.cpp:411] inception_4a/output_inception_4a/output_0_split -> inception_4a/output_inception_4a/output_0_split_4
I1124 20:32:25.968421  3049 net.cpp:150] Setting up inception_4a/output_inception_4a/output_0_split
I1124 20:32:25.968431  3049 net.cpp:157] Top shape: 64 512 14 14 (6422528)
I1124 20:32:25.968438  3049 net.cpp:157] Top shape: 64 512 14 14 (6422528)
I1124 20:32:25.968446  3049 net.cpp:157] Top shape: 64 512 14 14 (6422528)
I1124 20:32:25.968451  3049 net.cpp:157] Top shape: 64 512 14 14 (6422528)
I1124 20:32:25.968458  3049 net.cpp:157] Top shape: 64 512 14 14 (6422528)
I1124 20:32:25.968462  3049 net.cpp:165] Memory required for data: 2519252736
I1124 20:32:25.968468  3049 layer_factory.hpp:76] Creating layer loss1/ave_pool
I1124 20:32:25.968477  3049 net.cpp:106] Creating Layer loss1/ave_pool
I1124 20:32:25.968482  3049 net.cpp:454] loss1/ave_pool <- inception_4a/output_inception_4a/output_0_split_0
I1124 20:32:25.968490  3049 net.cpp:411] loss1/ave_pool -> loss1/ave_pool
I1124 20:32:25.968660  3049 net.cpp:150] Setting up loss1/ave_pool
I1124 20:32:25.968672  3049 net.cpp:157] Top shape: 64 512 4 4 (524288)
I1124 20:32:25.968677  3049 net.cpp:165] Memory required for data: 2521349888
I1124 20:32:25.968683  3049 layer_factory.hpp:76] Creating layer loss1/conv
I1124 20:32:25.968695  3049 net.cpp:106] Creating Layer loss1/conv
I1124 20:32:25.968703  3049 net.cpp:454] loss1/conv <- loss1/ave_pool
I1124 20:32:25.968714  3049 net.cpp:411] loss1/conv -> loss1/conv
I1124 20:32:25.970013  3049 net.cpp:150] Setting up loss1/conv
I1124 20:32:25.970027  3049 net.cpp:157] Top shape: 64 128 4 4 (131072)
I1124 20:32:25.970033  3049 net.cpp:165] Memory required for data: 2521874176
I1124 20:32:25.970043  3049 layer_factory.hpp:76] Creating layer loss1/relu_conv
I1124 20:32:25.970054  3049 net.cpp:106] Creating Layer loss1/relu_conv
I1124 20:32:25.970062  3049 net.cpp:454] loss1/relu_conv <- loss1/conv
I1124 20:32:25.970073  3049 net.cpp:397] loss1/relu_conv -> loss1/conv (in-place)
I1124 20:32:25.970232  3049 net.cpp:150] Setting up loss1/relu_conv
I1124 20:32:25.970244  3049 net.cpp:157] Top shape: 64 128 4 4 (131072)
I1124 20:32:25.970249  3049 net.cpp:165] Memory required for data: 2522398464
I1124 20:32:25.970254  3049 layer_factory.hpp:76] Creating layer loss1/fc
I1124 20:32:25.970268  3049 net.cpp:106] Creating Layer loss1/fc
I1124 20:32:25.970274  3049 net.cpp:454] loss1/fc <- loss1/conv
I1124 20:32:25.970283  3049 net.cpp:411] loss1/fc -> loss1/fc
I1124 20:32:25.984604  3049 net.cpp:150] Setting up loss1/fc
I1124 20:32:25.984623  3049 net.cpp:157] Top shape: 64 1024 (65536)
I1124 20:32:25.984628  3049 net.cpp:165] Memory required for data: 2522660608
I1124 20:32:25.984639  3049 layer_factory.hpp:76] Creating layer loss1/relu_fc
I1124 20:32:25.984649  3049 net.cpp:106] Creating Layer loss1/relu_fc
I1124 20:32:25.984658  3049 net.cpp:454] loss1/relu_fc <- loss1/fc
I1124 20:32:25.984666  3049 net.cpp:397] loss1/relu_fc -> loss1/fc (in-place)
I1124 20:32:25.985026  3049 net.cpp:150] Setting up loss1/relu_fc
I1124 20:32:25.985039  3049 net.cpp:157] Top shape: 64 1024 (65536)
I1124 20:32:25.985045  3049 net.cpp:165] Memory required for data: 2522922752
I1124 20:32:25.985050  3049 layer_factory.hpp:76] Creating layer loss1/drop_fc
I1124 20:32:25.985064  3049 net.cpp:106] Creating Layer loss1/drop_fc
I1124 20:32:25.985074  3049 net.cpp:454] loss1/drop_fc <- loss1/fc
I1124 20:32:25.985085  3049 net.cpp:397] loss1/drop_fc -> loss1/fc (in-place)
I1124 20:32:25.985126  3049 net.cpp:150] Setting up loss1/drop_fc
I1124 20:32:25.985138  3049 net.cpp:157] Top shape: 64 1024 (65536)
I1124 20:32:25.985143  3049 net.cpp:165] Memory required for data: 2523184896
I1124 20:32:25.985149  3049 layer_factory.hpp:76] Creating layer loss1/fc_loss1/drop_fc_0_split
I1124 20:32:25.985158  3049 net.cpp:106] Creating Layer loss1/fc_loss1/drop_fc_0_split
I1124 20:32:25.985168  3049 net.cpp:454] loss1/fc_loss1/drop_fc_0_split <- loss1/fc
I1124 20:32:25.985177  3049 net.cpp:411] loss1/fc_loss1/drop_fc_0_split -> loss1/fc_loss1/drop_fc_0_split_0
I1124 20:32:25.985191  3049 net.cpp:411] loss1/fc_loss1/drop_fc_0_split -> loss1/fc_loss1/drop_fc_0_split_1
I1124 20:32:25.985205  3049 net.cpp:411] loss1/fc_loss1/drop_fc_0_split -> loss1/fc_loss1/drop_fc_0_split_2
I1124 20:32:25.985218  3049 net.cpp:411] loss1/fc_loss1/drop_fc_0_split -> loss1/fc_loss1/drop_fc_0_split_3
I1124 20:32:25.985227  3049 net.cpp:411] loss1/fc_loss1/drop_fc_0_split -> loss1/fc_loss1/drop_fc_0_split_4
I1124 20:32:25.985237  3049 net.cpp:411] loss1/fc_loss1/drop_fc_0_split -> loss1/fc_loss1/drop_fc_0_split_5
I1124 20:32:25.985327  3049 net.cpp:150] Setting up loss1/fc_loss1/drop_fc_0_split
I1124 20:32:25.985337  3049 net.cpp:157] Top shape: 64 1024 (65536)
I1124 20:32:25.985343  3049 net.cpp:157] Top shape: 64 1024 (65536)
I1124 20:32:25.985349  3049 net.cpp:157] Top shape: 64 1024 (65536)
I1124 20:32:25.985355  3049 net.cpp:157] Top shape: 64 1024 (65536)
I1124 20:32:25.985362  3049 net.cpp:157] Top shape: 64 1024 (65536)
I1124 20:32:25.985368  3049 net.cpp:157] Top shape: 64 1024 (65536)
I1124 20:32:25.985373  3049 net.cpp:165] Memory required for data: 2524757760
I1124 20:32:25.985378  3049 layer_factory.hpp:76] Creating layer loss1/classifier-00.category
I1124 20:32:25.985390  3049 net.cpp:106] Creating Layer loss1/classifier-00.category
I1124 20:32:25.985397  3049 net.cpp:454] loss1/classifier-00.category <- loss1/fc_loss1/drop_fc_0_split_0
I1124 20:32:25.985409  3049 net.cpp:411] loss1/classifier-00.category -> loss1/classifier-00.category
I1124 20:32:25.985613  3049 net.cpp:150] Setting up loss1/classifier-00.category
I1124 20:32:25.985623  3049 net.cpp:157] Top shape: 64 16 (1024)
I1124 20:32:25.985628  3049 net.cpp:165] Memory required for data: 2524761856
I1124 20:32:25.985637  3049 layer_factory.hpp:76] Creating layer loss1/loss_00.category
I1124 20:32:25.985652  3049 net.cpp:106] Creating Layer loss1/loss_00.category
I1124 20:32:25.985658  3049 net.cpp:454] loss1/loss_00.category <- loss1/classifier-00.category
I1124 20:32:25.985666  3049 net.cpp:454] loss1/loss_00.category <- 00.category_slice_attribute_0_split_0
I1124 20:32:25.985682  3049 net.cpp:411] loss1/loss_00.category -> loss1/loss_00.category
I1124 20:32:25.985697  3049 layer_factory.hpp:76] Creating layer loss1/loss_00.category
I1124 20:32:25.986073  3049 net.cpp:150] Setting up loss1/loss_00.category
I1124 20:32:25.986088  3049 net.cpp:157] Top shape: (1)
I1124 20:32:25.986093  3049 net.cpp:160]     with loss weight 0.3
I1124 20:32:25.986117  3049 net.cpp:165] Memory required for data: 2524761860
I1124 20:32:25.986124  3049 layer_factory.hpp:76] Creating layer loss1/classifier-02.collar_shape
I1124 20:32:25.986136  3049 net.cpp:106] Creating Layer loss1/classifier-02.collar_shape
I1124 20:32:25.986143  3049 net.cpp:454] loss1/classifier-02.collar_shape <- loss1/fc_loss1/drop_fc_0_split_1
I1124 20:32:25.986155  3049 net.cpp:411] loss1/classifier-02.collar_shape -> loss1/classifier-02.collar_shape
I1124 20:32:25.986346  3049 net.cpp:150] Setting up loss1/classifier-02.collar_shape
I1124 20:32:25.986356  3049 net.cpp:157] Top shape: 64 13 (832)
I1124 20:32:25.986361  3049 net.cpp:165] Memory required for data: 2524765188
I1124 20:32:25.986369  3049 layer_factory.hpp:76] Creating layer loss1/loss_02.collar_shape
I1124 20:32:25.986379  3049 net.cpp:106] Creating Layer loss1/loss_02.collar_shape
I1124 20:32:25.986387  3049 net.cpp:454] loss1/loss_02.collar_shape <- loss1/classifier-02.collar_shape
I1124 20:32:25.986395  3049 net.cpp:454] loss1/loss_02.collar_shape <- 02.collar_shape_slice_attribute_2_split_0
I1124 20:32:25.986407  3049 net.cpp:411] loss1/loss_02.collar_shape -> loss1/loss_02.collar_shape
I1124 20:32:25.986419  3049 layer_factory.hpp:76] Creating layer loss1/loss_02.collar_shape
I1124 20:32:25.986686  3049 net.cpp:150] Setting up loss1/loss_02.collar_shape
I1124 20:32:25.986698  3049 net.cpp:157] Top shape: (1)
I1124 20:32:25.986704  3049 net.cpp:160]     with loss weight 0.3
I1124 20:32:25.986712  3049 net.cpp:165] Memory required for data: 2524765192
I1124 20:32:25.986718  3049 layer_factory.hpp:76] Creating layer loss1/classifier-05.pattern
I1124 20:32:25.986729  3049 net.cpp:106] Creating Layer loss1/classifier-05.pattern
I1124 20:32:25.986737  3049 net.cpp:454] loss1/classifier-05.pattern <- loss1/fc_loss1/drop_fc_0_split_2
I1124 20:32:25.986747  3049 net.cpp:411] loss1/classifier-05.pattern -> loss1/classifier-05.pattern
I1124 20:32:25.986968  3049 net.cpp:150] Setting up loss1/classifier-05.pattern
I1124 20:32:25.986979  3049 net.cpp:157] Top shape: 64 16 (1024)
I1124 20:32:25.986985  3049 net.cpp:165] Memory required for data: 2524769288
I1124 20:32:25.986994  3049 layer_factory.hpp:76] Creating layer loss1/loss_05.pattern
I1124 20:32:25.987002  3049 net.cpp:106] Creating Layer loss1/loss_05.pattern
I1124 20:32:25.987009  3049 net.cpp:454] loss1/loss_05.pattern <- loss1/classifier-05.pattern
I1124 20:32:25.987016  3049 net.cpp:454] loss1/loss_05.pattern <- 05.pattern_slice_attribute_5_split_0
I1124 20:32:25.987026  3049 net.cpp:411] loss1/loss_05.pattern -> loss1/loss_05.pattern
I1124 20:32:25.987040  3049 layer_factory.hpp:76] Creating layer loss1/loss_05.pattern
I1124 20:32:25.987423  3049 net.cpp:150] Setting up loss1/loss_05.pattern
I1124 20:32:25.987437  3049 net.cpp:157] Top shape: (1)
I1124 20:32:25.987442  3049 net.cpp:160]     with loss weight 0.3
I1124 20:32:25.987450  3049 net.cpp:165] Memory required for data: 2524769292
I1124 20:32:25.987457  3049 layer_factory.hpp:76] Creating layer loss1/classifier-06.button_shape
I1124 20:32:25.987467  3049 net.cpp:106] Creating Layer loss1/classifier-06.button_shape
I1124 20:32:25.987473  3049 net.cpp:454] loss1/classifier-06.button_shape <- loss1/fc_loss1/drop_fc_0_split_3
I1124 20:32:25.987484  3049 net.cpp:411] loss1/classifier-06.button_shape -> loss1/classifier-06.button_shape
I1124 20:32:25.987651  3049 net.cpp:150] Setting up loss1/classifier-06.button_shape
I1124 20:32:25.987661  3049 net.cpp:157] Top shape: 64 9 (576)
I1124 20:32:25.987666  3049 net.cpp:165] Memory required for data: 2524771596
I1124 20:32:25.987676  3049 layer_factory.hpp:76] Creating layer loss1/loss_06.button_shape
I1124 20:32:25.987686  3049 net.cpp:106] Creating Layer loss1/loss_06.button_shape
I1124 20:32:25.987694  3049 net.cpp:454] loss1/loss_06.button_shape <- loss1/classifier-06.button_shape
I1124 20:32:25.987702  3049 net.cpp:454] loss1/loss_06.button_shape <- 06.button_shape_slice_attribute_6_split_0
…
I1124 20:32:25.987992  3049 net.cpp:165] Memory required for data: 2524771600
I1124 20:32:25.987998  3049 layer_factory.hpp:76] Creating layer loss1/classifier-09.fashion_elements
I1124 20:32:25.988006  3049 net.cpp:106] Creating Layer loss1/classifier-09.fashion_elements
I1124 20:32:25.988013  3049 net.cpp:454] loss1/classifier-09.fashion_elements <- loss1/fc_loss1/drop_fc_0_split_4
I1124 20:32:25.988024  3049 net.cpp:411] loss1/classifier-09.fashion_elements -> loss1/classifier-09.fashion_elements
I1124 20:32:25.988226  3049 net.cpp:150] Setting up loss1/classifier-09.fashion_elements
I1124 20:32:25.988236  3049 net.cpp:157] Top shape: 64 15 (960)
I1124 20:32:25.988241  3049 net.cpp:165] Memory required for data: 2524775440
I1124 20:32:25.988251  3049 layer_factory.hpp:76] Creating layer loss1/loss_09.fashion_elements
I1124 20:32:25.988260  3049 net.cpp:106] Creating Layer loss1/loss_09.fashion_elements
I1124 20:32:25.988267  3049 net.cpp:454] loss1/loss_09.fashion_elements <- loss1/classifier-09.fashion_elements
I1124 20:32:25.988275  3049 net.cpp:454] loss1/loss_09.fashion_elements <- 09.fashion_elements_slice_attribute_9_split_0
I1124 20:32:25.988286  3049 net.cpp:411] loss1/loss_09.fashion_elements -> loss1/loss_09.fashion_elements
I1124 20:32:25.988297  3049 layer_factory.hpp:76] Creating layer loss1/loss_09.fashion_elements
I1124 20:32:25.988672  3049 net.cpp:150] Setting up loss1/loss_09.fashion_elements
I1124 20:32:25.988685  3049 net.cpp:157] Top shape: (1)
I1124 20:32:25.988692  3049 net.cpp:160]     with loss weight 0.3
I1124 20:32:25.988699  3049 net.cpp:165] Memory required for data: 2524775444
I1124 20:32:25.988705  3049 layer_factory.hpp:76] Creating layer loss1/classifier-21.color
I1124 20:32:25.988718  3049 net.cpp:106] Creating Layer loss1/classifier-21.color
I1124 20:32:25.988725  3049 net.cpp:454] loss1/classifier-21.color <- loss1/fc_loss1/drop_fc_0_split_5
I1124 20:32:25.988736  3049 net.cpp:411] loss1/classifier-21.color -> loss1/classifier-21.color
I1124 20:32:25.989384  3049 net.cpp:150] Setting up loss1/classifier-21.color
I1124 20:32:25.989398  3049 net.cpp:157] Top shape: 64 21 (1344)
I1124 20:32:25.989403  3049 net.cpp:165] Memory required for data: 2524780820
I1124 20:32:25.989413  3049 layer_factory.hpp:76] Creating layer loss1/loss_21.color
I1124 20:32:25.989423  3049 net.cpp:106] Creating Layer loss1/loss_21.color
I1124 20:32:25.989433  3049 net.cpp:454] loss1/loss_21.color <- loss1/classifier-21.color
I1124 20:32:25.989440  3049 net.cpp:454] loss1/loss_21.color <- 21.color_slice_attribute_21_split_0
I1124 20:32:25.989450  3049 net.cpp:411] loss1/loss_21.color -> loss1/loss_21.color
I1124 20:32:25.989464  3049 layer_factory.hpp:76] Creating layer loss1/loss_21.color
I1124 20:32:25.989706  3049 net.cpp:150] Setting up loss1/loss_21.color
I1124 20:32:25.989718  3049 net.cpp:157] Top shape: (1)
I1124 20:32:25.989723  3049 net.cpp:160]     with loss weight 0.3
I1124 20:32:25.989732  3049 net.cpp:165] Memory required for data: 2524780824
I1124 20:32:25.989737  3049 layer_factory.hpp:76] Creating layer inception_4b/1x1
I1124 20:32:25.989750  3049 net.cpp:106] Creating Layer inception_4b/1x1
I1124 20:32:25.989758  3049 net.cpp:454] inception_4b/1x1 <- inception_4a/output_inception_4a/output_0_split_1
I1124 20:32:25.989770  3049 net.cpp:411] inception_4b/1x1 -> inception_4b/1x1
I1124 20:32:25.991217  3049 net.cpp:150] Setting up inception_4b/1x1
I1124 20:32:25.991235  3049 net.cpp:157] Top shape: 64 160 14 14 (2007040)
I1124 20:32:25.991240  3049 net.cpp:165] Memory required for data: 2532808984
I1124 20:32:25.991250  3049 layer_factory.hpp:76] Creating layer inception_4b/relu_1x1
I1124 20:32:25.991258  3049 net.cpp:106] Creating Layer inception_4b/relu_1x1
I1124 20:32:25.991266  3049 net.cpp:454] inception_4b/relu_1x1 <- inception_4b/1x1
I1124 20:32:25.991277  3049 net.cpp:397] inception_4b/relu_1x1 -> inception_4b/1x1 (in-place)
I1124 20:32:25.991569  3049 net.cpp:150] Setting up inception_4b/relu_1x1
I1124 20:32:25.991582  3049 net.cpp:157] Top shape: 64 160 14 14 (2007040)
I1124 20:32:25.991588  3049 net.cpp:165] Memory required for data: 2540837144
I1124 20:32:25.991593  3049 layer_factory.hpp:76] Creating layer inception_4b/3x3_reduce
I1124 20:32:25.991606  3049 net.cpp:106] Creating Layer inception_4b/3x3_reduce
I1124 20:32:25.991614  3049 net.cpp:454] inception_4b/3x3_reduce <- inception_4a/output_inception_4a/output_0_split_2
I1124 20:32:25.991626  3049 net.cpp:411] inception_4b/3x3_reduce -> inception_4b/3x3_reduce
I1124 20:32:25.992771  3049 net.cpp:150] Setting up inception_4b/3x3_reduce
I1124 20:32:25.992785  3049 net.cpp:157] Top shape: 64 112 14 14 (1404928)
I1124 20:32:25.992790  3049 net.cpp:165] Memory required for data: 2546456856
I1124 20:32:25.992800  3049 layer_factory.hpp:76] Creating layer inception_4b/relu_3x3_reduce
I1124 20:32:25.992812  3049 net.cpp:106] Creating Layer inception_4b/relu_3x3_reduce
I1124 20:32:25.992821  3049 net.cpp:454] inception_4b/relu_3x3_reduce <- inception_4b/3x3_reduce
I1124 20:32:25.992830  3049 net.cpp:397] inception_4b/relu_3x3_reduce -> inception_4b/3x3_reduce (in-place)
I1124 20:32:25.993239  3049 net.cpp:150] Setting up inception_4b/relu_3x3_reduce
I1124 20:32:25.993252  3049 net.cpp:157] Top shape: 64 112 14 14 (1404928)
I1124 20:32:25.993258  3049 net.cpp:165] Memory required for data: 2552076568
I1124 20:32:25.993263  3049 layer_factory.hpp:76] Creating layer inception_4b/3x3
I1124 20:32:25.993278  3049 net.cpp:106] Creating Layer inception_4b/3x3
I1124 20:32:25.993285  3049 net.cpp:454] inception_4b/3x3 <- inception_4b/3x3_reduce
I1124 20:32:25.993297  3049 net.cpp:411] inception_4b/3x3 -> inception_4b/3x3
I1124 20:32:25.995942  3049 net.cpp:150] Setting up inception_4b/3x3
I1124 20:32:25.995957  3049 net.cpp:157] Top shape: 64 224 14 14 (2809856)
I1124 20:32:25.995964  3049 net.cpp:165] Memory required for data: 2563315992
I1124 20:32:25.995973  3049 layer_factory.hpp:76] Creating layer inception_4b/relu_3x3
I1124 20:32:25.995982  3049 net.cpp:106] Creating Layer inception_4b/relu_3x3
I1124 20:32:25.995988  3049 net.cpp:454] inception_4b/relu_3x3 <- inception_4b/3x3
I1124 20:32:25.995996  3049 net.cpp:397] inception_4b/relu_3x3 -> inception_4b/3x3 (in-place)
I1124 20:32:25.996157  3049 net.cpp:150] Setting up inception_4b/relu_3x3
I1124 20:32:25.996173  3049 net.cpp:157] Top shape: 64 224 14 14 (2809856)
I1124 20:32:25.996178  3049 net.cpp:165] Memory required for data: 2574555416
I1124 20:32:25.996184  3049 layer_factory.hpp:76] Creating layer inception_4b/5x5_reduce
I1124 20:32:25.996196  3049 net.cpp:106] Creating Layer inception_4b/5x5_reduce
I1124 20:32:25.996204  3049 net.cpp:454] inception_4b/5x5_reduce <- inception_4a/output_inception_4a/output_0_split_3
I1124 20:32:25.996217  3049 net.cpp:411] inception_4b/5x5_reduce -> inception_4b/5x5_reduce
I1124 20:32:25.997261  3049 net.cpp:150] Setting up inception_4b/5x5_reduce
I1124 20:32:25.997274  3049 net.cpp:157] Top shape: 64 24 14 14 (301056)
I1124 20:32:25.997280  3049 net.cpp:165] Memory required for data: 2575759640
I1124 20:32:25.997304  3049 layer_factory.hpp:76] Creating layer inception_4b/relu_5x5_reduce
I1124 20:32:25.997314  3049 net.cpp:106] Creating Layer inception_4b/relu_5x5_reduce
I1124 20:32:25.997321  3049 net.cpp:454] inception_4b/relu_5x5_reduce <- inception_4b/5x5_reduce
I1124 20:32:25.997331  3049 net.cpp:397] inception_4b/relu_5x5_reduce -> inception_4b/5x5_reduce (in-place)
I1124 20:32:25.997622  3049 net.cpp:150] Setting up inception_4b/relu_5x5_reduce
I1124 20:32:25.997635  3049 net.cpp:157] Top shape: 64 24 14 14 (301056)
I1124 20:32:25.997640  3049 net.cpp:165] Memory required for data: 2576963864
I1124 20:32:25.997645  3049 layer_factory.hpp:76] Creating layer inception_4b/5x5
I1124 20:32:25.997659  3049 net.cpp:106] Creating Layer inception_4b/5x5
I1124 20:32:25.997668  3049 net.cpp:454] inception_4b/5x5 <- inception_4b/5x5_reduce
I1124 20:32:25.997681  3049 net.cpp:411] inception_4b/5x5 -> inception_4b/5x5
I1124 20:32:25.998744  3049 net.cpp:150] Setting up inception_4b/5x5
I1124 20:32:25.998759  3049 net.cpp:157] Top shape: 64 64 14 14 (802816)
I1124 20:32:25.998764  3049 net.cpp:165] Memory required for data: 2580175128
I1124 20:32:25.998774  3049 layer_factory.hpp:76] Creating layer inception_4b/relu_5x5
I1124 20:32:25.998785  3049 net.cpp:106] Creating Layer inception_4b/relu_5x5
I1124 20:32:25.998792  3049 net.cpp:454] inception_4b/relu_5x5 <- inception_4b/5x5
I1124 20:32:25.998801  3049 net.cpp:397] inception_4b/relu_5x5 -> inception_4b/5x5 (in-place)
I1124 20:32:25.999107  3049 net.cpp:150] Setting up inception_4b/relu_5x5
I1124 20:32:25.999121  3049 net.cpp:157] Top shape: 64 64 14 14 (802816)
I1124 20:32:25.999127  3049 net.cpp:165] Memory required for data: 2583386392
I1124 20:32:25.999133  3049 layer_factory.hpp:76] Creating layer inception_4b/pool
I1124 20:32:25.999145  3049 net.cpp:106] Creating Layer inception_4b/pool
I1124 20:32:25.999155  3049 net.cpp:454] inception_4b/pool <- inception_4a/output_inception_4a/output_0_split_4
I1124 20:32:25.999163  3049 net.cpp:411] inception_4b/pool -> inception_4b/pool
I1124 20:32:25.999363  3049 net.cpp:150] Setting up inception_4b/pool
I1124 20:32:25.999375  3049 net.cpp:157] Top shape: 64 512 14 14 (6422528)
I1124 20:32:25.999382  3049 net.cpp:165] Memory required for data: 2609076504
I1124 20:32:25.999387  3049 layer_factory.hpp:76] Creating layer inception_4b/pool_proj
I1124 20:32:25.999400  3049 net.cpp:106] Creating Layer inception_4b/pool_proj
I1124 20:32:25.999409  3049 net.cpp:454] inception_4b/pool_proj <- inception_4b/pool
I1124 20:32:25.999421  3049 net.cpp:411] inception_4b/pool_proj -> inception_4b/pool_proj
I1124 20:32:26.000583  3049 net.cpp:150] Setting up inception_4b/pool_proj
I1124 20:32:26.000597  3049 net.cpp:157] Top shape: 64 64 14 14 (802816)
I1124 20:32:26.000604  3049 net.cpp:165] Memory required for data: 2612287768
I1124 20:32:26.000613  3049 layer_factory.hpp:76] Creating layer inception_4b/relu_pool_proj
I1124 20:32:26.000622  3049 net.cpp:106] Creating Layer inception_4b/relu_pool_proj
I1124 20:32:26.000633  3049 net.cpp:454] inception_4b/relu_pool_proj <- inception_4b/pool_proj
I1124 20:32:26.000643  3049 net.cpp:397] inception_4b/relu_pool_proj -> inception_4b/pool_proj (in-place)
I1124 20:32:26.000936  3049 net.cpp:150] Setting up inception_4b/relu_pool_proj
I1124 20:32:26.000948  3049 net.cpp:157] Top shape: 64 64 14 14 (802816)
I1124 20:32:26.000953  3049 net.cpp:165] Memory required for data: 2615499032
I1124 20:32:26.000959  3049 layer_factory.hpp:76] Creating layer inception_4b/output
I1124 20:32:26.000969  3049 net.cpp:106] Creating Layer inception_4b/output
I1124 20:32:26.000977  3049 net.cpp:454] inception_4b/output <- inception_4b/1x1
I1124 20:32:26.000984  3049 net.cpp:454] inception_4b/output <- inception_4b/3x3
I1124 20:32:26.000993  3049 net.cpp:454] inception_4b/output <- inception_4b/5x5
I1124 20:32:26.001000  3049 net.cpp:454] inception_4b/output <- inception_4b/pool_proj
I1124 20:32:26.001008  3049 net.cpp:411] inception_4b/output -> inception_4b/output
I1124 20:32:26.001046  3049 net.cpp:150] Setting up inception_4b/output
I1124 20:32:26.001055  3049 net.cpp:157] Top shape: 64 512 14 14 (6422528)
I1124 20:32:26.001060  3049 net.cpp:165] Memory required for data: 2641189144
I1124 20:32:26.001065  3049 layer_factory.hpp:76] Creating layer inception_4b/output_inception_4b/output_0_split
I1124 20:32:26.001077  3049 net.cpp:106] Creating Layer inception_4b/output_inception_4b/output_0_split
I1124 20:32:26.001085  3049 net.cpp:454] inception_4b/output_inception_4b/output_0_split <- inception_4b/output
I1124 20:32:26.001094  3049 net.cpp:411] inception_4b/output_inception_4b/output_0_split -> inception_4b/output_inception_4b/output_0_split_0
I1124 20:32:26.001106  3049 net.cpp:411] inception_4b/output_inception_4b/output_0_split -> inception_4b/output_inception_4b/output_0_split_1
I1124 20:32:26.001118  3049 net.cpp:411] inception_4b/output_inception_4b/output_0_split -> inception_4b/output_inception_4b/output_0_split_2
I1124 20:32:26.001129  3049 net.cpp:411] inception_4b/output_inception_4b/output_0_split -> inception_4b/output_inception_4b/output_0_split_3
I1124 20:32:26.001196  3049 net.cpp:150] Setting up inception_4b/output_inception_4b/output_0_split
I1124 20:32:26.001206  3049 net.cpp:157] Top shape: 64 512 14 14 (6422528)
I1124 20:32:26.001214  3049 net.cpp:157] Top shape: 64 512 14 14 (6422528)
I1124 20:32:26.001219  3049 net.cpp:157] Top shape: 64 512 14 14 (6422528)
I1124 20:32:26.001225  3049 net.cpp:157] Top shape: 64 512 14 14 (6422528)
I1124 20:32:26.001231  3049 net.cpp:165] Memory required for data: 2743949592
I1124 20:32:26.001236  3049 layer_factory.hpp:76] Creating layer inception_4c/1x1
I1124 20:32:26.001248  3049 net.cpp:106] Creating Layer inception_4c/1x1
I1124 20:32:26.001255  3049 net.cpp:454] inception_4c/1x1 <- inception_4b/output_inception_4b/output_0_split_0
I1124 20:32:26.001266  3049 net.cpp:411] inception_4c/1x1 -> inception_4c/1x1
I1124 20:32:26.002588  3049 net.cpp:150] Setting up inception_4c/1x1
I1124 20:32:26.002602  3049 net.cpp:157] Top shape: 64 128 14 14 (1605632)
I1124 20:32:26.002609  3049 net.cpp:165] Memory required for data: 2750372120
I1124 20:32:26.002619  3049 layer_factory.hpp:76] Creating layer inception_4c/relu_1x1
I1124 20:32:26.002630  3049 net.cpp:106] Creating Layer inception_4c/relu_1x1
I1124 20:32:26.002638  3049 net.cpp:454] inception_4c/relu_1x1 <- inception_4c/1x1
I1124 20:32:26.002647  3049 net.cpp:397] inception_4c/relu_1x1 -> inception_4c/1x1 (in-place)
I1124 20:32:26.002813  3049 net.cpp:150] Setting up inception_4c/relu_1x1
I1124 20:32:26.002825  3049 net.cpp:157] Top shape: 64 128 14 14 (1605632)
I1124 20:32:26.002831  3049 net.cpp:165] Memory required for data: 2756794648
I1124 20:32:26.002836  3049 layer_factory.hpp:76] Creating layer inception_4c/3x3_reduce
I1124 20:32:26.002849  3049 net.cpp:106] Creating Layer inception_4c/3x3_reduce
I1124 20:32:26.002857  3049 net.cpp:454] inception_4c/3x3_reduce <- inception_4b/output_inception_4b/output_0_split_1
I1124 20:32:26.002867  3049 net.cpp:411] inception_4c/3x3_reduce -> inception_4c/3x3_reduce
I1124 20:32:26.004654  3049 net.cpp:150] Setting up inception_4c/3x3_reduce
I1124 20:32:26.004669  3049 net.cpp:157] Top shape: 64 128 14 14 (1605632)
I1124 20:32:26.004675  3049 net.cpp:165] Memory required for data: 2763217176
I1124 20:32:26.004685  3049 layer_factory.hpp:76] Creating layer inception_4c/relu_3x3_reduce
I1124 20:32:26.004694  3049 net.cpp:106] Creating Layer inception_4c/relu_3x3_reduce
I1124 20:32:26.004704  3049 net.cpp:454] inception_4c/relu_3x3_reduce <- inception_4c/3x3_reduce
I1124 20:32:26.004714  3049 net.cpp:397] inception_4c/relu_3x3_reduce -> inception_4c/3x3_reduce (in-place)
I1124 20:32:26.004884  3049 net.cpp:150] Setting up inception_4c/relu_3x3_reduce
I1124 20:32:26.004896  3049 net.cpp:157] Top shape: 64 128 14 14 (1605632)
I1124 20:32:26.004902  3049 net.cpp:165] Memory required for data: 2769639704
I1124 20:32:26.004907  3049 layer_factory.hpp:76] Creating layer inception_4c/3x3
I1124 20:32:26.004921  3049 net.cpp:106] Creating Layer inception_4c/3x3
I1124 20:32:26.004930  3049 net.cpp:454] inception_4c/3x3 <- inception_4c/3x3_reduce
I1124 20:32:26.004940  3049 net.cpp:411] inception_4c/3x3 -> inception_4c/3x3
I1124 20:32:26.008041  3049 net.cpp:150] Setting up inception_4c/3x3
I1124 20:32:26.008057  3049 net.cpp:157] Top shape: 64 256 14 14 (3211264)
I1124 20:32:26.008064  3049 net.cpp:165] Memory required for data: 2782484760
I1124 20:32:26.008072  3049 layer_factory.hpp:76] Creating layer inception_4c/relu_3x3
I1124 20:32:26.008083  3049 net.cpp:106] Creating Layer inception_4c/relu_3x3
I1124 20:32:26.008091  3049 net.cpp:454] inception_4c/relu_3x3 <- inception_4c/3x3
I1124 20:32:26.008100  3049 net.cpp:397] inception_4c/relu_3x3 -> inception_4c/3x3 (in-place)
I1124 20:32:26.008393  3049 net.cpp:150] Setting up inception_4c/relu_3x3
I1124 20:32:26.008406  3049 net.cpp:157] Top shape: 64 256 14 14 (3211264)
I1124 20:32:26.008411  3049 net.cpp:165] Memory required for data: 2795329816
I1124 20:32:26.008417  3049 layer_factory.hpp:76] Creating layer inception_4c/5x5_reduce
I1124 20:32:26.008430  3049 net.cpp:106] Creating Layer inception_4c/5x5_reduce
I1124 20:32:26.008442  3049 net.cpp:454] inception_4c/5x5_reduce <- inception_4b/output_inception_4b/output_0_split_2
I1124 20:32:26.008455  3049 net.cpp:411] inception_4c/5x5_reduce -> inception_4c/5x5_reduce
I1124 20:32:26.009613  3049 net.cpp:150] Setting up inception_4c/5x5_reduce
I1124 20:32:26.009630  3049 net.cpp:157] Top shape: 64 24 14 14 (301056)
I1124 20:32:26.009636  3049 net.cpp:165] Memory required for data: 2796534040
I1124 20:32:26.009646  3049 layer_factory.hpp:76] Creating layer inception_4c/relu_5x5_reduce
I1124 20:32:26.009654  3049 net.cpp:106] Creating Layer inception_4c/relu_5x5_reduce
I1124 20:32:26.009663  3049 net.cpp:454] inception_4c/relu_5x5_reduce <- inception_4c/5x5_reduce
I1124 20:32:26.009671  3049 net.cpp:397] inception_4c/relu_5x5_reduce -> inception_4c/5x5_reduce (in-place)
I1124 20:32:26.009845  3049 net.cpp:150] Setting up inception_4c/relu_5x5_reduce
I1124 20:32:26.009856  3049 net.cpp:157] Top shape: 64 24 14 14 (301056)
I1124 20:32:26.009862  3049 net.cpp:165] Memory required for data: 2797738264
I1124 20:32:26.009867  3049 layer_factory.hpp:76] Creating layer inception_4c/5x5
I1124 20:32:26.009881  3049 net.cpp:106] Creating Layer inception_4c/5x5
I1124 20:32:26.009888  3049 net.cpp:454] inception_4c/5x5 <- inception_4c/5x5_reduce
I1124 20:32:26.009906  3049 net.cpp:411] inception_4c/5x5 -> inception_4c/5x5
I1124 20:32:26.011137  3049 net.cpp:150] Setting up inception_4c/5x5
I1124 20:32:26.011152  3049 net.cpp:157] Top shape: 64 64 14 14 (802816)
I1124 20:32:26.011157  3049 net.cpp:165] Memory required for data: 2800949528
I1124 20:32:26.011168  3049 layer_factory.hpp:76] Creating layer inception_4c/relu_5x5
I1124 20:32:26.011175  3049 net.cpp:106] Creating Layer inception_4c/relu_5x5
I1124 20:32:26.011183  3049 net.cpp:454] inception_4c/relu_5x5 <- inception_4c/5x5
I1124 20:32:26.011195  3049 net.cpp:397] inception_4c/relu_5x5 -> inception_4c/5x5 (in-place)
I1124 20:32:26.011361  3049 net.cpp:150] Setting up inception_4c/relu_5x5
I1124 20:32:26.011374  3049 net.cpp:157] Top shape: 64 64 14 14 (802816)
I1124 20:32:26.011380  3049 net.cpp:165] Memory required for data: 2804160792
I1124 20:32:26.011385  3049 layer_factory.hpp:76] Creating layer inception_4c/pool
I1124 20:32:26.011395  3049 net.cpp:106] Creating Layer inception_4c/pool
I1124 20:32:26.011404  3049 net.cpp:454] inception_4c/pool <- inception_4b/output_inception_4b/output_0_split_3
I1124 20:32:26.011414  3049 net.cpp:411] inception_4c/pool -> inception_4c/pool
I1124 20:32:26.011747  3049 net.cpp:150] Setting up inception_4c/pool
I1124 20:32:26.011761  3049 net.cpp:157] Top shape: 64 512 14 14 (6422528)
I1124 20:32:26.011766  3049 net.cpp:165] Memory required for data: 2829850904
I1124 20:32:26.011771  3049 layer_factory.hpp:76] Creating layer inception_4c/pool_proj
I1124 20:32:26.011798  3049 net.cpp:106] Creating Layer inception_4c/pool_proj
I1124 20:32:26.011806  3049 net.cpp:454] inception_4c/pool_proj <- inception_4c/pool
I1124 20:32:26.011818  3049 net.cpp:411] inception_4c/pool_proj -> inception_4c/pool_proj
I1124 20:32:26.012976  3049 net.cpp:150] Setting up inception_4c/pool_proj
I1124 20:32:26.012991  3049 net.cpp:157] Top shape: 64 64 14 14 (802816)
I1124 20:32:26.012996  3049 net.cpp:165] Memory required for data: 2833062168
I1124 20:32:26.013007  3049 layer_factory.hpp:76] Creating layer inception_4c/relu_pool_proj
I1124 20:32:26.013018  3049 net.cpp:106] Creating Layer inception_4c/relu_pool_proj
I1124 20:32:26.013027  3049 net.cpp:454] inception_4c/relu_pool_proj <- inception_4c/pool_proj
I1124 20:32:26.013036  3049 net.cpp:397] inception_4c/relu_pool_proj -> inception_4c/pool_proj (in-place)
I1124 20:32:26.013202  3049 net.cpp:150] Setting up inception_4c/relu_pool_proj
I1124 20:32:26.013214  3049 net.cpp:157] Top shape: 64 64 14 14 (802816)
I1124 20:32:26.013221  3049 net.cpp:165] Memory required for data: 2836273432
I1124 20:32:26.013226  3049 layer_factory.hpp:76] Creating layer inception_4c/output
I1124 20:32:26.013234  3049 net.cpp:106] Creating Layer inception_4c/output
I1124 20:32:26.013241  3049 net.cpp:454] inception_4c/output <- inception_4c/1x1
I1124 20:32:26.013249  3049 net.cpp:454] inception_4c/output <- inception_4c/3x3
I1124 20:32:26.013259  3049 net.cpp:454] inception_4c/output <- inception_4c/5x5
I1124 20:32:26.013267  3049 net.cpp:454] inception_4c/output <- inception_4c/pool_proj
I1124 20:32:26.013275  3049 net.cpp:411] inception_4c/output -> inception_4c/output
I1124 20:32:26.013319  3049 net.cpp:150] Setting up inception_4c/output
I1124 20:32:26.013327  3049 net.cpp:157] Top shape: 64 512 14 14 (6422528)
I1124 20:32:26.013332  3049 net.cpp:165] Memory required for data: 2861963544
I1124 20:32:26.013339  3049 layer_factory.hpp:76] Creating layer inception_4c/output_inception_4c/output_0_split
I1124 20:32:26.013350  3049 net.cpp:106] Creating Layer inception_4c/output_inception_4c/output_0_split
I1124 20:32:26.013357  3049 net.cpp:454] inception_4c/output_inception_4c/output_0_split <- inception_4c/output
I1124 20:32:26.013365  3049 net.cpp:411] inception_4c/output_inception_4c/output_0_split -> inception_4c/output_inception_4c/output_0_split_0
I1124 20:32:26.013377  3049 net.cpp:411] inception_4c/output_inception_4c/output_0_split -> inception_4c/output_inception_4c/output_0_split_1
I1124 20:32:26.013388  3049 net.cpp:411] inception_4c/output_inception_4c/output_0_split -> inception_4c/output_inception_4c/output_0_split_2
I1124 20:32:26.013399  3049 net.cpp:411] inception_4c/output_inception_4c/output_0_split -> inception_4c/output_inception_4c/output_0_split_3
I1124 20:32:26.013473  3049 net.cpp:150] Setting up inception_4c/output_inception_4c/output_0_split
I1124 20:32:26.013484  3049 net.cpp:157] Top shape: 64 512 14 14 (6422528)
I1124 20:32:26.013490  3049 net.cpp:157] Top shape: 64 512 14 14 (6422528)
I1124 20:32:26.013496  3049 net.cpp:157] Top shape: 64 512 14 14 (6422528)
I1124 20:32:26.013502  3049 net.cpp:157] Top shape: 64 512 14 14 (6422528)
I1124 20:32:26.013507  3049 net.cpp:165] Memory required for data: 2964723992
I1124 20:32:26.013514  3049 layer_factory.hpp:76] Creating layer inception_4d/1x1
I1124 20:32:26.013525  3049 net.cpp:106] Creating Layer inception_4d/1x1
I1124 20:32:26.013533  3049 net.cpp:454] inception_4d/1x1 <- inception_4c/output_inception_4c/output_0_split_0
I1124 20:32:26.013545  3049 net.cpp:411] inception_4d/1x1 -> inception_4d/1x1
I1124 20:32:26.014853  3049 net.cpp:150] Setting up inception_4d/1x1
I1124 20:32:26.014868  3049 net.cpp:157] Top shape: 64 112 14 14 (1404928)
I1124 20:32:26.014878  3049 net.cpp:165] Memory required for data: 2970343704
I1124 20:32:26.014889  3049 layer_factory.hpp:76] Creating layer inception_4d/relu_1x1
I1124 20:32:26.014899  3049 net.cpp:106] Creating Layer inception_4d/relu_1x1
I1124 20:32:26.014909  3049 net.cpp:454] inception_4d/relu_1x1 <- inception_4d/1x1
I1124 20:32:26.014919  3049 net.cpp:397] inception_4d/relu_1x1 -> inception_4d/1x1 (in-place)
I1124 20:32:26.015218  3049 net.cpp:150] Setting up inception_4d/relu_1x1
I1124 20:32:26.015231  3049 net.cpp:157] Top shape: 64 112 14 14 (1404928)
I1124 20:32:26.015236  3049 net.cpp:165] Memory required for data: 2975963416
I1124 20:32:26.015243  3049 layer_factory.hpp:76] Creating layer inception_4d/3x3_reduce
I1124 20:32:26.015254  3049 net.cpp:106] Creating Layer inception_4d/3x3_reduce
I1124 20:32:26.015264  3049 net.cpp:454] inception_4d/3x3_reduce <- inception_4c/output_inception_4c/output_0_split_1
I1124 20:32:26.015274  3049 net.cpp:411] inception_4d/3x3_reduce -> inception_4d/3x3_reduce
I1124 20:32:26.016566  3049 net.cpp:150] Setting up inception_4d/3x3_reduce
I1124 20:32:26.016580  3049 net.cpp:157] Top shape: 64 144 14 14 (1806336)
I1124 20:32:26.016587  3049 net.cpp:165] Memory required for data: 2983188760
I1124 20:32:26.016597  3049 layer_factory.hpp:76] Creating layer inception_4d/relu_3x3_reduce
I1124 20:32:26.016607  3049 net.cpp:106] Creating Layer inception_4d/relu_3x3_reduce
I1124 20:32:26.016615  3049 net.cpp:454] inception_4d/relu_3x3_reduce <- inception_4d/3x3_reduce
I1124 20:32:26.016623  3049 net.cpp:397] inception_4d/relu_3x3_reduce -> inception_4d/3x3_reduce (in-place)
I1124 20:32:26.016921  3049 net.cpp:150] Setting up inception_4d/relu_3x3_reduce
I1124 20:32:26.016933  3049 net.cpp:157] Top shape: 64 144 14 14 (1806336)
I1124 20:32:26.016942  3049 net.cpp:165] Memory required for data: 2990414104
I1124 20:32:26.016947  3049 layer_factory.hpp:76] Creating layer inception_4d/3x3
I1124 20:32:26.016957  3049 net.cpp:106] Creating Layer inception_4d/3x3
I1124 20:32:26.016966  3049 net.cpp:454] inception_4d/3x3 <- inception_4d/3x3_reduce
I1124 20:32:26.016978  3049 net.cpp:411] inception_4d/3x3 -> inception_4d/3x3
I1124 20:32:26.020639  3049 net.cpp:150] Setting up inception_4d/3x3
I1124 20:32:26.020654  3049 net.cpp:157] Top shape: 64 288 14 14 (3612672)
I1124 20:32:26.020660  3049 net.cpp:165] Memory required for data: 3004864792
I1124 20:32:26.020670  3049 layer_factory.hpp:76] Creating layer inception_4d/relu_3x3
I1124 20:32:26.020680  3049 net.cpp:106] Creating Layer inception_4d/relu_3x3
I1124 20:32:26.020687  3049 net.cpp:454] inception_4d/relu_3x3 <- inception_4d/3x3
I1124 20:32:26.020695  3049 net.cpp:397] inception_4d/relu_3x3 -> inception_4d/3x3 (in-place)
I1124 20:32:26.020864  3049 net.cpp:150] Setting up inception_4d/relu_3x3
I1124 20:32:26.020875  3049 net.cpp:157] Top shape: 64 288 14 14 (3612672)
I1124 20:32:26.020880  3049 net.cpp:165] Memory required for data: 3019315480
I1124 20:32:26.020886  3049 layer_factory.hpp:76] Creating layer inception_4d/5x5_reduce
I1124 20:32:26.020903  3049 net.cpp:106] Creating Layer inception_4d/5x5_reduce
I1124 20:32:26.020913  3049 net.cpp:454] inception_4d/5x5_reduce <- inception_4c/output_inception_4c/output_0_split_2
I1124 20:32:26.020925  3049 net.cpp:411] inception_4d/5x5_reduce -> inception_4d/5x5_reduce
I1124 20:32:26.022037  3049 net.cpp:150] Setting up inception_4d/5x5_reduce
I1124 20:32:26.022052  3049 net.cpp:157] Top shape: 64 32 14 14 (401408)
I1124 20:32:26.022058  3049 net.cpp:165] Memory required for data: 3020921112
I1124 20:32:26.022066  3049 layer_factory.hpp:76] Creating layer inception_4d/relu_5x5_reduce
I1124 20:32:26.022078  3049 net.cpp:106] Creating Layer inception_4d/relu_5x5_reduce
I1124 20:32:26.022084  3049 net.cpp:454] inception_4d/relu_5x5_reduce <- inception_4d/5x5_reduce
I1124 20:32:26.022092  3049 net.cpp:397] inception_4d/relu_5x5_reduce -> inception_4d/5x5_reduce (in-place)
I1124 20:32:26.022402  3049 net.cpp:150] Setting up inception_4d/relu_5x5_reduce
I1124 20:32:26.022418  3049 net.cpp:157] Top shape: 64 32 14 14 (401408)
I1124 20:32:26.022423  3049 net.cpp:165] Memory required for data: 3022526744
I1124 20:32:26.022428  3049 layer_factory.hpp:76] Creating layer inception_4d/5x5
I1124 20:32:26.022439  3049 net.cpp:106] Creating Layer inception_4d/5x5
I1124 20:32:26.022449  3049 net.cpp:454] inception_4d/5x5 <- inception_4d/5x5_reduce
I1124 20:32:26.022460  3049 net.cpp:411] inception_4d/5x5 -> inception_4d/5x5
I1124 20:32:26.023641  3049 net.cpp:150] Setting up inception_4d/5x5
I1124 20:32:26.023656  3049 net.cpp:157] Top shape: 64 64 14 14 (802816)
I1124 20:32:26.023663  3049 net.cpp:165] Memory required for data: 3025738008
I1124 20:32:26.023672  3049 layer_factory.hpp:76] Creating layer inception_4d/relu_5x5
I1124 20:32:26.023681  3049 net.cpp:106] Creating Layer inception_4d/relu_5x5
I1124 20:32:26.023689  3049 net.cpp:454] inception_4d/relu_5x5 <- inception_4d/5x5
I1124 20:32:26.023700  3049 net.cpp:397] inception_4d/relu_5x5 -> inception_4d/5x5 (in-place)
I1124 20:32:26.024001  3049 net.cpp:150] Setting up inception_4d/relu_5x5
I1124 20:32:26.024015  3049 net.cpp:157] Top shape: 64 64 14 14 (802816)
I1124 20:32:26.024020  3049 net.cpp:165] Memory required for data: 3028949272
I1124 20:32:26.024026  3049 layer_factory.hpp:76] Creating layer inception_4d/pool
I1124 20:32:26.024035  3049 net.cpp:106] Creating Layer inception_4d/pool
I1124 20:32:26.024042  3049 net.cpp:454] inception_4d/pool <- inception_4c/output_inception_4c/output_0_split_3
I1124 20:32:26.024054  3049 net.cpp:411] inception_4d/pool -> inception_4d/pool
I1124 20:32:26.024250  3049 net.cpp:150] Setting up inception_4d/pool
I1124 20:32:26.024261  3049 net.cpp:157] Top shape: 64 512 14 14 (6422528)
I1124 20:32:26.024266  3049 net.cpp:165] Memory required for data: 3054639384
I1124 20:32:26.024272  3049 layer_factory.hpp:76] Creating layer inception_4d/pool_proj
I1124 20:32:26.024284  3049 net.cpp:106] Creating Layer inception_4d/pool_proj
I1124 20:32:26.024292  3049 net.cpp:454] inception_4d/pool_proj <- inception_4d/pool
I1124 20:32:26.024304  3049 net.cpp:411] inception_4d/pool_proj -> inception_4d/pool_proj
I1124 20:32:26.025617  3049 net.cpp:150] Setting up inception_4d/pool_proj
I1124 20:32:26.025632  3049 net.cpp:157] Top shape: 64 64 14 14 (802816)
I1124 20:32:26.025637  3049 net.cpp:165] Memory required for data: 3057850648
I1124 20:32:26.025647  3049 layer_factory.hpp:76] Creating layer inception_4d/relu_pool_proj
I1124 20:32:26.025658  3049 net.cpp:106] Creating Layer inception_4d/relu_pool_proj
I1124 20:32:26.025666  3049 net.cpp:454] inception_4d/relu_pool_proj <- inception_4d/pool_proj
I1124 20:32:26.025676  3049 net.cpp:397] inception_4d/relu_pool_proj -> inception_4d/pool_proj (in-place)
I1124 20:32:26.025974  3049 net.cpp:150] Setting up inception_4d/relu_pool_proj
I1124 20:32:26.025990  3049 net.cpp:157] Top shape: 64 64 14 14 (802816)
I1124 20:32:26.025995  3049 net.cpp:165] Memory required for data: 3061061912
I1124 20:32:26.026000  3049 layer_factory.hpp:76] Creating layer inception_4d/output
I1124 20:32:26.026010  3049 net.cpp:106] Creating Layer inception_4d/output
I1124 20:32:26.026016  3049 net.cpp:454] inception_4d/output <- inception_4d/1x1
I1124 20:32:26.026024  3049 net.cpp:454] inception_4d/output <- inception_4d/3x3
I1124 20:32:26.026032  3049 net.cpp:454] inception_4d/output <- inception_4d/5x5
I1124 20:32:26.026039  3049 net.cpp:454] inception_4d/output <- inception_4d/pool_proj
I1124 20:32:26.026047  3049 net.cpp:411] inception_4d/output -> inception_4d/output
I1124 20:32:26.026087  3049 net.cpp:150] Setting up inception_4d/output
I1124 20:32:26.026098  3049 net.cpp:157] Top shape: 64 528 14 14 (6623232)
I1124 20:32:26.026103  3049 net.cpp:165] Memory required for data: 3087554840
I1124 20:32:26.026108  3049 layer_factory.hpp:76] Creating layer inception_4d/output_inception_4d/output_0_split
I1124 20:32:26.026118  3049 net.cpp:106] Creating Layer inception_4d/output_inception_4d/output_0_split
I1124 20:32:26.026124  3049 net.cpp:454] inception_4d/output_inception_4d/output_0_split <- inception_4d/output
I1124 20:32:26.026134  3049 net.cpp:411] inception_4d/output_inception_4d/output_0_split -> inception_4d/output_inception_4d/output_0_split_0
I1124 20:32:26.026145  3049 net.cpp:411] inception_4d/output_inception_4d/output_0_split -> inception_4d/output_inception_4d/output_0_split_1
I1124 20:32:26.026156  3049 net.cpp:411] inception_4d/output_inception_4d/output_0_split -> inception_4d/output_inception_4d/output_0_split_2
I1124 20:32:26.026168  3049 net.cpp:411] inception_4d/output_inception_4d/output_0_split -> inception_4d/output_inception_4d/output_0_split_3
I1124 20:32:26.026178  3049 net.cpp:411] inception_4d/output_inception_4d/output_0_split -> inception_4d/output_inception_4d/output_0_split_4
I1124 20:32:26.026268  3049 net.cpp:150] Setting up inception_4d/output_inception_4d/output_0_split
I1124 20:32:26.026279  3049 net.cpp:157] Top shape: 64 528 14 14 (6623232)
I1124 20:32:26.026288  3049 net.cpp:157] Top shape: 64 528 14 14 (6623232)
I1124 20:32:26.026293  3049 net.cpp:157] Top shape: 64 528 14 14 (6623232)
I1124 20:32:26.026300  3049 net.cpp:157] Top shape: 64 528 14 14 (6623232)
I1124 20:32:26.026306  3049 net.cpp:157] Top shape: 64 528 14 14 (6623232)
I1124 20:32:26.026311  3049 net.cpp:165] Memory required for data: 3220019480
I1124 20:32:26.026316  3049 layer_factory.hpp:76] Creating layer loss2/ave_pool
I1124 20:32:26.026324  3049 net.cpp:106] Creating Layer loss2/ave_pool
I1124 20:32:26.026335  3049 net.cpp:454] loss2/ave_pool <- inception_4d/output_inception_4d/output_0_split_0
I1124 20:32:26.026347  3049 net.cpp:411] loss2/ave_pool -> loss2/ave_pool
I1124 20:32:26.026535  3049 net.cpp:150] Setting up loss2/ave_pool
I1124 20:32:26.026548  3049 net.cpp:157] Top shape: 64 528 4 4 (540672)
I1124 20:32:26.026554  3049 net.cpp:165] Memory required for data: 3222182168
I1124 20:32:26.026559  3049 layer_factory.hpp:76] Creating layer loss2/conv
I1124 20:32:26.026571  3049 net.cpp:106] Creating Layer loss2/conv
I1124 20:32:26.026578  3049 net.cpp:454] loss2/conv <- loss2/ave_pool
I1124 20:32:26.026590  3049 net.cpp:411] loss2/conv -> loss2/conv
I1124 20:32:26.028375  3049 net.cpp:150] Setting up loss2/conv
I1124 20:32:26.028393  3049 net.cpp:157] Top shape: 64 128 4 4 (131072)
I1124 20:32:26.028398  3049 net.cpp:165] Memory required for data: 3222706456
I1124 20:32:26.028409  3049 layer_factory.hpp:76] Creating layer loss2/relu_conv
I1124 20:32:26.028417  3049 net.cpp:106] Creating Layer loss2/relu_conv
I1124 20:32:26.028426  3049 net.cpp:454] loss2/relu_conv <- loss2/conv
I1124 20:32:26.028436  3049 net.cpp:397] loss2/relu_conv -> loss2/conv (in-place)
I1124 20:32:26.028738  3049 net.cpp:150] Setting up loss2/relu_conv
I1124 20:32:26.028750  3049 net.cpp:157] Top shape: 64 128 4 4 (131072)
I1124 20:32:26.028756  3049 net.cpp:165] Memory required for data: 3223230744
I1124 20:32:26.028762  3049 layer_factory.hpp:76] Creating layer loss2/fc
I1124 20:32:26.028772  3049 net.cpp:106] Creating Layer loss2/fc
I1124 20:32:26.028784  3049 net.cpp:454] loss2/fc <- loss2/conv
I1124 20:32:26.028794  3049 net.cpp:411] loss2/fc -> loss2/fc
I1124 20:32:26.043212  3049 net.cpp:150] Setting up loss2/fc
I1124 20:32:26.043233  3049 net.cpp:157] Top shape: 64 1024 (65536)
I1124 20:32:26.043239  3049 net.cpp:165] Memory required for data: 3223492888
I1124 20:32:26.043251  3049 layer_factory.hpp:76] Creating layer loss2/relu_fc
I1124 20:32:26.043265  3049 net.cpp:106] Creating Layer loss2/relu_fc
I1124 20:32:26.043274  3049 net.cpp:454] loss2/relu_fc <- loss2/fc
I1124 20:32:26.043284  3049 net.cpp:397] loss2/relu_fc -> loss2/fc (in-place)
I1124 20:32:26.043505  3049 net.cpp:150] Setting up loss2/relu_fc
I1124 20:32:26.043519  3049 net.cpp:157] Top shape: 64 1024 (65536)
I1124 20:32:26.043524  3049 net.cpp:165] Memory required for data: 3223755032
I1124 20:32:26.043529  3049 layer_factory.hpp:76] Creating layer loss2/drop_fc
I1124 20:32:26.043539  3049 net.cpp:106] Creating Layer loss2/drop_fc
I1124 20:32:26.043545  3049 net.cpp:454] loss2/drop_fc <- loss2/fc
I1124 20:32:26.043555  3049 net.cpp:397] loss2/drop_fc -> loss2/fc (in-place)
I1124 20:32:26.043596  3049 net.cpp:150] Setting up loss2/drop_fc
I1124 20:32:26.043607  3049 net.cpp:157] Top shape: 64 1024 (65536)
I1124 20:32:26.043613  3049 net.cpp:165] Memory required for data: 3224017176
I1124 20:32:26.043618  3049 layer_factory.hpp:76] Creating layer loss2/fc_loss2/drop_fc_0_split
I1124 20:32:26.043628  3049 net.cpp:106] Creating Layer loss2/fc_loss2/drop_fc_0_split
I1124 20:32:26.043637  3049 net.cpp:454] loss2/fc_loss2/drop_fc_0_split <- loss2/fc
I1124 20:32:26.043645  3049 net.cpp:411] loss2/fc_loss2/drop_fc_0_split -> loss2/fc_loss2/drop_fc_0_split_0
I1124 20:32:26.043660  3049 net.cpp:411] loss2/fc_loss2/drop_fc_0_split -> loss2/fc_loss2/drop_fc_0_split_1
I1124 20:32:26.043675  3049 net.cpp:411] loss2/fc_loss2/drop_fc_0_split -> loss2/fc_loss2/drop_fc_0_split_2
I1124 20:32:26.043686  3049 net.cpp:411] loss2/fc_loss2/drop_fc_0_split -> loss2/fc_loss2/drop_fc_0_split_3
I1124 20:32:26.043697  3049 net.cpp:411] loss2/fc_loss2/drop_fc_0_split -> loss2/fc_loss2/drop_fc_0_split_4
I1124 20:32:26.043709  3049 net.cpp:411] loss2/fc_loss2/drop_fc_0_split -> loss2/fc_loss2/drop_fc_0_split_5
I1124 20:32:26.043812  3049 net.cpp:150] Setting up loss2/fc_loss2/drop_fc_0_split
I1124 20:32:26.043822  3049 net.cpp:157] Top shape: 64 1024 (65536)
I1124 20:32:26.043828  3049 net.cpp:157] Top shape: 64 1024 (65536)
I1124 20:32:26.043834  3049 net.cpp:157] Top shape: 64 1024 (65536)
I1124 20:32:26.043840  3049 net.cpp:157] Top shape: 64 1024 (65536)
I1124 20:32:26.043846  3049 net.cpp:157] Top shape: 64 1024 (65536)
I1124 20:32:26.043853  3049 net.cpp:157] Top shape: 64 1024 (65536)
I1124 20:32:26.043858  3049 net.cpp:165] Memory required for data: 3225590040
I1124 20:32:26.043862  3049 layer_factory.hpp:76] Creating layer loss2/classifier-00.category
I1124 20:32:26.043875  3049 net.cpp:106] Creating Layer loss2/classifier-00.category
I1124 20:32:26.043884  3049 net.cpp:454] loss2/classifier-00.category <- loss2/fc_loss2/drop_fc_0_split_0
I1124 20:32:26.043895  3049 net.cpp:411] loss2/classifier-00.category -> loss2/classifier-00.category
I1124 20:32:26.044119  3049 net.cpp:150] Setting up loss2/classifier-00.category
I1124 20:32:26.044129  3049 net.cpp:157] Top shape: 64 16 (1024)
I1124 20:32:26.044134  3049 net.cpp:165] Memory required for data: 3225594136
I1124 20:32:26.044144  3049 layer_factory.hpp:76] Creating layer loss2/loss_00.category
I1124 20:32:26.044154  3049 net.cpp:106] Creating Layer loss2/loss_00.category
I1124 20:32:26.044162  3049 net.cpp:454] loss2/loss_00.category <- loss2/classifier-00.category
I1124 20:32:26.044170  3049 net.cpp:454] loss2/loss_00.category <- 00.category_slice_attribute_0_split_1
I1124 20:32:26.044181  3049 net.cpp:411] loss2/loss_00.category -> loss2/loss_00.category
I1124 20:32:26.044194  3049 layer_factory.hpp:76] Creating layer loss2/loss_00.category
I1124 20:32:26.044661  3049 net.cpp:150] Setting up loss2/loss_00.category
I1124 20:32:26.044674  3049 net.cpp:157] Top shape: (1)
I1124 20:32:26.044679  3049 net.cpp:160]     with loss weight 0.3
I1124 20:32:26.044695  3049 net.cpp:165] Memory required for data: 3225594140
I1124 20:32:26.044703  3049 layer_factory.hpp:76] Creating layer loss2/classifier-02.collar_shape
I1124 20:32:26.044714  3049 net.cpp:106] Creating Layer loss2/classifier-02.collar_shape
I1124 20:32:26.044721  3049 net.cpp:454] loss2/classifier-02.collar_shape <- loss2/fc_loss2/drop_fc_0_split_1
I1124 20:32:26.044733  3049 net.cpp:411] loss2/classifier-02.collar_shape -> loss2/classifier-02.collar_shape
I1124 20:32:26.044935  3049 net.cpp:150] Setting up loss2/classifier-02.collar_shape
I1124 20:32:26.044946  3049 net.cpp:157] Top shape: 64 13 (832)
I1124 20:32:26.044951  3049 net.cpp:165] Memory required for data: 3225597468
I1124 20:32:26.044961  3049 layer_factory.hpp:76] Creating layer loss2/loss_02.collar_shape
I1124 20:32:26.044972  3049 net.cpp:106] Creating Layer loss2/loss_02.collar_shape
I1124 20:32:26.044980  3049 net.cpp:454] loss2/loss_02.collar_shape <- loss2/classifier-02.collar_shape
I1124 20:32:26.044986  3049 net.cpp:454] loss2/loss_02.collar_shape <- 02.collar_shape_slice_attribute_2_split_1
I1124 20:32:26.044998  3049 net.cpp:411] loss2/loss_02.collar_shape -> loss2/loss_02.collar_shape
I1124 20:32:26.045011  3049 layer_factory.hpp:76] Creating layer loss2/loss_02.collar_shape
I1124 20:32:26.045271  3049 net.cpp:150] Setting up loss2/loss_02.collar_shape
I1124 20:32:26.045284  3049 net.cpp:157] Top shape: (1)
I1124 20:32:26.045289  3049 net.cpp:160]     with loss weight 0.3
I1124 20:32:26.045296  3049 net.cpp:165] Memory required for data: 3225597472
I1124 20:32:26.045302  3049 layer_factory.hpp:76] Creating layer loss2/classifier-05.pattern
I1124 20:32:26.045313  3049 net.cpp:106] Creating Layer loss2/classifier-05.pattern
I1124 20:32:26.045322  3049 net.cpp:454] loss2/classifier-05.pattern <- loss2/fc_loss2/drop_fc_0_split_2
I1124 20:32:26.045332  3049 net.cpp:411] loss2/classifier-05.pattern -> loss2/classifier-05.pattern
I1124 20:32:26.045552  3049 net.cpp:150] Setting up loss2/classifier-05.pattern
I1124 20:32:26.045562  3049 net.cpp:157] Top shape: 64 16 (1024)
I1124 20:32:26.045567  3049 net.cpp:165] Memory required for data: 3225601568
I1124 20:32:26.045577  3049 layer_factory.hpp:76] Creating layer loss2/loss_05.pattern
I1124 20:32:26.045584  3049 net.cpp:106] Creating Layer loss2/loss_05.pattern
I1124 20:32:26.045593  3049 net.cpp:454] loss2/loss_05.pattern <- loss2/classifier-05.pattern
I1124 20:32:26.045600  3049 net.cpp:454] loss2/loss_05.pattern <- 05.pattern_slice_attribute_5_split_1
I1124 20:32:26.045611  3049 net.cpp:411] loss2/loss_05.pattern -> loss2/loss_05.pattern
I1124 20:32:26.045624  3049 layer_factory.hpp:76] Creating layer loss2/loss_05.pattern
I1124 20:32:26.046025  3049 net.cpp:150] Setting up loss2/loss_05.pattern
I1124 20:32:26.046038  3049 net.cpp:157] Top shape: (1)
I1124 20:32:26.046043  3049 net.cpp:160]     with loss weight 0.3
I1124 20:32:26.046051  3049 net.cpp:165] Memory required for data: 3225601572
I1124 20:32:26.046057  3049 layer_factory.hpp:76] Creating layer loss2/classifier-06.button_shape
I1124 20:32:26.046067  3049 net.cpp:106] Creating Layer loss2/classifier-06.button_shape
I1124 20:32:26.046077  3049 net.cpp:454] loss2/classifier-06.button_shape <- loss2/fc_loss2/drop_fc_0_split_3
I1124 20:32:26.046089  3049 net.cpp:411] loss2/classifier-06.button_shape -> loss2/classifier-06.button_shape
I1124 20:32:26.046280  3049 net.cpp:150] Setting up loss2/classifier-06.button_shape
I1124 20:32:26.046291  3049 net.cpp:157] Top shape: 64 9 (576)
I1124 20:32:26.046296  3049 net.cpp:165] Memory required for data: 3225603876
I1124 20:32:26.046306  3049 layer_factory.hpp:76] Creating layer loss2/loss_06.button_shape
I1124 20:32:26.046314  3049 net.cpp:106] Creating Layer loss2/loss_06.button_shape
I1124 20:32:26.046322  3049 net.cpp:454] loss2/loss_06.button_shape <- loss2/classifier-06.button_shape
I1124 20:32:26.046330  3049 net.cpp:454] loss2/loss_06.button_shape <- 06.button_shape_slice_attribute_6_split_1
…
I1124 20:32:26.046641  3049 net.cpp:165] Memory required for data: 3225603880
I1124 20:32:26.046646  3049 layer_factory.hpp:76] Creating layer loss2/classifier-09.fashion_elements
I1124 20:32:26.046656  3049 net.cpp:106] Creating Layer loss2/classifier-09.fashion_elements
I1124 20:32:26.046663  3049 net.cpp:454] loss2/classifier-09.fashion_elements <- loss2/fc_loss2/drop_fc_0_split_4
I1124 20:32:26.046674  3049 net.cpp:411] loss2/classifier-09.fashion_elements -> loss2/classifier-09.fashion_elements
I1124 20:32:26.047323  3049 net.cpp:150] Setting up loss2/classifier-09.fashion_elements
I1124 20:32:26.047338  3049 net.cpp:157] Top shape: 64 15 (960)
I1124 20:32:26.047343  3049 net.cpp:165] Memory required for data: 3225607720
I1124 20:32:26.047353  3049 layer_factory.hpp:76] Creating layer loss2/loss_09.fashion_elements
I1124 20:32:26.047361  3049 net.cpp:106] Creating Layer loss2/loss_09.fashion_elements
I1124 20:32:26.047369  3049 net.cpp:454] loss2/loss_09.fashion_elements <- loss2/classifier-09.fashion_elements
I1124 20:32:26.047376  3049 net.cpp:454] loss2/loss_09.fashion_elements <- 09.fashion_elements_slice_attribute_9_split_1
I1124 20:32:26.047386  3049 net.cpp:411] loss2/loss_09.fashion_elements -> loss2/loss_09.fashion_elements
I1124 20:32:26.047400  3049 layer_factory.hpp:76] Creating layer loss2/loss_09.fashion_elements
I1124 20:32:26.047799  3049 net.cpp:150] Setting up loss2/loss_09.fashion_elements
I1124 20:32:26.047812  3049 net.cpp:157] Top shape: (1)
I1124 20:32:26.047818  3049 net.cpp:160]     with loss weight 0.3
I1124 20:32:26.047827  3049 net.cpp:165] Memory required for data: 3225607724
I1124 20:32:26.047832  3049 layer_factory.hpp:76] Creating layer loss2/classifier-21.color
I1124 20:32:26.047842  3049 net.cpp:106] Creating Layer loss2/classifier-21.color
I1124 20:32:26.047859  3049 net.cpp:454] loss2/classifier-21.color <- loss2/fc_loss2/drop_fc_0_split_5
I1124 20:32:26.047873  3049 net.cpp:411] loss2/classifier-21.color -> loss2/classifier-21.color
I1124 20:32:26.048537  3049 net.cpp:150] Setting up loss2/classifier-21.color
I1124 20:32:26.048550  3049 net.cpp:157] Top shape: 64 21 (1344)
I1124 20:32:26.048557  3049 net.cpp:165] Memory required for data: 3225613100
I1124 20:32:26.048565  3049 layer_factory.hpp:76] Creating layer loss2/loss_21.color
I1124 20:32:26.048574  3049 net.cpp:106] Creating Layer loss2/loss_21.color
I1124 20:32:26.048583  3049 net.cpp:454] loss2/loss_21.color <- loss2/classifier-21.color
I1124 20:32:26.048590  3049 net.cpp:454] loss2/loss_21.color <- 21.color_slice_attribute_21_split_1
I1124 20:32:26.048605  3049 net.cpp:411] loss2/loss_21.color -> loss2/loss_21.color
I1124 20:32:26.048619  3049 layer_factory.hpp:76] Creating layer loss2/loss_21.color
I1124 20:32:26.048893  3049 net.cpp:150] Setting up loss2/loss_21.color
I1124 20:32:26.048905  3049 net.cpp:157] Top shape: (1)
I1124 20:32:26.048912  3049 net.cpp:160]     with loss weight 0.3
I1124 20:32:26.048919  3049 net.cpp:165] Memory required for data: 3225613104
I1124 20:32:26.048925  3049 layer_factory.hpp:76] Creating layer inception_4e/1x1
I1124 20:32:26.048939  3049 net.cpp:106] Creating Layer inception_4e/1x1
I1124 20:32:26.048949  3049 net.cpp:454] inception_4e/1x1 <- inception_4d/output_inception_4d/output_0_split_1
I1124 20:32:26.048959  3049 net.cpp:411] inception_4e/1x1 -> inception_4e/1x1
I1124 20:32:26.050763  3049 net.cpp:150] Setting up inception_4e/1x1
I1124 20:32:26.050777  3049 net.cpp:157] Top shape: 64 256 14 14 (3211264)
I1124 20:32:26.050783  3049 net.cpp:165] Memory required for data: 3238458160
I1124 20:32:26.050793  3049 layer_factory.hpp:76] Creating layer inception_4e/relu_1x1
I1124 20:32:26.050802  3049 net.cpp:106] Creating Layer inception_4e/relu_1x1
I1124 20:32:26.050809  3049 net.cpp:454] inception_4e/relu_1x1 <- inception_4e/1x1
I1124 20:32:26.050817  3049 net.cpp:397] inception_4e/relu_1x1 -> inception_4e/1x1 (in-place)
I1124 20:32:26.051127  3049 net.cpp:150] Setting up inception_4e/relu_1x1
I1124 20:32:26.051141  3049 net.cpp:157] Top shape: 64 256 14 14 (3211264)
I1124 20:32:26.051146  3049 net.cpp:165] Memory required for data: 3251303216
I1124 20:32:26.051152  3049 layer_factory.hpp:76] Creating layer inception_4e/3x3_reduce
I1124 20:32:26.051165  3049 net.cpp:106] Creating Layer inception_4e/3x3_reduce
I1124 20:32:26.051173  3049 net.cpp:454] inception_4e/3x3_reduce <- inception_4d/output_inception_4d/output_0_split_2
I1124 20:32:26.051185  3049 net.cpp:411] inception_4e/3x3_reduce -> inception_4e/3x3_reduce
I1124 20:32:26.053118  3049 net.cpp:150] Setting up inception_4e/3x3_reduce
I1124 20:32:26.053135  3049 net.cpp:157] Top shape: 64 160 14 14 (2007040)
I1124 20:32:26.053141  3049 net.cpp:165] Memory required for data: 3259331376
I1124 20:32:26.053151  3049 layer_factory.hpp:76] Creating layer inception_4e/relu_3x3_reduce
I1124 20:32:26.053160  3049 net.cpp:106] Creating Layer inception_4e/relu_3x3_reduce
I1124 20:32:26.053169  3049 net.cpp:454] inception_4e/relu_3x3_reduce <- inception_4e/3x3_reduce
I1124 20:32:26.053177  3049 net.cpp:397] inception_4e/relu_3x3_reduce -> inception_4e/3x3_reduce (in-place)
I1124 20:32:26.053354  3049 net.cpp:150] Setting up inception_4e/relu_3x3_reduce
I1124 20:32:26.053366  3049 net.cpp:157] Top shape: 64 160 14 14 (2007040)
I1124 20:32:26.053371  3049 net.cpp:165] Memory required for data: 3267359536
I1124 20:32:26.053377  3049 layer_factory.hpp:76] Creating layer inception_4e/3x3
I1124 20:32:26.053390  3049 net.cpp:106] Creating Layer inception_4e/3x3
I1124 20:32:26.053398  3049 net.cpp:454] inception_4e/3x3 <- inception_4e/3x3_reduce
I1124 20:32:26.053417  3049 net.cpp:411] inception_4e/3x3 -> inception_4e/3x3
I1124 20:32:26.057663  3049 net.cpp:150] Setting up inception_4e/3x3
I1124 20:32:26.057678  3049 net.cpp:157] Top shape: 64 320 14 14 (4014080)
I1124 20:32:26.057684  3049 net.cpp:165] Memory required for data: 3283415856
I1124 20:32:26.057694  3049 layer_factory.hpp:76] Creating layer inception_4e/relu_3x3
I1124 20:32:26.057703  3049 net.cpp:106] Creating Layer inception_4e/relu_3x3
I1124 20:32:26.057710  3049 net.cpp:454] inception_4e/relu_3x3 <- inception_4e/3x3
I1124 20:32:26.057720  3049 net.cpp:397] inception_4e/relu_3x3 -> inception_4e/3x3 (in-place)
I1124 20:32:26.057898  3049 net.cpp:150] Setting up inception_4e/relu_3x3
I1124 20:32:26.057909  3049 net.cpp:157] Top shape: 64 320 14 14 (4014080)
I1124 20:32:26.057914  3049 net.cpp:165] Memory required for data: 3299472176
I1124 20:32:26.057920  3049 layer_factory.hpp:76] Creating layer inception_4e/5x5_reduce
I1124 20:32:26.057932  3049 net.cpp:106] Creating Layer inception_4e/5x5_reduce
I1124 20:32:26.057942  3049 net.cpp:454] inception_4e/5x5_reduce <- inception_4d/output_inception_4d/output_0_split_3
I1124 20:32:26.057958  3049 net.cpp:411] inception_4e/5x5_reduce -> inception_4e/5x5_reduce
I1124 20:32:26.059079  3049 net.cpp:150] Setting up inception_4e/5x5_reduce
I1124 20:32:26.059095  3049 net.cpp:157] Top shape: 64 32 14 14 (401408)
I1124 20:32:26.059103  3049 net.cpp:165] Memory required for data: 3301077808
I1124 20:32:26.059113  3049 layer_factory.hpp:76] Creating layer inception_4e/relu_5x5_reduce
I1124 20:32:26.059120  3049 net.cpp:106] Creating Layer inception_4e/relu_5x5_reduce
I1124 20:32:26.059128  3049 net.cpp:454] inception_4e/relu_5x5_reduce <- inception_4e/5x5_reduce
I1124 20:32:26.059137  3049 net.cpp:397] inception_4e/relu_5x5_reduce -> inception_4e/5x5_reduce (in-place)
I1124 20:32:26.059440  3049 net.cpp:150] Setting up inception_4e/relu_5x5_reduce
I1124 20:32:26.059453  3049 net.cpp:157] Top shape: 64 32 14 14 (401408)
I1124 20:32:26.059460  3049 net.cpp:165] Memory required for data: 3302683440
I1124 20:32:26.059465  3049 layer_factory.hpp:76] Creating layer inception_4e/5x5
I1124 20:32:26.059476  3049 net.cpp:106] Creating Layer inception_4e/5x5
I1124 20:32:26.059485  3049 net.cpp:454] inception_4e/5x5 <- inception_4e/5x5_reduce
I1124 20:32:26.059499  3049 net.cpp:411] inception_4e/5x5 -> inception_4e/5x5
I1124 20:32:26.061231  3049 net.cpp:150] Setting up inception_4e/5x5
I1124 20:32:26.061245  3049 net.cpp:157] Top shape: 64 128 14 14 (1605632)
I1124 20:32:26.061251  3049 net.cpp:165] Memory required for data: 3309105968
I1124 20:32:26.061261  3049 layer_factory.hpp:76] Creating layer inception_4e/relu_5x5
I1124 20:32:26.061271  3049 net.cpp:106] Creating Layer inception_4e/relu_5x5
I1124 20:32:26.061280  3049 net.cpp:454] inception_4e/relu_5x5 <- inception_4e/5x5
I1124 20:32:26.061290  3049 net.cpp:397] inception_4e/relu_5x5 -> inception_4e/5x5 (in-place)
I1124 20:32:26.061475  3049 net.cpp:150] Setting up inception_4e/relu_5x5
I1124 20:32:26.061486  3049 net.cpp:157] Top shape: 64 128 14 14 (1605632)
I1124 20:32:26.061492  3049 net.cpp:165] Memory required for data: 3315528496
I1124 20:32:26.061497  3049 layer_factory.hpp:76] Creating layer inception_4e/pool
I1124 20:32:26.061506  3049 net.cpp:106] Creating Layer inception_4e/pool
I1124 20:32:26.061513  3049 net.cpp:454] inception_4e/pool <- inception_4d/output_inception_4d/output_0_split_4
I1124 20:32:26.061527  3049 net.cpp:411] inception_4e/pool -> inception_4e/pool
I1124 20:32:26.061867  3049 net.cpp:150] Setting up inception_4e/pool
I1124 20:32:26.061880  3049 net.cpp:157] Top shape: 64 528 14 14 (6623232)
I1124 20:32:26.061887  3049 net.cpp:165] Memory required for data: 3342021424
I1124 20:32:26.061892  3049 layer_factory.hpp:76] Creating layer inception_4e/pool_proj
I1124 20:32:26.061904  3049 net.cpp:106] Creating Layer inception_4e/pool_proj
I1124 20:32:26.061913  3049 net.cpp:454] inception_4e/pool_proj <- inception_4e/pool
I1124 20:32:26.061924  3049 net.cpp:411] inception_4e/pool_proj -> inception_4e/pool_proj
I1124 20:32:26.063215  3049 net.cpp:150] Setting up inception_4e/pool_proj
I1124 20:32:26.063230  3049 net.cpp:157] Top shape: 64 128 14 14 (1605632)
I1124 20:32:26.063235  3049 net.cpp:165] Memory required for data: 3348443952
I1124 20:32:26.063246  3049 layer_factory.hpp:76] Creating layer inception_4e/relu_pool_proj
I1124 20:32:26.063256  3049 net.cpp:106] Creating Layer inception_4e/relu_pool_proj
I1124 20:32:26.063266  3049 net.cpp:454] inception_4e/relu_pool_proj <- inception_4e/pool_proj
I1124 20:32:26.063274  3049 net.cpp:397] inception_4e/relu_pool_proj -> inception_4e/pool_proj (in-place)
I1124 20:32:26.063582  3049 net.cpp:150] Setting up inception_4e/relu_pool_proj
I1124 20:32:26.063596  3049 net.cpp:157] Top shape: 64 128 14 14 (1605632)
I1124 20:32:26.063601  3049 net.cpp:165] Memory required for data: 3354866480
I1124 20:32:26.063606  3049 layer_factory.hpp:76] Creating layer inception_4e/output
I1124 20:32:26.063617  3049 net.cpp:106] Creating Layer inception_4e/output
I1124 20:32:26.063623  3049 net.cpp:454] inception_4e/output <- inception_4e/1x1
I1124 20:32:26.063632  3049 net.cpp:454] inception_4e/output <- inception_4e/3x3
I1124 20:32:26.063638  3049 net.cpp:454] inception_4e/output <- inception_4e/5x5
I1124 20:32:26.063645  3049 net.cpp:454] inception_4e/output <- inception_4e/pool_proj
I1124 20:32:26.063653  3049 net.cpp:411] inception_4e/output -> inception_4e/output
I1124 20:32:26.063698  3049 net.cpp:150] Setting up inception_4e/output
I1124 20:32:26.063707  3049 net.cpp:157] Top shape: 64 832 14 14 (10436608)
I1124 20:32:26.063712  3049 net.cpp:165] Memory required for data: 3396612912
I1124 20:32:26.063717  3049 layer_factory.hpp:76] Creating layer pool4/3x3_s2
I1124 20:32:26.063729  3049 net.cpp:106] Creating Layer pool4/3x3_s2
I1124 20:32:26.063736  3049 net.cpp:454] pool4/3x3_s2 <- inception_4e/output
I1124 20:32:26.063745  3049 net.cpp:411] pool4/3x3_s2 -> pool4/3x3_s2
I1124 20:32:26.063963  3049 net.cpp:150] Setting up pool4/3x3_s2
I1124 20:32:26.063976  3049 net.cpp:157] Top shape: 64 832 7 7 (2609152)
I1124 20:32:26.063980  3049 net.cpp:165] Memory required for data: 3407049520
I1124 20:32:26.063987  3049 layer_factory.hpp:76] Creating layer pool4/3x3_s2_pool4/3x3_s2_0_split
I1124 20:32:26.063995  3049 net.cpp:106] Creating Layer pool4/3x3_s2_pool4/3x3_s2_0_split
I1124 20:32:26.064002  3049 net.cpp:454] pool4/3x3_s2_pool4/3x3_s2_0_split <- pool4/3x3_s2
I1124 20:32:26.064009  3049 net.cpp:411] pool4/3x3_s2_pool4/3x3_s2_0_split -> pool4/3x3_s2_pool4/3x3_s2_0_split_0
I1124 20:32:26.064038  3049 net.cpp:411] pool4/3x3_s2_pool4/3x3_s2_0_split -> pool4/3x3_s2_pool4/3x3_s2_0_split_1
I1124 20:32:26.064052  3049 net.cpp:411] pool4/3x3_s2_pool4/3x3_s2_0_split -> pool4/3x3_s2_pool4/3x3_s2_0_split_2
I1124 20:32:26.064062  3049 net.cpp:411] pool4/3x3_s2_pool4/3x3_s2_0_split -> pool4/3x3_s2_pool4/3x3_s2_0_split_3
I1124 20:32:26.064146  3049 net.cpp:150] Setting up pool4/3x3_s2_pool4/3x3_s2_0_split
I1124 20:32:26.064157  3049 net.cpp:157] Top shape: 64 832 7 7 (2609152)
I1124 20:32:26.064163  3049 net.cpp:157] Top shape: 64 832 7 7 (2609152)
I1124 20:32:26.064170  3049 net.cpp:157] Top shape: 64 832 7 7 (2609152)
I1124 20:32:26.064177  3049 net.cpp:157] Top shape: 64 832 7 7 (2609152)
I1124 20:32:26.064182  3049 net.cpp:165] Memory required for data: 3448795952
I1124 20:32:26.064187  3049 layer_factory.hpp:76] Creating layer inception_5a/1x1
I1124 20:32:26.064199  3049 net.cpp:106] Creating Layer inception_5a/1x1
I1124 20:32:26.064208  3049 net.cpp:454] inception_5a/1x1 <- pool4/3x3_s2_pool4/3x3_s2_0_split_0
I1124 20:32:26.064219  3049 net.cpp:411] inception_5a/1x1 -> inception_5a/1x1
I1124 20:32:26.066843  3049 net.cpp:150] Setting up inception_5a/1x1
I1124 20:32:26.066858  3049 net.cpp:157] Top shape: 64 256 7 7 (802816)
I1124 20:32:26.066864  3049 net.cpp:165] Memory required for data: 3452007216
I1124 20:32:26.066886  3049 layer_factory.hpp:76] Creating layer inception_5a/relu_1x1
I1124 20:32:26.066900  3049 net.cpp:106] Creating Layer inception_5a/relu_1x1
I1124 20:32:26.066908  3049 net.cpp:454] inception_5a/relu_1x1 <- inception_5a/1x1
I1124 20:32:26.066917  3049 net.cpp:397] inception_5a/relu_1x1 -> inception_5a/1x1 (in-place)
I1124 20:32:26.067222  3049 net.cpp:150] Setting up inception_5a/relu_1x1
I1124 20:32:26.067235  3049 net.cpp:157] Top shape: 64 256 7 7 (802816)
I1124 20:32:26.067241  3049 net.cpp:165] Memory required for data: 3455218480
I1124 20:32:26.067246  3049 layer_factory.hpp:76] Creating layer inception_5a/3x3_reduce
I1124 20:32:26.067261  3049 net.cpp:106] Creating Layer inception_5a/3x3_reduce
I1124 20:32:26.067270  3049 net.cpp:454] inception_5a/3x3_reduce <- pool4/3x3_s2_pool4/3x3_s2_0_split_1
I1124 20:32:26.067292  3049 net.cpp:411] inception_5a/3x3_reduce -> inception_5a/3x3_reduce
I1124 20:32:26.069548  3049 net.cpp:150] Setting up inception_5a/3x3_reduce
I1124 20:32:26.069563  3049 net.cpp:157] Top shape: 64 160 7 7 (501760)
I1124 20:32:26.069568  3049 net.cpp:165] Memory required for data: 3457225520
I1124 20:32:26.069578  3049 layer_factory.hpp:76] Creating layer inception_5a/relu_3x3_reduce
I1124 20:32:26.069587  3049 net.cpp:106] Creating Layer inception_5a/relu_3x3_reduce
I1124 20:32:26.069594  3049 net.cpp:454] inception_5a/relu_3x3_reduce <- inception_5a/3x3_reduce
I1124 20:32:26.069604  3049 net.cpp:397] inception_5a/relu_3x3_reduce -> inception_5a/3x3_reduce (in-place)
I1124 20:32:26.069779  3049 net.cpp:150] Setting up inception_5a/relu_3x3_reduce
I1124 20:32:26.069793  3049 net.cpp:157] Top shape: 64 160 7 7 (501760)
I1124 20:32:26.069798  3049 net.cpp:165] Memory required for data: 3459232560
I1124 20:32:26.069804  3049 layer_factory.hpp:76] Creating layer inception_5a/3x3
I1124 20:32:26.069815  3049 net.cpp:106] Creating Layer inception_5a/3x3
I1124 20:32:26.069823  3049 net.cpp:454] inception_5a/3x3 <- inception_5a/3x3_reduce
I1124 20:32:26.069835  3049 net.cpp:411] inception_5a/3x3 -> inception_5a/3x3
I1124 20:32:26.074120  3049 net.cpp:150] Setting up inception_5a/3x3
I1124 20:32:26.074136  3049 net.cpp:157] Top shape: 64 320 7 7 (1003520)
I1124 20:32:26.074142  3049 net.cpp:165] Memory required for data: 3463246640
I1124 20:32:26.074152  3049 layer_factory.hpp:76] Creating layer inception_5a/relu_3x3
I1124 20:32:26.074162  3049 net.cpp:106] Creating Layer inception_5a/relu_3x3
I1124 20:32:26.074168  3049 net.cpp:454] inception_5a/relu_3x3 <- inception_5a/3x3
I1124 20:32:26.074178  3049 net.cpp:397] inception_5a/relu_3x3 -> inception_5a/3x3 (in-place)
I1124 20:32:26.074364  3049 net.cpp:150] Setting up inception_5a/relu_3x3
I1124 20:32:26.074376  3049 net.cpp:157] Top shape: 64 320 7 7 (1003520)
I1124 20:32:26.074383  3049 net.cpp:165] Memory required for data: 3467260720
I1124 20:32:26.074388  3049 layer_factory.hpp:76] Creating layer inception_5a/5x5_reduce
I1124 20:32:26.074400  3049 net.cpp:106] Creating Layer inception_5a/5x5_reduce
I1124 20:32:26.074407  3049 net.cpp:454] inception_5a/5x5_reduce <- pool4/3x3_s2_pool4/3x3_s2_0_split_2
I1124 20:32:26.074417  3049 net.cpp:411] inception_5a/5x5_reduce -> inception_5a/5x5_reduce
I1124 20:32:26.075636  3049 net.cpp:150] Setting up inception_5a/5x5_reduce
I1124 20:32:26.075650  3049 net.cpp:157] Top shape: 64 32 7 7 (100352)
I1124 20:32:26.075656  3049 net.cpp:165] Memory required for data: 3467662128
I1124 20:32:26.075688  3049 layer_factory.hpp:76] Creating layer inception_5a/relu_5x5_reduce
I1124 20:32:26.075700  3049 net.cpp:106] Creating Layer inception_5a/relu_5x5_reduce
I1124 20:32:26.075706  3049 net.cpp:454] inception_5a/relu_5x5_reduce <- inception_5a/5x5_reduce
I1124 20:32:26.075714  3049 net.cpp:397] inception_5a/relu_5x5_reduce -> inception_5a/5x5_reduce (in-place)
I1124 20:32:26.076030  3049 net.cpp:150] Setting up inception_5a/relu_5x5_reduce
I1124 20:32:26.076045  3049 net.cpp:157] Top shape: 64 32 7 7 (100352)
I1124 20:32:26.076050  3049 net.cpp:165] Memory required for data: 3468063536
I1124 20:32:26.076056  3049 layer_factory.hpp:76] Creating layer inception_5a/5x5
I1124 20:32:26.076068  3049 net.cpp:106] Creating Layer inception_5a/5x5
I1124 20:32:26.076076  3049 net.cpp:454] inception_5a/5x5 <- inception_5a/5x5_reduce
I1124 20:32:26.076093  3049 net.cpp:411] inception_5a/5x5 -> inception_5a/5x5
I1124 20:32:26.077777  3049 net.cpp:150] Setting up inception_5a/5x5
I1124 20:32:26.077791  3049 net.cpp:157] Top shape: 64 128 7 7 (401408)
I1124 20:32:26.077797  3049 net.cpp:165] Memory required for data: 3469669168
I1124 20:32:26.077807  3049 layer_factory.hpp:76] Creating layer inception_5a/relu_5x5
I1124 20:32:26.077816  3049 net.cpp:106] Creating Layer inception_5a/relu_5x5
I1124 20:32:26.077828  3049 net.cpp:454] inception_5a/relu_5x5 <- inception_5a/5x5
I1124 20:32:26.077837  3049 net.cpp:397] inception_5a/relu_5x5 -> inception_5a/5x5 (in-place)
I1124 20:32:26.078006  3049 net.cpp:150] Setting up inception_5a/relu_5x5
I1124 20:32:26.078019  3049 net.cpp:157] Top shape: 64 128 7 7 (401408)
I1124 20:32:26.078024  3049 net.cpp:165] Memory required for data: 3471274800
I1124 20:32:26.078030  3049 layer_factory.hpp:76] Creating layer inception_5a/pool
I1124 20:32:26.078039  3049 net.cpp:106] Creating Layer inception_5a/pool
I1124 20:32:26.078047  3049 net.cpp:454] inception_5a/pool <- pool4/3x3_s2_pool4/3x3_s2_0_split_3
I1124 20:32:26.078055  3049 net.cpp:411] inception_5a/pool -> inception_5a/pool
I1124 20:32:26.078408  3049 net.cpp:150] Setting up inception_5a/pool
I1124 20:32:26.078421  3049 net.cpp:157] Top shape: 64 832 7 7 (2609152)
I1124 20:32:26.078428  3049 net.cpp:165] Memory required for data: 3481711408
I1124 20:32:26.078433  3049 layer_factory.hpp:76] Creating layer inception_5a/pool_proj
I1124 20:32:26.078445  3049 net.cpp:106] Creating Layer inception_5a/pool_proj
I1124 20:32:26.078454  3049 net.cpp:454] inception_5a/pool_proj <- inception_5a/pool
I1124 20:32:26.078465  3049 net.cpp:411] inception_5a/pool_proj -> inception_5a/pool_proj
I1124 20:32:26.080549  3049 net.cpp:150] Setting up inception_5a/pool_proj
I1124 20:32:26.080565  3049 net.cpp:157] Top shape: 64 128 7 7 (401408)
I1124 20:32:26.080571  3049 net.cpp:165] Memory required for data: 3483317040
I1124 20:32:26.080581  3049 layer_factory.hpp:76] Creating layer inception_5a/relu_pool_proj
I1124 20:32:26.080591  3049 net.cpp:106] Creating Layer inception_5a/relu_pool_proj
I1124 20:32:26.080600  3049 net.cpp:454] inception_5a/relu_pool_proj <- inception_5a/pool_proj
I1124 20:32:26.080607  3049 net.cpp:397] inception_5a/relu_pool_proj -> inception_5a/pool_proj (in-place)
I1124 20:32:26.080912  3049 net.cpp:150] Setting up inception_5a/relu_pool_proj
I1124 20:32:26.080925  3049 net.cpp:157] Top shape: 64 128 7 7 (401408)
I1124 20:32:26.080931  3049 net.cpp:165] Memory required for data: 3484922672
I1124 20:32:26.080936  3049 layer_factory.hpp:76] Creating layer inception_5a/output
I1124 20:32:26.080945  3049 net.cpp:106] Creating Layer inception_5a/output
I1124 20:32:26.080951  3049 net.cpp:454] inception_5a/output <- inception_5a/1x1
I1124 20:32:26.080958  3049 net.cpp:454] inception_5a/output <- inception_5a/3x3
I1124 20:32:26.080965  3049 net.cpp:454] inception_5a/output <- inception_5a/5x5
I1124 20:32:26.080972  3049 net.cpp:454] inception_5a/output <- inception_5a/pool_proj
I1124 20:32:26.080981  3049 net.cpp:411] inception_5a/output -> inception_5a/output
I1124 20:32:26.081023  3049 net.cpp:150] Setting up inception_5a/output
I1124 20:32:26.081033  3049 net.cpp:157] Top shape: 64 832 7 7 (2609152)
I1124 20:32:26.081038  3049 net.cpp:165] Memory required for data: 3495359280
…
I1124 20:32:26.327283  3049 net.cpp:150] Setting up inception_4c/output_inception_4c/output_0_split
I1124 20:32:26.327288  3049 net.cpp:157] Top shape: 64 512 14 14 (6422528)
I1124 20:32:26.327292  3049 net.cpp:157] Top shape: 64 512 14 14 (6422528)
I1124 20:32:26.327296  3049 net.cpp:157] Top shape: 64 512 14 14 (6422528)
I1124 20:32:26.327299  3049 net.cpp:157] Top shape: 64 512 14 14 (6422528)
I1124 20:32:26.327301  3049 net.cpp:165] Memory required for data: 2964774704
I1124 20:32:26.327304  3049 layer_factory.hpp:76] Creating layer inception_4d/1x1
I1124 20:32:26.327313  3049 net.cpp:106] Creating Layer inception_4d/1x1
I1124 20:32:26.327317  3049 net.cpp:454] inception_4d/1x1 <- inception_4c/output_inception_4c/output_0_split_0
I1124 20:32:26.327323  3049 net.cpp:411] inception_4d/1x1 -> inception_4d/1x1
I1124 20:32:26.329417  3049 net.cpp:150] Setting up inception_4d/1x1
I1124 20:32:26.329429  3049 net.cpp:157] Top shape: 64 112 14 14 (1404928)
I1124 20:32:26.329432  3049 net.cpp:165] Memory required for data: 2970394416
I1124 20:32:26.329439  3049 layer_factory.hpp:76] Creating layer inception_4d/relu_1x1
I1124 20:32:26.329444  3049 net.cpp:106] Creating Layer inception_4d/relu_1x1
I1124 20:32:26.329448  3049 net.cpp:454] inception_4d/relu_1x1 <- inception_4d/1x1
I1124 20:32:26.329455  3049 net.cpp:397] inception_4d/relu_1x1 -> inception_4d/1x1 (in-place)
I1124 20:32:26.329802  3049 net.cpp:150] Setting up inception_4d/relu_1x1
I1124 20:32:26.329812  3049 net.cpp:157] Top shape: 64 112 14 14 (1404928)
I1124 20:32:26.329815  3049 net.cpp:165] Memory required for data: 2976014128
I1124 20:32:26.335178  3049 layer_factory.hpp:76] Creating layer inception_4d/3x3_reduce
I1124 20:32:26.335194  3049 net.cpp:106] Creating Layer inception_4d/3x3_reduce
I1124 20:32:26.335201  3049 net.cpp:454] inception_4d/3x3_reduce <- inception_4c/output_inception_4c/output_0_split_1
I1124 20:32:26.335207  3049 net.cpp:411] inception_4d/3x3_reduce -> inception_4d/3x3_reduce
I1124 20:32:26.337008  3049 net.cpp:150] Setting up inception_4d/3x3_reduce
I1124 20:32:26.337021  3049 net.cpp:157] Top shape: 64 144 14 14 (1806336)
I1124 20:32:26.337026  3049 net.cpp:165] Memory required for data: 2983239472
I1124 20:32:26.337033  3049 layer_factory.hpp:76] Creating layer inception_4d/relu_3x3_reduce
I1124 20:32:26.337039  3049 net.cpp:106] Creating Layer inception_4d/relu_3x3_reduce
I1124 20:32:26.337044  3049 net.cpp:454] inception_4d/relu_3x3_reduce <- inception_4d/3x3_reduce
I1124 20:32:26.337049  3049 net.cpp:397] inception_4d/relu_3x3_reduce -> inception_4d/3x3_reduce (in-place)
I1124 20:32:26.337407  3049 net.cpp:150] Setting up inception_4d/relu_3x3_reduce
I1124 20:32:26.337419  3049 net.cpp:157] Top shape: 64 144 14 14 (1806336)
I1124 20:32:26.337422  3049 net.cpp:165] Memory required for data: 2990464816
I1124 20:32:26.337426  3049 layer_factory.hpp:76] Creating layer inception_4d/3x3
I1124 20:32:26.337435  3049 net.cpp:106] Creating Layer inception_4d/3x3
I1124 20:32:26.337438  3049 net.cpp:454] inception_4d/3x3 <- inception_4d/3x3_reduce
I1124 20:32:26.337446  3049 net.cpp:411] inception_4d/3x3 -> inception_4d/3x3
I1124 20:32:26.342125  3049 net.cpp:150] Setting up inception_4d/3x3
I1124 20:32:26.342139  3049 net.cpp:157] Top shape: 64 288 14 14 (3612672)
I1124 20:32:26.342142  3049 net.cpp:165] Memory required for data: 3004915504
I1124 20:32:26.342149  3049 layer_factory.hpp:76] Creating layer inception_4d/relu_3x3
I1124 20:32:26.342155  3049 net.cpp:106] Creating Layer inception_4d/relu_3x3
I1124 20:32:26.342159  3049 net.cpp:454] inception_4d/relu_3x3 <- inception_4d/3x3
I1124 20:32:26.342165  3049 net.cpp:397] inception_4d/relu_3x3 -> inception_4d/3x3 (in-place)
I1124 20:32:26.342366  3049 net.cpp:150] Setting up inception_4d/relu_3x3
I1124 20:32:26.342375  3049 net.cpp:157] Top shape: 64 288 14 14 (3612672)
I1124 20:32:26.342378  3049 net.cpp:165] Memory required for data: 3019366192
I1124 20:32:26.342381  3049 layer_factory.hpp:76] Creating layer inception_4d/5x5_reduce
I1124 20:32:26.342391  3049 net.cpp:106] Creating Layer inception_4d/5x5_reduce
I1124 20:32:26.342394  3049 net.cpp:454] inception_4d/5x5_reduce <- inception_4c/output_inception_4c/output_0_split_2
I1124 20:32:26.342403  3049 net.cpp:411] inception_4d/5x5_reduce -> inception_4d/5x5_reduce
I1124 20:32:26.343823  3049 net.cpp:150] Setting up inception_4d/5x5_reduce
I1124 20:32:26.343838  3049 net.cpp:157] Top shape: 64 32 14 14 (401408)
I1124 20:32:26.343843  3049 net.cpp:165] Memory required for data: 3020971824
I1124 20:32:26.343852  3049 layer_factory.hpp:76] Creating layer inception_4d/relu_5x5_reduce
I1124 20:32:26.343861  3049 net.cpp:106] Creating Layer inception_4d/relu_5x5_reduce
I1124 20:32:26.343866  3049 net.cpp:454] inception_4d/relu_5x5_reduce <- inception_4d/5x5_reduce
I1124 20:32:26.343873  3049 net.cpp:397] inception_4d/relu_5x5_reduce -> inception_4d/5x5_reduce (in-place)
I1124 20:32:26.344341  3049 net.cpp:150] Setting up inception_4d/relu_5x5_reduce
I1124 20:32:26.344355  3049 net.cpp:157] Top shape: 64 32 14 14 (401408)
I1124 20:32:26.344359  3049 net.cpp:165] Memory required for data: 3022577456
I1124 20:32:26.344364  3049 layer_factory.hpp:76] Creating layer inception_4d/5x5
I1124 20:32:26.344375  3049 net.cpp:106] Creating Layer inception_4d/5x5
I1124 20:32:26.344383  3049 net.cpp:454] inception_4d/5x5 <- inception_4d/5x5_reduce
I1124 20:32:26.344391  3049 net.cpp:411] inception_4d/5x5 -> inception_4d/5x5
I1124 20:32:26.346107  3049 net.cpp:150] Setting up inception_4d/5x5
I1124 20:32:26.346122  3049 net.cpp:157] Top shape: 64 64 14 14 (802816)
I1124 20:32:26.346125  3049 net.cpp:165] Memory required for data: 3025788720
I1124 20:32:26.346134  3049 layer_factory.hpp:76] Creating layer inception_4d/relu_5x5
I1124 20:32:26.346143  3049 net.cpp:106] Creating Layer inception_4d/relu_5x5
I1124 20:32:26.346149  3049 net.cpp:454] inception_4d/relu_5x5 <- inception_4d/5x5
I1124 20:32:26.346155  3049 net.cpp:397] inception_4d/relu_5x5 -> inception_4d/5x5 (in-place)
I1124 20:32:26.346737  3049 net.cpp:150] Setting up inception_4d/relu_5x5
I1124 20:32:26.346751  3049 net.cpp:157] Top shape: 64 64 14 14 (802816)
I1124 20:32:26.346755  3049 net.cpp:165] Memory required for data: 3028999984
I1124 20:32:26.346760  3049 layer_factory.hpp:76] Creating layer inception_4d/pool
I1124 20:32:26.346768  3049 net.cpp:106] Creating Layer inception_4d/pool
I1124 20:32:26.346774  3049 net.cpp:454] inception_4d/pool <- inception_4c/output_inception_4c/output_0_split_3
I1124 20:32:26.346782  3049 net.cpp:411] inception_4d/pool -> inception_4d/pool
I1124 20:32:26.347322  3049 net.cpp:150] Setting up inception_4d/pool
I1124 20:32:26.347337  3049 net.cpp:157] Top shape: 64 512 14 14 (6422528)
I1124 20:32:26.347342  3049 net.cpp:165] Memory required for data: 3054690096
I1124 20:32:26.347345  3049 layer_factory.hpp:76] Creating layer inception_4d/pool_proj
I1124 20:32:26.347357  3049 net.cpp:106] Creating Layer inception_4d/pool_proj
I1124 20:32:26.347362  3049 net.cpp:454] inception_4d/pool_proj <- inception_4d/pool
I1124 20:32:26.347373  3049 net.cpp:411] inception_4d/pool_proj -> inception_4d/pool_proj
I1124 20:32:26.348950  3049 net.cpp:150] Setting up inception_4d/pool_proj
I1124 20:32:26.348964  3049 net.cpp:157] Top shape: 64 64 14 14 (802816)
I1124 20:32:26.348973  3049 net.cpp:165] Memory required for data: 3057901360
I1124 20:32:26.348981  3049 layer_factory.hpp:76] Creating layer inception_4d/relu_pool_proj
I1124 20:32:26.348989  3049 net.cpp:106] Creating Layer inception_4d/relu_pool_proj
I1124 20:32:26.348994  3049 net.cpp:454] inception_4d/relu_pool_proj <- inception_4d/pool_proj
I1124 20:32:26.349004  3049 net.cpp:397] inception_4d/relu_pool_proj -> inception_4d/pool_proj (in-place)
I1124 20:32:26.349447  3049 net.cpp:150] Setting up inception_4d/relu_pool_proj
I1124 20:32:26.349460  3049 net.cpp:157] Top shape: 64 64 14 14 (802816)
I1124 20:32:26.349464  3049 net.cpp:165] Memory required for data: 3061112624
I1124 20:32:26.349468  3049 layer_factory.hpp:76] Creating layer inception_4d/output
I1124 20:32:26.349478  3049 net.cpp:106] Creating Layer inception_4d/output
I1124 20:32:26.349483  3049 net.cpp:454] inception_4d/output <- inception_4d/1x1
I1124 20:32:26.349488  3049 net.cpp:454] inception_4d/output <- inception_4d/3x3
I1124 20:32:26.349493  3049 net.cpp:454] inception_4d/output <- inception_4d/5x5
I1124 20:32:26.349499  3049 net.cpp:454] inception_4d/output <- inception_4d/pool_proj
I1124 20:32:26.349506  3049 net.cpp:411] inception_4d/output -> inception_4d/output
I1124 20:32:26.349544  3049 net.cpp:150] Setting up inception_4d/output
I1124 20:32:26.349551  3049 net.cpp:157] Top shape: 64 528 14 14 (6623232)
I1124 20:32:26.349555  3049 net.cpp:165] Memory required for data: 3087605552
I1124 20:32:26.349560  3049 layer_factory.hpp:76] Creating layer inception_4d/output_inception_4d/output_0_split
I1124 20:32:26.349566  3049 net.cpp:106] Creating Layer inception_4d/output_inception_4d/output_0_split
I1124 20:32:26.349570  3049 net.cpp:454] inception_4d/output_inception_4d/output_0_split <- inception_4d/output
I1124 20:32:26.349577  3049 net.cpp:411] inception_4d/output_inception_4d/output_0_split -> inception_4d/output_inception_4d/output_0_split_0
I1124 20:32:26.349586  3049 net.cpp:411] inception_4d/output_inception_4d/output_0_split -> inception_4d/output_inception_4d/output_0_split_1
I1124 20:32:26.349594  3049 net.cpp:411] inception_4d/output_inception_4d/output_0_split -> inception_4d/output_inception_4d/output_0_split_2
I1124 20:32:26.349602  3049 net.cpp:411] inception_4d/output_inception_4d/output_0_split -> inception_4d/output_inception_4d/output_0_split_3
I1124 20:32:26.349609  3049 net.cpp:411] inception_4d/output_inception_4d/output_0_split -> inception_4d/output_inception_4d/output_0_split_4
I1124 20:32:26.362553  3049 net.cpp:150] Setting up inception_4d/output_inception_4d/output_0_split
I1124 20:32:26.362568  3049 net.cpp:157] Top shape: 64 528 14 14 (6623232)
I1124 20:32:26.362574  3049 net.cpp:157] Top shape: 64 528 14 14 (6623232)
I1124 20:32:26.362578  3049 net.cpp:157] Top shape: 64 528 14 14 (6623232)
I1124 20:32:26.362581  3049 net.cpp:157] Top shape: 64 528 14 14 (6623232)
I1124 20:32:26.362586  3049 net.cpp:157] Top shape: 64 528 14 14 (6623232)
I1124 20:32:26.362588  3049 net.cpp:165] Memory required for data: 3220070192
I1124 20:32:26.362592  3049 layer_factory.hpp:76] Creating layer loss2/ave_pool
I1124 20:32:26.362601  3049 net.cpp:106] Creating Layer loss2/ave_pool
I1124 20:32:26.362607  3049 net.cpp:454] loss2/ave_pool <- inception_4d/output_inception_4d/output_0_split_0
I1124 20:32:26.362617  3049 net.cpp:411] loss2/ave_pool -> loss2/ave_pool
I1124 20:32:26.362958  3049 net.cpp:150] Setting up loss2/ave_pool
I1124 20:32:26.362969  3049 net.cpp:157] Top shape: 64 528 4 4 (540672)
I1124 20:32:26.362973  3049 net.cpp:165] Memory required for data: 3222232880
I1124 20:32:26.362977  3049 layer_factory.hpp:76] Creating layer loss2/conv
I1124 20:32:26.362987  3049 net.cpp:106] Creating Layer loss2/conv
I1124 20:32:26.362993  3049 net.cpp:454] loss2/conv <- loss2/ave_pool
I1124 20:32:26.363003  3049 net.cpp:411] loss2/conv -> loss2/conv
I1124 20:32:26.366297  3049 net.cpp:150] Setting up loss2/conv
I1124 20:32:26.366317  3049 net.cpp:157] Top shape: 64 128 4 4 (131072)
I1124 20:32:26.366322  3049 net.cpp:165] Memory required for data: 3222757168
I1124 20:32:26.366334  3049 layer_factory.hpp:76] Creating layer loss2/relu_conv
I1124 20:32:26.366343  3049 net.cpp:106] Creating Layer loss2/relu_conv
I1124 20:32:26.366349  3049 net.cpp:454] loss2/relu_conv <- loss2/conv
I1124 20:32:26.366358  3049 net.cpp:397] loss2/relu_conv -> loss2/conv (in-place)
I1124 20:32:26.366895  3049 net.cpp:150] Setting up loss2/relu_conv
I1124 20:32:26.366916  3049 net.cpp:157] Top shape: 64 128 4 4 (131072)
I1124 20:32:26.366922  3049 net.cpp:165] Memory required for data: 3223281456
I1124 20:32:26.366927  3049 layer_factory.hpp:76] Creating layer loss2/fc
I1124 20:32:26.366938  3049 net.cpp:106] Creating Layer loss2/fc
I1124 20:32:26.366945  3049 net.cpp:454] loss2/fc <- loss2/conv
I1124 20:32:26.366956  3049 net.cpp:411] loss2/fc -> loss2/fc
I1124 20:32:26.383314  3049 net.cpp:150] Setting up loss2/fc
I1124 20:32:26.383333  3049 net.cpp:157] Top shape: 64 1024 (65536)
I1124 20:32:26.383337  3049 net.cpp:165] Memory required for data: 3223543600
I1124 20:32:26.383345  3049 layer_factory.hpp:76] Creating layer loss2/relu_fc
I1124 20:32:26.383354  3049 net.cpp:106] Creating Layer loss2/relu_fc
I1124 20:32:26.383360  3049 net.cpp:454] loss2/relu_fc <- loss2/fc
I1124 20:32:26.383366  3049 net.cpp:397] loss2/relu_fc -> loss2/fc (in-place)
I1124 20:32:26.383631  3049 net.cpp:150] Setting up loss2/relu_fc
I1124 20:32:26.383640  3049 net.cpp:157] Top shape: 64 1024 (65536)
I1124 20:32:26.383642  3049 net.cpp:165] Memory required for data: 3223805744
I1124 20:32:26.383646  3049 layer_factory.hpp:76] Creating layer loss2/drop_fc
I1124 20:32:26.383652  3049 net.cpp:106] Creating Layer loss2/drop_fc
I1124 20:32:26.383656  3049 net.cpp:454] loss2/drop_fc <- loss2/fc
I1124 20:32:26.383662  3049 net.cpp:397] loss2/drop_fc -> loss2/fc (in-place)
I1124 20:32:26.383688  3049 net.cpp:150] Setting up loss2/drop_fc
I1124 20:32:26.383693  3049 net.cpp:157] Top shape: 64 1024 (65536)
I1124 20:32:26.383697  3049 net.cpp:165] Memory required for data: 3224067888
I1124 20:32:26.383699  3049 layer_factory.hpp:76] Creating layer loss2/fc_loss2/drop_fc_0_split
I1124 20:32:26.383708  3049 net.cpp:106] Creating Layer loss2/fc_loss2/drop_fc_0_split
I1124 20:32:26.383712  3049 net.cpp:454] loss2/fc_loss2/drop_fc_0_split <- loss2/fc
I1124 20:32:26.383716  3049 net.cpp:411] loss2/fc_loss2/drop_fc_0_split -> loss2/fc_loss2/drop_fc_0_split_0
I1124 20:32:26.383749  3049 net.cpp:411] loss2/fc_loss2/drop_fc_0_split -> loss2/fc_loss2/drop_fc_0_split_1
I1124 20:32:26.383759  3049 net.cpp:411] loss2/fc_loss2/drop_fc_0_split -> loss2/fc_loss2/drop_fc_0_split_2
I1124 20:32:26.383765  3049 net.cpp:411] loss2/fc_loss2/drop_fc_0_split -> loss2/fc_loss2/drop_fc_0_split_3
I1124 20:32:26.383770  3049 net.cpp:411] loss2/fc_loss2/drop_fc_0_split -> loss2/fc_loss2/drop_fc_0_split_4
I1124 20:32:26.383775  3049 net.cpp:411] loss2/fc_loss2/drop_fc_0_split -> loss2/fc_loss2/drop_fc_0_split_5
I1124 20:32:26.383868  3049 net.cpp:150] Setting up loss2/fc_loss2/drop_fc_0_split
I1124 20:32:26.383874  3049 net.cpp:157] Top shape: 64 1024 (65536)
I1124 20:32:26.383878  3049 net.cpp:157] Top shape: 64 1024 (65536)
I1124 20:32:26.383882  3049 net.cpp:157] Top shape: 64 1024 (65536)
I1124 20:32:26.383885  3049 net.cpp:157] Top shape: 64 1024 (65536)
I1124 20:32:26.383888  3049 net.cpp:157] Top shape: 64 1024 (65536)
I1124 20:32:26.383891  3049 net.cpp:157] Top shape: 64 1024 (65536)
I1124 20:32:26.383894  3049 net.cpp:165] Memory required for data: 3225640752
I1124 20:32:26.383898  3049 layer_factory.hpp:76] Creating layer loss2/classifier-00.category
I1124 20:32:26.383905  3049 net.cpp:106] Creating Layer loss2/classifier-00.category
I1124 20:32:26.383909  3049 net.cpp:454] loss2/classifier-00.category <- loss2/fc_loss2/drop_fc_0_split_0
I1124 20:32:26.383915  3049 net.cpp:411] loss2/classifier-00.category -> loss2/classifier-00.category
I1124 20:32:26.384130  3049 net.cpp:150] Setting up loss2/classifier-00.category
I1124 20:32:26.384136  3049 net.cpp:157] Top shape: 64 16 (1024)
I1124 20:32:26.384138  3049 net.cpp:165] Memory required for data: 3225644848
I1124 20:32:26.384145  3049 layer_factory.hpp:76] Creating layer loss2/classifier-00.category_loss2/classifier-00.category_0_split
I1124 20:32:26.384150  3049 net.cpp:106] Creating Layer loss2/classifier-00.category_loss2/classifier-00.category_0_split
I1124 20:32:26.384153  3049 net.cpp:454] loss2/classifier-00.category_loss2/classifier-00.category_0_split <- loss2/classifier-00.category
I1124 20:32:26.384160  3049 net.cpp:411] loss2/classifier-00.category_loss2/classifier-00.category_0_split -> loss2/classifier-00.category_loss2/classifier-00.category_0_split_0
I1124 20:32:26.384165  3049 net.cpp:411] loss2/classifier-00.category_loss2/classifier-00.category_0_split -> loss2/classifier-00.category_loss2/classifier-00.category_0_split_1
I1124 20:32:26.384194  3049 net.cpp:150] Setting up loss2/classifier-00.category_loss2/classifier-00.category_0_split
I1124 20:32:26.384199  3049 net.cpp:157] Top shape: 64 16 (1024)
I1124 20:32:26.384203  3049 net.cpp:157] Top shape: 64 16 (1024)
I1124 20:32:26.384205  3049 net.cpp:165] Memory required for data: 3225653040
I1124 20:32:26.384208  3049 layer_factory.hpp:76] Creating layer loss2/loss_00.category
I1124 20:32:26.384215  3049 net.cpp:106] Creating Layer loss2/loss_00.category
I1124 20:32:26.384218  3049 net.cpp:454] loss2/loss_00.category <- loss2/classifier-00.category_loss2/classifier-00.category_0_split_0
I1124 20:32:26.384224  3049 net.cpp:454] loss2/loss_00.category <- 00.category_slice_attribute_0_split_2
…
I1124 20:32:26.424443  3049 net.cpp:150] Setting up loss2_21.color/top-1
I1124 20:32:26.424446  3049 net.cpp:157] Top shape: (1)
I1124 20:32:26.424450  3049 net.cpp:165] Memory required for data: 3225709920
I1124 20:32:26.424453  3049 layer_factory.hpp:76] Creating layer inception_4e/1x1
I1124 20:32:26.424464  3049 net.cpp:106] Creating Layer inception_4e/1x1
I1124 20:32:26.424469  3049 net.cpp:454] inception_4e/1x1 <- inception_4d/output_inception_4d/output_0_split_1
I1124 20:32:26.424479  3049 net.cpp:411] inception_4e/1x1 -> inception_4e/1x1
I1124 20:32:26.427134  3049 net.cpp:150] Setting up inception_4e/1x1
I1124 20:32:26.427151  3049 net.cpp:157] Top shape: 64 256 14 14 (3211264)
I1124 20:32:26.427155  3049 net.cpp:165] Memory required for data: 3238554976
I1124 20:32:26.427165  3049 layer_factory.hpp:76] Creating layer inception_4e/relu_1x1
I1124 20:32:26.427171  3049 net.cpp:106] Creating Layer inception_4e/relu_1x1
I1124 20:32:26.427177  3049 net.cpp:454] inception_4e/relu_1x1 <- inception_4e/1x1
I1124 20:32:26.427183  3049 net.cpp:397] inception_4e/relu_1x1 -> inception_4e/1x1 (in-place)
I1124 20:32:26.427623  3049 net.cpp:150] Setting up inception_4e/relu_1x1
I1124 20:32:26.427637  3049 net.cpp:157] Top shape: 64 256 14 14 (3211264)
I1124 20:32:26.427641  3049 net.cpp:165] Memory required for data: 3251400032
I1124 20:32:26.427645  3049 layer_factory.hpp:76] Creating layer inception_4e/3x3_reduce
I1124 20:32:26.427656  3049 net.cpp:106] Creating Layer inception_4e/3x3_reduce
I1124 20:32:26.427661  3049 net.cpp:454] inception_4e/3x3_reduce <- inception_4d/output_inception_4d/output_0_split_2
I1124 20:32:26.427670  3049 net.cpp:411] inception_4e/3x3_reduce -> inception_4e/3x3_reduce
I1124 20:32:26.430281  3049 net.cpp:150] Setting up inception_4e/3x3_reduce
I1124 20:32:26.430299  3049 net.cpp:157] Top shape: 64 160 14 14 (2007040)
I1124 20:32:26.430302  3049 net.cpp:165] Memory required for data: 3259428192
I1124 20:32:26.430310  3049 layer_factory.hpp:76] Creating layer inception_4e/relu_3x3_reduce
I1124 20:32:26.430317  3049 net.cpp:106] Creating Layer inception_4e/relu_3x3_reduce
I1124 20:32:26.430322  3049 net.cpp:454] inception_4e/relu_3x3_reduce <- inception_4e/3x3_reduce
I1124 20:32:26.430330  3049 net.cpp:397] inception_4e/relu_3x3_reduce -> inception_4e/3x3_reduce (in-place)
I1124 20:32:26.430781  3049 net.cpp:150] Setting up inception_4e/relu_3x3_reduce
I1124 20:32:26.430795  3049 net.cpp:157] Top shape: 64 160 14 14 (2007040)
I1124 20:32:26.430799  3049 net.cpp:165] Memory required for data: 3267456352
I1124 20:32:26.430804  3049 layer_factory.hpp:76] Creating layer inception_4e/3x3
I1124 20:32:26.430814  3049 net.cpp:106] Creating Layer inception_4e/3x3
I1124 20:32:26.430819  3049 net.cpp:454] inception_4e/3x3 <- inception_4e/3x3_reduce
I1124 20:32:26.430825  3049 net.cpp:411] inception_4e/3x3 -> inception_4e/3x3
I1124 20:32:26.436764  3049 net.cpp:150] Setting up inception_4e/3x3
I1124 20:32:26.436780  3049 net.cpp:157] Top shape: 64 320 14 14 (4014080)
I1124 20:32:26.436784  3049 net.cpp:165] Memory required for data: 3283512672
I1124 20:32:26.436792  3049 layer_factory.hpp:76] Creating layer inception_4e/relu_3x3
I1124 20:32:26.436801  3049 net.cpp:106] Creating Layer inception_4e/relu_3x3
I1124 20:32:26.436807  3049 net.cpp:454] inception_4e/relu_3x3 <- inception_4e/3x3
I1124 20:32:26.436815  3049 net.cpp:397] inception_4e/relu_3x3 -> inception_4e/3x3 (in-place)
I1124 20:32:26.437091  3049 net.cpp:150] Setting up inception_4e/relu_3x3
I1124 20:32:26.437103  3049 net.cpp:157] Top shape: 64 320 14 14 (4014080)
I1124 20:32:26.437106  3049 net.cpp:165] Memory required for data: 3299568992
I1124 20:32:26.437110  3049 layer_factory.hpp:76] Creating layer inception_4e/5x5_reduce
I1124 20:32:26.437121  3049 net.cpp:106] Creating Layer inception_4e/5x5_reduce
I1124 20:32:26.437127  3049 net.cpp:454] inception_4e/5x5_reduce <- inception_4d/output_inception_4d/output_0_split_3
I1124 20:32:26.437136  3049 net.cpp:411] inception_4e/5x5_reduce -> inception_4e/5x5_reduce
I1124 20:32:26.438822  3049 net.cpp:150] Setting up inception_4e/5x5_reduce
I1124 20:32:26.438838  3049 net.cpp:157] Top shape: 64 32 14 14 (401408)
I1124 20:32:26.438843  3049 net.cpp:165] Memory required for data: 3301174624
I1124 20:32:26.438851  3049 layer_factory.hpp:76] Creating layer inception_4e/relu_5x5_reduce
I1124 20:32:26.438858  3049 net.cpp:106] Creating Layer inception_4e/relu_5x5_reduce
I1124 20:32:26.438863  3049 net.cpp:454] inception_4e/relu_5x5_reduce <- inception_4e/5x5_reduce
I1124 20:32:26.438874  3049 net.cpp:397] inception_4e/relu_5x5_reduce -> inception_4e/5x5_reduce (in-place)
I1124 20:32:26.439306  3049 net.cpp:150] Setting up inception_4e/relu_5x5_reduce
I1124 20:32:26.439319  3049 net.cpp:157] Top shape: 64 32 14 14 (401408)
I1124 20:32:26.439322  3049 net.cpp:165] Memory required for data: 3302780256
I1124 20:32:26.439327  3049 layer_factory.hpp:76] Creating layer inception_4e/5x5
I1124 20:32:26.439337  3049 net.cpp:106] Creating Layer inception_4e/5x5
I1124 20:32:26.439342  3049 net.cpp:454] inception_4e/5x5 <- inception_4e/5x5_reduce
I1124 20:32:26.439352  3049 net.cpp:411] inception_4e/5x5 -> inception_4e/5x5
I1124 20:32:26.441577  3049 net.cpp:150] Setting up inception_4e/5x5
I1124 20:32:26.441591  3049 net.cpp:157] Top shape: 64 128 14 14 (1605632)
I1124 20:32:26.441596  3049 net.cpp:165] Memory required for data: 3309202784
I1124 20:32:26.441602  3049 layer_factory.hpp:76] Creating layer inception_4e/relu_5x5
I1124 20:32:26.441612  3049 net.cpp:106] Creating Layer inception_4e/relu_5x5
I1124 20:32:26.441617  3049 net.cpp:454] inception_4e/relu_5x5 <- inception_4e/5x5
I1124 20:32:26.441622  3049 net.cpp:397] inception_4e/relu_5x5 -> inception_4e/5x5 (in-place)
I1124 20:32:26.441864  3049 net.cpp:150] Setting up inception_4e/relu_5x5
I1124 20:32:26.441874  3049 net.cpp:157] Top shape: 64 128 14 14 (1605632)
I1124 20:32:26.441877  3049 net.cpp:165] Memory required for data: 3315625312
I1124 20:32:26.441881  3049 layer_factory.hpp:76] Creating layer inception_4e/pool
I1124 20:32:26.441890  3049 net.cpp:106] Creating Layer inception_4e/pool
I1124 20:32:26.441896  3049 net.cpp:454] inception_4e/pool <- inception_4d/output_inception_4d/output_0_split_4
I1124 20:32:26.441906  3049 net.cpp:411] inception_4e/pool -> inception_4e/pool
I1124 20:32:26.442392  3049 net.cpp:150] Setting up inception_4e/pool
I1124 20:32:26.442405  3049 net.cpp:157] Top shape: 64 528 14 14 (6623232)
I1124 20:32:26.442409  3049 net.cpp:165] Memory required for data: 3342118240
I1124 20:32:26.442414  3049 layer_factory.hpp:76] Creating layer inception_4e/pool_proj
I1124 20:32:26.442423  3049 net.cpp:106] Creating Layer inception_4e/pool_proj
I1124 20:32:26.442428  3049 net.cpp:454] inception_4e/pool_proj <- inception_4e/pool
I1124 20:32:26.442437  3049 net.cpp:411] inception_4e/pool_proj -> inception_4e/pool_proj
I1124 20:32:26.444044  3049 net.cpp:150] Setting up inception_4e/pool_proj
I1124 20:32:26.444061  3049 net.cpp:157] Top shape: 64 128 14 14 (1605632)
I1124 20:32:26.444064  3049 net.cpp:165] Memory required for data: 3348540768
I1124 20:32:26.444072  3049 layer_factory.hpp:76] Creating layer inception_4e/relu_pool_proj
I1124 20:32:26.444082  3049 net.cpp:106] Creating Layer inception_4e/relu_pool_proj
I1124 20:32:26.454736  3049 net.cpp:454] inception_4e/relu_pool_proj <- inception_4e/pool_proj
I1124 20:32:26.454752  3049 net.cpp:397] inception_4e/relu_pool_proj -> inception_4e/pool_proj (in-place)
I1124 20:32:26.455695  3049 net.cpp:150] Setting up inception_4e/relu_pool_proj
I1124 20:32:26.455732  3049 net.cpp:157] Top shape: 64 128 14 14 (1605632)
I1124 20:32:26.455747  3049 net.cpp:165] Memory required for data: 3354963296
I1124 20:32:26.455761  3049 layer_factory.hpp:76] Creating layer inception_4e/output
I1124 20:32:26.455786  3049 net.cpp:106] Creating Layer inception_4e/output
I1124 20:32:26.455802  3049 net.cpp:454] inception_4e/output <- inception_4e/1x1
I1124 20:32:26.455821  3049 net.cpp:454] inception_4e/output <- inception_4e/3x3
I1124 20:32:26.455837  3049 net.cpp:454] inception_4e/output <- inception_4e/5x5
I1124 20:32:26.455854  3049 net.cpp:454] inception_4e/output <- inception_4e/pool_proj
I1124 20:32:26.455874  3049 net.cpp:411] inception_4e/output -> inception_4e/output
I1124 20:32:26.455979  3049 net.cpp:150] Setting up inception_4e/output
I1124 20:32:26.456001  3049 net.cpp:157] Top shape: 64 832 14 14 (10436608)
I1124 20:32:26.456013  3049 net.cpp:165] Memory required for data: 3396709728
I1124 20:32:26.456027  3049 layer_factory.hpp:76] Creating layer pool4/3x3_s2
I1124 20:32:26.456054  3049 net.cpp:106] Creating Layer pool4/3x3_s2
I1124 20:32:26.456069  3049 net.cpp:454] pool4/3x3_s2 <- inception_4e/output
I1124 20:32:26.456090  3049 net.cpp:411] pool4/3x3_s2 -> pool4/3x3_s2
I1124 20:32:26.457216  3049 net.cpp:150] Setting up pool4/3x3_s2
I1124 20:32:26.457248  3049 net.cpp:157] Top shape: 64 832 7 7 (2609152)
I1124 20:32:26.457263  3049 net.cpp:165] Memory required for data: 3407146336
I1124 20:32:26.457278  3049 layer_factory.hpp:76] Creating layer pool4/3x3_s2_pool4/3x3_s2_0_split
I1124 20:32:26.457300  3049 net.cpp:106] Creating Layer pool4/3x3_s2_pool4/3x3_s2_0_split
I1124 20:32:26.457315  3049 net.cpp:454] pool4/3x3_s2_pool4/3x3_s2_0_split <- pool4/3x3_s2
I1124 20:32:26.457334  3049 net.cpp:411] pool4/3x3_s2_pool4/3x3_s2_0_split -> pool4/3x3_s2_pool4/3x3_s2_0_split_0
I1124 20:32:26.457358  3049 net.cpp:411] pool4/3x3_s2_pool4/3x3_s2_0_split -> pool4/3x3_s2_pool4/3x3_s2_0_split_1
I1124 20:32:26.457381  3049 net.cpp:411] pool4/3x3_s2_pool4/3x3_s2_0_split -> pool4/3x3_s2_pool4/3x3_s2_0_split_2
I1124 20:32:26.457406  3049 net.cpp:411] pool4/3x3_s2_pool4/3x3_s2_0_split -> pool4/3x3_s2_pool4/3x3_s2_0_split_3
I1124 20:32:26.457598  3049 net.cpp:150] Setting up pool4/3x3_s2_pool4/3x3_s2_0_split
I1124 20:32:26.457619  3049 net.cpp:157] Top shape: 64 832 7 7 (2609152)
I1124 20:32:26.457635  3049 net.cpp:157] Top shape: 64 832 7 7 (2609152)
I1124 20:32:26.457651  3049 net.cpp:157] Top shape: 64 832 7 7 (2609152)
I1124 20:32:26.457666  3049 net.cpp:157] Top shape: 64 832 7 7 (2609152)
I1124 20:32:26.457677  3049 net.cpp:165] Memory required for data: 3448892768
I1124 20:32:26.457690  3049 layer_factory.hpp:76] Creating layer inception_5a/1x1
I1124 20:32:26.457720  3049 net.cpp:106] Creating Layer inception_5a/1x1
I1124 20:32:26.457733  3049 net.cpp:454] inception_5a/1x1 <- pool4/3x3_s2_pool4/3x3_s2_0_split_0
I1124 20:32:26.457764  3049 net.cpp:411] inception_5a/1x1 -> inception_5a/1x1
I1124 20:32:26.464049  3049 net.cpp:150] Setting up inception_5a/1x1
I1124 20:32:26.464063  3049 net.cpp:157] Top shape: 64 256 7 7 (802816)
I1124 20:32:26.464066  3049 net.cpp:165] Memory required for data: 3452104032
I1124 20:32:26.464073  3049 layer_factory.hpp:76] Creating layer inception_5a/relu_1x1
I1124 20:32:26.464081  3049 net.cpp:106] Creating Layer inception_5a/relu_1x1
I1124 20:32:26.464084  3049 net.cpp:454] inception_5a/relu_1x1 <- inception_5a/1x1
I1124 20:32:26.464090  3049 net.cpp:397] inception_5a/relu_1x1 -> inception_5a/1x1 (in-place)
I1124 20:32:26.464465  3049 net.cpp:150] Setting up inception_5a/relu_1x1
I1124 20:32:26.464476  3049 net.cpp:157] Top shape: 64 256 7 7 (802816)
I1124 20:32:26.464479  3049 net.cpp:165] Memory required for data: 3455315296
I1124 20:32:26.464483  3049 layer_factory.hpp:76] Creating layer inception_5a/3x3_reduce
I1124 20:32:26.464493  3049 net.cpp:106] Creating Layer inception_5a/3x3_reduce
I1124 20:32:26.464498  3049 net.cpp:454] inception_5a/3x3_reduce <- pool4/3x3_s2_pool4/3x3_s2_0_split_1
I1124 20:32:26.464504  3049 net.cpp:411] inception_5a/3x3_reduce -> inception_5a/3x3_reduce
I1124 20:32:26.467039  3049 net.cpp:150] Setting up inception_5a/3x3_reduce
I1124 20:32:26.467051  3049 net.cpp:157] Top shape: 64 160 7 7 (501760)
I1124 20:32:26.467054  3049 net.cpp:165] Memory required for data: 3457322336
I1124 20:32:26.467061  3049 layer_factory.hpp:76] Creating layer inception_5a/relu_3x3_reduce
I1124 20:32:26.467067  3049 net.cpp:106] Creating Layer inception_5a/relu_3x3_reduce
I1124 20:32:26.467072  3049 net.cpp:454] inception_5a/relu_3x3_reduce <- inception_5a/3x3_reduce
I1124 20:32:26.467077  3049 net.cpp:397] inception_5a/relu_3x3_reduce -> inception_5a/3x3_reduce (in-place)
I1124 20:32:26.467283  3049 net.cpp:150] Setting up inception_5a/relu_3x3_reduce
I1124 20:32:26.467291  3049 net.cpp:157] Top shape: 64 160 7 7 (501760)
I1124 20:32:26.467296  3049 net.cpp:165] Memory required for data: 3459329376
I1124 20:32:26.467299  3049 layer_factory.hpp:76] Creating layer inception_5a/3x3
I1124 20:32:26.467306  3049 net.cpp:106] Creating Layer inception_5a/3x3
I1124 20:32:26.467310  3049 net.cpp:454] inception_5a/3x3 <- inception_5a/3x3_reduce
I1124 20:32:26.467317  3049 net.cpp:411] inception_5a/3x3 -> inception_5a/3x3
I1124 20:32:26.472121  3049 net.cpp:150] Setting up inception_5a/3x3
I1124 20:32:26.472133  3049 net.cpp:157] Top shape: 64 320 7 7 (1003520)
I1124 20:32:26.472136  3049 net.cpp:165] Memory required for data: 3463343456
I1124 20:32:26.472143  3049 layer_factory.hpp:76] Creating layer inception_5a/relu_3x3
I1124 20:32:26.472149  3049 net.cpp:106] Creating Layer inception_5a/relu_3x3
I1124 20:32:26.472153  3049 net.cpp:454] inception_5a/relu_3x3 <- inception_5a/3x3
I1124 20:32:26.472160  3049 net.cpp:397] inception_5a/relu_3x3 -> inception_5a/3x3 (in-place)
I1124 20:32:26.472524  3049 net.cpp:150] Setting up inception_5a/relu_3x3
I1124 20:32:26.472534  3049 net.cpp:157] Top shape: 64 320 7 7 (1003520)
I1124 20:32:26.472537  3049 net.cpp:165] Memory required for data: 3467357536
I1124 20:32:26.472542  3049 layer_factory.hpp:76] Creating layer inception_5a/5x5_reduce
I1124 20:32:26.472549  3049 net.cpp:106] Creating Layer inception_5a/5x5_reduce
I1124 20:32:26.472554  3049 net.cpp:454] inception_5a/5x5_reduce <- pool4/3x3_s2_pool4/3x3_s2_0_split_2
I1124 20:32:26.472561  3049 net.cpp:411] inception_5a/5x5_reduce -> inception_5a/5x5_reduce
I1124 20:32:26.473798  3049 net.cpp:150] Setting up inception_5a/5x5_reduce
I1124 20:32:26.473810  3049 net.cpp:157] Top shape: 64 32 7 7 (100352)
I1124 20:32:26.473814  3049 net.cpp:165] Memory required for data: 3467758944
I1124 20:32:26.473837  3049 layer_factory.hpp:76] Creating layer inception_5a/relu_5x5_reduce
I1124 20:32:26.473844  3049 net.cpp:106] Creating Layer inception_5a/relu_5x5_reduce
I1124 20:32:26.473847  3049 net.cpp:454] inception_5a/relu_5x5_reduce <- inception_5a/5x5_reduce
I1124 20:32:26.473852  3049 net.cpp:397] inception_5a/relu_5x5_reduce -> inception_5a/5x5_reduce (in-place)
I1124 20:32:26.474225  3049 net.cpp:150] Setting up inception_5a/relu_5x5_reduce
I1124 20:32:26.474236  3049 net.cpp:157] Top shape: 64 32 7 7 (100352)
I1124 20:32:26.474239  3049 net.cpp:165] Memory required for data: 3468160352
I1124 20:32:26.474242  3049 layer_factory.hpp:76] Creating layer inception_5a/5x5
I1124 20:32:26.474251  3049 net.cpp:106] Creating Layer inception_5a/5x5
I1124 20:32:26.474256  3049 net.cpp:454] inception_5a/5x5 <- inception_5a/5x5_reduce
I1124 20:32:26.474277  3049 net.cpp:411] inception_5a/5x5 -> inception_5a/5x5
I1124 20:32:26.476187  3049 net.cpp:150] Setting up inception_5a/5x5
I1124 20:32:26.476200  3049 net.cpp:157] Top shape: 64 128 7 7 (401408)
I1124 20:32:26.476203  3049 net.cpp:165] Memory required for data: 3469765984
I1124 20:32:26.476210  3049 layer_factory.hpp:76] Creating layer inception_5a/relu_5x5
I1124 20:32:26.476215  3049 net.cpp:106] Creating Layer inception_5a/relu_5x5
I1124 20:32:26.476220  3049 net.cpp:454] inception_5a/relu_5x5 <- inception_5a/5x5
I1124 20:32:26.476227  3049 net.cpp:397] inception_5a/relu_5x5 -> inception_5a/5x5 (in-place)
I1124 20:32:26.476428  3049 net.cpp:150] Setting up inception_5a/relu_5x5
I1124 20:32:26.476436  3049 net.cpp:157] Top shape: 64 128 7 7 (401408)
I1124 20:32:26.476439  3049 net.cpp:165] Memory required for data: 3471371616
I1124 20:32:26.476443  3049 layer_factory.hpp:76] Creating layer inception_5a/pool
I1124 20:32:26.476450  3049 net.cpp:106] Creating Layer inception_5a/pool
I1124 20:32:26.476455  3049 net.cpp:454] inception_5a/pool <- pool4/3x3_s2_pool4/3x3_s2_0_split_3
I1124 20:32:26.476460  3049 net.cpp:411] inception_5a/pool -> inception_5a/pool
I1124 20:32:26.476991  3049 net.cpp:150] Setting up inception_5a/pool
I1124 20:32:26.477002  3049 net.cpp:157] Top shape: 64 832 7 7 (2609152)
I1124 20:32:26.477005  3049 net.cpp:165] Memory required for data: 3481808224
I1124 20:32:26.477010  3049 layer_factory.hpp:76] Creating layer inception_5a/pool_proj
I1124 20:32:26.477017  3049 net.cpp:106] Creating Layer inception_5a/pool_proj
I1124 20:32:26.477021  3049 net.cpp:454] inception_5a/pool_proj <- inception_5a/pool
I1124 20:32:26.477028  3049 net.cpp:411] inception_5a/pool_proj -> inception_5a/pool_proj
I1124 20:32:26.479396  3049 net.cpp:150] Setting up inception_5a/pool_proj
I1124 20:32:26.479408  3049 net.cpp:157] Top shape: 64 128 7 7 (401408)
I1124 20:32:26.479413  3049 net.cpp:165] Memory required for data: 3483413856
I1124 20:32:26.479418  3049 layer_factory.hpp:76] Creating layer inception_5a/relu_pool_proj
I1124 20:32:26.479424  3049 net.cpp:106] Creating Layer inception_5a/relu_pool_proj
I1124 20:32:26.479429  3049 net.cpp:454] inception_5a/relu_pool_proj <- inception_5a/pool_proj
I1124 20:32:26.479434  3049 net.cpp:397] inception_5a/relu_pool_proj -> inception_5a/pool_proj (in-place)
I1124 20:32:26.479653  3049 net.cpp:150] Setting up inception_5a/relu_pool_proj
I1124 20:32:26.479662  3049 net.cpp:157] Top shape: 64 128 7 7 (401408)
I1124 20:32:26.479665  3049 net.cpp:165] Memory required for data: 3485019488
I1124 20:32:26.479668  3049 layer_factory.hpp:76] Creating layer inception_5a/output
I1124 20:32:26.479676  3049 net.cpp:106] Creating Layer inception_5a/output
I1124 20:32:26.479679  3049 net.cpp:454] inception_5a/output <- inception_5a/1x1
I1124 20:32:26.479684  3049 net.cpp:454] inception_5a/output <- inception_5a/3x3
I1124 20:32:26.479688  3049 net.cpp:454] inception_5a/output <- inception_5a/5x5
I1124 20:32:26.479691  3049 net.cpp:454] inception_5a/output <- inception_5a/pool_proj
I1124 20:32:26.479696  3049 net.cpp:411] inception_5a/output -> inception_5a/output
I1124 20:32:26.479727  3049 net.cpp:150] Setting up inception_5a/output
I1124 20:32:26.479732  3049 net.cpp:157] Top shape: 64 832 7 7 (2609152)
I1124 20:32:26.479734  3049 net.cpp:165] Memory required for data: 3495456096
I1124 20:32:26.479737  3049 layer_factory.hpp:76] Creating layer inception_5a/output_inception_5a/output_0_split
I1124 20:32:26.479743  3049 net.cpp:106] Creating Layer inception_5a/output_inception_5a/output_0_split
I1124 20:32:26.479748  3049 net.cpp:454] inception_5a/output_inception_5a/output_0_split <- inception_5a/output
I1124 20:32:26.479753  3049 net.cpp:411] inception_5a/output_inception_5a/output_0_split -> inception_5a/output_inception_5a/output_0_split_0
I1124 20:32:26.479758  3049 net.cpp:411] inception_5a/output_inception_5a/output_0_split -> inception_5a/output_inception_5a/output_0_split_1
I1124 20:32:26.479764  3049 net.cpp:411] inception_5a/output_inception_5a/output_0_split -> inception_5a/output_inception_5a/output_0_split_2
I1124 20:32:26.479769  3049 net.cpp:411] inception_5a/output_inception_5a/output_0_split -> inception_5a/output_inception_5a/output_0_split_3
I1124 20:32:26.479830  3049 net.cpp:150] Setting up inception_5a/output_inception_5a/output_0_split
I1124 20:32:26.479835  3049 net.cpp:157] Top shape: 64 832 7 7 (2609152)
I1124 20:32:26.479840  3049 net.cpp:157] Top shape: 64 832 7 7 (2609152)
I1124 20:32:26.479843  3049 net.cpp:157] Top shape: 64 832 7 7 (2609152)
I1124 20:32:26.479846  3049 net.cpp:157] Top shape: 64 832 7 7 (2609152)
I1124 20:32:26.479849  3049 net.cpp:165] Memory required for data: 3537202528
I1124 20:32:26.479852  3049 layer_factory.hpp:76] Creating layer inception_5b/1x1
I1124 20:32:26.479858  3049 net.cpp:106] Creating Layer inception_5b/1x1
I1124 20:32:26.479862  3049 net.cpp:454] inception_5b/1x1 <- inception_5a/output_inception_5a/output_0_split_0
I1124 20:32:26.479868  3049 net.cpp:411] inception_5b/1x1 -> inception_5b/1x1
I1124 20:32:26.483598  3049 net.cpp:150] Setting up inception_5b/1x1
I1124 20:32:26.483614  3049 net.cpp:157] Top shape: 64 384 7 7 (1204224)
I1124 20:32:26.483623  3049 net.cpp:165] Memory required for data: 3542019424
I1124 20:32:26.483634  3049 layer_factory.hpp:76] Creating layer inception_5b/relu_1x1
I1124 20:32:26.483644  3049 net.cpp:106] Creating Layer inception_5b/relu_1x1
I1124 20:32:26.483650  3049 net.cpp:454] inception_5b/relu_1x1 <- inception_5b/1x1
I1124 20:32:26.483657  3049 net.cpp:397] inception_5b/relu_1x1 -> inception_5b/1x1 (in-place)
I1124 20:32:26.483928  3049 net.cpp:150] Setting up inception_5b/relu_1x1
I1124 20:32:26.483940  3049 net.cpp:157] Top shape: 64 384 7 7 (1204224)
I1124 20:32:26.483944  3049 net.cpp:165] Memory required for data: 3546836320
I1124 20:32:26.483947  3049 layer_factory.hpp:76] Creating layer inception_5b/3x3_reduce
I1124 20:32:26.483957  3049 net.cpp:106] Creating Layer inception_5b/3x3_reduce
I1124 20:32:26.483961  3049 net.cpp:454] inception_5b/3x3_reduce <- inception_5a/output_inception_5a/output_0_split_1
I1124 20:32:26.483968  3049 net.cpp:411] inception_5b/3x3_reduce -> inception_5b/3x3_reduce
I1124 20:32:26.486646  3049 net.cpp:150] Setting up inception_5b/3x3_reduce
I1124 20:32:26.486659  3049 net.cpp:157] Top shape: 64 192 7 7 (602112)
I1124 20:32:26.486661  3049 net.cpp:165] Memory required for data: 3549244768
I1124 20:32:26.486668  3049 layer_factory.hpp:76] Creating layer inception_5b/relu_3x3_reduce
I1124 20:32:26.486675  3049 net.cpp:106] Creating Layer inception_5b/relu_3x3_reduce
I1124 20:32:26.486678  3049 net.cpp:454] inception_5b/relu_3x3_reduce <- inception_5b/3x3_reduce
I1124 20:32:26.486685  3049 net.cpp:397] inception_5b/relu_3x3_reduce -> inception_5b/3x3_reduce (in-place)
I1124 20:32:26.487062  3049 net.cpp:150] Setting up inception_5b/relu_3x3_reduce
I1124 20:32:26.487073  3049 net.cpp:157] Top shape: 64 192 7 7 (602112)
I1124 20:32:26.487076  3049 net.cpp:165] Memory required for data: 3551653216
I1124 20:32:26.487082  3049 layer_factory.hpp:76] Creating layer inception_5b/3x3
I1124 20:32:26.487092  3049 net.cpp:106] Creating Layer inception_5b/3x3
I1124 20:32:26.487097  3049 net.cpp:454] inception_5b/3x3 <- inception_5b/3x3_reduce
I1124 20:32:26.487104  3049 net.cpp:411] inception_5b/3x3 -> inception_5b/3x3
I1124 20:32:26.493376  3049 net.cpp:150] Setting up inception_5b/3x3
I1124 20:32:26.493388  3049 net.cpp:157] Top shape: 64 384 7 7 (1204224)
I1124 20:32:26.493392  3049 net.cpp:165] Memory required for data: 3556470112
I1124 20:32:26.493399  3049 layer_factory.hpp:76] Creating layer inception_5b/relu_3x3
I1124 20:32:26.493407  3049 net.cpp:106] Creating Layer inception_5b/relu_3x3
I1124 20:32:26.493412  3049 net.cpp:454] inception_5b/relu_3x3 <- inception_5b/3x3
I1124 20:32:26.493417  3049 net.cpp:397] inception_5b/relu_3x3 -> inception_5b/3x3 (in-place)
I1124 20:32:26.493621  3049 net.cpp:150] Setting up inception_5b/relu_3x3
I1124 20:32:26.493630  3049 net.cpp:157] Top shape: 64 384 7 7 (1204224)
I1124 20:32:26.493633  3049 net.cpp:165] Memory required for data: 3561287008
I1124 20:32:26.493636  3049 layer_factory.hpp:76] Creating layer inception_5b/5x5_reduce
I1124 20:32:26.493645  3049 net.cpp:106] Creating Layer inception_5b/5x5_reduce
I1124 20:32:26.493649  3049 net.cpp:454] inception_5b/5x5_reduce <- inception_5a/output_inception_5a/output_0_split_2
I1124 20:32:26.493657  3049 net.cpp:411] inception_5b/5x5_reduce -> inception_5b/5x5_reduce
I1124 20:32:26.495143  3049 net.cpp:150] Setting up inception_5b/5x5_reduce
I1124 20:32:26.495154  3049 net.cpp:157] Top shape: 64 48 7 7 (150528)
I1124 20:32:26.495158  3049 net.cpp:165] Memory required for data: 3561889120
I1124 20:32:26.495164  3049 layer_factory.hpp:76] Creating layer inception_5b/relu_5x5_reduce
I1124 20:32:26.495170  3049 net.cpp:106] Creating Layer inception_5b/relu_5x5_reduce
I1124 20:32:26.495175  3049 net.cpp:454] inception_5b/relu_5x5_reduce <- inception_5b/5x5_reduce
I1124 20:32:26.495182  3049 net.cpp:397] inception_5b/relu_5x5_reduce -> inception_5b/5x5_reduce (in-place)
I1124 20:32:26.495396  3049 net.cpp:150] Setting up inception_5b/relu_5x5_reduce
I1124 20:32:26.495405  3049 net.cpp:157] Top shape: 64 48 7 7 (150528)
I1124 20:32:26.495409  3049 net.cpp:165] Memory required for data: 3562491232
I1124 20:32:26.495411  3049 layer_factory.hpp:76] Creating layer inception_5b/5x5
I1124 20:32:26.495420  3049 net.cpp:106] Creating Layer inception_5b/5x5
I1124 20:32:26.495424  3049 net.cpp:454] inception_5b/5x5 <- inception_5b/5x5_reduce
I1124 20:32:26.495432  3049 net.cpp:411] inception_5b/5x5 -> inception_5b/5x5
I1124 20:32:26.497661  3049 net.cpp:150] Setting up inception_5b/5x5
I1124 20:32:26.497673  3049 net.cpp:157] Top shape: 64 128 7 7 (401408)
I1124 20:32:26.497676  3049 net.cpp:165] Memory required for data: 3564096864
I1124 20:32:26.497683  3049 layer_factory.hpp:76] Creating layer inception_5b/relu_5x5
I1124 20:32:26.497689  3049 net.cpp:106] Creating Layer inception_5b/relu_5x5
I1124 20:32:26.497694  3049 net.cpp:454] inception_5b/relu_5x5 <- inception_5b/5x5
I1124 20:32:26.497699  3049 net.cpp:397] inception_5b/relu_5x5 -> inception_5b/5x5 (in-place)
I1124 20:32:26.498061  3049 net.cpp:150] Setting up inception_5b/relu_5x5
I1124 20:32:26.498072  3049 net.cpp:157] Top shape: 64 128 7 7 (401408)
I1124 20:32:26.498075  3049 net.cpp:165] Memory required for data: 3565702496
I1124 20:32:26.498080  3049 layer_factory.hpp:76] Creating layer inception_5b/pool
I1124 20:32:26.498085  3049 net.cpp:106] Creating Layer inception_5b/pool
I1124 20:32:26.498090  3049 net.cpp:454] inception_5b/pool <- inception_5a/output_inception_5a/output_0_split_3
I1124 20:32:26.498096  3049 net.cpp:411] inception_5b/pool -> inception_5b/pool
I1124 20:32:26.498337  3049 net.cpp:150] Setting up inception_5b/pool
I1124 20:32:26.498344  3049 net.cpp:157] Top shape: 64 832 7 7 (2609152)
I1124 20:32:26.498347  3049 net.cpp:165] Memory required for data: 3576139104
I1124 20:32:26.498350  3049 layer_factory.hpp:76] Creating layer inception_5b/pool_proj
I1124 20:32:26.498360  3049 net.cpp:106] Creating Layer inception_5b/pool_proj
I1124 20:32:26.498365  3049 net.cpp:454] inception_5b/pool_proj <- inception_5b/pool
I1124 20:32:26.498371  3049 net.cpp:411] inception_5b/pool_proj -> inception_5b/pool_proj
I1124 20:32:26.500835  3049 net.cpp:150] Setting up inception_5b/pool_proj
I1124 20:32:26.500850  3049 net.cpp:157] Top shape: 64 128 7 7 (401408)
I1124 20:32:26.500854  3049 net.cpp:165] Memory required for data: 3577744736
I1124 20:32:26.500860  3049 layer_factory.hpp:76] Creating layer inception_5b/relu_pool_proj
I1124 20:32:26.500866  3049 net.cpp:106] Creating Layer inception_5b/relu_pool_proj
I1124 20:32:26.500870  3049 net.cpp:454] inception_5b/relu_pool_proj <- inception_5b/pool_proj
I1124 20:32:26.500875  3049 net.cpp:397] inception_5b/relu_pool_proj -> inception_5b/pool_proj (in-place)
I1124 20:32:26.501247  3049 net.cpp:150] Setting up inception_5b/relu_pool_proj
I1124 20:32:26.501257  3049 net.cpp:157] Top shape: 64 128 7 7 (401408)
I1124 20:32:26.501261  3049 net.cpp:165] Memory required for data: 3579350368
I1124 20:32:26.501265  3049 layer_factory.hpp:76] Creating layer inception_5b/output
I1124 20:32:26.501271  3049 net.cpp:106] Creating Layer inception_5b/output
I1124 20:32:26.501274  3049 net.cpp:454] inception_5b/output <- inception_5b/1x1
I1124 20:32:26.501279  3049 net.cpp:454] inception_5b/output <- inception_5b/3x3
I1124 20:32:26.501283  3049 net.cpp:454] inception_5b/output <- inception_5b/5x5
I1124 20:32:26.501287  3049 net.cpp:454] inception_5b/output <- inception_5b/pool_proj
I1124 20:32:26.501293  3049 net.cpp:411] inception_5b/output -> inception_5b/output
I1124 20:32:26.501325  3049 net.cpp:150] Setting up inception_5b/output
I1124 20:32:26.501337  3049 net.cpp:157] Top shape: 64 1024 7 7 (3211264)
I1124 20:32:26.501339  3049 net.cpp:165] Memory required for data: 3592195424
I1124 20:32:26.501343  3049 layer_factory.hpp:76] Creating layer pool5/7x7_s1
I1124 20:32:26.501348  3049 net.cpp:106] Creating Layer pool5/7x7_s1
I1124 20:32:26.501354  3049 net.cpp:454] pool5/7x7_s1 <- inception_5b/output
I1124 20:32:26.501360  3049 net.cpp:411] pool5/7x7_s1 -> pool5/7x7_s1
I1124 20:32:26.501591  3049 net.cpp:150] Setting up pool5/7x7_s1
I1124 20:32:26.501600  3049 net.cpp:157] Top shape: 64 1024 1 1 (65536)
I1124 20:32:26.501602  3049 net.cpp:165] Memory required for data: 3592457568
I1124 20:32:26.501605  3049 layer_factory.hpp:76] Creating layer pool5/drop_7x7_s1
I1124 20:32:26.501611  3049 net.cpp:106] Creating Layer pool5/drop_7x7_s1
I1124 20:32:26.501616  3049 net.cpp:454] pool5/drop_7x7_s1 <- pool5/7x7_s1
I1124 20:32:26.501622  3049 net.cpp:397] pool5/drop_7x7_s1 -> pool5/7x7_s1 (in-place)
I1124 20:32:26.501648  3049 net.cpp:150] Setting up pool5/drop_7x7_s1
I1124 20:32:26.501653  3049 net.cpp:157] Top shape: 64 1024 1 1 (65536)
I1124 20:32:26.501657  3049 net.cpp:165] Memory required for data: 3592719712
I1124 20:32:26.501659  3049 layer_factory.hpp:76] Creating layer pool5/7x7_s1_pool5/drop_7x7_s1_0_split
I1124 20:32:26.501665  3049 net.cpp:106] Creating Layer pool5/7x7_s1_pool5/drop_7x7_s1_0_split
I1124 20:32:26.501668  3049 net.cpp:454] pool5/7x7_s1_pool5/drop_7x7_s1_0_split <- pool5/7x7_s1
I1124 20:32:26.501672  3049 net.cpp:411] pool5/7x7_s1_pool5/drop_7x7_s1_0_split -> pool5/7x7_s1_pool5/drop_7x7_s1_0_split_0
I1124 20:32:26.501680  3049 net.cpp:411] pool5/7x7_s1_pool5/drop_7x7_s1_0_split -> pool5/7x7_s1_pool5/drop_7x7_s1_0_split_1
I1124 20:32:26.501687  3049 net.cpp:411] pool5/7x7_s1_pool5/drop_7x7_s1_0_split -> pool5/7x7_s1_pool5/drop_7x7_s1_0_split_2
I1124 20:32:26.501693  3049 net.cpp:411] pool5/7x7_s1_pool5/drop_7x7_s1_0_split -> pool5/7x7_s1_pool5/drop_7x7_s1_0_split_3
I1124 20:32:26.501698  3049 net.cpp:411] pool5/7x7_s1_pool5/drop_7x7_s1_0_split -> pool5/7x7_s1_pool5/drop_7x7_s1_0_split_4
I1124 20:32:26.501703  3049 net.cpp:411] pool5/7x7_s1_pool5/drop_7x7_s1_0_split -> pool5/7x7_s1_pool5/drop_7x7_s1_0_split_5
I1124 20:32:26.501786  3049 net.cpp:150] Setting up pool5/7x7_s1_pool5/drop_7x7_s1_0_split
I1124 20:32:26.501791  3049 net.cpp:157] Top shape: 64 1024 1 1 (65536)
I1124 20:32:26.501795  3049 net.cpp:157] Top shape: 64 1024 1 1 (65536)
I1124 20:32:26.501798  3049 net.cpp:157] Top shape: 64 1024 1 1 (65536)
I1124 20:32:26.501801  3049 net.cpp:157] Top shape: 64 1024 1 1 (65536)
I1124 20:32:26.501804  3049 net.cpp:157] Top shape: 64 1024 1 1 (65536)
I1124 20:32:26.501808  3049 net.cpp:157] Top shape: 64 1024 1 1 (65536)
I1124 20:32:26.501811  3049 net.cpp:165] Memory required for data: 3594292576
I1124 20:32:26.501813  3049 layer_factory.hpp:76] Creating layer loss3/classifier-00.category
I1124 20:32:26.501822  3049 net.cpp:106] Creating Layer loss3/classifier-00.category
I1124 20:32:26.501827  3049 net.cpp:454] loss3/classifier-00.category <- pool5/7x7_s1_pool5/drop_7x7_s1_0_split_0
I1124 20:32:26.501832  3049 net.cpp:411] loss3/classifier-00.category -> loss3/classifier-00.category
I1124 20:32:26.502063  3049 net.cpp:150] Setting up loss3/classifier-00.category
I1124 20:32:26.502068  3049 net.cpp:157] Top shape: 64 16 (1024)
I1124 20:32:26.502071  3049 net.cpp:165] Memory required for data: 3594296672
I1124 20:32:26.502077  3049 layer_factory.hpp:76] Creating layer loss3/classifier-00.category_loss3/classifier-00.category_0_split
I1124 20:32:26.502082  3049 net.cpp:106] Creating Layer loss3/classifier-00.category_loss3/classifier-00.category_0_split
I1124 20:32:26.516059  3049 net.cpp:454] loss3/classifier-00.category_loss3/classifier-00.category_0_split <- loss3/classifier-00.category
I1124 20:32:26.516080  3049 net.cpp:411] loss3/classifier-00.category_loss3/classifier-00.category_0_split -> loss3/classifier-00.category_loss3/classifier-00.category_0_split_0
I1124 20:32:26.516094  3049 net.cpp:411] loss3/classifier-00.category_loss3/classifier-00.category_0_split -> loss3/classifier-00.category_loss3/classifier-00.category_0_split_1
I1124 20:32:26.516194  3049 net.cpp:150] Setting up loss3/classifier-00.category_loss3/classifier-00.category_0_split
I1124 20:32:26.516206  3049 net.cpp:157] Top shape: 64 16 (1024)
I1124 20:32:26.516212  3049 net.cpp:157] Top shape: 64 16 (1024)
I1124 20:32:26.516218  3049 net.cpp:165] Memory required for data: 3594304864
I1124 20:32:26.516223  3049 layer_factory.hpp:76] Creating layer loss3/loss_00.category
I1124 20:32:26.516244  3049 net.cpp:106] Creating Layer loss3/loss_00.category
I1124 20:32:26.516253  3049 net.cpp:454] loss3/loss_00.category <- loss3/classifier-00.category_loss3/classifier-00.category_0_split_0
I1124 20:32:26.516264  3049 net.cpp:454] loss3/loss_00.category <- 00.category_slice_attribute_0_split_4
…
