…
I1126 12:32:37.491637 19071 net.cpp:322] The NetState phase (0) differed from the phase (1) specified by a rule in layer loss3/top-1
I1126 12:32:37.492558 19071 net.cpp:49] Initializing net from parameters: 
name: "GoogleNet-finetune-for-cigit"
state {
  phase: TRAIN
}
layer {
  name: "data"
  type: "ImageData"
  top: "data"
  top: "label"
  include {
    phase: TRAIN
  }
  transform_param {
    mirror: true
    crop_size: 224
    mean_value: 104
    mean_value: 117
    mean_value: 123
  }
  image_data_param {
    source: "pad_train.txt"
    batch_size: 64
    shuffle: true
    new_height: 256
    new_width: 256
  }
}
layer {
  name: "conv1/7x7_s2"
  type: "Convolution"
  bottom: "data"
  top: "conv1/7x7_s2"
  param {
    lr_mult: 1
    decay_mult: 1
  }
  param {
    lr_mult: 2
    decay_mult: 0
  }
  convolution_param {
    num_output: 64
    pad: 3
    kernel_size: 7
    stride: 2
    weight_filler {
      type: "xavier"
    }
    bias_filler {
      type: "constant"
      value: 0.2
    }
  }
}
layer {
  name: "conv1/relu_7x7"
  type: "ReLU"
  bottom: "conv1/7x7_s2"
  top: "conv1/7x7_s2"
}
layer {
  name: "pool1/3x3_s2"
  type: "Pooling"
  bottom: "conv1/7x7_s2"
  top: "pool1/3x3_s2"
  pooling_param {
    pool: MAX
    kernel_size: 3
    stride: 2
  }
}
layer {
  name: "pool1/norm1"
  type: "LRN"
  bottom: "pool1/3x3_s2"
  top: "pool1/norm1"
  lrn_param {
    local_size: 5
    alpha: 0.0001
    beta: 0.75
  }
}
layer {
  name: "conv2/3x3_reduce"
  type: "Convolution"
  bottom: "pool1/norm1"
  top: "conv2/3x3_reduce"
  param {
    lr_mult: 1
    decay_mult: 1
  }
  param {
    lr_mult: 2
    decay_mult: 0
  }
  convolution_param {
    num_output: 64
    kernel_size: 1
    weight_filler {
      type: "xavier"
    }
    bias_filler {
      type: "constant"
      value: 0.2
    }
  }
}
layer {
  name: "conv2/relu_3x3_reduce"
  type: "ReLU"
  bottom: "conv2/3x3_reduce"
  top: "conv2/3x3_reduce"
}
layer {
  name: "conv2/3x3"
  type: "Convolution"
  bottom: "conv2/3x3_reduce"
  top: "conv2/3x3"
  param {
    lr_mult: 1
    decay_mult: 1
  }
  param {
    lr_mult: 2
    decay_mult: 0
  }
  convolution_param {
    num_output: 192
    pad: 1
    kernel_size: 3
    weight_filler {
      type: "xavier"
    }
    bias_filler {
      type: "constant"
      value: 0.2
    }
  }
}
layer {
  name: "conv2/relu_3x3"
  type: "ReLU"
  bottom: "conv2/3x3"
  top: "conv2/3x3"
}
layer {
  name: "conv2/norm2"
  type: "LRN"
  bottom: "conv2/3x3"
  top: "conv2/norm2"
  lrn_param {
    local_size: 5
    alpha: 0.0001
    beta: 0.75
  }
}
layer {
  name: "pool2/3x3_s2"
  type: "Pooling"
  bottom: "conv2/norm2"
  top: "pool2/3x3_s2"
  pooling_param {
    pool: MAX
    kernel_size: 3
    stride: 2
  }
}
layer {
  name: "inception_3a/1x1"
  type: "Convolution"
  bottom: "pool2/3x3_s2"
  top: "inception_3a/1x1"
  param {
    lr_mult: 1
    decay_mult: 1
  }
  param {
    lr_mult: 2
    decay_mult: 0
  }
  convolution_param {
    num_output: 64
    kernel_size: 1
    weight_filler {
      type: "xavier"
    }
    bias_filler {
      type: "constant"
      value: 0.2
    }
  }
}
layer {
  name: "inception_3a/relu_1x1"
  type: "ReLU"
  bottom: "inception_3a/1x1"
  top: "inception_3a/1x1"
}
layer {
  name: "inception_3a/3x3_reduce"
  type: "Convolution"
  bottom: "pool2/3x3_s2"
  top: "inception_3a/3x3_reduce"
  param {
    lr_mult: 1
    decay_mult: 1
  }
  param {
    lr_mult: 2
    decay_mult: 0
  }
  convolution_param {
    num_output: 96
    kernel_size: 1
    weight_filler {
      type: "xavier"
    }
    bias_filler {
      type: "constant"
      value: 0.2
    }
  }
}
layer {
  name: "inception_3a/relu_3x3_reduce"
  type: "ReLU"
  bottom: "inception_3a/3x3_reduce"
  top: "inception_3a/3x3_reduce"
}
layer {
  name: "inception_3a/3x3"
  type: "Convolution"
  bottom: "inception_3a/3x3_reduce"
  top: "inception_3a/3x3"
  param {
    lr_mult: 1
    decay_mult: 1
  }
  param {
    lr_mult: 2
    decay_mult: 0
  }
  convolution_param {
    num_output: 128
    pad: 1
    kernel_size: 3
    weight_filler {
      type: "xavier"
    }
    bias_filler {
      type: "constant"
      value: 0.2
    }
  }
}
layer {
  name: "inception_3a/relu_3x3"
  type: "ReLU"
  bottom: "inception_3a/3x3"
  top: "inception_3a/3x3"
}
layer {
  name: "inception_3a/5x5_reduce"
  type: "Convolution"
  bottom: "pool2/3x3_s2"
  top: "inception_3a/5x5_reduce"
  param {
    lr_mult: 1
    decay_mult: 1
  }
  param {
    lr_mult: 2
    decay_mult: 0
  }
  convolution_param {
    num_output: 16
    kernel_size: 1
    weight_filler {
      type: "xavier"
    }
    bias_filler {
      type: "constant"
      value: 0.2
    }
  }
}
layer {
  name: "inception_3a/relu_5x5_reduce"
  type: "ReLU"
  bottom: "inception_3a/5x5_reduce"
  top: "inception_3a/5x5_reduce"
}
layer {
  name: "inception_3a/5x5"
  type: "Convolution"
  bottom: "inception_3a/5x5_reduce"
  top: "inception_3a/5x5"
  param {
    lr_mult: 1
    decay_mult: 1
  }
  param {
    lr_mult: 2
    decay_mult: 0
  }
  convolution_param {
    num_output: 32
    pad: 2
    kernel_size: 5
    weight_filler {
      type: "xavier"
    }
    bias_filler {
      type: "constant"
      value: 0.2
    }
  }
}
layer {
  name: "inception_3a/relu_5x5"
  type: "ReLU"
  bottom: "inception_3a/5x5"
  top: "inception_3a/5x5"
}
layer {
  name: "inception_3a/pool"
  type: "Pooling"
  bottom: "pool2/3x3_s2"
  top: "inception_3a/pool"
  pooling_param {
    pool: MAX
    kernel_size: 3
    stride: 1
    pad: 1
  }
}
layer {
  name: "inception_3a/pool_proj"
  type: "Convolution"
  bottom: "inception_3a/pool"
  top: "inception_3a/pool_proj"
  param {
    lr_mult: 1
    decay_mult: 1
  }
  param {
    lr_mult: 2
    decay_mult: 0
  }
  convolution_param {
    num_output: 32
    kernel_size: 1
    weight_filler {
      type: "xavier"
    }
    bias_filler {
      type: "constant"
      value: 0.2
    }
  }
}
layer {
  name: "inception_3a/relu_pool_proj"
  type: "ReLU"
  bottom: "inception_3a/pool_proj"
  top: "inception_3a/pool_proj"
}
layer {
  name: "inception_3a/output"
  type: "Concat"
  bottom: "inception_3a/1x1"
  bottom: "inception_3a/3x3"
  bottom: "inception_3a/5x5"
  bottom: "inception_3a/pool_proj"
  top: "inception_3a/output"
}
layer {
  name: "inception_3b/1x1"
  type: "Convolution"
  bottom: "inception_3a/output"
  top: "inception_3b/1x1"
  param {
    lr_mult: 1
    decay_mult: 1
  }
  param {
    lr_mult: 2
    decay_mult: 0
  }
  convolution_param {
    num_output: 128
    kernel_size: 1
    weight_filler {
      type: "xavier"
    }
    bias_filler {
      type: "constant"
      value: 0.2
    }
  }
}
layer {
  name: "inception_3b/relu_1x1"
  type: "ReLU"
  bottom: "inception_3b/1x1"
  top: "inception_3b/1x1"
}
layer {
  name: "inception_3b/3x3_reduce"
  type: "Convolution"
  bottom: "inception_3a/output"
  top: "inception_3b/3x3_reduce"
  param {
    lr_mult: 1
    decay_mult: 1
  }
  param {
    lr_mult: 2
    decay_mult: 0
  }
  convolution_param {
    num_output: 128
    kernel_size: 1
    weight_filler {
      type: "xavier"
    }
    bias_filler {
      type: "constant"
      value: 0.2
    }
  }
}
layer {
  name: "inception_3b/relu_3x3_reduce"
  type: "ReLU"
  bottom: "inception_3b/3x3_reduce"
  top: "inception_3b/3x3_reduce"
}
layer {
  name: "inception_3b/3x3"
  type: "Convolution"
  bottom: "inception_3b/3x3_reduce"
  top: "inception_3b/3x3"
  param {
    lr_mult: 1
    decay_mult: 1
  }
  param {
    lr_mult: 2
    decay_mult: 0
  }
  convolution_param {
    num_output: 192
    pad: 1
    kernel_size: 3
    weight_filler {
      type: "xavier"
    }
    bias_filler {
      type: "constant"
      value: 0.2
    }
  }
}
layer {
  name: "inception_3b/relu_3x3"
  type: "ReLU"
  bottom: "inception_3b/3x3"
  top: "inception_3b/3x3"
}
layer {
  name: "inception_3b/5x5_reduce"
  type: "Convolution"
  bottom: "inception_3a/output"
  top: "inception_3b/5x5_reduce"
  param {
    lr_mult: 1
    decay_mult: 1
  }
  param {
    lr_mult: 2
    decay_mult: 0
  }
  convolution_param {
    num_output: 32
    kernel_size: 1
    weight_filler {
      type: "xavier"
    }
    bias_filler {
      type: "constant"
      value: 0.2
    }
  }
}
layer {
  name: "inception_3b/relu_5x5_reduce"
  type: "ReLU"
  bottom: "inception_3b/5x5_reduce"
  top: "inception_3b/5x5_reduce"
}
layer {
  name: "inception_3b/5x5"
  type: "Convolution"
  bottom: "inception_3b/5x5_reduce"
  top: "inception_3b/5x5"
  param {
    lr_mult: 1
    decay_mult: 1
  }
  param {
    lr_mult: 2
    decay_mult: 0
  }
  convolution_param {
    num_output: 96
    pad: 2
    kernel_size: 5
    weight_filler {
      type: "xavier"
    }
    bias_filler {
      type: "constant"
      value: 0.2
    }
  }
}
layer {
  name: "inception_3b/relu_5x5"
  type: "ReLU"
  bottom: "inception_3b/5x5"
  top: "inception_3b/5x5"
}
layer {
  name: "inception_3b/pool"
  type: "Pooling"
  bottom: "inception_3a/output"
  top: "inception_3b/pool"
  pooling_param {
    pool: MAX
    kernel_size: 3
    stride: 1
    pad: 1
  }
}
layer {
  name: "inception_3b/pool_proj"
  type: "Convolution"
  bottom: "inception_3b/pool"
  top: "inception_3b/pool_proj"
  param {
    lr_mult: 1
    decay_mult: 1
  }
  param {
    lr_mult: 2
    decay_mult: 0
  }
  convolution_param {
    num_output: 64
    kernel_size: 1
    weight_filler {
      type: "xavier"
    }
    bias_filler {
      type: "constant"
      value: 0.2
    }
  }
}
layer {
  name: "inception_3b/relu_pool_proj"
  type: "ReLU"
  bottom: "inception_3b/pool_proj"
  top: "inception_3b/pool_proj"
}
layer {
  name: "inception_3b/output"
  type: "Concat"
  bottom: "inception_3b/1x1"
  bottom: "inception_3b/3x3"
  bottom: "inception_3b/5x5"
  bottom: "inception_3b/pool_proj"
  top: "inception_3b/output"
}
layer {
  name: "pool3/3x3_s2"
  type: "Pooling"
  bottom: "inception_3b/output"
  top: "pool3/3x3_s2"
  pooling_param {
    pool: MAX
    kernel_size: 3
    stride: 2
  }
}
layer {
  name: "inception_4a/1x1"
  type: "Convolution"
  bottom: "pool3/3x3_s2"
  top: "inception_4a/1x1"
  param {
    lr_mult: 1
    decay_mult: 1
  }
  param {
    lr_mult: 2
    decay_mult: 0
  }
  convolution_param {
    num_output: 192
    kernel_size: 1
    weight_filler {
      type: "xavier"
    }
    bias_filler {
      type: "constant"
      value: 0.2
    }
  }
}
layer {
  name: "inception_4a/relu_1x1"
  type: "ReLU"
  bottom: "inception_4a/1x1"
  top: "inception_4a/1x1"
}
layer {
  name: "inception_4a/3x3_reduce"
  type: "Convolution"
  bottom: "pool3/3x3_s2"
  top: "inception_4a/3x3_reduce"
  param {
    lr_mult: 1
    decay_mult: 1
  }
  param {
    lr_mult: 2
    decay_mult: 0
  }
  convolution_param {
    num_output: 96
    kernel_size: 1
    weight_filler {
      type: "xavier"
    }
    bias_filler {
      type: "constant"
      value: 0.2
    }
  }
}
layer {
  name: "inception_4a/relu_3x3_reduce"
  type: "ReLU"
  bottom: "inception_4a/3x3_reduce"
  top: "inception_4a/3x3_reduce"
}
layer {
  name: "inception_4a/3x3"
  type: "Convolution"
  bottom: "inception_4a/3x3_reduce"
  top: "inception_4a/3x3"
  param {
    lr_mult: 1
    decay_mult: 1
  }
  param {
    lr_mult: 2
    decay_mult: 0
  }
  convolution_param {
    num_output: 208
    pad: 1
    kernel_size: 3
    weight_filler {
      type: "xavier"
    }
    bias_filler {
      type: "constant"
      value: 0.2
    }
  }
}
layer {
  name: "inception_4a/relu_3x3"
  type: "ReLU"
  bottom: "inception_4a/3x3"
  top: "inception_4a/3x3"
}
layer {
  name: "inception_4a/5x5_reduce"
  type: "Convolution"
  bottom: "pool3/3x3_s2"
  top: "inception_4a/5x5_reduce"
  param {
    lr_mult: 1
    decay_mult: 1
  }
  param {
    lr_mult: 2
    decay_mult: 0
  }
  convolution_param {
    num_output: 16
    kernel_size: 1
    weight_filler {
      type: "xavier"
    }
    bias_filler {
      type: "constant"
      value: 0.2
    }
  }
}
layer {
  name: "inception_4a/relu_5x5_reduce"
  type: "ReLU"
  bottom: "inception_4a/5x5_reduce"
  top: "inception_4a/5x5_reduce"
}
layer {
  name: "inception_4a/5x5"
  type: "Convolution"
  bottom: "inception_4a/5x5_reduce"
  top: "inception_4a/5x5"
  param {
    lr_mult: 1
    decay_mult: 1
  }
  param {
    lr_mult: 2
    decay_mult: 0
  }
  convolution_param {
    num_output: 48
    pad: 2
    kernel_size: 5
    weight_filler {
      type: "xavier"
    }
    bias_filler {
      type: "constant"
      value: 0.2
    }
  }
}
layer {
  name: "inception_4a/relu_5x5"
  type: "ReLU"
  bottom: "inception_4a/5x5"
  top: "inception_4a/5x5"
}
layer {
  name: "inception_4a/pool"
  type: "Pooling"
  bottom: "pool3/3x3_s2"
  top: "inception_4a/pool"
  pooling_param {
    pool: MAX
    kernel_size: 3
    stride: 1
    pad: 1
  }
}
layer {
  name: "inception_4a/pool_proj"
  type: "Convolution"
  bottom: "inception_4a/pool"
  top: "inception_4a/pool_proj"
  param {
    lr_mult: 1
    decay_mult: 1
  }
  param {
    lr_mult: 2
    decay_mult: 0
  }
  convolution_param {
    num_output: 64
    kernel_size: 1
    weight_filler {
      type: "xavier"
    }
    bias_filler {
      type: "constant"
      value: 0.2
    }
  }
}
layer {
  name: "inception_4a/relu_pool_proj"
  type: "ReLU"
  bottom: "inception_4a/pool_proj"
  top: "inception_4a/pool_proj"
}
layer {
  name: "inception_4a/output"
  type: "Concat"
  bottom: "inception_4a/1x1"
  bottom: "inception_4a/3x3"
  bottom: "inception_4a/5x5"
  bottom: "inception_4a/pool_proj"
  top: "inception_4a/output"
}
layer {
  name: "loss1/ave_pool"
  type: "Pooling"
  bottom: "inception_4a/output"
  top: "loss1/ave_pool"
  pooling_param {
    pool: AVE
    kernel_size: 5
    stride: 3
  }
}
layer {
  name: "loss1/conv"
  type: "Convolution"
  bottom: "loss1/ave_pool"
  top: "loss1/conv"
  param {
    lr_mult: 1
    decay_mult: 1
  }
  param {
    lr_mult: 2
    decay_mult: 0
  }
  convolution_param {
    num_output: 128
    kernel_size: 1
    weight_filler {
      type: "xavier"
    }
    bias_filler {
      type: "constant"
      value: 0.2
    }
  }
}
layer {
  name: "loss1/relu_conv"
  type: "ReLU"
  bottom: "loss1/conv"
  top: "loss1/conv"
}
layer {
  name: "loss1/fc"
  type: "InnerProduct"
  bottom: "loss1/conv"
  top: "loss1/fc"
  param {
    lr_mult: 1
    decay_mult: 1
  }
  param {
    lr_mult: 2
    decay_mult: 0
  }
  inner_product_param {
    num_output: 1024
    weight_filler {
      type: "xavier"
    }
    bias_filler {
      type: "constant"
      value: 0.2
    }
  }
}
layer {
  name: "loss1/relu_fc"
  type: "ReLU"
  bottom: "loss1/fc"
  top: "loss1/fc"
}
layer {
  name: "loss1/drop_fc"
  type: "Dropout"
  bottom: "loss1/fc"
  top: "loss1/fc"
  dropout_param {
    dropout_ratio: 0.7
  }
}
layer {
  name: "loss1/classifier-attribute"
  type: "InnerProduct"
  bottom: "loss1/fc"
  top: "loss1/classifier-attribute"
  param {
    lr_mult: 10
    decay_mult: 1
  }
  param {
    lr_mult: 20
    decay_mult: 0
  }
  inner_product_param {
    num_output: 9999
    weight_filler {
      type: "xavier"
    }
    bias_filler {
      type: "constant"
      value: 0
    }
  }
}
layer {
  name: "loss1/loss"
  type: "SoftmaxWithLoss"
  bottom: "loss1/classifier-attribute"
  bottom: "label"
  top: "loss1/loss1"
  loss_weight: 0.3
}
layer {
  name: "inception_4b/1x1"
  type: "Convolution"
  bottom: "inception_4a/output"
  top: "inception_4b/1x1"
  param {
    lr_mult: 1
    decay_mult: 1
  }
  param {
    lr_mult: 2
    decay_mult: 0
  }
  convolution_param {
    num_output: 160
    kernel_size: 1
    weight_filler {
      type: "xavier"
    }
    bias_filler {
      type: "constant"
      value: 0.2
    }
  }
}
layer {
  name: "inception_4b/relu_1x1"
  type: "ReLU"
  bottom: "inception_4b/1x1"
  top: "inception_4b/1x1"
}
layer {
  name: "inception_4b/3x3_reduce"
  type: "Convolution"
  bottom: "inception_4a/output"
  top: "inception_4b/3x3_reduce"
  param {
    lr_mult: 1
    decay_mult: 1
  }
  param {
    lr_mult: 2
    decay_mult: 0
  }
  convolution_param {
    num_output: 112
    kernel_size: 1
    weight_filler {
      type: "xavier"
    }
    bias_filler {
      type: "constant"
      value: 0.2
    }
  }
}
layer {
  name: "inception_4b/relu_3x3_reduce"
  type: "ReLU"
  bottom: "inception_4b/3x3_reduce"
  top: "inception_4b/3x3_reduce"
}
layer {
  name: "inception_4b/3x3"
  type: "Convolution"
  bottom: "inception_4b/3x3_reduce"
  top: "inception_4b/3x3"
  param {
    lr_mult: 1
    decay_mult: 1
  }
  param {
    lr_mult: 2
    decay_mult: 0
  }
  convolution_param {
    num_output: 224
    pad: 1
    kernel_size: 3
    weight_filler {
      type: "xavier"
    }
    bias_filler {
      type: "constant"
      value: 0.2
    }
  }
}
layer {
  name: "inception_4b/relu_3x3"
  type: "ReLU"
  bottom: "inception_4b/3x3"
  top: "inception_4b/3x3"
}
layer {
  name: "inception_4b/5x5_reduce"
  type: "Convolution"
  bottom: "inception_4a/output"
  top: "inception_4b/5x5_reduce"
  param {
    lr_mult: 1
    decay_mult: 1
  }
  param {
    lr_mult: 2
    decay_mult: 0
  }
  convolution_param {
    num_output: 24
    kernel_size: 1
    weight_filler {
      type: "xavier"
    }
    bias_filler {
      type: "constant"
      value: 0.2
    }
  }
}
layer {
  name: "inception_4b/relu_5x5_reduce"
  type: "ReLU"
  bottom: "inception_4b/5x5_reduce"
  top: "inception_4b/5x5_reduce"
}
layer {
  name: "inception_4b/5x5"
  type: "Convolution"
  bottom: "inception_4b/5x5_reduce"
  top: "inception_4b/5x5"
  param {
    lr_mult: 1
    decay_mult: 1
  }
  param {
    lr_mult: 2
    decay_mult: 0
  }
  convolution_param {
    num_output: 64
    pad: 2
    kernel_size: 5
    weight_filler {
      type: "xavier"
    }
    bias_filler {
      type: "constant"
      value: 0.2
    }
  }
}
layer {
  name: "inception_4b/relu_5x5"
  type: "ReLU"
  bottom: "inception_4b/5x5"
  top: "inception_4b/5x5"
}
layer {
  name: "inception_4b/pool"
  type: "Pooling"
  bottom: "inception_4a/output"
  top: "inception_4b/pool"
  pooling_param {
    pool: MAX
    kernel_size: 3
    stride: 1
    pad: 1
  }
}
layer {
  name: "inception_4b/pool_proj"
  type: "Convolution"
  bottom: "inception_4b/pool"
  top: "inception_4b/pool_proj"
  param {
    lr_mult: 1
    decay_mult: 1
  }
  param {
    lr_mult: 2
    decay_mult: 0
  }
  convolution_param {
    num_output: 64
    kernel_size: 1
    weight_filler {
      type: "xavier"
    }
    bias_filler {
      type: "constant"
      value: 0.2
    }
  }
}
layer {
  name: "inception_4b/relu_pool_proj"
  type: "ReLU"
  bottom: "inception_4b/pool_proj"
  top: "inception_4b/pool_proj"
}
layer {
  name: "inception_4b/output"
  type: "Concat"
  bottom: "inception_4b/1x1"
  bottom: "inception_4b/3x3"
  bottom: "inception_4b/5x5"
  bottom: "inception_4b/pool_proj"
  top: "inception_4b/output"
}
layer {
  name: "inception_4c/1x1"
  type: "Convolution"
  bottom: "inception_4b/output"
  top: "inception_4c/1x1"
  param {
    lr_mult: 1
    decay_mult: 1
  }
  param {
    lr_mult: 2
    decay_mult: 0
  }
  convolution_param {
    num_output: 128
    kernel_size: 1
    weight_filler {
      type: "xavier"
    }
    bias_filler {
      type: "constant"
      value: 0.2
    }
  }
}
layer {
  name: "inception_4c/relu_1x1"
  type: "ReLU"
  bottom: "inception_4c/1x1"
  top: "inception_4c/1x1"
}
layer {
  name: "inception_4c/3x3_reduce"
  type: "Convolution"
  bottom: "inception_4b/output"
  top: "inception_4c/3x3_reduce"
  param {
    lr_mult: 1
    decay_mult: 1
  }
  param {
    lr_mult: 2
    decay_mult: 0
  }
  convolution_param {
    num_output: 128
    kernel_size: 1
    weight_filler {
      type: "xavier"
    }
    bias_filler {
      type: "constant"
      value: 0.2
    }
  }
}
layer {
  name: "inception_4c/relu_3x3_reduce"
  type: "ReLU"
  bottom: "inception_4c/3x3_reduce"
  top: "inception_4c/3x3_reduce"
}
layer {
  name: "inception_4c/3x3"
  type: "Convolution"
  bottom: "inception_4c/3x3_reduce"
  top: "inception_4c/3x3"
  param {
    lr_mult: 1
    decay_mult: 1
  }
  param {
    lr_mult: 2
    decay_mult: 0
  }
  convolution_param {
    num_output: 256
    pad: 1
    kernel_size: 3
    weight_filler {
      type: "xavier"
    }
    bias_filler {
      type: "constant"
      value: 0.2
    }
  }
}
layer {
  name: "inception_4c/relu_3x3"
  type: "ReLU"
  bottom: "inception_4c/3x3"
  top: "inception_4c/3x3"
}
layer {
  name: "inception_4c/5x5_reduce"
  type: "Convolution"
  bottom: "inception_4b/output"
  top: "inception_4c/5x5_reduce"
  param {
    lr_mult: 1
    decay_mult: 1
  }
  param {
    lr_mult: 2
    decay_mult: 0
  }
  convolution_param {
    num_output: 24
    kernel_size: 1
    weight_filler {
      type: "xavier"
    }
    bias_filler {
      type: "constant"
      value: 0.2
    }
  }
}
layer {
  name: "inception_4c/relu_5x5_reduce"
  type: "ReLU"
  bottom: "inception_4c/5x5_reduce"
  top: "inception_4c/5x5_reduce"
}
layer {
  name: "inception_4c/5x5"
  type: "Convolution"
  bottom: "inception_4c/5x5_reduce"
  top: "inception_4c/5x5"
  param {
    lr_mult: 1
    decay_mult: 1
  }
  param {
    lr_mult: 2
    decay_mult: 0
  }
  convolution_param {
    num_output: 64
    pad: 2
    kernel_size: 5
    weight_filler {
      type: "xavier"
    }
    bias_filler {
      type: "constant"
      value: 0.2
    }
  }
}
layer {
  name: "inception_4c/relu_5x5"
  type: "ReLU"
  bottom: "inception_4c/5x5"
  top: "inception_4c/5x5"
}
layer {
  name: "inception_4c/pool"
  type: "Pooling"
  bottom: "inception_4b/output"
  top: "inception_4c/pool"
  pooling_param {
    pool: MAX
    kernel_size: 3
    stride: 1
    pad: 1
  }
}
layer {
  name: "inception_4c/pool_proj"
  type: "Convolution"
  bottom: "inception_4c/pool"
  top: "inception_4c/pool_proj"
  param {
    lr_mult: 1
    decay_mult: 1
  }
  param {
    lr_mult: 2
    decay_mult: 0
  }
  convolution_param {
    num_output: 64
    kernel_size: 1
    weight_filler {
      type: "xavier"
    }
    bias_filler {
      type: "constant"
      value: 0.2
    }
  }
}
layer {
  name: "inception_4c/relu_pool_proj"
  type: "ReLU"
  bottom: "inception_4c/pool_proj"
  top: "inception_4c/pool_proj"
}
layer {
  name: "inception_4c/output"
  type: "Concat"
  bottom: "inception_4c/1x1"
  bottom: "inception_4c/3x3"
  bottom: "inception_4c/5x5"
  bottom: "inception_4c/pool_proj"
  top: "inception_4c/output"
}
layer {
  name: "inception_4d/1x1"
  type: "Convolution"
  bottom: "inception_4c/output"
  top: "inception_4d/1x1"
  param {
    lr_mult: 1
    decay_mult: 1
  }
  param {
    lr_mult: 2
    decay_mult: 0
  }
  convolution_param {
    num_output: 112
    kernel_size: 1
    weight_filler {
      type: "xavier"
    }
    bias_filler {
      type: "constant"
      value: 0.2
    }
  }
}
layer {
  name: "inception_4d/relu_1x1"
  type: "ReLU"
  bottom: "inception_4d/1x1"
  top: "inception_4d/1x1"
}
layer {
  name: "inception_4d/3x3_reduce"
  type: "Convolution"
  bottom: "inception_4c/output"
  top: "inception_4d/3x3_reduce"
  param {
    lr_mult: 1
    decay_mult: 1
  }
  param {
    lr_mult: 2
    decay_mult: 0
  }
  convolution_param {
    num_output: 144
    kernel_size: 1
    weight_filler {
      type: "xavier"
    }
    bias_filler {
      type: "constant"
      value: 0.2
    }
  }
}
layer {
  name: "inception_4d/relu_3x3_reduce"
  type: "ReLU"
  bottom: "inception_4d/3x3_reduce"
  top: "inception_4d/3x3_reduce"
}
layer {
  name: "inception_4d/3x3"
  type: "Convolution"
  bottom: "inception_4d/3x3_reduce"
  top: "inception_4d/3x3"
  param {
    lr_mult: 1
    decay_mult: 1
  }
  param {
    lr_mult: 2
    decay_mult: 0
  }
  convolution_param {
    num_output: 288
    pad: 1
    kernel_size: 3
    weight_filler {
      type: "xavier"
    }
    bias_filler {
      type: "constant"
      value: 0.2
    }
  }
}
layer {
  name: "inception_4d/relu_3x3"
  type: "ReLU"
  bottom: "inception_4d/3x3"
  top: "inception_4d/3x3"
}
layer {
  name: "inception_4d/5x5_reduce"
  type: "Convolution"
  bottom: "inception_4c/output"
  top: "inception_4d/5x5_reduce"
  param {
    lr_mult: 1
    decay_mult: 1
  }
  param {
    lr_mult: 2
    decay_mult: 0
  }
  convolution_param {
    num_output: 32
    kernel_size: 1
    weight_filler {
      type: "xavier"
    }
    bias_filler {
      type: "constant"
      value: 0.2
    }
  }
}
layer {
  name: "inception_4d/relu_5x5_reduce"
  type: "ReLU"
  bottom: "inception_4d/5x5_reduce"
  top: "inception_4d/5x5_reduce"
}
layer {
  name: "inception_4d/5x5"
  type: "Convolution"
  bottom: "inception_4d/5x5_reduce"
  top: "inception_4d/5x5"
  param {
    lr_mult: 1
    decay_mult: 1
  }
  param {
    lr_mult: 2
    decay_mult: 0
  }
  convolution_param {
    num_output: 64
    pad: 2
    kernel_size: 5
    weight_filler {
      type: "xavier"
    }
    bias_filler {
      type: "constant"
      value: 0.2
    }
  }
}
layer {
  name: "inception_4d/relu_5x5"
  type: "ReLU"
  bottom: "inception_4d/5x5"
  top: "inception_4d/5x5"
}
layer {
  name: "inception_4d/pool"
  type: "Pooling"
  bottom: "inception_4c/output"
  top: "inception_4d/pool"
  pooling_param {
    pool: MAX
    kernel_size: 3
    stride: 1
    pad: 1
  }
}
layer {
  name: "inception_4d/pool_proj"
  type: "Convolution"
  bottom: "inception_4d/pool"
  top: "inception_4d/pool_proj"
  param {
    lr_mult: 1
    decay_mult: 1
  }
  param {
    lr_mult: 2
    decay_mult: 0
  }
  convolution_param {
    num_output: 64
    kernel_size: 1
    weight_filler {
      type: "xavier"
    }
    bias_filler {
      type: "constant"
      value: 0.2
    }
  }
}
layer {
  name: "inception_4d/relu_pool_proj"
  type: "ReLU"
  bottom: "inception_4d/pool_proj"
  top: "inception_4d/pool_proj"
}
layer {
  name: "inception_4d/output"
  type: "Concat"
  bottom: "inception_4d/1x1"
  bottom: "inception_4d/3x3"
  bottom: "inception_4d/5x5"
  bottom: "inception_4d/pool_proj"
  top: "inception_4d/output"
}
layer {
  name: "loss2/ave_pool"
  type: "Pooling"
  bottom: "inception_4d/output"
  top: "loss2/ave_pool"
  pooling_param {
    pool: AVE
    kernel_size: 5
    stride: 3
  }
}
layer {
  name: "loss2/conv"
  type: "Convolution"
  bottom: "loss2/ave_pool"
  top: "loss2/conv"
  param {
    lr_mult: 1
    decay_mult: 1
  }
  param {
    lr_mult: 2
    decay_mult: 0
  }
  convolution_param {
    num_output: 128
    kernel_size: 1
    weight_filler {
      type: "xavier"
    }
    bias_filler {
      type: "constant"
      value: 0.2
    }
  }
}
layer {
  name: "loss2/relu_conv"
  type: "ReLU"
  bottom: "loss2/conv"
  top: "loss2/conv"
}
layer {
  name: "loss2/fc"
  type: "InnerProduct"
  bottom: "loss2/conv"
  top: "loss2/fc"
  param {
    lr_mult: 1
    decay_mult: 1
  }
  param {
    lr_mult: 2
    decay_mult: 0
  }
  inner_product_param {
    num_output: 1024
    weight_filler {
      type: "xavier"
    }
    bias_filler {
      type: "constant"
      value: 0.2
    }
  }
}
layer {
  name: "loss2/relu_fc"
  type: "ReLU"
  bottom: "loss2/fc"
  top: "loss2/fc"
}
layer {
  name: "loss2/drop_fc"
  type: "Dropout"
  bottom: "loss2/fc"
  top: "loss2/fc"
  dropout_param {
    dropout_ratio: 0.7
  }
}
layer {
  name: "loss2/classifier-attribute"
  type: "InnerProduct"
  bottom: "loss2/fc"
  top: "loss2/classifier-attribute"
  param {
    lr_mult: 10
    decay_mult: 1
  }
  param {
    lr_mult: 20
    decay_mult: 0
  }
  inner_product_param {
    num_output: 9999
    weight_filler {
      type: "xavier"
    }
    bias_filler {
      type: "constant"
      value: 0
    }
  }
}
layer {
  name: "loss2/loss"
  type: "SoftmaxWithLoss"
  bottom: "loss2/classifier-attribute"
  bottom: "label"
  top: "loss2/loss1"
  loss_weight: 0.3
}
layer {
  name: "inception_4e/1x1"
  type: "Convolution"
  bottom: "inception_4d/output"
  top: "inception_4e/1x1"
  param {
    lr_mult: 1
    decay_mult: 1
  }
  param {
    lr_mult: 2
    decay_mult: 0
  }
  convolution_param {
    num_output: 256
    kernel_size: 1
    weight_filler {
      type: "xavier"
    }
    bias_filler {
      type: "constant"
      value: 0.2
    }
  }
}
layer {
  name: "inception_4e/relu_1x1"
  type: "ReLU"
  bottom: "inception_4e/1x1"
  top: "inception_4e/1x1"
}
layer {
  name: "inception_4e/3x3_reduce"
  type: "Convolution"
  bottom: "inception_4d/output"
  top: "inception_4e/3x3_reduce"
  param {
    lr_mult: 1
    decay_mult: 1
  }
  param {
    lr_mult: 2
    decay_mult: 0
  }
  convolution_param {
    num_output: 160
    kernel_size: 1
    weight_filler {
      type: "xavier"
    }
    bias_filler {
      type: "constant"
      value: 0.2
    }
  }
}
layer {
  name: "inception_4e/relu_3x3_reduce"
  type: "ReLU"
  bottom: "inception_4e/3x3_reduce"
  top: "inception_4e/3x3_reduce"
}
layer {
  name: "inception_4e/3x3"
  type: "Convolution"
  bottom: "inception_4e/3x3_reduce"
  top: "inception_4e/3x3"
  param {
    lr_mult: 1
    decay_mult: 1
  }
  param {
    lr_mult: 2
    decay_mult: 0
  }
  convolution_param {
    num_output: 320
    pad: 1
    kernel_size: 3
    weight_filler {
      type: "xavier"
    }
    bias_filler {
      type: "constant"
      value: 0.2
    }
  }
}
layer {
  name: "inception_4e/relu_3x3"
  type: "ReLU"
  bottom: "inception_4e/3x3"
  top: "inception_4e/3x3"
}
layer {
  name: "inception_4e/5x5_reduce"
  type: "Convolution"
  bottom: "inception_4d/output"
  top: "inception_4e/5x5_reduce"
  param {
    lr_mult: 1
    decay_mult: 1
  }
  param {
    lr_mult: 2
    decay_mult: 0
  }
  convolution_param {
    num_output: 32
    kernel_size: 1
    weight_filler {
      type: "xavier"
    }
    bias_filler {
      type: "constant"
      value: 0.2
    }
  }
}
layer {
  name: "inception_4e/relu_5x5_reduce"
  type: "ReLU"
  bottom: "inception_4e/5x5_reduce"
  top: "inception_4e/5x5_reduce"
}
layer {
  name: "inception_4e/5x5"
  type: "Convolution"
  bottom: "inception_4e/5x5_reduce"
  top: "inception_4e/5x5"
  param {
    lr_mult: 1
    decay_mult: 1
  }
  param {
    lr_mult: 2
    decay_mult: 0
  }
  convolution_param {
    num_output: 128
    pad: 2
    kernel_size: 5
    weight_filler {
      type: "xavier"
    }
    bias_filler {
      type: "constant"
      value: 0.2
    }
  }
}
layer {
  name: "inception_4e/relu_5x5"
  type: "ReLU"
  bottom: "inception_4e/5x5"
  top: "inception_4e/5x5"
}
layer {
  name: "inception_4e/pool"
  type: "Pooling"
  bottom: "ince
I1126 12:32:37.493310 19071 layer_factory.hpp:76] Creating layer data
I1126 12:32:37.493353 19071 net.cpp:106] Creating Layer data
I1126 12:32:37.493365 19071 net.cpp:411] data -> data
I1126 12:32:37.493397 19071 net.cpp:411] data -> label
I1126 12:32:37.493840 19071 image_data_layer.cpp:36] Opening file pad_train.txt
I1126 12:32:37.724150 19071 image_data_layer.cpp:46] Shuffling data
I1126 12:32:37.752970 19071 image_data_layer.cpp:51] A total of 193988 images.
I1126 12:32:37.780689 19071 image_data_layer.cpp:78] output data size: 64,3,224,224
I1126 12:32:37.831686 19071 net.cpp:150] Setting up data
I1126 12:32:37.831713 19071 net.cpp:157] Top shape: 64 3 224 224 (9633792)
I1126 12:32:37.831719 19071 net.cpp:157] Top shape: 64 (64)
I1126 12:32:37.831723 19071 net.cpp:165] Memory required for data: 38535424
I1126 12:32:37.831730 19071 layer_factory.hpp:76] Creating layer label_data_1_split
I1126 12:32:37.831743 19071 net.cpp:106] Creating Layer label_data_1_split
I1126 12:32:37.831749 19071 net.cpp:454] label_data_1_split <- label
I1126 12:32:37.831760 19071 net.cpp:411] label_data_1_split -> label_data_1_split_0
I1126 12:32:37.831771 19071 net.cpp:411] label_data_1_split -> label_data_1_split_1
I1126 12:32:37.831780 19071 net.cpp:411] label_data_1_split -> label_data_1_split_2
I1126 12:32:37.831836 19071 net.cpp:150] Setting up label_data_1_split
I1126 12:32:37.831843 19071 net.cpp:157] Top shape: 64 (64)
I1126 12:32:37.831850 19071 net.cpp:157] Top shape: 64 (64)
I1126 12:32:37.831853 19071 net.cpp:157] Top shape: 64 (64)
I1126 12:32:37.831857 19071 net.cpp:165] Memory required for data: 38536192
I1126 12:32:37.831861 19071 layer_factory.hpp:76] Creating layer conv1/7x7_s2
I1126 12:32:37.831873 19071 net.cpp:106] Creating Layer conv1/7x7_s2
I1126 12:32:37.831877 19071 net.cpp:454] conv1/7x7_s2 <- data
I1126 12:32:37.831882 19071 net.cpp:411] conv1/7x7_s2 -> conv1/7x7_s2
I1126 12:32:38.001502 19071 net.cpp:150] Setting up conv1/7x7_s2
I1126 12:32:38.001530 19071 net.cpp:157] Top shape: 64 64 112 112 (51380224)
I1126 12:32:38.001534 19071 net.cpp:165] Memory required for data: 244057088
I1126 12:32:38.001556 19071 layer_factory.hpp:76] Creating layer conv1/relu_7x7
I1126 12:32:38.001569 19071 net.cpp:106] Creating Layer conv1/relu_7x7
I1126 12:32:38.001574 19071 net.cpp:454] conv1/relu_7x7 <- conv1/7x7_s2
I1126 12:32:38.001580 19071 net.cpp:397] conv1/relu_7x7 -> conv1/7x7_s2 (in-place)
I1126 12:32:38.001870 19071 net.cpp:150] Setting up conv1/relu_7x7
I1126 12:32:38.001884 19071 net.cpp:157] Top shape: 64 64 112 112 (51380224)
I1126 12:32:38.001888 19071 net.cpp:165] Memory required for data: 449577984
I1126 12:32:38.001893 19071 layer_factory.hpp:76] Creating layer pool1/3x3_s2
I1126 12:32:38.001901 19071 net.cpp:106] Creating Layer pool1/3x3_s2
I1126 12:32:38.001904 19071 net.cpp:454] pool1/3x3_s2 <- conv1/7x7_s2
I1126 12:32:38.001910 19071 net.cpp:411] pool1/3x3_s2 -> pool1/3x3_s2
I1126 12:32:38.002099 19071 net.cpp:150] Setting up pool1/3x3_s2
I1126 12:32:38.002110 19071 net.cpp:157] Top shape: 64 64 56 56 (12845056)
I1126 12:32:38.002115 19071 net.cpp:165] Memory required for data: 500958208
I1126 12:32:38.002118 19071 layer_factory.hpp:76] Creating layer pool1/norm1
I1126 12:32:38.002151 19071 net.cpp:106] Creating Layer pool1/norm1
I1126 12:32:38.002158 19071 net.cpp:454] pool1/norm1 <- pool1/3x3_s2
I1126 12:32:38.002164 19071 net.cpp:411] pool1/norm1 -> pool1/norm1
I1126 12:32:38.002480 19071 net.cpp:150] Setting up pool1/norm1
I1126 12:32:38.002501 19071 net.cpp:157] Top shape: 64 64 56 56 (12845056)
I1126 12:32:38.002504 19071 net.cpp:165] Memory required for data: 552338432
I1126 12:32:38.002508 19071 layer_factory.hpp:76] Creating layer conv2/3x3_reduce
I1126 12:32:38.002519 19071 net.cpp:106] Creating Layer conv2/3x3_reduce
I1126 12:32:38.002522 19071 net.cpp:454] conv2/3x3_reduce <- pool1/norm1
I1126 12:32:38.002528 19071 net.cpp:411] conv2/3x3_reduce -> conv2/3x3_reduce
I1126 12:32:38.003795 19071 net.cpp:150] Setting up conv2/3x3_reduce
I1126 12:32:38.003813 19071 net.cpp:157] Top shape: 64 64 56 56 (12845056)
I1126 12:32:38.003816 19071 net.cpp:165] Memory required for data: 603718656
I1126 12:32:38.003826 19071 layer_factory.hpp:76] Creating layer conv2/relu_3x3_reduce
I1126 12:32:38.003832 19071 net.cpp:106] Creating Layer conv2/relu_3x3_reduce
I1126 12:32:38.003836 19071 net.cpp:454] conv2/relu_3x3_reduce <- conv2/3x3_reduce
I1126 12:32:38.003841 19071 net.cpp:397] conv2/relu_3x3_reduce -> conv2/3x3_reduce (in-place)
I1126 12:32:38.004117 19071 net.cpp:150] Setting up conv2/relu_3x3_reduce
I1126 12:32:38.004129 19071 net.cpp:157] Top shape: 64 64 56 56 (12845056)
I1126 12:32:38.004133 19071 net.cpp:165] Memory required for data: 655098880
I1126 12:32:38.004137 19071 layer_factory.hpp:76] Creating layer conv2/3x3
I1126 12:32:38.004149 19071 net.cpp:106] Creating Layer conv2/3x3
I1126 12:32:38.004154 19071 net.cpp:454] conv2/3x3 <- conv2/3x3_reduce
I1126 12:32:38.004160 19071 net.cpp:411] conv2/3x3 -> conv2/3x3
I1126 12:32:38.006208 19071 net.cpp:150] Setting up conv2/3x3
I1126 12:32:38.006223 19071 net.cpp:157] Top shape: 64 192 56 56 (38535168)
I1126 12:32:38.006227 19071 net.cpp:165] Memory required for data: 809239552
I1126 12:32:38.006237 19071 layer_factory.hpp:76] Creating layer conv2/relu_3x3
I1126 12:32:38.006244 19071 net.cpp:106] Creating Layer conv2/relu_3x3
I1126 12:32:38.006247 19071 net.cpp:454] conv2/relu_3x3 <- conv2/3x3
I1126 12:32:38.006254 19071 net.cpp:397] conv2/relu_3x3 -> conv2/3x3 (in-place)
I1126 12:32:38.006412 19071 net.cpp:150] Setting up conv2/relu_3x3
I1126 12:32:38.006425 19071 net.cpp:157] Top shape: 64 192 56 56 (38535168)
I1126 12:32:38.006428 19071 net.cpp:165] Memory required for data: 963380224
I1126 12:32:38.006433 19071 layer_factory.hpp:76] Creating layer conv2/norm2
I1126 12:32:38.006439 19071 net.cpp:106] Creating Layer conv2/norm2
I1126 12:32:38.006443 19071 net.cpp:454] conv2/norm2 <- conv2/3x3
I1126 12:32:38.006450 19071 net.cpp:411] conv2/norm2 -> conv2/norm2
I1126 12:32:38.006773 19071 net.cpp:150] Setting up conv2/norm2
I1126 12:32:38.006786 19071 net.cpp:157] Top shape: 64 192 56 56 (38535168)
I1126 12:32:38.006790 19071 net.cpp:165] Memory required for data: 1117520896
I1126 12:32:38.006794 19071 layer_factory.hpp:76] Creating layer pool2/3x3_s2
I1126 12:32:38.006806 19071 net.cpp:106] Creating Layer pool2/3x3_s2
I1126 12:32:38.006810 19071 net.cpp:454] pool2/3x3_s2 <- conv2/norm2
I1126 12:32:38.006817 19071 net.cpp:411] pool2/3x3_s2 -> pool2/3x3_s2
I1126 12:32:38.006999 19071 net.cpp:150] Setting up pool2/3x3_s2
I1126 12:32:38.007011 19071 net.cpp:157] Top shape: 64 192 28 28 (9633792)
I1126 12:32:38.007015 19071 net.cpp:165] Memory required for data: 1156056064
I1126 12:32:38.007019 19071 layer_factory.hpp:76] Creating layer pool2/3x3_s2_pool2/3x3_s2_0_split
I1126 12:32:38.007026 19071 net.cpp:106] Creating Layer pool2/3x3_s2_pool2/3x3_s2_0_split
I1126 12:32:38.007030 19071 net.cpp:454] pool2/3x3_s2_pool2/3x3_s2_0_split <- pool2/3x3_s2
I1126 12:32:38.007035 19071 net.cpp:411] pool2/3x3_s2_pool2/3x3_s2_0_split -> pool2/3x3_s2_pool2/3x3_s2_0_split_0
I1126 12:32:38.007045 19071 net.cpp:411] pool2/3x3_s2_pool2/3x3_s2_0_split -> pool2/3x3_s2_pool2/3x3_s2_0_split_1
I1126 12:32:38.007050 19071 net.cpp:411] pool2/3x3_s2_pool2/3x3_s2_0_split -> pool2/3x3_s2_pool2/3x3_s2_0_split_2
I1126 12:32:38.007056 19071 net.cpp:411] pool2/3x3_s2_pool2/3x3_s2_0_split -> pool2/3x3_s2_pool2/3x3_s2_0_split_3
I1126 12:32:38.007115 19071 net.cpp:150] Setting up pool2/3x3_s2_pool2/3x3_s2_0_split
I1126 12:32:38.007122 19071 net.cpp:157] Top shape: 64 192 28 28 (9633792)
I1126 12:32:38.007125 19071 net.cpp:157] Top shape: 64 192 28 28 (9633792)
I1126 12:32:38.007129 19071 net.cpp:157] Top shape: 64 192 28 28 (9633792)
I1126 12:32:38.007133 19071 net.cpp:157] Top shape: 64 192 28 28 (9633792)
I1126 12:32:38.007135 19071 net.cpp:165] Memory required for data: 1310196736
I1126 12:32:38.007139 19071 layer_factory.hpp:76] Creating layer inception_3a/1x1
I1126 12:32:38.007148 19071 net.cpp:106] Creating Layer inception_3a/1x1
I1126 12:32:38.007151 19071 net.cpp:454] inception_3a/1x1 <- pool2/3x3_s2_pool2/3x3_s2_0_split_0
I1126 12:32:38.007158 19071 net.cpp:411] inception_3a/1x1 -> inception_3a/1x1
I1126 12:32:38.008548 19071 net.cpp:150] Setting up inception_3a/1x1
I1126 12:32:38.008564 19071 net.cpp:157] Top shape: 64 64 28 28 (3211264)
I1126 12:32:38.008569 19071 net.cpp:165] Memory required for data: 1323041792
I1126 12:32:38.008575 19071 layer_factory.hpp:76] Creating layer inception_3a/relu_1x1
I1126 12:32:38.008582 19071 net.cpp:106] Creating Layer inception_3a/relu_1x1
I1126 12:32:38.008586 19071 net.cpp:454] inception_3a/relu_1x1 <- inception_3a/1x1
I1126 12:32:38.008591 19071 net.cpp:397] inception_3a/relu_1x1 -> inception_3a/1x1 (in-place)
I1126 12:32:38.008882 19071 net.cpp:150] Setting up inception_3a/relu_1x1
I1126 12:32:38.008896 19071 net.cpp:157] Top shape: 64 64 28 28 (3211264)
I1126 12:32:38.008899 19071 net.cpp:165] Memory required for data: 1335886848
I1126 12:32:38.008903 19071 layer_factory.hpp:76] Creating layer inception_3a/3x3_reduce
I1126 12:32:38.008913 19071 net.cpp:106] Creating Layer inception_3a/3x3_reduce
I1126 12:32:38.008916 19071 net.cpp:454] inception_3a/3x3_reduce <- pool2/3x3_s2_pool2/3x3_s2_0_split_1
I1126 12:32:38.008922 19071 net.cpp:411] inception_3a/3x3_reduce -> inception_3a/3x3_reduce
I1126 12:32:38.010359 19071 net.cpp:150] Setting up inception_3a/3x3_reduce
I1126 12:32:38.010373 19071 net.cpp:157] Top shape: 64 96 28 28 (4816896)
I1126 12:32:38.010377 19071 net.cpp:165] Memory required for data: 1355154432
I1126 12:32:38.010388 19071 layer_factory.hpp:76] Creating layer inception_3a/relu_3x3_reduce
I1126 12:32:38.010396 19071 net.cpp:106] Creating Layer inception_3a/relu_3x3_reduce
I1126 12:32:38.010401 19071 net.cpp:454] inception_3a/relu_3x3_reduce <- inception_3a/3x3_reduce
I1126 12:32:38.010406 19071 net.cpp:397] inception_3a/relu_3x3_reduce -> inception_3a/3x3_reduce (in-place)
I1126 12:32:38.010558 19071 net.cpp:150] Setting up inception_3a/relu_3x3_reduce
I1126 12:32:38.010570 19071 net.cpp:157] Top shape: 64 96 28 28 (4816896)
I1126 12:32:38.010572 19071 net.cpp:165] Memory required for data: 1374422016
I1126 12:32:38.010576 19071 layer_factory.hpp:76] Creating layer inception_3a/3x3
I1126 12:32:38.010584 19071 net.cpp:106] Creating Layer inception_3a/3x3
I1126 12:32:38.010587 19071 net.cpp:454] inception_3a/3x3 <- inception_3a/3x3_reduce
I1126 12:32:38.010593 19071 net.cpp:411] inception_3a/3x3 -> inception_3a/3x3
I1126 12:32:38.012315 19071 net.cpp:150] Setting up inception_3a/3x3
I1126 12:32:38.012329 19071 net.cpp:157] Top shape: 64 128 28 28 (6422528)
I1126 12:32:38.012333 19071 net.cpp:165] Memory required for data: 1400112128
I1126 12:32:38.012341 19071 layer_factory.hpp:76] Creating layer inception_3a/relu_3x3
I1126 12:32:38.012346 19071 net.cpp:106] Creating Layer inception_3a/relu_3x3
I1126 12:32:38.012351 19071 net.cpp:454] inception_3a/relu_3x3 <- inception_3a/3x3
I1126 12:32:38.012356 19071 net.cpp:397] inception_3a/relu_3x3 -> inception_3a/3x3 (in-place)
I1126 12:32:38.012506 19071 net.cpp:150] Setting up inception_3a/relu_3x3
I1126 12:32:38.012516 19071 net.cpp:157] Top shape: 64 128 28 28 (6422528)
I1126 12:32:38.012518 19071 net.cpp:165] Memory required for data: 1425802240
I1126 12:32:38.012522 19071 layer_factory.hpp:76] Creating layer inception_3a/5x5_reduce
I1126 12:32:38.012529 19071 net.cpp:106] Creating Layer inception_3a/5x5_reduce
I1126 12:32:38.012533 19071 net.cpp:454] inception_3a/5x5_reduce <- pool2/3x3_s2_pool2/3x3_s2_0_split_2
I1126 12:32:38.012539 19071 net.cpp:411] inception_3a/5x5_reduce -> inception_3a/5x5_reduce
I1126 12:32:38.013445 19071 net.cpp:150] Setting up inception_3a/5x5_reduce
I1126 12:32:38.013459 19071 net.cpp:157] Top shape: 64 16 28 28 (802816)
I1126 12:32:38.013463 19071 net.cpp:165] Memory required for data: 1429013504
I1126 12:32:38.013470 19071 layer_factory.hpp:76] Creating layer inception_3a/relu_5x5_reduce
I1126 12:32:38.013475 19071 net.cpp:106] Creating Layer inception_3a/relu_5x5_reduce
I1126 12:32:38.013479 19071 net.cpp:454] inception_3a/relu_5x5_reduce <- inception_3a/5x5_reduce
I1126 12:32:38.013485 19071 net.cpp:397] inception_3a/relu_5x5_reduce -> inception_3a/5x5_reduce (in-place)
I1126 12:32:38.013763 19071 net.cpp:150] Setting up inception_3a/relu_5x5_reduce
I1126 12:32:38.013777 19071 net.cpp:157] Top shape: 64 16 28 28 (802816)
I1126 12:32:38.013782 19071 net.cpp:165] Memory required for data: 1432224768
I1126 12:32:38.013785 19071 layer_factory.hpp:76] Creating layer inception_3a/5x5
I1126 12:32:38.013793 19071 net.cpp:106] Creating Layer inception_3a/5x5
I1126 12:32:38.013797 19071 net.cpp:454] inception_3a/5x5 <- inception_3a/5x5_reduce
I1126 12:32:38.013803 19071 net.cpp:411] inception_3a/5x5 -> inception_3a/5x5
I1126 12:32:38.014755 19071 net.cpp:150] Setting up inception_3a/5x5
I1126 12:32:38.014768 19071 net.cpp:157] Top shape: 64 32 28 28 (1605632)
I1126 12:32:38.014772 19071 net.cpp:165] Memory required for data: 1438647296
I1126 12:32:38.014778 19071 layer_factory.hpp:76] Creating layer inception_3a/relu_5x5
I1126 12:32:38.014785 19071 net.cpp:106] Creating Layer inception_3a/relu_5x5
I1126 12:32:38.014788 19071 net.cpp:454] inception_3a/relu_5x5 <- inception_3a/5x5
I1126 12:32:38.014793 19071 net.cpp:397] inception_3a/relu_5x5 -> inception_3a/5x5 (in-place)
I1126 12:32:38.014952 19071 net.cpp:150] Setting up inception_3a/relu_5x5
I1126 12:32:38.014964 19071 net.cpp:157] Top shape: 64 32 28 28 (1605632)
I1126 12:32:38.014967 19071 net.cpp:165] Memory required for data: 1445069824
I1126 12:32:38.014971 19071 layer_factory.hpp:76] Creating layer inception_3a/pool
I1126 12:32:38.014977 19071 net.cpp:106] Creating Layer inception_3a/pool
I1126 12:32:38.014981 19071 net.cpp:454] inception_3a/pool <- pool2/3x3_s2_pool2/3x3_s2_0_split_3
I1126 12:32:38.014987 19071 net.cpp:411] inception_3a/pool -> inception_3a/pool
I1126 12:32:38.015287 19071 net.cpp:150] Setting up inception_3a/pool
I1126 12:32:38.015300 19071 net.cpp:157] Top shape: 64 192 28 28 (9633792)
I1126 12:32:38.015303 19071 net.cpp:165] Memory required for data: 1483604992
I1126 12:32:38.015307 19071 layer_factory.hpp:76] Creating layer inception_3a/pool_proj
I1126 12:32:38.015316 19071 net.cpp:106] Creating Layer inception_3a/pool_proj
I1126 12:32:38.015319 19071 net.cpp:454] inception_3a/pool_proj <- inception_3a/pool
I1126 12:32:38.015324 19071 net.cpp:411] inception_3a/pool_proj -> inception_3a/pool_proj
I1126 12:32:38.016109 19071 net.cpp:150] Setting up inception_3a/pool_proj
I1126 12:32:38.016124 19071 net.cpp:157] Top shape: 64 32 28 28 (1605632)
I1126 12:32:38.016127 19071 net.cpp:165] Memory required for data: 1490027520
I1126 12:32:38.016137 19071 layer_factory.hpp:76] Creating layer inception_3a/relu_pool_proj
I1126 12:32:38.016144 19071 net.cpp:106] Creating Layer inception_3a/relu_pool_proj
I1126 12:32:38.016147 19071 net.cpp:454] inception_3a/relu_pool_proj <- inception_3a/pool_proj
I1126 12:32:38.016152 19071 net.cpp:397] inception_3a/relu_pool_proj -> inception_3a/pool_proj (in-place)
I1126 12:32:38.016433 19071 net.cpp:150] Setting up inception_3a/relu_pool_proj
I1126 12:32:38.016446 19071 net.cpp:157] Top shape: 64 32 28 28 (1605632)
I1126 12:32:38.016449 19071 net.cpp:165] Memory required for data: 1496450048
I1126 12:32:38.016453 19071 layer_factory.hpp:76] Creating layer inception_3a/output
I1126 12:32:38.016463 19071 net.cpp:106] Creating Layer inception_3a/output
I1126 12:32:38.016466 19071 net.cpp:454] inception_3a/output <- inception_3a/1x1
I1126 12:32:38.016471 19071 net.cpp:454] inception_3a/output <- inception_3a/3x3
I1126 12:32:38.016475 19071 net.cpp:454] inception_3a/output <- inception_3a/5x5
I1126 12:32:38.016479 19071 net.cpp:454] inception_3a/output <- inception_3a/pool_proj
I1126 12:32:38.016484 19071 net.cpp:411] inception_3a/output -> inception_3a/output
I1126 12:32:38.016515 19071 net.cpp:150] Setting up inception_3a/output
I1126 12:32:38.016521 19071 net.cpp:157] Top shape: 64 256 28 28 (12845056)
I1126 12:32:38.016525 19071 net.cpp:165] Memory required for data: 1547830272
I1126 12:32:38.016527 19071 layer_factory.hpp:76] Creating layer inception_3a/output_inception_3a/output_0_split
I1126 12:32:38.016533 19071 net.cpp:106] Creating Layer inception_3a/output_inception_3a/output_0_split
I1126 12:32:38.016537 19071 net.cpp:454] inception_3a/output_inception_3a/output_0_split <- inception_3a/output
I1126 12:32:38.016542 19071 net.cpp:411] inception_3a/output_inception_3a/output_0_split -> inception_3a/output_inception_3a/output_0_split_0
I1126 12:32:38.016548 19071 net.cpp:411] inception_3a/output_inception_3a/output_0_split -> inception_3a/output_inception_3a/output_0_split_1
I1126 12:32:38.016554 19071 net.cpp:411] inception_3a/output_inception_3a/output_0_split -> inception_3a/output_inception_3a/output_0_split_2
I1126 12:32:38.016559 19071 net.cpp:411] inception_3a/output_inception_3a/output_0_split -> inception_3a/output_inception_3a/output_0_split_3
I1126 12:32:38.016610 19071 net.cpp:150] Setting up inception_3a/output_inception_3a/output_0_split
I1126 12:32:38.016615 19071 net.cpp:157] Top shape: 64 256 28 28 (12845056)
I1126 12:32:38.016619 19071 net.cpp:157] Top shape: 64 256 28 28 (12845056)
I1126 12:32:38.016623 19071 net.cpp:157] Top shape: 64 256 28 28 (12845056)
I1126 12:32:38.016626 19071 net.cpp:157] Top shape: 64 256 28 28 (12845056)
I1126 12:32:38.016629 19071 net.cpp:165] Memory required for data: 1753351168
I1126 12:32:38.016633 19071 layer_factory.hpp:76] Creating layer inception_3b/1x1
I1126 12:32:38.016640 19071 net.cpp:106] Creating Layer inception_3b/1x1
I1126 12:32:38.016644 19071 net.cpp:454] inception_3b/1x1 <- inception_3a/output_inception_3a/output_0_split_0
I1126 12:32:38.016649 19071 net.cpp:411] inception_3b/1x1 -> inception_3b/1x1
I1126 12:32:38.017724 19071 net.cpp:150] Setting up inception_3b/1x1
I1126 12:32:38.017738 19071 net.cpp:157] Top shape: 64 128 28 28 (6422528)
I1126 12:32:38.017741 19071 net.cpp:165] Memory required for data: 1779041280
I1126 12:32:38.017748 19071 layer_factory.hpp:76] Creating layer inception_3b/relu_1x1
I1126 12:32:38.017755 19071 net.cpp:106] Creating Layer inception_3b/relu_1x1
I1126 12:32:38.017760 19071 net.cpp:454] inception_3b/relu_1x1 <- inception_3b/1x1
I1126 12:32:38.017765 19071 net.cpp:397] inception_3b/relu_1x1 -> inception_3b/1x1 (in-place)
I1126 12:32:38.017913 19071 net.cpp:150] Setting up inception_3b/relu_1x1
I1126 12:32:38.017923 19071 net.cpp:157] Top shape: 64 128 28 28 (6422528)
I1126 12:32:38.017927 19071 net.cpp:165] Memory required for data: 1804731392
I1126 12:32:38.017931 19071 layer_factory.hpp:76] Creating layer inception_3b/3x3_reduce
I1126 12:32:38.017938 19071 net.cpp:106] Creating Layer inception_3b/3x3_reduce
I1126 12:32:38.017942 19071 net.cpp:454] inception_3b/3x3_reduce <- inception_3a/output_inception_3a/output_0_split_1
I1126 12:32:38.017948 19071 net.cpp:411] inception_3b/3x3_reduce -> inception_3b/3x3_reduce
I1126 12:32:38.019029 19071 net.cpp:150] Setting up inception_3b/3x3_reduce
I1126 12:32:38.019043 19071 net.cpp:157] Top shape: 64 128 28 28 (6422528)
I1126 12:32:38.019047 19071 net.cpp:165] Memory required for data: 1830421504
I1126 12:32:38.019053 19071 layer_factory.hpp:76] Creating layer inception_3b/relu_3x3_reduce
I1126 12:32:38.019060 19071 net.cpp:106] Creating Layer inception_3b/relu_3x3_reduce
I1126 12:32:38.019064 19071 net.cpp:454] inception_3b/relu_3x3_reduce <- inception_3b/3x3_reduce
I1126 12:32:38.019069 19071 net.cpp:397] inception_3b/relu_3x3_reduce -> inception_3b/3x3_reduce (in-place)
I1126 12:32:38.019347 19071 net.cpp:150] Setting up inception_3b/relu_3x3_reduce
I1126 12:32:38.019361 19071 net.cpp:157] Top shape: 64 128 28 28 (6422528)
I1126 12:32:38.019364 19071 net.cpp:165] Memory required for data: 1856111616
I1126 12:32:38.019368 19071 layer_factory.hpp:76] Creating layer inception_3b/3x3
I1126 12:32:38.019379 19071 net.cpp:106] Creating Layer inception_3b/3x3
I1126 12:32:38.019383 19071 net.cpp:454] inception_3b/3x3 <- inception_3b/3x3_reduce
I1126 12:32:38.019389 19071 net.cpp:411] inception_3b/3x3 -> inception_3b/3x3
I1126 12:32:38.021975 19071 net.cpp:150] Setting up inception_3b/3x3
I1126 12:32:38.021991 19071 net.cpp:157] Top shape: 64 192 28 28 (9633792)
I1126 12:32:38.021994 19071 net.cpp:165] Memory required for data: 1894646784
I1126 12:32:38.022001 19071 layer_factory.hpp:76] Creating layer inception_3b/relu_3x3
I1126 12:32:38.022007 19071 net.cpp:106] Creating Layer inception_3b/relu_3x3
I1126 12:32:38.022011 19071 net.cpp:454] inception_3b/relu_3x3 <- inception_3b/3x3
I1126 12:32:38.022017 19071 net.cpp:397] inception_3b/relu_3x3 -> inception_3b/3x3 (in-place)
I1126 12:32:38.022439 19071 net.cpp:150] Setting up inception_3b/relu_3x3
I1126 12:32:38.022451 19071 net.cpp:157] Top shape: 64 192 28 28 (9633792)
I1126 12:32:38.022455 19071 net.cpp:165] Memory required for data: 1933181952
I1126 12:32:38.022459 19071 layer_factory.hpp:76] Creating layer inception_3b/5x5_reduce
I1126 12:32:38.022467 19071 net.cpp:106] Creating Layer inception_3b/5x5_reduce
I1126 12:32:38.022471 19071 net.cpp:454] inception_3b/5x5_reduce <- inception_3a/output_inception_3a/output_0_split_2
I1126 12:32:38.022477 19071 net.cpp:411] inception_3b/5x5_reduce -> inception_3b/5x5_reduce
I1126 12:32:38.023429 19071 net.cpp:150] Setting up inception_3b/5x5_reduce
I1126 12:32:38.023443 19071 net.cpp:157] Top shape: 64 32 28 28 (1605632)
I1126 12:32:38.023447 19071 net.cpp:165] Memory required for data: 1939604480
I1126 12:32:38.023454 19071 layer_factory.hpp:76] Creating layer inception_3b/relu_5x5_reduce
I1126 12:32:38.023461 19071 net.cpp:106] Creating Layer inception_3b/relu_5x5_reduce
I1126 12:32:38.023465 19071 net.cpp:454] inception_3b/relu_5x5_reduce <- inception_3b/5x5_reduce
I1126 12:32:38.023470 19071 net.cpp:397] inception_3b/relu_5x5_reduce -> inception_3b/5x5_reduce (in-place)
I1126 12:32:38.023618 19071 net.cpp:150] Setting up inception_3b/relu_5x5_reduce
I1126 12:32:38.023629 19071 net.cpp:157] Top shape: 64 32 28 28 (1605632)
I1126 12:32:38.023633 19071 net.cpp:165] Memory required for data: 1946027008
I1126 12:32:38.023636 19071 layer_factory.hpp:76] Creating layer inception_3b/5x5
I1126 12:32:38.023644 19071 net.cpp:106] Creating Layer inception_3b/5x5
I1126 12:32:38.023648 19071 net.cpp:454] inception_3b/5x5 <- inception_3b/5x5_reduce
I1126 12:32:38.023653 19071 net.cpp:411] inception_3b/5x5 -> inception_3b/5x5
I1126 12:32:38.025473 19071 net.cpp:150] Setting up inception_3b/5x5
I1126 12:32:38.025490 19071 net.cpp:157] Top shape: 64 96 28 28 (4816896)
I1126 12:32:38.025493 19071 net.cpp:165] Memory required for data: 1965294592
I1126 12:32:38.025501 19071 layer_factory.hpp:76] Creating layer inception_3b/relu_5x5
I1126 12:32:38.025507 19071 net.cpp:106] Creating Layer inception_3b/relu_5x5
I1126 12:32:38.025511 19071 net.cpp:454] inception_3b/relu_5x5 <- inception_3b/5x5
I1126 12:32:38.025516 19071 net.cpp:397] inception_3b/relu_5x5 -> inception_3b/5x5 (in-place)
I1126 12:32:38.025797 19071 net.cpp:150] Setting up inception_3b/relu_5x5
I1126 12:32:38.025810 19071 net.cpp:157] Top shape: 64 96 28 28 (4816896)
I1126 12:32:38.025815 19071 net.cpp:165] Memory required for data: 1984562176
I1126 12:32:38.025818 19071 layer_factory.hpp:76] Creating layer inception_3b/pool
I1126 12:32:38.025825 19071 net.cpp:106] Creating Layer inception_3b/pool
I1126 12:32:38.025828 19071 net.cpp:454] inception_3b/pool <- inception_3a/output_inception_3a/output_0_split_3
I1126 12:32:38.025835 19071 net.cpp:411] inception_3b/pool -> inception_3b/pool
I1126 12:32:38.026006 19071 net.cpp:150] Setting up inception_3b/pool
I1126 12:32:38.026016 19071 net.cpp:157] Top shape: 64 256 28 28 (12845056)
I1126 12:32:38.026021 19071 net.cpp:165] Memory required for data: 2035942400
I1126 12:32:38.026023 19071 layer_factory.hpp:76] Creating layer inception_3b/pool_proj
I1126 12:32:38.026031 19071 net.cpp:106] Creating Layer inception_3b/pool_proj
I1126 12:32:38.026036 19071 net.cpp:454] inception_3b/pool_proj <- inception_3b/pool
I1126 12:32:38.026041 19071 net.cpp:411] inception_3b/pool_proj -> inception_3b/pool_proj
I1126 12:32:38.027040 19071 net.cpp:150] Setting up inception_3b/pool_proj
I1126 12:32:38.027055 19071 net.cpp:157] Top shape: 64 64 28 28 (3211264)
I1126 12:32:38.027058 19071 net.cpp:165] Memory required for data: 2048787456
I1126 12:32:38.027065 19071 layer_factory.hpp:76] Creating layer inception_3b/relu_pool_proj
I1126 12:32:38.027070 19071 net.cpp:106] Creating Layer inception_3b/relu_pool_proj
I1126 12:32:38.027075 19071 net.cpp:454] inception_3b/relu_pool_proj <- inception_3b/pool_proj
I1126 12:32:38.027081 19071 net.cpp:397] inception_3b/relu_pool_proj -> inception_3b/pool_proj (in-place)
I1126 12:32:38.027236 19071 net.cpp:150] Setting up inception_3b/relu_pool_proj
I1126 12:32:38.027247 19071 net.cpp:157] Top shape: 64 64 28 28 (3211264)
I1126 12:32:38.027251 19071 net.cpp:165] Memory required for data: 2061632512
I1126 12:32:38.027254 19071 layer_factory.hpp:76] Creating layer inception_3b/output
I1126 12:32:38.027261 19071 net.cpp:106] Creating Layer inception_3b/output
I1126 12:32:38.027264 19071 net.cpp:454] inception_3b/output <- inception_3b/1x1
I1126 12:32:38.027269 19071 net.cpp:454] inception_3b/output <- inception_3b/3x3
I1126 12:32:38.027273 19071 net.cpp:454] inception_3b/output <- inception_3b/5x5
I1126 12:32:38.027277 19071 net.cpp:454] inception_3b/output <- inception_3b/pool_proj
I1126 12:32:38.027281 19071 net.cpp:411] inception_3b/output -> inception_3b/output
I1126 12:32:38.027309 19071 net.cpp:150] Setting up inception_3b/output
I1126 12:32:38.027315 19071 net.cpp:157] Top shape: 64 480 28 28 (24084480)
I1126 12:32:38.027318 19071 net.cpp:165] Memory required for data: 2157970432
I1126 12:32:38.027323 19071 layer_factory.hpp:76] Creating layer pool3/3x3_s2
I1126 12:32:38.027328 19071 net.cpp:106] Creating Layer pool3/3x3_s2
I1126 12:32:38.027330 19071 net.cpp:454] pool3/3x3_s2 <- inception_3b/output
I1126 12:32:38.027335 19071 net.cpp:411] pool3/3x3_s2 -> pool3/3x3_s2
I1126 12:32:38.027644 19071 net.cpp:150] Setting up pool3/3x3_s2
I1126 12:32:38.027657 19071 net.cpp:157] Top shape: 64 480 14 14 (6021120)
I1126 12:32:38.027662 19071 net.cpp:165] Memory required for data: 2182054912
I1126 12:32:38.027665 19071 layer_factory.hpp:76] Creating layer pool3/3x3_s2_pool3/3x3_s2_0_split
I1126 12:32:38.027672 19071 net.cpp:106] Creating Layer pool3/3x3_s2_pool3/3x3_s2_0_split
I1126 12:32:38.027675 19071 net.cpp:454] pool3/3x3_s2_pool3/3x3_s2_0_split <- pool3/3x3_s2
I1126 12:32:38.027680 19071 net.cpp:411] pool3/3x3_s2_pool3/3x3_s2_0_split -> pool3/3x3_s2_pool3/3x3_s2_0_split_0
I1126 12:32:38.027688 19071 net.cpp:411] pool3/3x3_s2_pool3/3x3_s2_0_split -> pool3/3x3_s2_pool3/3x3_s2_0_split_1
I1126 12:32:38.027693 19071 net.cpp:411] pool3/3x3_s2_pool3/3x3_s2_0_split -> pool3/3x3_s2_pool3/3x3_s2_0_split_2
I1126 12:32:38.027698 19071 net.cpp:411] pool3/3x3_s2_pool3/3x3_s2_0_split -> pool3/3x3_s2_pool3/3x3_s2_0_split_3
I1126 12:32:38.027751 19071 net.cpp:150] Setting up pool3/3x3_s2_pool3/3x3_s2_0_split
I1126 12:32:38.027758 19071 net.cpp:157] Top shape: 64 480 14 14 (6021120)
I1126 12:32:38.027762 19071 net.cpp:157] Top shape: 64 480 14 14 (6021120)
I1126 12:32:38.027766 19071 net.cpp:157] Top shape: 64 480 14 14 (6021120)
I1126 12:32:38.027770 19071 net.cpp:157] Top shape: 64 480 14 14 (6021120)
I1126 12:32:38.027772 19071 net.cpp:165] Memory required for data: 2278392832
I1126 12:32:38.027776 19071 layer_factory.hpp:76] Creating layer inception_4a/1x1
I1126 12:32:38.027784 19071 net.cpp:106] Creating Layer inception_4a/1x1
I1126 12:32:38.027787 19071 net.cpp:454] inception_4a/1x1 <- pool3/3x3_s2_pool3/3x3_s2_0_split_0
I1126 12:32:38.027793 19071 net.cpp:411] inception_4a/1x1 -> inception_4a/1x1
I1126 12:32:38.029381 19071 net.cpp:150] Setting up inception_4a/1x1
I1126 12:32:38.029395 19071 net.cpp:157] Top shape: 64 192 14 14 (2408448)
I1126 12:32:38.029399 19071 net.cpp:165] Memory required for data: 2288026624
I1126 12:32:38.029407 19071 layer_factory.hpp:76] Creating layer inception_4a/relu_1x1
I1126 12:32:38.029413 19071 net.cpp:106] Creating Layer inception_4a/relu_1x1
I1126 12:32:38.029417 19071 net.cpp:454] inception_4a/relu_1x1 <- inception_4a/1x1
I1126 12:32:38.029422 19071 net.cpp:397] inception_4a/relu_1x1 -> inception_4a/1x1 (in-place)
I1126 12:32:38.029575 19071 net.cpp:150] Setting up inception_4a/relu_1x1
I1126 12:32:38.029585 19071 net.cpp:157] Top shape: 64 192 14 14 (2408448)
I1126 12:32:38.029589 19071 net.cpp:165] Memory required for data: 2297660416
I1126 12:32:38.029593 19071 layer_factory.hpp:76] Creating layer inception_4a/3x3_reduce
I1126 12:32:38.029602 19071 net.cpp:106] Creating Layer inception_4a/3x3_reduce
I1126 12:32:38.029605 19071 net.cpp:454] inception_4a/3x3_reduce <- pool3/3x3_s2_pool3/3x3_s2_0_split_1
I1126 12:32:38.029611 19071 net.cpp:411] inception_4a/3x3_reduce -> inception_4a/3x3_reduce
I1126 12:32:38.030822 19071 net.cpp:150] Setting up inception_4a/3x3_reduce
I1126 12:32:38.030835 19071 net.cpp:157] Top shape: 64 96 14 14 (1204224)
I1126 12:32:38.030839 19071 net.cpp:165] Memory required for data: 2302477312
I1126 12:32:38.030851 19071 layer_factory.hpp:76] Creating layer inception_4a/relu_3x3_reduce
I1126 12:32:38.030858 19071 net.cpp:106] Creating Layer inception_4a/relu_3x3_reduce
I1126 12:32:38.030863 19071 net.cpp:454] inception_4a/relu_3x3_reduce <- inception_4a/3x3_reduce
I1126 12:32:38.030868 19071 net.cpp:397] inception_4a/relu_3x3_reduce -> inception_4a/3x3_reduce (in-place)
I1126 12:32:38.031153 19071 net.cpp:150] Setting up inception_4a/relu_3x3_reduce
I1126 12:32:38.031167 19071 net.cpp:157] Top shape: 64 96 14 14 (1204224)
I1126 12:32:38.031170 19071 net.cpp:165] Memory required for data: 2307294208
I1126 12:32:38.031174 19071 layer_factory.hpp:76] Creating layer inception_4a/3x3
I1126 12:32:38.031183 19071 net.cpp:106] Creating Layer inception_4a/3x3
I1126 12:32:38.031186 19071 net.cpp:454] inception_4a/3x3 <- inception_4a/3x3_reduce
I1126 12:32:38.031193 19071 net.cpp:411] inception_4a/3x3 -> inception_4a/3x3
I1126 12:32:38.033546 19071 net.cpp:150] Setting up inception_4a/3x3
I1126 12:32:38.033560 19071 net.cpp:157] Top shape: 64 208 14 14 (2609152)
I1126 12:32:38.033565 19071 net.cpp:165] Memory required for data: 2317730816
I1126 12:32:38.033571 19071 layer_factory.hpp:76] Creating layer inception_4a/relu_3x3
I1126 12:32:38.033577 19071 net.cpp:106] Creating Layer inception_4a/relu_3x3
I1126 12:32:38.033581 19071 net.cpp:454] inception_4a/relu_3x3 <- inception_4a/3x3
I1126 12:32:38.033586 19071 net.cpp:397] inception_4a/relu_3x3 -> inception_4a/3x3 (in-place)
I1126 12:32:38.033864 19071 net.cpp:150] Setting up inception_4a/relu_3x3
I1126 12:32:38.033876 19071 net.cpp:157] Top shape: 64 208 14 14 (2609152)
I1126 12:32:38.033880 19071 net.cpp:165] Memory required for data: 2328167424
I1126 12:32:38.033885 19071 layer_factory.hpp:76] Creating layer inception_4a/5x5_reduce
I1126 12:32:38.033892 19071 net.cpp:106] Creating Layer inception_4a/5x5_reduce
I1126 12:32:38.033896 19071 net.cpp:454] inception_4a/5x5_reduce <- pool3/3x3_s2_pool3/3x3_s2_0_split_2
I1126 12:32:38.033902 19071 net.cpp:411] inception_4a/5x5_reduce -> inception_4a/5x5_reduce
I1126 12:32:38.034857 19071 net.cpp:150] Setting up inception_4a/5x5_reduce
I1126 12:32:38.034870 19071 net.cpp:157] Top shape: 64 16 14 14 (200704)
I1126 12:32:38.034874 19071 net.cpp:165] Memory required for data: 2328970240
I1126 12:32:38.034881 19071 layer_factory.hpp:76] Creating layer inception_4a/relu_5x5_reduce
I1126 12:32:38.034888 19071 net.cpp:106] Creating Layer inception_4a/relu_5x5_reduce
I1126 12:32:38.034891 19071 net.cpp:454] inception_4a/relu_5x5_reduce <- inception_4a/5x5_reduce
I1126 12:32:38.034898 19071 net.cpp:397] inception_4a/relu_5x5_reduce -> inception_4a/5x5_reduce (in-place)
I1126 12:32:38.035168 19071 net.cpp:150] Setting up inception_4a/relu_5x5_reduce
I1126 12:32:38.035181 19071 net.cpp:157] Top shape: 64 16 14 14 (200704)
I1126 12:32:38.035186 19071 net.cpp:165] Memory required for data: 2329773056
I1126 12:32:38.035189 19071 layer_factory.hpp:76] Creating layer inception_4a/5x5
I1126 12:32:38.035197 19071 net.cpp:106] Creating Layer inception_4a/5x5
I1126 12:32:38.035202 19071 net.cpp:454] inception_4a/5x5 <- inception_4a/5x5_reduce
I1126 12:32:38.035207 19071 net.cpp:411] inception_4a/5x5 -> inception_4a/5x5
I1126 12:32:38.036245 19071 net.cpp:150] Setting up inception_4a/5x5
I1126 12:32:38.036259 19071 net.cpp:157] Top shape: 64 48 14 14 (602112)
I1126 12:32:38.036263 19071 net.cpp:165] Memory required for data: 2332181504
I1126 12:32:38.036270 19071 layer_factory.hpp:76] Creating layer inception_4a/relu_5x5
I1126 12:32:38.036276 19071 net.cpp:106] Creating Layer inception_4a/relu_5x5
I1126 12:32:38.036280 19071 net.cpp:454] inception_4a/relu_5x5 <- inception_4a/5x5
I1126 12:32:38.036285 19071 net.cpp:397] inception_4a/relu_5x5 -> inception_4a/5x5 (in-place)
I1126 12:32:38.036563 19071 net.cpp:150] Setting up inception_4a/relu_5x5
I1126 12:32:38.036576 19071 net.cpp:157] Top shape: 64 48 14 14 (602112)
I1126 12:32:38.036579 19071 net.cpp:165] Memory required for data: 2334589952
I1126 12:32:38.036583 19071 layer_factory.hpp:76] Creating layer inception_4a/pool
I1126 12:32:38.036591 19071 net.cpp:106] Creating Layer inception_4a/pool
I1126 12:32:38.036594 19071 net.cpp:454] inception_4a/pool <- pool3/3x3_s2_pool3/3x3_s2_0_split_3
I1126 12:32:38.036599 19071 net.cpp:411] inception_4a/pool -> inception_4a/pool
I1126 12:32:38.036772 19071 net.cpp:150] Setting up inception_4a/pool
I1126 12:32:38.036782 19071 net.cpp:157] Top shape: 64 480 14 14 (6021120)
I1126 12:32:38.036787 19071 net.cpp:165] Memory required for data: 2358674432
I1126 12:32:38.036789 19071 layer_factory.hpp:76] Creating layer inception_4a/pool_proj
I1126 12:32:38.036798 19071 net.cpp:106] Creating Layer inception_4a/pool_proj
I1126 12:32:38.036802 19071 net.cpp:454] inception_4a/pool_proj <- inception_4a/pool
I1126 12:32:38.036808 19071 net.cpp:411] inception_4a/pool_proj -> inception_4a/pool_proj
I1126 12:32:38.037907 19071 net.cpp:150] Setting up inception_4a/pool_proj
I1126 12:32:38.037921 19071 net.cpp:157] Top shape: 64 64 14 14 (802816)
I1126 12:32:38.037925 19071 net.cpp:165] Memory required for data: 2361885696
I1126 12:32:38.037931 19071 layer_factory.hpp:76] Creating layer inception_4a/relu_pool_proj
I1126 12:32:38.037937 19071 net.cpp:106] Creating Layer inception_4a/relu_pool_proj
I1126 12:32:38.037941 19071 net.cpp:454] inception_4a/relu_pool_proj <- inception_4a/pool_proj
I1126 12:32:38.037947 19071 net.cpp:397] inception_4a/relu_pool_proj -> inception_4a/pool_proj (in-place)
I1126 12:32:38.038223 19071 net.cpp:150] Setting up inception_4a/relu_pool_proj
I1126 12:32:38.038235 19071 net.cpp:157] Top shape: 64 64 14 14 (802816)
I1126 12:32:38.038239 19071 net.cpp:165] Memory required for data: 2365096960
I1126 12:32:38.038242 19071 layer_factory.hpp:76] Creating layer inception_4a/output
I1126 12:32:38.038249 19071 net.cpp:106] Creating Layer inception_4a/output
I1126 12:32:38.038252 19071 net.cpp:454] inception_4a/output <- inception_4a/1x1
I1126 12:32:38.038257 19071 net.cpp:454] inception_4a/output <- inception_4a/3x3
I1126 12:32:38.038261 19071 net.cpp:454] inception_4a/output <- inception_4a/5x5
I1126 12:32:38.038265 19071 net.cpp:454] inception_4a/output <- inception_4a/pool_proj
I1126 12:32:38.038269 19071 net.cpp:411] inception_4a/output -> inception_4a/output
I1126 12:32:38.038300 19071 net.cpp:150] Setting up inception_4a/output
I1126 12:32:38.038305 19071 net.cpp:157] Top shape: 64 512 14 14 (6422528)
I1126 12:32:38.038308 19071 net.cpp:165] Memory required for data: 2390787072
I1126 12:32:38.038311 19071 layer_factory.hpp:76] Creating layer inception_4a/output_inception_4a/output_0_split
I1126 12:32:38.038317 19071 net.cpp:106] Creating Layer inception_4a/output_inception_4a/output_0_split
I1126 12:32:38.038321 19071 net.cpp:454] inception_4a/output_inception_4a/output_0_split <- inception_4a/output
I1126 12:32:38.038326 19071 net.cpp:411] inception_4a/output_inception_4a/output_0_split -> inception_4a/output_inception_4a/output_0_split_0
I1126 12:32:38.038332 19071 net.cpp:411] inception_4a/output_inception_4a/output_0_split -> inception_4a/output_inception_4a/output_0_split_1
I1126 12:32:38.038337 19071 net.cpp:411] inception_4a/output_inception_4a/output_0_split -> inception_4a/output_inception_4a/output_0_split_2
I1126 12:32:38.038343 19071 net.cpp:411] inception_4a/output_inception_4a/output_0_split -> inception_4a/output_inception_4a/output_0_split_3
I1126 12:32:38.038348 19071 net.cpp:411] inception_4a/output_inception_4a/output_0_split -> inception_4a/output_inception_4a/output_0_split_4
I1126 12:32:38.038411 19071 net.cpp:150] Setting up inception_4a/output_inception_4a/output_0_split
I1126 12:32:38.038417 19071 net.cpp:157] Top shape: 64 512 14 14 (6422528)
I1126 12:32:38.038420 19071 net.cpp:157] Top shape: 64 512 14 14 (6422528)
I1126 12:32:38.038424 19071 net.cpp:157] Top shape: 64 512 14 14 (6422528)
I1126 12:32:38.038429 19071 net.cpp:157] Top shape: 64 512 14 14 (6422528)
I1126 12:32:38.038431 19071 net.cpp:157] Top shape: 64 512 14 14 (6422528)
I1126 12:32:38.038434 19071 net.cpp:165] Memory required for data: 2519237632
I1126 12:32:38.038437 19071 layer_factory.hpp:76] Creating layer loss1/ave_pool
I1126 12:32:38.038444 19071 net.cpp:106] Creating Layer loss1/ave_pool
I1126 12:32:38.038446 19071 net.cpp:454] loss1/ave_pool <- inception_4a/output_inception_4a/output_0_split_0
I1126 12:32:38.038451 19071 net.cpp:411] loss1/ave_pool -> loss1/ave_pool
I1126 12:32:38.038612 19071 net.cpp:150] Setting up loss1/ave_pool
I1126 12:32:38.038622 19071 net.cpp:157] Top shape: 64 512 4 4 (524288)
I1126 12:32:38.038626 19071 net.cpp:165] Memory required for data: 2521334784
I1126 12:32:38.038630 19071 layer_factory.hpp:76] Creating layer loss1/conv
I1126 12:32:38.038638 19071 net.cpp:106] Creating Layer loss1/conv
I1126 12:32:38.038641 19071 net.cpp:454] loss1/conv <- loss1/ave_pool
I1126 12:32:38.038647 19071 net.cpp:411] loss1/conv -> loss1/conv
I1126 12:32:38.039971 19071 net.cpp:150] Setting up loss1/conv
I1126 12:32:38.039986 19071 net.cpp:157] Top shape: 64 128 4 4 (131072)
I1126 12:32:38.039990 19071 net.cpp:165] Memory required for data: 2521859072
I1126 12:32:38.039997 19071 layer_factory.hpp:76] Creating layer loss1/relu_conv
I1126 12:32:38.040004 19071 net.cpp:106] Creating Layer loss1/relu_conv
I1126 12:32:38.040007 19071 net.cpp:454] loss1/relu_conv <- loss1/conv
I1126 12:32:38.040012 19071 net.cpp:397] loss1/relu_conv -> loss1/conv (in-place)
I1126 12:32:38.040156 19071 net.cpp:150] Setting up loss1/relu_conv
I1126 12:32:38.040166 19071 net.cpp:157] Top shape: 64 128 4 4 (131072)
I1126 12:32:38.040169 19071 net.cpp:165] Memory required for data: 2522383360
I1126 12:32:38.040174 19071 layer_factory.hpp:76] Creating layer loss1/fc
I1126 12:32:38.040180 19071 net.cpp:106] Creating Layer loss1/fc
I1126 12:32:38.040184 19071 net.cpp:454] loss1/fc <- loss1/conv
I1126 12:32:38.040189 19071 net.cpp:411] loss1/fc -> loss1/fc
I1126 12:32:38.055739 19071 net.cpp:150] Setting up loss1/fc
I1126 12:32:38.055755 19071 net.cpp:157] Top shape: 64 1024 (65536)
I1126 12:32:38.055759 19071 net.cpp:165] Memory required for data: 2522645504
I1126 12:32:38.055766 19071 layer_factory.hpp:76] Creating layer loss1/relu_fc
I1126 12:32:38.055773 19071 net.cpp:106] Creating Layer loss1/relu_fc
I1126 12:32:38.055778 19071 net.cpp:454] loss1/relu_fc <- loss1/fc
I1126 12:32:38.055783 19071 net.cpp:397] loss1/relu_fc -> loss1/fc (in-place)
I1126 12:32:38.056088 19071 net.cpp:150] Setting up loss1/relu_fc
I1126 12:32:38.056102 19071 net.cpp:157] Top shape: 64 1024 (65536)
I1126 12:32:38.056105 19071 net.cpp:165] Memory required for data: 2522907648
I1126 12:32:38.056109 19071 layer_factory.hpp:76] Creating layer loss1/drop_fc
I1126 12:32:38.056126 19071 net.cpp:106] Creating Layer loss1/drop_fc
I1126 12:32:38.056130 19071 net.cpp:454] loss1/drop_fc <- loss1/fc
I1126 12:32:38.056135 19071 net.cpp:397] loss1/drop_fc -> loss1/fc (in-place)
I1126 12:32:38.056170 19071 net.cpp:150] Setting up loss1/drop_fc
I1126 12:32:38.056176 19071 net.cpp:157] Top shape: 64 1024 (65536)
I1126 12:32:38.056180 19071 net.cpp:165] Memory required for data: 2523169792
I1126 12:32:38.056184 19071 layer_factory.hpp:76] Creating layer loss1/classifier-attribute
I1126 12:32:38.056191 19071 net.cpp:106] Creating Layer loss1/classifier-attribute
I1126 12:32:38.056195 19071 net.cpp:454] loss1/classifier-attribute <- loss1/fc
I1126 12:32:38.056200 19071 net.cpp:411] loss1/classifier-attribute -> loss1/classifier-attribute
I1126 12:32:38.133265 19071 net.cpp:150] Setting up loss1/classifier-attribute
I1126 12:32:38.133288 19071 net.cpp:157] Top shape: 64 9999 (639936)
I1126 12:32:38.133292 19071 net.cpp:165] Memory required for data: 2525729536
I1126 12:32:38.133302 19071 layer_factory.hpp:76] Creating layer loss1/loss
I1126 12:32:38.133316 19071 net.cpp:106] Creating Layer loss1/loss
I1126 12:32:38.133322 19071 net.cpp:454] loss1/loss <- loss1/classifier-attribute
I1126 12:32:38.133328 19071 net.cpp:454] loss1/loss <- label_data_1_split_0
I1126 12:32:38.133334 19071 net.cpp:411] loss1/loss -> loss1/loss1
I1126 12:32:38.133350 19071 layer_factory.hpp:76] Creating layer loss1/loss
I1126 12:32:38.134918 19071 net.cpp:150] Setting up loss1/loss
I1126 12:32:38.134934 19071 net.cpp:157] Top shape: (1)
I1126 12:32:38.134938 19071 net.cpp:160]     with loss weight 0.3
I1126 12:32:38.134960 19071 net.cpp:165] Memory required for data: 2525729540
I1126 12:32:38.134964 19071 layer_factory.hpp:76] Creating layer inception_4b/1x1
I1126 12:32:38.134975 19071 net.cpp:106] Creating Layer inception_4b/1x1
I1126 12:32:38.134979 19071 net.cpp:454] inception_4b/1x1 <- inception_4a/output_inception_4a/output_0_split_1
I1126 12:32:38.134986 19071 net.cpp:411] inception_4b/1x1 -> inception_4b/1x1
I1126 12:32:38.136482 19071 net.cpp:150] Setting up inception_4b/1x1
I1126 12:32:38.136497 19071 net.cpp:157] Top shape: 64 160 14 14 (2007040)
I1126 12:32:38.136500 19071 net.cpp:165] Memory required for data: 2533757700
I1126 12:32:38.136507 19071 layer_factory.hpp:76] Creating layer inception_4b/relu_1x1
I1126 12:32:38.136513 19071 net.cpp:106] Creating Layer inception_4b/relu_1x1
I1126 12:32:38.136518 19071 net.cpp:454] inception_4b/relu_1x1 <- inception_4b/1x1
I1126 12:32:38.136523 19071 net.cpp:397] inception_4b/relu_1x1 -> inception_4b/1x1 (in-place)
I1126 12:32:38.136803 19071 net.cpp:150] Setting up inception_4b/relu_1x1
I1126 12:32:38.136817 19071 net.cpp:157] Top shape: 64 160 14 14 (2007040)
I1126 12:32:38.136821 19071 net.cpp:165] Memory required for data: 2541785860
I1126 12:32:38.136824 19071 layer_factory.hpp:76] Creating layer inception_4b/3x3_reduce
I1126 12:32:38.136832 19071 net.cpp:106] Creating Layer inception_4b/3x3_reduce
I1126 12:32:38.136837 19071 net.cpp:454] inception_4b/3x3_reduce <- inception_4a/output_inception_4a/output_0_split_2
I1126 12:32:38.136842 19071 net.cpp:411] inception_4b/3x3_reduce -> inception_4b/3x3_reduce
I1126 12:32:38.138566 19071 net.cpp:150] Setting up inception_4b/3x3_reduce
I1126 12:32:38.138581 19071 net.cpp:157] Top shape: 64 112 14 14 (1404928)
I1126 12:32:38.138584 19071 net.cpp:165] Memory required for data: 2547405572
I1126 12:32:38.138592 19071 layer_factory.hpp:76] Creating layer inception_4b/relu_3x3_reduce
I1126 12:32:38.138597 19071 net.cpp:106] Creating Layer inception_4b/relu_3x3_reduce
I1126 12:32:38.138602 19071 net.cpp:454] inception_4b/relu_3x3_reduce <- inception_4b/3x3_reduce
I1126 12:32:38.138607 19071 net.cpp:397] inception_4b/relu_3x3_reduce -> inception_4b/3x3_reduce (in-place)
I1126 12:32:38.138756 19071 net.cpp:150] Setting up inception_4b/relu_3x3_reduce
I1126 12:32:38.138767 19071 net.cpp:157] Top shape: 64 112 14 14 (1404928)
I1126 12:32:38.138769 19071 net.cpp:165] Memory required for data: 2553025284
I1126 12:32:38.138773 19071 layer_factory.hpp:76] Creating layer inception_4b/3x3
I1126 12:32:38.138780 19071 net.cpp:106] Creating Layer inception_4b/3x3
I1126 12:32:38.138784 19071 net.cpp:454] inception_4b/3x3 <- inception_4b/3x3_reduce
I1126 12:32:38.138790 19071 net.cpp:411] inception_4b/3x3 -> inception_4b/3x3
I1126 12:32:38.141563 19071 net.cpp:150] Setting up inception_4b/3x3
I1126 12:32:38.141578 19071 net.cpp:157] Top shape: 64 224 14 14 (2809856)
I1126 12:32:38.141582 19071 net.cpp:165] Memory required for data: 2564264708
I1126 12:32:38.141589 19071 layer_factory.hpp:76] Creating layer inception_4b/relu_3x3
I1126 12:32:38.141595 19071 net.cpp:106] Creating Layer inception_4b/relu_3x3
I1126 12:32:38.141599 19071 net.cpp:454] inception_4b/relu_3x3 <- inception_4b/3x3
I1126 12:32:38.141607 19071 net.cpp:397] inception_4b/relu_3x3 -> inception_4b/3x3 (in-place)
I1126 12:32:38.141754 19071 net.cpp:150] Setting up inception_4b/relu_3x3
I1126 12:32:38.141763 19071 net.cpp:157] Top shape: 64 224 14 14 (2809856)
I1126 12:32:38.141767 19071 net.cpp:165] Memory required for data: 2575504132
I1126 12:32:38.141770 19071 layer_factory.hpp:76] Creating layer inception_4b/5x5_reduce
I1126 12:32:38.141778 19071 net.cpp:106] Creating Layer inception_4b/5x5_reduce
I1126 12:32:38.141782 19071 net.cpp:454] inception_4b/5x5_reduce <- inception_4a/output_inception_4a/output_0_split_3
I1126 12:32:38.141788 19071 net.cpp:411] inception_4b/5x5_reduce -> inception_4b/5x5_reduce
I1126 12:32:38.142783 19071 net.cpp:150] Setting up inception_4b/5x5_reduce
I1126 12:32:38.142802 19071 net.cpp:157] Top shape: 64 24 14 14 (301056)
I1126 12:32:38.142807 19071 net.cpp:165] Memory required for data: 2576708356
I1126 12:32:38.142813 19071 layer_factory.hpp:76] Creating layer inception_4b/relu_5x5_reduce
I1126 12:32:38.142819 19071 net.cpp:106] Creating Layer inception_4b/relu_5x5_reduce
I1126 12:32:38.142825 19071 net.cpp:454] inception_4b/relu_5x5_reduce <- inception_4b/5x5_reduce
I1126 12:32:38.142830 19071 net.cpp:397] inception_4b/relu_5x5_reduce -> inception_4b/5x5_reduce (in-place)
I1126 12:32:38.143229 19071 net.cpp:150] Setting up inception_4b/relu_5x5_reduce
I1126 12:32:38.143244 19071 net.cpp:157] Top shape: 64 24 14 14 (301056)
I1126 12:32:38.143246 19071 net.cpp:165] Memory required for data: 2577912580
I1126 12:32:38.143250 19071 layer_factory.hpp:76] Creating layer inception_4b/5x5
I1126 12:32:38.143259 19071 net.cpp:106] Creating Layer inception_4b/5x5
I1126 12:32:38.143262 19071 net.cpp:454] inception_4b/5x5 <- inception_4b/5x5_reduce
I1126 12:32:38.143268 19071 net.cpp:411] inception_4b/5x5 -> inception_4b/5x5
I1126 12:32:38.144479 19071 net.cpp:150] Setting up inception_4b/5x5
I1126 12:32:38.144493 19071 net.cpp:157] Top shape: 64 64 14 14 (802816)
I1126 12:32:38.144497 19071 net.cpp:165] Memory required for data: 2581123844
I1126 12:32:38.144503 19071 layer_factory.hpp:76] Creating layer inception_4b/relu_5x5
I1126 12:32:38.144510 19071 net.cpp:106] Creating Layer inception_4b/relu_5x5
I1126 12:32:38.144513 19071 net.cpp:454] inception_4b/relu_5x5 <- inception_4b/5x5
I1126 12:32:38.144518 19071 net.cpp:397] inception_4b/relu_5x5 -> inception_4b/5x5 (in-place)
I1126 12:32:38.144665 19071 net.cpp:150] Setting up inception_4b/relu_5x5
I1126 12:32:38.144675 19071 net.cpp:157] Top shape: 64 64 14 14 (802816)
I1126 12:32:38.144678 19071 net.cpp:165] Memory required for data: 2584335108
I1126 12:32:38.144682 19071 layer_factory.hpp:76] Creating layer inception_4b/pool
I1126 12:32:38.144690 19071 net.cpp:106] Creating Layer inception_4b/pool
I1126 12:32:38.144693 19071 net.cpp:454] inception_4b/pool <- inception_4a/output_inception_4a/output_0_split_4
I1126 12:32:38.144698 19071 net.cpp:411] inception_4b/pool -> inception_4b/pool
I1126 12:32:38.145026 19071 net.cpp:150] Setting up inception_4b/pool
I1126 12:32:38.145041 19071 net.cpp:157] Top shape: 64 512 14 14 (6422528)
I1126 12:32:38.145045 19071 net.cpp:165] Memory required for data: 2610025220
I1126 12:32:38.145048 19071 layer_factory.hpp:76] Creating layer inception_4b/pool_proj
I1126 12:32:38.145057 19071 net.cpp:106] Creating Layer inception_4b/pool_proj
I1126 12:32:38.145061 19071 net.cpp:454] inception_4b/pool_proj <- inception_4b/pool
I1126 12:32:38.145067 19071 net.cpp:411] inception_4b/pool_proj -> inception_4b/pool_proj
I1126 12:32:38.146075 19071 net.cpp:150] Setting up inception_4b/pool_proj
I1126 12:32:38.146088 19071 net.cpp:157] Top shape: 64 64 14 14 (802816)
I1126 12:32:38.146092 19071 net.cpp:165] Memory required for data: 2613236484
I1126 12:32:38.146098 19071 layer_factory.hpp:76] Creating layer inception_4b/relu_pool_proj
I1126 12:32:38.146106 19071 net.cpp:106] Creating Layer inception_4b/relu_pool_proj
I1126 12:32:38.146109 19071 net.cpp:454] inception_4b/relu_pool_proj <- inception_4b/pool_proj
I1126 12:32:38.146114 19071 net.cpp:397] inception_4b/relu_pool_proj -> inception_4b/pool_proj (in-place)
I1126 12:32:38.146394 19071 net.cpp:150] Setting up inception_4b/relu_pool_proj
I1126 12:32:38.146409 19071 net.cpp:157] Top shape: 64 64 14 14 (802816)
I1126 12:32:38.146411 19071 net.cpp:165] Memory required for data: 2616447748
I1126 12:32:38.146415 19071 layer_factory.hpp:76] Creating layer inception_4b/output
I1126 12:32:38.146422 19071 net.cpp:106] Creating Layer inception_4b/output
I1126 12:32:38.146426 19071 net.cpp:454] inception_4b/output <- inception_4b/1x1
I1126 12:32:38.146431 19071 net.cpp:454] inception_4b/output <- inception_4b/3x3
I1126 12:32:38.146435 19071 net.cpp:454] inception_4b/output <- inception_4b/5x5
I1126 12:32:38.146440 19071 net.cpp:454] inception_4b/output <- inception_4b/pool_proj
I1126 12:32:38.146443 19071 net.cpp:411] inception_4b/output -> inception_4b/output
I1126 12:32:38.146477 19071 net.cpp:150] Setting up inception_4b/output
I1126 12:32:38.146483 19071 net.cpp:157] Top shape: 64 512 14 14 (6422528)
I1126 12:32:38.146486 19071 net.cpp:165] Memory required for data: 2642137860
I1126 12:32:38.146489 19071 layer_factory.hpp:76] Creating layer inception_4b/output_inception_4b/output_0_split
I1126 12:32:38.146495 19071 net.cpp:106] Creating Layer inception_4b/output_inception_4b/output_0_split
I1126 12:32:38.146498 19071 net.cpp:454] inception_4b/output_inception_4b/output_0_split <- inception_4b/output
I1126 12:32:38.146504 19071 net.cpp:411] inception_4b/output_inception_4b/output_0_split -> inception_4b/output_inception_4b/output_0_split_0
I1126 12:32:38.146510 19071 net.cpp:411] inception_4b/output_inception_4b/output_0_split -> inception_4b/output_inception_4b/output_0_split_1
I1126 12:32:38.146517 19071 net.cpp:411] inception_4b/output_inception_4b/output_0_split -> inception_4b/output_inception_4b/output_0_split_2
I1126 12:32:38.146522 19071 net.cpp:411] inception_4b/output_inception_4b/output_0_split -> inception_4b/output_inception_4b/output_0_split_3
I1126 12:32:38.146584 19071 net.cpp:150] Setting up inception_4b/output_inception_4b/output_0_split
I1126 12:32:38.146592 19071 net.cpp:157] Top shape: 64 512 14 14 (6422528)
I1126 12:32:38.146596 19071 net.cpp:157] Top shape: 64 512 14 14 (6422528)
I1126 12:32:38.146600 19071 net.cpp:157] Top shape: 64 512 14 14 (6422528)
I1126 12:32:38.146603 19071 net.cpp:157] Top shape: 64 512 14 14 (6422528)
I1126 12:32:38.146606 19071 net.cpp:165] Memory required for data: 2744898308
I1126 12:32:38.146610 19071 layer_factory.hpp:76] Creating layer inception_4c/1x1
I1126 12:32:38.146618 19071 net.cpp:106] Creating Layer inception_4c/1x1
I1126 12:32:38.146621 19071 net.cpp:454] inception_4c/1x1 <- inception_4b/output_inception_4b/output_0_split_0
I1126 12:32:38.146627 19071 net.cpp:411] inception_4c/1x1 -> inception_4c/1x1
I1126 12:32:38.147964 19071 net.cpp:150] Setting up inception_4c/1x1
I1126 12:32:38.147979 19071 net.cpp:157] Top shape: 64 128 14 14 (1605632)
I1126 12:32:38.147982 19071 net.cpp:165] Memory required for data: 2751320836
I1126 12:32:38.147989 19071 layer_factory.hpp:76] Creating layer inception_4c/relu_1x1
I1126 12:32:38.147995 19071 net.cpp:106] Creating Layer inception_4c/relu_1x1
I1126 12:32:38.148000 19071 net.cpp:454] inception_4c/relu_1x1 <- inception_4c/1x1
I1126 12:32:38.148005 19071 net.cpp:397] inception_4c/relu_1x1 -> inception_4c/1x1 (in-place)
I1126 12:32:38.148152 19071 net.cpp:150] Setting up inception_4c/relu_1x1
I1126 12:32:38.148162 19071 net.cpp:157] Top shape: 64 128 14 14 (1605632)
I1126 12:32:38.148165 19071 net.cpp:165] Memory required for data: 2757743364
I1126 12:32:38.148169 19071 layer_factory.hpp:76] Creating layer inception_4c/3x3_reduce
I1126 12:32:38.148177 19071 net.cpp:106] Creating Layer inception_4c/3x3_reduce
I1126 12:32:38.148181 19071 net.cpp:454] inception_4c/3x3_reduce <- inception_4b/output_inception_4b/output_0_split_1
I1126 12:32:38.148186 19071 net.cpp:411] inception_4c/3x3_reduce -> inception_4c/3x3_reduce
I1126 12:32:38.149520 19071 net.cpp:150] Setting up inception_4c/3x3_reduce
I1126 12:32:38.149534 19071 net.cpp:157] Top shape: 64 128 14 14 (1605632)
I1126 12:32:38.149538 19071 net.cpp:165] Memory required for data: 2764165892
I1126 12:32:38.149544 19071 layer_factory.hpp:76] Creating layer inception_4c/relu_3x3_reduce
I1126 12:32:38.149550 19071 net.cpp:106] Creating Layer inception_4c/relu_3x3_reduce
I1126 12:32:38.149554 19071 net.cpp:454] inception_4c/relu_3x3_reduce <- inception_4c/3x3_reduce
I1126 12:32:38.149559 19071 net.cpp:397] inception_4c/relu_3x3_reduce -> inception_4c/3x3_reduce (in-place)
I1126 12:32:38.149842 19071 net.cpp:150] Setting up inception_4c/relu_3x3_reduce
I1126 12:32:38.149855 19071 net.cpp:157] Top shape: 64 128 14 14 (1605632)
I1126 12:32:38.149859 19071 net.cpp:165] Memory required for data: 2770588420
I1126 12:32:38.149863 19071 layer_factory.hpp:76] Creating layer inception_4c/3x3
I1126 12:32:38.149870 19071 net.cpp:106] Creating Layer inception_4c/3x3
I1126 12:32:38.149874 19071 net.cpp:454] inception_4c/3x3 <- inception_4c/3x3_reduce
I1126 12:32:38.149880 19071 net.cpp:411] inception_4c/3x3 -> inception_4c/3x3
I1126 12:32:38.152997 19071 net.cpp:150] Setting up inception_4c/3x3
I1126 12:32:38.153012 19071 net.cpp:157] Top shape: 64 256 14 14 (3211264)
I1126 12:32:38.153017 19071 net.cpp:165] Memory required for data: 2783433476
I1126 12:32:38.153033 19071 layer_factory.hpp:76] Creating layer inception_4c/relu_3x3
I1126 12:32:38.153039 19071 net.cpp:106] Creating Layer inception_4c/relu_3x3
I1126 12:32:38.153043 19071 net.cpp:454] inception_4c/relu_3x3 <- inception_4c/3x3
I1126 12:32:38.153048 19071 net.cpp:397] inception_4c/relu_3x3 -> inception_4c/3x3 (in-place)
I1126 12:32:38.153329 19071 net.cpp:150] Setting up inception_4c/relu_3x3
I1126 12:32:38.153343 19071 net.cpp:157] Top shape: 64 256 14 14 (3211264)
I1126 12:32:38.153347 19071 net.cpp:165] Memory required for data: 2796278532
I1126 12:32:38.153350 19071 layer_factory.hpp:76] Creating layer inception_4c/5x5_reduce
I1126 12:32:38.153359 19071 net.cpp:106] Creating Layer inception_4c/5x5_reduce
I1126 12:32:38.153363 19071 net.cpp:454] inception_4c/5x5_reduce <- inception_4b/output_inception_4b/output_0_split_2
I1126 12:32:38.153369 19071 net.cpp:411] inception_4c/5x5_reduce -> inception_4c/5x5_reduce
I1126 12:32:38.154372 19071 net.cpp:150] Setting up inception_4c/5x5_reduce
I1126 12:32:38.154386 19071 net.cpp:157] Top shape: 64 24 14 14 (301056)
I1126 12:32:38.154391 19071 net.cpp:165] Memory required for data: 2797482756
I1126 12:32:38.154397 19071 layer_factory.hpp:76] Creating layer inception_4c/relu_5x5_reduce
I1126 12:32:38.154403 19071 net.cpp:106] Creating Layer inception_4c/relu_5x5_reduce
I1126 12:32:38.154407 19071 net.cpp:454] inception_4c/relu_5x5_reduce <- inception_4c/5x5_reduce
I1126 12:32:38.154413 19071 net.cpp:397] inception_4c/relu_5x5_reduce -> inception_4c/5x5_reduce (in-place)
I1126 12:32:38.154583 19071 net.cpp:150] Setting up inception_4c/relu_5x5_reduce
I1126 12:32:38.154593 19071 net.cpp:157] Top shape: 64 24 14 14 (301056)
I1126 12:32:38.154597 19071 net.cpp:165] Memory required for data: 2798686980
I1126 12:32:38.154602 19071 layer_factory.hpp:76] Creating layer inception_4c/5x5
I1126 12:32:38.154608 19071 net.cpp:106] Creating Layer inception_4c/5x5
I1126 12:32:38.154613 19071 net.cpp:454] inception_4c/5x5 <- inception_4c/5x5_reduce
I1126 12:32:38.154618 19071 net.cpp:411] inception_4c/5x5 -> inception_4c/5x5
I1126 12:32:38.156204 19071 net.cpp:150] Setting up inception_4c/5x5
I1126 12:32:38.156219 19071 net.cpp:157] Top shape: 64 64 14 14 (802816)
I1126 12:32:38.156224 19071 net.cpp:165] Memory required for data: 2801898244
I1126 12:32:38.156230 19071 layer_factory.hpp:76] Creating layer inception_4c/relu_5x5
I1126 12:32:38.156235 19071 net.cpp:106] Creating Layer inception_4c/relu_5x5
I1126 12:32:38.156240 19071 net.cpp:454] inception_4c/relu_5x5 <- inception_4c/5x5
I1126 12:32:38.156245 19071 net.cpp:397] inception_4c/relu_5x5 -> inception_4c/5x5 (in-place)
I1126 12:32:38.156534 19071 net.cpp:150] Setting up inception_4c/relu_5x5
I1126 12:32:38.156548 19071 net.cpp:157] Top shape: 64 64 14 14 (802816)
I1126 12:32:38.156550 19071 net.cpp:165] Memory required for data: 2805109508
I1126 12:32:38.156554 19071 layer_factory.hpp:76] Creating layer inception_4c/pool
I1126 12:32:38.156561 19071 net.cpp:106] Creating Layer inception_4c/pool
I1126 12:32:38.156565 19071 net.cpp:454] inception_4c/pool <- inception_4b/output_inception_4b/output_0_split_3
I1126 12:32:38.156570 19071 net.cpp:411] inception_4c/pool -> inception_4c/pool
I1126 12:32:38.156751 19071 net.cpp:150] Setting up inception_4c/pool
I1126 12:32:38.156761 19071 net.cpp:157] Top shape: 64 512 14 14 (6422528)
I1126 12:32:38.156765 19071 net.cpp:165] Memory required for data: 2830799620
I1126 12:32:38.156769 19071 layer_factory.hpp:76] Creating layer inception_4c/pool_proj
I1126 12:32:38.156780 19071 net.cpp:106] Creating Layer inception_4c/pool_proj
I1126 12:32:38.156785 19071 net.cpp:454] inception_4c/pool_proj <- inception_4c/pool
I1126 12:32:38.156791 19071 net.cpp:411] inception_4c/pool_proj -> inception_4c/pool_proj
I1126 12:32:38.158037 19071 net.cpp:150] Setting up inception_4c/pool_proj
I1126 12:32:38.158051 19071 net.cpp:157] Top shape: 64 64 14 14 (802816)
I1126 12:32:38.158056 19071 net.cpp:165] Memory required for data: 2834010884
I1126 12:32:38.158061 19071 layer_factory.hpp:76] Creating layer inception_4c/relu_pool_proj
I1126 12:32:38.158067 19071 net.cpp:106] Creating Layer inception_4c/relu_pool_proj
I1126 12:32:38.158072 19071 net.cpp:454] inception_4c/relu_pool_proj <- inception_4c/pool_proj
I1126 12:32:38.158077 19071 net.cpp:397] inception_4c/relu_pool_proj -> inception_4c/pool_proj (in-place)
I1126 12:32:38.158360 19071 net.cpp:150] Setting up inception_4c/relu_pool_proj
I1126 12:32:38.158373 19071 net.cpp:157] Top shape: 64 64 14 14 (802816)
I1126 12:32:38.158376 19071 net.cpp:165] Memory required for data: 2837222148
I1126 12:32:38.158380 19071 layer_factory.hpp:76] Creating layer inception_4c/output
I1126 12:32:38.158387 19071 net.cpp:106] Creating Layer inception_4c/output
I1126 12:32:38.158391 19071 net.cpp:454] inception_4c/output <- inception_4c/1x1
I1126 12:32:38.158396 19071 net.cpp:454] inception_4c/output <- inception_4c/3x3
I1126 12:32:38.158399 19071 net.cpp:454] inception_4c/output <- inception_4c/5x5
I1126 12:32:38.158403 19071 net.cpp:454] inception_4c/output <- inception_4c/pool_proj
I1126 12:32:38.158408 19071 net.cpp:411] inception_4c/output -> inception_4c/output
I1126 12:32:38.158439 19071 net.cpp:150] Setting up inception_4c/output
I1126 12:32:38.158448 19071 net.cpp:157] Top shape: 64 512 14 14 (6422528)
I1126 12:32:38.158452 19071 net.cpp:165] Memory required for data: 2862912260
I1126 12:32:38.158455 19071 layer_factory.hpp:76] Creating layer inception_4c/output_inception_4c/output_0_split
I1126 12:32:38.158462 19071 net.cpp:106] Creating Layer inception_4c/output_inception_4c/output_0_split
I1126 12:32:38.158464 19071 net.cpp:454] inception_4c/output_inception_4c/output_0_split <- inception_4c/output
I1126 12:32:38.158469 19071 net.cpp:411] inception_4c/output_inception_4c/output_0_split -> inception_4c/output_inception_4c/output_0_split_0
I1126 12:32:38.158475 19071 net.cpp:411] inception_4c/output_inception_4c/output_0_split -> inception_4c/output_inception_4c/output_0_split_1
I1126 12:32:38.158481 19071 net.cpp:411] inception_4c/output_inception_4c/output_0_split -> inception_4c/output_inception_4c/output_0_split_2
I1126 12:32:38.158490 19071 net.cpp:411] inception_4c/output_inception_4c/output_0_split -> inception_4c/output_inception_4c/output_0_split_3
I1126 12:32:38.158555 19071 net.cpp:150] Setting up inception_4c/output_inception_4c/output_0_split
I1126 12:32:38.158563 19071 net.cpp:157] Top shape: 64 512 14 14 (6422528)
I1126 12:32:38.158567 19071 net.cpp:157] Top shape: 64 512 14 14 (6422528)
I1126 12:32:38.158571 19071 net.cpp:157] Top shape: 64 512 14 14 (6422528)
I1126 12:32:38.158576 19071 net.cpp:157] Top shape: 64 512 14 14 (6422528)
I1126 12:32:38.158577 19071 net.cpp:165] Memory required for data: 2965672708
I1126 12:32:38.158581 19071 layer_factory.hpp:76] Creating layer inception_4d/1x1
I1126 12:32:38.158588 19071 net.cpp:106] Creating Layer inception_4d/1x1
I1126 12:32:38.158592 19071 net.cpp:454] inception_4d/1x1 <- inception_4c/output_inception_4c/output_0_split_0
I1126 12:32:38.158597 19071 net.cpp:411] inception_4d/1x1 -> inception_4d/1x1
I1126 12:32:38.159778 19071 net.cpp:150] Setting up inception_4d/1x1
I1126 12:32:38.159795 19071 net.cpp:157] Top shape: 64 112 14 14 (1404928)
I1126 12:32:38.159798 19071 net.cpp:165] Memory required for data: 2971292420
I1126 12:32:38.159804 19071 layer_factory.hpp:76] Creating layer inception_4d/relu_1x1
I1126 12:32:38.159811 19071 net.cpp:106] Creating Layer inception_4d/relu_1x1
I1126 12:32:38.159816 19071 net.cpp:454] inception_4d/relu_1x1 <- inception_4d/1x1
I1126 12:32:38.159821 19071 net.cpp:397] inception_4d/relu_1x1 -> inception_4d/1x1 (in-place)
I1126 12:32:38.160109 19071 net.cpp:150] Setting up inception_4d/relu_1x1
I1126 12:32:38.160121 19071 net.cpp:157] Top shape: 64 112 14 14 (1404928)
I1126 12:32:38.160125 19071 net.cpp:165] Memory required for data: 2976912132
I1126 12:32:38.160130 19071 layer_factory.hpp:76] Creating layer inception_4d/3x3_reduce
I1126 12:32:38.160137 19071 net.cpp:106] Creating Layer inception_4d/3x3_reduce
I1126 12:32:38.160141 19071 net.cpp:454] inception_4d/3x3_reduce <- inception_4c/output_inception_4c/output_0_split_1
I1126 12:32:38.160148 19071 net.cpp:411] inception_4d/3x3_reduce -> inception_4d/3x3_reduce
I1126 12:32:38.161569 19071 net.cpp:150] Setting up inception_4d/3x3_reduce
I1126 12:32:38.161583 19071 net.cpp:157] Top shape: 64 144 14 14 (1806336)
I1126 12:32:38.161587 19071 net.cpp:165] Memory required for data: 2984137476
I1126 12:32:38.161594 19071 layer_factory.hpp:76] Creating layer inception_4d/relu_3x3_reduce
I1126 12:32:38.161599 19071 net.cpp:106] Creating Layer inception_4d/relu_3x3_reduce
I1126 12:32:38.161604 19071 net.cpp:454] inception_4d/relu_3x3_reduce <- inception_4d/3x3_reduce
I1126 12:32:38.161609 19071 net.cpp:397] inception_4d/relu_3x3_reduce -> inception_4d/3x3_reduce (in-place)
I1126 12:32:38.161759 19071 net.cpp:150] Setting up inception_4d/relu_3x3_reduce
I1126 12:32:38.161769 19071 net.cpp:157] Top shape: 64 144 14 14 (1806336)
I1126 12:32:38.161773 19071 net.cpp:165] Memory required for data: 2991362820
I1126 12:32:38.161777 19071 layer_factory.hpp:76] Creating layer inception_4d/3x3
I1126 12:32:38.161783 19071 net.cpp:106] Creating Layer inception_4d/3x3
I1126 12:32:38.161787 19071 net.cpp:454] inception_4d/3x3 <- inception_4d/3x3_reduce
I1126 12:32:38.161793 19071 net.cpp:411] inception_4d/3x3 -> inception_4d/3x3
I1126 12:32:38.165617 19071 net.cpp:150] Setting up inception_4d/3x3
I1126 12:32:38.165632 19071 net.cpp:157] Top shape: 64 288 14 14 (3612672)
I1126 12:32:38.165637 19071 net.cpp:165] Memory required for data: 3005813508
I1126 12:32:38.165643 19071 layer_factory.hpp:76] Creating layer inception_4d/relu_3x3
I1126 12:32:38.165649 19071 net.cpp:106] Creating Layer inception_4d/relu_3x3
I1126 12:32:38.165653 19071 net.cpp:454] inception_4d/relu_3x3 <- inception_4d/3x3
I1126 12:32:38.165658 19071 net.cpp:397] inception_4d/relu_3x3 -> inception_4d/3x3 (in-place)
I1126 12:32:38.165943 19071 net.cpp:150] Setting up inception_4d/relu_3x3
I1126 12:32:38.165956 19071 net.cpp:157] Top shape: 64 288 14 14 (3612672)
I1126 12:32:38.165961 19071 net.cpp:165] Memory required for data: 3020264196
I1126 12:32:38.165963 19071 layer_factory.hpp:76] Creating layer inception_4d/5x5_reduce
I1126 12:32:38.165971 19071 net.cpp:106] Creating Layer inception_4d/5x5_reduce
I1126 12:32:38.165976 19071 net.cpp:454] inception_4d/5x5_reduce <- inception_4c/output_inception_4c/output_0_split_2
I1126 12:32:38.165982 19071 net.cpp:411] inception_4d/5x5_reduce -> inception_4d/5x5_reduce
I1126 12:32:38.166920 19071 net.cpp:150] Setting up inception_4d/5x5_reduce
I1126 12:32:38.166934 19071 net.cpp:157] Top shape: 64 32 14 14 (401408)
I1126 12:32:38.166939 19071 net.cpp:165] Memory required for data: 3021869828
I1126 12:32:38.166944 19071 layer_factory.hpp:76] Creating layer inception_4d/relu_5x5_reduce
I1126 12:32:38.166950 19071 net.cpp:106] Creating Layer inception_4d/relu_5x5_reduce
I1126 12:32:38.166954 19071 net.cpp:454] inception_4d/relu_5x5_reduce <- inception_4d/5x5_reduce
I1126 12:32:38.166960 19071 net.cpp:397] inception_4d/relu_5x5_reduce -> inception_4d/5x5_reduce (in-place)
I1126 12:32:38.167248 19071 net.cpp:150] Setting up inception_4d/relu_5x5_reduce
I1126 12:32:38.167260 19071 net.cpp:157] Top shape: 64 32 14 14 (401408)
I1126 12:32:38.167263 19071 net.cpp:165] Memory required for data: 3023475460
I1126 12:32:38.167268 19071 layer_factory.hpp:76] Creating layer inception_4d/5x5
I1126 12:32:38.167275 19071 net.cpp:106] Creating Layer inception_4d/5x5
I1126 12:32:38.167279 19071 net.cpp:454] inception_4d/5x5 <- inception_4d/5x5_reduce
I1126 12:32:38.167285 19071 net.cpp:411] inception_4d/5x5 -> inception_4d/5x5
I1126 12:32:38.168587 19071 net.cpp:150] Setting up inception_4d/5x5
I1126 12:32:38.168601 19071 net.cpp:157] Top shape: 64 64 14 14 (802816)
I1126 12:32:38.168604 19071 net.cpp:165] Memory required for data: 3026686724
I1126 12:32:38.168611 19071 layer_factory.hpp:76] Creating layer inception_4d/relu_5x5
I1126 12:32:38.168617 19071 net.cpp:106] Creating Layer inception_4d/relu_5x5
I1126 12:32:38.168620 19071 net.cpp:454] inception_4d/relu_5x5 <- inception_4d/5x5
I1126 12:32:38.168627 19071 net.cpp:397] inception_4d/relu_5x5 -> inception_4d/5x5 (in-place)
I1126 12:32:38.168792 19071 net.cpp:150] Setting up inception_4d/relu_5x5
I1126 12:32:38.168803 19071 net.cpp:157] Top shape: 64 64 14 14 (802816)
I1126 12:32:38.168807 19071 net.cpp:165] Memory required for data: 3029897988
I1126 12:32:38.168810 19071 layer_factory.hpp:76] Creating layer inception_4d/pool
I1126 12:32:38.168817 19071 net.cpp:106] Creating Layer inception_4d/pool
I1126 12:32:38.168820 19071 net.cpp:454] inception_4d/pool <- inception_4c/output_inception_4c/output_0_split_3
I1126 12:32:38.168825 19071 net.cpp:411] inception_4d/pool -> inception_4d/pool
I1126 12:32:38.169160 19071 net.cpp:150] Setting up inception_4d/pool
I1126 12:32:38.169173 19071 net.cpp:157] Top shape: 64 512 14 14 (6422528)
I1126 12:32:38.169176 19071 net.cpp:165] Memory required for data: 3055588100
I1126 12:32:38.169180 19071 layer_factory.hpp:76] Creating layer inception_4d/pool_proj
I1126 12:32:38.169189 19071 net.cpp:106] Creating Layer inception_4d/pool_proj
I1126 12:32:38.169193 19071 net.cpp:454] inception_4d/pool_proj <- inception_4d/pool
I1126 12:32:38.169199 19071 net.cpp:411] inception_4d/pool_proj -> inception_4d/pool_proj
I1126 12:32:38.170423 19071 net.cpp:150] Setting up inception_4d/pool_proj
I1126 12:32:38.170438 19071 net.cpp:157] Top shape: 64 64 14 14 (802816)
I1126 12:32:38.170441 19071 net.cpp:165] Memory required for data: 3058799364
I1126 12:32:38.170447 19071 layer_factory.hpp:76] Creating layer inception_4d/relu_pool_proj
I1126 12:32:38.170454 19071 net.cpp:106] Creating Layer inception_4d/relu_pool_proj
I1126 12:32:38.170457 19071 net.cpp:454] inception_4d/relu_pool_proj <- inception_4d/pool_proj
I1126 12:32:38.170464 19071 net.cpp:397] inception_4d/relu_pool_proj -> inception_4d/pool_proj (in-place)
I1126 12:32:38.170629 19071 net.cpp:150] Setting up inception_4d/relu_pool_proj
I1126 12:32:38.170639 19071 net.cpp:157] Top shape: 64 64 14 14 (802816)
I1126 12:32:38.170642 19071 net.cpp:165] Memory required for data: 3062010628
I1126 12:32:38.170645 19071 layer_factory.hpp:76] Creating layer inception_4d/output
I1126 12:32:38.170652 19071 net.cpp:106] Creating Layer inception_4d/output
I1126 12:32:38.170656 19071 net.cpp:454] inception_4d/output <- inception_4d/1x1
I1126 12:32:38.170661 19071 net.cpp:454] inception_4d/output <- inception_4d/3x3
I1126 12:32:38.170665 19071 net.cpp:454] inception_4d/output <- inception_4d/5x5
I1126 12:32:38.170670 19071 net.cpp:454] inception_4d/output <- inception_4d/pool_proj
I1126 12:32:38.170673 19071 net.cpp:411] inception_4d/output -> inception_4d/output
I1126 12:32:38.170711 19071 net.cpp:150] Setting up inception_4d/output
I1126 12:32:38.170717 19071 net.cpp:157] Top shape: 64 528 14 14 (6623232)
I1126 12:32:38.170719 19071 net.cpp:165] Memory required for data: 3088503556
I1126 12:32:38.170722 19071 layer_factory.hpp:76] Creating layer inception_4d/output_inception_4d/output_0_split
I1126 12:32:38.170728 19071 net.cpp:106] Creating Layer inception_4d/output_inception_4d/output_0_split
I1126 12:32:38.170732 19071 net.cpp:454] inception_4d/output_inception_4d/output_0_split <- inception_4d/output
I1126 12:32:38.170737 19071 net.cpp:411] inception_4d/output_inception_4d/output_0_split -> inception_4d/output_inception_4d/output_0_split_0
I1126 12:32:38.170744 19071 net.cpp:411] inception_4d/output_inception_4d/output_0_split -> inception_4d/output_inception_4d/output_0_split_1
I1126 12:32:38.170749 19071 net.cpp:411] inception_4d/output_inception_4d/output_0_split -> inception_4d/output_inception_4d/output_0_split_2
I1126 12:32:38.170755 19071 net.cpp:411] inception_4d/output_inception_4d/output_0_split -> inception_4d/output_inception_4d/output_0_split_3
I1126 12:32:38.170760 19071 net.cpp:411] inception_4d/output_inception_4d/output_0_split -> inception_4d/output_inception_4d/output_0_split_4
I1126 12:32:38.170876 19071 net.cpp:150] Setting up inception_4d/output_inception_4d/output_0_split
I1126 12:32:38.170887 19071 net.cpp:157] Top shape: 64 528 14 14 (6623232)
I1126 12:32:38.170892 19071 net.cpp:157] Top shape: 64 528 14 14 (6623232)
I1126 12:32:38.170896 19071 net.cpp:157] Top shape: 64 528 14 14 (6623232)
I1126 12:32:38.170898 19071 net.cpp:157] Top shape: 64 528 14 14 (6623232)
I1126 12:32:38.170902 19071 net.cpp:157] Top shape: 64 528 14 14 (6623232)
I1126 12:32:38.170904 19071 net.cpp:165] Memory required for data: 3220968196
I1126 12:32:38.170908 19071 layer_factory.hpp:76] Creating layer loss2/ave_pool
I1126 12:32:38.170914 19071 net.cpp:106] Creating Layer loss2/ave_pool
I1126 12:32:38.170917 19071 net.cpp:454] loss2/ave_pool <- inception_4d/output_inception_4d/output_0_split_0
I1126 12:32:38.170922 19071 net.cpp:411] loss2/ave_pool -> loss2/ave_pool
I1126 12:32:38.171258 19071 net.cpp:150] Setting up loss2/ave_pool
I1126 12:32:38.171272 19071 net.cpp:157] Top shape: 64 528 4 4 (540672)
I1126 12:32:38.171274 19071 net.cpp:165] Memory required for data: 3223130884
I1126 12:32:38.171278 19071 layer_factory.hpp:76] Creating layer loss2/conv
I1126 12:32:38.171288 19071 net.cpp:106] Creating Layer loss2/conv
I1126 12:32:38.171291 19071 net.cpp:454] loss2/conv <- loss2/ave_pool
I1126 12:32:38.171298 19071 net.cpp:411] loss2/conv -> loss2/conv
I1126 12:32:38.173060 19071 net.cpp:150] Setting up loss2/conv
I1126 12:32:38.173074 19071 net.cpp:157] Top shape: 64 128 4 4 (131072)
I1126 12:32:38.173079 19071 net.cpp:165] Memory required for data: 3223655172
I1126 12:32:38.173085 19071 layer_factory.hpp:76] Creating layer loss2/relu_conv
I1126 12:32:38.173092 19071 net.cpp:106] Creating Layer loss2/relu_conv
I1126 12:32:38.173096 19071 net.cpp:454] loss2/relu_conv <- loss2/conv
I1126 12:32:38.173104 19071 net.cpp:397] loss2/relu_conv -> loss2/conv (in-place)
I1126 12:32:38.173527 19071 net.cpp:150] Setting up loss2/relu_conv
I1126 12:32:38.173539 19071 net.cpp:157] Top shape: 64 128 4 4 (131072)
I1126 12:32:38.173542 19071 net.cpp:165] Memory required for data: 3224179460
I1126 12:32:38.173547 19071 layer_factory.hpp:76] Creating layer loss2/fc
I1126 12:32:38.173554 19071 net.cpp:106] Creating Layer loss2/fc
I1126 12:32:38.173558 19071 net.cpp:454] loss2/fc <- loss2/conv
I1126 12:32:38.173565 19071 net.cpp:411] loss2/fc -> loss2/fc
I1126 12:32:38.189052 19071 net.cpp:150] Setting up loss2/fc
I1126 12:32:38.189067 19071 net.cpp:157] Top shape: 64 1024 (65536)
I1126 12:32:38.189071 19071 net.cpp:165] Memory required for data: 3224441604
I1126 12:32:38.189079 19071 layer_factory.hpp:76] Creating layer loss2/relu_fc
I1126 12:32:38.189085 19071 net.cpp:106] Creating Layer loss2/relu_fc
I1126 12:32:38.189088 19071 net.cpp:454] loss2/relu_fc <- loss2/fc
I1126 12:32:38.189095 19071 net.cpp:397] loss2/relu_fc -> loss2/fc (in-place)
I1126 12:32:38.189280 19071 net.cpp:150] Setting up loss2/relu_fc
I1126 12:32:38.189291 19071 net.cpp:157] Top shape: 64 1024 (65536)
I1126 12:32:38.189314 19071 net.cpp:165] Memory required for data: 3224703748
I1126 12:32:38.189319 19071 layer_factory.hpp:76] Creating layer loss2/drop_fc
I1126 12:32:38.189326 19071 net.cpp:106] Creating Layer loss2/drop_fc
I1126 12:32:38.189329 19071 net.cpp:454] loss2/drop_fc <- loss2/fc
I1126 12:32:38.189333 19071 net.cpp:397] loss2/drop_fc -> loss2/fc (in-place)
I1126 12:32:38.189370 19071 net.cpp:150] Setting up loss2/drop_fc
I1126 12:32:38.189378 19071 net.cpp:157] Top shape: 64 1024 (65536)
I1126 12:32:38.189380 19071 net.cpp:165] Memory required for data: 3224965892
I1126 12:32:38.189383 19071 layer_factory.hpp:76] Creating layer loss2/classifier-attribute
I1126 12:32:38.189391 19071 net.cpp:106] Creating Layer loss2/classifier-attribute
I1126 12:32:38.189395 19071 net.cpp:454] loss2/classifier-attribute <- loss2/fc
I1126 12:32:38.189400 19071 net.cpp:411] loss2/classifier-attribute -> loss2/classifier-attribute
I1126 12:32:38.266021 19071 net.cpp:150] Setting up loss2/classifier-attribute
I1126 12:32:38.266043 19071 net.cpp:157] Top shape: 64 9999 (639936)
I1126 12:32:38.266047 19071 net.cpp:165] Memory required for data: 3227525636
I1126 12:32:38.266055 19071 layer_factory.hpp:76] Creating layer loss2/loss
I1126 12:32:38.266064 19071 net.cpp:106] Creating Layer loss2/loss
I1126 12:32:38.266072 19071 net.cpp:454] loss2/loss <- loss2/classifier-attribute
I1126 12:32:38.266077 19071 net.cpp:454] loss2/loss <- label_data_1_split_1
I1126 12:32:38.266084 19071 net.cpp:411] loss2/loss -> loss2/loss1
I1126 12:32:38.266095 19071 layer_factory.hpp:76] Creating layer loss2/loss
I1126 12:32:38.267778 19071 net.cpp:150] Setting up loss2/loss
I1126 12:32:38.267791 19071 net.cpp:157] Top shape: (1)
I1126 12:32:38.267796 19071 net.cpp:160]     with loss weight 0.3
I1126 12:32:38.267806 19071 net.cpp:165] Memory required for data: 3227525640
I1126 12:32:38.267809 19071 layer_factory.hpp:76] Creating layer inception_4e/1x1
I1126 12:32:38.267820 19071 net.cpp:106] Creating Layer inception_4e/1x1
I1126 12:32:38.267824 19071 net.cpp:454] inception_4e/1x1 <- inception_4d/output_inception_4d/output_0_split_1
I1126 12:32:38.267830 19071 net.cpp:411] inception_4e/1x1 -> inception_4e/1x1
I1126 12:32:38.269732 19071 net.cpp:150] Setting up inception_4e/1x1
I1126 12:32:38.269745 19071 net.cpp:157] Top shape: 64 256 14 14 (3211264)
I1126 12:32:38.269749 19071 net.cpp:165] Memory required for data: 3240370696
I1126 12:32:38.269755 19071 layer_factory.hpp:76] Creating layer inception_4e/relu_1x1
I1126 12:32:38.269762 19071 net.cpp:106] Creating Layer inception_4e/relu_1x1
I1126 12:32:38.269765 19071 net.cpp:454] inception_4e/relu_1x1 <- inception_4e/1x1
I1126 12:32:38.269770 19071 net.cpp:397] inception_4e/relu_1x1 -> inception_4e/1x1 (in-place)
I1126 12:32:38.269963 19071 net.cpp:150] Setting up inception_4e/relu_1x1
I1126 12:32:38.269974 19071 net.cpp:157] Top shape: 64 256 14 14 (3211264)
I1126 12:32:38.269978 19071 net.cpp:165] Memory required for data: 3253215752
I1126 12:32:38.269981 19071 layer_factory.hpp:76] Creating layer inception_4e/3x3_reduce
I1126 12:32:38.270002 19071 net.cpp:106] Creating Layer inception_4e/3x3_reduce
I1126 12:32:38.270006 19071 net.cpp:454] inception_4e/3x3_reduce <- inception_4d/output_inception_4d/output_0_split_2
I1126 12:32:38.270015 19071 net.cpp:411] inception_4e/3x3_reduce -> inception_4e/3x3_reduce
I1126 12:32:38.271970 19071 net.cpp:150] Setting up inception_4e/3x3_reduce
I1126 12:32:38.271983 19071 net.cpp:157] Top shape: 64 160 14 14 (2007040)
I1126 12:32:38.271987 19071 net.cpp:165] Memory required for data: 3261243912
I1126 12:32:38.271993 19071 layer_factory.hpp:76] Creating layer inception_4e/relu_3x3_reduce
I1126 12:32:38.272001 19071 net.cpp:106] Creating Layer inception_4e/relu_3x3_reduce
I1126 12:32:38.272006 19071 net.cpp:454] inception_4e/relu_3x3_reduce <- inception_4e/3x3_reduce
I1126 12:32:38.272011 19071 net.cpp:397] inception_4e/relu_3x3_reduce -> inception_4e/3x3_reduce (in-place)
I1126 12:32:38.272307 19071 net.cpp:150] Setting up inception_4e/relu_3x3_reduce
I1126 12:32:38.272320 19071 net.cpp:157] Top shape: 64 160 14 14 (2007040)
I1126 12:32:38.272323 19071 net.cpp:165] Memory required for data: 3269272072
I1126 12:32:38.272327 19071 layer_factory.hpp:76] Creating layer inception_4e/3x3
I1126 12:32:38.272336 19071 net.cpp:106] Creating Layer inception_4e/3x3
I1126 12:32:38.272339 19071 net.cpp:454] inception_4e/3x3 <- inception_4e/3x3_reduce
I1126 12:32:38.272346 19071 net.cpp:411] inception_4e/3x3 -> inception_4e/3x3
I1126 12:32:38.276888 19071 net.cpp:150] Setting up inception_4e/3x3
I1126 12:32:38.276902 19071 net.cpp:157] Top shape: 64 320 14 14 (4014080)
I1126 12:32:38.276906 19071 net.cpp:165] Memory required for data: 3285328392
I1126 12:32:38.276912 19071 layer_factory.hpp:76] Creating layer inception_4e/relu_3x3
I1126 12:32:38.276917 19071 net.cpp:106] Creating Layer inception_4e/relu_3x3
I1126 12:32:38.276921 19071 net.cpp:454] inception_4e/relu_3x3 <- inception_4e/3x3
I1126 12:32:38.276927 19071 net.cpp:397] inception_4e/relu_3x3 -> inception_4e/3x3 (in-place)
I1126 12:32:38.277225 19071 net.cpp:150] Setting up inception_4e/relu_3x3
I1126 12:32:38.277237 19071 net.cpp:157] Top shape: 64 320 14 14 (4014080)
I1126 12:32:38.277241 19071 net.cpp:165] Memory required for data: 3301384712
I1126 12:32:38.277245 19071 layer_factory.hpp:76] Creating layer inception_4e/5x5_reduce
I1126 12:32:38.277253 19071 net.cpp:106] Creating Layer inception_4e/5x5_reduce
I1126 12:32:38.277256 19071 net.cpp:454] inception_4e/5x5_reduce <- inception_4d/output_inception_4d/output_0_split_3
I1126 12:32:38.277263 19071 net.cpp:411] inception_4e/5x5_reduce -> inception_4e/5x5_reduce
I1126 12:32:38.278394 19071 net.cpp:150] Setting up inception_4e/5x5_reduce
I1126 12:32:38.278408 19071 net.cpp:157] Top shape: 64 32 14 14 (401408)
I1126 12:32:38.278410 19071 net.cpp:165] Memory required for data: 3302990344
I1126 12:32:38.278416 19071 layer_factory.hpp:76] Creating layer inception_4e/relu_5x5_reduce
I1126 12:32:38.278424 19071 net.cpp:106] Creating Layer inception_4e/relu_5x5_reduce
I1126 12:32:38.278427 19071 net.cpp:454] inception_4e/relu_5x5_reduce <- inception_4e/5x5_reduce
I1126 12:32:38.278432 19071 net.cpp:397] inception_4e/relu_5x5_reduce -> inception_4e/5x5_reduce (in-place)
I1126 12:32:38.278595 19071 net.cpp:150] Setting up inception_4e/relu_5x5_reduce
I1126 12:32:38.278604 19071 net.cpp:157] Top shape: 64 32 14 14 (401408)
I1126 12:32:38.278609 19071 net.cpp:165] Memory required for data: 3304595976
I1126 12:32:38.278611 19071 layer_factory.hpp:76] Creating layer inception_4e/5x5
I1126 12:32:38.278631 19071 net.cpp:106] Creating Layer inception_4e/5x5
I1126 12:32:38.278636 19071 net.cpp:454] inception_4e/5x5 <- inception_4e/5x5_reduce
I1126 12:32:38.278641 19071 net.cpp:411] inception_4e/5x5 -> inception_4e/5x5
I1126 12:32:38.280323 19071 net.cpp:150] Setting up inception_4e/5x5
I1126 12:32:38.280338 19071 net.cpp:157] Top shape: 64 128 14 14 (1605632)
I1126 12:32:38.280341 19071 net.cpp:165] Memory required for data: 3311018504
I1126 12:32:38.280349 19071 layer_factory.hpp:76] Creating layer inception_4e/relu_5x5
I1126 12:32:38.280354 19071 net.cpp:106] Creating Layer inception_4e/relu_5x5
I1126 12:32:38.280359 19071 net.cpp:454] inception_4e/relu_5x5 <- inception_4e/5x5
I1126 12:32:38.280364 19071 net.cpp:397] inception_4e/relu_5x5 -> inception_4e/5x5 (in-place)
I1126 12:32:38.280663 19071 net.cpp:150] Setting up inception_4e/relu_5x5
I1126 12:32:38.280675 19071 net.cpp:157] Top shape: 64 128 14 14 (1605632)
I1126 12:32:38.280678 19071 net.cpp:165] Memory required for data: 3317441032
I1126 12:32:38.280683 19071 layer_factory.hpp:76] Creating layer inception_4e/pool
I1126 12:32:38.280690 19071 net.cpp:106] Creating Layer inception_4e/pool
I1126 12:32:38.280694 19071 net.cpp:454] inception_4e/pool <- inception_4d/output_inception_4d/output_0_split_4
I1126 12:32:38.280700 19071 net.cpp:411] inception_4e/pool -> inception_4e/pool
I1126 12:32:38.280896 19071 net.cpp:150] Setting up inception_4e/pool
I1126 12:32:38.280907 19071 net.cpp:157] Top shape: 64 528 14 14 (6623232)
I1126 12:32:38.280910 19071 net.cpp:165] Memory required for data: 3343933960
I1126 12:32:38.280913 19071 layer_factory.hpp:76] Creating layer inception_4e/pool_proj
I1126 12:32:38.280921 19071 net.cpp:106] Creating Layer inception_4e/pool_proj
I1126 12:32:38.280925 19071 net.cpp:454] inception_4e/pool_proj <- inception_4e/pool
I1126 12:32:38.280932 19071 net.cpp:411] inception_4e/pool_proj -> inception_4e/pool_proj
I1126 12:32:38.282368 19071 net.cpp:150] Setting up inception_4e/pool_proj
I1126 12:32:38.282380 19071 net.cpp:157] Top shape: 64 128 14 14 (1605632)
I1126 12:32:38.282383 19071 net.cpp:165] Memory required for data: 3350356488
I1126 12:32:38.282389 19071 layer_factory.hpp:76] Creating layer inception_4e/relu_pool_proj
I1126 12:32:38.282397 19071 net.cpp:106] Creating Layer inception_4e/relu_pool_proj
I1126 12:32:38.282402 19071 net.cpp:454] inception_4e/relu_pool_proj <- inception_4e/pool_proj
I1126 12:32:38.282407 19071 net.cpp:397] inception_4e/relu_pool_proj -> inception_4e/pool_proj (in-place)
I1126 12:32:38.282706 19071 net.cpp:150] Setting up inception_4e/relu_pool_proj
I1126 12:32:38.282719 19071 net.cpp:157] Top shape: 64 128 14 14 (1605632)
I1126 12:32:38.282722 19071 net.cpp:165] Memory required for data: 3356779016
I1126 12:32:38.282727 19071 layer_factory.hpp:76] Creating layer inception_4e/output
I1126 12:32:38.282733 19071 net.cpp:106] Creating Layer inception_4e/output
I1126 12:32:38.282737 19071 net.cpp:454] inception_4e/output <- inception_4e/1x1
I1126 12:32:38.282742 19071 net.cpp:454] inception_4e/output <- inception_4e/3x3
I1126 12:32:38.282745 19071 net.cpp:454] inception_4e/output <- inception_4e/5x5
I1126 12:32:38.282749 19071 net.cpp:454] inception_4e/output <- inception_4e/pool_proj
I1126 12:32:38.282754 19071 net.cpp:411] inception_4e/output -> inception_4e/output
I1126 12:32:38.282789 19071 net.cpp:150] Setting up inception_4e/output
I1126 12:32:38.282796 19071 net.cpp:157] Top shape: 64 832 14 14 (10436608)
I1126 12:32:38.282804 19071 net.cpp:165] Memory required for data: 3398525448
I1126 12:32:38.282806 19071 layer_factory.hpp:76] Creating layer pool4/3x3_s2
I1126 12:32:38.282812 19071 net.cpp:106] Creating Layer pool4/3x3_s2
I1126 12:32:38.282815 19071 net.cpp:454] pool4/3x3_s2 <- inception_4e/output
I1126 12:32:38.282824 19071 net.cpp:411] pool4/3x3_s2 -> pool4/3x3_s2
I1126 12:32:38.283030 19071 net.cpp:150] Setting up pool4/3x3_s2
I1126 12:32:38.283041 19071 net.cpp:157] Top shape: 64 832 7 7 (2609152)
I1126 12:32:38.283043 19071 net.cpp:165] Memory required for data: 3408962056
I1126 12:32:38.283046 19071 layer_factory.hpp:76] Creating layer pool4/3x3_s2_pool4/3x3_s2_0_split
I1126 12:32:38.283053 19071 net.cpp:106] Creating Layer pool4/3x3_s2_pool4/3x3_s2_0_split
I1126 12:32:38.283057 19071 net.cpp:454] pool4/3x3_s2_pool4/3x3_s2_0_split <- pool4/3x3_s2
I1126 12:32:38.283062 19071 net.cpp:411] pool4/3x3_s2_pool4/3x3_s2_0_split -> pool4/3x3_s2_pool4/3x3_s2_0_split_0
I1126 12:32:38.283068 19071 net.cpp:411] pool4/3x3_s2_pool4/3x3_s2_0_split -> pool4/3x3_s2_pool4/3x3_s2_0_split_1
I1126 12:32:38.283073 19071 net.cpp:411] pool4/3x3_s2_pool4/3x3_s2_0_split -> pool4/3x3_s2_pool4/3x3_s2_0_split_2
I1126 12:32:38.283080 19071 net.cpp:411] pool4/3x3_s2_pool4/3x3_s2_0_split -> pool4/3x3_s2_pool4/3x3_s2_0_split_3
I1126 12:32:38.283145 19071 net.cpp:150] Setting up pool4/3x3_s2_pool4/3x3_s2_0_split
I1126 12:32:38.283152 19071 net.cpp:157] Top shape: 64 832 7 7 (2609152)
I1126 12:32:38.283156 19071 net.cpp:157] Top shape: 64 832 7 7 (2609152)
I1126 12:32:38.283160 19071 net.cpp:157] Top shape: 64 832 7 7 (2609152)
I1126 12:32:38.283164 19071 net.cpp:157] Top shape: 64 832 7 7 (2609152)
I1126 12:32:38.283167 19071 net.cpp:165] Memory required for data: 3450708488
I1126 12:32:38.283170 19071 layer_factory.hpp:76] Creating layer inception_5a/1x1
I1126 12:32:38.283177 19071 net.cpp:106] Creating Layer inception_5a/1x1
I1126 12:32:38.283181 19071 net.cpp:454] inception_5a/1x1 <- pool4/3x3_s2_pool4/3x3_s2_0_split_0
I1126 12:32:38.283187 19071 net.cpp:411] inception_5a/1x1 -> inception_5a/1x1
I1126 12:32:38.285929 19071 net.cpp:150] Setting up inception_5a/1x1
I1126 12:32:38.285943 19071 net.cpp:157] Top shape: 64 256 7 7 (802816)
I1126 12:32:38.285948 19071 net.cpp:165] Memory required for data: 3453919752
I1126 12:32:38.285953 19071 layer_factory.hpp:76] Creating layer inception_5a/relu_1x1
I1126 12:32:38.285960 19071 net.cpp:106] Creating Layer inception_5a/relu_1x1
I1126 12:32:38.285964 19071 net.cpp:454] inception_5a/relu_1x1 <- inception_5a/1x1
I1126 12:32:38.285969 19071 net.cpp:397] inception_5a/relu_1x1 -> inception_5a/1x1 (in-place)
I1126 12:32:38.286262 19071 net.cpp:150] Setting up inception_5a/relu_1x1
I1126 12:32:38.286274 19071 net.cpp:157] Top shape: 64 256 7 7 (802816)
I1126 12:32:38.286278 19071 net.cpp:165] Memory required for data: 3457131016
I1126 12:32:38.286281 19071 layer_factory.hpp:76] Creating layer inception_5a/3x3_reduce
I1126 12:32:38.286290 19071 net.cpp:106] Creating Layer inception_5a/3x3_reduce
I1126 12:32:38.286294 19071 net.cpp:454] inception_5a/3x3_reduce <- pool4/3x3_s2_pool4/3x3_s2_0_split_1
I1126 12:32:38.286300 19071 net.cpp:411] inception_5a/3x3_reduce -> inception_5a/3x3_reduce
I1126 12:32:38.288579 19071 net.cpp:150] Setting up inception_5a/3x3_reduce
I1126 12:32:38.288592 19071 net.cpp:157] Top shape: 64 160 7 7 (501760)
I1126 12:32:38.288596 19071 net.cpp:165] Memory required for data: 3459138056
I1126 12:32:38.288602 19071 layer_factory.hpp:76] Creating layer inception_5a/relu_3x3_reduce
I1126 12:32:38.288609 19071 net.cpp:106] Creating Layer inception_5a/relu_3x3_reduce
I1126 12:32:38.288614 19071 net.cpp:454] inception_5a/relu_3x3_reduce <- inception_5a/3x3_reduce
I1126 12:32:38.288619 19071 net.cpp:397] inception_5a/relu_3x3_reduce -> inception_5a/3x3_reduce (in-place)
I1126 12:32:38.288920 19071 net.cpp:150] Setting up inception_5a/relu_3x3_reduce
I1126 12:32:38.288933 19071 net.cpp:157] Top shape: 64 160 7 7 (501760)
I1126 12:32:38.288936 19071 net.cpp:165] Memory required for data: 3461145096
I1126 12:32:38.288939 19071 layer_factory.hpp:76] Creating layer inception_5a/3x3
I1126 12:32:38.288949 19071 net.cpp:106] Creating Layer inception_5a/3x3
I1126 12:32:38.288954 19071 net.cpp:454] inception_5a/3x3 <- inception_5a/3x3_reduce
I1126 12:32:38.288959 19071 net.cpp:411] inception_5a/3x3 -> inception_5a/3x3
I1126 12:32:38.293495 19071 net.cpp:150] Setting up inception_5a/3x3
I1126 12:32:38.293510 19071 net.cpp:157] Top shape: 64 320 7 7 (1003520)
I1126 12:32:38.293514 19071 net.cpp:165] Memory required for data: 3465159176
I1126 12:32:38.293520 19071 layer_factory.hpp:76] Creating layer inception_5a/relu_3x3
I1126 12:32:38.293527 19071 net.cpp:106] Creating Layer inception_5a/relu_3x3
I1126 12:32:38.293531 19071 net.cpp:454] inception_5a/relu_3x3 <- inception_5a/3x3
I1126 12:32:38.293536 19071 net.cpp:397] inception_5a/relu_3x3 -> inception_5a/3x3 (in-place)
I1126 12:32:38.293704 19071 net.cpp:150] Setting up inception_5a/relu_3x3
I1126 12:32:38.293714 19071 net.cpp:157] Top shape: 64 320 7 7 (1003520)
I1126 12:32:38.293716 19071 net.cpp:165] Memory required for data: 3469173256
I1126 12:32:38.293720 19071 layer_factory.hpp:76] Creating layer inception_5a/5x5_reduce
I1126 12:32:38.293728 19071 net.cpp:106] Creating Layer inception_5a/5x5_reduce
I1126 12:32:38.293732 19071 net.cpp:454] inception_5a/5x5_reduce <- pool4/3x3_s2_pool4/3x3_s2_0_split_2
I1126 12:32:38.293738 19071 net.cpp:411] inception_5a/5x5_reduce -> inception_5a/5x5_reduce
I1126 12:32:38.294973 19071 net.cpp:150] Setting up inception_5a/5x5_reduce
I1126 12:32:38.294987 19071 net.cpp:157] Top shape: 64 32 7 7 (100352)
I1126 12:32:38.294991 19071 net.cpp:165] Memory required for data: 3469574664
I1126 12:32:38.294997 19071 layer_factory.hpp:76] Creating layer inception_5a/relu_5x5_reduce
I1126 12:32:38.295004 19071 net.cpp:106] Creating Layer inception_5a/relu_5x5_reduce
I1126 12:32:38.295008 19071 net.cpp:454] inception_5a/relu_5x5_reduce <- inception_5a/5x5_reduce
I1126 12:32:38.295013 19071 net.cpp:397] inception_5a/relu_5x5_reduce -> inception_5a/5x5_reduce (in-place)
I1126 12:32:38.295186 19071 net.cpp:150] Setting up inception_5a/relu_5x5_reduce
I1126 12:32:38.295197 19071 net.cpp:157] Top shape: 64 32 7 7 (100352)
I1126 12:32:38.295199 19071 net.cpp:165] Memory required for data: 3469976072
I1126 12:32:38.295202 19071 layer_factory.hpp:76] Creating layer inception_5a/5x5
I1126 12:32:38.295213 19071 net.cpp:106] Creating Layer inception_5a/5x5
I1126 12:32:38.295217 19071 net.cpp:454] inception_5a/5x5 <- inception_5a/5x5_reduce
I1126 12:32:38.295223 19071 net.cpp:411] inception_5a/5x5 -> inception_5a/5x5
I1126 12:32:38.296892 19071 net.cpp:150] Setting up inception_5a/5x5
I1126 12:32:38.296905 19071 net.cpp:157] Top shape: 64 128 7 7 (401408)
I1126 12:32:38.296908 19071 net.cpp:165] Memory required for data: 3471581704
I1126 12:32:38.296917 19071 layer_factory.hpp:76] Creating layer inception_5a/relu_5x5
I1126 12:32:38.296924 19071 net.cpp:106] Creating Layer inception_5a/relu_5x5
I1126 12:32:38.296928 19071 net.cpp:454] inception_5a/relu_5x5 <- inception_5a/5x5
I1126 12:32:38.296933 19071 net.cpp:397] inception_5a/relu_5x5 -> inception_5a/5x5 (in-place)
I1126 12:32:38.297236 19071 net.cpp:150] Setting up inception_5a/relu_5x5
I1126 12:32:38.297248 19071 net.cpp:157] Top shape: 64 128 7 7 (401408)
I1126 12:32:38.297252 19071 net.cpp:165] Memory required for data: 3473187336
I1126 12:32:38.297255 19071 layer_factory.hpp:76] Creating layer inception_5a/pool
I1126 12:32:38.297262 19071 net.cpp:106] Creating Layer inception_5a/pool
I1126 12:32:38.297266 19071 net.cpp:454] inception_5a/pool <- pool4/3x3_s2_pool4/3x3_s2_0_split_3
I1126 12:32:38.297272 19071 net.cpp:411] inception_5a/pool -> inception_5a/pool
I1126 12:32:38.297479 19071 net.cpp:150] Setting up inception_5a/pool
I1126 12:32:38.297489 19071 net.cpp:157] Top shape: 64 832 7 7 (2609152)
I1126 12:32:38.297492 19071 net.cpp:165] Memory required for data: 3483623944
I1126 12:32:38.297495 19071 layer_factory.hpp:76] Creating layer inception_5a/pool_proj
I1126 12:32:38.297507 19071 net.cpp:106] Creating Layer inception_5a/pool_proj
I1126 12:32:38.297510 19071 net.cpp:454] inception_5a/pool_proj <- inception_5a/pool
I1126 12:32:38.297515 19071 net.cpp:411] inception_5a/pool_proj -> inception_5a/pool_proj
I1126 12:32:38.299633 19071 net.cpp:150] Setting up inception_5a/pool_proj
I1126 12:32:38.299648 19071 net.cpp:157] Top shape: 64 128 7 7 (401408)
I1126 12:32:38.299651 19071 net.cpp:165] Memory required for data: 3485229576
I1126 12:32:38.299657 19071 layer_factory.hpp:76] Creating layer inception_5a/relu_pool_proj
I1126 12:32:38.299664 19071 net.cpp:106] Creating Layer inception_5a/relu_pool_proj
I1126 12:32:38.299669 19071 net.cpp:454] inception_5a/relu_pool_proj <- inception_5a/pool_proj
I1126 12:32:38.299674 19071 net.cpp:397] inception_5a/relu_pool_proj -> inception_5a/pool_proj (in-place)
I1126 12:32:38.299976 19071 net.cpp:150] Setting up inception_5a/relu_pool_proj
I1126 12:32:38.299988 19071 net.cpp:157] Top shape: 64 128 7 7 (401408)
I1126 12:32:38.299991 19071 net.cpp:165] Memory required for data: 3486835208
I1126 12:32:38.299995 19071 layer_factory.hpp:76] Creating layer inception_5a/output
I1126 12:32:38.300003 19071 net.cpp:106] Creating Layer inception_5a/output
I1126 12:32:38.300006 19071 net.cpp:454] inception_5a/output <- inception_5a/1x1
I1126 12:32:38.300011 19071 net.cpp:454] inception_5a/output <- inception_5a/3x3
I1126 12:32:38.300015 19071 net.cpp:454] inception_5a/output <- inception_5a/5x5
I1126 12:32:38.300019 19071 net.cpp:454] inception_5a/output <- inception_5a/pool_proj
I1126 12:32:38.300024 19071 net.cpp:411] inception_5a/output -> inception_5a/output
I1126 12:32:38.300058 19071 net.cpp:150] Setting up inception_5a/output
I1126 12:32:38.300065 19071 net.cpp:157] Top shape: 64 832 7 7 (2609152)
I1126 12:32:38.300067 19071 net.cpp:165] Memory required for data: 3497271816
I1126 12:32:38.300071 19071 layer_factory.hpp:76] Creating layer inception_5a/output_inception_5a/output_0_split
I1126 12:32:38.300076 19071 net.cpp:106] Creating Layer inception_5a/output_inception_5a/output_0_split
I1126 12:32:38.300079 19071 net.cpp:454] inception_5a/output_inception_5a/output_0_split <- inception_5a/output
I1126 12:32:38.300086 19071 net.cpp:411] inception_5a/output_inception_5a/output_0_split -> inception_5a/output_inception_5a/output_0_split_0
I1126 12:32:38.300092 19071 net.cpp:411] inception_5a/output_inception_5a/output_0_split -> inception_5a/output_inception_5a/output_0_split_1
I1126 12:32:38.300098 19071 net.cpp:411] inception_5a/output_inception_5a/output_0_split -> inception_5a/output_inception_5a/output_0_split_2
I1126 12:32:38.300103 19071 net.cpp:411] inception_5a/output_inception_5a/output_0_split -> inception_5a/output_inception_5a/output_0_split_3
I1126 12:32:38.300178 19071 net.cpp:150] Setting up inception_5a/output_inception_5a/output_0_split
I1126 12:32:38.300185 19071 net.cpp:157] Top shape: 64 832 7 7 (2609152)
I1126 12:32:38.300189 19071 net.cpp:157] Top shape: 64 832 7 7 (2609152)
I1126 12:32:38.300192 19071 net.cpp:157] Top shape: 64 832 7 7 (2609152)
I1126 12:32:38.300196 19071 net.cpp:157] Top shape: 64 832 7 7 (2609152)
I1126 12:32:38.300199 19071 net.cpp:165] Memory required for data: 3539018248
I1126 12:32:38.300202 19071 layer_factory.hpp:76] Creating layer inception_5b/1x1
I1126 12:32:38.300210 19071 net.cpp:106] Creating Layer inception_5b/1x1
I1126 12:32:38.300214 19071 net.cpp:454] inception_5b/1x1 <- inception_5a/output_inception_5a/output_0_split_0
I1126 12:32:38.300220 19071 net.cpp:411] inception_5b/1x1 -> inception_5b/1x1
I1126 12:32:38.303661 19071 net.cpp:150] Setting up inception_5b/1x1
I1126 12:32:38.303675 19071 net.cpp:157] Top shape: 64 384 7 7 (1204224)
I1126 12:32:38.303679 19071 net.cpp:165] Memory required for data: 3543835144
I1126 12:32:38.303686 19071 layer_factory.hpp:76] Creating layer inception_5b/relu_1x1
I1126 12:32:38.303692 19071 net.cpp:106] Creating Layer inception_5b/relu_1x1
I1126 12:32:38.303696 19071 net.cpp:454] inception_5b/relu_1x1 <- inception_5b/1x1
I1126 12:32:38.303701 19071 net.cpp:397] inception_5b/relu_1x1 -> inception_5b/1x1 (in-place)
I1126 12:32:38.303998 19071 net.cpp:150] Setting up inception_5b/relu_1x1
I1126 12:32:38.304010 19071 net.cpp:157] Top shape: 64 384 7 7 (1204224)
I1126 12:32:38.304014 19071 net.cpp:165] Memory required for data: 3548652040
I1126 12:32:38.304018 19071 layer_factory.hpp:76] Creating layer inception_5b/3x3_reduce
I1126 12:32:38.304025 19071 net.cpp:106] Creating Layer inception_5b/3x3_reduce
I1126 12:32:38.304030 19071 net.cpp:454] inception_5b/3x3_reduce <- inception_5a/output_inception_5a/output_0_split_1
I1126 12:32:38.304035 19071 net.cpp:411] inception_5b/3x3_reduce -> inception_5b/3x3_reduce
I1126 12:32:38.306488 19071 net.cpp:150] Setting up inception_5b/3x3_reduce
I1126 12:32:38.306501 19071 net.cpp:157] Top shape: 64 192 7 7 (602112)
I1126 12:32:38.306504 19071 net.cpp:165] Memory required for data: 3551060488
I1126 12:32:38.306510 19071 layer_factory.hpp:76] Creating layer inception_5b/relu_3x3_reduce
I1126 12:32:38.306516 19071 net.cpp:106] Creating Layer inception_5b/relu_3x3_reduce
I1126 12:32:38.306520 19071 net.cpp:454] inception_5b/relu_3x3_reduce <- inception_5b/3x3_reduce
I1126 12:32:38.306526 19071 net.cpp:397] inception_5b/relu_3x3_reduce -> inception_5b/3x3_reduce (in-place)
I1126 12:32:38.306717 19071 net.cpp:150] Setting up inception_5b/relu_3x3_reduce
I1126 12:32:38.306741 19071 net.cpp:157] Top shape: 64 192 7 7 (602112)
I1126 12:32:38.306746 19071 net.cpp:165] Memory required for data: 3553468936
I1126 12:32:38.306748 19071 layer_factory.hpp:76] Creating layer inception_5b/3x3
I1126 12:32:38.306756 19071 net.cpp:106] Creating Layer inception_5b/3x3
I1126 12:32:38.306761 19071 net.cpp:454] inception_5b/3x3 <- inception_5b/3x3_reduce
I1126 12:32:38.306767 19071 net.cpp:411] inception_5b/3x3 -> inception_5b/3x3
I1126 12:32:38.312868 19071 net.cpp:150] Setting up inception_5b/3x3
I1126 12:32:38.312885 19071 net.cpp:157] Top shape: 64 384 7 7 (1204224)
I1126 12:32:38.312888 19071 net.cpp:165] Memory required for data: 3558285832
I1126 12:32:38.312896 19071 layer_factory.hpp:76] Creating layer inception_5b/relu_3x3
I1126 12:32:38.312901 19071 net.cpp:106] Creating Layer inception_5b/relu_3x3
I1126 12:32:38.312906 19071 net.cpp:454] inception_5b/relu_3x3 <- inception_5b/3x3
I1126 12:32:38.312911 19071 net.cpp:397] inception_5b/relu_3x3 -> inception_5b/3x3 (in-place)
I1126 12:32:38.313230 19071 net.cpp:150] Setting up inception_5b/relu_3x3
I1126 12:32:38.313242 19071 net.cpp:157] Top shape: 64 384 7 7 (1204224)
I1126 12:32:38.313246 19071 net.cpp:165] Memory required for data: 3563102728
I1126 12:32:38.313249 19071 layer_factory.hpp:76] Creating layer inception_5b/5x5_reduce
I1126 12:32:38.313257 19071 net.cpp:106] Creating Layer inception_5b/5x5_reduce
I1126 12:32:38.313261 19071 net.cpp:454] inception_5b/5x5_reduce <- inception_5a/output_inception_5a/output_0_split_2
I1126 12:32:38.313267 19071 net.cpp:411] inception_5b/5x5_reduce -> inception_5b/5x5_reduce
I1126 12:32:38.314885 19071 net.cpp:150] Setting up inception_5b/5x5_reduce
I1126 12:32:38.314898 19071 net.cpp:157] Top shape: 64 48 7 7 (150528)
I1126 12:32:38.314903 19071 net.cpp:165] Memory required for data: 3563704840
I1126 12:32:38.314909 19071 layer_factory.hpp:76] Creating layer inception_5b/relu_5x5_reduce
I1126 12:32:38.314916 19071 net.cpp:106] Creating Layer inception_5b/relu_5x5_reduce
I1126 12:32:38.314920 19071 net.cpp:454] inception_5b/relu_5x5_reduce <- inception_5b/5x5_reduce
I1126 12:32:38.314925 19071 net.cpp:397] inception_5b/relu_5x5_reduce -> inception_5b/5x5_reduce (in-place)
I1126 12:32:38.315238 19071 net.cpp:150] Setting up inception_5b/relu_5x5_reduce
I1126 12:32:38.315253 19071 net.cpp:157] Top shape: 64 48 7 7 (150528)
I1126 12:32:38.315255 19071 net.cpp:165] Memory required for data: 3564306952
I1126 12:32:38.315259 19071 layer_factory.hpp:76] Creating layer inception_5b/5x5
I1126 12:32:38.315268 19071 net.cpp:106] Creating Layer inception_5b/5x5
I1126 12:32:38.315273 19071 net.cpp:454] inception_5b/5x5 <- inception_5b/5x5_reduce
I1126 12:32:38.315279 19071 net.cpp:411] inception_5b/5x5 -> inception_5b/5x5
I1126 12:32:38.317303 19071 net.cpp:150] Setting up inception_5b/5x5
I1126 12:32:38.317317 19071 net.cpp:157] Top shape: 64 128 7 7 (401408)
I1126 12:32:38.317319 19071 net.cpp:165] Memory required for data: 3565912584
I1126 12:32:38.317327 19071 layer_factory.hpp:76] Creating layer inception_5b/relu_5x5
I1126 12:32:38.317332 19071 net.cpp:106] Creating Layer inception_5b/relu_5x5
I1126 12:32:38.317335 19071 net.cpp:454] inception_5b/relu_5x5 <- inception_5b/5x5
I1126 12:32:38.317342 19071 net.cpp:397] inception_5b/relu_5x5 -> inception_5b/5x5 (in-place)
I1126 12:32:38.317513 19071 net.cpp:150] Setting up inception_5b/relu_5x5
I1126 12:32:38.317523 19071 net.cpp:157] Top shape: 64 128 7 7 (401408)
I1126 12:32:38.317525 19071 net.cpp:165] Memory required for data: 3567518216
I1126 12:32:38.317529 19071 layer_factory.hpp:76] Creating layer inception_5b/pool
I1126 12:32:38.317536 19071 net.cpp:106] Creating Layer inception_5b/pool
I1126 12:32:38.317540 19071 net.cpp:454] inception_5b/pool <- inception_5a/output_inception_5a/output_0_split_3
I1126 12:32:38.317545 19071 net.cpp:411] inception_5b/pool -> inception_5b/pool
I1126 12:32:38.317886 19071 net.cpp:150] Setting up inception_5b/pool
I1126 12:32:38.317898 19071 net.cpp:157] Top shape: 64 832 7 7 (2609152)
I1126 12:32:38.317901 19071 net.cpp:165] Memory required for data: 3577954824
I1126 12:32:38.317904 19071 layer_factory.hpp:76] Creating layer inception_5b/pool_proj
I1126 12:32:38.317914 19071 net.cpp:106] Creating Layer inception_5b/pool_proj
I1126 12:32:38.317924 19071 net.cpp:454] inception_5b/pool_proj <- inception_5b/pool
I1126 12:32:38.317931 19071 net.cpp:411] inception_5b/pool_proj -> inception_5b/pool_proj
I1126 12:32:38.320147 19071 net.cpp:150] Setting up inception_5b/pool_proj
I1126 12:32:38.320161 19071 net.cpp:157] Top shape: 64 128 7 7 (401408)
I1126 12:32:38.320164 19071 net.cpp:165] Memory required for data: 3579560456
I1126 12:32:38.320171 19071 layer_factory.hpp:76] Creating layer inception_5b/relu_pool_proj
I1126 12:32:38.320179 19071 net.cpp:106] Creating Layer inception_5b/relu_pool_proj
I1126 12:32:38.320184 19071 net.cpp:454] inception_5b/relu_pool_proj <- inception_5b/pool_proj
I1126 12:32:38.320189 19071 net.cpp:397] inception_5b/relu_pool_proj -> inception_5b/pool_proj (in-place)
I1126 12:32:38.320361 19071 net.cpp:150] Setting up inception_5b/relu_pool_proj
I1126 12:32:38.320370 19071 net.cpp:157] Top shape: 64 128 7 7 (401408)
I1126 12:32:38.320374 19071 net.cpp:165] Memory required for data: 3581166088
I1126 12:32:38.320377 19071 layer_factory.hpp:76] Creating layer inception_5b/output
I1126 12:32:38.320384 19071 net.cpp:106] Creating Layer inception_5b/output
I1126 12:32:38.320389 19071 net.cpp:454] inception_5b/output <- inception_5b/1x1
I1126 12:32:38.320392 19071 net.cpp:454] inception_5b/output <- inception_5b/3x3
I1126 12:32:38.320396 19071 net.cpp:454] inception_5b/output <- inception_5b/5x5
I1126 12:32:38.320400 19071 net.cpp:454] inception_5b/output <- inception_5b/pool_proj
I1126 12:32:38.320405 19071 net.cpp:411] inception_5b/output -> inception_5b/output
I1126 12:32:38.320441 19071 net.cpp:150] Setting up inception_5b/output
I1126 12:32:38.320448 19071 net.cpp:157] Top shape: 64 1024 7 7 (3211264)
I1126 12:32:38.320451 19071 net.cpp:165] Memory required for data: 3594011144
I1126 12:32:38.320454 19071 layer_factory.hpp:76] Creating layer pool5/7x7_s1
I1126 12:32:38.320461 19071 net.cpp:106] Creating Layer pool5/7x7_s1
I1126 12:32:38.320463 19071 net.cpp:454] pool5/7x7_s1 <- inception_5b/output
I1126 12:32:38.320469 19071 net.cpp:411] pool5/7x7_s1 -> pool5/7x7_s1
I1126 12:32:38.320801 19071 net.cpp:150] Setting up pool5/7x7_s1
I1126 12:32:38.320814 19071 net.cpp:157] Top shape: 64 1024 1 1 (65536)
I1126 12:32:38.320818 19071 net.cpp:165] Memory required for data: 3594273288
I1126 12:32:38.320822 19071 layer_factory.hpp:76] Creating layer pool5/drop_7x7_s1
I1126 12:32:38.320828 19071 net.cpp:106] Creating Layer pool5/drop_7x7_s1
I1126 12:32:38.320832 19071 net.cpp:454] pool5/drop_7x7_s1 <- pool5/7x7_s1
I1126 12:32:38.320837 19071 net.cpp:397] pool5/drop_7x7_s1 -> pool5/7x7_s1 (in-place)
I1126 12:32:38.320870 19071 net.cpp:150] Setting up pool5/drop_7x7_s1
I1126 12:32:38.320876 19071 net.cpp:157] Top shape: 64 1024 1 1 (65536)
I1126 12:32:38.320879 19071 net.cpp:165] Memory required for data: 3594535432
I1126 12:32:38.320883 19071 layer_factory.hpp:76] Creating layer loss3/classifier-attribute
I1126 12:32:38.320891 19071 net.cpp:106] Creating Layer loss3/classifier-attribute
I1126 12:32:38.320895 19071 net.cpp:454] loss3/classifier-attribute <- pool5/7x7_s1
I1126 12:32:38.320900 19071 net.cpp:411] loss3/classifier-attribute -> loss3/classifier-attribute
I1126 12:32:38.390913 19071 net.cpp:150] Setting up loss3/classifier-attribute
I1126 12:32:38.390933 19071 net.cpp:157] Top shape: 64 9999 (639936)
I1126 12:32:38.390938 19071 net.cpp:165] Memory required for data: 3597095176
I1126 12:32:38.390946 19071 layer_factory.hpp:76] Creating layer loss3/loss3
I1126 12:32:38.390956 19071 net.cpp:106] Creating Layer loss3/loss3
I1126 12:32:38.390961 19071 net.cpp:454] loss3/loss3 <- loss3/classifier-attribute
I1126 12:32:38.390967 19071 net.cpp:454] loss3/loss3 <- label_data_1_split_2
I1126 12:32:38.390972 19071 net.cpp:411] loss3/loss3 -> loss3/loss3
…
I1126 12:32:38.397164 19071 net.cpp:322] The NetState phase (1) differed from the phase (0) specified by a rule in layer data
I1126 12:32:38.398100 19071 net.cpp:49] Initializing net from parameters: 
name: "GoogleNet-finetune-for-cigit"
state {
  phase: TEST
}
layer {
  name: "data"
  type: "ImageData"
  top: "data"
  top: "label"
  include {
    phase: TEST
  }
  transform_param {
    mirror: false
    crop_size: 224
    mean_value: 104
    mean_value: 117
    mean_value: 123
  }
  image_data_param {
    source: "pad_test.txt"
    batch_size: 64
    new_height: 256
    new_width: 256
  }
}
layer {
  name: "conv1/7x7_s2"
  type: "Convolution"
  bottom: "data"
  top: "conv1/7x7_s2"
  param {
    lr_mult: 1
    decay_mult: 1
  }
  param {
    lr_mult: 2
    decay_mult: 0
  }
  convolution_param {
    num_output: 64
    pad: 3
    kernel_size: 7
    stride: 2
    weight_filler {
      type: "xavier"
    }
    bias_filler {
      type: "constant"
      value: 0.2
    }
  }
}
layer {
  name: "conv1/relu_7x7"
  type: "ReLU"
  bottom: "conv1/7x7_s2"
  top: "conv1/7x7_s2"
}
layer {
  name: "pool1/3x3_s2"
  type: "Pooling"
  bottom: "conv1/7x7_s2"
  top: "pool1/3x3_s2"
  pooling_param {
    pool: MAX
    kernel_size: 3
    stride: 2
  }
}
layer {
  name: "pool1/norm1"
  type: "LRN"
  bottom: "pool1/3x3_s2"
  top: "pool1/norm1"
  lrn_param {
    local_size: 5
    alpha: 0.0001
    beta: 0.75
  }
}
layer {
  name: "conv2/3x3_reduce"
  type: "Convolution"
  bottom: "pool1/norm1"
  top: "conv2/3x3_reduce"
  param {
    lr_mult: 1
    decay_mult: 1
  }
  param {
    lr_mult: 2
    decay_mult: 0
  }
  convolution_param {
    num_output: 64
    kernel_size: 1
    weight_filler {
      type: "xavier"
    }
    bias_filler {
      type: "constant"
      value: 0.2
    }
  }
}
layer {
  name: "conv2/relu_3x3_reduce"
  type: "ReLU"
  bottom: "conv2/3x3_reduce"
  top: "conv2/3x3_reduce"
}
layer {
  name: "conv2/3x3"
  type: "Convolution"
  bottom: "conv2/3x3_reduce"
  top: "conv2/3x3"
  param {
    lr_mult: 1
    decay_mult: 1
  }
  param {
    lr_mult: 2
    decay_mult: 0
  }
  convolution_param {
    num_output: 192
    pad: 1
    kernel_size: 3
    weight_filler {
      type: "xavier"
    }
    bias_filler {
      type: "constant"
      value: 0.2
    }
  }
}
layer {
  name: "conv2/relu_3x3"
  type: "ReLU"
  bottom: "conv2/3x3"
  top: "conv2/3x3"
}
layer {
  name: "conv2/norm2"
  type: "LRN"
  bottom: "conv2/3x3"
  top: "conv2/norm2"
  lrn_param {
    local_size: 5
    alpha: 0.0001
    beta: 0.75
  }
}
layer {
  name: "pool2/3x3_s2"
  type: "Pooling"
  bottom: "conv2/norm2"
  top: "pool2/3x3_s2"
  pooling_param {
    pool: MAX
    kernel_size: 3
    stride: 2
  }
}
layer {
  name: "inception_3a/1x1"
  type: "Convolution"
  bottom: "pool2/3x3_s2"
  top: "inception_3a/1x1"
  param {
    lr_mult: 1
    decay_mult: 1
  }
  param {
    lr_mult: 2
    decay_mult: 0
  }
  convolution_param {
    num_output: 64
    kernel_size: 1
    weight_filler {
      type: "xavier"
    }
    bias_filler {
      type: "constant"
      value: 0.2
    }
  }
}
layer {
  name: "inception_3a/relu_1x1"
  type: "ReLU"
  bottom: "inception_3a/1x1"
  top: "inception_3a/1x1"
}
layer {
  name: "inception_3a/3x3_reduce"
  type: "Convolution"
  bottom: "pool2/3x3_s2"
  top: "inception_3a/3x3_reduce"
  param {
    lr_mult: 1
    decay_mult: 1
  }
  param {
    lr_mult: 2
    decay_mult: 0
  }
  convolution_param {
    num_output: 96
    kernel_size: 1
    weight_filler {
      type: "xavier"
    }
    bias_filler {
      type: "constant"
      value: 0.2
    }
  }
}
layer {
  name: "inception_3a/relu_3x3_reduce"
  type: "ReLU"
  bottom: "inception_3a/3x3_reduce"
  top: "inception_3a/3x3_reduce"
}
layer {
  name: "inception_3a/3x3"
  type: "Convolution"
  bottom: "inception_3a/3x3_reduce"
  top: "inception_3a/3x3"
  param {
    lr_mult: 1
    decay_mult: 1
  }
  param {
    lr_mult: 2
    decay_mult: 0
  }
  convolution_param {
    num_output: 128
    pad: 1
    kernel_size: 3
    weight_filler {
      type: "xavier"
    }
    bias_filler {
      type: "constant"
      value: 0.2
    }
  }
}
layer {
  name: "inception_3a/relu_3x3"
  type: "ReLU"
  bottom: "inception_3a/3x3"
  top: "inception_3a/3x3"
}
layer {
  name: "inception_3a/5x5_reduce"
  type: "Convolution"
  bottom: "pool2/3x3_s2"
  top: "inception_3a/5x5_reduce"
  param {
    lr_mult: 1
    decay_mult: 1
  }
  param {
    lr_mult: 2
    decay_mult: 0
  }
  convolution_param {
    num_output: 16
    kernel_size: 1
    weight_filler {
      type: "xavier"
    }
    bias_filler {
      type: "constant"
      value: 0.2
    }
  }
}
layer {
  name: "inception_3a/relu_5x5_reduce"
  type: "ReLU"
  bottom: "inception_3a/5x5_reduce"
  top: "inception_3a/5x5_reduce"
}
layer {
  name: "inception_3a/5x5"
  type: "Convolution"
  bottom: "inception_3a/5x5_reduce"
  top: "inception_3a/5x5"
  param {
    lr_mult: 1
    decay_mult: 1
  }
  param {
    lr_mult: 2
    decay_mult: 0
  }
  convolution_param {
    num_output: 32
    pad: 2
    kernel_size: 5
    weight_filler {
      type: "xavier"
    }
    bias_filler {
      type: "constant"
      value: 0.2
    }
  }
}
layer {
  name: "inception_3a/relu_5x5"
  type: "ReLU"
  bottom: "inception_3a/5x5"
  top: "inception_3a/5x5"
}
layer {
  name: "inception_3a/pool"
  type: "Pooling"
  bottom: "pool2/3x3_s2"
  top: "inception_3a/pool"
  pooling_param {
    pool: MAX
    kernel_size: 3
    stride: 1
    pad: 1
  }
}
layer {
  name: "inception_3a/pool_proj"
  type: "Convolution"
  bottom: "inception_3a/pool"
  top: "inception_3a/pool_proj"
  param {
    lr_mult: 1
    decay_mult: 1
  }
  param {
    lr_mult: 2
    decay_mult: 0
  }
  convolution_param {
    num_output: 32
    kernel_size: 1
    weight_filler {
      type: "xavier"
    }
    bias_filler {
      type: "constant"
      value: 0.2
    }
  }
}
layer {
  name: "inception_3a/relu_pool_proj"
  type: "ReLU"
  bottom: "inception_3a/pool_proj"
  top: "inception_3a/pool_proj"
}
layer {
  name: "inception_3a/output"
  type: "Concat"
  bottom: "inception_3a/1x1"
  bottom: "inception_3a/3x3"
  bottom: "inception_3a/5x5"
  bottom: "inception_3a/pool_proj"
  top: "inception_3a/output"
}
layer {
  name: "inception_3b/1x1"
  type: "Convolution"
  bottom: "inception_3a/output"
  top: "inception_3b/1x1"
  param {
    lr_mult: 1
    decay_mult: 1
  }
  param {
    lr_mult: 2
    decay_mult: 0
  }
  convolution_param {
    num_output: 128
    kernel_size: 1
    weight_filler {
      type: "xavier"
    }
    bias_filler {
      type: "constant"
      value: 0.2
    }
  }
}
layer {
  name: "inception_3b/relu_1x1"
  type: "ReLU"
  bottom: "inception_3b/1x1"
  top: "inception_3b/1x1"
}
layer {
  name: "inception_3b/3x3_reduce"
  type: "Convolution"
  bottom: "inception_3a/output"
  top: "inception_3b/3x3_reduce"
  param {
    lr_mult: 1
    decay_mult: 1
  }
  param {
    lr_mult: 2
    decay_mult: 0
  }
  convolution_param {
    num_output: 128
    kernel_size: 1
    weight_filler {
      type: "xavier"
    }
    bias_filler {
      type: "constant"
      value: 0.2
    }
  }
}
layer {
  name: "inception_3b/relu_3x3_reduce"
  type: "ReLU"
  bottom: "inception_3b/3x3_reduce"
  top: "inception_3b/3x3_reduce"
}
layer {
  name: "inception_3b/3x3"
  type: "Convolution"
  bottom: "inception_3b/3x3_reduce"
  top: "inception_3b/3x3"
  param {
    lr_mult: 1
    decay_mult: 1
  }
  param {
    lr_mult: 2
    decay_mult: 0
  }
  convolution_param {
    num_output: 192
    pad: 1
    kernel_size: 3
    weight_filler {
      type: "xavier"
    }
    bias_filler {
      type: "constant"
      value: 0.2
    }
  }
}
layer {
  name: "inception_3b/relu_3x3"
  type: "ReLU"
  bottom: "inception_3b/3x3"
  top: "inception_3b/3x3"
}
layer {
  name: "inception_3b/5x5_reduce"
  type: "Convolution"
  bottom: "inception_3a/output"
  top: "inception_3b/5x5_reduce"
  param {
    lr_mult: 1
    decay_mult: 1
  }
  param {
    lr_mult: 2
    decay_mult: 0
  }
  convolution_param {
    num_output: 32
    kernel_size: 1
    weight_filler {
      type: "xavier"
    }
    bias_filler {
      type: "constant"
      value: 0.2
    }
  }
}
layer {
  name: "inception_3b/relu_5x5_reduce"
  type: "ReLU"
  bottom: "inception_3b/5x5_reduce"
  top: "inception_3b/5x5_reduce"
}
layer {
  name: "inception_3b/5x5"
  type: "Convolution"
  bottom: "inception_3b/5x5_reduce"
  top: "inception_3b/5x5"
  param {
    lr_mult: 1
    decay_mult: 1
  }
  param {
    lr_mult: 2
    decay_mult: 0
  }
  convolution_param {
    num_output: 96
    pad: 2
    kernel_size: 5
    weight_filler {
      type: "xavier"
    }
    bias_filler {
      type: "constant"
      value: 0.2
    }
  }
}
layer {
  name: "inception_3b/relu_5x5"
  type: "ReLU"
  bottom: "inception_3b/5x5"
  top: "inception_3b/5x5"
}
layer {
  name: "inception_3b/pool"
  type: "Pooling"
  bottom: "inception_3a/output"
  top: "inception_3b/pool"
  pooling_param {
    pool: MAX
    kernel_size: 3
    stride: 1
    pad: 1
  }
}
layer {
  name: "inception_3b/pool_proj"
  type: "Convolution"
  bottom: "inception_3b/pool"
  top: "inception_3b/pool_proj"
  param {
    lr_mult: 1
    decay_mult: 1
  }
  param {
    lr_mult: 2
    decay_mult: 0
  }
  convolution_param {
    num_output: 64
    kernel_size: 1
    weight_filler {
      type: "xavier"
    }
    bias_filler {
      type: "constant"
      value: 0.2
    }
  }
}
layer {
  name: "inception_3b/relu_pool_proj"
  type: "ReLU"
  bottom: "inception_3b/pool_proj"
  top: "inception_3b/pool_proj"
}
layer {
  name: "inception_3b/output"
  type: "Concat"
  bottom: "inception_3b/1x1"
  bottom: "inception_3b/3x3"
  bottom: "inception_3b/5x5"
  bottom: "inception_3b/pool_proj"
  top: "inception_3b/output"
}
layer {
  name: "pool3/3x3_s2"
  type: "Pooling"
  bottom: "inception_3b/output"
  top: "pool3/3x3_s2"
  pooling_param {
    pool: MAX
    kernel_size: 3
    stride: 2
  }
}
layer {
  name: "inception_4a/1x1"
  type: "Convolution"
  bottom: "pool3/3x3_s2"
  top: "inception_4a/1x1"
  param {
    lr_mult: 1
    decay_mult: 1
  }
  param {
    lr_mult: 2
    decay_mult: 0
  }
  convolution_param {
    num_output: 192
    kernel_size: 1
    weight_filler {
      type: "xavier"
    }
    bias_filler {
      type: "constant"
      value: 0.2
    }
  }
}
layer {
  name: "inception_4a/relu_1x1"
  type: "ReLU"
  bottom: "inception_4a/1x1"
  top: "inception_4a/1x1"
}
layer {
  name: "inception_4a/3x3_reduce"
  type: "Convolution"
  bottom: "pool3/3x3_s2"
  top: "inception_4a/3x3_reduce"
  param {
    lr_mult: 1
    decay_mult: 1
  }
  param {
    lr_mult: 2
    decay_mult: 0
  }
  convolution_param {
    num_output: 96
    kernel_size: 1
    weight_filler {
      type: "xavier"
    }
    bias_filler {
      type: "constant"
      value: 0.2
    }
  }
}
layer {
  name: "inception_4a/relu_3x3_reduce"
  type: "ReLU"
  bottom: "inception_4a/3x3_reduce"
  top: "inception_4a/3x3_reduce"
}
layer {
  name: "inception_4a/3x3"
  type: "Convolution"
  bottom: "inception_4a/3x3_reduce"
  top: "inception_4a/3x3"
  param {
    lr_mult: 1
    decay_mult: 1
  }
  param {
    lr_mult: 2
    decay_mult: 0
  }
  convolution_param {
    num_output: 208
    pad: 1
    kernel_size: 3
    weight_filler {
      type: "xavier"
    }
    bias_filler {
      type: "constant"
      value: 0.2
    }
  }
}
layer {
  name: "inception_4a/relu_3x3"
  type: "ReLU"
  bottom: "inception_4a/3x3"
  top: "inception_4a/3x3"
}
layer {
  name: "inception_4a/5x5_reduce"
  type: "Convolution"
  bottom: "pool3/3x3_s2"
  top: "inception_4a/5x5_reduce"
  param {
    lr_mult: 1
    decay_mult: 1
  }
  param {
    lr_mult: 2
    decay_mult: 0
  }
  convolution_param {
    num_output: 16
    kernel_size: 1
    weight_filler {
      type: "xavier"
    }
    bias_filler {
      type: "constant"
      value: 0.2
    }
  }
}
layer {
  name: "inception_4a/relu_5x5_reduce"
  type: "ReLU"
  bottom: "inception_4a/5x5_reduce"
  top: "inception_4a/5x5_reduce"
}
layer {
  name: "inception_4a/5x5"
  type: "Convolution"
  bottom: "inception_4a/5x5_reduce"
  top: "inception_4a/5x5"
  param {
    lr_mult: 1
    decay_mult: 1
  }
  param {
    lr_mult: 2
    decay_mult: 0
  }
  convolution_param {
    num_output: 48
    pad: 2
    kernel_size: 5
    weight_filler {
      type: "xavier"
    }
    bias_filler {
      type: "constant"
      value: 0.2
    }
  }
}
layer {
  name: "inception_4a/relu_5x5"
  type: "ReLU"
  bottom: "inception_4a/5x5"
  top: "inception_4a/5x5"
}
layer {
  name: "inception_4a/pool"
  type: "Pooling"
  bottom: "pool3/3x3_s2"
  top: "inception_4a/pool"
  pooling_param {
    pool: MAX
    kernel_size: 3
    stride: 1
    pad: 1
  }
}
layer {
  name: "inception_4a/pool_proj"
  type: "Convolution"
  bottom: "inception_4a/pool"
  top: "inception_4a/pool_proj"
  param {
    lr_mult: 1
    decay_mult: 1
  }
  param {
    lr_mult: 2
    decay_mult: 0
  }
  convolution_param {
    num_output: 64
    kernel_size: 1
    weight_filler {
      type: "xavier"
    }
    bias_filler {
      type: "constant"
      value: 0.2
    }
  }
}
layer {
  name: "inception_4a/relu_pool_proj"
  type: "ReLU"
  bottom: "inception_4a/pool_proj"
  top: "inception_4a/pool_proj"
}
layer {
  name: "inception_4a/output"
  type: "Concat"
  bottom: "inception_4a/1x1"
  bottom: "inception_4a/3x3"
  bottom: "inception_4a/5x5"
  bottom: "inception_4a/pool_proj"
  top: "inception_4a/output"
}
layer {
  name: "loss1/ave_pool"
  type: "Pooling"
  bottom: "inception_4a/output"
  top: "loss1/ave_pool"
  pooling_param {
    pool: AVE
    kernel_size: 5
    stride: 3
  }
}
layer {
  name: "loss1/conv"
  type: "Convolution"
  bottom: "loss1/ave_pool"
  top: "loss1/conv"
  param {
    lr_mult: 1
    decay_mult: 1
  }
  param {
    lr_mult: 2
    decay_mult: 0
  }
  convolution_param {
    num_output: 128
    kernel_size: 1
    weight_filler {
      type: "xavier"
    }
    bias_filler {
      type: "constant"
      value: 0.2
    }
  }
}
layer {
  name: "loss1/relu_conv"
  type: "ReLU"
  bottom: "loss1/conv"
  top: "loss1/conv"
}
layer {
  name: "loss1/fc"
  type: "InnerProduct"
  bottom: "loss1/conv"
  top: "loss1/fc"
  param {
    lr_mult: 1
    decay_mult: 1
  }
  param {
    lr_mult: 2
    decay_mult: 0
  }
…
I1126 12:32:38.705771 19071 net.cpp:106] Creating Layer inception_4c/pool
I1126 12:32:38.705776 19071 net.cpp:454] inception_4c/pool <- inception_4b/output_inception_4b/output_0_split_3
I1126 12:32:38.705782 19071 net.cpp:411] inception_4c/pool -> inception_4c/pool
I1126 12:32:38.706027 19071 net.cpp:150] Setting up inception_4c/pool
I1126 12:32:38.706038 19071 net.cpp:157] Top shape: 64 512 14 14 (6422528)
I1126 12:32:38.706042 19071 net.cpp:165] Memory required for data: 2835919880
I1126 12:32:38.706045 19071 layer_factory.hpp:76] Creating layer inception_4c/pool_proj
I1126 12:32:38.706084 19071 net.cpp:106] Creating Layer inception_4c/pool_proj
I1126 12:32:38.706091 19071 net.cpp:454] inception_4c/pool_proj <- inception_4c/pool
I1126 12:32:38.706099 19071 net.cpp:411] inception_4c/pool_proj -> inception_4c/pool_proj
I1126 12:32:38.707615 19071 net.cpp:150] Setting up inception_4c/pool_proj
I1126 12:32:38.707630 19071 net.cpp:157] Top shape: 64 64 14 14 (802816)
I1126 12:32:38.707635 19071 net.cpp:165] Memory required for data: 2839131144
I1126 12:32:38.707643 19071 layer_factory.hpp:76] Creating layer inception_4c/relu_pool_proj
I1126 12:32:38.707648 19071 net.cpp:106] Creating Layer inception_4c/relu_pool_proj
I1126 12:32:38.707653 19071 net.cpp:454] inception_4c/relu_pool_proj <- inception_4c/pool_proj
I1126 12:32:38.707658 19071 net.cpp:397] inception_4c/relu_pool_proj -> inception_4c/pool_proj (in-place)
I1126 12:32:38.708012 19071 net.cpp:150] Setting up inception_4c/relu_pool_proj
I1126 12:32:38.708025 19071 net.cpp:157] Top shape: 64 64 14 14 (802816)
I1126 12:32:38.708029 19071 net.cpp:165] Memory required for data: 2842342408
I1126 12:32:38.708032 19071 layer_factory.hpp:76] Creating layer inception_4c/output
I1126 12:32:38.708039 19071 net.cpp:106] Creating Layer inception_4c/output
I1126 12:32:38.708042 19071 net.cpp:454] inception_4c/output <- inception_4c/1x1
I1126 12:32:38.708047 19071 net.cpp:454] inception_4c/output <- inception_4c/3x3
I1126 12:32:38.708051 19071 net.cpp:454] inception_4c/output <- inception_4c/5x5
I1126 12:32:38.708055 19071 net.cpp:454] inception_4c/output <- inception_4c/pool_proj
I1126 12:32:38.708060 19071 net.cpp:411] inception_4c/output -> inception_4c/output
I1126 12:32:38.708109 19071 net.cpp:150] Setting up inception_4c/output
I1126 12:32:38.708117 19071 net.cpp:157] Top shape: 64 512 14 14 (6422528)
I1126 12:32:38.708119 19071 net.cpp:165] Memory required for data: 2868032520
I1126 12:32:38.708122 19071 layer_factory.hpp:76] Creating layer inception_4c/output_inception_4c/output_0_split
I1126 12:32:38.708129 19071 net.cpp:106] Creating Layer inception_4c/output_inception_4c/output_0_split
I1126 12:32:38.708133 19071 net.cpp:454] inception_4c/output_inception_4c/output_0_split <- inception_4c/output
I1126 12:32:38.708138 19071 net.cpp:411] inception_4c/output_inception_4c/output_0_split -> inception_4c/output_inception_4c/output_0_split_0
I1126 12:32:38.708144 19071 net.cpp:411] inception_4c/output_inception_4c/output_0_split -> inception_4c/output_inception_4c/output_0_split_1
I1126 12:32:38.708150 19071 net.cpp:411] inception_4c/output_inception_4c/output_0_split -> inception_4c/output_inception_4c/output_0_split_2
I1126 12:32:38.708156 19071 net.cpp:411] inception_4c/output_inception_4c/output_0_split -> inception_4c/output_inception_4c/output_0_split_3
I1126 12:32:38.708255 19071 net.cpp:150] Setting up inception_4c/output_inception_4c/output_0_split
I1126 12:32:38.708262 19071 net.cpp:157] Top shape: 64 512 14 14 (6422528)
I1126 12:32:38.708266 19071 net.cpp:157] Top shape: 64 512 14 14 (6422528)
I1126 12:32:38.708271 19071 net.cpp:157] Top shape: 64 512 14 14 (6422528)
I1126 12:32:38.708273 19071 net.cpp:157] Top shape: 64 512 14 14 (6422528)
I1126 12:32:38.708276 19071 net.cpp:165] Memory required for data: 2970792968
I1126 12:32:38.708279 19071 layer_factory.hpp:76] Creating layer inception_4d/1x1
I1126 12:32:38.708288 19071 net.cpp:106] Creating Layer inception_4d/1x1
I1126 12:32:38.708292 19071 net.cpp:454] inception_4d/1x1 <- inception_4c/output_inception_4c/output_0_split_0
I1126 12:32:38.708298 19071 net.cpp:411] inception_4d/1x1 -> inception_4d/1x1
I1126 12:32:38.709817 19071 net.cpp:150] Setting up inception_4d/1x1
I1126 12:32:38.709832 19071 net.cpp:157] Top shape: 64 112 14 14 (1404928)
I1126 12:32:38.709836 19071 net.cpp:165] Memory required for data: 2976412680
I1126 12:32:38.709842 19071 layer_factory.hpp:76] Creating layer inception_4d/relu_1x1
I1126 12:32:38.709848 19071 net.cpp:106] Creating Layer inception_4d/relu_1x1
I1126 12:32:38.709852 19071 net.cpp:454] inception_4d/relu_1x1 <- inception_4d/1x1
I1126 12:32:38.709859 19071 net.cpp:397] inception_4d/relu_1x1 -> inception_4d/1x1 (in-place)
I1126 12:32:38.710221 19071 net.cpp:150] Setting up inception_4d/relu_1x1
I1126 12:32:38.710234 19071 net.cpp:157] Top shape: 64 112 14 14 (1404928)
I1126 12:32:38.710238 19071 net.cpp:165] Memory required for data: 2982032392
I1126 12:32:38.710242 19071 layer_factory.hpp:76] Creating layer inception_4d/3x3_reduce
I1126 12:32:38.710252 19071 net.cpp:106] Creating Layer inception_4d/3x3_reduce
I1126 12:32:38.710255 19071 net.cpp:454] inception_4d/3x3_reduce <- inception_4c/output_inception_4c/output_0_split_1
I1126 12:32:38.710263 19071 net.cpp:411] inception_4d/3x3_reduce -> inception_4d/3x3_reduce
I1126 12:32:38.712126 19071 net.cpp:150] Setting up inception_4d/3x3_reduce
I1126 12:32:38.712141 19071 net.cpp:157] Top shape: 64 144 14 14 (1806336)
I1126 12:32:38.712144 19071 net.cpp:165] Memory required for data: 2989257736
I1126 12:32:38.712152 19071 layer_factory.hpp:76] Creating layer inception_4d/relu_3x3_reduce
I1126 12:32:38.712158 19071 net.cpp:106] Creating Layer inception_4d/relu_3x3_reduce
I1126 12:32:38.712163 19071 net.cpp:454] inception_4d/relu_3x3_reduce <- inception_4d/3x3_reduce
I1126 12:32:38.712168 19071 net.cpp:397] inception_4d/relu_3x3_reduce -> inception_4d/3x3_reduce (in-place)
I1126 12:32:38.712366 19071 net.cpp:150] Setting up inception_4d/relu_3x3_reduce
I1126 12:32:38.712378 19071 net.cpp:157] Top shape: 64 144 14 14 (1806336)
I1126 12:32:38.712381 19071 net.cpp:165] Memory required for data: 2996483080
I1126 12:32:38.712385 19071 layer_factory.hpp:76] Creating layer inception_4d/3x3
I1126 12:32:38.712393 19071 net.cpp:106] Creating Layer inception_4d/3x3
I1126 12:32:38.712398 19071 net.cpp:454] inception_4d/3x3 <- inception_4d/3x3_reduce
I1126 12:32:38.712404 19071 net.cpp:411] inception_4d/3x3 -> inception_4d/3x3
I1126 12:32:38.716562 19071 net.cpp:150] Setting up inception_4d/3x3
I1126 12:32:38.716578 19071 net.cpp:157] Top shape: 64 288 14 14 (3612672)
I1126 12:32:38.716581 19071 net.cpp:165] Memory required for data: 3010933768
I1126 12:32:38.716588 19071 layer_factory.hpp:76] Creating layer inception_4d/relu_3x3
I1126 12:32:38.716596 19071 net.cpp:106] Creating Layer inception_4d/relu_3x3
I1126 12:32:38.716600 19071 net.cpp:454] inception_4d/relu_3x3 <- inception_4d/3x3
I1126 12:32:38.716605 19071 net.cpp:397] inception_4d/relu_3x3 -> inception_4d/3x3 (in-place)
I1126 12:32:38.716954 19071 net.cpp:150] Setting up inception_4d/relu_3x3
I1126 12:32:38.716969 19071 net.cpp:157] Top shape: 64 288 14 14 (3612672)
I1126 12:32:38.716971 19071 net.cpp:165] Memory required for data: 3025384456
I1126 12:32:38.716975 19071 layer_factory.hpp:76] Creating layer inception_4d/5x5_reduce
I1126 12:32:38.716984 19071 net.cpp:106] Creating Layer inception_4d/5x5_reduce
I1126 12:32:38.716989 19071 net.cpp:454] inception_4d/5x5_reduce <- inception_4c/output_inception_4c/output_0_split_2
I1126 12:32:38.716997 19071 net.cpp:411] inception_4d/5x5_reduce -> inception_4d/5x5_reduce
I1126 12:32:38.718407 19071 net.cpp:150] Setting up inception_4d/5x5_reduce
I1126 12:32:38.718421 19071 net.cpp:157] Top shape: 64 32 14 14 (401408)
I1126 12:32:38.718425 19071 net.cpp:165] Memory required for data: 3026990088
I1126 12:32:38.718432 19071 layer_factory.hpp:76] Creating layer inception_4d/relu_5x5_reduce
I1126 12:32:38.718438 19071 net.cpp:106] Creating Layer inception_4d/relu_5x5_reduce
I1126 12:32:38.718443 19071 net.cpp:454] inception_4d/relu_5x5_reduce <- inception_4d/5x5_reduce
I1126 12:32:38.718449 19071 net.cpp:397] inception_4d/relu_5x5_reduce -> inception_4d/5x5_reduce (in-place)
I1126 12:32:38.718814 19071 net.cpp:150] Setting up inception_4d/relu_5x5_reduce
I1126 12:32:38.718828 19071 net.cpp:157] Top shape: 64 32 14 14 (401408)
I1126 12:32:38.718832 19071 net.cpp:165] Memory required for data: 3028595720
I1126 12:32:38.718837 19071 layer_factory.hpp:76] Creating layer inception_4d/5x5
I1126 12:32:38.718845 19071 net.cpp:106] Creating Layer inception_4d/5x5
I1126 12:32:38.718849 19071 net.cpp:454] inception_4d/5x5 <- inception_4d/5x5_reduce
I1126 12:32:38.718858 19071 net.cpp:411] inception_4d/5x5 -> inception_4d/5x5
I1126 12:32:38.720495 19071 net.cpp:150] Setting up inception_4d/5x5
I1126 12:32:38.720510 19071 net.cpp:157] Top shape: 64 64 14 14 (802816)
I1126 12:32:38.720513 19071 net.cpp:165] Memory required for data: 3031806984
I1126 12:32:38.720520 19071 layer_factory.hpp:76] Creating layer inception_4d/relu_5x5
I1126 12:32:38.720527 19071 net.cpp:106] Creating Layer inception_4d/relu_5x5
I1126 12:32:38.720531 19071 net.cpp:454] inception_4d/relu_5x5 <- inception_4d/5x5
I1126 12:32:38.720536 19071 net.cpp:397] inception_4d/relu_5x5 -> inception_4d/5x5 (in-place)
I1126 12:32:38.720733 19071 net.cpp:150] Setting up inception_4d/relu_5x5
I1126 12:32:38.720744 19071 net.cpp:157] Top shape: 64 64 14 14 (802816)
I1126 12:32:38.720748 19071 net.cpp:165] Memory required for data: 3035018248
I1126 12:32:38.720752 19071 layer_factory.hpp:76] Creating layer inception_4d/pool
I1126 12:32:38.720757 19071 net.cpp:106] Creating Layer inception_4d/pool
I1126 12:32:38.720762 19071 net.cpp:454] inception_4d/pool <- inception_4c/output_inception_4c/output_0_split_3
I1126 12:32:38.720768 19071 net.cpp:411] inception_4d/pool -> inception_4d/pool
I1126 12:32:38.721174 19071 net.cpp:150] Setting up inception_4d/pool
I1126 12:32:38.721186 19071 net.cpp:157] Top shape: 64 512 14 14 (6422528)
I1126 12:32:38.721190 19071 net.cpp:165] Memory required for data: 3060708360
I1126 12:32:38.721194 19071 layer_factory.hpp:76] Creating layer inception_4d/pool_proj
I1126 12:32:38.721204 19071 net.cpp:106] Creating Layer inception_4d/pool_proj
I1126 12:32:38.721207 19071 net.cpp:454] inception_4d/pool_proj <- inception_4d/pool
I1126 12:32:38.721215 19071 net.cpp:411] inception_4d/pool_proj -> inception_4d/pool_proj
I1126 12:32:38.722730 19071 net.cpp:150] Setting up inception_4d/pool_proj
I1126 12:32:38.722744 19071 net.cpp:157] Top shape: 64 64 14 14 (802816)
I1126 12:32:38.722748 19071 net.cpp:165] Memory required for data: 3063919624
I1126 12:32:38.722756 19071 layer_factory.hpp:76] Creating layer inception_4d/relu_pool_proj
I1126 12:32:38.722764 19071 net.cpp:106] Creating Layer inception_4d/relu_pool_proj
I1126 12:32:38.722769 19071 net.cpp:454] inception_4d/relu_pool_proj <- inception_4d/pool_proj
I1126 12:32:38.722774 19071 net.cpp:397] inception_4d/relu_pool_proj -> inception_4d/pool_proj (in-place)
I1126 12:32:38.722985 19071 net.cpp:150] Setting up inception_4d/relu_pool_proj
I1126 12:32:38.722997 19071 net.cpp:157] Top shape: 64 64 14 14 (802816)
I1126 12:32:38.723001 19071 net.cpp:165] Memory required for data: 3067130888
I1126 12:32:38.723004 19071 layer_factory.hpp:76] Creating layer inception_4d/output
I1126 12:32:38.723011 19071 net.cpp:106] Creating Layer inception_4d/output
I1126 12:32:38.723014 19071 net.cpp:454] inception_4d/output <- inception_4d/1x1
I1126 12:32:38.723018 19071 net.cpp:454] inception_4d/output <- inception_4d/3x3
I1126 12:32:38.723022 19071 net.cpp:454] inception_4d/output <- inception_4d/5x5
I1126 12:32:38.723026 19071 net.cpp:454] inception_4d/output <- inception_4d/pool_proj
I1126 12:32:38.723032 19071 net.cpp:411] inception_4d/output -> inception_4d/output
I1126 12:32:38.723080 19071 net.cpp:150] Setting up inception_4d/output
I1126 12:32:38.723088 19071 net.cpp:157] Top shape: 64 528 14 14 (6623232)
I1126 12:32:38.723089 19071 net.cpp:165] Memory required for data: 3093623816
I1126 12:32:38.723093 19071 layer_factory.hpp:76] Creating layer inception_4d/output_inception_4d/output_0_split
I1126 12:32:38.723099 19071 net.cpp:106] Creating Layer inception_4d/output_inception_4d/output_0_split
I1126 12:32:38.723103 19071 net.cpp:454] inception_4d/output_inception_4d/output_0_split <- inception_4d/output
I1126 12:32:38.723108 19071 net.cpp:411] inception_4d/output_inception_4d/output_0_split -> inception_4d/output_inception_4d/output_0_split_0
I1126 12:32:38.723114 19071 net.cpp:411] inception_4d/output_inception_4d/output_0_split -> inception_4d/output_inception_4d/output_0_split_1
I1126 12:32:38.723120 19071 net.cpp:411] inception_4d/output_inception_4d/output_0_split -> inception_4d/output_inception_4d/output_0_split_2
I1126 12:32:38.723126 19071 net.cpp:411] inception_4d/output_inception_4d/output_0_split -> inception_4d/output_inception_4d/output_0_split_3
I1126 12:32:38.723131 19071 net.cpp:411] inception_4d/output_inception_4d/output_0_split -> inception_4d/output_inception_4d/output_0_split_4
I1126 12:32:38.723244 19071 net.cpp:150] Setting up inception_4d/output_inception_4d/output_0_split
I1126 12:32:38.723253 19071 net.cpp:157] Top shape: 64 528 14 14 (6623232)
I1126 12:32:38.723258 19071 net.cpp:157] Top shape: 64 528 14 14 (6623232)
I1126 12:32:38.723263 19071 net.cpp:157] Top shape: 64 528 14 14 (6623232)
I1126 12:32:38.723265 19071 net.cpp:157] Top shape: 64 528 14 14 (6623232)
I1126 12:32:38.723269 19071 net.cpp:157] Top shape: 64 528 14 14 (6623232)
I1126 12:32:38.723271 19071 net.cpp:165] Memory required for data: 3226088456
I1126 12:32:38.723276 19071 layer_factory.hpp:76] Creating layer loss2/ave_pool
I1126 12:32:38.723281 19071 net.cpp:106] Creating Layer loss2/ave_pool
I1126 12:32:38.723284 19071 net.cpp:454] loss2/ave_pool <- inception_4d/output_inception_4d/output_0_split_0
I1126 12:32:38.723290 19071 net.cpp:411] loss2/ave_pool -> loss2/ave_pool
I1126 12:32:38.723696 19071 net.cpp:150] Setting up loss2/ave_pool
I1126 12:32:38.723711 19071 net.cpp:157] Top shape: 64 528 4 4 (540672)
I1126 12:32:38.723714 19071 net.cpp:165] Memory required for data: 3228251144
I1126 12:32:38.723717 19071 layer_factory.hpp:76] Creating layer loss2/conv
I1126 12:32:38.723728 19071 net.cpp:106] Creating Layer loss2/conv
I1126 12:32:38.723733 19071 net.cpp:454] loss2/conv <- loss2/ave_pool
I1126 12:32:38.723739 19071 net.cpp:411] loss2/conv -> loss2/conv
I1126 12:32:38.725749 19071 net.cpp:150] Setting up loss2/conv
I1126 12:32:38.725764 19071 net.cpp:157] Top shape: 64 128 4 4 (131072)
I1126 12:32:38.725767 19071 net.cpp:165] Memory required for data: 3228775432
I1126 12:32:38.725775 19071 layer_factory.hpp:76] Creating layer loss2/relu_conv
I1126 12:32:38.725780 19071 net.cpp:106] Creating Layer loss2/relu_conv
I1126 12:32:38.725785 19071 net.cpp:454] loss2/relu_conv <- loss2/conv
I1126 12:32:38.725790 19071 net.cpp:397] loss2/relu_conv -> loss2/conv (in-place)
I1126 12:32:38.726148 19071 net.cpp:150] Setting up loss2/relu_conv
I1126 12:32:38.726161 19071 net.cpp:157] Top shape: 64 128 4 4 (131072)
I1126 12:32:38.726166 19071 net.cpp:165] Memory required for data: 3229299720
I1126 12:32:38.726168 19071 layer_factory.hpp:76] Creating layer loss2/fc
I1126 12:32:38.726176 19071 net.cpp:106] Creating Layer loss2/fc
I1126 12:32:38.726181 19071 net.cpp:454] loss2/fc <- loss2/conv
I1126 12:32:38.726187 19071 net.cpp:411] loss2/fc -> loss2/fc
I1126 12:32:38.741829 19071 net.cpp:150] Setting up loss2/fc
I1126 12:32:38.741848 19071 net.cpp:157] Top shape: 64 1024 (65536)
I1126 12:32:38.741852 19071 net.cpp:165] Memory required for data: 3229561864
I1126 12:32:38.741860 19071 layer_factory.hpp:76] Creating layer loss2/relu_fc
I1126 12:32:38.741868 19071 net.cpp:106] Creating Layer loss2/relu_fc
I1126 12:32:38.741873 19071 net.cpp:454] loss2/relu_fc <- loss2/fc
I1126 12:32:38.741878 19071 net.cpp:397] loss2/relu_fc -> loss2/fc (in-place)
I1126 12:32:38.742106 19071 net.cpp:150] Setting up loss2/relu_fc
I1126 12:32:38.742117 19071 net.cpp:157] Top shape: 64 1024 (65536)
I1126 12:32:38.742120 19071 net.cpp:165] Memory required for data: 3229824008
I1126 12:32:38.742125 19071 layer_factory.hpp:76] Creating layer loss2/drop_fc
I1126 12:32:38.742131 19071 net.cpp:106] Creating Layer loss2/drop_fc
I1126 12:32:38.742136 19071 net.cpp:454] loss2/drop_fc <- loss2/fc
I1126 12:32:38.742141 19071 net.cpp:397] loss2/drop_fc -> loss2/fc (in-place)
I1126 12:32:38.742187 19071 net.cpp:150] Setting up loss2/drop_fc
I1126 12:32:38.742195 19071 net.cpp:157] Top shape: 64 1024 (65536)
I1126 12:32:38.742198 19071 net.cpp:165] Memory required for data: 3230086152
I1126 12:32:38.742202 19071 layer_factory.hpp:76] Creating layer loss2/classifier-attribute
I1126 12:32:38.742211 19071 net.cpp:106] Creating Layer loss2/classifier-attribute
I1126 12:32:38.742214 19071 net.cpp:454] loss2/classifier-attribute <- loss2/fc
I1126 12:32:38.742221 19071 net.cpp:411] loss2/classifier-attribute -> loss2/classifier-attribute
I1126 12:32:38.819535 19071 net.cpp:150] Setting up loss2/classifier-attribute
I1126 12:32:38.819556 19071 net.cpp:157] Top shape: 64 9999 (639936)
I1126 12:32:38.819561 19071 net.cpp:165] Memory required for data: 3232645896
I1126 12:32:38.819569 19071 layer_factory.hpp:76] Creating layer loss2/classifier-attribute_loss2/classifier-attribute_0_split
I1126 12:32:38.819579 19071 net.cpp:106] Creating Layer loss2/classifier-attribute_loss2/classifier-attribute_0_split
I1126 12:32:38.819587 19071 net.cpp:454] loss2/classifier-attribute_loss2/classifier-attribute_0_split <- loss2/classifier-attribute
I1126 12:32:38.819593 19071 net.cpp:411] loss2/classifier-attribute_loss2/classifier-attribute_0_split -> loss2/classifier-attribute_loss2/classifier-attribute_0_split_0
I1126 12:32:38.819602 19071 net.cpp:411] loss2/classifier-attribute_loss2/classifier-attribute_0_split -> loss2/classifier-attribute_loss2/classifier-attribute_0_split_1
I1126 12:32:38.819675 19071 net.cpp:150] Setting up loss2/classifier-attribute_loss2/classifier-attribute_0_split
I1126 12:32:38.819689 19071 net.cpp:157] Top shape: 64 9999 (639936)
I1126 12:32:38.819691 19071 net.cpp:157] Top shape: 64 9999 (639936)
I1126 12:32:38.819694 19071 net.cpp:165] Memory required for data: 3237765384
I1126 12:32:38.819699 19071 layer_factory.hpp:76] Creating layer loss2/loss
I1126 12:32:38.819705 19071 net.cpp:106] Creating Layer loss2/loss
I1126 12:32:38.819708 19071 net.cpp:454] loss2/loss <- loss2/classifier-attribute_loss2/classifier-attribute_0_split_0
I1126 12:32:38.819713 19071 net.cpp:454] loss2/loss <- label_data_1_split_2
…
I1126 12:32:38.821697 19071 net.cpp:150] Setting up loss2/top-1
I1126 12:32:38.821702 19071 net.cpp:157] Top shape: (1)
I1126 12:32:38.821705 19071 net.cpp:165] Memory required for data: 3237765392
I1126 12:32:38.821708 19071 layer_factory.hpp:76] Creating layer inception_4e/1x1
I1126 12:32:38.821718 19071 net.cpp:106] Creating Layer inception_4e/1x1
I1126 12:32:38.821723 19071 net.cpp:454] inception_4e/1x1 <- inception_4d/output_inception_4d/output_0_split_1
I1126 12:32:38.821730 19071 net.cpp:411] inception_4e/1x1 -> inception_4e/1x1
I1126 12:32:38.823981 19071 net.cpp:150] Setting up inception_4e/1x1
I1126 12:32:38.823995 19071 net.cpp:157] Top shape: 64 256 14 14 (3211264)
I1126 12:32:38.823999 19071 net.cpp:165] Memory required for data: 3250610448
I1126 12:32:38.824005 19071 layer_factory.hpp:76] Creating layer inception_4e/relu_1x1
I1126 12:32:38.824012 19071 net.cpp:106] Creating Layer inception_4e/relu_1x1
I1126 12:32:38.824017 19071 net.cpp:454] inception_4e/relu_1x1 <- inception_4e/1x1
I1126 12:32:38.824023 19071 net.cpp:397] inception_4e/relu_1x1 -> inception_4e/1x1 (in-place)
I1126 12:32:38.824221 19071 net.cpp:150] Setting up inception_4e/relu_1x1
I1126 12:32:38.824232 19071 net.cpp:157] Top shape: 64 256 14 14 (3211264)
I1126 12:32:38.824235 19071 net.cpp:165] Memory required for data: 3263455504
I1126 12:32:38.824239 19071 layer_factory.hpp:76] Creating layer inception_4e/3x3_reduce
I1126 12:32:38.824249 19071 net.cpp:106] Creating Layer inception_4e/3x3_reduce
I1126 12:32:38.824254 19071 net.cpp:454] inception_4e/3x3_reduce <- inception_4d/output_inception_4d/output_0_split_2
I1126 12:32:38.824259 19071 net.cpp:411] inception_4e/3x3_reduce -> inception_4e/3x3_reduce
I1126 12:32:38.826607 19071 net.cpp:150] Setting up inception_4e/3x3_reduce
I1126 12:32:38.826622 19071 net.cpp:157] Top shape: 64 160 14 14 (2007040)
I1126 12:32:38.826625 19071 net.cpp:165] Memory required for data: 3271483664
I1126 12:32:38.826632 19071 layer_factory.hpp:76] Creating layer inception_4e/relu_3x3_reduce
I1126 12:32:38.826638 19071 net.cpp:106] Creating Layer inception_4e/relu_3x3_reduce
I1126 12:32:38.826642 19071 net.cpp:454] inception_4e/relu_3x3_reduce <- inception_4e/3x3_reduce
I1126 12:32:38.826649 19071 net.cpp:397] inception_4e/relu_3x3_reduce -> inception_4e/3x3_reduce (in-place)
I1126 12:32:38.827014 19071 net.cpp:150] Setting up inception_4e/relu_3x3_reduce
I1126 12:32:38.827028 19071 net.cpp:157] Top shape: 64 160 14 14 (2007040)
I1126 12:32:38.827031 19071 net.cpp:165] Memory required for data: 3279511824
I1126 12:32:38.827035 19071 layer_factory.hpp:76] Creating layer inception_4e/3x3
I1126 12:32:38.827059 19071 net.cpp:106] Creating Layer inception_4e/3x3
I1126 12:32:38.827064 19071 net.cpp:454] inception_4e/3x3 <- inception_4e/3x3_reduce
I1126 12:32:38.827069 19071 net.cpp:411] inception_4e/3x3 -> inception_4e/3x3
I1126 12:32:38.834069 19071 net.cpp:150] Setting up inception_4e/3x3
I1126 12:32:38.834085 19071 net.cpp:157] Top shape: 64 320 14 14 (4014080)
I1126 12:32:38.834090 19071 net.cpp:165] Memory required for data: 3295568144
I1126 12:32:38.834100 19071 layer_factory.hpp:76] Creating layer inception_4e/relu_3x3
I1126 12:32:38.834105 19071 net.cpp:106] Creating Layer inception_4e/relu_3x3
I1126 12:32:38.834110 19071 net.cpp:454] inception_4e/relu_3x3 <- inception_4e/3x3
I1126 12:32:38.834115 19071 net.cpp:397] inception_4e/relu_3x3 -> inception_4e/3x3 (in-place)
I1126 12:32:38.834471 19071 net.cpp:150] Setting up inception_4e/relu_3x3
I1126 12:32:38.834486 19071 net.cpp:157] Top shape: 64 320 14 14 (4014080)
I1126 12:32:38.834488 19071 net.cpp:165] Memory required for data: 3311624464
I1126 12:32:38.834492 19071 layer_factory.hpp:76] Creating layer inception_4e/5x5_reduce
I1126 12:32:38.834503 19071 net.cpp:106] Creating Layer inception_4e/5x5_reduce
I1126 12:32:38.834507 19071 net.cpp:454] inception_4e/5x5_reduce <- inception_4d/output_inception_4d/output_0_split_3
I1126 12:32:38.834516 19071 net.cpp:411] inception_4e/5x5_reduce -> inception_4e/5x5_reduce
I1126 12:32:38.836292 19071 net.cpp:150] Setting up inception_4e/5x5_reduce
I1126 12:32:38.836308 19071 net.cpp:157] Top shape: 64 32 14 14 (401408)
I1126 12:32:38.836313 19071 net.cpp:165] Memory required for data: 3313230096
I1126 12:32:38.836319 19071 layer_factory.hpp:76] Creating layer inception_4e/relu_5x5_reduce
I1126 12:32:38.836326 19071 net.cpp:106] Creating Layer inception_4e/relu_5x5_reduce
I1126 12:32:38.836331 19071 net.cpp:454] inception_4e/relu_5x5_reduce <- inception_4e/5x5_reduce
I1126 12:32:38.836339 19071 net.cpp:397] inception_4e/relu_5x5_reduce -> inception_4e/5x5_reduce (in-place)
I1126 12:32:38.836577 19071 net.cpp:150] Setting up inception_4e/relu_5x5_reduce
I1126 12:32:38.836591 19071 net.cpp:157] Top shape: 64 32 14 14 (401408)
I1126 12:32:38.836596 19071 net.cpp:165] Memory required for data: 3314835728
I1126 12:32:38.836599 19071 layer_factory.hpp:76] Creating layer inception_4e/5x5
I1126 12:32:38.836608 19071 net.cpp:106] Creating Layer inception_4e/5x5
I1126 12:32:38.836612 19071 net.cpp:454] inception_4e/5x5 <- inception_4e/5x5_reduce
I1126 12:32:38.836621 19071 net.cpp:411] inception_4e/5x5 -> inception_4e/5x5
I1126 12:32:38.838943 19071 net.cpp:150] Setting up inception_4e/5x5
I1126 12:32:38.838958 19071 net.cpp:157] Top shape: 64 128 14 14 (1605632)
I1126 12:32:38.838963 19071 net.cpp:165] Memory required for data: 3321258256
I1126 12:32:38.838970 19071 layer_factory.hpp:76] Creating layer inception_4e/relu_5x5
I1126 12:32:38.838978 19071 net.cpp:106] Creating Layer inception_4e/relu_5x5
I1126 12:32:38.838982 19071 net.cpp:454] inception_4e/relu_5x5 <- inception_4e/5x5
I1126 12:32:38.838990 19071 net.cpp:397] inception_4e/relu_5x5 -> inception_4e/5x5 (in-place)
I1126 12:32:38.839390 19071 net.cpp:150] Setting up inception_4e/relu_5x5
I1126 12:32:38.839403 19071 net.cpp:157] Top shape: 64 128 14 14 (1605632)
I1126 12:32:38.839408 19071 net.cpp:165] Memory required for data: 3327680784
I1126 12:32:38.839412 19071 layer_factory.hpp:76] Creating layer inception_4e/pool
I1126 12:32:38.839421 19071 net.cpp:106] Creating Layer inception_4e/pool
I1126 12:32:38.839424 19071 net.cpp:454] inception_4e/pool <- inception_4d/output_inception_4d/output_0_split_4
I1126 12:32:38.839432 19071 net.cpp:411] inception_4e/pool -> inception_4e/pool
I1126 12:32:38.839725 19071 net.cpp:150] Setting up inception_4e/pool
I1126 12:32:38.839736 19071 net.cpp:157] Top shape: 64 528 14 14 (6623232)
I1126 12:32:38.839740 19071 net.cpp:165] Memory required for data: 3354173712
I1126 12:32:38.839745 19071 layer_factory.hpp:76] Creating layer inception_4e/pool_proj
I1126 12:32:38.839752 19071 net.cpp:106] Creating Layer inception_4e/pool_proj
I1126 12:32:38.839757 19071 net.cpp:454] inception_4e/pool_proj <- inception_4e/pool
I1126 12:32:38.839766 19071 net.cpp:411] inception_4e/pool_proj -> inception_4e/pool_proj
I1126 12:32:38.841805 19071 net.cpp:150] Setting up inception_4e/pool_proj
I1126 12:32:38.841820 19071 net.cpp:157] Top shape: 64 128 14 14 (1605632)
I1126 12:32:38.841825 19071 net.cpp:165] Memory required for data: 3360596240
I1126 12:32:38.841832 19071 layer_factory.hpp:76] Creating layer inception_4e/relu_pool_proj
I1126 12:32:38.841841 19071 net.cpp:106] Creating Layer inception_4e/relu_pool_proj
I1126 12:32:38.841846 19071 net.cpp:454] inception_4e/relu_pool_proj <- inception_4e/pool_proj
I1126 12:32:38.841852 19071 net.cpp:397] inception_4e/relu_pool_proj -> inception_4e/pool_proj (in-place)
I1126 12:32:38.842272 19071 net.cpp:150] Setting up inception_4e/relu_pool_proj
I1126 12:32:38.842288 19071 net.cpp:157] Top shape: 64 128 14 14 (1605632)
I1126 12:32:38.842293 19071 net.cpp:165] Memory required for data: 3367018768
I1126 12:32:38.842296 19071 layer_factory.hpp:76] Creating layer inception_4e/output
I1126 12:32:38.842305 19071 net.cpp:106] Creating Layer inception_4e/output
I1126 12:32:38.842310 19071 net.cpp:454] inception_4e/output <- inception_4e/1x1
I1126 12:32:38.842315 19071 net.cpp:454] inception_4e/output <- inception_4e/3x3
I1126 12:32:38.842320 19071 net.cpp:454] inception_4e/output <- inception_4e/5x5
I1126 12:32:38.842325 19071 net.cpp:454] inception_4e/output <- inception_4e/pool_proj
I1126 12:32:38.842331 19071 net.cpp:411] inception_4e/output -> inception_4e/output
I1126 12:32:38.842389 19071 net.cpp:150] Setting up inception_4e/output
I1126 12:32:38.842399 19071 net.cpp:157] Top shape: 64 832 14 14 (10436608)
I1126 12:32:38.842402 19071 net.cpp:165] Memory required for data: 3408765200
I1126 12:32:38.842406 19071 layer_factory.hpp:76] Creating layer pool4/3x3_s2
I1126 12:32:38.842413 19071 net.cpp:106] Creating Layer pool4/3x3_s2
I1126 12:32:38.842417 19071 net.cpp:454] pool4/3x3_s2 <- inception_4e/output
I1126 12:32:38.842424 19071 net.cpp:411] pool4/3x3_s2 -> pool4/3x3_s2
I1126 12:32:38.842715 19071 net.cpp:150] Setting up pool4/3x3_s2
I1126 12:32:38.842726 19071 net.cpp:157] Top shape: 64 832 7 7 (2609152)
I1126 12:32:38.842730 19071 net.cpp:165] Memory required for data: 3419201808
I1126 12:32:38.842735 19071 layer_factory.hpp:76] Creating layer pool4/3x3_s2_pool4/3x3_s2_0_split
I1126 12:32:38.842742 19071 net.cpp:106] Creating Layer pool4/3x3_s2_pool4/3x3_s2_0_split
I1126 12:32:38.842746 19071 net.cpp:454] pool4/3x3_s2_pool4/3x3_s2_0_split <- pool4/3x3_s2
I1126 12:32:38.842752 19071 net.cpp:411] pool4/3x3_s2_pool4/3x3_s2_0_split -> pool4/3x3_s2_pool4/3x3_s2_0_split_0
I1126 12:32:38.842761 19071 net.cpp:411] pool4/3x3_s2_pool4/3x3_s2_0_split -> pool4/3x3_s2_pool4/3x3_s2_0_split_1
I1126 12:32:38.842767 19071 net.cpp:411] pool4/3x3_s2_pool4/3x3_s2_0_split -> pool4/3x3_s2_pool4/3x3_s2_0_split_2
I1126 12:32:38.842774 19071 net.cpp:411] pool4/3x3_s2_pool4/3x3_s2_0_split -> pool4/3x3_s2_pool4/3x3_s2_0_split_3
I1126 12:32:38.842938 19071 net.cpp:150] Setting up pool4/3x3_s2_pool4/3x3_s2_0_split
I1126 12:32:38.842948 19071 net.cpp:157] Top shape: 64 832 7 7 (2609152)
I1126 12:32:38.842952 19071 net.cpp:157] Top shape: 64 832 7 7 (2609152)
I1126 12:32:38.842957 19071 net.cpp:157] Top shape: 64 832 7 7 (2609152)
I1126 12:32:38.842959 19071 net.cpp:157] Top shape: 64 832 7 7 (2609152)
I1126 12:32:38.842962 19071 net.cpp:165] Memory required for data: 3460948240
I1126 12:32:38.842965 19071 layer_factory.hpp:76] Creating layer inception_5a/1x1
I1126 12:32:38.842974 19071 net.cpp:106] Creating Layer inception_5a/1x1
I1126 12:32:38.842978 19071 net.cpp:454] inception_5a/1x1 <- pool4/3x3_s2_pool4/3x3_s2_0_split_0
I1126 12:32:38.842984 19071 net.cpp:411] inception_5a/1x1 -> inception_5a/1x1
I1126 12:32:38.846087 19071 net.cpp:150] Setting up inception_5a/1x1
I1126 12:32:38.846101 19071 net.cpp:157] Top shape: 64 256 7 7 (802816)
I1126 12:32:38.846106 19071 net.cpp:165] Memory required for data: 3464159504
I1126 12:32:38.846112 19071 layer_factory.hpp:76] Creating layer inception_5a/relu_1x1
I1126 12:32:38.846118 19071 net.cpp:106] Creating Layer inception_5a/relu_1x1
I1126 12:32:38.846122 19071 net.cpp:454] inception_5a/relu_1x1 <- inception_5a/1x1
I1126 12:32:38.846127 19071 net.cpp:397] inception_5a/relu_1x1 -> inception_5a/1x1 (in-place)
I1126 12:32:38.846355 19071 net.cpp:150] Setting up inception_5a/relu_1x1
I1126 12:32:38.846366 19071 net.cpp:157] Top shape: 64 256 7 7 (802816)
I1126 12:32:38.846370 19071 net.cpp:165] Memory required for data: 3467370768
I1126 12:32:38.846374 19071 layer_factory.hpp:76] Creating layer inception_5a/3x3_reduce
I1126 12:32:38.846382 19071 net.cpp:106] Creating Layer inception_5a/3x3_reduce
I1126 12:32:38.846387 19071 net.cpp:454] inception_5a/3x3_reduce <- pool4/3x3_s2_pool4/3x3_s2_0_split_1
I1126 12:32:38.846395 19071 net.cpp:411] inception_5a/3x3_reduce -> inception_5a/3x3_reduce
I1126 12:32:38.849100 19071 net.cpp:150] Setting up inception_5a/3x3_reduce
I1126 12:32:38.849115 19071 net.cpp:157] Top shape: 64 160 7 7 (501760)
I1126 12:32:38.849119 19071 net.cpp:165] Memory required for data: 3469377808
I1126 12:32:38.849126 19071 layer_factory.hpp:76] Creating layer inception_5a/relu_3x3_reduce
I1126 12:32:38.849133 19071 net.cpp:106] Creating Layer inception_5a/relu_3x3_reduce
I1126 12:32:38.849138 19071 net.cpp:454] inception_5a/relu_3x3_reduce <- inception_5a/3x3_reduce
I1126 12:32:38.849143 19071 net.cpp:397] inception_5a/relu_3x3_reduce -> inception_5a/3x3_reduce (in-place)
I1126 12:32:38.849493 19071 net.cpp:150] Setting up inception_5a/relu_3x3_reduce
I1126 12:32:38.849508 19071 net.cpp:157] Top shape: 64 160 7 7 (501760)
I1126 12:32:38.849512 19071 net.cpp:165] Memory required for data: 3471384848
I1126 12:32:38.849516 19071 layer_factory.hpp:76] Creating layer inception_5a/3x3
I1126 12:32:38.849524 19071 net.cpp:106] Creating Layer inception_5a/3x3
I1126 12:32:38.849529 19071 net.cpp:454] inception_5a/3x3 <- inception_5a/3x3_reduce
I1126 12:32:38.849535 19071 net.cpp:411] inception_5a/3x3 -> inception_5a/3x3
I1126 12:32:38.854411 19071 net.cpp:150] Setting up inception_5a/3x3
I1126 12:32:38.854428 19071 net.cpp:157] Top shape: 64 320 7 7 (1003520)
I1126 12:32:38.854432 19071 net.cpp:165] Memory required for data: 3475398928
I1126 12:32:38.854439 19071 layer_factory.hpp:76] Creating layer inception_5a/relu_3x3
I1126 12:32:38.854445 19071 net.cpp:106] Creating Layer inception_5a/relu_3x3
I1126 12:32:38.854449 19071 net.cpp:454] inception_5a/relu_3x3 <- inception_5a/3x3
I1126 12:32:38.854454 19071 net.cpp:397] inception_5a/relu_3x3 -> inception_5a/3x3 (in-place)
I1126 12:32:38.854662 19071 net.cpp:150] Setting up inception_5a/relu_3x3
I1126 12:32:38.854673 19071 net.cpp:157] Top shape: 64 320 7 7 (1003520)
I1126 12:32:38.854676 19071 net.cpp:165] Memory required for data: 3479413008
I1126 12:32:38.854681 19071 layer_factory.hpp:76] Creating layer inception_5a/5x5_reduce
I1126 12:32:38.854689 19071 net.cpp:106] Creating Layer inception_5a/5x5_reduce
I1126 12:32:38.854693 19071 net.cpp:454] inception_5a/5x5_reduce <- pool4/3x3_s2_pool4/3x3_s2_0_split_2
I1126 12:32:38.854699 19071 net.cpp:411] inception_5a/5x5_reduce -> inception_5a/5x5_reduce
I1126 12:32:38.856679 19071 net.cpp:150] Setting up inception_5a/5x5_reduce
I1126 12:32:38.856694 19071 net.cpp:157] Top shape: 64 32 7 7 (100352)
I1126 12:32:38.856698 19071 net.cpp:165] Memory required for data: 3479814416
I1126 12:32:38.856704 19071 layer_factory.hpp:76] Creating layer inception_5a/relu_5x5_reduce
I1126 12:32:38.856712 19071 net.cpp:106] Creating Layer inception_5a/relu_5x5_reduce
I1126 12:32:38.856716 19071 net.cpp:454] inception_5a/relu_5x5_reduce <- inception_5a/5x5_reduce
I1126 12:32:38.856724 19071 net.cpp:397] inception_5a/relu_5x5_reduce -> inception_5a/5x5_reduce (in-place)
I1126 12:32:38.856927 19071 net.cpp:150] Setting up inception_5a/relu_5x5_reduce
I1126 12:32:38.856938 19071 net.cpp:157] Top shape: 64 32 7 7 (100352)
I1126 12:32:38.856941 19071 net.cpp:165] Memory required for data: 3480215824
I1126 12:32:38.856945 19071 layer_factory.hpp:76] Creating layer inception_5a/5x5
I1126 12:32:38.856955 19071 net.cpp:106] Creating Layer inception_5a/5x5
I1126 12:32:38.856958 19071 net.cpp:454] inception_5a/5x5 <- inception_5a/5x5_reduce
I1126 12:32:38.856964 19071 net.cpp:411] inception_5a/5x5 -> inception_5a/5x5
I1126 12:32:38.859072 19071 net.cpp:150] Setting up inception_5a/5x5
I1126 12:32:38.859103 19071 net.cpp:157] Top shape: 64 128 7 7 (401408)
I1126 12:32:38.859109 19071 net.cpp:165] Memory required for data: 3481821456
I1126 12:32:38.859117 19071 layer_factory.hpp:76] Creating layer inception_5a/relu_5x5
I1126 12:32:38.859122 19071 net.cpp:106] Creating Layer inception_5a/relu_5x5
I1126 12:32:38.859127 19071 net.cpp:454] inception_5a/relu_5x5 <- inception_5a/5x5
I1126 12:32:38.859132 19071 net.cpp:397] inception_5a/relu_5x5 -> inception_5a/5x5 (in-place)
I1126 12:32:38.859530 19071 net.cpp:150] Setting up inception_5a/relu_5x5
I1126 12:32:38.859545 19071 net.cpp:157] Top shape: 64 128 7 7 (401408)
I1126 12:32:38.859549 19071 net.cpp:165] Memory required for data: 3483427088
I1126 12:32:38.859552 19071 layer_factory.hpp:76] Creating layer inception_5a/pool
I1126 12:32:38.859560 19071 net.cpp:106] Creating Layer inception_5a/pool
I1126 12:32:38.859563 19071 net.cpp:454] inception_5a/pool <- pool4/3x3_s2_pool4/3x3_s2_0_split_3
I1126 12:32:38.859570 19071 net.cpp:411] inception_5a/pool -> inception_5a/pool
I1126 12:32:38.859850 19071 net.cpp:150] Setting up inception_5a/pool
I1126 12:32:38.859864 19071 net.cpp:157] Top shape: 64 832 7 7 (2609152)
I1126 12:32:38.859868 19071 net.cpp:165] Memory required for data: 3493863696
I1126 12:32:38.859871 19071 layer_factory.hpp:76] Creating layer inception_5a/pool_proj
I1126 12:32:38.859880 19071 net.cpp:106] Creating Layer inception_5a/pool_proj
I1126 12:32:38.859884 19071 net.cpp:454] inception_5a/pool_proj <- inception_5a/pool
I1126 12:32:38.859890 19071 net.cpp:411] inception_5a/pool_proj -> inception_5a/pool_proj
I1126 12:32:38.862360 19071 net.cpp:150] Setting up inception_5a/pool_proj
I1126 12:32:38.862375 19071 net.cpp:157] Top shape: 64 128 7 7 (401408)
I1126 12:32:38.862378 19071 net.cpp:165] Memory required for data: 3495469328
I1126 12:32:38.862385 19071 layer_factory.hpp:76] Creating layer inception_5a/relu_pool_proj
I1126 12:32:38.862392 19071 net.cpp:106] Creating Layer inception_5a/relu_pool_proj
I1126 12:32:38.862397 19071 net.cpp:454] inception_5a/relu_pool_proj <- inception_5a/pool_proj
I1126 12:32:38.862402 19071 net.cpp:397] inception_5a/relu_pool_proj -> inception_5a/pool_proj (in-place)
I1126 12:32:38.862774 19071 net.cpp:150] Setting up inception_5a/relu_pool_proj
I1126 12:32:38.862787 19071 net.cpp:157] Top shape: 64 128 7 7 (401408)
I1126 12:32:38.862792 19071 net.cpp:165] Memory required for data: 3497074960
I1126 12:32:38.862794 19071 layer_factory.hpp:76] Creating layer inception_5a/output
I1126 12:32:38.862807 19071 net.cpp:106] Creating Layer inception_5a/output
I1126 12:32:38.862812 19071 net.cpp:454] inception_5a/output <- inception_5a/1x1
I1126 12:32:38.862818 19071 net.cpp:454] inception_5a/output <- inception_5a/3x3
I1126 12:32:38.862823 19071 net.cpp:454] inception_5a/output <- inception_5a/5x5
I1126 12:32:38.862826 19071 net.cpp:454] inception_5a/output <- inception_5a/pool_proj
I1126 12:32:38.862833 19071 net.cpp:411] inception_5a/output -> inception_5a/output
I1126 12:32:38.862884 19071 net.cpp:150] Setting up inception_5a/output
I1126 12:32:38.862896 19071 net.cpp:157] Top shape: 64 832 7 7 (2609152)
I1126 12:32:38.862900 19071 net.cpp:165] Memory required for data: 3507511568
I1126 12:32:38.862903 19071 layer_factory.hpp:76] Creating layer inception_5a/output_inception_5a/output_0_split
I1126 12:32:38.862913 19071 net.cpp:106] Creating Layer inception_5a/output_inception_5a/output_0_split
I1126 12:32:38.862917 19071 net.cpp:454] inception_5a/output_inception_5a/output_0_split <- inception_5a/output
I1126 12:32:38.862922 19071 net.cpp:411] inception_5a/output_inception_5a/output_0_split -> inception_5a/output_inception_5a/output_0_split_0
I1126 12:32:38.862929 19071 net.cpp:411] inception_5a/output_inception_5a/output_0_split -> inception_5a/output_inception_5a/output_0_split_1
I1126 12:32:38.862936 19071 net.cpp:411] inception_5a/output_inception_5a/output_0_split -> inception_5a/output_inception_5a/output_0_split_2
I1126 12:32:38.862941 19071 net.cpp:411] inception_5a/output_inception_5a/output_0_split -> inception_5a/output_inception_5a/output_0_split_3
I1126 12:32:38.863054 19071 net.cpp:150] Setting up inception_5a/output_inception_5a/output_0_split
I1126 12:32:38.863062 19071 net.cpp:157] Top shape: 64 832 7 7 (2609152)
I1126 12:32:38.863066 19071 net.cpp:157] Top shape: 64 832 7 7 (2609152)
I1126 12:32:38.863070 19071 net.cpp:157] Top shape: 64 832 7 7 (2609152)
I1126 12:32:38.863073 19071 net.cpp:157] Top shape: 64 832 7 7 (2609152)
I1126 12:32:38.863076 19071 net.cpp:165] Memory required for data: 3549258000
I1126 12:32:38.863080 19071 layer_factory.hpp:76] Creating layer inception_5b/1x1
I1126 12:32:38.863087 19071 net.cpp:106] Creating Layer inception_5b/1x1
I1126 12:32:38.863091 19071 net.cpp:454] inception_5b/1x1 <- inception_5a/output_inception_5a/output_0_split_0
I1126 12:32:38.863097 19071 net.cpp:411] inception_5b/1x1 -> inception_5b/1x1
I1126 12:32:38.866808 19071 net.cpp:150] Setting up inception_5b/1x1
I1126 12:32:38.866823 19071 net.cpp:157] Top shape: 64 384 7 7 (1204224)
I1126 12:32:38.866827 19071 net.cpp:165] Memory required for data: 3554074896
I1126 12:32:38.866834 19071 layer_factory.hpp:76] Creating layer inception_5b/relu_1x1
I1126 12:32:38.866840 19071 net.cpp:106] Creating Layer inception_5b/relu_1x1
I1126 12:32:38.866845 19071 net.cpp:454] inception_5b/relu_1x1 <- inception_5b/1x1
I1126 12:32:38.866852 19071 net.cpp:397] inception_5b/relu_1x1 -> inception_5b/1x1 (in-place)
I1126 12:32:38.867229 19071 net.cpp:150] Setting up inception_5b/relu_1x1
I1126 12:32:38.867243 19071 net.cpp:157] Top shape: 64 384 7 7 (1204224)
I1126 12:32:38.867246 19071 net.cpp:165] Memory required for data: 3558891792
I1126 12:32:38.867250 19071 layer_factory.hpp:76] Creating layer inception_5b/3x3_reduce
I1126 12:32:38.867260 19071 net.cpp:106] Creating Layer inception_5b/3x3_reduce
I1126 12:32:38.867264 19071 net.cpp:454] inception_5b/3x3_reduce <- inception_5a/output_inception_5a/output_0_split_1
I1126 12:32:38.867271 19071 net.cpp:411] inception_5b/3x3_reduce -> inception_5b/3x3_reduce
I1126 12:32:38.870070 19071 net.cpp:150] Setting up inception_5b/3x3_reduce
I1126 12:32:38.870085 19071 net.cpp:157] Top shape: 64 192 7 7 (602112)
I1126 12:32:38.870088 19071 net.cpp:165] Memory required for data: 3561300240
I1126 12:32:38.870095 19071 layer_factory.hpp:76] Creating layer inception_5b/relu_3x3_reduce
I1126 12:32:38.870101 19071 net.cpp:106] Creating Layer inception_5b/relu_3x3_reduce
I1126 12:32:38.870105 19071 net.cpp:454] inception_5b/relu_3x3_reduce <- inception_5b/3x3_reduce
I1126 12:32:38.870112 19071 net.cpp:397] inception_5b/relu_3x3_reduce -> inception_5b/3x3_reduce (in-place)
I1126 12:32:38.870316 19071 net.cpp:150] Setting up inception_5b/relu_3x3_reduce
I1126 12:32:38.870328 19071 net.cpp:157] Top shape: 64 192 7 7 (602112)
I1126 12:32:38.870332 19071 net.cpp:165] Memory required for data: 3563708688
I1126 12:32:38.870335 19071 layer_factory.hpp:76] Creating layer inception_5b/3x3
I1126 12:32:38.870342 19071 net.cpp:106] Creating Layer inception_5b/3x3
I1126 12:32:38.870347 19071 net.cpp:454] inception_5b/3x3 <- inception_5b/3x3_reduce
I1126 12:32:38.870353 19071 net.cpp:411] inception_5b/3x3 -> inception_5b/3x3
I1126 12:32:38.876780 19071 net.cpp:150] Setting up inception_5b/3x3
I1126 12:32:38.876796 19071 net.cpp:157] Top shape: 64 384 7 7 (1204224)
I1126 12:32:38.876799 19071 net.cpp:165] Memory required for data: 3568525584
I1126 12:32:38.876806 19071 layer_factory.hpp:76] Creating layer inception_5b/relu_3x3
I1126 12:32:38.876811 19071 net.cpp:106] Creating Layer inception_5b/relu_3x3
I1126 12:32:38.876816 19071 net.cpp:454] inception_5b/relu_3x3 <- inception_5b/3x3
I1126 12:32:38.876823 19071 net.cpp:397] inception_5b/relu_3x3 -> inception_5b/3x3 (in-place)
I1126 12:32:38.877192 19071 net.cpp:150] Setting up inception_5b/relu_3x3
I1126 12:32:38.877205 19071 net.cpp:157] Top shape: 64 384 7 7 (1204224)
I1126 12:32:38.877209 19071 net.cpp:165] Memory required for data: 3573342480
I1126 12:32:38.877213 19071 layer_factory.hpp:76] Creating layer inception_5b/5x5_reduce
I1126 12:32:38.877221 19071 net.cpp:106] Creating Layer inception_5b/5x5_reduce
I1126 12:32:38.877226 19071 net.cpp:454] inception_5b/5x5_reduce <- inception_5a/output_inception_5a/output_0_split_2
I1126 12:32:38.877233 19071 net.cpp:411] inception_5b/5x5_reduce -> inception_5b/5x5_reduce
I1126 12:32:38.879139 19071 net.cpp:150] Setting up inception_5b/5x5_reduce
I1126 12:32:38.879154 19071 net.cpp:157] Top shape: 64 48 7 7 (150528)
I1126 12:32:38.879158 19071 net.cpp:165] Memory required for data: 3573944592
I1126 12:32:38.879164 19071 layer_factory.hpp:76] Creating layer inception_5b/relu_5x5_reduce
I1126 12:32:38.879170 19071 net.cpp:106] Creating Layer inception_5b/relu_5x5_reduce
I1126 12:32:38.879175 19071 net.cpp:454] inception_5b/relu_5x5_reduce <- inception_5b/5x5_reduce
I1126 12:32:38.879181 19071 net.cpp:397] inception_5b/relu_5x5_reduce -> inception_5b/5x5_reduce (in-place)
I1126 12:32:38.879552 19071 net.cpp:150] Setting up inception_5b/relu_5x5_reduce
I1126 12:32:38.879565 19071 net.cpp:157] Top shape: 64 48 7 7 (150528)
I1126 12:32:38.879569 19071 net.cpp:165] Memory required for data: 3574546704
I1126 12:32:38.879572 19071 layer_factory.hpp:76] Creating layer inception_5b/5x5
I1126 12:32:38.879581 19071 net.cpp:106] Creating Layer inception_5b/5x5
I1126 12:32:38.879585 19071 net.cpp:454] inception_5b/5x5 <- inception_5b/5x5_reduce
I1126 12:32:38.879593 19071 net.cpp:411] inception_5b/5x5 -> inception_5b/5x5
I1126 12:32:38.881744 19071 net.cpp:150] Setting up inception_5b/5x5
I1126 12:32:38.881758 19071 net.cpp:157] Top shape: 64 128 7 7 (401408)
I1126 12:32:38.881762 19071 net.cpp:165] Memory required for data: 3576152336
I1126 12:32:38.881768 19071 layer_factory.hpp:76] Creating layer inception_5b/relu_5x5
I1126 12:32:38.881774 19071 net.cpp:106] Creating Layer inception_5b/relu_5x5
I1126 12:32:38.881779 19071 net.cpp:454] inception_5b/relu_5x5 <- inception_5b/5x5
I1126 12:32:38.881785 19071 net.cpp:397] inception_5b/relu_5x5 -> inception_5b/5x5 (in-place)
I1126 12:32:38.881991 19071 net.cpp:150] Setting up inception_5b/relu_5x5
I1126 12:32:38.882001 19071 net.cpp:157] Top shape: 64 128 7 7 (401408)
I1126 12:32:38.882005 19071 net.cpp:165] Memory required for data: 3577757968
I1126 12:32:38.882009 19071 layer_factory.hpp:76] Creating layer inception_5b/pool
I1126 12:32:38.882015 19071 net.cpp:106] Creating Layer inception_5b/pool
I1126 12:32:38.882020 19071 net.cpp:454] inception_5b/pool <- inception_5a/output_inception_5a/output_0_split_3
I1126 12:32:38.882025 19071 net.cpp:411] inception_5b/pool -> inception_5b/pool
I1126 12:32:38.882434 19071 net.cpp:150] Setting up inception_5b/pool
I1126 12:32:38.882447 19071 net.cpp:157] Top shape: 64 832 7 7 (2609152)
I1126 12:32:38.882450 19071 net.cpp:165] Memory required for data: 3588194576
I1126 12:32:38.882454 19071 layer_factory.hpp:76] Creating layer inception_5b/pool_proj
I1126 12:32:38.882465 19071 net.cpp:106] Creating Layer inception_5b/pool_proj
I1126 12:32:38.882469 19071 net.cpp:454] inception_5b/pool_proj <- inception_5b/pool
I1126 12:32:38.882477 19071 net.cpp:411] inception_5b/pool_proj -> inception_5b/pool_proj
I1126 12:32:38.884773 19071 net.cpp:150] Setting up inception_5b/pool_proj
I1126 12:32:38.884788 19071 net.cpp:157] Top shape: 64 128 7 7 (401408)
I1126 12:32:38.884791 19071 net.cpp:165] Memory required for data: 3589800208
I1126 12:32:38.884798 19071 layer_factory.hpp:76] Creating layer inception_5b/relu_pool_proj
I1126 12:32:38.884804 19071 net.cpp:106] Creating Layer inception_5b/relu_pool_proj
I1126 12:32:38.884807 19071 net.cpp:454] inception_5b/relu_pool_proj <- inception_5b/pool_proj
I1126 12:32:38.884814 19071 net.cpp:397] inception_5b/relu_pool_proj -> inception_5b/pool_proj (in-place)
I1126 12:32:38.885023 19071 net.cpp:150] Setting up inception_5b/relu_pool_proj
I1126 12:32:38.885035 19071 net.cpp:157] Top shape: 64 128 7 7 (401408)
I1126 12:32:38.885037 19071 net.cpp:165] Memory required for data: 3591405840
I1126 12:32:38.885040 19071 layer_factory.hpp:76] Creating layer inception_5b/output
I1126 12:32:38.885048 19071 net.cpp:106] Creating Layer inception_5b/output
I1126 12:32:38.885052 19071 net.cpp:454] inception_5b/output <- inception_5b/1x1
I1126 12:32:38.885056 19071 net.cpp:454] inception_5b/output <- inception_5b/3x3
I1126 12:32:38.885061 19071 net.cpp:454] inception_5b/output <- inception_5b/5x5
I1126 12:32:38.885064 19071 net.cpp:454] inception_5b/output <- inception_5b/pool_proj
I1126 12:32:38.885069 19071 net.cpp:411] inception_5b/output -> inception_5b/output
I1126 12:32:38.885098 19071 net.cpp:150] Setting up inception_5b/output
I1126 12:32:38.885105 19071 net.cpp:157] Top shape: 64 1024 7 7 (3211264)
I1126 12:32:38.885108 19071 net.cpp:165] Memory required for data: 3604250896
I1126 12:32:38.885112 19071 layer_factory.hpp:76] Creating layer pool5/7x7_s1
I1126 12:32:38.885116 19071 net.cpp:106] Creating Layer pool5/7x7_s1
I1126 12:32:38.885120 19071 net.cpp:454] pool5/7x7_s1 <- inception_5b/output
I1126 12:32:38.885126 19071 net.cpp:411] pool5/7x7_s1 -> pool5/7x7_s1
I1126 12:32:38.885649 19071 net.cpp:150] Setting up pool5/7x7_s1
I1126 12:32:38.885663 19071 net.cpp:157] Top shape: 64 1024 1 1 (65536)
I1126 12:32:38.885665 19071 net.cpp:165] Memory required for data: 3604513040
I1126 12:32:38.885669 19071 layer_factory.hpp:76] Creating layer pool5/drop_7x7_s1
I1126 12:32:38.885675 19071 net.cpp:106] Creating Layer pool5/drop_7x7_s1
I1126 12:32:38.885679 19071 net.cpp:454] pool5/drop_7x7_s1 <- pool5/7x7_s1
I1126 12:32:38.885686 19071 net.cpp:397] pool5/drop_7x7_s1 -> pool5/7x7_s1 (in-place)
I1126 12:32:38.885711 19071 net.cpp:150] Setting up pool5/drop_7x7_s1
I1126 12:32:38.885716 19071 net.cpp:157] Top shape: 64 1024 1 1 (65536)
I1126 12:32:38.885720 19071 net.cpp:165] Memory required for data: 3604775184
I1126 12:32:38.885722 19071 layer_factory.hpp:76] Creating layer loss3/classifier-attribute
I1126 12:32:38.885730 19071 net.cpp:106] Creating Layer loss3/classifier-attribute
I1126 12:32:38.885733 19071 net.cpp:454] loss3/classifier-attribute <- pool5/7x7_s1
I1126 12:32:38.885740 19071 net.cpp:411] loss3/classifier-attribute -> loss3/classifier-attribute
I1126 12:32:38.962617 19071 net.cpp:150] Setting up loss3/classifier-attribute
I1126 12:32:38.962640 19071 net.cpp:157] Top shape: 64 9999 (639936)
I1126 12:32:38.962643 19071 net.cpp:165] Memory required for data: 3607334928
I1126 12:32:38.962652 19071 layer_factory.hpp:76] Creating layer loss3/classifier-attribute_loss3/classifier-attribute_0_split
I1126 12:32:38.962661 19071 net.cpp:106] Creating Layer loss3/classifier-attribute_loss3/classifier-attribute_0_split
I1126 12:32:38.962667 19071 net.cpp:454] loss3/classifier-attribute_loss3/classifier-attribute_0_split <- loss3/classifier-attribute
I1126 12:32:38.962677 19071 net.cpp:411] loss3/classifier-attribute_loss3/classifier-attribute_0_split -> loss3/classifier-attribute_loss3/classifier-attribute_0_split_0
I1126 12:32:38.962685 19071 net.cpp:411] loss3/classifier-attribute_loss3/classifier-attribute_0_split -> loss3/classifier-attribute_loss3/classifier-attribute_0_split_1
I1126 12:32:38.962723 19071 net.cpp:150] Setting up loss3/classifier-attribute_loss3/classifier-attribute_0_split
I1126 12:32:38.962729 19071 net.cpp:157] Top shape: 64 9999 (639936)
I1126 12:32:38.962733 19071 net.cpp:157] Top shape: 64 9999 (639936)
I1126 12:32:38.962735 19071 net.cpp:165] Memory required for data: 3612454416
I1126 12:32:38.962738 19071 layer_factory.hpp:76] Creating layer loss3/loss3
I1126 12:32:38.962744 19071 net.cpp:106] Creating Layer loss3/loss3
I1126 12:32:38.962748 19071 net.cpp:454] loss3/loss3 <- loss3/classifier-attribute_loss3/classifier-attribute_0_split_0
I1126 12:32:38.962752 19071 net.cpp:454] loss3/loss3 <- label_data_1_split_4
…
