…
I1125 19:43:13.885658 18938 net.cpp:322] The NetState phase (0) differed from the phase (1) specified by a rule in layer loss3/top-1
I1125 19:43:13.886695 18938 net.cpp:49] Initializing net from parameters: 
name: "GoogleNet-finetune-for-cigit"
state {
  phase: TRAIN
}
layer {
  name: "data"
  type: "ImageData"
  top: "data"
  top: "label"
  include {
    phase: TRAIN
  }
  transform_param {
    mirror: true
    crop_size: 224
    mean_value: 104
    mean_value: 117
    mean_value: 123
  }
  image_data_param {
    source: "pad_train.txt"
    batch_size: 64
    shuffle: true
    new_height: 256
    new_width: 256
  }
}
layer {
  name: "conv1/7x7_s2"
  type: "Convolution"
  bottom: "data"
  top: "conv1/7x7_s2"
  param {
    lr_mult: 1
    decay_mult: 1
  }
  param {
    lr_mult: 2
    decay_mult: 0
  }
  convolution_param {
    num_output: 64
    pad: 3
    kernel_size: 7
    stride: 2
    weight_filler {
      type: "xavier"
    }
    bias_filler {
      type: "constant"
      value: 0.2
    }
  }
}
layer {
  name: "conv1/relu_7x7"
  type: "ReLU"
  bottom: "conv1/7x7_s2"
  top: "conv1/7x7_s2"
}
layer {
  name: "pool1/3x3_s2"
  type: "Pooling"
  bottom: "conv1/7x7_s2"
  top: "pool1/3x3_s2"
  pooling_param {
    pool: MAX
    kernel_size: 3
    stride: 2
  }
}
layer {
  name: "pool1/norm1"
  type: "LRN"
  bottom: "pool1/3x3_s2"
  top: "pool1/norm1"
  lrn_param {
    local_size: 5
    alpha: 0.0001
    beta: 0.75
  }
}
layer {
  name: "conv2/3x3_reduce"
  type: "Convolution"
  bottom: "pool1/norm1"
  top: "conv2/3x3_reduce"
  param {
    lr_mult: 1
    decay_mult: 1
  }
  param {
    lr_mult: 2
    decay_mult: 0
  }
  convolution_param {
    num_output: 64
    kernel_size: 1
    weight_filler {
      type: "xavier"
    }
    bias_filler {
      type: "constant"
      value: 0.2
    }
  }
}
layer {
  name: "conv2/relu_3x3_reduce"
  type: "ReLU"
  bottom: "conv2/3x3_reduce"
  top: "conv2/3x3_reduce"
}
layer {
  name: "conv2/3x3"
  type: "Convolution"
  bottom: "conv2/3x3_reduce"
  top: "conv2/3x3"
  param {
    lr_mult: 1
    decay_mult: 1
  }
  param {
    lr_mult: 2
    decay_mult: 0
  }
  convolution_param {
    num_output: 192
    pad: 1
    kernel_size: 3
    weight_filler {
      type: "xavier"
    }
    bias_filler {
      type: "constant"
      value: 0.2
    }
  }
}
layer {
  name: "conv2/relu_3x3"
  type: "ReLU"
  bottom: "conv2/3x3"
  top: "conv2/3x3"
}
layer {
  name: "conv2/norm2"
  type: "LRN"
  bottom: "conv2/3x3"
  top: "conv2/norm2"
  lrn_param {
    local_size: 5
    alpha: 0.0001
    beta: 0.75
  }
}
layer {
  name: "pool2/3x3_s2"
  type: "Pooling"
  bottom: "conv2/norm2"
  top: "pool2/3x3_s2"
  pooling_param {
    pool: MAX
    kernel_size: 3
    stride: 2
  }
}
layer {
  name: "inception_3a/1x1"
  type: "Convolution"
  bottom: "pool2/3x3_s2"
  top: "inception_3a/1x1"
  param {
    lr_mult: 1
    decay_mult: 1
  }
  param {
    lr_mult: 2
    decay_mult: 0
  }
  convolution_param {
    num_output: 64
    kernel_size: 1
    weight_filler {
      type: "xavier"
    }
    bias_filler {
      type: "constant"
      value: 0.2
    }
  }
}
layer {
  name: "inception_3a/relu_1x1"
  type: "ReLU"
  bottom: "inception_3a/1x1"
  top: "inception_3a/1x1"
}
layer {
  name: "inception_3a/3x3_reduce"
  type: "Convolution"
  bottom: "pool2/3x3_s2"
  top: "inception_3a/3x3_reduce"
  param {
    lr_mult: 1
    decay_mult: 1
  }
  param {
    lr_mult: 2
    decay_mult: 0
  }
  convolution_param {
    num_output: 96
    kernel_size: 1
    weight_filler {
      type: "xavier"
    }
    bias_filler {
      type: "constant"
      value: 0.2
    }
  }
}
layer {
  name: "inception_3a/relu_3x3_reduce"
  type: "ReLU"
  bottom: "inception_3a/3x3_reduce"
  top: "inception_3a/3x3_reduce"
}
layer {
  name: "inception_3a/3x3"
  type: "Convolution"
  bottom: "inception_3a/3x3_reduce"
  top: "inception_3a/3x3"
  param {
    lr_mult: 1
    decay_mult: 1
  }
  param {
    lr_mult: 2
    decay_mult: 0
  }
  convolution_param {
    num_output: 128
    pad: 1
    kernel_size: 3
    weight_filler {
      type: "xavier"
    }
    bias_filler {
      type: "constant"
      value: 0.2
    }
  }
}
layer {
  name: "inception_3a/relu_3x3"
  type: "ReLU"
  bottom: "inception_3a/3x3"
  top: "inception_3a/3x3"
}
layer {
  name: "inception_3a/5x5_reduce"
  type: "Convolution"
  bottom: "pool2/3x3_s2"
  top: "inception_3a/5x5_reduce"
  param {
    lr_mult: 1
    decay_mult: 1
  }
  param {
    lr_mult: 2
    decay_mult: 0
  }
  convolution_param {
    num_output: 16
    kernel_size: 1
    weight_filler {
      type: "xavier"
    }
    bias_filler {
      type: "constant"
      value: 0.2
    }
  }
}
layer {
  name: "inception_3a/relu_5x5_reduce"
  type: "ReLU"
  bottom: "inception_3a/5x5_reduce"
  top: "inception_3a/5x5_reduce"
}
layer {
  name: "inception_3a/5x5"
  type: "Convolution"
  bottom: "inception_3a/5x5_reduce"
  top: "inception_3a/5x5"
  param {
    lr_mult: 1
    decay_mult: 1
  }
  param {
    lr_mult: 2
    decay_mult: 0
  }
  convolution_param {
    num_output: 32
    pad: 2
    kernel_size: 5
    weight_filler {
      type: "xavier"
    }
    bias_filler {
      type: "constant"
      value: 0.2
    }
  }
}
layer {
  name: "inception_3a/relu_5x5"
  type: "ReLU"
  bottom: "inception_3a/5x5"
  top: "inception_3a/5x5"
}
layer {
  name: "inception_3a/pool"
  type: "Pooling"
  bottom: "pool2/3x3_s2"
  top: "inception_3a/pool"
  pooling_param {
    pool: MAX
    kernel_size: 3
    stride: 1
    pad: 1
  }
}
layer {
  name: "inception_3a/pool_proj"
  type: "Convolution"
  bottom: "inception_3a/pool"
  top: "inception_3a/pool_proj"
  param {
    lr_mult: 1
    decay_mult: 1
  }
  param {
    lr_mult: 2
    decay_mult: 0
  }
  convolution_param {
    num_output: 32
    kernel_size: 1
    weight_filler {
      type: "xavier"
    }
    bias_filler {
      type: "constant"
      value: 0.2
    }
  }
}
layer {
  name: "inception_3a/relu_pool_proj"
  type: "ReLU"
  bottom: "inception_3a/pool_proj"
  top: "inception_3a/pool_proj"
}
layer {
  name: "inception_3a/output"
  type: "Concat"
  bottom: "inception_3a/1x1"
  bottom: "inception_3a/3x3"
  bottom: "inception_3a/5x5"
  bottom: "inception_3a/pool_proj"
  top: "inception_3a/output"
}
layer {
  name: "inception_3b/1x1"
  type: "Convolution"
  bottom: "inception_3a/output"
  top: "inception_3b/1x1"
  param {
    lr_mult: 1
    decay_mult: 1
  }
  param {
    lr_mult: 2
    decay_mult: 0
  }
  convolution_param {
    num_output: 128
    kernel_size: 1
    weight_filler {
      type: "xavier"
    }
    bias_filler {
      type: "constant"
      value: 0.2
    }
  }
}
layer {
  name: "inception_3b/relu_1x1"
  type: "ReLU"
  bottom: "inception_3b/1x1"
  top: "inception_3b/1x1"
}
layer {
  name: "inception_3b/3x3_reduce"
  type: "Convolution"
  bottom: "inception_3a/output"
  top: "inception_3b/3x3_reduce"
  param {
    lr_mult: 1
    decay_mult: 1
  }
  param {
    lr_mult: 2
    decay_mult: 0
  }
  convolution_param {
    num_output: 128
    kernel_size: 1
    weight_filler {
      type: "xavier"
    }
    bias_filler {
      type: "constant"
      value: 0.2
    }
  }
}
layer {
  name: "inception_3b/relu_3x3_reduce"
  type: "ReLU"
  bottom: "inception_3b/3x3_reduce"
  top: "inception_3b/3x3_reduce"
}
layer {
  name: "inception_3b/3x3"
  type: "Convolution"
  bottom: "inception_3b/3x3_reduce"
  top: "inception_3b/3x3"
  param {
    lr_mult: 1
    decay_mult: 1
  }
  param {
    lr_mult: 2
    decay_mult: 0
  }
  convolution_param {
    num_output: 192
    pad: 1
    kernel_size: 3
    weight_filler {
      type: "xavier"
    }
    bias_filler {
      type: "constant"
      value: 0.2
    }
  }
}
layer {
  name: "inception_3b/relu_3x3"
  type: "ReLU"
  bottom: "inception_3b/3x3"
  top: "inception_3b/3x3"
}
layer {
  name: "inception_3b/5x5_reduce"
  type: "Convolution"
  bottom: "inception_3a/output"
  top: "inception_3b/5x5_reduce"
  param {
    lr_mult: 1
    decay_mult: 1
  }
  param {
    lr_mult: 2
    decay_mult: 0
  }
  convolution_param {
    num_output: 32
    kernel_size: 1
    weight_filler {
      type: "xavier"
    }
    bias_filler {
      type: "constant"
      value: 0.2
    }
  }
}
layer {
  name: "inception_3b/relu_5x5_reduce"
  type: "ReLU"
  bottom: "inception_3b/5x5_reduce"
  top: "inception_3b/5x5_reduce"
}
layer {
  name: "inception_3b/5x5"
  type: "Convolution"
  bottom: "inception_3b/5x5_reduce"
  top: "inception_3b/5x5"
  param {
    lr_mult: 1
    decay_mult: 1
  }
  param {
    lr_mult: 2
    decay_mult: 0
  }
  convolution_param {
    num_output: 96
    pad: 2
    kernel_size: 5
    weight_filler {
      type: "xavier"
    }
    bias_filler {
      type: "constant"
      value: 0.2
    }
  }
}
layer {
  name: "inception_3b/relu_5x5"
  type: "ReLU"
  bottom: "inception_3b/5x5"
  top: "inception_3b/5x5"
}
layer {
  name: "inception_3b/pool"
  type: "Pooling"
  bottom: "inception_3a/output"
  top: "inception_3b/pool"
  pooling_param {
    pool: MAX
    kernel_size: 3
    stride: 1
    pad: 1
  }
}
layer {
  name: "inception_3b/pool_proj"
  type: "Convolution"
  bottom: "inception_3b/pool"
  top: "inception_3b/pool_proj"
  param {
    lr_mult: 1
    decay_mult: 1
  }
  param {
    lr_mult: 2
    decay_mult: 0
  }
  convolution_param {
    num_output: 64
    kernel_size: 1
    weight_filler {
      type: "xavier"
    }
    bias_filler {
      type: "constant"
      value: 0.2
    }
  }
}
layer {
  name: "inception_3b/relu_pool_proj"
  type: "ReLU"
  bottom: "inception_3b/pool_proj"
  top: "inception_3b/pool_proj"
}
layer {
  name: "inception_3b/output"
  type: "Concat"
  bottom: "inception_3b/1x1"
  bottom: "inception_3b/3x3"
  bottom: "inception_3b/5x5"
  bottom: "inception_3b/pool_proj"
  top: "inception_3b/output"
}
layer {
  name: "pool3/3x3_s2"
  type: "Pooling"
  bottom: "inception_3b/output"
  top: "pool3/3x3_s2"
  pooling_param {
    pool: MAX
    kernel_size: 3
    stride: 2
  }
}
layer {
  name: "inception_4a/1x1"
  type: "Convolution"
  bottom: "pool3/3x3_s2"
  top: "inception_4a/1x1"
  param {
    lr_mult: 1
    decay_mult: 1
  }
  param {
    lr_mult: 2
    decay_mult: 0
  }
  convolution_param {
    num_output: 192
    kernel_size: 1
    weight_filler {
      type: "xavier"
    }
    bias_filler {
      type: "constant"
      value: 0.2
    }
  }
}
layer {
  name: "inception_4a/relu_1x1"
  type: "ReLU"
  bottom: "inception_4a/1x1"
  top: "inception_4a/1x1"
}
layer {
  name: "inception_4a/3x3_reduce"
  type: "Convolution"
  bottom: "pool3/3x3_s2"
  top: "inception_4a/3x3_reduce"
  param {
    lr_mult: 1
    decay_mult: 1
  }
  param {
    lr_mult: 2
    decay_mult: 0
  }
  convolution_param {
    num_output: 96
    kernel_size: 1
    weight_filler {
      type: "xavier"
    }
    bias_filler {
      type: "constant"
      value: 0.2
    }
  }
}
layer {
  name: "inception_4a/relu_3x3_reduce"
  type: "ReLU"
  bottom: "inception_4a/3x3_reduce"
  top: "inception_4a/3x3_reduce"
}
layer {
  name: "inception_4a/3x3"
  type: "Convolution"
  bottom: "inception_4a/3x3_reduce"
  top: "inception_4a/3x3"
  param {
    lr_mult: 1
    decay_mult: 1
  }
  param {
    lr_mult: 2
    decay_mult: 0
  }
  convolution_param {
    num_output: 208
    pad: 1
    kernel_size: 3
    weight_filler {
      type: "xavier"
    }
    bias_filler {
      type: "constant"
      value: 0.2
    }
  }
}
layer {
  name: "inception_4a/relu_3x3"
  type: "ReLU"
  bottom: "inception_4a/3x3"
  top: "inception_4a/3x3"
}
layer {
  name: "inception_4a/5x5_reduce"
  type: "Convolution"
  bottom: "pool3/3x3_s2"
  top: "inception_4a/5x5_reduce"
  param {
    lr_mult: 1
    decay_mult: 1
  }
  param {
    lr_mult: 2
    decay_mult: 0
  }
  convolution_param {
    num_output: 16
    kernel_size: 1
    weight_filler {
      type: "xavier"
    }
    bias_filler {
      type: "constant"
      value: 0.2
    }
  }
}
layer {
  name: "inception_4a/relu_5x5_reduce"
  type: "ReLU"
  bottom: "inception_4a/5x5_reduce"
  top: "inception_4a/5x5_reduce"
}
layer {
  name: "inception_4a/5x5"
  type: "Convolution"
  bottom: "inception_4a/5x5_reduce"
  top: "inception_4a/5x5"
  param {
    lr_mult: 1
    decay_mult: 1
  }
  param {
    lr_mult: 2
    decay_mult: 0
  }
  convolution_param {
    num_output: 48
    pad: 2
    kernel_size: 5
    weight_filler {
      type: "xavier"
    }
    bias_filler {
      type: "constant"
      value: 0.2
    }
  }
}
layer {
  name: "inception_4a/relu_5x5"
  type: "ReLU"
  bottom: "inception_4a/5x5"
  top: "inception_4a/5x5"
}
layer {
  name: "inception_4a/pool"
  type: "Pooling"
  bottom: "pool3/3x3_s2"
  top: "inception_4a/pool"
  pooling_param {
    pool: MAX
    kernel_size: 3
    stride: 1
    pad: 1
  }
}
layer {
  name: "inception_4a/pool_proj"
  type: "Convolution"
  bottom: "inception_4a/pool"
  top: "inception_4a/pool_proj"
  param {
    lr_mult: 1
    decay_mult: 1
  }
  param {
    lr_mult: 2
    decay_mult: 0
  }
  convolution_param {
    num_output: 64
    kernel_size: 1
    weight_filler {
      type: "xavier"
    }
    bias_filler {
      type: "constant"
      value: 0.2
    }
  }
}
layer {
  name: "inception_4a/relu_pool_proj"
  type: "ReLU"
  bottom: "inception_4a/pool_proj"
  top: "inception_4a/pool_proj"
}
layer {
  name: "inception_4a/output"
  type: "Concat"
  bottom: "inception_4a/1x1"
  bottom: "inception_4a/3x3"
  bottom: "inception_4a/5x5"
  bottom: "inception_4a/pool_proj"
  top: "inception_4a/output"
}
layer {
  name: "loss1/ave_pool"
  type: "Pooling"
  bottom: "inception_4a/output"
  top: "loss1/ave_pool"
  pooling_param {
    pool: AVE
    kernel_size: 5
    stride: 3
  }
}
layer {
  name: "loss1/conv"
  type: "Convolution"
  bottom: "loss1/ave_pool"
  top: "loss1/conv"
  param {
    lr_mult: 1
    decay_mult: 1
  }
  param {
    lr_mult: 2
    decay_mult: 0
  }
  convolution_param {
    num_output: 128
    kernel_size: 1
    weight_filler {
      type: "xavier"
    }
    bias_filler {
      type: "constant"
      value: 0.2
    }
  }
}
layer {
  name: "loss1/relu_conv"
  type: "ReLU"
  bottom: "loss1/conv"
  top: "loss1/conv"
}
layer {
  name: "loss1/fc"
  type: "InnerProduct"
  bottom: "loss1/conv"
  top: "loss1/fc"
  param {
    lr_mult: 1
    decay_mult: 1
  }
  param {
    lr_mult: 2
    decay_mult: 0
  }
  inner_product_param {
    num_output: 1024
    weight_filler {
      type: "xavier"
    }
    bias_filler {
      type: "constant"
      value: 0.2
    }
  }
}
layer {
  name: "loss1/relu_fc"
  type: "ReLU"
  bottom: "loss1/fc"
  top: "loss1/fc"
}
layer {
  name: "loss1/drop_fc"
  type: "Dropout"
  bottom: "loss1/fc"
  top: "loss1/fc"
  dropout_param {
    dropout_ratio: 0.7
  }
}
layer {
  name: "loss1/classifier-attribute"
  type: "InnerProduct"
  bottom: "loss1/fc"
  top: "loss1/classifier-attribute"
  param {
    lr_mult: 10
    decay_mult: 1
  }
  param {
    lr_mult: 20
    decay_mult: 0
  }
  inner_product_param {
    num_output: 5
    weight_filler {
      type: "xavier"
    }
    bias_filler {
      type: "constant"
      value: 0
    }
  }
}
layer {
  name: "loss1/loss"
  type: "SoftmaxWithLoss"
  bottom: "loss1/classifier-attribute"
  bottom: "label"
  top: "loss1/loss1"
  loss_weight: 0.3
}
layer {
  name: "inception_4b/1x1"
  type: "Convolution"
  bottom: "inception_4a/output"
  top: "inception_4b/1x1"
  param {
    lr_mult: 1
    decay_mult: 1
  }
  param {
    lr_mult: 2
    decay_mult: 0
  }
  convolution_param {
    num_output: 160
    kernel_size: 1
    weight_filler {
      type: "xavier"
    }
    bias_filler {
      type: "constant"
      value: 0.2
    }
  }
}
layer {
  name: "inception_4b/relu_1x1"
  type: "ReLU"
  bottom: "inception_4b/1x1"
  top: "inception_4b/1x1"
}
layer {
  name: "inception_4b/3x3_reduce"
  type: "Convolution"
  bottom: "inception_4a/output"
  top: "inception_4b/3x3_reduce"
  param {
    lr_mult: 1
    decay_mult: 1
  }
  param {
    lr_mult: 2
    decay_mult: 0
  }
  convolution_param {
    num_output: 112
    kernel_size: 1
    weight_filler {
      type: "xavier"
    }
    bias_filler {
      type: "constant"
      value: 0.2
    }
  }
}
layer {
  name: "inception_4b/relu_3x3_reduce"
  type: "ReLU"
  bottom: "inception_4b/3x3_reduce"
  top: "inception_4b/3x3_reduce"
}
layer {
  name: "inception_4b/3x3"
  type: "Convolution"
  bottom: "inception_4b/3x3_reduce"
  top: "inception_4b/3x3"
  param {
    lr_mult: 1
    decay_mult: 1
  }
  param {
    lr_mult: 2
    decay_mult: 0
  }
  convolution_param {
    num_output: 224
    pad: 1
    kernel_size: 3
    weight_filler {
      type: "xavier"
    }
    bias_filler {
      type: "constant"
      value: 0.2
    }
  }
}
layer {
  name: "inception_4b/relu_3x3"
  type: "ReLU"
  bottom: "inception_4b/3x3"
  top: "inception_4b/3x3"
}
layer {
  name: "inception_4b/5x5_reduce"
  type: "Convolution"
  bottom: "inception_4a/output"
  top: "inception_4b/5x5_reduce"
  param {
    lr_mult: 1
    decay_mult: 1
  }
  param {
    lr_mult: 2
    decay_mult: 0
  }
  convolution_param {
    num_output: 24
    kernel_size: 1
    weight_filler {
      type: "xavier"
    }
    bias_filler {
      type: "constant"
      value: 0.2
    }
  }
}
layer {
  name: "inception_4b/relu_5x5_reduce"
  type: "ReLU"
  bottom: "inception_4b/5x5_reduce"
  top: "inception_4b/5x5_reduce"
}
layer {
  name: "inception_4b/5x5"
  type: "Convolution"
  bottom: "inception_4b/5x5_reduce"
  top: "inception_4b/5x5"
  param {
    lr_mult: 1
    decay_mult: 1
  }
  param {
    lr_mult: 2
    decay_mult: 0
  }
  convolution_param {
    num_output: 64
    pad: 2
    kernel_size: 5
    weight_filler {
      type: "xavier"
    }
    bias_filler {
      type: "constant"
      value: 0.2
    }
  }
}
layer {
  name: "inception_4b/relu_5x5"
  type: "ReLU"
  bottom: "inception_4b/5x5"
  top: "inception_4b/5x5"
}
layer {
  name: "inception_4b/pool"
  type: "Pooling"
  bottom: "inception_4a/output"
  top: "inception_4b/pool"
  pooling_param {
    pool: MAX
    kernel_size: 3
    stride: 1
    pad: 1
  }
}
layer {
  name: "inception_4b/pool_proj"
  type: "Convolution"
  bottom: "inception_4b/pool"
  top: "inception_4b/pool_proj"
  param {
    lr_mult: 1
    decay_mult: 1
  }
  param {
    lr_mult: 2
    decay_mult: 0
  }
  convolution_param {
    num_output: 64
    kernel_size: 1
    weight_filler {
      type: "xavier"
    }
    bias_filler {
      type: "constant"
      value: 0.2
    }
  }
}
layer {
  name: "inception_4b/relu_pool_proj"
  type: "ReLU"
  bottom: "inception_4b/pool_proj"
  top: "inception_4b/pool_proj"
}
layer {
  name: "inception_4b/output"
  type: "Concat"
  bottom: "inception_4b/1x1"
  bottom: "inception_4b/3x3"
  bottom: "inception_4b/5x5"
  bottom: "inception_4b/pool_proj"
  top: "inception_4b/output"
}
layer {
  name: "inception_4c/1x1"
  type: "Convolution"
  bottom: "inception_4b/output"
  top: "inception_4c/1x1"
  param {
    lr_mult: 1
    decay_mult: 1
  }
  param {
    lr_mult: 2
    decay_mult: 0
  }
  convolution_param {
    num_output: 128
    kernel_size: 1
    weight_filler {
      type: "xavier"
    }
    bias_filler {
      type: "constant"
      value: 0.2
    }
  }
}
layer {
  name: "inception_4c/relu_1x1"
  type: "ReLU"
  bottom: "inception_4c/1x1"
  top: "inception_4c/1x1"
}
layer {
  name: "inception_4c/3x3_reduce"
  type: "Convolution"
  bottom: "inception_4b/output"
  top: "inception_4c/3x3_reduce"
  param {
    lr_mult: 1
    decay_mult: 1
  }
  param {
    lr_mult: 2
    decay_mult: 0
  }
  convolution_param {
    num_output: 128
    kernel_size: 1
    weight_filler {
      type: "xavier"
    }
    bias_filler {
      type: "constant"
      value: 0.2
    }
  }
}
layer {
  name: "inception_4c/relu_3x3_reduce"
  type: "ReLU"
  bottom: "inception_4c/3x3_reduce"
  top: "inception_4c/3x3_reduce"
}
layer {
  name: "inception_4c/3x3"
  type: "Convolution"
  bottom: "inception_4c/3x3_reduce"
  top: "inception_4c/3x3"
  param {
    lr_mult: 1
    decay_mult: 1
  }
  param {
    lr_mult: 2
    decay_mult: 0
  }
  convolution_param {
    num_output: 256
    pad: 1
    kernel_size: 3
    weight_filler {
      type: "xavier"
    }
    bias_filler {
      type: "constant"
      value: 0.2
    }
  }
}
layer {
  name: "inception_4c/relu_3x3"
  type: "ReLU"
  bottom: "inception_4c/3x3"
  top: "inception_4c/3x3"
}
layer {
  name: "inception_4c/5x5_reduce"
  type: "Convolution"
  bottom: "inception_4b/output"
  top: "inception_4c/5x5_reduce"
  param {
    lr_mult: 1
    decay_mult: 1
  }
  param {
    lr_mult: 2
    decay_mult: 0
  }
  convolution_param {
    num_output: 24
    kernel_size: 1
    weight_filler {
      type: "xavier"
    }
    bias_filler {
      type: "constant"
      value: 0.2
    }
  }
}
layer {
  name: "inception_4c/relu_5x5_reduce"
  type: "ReLU"
  bottom: "inception_4c/5x5_reduce"
  top: "inception_4c/5x5_reduce"
}
layer {
  name: "inception_4c/5x5"
  type: "Convolution"
  bottom: "inception_4c/5x5_reduce"
  top: "inception_4c/5x5"
  param {
    lr_mult: 1
    decay_mult: 1
  }
  param {
    lr_mult: 2
    decay_mult: 0
  }
  convolution_param {
    num_output: 64
    pad: 2
    kernel_size: 5
    weight_filler {
      type: "xavier"
    }
    bias_filler {
      type: "constant"
      value: 0.2
    }
  }
}
layer {
  name: "inception_4c/relu_5x5"
  type: "ReLU"
  bottom: "inception_4c/5x5"
  top: "inception_4c/5x5"
}
layer {
  name: "inception_4c/pool"
  type: "Pooling"
  bottom: "inception_4b/output"
  top: "inception_4c/pool"
  pooling_param {
    pool: MAX
    kernel_size: 3
    stride: 1
    pad: 1
  }
}
layer {
  name: "inception_4c/pool_proj"
  type: "Convolution"
  bottom: "inception_4c/pool"
  top: "inception_4c/pool_proj"
  param {
    lr_mult: 1
    decay_mult: 1
  }
  param {
    lr_mult: 2
    decay_mult: 0
  }
  convolution_param {
    num_output: 64
    kernel_size: 1
    weight_filler {
      type: "xavier"
    }
    bias_filler {
      type: "constant"
      value: 0.2
    }
  }
}
layer {
  name: "inception_4c/relu_pool_proj"
  type: "ReLU"
  bottom: "inception_4c/pool_proj"
  top: "inception_4c/pool_proj"
}
layer {
  name: "inception_4c/output"
  type: "Concat"
  bottom: "inception_4c/1x1"
  bottom: "inception_4c/3x3"
  bottom: "inception_4c/5x5"
  bottom: "inception_4c/pool_proj"
  top: "inception_4c/output"
}
layer {
  name: "inception_4d/1x1"
  type: "Convolution"
  bottom: "inception_4c/output"
  top: "inception_4d/1x1"
  param {
    lr_mult: 1
    decay_mult: 1
  }
  param {
    lr_mult: 2
    decay_mult: 0
  }
  convolution_param {
    num_output: 112
    kernel_size: 1
    weight_filler {
      type: "xavier"
    }
    bias_filler {
      type: "constant"
      value: 0.2
    }
  }
}
layer {
  name: "inception_4d/relu_1x1"
  type: "ReLU"
  bottom: "inception_4d/1x1"
  top: "inception_4d/1x1"
}
layer {
  name: "inception_4d/3x3_reduce"
  type: "Convolution"
  bottom: "inception_4c/output"
  top: "inception_4d/3x3_reduce"
  param {
    lr_mult: 1
    decay_mult: 1
  }
  param {
    lr_mult: 2
    decay_mult: 0
  }
  convolution_param {
    num_output: 144
    kernel_size: 1
    weight_filler {
      type: "xavier"
    }
    bias_filler {
      type: "constant"
      value: 0.2
    }
  }
}
layer {
  name: "inception_4d/relu_3x3_reduce"
  type: "ReLU"
  bottom: "inception_4d/3x3_reduce"
  top: "inception_4d/3x3_reduce"
}
layer {
  name: "inception_4d/3x3"
  type: "Convolution"
  bottom: "inception_4d/3x3_reduce"
  top: "inception_4d/3x3"
  param {
    lr_mult: 1
    decay_mult: 1
  }
  param {
    lr_mult: 2
    decay_mult: 0
  }
  convolution_param {
    num_output: 288
    pad: 1
    kernel_size: 3
    weight_filler {
      type: "xavier"
    }
    bias_filler {
      type: "constant"
      value: 0.2
    }
  }
}
layer {
  name: "inception_4d/relu_3x3"
  type: "ReLU"
  bottom: "inception_4d/3x3"
  top: "inception_4d/3x3"
}
layer {
  name: "inception_4d/5x5_reduce"
  type: "Convolution"
  bottom: "inception_4c/output"
  top: "inception_4d/5x5_reduce"
  param {
    lr_mult: 1
    decay_mult: 1
  }
  param {
    lr_mult: 2
    decay_mult: 0
  }
  convolution_param {
    num_output: 32
    kernel_size: 1
    weight_filler {
      type: "xavier"
    }
    bias_filler {
      type: "constant"
      value: 0.2
    }
  }
}
layer {
  name: "inception_4d/relu_5x5_reduce"
  type: "ReLU"
  bottom: "inception_4d/5x5_reduce"
  top: "inception_4d/5x5_reduce"
}
layer {
  name: "inception_4d/5x5"
  type: "Convolution"
  bottom: "inception_4d/5x5_reduce"
  top: "inception_4d/5x5"
  param {
    lr_mult: 1
    decay_mult: 1
  }
  param {
    lr_mult: 2
    decay_mult: 0
  }
  convolution_param {
    num_output: 64
    pad: 2
    kernel_size: 5
    weight_filler {
      type: "xavier"
    }
    bias_filler {
      type: "constant"
      value: 0.2
    }
  }
}
layer {
  name: "inception_4d/relu_5x5"
  type: "ReLU"
  bottom: "inception_4d/5x5"
  top: "inception_4d/5x5"
}
layer {
  name: "inception_4d/pool"
  type: "Pooling"
  bottom: "inception_4c/output"
  top: "inception_4d/pool"
  pooling_param {
    pool: MAX
    kernel_size: 3
    stride: 1
    pad: 1
  }
}
layer {
  name: "inception_4d/pool_proj"
  type: "Convolution"
  bottom: "inception_4d/pool"
  top: "inception_4d/pool_proj"
  param {
    lr_mult: 1
    decay_mult: 1
  }
  param {
    lr_mult: 2
    decay_mult: 0
  }
  convolution_param {
    num_output: 64
    kernel_size: 1
    weight_filler {
      type: "xavier"
    }
    bias_filler {
      type: "constant"
      value: 0.2
    }
  }
}
layer {
  name: "inception_4d/relu_pool_proj"
  type: "ReLU"
  bottom: "inception_4d/pool_proj"
  top: "inception_4d/pool_proj"
}
layer {
  name: "inception_4d/output"
  type: "Concat"
  bottom: "inception_4d/1x1"
  bottom: "inception_4d/3x3"
  bottom: "inception_4d/5x5"
  bottom: "inception_4d/pool_proj"
  top: "inception_4d/output"
}
layer {
  name: "loss2/ave_pool"
  type: "Pooling"
  bottom: "inception_4d/output"
  top: "loss2/ave_pool"
  pooling_param {
    pool: AVE
    kernel_size: 5
    stride: 3
  }
}
layer {
  name: "loss2/conv"
  type: "Convolution"
  bottom: "loss2/ave_pool"
  top: "loss2/conv"
  param {
    lr_mult: 1
    decay_mult: 1
  }
  param {
    lr_mult: 2
    decay_mult: 0
  }
  convolution_param {
    num_output: 128
    kernel_size: 1
    weight_filler {
      type: "xavier"
    }
    bias_filler {
      type: "constant"
      value: 0.2
    }
  }
}
layer {
  name: "loss2/relu_conv"
  type: "ReLU"
  bottom: "loss2/conv"
  top: "loss2/conv"
}
layer {
  name: "loss2/fc"
  type: "InnerProduct"
  bottom: "loss2/conv"
  top: "loss2/fc"
  param {
    lr_mult: 1
    decay_mult: 1
  }
  param {
    lr_mult: 2
    decay_mult: 0
  }
  inner_product_param {
    num_output: 1024
    weight_filler {
      type: "xavier"
    }
    bias_filler {
      type: "constant"
      value: 0.2
    }
  }
}
layer {
  name: "loss2/relu_fc"
  type: "ReLU"
  bottom: "loss2/fc"
  top: "loss2/fc"
}
layer {
  name: "loss2/drop_fc"
  type: "Dropout"
  bottom: "loss2/fc"
  top: "loss2/fc"
  dropout_param {
    dropout_ratio: 0.7
  }
}
layer {
  name: "loss2/classifier-attribute"
  type: "InnerProduct"
  bottom: "loss2/fc"
  top: "loss2/classifier-attribute"
  param {
    lr_mult: 10
    decay_mult: 1
  }
  param {
    lr_mult: 20
    decay_mult: 0
  }
  inner_product_param {
    num_output: 5
    weight_filler {
      type: "xavier"
    }
    bias_filler {
      type: "constant"
      value: 0
    }
  }
}
layer {
  name: "loss2/loss"
  type: "SoftmaxWithLoss"
  bottom: "loss2/classifier-attribute"
  bottom: "label"
  top: "loss2/loss1"
  loss_weight: 0.3
}
layer {
  name: "inception_4e/1x1"
  type: "Convolution"
  bottom: "inception_4d/output"
  top: "inception_4e/1x1"
  param {
    lr_mult: 1
    decay_mult: 1
  }
  param {
    lr_mult: 2
    decay_mult: 0
  }
  convolution_param {
    num_output: 256
    kernel_size: 1
    weight_filler {
      type: "xavier"
    }
    bias_filler {
      type: "constant"
      value: 0.2
    }
  }
}
layer {
  name: "inception_4e/relu_1x1"
  type: "ReLU"
  bottom: "inception_4e/1x1"
  top: "inception_4e/1x1"
}
layer {
  name: "inception_4e/3x3_reduce"
  type: "Convolution"
  bottom: "inception_4d/output"
  top: "inception_4e/3x3_reduce"
  param {
    lr_mult: 1
    decay_mult: 1
  }
  param {
    lr_mult: 2
    decay_mult: 0
  }
  convolution_param {
    num_output: 160
    kernel_size: 1
    weight_filler {
      type: "xavier"
    }
    bias_filler {
      type: "constant"
      value: 0.2
    }
  }
}
layer {
  name: "inception_4e/relu_3x3_reduce"
  type: "ReLU"
  bottom: "inception_4e/3x3_reduce"
  top: "inception_4e/3x3_reduce"
}
layer {
  name: "inception_4e/3x3"
  type: "Convolution"
  bottom: "inception_4e/3x3_reduce"
  top: "inception_4e/3x3"
  param {
    lr_mult: 1
    decay_mult: 1
  }
  param {
    lr_mult: 2
    decay_mult: 0
  }
  convolution_param {
    num_output: 320
    pad: 1
    kernel_size: 3
    weight_filler {
      type: "xavier"
    }
    bias_filler {
      type: "constant"
      value: 0.2
    }
  }
}
layer {
  name: "inception_4e/relu_3x3"
  type: "ReLU"
  bottom: "inception_4e/3x3"
  top: "inception_4e/3x3"
}
layer {
  name: "inception_4e/5x5_reduce"
  type: "Convolution"
  bottom: "inception_4d/output"
  top: "inception_4e/5x5_reduce"
  param {
    lr_mult: 1
    decay_mult: 1
  }
  param {
    lr_mult: 2
    decay_mult: 0
  }
  convolution_param {
    num_output: 32
    kernel_size: 1
    weight_filler {
      type: "xavier"
    }
    bias_filler {
      type: "constant"
      value: 0.2
    }
  }
}
layer {
  name: "inception_4e/relu_5x5_reduce"
  type: "ReLU"
  bottom: "inception_4e/5x5_reduce"
  top: "inception_4e/5x5_reduce"
}
layer {
  name: "inception_4e/5x5"
  type: "Convolution"
  bottom: "inception_4e/5x5_reduce"
  top: "inception_4e/5x5"
  param {
    lr_mult: 1
    decay_mult: 1
  }
  param {
    lr_mult: 2
    decay_mult: 0
  }
  convolution_param {
    num_output: 128
    pad: 2
    kernel_size: 5
    weight_filler {
      type: "xavier"
    }
    bias_filler {
      type: "constant"
      value: 0.2
    }
  }
}
layer {
  name: "inception_4e/relu_5x5"
  type: "ReLU"
  bottom: "inception_4e/5x5"
  top: "inception_4e/5x5"
}
layer {
  name: "inception_4e/pool"
  type: "Pooling"
  bottom: "inception_
I1125 19:43:13.887524 18938 layer_factory.hpp:76] Creating layer data
I1125 19:43:13.887565 18938 net.cpp:106] Creating Layer data
I1125 19:43:13.887575 18938 net.cpp:411] data -> data
I1125 19:43:13.887605 18938 net.cpp:411] data -> label
I1125 19:43:13.888092 18938 image_data_layer.cpp:36] Opening file pad_train.txt
I1125 19:43:13.918931 18938 image_data_layer.cpp:46] Shuffling data
I1125 19:43:13.921051 18938 image_data_layer.cpp:51] A total of 29870 images.
I1125 19:43:13.945348 18938 image_data_layer.cpp:78] output data size: 64,3,224,224
I1125 19:43:13.997457 18938 net.cpp:150] Setting up data
I1125 19:43:13.997519 18938 net.cpp:157] Top shape: 64 3 224 224 (9633792)
I1125 19:43:13.997527 18938 net.cpp:157] Top shape: 64 (64)
I1125 19:43:13.997530 18938 net.cpp:165] Memory required for data: 38535424
I1125 19:43:13.997539 18938 layer_factory.hpp:76] Creating layer label_data_1_split
I1125 19:43:13.997565 18938 net.cpp:106] Creating Layer label_data_1_split
I1125 19:43:13.997572 18938 net.cpp:454] label_data_1_split <- label
I1125 19:43:13.997584 18938 net.cpp:411] label_data_1_split -> label_data_1_split_0
I1125 19:43:13.997596 18938 net.cpp:411] label_data_1_split -> label_data_1_split_1
I1125 19:43:13.997604 18938 net.cpp:411] label_data_1_split -> label_data_1_split_2
I1125 19:43:13.997668 18938 net.cpp:150] Setting up label_data_1_split
I1125 19:43:13.997676 18938 net.cpp:157] Top shape: 64 (64)
I1125 19:43:13.997683 18938 net.cpp:157] Top shape: 64 (64)
I1125 19:43:13.997685 18938 net.cpp:157] Top shape: 64 (64)
I1125 19:43:13.997689 18938 net.cpp:165] Memory required for data: 38536192
I1125 19:43:13.997694 18938 layer_factory.hpp:76] Creating layer conv1/7x7_s2
I1125 19:43:13.997709 18938 net.cpp:106] Creating Layer conv1/7x7_s2
I1125 19:43:13.997714 18938 net.cpp:454] conv1/7x7_s2 <- data
I1125 19:43:13.997720 18938 net.cpp:411] conv1/7x7_s2 -> conv1/7x7_s2
I1125 19:43:14.158551 18938 net.cpp:150] Setting up conv1/7x7_s2
I1125 19:43:14.158577 18938 net.cpp:157] Top shape: 64 64 112 112 (51380224)
I1125 19:43:14.158582 18938 net.cpp:165] Memory required for data: 244057088
I1125 19:43:14.158602 18938 layer_factory.hpp:76] Creating layer conv1/relu_7x7
I1125 19:43:14.158613 18938 net.cpp:106] Creating Layer conv1/relu_7x7
I1125 19:43:14.158618 18938 net.cpp:454] conv1/relu_7x7 <- conv1/7x7_s2
I1125 19:43:14.158623 18938 net.cpp:397] conv1/relu_7x7 -> conv1/7x7_s2 (in-place)
I1125 19:43:14.158912 18938 net.cpp:150] Setting up conv1/relu_7x7
I1125 19:43:14.158926 18938 net.cpp:157] Top shape: 64 64 112 112 (51380224)
I1125 19:43:14.158931 18938 net.cpp:165] Memory required for data: 449577984
I1125 19:43:14.158934 18938 layer_factory.hpp:76] Creating layer pool1/3x3_s2
I1125 19:43:14.158943 18938 net.cpp:106] Creating Layer pool1/3x3_s2
I1125 19:43:14.158946 18938 net.cpp:454] pool1/3x3_s2 <- conv1/7x7_s2
I1125 19:43:14.158951 18938 net.cpp:411] pool1/3x3_s2 -> pool1/3x3_s2
I1125 19:43:14.159138 18938 net.cpp:150] Setting up pool1/3x3_s2
I1125 19:43:14.159150 18938 net.cpp:157] Top shape: 64 64 56 56 (12845056)
I1125 19:43:14.159153 18938 net.cpp:165] Memory required for data: 500958208
I1125 19:43:14.159157 18938 layer_factory.hpp:76] Creating layer pool1/norm1
I1125 19:43:14.159168 18938 net.cpp:106] Creating Layer pool1/norm1
I1125 19:43:14.159170 18938 net.cpp:454] pool1/norm1 <- pool1/3x3_s2
I1125 19:43:14.159175 18938 net.cpp:411] pool1/norm1 -> pool1/norm1
I1125 19:43:14.159482 18938 net.cpp:150] Setting up pool1/norm1
I1125 19:43:14.159495 18938 net.cpp:157] Top shape: 64 64 56 56 (12845056)
I1125 19:43:14.159498 18938 net.cpp:165] Memory required for data: 552338432
I1125 19:43:14.159502 18938 layer_factory.hpp:76] Creating layer conv2/3x3_reduce
I1125 19:43:14.159512 18938 net.cpp:106] Creating Layer conv2/3x3_reduce
I1125 19:43:14.159515 18938 net.cpp:454] conv2/3x3_reduce <- pool1/norm1
I1125 19:43:14.159520 18938 net.cpp:411] conv2/3x3_reduce -> conv2/3x3_reduce
I1125 19:43:14.160925 18938 net.cpp:150] Setting up conv2/3x3_reduce
I1125 19:43:14.160945 18938 net.cpp:157] Top shape: 64 64 56 56 (12845056)
I1125 19:43:14.160950 18938 net.cpp:165] Memory required for data: 603718656
I1125 19:43:14.160962 18938 layer_factory.hpp:76] Creating layer conv2/relu_3x3_reduce
I1125 19:43:14.160972 18938 net.cpp:106] Creating Layer conv2/relu_3x3_reduce
I1125 19:43:14.160977 18938 net.cpp:454] conv2/relu_3x3_reduce <- conv2/3x3_reduce
I1125 19:43:14.160984 18938 net.cpp:397] conv2/relu_3x3_reduce -> conv2/3x3_reduce (in-place)
I1125 19:43:14.161335 18938 net.cpp:150] Setting up conv2/relu_3x3_reduce
I1125 19:43:14.161352 18938 net.cpp:157] Top shape: 64 64 56 56 (12845056)
I1125 19:43:14.161357 18938 net.cpp:165] Memory required for data: 655098880
I1125 19:43:14.161362 18938 layer_factory.hpp:76] Creating layer conv2/3x3
I1125 19:43:14.161377 18938 net.cpp:106] Creating Layer conv2/3x3
I1125 19:43:14.161382 18938 net.cpp:454] conv2/3x3 <- conv2/3x3_reduce
I1125 19:43:14.161389 18938 net.cpp:411] conv2/3x3 -> conv2/3x3
I1125 19:43:14.164063 18938 net.cpp:150] Setting up conv2/3x3
I1125 19:43:14.164083 18938 net.cpp:157] Top shape: 64 192 56 56 (38535168)
I1125 19:43:14.164088 18938 net.cpp:165] Memory required for data: 809239552
I1125 19:43:14.164103 18938 layer_factory.hpp:76] Creating layer conv2/relu_3x3
I1125 19:43:14.164110 18938 net.cpp:106] Creating Layer conv2/relu_3x3
I1125 19:43:14.164115 18938 net.cpp:454] conv2/relu_3x3 <- conv2/3x3
I1125 19:43:14.164124 18938 net.cpp:397] conv2/relu_3x3 -> conv2/3x3 (in-place)
I1125 19:43:14.164332 18938 net.cpp:150] Setting up conv2/relu_3x3
I1125 19:43:14.164346 18938 net.cpp:157] Top shape: 64 192 56 56 (38535168)
I1125 19:43:14.164350 18938 net.cpp:165] Memory required for data: 963380224
I1125 19:43:14.164355 18938 layer_factory.hpp:76] Creating layer conv2/norm2
I1125 19:43:14.164365 18938 net.cpp:106] Creating Layer conv2/norm2
I1125 19:43:14.164369 18938 net.cpp:454] conv2/norm2 <- conv2/3x3
I1125 19:43:14.164377 18938 net.cpp:411] conv2/norm2 -> conv2/norm2
I1125 19:43:14.164779 18938 net.cpp:150] Setting up conv2/norm2
I1125 19:43:14.164795 18938 net.cpp:157] Top shape: 64 192 56 56 (38535168)
I1125 19:43:14.164800 18938 net.cpp:165] Memory required for data: 1117520896
I1125 19:43:14.164804 18938 layer_factory.hpp:76] Creating layer pool2/3x3_s2
I1125 19:43:14.164813 18938 net.cpp:106] Creating Layer pool2/3x3_s2
I1125 19:43:14.164818 18938 net.cpp:454] pool2/3x3_s2 <- conv2/norm2
I1125 19:43:14.164827 18938 net.cpp:411] pool2/3x3_s2 -> pool2/3x3_s2
I1125 19:43:14.165066 18938 net.cpp:150] Setting up pool2/3x3_s2
I1125 19:43:14.165078 18938 net.cpp:157] Top shape: 64 192 28 28 (9633792)
I1125 19:43:14.165082 18938 net.cpp:165] Memory required for data: 1156056064
I1125 19:43:14.165087 18938 layer_factory.hpp:76] Creating layer pool2/3x3_s2_pool2/3x3_s2_0_split
I1125 19:43:14.165096 18938 net.cpp:106] Creating Layer pool2/3x3_s2_pool2/3x3_s2_0_split
I1125 19:43:14.165102 18938 net.cpp:454] pool2/3x3_s2_pool2/3x3_s2_0_split <- pool2/3x3_s2
I1125 19:43:14.165108 18938 net.cpp:411] pool2/3x3_s2_pool2/3x3_s2_0_split -> pool2/3x3_s2_pool2/3x3_s2_0_split_0
I1125 19:43:14.165117 18938 net.cpp:411] pool2/3x3_s2_pool2/3x3_s2_0_split -> pool2/3x3_s2_pool2/3x3_s2_0_split_1
I1125 19:43:14.165124 18938 net.cpp:411] pool2/3x3_s2_pool2/3x3_s2_0_split -> pool2/3x3_s2_pool2/3x3_s2_0_split_2
I1125 19:43:14.165132 18938 net.cpp:411] pool2/3x3_s2_pool2/3x3_s2_0_split -> pool2/3x3_s2_pool2/3x3_s2_0_split_3
I1125 19:43:14.165215 18938 net.cpp:150] Setting up pool2/3x3_s2_pool2/3x3_s2_0_split
I1125 19:43:14.165225 18938 net.cpp:157] Top shape: 64 192 28 28 (9633792)
I1125 19:43:14.165230 18938 net.cpp:157] Top shape: 64 192 28 28 (9633792)
I1125 19:43:14.165235 18938 net.cpp:157] Top shape: 64 192 28 28 (9633792)
I1125 19:43:14.165238 18938 net.cpp:157] Top shape: 64 192 28 28 (9633792)
I1125 19:43:14.165242 18938 net.cpp:165] Memory required for data: 1310196736
I1125 19:43:14.165246 18938 layer_factory.hpp:76] Creating layer inception_3a/1x1
I1125 19:43:14.165257 18938 net.cpp:106] Creating Layer inception_3a/1x1
I1125 19:43:14.165262 18938 net.cpp:454] inception_3a/1x1 <- pool2/3x3_s2_pool2/3x3_s2_0_split_0
I1125 19:43:14.165271 18938 net.cpp:411] inception_3a/1x1 -> inception_3a/1x1
I1125 19:43:14.167103 18938 net.cpp:150] Setting up inception_3a/1x1
I1125 19:43:14.167121 18938 net.cpp:157] Top shape: 64 64 28 28 (3211264)
I1125 19:43:14.167127 18938 net.cpp:165] Memory required for data: 1323041792
I1125 19:43:14.167136 18938 layer_factory.hpp:76] Creating layer inception_3a/relu_1x1
I1125 19:43:14.167147 18938 net.cpp:106] Creating Layer inception_3a/relu_1x1
I1125 19:43:14.167152 18938 net.cpp:454] inception_3a/relu_1x1 <- inception_3a/1x1
I1125 19:43:14.167160 18938 net.cpp:397] inception_3a/relu_1x1 -> inception_3a/1x1 (in-place)
I1125 19:43:14.167541 18938 net.cpp:150] Setting up inception_3a/relu_1x1
I1125 19:43:14.167557 18938 net.cpp:157] Top shape: 64 64 28 28 (3211264)
I1125 19:43:14.167562 18938 net.cpp:165] Memory required for data: 1335886848
I1125 19:43:14.167565 18938 layer_factory.hpp:76] Creating layer inception_3a/3x3_reduce
I1125 19:43:14.167577 18938 net.cpp:106] Creating Layer inception_3a/3x3_reduce
I1125 19:43:14.167582 18938 net.cpp:454] inception_3a/3x3_reduce <- pool2/3x3_s2_pool2/3x3_s2_0_split_1
I1125 19:43:14.167590 18938 net.cpp:411] inception_3a/3x3_reduce -> inception_3a/3x3_reduce
I1125 19:43:14.169276 18938 net.cpp:150] Setting up inception_3a/3x3_reduce
I1125 19:43:14.169291 18938 net.cpp:157] Top shape: 64 96 28 28 (4816896)
I1125 19:43:14.169296 18938 net.cpp:165] Memory required for data: 1355154432
I1125 19:43:14.169306 18938 layer_factory.hpp:76] Creating layer inception_3a/relu_3x3_reduce
I1125 19:43:14.169316 18938 net.cpp:106] Creating Layer inception_3a/relu_3x3_reduce
I1125 19:43:14.169319 18938 net.cpp:454] inception_3a/relu_3x3_reduce <- inception_3a/3x3_reduce
I1125 19:43:14.169324 18938 net.cpp:397] inception_3a/relu_3x3_reduce -> inception_3a/3x3_reduce (in-place)
I1125 19:43:14.169492 18938 net.cpp:150] Setting up inception_3a/relu_3x3_reduce
I1125 19:43:14.169503 18938 net.cpp:157] Top shape: 64 96 28 28 (4816896)
I1125 19:43:14.169507 18938 net.cpp:165] Memory required for data: 1374422016
I1125 19:43:14.169510 18938 layer_factory.hpp:76] Creating layer inception_3a/3x3
I1125 19:43:14.169520 18938 net.cpp:106] Creating Layer inception_3a/3x3
I1125 19:43:14.169524 18938 net.cpp:454] inception_3a/3x3 <- inception_3a/3x3_reduce
I1125 19:43:14.169529 18938 net.cpp:411] inception_3a/3x3 -> inception_3a/3x3
I1125 19:43:14.171324 18938 net.cpp:150] Setting up inception_3a/3x3
I1125 19:43:14.171339 18938 net.cpp:157] Top shape: 64 128 28 28 (6422528)
I1125 19:43:14.171344 18938 net.cpp:165] Memory required for data: 1400112128
I1125 19:43:14.171350 18938 layer_factory.hpp:76] Creating layer inception_3a/relu_3x3
I1125 19:43:14.171355 18938 net.cpp:106] Creating Layer inception_3a/relu_3x3
I1125 19:43:14.171360 18938 net.cpp:454] inception_3a/relu_3x3 <- inception_3a/3x3
I1125 19:43:14.171366 18938 net.cpp:397] inception_3a/relu_3x3 -> inception_3a/3x3 (in-place)
I1125 19:43:14.171527 18938 net.cpp:150] Setting up inception_3a/relu_3x3
I1125 19:43:14.171540 18938 net.cpp:157] Top shape: 64 128 28 28 (6422528)
I1125 19:43:14.171542 18938 net.cpp:165] Memory required for data: 1425802240
I1125 19:43:14.171545 18938 layer_factory.hpp:76] Creating layer inception_3a/5x5_reduce
I1125 19:43:14.171553 18938 net.cpp:106] Creating Layer inception_3a/5x5_reduce
I1125 19:43:14.171557 18938 net.cpp:454] inception_3a/5x5_reduce <- pool2/3x3_s2_pool2/3x3_s2_0_split_2
I1125 19:43:14.171564 18938 net.cpp:411] inception_3a/5x5_reduce -> inception_3a/5x5_reduce
I1125 19:43:14.172585 18938 net.cpp:150] Setting up inception_3a/5x5_reduce
I1125 19:43:14.172600 18938 net.cpp:157] Top shape: 64 16 28 28 (802816)
I1125 19:43:14.172603 18938 net.cpp:165] Memory required for data: 1429013504
I1125 19:43:14.172610 18938 layer_factory.hpp:76] Creating layer inception_3a/relu_5x5_reduce
I1125 19:43:14.172617 18938 net.cpp:106] Creating Layer inception_3a/relu_5x5_reduce
I1125 19:43:14.172621 18938 net.cpp:454] inception_3a/relu_5x5_reduce <- inception_3a/5x5_reduce
I1125 19:43:14.172627 18938 net.cpp:397] inception_3a/relu_5x5_reduce -> inception_3a/5x5_reduce (in-place)
I1125 19:43:14.172935 18938 net.cpp:150] Setting up inception_3a/relu_5x5_reduce
I1125 19:43:14.172950 18938 net.cpp:157] Top shape: 64 16 28 28 (802816)
I1125 19:43:14.172953 18938 net.cpp:165] Memory required for data: 1432224768
I1125 19:43:14.172957 18938 layer_factory.hpp:76] Creating layer inception_3a/5x5
I1125 19:43:14.172967 18938 net.cpp:106] Creating Layer inception_3a/5x5
I1125 19:43:14.172971 18938 net.cpp:454] inception_3a/5x5 <- inception_3a/5x5_reduce
I1125 19:43:14.172978 18938 net.cpp:411] inception_3a/5x5 -> inception_3a/5x5
I1125 19:43:14.174020 18938 net.cpp:150] Setting up inception_3a/5x5
I1125 19:43:14.174034 18938 net.cpp:157] Top shape: 64 32 28 28 (1605632)
I1125 19:43:14.174038 18938 net.cpp:165] Memory required for data: 1438647296
I1125 19:43:14.174044 18938 layer_factory.hpp:76] Creating layer inception_3a/relu_5x5
I1125 19:43:14.174051 18938 net.cpp:106] Creating Layer inception_3a/relu_5x5
I1125 19:43:14.174054 18938 net.cpp:454] inception_3a/relu_5x5 <- inception_3a/5x5
I1125 19:43:14.174060 18938 net.cpp:397] inception_3a/relu_5x5 -> inception_3a/5x5 (in-place)
I1125 19:43:14.174226 18938 net.cpp:150] Setting up inception_3a/relu_5x5
I1125 19:43:14.174237 18938 net.cpp:157] Top shape: 64 32 28 28 (1605632)
I1125 19:43:14.174240 18938 net.cpp:165] Memory required for data: 1445069824
I1125 19:43:14.174244 18938 layer_factory.hpp:76] Creating layer inception_3a/pool
I1125 19:43:14.174250 18938 net.cpp:106] Creating Layer inception_3a/pool
I1125 19:43:14.174253 18938 net.cpp:454] inception_3a/pool <- pool2/3x3_s2_pool2/3x3_s2_0_split_3
I1125 19:43:14.174258 18938 net.cpp:411] inception_3a/pool -> inception_3a/pool
I1125 19:43:14.174583 18938 net.cpp:150] Setting up inception_3a/pool
I1125 19:43:14.174597 18938 net.cpp:157] Top shape: 64 192 28 28 (9633792)
I1125 19:43:14.174600 18938 net.cpp:165] Memory required for data: 1483604992
I1125 19:43:14.174604 18938 layer_factory.hpp:76] Creating layer inception_3a/pool_proj
I1125 19:43:14.174613 18938 net.cpp:106] Creating Layer inception_3a/pool_proj
I1125 19:43:14.174618 18938 net.cpp:454] inception_3a/pool_proj <- inception_3a/pool
I1125 19:43:14.174624 18938 net.cpp:411] inception_3a/pool_proj -> inception_3a/pool_proj
I1125 19:43:14.175501 18938 net.cpp:150] Setting up inception_3a/pool_proj
I1125 19:43:14.175516 18938 net.cpp:157] Top shape: 64 32 28 28 (1605632)
I1125 19:43:14.175520 18938 net.cpp:165] Memory required for data: 1490027520
I1125 19:43:14.175529 18938 layer_factory.hpp:76] Creating layer inception_3a/relu_pool_proj
I1125 19:43:14.175536 18938 net.cpp:106] Creating Layer inception_3a/relu_pool_proj
I1125 19:43:14.175539 18938 net.cpp:454] inception_3a/relu_pool_proj <- inception_3a/pool_proj
I1125 19:43:14.175546 18938 net.cpp:397] inception_3a/relu_pool_proj -> inception_3a/pool_proj (in-place)
I1125 19:43:14.175855 18938 net.cpp:150] Setting up inception_3a/relu_pool_proj
I1125 19:43:14.175869 18938 net.cpp:157] Top shape: 64 32 28 28 (1605632)
I1125 19:43:14.175873 18938 net.cpp:165] Memory required for data: 1496450048
I1125 19:43:14.175876 18938 layer_factory.hpp:76] Creating layer inception_3a/output
I1125 19:43:14.175887 18938 net.cpp:106] Creating Layer inception_3a/output
I1125 19:43:14.175890 18938 net.cpp:454] inception_3a/output <- inception_3a/1x1
I1125 19:43:14.175895 18938 net.cpp:454] inception_3a/output <- inception_3a/3x3
I1125 19:43:14.175899 18938 net.cpp:454] inception_3a/output <- inception_3a/5x5
I1125 19:43:14.175904 18938 net.cpp:454] inception_3a/output <- inception_3a/pool_proj
I1125 19:43:14.175907 18938 net.cpp:411] inception_3a/output -> inception_3a/output
I1125 19:43:14.175947 18938 net.cpp:150] Setting up inception_3a/output
I1125 19:43:14.175953 18938 net.cpp:157] Top shape: 64 256 28 28 (12845056)
I1125 19:43:14.175956 18938 net.cpp:165] Memory required for data: 1547830272
I1125 19:43:14.175961 18938 layer_factory.hpp:76] Creating layer inception_3a/output_inception_3a/output_0_split
I1125 19:43:14.175966 18938 net.cpp:106] Creating Layer inception_3a/output_inception_3a/output_0_split
I1125 19:43:14.175969 18938 net.cpp:454] inception_3a/output_inception_3a/output_0_split <- inception_3a/output
I1125 19:43:14.175976 18938 net.cpp:411] inception_3a/output_inception_3a/output_0_split -> inception_3a/output_inception_3a/output_0_split_0
I1125 19:43:14.175982 18938 net.cpp:411] inception_3a/output_inception_3a/output_0_split -> inception_3a/output_inception_3a/output_0_split_1
I1125 19:43:14.175988 18938 net.cpp:411] inception_3a/output_inception_3a/output_0_split -> inception_3a/output_inception_3a/output_0_split_2
I1125 19:43:14.175993 18938 net.cpp:411] inception_3a/output_inception_3a/output_0_split -> inception_3a/output_inception_3a/output_0_split_3
I1125 19:43:14.176050 18938 net.cpp:150] Setting up inception_3a/output_inception_3a/output_0_split
I1125 19:43:14.176056 18938 net.cpp:157] Top shape: 64 256 28 28 (12845056)
I1125 19:43:14.176060 18938 net.cpp:157] Top shape: 64 256 28 28 (12845056)
I1125 19:43:14.176064 18938 net.cpp:157] Top shape: 64 256 28 28 (12845056)
I1125 19:43:14.176067 18938 net.cpp:157] Top shape: 64 256 28 28 (12845056)
I1125 19:43:14.176069 18938 net.cpp:165] Memory required for data: 1753351168
I1125 19:43:14.176072 18938 layer_factory.hpp:76] Creating layer inception_3b/1x1
I1125 19:43:14.176081 18938 net.cpp:106] Creating Layer inception_3b/1x1
I1125 19:43:14.176085 18938 net.cpp:454] inception_3b/1x1 <- inception_3a/output_inception_3a/output_0_split_0
I1125 19:43:14.176090 18938 net.cpp:411] inception_3b/1x1 -> inception_3b/1x1
I1125 19:43:14.177249 18938 net.cpp:150] Setting up inception_3b/1x1
I1125 19:43:14.177264 18938 net.cpp:157] Top shape: 64 128 28 28 (6422528)
I1125 19:43:14.177268 18938 net.cpp:165] Memory required for data: 1779041280
I1125 19:43:14.177274 18938 layer_factory.hpp:76] Creating layer inception_3b/relu_1x1
I1125 19:43:14.177281 18938 net.cpp:106] Creating Layer inception_3b/relu_1x1
I1125 19:43:14.177285 18938 net.cpp:454] inception_3b/relu_1x1 <- inception_3b/1x1
I1125 19:43:14.177290 18938 net.cpp:397] inception_3b/relu_1x1 -> inception_3b/1x1 (in-place)
I1125 19:43:14.177462 18938 net.cpp:150] Setting up inception_3b/relu_1x1
I1125 19:43:14.177474 18938 net.cpp:157] Top shape: 64 128 28 28 (6422528)
I1125 19:43:14.177476 18938 net.cpp:165] Memory required for data: 1804731392
I1125 19:43:14.177480 18938 layer_factory.hpp:76] Creating layer inception_3b/3x3_reduce
I1125 19:43:14.177489 18938 net.cpp:106] Creating Layer inception_3b/3x3_reduce
I1125 19:43:14.177492 18938 net.cpp:454] inception_3b/3x3_reduce <- inception_3a/output_inception_3a/output_0_split_1
I1125 19:43:14.177500 18938 net.cpp:411] inception_3b/3x3_reduce -> inception_3b/3x3_reduce
I1125 19:43:14.178678 18938 net.cpp:150] Setting up inception_3b/3x3_reduce
I1125 19:43:14.178692 18938 net.cpp:157] Top shape: 64 128 28 28 (6422528)
I1125 19:43:14.178695 18938 net.cpp:165] Memory required for data: 1830421504
I1125 19:43:14.178702 18938 layer_factory.hpp:76] Creating layer inception_3b/relu_3x3_reduce
I1125 19:43:14.178709 18938 net.cpp:106] Creating Layer inception_3b/relu_3x3_reduce
I1125 19:43:14.178712 18938 net.cpp:454] inception_3b/relu_3x3_reduce <- inception_3b/3x3_reduce
I1125 19:43:14.178717 18938 net.cpp:397] inception_3b/relu_3x3_reduce -> inception_3b/3x3_reduce (in-place)
I1125 19:43:14.179021 18938 net.cpp:150] Setting up inception_3b/relu_3x3_reduce
I1125 19:43:14.179035 18938 net.cpp:157] Top shape: 64 128 28 28 (6422528)
I1125 19:43:14.179039 18938 net.cpp:165] Memory required for data: 1856111616
I1125 19:43:14.179042 18938 layer_factory.hpp:76] Creating layer inception_3b/3x3
I1125 19:43:14.179054 18938 net.cpp:106] Creating Layer inception_3b/3x3
I1125 19:43:14.179059 18938 net.cpp:454] inception_3b/3x3 <- inception_3b/3x3_reduce
I1125 19:43:14.179066 18938 net.cpp:411] inception_3b/3x3 -> inception_3b/3x3
I1125 19:43:14.181776 18938 net.cpp:150] Setting up inception_3b/3x3
I1125 19:43:14.181792 18938 net.cpp:157] Top shape: 64 192 28 28 (9633792)
I1125 19:43:14.181795 18938 net.cpp:165] Memory required for data: 1894646784
I1125 19:43:14.181802 18938 layer_factory.hpp:76] Creating layer inception_3b/relu_3x3
I1125 19:43:14.181809 18938 net.cpp:106] Creating Layer inception_3b/relu_3x3
I1125 19:43:14.181813 18938 net.cpp:454] inception_3b/relu_3x3 <- inception_3b/3x3
I1125 19:43:14.181819 18938 net.cpp:397] inception_3b/relu_3x3 -> inception_3b/3x3 (in-place)
I1125 19:43:14.182282 18938 net.cpp:150] Setting up inception_3b/relu_3x3
I1125 19:43:14.182296 18938 net.cpp:157] Top shape: 64 192 28 28 (9633792)
I1125 19:43:14.182301 18938 net.cpp:165] Memory required for data: 1933181952
I1125 19:43:14.182303 18938 layer_factory.hpp:76] Creating layer inception_3b/5x5_reduce
I1125 19:43:14.182313 18938 net.cpp:106] Creating Layer inception_3b/5x5_reduce
I1125 19:43:14.182317 18938 net.cpp:454] inception_3b/5x5_reduce <- inception_3a/output_inception_3a/output_0_split_2
I1125 19:43:14.182325 18938 net.cpp:411] inception_3b/5x5_reduce -> inception_3b/5x5_reduce
I1125 19:43:14.183387 18938 net.cpp:150] Setting up inception_3b/5x5_reduce
I1125 19:43:14.183400 18938 net.cpp:157] Top shape: 64 32 28 28 (1605632)
I1125 19:43:14.183404 18938 net.cpp:165] Memory required for data: 1939604480
I1125 19:43:14.183410 18938 layer_factory.hpp:76] Creating layer inception_3b/relu_5x5_reduce
I1125 19:43:14.183416 18938 net.cpp:106] Creating Layer inception_3b/relu_5x5_reduce
I1125 19:43:14.183423 18938 net.cpp:454] inception_3b/relu_5x5_reduce <- inception_3b/5x5_reduce
I1125 19:43:14.183428 18938 net.cpp:397] inception_3b/relu_5x5_reduce -> inception_3b/5x5_reduce (in-place)
I1125 19:43:14.183598 18938 net.cpp:150] Setting up inception_3b/relu_5x5_reduce
I1125 19:43:14.183609 18938 net.cpp:157] Top shape: 64 32 28 28 (1605632)
I1125 19:43:14.183611 18938 net.cpp:165] Memory required for data: 1946027008
I1125 19:43:14.183615 18938 layer_factory.hpp:76] Creating layer inception_3b/5x5
I1125 19:43:14.183625 18938 net.cpp:106] Creating Layer inception_3b/5x5
I1125 19:43:14.183629 18938 net.cpp:454] inception_3b/5x5 <- inception_3b/5x5_reduce
I1125 19:43:14.183634 18938 net.cpp:411] inception_3b/5x5 -> inception_3b/5x5
I1125 19:43:14.185573 18938 net.cpp:150] Setting up inception_3b/5x5
I1125 19:43:14.185590 18938 net.cpp:157] Top shape: 64 96 28 28 (4816896)
I1125 19:43:14.185593 18938 net.cpp:165] Memory required for data: 1965294592
I1125 19:43:14.185600 18938 layer_factory.hpp:76] Creating layer inception_3b/relu_5x5
I1125 19:43:14.185607 18938 net.cpp:106] Creating Layer inception_3b/relu_5x5
I1125 19:43:14.185611 18938 net.cpp:454] inception_3b/relu_5x5 <- inception_3b/5x5
I1125 19:43:14.185616 18938 net.cpp:397] inception_3b/relu_5x5 -> inception_3b/5x5 (in-place)
I1125 19:43:14.185919 18938 net.cpp:150] Setting up inception_3b/relu_5x5
I1125 19:43:14.185932 18938 net.cpp:157] Top shape: 64 96 28 28 (4816896)
I1125 19:43:14.185936 18938 net.cpp:165] Memory required for data: 1984562176
I1125 19:43:14.185940 18938 layer_factory.hpp:76] Creating layer inception_3b/pool
I1125 19:43:14.185946 18938 net.cpp:106] Creating Layer inception_3b/pool
I1125 19:43:14.185950 18938 net.cpp:454] inception_3b/pool <- inception_3a/output_inception_3a/output_0_split_3
I1125 19:43:14.185956 18938 net.cpp:411] inception_3b/pool -> inception_3b/pool
I1125 19:43:14.186148 18938 net.cpp:150] Setting up inception_3b/pool
I1125 19:43:14.186159 18938 net.cpp:157] Top shape: 64 256 28 28 (12845056)
I1125 19:43:14.186162 18938 net.cpp:165] Memory required for data: 2035942400
I1125 19:43:14.186167 18938 layer_factory.hpp:76] Creating layer inception_3b/pool_proj
I1125 19:43:14.186177 18938 net.cpp:106] Creating Layer inception_3b/pool_proj
I1125 19:43:14.186182 18938 net.cpp:454] inception_3b/pool_proj <- inception_3b/pool
I1125 19:43:14.186187 18938 net.cpp:411] inception_3b/pool_proj -> inception_3b/pool_proj
I1125 19:43:14.187266 18938 net.cpp:150] Setting up inception_3b/pool_proj
I1125 19:43:14.187280 18938 net.cpp:157] Top shape: 64 64 28 28 (3211264)
I1125 19:43:14.187284 18938 net.cpp:165] Memory required for data: 2048787456
I1125 19:43:14.187290 18938 layer_factory.hpp:76] Creating layer inception_3b/relu_pool_proj
I1125 19:43:14.187299 18938 net.cpp:106] Creating Layer inception_3b/relu_pool_proj
I1125 19:43:14.187302 18938 net.cpp:454] inception_3b/relu_pool_proj <- inception_3b/pool_proj
I1125 19:43:14.187307 18938 net.cpp:397] inception_3b/relu_pool_proj -> inception_3b/pool_proj (in-place)
I1125 19:43:14.187477 18938 net.cpp:150] Setting up inception_3b/relu_pool_proj
I1125 19:43:14.187489 18938 net.cpp:157] Top shape: 64 64 28 28 (3211264)
I1125 19:43:14.187491 18938 net.cpp:165] Memory required for data: 2061632512
I1125 19:43:14.187494 18938 layer_factory.hpp:76] Creating layer inception_3b/output
I1125 19:43:14.187500 18938 net.cpp:106] Creating Layer inception_3b/output
I1125 19:43:14.187505 18938 net.cpp:454] inception_3b/output <- inception_3b/1x1
I1125 19:43:14.187508 18938 net.cpp:454] inception_3b/output <- inception_3b/3x3
I1125 19:43:14.187515 18938 net.cpp:454] inception_3b/output <- inception_3b/5x5
I1125 19:43:14.187517 18938 net.cpp:454] inception_3b/output <- inception_3b/pool_proj
I1125 19:43:14.187522 18938 net.cpp:411] inception_3b/output -> inception_3b/output
I1125 19:43:14.187551 18938 net.cpp:150] Setting up inception_3b/output
I1125 19:43:14.187556 18938 net.cpp:157] Top shape: 64 480 28 28 (24084480)
I1125 19:43:14.187559 18938 net.cpp:165] Memory required for data: 2157970432
I1125 19:43:14.187562 18938 layer_factory.hpp:76] Creating layer pool3/3x3_s2
I1125 19:43:14.187569 18938 net.cpp:106] Creating Layer pool3/3x3_s2
I1125 19:43:14.187573 18938 net.cpp:454] pool3/3x3_s2 <- inception_3b/output
I1125 19:43:14.187578 18938 net.cpp:411] pool3/3x3_s2 -> pool3/3x3_s2
I1125 19:43:14.187906 18938 net.cpp:150] Setting up pool3/3x3_s2
I1125 19:43:14.187919 18938 net.cpp:157] Top shape: 64 480 14 14 (6021120)
I1125 19:43:14.187923 18938 net.cpp:165] Memory required for data: 2182054912
I1125 19:43:14.187927 18938 layer_factory.hpp:76] Creating layer pool3/3x3_s2_pool3/3x3_s2_0_split
I1125 19:43:14.187932 18938 net.cpp:106] Creating Layer pool3/3x3_s2_pool3/3x3_s2_0_split
I1125 19:43:14.187937 18938 net.cpp:454] pool3/3x3_s2_pool3/3x3_s2_0_split <- pool3/3x3_s2
I1125 19:43:14.187950 18938 net.cpp:411] pool3/3x3_s2_pool3/3x3_s2_0_split -> pool3/3x3_s2_pool3/3x3_s2_0_split_0
I1125 19:43:14.187958 18938 net.cpp:411] pool3/3x3_s2_pool3/3x3_s2_0_split -> pool3/3x3_s2_pool3/3x3_s2_0_split_1
I1125 19:43:14.187964 18938 net.cpp:411] pool3/3x3_s2_pool3/3x3_s2_0_split -> pool3/3x3_s2_pool3/3x3_s2_0_split_2
I1125 19:43:14.187969 18938 net.cpp:411] pool3/3x3_s2_pool3/3x3_s2_0_split -> pool3/3x3_s2_pool3/3x3_s2_0_split_3
I1125 19:43:14.188029 18938 net.cpp:150] Setting up pool3/3x3_s2_pool3/3x3_s2_0_split
I1125 19:43:14.188035 18938 net.cpp:157] Top shape: 64 480 14 14 (6021120)
I1125 19:43:14.188040 18938 net.cpp:157] Top shape: 64 480 14 14 (6021120)
I1125 19:43:14.188042 18938 net.cpp:157] Top shape: 64 480 14 14 (6021120)
I1125 19:43:14.188046 18938 net.cpp:157] Top shape: 64 480 14 14 (6021120)
I1125 19:43:14.188050 18938 net.cpp:165] Memory required for data: 2278392832
I1125 19:43:14.188052 18938 layer_factory.hpp:76] Creating layer inception_4a/1x1
I1125 19:43:14.188060 18938 net.cpp:106] Creating Layer inception_4a/1x1
I1125 19:43:14.188062 18938 net.cpp:454] inception_4a/1x1 <- pool3/3x3_s2_pool3/3x3_s2_0_split_0
I1125 19:43:14.188069 18938 net.cpp:411] inception_4a/1x1 -> inception_4a/1x1
I1125 19:43:14.189765 18938 net.cpp:150] Setting up inception_4a/1x1
I1125 19:43:14.189780 18938 net.cpp:157] Top shape: 64 192 14 14 (2408448)
I1125 19:43:14.189785 18938 net.cpp:165] Memory required for data: 2288026624
I1125 19:43:14.189793 18938 layer_factory.hpp:76] Creating layer inception_4a/relu_1x1
I1125 19:43:14.189800 18938 net.cpp:106] Creating Layer inception_4a/relu_1x1
I1125 19:43:14.189803 18938 net.cpp:454] inception_4a/relu_1x1 <- inception_4a/1x1
I1125 19:43:14.189808 18938 net.cpp:397] inception_4a/relu_1x1 -> inception_4a/1x1 (in-place)
I1125 19:43:14.189981 18938 net.cpp:150] Setting up inception_4a/relu_1x1
I1125 19:43:14.189992 18938 net.cpp:157] Top shape: 64 192 14 14 (2408448)
I1125 19:43:14.189996 18938 net.cpp:165] Memory required for data: 2297660416
I1125 19:43:14.189999 18938 layer_factory.hpp:76] Creating layer inception_4a/3x3_reduce
I1125 19:43:14.190008 18938 net.cpp:106] Creating Layer inception_4a/3x3_reduce
I1125 19:43:14.190012 18938 net.cpp:454] inception_4a/3x3_reduce <- pool3/3x3_s2_pool3/3x3_s2_0_split_1
I1125 19:43:14.190018 18938 net.cpp:411] inception_4a/3x3_reduce -> inception_4a/3x3_reduce
I1125 19:43:14.191305 18938 net.cpp:150] Setting up inception_4a/3x3_reduce
I1125 19:43:14.191320 18938 net.cpp:157] Top shape: 64 96 14 14 (1204224)
I1125 19:43:14.191324 18938 net.cpp:165] Memory required for data: 2302477312
I1125 19:43:14.191334 18938 layer_factory.hpp:76] Creating layer inception_4a/relu_3x3_reduce
I1125 19:43:14.191342 18938 net.cpp:106] Creating Layer inception_4a/relu_3x3_reduce
I1125 19:43:14.191346 18938 net.cpp:454] inception_4a/relu_3x3_reduce <- inception_4a/3x3_reduce
I1125 19:43:14.191351 18938 net.cpp:397] inception_4a/relu_3x3_reduce -> inception_4a/3x3_reduce (in-place)
I1125 19:43:14.191654 18938 net.cpp:150] Setting up inception_4a/relu_3x3_reduce
I1125 19:43:14.191668 18938 net.cpp:157] Top shape: 64 96 14 14 (1204224)
I1125 19:43:14.191671 18938 net.cpp:165] Memory required for data: 2307294208
I1125 19:43:14.191674 18938 layer_factory.hpp:76] Creating layer inception_4a/3x3
I1125 19:43:14.191684 18938 net.cpp:106] Creating Layer inception_4a/3x3
I1125 19:43:14.191689 18938 net.cpp:454] inception_4a/3x3 <- inception_4a/3x3_reduce
I1125 19:43:14.191695 18938 net.cpp:411] inception_4a/3x3 -> inception_4a/3x3
I1125 19:43:14.194171 18938 net.cpp:150] Setting up inception_4a/3x3
I1125 19:43:14.194186 18938 net.cpp:157] Top shape: 64 208 14 14 (2609152)
I1125 19:43:14.194190 18938 net.cpp:165] Memory required for data: 2317730816
I1125 19:43:14.194197 18938 layer_factory.hpp:76] Creating layer inception_4a/relu_3x3
I1125 19:43:14.194203 18938 net.cpp:106] Creating Layer inception_4a/relu_3x3
I1125 19:43:14.194207 18938 net.cpp:454] inception_4a/relu_3x3 <- inception_4a/3x3
I1125 19:43:14.194214 18938 net.cpp:397] inception_4a/relu_3x3 -> inception_4a/3x3 (in-place)
I1125 19:43:14.194515 18938 net.cpp:150] Setting up inception_4a/relu_3x3
I1125 19:43:14.194530 18938 net.cpp:157] Top shape: 64 208 14 14 (2609152)
I1125 19:43:14.194532 18938 net.cpp:165] Memory required for data: 2328167424
I1125 19:43:14.194536 18938 layer_factory.hpp:76] Creating layer inception_4a/5x5_reduce
I1125 19:43:14.194546 18938 net.cpp:106] Creating Layer inception_4a/5x5_reduce
I1125 19:43:14.194550 18938 net.cpp:454] inception_4a/5x5_reduce <- pool3/3x3_s2_pool3/3x3_s2_0_split_2
I1125 19:43:14.194557 18938 net.cpp:411] inception_4a/5x5_reduce -> inception_4a/5x5_reduce
I1125 19:43:14.195771 18938 net.cpp:150] Setting up inception_4a/5x5_reduce
I1125 19:43:14.195785 18938 net.cpp:157] Top shape: 64 16 14 14 (200704)
I1125 19:43:14.195791 18938 net.cpp:165] Memory required for data: 2328970240
I1125 19:43:14.195798 18938 layer_factory.hpp:76] Creating layer inception_4a/relu_5x5_reduce
I1125 19:43:14.195808 18938 net.cpp:106] Creating Layer inception_4a/relu_5x5_reduce
I1125 19:43:14.195812 18938 net.cpp:454] inception_4a/relu_5x5_reduce <- inception_4a/5x5_reduce
I1125 19:43:14.195817 18938 net.cpp:397] inception_4a/relu_5x5_reduce -> inception_4a/5x5_reduce (in-place)
I1125 19:43:14.196131 18938 net.cpp:150] Setting up inception_4a/relu_5x5_reduce
I1125 19:43:14.196147 18938 net.cpp:157] Top shape: 64 16 14 14 (200704)
I1125 19:43:14.196151 18938 net.cpp:165] Memory required for data: 2329773056
I1125 19:43:14.196156 18938 layer_factory.hpp:76] Creating layer inception_4a/5x5
I1125 19:43:14.196163 18938 net.cpp:106] Creating Layer inception_4a/5x5
I1125 19:43:14.196167 18938 net.cpp:454] inception_4a/5x5 <- inception_4a/5x5_reduce
I1125 19:43:14.196174 18938 net.cpp:411] inception_4a/5x5 -> inception_4a/5x5
I1125 19:43:14.197299 18938 net.cpp:150] Setting up inception_4a/5x5
I1125 19:43:14.197312 18938 net.cpp:157] Top shape: 64 48 14 14 (602112)
I1125 19:43:14.197316 18938 net.cpp:165] Memory required for data: 2332181504
I1125 19:43:14.197322 18938 layer_factory.hpp:76] Creating layer inception_4a/relu_5x5
I1125 19:43:14.197329 18938 net.cpp:106] Creating Layer inception_4a/relu_5x5
I1125 19:43:14.197332 18938 net.cpp:454] inception_4a/relu_5x5 <- inception_4a/5x5
I1125 19:43:14.197340 18938 net.cpp:397] inception_4a/relu_5x5 -> inception_4a/5x5 (in-place)
I1125 19:43:14.197645 18938 net.cpp:150] Setting up inception_4a/relu_5x5
I1125 19:43:14.197659 18938 net.cpp:157] Top shape: 64 48 14 14 (602112)
I1125 19:43:14.197662 18938 net.cpp:165] Memory required for data: 2334589952
I1125 19:43:14.197666 18938 layer_factory.hpp:76] Creating layer inception_4a/pool
I1125 19:43:14.197674 18938 net.cpp:106] Creating Layer inception_4a/pool
I1125 19:43:14.197679 18938 net.cpp:454] inception_4a/pool <- pool3/3x3_s2_pool3/3x3_s2_0_split_3
I1125 19:43:14.197684 18938 net.cpp:411] inception_4a/pool -> inception_4a/pool
I1125 19:43:14.197914 18938 net.cpp:150] Setting up inception_4a/pool
I1125 19:43:14.197926 18938 net.cpp:157] Top shape: 64 480 14 14 (6021120)
I1125 19:43:14.197929 18938 net.cpp:165] Memory required for data: 2358674432
I1125 19:43:14.197933 18938 layer_factory.hpp:76] Creating layer inception_4a/pool_proj
I1125 19:43:14.197943 18938 net.cpp:106] Creating Layer inception_4a/pool_proj
I1125 19:43:14.197947 18938 net.cpp:454] inception_4a/pool_proj <- inception_4a/pool
I1125 19:43:14.197953 18938 net.cpp:411] inception_4a/pool_proj -> inception_4a/pool_proj
I1125 19:43:14.199157 18938 net.cpp:150] Setting up inception_4a/pool_proj
I1125 19:43:14.199172 18938 net.cpp:157] Top shape: 64 64 14 14 (802816)
I1125 19:43:14.199175 18938 net.cpp:165] Memory required for data: 2361885696
I1125 19:43:14.199182 18938 layer_factory.hpp:76] Creating layer inception_4a/relu_pool_proj
I1125 19:43:14.199187 18938 net.cpp:106] Creating Layer inception_4a/relu_pool_proj
I1125 19:43:14.199193 18938 net.cpp:454] inception_4a/relu_pool_proj <- inception_4a/pool_proj
I1125 19:43:14.199198 18938 net.cpp:397] inception_4a/relu_pool_proj -> inception_4a/pool_proj (in-place)
I1125 19:43:14.199497 18938 net.cpp:150] Setting up inception_4a/relu_pool_proj
I1125 19:43:14.199512 18938 net.cpp:157] Top shape: 64 64 14 14 (802816)
I1125 19:43:14.199514 18938 net.cpp:165] Memory required for data: 2365096960
I1125 19:43:14.199517 18938 layer_factory.hpp:76] Creating layer inception_4a/output
I1125 19:43:14.199524 18938 net.cpp:106] Creating Layer inception_4a/output
I1125 19:43:14.199528 18938 net.cpp:454] inception_4a/output <- inception_4a/1x1
I1125 19:43:14.199532 18938 net.cpp:454] inception_4a/output <- inception_4a/3x3
I1125 19:43:14.199539 18938 net.cpp:454] inception_4a/output <- inception_4a/5x5
I1125 19:43:14.199542 18938 net.cpp:454] inception_4a/output <- inception_4a/pool_proj
I1125 19:43:14.199547 18938 net.cpp:411] inception_4a/output -> inception_4a/output
I1125 19:43:14.199579 18938 net.cpp:150] Setting up inception_4a/output
I1125 19:43:14.199584 18938 net.cpp:157] Top shape: 64 512 14 14 (6422528)
I1125 19:43:14.199586 18938 net.cpp:165] Memory required for data: 2390787072
I1125 19:43:14.199589 18938 layer_factory.hpp:76] Creating layer inception_4a/output_inception_4a/output_0_split
I1125 19:43:14.199597 18938 net.cpp:106] Creating Layer inception_4a/output_inception_4a/output_0_split
I1125 19:43:14.199600 18938 net.cpp:454] inception_4a/output_inception_4a/output_0_split <- inception_4a/output
I1125 19:43:14.199605 18938 net.cpp:411] inception_4a/output_inception_4a/output_0_split -> inception_4a/output_inception_4a/output_0_split_0
I1125 19:43:14.199612 18938 net.cpp:411] inception_4a/output_inception_4a/output_0_split -> inception_4a/output_inception_4a/output_0_split_1
I1125 19:43:14.199618 18938 net.cpp:411] inception_4a/output_inception_4a/output_0_split -> inception_4a/output_inception_4a/output_0_split_2
I1125 19:43:14.199623 18938 net.cpp:411] inception_4a/output_inception_4a/output_0_split -> inception_4a/output_inception_4a/output_0_split_3
I1125 19:43:14.199628 18938 net.cpp:411] inception_4a/output_inception_4a/output_0_split -> inception_4a/output_inception_4a/output_0_split_4
I1125 19:43:14.199702 18938 net.cpp:150] Setting up inception_4a/output_inception_4a/output_0_split
I1125 19:43:14.199709 18938 net.cpp:157] Top shape: 64 512 14 14 (6422528)
I1125 19:43:14.199713 18938 net.cpp:157] Top shape: 64 512 14 14 (6422528)
I1125 19:43:14.199717 18938 net.cpp:157] Top shape: 64 512 14 14 (6422528)
I1125 19:43:14.199720 18938 net.cpp:157] Top shape: 64 512 14 14 (6422528)
I1125 19:43:14.199723 18938 net.cpp:157] Top shape: 64 512 14 14 (6422528)
I1125 19:43:14.199726 18938 net.cpp:165] Memory required for data: 2519237632
I1125 19:43:14.199729 18938 layer_factory.hpp:76] Creating layer loss1/ave_pool
I1125 19:43:14.199736 18938 net.cpp:106] Creating Layer loss1/ave_pool
I1125 19:43:14.199739 18938 net.cpp:454] loss1/ave_pool <- inception_4a/output_inception_4a/output_0_split_0
I1125 19:43:14.199744 18938 net.cpp:411] loss1/ave_pool -> loss1/ave_pool
I1125 19:43:14.199931 18938 net.cpp:150] Setting up loss1/ave_pool
I1125 19:43:14.199947 18938 net.cpp:157] Top shape: 64 512 4 4 (524288)
I1125 19:43:14.199950 18938 net.cpp:165] Memory required for data: 2521334784
I1125 19:43:14.199954 18938 layer_factory.hpp:76] Creating layer loss1/conv
I1125 19:43:14.199962 18938 net.cpp:106] Creating Layer loss1/conv
I1125 19:43:14.199966 18938 net.cpp:454] loss1/conv <- loss1/ave_pool
I1125 19:43:14.199975 18938 net.cpp:411] loss1/conv -> loss1/conv
I1125 19:43:14.201411 18938 net.cpp:150] Setting up loss1/conv
I1125 19:43:14.201426 18938 net.cpp:157] Top shape: 64 128 4 4 (131072)
I1125 19:43:14.201431 18938 net.cpp:165] Memory required for data: 2521859072
I1125 19:43:14.201437 18938 layer_factory.hpp:76] Creating layer loss1/relu_conv
I1125 19:43:14.201443 18938 net.cpp:106] Creating Layer loss1/relu_conv
I1125 19:43:14.201447 18938 net.cpp:454] loss1/relu_conv <- loss1/conv
I1125 19:43:14.201452 18938 net.cpp:397] loss1/relu_conv -> loss1/conv (in-place)
I1125 19:43:14.201619 18938 net.cpp:150] Setting up loss1/relu_conv
I1125 19:43:14.201630 18938 net.cpp:157] Top shape: 64 128 4 4 (131072)
I1125 19:43:14.201633 18938 net.cpp:165] Memory required for data: 2522383360
I1125 19:43:14.201637 18938 layer_factory.hpp:76] Creating layer loss1/fc
I1125 19:43:14.201645 18938 net.cpp:106] Creating Layer loss1/fc
I1125 19:43:14.201648 18938 net.cpp:454] loss1/fc <- loss1/conv
I1125 19:43:14.201654 18938 net.cpp:411] loss1/fc -> loss1/fc
I1125 19:43:14.217188 18938 net.cpp:150] Setting up loss1/fc
I1125 19:43:14.217206 18938 net.cpp:157] Top shape: 64 1024 (65536)
I1125 19:43:14.217209 18938 net.cpp:165] Memory required for data: 2522645504
I1125 19:43:14.217216 18938 layer_factory.hpp:76] Creating layer loss1/relu_fc
I1125 19:43:14.217231 18938 net.cpp:106] Creating Layer loss1/relu_fc
I1125 19:43:14.217236 18938 net.cpp:454] loss1/relu_fc <- loss1/fc
I1125 19:43:14.217241 18938 net.cpp:397] loss1/relu_fc -> loss1/fc (in-place)
I1125 19:43:14.217561 18938 net.cpp:150] Setting up loss1/relu_fc
I1125 19:43:14.217576 18938 net.cpp:157] Top shape: 64 1024 (65536)
I1125 19:43:14.217578 18938 net.cpp:165] Memory required for data: 2522907648
I1125 19:43:14.217582 18938 layer_factory.hpp:76] Creating layer loss1/drop_fc
I1125 19:43:14.217600 18938 net.cpp:106] Creating Layer loss1/drop_fc
I1125 19:43:14.217604 18938 net.cpp:454] loss1/drop_fc <- loss1/fc
I1125 19:43:14.217609 18938 net.cpp:397] loss1/drop_fc -> loss1/fc (in-place)
I1125 19:43:14.217649 18938 net.cpp:150] Setting up loss1/drop_fc
I1125 19:43:14.217655 18938 net.cpp:157] Top shape: 64 1024 (65536)
I1125 19:43:14.217658 18938 net.cpp:165] Memory required for data: 2523169792
I1125 19:43:14.217661 18938 layer_factory.hpp:76] Creating layer loss1/classifier-attribute
I1125 19:43:14.217669 18938 net.cpp:106] Creating Layer loss1/classifier-attribute
I1125 19:43:14.217672 18938 net.cpp:454] loss1/classifier-attribute <- loss1/fc
I1125 19:43:14.217677 18938 net.cpp:411] loss1/classifier-attribute -> loss1/classifier-attribute
I1125 19:43:14.217825 18938 net.cpp:150] Setting up loss1/classifier-attribute
I1125 19:43:14.217834 18938 net.cpp:157] Top shape: 64 5 (320)
I1125 19:43:14.217838 18938 net.cpp:165] Memory required for data: 2523171072
I1125 19:43:14.217844 18938 layer_factory.hpp:76] Creating layer loss1/loss
I1125 19:43:14.217852 18938 net.cpp:106] Creating Layer loss1/loss
I1125 19:43:14.217856 18938 net.cpp:454] loss1/loss <- loss1/classifier-attribute
I1125 19:43:14.217860 18938 net.cpp:454] loss1/loss <- label_data_1_split_0
I1125 19:43:14.217864 18938 net.cpp:411] loss1/loss -> loss1/loss1
I1125 19:43:14.217878 18938 layer_factory.hpp:76] Creating layer loss1/loss
I1125 19:43:14.218160 18938 net.cpp:150] Setting up loss1/loss
I1125 19:43:14.218173 18938 net.cpp:157] Top shape: (1)
I1125 19:43:14.218176 18938 net.cpp:160]     with loss weight 0.3
I1125 19:43:14.218199 18938 net.cpp:165] Memory required for data: 2523171076
I1125 19:43:14.218202 18938 layer_factory.hpp:76] Creating layer inception_4b/1x1
I1125 19:43:14.218212 18938 net.cpp:106] Creating Layer inception_4b/1x1
I1125 19:43:14.218216 18938 net.cpp:454] inception_4b/1x1 <- inception_4a/output_inception_4a/output_0_split_1
I1125 19:43:14.218222 18938 net.cpp:411] inception_4b/1x1 -> inception_4b/1x1
I1125 19:43:14.219770 18938 net.cpp:150] Setting up inception_4b/1x1
I1125 19:43:14.219785 18938 net.cpp:157] Top shape: 64 160 14 14 (2007040)
I1125 19:43:14.219789 18938 net.cpp:165] Memory required for data: 2531199236
I1125 19:43:14.219794 18938 layer_factory.hpp:76] Creating layer inception_4b/relu_1x1
I1125 19:43:14.219801 18938 net.cpp:106] Creating Layer inception_4b/relu_1x1
I1125 19:43:14.219805 18938 net.cpp:454] inception_4b/relu_1x1 <- inception_4b/1x1
I1125 19:43:14.219811 18938 net.cpp:397] inception_4b/relu_1x1 -> inception_4b/1x1 (in-place)
I1125 19:43:14.220149 18938 net.cpp:150] Setting up inception_4b/relu_1x1
I1125 19:43:14.220165 18938 net.cpp:157] Top shape: 64 160 14 14 (2007040)
I1125 19:43:14.220168 18938 net.cpp:165] Memory required for data: 2539227396
I1125 19:43:14.220172 18938 layer_factory.hpp:76] Creating layer inception_4b/3x3_reduce
I1125 19:43:14.220181 18938 net.cpp:106] Creating Layer inception_4b/3x3_reduce
I1125 19:43:14.220185 18938 net.cpp:454] inception_4b/3x3_reduce <- inception_4a/output_inception_4a/output_0_split_2
I1125 19:43:14.220193 18938 net.cpp:411] inception_4b/3x3_reduce -> inception_4b/3x3_reduce
I1125 19:43:14.222020 18938 net.cpp:150] Setting up inception_4b/3x3_reduce
I1125 19:43:14.222036 18938 net.cpp:157] Top shape: 64 112 14 14 (1404928)
I1125 19:43:14.222040 18938 net.cpp:165] Memory required for data: 2544847108
I1125 19:43:14.222048 18938 layer_factory.hpp:76] Creating layer inception_4b/relu_3x3_reduce
I1125 19:43:14.222054 18938 net.cpp:106] Creating Layer inception_4b/relu_3x3_reduce
I1125 19:43:14.222057 18938 net.cpp:454] inception_4b/relu_3x3_reduce <- inception_4b/3x3_reduce
I1125 19:43:14.222065 18938 net.cpp:397] inception_4b/relu_3x3_reduce -> inception_4b/3x3_reduce (in-place)
I1125 19:43:14.222240 18938 net.cpp:150] Setting up inception_4b/relu_3x3_reduce
I1125 19:43:14.222252 18938 net.cpp:157] Top shape: 64 112 14 14 (1404928)
I1125 19:43:14.222255 18938 net.cpp:165] Memory required for data: 2550466820
I1125 19:43:14.222259 18938 layer_factory.hpp:76] Creating layer inception_4b/3x3
I1125 19:43:14.222267 18938 net.cpp:106] Creating Layer inception_4b/3x3
I1125 19:43:14.222270 18938 net.cpp:454] inception_4b/3x3 <- inception_4b/3x3_reduce
I1125 19:43:14.222277 18938 net.cpp:411] inception_4b/3x3 -> inception_4b/3x3
I1125 19:43:14.225190 18938 net.cpp:150] Setting up inception_4b/3x3
I1125 19:43:14.225206 18938 net.cpp:157] Top shape: 64 224 14 14 (2809856)
I1125 19:43:14.225209 18938 net.cpp:165] Memory required for data: 2561706244
I1125 19:43:14.225216 18938 layer_factory.hpp:76] Creating layer inception_4b/relu_3x3
I1125 19:43:14.225224 18938 net.cpp:106] Creating Layer inception_4b/relu_3x3
I1125 19:43:14.225229 18938 net.cpp:454] inception_4b/relu_3x3 <- inception_4b/3x3
I1125 19:43:14.225234 18938 net.cpp:397] inception_4b/relu_3x3 -> inception_4b/3x3 (in-place)
I1125 19:43:14.225407 18938 net.cpp:150] Setting up inception_4b/relu_3x3
I1125 19:43:14.225419 18938 net.cpp:157] Top shape: 64 224 14 14 (2809856)
I1125 19:43:14.225421 18938 net.cpp:165] Memory required for data: 2572945668
I1125 19:43:14.225425 18938 layer_factory.hpp:76] Creating layer inception_4b/5x5_reduce
I1125 19:43:14.225435 18938 net.cpp:106] Creating Layer inception_4b/5x5_reduce
I1125 19:43:14.225440 18938 net.cpp:454] inception_4b/5x5_reduce <- inception_4a/output_inception_4a/output_0_split_3
I1125 19:43:14.225445 18938 net.cpp:411] inception_4b/5x5_reduce -> inception_4b/5x5_reduce
I1125 19:43:14.226547 18938 net.cpp:150] Setting up inception_4b/5x5_reduce
I1125 19:43:14.226574 18938 net.cpp:157] Top shape: 64 24 14 14 (301056)
I1125 19:43:14.226579 18938 net.cpp:165] Memory required for data: 2574149892
I1125 19:43:14.226586 18938 layer_factory.hpp:76] Creating layer inception_4b/relu_5x5_reduce
I1125 19:43:14.226593 18938 net.cpp:106] Creating Layer inception_4b/relu_5x5_reduce
I1125 19:43:14.226596 18938 net.cpp:454] inception_4b/relu_5x5_reduce <- inception_4b/5x5_reduce
I1125 19:43:14.226601 18938 net.cpp:397] inception_4b/relu_5x5_reduce -> inception_4b/5x5_reduce (in-place)
I1125 19:43:14.227041 18938 net.cpp:150] Setting up inception_4b/relu_5x5_reduce
I1125 19:43:14.227056 18938 net.cpp:157] Top shape: 64 24 14 14 (301056)
I1125 19:43:14.227059 18938 net.cpp:165] Memory required for data: 2575354116
I1125 19:43:14.227063 18938 layer_factory.hpp:76] Creating layer inception_4b/5x5
I1125 19:43:14.227073 18938 net.cpp:106] Creating Layer inception_4b/5x5
I1125 19:43:14.227077 18938 net.cpp:454] inception_4b/5x5 <- inception_4b/5x5_reduce
I1125 19:43:14.227084 18938 net.cpp:411] inception_4b/5x5 -> inception_4b/5x5
I1125 19:43:14.228401 18938 net.cpp:150] Setting up inception_4b/5x5
I1125 19:43:14.228417 18938 net.cpp:157] Top shape: 64 64 14 14 (802816)
I1125 19:43:14.228421 18938 net.cpp:165] Memory required for data: 2578565380
I1125 19:43:14.228428 18938 layer_factory.hpp:76] Creating layer inception_4b/relu_5x5
I1125 19:43:14.228435 18938 net.cpp:106] Creating Layer inception_4b/relu_5x5
I1125 19:43:14.228438 18938 net.cpp:454] inception_4b/relu_5x5 <- inception_4b/5x5
I1125 19:43:14.228443 18938 net.cpp:397] inception_4b/relu_5x5 -> inception_4b/5x5 (in-place)
I1125 19:43:14.228615 18938 net.cpp:150] Setting up inception_4b/relu_5x5
I1125 19:43:14.228626 18938 net.cpp:157] Top shape: 64 64 14 14 (802816)
I1125 19:43:14.228628 18938 net.cpp:165] Memory required for data: 2581776644
I1125 19:43:14.228631 18938 layer_factory.hpp:76] Creating layer inception_4b/pool
I1125 19:43:14.228639 18938 net.cpp:106] Creating Layer inception_4b/pool
I1125 19:43:14.228643 18938 net.cpp:454] inception_4b/pool <- inception_4a/output_inception_4a/output_0_split_4
I1125 19:43:14.228648 18938 net.cpp:411] inception_4b/pool -> inception_4b/pool
I1125 19:43:14.228997 18938 net.cpp:150] Setting up inception_4b/pool
I1125 19:43:14.229012 18938 net.cpp:157] Top shape: 64 512 14 14 (6422528)
I1125 19:43:14.229015 18938 net.cpp:165] Memory required for data: 2607466756
I1125 19:43:14.229018 18938 layer_factory.hpp:76] Creating layer inception_4b/pool_proj
I1125 19:43:14.229029 18938 net.cpp:106] Creating Layer inception_4b/pool_proj
I1125 19:43:14.229033 18938 net.cpp:454] inception_4b/pool_proj <- inception_4b/pool
I1125 19:43:14.229042 18938 net.cpp:411] inception_4b/pool_proj -> inception_4b/pool_proj
I1125 19:43:14.230185 18938 net.cpp:150] Setting up inception_4b/pool_proj
I1125 19:43:14.230200 18938 net.cpp:157] Top shape: 64 64 14 14 (802816)
I1125 19:43:14.230202 18938 net.cpp:165] Memory required for data: 2610678020
I1125 19:43:14.230209 18938 layer_factory.hpp:76] Creating layer inception_4b/relu_pool_proj
I1125 19:43:14.230216 18938 net.cpp:106] Creating Layer inception_4b/relu_pool_proj
I1125 19:43:14.230219 18938 net.cpp:454] inception_4b/relu_pool_proj <- inception_4b/pool_proj
I1125 19:43:14.230228 18938 net.cpp:397] inception_4b/relu_pool_proj -> inception_4b/pool_proj (in-place)
I1125 19:43:14.230535 18938 net.cpp:150] Setting up inception_4b/relu_pool_proj
I1125 19:43:14.230548 18938 net.cpp:157] Top shape: 64 64 14 14 (802816)
I1125 19:43:14.230552 18938 net.cpp:165] Memory required for data: 2613889284
I1125 19:43:14.230556 18938 layer_factory.hpp:76] Creating layer inception_4b/output
I1125 19:43:14.230562 18938 net.cpp:106] Creating Layer inception_4b/output
I1125 19:43:14.230566 18938 net.cpp:454] inception_4b/output <- inception_4b/1x1
I1125 19:43:14.230572 18938 net.cpp:454] inception_4b/output <- inception_4b/3x3
I1125 19:43:14.230576 18938 net.cpp:454] inception_4b/output <- inception_4b/5x5
I1125 19:43:14.230581 18938 net.cpp:454] inception_4b/output <- inception_4b/pool_proj
I1125 19:43:14.230584 18938 net.cpp:411] inception_4b/output -> inception_4b/output
I1125 19:43:14.230620 18938 net.cpp:150] Setting up inception_4b/output
I1125 19:43:14.230626 18938 net.cpp:157] Top shape: 64 512 14 14 (6422528)
I1125 19:43:14.230629 18938 net.cpp:165] Memory required for data: 2639579396
I1125 19:43:14.230633 18938 layer_factory.hpp:76] Creating layer inception_4b/output_inception_4b/output_0_split
I1125 19:43:14.230638 18938 net.cpp:106] Creating Layer inception_4b/output_inception_4b/output_0_split
I1125 19:43:14.230641 18938 net.cpp:454] inception_4b/output_inception_4b/output_0_split <- inception_4b/output
I1125 19:43:14.230646 18938 net.cpp:411] inception_4b/output_inception_4b/output_0_split -> inception_4b/output_inception_4b/output_0_split_0
I1125 19:43:14.230654 18938 net.cpp:411] inception_4b/output_inception_4b/output_0_split -> inception_4b/output_inception_4b/output_0_split_1
I1125 19:43:14.230659 18938 net.cpp:411] inception_4b/output_inception_4b/output_0_split -> inception_4b/output_inception_4b/output_0_split_2
I1125 19:43:14.230664 18938 net.cpp:411] inception_4b/output_inception_4b/output_0_split -> inception_4b/output_inception_4b/output_0_split_3
I1125 19:43:14.230731 18938 net.cpp:150] Setting up inception_4b/output_inception_4b/output_0_split
I1125 19:43:14.230738 18938 net.cpp:157] Top shape: 64 512 14 14 (6422528)
I1125 19:43:14.230742 18938 net.cpp:157] Top shape: 64 512 14 14 (6422528)
I1125 19:43:14.230746 18938 net.cpp:157] Top shape: 64 512 14 14 (6422528)
I1125 19:43:14.230749 18938 net.cpp:157] Top shape: 64 512 14 14 (6422528)
I1125 19:43:14.230751 18938 net.cpp:165] Memory required for data: 2742339844
I1125 19:43:14.230754 18938 layer_factory.hpp:76] Creating layer inception_4c/1x1
I1125 19:43:14.230763 18938 net.cpp:106] Creating Layer inception_4c/1x1
I1125 19:43:14.230767 18938 net.cpp:454] inception_4c/1x1 <- inception_4b/output_inception_4b/output_0_split_0
I1125 19:43:14.230772 18938 net.cpp:411] inception_4c/1x1 -> inception_4c/1x1
I1125 19:43:14.232218 18938 net.cpp:150] Setting up inception_4c/1x1
I1125 19:43:14.232233 18938 net.cpp:157] Top shape: 64 128 14 14 (1605632)
I1125 19:43:14.232236 18938 net.cpp:165] Memory required for data: 2748762372
I1125 19:43:14.232242 18938 layer_factory.hpp:76] Creating layer inception_4c/relu_1x1
I1125 19:43:14.232250 18938 net.cpp:106] Creating Layer inception_4c/relu_1x1
I1125 19:43:14.232254 18938 net.cpp:454] inception_4c/relu_1x1 <- inception_4c/1x1
I1125 19:43:14.232259 18938 net.cpp:397] inception_4c/relu_1x1 -> inception_4c/1x1 (in-place)
I1125 19:43:14.232432 18938 net.cpp:150] Setting up inception_4c/relu_1x1
I1125 19:43:14.232444 18938 net.cpp:157] Top shape: 64 128 14 14 (1605632)
I1125 19:43:14.232446 18938 net.cpp:165] Memory required for data: 2755184900
I1125 19:43:14.232450 18938 layer_factory.hpp:76] Creating layer inception_4c/3x3_reduce
I1125 19:43:14.232458 18938 net.cpp:106] Creating Layer inception_4c/3x3_reduce
I1125 19:43:14.232462 18938 net.cpp:454] inception_4c/3x3_reduce <- inception_4b/output_inception_4b/output_0_split_1
I1125 19:43:14.232468 18938 net.cpp:411] inception_4c/3x3_reduce -> inception_4c/3x3_reduce
I1125 19:43:14.233909 18938 net.cpp:150] Setting up inception_4c/3x3_reduce
I1125 19:43:14.233923 18938 net.cpp:157] Top shape: 64 128 14 14 (1605632)
I1125 19:43:14.233927 18938 net.cpp:165] Memory required for data: 2761607428
I1125 19:43:14.233933 18938 layer_factory.hpp:76] Creating layer inception_4c/relu_3x3_reduce
I1125 19:43:14.233940 18938 net.cpp:106] Creating Layer inception_4c/relu_3x3_reduce
I1125 19:43:14.233944 18938 net.cpp:454] inception_4c/relu_3x3_reduce <- inception_4c/3x3_reduce
I1125 19:43:14.233949 18938 net.cpp:397] inception_4c/relu_3x3_reduce -> inception_4c/3x3_reduce (in-place)
I1125 19:43:14.234264 18938 net.cpp:150] Setting up inception_4c/relu_3x3_reduce
I1125 19:43:14.234277 18938 net.cpp:157] Top shape: 64 128 14 14 (1605632)
I1125 19:43:14.234282 18938 net.cpp:165] Memory required for data: 2768029956
I1125 19:43:14.234284 18938 layer_factory.hpp:76] Creating layer inception_4c/3x3
I1125 19:43:14.234294 18938 net.cpp:106] Creating Layer inception_4c/3x3
I1125 19:43:14.234298 18938 net.cpp:454] inception_4c/3x3 <- inception_4c/3x3_reduce
I1125 19:43:14.234307 18938 net.cpp:411] inception_4c/3x3 -> inception_4c/3x3
I1125 19:43:14.237548 18938 net.cpp:150] Setting up inception_4c/3x3
I1125 19:43:14.237565 18938 net.cpp:157] Top shape: 64 256 14 14 (3211264)
I1125 19:43:14.237568 18938 net.cpp:165] Memory required for data: 2780875012
I1125 19:43:14.237586 18938 layer_factory.hpp:76] Creating layer inception_4c/relu_3x3
I1125 19:43:14.237594 18938 net.cpp:106] Creating Layer inception_4c/relu_3x3
I1125 19:43:14.237599 18938 net.cpp:454] inception_4c/relu_3x3 <- inception_4c/3x3
I1125 19:43:14.237604 18938 net.cpp:397] inception_4c/relu_3x3 -> inception_4c/3x3 (in-place)
I1125 19:43:14.237911 18938 net.cpp:150] Setting up inception_4c/relu_3x3
I1125 19:43:14.237925 18938 net.cpp:157] Top shape: 64 256 14 14 (3211264)
I1125 19:43:14.237928 18938 net.cpp:165] Memory required for data: 2793720068
I1125 19:43:14.237932 18938 layer_factory.hpp:76] Creating layer inception_4c/5x5_reduce
I1125 19:43:14.237941 18938 net.cpp:106] Creating Layer inception_4c/5x5_reduce
I1125 19:43:14.237946 18938 net.cpp:454] inception_4c/5x5_reduce <- inception_4b/output_inception_4b/output_0_split_2
I1125 19:43:14.237953 18938 net.cpp:411] inception_4c/5x5_reduce -> inception_4c/5x5_reduce
I1125 19:43:14.239073 18938 net.cpp:150] Setting up inception_4c/5x5_reduce
I1125 19:43:14.239089 18938 net.cpp:157] Top shape: 64 24 14 14 (301056)
I1125 19:43:14.239094 18938 net.cpp:165] Memory required for data: 2794924292
I1125 19:43:14.239099 18938 layer_factory.hpp:76] Creating layer inception_4c/relu_5x5_reduce
I1125 19:43:14.239106 18938 net.cpp:106] Creating Layer inception_4c/relu_5x5_reduce
I1125 19:43:14.239110 18938 net.cpp:454] inception_4c/relu_5x5_reduce <- inception_4c/5x5_reduce
I1125 19:43:14.239115 18938 net.cpp:397] inception_4c/relu_5x5_reduce -> inception_4c/5x5_reduce (in-place)
I1125 19:43:14.239289 18938 net.cpp:150] Setting up inception_4c/relu_5x5_reduce
I1125 19:43:14.239300 18938 net.cpp:157] Top shape: 64 24 14 14 (301056)
I1125 19:43:14.239302 18938 net.cpp:165] Memory required for data: 2796128516
I1125 19:43:14.239306 18938 layer_factory.hpp:76] Creating layer inception_4c/5x5
I1125 19:43:14.239315 18938 net.cpp:106] Creating Layer inception_4c/5x5
I1125 19:43:14.239320 18938 net.cpp:454] inception_4c/5x5 <- inception_4c/5x5_reduce
I1125 19:43:14.239326 18938 net.cpp:411] inception_4c/5x5 -> inception_4c/5x5
I1125 19:43:14.241068 18938 net.cpp:150] Setting up inception_4c/5x5
I1125 19:43:14.241083 18938 net.cpp:157] Top shape: 64 64 14 14 (802816)
I1125 19:43:14.241087 18938 net.cpp:165] Memory required for data: 2799339780
I1125 19:43:14.241094 18938 layer_factory.hpp:76] Creating layer inception_4c/relu_5x5
I1125 19:43:14.241101 18938 net.cpp:106] Creating Layer inception_4c/relu_5x5
I1125 19:43:14.241106 18938 net.cpp:454] inception_4c/relu_5x5 <- inception_4c/5x5
I1125 19:43:14.241113 18938 net.cpp:397] inception_4c/relu_5x5 -> inception_4c/5x5 (in-place)
I1125 19:43:14.241431 18938 net.cpp:150] Setting up inception_4c/relu_5x5
I1125 19:43:14.241446 18938 net.cpp:157] Top shape: 64 64 14 14 (802816)
I1125 19:43:14.241449 18938 net.cpp:165] Memory required for data: 2802551044
I1125 19:43:14.241452 18938 layer_factory.hpp:76] Creating layer inception_4c/pool
I1125 19:43:14.241461 18938 net.cpp:106] Creating Layer inception_4c/pool
I1125 19:43:14.241464 18938 net.cpp:454] inception_4c/pool <- inception_4b/output_inception_4b/output_0_split_3
I1125 19:43:14.241471 18938 net.cpp:411] inception_4c/pool -> inception_4c/pool
I1125 19:43:14.241678 18938 net.cpp:150] Setting up inception_4c/pool
I1125 19:43:14.241689 18938 net.cpp:157] Top shape: 64 512 14 14 (6422528)
I1125 19:43:14.241693 18938 net.cpp:165] Memory required for data: 2828241156
I1125 19:43:14.241696 18938 layer_factory.hpp:76] Creating layer inception_4c/pool_proj
I1125 19:43:14.241706 18938 net.cpp:106] Creating Layer inception_4c/pool_proj
I1125 19:43:14.241710 18938 net.cpp:454] inception_4c/pool_proj <- inception_4c/pool
I1125 19:43:14.241717 18938 net.cpp:411] inception_4c/pool_proj -> inception_4c/pool_proj
I1125 19:43:14.243134 18938 net.cpp:150] Setting up inception_4c/pool_proj
I1125 19:43:14.243149 18938 net.cpp:157] Top shape: 64 64 14 14 (802816)
I1125 19:43:14.243152 18938 net.cpp:165] Memory required for data: 2831452420
I1125 19:43:14.243158 18938 layer_factory.hpp:76] Creating layer inception_4c/relu_pool_proj
I1125 19:43:14.243165 18938 net.cpp:106] Creating Layer inception_4c/relu_pool_proj
I1125 19:43:14.243168 18938 net.cpp:454] inception_4c/relu_pool_proj <- inception_4c/pool_proj
I1125 19:43:14.243173 18938 net.cpp:397] inception_4c/relu_pool_proj -> inception_4c/pool_proj (in-place)
I1125 19:43:14.243485 18938 net.cpp:150] Setting up inception_4c/relu_pool_proj
I1125 19:43:14.243499 18938 net.cpp:157] Top shape: 64 64 14 14 (802816)
I1125 19:43:14.243502 18938 net.cpp:165] Memory required for data: 2834663684
I1125 19:43:14.243506 18938 layer_factory.hpp:76] Creating layer inception_4c/output
I1125 19:43:14.243512 18938 net.cpp:106] Creating Layer inception_4c/output
I1125 19:43:14.243516 18938 net.cpp:454] inception_4c/output <- inception_4c/1x1
I1125 19:43:14.243520 18938 net.cpp:454] inception_4c/output <- inception_4c/3x3
I1125 19:43:14.243525 18938 net.cpp:454] inception_4c/output <- inception_4c/5x5
I1125 19:43:14.243530 18938 net.cpp:454] inception_4c/output <- inception_4c/pool_proj
I1125 19:43:14.243533 18938 net.cpp:411] inception_4c/output -> inception_4c/output
I1125 19:43:14.243569 18938 net.cpp:150] Setting up inception_4c/output
I1125 19:43:14.243577 18938 net.cpp:157] Top shape: 64 512 14 14 (6422528)
I1125 19:43:14.243578 18938 net.cpp:165] Memory required for data: 2860353796
I1125 19:43:14.243582 18938 layer_factory.hpp:76] Creating layer inception_4c/output_inception_4c/output_0_split
I1125 19:43:14.243588 18938 net.cpp:106] Creating Layer inception_4c/output_inception_4c/output_0_split
I1125 19:43:14.243592 18938 net.cpp:454] inception_4c/output_inception_4c/output_0_split <- inception_4c/output
I1125 19:43:14.243597 18938 net.cpp:411] inception_4c/output_inception_4c/output_0_split -> inception_4c/output_inception_4c/output_0_split_0
I1125 19:43:14.243602 18938 net.cpp:411] inception_4c/output_inception_4c/output_0_split -> inception_4c/output_inception_4c/output_0_split_1
I1125 19:43:14.243608 18938 net.cpp:411] inception_4c/output_inception_4c/output_0_split -> inception_4c/output_inception_4c/output_0_split_2
I1125 19:43:14.243613 18938 net.cpp:411] inception_4c/output_inception_4c/output_0_split -> inception_4c/output_inception_4c/output_0_split_3
I1125 19:43:14.243681 18938 net.cpp:150] Setting up inception_4c/output_inception_4c/output_0_split
I1125 19:43:14.243686 18938 net.cpp:157] Top shape: 64 512 14 14 (6422528)
I1125 19:43:14.243690 18938 net.cpp:157] Top shape: 64 512 14 14 (6422528)
I1125 19:43:14.243695 18938 net.cpp:157] Top shape: 64 512 14 14 (6422528)
I1125 19:43:14.243697 18938 net.cpp:157] Top shape: 64 512 14 14 (6422528)
I1125 19:43:14.243700 18938 net.cpp:165] Memory required for data: 2963114244
I1125 19:43:14.243703 18938 layer_factory.hpp:76] Creating layer inception_4d/1x1
I1125 19:43:14.243711 18938 net.cpp:106] Creating Layer inception_4d/1x1
I1125 19:43:14.243716 18938 net.cpp:454] inception_4d/1x1 <- inception_4c/output_inception_4c/output_0_split_0
I1125 19:43:14.243721 18938 net.cpp:411] inception_4d/1x1 -> inception_4d/1x1
I1125 19:43:14.245007 18938 net.cpp:150] Setting up inception_4d/1x1
I1125 19:43:14.245023 18938 net.cpp:157] Top shape: 64 112 14 14 (1404928)
I1125 19:43:14.245026 18938 net.cpp:165] Memory required for data: 2968733956
I1125 19:43:14.245033 18938 layer_factory.hpp:76] Creating layer inception_4d/relu_1x1
I1125 19:43:14.245040 18938 net.cpp:106] Creating Layer inception_4d/relu_1x1
I1125 19:43:14.245046 18938 net.cpp:454] inception_4d/relu_1x1 <- inception_4d/1x1
I1125 19:43:14.245051 18938 net.cpp:397] inception_4d/relu_1x1 -> inception_4d/1x1 (in-place)
I1125 19:43:14.245369 18938 net.cpp:150] Setting up inception_4d/relu_1x1
I1125 19:43:14.245383 18938 net.cpp:157] Top shape: 64 112 14 14 (1404928)
I1125 19:43:14.245386 18938 net.cpp:165] Memory required for data: 2974353668
I1125 19:43:14.245390 18938 layer_factory.hpp:76] Creating layer inception_4d/3x3_reduce
I1125 19:43:14.245400 18938 net.cpp:106] Creating Layer inception_4d/3x3_reduce
I1125 19:43:14.245405 18938 net.cpp:454] inception_4d/3x3_reduce <- inception_4c/output_inception_4c/output_0_split_1
I1125 19:43:14.245411 18938 net.cpp:411] inception_4d/3x3_reduce -> inception_4d/3x3_reduce
I1125 19:43:14.246980 18938 net.cpp:150] Setting up inception_4d/3x3_reduce
I1125 19:43:14.247004 18938 net.cpp:157] Top shape: 64 144 14 14 (1806336)
I1125 19:43:14.247009 18938 net.cpp:165] Memory required for data: 2981579012
I1125 19:43:14.247014 18938 layer_factory.hpp:76] Creating layer inception_4d/relu_3x3_reduce
I1125 19:43:14.247022 18938 net.cpp:106] Creating Layer inception_4d/relu_3x3_reduce
I1125 19:43:14.247026 18938 net.cpp:454] inception_4d/relu_3x3_reduce <- inception_4d/3x3_reduce
I1125 19:43:14.247031 18938 net.cpp:397] inception_4d/relu_3x3_reduce -> inception_4d/3x3_reduce (in-place)
I1125 19:43:14.247205 18938 net.cpp:150] Setting up inception_4d/relu_3x3_reduce
I1125 19:43:14.247215 18938 net.cpp:157] Top shape: 64 144 14 14 (1806336)
I1125 19:43:14.247218 18938 net.cpp:165] Memory required for data: 2988804356
I1125 19:43:14.247221 18938 layer_factory.hpp:76] Creating layer inception_4d/3x3
I1125 19:43:14.247231 18938 net.cpp:106] Creating Layer inception_4d/3x3
I1125 19:43:14.247236 18938 net.cpp:454] inception_4d/3x3 <- inception_4d/3x3_reduce
I1125 19:43:14.247241 18938 net.cpp:411] inception_4d/3x3 -> inception_4d/3x3
I1125 19:43:14.251204 18938 net.cpp:150] Setting up inception_4d/3x3
I1125 19:43:14.251219 18938 net.cpp:157] Top shape: 64 288 14 14 (3612672)
I1125 19:43:14.251224 18938 net.cpp:165] Memory required for data: 3003255044
I1125 19:43:14.251230 18938 layer_factory.hpp:76] Creating layer inception_4d/relu_3x3
I1125 19:43:14.251236 18938 net.cpp:106] Creating Layer inception_4d/relu_3x3
I1125 19:43:14.251240 18938 net.cpp:454] inception_4d/relu_3x3 <- inception_4d/3x3
I1125 19:43:14.251246 18938 net.cpp:397] inception_4d/relu_3x3 -> inception_4d/3x3 (in-place)
I1125 19:43:14.251559 18938 net.cpp:150] Setting up inception_4d/relu_3x3
I1125 19:43:14.251572 18938 net.cpp:157] Top shape: 64 288 14 14 (3612672)
I1125 19:43:14.251575 18938 net.cpp:165] Memory required for data: 3017705732
I1125 19:43:14.251579 18938 layer_factory.hpp:76] Creating layer inception_4d/5x5_reduce
I1125 19:43:14.251590 18938 net.cpp:106] Creating Layer inception_4d/5x5_reduce
I1125 19:43:14.251593 18938 net.cpp:454] inception_4d/5x5_reduce <- inception_4c/output_inception_4c/output_0_split_2
I1125 19:43:14.251600 18938 net.cpp:411] inception_4d/5x5_reduce -> inception_4d/5x5_reduce
I1125 19:43:14.252674 18938 net.cpp:150] Setting up inception_4d/5x5_reduce
I1125 19:43:14.252689 18938 net.cpp:157] Top shape: 64 32 14 14 (401408)
I1125 19:43:14.252693 18938 net.cpp:165] Memory required for data: 3019311364
I1125 19:43:14.252701 18938 layer_factory.hpp:76] Creating layer inception_4d/relu_5x5_reduce
I1125 19:43:14.252707 18938 net.cpp:106] Creating Layer inception_4d/relu_5x5_reduce
I1125 19:43:14.252710 18938 net.cpp:454] inception_4d/relu_5x5_reduce <- inception_4d/5x5_reduce
I1125 19:43:14.252717 18938 net.cpp:397] inception_4d/relu_5x5_reduce -> inception_4d/5x5_reduce (in-place)
I1125 19:43:14.253041 18938 net.cpp:150] Setting up inception_4d/relu_5x5_reduce
I1125 19:43:14.253054 18938 net.cpp:157] Top shape: 64 32 14 14 (401408)
I1125 19:43:14.253057 18938 net.cpp:165] Memory required for data: 3020916996
I1125 19:43:14.253062 18938 layer_factory.hpp:76] Creating layer inception_4d/5x5
I1125 19:43:14.253070 18938 net.cpp:106] Creating Layer inception_4d/5x5
I1125 19:43:14.253074 18938 net.cpp:454] inception_4d/5x5 <- inception_4d/5x5_reduce
I1125 19:43:14.253082 18938 net.cpp:411] inception_4d/5x5 -> inception_4d/5x5
I1125 19:43:14.254519 18938 net.cpp:150] Setting up inception_4d/5x5
I1125 19:43:14.254534 18938 net.cpp:157] Top shape: 64 64 14 14 (802816)
I1125 19:43:14.254537 18938 net.cpp:165] Memory required for data: 3024128260
I1125 19:43:14.254544 18938 layer_factory.hpp:76] Creating layer inception_4d/relu_5x5
I1125 19:43:14.254551 18938 net.cpp:106] Creating Layer inception_4d/relu_5x5
I1125 19:43:14.254555 18938 net.cpp:454] inception_4d/relu_5x5 <- inception_4d/5x5
I1125 19:43:14.254560 18938 net.cpp:397] inception_4d/relu_5x5 -> inception_4d/5x5 (in-place)
I1125 19:43:14.254739 18938 net.cpp:150] Setting up inception_4d/relu_5x5
I1125 19:43:14.254750 18938 net.cpp:157] Top shape: 64 64 14 14 (802816)
I1125 19:43:14.254753 18938 net.cpp:165] Memory required for data: 3027339524
I1125 19:43:14.254757 18938 layer_factory.hpp:76] Creating layer inception_4d/pool
I1125 19:43:14.254763 18938 net.cpp:106] Creating Layer inception_4d/pool
I1125 19:43:14.254767 18938 net.cpp:454] inception_4d/pool <- inception_4c/output_inception_4c/output_0_split_3
I1125 19:43:14.254772 18938 net.cpp:411] inception_4d/pool -> inception_4d/pool
I1125 19:43:14.255131 18938 net.cpp:150] Setting up inception_4d/pool
I1125 19:43:14.255144 18938 net.cpp:157] Top shape: 64 512 14 14 (6422528)
I1125 19:43:14.255148 18938 net.cpp:165] Memory required for data: 3053029636
I1125 19:43:14.255151 18938 layer_factory.hpp:76] Creating layer inception_4d/pool_proj
I1125 19:43:14.255162 18938 net.cpp:106] Creating Layer inception_4d/pool_proj
I1125 19:43:14.255165 18938 net.cpp:454] inception_4d/pool_proj <- inception_4d/pool
I1125 19:43:14.255172 18938 net.cpp:411] inception_4d/pool_proj -> inception_4d/pool_proj
I1125 19:43:14.256496 18938 net.cpp:150] Setting up inception_4d/pool_proj
I1125 19:43:14.256511 18938 net.cpp:157] Top shape: 64 64 14 14 (802816)
I1125 19:43:14.256515 18938 net.cpp:165] Memory required for data: 3056240900
I1125 19:43:14.256522 18938 layer_factory.hpp:76] Creating layer inception_4d/relu_pool_proj
I1125 19:43:14.256528 18938 net.cpp:106] Creating Layer inception_4d/relu_pool_proj
I1125 19:43:14.256535 18938 net.cpp:454] inception_4d/relu_pool_proj <- inception_4d/pool_proj
I1125 19:43:14.256539 18938 net.cpp:397] inception_4d/relu_pool_proj -> inception_4d/pool_proj (in-place)
I1125 19:43:14.256717 18938 net.cpp:150] Setting up inception_4d/relu_pool_proj
I1125 19:43:14.256728 18938 net.cpp:157] Top shape: 64 64 14 14 (802816)
I1125 19:43:14.256731 18938 net.cpp:165] Memory required for data: 3059452164
I1125 19:43:14.256736 18938 layer_factory.hpp:76] Creating layer inception_4d/output
I1125 19:43:14.256742 18938 net.cpp:106] Creating Layer inception_4d/output
I1125 19:43:14.256747 18938 net.cpp:454] inception_4d/output <- inception_4d/1x1
I1125 19:43:14.256750 18938 net.cpp:454] inception_4d/output <- inception_4d/3x3
I1125 19:43:14.256754 18938 net.cpp:454] inception_4d/output <- inception_4d/5x5
I1125 19:43:14.256758 18938 net.cpp:454] inception_4d/output <- inception_4d/pool_proj
I1125 19:43:14.256762 18938 net.cpp:411] inception_4d/output -> inception_4d/output
I1125 19:43:14.256798 18938 net.cpp:150] Setting up inception_4d/output
I1125 19:43:14.256805 18938 net.cpp:157] Top shape: 64 528 14 14 (6623232)
I1125 19:43:14.256808 18938 net.cpp:165] Memory required for data: 3085945092
I1125 19:43:14.256810 18938 layer_factory.hpp:76] Creating layer inception_4d/output_inception_4d/output_0_split
I1125 19:43:14.256816 18938 net.cpp:106] Creating Layer inception_4d/output_inception_4d/output_0_split
I1125 19:43:14.256820 18938 net.cpp:454] inception_4d/output_inception_4d/output_0_split <- inception_4d/output
I1125 19:43:14.256826 18938 net.cpp:411] inception_4d/output_inception_4d/output_0_split -> inception_4d/output_inception_4d/output_0_split_0
I1125 19:43:14.256832 18938 net.cpp:411] inception_4d/output_inception_4d/output_0_split -> inception_4d/output_inception_4d/output_0_split_1
I1125 19:43:14.256839 18938 net.cpp:411] inception_4d/output_inception_4d/output_0_split -> inception_4d/output_inception_4d/output_0_split_2
I1125 19:43:14.256844 18938 net.cpp:411] inception_4d/output_inception_4d/output_0_split -> inception_4d/output_inception_4d/output_0_split_3
I1125 19:43:14.256849 18938 net.cpp:411] inception_4d/output_inception_4d/output_0_split -> inception_4d/output_inception_4d/output_0_split_4
I1125 19:43:14.256938 18938 net.cpp:150] Setting up inception_4d/output_inception_4d/output_0_split
I1125 19:43:14.256947 18938 net.cpp:157] Top shape: 64 528 14 14 (6623232)
I1125 19:43:14.256952 18938 net.cpp:157] Top shape: 64 528 14 14 (6623232)
I1125 19:43:14.256954 18938 net.cpp:157] Top shape: 64 528 14 14 (6623232)
I1125 19:43:14.256958 18938 net.cpp:157] Top shape: 64 528 14 14 (6623232)
I1125 19:43:14.256961 18938 net.cpp:157] Top shape: 64 528 14 14 (6623232)
I1125 19:43:14.256964 18938 net.cpp:165] Memory required for data: 3218409732
I1125 19:43:14.256968 18938 layer_factory.hpp:76] Creating layer loss2/ave_pool
I1125 19:43:14.256973 18938 net.cpp:106] Creating Layer loss2/ave_pool
I1125 19:43:14.256976 18938 net.cpp:454] loss2/ave_pool <- inception_4d/output_inception_4d/output_0_split_0
I1125 19:43:14.256983 18938 net.cpp:411] loss2/ave_pool -> loss2/ave_pool
I1125 19:43:14.257326 18938 net.cpp:150] Setting up loss2/ave_pool
I1125 19:43:14.257340 18938 net.cpp:157] Top shape: 64 528 4 4 (540672)
I1125 19:43:14.257344 18938 net.cpp:165] Memory required for data: 3220572420
I1125 19:43:14.257347 18938 layer_factory.hpp:76] Creating layer loss2/conv
I1125 19:43:14.257356 18938 net.cpp:106] Creating Layer loss2/conv
I1125 19:43:14.257360 18938 net.cpp:454] loss2/conv <- loss2/ave_pool
I1125 19:43:14.257367 18938 net.cpp:411] loss2/conv -> loss2/conv
I1125 19:43:14.259181 18938 net.cpp:150] Setting up loss2/conv
I1125 19:43:14.259198 18938 net.cpp:157] Top shape: 64 128 4 4 (131072)
I1125 19:43:14.259202 18938 net.cpp:165] Memory required for data: 3221096708
I1125 19:43:14.259208 18938 layer_factory.hpp:76] Creating layer loss2/relu_conv
I1125 19:43:14.259214 18938 net.cpp:106] Creating Layer loss2/relu_conv
I1125 19:43:14.259219 18938 net.cpp:454] loss2/relu_conv <- loss2/conv
I1125 19:43:14.259224 18938 net.cpp:397] loss2/relu_conv -> loss2/conv (in-place)
I1125 19:43:14.259675 18938 net.cpp:150] Setting up loss2/relu_conv
I1125 19:43:14.259690 18938 net.cpp:157] Top shape: 64 128 4 4 (131072)
I1125 19:43:14.259692 18938 net.cpp:165] Memory required for data: 3221620996
I1125 19:43:14.259696 18938 layer_factory.hpp:76] Creating layer loss2/fc
I1125 19:43:14.259706 18938 net.cpp:106] Creating Layer loss2/fc
I1125 19:43:14.259709 18938 net.cpp:454] loss2/fc <- loss2/conv
I1125 19:43:14.259716 18938 net.cpp:411] loss2/fc -> loss2/fc
I1125 19:43:14.275284 18938 net.cpp:150] Setting up loss2/fc
I1125 19:43:14.275300 18938 net.cpp:157] Top shape: 64 1024 (65536)
I1125 19:43:14.275303 18938 net.cpp:165] Memory required for data: 3221883140
I1125 19:43:14.275310 18938 layer_factory.hpp:76] Creating layer loss2/relu_fc
I1125 19:43:14.275317 18938 net.cpp:106] Creating Layer loss2/relu_fc
I1125 19:43:14.275321 18938 net.cpp:454] loss2/relu_fc <- loss2/fc
I1125 19:43:14.275327 18938 net.cpp:397] loss2/relu_fc -> loss2/fc (in-place)
I1125 19:43:14.275526 18938 net.cpp:150] Setting up loss2/relu_fc
I1125 19:43:14.275538 18938 net.cpp:157] Top shape: 64 1024 (65536)
I1125 19:43:14.275542 18938 net.cpp:165] Memory required for data: 3222145284
I1125 19:43:14.275545 18938 layer_factory.hpp:76] Creating layer loss2/drop_fc
I1125 19:43:14.275552 18938 net.cpp:106] Creating Layer loss2/drop_fc
I1125 19:43:14.275555 18938 net.cpp:454] loss2/drop_fc <- loss2/fc
I1125 19:43:14.275559 18938 net.cpp:397] loss2/drop_fc -> loss2/fc (in-place)
I1125 19:43:14.275599 18938 net.cpp:150] Setting up loss2/drop_fc
I1125 19:43:14.275609 18938 net.cpp:157] Top shape: 64 1024 (65536)
I1125 19:43:14.275611 18938 net.cpp:165] Memory required for data: 3222407428
I1125 19:43:14.275614 18938 layer_factory.hpp:76] Creating layer loss2/classifier-attribute
I1125 19:43:14.275622 18938 net.cpp:106] Creating Layer loss2/classifier-attribute
I1125 19:43:14.275626 18938 net.cpp:454] loss2/classifier-attribute <- loss2/fc
I1125 19:43:14.275631 18938 net.cpp:411] loss2/classifier-attribute -> loss2/classifier-attribute
I1125 19:43:14.275802 18938 net.cpp:150] Setting up loss2/classifier-attribute
I1125 19:43:14.275810 18938 net.cpp:157] Top shape: 64 5 (320)
I1125 19:43:14.275813 18938 net.cpp:165] Memory required for data: 3222408708
I1125 19:43:14.275820 18938 layer_factory.hpp:76] Creating layer loss2/loss
I1125 19:43:14.275825 18938 net.cpp:106] Creating Layer loss2/loss
I1125 19:43:14.275830 18938 net.cpp:454] loss2/loss <- loss2/classifier-attribute
I1125 19:43:14.275835 18938 net.cpp:454] loss2/loss <- label_data_1_split_1
I1125 19:43:14.275841 18938 net.cpp:411] loss2/loss -> loss2/loss1
I1125 19:43:14.275848 18938 layer_factory.hpp:76] Creating layer loss2/loss
I1125 19:43:14.276303 18938 net.cpp:150] Setting up loss2/loss
I1125 19:43:14.276317 18938 net.cpp:157] Top shape: (1)
I1125 19:43:14.276320 18938 net.cpp:160]     with loss weight 0.3
I1125 19:43:14.276331 18938 net.cpp:165] Memory required for data: 3222408712
I1125 19:43:14.276335 18938 layer_factory.hpp:76] Creating layer inception_4e/1x1
I1125 19:43:14.276345 18938 net.cpp:106] Creating Layer inception_4e/1x1
I1125 19:43:14.276350 18938 net.cpp:454] inception_4e/1x1 <- inception_4d/output_inception_4d/output_0_split_1
I1125 19:43:14.276357 18938 net.cpp:411] inception_4e/1x1 -> inception_4e/1x1
I1125 19:43:14.278329 18938 net.cpp:150] Setting up inception_4e/1x1
I1125 19:43:14.278343 18938 net.cpp:157] Top shape: 64 256 14 14 (3211264)
I1125 19:43:14.278347 18938 net.cpp:165] Memory required for data: 3235253768
I1125 19:43:14.278354 18938 layer_factory.hpp:76] Creating layer inception_4e/relu_1x1
I1125 19:43:14.278362 18938 net.cpp:106] Creating Layer inception_4e/relu_1x1
I1125 19:43:14.278367 18938 net.cpp:454] inception_4e/relu_1x1 <- inception_4e/1x1
I1125 19:43:14.278372 18938 net.cpp:397] inception_4e/relu_1x1 -> inception_4e/1x1 (in-place)
I1125 19:43:14.278553 18938 net.cpp:150] Setting up inception_4e/relu_1x1
I1125 19:43:14.278563 18938 net.cpp:157] Top shape: 64 256 14 14 (3211264)
I1125 19:43:14.278566 18938 net.cpp:165] Memory required for data: 3248098824
I1125 19:43:14.278570 18938 layer_factory.hpp:76] Creating layer inception_4e/3x3_reduce
I1125 19:43:14.278579 18938 net.cpp:106] Creating Layer inception_4e/3x3_reduce
I1125 19:43:14.278584 18938 net.cpp:454] inception_4e/3x3_reduce <- inception_4d/output_inception_4d/output_0_split_2
I1125 19:43:14.278590 18938 net.cpp:411] inception_4e/3x3_reduce -> inception_4e/3x3_reduce
I1125 19:43:14.280683 18938 net.cpp:150] Setting up inception_4e/3x3_reduce
I1125 19:43:14.280699 18938 net.cpp:157] Top shape: 64 160 14 14 (2007040)
I1125 19:43:14.280702 18938 net.cpp:165] Memory required for data: 3256126984
I1125 19:43:14.280709 18938 layer_factory.hpp:76] Creating layer inception_4e/relu_3x3_reduce
I1125 19:43:14.280715 18938 net.cpp:106] Creating Layer inception_4e/relu_3x3_reduce
I1125 19:43:14.280719 18938 net.cpp:454] inception_4e/relu_3x3_reduce <- inception_4e/3x3_reduce
I1125 19:43:14.280726 18938 net.cpp:397] inception_4e/relu_3x3_reduce -> inception_4e/3x3_reduce (in-place)
I1125 19:43:14.281055 18938 net.cpp:150] Setting up inception_4e/relu_3x3_reduce
I1125 19:43:14.281069 18938 net.cpp:157] Top shape: 64 160 14 14 (2007040)
I1125 19:43:14.281074 18938 net.cpp:165] Memory required for data: 3264155144
I1125 19:43:14.281076 18938 layer_factory.hpp:76] Creating layer inception_4e/3x3
I1125 19:43:14.281085 18938 net.cpp:106] Creating Layer inception_4e/3x3
I1125 19:43:14.281090 18938 net.cpp:454] inception_4e/3x3 <- inception_4e/3x3_reduce
I1125 19:43:14.281097 18938 net.cpp:411] inception_4e/3x3 -> inception_4e/3x3
I1125 19:43:14.285622 18938 net.cpp:150] Setting up inception_4e/3x3
I1125 19:43:14.285637 18938 net.cpp:157] Top shape: 64 320 14 14 (4014080)
I1125 19:43:14.285641 18938 net.cpp:165] Memory required for data: 3280211464
I1125 19:43:14.285647 18938 layer_factory.hpp:76] Creating layer inception_4e/relu_3x3
I1125 19:43:14.285653 18938 net.cpp:106] Creating Layer inception_4e/relu_3x3
I1125 19:43:14.285658 18938 net.cpp:454] inception_4e/relu_3x3 <- inception_4e/3x3
I1125 19:43:14.285665 18938 net.cpp:397] inception_4e/relu_3x3 -> inception_4e/3x3 (in-place)
I1125 19:43:14.286005 18938 net.cpp:150] Setting up inception_4e/relu_3x3
I1125 19:43:14.286020 18938 net.cpp:157] Top shape: 64 320 14 14 (4014080)
I1125 19:43:14.286023 18938 net.cpp:165] Memory required for data: 3296267784
I1125 19:43:14.286026 18938 layer_factory.hpp:76] Creating layer inception_4e/5x5_reduce
I1125 19:43:14.286036 18938 net.cpp:106] Creating Layer inception_4e/5x5_reduce
I1125 19:43:14.286041 18938 net.cpp:454] inception_4e/5x5_reduce <- inception_4d/output_inception_4d/output_0_split_3
I1125 19:43:14.286048 18938 net.cpp:411] inception_4e/5x5_reduce -> inception_4e/5x5_reduce
I1125 19:43:14.287281 18938 net.cpp:150] Setting up inception_4e/5x5_reduce
I1125 19:43:14.287294 18938 net.cpp:157] Top shape: 64 32 14 14 (401408)
I1125 19:43:14.287298 18938 net.cpp:165] Memory required for data: 3297873416
I1125 19:43:14.287304 18938 layer_factory.hpp:76] Creating layer inception_4e/relu_5x5_reduce
I1125 19:43:14.287312 18938 net.cpp:106] Creating Layer inception_4e/relu_5x5_reduce
I1125 19:43:14.287317 18938 net.cpp:454] inception_4e/relu_5x5_reduce <- inception_4e/5x5_reduce
I1125 19:43:14.287322 18938 net.cpp:397] inception_4e/relu_5x5_reduce -> inception_4e/5x5_reduce (in-place)
I1125 19:43:14.287503 18938 net.cpp:150] Setting up inception_4e/relu_5x5_reduce
I1125 19:43:14.287513 18938 net.cpp:157] Top shape: 64 32 14 14 (401408)
I1125 19:43:14.287516 18938 net.cpp:165] Memory required for data: 3299479048
I1125 19:43:14.287519 18938 layer_factory.hpp:76] Creating layer inception_4e/5x5
I1125 19:43:14.287541 18938 net.cpp:106] Creating Layer inception_4e/5x5
I1125 19:43:14.287546 18938 net.cpp:454] inception_4e/5x5 <- inception_4e/5x5_reduce
I1125 19:43:14.287554 18938 net.cpp:411] inception_4e/5x5 -> inception_4e/5x5
I1125 19:43:14.289361 18938 net.cpp:150] Setting up inception_4e/5x5
I1125 19:43:14.289377 18938 net.cpp:157] Top shape: 64 128 14 14 (1605632)
I1125 19:43:14.289381 18938 net.cpp:165] Memory required for data: 3305901576
I1125 19:43:14.289388 18938 layer_factory.hpp:76] Creating layer inception_4e/relu_5x5
I1125 19:43:14.289394 18938 net.cpp:106] Creating Layer inception_4e/relu_5x5
I1125 19:43:14.289398 18938 net.cpp:454] inception_4e/relu_5x5 <- inception_4e/5x5
I1125 19:43:14.289403 18938 net.cpp:397] inception_4e/relu_5x5 -> inception_4e/5x5 (in-place)
I1125 19:43:14.289731 18938 net.cpp:150] Setting up inception_4e/relu_5x5
I1125 19:43:14.289746 18938 net.cpp:157] Top shape: 64 128 14 14 (1605632)
I1125 19:43:14.289749 18938 net.cpp:165] Memory required for data: 3312324104
I1125 19:43:14.289753 18938 layer_factory.hpp:76] Creating layer inception_4e/pool
I1125 19:43:14.289760 18938 net.cpp:106] Creating Layer inception_4e/pool
I1125 19:43:14.289764 18938 net.cpp:454] inception_4e/pool <- inception_4d/output_inception_4d/output_0_split_4
I1125 19:43:14.289772 18938 net.cpp:411] inception_4e/pool -> inception_4e/pool
I1125 19:43:14.289994 18938 net.cpp:150] Setting up inception_4e/pool
I1125 19:43:14.290006 18938 net.cpp:157] Top shape: 64 528 14 14 (6623232)
I1125 19:43:14.290009 18938 net.cpp:165] Memory required for data: 3338817032
I1125 19:43:14.290012 18938 layer_factory.hpp:76] Creating layer inception_4e/pool_proj
I1125 19:43:14.290021 18938 net.cpp:106] Creating Layer inception_4e/pool_proj
I1125 19:43:14.290025 18938 net.cpp:454] inception_4e/pool_proj <- inception_4e/pool
I1125 19:43:14.290032 18938 net.cpp:411] inception_4e/pool_proj -> inception_4e/pool_proj
I1125 19:43:14.291580 18938 net.cpp:150] Setting up inception_4e/pool_proj
I1125 19:43:14.291595 18938 net.cpp:157] Top shape: 64 128 14 14 (1605632)
I1125 19:43:14.291599 18938 net.cpp:165] Memory required for data: 3345239560
I1125 19:43:14.291604 18938 layer_factory.hpp:76] Creating layer inception_4e/relu_pool_proj
I1125 19:43:14.291610 18938 net.cpp:106] Creating Layer inception_4e/relu_pool_proj
I1125 19:43:14.291615 18938 net.cpp:454] inception_4e/relu_pool_proj <- inception_4e/pool_proj
I1125 19:43:14.291621 18938 net.cpp:397] inception_4e/relu_pool_proj -> inception_4e/pool_proj (in-place)
I1125 19:43:14.291950 18938 net.cpp:150] Setting up inception_4e/relu_pool_proj
I1125 19:43:14.291965 18938 net.cpp:157] Top shape: 64 128 14 14 (1605632)
I1125 19:43:14.291967 18938 net.cpp:165] Memory required for data: 3351662088
I1125 19:43:14.291971 18938 layer_factory.hpp:76] Creating layer inception_4e/output
I1125 19:43:14.291977 18938 net.cpp:106] Creating Layer inception_4e/output
I1125 19:43:14.291981 18938 net.cpp:454] inception_4e/output <- inception_4e/1x1
I1125 19:43:14.291987 18938 net.cpp:454] inception_4e/output <- inception_4e/3x3
I1125 19:43:14.291992 18938 net.cpp:454] inception_4e/output <- inception_4e/5x5
I1125 19:43:14.291996 18938 net.cpp:454] inception_4e/output <- inception_4e/pool_proj
I1125 19:43:14.292001 18938 net.cpp:411] inception_4e/output -> inception_4e/output
I1125 19:43:14.292042 18938 net.cpp:150] Setting up inception_4e/output
I1125 19:43:14.292049 18938 net.cpp:157] Top shape: 64 832 14 14 (10436608)
I1125 19:43:14.292052 18938 net.cpp:165] Memory required for data: 3393408520
I1125 19:43:14.292054 18938 layer_factory.hpp:76] Creating layer pool4/3x3_s2
I1125 19:43:14.292060 18938 net.cpp:106] Creating Layer pool4/3x3_s2
I1125 19:43:14.292064 18938 net.cpp:454] pool4/3x3_s2 <- inception_4e/output
I1125 19:43:14.292070 18938 net.cpp:411] pool4/3x3_s2 -> pool4/3x3_s2
I1125 19:43:14.292287 18938 net.cpp:150] Setting up pool4/3x3_s2
I1125 19:43:14.292309 18938 net.cpp:157] Top shape: 64 832 7 7 (2609152)
I1125 19:43:14.292314 18938 net.cpp:165] Memory required for data: 3403845128
I1125 19:43:14.292316 18938 layer_factory.hpp:76] Creating layer pool4/3x3_s2_pool4/3x3_s2_0_split
I1125 19:43:14.292325 18938 net.cpp:106] Creating Layer pool4/3x3_s2_pool4/3x3_s2_0_split
I1125 19:43:14.292328 18938 net.cpp:454] pool4/3x3_s2_pool4/3x3_s2_0_split <- pool4/3x3_s2
I1125 19:43:14.292335 18938 net.cpp:411] pool4/3x3_s2_pool4/3x3_s2_0_split -> pool4/3x3_s2_pool4/3x3_s2_0_split_0
I1125 19:43:14.292340 18938 net.cpp:411] pool4/3x3_s2_pool4/3x3_s2_0_split -> pool4/3x3_s2_pool4/3x3_s2_0_split_1
I1125 19:43:14.292346 18938 net.cpp:411] pool4/3x3_s2_pool4/3x3_s2_0_split -> pool4/3x3_s2_pool4/3x3_s2_0_split_2
I1125 19:43:14.292351 18938 net.cpp:411] pool4/3x3_s2_pool4/3x3_s2_0_split -> pool4/3x3_s2_pool4/3x3_s2_0_split_3
I1125 19:43:14.292433 18938 net.cpp:150] Setting up pool4/3x3_s2_pool4/3x3_s2_0_split
I1125 19:43:14.292441 18938 net.cpp:157] Top shape: 64 832 7 7 (2609152)
I1125 19:43:14.292444 18938 net.cpp:157] Top shape: 64 832 7 7 (2609152)
I1125 19:43:14.292448 18938 net.cpp:157] Top shape: 64 832 7 7 (2609152)
I1125 19:43:14.292451 18938 net.cpp:157] Top shape: 64 832 7 7 (2609152)
I1125 19:43:14.292454 18938 net.cpp:165] Memory required for data: 3445591560
I1125 19:43:14.292457 18938 layer_factory.hpp:76] Creating layer inception_5a/1x1
I1125 19:43:14.292472 18938 net.cpp:106] Creating Layer inception_5a/1x1
I1125 19:43:14.292475 18938 net.cpp:454] inception_5a/1x1 <- pool4/3x3_s2_pool4/3x3_s2_0_split_0
I1125 19:43:14.292482 18938 net.cpp:411] inception_5a/1x1 -> inception_5a/1x1
I1125 19:43:14.295357 18938 net.cpp:150] Setting up inception_5a/1x1
I1125 19:43:14.295373 18938 net.cpp:157] Top shape: 64 256 7 7 (802816)
I1125 19:43:14.295377 18938 net.cpp:165] Memory required for data: 3448802824
I1125 19:43:14.295383 18938 layer_factory.hpp:76] Creating layer inception_5a/relu_1x1
I1125 19:43:14.295389 18938 net.cpp:106] Creating Layer inception_5a/relu_1x1
I1125 19:43:14.295394 18938 net.cpp:454] inception_5a/relu_1x1 <- inception_5a/1x1
I1125 19:43:14.295399 18938 net.cpp:397] inception_5a/relu_1x1 -> inception_5a/1x1 (in-place)
I1125 19:43:14.295719 18938 net.cpp:150] Setting up inception_5a/relu_1x1
I1125 19:43:14.295733 18938 net.cpp:157] Top shape: 64 256 7 7 (802816)
I1125 19:43:14.295737 18938 net.cpp:165] Memory required for data: 3452014088
I1125 19:43:14.295740 18938 layer_factory.hpp:76] Creating layer inception_5a/3x3_reduce
I1125 19:43:14.295750 18938 net.cpp:106] Creating Layer inception_5a/3x3_reduce
I1125 19:43:14.295755 18938 net.cpp:454] inception_5a/3x3_reduce <- pool4/3x3_s2_pool4/3x3_s2_0_split_1
I1125 19:43:14.295763 18938 net.cpp:411] inception_5a/3x3_reduce -> inception_5a/3x3_reduce
I1125 19:43:14.298169 18938 net.cpp:150] Setting up inception_5a/3x3_reduce
I1125 19:43:14.298187 18938 net.cpp:157] Top shape: 64 160 7 7 (501760)
I1125 19:43:14.298190 18938 net.cpp:165] Memory required for data: 3454021128
I1125 19:43:14.298197 18938 layer_factory.hpp:76] Creating layer inception_5a/relu_3x3_reduce
I1125 19:43:14.298203 18938 net.cpp:106] Creating Layer inception_5a/relu_3x3_reduce
I1125 19:43:14.298207 18938 net.cpp:454] inception_5a/relu_3x3_reduce <- inception_5a/3x3_reduce
I1125 19:43:14.298213 18938 net.cpp:397] inception_5a/relu_3x3_reduce -> inception_5a/3x3_reduce (in-place)
I1125 19:43:14.298545 18938 net.cpp:150] Setting up inception_5a/relu_3x3_reduce
I1125 19:43:14.298560 18938 net.cpp:157] Top shape: 64 160 7 7 (501760)
I1125 19:43:14.298564 18938 net.cpp:165] Memory required for data: 3456028168
I1125 19:43:14.298568 18938 layer_factory.hpp:76] Creating layer inception_5a/3x3
I1125 19:43:14.298576 18938 net.cpp:106] Creating Layer inception_5a/3x3
I1125 19:43:14.298580 18938 net.cpp:454] inception_5a/3x3 <- inception_5a/3x3_reduce
I1125 19:43:14.298588 18938 net.cpp:411] inception_5a/3x3 -> inception_5a/3x3
I1125 19:43:14.303266 18938 net.cpp:150] Setting up inception_5a/3x3
I1125 19:43:14.303282 18938 net.cpp:157] Top shape: 64 320 7 7 (1003520)
I1125 19:43:14.303285 18938 net.cpp:165] Memory required for data: 3460042248
I1125 19:43:14.303292 18938 layer_factory.hpp:76] Creating layer inception_5a/relu_3x3
I1125 19:43:14.303298 18938 net.cpp:106] Creating Layer inception_5a/relu_3x3
I1125 19:43:14.303303 18938 net.cpp:454] inception_5a/relu_3x3 <- inception_5a/3x3
I1125 19:43:14.303309 18938 net.cpp:397] inception_5a/relu_3x3 -> inception_5a/3x3 (in-place)
I1125 19:43:14.303500 18938 net.cpp:150] Setting up inception_5a/relu_3x3
I1125 19:43:14.303513 18938 net.cpp:157] Top shape: 64 320 7 7 (1003520)
I1125 19:43:14.303515 18938 net.cpp:165] Memory required for data: 3464056328
I1125 19:43:14.303519 18938 layer_factory.hpp:76] Creating layer inception_5a/5x5_reduce
I1125 19:43:14.303529 18938 net.cpp:106] Creating Layer inception_5a/5x5_reduce
I1125 19:43:14.303534 18938 net.cpp:454] inception_5a/5x5_reduce <- pool4/3x3_s2_pool4/3x3_s2_0_split_2
I1125 19:43:14.303540 18938 net.cpp:411] inception_5a/5x5_reduce -> inception_5a/5x5_reduce
I1125 19:43:14.304857 18938 net.cpp:150] Setting up inception_5a/5x5_reduce
I1125 19:43:14.304872 18938 net.cpp:157] Top shape: 64 32 7 7 (100352)
I1125 19:43:14.304875 18938 net.cpp:165] Memory required for data: 3464457736
I1125 19:43:14.304883 18938 layer_factory.hpp:76] Creating layer inception_5a/relu_5x5_reduce
I1125 19:43:14.304889 18938 net.cpp:106] Creating Layer inception_5a/relu_5x5_reduce
I1125 19:43:14.304894 18938 net.cpp:454] inception_5a/relu_5x5_reduce <- inception_5a/5x5_reduce
I1125 19:43:14.304900 18938 net.cpp:397] inception_5a/relu_5x5_reduce -> inception_5a/5x5_reduce (in-place)
I1125 19:43:14.305084 18938 net.cpp:150] Setting up inception_5a/relu_5x5_reduce
I1125 19:43:14.305095 18938 net.cpp:157] Top shape: 64 32 7 7 (100352)
I1125 19:43:14.305099 18938 net.cpp:165] Memory required for data: 3464859144
I1125 19:43:14.305102 18938 layer_factory.hpp:76] Creating layer inception_5a/5x5
I1125 19:43:14.305111 18938 net.cpp:106] Creating Layer inception_5a/5x5
I1125 19:43:14.305116 18938 net.cpp:454] inception_5a/5x5 <- inception_5a/5x5_reduce
I1125 19:43:14.305121 18938 net.cpp:411] inception_5a/5x5 -> inception_5a/5x5
I1125 19:43:14.306910 18938 net.cpp:150] Setting up inception_5a/5x5
I1125 19:43:14.306926 18938 net.cpp:157] Top shape: 64 128 7 7 (401408)
I1125 19:43:14.306929 18938 net.cpp:165] Memory required for data: 3466464776
I1125 19:43:14.306936 18938 layer_factory.hpp:76] Creating layer inception_5a/relu_5x5
I1125 19:43:14.306941 18938 net.cpp:106] Creating Layer inception_5a/relu_5x5
I1125 19:43:14.306946 18938 net.cpp:454] inception_5a/relu_5x5 <- inception_5a/5x5
I1125 19:43:14.306952 18938 net.cpp:397] inception_5a/relu_5x5 -> inception_5a/5x5 (in-place)
I1125 19:43:14.307281 18938 net.cpp:150] Setting up inception_5a/relu_5x5
I1125 19:43:14.307296 18938 net.cpp:157] Top shape: 64 128 7 7 (401408)
I1125 19:43:14.307298 18938 net.cpp:165] Memory required for data: 3468070408
I1125 19:43:14.307302 18938 layer_factory.hpp:76] Creating layer inception_5a/pool
I1125 19:43:14.307310 18938 net.cpp:106] Creating Layer inception_5a/pool
I1125 19:43:14.307314 18938 net.cpp:454] inception_5a/pool <- pool4/3x3_s2_pool4/3x3_s2_0_split_3
I1125 19:43:14.307320 18938 net.cpp:411] inception_5a/pool -> inception_5a/pool
I1125 19:43:14.307543 18938 net.cpp:150] Setting up inception_5a/pool
I1125 19:43:14.307554 18938 net.cpp:157] Top shape: 64 832 7 7 (2609152)
I1125 19:43:14.307557 18938 net.cpp:165] Memory required for data: 3478507016
I1125 19:43:14.307560 18938 layer_factory.hpp:76] Creating layer inception_5a/pool_proj
I1125 19:43:14.307569 18938 net.cpp:106] Creating Layer inception_5a/pool_proj
I1125 19:43:14.307574 18938 net.cpp:454] inception_5a/pool_proj <- inception_5a/pool
I1125 19:43:14.307579 18938 net.cpp:411] inception_5a/pool_proj -> inception_5a/pool_proj
I1125 19:43:14.309833 18938 net.cpp:150] Setting up inception_5a/pool_proj
I1125 19:43:14.309849 18938 net.cpp:157] Top shape: 64 128 7 7 (401408)
I1125 19:43:14.309852 18938 net.cpp:165] Memory required for data: 3480112648
I1125 19:43:14.309859 18938 layer_factory.hpp:76] Creating layer inception_5a/relu_pool_proj
I1125 19:43:14.309864 18938 net.cpp:106] Creating Layer inception_5a/relu_pool_proj
I1125 19:43:14.309870 18938 net.cpp:454] inception_5a/relu_pool_proj <- inception_5a/pool_proj
I1125 19:43:14.309876 18938 net.cpp:397] inception_5a/relu_pool_proj -> inception_5a/pool_proj (in-place)
I1125 19:43:14.310206 18938 net.cpp:150] Setting up inception_5a/relu_pool_proj
I1125 19:43:14.310220 18938 net.cpp:157] Top shape: 64 128 7 7 (401408)
I1125 19:43:14.310225 18938 net.cpp:165] Memory required for data: 3481718280
I1125 19:43:14.310227 18938 layer_factory.hpp:76] Creating layer inception_5a/output
I1125 19:43:14.310235 18938 net.cpp:106] Creating Layer inception_5a/output
I1125 19:43:14.310238 18938 net.cpp:454] inception_5a/output <- inception_5a/1x1
I1125 19:43:14.310242 18938 net.cpp:454] inception_5a/output <- inception_5a/3x3
I1125 19:43:14.310247 18938 net.cpp:454] inception_5a/output <- inception_5a/5x5
I1125 19:43:14.310251 18938 net.cpp:454] inception_5a/output <- inception_5a/pool_proj
I1125 19:43:14.310256 18938 net.cpp:411] inception_5a/output -> inception_5a/output
I1125 19:43:14.310298 18938 net.cpp:150] Setting up inception_5a/output
I1125 19:43:14.310305 18938 net.cpp:157] Top shape: 64 832 7 7 (2609152)
I1125 19:43:14.310308 18938 net.cpp:165] Memory required for data: 3492154888
I1125 19:43:14.310312 18938 layer_factory.hpp:76] Creating layer inception_5a/output_inception_5a/output_0_split
I1125 19:43:14.310318 18938 net.cpp:106] Creating Layer inception_5a/output_inception_5a/output_0_split
I1125 19:43:14.310322 18938 net.cpp:454] inception_5a/output_inception_5a/output_0_split <- inception_5a/output
I1125 19:43:14.310327 18938 net.cpp:411] inception_5a/output_inception_5a/output_0_split -> inception_5a/output_inception_5a/output_0_split_0
I1125 19:43:14.310333 18938 net.cpp:411] inception_5a/output_inception_5a/output_0_split -> inception_5a/output_inception_5a/output_0_split_1
I1125 19:43:14.310338 18938 net.cpp:411] inception_5a/output_inception_5a/output_0_split -> inception_5a/output_inception_5a/output_0_split_2
I1125 19:43:14.310343 18938 net.cpp:411] inception_5a/output_inception_5a/output_0_split -> inception_5a/output_inception_5a/output_0_split_3
I1125 19:43:14.310423 18938 net.cpp:150] Setting up inception_5a/output_inception_5a/output_0_split
I1125 19:43:14.310431 18938 net.cpp:157] Top shape: 64 832 7 7 (2609152)
I1125 19:43:14.310436 18938 net.cpp:157] Top shape: 64 832 7 7 (2609152)
I1125 19:43:14.310438 18938 net.cpp:157] Top shape: 64 832 7 7 (2609152)
I1125 19:43:14.310441 18938 net.cpp:157] Top shape: 64 832 7 7 (2609152)
I1125 19:43:14.310444 18938 net.cpp:165] Memory required for data: 3533901320
I1125 19:43:14.310447 18938 layer_factory.hpp:76] Creating layer inception_5b/1x1
I1125 19:43:14.310456 18938 net.cpp:106] Creating Layer inception_5b/1x1
I1125 19:43:14.310461 18938 net.cpp:454] inception_5b/1x1 <- inception_5a/output_inception_5a/output_0_split_0
I1125 19:43:14.310467 18938 net.cpp:411] inception_5b/1x1 -> inception_5b/1x1
I1125 19:43:14.314131 18938 net.cpp:150] Setting up inception_5b/1x1
I1125 19:43:14.314147 18938 net.cpp:157] Top shape: 64 384 7 7 (1204224)
I1125 19:43:14.314152 18938 net.cpp:165] Memory required for data: 3538718216
I1125 19:43:14.314157 18938 layer_factory.hpp:76] Creating layer inception_5b/relu_1x1
I1125 19:43:14.314163 18938 net.cpp:106] Creating Layer inception_5b/relu_1x1
I1125 19:43:14.314168 18938 net.cpp:454] inception_5b/relu_1x1 <- inception_5b/1x1
I1125 19:43:14.314173 18938 net.cpp:397] inception_5b/relu_1x1 -> inception_5b/1x1 (in-place)
I1125 19:43:14.314498 18938 net.cpp:150] Setting up inception_5b/relu_1x1
I1125 19:43:14.314512 18938 net.cpp:157] Top shape: 64 384 7 7 (1204224)
I1125 19:43:14.314517 18938 net.cpp:165] Memory required for data: 3543535112
I1125 19:43:14.314519 18938 layer_factory.hpp:76] Creating layer inception_5b/3x3_reduce
I1125 19:43:14.314528 18938 net.cpp:106] Creating Layer inception_5b/3x3_reduce
I1125 19:43:14.314532 18938 net.cpp:454] inception_5b/3x3_reduce <- inception_5a/output_inception_5a/output_0_split_1
I1125 19:43:14.314539 18938 net.cpp:411] inception_5b/3x3_reduce -> inception_5b/3x3_reduce
I1125 19:43:14.317137 18938 net.cpp:150] Setting up inception_5b/3x3_reduce
I1125 19:43:14.317152 18938 net.cpp:157] Top shape: 64 192 7 7 (602112)
I1125 19:43:14.317155 18938 net.cpp:165] Memory required for data: 3545943560
I1125 19:43:14.317162 18938 layer_factory.hpp:76] Creating layer inception_5b/relu_3x3_reduce
I1125 19:43:14.317168 18938 net.cpp:106] Creating Layer inception_5b/relu_3x3_reduce
I1125 19:43:14.317174 18938 net.cpp:454] inception_5b/relu_3x3_reduce <- inception_5b/3x3_reduce
I1125 19:43:14.317179 18938 net.cpp:397] inception_5b/relu_3x3_reduce -> inception_5b/3x3_reduce (in-place)
I1125 19:43:14.317369 18938 net.cpp:150] Setting up inception_5b/relu_3x3_reduce
I1125 19:43:14.317380 18938 net.cpp:157] Top shape: 64 192 7 7 (602112)
I1125 19:43:14.317384 18938 net.cpp:165] Memory required for data: 3548352008
I1125 19:43:14.317386 18938 layer_factory.hpp:76] Creating layer inception_5b/3x3
I1125 19:43:14.317396 18938 net.cpp:106] Creating Layer inception_5b/3x3
I1125 19:43:14.317400 18938 net.cpp:454] inception_5b/3x3 <- inception_5b/3x3_reduce
I1125 19:43:14.317406 18938 net.cpp:411] inception_5b/3x3 -> inception_5b/3x3
I1125 19:43:14.323690 18938 net.cpp:150] Setting up inception_5b/3x3
I1125 19:43:14.323706 18938 net.cpp:157] Top shape: 64 384 7 7 (1204224)
I1125 19:43:14.323710 18938 net.cpp:165] Memory required for data: 3553168904
I1125 19:43:14.323717 18938 layer_factory.hpp:76] Creating layer inception_5b/relu_3x3
I1125 19:43:14.323743 18938 net.cpp:106] Creating Layer inception_5b/relu_3x3
I1125 19:43:14.323750 18938 net.cpp:454] inception_5b/relu_3x3 <- inception_5b/3x3
I1125 19:43:14.323755 18938 net.cpp:397] inception_5b/relu_3x3 -> inception_5b/3x3 (in-place)
I1125 19:43:14.324113 18938 net.cpp:150] Setting up inception_5b/relu_3x3
I1125 19:43:14.324127 18938 net.cpp:157] Top shape: 64 384 7 7 (1204224)
I1125 19:43:14.324131 18938 net.cpp:165] Memory required for data: 3557985800
I1125 19:43:14.324136 18938 layer_factory.hpp:76] Creating layer inception_5b/5x5_reduce
I1125 19:43:14.324146 18938 net.cpp:106] Creating Layer inception_5b/5x5_reduce
I1125 19:43:14.324151 18938 net.cpp:454] inception_5b/5x5_reduce <- inception_5a/output_inception_5a/output_0_split_2
I1125 19:43:14.324156 18938 net.cpp:411] inception_5b/5x5_reduce -> inception_5b/5x5_reduce
I1125 19:43:14.325875 18938 net.cpp:150] Setting up inception_5b/5x5_reduce
I1125 19:43:14.325889 18938 net.cpp:157] Top shape: 64 48 7 7 (150528)
I1125 19:43:14.325893 18938 net.cpp:165] Memory required for data: 3558587912
I1125 19:43:14.325899 18938 layer_factory.hpp:76] Creating layer inception_5b/relu_5x5_reduce
I1125 19:43:14.325906 18938 net.cpp:106] Creating Layer inception_5b/relu_5x5_reduce
I1125 19:43:14.325911 18938 net.cpp:454] inception_5b/relu_5x5_reduce <- inception_5b/5x5_reduce
I1125 19:43:14.325916 18938 net.cpp:397] inception_5b/relu_5x5_reduce -> inception_5b/5x5_reduce (in-place)
I1125 19:43:14.326266 18938 net.cpp:150] Setting up inception_5b/relu_5x5_reduce
I1125 19:43:14.326278 18938 net.cpp:157] Top shape: 64 48 7 7 (150528)
I1125 19:43:14.326282 18938 net.cpp:165] Memory required for data: 3559190024
I1125 19:43:14.326285 18938 layer_factory.hpp:76] Creating layer inception_5b/5x5
I1125 19:43:14.326295 18938 net.cpp:106] Creating Layer inception_5b/5x5
I1125 19:43:14.326299 18938 net.cpp:454] inception_5b/5x5 <- inception_5b/5x5_reduce
I1125 19:43:14.326306 18938 net.cpp:411] inception_5b/5x5 -> inception_5b/5x5
I1125 19:43:14.328505 18938 net.cpp:150] Setting up inception_5b/5x5
I1125 19:43:14.328519 18938 net.cpp:157] Top shape: 64 128 7 7 (401408)
I1125 19:43:14.328523 18938 net.cpp:165] Memory required for data: 3560795656
I1125 19:43:14.328529 18938 layer_factory.hpp:76] Creating layer inception_5b/relu_5x5
I1125 19:43:14.328537 18938 net.cpp:106] Creating Layer inception_5b/relu_5x5
I1125 19:43:14.328541 18938 net.cpp:454] inception_5b/relu_5x5 <- inception_5b/5x5
I1125 19:43:14.328548 18938 net.cpp:397] inception_5b/relu_5x5 -> inception_5b/5x5 (in-place)
I1125 19:43:14.328732 18938 net.cpp:150] Setting up inception_5b/relu_5x5
I1125 19:43:14.328743 18938 net.cpp:157] Top shape: 64 128 7 7 (401408)
I1125 19:43:14.328747 18938 net.cpp:165] Memory required for data: 3562401288
I1125 19:43:14.328750 18938 layer_factory.hpp:76] Creating layer inception_5b/pool
I1125 19:43:14.328757 18938 net.cpp:106] Creating Layer inception_5b/pool
I1125 19:43:14.328760 18938 net.cpp:454] inception_5b/pool <- inception_5a/output_inception_5a/output_0_split_3
I1125 19:43:14.328768 18938 net.cpp:411] inception_5b/pool -> inception_5b/pool
I1125 19:43:14.329150 18938 net.cpp:150] Setting up inception_5b/pool
I1125 19:43:14.329164 18938 net.cpp:157] Top shape: 64 832 7 7 (2609152)
I1125 19:43:14.329167 18938 net.cpp:165] Memory required for data: 3572837896
I1125 19:43:14.329170 18938 layer_factory.hpp:76] Creating layer inception_5b/pool_proj
I1125 19:43:14.329180 18938 net.cpp:106] Creating Layer inception_5b/pool_proj
I1125 19:43:14.329185 18938 net.cpp:454] inception_5b/pool_proj <- inception_5b/pool
I1125 19:43:14.329191 18938 net.cpp:411] inception_5b/pool_proj -> inception_5b/pool_proj
I1125 19:43:14.331472 18938 net.cpp:150] Setting up inception_5b/pool_proj
I1125 19:43:14.331487 18938 net.cpp:157] Top shape: 64 128 7 7 (401408)
I1125 19:43:14.331491 18938 net.cpp:165] Memory required for data: 3574443528
I1125 19:43:14.331497 18938 layer_factory.hpp:76] Creating layer inception_5b/relu_pool_proj
I1125 19:43:14.331504 18938 net.cpp:106] Creating Layer inception_5b/relu_pool_proj
I1125 19:43:14.331508 18938 net.cpp:454] inception_5b/relu_pool_proj <- inception_5b/pool_proj
I1125 19:43:14.331516 18938 net.cpp:397] inception_5b/relu_pool_proj -> inception_5b/pool_proj (in-place)
I1125 19:43:14.331725 18938 net.cpp:150] Setting up inception_5b/relu_pool_proj
I1125 19:43:14.331740 18938 net.cpp:157] Top shape: 64 128 7 7 (401408)
I1125 19:43:14.331743 18938 net.cpp:165] Memory required for data: 3576049160
I1125 19:43:14.331748 18938 layer_factory.hpp:76] Creating layer inception_5b/output
I1125 19:43:14.331753 18938 net.cpp:106] Creating Layer inception_5b/output
I1125 19:43:14.331758 18938 net.cpp:454] inception_5b/output <- inception_5b/1x1
I1125 19:43:14.331763 18938 net.cpp:454] inception_5b/output <- inception_5b/3x3
I1125 19:43:14.331766 18938 net.cpp:454] inception_5b/output <- inception_5b/5x5
I1125 19:43:14.331770 18938 net.cpp:454] inception_5b/output <- inception_5b/pool_proj
I1125 19:43:14.331774 18938 net.cpp:411] inception_5b/output -> inception_5b/output
I1125 19:43:14.331817 18938 net.cpp:150] Setting up inception_5b/output
I1125 19:43:14.331830 18938 net.cpp:157] Top shape: 64 1024 7 7 (3211264)
I1125 19:43:14.331833 18938 net.cpp:165] Memory required for data: 3588894216
I1125 19:43:14.331836 18938 layer_factory.hpp:76] Creating layer pool5/7x7_s1
I1125 19:43:14.331843 18938 net.cpp:106] Creating Layer pool5/7x7_s1
I1125 19:43:14.331846 18938 net.cpp:454] pool5/7x7_s1 <- inception_5b/output
I1125 19:43:14.331851 18938 net.cpp:411] pool5/7x7_s1 -> pool5/7x7_s1
I1125 19:43:14.332226 18938 net.cpp:150] Setting up pool5/7x7_s1
I1125 19:43:14.332240 18938 net.cpp:157] Top shape: 64 1024 1 1 (65536)
I1125 19:43:14.332243 18938 net.cpp:165] Memory required for data: 3589156360
I1125 19:43:14.332247 18938 layer_factory.hpp:76] Creating layer pool5/drop_7x7_s1
I1125 19:43:14.332255 18938 net.cpp:106] Creating Layer pool5/drop_7x7_s1
I1125 19:43:14.332259 18938 net.cpp:454] pool5/drop_7x7_s1 <- pool5/7x7_s1
I1125 19:43:14.332264 18938 net.cpp:397] pool5/drop_7x7_s1 -> pool5/7x7_s1 (in-place)
I1125 19:43:14.332304 18938 net.cpp:150] Setting up pool5/drop_7x7_s1
I1125 19:43:14.332309 18938 net.cpp:157] Top shape: 64 1024 1 1 (65536)
I1125 19:43:14.332312 18938 net.cpp:165] Memory required for data: 3589418504
I1125 19:43:14.332315 18938 layer_factory.hpp:76] Creating layer loss3/classifier-attribute
I1125 19:43:14.332322 18938 net.cpp:106] Creating Layer loss3/classifier-attribute
I1125 19:43:14.332326 18938 net.cpp:454] loss3/classifier-attribute <- pool5/7x7_s1
I1125 19:43:14.332332 18938 net.cpp:411] loss3/classifier-attribute -> loss3/classifier-attribute
I1125 19:43:14.332521 18938 net.cpp:150] Setting up loss3/classifier-attribute
I1125 19:43:14.332531 18938 net.cpp:157] Top shape: 64 5 (320)
I1125 19:43:14.332535 18938 net.cpp:165] Memory required for data: 3589419784
I1125 19:43:14.332540 18938 layer_factory.hpp:76] Creating layer loss3/loss3
I1125 19:43:14.332547 18938 net.cpp:106] Creating Layer loss3/loss3
I1125 19:43:14.332551 18938 net.cpp:454] loss3/loss3 <- loss3/classifier-attribute
I1125 19:43:14.332556 18938 net.cpp:454] loss3/loss3 <- label_data_1_split_2
I1125 19:43:14.332561 18938 net.cpp:411] loss3/loss3 -> loss3/loss3
…
I1125 19:43:14.339591 18938 net.cpp:322] The NetState phase (1) differed from the phase (0) specified by a rule in layer data
I1125 19:43:14.341455 18938 net.cpp:49] Initializing net from parameters: 
name: "GoogleNet-finetune-for-cigit"
state {
  phase: TEST
}
layer {
  name: "data"
  type: "ImageData"
  top: "data"
  top: "label"
  include {
    phase: TEST
  }
  transform_param {
    mirror: false
    crop_size: 224
    mean_value: 104
    mean_value: 117
    mean_value: 123
  }
  image_data_param {
    source: "pad_test.txt"
    batch_size: 64
    new_height: 256
    new_width: 256
  }
}
layer {
  name: "conv1/7x7_s2"
  type: "Convolution"
  bottom: "data"
  top: "conv1/7x7_s2"
  param {
    lr_mult: 1
    decay_mult: 1
  }
  param {
    lr_mult: 2
    decay_mult: 0
  }
  convolution_param {
    num_output: 64
    pad: 3
    kernel_size: 7
    stride: 2
    weight_filler {
      type: "xavier"
    }
    bias_filler {
      type: "constant"
      value: 0.2
    }
  }
}
layer {
  name: "conv1/relu_7x7"
  type: "ReLU"
  bottom: "conv1/7x7_s2"
  top: "conv1/7x7_s2"
}
layer {
  name: "pool1/3x3_s2"
  type: "Pooling"
  bottom: "conv1/7x7_s2"
  top: "pool1/3x3_s2"
  pooling_param {
    pool: MAX
    kernel_size: 3
    stride: 2
  }
}
layer {
  name: "pool1/norm1"
  type: "LRN"
  bottom: "pool1/3x3_s2"
  top: "pool1/norm1"
  lrn_param {
    local_size: 5
    alpha: 0.0001
    beta: 0.75
  }
}
layer {
  name: "conv2/3x3_reduce"
  type: "Convolution"
  bottom: "pool1/norm1"
  top: "conv2/3x3_reduce"
  param {
    lr_mult: 1
    decay_mult: 1
  }
  param {
    lr_mult: 2
    decay_mult: 0
  }
  convolution_param {
    num_output: 64
    kernel_size: 1
    weight_filler {
      type: "xavier"
    }
    bias_filler {
      type: "constant"
      value: 0.2
    }
  }
}
layer {
  name: "conv2/relu_3x3_reduce"
  type: "ReLU"
  bottom: "conv2/3x3_reduce"
  top: "conv2/3x3_reduce"
}
layer {
  name: "conv2/3x3"
  type: "Convolution"
  bottom: "conv2/3x3_reduce"
  top: "conv2/3x3"
  param {
    lr_mult: 1
    decay_mult: 1
  }
  param {
    lr_mult: 2
    decay_mult: 0
  }
  convolution_param {
    num_output: 192
    pad: 1
    kernel_size: 3
    weight_filler {
      type: "xavier"
    }
    bias_filler {
      type: "constant"
      value: 0.2
    }
  }
}
layer {
  name: "conv2/relu_3x3"
  type: "ReLU"
  bottom: "conv2/3x3"
  top: "conv2/3x3"
}
layer {
  name: "conv2/norm2"
  type: "LRN"
  bottom: "conv2/3x3"
  top: "conv2/norm2"
  lrn_param {
    local_size: 5
    alpha: 0.0001
    beta: 0.75
  }
}
layer {
  name: "pool2/3x3_s2"
  type: "Pooling"
  bottom: "conv2/norm2"
  top: "pool2/3x3_s2"
  pooling_param {
    pool: MAX
    kernel_size: 3
    stride: 2
  }
}
layer {
  name: "inception_3a/1x1"
  type: "Convolution"
  bottom: "pool2/3x3_s2"
  top: "inception_3a/1x1"
  param {
    lr_mult: 1
    decay_mult: 1
  }
  param {
    lr_mult: 2
    decay_mult: 0
  }
  convolution_param {
    num_output: 64
    kernel_size: 1
    weight_filler {
      type: "xavier"
    }
    bias_filler {
      type: "constant"
      value: 0.2
    }
  }
}
layer {
  name: "inception_3a/relu_1x1"
  type: "ReLU"
  bottom: "inception_3a/1x1"
  top: "inception_3a/1x1"
}
layer {
  name: "inception_3a/3x3_reduce"
  type: "Convolution"
  bottom: "pool2/3x3_s2"
  top: "inception_3a/3x3_reduce"
  param {
    lr_mult: 1
    decay_mult: 1
  }
  param {
    lr_mult: 2
    decay_mult: 0
  }
  convolution_param {
    num_output: 96
    kernel_size: 1
    weight_filler {
      type: "xavier"
    }
    bias_filler {
      type: "constant"
      value: 0.2
    }
  }
}
layer {
  name: "inception_3a/relu_3x3_reduce"
  type: "ReLU"
  bottom: "inception_3a/3x3_reduce"
  top: "inception_3a/3x3_reduce"
}
layer {
  name: "inception_3a/3x3"
  type: "Convolution"
  bottom: "inception_3a/3x3_reduce"
  top: "inception_3a/3x3"
  param {
    lr_mult: 1
    decay_mult: 1
  }
  param {
    lr_mult: 2
    decay_mult: 0
  }
  convolution_param {
    num_output: 128
    pad: 1
    kernel_size: 3
    weight_filler {
      type: "xavier"
    }
    bias_filler {
      type: "constant"
      value: 0.2
    }
  }
}
layer {
  name: "inception_3a/relu_3x3"
  type: "ReLU"
  bottom: "inception_3a/3x3"
  top: "inception_3a/3x3"
}
layer {
  name: "inception_3a/5x5_reduce"
  type: "Convolution"
  bottom: "pool2/3x3_s2"
  top: "inception_3a/5x5_reduce"
  param {
    lr_mult: 1
    decay_mult: 1
  }
  param {
    lr_mult: 2
    decay_mult: 0
  }
  convolution_param {
    num_output: 16
    kernel_size: 1
    weight_filler {
      type: "xavier"
    }
    bias_filler {
      type: "constant"
      value: 0.2
    }
  }
}
layer {
  name: "inception_3a/relu_5x5_reduce"
  type: "ReLU"
  bottom: "inception_3a/5x5_reduce"
  top: "inception_3a/5x5_reduce"
}
layer {
  name: "inception_3a/5x5"
  type: "Convolution"
  bottom: "inception_3a/5x5_reduce"
  top: "inception_3a/5x5"
  param {
    lr_mult: 1
    decay_mult: 1
  }
  param {
    lr_mult: 2
    decay_mult: 0
  }
  convolution_param {
    num_output: 32
    pad: 2
    kernel_size: 5
    weight_filler {
      type: "xavier"
    }
    bias_filler {
      type: "constant"
      value: 0.2
    }
  }
}
layer {
  name: "inception_3a/relu_5x5"
  type: "ReLU"
  bottom: "inception_3a/5x5"
  top: "inception_3a/5x5"
}
layer {
  name: "inception_3a/pool"
  type: "Pooling"
  bottom: "pool2/3x3_s2"
  top: "inception_3a/pool"
  pooling_param {
    pool: MAX
    kernel_size: 3
    stride: 1
    pad: 1
  }
}
layer {
  name: "inception_3a/pool_proj"
  type: "Convolution"
  bottom: "inception_3a/pool"
  top: "inception_3a/pool_proj"
  param {
    lr_mult: 1
    decay_mult: 1
  }
  param {
    lr_mult: 2
    decay_mult: 0
  }
  convolution_param {
    num_output: 32
    kernel_size: 1
    weight_filler {
      type: "xavier"
    }
    bias_filler {
      type: "constant"
      value: 0.2
    }
  }
}
layer {
  name: "inception_3a/relu_pool_proj"
  type: "ReLU"
  bottom: "inception_3a/pool_proj"
  top: "inception_3a/pool_proj"
}
layer {
  name: "inception_3a/output"
  type: "Concat"
  bottom: "inception_3a/1x1"
  bottom: "inception_3a/3x3"
  bottom: "inception_3a/5x5"
  bottom: "inception_3a/pool_proj"
  top: "inception_3a/output"
}
layer {
  name: "inception_3b/1x1"
  type: "Convolution"
  bottom: "inception_3a/output"
  top: "inception_3b/1x1"
  param {
    lr_mult: 1
    decay_mult: 1
  }
  param {
    lr_mult: 2
    decay_mult: 0
  }
  convolution_param {
    num_output: 128
    kernel_size: 1
    weight_filler {
      type: "xavier"
    }
    bias_filler {
      type: "constant"
      value: 0.2
    }
  }
}
layer {
  name: "inception_3b/relu_1x1"
  type: "ReLU"
  bottom: "inception_3b/1x1"
  top: "inception_3b/1x1"
}
layer {
  name: "inception_3b/3x3_reduce"
  type: "Convolution"
  bottom: "inception_3a/output"
  top: "inception_3b/3x3_reduce"
  param {
    lr_mult: 1
    decay_mult: 1
  }
  param {
    lr_mult: 2
    decay_mult: 0
  }
  convolution_param {
    num_output: 128
    kernel_size: 1
    weight_filler {
      type: "xavier"
    }
    bias_filler {
      type: "constant"
      value: 0.2
    }
  }
}
layer {
  name: "inception_3b/relu_3x3_reduce"
  type: "ReLU"
  bottom: "inception_3b/3x3_reduce"
  top: "inception_3b/3x3_reduce"
}
layer {
  name: "inception_3b/3x3"
  type: "Convolution"
  bottom: "inception_3b/3x3_reduce"
  top: "inception_3b/3x3"
  param {
    lr_mult: 1
    decay_mult: 1
  }
  param {
    lr_mult: 2
    decay_mult: 0
  }
  convolution_param {
    num_output: 192
    pad: 1
    kernel_size: 3
    weight_filler {
      type: "xavier"
    }
    bias_filler {
      type: "constant"
      value: 0.2
    }
  }
}
layer {
  name: "inception_3b/relu_3x3"
  type: "ReLU"
  bottom: "inception_3b/3x3"
  top: "inception_3b/3x3"
}
layer {
  name: "inception_3b/5x5_reduce"
  type: "Convolution"
  bottom: "inception_3a/output"
  top: "inception_3b/5x5_reduce"
  param {
    lr_mult: 1
    decay_mult: 1
  }
  param {
    lr_mult: 2
    decay_mult: 0
  }
  convolution_param {
    num_output: 32
    kernel_size: 1
    weight_filler {
      type: "xavier"
    }
    bias_filler {
      type: "constant"
      value: 0.2
    }
  }
}
layer {
  name: "inception_3b/relu_5x5_reduce"
  type: "ReLU"
  bottom: "inception_3b/5x5_reduce"
  top: "inception_3b/5x5_reduce"
}
layer {
  name: "inception_3b/5x5"
  type: "Convolution"
  bottom: "inception_3b/5x5_reduce"
  top: "inception_3b/5x5"
  param {
    lr_mult: 1
    decay_mult: 1
  }
  param {
    lr_mult: 2
    decay_mult: 0
  }
  convolution_param {
    num_output: 96
    pad: 2
    kernel_size: 5
    weight_filler {
      type: "xavier"
    }
    bias_filler {
      type: "constant"
      value: 0.2
    }
  }
}
layer {
  name: "inception_3b/relu_5x5"
  type: "ReLU"
  bottom: "inception_3b/5x5"
  top: "inception_3b/5x5"
}
layer {
  name: "inception_3b/pool"
  type: "Pooling"
  bottom: "inception_3a/output"
  top: "inception_3b/pool"
  pooling_param {
    pool: MAX
    kernel_size: 3
    stride: 1
    pad: 1
  }
}
layer {
  name: "inception_3b/pool_proj"
  type: "Convolution"
  bottom: "inception_3b/pool"
  top: "inception_3b/pool_proj"
  param {
    lr_mult: 1
    decay_mult: 1
  }
  param {
    lr_mult: 2
    decay_mult: 0
  }
  convolution_param {
    num_output: 64
    kernel_size: 1
    weight_filler {
      type: "xavier"
    }
    bias_filler {
      type: "constant"
      value: 0.2
    }
  }
}
layer {
  name: "inception_3b/relu_pool_proj"
  type: "ReLU"
  bottom: "inception_3b/pool_proj"
  top: "inception_3b/pool_proj"
}
layer {
  name: "inception_3b/output"
  type: "Concat"
  bottom: "inception_3b/1x1"
  bottom: "inception_3b/3x3"
  bottom: "inception_3b/5x5"
  bottom: "inception_3b/pool_proj"
  top: "inception_3b/output"
}
layer {
  name: "pool3/3x3_s2"
  type: "Pooling"
  bottom: "inception_3b/output"
  top: "pool3/3x3_s2"
  pooling_param {
    pool: MAX
    kernel_size: 3
    stride: 2
  }
}
layer {
  name: "inception_4a/1x1"
  type: "Convolution"
  bottom: "pool3/3x3_s2"
  top: "inception_4a/1x1"
  param {
    lr_mult: 1
    decay_mult: 1
  }
  param {
    lr_mult: 2
    decay_mult: 0
  }
  convolution_param {
    num_output: 192
    kernel_size: 1
    weight_filler {
      type: "xavier"
    }
    bias_filler {
      type: "constant"
      value: 0.2
    }
  }
}
layer {
  name: "inception_4a/relu_1x1"
  type: "ReLU"
  bottom: "inception_4a/1x1"
  top: "inception_4a/1x1"
}
layer {
  name: "inception_4a/3x3_reduce"
  type: "Convolution"
  bottom: "pool3/3x3_s2"
  top: "inception_4a/3x3_reduce"
  param {
    lr_mult: 1
    decay_mult: 1
  }
  param {
    lr_mult: 2
    decay_mult: 0
  }
  convolution_param {
    num_output: 96
    kernel_size: 1
    weight_filler {
      type: "xavier"
    }
    bias_filler {
      type: "constant"
      value: 0.2
    }
  }
}
layer {
  name: "inception_4a/relu_3x3_reduce"
  type: "ReLU"
  bottom: "inception_4a/3x3_reduce"
  top: "inception_4a/3x3_reduce"
}
layer {
  name: "inception_4a/3x3"
  type: "Convolution"
  bottom: "inception_4a/3x3_reduce"
  top: "inception_4a/3x3"
  param {
    lr_mult: 1
    decay_mult: 1
  }
  param {
    lr_mult: 2
    decay_mult: 0
  }
  convolution_param {
    num_output: 208
    pad: 1
    kernel_size: 3
    weight_filler {
      type: "xavier"
    }
    bias_filler {
      type: "constant"
      value: 0.2
    }
  }
}
layer {
  name: "inception_4a/relu_3x3"
  type: "ReLU"
  bottom: "inception_4a/3x3"
  top: "inception_4a/3x3"
}
layer {
  name: "inception_4a/5x5_reduce"
  type: "Convolution"
  bottom: "pool3/3x3_s2"
  top: "inception_4a/5x5_reduce"
  param {
    lr_mult: 1
    decay_mult: 1
  }
  param {
    lr_mult: 2
    decay_mult: 0
  }
  convolution_param {
    num_output: 16
    kernel_size: 1
    weight_filler {
      type: "xavier"
    }
    bias_filler {
      type: "constant"
      value: 0.2
    }
  }
}
layer {
  name: "inception_4a/relu_5x5_reduce"
  type: "ReLU"
  bottom: "inception_4a/5x5_reduce"
  top: "inception_4a/5x5_reduce"
}
layer {
  name: "inception_4a/5x5"
  type: "Convolution"
  bottom: "inception_4a/5x5_reduce"
  top: "inception_4a/5x5"
  param {
    lr_mult: 1
    decay_mult: 1
  }
  param {
    lr_mult: 2
    decay_mult: 0
  }
  convolution_param {
    num_output: 48
    pad: 2
    kernel_size: 5
    weight_filler {
      type: "xavier"
    }
    bias_filler {
      type: "constant"
      value: 0.2
    }
  }
}
layer {
  name: "inception_4a/relu_5x5"
  type: "ReLU"
  bottom: "inception_4a/5x5"
  top: "inception_4a/5x5"
}
layer {
  name: "inception_4a/pool"
  type: "Pooling"
  bottom: "pool3/3x3_s2"
  top: "inception_4a/pool"
  pooling_param {
    pool: MAX
    kernel_size: 3
    stride: 1
    pad: 1
  }
}
layer {
  name: "inception_4a/pool_proj"
  type: "Convolution"
  bottom: "inception_4a/pool"
  top: "inception_4a/pool_proj"
  param {
    lr_mult: 1
    decay_mult: 1
  }
  param {
    lr_mult: 2
    decay_mult: 0
  }
  convolution_param {
    num_output: 64
    kernel_size: 1
    weight_filler {
      type: "xavier"
    }
    bias_filler {
      type: "constant"
      value: 0.2
    }
  }
}
layer {
  name: "inception_4a/relu_pool_proj"
  type: "ReLU"
  bottom: "inception_4a/pool_proj"
  top: "inception_4a/pool_proj"
}
layer {
  name: "inception_4a/output"
  type: "Concat"
  bottom: "inception_4a/1x1"
  bottom: "inception_4a/3x3"
  bottom: "inception_4a/5x5"
  bottom: "inception_4a/pool_proj"
  top: "inception_4a/output"
}
layer {
  name: "loss1/ave_pool"
  type: "Pooling"
  bottom: "inception_4a/output"
  top: "loss1/ave_pool"
  pooling_param {
    pool: AVE
    kernel_size: 5
    stride: 3
  }
}
layer {
  name: "loss1/conv"
  type: "Convolution"
  bottom: "loss1/ave_pool"
  top: "loss1/conv"
  param {
    lr_mult: 1
    decay_mult: 1
  }
  param {
    lr_mult: 2
    decay_mult: 0
  }
  convolution_param {
    num_output: 128
    kernel_size: 1
    weight_filler {
      type: "xavier"
    }
    bias_filler {
      type: "constant"
      value: 0.2
    }
  }
}
layer {
  name: "loss1/relu_conv"
  type: "ReLU"
  bottom: "loss1/conv"
  top: "loss1/conv"
}
layer {
  name: "loss1/fc"
  type: "InnerProduct"
  bottom: "loss1/conv"
  top: "loss1/fc"
  param {
    lr_mult: 1
    decay_mult: 1
  }
  param {
    lr_mult: 2
    decay_mult: 0
  }
  inner_product_param {
…
I1125 19:43:14.516538 18938 layer_factory.hpp:76] Creating layer inception_4c/pool
I1125 19:43:14.516546 18938 net.cpp:106] Creating Layer inception_4c/pool
I1125 19:43:14.516549 18938 net.cpp:454] inception_4c/pool <- inception_4b/output_inception_4b/output_0_split_3
I1125 19:43:14.516554 18938 net.cpp:411] inception_4c/pool -> inception_4c/pool
I1125 19:43:14.516851 18938 net.cpp:150] Setting up inception_4c/pool
I1125 19:43:14.516863 18938 net.cpp:157] Top shape: 64 512 14 14 (6422528)
I1125 19:43:14.516866 18938 net.cpp:165] Memory required for data: 2828244488
I1125 19:43:14.516870 18938 layer_factory.hpp:76] Creating layer inception_4c/pool_proj
I1125 19:43:14.516880 18938 net.cpp:106] Creating Layer inception_4c/pool_proj
I1125 19:43:14.516883 18938 net.cpp:454] inception_4c/pool_proj <- inception_4c/pool
I1125 19:43:14.516891 18938 net.cpp:411] inception_4c/pool_proj -> inception_4c/pool_proj
I1125 19:43:14.518431 18938 net.cpp:150] Setting up inception_4c/pool_proj
I1125 19:43:14.518446 18938 net.cpp:157] Top shape: 64 64 14 14 (802816)
I1125 19:43:14.518450 18938 net.cpp:165] Memory required for data: 2831455752
I1125 19:43:14.518456 18938 layer_factory.hpp:76] Creating layer inception_4c/relu_pool_proj
I1125 19:43:14.518466 18938 net.cpp:106] Creating Layer inception_4c/relu_pool_proj
I1125 19:43:14.518471 18938 net.cpp:454] inception_4c/relu_pool_proj <- inception_4c/pool_proj
I1125 19:43:14.518476 18938 net.cpp:397] inception_4c/relu_pool_proj -> inception_4c/pool_proj (in-place)
I1125 19:43:14.518844 18938 net.cpp:150] Setting up inception_4c/relu_pool_proj
I1125 19:43:14.518858 18938 net.cpp:157] Top shape: 64 64 14 14 (802816)
I1125 19:43:14.518862 18938 net.cpp:165] Memory required for data: 2834667016
I1125 19:43:14.518865 18938 layer_factory.hpp:76] Creating layer inception_4c/output
I1125 19:43:14.518872 18938 net.cpp:106] Creating Layer inception_4c/output
I1125 19:43:14.518877 18938 net.cpp:454] inception_4c/output <- inception_4c/1x1
I1125 19:43:14.518882 18938 net.cpp:454] inception_4c/output <- inception_4c/3x3
I1125 19:43:14.518885 18938 net.cpp:454] inception_4c/output <- inception_4c/5x5
I1125 19:43:14.518889 18938 net.cpp:454] inception_4c/output <- inception_4c/pool_proj
I1125 19:43:14.518893 18938 net.cpp:411] inception_4c/output -> inception_4c/output
I1125 19:43:14.518949 18938 net.cpp:150] Setting up inception_4c/output
I1125 19:43:14.518955 18938 net.cpp:157] Top shape: 64 512 14 14 (6422528)
I1125 19:43:14.518959 18938 net.cpp:165] Memory required for data: 2860357128
I1125 19:43:14.518961 18938 layer_factory.hpp:76] Creating layer inception_4c/output_inception_4c/output_0_split
I1125 19:43:14.518966 18938 net.cpp:106] Creating Layer inception_4c/output_inception_4c/output_0_split
I1125 19:43:14.518970 18938 net.cpp:454] inception_4c/output_inception_4c/output_0_split <- inception_4c/output
I1125 19:43:14.518976 18938 net.cpp:411] inception_4c/output_inception_4c/output_0_split -> inception_4c/output_inception_4c/output_0_split_0
I1125 19:43:14.518982 18938 net.cpp:411] inception_4c/output_inception_4c/output_0_split -> inception_4c/output_inception_4c/output_0_split_1
I1125 19:43:14.518988 18938 net.cpp:411] inception_4c/output_inception_4c/output_0_split -> inception_4c/output_inception_4c/output_0_split_2
I1125 19:43:14.518993 18938 net.cpp:411] inception_4c/output_inception_4c/output_0_split -> inception_4c/output_inception_4c/output_0_split_3
I1125 19:43:14.519103 18938 net.cpp:150] Setting up inception_4c/output_inception_4c/output_0_split
I1125 19:43:14.519110 18938 net.cpp:157] Top shape: 64 512 14 14 (6422528)
I1125 19:43:14.519115 18938 net.cpp:157] Top shape: 64 512 14 14 (6422528)
I1125 19:43:14.519119 18938 net.cpp:157] Top shape: 64 512 14 14 (6422528)
I1125 19:43:14.519121 18938 net.cpp:157] Top shape: 64 512 14 14 (6422528)
I1125 19:43:14.519124 18938 net.cpp:165] Memory required for data: 2963117576
I1125 19:43:14.519127 18938 layer_factory.hpp:76] Creating layer inception_4d/1x1
I1125 19:43:14.519137 18938 net.cpp:106] Creating Layer inception_4d/1x1
I1125 19:43:14.519140 18938 net.cpp:454] inception_4d/1x1 <- inception_4c/output_inception_4c/output_0_split_0
I1125 19:43:14.519146 18938 net.cpp:411] inception_4d/1x1 -> inception_4d/1x1
I1125 19:43:14.520709 18938 net.cpp:150] Setting up inception_4d/1x1
I1125 19:43:14.520725 18938 net.cpp:157] Top shape: 64 112 14 14 (1404928)
I1125 19:43:14.520730 18938 net.cpp:165] Memory required for data: 2968737288
I1125 19:43:14.520735 18938 layer_factory.hpp:76] Creating layer inception_4d/relu_1x1
I1125 19:43:14.520741 18938 net.cpp:106] Creating Layer inception_4d/relu_1x1
I1125 19:43:14.520745 18938 net.cpp:454] inception_4d/relu_1x1 <- inception_4d/1x1
I1125 19:43:14.520753 18938 net.cpp:397] inception_4d/relu_1x1 -> inception_4d/1x1 (in-place)
I1125 19:43:14.521116 18938 net.cpp:150] Setting up inception_4d/relu_1x1
I1125 19:43:14.521131 18938 net.cpp:157] Top shape: 64 112 14 14 (1404928)
I1125 19:43:14.521134 18938 net.cpp:165] Memory required for data: 2974357000
I1125 19:43:14.521137 18938 layer_factory.hpp:76] Creating layer inception_4d/3x3_reduce
I1125 19:43:14.521147 18938 net.cpp:106] Creating Layer inception_4d/3x3_reduce
I1125 19:43:14.521152 18938 net.cpp:454] inception_4d/3x3_reduce <- inception_4c/output_inception_4c/output_0_split_1
I1125 19:43:14.521157 18938 net.cpp:411] inception_4d/3x3_reduce -> inception_4d/3x3_reduce
I1125 19:43:14.523001 18938 net.cpp:150] Setting up inception_4d/3x3_reduce
I1125 19:43:14.523016 18938 net.cpp:157] Top shape: 64 144 14 14 (1806336)
I1125 19:43:14.523020 18938 net.cpp:165] Memory required for data: 2981582344
I1125 19:43:14.523026 18938 layer_factory.hpp:76] Creating layer inception_4d/relu_3x3_reduce
I1125 19:43:14.523032 18938 net.cpp:106] Creating Layer inception_4d/relu_3x3_reduce
I1125 19:43:14.523036 18938 net.cpp:454] inception_4d/relu_3x3_reduce <- inception_4d/3x3_reduce
I1125 19:43:14.523043 18938 net.cpp:397] inception_4d/relu_3x3_reduce -> inception_4d/3x3_reduce (in-place)
I1125 19:43:14.523249 18938 net.cpp:150] Setting up inception_4d/relu_3x3_reduce
I1125 19:43:14.523262 18938 net.cpp:157] Top shape: 64 144 14 14 (1806336)
I1125 19:43:14.523265 18938 net.cpp:165] Memory required for data: 2988807688
I1125 19:43:14.523268 18938 layer_factory.hpp:76] Creating layer inception_4d/3x3
I1125 19:43:14.523277 18938 net.cpp:106] Creating Layer inception_4d/3x3
I1125 19:43:14.523280 18938 net.cpp:454] inception_4d/3x3 <- inception_4d/3x3_reduce
I1125 19:43:14.523288 18938 net.cpp:411] inception_4d/3x3 -> inception_4d/3x3
I1125 19:43:14.527539 18938 net.cpp:150] Setting up inception_4d/3x3
I1125 19:43:14.527555 18938 net.cpp:157] Top shape: 64 288 14 14 (3612672)
I1125 19:43:14.527560 18938 net.cpp:165] Memory required for data: 3003258376
I1125 19:43:14.527566 18938 layer_factory.hpp:76] Creating layer inception_4d/relu_3x3
I1125 19:43:14.527575 18938 net.cpp:106] Creating Layer inception_4d/relu_3x3
I1125 19:43:14.527578 18938 net.cpp:454] inception_4d/relu_3x3 <- inception_4d/3x3
I1125 19:43:14.527585 18938 net.cpp:397] inception_4d/relu_3x3 -> inception_4d/3x3 (in-place)
I1125 19:43:14.527992 18938 net.cpp:150] Setting up inception_4d/relu_3x3
I1125 19:43:14.528007 18938 net.cpp:157] Top shape: 64 288 14 14 (3612672)
I1125 19:43:14.528009 18938 net.cpp:165] Memory required for data: 3017709064
I1125 19:43:14.528013 18938 layer_factory.hpp:76] Creating layer inception_4d/5x5_reduce
I1125 19:43:14.528023 18938 net.cpp:106] Creating Layer inception_4d/5x5_reduce
I1125 19:43:14.528028 18938 net.cpp:454] inception_4d/5x5_reduce <- inception_4c/output_inception_4c/output_0_split_2
I1125 19:43:14.528038 18938 net.cpp:411] inception_4d/5x5_reduce -> inception_4d/5x5_reduce
I1125 19:43:14.529942 18938 net.cpp:150] Setting up inception_4d/5x5_reduce
I1125 19:43:14.529956 18938 net.cpp:157] Top shape: 64 32 14 14 (401408)
I1125 19:43:14.529960 18938 net.cpp:165] Memory required for data: 3019314696
I1125 19:43:14.529966 18938 layer_factory.hpp:76] Creating layer inception_4d/relu_5x5_reduce
I1125 19:43:14.529973 18938 net.cpp:106] Creating Layer inception_4d/relu_5x5_reduce
I1125 19:43:14.529978 18938 net.cpp:454] inception_4d/relu_5x5_reduce <- inception_4d/5x5_reduce
I1125 19:43:14.529983 18938 net.cpp:397] inception_4d/relu_5x5_reduce -> inception_4d/5x5_reduce (in-place)
I1125 19:43:14.530356 18938 net.cpp:150] Setting up inception_4d/relu_5x5_reduce
I1125 19:43:14.530370 18938 net.cpp:157] Top shape: 64 32 14 14 (401408)
I1125 19:43:14.530374 18938 net.cpp:165] Memory required for data: 3020920328
I1125 19:43:14.530377 18938 layer_factory.hpp:76] Creating layer inception_4d/5x5
I1125 19:43:14.530387 18938 net.cpp:106] Creating Layer inception_4d/5x5
I1125 19:43:14.530391 18938 net.cpp:454] inception_4d/5x5 <- inception_4d/5x5_reduce
I1125 19:43:14.530398 18938 net.cpp:411] inception_4d/5x5 -> inception_4d/5x5
I1125 19:43:14.532147 18938 net.cpp:150] Setting up inception_4d/5x5
I1125 19:43:14.532162 18938 net.cpp:157] Top shape: 64 64 14 14 (802816)
I1125 19:43:14.532166 18938 net.cpp:165] Memory required for data: 3024131592
I1125 19:43:14.532172 18938 layer_factory.hpp:76] Creating layer inception_4d/relu_5x5
I1125 19:43:14.532181 18938 net.cpp:106] Creating Layer inception_4d/relu_5x5
I1125 19:43:14.532184 18938 net.cpp:454] inception_4d/relu_5x5 <- inception_4d/5x5
I1125 19:43:14.532191 18938 net.cpp:397] inception_4d/relu_5x5 -> inception_4d/5x5 (in-place)
I1125 19:43:14.532435 18938 net.cpp:150] Setting up inception_4d/relu_5x5
I1125 19:43:14.532446 18938 net.cpp:157] Top shape: 64 64 14 14 (802816)
I1125 19:43:14.532450 18938 net.cpp:165] Memory required for data: 3027342856
I1125 19:43:14.532454 18938 layer_factory.hpp:76] Creating layer inception_4d/pool
I1125 19:43:14.532460 18938 net.cpp:106] Creating Layer inception_4d/pool
I1125 19:43:14.532464 18938 net.cpp:454] inception_4d/pool <- inception_4c/output_inception_4c/output_0_split_3
I1125 19:43:14.532469 18938 net.cpp:411] inception_4d/pool -> inception_4d/pool
I1125 19:43:14.532904 18938 net.cpp:150] Setting up inception_4d/pool
I1125 19:43:14.532918 18938 net.cpp:157] Top shape: 64 512 14 14 (6422528)
I1125 19:43:14.532922 18938 net.cpp:165] Memory required for data: 3053032968
I1125 19:43:14.532927 18938 layer_factory.hpp:76] Creating layer inception_4d/pool_proj
I1125 19:43:14.532937 18938 net.cpp:106] Creating Layer inception_4d/pool_proj
I1125 19:43:14.532940 18938 net.cpp:454] inception_4d/pool_proj <- inception_4d/pool
I1125 19:43:14.532948 18938 net.cpp:411] inception_4d/pool_proj -> inception_4d/pool_proj
I1125 19:43:14.534534 18938 net.cpp:150] Setting up inception_4d/pool_proj
I1125 19:43:14.534549 18938 net.cpp:157] Top shape: 64 64 14 14 (802816)
I1125 19:43:14.534554 18938 net.cpp:165] Memory required for data: 3056244232
I1125 19:43:14.534559 18938 layer_factory.hpp:76] Creating layer inception_4d/relu_pool_proj
I1125 19:43:14.534567 18938 net.cpp:106] Creating Layer inception_4d/relu_pool_proj
I1125 19:43:14.534571 18938 net.cpp:454] inception_4d/relu_pool_proj <- inception_4d/pool_proj
I1125 19:43:14.534576 18938 net.cpp:397] inception_4d/relu_pool_proj -> inception_4d/pool_proj (in-place)
I1125 19:43:14.534783 18938 net.cpp:150] Setting up inception_4d/relu_pool_proj
I1125 19:43:14.534795 18938 net.cpp:157] Top shape: 64 64 14 14 (802816)
I1125 19:43:14.534797 18938 net.cpp:165] Memory required for data: 3059455496
I1125 19:43:14.534801 18938 layer_factory.hpp:76] Creating layer inception_4d/output
I1125 19:43:14.534807 18938 net.cpp:106] Creating Layer inception_4d/output
I1125 19:43:14.534811 18938 net.cpp:454] inception_4d/output <- inception_4d/1x1
I1125 19:43:14.534816 18938 net.cpp:454] inception_4d/output <- inception_4d/3x3
I1125 19:43:14.534819 18938 net.cpp:454] inception_4d/output <- inception_4d/5x5
I1125 19:43:14.534823 18938 net.cpp:454] inception_4d/output <- inception_4d/pool_proj
I1125 19:43:14.534829 18938 net.cpp:411] inception_4d/output -> inception_4d/output
I1125 19:43:14.534878 18938 net.cpp:150] Setting up inception_4d/output
I1125 19:43:14.534885 18938 net.cpp:157] Top shape: 64 528 14 14 (6623232)
I1125 19:43:14.534888 18938 net.cpp:165] Memory required for data: 3085948424
I1125 19:43:14.534891 18938 layer_factory.hpp:76] Creating layer inception_4d/output_inception_4d/output_0_split
I1125 19:43:14.534898 18938 net.cpp:106] Creating Layer inception_4d/output_inception_4d/output_0_split
I1125 19:43:14.534901 18938 net.cpp:454] inception_4d/output_inception_4d/output_0_split <- inception_4d/output
I1125 19:43:14.534906 18938 net.cpp:411] inception_4d/output_inception_4d/output_0_split -> inception_4d/output_inception_4d/output_0_split_0
I1125 19:43:14.534912 18938 net.cpp:411] inception_4d/output_inception_4d/output_0_split -> inception_4d/output_inception_4d/output_0_split_1
I1125 19:43:14.534920 18938 net.cpp:411] inception_4d/output_inception_4d/output_0_split -> inception_4d/output_inception_4d/output_0_split_2
I1125 19:43:14.534925 18938 net.cpp:411] inception_4d/output_inception_4d/output_0_split -> inception_4d/output_inception_4d/output_0_split_3
I1125 19:43:14.534930 18938 net.cpp:411] inception_4d/output_inception_4d/output_0_split -> inception_4d/output_inception_4d/output_0_split_4
I1125 19:43:14.535060 18938 net.cpp:150] Setting up inception_4d/output_inception_4d/output_0_split
I1125 19:43:14.535068 18938 net.cpp:157] Top shape: 64 528 14 14 (6623232)
I1125 19:43:14.535073 18938 net.cpp:157] Top shape: 64 528 14 14 (6623232)
I1125 19:43:14.535075 18938 net.cpp:157] Top shape: 64 528 14 14 (6623232)
I1125 19:43:14.535079 18938 net.cpp:157] Top shape: 64 528 14 14 (6623232)
I1125 19:43:14.535082 18938 net.cpp:157] Top shape: 64 528 14 14 (6623232)
I1125 19:43:14.535085 18938 net.cpp:165] Memory required for data: 3218413064
I1125 19:43:14.535089 18938 layer_factory.hpp:76] Creating layer loss2/ave_pool
I1125 19:43:14.535095 18938 net.cpp:106] Creating Layer loss2/ave_pool
I1125 19:43:14.535099 18938 net.cpp:454] loss2/ave_pool <- inception_4d/output_inception_4d/output_0_split_0
I1125 19:43:14.535105 18938 net.cpp:411] loss2/ave_pool -> loss2/ave_pool
I1125 19:43:14.535511 18938 net.cpp:150] Setting up loss2/ave_pool
I1125 19:43:14.535526 18938 net.cpp:157] Top shape: 64 528 4 4 (540672)
I1125 19:43:14.535528 18938 net.cpp:165] Memory required for data: 3220575752
I1125 19:43:14.535532 18938 layer_factory.hpp:76] Creating layer loss2/conv
I1125 19:43:14.535542 18938 net.cpp:106] Creating Layer loss2/conv
I1125 19:43:14.535547 18938 net.cpp:454] loss2/conv <- loss2/ave_pool
I1125 19:43:14.535553 18938 net.cpp:411] loss2/conv -> loss2/conv
I1125 19:43:14.537686 18938 net.cpp:150] Setting up loss2/conv
I1125 19:43:14.537703 18938 net.cpp:157] Top shape: 64 128 4 4 (131072)
I1125 19:43:14.537706 18938 net.cpp:165] Memory required for data: 3221100040
I1125 19:43:14.537714 18938 layer_factory.hpp:76] Creating layer loss2/relu_conv
I1125 19:43:14.537720 18938 net.cpp:106] Creating Layer loss2/relu_conv
I1125 19:43:14.537724 18938 net.cpp:454] loss2/relu_conv <- loss2/conv
I1125 19:43:14.537730 18938 net.cpp:397] loss2/relu_conv -> loss2/conv (in-place)
I1125 19:43:14.538105 18938 net.cpp:150] Setting up loss2/relu_conv
I1125 19:43:14.538118 18938 net.cpp:157] Top shape: 64 128 4 4 (131072)
I1125 19:43:14.538121 18938 net.cpp:165] Memory required for data: 3221624328
I1125 19:43:14.538125 18938 layer_factory.hpp:76] Creating layer loss2/fc
I1125 19:43:14.538132 18938 net.cpp:106] Creating Layer loss2/fc
I1125 19:43:14.538136 18938 net.cpp:454] loss2/fc <- loss2/conv
I1125 19:43:14.538143 18938 net.cpp:411] loss2/fc -> loss2/fc
I1125 19:43:14.553776 18938 net.cpp:150] Setting up loss2/fc
I1125 19:43:14.553793 18938 net.cpp:157] Top shape: 64 1024 (65536)
I1125 19:43:14.553797 18938 net.cpp:165] Memory required for data: 3221886472
I1125 19:43:14.553804 18938 layer_factory.hpp:76] Creating layer loss2/relu_fc
I1125 19:43:14.553812 18938 net.cpp:106] Creating Layer loss2/relu_fc
I1125 19:43:14.553815 18938 net.cpp:454] loss2/relu_fc <- loss2/fc
I1125 19:43:14.553822 18938 net.cpp:397] loss2/relu_fc -> loss2/fc (in-place)
I1125 19:43:14.554055 18938 net.cpp:150] Setting up loss2/relu_fc
I1125 19:43:14.554067 18938 net.cpp:157] Top shape: 64 1024 (65536)
I1125 19:43:14.554070 18938 net.cpp:165] Memory required for data: 3222148616
I1125 19:43:14.554074 18938 layer_factory.hpp:76] Creating layer loss2/drop_fc
I1125 19:43:14.554080 18938 net.cpp:106] Creating Layer loss2/drop_fc
I1125 19:43:14.554085 18938 net.cpp:454] loss2/drop_fc <- loss2/fc
I1125 19:43:14.554090 18938 net.cpp:397] loss2/drop_fc -> loss2/fc (in-place)
I1125 19:43:14.554138 18938 net.cpp:150] Setting up loss2/drop_fc
I1125 19:43:14.554147 18938 net.cpp:157] Top shape: 64 1024 (65536)
I1125 19:43:14.554149 18938 net.cpp:165] Memory required for data: 3222410760
I1125 19:43:14.554152 18938 layer_factory.hpp:76] Creating layer loss2/classifier-attribute
I1125 19:43:14.554162 18938 net.cpp:106] Creating Layer loss2/classifier-attribute
I1125 19:43:14.554164 18938 net.cpp:454] loss2/classifier-attribute <- loss2/fc
I1125 19:43:14.554172 18938 net.cpp:411] loss2/classifier-attribute -> loss2/classifier-attribute
I1125 19:43:14.554396 18938 net.cpp:150] Setting up loss2/classifier-attribute
I1125 19:43:14.554407 18938 net.cpp:157] Top shape: 64 5 (320)
I1125 19:43:14.554410 18938 net.cpp:165] Memory required for data: 3222412040
I1125 19:43:14.554416 18938 layer_factory.hpp:76] Creating layer loss2/classifier-attribute_loss2/classifier-attribute_0_split
I1125 19:43:14.554422 18938 net.cpp:106] Creating Layer loss2/classifier-attribute_loss2/classifier-attribute_0_split
I1125 19:43:14.554426 18938 net.cpp:454] loss2/classifier-attribute_loss2/classifier-attribute_0_split <- loss2/classifier-attribute
I1125 19:43:14.554431 18938 net.cpp:411] loss2/classifier-attribute_loss2/classifier-attribute_0_split -> loss2/classifier-attribute_loss2/classifier-attribute_0_split_0
I1125 19:43:14.554437 18938 net.cpp:411] loss2/classifier-attribute_loss2/classifier-attribute_0_split -> loss2/classifier-attribute_loss2/classifier-attribute_0_split_1
I1125 19:43:14.554504 18938 net.cpp:150] Setting up loss2/classifier-attribute_loss2/classifier-attribute_0_split
I1125 19:43:14.554512 18938 net.cpp:157] Top shape: 64 5 (320)
I1125 19:43:14.554515 18938 net.cpp:157] Top shape: 64 5 (320)
I1125 19:43:14.554518 18938 net.cpp:165] Memory required for data: 3222414600
I1125 19:43:14.554522 18938 layer_factory.hpp:76] Creating layer loss2/loss
I1125 19:43:14.554527 18938 net.cpp:106] Creating Layer loss2/loss
I1125 19:43:14.554532 18938 net.cpp:454] loss2/loss <- loss2/classifier-attribute_loss2/classifier-attribute_0_split_0
I1125 19:43:14.554535 18938 net.cpp:454] loss2/loss <- label_data_1_split_2
…
I1125 19:43:14.555161 18938 net.cpp:150] Setting up loss2/top-1
I1125 19:43:14.555166 18938 net.cpp:157] Top shape: (1)
I1125 19:43:14.555168 18938 net.cpp:165] Memory required for data: 3222414608
I1125 19:43:14.555171 18938 layer_factory.hpp:76] Creating layer inception_4e/1x1
I1125 19:43:14.555179 18938 net.cpp:106] Creating Layer inception_4e/1x1
I1125 19:43:14.555183 18938 net.cpp:454] inception_4e/1x1 <- inception_4d/output_inception_4d/output_0_split_1
I1125 19:43:14.555189 18938 net.cpp:411] inception_4e/1x1 -> inception_4e/1x1
I1125 19:43:14.557482 18938 net.cpp:150] Setting up inception_4e/1x1
I1125 19:43:14.557497 18938 net.cpp:157] Top shape: 64 256 14 14 (3211264)
I1125 19:43:14.557502 18938 net.cpp:165] Memory required for data: 3235259664
I1125 19:43:14.557508 18938 layer_factory.hpp:76] Creating layer inception_4e/relu_1x1
I1125 19:43:14.557514 18938 net.cpp:106] Creating Layer inception_4e/relu_1x1
I1125 19:43:14.557519 18938 net.cpp:454] inception_4e/relu_1x1 <- inception_4e/1x1
I1125 19:43:14.557526 18938 net.cpp:397] inception_4e/relu_1x1 -> inception_4e/1x1 (in-place)
I1125 19:43:14.557740 18938 net.cpp:150] Setting up inception_4e/relu_1x1
I1125 19:43:14.557751 18938 net.cpp:157] Top shape: 64 256 14 14 (3211264)
I1125 19:43:14.557754 18938 net.cpp:165] Memory required for data: 3248104720
I1125 19:43:14.557757 18938 layer_factory.hpp:76] Creating layer inception_4e/3x3_reduce
I1125 19:43:14.557766 18938 net.cpp:106] Creating Layer inception_4e/3x3_reduce
I1125 19:43:14.557770 18938 net.cpp:454] inception_4e/3x3_reduce <- inception_4d/output_inception_4d/output_0_split_2
I1125 19:43:14.557778 18938 net.cpp:411] inception_4e/3x3_reduce -> inception_4e/3x3_reduce
I1125 19:43:14.560139 18938 net.cpp:150] Setting up inception_4e/3x3_reduce
I1125 19:43:14.560155 18938 net.cpp:157] Top shape: 64 160 14 14 (2007040)
I1125 19:43:14.560159 18938 net.cpp:165] Memory required for data: 3256132880
I1125 19:43:14.560165 18938 layer_factory.hpp:76] Creating layer inception_4e/relu_3x3_reduce
I1125 19:43:14.560173 18938 net.cpp:106] Creating Layer inception_4e/relu_3x3_reduce
I1125 19:43:14.560178 18938 net.cpp:454] inception_4e/relu_3x3_reduce <- inception_4e/3x3_reduce
I1125 19:43:14.560184 18938 net.cpp:397] inception_4e/relu_3x3_reduce -> inception_4e/3x3_reduce (in-place)
I1125 19:43:14.560555 18938 net.cpp:150] Setting up inception_4e/relu_3x3_reduce
I1125 19:43:14.560570 18938 net.cpp:157] Top shape: 64 160 14 14 (2007040)
I1125 19:43:14.560573 18938 net.cpp:165] Memory required for data: 3264161040
I1125 19:43:14.560576 18938 layer_factory.hpp:76] Creating layer inception_4e/3x3
I1125 19:43:14.560603 18938 net.cpp:106] Creating Layer inception_4e/3x3
I1125 19:43:14.560608 18938 net.cpp:454] inception_4e/3x3 <- inception_4e/3x3_reduce
I1125 19:43:14.560616 18938 net.cpp:411] inception_4e/3x3 -> inception_4e/3x3
I1125 19:43:14.565423 18938 net.cpp:150] Setting up inception_4e/3x3
I1125 19:43:14.565438 18938 net.cpp:157] Top shape: 64 320 14 14 (4014080)
I1125 19:43:14.565443 18938 net.cpp:165] Memory required for data: 3280217360
I1125 19:43:14.565450 18938 layer_factory.hpp:76] Creating layer inception_4e/relu_3x3
I1125 19:43:14.565459 18938 net.cpp:106] Creating Layer inception_4e/relu_3x3
I1125 19:43:14.565462 18938 net.cpp:454] inception_4e/relu_3x3 <- inception_4e/3x3
I1125 19:43:14.565467 18938 net.cpp:397] inception_4e/relu_3x3 -> inception_4e/3x3 (in-place)
I1125 19:43:14.565839 18938 net.cpp:150] Setting up inception_4e/relu_3x3
I1125 19:43:14.565852 18938 net.cpp:157] Top shape: 64 320 14 14 (4014080)
I1125 19:43:14.565856 18938 net.cpp:165] Memory required for data: 3296273680
I1125 19:43:14.565860 18938 layer_factory.hpp:76] Creating layer inception_4e/5x5_reduce
I1125 19:43:14.565870 18938 net.cpp:106] Creating Layer inception_4e/5x5_reduce
I1125 19:43:14.565873 18938 net.cpp:454] inception_4e/5x5_reduce <- inception_4d/output_inception_4d/output_0_split_3
I1125 19:43:14.565882 18938 net.cpp:411] inception_4e/5x5_reduce -> inception_4e/5x5_reduce
I1125 19:43:14.567559 18938 net.cpp:150] Setting up inception_4e/5x5_reduce
I1125 19:43:14.567574 18938 net.cpp:157] Top shape: 64 32 14 14 (401408)
I1125 19:43:14.567577 18938 net.cpp:165] Memory required for data: 3297879312
I1125 19:43:14.567584 18938 layer_factory.hpp:76] Creating layer inception_4e/relu_5x5_reduce
I1125 19:43:14.567590 18938 net.cpp:106] Creating Layer inception_4e/relu_5x5_reduce
I1125 19:43:14.567595 18938 net.cpp:454] inception_4e/relu_5x5_reduce <- inception_4e/5x5_reduce
I1125 19:43:14.567601 18938 net.cpp:397] inception_4e/relu_5x5_reduce -> inception_4e/5x5_reduce (in-place)
I1125 19:43:14.567809 18938 net.cpp:150] Setting up inception_4e/relu_5x5_reduce
I1125 19:43:14.567821 18938 net.cpp:157] Top shape: 64 32 14 14 (401408)
I1125 19:43:14.567823 18938 net.cpp:165] Memory required for data: 3299484944
I1125 19:43:14.567827 18938 layer_factory.hpp:76] Creating layer inception_4e/5x5
I1125 19:43:14.567836 18938 net.cpp:106] Creating Layer inception_4e/5x5
I1125 19:43:14.567841 18938 net.cpp:454] inception_4e/5x5 <- inception_4e/5x5_reduce
I1125 19:43:14.567847 18938 net.cpp:411] inception_4e/5x5 -> inception_4e/5x5
I1125 19:43:14.569905 18938 net.cpp:150] Setting up inception_4e/5x5
I1125 19:43:14.569921 18938 net.cpp:157] Top shape: 64 128 14 14 (1605632)
I1125 19:43:14.569924 18938 net.cpp:165] Memory required for data: 3305907472
I1125 19:43:14.569931 18938 layer_factory.hpp:76] Creating layer inception_4e/relu_5x5
I1125 19:43:14.569938 18938 net.cpp:106] Creating Layer inception_4e/relu_5x5
I1125 19:43:14.569942 18938 net.cpp:454] inception_4e/relu_5x5 <- inception_4e/5x5
I1125 19:43:14.569948 18938 net.cpp:397] inception_4e/relu_5x5 -> inception_4e/5x5 (in-place)
I1125 19:43:14.570324 18938 net.cpp:150] Setting up inception_4e/relu_5x5
I1125 19:43:14.570338 18938 net.cpp:157] Top shape: 64 128 14 14 (1605632)
I1125 19:43:14.570343 18938 net.cpp:165] Memory required for data: 3312330000
I1125 19:43:14.570345 18938 layer_factory.hpp:76] Creating layer inception_4e/pool
I1125 19:43:14.570353 18938 net.cpp:106] Creating Layer inception_4e/pool
I1125 19:43:14.570358 18938 net.cpp:454] inception_4e/pool <- inception_4d/output_inception_4d/output_0_split_4
I1125 19:43:14.570364 18938 net.cpp:411] inception_4e/pool -> inception_4e/pool
I1125 19:43:14.570636 18938 net.cpp:150] Setting up inception_4e/pool
I1125 19:43:14.570647 18938 net.cpp:157] Top shape: 64 528 14 14 (6623232)
I1125 19:43:14.570650 18938 net.cpp:165] Memory required for data: 3338822928
I1125 19:43:14.570654 18938 layer_factory.hpp:76] Creating layer inception_4e/pool_proj
I1125 19:43:14.570663 18938 net.cpp:106] Creating Layer inception_4e/pool_proj
I1125 19:43:14.570667 18938 net.cpp:454] inception_4e/pool_proj <- inception_4e/pool
I1125 19:43:14.570674 18938 net.cpp:411] inception_4e/pool_proj -> inception_4e/pool_proj
I1125 19:43:14.572515 18938 net.cpp:150] Setting up inception_4e/pool_proj
I1125 19:43:14.572530 18938 net.cpp:157] Top shape: 64 128 14 14 (1605632)
I1125 19:43:14.572535 18938 net.cpp:165] Memory required for data: 3345245456
I1125 19:43:14.572540 18938 layer_factory.hpp:76] Creating layer inception_4e/relu_pool_proj
I1125 19:43:14.572548 18938 net.cpp:106] Creating Layer inception_4e/relu_pool_proj
I1125 19:43:14.572552 18938 net.cpp:454] inception_4e/relu_pool_proj <- inception_4e/pool_proj
I1125 19:43:14.572559 18938 net.cpp:397] inception_4e/relu_pool_proj -> inception_4e/pool_proj (in-place)
I1125 19:43:14.572938 18938 net.cpp:150] Setting up inception_4e/relu_pool_proj
I1125 19:43:14.572952 18938 net.cpp:157] Top shape: 64 128 14 14 (1605632)
I1125 19:43:14.572955 18938 net.cpp:165] Memory required for data: 3351667984
I1125 19:43:14.572958 18938 layer_factory.hpp:76] Creating layer inception_4e/output
I1125 19:43:14.572967 18938 net.cpp:106] Creating Layer inception_4e/output
I1125 19:43:14.572970 18938 net.cpp:454] inception_4e/output <- inception_4e/1x1
I1125 19:43:14.572975 18938 net.cpp:454] inception_4e/output <- inception_4e/3x3
I1125 19:43:14.572979 18938 net.cpp:454] inception_4e/output <- inception_4e/5x5
I1125 19:43:14.572983 18938 net.cpp:454] inception_4e/output <- inception_4e/pool_proj
I1125 19:43:14.572988 18938 net.cpp:411] inception_4e/output -> inception_4e/output
I1125 19:43:14.573042 18938 net.cpp:150] Setting up inception_4e/output
I1125 19:43:14.573050 18938 net.cpp:157] Top shape: 64 832 14 14 (10436608)
I1125 19:43:14.573051 18938 net.cpp:165] Memory required for data: 3393414416
I1125 19:43:14.573061 18938 layer_factory.hpp:76] Creating layer pool4/3x3_s2
I1125 19:43:14.573067 18938 net.cpp:106] Creating Layer pool4/3x3_s2
I1125 19:43:14.573071 18938 net.cpp:454] pool4/3x3_s2 <- inception_4e/output
I1125 19:43:14.573076 18938 net.cpp:411] pool4/3x3_s2 -> pool4/3x3_s2
I1125 19:43:14.573346 18938 net.cpp:150] Setting up pool4/3x3_s2
I1125 19:43:14.573357 18938 net.cpp:157] Top shape: 64 832 7 7 (2609152)
I1125 19:43:14.573360 18938 net.cpp:165] Memory required for data: 3403851024
I1125 19:43:14.573364 18938 layer_factory.hpp:76] Creating layer pool4/3x3_s2_pool4/3x3_s2_0_split
I1125 19:43:14.573371 18938 net.cpp:106] Creating Layer pool4/3x3_s2_pool4/3x3_s2_0_split
I1125 19:43:14.573375 18938 net.cpp:454] pool4/3x3_s2_pool4/3x3_s2_0_split <- pool4/3x3_s2
I1125 19:43:14.573380 18938 net.cpp:411] pool4/3x3_s2_pool4/3x3_s2_0_split -> pool4/3x3_s2_pool4/3x3_s2_0_split_0
I1125 19:43:14.573386 18938 net.cpp:411] pool4/3x3_s2_pool4/3x3_s2_0_split -> pool4/3x3_s2_pool4/3x3_s2_0_split_1
I1125 19:43:14.573393 18938 net.cpp:411] pool4/3x3_s2_pool4/3x3_s2_0_split -> pool4/3x3_s2_pool4/3x3_s2_0_split_2
I1125 19:43:14.573400 18938 net.cpp:411] pool4/3x3_s2_pool4/3x3_s2_0_split -> pool4/3x3_s2_pool4/3x3_s2_0_split_3
I1125 19:43:14.573515 18938 net.cpp:150] Setting up pool4/3x3_s2_pool4/3x3_s2_0_split
I1125 19:43:14.573523 18938 net.cpp:157] Top shape: 64 832 7 7 (2609152)
I1125 19:43:14.573528 18938 net.cpp:157] Top shape: 64 832 7 7 (2609152)
I1125 19:43:14.573531 18938 net.cpp:157] Top shape: 64 832 7 7 (2609152)
I1125 19:43:14.573534 18938 net.cpp:157] Top shape: 64 832 7 7 (2609152)
I1125 19:43:14.573537 18938 net.cpp:165] Memory required for data: 3445597456
I1125 19:43:14.573540 18938 layer_factory.hpp:76] Creating layer inception_5a/1x1
I1125 19:43:14.573549 18938 net.cpp:106] Creating Layer inception_5a/1x1
I1125 19:43:14.573554 18938 net.cpp:454] inception_5a/1x1 <- pool4/3x3_s2_pool4/3x3_s2_0_split_0
I1125 19:43:14.573559 18938 net.cpp:411] inception_5a/1x1 -> inception_5a/1x1
I1125 19:43:14.576742 18938 net.cpp:150] Setting up inception_5a/1x1
I1125 19:43:14.576757 18938 net.cpp:157] Top shape: 64 256 7 7 (802816)
I1125 19:43:14.576761 18938 net.cpp:165] Memory required for data: 3448808720
I1125 19:43:14.576767 18938 layer_factory.hpp:76] Creating layer inception_5a/relu_1x1
I1125 19:43:14.576777 18938 net.cpp:106] Creating Layer inception_5a/relu_1x1
I1125 19:43:14.576781 18938 net.cpp:454] inception_5a/relu_1x1 <- inception_5a/1x1
I1125 19:43:14.576787 18938 net.cpp:397] inception_5a/relu_1x1 -> inception_5a/1x1 (in-place)
I1125 19:43:14.577000 18938 net.cpp:150] Setting up inception_5a/relu_1x1
I1125 19:43:14.577013 18938 net.cpp:157] Top shape: 64 256 7 7 (802816)
I1125 19:43:14.577016 18938 net.cpp:165] Memory required for data: 3452019984
I1125 19:43:14.577019 18938 layer_factory.hpp:76] Creating layer inception_5a/3x3_reduce
I1125 19:43:14.577028 18938 net.cpp:106] Creating Layer inception_5a/3x3_reduce
I1125 19:43:14.577033 18938 net.cpp:454] inception_5a/3x3_reduce <- pool4/3x3_s2_pool4/3x3_s2_0_split_1
I1125 19:43:14.577040 18938 net.cpp:411] inception_5a/3x3_reduce -> inception_5a/3x3_reduce
I1125 19:43:14.579852 18938 net.cpp:150] Setting up inception_5a/3x3_reduce
I1125 19:43:14.579867 18938 net.cpp:157] Top shape: 64 160 7 7 (501760)
I1125 19:43:14.579871 18938 net.cpp:165] Memory required for data: 3454027024
I1125 19:43:14.579879 18938 layer_factory.hpp:76] Creating layer inception_5a/relu_3x3_reduce
I1125 19:43:14.579885 18938 net.cpp:106] Creating Layer inception_5a/relu_3x3_reduce
I1125 19:43:14.579890 18938 net.cpp:454] inception_5a/relu_3x3_reduce <- inception_5a/3x3_reduce
I1125 19:43:14.579895 18938 net.cpp:397] inception_5a/relu_3x3_reduce -> inception_5a/3x3_reduce (in-place)
I1125 19:43:14.580279 18938 net.cpp:150] Setting up inception_5a/relu_3x3_reduce
I1125 19:43:14.580294 18938 net.cpp:157] Top shape: 64 160 7 7 (501760)
I1125 19:43:14.580298 18938 net.cpp:165] Memory required for data: 3456034064
I1125 19:43:14.580302 18938 layer_factory.hpp:76] Creating layer inception_5a/3x3
I1125 19:43:14.580312 18938 net.cpp:106] Creating Layer inception_5a/3x3
I1125 19:43:14.580317 18938 net.cpp:454] inception_5a/3x3 <- inception_5a/3x3_reduce
I1125 19:43:14.580323 18938 net.cpp:411] inception_5a/3x3 -> inception_5a/3x3
I1125 19:43:14.585310 18938 net.cpp:150] Setting up inception_5a/3x3
I1125 19:43:14.585327 18938 net.cpp:157] Top shape: 64 320 7 7 (1003520)
I1125 19:43:14.585331 18938 net.cpp:165] Memory required for data: 3460048144
I1125 19:43:14.585337 18938 layer_factory.hpp:76] Creating layer inception_5a/relu_3x3
I1125 19:43:14.585345 18938 net.cpp:106] Creating Layer inception_5a/relu_3x3
I1125 19:43:14.585350 18938 net.cpp:454] inception_5a/relu_3x3 <- inception_5a/3x3
I1125 19:43:14.585356 18938 net.cpp:397] inception_5a/relu_3x3 -> inception_5a/3x3 (in-place)
I1125 19:43:14.585569 18938 net.cpp:150] Setting up inception_5a/relu_3x3
I1125 19:43:14.585582 18938 net.cpp:157] Top shape: 64 320 7 7 (1003520)
I1125 19:43:14.585584 18938 net.cpp:165] Memory required for data: 3464062224
I1125 19:43:14.585588 18938 layer_factory.hpp:76] Creating layer inception_5a/5x5_reduce
I1125 19:43:14.585595 18938 net.cpp:106] Creating Layer inception_5a/5x5_reduce
I1125 19:43:14.585600 18938 net.cpp:454] inception_5a/5x5_reduce <- pool4/3x3_s2_pool4/3x3_s2_0_split_2
I1125 19:43:14.585608 18938 net.cpp:411] inception_5a/5x5_reduce -> inception_5a/5x5_reduce
I1125 19:43:14.587671 18938 net.cpp:150] Setting up inception_5a/5x5_reduce
I1125 19:43:14.587687 18938 net.cpp:157] Top shape: 64 32 7 7 (100352)
I1125 19:43:14.587690 18938 net.cpp:165] Memory required for data: 3464463632
I1125 19:43:14.587697 18938 layer_factory.hpp:76] Creating layer inception_5a/relu_5x5_reduce
I1125 19:43:14.587704 18938 net.cpp:106] Creating Layer inception_5a/relu_5x5_reduce
I1125 19:43:14.587708 18938 net.cpp:454] inception_5a/relu_5x5_reduce <- inception_5a/5x5_reduce
I1125 19:43:14.587713 18938 net.cpp:397] inception_5a/relu_5x5_reduce -> inception_5a/5x5_reduce (in-place)
I1125 19:43:14.587951 18938 net.cpp:150] Setting up inception_5a/relu_5x5_reduce
I1125 19:43:14.587963 18938 net.cpp:157] Top shape: 64 32 7 7 (100352)
I1125 19:43:14.587967 18938 net.cpp:165] Memory required for data: 3464865040
I1125 19:43:14.587970 18938 layer_factory.hpp:76] Creating layer inception_5a/5x5
I1125 19:43:14.587990 18938 net.cpp:106] Creating Layer inception_5a/5x5
I1125 19:43:14.587996 18938 net.cpp:454] inception_5a/5x5 <- inception_5a/5x5_reduce
I1125 19:43:14.588003 18938 net.cpp:411] inception_5a/5x5 -> inception_5a/5x5
I1125 19:43:14.590215 18938 net.cpp:150] Setting up inception_5a/5x5
I1125 19:43:14.590230 18938 net.cpp:157] Top shape: 64 128 7 7 (401408)
I1125 19:43:14.590234 18938 net.cpp:165] Memory required for data: 3466470672
I1125 19:43:14.590240 18938 layer_factory.hpp:76] Creating layer inception_5a/relu_5x5
I1125 19:43:14.590247 18938 net.cpp:106] Creating Layer inception_5a/relu_5x5
I1125 19:43:14.590251 18938 net.cpp:454] inception_5a/relu_5x5 <- inception_5a/5x5
I1125 19:43:14.590258 18938 net.cpp:397] inception_5a/relu_5x5 -> inception_5a/5x5 (in-place)
I1125 19:43:14.590665 18938 net.cpp:150] Setting up inception_5a/relu_5x5
I1125 19:43:14.590679 18938 net.cpp:157] Top shape: 64 128 7 7 (401408)
I1125 19:43:14.590682 18938 net.cpp:165] Memory required for data: 3468076304
I1125 19:43:14.590687 18938 layer_factory.hpp:76] Creating layer inception_5a/pool
I1125 19:43:14.590721 18938 net.cpp:106] Creating Layer inception_5a/pool
I1125 19:43:14.590729 18938 net.cpp:454] inception_5a/pool <- pool4/3x3_s2_pool4/3x3_s2_0_split_3
I1125 19:43:14.590735 18938 net.cpp:411] inception_5a/pool -> inception_5a/pool
I1125 19:43:14.591034 18938 net.cpp:150] Setting up inception_5a/pool
I1125 19:43:14.591048 18938 net.cpp:157] Top shape: 64 832 7 7 (2609152)
I1125 19:43:14.591050 18938 net.cpp:165] Memory required for data: 3478512912
I1125 19:43:14.591054 18938 layer_factory.hpp:76] Creating layer inception_5a/pool_proj
I1125 19:43:14.591063 18938 net.cpp:106] Creating Layer inception_5a/pool_proj
I1125 19:43:14.591066 18938 net.cpp:454] inception_5a/pool_proj <- inception_5a/pool
I1125 19:43:14.591074 18938 net.cpp:411] inception_5a/pool_proj -> inception_5a/pool_proj
I1125 19:43:14.593667 18938 net.cpp:150] Setting up inception_5a/pool_proj
I1125 19:43:14.593683 18938 net.cpp:157] Top shape: 64 128 7 7 (401408)
I1125 19:43:14.593688 18938 net.cpp:165] Memory required for data: 3480118544
I1125 19:43:14.593694 18938 layer_factory.hpp:76] Creating layer inception_5a/relu_pool_proj
I1125 19:43:14.593700 18938 net.cpp:106] Creating Layer inception_5a/relu_pool_proj
I1125 19:43:14.593705 18938 net.cpp:454] inception_5a/relu_pool_proj <- inception_5a/pool_proj
I1125 19:43:14.593710 18938 net.cpp:397] inception_5a/relu_pool_proj -> inception_5a/pool_proj (in-place)
I1125 19:43:14.594089 18938 net.cpp:150] Setting up inception_5a/relu_pool_proj
I1125 19:43:14.594105 18938 net.cpp:157] Top shape: 64 128 7 7 (401408)
I1125 19:43:14.594108 18938 net.cpp:165] Memory required for data: 3481724176
I1125 19:43:14.594112 18938 layer_factory.hpp:76] Creating layer inception_5a/output
I1125 19:43:14.594118 18938 net.cpp:106] Creating Layer inception_5a/output
I1125 19:43:14.594123 18938 net.cpp:454] inception_5a/output <- inception_5a/1x1
I1125 19:43:14.594128 18938 net.cpp:454] inception_5a/output <- inception_5a/3x3
I1125 19:43:14.594132 18938 net.cpp:454] inception_5a/output <- inception_5a/5x5
I1125 19:43:14.594135 18938 net.cpp:454] inception_5a/output <- inception_5a/pool_proj
I1125 19:43:14.594141 18938 net.cpp:411] inception_5a/output -> inception_5a/output
I1125 19:43:14.594199 18938 net.cpp:150] Setting up inception_5a/output
I1125 19:43:14.594208 18938 net.cpp:157] Top shape: 64 832 7 7 (2609152)
I1125 19:43:14.594211 18938 net.cpp:165] Memory required for data: 3492160784
I1125 19:43:14.594214 18938 layer_factory.hpp:76] Creating layer inception_5a/output_inception_5a/output_0_split
I1125 19:43:14.594221 18938 net.cpp:106] Creating Layer inception_5a/output_inception_5a/output_0_split
I1125 19:43:14.594225 18938 net.cpp:454] inception_5a/output_inception_5a/output_0_split <- inception_5a/output
I1125 19:43:14.594231 18938 net.cpp:411] inception_5a/output_inception_5a/output_0_split -> inception_5a/output_inception_5a/output_0_split_0
I1125 19:43:14.594238 18938 net.cpp:411] inception_5a/output_inception_5a/output_0_split -> inception_5a/output_inception_5a/output_0_split_1
I1125 19:43:14.594244 18938 net.cpp:411] inception_5a/output_inception_5a/output_0_split -> inception_5a/output_inception_5a/output_0_split_2
I1125 19:43:14.594249 18938 net.cpp:411] inception_5a/output_inception_5a/output_0_split -> inception_5a/output_inception_5a/output_0_split_3
I1125 19:43:14.594375 18938 net.cpp:150] Setting up inception_5a/output_inception_5a/output_0_split
I1125 19:43:14.594383 18938 net.cpp:157] Top shape: 64 832 7 7 (2609152)
I1125 19:43:14.594388 18938 net.cpp:157] Top shape: 64 832 7 7 (2609152)
I1125 19:43:14.594391 18938 net.cpp:157] Top shape: 64 832 7 7 (2609152)
I1125 19:43:14.594394 18938 net.cpp:157] Top shape: 64 832 7 7 (2609152)
I1125 19:43:14.594398 18938 net.cpp:165] Memory required for data: 3533907216
I1125 19:43:14.594400 18938 layer_factory.hpp:76] Creating layer inception_5b/1x1
I1125 19:43:14.594409 18938 net.cpp:106] Creating Layer inception_5b/1x1
I1125 19:43:14.594413 18938 net.cpp:454] inception_5b/1x1 <- inception_5a/output_inception_5a/output_0_split_0
I1125 19:43:14.594419 18938 net.cpp:411] inception_5b/1x1 -> inception_5b/1x1
I1125 19:43:14.598238 18938 net.cpp:150] Setting up inception_5b/1x1
I1125 19:43:14.598253 18938 net.cpp:157] Top shape: 64 384 7 7 (1204224)
I1125 19:43:14.598258 18938 net.cpp:165] Memory required for data: 3538724112
I1125 19:43:14.598264 18938 layer_factory.hpp:76] Creating layer inception_5b/relu_1x1
I1125 19:43:14.598271 18938 net.cpp:106] Creating Layer inception_5b/relu_1x1
I1125 19:43:14.598276 18938 net.cpp:454] inception_5b/relu_1x1 <- inception_5b/1x1
I1125 19:43:14.598281 18938 net.cpp:397] inception_5b/relu_1x1 -> inception_5b/1x1 (in-place)
I1125 19:43:14.598670 18938 net.cpp:150] Setting up inception_5b/relu_1x1
I1125 19:43:14.598685 18938 net.cpp:157] Top shape: 64 384 7 7 (1204224)
I1125 19:43:14.598688 18938 net.cpp:165] Memory required for data: 3543541008
I1125 19:43:14.598692 18938 layer_factory.hpp:76] Creating layer inception_5b/3x3_reduce
I1125 19:43:14.598702 18938 net.cpp:106] Creating Layer inception_5b/3x3_reduce
I1125 19:43:14.598707 18938 net.cpp:454] inception_5b/3x3_reduce <- inception_5a/output_inception_5a/output_0_split_1
I1125 19:43:14.598713 18938 net.cpp:411] inception_5b/3x3_reduce -> inception_5b/3x3_reduce
I1125 19:43:14.601626 18938 net.cpp:150] Setting up inception_5b/3x3_reduce
I1125 19:43:14.601641 18938 net.cpp:157] Top shape: 64 192 7 7 (602112)
I1125 19:43:14.601645 18938 net.cpp:165] Memory required for data: 3545949456
I1125 19:43:14.601652 18938 layer_factory.hpp:76] Creating layer inception_5b/relu_3x3_reduce
I1125 19:43:14.601658 18938 net.cpp:106] Creating Layer inception_5b/relu_3x3_reduce
I1125 19:43:14.601662 18938 net.cpp:454] inception_5b/relu_3x3_reduce <- inception_5b/3x3_reduce
I1125 19:43:14.601670 18938 net.cpp:397] inception_5b/relu_3x3_reduce -> inception_5b/3x3_reduce (in-place)
I1125 19:43:14.601888 18938 net.cpp:150] Setting up inception_5b/relu_3x3_reduce
I1125 19:43:14.601899 18938 net.cpp:157] Top shape: 64 192 7 7 (602112)
I1125 19:43:14.601902 18938 net.cpp:165] Memory required for data: 3548357904
I1125 19:43:14.601905 18938 layer_factory.hpp:76] Creating layer inception_5b/3x3
I1125 19:43:14.601914 18938 net.cpp:106] Creating Layer inception_5b/3x3
I1125 19:43:14.601919 18938 net.cpp:454] inception_5b/3x3 <- inception_5b/3x3_reduce
I1125 19:43:14.601927 18938 net.cpp:411] inception_5b/3x3 -> inception_5b/3x3
I1125 19:43:14.608449 18938 net.cpp:150] Setting up inception_5b/3x3
I1125 19:43:14.608467 18938 net.cpp:157] Top shape: 64 384 7 7 (1204224)
I1125 19:43:14.608471 18938 net.cpp:165] Memory required for data: 3553174800
I1125 19:43:14.608477 18938 layer_factory.hpp:76] Creating layer inception_5b/relu_3x3
I1125 19:43:14.608484 18938 net.cpp:106] Creating Layer inception_5b/relu_3x3
I1125 19:43:14.608489 18938 net.cpp:454] inception_5b/relu_3x3 <- inception_5b/3x3
I1125 19:43:14.608494 18938 net.cpp:397] inception_5b/relu_3x3 -> inception_5b/3x3 (in-place)
I1125 19:43:14.608881 18938 net.cpp:150] Setting up inception_5b/relu_3x3
I1125 19:43:14.608896 18938 net.cpp:157] Top shape: 64 384 7 7 (1204224)
I1125 19:43:14.608899 18938 net.cpp:165] Memory required for data: 3557991696
I1125 19:43:14.608903 18938 layer_factory.hpp:76] Creating layer inception_5b/5x5_reduce
I1125 19:43:14.608913 18938 net.cpp:106] Creating Layer inception_5b/5x5_reduce
I1125 19:43:14.608921 18938 net.cpp:454] inception_5b/5x5_reduce <- inception_5a/output_inception_5a/output_0_split_2
I1125 19:43:14.608927 18938 net.cpp:411] inception_5b/5x5_reduce -> inception_5b/5x5_reduce
I1125 19:43:14.610790 18938 net.cpp:150] Setting up inception_5b/5x5_reduce
I1125 19:43:14.610805 18938 net.cpp:157] Top shape: 64 48 7 7 (150528)
I1125 19:43:14.610810 18938 net.cpp:165] Memory required for data: 3558593808
I1125 19:43:14.610816 18938 layer_factory.hpp:76] Creating layer inception_5b/relu_5x5_reduce
I1125 19:43:14.610822 18938 net.cpp:106] Creating Layer inception_5b/relu_5x5_reduce
I1125 19:43:14.610827 18938 net.cpp:454] inception_5b/relu_5x5_reduce <- inception_5b/5x5_reduce
I1125 19:43:14.610833 18938 net.cpp:397] inception_5b/relu_5x5_reduce -> inception_5b/5x5_reduce (in-place)
I1125 19:43:14.611220 18938 net.cpp:150] Setting up inception_5b/relu_5x5_reduce
I1125 19:43:14.611234 18938 net.cpp:157] Top shape: 64 48 7 7 (150528)
I1125 19:43:14.611238 18938 net.cpp:165] Memory required for data: 3559195920
I1125 19:43:14.611241 18938 layer_factory.hpp:76] Creating layer inception_5b/5x5
I1125 19:43:14.611251 18938 net.cpp:106] Creating Layer inception_5b/5x5
I1125 19:43:14.611256 18938 net.cpp:454] inception_5b/5x5 <- inception_5b/5x5_reduce
I1125 19:43:14.611263 18938 net.cpp:411] inception_5b/5x5 -> inception_5b/5x5
I1125 19:43:14.613467 18938 net.cpp:150] Setting up inception_5b/5x5
I1125 19:43:14.613483 18938 net.cpp:157] Top shape: 64 128 7 7 (401408)
I1125 19:43:14.613487 18938 net.cpp:165] Memory required for data: 3560801552
I1125 19:43:14.613493 18938 layer_factory.hpp:76] Creating layer inception_5b/relu_5x5
I1125 19:43:14.613499 18938 net.cpp:106] Creating Layer inception_5b/relu_5x5
I1125 19:43:14.613504 18938 net.cpp:454] inception_5b/relu_5x5 <- inception_5b/5x5
I1125 19:43:14.613509 18938 net.cpp:397] inception_5b/relu_5x5 -> inception_5b/5x5 (in-place)
I1125 19:43:14.613731 18938 net.cpp:150] Setting up inception_5b/relu_5x5
I1125 19:43:14.613741 18938 net.cpp:157] Top shape: 64 128 7 7 (401408)
I1125 19:43:14.613745 18938 net.cpp:165] Memory required for data: 3562407184
I1125 19:43:14.613749 18938 layer_factory.hpp:76] Creating layer inception_5b/pool
I1125 19:43:14.613756 18938 net.cpp:106] Creating Layer inception_5b/pool
I1125 19:43:14.613761 18938 net.cpp:454] inception_5b/pool <- inception_5a/output_inception_5a/output_0_split_3
I1125 19:43:14.613766 18938 net.cpp:411] inception_5b/pool -> inception_5b/pool
I1125 19:43:14.614183 18938 net.cpp:150] Setting up inception_5b/pool
I1125 19:43:14.614198 18938 net.cpp:157] Top shape: 64 832 7 7 (2609152)
I1125 19:43:14.614202 18938 net.cpp:165] Memory required for data: 3572843792
I1125 19:43:14.614205 18938 layer_factory.hpp:76] Creating layer inception_5b/pool_proj
I1125 19:43:14.614213 18938 net.cpp:106] Creating Layer inception_5b/pool_proj
I1125 19:43:14.614217 18938 net.cpp:454] inception_5b/pool_proj <- inception_5b/pool
I1125 19:43:14.614225 18938 net.cpp:411] inception_5b/pool_proj -> inception_5b/pool_proj
I1125 19:43:14.616636 18938 net.cpp:150] Setting up inception_5b/pool_proj
I1125 19:43:14.616653 18938 net.cpp:157] Top shape: 64 128 7 7 (401408)
I1125 19:43:14.616657 18938 net.cpp:165] Memory required for data: 3574449424
I1125 19:43:14.616663 18938 layer_factory.hpp:76] Creating layer inception_5b/relu_pool_proj
I1125 19:43:14.616669 18938 net.cpp:106] Creating Layer inception_5b/relu_pool_proj
I1125 19:43:14.616674 18938 net.cpp:454] inception_5b/relu_pool_proj <- inception_5b/pool_proj
I1125 19:43:14.616680 18938 net.cpp:397] inception_5b/relu_pool_proj -> inception_5b/pool_proj (in-place)
I1125 19:43:14.616894 18938 net.cpp:150] Setting up inception_5b/relu_pool_proj
I1125 19:43:14.616904 18938 net.cpp:157] Top shape: 64 128 7 7 (401408)
I1125 19:43:14.616907 18938 net.cpp:165] Memory required for data: 3576055056
I1125 19:43:14.616911 18938 layer_factory.hpp:76] Creating layer inception_5b/output
I1125 19:43:14.616917 18938 net.cpp:106] Creating Layer inception_5b/output
I1125 19:43:14.616921 18938 net.cpp:454] inception_5b/output <- inception_5b/1x1
I1125 19:43:14.616933 18938 net.cpp:454] inception_5b/output <- inception_5b/3x3
I1125 19:43:14.616937 18938 net.cpp:454] inception_5b/output <- inception_5b/5x5
I1125 19:43:14.616940 18938 net.cpp:454] inception_5b/output <- inception_5b/pool_proj
I1125 19:43:14.616947 18938 net.cpp:411] inception_5b/output -> inception_5b/output
I1125 19:43:14.616977 18938 net.cpp:150] Setting up inception_5b/output
I1125 19:43:14.616986 18938 net.cpp:157] Top shape: 64 1024 7 7 (3211264)
I1125 19:43:14.616989 18938 net.cpp:165] Memory required for data: 3588900112
I1125 19:43:14.616993 18938 layer_factory.hpp:76] Creating layer pool5/7x7_s1
I1125 19:43:14.616999 18938 net.cpp:106] Creating Layer pool5/7x7_s1
I1125 19:43:14.617002 18938 net.cpp:454] pool5/7x7_s1 <- inception_5b/output
I1125 19:43:14.617007 18938 net.cpp:411] pool5/7x7_s1 -> pool5/7x7_s1
I1125 19:43:14.617548 18938 net.cpp:150] Setting up pool5/7x7_s1
I1125 19:43:14.617563 18938 net.cpp:157] Top shape: 64 1024 1 1 (65536)
I1125 19:43:14.617566 18938 net.cpp:165] Memory required for data: 3589162256
I1125 19:43:14.617569 18938 layer_factory.hpp:76] Creating layer pool5/drop_7x7_s1
I1125 19:43:14.617578 18938 net.cpp:106] Creating Layer pool5/drop_7x7_s1
I1125 19:43:14.617580 18938 net.cpp:454] pool5/drop_7x7_s1 <- pool5/7x7_s1
I1125 19:43:14.617585 18938 net.cpp:397] pool5/drop_7x7_s1 -> pool5/7x7_s1 (in-place)
I1125 19:43:14.617614 18938 net.cpp:150] Setting up pool5/drop_7x7_s1
I1125 19:43:14.617620 18938 net.cpp:157] Top shape: 64 1024 1 1 (65536)
I1125 19:43:14.617624 18938 net.cpp:165] Memory required for data: 3589424400
I1125 19:43:14.617626 18938 layer_factory.hpp:76] Creating layer loss3/classifier-attribute
I1125 19:43:14.617635 18938 net.cpp:106] Creating Layer loss3/classifier-attribute
I1125 19:43:14.617638 18938 net.cpp:454] loss3/classifier-attribute <- pool5/7x7_s1
I1125 19:43:14.617643 18938 net.cpp:411] loss3/classifier-attribute -> loss3/classifier-attribute
I1125 19:43:14.617792 18938 net.cpp:150] Setting up loss3/classifier-attribute
I1125 19:43:14.617801 18938 net.cpp:157] Top shape: 64 5 (320)
I1125 19:43:14.617805 18938 net.cpp:165] Memory required for data: 3589425680
I1125 19:43:14.617810 18938 layer_factory.hpp:76] Creating layer loss3/classifier-attribute_loss3/classifier-attribute_0_split
I1125 19:43:14.617816 18938 net.cpp:106] Creating Layer loss3/classifier-attribute_loss3/classifier-attribute_0_split
I1125 19:43:14.617820 18938 net.cpp:454] loss3/classifier-attribute_loss3/classifier-attribute_0_split <- loss3/classifier-attribute
I1125 19:43:14.617826 18938 net.cpp:411] loss3/classifier-attribute_loss3/classifier-attribute_0_split -> loss3/classifier-attribute_loss3/classifier-attribute_0_split_0
I1125 19:43:14.617832 18938 net.cpp:411] loss3/classifier-attribute_loss3/classifier-attribute_0_split -> loss3/classifier-attribute_loss3/classifier-attribute_0_split_1
I1125 19:43:14.617866 18938 net.cpp:150] Setting up loss3/classifier-attribute_loss3/classifier-attribute_0_split
I1125 19:43:14.617873 18938 net.cpp:157] Top shape: 64 5 (320)
I1125 19:43:14.617877 18938 net.cpp:157] Top shape: 64 5 (320)
I1125 19:43:14.617880 18938 net.cpp:165] Memory required for data: 3589428240
I1125 19:43:14.617883 18938 layer_factory.hpp:76] Creating layer loss3/loss3
I1125 19:43:14.617897 18938 net.cpp:106] Creating Layer loss3/loss3
I1125 19:43:14.617900 18938 net.cpp:454] loss3/loss3 <- loss3/classifier-attribute_loss3/classifier-attribute_0_split_0
I1125 19:43:14.617904 18938 net.cpp:454] loss3/loss3 <- label_data_1_split_4
…
