…
I1126 19:49:36.822968 10970 net.cpp:322] The NetState phase (0) differed from the phase (1) specified by a rule in layer loss3/top-1
I1126 19:49:36.823902 10970 net.cpp:49] Initializing net from parameters: 
name: "GoogleNet-finetune-for-cigit"
state {
  phase: TRAIN
}
layer {
  name: "data"
  type: "ImageData"
  top: "data"
  top: "label"
  include {
    phase: TRAIN
  }
  transform_param {
    mirror: true
    crop_size: 224
    mean_value: 104
    mean_value: 117
    mean_value: 123
  }
  image_data_param {
    source: "pad_train.txt"
    batch_size: 64
    shuffle: true
    new_height: 256
    new_width: 256
  }
}
layer {
  name: "conv1/7x7_s2"
  type: "Convolution"
  bottom: "data"
  top: "conv1/7x7_s2"
  param {
    lr_mult: 1
    decay_mult: 1
  }
  param {
    lr_mult: 2
    decay_mult: 0
  }
  convolution_param {
    num_output: 64
    pad: 3
    kernel_size: 7
    stride: 2
    weight_filler {
      type: "xavier"
    }
    bias_filler {
      type: "constant"
      value: 0.2
    }
  }
}
layer {
  name: "conv1/relu_7x7"
  type: "ReLU"
  bottom: "conv1/7x7_s2"
  top: "conv1/7x7_s2"
}
layer {
  name: "pool1/3x3_s2"
  type: "Pooling"
  bottom: "conv1/7x7_s2"
  top: "pool1/3x3_s2"
  pooling_param {
    pool: MAX
    kernel_size: 3
    stride: 2
  }
}
layer {
  name: "pool1/norm1"
  type: "LRN"
  bottom: "pool1/3x3_s2"
  top: "pool1/norm1"
  lrn_param {
    local_size: 5
    alpha: 0.0001
    beta: 0.75
  }
}
layer {
  name: "conv2/3x3_reduce"
  type: "Convolution"
  bottom: "pool1/norm1"
  top: "conv2/3x3_reduce"
  param {
    lr_mult: 1
    decay_mult: 1
  }
  param {
    lr_mult: 2
    decay_mult: 0
  }
  convolution_param {
    num_output: 64
    kernel_size: 1
    weight_filler {
      type: "xavier"
    }
    bias_filler {
      type: "constant"
      value: 0.2
    }
  }
}
layer {
  name: "conv2/relu_3x3_reduce"
  type: "ReLU"
  bottom: "conv2/3x3_reduce"
  top: "conv2/3x3_reduce"
}
layer {
  name: "conv2/3x3"
  type: "Convolution"
  bottom: "conv2/3x3_reduce"
  top: "conv2/3x3"
  param {
    lr_mult: 1
    decay_mult: 1
  }
  param {
    lr_mult: 2
    decay_mult: 0
  }
  convolution_param {
    num_output: 192
    pad: 1
    kernel_size: 3
    weight_filler {
      type: "xavier"
    }
    bias_filler {
      type: "constant"
      value: 0.2
    }
  }
}
layer {
  name: "conv2/relu_3x3"
  type: "ReLU"
  bottom: "conv2/3x3"
  top: "conv2/3x3"
}
layer {
  name: "conv2/norm2"
  type: "LRN"
  bottom: "conv2/3x3"
  top: "conv2/norm2"
  lrn_param {
    local_size: 5
    alpha: 0.0001
    beta: 0.75
  }
}
layer {
  name: "pool2/3x3_s2"
  type: "Pooling"
  bottom: "conv2/norm2"
  top: "pool2/3x3_s2"
  pooling_param {
    pool: MAX
    kernel_size: 3
    stride: 2
  }
}
layer {
  name: "inception_3a/1x1"
  type: "Convolution"
  bottom: "pool2/3x3_s2"
  top: "inception_3a/1x1"
  param {
    lr_mult: 1
    decay_mult: 1
  }
  param {
    lr_mult: 2
    decay_mult: 0
  }
  convolution_param {
    num_output: 64
    kernel_size: 1
    weight_filler {
      type: "xavier"
    }
    bias_filler {
      type: "constant"
      value: 0.2
    }
  }
}
layer {
  name: "inception_3a/relu_1x1"
  type: "ReLU"
  bottom: "inception_3a/1x1"
  top: "inception_3a/1x1"
}
layer {
  name: "inception_3a/3x3_reduce"
  type: "Convolution"
  bottom: "pool2/3x3_s2"
  top: "inception_3a/3x3_reduce"
  param {
    lr_mult: 1
    decay_mult: 1
  }
  param {
    lr_mult: 2
    decay_mult: 0
  }
  convolution_param {
    num_output: 96
    kernel_size: 1
    weight_filler {
      type: "xavier"
    }
    bias_filler {
      type: "constant"
      value: 0.2
    }
  }
}
layer {
  name: "inception_3a/relu_3x3_reduce"
  type: "ReLU"
  bottom: "inception_3a/3x3_reduce"
  top: "inception_3a/3x3_reduce"
}
layer {
  name: "inception_3a/3x3"
  type: "Convolution"
  bottom: "inception_3a/3x3_reduce"
  top: "inception_3a/3x3"
  param {
    lr_mult: 1
    decay_mult: 1
  }
  param {
    lr_mult: 2
    decay_mult: 0
  }
  convolution_param {
    num_output: 128
    pad: 1
    kernel_size: 3
    weight_filler {
      type: "xavier"
    }
    bias_filler {
      type: "constant"
      value: 0.2
    }
  }
}
layer {
  name: "inception_3a/relu_3x3"
  type: "ReLU"
  bottom: "inception_3a/3x3"
  top: "inception_3a/3x3"
}
layer {
  name: "inception_3a/5x5_reduce"
  type: "Convolution"
  bottom: "pool2/3x3_s2"
  top: "inception_3a/5x5_reduce"
  param {
    lr_mult: 1
    decay_mult: 1
  }
  param {
    lr_mult: 2
    decay_mult: 0
  }
  convolution_param {
    num_output: 16
    kernel_size: 1
    weight_filler {
      type: "xavier"
    }
    bias_filler {
      type: "constant"
      value: 0.2
    }
  }
}
layer {
  name: "inception_3a/relu_5x5_reduce"
  type: "ReLU"
  bottom: "inception_3a/5x5_reduce"
  top: "inception_3a/5x5_reduce"
}
layer {
  name: "inception_3a/5x5"
  type: "Convolution"
  bottom: "inception_3a/5x5_reduce"
  top: "inception_3a/5x5"
  param {
    lr_mult: 1
    decay_mult: 1
  }
  param {
    lr_mult: 2
    decay_mult: 0
  }
  convolution_param {
    num_output: 32
    pad: 2
    kernel_size: 5
    weight_filler {
      type: "xavier"
    }
    bias_filler {
      type: "constant"
      value: 0.2
    }
  }
}
layer {
  name: "inception_3a/relu_5x5"
  type: "ReLU"
  bottom: "inception_3a/5x5"
  top: "inception_3a/5x5"
}
layer {
  name: "inception_3a/pool"
  type: "Pooling"
  bottom: "pool2/3x3_s2"
  top: "inception_3a/pool"
  pooling_param {
    pool: MAX
    kernel_size: 3
    stride: 1
    pad: 1
  }
}
layer {
  name: "inception_3a/pool_proj"
  type: "Convolution"
  bottom: "inception_3a/pool"
  top: "inception_3a/pool_proj"
  param {
    lr_mult: 1
    decay_mult: 1
  }
  param {
    lr_mult: 2
    decay_mult: 0
  }
  convolution_param {
    num_output: 32
    kernel_size: 1
    weight_filler {
      type: "xavier"
    }
    bias_filler {
      type: "constant"
      value: 0.2
    }
  }
}
layer {
  name: "inception_3a/relu_pool_proj"
  type: "ReLU"
  bottom: "inception_3a/pool_proj"
  top: "inception_3a/pool_proj"
}
layer {
  name: "inception_3a/output"
  type: "Concat"
  bottom: "inception_3a/1x1"
  bottom: "inception_3a/3x3"
  bottom: "inception_3a/5x5"
  bottom: "inception_3a/pool_proj"
  top: "inception_3a/output"
}
layer {
  name: "inception_3b/1x1"
  type: "Convolution"
  bottom: "inception_3a/output"
  top: "inception_3b/1x1"
  param {
    lr_mult: 1
    decay_mult: 1
  }
  param {
    lr_mult: 2
    decay_mult: 0
  }
  convolution_param {
    num_output: 128
    kernel_size: 1
    weight_filler {
      type: "xavier"
    }
    bias_filler {
      type: "constant"
      value: 0.2
    }
  }
}
layer {
  name: "inception_3b/relu_1x1"
  type: "ReLU"
  bottom: "inception_3b/1x1"
  top: "inception_3b/1x1"
}
layer {
  name: "inception_3b/3x3_reduce"
  type: "Convolution"
  bottom: "inception_3a/output"
  top: "inception_3b/3x3_reduce"
  param {
    lr_mult: 1
    decay_mult: 1
  }
  param {
    lr_mult: 2
    decay_mult: 0
  }
  convolution_param {
    num_output: 128
    kernel_size: 1
    weight_filler {
      type: "xavier"
    }
    bias_filler {
      type: "constant"
      value: 0.2
    }
  }
}
layer {
  name: "inception_3b/relu_3x3_reduce"
  type: "ReLU"
  bottom: "inception_3b/3x3_reduce"
  top: "inception_3b/3x3_reduce"
}
layer {
  name: "inception_3b/3x3"
  type: "Convolution"
  bottom: "inception_3b/3x3_reduce"
  top: "inception_3b/3x3"
  param {
    lr_mult: 1
    decay_mult: 1
  }
  param {
    lr_mult: 2
    decay_mult: 0
  }
  convolution_param {
    num_output: 192
    pad: 1
    kernel_size: 3
    weight_filler {
      type: "xavier"
    }
    bias_filler {
      type: "constant"
      value: 0.2
    }
  }
}
layer {
  name: "inception_3b/relu_3x3"
  type: "ReLU"
  bottom: "inception_3b/3x3"
  top: "inception_3b/3x3"
}
layer {
  name: "inception_3b/5x5_reduce"
  type: "Convolution"
  bottom: "inception_3a/output"
  top: "inception_3b/5x5_reduce"
  param {
    lr_mult: 1
    decay_mult: 1
  }
  param {
    lr_mult: 2
    decay_mult: 0
  }
  convolution_param {
    num_output: 32
    kernel_size: 1
    weight_filler {
      type: "xavier"
    }
    bias_filler {
      type: "constant"
      value: 0.2
    }
  }
}
layer {
  name: "inception_3b/relu_5x5_reduce"
  type: "ReLU"
  bottom: "inception_3b/5x5_reduce"
  top: "inception_3b/5x5_reduce"
}
layer {
  name: "inception_3b/5x5"
  type: "Convolution"
  bottom: "inception_3b/5x5_reduce"
  top: "inception_3b/5x5"
  param {
    lr_mult: 1
    decay_mult: 1
  }
  param {
    lr_mult: 2
    decay_mult: 0
  }
  convolution_param {
    num_output: 96
    pad: 2
    kernel_size: 5
    weight_filler {
      type: "xavier"
    }
    bias_filler {
      type: "constant"
      value: 0.2
    }
  }
}
layer {
  name: "inception_3b/relu_5x5"
  type: "ReLU"
  bottom: "inception_3b/5x5"
  top: "inception_3b/5x5"
}
layer {
  name: "inception_3b/pool"
  type: "Pooling"
  bottom: "inception_3a/output"
  top: "inception_3b/pool"
  pooling_param {
    pool: MAX
    kernel_size: 3
    stride: 1
    pad: 1
  }
}
layer {
  name: "inception_3b/pool_proj"
  type: "Convolution"
  bottom: "inception_3b/pool"
  top: "inception_3b/pool_proj"
  param {
    lr_mult: 1
    decay_mult: 1
  }
  param {
    lr_mult: 2
    decay_mult: 0
  }
  convolution_param {
    num_output: 64
    kernel_size: 1
    weight_filler {
      type: "xavier"
    }
    bias_filler {
      type: "constant"
      value: 0.2
    }
  }
}
layer {
  name: "inception_3b/relu_pool_proj"
  type: "ReLU"
  bottom: "inception_3b/pool_proj"
  top: "inception_3b/pool_proj"
}
layer {
  name: "inception_3b/output"
  type: "Concat"
  bottom: "inception_3b/1x1"
  bottom: "inception_3b/3x3"
  bottom: "inception_3b/5x5"
  bottom: "inception_3b/pool_proj"
  top: "inception_3b/output"
}
layer {
  name: "pool3/3x3_s2"
  type: "Pooling"
  bottom: "inception_3b/output"
  top: "pool3/3x3_s2"
  pooling_param {
    pool: MAX
    kernel_size: 3
    stride: 2
  }
}
layer {
  name: "inception_4a/1x1"
  type: "Convolution"
  bottom: "pool3/3x3_s2"
  top: "inception_4a/1x1"
  param {
    lr_mult: 1
    decay_mult: 1
  }
  param {
    lr_mult: 2
    decay_mult: 0
  }
  convolution_param {
    num_output: 192
    kernel_size: 1
    weight_filler {
      type: "xavier"
    }
    bias_filler {
      type: "constant"
      value: 0.2
    }
  }
}
layer {
  name: "inception_4a/relu_1x1"
  type: "ReLU"
  bottom: "inception_4a/1x1"
  top: "inception_4a/1x1"
}
layer {
  name: "inception_4a/3x3_reduce"
  type: "Convolution"
  bottom: "pool3/3x3_s2"
  top: "inception_4a/3x3_reduce"
  param {
    lr_mult: 1
    decay_mult: 1
  }
  param {
    lr_mult: 2
    decay_mult: 0
  }
  convolution_param {
    num_output: 96
    kernel_size: 1
    weight_filler {
      type: "xavier"
    }
    bias_filler {
      type: "constant"
      value: 0.2
    }
  }
}
layer {
  name: "inception_4a/relu_3x3_reduce"
  type: "ReLU"
  bottom: "inception_4a/3x3_reduce"
  top: "inception_4a/3x3_reduce"
}
layer {
  name: "inception_4a/3x3"
  type: "Convolution"
  bottom: "inception_4a/3x3_reduce"
  top: "inception_4a/3x3"
  param {
    lr_mult: 1
    decay_mult: 1
  }
  param {
    lr_mult: 2
    decay_mult: 0
  }
  convolution_param {
    num_output: 208
    pad: 1
    kernel_size: 3
    weight_filler {
      type: "xavier"
    }
    bias_filler {
      type: "constant"
      value: 0.2
    }
  }
}
layer {
  name: "inception_4a/relu_3x3"
  type: "ReLU"
  bottom: "inception_4a/3x3"
  top: "inception_4a/3x3"
}
layer {
  name: "inception_4a/5x5_reduce"
  type: "Convolution"
  bottom: "pool3/3x3_s2"
  top: "inception_4a/5x5_reduce"
  param {
    lr_mult: 1
    decay_mult: 1
  }
  param {
    lr_mult: 2
    decay_mult: 0
  }
  convolution_param {
    num_output: 16
    kernel_size: 1
    weight_filler {
      type: "xavier"
    }
    bias_filler {
      type: "constant"
      value: 0.2
    }
  }
}
layer {
  name: "inception_4a/relu_5x5_reduce"
  type: "ReLU"
  bottom: "inception_4a/5x5_reduce"
  top: "inception_4a/5x5_reduce"
}
layer {
  name: "inception_4a/5x5"
  type: "Convolution"
  bottom: "inception_4a/5x5_reduce"
  top: "inception_4a/5x5"
  param {
    lr_mult: 1
    decay_mult: 1
  }
  param {
    lr_mult: 2
    decay_mult: 0
  }
  convolution_param {
    num_output: 48
    pad: 2
    kernel_size: 5
    weight_filler {
      type: "xavier"
    }
    bias_filler {
      type: "constant"
      value: 0.2
    }
  }
}
layer {
  name: "inception_4a/relu_5x5"
  type: "ReLU"
  bottom: "inception_4a/5x5"
  top: "inception_4a/5x5"
}
layer {
  name: "inception_4a/pool"
  type: "Pooling"
  bottom: "pool3/3x3_s2"
  top: "inception_4a/pool"
  pooling_param {
    pool: MAX
    kernel_size: 3
    stride: 1
    pad: 1
  }
}
layer {
  name: "inception_4a/pool_proj"
  type: "Convolution"
  bottom: "inception_4a/pool"
  top: "inception_4a/pool_proj"
  param {
    lr_mult: 1
    decay_mult: 1
  }
  param {
    lr_mult: 2
    decay_mult: 0
  }
  convolution_param {
    num_output: 64
    kernel_size: 1
    weight_filler {
      type: "xavier"
    }
    bias_filler {
      type: "constant"
      value: 0.2
    }
  }
}
layer {
  name: "inception_4a/relu_pool_proj"
  type: "ReLU"
  bottom: "inception_4a/pool_proj"
  top: "inception_4a/pool_proj"
}
layer {
  name: "inception_4a/output"
  type: "Concat"
  bottom: "inception_4a/1x1"
  bottom: "inception_4a/3x3"
  bottom: "inception_4a/5x5"
  bottom: "inception_4a/pool_proj"
  top: "inception_4a/output"
}
layer {
  name: "loss1/ave_pool"
  type: "Pooling"
  bottom: "inception_4a/output"
  top: "loss1/ave_pool"
  pooling_param {
    pool: AVE
    kernel_size: 5
    stride: 3
  }
}
layer {
  name: "loss1/conv"
  type: "Convolution"
  bottom: "loss1/ave_pool"
  top: "loss1/conv"
  param {
    lr_mult: 1
    decay_mult: 1
  }
  param {
    lr_mult: 2
    decay_mult: 0
  }
  convolution_param {
    num_output: 128
    kernel_size: 1
    weight_filler {
      type: "xavier"
    }
    bias_filler {
      type: "constant"
      value: 0.2
    }
  }
}
layer {
  name: "loss1/relu_conv"
  type: "ReLU"
  bottom: "loss1/conv"
  top: "loss1/conv"
}
layer {
  name: "loss1/fc"
  type: "InnerProduct"
  bottom: "loss1/conv"
  top: "loss1/fc"
  param {
    lr_mult: 1
    decay_mult: 1
  }
  param {
    lr_mult: 2
    decay_mult: 0
  }
  inner_product_param {
    num_output: 1024
    weight_filler {
      type: "xavier"
    }
    bias_filler {
      type: "constant"
      value: 0.2
    }
  }
}
layer {
  name: "loss1/relu_fc"
  type: "ReLU"
  bottom: "loss1/fc"
  top: "loss1/fc"
}
layer {
  name: "loss1/drop_fc"
  type: "Dropout"
  bottom: "loss1/fc"
  top: "loss1/fc"
  dropout_param {
    dropout_ratio: 0.7
  }
}
layer {
  name: "loss1/classifier-attribute"
  type: "InnerProduct"
  bottom: "loss1/fc"
  top: "loss1/classifier-attribute"
  param {
    lr_mult: 10
    decay_mult: 1
  }
  param {
    lr_mult: 20
    decay_mult: 0
  }
  inner_product_param {
    num_output: 9999
    weight_filler {
      type: "xavier"
    }
    bias_filler {
      type: "constant"
      value: 0
    }
  }
}
layer {
  name: "loss1/loss"
  type: "SoftmaxWithLoss"
  bottom: "loss1/classifier-attribute"
  bottom: "label"
  top: "loss1/loss1"
  loss_weight: 0.3
}
layer {
  name: "inception_4b/1x1"
  type: "Convolution"
  bottom: "inception_4a/output"
  top: "inception_4b/1x1"
  param {
    lr_mult: 1
    decay_mult: 1
  }
  param {
    lr_mult: 2
    decay_mult: 0
  }
  convolution_param {
    num_output: 160
    kernel_size: 1
    weight_filler {
      type: "xavier"
    }
    bias_filler {
      type: "constant"
      value: 0.2
    }
  }
}
layer {
  name: "inception_4b/relu_1x1"
  type: "ReLU"
  bottom: "inception_4b/1x1"
  top: "inception_4b/1x1"
}
layer {
  name: "inception_4b/3x3_reduce"
  type: "Convolution"
  bottom: "inception_4a/output"
  top: "inception_4b/3x3_reduce"
  param {
    lr_mult: 1
    decay_mult: 1
  }
  param {
    lr_mult: 2
    decay_mult: 0
  }
  convolution_param {
    num_output: 112
    kernel_size: 1
    weight_filler {
      type: "xavier"
    }
    bias_filler {
      type: "constant"
      value: 0.2
    }
  }
}
layer {
  name: "inception_4b/relu_3x3_reduce"
  type: "ReLU"
  bottom: "inception_4b/3x3_reduce"
  top: "inception_4b/3x3_reduce"
}
layer {
  name: "inception_4b/3x3"
  type: "Convolution"
  bottom: "inception_4b/3x3_reduce"
  top: "inception_4b/3x3"
  param {
    lr_mult: 1
    decay_mult: 1
  }
  param {
    lr_mult: 2
    decay_mult: 0
  }
  convolution_param {
    num_output: 224
    pad: 1
    kernel_size: 3
    weight_filler {
      type: "xavier"
    }
    bias_filler {
      type: "constant"
      value: 0.2
    }
  }
}
layer {
  name: "inception_4b/relu_3x3"
  type: "ReLU"
  bottom: "inception_4b/3x3"
  top: "inception_4b/3x3"
}
layer {
  name: "inception_4b/5x5_reduce"
  type: "Convolution"
  bottom: "inception_4a/output"
  top: "inception_4b/5x5_reduce"
  param {
    lr_mult: 1
    decay_mult: 1
  }
  param {
    lr_mult: 2
    decay_mult: 0
  }
  convolution_param {
    num_output: 24
    kernel_size: 1
    weight_filler {
      type: "xavier"
    }
    bias_filler {
      type: "constant"
      value: 0.2
    }
  }
}
layer {
  name: "inception_4b/relu_5x5_reduce"
  type: "ReLU"
  bottom: "inception_4b/5x5_reduce"
  top: "inception_4b/5x5_reduce"
}
layer {
  name: "inception_4b/5x5"
  type: "Convolution"
  bottom: "inception_4b/5x5_reduce"
  top: "inception_4b/5x5"
  param {
    lr_mult: 1
    decay_mult: 1
  }
  param {
    lr_mult: 2
    decay_mult: 0
  }
  convolution_param {
    num_output: 64
    pad: 2
    kernel_size: 5
    weight_filler {
      type: "xavier"
    }
    bias_filler {
      type: "constant"
      value: 0.2
    }
  }
}
layer {
  name: "inception_4b/relu_5x5"
  type: "ReLU"
  bottom: "inception_4b/5x5"
  top: "inception_4b/5x5"
}
layer {
  name: "inception_4b/pool"
  type: "Pooling"
  bottom: "inception_4a/output"
  top: "inception_4b/pool"
  pooling_param {
    pool: MAX
    kernel_size: 3
    stride: 1
    pad: 1
  }
}
layer {
  name: "inception_4b/pool_proj"
  type: "Convolution"
  bottom: "inception_4b/pool"
  top: "inception_4b/pool_proj"
  param {
    lr_mult: 1
    decay_mult: 1
  }
  param {
    lr_mult: 2
    decay_mult: 0
  }
  convolution_param {
    num_output: 64
    kernel_size: 1
    weight_filler {
      type: "xavier"
    }
    bias_filler {
      type: "constant"
      value: 0.2
    }
  }
}
layer {
  name: "inception_4b/relu_pool_proj"
  type: "ReLU"
  bottom: "inception_4b/pool_proj"
  top: "inception_4b/pool_proj"
}
layer {
  name: "inception_4b/output"
  type: "Concat"
  bottom: "inception_4b/1x1"
  bottom: "inception_4b/3x3"
  bottom: "inception_4b/5x5"
  bottom: "inception_4b/pool_proj"
  top: "inception_4b/output"
}
layer {
  name: "inception_4c/1x1"
  type: "Convolution"
  bottom: "inception_4b/output"
  top: "inception_4c/1x1"
  param {
    lr_mult: 1
    decay_mult: 1
  }
  param {
    lr_mult: 2
    decay_mult: 0
  }
  convolution_param {
    num_output: 128
    kernel_size: 1
    weight_filler {
      type: "xavier"
    }
    bias_filler {
      type: "constant"
      value: 0.2
    }
  }
}
layer {
  name: "inception_4c/relu_1x1"
  type: "ReLU"
  bottom: "inception_4c/1x1"
  top: "inception_4c/1x1"
}
layer {
  name: "inception_4c/3x3_reduce"
  type: "Convolution"
  bottom: "inception_4b/output"
  top: "inception_4c/3x3_reduce"
  param {
    lr_mult: 1
    decay_mult: 1
  }
  param {
    lr_mult: 2
    decay_mult: 0
  }
  convolution_param {
    num_output: 128
    kernel_size: 1
    weight_filler {
      type: "xavier"
    }
    bias_filler {
      type: "constant"
      value: 0.2
    }
  }
}
layer {
  name: "inception_4c/relu_3x3_reduce"
  type: "ReLU"
  bottom: "inception_4c/3x3_reduce"
  top: "inception_4c/3x3_reduce"
}
layer {
  name: "inception_4c/3x3"
  type: "Convolution"
  bottom: "inception_4c/3x3_reduce"
  top: "inception_4c/3x3"
  param {
    lr_mult: 1
    decay_mult: 1
  }
  param {
    lr_mult: 2
    decay_mult: 0
  }
  convolution_param {
    num_output: 256
    pad: 1
    kernel_size: 3
    weight_filler {
      type: "xavier"
    }
    bias_filler {
      type: "constant"
      value: 0.2
    }
  }
}
layer {
  name: "inception_4c/relu_3x3"
  type: "ReLU"
  bottom: "inception_4c/3x3"
  top: "inception_4c/3x3"
}
layer {
  name: "inception_4c/5x5_reduce"
  type: "Convolution"
  bottom: "inception_4b/output"
  top: "inception_4c/5x5_reduce"
  param {
    lr_mult: 1
    decay_mult: 1
  }
  param {
    lr_mult: 2
    decay_mult: 0
  }
  convolution_param {
    num_output: 24
    kernel_size: 1
    weight_filler {
      type: "xavier"
    }
    bias_filler {
      type: "constant"
      value: 0.2
    }
  }
}
layer {
  name: "inception_4c/relu_5x5_reduce"
  type: "ReLU"
  bottom: "inception_4c/5x5_reduce"
  top: "inception_4c/5x5_reduce"
}
layer {
  name: "inception_4c/5x5"
  type: "Convolution"
  bottom: "inception_4c/5x5_reduce"
  top: "inception_4c/5x5"
  param {
    lr_mult: 1
    decay_mult: 1
  }
  param {
    lr_mult: 2
    decay_mult: 0
  }
  convolution_param {
    num_output: 64
    pad: 2
    kernel_size: 5
    weight_filler {
      type: "xavier"
    }
    bias_filler {
      type: "constant"
      value: 0.2
    }
  }
}
layer {
  name: "inception_4c/relu_5x5"
  type: "ReLU"
  bottom: "inception_4c/5x5"
  top: "inception_4c/5x5"
}
layer {
  name: "inception_4c/pool"
  type: "Pooling"
  bottom: "inception_4b/output"
  top: "inception_4c/pool"
  pooling_param {
    pool: MAX
    kernel_size: 3
    stride: 1
    pad: 1
  }
}
layer {
  name: "inception_4c/pool_proj"
  type: "Convolution"
  bottom: "inception_4c/pool"
  top: "inception_4c/pool_proj"
  param {
    lr_mult: 1
    decay_mult: 1
  }
  param {
    lr_mult: 2
    decay_mult: 0
  }
  convolution_param {
    num_output: 64
    kernel_size: 1
    weight_filler {
      type: "xavier"
    }
    bias_filler {
      type: "constant"
      value: 0.2
    }
  }
}
layer {
  name: "inception_4c/relu_pool_proj"
  type: "ReLU"
  bottom: "inception_4c/pool_proj"
  top: "inception_4c/pool_proj"
}
layer {
  name: "inception_4c/output"
  type: "Concat"
  bottom: "inception_4c/1x1"
  bottom: "inception_4c/3x3"
  bottom: "inception_4c/5x5"
  bottom: "inception_4c/pool_proj"
  top: "inception_4c/output"
}
layer {
  name: "inception_4d/1x1"
  type: "Convolution"
  bottom: "inception_4c/output"
  top: "inception_4d/1x1"
  param {
    lr_mult: 1
    decay_mult: 1
  }
  param {
    lr_mult: 2
    decay_mult: 0
  }
  convolution_param {
    num_output: 112
    kernel_size: 1
    weight_filler {
      type: "xavier"
    }
    bias_filler {
      type: "constant"
      value: 0.2
    }
  }
}
layer {
  name: "inception_4d/relu_1x1"
  type: "ReLU"
  bottom: "inception_4d/1x1"
  top: "inception_4d/1x1"
}
layer {
  name: "inception_4d/3x3_reduce"
  type: "Convolution"
  bottom: "inception_4c/output"
  top: "inception_4d/3x3_reduce"
  param {
    lr_mult: 1
    decay_mult: 1
  }
  param {
    lr_mult: 2
    decay_mult: 0
  }
  convolution_param {
    num_output: 144
    kernel_size: 1
    weight_filler {
      type: "xavier"
    }
    bias_filler {
      type: "constant"
      value: 0.2
    }
  }
}
layer {
  name: "inception_4d/relu_3x3_reduce"
  type: "ReLU"
  bottom: "inception_4d/3x3_reduce"
  top: "inception_4d/3x3_reduce"
}
layer {
  name: "inception_4d/3x3"
  type: "Convolution"
  bottom: "inception_4d/3x3_reduce"
  top: "inception_4d/3x3"
  param {
    lr_mult: 1
    decay_mult: 1
  }
  param {
    lr_mult: 2
    decay_mult: 0
  }
  convolution_param {
    num_output: 288
    pad: 1
    kernel_size: 3
    weight_filler {
      type: "xavier"
    }
    bias_filler {
      type: "constant"
      value: 0.2
    }
  }
}
layer {
  name: "inception_4d/relu_3x3"
  type: "ReLU"
  bottom: "inception_4d/3x3"
  top: "inception_4d/3x3"
}
layer {
  name: "inception_4d/5x5_reduce"
  type: "Convolution"
  bottom: "inception_4c/output"
  top: "inception_4d/5x5_reduce"
  param {
    lr_mult: 1
    decay_mult: 1
  }
  param {
    lr_mult: 2
    decay_mult: 0
  }
  convolution_param {
    num_output: 32
    kernel_size: 1
    weight_filler {
      type: "xavier"
    }
    bias_filler {
      type: "constant"
      value: 0.2
    }
  }
}
layer {
  name: "inception_4d/relu_5x5_reduce"
  type: "ReLU"
  bottom: "inception_4d/5x5_reduce"
  top: "inception_4d/5x5_reduce"
}
layer {
  name: "inception_4d/5x5"
  type: "Convolution"
  bottom: "inception_4d/5x5_reduce"
  top: "inception_4d/5x5"
  param {
    lr_mult: 1
    decay_mult: 1
  }
  param {
    lr_mult: 2
    decay_mult: 0
  }
  convolution_param {
    num_output: 64
    pad: 2
    kernel_size: 5
    weight_filler {
      type: "xavier"
    }
    bias_filler {
      type: "constant"
      value: 0.2
    }
  }
}
layer {
  name: "inception_4d/relu_5x5"
  type: "ReLU"
  bottom: "inception_4d/5x5"
  top: "inception_4d/5x5"
}
layer {
  name: "inception_4d/pool"
  type: "Pooling"
  bottom: "inception_4c/output"
  top: "inception_4d/pool"
  pooling_param {
    pool: MAX
    kernel_size: 3
    stride: 1
    pad: 1
  }
}
layer {
  name: "inception_4d/pool_proj"
  type: "Convolution"
  bottom: "inception_4d/pool"
  top: "inception_4d/pool_proj"
  param {
    lr_mult: 1
    decay_mult: 1
  }
  param {
    lr_mult: 2
    decay_mult: 0
  }
  convolution_param {
    num_output: 64
    kernel_size: 1
    weight_filler {
      type: "xavier"
    }
    bias_filler {
      type: "constant"
      value: 0.2
    }
  }
}
layer {
  name: "inception_4d/relu_pool_proj"
  type: "ReLU"
  bottom: "inception_4d/pool_proj"
  top: "inception_4d/pool_proj"
}
layer {
  name: "inception_4d/output"
  type: "Concat"
  bottom: "inception_4d/1x1"
  bottom: "inception_4d/3x3"
  bottom: "inception_4d/5x5"
  bottom: "inception_4d/pool_proj"
  top: "inception_4d/output"
}
layer {
  name: "loss2/ave_pool"
  type: "Pooling"
  bottom: "inception_4d/output"
  top: "loss2/ave_pool"
  pooling_param {
    pool: AVE
    kernel_size: 5
    stride: 3
  }
}
layer {
  name: "loss2/conv"
  type: "Convolution"
  bottom: "loss2/ave_pool"
  top: "loss2/conv"
  param {
    lr_mult: 1
    decay_mult: 1
  }
  param {
    lr_mult: 2
    decay_mult: 0
  }
  convolution_param {
    num_output: 128
    kernel_size: 1
    weight_filler {
      type: "xavier"
    }
    bias_filler {
      type: "constant"
      value: 0.2
    }
  }
}
layer {
  name: "loss2/relu_conv"
  type: "ReLU"
  bottom: "loss2/conv"
  top: "loss2/conv"
}
layer {
  name: "loss2/fc"
  type: "InnerProduct"
  bottom: "loss2/conv"
  top: "loss2/fc"
  param {
    lr_mult: 1
    decay_mult: 1
  }
  param {
    lr_mult: 2
    decay_mult: 0
  }
  inner_product_param {
    num_output: 1024
    weight_filler {
      type: "xavier"
    }
    bias_filler {
      type: "constant"
      value: 0.2
    }
  }
}
layer {
  name: "loss2/relu_fc"
  type: "ReLU"
  bottom: "loss2/fc"
  top: "loss2/fc"
}
layer {
  name: "loss2/drop_fc"
  type: "Dropout"
  bottom: "loss2/fc"
  top: "loss2/fc"
  dropout_param {
    dropout_ratio: 0.7
  }
}
layer {
  name: "loss2/classifier-attribute"
  type: "InnerProduct"
  bottom: "loss2/fc"
  top: "loss2/classifier-attribute"
  param {
    lr_mult: 10
    decay_mult: 1
  }
  param {
    lr_mult: 20
    decay_mult: 0
  }
  inner_product_param {
    num_output: 9999
    weight_filler {
      type: "xavier"
    }
    bias_filler {
      type: "constant"
      value: 0
    }
  }
}
layer {
  name: "loss2/loss"
  type: "SoftmaxWithLoss"
  bottom: "loss2/classifier-attribute"
  bottom: "label"
  top: "loss2/loss1"
  loss_weight: 0.3
}
layer {
  name: "inception_4e/1x1"
  type: "Convolution"
  bottom: "inception_4d/output"
  top: "inception_4e/1x1"
  param {
    lr_mult: 1
    decay_mult: 1
  }
  param {
    lr_mult: 2
    decay_mult: 0
  }
  convolution_param {
    num_output: 256
    kernel_size: 1
    weight_filler {
      type: "xavier"
    }
    bias_filler {
      type: "constant"
      value: 0.2
    }
  }
}
layer {
  name: "inception_4e/relu_1x1"
  type: "ReLU"
  bottom: "inception_4e/1x1"
  top: "inception_4e/1x1"
}
layer {
  name: "inception_4e/3x3_reduce"
  type: "Convolution"
  bottom: "inception_4d/output"
  top: "inception_4e/3x3_reduce"
  param {
    lr_mult: 1
    decay_mult: 1
  }
  param {
    lr_mult: 2
    decay_mult: 0
  }
  convolution_param {
    num_output: 160
    kernel_size: 1
    weight_filler {
      type: "xavier"
    }
    bias_filler {
      type: "constant"
      value: 0.2
    }
  }
}
layer {
  name: "inception_4e/relu_3x3_reduce"
  type: "ReLU"
  bottom: "inception_4e/3x3_reduce"
  top: "inception_4e/3x3_reduce"
}
layer {
  name: "inception_4e/3x3"
  type: "Convolution"
  bottom: "inception_4e/3x3_reduce"
  top: "inception_4e/3x3"
  param {
    lr_mult: 1
    decay_mult: 1
  }
  param {
    lr_mult: 2
    decay_mult: 0
  }
  convolution_param {
    num_output: 320
    pad: 1
    kernel_size: 3
    weight_filler {
      type: "xavier"
    }
    bias_filler {
      type: "constant"
      value: 0.2
    }
  }
}
layer {
  name: "inception_4e/relu_3x3"
  type: "ReLU"
  bottom: "inception_4e/3x3"
  top: "inception_4e/3x3"
}
layer {
  name: "inception_4e/5x5_reduce"
  type: "Convolution"
  bottom: "inception_4d/output"
  top: "inception_4e/5x5_reduce"
  param {
    lr_mult: 1
    decay_mult: 1
  }
  param {
    lr_mult: 2
    decay_mult: 0
  }
  convolution_param {
    num_output: 32
    kernel_size: 1
    weight_filler {
      type: "xavier"
    }
    bias_filler {
      type: "constant"
      value: 0.2
    }
  }
}
layer {
  name: "inception_4e/relu_5x5_reduce"
  type: "ReLU"
  bottom: "inception_4e/5x5_reduce"
  top: "inception_4e/5x5_reduce"
}
layer {
  name: "inception_4e/5x5"
  type: "Convolution"
  bottom: "inception_4e/5x5_reduce"
  top: "inception_4e/5x5"
  param {
    lr_mult: 1
    decay_mult: 1
  }
  param {
    lr_mult: 2
    decay_mult: 0
  }
  convolution_param {
    num_output: 128
    pad: 2
    kernel_size: 5
    weight_filler {
      type: "xavier"
    }
    bias_filler {
      type: "constant"
      value: 0.2
    }
  }
}
layer {
  name: "inception_4e/relu_5x5"
  type: "ReLU"
  bottom: "inception_4e/5x5"
  top: "inception_4e/5x5"
}
layer {
  name: "inception_4e/pool"
  type: "Pooling"
  bottom: "ince
I1126 19:49:36.824647 10970 layer_factory.hpp:76] Creating layer data
I1126 19:49:36.824682 10970 net.cpp:106] Creating Layer data
I1126 19:49:36.824692 10970 net.cpp:411] data -> data
I1126 19:49:36.824718 10970 net.cpp:411] data -> label
I1126 19:49:36.825135 10970 image_data_layer.cpp:36] Opening file pad_train.txt
I1126 19:49:37.049051 10970 image_data_layer.cpp:46] Shuffling data
I1126 19:49:37.074748 10970 image_data_layer.cpp:51] A total of 193988 images.
I1126 19:49:37.094866 10970 image_data_layer.cpp:78] output data size: 64,3,224,224
I1126 19:49:37.146342 10970 net.cpp:150] Setting up data
I1126 19:49:37.146399 10970 net.cpp:157] Top shape: 64 3 224 224 (9633792)
I1126 19:49:37.146405 10970 net.cpp:157] Top shape: 64 (64)
I1126 19:49:37.146409 10970 net.cpp:165] Memory required for data: 38535424
I1126 19:49:37.146416 10970 layer_factory.hpp:76] Creating layer label_data_1_split
I1126 19:49:37.146430 10970 net.cpp:106] Creating Layer label_data_1_split
I1126 19:49:37.146436 10970 net.cpp:454] label_data_1_split <- label
I1126 19:49:37.146447 10970 net.cpp:411] label_data_1_split -> label_data_1_split_0
I1126 19:49:37.146456 10970 net.cpp:411] label_data_1_split -> label_data_1_split_1
I1126 19:49:37.146462 10970 net.cpp:411] label_data_1_split -> label_data_1_split_2
I1126 19:49:37.146574 10970 net.cpp:150] Setting up label_data_1_split
I1126 19:49:37.146582 10970 net.cpp:157] Top shape: 64 (64)
I1126 19:49:37.146586 10970 net.cpp:157] Top shape: 64 (64)
I1126 19:49:37.146590 10970 net.cpp:157] Top shape: 64 (64)
I1126 19:49:37.146594 10970 net.cpp:165] Memory required for data: 38536192
I1126 19:49:37.146597 10970 layer_factory.hpp:76] Creating layer conv1/7x7_s2
I1126 19:49:37.146612 10970 net.cpp:106] Creating Layer conv1/7x7_s2
I1126 19:49:37.146617 10970 net.cpp:454] conv1/7x7_s2 <- data
I1126 19:49:37.146623 10970 net.cpp:411] conv1/7x7_s2 -> conv1/7x7_s2
I1126 19:49:37.311132 10970 net.cpp:150] Setting up conv1/7x7_s2
I1126 19:49:37.311156 10970 net.cpp:157] Top shape: 64 64 112 112 (51380224)
I1126 19:49:37.311161 10970 net.cpp:165] Memory required for data: 244057088
I1126 19:49:37.311179 10970 layer_factory.hpp:76] Creating layer conv1/relu_7x7
I1126 19:49:37.311190 10970 net.cpp:106] Creating Layer conv1/relu_7x7
I1126 19:49:37.311195 10970 net.cpp:454] conv1/relu_7x7 <- conv1/7x7_s2
I1126 19:49:37.311202 10970 net.cpp:397] conv1/relu_7x7 -> conv1/7x7_s2 (in-place)
I1126 19:49:37.311485 10970 net.cpp:150] Setting up conv1/relu_7x7
I1126 19:49:37.311497 10970 net.cpp:157] Top shape: 64 64 112 112 (51380224)
I1126 19:49:37.311501 10970 net.cpp:165] Memory required for data: 449577984
I1126 19:49:37.311504 10970 layer_factory.hpp:76] Creating layer pool1/3x3_s2
I1126 19:49:37.311512 10970 net.cpp:106] Creating Layer pool1/3x3_s2
I1126 19:49:37.311516 10970 net.cpp:454] pool1/3x3_s2 <- conv1/7x7_s2
I1126 19:49:37.311522 10970 net.cpp:411] pool1/3x3_s2 -> pool1/3x3_s2
I1126 19:49:37.311700 10970 net.cpp:150] Setting up pool1/3x3_s2
I1126 19:49:37.311710 10970 net.cpp:157] Top shape: 64 64 56 56 (12845056)
I1126 19:49:37.311713 10970 net.cpp:165] Memory required for data: 500958208
I1126 19:49:37.311717 10970 layer_factory.hpp:76] Creating layer pool1/norm1
I1126 19:49:37.311727 10970 net.cpp:106] Creating Layer pool1/norm1
I1126 19:49:37.311730 10970 net.cpp:454] pool1/norm1 <- pool1/3x3_s2
I1126 19:49:37.311735 10970 net.cpp:411] pool1/norm1 -> pool1/norm1
I1126 19:49:37.312029 10970 net.cpp:150] Setting up pool1/norm1
I1126 19:49:37.312041 10970 net.cpp:157] Top shape: 64 64 56 56 (12845056)
I1126 19:49:37.312046 10970 net.cpp:165] Memory required for data: 552338432
I1126 19:49:37.312048 10970 layer_factory.hpp:76] Creating layer conv2/3x3_reduce
I1126 19:49:37.312057 10970 net.cpp:106] Creating Layer conv2/3x3_reduce
I1126 19:49:37.312062 10970 net.cpp:454] conv2/3x3_reduce <- pool1/norm1
I1126 19:49:37.312067 10970 net.cpp:411] conv2/3x3_reduce -> conv2/3x3_reduce
I1126 19:49:37.313282 10970 net.cpp:150] Setting up conv2/3x3_reduce
I1126 19:49:37.313297 10970 net.cpp:157] Top shape: 64 64 56 56 (12845056)
I1126 19:49:37.313300 10970 net.cpp:165] Memory required for data: 603718656
I1126 19:49:37.313309 10970 layer_factory.hpp:76] Creating layer conv2/relu_3x3_reduce
I1126 19:49:37.313315 10970 net.cpp:106] Creating Layer conv2/relu_3x3_reduce
I1126 19:49:37.313319 10970 net.cpp:454] conv2/relu_3x3_reduce <- conv2/3x3_reduce
I1126 19:49:37.313324 10970 net.cpp:397] conv2/relu_3x3_reduce -> conv2/3x3_reduce (in-place)
I1126 19:49:37.313588 10970 net.cpp:150] Setting up conv2/relu_3x3_reduce
I1126 19:49:37.313601 10970 net.cpp:157] Top shape: 64 64 56 56 (12845056)
I1126 19:49:37.313604 10970 net.cpp:165] Memory required for data: 655098880
I1126 19:49:37.313608 10970 layer_factory.hpp:76] Creating layer conv2/3x3
I1126 19:49:37.313617 10970 net.cpp:106] Creating Layer conv2/3x3
I1126 19:49:37.313621 10970 net.cpp:454] conv2/3x3 <- conv2/3x3_reduce
I1126 19:49:37.313627 10970 net.cpp:411] conv2/3x3 -> conv2/3x3
I1126 19:49:37.315642 10970 net.cpp:150] Setting up conv2/3x3
I1126 19:49:37.315657 10970 net.cpp:157] Top shape: 64 192 56 56 (38535168)
I1126 19:49:37.315661 10970 net.cpp:165] Memory required for data: 809239552
I1126 19:49:37.315670 10970 layer_factory.hpp:76] Creating layer conv2/relu_3x3
I1126 19:49:37.315677 10970 net.cpp:106] Creating Layer conv2/relu_3x3
I1126 19:49:37.315680 10970 net.cpp:454] conv2/relu_3x3 <- conv2/3x3
I1126 19:49:37.315685 10970 net.cpp:397] conv2/relu_3x3 -> conv2/3x3 (in-place)
I1126 19:49:37.315840 10970 net.cpp:150] Setting up conv2/relu_3x3
I1126 19:49:37.315850 10970 net.cpp:157] Top shape: 64 192 56 56 (38535168)
I1126 19:49:37.315853 10970 net.cpp:165] Memory required for data: 963380224
I1126 19:49:37.315856 10970 layer_factory.hpp:76] Creating layer conv2/norm2
I1126 19:49:37.315863 10970 net.cpp:106] Creating Layer conv2/norm2
I1126 19:49:37.315866 10970 net.cpp:454] conv2/norm2 <- conv2/3x3
I1126 19:49:37.315871 10970 net.cpp:411] conv2/norm2 -> conv2/norm2
I1126 19:49:37.316179 10970 net.cpp:150] Setting up conv2/norm2
I1126 19:49:37.316190 10970 net.cpp:157] Top shape: 64 192 56 56 (38535168)
I1126 19:49:37.316193 10970 net.cpp:165] Memory required for data: 1117520896
I1126 19:49:37.316197 10970 layer_factory.hpp:76] Creating layer pool2/3x3_s2
I1126 19:49:37.316203 10970 net.cpp:106] Creating Layer pool2/3x3_s2
I1126 19:49:37.316206 10970 net.cpp:454] pool2/3x3_s2 <- conv2/norm2
I1126 19:49:37.316215 10970 net.cpp:411] pool2/3x3_s2 -> pool2/3x3_s2
I1126 19:49:37.316395 10970 net.cpp:150] Setting up pool2/3x3_s2
I1126 19:49:37.316404 10970 net.cpp:157] Top shape: 64 192 28 28 (9633792)
I1126 19:49:37.316407 10970 net.cpp:165] Memory required for data: 1156056064
I1126 19:49:37.316411 10970 layer_factory.hpp:76] Creating layer pool2/3x3_s2_pool2/3x3_s2_0_split
I1126 19:49:37.316417 10970 net.cpp:106] Creating Layer pool2/3x3_s2_pool2/3x3_s2_0_split
I1126 19:49:37.316421 10970 net.cpp:454] pool2/3x3_s2_pool2/3x3_s2_0_split <- pool2/3x3_s2
I1126 19:49:37.316426 10970 net.cpp:411] pool2/3x3_s2_pool2/3x3_s2_0_split -> pool2/3x3_s2_pool2/3x3_s2_0_split_0
I1126 19:49:37.316431 10970 net.cpp:411] pool2/3x3_s2_pool2/3x3_s2_0_split -> pool2/3x3_s2_pool2/3x3_s2_0_split_1
I1126 19:49:37.316437 10970 net.cpp:411] pool2/3x3_s2_pool2/3x3_s2_0_split -> pool2/3x3_s2_pool2/3x3_s2_0_split_2
I1126 19:49:37.316442 10970 net.cpp:411] pool2/3x3_s2_pool2/3x3_s2_0_split -> pool2/3x3_s2_pool2/3x3_s2_0_split_3
I1126 19:49:37.316493 10970 net.cpp:150] Setting up pool2/3x3_s2_pool2/3x3_s2_0_split
I1126 19:49:37.316500 10970 net.cpp:157] Top shape: 64 192 28 28 (9633792)
I1126 19:49:37.316504 10970 net.cpp:157] Top shape: 64 192 28 28 (9633792)
I1126 19:49:37.316507 10970 net.cpp:157] Top shape: 64 192 28 28 (9633792)
I1126 19:49:37.316511 10970 net.cpp:157] Top shape: 64 192 28 28 (9633792)
I1126 19:49:37.316514 10970 net.cpp:165] Memory required for data: 1310196736
I1126 19:49:37.316516 10970 layer_factory.hpp:76] Creating layer inception_3a/1x1
I1126 19:49:37.316526 10970 net.cpp:106] Creating Layer inception_3a/1x1
I1126 19:49:37.316529 10970 net.cpp:454] inception_3a/1x1 <- pool2/3x3_s2_pool2/3x3_s2_0_split_0
I1126 19:49:37.316535 10970 net.cpp:411] inception_3a/1x1 -> inception_3a/1x1
I1126 19:49:37.317939 10970 net.cpp:150] Setting up inception_3a/1x1
I1126 19:49:37.317955 10970 net.cpp:157] Top shape: 64 64 28 28 (3211264)
I1126 19:49:37.317960 10970 net.cpp:165] Memory required for data: 1323041792
I1126 19:49:37.317965 10970 layer_factory.hpp:76] Creating layer inception_3a/relu_1x1
I1126 19:49:37.317972 10970 net.cpp:106] Creating Layer inception_3a/relu_1x1
I1126 19:49:37.317975 10970 net.cpp:454] inception_3a/relu_1x1 <- inception_3a/1x1
I1126 19:49:37.317981 10970 net.cpp:397] inception_3a/relu_1x1 -> inception_3a/1x1 (in-place)
I1126 19:49:37.318267 10970 net.cpp:150] Setting up inception_3a/relu_1x1
I1126 19:49:37.318280 10970 net.cpp:157] Top shape: 64 64 28 28 (3211264)
I1126 19:49:37.318284 10970 net.cpp:165] Memory required for data: 1335886848
I1126 19:49:37.318287 10970 layer_factory.hpp:76] Creating layer inception_3a/3x3_reduce
I1126 19:49:37.318296 10970 net.cpp:106] Creating Layer inception_3a/3x3_reduce
I1126 19:49:37.318300 10970 net.cpp:454] inception_3a/3x3_reduce <- pool2/3x3_s2_pool2/3x3_s2_0_split_1
I1126 19:49:37.318305 10970 net.cpp:411] inception_3a/3x3_reduce -> inception_3a/3x3_reduce
I1126 19:49:37.319764 10970 net.cpp:150] Setting up inception_3a/3x3_reduce
I1126 19:49:37.319780 10970 net.cpp:157] Top shape: 64 96 28 28 (4816896)
I1126 19:49:37.319783 10970 net.cpp:165] Memory required for data: 1355154432
I1126 19:49:37.319792 10970 layer_factory.hpp:76] Creating layer inception_3a/relu_3x3_reduce
I1126 19:49:37.319799 10970 net.cpp:106] Creating Layer inception_3a/relu_3x3_reduce
I1126 19:49:37.319805 10970 net.cpp:454] inception_3a/relu_3x3_reduce <- inception_3a/3x3_reduce
I1126 19:49:37.319811 10970 net.cpp:397] inception_3a/relu_3x3_reduce -> inception_3a/3x3_reduce (in-place)
I1126 19:49:37.319972 10970 net.cpp:150] Setting up inception_3a/relu_3x3_reduce
I1126 19:49:37.319982 10970 net.cpp:157] Top shape: 64 96 28 28 (4816896)
I1126 19:49:37.319984 10970 net.cpp:165] Memory required for data: 1374422016
I1126 19:49:37.319988 10970 layer_factory.hpp:76] Creating layer inception_3a/3x3
I1126 19:49:37.319996 10970 net.cpp:106] Creating Layer inception_3a/3x3
I1126 19:49:37.319999 10970 net.cpp:454] inception_3a/3x3 <- inception_3a/3x3_reduce
I1126 19:49:37.320005 10970 net.cpp:411] inception_3a/3x3 -> inception_3a/3x3
I1126 19:49:37.321768 10970 net.cpp:150] Setting up inception_3a/3x3
I1126 19:49:37.321781 10970 net.cpp:157] Top shape: 64 128 28 28 (6422528)
I1126 19:49:37.321784 10970 net.cpp:165] Memory required for data: 1400112128
I1126 19:49:37.321792 10970 layer_factory.hpp:76] Creating layer inception_3a/relu_3x3
I1126 19:49:37.321797 10970 net.cpp:106] Creating Layer inception_3a/relu_3x3
I1126 19:49:37.321801 10970 net.cpp:454] inception_3a/relu_3x3 <- inception_3a/3x3
I1126 19:49:37.321807 10970 net.cpp:397] inception_3a/relu_3x3 -> inception_3a/3x3 (in-place)
I1126 19:49:37.321965 10970 net.cpp:150] Setting up inception_3a/relu_3x3
I1126 19:49:37.321975 10970 net.cpp:157] Top shape: 64 128 28 28 (6422528)
I1126 19:49:37.321979 10970 net.cpp:165] Memory required for data: 1425802240
I1126 19:49:37.321981 10970 layer_factory.hpp:76] Creating layer inception_3a/5x5_reduce
I1126 19:49:37.321990 10970 net.cpp:106] Creating Layer inception_3a/5x5_reduce
I1126 19:49:37.321995 10970 net.cpp:454] inception_3a/5x5_reduce <- pool2/3x3_s2_pool2/3x3_s2_0_split_2
I1126 19:49:37.322000 10970 net.cpp:411] inception_3a/5x5_reduce -> inception_3a/5x5_reduce
I1126 19:49:37.322973 10970 net.cpp:150] Setting up inception_3a/5x5_reduce
I1126 19:49:37.322988 10970 net.cpp:157] Top shape: 64 16 28 28 (802816)
I1126 19:49:37.322991 10970 net.cpp:165] Memory required for data: 1429013504
I1126 19:49:37.323004 10970 layer_factory.hpp:76] Creating layer inception_3a/relu_5x5_reduce
I1126 19:49:37.323009 10970 net.cpp:106] Creating Layer inception_3a/relu_5x5_reduce
I1126 19:49:37.323014 10970 net.cpp:454] inception_3a/relu_5x5_reduce <- inception_3a/5x5_reduce
I1126 19:49:37.323019 10970 net.cpp:397] inception_3a/relu_5x5_reduce -> inception_3a/5x5_reduce (in-place)
I1126 19:49:37.323726 10970 net.cpp:150] Setting up inception_3a/relu_5x5_reduce
I1126 19:49:37.323755 10970 net.cpp:157] Top shape: 64 16 28 28 (802816)
I1126 19:49:37.323762 10970 net.cpp:165] Memory required for data: 1432224768
I1126 19:49:37.323770 10970 layer_factory.hpp:76] Creating layer inception_3a/5x5
I1126 19:49:37.323786 10970 net.cpp:106] Creating Layer inception_3a/5x5
I1126 19:49:37.323796 10970 net.cpp:454] inception_3a/5x5 <- inception_3a/5x5_reduce
I1126 19:49:37.323812 10970 net.cpp:411] inception_3a/5x5 -> inception_3a/5x5
I1126 19:49:37.325670 10970 net.cpp:150] Setting up inception_3a/5x5
I1126 19:49:37.325696 10970 net.cpp:157] Top shape: 64 32 28 28 (1605632)
I1126 19:49:37.325703 10970 net.cpp:165] Memory required for data: 1438647296
I1126 19:49:37.325716 10970 layer_factory.hpp:76] Creating layer inception_3a/relu_5x5
I1126 19:49:37.325728 10970 net.cpp:106] Creating Layer inception_3a/relu_5x5
I1126 19:49:37.325737 10970 net.cpp:454] inception_3a/relu_5x5 <- inception_3a/5x5
I1126 19:49:37.325749 10970 net.cpp:397] inception_3a/relu_5x5 -> inception_3a/5x5 (in-place)
I1126 19:49:37.326058 10970 net.cpp:150] Setting up inception_3a/relu_5x5
I1126 19:49:37.326076 10970 net.cpp:157] Top shape: 64 32 28 28 (1605632)
I1126 19:49:37.326083 10970 net.cpp:165] Memory required for data: 1445069824
I1126 19:49:37.326089 10970 layer_factory.hpp:76] Creating layer inception_3a/pool
I1126 19:49:37.326102 10970 net.cpp:106] Creating Layer inception_3a/pool
I1126 19:49:37.326112 10970 net.cpp:454] inception_3a/pool <- pool2/3x3_s2_pool2/3x3_s2_0_split_3
I1126 19:49:37.326122 10970 net.cpp:411] inception_3a/pool -> inception_3a/pool
I1126 19:49:37.326678 10970 net.cpp:150] Setting up inception_3a/pool
I1126 19:49:37.326700 10970 net.cpp:157] Top shape: 64 192 28 28 (9633792)
I1126 19:49:37.326709 10970 net.cpp:165] Memory required for data: 1483604992
I1126 19:49:37.326715 10970 layer_factory.hpp:76] Creating layer inception_3a/pool_proj
I1126 19:49:37.326732 10970 net.cpp:106] Creating Layer inception_3a/pool_proj
I1126 19:49:37.326741 10970 net.cpp:454] inception_3a/pool_proj <- inception_3a/pool
I1126 19:49:37.326752 10970 net.cpp:411] inception_3a/pool_proj -> inception_3a/pool_proj
I1126 19:49:37.328333 10970 net.cpp:150] Setting up inception_3a/pool_proj
I1126 19:49:37.328359 10970 net.cpp:157] Top shape: 64 32 28 28 (1605632)
I1126 19:49:37.328366 10970 net.cpp:165] Memory required for data: 1490027520
I1126 19:49:37.328392 10970 layer_factory.hpp:76] Creating layer inception_3a/relu_pool_proj
I1126 19:49:37.328405 10970 net.cpp:106] Creating Layer inception_3a/relu_pool_proj
I1126 19:49:37.328414 10970 net.cpp:454] inception_3a/relu_pool_proj <- inception_3a/pool_proj
I1126 19:49:37.328426 10970 net.cpp:397] inception_3a/relu_pool_proj -> inception_3a/pool_proj (in-place)
I1126 19:49:37.328928 10970 net.cpp:150] Setting up inception_3a/relu_pool_proj
I1126 19:49:37.328949 10970 net.cpp:157] Top shape: 64 32 28 28 (1605632)
I1126 19:49:37.328958 10970 net.cpp:165] Memory required for data: 1496450048
I1126 19:49:37.328966 10970 layer_factory.hpp:76] Creating layer inception_3a/output
I1126 19:49:37.328986 10970 net.cpp:106] Creating Layer inception_3a/output
I1126 19:49:37.328995 10970 net.cpp:454] inception_3a/output <- inception_3a/1x1
I1126 19:49:37.329005 10970 net.cpp:454] inception_3a/output <- inception_3a/3x3
I1126 19:49:37.329015 10970 net.cpp:454] inception_3a/output <- inception_3a/5x5
I1126 19:49:37.329022 10970 net.cpp:454] inception_3a/output <- inception_3a/pool_proj
I1126 19:49:37.329032 10970 net.cpp:411] inception_3a/output -> inception_3a/output
I1126 19:49:37.329090 10970 net.cpp:150] Setting up inception_3a/output
I1126 19:49:37.329102 10970 net.cpp:157] Top shape: 64 256 28 28 (12845056)
I1126 19:49:37.329109 10970 net.cpp:165] Memory required for data: 1547830272
I1126 19:49:37.329118 10970 layer_factory.hpp:76] Creating layer inception_3a/output_inception_3a/output_0_split
I1126 19:49:37.329129 10970 net.cpp:106] Creating Layer inception_3a/output_inception_3a/output_0_split
I1126 19:49:37.329136 10970 net.cpp:454] inception_3a/output_inception_3a/output_0_split <- inception_3a/output
I1126 19:49:37.329149 10970 net.cpp:411] inception_3a/output_inception_3a/output_0_split -> inception_3a/output_inception_3a/output_0_split_0
I1126 19:49:37.329162 10970 net.cpp:411] inception_3a/output_inception_3a/output_0_split -> inception_3a/output_inception_3a/output_0_split_1
I1126 19:49:37.329174 10970 net.cpp:411] inception_3a/output_inception_3a/output_0_split -> inception_3a/output_inception_3a/output_0_split_2
I1126 19:49:37.329185 10970 net.cpp:411] inception_3a/output_inception_3a/output_0_split -> inception_3a/output_inception_3a/output_0_split_3
I1126 19:49:37.329289 10970 net.cpp:150] Setting up inception_3a/output_inception_3a/output_0_split
I1126 19:49:37.329318 10970 net.cpp:157] Top shape: 64 256 28 28 (12845056)
I1126 19:49:37.329329 10970 net.cpp:157] Top shape: 64 256 28 28 (12845056)
I1126 19:49:37.329337 10970 net.cpp:157] Top shape: 64 256 28 28 (12845056)
I1126 19:49:37.329346 10970 net.cpp:157] Top shape: 64 256 28 28 (12845056)
I1126 19:49:37.329354 10970 net.cpp:165] Memory required for data: 1753351168
I1126 19:49:37.329361 10970 layer_factory.hpp:76] Creating layer inception_3b/1x1
I1126 19:49:37.329375 10970 net.cpp:106] Creating Layer inception_3b/1x1
I1126 19:49:37.329382 10970 net.cpp:454] inception_3b/1x1 <- inception_3a/output_inception_3a/output_0_split_0
I1126 19:49:37.329397 10970 net.cpp:411] inception_3b/1x1 -> inception_3b/1x1
I1126 19:49:37.331475 10970 net.cpp:150] Setting up inception_3b/1x1
I1126 19:49:37.331500 10970 net.cpp:157] Top shape: 64 128 28 28 (6422528)
I1126 19:49:37.331507 10970 net.cpp:165] Memory required for data: 1779041280
I1126 19:49:37.331519 10970 layer_factory.hpp:76] Creating layer inception_3b/relu_1x1
I1126 19:49:37.331533 10970 net.cpp:106] Creating Layer inception_3b/relu_1x1
I1126 19:49:37.331542 10970 net.cpp:454] inception_3b/relu_1x1 <- inception_3b/1x1
I1126 19:49:37.331554 10970 net.cpp:397] inception_3b/relu_1x1 -> inception_3b/1x1 (in-place)
I1126 19:49:37.331868 10970 net.cpp:150] Setting up inception_3b/relu_1x1
I1126 19:49:37.331886 10970 net.cpp:157] Top shape: 64 128 28 28 (6422528)
I1126 19:49:37.331892 10970 net.cpp:165] Memory required for data: 1804731392
I1126 19:49:37.331900 10970 layer_factory.hpp:76] Creating layer inception_3b/3x3_reduce
I1126 19:49:37.331917 10970 net.cpp:106] Creating Layer inception_3b/3x3_reduce
I1126 19:49:37.331925 10970 net.cpp:454] inception_3b/3x3_reduce <- inception_3a/output_inception_3a/output_0_split_1
I1126 19:49:37.331939 10970 net.cpp:411] inception_3b/3x3_reduce -> inception_3b/3x3_reduce
I1126 19:49:37.334043 10970 net.cpp:150] Setting up inception_3b/3x3_reduce
I1126 19:49:37.334066 10970 net.cpp:157] Top shape: 64 128 28 28 (6422528)
I1126 19:49:37.334074 10970 net.cpp:165] Memory required for data: 1830421504
I1126 19:49:37.334085 10970 layer_factory.hpp:76] Creating layer inception_3b/relu_3x3_reduce
I1126 19:49:37.334100 10970 net.cpp:106] Creating Layer inception_3b/relu_3x3_reduce
I1126 19:49:37.334110 10970 net.cpp:454] inception_3b/relu_3x3_reduce <- inception_3b/3x3_reduce
I1126 19:49:37.334118 10970 net.cpp:397] inception_3b/relu_3x3_reduce -> inception_3b/3x3_reduce (in-place)
I1126 19:49:37.334604 10970 net.cpp:150] Setting up inception_3b/relu_3x3_reduce
I1126 19:49:37.334626 10970 net.cpp:157] Top shape: 64 128 28 28 (6422528)
I1126 19:49:37.334632 10970 net.cpp:165] Memory required for data: 1856111616
I1126 19:49:37.334640 10970 layer_factory.hpp:76] Creating layer inception_3b/3x3
I1126 19:49:37.334660 10970 net.cpp:106] Creating Layer inception_3b/3x3
I1126 19:49:37.334668 10970 net.cpp:454] inception_3b/3x3 <- inception_3b/3x3_reduce
I1126 19:49:37.334682 10970 net.cpp:411] inception_3b/3x3 -> inception_3b/3x3
I1126 19:49:37.337558 10970 net.cpp:150] Setting up inception_3b/3x3
I1126 19:49:37.337574 10970 net.cpp:157] Top shape: 64 192 28 28 (9633792)
I1126 19:49:37.337577 10970 net.cpp:165] Memory required for data: 1894646784
I1126 19:49:37.337584 10970 layer_factory.hpp:76] Creating layer inception_3b/relu_3x3
I1126 19:49:37.337591 10970 net.cpp:106] Creating Layer inception_3b/relu_3x3
I1126 19:49:37.337596 10970 net.cpp:454] inception_3b/relu_3x3 <- inception_3b/3x3
I1126 19:49:37.337604 10970 net.cpp:397] inception_3b/relu_3x3 -> inception_3b/3x3 (in-place)
I1126 19:49:37.338037 10970 net.cpp:150] Setting up inception_3b/relu_3x3
I1126 19:49:37.338049 10970 net.cpp:157] Top shape: 64 192 28 28 (9633792)
I1126 19:49:37.338053 10970 net.cpp:165] Memory required for data: 1933181952
I1126 19:49:37.338058 10970 layer_factory.hpp:76] Creating layer inception_3b/5x5_reduce
I1126 19:49:37.338071 10970 net.cpp:106] Creating Layer inception_3b/5x5_reduce
I1126 19:49:37.338078 10970 net.cpp:454] inception_3b/5x5_reduce <- inception_3a/output_inception_3a/output_0_split_2
I1126 19:49:37.338093 10970 net.cpp:411] inception_3b/5x5_reduce -> inception_3b/5x5_reduce
I1126 19:49:37.339105 10970 net.cpp:150] Setting up inception_3b/5x5_reduce
I1126 19:49:37.339120 10970 net.cpp:157] Top shape: 64 32 28 28 (1605632)
I1126 19:49:37.339123 10970 net.cpp:165] Memory required for data: 1939604480
I1126 19:49:37.339130 10970 layer_factory.hpp:76] Creating layer inception_3b/relu_5x5_reduce
I1126 19:49:37.339135 10970 net.cpp:106] Creating Layer inception_3b/relu_5x5_reduce
I1126 19:49:37.339139 10970 net.cpp:454] inception_3b/relu_5x5_reduce <- inception_3b/5x5_reduce
I1126 19:49:37.339146 10970 net.cpp:397] inception_3b/relu_5x5_reduce -> inception_3b/5x5_reduce (in-place)
I1126 19:49:37.339308 10970 net.cpp:150] Setting up inception_3b/relu_5x5_reduce
I1126 19:49:37.339319 10970 net.cpp:157] Top shape: 64 32 28 28 (1605632)
I1126 19:49:37.339323 10970 net.cpp:165] Memory required for data: 1946027008
I1126 19:49:37.339325 10970 layer_factory.hpp:76] Creating layer inception_3b/5x5
I1126 19:49:37.339332 10970 net.cpp:106] Creating Layer inception_3b/5x5
I1126 19:49:37.339336 10970 net.cpp:454] inception_3b/5x5 <- inception_3b/5x5_reduce
I1126 19:49:37.339342 10970 net.cpp:411] inception_3b/5x5 -> inception_3b/5x5
I1126 19:49:37.341225 10970 net.cpp:150] Setting up inception_3b/5x5
I1126 19:49:37.341240 10970 net.cpp:157] Top shape: 64 96 28 28 (4816896)
I1126 19:49:37.341244 10970 net.cpp:165] Memory required for data: 1965294592
I1126 19:49:37.341250 10970 layer_factory.hpp:76] Creating layer inception_3b/relu_5x5
I1126 19:49:37.341256 10970 net.cpp:106] Creating Layer inception_3b/relu_5x5
I1126 19:49:37.341260 10970 net.cpp:454] inception_3b/relu_5x5 <- inception_3b/5x5
I1126 19:49:37.341264 10970 net.cpp:397] inception_3b/relu_5x5 -> inception_3b/5x5 (in-place)
I1126 19:49:37.341553 10970 net.cpp:150] Setting up inception_3b/relu_5x5
I1126 19:49:37.341567 10970 net.cpp:157] Top shape: 64 96 28 28 (4816896)
I1126 19:49:37.341569 10970 net.cpp:165] Memory required for data: 1984562176
I1126 19:49:37.341573 10970 layer_factory.hpp:76] Creating layer inception_3b/pool
I1126 19:49:37.341579 10970 net.cpp:106] Creating Layer inception_3b/pool
I1126 19:49:37.341583 10970 net.cpp:454] inception_3b/pool <- inception_3a/output_inception_3a/output_0_split_3
I1126 19:49:37.341590 10970 net.cpp:411] inception_3b/pool -> inception_3b/pool
I1126 19:49:37.341783 10970 net.cpp:150] Setting up inception_3b/pool
I1126 19:49:37.341792 10970 net.cpp:157] Top shape: 64 256 28 28 (12845056)
I1126 19:49:37.341796 10970 net.cpp:165] Memory required for data: 2035942400
I1126 19:49:37.341799 10970 layer_factory.hpp:76] Creating layer inception_3b/pool_proj
I1126 19:49:37.341807 10970 net.cpp:106] Creating Layer inception_3b/pool_proj
I1126 19:49:37.341811 10970 net.cpp:454] inception_3b/pool_proj <- inception_3b/pool
I1126 19:49:37.341819 10970 net.cpp:411] inception_3b/pool_proj -> inception_3b/pool_proj
I1126 19:49:37.342859 10970 net.cpp:150] Setting up inception_3b/pool_proj
I1126 19:49:37.342878 10970 net.cpp:157] Top shape: 64 64 28 28 (3211264)
I1126 19:49:37.342881 10970 net.cpp:165] Memory required for data: 2048787456
I1126 19:49:37.342888 10970 layer_factory.hpp:76] Creating layer inception_3b/relu_pool_proj
I1126 19:49:37.342895 10970 net.cpp:106] Creating Layer inception_3b/relu_pool_proj
I1126 19:49:37.342900 10970 net.cpp:454] inception_3b/relu_pool_proj <- inception_3b/pool_proj
I1126 19:49:37.342905 10970 net.cpp:397] inception_3b/relu_pool_proj -> inception_3b/pool_proj (in-place)
I1126 19:49:37.343068 10970 net.cpp:150] Setting up inception_3b/relu_pool_proj
I1126 19:49:37.343078 10970 net.cpp:157] Top shape: 64 64 28 28 (3211264)
I1126 19:49:37.343081 10970 net.cpp:165] Memory required for data: 2061632512
I1126 19:49:37.343086 10970 layer_factory.hpp:76] Creating layer inception_3b/output
I1126 19:49:37.343091 10970 net.cpp:106] Creating Layer inception_3b/output
I1126 19:49:37.343094 10970 net.cpp:454] inception_3b/output <- inception_3b/1x1
I1126 19:49:37.343098 10970 net.cpp:454] inception_3b/output <- inception_3b/3x3
I1126 19:49:37.343102 10970 net.cpp:454] inception_3b/output <- inception_3b/5x5
I1126 19:49:37.343106 10970 net.cpp:454] inception_3b/output <- inception_3b/pool_proj
I1126 19:49:37.343111 10970 net.cpp:411] inception_3b/output -> inception_3b/output
I1126 19:49:37.343138 10970 net.cpp:150] Setting up inception_3b/output
I1126 19:49:37.343147 10970 net.cpp:157] Top shape: 64 480 28 28 (24084480)
I1126 19:49:37.343149 10970 net.cpp:165] Memory required for data: 2157970432
I1126 19:49:37.343153 10970 layer_factory.hpp:76] Creating layer pool3/3x3_s2
I1126 19:49:37.343158 10970 net.cpp:106] Creating Layer pool3/3x3_s2
I1126 19:49:37.343161 10970 net.cpp:454] pool3/3x3_s2 <- inception_3b/output
I1126 19:49:37.343166 10970 net.cpp:411] pool3/3x3_s2 -> pool3/3x3_s2
I1126 19:49:37.343488 10970 net.cpp:150] Setting up pool3/3x3_s2
I1126 19:49:37.343500 10970 net.cpp:157] Top shape: 64 480 14 14 (6021120)
I1126 19:49:37.343504 10970 net.cpp:165] Memory required for data: 2182054912
I1126 19:49:37.343508 10970 layer_factory.hpp:76] Creating layer pool3/3x3_s2_pool3/3x3_s2_0_split
I1126 19:49:37.343513 10970 net.cpp:106] Creating Layer pool3/3x3_s2_pool3/3x3_s2_0_split
I1126 19:49:37.343518 10970 net.cpp:454] pool3/3x3_s2_pool3/3x3_s2_0_split <- pool3/3x3_s2
I1126 19:49:37.343523 10970 net.cpp:411] pool3/3x3_s2_pool3/3x3_s2_0_split -> pool3/3x3_s2_pool3/3x3_s2_0_split_0
I1126 19:49:37.343528 10970 net.cpp:411] pool3/3x3_s2_pool3/3x3_s2_0_split -> pool3/3x3_s2_pool3/3x3_s2_0_split_1
I1126 19:49:37.343535 10970 net.cpp:411] pool3/3x3_s2_pool3/3x3_s2_0_split -> pool3/3x3_s2_pool3/3x3_s2_0_split_2
I1126 19:49:37.343541 10970 net.cpp:411] pool3/3x3_s2_pool3/3x3_s2_0_split -> pool3/3x3_s2_pool3/3x3_s2_0_split_3
I1126 19:49:37.343598 10970 net.cpp:150] Setting up pool3/3x3_s2_pool3/3x3_s2_0_split
I1126 19:49:37.343605 10970 net.cpp:157] Top shape: 64 480 14 14 (6021120)
I1126 19:49:37.343608 10970 net.cpp:157] Top shape: 64 480 14 14 (6021120)
I1126 19:49:37.343611 10970 net.cpp:157] Top shape: 64 480 14 14 (6021120)
I1126 19:49:37.343616 10970 net.cpp:157] Top shape: 64 480 14 14 (6021120)
I1126 19:49:37.343617 10970 net.cpp:165] Memory required for data: 2278392832
I1126 19:49:37.343621 10970 layer_factory.hpp:76] Creating layer inception_4a/1x1
I1126 19:49:37.343628 10970 net.cpp:106] Creating Layer inception_4a/1x1
I1126 19:49:37.343631 10970 net.cpp:454] inception_4a/1x1 <- pool3/3x3_s2_pool3/3x3_s2_0_split_0
I1126 19:49:37.343641 10970 net.cpp:411] inception_4a/1x1 -> inception_4a/1x1
I1126 19:49:37.345278 10970 net.cpp:150] Setting up inception_4a/1x1
I1126 19:49:37.345290 10970 net.cpp:157] Top shape: 64 192 14 14 (2408448)
I1126 19:49:37.345293 10970 net.cpp:165] Memory required for data: 2288026624
I1126 19:49:37.345300 10970 layer_factory.hpp:76] Creating layer inception_4a/relu_1x1
I1126 19:49:37.345306 10970 net.cpp:106] Creating Layer inception_4a/relu_1x1
I1126 19:49:37.345309 10970 net.cpp:454] inception_4a/relu_1x1 <- inception_4a/1x1
I1126 19:49:37.345315 10970 net.cpp:397] inception_4a/relu_1x1 -> inception_4a/1x1 (in-place)
I1126 19:49:37.345481 10970 net.cpp:150] Setting up inception_4a/relu_1x1
I1126 19:49:37.345492 10970 net.cpp:157] Top shape: 64 192 14 14 (2408448)
I1126 19:49:37.345495 10970 net.cpp:165] Memory required for data: 2297660416
I1126 19:49:37.345499 10970 layer_factory.hpp:76] Creating layer inception_4a/3x3_reduce
I1126 19:49:37.345505 10970 net.cpp:106] Creating Layer inception_4a/3x3_reduce
I1126 19:49:37.345510 10970 net.cpp:454] inception_4a/3x3_reduce <- pool3/3x3_s2_pool3/3x3_s2_0_split_1
I1126 19:49:37.345516 10970 net.cpp:411] inception_4a/3x3_reduce -> inception_4a/3x3_reduce
I1126 19:49:37.346787 10970 net.cpp:150] Setting up inception_4a/3x3_reduce
I1126 19:49:37.346801 10970 net.cpp:157] Top shape: 64 96 14 14 (1204224)
I1126 19:49:37.346804 10970 net.cpp:165] Memory required for data: 2302477312
I1126 19:49:37.346818 10970 layer_factory.hpp:76] Creating layer inception_4a/relu_3x3_reduce
I1126 19:49:37.346824 10970 net.cpp:106] Creating Layer inception_4a/relu_3x3_reduce
I1126 19:49:37.346828 10970 net.cpp:454] inception_4a/relu_3x3_reduce <- inception_4a/3x3_reduce
I1126 19:49:37.346833 10970 net.cpp:397] inception_4a/relu_3x3_reduce -> inception_4a/3x3_reduce (in-place)
I1126 19:49:37.347137 10970 net.cpp:150] Setting up inception_4a/relu_3x3_reduce
I1126 19:49:37.347151 10970 net.cpp:157] Top shape: 64 96 14 14 (1204224)
I1126 19:49:37.347154 10970 net.cpp:165] Memory required for data: 2307294208
I1126 19:49:37.347157 10970 layer_factory.hpp:76] Creating layer inception_4a/3x3
I1126 19:49:37.347167 10970 net.cpp:106] Creating Layer inception_4a/3x3
I1126 19:49:37.347172 10970 net.cpp:454] inception_4a/3x3 <- inception_4a/3x3_reduce
I1126 19:49:37.347179 10970 net.cpp:411] inception_4a/3x3 -> inception_4a/3x3
I1126 19:49:37.349606 10970 net.cpp:150] Setting up inception_4a/3x3
I1126 19:49:37.349619 10970 net.cpp:157] Top shape: 64 208 14 14 (2609152)
I1126 19:49:37.349622 10970 net.cpp:165] Memory required for data: 2317730816
I1126 19:49:37.349630 10970 layer_factory.hpp:76] Creating layer inception_4a/relu_3x3
I1126 19:49:37.349637 10970 net.cpp:106] Creating Layer inception_4a/relu_3x3
I1126 19:49:37.349640 10970 net.cpp:454] inception_4a/relu_3x3 <- inception_4a/3x3
I1126 19:49:37.349647 10970 net.cpp:397] inception_4a/relu_3x3 -> inception_4a/3x3 (in-place)
I1126 19:49:37.349939 10970 net.cpp:150] Setting up inception_4a/relu_3x3
I1126 19:49:37.349952 10970 net.cpp:157] Top shape: 64 208 14 14 (2609152)
I1126 19:49:37.349956 10970 net.cpp:165] Memory required for data: 2328167424
I1126 19:49:37.349959 10970 layer_factory.hpp:76] Creating layer inception_4a/5x5_reduce
I1126 19:49:37.349968 10970 net.cpp:106] Creating Layer inception_4a/5x5_reduce
I1126 19:49:37.349972 10970 net.cpp:454] inception_4a/5x5_reduce <- pool3/3x3_s2_pool3/3x3_s2_0_split_2
I1126 19:49:37.349978 10970 net.cpp:411] inception_4a/5x5_reduce -> inception_4a/5x5_reduce
I1126 19:49:37.351013 10970 net.cpp:150] Setting up inception_4a/5x5_reduce
I1126 19:49:37.351027 10970 net.cpp:157] Top shape: 64 16 14 14 (200704)
I1126 19:49:37.351030 10970 net.cpp:165] Memory required for data: 2328970240
I1126 19:49:37.351037 10970 layer_factory.hpp:76] Creating layer inception_4a/relu_5x5_reduce
I1126 19:49:37.351042 10970 net.cpp:106] Creating Layer inception_4a/relu_5x5_reduce
I1126 19:49:37.351049 10970 net.cpp:454] inception_4a/relu_5x5_reduce <- inception_4a/5x5_reduce
I1126 19:49:37.351055 10970 net.cpp:397] inception_4a/relu_5x5_reduce -> inception_4a/5x5_reduce (in-place)
I1126 19:49:37.351344 10970 net.cpp:150] Setting up inception_4a/relu_5x5_reduce
I1126 19:49:37.351356 10970 net.cpp:157] Top shape: 64 16 14 14 (200704)
I1126 19:49:37.351359 10970 net.cpp:165] Memory required for data: 2329773056
I1126 19:49:37.351362 10970 layer_factory.hpp:76] Creating layer inception_4a/5x5
I1126 19:49:37.351373 10970 net.cpp:106] Creating Layer inception_4a/5x5
I1126 19:49:37.351377 10970 net.cpp:454] inception_4a/5x5 <- inception_4a/5x5_reduce
I1126 19:49:37.351387 10970 net.cpp:411] inception_4a/5x5 -> inception_4a/5x5
I1126 19:49:37.352494 10970 net.cpp:150] Setting up inception_4a/5x5
I1126 19:49:37.352506 10970 net.cpp:157] Top shape: 64 48 14 14 (602112)
I1126 19:49:37.352509 10970 net.cpp:165] Memory required for data: 2332181504
I1126 19:49:37.352516 10970 layer_factory.hpp:76] Creating layer inception_4a/relu_5x5
I1126 19:49:37.352522 10970 net.cpp:106] Creating Layer inception_4a/relu_5x5
I1126 19:49:37.352530 10970 net.cpp:454] inception_4a/relu_5x5 <- inception_4a/5x5
I1126 19:49:37.352535 10970 net.cpp:397] inception_4a/relu_5x5 -> inception_4a/5x5 (in-place)
I1126 19:49:37.352825 10970 net.cpp:150] Setting up inception_4a/relu_5x5
I1126 19:49:37.352838 10970 net.cpp:157] Top shape: 64 48 14 14 (602112)
I1126 19:49:37.352841 10970 net.cpp:165] Memory required for data: 2334589952
I1126 19:49:37.352844 10970 layer_factory.hpp:76] Creating layer inception_4a/pool
I1126 19:49:37.352852 10970 net.cpp:106] Creating Layer inception_4a/pool
I1126 19:49:37.352855 10970 net.cpp:454] inception_4a/pool <- pool3/3x3_s2_pool3/3x3_s2_0_split_3
I1126 19:49:37.352861 10970 net.cpp:411] inception_4a/pool -> inception_4a/pool
I1126 19:49:37.353059 10970 net.cpp:150] Setting up inception_4a/pool
I1126 19:49:37.353068 10970 net.cpp:157] Top shape: 64 480 14 14 (6021120)
I1126 19:49:37.353071 10970 net.cpp:165] Memory required for data: 2358674432
I1126 19:49:37.353075 10970 layer_factory.hpp:76] Creating layer inception_4a/pool_proj
I1126 19:49:37.353083 10970 net.cpp:106] Creating Layer inception_4a/pool_proj
I1126 19:49:37.353087 10970 net.cpp:454] inception_4a/pool_proj <- inception_4a/pool
I1126 19:49:37.353092 10970 net.cpp:411] inception_4a/pool_proj -> inception_4a/pool_proj
I1126 19:49:37.354277 10970 net.cpp:150] Setting up inception_4a/pool_proj
I1126 19:49:37.354291 10970 net.cpp:157] Top shape: 64 64 14 14 (802816)
I1126 19:49:37.354295 10970 net.cpp:165] Memory required for data: 2361885696
I1126 19:49:37.354300 10970 layer_factory.hpp:76] Creating layer inception_4a/relu_pool_proj
I1126 19:49:37.354306 10970 net.cpp:106] Creating Layer inception_4a/relu_pool_proj
I1126 19:49:37.354310 10970 net.cpp:454] inception_4a/relu_pool_proj <- inception_4a/pool_proj
I1126 19:49:37.354315 10970 net.cpp:397] inception_4a/relu_pool_proj -> inception_4a/pool_proj (in-place)
I1126 19:49:37.354607 10970 net.cpp:150] Setting up inception_4a/relu_pool_proj
I1126 19:49:37.354619 10970 net.cpp:157] Top shape: 64 64 14 14 (802816)
I1126 19:49:37.354622 10970 net.cpp:165] Memory required for data: 2365096960
I1126 19:49:37.354626 10970 layer_factory.hpp:76] Creating layer inception_4a/output
I1126 19:49:37.354632 10970 net.cpp:106] Creating Layer inception_4a/output
I1126 19:49:37.354639 10970 net.cpp:454] inception_4a/output <- inception_4a/1x1
I1126 19:49:37.354642 10970 net.cpp:454] inception_4a/output <- inception_4a/3x3
I1126 19:49:37.354646 10970 net.cpp:454] inception_4a/output <- inception_4a/5x5
I1126 19:49:37.354650 10970 net.cpp:454] inception_4a/output <- inception_4a/pool_proj
I1126 19:49:37.354656 10970 net.cpp:411] inception_4a/output -> inception_4a/output
I1126 19:49:37.354686 10970 net.cpp:150] Setting up inception_4a/output
I1126 19:49:37.354696 10970 net.cpp:157] Top shape: 64 512 14 14 (6422528)
I1126 19:49:37.354699 10970 net.cpp:165] Memory required for data: 2390787072
I1126 19:49:37.354702 10970 layer_factory.hpp:76] Creating layer inception_4a/output_inception_4a/output_0_split
I1126 19:49:37.354708 10970 net.cpp:106] Creating Layer inception_4a/output_inception_4a/output_0_split
I1126 19:49:37.354712 10970 net.cpp:454] inception_4a/output_inception_4a/output_0_split <- inception_4a/output
I1126 19:49:37.354717 10970 net.cpp:411] inception_4a/output_inception_4a/output_0_split -> inception_4a/output_inception_4a/output_0_split_0
I1126 19:49:37.354725 10970 net.cpp:411] inception_4a/output_inception_4a/output_0_split -> inception_4a/output_inception_4a/output_0_split_1
I1126 19:49:37.354730 10970 net.cpp:411] inception_4a/output_inception_4a/output_0_split -> inception_4a/output_inception_4a/output_0_split_2
I1126 19:49:37.354737 10970 net.cpp:411] inception_4a/output_inception_4a/output_0_split -> inception_4a/output_inception_4a/output_0_split_3
I1126 19:49:37.354743 10970 net.cpp:411] inception_4a/output_inception_4a/output_0_split -> inception_4a/output_inception_4a/output_0_split_4
I1126 19:49:37.354815 10970 net.cpp:150] Setting up inception_4a/output_inception_4a/output_0_split
I1126 19:49:37.354821 10970 net.cpp:157] Top shape: 64 512 14 14 (6422528)
I1126 19:49:37.354825 10970 net.cpp:157] Top shape: 64 512 14 14 (6422528)
I1126 19:49:37.354830 10970 net.cpp:157] Top shape: 64 512 14 14 (6422528)
I1126 19:49:37.354832 10970 net.cpp:157] Top shape: 64 512 14 14 (6422528)
I1126 19:49:37.354836 10970 net.cpp:157] Top shape: 64 512 14 14 (6422528)
I1126 19:49:37.354838 10970 net.cpp:165] Memory required for data: 2519237632
I1126 19:49:37.354842 10970 layer_factory.hpp:76] Creating layer loss1/ave_pool
I1126 19:49:37.354849 10970 net.cpp:106] Creating Layer loss1/ave_pool
I1126 19:49:37.354856 10970 net.cpp:454] loss1/ave_pool <- inception_4a/output_inception_4a/output_0_split_0
I1126 19:49:37.354861 10970 net.cpp:411] loss1/ave_pool -> loss1/ave_pool
I1126 19:49:37.355046 10970 net.cpp:150] Setting up loss1/ave_pool
I1126 19:49:37.355057 10970 net.cpp:157] Top shape: 64 512 4 4 (524288)
I1126 19:49:37.355059 10970 net.cpp:165] Memory required for data: 2521334784
I1126 19:49:37.355062 10970 layer_factory.hpp:76] Creating layer loss1/conv
I1126 19:49:37.355072 10970 net.cpp:106] Creating Layer loss1/conv
I1126 19:49:37.355077 10970 net.cpp:454] loss1/conv <- loss1/ave_pool
I1126 19:49:37.355083 10970 net.cpp:411] loss1/conv -> loss1/conv
I1126 19:49:37.356498 10970 net.cpp:150] Setting up loss1/conv
I1126 19:49:37.356511 10970 net.cpp:157] Top shape: 64 128 4 4 (131072)
I1126 19:49:37.356514 10970 net.cpp:165] Memory required for data: 2521859072
I1126 19:49:37.356523 10970 layer_factory.hpp:76] Creating layer loss1/relu_conv
I1126 19:49:37.356529 10970 net.cpp:106] Creating Layer loss1/relu_conv
I1126 19:49:37.356534 10970 net.cpp:454] loss1/relu_conv <- loss1/conv
I1126 19:49:37.356539 10970 net.cpp:397] loss1/relu_conv -> loss1/conv (in-place)
I1126 19:49:37.356699 10970 net.cpp:150] Setting up loss1/relu_conv
I1126 19:49:37.356709 10970 net.cpp:157] Top shape: 64 128 4 4 (131072)
I1126 19:49:37.356712 10970 net.cpp:165] Memory required for data: 2522383360
I1126 19:49:37.356715 10970 layer_factory.hpp:76] Creating layer loss1/fc
I1126 19:49:37.356722 10970 net.cpp:106] Creating Layer loss1/fc
I1126 19:49:37.356725 10970 net.cpp:454] loss1/fc <- loss1/conv
I1126 19:49:37.356732 10970 net.cpp:411] loss1/fc -> loss1/fc
I1126 19:49:37.372369 10970 net.cpp:150] Setting up loss1/fc
I1126 19:49:37.372388 10970 net.cpp:157] Top shape: 64 1024 (65536)
I1126 19:49:37.372392 10970 net.cpp:165] Memory required for data: 2522645504
I1126 19:49:37.372400 10970 layer_factory.hpp:76] Creating layer loss1/relu_fc
I1126 19:49:37.372408 10970 net.cpp:106] Creating Layer loss1/relu_fc
I1126 19:49:37.372413 10970 net.cpp:454] loss1/relu_fc <- loss1/fc
I1126 19:49:37.372419 10970 net.cpp:397] loss1/relu_fc -> loss1/fc (in-place)
I1126 19:49:37.372815 10970 net.cpp:150] Setting up loss1/relu_fc
I1126 19:49:37.372830 10970 net.cpp:157] Top shape: 64 1024 (65536)
I1126 19:49:37.372834 10970 net.cpp:165] Memory required for data: 2522907648
I1126 19:49:37.372838 10970 layer_factory.hpp:76] Creating layer loss1/drop_fc
I1126 19:49:37.372856 10970 net.cpp:106] Creating Layer loss1/drop_fc
I1126 19:49:37.372860 10970 net.cpp:454] loss1/drop_fc <- loss1/fc
I1126 19:49:37.372865 10970 net.cpp:397] loss1/drop_fc -> loss1/fc (in-place)
I1126 19:49:37.372902 10970 net.cpp:150] Setting up loss1/drop_fc
I1126 19:49:37.372907 10970 net.cpp:157] Top shape: 64 1024 (65536)
I1126 19:49:37.372910 10970 net.cpp:165] Memory required for data: 2523169792
I1126 19:49:37.372915 10970 layer_factory.hpp:76] Creating layer loss1/classifier-attribute
I1126 19:49:37.372920 10970 net.cpp:106] Creating Layer loss1/classifier-attribute
I1126 19:49:37.372925 10970 net.cpp:454] loss1/classifier-attribute <- loss1/fc
I1126 19:49:37.372931 10970 net.cpp:411] loss1/classifier-attribute -> loss1/classifier-attribute
I1126 19:49:37.449529 10970 net.cpp:150] Setting up loss1/classifier-attribute
I1126 19:49:37.449550 10970 net.cpp:157] Top shape: 64 9999 (639936)
I1126 19:49:37.449554 10970 net.cpp:165] Memory required for data: 2525729536
I1126 19:49:37.449563 10970 layer_factory.hpp:76] Creating layer loss1/loss
I1126 19:49:37.449578 10970 net.cpp:106] Creating Layer loss1/loss
I1126 19:49:37.449583 10970 net.cpp:454] loss1/loss <- loss1/classifier-attribute
I1126 19:49:37.449589 10970 net.cpp:454] loss1/loss <- label_data_1_split_0
I1126 19:49:37.449595 10970 net.cpp:411] loss1/loss -> loss1/loss1
I1126 19:49:37.449610 10970 layer_factory.hpp:76] Creating layer loss1/loss
I1126 19:49:37.451139 10970 net.cpp:150] Setting up loss1/loss
I1126 19:49:37.451153 10970 net.cpp:157] Top shape: (1)
I1126 19:49:37.451158 10970 net.cpp:160]     with loss weight 0.3
I1126 19:49:37.451179 10970 net.cpp:165] Memory required for data: 2525729540
I1126 19:49:37.451184 10970 layer_factory.hpp:76] Creating layer inception_4b/1x1
I1126 19:49:37.451195 10970 net.cpp:106] Creating Layer inception_4b/1x1
I1126 19:49:37.451200 10970 net.cpp:454] inception_4b/1x1 <- inception_4a/output_inception_4a/output_0_split_1
I1126 19:49:37.451208 10970 net.cpp:411] inception_4b/1x1 -> inception_4b/1x1
I1126 19:49:37.452769 10970 net.cpp:150] Setting up inception_4b/1x1
I1126 19:49:37.452781 10970 net.cpp:157] Top shape: 64 160 14 14 (2007040)
I1126 19:49:37.452785 10970 net.cpp:165] Memory required for data: 2533757700
I1126 19:49:37.452791 10970 layer_factory.hpp:76] Creating layer inception_4b/relu_1x1
I1126 19:49:37.452798 10970 net.cpp:106] Creating Layer inception_4b/relu_1x1
I1126 19:49:37.452801 10970 net.cpp:454] inception_4b/relu_1x1 <- inception_4b/1x1
I1126 19:49:37.452808 10970 net.cpp:397] inception_4b/relu_1x1 -> inception_4b/1x1 (in-place)
I1126 19:49:37.453104 10970 net.cpp:150] Setting up inception_4b/relu_1x1
I1126 19:49:37.453117 10970 net.cpp:157] Top shape: 64 160 14 14 (2007040)
I1126 19:49:37.453120 10970 net.cpp:165] Memory required for data: 2541785860
I1126 19:49:37.453124 10970 layer_factory.hpp:76] Creating layer inception_4b/3x3_reduce
I1126 19:49:37.453133 10970 net.cpp:106] Creating Layer inception_4b/3x3_reduce
I1126 19:49:37.453137 10970 net.cpp:454] inception_4b/3x3_reduce <- inception_4a/output_inception_4a/output_0_split_2
I1126 19:49:37.453145 10970 net.cpp:411] inception_4b/3x3_reduce -> inception_4b/3x3_reduce
I1126 19:49:37.454932 10970 net.cpp:150] Setting up inception_4b/3x3_reduce
I1126 19:49:37.454946 10970 net.cpp:157] Top shape: 64 112 14 14 (1404928)
I1126 19:49:37.454949 10970 net.cpp:165] Memory required for data: 2547405572
I1126 19:49:37.454957 10970 layer_factory.hpp:76] Creating layer inception_4b/relu_3x3_reduce
I1126 19:49:37.454963 10970 net.cpp:106] Creating Layer inception_4b/relu_3x3_reduce
I1126 19:49:37.454967 10970 net.cpp:454] inception_4b/relu_3x3_reduce <- inception_4b/3x3_reduce
I1126 19:49:37.454973 10970 net.cpp:397] inception_4b/relu_3x3_reduce -> inception_4b/3x3_reduce (in-place)
I1126 19:49:37.455139 10970 net.cpp:150] Setting up inception_4b/relu_3x3_reduce
I1126 19:49:37.455150 10970 net.cpp:157] Top shape: 64 112 14 14 (1404928)
I1126 19:49:37.455153 10970 net.cpp:165] Memory required for data: 2553025284
I1126 19:49:37.455157 10970 layer_factory.hpp:76] Creating layer inception_4b/3x3
I1126 19:49:37.455166 10970 net.cpp:106] Creating Layer inception_4b/3x3
I1126 19:49:37.455170 10970 net.cpp:454] inception_4b/3x3 <- inception_4b/3x3_reduce
I1126 19:49:37.455178 10970 net.cpp:411] inception_4b/3x3 -> inception_4b/3x3
I1126 19:49:37.457986 10970 net.cpp:150] Setting up inception_4b/3x3
I1126 19:49:37.458001 10970 net.cpp:157] Top shape: 64 224 14 14 (2809856)
I1126 19:49:37.458004 10970 net.cpp:165] Memory required for data: 2564264708
I1126 19:49:37.458010 10970 layer_factory.hpp:76] Creating layer inception_4b/relu_3x3
I1126 19:49:37.458016 10970 net.cpp:106] Creating Layer inception_4b/relu_3x3
I1126 19:49:37.458020 10970 net.cpp:454] inception_4b/relu_3x3 <- inception_4b/3x3
I1126 19:49:37.458025 10970 net.cpp:397] inception_4b/relu_3x3 -> inception_4b/3x3 (in-place)
I1126 19:49:37.458191 10970 net.cpp:150] Setting up inception_4b/relu_3x3
I1126 19:49:37.458201 10970 net.cpp:157] Top shape: 64 224 14 14 (2809856)
I1126 19:49:37.458204 10970 net.cpp:165] Memory required for data: 2575504132
I1126 19:49:37.458207 10970 layer_factory.hpp:76] Creating layer inception_4b/5x5_reduce
I1126 19:49:37.458215 10970 net.cpp:106] Creating Layer inception_4b/5x5_reduce
I1126 19:49:37.458220 10970 net.cpp:454] inception_4b/5x5_reduce <- inception_4a/output_inception_4a/output_0_split_3
I1126 19:49:37.458225 10970 net.cpp:411] inception_4b/5x5_reduce -> inception_4b/5x5_reduce
I1126 19:49:37.459300 10970 net.cpp:150] Setting up inception_4b/5x5_reduce
I1126 19:49:37.459314 10970 net.cpp:157] Top shape: 64 24 14 14 (301056)
I1126 19:49:37.459318 10970 net.cpp:165] Memory required for data: 2576708356
I1126 19:49:37.459324 10970 layer_factory.hpp:76] Creating layer inception_4b/relu_5x5_reduce
I1126 19:49:37.459329 10970 net.cpp:106] Creating Layer inception_4b/relu_5x5_reduce
I1126 19:49:37.459333 10970 net.cpp:454] inception_4b/relu_5x5_reduce <- inception_4b/5x5_reduce
I1126 19:49:37.459339 10970 net.cpp:397] inception_4b/relu_5x5_reduce -> inception_4b/5x5_reduce (in-place)
I1126 19:49:37.459749 10970 net.cpp:150] Setting up inception_4b/relu_5x5_reduce
I1126 19:49:37.459761 10970 net.cpp:157] Top shape: 64 24 14 14 (301056)
I1126 19:49:37.459764 10970 net.cpp:165] Memory required for data: 2577912580
I1126 19:49:37.459769 10970 layer_factory.hpp:76] Creating layer inception_4b/5x5
I1126 19:49:37.459776 10970 net.cpp:106] Creating Layer inception_4b/5x5
I1126 19:49:37.459782 10970 net.cpp:454] inception_4b/5x5 <- inception_4b/5x5_reduce
I1126 19:49:37.459789 10970 net.cpp:411] inception_4b/5x5 -> inception_4b/5x5
I1126 19:49:37.461074 10970 net.cpp:150] Setting up inception_4b/5x5
I1126 19:49:37.461088 10970 net.cpp:157] Top shape: 64 64 14 14 (802816)
I1126 19:49:37.461091 10970 net.cpp:165] Memory required for data: 2581123844
I1126 19:49:37.461097 10970 layer_factory.hpp:76] Creating layer inception_4b/relu_5x5
I1126 19:49:37.461103 10970 net.cpp:106] Creating Layer inception_4b/relu_5x5
I1126 19:49:37.461107 10970 net.cpp:454] inception_4b/relu_5x5 <- inception_4b/5x5
I1126 19:49:37.461113 10970 net.cpp:397] inception_4b/relu_5x5 -> inception_4b/5x5 (in-place)
I1126 19:49:37.461277 10970 net.cpp:150] Setting up inception_4b/relu_5x5
I1126 19:49:37.461287 10970 net.cpp:157] Top shape: 64 64 14 14 (802816)
I1126 19:49:37.461290 10970 net.cpp:165] Memory required for data: 2584335108
I1126 19:49:37.461293 10970 layer_factory.hpp:76] Creating layer inception_4b/pool
I1126 19:49:37.461299 10970 net.cpp:106] Creating Layer inception_4b/pool
I1126 19:49:37.461303 10970 net.cpp:454] inception_4b/pool <- inception_4a/output_inception_4a/output_0_split_4
I1126 19:49:37.461308 10970 net.cpp:411] inception_4b/pool -> inception_4b/pool
I1126 19:49:37.461645 10970 net.cpp:150] Setting up inception_4b/pool
I1126 19:49:37.461658 10970 net.cpp:157] Top shape: 64 512 14 14 (6422528)
I1126 19:49:37.461663 10970 net.cpp:165] Memory required for data: 2610025220
I1126 19:49:37.461665 10970 layer_factory.hpp:76] Creating layer inception_4b/pool_proj
I1126 19:49:37.461676 10970 net.cpp:106] Creating Layer inception_4b/pool_proj
I1126 19:49:37.461680 10970 net.cpp:454] inception_4b/pool_proj <- inception_4b/pool
I1126 19:49:37.461686 10970 net.cpp:411] inception_4b/pool_proj -> inception_4b/pool_proj
I1126 19:49:37.462760 10970 net.cpp:150] Setting up inception_4b/pool_proj
I1126 19:49:37.462776 10970 net.cpp:157] Top shape: 64 64 14 14 (802816)
I1126 19:49:37.462780 10970 net.cpp:165] Memory required for data: 2613236484
I1126 19:49:37.462786 10970 layer_factory.hpp:76] Creating layer inception_4b/relu_pool_proj
I1126 19:49:37.462791 10970 net.cpp:106] Creating Layer inception_4b/relu_pool_proj
I1126 19:49:37.462795 10970 net.cpp:454] inception_4b/relu_pool_proj <- inception_4b/pool_proj
I1126 19:49:37.462801 10970 net.cpp:397] inception_4b/relu_pool_proj -> inception_4b/pool_proj (in-place)
I1126 19:49:37.463107 10970 net.cpp:150] Setting up inception_4b/relu_pool_proj
I1126 19:49:37.463120 10970 net.cpp:157] Top shape: 64 64 14 14 (802816)
I1126 19:49:37.463124 10970 net.cpp:165] Memory required for data: 2616447748
I1126 19:49:37.463127 10970 layer_factory.hpp:76] Creating layer inception_4b/output
I1126 19:49:37.463134 10970 net.cpp:106] Creating Layer inception_4b/output
I1126 19:49:37.463137 10970 net.cpp:454] inception_4b/output <- inception_4b/1x1
I1126 19:49:37.463141 10970 net.cpp:454] inception_4b/output <- inception_4b/3x3
I1126 19:49:37.463145 10970 net.cpp:454] inception_4b/output <- inception_4b/5x5
I1126 19:49:37.463150 10970 net.cpp:454] inception_4b/output <- inception_4b/pool_proj
I1126 19:49:37.463155 10970 net.cpp:411] inception_4b/output -> inception_4b/output
I1126 19:49:37.463187 10970 net.cpp:150] Setting up inception_4b/output
I1126 19:49:37.463194 10970 net.cpp:157] Top shape: 64 512 14 14 (6422528)
I1126 19:49:37.463197 10970 net.cpp:165] Memory required for data: 2642137860
I1126 19:49:37.463201 10970 layer_factory.hpp:76] Creating layer inception_4b/output_inception_4b/output_0_split
I1126 19:49:37.463207 10970 net.cpp:106] Creating Layer inception_4b/output_inception_4b/output_0_split
I1126 19:49:37.463212 10970 net.cpp:454] inception_4b/output_inception_4b/output_0_split <- inception_4b/output
I1126 19:49:37.463215 10970 net.cpp:411] inception_4b/output_inception_4b/output_0_split -> inception_4b/output_inception_4b/output_0_split_0
I1126 19:49:37.463222 10970 net.cpp:411] inception_4b/output_inception_4b/output_0_split -> inception_4b/output_inception_4b/output_0_split_1
I1126 19:49:37.463228 10970 net.cpp:411] inception_4b/output_inception_4b/output_0_split -> inception_4b/output_inception_4b/output_0_split_2
I1126 19:49:37.463233 10970 net.cpp:411] inception_4b/output_inception_4b/output_0_split -> inception_4b/output_inception_4b/output_0_split_3
I1126 19:49:37.463295 10970 net.cpp:150] Setting up inception_4b/output_inception_4b/output_0_split
I1126 19:49:37.463302 10970 net.cpp:157] Top shape: 64 512 14 14 (6422528)
I1126 19:49:37.463306 10970 net.cpp:157] Top shape: 64 512 14 14 (6422528)
I1126 19:49:37.463310 10970 net.cpp:157] Top shape: 64 512 14 14 (6422528)
I1126 19:49:37.463313 10970 net.cpp:157] Top shape: 64 512 14 14 (6422528)
I1126 19:49:37.463315 10970 net.cpp:165] Memory required for data: 2744898308
I1126 19:49:37.463318 10970 layer_factory.hpp:76] Creating layer inception_4c/1x1
I1126 19:49:37.463326 10970 net.cpp:106] Creating Layer inception_4c/1x1
I1126 19:49:37.463330 10970 net.cpp:454] inception_4c/1x1 <- inception_4b/output_inception_4b/output_0_split_0
I1126 19:49:37.463335 10970 net.cpp:411] inception_4c/1x1 -> inception_4c/1x1
I1126 19:49:37.464730 10970 net.cpp:150] Setting up inception_4c/1x1
I1126 19:49:37.464743 10970 net.cpp:157] Top shape: 64 128 14 14 (1605632)
I1126 19:49:37.464747 10970 net.cpp:165] Memory required for data: 2751320836
I1126 19:49:37.464753 10970 layer_factory.hpp:76] Creating layer inception_4c/relu_1x1
I1126 19:49:37.464758 10970 net.cpp:106] Creating Layer inception_4c/relu_1x1
I1126 19:49:37.464763 10970 net.cpp:454] inception_4c/relu_1x1 <- inception_4c/1x1
I1126 19:49:37.464769 10970 net.cpp:397] inception_4c/relu_1x1 -> inception_4c/1x1 (in-place)
I1126 19:49:37.464936 10970 net.cpp:150] Setting up inception_4c/relu_1x1
I1126 19:49:37.464947 10970 net.cpp:157] Top shape: 64 128 14 14 (1605632)
I1126 19:49:37.464951 10970 net.cpp:165] Memory required for data: 2757743364
I1126 19:49:37.464953 10970 layer_factory.hpp:76] Creating layer inception_4c/3x3_reduce
I1126 19:49:37.464961 10970 net.cpp:106] Creating Layer inception_4c/3x3_reduce
I1126 19:49:37.464964 10970 net.cpp:454] inception_4c/3x3_reduce <- inception_4b/output_inception_4b/output_0_split_1
I1126 19:49:37.464970 10970 net.cpp:411] inception_4c/3x3_reduce -> inception_4c/3x3_reduce
I1126 19:49:37.466388 10970 net.cpp:150] Setting up inception_4c/3x3_reduce
I1126 19:49:37.466401 10970 net.cpp:157] Top shape: 64 128 14 14 (1605632)
I1126 19:49:37.466405 10970 net.cpp:165] Memory required for data: 2764165892
I1126 19:49:37.466411 10970 layer_factory.hpp:76] Creating layer inception_4c/relu_3x3_reduce
I1126 19:49:37.466416 10970 net.cpp:106] Creating Layer inception_4c/relu_3x3_reduce
I1126 19:49:37.466420 10970 net.cpp:454] inception_4c/relu_3x3_reduce <- inception_4c/3x3_reduce
I1126 19:49:37.466425 10970 net.cpp:397] inception_4c/relu_3x3_reduce -> inception_4c/3x3_reduce (in-place)
I1126 19:49:37.466723 10970 net.cpp:150] Setting up inception_4c/relu_3x3_reduce
I1126 19:49:37.466735 10970 net.cpp:157] Top shape: 64 128 14 14 (1605632)
I1126 19:49:37.466738 10970 net.cpp:165] Memory required for data: 2770588420
I1126 19:49:37.466742 10970 layer_factory.hpp:76] Creating layer inception_4c/3x3
I1126 19:49:37.466750 10970 net.cpp:106] Creating Layer inception_4c/3x3
I1126 19:49:37.466754 10970 net.cpp:454] inception_4c/3x3 <- inception_4c/3x3_reduce
I1126 19:49:37.466761 10970 net.cpp:411] inception_4c/3x3 -> inception_4c/3x3
I1126 19:49:37.469949 10970 net.cpp:150] Setting up inception_4c/3x3
I1126 19:49:37.469962 10970 net.cpp:157] Top shape: 64 256 14 14 (3211264)
I1126 19:49:37.469966 10970 net.cpp:165] Memory required for data: 2783433476
I1126 19:49:37.469983 10970 layer_factory.hpp:76] Creating layer inception_4c/relu_3x3
I1126 19:49:37.469990 10970 net.cpp:106] Creating Layer inception_4c/relu_3x3
I1126 19:49:37.469995 10970 net.cpp:454] inception_4c/relu_3x3 <- inception_4c/3x3
I1126 19:49:37.470000 10970 net.cpp:397] inception_4c/relu_3x3 -> inception_4c/3x3 (in-place)
I1126 19:49:37.470298 10970 net.cpp:150] Setting up inception_4c/relu_3x3
I1126 19:49:37.470310 10970 net.cpp:157] Top shape: 64 256 14 14 (3211264)
I1126 19:49:37.470314 10970 net.cpp:165] Memory required for data: 2796278532
I1126 19:49:37.470316 10970 layer_factory.hpp:76] Creating layer inception_4c/5x5_reduce
I1126 19:49:37.470325 10970 net.cpp:106] Creating Layer inception_4c/5x5_reduce
I1126 19:49:37.470329 10970 net.cpp:454] inception_4c/5x5_reduce <- inception_4b/output_inception_4b/output_0_split_2
I1126 19:49:37.470335 10970 net.cpp:411] inception_4c/5x5_reduce -> inception_4c/5x5_reduce
I1126 19:49:37.471437 10970 net.cpp:150] Setting up inception_4c/5x5_reduce
I1126 19:49:37.471451 10970 net.cpp:157] Top shape: 64 24 14 14 (301056)
I1126 19:49:37.471454 10970 net.cpp:165] Memory required for data: 2797482756
I1126 19:49:37.471460 10970 layer_factory.hpp:76] Creating layer inception_4c/relu_5x5_reduce
I1126 19:49:37.471465 10970 net.cpp:106] Creating Layer inception_4c/relu_5x5_reduce
I1126 19:49:37.471470 10970 net.cpp:454] inception_4c/relu_5x5_reduce <- inception_4c/5x5_reduce
I1126 19:49:37.471477 10970 net.cpp:397] inception_4c/relu_5x5_reduce -> inception_4c/5x5_reduce (in-place)
I1126 19:49:37.471652 10970 net.cpp:150] Setting up inception_4c/relu_5x5_reduce
I1126 19:49:37.471663 10970 net.cpp:157] Top shape: 64 24 14 14 (301056)
I1126 19:49:37.471668 10970 net.cpp:165] Memory required for data: 2798686980
I1126 19:49:37.471670 10970 layer_factory.hpp:76] Creating layer inception_4c/5x5
I1126 19:49:37.471678 10970 net.cpp:106] Creating Layer inception_4c/5x5
I1126 19:49:37.471680 10970 net.cpp:454] inception_4c/5x5 <- inception_4c/5x5_reduce
I1126 19:49:37.471688 10970 net.cpp:411] inception_4c/5x5 -> inception_4c/5x5
I1126 19:49:37.473348 10970 net.cpp:150] Setting up inception_4c/5x5
I1126 19:49:37.473361 10970 net.cpp:157] Top shape: 64 64 14 14 (802816)
I1126 19:49:37.473366 10970 net.cpp:165] Memory required for data: 2801898244
I1126 19:49:37.473371 10970 layer_factory.hpp:76] Creating layer inception_4c/relu_5x5
I1126 19:49:37.473377 10970 net.cpp:106] Creating Layer inception_4c/relu_5x5
I1126 19:49:37.473381 10970 net.cpp:454] inception_4c/relu_5x5 <- inception_4c/5x5
I1126 19:49:37.473387 10970 net.cpp:397] inception_4c/relu_5x5 -> inception_4c/5x5 (in-place)
I1126 19:49:37.473685 10970 net.cpp:150] Setting up inception_4c/relu_5x5
I1126 19:49:37.473698 10970 net.cpp:157] Top shape: 64 64 14 14 (802816)
I1126 19:49:37.473701 10970 net.cpp:165] Memory required for data: 2805109508
I1126 19:49:37.473706 10970 layer_factory.hpp:76] Creating layer inception_4c/pool
I1126 19:49:37.473711 10970 net.cpp:106] Creating Layer inception_4c/pool
I1126 19:49:37.473718 10970 net.cpp:454] inception_4c/pool <- inception_4b/output_inception_4b/output_0_split_3
I1126 19:49:37.473723 10970 net.cpp:411] inception_4c/pool -> inception_4c/pool
I1126 19:49:37.473924 10970 net.cpp:150] Setting up inception_4c/pool
I1126 19:49:37.473934 10970 net.cpp:157] Top shape: 64 512 14 14 (6422528)
I1126 19:49:37.473937 10970 net.cpp:165] Memory required for data: 2830799620
I1126 19:49:37.473942 10970 layer_factory.hpp:76] Creating layer inception_4c/pool_proj
I1126 19:49:37.473951 10970 net.cpp:106] Creating Layer inception_4c/pool_proj
I1126 19:49:37.473956 10970 net.cpp:454] inception_4c/pool_proj <- inception_4c/pool
I1126 19:49:37.473963 10970 net.cpp:411] inception_4c/pool_proj -> inception_4c/pool_proj
I1126 19:49:37.475297 10970 net.cpp:150] Setting up inception_4c/pool_proj
I1126 19:49:37.475311 10970 net.cpp:157] Top shape: 64 64 14 14 (802816)
I1126 19:49:37.475316 10970 net.cpp:165] Memory required for data: 2834010884
I1126 19:49:37.475322 10970 layer_factory.hpp:76] Creating layer inception_4c/relu_pool_proj
I1126 19:49:37.475328 10970 net.cpp:106] Creating Layer inception_4c/relu_pool_proj
I1126 19:49:37.475332 10970 net.cpp:454] inception_4c/relu_pool_proj <- inception_4c/pool_proj
I1126 19:49:37.475337 10970 net.cpp:397] inception_4c/relu_pool_proj -> inception_4c/pool_proj (in-place)
I1126 19:49:37.475642 10970 net.cpp:150] Setting up inception_4c/relu_pool_proj
I1126 19:49:37.475654 10970 net.cpp:157] Top shape: 64 64 14 14 (802816)
I1126 19:49:37.475657 10970 net.cpp:165] Memory required for data: 2837222148
I1126 19:49:37.475661 10970 layer_factory.hpp:76] Creating layer inception_4c/output
I1126 19:49:37.475668 10970 net.cpp:106] Creating Layer inception_4c/output
I1126 19:49:37.475672 10970 net.cpp:454] inception_4c/output <- inception_4c/1x1
I1126 19:49:37.475677 10970 net.cpp:454] inception_4c/output <- inception_4c/3x3
I1126 19:49:37.475680 10970 net.cpp:454] inception_4c/output <- inception_4c/5x5
I1126 19:49:37.475684 10970 net.cpp:454] inception_4c/output <- inception_4c/pool_proj
I1126 19:49:37.475688 10970 net.cpp:411] inception_4c/output -> inception_4c/output
I1126 19:49:37.475723 10970 net.cpp:150] Setting up inception_4c/output
I1126 19:49:37.475729 10970 net.cpp:157] Top shape: 64 512 14 14 (6422528)
I1126 19:49:37.475733 10970 net.cpp:165] Memory required for data: 2862912260
I1126 19:49:37.475735 10970 layer_factory.hpp:76] Creating layer inception_4c/output_inception_4c/output_0_split
I1126 19:49:37.475741 10970 net.cpp:106] Creating Layer inception_4c/output_inception_4c/output_0_split
I1126 19:49:37.475744 10970 net.cpp:454] inception_4c/output_inception_4c/output_0_split <- inception_4c/output
I1126 19:49:37.475750 10970 net.cpp:411] inception_4c/output_inception_4c/output_0_split -> inception_4c/output_inception_4c/output_0_split_0
I1126 19:49:37.475757 10970 net.cpp:411] inception_4c/output_inception_4c/output_0_split -> inception_4c/output_inception_4c/output_0_split_1
I1126 19:49:37.475762 10970 net.cpp:411] inception_4c/output_inception_4c/output_0_split -> inception_4c/output_inception_4c/output_0_split_2
I1126 19:49:37.475767 10970 net.cpp:411] inception_4c/output_inception_4c/output_0_split -> inception_4c/output_inception_4c/output_0_split_3
I1126 19:49:37.475832 10970 net.cpp:150] Setting up inception_4c/output_inception_4c/output_0_split
I1126 19:49:37.475839 10970 net.cpp:157] Top shape: 64 512 14 14 (6422528)
I1126 19:49:37.475842 10970 net.cpp:157] Top shape: 64 512 14 14 (6422528)
I1126 19:49:37.475847 10970 net.cpp:157] Top shape: 64 512 14 14 (6422528)
I1126 19:49:37.475849 10970 net.cpp:157] Top shape: 64 512 14 14 (6422528)
I1126 19:49:37.475852 10970 net.cpp:165] Memory required for data: 2965672708
I1126 19:49:37.475855 10970 layer_factory.hpp:76] Creating layer inception_4d/1x1
I1126 19:49:37.475867 10970 net.cpp:106] Creating Layer inception_4d/1x1
I1126 19:49:37.475869 10970 net.cpp:454] inception_4d/1x1 <- inception_4c/output_inception_4c/output_0_split_0
I1126 19:49:37.475874 10970 net.cpp:411] inception_4d/1x1 -> inception_4d/1x1
I1126 19:49:37.477130 10970 net.cpp:150] Setting up inception_4d/1x1
I1126 19:49:37.477144 10970 net.cpp:157] Top shape: 64 112 14 14 (1404928)
I1126 19:49:37.477147 10970 net.cpp:165] Memory required for data: 2971292420
I1126 19:49:37.477154 10970 layer_factory.hpp:76] Creating layer inception_4d/relu_1x1
I1126 19:49:37.477160 10970 net.cpp:106] Creating Layer inception_4d/relu_1x1
I1126 19:49:37.477164 10970 net.cpp:454] inception_4d/relu_1x1 <- inception_4d/1x1
I1126 19:49:37.477169 10970 net.cpp:397] inception_4d/relu_1x1 -> inception_4d/1x1 (in-place)
I1126 19:49:37.477475 10970 net.cpp:150] Setting up inception_4d/relu_1x1
I1126 19:49:37.477488 10970 net.cpp:157] Top shape: 64 112 14 14 (1404928)
I1126 19:49:37.477491 10970 net.cpp:165] Memory required for data: 2976912132
I1126 19:49:37.477494 10970 layer_factory.hpp:76] Creating layer inception_4d/3x3_reduce
I1126 19:49:37.477504 10970 net.cpp:106] Creating Layer inception_4d/3x3_reduce
I1126 19:49:37.477507 10970 net.cpp:454] inception_4d/3x3_reduce <- inception_4c/output_inception_4c/output_0_split_1
I1126 19:49:37.477514 10970 net.cpp:411] inception_4d/3x3_reduce -> inception_4d/3x3_reduce
I1126 19:49:37.479038 10970 net.cpp:150] Setting up inception_4d/3x3_reduce
I1126 19:49:37.479051 10970 net.cpp:157] Top shape: 64 144 14 14 (1806336)
I1126 19:49:37.479054 10970 net.cpp:165] Memory required for data: 2984137476
I1126 19:49:37.479060 10970 layer_factory.hpp:76] Creating layer inception_4d/relu_3x3_reduce
I1126 19:49:37.479066 10970 net.cpp:106] Creating Layer inception_4d/relu_3x3_reduce
I1126 19:49:37.479070 10970 net.cpp:454] inception_4d/relu_3x3_reduce <- inception_4d/3x3_reduce
I1126 19:49:37.479076 10970 net.cpp:397] inception_4d/relu_3x3_reduce -> inception_4d/3x3_reduce (in-place)
I1126 19:49:37.479243 10970 net.cpp:150] Setting up inception_4d/relu_3x3_reduce
I1126 19:49:37.479251 10970 net.cpp:157] Top shape: 64 144 14 14 (1806336)
I1126 19:49:37.479254 10970 net.cpp:165] Memory required for data: 2991362820
I1126 19:49:37.479259 10970 layer_factory.hpp:76] Creating layer inception_4d/3x3
I1126 19:49:37.479265 10970 net.cpp:106] Creating Layer inception_4d/3x3
I1126 19:49:37.479269 10970 net.cpp:454] inception_4d/3x3 <- inception_4d/3x3_reduce
I1126 19:49:37.479276 10970 net.cpp:411] inception_4d/3x3 -> inception_4d/3x3
I1126 19:49:37.483198 10970 net.cpp:150] Setting up inception_4d/3x3
I1126 19:49:37.483216 10970 net.cpp:157] Top shape: 64 288 14 14 (3612672)
I1126 19:49:37.483218 10970 net.cpp:165] Memory required for data: 3005813508
I1126 19:49:37.483225 10970 layer_factory.hpp:76] Creating layer inception_4d/relu_3x3
I1126 19:49:37.483232 10970 net.cpp:106] Creating Layer inception_4d/relu_3x3
I1126 19:49:37.483237 10970 net.cpp:454] inception_4d/relu_3x3 <- inception_4d/3x3
I1126 19:49:37.483242 10970 net.cpp:397] inception_4d/relu_3x3 -> inception_4d/3x3 (in-place)
I1126 19:49:37.483542 10970 net.cpp:150] Setting up inception_4d/relu_3x3
I1126 19:49:37.483556 10970 net.cpp:157] Top shape: 64 288 14 14 (3612672)
I1126 19:49:37.483558 10970 net.cpp:165] Memory required for data: 3020264196
I1126 19:49:37.483562 10970 layer_factory.hpp:76] Creating layer inception_4d/5x5_reduce
I1126 19:49:37.483572 10970 net.cpp:106] Creating Layer inception_4d/5x5_reduce
I1126 19:49:37.483577 10970 net.cpp:454] inception_4d/5x5_reduce <- inception_4c/output_inception_4c/output_0_split_2
I1126 19:49:37.483584 10970 net.cpp:411] inception_4d/5x5_reduce -> inception_4d/5x5_reduce
I1126 19:49:37.484635 10970 net.cpp:150] Setting up inception_4d/5x5_reduce
I1126 19:49:37.484648 10970 net.cpp:157] Top shape: 64 32 14 14 (401408)
I1126 19:49:37.484652 10970 net.cpp:165] Memory required for data: 3021869828
I1126 19:49:37.484658 10970 layer_factory.hpp:76] Creating layer inception_4d/relu_5x5_reduce
I1126 19:49:37.484665 10970 net.cpp:106] Creating Layer inception_4d/relu_5x5_reduce
I1126 19:49:37.484669 10970 net.cpp:454] inception_4d/relu_5x5_reduce <- inception_4d/5x5_reduce
I1126 19:49:37.484674 10970 net.cpp:397] inception_4d/relu_5x5_reduce -> inception_4d/5x5_reduce (in-place)
I1126 19:49:37.484982 10970 net.cpp:150] Setting up inception_4d/relu_5x5_reduce
I1126 19:49:37.484995 10970 net.cpp:157] Top shape: 64 32 14 14 (401408)
I1126 19:49:37.484999 10970 net.cpp:165] Memory required for data: 3023475460
I1126 19:49:37.485002 10970 layer_factory.hpp:76] Creating layer inception_4d/5x5
I1126 19:49:37.485010 10970 net.cpp:106] Creating Layer inception_4d/5x5
I1126 19:49:37.485014 10970 net.cpp:454] inception_4d/5x5 <- inception_4d/5x5_reduce
I1126 19:49:37.485021 10970 net.cpp:411] inception_4d/5x5 -> inception_4d/5x5
I1126 19:49:37.486389 10970 net.cpp:150] Setting up inception_4d/5x5
I1126 19:49:37.486402 10970 net.cpp:157] Top shape: 64 64 14 14 (802816)
I1126 19:49:37.486407 10970 net.cpp:165] Memory required for data: 3026686724
I1126 19:49:37.486413 10970 layer_factory.hpp:76] Creating layer inception_4d/relu_5x5
I1126 19:49:37.486418 10970 net.cpp:106] Creating Layer inception_4d/relu_5x5
I1126 19:49:37.486423 10970 net.cpp:454] inception_4d/relu_5x5 <- inception_4d/5x5
I1126 19:49:37.486428 10970 net.cpp:397] inception_4d/relu_5x5 -> inception_4d/5x5 (in-place)
I1126 19:49:37.486596 10970 net.cpp:150] Setting up inception_4d/relu_5x5
I1126 19:49:37.486606 10970 net.cpp:157] Top shape: 64 64 14 14 (802816)
I1126 19:49:37.486609 10970 net.cpp:165] Memory required for data: 3029897988
I1126 19:49:37.486613 10970 layer_factory.hpp:76] Creating layer inception_4d/pool
I1126 19:49:37.486618 10970 net.cpp:106] Creating Layer inception_4d/pool
I1126 19:49:37.486623 10970 net.cpp:454] inception_4d/pool <- inception_4c/output_inception_4c/output_0_split_3
I1126 19:49:37.486629 10970 net.cpp:411] inception_4d/pool -> inception_4d/pool
I1126 19:49:37.486980 10970 net.cpp:150] Setting up inception_4d/pool
I1126 19:49:37.486992 10970 net.cpp:157] Top shape: 64 512 14 14 (6422528)
I1126 19:49:37.486996 10970 net.cpp:165] Memory required for data: 3055588100
I1126 19:49:37.487001 10970 layer_factory.hpp:76] Creating layer inception_4d/pool_proj
I1126 19:49:37.487011 10970 net.cpp:106] Creating Layer inception_4d/pool_proj
I1126 19:49:37.487016 10970 net.cpp:454] inception_4d/pool_proj <- inception_4d/pool
I1126 19:49:37.487023 10970 net.cpp:411] inception_4d/pool_proj -> inception_4d/pool_proj
I1126 19:49:37.488319 10970 net.cpp:150] Setting up inception_4d/pool_proj
I1126 19:49:37.488333 10970 net.cpp:157] Top shape: 64 64 14 14 (802816)
I1126 19:49:37.488337 10970 net.cpp:165] Memory required for data: 3058799364
I1126 19:49:37.488343 10970 layer_factory.hpp:76] Creating layer inception_4d/relu_pool_proj
I1126 19:49:37.488350 10970 net.cpp:106] Creating Layer inception_4d/relu_pool_proj
I1126 19:49:37.488354 10970 net.cpp:454] inception_4d/relu_pool_proj <- inception_4d/pool_proj
I1126 19:49:37.488359 10970 net.cpp:397] inception_4d/relu_pool_proj -> inception_4d/pool_proj (in-place)
I1126 19:49:37.488533 10970 net.cpp:150] Setting up inception_4d/relu_pool_proj
I1126 19:49:37.488543 10970 net.cpp:157] Top shape: 64 64 14 14 (802816)
I1126 19:49:37.488545 10970 net.cpp:165] Memory required for data: 3062010628
I1126 19:49:37.488549 10970 layer_factory.hpp:76] Creating layer inception_4d/output
I1126 19:49:37.488555 10970 net.cpp:106] Creating Layer inception_4d/output
I1126 19:49:37.488559 10970 net.cpp:454] inception_4d/output <- inception_4d/1x1
I1126 19:49:37.488564 10970 net.cpp:454] inception_4d/output <- inception_4d/3x3
I1126 19:49:37.488566 10970 net.cpp:454] inception_4d/output <- inception_4d/5x5
I1126 19:49:37.488570 10970 net.cpp:454] inception_4d/output <- inception_4d/pool_proj
I1126 19:49:37.488575 10970 net.cpp:411] inception_4d/output -> inception_4d/output
I1126 19:49:37.488608 10970 net.cpp:150] Setting up inception_4d/output
I1126 19:49:37.488615 10970 net.cpp:157] Top shape: 64 528 14 14 (6623232)
I1126 19:49:37.488618 10970 net.cpp:165] Memory required for data: 3088503556
I1126 19:49:37.488622 10970 layer_factory.hpp:76] Creating layer inception_4d/output_inception_4d/output_0_split
I1126 19:49:37.488629 10970 net.cpp:106] Creating Layer inception_4d/output_inception_4d/output_0_split
I1126 19:49:37.488632 10970 net.cpp:454] inception_4d/output_inception_4d/output_0_split <- inception_4d/output
I1126 19:49:37.488637 10970 net.cpp:411] inception_4d/output_inception_4d/output_0_split -> inception_4d/output_inception_4d/output_0_split_0
I1126 19:49:37.488643 10970 net.cpp:411] inception_4d/output_inception_4d/output_0_split -> inception_4d/output_inception_4d/output_0_split_1
I1126 19:49:37.488649 10970 net.cpp:411] inception_4d/output_inception_4d/output_0_split -> inception_4d/output_inception_4d/output_0_split_2
I1126 19:49:37.488656 10970 net.cpp:411] inception_4d/output_inception_4d/output_0_split -> inception_4d/output_inception_4d/output_0_split_3
I1126 19:49:37.488662 10970 net.cpp:411] inception_4d/output_inception_4d/output_0_split -> inception_4d/output_inception_4d/output_0_split_4
I1126 19:49:37.488749 10970 net.cpp:150] Setting up inception_4d/output_inception_4d/output_0_split
I1126 19:49:37.488756 10970 net.cpp:157] Top shape: 64 528 14 14 (6623232)
I1126 19:49:37.488759 10970 net.cpp:157] Top shape: 64 528 14 14 (6623232)
I1126 19:49:37.488764 10970 net.cpp:157] Top shape: 64 528 14 14 (6623232)
I1126 19:49:37.488766 10970 net.cpp:157] Top shape: 64 528 14 14 (6623232)
I1126 19:49:37.488770 10970 net.cpp:157] Top shape: 64 528 14 14 (6623232)
I1126 19:49:37.488772 10970 net.cpp:165] Memory required for data: 3220968196
I1126 19:49:37.488776 10970 layer_factory.hpp:76] Creating layer loss2/ave_pool
I1126 19:49:37.488781 10970 net.cpp:106] Creating Layer loss2/ave_pool
I1126 19:49:37.488785 10970 net.cpp:454] loss2/ave_pool <- inception_4d/output_inception_4d/output_0_split_0
I1126 19:49:37.488791 10970 net.cpp:411] loss2/ave_pool -> loss2/ave_pool
I1126 19:49:37.489121 10970 net.cpp:150] Setting up loss2/ave_pool
I1126 19:49:37.489135 10970 net.cpp:157] Top shape: 64 528 4 4 (540672)
I1126 19:49:37.489138 10970 net.cpp:165] Memory required for data: 3223130884
I1126 19:49:37.489142 10970 layer_factory.hpp:76] Creating layer loss2/conv
I1126 19:49:37.489150 10970 net.cpp:106] Creating Layer loss2/conv
I1126 19:49:37.489153 10970 net.cpp:454] loss2/conv <- loss2/ave_pool
I1126 19:49:37.489161 10970 net.cpp:411] loss2/conv -> loss2/conv
I1126 19:49:37.490970 10970 net.cpp:150] Setting up loss2/conv
I1126 19:49:37.490985 10970 net.cpp:157] Top shape: 64 128 4 4 (131072)
I1126 19:49:37.490988 10970 net.cpp:165] Memory required for data: 3223655172
I1126 19:49:37.490995 10970 layer_factory.hpp:76] Creating layer loss2/relu_conv
I1126 19:49:37.491000 10970 net.cpp:106] Creating Layer loss2/relu_conv
I1126 19:49:37.491004 10970 net.cpp:454] loss2/relu_conv <- loss2/conv
I1126 19:49:37.491009 10970 net.cpp:397] loss2/relu_conv -> loss2/conv (in-place)
I1126 19:49:37.491442 10970 net.cpp:150] Setting up loss2/relu_conv
I1126 19:49:37.491456 10970 net.cpp:157] Top shape: 64 128 4 4 (131072)
I1126 19:49:37.491459 10970 net.cpp:165] Memory required for data: 3224179460
I1126 19:49:37.491462 10970 layer_factory.hpp:76] Creating layer loss2/fc
I1126 19:49:37.491469 10970 net.cpp:106] Creating Layer loss2/fc
I1126 19:49:37.491473 10970 net.cpp:454] loss2/fc <- loss2/conv
I1126 19:49:37.491480 10970 net.cpp:411] loss2/fc -> loss2/fc
I1126 19:49:37.507040 10970 net.cpp:150] Setting up loss2/fc
I1126 19:49:37.507061 10970 net.cpp:157] Top shape: 64 1024 (65536)
I1126 19:49:37.507063 10970 net.cpp:165] Memory required for data: 3224441604
I1126 19:49:37.507072 10970 layer_factory.hpp:76] Creating layer loss2/relu_fc
I1126 19:49:37.507081 10970 net.cpp:106] Creating Layer loss2/relu_fc
I1126 19:49:37.507087 10970 net.cpp:454] loss2/relu_fc <- loss2/fc
I1126 19:49:37.507093 10970 net.cpp:397] loss2/relu_fc -> loss2/fc (in-place)
I1126 19:49:37.507319 10970 net.cpp:150] Setting up loss2/relu_fc
I1126 19:49:37.507330 10970 net.cpp:157] Top shape: 64 1024 (65536)
I1126 19:49:37.507333 10970 net.cpp:165] Memory required for data: 3224703748
I1126 19:49:37.507336 10970 layer_factory.hpp:76] Creating layer loss2/drop_fc
I1126 19:49:37.507344 10970 net.cpp:106] Creating Layer loss2/drop_fc
I1126 19:49:37.507346 10970 net.cpp:454] loss2/drop_fc <- loss2/fc
I1126 19:49:37.507352 10970 net.cpp:397] loss2/drop_fc -> loss2/fc (in-place)
I1126 19:49:37.507383 10970 net.cpp:150] Setting up loss2/drop_fc
I1126 19:49:37.507392 10970 net.cpp:157] Top shape: 64 1024 (65536)
I1126 19:49:37.507395 10970 net.cpp:165] Memory required for data: 3224965892
I1126 19:49:37.507398 10970 layer_factory.hpp:76] Creating layer loss2/classifier-attribute
I1126 19:49:37.507405 10970 net.cpp:106] Creating Layer loss2/classifier-attribute
I1126 19:49:37.507408 10970 net.cpp:454] loss2/classifier-attribute <- loss2/fc
I1126 19:49:37.507414 10970 net.cpp:411] loss2/classifier-attribute -> loss2/classifier-attribute
I1126 19:49:37.584208 10970 net.cpp:150] Setting up loss2/classifier-attribute
I1126 19:49:37.584228 10970 net.cpp:157] Top shape: 64 9999 (639936)
I1126 19:49:37.584231 10970 net.cpp:165] Memory required for data: 3227525636
I1126 19:49:37.584242 10970 layer_factory.hpp:76] Creating layer loss2/loss
I1126 19:49:37.584254 10970 net.cpp:106] Creating Layer loss2/loss
I1126 19:49:37.584259 10970 net.cpp:454] loss2/loss <- loss2/classifier-attribute
I1126 19:49:37.584266 10970 net.cpp:454] loss2/loss <- label_data_1_split_1
I1126 19:49:37.584271 10970 net.cpp:411] loss2/loss -> loss2/loss1
I1126 19:49:37.584281 10970 layer_factory.hpp:76] Creating layer loss2/loss
I1126 19:49:37.586014 10970 net.cpp:150] Setting up loss2/loss
I1126 19:49:37.586027 10970 net.cpp:157] Top shape: (1)
I1126 19:49:37.586031 10970 net.cpp:160]     with loss weight 0.3
I1126 19:49:37.586041 10970 net.cpp:165] Memory required for data: 3227525640
I1126 19:49:37.586045 10970 layer_factory.hpp:76] Creating layer inception_4e/1x1
I1126 19:49:37.586056 10970 net.cpp:106] Creating Layer inception_4e/1x1
I1126 19:49:37.586062 10970 net.cpp:454] inception_4e/1x1 <- inception_4d/output_inception_4d/output_0_split_1
I1126 19:49:37.586071 10970 net.cpp:411] inception_4e/1x1 -> inception_4e/1x1
I1126 19:49:37.588073 10970 net.cpp:150] Setting up inception_4e/1x1
I1126 19:49:37.588088 10970 net.cpp:157] Top shape: 64 256 14 14 (3211264)
I1126 19:49:37.588093 10970 net.cpp:165] Memory required for data: 3240370696
I1126 19:49:37.588099 10970 layer_factory.hpp:76] Creating layer inception_4e/relu_1x1
I1126 19:49:37.588105 10970 net.cpp:106] Creating Layer inception_4e/relu_1x1
I1126 19:49:37.588109 10970 net.cpp:454] inception_4e/relu_1x1 <- inception_4e/1x1
I1126 19:49:37.588115 10970 net.cpp:397] inception_4e/relu_1x1 -> inception_4e/1x1 (in-place)
I1126 19:49:37.588294 10970 net.cpp:150] Setting up inception_4e/relu_1x1
I1126 19:49:37.588306 10970 net.cpp:157] Top shape: 64 256 14 14 (3211264)
I1126 19:49:37.588310 10970 net.cpp:165] Memory required for data: 3253215752
I1126 19:49:37.588313 10970 layer_factory.hpp:76] Creating layer inception_4e/3x3_reduce
I1126 19:49:37.588320 10970 net.cpp:106] Creating Layer inception_4e/3x3_reduce
I1126 19:49:37.588325 10970 net.cpp:454] inception_4e/3x3_reduce <- inception_4d/output_inception_4d/output_0_split_2
I1126 19:49:37.588331 10970 net.cpp:411] inception_4e/3x3_reduce -> inception_4e/3x3_reduce
I1126 19:49:37.590363 10970 net.cpp:150] Setting up inception_4e/3x3_reduce
I1126 19:49:37.590378 10970 net.cpp:157] Top shape: 64 160 14 14 (2007040)
I1126 19:49:37.590381 10970 net.cpp:165] Memory required for data: 3261243912
I1126 19:49:37.590389 10970 layer_factory.hpp:76] Creating layer inception_4e/relu_3x3_reduce
I1126 19:49:37.590394 10970 net.cpp:106] Creating Layer inception_4e/relu_3x3_reduce
I1126 19:49:37.590399 10970 net.cpp:454] inception_4e/relu_3x3_reduce <- inception_4e/3x3_reduce
I1126 19:49:37.590404 10970 net.cpp:397] inception_4e/relu_3x3_reduce -> inception_4e/3x3_reduce (in-place)
I1126 19:49:37.590718 10970 net.cpp:150] Setting up inception_4e/relu_3x3_reduce
I1126 19:49:37.590731 10970 net.cpp:157] Top shape: 64 160 14 14 (2007040)
I1126 19:49:37.590734 10970 net.cpp:165] Memory required for data: 3269272072
I1126 19:49:37.590737 10970 layer_factory.hpp:76] Creating layer inception_4e/3x3
I1126 19:49:37.590746 10970 net.cpp:106] Creating Layer inception_4e/3x3
I1126 19:49:37.590751 10970 net.cpp:454] inception_4e/3x3 <- inception_4e/3x3_reduce
I1126 19:49:37.590759 10970 net.cpp:411] inception_4e/3x3 -> inception_4e/3x3
I1126 19:49:37.595346 10970 net.cpp:150] Setting up inception_4e/3x3
I1126 19:49:37.595371 10970 net.cpp:157] Top shape: 64 320 14 14 (4014080)
I1126 19:49:37.595376 10970 net.cpp:165] Memory required for data: 3285328392
I1126 19:49:37.595382 10970 layer_factory.hpp:76] Creating layer inception_4e/relu_3x3
I1126 19:49:37.595389 10970 net.cpp:106] Creating Layer inception_4e/relu_3x3
I1126 19:49:37.595394 10970 net.cpp:454] inception_4e/relu_3x3 <- inception_4e/3x3
I1126 19:49:37.595399 10970 net.cpp:397] inception_4e/relu_3x3 -> inception_4e/3x3 (in-place)
I1126 19:49:37.595708 10970 net.cpp:150] Setting up inception_4e/relu_3x3
I1126 19:49:37.595722 10970 net.cpp:157] Top shape: 64 320 14 14 (4014080)
I1126 19:49:37.595726 10970 net.cpp:165] Memory required for data: 3301384712
I1126 19:49:37.595729 10970 layer_factory.hpp:76] Creating layer inception_4e/5x5_reduce
I1126 19:49:37.595741 10970 net.cpp:106] Creating Layer inception_4e/5x5_reduce
I1126 19:49:37.595746 10970 net.cpp:454] inception_4e/5x5_reduce <- inception_4d/output_inception_4d/output_0_split_3
I1126 19:49:37.595752 10970 net.cpp:411] inception_4e/5x5_reduce -> inception_4e/5x5_reduce
I1126 19:49:37.596948 10970 net.cpp:150] Setting up inception_4e/5x5_reduce
I1126 19:49:37.596962 10970 net.cpp:157] Top shape: 64 32 14 14 (401408)
I1126 19:49:37.596966 10970 net.cpp:165] Memory required for data: 3302990344
I1126 19:49:37.596972 10970 layer_factory.hpp:76] Creating layer inception_4e/relu_5x5_reduce
I1126 19:49:37.596977 10970 net.cpp:106] Creating Layer inception_4e/relu_5x5_reduce
I1126 19:49:37.596982 10970 net.cpp:454] inception_4e/relu_5x5_reduce <- inception_4e/5x5_reduce
I1126 19:49:37.596987 10970 net.cpp:397] inception_4e/relu_5x5_reduce -> inception_4e/5x5_reduce (in-place)
I1126 19:49:37.597162 10970 net.cpp:150] Setting up inception_4e/relu_5x5_reduce
I1126 19:49:37.597172 10970 net.cpp:157] Top shape: 64 32 14 14 (401408)
I1126 19:49:37.597174 10970 net.cpp:165] Memory required for data: 3304595976
I1126 19:49:37.597178 10970 layer_factory.hpp:76] Creating layer inception_4e/5x5
I1126 19:49:37.597200 10970 net.cpp:106] Creating Layer inception_4e/5x5
I1126 19:49:37.597206 10970 net.cpp:454] inception_4e/5x5 <- inception_4e/5x5_reduce
I1126 19:49:37.597213 10970 net.cpp:411] inception_4e/5x5 -> inception_4e/5x5
I1126 19:49:37.598958 10970 net.cpp:150] Setting up inception_4e/5x5
I1126 19:49:37.598970 10970 net.cpp:157] Top shape: 64 128 14 14 (1605632)
I1126 19:49:37.598974 10970 net.cpp:165] Memory required for data: 3311018504
I1126 19:49:37.598980 10970 layer_factory.hpp:76] Creating layer inception_4e/relu_5x5
I1126 19:49:37.598989 10970 net.cpp:106] Creating Layer inception_4e/relu_5x5
I1126 19:49:37.598994 10970 net.cpp:454] inception_4e/relu_5x5 <- inception_4e/5x5
I1126 19:49:37.599000 10970 net.cpp:397] inception_4e/relu_5x5 -> inception_4e/5x5 (in-place)
I1126 19:49:37.599311 10970 net.cpp:150] Setting up inception_4e/relu_5x5
I1126 19:49:37.599324 10970 net.cpp:157] Top shape: 64 128 14 14 (1605632)
I1126 19:49:37.599328 10970 net.cpp:165] Memory required for data: 3317441032
I1126 19:49:37.599331 10970 layer_factory.hpp:76] Creating layer inception_4e/pool
I1126 19:49:37.599339 10970 net.cpp:106] Creating Layer inception_4e/pool
I1126 19:49:37.599342 10970 net.cpp:454] inception_4e/pool <- inception_4d/output_inception_4d/output_0_split_4
I1126 19:49:37.599349 10970 net.cpp:411] inception_4e/pool -> inception_4e/pool
I1126 19:49:37.599561 10970 net.cpp:150] Setting up inception_4e/pool
I1126 19:49:37.599573 10970 net.cpp:157] Top shape: 64 528 14 14 (6623232)
I1126 19:49:37.599576 10970 net.cpp:165] Memory required for data: 3343933960
I1126 19:49:37.599580 10970 layer_factory.hpp:76] Creating layer inception_4e/pool_proj
I1126 19:49:37.599588 10970 net.cpp:106] Creating Layer inception_4e/pool_proj
I1126 19:49:37.599591 10970 net.cpp:454] inception_4e/pool_proj <- inception_4e/pool
I1126 19:49:37.599597 10970 net.cpp:411] inception_4e/pool_proj -> inception_4e/pool_proj
I1126 19:49:37.601104 10970 net.cpp:150] Setting up inception_4e/pool_proj
I1126 19:49:37.601119 10970 net.cpp:157] Top shape: 64 128 14 14 (1605632)
I1126 19:49:37.601124 10970 net.cpp:165] Memory required for data: 3350356488
I1126 19:49:37.601130 10970 layer_factory.hpp:76] Creating layer inception_4e/relu_pool_proj
I1126 19:49:37.601135 10970 net.cpp:106] Creating Layer inception_4e/relu_pool_proj
I1126 19:49:37.601138 10970 net.cpp:454] inception_4e/relu_pool_proj <- inception_4e/pool_proj
I1126 19:49:37.601143 10970 net.cpp:397] inception_4e/relu_pool_proj -> inception_4e/pool_proj (in-place)
I1126 19:49:37.601454 10970 net.cpp:150] Setting up inception_4e/relu_pool_proj
I1126 19:49:37.601467 10970 net.cpp:157] Top shape: 64 128 14 14 (1605632)
I1126 19:49:37.601470 10970 net.cpp:165] Memory required for data: 3356779016
I1126 19:49:37.601474 10970 layer_factory.hpp:76] Creating layer inception_4e/output
I1126 19:49:37.601480 10970 net.cpp:106] Creating Layer inception_4e/output
I1126 19:49:37.601483 10970 net.cpp:454] inception_4e/output <- inception_4e/1x1
I1126 19:49:37.601488 10970 net.cpp:454] inception_4e/output <- inception_4e/3x3
I1126 19:49:37.601492 10970 net.cpp:454] inception_4e/output <- inception_4e/5x5
I1126 19:49:37.601496 10970 net.cpp:454] inception_4e/output <- inception_4e/pool_proj
I1126 19:49:37.601500 10970 net.cpp:411] inception_4e/output -> inception_4e/output
I1126 19:49:37.601538 10970 net.cpp:150] Setting up inception_4e/output
I1126 19:49:37.601544 10970 net.cpp:157] Top shape: 64 832 14 14 (10436608)
I1126 19:49:37.601547 10970 net.cpp:165] Memory required for data: 3398525448
I1126 19:49:37.601550 10970 layer_factory.hpp:76] Creating layer pool4/3x3_s2
I1126 19:49:37.601557 10970 net.cpp:106] Creating Layer pool4/3x3_s2
I1126 19:49:37.601560 10970 net.cpp:454] pool4/3x3_s2 <- inception_4e/output
I1126 19:49:37.601564 10970 net.cpp:411] pool4/3x3_s2 -> pool4/3x3_s2
I1126 19:49:37.601779 10970 net.cpp:150] Setting up pool4/3x3_s2
I1126 19:49:37.601790 10970 net.cpp:157] Top shape: 64 832 7 7 (2609152)
I1126 19:49:37.601794 10970 net.cpp:165] Memory required for data: 3408962056
I1126 19:49:37.601797 10970 layer_factory.hpp:76] Creating layer pool4/3x3_s2_pool4/3x3_s2_0_split
I1126 19:49:37.601802 10970 net.cpp:106] Creating Layer pool4/3x3_s2_pool4/3x3_s2_0_split
I1126 19:49:37.601806 10970 net.cpp:454] pool4/3x3_s2_pool4/3x3_s2_0_split <- pool4/3x3_s2
I1126 19:49:37.601812 10970 net.cpp:411] pool4/3x3_s2_pool4/3x3_s2_0_split -> pool4/3x3_s2_pool4/3x3_s2_0_split_0
I1126 19:49:37.601819 10970 net.cpp:411] pool4/3x3_s2_pool4/3x3_s2_0_split -> pool4/3x3_s2_pool4/3x3_s2_0_split_1
I1126 19:49:37.601824 10970 net.cpp:411] pool4/3x3_s2_pool4/3x3_s2_0_split -> pool4/3x3_s2_pool4/3x3_s2_0_split_2
I1126 19:49:37.601830 10970 net.cpp:411] pool4/3x3_s2_pool4/3x3_s2_0_split -> pool4/3x3_s2_pool4/3x3_s2_0_split_3
I1126 19:49:37.601899 10970 net.cpp:150] Setting up pool4/3x3_s2_pool4/3x3_s2_0_split
I1126 19:49:37.601908 10970 net.cpp:157] Top shape: 64 832 7 7 (2609152)
I1126 19:49:37.601912 10970 net.cpp:157] Top shape: 64 832 7 7 (2609152)
I1126 19:49:37.601917 10970 net.cpp:157] Top shape: 64 832 7 7 (2609152)
I1126 19:49:37.601920 10970 net.cpp:157] Top shape: 64 832 7 7 (2609152)
I1126 19:49:37.601923 10970 net.cpp:165] Memory required for data: 3450708488
I1126 19:49:37.601927 10970 layer_factory.hpp:76] Creating layer inception_5a/1x1
I1126 19:49:37.601933 10970 net.cpp:106] Creating Layer inception_5a/1x1
I1126 19:49:37.601939 10970 net.cpp:454] inception_5a/1x1 <- pool4/3x3_s2_pool4/3x3_s2_0_split_0
I1126 19:49:37.601946 10970 net.cpp:411] inception_5a/1x1 -> inception_5a/1x1
I1126 19:49:37.604807 10970 net.cpp:150] Setting up inception_5a/1x1
I1126 19:49:37.604821 10970 net.cpp:157] Top shape: 64 256 7 7 (802816)
I1126 19:49:37.604825 10970 net.cpp:165] Memory required for data: 3453919752
I1126 19:49:37.604831 10970 layer_factory.hpp:76] Creating layer inception_5a/relu_1x1
I1126 19:49:37.604837 10970 net.cpp:106] Creating Layer inception_5a/relu_1x1
I1126 19:49:37.604843 10970 net.cpp:454] inception_5a/relu_1x1 <- inception_5a/1x1
I1126 19:49:37.604848 10970 net.cpp:397] inception_5a/relu_1x1 -> inception_5a/1x1 (in-place)
I1126 19:49:37.605149 10970 net.cpp:150] Setting up inception_5a/relu_1x1
I1126 19:49:37.605161 10970 net.cpp:157] Top shape: 64 256 7 7 (802816)
I1126 19:49:37.605165 10970 net.cpp:165] Memory required for data: 3457131016
I1126 19:49:37.605168 10970 layer_factory.hpp:76] Creating layer inception_5a/3x3_reduce
I1126 19:49:37.605177 10970 net.cpp:106] Creating Layer inception_5a/3x3_reduce
I1126 19:49:37.605181 10970 net.cpp:454] inception_5a/3x3_reduce <- pool4/3x3_s2_pool4/3x3_s2_0_split_1
I1126 19:49:37.605188 10970 net.cpp:411] inception_5a/3x3_reduce -> inception_5a/3x3_reduce
I1126 19:49:37.607539 10970 net.cpp:150] Setting up inception_5a/3x3_reduce
I1126 19:49:37.607554 10970 net.cpp:157] Top shape: 64 160 7 7 (501760)
I1126 19:49:37.607558 10970 net.cpp:165] Memory required for data: 3459138056
I1126 19:49:37.607564 10970 layer_factory.hpp:76] Creating layer inception_5a/relu_3x3_reduce
I1126 19:49:37.607569 10970 net.cpp:106] Creating Layer inception_5a/relu_3x3_reduce
I1126 19:49:37.607573 10970 net.cpp:454] inception_5a/relu_3x3_reduce <- inception_5a/3x3_reduce
I1126 19:49:37.607579 10970 net.cpp:397] inception_5a/relu_3x3_reduce -> inception_5a/3x3_reduce (in-place)
I1126 19:49:37.607893 10970 net.cpp:150] Setting up inception_5a/relu_3x3_reduce
I1126 19:49:37.607905 10970 net.cpp:157] Top shape: 64 160 7 7 (501760)
I1126 19:49:37.607908 10970 net.cpp:165] Memory required for data: 3461145096
I1126 19:49:37.607913 10970 layer_factory.hpp:76] Creating layer inception_5a/3x3
I1126 19:49:37.607921 10970 net.cpp:106] Creating Layer inception_5a/3x3
I1126 19:49:37.607925 10970 net.cpp:454] inception_5a/3x3 <- inception_5a/3x3_reduce
I1126 19:49:37.607931 10970 net.cpp:411] inception_5a/3x3 -> inception_5a/3x3
I1126 19:49:37.612612 10970 net.cpp:150] Setting up inception_5a/3x3
I1126 19:49:37.612630 10970 net.cpp:157] Top shape: 64 320 7 7 (1003520)
I1126 19:49:37.612634 10970 net.cpp:165] Memory required for data: 3465159176
I1126 19:49:37.612642 10970 layer_factory.hpp:76] Creating layer inception_5a/relu_3x3
I1126 19:49:37.612650 10970 net.cpp:106] Creating Layer inception_5a/relu_3x3
I1126 19:49:37.612655 10970 net.cpp:454] inception_5a/relu_3x3 <- inception_5a/3x3
I1126 19:49:37.612660 10970 net.cpp:397] inception_5a/relu_3x3 -> inception_5a/3x3 (in-place)
I1126 19:49:37.612843 10970 net.cpp:150] Setting up inception_5a/relu_3x3
I1126 19:49:37.612853 10970 net.cpp:157] Top shape: 64 320 7 7 (1003520)
I1126 19:49:37.612855 10970 net.cpp:165] Memory required for data: 3469173256
I1126 19:49:37.612859 10970 layer_factory.hpp:76] Creating layer inception_5a/5x5_reduce
I1126 19:49:37.612869 10970 net.cpp:106] Creating Layer inception_5a/5x5_reduce
I1126 19:49:37.612874 10970 net.cpp:454] inception_5a/5x5_reduce <- pool4/3x3_s2_pool4/3x3_s2_0_split_2
I1126 19:49:37.612880 10970 net.cpp:411] inception_5a/5x5_reduce -> inception_5a/5x5_reduce
I1126 19:49:37.614163 10970 net.cpp:150] Setting up inception_5a/5x5_reduce
I1126 19:49:37.614176 10970 net.cpp:157] Top shape: 64 32 7 7 (100352)
I1126 19:49:37.614181 10970 net.cpp:165] Memory required for data: 3469574664
I1126 19:49:37.614187 10970 layer_factory.hpp:76] Creating layer inception_5a/relu_5x5_reduce
I1126 19:49:37.614193 10970 net.cpp:106] Creating Layer inception_5a/relu_5x5_reduce
I1126 19:49:37.614197 10970 net.cpp:454] inception_5a/relu_5x5_reduce <- inception_5a/5x5_reduce
I1126 19:49:37.614202 10970 net.cpp:397] inception_5a/relu_5x5_reduce -> inception_5a/5x5_reduce (in-place)
I1126 19:49:37.614379 10970 net.cpp:150] Setting up inception_5a/relu_5x5_reduce
I1126 19:49:37.614389 10970 net.cpp:157] Top shape: 64 32 7 7 (100352)
I1126 19:49:37.614392 10970 net.cpp:165] Memory required for data: 3469976072
I1126 19:49:37.614395 10970 layer_factory.hpp:76] Creating layer inception_5a/5x5
I1126 19:49:37.614404 10970 net.cpp:106] Creating Layer inception_5a/5x5
I1126 19:49:37.614408 10970 net.cpp:454] inception_5a/5x5 <- inception_5a/5x5_reduce
I1126 19:49:37.614415 10970 net.cpp:411] inception_5a/5x5 -> inception_5a/5x5
I1126 19:49:37.616196 10970 net.cpp:150] Setting up inception_5a/5x5
I1126 19:49:37.616212 10970 net.cpp:157] Top shape: 64 128 7 7 (401408)
I1126 19:49:37.616215 10970 net.cpp:165] Memory required for data: 3471581704
I1126 19:49:37.616222 10970 layer_factory.hpp:76] Creating layer inception_5a/relu_5x5
I1126 19:49:37.616228 10970 net.cpp:106] Creating Layer inception_5a/relu_5x5
I1126 19:49:37.616232 10970 net.cpp:454] inception_5a/relu_5x5 <- inception_5a/5x5
I1126 19:49:37.616237 10970 net.cpp:397] inception_5a/relu_5x5 -> inception_5a/5x5 (in-place)
I1126 19:49:37.616552 10970 net.cpp:150] Setting up inception_5a/relu_5x5
I1126 19:49:37.616564 10970 net.cpp:157] Top shape: 64 128 7 7 (401408)
I1126 19:49:37.616569 10970 net.cpp:165] Memory required for data: 3473187336
I1126 19:49:37.616571 10970 layer_factory.hpp:76] Creating layer inception_5a/pool
I1126 19:49:37.616578 10970 net.cpp:106] Creating Layer inception_5a/pool
I1126 19:49:37.616582 10970 net.cpp:454] inception_5a/pool <- pool4/3x3_s2_pool4/3x3_s2_0_split_3
I1126 19:49:37.616587 10970 net.cpp:411] inception_5a/pool -> inception_5a/pool
I1126 19:49:37.616808 10970 net.cpp:150] Setting up inception_5a/pool
I1126 19:49:37.616819 10970 net.cpp:157] Top shape: 64 832 7 7 (2609152)
I1126 19:49:37.616822 10970 net.cpp:165] Memory required for data: 3483623944
I1126 19:49:37.616825 10970 layer_factory.hpp:76] Creating layer inception_5a/pool_proj
I1126 19:49:37.616833 10970 net.cpp:106] Creating Layer inception_5a/pool_proj
I1126 19:49:37.616837 10970 net.cpp:454] inception_5a/pool_proj <- inception_5a/pool
I1126 19:49:37.616844 10970 net.cpp:411] inception_5a/pool_proj -> inception_5a/pool_proj
I1126 19:49:37.619066 10970 net.cpp:150] Setting up inception_5a/pool_proj
I1126 19:49:37.619081 10970 net.cpp:157] Top shape: 64 128 7 7 (401408)
I1126 19:49:37.619084 10970 net.cpp:165] Memory required for data: 3485229576
I1126 19:49:37.619091 10970 layer_factory.hpp:76] Creating layer inception_5a/relu_pool_proj
I1126 19:49:37.619098 10970 net.cpp:106] Creating Layer inception_5a/relu_pool_proj
I1126 19:49:37.619102 10970 net.cpp:454] inception_5a/relu_pool_proj <- inception_5a/pool_proj
I1126 19:49:37.619107 10970 net.cpp:397] inception_5a/relu_pool_proj -> inception_5a/pool_proj (in-place)
I1126 19:49:37.619429 10970 net.cpp:150] Setting up inception_5a/relu_pool_proj
I1126 19:49:37.619441 10970 net.cpp:157] Top shape: 64 128 7 7 (401408)
I1126 19:49:37.619446 10970 net.cpp:165] Memory required for data: 3486835208
I1126 19:49:37.619448 10970 layer_factory.hpp:76] Creating layer inception_5a/output
I1126 19:49:37.619456 10970 net.cpp:106] Creating Layer inception_5a/output
I1126 19:49:37.619460 10970 net.cpp:454] inception_5a/output <- inception_5a/1x1
I1126 19:49:37.619464 10970 net.cpp:454] inception_5a/output <- inception_5a/3x3
I1126 19:49:37.619468 10970 net.cpp:454] inception_5a/output <- inception_5a/5x5
I1126 19:49:37.619472 10970 net.cpp:454] inception_5a/output <- inception_5a/pool_proj
I1126 19:49:37.619477 10970 net.cpp:411] inception_5a/output -> inception_5a/output
I1126 19:49:37.619518 10970 net.cpp:150] Setting up inception_5a/output
I1126 19:49:37.619524 10970 net.cpp:157] Top shape: 64 832 7 7 (2609152)
I1126 19:49:37.619527 10970 net.cpp:165] Memory required for data: 3497271816
I1126 19:49:37.619530 10970 layer_factory.hpp:76] Creating layer inception_5a/output_inception_5a/output_0_split
I1126 19:49:37.619536 10970 net.cpp:106] Creating Layer inception_5a/output_inception_5a/output_0_split
I1126 19:49:37.619540 10970 net.cpp:454] inception_5a/output_inception_5a/output_0_split <- inception_5a/output
I1126 19:49:37.619546 10970 net.cpp:411] inception_5a/output_inception_5a/output_0_split -> inception_5a/output_inception_5a/output_0_split_0
I1126 19:49:37.619552 10970 net.cpp:411] inception_5a/output_inception_5a/output_0_split -> inception_5a/output_inception_5a/output_0_split_1
I1126 19:49:37.619559 10970 net.cpp:411] inception_5a/output_inception_5a/output_0_split -> inception_5a/output_inception_5a/output_0_split_2
I1126 19:49:37.619563 10970 net.cpp:411] inception_5a/output_inception_5a/output_0_split -> inception_5a/output_inception_5a/output_0_split_3
I1126 19:49:37.619638 10970 net.cpp:150] Setting up inception_5a/output_inception_5a/output_0_split
I1126 19:49:37.619645 10970 net.cpp:157] Top shape: 64 832 7 7 (2609152)
I1126 19:49:37.619650 10970 net.cpp:157] Top shape: 64 832 7 7 (2609152)
I1126 19:49:37.619654 10970 net.cpp:157] Top shape: 64 832 7 7 (2609152)
I1126 19:49:37.619657 10970 net.cpp:157] Top shape: 64 832 7 7 (2609152)
I1126 19:49:37.619660 10970 net.cpp:165] Memory required for data: 3539018248
I1126 19:49:37.619663 10970 layer_factory.hpp:76] Creating layer inception_5b/1x1
I1126 19:49:37.619670 10970 net.cpp:106] Creating Layer inception_5b/1x1
I1126 19:49:37.619673 10970 net.cpp:454] inception_5b/1x1 <- inception_5a/output_inception_5a/output_0_split_0
I1126 19:49:37.619680 10970 net.cpp:411] inception_5b/1x1 -> inception_5b/1x1
I1126 19:49:37.623206 10970 net.cpp:150] Setting up inception_5b/1x1
I1126 19:49:37.623220 10970 net.cpp:157] Top shape: 64 384 7 7 (1204224)
I1126 19:49:37.623224 10970 net.cpp:165] Memory required for data: 3543835144
I1126 19:49:37.623230 10970 layer_factory.hpp:76] Creating layer inception_5b/relu_1x1
I1126 19:49:37.623236 10970 net.cpp:106] Creating Layer inception_5b/relu_1x1
I1126 19:49:37.623240 10970 net.cpp:454] inception_5b/relu_1x1 <- inception_5b/1x1
I1126 19:49:37.623246 10970 net.cpp:397] inception_5b/relu_1x1 -> inception_5b/1x1 (in-place)
I1126 19:49:37.623558 10970 net.cpp:150] Setting up inception_5b/relu_1x1
I1126 19:49:37.623571 10970 net.cpp:157] Top shape: 64 384 7 7 (1204224)
I1126 19:49:37.623574 10970 net.cpp:165] Memory required for data: 3548652040
I1126 19:49:37.623579 10970 layer_factory.hpp:76] Creating layer inception_5b/3x3_reduce
I1126 19:49:37.623586 10970 net.cpp:106] Creating Layer inception_5b/3x3_reduce
I1126 19:49:37.623590 10970 net.cpp:454] inception_5b/3x3_reduce <- inception_5a/output_inception_5a/output_0_split_1
I1126 19:49:37.623596 10970 net.cpp:411] inception_5b/3x3_reduce -> inception_5b/3x3_reduce
I1126 19:49:37.626142 10970 net.cpp:150] Setting up inception_5b/3x3_reduce
I1126 19:49:37.626157 10970 net.cpp:157] Top shape: 64 192 7 7 (602112)
I1126 19:49:37.626160 10970 net.cpp:165] Memory required for data: 3551060488
I1126 19:49:37.626168 10970 layer_factory.hpp:76] Creating layer inception_5b/relu_3x3_reduce
I1126 19:49:37.626174 10970 net.cpp:106] Creating Layer inception_5b/relu_3x3_reduce
I1126 19:49:37.626178 10970 net.cpp:454] inception_5b/relu_3x3_reduce <- inception_5b/3x3_reduce
I1126 19:49:37.626183 10970 net.cpp:397] inception_5b/relu_3x3_reduce -> inception_5b/3x3_reduce (in-place)
I1126 19:49:37.626361 10970 net.cpp:150] Setting up inception_5b/relu_3x3_reduce
I1126 19:49:37.626371 10970 net.cpp:157] Top shape: 64 192 7 7 (602112)
I1126 19:49:37.626374 10970 net.cpp:165] Memory required for data: 3553468936
I1126 19:49:37.626379 10970 layer_factory.hpp:76] Creating layer inception_5b/3x3
I1126 19:49:37.626390 10970 net.cpp:106] Creating Layer inception_5b/3x3
I1126 19:49:37.626394 10970 net.cpp:454] inception_5b/3x3 <- inception_5b/3x3_reduce
I1126 19:49:37.626400 10970 net.cpp:411] inception_5b/3x3 -> inception_5b/3x3
I1126 19:49:37.632658 10970 net.cpp:150] Setting up inception_5b/3x3
I1126 19:49:37.632674 10970 net.cpp:157] Top shape: 64 384 7 7 (1204224)
I1126 19:49:37.632678 10970 net.cpp:165] Memory required for data: 3558285832
I1126 19:49:37.632685 10970 layer_factory.hpp:76] Creating layer inception_5b/relu_3x3
I1126 19:49:37.632691 10970 net.cpp:106] Creating Layer inception_5b/relu_3x3
I1126 19:49:37.632696 10970 net.cpp:454] inception_5b/relu_3x3 <- inception_5b/3x3
I1126 19:49:37.632702 10970 net.cpp:397] inception_5b/relu_3x3 -> inception_5b/3x3 (in-place)
I1126 19:49:37.633040 10970 net.cpp:150] Setting up inception_5b/relu_3x3
I1126 19:49:37.633054 10970 net.cpp:157] Top shape: 64 384 7 7 (1204224)
I1126 19:49:37.633057 10970 net.cpp:165] Memory required for data: 3563102728
I1126 19:49:37.633061 10970 layer_factory.hpp:76] Creating layer inception_5b/5x5_reduce
I1126 19:49:37.633072 10970 net.cpp:106] Creating Layer inception_5b/5x5_reduce
I1126 19:49:37.633077 10970 net.cpp:454] inception_5b/5x5_reduce <- inception_5a/output_inception_5a/output_0_split_2
I1126 19:49:37.633085 10970 net.cpp:411] inception_5b/5x5_reduce -> inception_5b/5x5_reduce
I1126 19:49:37.634742 10970 net.cpp:150] Setting up inception_5b/5x5_reduce
I1126 19:49:37.634757 10970 net.cpp:157] Top shape: 64 48 7 7 (150528)
I1126 19:49:37.634759 10970 net.cpp:165] Memory required for data: 3563704840
I1126 19:49:37.634765 10970 layer_factory.hpp:76] Creating layer inception_5b/relu_5x5_reduce
I1126 19:49:37.634773 10970 net.cpp:106] Creating Layer inception_5b/relu_5x5_reduce
I1126 19:49:37.634776 10970 net.cpp:454] inception_5b/relu_5x5_reduce <- inception_5b/5x5_reduce
I1126 19:49:37.634783 10970 net.cpp:397] inception_5b/relu_5x5_reduce -> inception_5b/5x5_reduce (in-place)
I1126 19:49:37.635113 10970 net.cpp:150] Setting up inception_5b/relu_5x5_reduce
I1126 19:49:37.635126 10970 net.cpp:157] Top shape: 64 48 7 7 (150528)
I1126 19:49:37.635129 10970 net.cpp:165] Memory required for data: 3564306952
I1126 19:49:37.635133 10970 layer_factory.hpp:76] Creating layer inception_5b/5x5
I1126 19:49:37.635141 10970 net.cpp:106] Creating Layer inception_5b/5x5
I1126 19:49:37.635146 10970 net.cpp:454] inception_5b/5x5 <- inception_5b/5x5_reduce
I1126 19:49:37.635155 10970 net.cpp:411] inception_5b/5x5 -> inception_5b/5x5
I1126 19:49:37.637261 10970 net.cpp:150] Setting up inception_5b/5x5
I1126 19:49:37.637275 10970 net.cpp:157] Top shape: 64 128 7 7 (401408)
I1126 19:49:37.637279 10970 net.cpp:165] Memory required for data: 3565912584
I1126 19:49:37.637284 10970 layer_factory.hpp:76] Creating layer inception_5b/relu_5x5
I1126 19:49:37.637290 10970 net.cpp:106] Creating Layer inception_5b/relu_5x5
I1126 19:49:37.637295 10970 net.cpp:454] inception_5b/relu_5x5 <- inception_5b/5x5
I1126 19:49:37.637300 10970 net.cpp:397] inception_5b/relu_5x5 -> inception_5b/5x5 (in-place)
I1126 19:49:37.637485 10970 net.cpp:150] Setting up inception_5b/relu_5x5
I1126 19:49:37.637495 10970 net.cpp:157] Top shape: 64 128 7 7 (401408)
I1126 19:49:37.637498 10970 net.cpp:165] Memory required for data: 3567518216
I1126 19:49:37.637502 10970 layer_factory.hpp:76] Creating layer inception_5b/pool
I1126 19:49:37.637508 10970 net.cpp:106] Creating Layer inception_5b/pool
I1126 19:49:37.637512 10970 net.cpp:454] inception_5b/pool <- inception_5a/output_inception_5a/output_0_split_3
I1126 19:49:37.637517 10970 net.cpp:411] inception_5b/pool -> inception_5b/pool
I1126 19:49:37.637881 10970 net.cpp:150] Setting up inception_5b/pool
I1126 19:49:37.637893 10970 net.cpp:157] Top shape: 64 832 7 7 (2609152)
I1126 19:49:37.637897 10970 net.cpp:165] Memory required for data: 3577954824
I1126 19:49:37.637899 10970 layer_factory.hpp:76] Creating layer inception_5b/pool_proj
I1126 19:49:37.637908 10970 net.cpp:106] Creating Layer inception_5b/pool_proj
I1126 19:49:37.637912 10970 net.cpp:454] inception_5b/pool_proj <- inception_5b/pool
I1126 19:49:37.637919 10970 net.cpp:411] inception_5b/pool_proj -> inception_5b/pool_proj
I1126 19:49:37.640135 10970 net.cpp:150] Setting up inception_5b/pool_proj
I1126 19:49:37.640149 10970 net.cpp:157] Top shape: 64 128 7 7 (401408)
I1126 19:49:37.640153 10970 net.cpp:165] Memory required for data: 3579560456
I1126 19:49:37.640159 10970 layer_factory.hpp:76] Creating layer inception_5b/relu_pool_proj
I1126 19:49:37.640166 10970 net.cpp:106] Creating Layer inception_5b/relu_pool_proj
I1126 19:49:37.640169 10970 net.cpp:454] inception_5b/relu_pool_proj <- inception_5b/pool_proj
I1126 19:49:37.640174 10970 net.cpp:397] inception_5b/relu_pool_proj -> inception_5b/pool_proj (in-place)
I1126 19:49:37.640353 10970 net.cpp:150] Setting up inception_5b/relu_pool_proj
I1126 19:49:37.640363 10970 net.cpp:157] Top shape: 64 128 7 7 (401408)
I1126 19:49:37.640367 10970 net.cpp:165] Memory required for data: 3581166088
I1126 19:49:37.640369 10970 layer_factory.hpp:76] Creating layer inception_5b/output
I1126 19:49:37.640375 10970 net.cpp:106] Creating Layer inception_5b/output
I1126 19:49:37.640379 10970 net.cpp:454] inception_5b/output <- inception_5b/1x1
I1126 19:49:37.640383 10970 net.cpp:454] inception_5b/output <- inception_5b/3x3
I1126 19:49:37.640388 10970 net.cpp:454] inception_5b/output <- inception_5b/5x5
I1126 19:49:37.640393 10970 net.cpp:454] inception_5b/output <- inception_5b/pool_proj
I1126 19:49:37.640398 10970 net.cpp:411] inception_5b/output -> inception_5b/output
I1126 19:49:37.640434 10970 net.cpp:150] Setting up inception_5b/output
I1126 19:49:37.640440 10970 net.cpp:157] Top shape: 64 1024 7 7 (3211264)
I1126 19:49:37.640444 10970 net.cpp:165] Memory required for data: 3594011144
I1126 19:49:37.640446 10970 layer_factory.hpp:76] Creating layer pool5/7x7_s1
I1126 19:49:37.640455 10970 net.cpp:106] Creating Layer pool5/7x7_s1
I1126 19:49:37.640457 10970 net.cpp:454] pool5/7x7_s1 <- inception_5b/output
I1126 19:49:37.640465 10970 net.cpp:411] pool5/7x7_s1 -> pool5/7x7_s1
I1126 19:49:37.640807 10970 net.cpp:150] Setting up pool5/7x7_s1
I1126 19:49:37.640820 10970 net.cpp:157] Top shape: 64 1024 1 1 (65536)
I1126 19:49:37.640822 10970 net.cpp:165] Memory required for data: 3594273288
I1126 19:49:37.640826 10970 layer_factory.hpp:76] Creating layer pool5/drop_7x7_s1
I1126 19:49:37.640832 10970 net.cpp:106] Creating Layer pool5/drop_7x7_s1
I1126 19:49:37.640836 10970 net.cpp:454] pool5/drop_7x7_s1 <- pool5/7x7_s1
I1126 19:49:37.640842 10970 net.cpp:397] pool5/drop_7x7_s1 -> pool5/7x7_s1 (in-place)
I1126 19:49:37.640875 10970 net.cpp:150] Setting up pool5/drop_7x7_s1
I1126 19:49:37.640884 10970 net.cpp:157] Top shape: 64 1024 1 1 (65536)
I1126 19:49:37.640887 10970 net.cpp:165] Memory required for data: 3594535432
I1126 19:49:37.640890 10970 layer_factory.hpp:76] Creating layer loss3/classifier-attribute
I1126 19:49:37.640897 10970 net.cpp:106] Creating Layer loss3/classifier-attribute
I1126 19:49:37.640900 10970 net.cpp:454] loss3/classifier-attribute <- pool5/7x7_s1
I1126 19:49:37.640908 10970 net.cpp:411] loss3/classifier-attribute -> loss3/classifier-attribute
I1126 19:49:37.717728 10970 net.cpp:150] Setting up loss3/classifier-attribute
I1126 19:49:37.717749 10970 net.cpp:157] Top shape: 64 9999 (639936)
I1126 19:49:37.717753 10970 net.cpp:165] Memory required for data: 3597095176
I1126 19:49:37.717762 10970 layer_factory.hpp:76] Creating layer loss3/loss3
I1126 19:49:37.717772 10970 net.cpp:106] Creating Layer loss3/loss3
I1126 19:49:37.717777 10970 net.cpp:454] loss3/loss3 <- loss3/classifier-attribute
I1126 19:49:37.717783 10970 net.cpp:454] loss3/loss3 <- label_data_1_split_2
I1126 19:49:37.717789 10970 net.cpp:411] loss3/loss3 -> loss3/loss3
…
I1126 19:49:37.726495 10970 net.cpp:322] The NetState phase (1) differed from the phase (0) specified by a rule in layer data
I1126 19:49:37.728106 10970 net.cpp:49] Initializing net from parameters: 
name: "GoogleNet-finetune-for-cigit"
state {
  phase: TEST
}
layer {
  name: "data"
  type: "ImageData"
  top: "data"
  top: "label"
  include {
    phase: TEST
  }
  transform_param {
    mirror: false
    crop_size: 224
    mean_value: 104
    mean_value: 117
    mean_value: 123
  }
  image_data_param {
    source: "pad_test.txt"
    batch_size: 64
    new_height: 256
    new_width: 256
  }
}
layer {
  name: "conv1/7x7_s2"
  type: "Convolution"
  bottom: "data"
  top: "conv1/7x7_s2"
  param {
    lr_mult: 1
    decay_mult: 1
  }
  param {
    lr_mult: 2
    decay_mult: 0
  }
  convolution_param {
    num_output: 64
    pad: 3
    kernel_size: 7
    stride: 2
    weight_filler {
      type: "xavier"
    }
    bias_filler {
      type: "constant"
      value: 0.2
    }
  }
}
layer {
  name: "conv1/relu_7x7"
  type: "ReLU"
  bottom: "conv1/7x7_s2"
  top: "conv1/7x7_s2"
}
layer {
  name: "pool1/3x3_s2"
  type: "Pooling"
  bottom: "conv1/7x7_s2"
  top: "pool1/3x3_s2"
  pooling_param {
    pool: MAX
    kernel_size: 3
    stride: 2
  }
}
layer {
  name: "pool1/norm1"
  type: "LRN"
  bottom: "pool1/3x3_s2"
  top: "pool1/norm1"
  lrn_param {
    local_size: 5
    alpha: 0.0001
    beta: 0.75
  }
}
layer {
  name: "conv2/3x3_reduce"
  type: "Convolution"
  bottom: "pool1/norm1"
  top: "conv2/3x3_reduce"
  param {
    lr_mult: 1
    decay_mult: 1
  }
  param {
    lr_mult: 2
    decay_mult: 0
  }
  convolution_param {
    num_output: 64
    kernel_size: 1
    weight_filler {
      type: "xavier"
    }
    bias_filler {
      type: "constant"
      value: 0.2
    }
  }
}
layer {
  name: "conv2/relu_3x3_reduce"
  type: "ReLU"
  bottom: "conv2/3x3_reduce"
  top: "conv2/3x3_reduce"
}
layer {
  name: "conv2/3x3"
  type: "Convolution"
  bottom: "conv2/3x3_reduce"
  top: "conv2/3x3"
  param {
    lr_mult: 1
    decay_mult: 1
  }
  param {
    lr_mult: 2
    decay_mult: 0
  }
  convolution_param {
    num_output: 192
    pad: 1
    kernel_size: 3
    weight_filler {
      type: "xavier"
    }
    bias_filler {
      type: "constant"
      value: 0.2
    }
  }
}
layer {
  name: "conv2/relu_3x3"
  type: "ReLU"
  bottom: "conv2/3x3"
  top: "conv2/3x3"
}
layer {
  name: "conv2/norm2"
  type: "LRN"
  bottom: "conv2/3x3"
  top: "conv2/norm2"
  lrn_param {
    local_size: 5
    alpha: 0.0001
    beta: 0.75
  }
}
layer {
  name: "pool2/3x3_s2"
  type: "Pooling"
  bottom: "conv2/norm2"
  top: "pool2/3x3_s2"
  pooling_param {
    pool: MAX
    kernel_size: 3
    stride: 2
  }
}
layer {
  name: "inception_3a/1x1"
  type: "Convolution"
  bottom: "pool2/3x3_s2"
  top: "inception_3a/1x1"
  param {
    lr_mult: 1
    decay_mult: 1
  }
  param {
    lr_mult: 2
    decay_mult: 0
  }
  convolution_param {
    num_output: 64
    kernel_size: 1
    weight_filler {
      type: "xavier"
    }
    bias_filler {
      type: "constant"
      value: 0.2
    }
  }
}
layer {
  name: "inception_3a/relu_1x1"
  type: "ReLU"
  bottom: "inception_3a/1x1"
  top: "inception_3a/1x1"
}
layer {
  name: "inception_3a/3x3_reduce"
  type: "Convolution"
  bottom: "pool2/3x3_s2"
  top: "inception_3a/3x3_reduce"
  param {
    lr_mult: 1
    decay_mult: 1
  }
  param {
    lr_mult: 2
    decay_mult: 0
  }
  convolution_param {
    num_output: 96
    kernel_size: 1
    weight_filler {
      type: "xavier"
    }
    bias_filler {
      type: "constant"
      value: 0.2
    }
  }
}
layer {
  name: "inception_3a/relu_3x3_reduce"
  type: "ReLU"
  bottom: "inception_3a/3x3_reduce"
  top: "inception_3a/3x3_reduce"
}
layer {
  name: "inception_3a/3x3"
  type: "Convolution"
  bottom: "inception_3a/3x3_reduce"
  top: "inception_3a/3x3"
  param {
    lr_mult: 1
    decay_mult: 1
  }
  param {
    lr_mult: 2
    decay_mult: 0
  }
  convolution_param {
    num_output: 128
    pad: 1
    kernel_size: 3
    weight_filler {
      type: "xavier"
    }
    bias_filler {
      type: "constant"
      value: 0.2
    }
  }
}
layer {
  name: "inception_3a/relu_3x3"
  type: "ReLU"
  bottom: "inception_3a/3x3"
  top: "inception_3a/3x3"
}
layer {
  name: "inception_3a/5x5_reduce"
  type: "Convolution"
  bottom: "pool2/3x3_s2"
  top: "inception_3a/5x5_reduce"
  param {
    lr_mult: 1
    decay_mult: 1
  }
  param {
    lr_mult: 2
    decay_mult: 0
  }
  convolution_param {
    num_output: 16
    kernel_size: 1
    weight_filler {
      type: "xavier"
    }
    bias_filler {
      type: "constant"
      value: 0.2
    }
  }
}
layer {
  name: "inception_3a/relu_5x5_reduce"
  type: "ReLU"
  bottom: "inception_3a/5x5_reduce"
  top: "inception_3a/5x5_reduce"
}
layer {
  name: "inception_3a/5x5"
  type: "Convolution"
  bottom: "inception_3a/5x5_reduce"
  top: "inception_3a/5x5"
  param {
    lr_mult: 1
    decay_mult: 1
  }
  param {
    lr_mult: 2
    decay_mult: 0
  }
  convolution_param {
    num_output: 32
    pad: 2
    kernel_size: 5
    weight_filler {
      type: "xavier"
    }
    bias_filler {
      type: "constant"
      value: 0.2
    }
  }
}
layer {
  name: "inception_3a/relu_5x5"
  type: "ReLU"
  bottom: "inception_3a/5x5"
  top: "inception_3a/5x5"
}
layer {
  name: "inception_3a/pool"
  type: "Pooling"
  bottom: "pool2/3x3_s2"
  top: "inception_3a/pool"
  pooling_param {
    pool: MAX
    kernel_size: 3
    stride: 1
    pad: 1
  }
}
layer {
  name: "inception_3a/pool_proj"
  type: "Convolution"
  bottom: "inception_3a/pool"
  top: "inception_3a/pool_proj"
  param {
    lr_mult: 1
    decay_mult: 1
  }
  param {
    lr_mult: 2
    decay_mult: 0
  }
  convolution_param {
    num_output: 32
    kernel_size: 1
    weight_filler {
      type: "xavier"
    }
    bias_filler {
      type: "constant"
      value: 0.2
    }
  }
}
layer {
  name: "inception_3a/relu_pool_proj"
  type: "ReLU"
  bottom: "inception_3a/pool_proj"
  top: "inception_3a/pool_proj"
}
layer {
  name: "inception_3a/output"
  type: "Concat"
  bottom: "inception_3a/1x1"
  bottom: "inception_3a/3x3"
  bottom: "inception_3a/5x5"
  bottom: "inception_3a/pool_proj"
  top: "inception_3a/output"
}
layer {
  name: "inception_3b/1x1"
  type: "Convolution"
  bottom: "inception_3a/output"
  top: "inception_3b/1x1"
  param {
    lr_mult: 1
    decay_mult: 1
  }
  param {
    lr_mult: 2
    decay_mult: 0
  }
  convolution_param {
    num_output: 128
    kernel_size: 1
    weight_filler {
      type: "xavier"
    }
    bias_filler {
      type: "constant"
      value: 0.2
    }
  }
}
layer {
  name: "inception_3b/relu_1x1"
  type: "ReLU"
  bottom: "inception_3b/1x1"
  top: "inception_3b/1x1"
}
layer {
  name: "inception_3b/3x3_reduce"
  type: "Convolution"
  bottom: "inception_3a/output"
  top: "inception_3b/3x3_reduce"
  param {
    lr_mult: 1
    decay_mult: 1
  }
  param {
    lr_mult: 2
    decay_mult: 0
  }
  convolution_param {
    num_output: 128
    kernel_size: 1
    weight_filler {
      type: "xavier"
    }
    bias_filler {
      type: "constant"
      value: 0.2
    }
  }
}
layer {
  name: "inception_3b/relu_3x3_reduce"
  type: "ReLU"
  bottom: "inception_3b/3x3_reduce"
  top: "inception_3b/3x3_reduce"
}
layer {
  name: "inception_3b/3x3"
  type: "Convolution"
  bottom: "inception_3b/3x3_reduce"
  top: "inception_3b/3x3"
  param {
    lr_mult: 1
    decay_mult: 1
  }
  param {
    lr_mult: 2
    decay_mult: 0
  }
  convolution_param {
    num_output: 192
    pad: 1
    kernel_size: 3
    weight_filler {
      type: "xavier"
    }
    bias_filler {
      type: "constant"
      value: 0.2
    }
  }
}
layer {
  name: "inception_3b/relu_3x3"
  type: "ReLU"
  bottom: "inception_3b/3x3"
  top: "inception_3b/3x3"
}
layer {
  name: "inception_3b/5x5_reduce"
  type: "Convolution"
  bottom: "inception_3a/output"
  top: "inception_3b/5x5_reduce"
  param {
    lr_mult: 1
    decay_mult: 1
  }
  param {
    lr_mult: 2
    decay_mult: 0
  }
  convolution_param {
    num_output: 32
    kernel_size: 1
    weight_filler {
      type: "xavier"
    }
    bias_filler {
      type: "constant"
      value: 0.2
    }
  }
}
layer {
  name: "inception_3b/relu_5x5_reduce"
  type: "ReLU"
  bottom: "inception_3b/5x5_reduce"
  top: "inception_3b/5x5_reduce"
}
layer {
  name: "inception_3b/5x5"
  type: "Convolution"
  bottom: "inception_3b/5x5_reduce"
  top: "inception_3b/5x5"
  param {
    lr_mult: 1
    decay_mult: 1
  }
  param {
    lr_mult: 2
    decay_mult: 0
  }
  convolution_param {
    num_output: 96
    pad: 2
    kernel_size: 5
    weight_filler {
      type: "xavier"
    }
    bias_filler {
      type: "constant"
      value: 0.2
    }
  }
}
layer {
  name: "inception_3b/relu_5x5"
  type: "ReLU"
  bottom: "inception_3b/5x5"
  top: "inception_3b/5x5"
}
layer {
  name: "inception_3b/pool"
  type: "Pooling"
  bottom: "inception_3a/output"
  top: "inception_3b/pool"
  pooling_param {
    pool: MAX
    kernel_size: 3
    stride: 1
    pad: 1
  }
}
layer {
  name: "inception_3b/pool_proj"
  type: "Convolution"
  bottom: "inception_3b/pool"
  top: "inception_3b/pool_proj"
  param {
    lr_mult: 1
    decay_mult: 1
  }
  param {
    lr_mult: 2
    decay_mult: 0
  }
  convolution_param {
    num_output: 64
    kernel_size: 1
    weight_filler {
      type: "xavier"
    }
    bias_filler {
      type: "constant"
      value: 0.2
    }
  }
}
layer {
  name: "inception_3b/relu_pool_proj"
  type: "ReLU"
  bottom: "inception_3b/pool_proj"
  top: "inception_3b/pool_proj"
}
layer {
  name: "inception_3b/output"
  type: "Concat"
  bottom: "inception_3b/1x1"
  bottom: "inception_3b/3x3"
  bottom: "inception_3b/5x5"
  bottom: "inception_3b/pool_proj"
  top: "inception_3b/output"
}
layer {
  name: "pool3/3x3_s2"
  type: "Pooling"
  bottom: "inception_3b/output"
  top: "pool3/3x3_s2"
  pooling_param {
    pool: MAX
    kernel_size: 3
    stride: 2
  }
}
layer {
  name: "inception_4a/1x1"
  type: "Convolution"
  bottom: "pool3/3x3_s2"
  top: "inception_4a/1x1"
  param {
    lr_mult: 1
    decay_mult: 1
  }
  param {
    lr_mult: 2
    decay_mult: 0
  }
  convolution_param {
    num_output: 192
    kernel_size: 1
    weight_filler {
      type: "xavier"
    }
    bias_filler {
      type: "constant"
      value: 0.2
    }
  }
}
layer {
  name: "inception_4a/relu_1x1"
  type: "ReLU"
  bottom: "inception_4a/1x1"
  top: "inception_4a/1x1"
}
layer {
  name: "inception_4a/3x3_reduce"
  type: "Convolution"
  bottom: "pool3/3x3_s2"
  top: "inception_4a/3x3_reduce"
  param {
    lr_mult: 1
    decay_mult: 1
  }
  param {
    lr_mult: 2
    decay_mult: 0
  }
  convolution_param {
    num_output: 96
    kernel_size: 1
    weight_filler {
      type: "xavier"
    }
    bias_filler {
      type: "constant"
      value: 0.2
    }
  }
}
layer {
  name: "inception_4a/relu_3x3_reduce"
  type: "ReLU"
  bottom: "inception_4a/3x3_reduce"
  top: "inception_4a/3x3_reduce"
}
layer {
  name: "inception_4a/3x3"
  type: "Convolution"
  bottom: "inception_4a/3x3_reduce"
  top: "inception_4a/3x3"
  param {
    lr_mult: 1
    decay_mult: 1
  }
  param {
    lr_mult: 2
    decay_mult: 0
  }
  convolution_param {
    num_output: 208
    pad: 1
    kernel_size: 3
    weight_filler {
      type: "xavier"
    }
    bias_filler {
      type: "constant"
      value: 0.2
    }
  }
}
layer {
  name: "inception_4a/relu_3x3"
  type: "ReLU"
  bottom: "inception_4a/3x3"
  top: "inception_4a/3x3"
}
layer {
  name: "inception_4a/5x5_reduce"
  type: "Convolution"
  bottom: "pool3/3x3_s2"
  top: "inception_4a/5x5_reduce"
  param {
    lr_mult: 1
    decay_mult: 1
  }
  param {
    lr_mult: 2
    decay_mult: 0
  }
  convolution_param {
    num_output: 16
    kernel_size: 1
    weight_filler {
      type: "xavier"
    }
    bias_filler {
      type: "constant"
      value: 0.2
    }
  }
}
layer {
  name: "inception_4a/relu_5x5_reduce"
  type: "ReLU"
  bottom: "inception_4a/5x5_reduce"
  top: "inception_4a/5x5_reduce"
}
layer {
  name: "inception_4a/5x5"
  type: "Convolution"
  bottom: "inception_4a/5x5_reduce"
  top: "inception_4a/5x5"
  param {
    lr_mult: 1
    decay_mult: 1
  }
  param {
    lr_mult: 2
    decay_mult: 0
  }
  convolution_param {
    num_output: 48
    pad: 2
    kernel_size: 5
    weight_filler {
      type: "xavier"
    }
    bias_filler {
      type: "constant"
      value: 0.2
    }
  }
}
layer {
  name: "inception_4a/relu_5x5"
  type: "ReLU"
  bottom: "inception_4a/5x5"
  top: "inception_4a/5x5"
}
layer {
  name: "inception_4a/pool"
  type: "Pooling"
  bottom: "pool3/3x3_s2"
  top: "inception_4a/pool"
  pooling_param {
    pool: MAX
    kernel_size: 3
    stride: 1
    pad: 1
  }
}
layer {
  name: "inception_4a/pool_proj"
  type: "Convolution"
  bottom: "inception_4a/pool"
  top: "inception_4a/pool_proj"
  param {
    lr_mult: 1
    decay_mult: 1
  }
  param {
    lr_mult: 2
    decay_mult: 0
  }
  convolution_param {
    num_output: 64
    kernel_size: 1
    weight_filler {
      type: "xavier"
    }
    bias_filler {
      type: "constant"
      value: 0.2
    }
  }
}
layer {
  name: "inception_4a/relu_pool_proj"
  type: "ReLU"
  bottom: "inception_4a/pool_proj"
  top: "inception_4a/pool_proj"
}
layer {
  name: "inception_4a/output"
  type: "Concat"
  bottom: "inception_4a/1x1"
  bottom: "inception_4a/3x3"
  bottom: "inception_4a/5x5"
  bottom: "inception_4a/pool_proj"
  top: "inception_4a/output"
}
layer {
  name: "loss1/ave_pool"
  type: "Pooling"
  bottom: "inception_4a/output"
  top: "loss1/ave_pool"
  pooling_param {
    pool: AVE
    kernel_size: 5
    stride: 3
  }
}
layer {
  name: "loss1/conv"
  type: "Convolution"
  bottom: "loss1/ave_pool"
  top: "loss1/conv"
  param {
    lr_mult: 1
    decay_mult: 1
  }
  param {
    lr_mult: 2
    decay_mult: 0
  }
  convolution_param {
    num_output: 128
    kernel_size: 1
    weight_filler {
      type: "xavier"
    }
    bias_filler {
      type: "constant"
      value: 0.2
    }
  }
}
layer {
  name: "loss1/relu_conv"
  type: "ReLU"
  bottom: "loss1/conv"
  top: "loss1/conv"
}
layer {
  name: "loss1/fc"
  type: "InnerProduct"
  bottom: "loss1/conv"
  top: "loss1/fc"
  param {
    lr_mult: 1
    decay_mult: 1
  }
  param {
    lr_mult: 2
    decay_mult: 0
  }
…
I1126 19:49:38.011387 10970 net.cpp:106] Creating Layer inception_4c/pool
I1126 19:49:38.011399 10970 net.cpp:454] inception_4c/pool <- inception_4b/output_inception_4b/output_0_split_3
I1126 19:49:38.011404 10970 net.cpp:411] inception_4c/pool -> inception_4c/pool
I1126 19:49:38.011683 10970 net.cpp:150] Setting up inception_4c/pool
I1126 19:49:38.011695 10970 net.cpp:157] Top shape: 64 512 14 14 (6422528)
I1126 19:49:38.011698 10970 net.cpp:165] Memory required for data: 2835919880
I1126 19:49:38.011703 10970 layer_factory.hpp:76] Creating layer inception_4c/pool_proj
I1126 19:49:38.011713 10970 net.cpp:106] Creating Layer inception_4c/pool_proj
I1126 19:49:38.011718 10970 net.cpp:454] inception_4c/pool_proj <- inception_4c/pool
I1126 19:49:38.011724 10970 net.cpp:411] inception_4c/pool_proj -> inception_4c/pool_proj
I1126 19:49:38.013392 10970 net.cpp:150] Setting up inception_4c/pool_proj
I1126 19:49:38.013408 10970 net.cpp:157] Top shape: 64 64 14 14 (802816)
I1126 19:49:38.013412 10970 net.cpp:165] Memory required for data: 2839131144
I1126 19:49:38.013419 10970 layer_factory.hpp:76] Creating layer inception_4c/relu_pool_proj
I1126 19:49:38.013425 10970 net.cpp:106] Creating Layer inception_4c/relu_pool_proj
I1126 19:49:38.013430 10970 net.cpp:454] inception_4c/relu_pool_proj <- inception_4c/pool_proj
I1126 19:49:38.013437 10970 net.cpp:397] inception_4c/relu_pool_proj -> inception_4c/pool_proj (in-place)
I1126 19:49:38.013818 10970 net.cpp:150] Setting up inception_4c/relu_pool_proj
I1126 19:49:38.013833 10970 net.cpp:157] Top shape: 64 64 14 14 (802816)
I1126 19:49:38.013835 10970 net.cpp:165] Memory required for data: 2842342408
I1126 19:49:38.013839 10970 layer_factory.hpp:76] Creating layer inception_4c/output
I1126 19:49:38.013846 10970 net.cpp:106] Creating Layer inception_4c/output
I1126 19:49:38.013852 10970 net.cpp:454] inception_4c/output <- inception_4c/1x1
I1126 19:49:38.013857 10970 net.cpp:454] inception_4c/output <- inception_4c/3x3
I1126 19:49:38.013864 10970 net.cpp:454] inception_4c/output <- inception_4c/5x5
I1126 19:49:38.013869 10970 net.cpp:454] inception_4c/output <- inception_4c/pool_proj
I1126 19:49:38.013875 10970 net.cpp:411] inception_4c/output -> inception_4c/output
I1126 19:49:38.013949 10970 net.cpp:150] Setting up inception_4c/output
I1126 19:49:38.013959 10970 net.cpp:157] Top shape: 64 512 14 14 (6422528)
I1126 19:49:38.013962 10970 net.cpp:165] Memory required for data: 2868032520
I1126 19:49:38.013967 10970 layer_factory.hpp:76] Creating layer inception_4c/output_inception_4c/output_0_split
I1126 19:49:38.013975 10970 net.cpp:106] Creating Layer inception_4c/output_inception_4c/output_0_split
I1126 19:49:38.013980 10970 net.cpp:454] inception_4c/output_inception_4c/output_0_split <- inception_4c/output
I1126 19:49:38.013986 10970 net.cpp:411] inception_4c/output_inception_4c/output_0_split -> inception_4c/output_inception_4c/output_0_split_0
I1126 19:49:38.013995 10970 net.cpp:411] inception_4c/output_inception_4c/output_0_split -> inception_4c/output_inception_4c/output_0_split_1
I1126 19:49:38.014003 10970 net.cpp:411] inception_4c/output_inception_4c/output_0_split -> inception_4c/output_inception_4c/output_0_split_2
I1126 19:49:38.014009 10970 net.cpp:411] inception_4c/output_inception_4c/output_0_split -> inception_4c/output_inception_4c/output_0_split_3
I1126 19:49:38.014138 10970 net.cpp:150] Setting up inception_4c/output_inception_4c/output_0_split
I1126 19:49:38.014147 10970 net.cpp:157] Top shape: 64 512 14 14 (6422528)
I1126 19:49:38.014152 10970 net.cpp:157] Top shape: 64 512 14 14 (6422528)
I1126 19:49:38.014154 10970 net.cpp:157] Top shape: 64 512 14 14 (6422528)
I1126 19:49:38.014158 10970 net.cpp:157] Top shape: 64 512 14 14 (6422528)
I1126 19:49:38.014163 10970 net.cpp:165] Memory required for data: 2970792968
I1126 19:49:38.014168 10970 layer_factory.hpp:76] Creating layer inception_4d/1x1
I1126 19:49:38.014176 10970 net.cpp:106] Creating Layer inception_4d/1x1
I1126 19:49:38.014180 10970 net.cpp:454] inception_4d/1x1 <- inception_4c/output_inception_4c/output_0_split_0
I1126 19:49:38.014188 10970 net.cpp:411] inception_4d/1x1 -> inception_4d/1x1
I1126 19:49:38.015911 10970 net.cpp:150] Setting up inception_4d/1x1
I1126 19:49:38.015928 10970 net.cpp:157] Top shape: 64 112 14 14 (1404928)
I1126 19:49:38.015931 10970 net.cpp:165] Memory required for data: 2976412680
I1126 19:49:38.015938 10970 layer_factory.hpp:76] Creating layer inception_4d/relu_1x1
I1126 19:49:38.015945 10970 net.cpp:106] Creating Layer inception_4d/relu_1x1
I1126 19:49:38.015950 10970 net.cpp:454] inception_4d/relu_1x1 <- inception_4d/1x1
I1126 19:49:38.015959 10970 net.cpp:397] inception_4d/relu_1x1 -> inception_4d/1x1 (in-place)
I1126 19:49:38.016332 10970 net.cpp:150] Setting up inception_4d/relu_1x1
I1126 19:49:38.016348 10970 net.cpp:157] Top shape: 64 112 14 14 (1404928)
I1126 19:49:38.016356 10970 net.cpp:165] Memory required for data: 2982032392
I1126 19:49:38.016365 10970 layer_factory.hpp:76] Creating layer inception_4d/3x3_reduce
I1126 19:49:38.016376 10970 net.cpp:106] Creating Layer inception_4d/3x3_reduce
I1126 19:49:38.016382 10970 net.cpp:454] inception_4d/3x3_reduce <- inception_4c/output_inception_4c/output_0_split_1
I1126 19:49:38.016391 10970 net.cpp:411] inception_4d/3x3_reduce -> inception_4d/3x3_reduce
I1126 19:49:38.018383 10970 net.cpp:150] Setting up inception_4d/3x3_reduce
I1126 19:49:38.018401 10970 net.cpp:157] Top shape: 64 144 14 14 (1806336)
I1126 19:49:38.018407 10970 net.cpp:165] Memory required for data: 2989257736
I1126 19:49:38.018419 10970 layer_factory.hpp:76] Creating layer inception_4d/relu_3x3_reduce
I1126 19:49:38.018431 10970 net.cpp:106] Creating Layer inception_4d/relu_3x3_reduce
I1126 19:49:38.018448 10970 net.cpp:454] inception_4d/relu_3x3_reduce <- inception_4d/3x3_reduce
I1126 19:49:38.018465 10970 net.cpp:397] inception_4d/relu_3x3_reduce -> inception_4d/3x3_reduce (in-place)
I1126 19:49:38.018700 10970 net.cpp:150] Setting up inception_4d/relu_3x3_reduce
I1126 19:49:38.018714 10970 net.cpp:157] Top shape: 64 144 14 14 (1806336)
I1126 19:49:38.018721 10970 net.cpp:165] Memory required for data: 2996483080
I1126 19:49:38.018728 10970 layer_factory.hpp:76] Creating layer inception_4d/3x3
I1126 19:49:38.018744 10970 net.cpp:106] Creating Layer inception_4d/3x3
I1126 19:49:38.018754 10970 net.cpp:454] inception_4d/3x3 <- inception_4d/3x3_reduce
I1126 19:49:38.018765 10970 net.cpp:411] inception_4d/3x3 -> inception_4d/3x3
I1126 19:49:38.023046 10970 net.cpp:150] Setting up inception_4d/3x3
I1126 19:49:38.023063 10970 net.cpp:157] Top shape: 64 288 14 14 (3612672)
I1126 19:49:38.023069 10970 net.cpp:165] Memory required for data: 3010933768
I1126 19:49:38.023080 10970 layer_factory.hpp:76] Creating layer inception_4d/relu_3x3
I1126 19:49:38.023098 10970 net.cpp:106] Creating Layer inception_4d/relu_3x3
I1126 19:49:38.023108 10970 net.cpp:454] inception_4d/relu_3x3 <- inception_4d/3x3
I1126 19:49:38.023116 10970 net.cpp:397] inception_4d/relu_3x3 -> inception_4d/3x3 (in-place)
I1126 19:49:38.023466 10970 net.cpp:150] Setting up inception_4d/relu_3x3
I1126 19:49:38.023481 10970 net.cpp:157] Top shape: 64 288 14 14 (3612672)
I1126 19:49:38.023488 10970 net.cpp:165] Memory required for data: 3025384456
I1126 19:49:38.023494 10970 layer_factory.hpp:76] Creating layer inception_4d/5x5_reduce
I1126 19:49:38.023507 10970 net.cpp:106] Creating Layer inception_4d/5x5_reduce
I1126 19:49:38.023516 10970 net.cpp:454] inception_4d/5x5_reduce <- inception_4c/output_inception_4c/output_0_split_2
I1126 19:49:38.023531 10970 net.cpp:411] inception_4d/5x5_reduce -> inception_4d/5x5_reduce
I1126 19:49:38.024935 10970 net.cpp:150] Setting up inception_4d/5x5_reduce
I1126 19:49:38.024950 10970 net.cpp:157] Top shape: 64 32 14 14 (401408)
I1126 19:49:38.024956 10970 net.cpp:165] Memory required for data: 3026990088
I1126 19:49:38.024967 10970 layer_factory.hpp:76] Creating layer inception_4d/relu_5x5_reduce
I1126 19:49:38.024976 10970 net.cpp:106] Creating Layer inception_4d/relu_5x5_reduce
I1126 19:49:38.024987 10970 net.cpp:454] inception_4d/relu_5x5_reduce <- inception_4d/5x5_reduce
I1126 19:49:38.024996 10970 net.cpp:397] inception_4d/relu_5x5_reduce -> inception_4d/5x5_reduce (in-place)
I1126 19:49:38.025360 10970 net.cpp:150] Setting up inception_4d/relu_5x5_reduce
I1126 19:49:38.025375 10970 net.cpp:157] Top shape: 64 32 14 14 (401408)
I1126 19:49:38.025382 10970 net.cpp:165] Memory required for data: 3028595720
I1126 19:49:38.025388 10970 layer_factory.hpp:76] Creating layer inception_4d/5x5
I1126 19:49:38.025400 10970 net.cpp:106] Creating Layer inception_4d/5x5
I1126 19:49:38.025409 10970 net.cpp:454] inception_4d/5x5 <- inception_4d/5x5_reduce
I1126 19:49:38.025423 10970 net.cpp:411] inception_4d/5x5 -> inception_4d/5x5
I1126 19:49:38.027092 10970 net.cpp:150] Setting up inception_4d/5x5
I1126 19:49:38.027109 10970 net.cpp:157] Top shape: 64 64 14 14 (802816)
I1126 19:49:38.027115 10970 net.cpp:165] Memory required for data: 3031806984
I1126 19:49:38.027127 10970 layer_factory.hpp:76] Creating layer inception_4d/relu_5x5
I1126 19:49:38.027138 10970 net.cpp:106] Creating Layer inception_4d/relu_5x5
I1126 19:49:38.027148 10970 net.cpp:454] inception_4d/relu_5x5 <- inception_4d/5x5
I1126 19:49:38.027156 10970 net.cpp:397] inception_4d/relu_5x5 -> inception_4d/5x5 (in-place)
I1126 19:49:38.027369 10970 net.cpp:150] Setting up inception_4d/relu_5x5
I1126 19:49:38.027384 10970 net.cpp:157] Top shape: 64 64 14 14 (802816)
I1126 19:49:38.027389 10970 net.cpp:165] Memory required for data: 3035018248
I1126 19:49:38.027395 10970 layer_factory.hpp:76] Creating layer inception_4d/pool
I1126 19:49:38.027405 10970 net.cpp:106] Creating Layer inception_4d/pool
I1126 19:49:38.027415 10970 net.cpp:454] inception_4d/pool <- inception_4c/output_inception_4c/output_0_split_3
I1126 19:49:38.027427 10970 net.cpp:411] inception_4d/pool -> inception_4d/pool
I1126 19:49:38.027851 10970 net.cpp:150] Setting up inception_4d/pool
I1126 19:49:38.027866 10970 net.cpp:157] Top shape: 64 512 14 14 (6422528)
I1126 19:49:38.027873 10970 net.cpp:165] Memory required for data: 3060708360
I1126 19:49:38.027878 10970 layer_factory.hpp:76] Creating layer inception_4d/pool_proj
I1126 19:49:38.027895 10970 net.cpp:106] Creating Layer inception_4d/pool_proj
I1126 19:49:38.027904 10970 net.cpp:454] inception_4d/pool_proj <- inception_4d/pool
I1126 19:49:38.027916 10970 net.cpp:411] inception_4d/pool_proj -> inception_4d/pool_proj
I1126 19:49:38.029501 10970 net.cpp:150] Setting up inception_4d/pool_proj
I1126 19:49:38.029517 10970 net.cpp:157] Top shape: 64 64 14 14 (802816)
I1126 19:49:38.029525 10970 net.cpp:165] Memory required for data: 3063919624
I1126 19:49:38.029534 10970 layer_factory.hpp:76] Creating layer inception_4d/relu_pool_proj
I1126 19:49:38.029549 10970 net.cpp:106] Creating Layer inception_4d/relu_pool_proj
I1126 19:49:38.029557 10970 net.cpp:454] inception_4d/relu_pool_proj <- inception_4d/pool_proj
I1126 19:49:38.029567 10970 net.cpp:397] inception_4d/relu_pool_proj -> inception_4d/pool_proj (in-place)
I1126 19:49:38.029772 10970 net.cpp:150] Setting up inception_4d/relu_pool_proj
I1126 19:49:38.029785 10970 net.cpp:157] Top shape: 64 64 14 14 (802816)
I1126 19:49:38.029791 10970 net.cpp:165] Memory required for data: 3067130888
I1126 19:49:38.029798 10970 layer_factory.hpp:76] Creating layer inception_4d/output
I1126 19:49:38.029806 10970 net.cpp:106] Creating Layer inception_4d/output
I1126 19:49:38.029814 10970 net.cpp:454] inception_4d/output <- inception_4d/1x1
I1126 19:49:38.029822 10970 net.cpp:454] inception_4d/output <- inception_4d/3x3
I1126 19:49:38.029829 10970 net.cpp:454] inception_4d/output <- inception_4d/5x5
I1126 19:49:38.029835 10970 net.cpp:454] inception_4d/output <- inception_4d/pool_proj
I1126 19:49:38.029849 10970 net.cpp:411] inception_4d/output -> inception_4d/output
I1126 19:49:38.029904 10970 net.cpp:150] Setting up inception_4d/output
I1126 19:49:38.029914 10970 net.cpp:157] Top shape: 64 528 14 14 (6623232)
I1126 19:49:38.029920 10970 net.cpp:165] Memory required for data: 3093623816
I1126 19:49:38.029927 10970 layer_factory.hpp:76] Creating layer inception_4d/output_inception_4d/output_0_split
I1126 19:49:38.029937 10970 net.cpp:106] Creating Layer inception_4d/output_inception_4d/output_0_split
I1126 19:49:38.029943 10970 net.cpp:454] inception_4d/output_inception_4d/output_0_split <- inception_4d/output
I1126 19:49:38.029953 10970 net.cpp:411] inception_4d/output_inception_4d/output_0_split -> inception_4d/output_inception_4d/output_0_split_0
I1126 19:49:38.029965 10970 net.cpp:411] inception_4d/output_inception_4d/output_0_split -> inception_4d/output_inception_4d/output_0_split_1
I1126 19:49:38.029979 10970 net.cpp:411] inception_4d/output_inception_4d/output_0_split -> inception_4d/output_inception_4d/output_0_split_2
I1126 19:49:38.029991 10970 net.cpp:411] inception_4d/output_inception_4d/output_0_split -> inception_4d/output_inception_4d/output_0_split_3
I1126 19:49:38.030002 10970 net.cpp:411] inception_4d/output_inception_4d/output_0_split -> inception_4d/output_inception_4d/output_0_split_4
I1126 19:49:38.030138 10970 net.cpp:150] Setting up inception_4d/output_inception_4d/output_0_split
I1126 19:49:38.030148 10970 net.cpp:157] Top shape: 64 528 14 14 (6623232)
I1126 19:49:38.030156 10970 net.cpp:157] Top shape: 64 528 14 14 (6623232)
I1126 19:49:38.030164 10970 net.cpp:157] Top shape: 64 528 14 14 (6623232)
I1126 19:49:38.030170 10970 net.cpp:157] Top shape: 64 528 14 14 (6623232)
I1126 19:49:38.030179 10970 net.cpp:157] Top shape: 64 528 14 14 (6623232)
I1126 19:49:38.030186 10970 net.cpp:165] Memory required for data: 3226088456
I1126 19:49:38.030194 10970 layer_factory.hpp:76] Creating layer loss2/ave_pool
I1126 19:49:38.030205 10970 net.cpp:106] Creating Layer loss2/ave_pool
I1126 19:49:38.030211 10970 net.cpp:454] loss2/ave_pool <- inception_4d/output_inception_4d/output_0_split_0
I1126 19:49:38.030221 10970 net.cpp:411] loss2/ave_pool -> loss2/ave_pool
I1126 19:49:38.030616 10970 net.cpp:150] Setting up loss2/ave_pool
I1126 19:49:38.030632 10970 net.cpp:157] Top shape: 64 528 4 4 (540672)
I1126 19:49:38.030638 10970 net.cpp:165] Memory required for data: 3228251144
I1126 19:49:38.030644 10970 layer_factory.hpp:76] Creating layer loss2/conv
I1126 19:49:38.030659 10970 net.cpp:106] Creating Layer loss2/conv
I1126 19:49:38.030668 10970 net.cpp:454] loss2/conv <- loss2/ave_pool
I1126 19:49:38.030678 10970 net.cpp:411] loss2/conv -> loss2/conv
I1126 19:49:38.032871 10970 net.cpp:150] Setting up loss2/conv
I1126 19:49:38.032893 10970 net.cpp:157] Top shape: 64 128 4 4 (131072)
I1126 19:49:38.032901 10970 net.cpp:165] Memory required for data: 3228775432
I1126 19:49:38.032912 10970 layer_factory.hpp:76] Creating layer loss2/relu_conv
I1126 19:49:38.032923 10970 net.cpp:106] Creating Layer loss2/relu_conv
I1126 19:49:38.032932 10970 net.cpp:454] loss2/relu_conv <- loss2/conv
I1126 19:49:38.032941 10970 net.cpp:397] loss2/relu_conv -> loss2/conv (in-place)
I1126 19:49:38.033304 10970 net.cpp:150] Setting up loss2/relu_conv
I1126 19:49:38.033319 10970 net.cpp:157] Top shape: 64 128 4 4 (131072)
I1126 19:49:38.033325 10970 net.cpp:165] Memory required for data: 3229299720
I1126 19:49:38.033331 10970 layer_factory.hpp:76] Creating layer loss2/fc
I1126 19:49:38.033344 10970 net.cpp:106] Creating Layer loss2/fc
I1126 19:49:38.033351 10970 net.cpp:454] loss2/fc <- loss2/conv
I1126 19:49:38.033365 10970 net.cpp:411] loss2/fc -> loss2/fc
I1126 19:49:38.049099 10970 net.cpp:150] Setting up loss2/fc
I1126 19:49:38.049123 10970 net.cpp:157] Top shape: 64 1024 (65536)
I1126 19:49:38.049129 10970 net.cpp:165] Memory required for data: 3229561864
I1126 19:49:38.049141 10970 layer_factory.hpp:76] Creating layer loss2/relu_fc
I1126 19:49:38.049154 10970 net.cpp:106] Creating Layer loss2/relu_fc
I1126 19:49:38.049166 10970 net.cpp:454] loss2/relu_fc <- loss2/fc
I1126 19:49:38.049180 10970 net.cpp:397] loss2/relu_fc -> loss2/fc (in-place)
I1126 19:49:38.049454 10970 net.cpp:150] Setting up loss2/relu_fc
I1126 19:49:38.049468 10970 net.cpp:157] Top shape: 64 1024 (65536)
I1126 19:49:38.049474 10970 net.cpp:165] Memory required for data: 3229824008
I1126 19:49:38.049480 10970 layer_factory.hpp:76] Creating layer loss2/drop_fc
I1126 19:49:38.049490 10970 net.cpp:106] Creating Layer loss2/drop_fc
I1126 19:49:38.049499 10970 net.cpp:454] loss2/drop_fc <- loss2/fc
I1126 19:49:38.049510 10970 net.cpp:397] loss2/drop_fc -> loss2/fc (in-place)
I1126 19:49:38.049562 10970 net.cpp:150] Setting up loss2/drop_fc
I1126 19:49:38.049572 10970 net.cpp:157] Top shape: 64 1024 (65536)
I1126 19:49:38.049578 10970 net.cpp:165] Memory required for data: 3230086152
I1126 19:49:38.049583 10970 layer_factory.hpp:76] Creating layer loss2/classifier-attribute
I1126 19:49:38.049597 10970 net.cpp:106] Creating Layer loss2/classifier-attribute
I1126 19:49:38.049605 10970 net.cpp:454] loss2/classifier-attribute <- loss2/fc
I1126 19:49:38.049618 10970 net.cpp:411] loss2/classifier-attribute -> loss2/classifier-attribute
I1126 19:49:38.126724 10970 net.cpp:150] Setting up loss2/classifier-attribute
I1126 19:49:38.126746 10970 net.cpp:157] Top shape: 64 9999 (639936)
I1126 19:49:38.126754 10970 net.cpp:165] Memory required for data: 3232645896
I1126 19:49:38.126766 10970 layer_factory.hpp:76] Creating layer loss2/classifier-attribute_loss2/classifier-attribute_0_split
I1126 19:49:38.126780 10970 net.cpp:106] Creating Layer loss2/classifier-attribute_loss2/classifier-attribute_0_split
I1126 19:49:38.126788 10970 net.cpp:454] loss2/classifier-attribute_loss2/classifier-attribute_0_split <- loss2/classifier-attribute
I1126 19:49:38.126804 10970 net.cpp:411] loss2/classifier-attribute_loss2/classifier-attribute_0_split -> loss2/classifier-attribute_loss2/classifier-attribute_0_split_0
I1126 19:49:38.126821 10970 net.cpp:411] loss2/classifier-attribute_loss2/classifier-attribute_0_split -> loss2/classifier-attribute_loss2/classifier-attribute_0_split_1
I1126 19:49:38.126915 10970 net.cpp:150] Setting up loss2/classifier-attribute_loss2/classifier-attribute_0_split
I1126 19:49:38.126927 10970 net.cpp:157] Top shape: 64 9999 (639936)
I1126 19:49:38.126935 10970 net.cpp:157] Top shape: 64 9999 (639936)
I1126 19:49:38.126940 10970 net.cpp:165] Memory required for data: 3237765384
I1126 19:49:38.126945 10970 layer_factory.hpp:76] Creating layer loss2/loss
I1126 19:49:38.126957 10970 net.cpp:106] Creating Layer loss2/loss
I1126 19:49:38.126971 10970 net.cpp:454] loss2/loss <- loss2/classifier-attribute_loss2/classifier-attribute_0_split_0
I1126 19:49:38.126981 10970 net.cpp:454] loss2/loss <- label_data_1_split_2
…
I1126 19:49:38.129005 10970 net.cpp:150] Setting up loss2/top-1
I1126 19:49:38.129014 10970 net.cpp:157] Top shape: (1)
I1126 19:49:38.129019 10970 net.cpp:165] Memory required for data: 3237765392
I1126 19:49:38.129024 10970 layer_factory.hpp:76] Creating layer inception_4e/1x1
I1126 19:49:38.129040 10970 net.cpp:106] Creating Layer inception_4e/1x1
I1126 19:49:38.129048 10970 net.cpp:454] inception_4e/1x1 <- inception_4d/output_inception_4d/output_0_split_1
I1126 19:49:38.129061 10970 net.cpp:411] inception_4e/1x1 -> inception_4e/1x1
I1126 19:49:38.131305 10970 net.cpp:150] Setting up inception_4e/1x1
I1126 19:49:38.131324 10970 net.cpp:157] Top shape: 64 256 14 14 (3211264)
I1126 19:49:38.131330 10970 net.cpp:165] Memory required for data: 3250610448
I1126 19:49:38.131341 10970 layer_factory.hpp:76] Creating layer inception_4e/relu_1x1
I1126 19:49:38.131353 10970 net.cpp:106] Creating Layer inception_4e/relu_1x1
I1126 19:49:38.131362 10970 net.cpp:454] inception_4e/relu_1x1 <- inception_4e/1x1
I1126 19:49:38.131373 10970 net.cpp:397] inception_4e/relu_1x1 -> inception_4e/1x1 (in-place)
I1126 19:49:38.131587 10970 net.cpp:150] Setting up inception_4e/relu_1x1
I1126 19:49:38.131600 10970 net.cpp:157] Top shape: 64 256 14 14 (3211264)
I1126 19:49:38.131605 10970 net.cpp:165] Memory required for data: 3263455504
I1126 19:49:38.131611 10970 layer_factory.hpp:76] Creating layer inception_4e/3x3_reduce
I1126 19:49:38.131626 10970 net.cpp:106] Creating Layer inception_4e/3x3_reduce
I1126 19:49:38.131634 10970 net.cpp:454] inception_4e/3x3_reduce <- inception_4d/output_inception_4d/output_0_split_2
I1126 19:49:38.131647 10970 net.cpp:411] inception_4e/3x3_reduce -> inception_4e/3x3_reduce
I1126 19:49:38.133988 10970 net.cpp:150] Setting up inception_4e/3x3_reduce
I1126 19:49:38.134006 10970 net.cpp:157] Top shape: 64 160 14 14 (2007040)
I1126 19:49:38.134011 10970 net.cpp:165] Memory required for data: 3271483664
I1126 19:49:38.134022 10970 layer_factory.hpp:76] Creating layer inception_4e/relu_3x3_reduce
I1126 19:49:38.134037 10970 net.cpp:106] Creating Layer inception_4e/relu_3x3_reduce
I1126 19:49:38.134044 10970 net.cpp:454] inception_4e/relu_3x3_reduce <- inception_4e/3x3_reduce
I1126 19:49:38.134057 10970 net.cpp:397] inception_4e/relu_3x3_reduce -> inception_4e/3x3_reduce (in-place)
I1126 19:49:38.134416 10970 net.cpp:150] Setting up inception_4e/relu_3x3_reduce
I1126 19:49:38.134430 10970 net.cpp:157] Top shape: 64 160 14 14 (2007040)
I1126 19:49:38.134436 10970 net.cpp:165] Memory required for data: 3279511824
I1126 19:49:38.134443 10970 layer_factory.hpp:76] Creating layer inception_4e/3x3
I1126 19:49:38.134469 10970 net.cpp:106] Creating Layer inception_4e/3x3
I1126 19:49:38.134477 10970 net.cpp:454] inception_4e/3x3 <- inception_4e/3x3_reduce
I1126 19:49:38.134490 10970 net.cpp:411] inception_4e/3x3 -> inception_4e/3x3
I1126 19:49:38.139240 10970 net.cpp:150] Setting up inception_4e/3x3
I1126 19:49:38.139256 10970 net.cpp:157] Top shape: 64 320 14 14 (4014080)
I1126 19:49:38.139262 10970 net.cpp:165] Memory required for data: 3295568144
I1126 19:49:38.139276 10970 layer_factory.hpp:76] Creating layer inception_4e/relu_3x3
I1126 19:49:38.139292 10970 net.cpp:106] Creating Layer inception_4e/relu_3x3
I1126 19:49:38.139302 10970 net.cpp:454] inception_4e/relu_3x3 <- inception_4e/3x3
I1126 19:49:38.139313 10970 net.cpp:397] inception_4e/relu_3x3 -> inception_4e/3x3 (in-place)
I1126 19:49:38.139670 10970 net.cpp:150] Setting up inception_4e/relu_3x3
I1126 19:49:38.139685 10970 net.cpp:157] Top shape: 64 320 14 14 (4014080)
I1126 19:49:38.139691 10970 net.cpp:165] Memory required for data: 3311624464
I1126 19:49:38.139698 10970 layer_factory.hpp:76] Creating layer inception_4e/5x5_reduce
I1126 19:49:38.139711 10970 net.cpp:106] Creating Layer inception_4e/5x5_reduce
I1126 19:49:38.139720 10970 net.cpp:454] inception_4e/5x5_reduce <- inception_4d/output_inception_4d/output_0_split_3
I1126 19:49:38.139734 10970 net.cpp:411] inception_4e/5x5_reduce -> inception_4e/5x5_reduce
I1126 19:49:38.141374 10970 net.cpp:150] Setting up inception_4e/5x5_reduce
I1126 19:49:38.141391 10970 net.cpp:157] Top shape: 64 32 14 14 (401408)
I1126 19:49:38.141396 10970 net.cpp:165] Memory required for data: 3313230096
I1126 19:49:38.141407 10970 layer_factory.hpp:76] Creating layer inception_4e/relu_5x5_reduce
I1126 19:49:38.141417 10970 net.cpp:106] Creating Layer inception_4e/relu_5x5_reduce
I1126 19:49:38.141423 10970 net.cpp:454] inception_4e/relu_5x5_reduce <- inception_4e/5x5_reduce
I1126 19:49:38.141435 10970 net.cpp:397] inception_4e/relu_5x5_reduce -> inception_4e/5x5_reduce (in-place)
I1126 19:49:38.141646 10970 net.cpp:150] Setting up inception_4e/relu_5x5_reduce
I1126 19:49:38.141661 10970 net.cpp:157] Top shape: 64 32 14 14 (401408)
I1126 19:49:38.141667 10970 net.cpp:165] Memory required for data: 3314835728
I1126 19:49:38.141674 10970 layer_factory.hpp:76] Creating layer inception_4e/5x5
I1126 19:49:38.141685 10970 net.cpp:106] Creating Layer inception_4e/5x5
I1126 19:49:38.141695 10970 net.cpp:454] inception_4e/5x5 <- inception_4e/5x5_reduce
I1126 19:49:38.141708 10970 net.cpp:411] inception_4e/5x5 -> inception_4e/5x5
I1126 19:49:38.143725 10970 net.cpp:150] Setting up inception_4e/5x5
I1126 19:49:38.143741 10970 net.cpp:157] Top shape: 64 128 14 14 (1605632)
I1126 19:49:38.143748 10970 net.cpp:165] Memory required for data: 3321258256
I1126 19:49:38.143759 10970 layer_factory.hpp:76] Creating layer inception_4e/relu_5x5
I1126 19:49:38.143769 10970 net.cpp:106] Creating Layer inception_4e/relu_5x5
I1126 19:49:38.143775 10970 net.cpp:454] inception_4e/relu_5x5 <- inception_4e/5x5
I1126 19:49:38.143790 10970 net.cpp:397] inception_4e/relu_5x5 -> inception_4e/5x5 (in-place)
I1126 19:49:38.144165 10970 net.cpp:150] Setting up inception_4e/relu_5x5
I1126 19:49:38.144179 10970 net.cpp:157] Top shape: 64 128 14 14 (1605632)
I1126 19:49:38.144186 10970 net.cpp:165] Memory required for data: 3327680784
I1126 19:49:38.144191 10970 layer_factory.hpp:76] Creating layer inception_4e/pool
I1126 19:49:38.144201 10970 net.cpp:106] Creating Layer inception_4e/pool
I1126 19:49:38.144208 10970 net.cpp:454] inception_4e/pool <- inception_4d/output_inception_4d/output_0_split_4
I1126 19:49:38.144220 10970 net.cpp:411] inception_4e/pool -> inception_4e/pool
I1126 19:49:38.144500 10970 net.cpp:150] Setting up inception_4e/pool
I1126 19:49:38.144515 10970 net.cpp:157] Top shape: 64 528 14 14 (6623232)
I1126 19:49:38.144521 10970 net.cpp:165] Memory required for data: 3354173712
I1126 19:49:38.144526 10970 layer_factory.hpp:76] Creating layer inception_4e/pool_proj
I1126 19:49:38.144538 10970 net.cpp:106] Creating Layer inception_4e/pool_proj
I1126 19:49:38.144546 10970 net.cpp:454] inception_4e/pool_proj <- inception_4e/pool
I1126 19:49:38.144557 10970 net.cpp:411] inception_4e/pool_proj -> inception_4e/pool_proj
I1126 19:49:38.146332 10970 net.cpp:150] Setting up inception_4e/pool_proj
I1126 19:49:38.146347 10970 net.cpp:157] Top shape: 64 128 14 14 (1605632)
I1126 19:49:38.146353 10970 net.cpp:165] Memory required for data: 3360596240
I1126 19:49:38.146364 10970 layer_factory.hpp:76] Creating layer inception_4e/relu_pool_proj
I1126 19:49:38.146376 10970 net.cpp:106] Creating Layer inception_4e/relu_pool_proj
I1126 19:49:38.146385 10970 net.cpp:454] inception_4e/relu_pool_proj <- inception_4e/pool_proj
I1126 19:49:38.146395 10970 net.cpp:397] inception_4e/relu_pool_proj -> inception_4e/pool_proj (in-place)
I1126 19:49:38.146764 10970 net.cpp:150] Setting up inception_4e/relu_pool_proj
I1126 19:49:38.146780 10970 net.cpp:157] Top shape: 64 128 14 14 (1605632)
I1126 19:49:38.146785 10970 net.cpp:165] Memory required for data: 3367018768
I1126 19:49:38.146791 10970 layer_factory.hpp:76] Creating layer inception_4e/output
I1126 19:49:38.146803 10970 net.cpp:106] Creating Layer inception_4e/output
I1126 19:49:38.146811 10970 net.cpp:454] inception_4e/output <- inception_4e/1x1
I1126 19:49:38.146821 10970 net.cpp:454] inception_4e/output <- inception_4e/3x3
I1126 19:49:38.146831 10970 net.cpp:454] inception_4e/output <- inception_4e/5x5
I1126 19:49:38.146838 10970 net.cpp:454] inception_4e/output <- inception_4e/pool_proj
I1126 19:49:38.146847 10970 net.cpp:411] inception_4e/output -> inception_4e/output
I1126 19:49:38.146909 10970 net.cpp:150] Setting up inception_4e/output
I1126 19:49:38.146920 10970 net.cpp:157] Top shape: 64 832 14 14 (10436608)
I1126 19:49:38.146925 10970 net.cpp:165] Memory required for data: 3408765200
I1126 19:49:38.146931 10970 layer_factory.hpp:76] Creating layer pool4/3x3_s2
I1126 19:49:38.146940 10970 net.cpp:106] Creating Layer pool4/3x3_s2
I1126 19:49:38.146950 10970 net.cpp:454] pool4/3x3_s2 <- inception_4e/output
I1126 19:49:38.146962 10970 net.cpp:411] pool4/3x3_s2 -> pool4/3x3_s2
I1126 19:49:38.147228 10970 net.cpp:150] Setting up pool4/3x3_s2
I1126 19:49:38.147241 10970 net.cpp:157] Top shape: 64 832 7 7 (2609152)
I1126 19:49:38.147248 10970 net.cpp:165] Memory required for data: 3419201808
I1126 19:49:38.147253 10970 layer_factory.hpp:76] Creating layer pool4/3x3_s2_pool4/3x3_s2_0_split
I1126 19:49:38.147264 10970 net.cpp:106] Creating Layer pool4/3x3_s2_pool4/3x3_s2_0_split
I1126 19:49:38.147269 10970 net.cpp:454] pool4/3x3_s2_pool4/3x3_s2_0_split <- pool4/3x3_s2
I1126 19:49:38.147279 10970 net.cpp:411] pool4/3x3_s2_pool4/3x3_s2_0_split -> pool4/3x3_s2_pool4/3x3_s2_0_split_0
I1126 19:49:38.147291 10970 net.cpp:411] pool4/3x3_s2_pool4/3x3_s2_0_split -> pool4/3x3_s2_pool4/3x3_s2_0_split_1
I1126 19:49:38.147306 10970 net.cpp:411] pool4/3x3_s2_pool4/3x3_s2_0_split -> pool4/3x3_s2_pool4/3x3_s2_0_split_2
I1126 19:49:38.147317 10970 net.cpp:411] pool4/3x3_s2_pool4/3x3_s2_0_split -> pool4/3x3_s2_pool4/3x3_s2_0_split_3
I1126 19:49:38.147439 10970 net.cpp:150] Setting up pool4/3x3_s2_pool4/3x3_s2_0_split
I1126 19:49:38.147449 10970 net.cpp:157] Top shape: 64 832 7 7 (2609152)
I1126 19:49:38.147456 10970 net.cpp:157] Top shape: 64 832 7 7 (2609152)
I1126 19:49:38.147464 10970 net.cpp:157] Top shape: 64 832 7 7 (2609152)
I1126 19:49:38.147470 10970 net.cpp:157] Top shape: 64 832 7 7 (2609152)
I1126 19:49:38.147475 10970 net.cpp:165] Memory required for data: 3460948240
I1126 19:49:38.147481 10970 layer_factory.hpp:76] Creating layer inception_5a/1x1
I1126 19:49:38.147495 10970 net.cpp:106] Creating Layer inception_5a/1x1
I1126 19:49:38.147501 10970 net.cpp:454] inception_5a/1x1 <- pool4/3x3_s2_pool4/3x3_s2_0_split_0
I1126 19:49:38.147513 10970 net.cpp:411] inception_5a/1x1 -> inception_5a/1x1
I1126 19:49:38.150679 10970 net.cpp:150] Setting up inception_5a/1x1
I1126 19:49:38.150696 10970 net.cpp:157] Top shape: 64 256 7 7 (802816)
I1126 19:49:38.150701 10970 net.cpp:165] Memory required for data: 3464159504
I1126 19:49:38.150712 10970 layer_factory.hpp:76] Creating layer inception_5a/relu_1x1
I1126 19:49:38.150722 10970 net.cpp:106] Creating Layer inception_5a/relu_1x1
I1126 19:49:38.150730 10970 net.cpp:454] inception_5a/relu_1x1 <- inception_5a/1x1
I1126 19:49:38.150740 10970 net.cpp:397] inception_5a/relu_1x1 -> inception_5a/1x1 (in-place)
I1126 19:49:38.150964 10970 net.cpp:150] Setting up inception_5a/relu_1x1
I1126 19:49:38.150977 10970 net.cpp:157] Top shape: 64 256 7 7 (802816)
I1126 19:49:38.150984 10970 net.cpp:165] Memory required for data: 3467370768
I1126 19:49:38.150990 10970 layer_factory.hpp:76] Creating layer inception_5a/3x3_reduce
I1126 19:49:38.151010 10970 net.cpp:106] Creating Layer inception_5a/3x3_reduce
I1126 19:49:38.151018 10970 net.cpp:454] inception_5a/3x3_reduce <- pool4/3x3_s2_pool4/3x3_s2_0_split_1
I1126 19:49:38.151031 10970 net.cpp:411] inception_5a/3x3_reduce -> inception_5a/3x3_reduce
I1126 19:49:38.153758 10970 net.cpp:150] Setting up inception_5a/3x3_reduce
I1126 19:49:38.153774 10970 net.cpp:157] Top shape: 64 160 7 7 (501760)
I1126 19:49:38.153780 10970 net.cpp:165] Memory required for data: 3469377808
I1126 19:49:38.153791 10970 layer_factory.hpp:76] Creating layer inception_5a/relu_3x3_reduce
I1126 19:49:38.153800 10970 net.cpp:106] Creating Layer inception_5a/relu_3x3_reduce
I1126 19:49:38.153815 10970 net.cpp:454] inception_5a/relu_3x3_reduce <- inception_5a/3x3_reduce
I1126 19:49:38.153823 10970 net.cpp:397] inception_5a/relu_3x3_reduce -> inception_5a/3x3_reduce (in-place)
I1126 19:49:38.154192 10970 net.cpp:150] Setting up inception_5a/relu_3x3_reduce
I1126 19:49:38.154208 10970 net.cpp:157] Top shape: 64 160 7 7 (501760)
I1126 19:49:38.154214 10970 net.cpp:165] Memory required for data: 3471384848
I1126 19:49:38.154220 10970 layer_factory.hpp:76] Creating layer inception_5a/3x3
I1126 19:49:38.154234 10970 net.cpp:106] Creating Layer inception_5a/3x3
I1126 19:49:38.154243 10970 net.cpp:454] inception_5a/3x3 <- inception_5a/3x3_reduce
I1126 19:49:38.154256 10970 net.cpp:411] inception_5a/3x3 -> inception_5a/3x3
I1126 19:49:38.159154 10970 net.cpp:150] Setting up inception_5a/3x3
I1126 19:49:38.159173 10970 net.cpp:157] Top shape: 64 320 7 7 (1003520)
I1126 19:49:38.159180 10970 net.cpp:165] Memory required for data: 3475398928
I1126 19:49:38.159191 10970 layer_factory.hpp:76] Creating layer inception_5a/relu_3x3
I1126 19:49:38.159209 10970 net.cpp:106] Creating Layer inception_5a/relu_3x3
I1126 19:49:38.159219 10970 net.cpp:454] inception_5a/relu_3x3 <- inception_5a/3x3
I1126 19:49:38.159234 10970 net.cpp:397] inception_5a/relu_3x3 -> inception_5a/3x3 (in-place)
I1126 19:49:38.159451 10970 net.cpp:150] Setting up inception_5a/relu_3x3
I1126 19:49:38.159466 10970 net.cpp:157] Top shape: 64 320 7 7 (1003520)
I1126 19:49:38.159471 10970 net.cpp:165] Memory required for data: 3479413008
I1126 19:49:38.159476 10970 layer_factory.hpp:76] Creating layer inception_5a/5x5_reduce
I1126 19:49:38.159512 10970 net.cpp:106] Creating Layer inception_5a/5x5_reduce
I1126 19:49:38.159523 10970 net.cpp:454] inception_5a/5x5_reduce <- pool4/3x3_s2_pool4/3x3_s2_0_split_2
I1126 19:49:38.159533 10970 net.cpp:411] inception_5a/5x5_reduce -> inception_5a/5x5_reduce
I1126 19:49:38.161602 10970 net.cpp:150] Setting up inception_5a/5x5_reduce
I1126 19:49:38.161617 10970 net.cpp:157] Top shape: 64 32 7 7 (100352)
I1126 19:49:38.161624 10970 net.cpp:165] Memory required for data: 3479814416
I1126 19:49:38.161634 10970 layer_factory.hpp:76] Creating layer inception_5a/relu_5x5_reduce
I1126 19:49:38.161646 10970 net.cpp:106] Creating Layer inception_5a/relu_5x5_reduce
I1126 19:49:38.161659 10970 net.cpp:454] inception_5a/relu_5x5_reduce <- inception_5a/5x5_reduce
I1126 19:49:38.161669 10970 net.cpp:397] inception_5a/relu_5x5_reduce -> inception_5a/5x5_reduce (in-place)
I1126 19:49:38.161885 10970 net.cpp:150] Setting up inception_5a/relu_5x5_reduce
I1126 19:49:38.161898 10970 net.cpp:157] Top shape: 64 32 7 7 (100352)
I1126 19:49:38.161905 10970 net.cpp:165] Memory required for data: 3480215824
I1126 19:49:38.161909 10970 layer_factory.hpp:76] Creating layer inception_5a/5x5
I1126 19:49:38.161923 10970 net.cpp:106] Creating Layer inception_5a/5x5
I1126 19:49:38.161932 10970 net.cpp:454] inception_5a/5x5 <- inception_5a/5x5_reduce
I1126 19:49:38.161945 10970 net.cpp:411] inception_5a/5x5 -> inception_5a/5x5
I1126 19:49:38.164120 10970 net.cpp:150] Setting up inception_5a/5x5
I1126 19:49:38.164136 10970 net.cpp:157] Top shape: 64 128 7 7 (401408)
I1126 19:49:38.164144 10970 net.cpp:165] Memory required for data: 3481821456
I1126 19:49:38.164155 10970 layer_factory.hpp:76] Creating layer inception_5a/relu_5x5
I1126 19:49:38.164173 10970 net.cpp:106] Creating Layer inception_5a/relu_5x5
I1126 19:49:38.164182 10970 net.cpp:454] inception_5a/relu_5x5 <- inception_5a/5x5
I1126 19:49:38.164191 10970 net.cpp:397] inception_5a/relu_5x5 -> inception_5a/5x5 (in-place)
I1126 19:49:38.164576 10970 net.cpp:150] Setting up inception_5a/relu_5x5
I1126 19:49:38.164592 10970 net.cpp:157] Top shape: 64 128 7 7 (401408)
I1126 19:49:38.164597 10970 net.cpp:165] Memory required for data: 3483427088
I1126 19:49:38.164603 10970 layer_factory.hpp:76] Creating layer inception_5a/pool
I1126 19:49:38.164613 10970 net.cpp:106] Creating Layer inception_5a/pool
I1126 19:49:38.164621 10970 net.cpp:454] inception_5a/pool <- pool4/3x3_s2_pool4/3x3_s2_0_split_3
I1126 19:49:38.164633 10970 net.cpp:411] inception_5a/pool -> inception_5a/pool
I1126 19:49:38.164921 10970 net.cpp:150] Setting up inception_5a/pool
I1126 19:49:38.164937 10970 net.cpp:157] Top shape: 64 832 7 7 (2609152)
I1126 19:49:38.164943 10970 net.cpp:165] Memory required for data: 3493863696
I1126 19:49:38.164949 10970 layer_factory.hpp:76] Creating layer inception_5a/pool_proj
I1126 19:49:38.164963 10970 net.cpp:106] Creating Layer inception_5a/pool_proj
I1126 19:49:38.164973 10970 net.cpp:454] inception_5a/pool_proj <- inception_5a/pool
I1126 19:49:38.164983 10970 net.cpp:411] inception_5a/pool_proj -> inception_5a/pool_proj
I1126 19:49:38.167490 10970 net.cpp:150] Setting up inception_5a/pool_proj
I1126 19:49:38.167507 10970 net.cpp:157] Top shape: 64 128 7 7 (401408)
I1126 19:49:38.167513 10970 net.cpp:165] Memory required for data: 3495469328
I1126 19:49:38.167525 10970 layer_factory.hpp:76] Creating layer inception_5a/relu_pool_proj
I1126 19:49:38.167536 10970 net.cpp:106] Creating Layer inception_5a/relu_pool_proj
I1126 19:49:38.167546 10970 net.cpp:454] inception_5a/relu_pool_proj <- inception_5a/pool_proj
I1126 19:49:38.167556 10970 net.cpp:397] inception_5a/relu_pool_proj -> inception_5a/pool_proj (in-place)
I1126 19:49:38.167924 10970 net.cpp:150] Setting up inception_5a/relu_pool_proj
I1126 19:49:38.167939 10970 net.cpp:157] Top shape: 64 128 7 7 (401408)
I1126 19:49:38.167945 10970 net.cpp:165] Memory required for data: 3497074960
I1126 19:49:38.167951 10970 layer_factory.hpp:76] Creating layer inception_5a/output
I1126 19:49:38.167963 10970 net.cpp:106] Creating Layer inception_5a/output
I1126 19:49:38.167973 10970 net.cpp:454] inception_5a/output <- inception_5a/1x1
I1126 19:49:38.167981 10970 net.cpp:454] inception_5a/output <- inception_5a/3x3
I1126 19:49:38.167990 10970 net.cpp:454] inception_5a/output <- inception_5a/5x5
I1126 19:49:38.167997 10970 net.cpp:454] inception_5a/output <- inception_5a/pool_proj
I1126 19:49:38.168007 10970 net.cpp:411] inception_5a/output -> inception_5a/output
I1126 19:49:38.168064 10970 net.cpp:150] Setting up inception_5a/output
I1126 19:49:38.168076 10970 net.cpp:157] Top shape: 64 832 7 7 (2609152)
I1126 19:49:38.168081 10970 net.cpp:165] Memory required for data: 3507511568
I1126 19:49:38.168087 10970 layer_factory.hpp:76] Creating layer inception_5a/output_inception_5a/output_0_split
I1126 19:49:38.168098 10970 net.cpp:106] Creating Layer inception_5a/output_inception_5a/output_0_split
I1126 19:49:38.168107 10970 net.cpp:454] inception_5a/output_inception_5a/output_0_split <- inception_5a/output
I1126 19:49:38.168119 10970 net.cpp:411] inception_5a/output_inception_5a/output_0_split -> inception_5a/output_inception_5a/output_0_split_0
I1126 19:49:38.168131 10970 net.cpp:411] inception_5a/output_inception_5a/output_0_split -> inception_5a/output_inception_5a/output_0_split_1
I1126 19:49:38.168143 10970 net.cpp:411] inception_5a/output_inception_5a/output_0_split -> inception_5a/output_inception_5a/output_0_split_2
I1126 19:49:38.168157 10970 net.cpp:411] inception_5a/output_inception_5a/output_0_split -> inception_5a/output_inception_5a/output_0_split_3
I1126 19:49:38.168292 10970 net.cpp:150] Setting up inception_5a/output_inception_5a/output_0_split
I1126 19:49:38.168303 10970 net.cpp:157] Top shape: 64 832 7 7 (2609152)
I1126 19:49:38.168310 10970 net.cpp:157] Top shape: 64 832 7 7 (2609152)
I1126 19:49:38.168318 10970 net.cpp:157] Top shape: 64 832 7 7 (2609152)
I1126 19:49:38.168324 10970 net.cpp:157] Top shape: 64 832 7 7 (2609152)
I1126 19:49:38.168331 10970 net.cpp:165] Memory required for data: 3549258000
I1126 19:49:38.168337 10970 layer_factory.hpp:76] Creating layer inception_5b/1x1
I1126 19:49:38.168350 10970 net.cpp:106] Creating Layer inception_5b/1x1
I1126 19:49:38.168357 10970 net.cpp:454] inception_5b/1x1 <- inception_5a/output_inception_5a/output_0_split_0
I1126 19:49:38.168370 10970 net.cpp:411] inception_5b/1x1 -> inception_5b/1x1
I1126 19:49:38.175395 10970 net.cpp:150] Setting up inception_5b/1x1
I1126 19:49:38.175415 10970 net.cpp:157] Top shape: 64 384 7 7 (1204224)
I1126 19:49:38.175422 10970 net.cpp:165] Memory required for data: 3554074896
I1126 19:49:38.175434 10970 layer_factory.hpp:76] Creating layer inception_5b/relu_1x1
I1126 19:49:38.175446 10970 net.cpp:106] Creating Layer inception_5b/relu_1x1
I1126 19:49:38.175463 10970 net.cpp:454] inception_5b/relu_1x1 <- inception_5b/1x1
I1126 19:49:38.175477 10970 net.cpp:397] inception_5b/relu_1x1 -> inception_5b/1x1 (in-place)
I1126 19:49:38.175881 10970 net.cpp:150] Setting up inception_5b/relu_1x1
I1126 19:49:38.175897 10970 net.cpp:157] Top shape: 64 384 7 7 (1204224)
I1126 19:49:38.175904 10970 net.cpp:165] Memory required for data: 3558891792
I1126 19:49:38.175910 10970 layer_factory.hpp:76] Creating layer inception_5b/3x3_reduce
I1126 19:49:38.175926 10970 net.cpp:106] Creating Layer inception_5b/3x3_reduce
I1126 19:49:38.175936 10970 net.cpp:454] inception_5b/3x3_reduce <- inception_5a/output_inception_5a/output_0_split_1
I1126 19:49:38.175951 10970 net.cpp:411] inception_5b/3x3_reduce -> inception_5b/3x3_reduce
I1126 19:49:38.179082 10970 net.cpp:150] Setting up inception_5b/3x3_reduce
I1126 19:49:38.179100 10970 net.cpp:157] Top shape: 64 192 7 7 (602112)
I1126 19:49:38.179106 10970 net.cpp:165] Memory required for data: 3561300240
I1126 19:49:38.179118 10970 layer_factory.hpp:76] Creating layer inception_5b/relu_3x3_reduce
I1126 19:49:38.179129 10970 net.cpp:106] Creating Layer inception_5b/relu_3x3_reduce
I1126 19:49:38.179142 10970 net.cpp:454] inception_5b/relu_3x3_reduce <- inception_5b/3x3_reduce
I1126 19:49:38.179162 10970 net.cpp:397] inception_5b/relu_3x3_reduce -> inception_5b/3x3_reduce (in-place)
I1126 19:49:38.179401 10970 net.cpp:150] Setting up inception_5b/relu_3x3_reduce
I1126 19:49:38.179417 10970 net.cpp:157] Top shape: 64 192 7 7 (602112)
I1126 19:49:38.179425 10970 net.cpp:165] Memory required for data: 3563708688
I1126 19:49:38.179430 10970 layer_factory.hpp:76] Creating layer inception_5b/3x3
I1126 19:49:38.179443 10970 net.cpp:106] Creating Layer inception_5b/3x3
I1126 19:49:38.179455 10970 net.cpp:454] inception_5b/3x3 <- inception_5b/3x3_reduce
I1126 19:49:38.179469 10970 net.cpp:411] inception_5b/3x3 -> inception_5b/3x3
I1126 19:49:38.186540 10970 net.cpp:150] Setting up inception_5b/3x3
I1126 19:49:38.186559 10970 net.cpp:157] Top shape: 64 384 7 7 (1204224)
I1126 19:49:38.186566 10970 net.cpp:165] Memory required for data: 3568525584
I1126 19:49:38.186579 10970 layer_factory.hpp:76] Creating layer inception_5b/relu_3x3
I1126 19:49:38.186590 10970 net.cpp:106] Creating Layer inception_5b/relu_3x3
I1126 19:49:38.186605 10970 net.cpp:454] inception_5b/relu_3x3 <- inception_5b/3x3
I1126 19:49:38.186619 10970 net.cpp:397] inception_5b/relu_3x3 -> inception_5b/3x3 (in-place)
I1126 19:49:38.187054 10970 net.cpp:150] Setting up inception_5b/relu_3x3
I1126 19:49:38.187072 10970 net.cpp:157] Top shape: 64 384 7 7 (1204224)
I1126 19:49:38.187077 10970 net.cpp:165] Memory required for data: 3573342480
I1126 19:49:38.187084 10970 layer_factory.hpp:76] Creating layer inception_5b/5x5_reduce
I1126 19:49:38.187100 10970 net.cpp:106] Creating Layer inception_5b/5x5_reduce
I1126 19:49:38.187110 10970 net.cpp:454] inception_5b/5x5_reduce <- inception_5a/output_inception_5a/output_0_split_2
I1126 19:49:38.187124 10970 net.cpp:411] inception_5b/5x5_reduce -> inception_5b/5x5_reduce
I1126 19:49:38.189105 10970 net.cpp:150] Setting up inception_5b/5x5_reduce
I1126 19:49:38.189121 10970 net.cpp:157] Top shape: 64 48 7 7 (150528)
I1126 19:49:38.189127 10970 net.cpp:165] Memory required for data: 3573944592
I1126 19:49:38.189138 10970 layer_factory.hpp:76] Creating layer inception_5b/relu_5x5_reduce
I1126 19:49:38.189148 10970 net.cpp:106] Creating Layer inception_5b/relu_5x5_reduce
I1126 19:49:38.189160 10970 net.cpp:454] inception_5b/relu_5x5_reduce <- inception_5b/5x5_reduce
I1126 19:49:38.189172 10970 net.cpp:397] inception_5b/relu_5x5_reduce -> inception_5b/5x5_reduce (in-place)
I1126 19:49:38.189553 10970 net.cpp:150] Setting up inception_5b/relu_5x5_reduce
I1126 19:49:38.189568 10970 net.cpp:157] Top shape: 64 48 7 7 (150528)
I1126 19:49:38.189574 10970 net.cpp:165] Memory required for data: 3574546704
I1126 19:49:38.189579 10970 layer_factory.hpp:76] Creating layer inception_5b/5x5
I1126 19:49:38.189594 10970 net.cpp:106] Creating Layer inception_5b/5x5
I1126 19:49:38.189607 10970 net.cpp:454] inception_5b/5x5 <- inception_5b/5x5_reduce
I1126 19:49:38.189621 10970 net.cpp:411] inception_5b/5x5 -> inception_5b/5x5
I1126 19:49:38.191787 10970 net.cpp:150] Setting up inception_5b/5x5
I1126 19:49:38.191804 10970 net.cpp:157] Top shape: 64 128 7 7 (401408)
I1126 19:49:38.191810 10970 net.cpp:165] Memory required for data: 3576152336
I1126 19:49:38.191822 10970 layer_factory.hpp:76] Creating layer inception_5b/relu_5x5
I1126 19:49:38.191830 10970 net.cpp:106] Creating Layer inception_5b/relu_5x5
I1126 19:49:38.191843 10970 net.cpp:454] inception_5b/relu_5x5 <- inception_5b/5x5
I1126 19:49:38.191854 10970 net.cpp:397] inception_5b/relu_5x5 -> inception_5b/5x5 (in-place)
I1126 19:49:38.192070 10970 net.cpp:150] Setting up inception_5b/relu_5x5
I1126 19:49:38.192082 10970 net.cpp:157] Top shape: 64 128 7 7 (401408)
I1126 19:49:38.192088 10970 net.cpp:165] Memory required for data: 3577757968
I1126 19:49:38.192093 10970 layer_factory.hpp:76] Creating layer inception_5b/pool
I1126 19:49:38.192106 10970 net.cpp:106] Creating Layer inception_5b/pool
I1126 19:49:38.192114 10970 net.cpp:454] inception_5b/pool <- inception_5a/output_inception_5a/output_0_split_3
I1126 19:49:38.192124 10970 net.cpp:411] inception_5b/pool -> inception_5b/pool
I1126 19:49:38.192523 10970 net.cpp:150] Setting up inception_5b/pool
I1126 19:49:38.192538 10970 net.cpp:157] Top shape: 64 832 7 7 (2609152)
I1126 19:49:38.192544 10970 net.cpp:165] Memory required for data: 3588194576
I1126 19:49:38.192549 10970 layer_factory.hpp:76] Creating layer inception_5b/pool_proj
I1126 19:49:38.192566 10970 net.cpp:106] Creating Layer inception_5b/pool_proj
I1126 19:49:38.192575 10970 net.cpp:454] inception_5b/pool_proj <- inception_5b/pool
I1126 19:49:38.192586 10970 net.cpp:411] inception_5b/pool_proj -> inception_5b/pool_proj
I1126 19:49:38.194892 10970 net.cpp:150] Setting up inception_5b/pool_proj
I1126 19:49:38.194910 10970 net.cpp:157] Top shape: 64 128 7 7 (401408)
I1126 19:49:38.194916 10970 net.cpp:165] Memory required for data: 3589800208
I1126 19:49:38.194926 10970 layer_factory.hpp:76] Creating layer inception_5b/relu_pool_proj
I1126 19:49:38.194936 10970 net.cpp:106] Creating Layer inception_5b/relu_pool_proj
I1126 19:49:38.194949 10970 net.cpp:454] inception_5b/relu_pool_proj <- inception_5b/pool_proj
I1126 19:49:38.194963 10970 net.cpp:397] inception_5b/relu_pool_proj -> inception_5b/pool_proj (in-place)
I1126 19:49:38.195173 10970 net.cpp:150] Setting up inception_5b/relu_pool_proj
I1126 19:49:38.195186 10970 net.cpp:157] Top shape: 64 128 7 7 (401408)
I1126 19:49:38.195193 10970 net.cpp:165] Memory required for data: 3591405840
I1126 19:49:38.195199 10970 layer_factory.hpp:76] Creating layer inception_5b/output
I1126 19:49:38.195209 10970 net.cpp:106] Creating Layer inception_5b/output
I1126 19:49:38.195217 10970 net.cpp:454] inception_5b/output <- inception_5b/1x1
I1126 19:49:38.195230 10970 net.cpp:454] inception_5b/output <- inception_5b/3x3
I1126 19:49:38.195238 10970 net.cpp:454] inception_5b/output <- inception_5b/5x5
I1126 19:49:38.195245 10970 net.cpp:454] inception_5b/output <- inception_5b/pool_proj
I1126 19:49:38.195255 10970 net.cpp:411] inception_5b/output -> inception_5b/output
I1126 19:49:38.195294 10970 net.cpp:150] Setting up inception_5b/output
I1126 19:49:38.195304 10970 net.cpp:157] Top shape: 64 1024 7 7 (3211264)
I1126 19:49:38.195310 10970 net.cpp:165] Memory required for data: 3604250896
I1126 19:49:38.195315 10970 layer_factory.hpp:76] Creating layer pool5/7x7_s1
I1126 19:49:38.195324 10970 net.cpp:106] Creating Layer pool5/7x7_s1
I1126 19:49:38.195333 10970 net.cpp:454] pool5/7x7_s1 <- inception_5b/output
I1126 19:49:38.195343 10970 net.cpp:411] pool5/7x7_s1 -> pool5/7x7_s1
I1126 19:49:38.195888 10970 net.cpp:150] Setting up pool5/7x7_s1
I1126 19:49:38.195902 10970 net.cpp:157] Top shape: 64 1024 1 1 (65536)
I1126 19:49:38.195909 10970 net.cpp:165] Memory required for data: 3604513040
I1126 19:49:38.195914 10970 layer_factory.hpp:76] Creating layer pool5/drop_7x7_s1
I1126 19:49:38.195924 10970 net.cpp:106] Creating Layer pool5/drop_7x7_s1
I1126 19:49:38.195931 10970 net.cpp:454] pool5/drop_7x7_s1 <- pool5/7x7_s1
I1126 19:49:38.195942 10970 net.cpp:397] pool5/drop_7x7_s1 -> pool5/7x7_s1 (in-place)
I1126 19:49:38.195974 10970 net.cpp:150] Setting up pool5/drop_7x7_s1
I1126 19:49:38.195984 10970 net.cpp:157] Top shape: 64 1024 1 1 (65536)
I1126 19:49:38.195989 10970 net.cpp:165] Memory required for data: 3604775184
I1126 19:49:38.195996 10970 layer_factory.hpp:76] Creating layer loss3/classifier-attribute
I1126 19:49:38.196009 10970 net.cpp:106] Creating Layer loss3/classifier-attribute
I1126 19:49:38.196017 10970 net.cpp:454] loss3/classifier-attribute <- pool5/7x7_s1
I1126 19:49:38.196028 10970 net.cpp:411] loss3/classifier-attribute -> loss3/classifier-attribute
I1126 19:49:38.273002 10970 net.cpp:150] Setting up loss3/classifier-attribute
I1126 19:49:38.273026 10970 net.cpp:157] Top shape: 64 9999 (639936)
I1126 19:49:38.273032 10970 net.cpp:165] Memory required for data: 3607334928
I1126 19:49:38.273046 10970 layer_factory.hpp:76] Creating layer loss3/classifier-attribute_loss3/classifier-attribute_0_split
I1126 19:49:38.273057 10970 net.cpp:106] Creating Layer loss3/classifier-attribute_loss3/classifier-attribute_0_split
I1126 19:49:38.273066 10970 net.cpp:454] loss3/classifier-attribute_loss3/classifier-attribute_0_split <- loss3/classifier-attribute
I1126 19:49:38.273080 10970 net.cpp:411] loss3/classifier-attribute_loss3/classifier-attribute_0_split -> loss3/classifier-attribute_loss3/classifier-attribute_0_split_0
I1126 19:49:38.273097 10970 net.cpp:411] loss3/classifier-attribute_loss3/classifier-attribute_0_split -> loss3/classifier-attribute_loss3/classifier-attribute_0_split_1
I1126 19:49:38.273144 10970 net.cpp:150] Setting up loss3/classifier-attribute_loss3/classifier-attribute_0_split
I1126 19:49:38.273155 10970 net.cpp:157] Top shape: 64 9999 (639936)
I1126 19:49:38.273161 10970 net.cpp:157] Top shape: 64 9999 (639936)
I1126 19:49:38.273167 10970 net.cpp:165] Memory required for data: 3612454416
I1126 19:49:38.273172 10970 layer_factory.hpp:76] Creating layer loss3/loss3
I1126 19:49:38.273185 10970 net.cpp:106] Creating Layer loss3/loss3
I1126 19:49:38.273196 10970 net.cpp:454] loss3/loss3 <- loss3/classifier-attribute_loss3/classifier-attribute_0_split_0
I1126 19:49:38.273205 10970 net.cpp:454] loss3/loss3 <- label_data_1_split_4
…
