…
I1125 19:29:25.098238 18053 net.cpp:322] The NetState phase (0) differed from the phase (1) specified by a rule in layer loss3/top-1
I1125 19:29:25.100323 18053 net.cpp:49] Initializing net from parameters: 
name: "GoogleNet-finetune-for-cigit"
state {
  phase: TRAIN
}
layer {
  name: "data"
  type: "ImageData"
  top: "data"
  top: "label"
  include {
    phase: TRAIN
  }
  transform_param {
    mirror: true
    crop_size: 224
    mean_value: 104
    mean_value: 117
    mean_value: 123
  }
  image_data_param {
    source: "pad_train.txt"
    batch_size: 64
    shuffle: true
    new_height: 256
    new_width: 256
  }
}
layer {
  name: "conv1/7x7_s2"
  type: "Convolution"
  bottom: "data"
  top: "conv1/7x7_s2"
  param {
    lr_mult: 1
    decay_mult: 1
  }
  param {
    lr_mult: 2
    decay_mult: 0
  }
  convolution_param {
    num_output: 64
    pad: 3
    kernel_size: 7
    stride: 2
    weight_filler {
      type: "xavier"
    }
    bias_filler {
      type: "constant"
      value: 0.2
    }
  }
}
layer {
  name: "conv1/relu_7x7"
  type: "ReLU"
  bottom: "conv1/7x7_s2"
  top: "conv1/7x7_s2"
}
layer {
  name: "pool1/3x3_s2"
  type: "Pooling"
  bottom: "conv1/7x7_s2"
  top: "pool1/3x3_s2"
  pooling_param {
    pool: MAX
    kernel_size: 3
    stride: 2
  }
}
layer {
  name: "pool1/norm1"
  type: "LRN"
  bottom: "pool1/3x3_s2"
  top: "pool1/norm1"
  lrn_param {
    local_size: 5
    alpha: 0.0001
    beta: 0.75
  }
}
layer {
  name: "conv2/3x3_reduce"
  type: "Convolution"
  bottom: "pool1/norm1"
  top: "conv2/3x3_reduce"
  param {
    lr_mult: 1
    decay_mult: 1
  }
  param {
    lr_mult: 2
    decay_mult: 0
  }
  convolution_param {
    num_output: 64
    kernel_size: 1
    weight_filler {
      type: "xavier"
    }
    bias_filler {
      type: "constant"
      value: 0.2
    }
  }
}
layer {
  name: "conv2/relu_3x3_reduce"
  type: "ReLU"
  bottom: "conv2/3x3_reduce"
  top: "conv2/3x3_reduce"
}
layer {
  name: "conv2/3x3"
  type: "Convolution"
  bottom: "conv2/3x3_reduce"
  top: "conv2/3x3"
  param {
    lr_mult: 1
    decay_mult: 1
  }
  param {
    lr_mult: 2
    decay_mult: 0
  }
  convolution_param {
    num_output: 192
    pad: 1
    kernel_size: 3
    weight_filler {
      type: "xavier"
    }
    bias_filler {
      type: "constant"
      value: 0.2
    }
  }
}
layer {
  name: "conv2/relu_3x3"
  type: "ReLU"
  bottom: "conv2/3x3"
  top: "conv2/3x3"
}
layer {
  name: "conv2/norm2"
  type: "LRN"
  bottom: "conv2/3x3"
  top: "conv2/norm2"
  lrn_param {
    local_size: 5
    alpha: 0.0001
    beta: 0.75
  }
}
layer {
  name: "pool2/3x3_s2"
  type: "Pooling"
  bottom: "conv2/norm2"
  top: "pool2/3x3_s2"
  pooling_param {
    pool: MAX
    kernel_size: 3
    stride: 2
  }
}
layer {
  name: "inception_3a/1x1"
  type: "Convolution"
  bottom: "pool2/3x3_s2"
  top: "inception_3a/1x1"
  param {
    lr_mult: 1
    decay_mult: 1
  }
  param {
    lr_mult: 2
    decay_mult: 0
  }
  convolution_param {
    num_output: 64
    kernel_size: 1
    weight_filler {
      type: "xavier"
    }
    bias_filler {
      type: "constant"
      value: 0.2
    }
  }
}
layer {
  name: "inception_3a/relu_1x1"
  type: "ReLU"
  bottom: "inception_3a/1x1"
  top: "inception_3a/1x1"
}
layer {
  name: "inception_3a/3x3_reduce"
  type: "Convolution"
  bottom: "pool2/3x3_s2"
  top: "inception_3a/3x3_reduce"
  param {
    lr_mult: 1
    decay_mult: 1
  }
  param {
    lr_mult: 2
    decay_mult: 0
  }
  convolution_param {
    num_output: 96
    kernel_size: 1
    weight_filler {
      type: "xavier"
    }
    bias_filler {
      type: "constant"
      value: 0.2
    }
  }
}
layer {
  name: "inception_3a/relu_3x3_reduce"
  type: "ReLU"
  bottom: "inception_3a/3x3_reduce"
  top: "inception_3a/3x3_reduce"
}
layer {
  name: "inception_3a/3x3"
  type: "Convolution"
  bottom: "inception_3a/3x3_reduce"
  top: "inception_3a/3x3"
  param {
    lr_mult: 1
    decay_mult: 1
  }
  param {
    lr_mult: 2
    decay_mult: 0
  }
  convolution_param {
    num_output: 128
    pad: 1
    kernel_size: 3
    weight_filler {
      type: "xavier"
    }
    bias_filler {
      type: "constant"
      value: 0.2
    }
  }
}
layer {
  name: "inception_3a/relu_3x3"
  type: "ReLU"
  bottom: "inception_3a/3x3"
  top: "inception_3a/3x3"
}
layer {
  name: "inception_3a/5x5_reduce"
  type: "Convolution"
  bottom: "pool2/3x3_s2"
  top: "inception_3a/5x5_reduce"
  param {
    lr_mult: 1
    decay_mult: 1
  }
  param {
    lr_mult: 2
    decay_mult: 0
  }
  convolution_param {
    num_output: 16
    kernel_size: 1
    weight_filler {
      type: "xavier"
    }
    bias_filler {
      type: "constant"
      value: 0.2
    }
  }
}
layer {
  name: "inception_3a/relu_5x5_reduce"
  type: "ReLU"
  bottom: "inception_3a/5x5_reduce"
  top: "inception_3a/5x5_reduce"
}
layer {
  name: "inception_3a/5x5"
  type: "Convolution"
  bottom: "inception_3a/5x5_reduce"
  top: "inception_3a/5x5"
  param {
    lr_mult: 1
    decay_mult: 1
  }
  param {
    lr_mult: 2
    decay_mult: 0
  }
  convolution_param {
    num_output: 32
    pad: 2
    kernel_size: 5
    weight_filler {
      type: "xavier"
    }
    bias_filler {
      type: "constant"
      value: 0.2
    }
  }
}
layer {
  name: "inception_3a/relu_5x5"
  type: "ReLU"
  bottom: "inception_3a/5x5"
  top: "inception_3a/5x5"
}
layer {
  name: "inception_3a/pool"
  type: "Pooling"
  bottom: "pool2/3x3_s2"
  top: "inception_3a/pool"
  pooling_param {
    pool: MAX
    kernel_size: 3
    stride: 1
    pad: 1
  }
}
layer {
  name: "inception_3a/pool_proj"
  type: "Convolution"
  bottom: "inception_3a/pool"
  top: "inception_3a/pool_proj"
  param {
    lr_mult: 1
    decay_mult: 1
  }
  param {
    lr_mult: 2
    decay_mult: 0
  }
  convolution_param {
    num_output: 32
    kernel_size: 1
    weight_filler {
      type: "xavier"
    }
    bias_filler {
      type: "constant"
      value: 0.2
    }
  }
}
layer {
  name: "inception_3a/relu_pool_proj"
  type: "ReLU"
  bottom: "inception_3a/pool_proj"
  top: "inception_3a/pool_proj"
}
layer {
  name: "inception_3a/output"
  type: "Concat"
  bottom: "inception_3a/1x1"
  bottom: "inception_3a/3x3"
  bottom: "inception_3a/5x5"
  bottom: "inception_3a/pool_proj"
  top: "inception_3a/output"
}
layer {
  name: "inception_3b/1x1"
  type: "Convolution"
  bottom: "inception_3a/output"
  top: "inception_3b/1x1"
  param {
    lr_mult: 1
    decay_mult: 1
  }
  param {
    lr_mult: 2
    decay_mult: 0
  }
  convolution_param {
    num_output: 128
    kernel_size: 1
    weight_filler {
      type: "xavier"
    }
    bias_filler {
      type: "constant"
      value: 0.2
    }
  }
}
layer {
  name: "inception_3b/relu_1x1"
  type: "ReLU"
  bottom: "inception_3b/1x1"
  top: "inception_3b/1x1"
}
layer {
  name: "inception_3b/3x3_reduce"
  type: "Convolution"
  bottom: "inception_3a/output"
  top: "inception_3b/3x3_reduce"
  param {
    lr_mult: 1
    decay_mult: 1
  }
  param {
    lr_mult: 2
    decay_mult: 0
  }
  convolution_param {
    num_output: 128
    kernel_size: 1
    weight_filler {
      type: "xavier"
    }
    bias_filler {
      type: "constant"
      value: 0.2
    }
  }
}
layer {
  name: "inception_3b/relu_3x3_reduce"
  type: "ReLU"
  bottom: "inception_3b/3x3_reduce"
  top: "inception_3b/3x3_reduce"
}
layer {
  name: "inception_3b/3x3"
  type: "Convolution"
  bottom: "inception_3b/3x3_reduce"
  top: "inception_3b/3x3"
  param {
    lr_mult: 1
    decay_mult: 1
  }
  param {
    lr_mult: 2
    decay_mult: 0
  }
  convolution_param {
    num_output: 192
    pad: 1
    kernel_size: 3
    weight_filler {
      type: "xavier"
    }
    bias_filler {
      type: "constant"
      value: 0.2
    }
  }
}
layer {
  name: "inception_3b/relu_3x3"
  type: "ReLU"
  bottom: "inception_3b/3x3"
  top: "inception_3b/3x3"
}
layer {
  name: "inception_3b/5x5_reduce"
  type: "Convolution"
  bottom: "inception_3a/output"
  top: "inception_3b/5x5_reduce"
  param {
    lr_mult: 1
    decay_mult: 1
  }
  param {
    lr_mult: 2
    decay_mult: 0
  }
  convolution_param {
    num_output: 32
    kernel_size: 1
    weight_filler {
      type: "xavier"
    }
    bias_filler {
      type: "constant"
      value: 0.2
    }
  }
}
layer {
  name: "inception_3b/relu_5x5_reduce"
  type: "ReLU"
  bottom: "inception_3b/5x5_reduce"
  top: "inception_3b/5x5_reduce"
}
layer {
  name: "inception_3b/5x5"
  type: "Convolution"
  bottom: "inception_3b/5x5_reduce"
  top: "inception_3b/5x5"
  param {
    lr_mult: 1
    decay_mult: 1
  }
  param {
    lr_mult: 2
    decay_mult: 0
  }
  convolution_param {
    num_output: 96
    pad: 2
    kernel_size: 5
    weight_filler {
      type: "xavier"
    }
    bias_filler {
      type: "constant"
      value: 0.2
    }
  }
}
layer {
  name: "inception_3b/relu_5x5"
  type: "ReLU"
  bottom: "inception_3b/5x5"
  top: "inception_3b/5x5"
}
layer {
  name: "inception_3b/pool"
  type: "Pooling"
  bottom: "inception_3a/output"
  top: "inception_3b/pool"
  pooling_param {
    pool: MAX
    kernel_size: 3
    stride: 1
    pad: 1
  }
}
layer {
  name: "inception_3b/pool_proj"
  type: "Convolution"
  bottom: "inception_3b/pool"
  top: "inception_3b/pool_proj"
  param {
    lr_mult: 1
    decay_mult: 1
  }
  param {
    lr_mult: 2
    decay_mult: 0
  }
  convolution_param {
    num_output: 64
    kernel_size: 1
    weight_filler {
      type: "xavier"
    }
    bias_filler {
      type: "constant"
      value: 0.2
    }
  }
}
layer {
  name: "inception_3b/relu_pool_proj"
  type: "ReLU"
  bottom: "inception_3b/pool_proj"
  top: "inception_3b/pool_proj"
}
layer {
  name: "inception_3b/output"
  type: "Concat"
  bottom: "inception_3b/1x1"
  bottom: "inception_3b/3x3"
  bottom: "inception_3b/5x5"
  bottom: "inception_3b/pool_proj"
  top: "inception_3b/output"
}
layer {
  name: "pool3/3x3_s2"
  type: "Pooling"
  bottom: "inception_3b/output"
  top: "pool3/3x3_s2"
  pooling_param {
    pool: MAX
    kernel_size: 3
    stride: 2
  }
}
layer {
  name: "inception_4a/1x1"
  type: "Convolution"
  bottom: "pool3/3x3_s2"
  top: "inception_4a/1x1"
  param {
    lr_mult: 1
    decay_mult: 1
  }
  param {
    lr_mult: 2
    decay_mult: 0
  }
  convolution_param {
    num_output: 192
    kernel_size: 1
    weight_filler {
      type: "xavier"
    }
    bias_filler {
      type: "constant"
      value: 0.2
    }
  }
}
layer {
  name: "inception_4a/relu_1x1"
  type: "ReLU"
  bottom: "inception_4a/1x1"
  top: "inception_4a/1x1"
}
layer {
  name: "inception_4a/3x3_reduce"
  type: "Convolution"
  bottom: "pool3/3x3_s2"
  top: "inception_4a/3x3_reduce"
  param {
    lr_mult: 1
    decay_mult: 1
  }
  param {
    lr_mult: 2
    decay_mult: 0
  }
  convolution_param {
    num_output: 96
    kernel_size: 1
    weight_filler {
      type: "xavier"
    }
    bias_filler {
      type: "constant"
      value: 0.2
    }
  }
}
layer {
  name: "inception_4a/relu_3x3_reduce"
  type: "ReLU"
  bottom: "inception_4a/3x3_reduce"
  top: "inception_4a/3x3_reduce"
}
layer {
  name: "inception_4a/3x3"
  type: "Convolution"
  bottom: "inception_4a/3x3_reduce"
  top: "inception_4a/3x3"
  param {
    lr_mult: 1
    decay_mult: 1
  }
  param {
    lr_mult: 2
    decay_mult: 0
  }
  convolution_param {
    num_output: 208
    pad: 1
    kernel_size: 3
    weight_filler {
      type: "xavier"
    }
    bias_filler {
      type: "constant"
      value: 0.2
    }
  }
}
layer {
  name: "inception_4a/relu_3x3"
  type: "ReLU"
  bottom: "inception_4a/3x3"
  top: "inception_4a/3x3"
}
layer {
  name: "inception_4a/5x5_reduce"
  type: "Convolution"
  bottom: "pool3/3x3_s2"
  top: "inception_4a/5x5_reduce"
  param {
    lr_mult: 1
    decay_mult: 1
  }
  param {
    lr_mult: 2
    decay_mult: 0
  }
  convolution_param {
    num_output: 16
    kernel_size: 1
    weight_filler {
      type: "xavier"
    }
    bias_filler {
      type: "constant"
      value: 0.2
    }
  }
}
layer {
  name: "inception_4a/relu_5x5_reduce"
  type: "ReLU"
  bottom: "inception_4a/5x5_reduce"
  top: "inception_4a/5x5_reduce"
}
layer {
  name: "inception_4a/5x5"
  type: "Convolution"
  bottom: "inception_4a/5x5_reduce"
  top: "inception_4a/5x5"
  param {
    lr_mult: 1
    decay_mult: 1
  }
  param {
    lr_mult: 2
    decay_mult: 0
  }
  convolution_param {
    num_output: 48
    pad: 2
    kernel_size: 5
    weight_filler {
      type: "xavier"
    }
    bias_filler {
      type: "constant"
      value: 0.2
    }
  }
}
layer {
  name: "inception_4a/relu_5x5"
  type: "ReLU"
  bottom: "inception_4a/5x5"
  top: "inception_4a/5x5"
}
layer {
  name: "inception_4a/pool"
  type: "Pooling"
  bottom: "pool3/3x3_s2"
  top: "inception_4a/pool"
  pooling_param {
    pool: MAX
    kernel_size: 3
    stride: 1
    pad: 1
  }
}
layer {
  name: "inception_4a/pool_proj"
  type: "Convolution"
  bottom: "inception_4a/pool"
  top: "inception_4a/pool_proj"
  param {
    lr_mult: 1
    decay_mult: 1
  }
  param {
    lr_mult: 2
    decay_mult: 0
  }
  convolution_param {
    num_output: 64
    kernel_size: 1
    weight_filler {
      type: "xavier"
    }
    bias_filler {
      type: "constant"
      value: 0.2
    }
  }
}
layer {
  name: "inception_4a/relu_pool_proj"
  type: "ReLU"
  bottom: "inception_4a/pool_proj"
  top: "inception_4a/pool_proj"
}
layer {
  name: "inception_4a/output"
  type: "Concat"
  bottom: "inception_4a/1x1"
  bottom: "inception_4a/3x3"
  bottom: "inception_4a/5x5"
  bottom: "inception_4a/pool_proj"
  top: "inception_4a/output"
}
layer {
  name: "loss1/ave_pool"
  type: "Pooling"
  bottom: "inception_4a/output"
  top: "loss1/ave_pool"
  pooling_param {
    pool: AVE
    kernel_size: 5
    stride: 3
  }
}
layer {
  name: "loss1/conv"
  type: "Convolution"
  bottom: "loss1/ave_pool"
  top: "loss1/conv"
  param {
    lr_mult: 1
    decay_mult: 1
  }
  param {
    lr_mult: 2
    decay_mult: 0
  }
  convolution_param {
    num_output: 128
    kernel_size: 1
    weight_filler {
      type: "xavier"
    }
    bias_filler {
      type: "constant"
      value: 0.2
    }
  }
}
layer {
  name: "loss1/relu_conv"
  type: "ReLU"
  bottom: "loss1/conv"
  top: "loss1/conv"
}
layer {
  name: "loss1/fc"
  type: "InnerProduct"
  bottom: "loss1/conv"
  top: "loss1/fc"
  param {
    lr_mult: 1
    decay_mult: 1
  }
  param {
    lr_mult: 2
    decay_mult: 0
  }
  inner_product_param {
    num_output: 1024
    weight_filler {
      type: "xavier"
    }
    bias_filler {
      type: "constant"
      value: 0.2
    }
  }
}
layer {
  name: "loss1/relu_fc"
  type: "ReLU"
  bottom: "loss1/fc"
  top: "loss1/fc"
}
layer {
  name: "loss1/drop_fc"
  type: "Dropout"
  bottom: "loss1/fc"
  top: "loss1/fc"
  dropout_param {
    dropout_ratio: 0.7
  }
}
layer {
  name: "loss1/classifier-attribute"
  type: "InnerProduct"
  bottom: "loss1/fc"
  top: "loss1/classifier-attribute"
  param {
    lr_mult: 10
    decay_mult: 1
  }
  param {
    lr_mult: 20
    decay_mult: 0
  }
  inner_product_param {
    num_output: 6
    weight_filler {
      type: "xavier"
    }
    bias_filler {
      type: "constant"
      value: 0
    }
  }
}
layer {
  name: "loss1/loss"
  type: "SoftmaxWithLoss"
  bottom: "loss1/classifier-attribute"
  bottom: "label"
  top: "loss1/loss1"
  loss_weight: 0.3
}
layer {
  name: "inception_4b/1x1"
  type: "Convolution"
  bottom: "inception_4a/output"
  top: "inception_4b/1x1"
  param {
    lr_mult: 1
    decay_mult: 1
  }
  param {
    lr_mult: 2
    decay_mult: 0
  }
  convolution_param {
    num_output: 160
    kernel_size: 1
    weight_filler {
      type: "xavier"
    }
    bias_filler {
      type: "constant"
      value: 0.2
    }
  }
}
layer {
  name: "inception_4b/relu_1x1"
  type: "ReLU"
  bottom: "inception_4b/1x1"
  top: "inception_4b/1x1"
}
layer {
  name: "inception_4b/3x3_reduce"
  type: "Convolution"
  bottom: "inception_4a/output"
  top: "inception_4b/3x3_reduce"
  param {
    lr_mult: 1
    decay_mult: 1
  }
  param {
    lr_mult: 2
    decay_mult: 0
  }
  convolution_param {
    num_output: 112
    kernel_size: 1
    weight_filler {
      type: "xavier"
    }
    bias_filler {
      type: "constant"
      value: 0.2
    }
  }
}
layer {
  name: "inception_4b/relu_3x3_reduce"
  type: "ReLU"
  bottom: "inception_4b/3x3_reduce"
  top: "inception_4b/3x3_reduce"
}
layer {
  name: "inception_4b/3x3"
  type: "Convolution"
  bottom: "inception_4b/3x3_reduce"
  top: "inception_4b/3x3"
  param {
    lr_mult: 1
    decay_mult: 1
  }
  param {
    lr_mult: 2
    decay_mult: 0
  }
  convolution_param {
    num_output: 224
    pad: 1
    kernel_size: 3
    weight_filler {
      type: "xavier"
    }
    bias_filler {
      type: "constant"
      value: 0.2
    }
  }
}
layer {
  name: "inception_4b/relu_3x3"
  type: "ReLU"
  bottom: "inception_4b/3x3"
  top: "inception_4b/3x3"
}
layer {
  name: "inception_4b/5x5_reduce"
  type: "Convolution"
  bottom: "inception_4a/output"
  top: "inception_4b/5x5_reduce"
  param {
    lr_mult: 1
    decay_mult: 1
  }
  param {
    lr_mult: 2
    decay_mult: 0
  }
  convolution_param {
    num_output: 24
    kernel_size: 1
    weight_filler {
      type: "xavier"
    }
    bias_filler {
      type: "constant"
      value: 0.2
    }
  }
}
layer {
  name: "inception_4b/relu_5x5_reduce"
  type: "ReLU"
  bottom: "inception_4b/5x5_reduce"
  top: "inception_4b/5x5_reduce"
}
layer {
  name: "inception_4b/5x5"
  type: "Convolution"
  bottom: "inception_4b/5x5_reduce"
  top: "inception_4b/5x5"
  param {
    lr_mult: 1
    decay_mult: 1
  }
  param {
    lr_mult: 2
    decay_mult: 0
  }
  convolution_param {
    num_output: 64
    pad: 2
    kernel_size: 5
    weight_filler {
      type: "xavier"
    }
    bias_filler {
      type: "constant"
      value: 0.2
    }
  }
}
layer {
  name: "inception_4b/relu_5x5"
  type: "ReLU"
  bottom: "inception_4b/5x5"
  top: "inception_4b/5x5"
}
layer {
  name: "inception_4b/pool"
  type: "Pooling"
  bottom: "inception_4a/output"
  top: "inception_4b/pool"
  pooling_param {
    pool: MAX
    kernel_size: 3
    stride: 1
    pad: 1
  }
}
layer {
  name: "inception_4b/pool_proj"
  type: "Convolution"
  bottom: "inception_4b/pool"
  top: "inception_4b/pool_proj"
  param {
    lr_mult: 1
    decay_mult: 1
  }
  param {
    lr_mult: 2
    decay_mult: 0
  }
  convolution_param {
    num_output: 64
    kernel_size: 1
    weight_filler {
      type: "xavier"
    }
    bias_filler {
      type: "constant"
      value: 0.2
    }
  }
}
layer {
  name: "inception_4b/relu_pool_proj"
  type: "ReLU"
  bottom: "inception_4b/pool_proj"
  top: "inception_4b/pool_proj"
}
layer {
  name: "inception_4b/output"
  type: "Concat"
  bottom: "inception_4b/1x1"
  bottom: "inception_4b/3x3"
  bottom: "inception_4b/5x5"
  bottom: "inception_4b/pool_proj"
  top: "inception_4b/output"
}
layer {
  name: "inception_4c/1x1"
  type: "Convolution"
  bottom: "inception_4b/output"
  top: "inception_4c/1x1"
  param {
    lr_mult: 1
    decay_mult: 1
  }
  param {
    lr_mult: 2
    decay_mult: 0
  }
  convolution_param {
    num_output: 128
    kernel_size: 1
    weight_filler {
      type: "xavier"
    }
    bias_filler {
      type: "constant"
      value: 0.2
    }
  }
}
layer {
  name: "inception_4c/relu_1x1"
  type: "ReLU"
  bottom: "inception_4c/1x1"
  top: "inception_4c/1x1"
}
layer {
  name: "inception_4c/3x3_reduce"
  type: "Convolution"
  bottom: "inception_4b/output"
  top: "inception_4c/3x3_reduce"
  param {
    lr_mult: 1
    decay_mult: 1
  }
  param {
    lr_mult: 2
    decay_mult: 0
  }
  convolution_param {
    num_output: 128
    kernel_size: 1
    weight_filler {
      type: "xavier"
    }
    bias_filler {
      type: "constant"
      value: 0.2
    }
  }
}
layer {
  name: "inception_4c/relu_3x3_reduce"
  type: "ReLU"
  bottom: "inception_4c/3x3_reduce"
  top: "inception_4c/3x3_reduce"
}
layer {
  name: "inception_4c/3x3"
  type: "Convolution"
  bottom: "inception_4c/3x3_reduce"
  top: "inception_4c/3x3"
  param {
    lr_mult: 1
    decay_mult: 1
  }
  param {
    lr_mult: 2
    decay_mult: 0
  }
  convolution_param {
    num_output: 256
    pad: 1
    kernel_size: 3
    weight_filler {
      type: "xavier"
    }
    bias_filler {
      type: "constant"
      value: 0.2
    }
  }
}
layer {
  name: "inception_4c/relu_3x3"
  type: "ReLU"
  bottom: "inception_4c/3x3"
  top: "inception_4c/3x3"
}
layer {
  name: "inception_4c/5x5_reduce"
  type: "Convolution"
  bottom: "inception_4b/output"
  top: "inception_4c/5x5_reduce"
  param {
    lr_mult: 1
    decay_mult: 1
  }
  param {
    lr_mult: 2
    decay_mult: 0
  }
  convolution_param {
    num_output: 24
    kernel_size: 1
    weight_filler {
      type: "xavier"
    }
    bias_filler {
      type: "constant"
      value: 0.2
    }
  }
}
layer {
  name: "inception_4c/relu_5x5_reduce"
  type: "ReLU"
  bottom: "inception_4c/5x5_reduce"
  top: "inception_4c/5x5_reduce"
}
layer {
  name: "inception_4c/5x5"
  type: "Convolution"
  bottom: "inception_4c/5x5_reduce"
  top: "inception_4c/5x5"
  param {
    lr_mult: 1
    decay_mult: 1
  }
  param {
    lr_mult: 2
    decay_mult: 0
  }
  convolution_param {
    num_output: 64
    pad: 2
    kernel_size: 5
    weight_filler {
      type: "xavier"
    }
    bias_filler {
      type: "constant"
      value: 0.2
    }
  }
}
layer {
  name: "inception_4c/relu_5x5"
  type: "ReLU"
  bottom: "inception_4c/5x5"
  top: "inception_4c/5x5"
}
layer {
  name: "inception_4c/pool"
  type: "Pooling"
  bottom: "inception_4b/output"
  top: "inception_4c/pool"
  pooling_param {
    pool: MAX
    kernel_size: 3
    stride: 1
    pad: 1
  }
}
layer {
  name: "inception_4c/pool_proj"
  type: "Convolution"
  bottom: "inception_4c/pool"
  top: "inception_4c/pool_proj"
  param {
    lr_mult: 1
    decay_mult: 1
  }
  param {
    lr_mult: 2
    decay_mult: 0
  }
  convolution_param {
    num_output: 64
    kernel_size: 1
    weight_filler {
      type: "xavier"
    }
    bias_filler {
      type: "constant"
      value: 0.2
    }
  }
}
layer {
  name: "inception_4c/relu_pool_proj"
  type: "ReLU"
  bottom: "inception_4c/pool_proj"
  top: "inception_4c/pool_proj"
}
layer {
  name: "inception_4c/output"
  type: "Concat"
  bottom: "inception_4c/1x1"
  bottom: "inception_4c/3x3"
  bottom: "inception_4c/5x5"
  bottom: "inception_4c/pool_proj"
  top: "inception_4c/output"
}
layer {
  name: "inception_4d/1x1"
  type: "Convolution"
  bottom: "inception_4c/output"
  top: "inception_4d/1x1"
  param {
    lr_mult: 1
    decay_mult: 1
  }
  param {
    lr_mult: 2
    decay_mult: 0
  }
  convolution_param {
    num_output: 112
    kernel_size: 1
    weight_filler {
      type: "xavier"
    }
    bias_filler {
      type: "constant"
      value: 0.2
    }
  }
}
layer {
  name: "inception_4d/relu_1x1"
  type: "ReLU"
  bottom: "inception_4d/1x1"
  top: "inception_4d/1x1"
}
layer {
  name: "inception_4d/3x3_reduce"
  type: "Convolution"
  bottom: "inception_4c/output"
  top: "inception_4d/3x3_reduce"
  param {
    lr_mult: 1
    decay_mult: 1
  }
  param {
    lr_mult: 2
    decay_mult: 0
  }
  convolution_param {
    num_output: 144
    kernel_size: 1
    weight_filler {
      type: "xavier"
    }
    bias_filler {
      type: "constant"
      value: 0.2
    }
  }
}
layer {
  name: "inception_4d/relu_3x3_reduce"
  type: "ReLU"
  bottom: "inception_4d/3x3_reduce"
  top: "inception_4d/3x3_reduce"
}
layer {
  name: "inception_4d/3x3"
  type: "Convolution"
  bottom: "inception_4d/3x3_reduce"
  top: "inception_4d/3x3"
  param {
    lr_mult: 1
    decay_mult: 1
  }
  param {
    lr_mult: 2
    decay_mult: 0
  }
  convolution_param {
    num_output: 288
    pad: 1
    kernel_size: 3
    weight_filler {
      type: "xavier"
    }
    bias_filler {
      type: "constant"
      value: 0.2
    }
  }
}
layer {
  name: "inception_4d/relu_3x3"
  type: "ReLU"
  bottom: "inception_4d/3x3"
  top: "inception_4d/3x3"
}
layer {
  name: "inception_4d/5x5_reduce"
  type: "Convolution"
  bottom: "inception_4c/output"
  top: "inception_4d/5x5_reduce"
  param {
    lr_mult: 1
    decay_mult: 1
  }
  param {
    lr_mult: 2
    decay_mult: 0
  }
  convolution_param {
    num_output: 32
    kernel_size: 1
    weight_filler {
      type: "xavier"
    }
    bias_filler {
      type: "constant"
      value: 0.2
    }
  }
}
layer {
  name: "inception_4d/relu_5x5_reduce"
  type: "ReLU"
  bottom: "inception_4d/5x5_reduce"
  top: "inception_4d/5x5_reduce"
}
layer {
  name: "inception_4d/5x5"
  type: "Convolution"
  bottom: "inception_4d/5x5_reduce"
  top: "inception_4d/5x5"
  param {
    lr_mult: 1
    decay_mult: 1
  }
  param {
    lr_mult: 2
    decay_mult: 0
  }
  convolution_param {
    num_output: 64
    pad: 2
    kernel_size: 5
    weight_filler {
      type: "xavier"
    }
    bias_filler {
      type: "constant"
      value: 0.2
    }
  }
}
layer {
  name: "inception_4d/relu_5x5"
  type: "ReLU"
  bottom: "inception_4d/5x5"
  top: "inception_4d/5x5"
}
layer {
  name: "inception_4d/pool"
  type: "Pooling"
  bottom: "inception_4c/output"
  top: "inception_4d/pool"
  pooling_param {
    pool: MAX
    kernel_size: 3
    stride: 1
    pad: 1
  }
}
layer {
  name: "inception_4d/pool_proj"
  type: "Convolution"
  bottom: "inception_4d/pool"
  top: "inception_4d/pool_proj"
  param {
    lr_mult: 1
    decay_mult: 1
  }
  param {
    lr_mult: 2
    decay_mult: 0
  }
  convolution_param {
    num_output: 64
    kernel_size: 1
    weight_filler {
      type: "xavier"
    }
    bias_filler {
      type: "constant"
      value: 0.2
    }
  }
}
layer {
  name: "inception_4d/relu_pool_proj"
  type: "ReLU"
  bottom: "inception_4d/pool_proj"
  top: "inception_4d/pool_proj"
}
layer {
  name: "inception_4d/output"
  type: "Concat"
  bottom: "inception_4d/1x1"
  bottom: "inception_4d/3x3"
  bottom: "inception_4d/5x5"
  bottom: "inception_4d/pool_proj"
  top: "inception_4d/output"
}
layer {
  name: "loss2/ave_pool"
  type: "Pooling"
  bottom: "inception_4d/output"
  top: "loss2/ave_pool"
  pooling_param {
    pool: AVE
    kernel_size: 5
    stride: 3
  }
}
layer {
  name: "loss2/conv"
  type: "Convolution"
  bottom: "loss2/ave_pool"
  top: "loss2/conv"
  param {
    lr_mult: 1
    decay_mult: 1
  }
  param {
    lr_mult: 2
    decay_mult: 0
  }
  convolution_param {
    num_output: 128
    kernel_size: 1
    weight_filler {
      type: "xavier"
    }
    bias_filler {
      type: "constant"
      value: 0.2
    }
  }
}
layer {
  name: "loss2/relu_conv"
  type: "ReLU"
  bottom: "loss2/conv"
  top: "loss2/conv"
}
layer {
  name: "loss2/fc"
  type: "InnerProduct"
  bottom: "loss2/conv"
  top: "loss2/fc"
  param {
    lr_mult: 1
    decay_mult: 1
  }
  param {
    lr_mult: 2
    decay_mult: 0
  }
  inner_product_param {
    num_output: 1024
    weight_filler {
      type: "xavier"
    }
    bias_filler {
      type: "constant"
      value: 0.2
    }
  }
}
layer {
  name: "loss2/relu_fc"
  type: "ReLU"
  bottom: "loss2/fc"
  top: "loss2/fc"
}
layer {
  name: "loss2/drop_fc"
  type: "Dropout"
  bottom: "loss2/fc"
  top: "loss2/fc"
  dropout_param {
    dropout_ratio: 0.7
  }
}
layer {
  name: "loss2/classifier-attribute"
  type: "InnerProduct"
  bottom: "loss2/fc"
  top: "loss2/classifier-attribute"
  param {
    lr_mult: 10
    decay_mult: 1
  }
  param {
    lr_mult: 20
    decay_mult: 0
  }
  inner_product_param {
    num_output: 6
    weight_filler {
      type: "xavier"
    }
    bias_filler {
      type: "constant"
      value: 0
    }
  }
}
layer {
  name: "loss2/loss"
  type: "SoftmaxWithLoss"
  bottom: "loss2/classifier-attribute"
  bottom: "label"
  top: "loss2/loss1"
  loss_weight: 0.3
}
layer {
  name: "inception_4e/1x1"
  type: "Convolution"
  bottom: "inception_4d/output"
  top: "inception_4e/1x1"
  param {
    lr_mult: 1
    decay_mult: 1
  }
  param {
    lr_mult: 2
    decay_mult: 0
  }
  convolution_param {
    num_output: 256
    kernel_size: 1
    weight_filler {
      type: "xavier"
    }
    bias_filler {
      type: "constant"
      value: 0.2
    }
  }
}
layer {
  name: "inception_4e/relu_1x1"
  type: "ReLU"
  bottom: "inception_4e/1x1"
  top: "inception_4e/1x1"
}
layer {
  name: "inception_4e/3x3_reduce"
  type: "Convolution"
  bottom: "inception_4d/output"
  top: "inception_4e/3x3_reduce"
  param {
    lr_mult: 1
    decay_mult: 1
  }
  param {
    lr_mult: 2
    decay_mult: 0
  }
  convolution_param {
    num_output: 160
    kernel_size: 1
    weight_filler {
      type: "xavier"
    }
    bias_filler {
      type: "constant"
      value: 0.2
    }
  }
}
layer {
  name: "inception_4e/relu_3x3_reduce"
  type: "ReLU"
  bottom: "inception_4e/3x3_reduce"
  top: "inception_4e/3x3_reduce"
}
layer {
  name: "inception_4e/3x3"
  type: "Convolution"
  bottom: "inception_4e/3x3_reduce"
  top: "inception_4e/3x3"
  param {
    lr_mult: 1
    decay_mult: 1
  }
  param {
    lr_mult: 2
    decay_mult: 0
  }
  convolution_param {
    num_output: 320
    pad: 1
    kernel_size: 3
    weight_filler {
      type: "xavier"
    }
    bias_filler {
      type: "constant"
      value: 0.2
    }
  }
}
layer {
  name: "inception_4e/relu_3x3"
  type: "ReLU"
  bottom: "inception_4e/3x3"
  top: "inception_4e/3x3"
}
layer {
  name: "inception_4e/5x5_reduce"
  type: "Convolution"
  bottom: "inception_4d/output"
  top: "inception_4e/5x5_reduce"
  param {
    lr_mult: 1
    decay_mult: 1
  }
  param {
    lr_mult: 2
    decay_mult: 0
  }
  convolution_param {
    num_output: 32
    kernel_size: 1
    weight_filler {
      type: "xavier"
    }
    bias_filler {
      type: "constant"
      value: 0.2
    }
  }
}
layer {
  name: "inception_4e/relu_5x5_reduce"
  type: "ReLU"
  bottom: "inception_4e/5x5_reduce"
  top: "inception_4e/5x5_reduce"
}
layer {
  name: "inception_4e/5x5"
  type: "Convolution"
  bottom: "inception_4e/5x5_reduce"
  top: "inception_4e/5x5"
  param {
    lr_mult: 1
    decay_mult: 1
  }
  param {
    lr_mult: 2
    decay_mult: 0
  }
  convolution_param {
    num_output: 128
    pad: 2
    kernel_size: 5
    weight_filler {
      type: "xavier"
    }
    bias_filler {
      type: "constant"
      value: 0.2
    }
  }
}
layer {
  name: "inception_4e/relu_5x5"
  type: "ReLU"
  bottom: "inception_4e/5x5"
  top: "inception_4e/5x5"
}
layer {
  name: "inception_4e/pool"
  type: "Pooling"
  bottom: "inception_
I1125 19:29:25.101968 18053 layer_factory.hpp:76] Creating layer data
I1125 19:29:25.102041 18053 net.cpp:106] Creating Layer data
I1125 19:29:25.102064 18053 net.cpp:411] data -> data
I1125 19:29:25.102119 18053 net.cpp:411] data -> label
I1125 19:29:25.102937 18053 image_data_layer.cpp:36] Opening file pad_train.txt
I1125 19:29:25.150293 18053 image_data_layer.cpp:46] Shuffling data
I1125 19:29:25.154037 18053 image_data_layer.cpp:51] A total of 47423 images.
I1125 19:29:25.169124 18053 image_data_layer.cpp:78] output data size: 64,3,224,224
I1125 19:29:25.222439 18053 net.cpp:150] Setting up data
I1125 19:29:25.222483 18053 net.cpp:157] Top shape: 64 3 224 224 (9633792)
I1125 19:29:25.222489 18053 net.cpp:157] Top shape: 64 (64)
I1125 19:29:25.222492 18053 net.cpp:165] Memory required for data: 38535424
I1125 19:29:25.222501 18053 layer_factory.hpp:76] Creating layer label_data_1_split
I1125 19:29:25.222523 18053 net.cpp:106] Creating Layer label_data_1_split
I1125 19:29:25.222532 18053 net.cpp:454] label_data_1_split <- label
I1125 19:29:25.222545 18053 net.cpp:411] label_data_1_split -> label_data_1_split_0
I1125 19:29:25.222554 18053 net.cpp:411] label_data_1_split -> label_data_1_split_1
I1125 19:29:25.222560 18053 net.cpp:411] label_data_1_split -> label_data_1_split_2
I1125 19:29:25.222661 18053 net.cpp:150] Setting up label_data_1_split
I1125 19:29:25.222671 18053 net.cpp:157] Top shape: 64 (64)
I1125 19:29:25.222676 18053 net.cpp:157] Top shape: 64 (64)
I1125 19:29:25.222681 18053 net.cpp:157] Top shape: 64 (64)
I1125 19:29:25.222683 18053 net.cpp:165] Memory required for data: 38536192
I1125 19:29:25.222687 18053 layer_factory.hpp:76] Creating layer conv1/7x7_s2
I1125 19:29:25.222702 18053 net.cpp:106] Creating Layer conv1/7x7_s2
I1125 19:29:25.222708 18053 net.cpp:454] conv1/7x7_s2 <- data
I1125 19:29:25.222714 18053 net.cpp:411] conv1/7x7_s2 -> conv1/7x7_s2
I1125 19:29:25.384311 18053 net.cpp:150] Setting up conv1/7x7_s2
I1125 19:29:25.384338 18053 net.cpp:157] Top shape: 64 64 112 112 (51380224)
I1125 19:29:25.384343 18053 net.cpp:165] Memory required for data: 244057088
I1125 19:29:25.384366 18053 layer_factory.hpp:76] Creating layer conv1/relu_7x7
I1125 19:29:25.384377 18053 net.cpp:106] Creating Layer conv1/relu_7x7
I1125 19:29:25.384382 18053 net.cpp:454] conv1/relu_7x7 <- conv1/7x7_s2
I1125 19:29:25.384388 18053 net.cpp:397] conv1/relu_7x7 -> conv1/7x7_s2 (in-place)
I1125 19:29:25.384690 18053 net.cpp:150] Setting up conv1/relu_7x7
I1125 19:29:25.384703 18053 net.cpp:157] Top shape: 64 64 112 112 (51380224)
I1125 19:29:25.384707 18053 net.cpp:165] Memory required for data: 449577984
I1125 19:29:25.384711 18053 layer_factory.hpp:76] Creating layer pool1/3x3_s2
I1125 19:29:25.384742 18053 net.cpp:106] Creating Layer pool1/3x3_s2
I1125 19:29:25.384744 18053 net.cpp:454] pool1/3x3_s2 <- conv1/7x7_s2
I1125 19:29:25.384752 18053 net.cpp:411] pool1/3x3_s2 -> pool1/3x3_s2
I1125 19:29:25.384940 18053 net.cpp:150] Setting up pool1/3x3_s2
I1125 19:29:25.384951 18053 net.cpp:157] Top shape: 64 64 56 56 (12845056)
I1125 19:29:25.384955 18053 net.cpp:165] Memory required for data: 500958208
I1125 19:29:25.384958 18053 layer_factory.hpp:76] Creating layer pool1/norm1
I1125 19:29:25.384969 18053 net.cpp:106] Creating Layer pool1/norm1
I1125 19:29:25.384973 18053 net.cpp:454] pool1/norm1 <- pool1/3x3_s2
I1125 19:29:25.384977 18053 net.cpp:411] pool1/norm1 -> pool1/norm1
I1125 19:29:25.385292 18053 net.cpp:150] Setting up pool1/norm1
I1125 19:29:25.385304 18053 net.cpp:157] Top shape: 64 64 56 56 (12845056)
I1125 19:29:25.385308 18053 net.cpp:165] Memory required for data: 552338432
I1125 19:29:25.385311 18053 layer_factory.hpp:76] Creating layer conv2/3x3_reduce
I1125 19:29:25.385323 18053 net.cpp:106] Creating Layer conv2/3x3_reduce
I1125 19:29:25.385325 18053 net.cpp:454] conv2/3x3_reduce <- pool1/norm1
I1125 19:29:25.385331 18053 net.cpp:411] conv2/3x3_reduce -> conv2/3x3_reduce
I1125 19:29:25.386579 18053 net.cpp:150] Setting up conv2/3x3_reduce
I1125 19:29:25.386596 18053 net.cpp:157] Top shape: 64 64 56 56 (12845056)
I1125 19:29:25.386600 18053 net.cpp:165] Memory required for data: 603718656
I1125 19:29:25.386610 18053 layer_factory.hpp:76] Creating layer conv2/relu_3x3_reduce
I1125 19:29:25.386616 18053 net.cpp:106] Creating Layer conv2/relu_3x3_reduce
I1125 19:29:25.386620 18053 net.cpp:454] conv2/relu_3x3_reduce <- conv2/3x3_reduce
I1125 19:29:25.386625 18053 net.cpp:397] conv2/relu_3x3_reduce -> conv2/3x3_reduce (in-place)
I1125 19:29:25.386917 18053 net.cpp:150] Setting up conv2/relu_3x3_reduce
I1125 19:29:25.386930 18053 net.cpp:157] Top shape: 64 64 56 56 (12845056)
I1125 19:29:25.386934 18053 net.cpp:165] Memory required for data: 655098880
I1125 19:29:25.386939 18053 layer_factory.hpp:76] Creating layer conv2/3x3
I1125 19:29:25.386947 18053 net.cpp:106] Creating Layer conv2/3x3
I1125 19:29:25.386951 18053 net.cpp:454] conv2/3x3 <- conv2/3x3_reduce
I1125 19:29:25.386957 18053 net.cpp:411] conv2/3x3 -> conv2/3x3
I1125 19:29:25.388968 18053 net.cpp:150] Setting up conv2/3x3
I1125 19:29:25.388984 18053 net.cpp:157] Top shape: 64 192 56 56 (38535168)
I1125 19:29:25.388988 18053 net.cpp:165] Memory required for data: 809239552
I1125 19:29:25.388998 18053 layer_factory.hpp:76] Creating layer conv2/relu_3x3
I1125 19:29:25.389003 18053 net.cpp:106] Creating Layer conv2/relu_3x3
I1125 19:29:25.389006 18053 net.cpp:454] conv2/relu_3x3 <- conv2/3x3
I1125 19:29:25.389013 18053 net.cpp:397] conv2/relu_3x3 -> conv2/3x3 (in-place)
I1125 19:29:25.389160 18053 net.cpp:150] Setting up conv2/relu_3x3
I1125 19:29:25.389170 18053 net.cpp:157] Top shape: 64 192 56 56 (38535168)
I1125 19:29:25.389174 18053 net.cpp:165] Memory required for data: 963380224
I1125 19:29:25.389178 18053 layer_factory.hpp:76] Creating layer conv2/norm2
I1125 19:29:25.389184 18053 net.cpp:106] Creating Layer conv2/norm2
I1125 19:29:25.389189 18053 net.cpp:454] conv2/norm2 <- conv2/3x3
I1125 19:29:25.389194 18053 net.cpp:411] conv2/norm2 -> conv2/norm2
I1125 19:29:25.389504 18053 net.cpp:150] Setting up conv2/norm2
I1125 19:29:25.389518 18053 net.cpp:157] Top shape: 64 192 56 56 (38535168)
I1125 19:29:25.389521 18053 net.cpp:165] Memory required for data: 1117520896
I1125 19:29:25.389525 18053 layer_factory.hpp:76] Creating layer pool2/3x3_s2
I1125 19:29:25.389533 18053 net.cpp:106] Creating Layer pool2/3x3_s2
I1125 19:29:25.389535 18053 net.cpp:454] pool2/3x3_s2 <- conv2/norm2
I1125 19:29:25.389541 18053 net.cpp:411] pool2/3x3_s2 -> pool2/3x3_s2
I1125 19:29:25.389709 18053 net.cpp:150] Setting up pool2/3x3_s2
I1125 19:29:25.389720 18053 net.cpp:157] Top shape: 64 192 28 28 (9633792)
I1125 19:29:25.389724 18053 net.cpp:165] Memory required for data: 1156056064
I1125 19:29:25.389726 18053 layer_factory.hpp:76] Creating layer pool2/3x3_s2_pool2/3x3_s2_0_split
I1125 19:29:25.389734 18053 net.cpp:106] Creating Layer pool2/3x3_s2_pool2/3x3_s2_0_split
I1125 19:29:25.389737 18053 net.cpp:454] pool2/3x3_s2_pool2/3x3_s2_0_split <- pool2/3x3_s2
I1125 19:29:25.389742 18053 net.cpp:411] pool2/3x3_s2_pool2/3x3_s2_0_split -> pool2/3x3_s2_pool2/3x3_s2_0_split_0
I1125 19:29:25.389749 18053 net.cpp:411] pool2/3x3_s2_pool2/3x3_s2_0_split -> pool2/3x3_s2_pool2/3x3_s2_0_split_1
I1125 19:29:25.389755 18053 net.cpp:411] pool2/3x3_s2_pool2/3x3_s2_0_split -> pool2/3x3_s2_pool2/3x3_s2_0_split_2
I1125 19:29:25.389760 18053 net.cpp:411] pool2/3x3_s2_pool2/3x3_s2_0_split -> pool2/3x3_s2_pool2/3x3_s2_0_split_3
I1125 19:29:25.389807 18053 net.cpp:150] Setting up pool2/3x3_s2_pool2/3x3_s2_0_split
I1125 19:29:25.389814 18053 net.cpp:157] Top shape: 64 192 28 28 (9633792)
I1125 19:29:25.389818 18053 net.cpp:157] Top shape: 64 192 28 28 (9633792)
I1125 19:29:25.389822 18053 net.cpp:157] Top shape: 64 192 28 28 (9633792)
I1125 19:29:25.389825 18053 net.cpp:157] Top shape: 64 192 28 28 (9633792)
I1125 19:29:25.389828 18053 net.cpp:165] Memory required for data: 1310196736
I1125 19:29:25.389919 18053 layer_factory.hpp:76] Creating layer inception_3a/1x1
I1125 19:29:25.389927 18053 net.cpp:106] Creating Layer inception_3a/1x1
I1125 19:29:25.389933 18053 net.cpp:454] inception_3a/1x1 <- pool2/3x3_s2_pool2/3x3_s2_0_split_0
I1125 19:29:25.389940 18053 net.cpp:411] inception_3a/1x1 -> inception_3a/1x1
I1125 19:29:25.391337 18053 net.cpp:150] Setting up inception_3a/1x1
I1125 19:29:25.391353 18053 net.cpp:157] Top shape: 64 64 28 28 (3211264)
I1125 19:29:25.391357 18053 net.cpp:165] Memory required for data: 1323041792
I1125 19:29:25.391365 18053 layer_factory.hpp:76] Creating layer inception_3a/relu_1x1
I1125 19:29:25.391371 18053 net.cpp:106] Creating Layer inception_3a/relu_1x1
I1125 19:29:25.391374 18053 net.cpp:454] inception_3a/relu_1x1 <- inception_3a/1x1
I1125 19:29:25.391381 18053 net.cpp:397] inception_3a/relu_1x1 -> inception_3a/1x1 (in-place)
I1125 19:29:25.391672 18053 net.cpp:150] Setting up inception_3a/relu_1x1
I1125 19:29:25.391686 18053 net.cpp:157] Top shape: 64 64 28 28 (3211264)
I1125 19:29:25.391690 18053 net.cpp:165] Memory required for data: 1335886848
I1125 19:29:25.391693 18053 layer_factory.hpp:76] Creating layer inception_3a/3x3_reduce
I1125 19:29:25.391701 18053 net.cpp:106] Creating Layer inception_3a/3x3_reduce
I1125 19:29:25.391706 18053 net.cpp:454] inception_3a/3x3_reduce <- pool2/3x3_s2_pool2/3x3_s2_0_split_1
I1125 19:29:25.391712 18053 net.cpp:411] inception_3a/3x3_reduce -> inception_3a/3x3_reduce
I1125 19:29:25.393167 18053 net.cpp:150] Setting up inception_3a/3x3_reduce
I1125 19:29:25.393182 18053 net.cpp:157] Top shape: 64 96 28 28 (4816896)
I1125 19:29:25.393187 18053 net.cpp:165] Memory required for data: 1355154432
I1125 19:29:25.393195 18053 layer_factory.hpp:76] Creating layer inception_3a/relu_3x3_reduce
I1125 19:29:25.393203 18053 net.cpp:106] Creating Layer inception_3a/relu_3x3_reduce
I1125 19:29:25.393208 18053 net.cpp:454] inception_3a/relu_3x3_reduce <- inception_3a/3x3_reduce
I1125 19:29:25.393213 18053 net.cpp:397] inception_3a/relu_3x3_reduce -> inception_3a/3x3_reduce (in-place)
I1125 19:29:25.393368 18053 net.cpp:150] Setting up inception_3a/relu_3x3_reduce
I1125 19:29:25.393378 18053 net.cpp:157] Top shape: 64 96 28 28 (4816896)
I1125 19:29:25.393381 18053 net.cpp:165] Memory required for data: 1374422016
I1125 19:29:25.393384 18053 layer_factory.hpp:76] Creating layer inception_3a/3x3
I1125 19:29:25.393393 18053 net.cpp:106] Creating Layer inception_3a/3x3
I1125 19:29:25.393396 18053 net.cpp:454] inception_3a/3x3 <- inception_3a/3x3_reduce
I1125 19:29:25.393403 18053 net.cpp:411] inception_3a/3x3 -> inception_3a/3x3
I1125 19:29:25.395149 18053 net.cpp:150] Setting up inception_3a/3x3
I1125 19:29:25.395164 18053 net.cpp:157] Top shape: 64 128 28 28 (6422528)
I1125 19:29:25.395169 18053 net.cpp:165] Memory required for data: 1400112128
I1125 19:29:25.395175 18053 layer_factory.hpp:76] Creating layer inception_3a/relu_3x3
I1125 19:29:25.395180 18053 net.cpp:106] Creating Layer inception_3a/relu_3x3
I1125 19:29:25.395184 18053 net.cpp:454] inception_3a/relu_3x3 <- inception_3a/3x3
I1125 19:29:25.395190 18053 net.cpp:397] inception_3a/relu_3x3 -> inception_3a/3x3 (in-place)
I1125 19:29:25.395341 18053 net.cpp:150] Setting up inception_3a/relu_3x3
I1125 19:29:25.395352 18053 net.cpp:157] Top shape: 64 128 28 28 (6422528)
I1125 19:29:25.395355 18053 net.cpp:165] Memory required for data: 1425802240
I1125 19:29:25.395359 18053 layer_factory.hpp:76] Creating layer inception_3a/5x5_reduce
I1125 19:29:25.395365 18053 net.cpp:106] Creating Layer inception_3a/5x5_reduce
I1125 19:29:25.395370 18053 net.cpp:454] inception_3a/5x5_reduce <- pool2/3x3_s2_pool2/3x3_s2_0_split_2
I1125 19:29:25.395375 18053 net.cpp:411] inception_3a/5x5_reduce -> inception_3a/5x5_reduce
I1125 19:29:25.396319 18053 net.cpp:150] Setting up inception_3a/5x5_reduce
I1125 19:29:25.396333 18053 net.cpp:157] Top shape: 64 16 28 28 (802816)
I1125 19:29:25.396337 18053 net.cpp:165] Memory required for data: 1429013504
I1125 19:29:25.396343 18053 layer_factory.hpp:76] Creating layer inception_3a/relu_5x5_reduce
I1125 19:29:25.396349 18053 net.cpp:106] Creating Layer inception_3a/relu_5x5_reduce
I1125 19:29:25.396353 18053 net.cpp:454] inception_3a/relu_5x5_reduce <- inception_3a/5x5_reduce
I1125 19:29:25.396358 18053 net.cpp:397] inception_3a/relu_5x5_reduce -> inception_3a/5x5_reduce (in-place)
I1125 19:29:25.396647 18053 net.cpp:150] Setting up inception_3a/relu_5x5_reduce
I1125 19:29:25.396667 18053 net.cpp:157] Top shape: 64 16 28 28 (802816)
I1125 19:29:25.396669 18053 net.cpp:165] Memory required for data: 1432224768
I1125 19:29:25.396673 18053 layer_factory.hpp:76] Creating layer inception_3a/5x5
I1125 19:29:25.396682 18053 net.cpp:106] Creating Layer inception_3a/5x5
I1125 19:29:25.396685 18053 net.cpp:454] inception_3a/5x5 <- inception_3a/5x5_reduce
I1125 19:29:25.396692 18053 net.cpp:411] inception_3a/5x5 -> inception_3a/5x5
I1125 19:29:25.397666 18053 net.cpp:150] Setting up inception_3a/5x5
I1125 19:29:25.397681 18053 net.cpp:157] Top shape: 64 32 28 28 (1605632)
I1125 19:29:25.397685 18053 net.cpp:165] Memory required for data: 1438647296
I1125 19:29:25.397691 18053 layer_factory.hpp:76] Creating layer inception_3a/relu_5x5
I1125 19:29:25.397696 18053 net.cpp:106] Creating Layer inception_3a/relu_5x5
I1125 19:29:25.397701 18053 net.cpp:454] inception_3a/relu_5x5 <- inception_3a/5x5
I1125 19:29:25.397706 18053 net.cpp:397] inception_3a/relu_5x5 -> inception_3a/5x5 (in-place)
I1125 19:29:25.397864 18053 net.cpp:150] Setting up inception_3a/relu_5x5
I1125 19:29:25.397876 18053 net.cpp:157] Top shape: 64 32 28 28 (1605632)
I1125 19:29:25.397878 18053 net.cpp:165] Memory required for data: 1445069824
I1125 19:29:25.397882 18053 layer_factory.hpp:76] Creating layer inception_3a/pool
I1125 19:29:25.397888 18053 net.cpp:106] Creating Layer inception_3a/pool
I1125 19:29:25.397892 18053 net.cpp:454] inception_3a/pool <- pool2/3x3_s2_pool2/3x3_s2_0_split_3
I1125 19:29:25.397897 18053 net.cpp:411] inception_3a/pool -> inception_3a/pool
I1125 19:29:25.398206 18053 net.cpp:150] Setting up inception_3a/pool
I1125 19:29:25.398221 18053 net.cpp:157] Top shape: 64 192 28 28 (9633792)
I1125 19:29:25.398223 18053 net.cpp:165] Memory required for data: 1483604992
I1125 19:29:25.398227 18053 layer_factory.hpp:76] Creating layer inception_3a/pool_proj
I1125 19:29:25.398234 18053 net.cpp:106] Creating Layer inception_3a/pool_proj
I1125 19:29:25.398252 18053 net.cpp:454] inception_3a/pool_proj <- inception_3a/pool
I1125 19:29:25.398257 18053 net.cpp:411] inception_3a/pool_proj -> inception_3a/pool_proj
I1125 19:29:25.399066 18053 net.cpp:150] Setting up inception_3a/pool_proj
I1125 19:29:25.399081 18053 net.cpp:157] Top shape: 64 32 28 28 (1605632)
I1125 19:29:25.399085 18053 net.cpp:165] Memory required for data: 1490027520
I1125 19:29:25.399096 18053 layer_factory.hpp:76] Creating layer inception_3a/relu_pool_proj
I1125 19:29:25.399101 18053 net.cpp:106] Creating Layer inception_3a/relu_pool_proj
I1125 19:29:25.399104 18053 net.cpp:454] inception_3a/relu_pool_proj <- inception_3a/pool_proj
I1125 19:29:25.399109 18053 net.cpp:397] inception_3a/relu_pool_proj -> inception_3a/pool_proj (in-place)
I1125 19:29:25.399401 18053 net.cpp:150] Setting up inception_3a/relu_pool_proj
I1125 19:29:25.399415 18053 net.cpp:157] Top shape: 64 32 28 28 (1605632)
I1125 19:29:25.399417 18053 net.cpp:165] Memory required for data: 1496450048
I1125 19:29:25.399421 18053 layer_factory.hpp:76] Creating layer inception_3a/output
I1125 19:29:25.399430 18053 net.cpp:106] Creating Layer inception_3a/output
I1125 19:29:25.399435 18053 net.cpp:454] inception_3a/output <- inception_3a/1x1
I1125 19:29:25.399440 18053 net.cpp:454] inception_3a/output <- inception_3a/3x3
I1125 19:29:25.399443 18053 net.cpp:454] inception_3a/output <- inception_3a/5x5
I1125 19:29:25.399447 18053 net.cpp:454] inception_3a/output <- inception_3a/pool_proj
I1125 19:29:25.399451 18053 net.cpp:411] inception_3a/output -> inception_3a/output
I1125 19:29:25.399482 18053 net.cpp:150] Setting up inception_3a/output
I1125 19:29:25.399490 18053 net.cpp:157] Top shape: 64 256 28 28 (12845056)
I1125 19:29:25.399493 18053 net.cpp:165] Memory required for data: 1547830272
I1125 19:29:25.399497 18053 layer_factory.hpp:76] Creating layer inception_3a/output_inception_3a/output_0_split
I1125 19:29:25.399502 18053 net.cpp:106] Creating Layer inception_3a/output_inception_3a/output_0_split
I1125 19:29:25.399505 18053 net.cpp:454] inception_3a/output_inception_3a/output_0_split <- inception_3a/output
I1125 19:29:25.399510 18053 net.cpp:411] inception_3a/output_inception_3a/output_0_split -> inception_3a/output_inception_3a/output_0_split_0
I1125 19:29:25.399516 18053 net.cpp:411] inception_3a/output_inception_3a/output_0_split -> inception_3a/output_inception_3a/output_0_split_1
I1125 19:29:25.399523 18053 net.cpp:411] inception_3a/output_inception_3a/output_0_split -> inception_3a/output_inception_3a/output_0_split_2
I1125 19:29:25.399528 18053 net.cpp:411] inception_3a/output_inception_3a/output_0_split -> inception_3a/output_inception_3a/output_0_split_3
I1125 19:29:25.399579 18053 net.cpp:150] Setting up inception_3a/output_inception_3a/output_0_split
I1125 19:29:25.399585 18053 net.cpp:157] Top shape: 64 256 28 28 (12845056)
I1125 19:29:25.399590 18053 net.cpp:157] Top shape: 64 256 28 28 (12845056)
I1125 19:29:25.399592 18053 net.cpp:157] Top shape: 64 256 28 28 (12845056)
I1125 19:29:25.399596 18053 net.cpp:157] Top shape: 64 256 28 28 (12845056)
I1125 19:29:25.399598 18053 net.cpp:165] Memory required for data: 1753351168
I1125 19:29:25.399602 18053 layer_factory.hpp:76] Creating layer inception_3b/1x1
I1125 19:29:25.399610 18053 net.cpp:106] Creating Layer inception_3b/1x1
I1125 19:29:25.399612 18053 net.cpp:454] inception_3b/1x1 <- inception_3a/output_inception_3a/output_0_split_0
I1125 19:29:25.399618 18053 net.cpp:411] inception_3b/1x1 -> inception_3b/1x1
I1125 19:29:25.400713 18053 net.cpp:150] Setting up inception_3b/1x1
I1125 19:29:25.400727 18053 net.cpp:157] Top shape: 64 128 28 28 (6422528)
I1125 19:29:25.400730 18053 net.cpp:165] Memory required for data: 1779041280
I1125 19:29:25.400737 18053 layer_factory.hpp:76] Creating layer inception_3b/relu_1x1
I1125 19:29:25.400743 18053 net.cpp:106] Creating Layer inception_3b/relu_1x1
I1125 19:29:25.400746 18053 net.cpp:454] inception_3b/relu_1x1 <- inception_3b/1x1
I1125 19:29:25.400751 18053 net.cpp:397] inception_3b/relu_1x1 -> inception_3b/1x1 (in-place)
I1125 19:29:25.400904 18053 net.cpp:150] Setting up inception_3b/relu_1x1
I1125 19:29:25.400914 18053 net.cpp:157] Top shape: 64 128 28 28 (6422528)
I1125 19:29:25.400918 18053 net.cpp:165] Memory required for data: 1804731392
I1125 19:29:25.400920 18053 layer_factory.hpp:76] Creating layer inception_3b/3x3_reduce
I1125 19:29:25.400928 18053 net.cpp:106] Creating Layer inception_3b/3x3_reduce
I1125 19:29:25.400931 18053 net.cpp:454] inception_3b/3x3_reduce <- inception_3a/output_inception_3a/output_0_split_1
I1125 19:29:25.400938 18053 net.cpp:411] inception_3b/3x3_reduce -> inception_3b/3x3_reduce
I1125 19:29:25.402037 18053 net.cpp:150] Setting up inception_3b/3x3_reduce
I1125 19:29:25.402051 18053 net.cpp:157] Top shape: 64 128 28 28 (6422528)
I1125 19:29:25.402055 18053 net.cpp:165] Memory required for data: 1830421504
I1125 19:29:25.402061 18053 layer_factory.hpp:76] Creating layer inception_3b/relu_3x3_reduce
I1125 19:29:25.402067 18053 net.cpp:106] Creating Layer inception_3b/relu_3x3_reduce
I1125 19:29:25.402071 18053 net.cpp:454] inception_3b/relu_3x3_reduce <- inception_3b/3x3_reduce
I1125 19:29:25.402076 18053 net.cpp:397] inception_3b/relu_3x3_reduce -> inception_3b/3x3_reduce (in-place)
I1125 19:29:25.402360 18053 net.cpp:150] Setting up inception_3b/relu_3x3_reduce
I1125 19:29:25.402374 18053 net.cpp:157] Top shape: 64 128 28 28 (6422528)
I1125 19:29:25.402377 18053 net.cpp:165] Memory required for data: 1856111616
I1125 19:29:25.402381 18053 layer_factory.hpp:76] Creating layer inception_3b/3x3
I1125 19:29:25.402391 18053 net.cpp:106] Creating Layer inception_3b/3x3
I1125 19:29:25.402396 18053 net.cpp:454] inception_3b/3x3 <- inception_3b/3x3_reduce
I1125 19:29:25.402402 18053 net.cpp:411] inception_3b/3x3 -> inception_3b/3x3
I1125 19:29:25.405033 18053 net.cpp:150] Setting up inception_3b/3x3
I1125 19:29:25.405048 18053 net.cpp:157] Top shape: 64 192 28 28 (9633792)
I1125 19:29:25.405051 18053 net.cpp:165] Memory required for data: 1894646784
I1125 19:29:25.405058 18053 layer_factory.hpp:76] Creating layer inception_3b/relu_3x3
I1125 19:29:25.405064 18053 net.cpp:106] Creating Layer inception_3b/relu_3x3
I1125 19:29:25.405068 18053 net.cpp:454] inception_3b/relu_3x3 <- inception_3b/3x3
I1125 19:29:25.405073 18053 net.cpp:397] inception_3b/relu_3x3 -> inception_3b/3x3 (in-place)
I1125 19:29:25.405506 18053 net.cpp:150] Setting up inception_3b/relu_3x3
I1125 19:29:25.405521 18053 net.cpp:157] Top shape: 64 192 28 28 (9633792)
I1125 19:29:25.405524 18053 net.cpp:165] Memory required for data: 1933181952
I1125 19:29:25.405529 18053 layer_factory.hpp:76] Creating layer inception_3b/5x5_reduce
I1125 19:29:25.405535 18053 net.cpp:106] Creating Layer inception_3b/5x5_reduce
I1125 19:29:25.405539 18053 net.cpp:454] inception_3b/5x5_reduce <- inception_3a/output_inception_3a/output_0_split_2
I1125 19:29:25.405546 18053 net.cpp:411] inception_3b/5x5_reduce -> inception_3b/5x5_reduce
I1125 19:29:25.406544 18053 net.cpp:150] Setting up inception_3b/5x5_reduce
I1125 19:29:25.406559 18053 net.cpp:157] Top shape: 64 32 28 28 (1605632)
I1125 19:29:25.406563 18053 net.cpp:165] Memory required for data: 1939604480
I1125 19:29:25.406569 18053 layer_factory.hpp:76] Creating layer inception_3b/relu_5x5_reduce
I1125 19:29:25.406576 18053 net.cpp:106] Creating Layer inception_3b/relu_5x5_reduce
I1125 19:29:25.406580 18053 net.cpp:454] inception_3b/relu_5x5_reduce <- inception_3b/5x5_reduce
I1125 19:29:25.406585 18053 net.cpp:397] inception_3b/relu_5x5_reduce -> inception_3b/5x5_reduce (in-place)
I1125 19:29:25.406749 18053 net.cpp:150] Setting up inception_3b/relu_5x5_reduce
I1125 19:29:25.406759 18053 net.cpp:157] Top shape: 64 32 28 28 (1605632)
I1125 19:29:25.406762 18053 net.cpp:165] Memory required for data: 1946027008
I1125 19:29:25.406766 18053 layer_factory.hpp:76] Creating layer inception_3b/5x5
I1125 19:29:25.406774 18053 net.cpp:106] Creating Layer inception_3b/5x5
I1125 19:29:25.406779 18053 net.cpp:454] inception_3b/5x5 <- inception_3b/5x5_reduce
I1125 19:29:25.406785 18053 net.cpp:411] inception_3b/5x5 -> inception_3b/5x5
I1125 19:29:25.408702 18053 net.cpp:150] Setting up inception_3b/5x5
I1125 19:29:25.408718 18053 net.cpp:157] Top shape: 64 96 28 28 (4816896)
I1125 19:29:25.408722 18053 net.cpp:165] Memory required for data: 1965294592
I1125 19:29:25.408728 18053 layer_factory.hpp:76] Creating layer inception_3b/relu_5x5
I1125 19:29:25.408735 18053 net.cpp:106] Creating Layer inception_3b/relu_5x5
I1125 19:29:25.408738 18053 net.cpp:454] inception_3b/relu_5x5 <- inception_3b/5x5
I1125 19:29:25.408745 18053 net.cpp:397] inception_3b/relu_5x5 -> inception_3b/5x5 (in-place)
I1125 19:29:25.409047 18053 net.cpp:150] Setting up inception_3b/relu_5x5
I1125 19:29:25.409060 18053 net.cpp:157] Top shape: 64 96 28 28 (4816896)
I1125 19:29:25.409063 18053 net.cpp:165] Memory required for data: 1984562176
I1125 19:29:25.409067 18053 layer_factory.hpp:76] Creating layer inception_3b/pool
I1125 19:29:25.409075 18053 net.cpp:106] Creating Layer inception_3b/pool
I1125 19:29:25.409078 18053 net.cpp:454] inception_3b/pool <- inception_3a/output_inception_3a/output_0_split_3
I1125 19:29:25.409085 18053 net.cpp:411] inception_3b/pool -> inception_3b/pool
I1125 19:29:25.409298 18053 net.cpp:150] Setting up inception_3b/pool
I1125 19:29:25.409312 18053 net.cpp:157] Top shape: 64 256 28 28 (12845056)
I1125 19:29:25.409315 18053 net.cpp:165] Memory required for data: 2035942400
I1125 19:29:25.409318 18053 layer_factory.hpp:76] Creating layer inception_3b/pool_proj
I1125 19:29:25.409327 18053 net.cpp:106] Creating Layer inception_3b/pool_proj
I1125 19:29:25.409333 18053 net.cpp:454] inception_3b/pool_proj <- inception_3b/pool
I1125 19:29:25.409339 18053 net.cpp:411] inception_3b/pool_proj -> inception_3b/pool_proj
I1125 19:29:25.410428 18053 net.cpp:150] Setting up inception_3b/pool_proj
I1125 19:29:25.410442 18053 net.cpp:157] Top shape: 64 64 28 28 (3211264)
I1125 19:29:25.410445 18053 net.cpp:165] Memory required for data: 2048787456
I1125 19:29:25.410452 18053 layer_factory.hpp:76] Creating layer inception_3b/relu_pool_proj
I1125 19:29:25.410459 18053 net.cpp:106] Creating Layer inception_3b/relu_pool_proj
I1125 19:29:25.410462 18053 net.cpp:454] inception_3b/relu_pool_proj <- inception_3b/pool_proj
I1125 19:29:25.410467 18053 net.cpp:397] inception_3b/relu_pool_proj -> inception_3b/pool_proj (in-place)
I1125 19:29:25.410637 18053 net.cpp:150] Setting up inception_3b/relu_pool_proj
I1125 19:29:25.410648 18053 net.cpp:157] Top shape: 64 64 28 28 (3211264)
I1125 19:29:25.410653 18053 net.cpp:165] Memory required for data: 2061632512
I1125 19:29:25.410656 18053 layer_factory.hpp:76] Creating layer inception_3b/output
I1125 19:29:25.410663 18053 net.cpp:106] Creating Layer inception_3b/output
I1125 19:29:25.410667 18053 net.cpp:454] inception_3b/output <- inception_3b/1x1
I1125 19:29:25.410671 18053 net.cpp:454] inception_3b/output <- inception_3b/3x3
I1125 19:29:25.410676 18053 net.cpp:454] inception_3b/output <- inception_3b/5x5
I1125 19:29:25.410679 18053 net.cpp:454] inception_3b/output <- inception_3b/pool_proj
I1125 19:29:25.410683 18053 net.cpp:411] inception_3b/output -> inception_3b/output
I1125 19:29:25.410712 18053 net.cpp:150] Setting up inception_3b/output
I1125 19:29:25.410722 18053 net.cpp:157] Top shape: 64 480 28 28 (24084480)
I1125 19:29:25.410724 18053 net.cpp:165] Memory required for data: 2157970432
I1125 19:29:25.410728 18053 layer_factory.hpp:76] Creating layer pool3/3x3_s2
I1125 19:29:25.410735 18053 net.cpp:106] Creating Layer pool3/3x3_s2
I1125 19:29:25.410738 18053 net.cpp:454] pool3/3x3_s2 <- inception_3b/output
I1125 19:29:25.410744 18053 net.cpp:411] pool3/3x3_s2 -> pool3/3x3_s2
I1125 19:29:25.411079 18053 net.cpp:150] Setting up pool3/3x3_s2
I1125 19:29:25.411094 18053 net.cpp:157] Top shape: 64 480 14 14 (6021120)
I1125 19:29:25.411098 18053 net.cpp:165] Memory required for data: 2182054912
I1125 19:29:25.411100 18053 layer_factory.hpp:76] Creating layer pool3/3x3_s2_pool3/3x3_s2_0_split
I1125 19:29:25.411106 18053 net.cpp:106] Creating Layer pool3/3x3_s2_pool3/3x3_s2_0_split
I1125 19:29:25.411111 18053 net.cpp:454] pool3/3x3_s2_pool3/3x3_s2_0_split <- pool3/3x3_s2
I1125 19:29:25.411116 18053 net.cpp:411] pool3/3x3_s2_pool3/3x3_s2_0_split -> pool3/3x3_s2_pool3/3x3_s2_0_split_0
I1125 19:29:25.411124 18053 net.cpp:411] pool3/3x3_s2_pool3/3x3_s2_0_split -> pool3/3x3_s2_pool3/3x3_s2_0_split_1
I1125 19:29:25.411130 18053 net.cpp:411] pool3/3x3_s2_pool3/3x3_s2_0_split -> pool3/3x3_s2_pool3/3x3_s2_0_split_2
I1125 19:29:25.411135 18053 net.cpp:411] pool3/3x3_s2_pool3/3x3_s2_0_split -> pool3/3x3_s2_pool3/3x3_s2_0_split_3
I1125 19:29:25.411216 18053 net.cpp:150] Setting up pool3/3x3_s2_pool3/3x3_s2_0_split
I1125 19:29:25.411226 18053 net.cpp:157] Top shape: 64 480 14 14 (6021120)
I1125 19:29:25.411231 18053 net.cpp:157] Top shape: 64 480 14 14 (6021120)
I1125 19:29:25.411233 18053 net.cpp:157] Top shape: 64 480 14 14 (6021120)
I1125 19:29:25.411237 18053 net.cpp:157] Top shape: 64 480 14 14 (6021120)
I1125 19:29:25.411240 18053 net.cpp:165] Memory required for data: 2278392832
I1125 19:29:25.411243 18053 layer_factory.hpp:76] Creating layer inception_4a/1x1
I1125 19:29:25.411252 18053 net.cpp:106] Creating Layer inception_4a/1x1
I1125 19:29:25.411258 18053 net.cpp:454] inception_4a/1x1 <- pool3/3x3_s2_pool3/3x3_s2_0_split_0
I1125 19:29:25.411275 18053 net.cpp:411] inception_4a/1x1 -> inception_4a/1x1
I1125 19:29:25.412982 18053 net.cpp:150] Setting up inception_4a/1x1
I1125 19:29:25.412998 18053 net.cpp:157] Top shape: 64 192 14 14 (2408448)
I1125 19:29:25.413002 18053 net.cpp:165] Memory required for data: 2288026624
I1125 19:29:25.413009 18053 layer_factory.hpp:76] Creating layer inception_4a/relu_1x1
I1125 19:29:25.413020 18053 net.cpp:106] Creating Layer inception_4a/relu_1x1
I1125 19:29:25.413024 18053 net.cpp:454] inception_4a/relu_1x1 <- inception_4a/1x1
I1125 19:29:25.413029 18053 net.cpp:397] inception_4a/relu_1x1 -> inception_4a/1x1 (in-place)
I1125 19:29:25.413204 18053 net.cpp:150] Setting up inception_4a/relu_1x1
I1125 19:29:25.413215 18053 net.cpp:157] Top shape: 64 192 14 14 (2408448)
I1125 19:29:25.413223 18053 net.cpp:165] Memory required for data: 2297660416
I1125 19:29:25.413233 18053 layer_factory.hpp:76] Creating layer inception_4a/3x3_reduce
I1125 19:29:25.413244 18053 net.cpp:106] Creating Layer inception_4a/3x3_reduce
I1125 19:29:25.413247 18053 net.cpp:454] inception_4a/3x3_reduce <- pool3/3x3_s2_pool3/3x3_s2_0_split_1
I1125 19:29:25.413254 18053 net.cpp:411] inception_4a/3x3_reduce -> inception_4a/3x3_reduce
I1125 19:29:25.414593 18053 net.cpp:150] Setting up inception_4a/3x3_reduce
I1125 19:29:25.414607 18053 net.cpp:157] Top shape: 64 96 14 14 (1204224)
I1125 19:29:25.414610 18053 net.cpp:165] Memory required for data: 2302477312
I1125 19:29:25.414623 18053 layer_factory.hpp:76] Creating layer inception_4a/relu_3x3_reduce
I1125 19:29:25.414629 18053 net.cpp:106] Creating Layer inception_4a/relu_3x3_reduce
I1125 19:29:25.414633 18053 net.cpp:454] inception_4a/relu_3x3_reduce <- inception_4a/3x3_reduce
I1125 19:29:25.414638 18053 net.cpp:397] inception_4a/relu_3x3_reduce -> inception_4a/3x3_reduce (in-place)
I1125 19:29:25.414970 18053 net.cpp:150] Setting up inception_4a/relu_3x3_reduce
I1125 19:29:25.414985 18053 net.cpp:157] Top shape: 64 96 14 14 (1204224)
I1125 19:29:25.414988 18053 net.cpp:165] Memory required for data: 2307294208
I1125 19:29:25.414993 18053 layer_factory.hpp:76] Creating layer inception_4a/3x3
I1125 19:29:25.415004 18053 net.cpp:106] Creating Layer inception_4a/3x3
I1125 19:29:25.415009 18053 net.cpp:454] inception_4a/3x3 <- inception_4a/3x3_reduce
I1125 19:29:25.415015 18053 net.cpp:411] inception_4a/3x3 -> inception_4a/3x3
I1125 19:29:25.417457 18053 net.cpp:150] Setting up inception_4a/3x3
I1125 19:29:25.417472 18053 net.cpp:157] Top shape: 64 208 14 14 (2609152)
I1125 19:29:25.417476 18053 net.cpp:165] Memory required for data: 2317730816
I1125 19:29:25.417482 18053 layer_factory.hpp:76] Creating layer inception_4a/relu_3x3
I1125 19:29:25.417489 18053 net.cpp:106] Creating Layer inception_4a/relu_3x3
I1125 19:29:25.417492 18053 net.cpp:454] inception_4a/relu_3x3 <- inception_4a/3x3
I1125 19:29:25.417500 18053 net.cpp:397] inception_4a/relu_3x3 -> inception_4a/3x3 (in-place)
I1125 19:29:25.417801 18053 net.cpp:150] Setting up inception_4a/relu_3x3
I1125 19:29:25.417815 18053 net.cpp:157] Top shape: 64 208 14 14 (2609152)
I1125 19:29:25.417819 18053 net.cpp:165] Memory required for data: 2328167424
I1125 19:29:25.417822 18053 layer_factory.hpp:76] Creating layer inception_4a/5x5_reduce
I1125 19:29:25.417830 18053 net.cpp:106] Creating Layer inception_4a/5x5_reduce
I1125 19:29:25.417835 18053 net.cpp:454] inception_4a/5x5_reduce <- pool3/3x3_s2_pool3/3x3_s2_0_split_2
I1125 19:29:25.417842 18053 net.cpp:411] inception_4a/5x5_reduce -> inception_4a/5x5_reduce
I1125 19:29:25.418931 18053 net.cpp:150] Setting up inception_4a/5x5_reduce
I1125 19:29:25.418947 18053 net.cpp:157] Top shape: 64 16 14 14 (200704)
I1125 19:29:25.418951 18053 net.cpp:165] Memory required for data: 2328970240
I1125 19:29:25.418957 18053 layer_factory.hpp:76] Creating layer inception_4a/relu_5x5_reduce
I1125 19:29:25.418963 18053 net.cpp:106] Creating Layer inception_4a/relu_5x5_reduce
I1125 19:29:25.418967 18053 net.cpp:454] inception_4a/relu_5x5_reduce <- inception_4a/5x5_reduce
I1125 19:29:25.418972 18053 net.cpp:397] inception_4a/relu_5x5_reduce -> inception_4a/5x5_reduce (in-place)
I1125 19:29:25.419277 18053 net.cpp:150] Setting up inception_4a/relu_5x5_reduce
I1125 19:29:25.419291 18053 net.cpp:157] Top shape: 64 16 14 14 (200704)
I1125 19:29:25.419294 18053 net.cpp:165] Memory required for data: 2329773056
I1125 19:29:25.419298 18053 layer_factory.hpp:76] Creating layer inception_4a/5x5
I1125 19:29:25.419307 18053 net.cpp:106] Creating Layer inception_4a/5x5
I1125 19:29:25.419312 18053 net.cpp:454] inception_4a/5x5 <- inception_4a/5x5_reduce
I1125 19:29:25.419317 18053 net.cpp:411] inception_4a/5x5 -> inception_4a/5x5
I1125 19:29:25.420667 18053 net.cpp:150] Setting up inception_4a/5x5
I1125 19:29:25.420682 18053 net.cpp:157] Top shape: 64 48 14 14 (602112)
I1125 19:29:25.420686 18053 net.cpp:165] Memory required for data: 2332181504
I1125 19:29:25.420691 18053 layer_factory.hpp:76] Creating layer inception_4a/relu_5x5
I1125 19:29:25.420699 18053 net.cpp:106] Creating Layer inception_4a/relu_5x5
I1125 19:29:25.420704 18053 net.cpp:454] inception_4a/relu_5x5 <- inception_4a/5x5
I1125 19:29:25.420709 18053 net.cpp:397] inception_4a/relu_5x5 -> inception_4a/5x5 (in-place)
I1125 19:29:25.421020 18053 net.cpp:150] Setting up inception_4a/relu_5x5
I1125 19:29:25.421033 18053 net.cpp:157] Top shape: 64 48 14 14 (602112)
I1125 19:29:25.421037 18053 net.cpp:165] Memory required for data: 2334589952
I1125 19:29:25.421041 18053 layer_factory.hpp:76] Creating layer inception_4a/pool
I1125 19:29:25.421047 18053 net.cpp:106] Creating Layer inception_4a/pool
I1125 19:29:25.421052 18053 net.cpp:454] inception_4a/pool <- pool3/3x3_s2_pool3/3x3_s2_0_split_3
I1125 19:29:25.421058 18053 net.cpp:411] inception_4a/pool -> inception_4a/pool
I1125 19:29:25.421257 18053 net.cpp:150] Setting up inception_4a/pool
I1125 19:29:25.421268 18053 net.cpp:157] Top shape: 64 480 14 14 (6021120)
I1125 19:29:25.421272 18053 net.cpp:165] Memory required for data: 2358674432
I1125 19:29:25.421275 18053 layer_factory.hpp:76] Creating layer inception_4a/pool_proj
I1125 19:29:25.421284 18053 net.cpp:106] Creating Layer inception_4a/pool_proj
I1125 19:29:25.421290 18053 net.cpp:454] inception_4a/pool_proj <- inception_4a/pool
I1125 19:29:25.421298 18053 net.cpp:411] inception_4a/pool_proj -> inception_4a/pool_proj
I1125 19:29:25.422516 18053 net.cpp:150] Setting up inception_4a/pool_proj
I1125 19:29:25.422530 18053 net.cpp:157] Top shape: 64 64 14 14 (802816)
I1125 19:29:25.422534 18053 net.cpp:165] Memory required for data: 2361885696
I1125 19:29:25.422540 18053 layer_factory.hpp:76] Creating layer inception_4a/relu_pool_proj
I1125 19:29:25.422547 18053 net.cpp:106] Creating Layer inception_4a/relu_pool_proj
I1125 19:29:25.422552 18053 net.cpp:454] inception_4a/relu_pool_proj <- inception_4a/pool_proj
I1125 19:29:25.422557 18053 net.cpp:397] inception_4a/relu_pool_proj -> inception_4a/pool_proj (in-place)
I1125 19:29:25.422868 18053 net.cpp:150] Setting up inception_4a/relu_pool_proj
I1125 19:29:25.422883 18053 net.cpp:157] Top shape: 64 64 14 14 (802816)
I1125 19:29:25.422886 18053 net.cpp:165] Memory required for data: 2365096960
I1125 19:29:25.422890 18053 layer_factory.hpp:76] Creating layer inception_4a/output
I1125 19:29:25.422896 18053 net.cpp:106] Creating Layer inception_4a/output
I1125 19:29:25.422899 18053 net.cpp:454] inception_4a/output <- inception_4a/1x1
I1125 19:29:25.422904 18053 net.cpp:454] inception_4a/output <- inception_4a/3x3
I1125 19:29:25.422909 18053 net.cpp:454] inception_4a/output <- inception_4a/5x5
I1125 19:29:25.422911 18053 net.cpp:454] inception_4a/output <- inception_4a/pool_proj
I1125 19:29:25.422917 18053 net.cpp:411] inception_4a/output -> inception_4a/output
I1125 19:29:25.422950 18053 net.cpp:150] Setting up inception_4a/output
I1125 19:29:25.422956 18053 net.cpp:157] Top shape: 64 512 14 14 (6422528)
I1125 19:29:25.422960 18053 net.cpp:165] Memory required for data: 2390787072
I1125 19:29:25.422962 18053 layer_factory.hpp:76] Creating layer inception_4a/output_inception_4a/output_0_split
I1125 19:29:25.422967 18053 net.cpp:106] Creating Layer inception_4a/output_inception_4a/output_0_split
I1125 19:29:25.422971 18053 net.cpp:454] inception_4a/output_inception_4a/output_0_split <- inception_4a/output
I1125 19:29:25.422976 18053 net.cpp:411] inception_4a/output_inception_4a/output_0_split -> inception_4a/output_inception_4a/output_0_split_0
I1125 19:29:25.422982 18053 net.cpp:411] inception_4a/output_inception_4a/output_0_split -> inception_4a/output_inception_4a/output_0_split_1
I1125 19:29:25.422987 18053 net.cpp:411] inception_4a/output_inception_4a/output_0_split -> inception_4a/output_inception_4a/output_0_split_2
I1125 19:29:25.422993 18053 net.cpp:411] inception_4a/output_inception_4a/output_0_split -> inception_4a/output_inception_4a/output_0_split_3
I1125 19:29:25.422998 18053 net.cpp:411] inception_4a/output_inception_4a/output_0_split -> inception_4a/output_inception_4a/output_0_split_4
I1125 19:29:25.423075 18053 net.cpp:150] Setting up inception_4a/output_inception_4a/output_0_split
I1125 19:29:25.423081 18053 net.cpp:157] Top shape: 64 512 14 14 (6422528)
I1125 19:29:25.423085 18053 net.cpp:157] Top shape: 64 512 14 14 (6422528)
I1125 19:29:25.423089 18053 net.cpp:157] Top shape: 64 512 14 14 (6422528)
I1125 19:29:25.423092 18053 net.cpp:157] Top shape: 64 512 14 14 (6422528)
I1125 19:29:25.423095 18053 net.cpp:157] Top shape: 64 512 14 14 (6422528)
I1125 19:29:25.423099 18053 net.cpp:165] Memory required for data: 2519237632
I1125 19:29:25.423101 18053 layer_factory.hpp:76] Creating layer loss1/ave_pool
I1125 19:29:25.423107 18053 net.cpp:106] Creating Layer loss1/ave_pool
I1125 19:29:25.423118 18053 net.cpp:454] loss1/ave_pool <- inception_4a/output_inception_4a/output_0_split_0
I1125 19:29:25.423125 18053 net.cpp:411] loss1/ave_pool -> loss1/ave_pool
I1125 19:29:25.423308 18053 net.cpp:150] Setting up loss1/ave_pool
I1125 19:29:25.423318 18053 net.cpp:157] Top shape: 64 512 4 4 (524288)
I1125 19:29:25.423322 18053 net.cpp:165] Memory required for data: 2521334784
I1125 19:29:25.423326 18053 layer_factory.hpp:76] Creating layer loss1/conv
I1125 19:29:25.423333 18053 net.cpp:106] Creating Layer loss1/conv
I1125 19:29:25.423337 18053 net.cpp:454] loss1/conv <- loss1/ave_pool
I1125 19:29:25.423344 18053 net.cpp:411] loss1/conv -> loss1/conv
I1125 19:29:25.424782 18053 net.cpp:150] Setting up loss1/conv
I1125 19:29:25.424798 18053 net.cpp:157] Top shape: 64 128 4 4 (131072)
I1125 19:29:25.424801 18053 net.cpp:165] Memory required for data: 2521859072
I1125 19:29:25.424808 18053 layer_factory.hpp:76] Creating layer loss1/relu_conv
I1125 19:29:25.424813 18053 net.cpp:106] Creating Layer loss1/relu_conv
I1125 19:29:25.424818 18053 net.cpp:454] loss1/relu_conv <- loss1/conv
I1125 19:29:25.424823 18053 net.cpp:397] loss1/relu_conv -> loss1/conv (in-place)
I1125 19:29:25.424988 18053 net.cpp:150] Setting up loss1/relu_conv
I1125 19:29:25.424998 18053 net.cpp:157] Top shape: 64 128 4 4 (131072)
I1125 19:29:25.425001 18053 net.cpp:165] Memory required for data: 2522383360
I1125 19:29:25.425005 18053 layer_factory.hpp:76] Creating layer loss1/fc
I1125 19:29:25.425014 18053 net.cpp:106] Creating Layer loss1/fc
I1125 19:29:25.425016 18053 net.cpp:454] loss1/fc <- loss1/conv
I1125 19:29:25.425022 18053 net.cpp:411] loss1/fc -> loss1/fc
I1125 19:29:25.440570 18053 net.cpp:150] Setting up loss1/fc
I1125 19:29:25.440588 18053 net.cpp:157] Top shape: 64 1024 (65536)
I1125 19:29:25.440592 18053 net.cpp:165] Memory required for data: 2522645504
I1125 19:29:25.440599 18053 layer_factory.hpp:76] Creating layer loss1/relu_fc
I1125 19:29:25.440605 18053 net.cpp:106] Creating Layer loss1/relu_fc
I1125 19:29:25.440610 18053 net.cpp:454] loss1/relu_fc <- loss1/fc
I1125 19:29:25.440618 18053 net.cpp:397] loss1/relu_fc -> loss1/fc (in-place)
I1125 19:29:25.440968 18053 net.cpp:150] Setting up loss1/relu_fc
I1125 19:29:25.440982 18053 net.cpp:157] Top shape: 64 1024 (65536)
I1125 19:29:25.440985 18053 net.cpp:165] Memory required for data: 2522907648
I1125 19:29:25.440989 18053 layer_factory.hpp:76] Creating layer loss1/drop_fc
I1125 19:29:25.441006 18053 net.cpp:106] Creating Layer loss1/drop_fc
I1125 19:29:25.441010 18053 net.cpp:454] loss1/drop_fc <- loss1/fc
I1125 19:29:25.441015 18053 net.cpp:397] loss1/drop_fc -> loss1/fc (in-place)
I1125 19:29:25.441056 18053 net.cpp:150] Setting up loss1/drop_fc
I1125 19:29:25.441063 18053 net.cpp:157] Top shape: 64 1024 (65536)
I1125 19:29:25.441066 18053 net.cpp:165] Memory required for data: 2523169792
I1125 19:29:25.441069 18053 layer_factory.hpp:76] Creating layer loss1/classifier-attribute
I1125 19:29:25.441077 18053 net.cpp:106] Creating Layer loss1/classifier-attribute
I1125 19:29:25.441081 18053 net.cpp:454] loss1/classifier-attribute <- loss1/fc
I1125 19:29:25.441085 18053 net.cpp:411] loss1/classifier-attribute -> loss1/classifier-attribute
I1125 19:29:25.441247 18053 net.cpp:150] Setting up loss1/classifier-attribute
I1125 19:29:25.441256 18053 net.cpp:157] Top shape: 64 6 (384)
I1125 19:29:25.441259 18053 net.cpp:165] Memory required for data: 2523171328
I1125 19:29:25.441265 18053 layer_factory.hpp:76] Creating layer loss1/loss
I1125 19:29:25.441273 18053 net.cpp:106] Creating Layer loss1/loss
I1125 19:29:25.441278 18053 net.cpp:454] loss1/loss <- loss1/classifier-attribute
I1125 19:29:25.441282 18053 net.cpp:454] loss1/loss <- label_data_1_split_0
I1125 19:29:25.441289 18053 net.cpp:411] loss1/loss -> loss1/loss1
I1125 19:29:25.441304 18053 layer_factory.hpp:76] Creating layer loss1/loss
I1125 19:29:25.441570 18053 net.cpp:150] Setting up loss1/loss
I1125 19:29:25.441582 18053 net.cpp:157] Top shape: (1)
I1125 19:29:25.441586 18053 net.cpp:160]     with loss weight 0.3
I1125 19:29:25.441606 18053 net.cpp:165] Memory required for data: 2523171332
I1125 19:29:25.441609 18053 layer_factory.hpp:76] Creating layer inception_4b/1x1
I1125 19:29:25.441619 18053 net.cpp:106] Creating Layer inception_4b/1x1
I1125 19:29:25.441623 18053 net.cpp:454] inception_4b/1x1 <- inception_4a/output_inception_4a/output_0_split_1
I1125 19:29:25.441630 18053 net.cpp:411] inception_4b/1x1 -> inception_4b/1x1
I1125 19:29:25.443210 18053 net.cpp:150] Setting up inception_4b/1x1
I1125 19:29:25.443225 18053 net.cpp:157] Top shape: 64 160 14 14 (2007040)
I1125 19:29:25.443229 18053 net.cpp:165] Memory required for data: 2531199492
I1125 19:29:25.443235 18053 layer_factory.hpp:76] Creating layer inception_4b/relu_1x1
I1125 19:29:25.443243 18053 net.cpp:106] Creating Layer inception_4b/relu_1x1
I1125 19:29:25.443248 18053 net.cpp:454] inception_4b/relu_1x1 <- inception_4b/1x1
I1125 19:29:25.443253 18053 net.cpp:397] inception_4b/relu_1x1 -> inception_4b/1x1 (in-place)
I1125 19:29:25.443560 18053 net.cpp:150] Setting up inception_4b/relu_1x1
I1125 19:29:25.443573 18053 net.cpp:157] Top shape: 64 160 14 14 (2007040)
I1125 19:29:25.443578 18053 net.cpp:165] Memory required for data: 2539227652
I1125 19:29:25.443580 18053 layer_factory.hpp:76] Creating layer inception_4b/3x3_reduce
I1125 19:29:25.443590 18053 net.cpp:106] Creating Layer inception_4b/3x3_reduce
I1125 19:29:25.443594 18053 net.cpp:454] inception_4b/3x3_reduce <- inception_4a/output_inception_4a/output_0_split_2
I1125 19:29:25.443601 18053 net.cpp:411] inception_4b/3x3_reduce -> inception_4b/3x3_reduce
I1125 19:29:25.445442 18053 net.cpp:150] Setting up inception_4b/3x3_reduce
I1125 19:29:25.445457 18053 net.cpp:157] Top shape: 64 112 14 14 (1404928)
I1125 19:29:25.445461 18053 net.cpp:165] Memory required for data: 2544847364
I1125 19:29:25.445467 18053 layer_factory.hpp:76] Creating layer inception_4b/relu_3x3_reduce
I1125 19:29:25.445474 18053 net.cpp:106] Creating Layer inception_4b/relu_3x3_reduce
I1125 19:29:25.445479 18053 net.cpp:454] inception_4b/relu_3x3_reduce <- inception_4b/3x3_reduce
I1125 19:29:25.445484 18053 net.cpp:397] inception_4b/relu_3x3_reduce -> inception_4b/3x3_reduce (in-place)
I1125 19:29:25.445657 18053 net.cpp:150] Setting up inception_4b/relu_3x3_reduce
I1125 19:29:25.445667 18053 net.cpp:157] Top shape: 64 112 14 14 (1404928)
I1125 19:29:25.445672 18053 net.cpp:165] Memory required for data: 2550467076
I1125 19:29:25.445674 18053 layer_factory.hpp:76] Creating layer inception_4b/3x3
I1125 19:29:25.445683 18053 net.cpp:106] Creating Layer inception_4b/3x3
I1125 19:29:25.445690 18053 net.cpp:454] inception_4b/3x3 <- inception_4b/3x3_reduce
I1125 19:29:25.445698 18053 net.cpp:411] inception_4b/3x3 -> inception_4b/3x3
I1125 19:29:25.448638 18053 net.cpp:150] Setting up inception_4b/3x3
I1125 19:29:25.448654 18053 net.cpp:157] Top shape: 64 224 14 14 (2809856)
I1125 19:29:25.448658 18053 net.cpp:165] Memory required for data: 2561706500
I1125 19:29:25.448664 18053 layer_factory.hpp:76] Creating layer inception_4b/relu_3x3
I1125 19:29:25.448671 18053 net.cpp:106] Creating Layer inception_4b/relu_3x3
I1125 19:29:25.448675 18053 net.cpp:454] inception_4b/relu_3x3 <- inception_4b/3x3
I1125 19:29:25.448681 18053 net.cpp:397] inception_4b/relu_3x3 -> inception_4b/3x3 (in-place)
I1125 19:29:25.448855 18053 net.cpp:150] Setting up inception_4b/relu_3x3
I1125 19:29:25.448866 18053 net.cpp:157] Top shape: 64 224 14 14 (2809856)
I1125 19:29:25.448869 18053 net.cpp:165] Memory required for data: 2572945924
I1125 19:29:25.448873 18053 layer_factory.hpp:76] Creating layer inception_4b/5x5_reduce
I1125 19:29:25.448881 18053 net.cpp:106] Creating Layer inception_4b/5x5_reduce
I1125 19:29:25.448889 18053 net.cpp:454] inception_4b/5x5_reduce <- inception_4a/output_inception_4a/output_0_split_3
I1125 19:29:25.448894 18053 net.cpp:411] inception_4b/5x5_reduce -> inception_4b/5x5_reduce
I1125 19:29:25.450011 18053 net.cpp:150] Setting up inception_4b/5x5_reduce
I1125 19:29:25.450024 18053 net.cpp:157] Top shape: 64 24 14 14 (301056)
I1125 19:29:25.450028 18053 net.cpp:165] Memory required for data: 2574150148
I1125 19:29:25.450034 18053 layer_factory.hpp:76] Creating layer inception_4b/relu_5x5_reduce
I1125 19:29:25.450040 18053 net.cpp:106] Creating Layer inception_4b/relu_5x5_reduce
I1125 19:29:25.450044 18053 net.cpp:454] inception_4b/relu_5x5_reduce <- inception_4b/5x5_reduce
I1125 19:29:25.450049 18053 net.cpp:397] inception_4b/relu_5x5_reduce -> inception_4b/5x5_reduce (in-place)
I1125 19:29:25.450489 18053 net.cpp:150] Setting up inception_4b/relu_5x5_reduce
I1125 19:29:25.450503 18053 net.cpp:157] Top shape: 64 24 14 14 (301056)
I1125 19:29:25.450506 18053 net.cpp:165] Memory required for data: 2575354372
I1125 19:29:25.450510 18053 layer_factory.hpp:76] Creating layer inception_4b/5x5
I1125 19:29:25.450520 18053 net.cpp:106] Creating Layer inception_4b/5x5
I1125 19:29:25.450525 18053 net.cpp:454] inception_4b/5x5 <- inception_4b/5x5_reduce
I1125 19:29:25.450531 18053 net.cpp:411] inception_4b/5x5 -> inception_4b/5x5
I1125 19:29:25.451869 18053 net.cpp:150] Setting up inception_4b/5x5
I1125 19:29:25.451884 18053 net.cpp:157] Top shape: 64 64 14 14 (802816)
I1125 19:29:25.451886 18053 net.cpp:165] Memory required for data: 2578565636
I1125 19:29:25.451892 18053 layer_factory.hpp:76] Creating layer inception_4b/relu_5x5
I1125 19:29:25.451899 18053 net.cpp:106] Creating Layer inception_4b/relu_5x5
I1125 19:29:25.451902 18053 net.cpp:454] inception_4b/relu_5x5 <- inception_4b/5x5
I1125 19:29:25.451910 18053 net.cpp:397] inception_4b/relu_5x5 -> inception_4b/5x5 (in-place)
I1125 19:29:25.452081 18053 net.cpp:150] Setting up inception_4b/relu_5x5
I1125 19:29:25.452092 18053 net.cpp:157] Top shape: 64 64 14 14 (802816)
I1125 19:29:25.452095 18053 net.cpp:165] Memory required for data: 2581776900
I1125 19:29:25.452098 18053 layer_factory.hpp:76] Creating layer inception_4b/pool
I1125 19:29:25.452106 18053 net.cpp:106] Creating Layer inception_4b/pool
I1125 19:29:25.452111 18053 net.cpp:454] inception_4b/pool <- inception_4a/output_inception_4a/output_0_split_4
I1125 19:29:25.452116 18053 net.cpp:411] inception_4b/pool -> inception_4b/pool
I1125 19:29:25.452471 18053 net.cpp:150] Setting up inception_4b/pool
I1125 19:29:25.452484 18053 net.cpp:157] Top shape: 64 512 14 14 (6422528)
I1125 19:29:25.452488 18053 net.cpp:165] Memory required for data: 2607467012
I1125 19:29:25.452491 18053 layer_factory.hpp:76] Creating layer inception_4b/pool_proj
I1125 19:29:25.452502 18053 net.cpp:106] Creating Layer inception_4b/pool_proj
I1125 19:29:25.452507 18053 net.cpp:454] inception_4b/pool_proj <- inception_4b/pool
I1125 19:29:25.452513 18053 net.cpp:411] inception_4b/pool_proj -> inception_4b/pool_proj
I1125 19:29:25.453631 18053 net.cpp:150] Setting up inception_4b/pool_proj
I1125 19:29:25.453646 18053 net.cpp:157] Top shape: 64 64 14 14 (802816)
I1125 19:29:25.453649 18053 net.cpp:165] Memory required for data: 2610678276
I1125 19:29:25.453655 18053 layer_factory.hpp:76] Creating layer inception_4b/relu_pool_proj
I1125 19:29:25.453663 18053 net.cpp:106] Creating Layer inception_4b/relu_pool_proj
I1125 19:29:25.453667 18053 net.cpp:454] inception_4b/relu_pool_proj <- inception_4b/pool_proj
I1125 19:29:25.453672 18053 net.cpp:397] inception_4b/relu_pool_proj -> inception_4b/pool_proj (in-place)
I1125 19:29:25.453982 18053 net.cpp:150] Setting up inception_4b/relu_pool_proj
I1125 19:29:25.453995 18053 net.cpp:157] Top shape: 64 64 14 14 (802816)
I1125 19:29:25.453999 18053 net.cpp:165] Memory required for data: 2613889540
I1125 19:29:25.454002 18053 layer_factory.hpp:76] Creating layer inception_4b/output
I1125 19:29:25.454010 18053 net.cpp:106] Creating Layer inception_4b/output
I1125 19:29:25.454015 18053 net.cpp:454] inception_4b/output <- inception_4b/1x1
I1125 19:29:25.454020 18053 net.cpp:454] inception_4b/output <- inception_4b/3x3
I1125 19:29:25.454022 18053 net.cpp:454] inception_4b/output <- inception_4b/5x5
I1125 19:29:25.454026 18053 net.cpp:454] inception_4b/output <- inception_4b/pool_proj
I1125 19:29:25.454030 18053 net.cpp:411] inception_4b/output -> inception_4b/output
I1125 19:29:25.454066 18053 net.cpp:150] Setting up inception_4b/output
I1125 19:29:25.454074 18053 net.cpp:157] Top shape: 64 512 14 14 (6422528)
I1125 19:29:25.454077 18053 net.cpp:165] Memory required for data: 2639579652
I1125 19:29:25.454080 18053 layer_factory.hpp:76] Creating layer inception_4b/output_inception_4b/output_0_split
I1125 19:29:25.454087 18053 net.cpp:106] Creating Layer inception_4b/output_inception_4b/output_0_split
I1125 19:29:25.454089 18053 net.cpp:454] inception_4b/output_inception_4b/output_0_split <- inception_4b/output
I1125 19:29:25.454102 18053 net.cpp:411] inception_4b/output_inception_4b/output_0_split -> inception_4b/output_inception_4b/output_0_split_0
I1125 19:29:25.454110 18053 net.cpp:411] inception_4b/output_inception_4b/output_0_split -> inception_4b/output_inception_4b/output_0_split_1
I1125 19:29:25.454115 18053 net.cpp:411] inception_4b/output_inception_4b/output_0_split -> inception_4b/output_inception_4b/output_0_split_2
I1125 19:29:25.454123 18053 net.cpp:411] inception_4b/output_inception_4b/output_0_split -> inception_4b/output_inception_4b/output_0_split_3
I1125 19:29:25.454197 18053 net.cpp:150] Setting up inception_4b/output_inception_4b/output_0_split
I1125 19:29:25.454205 18053 net.cpp:157] Top shape: 64 512 14 14 (6422528)
I1125 19:29:25.454210 18053 net.cpp:157] Top shape: 64 512 14 14 (6422528)
I1125 19:29:25.454213 18053 net.cpp:157] Top shape: 64 512 14 14 (6422528)
I1125 19:29:25.454216 18053 net.cpp:157] Top shape: 64 512 14 14 (6422528)
I1125 19:29:25.454219 18053 net.cpp:165] Memory required for data: 2742340100
I1125 19:29:25.454222 18053 layer_factory.hpp:76] Creating layer inception_4c/1x1
I1125 19:29:25.454231 18053 net.cpp:106] Creating Layer inception_4c/1x1
I1125 19:29:25.454234 18053 net.cpp:454] inception_4c/1x1 <- inception_4b/output_inception_4b/output_0_split_0
I1125 19:29:25.454241 18053 net.cpp:411] inception_4c/1x1 -> inception_4c/1x1
I1125 19:29:25.455700 18053 net.cpp:150] Setting up inception_4c/1x1
I1125 19:29:25.455715 18053 net.cpp:157] Top shape: 64 128 14 14 (1605632)
I1125 19:29:25.455719 18053 net.cpp:165] Memory required for data: 2748762628
I1125 19:29:25.455725 18053 layer_factory.hpp:76] Creating layer inception_4c/relu_1x1
I1125 19:29:25.455731 18053 net.cpp:106] Creating Layer inception_4c/relu_1x1
I1125 19:29:25.455735 18053 net.cpp:454] inception_4c/relu_1x1 <- inception_4c/1x1
I1125 19:29:25.455740 18053 net.cpp:397] inception_4c/relu_1x1 -> inception_4c/1x1 (in-place)
I1125 19:29:25.455914 18053 net.cpp:150] Setting up inception_4c/relu_1x1
I1125 19:29:25.455925 18053 net.cpp:157] Top shape: 64 128 14 14 (1605632)
I1125 19:29:25.455929 18053 net.cpp:165] Memory required for data: 2755185156
I1125 19:29:25.455932 18053 layer_factory.hpp:76] Creating layer inception_4c/3x3_reduce
I1125 19:29:25.455941 18053 net.cpp:106] Creating Layer inception_4c/3x3_reduce
I1125 19:29:25.455946 18053 net.cpp:454] inception_4c/3x3_reduce <- inception_4b/output_inception_4b/output_0_split_1
I1125 19:29:25.455955 18053 net.cpp:411] inception_4c/3x3_reduce -> inception_4c/3x3_reduce
I1125 19:29:25.457419 18053 net.cpp:150] Setting up inception_4c/3x3_reduce
I1125 19:29:25.457434 18053 net.cpp:157] Top shape: 64 128 14 14 (1605632)
I1125 19:29:25.457438 18053 net.cpp:165] Memory required for data: 2761607684
I1125 19:29:25.457444 18053 layer_factory.hpp:76] Creating layer inception_4c/relu_3x3_reduce
I1125 19:29:25.457450 18053 net.cpp:106] Creating Layer inception_4c/relu_3x3_reduce
I1125 19:29:25.457454 18053 net.cpp:454] inception_4c/relu_3x3_reduce <- inception_4c/3x3_reduce
I1125 19:29:25.457459 18053 net.cpp:397] inception_4c/relu_3x3_reduce -> inception_4c/3x3_reduce (in-place)
I1125 19:29:25.457773 18053 net.cpp:150] Setting up inception_4c/relu_3x3_reduce
I1125 19:29:25.457787 18053 net.cpp:157] Top shape: 64 128 14 14 (1605632)
I1125 19:29:25.457790 18053 net.cpp:165] Memory required for data: 2768030212
I1125 19:29:25.457793 18053 layer_factory.hpp:76] Creating layer inception_4c/3x3
I1125 19:29:25.457803 18053 net.cpp:106] Creating Layer inception_4c/3x3
I1125 19:29:25.457806 18053 net.cpp:454] inception_4c/3x3 <- inception_4c/3x3_reduce
I1125 19:29:25.457813 18053 net.cpp:411] inception_4c/3x3 -> inception_4c/3x3
I1125 19:29:25.461050 18053 net.cpp:150] Setting up inception_4c/3x3
I1125 19:29:25.461066 18053 net.cpp:157] Top shape: 64 256 14 14 (3211264)
I1125 19:29:25.461068 18053 net.cpp:165] Memory required for data: 2780875268
I1125 19:29:25.461086 18053 layer_factory.hpp:76] Creating layer inception_4c/relu_3x3
I1125 19:29:25.461094 18053 net.cpp:106] Creating Layer inception_4c/relu_3x3
I1125 19:29:25.461098 18053 net.cpp:454] inception_4c/relu_3x3 <- inception_4c/3x3
I1125 19:29:25.461103 18053 net.cpp:397] inception_4c/relu_3x3 -> inception_4c/3x3 (in-place)
I1125 19:29:25.461411 18053 net.cpp:150] Setting up inception_4c/relu_3x3
I1125 19:29:25.461426 18053 net.cpp:157] Top shape: 64 256 14 14 (3211264)
I1125 19:29:25.461428 18053 net.cpp:165] Memory required for data: 2793720324
I1125 19:29:25.461431 18053 layer_factory.hpp:76] Creating layer inception_4c/5x5_reduce
I1125 19:29:25.461442 18053 net.cpp:106] Creating Layer inception_4c/5x5_reduce
I1125 19:29:25.461447 18053 net.cpp:454] inception_4c/5x5_reduce <- inception_4b/output_inception_4b/output_0_split_2
I1125 19:29:25.461452 18053 net.cpp:411] inception_4c/5x5_reduce -> inception_4c/5x5_reduce
I1125 19:29:25.462605 18053 net.cpp:150] Setting up inception_4c/5x5_reduce
I1125 19:29:25.462620 18053 net.cpp:157] Top shape: 64 24 14 14 (301056)
I1125 19:29:25.462623 18053 net.cpp:165] Memory required for data: 2794924548
I1125 19:29:25.462630 18053 layer_factory.hpp:76] Creating layer inception_4c/relu_5x5_reduce
I1125 19:29:25.462635 18053 net.cpp:106] Creating Layer inception_4c/relu_5x5_reduce
I1125 19:29:25.462640 18053 net.cpp:454] inception_4c/relu_5x5_reduce <- inception_4c/5x5_reduce
I1125 19:29:25.462644 18053 net.cpp:397] inception_4c/relu_5x5_reduce -> inception_4c/5x5_reduce (in-place)
I1125 19:29:25.462836 18053 net.cpp:150] Setting up inception_4c/relu_5x5_reduce
I1125 19:29:25.462848 18053 net.cpp:157] Top shape: 64 24 14 14 (301056)
I1125 19:29:25.462852 18053 net.cpp:165] Memory required for data: 2796128772
I1125 19:29:25.462855 18053 layer_factory.hpp:76] Creating layer inception_4c/5x5
I1125 19:29:25.462864 18053 net.cpp:106] Creating Layer inception_4c/5x5
I1125 19:29:25.462872 18053 net.cpp:454] inception_4c/5x5 <- inception_4c/5x5_reduce
I1125 19:29:25.462879 18053 net.cpp:411] inception_4c/5x5 -> inception_4c/5x5
I1125 19:29:25.464607 18053 net.cpp:150] Setting up inception_4c/5x5
I1125 19:29:25.464622 18053 net.cpp:157] Top shape: 64 64 14 14 (802816)
I1125 19:29:25.464624 18053 net.cpp:165] Memory required for data: 2799340036
I1125 19:29:25.464632 18053 layer_factory.hpp:76] Creating layer inception_4c/relu_5x5
I1125 19:29:25.464638 18053 net.cpp:106] Creating Layer inception_4c/relu_5x5
I1125 19:29:25.464644 18053 net.cpp:454] inception_4c/relu_5x5 <- inception_4c/5x5
I1125 19:29:25.464649 18053 net.cpp:397] inception_4c/relu_5x5 -> inception_4c/5x5 (in-place)
I1125 19:29:25.464973 18053 net.cpp:150] Setting up inception_4c/relu_5x5
I1125 19:29:25.464987 18053 net.cpp:157] Top shape: 64 64 14 14 (802816)
I1125 19:29:25.464990 18053 net.cpp:165] Memory required for data: 2802551300
I1125 19:29:25.464994 18053 layer_factory.hpp:76] Creating layer inception_4c/pool
I1125 19:29:25.465001 18053 net.cpp:106] Creating Layer inception_4c/pool
I1125 19:29:25.465005 18053 net.cpp:454] inception_4c/pool <- inception_4b/output_inception_4b/output_0_split_3
I1125 19:29:25.465013 18053 net.cpp:411] inception_4c/pool -> inception_4c/pool
I1125 19:29:25.465221 18053 net.cpp:150] Setting up inception_4c/pool
I1125 19:29:25.465232 18053 net.cpp:157] Top shape: 64 512 14 14 (6422528)
I1125 19:29:25.465235 18053 net.cpp:165] Memory required for data: 2828241412
I1125 19:29:25.465239 18053 layer_factory.hpp:76] Creating layer inception_4c/pool_proj
I1125 19:29:25.465248 18053 net.cpp:106] Creating Layer inception_4c/pool_proj
I1125 19:29:25.465252 18053 net.cpp:454] inception_4c/pool_proj <- inception_4c/pool
I1125 19:29:25.465260 18053 net.cpp:411] inception_4c/pool_proj -> inception_4c/pool_proj
I1125 19:29:25.466645 18053 net.cpp:150] Setting up inception_4c/pool_proj
I1125 19:29:25.466658 18053 net.cpp:157] Top shape: 64 64 14 14 (802816)
I1125 19:29:25.466662 18053 net.cpp:165] Memory required for data: 2831452676
I1125 19:29:25.466668 18053 layer_factory.hpp:76] Creating layer inception_4c/relu_pool_proj
I1125 19:29:25.466675 18053 net.cpp:106] Creating Layer inception_4c/relu_pool_proj
I1125 19:29:25.466678 18053 net.cpp:454] inception_4c/relu_pool_proj <- inception_4c/pool_proj
I1125 19:29:25.466686 18053 net.cpp:397] inception_4c/relu_pool_proj -> inception_4c/pool_proj (in-place)
I1125 19:29:25.467010 18053 net.cpp:150] Setting up inception_4c/relu_pool_proj
I1125 19:29:25.467025 18053 net.cpp:157] Top shape: 64 64 14 14 (802816)
I1125 19:29:25.467027 18053 net.cpp:165] Memory required for data: 2834663940
I1125 19:29:25.467031 18053 layer_factory.hpp:76] Creating layer inception_4c/output
I1125 19:29:25.467037 18053 net.cpp:106] Creating Layer inception_4c/output
I1125 19:29:25.467041 18053 net.cpp:454] inception_4c/output <- inception_4c/1x1
I1125 19:29:25.467046 18053 net.cpp:454] inception_4c/output <- inception_4c/3x3
I1125 19:29:25.467051 18053 net.cpp:454] inception_4c/output <- inception_4c/5x5
I1125 19:29:25.467053 18053 net.cpp:454] inception_4c/output <- inception_4c/pool_proj
I1125 19:29:25.467059 18053 net.cpp:411] inception_4c/output -> inception_4c/output
I1125 19:29:25.467097 18053 net.cpp:150] Setting up inception_4c/output
I1125 19:29:25.467103 18053 net.cpp:157] Top shape: 64 512 14 14 (6422528)
I1125 19:29:25.467106 18053 net.cpp:165] Memory required for data: 2860354052
I1125 19:29:25.467109 18053 layer_factory.hpp:76] Creating layer inception_4c/output_inception_4c/output_0_split
I1125 19:29:25.467114 18053 net.cpp:106] Creating Layer inception_4c/output_inception_4c/output_0_split
I1125 19:29:25.467118 18053 net.cpp:454] inception_4c/output_inception_4c/output_0_split <- inception_4c/output
I1125 19:29:25.467123 18053 net.cpp:411] inception_4c/output_inception_4c/output_0_split -> inception_4c/output_inception_4c/output_0_split_0
I1125 19:29:25.467128 18053 net.cpp:411] inception_4c/output_inception_4c/output_0_split -> inception_4c/output_inception_4c/output_0_split_1
I1125 19:29:25.467139 18053 net.cpp:411] inception_4c/output_inception_4c/output_0_split -> inception_4c/output_inception_4c/output_0_split_2
I1125 19:29:25.467151 18053 net.cpp:411] inception_4c/output_inception_4c/output_0_split -> inception_4c/output_inception_4c/output_0_split_3
I1125 19:29:25.467223 18053 net.cpp:150] Setting up inception_4c/output_inception_4c/output_0_split
I1125 19:29:25.467231 18053 net.cpp:157] Top shape: 64 512 14 14 (6422528)
I1125 19:29:25.467236 18053 net.cpp:157] Top shape: 64 512 14 14 (6422528)
I1125 19:29:25.467239 18053 net.cpp:157] Top shape: 64 512 14 14 (6422528)
I1125 19:29:25.467242 18053 net.cpp:157] Top shape: 64 512 14 14 (6422528)
I1125 19:29:25.467245 18053 net.cpp:165] Memory required for data: 2963114500
I1125 19:29:25.467248 18053 layer_factory.hpp:76] Creating layer inception_4d/1x1
I1125 19:29:25.467257 18053 net.cpp:106] Creating Layer inception_4d/1x1
I1125 19:29:25.467260 18053 net.cpp:454] inception_4d/1x1 <- inception_4c/output_inception_4c/output_0_split_0
I1125 19:29:25.467267 18053 net.cpp:411] inception_4d/1x1 -> inception_4d/1x1
I1125 19:29:25.468544 18053 net.cpp:150] Setting up inception_4d/1x1
I1125 19:29:25.468559 18053 net.cpp:157] Top shape: 64 112 14 14 (1404928)
I1125 19:29:25.468562 18053 net.cpp:165] Memory required for data: 2968734212
I1125 19:29:25.468569 18053 layer_factory.hpp:76] Creating layer inception_4d/relu_1x1
I1125 19:29:25.468575 18053 net.cpp:106] Creating Layer inception_4d/relu_1x1
I1125 19:29:25.468578 18053 net.cpp:454] inception_4d/relu_1x1 <- inception_4d/1x1
I1125 19:29:25.468585 18053 net.cpp:397] inception_4d/relu_1x1 -> inception_4d/1x1 (in-place)
I1125 19:29:25.468901 18053 net.cpp:150] Setting up inception_4d/relu_1x1
I1125 19:29:25.468915 18053 net.cpp:157] Top shape: 64 112 14 14 (1404928)
I1125 19:29:25.468919 18053 net.cpp:165] Memory required for data: 2974353924
I1125 19:29:25.468921 18053 layer_factory.hpp:76] Creating layer inception_4d/3x3_reduce
I1125 19:29:25.468930 18053 net.cpp:106] Creating Layer inception_4d/3x3_reduce
I1125 19:29:25.468935 18053 net.cpp:454] inception_4d/3x3_reduce <- inception_4c/output_inception_4c/output_0_split_1
I1125 19:29:25.468941 18053 net.cpp:411] inception_4d/3x3_reduce -> inception_4d/3x3_reduce
I1125 19:29:25.470522 18053 net.cpp:150] Setting up inception_4d/3x3_reduce
I1125 19:29:25.470538 18053 net.cpp:157] Top shape: 64 144 14 14 (1806336)
I1125 19:29:25.470542 18053 net.cpp:165] Memory required for data: 2981579268
I1125 19:29:25.470548 18053 layer_factory.hpp:76] Creating layer inception_4d/relu_3x3_reduce
I1125 19:29:25.470556 18053 net.cpp:106] Creating Layer inception_4d/relu_3x3_reduce
I1125 19:29:25.470559 18053 net.cpp:454] inception_4d/relu_3x3_reduce <- inception_4d/3x3_reduce
I1125 19:29:25.470566 18053 net.cpp:397] inception_4d/relu_3x3_reduce -> inception_4d/3x3_reduce (in-place)
I1125 19:29:25.470739 18053 net.cpp:150] Setting up inception_4d/relu_3x3_reduce
I1125 19:29:25.470751 18053 net.cpp:157] Top shape: 64 144 14 14 (1806336)
I1125 19:29:25.470753 18053 net.cpp:165] Memory required for data: 2988804612
I1125 19:29:25.470757 18053 layer_factory.hpp:76] Creating layer inception_4d/3x3
I1125 19:29:25.470765 18053 net.cpp:106] Creating Layer inception_4d/3x3
I1125 19:29:25.470770 18053 net.cpp:454] inception_4d/3x3 <- inception_4d/3x3_reduce
I1125 19:29:25.470777 18053 net.cpp:411] inception_4d/3x3 -> inception_4d/3x3
I1125 19:29:25.474752 18053 net.cpp:150] Setting up inception_4d/3x3
I1125 19:29:25.474767 18053 net.cpp:157] Top shape: 64 288 14 14 (3612672)
I1125 19:29:25.474771 18053 net.cpp:165] Memory required for data: 3003255300
I1125 19:29:25.474777 18053 layer_factory.hpp:76] Creating layer inception_4d/relu_3x3
I1125 19:29:25.474783 18053 net.cpp:106] Creating Layer inception_4d/relu_3x3
I1125 19:29:25.474787 18053 net.cpp:454] inception_4d/relu_3x3 <- inception_4d/3x3
I1125 19:29:25.474794 18053 net.cpp:397] inception_4d/relu_3x3 -> inception_4d/3x3 (in-place)
I1125 19:29:25.475126 18053 net.cpp:150] Setting up inception_4d/relu_3x3
I1125 19:29:25.475139 18053 net.cpp:157] Top shape: 64 288 14 14 (3612672)
I1125 19:29:25.475142 18053 net.cpp:165] Memory required for data: 3017705988
I1125 19:29:25.475147 18053 layer_factory.hpp:76] Creating layer inception_4d/5x5_reduce
I1125 19:29:25.475155 18053 net.cpp:106] Creating Layer inception_4d/5x5_reduce
I1125 19:29:25.475160 18053 net.cpp:454] inception_4d/5x5_reduce <- inception_4c/output_inception_4c/output_0_split_2
I1125 19:29:25.475167 18053 net.cpp:411] inception_4d/5x5_reduce -> inception_4d/5x5_reduce
I1125 19:29:25.476232 18053 net.cpp:150] Setting up inception_4d/5x5_reduce
I1125 19:29:25.476245 18053 net.cpp:157] Top shape: 64 32 14 14 (401408)
I1125 19:29:25.476249 18053 net.cpp:165] Memory required for data: 3019311620
I1125 19:29:25.476255 18053 layer_factory.hpp:76] Creating layer inception_4d/relu_5x5_reduce
I1125 19:29:25.476260 18053 net.cpp:106] Creating Layer inception_4d/relu_5x5_reduce
I1125 19:29:25.476265 18053 net.cpp:454] inception_4d/relu_5x5_reduce <- inception_4d/5x5_reduce
I1125 19:29:25.476271 18053 net.cpp:397] inception_4d/relu_5x5_reduce -> inception_4d/5x5_reduce (in-place)
I1125 19:29:25.476595 18053 net.cpp:150] Setting up inception_4d/relu_5x5_reduce
I1125 19:29:25.476609 18053 net.cpp:157] Top shape: 64 32 14 14 (401408)
I1125 19:29:25.476613 18053 net.cpp:165] Memory required for data: 3020917252
I1125 19:29:25.476616 18053 layer_factory.hpp:76] Creating layer inception_4d/5x5
I1125 19:29:25.476625 18053 net.cpp:106] Creating Layer inception_4d/5x5
I1125 19:29:25.476629 18053 net.cpp:454] inception_4d/5x5 <- inception_4d/5x5_reduce
I1125 19:29:25.476636 18053 net.cpp:411] inception_4d/5x5 -> inception_4d/5x5
I1125 19:29:25.478051 18053 net.cpp:150] Setting up inception_4d/5x5
I1125 19:29:25.478065 18053 net.cpp:157] Top shape: 64 64 14 14 (802816)
I1125 19:29:25.478070 18053 net.cpp:165] Memory required for data: 3024128516
I1125 19:29:25.478075 18053 layer_factory.hpp:76] Creating layer inception_4d/relu_5x5
I1125 19:29:25.478082 18053 net.cpp:106] Creating Layer inception_4d/relu_5x5
I1125 19:29:25.478086 18053 net.cpp:454] inception_4d/relu_5x5 <- inception_4d/5x5
I1125 19:29:25.478092 18053 net.cpp:397] inception_4d/relu_5x5 -> inception_4d/5x5 (in-place)
I1125 19:29:25.478277 18053 net.cpp:150] Setting up inception_4d/relu_5x5
I1125 19:29:25.478289 18053 net.cpp:157] Top shape: 64 64 14 14 (802816)
I1125 19:29:25.478292 18053 net.cpp:165] Memory required for data: 3027339780
I1125 19:29:25.478296 18053 layer_factory.hpp:76] Creating layer inception_4d/pool
I1125 19:29:25.478302 18053 net.cpp:106] Creating Layer inception_4d/pool
I1125 19:29:25.478305 18053 net.cpp:454] inception_4d/pool <- inception_4c/output_inception_4c/output_0_split_3
I1125 19:29:25.478312 18053 net.cpp:411] inception_4d/pool -> inception_4d/pool
I1125 19:29:25.478670 18053 net.cpp:150] Setting up inception_4d/pool
I1125 19:29:25.478684 18053 net.cpp:157] Top shape: 64 512 14 14 (6422528)
I1125 19:29:25.478688 18053 net.cpp:165] Memory required for data: 3053029892
I1125 19:29:25.478691 18053 layer_factory.hpp:76] Creating layer inception_4d/pool_proj
I1125 19:29:25.478699 18053 net.cpp:106] Creating Layer inception_4d/pool_proj
I1125 19:29:25.478704 18053 net.cpp:454] inception_4d/pool_proj <- inception_4d/pool
I1125 19:29:25.478711 18053 net.cpp:411] inception_4d/pool_proj -> inception_4d/pool_proj
I1125 19:29:25.480034 18053 net.cpp:150] Setting up inception_4d/pool_proj
I1125 19:29:25.480049 18053 net.cpp:157] Top shape: 64 64 14 14 (802816)
I1125 19:29:25.480052 18053 net.cpp:165] Memory required for data: 3056241156
I1125 19:29:25.480059 18053 layer_factory.hpp:76] Creating layer inception_4d/relu_pool_proj
I1125 19:29:25.480064 18053 net.cpp:106] Creating Layer inception_4d/relu_pool_proj
I1125 19:29:25.480070 18053 net.cpp:454] inception_4d/relu_pool_proj <- inception_4d/pool_proj
I1125 19:29:25.480077 18053 net.cpp:397] inception_4d/relu_pool_proj -> inception_4d/pool_proj (in-place)
I1125 19:29:25.480260 18053 net.cpp:150] Setting up inception_4d/relu_pool_proj
I1125 19:29:25.480273 18053 net.cpp:157] Top shape: 64 64 14 14 (802816)
I1125 19:29:25.480275 18053 net.cpp:165] Memory required for data: 3059452420
I1125 19:29:25.480279 18053 layer_factory.hpp:76] Creating layer inception_4d/output
I1125 19:29:25.480286 18053 net.cpp:106] Creating Layer inception_4d/output
I1125 19:29:25.480290 18053 net.cpp:454] inception_4d/output <- inception_4d/1x1
I1125 19:29:25.480294 18053 net.cpp:454] inception_4d/output <- inception_4d/3x3
I1125 19:29:25.480298 18053 net.cpp:454] inception_4d/output <- inception_4d/5x5
I1125 19:29:25.480301 18053 net.cpp:454] inception_4d/output <- inception_4d/pool_proj
I1125 19:29:25.480306 18053 net.cpp:411] inception_4d/output -> inception_4d/output
I1125 19:29:25.480343 18053 net.cpp:150] Setting up inception_4d/output
I1125 19:29:25.480350 18053 net.cpp:157] Top shape: 64 528 14 14 (6623232)
I1125 19:29:25.480352 18053 net.cpp:165] Memory required for data: 3085945348
I1125 19:29:25.480355 18053 layer_factory.hpp:76] Creating layer inception_4d/output_inception_4d/output_0_split
I1125 19:29:25.480361 18053 net.cpp:106] Creating Layer inception_4d/output_inception_4d/output_0_split
I1125 19:29:25.480365 18053 net.cpp:454] inception_4d/output_inception_4d/output_0_split <- inception_4d/output
I1125 19:29:25.480370 18053 net.cpp:411] inception_4d/output_inception_4d/output_0_split -> inception_4d/output_inception_4d/output_0_split_0
I1125 19:29:25.480377 18053 net.cpp:411] inception_4d/output_inception_4d/output_0_split -> inception_4d/output_inception_4d/output_0_split_1
I1125 19:29:25.480382 18053 net.cpp:411] inception_4d/output_inception_4d/output_0_split -> inception_4d/output_inception_4d/output_0_split_2
I1125 19:29:25.480388 18053 net.cpp:411] inception_4d/output_inception_4d/output_0_split -> inception_4d/output_inception_4d/output_0_split_3
I1125 19:29:25.480392 18053 net.cpp:411] inception_4d/output_inception_4d/output_0_split -> inception_4d/output_inception_4d/output_0_split_4
I1125 19:29:25.480481 18053 net.cpp:150] Setting up inception_4d/output_inception_4d/output_0_split
I1125 19:29:25.480490 18053 net.cpp:157] Top shape: 64 528 14 14 (6623232)
I1125 19:29:25.480494 18053 net.cpp:157] Top shape: 64 528 14 14 (6623232)
I1125 19:29:25.480497 18053 net.cpp:157] Top shape: 64 528 14 14 (6623232)
I1125 19:29:25.480500 18053 net.cpp:157] Top shape: 64 528 14 14 (6623232)
I1125 19:29:25.480504 18053 net.cpp:157] Top shape: 64 528 14 14 (6623232)
I1125 19:29:25.480507 18053 net.cpp:165] Memory required for data: 3218409988
I1125 19:29:25.480509 18053 layer_factory.hpp:76] Creating layer loss2/ave_pool
I1125 19:29:25.480515 18053 net.cpp:106] Creating Layer loss2/ave_pool
I1125 19:29:25.480518 18053 net.cpp:454] loss2/ave_pool <- inception_4d/output_inception_4d/output_0_split_0
I1125 19:29:25.480525 18053 net.cpp:411] loss2/ave_pool -> loss2/ave_pool
I1125 19:29:25.480870 18053 net.cpp:150] Setting up loss2/ave_pool
I1125 19:29:25.480883 18053 net.cpp:157] Top shape: 64 528 4 4 (540672)
I1125 19:29:25.480886 18053 net.cpp:165] Memory required for data: 3220572676
I1125 19:29:25.480890 18053 layer_factory.hpp:76] Creating layer loss2/conv
I1125 19:29:25.480898 18053 net.cpp:106] Creating Layer loss2/conv
I1125 19:29:25.480902 18053 net.cpp:454] loss2/conv <- loss2/ave_pool
I1125 19:29:25.480909 18053 net.cpp:411] loss2/conv -> loss2/conv
I1125 19:29:25.482763 18053 net.cpp:150] Setting up loss2/conv
I1125 19:29:25.482779 18053 net.cpp:157] Top shape: 64 128 4 4 (131072)
I1125 19:29:25.482782 18053 net.cpp:165] Memory required for data: 3221096964
I1125 19:29:25.482789 18053 layer_factory.hpp:76] Creating layer loss2/relu_conv
I1125 19:29:25.482795 18053 net.cpp:106] Creating Layer loss2/relu_conv
I1125 19:29:25.482803 18053 net.cpp:454] loss2/relu_conv <- loss2/conv
I1125 19:29:25.482810 18053 net.cpp:397] loss2/relu_conv -> loss2/conv (in-place)
I1125 19:29:25.483260 18053 net.cpp:150] Setting up loss2/relu_conv
I1125 19:29:25.483276 18053 net.cpp:157] Top shape: 64 128 4 4 (131072)
I1125 19:29:25.483279 18053 net.cpp:165] Memory required for data: 3221621252
I1125 19:29:25.483283 18053 layer_factory.hpp:76] Creating layer loss2/fc
I1125 19:29:25.483294 18053 net.cpp:106] Creating Layer loss2/fc
I1125 19:29:25.483297 18053 net.cpp:454] loss2/fc <- loss2/conv
I1125 19:29:25.483304 18053 net.cpp:411] loss2/fc -> loss2/fc
I1125 19:29:25.498854 18053 net.cpp:150] Setting up loss2/fc
I1125 19:29:25.498870 18053 net.cpp:157] Top shape: 64 1024 (65536)
I1125 19:29:25.498873 18053 net.cpp:165] Memory required for data: 3221883396
I1125 19:29:25.498880 18053 layer_factory.hpp:76] Creating layer loss2/relu_fc
I1125 19:29:25.498886 18053 net.cpp:106] Creating Layer loss2/relu_fc
I1125 19:29:25.498891 18053 net.cpp:454] loss2/relu_fc <- loss2/fc
I1125 19:29:25.498898 18053 net.cpp:397] loss2/relu_fc -> loss2/fc (in-place)
I1125 19:29:25.499099 18053 net.cpp:150] Setting up loss2/relu_fc
I1125 19:29:25.499112 18053 net.cpp:157] Top shape: 64 1024 (65536)
I1125 19:29:25.499115 18053 net.cpp:165] Memory required for data: 3222145540
I1125 19:29:25.499119 18053 layer_factory.hpp:76] Creating layer loss2/drop_fc
I1125 19:29:25.499125 18053 net.cpp:106] Creating Layer loss2/drop_fc
I1125 19:29:25.499130 18053 net.cpp:454] loss2/drop_fc <- loss2/fc
I1125 19:29:25.499135 18053 net.cpp:397] loss2/drop_fc -> loss2/fc (in-place)
I1125 19:29:25.499174 18053 net.cpp:150] Setting up loss2/drop_fc
I1125 19:29:25.499182 18053 net.cpp:157] Top shape: 64 1024 (65536)
I1125 19:29:25.499186 18053 net.cpp:165] Memory required for data: 3222407684
I1125 19:29:25.499188 18053 layer_factory.hpp:76] Creating layer loss2/classifier-attribute
I1125 19:29:25.499196 18053 net.cpp:106] Creating Layer loss2/classifier-attribute
I1125 19:29:25.499202 18053 net.cpp:454] loss2/classifier-attribute <- loss2/fc
I1125 19:29:25.499207 18053 net.cpp:411] loss2/classifier-attribute -> loss2/classifier-attribute
I1125 19:29:25.499382 18053 net.cpp:150] Setting up loss2/classifier-attribute
I1125 19:29:25.499390 18053 net.cpp:157] Top shape: 64 6 (384)
I1125 19:29:25.499393 18053 net.cpp:165] Memory required for data: 3222409220
I1125 19:29:25.499398 18053 layer_factory.hpp:76] Creating layer loss2/loss
I1125 19:29:25.499404 18053 net.cpp:106] Creating Layer loss2/loss
I1125 19:29:25.499408 18053 net.cpp:454] loss2/loss <- loss2/classifier-attribute
I1125 19:29:25.499413 18053 net.cpp:454] loss2/loss <- label_data_1_split_1
I1125 19:29:25.499419 18053 net.cpp:411] loss2/loss -> loss2/loss1
I1125 19:29:25.499429 18053 layer_factory.hpp:76] Creating layer loss2/loss
I1125 19:29:25.499874 18053 net.cpp:150] Setting up loss2/loss
I1125 19:29:25.499887 18053 net.cpp:157] Top shape: (1)
I1125 19:29:25.499891 18053 net.cpp:160]     with loss weight 0.3
I1125 19:29:25.499900 18053 net.cpp:165] Memory required for data: 3222409224
I1125 19:29:25.499904 18053 layer_factory.hpp:76] Creating layer inception_4e/1x1
I1125 19:29:25.499913 18053 net.cpp:106] Creating Layer inception_4e/1x1
I1125 19:29:25.499918 18053 net.cpp:454] inception_4e/1x1 <- inception_4d/output_inception_4d/output_0_split_1
I1125 19:29:25.499925 18053 net.cpp:411] inception_4e/1x1 -> inception_4e/1x1
I1125 19:29:25.501891 18053 net.cpp:150] Setting up inception_4e/1x1
I1125 19:29:25.501905 18053 net.cpp:157] Top shape: 64 256 14 14 (3211264)
I1125 19:29:25.501909 18053 net.cpp:165] Memory required for data: 3235254280
I1125 19:29:25.501915 18053 layer_factory.hpp:76] Creating layer inception_4e/relu_1x1
I1125 19:29:25.501922 18053 net.cpp:106] Creating Layer inception_4e/relu_1x1
I1125 19:29:25.501927 18053 net.cpp:454] inception_4e/relu_1x1 <- inception_4e/1x1
I1125 19:29:25.501934 18053 net.cpp:397] inception_4e/relu_1x1 -> inception_4e/1x1 (in-place)
I1125 19:29:25.502118 18053 net.cpp:150] Setting up inception_4e/relu_1x1
I1125 19:29:25.502130 18053 net.cpp:157] Top shape: 64 256 14 14 (3211264)
I1125 19:29:25.502132 18053 net.cpp:165] Memory required for data: 3248099336
I1125 19:29:25.502136 18053 layer_factory.hpp:76] Creating layer inception_4e/3x3_reduce
I1125 19:29:25.502145 18053 net.cpp:106] Creating Layer inception_4e/3x3_reduce
I1125 19:29:25.502151 18053 net.cpp:454] inception_4e/3x3_reduce <- inception_4d/output_inception_4d/output_0_split_2
I1125 19:29:25.502159 18053 net.cpp:411] inception_4e/3x3_reduce -> inception_4e/3x3_reduce
I1125 19:29:25.504256 18053 net.cpp:150] Setting up inception_4e/3x3_reduce
I1125 19:29:25.504271 18053 net.cpp:157] Top shape: 64 160 14 14 (2007040)
I1125 19:29:25.504276 18053 net.cpp:165] Memory required for data: 3256127496
I1125 19:29:25.504281 18053 layer_factory.hpp:76] Creating layer inception_4e/relu_3x3_reduce
I1125 19:29:25.504287 18053 net.cpp:106] Creating Layer inception_4e/relu_3x3_reduce
I1125 19:29:25.504292 18053 net.cpp:454] inception_4e/relu_3x3_reduce <- inception_4e/3x3_reduce
I1125 19:29:25.504298 18053 net.cpp:397] inception_4e/relu_3x3_reduce -> inception_4e/3x3_reduce (in-place)
I1125 19:29:25.504623 18053 net.cpp:150] Setting up inception_4e/relu_3x3_reduce
I1125 19:29:25.504637 18053 net.cpp:157] Top shape: 64 160 14 14 (2007040)
I1125 19:29:25.504640 18053 net.cpp:165] Memory required for data: 3264155656
I1125 19:29:25.504644 18053 layer_factory.hpp:76] Creating layer inception_4e/3x3
I1125 19:29:25.504653 18053 net.cpp:106] Creating Layer inception_4e/3x3
I1125 19:29:25.504657 18053 net.cpp:454] inception_4e/3x3 <- inception_4e/3x3_reduce
I1125 19:29:25.504664 18053 net.cpp:411] inception_4e/3x3 -> inception_4e/3x3
I1125 19:29:25.509188 18053 net.cpp:150] Setting up inception_4e/3x3
I1125 19:29:25.509203 18053 net.cpp:157] Top shape: 64 320 14 14 (4014080)
I1125 19:29:25.509207 18053 net.cpp:165] Memory required for data: 3280211976
I1125 19:29:25.509213 18053 layer_factory.hpp:76] Creating layer inception_4e/relu_3x3
I1125 19:29:25.509222 18053 net.cpp:106] Creating Layer inception_4e/relu_3x3
I1125 19:29:25.509225 18053 net.cpp:454] inception_4e/relu_3x3 <- inception_4e/3x3
I1125 19:29:25.509233 18053 net.cpp:397] inception_4e/relu_3x3 -> inception_4e/3x3 (in-place)
I1125 19:29:25.509555 18053 net.cpp:150] Setting up inception_4e/relu_3x3
I1125 19:29:25.509569 18053 net.cpp:157] Top shape: 64 320 14 14 (4014080)
I1125 19:29:25.509572 18053 net.cpp:165] Memory required for data: 3296268296
I1125 19:29:25.509575 18053 layer_factory.hpp:76] Creating layer inception_4e/5x5_reduce
I1125 19:29:25.509585 18053 net.cpp:106] Creating Layer inception_4e/5x5_reduce
I1125 19:29:25.509589 18053 net.cpp:454] inception_4e/5x5_reduce <- inception_4d/output_inception_4d/output_0_split_3
I1125 19:29:25.509595 18053 net.cpp:411] inception_4e/5x5_reduce -> inception_4e/5x5_reduce
I1125 19:29:25.510853 18053 net.cpp:150] Setting up inception_4e/5x5_reduce
I1125 19:29:25.510867 18053 net.cpp:157] Top shape: 64 32 14 14 (401408)
I1125 19:29:25.510871 18053 net.cpp:165] Memory required for data: 3297873928
I1125 19:29:25.510877 18053 layer_factory.hpp:76] Creating layer inception_4e/relu_5x5_reduce
I1125 19:29:25.510884 18053 net.cpp:106] Creating Layer inception_4e/relu_5x5_reduce
I1125 19:29:25.510887 18053 net.cpp:454] inception_4e/relu_5x5_reduce <- inception_4e/5x5_reduce
I1125 19:29:25.510895 18053 net.cpp:397] inception_4e/relu_5x5_reduce -> inception_4e/5x5_reduce (in-place)
I1125 19:29:25.511075 18053 net.cpp:150] Setting up inception_4e/relu_5x5_reduce
I1125 19:29:25.511085 18053 net.cpp:157] Top shape: 64 32 14 14 (401408)
I1125 19:29:25.511090 18053 net.cpp:165] Memory required for data: 3299479560
I1125 19:29:25.511093 18053 layer_factory.hpp:76] Creating layer inception_4e/5x5
I1125 19:29:25.511116 18053 net.cpp:106] Creating Layer inception_4e/5x5
I1125 19:29:25.511123 18053 net.cpp:454] inception_4e/5x5 <- inception_4e/5x5_reduce
I1125 19:29:25.511129 18053 net.cpp:411] inception_4e/5x5 -> inception_4e/5x5
I1125 19:29:25.512940 18053 net.cpp:150] Setting up inception_4e/5x5
I1125 19:29:25.512954 18053 net.cpp:157] Top shape: 64 128 14 14 (1605632)
I1125 19:29:25.512959 18053 net.cpp:165] Memory required for data: 3305902088
I1125 19:29:25.512965 18053 layer_factory.hpp:76] Creating layer inception_4e/relu_5x5
I1125 19:29:25.512972 18053 net.cpp:106] Creating Layer inception_4e/relu_5x5
I1125 19:29:25.512977 18053 net.cpp:454] inception_4e/relu_5x5 <- inception_4e/5x5
I1125 19:29:25.512982 18053 net.cpp:397] inception_4e/relu_5x5 -> inception_4e/5x5 (in-place)
I1125 19:29:25.513310 18053 net.cpp:150] Setting up inception_4e/relu_5x5
I1125 19:29:25.513325 18053 net.cpp:157] Top shape: 64 128 14 14 (1605632)
I1125 19:29:25.513329 18053 net.cpp:165] Memory required for data: 3312324616
I1125 19:29:25.513332 18053 layer_factory.hpp:76] Creating layer inception_4e/pool
I1125 19:29:25.513340 18053 net.cpp:106] Creating Layer inception_4e/pool
I1125 19:29:25.513348 18053 net.cpp:454] inception_4e/pool <- inception_4d/output_inception_4d/output_0_split_4
I1125 19:29:25.513355 18053 net.cpp:411] inception_4e/pool -> inception_4e/pool
I1125 19:29:25.513576 18053 net.cpp:150] Setting up inception_4e/pool
I1125 19:29:25.513587 18053 net.cpp:157] Top shape: 64 528 14 14 (6623232)
I1125 19:29:25.513592 18053 net.cpp:165] Memory required for data: 3338817544
I1125 19:29:25.513594 18053 layer_factory.hpp:76] Creating layer inception_4e/pool_proj
I1125 19:29:25.513603 18053 net.cpp:106] Creating Layer inception_4e/pool_proj
I1125 19:29:25.513609 18053 net.cpp:454] inception_4e/pool_proj <- inception_4e/pool
I1125 19:29:25.513619 18053 net.cpp:411] inception_4e/pool_proj -> inception_4e/pool_proj
I1125 19:29:25.515209 18053 net.cpp:150] Setting up inception_4e/pool_proj
I1125 19:29:25.515224 18053 net.cpp:157] Top shape: 64 128 14 14 (1605632)
I1125 19:29:25.515228 18053 net.cpp:165] Memory required for data: 3345240072
I1125 19:29:25.515234 18053 layer_factory.hpp:76] Creating layer inception_4e/relu_pool_proj
I1125 19:29:25.515240 18053 net.cpp:106] Creating Layer inception_4e/relu_pool_proj
I1125 19:29:25.515244 18053 net.cpp:454] inception_4e/relu_pool_proj <- inception_4e/pool_proj
I1125 19:29:25.515249 18053 net.cpp:397] inception_4e/relu_pool_proj -> inception_4e/pool_proj (in-place)
I1125 19:29:25.515580 18053 net.cpp:150] Setting up inception_4e/relu_pool_proj
I1125 19:29:25.515594 18053 net.cpp:157] Top shape: 64 128 14 14 (1605632)
I1125 19:29:25.515597 18053 net.cpp:165] Memory required for data: 3351662600
I1125 19:29:25.515601 18053 layer_factory.hpp:76] Creating layer inception_4e/output
I1125 19:29:25.515607 18053 net.cpp:106] Creating Layer inception_4e/output
I1125 19:29:25.515611 18053 net.cpp:454] inception_4e/output <- inception_4e/1x1
I1125 19:29:25.515616 18053 net.cpp:454] inception_4e/output <- inception_4e/3x3
I1125 19:29:25.515620 18053 net.cpp:454] inception_4e/output <- inception_4e/5x5
I1125 19:29:25.515625 18053 net.cpp:454] inception_4e/output <- inception_4e/pool_proj
I1125 19:29:25.515630 18053 net.cpp:411] inception_4e/output -> inception_4e/output
I1125 19:29:25.515669 18053 net.cpp:150] Setting up inception_4e/output
I1125 19:29:25.515681 18053 net.cpp:157] Top shape: 64 832 14 14 (10436608)
I1125 19:29:25.515683 18053 net.cpp:165] Memory required for data: 3393409032
I1125 19:29:25.515686 18053 layer_factory.hpp:76] Creating layer pool4/3x3_s2
I1125 19:29:25.515692 18053 net.cpp:106] Creating Layer pool4/3x3_s2
I1125 19:29:25.515696 18053 net.cpp:454] pool4/3x3_s2 <- inception_4e/output
I1125 19:29:25.515700 18053 net.cpp:411] pool4/3x3_s2 -> pool4/3x3_s2
I1125 19:29:25.515923 18053 net.cpp:150] Setting up pool4/3x3_s2
I1125 19:29:25.515935 18053 net.cpp:157] Top shape: 64 832 7 7 (2609152)
I1125 19:29:25.515938 18053 net.cpp:165] Memory required for data: 3403845640
I1125 19:29:25.515941 18053 layer_factory.hpp:76] Creating layer pool4/3x3_s2_pool4/3x3_s2_0_split
I1125 19:29:25.515947 18053 net.cpp:106] Creating Layer pool4/3x3_s2_pool4/3x3_s2_0_split
I1125 19:29:25.515951 18053 net.cpp:454] pool4/3x3_s2_pool4/3x3_s2_0_split <- pool4/3x3_s2
I1125 19:29:25.515959 18053 net.cpp:411] pool4/3x3_s2_pool4/3x3_s2_0_split -> pool4/3x3_s2_pool4/3x3_s2_0_split_0
I1125 19:29:25.515964 18053 net.cpp:411] pool4/3x3_s2_pool4/3x3_s2_0_split -> pool4/3x3_s2_pool4/3x3_s2_0_split_1
I1125 19:29:25.515974 18053 net.cpp:411] pool4/3x3_s2_pool4/3x3_s2_0_split -> pool4/3x3_s2_pool4/3x3_s2_0_split_2
I1125 19:29:25.515979 18053 net.cpp:411] pool4/3x3_s2_pool4/3x3_s2_0_split -> pool4/3x3_s2_pool4/3x3_s2_0_split_3
I1125 19:29:25.516053 18053 net.cpp:150] Setting up pool4/3x3_s2_pool4/3x3_s2_0_split
I1125 19:29:25.516062 18053 net.cpp:157] Top shape: 64 832 7 7 (2609152)
I1125 19:29:25.516065 18053 net.cpp:157] Top shape: 64 832 7 7 (2609152)
I1125 19:29:25.516069 18053 net.cpp:157] Top shape: 64 832 7 7 (2609152)
I1125 19:29:25.516072 18053 net.cpp:157] Top shape: 64 832 7 7 (2609152)
I1125 19:29:25.516075 18053 net.cpp:165] Memory required for data: 3445592072
I1125 19:29:25.516078 18053 layer_factory.hpp:76] Creating layer inception_5a/1x1
I1125 19:29:25.516088 18053 net.cpp:106] Creating Layer inception_5a/1x1
I1125 19:29:25.516090 18053 net.cpp:454] inception_5a/1x1 <- pool4/3x3_s2_pool4/3x3_s2_0_split_0
I1125 19:29:25.516096 18053 net.cpp:411] inception_5a/1x1 -> inception_5a/1x1
I1125 19:29:25.519008 18053 net.cpp:150] Setting up inception_5a/1x1
I1125 19:29:25.519024 18053 net.cpp:157] Top shape: 64 256 7 7 (802816)
I1125 19:29:25.519028 18053 net.cpp:165] Memory required for data: 3448803336
I1125 19:29:25.519035 18053 layer_factory.hpp:76] Creating layer inception_5a/relu_1x1
I1125 19:29:25.519044 18053 net.cpp:106] Creating Layer inception_5a/relu_1x1
I1125 19:29:25.519048 18053 net.cpp:454] inception_5a/relu_1x1 <- inception_5a/1x1
I1125 19:29:25.519053 18053 net.cpp:397] inception_5a/relu_1x1 -> inception_5a/1x1 (in-place)
I1125 19:29:25.519374 18053 net.cpp:150] Setting up inception_5a/relu_1x1
I1125 19:29:25.519389 18053 net.cpp:157] Top shape: 64 256 7 7 (802816)
I1125 19:29:25.519392 18053 net.cpp:165] Memory required for data: 3452014600
I1125 19:29:25.519397 18053 layer_factory.hpp:76] Creating layer inception_5a/3x3_reduce
I1125 19:29:25.519403 18053 net.cpp:106] Creating Layer inception_5a/3x3_reduce
I1125 19:29:25.519408 18053 net.cpp:454] inception_5a/3x3_reduce <- pool4/3x3_s2_pool4/3x3_s2_0_split_1
I1125 19:29:25.519415 18053 net.cpp:411] inception_5a/3x3_reduce -> inception_5a/3x3_reduce
I1125 19:29:25.521855 18053 net.cpp:150] Setting up inception_5a/3x3_reduce
I1125 19:29:25.521870 18053 net.cpp:157] Top shape: 64 160 7 7 (501760)
I1125 19:29:25.521874 18053 net.cpp:165] Memory required for data: 3454021640
I1125 19:29:25.521880 18053 layer_factory.hpp:76] Creating layer inception_5a/relu_3x3_reduce
I1125 19:29:25.521888 18053 net.cpp:106] Creating Layer inception_5a/relu_3x3_reduce
I1125 19:29:25.521893 18053 net.cpp:454] inception_5a/relu_3x3_reduce <- inception_5a/3x3_reduce
I1125 19:29:25.521898 18053 net.cpp:397] inception_5a/relu_3x3_reduce -> inception_5a/3x3_reduce (in-place)
I1125 19:29:25.522230 18053 net.cpp:150] Setting up inception_5a/relu_3x3_reduce
I1125 19:29:25.522244 18053 net.cpp:157] Top shape: 64 160 7 7 (501760)
I1125 19:29:25.522248 18053 net.cpp:165] Memory required for data: 3456028680
I1125 19:29:25.522251 18053 layer_factory.hpp:76] Creating layer inception_5a/3x3
I1125 19:29:25.522261 18053 net.cpp:106] Creating Layer inception_5a/3x3
I1125 19:29:25.522265 18053 net.cpp:454] inception_5a/3x3 <- inception_5a/3x3_reduce
I1125 19:29:25.522272 18053 net.cpp:411] inception_5a/3x3 -> inception_5a/3x3
I1125 19:29:25.527005 18053 net.cpp:150] Setting up inception_5a/3x3
I1125 19:29:25.527020 18053 net.cpp:157] Top shape: 64 320 7 7 (1003520)
I1125 19:29:25.527024 18053 net.cpp:165] Memory required for data: 3460042760
I1125 19:29:25.527030 18053 layer_factory.hpp:76] Creating layer inception_5a/relu_3x3
I1125 19:29:25.527039 18053 net.cpp:106] Creating Layer inception_5a/relu_3x3
I1125 19:29:25.527042 18053 net.cpp:454] inception_5a/relu_3x3 <- inception_5a/3x3
I1125 19:29:25.527048 18053 net.cpp:397] inception_5a/relu_3x3 -> inception_5a/3x3 (in-place)
I1125 19:29:25.527238 18053 net.cpp:150] Setting up inception_5a/relu_3x3
I1125 19:29:25.527250 18053 net.cpp:157] Top shape: 64 320 7 7 (1003520)
I1125 19:29:25.527253 18053 net.cpp:165] Memory required for data: 3464056840
I1125 19:29:25.527256 18053 layer_factory.hpp:76] Creating layer inception_5a/5x5_reduce
I1125 19:29:25.527266 18053 net.cpp:106] Creating Layer inception_5a/5x5_reduce
I1125 19:29:25.527271 18053 net.cpp:454] inception_5a/5x5_reduce <- pool4/3x3_s2_pool4/3x3_s2_0_split_2
I1125 19:29:25.527277 18053 net.cpp:411] inception_5a/5x5_reduce -> inception_5a/5x5_reduce
I1125 19:29:25.528637 18053 net.cpp:150] Setting up inception_5a/5x5_reduce
I1125 19:29:25.528652 18053 net.cpp:157] Top shape: 64 32 7 7 (100352)
I1125 19:29:25.528656 18053 net.cpp:165] Memory required for data: 3464458248
I1125 19:29:25.528662 18053 layer_factory.hpp:76] Creating layer inception_5a/relu_5x5_reduce
I1125 19:29:25.528668 18053 net.cpp:106] Creating Layer inception_5a/relu_5x5_reduce
I1125 19:29:25.528673 18053 net.cpp:454] inception_5a/relu_5x5_reduce <- inception_5a/5x5_reduce
I1125 19:29:25.528681 18053 net.cpp:397] inception_5a/relu_5x5_reduce -> inception_5a/5x5_reduce (in-place)
I1125 19:29:25.528872 18053 net.cpp:150] Setting up inception_5a/relu_5x5_reduce
I1125 19:29:25.528883 18053 net.cpp:157] Top shape: 64 32 7 7 (100352)
I1125 19:29:25.528887 18053 net.cpp:165] Memory required for data: 3464859656
I1125 19:29:25.528892 18053 layer_factory.hpp:76] Creating layer inception_5a/5x5
I1125 19:29:25.528898 18053 net.cpp:106] Creating Layer inception_5a/5x5
I1125 19:29:25.528904 18053 net.cpp:454] inception_5a/5x5 <- inception_5a/5x5_reduce
I1125 19:29:25.528914 18053 net.cpp:411] inception_5a/5x5 -> inception_5a/5x5
I1125 19:29:25.533735 18053 net.cpp:150] Setting up inception_5a/5x5
I1125 19:29:25.533751 18053 net.cpp:157] Top shape: 64 128 7 7 (401408)
I1125 19:29:25.533754 18053 net.cpp:165] Memory required for data: 3466465288
I1125 19:29:25.533761 18053 layer_factory.hpp:76] Creating layer inception_5a/relu_5x5
I1125 19:29:25.533767 18053 net.cpp:106] Creating Layer inception_5a/relu_5x5
I1125 19:29:25.533771 18053 net.cpp:454] inception_5a/relu_5x5 <- inception_5a/5x5
I1125 19:29:25.533777 18053 net.cpp:397] inception_5a/relu_5x5 -> inception_5a/5x5 (in-place)
I1125 19:29:25.534113 18053 net.cpp:150] Setting up inception_5a/relu_5x5
I1125 19:29:25.534126 18053 net.cpp:157] Top shape: 64 128 7 7 (401408)
I1125 19:29:25.534131 18053 net.cpp:165] Memory required for data: 3468070920
I1125 19:29:25.534133 18053 layer_factory.hpp:76] Creating layer inception_5a/pool
I1125 19:29:25.534140 18053 net.cpp:106] Creating Layer inception_5a/pool
I1125 19:29:25.534144 18053 net.cpp:454] inception_5a/pool <- pool4/3x3_s2_pool4/3x3_s2_0_split_3
I1125 19:29:25.534152 18053 net.cpp:411] inception_5a/pool -> inception_5a/pool
I1125 19:29:25.534380 18053 net.cpp:150] Setting up inception_5a/pool
I1125 19:29:25.534392 18053 net.cpp:157] Top shape: 64 832 7 7 (2609152)
I1125 19:29:25.534396 18053 net.cpp:165] Memory required for data: 3478507528
I1125 19:29:25.534399 18053 layer_factory.hpp:76] Creating layer inception_5a/pool_proj
I1125 19:29:25.534406 18053 net.cpp:106] Creating Layer inception_5a/pool_proj
I1125 19:29:25.534411 18053 net.cpp:454] inception_5a/pool_proj <- inception_5a/pool
I1125 19:29:25.534417 18053 net.cpp:411] inception_5a/pool_proj -> inception_5a/pool_proj
I1125 19:29:25.537370 18053 net.cpp:150] Setting up inception_5a/pool_proj
I1125 19:29:25.537391 18053 net.cpp:157] Top shape: 64 128 7 7 (401408)
I1125 19:29:25.537396 18053 net.cpp:165] Memory required for data: 3480113160
I1125 19:29:25.537405 18053 layer_factory.hpp:76] Creating layer inception_5a/relu_pool_proj
I1125 19:29:25.537415 18053 net.cpp:106] Creating Layer inception_5a/relu_pool_proj
I1125 19:29:25.537422 18053 net.cpp:454] inception_5a/relu_pool_proj <- inception_5a/pool_proj
I1125 19:29:25.537430 18053 net.cpp:397] inception_5a/relu_pool_proj -> inception_5a/pool_proj (in-place)
I1125 19:29:25.537880 18053 net.cpp:150] Setting up inception_5a/relu_pool_proj
I1125 19:29:25.537899 18053 net.cpp:157] Top shape: 64 128 7 7 (401408)
I1125 19:29:25.537904 18053 net.cpp:165] Memory required for data: 3481718792
I1125 19:29:25.537909 18053 layer_factory.hpp:76] Creating layer inception_5a/output
I1125 19:29:25.537919 18053 net.cpp:106] Creating Layer inception_5a/output
I1125 19:29:25.537925 18053 net.cpp:454] inception_5a/output <- inception_5a/1x1
I1125 19:29:25.537932 18053 net.cpp:454] inception_5a/output <- inception_5a/3x3
I1125 19:29:25.537938 18053 net.cpp:454] inception_5a/output <- inception_5a/5x5
I1125 19:29:25.537943 18053 net.cpp:454] inception_5a/output <- inception_5a/pool_proj
I1125 19:29:25.537963 18053 net.cpp:411] inception_5a/output -> inception_5a/output
I1125 19:29:25.538019 18053 net.cpp:150] Setting up inception_5a/output
I1125 19:29:25.538033 18053 net.cpp:157] Top shape: 64 832 7 7 (2609152)
I1125 19:29:25.538036 18053 net.cpp:165] Memory required for data: 3492155400
I1125 19:29:25.538040 18053 layer_factory.hpp:76] Creating layer inception_5a/output_inception_5a/output_0_split
I1125 19:29:25.538048 18053 net.cpp:106] Creating Layer inception_5a/output_inception_5a/output_0_split
I1125 19:29:25.538056 18053 net.cpp:454] inception_5a/output_inception_5a/output_0_split <- inception_5a/output
I1125 19:29:25.538065 18053 net.cpp:411] inception_5a/output_inception_5a/output_0_split -> inception_5a/output_inception_5a/output_0_split_0
I1125 19:29:25.538074 18053 net.cpp:411] inception_5a/output_inception_5a/output_0_split -> inception_5a/output_inception_5a/output_0_split_1
I1125 19:29:25.538086 18053 net.cpp:411] inception_5a/output_inception_5a/output_0_split -> inception_5a/output_inception_5a/output_0_split_2
I1125 19:29:25.538094 18053 net.cpp:411] inception_5a/output_inception_5a/output_0_split -> inception_5a/output_inception_5a/output_0_split_3
I1125 19:29:25.538210 18053 net.cpp:150] Setting up inception_5a/output_inception_5a/output_0_split
I1125 19:29:25.538223 18053 net.cpp:157] Top shape: 64 832 7 7 (2609152)
I1125 19:29:25.538228 18053 net.cpp:157] Top shape: 64 832 7 7 (2609152)
I1125 19:29:25.538236 18053 net.cpp:157] Top shape: 64 832 7 7 (2609152)
I1125 19:29:25.538241 18053 net.cpp:157] Top shape: 64 832 7 7 (2609152)
I1125 19:29:25.538246 18053 net.cpp:165] Memory required for data: 3533901832
I1125 19:29:25.538250 18053 layer_factory.hpp:76] Creating layer inception_5b/1x1
I1125 19:29:25.538260 18053 net.cpp:106] Creating Layer inception_5b/1x1
I1125 19:29:25.538267 18053 net.cpp:454] inception_5b/1x1 <- inception_5a/output_inception_5a/output_0_split_0
I1125 19:29:25.538282 18053 net.cpp:411] inception_5b/1x1 -> inception_5b/1x1
I1125 19:29:25.543437 18053 net.cpp:150] Setting up inception_5b/1x1
I1125 19:29:25.543457 18053 net.cpp:157] Top shape: 64 384 7 7 (1204224)
I1125 19:29:25.543462 18053 net.cpp:165] Memory required for data: 3538718728
I1125 19:29:25.543473 18053 layer_factory.hpp:76] Creating layer inception_5b/relu_1x1
I1125 19:29:25.543480 18053 net.cpp:106] Creating Layer inception_5b/relu_1x1
I1125 19:29:25.543486 18053 net.cpp:454] inception_5b/relu_1x1 <- inception_5b/1x1
I1125 19:29:25.543493 18053 net.cpp:397] inception_5b/relu_1x1 -> inception_5b/1x1 (in-place)
I1125 19:29:25.543934 18053 net.cpp:150] Setting up inception_5b/relu_1x1
I1125 19:29:25.543952 18053 net.cpp:157] Top shape: 64 384 7 7 (1204224)
I1125 19:29:25.543958 18053 net.cpp:165] Memory required for data: 3543535624
I1125 19:29:25.543963 18053 layer_factory.hpp:76] Creating layer inception_5b/3x3_reduce
I1125 19:29:25.543974 18053 net.cpp:106] Creating Layer inception_5b/3x3_reduce
I1125 19:29:25.543980 18053 net.cpp:454] inception_5b/3x3_reduce <- inception_5a/output_inception_5a/output_0_split_1
I1125 19:29:25.543989 18053 net.cpp:411] inception_5b/3x3_reduce -> inception_5b/3x3_reduce
I1125 19:29:25.547520 18053 net.cpp:150] Setting up inception_5b/3x3_reduce
I1125 19:29:25.547535 18053 net.cpp:157] Top shape: 64 192 7 7 (602112)
I1125 19:29:25.547539 18053 net.cpp:165] Memory required for data: 3545944072
I1125 19:29:25.547547 18053 layer_factory.hpp:76] Creating layer inception_5b/relu_3x3_reduce
I1125 19:29:25.547554 18053 net.cpp:106] Creating Layer inception_5b/relu_3x3_reduce
I1125 19:29:25.547559 18053 net.cpp:454] inception_5b/relu_3x3_reduce <- inception_5b/3x3_reduce
I1125 19:29:25.547565 18053 net.cpp:397] inception_5b/relu_3x3_reduce -> inception_5b/3x3_reduce (in-place)
I1125 19:29:25.547755 18053 net.cpp:150] Setting up inception_5b/relu_3x3_reduce
I1125 19:29:25.547766 18053 net.cpp:157] Top shape: 64 192 7 7 (602112)
I1125 19:29:25.547770 18053 net.cpp:165] Memory required for data: 3548352520
I1125 19:29:25.547772 18053 layer_factory.hpp:76] Creating layer inception_5b/3x3
I1125 19:29:25.547781 18053 net.cpp:106] Creating Layer inception_5b/3x3
I1125 19:29:25.547785 18053 net.cpp:454] inception_5b/3x3 <- inception_5b/3x3_reduce
I1125 19:29:25.547792 18053 net.cpp:411] inception_5b/3x3 -> inception_5b/3x3
I1125 19:29:25.554102 18053 net.cpp:150] Setting up inception_5b/3x3
I1125 19:29:25.554118 18053 net.cpp:157] Top shape: 64 384 7 7 (1204224)
I1125 19:29:25.554122 18053 net.cpp:165] Memory required for data: 3553169416
I1125 19:29:25.554129 18053 layer_factory.hpp:76] Creating layer inception_5b/relu_3x3
I1125 19:29:25.554136 18053 net.cpp:106] Creating Layer inception_5b/relu_3x3
I1125 19:29:25.554141 18053 net.cpp:454] inception_5b/relu_3x3 <- inception_5b/3x3
I1125 19:29:25.554147 18053 net.cpp:397] inception_5b/relu_3x3 -> inception_5b/3x3 (in-place)
I1125 19:29:25.554491 18053 net.cpp:150] Setting up inception_5b/relu_3x3
I1125 19:29:25.554505 18053 net.cpp:157] Top shape: 64 384 7 7 (1204224)
I1125 19:29:25.554509 18053 net.cpp:165] Memory required for data: 3557986312
I1125 19:29:25.554512 18053 layer_factory.hpp:76] Creating layer inception_5b/5x5_reduce
I1125 19:29:25.554522 18053 net.cpp:106] Creating Layer inception_5b/5x5_reduce
I1125 19:29:25.554527 18053 net.cpp:454] inception_5b/5x5_reduce <- inception_5a/output_inception_5a/output_0_split_2
I1125 19:29:25.554533 18053 net.cpp:411] inception_5b/5x5_reduce -> inception_5b/5x5_reduce
I1125 19:29:25.556280 18053 net.cpp:150] Setting up inception_5b/5x5_reduce
I1125 19:29:25.556295 18053 net.cpp:157] Top shape: 64 48 7 7 (150528)
I1125 19:29:25.556300 18053 net.cpp:165] Memory required for data: 3558588424
I1125 19:29:25.556308 18053 layer_factory.hpp:76] Creating layer inception_5b/relu_5x5_reduce
I1125 19:29:25.556313 18053 net.cpp:106] Creating Layer inception_5b/relu_5x5_reduce
I1125 19:29:25.556318 18053 net.cpp:454] inception_5b/relu_5x5_reduce <- inception_5b/5x5_reduce
I1125 19:29:25.556324 18053 net.cpp:397] inception_5b/relu_5x5_reduce -> inception_5b/5x5_reduce (in-place)
I1125 19:29:25.556663 18053 net.cpp:150] Setting up inception_5b/relu_5x5_reduce
I1125 19:29:25.556677 18053 net.cpp:157] Top shape: 64 48 7 7 (150528)
I1125 19:29:25.556680 18053 net.cpp:165] Memory required for data: 3559190536
I1125 19:29:25.556684 18053 layer_factory.hpp:76] Creating layer inception_5b/5x5
I1125 19:29:25.556692 18053 net.cpp:106] Creating Layer inception_5b/5x5
I1125 19:29:25.556696 18053 net.cpp:454] inception_5b/5x5 <- inception_5b/5x5_reduce
I1125 19:29:25.556704 18053 net.cpp:411] inception_5b/5x5 -> inception_5b/5x5
I1125 19:29:25.558886 18053 net.cpp:150] Setting up inception_5b/5x5
I1125 19:29:25.558900 18053 net.cpp:157] Top shape: 64 128 7 7 (401408)
I1125 19:29:25.558903 18053 net.cpp:165] Memory required for data: 3560796168
I1125 19:29:25.558910 18053 layer_factory.hpp:76] Creating layer inception_5b/relu_5x5
I1125 19:29:25.558917 18053 net.cpp:106] Creating Layer inception_5b/relu_5x5
I1125 19:29:25.558923 18053 net.cpp:454] inception_5b/relu_5x5 <- inception_5b/5x5
I1125 19:29:25.558928 18053 net.cpp:397] inception_5b/relu_5x5 -> inception_5b/5x5 (in-place)
I1125 19:29:25.559121 18053 net.cpp:150] Setting up inception_5b/relu_5x5
I1125 19:29:25.559133 18053 net.cpp:157] Top shape: 64 128 7 7 (401408)
I1125 19:29:25.559135 18053 net.cpp:165] Memory required for data: 3562401800
I1125 19:29:25.559139 18053 layer_factory.hpp:76] Creating layer inception_5b/pool
I1125 19:29:25.559146 18053 net.cpp:106] Creating Layer inception_5b/pool
I1125 19:29:25.559150 18053 net.cpp:454] inception_5b/pool <- inception_5a/output_inception_5a/output_0_split_3
I1125 19:29:25.559157 18053 net.cpp:411] inception_5b/pool -> inception_5b/pool
I1125 19:29:25.559538 18053 net.cpp:150] Setting up inception_5b/pool
I1125 19:29:25.559552 18053 net.cpp:157] Top shape: 64 832 7 7 (2609152)
I1125 19:29:25.559556 18053 net.cpp:165] Memory required for data: 3572838408
I1125 19:29:25.559558 18053 layer_factory.hpp:76] Creating layer inception_5b/pool_proj
I1125 19:29:25.559569 18053 net.cpp:106] Creating Layer inception_5b/pool_proj
I1125 19:29:25.559573 18053 net.cpp:454] inception_5b/pool_proj <- inception_5b/pool
I1125 19:29:25.559581 18053 net.cpp:411] inception_5b/pool_proj -> inception_5b/pool_proj
I1125 19:29:25.561889 18053 net.cpp:150] Setting up inception_5b/pool_proj
I1125 19:29:25.561904 18053 net.cpp:157] Top shape: 64 128 7 7 (401408)
I1125 19:29:25.561908 18053 net.cpp:165] Memory required for data: 3574444040
I1125 19:29:25.561914 18053 layer_factory.hpp:76] Creating layer inception_5b/relu_pool_proj
I1125 19:29:25.561920 18053 net.cpp:106] Creating Layer inception_5b/relu_pool_proj
I1125 19:29:25.561925 18053 net.cpp:454] inception_5b/relu_pool_proj <- inception_5b/pool_proj
I1125 19:29:25.561930 18053 net.cpp:397] inception_5b/relu_pool_proj -> inception_5b/pool_proj (in-place)
I1125 19:29:25.562119 18053 net.cpp:150] Setting up inception_5b/relu_pool_proj
I1125 19:29:25.562130 18053 net.cpp:157] Top shape: 64 128 7 7 (401408)
I1125 19:29:25.562134 18053 net.cpp:165] Memory required for data: 3576049672
I1125 19:29:25.562137 18053 layer_factory.hpp:76] Creating layer inception_5b/output
I1125 19:29:25.562144 18053 net.cpp:106] Creating Layer inception_5b/output
I1125 19:29:25.562149 18053 net.cpp:454] inception_5b/output <- inception_5b/1x1
I1125 19:29:25.562153 18053 net.cpp:454] inception_5b/output <- inception_5b/3x3
I1125 19:29:25.562157 18053 net.cpp:454] inception_5b/output <- inception_5b/5x5
I1125 19:29:25.562160 18053 net.cpp:454] inception_5b/output <- inception_5b/pool_proj
I1125 19:29:25.562165 18053 net.cpp:411] inception_5b/output -> inception_5b/output
I1125 19:29:25.562206 18053 net.cpp:150] Setting up inception_5b/output
I1125 19:29:25.562217 18053 net.cpp:157] Top shape: 64 1024 7 7 (3211264)
I1125 19:29:25.562221 18053 net.cpp:165] Memory required for data: 3588894728
I1125 19:29:25.562224 18053 layer_factory.hpp:76] Creating layer pool5/7x7_s1
I1125 19:29:25.562229 18053 net.cpp:106] Creating Layer pool5/7x7_s1
I1125 19:29:25.562232 18053 net.cpp:454] pool5/7x7_s1 <- inception_5b/output
I1125 19:29:25.562239 18053 net.cpp:411] pool5/7x7_s1 -> pool5/7x7_s1
I1125 19:29:25.562602 18053 net.cpp:150] Setting up pool5/7x7_s1
I1125 19:29:25.562615 18053 net.cpp:157] Top shape: 64 1024 1 1 (65536)
I1125 19:29:25.562618 18053 net.cpp:165] Memory required for data: 3589156872
I1125 19:29:25.562623 18053 layer_factory.hpp:76] Creating layer pool5/drop_7x7_s1
I1125 19:29:25.562628 18053 net.cpp:106] Creating Layer pool5/drop_7x7_s1
I1125 19:29:25.562633 18053 net.cpp:454] pool5/drop_7x7_s1 <- pool5/7x7_s1
I1125 19:29:25.562638 18053 net.cpp:397] pool5/drop_7x7_s1 -> pool5/7x7_s1 (in-place)
I1125 19:29:25.562677 18053 net.cpp:150] Setting up pool5/drop_7x7_s1
I1125 19:29:25.562685 18053 net.cpp:157] Top shape: 64 1024 1 1 (65536)
I1125 19:29:25.562686 18053 net.cpp:165] Memory required for data: 3589419016
I1125 19:29:25.562690 18053 layer_factory.hpp:76] Creating layer loss3/classifier-attribute
I1125 19:29:25.562696 18053 net.cpp:106] Creating Layer loss3/classifier-attribute
I1125 19:29:25.562700 18053 net.cpp:454] loss3/classifier-attribute <- pool5/7x7_s1
I1125 19:29:25.562706 18053 net.cpp:411] loss3/classifier-attribute -> loss3/classifier-attribute
I1125 19:29:25.562906 18053 net.cpp:150] Setting up loss3/classifier-attribute
I1125 19:29:25.562916 18053 net.cpp:157] Top shape: 64 6 (384)
I1125 19:29:25.562919 18053 net.cpp:165] Memory required for data: 3589420552
I1125 19:29:25.562925 18053 layer_factory.hpp:76] Creating layer loss3/loss3
I1125 19:29:25.562933 18053 net.cpp:106] Creating Layer loss3/loss3
I1125 19:29:25.562937 18053 net.cpp:454] loss3/loss3 <- loss3/classifier-attribute
I1125 19:29:25.562942 18053 net.cpp:454] loss3/loss3 <- label_data_1_split_2
I1125 19:29:25.562947 18053 net.cpp:411] loss3/loss3 -> loss3/loss3
…
I1125 19:29:25.572559 18053 net.cpp:322] The NetState phase (1) differed from the phase (0) specified by a rule in layer data
I1125 19:29:25.573946 18053 net.cpp:49] Initializing net from parameters: 
name: "GoogleNet-finetune-for-cigit"
state {
  phase: TEST
}
layer {
  name: "data"
  type: "ImageData"
  top: "data"
  top: "label"
  include {
    phase: TEST
  }
  transform_param {
    mirror: false
    crop_size: 224
    mean_value: 104
    mean_value: 117
    mean_value: 123
  }
  image_data_param {
    source: "pad_test.txt"
    batch_size: 64
    new_height: 256
    new_width: 256
  }
}
layer {
  name: "conv1/7x7_s2"
  type: "Convolution"
  bottom: "data"
  top: "conv1/7x7_s2"
  param {
    lr_mult: 1
    decay_mult: 1
  }
  param {
    lr_mult: 2
    decay_mult: 0
  }
  convolution_param {
    num_output: 64
    pad: 3
    kernel_size: 7
    stride: 2
    weight_filler {
      type: "xavier"
    }
    bias_filler {
      type: "constant"
      value: 0.2
    }
  }
}
layer {
  name: "conv1/relu_7x7"
  type: "ReLU"
  bottom: "conv1/7x7_s2"
  top: "conv1/7x7_s2"
}
layer {
  name: "pool1/3x3_s2"
  type: "Pooling"
  bottom: "conv1/7x7_s2"
  top: "pool1/3x3_s2"
  pooling_param {
    pool: MAX
    kernel_size: 3
    stride: 2
  }
}
layer {
  name: "pool1/norm1"
  type: "LRN"
  bottom: "pool1/3x3_s2"
  top: "pool1/norm1"
  lrn_param {
    local_size: 5
    alpha: 0.0001
    beta: 0.75
  }
}
layer {
  name: "conv2/3x3_reduce"
  type: "Convolution"
  bottom: "pool1/norm1"
  top: "conv2/3x3_reduce"
  param {
    lr_mult: 1
    decay_mult: 1
  }
  param {
    lr_mult: 2
    decay_mult: 0
  }
  convolution_param {
    num_output: 64
    kernel_size: 1
    weight_filler {
      type: "xavier"
    }
    bias_filler {
      type: "constant"
      value: 0.2
    }
  }
}
layer {
  name: "conv2/relu_3x3_reduce"
  type: "ReLU"
  bottom: "conv2/3x3_reduce"
  top: "conv2/3x3_reduce"
}
layer {
  name: "conv2/3x3"
  type: "Convolution"
  bottom: "conv2/3x3_reduce"
  top: "conv2/3x3"
  param {
    lr_mult: 1
    decay_mult: 1
  }
  param {
    lr_mult: 2
    decay_mult: 0
  }
  convolution_param {
    num_output: 192
    pad: 1
    kernel_size: 3
    weight_filler {
      type: "xavier"
    }
    bias_filler {
      type: "constant"
      value: 0.2
    }
  }
}
layer {
  name: "conv2/relu_3x3"
  type: "ReLU"
  bottom: "conv2/3x3"
  top: "conv2/3x3"
}
layer {
  name: "conv2/norm2"
  type: "LRN"
  bottom: "conv2/3x3"
  top: "conv2/norm2"
  lrn_param {
    local_size: 5
    alpha: 0.0001
    beta: 0.75
  }
}
layer {
  name: "pool2/3x3_s2"
  type: "Pooling"
  bottom: "conv2/norm2"
  top: "pool2/3x3_s2"
  pooling_param {
    pool: MAX
    kernel_size: 3
    stride: 2
  }
}
layer {
  name: "inception_3a/1x1"
  type: "Convolution"
  bottom: "pool2/3x3_s2"
  top: "inception_3a/1x1"
  param {
    lr_mult: 1
    decay_mult: 1
  }
  param {
    lr_mult: 2
    decay_mult: 0
  }
  convolution_param {
    num_output: 64
    kernel_size: 1
    weight_filler {
      type: "xavier"
    }
    bias_filler {
      type: "constant"
      value: 0.2
    }
  }
}
layer {
  name: "inception_3a/relu_1x1"
  type: "ReLU"
  bottom: "inception_3a/1x1"
  top: "inception_3a/1x1"
}
layer {
  name: "inception_3a/3x3_reduce"
  type: "Convolution"
  bottom: "pool2/3x3_s2"
  top: "inception_3a/3x3_reduce"
  param {
    lr_mult: 1
    decay_mult: 1
  }
  param {
    lr_mult: 2
    decay_mult: 0
  }
  convolution_param {
    num_output: 96
    kernel_size: 1
    weight_filler {
      type: "xavier"
    }
    bias_filler {
      type: "constant"
      value: 0.2
    }
  }
}
layer {
  name: "inception_3a/relu_3x3_reduce"
  type: "ReLU"
  bottom: "inception_3a/3x3_reduce"
  top: "inception_3a/3x3_reduce"
}
layer {
  name: "inception_3a/3x3"
  type: "Convolution"
  bottom: "inception_3a/3x3_reduce"
  top: "inception_3a/3x3"
  param {
    lr_mult: 1
    decay_mult: 1
  }
  param {
    lr_mult: 2
    decay_mult: 0
  }
  convolution_param {
    num_output: 128
    pad: 1
    kernel_size: 3
    weight_filler {
      type: "xavier"
    }
    bias_filler {
      type: "constant"
      value: 0.2
    }
  }
}
layer {
  name: "inception_3a/relu_3x3"
  type: "ReLU"
  bottom: "inception_3a/3x3"
  top: "inception_3a/3x3"
}
layer {
  name: "inception_3a/5x5_reduce"
  type: "Convolution"
  bottom: "pool2/3x3_s2"
  top: "inception_3a/5x5_reduce"
  param {
    lr_mult: 1
    decay_mult: 1
  }
  param {
    lr_mult: 2
    decay_mult: 0
  }
  convolution_param {
    num_output: 16
    kernel_size: 1
    weight_filler {
      type: "xavier"
    }
    bias_filler {
      type: "constant"
      value: 0.2
    }
  }
}
layer {
  name: "inception_3a/relu_5x5_reduce"
  type: "ReLU"
  bottom: "inception_3a/5x5_reduce"
  top: "inception_3a/5x5_reduce"
}
layer {
  name: "inception_3a/5x5"
  type: "Convolution"
  bottom: "inception_3a/5x5_reduce"
  top: "inception_3a/5x5"
  param {
    lr_mult: 1
    decay_mult: 1
  }
  param {
    lr_mult: 2
    decay_mult: 0
  }
  convolution_param {
    num_output: 32
    pad: 2
    kernel_size: 5
    weight_filler {
      type: "xavier"
    }
    bias_filler {
      type: "constant"
      value: 0.2
    }
  }
}
layer {
  name: "inception_3a/relu_5x5"
  type: "ReLU"
  bottom: "inception_3a/5x5"
  top: "inception_3a/5x5"
}
layer {
  name: "inception_3a/pool"
  type: "Pooling"
  bottom: "pool2/3x3_s2"
  top: "inception_3a/pool"
  pooling_param {
    pool: MAX
    kernel_size: 3
    stride: 1
    pad: 1
  }
}
layer {
  name: "inception_3a/pool_proj"
  type: "Convolution"
  bottom: "inception_3a/pool"
  top: "inception_3a/pool_proj"
  param {
    lr_mult: 1
    decay_mult: 1
  }
  param {
    lr_mult: 2
    decay_mult: 0
  }
  convolution_param {
    num_output: 32
    kernel_size: 1
    weight_filler {
      type: "xavier"
    }
    bias_filler {
      type: "constant"
      value: 0.2
    }
  }
}
layer {
  name: "inception_3a/relu_pool_proj"
  type: "ReLU"
  bottom: "inception_3a/pool_proj"
  top: "inception_3a/pool_proj"
}
layer {
  name: "inception_3a/output"
  type: "Concat"
  bottom: "inception_3a/1x1"
  bottom: "inception_3a/3x3"
  bottom: "inception_3a/5x5"
  bottom: "inception_3a/pool_proj"
  top: "inception_3a/output"
}
layer {
  name: "inception_3b/1x1"
  type: "Convolution"
  bottom: "inception_3a/output"
  top: "inception_3b/1x1"
  param {
    lr_mult: 1
    decay_mult: 1
  }
  param {
    lr_mult: 2
    decay_mult: 0
  }
  convolution_param {
    num_output: 128
    kernel_size: 1
    weight_filler {
      type: "xavier"
    }
    bias_filler {
      type: "constant"
      value: 0.2
    }
  }
}
layer {
  name: "inception_3b/relu_1x1"
  type: "ReLU"
  bottom: "inception_3b/1x1"
  top: "inception_3b/1x1"
}
layer {
  name: "inception_3b/3x3_reduce"
  type: "Convolution"
  bottom: "inception_3a/output"
  top: "inception_3b/3x3_reduce"
  param {
    lr_mult: 1
    decay_mult: 1
  }
  param {
    lr_mult: 2
    decay_mult: 0
  }
  convolution_param {
    num_output: 128
    kernel_size: 1
    weight_filler {
      type: "xavier"
    }
    bias_filler {
      type: "constant"
      value: 0.2
    }
  }
}
layer {
  name: "inception_3b/relu_3x3_reduce"
  type: "ReLU"
  bottom: "inception_3b/3x3_reduce"
  top: "inception_3b/3x3_reduce"
}
layer {
  name: "inception_3b/3x3"
  type: "Convolution"
  bottom: "inception_3b/3x3_reduce"
  top: "inception_3b/3x3"
  param {
    lr_mult: 1
    decay_mult: 1
  }
  param {
    lr_mult: 2
    decay_mult: 0
  }
  convolution_param {
    num_output: 192
    pad: 1
    kernel_size: 3
    weight_filler {
      type: "xavier"
    }
    bias_filler {
      type: "constant"
      value: 0.2
    }
  }
}
layer {
  name: "inception_3b/relu_3x3"
  type: "ReLU"
  bottom: "inception_3b/3x3"
  top: "inception_3b/3x3"
}
layer {
  name: "inception_3b/5x5_reduce"
  type: "Convolution"
  bottom: "inception_3a/output"
  top: "inception_3b/5x5_reduce"
  param {
    lr_mult: 1
    decay_mult: 1
  }
  param {
    lr_mult: 2
    decay_mult: 0
  }
  convolution_param {
    num_output: 32
    kernel_size: 1
    weight_filler {
      type: "xavier"
    }
    bias_filler {
      type: "constant"
      value: 0.2
    }
  }
}
layer {
  name: "inception_3b/relu_5x5_reduce"
  type: "ReLU"
  bottom: "inception_3b/5x5_reduce"
  top: "inception_3b/5x5_reduce"
}
layer {
  name: "inception_3b/5x5"
  type: "Convolution"
  bottom: "inception_3b/5x5_reduce"
  top: "inception_3b/5x5"
  param {
    lr_mult: 1
    decay_mult: 1
  }
  param {
    lr_mult: 2
    decay_mult: 0
  }
  convolution_param {
    num_output: 96
    pad: 2
    kernel_size: 5
    weight_filler {
      type: "xavier"
    }
    bias_filler {
      type: "constant"
      value: 0.2
    }
  }
}
layer {
  name: "inception_3b/relu_5x5"
  type: "ReLU"
  bottom: "inception_3b/5x5"
  top: "inception_3b/5x5"
}
layer {
  name: "inception_3b/pool"
  type: "Pooling"
  bottom: "inception_3a/output"
  top: "inception_3b/pool"
  pooling_param {
    pool: MAX
    kernel_size: 3
    stride: 1
    pad: 1
  }
}
layer {
  name: "inception_3b/pool_proj"
  type: "Convolution"
  bottom: "inception_3b/pool"
  top: "inception_3b/pool_proj"
  param {
    lr_mult: 1
    decay_mult: 1
  }
  param {
    lr_mult: 2
    decay_mult: 0
  }
  convolution_param {
    num_output: 64
    kernel_size: 1
    weight_filler {
      type: "xavier"
    }
    bias_filler {
      type: "constant"
      value: 0.2
    }
  }
}
layer {
  name: "inception_3b/relu_pool_proj"
  type: "ReLU"
  bottom: "inception_3b/pool_proj"
  top: "inception_3b/pool_proj"
}
layer {
  name: "inception_3b/output"
  type: "Concat"
  bottom: "inception_3b/1x1"
  bottom: "inception_3b/3x3"
  bottom: "inception_3b/5x5"
  bottom: "inception_3b/pool_proj"
  top: "inception_3b/output"
}
layer {
  name: "pool3/3x3_s2"
  type: "Pooling"
  bottom: "inception_3b/output"
  top: "pool3/3x3_s2"
  pooling_param {
    pool: MAX
    kernel_size: 3
    stride: 2
  }
}
layer {
  name: "inception_4a/1x1"
  type: "Convolution"
  bottom: "pool3/3x3_s2"
  top: "inception_4a/1x1"
  param {
    lr_mult: 1
    decay_mult: 1
  }
  param {
    lr_mult: 2
    decay_mult: 0
  }
  convolution_param {
    num_output: 192
    kernel_size: 1
    weight_filler {
      type: "xavier"
    }
    bias_filler {
      type: "constant"
      value: 0.2
    }
  }
}
layer {
  name: "inception_4a/relu_1x1"
  type: "ReLU"
  bottom: "inception_4a/1x1"
  top: "inception_4a/1x1"
}
layer {
  name: "inception_4a/3x3_reduce"
  type: "Convolution"
  bottom: "pool3/3x3_s2"
  top: "inception_4a/3x3_reduce"
  param {
    lr_mult: 1
    decay_mult: 1
  }
  param {
    lr_mult: 2
    decay_mult: 0
  }
  convolution_param {
    num_output: 96
    kernel_size: 1
    weight_filler {
      type: "xavier"
    }
    bias_filler {
      type: "constant"
      value: 0.2
    }
  }
}
layer {
  name: "inception_4a/relu_3x3_reduce"
  type: "ReLU"
  bottom: "inception_4a/3x3_reduce"
  top: "inception_4a/3x3_reduce"
}
layer {
  name: "inception_4a/3x3"
  type: "Convolution"
  bottom: "inception_4a/3x3_reduce"
  top: "inception_4a/3x3"
  param {
    lr_mult: 1
    decay_mult: 1
  }
  param {
    lr_mult: 2
    decay_mult: 0
  }
  convolution_param {
    num_output: 208
    pad: 1
    kernel_size: 3
    weight_filler {
      type: "xavier"
    }
    bias_filler {
      type: "constant"
      value: 0.2
    }
  }
}
layer {
  name: "inception_4a/relu_3x3"
  type: "ReLU"
  bottom: "inception_4a/3x3"
  top: "inception_4a/3x3"
}
layer {
  name: "inception_4a/5x5_reduce"
  type: "Convolution"
  bottom: "pool3/3x3_s2"
  top: "inception_4a/5x5_reduce"
  param {
    lr_mult: 1
    decay_mult: 1
  }
  param {
    lr_mult: 2
    decay_mult: 0
  }
  convolution_param {
    num_output: 16
    kernel_size: 1
    weight_filler {
      type: "xavier"
    }
    bias_filler {
      type: "constant"
      value: 0.2
    }
  }
}
layer {
  name: "inception_4a/relu_5x5_reduce"
  type: "ReLU"
  bottom: "inception_4a/5x5_reduce"
  top: "inception_4a/5x5_reduce"
}
layer {
  name: "inception_4a/5x5"
  type: "Convolution"
  bottom: "inception_4a/5x5_reduce"
  top: "inception_4a/5x5"
  param {
    lr_mult: 1
    decay_mult: 1
  }
  param {
    lr_mult: 2
    decay_mult: 0
  }
  convolution_param {
    num_output: 48
    pad: 2
    kernel_size: 5
    weight_filler {
      type: "xavier"
    }
    bias_filler {
      type: "constant"
      value: 0.2
    }
  }
}
layer {
  name: "inception_4a/relu_5x5"
  type: "ReLU"
  bottom: "inception_4a/5x5"
  top: "inception_4a/5x5"
}
layer {
  name: "inception_4a/pool"
  type: "Pooling"
  bottom: "pool3/3x3_s2"
  top: "inception_4a/pool"
  pooling_param {
    pool: MAX
    kernel_size: 3
    stride: 1
    pad: 1
  }
}
layer {
  name: "inception_4a/pool_proj"
  type: "Convolution"
  bottom: "inception_4a/pool"
  top: "inception_4a/pool_proj"
  param {
    lr_mult: 1
    decay_mult: 1
  }
  param {
    lr_mult: 2
    decay_mult: 0
  }
  convolution_param {
    num_output: 64
    kernel_size: 1
    weight_filler {
      type: "xavier"
    }
    bias_filler {
      type: "constant"
      value: 0.2
    }
  }
}
layer {
  name: "inception_4a/relu_pool_proj"
  type: "ReLU"
  bottom: "inception_4a/pool_proj"
  top: "inception_4a/pool_proj"
}
layer {
  name: "inception_4a/output"
  type: "Concat"
  bottom: "inception_4a/1x1"
  bottom: "inception_4a/3x3"
  bottom: "inception_4a/5x5"
  bottom: "inception_4a/pool_proj"
  top: "inception_4a/output"
}
layer {
  name: "loss1/ave_pool"
  type: "Pooling"
  bottom: "inception_4a/output"
  top: "loss1/ave_pool"
  pooling_param {
    pool: AVE
    kernel_size: 5
    stride: 3
  }
}
layer {
  name: "loss1/conv"
  type: "Convolution"
  bottom: "loss1/ave_pool"
  top: "loss1/conv"
  param {
    lr_mult: 1
    decay_mult: 1
  }
  param {
    lr_mult: 2
    decay_mult: 0
  }
  convolution_param {
    num_output: 128
    kernel_size: 1
    weight_filler {
      type: "xavier"
    }
    bias_filler {
      type: "constant"
      value: 0.2
    }
  }
}
layer {
  name: "loss1/relu_conv"
  type: "ReLU"
  bottom: "loss1/conv"
  top: "loss1/conv"
}
layer {
  name: "loss1/fc"
  type: "InnerProduct"
  bottom: "loss1/conv"
  top: "loss1/fc"
  param {
    lr_mult: 1
    decay_mult: 1
  }
  param {
    lr_mult: 2
    decay_mult: 0
  }
  inner_product_param {
…
I1125 19:29:25.752758 18053 layer_factory.hpp:76] Creating layer inception_4c/pool
I1125 19:29:25.752766 18053 net.cpp:106] Creating Layer inception_4c/pool
I1125 19:29:25.752770 18053 net.cpp:454] inception_4c/pool <- inception_4b/output_inception_4b/output_0_split_3
I1125 19:29:25.752776 18053 net.cpp:411] inception_4c/pool -> inception_4c/pool
I1125 19:29:25.753046 18053 net.cpp:150] Setting up inception_4c/pool
I1125 19:29:25.753057 18053 net.cpp:157] Top shape: 64 512 14 14 (6422528)
I1125 19:29:25.753060 18053 net.cpp:165] Memory required for data: 2828245256
I1125 19:29:25.753063 18053 layer_factory.hpp:76] Creating layer inception_4c/pool_proj
I1125 19:29:25.753072 18053 net.cpp:106] Creating Layer inception_4c/pool_proj
I1125 19:29:25.753077 18053 net.cpp:454] inception_4c/pool_proj <- inception_4c/pool
I1125 19:29:25.753084 18053 net.cpp:411] inception_4c/pool_proj -> inception_4c/pool_proj
I1125 19:29:25.754647 18053 net.cpp:150] Setting up inception_4c/pool_proj
I1125 19:29:25.754662 18053 net.cpp:157] Top shape: 64 64 14 14 (802816)
I1125 19:29:25.754665 18053 net.cpp:165] Memory required for data: 2831456520
I1125 19:29:25.754673 18053 layer_factory.hpp:76] Creating layer inception_4c/relu_pool_proj
I1125 19:29:25.754679 18053 net.cpp:106] Creating Layer inception_4c/relu_pool_proj
I1125 19:29:25.754684 18053 net.cpp:454] inception_4c/relu_pool_proj <- inception_4c/pool_proj
I1125 19:29:25.754689 18053 net.cpp:397] inception_4c/relu_pool_proj -> inception_4c/pool_proj (in-place)
I1125 19:29:25.755095 18053 net.cpp:150] Setting up inception_4c/relu_pool_proj
I1125 19:29:25.755110 18053 net.cpp:157] Top shape: 64 64 14 14 (802816)
I1125 19:29:25.755113 18053 net.cpp:165] Memory required for data: 2834667784
I1125 19:29:25.755117 18053 layer_factory.hpp:76] Creating layer inception_4c/output
I1125 19:29:25.755125 18053 net.cpp:106] Creating Layer inception_4c/output
I1125 19:29:25.755130 18053 net.cpp:454] inception_4c/output <- inception_4c/1x1
I1125 19:29:25.755134 18053 net.cpp:454] inception_4c/output <- inception_4c/3x3
I1125 19:29:25.755138 18053 net.cpp:454] inception_4c/output <- inception_4c/5x5
I1125 19:29:25.755142 18053 net.cpp:454] inception_4c/output <- inception_4c/pool_proj
I1125 19:29:25.755146 18053 net.cpp:411] inception_4c/output -> inception_4c/output
I1125 19:29:25.755208 18053 net.cpp:150] Setting up inception_4c/output
I1125 19:29:25.755216 18053 net.cpp:157] Top shape: 64 512 14 14 (6422528)
I1125 19:29:25.755219 18053 net.cpp:165] Memory required for data: 2860357896
I1125 19:29:25.755223 18053 layer_factory.hpp:76] Creating layer inception_4c/output_inception_4c/output_0_split
I1125 19:29:25.755228 18053 net.cpp:106] Creating Layer inception_4c/output_inception_4c/output_0_split
I1125 19:29:25.755233 18053 net.cpp:454] inception_4c/output_inception_4c/output_0_split <- inception_4c/output
I1125 19:29:25.755239 18053 net.cpp:411] inception_4c/output_inception_4c/output_0_split -> inception_4c/output_inception_4c/output_0_split_0
I1125 19:29:25.755246 18053 net.cpp:411] inception_4c/output_inception_4c/output_0_split -> inception_4c/output_inception_4c/output_0_split_1
I1125 19:29:25.755251 18053 net.cpp:411] inception_4c/output_inception_4c/output_0_split -> inception_4c/output_inception_4c/output_0_split_2
I1125 19:29:25.755257 18053 net.cpp:411] inception_4c/output_inception_4c/output_0_split -> inception_4c/output_inception_4c/output_0_split_3
I1125 19:29:25.755357 18053 net.cpp:150] Setting up inception_4c/output_inception_4c/output_0_split
I1125 19:29:25.755367 18053 net.cpp:157] Top shape: 64 512 14 14 (6422528)
I1125 19:29:25.755370 18053 net.cpp:157] Top shape: 64 512 14 14 (6422528)
I1125 19:29:25.755373 18053 net.cpp:157] Top shape: 64 512 14 14 (6422528)
I1125 19:29:25.755378 18053 net.cpp:157] Top shape: 64 512 14 14 (6422528)
I1125 19:29:25.755379 18053 net.cpp:165] Memory required for data: 2963118344
I1125 19:29:25.755383 18053 layer_factory.hpp:76] Creating layer inception_4d/1x1
I1125 19:29:25.755390 18053 net.cpp:106] Creating Layer inception_4d/1x1
I1125 19:29:25.755393 18053 net.cpp:454] inception_4d/1x1 <- inception_4c/output_inception_4c/output_0_split_0
I1125 19:29:25.755400 18053 net.cpp:411] inception_4d/1x1 -> inception_4d/1x1
I1125 19:29:25.756934 18053 net.cpp:150] Setting up inception_4d/1x1
I1125 19:29:25.756952 18053 net.cpp:157] Top shape: 64 112 14 14 (1404928)
I1125 19:29:25.756954 18053 net.cpp:165] Memory required for data: 2968738056
I1125 19:29:25.756961 18053 layer_factory.hpp:76] Creating layer inception_4d/relu_1x1
I1125 19:29:25.756968 18053 net.cpp:106] Creating Layer inception_4d/relu_1x1
I1125 19:29:25.756971 18053 net.cpp:454] inception_4d/relu_1x1 <- inception_4d/1x1
I1125 19:29:25.756976 18053 net.cpp:397] inception_4d/relu_1x1 -> inception_4d/1x1 (in-place)
I1125 19:29:25.757347 18053 net.cpp:150] Setting up inception_4d/relu_1x1
I1125 19:29:25.757361 18053 net.cpp:157] Top shape: 64 112 14 14 (1404928)
I1125 19:29:25.757364 18053 net.cpp:165] Memory required for data: 2974357768
I1125 19:29:25.757369 18053 layer_factory.hpp:76] Creating layer inception_4d/3x3_reduce
I1125 19:29:25.757376 18053 net.cpp:106] Creating Layer inception_4d/3x3_reduce
I1125 19:29:25.757380 18053 net.cpp:454] inception_4d/3x3_reduce <- inception_4c/output_inception_4c/output_0_split_1
I1125 19:29:25.757388 18053 net.cpp:411] inception_4d/3x3_reduce -> inception_4d/3x3_reduce
I1125 19:29:25.759291 18053 net.cpp:150] Setting up inception_4d/3x3_reduce
I1125 19:29:25.759309 18053 net.cpp:157] Top shape: 64 144 14 14 (1806336)
I1125 19:29:25.759312 18053 net.cpp:165] Memory required for data: 2981583112
I1125 19:29:25.759320 18053 layer_factory.hpp:76] Creating layer inception_4d/relu_3x3_reduce
I1125 19:29:25.759325 18053 net.cpp:106] Creating Layer inception_4d/relu_3x3_reduce
I1125 19:29:25.759332 18053 net.cpp:454] inception_4d/relu_3x3_reduce <- inception_4d/3x3_reduce
I1125 19:29:25.759340 18053 net.cpp:397] inception_4d/relu_3x3_reduce -> inception_4d/3x3_reduce (in-place)
I1125 19:29:25.759555 18053 net.cpp:150] Setting up inception_4d/relu_3x3_reduce
I1125 19:29:25.759567 18053 net.cpp:157] Top shape: 64 144 14 14 (1806336)
I1125 19:29:25.759570 18053 net.cpp:165] Memory required for data: 2988808456
I1125 19:29:25.759574 18053 layer_factory.hpp:76] Creating layer inception_4d/3x3
I1125 19:29:25.759583 18053 net.cpp:106] Creating Layer inception_4d/3x3
I1125 19:29:25.759589 18053 net.cpp:454] inception_4d/3x3 <- inception_4d/3x3_reduce
I1125 19:29:25.759596 18053 net.cpp:411] inception_4d/3x3 -> inception_4d/3x3
I1125 19:29:25.763876 18053 net.cpp:150] Setting up inception_4d/3x3
I1125 19:29:25.763892 18053 net.cpp:157] Top shape: 64 288 14 14 (3612672)
I1125 19:29:25.763896 18053 net.cpp:165] Memory required for data: 3003259144
I1125 19:29:25.763903 18053 layer_factory.hpp:76] Creating layer inception_4d/relu_3x3
I1125 19:29:25.763909 18053 net.cpp:106] Creating Layer inception_4d/relu_3x3
I1125 19:29:25.763913 18053 net.cpp:454] inception_4d/relu_3x3 <- inception_4d/3x3
I1125 19:29:25.763919 18053 net.cpp:397] inception_4d/relu_3x3 -> inception_4d/3x3 (in-place)
I1125 19:29:25.764286 18053 net.cpp:150] Setting up inception_4d/relu_3x3
I1125 19:29:25.764302 18053 net.cpp:157] Top shape: 64 288 14 14 (3612672)
I1125 19:29:25.764304 18053 net.cpp:165] Memory required for data: 3017709832
I1125 19:29:25.764308 18053 layer_factory.hpp:76] Creating layer inception_4d/5x5_reduce
I1125 19:29:25.764317 18053 net.cpp:106] Creating Layer inception_4d/5x5_reduce
I1125 19:29:25.764319 18053 net.cpp:454] inception_4d/5x5_reduce <- inception_4c/output_inception_4c/output_0_split_2
I1125 19:29:25.764328 18053 net.cpp:411] inception_4d/5x5_reduce -> inception_4d/5x5_reduce
I1125 19:29:25.766213 18053 net.cpp:150] Setting up inception_4d/5x5_reduce
I1125 19:29:25.766229 18053 net.cpp:157] Top shape: 64 32 14 14 (401408)
I1125 19:29:25.766233 18053 net.cpp:165] Memory required for data: 3019315464
I1125 19:29:25.766240 18053 layer_factory.hpp:76] Creating layer inception_4d/relu_5x5_reduce
I1125 19:29:25.766247 18053 net.cpp:106] Creating Layer inception_4d/relu_5x5_reduce
I1125 19:29:25.766250 18053 net.cpp:454] inception_4d/relu_5x5_reduce <- inception_4d/5x5_reduce
I1125 19:29:25.766255 18053 net.cpp:397] inception_4d/relu_5x5_reduce -> inception_4d/5x5_reduce (in-place)
I1125 19:29:25.766628 18053 net.cpp:150] Setting up inception_4d/relu_5x5_reduce
I1125 19:29:25.766643 18053 net.cpp:157] Top shape: 64 32 14 14 (401408)
I1125 19:29:25.766645 18053 net.cpp:165] Memory required for data: 3020921096
I1125 19:29:25.766649 18053 layer_factory.hpp:76] Creating layer inception_4d/5x5
I1125 19:29:25.766657 18053 net.cpp:106] Creating Layer inception_4d/5x5
I1125 19:29:25.766662 18053 net.cpp:454] inception_4d/5x5 <- inception_4d/5x5_reduce
I1125 19:29:25.766669 18053 net.cpp:411] inception_4d/5x5 -> inception_4d/5x5
I1125 19:29:25.768363 18053 net.cpp:150] Setting up inception_4d/5x5
I1125 19:29:25.768378 18053 net.cpp:157] Top shape: 64 64 14 14 (802816)
I1125 19:29:25.768381 18053 net.cpp:165] Memory required for data: 3024132360
I1125 19:29:25.768388 18053 layer_factory.hpp:76] Creating layer inception_4d/relu_5x5
I1125 19:29:25.768396 18053 net.cpp:106] Creating Layer inception_4d/relu_5x5
I1125 19:29:25.768400 18053 net.cpp:454] inception_4d/relu_5x5 <- inception_4d/5x5
I1125 19:29:25.768407 18053 net.cpp:397] inception_4d/relu_5x5 -> inception_4d/5x5 (in-place)
I1125 19:29:25.768620 18053 net.cpp:150] Setting up inception_4d/relu_5x5
I1125 19:29:25.768631 18053 net.cpp:157] Top shape: 64 64 14 14 (802816)
I1125 19:29:25.768635 18053 net.cpp:165] Memory required for data: 3027343624
I1125 19:29:25.768638 18053 layer_factory.hpp:76] Creating layer inception_4d/pool
I1125 19:29:25.768647 18053 net.cpp:106] Creating Layer inception_4d/pool
I1125 19:29:25.768651 18053 net.cpp:454] inception_4d/pool <- inception_4c/output_inception_4c/output_0_split_3
I1125 19:29:25.768658 18053 net.cpp:411] inception_4d/pool -> inception_4d/pool
I1125 19:29:25.769114 18053 net.cpp:150] Setting up inception_4d/pool
I1125 19:29:25.769129 18053 net.cpp:157] Top shape: 64 512 14 14 (6422528)
I1125 19:29:25.769131 18053 net.cpp:165] Memory required for data: 3053033736
I1125 19:29:25.769135 18053 layer_factory.hpp:76] Creating layer inception_4d/pool_proj
I1125 19:29:25.769146 18053 net.cpp:106] Creating Layer inception_4d/pool_proj
I1125 19:29:25.769151 18053 net.cpp:454] inception_4d/pool_proj <- inception_4d/pool
I1125 19:29:25.769158 18053 net.cpp:411] inception_4d/pool_proj -> inception_4d/pool_proj
I1125 19:29:25.770715 18053 net.cpp:150] Setting up inception_4d/pool_proj
I1125 19:29:25.770730 18053 net.cpp:157] Top shape: 64 64 14 14 (802816)
I1125 19:29:25.770733 18053 net.cpp:165] Memory required for data: 3056245000
I1125 19:29:25.770740 18053 layer_factory.hpp:76] Creating layer inception_4d/relu_pool_proj
I1125 19:29:25.770747 18053 net.cpp:106] Creating Layer inception_4d/relu_pool_proj
I1125 19:29:25.770752 18053 net.cpp:454] inception_4d/relu_pool_proj <- inception_4d/pool_proj
I1125 19:29:25.770757 18053 net.cpp:397] inception_4d/relu_pool_proj -> inception_4d/pool_proj (in-place)
I1125 19:29:25.770982 18053 net.cpp:150] Setting up inception_4d/relu_pool_proj
I1125 19:29:25.770995 18053 net.cpp:157] Top shape: 64 64 14 14 (802816)
I1125 19:29:25.770998 18053 net.cpp:165] Memory required for data: 3059456264
I1125 19:29:25.771001 18053 layer_factory.hpp:76] Creating layer inception_4d/output
I1125 19:29:25.771009 18053 net.cpp:106] Creating Layer inception_4d/output
I1125 19:29:25.771013 18053 net.cpp:454] inception_4d/output <- inception_4d/1x1
I1125 19:29:25.771018 18053 net.cpp:454] inception_4d/output <- inception_4d/3x3
I1125 19:29:25.771023 18053 net.cpp:454] inception_4d/output <- inception_4d/5x5
I1125 19:29:25.771025 18053 net.cpp:454] inception_4d/output <- inception_4d/pool_proj
I1125 19:29:25.771030 18053 net.cpp:411] inception_4d/output -> inception_4d/output
I1125 19:29:25.771080 18053 net.cpp:150] Setting up inception_4d/output
I1125 19:29:25.771087 18053 net.cpp:157] Top shape: 64 528 14 14 (6623232)
I1125 19:29:25.771090 18053 net.cpp:165] Memory required for data: 3085949192
I1125 19:29:25.771093 18053 layer_factory.hpp:76] Creating layer inception_4d/output_inception_4d/output_0_split
I1125 19:29:25.771100 18053 net.cpp:106] Creating Layer inception_4d/output_inception_4d/output_0_split
I1125 19:29:25.771103 18053 net.cpp:454] inception_4d/output_inception_4d/output_0_split <- inception_4d/output
I1125 19:29:25.771111 18053 net.cpp:411] inception_4d/output_inception_4d/output_0_split -> inception_4d/output_inception_4d/output_0_split_0
I1125 19:29:25.771116 18053 net.cpp:411] inception_4d/output_inception_4d/output_0_split -> inception_4d/output_inception_4d/output_0_split_1
I1125 19:29:25.771122 18053 net.cpp:411] inception_4d/output_inception_4d/output_0_split -> inception_4d/output_inception_4d/output_0_split_2
I1125 19:29:25.771127 18053 net.cpp:411] inception_4d/output_inception_4d/output_0_split -> inception_4d/output_inception_4d/output_0_split_3
I1125 19:29:25.771132 18053 net.cpp:411] inception_4d/output_inception_4d/output_0_split -> inception_4d/output_inception_4d/output_0_split_4
I1125 19:29:25.771266 18053 net.cpp:150] Setting up inception_4d/output_inception_4d/output_0_split
I1125 19:29:25.771281 18053 net.cpp:157] Top shape: 64 528 14 14 (6623232)
I1125 19:29:25.771284 18053 net.cpp:157] Top shape: 64 528 14 14 (6623232)
I1125 19:29:25.771288 18053 net.cpp:157] Top shape: 64 528 14 14 (6623232)
I1125 19:29:25.771299 18053 net.cpp:157] Top shape: 64 528 14 14 (6623232)
I1125 19:29:25.771303 18053 net.cpp:157] Top shape: 64 528 14 14 (6623232)
I1125 19:29:25.771306 18053 net.cpp:165] Memory required for data: 3218413832
I1125 19:29:25.771309 18053 layer_factory.hpp:76] Creating layer loss2/ave_pool
I1125 19:29:25.771314 18053 net.cpp:106] Creating Layer loss2/ave_pool
I1125 19:29:25.771318 18053 net.cpp:454] loss2/ave_pool <- inception_4d/output_inception_4d/output_0_split_0
I1125 19:29:25.771327 18053 net.cpp:411] loss2/ave_pool -> loss2/ave_pool
I1125 19:29:25.771731 18053 net.cpp:150] Setting up loss2/ave_pool
I1125 19:29:25.771745 18053 net.cpp:157] Top shape: 64 528 4 4 (540672)
I1125 19:29:25.771749 18053 net.cpp:165] Memory required for data: 3220576520
I1125 19:29:25.771751 18053 layer_factory.hpp:76] Creating layer loss2/conv
I1125 19:29:25.771760 18053 net.cpp:106] Creating Layer loss2/conv
I1125 19:29:25.771765 18053 net.cpp:454] loss2/conv <- loss2/ave_pool
I1125 19:29:25.771772 18053 net.cpp:411] loss2/conv -> loss2/conv
I1125 19:29:25.773809 18053 net.cpp:150] Setting up loss2/conv
I1125 19:29:25.773824 18053 net.cpp:157] Top shape: 64 128 4 4 (131072)
I1125 19:29:25.773828 18053 net.cpp:165] Memory required for data: 3221100808
I1125 19:29:25.773834 18053 layer_factory.hpp:76] Creating layer loss2/relu_conv
I1125 19:29:25.773841 18053 net.cpp:106] Creating Layer loss2/relu_conv
I1125 19:29:25.773846 18053 net.cpp:454] loss2/relu_conv <- loss2/conv
I1125 19:29:25.773851 18053 net.cpp:397] loss2/relu_conv -> loss2/conv (in-place)
I1125 19:29:25.774221 18053 net.cpp:150] Setting up loss2/relu_conv
I1125 19:29:25.774236 18053 net.cpp:157] Top shape: 64 128 4 4 (131072)
I1125 19:29:25.774240 18053 net.cpp:165] Memory required for data: 3221625096
I1125 19:29:25.774243 18053 layer_factory.hpp:76] Creating layer loss2/fc
I1125 19:29:25.774252 18053 net.cpp:106] Creating Layer loss2/fc
I1125 19:29:25.774256 18053 net.cpp:454] loss2/fc <- loss2/conv
I1125 19:29:25.774263 18053 net.cpp:411] loss2/fc -> loss2/fc
I1125 19:29:25.790081 18053 net.cpp:150] Setting up loss2/fc
I1125 19:29:25.790101 18053 net.cpp:157] Top shape: 64 1024 (65536)
I1125 19:29:25.790103 18053 net.cpp:165] Memory required for data: 3221887240
I1125 19:29:25.790112 18053 layer_factory.hpp:76] Creating layer loss2/relu_fc
I1125 19:29:25.790119 18053 net.cpp:106] Creating Layer loss2/relu_fc
I1125 19:29:25.790125 18053 net.cpp:454] loss2/relu_fc <- loss2/fc
I1125 19:29:25.790132 18053 net.cpp:397] loss2/relu_fc -> loss2/fc (in-place)
I1125 19:29:25.790371 18053 net.cpp:150] Setting up loss2/relu_fc
I1125 19:29:25.790385 18053 net.cpp:157] Top shape: 64 1024 (65536)
I1125 19:29:25.790388 18053 net.cpp:165] Memory required for data: 3222149384
I1125 19:29:25.790391 18053 layer_factory.hpp:76] Creating layer loss2/drop_fc
I1125 19:29:25.790398 18053 net.cpp:106] Creating Layer loss2/drop_fc
I1125 19:29:25.790402 18053 net.cpp:454] loss2/drop_fc <- loss2/fc
I1125 19:29:25.790406 18053 net.cpp:397] loss2/drop_fc -> loss2/fc (in-place)
I1125 19:29:25.790457 18053 net.cpp:150] Setting up loss2/drop_fc
I1125 19:29:25.790464 18053 net.cpp:157] Top shape: 64 1024 (65536)
I1125 19:29:25.790467 18053 net.cpp:165] Memory required for data: 3222411528
I1125 19:29:25.790470 18053 layer_factory.hpp:76] Creating layer loss2/classifier-attribute
I1125 19:29:25.790478 18053 net.cpp:106] Creating Layer loss2/classifier-attribute
I1125 19:29:25.790483 18053 net.cpp:454] loss2/classifier-attribute <- loss2/fc
I1125 19:29:25.790488 18053 net.cpp:411] loss2/classifier-attribute -> loss2/classifier-attribute
I1125 19:29:25.790715 18053 net.cpp:150] Setting up loss2/classifier-attribute
I1125 19:29:25.790724 18053 net.cpp:157] Top shape: 64 6 (384)
I1125 19:29:25.790727 18053 net.cpp:165] Memory required for data: 3222413064
I1125 19:29:25.790734 18053 layer_factory.hpp:76] Creating layer loss2/classifier-attribute_loss2/classifier-attribute_0_split
I1125 19:29:25.790740 18053 net.cpp:106] Creating Layer loss2/classifier-attribute_loss2/classifier-attribute_0_split
I1125 19:29:25.790745 18053 net.cpp:454] loss2/classifier-attribute_loss2/classifier-attribute_0_split <- loss2/classifier-attribute
I1125 19:29:25.790748 18053 net.cpp:411] loss2/classifier-attribute_loss2/classifier-attribute_0_split -> loss2/classifier-attribute_loss2/classifier-attribute_0_split_0
I1125 19:29:25.790756 18053 net.cpp:411] loss2/classifier-attribute_loss2/classifier-attribute_0_split -> loss2/classifier-attribute_loss2/classifier-attribute_0_split_1
I1125 19:29:25.790834 18053 net.cpp:150] Setting up loss2/classifier-attribute_loss2/classifier-attribute_0_split
I1125 19:29:25.790845 18053 net.cpp:157] Top shape: 64 6 (384)
I1125 19:29:25.790849 18053 net.cpp:157] Top shape: 64 6 (384)
I1125 19:29:25.790851 18053 net.cpp:165] Memory required for data: 3222416136
I1125 19:29:25.790854 18053 layer_factory.hpp:76] Creating layer loss2/loss
I1125 19:29:25.790863 18053 net.cpp:106] Creating Layer loss2/loss
I1125 19:29:25.790866 18053 net.cpp:454] loss2/loss <- loss2/classifier-attribute_loss2/classifier-attribute_0_split_0
I1125 19:29:25.790871 18053 net.cpp:454] loss2/loss <- label_data_1_split_2
…
I1125 19:29:25.791512 18053 net.cpp:150] Setting up loss2/top-1
I1125 19:29:25.791517 18053 net.cpp:157] Top shape: (1)
I1125 19:29:25.791520 18053 net.cpp:165] Memory required for data: 3222416144
I1125 19:29:25.791523 18053 layer_factory.hpp:76] Creating layer inception_4e/1x1
I1125 19:29:25.791532 18053 net.cpp:106] Creating Layer inception_4e/1x1
I1125 19:29:25.791538 18053 net.cpp:454] inception_4e/1x1 <- inception_4d/output_inception_4d/output_0_split_1
I1125 19:29:25.791544 18053 net.cpp:411] inception_4e/1x1 -> inception_4e/1x1
I1125 19:29:25.793781 18053 net.cpp:150] Setting up inception_4e/1x1
I1125 19:29:25.793795 18053 net.cpp:157] Top shape: 64 256 14 14 (3211264)
I1125 19:29:25.793799 18053 net.cpp:165] Memory required for data: 3235261200
I1125 19:29:25.793805 18053 layer_factory.hpp:76] Creating layer inception_4e/relu_1x1
I1125 19:29:25.793812 18053 net.cpp:106] Creating Layer inception_4e/relu_1x1
I1125 19:29:25.793817 18053 net.cpp:454] inception_4e/relu_1x1 <- inception_4e/1x1
I1125 19:29:25.793823 18053 net.cpp:397] inception_4e/relu_1x1 -> inception_4e/1x1 (in-place)
I1125 19:29:25.794059 18053 net.cpp:150] Setting up inception_4e/relu_1x1
I1125 19:29:25.794073 18053 net.cpp:157] Top shape: 64 256 14 14 (3211264)
I1125 19:29:25.794076 18053 net.cpp:165] Memory required for data: 3248106256
I1125 19:29:25.794080 18053 layer_factory.hpp:76] Creating layer inception_4e/3x3_reduce
I1125 19:29:25.794088 18053 net.cpp:106] Creating Layer inception_4e/3x3_reduce
I1125 19:29:25.794092 18053 net.cpp:454] inception_4e/3x3_reduce <- inception_4d/output_inception_4d/output_0_split_2
I1125 19:29:25.794100 18053 net.cpp:411] inception_4e/3x3_reduce -> inception_4e/3x3_reduce
I1125 19:29:25.796457 18053 net.cpp:150] Setting up inception_4e/3x3_reduce
I1125 19:29:25.796471 18053 net.cpp:157] Top shape: 64 160 14 14 (2007040)
I1125 19:29:25.796475 18053 net.cpp:165] Memory required for data: 3256134416
I1125 19:29:25.796481 18053 layer_factory.hpp:76] Creating layer inception_4e/relu_3x3_reduce
I1125 19:29:25.796489 18053 net.cpp:106] Creating Layer inception_4e/relu_3x3_reduce
I1125 19:29:25.796493 18053 net.cpp:454] inception_4e/relu_3x3_reduce <- inception_4e/3x3_reduce
I1125 19:29:25.796499 18053 net.cpp:397] inception_4e/relu_3x3_reduce -> inception_4e/3x3_reduce (in-place)
I1125 19:29:25.796870 18053 net.cpp:150] Setting up inception_4e/relu_3x3_reduce
I1125 19:29:25.796885 18053 net.cpp:157] Top shape: 64 160 14 14 (2007040)
I1125 19:29:25.796888 18053 net.cpp:165] Memory required for data: 3264162576
I1125 19:29:25.796891 18053 layer_factory.hpp:76] Creating layer inception_4e/3x3
I1125 19:29:25.796918 18053 net.cpp:106] Creating Layer inception_4e/3x3
I1125 19:29:25.796924 18053 net.cpp:454] inception_4e/3x3 <- inception_4e/3x3_reduce
I1125 19:29:25.796931 18053 net.cpp:411] inception_4e/3x3 -> inception_4e/3x3
I1125 19:29:25.801709 18053 net.cpp:150] Setting up inception_4e/3x3
I1125 19:29:25.801728 18053 net.cpp:157] Top shape: 64 320 14 14 (4014080)
I1125 19:29:25.801731 18053 net.cpp:165] Memory required for data: 3280218896
I1125 19:29:25.801738 18053 layer_factory.hpp:76] Creating layer inception_4e/relu_3x3
I1125 19:29:25.801745 18053 net.cpp:106] Creating Layer inception_4e/relu_3x3
I1125 19:29:25.801749 18053 net.cpp:454] inception_4e/relu_3x3 <- inception_4e/3x3
I1125 19:29:25.801754 18053 net.cpp:397] inception_4e/relu_3x3 -> inception_4e/3x3 (in-place)
I1125 19:29:25.802117 18053 net.cpp:150] Setting up inception_4e/relu_3x3
I1125 19:29:25.802130 18053 net.cpp:157] Top shape: 64 320 14 14 (4014080)
I1125 19:29:25.802135 18053 net.cpp:165] Memory required for data: 3296275216
I1125 19:29:25.802139 18053 layer_factory.hpp:76] Creating layer inception_4e/5x5_reduce
I1125 19:29:25.802147 18053 net.cpp:106] Creating Layer inception_4e/5x5_reduce
I1125 19:29:25.802151 18053 net.cpp:454] inception_4e/5x5_reduce <- inception_4d/output_inception_4d/output_0_split_3
I1125 19:29:25.802160 18053 net.cpp:411] inception_4e/5x5_reduce -> inception_4e/5x5_reduce
I1125 19:29:25.803830 18053 net.cpp:150] Setting up inception_4e/5x5_reduce
I1125 19:29:25.803846 18053 net.cpp:157] Top shape: 64 32 14 14 (401408)
I1125 19:29:25.803849 18053 net.cpp:165] Memory required for data: 3297880848
I1125 19:29:25.803856 18053 layer_factory.hpp:76] Creating layer inception_4e/relu_5x5_reduce
I1125 19:29:25.803863 18053 net.cpp:106] Creating Layer inception_4e/relu_5x5_reduce
I1125 19:29:25.803869 18053 net.cpp:454] inception_4e/relu_5x5_reduce <- inception_4e/5x5_reduce
I1125 19:29:25.803874 18053 net.cpp:397] inception_4e/relu_5x5_reduce -> inception_4e/5x5_reduce (in-place)
I1125 19:29:25.804082 18053 net.cpp:150] Setting up inception_4e/relu_5x5_reduce
I1125 19:29:25.804093 18053 net.cpp:157] Top shape: 64 32 14 14 (401408)
I1125 19:29:25.804097 18053 net.cpp:165] Memory required for data: 3299486480
I1125 19:29:25.804100 18053 layer_factory.hpp:76] Creating layer inception_4e/5x5
I1125 19:29:25.804111 18053 net.cpp:106] Creating Layer inception_4e/5x5
I1125 19:29:25.804114 18053 net.cpp:454] inception_4e/5x5 <- inception_4e/5x5_reduce
I1125 19:29:25.804121 18053 net.cpp:411] inception_4e/5x5 -> inception_4e/5x5
I1125 19:29:25.806140 18053 net.cpp:150] Setting up inception_4e/5x5
I1125 19:29:25.806155 18053 net.cpp:157] Top shape: 64 128 14 14 (1605632)
I1125 19:29:25.806159 18053 net.cpp:165] Memory required for data: 3305909008
I1125 19:29:25.806165 18053 layer_factory.hpp:76] Creating layer inception_4e/relu_5x5
I1125 19:29:25.806171 18053 net.cpp:106] Creating Layer inception_4e/relu_5x5
I1125 19:29:25.806175 18053 net.cpp:454] inception_4e/relu_5x5 <- inception_4e/5x5
I1125 19:29:25.806182 18053 net.cpp:397] inception_4e/relu_5x5 -> inception_4e/5x5 (in-place)
I1125 19:29:25.806563 18053 net.cpp:150] Setting up inception_4e/relu_5x5
I1125 19:29:25.806577 18053 net.cpp:157] Top shape: 64 128 14 14 (1605632)
I1125 19:29:25.806581 18053 net.cpp:165] Memory required for data: 3312331536
I1125 19:29:25.806584 18053 layer_factory.hpp:76] Creating layer inception_4e/pool
I1125 19:29:25.806592 18053 net.cpp:106] Creating Layer inception_4e/pool
I1125 19:29:25.806596 18053 net.cpp:454] inception_4e/pool <- inception_4d/output_inception_4d/output_0_split_4
I1125 19:29:25.806603 18053 net.cpp:411] inception_4e/pool -> inception_4e/pool
I1125 19:29:25.806885 18053 net.cpp:150] Setting up inception_4e/pool
I1125 19:29:25.806897 18053 net.cpp:157] Top shape: 64 528 14 14 (6623232)
I1125 19:29:25.806900 18053 net.cpp:165] Memory required for data: 3338824464
I1125 19:29:25.806905 18053 layer_factory.hpp:76] Creating layer inception_4e/pool_proj
I1125 19:29:25.806915 18053 net.cpp:106] Creating Layer inception_4e/pool_proj
I1125 19:29:25.806918 18053 net.cpp:454] inception_4e/pool_proj <- inception_4e/pool
I1125 19:29:25.806924 18053 net.cpp:411] inception_4e/pool_proj -> inception_4e/pool_proj
I1125 19:29:25.808722 18053 net.cpp:150] Setting up inception_4e/pool_proj
I1125 19:29:25.808740 18053 net.cpp:157] Top shape: 64 128 14 14 (1605632)
I1125 19:29:25.808744 18053 net.cpp:165] Memory required for data: 3345246992
I1125 19:29:25.808751 18053 layer_factory.hpp:76] Creating layer inception_4e/relu_pool_proj
I1125 19:29:25.808756 18053 net.cpp:106] Creating Layer inception_4e/relu_pool_proj
I1125 19:29:25.808761 18053 net.cpp:454] inception_4e/relu_pool_proj <- inception_4e/pool_proj
I1125 19:29:25.808766 18053 net.cpp:397] inception_4e/relu_pool_proj -> inception_4e/pool_proj (in-place)
I1125 19:29:25.809150 18053 net.cpp:150] Setting up inception_4e/relu_pool_proj
I1125 19:29:25.809165 18053 net.cpp:157] Top shape: 64 128 14 14 (1605632)
I1125 19:29:25.809168 18053 net.cpp:165] Memory required for data: 3351669520
I1125 19:29:25.809171 18053 layer_factory.hpp:76] Creating layer inception_4e/output
I1125 19:29:25.809178 18053 net.cpp:106] Creating Layer inception_4e/output
I1125 19:29:25.809182 18053 net.cpp:454] inception_4e/output <- inception_4e/1x1
I1125 19:29:25.809187 18053 net.cpp:454] inception_4e/output <- inception_4e/3x3
I1125 19:29:25.809191 18053 net.cpp:454] inception_4e/output <- inception_4e/5x5
I1125 19:29:25.809195 18053 net.cpp:454] inception_4e/output <- inception_4e/pool_proj
I1125 19:29:25.809200 18053 net.cpp:411] inception_4e/output -> inception_4e/output
I1125 19:29:25.809253 18053 net.cpp:150] Setting up inception_4e/output
I1125 19:29:25.809260 18053 net.cpp:157] Top shape: 64 832 14 14 (10436608)
I1125 19:29:25.809263 18053 net.cpp:165] Memory required for data: 3393415952
I1125 19:29:25.809267 18053 layer_factory.hpp:76] Creating layer pool4/3x3_s2
I1125 19:29:25.809273 18053 net.cpp:106] Creating Layer pool4/3x3_s2
I1125 19:29:25.809276 18053 net.cpp:454] pool4/3x3_s2 <- inception_4e/output
I1125 19:29:25.809283 18053 net.cpp:411] pool4/3x3_s2 -> pool4/3x3_s2
I1125 19:29:25.809582 18053 net.cpp:150] Setting up pool4/3x3_s2
I1125 19:29:25.809595 18053 net.cpp:157] Top shape: 64 832 7 7 (2609152)
I1125 19:29:25.809599 18053 net.cpp:165] Memory required for data: 3403852560
I1125 19:29:25.809602 18053 layer_factory.hpp:76] Creating layer pool4/3x3_s2_pool4/3x3_s2_0_split
I1125 19:29:25.809610 18053 net.cpp:106] Creating Layer pool4/3x3_s2_pool4/3x3_s2_0_split
I1125 19:29:25.809614 18053 net.cpp:454] pool4/3x3_s2_pool4/3x3_s2_0_split <- pool4/3x3_s2
I1125 19:29:25.809619 18053 net.cpp:411] pool4/3x3_s2_pool4/3x3_s2_0_split -> pool4/3x3_s2_pool4/3x3_s2_0_split_0
I1125 19:29:25.809628 18053 net.cpp:411] pool4/3x3_s2_pool4/3x3_s2_0_split -> pool4/3x3_s2_pool4/3x3_s2_0_split_1
I1125 19:29:25.809633 18053 net.cpp:411] pool4/3x3_s2_pool4/3x3_s2_0_split -> pool4/3x3_s2_pool4/3x3_s2_0_split_2
I1125 19:29:25.809638 18053 net.cpp:411] pool4/3x3_s2_pool4/3x3_s2_0_split -> pool4/3x3_s2_pool4/3x3_s2_0_split_3
I1125 19:29:25.809787 18053 net.cpp:150] Setting up pool4/3x3_s2_pool4/3x3_s2_0_split
I1125 19:29:25.809798 18053 net.cpp:157] Top shape: 64 832 7 7 (2609152)
I1125 19:29:25.809803 18053 net.cpp:157] Top shape: 64 832 7 7 (2609152)
I1125 19:29:25.809805 18053 net.cpp:157] Top shape: 64 832 7 7 (2609152)
I1125 19:29:25.809809 18053 net.cpp:157] Top shape: 64 832 7 7 (2609152)
I1125 19:29:25.809811 18053 net.cpp:165] Memory required for data: 3445598992
I1125 19:29:25.809815 18053 layer_factory.hpp:76] Creating layer inception_5a/1x1
I1125 19:29:25.809824 18053 net.cpp:106] Creating Layer inception_5a/1x1
I1125 19:29:25.809828 18053 net.cpp:454] inception_5a/1x1 <- pool4/3x3_s2_pool4/3x3_s2_0_split_0
I1125 19:29:25.809835 18053 net.cpp:411] inception_5a/1x1 -> inception_5a/1x1
I1125 19:29:25.813012 18053 net.cpp:150] Setting up inception_5a/1x1
I1125 19:29:25.813029 18053 net.cpp:157] Top shape: 64 256 7 7 (802816)
I1125 19:29:25.813032 18053 net.cpp:165] Memory required for data: 3448810256
I1125 19:29:25.813040 18053 layer_factory.hpp:76] Creating layer inception_5a/relu_1x1
I1125 19:29:25.813047 18053 net.cpp:106] Creating Layer inception_5a/relu_1x1
I1125 19:29:25.813051 18053 net.cpp:454] inception_5a/relu_1x1 <- inception_5a/1x1
I1125 19:29:25.813058 18053 net.cpp:397] inception_5a/relu_1x1 -> inception_5a/1x1 (in-place)
I1125 19:29:25.813287 18053 net.cpp:150] Setting up inception_5a/relu_1x1
I1125 19:29:25.813299 18053 net.cpp:157] Top shape: 64 256 7 7 (802816)
I1125 19:29:25.813302 18053 net.cpp:165] Memory required for data: 3452021520
I1125 19:29:25.813307 18053 layer_factory.hpp:76] Creating layer inception_5a/3x3_reduce
I1125 19:29:25.813315 18053 net.cpp:106] Creating Layer inception_5a/3x3_reduce
I1125 19:29:25.813320 18053 net.cpp:454] inception_5a/3x3_reduce <- pool4/3x3_s2_pool4/3x3_s2_0_split_1
I1125 19:29:25.813328 18053 net.cpp:411] inception_5a/3x3_reduce -> inception_5a/3x3_reduce
I1125 19:29:25.816141 18053 net.cpp:150] Setting up inception_5a/3x3_reduce
I1125 19:29:25.816157 18053 net.cpp:157] Top shape: 64 160 7 7 (501760)
I1125 19:29:25.816161 18053 net.cpp:165] Memory required for data: 3454028560
I1125 19:29:25.816169 18053 layer_factory.hpp:76] Creating layer inception_5a/relu_3x3_reduce
I1125 19:29:25.816174 18053 net.cpp:106] Creating Layer inception_5a/relu_3x3_reduce
I1125 19:29:25.816179 18053 net.cpp:454] inception_5a/relu_3x3_reduce <- inception_5a/3x3_reduce
I1125 19:29:25.816184 18053 net.cpp:397] inception_5a/relu_3x3_reduce -> inception_5a/3x3_reduce (in-place)
I1125 19:29:25.816552 18053 net.cpp:150] Setting up inception_5a/relu_3x3_reduce
I1125 19:29:25.816566 18053 net.cpp:157] Top shape: 64 160 7 7 (501760)
I1125 19:29:25.816570 18053 net.cpp:165] Memory required for data: 3456035600
I1125 19:29:25.816573 18053 layer_factory.hpp:76] Creating layer inception_5a/3x3
I1125 19:29:25.816582 18053 net.cpp:106] Creating Layer inception_5a/3x3
I1125 19:29:25.816586 18053 net.cpp:454] inception_5a/3x3 <- inception_5a/3x3_reduce
I1125 19:29:25.816594 18053 net.cpp:411] inception_5a/3x3 -> inception_5a/3x3
I1125 19:29:25.821807 18053 net.cpp:150] Setting up inception_5a/3x3
I1125 19:29:25.821823 18053 net.cpp:157] Top shape: 64 320 7 7 (1003520)
I1125 19:29:25.821826 18053 net.cpp:165] Memory required for data: 3460049680
I1125 19:29:25.821833 18053 layer_factory.hpp:76] Creating layer inception_5a/relu_3x3
I1125 19:29:25.821841 18053 net.cpp:106] Creating Layer inception_5a/relu_3x3
I1125 19:29:25.821846 18053 net.cpp:454] inception_5a/relu_3x3 <- inception_5a/3x3
I1125 19:29:25.821851 18053 net.cpp:397] inception_5a/relu_3x3 -> inception_5a/3x3 (in-place)
I1125 19:29:25.822063 18053 net.cpp:150] Setting up inception_5a/relu_3x3
I1125 19:29:25.822074 18053 net.cpp:157] Top shape: 64 320 7 7 (1003520)
I1125 19:29:25.822079 18053 net.cpp:165] Memory required for data: 3464063760
I1125 19:29:25.822083 18053 layer_factory.hpp:76] Creating layer inception_5a/5x5_reduce
I1125 19:29:25.822093 18053 net.cpp:106] Creating Layer inception_5a/5x5_reduce
I1125 19:29:25.822096 18053 net.cpp:454] inception_5a/5x5_reduce <- pool4/3x3_s2_pool4/3x3_s2_0_split_2
I1125 19:29:25.822105 18053 net.cpp:411] inception_5a/5x5_reduce -> inception_5a/5x5_reduce
I1125 19:29:25.824134 18053 net.cpp:150] Setting up inception_5a/5x5_reduce
I1125 19:29:25.824151 18053 net.cpp:157] Top shape: 64 32 7 7 (100352)
I1125 19:29:25.824156 18053 net.cpp:165] Memory required for data: 3464465168
I1125 19:29:25.824162 18053 layer_factory.hpp:76] Creating layer inception_5a/relu_5x5_reduce
I1125 19:29:25.824168 18053 net.cpp:106] Creating Layer inception_5a/relu_5x5_reduce
I1125 19:29:25.824172 18053 net.cpp:454] inception_5a/relu_5x5_reduce <- inception_5a/5x5_reduce
I1125 19:29:25.824178 18053 net.cpp:397] inception_5a/relu_5x5_reduce -> inception_5a/5x5_reduce (in-place)
I1125 19:29:25.824393 18053 net.cpp:150] Setting up inception_5a/relu_5x5_reduce
I1125 19:29:25.824414 18053 net.cpp:157] Top shape: 64 32 7 7 (100352)
I1125 19:29:25.824416 18053 net.cpp:165] Memory required for data: 3464866576
I1125 19:29:25.824422 18053 layer_factory.hpp:76] Creating layer inception_5a/5x5
I1125 19:29:25.824431 18053 net.cpp:106] Creating Layer inception_5a/5x5
I1125 19:29:25.824435 18053 net.cpp:454] inception_5a/5x5 <- inception_5a/5x5_reduce
I1125 19:29:25.824442 18053 net.cpp:411] inception_5a/5x5 -> inception_5a/5x5
I1125 19:29:25.826648 18053 net.cpp:150] Setting up inception_5a/5x5
I1125 19:29:25.826663 18053 net.cpp:157] Top shape: 64 128 7 7 (401408)
I1125 19:29:25.826666 18053 net.cpp:165] Memory required for data: 3466472208
I1125 19:29:25.826673 18053 layer_factory.hpp:76] Creating layer inception_5a/relu_5x5
I1125 19:29:25.826680 18053 net.cpp:106] Creating Layer inception_5a/relu_5x5
I1125 19:29:25.826685 18053 net.cpp:454] inception_5a/relu_5x5 <- inception_5a/5x5
I1125 19:29:25.826691 18053 net.cpp:397] inception_5a/relu_5x5 -> inception_5a/5x5 (in-place)
I1125 19:29:25.827103 18053 net.cpp:150] Setting up inception_5a/relu_5x5
I1125 19:29:25.827118 18053 net.cpp:157] Top shape: 64 128 7 7 (401408)
I1125 19:29:25.827121 18053 net.cpp:165] Memory required for data: 3468077840
I1125 19:29:25.827126 18053 layer_factory.hpp:76] Creating layer inception_5a/pool
I1125 19:29:25.827133 18053 net.cpp:106] Creating Layer inception_5a/pool
I1125 19:29:25.827138 18053 net.cpp:454] inception_5a/pool <- pool4/3x3_s2_pool4/3x3_s2_0_split_3
I1125 19:29:25.827144 18053 net.cpp:411] inception_5a/pool -> inception_5a/pool
I1125 19:29:25.827433 18053 net.cpp:150] Setting up inception_5a/pool
I1125 19:29:25.827448 18053 net.cpp:157] Top shape: 64 832 7 7 (2609152)
I1125 19:29:25.827451 18053 net.cpp:165] Memory required for data: 3478514448
I1125 19:29:25.827455 18053 layer_factory.hpp:76] Creating layer inception_5a/pool_proj
I1125 19:29:25.827463 18053 net.cpp:106] Creating Layer inception_5a/pool_proj
I1125 19:29:25.827468 18053 net.cpp:454] inception_5a/pool_proj <- inception_5a/pool
I1125 19:29:25.827474 18053 net.cpp:411] inception_5a/pool_proj -> inception_5a/pool_proj
I1125 19:29:25.830021 18053 net.cpp:150] Setting up inception_5a/pool_proj
I1125 19:29:25.830037 18053 net.cpp:157] Top shape: 64 128 7 7 (401408)
I1125 19:29:25.830041 18053 net.cpp:165] Memory required for data: 3480120080
I1125 19:29:25.830049 18053 layer_factory.hpp:76] Creating layer inception_5a/relu_pool_proj
I1125 19:29:25.830054 18053 net.cpp:106] Creating Layer inception_5a/relu_pool_proj
I1125 19:29:25.830059 18053 net.cpp:454] inception_5a/relu_pool_proj <- inception_5a/pool_proj
I1125 19:29:25.830063 18053 net.cpp:397] inception_5a/relu_pool_proj -> inception_5a/pool_proj (in-place)
I1125 19:29:25.830441 18053 net.cpp:150] Setting up inception_5a/relu_pool_proj
I1125 19:29:25.830456 18053 net.cpp:157] Top shape: 64 128 7 7 (401408)
I1125 19:29:25.830459 18053 net.cpp:165] Memory required for data: 3481725712
I1125 19:29:25.830462 18053 layer_factory.hpp:76] Creating layer inception_5a/output
I1125 19:29:25.830469 18053 net.cpp:106] Creating Layer inception_5a/output
I1125 19:29:25.830473 18053 net.cpp:454] inception_5a/output <- inception_5a/1x1
I1125 19:29:25.830478 18053 net.cpp:454] inception_5a/output <- inception_5a/3x3
I1125 19:29:25.830482 18053 net.cpp:454] inception_5a/output <- inception_5a/5x5
I1125 19:29:25.830487 18053 net.cpp:454] inception_5a/output <- inception_5a/pool_proj
I1125 19:29:25.830490 18053 net.cpp:411] inception_5a/output -> inception_5a/output
I1125 19:29:25.830548 18053 net.cpp:150] Setting up inception_5a/output
I1125 19:29:25.830560 18053 net.cpp:157] Top shape: 64 832 7 7 (2609152)
I1125 19:29:25.830574 18053 net.cpp:165] Memory required for data: 3492162320
I1125 19:29:25.830576 18053 layer_factory.hpp:76] Creating layer inception_5a/output_inception_5a/output_0_split
I1125 19:29:25.830585 18053 net.cpp:106] Creating Layer inception_5a/output_inception_5a/output_0_split
I1125 19:29:25.830590 18053 net.cpp:454] inception_5a/output_inception_5a/output_0_split <- inception_5a/output
I1125 19:29:25.830595 18053 net.cpp:411] inception_5a/output_inception_5a/output_0_split -> inception_5a/output_inception_5a/output_0_split_0
I1125 19:29:25.830605 18053 net.cpp:411] inception_5a/output_inception_5a/output_0_split -> inception_5a/output_inception_5a/output_0_split_1
I1125 19:29:25.830610 18053 net.cpp:411] inception_5a/output_inception_5a/output_0_split -> inception_5a/output_inception_5a/output_0_split_2
I1125 19:29:25.830617 18053 net.cpp:411] inception_5a/output_inception_5a/output_0_split -> inception_5a/output_inception_5a/output_0_split_3
I1125 19:29:25.830737 18053 net.cpp:150] Setting up inception_5a/output_inception_5a/output_0_split
I1125 19:29:25.830746 18053 net.cpp:157] Top shape: 64 832 7 7 (2609152)
I1125 19:29:25.830750 18053 net.cpp:157] Top shape: 64 832 7 7 (2609152)
I1125 19:29:25.830754 18053 net.cpp:157] Top shape: 64 832 7 7 (2609152)
I1125 19:29:25.830757 18053 net.cpp:157] Top shape: 64 832 7 7 (2609152)
I1125 19:29:25.830760 18053 net.cpp:165] Memory required for data: 3533908752
I1125 19:29:25.830763 18053 layer_factory.hpp:76] Creating layer inception_5b/1x1
I1125 19:29:25.830772 18053 net.cpp:106] Creating Layer inception_5b/1x1
I1125 19:29:25.830777 18053 net.cpp:454] inception_5b/1x1 <- inception_5a/output_inception_5a/output_0_split_0
I1125 19:29:25.830785 18053 net.cpp:411] inception_5b/1x1 -> inception_5b/1x1
I1125 19:29:25.834600 18053 net.cpp:150] Setting up inception_5b/1x1
I1125 19:29:25.834615 18053 net.cpp:157] Top shape: 64 384 7 7 (1204224)
I1125 19:29:25.834619 18053 net.cpp:165] Memory required for data: 3538725648
I1125 19:29:25.834625 18053 layer_factory.hpp:76] Creating layer inception_5b/relu_1x1
I1125 19:29:25.834633 18053 net.cpp:106] Creating Layer inception_5b/relu_1x1
I1125 19:29:25.834640 18053 net.cpp:454] inception_5b/relu_1x1 <- inception_5b/1x1
I1125 19:29:25.834647 18053 net.cpp:397] inception_5b/relu_1x1 -> inception_5b/1x1 (in-place)
I1125 19:29:25.835034 18053 net.cpp:150] Setting up inception_5b/relu_1x1
I1125 19:29:25.835048 18053 net.cpp:157] Top shape: 64 384 7 7 (1204224)
I1125 19:29:25.835053 18053 net.cpp:165] Memory required for data: 3543542544
I1125 19:29:25.835072 18053 layer_factory.hpp:76] Creating layer inception_5b/3x3_reduce
I1125 19:29:25.835081 18053 net.cpp:106] Creating Layer inception_5b/3x3_reduce
I1125 19:29:25.835088 18053 net.cpp:454] inception_5b/3x3_reduce <- inception_5a/output_inception_5a/output_0_split_1
I1125 19:29:25.835093 18053 net.cpp:411] inception_5b/3x3_reduce -> inception_5b/3x3_reduce
I1125 19:29:25.838007 18053 net.cpp:150] Setting up inception_5b/3x3_reduce
I1125 19:29:25.838022 18053 net.cpp:157] Top shape: 64 192 7 7 (602112)
I1125 19:29:25.838026 18053 net.cpp:165] Memory required for data: 3545950992
I1125 19:29:25.838032 18053 layer_factory.hpp:76] Creating layer inception_5b/relu_3x3_reduce
I1125 19:29:25.838038 18053 net.cpp:106] Creating Layer inception_5b/relu_3x3_reduce
I1125 19:29:25.838044 18053 net.cpp:454] inception_5b/relu_3x3_reduce <- inception_5b/3x3_reduce
I1125 19:29:25.838050 18053 net.cpp:397] inception_5b/relu_3x3_reduce -> inception_5b/3x3_reduce (in-place)
I1125 19:29:25.838274 18053 net.cpp:150] Setting up inception_5b/relu_3x3_reduce
I1125 19:29:25.838285 18053 net.cpp:157] Top shape: 64 192 7 7 (602112)
I1125 19:29:25.838289 18053 net.cpp:165] Memory required for data: 3548359440
I1125 19:29:25.838292 18053 layer_factory.hpp:76] Creating layer inception_5b/3x3
I1125 19:29:25.838302 18053 net.cpp:106] Creating Layer inception_5b/3x3
I1125 19:29:25.838306 18053 net.cpp:454] inception_5b/3x3 <- inception_5b/3x3_reduce
I1125 19:29:25.838312 18053 net.cpp:411] inception_5b/3x3 -> inception_5b/3x3
I1125 19:29:25.844794 18053 net.cpp:150] Setting up inception_5b/3x3
I1125 19:29:25.844810 18053 net.cpp:157] Top shape: 64 384 7 7 (1204224)
I1125 19:29:25.844815 18053 net.cpp:165] Memory required for data: 3553176336
I1125 19:29:25.844820 18053 layer_factory.hpp:76] Creating layer inception_5b/relu_3x3
I1125 19:29:25.844826 18053 net.cpp:106] Creating Layer inception_5b/relu_3x3
I1125 19:29:25.844835 18053 net.cpp:454] inception_5b/relu_3x3 <- inception_5b/3x3
I1125 19:29:25.844841 18053 net.cpp:397] inception_5b/relu_3x3 -> inception_5b/3x3 (in-place)
I1125 19:29:25.845237 18053 net.cpp:150] Setting up inception_5b/relu_3x3
I1125 19:29:25.845250 18053 net.cpp:157] Top shape: 64 384 7 7 (1204224)
I1125 19:29:25.845254 18053 net.cpp:165] Memory required for data: 3557993232
I1125 19:29:25.845257 18053 layer_factory.hpp:76] Creating layer inception_5b/5x5_reduce
I1125 19:29:25.845268 18053 net.cpp:106] Creating Layer inception_5b/5x5_reduce
I1125 19:29:25.845273 18053 net.cpp:454] inception_5b/5x5_reduce <- inception_5a/output_inception_5a/output_0_split_2
I1125 19:29:25.845280 18053 net.cpp:411] inception_5b/5x5_reduce -> inception_5b/5x5_reduce
I1125 19:29:25.847122 18053 net.cpp:150] Setting up inception_5b/5x5_reduce
I1125 19:29:25.847137 18053 net.cpp:157] Top shape: 64 48 7 7 (150528)
I1125 19:29:25.847141 18053 net.cpp:165] Memory required for data: 3558595344
I1125 19:29:25.847147 18053 layer_factory.hpp:76] Creating layer inception_5b/relu_5x5_reduce
I1125 19:29:25.847154 18053 net.cpp:106] Creating Layer inception_5b/relu_5x5_reduce
I1125 19:29:25.847158 18053 net.cpp:454] inception_5b/relu_5x5_reduce <- inception_5b/5x5_reduce
I1125 19:29:25.847165 18053 net.cpp:397] inception_5b/relu_5x5_reduce -> inception_5b/5x5_reduce (in-place)
I1125 19:29:25.847548 18053 net.cpp:150] Setting up inception_5b/relu_5x5_reduce
I1125 19:29:25.847563 18053 net.cpp:157] Top shape: 64 48 7 7 (150528)
I1125 19:29:25.847565 18053 net.cpp:165] Memory required for data: 3559197456
I1125 19:29:25.847569 18053 layer_factory.hpp:76] Creating layer inception_5b/5x5
I1125 19:29:25.847579 18053 net.cpp:106] Creating Layer inception_5b/5x5
I1125 19:29:25.847584 18053 net.cpp:454] inception_5b/5x5 <- inception_5b/5x5_reduce
I1125 19:29:25.847590 18053 net.cpp:411] inception_5b/5x5 -> inception_5b/5x5
I1125 19:29:25.849855 18053 net.cpp:150] Setting up inception_5b/5x5
I1125 19:29:25.849871 18053 net.cpp:157] Top shape: 64 128 7 7 (401408)
I1125 19:29:25.849874 18053 net.cpp:165] Memory required for data: 3560803088
I1125 19:29:25.849880 18053 layer_factory.hpp:76] Creating layer inception_5b/relu_5x5
I1125 19:29:25.849886 18053 net.cpp:106] Creating Layer inception_5b/relu_5x5
I1125 19:29:25.849890 18053 net.cpp:454] inception_5b/relu_5x5 <- inception_5b/5x5
I1125 19:29:25.849897 18053 net.cpp:397] inception_5b/relu_5x5 -> inception_5b/5x5 (in-place)
I1125 19:29:25.850162 18053 net.cpp:150] Setting up inception_5b/relu_5x5
I1125 19:29:25.850173 18053 net.cpp:157] Top shape: 64 128 7 7 (401408)
I1125 19:29:25.850178 18053 net.cpp:165] Memory required for data: 3562408720
I1125 19:29:25.850180 18053 layer_factory.hpp:76] Creating layer inception_5b/pool
I1125 19:29:25.850188 18053 net.cpp:106] Creating Layer inception_5b/pool
I1125 19:29:25.850191 18053 net.cpp:454] inception_5b/pool <- inception_5a/output_inception_5a/output_0_split_3
I1125 19:29:25.850198 18053 net.cpp:411] inception_5b/pool -> inception_5b/pool
I1125 19:29:25.850625 18053 net.cpp:150] Setting up inception_5b/pool
I1125 19:29:25.850638 18053 net.cpp:157] Top shape: 64 832 7 7 (2609152)
I1125 19:29:25.850642 18053 net.cpp:165] Memory required for data: 3572845328
I1125 19:29:25.850646 18053 layer_factory.hpp:76] Creating layer inception_5b/pool_proj
I1125 19:29:25.850653 18053 net.cpp:106] Creating Layer inception_5b/pool_proj
I1125 19:29:25.850657 18053 net.cpp:454] inception_5b/pool_proj <- inception_5b/pool
I1125 19:29:25.850666 18053 net.cpp:411] inception_5b/pool_proj -> inception_5b/pool_proj
I1125 19:29:25.853063 18053 net.cpp:150] Setting up inception_5b/pool_proj
I1125 19:29:25.853080 18053 net.cpp:157] Top shape: 64 128 7 7 (401408)
I1125 19:29:25.853083 18053 net.cpp:165] Memory required for data: 3574450960
I1125 19:29:25.853091 18053 layer_factory.hpp:76] Creating layer inception_5b/relu_pool_proj
I1125 19:29:25.853098 18053 net.cpp:106] Creating Layer inception_5b/relu_pool_proj
I1125 19:29:25.853102 18053 net.cpp:454] inception_5b/relu_pool_proj <- inception_5b/pool_proj
I1125 19:29:25.853109 18053 net.cpp:397] inception_5b/relu_pool_proj -> inception_5b/pool_proj (in-place)
I1125 19:29:25.853344 18053 net.cpp:150] Setting up inception_5b/relu_pool_proj
I1125 19:29:25.853356 18053 net.cpp:157] Top shape: 64 128 7 7 (401408)
I1125 19:29:25.853359 18053 net.cpp:165] Memory required for data: 3576056592
I1125 19:29:25.853363 18053 layer_factory.hpp:76] Creating layer inception_5b/output
I1125 19:29:25.853369 18053 net.cpp:106] Creating Layer inception_5b/output
I1125 19:29:25.853373 18053 net.cpp:454] inception_5b/output <- inception_5b/1x1
I1125 19:29:25.853377 18053 net.cpp:454] inception_5b/output <- inception_5b/3x3
I1125 19:29:25.853381 18053 net.cpp:454] inception_5b/output <- inception_5b/5x5
I1125 19:29:25.853389 18053 net.cpp:454] inception_5b/output <- inception_5b/pool_proj
I1125 19:29:25.853394 18053 net.cpp:411] inception_5b/output -> inception_5b/output
I1125 19:29:25.853425 18053 net.cpp:150] Setting up inception_5b/output
I1125 19:29:25.853432 18053 net.cpp:157] Top shape: 64 1024 7 7 (3211264)
I1125 19:29:25.853435 18053 net.cpp:165] Memory required for data: 3588901648
I1125 19:29:25.853438 18053 layer_factory.hpp:76] Creating layer pool5/7x7_s1
I1125 19:29:25.853445 18053 net.cpp:106] Creating Layer pool5/7x7_s1
I1125 19:29:25.853447 18053 net.cpp:454] pool5/7x7_s1 <- inception_5b/output
I1125 19:29:25.853452 18053 net.cpp:411] pool5/7x7_s1 -> pool5/7x7_s1
I1125 19:29:25.853991 18053 net.cpp:150] Setting up pool5/7x7_s1
I1125 19:29:25.854004 18053 net.cpp:157] Top shape: 64 1024 1 1 (65536)
I1125 19:29:25.854008 18053 net.cpp:165] Memory required for data: 3589163792
I1125 19:29:25.854012 18053 layer_factory.hpp:76] Creating layer pool5/drop_7x7_s1
I1125 19:29:25.854018 18053 net.cpp:106] Creating Layer pool5/drop_7x7_s1
I1125 19:29:25.854022 18053 net.cpp:454] pool5/drop_7x7_s1 <- pool5/7x7_s1
I1125 19:29:25.854029 18053 net.cpp:397] pool5/drop_7x7_s1 -> pool5/7x7_s1 (in-place)
I1125 19:29:25.854063 18053 net.cpp:150] Setting up pool5/drop_7x7_s1
I1125 19:29:25.854073 18053 net.cpp:157] Top shape: 64 1024 1 1 (65536)
I1125 19:29:25.854075 18053 net.cpp:165] Memory required for data: 3589425936
I1125 19:29:25.854079 18053 layer_factory.hpp:76] Creating layer loss3/classifier-attribute
I1125 19:29:25.854086 18053 net.cpp:106] Creating Layer loss3/classifier-attribute
I1125 19:29:25.854089 18053 net.cpp:454] loss3/classifier-attribute <- pool5/7x7_s1
I1125 19:29:25.854095 18053 net.cpp:411] loss3/classifier-attribute -> loss3/classifier-attribute
I1125 19:29:25.854267 18053 net.cpp:150] Setting up loss3/classifier-attribute
I1125 19:29:25.854277 18053 net.cpp:157] Top shape: 64 6 (384)
I1125 19:29:25.854281 18053 net.cpp:165] Memory required for data: 3589427472
I1125 19:29:25.854287 18053 layer_factory.hpp:76] Creating layer loss3/classifier-attribute_loss3/classifier-attribute_0_split
I1125 19:29:25.854293 18053 net.cpp:106] Creating Layer loss3/classifier-attribute_loss3/classifier-attribute_0_split
I1125 19:29:25.854297 18053 net.cpp:454] loss3/classifier-attribute_loss3/classifier-attribute_0_split <- loss3/classifier-attribute
I1125 19:29:25.854305 18053 net.cpp:411] loss3/classifier-attribute_loss3/classifier-attribute_0_split -> loss3/classifier-attribute_loss3/classifier-attribute_0_split_0
I1125 19:29:25.854311 18053 net.cpp:411] loss3/classifier-attribute_loss3/classifier-attribute_0_split -> loss3/classifier-attribute_loss3/classifier-attribute_0_split_1
I1125 19:29:25.854346 18053 net.cpp:150] Setting up loss3/classifier-attribute_loss3/classifier-attribute_0_split
I1125 19:29:25.854354 18053 net.cpp:157] Top shape: 64 6 (384)
I1125 19:29:25.854358 18053 net.cpp:157] Top shape: 64 6 (384)
I1125 19:29:25.854360 18053 net.cpp:165] Memory required for data: 3589430544
I1125 19:29:25.854363 18053 layer_factory.hpp:76] Creating layer loss3/loss3
I1125 19:29:25.854369 18053 net.cpp:106] Creating Layer loss3/loss3
I1125 19:29:25.854372 18053 net.cpp:454] loss3/loss3 <- loss3/classifier-attribute_loss3/classifier-attribute_0_split_0
I1125 19:29:25.854377 18053 net.cpp:454] loss3/loss3 <- label_data_1_split_4
…
