…
I1124 13:27:34.250511 13084 net.cpp:322] The NetState phase (0) differed from the phase (1) specified by a rule in layer loss3/top-1
I1124 13:27:34.251420 13084 net.cpp:49] Initializing net from parameters: 
name: "GoogleNet-finetune-for-cigit"
state {
  phase: TRAIN
}
layer {
  name: "data"
  type: "ImageData"
  top: "data"
  top: "label"
  include {
    phase: TRAIN
  }
  transform_param {
    mirror: true
    crop_size: 224
    mean_value: 104
    mean_value: 117
    mean_value: 123
  }
  image_data_param {
    source: "pad_train.txt"
    batch_size: 64
    shuffle: true
    new_height: 256
    new_width: 256
  }
}
layer {
  name: "conv1/7x7_s2"
  type: "Convolution"
  bottom: "data"
  top: "conv1/7x7_s2"
  param {
    lr_mult: 1
    decay_mult: 1
  }
  param {
    lr_mult: 2
    decay_mult: 0
  }
  convolution_param {
    num_output: 64
    pad: 3
    kernel_size: 7
    stride: 2
    weight_filler {
      type: "xavier"
    }
    bias_filler {
      type: "constant"
      value: 0.2
    }
  }
}
layer {
  name: "conv1/relu_7x7"
  type: "ReLU"
  bottom: "conv1/7x7_s2"
  top: "conv1/7x7_s2"
}
layer {
  name: "pool1/3x3_s2"
  type: "Pooling"
  bottom: "conv1/7x7_s2"
  top: "pool1/3x3_s2"
  pooling_param {
    pool: MAX
    kernel_size: 3
    stride: 2
  }
}
layer {
  name: "pool1/norm1"
  type: "LRN"
  bottom: "pool1/3x3_s2"
  top: "pool1/norm1"
  lrn_param {
    local_size: 5
    alpha: 0.0001
    beta: 0.75
  }
}
layer {
  name: "conv2/3x3_reduce"
  type: "Convolution"
  bottom: "pool1/norm1"
  top: "conv2/3x3_reduce"
  param {
    lr_mult: 1
    decay_mult: 1
  }
  param {
    lr_mult: 2
    decay_mult: 0
  }
  convolution_param {
    num_output: 64
    kernel_size: 1
    weight_filler {
      type: "xavier"
    }
    bias_filler {
      type: "constant"
      value: 0.2
    }
  }
}
layer {
  name: "conv2/relu_3x3_reduce"
  type: "ReLU"
  bottom: "conv2/3x3_reduce"
  top: "conv2/3x3_reduce"
}
layer {
  name: "conv2/3x3"
  type: "Convolution"
  bottom: "conv2/3x3_reduce"
  top: "conv2/3x3"
  param {
    lr_mult: 1
    decay_mult: 1
  }
  param {
    lr_mult: 2
    decay_mult: 0
  }
  convolution_param {
    num_output: 192
    pad: 1
    kernel_size: 3
    weight_filler {
      type: "xavier"
    }
    bias_filler {
      type: "constant"
      value: 0.2
    }
  }
}
layer {
  name: "conv2/relu_3x3"
  type: "ReLU"
  bottom: "conv2/3x3"
  top: "conv2/3x3"
}
layer {
  name: "conv2/norm2"
  type: "LRN"
  bottom: "conv2/3x3"
  top: "conv2/norm2"
  lrn_param {
    local_size: 5
    alpha: 0.0001
    beta: 0.75
  }
}
layer {
  name: "pool2/3x3_s2"
  type: "Pooling"
  bottom: "conv2/norm2"
  top: "pool2/3x3_s2"
  pooling_param {
    pool: MAX
    kernel_size: 3
    stride: 2
  }
}
layer {
  name: "inception_3a/1x1"
  type: "Convolution"
  bottom: "pool2/3x3_s2"
  top: "inception_3a/1x1"
  param {
    lr_mult: 1
    decay_mult: 1
  }
  param {
    lr_mult: 2
    decay_mult: 0
  }
  convolution_param {
    num_output: 64
    kernel_size: 1
    weight_filler {
      type: "xavier"
    }
    bias_filler {
      type: "constant"
      value: 0.2
    }
  }
}
layer {
  name: "inception_3a/relu_1x1"
  type: "ReLU"
  bottom: "inception_3a/1x1"
  top: "inception_3a/1x1"
}
layer {
  name: "inception_3a/3x3_reduce"
  type: "Convolution"
  bottom: "pool2/3x3_s2"
  top: "inception_3a/3x3_reduce"
  param {
    lr_mult: 1
    decay_mult: 1
  }
  param {
    lr_mult: 2
    decay_mult: 0
  }
  convolution_param {
    num_output: 96
    kernel_size: 1
    weight_filler {
      type: "xavier"
    }
    bias_filler {
      type: "constant"
      value: 0.2
    }
  }
}
layer {
  name: "inception_3a/relu_3x3_reduce"
  type: "ReLU"
  bottom: "inception_3a/3x3_reduce"
  top: "inception_3a/3x3_reduce"
}
layer {
  name: "inception_3a/3x3"
  type: "Convolution"
  bottom: "inception_3a/3x3_reduce"
  top: "inception_3a/3x3"
  param {
    lr_mult: 1
    decay_mult: 1
  }
  param {
    lr_mult: 2
    decay_mult: 0
  }
  convolution_param {
    num_output: 128
    pad: 1
    kernel_size: 3
    weight_filler {
      type: "xavier"
    }
    bias_filler {
      type: "constant"
      value: 0.2
    }
  }
}
layer {
  name: "inception_3a/relu_3x3"
  type: "ReLU"
  bottom: "inception_3a/3x3"
  top: "inception_3a/3x3"
}
layer {
  name: "inception_3a/5x5_reduce"
  type: "Convolution"
  bottom: "pool2/3x3_s2"
  top: "inception_3a/5x5_reduce"
  param {
    lr_mult: 1
    decay_mult: 1
  }
  param {
    lr_mult: 2
    decay_mult: 0
  }
  convolution_param {
    num_output: 16
    kernel_size: 1
    weight_filler {
      type: "xavier"
    }
    bias_filler {
      type: "constant"
      value: 0.2
    }
  }
}
layer {
  name: "inception_3a/relu_5x5_reduce"
  type: "ReLU"
  bottom: "inception_3a/5x5_reduce"
  top: "inception_3a/5x5_reduce"
}
layer {
  name: "inception_3a/5x5"
  type: "Convolution"
  bottom: "inception_3a/5x5_reduce"
  top: "inception_3a/5x5"
  param {
    lr_mult: 1
    decay_mult: 1
  }
  param {
    lr_mult: 2
    decay_mult: 0
  }
  convolution_param {
    num_output: 32
    pad: 2
    kernel_size: 5
    weight_filler {
      type: "xavier"
    }
    bias_filler {
      type: "constant"
      value: 0.2
    }
  }
}
layer {
  name: "inception_3a/relu_5x5"
  type: "ReLU"
  bottom: "inception_3a/5x5"
  top: "inception_3a/5x5"
}
layer {
  name: "inception_3a/pool"
  type: "Pooling"
  bottom: "pool2/3x3_s2"
  top: "inception_3a/pool"
  pooling_param {
    pool: MAX
    kernel_size: 3
    stride: 1
    pad: 1
  }
}
layer {
  name: "inception_3a/pool_proj"
  type: "Convolution"
  bottom: "inception_3a/pool"
  top: "inception_3a/pool_proj"
  param {
    lr_mult: 1
    decay_mult: 1
  }
  param {
    lr_mult: 2
    decay_mult: 0
  }
  convolution_param {
    num_output: 32
    kernel_size: 1
    weight_filler {
      type: "xavier"
    }
    bias_filler {
      type: "constant"
      value: 0.2
    }
  }
}
layer {
  name: "inception_3a/relu_pool_proj"
  type: "ReLU"
  bottom: "inception_3a/pool_proj"
  top: "inception_3a/pool_proj"
}
layer {
  name: "inception_3a/output"
  type: "Concat"
  bottom: "inception_3a/1x1"
  bottom: "inception_3a/3x3"
  bottom: "inception_3a/5x5"
  bottom: "inception_3a/pool_proj"
  top: "inception_3a/output"
}
layer {
  name: "inception_3b/1x1"
  type: "Convolution"
  bottom: "inception_3a/output"
  top: "inception_3b/1x1"
  param {
    lr_mult: 1
    decay_mult: 1
  }
  param {
    lr_mult: 2
    decay_mult: 0
  }
  convolution_param {
    num_output: 128
    kernel_size: 1
    weight_filler {
      type: "xavier"
    }
    bias_filler {
      type: "constant"
      value: 0.2
    }
  }
}
layer {
  name: "inception_3b/relu_1x1"
  type: "ReLU"
  bottom: "inception_3b/1x1"
  top: "inception_3b/1x1"
}
layer {
  name: "inception_3b/3x3_reduce"
  type: "Convolution"
  bottom: "inception_3a/output"
  top: "inception_3b/3x3_reduce"
  param {
    lr_mult: 1
    decay_mult: 1
  }
  param {
    lr_mult: 2
    decay_mult: 0
  }
  convolution_param {
    num_output: 128
    kernel_size: 1
    weight_filler {
      type: "xavier"
    }
    bias_filler {
      type: "constant"
      value: 0.2
    }
  }
}
layer {
  name: "inception_3b/relu_3x3_reduce"
  type: "ReLU"
  bottom: "inception_3b/3x3_reduce"
  top: "inception_3b/3x3_reduce"
}
layer {
  name: "inception_3b/3x3"
  type: "Convolution"
  bottom: "inception_3b/3x3_reduce"
  top: "inception_3b/3x3"
  param {
    lr_mult: 1
    decay_mult: 1
  }
  param {
    lr_mult: 2
    decay_mult: 0
  }
  convolution_param {
    num_output: 192
    pad: 1
    kernel_size: 3
    weight_filler {
      type: "xavier"
    }
    bias_filler {
      type: "constant"
      value: 0.2
    }
  }
}
layer {
  name: "inception_3b/relu_3x3"
  type: "ReLU"
  bottom: "inception_3b/3x3"
  top: "inception_3b/3x3"
}
layer {
  name: "inception_3b/5x5_reduce"
  type: "Convolution"
  bottom: "inception_3a/output"
  top: "inception_3b/5x5_reduce"
  param {
    lr_mult: 1
    decay_mult: 1
  }
  param {
    lr_mult: 2
    decay_mult: 0
  }
  convolution_param {
    num_output: 32
    kernel_size: 1
    weight_filler {
      type: "xavier"
    }
    bias_filler {
      type: "constant"
      value: 0.2
    }
  }
}
layer {
  name: "inception_3b/relu_5x5_reduce"
  type: "ReLU"
  bottom: "inception_3b/5x5_reduce"
  top: "inception_3b/5x5_reduce"
}
layer {
  name: "inception_3b/5x5"
  type: "Convolution"
  bottom: "inception_3b/5x5_reduce"
  top: "inception_3b/5x5"
  param {
    lr_mult: 1
    decay_mult: 1
  }
  param {
    lr_mult: 2
    decay_mult: 0
  }
  convolution_param {
    num_output: 96
    pad: 2
    kernel_size: 5
    weight_filler {
      type: "xavier"
    }
    bias_filler {
      type: "constant"
      value: 0.2
    }
  }
}
layer {
  name: "inception_3b/relu_5x5"
  type: "ReLU"
  bottom: "inception_3b/5x5"
  top: "inception_3b/5x5"
}
layer {
  name: "inception_3b/pool"
  type: "Pooling"
  bottom: "inception_3a/output"
  top: "inception_3b/pool"
  pooling_param {
    pool: MAX
    kernel_size: 3
    stride: 1
    pad: 1
  }
}
layer {
  name: "inception_3b/pool_proj"
  type: "Convolution"
  bottom: "inception_3b/pool"
  top: "inception_3b/pool_proj"
  param {
    lr_mult: 1
    decay_mult: 1
  }
  param {
    lr_mult: 2
    decay_mult: 0
  }
  convolution_param {
    num_output: 64
    kernel_size: 1
    weight_filler {
      type: "xavier"
    }
    bias_filler {
      type: "constant"
      value: 0.2
    }
  }
}
layer {
  name: "inception_3b/relu_pool_proj"
  type: "ReLU"
  bottom: "inception_3b/pool_proj"
  top: "inception_3b/pool_proj"
}
layer {
  name: "inception_3b/output"
  type: "Concat"
  bottom: "inception_3b/1x1"
  bottom: "inception_3b/3x3"
  bottom: "inception_3b/5x5"
  bottom: "inception_3b/pool_proj"
  top: "inception_3b/output"
}
layer {
  name: "pool3/3x3_s2"
  type: "Pooling"
  bottom: "inception_3b/output"
  top: "pool3/3x3_s2"
  pooling_param {
    pool: MAX
    kernel_size: 3
    stride: 2
  }
}
layer {
  name: "inception_4a/1x1"
  type: "Convolution"
  bottom: "pool3/3x3_s2"
  top: "inception_4a/1x1"
  param {
    lr_mult: 1
    decay_mult: 1
  }
  param {
    lr_mult: 2
    decay_mult: 0
  }
  convolution_param {
    num_output: 192
    kernel_size: 1
    weight_filler {
      type: "xavier"
    }
    bias_filler {
      type: "constant"
      value: 0.2
    }
  }
}
layer {
  name: "inception_4a/relu_1x1"
  type: "ReLU"
  bottom: "inception_4a/1x1"
  top: "inception_4a/1x1"
}
layer {
  name: "inception_4a/3x3_reduce"
  type: "Convolution"
  bottom: "pool3/3x3_s2"
  top: "inception_4a/3x3_reduce"
  param {
    lr_mult: 1
    decay_mult: 1
  }
  param {
    lr_mult: 2
    decay_mult: 0
  }
  convolution_param {
    num_output: 96
    kernel_size: 1
    weight_filler {
      type: "xavier"
    }
    bias_filler {
      type: "constant"
      value: 0.2
    }
  }
}
layer {
  name: "inception_4a/relu_3x3_reduce"
  type: "ReLU"
  bottom: "inception_4a/3x3_reduce"
  top: "inception_4a/3x3_reduce"
}
layer {
  name: "inception_4a/3x3"
  type: "Convolution"
  bottom: "inception_4a/3x3_reduce"
  top: "inception_4a/3x3"
  param {
    lr_mult: 1
    decay_mult: 1
  }
  param {
    lr_mult: 2
    decay_mult: 0
  }
  convolution_param {
    num_output: 208
    pad: 1
    kernel_size: 3
    weight_filler {
      type: "xavier"
    }
    bias_filler {
      type: "constant"
      value: 0.2
    }
  }
}
layer {
  name: "inception_4a/relu_3x3"
  type: "ReLU"
  bottom: "inception_4a/3x3"
  top: "inception_4a/3x3"
}
layer {
  name: "inception_4a/5x5_reduce"
  type: "Convolution"
  bottom: "pool3/3x3_s2"
  top: "inception_4a/5x5_reduce"
  param {
    lr_mult: 1
    decay_mult: 1
  }
  param {
    lr_mult: 2
    decay_mult: 0
  }
  convolution_param {
    num_output: 16
    kernel_size: 1
    weight_filler {
      type: "xavier"
    }
    bias_filler {
      type: "constant"
      value: 0.2
    }
  }
}
layer {
  name: "inception_4a/relu_5x5_reduce"
  type: "ReLU"
  bottom: "inception_4a/5x5_reduce"
  top: "inception_4a/5x5_reduce"
}
layer {
  name: "inception_4a/5x5"
  type: "Convolution"
  bottom: "inception_4a/5x5_reduce"
  top: "inception_4a/5x5"
  param {
    lr_mult: 1
    decay_mult: 1
  }
  param {
    lr_mult: 2
    decay_mult: 0
  }
  convolution_param {
    num_output: 48
    pad: 2
    kernel_size: 5
    weight_filler {
      type: "xavier"
    }
    bias_filler {
      type: "constant"
      value: 0.2
    }
  }
}
layer {
  name: "inception_4a/relu_5x5"
  type: "ReLU"
  bottom: "inception_4a/5x5"
  top: "inception_4a/5x5"
}
layer {
  name: "inception_4a/pool"
  type: "Pooling"
  bottom: "pool3/3x3_s2"
  top: "inception_4a/pool"
  pooling_param {
    pool: MAX
    kernel_size: 3
    stride: 1
    pad: 1
  }
}
layer {
  name: "inception_4a/pool_proj"
  type: "Convolution"
  bottom: "inception_4a/pool"
  top: "inception_4a/pool_proj"
  param {
    lr_mult: 1
    decay_mult: 1
  }
  param {
    lr_mult: 2
    decay_mult: 0
  }
  convolution_param {
    num_output: 64
    kernel_size: 1
    weight_filler {
      type: "xavier"
    }
    bias_filler {
      type: "constant"
      value: 0.2
    }
  }
}
layer {
  name: "inception_4a/relu_pool_proj"
  type: "ReLU"
  bottom: "inception_4a/pool_proj"
  top: "inception_4a/pool_proj"
}
layer {
  name: "inception_4a/output"
  type: "Concat"
  bottom: "inception_4a/1x1"
  bottom: "inception_4a/3x3"
  bottom: "inception_4a/5x5"
  bottom: "inception_4a/pool_proj"
  top: "inception_4a/output"
}
layer {
  name: "loss1/ave_pool"
  type: "Pooling"
  bottom: "inception_4a/output"
  top: "loss1/ave_pool"
  pooling_param {
    pool: AVE
    kernel_size: 5
    stride: 3
  }
}
layer {
  name: "loss1/conv"
  type: "Convolution"
  bottom: "loss1/ave_pool"
  top: "loss1/conv"
  param {
    lr_mult: 1
    decay_mult: 1
  }
  param {
    lr_mult: 2
    decay_mult: 0
  }
  convolution_param {
    num_output: 128
    kernel_size: 1
    weight_filler {
      type: "xavier"
    }
    bias_filler {
      type: "constant"
      value: 0.2
    }
  }
}
layer {
  name: "loss1/relu_conv"
  type: "ReLU"
  bottom: "loss1/conv"
  top: "loss1/conv"
}
layer {
  name: "loss1/fc"
  type: "InnerProduct"
  bottom: "loss1/conv"
  top: "loss1/fc"
  param {
    lr_mult: 1
    decay_mult: 1
  }
  param {
    lr_mult: 2
    decay_mult: 0
  }
  inner_product_param {
    num_output: 1024
    weight_filler {
      type: "xavier"
    }
    bias_filler {
      type: "constant"
      value: 0.2
    }
  }
}
layer {
  name: "loss1/relu_fc"
  type: "ReLU"
  bottom: "loss1/fc"
  top: "loss1/fc"
}
layer {
  name: "loss1/drop_fc"
  type: "Dropout"
  bottom: "loss1/fc"
  top: "loss1/fc"
  dropout_param {
    dropout_ratio: 0.7
  }
}
layer {
  name: "loss1/classifier-attribute"
  type: "InnerProduct"
  bottom: "loss1/fc"
  top: "loss1/classifier-attribute"
  param {
    lr_mult: 10
    decay_mult: 1
  }
  param {
    lr_mult: 20
    decay_mult: 0
  }
  inner_product_param {
    num_output: 13
    weight_filler {
      type: "xavier"
    }
    bias_filler {
      type: "constant"
      value: 0
    }
  }
}
layer {
  name: "loss1/loss"
  type: "SoftmaxWithLoss"
  bottom: "loss1/classifier-attribute"
  bottom: "label"
  top: "loss1/loss1"
  loss_weight: 0.3
}
layer {
  name: "inception_4b/1x1"
  type: "Convolution"
  bottom: "inception_4a/output"
  top: "inception_4b/1x1"
  param {
    lr_mult: 1
    decay_mult: 1
  }
  param {
    lr_mult: 2
    decay_mult: 0
  }
  convolution_param {
    num_output: 160
    kernel_size: 1
    weight_filler {
      type: "xavier"
    }
    bias_filler {
      type: "constant"
      value: 0.2
    }
  }
}
layer {
  name: "inception_4b/relu_1x1"
  type: "ReLU"
  bottom: "inception_4b/1x1"
  top: "inception_4b/1x1"
}
layer {
  name: "inception_4b/3x3_reduce"
  type: "Convolution"
  bottom: "inception_4a/output"
  top: "inception_4b/3x3_reduce"
  param {
    lr_mult: 1
    decay_mult: 1
  }
  param {
    lr_mult: 2
    decay_mult: 0
  }
  convolution_param {
    num_output: 112
    kernel_size: 1
    weight_filler {
      type: "xavier"
    }
    bias_filler {
      type: "constant"
      value: 0.2
    }
  }
}
layer {
  name: "inception_4b/relu_3x3_reduce"
  type: "ReLU"
  bottom: "inception_4b/3x3_reduce"
  top: "inception_4b/3x3_reduce"
}
layer {
  name: "inception_4b/3x3"
  type: "Convolution"
  bottom: "inception_4b/3x3_reduce"
  top: "inception_4b/3x3"
  param {
    lr_mult: 1
    decay_mult: 1
  }
  param {
    lr_mult: 2
    decay_mult: 0
  }
  convolution_param {
    num_output: 224
    pad: 1
    kernel_size: 3
    weight_filler {
      type: "xavier"
    }
    bias_filler {
      type: "constant"
      value: 0.2
    }
  }
}
layer {
  name: "inception_4b/relu_3x3"
  type: "ReLU"
  bottom: "inception_4b/3x3"
  top: "inception_4b/3x3"
}
layer {
  name: "inception_4b/5x5_reduce"
  type: "Convolution"
  bottom: "inception_4a/output"
  top: "inception_4b/5x5_reduce"
  param {
    lr_mult: 1
    decay_mult: 1
  }
  param {
    lr_mult: 2
    decay_mult: 0
  }
  convolution_param {
    num_output: 24
    kernel_size: 1
    weight_filler {
      type: "xavier"
    }
    bias_filler {
      type: "constant"
      value: 0.2
    }
  }
}
layer {
  name: "inception_4b/relu_5x5_reduce"
  type: "ReLU"
  bottom: "inception_4b/5x5_reduce"
  top: "inception_4b/5x5_reduce"
}
layer {
  name: "inception_4b/5x5"
  type: "Convolution"
  bottom: "inception_4b/5x5_reduce"
  top: "inception_4b/5x5"
  param {
    lr_mult: 1
    decay_mult: 1
  }
  param {
    lr_mult: 2
    decay_mult: 0
  }
  convolution_param {
    num_output: 64
    pad: 2
    kernel_size: 5
    weight_filler {
      type: "xavier"
    }
    bias_filler {
      type: "constant"
      value: 0.2
    }
  }
}
layer {
  name: "inception_4b/relu_5x5"
  type: "ReLU"
  bottom: "inception_4b/5x5"
  top: "inception_4b/5x5"
}
layer {
  name: "inception_4b/pool"
  type: "Pooling"
  bottom: "inception_4a/output"
  top: "inception_4b/pool"
  pooling_param {
    pool: MAX
    kernel_size: 3
    stride: 1
    pad: 1
  }
}
layer {
  name: "inception_4b/pool_proj"
  type: "Convolution"
  bottom: "inception_4b/pool"
  top: "inception_4b/pool_proj"
  param {
    lr_mult: 1
    decay_mult: 1
  }
  param {
    lr_mult: 2
    decay_mult: 0
  }
  convolution_param {
    num_output: 64
    kernel_size: 1
    weight_filler {
      type: "xavier"
    }
    bias_filler {
      type: "constant"
      value: 0.2
    }
  }
}
layer {
  name: "inception_4b/relu_pool_proj"
  type: "ReLU"
  bottom: "inception_4b/pool_proj"
  top: "inception_4b/pool_proj"
}
layer {
  name: "inception_4b/output"
  type: "Concat"
  bottom: "inception_4b/1x1"
  bottom: "inception_4b/3x3"
  bottom: "inception_4b/5x5"
  bottom: "inception_4b/pool_proj"
  top: "inception_4b/output"
}
layer {
  name: "inception_4c/1x1"
  type: "Convolution"
  bottom: "inception_4b/output"
  top: "inception_4c/1x1"
  param {
    lr_mult: 1
    decay_mult: 1
  }
  param {
    lr_mult: 2
    decay_mult: 0
  }
  convolution_param {
    num_output: 128
    kernel_size: 1
    weight_filler {
      type: "xavier"
    }
    bias_filler {
      type: "constant"
      value: 0.2
    }
  }
}
layer {
  name: "inception_4c/relu_1x1"
  type: "ReLU"
  bottom: "inception_4c/1x1"
  top: "inception_4c/1x1"
}
layer {
  name: "inception_4c/3x3_reduce"
  type: "Convolution"
  bottom: "inception_4b/output"
  top: "inception_4c/3x3_reduce"
  param {
    lr_mult: 1
    decay_mult: 1
  }
  param {
    lr_mult: 2
    decay_mult: 0
  }
  convolution_param {
    num_output: 128
    kernel_size: 1
    weight_filler {
      type: "xavier"
    }
    bias_filler {
      type: "constant"
      value: 0.2
    }
  }
}
layer {
  name: "inception_4c/relu_3x3_reduce"
  type: "ReLU"
  bottom: "inception_4c/3x3_reduce"
  top: "inception_4c/3x3_reduce"
}
layer {
  name: "inception_4c/3x3"
  type: "Convolution"
  bottom: "inception_4c/3x3_reduce"
  top: "inception_4c/3x3"
  param {
    lr_mult: 1
    decay_mult: 1
  }
  param {
    lr_mult: 2
    decay_mult: 0
  }
  convolution_param {
    num_output: 256
    pad: 1
    kernel_size: 3
    weight_filler {
      type: "xavier"
    }
    bias_filler {
      type: "constant"
      value: 0.2
    }
  }
}
layer {
  name: "inception_4c/relu_3x3"
  type: "ReLU"
  bottom: "inception_4c/3x3"
  top: "inception_4c/3x3"
}
layer {
  name: "inception_4c/5x5_reduce"
  type: "Convolution"
  bottom: "inception_4b/output"
  top: "inception_4c/5x5_reduce"
  param {
    lr_mult: 1
    decay_mult: 1
  }
  param {
    lr_mult: 2
    decay_mult: 0
  }
  convolution_param {
    num_output: 24
    kernel_size: 1
    weight_filler {
      type: "xavier"
    }
    bias_filler {
      type: "constant"
      value: 0.2
    }
  }
}
layer {
  name: "inception_4c/relu_5x5_reduce"
  type: "ReLU"
  bottom: "inception_4c/5x5_reduce"
  top: "inception_4c/5x5_reduce"
}
layer {
  name: "inception_4c/5x5"
  type: "Convolution"
  bottom: "inception_4c/5x5_reduce"
  top: "inception_4c/5x5"
  param {
    lr_mult: 1
    decay_mult: 1
  }
  param {
    lr_mult: 2
    decay_mult: 0
  }
  convolution_param {
    num_output: 64
    pad: 2
    kernel_size: 5
    weight_filler {
      type: "xavier"
    }
    bias_filler {
      type: "constant"
      value: 0.2
    }
  }
}
layer {
  name: "inception_4c/relu_5x5"
  type: "ReLU"
  bottom: "inception_4c/5x5"
  top: "inception_4c/5x5"
}
layer {
  name: "inception_4c/pool"
  type: "Pooling"
  bottom: "inception_4b/output"
  top: "inception_4c/pool"
  pooling_param {
    pool: MAX
    kernel_size: 3
    stride: 1
    pad: 1
  }
}
layer {
  name: "inception_4c/pool_proj"
  type: "Convolution"
  bottom: "inception_4c/pool"
  top: "inception_4c/pool_proj"
  param {
    lr_mult: 1
    decay_mult: 1
  }
  param {
    lr_mult: 2
    decay_mult: 0
  }
  convolution_param {
    num_output: 64
    kernel_size: 1
    weight_filler {
      type: "xavier"
    }
    bias_filler {
      type: "constant"
      value: 0.2
    }
  }
}
layer {
  name: "inception_4c/relu_pool_proj"
  type: "ReLU"
  bottom: "inception_4c/pool_proj"
  top: "inception_4c/pool_proj"
}
layer {
  name: "inception_4c/output"
  type: "Concat"
  bottom: "inception_4c/1x1"
  bottom: "inception_4c/3x3"
  bottom: "inception_4c/5x5"
  bottom: "inception_4c/pool_proj"
  top: "inception_4c/output"
}
layer {
  name: "inception_4d/1x1"
  type: "Convolution"
  bottom: "inception_4c/output"
  top: "inception_4d/1x1"
  param {
    lr_mult: 1
    decay_mult: 1
  }
  param {
    lr_mult: 2
    decay_mult: 0
  }
  convolution_param {
    num_output: 112
    kernel_size: 1
    weight_filler {
      type: "xavier"
    }
    bias_filler {
      type: "constant"
      value: 0.2
    }
  }
}
layer {
  name: "inception_4d/relu_1x1"
  type: "ReLU"
  bottom: "inception_4d/1x1"
  top: "inception_4d/1x1"
}
layer {
  name: "inception_4d/3x3_reduce"
  type: "Convolution"
  bottom: "inception_4c/output"
  top: "inception_4d/3x3_reduce"
  param {
    lr_mult: 1
    decay_mult: 1
  }
  param {
    lr_mult: 2
    decay_mult: 0
  }
  convolution_param {
    num_output: 144
    kernel_size: 1
    weight_filler {
      type: "xavier"
    }
    bias_filler {
      type: "constant"
      value: 0.2
    }
  }
}
layer {
  name: "inception_4d/relu_3x3_reduce"
  type: "ReLU"
  bottom: "inception_4d/3x3_reduce"
  top: "inception_4d/3x3_reduce"
}
layer {
  name: "inception_4d/3x3"
  type: "Convolution"
  bottom: "inception_4d/3x3_reduce"
  top: "inception_4d/3x3"
  param {
    lr_mult: 1
    decay_mult: 1
  }
  param {
    lr_mult: 2
    decay_mult: 0
  }
  convolution_param {
    num_output: 288
    pad: 1
    kernel_size: 3
    weight_filler {
      type: "xavier"
    }
    bias_filler {
      type: "constant"
      value: 0.2
    }
  }
}
layer {
  name: "inception_4d/relu_3x3"
  type: "ReLU"
  bottom: "inception_4d/3x3"
  top: "inception_4d/3x3"
}
layer {
  name: "inception_4d/5x5_reduce"
  type: "Convolution"
  bottom: "inception_4c/output"
  top: "inception_4d/5x5_reduce"
  param {
    lr_mult: 1
    decay_mult: 1
  }
  param {
    lr_mult: 2
    decay_mult: 0
  }
  convolution_param {
    num_output: 32
    kernel_size: 1
    weight_filler {
      type: "xavier"
    }
    bias_filler {
      type: "constant"
      value: 0.2
    }
  }
}
layer {
  name: "inception_4d/relu_5x5_reduce"
  type: "ReLU"
  bottom: "inception_4d/5x5_reduce"
  top: "inception_4d/5x5_reduce"
}
layer {
  name: "inception_4d/5x5"
  type: "Convolution"
  bottom: "inception_4d/5x5_reduce"
  top: "inception_4d/5x5"
  param {
    lr_mult: 1
    decay_mult: 1
  }
  param {
    lr_mult: 2
    decay_mult: 0
  }
  convolution_param {
    num_output: 64
    pad: 2
    kernel_size: 5
    weight_filler {
      type: "xavier"
    }
    bias_filler {
      type: "constant"
      value: 0.2
    }
  }
}
layer {
  name: "inception_4d/relu_5x5"
  type: "ReLU"
  bottom: "inception_4d/5x5"
  top: "inception_4d/5x5"
}
layer {
  name: "inception_4d/pool"
  type: "Pooling"
  bottom: "inception_4c/output"
  top: "inception_4d/pool"
  pooling_param {
    pool: MAX
    kernel_size: 3
    stride: 1
    pad: 1
  }
}
layer {
  name: "inception_4d/pool_proj"
  type: "Convolution"
  bottom: "inception_4d/pool"
  top: "inception_4d/pool_proj"
  param {
    lr_mult: 1
    decay_mult: 1
  }
  param {
    lr_mult: 2
    decay_mult: 0
  }
  convolution_param {
    num_output: 64
    kernel_size: 1
    weight_filler {
      type: "xavier"
    }
    bias_filler {
      type: "constant"
      value: 0.2
    }
  }
}
layer {
  name: "inception_4d/relu_pool_proj"
  type: "ReLU"
  bottom: "inception_4d/pool_proj"
  top: "inception_4d/pool_proj"
}
layer {
  name: "inception_4d/output"
  type: "Concat"
  bottom: "inception_4d/1x1"
  bottom: "inception_4d/3x3"
  bottom: "inception_4d/5x5"
  bottom: "inception_4d/pool_proj"
  top: "inception_4d/output"
}
layer {
  name: "loss2/ave_pool"
  type: "Pooling"
  bottom: "inception_4d/output"
  top: "loss2/ave_pool"
  pooling_param {
    pool: AVE
    kernel_size: 5
    stride: 3
  }
}
layer {
  name: "loss2/conv"
  type: "Convolution"
  bottom: "loss2/ave_pool"
  top: "loss2/conv"
  param {
    lr_mult: 1
    decay_mult: 1
  }
  param {
    lr_mult: 2
    decay_mult: 0
  }
  convolution_param {
    num_output: 128
    kernel_size: 1
    weight_filler {
      type: "xavier"
    }
    bias_filler {
      type: "constant"
      value: 0.2
    }
  }
}
layer {
  name: "loss2/relu_conv"
  type: "ReLU"
  bottom: "loss2/conv"
  top: "loss2/conv"
}
layer {
  name: "loss2/fc"
  type: "InnerProduct"
  bottom: "loss2/conv"
  top: "loss2/fc"
  param {
    lr_mult: 1
    decay_mult: 1
  }
  param {
    lr_mult: 2
    decay_mult: 0
  }
  inner_product_param {
    num_output: 1024
    weight_filler {
      type: "xavier"
    }
    bias_filler {
      type: "constant"
      value: 0.2
    }
  }
}
layer {
  name: "loss2/relu_fc"
  type: "ReLU"
  bottom: "loss2/fc"
  top: "loss2/fc"
}
layer {
  name: "loss2/drop_fc"
  type: "Dropout"
  bottom: "loss2/fc"
  top: "loss2/fc"
  dropout_param {
    dropout_ratio: 0.7
  }
}
layer {
  name: "loss2/classifier-attribute"
  type: "InnerProduct"
  bottom: "loss2/fc"
  top: "loss2/classifier-attribute"
  param {
    lr_mult: 10
    decay_mult: 1
  }
  param {
    lr_mult: 20
    decay_mult: 0
  }
  inner_product_param {
    num_output: 13
    weight_filler {
      type: "xavier"
    }
    bias_filler {
      type: "constant"
      value: 0
    }
  }
}
layer {
  name: "loss2/loss"
  type: "SoftmaxWithLoss"
  bottom: "loss2/classifier-attribute"
  bottom: "label"
  top: "loss2/loss1"
  loss_weight: 0.3
}
layer {
  name: "inception_4e/1x1"
  type: "Convolution"
  bottom: "inception_4d/output"
  top: "inception_4e/1x1"
  param {
    lr_mult: 1
    decay_mult: 1
  }
  param {
    lr_mult: 2
    decay_mult: 0
  }
  convolution_param {
    num_output: 256
    kernel_size: 1
    weight_filler {
      type: "xavier"
    }
    bias_filler {
      type: "constant"
      value: 0.2
    }
  }
}
layer {
  name: "inception_4e/relu_1x1"
  type: "ReLU"
  bottom: "inception_4e/1x1"
  top: "inception_4e/1x1"
}
layer {
  name: "inception_4e/3x3_reduce"
  type: "Convolution"
  bottom: "inception_4d/output"
  top: "inception_4e/3x3_reduce"
  param {
    lr_mult: 1
    decay_mult: 1
  }
  param {
    lr_mult: 2
    decay_mult: 0
  }
  convolution_param {
    num_output: 160
    kernel_size: 1
    weight_filler {
      type: "xavier"
    }
    bias_filler {
      type: "constant"
      value: 0.2
    }
  }
}
layer {
  name: "inception_4e/relu_3x3_reduce"
  type: "ReLU"
  bottom: "inception_4e/3x3_reduce"
  top: "inception_4e/3x3_reduce"
}
layer {
  name: "inception_4e/3x3"
  type: "Convolution"
  bottom: "inception_4e/3x3_reduce"
  top: "inception_4e/3x3"
  param {
    lr_mult: 1
    decay_mult: 1
  }
  param {
    lr_mult: 2
    decay_mult: 0
  }
  convolution_param {
    num_output: 320
    pad: 1
    kernel_size: 3
    weight_filler {
      type: "xavier"
    }
    bias_filler {
      type: "constant"
      value: 0.2
    }
  }
}
layer {
  name: "inception_4e/relu_3x3"
  type: "ReLU"
  bottom: "inception_4e/3x3"
  top: "inception_4e/3x3"
}
layer {
  name: "inception_4e/5x5_reduce"
  type: "Convolution"
  bottom: "inception_4d/output"
  top: "inception_4e/5x5_reduce"
  param {
    lr_mult: 1
    decay_mult: 1
  }
  param {
    lr_mult: 2
    decay_mult: 0
  }
  convolution_param {
    num_output: 32
    kernel_size: 1
    weight_filler {
      type: "xavier"
    }
    bias_filler {
      type: "constant"
      value: 0.2
    }
  }
}
layer {
  name: "inception_4e/relu_5x5_reduce"
  type: "ReLU"
  bottom: "inception_4e/5x5_reduce"
  top: "inception_4e/5x5_reduce"
}
layer {
  name: "inception_4e/5x5"
  type: "Convolution"
  bottom: "inception_4e/5x5_reduce"
  top: "inception_4e/5x5"
  param {
    lr_mult: 1
    decay_mult: 1
  }
  param {
    lr_mult: 2
    decay_mult: 0
  }
  convolution_param {
    num_output: 128
    pad: 2
    kernel_size: 5
    weight_filler {
      type: "xavier"
    }
    bias_filler {
      type: "constant"
      value: 0.2
    }
  }
}
layer {
  name: "inception_4e/relu_5x5"
  type: "ReLU"
  bottom: "inception_4e/5x5"
  top: "inception_4e/5x5"
}
layer {
  name: "inception_4e/pool"
  type: "Pooling"
  bottom: "inceptio
I1124 13:27:34.252200 13084 layer_factory.hpp:76] Creating layer data
I1124 13:27:34.252246 13084 net.cpp:106] Creating Layer data
I1124 13:27:34.252256 13084 net.cpp:411] data -> data
I1124 13:27:34.252287 13084 net.cpp:411] data -> label
I1124 13:27:34.252743 13084 image_data_layer.cpp:36] Opening file pad_train.txt
I1124 13:27:34.374176 13084 image_data_layer.cpp:46] Shuffling data
I1124 13:27:34.389137 13084 image_data_layer.cpp:51] A total of 141698 images.
I1124 13:27:34.415482 13084 image_data_layer.cpp:78] output data size: 64,3,224,224
I1124 13:27:34.470350 13084 net.cpp:150] Setting up data
I1124 13:27:34.470413 13084 net.cpp:157] Top shape: 64 3 224 224 (9633792)
I1124 13:27:34.470422 13084 net.cpp:157] Top shape: 64 (64)
I1124 13:27:34.470424 13084 net.cpp:165] Memory required for data: 38535424
I1124 13:27:34.470433 13084 layer_factory.hpp:76] Creating layer label_data_1_split
I1124 13:27:34.470450 13084 net.cpp:106] Creating Layer label_data_1_split
I1124 13:27:34.470456 13084 net.cpp:454] label_data_1_split <- label
I1124 13:27:34.470468 13084 net.cpp:411] label_data_1_split -> label_data_1_split_0
I1124 13:27:34.470477 13084 net.cpp:411] label_data_1_split -> label_data_1_split_1
I1124 13:27:34.470484 13084 net.cpp:411] label_data_1_split -> label_data_1_split_2
I1124 13:27:34.470600 13084 net.cpp:150] Setting up label_data_1_split
I1124 13:27:34.470610 13084 net.cpp:157] Top shape: 64 (64)
I1124 13:27:34.470614 13084 net.cpp:157] Top shape: 64 (64)
I1124 13:27:34.470618 13084 net.cpp:157] Top shape: 64 (64)
I1124 13:27:34.470621 13084 net.cpp:165] Memory required for data: 38536192
I1124 13:27:34.470625 13084 layer_factory.hpp:76] Creating layer conv1/7x7_s2
I1124 13:27:34.470640 13084 net.cpp:106] Creating Layer conv1/7x7_s2
I1124 13:27:34.470644 13084 net.cpp:454] conv1/7x7_s2 <- data
I1124 13:27:34.470649 13084 net.cpp:411] conv1/7x7_s2 -> conv1/7x7_s2
I1124 13:27:34.637028 13084 net.cpp:150] Setting up conv1/7x7_s2
I1124 13:27:34.637056 13084 net.cpp:157] Top shape: 64 64 112 112 (51380224)
I1124 13:27:34.637061 13084 net.cpp:165] Memory required for data: 244057088
I1124 13:27:34.637083 13084 layer_factory.hpp:76] Creating layer conv1/relu_7x7
I1124 13:27:34.637094 13084 net.cpp:106] Creating Layer conv1/relu_7x7
I1124 13:27:34.637099 13084 net.cpp:454] conv1/relu_7x7 <- conv1/7x7_s2
I1124 13:27:34.637105 13084 net.cpp:397] conv1/relu_7x7 -> conv1/7x7_s2 (in-place)
I1124 13:27:34.637394 13084 net.cpp:150] Setting up conv1/relu_7x7
I1124 13:27:34.637408 13084 net.cpp:157] Top shape: 64 64 112 112 (51380224)
I1124 13:27:34.637413 13084 net.cpp:165] Memory required for data: 449577984
I1124 13:27:34.637416 13084 layer_factory.hpp:76] Creating layer pool1/3x3_s2
I1124 13:27:34.637425 13084 net.cpp:106] Creating Layer pool1/3x3_s2
I1124 13:27:34.637429 13084 net.cpp:454] pool1/3x3_s2 <- conv1/7x7_s2
I1124 13:27:34.637434 13084 net.cpp:411] pool1/3x3_s2 -> pool1/3x3_s2
I1124 13:27:34.637622 13084 net.cpp:150] Setting up pool1/3x3_s2
I1124 13:27:34.637635 13084 net.cpp:157] Top shape: 64 64 56 56 (12845056)
I1124 13:27:34.637639 13084 net.cpp:165] Memory required for data: 500958208
I1124 13:27:34.637641 13084 layer_factory.hpp:76] Creating layer pool1/norm1
I1124 13:27:34.637653 13084 net.cpp:106] Creating Layer pool1/norm1
I1124 13:27:34.637656 13084 net.cpp:454] pool1/norm1 <- pool1/3x3_s2
I1124 13:27:34.637661 13084 net.cpp:411] pool1/norm1 -> pool1/norm1
I1124 13:27:34.637969 13084 net.cpp:150] Setting up pool1/norm1
I1124 13:27:34.637982 13084 net.cpp:157] Top shape: 64 64 56 56 (12845056)
I1124 13:27:34.637986 13084 net.cpp:165] Memory required for data: 552338432
I1124 13:27:34.637989 13084 layer_factory.hpp:76] Creating layer conv2/3x3_reduce
I1124 13:27:34.638000 13084 net.cpp:106] Creating Layer conv2/3x3_reduce
I1124 13:27:34.638003 13084 net.cpp:454] conv2/3x3_reduce <- pool1/norm1
I1124 13:27:34.638010 13084 net.cpp:411] conv2/3x3_reduce -> conv2/3x3_reduce
I1124 13:27:34.639238 13084 net.cpp:150] Setting up conv2/3x3_reduce
I1124 13:27:34.639255 13084 net.cpp:157] Top shape: 64 64 56 56 (12845056)
I1124 13:27:34.639258 13084 net.cpp:165] Memory required for data: 603718656
I1124 13:27:34.639267 13084 layer_factory.hpp:76] Creating layer conv2/relu_3x3_reduce
I1124 13:27:34.639273 13084 net.cpp:106] Creating Layer conv2/relu_3x3_reduce
I1124 13:27:34.639277 13084 net.cpp:454] conv2/relu_3x3_reduce <- conv2/3x3_reduce
I1124 13:27:34.639284 13084 net.cpp:397] conv2/relu_3x3_reduce -> conv2/3x3_reduce (in-place)
I1124 13:27:34.639556 13084 net.cpp:150] Setting up conv2/relu_3x3_reduce
I1124 13:27:34.639571 13084 net.cpp:157] Top shape: 64 64 56 56 (12845056)
I1124 13:27:34.639575 13084 net.cpp:165] Memory required for data: 655098880
I1124 13:27:34.639578 13084 layer_factory.hpp:76] Creating layer conv2/3x3
I1124 13:27:34.639588 13084 net.cpp:106] Creating Layer conv2/3x3
I1124 13:27:34.639591 13084 net.cpp:454] conv2/3x3 <- conv2/3x3_reduce
I1124 13:27:34.639597 13084 net.cpp:411] conv2/3x3 -> conv2/3x3
I1124 13:27:34.641623 13084 net.cpp:150] Setting up conv2/3x3
I1124 13:27:34.641638 13084 net.cpp:157] Top shape: 64 192 56 56 (38535168)
I1124 13:27:34.641643 13084 net.cpp:165] Memory required for data: 809239552
I1124 13:27:34.641651 13084 layer_factory.hpp:76] Creating layer conv2/relu_3x3
I1124 13:27:34.641657 13084 net.cpp:106] Creating Layer conv2/relu_3x3
I1124 13:27:34.641660 13084 net.cpp:454] conv2/relu_3x3 <- conv2/3x3
I1124 13:27:34.641665 13084 net.cpp:397] conv2/relu_3x3 -> conv2/3x3 (in-place)
I1124 13:27:34.641813 13084 net.cpp:150] Setting up conv2/relu_3x3
I1124 13:27:34.641824 13084 net.cpp:157] Top shape: 64 192 56 56 (38535168)
I1124 13:27:34.641827 13084 net.cpp:165] Memory required for data: 963380224
I1124 13:27:34.641830 13084 layer_factory.hpp:76] Creating layer conv2/norm2
I1124 13:27:34.641836 13084 net.cpp:106] Creating Layer conv2/norm2
I1124 13:27:34.641840 13084 net.cpp:454] conv2/norm2 <- conv2/3x3
I1124 13:27:34.641845 13084 net.cpp:411] conv2/norm2 -> conv2/norm2
I1124 13:27:34.642146 13084 net.cpp:150] Setting up conv2/norm2
I1124 13:27:34.642161 13084 net.cpp:157] Top shape: 64 192 56 56 (38535168)
I1124 13:27:34.642164 13084 net.cpp:165] Memory required for data: 1117520896
I1124 13:27:34.642168 13084 layer_factory.hpp:76] Creating layer pool2/3x3_s2
I1124 13:27:34.642174 13084 net.cpp:106] Creating Layer pool2/3x3_s2
I1124 13:27:34.642179 13084 net.cpp:454] pool2/3x3_s2 <- conv2/norm2
I1124 13:27:34.642184 13084 net.cpp:411] pool2/3x3_s2 -> pool2/3x3_s2
I1124 13:27:34.642351 13084 net.cpp:150] Setting up pool2/3x3_s2
I1124 13:27:34.642362 13084 net.cpp:157] Top shape: 64 192 28 28 (9633792)
I1124 13:27:34.642365 13084 net.cpp:165] Memory required for data: 1156056064
I1124 13:27:34.642369 13084 layer_factory.hpp:76] Creating layer pool2/3x3_s2_pool2/3x3_s2_0_split
I1124 13:27:34.642375 13084 net.cpp:106] Creating Layer pool2/3x3_s2_pool2/3x3_s2_0_split
I1124 13:27:34.642379 13084 net.cpp:454] pool2/3x3_s2_pool2/3x3_s2_0_split <- pool2/3x3_s2
I1124 13:27:34.642385 13084 net.cpp:411] pool2/3x3_s2_pool2/3x3_s2_0_split -> pool2/3x3_s2_pool2/3x3_s2_0_split_0
I1124 13:27:34.642390 13084 net.cpp:411] pool2/3x3_s2_pool2/3x3_s2_0_split -> pool2/3x3_s2_pool2/3x3_s2_0_split_1
I1124 13:27:34.642396 13084 net.cpp:411] pool2/3x3_s2_pool2/3x3_s2_0_split -> pool2/3x3_s2_pool2/3x3_s2_0_split_2
I1124 13:27:34.642401 13084 net.cpp:411] pool2/3x3_s2_pool2/3x3_s2_0_split -> pool2/3x3_s2_pool2/3x3_s2_0_split_3
I1124 13:27:34.642447 13084 net.cpp:150] Setting up pool2/3x3_s2_pool2/3x3_s2_0_split
I1124 13:27:34.642457 13084 net.cpp:157] Top shape: 64 192 28 28 (9633792)
I1124 13:27:34.642462 13084 net.cpp:157] Top shape: 64 192 28 28 (9633792)
I1124 13:27:34.642464 13084 net.cpp:157] Top shape: 64 192 28 28 (9633792)
I1124 13:27:34.642467 13084 net.cpp:157] Top shape: 64 192 28 28 (9633792)
I1124 13:27:34.642470 13084 net.cpp:165] Memory required for data: 1310196736
I1124 13:27:34.642473 13084 layer_factory.hpp:76] Creating layer inception_3a/1x1
I1124 13:27:34.642482 13084 net.cpp:106] Creating Layer inception_3a/1x1
I1124 13:27:34.642484 13084 net.cpp:454] inception_3a/1x1 <- pool2/3x3_s2_pool2/3x3_s2_0_split_0
I1124 13:27:34.642489 13084 net.cpp:411] inception_3a/1x1 -> inception_3a/1x1
I1124 13:27:34.643867 13084 net.cpp:150] Setting up inception_3a/1x1
I1124 13:27:34.643883 13084 net.cpp:157] Top shape: 64 64 28 28 (3211264)
I1124 13:27:34.643887 13084 net.cpp:165] Memory required for data: 1323041792
I1124 13:27:34.643893 13084 layer_factory.hpp:76] Creating layer inception_3a/relu_1x1
I1124 13:27:34.643899 13084 net.cpp:106] Creating Layer inception_3a/relu_1x1
I1124 13:27:34.643903 13084 net.cpp:454] inception_3a/relu_1x1 <- inception_3a/1x1
I1124 13:27:34.643908 13084 net.cpp:397] inception_3a/relu_1x1 -> inception_3a/1x1 (in-place)
I1124 13:27:34.644198 13084 net.cpp:150] Setting up inception_3a/relu_1x1
I1124 13:27:34.644213 13084 net.cpp:157] Top shape: 64 64 28 28 (3211264)
I1124 13:27:34.644217 13084 net.cpp:165] Memory required for data: 1335886848
I1124 13:27:34.644220 13084 layer_factory.hpp:76] Creating layer inception_3a/3x3_reduce
I1124 13:27:34.644228 13084 net.cpp:106] Creating Layer inception_3a/3x3_reduce
I1124 13:27:34.644232 13084 net.cpp:454] inception_3a/3x3_reduce <- pool2/3x3_s2_pool2/3x3_s2_0_split_1
I1124 13:27:34.644238 13084 net.cpp:411] inception_3a/3x3_reduce -> inception_3a/3x3_reduce
I1124 13:27:34.645670 13084 net.cpp:150] Setting up inception_3a/3x3_reduce
I1124 13:27:34.645685 13084 net.cpp:157] Top shape: 64 96 28 28 (4816896)
I1124 13:27:34.645689 13084 net.cpp:165] Memory required for data: 1355154432
I1124 13:27:34.645699 13084 layer_factory.hpp:76] Creating layer inception_3a/relu_3x3_reduce
I1124 13:27:34.645706 13084 net.cpp:106] Creating Layer inception_3a/relu_3x3_reduce
I1124 13:27:34.645710 13084 net.cpp:454] inception_3a/relu_3x3_reduce <- inception_3a/3x3_reduce
I1124 13:27:34.645715 13084 net.cpp:397] inception_3a/relu_3x3_reduce -> inception_3a/3x3_reduce (in-place)
I1124 13:27:34.645879 13084 net.cpp:150] Setting up inception_3a/relu_3x3_reduce
I1124 13:27:34.645890 13084 net.cpp:157] Top shape: 64 96 28 28 (4816896)
I1124 13:27:34.645894 13084 net.cpp:165] Memory required for data: 1374422016
I1124 13:27:34.645896 13084 layer_factory.hpp:76] Creating layer inception_3a/3x3
I1124 13:27:34.645905 13084 net.cpp:106] Creating Layer inception_3a/3x3
I1124 13:27:34.645910 13084 net.cpp:454] inception_3a/3x3 <- inception_3a/3x3_reduce
I1124 13:27:34.645915 13084 net.cpp:411] inception_3a/3x3 -> inception_3a/3x3
I1124 13:27:34.647603 13084 net.cpp:150] Setting up inception_3a/3x3
I1124 13:27:34.647617 13084 net.cpp:157] Top shape: 64 128 28 28 (6422528)
I1124 13:27:34.647621 13084 net.cpp:165] Memory required for data: 1400112128
I1124 13:27:34.647627 13084 layer_factory.hpp:76] Creating layer inception_3a/relu_3x3
I1124 13:27:34.647634 13084 net.cpp:106] Creating Layer inception_3a/relu_3x3
I1124 13:27:34.647637 13084 net.cpp:454] inception_3a/relu_3x3 <- inception_3a/3x3
I1124 13:27:34.647642 13084 net.cpp:397] inception_3a/relu_3x3 -> inception_3a/3x3 (in-place)
I1124 13:27:34.647790 13084 net.cpp:150] Setting up inception_3a/relu_3x3
I1124 13:27:34.647801 13084 net.cpp:157] Top shape: 64 128 28 28 (6422528)
I1124 13:27:34.647805 13084 net.cpp:165] Memory required for data: 1425802240
I1124 13:27:34.647809 13084 layer_factory.hpp:76] Creating layer inception_3a/5x5_reduce
I1124 13:27:34.647815 13084 net.cpp:106] Creating Layer inception_3a/5x5_reduce
I1124 13:27:34.647819 13084 net.cpp:454] inception_3a/5x5_reduce <- pool2/3x3_s2_pool2/3x3_s2_0_split_2
I1124 13:27:34.647825 13084 net.cpp:411] inception_3a/5x5_reduce -> inception_3a/5x5_reduce
I1124 13:27:34.648772 13084 net.cpp:150] Setting up inception_3a/5x5_reduce
I1124 13:27:34.648787 13084 net.cpp:157] Top shape: 64 16 28 28 (802816)
I1124 13:27:34.648790 13084 net.cpp:165] Memory required for data: 1429013504
I1124 13:27:34.648797 13084 layer_factory.hpp:76] Creating layer inception_3a/relu_5x5_reduce
I1124 13:27:34.648802 13084 net.cpp:106] Creating Layer inception_3a/relu_5x5_reduce
I1124 13:27:34.648807 13084 net.cpp:454] inception_3a/relu_5x5_reduce <- inception_3a/5x5_reduce
I1124 13:27:34.648811 13084 net.cpp:397] inception_3a/relu_5x5_reduce -> inception_3a/5x5_reduce (in-place)
I1124 13:27:34.649085 13084 net.cpp:150] Setting up inception_3a/relu_5x5_reduce
I1124 13:27:34.649099 13084 net.cpp:157] Top shape: 64 16 28 28 (802816)
I1124 13:27:34.649103 13084 net.cpp:165] Memory required for data: 1432224768
I1124 13:27:34.649107 13084 layer_factory.hpp:76] Creating layer inception_3a/5x5
I1124 13:27:34.649116 13084 net.cpp:106] Creating Layer inception_3a/5x5
I1124 13:27:34.649119 13084 net.cpp:454] inception_3a/5x5 <- inception_3a/5x5_reduce
I1124 13:27:34.649124 13084 net.cpp:411] inception_3a/5x5 -> inception_3a/5x5
I1124 13:27:34.650070 13084 net.cpp:150] Setting up inception_3a/5x5
I1124 13:27:34.650084 13084 net.cpp:157] Top shape: 64 32 28 28 (1605632)
I1124 13:27:34.650089 13084 net.cpp:165] Memory required for data: 1438647296
I1124 13:27:34.650094 13084 layer_factory.hpp:76] Creating layer inception_3a/relu_5x5
I1124 13:27:34.650100 13084 net.cpp:106] Creating Layer inception_3a/relu_5x5
I1124 13:27:34.650104 13084 net.cpp:454] inception_3a/relu_5x5 <- inception_3a/5x5
I1124 13:27:34.650110 13084 net.cpp:397] inception_3a/relu_5x5 -> inception_3a/5x5 (in-place)
I1124 13:27:34.650264 13084 net.cpp:150] Setting up inception_3a/relu_5x5
I1124 13:27:34.650275 13084 net.cpp:157] Top shape: 64 32 28 28 (1605632)
I1124 13:27:34.650279 13084 net.cpp:165] Memory required for data: 1445069824
I1124 13:27:34.650282 13084 layer_factory.hpp:76] Creating layer inception_3a/pool
I1124 13:27:34.650287 13084 net.cpp:106] Creating Layer inception_3a/pool
I1124 13:27:34.650291 13084 net.cpp:454] inception_3a/pool <- pool2/3x3_s2_pool2/3x3_s2_0_split_3
I1124 13:27:34.650296 13084 net.cpp:411] inception_3a/pool -> inception_3a/pool
I1124 13:27:34.650593 13084 net.cpp:150] Setting up inception_3a/pool
I1124 13:27:34.650606 13084 net.cpp:157] Top shape: 64 192 28 28 (9633792)
I1124 13:27:34.650610 13084 net.cpp:165] Memory required for data: 1483604992
I1124 13:27:34.650614 13084 layer_factory.hpp:76] Creating layer inception_3a/pool_proj
I1124 13:27:34.650621 13084 net.cpp:106] Creating Layer inception_3a/pool_proj
I1124 13:27:34.650625 13084 net.cpp:454] inception_3a/pool_proj <- inception_3a/pool
I1124 13:27:34.650632 13084 net.cpp:411] inception_3a/pool_proj -> inception_3a/pool_proj
I1124 13:27:34.651417 13084 net.cpp:150] Setting up inception_3a/pool_proj
I1124 13:27:34.651432 13084 net.cpp:157] Top shape: 64 32 28 28 (1605632)
I1124 13:27:34.651435 13084 net.cpp:165] Memory required for data: 1490027520
I1124 13:27:34.651445 13084 layer_factory.hpp:76] Creating layer inception_3a/relu_pool_proj
I1124 13:27:34.651451 13084 net.cpp:106] Creating Layer inception_3a/relu_pool_proj
I1124 13:27:34.651455 13084 net.cpp:454] inception_3a/relu_pool_proj <- inception_3a/pool_proj
I1124 13:27:34.651460 13084 net.cpp:397] inception_3a/relu_pool_proj -> inception_3a/pool_proj (in-place)
I1124 13:27:34.651736 13084 net.cpp:150] Setting up inception_3a/relu_pool_proj
I1124 13:27:34.651748 13084 net.cpp:157] Top shape: 64 32 28 28 (1605632)
I1124 13:27:34.651752 13084 net.cpp:165] Memory required for data: 1496450048
I1124 13:27:34.651756 13084 layer_factory.hpp:76] Creating layer inception_3a/output
I1124 13:27:34.651765 13084 net.cpp:106] Creating Layer inception_3a/output
I1124 13:27:34.651769 13084 net.cpp:454] inception_3a/output <- inception_3a/1x1
I1124 13:27:34.651774 13084 net.cpp:454] inception_3a/output <- inception_3a/3x3
I1124 13:27:34.651778 13084 net.cpp:454] inception_3a/output <- inception_3a/5x5
I1124 13:27:34.651782 13084 net.cpp:454] inception_3a/output <- inception_3a/pool_proj
I1124 13:27:34.651787 13084 net.cpp:411] inception_3a/output -> inception_3a/output
I1124 13:27:34.651818 13084 net.cpp:150] Setting up inception_3a/output
I1124 13:27:34.651823 13084 net.cpp:157] Top shape: 64 256 28 28 (12845056)
I1124 13:27:34.651826 13084 net.cpp:165] Memory required for data: 1547830272
I1124 13:27:34.651829 13084 layer_factory.hpp:76] Creating layer inception_3a/output_inception_3a/output_0_split
I1124 13:27:34.651834 13084 net.cpp:106] Creating Layer inception_3a/output_inception_3a/output_0_split
I1124 13:27:34.651837 13084 net.cpp:454] inception_3a/output_inception_3a/output_0_split <- inception_3a/output
I1124 13:27:34.651842 13084 net.cpp:411] inception_3a/output_inception_3a/output_0_split -> inception_3a/output_inception_3a/output_0_split_0
I1124 13:27:34.651849 13084 net.cpp:411] inception_3a/output_inception_3a/output_0_split -> inception_3a/output_inception_3a/output_0_split_1
I1124 13:27:34.651854 13084 net.cpp:411] inception_3a/output_inception_3a/output_0_split -> inception_3a/output_inception_3a/output_0_split_2
I1124 13:27:34.651859 13084 net.cpp:411] inception_3a/output_inception_3a/output_0_split -> inception_3a/output_inception_3a/output_0_split_3
I1124 13:27:34.651908 13084 net.cpp:150] Setting up inception_3a/output_inception_3a/output_0_split
I1124 13:27:34.651916 13084 net.cpp:157] Top shape: 64 256 28 28 (12845056)
I1124 13:27:34.651919 13084 net.cpp:157] Top shape: 64 256 28 28 (12845056)
I1124 13:27:34.651922 13084 net.cpp:157] Top shape: 64 256 28 28 (12845056)
I1124 13:27:34.651926 13084 net.cpp:157] Top shape: 64 256 28 28 (12845056)
I1124 13:27:34.651929 13084 net.cpp:165] Memory required for data: 1753351168
I1124 13:27:34.651932 13084 layer_factory.hpp:76] Creating layer inception_3b/1x1
I1124 13:27:34.651939 13084 net.cpp:106] Creating Layer inception_3b/1x1
I1124 13:27:34.651957 13084 net.cpp:454] inception_3b/1x1 <- inception_3a/output_inception_3a/output_0_split_0
I1124 13:27:34.651964 13084 net.cpp:411] inception_3b/1x1 -> inception_3b/1x1
I1124 13:27:34.653029 13084 net.cpp:150] Setting up inception_3b/1x1
I1124 13:27:34.653044 13084 net.cpp:157] Top shape: 64 128 28 28 (6422528)
I1124 13:27:34.653048 13084 net.cpp:165] Memory required for data: 1779041280
I1124 13:27:34.653054 13084 layer_factory.hpp:76] Creating layer inception_3b/relu_1x1
I1124 13:27:34.653060 13084 net.cpp:106] Creating Layer inception_3b/relu_1x1
I1124 13:27:34.653064 13084 net.cpp:454] inception_3b/relu_1x1 <- inception_3b/1x1
I1124 13:27:34.653069 13084 net.cpp:397] inception_3b/relu_1x1 -> inception_3b/1x1 (in-place)
I1124 13:27:34.653214 13084 net.cpp:150] Setting up inception_3b/relu_1x1
I1124 13:27:34.653224 13084 net.cpp:157] Top shape: 64 128 28 28 (6422528)
I1124 13:27:34.653228 13084 net.cpp:165] Memory required for data: 1804731392
I1124 13:27:34.653231 13084 layer_factory.hpp:76] Creating layer inception_3b/3x3_reduce
I1124 13:27:34.653239 13084 net.cpp:106] Creating Layer inception_3b/3x3_reduce
I1124 13:27:34.653242 13084 net.cpp:454] inception_3b/3x3_reduce <- inception_3a/output_inception_3a/output_0_split_1
I1124 13:27:34.653249 13084 net.cpp:411] inception_3b/3x3_reduce -> inception_3b/3x3_reduce
I1124 13:27:34.654306 13084 net.cpp:150] Setting up inception_3b/3x3_reduce
I1124 13:27:34.654320 13084 net.cpp:157] Top shape: 64 128 28 28 (6422528)
I1124 13:27:34.654325 13084 net.cpp:165] Memory required for data: 1830421504
I1124 13:27:34.654330 13084 layer_factory.hpp:76] Creating layer inception_3b/relu_3x3_reduce
I1124 13:27:34.654336 13084 net.cpp:106] Creating Layer inception_3b/relu_3x3_reduce
I1124 13:27:34.654340 13084 net.cpp:454] inception_3b/relu_3x3_reduce <- inception_3b/3x3_reduce
I1124 13:27:34.654345 13084 net.cpp:397] inception_3b/relu_3x3_reduce -> inception_3b/3x3_reduce (in-place)
I1124 13:27:34.654619 13084 net.cpp:150] Setting up inception_3b/relu_3x3_reduce
I1124 13:27:34.654633 13084 net.cpp:157] Top shape: 64 128 28 28 (6422528)
I1124 13:27:34.654636 13084 net.cpp:165] Memory required for data: 1856111616
I1124 13:27:34.654640 13084 layer_factory.hpp:76] Creating layer inception_3b/3x3
I1124 13:27:34.654650 13084 net.cpp:106] Creating Layer inception_3b/3x3
I1124 13:27:34.654655 13084 net.cpp:454] inception_3b/3x3 <- inception_3b/3x3_reduce
I1124 13:27:34.654660 13084 net.cpp:411] inception_3b/3x3 -> inception_3b/3x3
I1124 13:27:34.657259 13084 net.cpp:150] Setting up inception_3b/3x3
I1124 13:27:34.657274 13084 net.cpp:157] Top shape: 64 192 28 28 (9633792)
I1124 13:27:34.657279 13084 net.cpp:165] Memory required for data: 1894646784
I1124 13:27:34.657285 13084 layer_factory.hpp:76] Creating layer inception_3b/relu_3x3
I1124 13:27:34.657291 13084 net.cpp:106] Creating Layer inception_3b/relu_3x3
I1124 13:27:34.657295 13084 net.cpp:454] inception_3b/relu_3x3 <- inception_3b/3x3
I1124 13:27:34.657300 13084 net.cpp:397] inception_3b/relu_3x3 -> inception_3b/3x3 (in-place)
I1124 13:27:34.657721 13084 net.cpp:150] Setting up inception_3b/relu_3x3
I1124 13:27:34.657735 13084 net.cpp:157] Top shape: 64 192 28 28 (9633792)
I1124 13:27:34.657739 13084 net.cpp:165] Memory required for data: 1933181952
I1124 13:27:34.657743 13084 layer_factory.hpp:76] Creating layer inception_3b/5x5_reduce
I1124 13:27:34.657752 13084 net.cpp:106] Creating Layer inception_3b/5x5_reduce
I1124 13:27:34.657755 13084 net.cpp:454] inception_3b/5x5_reduce <- inception_3a/output_inception_3a/output_0_split_2
I1124 13:27:34.657762 13084 net.cpp:411] inception_3b/5x5_reduce -> inception_3b/5x5_reduce
I1124 13:27:34.658697 13084 net.cpp:150] Setting up inception_3b/5x5_reduce
I1124 13:27:34.658712 13084 net.cpp:157] Top shape: 64 32 28 28 (1605632)
I1124 13:27:34.658716 13084 net.cpp:165] Memory required for data: 1939604480
I1124 13:27:34.658722 13084 layer_factory.hpp:76] Creating layer inception_3b/relu_5x5_reduce
I1124 13:27:34.658728 13084 net.cpp:106] Creating Layer inception_3b/relu_5x5_reduce
I1124 13:27:34.658732 13084 net.cpp:454] inception_3b/relu_5x5_reduce <- inception_3b/5x5_reduce
I1124 13:27:34.658737 13084 net.cpp:397] inception_3b/relu_5x5_reduce -> inception_3b/5x5_reduce (in-place)
I1124 13:27:34.658886 13084 net.cpp:150] Setting up inception_3b/relu_5x5_reduce
I1124 13:27:34.658896 13084 net.cpp:157] Top shape: 64 32 28 28 (1605632)
I1124 13:27:34.658900 13084 net.cpp:165] Memory required for data: 1946027008
I1124 13:27:34.658903 13084 layer_factory.hpp:76] Creating layer inception_3b/5x5
I1124 13:27:34.658910 13084 net.cpp:106] Creating Layer inception_3b/5x5
I1124 13:27:34.658915 13084 net.cpp:454] inception_3b/5x5 <- inception_3b/5x5_reduce
I1124 13:27:34.658921 13084 net.cpp:411] inception_3b/5x5 -> inception_3b/5x5
I1124 13:27:34.660732 13084 net.cpp:150] Setting up inception_3b/5x5
I1124 13:27:34.660748 13084 net.cpp:157] Top shape: 64 96 28 28 (4816896)
I1124 13:27:34.660753 13084 net.cpp:165] Memory required for data: 1965294592
I1124 13:27:34.660759 13084 layer_factory.hpp:76] Creating layer inception_3b/relu_5x5
I1124 13:27:34.660765 13084 net.cpp:106] Creating Layer inception_3b/relu_5x5
I1124 13:27:34.660769 13084 net.cpp:454] inception_3b/relu_5x5 <- inception_3b/5x5
I1124 13:27:34.660774 13084 net.cpp:397] inception_3b/relu_5x5 -> inception_3b/5x5 (in-place)
I1124 13:27:34.661058 13084 net.cpp:150] Setting up inception_3b/relu_5x5
I1124 13:27:34.661072 13084 net.cpp:157] Top shape: 64 96 28 28 (4816896)
I1124 13:27:34.661075 13084 net.cpp:165] Memory required for data: 1984562176
I1124 13:27:34.661079 13084 layer_factory.hpp:76] Creating layer inception_3b/pool
I1124 13:27:34.661085 13084 net.cpp:106] Creating Layer inception_3b/pool
I1124 13:27:34.661089 13084 net.cpp:454] inception_3b/pool <- inception_3a/output_inception_3a/output_0_split_3
I1124 13:27:34.661095 13084 net.cpp:411] inception_3b/pool -> inception_3b/pool
I1124 13:27:34.661265 13084 net.cpp:150] Setting up inception_3b/pool
I1124 13:27:34.661278 13084 net.cpp:157] Top shape: 64 256 28 28 (12845056)
I1124 13:27:34.661280 13084 net.cpp:165] Memory required for data: 2035942400
I1124 13:27:34.661283 13084 layer_factory.hpp:76] Creating layer inception_3b/pool_proj
I1124 13:27:34.661291 13084 net.cpp:106] Creating Layer inception_3b/pool_proj
I1124 13:27:34.661294 13084 net.cpp:454] inception_3b/pool_proj <- inception_3b/pool
I1124 13:27:34.661300 13084 net.cpp:411] inception_3b/pool_proj -> inception_3b/pool_proj
I1124 13:27:34.662292 13084 net.cpp:150] Setting up inception_3b/pool_proj
I1124 13:27:34.662307 13084 net.cpp:157] Top shape: 64 64 28 28 (3211264)
I1124 13:27:34.662310 13084 net.cpp:165] Memory required for data: 2048787456
I1124 13:27:34.662317 13084 layer_factory.hpp:76] Creating layer inception_3b/relu_pool_proj
I1124 13:27:34.662323 13084 net.cpp:106] Creating Layer inception_3b/relu_pool_proj
I1124 13:27:34.662328 13084 net.cpp:454] inception_3b/relu_pool_proj <- inception_3b/pool_proj
I1124 13:27:34.662333 13084 net.cpp:397] inception_3b/relu_pool_proj -> inception_3b/pool_proj (in-place)
I1124 13:27:34.662479 13084 net.cpp:150] Setting up inception_3b/relu_pool_proj
I1124 13:27:34.662490 13084 net.cpp:157] Top shape: 64 64 28 28 (3211264)
I1124 13:27:34.662493 13084 net.cpp:165] Memory required for data: 2061632512
I1124 13:27:34.662497 13084 layer_factory.hpp:76] Creating layer inception_3b/output
I1124 13:27:34.662503 13084 net.cpp:106] Creating Layer inception_3b/output
I1124 13:27:34.662506 13084 net.cpp:454] inception_3b/output <- inception_3b/1x1
I1124 13:27:34.662511 13084 net.cpp:454] inception_3b/output <- inception_3b/3x3
I1124 13:27:34.662514 13084 net.cpp:454] inception_3b/output <- inception_3b/5x5
I1124 13:27:34.662518 13084 net.cpp:454] inception_3b/output <- inception_3b/pool_proj
I1124 13:27:34.662523 13084 net.cpp:411] inception_3b/output -> inception_3b/output
I1124 13:27:34.662549 13084 net.cpp:150] Setting up inception_3b/output
I1124 13:27:34.662554 13084 net.cpp:157] Top shape: 64 480 28 28 (24084480)
I1124 13:27:34.662557 13084 net.cpp:165] Memory required for data: 2157970432
I1124 13:27:34.662560 13084 layer_factory.hpp:76] Creating layer pool3/3x3_s2
I1124 13:27:34.662565 13084 net.cpp:106] Creating Layer pool3/3x3_s2
I1124 13:27:34.662569 13084 net.cpp:454] pool3/3x3_s2 <- inception_3b/output
I1124 13:27:34.662574 13084 net.cpp:411] pool3/3x3_s2 -> pool3/3x3_s2
I1124 13:27:34.662873 13084 net.cpp:150] Setting up pool3/3x3_s2
I1124 13:27:34.662885 13084 net.cpp:157] Top shape: 64 480 14 14 (6021120)
I1124 13:27:34.662889 13084 net.cpp:165] Memory required for data: 2182054912
I1124 13:27:34.662894 13084 layer_factory.hpp:76] Creating layer pool3/3x3_s2_pool3/3x3_s2_0_split
I1124 13:27:34.662899 13084 net.cpp:106] Creating Layer pool3/3x3_s2_pool3/3x3_s2_0_split
I1124 13:27:34.662902 13084 net.cpp:454] pool3/3x3_s2_pool3/3x3_s2_0_split <- pool3/3x3_s2
I1124 13:27:34.662909 13084 net.cpp:411] pool3/3x3_s2_pool3/3x3_s2_0_split -> pool3/3x3_s2_pool3/3x3_s2_0_split_0
I1124 13:27:34.662915 13084 net.cpp:411] pool3/3x3_s2_pool3/3x3_s2_0_split -> pool3/3x3_s2_pool3/3x3_s2_0_split_1
I1124 13:27:34.662921 13084 net.cpp:411] pool3/3x3_s2_pool3/3x3_s2_0_split -> pool3/3x3_s2_pool3/3x3_s2_0_split_2
I1124 13:27:34.662926 13084 net.cpp:411] pool3/3x3_s2_pool3/3x3_s2_0_split -> pool3/3x3_s2_pool3/3x3_s2_0_split_3
I1124 13:27:34.662977 13084 net.cpp:150] Setting up pool3/3x3_s2_pool3/3x3_s2_0_split
I1124 13:27:34.662982 13084 net.cpp:157] Top shape: 64 480 14 14 (6021120)
I1124 13:27:34.662986 13084 net.cpp:157] Top shape: 64 480 14 14 (6021120)
I1124 13:27:34.662991 13084 net.cpp:157] Top shape: 64 480 14 14 (6021120)
I1124 13:27:34.662993 13084 net.cpp:157] Top shape: 64 480 14 14 (6021120)
I1124 13:27:34.662997 13084 net.cpp:165] Memory required for data: 2278392832
I1124 13:27:34.662999 13084 layer_factory.hpp:76] Creating layer inception_4a/1x1
I1124 13:27:34.663007 13084 net.cpp:106] Creating Layer inception_4a/1x1
I1124 13:27:34.663009 13084 net.cpp:454] inception_4a/1x1 <- pool3/3x3_s2_pool3/3x3_s2_0_split_0
I1124 13:27:34.663015 13084 net.cpp:411] inception_4a/1x1 -> inception_4a/1x1
I1124 13:27:34.664616 13084 net.cpp:150] Setting up inception_4a/1x1
I1124 13:27:34.664631 13084 net.cpp:157] Top shape: 64 192 14 14 (2408448)
I1124 13:27:34.664635 13084 net.cpp:165] Memory required for data: 2288026624
I1124 13:27:34.664643 13084 layer_factory.hpp:76] Creating layer inception_4a/relu_1x1
I1124 13:27:34.664649 13084 net.cpp:106] Creating Layer inception_4a/relu_1x1
I1124 13:27:34.664652 13084 net.cpp:454] inception_4a/relu_1x1 <- inception_4a/1x1
I1124 13:27:34.664657 13084 net.cpp:397] inception_4a/relu_1x1 -> inception_4a/1x1 (in-place)
I1124 13:27:34.664813 13084 net.cpp:150] Setting up inception_4a/relu_1x1
I1124 13:27:34.664824 13084 net.cpp:157] Top shape: 64 192 14 14 (2408448)
I1124 13:27:34.664827 13084 net.cpp:165] Memory required for data: 2297660416
I1124 13:27:34.664831 13084 layer_factory.hpp:76] Creating layer inception_4a/3x3_reduce
I1124 13:27:34.664839 13084 net.cpp:106] Creating Layer inception_4a/3x3_reduce
I1124 13:27:34.664842 13084 net.cpp:454] inception_4a/3x3_reduce <- pool3/3x3_s2_pool3/3x3_s2_0_split_1
I1124 13:27:34.664849 13084 net.cpp:411] inception_4a/3x3_reduce -> inception_4a/3x3_reduce
I1124 13:27:34.666045 13084 net.cpp:150] Setting up inception_4a/3x3_reduce
I1124 13:27:34.666060 13084 net.cpp:157] Top shape: 64 96 14 14 (1204224)
I1124 13:27:34.666064 13084 net.cpp:165] Memory required for data: 2302477312
I1124 13:27:34.666075 13084 layer_factory.hpp:76] Creating layer inception_4a/relu_3x3_reduce
I1124 13:27:34.666080 13084 net.cpp:106] Creating Layer inception_4a/relu_3x3_reduce
I1124 13:27:34.666085 13084 net.cpp:454] inception_4a/relu_3x3_reduce <- inception_4a/3x3_reduce
I1124 13:27:34.666090 13084 net.cpp:397] inception_4a/relu_3x3_reduce -> inception_4a/3x3_reduce (in-place)
I1124 13:27:34.666368 13084 net.cpp:150] Setting up inception_4a/relu_3x3_reduce
I1124 13:27:34.666381 13084 net.cpp:157] Top shape: 64 96 14 14 (1204224)
I1124 13:27:34.666385 13084 net.cpp:165] Memory required for data: 2307294208
I1124 13:27:34.666388 13084 layer_factory.hpp:76] Creating layer inception_4a/3x3
I1124 13:27:34.666398 13084 net.cpp:106] Creating Layer inception_4a/3x3
I1124 13:27:34.666401 13084 net.cpp:454] inception_4a/3x3 <- inception_4a/3x3_reduce
I1124 13:27:34.666406 13084 net.cpp:411] inception_4a/3x3 -> inception_4a/3x3
I1124 13:27:34.668756 13084 net.cpp:150] Setting up inception_4a/3x3
I1124 13:27:34.668771 13084 net.cpp:157] Top shape: 64 208 14 14 (2609152)
I1124 13:27:34.668774 13084 net.cpp:165] Memory required for data: 2317730816
I1124 13:27:34.668781 13084 layer_factory.hpp:76] Creating layer inception_4a/relu_3x3
I1124 13:27:34.668788 13084 net.cpp:106] Creating Layer inception_4a/relu_3x3
I1124 13:27:34.668792 13084 net.cpp:454] inception_4a/relu_3x3 <- inception_4a/3x3
I1124 13:27:34.668797 13084 net.cpp:397] inception_4a/relu_3x3 -> inception_4a/3x3 (in-place)
I1124 13:27:34.669071 13084 net.cpp:150] Setting up inception_4a/relu_3x3
I1124 13:27:34.669085 13084 net.cpp:157] Top shape: 64 208 14 14 (2609152)
I1124 13:27:34.669090 13084 net.cpp:165] Memory required for data: 2328167424
I1124 13:27:34.669093 13084 layer_factory.hpp:76] Creating layer inception_4a/5x5_reduce
I1124 13:27:34.669101 13084 net.cpp:106] Creating Layer inception_4a/5x5_reduce
I1124 13:27:34.669106 13084 net.cpp:454] inception_4a/5x5_reduce <- pool3/3x3_s2_pool3/3x3_s2_0_split_2
I1124 13:27:34.669111 13084 net.cpp:411] inception_4a/5x5_reduce -> inception_4a/5x5_reduce
I1124 13:27:34.670050 13084 net.cpp:150] Setting up inception_4a/5x5_reduce
I1124 13:27:34.670065 13084 net.cpp:157] Top shape: 64 16 14 14 (200704)
I1124 13:27:34.670069 13084 net.cpp:165] Memory required for data: 2328970240
I1124 13:27:34.670075 13084 layer_factory.hpp:76] Creating layer inception_4a/relu_5x5_reduce
I1124 13:27:34.670081 13084 net.cpp:106] Creating Layer inception_4a/relu_5x5_reduce
I1124 13:27:34.670085 13084 net.cpp:454] inception_4a/relu_5x5_reduce <- inception_4a/5x5_reduce
I1124 13:27:34.670090 13084 net.cpp:397] inception_4a/relu_5x5_reduce -> inception_4a/5x5_reduce (in-place)
I1124 13:27:34.670362 13084 net.cpp:150] Setting up inception_4a/relu_5x5_reduce
I1124 13:27:34.670375 13084 net.cpp:157] Top shape: 64 16 14 14 (200704)
I1124 13:27:34.670379 13084 net.cpp:165] Memory required for data: 2329773056
I1124 13:27:34.670382 13084 layer_factory.hpp:76] Creating layer inception_4a/5x5
I1124 13:27:34.670392 13084 net.cpp:106] Creating Layer inception_4a/5x5
I1124 13:27:34.670395 13084 net.cpp:454] inception_4a/5x5 <- inception_4a/5x5_reduce
I1124 13:27:34.670402 13084 net.cpp:411] inception_4a/5x5 -> inception_4a/5x5
I1124 13:27:34.671414 13084 net.cpp:150] Setting up inception_4a/5x5
I1124 13:27:34.671429 13084 net.cpp:157] Top shape: 64 48 14 14 (602112)
I1124 13:27:34.671432 13084 net.cpp:165] Memory required for data: 2332181504
I1124 13:27:34.671439 13084 layer_factory.hpp:76] Creating layer inception_4a/relu_5x5
I1124 13:27:34.671447 13084 net.cpp:106] Creating Layer inception_4a/relu_5x5
I1124 13:27:34.671450 13084 net.cpp:454] inception_4a/relu_5x5 <- inception_4a/5x5
I1124 13:27:34.671455 13084 net.cpp:397] inception_4a/relu_5x5 -> inception_4a/5x5 (in-place)
I1124 13:27:34.671730 13084 net.cpp:150] Setting up inception_4a/relu_5x5
I1124 13:27:34.671744 13084 net.cpp:157] Top shape: 64 48 14 14 (602112)
I1124 13:27:34.671748 13084 net.cpp:165] Memory required for data: 2334589952
I1124 13:27:34.671751 13084 layer_factory.hpp:76] Creating layer inception_4a/pool
I1124 13:27:34.671758 13084 net.cpp:106] Creating Layer inception_4a/pool
I1124 13:27:34.671763 13084 net.cpp:454] inception_4a/pool <- pool3/3x3_s2_pool3/3x3_s2_0_split_3
I1124 13:27:34.671768 13084 net.cpp:411] inception_4a/pool -> inception_4a/pool
I1124 13:27:34.671954 13084 net.cpp:150] Setting up inception_4a/pool
I1124 13:27:34.671965 13084 net.cpp:157] Top shape: 64 480 14 14 (6021120)
I1124 13:27:34.671969 13084 net.cpp:165] Memory required for data: 2358674432
I1124 13:27:34.671972 13084 layer_factory.hpp:76] Creating layer inception_4a/pool_proj
I1124 13:27:34.671980 13084 net.cpp:106] Creating Layer inception_4a/pool_proj
I1124 13:27:34.671984 13084 net.cpp:454] inception_4a/pool_proj <- inception_4a/pool
I1124 13:27:34.671990 13084 net.cpp:411] inception_4a/pool_proj -> inception_4a/pool_proj
I1124 13:27:34.673076 13084 net.cpp:150] Setting up inception_4a/pool_proj
I1124 13:27:34.673091 13084 net.cpp:157] Top shape: 64 64 14 14 (802816)
I1124 13:27:34.673094 13084 net.cpp:165] Memory required for data: 2361885696
I1124 13:27:34.673101 13084 layer_factory.hpp:76] Creating layer inception_4a/relu_pool_proj
I1124 13:27:34.673108 13084 net.cpp:106] Creating Layer inception_4a/relu_pool_proj
I1124 13:27:34.673112 13084 net.cpp:454] inception_4a/relu_pool_proj <- inception_4a/pool_proj
I1124 13:27:34.673116 13084 net.cpp:397] inception_4a/relu_pool_proj -> inception_4a/pool_proj (in-place)
I1124 13:27:34.673389 13084 net.cpp:150] Setting up inception_4a/relu_pool_proj
I1124 13:27:34.673403 13084 net.cpp:157] Top shape: 64 64 14 14 (802816)
I1124 13:27:34.673406 13084 net.cpp:165] Memory required for data: 2365096960
I1124 13:27:34.673410 13084 layer_factory.hpp:76] Creating layer inception_4a/output
I1124 13:27:34.673416 13084 net.cpp:106] Creating Layer inception_4a/output
I1124 13:27:34.673421 13084 net.cpp:454] inception_4a/output <- inception_4a/1x1
I1124 13:27:34.673425 13084 net.cpp:454] inception_4a/output <- inception_4a/3x3
I1124 13:27:34.673429 13084 net.cpp:454] inception_4a/output <- inception_4a/5x5
I1124 13:27:34.673434 13084 net.cpp:454] inception_4a/output <- inception_4a/pool_proj
I1124 13:27:34.673437 13084 net.cpp:411] inception_4a/output -> inception_4a/output
I1124 13:27:34.673467 13084 net.cpp:150] Setting up inception_4a/output
I1124 13:27:34.673472 13084 net.cpp:157] Top shape: 64 512 14 14 (6422528)
I1124 13:27:34.673475 13084 net.cpp:165] Memory required for data: 2390787072
I1124 13:27:34.673478 13084 layer_factory.hpp:76] Creating layer inception_4a/output_inception_4a/output_0_split
I1124 13:27:34.673485 13084 net.cpp:106] Creating Layer inception_4a/output_inception_4a/output_0_split
I1124 13:27:34.673487 13084 net.cpp:454] inception_4a/output_inception_4a/output_0_split <- inception_4a/output
I1124 13:27:34.673492 13084 net.cpp:411] inception_4a/output_inception_4a/output_0_split -> inception_4a/output_inception_4a/output_0_split_0
I1124 13:27:34.673498 13084 net.cpp:411] inception_4a/output_inception_4a/output_0_split -> inception_4a/output_inception_4a/output_0_split_1
I1124 13:27:34.673504 13084 net.cpp:411] inception_4a/output_inception_4a/output_0_split -> inception_4a/output_inception_4a/output_0_split_2
I1124 13:27:34.673511 13084 net.cpp:411] inception_4a/output_inception_4a/output_0_split -> inception_4a/output_inception_4a/output_0_split_3
I1124 13:27:34.673516 13084 net.cpp:411] inception_4a/output_inception_4a/output_0_split -> inception_4a/output_inception_4a/output_0_split_4
I1124 13:27:34.673578 13084 net.cpp:150] Setting up inception_4a/output_inception_4a/output_0_split
I1124 13:27:34.673585 13084 net.cpp:157] Top shape: 64 512 14 14 (6422528)
I1124 13:27:34.673589 13084 net.cpp:157] Top shape: 64 512 14 14 (6422528)
I1124 13:27:34.673593 13084 net.cpp:157] Top shape: 64 512 14 14 (6422528)
I1124 13:27:34.673595 13084 net.cpp:157] Top shape: 64 512 14 14 (6422528)
I1124 13:27:34.673599 13084 net.cpp:157] Top shape: 64 512 14 14 (6422528)
I1124 13:27:34.673602 13084 net.cpp:165] Memory required for data: 2519237632
I1124 13:27:34.673604 13084 layer_factory.hpp:76] Creating layer loss1/ave_pool
I1124 13:27:34.673610 13084 net.cpp:106] Creating Layer loss1/ave_pool
I1124 13:27:34.673614 13084 net.cpp:454] loss1/ave_pool <- inception_4a/output_inception_4a/output_0_split_0
I1124 13:27:34.673619 13084 net.cpp:411] loss1/ave_pool -> loss1/ave_pool
I1124 13:27:34.673779 13084 net.cpp:150] Setting up loss1/ave_pool
I1124 13:27:34.673790 13084 net.cpp:157] Top shape: 64 512 4 4 (524288)
I1124 13:27:34.673794 13084 net.cpp:165] Memory required for data: 2521334784
I1124 13:27:34.673797 13084 layer_factory.hpp:76] Creating layer loss1/conv
I1124 13:27:34.673804 13084 net.cpp:106] Creating Layer loss1/conv
I1124 13:27:34.673809 13084 net.cpp:454] loss1/conv <- loss1/ave_pool
I1124 13:27:34.673815 13084 net.cpp:411] loss1/conv -> loss1/conv
I1124 13:27:34.675118 13084 net.cpp:150] Setting up loss1/conv
I1124 13:27:34.675132 13084 net.cpp:157] Top shape: 64 128 4 4 (131072)
I1124 13:27:34.675135 13084 net.cpp:165] Memory required for data: 2521859072
I1124 13:27:34.675143 13084 layer_factory.hpp:76] Creating layer loss1/relu_conv
I1124 13:27:34.675149 13084 net.cpp:106] Creating Layer loss1/relu_conv
I1124 13:27:34.675153 13084 net.cpp:454] loss1/relu_conv <- loss1/conv
I1124 13:27:34.675158 13084 net.cpp:397] loss1/relu_conv -> loss1/conv (in-place)
I1124 13:27:34.675302 13084 net.cpp:150] Setting up loss1/relu_conv
I1124 13:27:34.675312 13084 net.cpp:157] Top shape: 64 128 4 4 (131072)
I1124 13:27:34.675315 13084 net.cpp:165] Memory required for data: 2522383360
I1124 13:27:34.675318 13084 layer_factory.hpp:76] Creating layer loss1/fc
I1124 13:27:34.675325 13084 net.cpp:106] Creating Layer loss1/fc
I1124 13:27:34.675329 13084 net.cpp:454] loss1/fc <- loss1/conv
I1124 13:27:34.675334 13084 net.cpp:411] loss1/fc -> loss1/fc
I1124 13:27:34.690912 13084 net.cpp:150] Setting up loss1/fc
I1124 13:27:34.690927 13084 net.cpp:157] Top shape: 64 1024 (65536)
I1124 13:27:34.690932 13084 net.cpp:165] Memory required for data: 2522645504
I1124 13:27:34.690937 13084 layer_factory.hpp:76] Creating layer loss1/relu_fc
I1124 13:27:34.690943 13084 net.cpp:106] Creating Layer loss1/relu_fc
I1124 13:27:34.690948 13084 net.cpp:454] loss1/relu_fc <- loss1/fc
I1124 13:27:34.690953 13084 net.cpp:397] loss1/relu_fc -> loss1/fc (in-place)
I1124 13:27:34.691241 13084 net.cpp:150] Setting up loss1/relu_fc
I1124 13:27:34.691254 13084 net.cpp:157] Top shape: 64 1024 (65536)
I1124 13:27:34.691258 13084 net.cpp:165] Memory required for data: 2522907648
I1124 13:27:34.691262 13084 layer_factory.hpp:76] Creating layer loss1/drop_fc
I1124 13:27:34.691277 13084 net.cpp:106] Creating Layer loss1/drop_fc
I1124 13:27:34.691280 13084 net.cpp:454] loss1/drop_fc <- loss1/fc
I1124 13:27:34.691285 13084 net.cpp:397] loss1/drop_fc -> loss1/fc (in-place)
I1124 13:27:34.691320 13084 net.cpp:150] Setting up loss1/drop_fc
I1124 13:27:34.691326 13084 net.cpp:157] Top shape: 64 1024 (65536)
I1124 13:27:34.691329 13084 net.cpp:165] Memory required for data: 2523169792
I1124 13:27:34.691332 13084 layer_factory.hpp:76] Creating layer loss1/classifier-attribute
I1124 13:27:34.691339 13084 net.cpp:106] Creating Layer loss1/classifier-attribute
I1124 13:27:34.691344 13084 net.cpp:454] loss1/classifier-attribute <- loss1/fc
I1124 13:27:34.691349 13084 net.cpp:411] loss1/classifier-attribute -> loss1/classifier-attribute
I1124 13:27:34.691534 13084 net.cpp:150] Setting up loss1/classifier-attribute
I1124 13:27:34.691545 13084 net.cpp:157] Top shape: 64 13 (832)
I1124 13:27:34.691547 13084 net.cpp:165] Memory required for data: 2523173120
I1124 13:27:34.691553 13084 layer_factory.hpp:76] Creating layer loss1/loss
I1124 13:27:34.691561 13084 net.cpp:106] Creating Layer loss1/loss
I1124 13:27:34.691565 13084 net.cpp:454] loss1/loss <- loss1/classifier-attribute
I1124 13:27:34.691570 13084 net.cpp:454] loss1/loss <- label_data_1_split_0
I1124 13:27:34.691576 13084 net.cpp:411] loss1/loss -> loss1/loss1
I1124 13:27:34.691587 13084 layer_factory.hpp:76] Creating layer loss1/loss
I1124 13:27:34.691820 13084 net.cpp:150] Setting up loss1/loss
I1124 13:27:34.691831 13084 net.cpp:157] Top shape: (1)
I1124 13:27:34.691835 13084 net.cpp:160]     with loss weight 0.3
I1124 13:27:34.691862 13084 net.cpp:165] Memory required for data: 2523173124
I1124 13:27:34.691866 13084 layer_factory.hpp:76] Creating layer inception_4b/1x1
I1124 13:27:34.691874 13084 net.cpp:106] Creating Layer inception_4b/1x1
I1124 13:27:34.691879 13084 net.cpp:454] inception_4b/1x1 <- inception_4a/output_inception_4a/output_0_split_1
I1124 13:27:34.691884 13084 net.cpp:411] inception_4b/1x1 -> inception_4b/1x1
I1124 13:27:34.693317 13084 net.cpp:150] Setting up inception_4b/1x1
I1124 13:27:34.693332 13084 net.cpp:157] Top shape: 64 160 14 14 (2007040)
I1124 13:27:34.693336 13084 net.cpp:165] Memory required for data: 2531201284
I1124 13:27:34.693342 13084 layer_factory.hpp:76] Creating layer inception_4b/relu_1x1
I1124 13:27:34.693348 13084 net.cpp:106] Creating Layer inception_4b/relu_1x1
I1124 13:27:34.693352 13084 net.cpp:454] inception_4b/relu_1x1 <- inception_4b/1x1
I1124 13:27:34.693357 13084 net.cpp:397] inception_4b/relu_1x1 -> inception_4b/1x1 (in-place)
I1124 13:27:34.693635 13084 net.cpp:150] Setting up inception_4b/relu_1x1
I1124 13:27:34.693650 13084 net.cpp:157] Top shape: 64 160 14 14 (2007040)
I1124 13:27:34.693653 13084 net.cpp:165] Memory required for data: 2539229444
I1124 13:27:34.693657 13084 layer_factory.hpp:76] Creating layer inception_4b/3x3_reduce
I1124 13:27:34.693665 13084 net.cpp:106] Creating Layer inception_4b/3x3_reduce
I1124 13:27:34.693670 13084 net.cpp:454] inception_4b/3x3_reduce <- inception_4a/output_inception_4a/output_0_split_2
I1124 13:27:34.693675 13084 net.cpp:411] inception_4b/3x3_reduce -> inception_4b/3x3_reduce
I1124 13:27:34.695384 13084 net.cpp:150] Setting up inception_4b/3x3_reduce
I1124 13:27:34.695399 13084 net.cpp:157] Top shape: 64 112 14 14 (1404928)
I1124 13:27:34.695402 13084 net.cpp:165] Memory required for data: 2544849156
I1124 13:27:34.695408 13084 layer_factory.hpp:76] Creating layer inception_4b/relu_3x3_reduce
I1124 13:27:34.695415 13084 net.cpp:106] Creating Layer inception_4b/relu_3x3_reduce
I1124 13:27:34.695418 13084 net.cpp:454] inception_4b/relu_3x3_reduce <- inception_4b/3x3_reduce
I1124 13:27:34.695423 13084 net.cpp:397] inception_4b/relu_3x3_reduce -> inception_4b/3x3_reduce (in-place)
I1124 13:27:34.695569 13084 net.cpp:150] Setting up inception_4b/relu_3x3_reduce
I1124 13:27:34.695580 13084 net.cpp:157] Top shape: 64 112 14 14 (1404928)
I1124 13:27:34.695583 13084 net.cpp:165] Memory required for data: 2550468868
I1124 13:27:34.695586 13084 layer_factory.hpp:76] Creating layer inception_4b/3x3
I1124 13:27:34.695595 13084 net.cpp:106] Creating Layer inception_4b/3x3
I1124 13:27:34.695597 13084 net.cpp:454] inception_4b/3x3 <- inception_4b/3x3_reduce
I1124 13:27:34.695603 13084 net.cpp:411] inception_4b/3x3 -> inception_4b/3x3
I1124 13:27:34.698369 13084 net.cpp:150] Setting up inception_4b/3x3
I1124 13:27:34.698385 13084 net.cpp:157] Top shape: 64 224 14 14 (2809856)
I1124 13:27:34.698390 13084 net.cpp:165] Memory required for data: 2561708292
I1124 13:27:34.698395 13084 layer_factory.hpp:76] Creating layer inception_4b/relu_3x3
I1124 13:27:34.698401 13084 net.cpp:106] Creating Layer inception_4b/relu_3x3
I1124 13:27:34.698405 13084 net.cpp:454] inception_4b/relu_3x3 <- inception_4b/3x3
I1124 13:27:34.698410 13084 net.cpp:397] inception_4b/relu_3x3 -> inception_4b/3x3 (in-place)
I1124 13:27:34.698557 13084 net.cpp:150] Setting up inception_4b/relu_3x3
I1124 13:27:34.698568 13084 net.cpp:157] Top shape: 64 224 14 14 (2809856)
I1124 13:27:34.698571 13084 net.cpp:165] Memory required for data: 2572947716
I1124 13:27:34.698575 13084 layer_factory.hpp:76] Creating layer inception_4b/5x5_reduce
I1124 13:27:34.698582 13084 net.cpp:106] Creating Layer inception_4b/5x5_reduce
I1124 13:27:34.698586 13084 net.cpp:454] inception_4b/5x5_reduce <- inception_4a/output_inception_4a/output_0_split_3
I1124 13:27:34.698592 13084 net.cpp:411] inception_4b/5x5_reduce -> inception_4b/5x5_reduce
I1124 13:27:34.699584 13084 net.cpp:150] Setting up inception_4b/5x5_reduce
I1124 13:27:34.699597 13084 net.cpp:157] Top shape: 64 24 14 14 (301056)
I1124 13:27:34.699601 13084 net.cpp:165] Memory required for data: 2574151940
I1124 13:27:34.699607 13084 layer_factory.hpp:76] Creating layer inception_4b/relu_5x5_reduce
I1124 13:27:34.699614 13084 net.cpp:106] Creating Layer inception_4b/relu_5x5_reduce
I1124 13:27:34.699618 13084 net.cpp:454] inception_4b/relu_5x5_reduce <- inception_4b/5x5_reduce
I1124 13:27:34.699623 13084 net.cpp:397] inception_4b/relu_5x5_reduce -> inception_4b/5x5_reduce (in-place)
I1124 13:27:34.700042 13084 net.cpp:150] Setting up inception_4b/relu_5x5_reduce
I1124 13:27:34.700057 13084 net.cpp:157] Top shape: 64 24 14 14 (301056)
I1124 13:27:34.700059 13084 net.cpp:165] Memory required for data: 2575356164
I1124 13:27:34.700063 13084 layer_factory.hpp:76] Creating layer inception_4b/5x5
I1124 13:27:34.700073 13084 net.cpp:106] Creating Layer inception_4b/5x5
I1124 13:27:34.700076 13084 net.cpp:454] inception_4b/5x5 <- inception_4b/5x5_reduce
I1124 13:27:34.700083 13084 net.cpp:411] inception_4b/5x5 -> inception_4b/5x5
I1124 13:27:34.701292 13084 net.cpp:150] Setting up inception_4b/5x5
I1124 13:27:34.701305 13084 net.cpp:157] Top shape: 64 64 14 14 (802816)
I1124 13:27:34.701309 13084 net.cpp:165] Memory required for data: 2578567428
I1124 13:27:34.701315 13084 layer_factory.hpp:76] Creating layer inception_4b/relu_5x5
I1124 13:27:34.701321 13084 net.cpp:106] Creating Layer inception_4b/relu_5x5
I1124 13:27:34.701325 13084 net.cpp:454] inception_4b/relu_5x5 <- inception_4b/5x5
I1124 13:27:34.701330 13084 net.cpp:397] inception_4b/relu_5x5 -> inception_4b/5x5 (in-place)
I1124 13:27:34.701479 13084 net.cpp:150] Setting up inception_4b/relu_5x5
I1124 13:27:34.701489 13084 net.cpp:157] Top shape: 64 64 14 14 (802816)
I1124 13:27:34.701493 13084 net.cpp:165] Memory required for data: 2581778692
I1124 13:27:34.701496 13084 layer_factory.hpp:76] Creating layer inception_4b/pool
I1124 13:27:34.701503 13084 net.cpp:106] Creating Layer inception_4b/pool
I1124 13:27:34.701506 13084 net.cpp:454] inception_4b/pool <- inception_4a/output_inception_4a/output_0_split_4
I1124 13:27:34.701511 13084 net.cpp:411] inception_4b/pool -> inception_4b/pool
I1124 13:27:34.701838 13084 net.cpp:150] Setting up inception_4b/pool
I1124 13:27:34.701853 13084 net.cpp:157] Top shape: 64 512 14 14 (6422528)
I1124 13:27:34.701858 13084 net.cpp:165] Memory required for data: 2607468804
I1124 13:27:34.701861 13084 layer_factory.hpp:76] Creating layer inception_4b/pool_proj
I1124 13:27:34.701869 13084 net.cpp:106] Creating Layer inception_4b/pool_proj
I1124 13:27:34.701874 13084 net.cpp:454] inception_4b/pool_proj <- inception_4b/pool
I1124 13:27:34.701879 13084 net.cpp:411] inception_4b/pool_proj -> inception_4b/pool_proj
I1124 13:27:34.702888 13084 net.cpp:150] Setting up inception_4b/pool_proj
I1124 13:27:34.702903 13084 net.cpp:157] Top shape: 64 64 14 14 (802816)
I1124 13:27:34.702906 13084 net.cpp:165] Memory required for data: 2610680068
I1124 13:27:34.702913 13084 layer_factory.hpp:76] Creating layer inception_4b/relu_pool_proj
I1124 13:27:34.702919 13084 net.cpp:106] Creating Layer inception_4b/relu_pool_proj
I1124 13:27:34.702922 13084 net.cpp:454] inception_4b/relu_pool_proj <- inception_4b/pool_proj
I1124 13:27:34.702927 13084 net.cpp:397] inception_4b/relu_pool_proj -> inception_4b/pool_proj (in-place)
I1124 13:27:34.703209 13084 net.cpp:150] Setting up inception_4b/relu_pool_proj
I1124 13:27:34.703224 13084 net.cpp:157] Top shape: 64 64 14 14 (802816)
I1124 13:27:34.703227 13084 net.cpp:165] Memory required for data: 2613891332
I1124 13:27:34.703232 13084 layer_factory.hpp:76] Creating layer inception_4b/output
I1124 13:27:34.703238 13084 net.cpp:106] Creating Layer inception_4b/output
I1124 13:27:34.703241 13084 net.cpp:454] inception_4b/output <- inception_4b/1x1
I1124 13:27:34.703246 13084 net.cpp:454] inception_4b/output <- inception_4b/3x3
I1124 13:27:34.703250 13084 net.cpp:454] inception_4b/output <- inception_4b/5x5
I1124 13:27:34.703253 13084 net.cpp:454] inception_4b/output <- inception_4b/pool_proj
I1124 13:27:34.703258 13084 net.cpp:411] inception_4b/output -> inception_4b/output
I1124 13:27:34.703289 13084 net.cpp:150] Setting up inception_4b/output
I1124 13:27:34.703295 13084 net.cpp:157] Top shape: 64 512 14 14 (6422528)
I1124 13:27:34.703299 13084 net.cpp:165] Memory required for data: 2639581444
I1124 13:27:34.703301 13084 layer_factory.hpp:76] Creating layer inception_4b/output_inception_4b/output_0_split
I1124 13:27:34.703306 13084 net.cpp:106] Creating Layer inception_4b/output_inception_4b/output_0_split
I1124 13:27:34.703310 13084 net.cpp:454] inception_4b/output_inception_4b/output_0_split <- inception_4b/output
I1124 13:27:34.703315 13084 net.cpp:411] inception_4b/output_inception_4b/output_0_split -> inception_4b/output_inception_4b/output_0_split_0
I1124 13:27:34.703321 13084 net.cpp:411] inception_4b/output_inception_4b/output_0_split -> inception_4b/output_inception_4b/output_0_split_1
I1124 13:27:34.703326 13084 net.cpp:411] inception_4b/output_inception_4b/output_0_split -> inception_4b/output_inception_4b/output_0_split_2
I1124 13:27:34.703332 13084 net.cpp:411] inception_4b/output_inception_4b/output_0_split -> inception_4b/output_inception_4b/output_0_split_3
I1124 13:27:34.703387 13084 net.cpp:150] Setting up inception_4b/output_inception_4b/output_0_split
I1124 13:27:34.703395 13084 net.cpp:157] Top shape: 64 512 14 14 (6422528)
I1124 13:27:34.703399 13084 net.cpp:157] Top shape: 64 512 14 14 (6422528)
I1124 13:27:34.703402 13084 net.cpp:157] Top shape: 64 512 14 14 (6422528)
I1124 13:27:34.703407 13084 net.cpp:157] Top shape: 64 512 14 14 (6422528)
I1124 13:27:34.703408 13084 net.cpp:165] Memory required for data: 2742341892
I1124 13:27:34.703413 13084 layer_factory.hpp:76] Creating layer inception_4c/1x1
I1124 13:27:34.703419 13084 net.cpp:106] Creating Layer inception_4c/1x1
I1124 13:27:34.703423 13084 net.cpp:454] inception_4c/1x1 <- inception_4b/output_inception_4b/output_0_split_0
I1124 13:27:34.703428 13084 net.cpp:411] inception_4c/1x1 -> inception_4c/1x1
I1124 13:27:34.704793 13084 net.cpp:150] Setting up inception_4c/1x1
I1124 13:27:34.704808 13084 net.cpp:157] Top shape: 64 128 14 14 (1605632)
I1124 13:27:34.704813 13084 net.cpp:165] Memory required for data: 2748764420
I1124 13:27:34.704818 13084 layer_factory.hpp:76] Creating layer inception_4c/relu_1x1
I1124 13:27:34.704824 13084 net.cpp:106] Creating Layer inception_4c/relu_1x1
I1124 13:27:34.704828 13084 net.cpp:454] inception_4c/relu_1x1 <- inception_4c/1x1
I1124 13:27:34.704833 13084 net.cpp:397] inception_4c/relu_1x1 -> inception_4c/1x1 (in-place)
I1124 13:27:34.704985 13084 net.cpp:150] Setting up inception_4c/relu_1x1
I1124 13:27:34.704996 13084 net.cpp:157] Top shape: 64 128 14 14 (1605632)
I1124 13:27:34.705000 13084 net.cpp:165] Memory required for data: 2755186948
I1124 13:27:34.705003 13084 layer_factory.hpp:76] Creating layer inception_4c/3x3_reduce
I1124 13:27:34.705010 13084 net.cpp:106] Creating Layer inception_4c/3x3_reduce
I1124 13:27:34.705014 13084 net.cpp:454] inception_4c/3x3_reduce <- inception_4b/output_inception_4b/output_0_split_1
I1124 13:27:34.705020 13084 net.cpp:411] inception_4c/3x3_reduce -> inception_4c/3x3_reduce
I1124 13:27:34.706410 13084 net.cpp:150] Setting up inception_4c/3x3_reduce
I1124 13:27:34.706425 13084 net.cpp:157] Top shape: 64 128 14 14 (1605632)
I1124 13:27:34.706429 13084 net.cpp:165] Memory required for data: 2761609476
I1124 13:27:34.706435 13084 layer_factory.hpp:76] Creating layer inception_4c/relu_3x3_reduce
I1124 13:27:34.706441 13084 net.cpp:106] Creating Layer inception_4c/relu_3x3_reduce
I1124 13:27:34.706445 13084 net.cpp:454] inception_4c/relu_3x3_reduce <- inception_4c/3x3_reduce
I1124 13:27:34.706451 13084 net.cpp:397] inception_4c/relu_3x3_reduce -> inception_4c/3x3_reduce (in-place)
I1124 13:27:34.706758 13084 net.cpp:150] Setting up inception_4c/relu_3x3_reduce
I1124 13:27:34.706773 13084 net.cpp:157] Top shape: 64 128 14 14 (1605632)
I1124 13:27:34.706775 13084 net.cpp:165] Memory required for data: 2768032004
I1124 13:27:34.706779 13084 layer_factory.hpp:76] Creating layer inception_4c/3x3
I1124 13:27:34.706789 13084 net.cpp:106] Creating Layer inception_4c/3x3
I1124 13:27:34.706792 13084 net.cpp:454] inception_4c/3x3 <- inception_4c/3x3_reduce
I1124 13:27:34.706799 13084 net.cpp:411] inception_4c/3x3 -> inception_4c/3x3
I1124 13:27:34.710003 13084 net.cpp:150] Setting up inception_4c/3x3
I1124 13:27:34.710018 13084 net.cpp:157] Top shape: 64 256 14 14 (3211264)
I1124 13:27:34.710022 13084 net.cpp:165] Memory required for data: 2780877060
I1124 13:27:34.710041 13084 layer_factory.hpp:76] Creating layer inception_4c/relu_3x3
I1124 13:27:34.710048 13084 net.cpp:106] Creating Layer inception_4c/relu_3x3
I1124 13:27:34.710052 13084 net.cpp:454] inception_4c/relu_3x3 <- inception_4c/3x3
I1124 13:27:34.710057 13084 net.cpp:397] inception_4c/relu_3x3 -> inception_4c/3x3 (in-place)
I1124 13:27:34.710360 13084 net.cpp:150] Setting up inception_4c/relu_3x3
I1124 13:27:34.710373 13084 net.cpp:157] Top shape: 64 256 14 14 (3211264)
I1124 13:27:34.710377 13084 net.cpp:165] Memory required for data: 2793722116
I1124 13:27:34.710381 13084 layer_factory.hpp:76] Creating layer inception_4c/5x5_reduce
I1124 13:27:34.710389 13084 net.cpp:106] Creating Layer inception_4c/5x5_reduce
I1124 13:27:34.710393 13084 net.cpp:454] inception_4c/5x5_reduce <- inception_4b/output_inception_4b/output_0_split_2
I1124 13:27:34.710402 13084 net.cpp:411] inception_4c/5x5_reduce -> inception_4c/5x5_reduce
I1124 13:27:34.711493 13084 net.cpp:150] Setting up inception_4c/5x5_reduce
I1124 13:27:34.711508 13084 net.cpp:157] Top shape: 64 24 14 14 (301056)
I1124 13:27:34.711511 13084 net.cpp:165] Memory required for data: 2794926340
I1124 13:27:34.711518 13084 layer_factory.hpp:76] Creating layer inception_4c/relu_5x5_reduce
I1124 13:27:34.711525 13084 net.cpp:106] Creating Layer inception_4c/relu_5x5_reduce
I1124 13:27:34.711529 13084 net.cpp:454] inception_4c/relu_5x5_reduce <- inception_4c/5x5_reduce
I1124 13:27:34.711534 13084 net.cpp:397] inception_4c/relu_5x5_reduce -> inception_4c/5x5_reduce (in-place)
I1124 13:27:34.711700 13084 net.cpp:150] Setting up inception_4c/relu_5x5_reduce
I1124 13:27:34.711712 13084 net.cpp:157] Top shape: 64 24 14 14 (301056)
I1124 13:27:34.711715 13084 net.cpp:165] Memory required for data: 2796130564
I1124 13:27:34.711719 13084 layer_factory.hpp:76] Creating layer inception_4c/5x5
I1124 13:27:34.711727 13084 net.cpp:106] Creating Layer inception_4c/5x5
I1124 13:27:34.711731 13084 net.cpp:454] inception_4c/5x5 <- inception_4c/5x5_reduce
I1124 13:27:34.711736 13084 net.cpp:411] inception_4c/5x5 -> inception_4c/5x5
I1124 13:27:34.713428 13084 net.cpp:150] Setting up inception_4c/5x5
I1124 13:27:34.713444 13084 net.cpp:157] Top shape: 64 64 14 14 (802816)
I1124 13:27:34.713449 13084 net.cpp:165] Memory required for data: 2799341828
I1124 13:27:34.713454 13084 layer_factory.hpp:76] Creating layer inception_4c/relu_5x5
I1124 13:27:34.713461 13084 net.cpp:106] Creating Layer inception_4c/relu_5x5
I1124 13:27:34.713465 13084 net.cpp:454] inception_4c/relu_5x5 <- inception_4c/5x5
I1124 13:27:34.713470 13084 net.cpp:397] inception_4c/relu_5x5 -> inception_4c/5x5 (in-place)
I1124 13:27:34.713784 13084 net.cpp:150] Setting up inception_4c/relu_5x5
I1124 13:27:34.713798 13084 net.cpp:157] Top shape: 64 64 14 14 (802816)
I1124 13:27:34.713803 13084 net.cpp:165] Memory required for data: 2802553092
I1124 13:27:34.713805 13084 layer_factory.hpp:76] Creating layer inception_4c/pool
I1124 13:27:34.713814 13084 net.cpp:106] Creating Layer inception_4c/pool
I1124 13:27:34.713817 13084 net.cpp:454] inception_4c/pool <- inception_4b/output_inception_4b/output_0_split_3
I1124 13:27:34.713822 13084 net.cpp:411] inception_4c/pool -> inception_4c/pool
I1124 13:27:34.714027 13084 net.cpp:150] Setting up inception_4c/pool
I1124 13:27:34.714040 13084 net.cpp:157] Top shape: 64 512 14 14 (6422528)
I1124 13:27:34.714043 13084 net.cpp:165] Memory required for data: 2828243204
I1124 13:27:34.714046 13084 layer_factory.hpp:76] Creating layer inception_4c/pool_proj
I1124 13:27:34.714057 13084 net.cpp:106] Creating Layer inception_4c/pool_proj
I1124 13:27:34.714061 13084 net.cpp:454] inception_4c/pool_proj <- inception_4c/pool
I1124 13:27:34.714067 13084 net.cpp:411] inception_4c/pool_proj -> inception_4c/pool_proj
I1124 13:27:34.715447 13084 net.cpp:150] Setting up inception_4c/pool_proj
I1124 13:27:34.715462 13084 net.cpp:157] Top shape: 64 64 14 14 (802816)
I1124 13:27:34.715466 13084 net.cpp:165] Memory required for data: 2831454468
I1124 13:27:34.715473 13084 layer_factory.hpp:76] Creating layer inception_4c/relu_pool_proj
I1124 13:27:34.715481 13084 net.cpp:106] Creating Layer inception_4c/relu_pool_proj
I1124 13:27:34.715487 13084 net.cpp:454] inception_4c/relu_pool_proj <- inception_4c/pool_proj
I1124 13:27:34.715492 13084 net.cpp:397] inception_4c/relu_pool_proj -> inception_4c/pool_proj (in-place)
I1124 13:27:34.715795 13084 net.cpp:150] Setting up inception_4c/relu_pool_proj
I1124 13:27:34.715809 13084 net.cpp:157] Top shape: 64 64 14 14 (802816)
I1124 13:27:34.715812 13084 net.cpp:165] Memory required for data: 2834665732
I1124 13:27:34.715816 13084 layer_factory.hpp:76] Creating layer inception_4c/output
I1124 13:27:34.715824 13084 net.cpp:106] Creating Layer inception_4c/output
I1124 13:27:34.715828 13084 net.cpp:454] inception_4c/output <- inception_4c/1x1
I1124 13:27:34.715833 13084 net.cpp:454] inception_4c/output <- inception_4c/3x3
I1124 13:27:34.715837 13084 net.cpp:454] inception_4c/output <- inception_4c/5x5
I1124 13:27:34.715840 13084 net.cpp:454] inception_4c/output <- inception_4c/pool_proj
I1124 13:27:34.715845 13084 net.cpp:411] inception_4c/output -> inception_4c/output
I1124 13:27:34.715879 13084 net.cpp:150] Setting up inception_4c/output
I1124 13:27:34.715885 13084 net.cpp:157] Top shape: 64 512 14 14 (6422528)
I1124 13:27:34.715888 13084 net.cpp:165] Memory required for data: 2860355844
I1124 13:27:34.715891 13084 layer_factory.hpp:76] Creating layer inception_4c/output_inception_4c/output_0_split
I1124 13:27:34.715898 13084 net.cpp:106] Creating Layer inception_4c/output_inception_4c/output_0_split
I1124 13:27:34.715900 13084 net.cpp:454] inception_4c/output_inception_4c/output_0_split <- inception_4c/output
I1124 13:27:34.715908 13084 net.cpp:411] inception_4c/output_inception_4c/output_0_split -> inception_4c/output_inception_4c/output_0_split_0
I1124 13:27:34.715914 13084 net.cpp:411] inception_4c/output_inception_4c/output_0_split -> inception_4c/output_inception_4c/output_0_split_1
I1124 13:27:34.715919 13084 net.cpp:411] inception_4c/output_inception_4c/output_0_split -> inception_4c/output_inception_4c/output_0_split_2
I1124 13:27:34.715924 13084 net.cpp:411] inception_4c/output_inception_4c/output_0_split -> inception_4c/output_inception_4c/output_0_split_3
I1124 13:27:34.716002 13084 net.cpp:150] Setting up inception_4c/output_inception_4c/output_0_split
I1124 13:27:34.716011 13084 net.cpp:157] Top shape: 64 512 14 14 (6422528)
I1124 13:27:34.716014 13084 net.cpp:157] Top shape: 64 512 14 14 (6422528)
I1124 13:27:34.716017 13084 net.cpp:157] Top shape: 64 512 14 14 (6422528)
I1124 13:27:34.716022 13084 net.cpp:157] Top shape: 64 512 14 14 (6422528)
I1124 13:27:34.716023 13084 net.cpp:165] Memory required for data: 2963116292
I1124 13:27:34.716027 13084 layer_factory.hpp:76] Creating layer inception_4d/1x1
I1124 13:27:34.716035 13084 net.cpp:106] Creating Layer inception_4d/1x1
I1124 13:27:34.716038 13084 net.cpp:454] inception_4d/1x1 <- inception_4c/output_inception_4c/output_0_split_0
I1124 13:27:34.716044 13084 net.cpp:411] inception_4d/1x1 -> inception_4d/1x1
I1124 13:27:34.717289 13084 net.cpp:150] Setting up inception_4d/1x1
I1124 13:27:34.717304 13084 net.cpp:157] Top shape: 64 112 14 14 (1404928)
I1124 13:27:34.717308 13084 net.cpp:165] Memory required for data: 2968736004
I1124 13:27:34.717314 13084 layer_factory.hpp:76] Creating layer inception_4d/relu_1x1
I1124 13:27:34.717321 13084 net.cpp:106] Creating Layer inception_4d/relu_1x1
I1124 13:27:34.717325 13084 net.cpp:454] inception_4d/relu_1x1 <- inception_4d/1x1
I1124 13:27:34.717330 13084 net.cpp:397] inception_4d/relu_1x1 -> inception_4d/1x1 (in-place)
I1124 13:27:34.717638 13084 net.cpp:150] Setting up inception_4d/relu_1x1
I1124 13:27:34.717653 13084 net.cpp:157] Top shape: 64 112 14 14 (1404928)
I1124 13:27:34.717658 13084 net.cpp:165] Memory required for data: 2974355716
I1124 13:27:34.717661 13084 layer_factory.hpp:76] Creating layer inception_4d/3x3_reduce
I1124 13:27:34.717669 13084 net.cpp:106] Creating Layer inception_4d/3x3_reduce
I1124 13:27:34.717672 13084 net.cpp:454] inception_4d/3x3_reduce <- inception_4c/output_inception_4c/output_0_split_1
I1124 13:27:34.717680 13084 net.cpp:411] inception_4d/3x3_reduce -> inception_4d/3x3_reduce
I1124 13:27:34.719238 13084 net.cpp:150] Setting up inception_4d/3x3_reduce
I1124 13:27:34.719252 13084 net.cpp:157] Top shape: 64 144 14 14 (1806336)
I1124 13:27:34.719256 13084 net.cpp:165] Memory required for data: 2981581060
I1124 13:27:34.719262 13084 layer_factory.hpp:76] Creating layer inception_4d/relu_3x3_reduce
I1124 13:27:34.719269 13084 net.cpp:106] Creating Layer inception_4d/relu_3x3_reduce
I1124 13:27:34.719272 13084 net.cpp:454] inception_4d/relu_3x3_reduce <- inception_4d/3x3_reduce
I1124 13:27:34.719280 13084 net.cpp:397] inception_4d/relu_3x3_reduce -> inception_4d/3x3_reduce (in-place)
I1124 13:27:34.719447 13084 net.cpp:150] Setting up inception_4d/relu_3x3_reduce
I1124 13:27:34.719460 13084 net.cpp:157] Top shape: 64 144 14 14 (1806336)
I1124 13:27:34.719463 13084 net.cpp:165] Memory required for data: 2988806404
I1124 13:27:34.719466 13084 layer_factory.hpp:76] Creating layer inception_4d/3x3
I1124 13:27:34.719473 13084 net.cpp:106] Creating Layer inception_4d/3x3
I1124 13:27:34.719477 13084 net.cpp:454] inception_4d/3x3 <- inception_4d/3x3_reduce
I1124 13:27:34.719485 13084 net.cpp:411] inception_4d/3x3 -> inception_4d/3x3
I1124 13:27:34.723420 13084 net.cpp:150] Setting up inception_4d/3x3
I1124 13:27:34.723436 13084 net.cpp:157] Top shape: 64 288 14 14 (3612672)
I1124 13:27:34.723440 13084 net.cpp:165] Memory required for data: 3003257092
I1124 13:27:34.723448 13084 layer_factory.hpp:76] Creating layer inception_4d/relu_3x3
I1124 13:27:34.723453 13084 net.cpp:106] Creating Layer inception_4d/relu_3x3
I1124 13:27:34.723458 13084 net.cpp:454] inception_4d/relu_3x3 <- inception_4d/3x3
I1124 13:27:34.723464 13084 net.cpp:397] inception_4d/relu_3x3 -> inception_4d/3x3 (in-place)
I1124 13:27:34.723774 13084 net.cpp:150] Setting up inception_4d/relu_3x3
I1124 13:27:34.723789 13084 net.cpp:157] Top shape: 64 288 14 14 (3612672)
I1124 13:27:34.723793 13084 net.cpp:165] Memory required for data: 3017707780
I1124 13:27:34.723796 13084 layer_factory.hpp:76] Creating layer inception_4d/5x5_reduce
I1124 13:27:34.723806 13084 net.cpp:106] Creating Layer inception_4d/5x5_reduce
I1124 13:27:34.723811 13084 net.cpp:454] inception_4d/5x5_reduce <- inception_4c/output_inception_4c/output_0_split_2
I1124 13:27:34.723817 13084 net.cpp:411] inception_4d/5x5_reduce -> inception_4d/5x5_reduce
I1124 13:27:34.724846 13084 net.cpp:150] Setting up inception_4d/5x5_reduce
I1124 13:27:34.724863 13084 net.cpp:157] Top shape: 64 32 14 14 (401408)
I1124 13:27:34.724866 13084 net.cpp:165] Memory required for data: 3019313412
I1124 13:27:34.724872 13084 layer_factory.hpp:76] Creating layer inception_4d/relu_5x5_reduce
I1124 13:27:34.724879 13084 net.cpp:106] Creating Layer inception_4d/relu_5x5_reduce
I1124 13:27:34.724882 13084 net.cpp:454] inception_4d/relu_5x5_reduce <- inception_4d/5x5_reduce
I1124 13:27:34.724887 13084 net.cpp:397] inception_4d/relu_5x5_reduce -> inception_4d/5x5_reduce (in-place)
I1124 13:27:34.725196 13084 net.cpp:150] Setting up inception_4d/relu_5x5_reduce
I1124 13:27:34.725210 13084 net.cpp:157] Top shape: 64 32 14 14 (401408)
I1124 13:27:34.725214 13084 net.cpp:165] Memory required for data: 3020919044
I1124 13:27:34.725217 13084 layer_factory.hpp:76] Creating layer inception_4d/5x5
I1124 13:27:34.725226 13084 net.cpp:106] Creating Layer inception_4d/5x5
I1124 13:27:34.725231 13084 net.cpp:454] inception_4d/5x5 <- inception_4d/5x5_reduce
I1124 13:27:34.725237 13084 net.cpp:411] inception_4d/5x5 -> inception_4d/5x5
I1124 13:27:34.726603 13084 net.cpp:150] Setting up inception_4d/5x5
I1124 13:27:34.726618 13084 net.cpp:157] Top shape: 64 64 14 14 (802816)
I1124 13:27:34.726621 13084 net.cpp:165] Memory required for data: 3024130308
I1124 13:27:34.726627 13084 layer_factory.hpp:76] Creating layer inception_4d/relu_5x5
I1124 13:27:34.726635 13084 net.cpp:106] Creating Layer inception_4d/relu_5x5
I1124 13:27:34.726639 13084 net.cpp:454] inception_4d/relu_5x5 <- inception_4d/5x5
I1124 13:27:34.726644 13084 net.cpp:397] inception_4d/relu_5x5 -> inception_4d/5x5 (in-place)
I1124 13:27:34.726814 13084 net.cpp:150] Setting up inception_4d/relu_5x5
I1124 13:27:34.726825 13084 net.cpp:157] Top shape: 64 64 14 14 (802816)
I1124 13:27:34.726829 13084 net.cpp:165] Memory required for data: 3027341572
I1124 13:27:34.726831 13084 layer_factory.hpp:76] Creating layer inception_4d/pool
I1124 13:27:34.726841 13084 net.cpp:106] Creating Layer inception_4d/pool
I1124 13:27:34.726846 13084 net.cpp:454] inception_4d/pool <- inception_4c/output_inception_4c/output_0_split_3
I1124 13:27:34.726851 13084 net.cpp:411] inception_4d/pool -> inception_4d/pool
I1124 13:27:34.727195 13084 net.cpp:150] Setting up inception_4d/pool
I1124 13:27:34.727210 13084 net.cpp:157] Top shape: 64 512 14 14 (6422528)
I1124 13:27:34.727212 13084 net.cpp:165] Memory required for data: 3053031684
I1124 13:27:34.727216 13084 layer_factory.hpp:76] Creating layer inception_4d/pool_proj
I1124 13:27:34.727226 13084 net.cpp:106] Creating Layer inception_4d/pool_proj
I1124 13:27:34.727231 13084 net.cpp:454] inception_4d/pool_proj <- inception_4d/pool
I1124 13:27:34.727237 13084 net.cpp:411] inception_4d/pool_proj -> inception_4d/pool_proj
I1124 13:27:34.728504 13084 net.cpp:150] Setting up inception_4d/pool_proj
I1124 13:27:34.728519 13084 net.cpp:157] Top shape: 64 64 14 14 (802816)
I1124 13:27:34.728523 13084 net.cpp:165] Memory required for data: 3056242948
I1124 13:27:34.728529 13084 layer_factory.hpp:76] Creating layer inception_4d/relu_pool_proj
I1124 13:27:34.728535 13084 net.cpp:106] Creating Layer inception_4d/relu_pool_proj
I1124 13:27:34.728539 13084 net.cpp:454] inception_4d/relu_pool_proj <- inception_4d/pool_proj
I1124 13:27:34.728544 13084 net.cpp:397] inception_4d/relu_pool_proj -> inception_4d/pool_proj (in-place)
I1124 13:27:34.728716 13084 net.cpp:150] Setting up inception_4d/relu_pool_proj
I1124 13:27:34.728729 13084 net.cpp:157] Top shape: 64 64 14 14 (802816)
I1124 13:27:34.728731 13084 net.cpp:165] Memory required for data: 3059454212
I1124 13:27:34.728735 13084 layer_factory.hpp:76] Creating layer inception_4d/output
I1124 13:27:34.728742 13084 net.cpp:106] Creating Layer inception_4d/output
I1124 13:27:34.728745 13084 net.cpp:454] inception_4d/output <- inception_4d/1x1
I1124 13:27:34.728750 13084 net.cpp:454] inception_4d/output <- inception_4d/3x3
I1124 13:27:34.728754 13084 net.cpp:454] inception_4d/output <- inception_4d/5x5
I1124 13:27:34.728757 13084 net.cpp:454] inception_4d/output <- inception_4d/pool_proj
I1124 13:27:34.728761 13084 net.cpp:411] inception_4d/output -> inception_4d/output
I1124 13:27:34.728796 13084 net.cpp:150] Setting up inception_4d/output
I1124 13:27:34.728802 13084 net.cpp:157] Top shape: 64 528 14 14 (6623232)
I1124 13:27:34.728806 13084 net.cpp:165] Memory required for data: 3085947140
I1124 13:27:34.728808 13084 layer_factory.hpp:76] Creating layer inception_4d/output_inception_4d/output_0_split
I1124 13:27:34.728814 13084 net.cpp:106] Creating Layer inception_4d/output_inception_4d/output_0_split
I1124 13:27:34.728817 13084 net.cpp:454] inception_4d/output_inception_4d/output_0_split <- inception_4d/output
I1124 13:27:34.728824 13084 net.cpp:411] inception_4d/output_inception_4d/output_0_split -> inception_4d/output_inception_4d/output_0_split_0
I1124 13:27:34.728831 13084 net.cpp:411] inception_4d/output_inception_4d/output_0_split -> inception_4d/output_inception_4d/output_0_split_1
I1124 13:27:34.728835 13084 net.cpp:411] inception_4d/output_inception_4d/output_0_split -> inception_4d/output_inception_4d/output_0_split_2
I1124 13:27:34.728842 13084 net.cpp:411] inception_4d/output_inception_4d/output_0_split -> inception_4d/output_inception_4d/output_0_split_3
I1124 13:27:34.728845 13084 net.cpp:411] inception_4d/output_inception_4d/output_0_split -> inception_4d/output_inception_4d/output_0_split_4
I1124 13:27:34.728924 13084 net.cpp:150] Setting up inception_4d/output_inception_4d/output_0_split
I1124 13:27:34.728931 13084 net.cpp:157] Top shape: 64 528 14 14 (6623232)
I1124 13:27:34.728935 13084 net.cpp:157] Top shape: 64 528 14 14 (6623232)
I1124 13:27:34.728940 13084 net.cpp:157] Top shape: 64 528 14 14 (6623232)
I1124 13:27:34.728942 13084 net.cpp:157] Top shape: 64 528 14 14 (6623232)
I1124 13:27:34.728945 13084 net.cpp:157] Top shape: 64 528 14 14 (6623232)
I1124 13:27:34.728948 13084 net.cpp:165] Memory required for data: 3218411780
I1124 13:27:34.728951 13084 layer_factory.hpp:76] Creating layer loss2/ave_pool
I1124 13:27:34.728958 13084 net.cpp:106] Creating Layer loss2/ave_pool
I1124 13:27:34.728961 13084 net.cpp:454] loss2/ave_pool <- inception_4d/output_inception_4d/output_0_split_0
I1124 13:27:34.728967 13084 net.cpp:411] loss2/ave_pool -> loss2/ave_pool
I1124 13:27:34.729303 13084 net.cpp:150] Setting up loss2/ave_pool
I1124 13:27:34.729317 13084 net.cpp:157] Top shape: 64 528 4 4 (540672)
I1124 13:27:34.729321 13084 net.cpp:165] Memory required for data: 3220574468
I1124 13:27:34.729324 13084 layer_factory.hpp:76] Creating layer loss2/conv
I1124 13:27:34.729334 13084 net.cpp:106] Creating Layer loss2/conv
I1124 13:27:34.729338 13084 net.cpp:454] loss2/conv <- loss2/ave_pool
I1124 13:27:34.729346 13084 net.cpp:411] loss2/conv -> loss2/conv
I1124 13:27:34.731109 13084 net.cpp:150] Setting up loss2/conv
I1124 13:27:34.731124 13084 net.cpp:157] Top shape: 64 128 4 4 (131072)
I1124 13:27:34.731128 13084 net.cpp:165] Memory required for data: 3221098756
I1124 13:27:34.731134 13084 layer_factory.hpp:76] Creating layer loss2/relu_conv
I1124 13:27:34.731142 13084 net.cpp:106] Creating Layer loss2/relu_conv
I1124 13:27:34.731147 13084 net.cpp:454] loss2/relu_conv <- loss2/conv
I1124 13:27:34.731153 13084 net.cpp:397] loss2/relu_conv -> loss2/conv (in-place)
I1124 13:27:34.731590 13084 net.cpp:150] Setting up loss2/relu_conv
I1124 13:27:34.731603 13084 net.cpp:157] Top shape: 64 128 4 4 (131072)
I1124 13:27:34.731607 13084 net.cpp:165] Memory required for data: 3221623044
I1124 13:27:34.731611 13084 layer_factory.hpp:76] Creating layer loss2/fc
I1124 13:27:34.731618 13084 net.cpp:106] Creating Layer loss2/fc
I1124 13:27:34.731622 13084 net.cpp:454] loss2/fc <- loss2/conv
I1124 13:27:34.731628 13084 net.cpp:411] loss2/fc -> loss2/fc
I1124 13:27:34.747160 13084 net.cpp:150] Setting up loss2/fc
I1124 13:27:34.747175 13084 net.cpp:157] Top shape: 64 1024 (65536)
I1124 13:27:34.747179 13084 net.cpp:165] Memory required for data: 3221885188
I1124 13:27:34.747184 13084 layer_factory.hpp:76] Creating layer loss2/relu_fc
I1124 13:27:34.747190 13084 net.cpp:106] Creating Layer loss2/relu_fc
I1124 13:27:34.747195 13084 net.cpp:454] loss2/relu_fc <- loss2/fc
I1124 13:27:34.747200 13084 net.cpp:397] loss2/relu_fc -> loss2/fc (in-place)
I1124 13:27:34.747386 13084 net.cpp:150] Setting up loss2/relu_fc
I1124 13:27:34.747397 13084 net.cpp:157] Top shape: 64 1024 (65536)
I1124 13:27:34.747401 13084 net.cpp:165] Memory required for data: 3222147332
I1124 13:27:34.747405 13084 layer_factory.hpp:76] Creating layer loss2/drop_fc
I1124 13:27:34.747411 13084 net.cpp:106] Creating Layer loss2/drop_fc
I1124 13:27:34.747416 13084 net.cpp:454] loss2/drop_fc <- loss2/fc
I1124 13:27:34.747421 13084 net.cpp:397] loss2/drop_fc -> loss2/fc (in-place)
I1124 13:27:34.747453 13084 net.cpp:150] Setting up loss2/drop_fc
I1124 13:27:34.747459 13084 net.cpp:157] Top shape: 64 1024 (65536)
I1124 13:27:34.747462 13084 net.cpp:165] Memory required for data: 3222409476
I1124 13:27:34.747465 13084 layer_factory.hpp:76] Creating layer loss2/classifier-attribute
I1124 13:27:34.747472 13084 net.cpp:106] Creating Layer loss2/classifier-attribute
I1124 13:27:34.747474 13084 net.cpp:454] loss2/classifier-attribute <- loss2/fc
I1124 13:27:34.747481 13084 net.cpp:411] loss2/classifier-attribute -> loss2/classifier-attribute
I1124 13:27:34.747695 13084 net.cpp:150] Setting up loss2/classifier-attribute
I1124 13:27:34.747704 13084 net.cpp:157] Top shape: 64 13 (832)
I1124 13:27:34.747707 13084 net.cpp:165] Memory required for data: 3222412804
I1124 13:27:34.747714 13084 layer_factory.hpp:76] Creating layer loss2/loss
I1124 13:27:34.747720 13084 net.cpp:106] Creating Layer loss2/loss
I1124 13:27:34.747723 13084 net.cpp:454] loss2/loss <- loss2/classifier-attribute
I1124 13:27:34.747727 13084 net.cpp:454] loss2/loss <- label_data_1_split_1
I1124 13:27:34.747733 13084 net.cpp:411] loss2/loss -> loss2/loss1
I1124 13:27:34.747740 13084 layer_factory.hpp:76] Creating layer loss2/loss
I1124 13:27:34.748172 13084 net.cpp:150] Setting up loss2/loss
I1124 13:27:34.748186 13084 net.cpp:157] Top shape: (1)
I1124 13:27:34.748190 13084 net.cpp:160]     with loss weight 0.3
I1124 13:27:34.748200 13084 net.cpp:165] Memory required for data: 3222412808
I1124 13:27:34.748204 13084 layer_factory.hpp:76] Creating layer inception_4e/1x1
I1124 13:27:34.748214 13084 net.cpp:106] Creating Layer inception_4e/1x1
I1124 13:27:34.748219 13084 net.cpp:454] inception_4e/1x1 <- inception_4d/output_inception_4d/output_0_split_1
I1124 13:27:34.748224 13084 net.cpp:411] inception_4e/1x1 -> inception_4e/1x1
I1124 13:27:34.750125 13084 net.cpp:150] Setting up inception_4e/1x1
I1124 13:27:34.750143 13084 net.cpp:157] Top shape: 64 256 14 14 (3211264)
I1124 13:27:34.750146 13084 net.cpp:165] Memory required for data: 3235257864
I1124 13:27:34.750152 13084 layer_factory.hpp:76] Creating layer inception_4e/relu_1x1
I1124 13:27:34.750159 13084 net.cpp:106] Creating Layer inception_4e/relu_1x1
I1124 13:27:34.750164 13084 net.cpp:454] inception_4e/relu_1x1 <- inception_4e/1x1
I1124 13:27:34.750169 13084 net.cpp:397] inception_4e/relu_1x1 -> inception_4e/1x1 (in-place)
I1124 13:27:34.750339 13084 net.cpp:150] Setting up inception_4e/relu_1x1
I1124 13:27:34.750351 13084 net.cpp:157] Top shape: 64 256 14 14 (3211264)
I1124 13:27:34.750355 13084 net.cpp:165] Memory required for data: 3248102920
I1124 13:27:34.750357 13084 layer_factory.hpp:76] Creating layer inception_4e/3x3_reduce
I1124 13:27:34.750366 13084 net.cpp:106] Creating Layer inception_4e/3x3_reduce
I1124 13:27:34.750370 13084 net.cpp:454] inception_4e/3x3_reduce <- inception_4d/output_inception_4d/output_0_split_2
I1124 13:27:34.750376 13084 net.cpp:411] inception_4e/3x3_reduce -> inception_4e/3x3_reduce
I1124 13:27:34.752390 13084 net.cpp:150] Setting up inception_4e/3x3_reduce
I1124 13:27:34.752406 13084 net.cpp:157] Top shape: 64 160 14 14 (2007040)
I1124 13:27:34.752410 13084 net.cpp:165] Memory required for data: 3256131080
I1124 13:27:34.752416 13084 layer_factory.hpp:76] Creating layer inception_4e/relu_3x3_reduce
I1124 13:27:34.752424 13084 net.cpp:106] Creating Layer inception_4e/relu_3x3_reduce
I1124 13:27:34.752429 13084 net.cpp:454] inception_4e/relu_3x3_reduce <- inception_4e/3x3_reduce
I1124 13:27:34.752434 13084 net.cpp:397] inception_4e/relu_3x3_reduce -> inception_4e/3x3_reduce (in-place)
I1124 13:27:34.752748 13084 net.cpp:150] Setting up inception_4e/relu_3x3_reduce
I1124 13:27:34.752763 13084 net.cpp:157] Top shape: 64 160 14 14 (2007040)
I1124 13:27:34.752766 13084 net.cpp:165] Memory required for data: 3264159240
I1124 13:27:34.752769 13084 layer_factory.hpp:76] Creating layer inception_4e/3x3
I1124 13:27:34.752779 13084 net.cpp:106] Creating Layer inception_4e/3x3
I1124 13:27:34.752784 13084 net.cpp:454] inception_4e/3x3 <- inception_4e/3x3_reduce
I1124 13:27:34.752789 13084 net.cpp:411] inception_4e/3x3 -> inception_4e/3x3
I1124 13:27:34.757268 13084 net.cpp:150] Setting up inception_4e/3x3
I1124 13:27:34.757284 13084 net.cpp:157] Top shape: 64 320 14 14 (4014080)
I1124 13:27:34.757288 13084 net.cpp:165] Memory required for data: 3280215560
I1124 13:27:34.757294 13084 layer_factory.hpp:76] Creating layer inception_4e/relu_3x3
I1124 13:27:34.757300 13084 net.cpp:106] Creating Layer inception_4e/relu_3x3
I1124 13:27:34.757304 13084 net.cpp:454] inception_4e/relu_3x3 <- inception_4e/3x3
I1124 13:27:34.757309 13084 net.cpp:397] inception_4e/relu_3x3 -> inception_4e/3x3 (in-place)
I1124 13:27:34.757625 13084 net.cpp:150] Setting up inception_4e/relu_3x3
I1124 13:27:34.757639 13084 net.cpp:157] Top shape: 64 320 14 14 (4014080)
I1124 13:27:34.757642 13084 net.cpp:165] Memory required for data: 3296271880
I1124 13:27:34.757647 13084 layer_factory.hpp:76] Creating layer inception_4e/5x5_reduce
I1124 13:27:34.757655 13084 net.cpp:106] Creating Layer inception_4e/5x5_reduce
I1124 13:27:34.757660 13084 net.cpp:454] inception_4e/5x5_reduce <- inception_4d/output_inception_4d/output_0_split_3
I1124 13:27:34.757668 13084 net.cpp:411] inception_4e/5x5_reduce -> inception_4e/5x5_reduce
I1124 13:27:34.758841 13084 net.cpp:150] Setting up inception_4e/5x5_reduce
I1124 13:27:34.758855 13084 net.cpp:157] Top shape: 64 32 14 14 (401408)
I1124 13:27:34.758859 13084 net.cpp:165] Memory required for data: 3297877512
I1124 13:27:34.758865 13084 layer_factory.hpp:76] Creating layer inception_4e/relu_5x5_reduce
I1124 13:27:34.758872 13084 net.cpp:106] Creating Layer inception_4e/relu_5x5_reduce
I1124 13:27:34.758877 13084 net.cpp:454] inception_4e/relu_5x5_reduce <- inception_4e/5x5_reduce
I1124 13:27:34.758884 13084 net.cpp:397] inception_4e/relu_5x5_reduce -> inception_4e/5x5_reduce (in-place)
I1124 13:27:34.759058 13084 net.cpp:150] Setting up inception_4e/relu_5x5_reduce
I1124 13:27:34.759069 13084 net.cpp:157] Top shape: 64 32 14 14 (401408)
I1124 13:27:34.759073 13084 net.cpp:165] Memory required for data: 3299483144
I1124 13:27:34.759076 13084 layer_factory.hpp:76] Creating layer inception_4e/5x5
I1124 13:27:34.759099 13084 net.cpp:106] Creating Layer inception_4e/5x5
I1124 13:27:34.759102 13084 net.cpp:454] inception_4e/5x5 <- inception_4e/5x5_reduce
I1124 13:27:34.759109 13084 net.cpp:411] inception_4e/5x5 -> inception_4e/5x5
I1124 13:27:34.760862 13084 net.cpp:150] Setting up inception_4e/5x5
I1124 13:27:34.760877 13084 net.cpp:157] Top shape: 64 128 14 14 (1605632)
I1124 13:27:34.760882 13084 net.cpp:165] Memory required for data: 3305905672
I1124 13:27:34.760890 13084 layer_factory.hpp:76] Creating layer inception_4e/relu_5x5
I1124 13:27:34.760896 13084 net.cpp:106] Creating Layer inception_4e/relu_5x5
I1124 13:27:34.760900 13084 net.cpp:454] inception_4e/relu_5x5 <- inception_4e/5x5
I1124 13:27:34.760905 13084 net.cpp:397] inception_4e/relu_5x5 -> inception_4e/5x5 (in-place)
I1124 13:27:34.761234 13084 net.cpp:150] Setting up inception_4e/relu_5x5
I1124 13:27:34.761248 13084 net.cpp:157] Top shape: 64 128 14 14 (1605632)
I1124 13:27:34.761251 13084 net.cpp:165] Memory required for data: 3312328200
I1124 13:27:34.761255 13084 layer_factory.hpp:76] Creating layer inception_4e/pool
I1124 13:27:34.761263 13084 net.cpp:106] Creating Layer inception_4e/pool
I1124 13:27:34.761268 13084 net.cpp:454] inception_4e/pool <- inception_4d/output_inception_4d/output_0_split_4
I1124 13:27:34.761273 13084 net.cpp:411] inception_4e/pool -> inception_4e/pool
I1124 13:27:34.761487 13084 net.cpp:150] Setting up inception_4e/pool
I1124 13:27:34.761498 13084 net.cpp:157] Top shape: 64 528 14 14 (6623232)
I1124 13:27:34.761502 13084 net.cpp:165] Memory required for data: 3338821128
I1124 13:27:34.761505 13084 layer_factory.hpp:76] Creating layer inception_4e/pool_proj
I1124 13:27:34.761514 13084 net.cpp:106] Creating Layer inception_4e/pool_proj
I1124 13:27:34.761518 13084 net.cpp:454] inception_4e/pool_proj <- inception_4e/pool
I1124 13:27:34.761525 13084 net.cpp:411] inception_4e/pool_proj -> inception_4e/pool_proj
I1124 13:27:34.763023 13084 net.cpp:150] Setting up inception_4e/pool_proj
I1124 13:27:34.763038 13084 net.cpp:157] Top shape: 64 128 14 14 (1605632)
I1124 13:27:34.763041 13084 net.cpp:165] Memory required for data: 3345243656
I1124 13:27:34.763048 13084 layer_factory.hpp:76] Creating layer inception_4e/relu_pool_proj
I1124 13:27:34.763054 13084 net.cpp:106] Creating Layer inception_4e/relu_pool_proj
I1124 13:27:34.763058 13084 net.cpp:454] inception_4e/relu_pool_proj <- inception_4e/pool_proj
I1124 13:27:34.763064 13084 net.cpp:397] inception_4e/relu_pool_proj -> inception_4e/pool_proj (in-place)
I1124 13:27:34.763380 13084 net.cpp:150] Setting up inception_4e/relu_pool_proj
I1124 13:27:34.763393 13084 net.cpp:157] Top shape: 64 128 14 14 (1605632)
I1124 13:27:34.763396 13084 net.cpp:165] Memory required for data: 3351666184
I1124 13:27:34.763401 13084 layer_factory.hpp:76] Creating layer inception_4e/output
I1124 13:27:34.763406 13084 net.cpp:106] Creating Layer inception_4e/output
I1124 13:27:34.763409 13084 net.cpp:454] inception_4e/output <- inception_4e/1x1
I1124 13:27:34.763414 13084 net.cpp:454] inception_4e/output <- inception_4e/3x3
I1124 13:27:34.763420 13084 net.cpp:454] inception_4e/output <- inception_4e/5x5
I1124 13:27:34.763424 13084 net.cpp:454] inception_4e/output <- inception_4e/pool_proj
I1124 13:27:34.763429 13084 net.cpp:411] inception_4e/output -> inception_4e/output
I1124 13:27:34.763465 13084 net.cpp:150] Setting up inception_4e/output
I1124 13:27:34.763471 13084 net.cpp:157] Top shape: 64 832 14 14 (10436608)
I1124 13:27:34.763474 13084 net.cpp:165] Memory required for data: 3393412616
I1124 13:27:34.763478 13084 layer_factory.hpp:76] Creating layer pool4/3x3_s2
I1124 13:27:34.763485 13084 net.cpp:106] Creating Layer pool4/3x3_s2
I1124 13:27:34.763489 13084 net.cpp:454] pool4/3x3_s2 <- inception_4e/output
I1124 13:27:34.763495 13084 net.cpp:411] pool4/3x3_s2 -> pool4/3x3_s2
I1124 13:27:34.763705 13084 net.cpp:150] Setting up pool4/3x3_s2
I1124 13:27:34.763715 13084 net.cpp:157] Top shape: 64 832 7 7 (2609152)
I1124 13:27:34.763720 13084 net.cpp:165] Memory required for data: 3403849224
I1124 13:27:34.763722 13084 layer_factory.hpp:76] Creating layer pool4/3x3_s2_pool4/3x3_s2_0_split
I1124 13:27:34.763728 13084 net.cpp:106] Creating Layer pool4/3x3_s2_pool4/3x3_s2_0_split
I1124 13:27:34.763731 13084 net.cpp:454] pool4/3x3_s2_pool4/3x3_s2_0_split <- pool4/3x3_s2
I1124 13:27:34.763738 13084 net.cpp:411] pool4/3x3_s2_pool4/3x3_s2_0_split -> pool4/3x3_s2_pool4/3x3_s2_0_split_0
I1124 13:27:34.763744 13084 net.cpp:411] pool4/3x3_s2_pool4/3x3_s2_0_split -> pool4/3x3_s2_pool4/3x3_s2_0_split_1
I1124 13:27:34.763751 13084 net.cpp:411] pool4/3x3_s2_pool4/3x3_s2_0_split -> pool4/3x3_s2_pool4/3x3_s2_0_split_2
I1124 13:27:34.763756 13084 net.cpp:411] pool4/3x3_s2_pool4/3x3_s2_0_split -> pool4/3x3_s2_pool4/3x3_s2_0_split_3
I1124 13:27:34.763826 13084 net.cpp:150] Setting up pool4/3x3_s2_pool4/3x3_s2_0_split
I1124 13:27:34.763834 13084 net.cpp:157] Top shape: 64 832 7 7 (2609152)
I1124 13:27:34.763839 13084 net.cpp:157] Top shape: 64 832 7 7 (2609152)
I1124 13:27:34.763841 13084 net.cpp:157] Top shape: 64 832 7 7 (2609152)
I1124 13:27:34.763845 13084 net.cpp:157] Top shape: 64 832 7 7 (2609152)
I1124 13:27:34.763847 13084 net.cpp:165] Memory required for data: 3445595656
I1124 13:27:34.763850 13084 layer_factory.hpp:76] Creating layer inception_5a/1x1
I1124 13:27:34.763859 13084 net.cpp:106] Creating Layer inception_5a/1x1
I1124 13:27:34.763862 13084 net.cpp:454] inception_5a/1x1 <- pool4/3x3_s2_pool4/3x3_s2_0_split_0
I1124 13:27:34.763869 13084 net.cpp:411] inception_5a/1x1 -> inception_5a/1x1
I1124 13:27:34.766717 13084 net.cpp:150] Setting up inception_5a/1x1
I1124 13:27:34.766733 13084 net.cpp:157] Top shape: 64 256 7 7 (802816)
I1124 13:27:34.766736 13084 net.cpp:165] Memory required for data: 3448806920
I1124 13:27:34.766743 13084 layer_factory.hpp:76] Creating layer inception_5a/relu_1x1
I1124 13:27:34.766751 13084 net.cpp:106] Creating Layer inception_5a/relu_1x1
I1124 13:27:34.766755 13084 net.cpp:454] inception_5a/relu_1x1 <- inception_5a/1x1
I1124 13:27:34.766760 13084 net.cpp:397] inception_5a/relu_1x1 -> inception_5a/1x1 (in-place)
I1124 13:27:34.767067 13084 net.cpp:150] Setting up inception_5a/relu_1x1
I1124 13:27:34.767082 13084 net.cpp:157] Top shape: 64 256 7 7 (802816)
I1124 13:27:34.767086 13084 net.cpp:165] Memory required for data: 3452018184
I1124 13:27:34.767088 13084 layer_factory.hpp:76] Creating layer inception_5a/3x3_reduce
I1124 13:27:34.767099 13084 net.cpp:106] Creating Layer inception_5a/3x3_reduce
I1124 13:27:34.767104 13084 net.cpp:454] inception_5a/3x3_reduce <- pool4/3x3_s2_pool4/3x3_s2_0_split_1
I1124 13:27:34.767110 13084 net.cpp:411] inception_5a/3x3_reduce -> inception_5a/3x3_reduce
I1124 13:27:34.769472 13084 net.cpp:150] Setting up inception_5a/3x3_reduce
I1124 13:27:34.769487 13084 net.cpp:157] Top shape: 64 160 7 7 (501760)
I1124 13:27:34.769491 13084 net.cpp:165] Memory required for data: 3454025224
I1124 13:27:34.769497 13084 layer_factory.hpp:76] Creating layer inception_5a/relu_3x3_reduce
I1124 13:27:34.769505 13084 net.cpp:106] Creating Layer inception_5a/relu_3x3_reduce
I1124 13:27:34.769510 13084 net.cpp:454] inception_5a/relu_3x3_reduce <- inception_5a/3x3_reduce
I1124 13:27:34.769516 13084 net.cpp:397] inception_5a/relu_3x3_reduce -> inception_5a/3x3_reduce (in-place)
I1124 13:27:34.769836 13084 net.cpp:150] Setting up inception_5a/relu_3x3_reduce
I1124 13:27:34.769851 13084 net.cpp:157] Top shape: 64 160 7 7 (501760)
I1124 13:27:34.769855 13084 net.cpp:165] Memory required for data: 3456032264
I1124 13:27:34.769858 13084 layer_factory.hpp:76] Creating layer inception_5a/3x3
I1124 13:27:34.769867 13084 net.cpp:106] Creating Layer inception_5a/3x3
I1124 13:27:34.769871 13084 net.cpp:454] inception_5a/3x3 <- inception_5a/3x3_reduce
I1124 13:27:34.769878 13084 net.cpp:411] inception_5a/3x3 -> inception_5a/3x3
I1124 13:27:34.774539 13084 net.cpp:150] Setting up inception_5a/3x3
I1124 13:27:34.774555 13084 net.cpp:157] Top shape: 64 320 7 7 (1003520)
I1124 13:27:34.774559 13084 net.cpp:165] Memory required for data: 3460046344
I1124 13:27:34.774565 13084 layer_factory.hpp:76] Creating layer inception_5a/relu_3x3
I1124 13:27:34.774574 13084 net.cpp:106] Creating Layer inception_5a/relu_3x3
I1124 13:27:34.774577 13084 net.cpp:454] inception_5a/relu_3x3 <- inception_5a/3x3
I1124 13:27:34.774582 13084 net.cpp:397] inception_5a/relu_3x3 -> inception_5a/3x3 (in-place)
I1124 13:27:34.774760 13084 net.cpp:150] Setting up inception_5a/relu_3x3
I1124 13:27:34.774771 13084 net.cpp:157] Top shape: 64 320 7 7 (1003520)
I1124 13:27:34.774775 13084 net.cpp:165] Memory required for data: 3464060424
I1124 13:27:34.774778 13084 layer_factory.hpp:76] Creating layer inception_5a/5x5_reduce
I1124 13:27:34.774788 13084 net.cpp:106] Creating Layer inception_5a/5x5_reduce
I1124 13:27:34.774792 13084 net.cpp:454] inception_5a/5x5_reduce <- pool4/3x3_s2_pool4/3x3_s2_0_split_2
I1124 13:27:34.774799 13084 net.cpp:411] inception_5a/5x5_reduce -> inception_5a/5x5_reduce
I1124 13:27:34.776100 13084 net.cpp:150] Setting up inception_5a/5x5_reduce
I1124 13:27:34.776115 13084 net.cpp:157] Top shape: 64 32 7 7 (100352)
I1124 13:27:34.776119 13084 net.cpp:165] Memory required for data: 3464461832
I1124 13:27:34.776125 13084 layer_factory.hpp:76] Creating layer inception_5a/relu_5x5_reduce
I1124 13:27:34.776131 13084 net.cpp:106] Creating Layer inception_5a/relu_5x5_reduce
I1124 13:27:34.776137 13084 net.cpp:454] inception_5a/relu_5x5_reduce <- inception_5a/5x5_reduce
I1124 13:27:34.776144 13084 net.cpp:397] inception_5a/relu_5x5_reduce -> inception_5a/5x5_reduce (in-place)
I1124 13:27:34.776321 13084 net.cpp:150] Setting up inception_5a/relu_5x5_reduce
I1124 13:27:34.776332 13084 net.cpp:157] Top shape: 64 32 7 7 (100352)
I1124 13:27:34.776335 13084 net.cpp:165] Memory required for data: 3464863240
I1124 13:27:34.776340 13084 layer_factory.hpp:76] Creating layer inception_5a/5x5
I1124 13:27:34.776350 13084 net.cpp:106] Creating Layer inception_5a/5x5
I1124 13:27:34.776355 13084 net.cpp:454] inception_5a/5x5 <- inception_5a/5x5_reduce
I1124 13:27:34.776361 13084 net.cpp:411] inception_5a/5x5 -> inception_5a/5x5
I1124 13:27:34.778100 13084 net.cpp:150] Setting up inception_5a/5x5
I1124 13:27:34.778115 13084 net.cpp:157] Top shape: 64 128 7 7 (401408)
I1124 13:27:34.778118 13084 net.cpp:165] Memory required for data: 3466468872
I1124 13:27:34.778125 13084 layer_factory.hpp:76] Creating layer inception_5a/relu_5x5
I1124 13:27:34.778131 13084 net.cpp:106] Creating Layer inception_5a/relu_5x5
I1124 13:27:34.778134 13084 net.cpp:454] inception_5a/relu_5x5 <- inception_5a/5x5
I1124 13:27:34.778142 13084 net.cpp:397] inception_5a/relu_5x5 -> inception_5a/5x5 (in-place)
I1124 13:27:34.778461 13084 net.cpp:150] Setting up inception_5a/relu_5x5
I1124 13:27:34.778476 13084 net.cpp:157] Top shape: 64 128 7 7 (401408)
I1124 13:27:34.778480 13084 net.cpp:165] Memory required for data: 3468074504
I1124 13:27:34.778483 13084 layer_factory.hpp:76] Creating layer inception_5a/pool
I1124 13:27:34.778491 13084 net.cpp:106] Creating Layer inception_5a/pool
I1124 13:27:34.778496 13084 net.cpp:454] inception_5a/pool <- pool4/3x3_s2_pool4/3x3_s2_0_split_3
I1124 13:27:34.778501 13084 net.cpp:411] inception_5a/pool -> inception_5a/pool
I1124 13:27:34.778715 13084 net.cpp:150] Setting up inception_5a/pool
I1124 13:27:34.778728 13084 net.cpp:157] Top shape: 64 832 7 7 (2609152)
I1124 13:27:34.778731 13084 net.cpp:165] Memory required for data: 3478511112
I1124 13:27:34.778734 13084 layer_factory.hpp:76] Creating layer inception_5a/pool_proj
I1124 13:27:34.778744 13084 net.cpp:106] Creating Layer inception_5a/pool_proj
I1124 13:27:34.778748 13084 net.cpp:454] inception_5a/pool_proj <- inception_5a/pool
I1124 13:27:34.778753 13084 net.cpp:411] inception_5a/pool_proj -> inception_5a/pool_proj
I1124 13:27:34.780952 13084 net.cpp:150] Setting up inception_5a/pool_proj
I1124 13:27:34.780968 13084 net.cpp:157] Top shape: 64 128 7 7 (401408)
I1124 13:27:34.780972 13084 net.cpp:165] Memory required for data: 3480116744
I1124 13:27:34.780978 13084 layer_factory.hpp:76] Creating layer inception_5a/relu_pool_proj
I1124 13:27:34.780987 13084 net.cpp:106] Creating Layer inception_5a/relu_pool_proj
I1124 13:27:34.780992 13084 net.cpp:454] inception_5a/relu_pool_proj <- inception_5a/pool_proj
I1124 13:27:34.780997 13084 net.cpp:397] inception_5a/relu_pool_proj -> inception_5a/pool_proj (in-place)
I1124 13:27:34.781322 13084 net.cpp:150] Setting up inception_5a/relu_pool_proj
I1124 13:27:34.781337 13084 net.cpp:157] Top shape: 64 128 7 7 (401408)
I1124 13:27:34.781340 13084 net.cpp:165] Memory required for data: 3481722376
I1124 13:27:34.781343 13084 layer_factory.hpp:76] Creating layer inception_5a/output
I1124 13:27:34.781352 13084 net.cpp:106] Creating Layer inception_5a/output
I1124 13:27:34.781357 13084 net.cpp:454] inception_5a/output <- inception_5a/1x1
I1124 13:27:34.781360 13084 net.cpp:454] inception_5a/output <- inception_5a/3x3
I1124 13:27:34.781364 13084 net.cpp:454] inception_5a/output <- inception_5a/5x5
I1124 13:27:34.781368 13084 net.cpp:454] inception_5a/output <- inception_5a/pool_proj
I1124 13:27:34.781373 13084 net.cpp:411] inception_5a/output -> inception_5a/output
I1124 13:27:34.781410 13084 net.cpp:150] Setting up inception_5a/output
I1124 13:27:34.781417 13084 net.cpp:157] Top shape: 64 832 7 7 (2609152)
I1124 13:27:34.781419 13084 net.cpp:165] Memory required for data: 3492158984
I1124 13:27:34.781422 13084 layer_factory.hpp:76] Creating layer inception_5a/output_inception_5a/output_0_split
I1124 13:27:34.781429 13084 net.cpp:106] Creating Layer inception_5a/output_inception_5a/output_0_split
I1124 13:27:34.781431 13084 net.cpp:454] inception_5a/output_inception_5a/output_0_split <- inception_5a/output
I1124 13:27:34.781440 13084 net.cpp:411] inception_5a/output_inception_5a/output_0_split -> inception_5a/output_inception_5a/output_0_split_0
I1124 13:27:34.781447 13084 net.cpp:411] inception_5a/output_inception_5a/output_0_split -> inception_5a/output_inception_5a/output_0_split_1
I1124 13:27:34.781453 13084 net.cpp:411] inception_5a/output_inception_5a/output_0_split -> inception_5a/output_inception_5a/output_0_split_2
I1124 13:27:34.781458 13084 net.cpp:411] inception_5a/output_inception_5a/output_0_split -> inception_5a/output_inception_5a/output_0_split_3
I1124 13:27:34.781533 13084 net.cpp:150] Setting up inception_5a/output_inception_5a/output_0_split
I1124 13:27:34.781540 13084 net.cpp:157] Top shape: 64 832 7 7 (2609152)
I1124 13:27:34.781545 13084 net.cpp:157] Top shape: 64 832 7 7 (2609152)
I1124 13:27:34.781548 13084 net.cpp:157] Top shape: 64 832 7 7 (2609152)
I1124 13:27:34.781553 13084 net.cpp:157] Top shape: 64 832 7 7 (2609152)
I1124 13:27:34.781554 13084 net.cpp:165] Memory required for data: 3533905416
I1124 13:27:34.781558 13084 layer_factory.hpp:76] Creating layer inception_5b/1x1
I1124 13:27:34.781568 13084 net.cpp:106] Creating Layer inception_5b/1x1
I1124 13:27:34.781571 13084 net.cpp:454] inception_5b/1x1 <- inception_5a/output_inception_5a/output_0_split_0
I1124 13:27:34.781577 13084 net.cpp:411] inception_5b/1x1 -> inception_5b/1x1
I1124 13:27:34.785111 13084 net.cpp:150] Setting up inception_5b/1x1
I1124 13:27:34.785127 13084 net.cpp:157] Top shape: 64 384 7 7 (1204224)
I1124 13:27:34.785131 13084 net.cpp:165] Memory required for data: 3538722312
I1124 13:27:34.785138 13084 layer_factory.hpp:76] Creating layer inception_5b/relu_1x1
I1124 13:27:34.785145 13084 net.cpp:106] Creating Layer inception_5b/relu_1x1
I1124 13:27:34.785148 13084 net.cpp:454] inception_5b/relu_1x1 <- inception_5b/1x1
I1124 13:27:34.785156 13084 net.cpp:397] inception_5b/relu_1x1 -> inception_5b/1x1 (in-place)
I1124 13:27:34.785472 13084 net.cpp:150] Setting up inception_5b/relu_1x1
I1124 13:27:34.785487 13084 net.cpp:157] Top shape: 64 384 7 7 (1204224)
I1124 13:27:34.785490 13084 net.cpp:165] Memory required for data: 3543539208
I1124 13:27:34.785495 13084 layer_factory.hpp:76] Creating layer inception_5b/3x3_reduce
I1124 13:27:34.785502 13084 net.cpp:106] Creating Layer inception_5b/3x3_reduce
I1124 13:27:34.785506 13084 net.cpp:454] inception_5b/3x3_reduce <- inception_5a/output_inception_5a/output_0_split_1
I1124 13:27:34.785512 13084 net.cpp:411] inception_5b/3x3_reduce -> inception_5b/3x3_reduce
I1124 13:27:34.788065 13084 net.cpp:150] Setting up inception_5b/3x3_reduce
I1124 13:27:34.788080 13084 net.cpp:157] Top shape: 64 192 7 7 (602112)
I1124 13:27:34.788084 13084 net.cpp:165] Memory required for data: 3545947656
I1124 13:27:34.788091 13084 layer_factory.hpp:76] Creating layer inception_5b/relu_3x3_reduce
I1124 13:27:34.788097 13084 net.cpp:106] Creating Layer inception_5b/relu_3x3_reduce
I1124 13:27:34.788101 13084 net.cpp:454] inception_5b/relu_3x3_reduce <- inception_5b/3x3_reduce
I1124 13:27:34.788106 13084 net.cpp:397] inception_5b/relu_3x3_reduce -> inception_5b/3x3_reduce (in-place)
I1124 13:27:34.788288 13084 net.cpp:150] Setting up inception_5b/relu_3x3_reduce
I1124 13:27:34.788300 13084 net.cpp:157] Top shape: 64 192 7 7 (602112)
I1124 13:27:34.788303 13084 net.cpp:165] Memory required for data: 3548356104
I1124 13:27:34.788306 13084 layer_factory.hpp:76] Creating layer inception_5b/3x3
I1124 13:27:34.788316 13084 net.cpp:106] Creating Layer inception_5b/3x3
I1124 13:27:34.788319 13084 net.cpp:454] inception_5b/3x3 <- inception_5b/3x3_reduce
I1124 13:27:34.788326 13084 net.cpp:411] inception_5b/3x3 -> inception_5b/3x3
I1124 13:27:34.794572 13084 net.cpp:150] Setting up inception_5b/3x3
I1124 13:27:34.794590 13084 net.cpp:157] Top shape: 64 384 7 7 (1204224)
I1124 13:27:34.794595 13084 net.cpp:165] Memory required for data: 3553173000
I1124 13:27:34.794601 13084 layer_factory.hpp:76] Creating layer inception_5b/relu_3x3
I1124 13:27:34.794607 13084 net.cpp:106] Creating Layer inception_5b/relu_3x3
I1124 13:27:34.794611 13084 net.cpp:454] inception_5b/relu_3x3 <- inception_5b/3x3
I1124 13:27:34.794617 13084 net.cpp:397] inception_5b/relu_3x3 -> inception_5b/3x3 (in-place)
I1124 13:27:34.794948 13084 net.cpp:150] Setting up inception_5b/relu_3x3
I1124 13:27:34.794963 13084 net.cpp:157] Top shape: 64 384 7 7 (1204224)
I1124 13:27:34.794967 13084 net.cpp:165] Memory required for data: 3557989896
I1124 13:27:34.794970 13084 layer_factory.hpp:76] Creating layer inception_5b/5x5_reduce
I1124 13:27:34.794980 13084 net.cpp:106] Creating Layer inception_5b/5x5_reduce
I1124 13:27:34.794983 13084 net.cpp:454] inception_5b/5x5_reduce <- inception_5a/output_inception_5a/output_0_split_2
I1124 13:27:34.794991 13084 net.cpp:411] inception_5b/5x5_reduce -> inception_5b/5x5_reduce
I1124 13:27:34.796702 13084 net.cpp:150] Setting up inception_5b/5x5_reduce
I1124 13:27:34.796717 13084 net.cpp:157] Top shape: 64 48 7 7 (150528)
I1124 13:27:34.796721 13084 net.cpp:165] Memory required for data: 3558592008
I1124 13:27:34.796728 13084 layer_factory.hpp:76] Creating layer inception_5b/relu_5x5_reduce
I1124 13:27:34.796736 13084 net.cpp:106] Creating Layer inception_5b/relu_5x5_reduce
I1124 13:27:34.796741 13084 net.cpp:454] inception_5b/relu_5x5_reduce <- inception_5b/5x5_reduce
I1124 13:27:34.796746 13084 net.cpp:397] inception_5b/relu_5x5_reduce -> inception_5b/5x5_reduce (in-place)
I1124 13:27:34.797071 13084 net.cpp:150] Setting up inception_5b/relu_5x5_reduce
I1124 13:27:34.797086 13084 net.cpp:157] Top shape: 64 48 7 7 (150528)
I1124 13:27:34.797088 13084 net.cpp:165] Memory required for data: 3559194120
I1124 13:27:34.797092 13084 layer_factory.hpp:76] Creating layer inception_5b/5x5
I1124 13:27:34.797103 13084 net.cpp:106] Creating Layer inception_5b/5x5
I1124 13:27:34.797107 13084 net.cpp:454] inception_5b/5x5 <- inception_5b/5x5_reduce
I1124 13:27:34.797113 13084 net.cpp:411] inception_5b/5x5 -> inception_5b/5x5
I1124 13:27:34.799191 13084 net.cpp:150] Setting up inception_5b/5x5
I1124 13:27:34.799207 13084 net.cpp:157] Top shape: 64 128 7 7 (401408)
I1124 13:27:34.799211 13084 net.cpp:165] Memory required for data: 3560799752
I1124 13:27:34.799217 13084 layer_factory.hpp:76] Creating layer inception_5b/relu_5x5
I1124 13:27:34.799223 13084 net.cpp:106] Creating Layer inception_5b/relu_5x5
I1124 13:27:34.799227 13084 net.cpp:454] inception_5b/relu_5x5 <- inception_5b/5x5
I1124 13:27:34.799234 13084 net.cpp:397] inception_5b/relu_5x5 -> inception_5b/5x5 (in-place)
I1124 13:27:34.799415 13084 net.cpp:150] Setting up inception_5b/relu_5x5
I1124 13:27:34.799427 13084 net.cpp:157] Top shape: 64 128 7 7 (401408)
I1124 13:27:34.799430 13084 net.cpp:165] Memory required for data: 3562405384
I1124 13:27:34.799433 13084 layer_factory.hpp:76] Creating layer inception_5b/pool
I1124 13:27:34.799439 13084 net.cpp:106] Creating Layer inception_5b/pool
I1124 13:27:34.799443 13084 net.cpp:454] inception_5b/pool <- inception_5a/output_inception_5a/output_0_split_3
I1124 13:27:34.799449 13084 net.cpp:411] inception_5b/pool -> inception_5b/pool
I1124 13:27:34.799816 13084 net.cpp:150] Setting up inception_5b/pool
I1124 13:27:34.799830 13084 net.cpp:157] Top shape: 64 832 7 7 (2609152)
I1124 13:27:34.799834 13084 net.cpp:165] Memory required for data: 3572841992
I1124 13:27:34.799837 13084 layer_factory.hpp:76] Creating layer inception_5b/pool_proj
I1124 13:27:34.799846 13084 net.cpp:106] Creating Layer inception_5b/pool_proj
I1124 13:27:34.799850 13084 net.cpp:454] inception_5b/pool_proj <- inception_5b/pool
I1124 13:27:34.799859 13084 net.cpp:411] inception_5b/pool_proj -> inception_5b/pool_proj
I1124 13:27:34.802088 13084 net.cpp:150] Setting up inception_5b/pool_proj
I1124 13:27:34.802103 13084 net.cpp:157] Top shape: 64 128 7 7 (401408)
I1124 13:27:34.802106 13084 net.cpp:165] Memory required for data: 3574447624
I1124 13:27:34.802112 13084 layer_factory.hpp:76] Creating layer inception_5b/relu_pool_proj
I1124 13:27:34.802119 13084 net.cpp:106] Creating Layer inception_5b/relu_pool_proj
I1124 13:27:34.802124 13084 net.cpp:454] inception_5b/relu_pool_proj <- inception_5b/pool_proj
I1124 13:27:34.802129 13084 net.cpp:397] inception_5b/relu_pool_proj -> inception_5b/pool_proj (in-place)
I1124 13:27:34.802311 13084 net.cpp:150] Setting up inception_5b/relu_pool_proj
I1124 13:27:34.802323 13084 net.cpp:157] Top shape: 64 128 7 7 (401408)
I1124 13:27:34.802326 13084 net.cpp:165] Memory required for data: 3576053256
I1124 13:27:34.802330 13084 layer_factory.hpp:76] Creating layer inception_5b/output
I1124 13:27:34.802337 13084 net.cpp:106] Creating Layer inception_5b/output
I1124 13:27:34.802341 13084 net.cpp:454] inception_5b/output <- inception_5b/1x1
I1124 13:27:34.802346 13084 net.cpp:454] inception_5b/output <- inception_5b/3x3
I1124 13:27:34.802350 13084 net.cpp:454] inception_5b/output <- inception_5b/5x5
I1124 13:27:34.802353 13084 net.cpp:454] inception_5b/output <- inception_5b/pool_proj
I1124 13:27:34.802357 13084 net.cpp:411] inception_5b/output -> inception_5b/output
I1124 13:27:34.802397 13084 net.cpp:150] Setting up inception_5b/output
I1124 13:27:34.802403 13084 net.cpp:157] Top shape: 64 1024 7 7 (3211264)
I1124 13:27:34.802407 13084 net.cpp:165] Memory required for data: 3588898312
I1124 13:27:34.802409 13084 layer_factory.hpp:76] Creating layer pool5/7x7_s1
I1124 13:27:34.802415 13084 net.cpp:106] Creating Layer pool5/7x7_s1
I1124 13:27:34.802419 13084 net.cpp:454] pool5/7x7_s1 <- inception_5b/output
I1124 13:27:34.802425 13084 net.cpp:411] pool5/7x7_s1 -> pool5/7x7_s1
I1124 13:27:34.802778 13084 net.cpp:150] Setting up pool5/7x7_s1
I1124 13:27:34.802793 13084 net.cpp:157] Top shape: 64 1024 1 1 (65536)
I1124 13:27:34.802795 13084 net.cpp:165] Memory required for data: 3589160456
I1124 13:27:34.802799 13084 layer_factory.hpp:76] Creating layer pool5/drop_7x7_s1
I1124 13:27:34.802808 13084 net.cpp:106] Creating Layer pool5/drop_7x7_s1
I1124 13:27:34.802811 13084 net.cpp:454] pool5/drop_7x7_s1 <- pool5/7x7_s1
I1124 13:27:34.802815 13084 net.cpp:397] pool5/drop_7x7_s1 -> pool5/7x7_s1 (in-place)
I1124 13:27:34.802851 13084 net.cpp:150] Setting up pool5/drop_7x7_s1
I1124 13:27:34.802860 13084 net.cpp:157] Top shape: 64 1024 1 1 (65536)
I1124 13:27:34.802863 13084 net.cpp:165] Memory required for data: 3589422600
I1124 13:27:34.802866 13084 layer_factory.hpp:76] Creating layer loss3/classifier-attribute
I1124 13:27:34.802873 13084 net.cpp:106] Creating Layer loss3/classifier-attribute
I1124 13:27:34.802876 13084 net.cpp:454] loss3/classifier-attribute <- pool5/7x7_s1
I1124 13:27:34.802882 13084 net.cpp:411] loss3/classifier-attribute -> loss3/classifier-attribute
I1124 13:27:34.803113 13084 net.cpp:150] Setting up loss3/classifier-attribute
I1124 13:27:34.803123 13084 net.cpp:157] Top shape: 64 13 (832)
I1124 13:27:34.803127 13084 net.cpp:165] Memory required for data: 3589425928
I1124 13:27:34.803133 13084 layer_factory.hpp:76] Creating layer loss3/loss3
I1124 13:27:34.803138 13084 net.cpp:106] Creating Layer loss3/loss3
I1124 13:27:34.803143 13084 net.cpp:454] loss3/loss3 <- loss3/classifier-attribute
I1124 13:27:34.803146 13084 net.cpp:454] loss3/loss3 <- label_data_1_split_2
I1124 13:27:34.803151 13084 net.cpp:411] loss3/loss3 -> loss3/loss3
…
I1124 13:27:34.813462 13084 net.cpp:322] The NetState phase (1) differed from the phase (0) specified by a rule in layer data
I1124 13:27:34.815754 13084 net.cpp:49] Initializing net from parameters: 
name: "GoogleNet-finetune-for-cigit"
state {
  phase: TEST
}
layer {
  name: "data"
  type: "ImageData"
  top: "data"
  top: "label"
  include {
    phase: TEST
  }
  transform_param {
    mirror: false
    crop_size: 224
    mean_value: 104
    mean_value: 117
    mean_value: 123
  }
  image_data_param {
    source: "pad_test.txt"
    batch_size: 64
    new_height: 256
    new_width: 256
  }
}
layer {
  name: "conv1/7x7_s2"
  type: "Convolution"
  bottom: "data"
  top: "conv1/7x7_s2"
  param {
    lr_mult: 1
    decay_mult: 1
  }
  param {
    lr_mult: 2
    decay_mult: 0
  }
  convolution_param {
    num_output: 64
    pad: 3
    kernel_size: 7
    stride: 2
    weight_filler {
      type: "xavier"
    }
    bias_filler {
      type: "constant"
      value: 0.2
    }
  }
}
layer {
  name: "conv1/relu_7x7"
  type: "ReLU"
  bottom: "conv1/7x7_s2"
  top: "conv1/7x7_s2"
}
layer {
  name: "pool1/3x3_s2"
  type: "Pooling"
  bottom: "conv1/7x7_s2"
  top: "pool1/3x3_s2"
  pooling_param {
    pool: MAX
    kernel_size: 3
    stride: 2
  }
}
layer {
  name: "pool1/norm1"
  type: "LRN"
  bottom: "pool1/3x3_s2"
  top: "pool1/norm1"
  lrn_param {
    local_size: 5
    alpha: 0.0001
    beta: 0.75
  }
}
layer {
  name: "conv2/3x3_reduce"
  type: "Convolution"
  bottom: "pool1/norm1"
  top: "conv2/3x3_reduce"
  param {
    lr_mult: 1
    decay_mult: 1
  }
  param {
    lr_mult: 2
    decay_mult: 0
  }
  convolution_param {
    num_output: 64
    kernel_size: 1
    weight_filler {
      type: "xavier"
    }
    bias_filler {
      type: "constant"
      value: 0.2
    }
  }
}
layer {
  name: "conv2/relu_3x3_reduce"
  type: "ReLU"
  bottom: "conv2/3x3_reduce"
  top: "conv2/3x3_reduce"
}
layer {
  name: "conv2/3x3"
  type: "Convolution"
  bottom: "conv2/3x3_reduce"
  top: "conv2/3x3"
  param {
    lr_mult: 1
    decay_mult: 1
  }
  param {
    lr_mult: 2
    decay_mult: 0
  }
  convolution_param {
    num_output: 192
    pad: 1
    kernel_size: 3
    weight_filler {
      type: "xavier"
    }
    bias_filler {
      type: "constant"
      value: 0.2
    }
  }
}
layer {
  name: "conv2/relu_3x3"
  type: "ReLU"
  bottom: "conv2/3x3"
  top: "conv2/3x3"
}
layer {
  name: "conv2/norm2"
  type: "LRN"
  bottom: "conv2/3x3"
  top: "conv2/norm2"
  lrn_param {
    local_size: 5
    alpha: 0.0001
    beta: 0.75
  }
}
layer {
  name: "pool2/3x3_s2"
  type: "Pooling"
  bottom: "conv2/norm2"
  top: "pool2/3x3_s2"
  pooling_param {
    pool: MAX
    kernel_size: 3
    stride: 2
  }
}
layer {
  name: "inception_3a/1x1"
  type: "Convolution"
  bottom: "pool2/3x3_s2"
  top: "inception_3a/1x1"
  param {
    lr_mult: 1
    decay_mult: 1
  }
  param {
    lr_mult: 2
    decay_mult: 0
  }
  convolution_param {
    num_output: 64
    kernel_size: 1
    weight_filler {
      type: "xavier"
    }
    bias_filler {
      type: "constant"
      value: 0.2
    }
  }
}
layer {
  name: "inception_3a/relu_1x1"
  type: "ReLU"
  bottom: "inception_3a/1x1"
  top: "inception_3a/1x1"
}
layer {
  name: "inception_3a/3x3_reduce"
  type: "Convolution"
  bottom: "pool2/3x3_s2"
  top: "inception_3a/3x3_reduce"
  param {
    lr_mult: 1
    decay_mult: 1
  }
  param {
    lr_mult: 2
    decay_mult: 0
  }
  convolution_param {
    num_output: 96
    kernel_size: 1
    weight_filler {
      type: "xavier"
    }
    bias_filler {
      type: "constant"
      value: 0.2
    }
  }
}
layer {
  name: "inception_3a/relu_3x3_reduce"
  type: "ReLU"
  bottom: "inception_3a/3x3_reduce"
  top: "inception_3a/3x3_reduce"
}
layer {
  name: "inception_3a/3x3"
  type: "Convolution"
  bottom: "inception_3a/3x3_reduce"
  top: "inception_3a/3x3"
  param {
    lr_mult: 1
    decay_mult: 1
  }
  param {
    lr_mult: 2
    decay_mult: 0
  }
  convolution_param {
    num_output: 128
    pad: 1
    kernel_size: 3
    weight_filler {
      type: "xavier"
    }
    bias_filler {
      type: "constant"
      value: 0.2
    }
  }
}
layer {
  name: "inception_3a/relu_3x3"
  type: "ReLU"
  bottom: "inception_3a/3x3"
  top: "inception_3a/3x3"
}
layer {
  name: "inception_3a/5x5_reduce"
  type: "Convolution"
  bottom: "pool2/3x3_s2"
  top: "inception_3a/5x5_reduce"
  param {
    lr_mult: 1
    decay_mult: 1
  }
  param {
    lr_mult: 2
    decay_mult: 0
  }
  convolution_param {
    num_output: 16
    kernel_size: 1
    weight_filler {
      type: "xavier"
    }
    bias_filler {
      type: "constant"
      value: 0.2
    }
  }
}
layer {
  name: "inception_3a/relu_5x5_reduce"
  type: "ReLU"
  bottom: "inception_3a/5x5_reduce"
  top: "inception_3a/5x5_reduce"
}
layer {
  name: "inception_3a/5x5"
  type: "Convolution"
  bottom: "inception_3a/5x5_reduce"
  top: "inception_3a/5x5"
  param {
    lr_mult: 1
    decay_mult: 1
  }
  param {
    lr_mult: 2
    decay_mult: 0
  }
  convolution_param {
    num_output: 32
    pad: 2
    kernel_size: 5
    weight_filler {
      type: "xavier"
    }
    bias_filler {
      type: "constant"
      value: 0.2
    }
  }
}
layer {
  name: "inception_3a/relu_5x5"
  type: "ReLU"
  bottom: "inception_3a/5x5"
  top: "inception_3a/5x5"
}
layer {
  name: "inception_3a/pool"
  type: "Pooling"
  bottom: "pool2/3x3_s2"
  top: "inception_3a/pool"
  pooling_param {
    pool: MAX
    kernel_size: 3
    stride: 1
    pad: 1
  }
}
layer {
  name: "inception_3a/pool_proj"
  type: "Convolution"
  bottom: "inception_3a/pool"
  top: "inception_3a/pool_proj"
  param {
    lr_mult: 1
    decay_mult: 1
  }
  param {
    lr_mult: 2
    decay_mult: 0
  }
  convolution_param {
    num_output: 32
    kernel_size: 1
    weight_filler {
      type: "xavier"
    }
    bias_filler {
      type: "constant"
      value: 0.2
    }
  }
}
layer {
  name: "inception_3a/relu_pool_proj"
  type: "ReLU"
  bottom: "inception_3a/pool_proj"
  top: "inception_3a/pool_proj"
}
layer {
  name: "inception_3a/output"
  type: "Concat"
  bottom: "inception_3a/1x1"
  bottom: "inception_3a/3x3"
  bottom: "inception_3a/5x5"
  bottom: "inception_3a/pool_proj"
  top: "inception_3a/output"
}
layer {
  name: "inception_3b/1x1"
  type: "Convolution"
  bottom: "inception_3a/output"
  top: "inception_3b/1x1"
  param {
    lr_mult: 1
    decay_mult: 1
  }
  param {
    lr_mult: 2
    decay_mult: 0
  }
  convolution_param {
    num_output: 128
    kernel_size: 1
    weight_filler {
      type: "xavier"
    }
    bias_filler {
      type: "constant"
      value: 0.2
    }
  }
}
layer {
  name: "inception_3b/relu_1x1"
  type: "ReLU"
  bottom: "inception_3b/1x1"
  top: "inception_3b/1x1"
}
layer {
  name: "inception_3b/3x3_reduce"
  type: "Convolution"
  bottom: "inception_3a/output"
  top: "inception_3b/3x3_reduce"
  param {
    lr_mult: 1
    decay_mult: 1
  }
  param {
    lr_mult: 2
    decay_mult: 0
  }
  convolution_param {
    num_output: 128
    kernel_size: 1
    weight_filler {
      type: "xavier"
    }
    bias_filler {
      type: "constant"
      value: 0.2
    }
  }
}
layer {
  name: "inception_3b/relu_3x3_reduce"
  type: "ReLU"
  bottom: "inception_3b/3x3_reduce"
  top: "inception_3b/3x3_reduce"
}
layer {
  name: "inception_3b/3x3"
  type: "Convolution"
  bottom: "inception_3b/3x3_reduce"
  top: "inception_3b/3x3"
  param {
    lr_mult: 1
    decay_mult: 1
  }
  param {
    lr_mult: 2
    decay_mult: 0
  }
  convolution_param {
    num_output: 192
    pad: 1
    kernel_size: 3
    weight_filler {
      type: "xavier"
    }
    bias_filler {
      type: "constant"
      value: 0.2
    }
  }
}
layer {
  name: "inception_3b/relu_3x3"
  type: "ReLU"
  bottom: "inception_3b/3x3"
  top: "inception_3b/3x3"
}
layer {
  name: "inception_3b/5x5_reduce"
  type: "Convolution"
  bottom: "inception_3a/output"
  top: "inception_3b/5x5_reduce"
  param {
    lr_mult: 1
    decay_mult: 1
  }
  param {
    lr_mult: 2
    decay_mult: 0
  }
  convolution_param {
    num_output: 32
    kernel_size: 1
    weight_filler {
      type: "xavier"
    }
    bias_filler {
      type: "constant"
      value: 0.2
    }
  }
}
layer {
  name: "inception_3b/relu_5x5_reduce"
  type: "ReLU"
  bottom: "inception_3b/5x5_reduce"
  top: "inception_3b/5x5_reduce"
}
layer {
  name: "inception_3b/5x5"
  type: "Convolution"
  bottom: "inception_3b/5x5_reduce"
  top: "inception_3b/5x5"
  param {
    lr_mult: 1
    decay_mult: 1
  }
  param {
    lr_mult: 2
    decay_mult: 0
  }
  convolution_param {
    num_output: 96
    pad: 2
    kernel_size: 5
    weight_filler {
      type: "xavier"
    }
    bias_filler {
      type: "constant"
      value: 0.2
    }
  }
}
layer {
  name: "inception_3b/relu_5x5"
  type: "ReLU"
  bottom: "inception_3b/5x5"
  top: "inception_3b/5x5"
}
layer {
  name: "inception_3b/pool"
  type: "Pooling"
  bottom: "inception_3a/output"
  top: "inception_3b/pool"
  pooling_param {
    pool: MAX
    kernel_size: 3
    stride: 1
    pad: 1
  }
}
layer {
  name: "inception_3b/pool_proj"
  type: "Convolution"
  bottom: "inception_3b/pool"
  top: "inception_3b/pool_proj"
  param {
    lr_mult: 1
    decay_mult: 1
  }
  param {
    lr_mult: 2
    decay_mult: 0
  }
  convolution_param {
    num_output: 64
    kernel_size: 1
    weight_filler {
      type: "xavier"
    }
    bias_filler {
      type: "constant"
      value: 0.2
    }
  }
}
layer {
  name: "inception_3b/relu_pool_proj"
  type: "ReLU"
  bottom: "inception_3b/pool_proj"
  top: "inception_3b/pool_proj"
}
layer {
  name: "inception_3b/output"
  type: "Concat"
  bottom: "inception_3b/1x1"
  bottom: "inception_3b/3x3"
  bottom: "inception_3b/5x5"
  bottom: "inception_3b/pool_proj"
  top: "inception_3b/output"
}
layer {
  name: "pool3/3x3_s2"
  type: "Pooling"
  bottom: "inception_3b/output"
  top: "pool3/3x3_s2"
  pooling_param {
    pool: MAX
    kernel_size: 3
    stride: 2
  }
}
layer {
  name: "inception_4a/1x1"
  type: "Convolution"
  bottom: "pool3/3x3_s2"
  top: "inception_4a/1x1"
  param {
    lr_mult: 1
    decay_mult: 1
  }
  param {
    lr_mult: 2
    decay_mult: 0
  }
  convolution_param {
    num_output: 192
    kernel_size: 1
    weight_filler {
      type: "xavier"
    }
    bias_filler {
      type: "constant"
      value: 0.2
    }
  }
}
layer {
  name: "inception_4a/relu_1x1"
  type: "ReLU"
  bottom: "inception_4a/1x1"
  top: "inception_4a/1x1"
}
layer {
  name: "inception_4a/3x3_reduce"
  type: "Convolution"
  bottom: "pool3/3x3_s2"
  top: "inception_4a/3x3_reduce"
  param {
    lr_mult: 1
    decay_mult: 1
  }
  param {
    lr_mult: 2
    decay_mult: 0
  }
  convolution_param {
    num_output: 96
    kernel_size: 1
    weight_filler {
      type: "xavier"
    }
    bias_filler {
      type: "constant"
      value: 0.2
    }
  }
}
layer {
  name: "inception_4a/relu_3x3_reduce"
  type: "ReLU"
  bottom: "inception_4a/3x3_reduce"
  top: "inception_4a/3x3_reduce"
}
layer {
  name: "inception_4a/3x3"
  type: "Convolution"
  bottom: "inception_4a/3x3_reduce"
  top: "inception_4a/3x3"
  param {
    lr_mult: 1
    decay_mult: 1
  }
  param {
    lr_mult: 2
    decay_mult: 0
  }
  convolution_param {
    num_output: 208
    pad: 1
    kernel_size: 3
    weight_filler {
      type: "xavier"
    }
    bias_filler {
      type: "constant"
      value: 0.2
    }
  }
}
layer {
  name: "inception_4a/relu_3x3"
  type: "ReLU"
  bottom: "inception_4a/3x3"
  top: "inception_4a/3x3"
}
layer {
  name: "inception_4a/5x5_reduce"
  type: "Convolution"
  bottom: "pool3/3x3_s2"
  top: "inception_4a/5x5_reduce"
  param {
    lr_mult: 1
    decay_mult: 1
  }
  param {
    lr_mult: 2
    decay_mult: 0
  }
  convolution_param {
    num_output: 16
    kernel_size: 1
    weight_filler {
      type: "xavier"
    }
    bias_filler {
      type: "constant"
      value: 0.2
    }
  }
}
layer {
  name: "inception_4a/relu_5x5_reduce"
  type: "ReLU"
  bottom: "inception_4a/5x5_reduce"
  top: "inception_4a/5x5_reduce"
}
layer {
  name: "inception_4a/5x5"
  type: "Convolution"
  bottom: "inception_4a/5x5_reduce"
  top: "inception_4a/5x5"
  param {
    lr_mult: 1
    decay_mult: 1
  }
  param {
    lr_mult: 2
    decay_mult: 0
  }
  convolution_param {
    num_output: 48
    pad: 2
    kernel_size: 5
    weight_filler {
      type: "xavier"
    }
    bias_filler {
      type: "constant"
      value: 0.2
    }
  }
}
layer {
  name: "inception_4a/relu_5x5"
  type: "ReLU"
  bottom: "inception_4a/5x5"
  top: "inception_4a/5x5"
}
layer {
  name: "inception_4a/pool"
  type: "Pooling"
  bottom: "pool3/3x3_s2"
  top: "inception_4a/pool"
  pooling_param {
    pool: MAX
    kernel_size: 3
    stride: 1
    pad: 1
  }
}
layer {
  name: "inception_4a/pool_proj"
  type: "Convolution"
  bottom: "inception_4a/pool"
  top: "inception_4a/pool_proj"
  param {
    lr_mult: 1
    decay_mult: 1
  }
  param {
    lr_mult: 2
    decay_mult: 0
  }
  convolution_param {
    num_output: 64
    kernel_size: 1
    weight_filler {
      type: "xavier"
    }
    bias_filler {
      type: "constant"
      value: 0.2
    }
  }
}
layer {
  name: "inception_4a/relu_pool_proj"
  type: "ReLU"
  bottom: "inception_4a/pool_proj"
  top: "inception_4a/pool_proj"
}
layer {
  name: "inception_4a/output"
  type: "Concat"
  bottom: "inception_4a/1x1"
  bottom: "inception_4a/3x3"
  bottom: "inception_4a/5x5"
  bottom: "inception_4a/pool_proj"
  top: "inception_4a/output"
}
layer {
  name: "loss1/ave_pool"
  type: "Pooling"
  bottom: "inception_4a/output"
  top: "loss1/ave_pool"
  pooling_param {
    pool: AVE
    kernel_size: 5
    stride: 3
  }
}
layer {
  name: "loss1/conv"
  type: "Convolution"
  bottom: "loss1/ave_pool"
  top: "loss1/conv"
  param {
    lr_mult: 1
    decay_mult: 1
  }
  param {
    lr_mult: 2
    decay_mult: 0
  }
  convolution_param {
    num_output: 128
    kernel_size: 1
    weight_filler {
      type: "xavier"
    }
    bias_filler {
      type: "constant"
      value: 0.2
    }
  }
}
layer {
  name: "loss1/relu_conv"
  type: "ReLU"
  bottom: "loss1/conv"
  top: "loss1/conv"
}
layer {
  name: "loss1/fc"
  type: "InnerProduct"
  bottom: "loss1/conv"
  top: "loss1/fc"
  param {
    lr_mult: 1
    decay_mult: 1
  }
  param {
    lr_mult: 2
    decay_mult: 0
  }
  inner_product_param {
…
I1124 13:27:35.013967 13084 layer_factory.hpp:76] Creating layer inception_4c/pool
I1124 13:27:35.013973 13084 net.cpp:106] Creating Layer inception_4c/pool
I1124 13:27:35.013978 13084 net.cpp:454] inception_4c/pool <- inception_4b/output_inception_4b/output_0_split_3
I1124 13:27:35.013986 13084 net.cpp:411] inception_4c/pool -> inception_4c/pool
I1124 13:27:35.014243 13084 net.cpp:150] Setting up inception_4c/pool
I1124 13:27:35.014256 13084 net.cpp:157] Top shape: 64 512 14 14 (6422528)
I1124 13:27:35.014258 13084 net.cpp:165] Memory required for data: 2828250632
I1124 13:27:35.014262 13084 layer_factory.hpp:76] Creating layer inception_4c/pool_proj
I1124 13:27:35.014271 13084 net.cpp:106] Creating Layer inception_4c/pool_proj
I1124 13:27:35.014276 13084 net.cpp:454] inception_4c/pool_proj <- inception_4c/pool
I1124 13:27:35.014283 13084 net.cpp:411] inception_4c/pool_proj -> inception_4c/pool_proj
I1124 13:27:35.015789 13084 net.cpp:150] Setting up inception_4c/pool_proj
I1124 13:27:35.015805 13084 net.cpp:157] Top shape: 64 64 14 14 (802816)
I1124 13:27:35.015808 13084 net.cpp:165] Memory required for data: 2831461896
I1124 13:27:35.015815 13084 layer_factory.hpp:76] Creating layer inception_4c/relu_pool_proj
I1124 13:27:35.015825 13084 net.cpp:106] Creating Layer inception_4c/relu_pool_proj
I1124 13:27:35.015830 13084 net.cpp:454] inception_4c/relu_pool_proj <- inception_4c/pool_proj
I1124 13:27:35.015836 13084 net.cpp:397] inception_4c/relu_pool_proj -> inception_4c/pool_proj (in-place)
I1124 13:27:35.016198 13084 net.cpp:150] Setting up inception_4c/relu_pool_proj
I1124 13:27:35.016213 13084 net.cpp:157] Top shape: 64 64 14 14 (802816)
I1124 13:27:35.016218 13084 net.cpp:165] Memory required for data: 2834673160
I1124 13:27:35.016222 13084 layer_factory.hpp:76] Creating layer inception_4c/output
I1124 13:27:35.016232 13084 net.cpp:106] Creating Layer inception_4c/output
I1124 13:27:35.016237 13084 net.cpp:454] inception_4c/output <- inception_4c/1x1
I1124 13:27:35.016242 13084 net.cpp:454] inception_4c/output <- inception_4c/3x3
I1124 13:27:35.016245 13084 net.cpp:454] inception_4c/output <- inception_4c/5x5
I1124 13:27:35.016249 13084 net.cpp:454] inception_4c/output <- inception_4c/pool_proj
I1124 13:27:35.016253 13084 net.cpp:411] inception_4c/output -> inception_4c/output
I1124 13:27:35.016302 13084 net.cpp:150] Setting up inception_4c/output
I1124 13:27:35.016311 13084 net.cpp:157] Top shape: 64 512 14 14 (6422528)
I1124 13:27:35.016314 13084 net.cpp:165] Memory required for data: 2860363272
I1124 13:27:35.016317 13084 layer_factory.hpp:76] Creating layer inception_4c/output_inception_4c/output_0_split
I1124 13:27:35.016324 13084 net.cpp:106] Creating Layer inception_4c/output_inception_4c/output_0_split
I1124 13:27:35.016326 13084 net.cpp:454] inception_4c/output_inception_4c/output_0_split <- inception_4c/output
I1124 13:27:35.016335 13084 net.cpp:411] inception_4c/output_inception_4c/output_0_split -> inception_4c/output_inception_4c/output_0_split_0
I1124 13:27:35.016340 13084 net.cpp:411] inception_4c/output_inception_4c/output_0_split -> inception_4c/output_inception_4c/output_0_split_1
I1124 13:27:35.016348 13084 net.cpp:411] inception_4c/output_inception_4c/output_0_split -> inception_4c/output_inception_4c/output_0_split_2
I1124 13:27:35.016353 13084 net.cpp:411] inception_4c/output_inception_4c/output_0_split -> inception_4c/output_inception_4c/output_0_split_3
I1124 13:27:35.016451 13084 net.cpp:150] Setting up inception_4c/output_inception_4c/output_0_split
I1124 13:27:35.016459 13084 net.cpp:157] Top shape: 64 512 14 14 (6422528)
I1124 13:27:35.016463 13084 net.cpp:157] Top shape: 64 512 14 14 (6422528)
I1124 13:27:35.016466 13084 net.cpp:157] Top shape: 64 512 14 14 (6422528)
I1124 13:27:35.016470 13084 net.cpp:157] Top shape: 64 512 14 14 (6422528)
I1124 13:27:35.016472 13084 net.cpp:165] Memory required for data: 2963123720
I1124 13:27:35.016475 13084 layer_factory.hpp:76] Creating layer inception_4d/1x1
I1124 13:27:35.016484 13084 net.cpp:106] Creating Layer inception_4d/1x1
I1124 13:27:35.016489 13084 net.cpp:454] inception_4d/1x1 <- inception_4c/output_inception_4c/output_0_split_0
I1124 13:27:35.016495 13084 net.cpp:411] inception_4d/1x1 -> inception_4d/1x1
I1124 13:27:35.017963 13084 net.cpp:150] Setting up inception_4d/1x1
I1124 13:27:35.017978 13084 net.cpp:157] Top shape: 64 112 14 14 (1404928)
I1124 13:27:35.017983 13084 net.cpp:165] Memory required for data: 2968743432
I1124 13:27:35.017990 13084 layer_factory.hpp:76] Creating layer inception_4d/relu_1x1
I1124 13:27:35.017997 13084 net.cpp:106] Creating Layer inception_4d/relu_1x1
I1124 13:27:35.018002 13084 net.cpp:454] inception_4d/relu_1x1 <- inception_4d/1x1
I1124 13:27:35.018007 13084 net.cpp:397] inception_4d/relu_1x1 -> inception_4d/1x1 (in-place)
I1124 13:27:35.018374 13084 net.cpp:150] Setting up inception_4d/relu_1x1
I1124 13:27:35.018388 13084 net.cpp:157] Top shape: 64 112 14 14 (1404928)
I1124 13:27:35.018393 13084 net.cpp:165] Memory required for data: 2974363144
I1124 13:27:35.018398 13084 layer_factory.hpp:76] Creating layer inception_4d/3x3_reduce
I1124 13:27:35.018406 13084 net.cpp:106] Creating Layer inception_4d/3x3_reduce
I1124 13:27:35.018412 13084 net.cpp:454] inception_4d/3x3_reduce <- inception_4c/output_inception_4c/output_0_split_1
I1124 13:27:35.018419 13084 net.cpp:411] inception_4d/3x3_reduce -> inception_4d/3x3_reduce
I1124 13:27:35.020202 13084 net.cpp:150] Setting up inception_4d/3x3_reduce
I1124 13:27:35.020220 13084 net.cpp:157] Top shape: 64 144 14 14 (1806336)
I1124 13:27:35.020225 13084 net.cpp:165] Memory required for data: 2981588488
I1124 13:27:35.020231 13084 layer_factory.hpp:76] Creating layer inception_4d/relu_3x3_reduce
I1124 13:27:35.020236 13084 net.cpp:106] Creating Layer inception_4d/relu_3x3_reduce
I1124 13:27:35.020241 13084 net.cpp:454] inception_4d/relu_3x3_reduce <- inception_4d/3x3_reduce
I1124 13:27:35.020248 13084 net.cpp:397] inception_4d/relu_3x3_reduce -> inception_4d/3x3_reduce (in-place)
I1124 13:27:35.020457 13084 net.cpp:150] Setting up inception_4d/relu_3x3_reduce
I1124 13:27:35.020472 13084 net.cpp:157] Top shape: 64 144 14 14 (1806336)
I1124 13:27:35.020475 13084 net.cpp:165] Memory required for data: 2988813832
I1124 13:27:35.020478 13084 layer_factory.hpp:76] Creating layer inception_4d/3x3
I1124 13:27:35.020486 13084 net.cpp:106] Creating Layer inception_4d/3x3
I1124 13:27:35.020490 13084 net.cpp:454] inception_4d/3x3 <- inception_4d/3x3_reduce
I1124 13:27:35.020498 13084 net.cpp:411] inception_4d/3x3 -> inception_4d/3x3
I1124 13:27:35.024714 13084 net.cpp:150] Setting up inception_4d/3x3
I1124 13:27:35.024730 13084 net.cpp:157] Top shape: 64 288 14 14 (3612672)
I1124 13:27:35.024735 13084 net.cpp:165] Memory required for data: 3003264520
I1124 13:27:35.024741 13084 layer_factory.hpp:76] Creating layer inception_4d/relu_3x3
I1124 13:27:35.024749 13084 net.cpp:106] Creating Layer inception_4d/relu_3x3
I1124 13:27:35.024752 13084 net.cpp:454] inception_4d/relu_3x3 <- inception_4d/3x3
I1124 13:27:35.024758 13084 net.cpp:397] inception_4d/relu_3x3 -> inception_4d/3x3 (in-place)
I1124 13:27:35.025110 13084 net.cpp:150] Setting up inception_4d/relu_3x3
I1124 13:27:35.025125 13084 net.cpp:157] Top shape: 64 288 14 14 (3612672)
I1124 13:27:35.025128 13084 net.cpp:165] Memory required for data: 3017715208
I1124 13:27:35.025131 13084 layer_factory.hpp:76] Creating layer inception_4d/5x5_reduce
I1124 13:27:35.025141 13084 net.cpp:106] Creating Layer inception_4d/5x5_reduce
I1124 13:27:35.025146 13084 net.cpp:454] inception_4d/5x5_reduce <- inception_4c/output_inception_4c/output_0_split_2
I1124 13:27:35.025153 13084 net.cpp:411] inception_4d/5x5_reduce -> inception_4d/5x5_reduce
I1124 13:27:35.026535 13084 net.cpp:150] Setting up inception_4d/5x5_reduce
I1124 13:27:35.026551 13084 net.cpp:157] Top shape: 64 32 14 14 (401408)
I1124 13:27:35.026554 13084 net.cpp:165] Memory required for data: 3019320840
I1124 13:27:35.026561 13084 layer_factory.hpp:76] Creating layer inception_4d/relu_5x5_reduce
I1124 13:27:35.026566 13084 net.cpp:106] Creating Layer inception_4d/relu_5x5_reduce
I1124 13:27:35.026571 13084 net.cpp:454] inception_4d/relu_5x5_reduce <- inception_4d/5x5_reduce
I1124 13:27:35.026577 13084 net.cpp:397] inception_4d/relu_5x5_reduce -> inception_4d/5x5_reduce (in-place)
I1124 13:27:35.026942 13084 net.cpp:150] Setting up inception_4d/relu_5x5_reduce
I1124 13:27:35.026957 13084 net.cpp:157] Top shape: 64 32 14 14 (401408)
I1124 13:27:35.026960 13084 net.cpp:165] Memory required for data: 3020926472
I1124 13:27:35.026964 13084 layer_factory.hpp:76] Creating layer inception_4d/5x5
I1124 13:27:35.026973 13084 net.cpp:106] Creating Layer inception_4d/5x5
I1124 13:27:35.026978 13084 net.cpp:454] inception_4d/5x5 <- inception_4d/5x5_reduce
I1124 13:27:35.026986 13084 net.cpp:411] inception_4d/5x5 -> inception_4d/5x5
I1124 13:27:35.028623 13084 net.cpp:150] Setting up inception_4d/5x5
I1124 13:27:35.028640 13084 net.cpp:157] Top shape: 64 64 14 14 (802816)
I1124 13:27:35.028645 13084 net.cpp:165] Memory required for data: 3024137736
I1124 13:27:35.028650 13084 layer_factory.hpp:76] Creating layer inception_4d/relu_5x5
I1124 13:27:35.028656 13084 net.cpp:106] Creating Layer inception_4d/relu_5x5
I1124 13:27:35.028661 13084 net.cpp:454] inception_4d/relu_5x5 <- inception_4d/5x5
I1124 13:27:35.028666 13084 net.cpp:397] inception_4d/relu_5x5 -> inception_4d/5x5 (in-place)
I1124 13:27:35.028882 13084 net.cpp:150] Setting up inception_4d/relu_5x5
I1124 13:27:35.028894 13084 net.cpp:157] Top shape: 64 64 14 14 (802816)
I1124 13:27:35.028898 13084 net.cpp:165] Memory required for data: 3027349000
I1124 13:27:35.028901 13084 layer_factory.hpp:76] Creating layer inception_4d/pool
I1124 13:27:35.028908 13084 net.cpp:106] Creating Layer inception_4d/pool
I1124 13:27:35.028911 13084 net.cpp:454] inception_4d/pool <- inception_4c/output_inception_4c/output_0_split_3
I1124 13:27:35.028918 13084 net.cpp:411] inception_4d/pool -> inception_4d/pool
I1124 13:27:35.029331 13084 net.cpp:150] Setting up inception_4d/pool
I1124 13:27:35.029346 13084 net.cpp:157] Top shape: 64 512 14 14 (6422528)
I1124 13:27:35.029350 13084 net.cpp:165] Memory required for data: 3053039112
I1124 13:27:35.029353 13084 layer_factory.hpp:76] Creating layer inception_4d/pool_proj
I1124 13:27:35.029362 13084 net.cpp:106] Creating Layer inception_4d/pool_proj
I1124 13:27:35.029367 13084 net.cpp:454] inception_4d/pool_proj <- inception_4d/pool
I1124 13:27:35.029376 13084 net.cpp:411] inception_4d/pool_proj -> inception_4d/pool_proj
I1124 13:27:35.030922 13084 net.cpp:150] Setting up inception_4d/pool_proj
I1124 13:27:35.030938 13084 net.cpp:157] Top shape: 64 64 14 14 (802816)
I1124 13:27:35.030942 13084 net.cpp:165] Memory required for data: 3056250376
I1124 13:27:35.030949 13084 layer_factory.hpp:76] Creating layer inception_4d/relu_pool_proj
I1124 13:27:35.030956 13084 net.cpp:106] Creating Layer inception_4d/relu_pool_proj
I1124 13:27:35.030959 13084 net.cpp:454] inception_4d/relu_pool_proj <- inception_4d/pool_proj
I1124 13:27:35.030964 13084 net.cpp:397] inception_4d/relu_pool_proj -> inception_4d/pool_proj (in-place)
I1124 13:27:35.031167 13084 net.cpp:150] Setting up inception_4d/relu_pool_proj
I1124 13:27:35.031178 13084 net.cpp:157] Top shape: 64 64 14 14 (802816)
I1124 13:27:35.031183 13084 net.cpp:165] Memory required for data: 3059461640
I1124 13:27:35.031185 13084 layer_factory.hpp:76] Creating layer inception_4d/output
I1124 13:27:35.031193 13084 net.cpp:106] Creating Layer inception_4d/output
I1124 13:27:35.031198 13084 net.cpp:454] inception_4d/output <- inception_4d/1x1
I1124 13:27:35.031203 13084 net.cpp:454] inception_4d/output <- inception_4d/3x3
I1124 13:27:35.031206 13084 net.cpp:454] inception_4d/output <- inception_4d/5x5
I1124 13:27:35.031209 13084 net.cpp:454] inception_4d/output <- inception_4d/pool_proj
I1124 13:27:35.031214 13084 net.cpp:411] inception_4d/output -> inception_4d/output
I1124 13:27:35.031262 13084 net.cpp:150] Setting up inception_4d/output
I1124 13:27:35.031271 13084 net.cpp:157] Top shape: 64 528 14 14 (6623232)
I1124 13:27:35.031275 13084 net.cpp:165] Memory required for data: 3085954568
I1124 13:27:35.031277 13084 layer_factory.hpp:76] Creating layer inception_4d/output_inception_4d/output_0_split
I1124 13:27:35.031283 13084 net.cpp:106] Creating Layer inception_4d/output_inception_4d/output_0_split
I1124 13:27:35.031287 13084 net.cpp:454] inception_4d/output_inception_4d/output_0_split <- inception_4d/output
I1124 13:27:35.031294 13084 net.cpp:411] inception_4d/output_inception_4d/output_0_split -> inception_4d/output_inception_4d/output_0_split_0
I1124 13:27:35.031301 13084 net.cpp:411] inception_4d/output_inception_4d/output_0_split -> inception_4d/output_inception_4d/output_0_split_1
I1124 13:27:35.031311 13084 net.cpp:411] inception_4d/output_inception_4d/output_0_split -> inception_4d/output_inception_4d/output_0_split_2
I1124 13:27:35.031316 13084 net.cpp:411] inception_4d/output_inception_4d/output_0_split -> inception_4d/output_inception_4d/output_0_split_3
I1124 13:27:35.031321 13084 net.cpp:411] inception_4d/output_inception_4d/output_0_split -> inception_4d/output_inception_4d/output_0_split_4
I1124 13:27:35.031436 13084 net.cpp:150] Setting up inception_4d/output_inception_4d/output_0_split
I1124 13:27:35.031445 13084 net.cpp:157] Top shape: 64 528 14 14 (6623232)
I1124 13:27:35.031448 13084 net.cpp:157] Top shape: 64 528 14 14 (6623232)
I1124 13:27:35.031452 13084 net.cpp:157] Top shape: 64 528 14 14 (6623232)
I1124 13:27:35.031455 13084 net.cpp:157] Top shape: 64 528 14 14 (6623232)
I1124 13:27:35.031460 13084 net.cpp:157] Top shape: 64 528 14 14 (6623232)
I1124 13:27:35.031461 13084 net.cpp:165] Memory required for data: 3218419208
I1124 13:27:35.031465 13084 layer_factory.hpp:76] Creating layer loss2/ave_pool
I1124 13:27:35.031472 13084 net.cpp:106] Creating Layer loss2/ave_pool
I1124 13:27:35.031476 13084 net.cpp:454] loss2/ave_pool <- inception_4d/output_inception_4d/output_0_split_0
I1124 13:27:35.031481 13084 net.cpp:411] loss2/ave_pool -> loss2/ave_pool
I1124 13:27:35.031874 13084 net.cpp:150] Setting up loss2/ave_pool
I1124 13:27:35.031888 13084 net.cpp:157] Top shape: 64 528 4 4 (540672)
I1124 13:27:35.031893 13084 net.cpp:165] Memory required for data: 3220581896
I1124 13:27:35.031895 13084 layer_factory.hpp:76] Creating layer loss2/conv
I1124 13:27:35.031905 13084 net.cpp:106] Creating Layer loss2/conv
I1124 13:27:35.031910 13084 net.cpp:454] loss2/conv <- loss2/ave_pool
I1124 13:27:35.031915 13084 net.cpp:411] loss2/conv -> loss2/conv
I1124 13:27:35.033975 13084 net.cpp:150] Setting up loss2/conv
I1124 13:27:35.033992 13084 net.cpp:157] Top shape: 64 128 4 4 (131072)
I1124 13:27:35.033995 13084 net.cpp:165] Memory required for data: 3221106184
I1124 13:27:35.034003 13084 layer_factory.hpp:76] Creating layer loss2/relu_conv
I1124 13:27:35.034008 13084 net.cpp:106] Creating Layer loss2/relu_conv
I1124 13:27:35.034013 13084 net.cpp:454] loss2/relu_conv <- loss2/conv
I1124 13:27:35.034018 13084 net.cpp:397] loss2/relu_conv -> loss2/conv (in-place)
I1124 13:27:35.034386 13084 net.cpp:150] Setting up loss2/relu_conv
I1124 13:27:35.034401 13084 net.cpp:157] Top shape: 64 128 4 4 (131072)
I1124 13:27:35.034404 13084 net.cpp:165] Memory required for data: 3221630472
I1124 13:27:35.034409 13084 layer_factory.hpp:76] Creating layer loss2/fc
I1124 13:27:35.034416 13084 net.cpp:106] Creating Layer loss2/fc
I1124 13:27:35.034421 13084 net.cpp:454] loss2/fc <- loss2/conv
I1124 13:27:35.034426 13084 net.cpp:411] loss2/fc -> loss2/fc
I1124 13:27:35.050074 13084 net.cpp:150] Setting up loss2/fc
I1124 13:27:35.050089 13084 net.cpp:157] Top shape: 64 1024 (65536)
I1124 13:27:35.050093 13084 net.cpp:165] Memory required for data: 3221892616
I1124 13:27:35.050099 13084 layer_factory.hpp:76] Creating layer loss2/relu_fc
I1124 13:27:35.050107 13084 net.cpp:106] Creating Layer loss2/relu_fc
I1124 13:27:35.050109 13084 net.cpp:454] loss2/relu_fc <- loss2/fc
I1124 13:27:35.050114 13084 net.cpp:397] loss2/relu_fc -> loss2/fc (in-place)
I1124 13:27:35.050328 13084 net.cpp:150] Setting up loss2/relu_fc
I1124 13:27:35.050339 13084 net.cpp:157] Top shape: 64 1024 (65536)
I1124 13:27:35.050343 13084 net.cpp:165] Memory required for data: 3222154760
I1124 13:27:35.050345 13084 layer_factory.hpp:76] Creating layer loss2/drop_fc
I1124 13:27:35.050353 13084 net.cpp:106] Creating Layer loss2/drop_fc
I1124 13:27:35.050355 13084 net.cpp:454] loss2/drop_fc <- loss2/fc
I1124 13:27:35.050362 13084 net.cpp:397] loss2/drop_fc -> loss2/fc (in-place)
I1124 13:27:35.050410 13084 net.cpp:150] Setting up loss2/drop_fc
I1124 13:27:35.050417 13084 net.cpp:157] Top shape: 64 1024 (65536)
I1124 13:27:35.050420 13084 net.cpp:165] Memory required for data: 3222416904
I1124 13:27:35.050423 13084 layer_factory.hpp:76] Creating layer loss2/classifier-attribute
I1124 13:27:35.050429 13084 net.cpp:106] Creating Layer loss2/classifier-attribute
I1124 13:27:35.050433 13084 net.cpp:454] loss2/classifier-attribute <- loss2/fc
I1124 13:27:35.050441 13084 net.cpp:411] loss2/classifier-attribute -> loss2/classifier-attribute
I1124 13:27:35.050711 13084 net.cpp:150] Setting up loss2/classifier-attribute
I1124 13:27:35.050720 13084 net.cpp:157] Top shape: 64 13 (832)
I1124 13:27:35.050724 13084 net.cpp:165] Memory required for data: 3222420232
I1124 13:27:35.050729 13084 layer_factory.hpp:76] Creating layer loss2/classifier-attribute_loss2/classifier-attribute_0_split
I1124 13:27:35.050735 13084 net.cpp:106] Creating Layer loss2/classifier-attribute_loss2/classifier-attribute_0_split
I1124 13:27:35.050740 13084 net.cpp:454] loss2/classifier-attribute_loss2/classifier-attribute_0_split <- loss2/classifier-attribute
I1124 13:27:35.050745 13084 net.cpp:411] loss2/classifier-attribute_loss2/classifier-attribute_0_split -> loss2/classifier-attribute_loss2/classifier-attribute_0_split_0
I1124 13:27:35.050750 13084 net.cpp:411] loss2/classifier-attribute_loss2/classifier-attribute_0_split -> loss2/classifier-attribute_loss2/classifier-attribute_0_split_1
I1124 13:27:35.050812 13084 net.cpp:150] Setting up loss2/classifier-attribute_loss2/classifier-attribute_0_split
I1124 13:27:35.050820 13084 net.cpp:157] Top shape: 64 13 (832)
I1124 13:27:35.050823 13084 net.cpp:157] Top shape: 64 13 (832)
I1124 13:27:35.050827 13084 net.cpp:165] Memory required for data: 3222426888
I1124 13:27:35.050829 13084 layer_factory.hpp:76] Creating layer loss2/loss
I1124 13:27:35.050837 13084 net.cpp:106] Creating Layer loss2/loss
I1124 13:27:35.050840 13084 net.cpp:454] loss2/loss <- loss2/classifier-attribute_loss2/classifier-attribute_0_split_0
I1124 13:27:35.050845 13084 net.cpp:454] loss2/loss <- label_data_1_split_2
…
I1124 13:27:35.051434 13084 net.cpp:150] Setting up loss2/top-1
I1124 13:27:35.051439 13084 net.cpp:157] Top shape: (1)
I1124 13:27:35.051440 13084 net.cpp:165] Memory required for data: 3222426896
I1124 13:27:35.051444 13084 layer_factory.hpp:76] Creating layer inception_4e/1x1
I1124 13:27:35.051460 13084 net.cpp:106] Creating Layer inception_4e/1x1
I1124 13:27:35.051463 13084 net.cpp:454] inception_4e/1x1 <- inception_4d/output_inception_4d/output_0_split_1
I1124 13:27:35.051470 13084 net.cpp:411] inception_4e/1x1 -> inception_4e/1x1
I1124 13:27:35.053656 13084 net.cpp:150] Setting up inception_4e/1x1
I1124 13:27:35.053671 13084 net.cpp:157] Top shape: 64 256 14 14 (3211264)
I1124 13:27:35.053675 13084 net.cpp:165] Memory required for data: 3235271952
I1124 13:27:35.053681 13084 layer_factory.hpp:76] Creating layer inception_4e/relu_1x1
I1124 13:27:35.053689 13084 net.cpp:106] Creating Layer inception_4e/relu_1x1
I1124 13:27:35.053694 13084 net.cpp:454] inception_4e/relu_1x1 <- inception_4e/1x1
I1124 13:27:35.053706 13084 net.cpp:397] inception_4e/relu_1x1 -> inception_4e/1x1 (in-place)
I1124 13:27:35.053938 13084 net.cpp:150] Setting up inception_4e/relu_1x1
I1124 13:27:35.053951 13084 net.cpp:157] Top shape: 64 256 14 14 (3211264)
I1124 13:27:35.053953 13084 net.cpp:165] Memory required for data: 3248117008
I1124 13:27:35.053957 13084 layer_factory.hpp:76] Creating layer inception_4e/3x3_reduce
I1124 13:27:35.053966 13084 net.cpp:106] Creating Layer inception_4e/3x3_reduce
I1124 13:27:35.053971 13084 net.cpp:454] inception_4e/3x3_reduce <- inception_4d/output_inception_4d/output_0_split_2
I1124 13:27:35.053977 13084 net.cpp:411] inception_4e/3x3_reduce -> inception_4e/3x3_reduce
I1124 13:27:35.056287 13084 net.cpp:150] Setting up inception_4e/3x3_reduce
I1124 13:27:35.056303 13084 net.cpp:157] Top shape: 64 160 14 14 (2007040)
I1124 13:27:35.056308 13084 net.cpp:165] Memory required for data: 3256145168
I1124 13:27:35.056314 13084 layer_factory.hpp:76] Creating layer inception_4e/relu_3x3_reduce
I1124 13:27:35.056320 13084 net.cpp:106] Creating Layer inception_4e/relu_3x3_reduce
I1124 13:27:35.056324 13084 net.cpp:454] inception_4e/relu_3x3_reduce <- inception_4e/3x3_reduce
I1124 13:27:35.056329 13084 net.cpp:397] inception_4e/relu_3x3_reduce -> inception_4e/3x3_reduce (in-place)
I1124 13:27:35.056694 13084 net.cpp:150] Setting up inception_4e/relu_3x3_reduce
I1124 13:27:35.056710 13084 net.cpp:157] Top shape: 64 160 14 14 (2007040)
I1124 13:27:35.056712 13084 net.cpp:165] Memory required for data: 3264173328
I1124 13:27:35.056716 13084 layer_factory.hpp:76] Creating layer inception_4e/3x3
I1124 13:27:35.056740 13084 net.cpp:106] Creating Layer inception_4e/3x3
I1124 13:27:35.056746 13084 net.cpp:454] inception_4e/3x3 <- inception_4e/3x3_reduce
I1124 13:27:35.056753 13084 net.cpp:411] inception_4e/3x3 -> inception_4e/3x3
I1124 13:27:35.061460 13084 net.cpp:150] Setting up inception_4e/3x3
I1124 13:27:35.061476 13084 net.cpp:157] Top shape: 64 320 14 14 (4014080)
I1124 13:27:35.061480 13084 net.cpp:165] Memory required for data: 3280229648
I1124 13:27:35.061487 13084 layer_factory.hpp:76] Creating layer inception_4e/relu_3x3
I1124 13:27:35.061496 13084 net.cpp:106] Creating Layer inception_4e/relu_3x3
I1124 13:27:35.061501 13084 net.cpp:454] inception_4e/relu_3x3 <- inception_4e/3x3
I1124 13:27:35.061506 13084 net.cpp:397] inception_4e/relu_3x3 -> inception_4e/3x3 (in-place)
I1124 13:27:35.061867 13084 net.cpp:150] Setting up inception_4e/relu_3x3
I1124 13:27:35.061882 13084 net.cpp:157] Top shape: 64 320 14 14 (4014080)
I1124 13:27:35.061885 13084 net.cpp:165] Memory required for data: 3296285968
I1124 13:27:35.061889 13084 layer_factory.hpp:76] Creating layer inception_4e/5x5_reduce
I1124 13:27:35.061898 13084 net.cpp:106] Creating Layer inception_4e/5x5_reduce
I1124 13:27:35.061903 13084 net.cpp:454] inception_4e/5x5_reduce <- inception_4d/output_inception_4d/output_0_split_3
I1124 13:27:35.061911 13084 net.cpp:411] inception_4e/5x5_reduce -> inception_4e/5x5_reduce
I1124 13:27:35.063483 13084 net.cpp:150] Setting up inception_4e/5x5_reduce
I1124 13:27:35.063498 13084 net.cpp:157] Top shape: 64 32 14 14 (401408)
I1124 13:27:35.063503 13084 net.cpp:165] Memory required for data: 3297891600
I1124 13:27:35.063508 13084 layer_factory.hpp:76] Creating layer inception_4e/relu_5x5_reduce
I1124 13:27:35.063515 13084 net.cpp:106] Creating Layer inception_4e/relu_5x5_reduce
I1124 13:27:35.063519 13084 net.cpp:454] inception_4e/relu_5x5_reduce <- inception_4e/5x5_reduce
I1124 13:27:35.063526 13084 net.cpp:397] inception_4e/relu_5x5_reduce -> inception_4e/5x5_reduce (in-place)
I1124 13:27:35.063729 13084 net.cpp:150] Setting up inception_4e/relu_5x5_reduce
I1124 13:27:35.063741 13084 net.cpp:157] Top shape: 64 32 14 14 (401408)
I1124 13:27:35.063745 13084 net.cpp:165] Memory required for data: 3299497232
I1124 13:27:35.063748 13084 layer_factory.hpp:76] Creating layer inception_4e/5x5
I1124 13:27:35.063756 13084 net.cpp:106] Creating Layer inception_4e/5x5
I1124 13:27:35.063760 13084 net.cpp:454] inception_4e/5x5 <- inception_4e/5x5_reduce
I1124 13:27:35.063767 13084 net.cpp:411] inception_4e/5x5 -> inception_4e/5x5
I1124 13:27:35.065737 13084 net.cpp:150] Setting up inception_4e/5x5
I1124 13:27:35.065753 13084 net.cpp:157] Top shape: 64 128 14 14 (1605632)
I1124 13:27:35.065757 13084 net.cpp:165] Memory required for data: 3305919760
I1124 13:27:35.065763 13084 layer_factory.hpp:76] Creating layer inception_4e/relu_5x5
I1124 13:27:35.065769 13084 net.cpp:106] Creating Layer inception_4e/relu_5x5
I1124 13:27:35.065776 13084 net.cpp:454] inception_4e/relu_5x5 <- inception_4e/5x5
I1124 13:27:35.065783 13084 net.cpp:397] inception_4e/relu_5x5 -> inception_4e/5x5 (in-place)
I1124 13:27:35.066179 13084 net.cpp:150] Setting up inception_4e/relu_5x5
I1124 13:27:35.066195 13084 net.cpp:157] Top shape: 64 128 14 14 (1605632)
I1124 13:27:35.066197 13084 net.cpp:165] Memory required for data: 3312342288
I1124 13:27:35.066201 13084 layer_factory.hpp:76] Creating layer inception_4e/pool
I1124 13:27:35.066208 13084 net.cpp:106] Creating Layer inception_4e/pool
I1124 13:27:35.066212 13084 net.cpp:454] inception_4e/pool <- inception_4d/output_inception_4d/output_0_split_4
I1124 13:27:35.066220 13084 net.cpp:411] inception_4e/pool -> inception_4e/pool
I1124 13:27:35.066478 13084 net.cpp:150] Setting up inception_4e/pool
I1124 13:27:35.066491 13084 net.cpp:157] Top shape: 64 528 14 14 (6623232)
I1124 13:27:35.066494 13084 net.cpp:165] Memory required for data: 3338835216
I1124 13:27:35.066498 13084 layer_factory.hpp:76] Creating layer inception_4e/pool_proj
I1124 13:27:35.066506 13084 net.cpp:106] Creating Layer inception_4e/pool_proj
I1124 13:27:35.066510 13084 net.cpp:454] inception_4e/pool_proj <- inception_4e/pool
I1124 13:27:35.066517 13084 net.cpp:411] inception_4e/pool_proj -> inception_4e/pool_proj
I1124 13:27:35.068271 13084 net.cpp:150] Setting up inception_4e/pool_proj
I1124 13:27:35.068287 13084 net.cpp:157] Top shape: 64 128 14 14 (1605632)
I1124 13:27:35.068290 13084 net.cpp:165] Memory required for data: 3345257744
I1124 13:27:35.068297 13084 layer_factory.hpp:76] Creating layer inception_4e/relu_pool_proj
I1124 13:27:35.068305 13084 net.cpp:106] Creating Layer inception_4e/relu_pool_proj
I1124 13:27:35.068310 13084 net.cpp:454] inception_4e/relu_pool_proj <- inception_4e/pool_proj
I1124 13:27:35.068315 13084 net.cpp:397] inception_4e/relu_pool_proj -> inception_4e/pool_proj (in-place)
I1124 13:27:35.068684 13084 net.cpp:150] Setting up inception_4e/relu_pool_proj
I1124 13:27:35.068701 13084 net.cpp:157] Top shape: 64 128 14 14 (1605632)
I1124 13:27:35.068704 13084 net.cpp:165] Memory required for data: 3351680272
I1124 13:27:35.068707 13084 layer_factory.hpp:76] Creating layer inception_4e/output
I1124 13:27:35.068716 13084 net.cpp:106] Creating Layer inception_4e/output
I1124 13:27:35.068719 13084 net.cpp:454] inception_4e/output <- inception_4e/1x1
I1124 13:27:35.068724 13084 net.cpp:454] inception_4e/output <- inception_4e/3x3
I1124 13:27:35.068728 13084 net.cpp:454] inception_4e/output <- inception_4e/5x5
I1124 13:27:35.068732 13084 net.cpp:454] inception_4e/output <- inception_4e/pool_proj
I1124 13:27:35.068737 13084 net.cpp:411] inception_4e/output -> inception_4e/output
I1124 13:27:35.068789 13084 net.cpp:150] Setting up inception_4e/output
I1124 13:27:35.068796 13084 net.cpp:157] Top shape: 64 832 14 14 (10436608)
I1124 13:27:35.068799 13084 net.cpp:165] Memory required for data: 3393426704
I1124 13:27:35.068802 13084 layer_factory.hpp:76] Creating layer pool4/3x3_s2
I1124 13:27:35.068809 13084 net.cpp:106] Creating Layer pool4/3x3_s2
I1124 13:27:35.068811 13084 net.cpp:454] pool4/3x3_s2 <- inception_4e/output
I1124 13:27:35.068819 13084 net.cpp:411] pool4/3x3_s2 -> pool4/3x3_s2
I1124 13:27:35.069072 13084 net.cpp:150] Setting up pool4/3x3_s2
I1124 13:27:35.069087 13084 net.cpp:157] Top shape: 64 832 7 7 (2609152)
I1124 13:27:35.069090 13084 net.cpp:165] Memory required for data: 3403863312
I1124 13:27:35.069094 13084 layer_factory.hpp:76] Creating layer pool4/3x3_s2_pool4/3x3_s2_0_split
I1124 13:27:35.069100 13084 net.cpp:106] Creating Layer pool4/3x3_s2_pool4/3x3_s2_0_split
I1124 13:27:35.069104 13084 net.cpp:454] pool4/3x3_s2_pool4/3x3_s2_0_split <- pool4/3x3_s2
I1124 13:27:35.069109 13084 net.cpp:411] pool4/3x3_s2_pool4/3x3_s2_0_split -> pool4/3x3_s2_pool4/3x3_s2_0_split_0
I1124 13:27:35.069115 13084 net.cpp:411] pool4/3x3_s2_pool4/3x3_s2_0_split -> pool4/3x3_s2_pool4/3x3_s2_0_split_1
I1124 13:27:35.069123 13084 net.cpp:411] pool4/3x3_s2_pool4/3x3_s2_0_split -> pool4/3x3_s2_pool4/3x3_s2_0_split_2
I1124 13:27:35.069128 13084 net.cpp:411] pool4/3x3_s2_pool4/3x3_s2_0_split -> pool4/3x3_s2_pool4/3x3_s2_0_split_3
I1124 13:27:35.069232 13084 net.cpp:150] Setting up pool4/3x3_s2_pool4/3x3_s2_0_split
I1124 13:27:35.069241 13084 net.cpp:157] Top shape: 64 832 7 7 (2609152)
I1124 13:27:35.069244 13084 net.cpp:157] Top shape: 64 832 7 7 (2609152)
I1124 13:27:35.069247 13084 net.cpp:157] Top shape: 64 832 7 7 (2609152)
I1124 13:27:35.069252 13084 net.cpp:157] Top shape: 64 832 7 7 (2609152)
I1124 13:27:35.069253 13084 net.cpp:165] Memory required for data: 3445609744
I1124 13:27:35.069257 13084 layer_factory.hpp:76] Creating layer inception_5a/1x1
I1124 13:27:35.069265 13084 net.cpp:106] Creating Layer inception_5a/1x1
I1124 13:27:35.069269 13084 net.cpp:454] inception_5a/1x1 <- pool4/3x3_s2_pool4/3x3_s2_0_split_0
I1124 13:27:35.069277 13084 net.cpp:411] inception_5a/1x1 -> inception_5a/1x1
I1124 13:27:35.072417 13084 net.cpp:150] Setting up inception_5a/1x1
I1124 13:27:35.072433 13084 net.cpp:157] Top shape: 64 256 7 7 (802816)
I1124 13:27:35.072438 13084 net.cpp:165] Memory required for data: 3448821008
I1124 13:27:35.072444 13084 layer_factory.hpp:76] Creating layer inception_5a/relu_1x1
I1124 13:27:35.072450 13084 net.cpp:106] Creating Layer inception_5a/relu_1x1
I1124 13:27:35.072454 13084 net.cpp:454] inception_5a/relu_1x1 <- inception_5a/1x1
I1124 13:27:35.072459 13084 net.cpp:397] inception_5a/relu_1x1 -> inception_5a/1x1 (in-place)
I1124 13:27:35.072666 13084 net.cpp:150] Setting up inception_5a/relu_1x1
I1124 13:27:35.072679 13084 net.cpp:157] Top shape: 64 256 7 7 (802816)
I1124 13:27:35.072681 13084 net.cpp:165] Memory required for data: 3452032272
I1124 13:27:35.072685 13084 layer_factory.hpp:76] Creating layer inception_5a/3x3_reduce
I1124 13:27:35.072695 13084 net.cpp:106] Creating Layer inception_5a/3x3_reduce
I1124 13:27:35.072698 13084 net.cpp:454] inception_5a/3x3_reduce <- pool4/3x3_s2_pool4/3x3_s2_0_split_1
I1124 13:27:35.072705 13084 net.cpp:411] inception_5a/3x3_reduce -> inception_5a/3x3_reduce
I1124 13:27:35.075410 13084 net.cpp:150] Setting up inception_5a/3x3_reduce
I1124 13:27:35.075426 13084 net.cpp:157] Top shape: 64 160 7 7 (501760)
I1124 13:27:35.075430 13084 net.cpp:165] Memory required for data: 3454039312
I1124 13:27:35.075436 13084 layer_factory.hpp:76] Creating layer inception_5a/relu_3x3_reduce
I1124 13:27:35.075443 13084 net.cpp:106] Creating Layer inception_5a/relu_3x3_reduce
I1124 13:27:35.075448 13084 net.cpp:454] inception_5a/relu_3x3_reduce <- inception_5a/3x3_reduce
I1124 13:27:35.075453 13084 net.cpp:397] inception_5a/relu_3x3_reduce -> inception_5a/3x3_reduce (in-place)
I1124 13:27:35.075809 13084 net.cpp:150] Setting up inception_5a/relu_3x3_reduce
I1124 13:27:35.075824 13084 net.cpp:157] Top shape: 64 160 7 7 (501760)
I1124 13:27:35.075827 13084 net.cpp:165] Memory required for data: 3456046352
I1124 13:27:35.075831 13084 layer_factory.hpp:76] Creating layer inception_5a/3x3
I1124 13:27:35.075840 13084 net.cpp:106] Creating Layer inception_5a/3x3
I1124 13:27:35.075845 13084 net.cpp:454] inception_5a/3x3 <- inception_5a/3x3_reduce
I1124 13:27:35.075852 13084 net.cpp:411] inception_5a/3x3 -> inception_5a/3x3
I1124 13:27:35.080771 13084 net.cpp:150] Setting up inception_5a/3x3
I1124 13:27:35.080788 13084 net.cpp:157] Top shape: 64 320 7 7 (1003520)
I1124 13:27:35.080792 13084 net.cpp:165] Memory required for data: 3460060432
I1124 13:27:35.080798 13084 layer_factory.hpp:76] Creating layer inception_5a/relu_3x3
I1124 13:27:35.080806 13084 net.cpp:106] Creating Layer inception_5a/relu_3x3
I1124 13:27:35.080811 13084 net.cpp:454] inception_5a/relu_3x3 <- inception_5a/3x3
I1124 13:27:35.080816 13084 net.cpp:397] inception_5a/relu_3x3 -> inception_5a/3x3 (in-place)
I1124 13:27:35.081022 13084 net.cpp:150] Setting up inception_5a/relu_3x3
I1124 13:27:35.081037 13084 net.cpp:157] Top shape: 64 320 7 7 (1003520)
I1124 13:27:35.081040 13084 net.cpp:165] Memory required for data: 3464074512
I1124 13:27:35.081043 13084 layer_factory.hpp:76] Creating layer inception_5a/5x5_reduce
I1124 13:27:35.081053 13084 net.cpp:106] Creating Layer inception_5a/5x5_reduce
I1124 13:27:35.081058 13084 net.cpp:454] inception_5a/5x5_reduce <- pool4/3x3_s2_pool4/3x3_s2_0_split_2
I1124 13:27:35.081063 13084 net.cpp:411] inception_5a/5x5_reduce -> inception_5a/5x5_reduce
I1124 13:27:35.083046 13084 net.cpp:150] Setting up inception_5a/5x5_reduce
I1124 13:27:35.083061 13084 net.cpp:157] Top shape: 64 32 7 7 (100352)
I1124 13:27:35.083065 13084 net.cpp:165] Memory required for data: 3464475920
I1124 13:27:35.083072 13084 layer_factory.hpp:76] Creating layer inception_5a/relu_5x5_reduce
I1124 13:27:35.083080 13084 net.cpp:106] Creating Layer inception_5a/relu_5x5_reduce
I1124 13:27:35.083084 13084 net.cpp:454] inception_5a/relu_5x5_reduce <- inception_5a/5x5_reduce
I1124 13:27:35.083089 13084 net.cpp:397] inception_5a/relu_5x5_reduce -> inception_5a/5x5_reduce (in-place)
I1124 13:27:35.083302 13084 net.cpp:150] Setting up inception_5a/relu_5x5_reduce
I1124 13:27:35.083314 13084 net.cpp:157] Top shape: 64 32 7 7 (100352)
I1124 13:27:35.083317 13084 net.cpp:165] Memory required for data: 3464877328
I1124 13:27:35.083322 13084 layer_factory.hpp:76] Creating layer inception_5a/5x5
I1124 13:27:35.083331 13084 net.cpp:106] Creating Layer inception_5a/5x5
I1124 13:27:35.083335 13084 net.cpp:454] inception_5a/5x5 <- inception_5a/5x5_reduce
I1124 13:27:35.083343 13084 net.cpp:411] inception_5a/5x5 -> inception_5a/5x5
I1124 13:27:35.085484 13084 net.cpp:150] Setting up inception_5a/5x5
I1124 13:27:35.085500 13084 net.cpp:157] Top shape: 64 128 7 7 (401408)
I1124 13:27:35.085503 13084 net.cpp:165] Memory required for data: 3466482960
I1124 13:27:35.085510 13084 layer_factory.hpp:76] Creating layer inception_5a/relu_5x5
I1124 13:27:35.085517 13084 net.cpp:106] Creating Layer inception_5a/relu_5x5
I1124 13:27:35.085521 13084 net.cpp:454] inception_5a/relu_5x5 <- inception_5a/5x5
I1124 13:27:35.085526 13084 net.cpp:397] inception_5a/relu_5x5 -> inception_5a/5x5 (in-place)
I1124 13:27:35.085903 13084 net.cpp:150] Setting up inception_5a/relu_5x5
I1124 13:27:35.085919 13084 net.cpp:157] Top shape: 64 128 7 7 (401408)
I1124 13:27:35.085923 13084 net.cpp:165] Memory required for data: 3468088592
I1124 13:27:35.085927 13084 layer_factory.hpp:76] Creating layer inception_5a/pool
I1124 13:27:35.085933 13084 net.cpp:106] Creating Layer inception_5a/pool
I1124 13:27:35.085937 13084 net.cpp:454] inception_5a/pool <- pool4/3x3_s2_pool4/3x3_s2_0_split_3
I1124 13:27:35.085942 13084 net.cpp:411] inception_5a/pool -> inception_5a/pool
I1124 13:27:35.086221 13084 net.cpp:150] Setting up inception_5a/pool
I1124 13:27:35.086236 13084 net.cpp:157] Top shape: 64 832 7 7 (2609152)
I1124 13:27:35.086240 13084 net.cpp:165] Memory required for data: 3478525200
I1124 13:27:35.086243 13084 layer_factory.hpp:76] Creating layer inception_5a/pool_proj
I1124 13:27:35.086252 13084 net.cpp:106] Creating Layer inception_5a/pool_proj
I1124 13:27:35.086257 13084 net.cpp:454] inception_5a/pool_proj <- inception_5a/pool
I1124 13:27:35.086262 13084 net.cpp:411] inception_5a/pool_proj -> inception_5a/pool_proj
I1124 13:27:35.088743 13084 net.cpp:150] Setting up inception_5a/pool_proj
I1124 13:27:35.088759 13084 net.cpp:157] Top shape: 64 128 7 7 (401408)
I1124 13:27:35.088763 13084 net.cpp:165] Memory required for data: 3480130832
I1124 13:27:35.088770 13084 layer_factory.hpp:76] Creating layer inception_5a/relu_pool_proj
I1124 13:27:35.088778 13084 net.cpp:106] Creating Layer inception_5a/relu_pool_proj
I1124 13:27:35.088783 13084 net.cpp:454] inception_5a/relu_pool_proj <- inception_5a/pool_proj
I1124 13:27:35.088788 13084 net.cpp:397] inception_5a/relu_pool_proj -> inception_5a/pool_proj (in-place)
I1124 13:27:35.089164 13084 net.cpp:150] Setting up inception_5a/relu_pool_proj
I1124 13:27:35.089179 13084 net.cpp:157] Top shape: 64 128 7 7 (401408)
I1124 13:27:35.089184 13084 net.cpp:165] Memory required for data: 3481736464
I1124 13:27:35.089186 13084 layer_factory.hpp:76] Creating layer inception_5a/output
I1124 13:27:35.089195 13084 net.cpp:106] Creating Layer inception_5a/output
I1124 13:27:35.089200 13084 net.cpp:454] inception_5a/output <- inception_5a/1x1
I1124 13:27:35.089203 13084 net.cpp:454] inception_5a/output <- inception_5a/3x3
I1124 13:27:35.089207 13084 net.cpp:454] inception_5a/output <- inception_5a/5x5
I1124 13:27:35.089211 13084 net.cpp:454] inception_5a/output <- inception_5a/pool_proj
I1124 13:27:35.089215 13084 net.cpp:411] inception_5a/output -> inception_5a/output
I1124 13:27:35.089268 13084 net.cpp:150] Setting up inception_5a/output
I1124 13:27:35.089278 13084 net.cpp:157] Top shape: 64 832 7 7 (2609152)
I1124 13:27:35.089280 13084 net.cpp:165] Memory required for data: 3492173072
I1124 13:27:35.089284 13084 layer_factory.hpp:76] Creating layer inception_5a/output_inception_5a/output_0_split
I1124 13:27:35.089290 13084 net.cpp:106] Creating Layer inception_5a/output_inception_5a/output_0_split
I1124 13:27:35.089293 13084 net.cpp:454] inception_5a/output_inception_5a/output_0_split <- inception_5a/output
I1124 13:27:35.089303 13084 net.cpp:411] inception_5a/output_inception_5a/output_0_split -> inception_5a/output_inception_5a/output_0_split_0
I1124 13:27:35.089310 13084 net.cpp:411] inception_5a/output_inception_5a/output_0_split -> inception_5a/output_inception_5a/output_0_split_1
I1124 13:27:35.089316 13084 net.cpp:411] inception_5a/output_inception_5a/output_0_split -> inception_5a/output_inception_5a/output_0_split_2
I1124 13:27:35.089321 13084 net.cpp:411] inception_5a/output_inception_5a/output_0_split -> inception_5a/output_inception_5a/output_0_split_3
I1124 13:27:35.089432 13084 net.cpp:150] Setting up inception_5a/output_inception_5a/output_0_split
I1124 13:27:35.089440 13084 net.cpp:157] Top shape: 64 832 7 7 (2609152)
I1124 13:27:35.089444 13084 net.cpp:157] Top shape: 64 832 7 7 (2609152)
I1124 13:27:35.089447 13084 net.cpp:157] Top shape: 64 832 7 7 (2609152)
I1124 13:27:35.089452 13084 net.cpp:157] Top shape: 64 832 7 7 (2609152)
I1124 13:27:35.089453 13084 net.cpp:165] Memory required for data: 3533919504
I1124 13:27:35.089457 13084 layer_factory.hpp:76] Creating layer inception_5b/1x1
I1124 13:27:35.089465 13084 net.cpp:106] Creating Layer inception_5b/1x1
I1124 13:27:35.089469 13084 net.cpp:454] inception_5b/1x1 <- inception_5a/output_inception_5a/output_0_split_0
I1124 13:27:35.089475 13084 net.cpp:411] inception_5b/1x1 -> inception_5b/1x1
I1124 13:27:35.093189 13084 net.cpp:150] Setting up inception_5b/1x1
I1124 13:27:35.093204 13084 net.cpp:157] Top shape: 64 384 7 7 (1204224)
I1124 13:27:35.093209 13084 net.cpp:165] Memory required for data: 3538736400
I1124 13:27:35.093215 13084 layer_factory.hpp:76] Creating layer inception_5b/relu_1x1
I1124 13:27:35.093221 13084 net.cpp:106] Creating Layer inception_5b/relu_1x1
I1124 13:27:35.093225 13084 net.cpp:454] inception_5b/relu_1x1 <- inception_5b/1x1
I1124 13:27:35.093231 13084 net.cpp:397] inception_5b/relu_1x1 -> inception_5b/1x1 (in-place)
I1124 13:27:35.093602 13084 net.cpp:150] Setting up inception_5b/relu_1x1
I1124 13:27:35.093617 13084 net.cpp:157] Top shape: 64 384 7 7 (1204224)
I1124 13:27:35.093621 13084 net.cpp:165] Memory required for data: 3543553296
I1124 13:27:35.093624 13084 layer_factory.hpp:76] Creating layer inception_5b/3x3_reduce
I1124 13:27:35.093633 13084 net.cpp:106] Creating Layer inception_5b/3x3_reduce
I1124 13:27:35.093638 13084 net.cpp:454] inception_5b/3x3_reduce <- inception_5a/output_inception_5a/output_0_split_1
I1124 13:27:35.093646 13084 net.cpp:411] inception_5b/3x3_reduce -> inception_5b/3x3_reduce
I1124 13:27:35.096529 13084 net.cpp:150] Setting up inception_5b/3x3_reduce
I1124 13:27:35.096544 13084 net.cpp:157] Top shape: 64 192 7 7 (602112)
I1124 13:27:35.096549 13084 net.cpp:165] Memory required for data: 3545961744
I1124 13:27:35.096554 13084 layer_factory.hpp:76] Creating layer inception_5b/relu_3x3_reduce
I1124 13:27:35.096561 13084 net.cpp:106] Creating Layer inception_5b/relu_3x3_reduce
I1124 13:27:35.096565 13084 net.cpp:454] inception_5b/relu_3x3_reduce <- inception_5b/3x3_reduce
I1124 13:27:35.096572 13084 net.cpp:397] inception_5b/relu_3x3_reduce -> inception_5b/3x3_reduce (in-place)
I1124 13:27:35.096783 13084 net.cpp:150] Setting up inception_5b/relu_3x3_reduce
I1124 13:27:35.096797 13084 net.cpp:157] Top shape: 64 192 7 7 (602112)
I1124 13:27:35.096801 13084 net.cpp:165] Memory required for data: 3548370192
I1124 13:27:35.096804 13084 layer_factory.hpp:76] Creating layer inception_5b/3x3
I1124 13:27:35.096812 13084 net.cpp:106] Creating Layer inception_5b/3x3
I1124 13:27:35.096819 13084 net.cpp:454] inception_5b/3x3 <- inception_5b/3x3_reduce
I1124 13:27:35.096827 13084 net.cpp:411] inception_5b/3x3 -> inception_5b/3x3
I1124 13:27:35.103231 13084 net.cpp:150] Setting up inception_5b/3x3
I1124 13:27:35.103250 13084 net.cpp:157] Top shape: 64 384 7 7 (1204224)
I1124 13:27:35.103253 13084 net.cpp:165] Memory required for data: 3553187088
I1124 13:27:35.103260 13084 layer_factory.hpp:76] Creating layer inception_5b/relu_3x3
I1124 13:27:35.103266 13084 net.cpp:106] Creating Layer inception_5b/relu_3x3
I1124 13:27:35.103271 13084 net.cpp:454] inception_5b/relu_3x3 <- inception_5b/3x3
I1124 13:27:35.103276 13084 net.cpp:397] inception_5b/relu_3x3 -> inception_5b/3x3 (in-place)
I1124 13:27:35.103649 13084 net.cpp:150] Setting up inception_5b/relu_3x3
I1124 13:27:35.103663 13084 net.cpp:157] Top shape: 64 384 7 7 (1204224)
I1124 13:27:35.103667 13084 net.cpp:165] Memory required for data: 3558003984
I1124 13:27:35.103670 13084 layer_factory.hpp:76] Creating layer inception_5b/5x5_reduce
I1124 13:27:35.103682 13084 net.cpp:106] Creating Layer inception_5b/5x5_reduce
I1124 13:27:35.103685 13084 net.cpp:454] inception_5b/5x5_reduce <- inception_5a/output_inception_5a/output_0_split_2
I1124 13:27:35.103691 13084 net.cpp:411] inception_5b/5x5_reduce -> inception_5b/5x5_reduce
I1124 13:27:35.105497 13084 net.cpp:150] Setting up inception_5b/5x5_reduce
I1124 13:27:35.105514 13084 net.cpp:157] Top shape: 64 48 7 7 (150528)
I1124 13:27:35.105517 13084 net.cpp:165] Memory required for data: 3558606096
I1124 13:27:35.105523 13084 layer_factory.hpp:76] Creating layer inception_5b/relu_5x5_reduce
I1124 13:27:35.105530 13084 net.cpp:106] Creating Layer inception_5b/relu_5x5_reduce
I1124 13:27:35.105535 13084 net.cpp:454] inception_5b/relu_5x5_reduce <- inception_5b/5x5_reduce
I1124 13:27:35.105541 13084 net.cpp:397] inception_5b/relu_5x5_reduce -> inception_5b/5x5_reduce (in-place)
I1124 13:27:35.105914 13084 net.cpp:150] Setting up inception_5b/relu_5x5_reduce
I1124 13:27:35.105929 13084 net.cpp:157] Top shape: 64 48 7 7 (150528)
I1124 13:27:35.105933 13084 net.cpp:165] Memory required for data: 3559208208
I1124 13:27:35.105937 13084 layer_factory.hpp:76] Creating layer inception_5b/5x5
I1124 13:27:35.105947 13084 net.cpp:106] Creating Layer inception_5b/5x5
I1124 13:27:35.105952 13084 net.cpp:454] inception_5b/5x5 <- inception_5b/5x5_reduce
I1124 13:27:35.105958 13084 net.cpp:411] inception_5b/5x5 -> inception_5b/5x5
I1124 13:27:35.108155 13084 net.cpp:150] Setting up inception_5b/5x5
I1124 13:27:35.108170 13084 net.cpp:157] Top shape: 64 128 7 7 (401408)
I1124 13:27:35.108173 13084 net.cpp:165] Memory required for data: 3560813840
I1124 13:27:35.108180 13084 layer_factory.hpp:76] Creating layer inception_5b/relu_5x5
I1124 13:27:35.108187 13084 net.cpp:106] Creating Layer inception_5b/relu_5x5
I1124 13:27:35.108191 13084 net.cpp:454] inception_5b/relu_5x5 <- inception_5b/5x5
I1124 13:27:35.108198 13084 net.cpp:397] inception_5b/relu_5x5 -> inception_5b/5x5 (in-place)
I1124 13:27:35.108413 13084 net.cpp:150] Setting up inception_5b/relu_5x5
I1124 13:27:35.108427 13084 net.cpp:157] Top shape: 64 128 7 7 (401408)
I1124 13:27:35.108429 13084 net.cpp:165] Memory required for data: 3562419472
I1124 13:27:35.108433 13084 layer_factory.hpp:76] Creating layer inception_5b/pool
I1124 13:27:35.108440 13084 net.cpp:106] Creating Layer inception_5b/pool
I1124 13:27:35.108444 13084 net.cpp:454] inception_5b/pool <- inception_5a/output_inception_5a/output_0_split_3
I1124 13:27:35.108454 13084 net.cpp:411] inception_5b/pool -> inception_5b/pool
I1124 13:27:35.108857 13084 net.cpp:150] Setting up inception_5b/pool
I1124 13:27:35.108872 13084 net.cpp:157] Top shape: 64 832 7 7 (2609152)
I1124 13:27:35.108875 13084 net.cpp:165] Memory required for data: 3572856080
I1124 13:27:35.108880 13084 layer_factory.hpp:76] Creating layer inception_5b/pool_proj
I1124 13:27:35.108889 13084 net.cpp:106] Creating Layer inception_5b/pool_proj
I1124 13:27:35.108894 13084 net.cpp:454] inception_5b/pool_proj <- inception_5b/pool
I1124 13:27:35.108901 13084 net.cpp:411] inception_5b/pool_proj -> inception_5b/pool_proj
I1124 13:27:35.111207 13084 net.cpp:150] Setting up inception_5b/pool_proj
I1124 13:27:35.111222 13084 net.cpp:157] Top shape: 64 128 7 7 (401408)
I1124 13:27:35.111227 13084 net.cpp:165] Memory required for data: 3574461712
I1124 13:27:35.111232 13084 layer_factory.hpp:76] Creating layer inception_5b/relu_pool_proj
I1124 13:27:35.111239 13084 net.cpp:106] Creating Layer inception_5b/relu_pool_proj
I1124 13:27:35.111243 13084 net.cpp:454] inception_5b/relu_pool_proj <- inception_5b/pool_proj
I1124 13:27:35.111250 13084 net.cpp:397] inception_5b/relu_pool_proj -> inception_5b/pool_proj (in-place)
I1124 13:27:35.111457 13084 net.cpp:150] Setting up inception_5b/relu_pool_proj
I1124 13:27:35.111469 13084 net.cpp:157] Top shape: 64 128 7 7 (401408)
I1124 13:27:35.111474 13084 net.cpp:165] Memory required for data: 3576067344
I1124 13:27:35.111476 13084 layer_factory.hpp:76] Creating layer inception_5b/output
I1124 13:27:35.111485 13084 net.cpp:106] Creating Layer inception_5b/output
I1124 13:27:35.111488 13084 net.cpp:454] inception_5b/output <- inception_5b/1x1
I1124 13:27:35.111493 13084 net.cpp:454] inception_5b/output <- inception_5b/3x3
I1124 13:27:35.111500 13084 net.cpp:454] inception_5b/output <- inception_5b/5x5
I1124 13:27:35.111505 13084 net.cpp:454] inception_5b/output <- inception_5b/pool_proj
I1124 13:27:35.111510 13084 net.cpp:411] inception_5b/output -> inception_5b/output
I1124 13:27:35.111536 13084 net.cpp:150] Setting up inception_5b/output
I1124 13:27:35.111543 13084 net.cpp:157] Top shape: 64 1024 7 7 (3211264)
I1124 13:27:35.111546 13084 net.cpp:165] Memory required for data: 3588912400
I1124 13:27:35.111549 13084 layer_factory.hpp:76] Creating layer pool5/7x7_s1
I1124 13:27:35.111557 13084 net.cpp:106] Creating Layer pool5/7x7_s1
I1124 13:27:35.111560 13084 net.cpp:454] pool5/7x7_s1 <- inception_5b/output
I1124 13:27:35.111567 13084 net.cpp:411] pool5/7x7_s1 -> pool5/7x7_s1
I1124 13:27:35.112100 13084 net.cpp:150] Setting up pool5/7x7_s1
I1124 13:27:35.112115 13084 net.cpp:157] Top shape: 64 1024 1 1 (65536)
I1124 13:27:35.112119 13084 net.cpp:165] Memory required for data: 3589174544
I1124 13:27:35.112123 13084 layer_factory.hpp:76] Creating layer pool5/drop_7x7_s1
I1124 13:27:35.112129 13084 net.cpp:106] Creating Layer pool5/drop_7x7_s1
I1124 13:27:35.112133 13084 net.cpp:454] pool5/drop_7x7_s1 <- pool5/7x7_s1
I1124 13:27:35.112140 13084 net.cpp:397] pool5/drop_7x7_s1 -> pool5/7x7_s1 (in-place)
I1124 13:27:35.112165 13084 net.cpp:150] Setting up pool5/drop_7x7_s1
I1124 13:27:35.112172 13084 net.cpp:157] Top shape: 64 1024 1 1 (65536)
I1124 13:27:35.112175 13084 net.cpp:165] Memory required for data: 3589436688
I1124 13:27:35.112179 13084 layer_factory.hpp:76] Creating layer loss3/classifier-attribute
I1124 13:27:35.112187 13084 net.cpp:106] Creating Layer loss3/classifier-attribute
I1124 13:27:35.112193 13084 net.cpp:454] loss3/classifier-attribute <- pool5/7x7_s1
I1124 13:27:35.112200 13084 net.cpp:411] loss3/classifier-attribute -> loss3/classifier-attribute
I1124 13:27:35.112399 13084 net.cpp:150] Setting up loss3/classifier-attribute
I1124 13:27:35.112408 13084 net.cpp:157] Top shape: 64 13 (832)
I1124 13:27:35.112412 13084 net.cpp:165] Memory required for data: 3589440016
I1124 13:27:35.112418 13084 layer_factory.hpp:76] Creating layer loss3/classifier-attribute_loss3/classifier-attribute_0_split
I1124 13:27:35.112426 13084 net.cpp:106] Creating Layer loss3/classifier-attribute_loss3/classifier-attribute_0_split
I1124 13:27:35.112431 13084 net.cpp:454] loss3/classifier-attribute_loss3/classifier-attribute_0_split <- loss3/classifier-attribute
I1124 13:27:35.112435 13084 net.cpp:411] loss3/classifier-attribute_loss3/classifier-attribute_0_split -> loss3/classifier-attribute_loss3/classifier-attribute_0_split_0
I1124 13:27:35.112442 13084 net.cpp:411] loss3/classifier-attribute_loss3/classifier-attribute_0_split -> loss3/classifier-attribute_loss3/classifier-attribute_0_split_1
I1124 13:27:35.112474 13084 net.cpp:150] Setting up loss3/classifier-attribute_loss3/classifier-attribute_0_split
I1124 13:27:35.112481 13084 net.cpp:157] Top shape: 64 13 (832)
I1124 13:27:35.112484 13084 net.cpp:157] Top shape: 64 13 (832)
I1124 13:27:35.112488 13084 net.cpp:165] Memory required for data: 3589446672
I1124 13:27:35.112490 13084 layer_factory.hpp:76] Creating layer loss3/loss3
I1124 13:27:35.112496 13084 net.cpp:106] Creating Layer loss3/loss3
I1124 13:27:35.112499 13084 net.cpp:454] loss3/loss3 <- loss3/classifier-attribute_loss3/classifier-attribute_0_split_0
I1124 13:27:35.112504 13084 net.cpp:454] loss3/loss3 <- label_data_1_split_4
…
