…
I1126 19:48:54.161237 20584 net.cpp:322] The NetState phase (0) differed from the phase (1) specified by a rule in layer loss3/top-1
I1126 19:48:54.162287 20584 net.cpp:49] Initializing net from parameters: 
name: "GoogleNet-finetune-for-cigit"
state {
  phase: TRAIN
}
layer {
  name: "data"
  type: "ImageData"
  top: "data"
  top: "label"
  include {
    phase: TRAIN
  }
  transform_param {
    mirror: true
    crop_size: 224
    mean_value: 104
    mean_value: 117
    mean_value: 123
  }
  image_data_param {
    source: "pad_train.txt"
    batch_size: 64
    shuffle: true
    new_height: 256
    new_width: 256
  }
}
layer {
  name: "conv1/7x7_s2"
  type: "Convolution"
  bottom: "data"
  top: "conv1/7x7_s2"
  param {
    lr_mult: 1
    decay_mult: 1
  }
  param {
    lr_mult: 2
    decay_mult: 0
  }
  convolution_param {
    num_output: 64
    pad: 3
    kernel_size: 7
    stride: 2
    weight_filler {
      type: "xavier"
    }
    bias_filler {
      type: "constant"
      value: 0.2
    }
  }
}
layer {
  name: "conv1/relu_7x7"
  type: "ReLU"
  bottom: "conv1/7x7_s2"
  top: "conv1/7x7_s2"
}
layer {
  name: "pool1/3x3_s2"
  type: "Pooling"
  bottom: "conv1/7x7_s2"
  top: "pool1/3x3_s2"
  pooling_param {
    pool: MAX
    kernel_size: 3
    stride: 2
  }
}
layer {
  name: "pool1/norm1"
  type: "LRN"
  bottom: "pool1/3x3_s2"
  top: "pool1/norm1"
  lrn_param {
    local_size: 5
    alpha: 0.0001
    beta: 0.75
  }
}
layer {
  name: "conv2/3x3_reduce"
  type: "Convolution"
  bottom: "pool1/norm1"
  top: "conv2/3x3_reduce"
  param {
    lr_mult: 1
    decay_mult: 1
  }
  param {
    lr_mult: 2
    decay_mult: 0
  }
  convolution_param {
    num_output: 64
    kernel_size: 1
    weight_filler {
      type: "xavier"
    }
    bias_filler {
      type: "constant"
      value: 0.2
    }
  }
}
layer {
  name: "conv2/relu_3x3_reduce"
  type: "ReLU"
  bottom: "conv2/3x3_reduce"
  top: "conv2/3x3_reduce"
}
layer {
  name: "conv2/3x3"
  type: "Convolution"
  bottom: "conv2/3x3_reduce"
  top: "conv2/3x3"
  param {
    lr_mult: 1
    decay_mult: 1
  }
  param {
    lr_mult: 2
    decay_mult: 0
  }
  convolution_param {
    num_output: 192
    pad: 1
    kernel_size: 3
    weight_filler {
      type: "xavier"
    }
    bias_filler {
      type: "constant"
      value: 0.2
    }
  }
}
layer {
  name: "conv2/relu_3x3"
  type: "ReLU"
  bottom: "conv2/3x3"
  top: "conv2/3x3"
}
layer {
  name: "conv2/norm2"
  type: "LRN"
  bottom: "conv2/3x3"
  top: "conv2/norm2"
  lrn_param {
    local_size: 5
    alpha: 0.0001
    beta: 0.75
  }
}
layer {
  name: "pool2/3x3_s2"
  type: "Pooling"
  bottom: "conv2/norm2"
  top: "pool2/3x3_s2"
  pooling_param {
    pool: MAX
    kernel_size: 3
    stride: 2
  }
}
layer {
  name: "inception_3a/1x1"
  type: "Convolution"
  bottom: "pool2/3x3_s2"
  top: "inception_3a/1x1"
  param {
    lr_mult: 1
    decay_mult: 1
  }
  param {
    lr_mult: 2
    decay_mult: 0
  }
  convolution_param {
    num_output: 64
    kernel_size: 1
    weight_filler {
      type: "xavier"
    }
    bias_filler {
      type: "constant"
      value: 0.2
    }
  }
}
layer {
  name: "inception_3a/relu_1x1"
  type: "ReLU"
  bottom: "inception_3a/1x1"
  top: "inception_3a/1x1"
}
layer {
  name: "inception_3a/3x3_reduce"
  type: "Convolution"
  bottom: "pool2/3x3_s2"
  top: "inception_3a/3x3_reduce"
  param {
    lr_mult: 1
    decay_mult: 1
  }
  param {
    lr_mult: 2
    decay_mult: 0
  }
  convolution_param {
    num_output: 96
    kernel_size: 1
    weight_filler {
      type: "xavier"
    }
    bias_filler {
      type: "constant"
      value: 0.2
    }
  }
}
layer {
  name: "inception_3a/relu_3x3_reduce"
  type: "ReLU"
  bottom: "inception_3a/3x3_reduce"
  top: "inception_3a/3x3_reduce"
}
layer {
  name: "inception_3a/3x3"
  type: "Convolution"
  bottom: "inception_3a/3x3_reduce"
  top: "inception_3a/3x3"
  param {
    lr_mult: 1
    decay_mult: 1
  }
  param {
    lr_mult: 2
    decay_mult: 0
  }
  convolution_param {
    num_output: 128
    pad: 1
    kernel_size: 3
    weight_filler {
      type: "xavier"
    }
    bias_filler {
      type: "constant"
      value: 0.2
    }
  }
}
layer {
  name: "inception_3a/relu_3x3"
  type: "ReLU"
  bottom: "inception_3a/3x3"
  top: "inception_3a/3x3"
}
layer {
  name: "inception_3a/5x5_reduce"
  type: "Convolution"
  bottom: "pool2/3x3_s2"
  top: "inception_3a/5x5_reduce"
  param {
    lr_mult: 1
    decay_mult: 1
  }
  param {
    lr_mult: 2
    decay_mult: 0
  }
  convolution_param {
    num_output: 16
    kernel_size: 1
    weight_filler {
      type: "xavier"
    }
    bias_filler {
      type: "constant"
      value: 0.2
    }
  }
}
layer {
  name: "inception_3a/relu_5x5_reduce"
  type: "ReLU"
  bottom: "inception_3a/5x5_reduce"
  top: "inception_3a/5x5_reduce"
}
layer {
  name: "inception_3a/5x5"
  type: "Convolution"
  bottom: "inception_3a/5x5_reduce"
  top: "inception_3a/5x5"
  param {
    lr_mult: 1
    decay_mult: 1
  }
  param {
    lr_mult: 2
    decay_mult: 0
  }
  convolution_param {
    num_output: 32
    pad: 2
    kernel_size: 5
    weight_filler {
      type: "xavier"
    }
    bias_filler {
      type: "constant"
      value: 0.2
    }
  }
}
layer {
  name: "inception_3a/relu_5x5"
  type: "ReLU"
  bottom: "inception_3a/5x5"
  top: "inception_3a/5x5"
}
layer {
  name: "inception_3a/pool"
  type: "Pooling"
  bottom: "pool2/3x3_s2"
  top: "inception_3a/pool"
  pooling_param {
    pool: MAX
    kernel_size: 3
    stride: 1
    pad: 1
  }
}
layer {
  name: "inception_3a/pool_proj"
  type: "Convolution"
  bottom: "inception_3a/pool"
  top: "inception_3a/pool_proj"
  param {
    lr_mult: 1
    decay_mult: 1
  }
  param {
    lr_mult: 2
    decay_mult: 0
  }
  convolution_param {
    num_output: 32
    kernel_size: 1
    weight_filler {
      type: "xavier"
    }
    bias_filler {
      type: "constant"
      value: 0.2
    }
  }
}
layer {
  name: "inception_3a/relu_pool_proj"
  type: "ReLU"
  bottom: "inception_3a/pool_proj"
  top: "inception_3a/pool_proj"
}
layer {
  name: "inception_3a/output"
  type: "Concat"
  bottom: "inception_3a/1x1"
  bottom: "inception_3a/3x3"
  bottom: "inception_3a/5x5"
  bottom: "inception_3a/pool_proj"
  top: "inception_3a/output"
}
layer {
  name: "inception_3b/1x1"
  type: "Convolution"
  bottom: "inception_3a/output"
  top: "inception_3b/1x1"
  param {
    lr_mult: 1
    decay_mult: 1
  }
  param {
    lr_mult: 2
    decay_mult: 0
  }
  convolution_param {
    num_output: 128
    kernel_size: 1
    weight_filler {
      type: "xavier"
    }
    bias_filler {
      type: "constant"
      value: 0.2
    }
  }
}
layer {
  name: "inception_3b/relu_1x1"
  type: "ReLU"
  bottom: "inception_3b/1x1"
  top: "inception_3b/1x1"
}
layer {
  name: "inception_3b/3x3_reduce"
  type: "Convolution"
  bottom: "inception_3a/output"
  top: "inception_3b/3x3_reduce"
  param {
    lr_mult: 1
    decay_mult: 1
  }
  param {
    lr_mult: 2
    decay_mult: 0
  }
  convolution_param {
    num_output: 128
    kernel_size: 1
    weight_filler {
      type: "xavier"
    }
    bias_filler {
      type: "constant"
      value: 0.2
    }
  }
}
layer {
  name: "inception_3b/relu_3x3_reduce"
  type: "ReLU"
  bottom: "inception_3b/3x3_reduce"
  top: "inception_3b/3x3_reduce"
}
layer {
  name: "inception_3b/3x3"
  type: "Convolution"
  bottom: "inception_3b/3x3_reduce"
  top: "inception_3b/3x3"
  param {
    lr_mult: 1
    decay_mult: 1
  }
  param {
    lr_mult: 2
    decay_mult: 0
  }
  convolution_param {
    num_output: 192
    pad: 1
    kernel_size: 3
    weight_filler {
      type: "xavier"
    }
    bias_filler {
      type: "constant"
      value: 0.2
    }
  }
}
layer {
  name: "inception_3b/relu_3x3"
  type: "ReLU"
  bottom: "inception_3b/3x3"
  top: "inception_3b/3x3"
}
layer {
  name: "inception_3b/5x5_reduce"
  type: "Convolution"
  bottom: "inception_3a/output"
  top: "inception_3b/5x5_reduce"
  param {
    lr_mult: 1
    decay_mult: 1
  }
  param {
    lr_mult: 2
    decay_mult: 0
  }
  convolution_param {
    num_output: 32
    kernel_size: 1
    weight_filler {
      type: "xavier"
    }
    bias_filler {
      type: "constant"
      value: 0.2
    }
  }
}
layer {
  name: "inception_3b/relu_5x5_reduce"
  type: "ReLU"
  bottom: "inception_3b/5x5_reduce"
  top: "inception_3b/5x5_reduce"
}
layer {
  name: "inception_3b/5x5"
  type: "Convolution"
  bottom: "inception_3b/5x5_reduce"
  top: "inception_3b/5x5"
  param {
    lr_mult: 1
    decay_mult: 1
  }
  param {
    lr_mult: 2
    decay_mult: 0
  }
  convolution_param {
    num_output: 96
    pad: 2
    kernel_size: 5
    weight_filler {
      type: "xavier"
    }
    bias_filler {
      type: "constant"
      value: 0.2
    }
  }
}
layer {
  name: "inception_3b/relu_5x5"
  type: "ReLU"
  bottom: "inception_3b/5x5"
  top: "inception_3b/5x5"
}
layer {
  name: "inception_3b/pool"
  type: "Pooling"
  bottom: "inception_3a/output"
  top: "inception_3b/pool"
  pooling_param {
    pool: MAX
    kernel_size: 3
    stride: 1
    pad: 1
  }
}
layer {
  name: "inception_3b/pool_proj"
  type: "Convolution"
  bottom: "inception_3b/pool"
  top: "inception_3b/pool_proj"
  param {
    lr_mult: 1
    decay_mult: 1
  }
  param {
    lr_mult: 2
    decay_mult: 0
  }
  convolution_param {
    num_output: 64
    kernel_size: 1
    weight_filler {
      type: "xavier"
    }
    bias_filler {
      type: "constant"
      value: 0.2
    }
  }
}
layer {
  name: "inception_3b/relu_pool_proj"
  type: "ReLU"
  bottom: "inception_3b/pool_proj"
  top: "inception_3b/pool_proj"
}
layer {
  name: "inception_3b/output"
  type: "Concat"
  bottom: "inception_3b/1x1"
  bottom: "inception_3b/3x3"
  bottom: "inception_3b/5x5"
  bottom: "inception_3b/pool_proj"
  top: "inception_3b/output"
}
layer {
  name: "pool3/3x3_s2"
  type: "Pooling"
  bottom: "inception_3b/output"
  top: "pool3/3x3_s2"
  pooling_param {
    pool: MAX
    kernel_size: 3
    stride: 2
  }
}
layer {
  name: "inception_4a/1x1"
  type: "Convolution"
  bottom: "pool3/3x3_s2"
  top: "inception_4a/1x1"
  param {
    lr_mult: 1
    decay_mult: 1
  }
  param {
    lr_mult: 2
    decay_mult: 0
  }
  convolution_param {
    num_output: 192
    kernel_size: 1
    weight_filler {
      type: "xavier"
    }
    bias_filler {
      type: "constant"
      value: 0.2
    }
  }
}
layer {
  name: "inception_4a/relu_1x1"
  type: "ReLU"
  bottom: "inception_4a/1x1"
  top: "inception_4a/1x1"
}
layer {
  name: "inception_4a/3x3_reduce"
  type: "Convolution"
  bottom: "pool3/3x3_s2"
  top: "inception_4a/3x3_reduce"
  param {
    lr_mult: 1
    decay_mult: 1
  }
  param {
    lr_mult: 2
    decay_mult: 0
  }
  convolution_param {
    num_output: 96
    kernel_size: 1
    weight_filler {
      type: "xavier"
    }
    bias_filler {
      type: "constant"
      value: 0.2
    }
  }
}
layer {
  name: "inception_4a/relu_3x3_reduce"
  type: "ReLU"
  bottom: "inception_4a/3x3_reduce"
  top: "inception_4a/3x3_reduce"
}
layer {
  name: "inception_4a/3x3"
  type: "Convolution"
  bottom: "inception_4a/3x3_reduce"
  top: "inception_4a/3x3"
  param {
    lr_mult: 1
    decay_mult: 1
  }
  param {
    lr_mult: 2
    decay_mult: 0
  }
  convolution_param {
    num_output: 208
    pad: 1
    kernel_size: 3
    weight_filler {
      type: "xavier"
    }
    bias_filler {
      type: "constant"
      value: 0.2
    }
  }
}
layer {
  name: "inception_4a/relu_3x3"
  type: "ReLU"
  bottom: "inception_4a/3x3"
  top: "inception_4a/3x3"
}
layer {
  name: "inception_4a/5x5_reduce"
  type: "Convolution"
  bottom: "pool3/3x3_s2"
  top: "inception_4a/5x5_reduce"
  param {
    lr_mult: 1
    decay_mult: 1
  }
  param {
    lr_mult: 2
    decay_mult: 0
  }
  convolution_param {
    num_output: 16
    kernel_size: 1
    weight_filler {
      type: "xavier"
    }
    bias_filler {
      type: "constant"
      value: 0.2
    }
  }
}
layer {
  name: "inception_4a/relu_5x5_reduce"
  type: "ReLU"
  bottom: "inception_4a/5x5_reduce"
  top: "inception_4a/5x5_reduce"
}
layer {
  name: "inception_4a/5x5"
  type: "Convolution"
  bottom: "inception_4a/5x5_reduce"
  top: "inception_4a/5x5"
  param {
    lr_mult: 1
    decay_mult: 1
  }
  param {
    lr_mult: 2
    decay_mult: 0
  }
  convolution_param {
    num_output: 48
    pad: 2
    kernel_size: 5
    weight_filler {
      type: "xavier"
    }
    bias_filler {
      type: "constant"
      value: 0.2
    }
  }
}
layer {
  name: "inception_4a/relu_5x5"
  type: "ReLU"
  bottom: "inception_4a/5x5"
  top: "inception_4a/5x5"
}
layer {
  name: "inception_4a/pool"
  type: "Pooling"
  bottom: "pool3/3x3_s2"
  top: "inception_4a/pool"
  pooling_param {
    pool: MAX
    kernel_size: 3
    stride: 1
    pad: 1
  }
}
layer {
  name: "inception_4a/pool_proj"
  type: "Convolution"
  bottom: "inception_4a/pool"
  top: "inception_4a/pool_proj"
  param {
    lr_mult: 1
    decay_mult: 1
  }
  param {
    lr_mult: 2
    decay_mult: 0
  }
  convolution_param {
    num_output: 64
    kernel_size: 1
    weight_filler {
      type: "xavier"
    }
    bias_filler {
      type: "constant"
      value: 0.2
    }
  }
}
layer {
  name: "inception_4a/relu_pool_proj"
  type: "ReLU"
  bottom: "inception_4a/pool_proj"
  top: "inception_4a/pool_proj"
}
layer {
  name: "inception_4a/output"
  type: "Concat"
  bottom: "inception_4a/1x1"
  bottom: "inception_4a/3x3"
  bottom: "inception_4a/5x5"
  bottom: "inception_4a/pool_proj"
  top: "inception_4a/output"
}
layer {
  name: "loss1/ave_pool"
  type: "Pooling"
  bottom: "inception_4a/output"
  top: "loss1/ave_pool"
  pooling_param {
    pool: AVE
    kernel_size: 5
    stride: 3
  }
}
layer {
  name: "loss1/conv"
  type: "Convolution"
  bottom: "loss1/ave_pool"
  top: "loss1/conv"
  param {
    lr_mult: 1
    decay_mult: 1
  }
  param {
    lr_mult: 2
    decay_mult: 0
  }
  convolution_param {
    num_output: 128
    kernel_size: 1
    weight_filler {
      type: "xavier"
    }
    bias_filler {
      type: "constant"
      value: 0.2
    }
  }
}
layer {
  name: "loss1/relu_conv"
  type: "ReLU"
  bottom: "loss1/conv"
  top: "loss1/conv"
}
layer {
  name: "loss1/fc"
  type: "InnerProduct"
  bottom: "loss1/conv"
  top: "loss1/fc"
  param {
    lr_mult: 1
    decay_mult: 1
  }
  param {
    lr_mult: 2
    decay_mult: 0
  }
  inner_product_param {
    num_output: 1024
    weight_filler {
      type: "xavier"
    }
    bias_filler {
      type: "constant"
      value: 0.2
    }
  }
}
layer {
  name: "loss1/relu_fc"
  type: "ReLU"
  bottom: "loss1/fc"
  top: "loss1/fc"
}
layer {
  name: "loss1/drop_fc"
  type: "Dropout"
  bottom: "loss1/fc"
  top: "loss1/fc"
  dropout_param {
    dropout_ratio: 0.7
  }
}
layer {
  name: "loss1/classifier-attribute"
  type: "InnerProduct"
  bottom: "loss1/fc"
  top: "loss1/classifier-attribute"
  param {
    lr_mult: 10
    decay_mult: 1
  }
  param {
    lr_mult: 20
    decay_mult: 0
  }
  inner_product_param {
    num_output: 9999
    weight_filler {
      type: "xavier"
    }
    bias_filler {
      type: "constant"
      value: 0
    }
  }
}
layer {
  name: "loss1/loss"
  type: "SoftmaxWithLoss"
  bottom: "loss1/classifier-attribute"
  bottom: "label"
  top: "loss1/loss1"
  loss_weight: 0.3
}
layer {
  name: "inception_4b/1x1"
  type: "Convolution"
  bottom: "inception_4a/output"
  top: "inception_4b/1x1"
  param {
    lr_mult: 1
    decay_mult: 1
  }
  param {
    lr_mult: 2
    decay_mult: 0
  }
  convolution_param {
    num_output: 160
    kernel_size: 1
    weight_filler {
      type: "xavier"
    }
    bias_filler {
      type: "constant"
      value: 0.2
    }
  }
}
layer {
  name: "inception_4b/relu_1x1"
  type: "ReLU"
  bottom: "inception_4b/1x1"
  top: "inception_4b/1x1"
}
layer {
  name: "inception_4b/3x3_reduce"
  type: "Convolution"
  bottom: "inception_4a/output"
  top: "inception_4b/3x3_reduce"
  param {
    lr_mult: 1
    decay_mult: 1
  }
  param {
    lr_mult: 2
    decay_mult: 0
  }
  convolution_param {
    num_output: 112
    kernel_size: 1
    weight_filler {
      type: "xavier"
    }
    bias_filler {
      type: "constant"
      value: 0.2
    }
  }
}
layer {
  name: "inception_4b/relu_3x3_reduce"
  type: "ReLU"
  bottom: "inception_4b/3x3_reduce"
  top: "inception_4b/3x3_reduce"
}
layer {
  name: "inception_4b/3x3"
  type: "Convolution"
  bottom: "inception_4b/3x3_reduce"
  top: "inception_4b/3x3"
  param {
    lr_mult: 1
    decay_mult: 1
  }
  param {
    lr_mult: 2
    decay_mult: 0
  }
  convolution_param {
    num_output: 224
    pad: 1
    kernel_size: 3
    weight_filler {
      type: "xavier"
    }
    bias_filler {
      type: "constant"
      value: 0.2
    }
  }
}
layer {
  name: "inception_4b/relu_3x3"
  type: "ReLU"
  bottom: "inception_4b/3x3"
  top: "inception_4b/3x3"
}
layer {
  name: "inception_4b/5x5_reduce"
  type: "Convolution"
  bottom: "inception_4a/output"
  top: "inception_4b/5x5_reduce"
  param {
    lr_mult: 1
    decay_mult: 1
  }
  param {
    lr_mult: 2
    decay_mult: 0
  }
  convolution_param {
    num_output: 24
    kernel_size: 1
    weight_filler {
      type: "xavier"
    }
    bias_filler {
      type: "constant"
      value: 0.2
    }
  }
}
layer {
  name: "inception_4b/relu_5x5_reduce"
  type: "ReLU"
  bottom: "inception_4b/5x5_reduce"
  top: "inception_4b/5x5_reduce"
}
layer {
  name: "inception_4b/5x5"
  type: "Convolution"
  bottom: "inception_4b/5x5_reduce"
  top: "inception_4b/5x5"
  param {
    lr_mult: 1
    decay_mult: 1
  }
  param {
    lr_mult: 2
    decay_mult: 0
  }
  convolution_param {
    num_output: 64
    pad: 2
    kernel_size: 5
    weight_filler {
      type: "xavier"
    }
    bias_filler {
      type: "constant"
      value: 0.2
    }
  }
}
layer {
  name: "inception_4b/relu_5x5"
  type: "ReLU"
  bottom: "inception_4b/5x5"
  top: "inception_4b/5x5"
}
layer {
  name: "inception_4b/pool"
  type: "Pooling"
  bottom: "inception_4a/output"
  top: "inception_4b/pool"
  pooling_param {
    pool: MAX
    kernel_size: 3
    stride: 1
    pad: 1
  }
}
layer {
  name: "inception_4b/pool_proj"
  type: "Convolution"
  bottom: "inception_4b/pool"
  top: "inception_4b/pool_proj"
  param {
    lr_mult: 1
    decay_mult: 1
  }
  param {
    lr_mult: 2
    decay_mult: 0
  }
  convolution_param {
    num_output: 64
    kernel_size: 1
    weight_filler {
      type: "xavier"
    }
    bias_filler {
      type: "constant"
      value: 0.2
    }
  }
}
layer {
  name: "inception_4b/relu_pool_proj"
  type: "ReLU"
  bottom: "inception_4b/pool_proj"
  top: "inception_4b/pool_proj"
}
layer {
  name: "inception_4b/output"
  type: "Concat"
  bottom: "inception_4b/1x1"
  bottom: "inception_4b/3x3"
  bottom: "inception_4b/5x5"
  bottom: "inception_4b/pool_proj"
  top: "inception_4b/output"
}
layer {
  name: "inception_4c/1x1"
  type: "Convolution"
  bottom: "inception_4b/output"
  top: "inception_4c/1x1"
  param {
    lr_mult: 1
    decay_mult: 1
  }
  param {
    lr_mult: 2
    decay_mult: 0
  }
  convolution_param {
    num_output: 128
    kernel_size: 1
    weight_filler {
      type: "xavier"
    }
    bias_filler {
      type: "constant"
      value: 0.2
    }
  }
}
layer {
  name: "inception_4c/relu_1x1"
  type: "ReLU"
  bottom: "inception_4c/1x1"
  top: "inception_4c/1x1"
}
layer {
  name: "inception_4c/3x3_reduce"
  type: "Convolution"
  bottom: "inception_4b/output"
  top: "inception_4c/3x3_reduce"
  param {
    lr_mult: 1
    decay_mult: 1
  }
  param {
    lr_mult: 2
    decay_mult: 0
  }
  convolution_param {
    num_output: 128
    kernel_size: 1
    weight_filler {
      type: "xavier"
    }
    bias_filler {
      type: "constant"
      value: 0.2
    }
  }
}
layer {
  name: "inception_4c/relu_3x3_reduce"
  type: "ReLU"
  bottom: "inception_4c/3x3_reduce"
  top: "inception_4c/3x3_reduce"
}
layer {
  name: "inception_4c/3x3"
  type: "Convolution"
  bottom: "inception_4c/3x3_reduce"
  top: "inception_4c/3x3"
  param {
    lr_mult: 1
    decay_mult: 1
  }
  param {
    lr_mult: 2
    decay_mult: 0
  }
  convolution_param {
    num_output: 256
    pad: 1
    kernel_size: 3
    weight_filler {
      type: "xavier"
    }
    bias_filler {
      type: "constant"
      value: 0.2
    }
  }
}
layer {
  name: "inception_4c/relu_3x3"
  type: "ReLU"
  bottom: "inception_4c/3x3"
  top: "inception_4c/3x3"
}
layer {
  name: "inception_4c/5x5_reduce"
  type: "Convolution"
  bottom: "inception_4b/output"
  top: "inception_4c/5x5_reduce"
  param {
    lr_mult: 1
    decay_mult: 1
  }
  param {
    lr_mult: 2
    decay_mult: 0
  }
  convolution_param {
    num_output: 24
    kernel_size: 1
    weight_filler {
      type: "xavier"
    }
    bias_filler {
      type: "constant"
      value: 0.2
    }
  }
}
layer {
  name: "inception_4c/relu_5x5_reduce"
  type: "ReLU"
  bottom: "inception_4c/5x5_reduce"
  top: "inception_4c/5x5_reduce"
}
layer {
  name: "inception_4c/5x5"
  type: "Convolution"
  bottom: "inception_4c/5x5_reduce"
  top: "inception_4c/5x5"
  param {
    lr_mult: 1
    decay_mult: 1
  }
  param {
    lr_mult: 2
    decay_mult: 0
  }
  convolution_param {
    num_output: 64
    pad: 2
    kernel_size: 5
    weight_filler {
      type: "xavier"
    }
    bias_filler {
      type: "constant"
      value: 0.2
    }
  }
}
layer {
  name: "inception_4c/relu_5x5"
  type: "ReLU"
  bottom: "inception_4c/5x5"
  top: "inception_4c/5x5"
}
layer {
  name: "inception_4c/pool"
  type: "Pooling"
  bottom: "inception_4b/output"
  top: "inception_4c/pool"
  pooling_param {
    pool: MAX
    kernel_size: 3
    stride: 1
    pad: 1
  }
}
layer {
  name: "inception_4c/pool_proj"
  type: "Convolution"
  bottom: "inception_4c/pool"
  top: "inception_4c/pool_proj"
  param {
    lr_mult: 1
    decay_mult: 1
  }
  param {
    lr_mult: 2
    decay_mult: 0
  }
  convolution_param {
    num_output: 64
    kernel_size: 1
    weight_filler {
      type: "xavier"
    }
    bias_filler {
      type: "constant"
      value: 0.2
    }
  }
}
layer {
  name: "inception_4c/relu_pool_proj"
  type: "ReLU"
  bottom: "inception_4c/pool_proj"
  top: "inception_4c/pool_proj"
}
layer {
  name: "inception_4c/output"
  type: "Concat"
  bottom: "inception_4c/1x1"
  bottom: "inception_4c/3x3"
  bottom: "inception_4c/5x5"
  bottom: "inception_4c/pool_proj"
  top: "inception_4c/output"
}
layer {
  name: "inception_4d/1x1"
  type: "Convolution"
  bottom: "inception_4c/output"
  top: "inception_4d/1x1"
  param {
    lr_mult: 1
    decay_mult: 1
  }
  param {
    lr_mult: 2
    decay_mult: 0
  }
  convolution_param {
    num_output: 112
    kernel_size: 1
    weight_filler {
      type: "xavier"
    }
    bias_filler {
      type: "constant"
      value: 0.2
    }
  }
}
layer {
  name: "inception_4d/relu_1x1"
  type: "ReLU"
  bottom: "inception_4d/1x1"
  top: "inception_4d/1x1"
}
layer {
  name: "inception_4d/3x3_reduce"
  type: "Convolution"
  bottom: "inception_4c/output"
  top: "inception_4d/3x3_reduce"
  param {
    lr_mult: 1
    decay_mult: 1
  }
  param {
    lr_mult: 2
    decay_mult: 0
  }
  convolution_param {
    num_output: 144
    kernel_size: 1
    weight_filler {
      type: "xavier"
    }
    bias_filler {
      type: "constant"
      value: 0.2
    }
  }
}
layer {
  name: "inception_4d/relu_3x3_reduce"
  type: "ReLU"
  bottom: "inception_4d/3x3_reduce"
  top: "inception_4d/3x3_reduce"
}
layer {
  name: "inception_4d/3x3"
  type: "Convolution"
  bottom: "inception_4d/3x3_reduce"
  top: "inception_4d/3x3"
  param {
    lr_mult: 1
    decay_mult: 1
  }
  param {
    lr_mult: 2
    decay_mult: 0
  }
  convolution_param {
    num_output: 288
    pad: 1
    kernel_size: 3
    weight_filler {
      type: "xavier"
    }
    bias_filler {
      type: "constant"
      value: 0.2
    }
  }
}
layer {
  name: "inception_4d/relu_3x3"
  type: "ReLU"
  bottom: "inception_4d/3x3"
  top: "inception_4d/3x3"
}
layer {
  name: "inception_4d/5x5_reduce"
  type: "Convolution"
  bottom: "inception_4c/output"
  top: "inception_4d/5x5_reduce"
  param {
    lr_mult: 1
    decay_mult: 1
  }
  param {
    lr_mult: 2
    decay_mult: 0
  }
  convolution_param {
    num_output: 32
    kernel_size: 1
    weight_filler {
      type: "xavier"
    }
    bias_filler {
      type: "constant"
      value: 0.2
    }
  }
}
layer {
  name: "inception_4d/relu_5x5_reduce"
  type: "ReLU"
  bottom: "inception_4d/5x5_reduce"
  top: "inception_4d/5x5_reduce"
}
layer {
  name: "inception_4d/5x5"
  type: "Convolution"
  bottom: "inception_4d/5x5_reduce"
  top: "inception_4d/5x5"
  param {
    lr_mult: 1
    decay_mult: 1
  }
  param {
    lr_mult: 2
    decay_mult: 0
  }
  convolution_param {
    num_output: 64
    pad: 2
    kernel_size: 5
    weight_filler {
      type: "xavier"
    }
    bias_filler {
      type: "constant"
      value: 0.2
    }
  }
}
layer {
  name: "inception_4d/relu_5x5"
  type: "ReLU"
  bottom: "inception_4d/5x5"
  top: "inception_4d/5x5"
}
layer {
  name: "inception_4d/pool"
  type: "Pooling"
  bottom: "inception_4c/output"
  top: "inception_4d/pool"
  pooling_param {
    pool: MAX
    kernel_size: 3
    stride: 1
    pad: 1
  }
}
layer {
  name: "inception_4d/pool_proj"
  type: "Convolution"
  bottom: "inception_4d/pool"
  top: "inception_4d/pool_proj"
  param {
    lr_mult: 1
    decay_mult: 1
  }
  param {
    lr_mult: 2
    decay_mult: 0
  }
  convolution_param {
    num_output: 64
    kernel_size: 1
    weight_filler {
      type: "xavier"
    }
    bias_filler {
      type: "constant"
      value: 0.2
    }
  }
}
layer {
  name: "inception_4d/relu_pool_proj"
  type: "ReLU"
  bottom: "inception_4d/pool_proj"
  top: "inception_4d/pool_proj"
}
layer {
  name: "inception_4d/output"
  type: "Concat"
  bottom: "inception_4d/1x1"
  bottom: "inception_4d/3x3"
  bottom: "inception_4d/5x5"
  bottom: "inception_4d/pool_proj"
  top: "inception_4d/output"
}
layer {
  name: "loss2/ave_pool"
  type: "Pooling"
  bottom: "inception_4d/output"
  top: "loss2/ave_pool"
  pooling_param {
    pool: AVE
    kernel_size: 5
    stride: 3
  }
}
layer {
  name: "loss2/conv"
  type: "Convolution"
  bottom: "loss2/ave_pool"
  top: "loss2/conv"
  param {
    lr_mult: 1
    decay_mult: 1
  }
  param {
    lr_mult: 2
    decay_mult: 0
  }
  convolution_param {
    num_output: 128
    kernel_size: 1
    weight_filler {
      type: "xavier"
    }
    bias_filler {
      type: "constant"
      value: 0.2
    }
  }
}
layer {
  name: "loss2/relu_conv"
  type: "ReLU"
  bottom: "loss2/conv"
  top: "loss2/conv"
}
layer {
  name: "loss2/fc"
  type: "InnerProduct"
  bottom: "loss2/conv"
  top: "loss2/fc"
  param {
    lr_mult: 1
    decay_mult: 1
  }
  param {
    lr_mult: 2
    decay_mult: 0
  }
  inner_product_param {
    num_output: 1024
    weight_filler {
      type: "xavier"
    }
    bias_filler {
      type: "constant"
      value: 0.2
    }
  }
}
layer {
  name: "loss2/relu_fc"
  type: "ReLU"
  bottom: "loss2/fc"
  top: "loss2/fc"
}
layer {
  name: "loss2/drop_fc"
  type: "Dropout"
  bottom: "loss2/fc"
  top: "loss2/fc"
  dropout_param {
    dropout_ratio: 0.7
  }
}
layer {
  name: "loss2/classifier-attribute"
  type: "InnerProduct"
  bottom: "loss2/fc"
  top: "loss2/classifier-attribute"
  param {
    lr_mult: 10
    decay_mult: 1
  }
  param {
    lr_mult: 20
    decay_mult: 0
  }
  inner_product_param {
    num_output: 9999
    weight_filler {
      type: "xavier"
    }
    bias_filler {
      type: "constant"
      value: 0
    }
  }
}
layer {
  name: "loss2/loss"
  type: "SoftmaxWithLoss"
  bottom: "loss2/classifier-attribute"
  bottom: "label"
  top: "loss2/loss1"
  loss_weight: 0.3
}
layer {
  name: "inception_4e/1x1"
  type: "Convolution"
  bottom: "inception_4d/output"
  top: "inception_4e/1x1"
  param {
    lr_mult: 1
    decay_mult: 1
  }
  param {
    lr_mult: 2
    decay_mult: 0
  }
  convolution_param {
    num_output: 256
    kernel_size: 1
    weight_filler {
      type: "xavier"
    }
    bias_filler {
      type: "constant"
      value: 0.2
    }
  }
}
layer {
  name: "inception_4e/relu_1x1"
  type: "ReLU"
  bottom: "inception_4e/1x1"
  top: "inception_4e/1x1"
}
layer {
  name: "inception_4e/3x3_reduce"
  type: "Convolution"
  bottom: "inception_4d/output"
  top: "inception_4e/3x3_reduce"
  param {
    lr_mult: 1
    decay_mult: 1
  }
  param {
    lr_mult: 2
    decay_mult: 0
  }
  convolution_param {
    num_output: 160
    kernel_size: 1
    weight_filler {
      type: "xavier"
    }
    bias_filler {
      type: "constant"
      value: 0.2
    }
  }
}
layer {
  name: "inception_4e/relu_3x3_reduce"
  type: "ReLU"
  bottom: "inception_4e/3x3_reduce"
  top: "inception_4e/3x3_reduce"
}
layer {
  name: "inception_4e/3x3"
  type: "Convolution"
  bottom: "inception_4e/3x3_reduce"
  top: "inception_4e/3x3"
  param {
    lr_mult: 1
    decay_mult: 1
  }
  param {
    lr_mult: 2
    decay_mult: 0
  }
  convolution_param {
    num_output: 320
    pad: 1
    kernel_size: 3
    weight_filler {
      type: "xavier"
    }
    bias_filler {
      type: "constant"
      value: 0.2
    }
  }
}
layer {
  name: "inception_4e/relu_3x3"
  type: "ReLU"
  bottom: "inception_4e/3x3"
  top: "inception_4e/3x3"
}
layer {
  name: "inception_4e/5x5_reduce"
  type: "Convolution"
  bottom: "inception_4d/output"
  top: "inception_4e/5x5_reduce"
  param {
    lr_mult: 1
    decay_mult: 1
  }
  param {
    lr_mult: 2
    decay_mult: 0
  }
  convolution_param {
    num_output: 32
    kernel_size: 1
    weight_filler {
      type: "xavier"
    }
    bias_filler {
      type: "constant"
      value: 0.2
    }
  }
}
layer {
  name: "inception_4e/relu_5x5_reduce"
  type: "ReLU"
  bottom: "inception_4e/5x5_reduce"
  top: "inception_4e/5x5_reduce"
}
layer {
  name: "inception_4e/5x5"
  type: "Convolution"
  bottom: "inception_4e/5x5_reduce"
  top: "inception_4e/5x5"
  param {
    lr_mult: 1
    decay_mult: 1
  }
  param {
    lr_mult: 2
    decay_mult: 0
  }
  convolution_param {
    num_output: 128
    pad: 2
    kernel_size: 5
    weight_filler {
      type: "xavier"
    }
    bias_filler {
      type: "constant"
      value: 0.2
    }
  }
}
layer {
  name: "inception_4e/relu_5x5"
  type: "ReLU"
  bottom: "inception_4e/5x5"
  top: "inception_4e/5x5"
}
layer {
  name: "inception_4e/pool"
  type: "Pooling"
  bottom: "ince
I1126 19:48:54.163131 20584 layer_factory.hpp:76] Creating layer data
I1126 19:48:54.163173 20584 net.cpp:106] Creating Layer data
I1126 19:48:54.163183 20584 net.cpp:411] data -> data
I1126 19:48:54.163214 20584 net.cpp:411] data -> label
I1126 19:48:54.163700 20584 image_data_layer.cpp:36] Opening file pad_train.txt
I1126 19:48:54.270483 20584 image_data_layer.cpp:46] Shuffling data
I1126 19:48:54.276782 20584 image_data_layer.cpp:51] A total of 80511 images.
I1126 19:48:54.292526 20584 image_data_layer.cpp:78] output data size: 64,3,224,224
I1126 19:48:54.345212 20584 net.cpp:150] Setting up data
I1126 19:48:54.345268 20584 net.cpp:157] Top shape: 64 3 224 224 (9633792)
I1126 19:48:54.345276 20584 net.cpp:157] Top shape: 64 (64)
I1126 19:48:54.345280 20584 net.cpp:165] Memory required for data: 38535424
I1126 19:48:54.345288 20584 layer_factory.hpp:76] Creating layer label_data_1_split
I1126 19:48:54.345311 20584 net.cpp:106] Creating Layer label_data_1_split
I1126 19:48:54.345319 20584 net.cpp:454] label_data_1_split <- label
I1126 19:48:54.345330 20584 net.cpp:411] label_data_1_split -> label_data_1_split_0
I1126 19:48:54.345341 20584 net.cpp:411] label_data_1_split -> label_data_1_split_1
I1126 19:48:54.345347 20584 net.cpp:411] label_data_1_split -> label_data_1_split_2
I1126 19:48:54.345429 20584 net.cpp:150] Setting up label_data_1_split
I1126 19:48:54.345439 20584 net.cpp:157] Top shape: 64 (64)
I1126 19:48:54.345443 20584 net.cpp:157] Top shape: 64 (64)
I1126 19:48:54.345448 20584 net.cpp:157] Top shape: 64 (64)
I1126 19:48:54.345450 20584 net.cpp:165] Memory required for data: 38536192
I1126 19:48:54.345453 20584 layer_factory.hpp:76] Creating layer conv1/7x7_s2
I1126 19:48:54.345468 20584 net.cpp:106] Creating Layer conv1/7x7_s2
I1126 19:48:54.345473 20584 net.cpp:454] conv1/7x7_s2 <- data
I1126 19:48:54.345479 20584 net.cpp:411] conv1/7x7_s2 -> conv1/7x7_s2
I1126 19:48:54.509346 20584 net.cpp:150] Setting up conv1/7x7_s2
I1126 19:48:54.509376 20584 net.cpp:157] Top shape: 64 64 112 112 (51380224)
I1126 19:48:54.509380 20584 net.cpp:165] Memory required for data: 244057088
I1126 19:48:54.509400 20584 layer_factory.hpp:76] Creating layer conv1/relu_7x7
I1126 19:48:54.509414 20584 net.cpp:106] Creating Layer conv1/relu_7x7
I1126 19:48:54.509419 20584 net.cpp:454] conv1/relu_7x7 <- conv1/7x7_s2
I1126 19:48:54.509424 20584 net.cpp:397] conv1/relu_7x7 -> conv1/7x7_s2 (in-place)
I1126 19:48:54.509724 20584 net.cpp:150] Setting up conv1/relu_7x7
I1126 19:48:54.509738 20584 net.cpp:157] Top shape: 64 64 112 112 (51380224)
I1126 19:48:54.509742 20584 net.cpp:165] Memory required for data: 449577984
I1126 19:48:54.509745 20584 layer_factory.hpp:76] Creating layer pool1/3x3_s2
I1126 19:48:54.509757 20584 net.cpp:106] Creating Layer pool1/3x3_s2
I1126 19:48:54.509759 20584 net.cpp:454] pool1/3x3_s2 <- conv1/7x7_s2
I1126 19:48:54.509765 20584 net.cpp:411] pool1/3x3_s2 -> pool1/3x3_s2
I1126 19:48:54.509964 20584 net.cpp:150] Setting up pool1/3x3_s2
I1126 19:48:54.509976 20584 net.cpp:157] Top shape: 64 64 56 56 (12845056)
I1126 19:48:54.509980 20584 net.cpp:165] Memory required for data: 500958208
I1126 19:48:54.509984 20584 layer_factory.hpp:76] Creating layer pool1/norm1
I1126 19:48:54.509994 20584 net.cpp:106] Creating Layer pool1/norm1
I1126 19:48:54.509999 20584 net.cpp:454] pool1/norm1 <- pool1/3x3_s2
I1126 19:48:54.510004 20584 net.cpp:411] pool1/norm1 -> pool1/norm1
I1126 19:48:54.510321 20584 net.cpp:150] Setting up pool1/norm1
I1126 19:48:54.510335 20584 net.cpp:157] Top shape: 64 64 56 56 (12845056)
I1126 19:48:54.510340 20584 net.cpp:165] Memory required for data: 552338432
I1126 19:48:54.510344 20584 layer_factory.hpp:76] Creating layer conv2/3x3_reduce
I1126 19:48:54.510354 20584 net.cpp:106] Creating Layer conv2/3x3_reduce
I1126 19:48:54.510357 20584 net.cpp:454] conv2/3x3_reduce <- pool1/norm1
I1126 19:48:54.510366 20584 net.cpp:411] conv2/3x3_reduce -> conv2/3x3_reduce
I1126 19:48:54.511618 20584 net.cpp:150] Setting up conv2/3x3_reduce
I1126 19:48:54.511636 20584 net.cpp:157] Top shape: 64 64 56 56 (12845056)
I1126 19:48:54.511639 20584 net.cpp:165] Memory required for data: 603718656
I1126 19:48:54.511647 20584 layer_factory.hpp:76] Creating layer conv2/relu_3x3_reduce
I1126 19:48:54.511654 20584 net.cpp:106] Creating Layer conv2/relu_3x3_reduce
I1126 19:48:54.511658 20584 net.cpp:454] conv2/relu_3x3_reduce <- conv2/3x3_reduce
I1126 19:48:54.511663 20584 net.cpp:397] conv2/relu_3x3_reduce -> conv2/3x3_reduce (in-place)
I1126 19:48:54.511960 20584 net.cpp:150] Setting up conv2/relu_3x3_reduce
I1126 19:48:54.511973 20584 net.cpp:157] Top shape: 64 64 56 56 (12845056)
I1126 19:48:54.511977 20584 net.cpp:165] Memory required for data: 655098880
I1126 19:48:54.511981 20584 layer_factory.hpp:76] Creating layer conv2/3x3
I1126 19:48:54.511992 20584 net.cpp:106] Creating Layer conv2/3x3
I1126 19:48:54.511996 20584 net.cpp:454] conv2/3x3 <- conv2/3x3_reduce
I1126 19:48:54.512004 20584 net.cpp:411] conv2/3x3 -> conv2/3x3
I1126 19:48:54.514067 20584 net.cpp:150] Setting up conv2/3x3
I1126 19:48:54.514083 20584 net.cpp:157] Top shape: 64 192 56 56 (38535168)
I1126 19:48:54.514086 20584 net.cpp:165] Memory required for data: 809239552
I1126 19:48:54.514096 20584 layer_factory.hpp:76] Creating layer conv2/relu_3x3
I1126 19:48:54.514102 20584 net.cpp:106] Creating Layer conv2/relu_3x3
I1126 19:48:54.514106 20584 net.cpp:454] conv2/relu_3x3 <- conv2/3x3
I1126 19:48:54.514112 20584 net.cpp:397] conv2/relu_3x3 -> conv2/3x3 (in-place)
I1126 19:48:54.514269 20584 net.cpp:150] Setting up conv2/relu_3x3
I1126 19:48:54.514281 20584 net.cpp:157] Top shape: 64 192 56 56 (38535168)
I1126 19:48:54.514286 20584 net.cpp:165] Memory required for data: 963380224
I1126 19:48:54.514288 20584 layer_factory.hpp:76] Creating layer conv2/norm2
I1126 19:48:54.514294 20584 net.cpp:106] Creating Layer conv2/norm2
I1126 19:48:54.514297 20584 net.cpp:454] conv2/norm2 <- conv2/3x3
I1126 19:48:54.514303 20584 net.cpp:411] conv2/norm2 -> conv2/norm2
I1126 19:48:54.514621 20584 net.cpp:150] Setting up conv2/norm2
I1126 19:48:54.514636 20584 net.cpp:157] Top shape: 64 192 56 56 (38535168)
I1126 19:48:54.514638 20584 net.cpp:165] Memory required for data: 1117520896
I1126 19:48:54.514642 20584 layer_factory.hpp:76] Creating layer pool2/3x3_s2
I1126 19:48:54.514648 20584 net.cpp:106] Creating Layer pool2/3x3_s2
I1126 19:48:54.514652 20584 net.cpp:454] pool2/3x3_s2 <- conv2/norm2
I1126 19:48:54.514658 20584 net.cpp:411] pool2/3x3_s2 -> pool2/3x3_s2
I1126 19:48:54.514843 20584 net.cpp:150] Setting up pool2/3x3_s2
I1126 19:48:54.514856 20584 net.cpp:157] Top shape: 64 192 28 28 (9633792)
I1126 19:48:54.514859 20584 net.cpp:165] Memory required for data: 1156056064
I1126 19:48:54.514863 20584 layer_factory.hpp:76] Creating layer pool2/3x3_s2_pool2/3x3_s2_0_split
I1126 19:48:54.514869 20584 net.cpp:106] Creating Layer pool2/3x3_s2_pool2/3x3_s2_0_split
I1126 19:48:54.514873 20584 net.cpp:454] pool2/3x3_s2_pool2/3x3_s2_0_split <- pool2/3x3_s2
I1126 19:48:54.514878 20584 net.cpp:411] pool2/3x3_s2_pool2/3x3_s2_0_split -> pool2/3x3_s2_pool2/3x3_s2_0_split_0
I1126 19:48:54.514884 20584 net.cpp:411] pool2/3x3_s2_pool2/3x3_s2_0_split -> pool2/3x3_s2_pool2/3x3_s2_0_split_1
I1126 19:48:54.514890 20584 net.cpp:411] pool2/3x3_s2_pool2/3x3_s2_0_split -> pool2/3x3_s2_pool2/3x3_s2_0_split_2
I1126 19:48:54.514896 20584 net.cpp:411] pool2/3x3_s2_pool2/3x3_s2_0_split -> pool2/3x3_s2_pool2/3x3_s2_0_split_3
I1126 19:48:54.514947 20584 net.cpp:150] Setting up pool2/3x3_s2_pool2/3x3_s2_0_split
I1126 19:48:54.514955 20584 net.cpp:157] Top shape: 64 192 28 28 (9633792)
I1126 19:48:54.514958 20584 net.cpp:157] Top shape: 64 192 28 28 (9633792)
I1126 19:48:54.514961 20584 net.cpp:157] Top shape: 64 192 28 28 (9633792)
I1126 19:48:54.514966 20584 net.cpp:157] Top shape: 64 192 28 28 (9633792)
I1126 19:48:54.514968 20584 net.cpp:165] Memory required for data: 1310196736
I1126 19:48:54.514971 20584 layer_factory.hpp:76] Creating layer inception_3a/1x1
I1126 19:48:54.514981 20584 net.cpp:106] Creating Layer inception_3a/1x1
I1126 19:48:54.514984 20584 net.cpp:454] inception_3a/1x1 <- pool2/3x3_s2_pool2/3x3_s2_0_split_0
I1126 19:48:54.514991 20584 net.cpp:411] inception_3a/1x1 -> inception_3a/1x1
I1126 19:48:54.516463 20584 net.cpp:150] Setting up inception_3a/1x1
I1126 19:48:54.516480 20584 net.cpp:157] Top shape: 64 64 28 28 (3211264)
I1126 19:48:54.516485 20584 net.cpp:165] Memory required for data: 1323041792
I1126 19:48:54.516492 20584 layer_factory.hpp:76] Creating layer inception_3a/relu_1x1
I1126 19:48:54.516499 20584 net.cpp:106] Creating Layer inception_3a/relu_1x1
I1126 19:48:54.516502 20584 net.cpp:454] inception_3a/relu_1x1 <- inception_3a/1x1
I1126 19:48:54.516507 20584 net.cpp:397] inception_3a/relu_1x1 -> inception_3a/1x1 (in-place)
I1126 19:48:54.516806 20584 net.cpp:150] Setting up inception_3a/relu_1x1
I1126 19:48:54.516820 20584 net.cpp:157] Top shape: 64 64 28 28 (3211264)
I1126 19:48:54.516824 20584 net.cpp:165] Memory required for data: 1335886848
I1126 19:48:54.516827 20584 layer_factory.hpp:76] Creating layer inception_3a/3x3_reduce
I1126 19:48:54.516837 20584 net.cpp:106] Creating Layer inception_3a/3x3_reduce
I1126 19:48:54.516841 20584 net.cpp:454] inception_3a/3x3_reduce <- pool2/3x3_s2_pool2/3x3_s2_0_split_1
I1126 19:48:54.516849 20584 net.cpp:411] inception_3a/3x3_reduce -> inception_3a/3x3_reduce
I1126 19:48:54.518326 20584 net.cpp:150] Setting up inception_3a/3x3_reduce
I1126 19:48:54.518342 20584 net.cpp:157] Top shape: 64 96 28 28 (4816896)
I1126 19:48:54.518345 20584 net.cpp:165] Memory required for data: 1355154432
I1126 19:48:54.518354 20584 layer_factory.hpp:76] Creating layer inception_3a/relu_3x3_reduce
I1126 19:48:54.518362 20584 net.cpp:106] Creating Layer inception_3a/relu_3x3_reduce
I1126 19:48:54.518367 20584 net.cpp:454] inception_3a/relu_3x3_reduce <- inception_3a/3x3_reduce
I1126 19:48:54.518373 20584 net.cpp:397] inception_3a/relu_3x3_reduce -> inception_3a/3x3_reduce (in-place)
I1126 19:48:54.518537 20584 net.cpp:150] Setting up inception_3a/relu_3x3_reduce
I1126 19:48:54.518548 20584 net.cpp:157] Top shape: 64 96 28 28 (4816896)
I1126 19:48:54.518550 20584 net.cpp:165] Memory required for data: 1374422016
I1126 19:48:54.518554 20584 layer_factory.hpp:76] Creating layer inception_3a/3x3
I1126 19:48:54.518563 20584 net.cpp:106] Creating Layer inception_3a/3x3
I1126 19:48:54.518566 20584 net.cpp:454] inception_3a/3x3 <- inception_3a/3x3_reduce
I1126 19:48:54.518573 20584 net.cpp:411] inception_3a/3x3 -> inception_3a/3x3
I1126 19:48:54.520350 20584 net.cpp:150] Setting up inception_3a/3x3
I1126 19:48:54.520365 20584 net.cpp:157] Top shape: 64 128 28 28 (6422528)
I1126 19:48:54.520370 20584 net.cpp:165] Memory required for data: 1400112128
I1126 19:48:54.520375 20584 layer_factory.hpp:76] Creating layer inception_3a/relu_3x3
I1126 19:48:54.520381 20584 net.cpp:106] Creating Layer inception_3a/relu_3x3
I1126 19:48:54.520385 20584 net.cpp:454] inception_3a/relu_3x3 <- inception_3a/3x3
I1126 19:48:54.520392 20584 net.cpp:397] inception_3a/relu_3x3 -> inception_3a/3x3 (in-place)
I1126 19:48:54.520551 20584 net.cpp:150] Setting up inception_3a/relu_3x3
I1126 19:48:54.520562 20584 net.cpp:157] Top shape: 64 128 28 28 (6422528)
I1126 19:48:54.520565 20584 net.cpp:165] Memory required for data: 1425802240
I1126 19:48:54.520568 20584 layer_factory.hpp:76] Creating layer inception_3a/5x5_reduce
I1126 19:48:54.520580 20584 net.cpp:106] Creating Layer inception_3a/5x5_reduce
I1126 19:48:54.520583 20584 net.cpp:454] inception_3a/5x5_reduce <- pool2/3x3_s2_pool2/3x3_s2_0_split_2
I1126 19:48:54.520588 20584 net.cpp:411] inception_3a/5x5_reduce -> inception_3a/5x5_reduce
I1126 19:48:54.521559 20584 net.cpp:150] Setting up inception_3a/5x5_reduce
I1126 19:48:54.521574 20584 net.cpp:157] Top shape: 64 16 28 28 (802816)
I1126 19:48:54.521576 20584 net.cpp:165] Memory required for data: 1429013504
I1126 19:48:54.521582 20584 layer_factory.hpp:76] Creating layer inception_3a/relu_5x5_reduce
I1126 19:48:54.521589 20584 net.cpp:106] Creating Layer inception_3a/relu_5x5_reduce
I1126 19:48:54.521592 20584 net.cpp:454] inception_3a/relu_5x5_reduce <- inception_3a/5x5_reduce
I1126 19:48:54.521597 20584 net.cpp:397] inception_3a/relu_5x5_reduce -> inception_3a/5x5_reduce (in-place)
I1126 19:48:54.521893 20584 net.cpp:150] Setting up inception_3a/relu_5x5_reduce
I1126 19:48:54.521906 20584 net.cpp:157] Top shape: 64 16 28 28 (802816)
I1126 19:48:54.521910 20584 net.cpp:165] Memory required for data: 1432224768
I1126 19:48:54.521914 20584 layer_factory.hpp:76] Creating layer inception_3a/5x5
I1126 19:48:54.521924 20584 net.cpp:106] Creating Layer inception_3a/5x5
I1126 19:48:54.521927 20584 net.cpp:454] inception_3a/5x5 <- inception_3a/5x5_reduce
I1126 19:48:54.521934 20584 net.cpp:411] inception_3a/5x5 -> inception_3a/5x5
I1126 19:48:54.522958 20584 net.cpp:150] Setting up inception_3a/5x5
I1126 19:48:54.522974 20584 net.cpp:157] Top shape: 64 32 28 28 (1605632)
I1126 19:48:54.522976 20584 net.cpp:165] Memory required for data: 1438647296
I1126 19:48:54.522982 20584 layer_factory.hpp:76] Creating layer inception_3a/relu_5x5
I1126 19:48:54.522990 20584 net.cpp:106] Creating Layer inception_3a/relu_5x5
I1126 19:48:54.522994 20584 net.cpp:454] inception_3a/relu_5x5 <- inception_3a/5x5
I1126 19:48:54.523000 20584 net.cpp:397] inception_3a/relu_5x5 -> inception_3a/5x5 (in-place)
I1126 19:48:54.523164 20584 net.cpp:150] Setting up inception_3a/relu_5x5
I1126 19:48:54.523175 20584 net.cpp:157] Top shape: 64 32 28 28 (1605632)
I1126 19:48:54.523177 20584 net.cpp:165] Memory required for data: 1445069824
I1126 19:48:54.523180 20584 layer_factory.hpp:76] Creating layer inception_3a/pool
I1126 19:48:54.523187 20584 net.cpp:106] Creating Layer inception_3a/pool
I1126 19:48:54.523191 20584 net.cpp:454] inception_3a/pool <- pool2/3x3_s2_pool2/3x3_s2_0_split_3
I1126 19:48:54.523200 20584 net.cpp:411] inception_3a/pool -> inception_3a/pool
I1126 19:48:54.523538 20584 net.cpp:150] Setting up inception_3a/pool
I1126 19:48:54.523551 20584 net.cpp:157] Top shape: 64 192 28 28 (9633792)
I1126 19:48:54.523555 20584 net.cpp:165] Memory required for data: 1483604992
I1126 19:48:54.523558 20584 layer_factory.hpp:76] Creating layer inception_3a/pool_proj
I1126 19:48:54.523567 20584 net.cpp:106] Creating Layer inception_3a/pool_proj
I1126 19:48:54.523571 20584 net.cpp:454] inception_3a/pool_proj <- inception_3a/pool
I1126 19:48:54.523577 20584 net.cpp:411] inception_3a/pool_proj -> inception_3a/pool_proj
I1126 19:48:54.524472 20584 net.cpp:150] Setting up inception_3a/pool_proj
I1126 19:48:54.524489 20584 net.cpp:157] Top shape: 64 32 28 28 (1605632)
I1126 19:48:54.524493 20584 net.cpp:165] Memory required for data: 1490027520
I1126 19:48:54.524503 20584 layer_factory.hpp:76] Creating layer inception_3a/relu_pool_proj
I1126 19:48:54.524510 20584 net.cpp:106] Creating Layer inception_3a/relu_pool_proj
I1126 19:48:54.524516 20584 net.cpp:454] inception_3a/relu_pool_proj <- inception_3a/pool_proj
I1126 19:48:54.524520 20584 net.cpp:397] inception_3a/relu_pool_proj -> inception_3a/pool_proj (in-place)
I1126 19:48:54.524816 20584 net.cpp:150] Setting up inception_3a/relu_pool_proj
I1126 19:48:54.524832 20584 net.cpp:157] Top shape: 64 32 28 28 (1605632)
I1126 19:48:54.524835 20584 net.cpp:165] Memory required for data: 1496450048
I1126 19:48:54.524839 20584 layer_factory.hpp:76] Creating layer inception_3a/output
I1126 19:48:54.524848 20584 net.cpp:106] Creating Layer inception_3a/output
I1126 19:48:54.524852 20584 net.cpp:454] inception_3a/output <- inception_3a/1x1
I1126 19:48:54.524857 20584 net.cpp:454] inception_3a/output <- inception_3a/3x3
I1126 19:48:54.524860 20584 net.cpp:454] inception_3a/output <- inception_3a/5x5
I1126 19:48:54.524864 20584 net.cpp:454] inception_3a/output <- inception_3a/pool_proj
I1126 19:48:54.524869 20584 net.cpp:411] inception_3a/output -> inception_3a/output
I1126 19:48:54.524904 20584 net.cpp:150] Setting up inception_3a/output
I1126 19:48:54.524909 20584 net.cpp:157] Top shape: 64 256 28 28 (12845056)
I1126 19:48:54.524912 20584 net.cpp:165] Memory required for data: 1547830272
I1126 19:48:54.524915 20584 layer_factory.hpp:76] Creating layer inception_3a/output_inception_3a/output_0_split
I1126 19:48:54.524920 20584 net.cpp:106] Creating Layer inception_3a/output_inception_3a/output_0_split
I1126 19:48:54.524925 20584 net.cpp:454] inception_3a/output_inception_3a/output_0_split <- inception_3a/output
I1126 19:48:54.524930 20584 net.cpp:411] inception_3a/output_inception_3a/output_0_split -> inception_3a/output_inception_3a/output_0_split_0
I1126 19:48:54.524935 20584 net.cpp:411] inception_3a/output_inception_3a/output_0_split -> inception_3a/output_inception_3a/output_0_split_1
I1126 19:48:54.524941 20584 net.cpp:411] inception_3a/output_inception_3a/output_0_split -> inception_3a/output_inception_3a/output_0_split_2
I1126 19:48:54.524946 20584 net.cpp:411] inception_3a/output_inception_3a/output_0_split -> inception_3a/output_inception_3a/output_0_split_3
I1126 19:48:54.525001 20584 net.cpp:150] Setting up inception_3a/output_inception_3a/output_0_split
I1126 19:48:54.525008 20584 net.cpp:157] Top shape: 64 256 28 28 (12845056)
I1126 19:48:54.525012 20584 net.cpp:157] Top shape: 64 256 28 28 (12845056)
I1126 19:48:54.525015 20584 net.cpp:157] Top shape: 64 256 28 28 (12845056)
I1126 19:48:54.525018 20584 net.cpp:157] Top shape: 64 256 28 28 (12845056)
I1126 19:48:54.525022 20584 net.cpp:165] Memory required for data: 1753351168
I1126 19:48:54.525024 20584 layer_factory.hpp:76] Creating layer inception_3b/1x1
I1126 19:48:54.525032 20584 net.cpp:106] Creating Layer inception_3b/1x1
I1126 19:48:54.525037 20584 net.cpp:454] inception_3b/1x1 <- inception_3a/output_inception_3a/output_0_split_0
I1126 19:48:54.525041 20584 net.cpp:411] inception_3b/1x1 -> inception_3b/1x1
I1126 19:48:54.526183 20584 net.cpp:150] Setting up inception_3b/1x1
I1126 19:48:54.526198 20584 net.cpp:157] Top shape: 64 128 28 28 (6422528)
I1126 19:48:54.526202 20584 net.cpp:165] Memory required for data: 1779041280
I1126 19:48:54.526209 20584 layer_factory.hpp:76] Creating layer inception_3b/relu_1x1
I1126 19:48:54.526217 20584 net.cpp:106] Creating Layer inception_3b/relu_1x1
I1126 19:48:54.526221 20584 net.cpp:454] inception_3b/relu_1x1 <- inception_3b/1x1
I1126 19:48:54.526226 20584 net.cpp:397] inception_3b/relu_1x1 -> inception_3b/1x1 (in-place)
I1126 19:48:54.526393 20584 net.cpp:150] Setting up inception_3b/relu_1x1
I1126 19:48:54.526403 20584 net.cpp:157] Top shape: 64 128 28 28 (6422528)
I1126 19:48:54.526407 20584 net.cpp:165] Memory required for data: 1804731392
I1126 19:48:54.526410 20584 layer_factory.hpp:76] Creating layer inception_3b/3x3_reduce
I1126 19:48:54.526419 20584 net.cpp:106] Creating Layer inception_3b/3x3_reduce
I1126 19:48:54.526423 20584 net.cpp:454] inception_3b/3x3_reduce <- inception_3a/output_inception_3a/output_0_split_1
I1126 19:48:54.526429 20584 net.cpp:411] inception_3b/3x3_reduce -> inception_3b/3x3_reduce
I1126 19:48:54.527591 20584 net.cpp:150] Setting up inception_3b/3x3_reduce
I1126 19:48:54.527606 20584 net.cpp:157] Top shape: 64 128 28 28 (6422528)
I1126 19:48:54.527611 20584 net.cpp:165] Memory required for data: 1830421504
I1126 19:48:54.527616 20584 layer_factory.hpp:76] Creating layer inception_3b/relu_3x3_reduce
I1126 19:48:54.527624 20584 net.cpp:106] Creating Layer inception_3b/relu_3x3_reduce
I1126 19:48:54.527628 20584 net.cpp:454] inception_3b/relu_3x3_reduce <- inception_3b/3x3_reduce
I1126 19:48:54.527634 20584 net.cpp:397] inception_3b/relu_3x3_reduce -> inception_3b/3x3_reduce (in-place)
I1126 19:48:54.527932 20584 net.cpp:150] Setting up inception_3b/relu_3x3_reduce
I1126 19:48:54.527957 20584 net.cpp:157] Top shape: 64 128 28 28 (6422528)
I1126 19:48:54.527962 20584 net.cpp:165] Memory required for data: 1856111616
I1126 19:48:54.527966 20584 layer_factory.hpp:76] Creating layer inception_3b/3x3
I1126 19:48:54.527978 20584 net.cpp:106] Creating Layer inception_3b/3x3
I1126 19:48:54.527982 20584 net.cpp:454] inception_3b/3x3 <- inception_3b/3x3_reduce
I1126 19:48:54.527990 20584 net.cpp:411] inception_3b/3x3 -> inception_3b/3x3
I1126 19:48:54.530668 20584 net.cpp:150] Setting up inception_3b/3x3
I1126 19:48:54.530681 20584 net.cpp:157] Top shape: 64 192 28 28 (9633792)
I1126 19:48:54.530685 20584 net.cpp:165] Memory required for data: 1894646784
I1126 19:48:54.530691 20584 layer_factory.hpp:76] Creating layer inception_3b/relu_3x3
I1126 19:48:54.530699 20584 net.cpp:106] Creating Layer inception_3b/relu_3x3
I1126 19:48:54.530704 20584 net.cpp:454] inception_3b/relu_3x3 <- inception_3b/3x3
I1126 19:48:54.530709 20584 net.cpp:397] inception_3b/relu_3x3 -> inception_3b/3x3 (in-place)
I1126 19:48:54.531159 20584 net.cpp:150] Setting up inception_3b/relu_3x3
I1126 19:48:54.531173 20584 net.cpp:157] Top shape: 64 192 28 28 (9633792)
I1126 19:48:54.531177 20584 net.cpp:165] Memory required for data: 1933181952
I1126 19:48:54.531182 20584 layer_factory.hpp:76] Creating layer inception_3b/5x5_reduce
I1126 19:48:54.531190 20584 net.cpp:106] Creating Layer inception_3b/5x5_reduce
I1126 19:48:54.531195 20584 net.cpp:454] inception_3b/5x5_reduce <- inception_3a/output_inception_3a/output_0_split_2
I1126 19:48:54.531203 20584 net.cpp:411] inception_3b/5x5_reduce -> inception_3b/5x5_reduce
I1126 19:48:54.532258 20584 net.cpp:150] Setting up inception_3b/5x5_reduce
I1126 19:48:54.532274 20584 net.cpp:157] Top shape: 64 32 28 28 (1605632)
I1126 19:48:54.532276 20584 net.cpp:165] Memory required for data: 1939604480
I1126 19:48:54.532284 20584 layer_factory.hpp:76] Creating layer inception_3b/relu_5x5_reduce
I1126 19:48:54.532289 20584 net.cpp:106] Creating Layer inception_3b/relu_5x5_reduce
I1126 19:48:54.532294 20584 net.cpp:454] inception_3b/relu_5x5_reduce <- inception_3b/5x5_reduce
I1126 19:48:54.532300 20584 net.cpp:397] inception_3b/relu_5x5_reduce -> inception_3b/5x5_reduce (in-place)
I1126 19:48:54.532470 20584 net.cpp:150] Setting up inception_3b/relu_5x5_reduce
I1126 19:48:54.532482 20584 net.cpp:157] Top shape: 64 32 28 28 (1605632)
I1126 19:48:54.532485 20584 net.cpp:165] Memory required for data: 1946027008
I1126 19:48:54.532490 20584 layer_factory.hpp:76] Creating layer inception_3b/5x5
I1126 19:48:54.532498 20584 net.cpp:106] Creating Layer inception_3b/5x5
I1126 19:48:54.532502 20584 net.cpp:454] inception_3b/5x5 <- inception_3b/5x5_reduce
I1126 19:48:54.532510 20584 net.cpp:411] inception_3b/5x5 -> inception_3b/5x5
I1126 19:48:54.534411 20584 net.cpp:150] Setting up inception_3b/5x5
I1126 19:48:54.534426 20584 net.cpp:157] Top shape: 64 96 28 28 (4816896)
I1126 19:48:54.534430 20584 net.cpp:165] Memory required for data: 1965294592
I1126 19:48:54.534436 20584 layer_factory.hpp:76] Creating layer inception_3b/relu_5x5
I1126 19:48:54.534442 20584 net.cpp:106] Creating Layer inception_3b/relu_5x5
I1126 19:48:54.534446 20584 net.cpp:454] inception_3b/relu_5x5 <- inception_3b/5x5
I1126 19:48:54.534451 20584 net.cpp:397] inception_3b/relu_5x5 -> inception_3b/5x5 (in-place)
I1126 19:48:54.534754 20584 net.cpp:150] Setting up inception_3b/relu_5x5
I1126 19:48:54.534768 20584 net.cpp:157] Top shape: 64 96 28 28 (4816896)
I1126 19:48:54.534772 20584 net.cpp:165] Memory required for data: 1984562176
I1126 19:48:54.534775 20584 layer_factory.hpp:76] Creating layer inception_3b/pool
I1126 19:48:54.534782 20584 net.cpp:106] Creating Layer inception_3b/pool
I1126 19:48:54.534786 20584 net.cpp:454] inception_3b/pool <- inception_3a/output_inception_3a/output_0_split_3
I1126 19:48:54.534793 20584 net.cpp:411] inception_3b/pool -> inception_3b/pool
I1126 19:48:54.534981 20584 net.cpp:150] Setting up inception_3b/pool
I1126 19:48:54.534994 20584 net.cpp:157] Top shape: 64 256 28 28 (12845056)
I1126 19:48:54.534998 20584 net.cpp:165] Memory required for data: 2035942400
I1126 19:48:54.535001 20584 layer_factory.hpp:76] Creating layer inception_3b/pool_proj
I1126 19:48:54.535008 20584 net.cpp:106] Creating Layer inception_3b/pool_proj
I1126 19:48:54.535012 20584 net.cpp:454] inception_3b/pool_proj <- inception_3b/pool
I1126 19:48:54.535020 20584 net.cpp:411] inception_3b/pool_proj -> inception_3b/pool_proj
I1126 19:48:54.536130 20584 net.cpp:150] Setting up inception_3b/pool_proj
I1126 19:48:54.536145 20584 net.cpp:157] Top shape: 64 64 28 28 (3211264)
I1126 19:48:54.536149 20584 net.cpp:165] Memory required for data: 2048787456
I1126 19:48:54.536155 20584 layer_factory.hpp:76] Creating layer inception_3b/relu_pool_proj
I1126 19:48:54.536164 20584 net.cpp:106] Creating Layer inception_3b/relu_pool_proj
I1126 19:48:54.536167 20584 net.cpp:454] inception_3b/relu_pool_proj <- inception_3b/pool_proj
I1126 19:48:54.536172 20584 net.cpp:397] inception_3b/relu_pool_proj -> inception_3b/pool_proj (in-place)
I1126 19:48:54.536337 20584 net.cpp:150] Setting up inception_3b/relu_pool_proj
I1126 19:48:54.536348 20584 net.cpp:157] Top shape: 64 64 28 28 (3211264)
I1126 19:48:54.536351 20584 net.cpp:165] Memory required for data: 2061632512
I1126 19:48:54.536355 20584 layer_factory.hpp:76] Creating layer inception_3b/output
I1126 19:48:54.536360 20584 net.cpp:106] Creating Layer inception_3b/output
I1126 19:48:54.536365 20584 net.cpp:454] inception_3b/output <- inception_3b/1x1
I1126 19:48:54.536368 20584 net.cpp:454] inception_3b/output <- inception_3b/3x3
I1126 19:48:54.536372 20584 net.cpp:454] inception_3b/output <- inception_3b/5x5
I1126 19:48:54.536375 20584 net.cpp:454] inception_3b/output <- inception_3b/pool_proj
I1126 19:48:54.536381 20584 net.cpp:411] inception_3b/output -> inception_3b/output
I1126 19:48:54.536411 20584 net.cpp:150] Setting up inception_3b/output
I1126 19:48:54.536417 20584 net.cpp:157] Top shape: 64 480 28 28 (24084480)
I1126 19:48:54.536420 20584 net.cpp:165] Memory required for data: 2157970432
I1126 19:48:54.536423 20584 layer_factory.hpp:76] Creating layer pool3/3x3_s2
I1126 19:48:54.536429 20584 net.cpp:106] Creating Layer pool3/3x3_s2
I1126 19:48:54.536432 20584 net.cpp:454] pool3/3x3_s2 <- inception_3b/output
I1126 19:48:54.536437 20584 net.cpp:411] pool3/3x3_s2 -> pool3/3x3_s2
I1126 19:48:54.536762 20584 net.cpp:150] Setting up pool3/3x3_s2
I1126 19:48:54.536775 20584 net.cpp:157] Top shape: 64 480 14 14 (6021120)
I1126 19:48:54.536779 20584 net.cpp:165] Memory required for data: 2182054912
I1126 19:48:54.536782 20584 layer_factory.hpp:76] Creating layer pool3/3x3_s2_pool3/3x3_s2_0_split
I1126 19:48:54.536788 20584 net.cpp:106] Creating Layer pool3/3x3_s2_pool3/3x3_s2_0_split
I1126 19:48:54.536793 20584 net.cpp:454] pool3/3x3_s2_pool3/3x3_s2_0_split <- pool3/3x3_s2
I1126 19:48:54.536800 20584 net.cpp:411] pool3/3x3_s2_pool3/3x3_s2_0_split -> pool3/3x3_s2_pool3/3x3_s2_0_split_0
I1126 19:48:54.536806 20584 net.cpp:411] pool3/3x3_s2_pool3/3x3_s2_0_split -> pool3/3x3_s2_pool3/3x3_s2_0_split_1
I1126 19:48:54.536813 20584 net.cpp:411] pool3/3x3_s2_pool3/3x3_s2_0_split -> pool3/3x3_s2_pool3/3x3_s2_0_split_2
I1126 19:48:54.536818 20584 net.cpp:411] pool3/3x3_s2_pool3/3x3_s2_0_split -> pool3/3x3_s2_pool3/3x3_s2_0_split_3
I1126 19:48:54.536875 20584 net.cpp:150] Setting up pool3/3x3_s2_pool3/3x3_s2_0_split
I1126 19:48:54.536881 20584 net.cpp:157] Top shape: 64 480 14 14 (6021120)
I1126 19:48:54.536885 20584 net.cpp:157] Top shape: 64 480 14 14 (6021120)
I1126 19:48:54.536890 20584 net.cpp:157] Top shape: 64 480 14 14 (6021120)
I1126 19:48:54.536892 20584 net.cpp:157] Top shape: 64 480 14 14 (6021120)
I1126 19:48:54.536895 20584 net.cpp:165] Memory required for data: 2278392832
I1126 19:48:54.536898 20584 layer_factory.hpp:76] Creating layer inception_4a/1x1
I1126 19:48:54.536907 20584 net.cpp:106] Creating Layer inception_4a/1x1
I1126 19:48:54.536911 20584 net.cpp:454] inception_4a/1x1 <- pool3/3x3_s2_pool3/3x3_s2_0_split_0
I1126 19:48:54.536916 20584 net.cpp:411] inception_4a/1x1 -> inception_4a/1x1
I1126 19:48:54.538601 20584 net.cpp:150] Setting up inception_4a/1x1
I1126 19:48:54.538617 20584 net.cpp:157] Top shape: 64 192 14 14 (2408448)
I1126 19:48:54.538621 20584 net.cpp:165] Memory required for data: 2288026624
I1126 19:48:54.538627 20584 layer_factory.hpp:76] Creating layer inception_4a/relu_1x1
I1126 19:48:54.538635 20584 net.cpp:106] Creating Layer inception_4a/relu_1x1
I1126 19:48:54.538640 20584 net.cpp:454] inception_4a/relu_1x1 <- inception_4a/1x1
I1126 19:48:54.538645 20584 net.cpp:397] inception_4a/relu_1x1 -> inception_4a/1x1 (in-place)
I1126 19:48:54.538813 20584 net.cpp:150] Setting up inception_4a/relu_1x1
I1126 19:48:54.538825 20584 net.cpp:157] Top shape: 64 192 14 14 (2408448)
I1126 19:48:54.538827 20584 net.cpp:165] Memory required for data: 2297660416
I1126 19:48:54.538830 20584 layer_factory.hpp:76] Creating layer inception_4a/3x3_reduce
I1126 19:48:54.538839 20584 net.cpp:106] Creating Layer inception_4a/3x3_reduce
I1126 19:48:54.538843 20584 net.cpp:454] inception_4a/3x3_reduce <- pool3/3x3_s2_pool3/3x3_s2_0_split_1
I1126 19:48:54.538851 20584 net.cpp:411] inception_4a/3x3_reduce -> inception_4a/3x3_reduce
I1126 19:48:54.540166 20584 net.cpp:150] Setting up inception_4a/3x3_reduce
I1126 19:48:54.540181 20584 net.cpp:157] Top shape: 64 96 14 14 (1204224)
I1126 19:48:54.540185 20584 net.cpp:165] Memory required for data: 2302477312
I1126 19:48:54.540199 20584 layer_factory.hpp:76] Creating layer inception_4a/relu_3x3_reduce
I1126 19:48:54.540205 20584 net.cpp:106] Creating Layer inception_4a/relu_3x3_reduce
I1126 19:48:54.540210 20584 net.cpp:454] inception_4a/relu_3x3_reduce <- inception_4a/3x3_reduce
I1126 19:48:54.540215 20584 net.cpp:397] inception_4a/relu_3x3_reduce -> inception_4a/3x3_reduce (in-place)
I1126 19:48:54.540514 20584 net.cpp:150] Setting up inception_4a/relu_3x3_reduce
I1126 19:48:54.540529 20584 net.cpp:157] Top shape: 64 96 14 14 (1204224)
I1126 19:48:54.540534 20584 net.cpp:165] Memory required for data: 2307294208
I1126 19:48:54.540536 20584 layer_factory.hpp:76] Creating layer inception_4a/3x3
I1126 19:48:54.540544 20584 net.cpp:106] Creating Layer inception_4a/3x3
I1126 19:48:54.540549 20584 net.cpp:454] inception_4a/3x3 <- inception_4a/3x3_reduce
I1126 19:48:54.540555 20584 net.cpp:411] inception_4a/3x3 -> inception_4a/3x3
I1126 19:48:54.542997 20584 net.cpp:150] Setting up inception_4a/3x3
I1126 19:48:54.543014 20584 net.cpp:157] Top shape: 64 208 14 14 (2609152)
I1126 19:48:54.543017 20584 net.cpp:165] Memory required for data: 2317730816
I1126 19:48:54.543025 20584 layer_factory.hpp:76] Creating layer inception_4a/relu_3x3
I1126 19:48:54.543030 20584 net.cpp:106] Creating Layer inception_4a/relu_3x3
I1126 19:48:54.543033 20584 net.cpp:454] inception_4a/relu_3x3 <- inception_4a/3x3
I1126 19:48:54.543040 20584 net.cpp:397] inception_4a/relu_3x3 -> inception_4a/3x3 (in-place)
I1126 19:48:54.543337 20584 net.cpp:150] Setting up inception_4a/relu_3x3
I1126 19:48:54.543351 20584 net.cpp:157] Top shape: 64 208 14 14 (2609152)
I1126 19:48:54.543354 20584 net.cpp:165] Memory required for data: 2328167424
I1126 19:48:54.543359 20584 layer_factory.hpp:76] Creating layer inception_4a/5x5_reduce
I1126 19:48:54.543367 20584 net.cpp:106] Creating Layer inception_4a/5x5_reduce
I1126 19:48:54.543371 20584 net.cpp:454] inception_4a/5x5_reduce <- pool3/3x3_s2_pool3/3x3_s2_0_split_2
I1126 19:48:54.543380 20584 net.cpp:411] inception_4a/5x5_reduce -> inception_4a/5x5_reduce
I1126 19:48:54.544430 20584 net.cpp:150] Setting up inception_4a/5x5_reduce
I1126 19:48:54.544445 20584 net.cpp:157] Top shape: 64 16 14 14 (200704)
I1126 19:48:54.544448 20584 net.cpp:165] Memory required for data: 2328970240
I1126 19:48:54.544455 20584 layer_factory.hpp:76] Creating layer inception_4a/relu_5x5_reduce
I1126 19:48:54.544461 20584 net.cpp:106] Creating Layer inception_4a/relu_5x5_reduce
I1126 19:48:54.544466 20584 net.cpp:454] inception_4a/relu_5x5_reduce <- inception_4a/5x5_reduce
I1126 19:48:54.544471 20584 net.cpp:397] inception_4a/relu_5x5_reduce -> inception_4a/5x5_reduce (in-place)
I1126 19:48:54.544764 20584 net.cpp:150] Setting up inception_4a/relu_5x5_reduce
I1126 19:48:54.544777 20584 net.cpp:157] Top shape: 64 16 14 14 (200704)
I1126 19:48:54.544780 20584 net.cpp:165] Memory required for data: 2329773056
I1126 19:48:54.544785 20584 layer_factory.hpp:76] Creating layer inception_4a/5x5
I1126 19:48:54.544796 20584 net.cpp:106] Creating Layer inception_4a/5x5
I1126 19:48:54.544800 20584 net.cpp:454] inception_4a/5x5 <- inception_4a/5x5_reduce
I1126 19:48:54.544806 20584 net.cpp:411] inception_4a/5x5 -> inception_4a/5x5
I1126 19:48:54.545941 20584 net.cpp:150] Setting up inception_4a/5x5
I1126 19:48:54.545956 20584 net.cpp:157] Top shape: 64 48 14 14 (602112)
I1126 19:48:54.545959 20584 net.cpp:165] Memory required for data: 2332181504
I1126 19:48:54.545966 20584 layer_factory.hpp:76] Creating layer inception_4a/relu_5x5
I1126 19:48:54.545974 20584 net.cpp:106] Creating Layer inception_4a/relu_5x5
I1126 19:48:54.545979 20584 net.cpp:454] inception_4a/relu_5x5 <- inception_4a/5x5
I1126 19:48:54.545984 20584 net.cpp:397] inception_4a/relu_5x5 -> inception_4a/5x5 (in-place)
I1126 19:48:54.546285 20584 net.cpp:150] Setting up inception_4a/relu_5x5
I1126 19:48:54.546299 20584 net.cpp:157] Top shape: 64 48 14 14 (602112)
I1126 19:48:54.546303 20584 net.cpp:165] Memory required for data: 2334589952
I1126 19:48:54.546306 20584 layer_factory.hpp:76] Creating layer inception_4a/pool
I1126 19:48:54.546314 20584 net.cpp:106] Creating Layer inception_4a/pool
I1126 19:48:54.546319 20584 net.cpp:454] inception_4a/pool <- pool3/3x3_s2_pool3/3x3_s2_0_split_3
I1126 19:48:54.546324 20584 net.cpp:411] inception_4a/pool -> inception_4a/pool
I1126 19:48:54.546519 20584 net.cpp:150] Setting up inception_4a/pool
I1126 19:48:54.546530 20584 net.cpp:157] Top shape: 64 480 14 14 (6021120)
I1126 19:48:54.546533 20584 net.cpp:165] Memory required for data: 2358674432
I1126 19:48:54.546536 20584 layer_factory.hpp:76] Creating layer inception_4a/pool_proj
I1126 19:48:54.546545 20584 net.cpp:106] Creating Layer inception_4a/pool_proj
I1126 19:48:54.546550 20584 net.cpp:454] inception_4a/pool_proj <- inception_4a/pool
I1126 19:48:54.546555 20584 net.cpp:411] inception_4a/pool_proj -> inception_4a/pool_proj
I1126 19:48:54.547746 20584 net.cpp:150] Setting up inception_4a/pool_proj
I1126 19:48:54.547761 20584 net.cpp:157] Top shape: 64 64 14 14 (802816)
I1126 19:48:54.547765 20584 net.cpp:165] Memory required for data: 2361885696
I1126 19:48:54.547771 20584 layer_factory.hpp:76] Creating layer inception_4a/relu_pool_proj
I1126 19:48:54.547777 20584 net.cpp:106] Creating Layer inception_4a/relu_pool_proj
I1126 19:48:54.547781 20584 net.cpp:454] inception_4a/relu_pool_proj <- inception_4a/pool_proj
I1126 19:48:54.547788 20584 net.cpp:397] inception_4a/relu_pool_proj -> inception_4a/pool_proj (in-place)
I1126 19:48:54.548110 20584 net.cpp:150] Setting up inception_4a/relu_pool_proj
I1126 19:48:54.548123 20584 net.cpp:157] Top shape: 64 64 14 14 (802816)
I1126 19:48:54.548127 20584 net.cpp:165] Memory required for data: 2365096960
I1126 19:48:54.548131 20584 layer_factory.hpp:76] Creating layer inception_4a/output
I1126 19:48:54.548137 20584 net.cpp:106] Creating Layer inception_4a/output
I1126 19:48:54.548141 20584 net.cpp:454] inception_4a/output <- inception_4a/1x1
I1126 19:48:54.548146 20584 net.cpp:454] inception_4a/output <- inception_4a/3x3
I1126 19:48:54.548149 20584 net.cpp:454] inception_4a/output <- inception_4a/5x5
I1126 19:48:54.548153 20584 net.cpp:454] inception_4a/output <- inception_4a/pool_proj
I1126 19:48:54.548166 20584 net.cpp:411] inception_4a/output -> inception_4a/output
I1126 19:48:54.548199 20584 net.cpp:150] Setting up inception_4a/output
I1126 19:48:54.548207 20584 net.cpp:157] Top shape: 64 512 14 14 (6422528)
I1126 19:48:54.548209 20584 net.cpp:165] Memory required for data: 2390787072
I1126 19:48:54.548213 20584 layer_factory.hpp:76] Creating layer inception_4a/output_inception_4a/output_0_split
I1126 19:48:54.548219 20584 net.cpp:106] Creating Layer inception_4a/output_inception_4a/output_0_split
I1126 19:48:54.548223 20584 net.cpp:454] inception_4a/output_inception_4a/output_0_split <- inception_4a/output
I1126 19:48:54.548228 20584 net.cpp:411] inception_4a/output_inception_4a/output_0_split -> inception_4a/output_inception_4a/output_0_split_0
I1126 19:48:54.548234 20584 net.cpp:411] inception_4a/output_inception_4a/output_0_split -> inception_4a/output_inception_4a/output_0_split_1
I1126 19:48:54.548240 20584 net.cpp:411] inception_4a/output_inception_4a/output_0_split -> inception_4a/output_inception_4a/output_0_split_2
I1126 19:48:54.548246 20584 net.cpp:411] inception_4a/output_inception_4a/output_0_split -> inception_4a/output_inception_4a/output_0_split_3
I1126 19:48:54.548251 20584 net.cpp:411] inception_4a/output_inception_4a/output_0_split -> inception_4a/output_inception_4a/output_0_split_4
I1126 19:48:54.548322 20584 net.cpp:150] Setting up inception_4a/output_inception_4a/output_0_split
I1126 19:48:54.548331 20584 net.cpp:157] Top shape: 64 512 14 14 (6422528)
I1126 19:48:54.548336 20584 net.cpp:157] Top shape: 64 512 14 14 (6422528)
I1126 19:48:54.548339 20584 net.cpp:157] Top shape: 64 512 14 14 (6422528)
I1126 19:48:54.548342 20584 net.cpp:157] Top shape: 64 512 14 14 (6422528)
I1126 19:48:54.548346 20584 net.cpp:157] Top shape: 64 512 14 14 (6422528)
I1126 19:48:54.548348 20584 net.cpp:165] Memory required for data: 2519237632
I1126 19:48:54.548352 20584 layer_factory.hpp:76] Creating layer loss1/ave_pool
I1126 19:48:54.548357 20584 net.cpp:106] Creating Layer loss1/ave_pool
I1126 19:48:54.548360 20584 net.cpp:454] loss1/ave_pool <- inception_4a/output_inception_4a/output_0_split_0
I1126 19:48:54.548365 20584 net.cpp:411] loss1/ave_pool -> loss1/ave_pool
I1126 19:48:54.548547 20584 net.cpp:150] Setting up loss1/ave_pool
I1126 19:48:54.548557 20584 net.cpp:157] Top shape: 64 512 4 4 (524288)
I1126 19:48:54.548560 20584 net.cpp:165] Memory required for data: 2521334784
I1126 19:48:54.548563 20584 layer_factory.hpp:76] Creating layer loss1/conv
I1126 19:48:54.548573 20584 net.cpp:106] Creating Layer loss1/conv
I1126 19:48:54.548576 20584 net.cpp:454] loss1/conv <- loss1/ave_pool
I1126 19:48:54.548583 20584 net.cpp:411] loss1/conv -> loss1/conv
I1126 19:48:54.549998 20584 net.cpp:150] Setting up loss1/conv
I1126 19:48:54.550011 20584 net.cpp:157] Top shape: 64 128 4 4 (131072)
I1126 19:48:54.550015 20584 net.cpp:165] Memory required for data: 2521859072
I1126 19:48:54.550021 20584 layer_factory.hpp:76] Creating layer loss1/relu_conv
I1126 19:48:54.550029 20584 net.cpp:106] Creating Layer loss1/relu_conv
I1126 19:48:54.550034 20584 net.cpp:454] loss1/relu_conv <- loss1/conv
I1126 19:48:54.550040 20584 net.cpp:397] loss1/relu_conv -> loss1/conv (in-place)
I1126 19:48:54.550204 20584 net.cpp:150] Setting up loss1/relu_conv
I1126 19:48:54.550215 20584 net.cpp:157] Top shape: 64 128 4 4 (131072)
I1126 19:48:54.550218 20584 net.cpp:165] Memory required for data: 2522383360
I1126 19:48:54.550221 20584 layer_factory.hpp:76] Creating layer loss1/fc
I1126 19:48:54.550228 20584 net.cpp:106] Creating Layer loss1/fc
I1126 19:48:54.550231 20584 net.cpp:454] loss1/fc <- loss1/conv
I1126 19:48:54.550237 20584 net.cpp:411] loss1/fc -> loss1/fc
I1126 19:48:54.565742 20584 net.cpp:150] Setting up loss1/fc
I1126 19:48:54.565757 20584 net.cpp:157] Top shape: 64 1024 (65536)
I1126 19:48:54.565760 20584 net.cpp:165] Memory required for data: 2522645504
I1126 19:48:54.565768 20584 layer_factory.hpp:76] Creating layer loss1/relu_fc
I1126 19:48:54.565773 20584 net.cpp:106] Creating Layer loss1/relu_fc
I1126 19:48:54.565778 20584 net.cpp:454] loss1/relu_fc <- loss1/fc
I1126 19:48:54.565783 20584 net.cpp:397] loss1/relu_fc -> loss1/fc (in-place)
I1126 19:48:54.566099 20584 net.cpp:150] Setting up loss1/relu_fc
I1126 19:48:54.566113 20584 net.cpp:157] Top shape: 64 1024 (65536)
I1126 19:48:54.566117 20584 net.cpp:165] Memory required for data: 2522907648
I1126 19:48:54.566120 20584 layer_factory.hpp:76] Creating layer loss1/drop_fc
I1126 19:48:54.566138 20584 net.cpp:106] Creating Layer loss1/drop_fc
I1126 19:48:54.566141 20584 net.cpp:454] loss1/drop_fc <- loss1/fc
I1126 19:48:54.566146 20584 net.cpp:397] loss1/drop_fc -> loss1/fc (in-place)
I1126 19:48:54.566185 20584 net.cpp:150] Setting up loss1/drop_fc
I1126 19:48:54.566193 20584 net.cpp:157] Top shape: 64 1024 (65536)
I1126 19:48:54.566196 20584 net.cpp:165] Memory required for data: 2523169792
I1126 19:48:54.566200 20584 layer_factory.hpp:76] Creating layer loss1/classifier-attribute
I1126 19:48:54.566206 20584 net.cpp:106] Creating Layer loss1/classifier-attribute
I1126 19:48:54.566211 20584 net.cpp:454] loss1/classifier-attribute <- loss1/fc
I1126 19:48:54.566218 20584 net.cpp:411] loss1/classifier-attribute -> loss1/classifier-attribute
I1126 19:48:54.643287 20584 net.cpp:150] Setting up loss1/classifier-attribute
I1126 19:48:54.643311 20584 net.cpp:157] Top shape: 64 9999 (639936)
I1126 19:48:54.643316 20584 net.cpp:165] Memory required for data: 2525729536
I1126 19:48:54.643324 20584 layer_factory.hpp:76] Creating layer loss1/loss
I1126 19:48:54.643342 20584 net.cpp:106] Creating Layer loss1/loss
I1126 19:48:54.643348 20584 net.cpp:454] loss1/loss <- loss1/classifier-attribute
I1126 19:48:54.643353 20584 net.cpp:454] loss1/loss <- label_data_1_split_0
I1126 19:48:54.643359 20584 net.cpp:411] loss1/loss -> loss1/loss1
I1126 19:48:54.643375 20584 layer_factory.hpp:76] Creating layer loss1/loss
I1126 19:48:54.644981 20584 net.cpp:150] Setting up loss1/loss
I1126 19:48:54.644996 20584 net.cpp:157] Top shape: (1)
I1126 19:48:54.645000 20584 net.cpp:160]     with loss weight 0.3
I1126 19:48:54.645022 20584 net.cpp:165] Memory required for data: 2525729540
I1126 19:48:54.645026 20584 layer_factory.hpp:76] Creating layer inception_4b/1x1
I1126 19:48:54.645037 20584 net.cpp:106] Creating Layer inception_4b/1x1
I1126 19:48:54.645042 20584 net.cpp:454] inception_4b/1x1 <- inception_4a/output_inception_4a/output_0_split_1
I1126 19:48:54.645050 20584 net.cpp:411] inception_4b/1x1 -> inception_4b/1x1
I1126 19:48:54.646634 20584 net.cpp:150] Setting up inception_4b/1x1
I1126 19:48:54.646649 20584 net.cpp:157] Top shape: 64 160 14 14 (2007040)
I1126 19:48:54.646653 20584 net.cpp:165] Memory required for data: 2533757700
I1126 19:48:54.646659 20584 layer_factory.hpp:76] Creating layer inception_4b/relu_1x1
I1126 19:48:54.646667 20584 net.cpp:106] Creating Layer inception_4b/relu_1x1
I1126 19:48:54.646672 20584 net.cpp:454] inception_4b/relu_1x1 <- inception_4b/1x1
I1126 19:48:54.646678 20584 net.cpp:397] inception_4b/relu_1x1 -> inception_4b/1x1 (in-place)
I1126 19:48:54.646984 20584 net.cpp:150] Setting up inception_4b/relu_1x1
I1126 19:48:54.646997 20584 net.cpp:157] Top shape: 64 160 14 14 (2007040)
I1126 19:48:54.647001 20584 net.cpp:165] Memory required for data: 2541785860
I1126 19:48:54.647004 20584 layer_factory.hpp:76] Creating layer inception_4b/3x3_reduce
I1126 19:48:54.647017 20584 net.cpp:106] Creating Layer inception_4b/3x3_reduce
I1126 19:48:54.647020 20584 net.cpp:454] inception_4b/3x3_reduce <- inception_4a/output_inception_4a/output_0_split_2
I1126 19:48:54.647027 20584 net.cpp:411] inception_4b/3x3_reduce -> inception_4b/3x3_reduce
I1126 19:48:54.648854 20584 net.cpp:150] Setting up inception_4b/3x3_reduce
I1126 19:48:54.648869 20584 net.cpp:157] Top shape: 64 112 14 14 (1404928)
I1126 19:48:54.648874 20584 net.cpp:165] Memory required for data: 2547405572
I1126 19:48:54.648880 20584 layer_factory.hpp:76] Creating layer inception_4b/relu_3x3_reduce
I1126 19:48:54.648888 20584 net.cpp:106] Creating Layer inception_4b/relu_3x3_reduce
I1126 19:48:54.648892 20584 net.cpp:454] inception_4b/relu_3x3_reduce <- inception_4b/3x3_reduce
I1126 19:48:54.648897 20584 net.cpp:397] inception_4b/relu_3x3_reduce -> inception_4b/3x3_reduce (in-place)
I1126 19:48:54.649066 20584 net.cpp:150] Setting up inception_4b/relu_3x3_reduce
I1126 19:48:54.649076 20584 net.cpp:157] Top shape: 64 112 14 14 (1404928)
I1126 19:48:54.649080 20584 net.cpp:165] Memory required for data: 2553025284
I1126 19:48:54.649083 20584 layer_factory.hpp:76] Creating layer inception_4b/3x3
I1126 19:48:54.649093 20584 net.cpp:106] Creating Layer inception_4b/3x3
I1126 19:48:54.649097 20584 net.cpp:454] inception_4b/3x3 <- inception_4b/3x3_reduce
I1126 19:48:54.649103 20584 net.cpp:411] inception_4b/3x3 -> inception_4b/3x3
I1126 19:48:54.651973 20584 net.cpp:150] Setting up inception_4b/3x3
I1126 19:48:54.651988 20584 net.cpp:157] Top shape: 64 224 14 14 (2809856)
I1126 19:48:54.651991 20584 net.cpp:165] Memory required for data: 2564264708
I1126 19:48:54.651998 20584 layer_factory.hpp:76] Creating layer inception_4b/relu_3x3
I1126 19:48:54.652004 20584 net.cpp:106] Creating Layer inception_4b/relu_3x3
I1126 19:48:54.652009 20584 net.cpp:454] inception_4b/relu_3x3 <- inception_4b/3x3
I1126 19:48:54.652014 20584 net.cpp:397] inception_4b/relu_3x3 -> inception_4b/3x3 (in-place)
I1126 19:48:54.652190 20584 net.cpp:150] Setting up inception_4b/relu_3x3
I1126 19:48:54.652201 20584 net.cpp:157] Top shape: 64 224 14 14 (2809856)
I1126 19:48:54.652204 20584 net.cpp:165] Memory required for data: 2575504132
I1126 19:48:54.652209 20584 layer_factory.hpp:76] Creating layer inception_4b/5x5_reduce
I1126 19:48:54.652225 20584 net.cpp:106] Creating Layer inception_4b/5x5_reduce
I1126 19:48:54.652228 20584 net.cpp:454] inception_4b/5x5_reduce <- inception_4a/output_inception_4a/output_0_split_3
I1126 19:48:54.652235 20584 net.cpp:411] inception_4b/5x5_reduce -> inception_4b/5x5_reduce
I1126 19:48:54.653353 20584 net.cpp:150] Setting up inception_4b/5x5_reduce
I1126 19:48:54.653367 20584 net.cpp:157] Top shape: 64 24 14 14 (301056)
I1126 19:48:54.653372 20584 net.cpp:165] Memory required for data: 2576708356
I1126 19:48:54.653378 20584 layer_factory.hpp:76] Creating layer inception_4b/relu_5x5_reduce
I1126 19:48:54.653385 20584 net.cpp:106] Creating Layer inception_4b/relu_5x5_reduce
I1126 19:48:54.653389 20584 net.cpp:454] inception_4b/relu_5x5_reduce <- inception_4b/5x5_reduce
I1126 19:48:54.653395 20584 net.cpp:397] inception_4b/relu_5x5_reduce -> inception_4b/5x5_reduce (in-place)
I1126 19:48:54.653822 20584 net.cpp:150] Setting up inception_4b/relu_5x5_reduce
I1126 19:48:54.653836 20584 net.cpp:157] Top shape: 64 24 14 14 (301056)
I1126 19:48:54.653839 20584 net.cpp:165] Memory required for data: 2577912580
I1126 19:48:54.653843 20584 layer_factory.hpp:76] Creating layer inception_4b/5x5
I1126 19:48:54.653853 20584 net.cpp:106] Creating Layer inception_4b/5x5
I1126 19:48:54.653857 20584 net.cpp:454] inception_4b/5x5 <- inception_4b/5x5_reduce
I1126 19:48:54.653864 20584 net.cpp:411] inception_4b/5x5 -> inception_4b/5x5
I1126 19:48:54.655184 20584 net.cpp:150] Setting up inception_4b/5x5
I1126 19:48:54.655200 20584 net.cpp:157] Top shape: 64 64 14 14 (802816)
I1126 19:48:54.655203 20584 net.cpp:165] Memory required for data: 2581123844
I1126 19:48:54.655210 20584 layer_factory.hpp:76] Creating layer inception_4b/relu_5x5
I1126 19:48:54.655217 20584 net.cpp:106] Creating Layer inception_4b/relu_5x5
I1126 19:48:54.655222 20584 net.cpp:454] inception_4b/relu_5x5 <- inception_4b/5x5
I1126 19:48:54.655228 20584 net.cpp:397] inception_4b/relu_5x5 -> inception_4b/5x5 (in-place)
I1126 19:48:54.655395 20584 net.cpp:150] Setting up inception_4b/relu_5x5
I1126 19:48:54.655405 20584 net.cpp:157] Top shape: 64 64 14 14 (802816)
I1126 19:48:54.655410 20584 net.cpp:165] Memory required for data: 2584335108
I1126 19:48:54.655412 20584 layer_factory.hpp:76] Creating layer inception_4b/pool
I1126 19:48:54.655419 20584 net.cpp:106] Creating Layer inception_4b/pool
I1126 19:48:54.655423 20584 net.cpp:454] inception_4b/pool <- inception_4a/output_inception_4a/output_0_split_4
I1126 19:48:54.655441 20584 net.cpp:411] inception_4b/pool -> inception_4b/pool
I1126 19:48:54.655817 20584 net.cpp:150] Setting up inception_4b/pool
I1126 19:48:54.655833 20584 net.cpp:157] Top shape: 64 512 14 14 (6422528)
I1126 19:48:54.655836 20584 net.cpp:165] Memory required for data: 2610025220
I1126 19:48:54.655839 20584 layer_factory.hpp:76] Creating layer inception_4b/pool_proj
I1126 19:48:54.655850 20584 net.cpp:106] Creating Layer inception_4b/pool_proj
I1126 19:48:54.655855 20584 net.cpp:454] inception_4b/pool_proj <- inception_4b/pool
I1126 19:48:54.655861 20584 net.cpp:411] inception_4b/pool_proj -> inception_4b/pool_proj
I1126 19:48:54.656988 20584 net.cpp:150] Setting up inception_4b/pool_proj
I1126 19:48:54.657003 20584 net.cpp:157] Top shape: 64 64 14 14 (802816)
I1126 19:48:54.657006 20584 net.cpp:165] Memory required for data: 2613236484
I1126 19:48:54.657013 20584 layer_factory.hpp:76] Creating layer inception_4b/relu_pool_proj
I1126 19:48:54.657019 20584 net.cpp:106] Creating Layer inception_4b/relu_pool_proj
I1126 19:48:54.657023 20584 net.cpp:454] inception_4b/relu_pool_proj <- inception_4b/pool_proj
I1126 19:48:54.657029 20584 net.cpp:397] inception_4b/relu_pool_proj -> inception_4b/pool_proj (in-place)
I1126 19:48:54.657340 20584 net.cpp:150] Setting up inception_4b/relu_pool_proj
I1126 19:48:54.657353 20584 net.cpp:157] Top shape: 64 64 14 14 (802816)
I1126 19:48:54.657356 20584 net.cpp:165] Memory required for data: 2616447748
I1126 19:48:54.657361 20584 layer_factory.hpp:76] Creating layer inception_4b/output
I1126 19:48:54.657367 20584 net.cpp:106] Creating Layer inception_4b/output
I1126 19:48:54.657372 20584 net.cpp:454] inception_4b/output <- inception_4b/1x1
I1126 19:48:54.657377 20584 net.cpp:454] inception_4b/output <- inception_4b/3x3
I1126 19:48:54.657382 20584 net.cpp:454] inception_4b/output <- inception_4b/5x5
I1126 19:48:54.657385 20584 net.cpp:454] inception_4b/output <- inception_4b/pool_proj
I1126 19:48:54.657390 20584 net.cpp:411] inception_4b/output -> inception_4b/output
I1126 19:48:54.657425 20584 net.cpp:150] Setting up inception_4b/output
I1126 19:48:54.657430 20584 net.cpp:157] Top shape: 64 512 14 14 (6422528)
I1126 19:48:54.657433 20584 net.cpp:165] Memory required for data: 2642137860
I1126 19:48:54.657436 20584 layer_factory.hpp:76] Creating layer inception_4b/output_inception_4b/output_0_split
I1126 19:48:54.657444 20584 net.cpp:106] Creating Layer inception_4b/output_inception_4b/output_0_split
I1126 19:48:54.657448 20584 net.cpp:454] inception_4b/output_inception_4b/output_0_split <- inception_4b/output
I1126 19:48:54.657452 20584 net.cpp:411] inception_4b/output_inception_4b/output_0_split -> inception_4b/output_inception_4b/output_0_split_0
I1126 19:48:54.657459 20584 net.cpp:411] inception_4b/output_inception_4b/output_0_split -> inception_4b/output_inception_4b/output_0_split_1
I1126 19:48:54.657464 20584 net.cpp:411] inception_4b/output_inception_4b/output_0_split -> inception_4b/output_inception_4b/output_0_split_2
I1126 19:48:54.657470 20584 net.cpp:411] inception_4b/output_inception_4b/output_0_split -> inception_4b/output_inception_4b/output_0_split_3
I1126 19:48:54.657533 20584 net.cpp:150] Setting up inception_4b/output_inception_4b/output_0_split
I1126 19:48:54.657539 20584 net.cpp:157] Top shape: 64 512 14 14 (6422528)
I1126 19:48:54.657542 20584 net.cpp:157] Top shape: 64 512 14 14 (6422528)
I1126 19:48:54.657546 20584 net.cpp:157] Top shape: 64 512 14 14 (6422528)
I1126 19:48:54.657549 20584 net.cpp:157] Top shape: 64 512 14 14 (6422528)
I1126 19:48:54.657552 20584 net.cpp:165] Memory required for data: 2744898308
I1126 19:48:54.657555 20584 layer_factory.hpp:76] Creating layer inception_4c/1x1
I1126 19:48:54.657563 20584 net.cpp:106] Creating Layer inception_4c/1x1
I1126 19:48:54.657567 20584 net.cpp:454] inception_4c/1x1 <- inception_4b/output_inception_4b/output_0_split_0
I1126 19:48:54.657574 20584 net.cpp:411] inception_4c/1x1 -> inception_4c/1x1
I1126 19:48:54.659003 20584 net.cpp:150] Setting up inception_4c/1x1
I1126 19:48:54.659018 20584 net.cpp:157] Top shape: 64 128 14 14 (1605632)
I1126 19:48:54.659021 20584 net.cpp:165] Memory required for data: 2751320836
I1126 19:48:54.659028 20584 layer_factory.hpp:76] Creating layer inception_4c/relu_1x1
I1126 19:48:54.659034 20584 net.cpp:106] Creating Layer inception_4c/relu_1x1
I1126 19:48:54.659037 20584 net.cpp:454] inception_4c/relu_1x1 <- inception_4c/1x1
I1126 19:48:54.659051 20584 net.cpp:397] inception_4c/relu_1x1 -> inception_4c/1x1 (in-place)
I1126 19:48:54.659221 20584 net.cpp:150] Setting up inception_4c/relu_1x1
I1126 19:48:54.659232 20584 net.cpp:157] Top shape: 64 128 14 14 (1605632)
I1126 19:48:54.659235 20584 net.cpp:165] Memory required for data: 2757743364
I1126 19:48:54.659238 20584 layer_factory.hpp:76] Creating layer inception_4c/3x3_reduce
I1126 19:48:54.659246 20584 net.cpp:106] Creating Layer inception_4c/3x3_reduce
I1126 19:48:54.659250 20584 net.cpp:454] inception_4c/3x3_reduce <- inception_4b/output_inception_4b/output_0_split_1
I1126 19:48:54.659283 20584 net.cpp:411] inception_4c/3x3_reduce -> inception_4c/3x3_reduce
I1126 19:48:54.660764 20584 net.cpp:150] Setting up inception_4c/3x3_reduce
I1126 19:48:54.660780 20584 net.cpp:157] Top shape: 64 128 14 14 (1605632)
I1126 19:48:54.660784 20584 net.cpp:165] Memory required for data: 2764165892
I1126 19:48:54.660790 20584 layer_factory.hpp:76] Creating layer inception_4c/relu_3x3_reduce
I1126 19:48:54.660796 20584 net.cpp:106] Creating Layer inception_4c/relu_3x3_reduce
I1126 19:48:54.660800 20584 net.cpp:454] inception_4c/relu_3x3_reduce <- inception_4c/3x3_reduce
I1126 19:48:54.660807 20584 net.cpp:397] inception_4c/relu_3x3_reduce -> inception_4c/3x3_reduce (in-place)
I1126 19:48:54.661121 20584 net.cpp:150] Setting up inception_4c/relu_3x3_reduce
I1126 19:48:54.661135 20584 net.cpp:157] Top shape: 64 128 14 14 (1605632)
I1126 19:48:54.661139 20584 net.cpp:165] Memory required for data: 2770588420
I1126 19:48:54.661144 20584 layer_factory.hpp:76] Creating layer inception_4c/3x3
I1126 19:48:54.661152 20584 net.cpp:106] Creating Layer inception_4c/3x3
I1126 19:48:54.661157 20584 net.cpp:454] inception_4c/3x3 <- inception_4c/3x3_reduce
I1126 19:48:54.661164 20584 net.cpp:411] inception_4c/3x3 -> inception_4c/3x3
I1126 19:48:54.664396 20584 net.cpp:150] Setting up inception_4c/3x3
I1126 19:48:54.664410 20584 net.cpp:157] Top shape: 64 256 14 14 (3211264)
I1126 19:48:54.664414 20584 net.cpp:165] Memory required for data: 2783433476
I1126 19:48:54.664433 20584 layer_factory.hpp:76] Creating layer inception_4c/relu_3x3
I1126 19:48:54.664440 20584 net.cpp:106] Creating Layer inception_4c/relu_3x3
I1126 19:48:54.664444 20584 net.cpp:454] inception_4c/relu_3x3 <- inception_4c/3x3
I1126 19:48:54.664449 20584 net.cpp:397] inception_4c/relu_3x3 -> inception_4c/3x3 (in-place)
I1126 19:48:54.664759 20584 net.cpp:150] Setting up inception_4c/relu_3x3
I1126 19:48:54.664773 20584 net.cpp:157] Top shape: 64 256 14 14 (3211264)
I1126 19:48:54.664777 20584 net.cpp:165] Memory required for data: 2796278532
I1126 19:48:54.664780 20584 layer_factory.hpp:76] Creating layer inception_4c/5x5_reduce
I1126 19:48:54.664790 20584 net.cpp:106] Creating Layer inception_4c/5x5_reduce
I1126 19:48:54.664794 20584 net.cpp:454] inception_4c/5x5_reduce <- inception_4b/output_inception_4b/output_0_split_2
I1126 19:48:54.664803 20584 net.cpp:411] inception_4c/5x5_reduce -> inception_4c/5x5_reduce
I1126 19:48:54.665951 20584 net.cpp:150] Setting up inception_4c/5x5_reduce
I1126 19:48:54.665966 20584 net.cpp:157] Top shape: 64 24 14 14 (301056)
I1126 19:48:54.665969 20584 net.cpp:165] Memory required for data: 2797482756
I1126 19:48:54.665976 20584 layer_factory.hpp:76] Creating layer inception_4c/relu_5x5_reduce
I1126 19:48:54.665983 20584 net.cpp:106] Creating Layer inception_4c/relu_5x5_reduce
I1126 19:48:54.665988 20584 net.cpp:454] inception_4c/relu_5x5_reduce <- inception_4c/5x5_reduce
I1126 19:48:54.665994 20584 net.cpp:397] inception_4c/relu_5x5_reduce -> inception_4c/5x5_reduce (in-place)
I1126 19:48:54.666167 20584 net.cpp:150] Setting up inception_4c/relu_5x5_reduce
I1126 19:48:54.666177 20584 net.cpp:157] Top shape: 64 24 14 14 (301056)
I1126 19:48:54.666180 20584 net.cpp:165] Memory required for data: 2798686980
I1126 19:48:54.666183 20584 layer_factory.hpp:76] Creating layer inception_4c/5x5
I1126 19:48:54.666193 20584 net.cpp:106] Creating Layer inception_4c/5x5
I1126 19:48:54.666196 20584 net.cpp:454] inception_4c/5x5 <- inception_4c/5x5_reduce
I1126 19:48:54.666203 20584 net.cpp:411] inception_4c/5x5 -> inception_4c/5x5
I1126 19:48:54.667913 20584 net.cpp:150] Setting up inception_4c/5x5
I1126 19:48:54.667928 20584 net.cpp:157] Top shape: 64 64 14 14 (802816)
I1126 19:48:54.667932 20584 net.cpp:165] Memory required for data: 2801898244
I1126 19:48:54.667938 20584 layer_factory.hpp:76] Creating layer inception_4c/relu_5x5
I1126 19:48:54.667960 20584 net.cpp:106] Creating Layer inception_4c/relu_5x5
I1126 19:48:54.667965 20584 net.cpp:454] inception_4c/relu_5x5 <- inception_4c/5x5
I1126 19:48:54.667971 20584 net.cpp:397] inception_4c/relu_5x5 -> inception_4c/5x5 (in-place)
I1126 19:48:54.668295 20584 net.cpp:150] Setting up inception_4c/relu_5x5
I1126 19:48:54.668309 20584 net.cpp:157] Top shape: 64 64 14 14 (802816)
I1126 19:48:54.668313 20584 net.cpp:165] Memory required for data: 2805109508
I1126 19:48:54.668316 20584 layer_factory.hpp:76] Creating layer inception_4c/pool
I1126 19:48:54.668324 20584 net.cpp:106] Creating Layer inception_4c/pool
I1126 19:48:54.668329 20584 net.cpp:454] inception_4c/pool <- inception_4b/output_inception_4b/output_0_split_3
I1126 19:48:54.668334 20584 net.cpp:411] inception_4c/pool -> inception_4c/pool
I1126 19:48:54.668543 20584 net.cpp:150] Setting up inception_4c/pool
I1126 19:48:54.668555 20584 net.cpp:157] Top shape: 64 512 14 14 (6422528)
I1126 19:48:54.668557 20584 net.cpp:165] Memory required for data: 2830799620
I1126 19:48:54.668561 20584 layer_factory.hpp:76] Creating layer inception_4c/pool_proj
I1126 19:48:54.668570 20584 net.cpp:106] Creating Layer inception_4c/pool_proj
I1126 19:48:54.668576 20584 net.cpp:454] inception_4c/pool_proj <- inception_4c/pool
I1126 19:48:54.668581 20584 net.cpp:411] inception_4c/pool_proj -> inception_4c/pool_proj
I1126 19:48:54.669956 20584 net.cpp:150] Setting up inception_4c/pool_proj
I1126 19:48:54.669971 20584 net.cpp:157] Top shape: 64 64 14 14 (802816)
I1126 19:48:54.669975 20584 net.cpp:165] Memory required for data: 2834010884
I1126 19:48:54.669981 20584 layer_factory.hpp:76] Creating layer inception_4c/relu_pool_proj
I1126 19:48:54.669989 20584 net.cpp:106] Creating Layer inception_4c/relu_pool_proj
I1126 19:48:54.669994 20584 net.cpp:454] inception_4c/relu_pool_proj <- inception_4c/pool_proj
I1126 19:48:54.670001 20584 net.cpp:397] inception_4c/relu_pool_proj -> inception_4c/pool_proj (in-place)
I1126 19:48:54.670325 20584 net.cpp:150] Setting up inception_4c/relu_pool_proj
I1126 19:48:54.670339 20584 net.cpp:157] Top shape: 64 64 14 14 (802816)
I1126 19:48:54.670343 20584 net.cpp:165] Memory required for data: 2837222148
I1126 19:48:54.670347 20584 layer_factory.hpp:76] Creating layer inception_4c/output
I1126 19:48:54.670354 20584 net.cpp:106] Creating Layer inception_4c/output
I1126 19:48:54.670358 20584 net.cpp:454] inception_4c/output <- inception_4c/1x1
I1126 19:48:54.670363 20584 net.cpp:454] inception_4c/output <- inception_4c/3x3
I1126 19:48:54.670367 20584 net.cpp:454] inception_4c/output <- inception_4c/5x5
I1126 19:48:54.670372 20584 net.cpp:454] inception_4c/output <- inception_4c/pool_proj
I1126 19:48:54.670375 20584 net.cpp:411] inception_4c/output -> inception_4c/output
I1126 19:48:54.670413 20584 net.cpp:150] Setting up inception_4c/output
I1126 19:48:54.670418 20584 net.cpp:157] Top shape: 64 512 14 14 (6422528)
I1126 19:48:54.670421 20584 net.cpp:165] Memory required for data: 2862912260
I1126 19:48:54.670424 20584 layer_factory.hpp:76] Creating layer inception_4c/output_inception_4c/output_0_split
I1126 19:48:54.670430 20584 net.cpp:106] Creating Layer inception_4c/output_inception_4c/output_0_split
I1126 19:48:54.670434 20584 net.cpp:454] inception_4c/output_inception_4c/output_0_split <- inception_4c/output
I1126 19:48:54.670440 20584 net.cpp:411] inception_4c/output_inception_4c/output_0_split -> inception_4c/output_inception_4c/output_0_split_0
I1126 19:48:54.670446 20584 net.cpp:411] inception_4c/output_inception_4c/output_0_split -> inception_4c/output_inception_4c/output_0_split_1
I1126 19:48:54.670451 20584 net.cpp:411] inception_4c/output_inception_4c/output_0_split -> inception_4c/output_inception_4c/output_0_split_2
I1126 19:48:54.670457 20584 net.cpp:411] inception_4c/output_inception_4c/output_0_split -> inception_4c/output_inception_4c/output_0_split_3
I1126 19:48:54.670527 20584 net.cpp:150] Setting up inception_4c/output_inception_4c/output_0_split
I1126 19:48:54.670532 20584 net.cpp:157] Top shape: 64 512 14 14 (6422528)
I1126 19:48:54.670536 20584 net.cpp:157] Top shape: 64 512 14 14 (6422528)
I1126 19:48:54.670541 20584 net.cpp:157] Top shape: 64 512 14 14 (6422528)
I1126 19:48:54.670543 20584 net.cpp:157] Top shape: 64 512 14 14 (6422528)
I1126 19:48:54.670547 20584 net.cpp:165] Memory required for data: 2965672708
I1126 19:48:54.670549 20584 layer_factory.hpp:76] Creating layer inception_4d/1x1
I1126 19:48:54.670557 20584 net.cpp:106] Creating Layer inception_4d/1x1
I1126 19:48:54.670562 20584 net.cpp:454] inception_4d/1x1 <- inception_4c/output_inception_4c/output_0_split_0
I1126 19:48:54.670567 20584 net.cpp:411] inception_4d/1x1 -> inception_4d/1x1
I1126 19:48:54.671851 20584 net.cpp:150] Setting up inception_4d/1x1
I1126 19:48:54.671865 20584 net.cpp:157] Top shape: 64 112 14 14 (1404928)
I1126 19:48:54.671869 20584 net.cpp:165] Memory required for data: 2971292420
I1126 19:48:54.671875 20584 layer_factory.hpp:76] Creating layer inception_4d/relu_1x1
I1126 19:48:54.671883 20584 net.cpp:106] Creating Layer inception_4d/relu_1x1
I1126 19:48:54.671887 20584 net.cpp:454] inception_4d/relu_1x1 <- inception_4d/1x1
I1126 19:48:54.671895 20584 net.cpp:397] inception_4d/relu_1x1 -> inception_4d/1x1 (in-place)
I1126 19:48:54.672230 20584 net.cpp:150] Setting up inception_4d/relu_1x1
I1126 19:48:54.672245 20584 net.cpp:157] Top shape: 64 112 14 14 (1404928)
I1126 19:48:54.672250 20584 net.cpp:165] Memory required for data: 2976912132
I1126 19:48:54.672253 20584 layer_factory.hpp:76] Creating layer inception_4d/3x3_reduce
I1126 19:48:54.672261 20584 net.cpp:106] Creating Layer inception_4d/3x3_reduce
I1126 19:48:54.672266 20584 net.cpp:454] inception_4d/3x3_reduce <- inception_4c/output_inception_4c/output_0_split_1
I1126 19:48:54.672273 20584 net.cpp:411] inception_4d/3x3_reduce -> inception_4d/3x3_reduce
I1126 19:48:54.673825 20584 net.cpp:150] Setting up inception_4d/3x3_reduce
I1126 19:48:54.673840 20584 net.cpp:157] Top shape: 64 144 14 14 (1806336)
I1126 19:48:54.673843 20584 net.cpp:165] Memory required for data: 2984137476
I1126 19:48:54.673851 20584 layer_factory.hpp:76] Creating layer inception_4d/relu_3x3_reduce
I1126 19:48:54.673856 20584 net.cpp:106] Creating Layer inception_4d/relu_3x3_reduce
I1126 19:48:54.673861 20584 net.cpp:454] inception_4d/relu_3x3_reduce <- inception_4d/3x3_reduce
I1126 19:48:54.673867 20584 net.cpp:397] inception_4d/relu_3x3_reduce -> inception_4d/3x3_reduce (in-place)
I1126 19:48:54.674039 20584 net.cpp:150] Setting up inception_4d/relu_3x3_reduce
I1126 19:48:54.674052 20584 net.cpp:157] Top shape: 64 144 14 14 (1806336)
I1126 19:48:54.674056 20584 net.cpp:165] Memory required for data: 2991362820
I1126 19:48:54.674058 20584 layer_factory.hpp:76] Creating layer inception_4d/3x3
I1126 19:48:54.674067 20584 net.cpp:106] Creating Layer inception_4d/3x3
I1126 19:48:54.674070 20584 net.cpp:454] inception_4d/3x3 <- inception_4d/3x3_reduce
I1126 19:48:54.674077 20584 net.cpp:411] inception_4d/3x3 -> inception_4d/3x3
I1126 19:48:54.678030 20584 net.cpp:150] Setting up inception_4d/3x3
I1126 19:48:54.678045 20584 net.cpp:157] Top shape: 64 288 14 14 (3612672)
I1126 19:48:54.678050 20584 net.cpp:165] Memory required for data: 3005813508
I1126 19:48:54.678056 20584 layer_factory.hpp:76] Creating layer inception_4d/relu_3x3
I1126 19:48:54.678063 20584 net.cpp:106] Creating Layer inception_4d/relu_3x3
I1126 19:48:54.678067 20584 net.cpp:454] inception_4d/relu_3x3 <- inception_4d/3x3
I1126 19:48:54.678073 20584 net.cpp:397] inception_4d/relu_3x3 -> inception_4d/3x3 (in-place)
I1126 19:48:54.678387 20584 net.cpp:150] Setting up inception_4d/relu_3x3
I1126 19:48:54.678402 20584 net.cpp:157] Top shape: 64 288 14 14 (3612672)
I1126 19:48:54.678406 20584 net.cpp:165] Memory required for data: 3020264196
I1126 19:48:54.678410 20584 layer_factory.hpp:76] Creating layer inception_4d/5x5_reduce
I1126 19:48:54.678417 20584 net.cpp:106] Creating Layer inception_4d/5x5_reduce
I1126 19:48:54.678421 20584 net.cpp:454] inception_4d/5x5_reduce <- inception_4c/output_inception_4c/output_0_split_2
I1126 19:48:54.678431 20584 net.cpp:411] inception_4d/5x5_reduce -> inception_4d/5x5_reduce
I1126 19:48:54.679471 20584 net.cpp:150] Setting up inception_4d/5x5_reduce
I1126 19:48:54.679486 20584 net.cpp:157] Top shape: 64 32 14 14 (401408)
I1126 19:48:54.679491 20584 net.cpp:165] Memory required for data: 3021869828
I1126 19:48:54.679497 20584 layer_factory.hpp:76] Creating layer inception_4d/relu_5x5_reduce
I1126 19:48:54.679502 20584 net.cpp:106] Creating Layer inception_4d/relu_5x5_reduce
I1126 19:48:54.679507 20584 net.cpp:454] inception_4d/relu_5x5_reduce <- inception_4d/5x5_reduce
I1126 19:48:54.679512 20584 net.cpp:397] inception_4d/relu_5x5_reduce -> inception_4d/5x5_reduce (in-place)
I1126 19:48:54.679836 20584 net.cpp:150] Setting up inception_4d/relu_5x5_reduce
I1126 19:48:54.679849 20584 net.cpp:157] Top shape: 64 32 14 14 (401408)
I1126 19:48:54.679853 20584 net.cpp:165] Memory required for data: 3023475460
I1126 19:48:54.679857 20584 layer_factory.hpp:76] Creating layer inception_4d/5x5
I1126 19:48:54.679864 20584 net.cpp:106] Creating Layer inception_4d/5x5
I1126 19:48:54.679868 20584 net.cpp:454] inception_4d/5x5 <- inception_4d/5x5_reduce
I1126 19:48:54.679877 20584 net.cpp:411] inception_4d/5x5 -> inception_4d/5x5
I1126 19:48:54.681299 20584 net.cpp:150] Setting up inception_4d/5x5
I1126 19:48:54.681316 20584 net.cpp:157] Top shape: 64 64 14 14 (802816)
I1126 19:48:54.681320 20584 net.cpp:165] Memory required for data: 3026686724
I1126 19:48:54.681326 20584 layer_factory.hpp:76] Creating layer inception_4d/relu_5x5
I1126 19:48:54.681334 20584 net.cpp:106] Creating Layer inception_4d/relu_5x5
I1126 19:48:54.681337 20584 net.cpp:454] inception_4d/relu_5x5 <- inception_4d/5x5
I1126 19:48:54.681344 20584 net.cpp:397] inception_4d/relu_5x5 -> inception_4d/5x5 (in-place)
I1126 19:48:54.681524 20584 net.cpp:150] Setting up inception_4d/relu_5x5
I1126 19:48:54.681536 20584 net.cpp:157] Top shape: 64 64 14 14 (802816)
I1126 19:48:54.681540 20584 net.cpp:165] Memory required for data: 3029897988
I1126 19:48:54.681542 20584 layer_factory.hpp:76] Creating layer inception_4d/pool
I1126 19:48:54.681551 20584 net.cpp:106] Creating Layer inception_4d/pool
I1126 19:48:54.681555 20584 net.cpp:454] inception_4d/pool <- inception_4c/output_inception_4c/output_0_split_3
I1126 19:48:54.681560 20584 net.cpp:411] inception_4d/pool -> inception_4d/pool
I1126 19:48:54.681915 20584 net.cpp:150] Setting up inception_4d/pool
I1126 19:48:54.681928 20584 net.cpp:157] Top shape: 64 512 14 14 (6422528)
I1126 19:48:54.681931 20584 net.cpp:165] Memory required for data: 3055588100
I1126 19:48:54.681936 20584 layer_factory.hpp:76] Creating layer inception_4d/pool_proj
I1126 19:48:54.681946 20584 net.cpp:106] Creating Layer inception_4d/pool_proj
I1126 19:48:54.681949 20584 net.cpp:454] inception_4d/pool_proj <- inception_4d/pool
I1126 19:48:54.681957 20584 net.cpp:411] inception_4d/pool_proj -> inception_4d/pool_proj
I1126 19:48:54.683240 20584 net.cpp:150] Setting up inception_4d/pool_proj
I1126 19:48:54.683256 20584 net.cpp:157] Top shape: 64 64 14 14 (802816)
I1126 19:48:54.683260 20584 net.cpp:165] Memory required for data: 3058799364
I1126 19:48:54.683266 20584 layer_factory.hpp:76] Creating layer inception_4d/relu_pool_proj
I1126 19:48:54.683272 20584 net.cpp:106] Creating Layer inception_4d/relu_pool_proj
I1126 19:48:54.683277 20584 net.cpp:454] inception_4d/relu_pool_proj <- inception_4d/pool_proj
I1126 19:48:54.683284 20584 net.cpp:397] inception_4d/relu_pool_proj -> inception_4d/pool_proj (in-place)
I1126 19:48:54.683460 20584 net.cpp:150] Setting up inception_4d/relu_pool_proj
I1126 19:48:54.683471 20584 net.cpp:157] Top shape: 64 64 14 14 (802816)
I1126 19:48:54.683475 20584 net.cpp:165] Memory required for data: 3062010628
I1126 19:48:54.683480 20584 layer_factory.hpp:76] Creating layer inception_4d/output
I1126 19:48:54.683486 20584 net.cpp:106] Creating Layer inception_4d/output
I1126 19:48:54.683490 20584 net.cpp:454] inception_4d/output <- inception_4d/1x1
I1126 19:48:54.683495 20584 net.cpp:454] inception_4d/output <- inception_4d/3x3
I1126 19:48:54.683498 20584 net.cpp:454] inception_4d/output <- inception_4d/5x5
I1126 19:48:54.683501 20584 net.cpp:454] inception_4d/output <- inception_4d/pool_proj
I1126 19:48:54.683508 20584 net.cpp:411] inception_4d/output -> inception_4d/output
I1126 19:48:54.683543 20584 net.cpp:150] Setting up inception_4d/output
I1126 19:48:54.683553 20584 net.cpp:157] Top shape: 64 528 14 14 (6623232)
I1126 19:48:54.683557 20584 net.cpp:165] Memory required for data: 3088503556
I1126 19:48:54.683559 20584 layer_factory.hpp:76] Creating layer inception_4d/output_inception_4d/output_0_split
I1126 19:48:54.683568 20584 net.cpp:106] Creating Layer inception_4d/output_inception_4d/output_0_split
I1126 19:48:54.683571 20584 net.cpp:454] inception_4d/output_inception_4d/output_0_split <- inception_4d/output
I1126 19:48:54.683576 20584 net.cpp:411] inception_4d/output_inception_4d/output_0_split -> inception_4d/output_inception_4d/output_0_split_0
I1126 19:48:54.683583 20584 net.cpp:411] inception_4d/output_inception_4d/output_0_split -> inception_4d/output_inception_4d/output_0_split_1
I1126 19:48:54.683589 20584 net.cpp:411] inception_4d/output_inception_4d/output_0_split -> inception_4d/output_inception_4d/output_0_split_2
I1126 19:48:54.683595 20584 net.cpp:411] inception_4d/output_inception_4d/output_0_split -> inception_4d/output_inception_4d/output_0_split_3
I1126 19:48:54.683599 20584 net.cpp:411] inception_4d/output_inception_4d/output_0_split -> inception_4d/output_inception_4d/output_0_split_4
I1126 19:48:54.683686 20584 net.cpp:150] Setting up inception_4d/output_inception_4d/output_0_split
I1126 19:48:54.683693 20584 net.cpp:157] Top shape: 64 528 14 14 (6623232)
I1126 19:48:54.683697 20584 net.cpp:157] Top shape: 64 528 14 14 (6623232)
I1126 19:48:54.683701 20584 net.cpp:157] Top shape: 64 528 14 14 (6623232)
I1126 19:48:54.683704 20584 net.cpp:157] Top shape: 64 528 14 14 (6623232)
I1126 19:48:54.683707 20584 net.cpp:157] Top shape: 64 528 14 14 (6623232)
I1126 19:48:54.683711 20584 net.cpp:165] Memory required for data: 3220968196
I1126 19:48:54.683713 20584 layer_factory.hpp:76] Creating layer loss2/ave_pool
I1126 19:48:54.683722 20584 net.cpp:106] Creating Layer loss2/ave_pool
I1126 19:48:54.683725 20584 net.cpp:454] loss2/ave_pool <- inception_4d/output_inception_4d/output_0_split_0
I1126 19:48:54.683730 20584 net.cpp:411] loss2/ave_pool -> loss2/ave_pool
I1126 19:48:54.684085 20584 net.cpp:150] Setting up loss2/ave_pool
I1126 19:48:54.684100 20584 net.cpp:157] Top shape: 64 528 4 4 (540672)
I1126 19:48:54.684103 20584 net.cpp:165] Memory required for data: 3223130884
I1126 19:48:54.684108 20584 layer_factory.hpp:76] Creating layer loss2/conv
I1126 19:48:54.684115 20584 net.cpp:106] Creating Layer loss2/conv
I1126 19:48:54.684119 20584 net.cpp:454] loss2/conv <- loss2/ave_pool
I1126 19:48:54.684126 20584 net.cpp:411] loss2/conv -> loss2/conv
I1126 19:48:54.685920 20584 net.cpp:150] Setting up loss2/conv
I1126 19:48:54.685935 20584 net.cpp:157] Top shape: 64 128 4 4 (131072)
I1126 19:48:54.685938 20584 net.cpp:165] Memory required for data: 3223655172
I1126 19:48:54.685945 20584 layer_factory.hpp:76] Creating layer loss2/relu_conv
I1126 19:48:54.685951 20584 net.cpp:106] Creating Layer loss2/relu_conv
I1126 19:48:54.685956 20584 net.cpp:454] loss2/relu_conv <- loss2/conv
I1126 19:48:54.685962 20584 net.cpp:397] loss2/relu_conv -> loss2/conv (in-place)
I1126 19:48:54.686403 20584 net.cpp:150] Setting up loss2/relu_conv
I1126 19:48:54.686416 20584 net.cpp:157] Top shape: 64 128 4 4 (131072)
I1126 19:48:54.686420 20584 net.cpp:165] Memory required for data: 3224179460
I1126 19:48:54.686424 20584 layer_factory.hpp:76] Creating layer loss2/fc
I1126 19:48:54.686434 20584 net.cpp:106] Creating Layer loss2/fc
I1126 19:48:54.686437 20584 net.cpp:454] loss2/fc <- loss2/conv
I1126 19:48:54.686444 20584 net.cpp:411] loss2/fc -> loss2/fc
I1126 19:48:54.701993 20584 net.cpp:150] Setting up loss2/fc
I1126 19:48:54.702011 20584 net.cpp:157] Top shape: 64 1024 (65536)
I1126 19:48:54.702014 20584 net.cpp:165] Memory required for data: 3224441604
I1126 19:48:54.702023 20584 layer_factory.hpp:76] Creating layer loss2/relu_fc
I1126 19:48:54.702028 20584 net.cpp:106] Creating Layer loss2/relu_fc
I1126 19:48:54.702033 20584 net.cpp:454] loss2/relu_fc <- loss2/fc
I1126 19:48:54.702039 20584 net.cpp:397] loss2/relu_fc -> loss2/fc (in-place)
I1126 19:48:54.702260 20584 net.cpp:150] Setting up loss2/relu_fc
I1126 19:48:54.702272 20584 net.cpp:157] Top shape: 64 1024 (65536)
I1126 19:48:54.702276 20584 net.cpp:165] Memory required for data: 3224703748
I1126 19:48:54.702280 20584 layer_factory.hpp:76] Creating layer loss2/drop_fc
I1126 19:48:54.702286 20584 net.cpp:106] Creating Layer loss2/drop_fc
I1126 19:48:54.702291 20584 net.cpp:454] loss2/drop_fc <- loss2/fc
I1126 19:48:54.702296 20584 net.cpp:397] loss2/drop_fc -> loss2/fc (in-place)
I1126 19:48:54.702337 20584 net.cpp:150] Setting up loss2/drop_fc
I1126 19:48:54.702345 20584 net.cpp:157] Top shape: 64 1024 (65536)
I1126 19:48:54.702348 20584 net.cpp:165] Memory required for data: 3224965892
I1126 19:48:54.702352 20584 layer_factory.hpp:76] Creating layer loss2/classifier-attribute
I1126 19:48:54.702358 20584 net.cpp:106] Creating Layer loss2/classifier-attribute
I1126 19:48:54.702360 20584 net.cpp:454] loss2/classifier-attribute <- loss2/fc
I1126 19:48:54.702368 20584 net.cpp:411] loss2/classifier-attribute -> loss2/classifier-attribute
I1126 19:48:54.779790 20584 net.cpp:150] Setting up loss2/classifier-attribute
I1126 19:48:54.779814 20584 net.cpp:157] Top shape: 64 9999 (639936)
I1126 19:48:54.779817 20584 net.cpp:165] Memory required for data: 3227525636
I1126 19:48:54.779826 20584 layer_factory.hpp:76] Creating layer loss2/loss
I1126 19:48:54.779835 20584 net.cpp:106] Creating Layer loss2/loss
I1126 19:48:54.779842 20584 net.cpp:454] loss2/loss <- loss2/classifier-attribute
I1126 19:48:54.779849 20584 net.cpp:454] loss2/loss <- label_data_1_split_1
I1126 19:48:54.779856 20584 net.cpp:411] loss2/loss -> loss2/loss1
I1126 19:48:54.779866 20584 layer_factory.hpp:76] Creating layer loss2/loss
I1126 19:48:54.781620 20584 net.cpp:150] Setting up loss2/loss
I1126 19:48:54.781636 20584 net.cpp:157] Top shape: (1)
I1126 19:48:54.781641 20584 net.cpp:160]     with loss weight 0.3
I1126 19:48:54.781651 20584 net.cpp:165] Memory required for data: 3227525640
I1126 19:48:54.781656 20584 layer_factory.hpp:76] Creating layer inception_4e/1x1
I1126 19:48:54.781664 20584 net.cpp:106] Creating Layer inception_4e/1x1
I1126 19:48:54.781669 20584 net.cpp:454] inception_4e/1x1 <- inception_4d/output_inception_4d/output_0_split_1
I1126 19:48:54.781677 20584 net.cpp:411] inception_4e/1x1 -> inception_4e/1x1
I1126 19:48:54.783694 20584 net.cpp:150] Setting up inception_4e/1x1
I1126 19:48:54.783709 20584 net.cpp:157] Top shape: 64 256 14 14 (3211264)
I1126 19:48:54.783712 20584 net.cpp:165] Memory required for data: 3240370696
I1126 19:48:54.783718 20584 layer_factory.hpp:76] Creating layer inception_4e/relu_1x1
I1126 19:48:54.783726 20584 net.cpp:106] Creating Layer inception_4e/relu_1x1
I1126 19:48:54.783731 20584 net.cpp:454] inception_4e/relu_1x1 <- inception_4e/1x1
I1126 19:48:54.783738 20584 net.cpp:397] inception_4e/relu_1x1 -> inception_4e/1x1 (in-place)
I1126 19:48:54.783916 20584 net.cpp:150] Setting up inception_4e/relu_1x1
I1126 19:48:54.783927 20584 net.cpp:157] Top shape: 64 256 14 14 (3211264)
I1126 19:48:54.783931 20584 net.cpp:165] Memory required for data: 3253215752
I1126 19:48:54.783933 20584 layer_factory.hpp:76] Creating layer inception_4e/3x3_reduce
I1126 19:48:54.783953 20584 net.cpp:106] Creating Layer inception_4e/3x3_reduce
I1126 19:48:54.783960 20584 net.cpp:454] inception_4e/3x3_reduce <- inception_4d/output_inception_4d/output_0_split_2
I1126 19:48:54.783968 20584 net.cpp:411] inception_4e/3x3_reduce -> inception_4e/3x3_reduce
I1126 19:48:54.786031 20584 net.cpp:150] Setting up inception_4e/3x3_reduce
I1126 19:48:54.786046 20584 net.cpp:157] Top shape: 64 160 14 14 (2007040)
I1126 19:48:54.786049 20584 net.cpp:165] Memory required for data: 3261243912
I1126 19:48:54.786056 20584 layer_factory.hpp:76] Creating layer inception_4e/relu_3x3_reduce
I1126 19:48:54.786062 20584 net.cpp:106] Creating Layer inception_4e/relu_3x3_reduce
I1126 19:48:54.786067 20584 net.cpp:454] inception_4e/relu_3x3_reduce <- inception_4e/3x3_reduce
I1126 19:48:54.786072 20584 net.cpp:397] inception_4e/relu_3x3_reduce -> inception_4e/3x3_reduce (in-place)
I1126 19:48:54.786396 20584 net.cpp:150] Setting up inception_4e/relu_3x3_reduce
I1126 19:48:54.786409 20584 net.cpp:157] Top shape: 64 160 14 14 (2007040)
I1126 19:48:54.786413 20584 net.cpp:165] Memory required for data: 3269272072
I1126 19:48:54.786417 20584 layer_factory.hpp:76] Creating layer inception_4e/3x3
I1126 19:48:54.786427 20584 net.cpp:106] Creating Layer inception_4e/3x3
I1126 19:48:54.786430 20584 net.cpp:454] inception_4e/3x3 <- inception_4e/3x3_reduce
I1126 19:48:54.786437 20584 net.cpp:411] inception_4e/3x3 -> inception_4e/3x3
I1126 19:48:54.790928 20584 net.cpp:150] Setting up inception_4e/3x3
I1126 19:48:54.790943 20584 net.cpp:157] Top shape: 64 320 14 14 (4014080)
I1126 19:48:54.790947 20584 net.cpp:165] Memory required for data: 3285328392
I1126 19:48:54.790954 20584 layer_factory.hpp:76] Creating layer inception_4e/relu_3x3
I1126 19:48:54.790962 20584 net.cpp:106] Creating Layer inception_4e/relu_3x3
I1126 19:48:54.790966 20584 net.cpp:454] inception_4e/relu_3x3 <- inception_4e/3x3
I1126 19:48:54.790973 20584 net.cpp:397] inception_4e/relu_3x3 -> inception_4e/3x3 (in-place)
I1126 19:48:54.791296 20584 net.cpp:150] Setting up inception_4e/relu_3x3
I1126 19:48:54.791311 20584 net.cpp:157] Top shape: 64 320 14 14 (4014080)
I1126 19:48:54.791314 20584 net.cpp:165] Memory required for data: 3301384712
I1126 19:48:54.791318 20584 layer_factory.hpp:76] Creating layer inception_4e/5x5_reduce
I1126 19:48:54.791327 20584 net.cpp:106] Creating Layer inception_4e/5x5_reduce
I1126 19:48:54.791332 20584 net.cpp:454] inception_4e/5x5_reduce <- inception_4d/output_inception_4d/output_0_split_3
I1126 19:48:54.791338 20584 net.cpp:411] inception_4e/5x5_reduce -> inception_4e/5x5_reduce
I1126 19:48:54.792589 20584 net.cpp:150] Setting up inception_4e/5x5_reduce
I1126 19:48:54.792604 20584 net.cpp:157] Top shape: 64 32 14 14 (401408)
I1126 19:48:54.792608 20584 net.cpp:165] Memory required for data: 3302990344
I1126 19:48:54.792614 20584 layer_factory.hpp:76] Creating layer inception_4e/relu_5x5_reduce
I1126 19:48:54.792620 20584 net.cpp:106] Creating Layer inception_4e/relu_5x5_reduce
I1126 19:48:54.792624 20584 net.cpp:454] inception_4e/relu_5x5_reduce <- inception_4e/5x5_reduce
I1126 19:48:54.792631 20584 net.cpp:397] inception_4e/relu_5x5_reduce -> inception_4e/5x5_reduce (in-place)
I1126 19:48:54.792810 20584 net.cpp:150] Setting up inception_4e/relu_5x5_reduce
I1126 19:48:54.792821 20584 net.cpp:157] Top shape: 64 32 14 14 (401408)
I1126 19:48:54.792826 20584 net.cpp:165] Memory required for data: 3304595976
I1126 19:48:54.792829 20584 layer_factory.hpp:76] Creating layer inception_4e/5x5
I1126 19:48:54.792855 20584 net.cpp:106] Creating Layer inception_4e/5x5
I1126 19:48:54.792860 20584 net.cpp:454] inception_4e/5x5 <- inception_4e/5x5_reduce
I1126 19:48:54.792865 20584 net.cpp:411] inception_4e/5x5 -> inception_4e/5x5
I1126 19:48:54.794618 20584 net.cpp:150] Setting up inception_4e/5x5
I1126 19:48:54.794632 20584 net.cpp:157] Top shape: 64 128 14 14 (1605632)
I1126 19:48:54.794636 20584 net.cpp:165] Memory required for data: 3311018504
I1126 19:48:54.794643 20584 layer_factory.hpp:76] Creating layer inception_4e/relu_5x5
I1126 19:48:54.794651 20584 net.cpp:106] Creating Layer inception_4e/relu_5x5
I1126 19:48:54.794654 20584 net.cpp:454] inception_4e/relu_5x5 <- inception_4e/5x5
I1126 19:48:54.794661 20584 net.cpp:397] inception_4e/relu_5x5 -> inception_4e/5x5 (in-place)
I1126 19:48:54.794991 20584 net.cpp:150] Setting up inception_4e/relu_5x5
I1126 19:48:54.795006 20584 net.cpp:157] Top shape: 64 128 14 14 (1605632)
I1126 19:48:54.795009 20584 net.cpp:165] Memory required for data: 3317441032
I1126 19:48:54.795013 20584 layer_factory.hpp:76] Creating layer inception_4e/pool
I1126 19:48:54.795020 20584 net.cpp:106] Creating Layer inception_4e/pool
I1126 19:48:54.795024 20584 net.cpp:454] inception_4e/pool <- inception_4d/output_inception_4d/output_0_split_4
I1126 19:48:54.795030 20584 net.cpp:411] inception_4e/pool -> inception_4e/pool
I1126 19:48:54.795253 20584 net.cpp:150] Setting up inception_4e/pool
I1126 19:48:54.795264 20584 net.cpp:157] Top shape: 64 528 14 14 (6623232)
I1126 19:48:54.795266 20584 net.cpp:165] Memory required for data: 3343933960
I1126 19:48:54.795270 20584 layer_factory.hpp:76] Creating layer inception_4e/pool_proj
I1126 19:48:54.795279 20584 net.cpp:106] Creating Layer inception_4e/pool_proj
I1126 19:48:54.795284 20584 net.cpp:454] inception_4e/pool_proj <- inception_4e/pool
I1126 19:48:54.795289 20584 net.cpp:411] inception_4e/pool_proj -> inception_4e/pool_proj
I1126 19:48:54.796829 20584 net.cpp:150] Setting up inception_4e/pool_proj
I1126 19:48:54.796844 20584 net.cpp:157] Top shape: 64 128 14 14 (1605632)
I1126 19:48:54.796849 20584 net.cpp:165] Memory required for data: 3350356488
I1126 19:48:54.796854 20584 layer_factory.hpp:76] Creating layer inception_4e/relu_pool_proj
I1126 19:48:54.796860 20584 net.cpp:106] Creating Layer inception_4e/relu_pool_proj
I1126 19:48:54.796864 20584 net.cpp:454] inception_4e/relu_pool_proj <- inception_4e/pool_proj
I1126 19:48:54.796869 20584 net.cpp:397] inception_4e/relu_pool_proj -> inception_4e/pool_proj (in-place)
I1126 19:48:54.797191 20584 net.cpp:150] Setting up inception_4e/relu_pool_proj
I1126 19:48:54.797205 20584 net.cpp:157] Top shape: 64 128 14 14 (1605632)
I1126 19:48:54.797209 20584 net.cpp:165] Memory required for data: 3356779016
I1126 19:48:54.797212 20584 layer_factory.hpp:76] Creating layer inception_4e/output
I1126 19:48:54.797219 20584 net.cpp:106] Creating Layer inception_4e/output
I1126 19:48:54.797224 20584 net.cpp:454] inception_4e/output <- inception_4e/1x1
I1126 19:48:54.797229 20584 net.cpp:454] inception_4e/output <- inception_4e/3x3
I1126 19:48:54.797233 20584 net.cpp:454] inception_4e/output <- inception_4e/5x5
I1126 19:48:54.797237 20584 net.cpp:454] inception_4e/output <- inception_4e/pool_proj
I1126 19:48:54.797243 20584 net.cpp:411] inception_4e/output -> inception_4e/output
I1126 19:48:54.797283 20584 net.cpp:150] Setting up inception_4e/output
I1126 19:48:54.797291 20584 net.cpp:157] Top shape: 64 832 14 14 (10436608)
I1126 19:48:54.797293 20584 net.cpp:165] Memory required for data: 3398525448
I1126 19:48:54.797297 20584 layer_factory.hpp:76] Creating layer pool4/3x3_s2
I1126 19:48:54.797302 20584 net.cpp:106] Creating Layer pool4/3x3_s2
I1126 19:48:54.797307 20584 net.cpp:454] pool4/3x3_s2 <- inception_4e/output
I1126 19:48:54.797312 20584 net.cpp:411] pool4/3x3_s2 -> pool4/3x3_s2
I1126 19:48:54.797531 20584 net.cpp:150] Setting up pool4/3x3_s2
I1126 19:48:54.797544 20584 net.cpp:157] Top shape: 64 832 7 7 (2609152)
I1126 19:48:54.797546 20584 net.cpp:165] Memory required for data: 3408962056
I1126 19:48:54.797550 20584 layer_factory.hpp:76] Creating layer pool4/3x3_s2_pool4/3x3_s2_0_split
I1126 19:48:54.797556 20584 net.cpp:106] Creating Layer pool4/3x3_s2_pool4/3x3_s2_0_split
I1126 19:48:54.797560 20584 net.cpp:454] pool4/3x3_s2_pool4/3x3_s2_0_split <- pool4/3x3_s2
I1126 19:48:54.797566 20584 net.cpp:411] pool4/3x3_s2_pool4/3x3_s2_0_split -> pool4/3x3_s2_pool4/3x3_s2_0_split_0
I1126 19:48:54.797572 20584 net.cpp:411] pool4/3x3_s2_pool4/3x3_s2_0_split -> pool4/3x3_s2_pool4/3x3_s2_0_split_1
I1126 19:48:54.797579 20584 net.cpp:411] pool4/3x3_s2_pool4/3x3_s2_0_split -> pool4/3x3_s2_pool4/3x3_s2_0_split_2
I1126 19:48:54.797583 20584 net.cpp:411] pool4/3x3_s2_pool4/3x3_s2_0_split -> pool4/3x3_s2_pool4/3x3_s2_0_split_3
I1126 19:48:54.797660 20584 net.cpp:150] Setting up pool4/3x3_s2_pool4/3x3_s2_0_split
I1126 19:48:54.797668 20584 net.cpp:157] Top shape: 64 832 7 7 (2609152)
I1126 19:48:54.797672 20584 net.cpp:157] Top shape: 64 832 7 7 (2609152)
I1126 19:48:54.797677 20584 net.cpp:157] Top shape: 64 832 7 7 (2609152)
I1126 19:48:54.797679 20584 net.cpp:157] Top shape: 64 832 7 7 (2609152)
I1126 19:48:54.797683 20584 net.cpp:165] Memory required for data: 3450708488
I1126 19:48:54.797685 20584 layer_factory.hpp:76] Creating layer inception_5a/1x1
I1126 19:48:54.797693 20584 net.cpp:106] Creating Layer inception_5a/1x1
I1126 19:48:54.797698 20584 net.cpp:454] inception_5a/1x1 <- pool4/3x3_s2_pool4/3x3_s2_0_split_0
I1126 19:48:54.797703 20584 net.cpp:411] inception_5a/1x1 -> inception_5a/1x1
I1126 19:48:54.800598 20584 net.cpp:150] Setting up inception_5a/1x1
I1126 19:48:54.800614 20584 net.cpp:157] Top shape: 64 256 7 7 (802816)
I1126 19:48:54.800618 20584 net.cpp:165] Memory required for data: 3453919752
I1126 19:48:54.800624 20584 layer_factory.hpp:76] Creating layer inception_5a/relu_1x1
I1126 19:48:54.800632 20584 net.cpp:106] Creating Layer inception_5a/relu_1x1
I1126 19:48:54.800637 20584 net.cpp:454] inception_5a/relu_1x1 <- inception_5a/1x1
I1126 19:48:54.800642 20584 net.cpp:397] inception_5a/relu_1x1 -> inception_5a/1x1 (in-place)
I1126 19:48:54.800953 20584 net.cpp:150] Setting up inception_5a/relu_1x1
I1126 19:48:54.800968 20584 net.cpp:157] Top shape: 64 256 7 7 (802816)
I1126 19:48:54.800972 20584 net.cpp:165] Memory required for data: 3457131016
I1126 19:48:54.800976 20584 layer_factory.hpp:76] Creating layer inception_5a/3x3_reduce
I1126 19:48:54.800984 20584 net.cpp:106] Creating Layer inception_5a/3x3_reduce
I1126 19:48:54.800988 20584 net.cpp:454] inception_5a/3x3_reduce <- pool4/3x3_s2_pool4/3x3_s2_0_split_1
I1126 19:48:54.800997 20584 net.cpp:411] inception_5a/3x3_reduce -> inception_5a/3x3_reduce
I1126 19:48:54.803401 20584 net.cpp:150] Setting up inception_5a/3x3_reduce
I1126 19:48:54.803416 20584 net.cpp:157] Top shape: 64 160 7 7 (501760)
I1126 19:48:54.803421 20584 net.cpp:165] Memory required for data: 3459138056
I1126 19:48:54.803426 20584 layer_factory.hpp:76] Creating layer inception_5a/relu_3x3_reduce
I1126 19:48:54.803434 20584 net.cpp:106] Creating Layer inception_5a/relu_3x3_reduce
I1126 19:48:54.803438 20584 net.cpp:454] inception_5a/relu_3x3_reduce <- inception_5a/3x3_reduce
I1126 19:48:54.803444 20584 net.cpp:397] inception_5a/relu_3x3_reduce -> inception_5a/3x3_reduce (in-place)
I1126 19:48:54.803771 20584 net.cpp:150] Setting up inception_5a/relu_3x3_reduce
I1126 19:48:54.803786 20584 net.cpp:157] Top shape: 64 160 7 7 (501760)
I1126 19:48:54.803788 20584 net.cpp:165] Memory required for data: 3461145096
I1126 19:48:54.803792 20584 layer_factory.hpp:76] Creating layer inception_5a/3x3
I1126 19:48:54.803802 20584 net.cpp:106] Creating Layer inception_5a/3x3
I1126 19:48:54.803805 20584 net.cpp:454] inception_5a/3x3 <- inception_5a/3x3_reduce
I1126 19:48:54.803813 20584 net.cpp:411] inception_5a/3x3 -> inception_5a/3x3
I1126 19:48:54.808531 20584 net.cpp:150] Setting up inception_5a/3x3
I1126 19:48:54.808544 20584 net.cpp:157] Top shape: 64 320 7 7 (1003520)
I1126 19:48:54.808548 20584 net.cpp:165] Memory required for data: 3465159176
I1126 19:48:54.808555 20584 layer_factory.hpp:76] Creating layer inception_5a/relu_3x3
I1126 19:48:54.808563 20584 net.cpp:106] Creating Layer inception_5a/relu_3x3
I1126 19:48:54.808568 20584 net.cpp:454] inception_5a/relu_3x3 <- inception_5a/3x3
I1126 19:48:54.808573 20584 net.cpp:397] inception_5a/relu_3x3 -> inception_5a/3x3 (in-place)
I1126 19:48:54.808755 20584 net.cpp:150] Setting up inception_5a/relu_3x3
I1126 19:48:54.808766 20584 net.cpp:157] Top shape: 64 320 7 7 (1003520)
I1126 19:48:54.808769 20584 net.cpp:165] Memory required for data: 3469173256
I1126 19:48:54.808773 20584 layer_factory.hpp:76] Creating layer inception_5a/5x5_reduce
I1126 19:48:54.808781 20584 net.cpp:106] Creating Layer inception_5a/5x5_reduce
I1126 19:48:54.808785 20584 net.cpp:454] inception_5a/5x5_reduce <- pool4/3x3_s2_pool4/3x3_s2_0_split_2
I1126 19:48:54.808791 20584 net.cpp:411] inception_5a/5x5_reduce -> inception_5a/5x5_reduce
I1126 19:48:54.810091 20584 net.cpp:150] Setting up inception_5a/5x5_reduce
I1126 19:48:54.810106 20584 net.cpp:157] Top shape: 64 32 7 7 (100352)
I1126 19:48:54.810109 20584 net.cpp:165] Memory required for data: 3469574664
I1126 19:48:54.810116 20584 layer_factory.hpp:76] Creating layer inception_5a/relu_5x5_reduce
I1126 19:48:54.810122 20584 net.cpp:106] Creating Layer inception_5a/relu_5x5_reduce
I1126 19:48:54.810127 20584 net.cpp:454] inception_5a/relu_5x5_reduce <- inception_5a/5x5_reduce
I1126 19:48:54.810132 20584 net.cpp:397] inception_5a/relu_5x5_reduce -> inception_5a/5x5_reduce (in-place)
I1126 19:48:54.810310 20584 net.cpp:150] Setting up inception_5a/relu_5x5_reduce
I1126 19:48:54.810322 20584 net.cpp:157] Top shape: 64 32 7 7 (100352)
I1126 19:48:54.810325 20584 net.cpp:165] Memory required for data: 3469976072
I1126 19:48:54.810329 20584 layer_factory.hpp:76] Creating layer inception_5a/5x5
I1126 19:48:54.810338 20584 net.cpp:106] Creating Layer inception_5a/5x5
I1126 19:48:54.810341 20584 net.cpp:454] inception_5a/5x5 <- inception_5a/5x5_reduce
I1126 19:48:54.810348 20584 net.cpp:411] inception_5a/5x5 -> inception_5a/5x5
I1126 19:48:54.812141 20584 net.cpp:150] Setting up inception_5a/5x5
I1126 19:48:54.812156 20584 net.cpp:157] Top shape: 64 128 7 7 (401408)
I1126 19:48:54.812160 20584 net.cpp:165] Memory required for data: 3471581704
I1126 19:48:54.812166 20584 layer_factory.hpp:76] Creating layer inception_5a/relu_5x5
I1126 19:48:54.812172 20584 net.cpp:106] Creating Layer inception_5a/relu_5x5
I1126 19:48:54.812176 20584 net.cpp:454] inception_5a/relu_5x5 <- inception_5a/5x5
I1126 19:48:54.812181 20584 net.cpp:397] inception_5a/relu_5x5 -> inception_5a/5x5 (in-place)
I1126 19:48:54.812520 20584 net.cpp:150] Setting up inception_5a/relu_5x5
I1126 19:48:54.812533 20584 net.cpp:157] Top shape: 64 128 7 7 (401408)
I1126 19:48:54.812537 20584 net.cpp:165] Memory required for data: 3473187336
I1126 19:48:54.812541 20584 layer_factory.hpp:76] Creating layer inception_5a/pool
I1126 19:48:54.812547 20584 net.cpp:106] Creating Layer inception_5a/pool
I1126 19:48:54.812551 20584 net.cpp:454] inception_5a/pool <- pool4/3x3_s2_pool4/3x3_s2_0_split_3
I1126 19:48:54.812561 20584 net.cpp:411] inception_5a/pool -> inception_5a/pool
I1126 19:48:54.812791 20584 net.cpp:150] Setting up inception_5a/pool
I1126 19:48:54.812803 20584 net.cpp:157] Top shape: 64 832 7 7 (2609152)
I1126 19:48:54.812808 20584 net.cpp:165] Memory required for data: 3483623944
I1126 19:48:54.812810 20584 layer_factory.hpp:76] Creating layer inception_5a/pool_proj
I1126 19:48:54.812819 20584 net.cpp:106] Creating Layer inception_5a/pool_proj
I1126 19:48:54.812822 20584 net.cpp:454] inception_5a/pool_proj <- inception_5a/pool
I1126 19:48:54.812829 20584 net.cpp:411] inception_5a/pool_proj -> inception_5a/pool_proj
I1126 19:48:54.815063 20584 net.cpp:150] Setting up inception_5a/pool_proj
I1126 19:48:54.815078 20584 net.cpp:157] Top shape: 64 128 7 7 (401408)
I1126 19:48:54.815083 20584 net.cpp:165] Memory required for data: 3485229576
I1126 19:48:54.815089 20584 layer_factory.hpp:76] Creating layer inception_5a/relu_pool_proj
I1126 19:48:54.815096 20584 net.cpp:106] Creating Layer inception_5a/relu_pool_proj
I1126 19:48:54.815100 20584 net.cpp:454] inception_5a/relu_pool_proj <- inception_5a/pool_proj
I1126 19:48:54.815107 20584 net.cpp:397] inception_5a/relu_pool_proj -> inception_5a/pool_proj (in-place)
I1126 19:48:54.815435 20584 net.cpp:150] Setting up inception_5a/relu_pool_proj
I1126 19:48:54.815449 20584 net.cpp:157] Top shape: 64 128 7 7 (401408)
I1126 19:48:54.815454 20584 net.cpp:165] Memory required for data: 3486835208
I1126 19:48:54.815457 20584 layer_factory.hpp:76] Creating layer inception_5a/output
I1126 19:48:54.815464 20584 net.cpp:106] Creating Layer inception_5a/output
I1126 19:48:54.815469 20584 net.cpp:454] inception_5a/output <- inception_5a/1x1
I1126 19:48:54.815472 20584 net.cpp:454] inception_5a/output <- inception_5a/3x3
I1126 19:48:54.815479 20584 net.cpp:454] inception_5a/output <- inception_5a/5x5
I1126 19:48:54.815481 20584 net.cpp:454] inception_5a/output <- inception_5a/pool_proj
I1126 19:48:54.815486 20584 net.cpp:411] inception_5a/output -> inception_5a/output
I1126 19:48:54.815527 20584 net.cpp:150] Setting up inception_5a/output
I1126 19:48:54.815533 20584 net.cpp:157] Top shape: 64 832 7 7 (2609152)
I1126 19:48:54.815536 20584 net.cpp:165] Memory required for data: 3497271816
I1126 19:48:54.815541 20584 layer_factory.hpp:76] Creating layer inception_5a/output_inception_5a/output_0_split
I1126 19:48:54.815546 20584 net.cpp:106] Creating Layer inception_5a/output_inception_5a/output_0_split
I1126 19:48:54.815549 20584 net.cpp:454] inception_5a/output_inception_5a/output_0_split <- inception_5a/output
I1126 19:48:54.815554 20584 net.cpp:411] inception_5a/output_inception_5a/output_0_split -> inception_5a/output_inception_5a/output_0_split_0
I1126 19:48:54.815562 20584 net.cpp:411] inception_5a/output_inception_5a/output_0_split -> inception_5a/output_inception_5a/output_0_split_1
I1126 19:48:54.815567 20584 net.cpp:411] inception_5a/output_inception_5a/output_0_split -> inception_5a/output_inception_5a/output_0_split_2
I1126 19:48:54.815572 20584 net.cpp:411] inception_5a/output_inception_5a/output_0_split -> inception_5a/output_inception_5a/output_0_split_3
I1126 19:48:54.815651 20584 net.cpp:150] Setting up inception_5a/output_inception_5a/output_0_split
I1126 19:48:54.815659 20584 net.cpp:157] Top shape: 64 832 7 7 (2609152)
I1126 19:48:54.815664 20584 net.cpp:157] Top shape: 64 832 7 7 (2609152)
I1126 19:48:54.815666 20584 net.cpp:157] Top shape: 64 832 7 7 (2609152)
I1126 19:48:54.815670 20584 net.cpp:157] Top shape: 64 832 7 7 (2609152)
I1126 19:48:54.815672 20584 net.cpp:165] Memory required for data: 3539018248
I1126 19:48:54.815676 20584 layer_factory.hpp:76] Creating layer inception_5b/1x1
I1126 19:48:54.815683 20584 net.cpp:106] Creating Layer inception_5b/1x1
I1126 19:48:54.815687 20584 net.cpp:454] inception_5b/1x1 <- inception_5a/output_inception_5a/output_0_split_0
I1126 19:48:54.815693 20584 net.cpp:411] inception_5b/1x1 -> inception_5b/1x1
I1126 19:48:54.819277 20584 net.cpp:150] Setting up inception_5b/1x1
I1126 19:48:54.819293 20584 net.cpp:157] Top shape: 64 384 7 7 (1204224)
I1126 19:48:54.819298 20584 net.cpp:165] Memory required for data: 3543835144
I1126 19:48:54.819303 20584 layer_factory.hpp:76] Creating layer inception_5b/relu_1x1
I1126 19:48:54.819310 20584 net.cpp:106] Creating Layer inception_5b/relu_1x1
I1126 19:48:54.819314 20584 net.cpp:454] inception_5b/relu_1x1 <- inception_5b/1x1
I1126 19:48:54.819319 20584 net.cpp:397] inception_5b/relu_1x1 -> inception_5b/1x1 (in-place)
I1126 19:48:54.819641 20584 net.cpp:150] Setting up inception_5b/relu_1x1
I1126 19:48:54.819655 20584 net.cpp:157] Top shape: 64 384 7 7 (1204224)
I1126 19:48:54.819659 20584 net.cpp:165] Memory required for data: 3548652040
I1126 19:48:54.819664 20584 layer_factory.hpp:76] Creating layer inception_5b/3x3_reduce
I1126 19:48:54.819672 20584 net.cpp:106] Creating Layer inception_5b/3x3_reduce
I1126 19:48:54.819676 20584 net.cpp:454] inception_5b/3x3_reduce <- inception_5a/output_inception_5a/output_0_split_1
I1126 19:48:54.819682 20584 net.cpp:411] inception_5b/3x3_reduce -> inception_5b/3x3_reduce
I1126 19:48:54.822290 20584 net.cpp:150] Setting up inception_5b/3x3_reduce
I1126 19:48:54.822306 20584 net.cpp:157] Top shape: 64 192 7 7 (602112)
I1126 19:48:54.822310 20584 net.cpp:165] Memory required for data: 3551060488
I1126 19:48:54.822337 20584 layer_factory.hpp:76] Creating layer inception_5b/relu_3x3_reduce
I1126 19:48:54.822345 20584 net.cpp:106] Creating Layer inception_5b/relu_3x3_reduce
I1126 19:48:54.822350 20584 net.cpp:454] inception_5b/relu_3x3_reduce <- inception_5b/3x3_reduce
I1126 19:48:54.822356 20584 net.cpp:397] inception_5b/relu_3x3_reduce -> inception_5b/3x3_reduce (in-place)
I1126 19:48:54.822543 20584 net.cpp:150] Setting up inception_5b/relu_3x3_reduce
I1126 19:48:54.822554 20584 net.cpp:157] Top shape: 64 192 7 7 (602112)
I1126 19:48:54.822557 20584 net.cpp:165] Memory required for data: 3553468936
I1126 19:48:54.822561 20584 layer_factory.hpp:76] Creating layer inception_5b/3x3
I1126 19:48:54.822571 20584 net.cpp:106] Creating Layer inception_5b/3x3
I1126 19:48:54.822576 20584 net.cpp:454] inception_5b/3x3 <- inception_5b/3x3_reduce
I1126 19:48:54.822582 20584 net.cpp:411] inception_5b/3x3 -> inception_5b/3x3
I1126 19:48:54.828872 20584 net.cpp:150] Setting up inception_5b/3x3
I1126 19:48:54.828889 20584 net.cpp:157] Top shape: 64 384 7 7 (1204224)
I1126 19:48:54.828893 20584 net.cpp:165] Memory required for data: 3558285832
I1126 19:48:54.828901 20584 layer_factory.hpp:76] Creating layer inception_5b/relu_3x3
I1126 19:48:54.828908 20584 net.cpp:106] Creating Layer inception_5b/relu_3x3
I1126 19:48:54.828912 20584 net.cpp:454] inception_5b/relu_3x3 <- inception_5b/3x3
I1126 19:48:54.828917 20584 net.cpp:397] inception_5b/relu_3x3 -> inception_5b/3x3 (in-place)
I1126 19:48:54.829263 20584 net.cpp:150] Setting up inception_5b/relu_3x3
I1126 19:48:54.829277 20584 net.cpp:157] Top shape: 64 384 7 7 (1204224)
I1126 19:48:54.829282 20584 net.cpp:165] Memory required for data: 3563102728
I1126 19:48:54.829284 20584 layer_factory.hpp:76] Creating layer inception_5b/5x5_reduce
I1126 19:48:54.829294 20584 net.cpp:106] Creating Layer inception_5b/5x5_reduce
I1126 19:48:54.829299 20584 net.cpp:454] inception_5b/5x5_reduce <- inception_5a/output_inception_5a/output_0_split_2
I1126 19:48:54.829308 20584 net.cpp:411] inception_5b/5x5_reduce -> inception_5b/5x5_reduce
I1126 19:48:54.831042 20584 net.cpp:150] Setting up inception_5b/5x5_reduce
I1126 19:48:54.831056 20584 net.cpp:157] Top shape: 64 48 7 7 (150528)
I1126 19:48:54.831063 20584 net.cpp:165] Memory required for data: 3563704840
I1126 19:48:54.831068 20584 layer_factory.hpp:76] Creating layer inception_5b/relu_5x5_reduce
I1126 19:48:54.831075 20584 net.cpp:106] Creating Layer inception_5b/relu_5x5_reduce
I1126 19:48:54.831079 20584 net.cpp:454] inception_5b/relu_5x5_reduce <- inception_5b/5x5_reduce
I1126 19:48:54.831084 20584 net.cpp:397] inception_5b/relu_5x5_reduce -> inception_5b/5x5_reduce (in-place)
I1126 19:48:54.831420 20584 net.cpp:150] Setting up inception_5b/relu_5x5_reduce
I1126 19:48:54.831435 20584 net.cpp:157] Top shape: 64 48 7 7 (150528)
I1126 19:48:54.831439 20584 net.cpp:165] Memory required for data: 3564306952
I1126 19:48:54.831442 20584 layer_factory.hpp:76] Creating layer inception_5b/5x5
I1126 19:48:54.831451 20584 net.cpp:106] Creating Layer inception_5b/5x5
I1126 19:48:54.831455 20584 net.cpp:454] inception_5b/5x5 <- inception_5b/5x5_reduce
I1126 19:48:54.831462 20584 net.cpp:411] inception_5b/5x5 -> inception_5b/5x5
I1126 19:48:54.833649 20584 net.cpp:150] Setting up inception_5b/5x5
I1126 19:48:54.833665 20584 net.cpp:157] Top shape: 64 128 7 7 (401408)
I1126 19:48:54.833669 20584 net.cpp:165] Memory required for data: 3565912584
I1126 19:48:54.833677 20584 layer_factory.hpp:76] Creating layer inception_5b/relu_5x5
I1126 19:48:54.833684 20584 net.cpp:106] Creating Layer inception_5b/relu_5x5
I1126 19:48:54.833689 20584 net.cpp:454] inception_5b/relu_5x5 <- inception_5b/5x5
I1126 19:48:54.833695 20584 net.cpp:397] inception_5b/relu_5x5 -> inception_5b/5x5 (in-place)
I1126 19:48:54.833883 20584 net.cpp:150] Setting up inception_5b/relu_5x5
I1126 19:48:54.833894 20584 net.cpp:157] Top shape: 64 128 7 7 (401408)
I1126 19:48:54.833896 20584 net.cpp:165] Memory required for data: 3567518216
I1126 19:48:54.833900 20584 layer_factory.hpp:76] Creating layer inception_5b/pool
I1126 19:48:54.833906 20584 net.cpp:106] Creating Layer inception_5b/pool
I1126 19:48:54.833910 20584 net.cpp:454] inception_5b/pool <- inception_5a/output_inception_5a/output_0_split_3
I1126 19:48:54.833917 20584 net.cpp:411] inception_5b/pool -> inception_5b/pool
I1126 19:48:54.834293 20584 net.cpp:150] Setting up inception_5b/pool
I1126 19:48:54.834307 20584 net.cpp:157] Top shape: 64 832 7 7 (2609152)
I1126 19:48:54.834311 20584 net.cpp:165] Memory required for data: 3577954824
I1126 19:48:54.834314 20584 layer_factory.hpp:76] Creating layer inception_5b/pool_proj
I1126 19:48:54.834323 20584 net.cpp:106] Creating Layer inception_5b/pool_proj
I1126 19:48:54.834328 20584 net.cpp:454] inception_5b/pool_proj <- inception_5b/pool
I1126 19:48:54.834337 20584 net.cpp:411] inception_5b/pool_proj -> inception_5b/pool_proj
I1126 19:48:54.836630 20584 net.cpp:150] Setting up inception_5b/pool_proj
I1126 19:48:54.836647 20584 net.cpp:157] Top shape: 64 128 7 7 (401408)
I1126 19:48:54.836650 20584 net.cpp:165] Memory required for data: 3579560456
I1126 19:48:54.836658 20584 layer_factory.hpp:76] Creating layer inception_5b/relu_pool_proj
I1126 19:48:54.836663 20584 net.cpp:106] Creating Layer inception_5b/relu_pool_proj
I1126 19:48:54.836668 20584 net.cpp:454] inception_5b/relu_pool_proj <- inception_5b/pool_proj
I1126 19:48:54.836673 20584 net.cpp:397] inception_5b/relu_pool_proj -> inception_5b/pool_proj (in-place)
I1126 19:48:54.836858 20584 net.cpp:150] Setting up inception_5b/relu_pool_proj
I1126 19:48:54.836869 20584 net.cpp:157] Top shape: 64 128 7 7 (401408)
I1126 19:48:54.836872 20584 net.cpp:165] Memory required for data: 3581166088
I1126 19:48:54.836876 20584 layer_factory.hpp:76] Creating layer inception_5b/output
I1126 19:48:54.836884 20584 net.cpp:106] Creating Layer inception_5b/output
I1126 19:48:54.836887 20584 net.cpp:454] inception_5b/output <- inception_5b/1x1
I1126 19:48:54.836891 20584 net.cpp:454] inception_5b/output <- inception_5b/3x3
I1126 19:48:54.836895 20584 net.cpp:454] inception_5b/output <- inception_5b/5x5
I1126 19:48:54.836899 20584 net.cpp:454] inception_5b/output <- inception_5b/pool_proj
I1126 19:48:54.836904 20584 net.cpp:411] inception_5b/output -> inception_5b/output
I1126 19:48:54.836946 20584 net.cpp:150] Setting up inception_5b/output
I1126 19:48:54.836957 20584 net.cpp:157] Top shape: 64 1024 7 7 (3211264)
I1126 19:48:54.836961 20584 net.cpp:165] Memory required for data: 3594011144
I1126 19:48:54.836963 20584 layer_factory.hpp:76] Creating layer pool5/7x7_s1
I1126 19:48:54.836969 20584 net.cpp:106] Creating Layer pool5/7x7_s1
I1126 19:48:54.836973 20584 net.cpp:454] pool5/7x7_s1 <- inception_5b/output
I1126 19:48:54.836979 20584 net.cpp:411] pool5/7x7_s1 -> pool5/7x7_s1
I1126 19:48:54.837345 20584 net.cpp:150] Setting up pool5/7x7_s1
I1126 19:48:54.837359 20584 net.cpp:157] Top shape: 64 1024 1 1 (65536)
I1126 19:48:54.837363 20584 net.cpp:165] Memory required for data: 3594273288
I1126 19:48:54.837366 20584 layer_factory.hpp:76] Creating layer pool5/drop_7x7_s1
I1126 19:48:54.837373 20584 net.cpp:106] Creating Layer pool5/drop_7x7_s1
I1126 19:48:54.837378 20584 net.cpp:454] pool5/drop_7x7_s1 <- pool5/7x7_s1
I1126 19:48:54.837384 20584 net.cpp:397] pool5/drop_7x7_s1 -> pool5/7x7_s1 (in-place)
I1126 19:48:54.837422 20584 net.cpp:150] Setting up pool5/drop_7x7_s1
I1126 19:48:54.837430 20584 net.cpp:157] Top shape: 64 1024 1 1 (65536)
I1126 19:48:54.837431 20584 net.cpp:165] Memory required for data: 3594535432
I1126 19:48:54.837435 20584 layer_factory.hpp:76] Creating layer loss3/classifier-attribute
I1126 19:48:54.837441 20584 net.cpp:106] Creating Layer loss3/classifier-attribute
I1126 19:48:54.837445 20584 net.cpp:454] loss3/classifier-attribute <- pool5/7x7_s1
I1126 19:48:54.837452 20584 net.cpp:411] loss3/classifier-attribute -> loss3/classifier-attribute
I1126 19:48:54.914759 20584 net.cpp:150] Setting up loss3/classifier-attribute
I1126 19:48:54.914784 20584 net.cpp:157] Top shape: 64 9999 (639936)
I1126 19:48:54.914788 20584 net.cpp:165] Memory required for data: 3597095176
I1126 19:48:54.914798 20584 layer_factory.hpp:76] Creating layer loss3/loss3
I1126 19:48:54.914808 20584 net.cpp:106] Creating Layer loss3/loss3
I1126 19:48:54.914814 20584 net.cpp:454] loss3/loss3 <- loss3/classifier-attribute
I1126 19:48:54.914820 20584 net.cpp:454] loss3/loss3 <- label_data_1_split_2
I1126 19:48:54.914826 20584 net.cpp:411] loss3/loss3 -> loss3/loss3
…
I1126 19:48:54.922796 20584 net.cpp:322] The NetState phase (1) differed from the phase (0) specified by a rule in layer data
I1126 19:48:54.924206 20584 net.cpp:49] Initializing net from parameters: 
name: "GoogleNet-finetune-for-cigit"
state {
  phase: TEST
}
layer {
  name: "data"
  type: "ImageData"
  top: "data"
  top: "label"
  include {
    phase: TEST
  }
  transform_param {
    mirror: false
    crop_size: 224
    mean_value: 104
    mean_value: 117
    mean_value: 123
  }
  image_data_param {
    source: "pad_test.txt"
    batch_size: 64
    new_height: 256
    new_width: 256
  }
}
layer {
  name: "conv1/7x7_s2"
  type: "Convolution"
  bottom: "data"
  top: "conv1/7x7_s2"
  param {
    lr_mult: 1
    decay_mult: 1
  }
  param {
    lr_mult: 2
    decay_mult: 0
  }
  convolution_param {
    num_output: 64
    pad: 3
    kernel_size: 7
    stride: 2
    weight_filler {
      type: "xavier"
    }
    bias_filler {
      type: "constant"
      value: 0.2
    }
  }
}
layer {
  name: "conv1/relu_7x7"
  type: "ReLU"
  bottom: "conv1/7x7_s2"
  top: "conv1/7x7_s2"
}
layer {
  name: "pool1/3x3_s2"
  type: "Pooling"
  bottom: "conv1/7x7_s2"
  top: "pool1/3x3_s2"
  pooling_param {
    pool: MAX
    kernel_size: 3
    stride: 2
  }
}
layer {
  name: "pool1/norm1"
  type: "LRN"
  bottom: "pool1/3x3_s2"
  top: "pool1/norm1"
  lrn_param {
    local_size: 5
    alpha: 0.0001
    beta: 0.75
  }
}
layer {
  name: "conv2/3x3_reduce"
  type: "Convolution"
  bottom: "pool1/norm1"
  top: "conv2/3x3_reduce"
  param {
    lr_mult: 1
    decay_mult: 1
  }
  param {
    lr_mult: 2
    decay_mult: 0
  }
  convolution_param {
    num_output: 64
    kernel_size: 1
    weight_filler {
      type: "xavier"
    }
    bias_filler {
      type: "constant"
      value: 0.2
    }
  }
}
layer {
  name: "conv2/relu_3x3_reduce"
  type: "ReLU"
  bottom: "conv2/3x3_reduce"
  top: "conv2/3x3_reduce"
}
layer {
  name: "conv2/3x3"
  type: "Convolution"
  bottom: "conv2/3x3_reduce"
  top: "conv2/3x3"
  param {
    lr_mult: 1
    decay_mult: 1
  }
  param {
    lr_mult: 2
    decay_mult: 0
  }
  convolution_param {
    num_output: 192
    pad: 1
    kernel_size: 3
    weight_filler {
      type: "xavier"
    }
    bias_filler {
      type: "constant"
      value: 0.2
    }
  }
}
layer {
  name: "conv2/relu_3x3"
  type: "ReLU"
  bottom: "conv2/3x3"
  top: "conv2/3x3"
}
layer {
  name: "conv2/norm2"
  type: "LRN"
  bottom: "conv2/3x3"
  top: "conv2/norm2"
  lrn_param {
    local_size: 5
    alpha: 0.0001
    beta: 0.75
  }
}
layer {
  name: "pool2/3x3_s2"
  type: "Pooling"
  bottom: "conv2/norm2"
  top: "pool2/3x3_s2"
  pooling_param {
    pool: MAX
    kernel_size: 3
    stride: 2
  }
}
layer {
  name: "inception_3a/1x1"
  type: "Convolution"
  bottom: "pool2/3x3_s2"
  top: "inception_3a/1x1"
  param {
    lr_mult: 1
    decay_mult: 1
  }
  param {
    lr_mult: 2
    decay_mult: 0
  }
  convolution_param {
    num_output: 64
    kernel_size: 1
    weight_filler {
      type: "xavier"
    }
    bias_filler {
      type: "constant"
      value: 0.2
    }
  }
}
layer {
  name: "inception_3a/relu_1x1"
  type: "ReLU"
  bottom: "inception_3a/1x1"
  top: "inception_3a/1x1"
}
layer {
  name: "inception_3a/3x3_reduce"
  type: "Convolution"
  bottom: "pool2/3x3_s2"
  top: "inception_3a/3x3_reduce"
  param {
    lr_mult: 1
    decay_mult: 1
  }
  param {
    lr_mult: 2
    decay_mult: 0
  }
  convolution_param {
    num_output: 96
    kernel_size: 1
    weight_filler {
      type: "xavier"
    }
    bias_filler {
      type: "constant"
      value: 0.2
    }
  }
}
layer {
  name: "inception_3a/relu_3x3_reduce"
  type: "ReLU"
  bottom: "inception_3a/3x3_reduce"
  top: "inception_3a/3x3_reduce"
}
layer {
  name: "inception_3a/3x3"
  type: "Convolution"
  bottom: "inception_3a/3x3_reduce"
  top: "inception_3a/3x3"
  param {
    lr_mult: 1
    decay_mult: 1
  }
  param {
    lr_mult: 2
    decay_mult: 0
  }
  convolution_param {
    num_output: 128
    pad: 1
    kernel_size: 3
    weight_filler {
      type: "xavier"
    }
    bias_filler {
      type: "constant"
      value: 0.2
    }
  }
}
layer {
  name: "inception_3a/relu_3x3"
  type: "ReLU"
  bottom: "inception_3a/3x3"
  top: "inception_3a/3x3"
}
layer {
  name: "inception_3a/5x5_reduce"
  type: "Convolution"
  bottom: "pool2/3x3_s2"
  top: "inception_3a/5x5_reduce"
  param {
    lr_mult: 1
    decay_mult: 1
  }
  param {
    lr_mult: 2
    decay_mult: 0
  }
  convolution_param {
    num_output: 16
    kernel_size: 1
    weight_filler {
      type: "xavier"
    }
    bias_filler {
      type: "constant"
      value: 0.2
    }
  }
}
layer {
  name: "inception_3a/relu_5x5_reduce"
  type: "ReLU"
  bottom: "inception_3a/5x5_reduce"
  top: "inception_3a/5x5_reduce"
}
layer {
  name: "inception_3a/5x5"
  type: "Convolution"
  bottom: "inception_3a/5x5_reduce"
  top: "inception_3a/5x5"
  param {
    lr_mult: 1
    decay_mult: 1
  }
  param {
    lr_mult: 2
    decay_mult: 0
  }
  convolution_param {
    num_output: 32
    pad: 2
    kernel_size: 5
    weight_filler {
      type: "xavier"
    }
    bias_filler {
      type: "constant"
      value: 0.2
    }
  }
}
layer {
  name: "inception_3a/relu_5x5"
  type: "ReLU"
  bottom: "inception_3a/5x5"
  top: "inception_3a/5x5"
}
layer {
  name: "inception_3a/pool"
  type: "Pooling"
  bottom: "pool2/3x3_s2"
  top: "inception_3a/pool"
  pooling_param {
    pool: MAX
    kernel_size: 3
    stride: 1
    pad: 1
  }
}
layer {
  name: "inception_3a/pool_proj"
  type: "Convolution"
  bottom: "inception_3a/pool"
  top: "inception_3a/pool_proj"
  param {
    lr_mult: 1
    decay_mult: 1
  }
  param {
    lr_mult: 2
    decay_mult: 0
  }
  convolution_param {
    num_output: 32
    kernel_size: 1
    weight_filler {
      type: "xavier"
    }
    bias_filler {
      type: "constant"
      value: 0.2
    }
  }
}
layer {
  name: "inception_3a/relu_pool_proj"
  type: "ReLU"
  bottom: "inception_3a/pool_proj"
  top: "inception_3a/pool_proj"
}
layer {
  name: "inception_3a/output"
  type: "Concat"
  bottom: "inception_3a/1x1"
  bottom: "inception_3a/3x3"
  bottom: "inception_3a/5x5"
  bottom: "inception_3a/pool_proj"
  top: "inception_3a/output"
}
layer {
  name: "inception_3b/1x1"
  type: "Convolution"
  bottom: "inception_3a/output"
  top: "inception_3b/1x1"
  param {
    lr_mult: 1
    decay_mult: 1
  }
  param {
    lr_mult: 2
    decay_mult: 0
  }
  convolution_param {
    num_output: 128
    kernel_size: 1
    weight_filler {
      type: "xavier"
    }
    bias_filler {
      type: "constant"
      value: 0.2
    }
  }
}
layer {
  name: "inception_3b/relu_1x1"
  type: "ReLU"
  bottom: "inception_3b/1x1"
  top: "inception_3b/1x1"
}
layer {
  name: "inception_3b/3x3_reduce"
  type: "Convolution"
  bottom: "inception_3a/output"
  top: "inception_3b/3x3_reduce"
  param {
    lr_mult: 1
    decay_mult: 1
  }
  param {
    lr_mult: 2
    decay_mult: 0
  }
  convolution_param {
    num_output: 128
    kernel_size: 1
    weight_filler {
      type: "xavier"
    }
    bias_filler {
      type: "constant"
      value: 0.2
    }
  }
}
layer {
  name: "inception_3b/relu_3x3_reduce"
  type: "ReLU"
  bottom: "inception_3b/3x3_reduce"
  top: "inception_3b/3x3_reduce"
}
layer {
  name: "inception_3b/3x3"
  type: "Convolution"
  bottom: "inception_3b/3x3_reduce"
  top: "inception_3b/3x3"
  param {
    lr_mult: 1
    decay_mult: 1
  }
  param {
    lr_mult: 2
    decay_mult: 0
  }
  convolution_param {
    num_output: 192
    pad: 1
    kernel_size: 3
    weight_filler {
      type: "xavier"
    }
    bias_filler {
      type: "constant"
      value: 0.2
    }
  }
}
layer {
  name: "inception_3b/relu_3x3"
  type: "ReLU"
  bottom: "inception_3b/3x3"
  top: "inception_3b/3x3"
}
layer {
  name: "inception_3b/5x5_reduce"
  type: "Convolution"
  bottom: "inception_3a/output"
  top: "inception_3b/5x5_reduce"
  param {
    lr_mult: 1
    decay_mult: 1
  }
  param {
    lr_mult: 2
    decay_mult: 0
  }
  convolution_param {
    num_output: 32
    kernel_size: 1
    weight_filler {
      type: "xavier"
    }
    bias_filler {
      type: "constant"
      value: 0.2
    }
  }
}
layer {
  name: "inception_3b/relu_5x5_reduce"
  type: "ReLU"
  bottom: "inception_3b/5x5_reduce"
  top: "inception_3b/5x5_reduce"
}
layer {
  name: "inception_3b/5x5"
  type: "Convolution"
  bottom: "inception_3b/5x5_reduce"
  top: "inception_3b/5x5"
  param {
    lr_mult: 1
    decay_mult: 1
  }
  param {
    lr_mult: 2
    decay_mult: 0
  }
  convolution_param {
    num_output: 96
    pad: 2
    kernel_size: 5
    weight_filler {
      type: "xavier"
    }
    bias_filler {
      type: "constant"
      value: 0.2
    }
  }
}
layer {
  name: "inception_3b/relu_5x5"
  type: "ReLU"
  bottom: "inception_3b/5x5"
  top: "inception_3b/5x5"
}
layer {
  name: "inception_3b/pool"
  type: "Pooling"
  bottom: "inception_3a/output"
  top: "inception_3b/pool"
  pooling_param {
    pool: MAX
    kernel_size: 3
    stride: 1
    pad: 1
  }
}
layer {
  name: "inception_3b/pool_proj"
  type: "Convolution"
  bottom: "inception_3b/pool"
  top: "inception_3b/pool_proj"
  param {
    lr_mult: 1
    decay_mult: 1
  }
  param {
    lr_mult: 2
    decay_mult: 0
  }
  convolution_param {
    num_output: 64
    kernel_size: 1
    weight_filler {
      type: "xavier"
    }
    bias_filler {
      type: "constant"
      value: 0.2
    }
  }
}
layer {
  name: "inception_3b/relu_pool_proj"
  type: "ReLU"
  bottom: "inception_3b/pool_proj"
  top: "inception_3b/pool_proj"
}
layer {
  name: "inception_3b/output"
  type: "Concat"
  bottom: "inception_3b/1x1"
  bottom: "inception_3b/3x3"
  bottom: "inception_3b/5x5"
  bottom: "inception_3b/pool_proj"
  top: "inception_3b/output"
}
layer {
  name: "pool3/3x3_s2"
  type: "Pooling"
  bottom: "inception_3b/output"
  top: "pool3/3x3_s2"
  pooling_param {
    pool: MAX
    kernel_size: 3
    stride: 2
  }
}
layer {
  name: "inception_4a/1x1"
  type: "Convolution"
  bottom: "pool3/3x3_s2"
  top: "inception_4a/1x1"
  param {
    lr_mult: 1
    decay_mult: 1
  }
  param {
    lr_mult: 2
    decay_mult: 0
  }
  convolution_param {
    num_output: 192
    kernel_size: 1
    weight_filler {
      type: "xavier"
    }
    bias_filler {
      type: "constant"
      value: 0.2
    }
  }
}
layer {
  name: "inception_4a/relu_1x1"
  type: "ReLU"
  bottom: "inception_4a/1x1"
  top: "inception_4a/1x1"
}
layer {
  name: "inception_4a/3x3_reduce"
  type: "Convolution"
  bottom: "pool3/3x3_s2"
  top: "inception_4a/3x3_reduce"
  param {
    lr_mult: 1
    decay_mult: 1
  }
  param {
    lr_mult: 2
    decay_mult: 0
  }
  convolution_param {
    num_output: 96
    kernel_size: 1
    weight_filler {
      type: "xavier"
    }
    bias_filler {
      type: "constant"
      value: 0.2
    }
  }
}
layer {
  name: "inception_4a/relu_3x3_reduce"
  type: "ReLU"
  bottom: "inception_4a/3x3_reduce"
  top: "inception_4a/3x3_reduce"
}
layer {
  name: "inception_4a/3x3"
  type: "Convolution"
  bottom: "inception_4a/3x3_reduce"
  top: "inception_4a/3x3"
  param {
    lr_mult: 1
    decay_mult: 1
  }
  param {
    lr_mult: 2
    decay_mult: 0
  }
  convolution_param {
    num_output: 208
    pad: 1
    kernel_size: 3
    weight_filler {
      type: "xavier"
    }
    bias_filler {
      type: "constant"
      value: 0.2
    }
  }
}
layer {
  name: "inception_4a/relu_3x3"
  type: "ReLU"
  bottom: "inception_4a/3x3"
  top: "inception_4a/3x3"
}
layer {
  name: "inception_4a/5x5_reduce"
  type: "Convolution"
  bottom: "pool3/3x3_s2"
  top: "inception_4a/5x5_reduce"
  param {
    lr_mult: 1
    decay_mult: 1
  }
  param {
    lr_mult: 2
    decay_mult: 0
  }
  convolution_param {
    num_output: 16
    kernel_size: 1
    weight_filler {
      type: "xavier"
    }
    bias_filler {
      type: "constant"
      value: 0.2
    }
  }
}
layer {
  name: "inception_4a/relu_5x5_reduce"
  type: "ReLU"
  bottom: "inception_4a/5x5_reduce"
  top: "inception_4a/5x5_reduce"
}
layer {
  name: "inception_4a/5x5"
  type: "Convolution"
  bottom: "inception_4a/5x5_reduce"
  top: "inception_4a/5x5"
  param {
    lr_mult: 1
    decay_mult: 1
  }
  param {
    lr_mult: 2
    decay_mult: 0
  }
  convolution_param {
    num_output: 48
    pad: 2
    kernel_size: 5
    weight_filler {
      type: "xavier"
    }
    bias_filler {
      type: "constant"
      value: 0.2
    }
  }
}
layer {
  name: "inception_4a/relu_5x5"
  type: "ReLU"
  bottom: "inception_4a/5x5"
  top: "inception_4a/5x5"
}
layer {
  name: "inception_4a/pool"
  type: "Pooling"
  bottom: "pool3/3x3_s2"
  top: "inception_4a/pool"
  pooling_param {
    pool: MAX
    kernel_size: 3
    stride: 1
    pad: 1
  }
}
layer {
  name: "inception_4a/pool_proj"
  type: "Convolution"
  bottom: "inception_4a/pool"
  top: "inception_4a/pool_proj"
  param {
    lr_mult: 1
    decay_mult: 1
  }
  param {
    lr_mult: 2
    decay_mult: 0
  }
  convolution_param {
    num_output: 64
    kernel_size: 1
    weight_filler {
      type: "xavier"
    }
    bias_filler {
      type: "constant"
      value: 0.2
    }
  }
}
layer {
  name: "inception_4a/relu_pool_proj"
  type: "ReLU"
  bottom: "inception_4a/pool_proj"
  top: "inception_4a/pool_proj"
}
layer {
  name: "inception_4a/output"
  type: "Concat"
  bottom: "inception_4a/1x1"
  bottom: "inception_4a/3x3"
  bottom: "inception_4a/5x5"
  bottom: "inception_4a/pool_proj"
  top: "inception_4a/output"
}
layer {
  name: "loss1/ave_pool"
  type: "Pooling"
  bottom: "inception_4a/output"
  top: "loss1/ave_pool"
  pooling_param {
    pool: AVE
    kernel_size: 5
    stride: 3
  }
}
layer {
  name: "loss1/conv"
  type: "Convolution"
  bottom: "loss1/ave_pool"
  top: "loss1/conv"
  param {
    lr_mult: 1
    decay_mult: 1
  }
  param {
    lr_mult: 2
    decay_mult: 0
  }
  convolution_param {
    num_output: 128
    kernel_size: 1
    weight_filler {
      type: "xavier"
    }
    bias_filler {
      type: "constant"
      value: 0.2
    }
  }
}
layer {
  name: "loss1/relu_conv"
  type: "ReLU"
  bottom: "loss1/conv"
  top: "loss1/conv"
}
layer {
  name: "loss1/fc"
  type: "InnerProduct"
  bottom: "loss1/conv"
  top: "loss1/fc"
  param {
    lr_mult: 1
    decay_mult: 1
  }
  param {
    lr_mult: 2
    decay_mult: 0
  }
…
I1126 19:48:55.205792 20584 net.cpp:106] Creating Layer inception_4c/pool
I1126 19:48:55.205796 20584 net.cpp:454] inception_4c/pool <- inception_4b/output_inception_4b/output_0_split_3
I1126 19:48:55.205802 20584 net.cpp:411] inception_4c/pool -> inception_4c/pool
I1126 19:48:55.206054 20584 net.cpp:150] Setting up inception_4c/pool
I1126 19:48:55.206068 20584 net.cpp:157] Top shape: 64 512 14 14 (6422528)
I1126 19:48:55.206070 20584 net.cpp:165] Memory required for data: 2835919880
I1126 19:48:55.206074 20584 layer_factory.hpp:76] Creating layer inception_4c/pool_proj
I1126 19:48:55.206082 20584 net.cpp:106] Creating Layer inception_4c/pool_proj
I1126 19:48:55.206087 20584 net.cpp:454] inception_4c/pool_proj <- inception_4c/pool
I1126 19:48:55.206092 20584 net.cpp:411] inception_4c/pool_proj -> inception_4c/pool_proj
I1126 19:48:55.207600 20584 net.cpp:150] Setting up inception_4c/pool_proj
I1126 19:48:55.207614 20584 net.cpp:157] Top shape: 64 64 14 14 (802816)
I1126 19:48:55.207618 20584 net.cpp:165] Memory required for data: 2839131144
I1126 19:48:55.207625 20584 layer_factory.hpp:76] Creating layer inception_4c/relu_pool_proj
I1126 19:48:55.207630 20584 net.cpp:106] Creating Layer inception_4c/relu_pool_proj
I1126 19:48:55.207635 20584 net.cpp:454] inception_4c/relu_pool_proj <- inception_4c/pool_proj
I1126 19:48:55.207641 20584 net.cpp:397] inception_4c/relu_pool_proj -> inception_4c/pool_proj (in-place)
I1126 19:48:55.208005 20584 net.cpp:150] Setting up inception_4c/relu_pool_proj
I1126 19:48:55.208020 20584 net.cpp:157] Top shape: 64 64 14 14 (802816)
I1126 19:48:55.208024 20584 net.cpp:165] Memory required for data: 2842342408
I1126 19:48:55.208027 20584 layer_factory.hpp:76] Creating layer inception_4c/output
I1126 19:48:55.208034 20584 net.cpp:106] Creating Layer inception_4c/output
I1126 19:48:55.208039 20584 net.cpp:454] inception_4c/output <- inception_4c/1x1
I1126 19:48:55.208044 20584 net.cpp:454] inception_4c/output <- inception_4c/3x3
I1126 19:48:55.208047 20584 net.cpp:454] inception_4c/output <- inception_4c/5x5
I1126 19:48:55.208051 20584 net.cpp:454] inception_4c/output <- inception_4c/pool_proj
I1126 19:48:55.208057 20584 net.cpp:411] inception_4c/output -> inception_4c/output
I1126 19:48:55.208108 20584 net.cpp:150] Setting up inception_4c/output
I1126 19:48:55.208115 20584 net.cpp:157] Top shape: 64 512 14 14 (6422528)
I1126 19:48:55.208118 20584 net.cpp:165] Memory required for data: 2868032520
I1126 19:48:55.208122 20584 layer_factory.hpp:76] Creating layer inception_4c/output_inception_4c/output_0_split
I1126 19:48:55.208127 20584 net.cpp:106] Creating Layer inception_4c/output_inception_4c/output_0_split
I1126 19:48:55.208130 20584 net.cpp:454] inception_4c/output_inception_4c/output_0_split <- inception_4c/output
I1126 19:48:55.208137 20584 net.cpp:411] inception_4c/output_inception_4c/output_0_split -> inception_4c/output_inception_4c/output_0_split_0
I1126 19:48:55.208142 20584 net.cpp:411] inception_4c/output_inception_4c/output_0_split -> inception_4c/output_inception_4c/output_0_split_1
I1126 19:48:55.208149 20584 net.cpp:411] inception_4c/output_inception_4c/output_0_split -> inception_4c/output_inception_4c/output_0_split_2
I1126 19:48:55.208155 20584 net.cpp:411] inception_4c/output_inception_4c/output_0_split -> inception_4c/output_inception_4c/output_0_split_3
I1126 19:48:55.208295 20584 net.cpp:150] Setting up inception_4c/output_inception_4c/output_0_split
I1126 19:48:55.208305 20584 net.cpp:157] Top shape: 64 512 14 14 (6422528)
I1126 19:48:55.208310 20584 net.cpp:157] Top shape: 64 512 14 14 (6422528)
I1126 19:48:55.208313 20584 net.cpp:157] Top shape: 64 512 14 14 (6422528)
I1126 19:48:55.208317 20584 net.cpp:157] Top shape: 64 512 14 14 (6422528)
I1126 19:48:55.208319 20584 net.cpp:165] Memory required for data: 2970792968
I1126 19:48:55.208323 20584 layer_factory.hpp:76] Creating layer inception_4d/1x1
I1126 19:48:55.208333 20584 net.cpp:106] Creating Layer inception_4d/1x1
I1126 19:48:55.208336 20584 net.cpp:454] inception_4d/1x1 <- inception_4c/output_inception_4c/output_0_split_0
I1126 19:48:55.208343 20584 net.cpp:411] inception_4d/1x1 -> inception_4d/1x1
I1126 19:48:55.209849 20584 net.cpp:150] Setting up inception_4d/1x1
I1126 19:48:55.209864 20584 net.cpp:157] Top shape: 64 112 14 14 (1404928)
I1126 19:48:55.209868 20584 net.cpp:165] Memory required for data: 2976412680
I1126 19:48:55.209874 20584 layer_factory.hpp:76] Creating layer inception_4d/relu_1x1
I1126 19:48:55.209882 20584 net.cpp:106] Creating Layer inception_4d/relu_1x1
I1126 19:48:55.209887 20584 net.cpp:454] inception_4d/relu_1x1 <- inception_4d/1x1
I1126 19:48:55.209892 20584 net.cpp:397] inception_4d/relu_1x1 -> inception_4d/1x1 (in-place)
I1126 19:48:55.210252 20584 net.cpp:150] Setting up inception_4d/relu_1x1
I1126 19:48:55.210266 20584 net.cpp:157] Top shape: 64 112 14 14 (1404928)
I1126 19:48:55.210269 20584 net.cpp:165] Memory required for data: 2982032392
I1126 19:48:55.210273 20584 layer_factory.hpp:76] Creating layer inception_4d/3x3_reduce
I1126 19:48:55.210283 20584 net.cpp:106] Creating Layer inception_4d/3x3_reduce
I1126 19:48:55.210288 20584 net.cpp:454] inception_4d/3x3_reduce <- inception_4c/output_inception_4c/output_0_split_1
I1126 19:48:55.210294 20584 net.cpp:411] inception_4d/3x3_reduce -> inception_4d/3x3_reduce
I1126 19:48:55.212115 20584 net.cpp:150] Setting up inception_4d/3x3_reduce
I1126 19:48:55.212131 20584 net.cpp:157] Top shape: 64 144 14 14 (1806336)
I1126 19:48:55.212134 20584 net.cpp:165] Memory required for data: 2989257736
I1126 19:48:55.212141 20584 layer_factory.hpp:76] Creating layer inception_4d/relu_3x3_reduce
I1126 19:48:55.212147 20584 net.cpp:106] Creating Layer inception_4d/relu_3x3_reduce
I1126 19:48:55.212152 20584 net.cpp:454] inception_4d/relu_3x3_reduce <- inception_4d/3x3_reduce
I1126 19:48:55.212158 20584 net.cpp:397] inception_4d/relu_3x3_reduce -> inception_4d/3x3_reduce (in-place)
I1126 19:48:55.212368 20584 net.cpp:150] Setting up inception_4d/relu_3x3_reduce
I1126 19:48:55.212379 20584 net.cpp:157] Top shape: 64 144 14 14 (1806336)
I1126 19:48:55.212383 20584 net.cpp:165] Memory required for data: 2996483080
I1126 19:48:55.212386 20584 layer_factory.hpp:76] Creating layer inception_4d/3x3
I1126 19:48:55.212395 20584 net.cpp:106] Creating Layer inception_4d/3x3
I1126 19:48:55.212399 20584 net.cpp:454] inception_4d/3x3 <- inception_4d/3x3_reduce
I1126 19:48:55.212406 20584 net.cpp:411] inception_4d/3x3 -> inception_4d/3x3
I1126 19:48:55.216897 20584 net.cpp:150] Setting up inception_4d/3x3
I1126 19:48:55.216912 20584 net.cpp:157] Top shape: 64 288 14 14 (3612672)
I1126 19:48:55.216917 20584 net.cpp:165] Memory required for data: 3010933768
I1126 19:48:55.216922 20584 layer_factory.hpp:76] Creating layer inception_4d/relu_3x3
I1126 19:48:55.216930 20584 net.cpp:106] Creating Layer inception_4d/relu_3x3
I1126 19:48:55.216935 20584 net.cpp:454] inception_4d/relu_3x3 <- inception_4d/3x3
I1126 19:48:55.216941 20584 net.cpp:397] inception_4d/relu_3x3 -> inception_4d/3x3 (in-place)
I1126 19:48:55.217298 20584 net.cpp:150] Setting up inception_4d/relu_3x3
I1126 19:48:55.217313 20584 net.cpp:157] Top shape: 64 288 14 14 (3612672)
I1126 19:48:55.217316 20584 net.cpp:165] Memory required for data: 3025384456
I1126 19:48:55.217319 20584 layer_factory.hpp:76] Creating layer inception_4d/5x5_reduce
I1126 19:48:55.217330 20584 net.cpp:106] Creating Layer inception_4d/5x5_reduce
I1126 19:48:55.217335 20584 net.cpp:454] inception_4d/5x5_reduce <- inception_4c/output_inception_4c/output_0_split_2
I1126 19:48:55.217342 20584 net.cpp:411] inception_4d/5x5_reduce -> inception_4d/5x5_reduce
I1126 19:48:55.218787 20584 net.cpp:150] Setting up inception_4d/5x5_reduce
I1126 19:48:55.218802 20584 net.cpp:157] Top shape: 64 32 14 14 (401408)
I1126 19:48:55.218806 20584 net.cpp:165] Memory required for data: 3026990088
I1126 19:48:55.218812 20584 layer_factory.hpp:76] Creating layer inception_4d/relu_5x5_reduce
I1126 19:48:55.218821 20584 net.cpp:106] Creating Layer inception_4d/relu_5x5_reduce
I1126 19:48:55.218824 20584 net.cpp:454] inception_4d/relu_5x5_reduce <- inception_4d/5x5_reduce
I1126 19:48:55.218830 20584 net.cpp:397] inception_4d/relu_5x5_reduce -> inception_4d/5x5_reduce (in-place)
I1126 19:48:55.219200 20584 net.cpp:150] Setting up inception_4d/relu_5x5_reduce
I1126 19:48:55.219215 20584 net.cpp:157] Top shape: 64 32 14 14 (401408)
I1126 19:48:55.219219 20584 net.cpp:165] Memory required for data: 3028595720
I1126 19:48:55.219223 20584 layer_factory.hpp:76] Creating layer inception_4d/5x5
I1126 19:48:55.219233 20584 net.cpp:106] Creating Layer inception_4d/5x5
I1126 19:48:55.219236 20584 net.cpp:454] inception_4d/5x5 <- inception_4d/5x5_reduce
I1126 19:48:55.219244 20584 net.cpp:411] inception_4d/5x5 -> inception_4d/5x5
I1126 19:48:55.220921 20584 net.cpp:150] Setting up inception_4d/5x5
I1126 19:48:55.220935 20584 net.cpp:157] Top shape: 64 64 14 14 (802816)
I1126 19:48:55.220939 20584 net.cpp:165] Memory required for data: 3031806984
I1126 19:48:55.220945 20584 layer_factory.hpp:76] Creating layer inception_4d/relu_5x5
I1126 19:48:55.220953 20584 net.cpp:106] Creating Layer inception_4d/relu_5x5
I1126 19:48:55.220957 20584 net.cpp:454] inception_4d/relu_5x5 <- inception_4d/5x5
I1126 19:48:55.220963 20584 net.cpp:397] inception_4d/relu_5x5 -> inception_4d/5x5 (in-place)
I1126 19:48:55.221174 20584 net.cpp:150] Setting up inception_4d/relu_5x5
I1126 19:48:55.221184 20584 net.cpp:157] Top shape: 64 64 14 14 (802816)
I1126 19:48:55.221189 20584 net.cpp:165] Memory required for data: 3035018248
I1126 19:48:55.221192 20584 layer_factory.hpp:76] Creating layer inception_4d/pool
I1126 19:48:55.221199 20584 net.cpp:106] Creating Layer inception_4d/pool
I1126 19:48:55.221202 20584 net.cpp:454] inception_4d/pool <- inception_4c/output_inception_4c/output_0_split_3
I1126 19:48:55.221210 20584 net.cpp:411] inception_4d/pool -> inception_4d/pool
I1126 19:48:55.221637 20584 net.cpp:150] Setting up inception_4d/pool
I1126 19:48:55.221652 20584 net.cpp:157] Top shape: 64 512 14 14 (6422528)
I1126 19:48:55.221654 20584 net.cpp:165] Memory required for data: 3060708360
I1126 19:48:55.221658 20584 layer_factory.hpp:76] Creating layer inception_4d/pool_proj
I1126 19:48:55.221668 20584 net.cpp:106] Creating Layer inception_4d/pool_proj
I1126 19:48:55.221673 20584 net.cpp:454] inception_4d/pool_proj <- inception_4d/pool
I1126 19:48:55.221679 20584 net.cpp:411] inception_4d/pool_proj -> inception_4d/pool_proj
I1126 19:48:55.223280 20584 net.cpp:150] Setting up inception_4d/pool_proj
I1126 19:48:55.223295 20584 net.cpp:157] Top shape: 64 64 14 14 (802816)
I1126 19:48:55.223299 20584 net.cpp:165] Memory required for data: 3063919624
I1126 19:48:55.223305 20584 layer_factory.hpp:76] Creating layer inception_4d/relu_pool_proj
I1126 19:48:55.223311 20584 net.cpp:106] Creating Layer inception_4d/relu_pool_proj
I1126 19:48:55.223316 20584 net.cpp:454] inception_4d/relu_pool_proj <- inception_4d/pool_proj
I1126 19:48:55.223322 20584 net.cpp:397] inception_4d/relu_pool_proj -> inception_4d/pool_proj (in-place)
I1126 19:48:55.223526 20584 net.cpp:150] Setting up inception_4d/relu_pool_proj
I1126 19:48:55.223542 20584 net.cpp:157] Top shape: 64 64 14 14 (802816)
I1126 19:48:55.223546 20584 net.cpp:165] Memory required for data: 3067130888
I1126 19:48:55.223549 20584 layer_factory.hpp:76] Creating layer inception_4d/output
I1126 19:48:55.223556 20584 net.cpp:106] Creating Layer inception_4d/output
I1126 19:48:55.223562 20584 net.cpp:454] inception_4d/output <- inception_4d/1x1
I1126 19:48:55.223565 20584 net.cpp:454] inception_4d/output <- inception_4d/3x3
I1126 19:48:55.223569 20584 net.cpp:454] inception_4d/output <- inception_4d/5x5
I1126 19:48:55.223573 20584 net.cpp:454] inception_4d/output <- inception_4d/pool_proj
I1126 19:48:55.223577 20584 net.cpp:411] inception_4d/output -> inception_4d/output
I1126 19:48:55.223628 20584 net.cpp:150] Setting up inception_4d/output
I1126 19:48:55.223635 20584 net.cpp:157] Top shape: 64 528 14 14 (6623232)
I1126 19:48:55.223639 20584 net.cpp:165] Memory required for data: 3093623816
I1126 19:48:55.223641 20584 layer_factory.hpp:76] Creating layer inception_4d/output_inception_4d/output_0_split
I1126 19:48:55.223647 20584 net.cpp:106] Creating Layer inception_4d/output_inception_4d/output_0_split
I1126 19:48:55.223651 20584 net.cpp:454] inception_4d/output_inception_4d/output_0_split <- inception_4d/output
I1126 19:48:55.223659 20584 net.cpp:411] inception_4d/output_inception_4d/output_0_split -> inception_4d/output_inception_4d/output_0_split_0
I1126 19:48:55.223664 20584 net.cpp:411] inception_4d/output_inception_4d/output_0_split -> inception_4d/output_inception_4d/output_0_split_1
I1126 19:48:55.223670 20584 net.cpp:411] inception_4d/output_inception_4d/output_0_split -> inception_4d/output_inception_4d/output_0_split_2
I1126 19:48:55.223676 20584 net.cpp:411] inception_4d/output_inception_4d/output_0_split -> inception_4d/output_inception_4d/output_0_split_3
I1126 19:48:55.223680 20584 net.cpp:411] inception_4d/output_inception_4d/output_0_split -> inception_4d/output_inception_4d/output_0_split_4
I1126 19:48:55.223805 20584 net.cpp:150] Setting up inception_4d/output_inception_4d/output_0_split
I1126 19:48:55.223814 20584 net.cpp:157] Top shape: 64 528 14 14 (6623232)
I1126 19:48:55.223830 20584 net.cpp:157] Top shape: 64 528 14 14 (6623232)
I1126 19:48:55.223834 20584 net.cpp:157] Top shape: 64 528 14 14 (6623232)
I1126 19:48:55.223839 20584 net.cpp:157] Top shape: 64 528 14 14 (6623232)
I1126 19:48:55.223841 20584 net.cpp:157] Top shape: 64 528 14 14 (6623232)
I1126 19:48:55.223845 20584 net.cpp:165] Memory required for data: 3226088456
I1126 19:48:55.223847 20584 layer_factory.hpp:76] Creating layer loss2/ave_pool
I1126 19:48:55.223855 20584 net.cpp:106] Creating Layer loss2/ave_pool
I1126 19:48:55.223857 20584 net.cpp:454] loss2/ave_pool <- inception_4d/output_inception_4d/output_0_split_0
I1126 19:48:55.223863 20584 net.cpp:411] loss2/ave_pool -> loss2/ave_pool
I1126 19:48:55.224278 20584 net.cpp:150] Setting up loss2/ave_pool
I1126 19:48:55.224293 20584 net.cpp:157] Top shape: 64 528 4 4 (540672)
I1126 19:48:55.224298 20584 net.cpp:165] Memory required for data: 3228251144
I1126 19:48:55.224302 20584 layer_factory.hpp:76] Creating layer loss2/conv
I1126 19:48:55.224310 20584 net.cpp:106] Creating Layer loss2/conv
I1126 19:48:55.224315 20584 net.cpp:454] loss2/conv <- loss2/ave_pool
I1126 19:48:55.224321 20584 net.cpp:411] loss2/conv -> loss2/conv
I1126 19:48:55.226352 20584 net.cpp:150] Setting up loss2/conv
I1126 19:48:55.226367 20584 net.cpp:157] Top shape: 64 128 4 4 (131072)
I1126 19:48:55.226372 20584 net.cpp:165] Memory required for data: 3228775432
I1126 19:48:55.226378 20584 layer_factory.hpp:76] Creating layer loss2/relu_conv
I1126 19:48:55.226385 20584 net.cpp:106] Creating Layer loss2/relu_conv
I1126 19:48:55.226389 20584 net.cpp:454] loss2/relu_conv <- loss2/conv
I1126 19:48:55.226397 20584 net.cpp:397] loss2/relu_conv -> loss2/conv (in-place)
I1126 19:48:55.226761 20584 net.cpp:150] Setting up loss2/relu_conv
I1126 19:48:55.226775 20584 net.cpp:157] Top shape: 64 128 4 4 (131072)
I1126 19:48:55.226779 20584 net.cpp:165] Memory required for data: 3229299720
I1126 19:48:55.226783 20584 layer_factory.hpp:76] Creating layer loss2/fc
I1126 19:48:55.226793 20584 net.cpp:106] Creating Layer loss2/fc
I1126 19:48:55.226796 20584 net.cpp:454] loss2/fc <- loss2/conv
I1126 19:48:55.226802 20584 net.cpp:411] loss2/fc -> loss2/fc
I1126 19:48:55.242421 20584 net.cpp:150] Setting up loss2/fc
I1126 19:48:55.242437 20584 net.cpp:157] Top shape: 64 1024 (65536)
I1126 19:48:55.242440 20584 net.cpp:165] Memory required for data: 3229561864
I1126 19:48:55.242449 20584 layer_factory.hpp:76] Creating layer loss2/relu_fc
I1126 19:48:55.242455 20584 net.cpp:106] Creating Layer loss2/relu_fc
I1126 19:48:55.242460 20584 net.cpp:454] loss2/relu_fc <- loss2/fc
I1126 19:48:55.242465 20584 net.cpp:397] loss2/relu_fc -> loss2/fc (in-place)
I1126 19:48:55.242691 20584 net.cpp:150] Setting up loss2/relu_fc
I1126 19:48:55.242702 20584 net.cpp:157] Top shape: 64 1024 (65536)
I1126 19:48:55.242705 20584 net.cpp:165] Memory required for data: 3229824008
I1126 19:48:55.242709 20584 layer_factory.hpp:76] Creating layer loss2/drop_fc
I1126 19:48:55.242717 20584 net.cpp:106] Creating Layer loss2/drop_fc
I1126 19:48:55.242720 20584 net.cpp:454] loss2/drop_fc <- loss2/fc
I1126 19:48:55.242725 20584 net.cpp:397] loss2/drop_fc -> loss2/fc (in-place)
I1126 19:48:55.242776 20584 net.cpp:150] Setting up loss2/drop_fc
I1126 19:48:55.242790 20584 net.cpp:157] Top shape: 64 1024 (65536)
I1126 19:48:55.242795 20584 net.cpp:165] Memory required for data: 3230086152
I1126 19:48:55.242799 20584 layer_factory.hpp:76] Creating layer loss2/classifier-attribute
I1126 19:48:55.242806 20584 net.cpp:106] Creating Layer loss2/classifier-attribute
I1126 19:48:55.242818 20584 net.cpp:454] loss2/classifier-attribute <- loss2/fc
I1126 19:48:55.242826 20584 net.cpp:411] loss2/classifier-attribute -> loss2/classifier-attribute
I1126 19:48:55.320148 20584 net.cpp:150] Setting up loss2/classifier-attribute
I1126 19:48:55.320173 20584 net.cpp:157] Top shape: 64 9999 (639936)
I1126 19:48:55.320178 20584 net.cpp:165] Memory required for data: 3232645896
I1126 19:48:55.320188 20584 layer_factory.hpp:76] Creating layer loss2/classifier-attribute_loss2/classifier-attribute_0_split
I1126 19:48:55.320197 20584 net.cpp:106] Creating Layer loss2/classifier-attribute_loss2/classifier-attribute_0_split
I1126 19:48:55.320204 20584 net.cpp:454] loss2/classifier-attribute_loss2/classifier-attribute_0_split <- loss2/classifier-attribute
I1126 19:48:55.320214 20584 net.cpp:411] loss2/classifier-attribute_loss2/classifier-attribute_0_split -> loss2/classifier-attribute_loss2/classifier-attribute_0_split_0
I1126 19:48:55.320224 20584 net.cpp:411] loss2/classifier-attribute_loss2/classifier-attribute_0_split -> loss2/classifier-attribute_loss2/classifier-attribute_0_split_1
I1126 19:48:55.320299 20584 net.cpp:150] Setting up loss2/classifier-attribute_loss2/classifier-attribute_0_split
I1126 19:48:55.320308 20584 net.cpp:157] Top shape: 64 9999 (639936)
I1126 19:48:55.320312 20584 net.cpp:157] Top shape: 64 9999 (639936)
I1126 19:48:55.320314 20584 net.cpp:165] Memory required for data: 3237765384
I1126 19:48:55.320317 20584 layer_factory.hpp:76] Creating layer loss2/loss
I1126 19:48:55.320325 20584 net.cpp:106] Creating Layer loss2/loss
I1126 19:48:55.320329 20584 net.cpp:454] loss2/loss <- loss2/classifier-attribute_loss2/classifier-attribute_0_split_0
I1126 19:48:55.320334 20584 net.cpp:454] loss2/loss <- label_data_1_split_2
…
I1126 19:48:55.322373 20584 net.cpp:150] Setting up loss2/top-1
I1126 19:48:55.322377 20584 net.cpp:157] Top shape: (1)
I1126 19:48:55.322381 20584 net.cpp:165] Memory required for data: 3237765392
I1126 19:48:55.322383 20584 layer_factory.hpp:76] Creating layer inception_4e/1x1
I1126 19:48:55.322393 20584 net.cpp:106] Creating Layer inception_4e/1x1
I1126 19:48:55.322398 20584 net.cpp:454] inception_4e/1x1 <- inception_4d/output_inception_4d/output_0_split_1
I1126 19:48:55.322406 20584 net.cpp:411] inception_4e/1x1 -> inception_4e/1x1
I1126 19:48:55.324723 20584 net.cpp:150] Setting up inception_4e/1x1
I1126 19:48:55.324738 20584 net.cpp:157] Top shape: 64 256 14 14 (3211264)
I1126 19:48:55.324741 20584 net.cpp:165] Memory required for data: 3250610448
I1126 19:48:55.324748 20584 layer_factory.hpp:76] Creating layer inception_4e/relu_1x1
I1126 19:48:55.324754 20584 net.cpp:106] Creating Layer inception_4e/relu_1x1
I1126 19:48:55.324760 20584 net.cpp:454] inception_4e/relu_1x1 <- inception_4e/1x1
I1126 19:48:55.324766 20584 net.cpp:397] inception_4e/relu_1x1 -> inception_4e/1x1 (in-place)
I1126 19:48:55.324991 20584 net.cpp:150] Setting up inception_4e/relu_1x1
I1126 19:48:55.325002 20584 net.cpp:157] Top shape: 64 256 14 14 (3211264)
I1126 19:48:55.325006 20584 net.cpp:165] Memory required for data: 3263455504
I1126 19:48:55.325009 20584 layer_factory.hpp:76] Creating layer inception_4e/3x3_reduce
I1126 19:48:55.325019 20584 net.cpp:106] Creating Layer inception_4e/3x3_reduce
I1126 19:48:55.325024 20584 net.cpp:454] inception_4e/3x3_reduce <- inception_4d/output_inception_4d/output_0_split_2
I1126 19:48:55.325031 20584 net.cpp:411] inception_4e/3x3_reduce -> inception_4e/3x3_reduce
I1126 19:48:55.327412 20584 net.cpp:150] Setting up inception_4e/3x3_reduce
I1126 19:48:55.327427 20584 net.cpp:157] Top shape: 64 160 14 14 (2007040)
I1126 19:48:55.327432 20584 net.cpp:165] Memory required for data: 3271483664
I1126 19:48:55.327440 20584 layer_factory.hpp:76] Creating layer inception_4e/relu_3x3_reduce
I1126 19:48:55.327445 20584 net.cpp:106] Creating Layer inception_4e/relu_3x3_reduce
I1126 19:48:55.327450 20584 net.cpp:454] inception_4e/relu_3x3_reduce <- inception_4e/3x3_reduce
I1126 19:48:55.327456 20584 net.cpp:397] inception_4e/relu_3x3_reduce -> inception_4e/3x3_reduce (in-place)
I1126 19:48:55.327831 20584 net.cpp:150] Setting up inception_4e/relu_3x3_reduce
I1126 19:48:55.327846 20584 net.cpp:157] Top shape: 64 160 14 14 (2007040)
I1126 19:48:55.327848 20584 net.cpp:165] Memory required for data: 3279511824
I1126 19:48:55.327852 20584 layer_factory.hpp:76] Creating layer inception_4e/3x3
I1126 19:48:55.327878 20584 net.cpp:106] Creating Layer inception_4e/3x3
I1126 19:48:55.327883 20584 net.cpp:454] inception_4e/3x3 <- inception_4e/3x3_reduce
I1126 19:48:55.327890 20584 net.cpp:411] inception_4e/3x3 -> inception_4e/3x3
I1126 19:48:55.332670 20584 net.cpp:150] Setting up inception_4e/3x3
I1126 19:48:55.332686 20584 net.cpp:157] Top shape: 64 320 14 14 (4014080)
I1126 19:48:55.332690 20584 net.cpp:165] Memory required for data: 3295568144
I1126 19:48:55.332697 20584 layer_factory.hpp:76] Creating layer inception_4e/relu_3x3
I1126 19:48:55.332705 20584 net.cpp:106] Creating Layer inception_4e/relu_3x3
I1126 19:48:55.332708 20584 net.cpp:454] inception_4e/relu_3x3 <- inception_4e/3x3
I1126 19:48:55.332715 20584 net.cpp:397] inception_4e/relu_3x3 -> inception_4e/3x3 (in-place)
I1126 19:48:55.333076 20584 net.cpp:150] Setting up inception_4e/relu_3x3
I1126 19:48:55.333091 20584 net.cpp:157] Top shape: 64 320 14 14 (4014080)
I1126 19:48:55.333094 20584 net.cpp:165] Memory required for data: 3311624464
I1126 19:48:55.333098 20584 layer_factory.hpp:76] Creating layer inception_4e/5x5_reduce
I1126 19:48:55.333109 20584 net.cpp:106] Creating Layer inception_4e/5x5_reduce
I1126 19:48:55.333114 20584 net.cpp:454] inception_4e/5x5_reduce <- inception_4d/output_inception_4d/output_0_split_3
I1126 19:48:55.333120 20584 net.cpp:411] inception_4e/5x5_reduce -> inception_4e/5x5_reduce
I1126 19:48:55.334764 20584 net.cpp:150] Setting up inception_4e/5x5_reduce
I1126 19:48:55.334779 20584 net.cpp:157] Top shape: 64 32 14 14 (401408)
I1126 19:48:55.334784 20584 net.cpp:165] Memory required for data: 3313230096
I1126 19:48:55.334789 20584 layer_factory.hpp:76] Creating layer inception_4e/relu_5x5_reduce
I1126 19:48:55.334797 20584 net.cpp:106] Creating Layer inception_4e/relu_5x5_reduce
I1126 19:48:55.334802 20584 net.cpp:454] inception_4e/relu_5x5_reduce <- inception_4e/5x5_reduce
I1126 19:48:55.334808 20584 net.cpp:397] inception_4e/relu_5x5_reduce -> inception_4e/5x5_reduce (in-place)
I1126 19:48:55.335022 20584 net.cpp:150] Setting up inception_4e/relu_5x5_reduce
I1126 19:48:55.335033 20584 net.cpp:157] Top shape: 64 32 14 14 (401408)
I1126 19:48:55.335037 20584 net.cpp:165] Memory required for data: 3314835728
I1126 19:48:55.335041 20584 layer_factory.hpp:76] Creating layer inception_4e/5x5
I1126 19:48:55.335049 20584 net.cpp:106] Creating Layer inception_4e/5x5
I1126 19:48:55.335053 20584 net.cpp:454] inception_4e/5x5 <- inception_4e/5x5_reduce
I1126 19:48:55.335062 20584 net.cpp:411] inception_4e/5x5 -> inception_4e/5x5
I1126 19:48:55.337095 20584 net.cpp:150] Setting up inception_4e/5x5
I1126 19:48:55.337111 20584 net.cpp:157] Top shape: 64 128 14 14 (1605632)
I1126 19:48:55.337116 20584 net.cpp:165] Memory required for data: 3321258256
I1126 19:48:55.337122 20584 layer_factory.hpp:76] Creating layer inception_4e/relu_5x5
I1126 19:48:55.337129 20584 net.cpp:106] Creating Layer inception_4e/relu_5x5
I1126 19:48:55.337134 20584 net.cpp:454] inception_4e/relu_5x5 <- inception_4e/5x5
I1126 19:48:55.337139 20584 net.cpp:397] inception_4e/relu_5x5 -> inception_4e/5x5 (in-place)
I1126 19:48:55.337507 20584 net.cpp:150] Setting up inception_4e/relu_5x5
I1126 19:48:55.337522 20584 net.cpp:157] Top shape: 64 128 14 14 (1605632)
I1126 19:48:55.337525 20584 net.cpp:165] Memory required for data: 3327680784
I1126 19:48:55.337529 20584 layer_factory.hpp:76] Creating layer inception_4e/pool
I1126 19:48:55.337538 20584 net.cpp:106] Creating Layer inception_4e/pool
I1126 19:48:55.337543 20584 net.cpp:454] inception_4e/pool <- inception_4d/output_inception_4d/output_0_split_4
I1126 19:48:55.337548 20584 net.cpp:411] inception_4e/pool -> inception_4e/pool
I1126 19:48:55.337813 20584 net.cpp:150] Setting up inception_4e/pool
I1126 19:48:55.337826 20584 net.cpp:157] Top shape: 64 528 14 14 (6623232)
I1126 19:48:55.337828 20584 net.cpp:165] Memory required for data: 3354173712
I1126 19:48:55.337831 20584 layer_factory.hpp:76] Creating layer inception_4e/pool_proj
I1126 19:48:55.337841 20584 net.cpp:106] Creating Layer inception_4e/pool_proj
I1126 19:48:55.337846 20584 net.cpp:454] inception_4e/pool_proj <- inception_4e/pool
I1126 19:48:55.337852 20584 net.cpp:411] inception_4e/pool_proj -> inception_4e/pool_proj
I1126 19:48:55.339643 20584 net.cpp:150] Setting up inception_4e/pool_proj
I1126 19:48:55.339658 20584 net.cpp:157] Top shape: 64 128 14 14 (1605632)
I1126 19:48:55.339661 20584 net.cpp:165] Memory required for data: 3360596240
I1126 19:48:55.339668 20584 layer_factory.hpp:76] Creating layer inception_4e/relu_pool_proj
I1126 19:48:55.339675 20584 net.cpp:106] Creating Layer inception_4e/relu_pool_proj
I1126 19:48:55.339679 20584 net.cpp:454] inception_4e/relu_pool_proj <- inception_4e/pool_proj
I1126 19:48:55.339686 20584 net.cpp:397] inception_4e/relu_pool_proj -> inception_4e/pool_proj (in-place)
I1126 19:48:55.340096 20584 net.cpp:150] Setting up inception_4e/relu_pool_proj
I1126 19:48:55.340111 20584 net.cpp:157] Top shape: 64 128 14 14 (1605632)
I1126 19:48:55.340114 20584 net.cpp:165] Memory required for data: 3367018768
I1126 19:48:55.340118 20584 layer_factory.hpp:76] Creating layer inception_4e/output
I1126 19:48:55.340126 20584 net.cpp:106] Creating Layer inception_4e/output
I1126 19:48:55.340129 20584 net.cpp:454] inception_4e/output <- inception_4e/1x1
I1126 19:48:55.340134 20584 net.cpp:454] inception_4e/output <- inception_4e/3x3
I1126 19:48:55.340138 20584 net.cpp:454] inception_4e/output <- inception_4e/5x5
I1126 19:48:55.340142 20584 net.cpp:454] inception_4e/output <- inception_4e/pool_proj
I1126 19:48:55.340148 20584 net.cpp:411] inception_4e/output -> inception_4e/output
I1126 19:48:55.340205 20584 net.cpp:150] Setting up inception_4e/output
I1126 19:48:55.340214 20584 net.cpp:157] Top shape: 64 832 14 14 (10436608)
I1126 19:48:55.340217 20584 net.cpp:165] Memory required for data: 3408765200
I1126 19:48:55.340220 20584 layer_factory.hpp:76] Creating layer pool4/3x3_s2
I1126 19:48:55.340229 20584 net.cpp:106] Creating Layer pool4/3x3_s2
I1126 19:48:55.340232 20584 net.cpp:454] pool4/3x3_s2 <- inception_4e/output
I1126 19:48:55.340237 20584 net.cpp:411] pool4/3x3_s2 -> pool4/3x3_s2
I1126 19:48:55.340512 20584 net.cpp:150] Setting up pool4/3x3_s2
I1126 19:48:55.340523 20584 net.cpp:157] Top shape: 64 832 7 7 (2609152)
I1126 19:48:55.340526 20584 net.cpp:165] Memory required for data: 3419201808
I1126 19:48:55.340530 20584 layer_factory.hpp:76] Creating layer pool4/3x3_s2_pool4/3x3_s2_0_split
I1126 19:48:55.340536 20584 net.cpp:106] Creating Layer pool4/3x3_s2_pool4/3x3_s2_0_split
I1126 19:48:55.340540 20584 net.cpp:454] pool4/3x3_s2_pool4/3x3_s2_0_split <- pool4/3x3_s2
I1126 19:48:55.340546 20584 net.cpp:411] pool4/3x3_s2_pool4/3x3_s2_0_split -> pool4/3x3_s2_pool4/3x3_s2_0_split_0
I1126 19:48:55.340553 20584 net.cpp:411] pool4/3x3_s2_pool4/3x3_s2_0_split -> pool4/3x3_s2_pool4/3x3_s2_0_split_1
I1126 19:48:55.340559 20584 net.cpp:411] pool4/3x3_s2_pool4/3x3_s2_0_split -> pool4/3x3_s2_pool4/3x3_s2_0_split_2
I1126 19:48:55.340564 20584 net.cpp:411] pool4/3x3_s2_pool4/3x3_s2_0_split -> pool4/3x3_s2_pool4/3x3_s2_0_split_3
I1126 19:48:55.340674 20584 net.cpp:150] Setting up pool4/3x3_s2_pool4/3x3_s2_0_split
I1126 19:48:55.340682 20584 net.cpp:157] Top shape: 64 832 7 7 (2609152)
I1126 19:48:55.340687 20584 net.cpp:157] Top shape: 64 832 7 7 (2609152)
I1126 19:48:55.340689 20584 net.cpp:157] Top shape: 64 832 7 7 (2609152)
I1126 19:48:55.340693 20584 net.cpp:157] Top shape: 64 832 7 7 (2609152)
I1126 19:48:55.340695 20584 net.cpp:165] Memory required for data: 3460948240
I1126 19:48:55.340699 20584 layer_factory.hpp:76] Creating layer inception_5a/1x1
I1126 19:48:55.340708 20584 net.cpp:106] Creating Layer inception_5a/1x1
I1126 19:48:55.340713 20584 net.cpp:454] inception_5a/1x1 <- pool4/3x3_s2_pool4/3x3_s2_0_split_0
I1126 19:48:55.340718 20584 net.cpp:411] inception_5a/1x1 -> inception_5a/1x1
I1126 19:48:55.343895 20584 net.cpp:150] Setting up inception_5a/1x1
I1126 19:48:55.343914 20584 net.cpp:157] Top shape: 64 256 7 7 (802816)
I1126 19:48:55.343917 20584 net.cpp:165] Memory required for data: 3464159504
I1126 19:48:55.343924 20584 layer_factory.hpp:76] Creating layer inception_5a/relu_1x1
I1126 19:48:55.343930 20584 net.cpp:106] Creating Layer inception_5a/relu_1x1
I1126 19:48:55.343935 20584 net.cpp:454] inception_5a/relu_1x1 <- inception_5a/1x1
I1126 19:48:55.343955 20584 net.cpp:397] inception_5a/relu_1x1 -> inception_5a/1x1 (in-place)
I1126 19:48:55.344179 20584 net.cpp:150] Setting up inception_5a/relu_1x1
I1126 19:48:55.344193 20584 net.cpp:157] Top shape: 64 256 7 7 (802816)
I1126 19:48:55.344197 20584 net.cpp:165] Memory required for data: 3467370768
I1126 19:48:55.344200 20584 layer_factory.hpp:76] Creating layer inception_5a/3x3_reduce
I1126 19:48:55.344208 20584 net.cpp:106] Creating Layer inception_5a/3x3_reduce
I1126 19:48:55.344213 20584 net.cpp:454] inception_5a/3x3_reduce <- pool4/3x3_s2_pool4/3x3_s2_0_split_1
I1126 19:48:55.344220 20584 net.cpp:411] inception_5a/3x3_reduce -> inception_5a/3x3_reduce
I1126 19:48:55.346998 20584 net.cpp:150] Setting up inception_5a/3x3_reduce
I1126 19:48:55.347013 20584 net.cpp:157] Top shape: 64 160 7 7 (501760)
I1126 19:48:55.347019 20584 net.cpp:165] Memory required for data: 3469377808
I1126 19:48:55.347026 20584 layer_factory.hpp:76] Creating layer inception_5a/relu_3x3_reduce
I1126 19:48:55.347033 20584 net.cpp:106] Creating Layer inception_5a/relu_3x3_reduce
I1126 19:48:55.347038 20584 net.cpp:454] inception_5a/relu_3x3_reduce <- inception_5a/3x3_reduce
I1126 19:48:55.347043 20584 net.cpp:397] inception_5a/relu_3x3_reduce -> inception_5a/3x3_reduce (in-place)
I1126 19:48:55.347416 20584 net.cpp:150] Setting up inception_5a/relu_3x3_reduce
I1126 19:48:55.347432 20584 net.cpp:157] Top shape: 64 160 7 7 (501760)
I1126 19:48:55.347436 20584 net.cpp:165] Memory required for data: 3471384848
I1126 19:48:55.347440 20584 layer_factory.hpp:76] Creating layer inception_5a/3x3
I1126 19:48:55.347450 20584 net.cpp:106] Creating Layer inception_5a/3x3
I1126 19:48:55.347455 20584 net.cpp:454] inception_5a/3x3 <- inception_5a/3x3_reduce
I1126 19:48:55.347461 20584 net.cpp:411] inception_5a/3x3 -> inception_5a/3x3
I1126 19:48:55.352438 20584 net.cpp:150] Setting up inception_5a/3x3
I1126 19:48:55.352454 20584 net.cpp:157] Top shape: 64 320 7 7 (1003520)
I1126 19:48:55.352458 20584 net.cpp:165] Memory required for data: 3475398928
I1126 19:48:55.352464 20584 layer_factory.hpp:76] Creating layer inception_5a/relu_3x3
I1126 19:48:55.352471 20584 net.cpp:106] Creating Layer inception_5a/relu_3x3
I1126 19:48:55.352475 20584 net.cpp:454] inception_5a/relu_3x3 <- inception_5a/3x3
I1126 19:48:55.352480 20584 net.cpp:397] inception_5a/relu_3x3 -> inception_5a/3x3 (in-place)
I1126 19:48:55.352690 20584 net.cpp:150] Setting up inception_5a/relu_3x3
I1126 19:48:55.352701 20584 net.cpp:157] Top shape: 64 320 7 7 (1003520)
I1126 19:48:55.352705 20584 net.cpp:165] Memory required for data: 3479413008
I1126 19:48:55.352708 20584 layer_factory.hpp:76] Creating layer inception_5a/5x5_reduce
I1126 19:48:55.352718 20584 net.cpp:106] Creating Layer inception_5a/5x5_reduce
I1126 19:48:55.352723 20584 net.cpp:454] inception_5a/5x5_reduce <- pool4/3x3_s2_pool4/3x3_s2_0_split_2
I1126 19:48:55.352732 20584 net.cpp:411] inception_5a/5x5_reduce -> inception_5a/5x5_reduce
I1126 19:48:55.354759 20584 net.cpp:150] Setting up inception_5a/5x5_reduce
I1126 19:48:55.354778 20584 net.cpp:157] Top shape: 64 32 7 7 (100352)
I1126 19:48:55.354781 20584 net.cpp:165] Memory required for data: 3479814416
I1126 19:48:55.354789 20584 layer_factory.hpp:76] Creating layer inception_5a/relu_5x5_reduce
I1126 19:48:55.354796 20584 net.cpp:106] Creating Layer inception_5a/relu_5x5_reduce
I1126 19:48:55.354801 20584 net.cpp:454] inception_5a/relu_5x5_reduce <- inception_5a/5x5_reduce
I1126 19:48:55.354807 20584 net.cpp:397] inception_5a/relu_5x5_reduce -> inception_5a/5x5_reduce (in-place)
I1126 19:48:55.355026 20584 net.cpp:150] Setting up inception_5a/relu_5x5_reduce
I1126 19:48:55.355038 20584 net.cpp:157] Top shape: 64 32 7 7 (100352)
I1126 19:48:55.355041 20584 net.cpp:165] Memory required for data: 3480215824
I1126 19:48:55.355044 20584 layer_factory.hpp:76] Creating layer inception_5a/5x5
I1126 19:48:55.355054 20584 net.cpp:106] Creating Layer inception_5a/5x5
I1126 19:48:55.355058 20584 net.cpp:454] inception_5a/5x5 <- inception_5a/5x5_reduce
I1126 19:48:55.355065 20584 net.cpp:411] inception_5a/5x5 -> inception_5a/5x5
I1126 19:48:55.357269 20584 net.cpp:150] Setting up inception_5a/5x5
I1126 19:48:55.357285 20584 net.cpp:157] Top shape: 64 128 7 7 (401408)
I1126 19:48:55.357288 20584 net.cpp:165] Memory required for data: 3481821456
I1126 19:48:55.357295 20584 layer_factory.hpp:76] Creating layer inception_5a/relu_5x5
I1126 19:48:55.357300 20584 net.cpp:106] Creating Layer inception_5a/relu_5x5
I1126 19:48:55.357306 20584 net.cpp:454] inception_5a/relu_5x5 <- inception_5a/5x5
I1126 19:48:55.357311 20584 net.cpp:397] inception_5a/relu_5x5 -> inception_5a/5x5 (in-place)
I1126 19:48:55.357704 20584 net.cpp:150] Setting up inception_5a/relu_5x5
I1126 19:48:55.357718 20584 net.cpp:157] Top shape: 64 128 7 7 (401408)
I1126 19:48:55.357722 20584 net.cpp:165] Memory required for data: 3483427088
I1126 19:48:55.357727 20584 layer_factory.hpp:76] Creating layer inception_5a/pool
I1126 19:48:55.357733 20584 net.cpp:106] Creating Layer inception_5a/pool
I1126 19:48:55.357738 20584 net.cpp:454] inception_5a/pool <- pool4/3x3_s2_pool4/3x3_s2_0_split_3
I1126 19:48:55.357745 20584 net.cpp:411] inception_5a/pool -> inception_5a/pool
I1126 19:48:55.358038 20584 net.cpp:150] Setting up inception_5a/pool
I1126 19:48:55.358050 20584 net.cpp:157] Top shape: 64 832 7 7 (2609152)
I1126 19:48:55.358054 20584 net.cpp:165] Memory required for data: 3493863696
I1126 19:48:55.358057 20584 layer_factory.hpp:76] Creating layer inception_5a/pool_proj
I1126 19:48:55.358067 20584 net.cpp:106] Creating Layer inception_5a/pool_proj
I1126 19:48:55.358072 20584 net.cpp:454] inception_5a/pool_proj <- inception_5a/pool
I1126 19:48:55.358078 20584 net.cpp:411] inception_5a/pool_proj -> inception_5a/pool_proj
I1126 19:48:55.360640 20584 net.cpp:150] Setting up inception_5a/pool_proj
I1126 19:48:55.360656 20584 net.cpp:157] Top shape: 64 128 7 7 (401408)
I1126 19:48:55.360661 20584 net.cpp:165] Memory required for data: 3495469328
I1126 19:48:55.360667 20584 layer_factory.hpp:76] Creating layer inception_5a/relu_pool_proj
I1126 19:48:55.360673 20584 net.cpp:106] Creating Layer inception_5a/relu_pool_proj
I1126 19:48:55.360678 20584 net.cpp:454] inception_5a/relu_pool_proj <- inception_5a/pool_proj
I1126 19:48:55.360685 20584 net.cpp:397] inception_5a/relu_pool_proj -> inception_5a/pool_proj (in-place)
I1126 19:48:55.361060 20584 net.cpp:150] Setting up inception_5a/relu_pool_proj
I1126 19:48:55.361076 20584 net.cpp:157] Top shape: 64 128 7 7 (401408)
I1126 19:48:55.361080 20584 net.cpp:165] Memory required for data: 3497074960
I1126 19:48:55.361084 20584 layer_factory.hpp:76] Creating layer inception_5a/output
I1126 19:48:55.361091 20584 net.cpp:106] Creating Layer inception_5a/output
I1126 19:48:55.361095 20584 net.cpp:454] inception_5a/output <- inception_5a/1x1
I1126 19:48:55.361100 20584 net.cpp:454] inception_5a/output <- inception_5a/3x3
I1126 19:48:55.361104 20584 net.cpp:454] inception_5a/output <- inception_5a/5x5
I1126 19:48:55.361109 20584 net.cpp:454] inception_5a/output <- inception_5a/pool_proj
I1126 19:48:55.361114 20584 net.cpp:411] inception_5a/output -> inception_5a/output
I1126 19:48:55.361171 20584 net.cpp:150] Setting up inception_5a/output
I1126 19:48:55.361179 20584 net.cpp:157] Top shape: 64 832 7 7 (2609152)
I1126 19:48:55.361182 20584 net.cpp:165] Memory required for data: 3507511568
I1126 19:48:55.361186 20584 layer_factory.hpp:76] Creating layer inception_5a/output_inception_5a/output_0_split
I1126 19:48:55.361196 20584 net.cpp:106] Creating Layer inception_5a/output_inception_5a/output_0_split
I1126 19:48:55.361201 20584 net.cpp:454] inception_5a/output_inception_5a/output_0_split <- inception_5a/output
I1126 19:48:55.361207 20584 net.cpp:411] inception_5a/output_inception_5a/output_0_split -> inception_5a/output_inception_5a/output_0_split_0
I1126 19:48:55.361213 20584 net.cpp:411] inception_5a/output_inception_5a/output_0_split -> inception_5a/output_inception_5a/output_0_split_1
I1126 19:48:55.361219 20584 net.cpp:411] inception_5a/output_inception_5a/output_0_split -> inception_5a/output_inception_5a/output_0_split_2
I1126 19:48:55.361225 20584 net.cpp:411] inception_5a/output_inception_5a/output_0_split -> inception_5a/output_inception_5a/output_0_split_3
I1126 19:48:55.361346 20584 net.cpp:150] Setting up inception_5a/output_inception_5a/output_0_split
I1126 19:48:55.361356 20584 net.cpp:157] Top shape: 64 832 7 7 (2609152)
I1126 19:48:55.361361 20584 net.cpp:157] Top shape: 64 832 7 7 (2609152)
I1126 19:48:55.361363 20584 net.cpp:157] Top shape: 64 832 7 7 (2609152)
I1126 19:48:55.361367 20584 net.cpp:157] Top shape: 64 832 7 7 (2609152)
I1126 19:48:55.361371 20584 net.cpp:165] Memory required for data: 3549258000
I1126 19:48:55.361373 20584 layer_factory.hpp:76] Creating layer inception_5b/1x1
I1126 19:48:55.361382 20584 net.cpp:106] Creating Layer inception_5b/1x1
I1126 19:48:55.361385 20584 net.cpp:454] inception_5b/1x1 <- inception_5a/output_inception_5a/output_0_split_0
I1126 19:48:55.361392 20584 net.cpp:411] inception_5b/1x1 -> inception_5b/1x1
I1126 19:48:55.365209 20584 net.cpp:150] Setting up inception_5b/1x1
I1126 19:48:55.365224 20584 net.cpp:157] Top shape: 64 384 7 7 (1204224)
I1126 19:48:55.365228 20584 net.cpp:165] Memory required for data: 3554074896
I1126 19:48:55.365234 20584 layer_factory.hpp:76] Creating layer inception_5b/relu_1x1
I1126 19:48:55.365242 20584 net.cpp:106] Creating Layer inception_5b/relu_1x1
I1126 19:48:55.365245 20584 net.cpp:454] inception_5b/relu_1x1 <- inception_5b/1x1
I1126 19:48:55.365252 20584 net.cpp:397] inception_5b/relu_1x1 -> inception_5b/1x1 (in-place)
I1126 19:48:55.365636 20584 net.cpp:150] Setting up inception_5b/relu_1x1
I1126 19:48:55.365653 20584 net.cpp:157] Top shape: 64 384 7 7 (1204224)
I1126 19:48:55.365656 20584 net.cpp:165] Memory required for data: 3558891792
I1126 19:48:55.365660 20584 layer_factory.hpp:76] Creating layer inception_5b/3x3_reduce
I1126 19:48:55.365670 20584 net.cpp:106] Creating Layer inception_5b/3x3_reduce
I1126 19:48:55.365675 20584 net.cpp:454] inception_5b/3x3_reduce <- inception_5a/output_inception_5a/output_0_split_1
I1126 19:48:55.365684 20584 net.cpp:411] inception_5b/3x3_reduce -> inception_5b/3x3_reduce
I1126 19:48:55.368589 20584 net.cpp:150] Setting up inception_5b/3x3_reduce
I1126 19:48:55.368605 20584 net.cpp:157] Top shape: 64 192 7 7 (602112)
I1126 19:48:55.368609 20584 net.cpp:165] Memory required for data: 3561300240
I1126 19:48:55.368616 20584 layer_factory.hpp:76] Creating layer inception_5b/relu_3x3_reduce
I1126 19:48:55.368624 20584 net.cpp:106] Creating Layer inception_5b/relu_3x3_reduce
I1126 19:48:55.368629 20584 net.cpp:454] inception_5b/relu_3x3_reduce <- inception_5b/3x3_reduce
I1126 19:48:55.368634 20584 net.cpp:397] inception_5b/relu_3x3_reduce -> inception_5b/3x3_reduce (in-place)
I1126 19:48:55.368849 20584 net.cpp:150] Setting up inception_5b/relu_3x3_reduce
I1126 19:48:55.368860 20584 net.cpp:157] Top shape: 64 192 7 7 (602112)
I1126 19:48:55.368863 20584 net.cpp:165] Memory required for data: 3563708688
I1126 19:48:55.368866 20584 layer_factory.hpp:76] Creating layer inception_5b/3x3
I1126 19:48:55.368876 20584 net.cpp:106] Creating Layer inception_5b/3x3
I1126 19:48:55.368880 20584 net.cpp:454] inception_5b/3x3 <- inception_5b/3x3_reduce
I1126 19:48:55.368887 20584 net.cpp:411] inception_5b/3x3 -> inception_5b/3x3
I1126 19:48:55.375396 20584 net.cpp:150] Setting up inception_5b/3x3
I1126 19:48:55.375411 20584 net.cpp:157] Top shape: 64 384 7 7 (1204224)
I1126 19:48:55.375416 20584 net.cpp:165] Memory required for data: 3568525584
I1126 19:48:55.375422 20584 layer_factory.hpp:76] Creating layer inception_5b/relu_3x3
I1126 19:48:55.375429 20584 net.cpp:106] Creating Layer inception_5b/relu_3x3
I1126 19:48:55.375434 20584 net.cpp:454] inception_5b/relu_3x3 <- inception_5b/3x3
I1126 19:48:55.375439 20584 net.cpp:397] inception_5b/relu_3x3 -> inception_5b/3x3 (in-place)
I1126 19:48:55.375823 20584 net.cpp:150] Setting up inception_5b/relu_3x3
I1126 19:48:55.375838 20584 net.cpp:157] Top shape: 64 384 7 7 (1204224)
I1126 19:48:55.375841 20584 net.cpp:165] Memory required for data: 3573342480
I1126 19:48:55.375845 20584 layer_factory.hpp:76] Creating layer inception_5b/5x5_reduce
I1126 19:48:55.375855 20584 net.cpp:106] Creating Layer inception_5b/5x5_reduce
I1126 19:48:55.375859 20584 net.cpp:454] inception_5b/5x5_reduce <- inception_5a/output_inception_5a/output_0_split_2
I1126 19:48:55.375867 20584 net.cpp:411] inception_5b/5x5_reduce -> inception_5b/5x5_reduce
I1126 19:48:55.377923 20584 net.cpp:150] Setting up inception_5b/5x5_reduce
I1126 19:48:55.377939 20584 net.cpp:157] Top shape: 64 48 7 7 (150528)
I1126 19:48:55.377943 20584 net.cpp:165] Memory required for data: 3573944592
I1126 19:48:55.377949 20584 layer_factory.hpp:76] Creating layer inception_5b/relu_5x5_reduce
I1126 19:48:55.377959 20584 net.cpp:106] Creating Layer inception_5b/relu_5x5_reduce
I1126 19:48:55.377964 20584 net.cpp:454] inception_5b/relu_5x5_reduce <- inception_5b/5x5_reduce
I1126 19:48:55.377969 20584 net.cpp:397] inception_5b/relu_5x5_reduce -> inception_5b/5x5_reduce (in-place)
I1126 19:48:55.378351 20584 net.cpp:150] Setting up inception_5b/relu_5x5_reduce
I1126 19:48:55.378366 20584 net.cpp:157] Top shape: 64 48 7 7 (150528)
I1126 19:48:55.378371 20584 net.cpp:165] Memory required for data: 3574546704
I1126 19:48:55.378373 20584 layer_factory.hpp:76] Creating layer inception_5b/5x5
I1126 19:48:55.378383 20584 net.cpp:106] Creating Layer inception_5b/5x5
I1126 19:48:55.378388 20584 net.cpp:454] inception_5b/5x5 <- inception_5b/5x5_reduce
I1126 19:48:55.378396 20584 net.cpp:411] inception_5b/5x5 -> inception_5b/5x5
I1126 19:48:55.380681 20584 net.cpp:150] Setting up inception_5b/5x5
I1126 19:48:55.380697 20584 net.cpp:157] Top shape: 64 128 7 7 (401408)
I1126 19:48:55.380702 20584 net.cpp:165] Memory required for data: 3576152336
I1126 19:48:55.380708 20584 layer_factory.hpp:76] Creating layer inception_5b/relu_5x5
I1126 19:48:55.380717 20584 net.cpp:106] Creating Layer inception_5b/relu_5x5
I1126 19:48:55.380720 20584 net.cpp:454] inception_5b/relu_5x5 <- inception_5b/5x5
I1126 19:48:55.380725 20584 net.cpp:397] inception_5b/relu_5x5 -> inception_5b/5x5 (in-place)
I1126 19:48:55.380940 20584 net.cpp:150] Setting up inception_5b/relu_5x5
I1126 19:48:55.380952 20584 net.cpp:157] Top shape: 64 128 7 7 (401408)
I1126 19:48:55.380955 20584 net.cpp:165] Memory required for data: 3577757968
I1126 19:48:55.380959 20584 layer_factory.hpp:76] Creating layer inception_5b/pool
I1126 19:48:55.380966 20584 net.cpp:106] Creating Layer inception_5b/pool
I1126 19:48:55.380970 20584 net.cpp:454] inception_5b/pool <- inception_5a/output_inception_5a/output_0_split_3
I1126 19:48:55.380977 20584 net.cpp:411] inception_5b/pool -> inception_5b/pool
I1126 19:48:55.381392 20584 net.cpp:150] Setting up inception_5b/pool
I1126 19:48:55.381405 20584 net.cpp:157] Top shape: 64 832 7 7 (2609152)
I1126 19:48:55.381409 20584 net.cpp:165] Memory required for data: 3588194576
I1126 19:48:55.381412 20584 layer_factory.hpp:76] Creating layer inception_5b/pool_proj
I1126 19:48:55.381423 20584 net.cpp:106] Creating Layer inception_5b/pool_proj
I1126 19:48:55.381428 20584 net.cpp:454] inception_5b/pool_proj <- inception_5b/pool
I1126 19:48:55.381434 20584 net.cpp:411] inception_5b/pool_proj -> inception_5b/pool_proj
I1126 19:48:55.383787 20584 net.cpp:150] Setting up inception_5b/pool_proj
I1126 19:48:55.383802 20584 net.cpp:157] Top shape: 64 128 7 7 (401408)
I1126 19:48:55.383805 20584 net.cpp:165] Memory required for data: 3589800208
I1126 19:48:55.383812 20584 layer_factory.hpp:76] Creating layer inception_5b/relu_pool_proj
I1126 19:48:55.383821 20584 net.cpp:106] Creating Layer inception_5b/relu_pool_proj
I1126 19:48:55.383826 20584 net.cpp:454] inception_5b/relu_pool_proj <- inception_5b/pool_proj
I1126 19:48:55.383831 20584 net.cpp:397] inception_5b/relu_pool_proj -> inception_5b/pool_proj (in-place)
I1126 19:48:55.384057 20584 net.cpp:150] Setting up inception_5b/relu_pool_proj
I1126 19:48:55.384071 20584 net.cpp:157] Top shape: 64 128 7 7 (401408)
I1126 19:48:55.384074 20584 net.cpp:165] Memory required for data: 3591405840
I1126 19:48:55.384078 20584 layer_factory.hpp:76] Creating layer inception_5b/output
I1126 19:48:55.384085 20584 net.cpp:106] Creating Layer inception_5b/output
I1126 19:48:55.384089 20584 net.cpp:454] inception_5b/output <- inception_5b/1x1
I1126 19:48:55.384094 20584 net.cpp:454] inception_5b/output <- inception_5b/3x3
I1126 19:48:55.384099 20584 net.cpp:454] inception_5b/output <- inception_5b/5x5
I1126 19:48:55.384102 20584 net.cpp:454] inception_5b/output <- inception_5b/pool_proj
I1126 19:48:55.384107 20584 net.cpp:411] inception_5b/output -> inception_5b/output
I1126 19:48:55.384138 20584 net.cpp:150] Setting up inception_5b/output
I1126 19:48:55.384145 20584 net.cpp:157] Top shape: 64 1024 7 7 (3211264)
I1126 19:48:55.384147 20584 net.cpp:165] Memory required for data: 3604250896
I1126 19:48:55.384150 20584 layer_factory.hpp:76] Creating layer pool5/7x7_s1
I1126 19:48:55.384156 20584 net.cpp:106] Creating Layer pool5/7x7_s1
I1126 19:48:55.384161 20584 net.cpp:454] pool5/7x7_s1 <- inception_5b/output
I1126 19:48:55.384166 20584 net.cpp:411] pool5/7x7_s1 -> pool5/7x7_s1
I1126 19:48:55.384704 20584 net.cpp:150] Setting up pool5/7x7_s1
I1126 19:48:55.384719 20584 net.cpp:157] Top shape: 64 1024 1 1 (65536)
I1126 19:48:55.384722 20584 net.cpp:165] Memory required for data: 3604513040
I1126 19:48:55.384727 20584 layer_factory.hpp:76] Creating layer pool5/drop_7x7_s1
I1126 19:48:55.384737 20584 net.cpp:106] Creating Layer pool5/drop_7x7_s1
I1126 19:48:55.384740 20584 net.cpp:454] pool5/drop_7x7_s1 <- pool5/7x7_s1
I1126 19:48:55.384745 20584 net.cpp:397] pool5/drop_7x7_s1 -> pool5/7x7_s1 (in-place)
I1126 19:48:55.384771 20584 net.cpp:150] Setting up pool5/drop_7x7_s1
I1126 19:48:55.384776 20584 net.cpp:157] Top shape: 64 1024 1 1 (65536)
I1126 19:48:55.384779 20584 net.cpp:165] Memory required for data: 3604775184
I1126 19:48:55.384783 20584 layer_factory.hpp:76] Creating layer loss3/classifier-attribute
I1126 19:48:55.384791 20584 net.cpp:106] Creating Layer loss3/classifier-attribute
I1126 19:48:55.384794 20584 net.cpp:454] loss3/classifier-attribute <- pool5/7x7_s1
I1126 19:48:55.384801 20584 net.cpp:411] loss3/classifier-attribute -> loss3/classifier-attribute
I1126 19:48:55.462306 20584 net.cpp:150] Setting up loss3/classifier-attribute
I1126 19:48:55.462328 20584 net.cpp:157] Top shape: 64 9999 (639936)
I1126 19:48:55.462332 20584 net.cpp:165] Memory required for data: 3607334928
I1126 19:48:55.462342 20584 layer_factory.hpp:76] Creating layer loss3/classifier-attribute_loss3/classifier-attribute_0_split
I1126 19:48:55.462353 20584 net.cpp:106] Creating Layer loss3/classifier-attribute_loss3/classifier-attribute_0_split
I1126 19:48:55.462360 20584 net.cpp:454] loss3/classifier-attribute_loss3/classifier-attribute_0_split <- loss3/classifier-attribute
I1126 19:48:55.462366 20584 net.cpp:411] loss3/classifier-attribute_loss3/classifier-attribute_0_split -> loss3/classifier-attribute_loss3/classifier-attribute_0_split_0
I1126 19:48:55.462375 20584 net.cpp:411] loss3/classifier-attribute_loss3/classifier-attribute_0_split -> loss3/classifier-attribute_loss3/classifier-attribute_0_split_1
I1126 19:48:55.462420 20584 net.cpp:150] Setting up loss3/classifier-attribute_loss3/classifier-attribute_0_split
I1126 19:48:55.462426 20584 net.cpp:157] Top shape: 64 9999 (639936)
I1126 19:48:55.462430 20584 net.cpp:157] Top shape: 64 9999 (639936)
I1126 19:48:55.462434 20584 net.cpp:165] Memory required for data: 3612454416
I1126 19:48:55.462436 20584 layer_factory.hpp:76] Creating layer loss3/loss3
I1126 19:48:55.462442 20584 net.cpp:106] Creating Layer loss3/loss3
I1126 19:48:55.462445 20584 net.cpp:454] loss3/loss3 <- loss3/classifier-attribute_loss3/classifier-attribute_0_split_0
I1126 19:48:55.462451 20584 net.cpp:454] loss3/loss3 <- label_data_1_split_4
…
