…
I1126 12:33:29.748121  9237 net.cpp:322] The NetState phase (0) differed from the phase (1) specified by a rule in layer loss3/top-1
I1126 12:33:29.748927  9237 net.cpp:49] Initializing net from parameters: 
name: "GoogleNet-finetune-for-cigit"
state {
  phase: TRAIN
}
layer {
  name: "data"
  type: "ImageData"
  top: "data"
  top: "label"
  include {
    phase: TRAIN
  }
  transform_param {
    mirror: true
    crop_size: 224
    mean_value: 104
    mean_value: 117
    mean_value: 123
  }
  image_data_param {
    source: "pad_train.txt"
    batch_size: 64
    shuffle: true
    new_height: 256
    new_width: 256
  }
}
layer {
  name: "conv1/7x7_s2"
  type: "Convolution"
  bottom: "data"
  top: "conv1/7x7_s2"
  param {
    lr_mult: 1
    decay_mult: 1
  }
  param {
    lr_mult: 2
    decay_mult: 0
  }
  convolution_param {
    num_output: 64
    pad: 3
    kernel_size: 7
    stride: 2
    weight_filler {
      type: "xavier"
    }
    bias_filler {
      type: "constant"
      value: 0.2
    }
  }
}
layer {
  name: "conv1/relu_7x7"
  type: "ReLU"
  bottom: "conv1/7x7_s2"
  top: "conv1/7x7_s2"
}
layer {
  name: "pool1/3x3_s2"
  type: "Pooling"
  bottom: "conv1/7x7_s2"
  top: "pool1/3x3_s2"
  pooling_param {
    pool: MAX
    kernel_size: 3
    stride: 2
  }
}
layer {
  name: "pool1/norm1"
  type: "LRN"
  bottom: "pool1/3x3_s2"
  top: "pool1/norm1"
  lrn_param {
    local_size: 5
    alpha: 0.0001
    beta: 0.75
  }
}
layer {
  name: "conv2/3x3_reduce"
  type: "Convolution"
  bottom: "pool1/norm1"
  top: "conv2/3x3_reduce"
  param {
    lr_mult: 1
    decay_mult: 1
  }
  param {
    lr_mult: 2
    decay_mult: 0
  }
  convolution_param {
    num_output: 64
    kernel_size: 1
    weight_filler {
      type: "xavier"
    }
    bias_filler {
      type: "constant"
      value: 0.2
    }
  }
}
layer {
  name: "conv2/relu_3x3_reduce"
  type: "ReLU"
  bottom: "conv2/3x3_reduce"
  top: "conv2/3x3_reduce"
}
layer {
  name: "conv2/3x3"
  type: "Convolution"
  bottom: "conv2/3x3_reduce"
  top: "conv2/3x3"
  param {
    lr_mult: 1
    decay_mult: 1
  }
  param {
    lr_mult: 2
    decay_mult: 0
  }
  convolution_param {
    num_output: 192
    pad: 1
    kernel_size: 3
    weight_filler {
      type: "xavier"
    }
    bias_filler {
      type: "constant"
      value: 0.2
    }
  }
}
layer {
  name: "conv2/relu_3x3"
  type: "ReLU"
  bottom: "conv2/3x3"
  top: "conv2/3x3"
}
layer {
  name: "conv2/norm2"
  type: "LRN"
  bottom: "conv2/3x3"
  top: "conv2/norm2"
  lrn_param {
    local_size: 5
    alpha: 0.0001
    beta: 0.75
  }
}
layer {
  name: "pool2/3x3_s2"
  type: "Pooling"
  bottom: "conv2/norm2"
  top: "pool2/3x3_s2"
  pooling_param {
    pool: MAX
    kernel_size: 3
    stride: 2
  }
}
layer {
  name: "inception_3a/1x1"
  type: "Convolution"
  bottom: "pool2/3x3_s2"
  top: "inception_3a/1x1"
  param {
    lr_mult: 1
    decay_mult: 1
  }
  param {
    lr_mult: 2
    decay_mult: 0
  }
  convolution_param {
    num_output: 64
    kernel_size: 1
    weight_filler {
      type: "xavier"
    }
    bias_filler {
      type: "constant"
      value: 0.2
    }
  }
}
layer {
  name: "inception_3a/relu_1x1"
  type: "ReLU"
  bottom: "inception_3a/1x1"
  top: "inception_3a/1x1"
}
layer {
  name: "inception_3a/3x3_reduce"
  type: "Convolution"
  bottom: "pool2/3x3_s2"
  top: "inception_3a/3x3_reduce"
  param {
    lr_mult: 1
    decay_mult: 1
  }
  param {
    lr_mult: 2
    decay_mult: 0
  }
  convolution_param {
    num_output: 96
    kernel_size: 1
    weight_filler {
      type: "xavier"
    }
    bias_filler {
      type: "constant"
      value: 0.2
    }
  }
}
layer {
  name: "inception_3a/relu_3x3_reduce"
  type: "ReLU"
  bottom: "inception_3a/3x3_reduce"
  top: "inception_3a/3x3_reduce"
}
layer {
  name: "inception_3a/3x3"
  type: "Convolution"
  bottom: "inception_3a/3x3_reduce"
  top: "inception_3a/3x3"
  param {
    lr_mult: 1
    decay_mult: 1
  }
  param {
    lr_mult: 2
    decay_mult: 0
  }
  convolution_param {
    num_output: 128
    pad: 1
    kernel_size: 3
    weight_filler {
      type: "xavier"
    }
    bias_filler {
      type: "constant"
      value: 0.2
    }
  }
}
layer {
  name: "inception_3a/relu_3x3"
  type: "ReLU"
  bottom: "inception_3a/3x3"
  top: "inception_3a/3x3"
}
layer {
  name: "inception_3a/5x5_reduce"
  type: "Convolution"
  bottom: "pool2/3x3_s2"
  top: "inception_3a/5x5_reduce"
  param {
    lr_mult: 1
    decay_mult: 1
  }
  param {
    lr_mult: 2
    decay_mult: 0
  }
  convolution_param {
    num_output: 16
    kernel_size: 1
    weight_filler {
      type: "xavier"
    }
    bias_filler {
      type: "constant"
      value: 0.2
    }
  }
}
layer {
  name: "inception_3a/relu_5x5_reduce"
  type: "ReLU"
  bottom: "inception_3a/5x5_reduce"
  top: "inception_3a/5x5_reduce"
}
layer {
  name: "inception_3a/5x5"
  type: "Convolution"
  bottom: "inception_3a/5x5_reduce"
  top: "inception_3a/5x5"
  param {
    lr_mult: 1
    decay_mult: 1
  }
  param {
    lr_mult: 2
    decay_mult: 0
  }
  convolution_param {
    num_output: 32
    pad: 2
    kernel_size: 5
    weight_filler {
      type: "xavier"
    }
    bias_filler {
      type: "constant"
      value: 0.2
    }
  }
}
layer {
  name: "inception_3a/relu_5x5"
  type: "ReLU"
  bottom: "inception_3a/5x5"
  top: "inception_3a/5x5"
}
layer {
  name: "inception_3a/pool"
  type: "Pooling"
  bottom: "pool2/3x3_s2"
  top: "inception_3a/pool"
  pooling_param {
    pool: MAX
    kernel_size: 3
    stride: 1
    pad: 1
  }
}
layer {
  name: "inception_3a/pool_proj"
  type: "Convolution"
  bottom: "inception_3a/pool"
  top: "inception_3a/pool_proj"
  param {
    lr_mult: 1
    decay_mult: 1
  }
  param {
    lr_mult: 2
    decay_mult: 0
  }
  convolution_param {
    num_output: 32
    kernel_size: 1
    weight_filler {
      type: "xavier"
    }
    bias_filler {
      type: "constant"
      value: 0.2
    }
  }
}
layer {
  name: "inception_3a/relu_pool_proj"
  type: "ReLU"
  bottom: "inception_3a/pool_proj"
  top: "inception_3a/pool_proj"
}
layer {
  name: "inception_3a/output"
  type: "Concat"
  bottom: "inception_3a/1x1"
  bottom: "inception_3a/3x3"
  bottom: "inception_3a/5x5"
  bottom: "inception_3a/pool_proj"
  top: "inception_3a/output"
}
layer {
  name: "inception_3b/1x1"
  type: "Convolution"
  bottom: "inception_3a/output"
  top: "inception_3b/1x1"
  param {
    lr_mult: 1
    decay_mult: 1
  }
  param {
    lr_mult: 2
    decay_mult: 0
  }
  convolution_param {
    num_output: 128
    kernel_size: 1
    weight_filler {
      type: "xavier"
    }
    bias_filler {
      type: "constant"
      value: 0.2
    }
  }
}
layer {
  name: "inception_3b/relu_1x1"
  type: "ReLU"
  bottom: "inception_3b/1x1"
  top: "inception_3b/1x1"
}
layer {
  name: "inception_3b/3x3_reduce"
  type: "Convolution"
  bottom: "inception_3a/output"
  top: "inception_3b/3x3_reduce"
  param {
    lr_mult: 1
    decay_mult: 1
  }
  param {
    lr_mult: 2
    decay_mult: 0
  }
  convolution_param {
    num_output: 128
    kernel_size: 1
    weight_filler {
      type: "xavier"
    }
    bias_filler {
      type: "constant"
      value: 0.2
    }
  }
}
layer {
  name: "inception_3b/relu_3x3_reduce"
  type: "ReLU"
  bottom: "inception_3b/3x3_reduce"
  top: "inception_3b/3x3_reduce"
}
layer {
  name: "inception_3b/3x3"
  type: "Convolution"
  bottom: "inception_3b/3x3_reduce"
  top: "inception_3b/3x3"
  param {
    lr_mult: 1
    decay_mult: 1
  }
  param {
    lr_mult: 2
    decay_mult: 0
  }
  convolution_param {
    num_output: 192
    pad: 1
    kernel_size: 3
    weight_filler {
      type: "xavier"
    }
    bias_filler {
      type: "constant"
      value: 0.2
    }
  }
}
layer {
  name: "inception_3b/relu_3x3"
  type: "ReLU"
  bottom: "inception_3b/3x3"
  top: "inception_3b/3x3"
}
layer {
  name: "inception_3b/5x5_reduce"
  type: "Convolution"
  bottom: "inception_3a/output"
  top: "inception_3b/5x5_reduce"
  param {
    lr_mult: 1
    decay_mult: 1
  }
  param {
    lr_mult: 2
    decay_mult: 0
  }
  convolution_param {
    num_output: 32
    kernel_size: 1
    weight_filler {
      type: "xavier"
    }
    bias_filler {
      type: "constant"
      value: 0.2
    }
  }
}
layer {
  name: "inception_3b/relu_5x5_reduce"
  type: "ReLU"
  bottom: "inception_3b/5x5_reduce"
  top: "inception_3b/5x5_reduce"
}
layer {
  name: "inception_3b/5x5"
  type: "Convolution"
  bottom: "inception_3b/5x5_reduce"
  top: "inception_3b/5x5"
  param {
    lr_mult: 1
    decay_mult: 1
  }
  param {
    lr_mult: 2
    decay_mult: 0
  }
  convolution_param {
    num_output: 96
    pad: 2
    kernel_size: 5
    weight_filler {
      type: "xavier"
    }
    bias_filler {
      type: "constant"
      value: 0.2
    }
  }
}
layer {
  name: "inception_3b/relu_5x5"
  type: "ReLU"
  bottom: "inception_3b/5x5"
  top: "inception_3b/5x5"
}
layer {
  name: "inception_3b/pool"
  type: "Pooling"
  bottom: "inception_3a/output"
  top: "inception_3b/pool"
  pooling_param {
    pool: MAX
    kernel_size: 3
    stride: 1
    pad: 1
  }
}
layer {
  name: "inception_3b/pool_proj"
  type: "Convolution"
  bottom: "inception_3b/pool"
  top: "inception_3b/pool_proj"
  param {
    lr_mult: 1
    decay_mult: 1
  }
  param {
    lr_mult: 2
    decay_mult: 0
  }
  convolution_param {
    num_output: 64
    kernel_size: 1
    weight_filler {
      type: "xavier"
    }
    bias_filler {
      type: "constant"
      value: 0.2
    }
  }
}
layer {
  name: "inception_3b/relu_pool_proj"
  type: "ReLU"
  bottom: "inception_3b/pool_proj"
  top: "inception_3b/pool_proj"
}
layer {
  name: "inception_3b/output"
  type: "Concat"
  bottom: "inception_3b/1x1"
  bottom: "inception_3b/3x3"
  bottom: "inception_3b/5x5"
  bottom: "inception_3b/pool_proj"
  top: "inception_3b/output"
}
layer {
  name: "pool3/3x3_s2"
  type: "Pooling"
  bottom: "inception_3b/output"
  top: "pool3/3x3_s2"
  pooling_param {
    pool: MAX
    kernel_size: 3
    stride: 2
  }
}
layer {
  name: "inception_4a/1x1"
  type: "Convolution"
  bottom: "pool3/3x3_s2"
  top: "inception_4a/1x1"
  param {
    lr_mult: 1
    decay_mult: 1
  }
  param {
    lr_mult: 2
    decay_mult: 0
  }
  convolution_param {
    num_output: 192
    kernel_size: 1
    weight_filler {
      type: "xavier"
    }
    bias_filler {
      type: "constant"
      value: 0.2
    }
  }
}
layer {
  name: "inception_4a/relu_1x1"
  type: "ReLU"
  bottom: "inception_4a/1x1"
  top: "inception_4a/1x1"
}
layer {
  name: "inception_4a/3x3_reduce"
  type: "Convolution"
  bottom: "pool3/3x3_s2"
  top: "inception_4a/3x3_reduce"
  param {
    lr_mult: 1
    decay_mult: 1
  }
  param {
    lr_mult: 2
    decay_mult: 0
  }
  convolution_param {
    num_output: 96
    kernel_size: 1
    weight_filler {
      type: "xavier"
    }
    bias_filler {
      type: "constant"
      value: 0.2
    }
  }
}
layer {
  name: "inception_4a/relu_3x3_reduce"
  type: "ReLU"
  bottom: "inception_4a/3x3_reduce"
  top: "inception_4a/3x3_reduce"
}
layer {
  name: "inception_4a/3x3"
  type: "Convolution"
  bottom: "inception_4a/3x3_reduce"
  top: "inception_4a/3x3"
  param {
    lr_mult: 1
    decay_mult: 1
  }
  param {
    lr_mult: 2
    decay_mult: 0
  }
  convolution_param {
    num_output: 208
    pad: 1
    kernel_size: 3
    weight_filler {
      type: "xavier"
    }
    bias_filler {
      type: "constant"
      value: 0.2
    }
  }
}
layer {
  name: "inception_4a/relu_3x3"
  type: "ReLU"
  bottom: "inception_4a/3x3"
  top: "inception_4a/3x3"
}
layer {
  name: "inception_4a/5x5_reduce"
  type: "Convolution"
  bottom: "pool3/3x3_s2"
  top: "inception_4a/5x5_reduce"
  param {
    lr_mult: 1
    decay_mult: 1
  }
  param {
    lr_mult: 2
    decay_mult: 0
  }
  convolution_param {
    num_output: 16
    kernel_size: 1
    weight_filler {
      type: "xavier"
    }
    bias_filler {
      type: "constant"
      value: 0.2
    }
  }
}
layer {
  name: "inception_4a/relu_5x5_reduce"
  type: "ReLU"
  bottom: "inception_4a/5x5_reduce"
  top: "inception_4a/5x5_reduce"
}
layer {
  name: "inception_4a/5x5"
  type: "Convolution"
  bottom: "inception_4a/5x5_reduce"
  top: "inception_4a/5x5"
  param {
    lr_mult: 1
    decay_mult: 1
  }
  param {
    lr_mult: 2
    decay_mult: 0
  }
  convolution_param {
    num_output: 48
    pad: 2
    kernel_size: 5
    weight_filler {
      type: "xavier"
    }
    bias_filler {
      type: "constant"
      value: 0.2
    }
  }
}
layer {
  name: "inception_4a/relu_5x5"
  type: "ReLU"
  bottom: "inception_4a/5x5"
  top: "inception_4a/5x5"
}
layer {
  name: "inception_4a/pool"
  type: "Pooling"
  bottom: "pool3/3x3_s2"
  top: "inception_4a/pool"
  pooling_param {
    pool: MAX
    kernel_size: 3
    stride: 1
    pad: 1
  }
}
layer {
  name: "inception_4a/pool_proj"
  type: "Convolution"
  bottom: "inception_4a/pool"
  top: "inception_4a/pool_proj"
  param {
    lr_mult: 1
    decay_mult: 1
  }
  param {
    lr_mult: 2
    decay_mult: 0
  }
  convolution_param {
    num_output: 64
    kernel_size: 1
    weight_filler {
      type: "xavier"
    }
    bias_filler {
      type: "constant"
      value: 0.2
    }
  }
}
layer {
  name: "inception_4a/relu_pool_proj"
  type: "ReLU"
  bottom: "inception_4a/pool_proj"
  top: "inception_4a/pool_proj"
}
layer {
  name: "inception_4a/output"
  type: "Concat"
  bottom: "inception_4a/1x1"
  bottom: "inception_4a/3x3"
  bottom: "inception_4a/5x5"
  bottom: "inception_4a/pool_proj"
  top: "inception_4a/output"
}
layer {
  name: "loss1/ave_pool"
  type: "Pooling"
  bottom: "inception_4a/output"
  top: "loss1/ave_pool"
  pooling_param {
    pool: AVE
    kernel_size: 5
    stride: 3
  }
}
layer {
  name: "loss1/conv"
  type: "Convolution"
  bottom: "loss1/ave_pool"
  top: "loss1/conv"
  param {
    lr_mult: 1
    decay_mult: 1
  }
  param {
    lr_mult: 2
    decay_mult: 0
  }
  convolution_param {
    num_output: 128
    kernel_size: 1
    weight_filler {
      type: "xavier"
    }
    bias_filler {
      type: "constant"
      value: 0.2
    }
  }
}
layer {
  name: "loss1/relu_conv"
  type: "ReLU"
  bottom: "loss1/conv"
  top: "loss1/conv"
}
layer {
  name: "loss1/fc"
  type: "InnerProduct"
  bottom: "loss1/conv"
  top: "loss1/fc"
  param {
    lr_mult: 1
    decay_mult: 1
  }
  param {
    lr_mult: 2
    decay_mult: 0
  }
  inner_product_param {
    num_output: 1024
    weight_filler {
      type: "xavier"
    }
    bias_filler {
      type: "constant"
      value: 0.2
    }
  }
}
layer {
  name: "loss1/relu_fc"
  type: "ReLU"
  bottom: "loss1/fc"
  top: "loss1/fc"
}
layer {
  name: "loss1/drop_fc"
  type: "Dropout"
  bottom: "loss1/fc"
  top: "loss1/fc"
  dropout_param {
    dropout_ratio: 0.7
  }
}
layer {
  name: "loss1/classifier-attribute"
  type: "InnerProduct"
  bottom: "loss1/fc"
  top: "loss1/classifier-attribute"
  param {
    lr_mult: 10
    decay_mult: 1
  }
  param {
    lr_mult: 20
    decay_mult: 0
  }
  inner_product_param {
    num_output: 9999
    weight_filler {
      type: "xavier"
    }
    bias_filler {
      type: "constant"
      value: 0
    }
  }
}
layer {
  name: "loss1/loss"
  type: "SoftmaxWithLoss"
  bottom: "loss1/classifier-attribute"
  bottom: "label"
  top: "loss1/loss1"
  loss_weight: 0.3
}
layer {
  name: "inception_4b/1x1"
  type: "Convolution"
  bottom: "inception_4a/output"
  top: "inception_4b/1x1"
  param {
    lr_mult: 1
    decay_mult: 1
  }
  param {
    lr_mult: 2
    decay_mult: 0
  }
  convolution_param {
    num_output: 160
    kernel_size: 1
    weight_filler {
      type: "xavier"
    }
    bias_filler {
      type: "constant"
      value: 0.2
    }
  }
}
layer {
  name: "inception_4b/relu_1x1"
  type: "ReLU"
  bottom: "inception_4b/1x1"
  top: "inception_4b/1x1"
}
layer {
  name: "inception_4b/3x3_reduce"
  type: "Convolution"
  bottom: "inception_4a/output"
  top: "inception_4b/3x3_reduce"
  param {
    lr_mult: 1
    decay_mult: 1
  }
  param {
    lr_mult: 2
    decay_mult: 0
  }
  convolution_param {
    num_output: 112
    kernel_size: 1
    weight_filler {
      type: "xavier"
    }
    bias_filler {
      type: "constant"
      value: 0.2
    }
  }
}
layer {
  name: "inception_4b/relu_3x3_reduce"
  type: "ReLU"
  bottom: "inception_4b/3x3_reduce"
  top: "inception_4b/3x3_reduce"
}
layer {
  name: "inception_4b/3x3"
  type: "Convolution"
  bottom: "inception_4b/3x3_reduce"
  top: "inception_4b/3x3"
  param {
    lr_mult: 1
    decay_mult: 1
  }
  param {
    lr_mult: 2
    decay_mult: 0
  }
  convolution_param {
    num_output: 224
    pad: 1
    kernel_size: 3
    weight_filler {
      type: "xavier"
    }
    bias_filler {
      type: "constant"
      value: 0.2
    }
  }
}
layer {
  name: "inception_4b/relu_3x3"
  type: "ReLU"
  bottom: "inception_4b/3x3"
  top: "inception_4b/3x3"
}
layer {
  name: "inception_4b/5x5_reduce"
  type: "Convolution"
  bottom: "inception_4a/output"
  top: "inception_4b/5x5_reduce"
  param {
    lr_mult: 1
    decay_mult: 1
  }
  param {
    lr_mult: 2
    decay_mult: 0
  }
  convolution_param {
    num_output: 24
    kernel_size: 1
    weight_filler {
      type: "xavier"
    }
    bias_filler {
      type: "constant"
      value: 0.2
    }
  }
}
layer {
  name: "inception_4b/relu_5x5_reduce"
  type: "ReLU"
  bottom: "inception_4b/5x5_reduce"
  top: "inception_4b/5x5_reduce"
}
layer {
  name: "inception_4b/5x5"
  type: "Convolution"
  bottom: "inception_4b/5x5_reduce"
  top: "inception_4b/5x5"
  param {
    lr_mult: 1
    decay_mult: 1
  }
  param {
    lr_mult: 2
    decay_mult: 0
  }
  convolution_param {
    num_output: 64
    pad: 2
    kernel_size: 5
    weight_filler {
      type: "xavier"
    }
    bias_filler {
      type: "constant"
      value: 0.2
    }
  }
}
layer {
  name: "inception_4b/relu_5x5"
  type: "ReLU"
  bottom: "inception_4b/5x5"
  top: "inception_4b/5x5"
}
layer {
  name: "inception_4b/pool"
  type: "Pooling"
  bottom: "inception_4a/output"
  top: "inception_4b/pool"
  pooling_param {
    pool: MAX
    kernel_size: 3
    stride: 1
    pad: 1
  }
}
layer {
  name: "inception_4b/pool_proj"
  type: "Convolution"
  bottom: "inception_4b/pool"
  top: "inception_4b/pool_proj"
  param {
    lr_mult: 1
    decay_mult: 1
  }
  param {
    lr_mult: 2
    decay_mult: 0
  }
  convolution_param {
    num_output: 64
    kernel_size: 1
    weight_filler {
      type: "xavier"
    }
    bias_filler {
      type: "constant"
      value: 0.2
    }
  }
}
layer {
  name: "inception_4b/relu_pool_proj"
  type: "ReLU"
  bottom: "inception_4b/pool_proj"
  top: "inception_4b/pool_proj"
}
layer {
  name: "inception_4b/output"
  type: "Concat"
  bottom: "inception_4b/1x1"
  bottom: "inception_4b/3x3"
  bottom: "inception_4b/5x5"
  bottom: "inception_4b/pool_proj"
  top: "inception_4b/output"
}
layer {
  name: "inception_4c/1x1"
  type: "Convolution"
  bottom: "inception_4b/output"
  top: "inception_4c/1x1"
  param {
    lr_mult: 1
    decay_mult: 1
  }
  param {
    lr_mult: 2
    decay_mult: 0
  }
  convolution_param {
    num_output: 128
    kernel_size: 1
    weight_filler {
      type: "xavier"
    }
    bias_filler {
      type: "constant"
      value: 0.2
    }
  }
}
layer {
  name: "inception_4c/relu_1x1"
  type: "ReLU"
  bottom: "inception_4c/1x1"
  top: "inception_4c/1x1"
}
layer {
  name: "inception_4c/3x3_reduce"
  type: "Convolution"
  bottom: "inception_4b/output"
  top: "inception_4c/3x3_reduce"
  param {
    lr_mult: 1
    decay_mult: 1
  }
  param {
    lr_mult: 2
    decay_mult: 0
  }
  convolution_param {
    num_output: 128
    kernel_size: 1
    weight_filler {
      type: "xavier"
    }
    bias_filler {
      type: "constant"
      value: 0.2
    }
  }
}
layer {
  name: "inception_4c/relu_3x3_reduce"
  type: "ReLU"
  bottom: "inception_4c/3x3_reduce"
  top: "inception_4c/3x3_reduce"
}
layer {
  name: "inception_4c/3x3"
  type: "Convolution"
  bottom: "inception_4c/3x3_reduce"
  top: "inception_4c/3x3"
  param {
    lr_mult: 1
    decay_mult: 1
  }
  param {
    lr_mult: 2
    decay_mult: 0
  }
  convolution_param {
    num_output: 256
    pad: 1
    kernel_size: 3
    weight_filler {
      type: "xavier"
    }
    bias_filler {
      type: "constant"
      value: 0.2
    }
  }
}
layer {
  name: "inception_4c/relu_3x3"
  type: "ReLU"
  bottom: "inception_4c/3x3"
  top: "inception_4c/3x3"
}
layer {
  name: "inception_4c/5x5_reduce"
  type: "Convolution"
  bottom: "inception_4b/output"
  top: "inception_4c/5x5_reduce"
  param {
    lr_mult: 1
    decay_mult: 1
  }
  param {
    lr_mult: 2
    decay_mult: 0
  }
  convolution_param {
    num_output: 24
    kernel_size: 1
    weight_filler {
      type: "xavier"
    }
    bias_filler {
      type: "constant"
      value: 0.2
    }
  }
}
layer {
  name: "inception_4c/relu_5x5_reduce"
  type: "ReLU"
  bottom: "inception_4c/5x5_reduce"
  top: "inception_4c/5x5_reduce"
}
layer {
  name: "inception_4c/5x5"
  type: "Convolution"
  bottom: "inception_4c/5x5_reduce"
  top: "inception_4c/5x5"
  param {
    lr_mult: 1
    decay_mult: 1
  }
  param {
    lr_mult: 2
    decay_mult: 0
  }
  convolution_param {
    num_output: 64
    pad: 2
    kernel_size: 5
    weight_filler {
      type: "xavier"
    }
    bias_filler {
      type: "constant"
      value: 0.2
    }
  }
}
layer {
  name: "inception_4c/relu_5x5"
  type: "ReLU"
  bottom: "inception_4c/5x5"
  top: "inception_4c/5x5"
}
layer {
  name: "inception_4c/pool"
  type: "Pooling"
  bottom: "inception_4b/output"
  top: "inception_4c/pool"
  pooling_param {
    pool: MAX
    kernel_size: 3
    stride: 1
    pad: 1
  }
}
layer {
  name: "inception_4c/pool_proj"
  type: "Convolution"
  bottom: "inception_4c/pool"
  top: "inception_4c/pool_proj"
  param {
    lr_mult: 1
    decay_mult: 1
  }
  param {
    lr_mult: 2
    decay_mult: 0
  }
  convolution_param {
    num_output: 64
    kernel_size: 1
    weight_filler {
      type: "xavier"
    }
    bias_filler {
      type: "constant"
      value: 0.2
    }
  }
}
layer {
  name: "inception_4c/relu_pool_proj"
  type: "ReLU"
  bottom: "inception_4c/pool_proj"
  top: "inception_4c/pool_proj"
}
layer {
  name: "inception_4c/output"
  type: "Concat"
  bottom: "inception_4c/1x1"
  bottom: "inception_4c/3x3"
  bottom: "inception_4c/5x5"
  bottom: "inception_4c/pool_proj"
  top: "inception_4c/output"
}
layer {
  name: "inception_4d/1x1"
  type: "Convolution"
  bottom: "inception_4c/output"
  top: "inception_4d/1x1"
  param {
    lr_mult: 1
    decay_mult: 1
  }
  param {
    lr_mult: 2
    decay_mult: 0
  }
  convolution_param {
    num_output: 112
    kernel_size: 1
    weight_filler {
      type: "xavier"
    }
    bias_filler {
      type: "constant"
      value: 0.2
    }
  }
}
layer {
  name: "inception_4d/relu_1x1"
  type: "ReLU"
  bottom: "inception_4d/1x1"
  top: "inception_4d/1x1"
}
layer {
  name: "inception_4d/3x3_reduce"
  type: "Convolution"
  bottom: "inception_4c/output"
  top: "inception_4d/3x3_reduce"
  param {
    lr_mult: 1
    decay_mult: 1
  }
  param {
    lr_mult: 2
    decay_mult: 0
  }
  convolution_param {
    num_output: 144
    kernel_size: 1
    weight_filler {
      type: "xavier"
    }
    bias_filler {
      type: "constant"
      value: 0.2
    }
  }
}
layer {
  name: "inception_4d/relu_3x3_reduce"
  type: "ReLU"
  bottom: "inception_4d/3x3_reduce"
  top: "inception_4d/3x3_reduce"
}
layer {
  name: "inception_4d/3x3"
  type: "Convolution"
  bottom: "inception_4d/3x3_reduce"
  top: "inception_4d/3x3"
  param {
    lr_mult: 1
    decay_mult: 1
  }
  param {
    lr_mult: 2
    decay_mult: 0
  }
  convolution_param {
    num_output: 288
    pad: 1
    kernel_size: 3
    weight_filler {
      type: "xavier"
    }
    bias_filler {
      type: "constant"
      value: 0.2
    }
  }
}
layer {
  name: "inception_4d/relu_3x3"
  type: "ReLU"
  bottom: "inception_4d/3x3"
  top: "inception_4d/3x3"
}
layer {
  name: "inception_4d/5x5_reduce"
  type: "Convolution"
  bottom: "inception_4c/output"
  top: "inception_4d/5x5_reduce"
  param {
    lr_mult: 1
    decay_mult: 1
  }
  param {
    lr_mult: 2
    decay_mult: 0
  }
  convolution_param {
    num_output: 32
    kernel_size: 1
    weight_filler {
      type: "xavier"
    }
    bias_filler {
      type: "constant"
      value: 0.2
    }
  }
}
layer {
  name: "inception_4d/relu_5x5_reduce"
  type: "ReLU"
  bottom: "inception_4d/5x5_reduce"
  top: "inception_4d/5x5_reduce"
}
layer {
  name: "inception_4d/5x5"
  type: "Convolution"
  bottom: "inception_4d/5x5_reduce"
  top: "inception_4d/5x5"
  param {
    lr_mult: 1
    decay_mult: 1
  }
  param {
    lr_mult: 2
    decay_mult: 0
  }
  convolution_param {
    num_output: 64
    pad: 2
    kernel_size: 5
    weight_filler {
      type: "xavier"
    }
    bias_filler {
      type: "constant"
      value: 0.2
    }
  }
}
layer {
  name: "inception_4d/relu_5x5"
  type: "ReLU"
  bottom: "inception_4d/5x5"
  top: "inception_4d/5x5"
}
layer {
  name: "inception_4d/pool"
  type: "Pooling"
  bottom: "inception_4c/output"
  top: "inception_4d/pool"
  pooling_param {
    pool: MAX
    kernel_size: 3
    stride: 1
    pad: 1
  }
}
layer {
  name: "inception_4d/pool_proj"
  type: "Convolution"
  bottom: "inception_4d/pool"
  top: "inception_4d/pool_proj"
  param {
    lr_mult: 1
    decay_mult: 1
  }
  param {
    lr_mult: 2
    decay_mult: 0
  }
  convolution_param {
    num_output: 64
    kernel_size: 1
    weight_filler {
      type: "xavier"
    }
    bias_filler {
      type: "constant"
      value: 0.2
    }
  }
}
layer {
  name: "inception_4d/relu_pool_proj"
  type: "ReLU"
  bottom: "inception_4d/pool_proj"
  top: "inception_4d/pool_proj"
}
layer {
  name: "inception_4d/output"
  type: "Concat"
  bottom: "inception_4d/1x1"
  bottom: "inception_4d/3x3"
  bottom: "inception_4d/5x5"
  bottom: "inception_4d/pool_proj"
  top: "inception_4d/output"
}
layer {
  name: "loss2/ave_pool"
  type: "Pooling"
  bottom: "inception_4d/output"
  top: "loss2/ave_pool"
  pooling_param {
    pool: AVE
    kernel_size: 5
    stride: 3
  }
}
layer {
  name: "loss2/conv"
  type: "Convolution"
  bottom: "loss2/ave_pool"
  top: "loss2/conv"
  param {
    lr_mult: 1
    decay_mult: 1
  }
  param {
    lr_mult: 2
    decay_mult: 0
  }
  convolution_param {
    num_output: 128
    kernel_size: 1
    weight_filler {
      type: "xavier"
    }
    bias_filler {
      type: "constant"
      value: 0.2
    }
  }
}
layer {
  name: "loss2/relu_conv"
  type: "ReLU"
  bottom: "loss2/conv"
  top: "loss2/conv"
}
layer {
  name: "loss2/fc"
  type: "InnerProduct"
  bottom: "loss2/conv"
  top: "loss2/fc"
  param {
    lr_mult: 1
    decay_mult: 1
  }
  param {
    lr_mult: 2
    decay_mult: 0
  }
  inner_product_param {
    num_output: 1024
    weight_filler {
      type: "xavier"
    }
    bias_filler {
      type: "constant"
      value: 0.2
    }
  }
}
layer {
  name: "loss2/relu_fc"
  type: "ReLU"
  bottom: "loss2/fc"
  top: "loss2/fc"
}
layer {
  name: "loss2/drop_fc"
  type: "Dropout"
  bottom: "loss2/fc"
  top: "loss2/fc"
  dropout_param {
    dropout_ratio: 0.7
  }
}
layer {
  name: "loss2/classifier-attribute"
  type: "InnerProduct"
  bottom: "loss2/fc"
  top: "loss2/classifier-attribute"
  param {
    lr_mult: 10
    decay_mult: 1
  }
  param {
    lr_mult: 20
    decay_mult: 0
  }
  inner_product_param {
    num_output: 9999
    weight_filler {
      type: "xavier"
    }
    bias_filler {
      type: "constant"
      value: 0
    }
  }
}
layer {
  name: "loss2/loss"
  type: "SoftmaxWithLoss"
  bottom: "loss2/classifier-attribute"
  bottom: "label"
  top: "loss2/loss1"
  loss_weight: 0.3
}
layer {
  name: "inception_4e/1x1"
  type: "Convolution"
  bottom: "inception_4d/output"
  top: "inception_4e/1x1"
  param {
    lr_mult: 1
    decay_mult: 1
  }
  param {
    lr_mult: 2
    decay_mult: 0
  }
  convolution_param {
    num_output: 256
    kernel_size: 1
    weight_filler {
      type: "xavier"
    }
    bias_filler {
      type: "constant"
      value: 0.2
    }
  }
}
layer {
  name: "inception_4e/relu_1x1"
  type: "ReLU"
  bottom: "inception_4e/1x1"
  top: "inception_4e/1x1"
}
layer {
  name: "inception_4e/3x3_reduce"
  type: "Convolution"
  bottom: "inception_4d/output"
  top: "inception_4e/3x3_reduce"
  param {
    lr_mult: 1
    decay_mult: 1
  }
  param {
    lr_mult: 2
    decay_mult: 0
  }
  convolution_param {
    num_output: 160
    kernel_size: 1
    weight_filler {
      type: "xavier"
    }
    bias_filler {
      type: "constant"
      value: 0.2
    }
  }
}
layer {
  name: "inception_4e/relu_3x3_reduce"
  type: "ReLU"
  bottom: "inception_4e/3x3_reduce"
  top: "inception_4e/3x3_reduce"
}
layer {
  name: "inception_4e/3x3"
  type: "Convolution"
  bottom: "inception_4e/3x3_reduce"
  top: "inception_4e/3x3"
  param {
    lr_mult: 1
    decay_mult: 1
  }
  param {
    lr_mult: 2
    decay_mult: 0
  }
  convolution_param {
    num_output: 320
    pad: 1
    kernel_size: 3
    weight_filler {
      type: "xavier"
    }
    bias_filler {
      type: "constant"
      value: 0.2
    }
  }
}
layer {
  name: "inception_4e/relu_3x3"
  type: "ReLU"
  bottom: "inception_4e/3x3"
  top: "inception_4e/3x3"
}
layer {
  name: "inception_4e/5x5_reduce"
  type: "Convolution"
  bottom: "inception_4d/output"
  top: "inception_4e/5x5_reduce"
  param {
    lr_mult: 1
    decay_mult: 1
  }
  param {
    lr_mult: 2
    decay_mult: 0
  }
  convolution_param {
    num_output: 32
    kernel_size: 1
    weight_filler {
      type: "xavier"
    }
    bias_filler {
      type: "constant"
      value: 0.2
    }
  }
}
layer {
  name: "inception_4e/relu_5x5_reduce"
  type: "ReLU"
  bottom: "inception_4e/5x5_reduce"
  top: "inception_4e/5x5_reduce"
}
layer {
  name: "inception_4e/5x5"
  type: "Convolution"
  bottom: "inception_4e/5x5_reduce"
  top: "inception_4e/5x5"
  param {
    lr_mult: 1
    decay_mult: 1
  }
  param {
    lr_mult: 2
    decay_mult: 0
  }
  convolution_param {
    num_output: 128
    pad: 2
    kernel_size: 5
    weight_filler {
      type: "xavier"
    }
    bias_filler {
      type: "constant"
      value: 0.2
    }
  }
}
layer {
  name: "inception_4e/relu_5x5"
  type: "ReLU"
  bottom: "inception_4e/5x5"
  top: "inception_4e/5x5"
}
layer {
  name: "inception_4e/pool"
  type: "Pooling"
  bottom: "ince
I1126 12:33:29.749788  9237 layer_factory.hpp:76] Creating layer data
I1126 12:33:29.749830  9237 net.cpp:106] Creating Layer data
I1126 12:33:29.749845  9237 net.cpp:411] data -> data
I1126 12:33:29.749877  9237 net.cpp:411] data -> label
I1126 12:33:29.750252  9237 image_data_layer.cpp:36] Opening file pad_train.txt
I1126 12:33:29.937180  9237 image_data_layer.cpp:46] Shuffling data
I1126 12:33:29.964751  9237 image_data_layer.cpp:51] A total of 193988 images.
I1126 12:33:29.983603  9237 image_data_layer.cpp:78] output data size: 64,3,224,224
I1126 12:33:30.035403  9237 net.cpp:150] Setting up data
I1126 12:33:30.035439  9237 net.cpp:157] Top shape: 64 3 224 224 (9633792)
I1126 12:33:30.035445  9237 net.cpp:157] Top shape: 64 (64)
I1126 12:33:30.035449  9237 net.cpp:165] Memory required for data: 38535424
I1126 12:33:30.035456  9237 layer_factory.hpp:76] Creating layer label_data_1_split
I1126 12:33:30.035470  9237 net.cpp:106] Creating Layer label_data_1_split
I1126 12:33:30.035475  9237 net.cpp:454] label_data_1_split <- label
I1126 12:33:30.035486  9237 net.cpp:411] label_data_1_split -> label_data_1_split_0
I1126 12:33:30.035498  9237 net.cpp:411] label_data_1_split -> label_data_1_split_1
I1126 12:33:30.035504  9237 net.cpp:411] label_data_1_split -> label_data_1_split_2
I1126 12:33:30.035573  9237 net.cpp:150] Setting up label_data_1_split
I1126 12:33:30.035581  9237 net.cpp:157] Top shape: 64 (64)
I1126 12:33:30.035589  9237 net.cpp:157] Top shape: 64 (64)
I1126 12:33:30.035596  9237 net.cpp:157] Top shape: 64 (64)
I1126 12:33:30.035601  9237 net.cpp:165] Memory required for data: 38536192
I1126 12:33:30.035608  9237 layer_factory.hpp:76] Creating layer conv1/7x7_s2
I1126 12:33:30.035629  9237 net.cpp:106] Creating Layer conv1/7x7_s2
I1126 12:33:30.035634  9237 net.cpp:454] conv1/7x7_s2 <- data
I1126 12:33:30.035640  9237 net.cpp:411] conv1/7x7_s2 -> conv1/7x7_s2
I1126 12:33:30.211891  9237 net.cpp:150] Setting up conv1/7x7_s2
I1126 12:33:30.211913  9237 net.cpp:157] Top shape: 64 64 112 112 (51380224)
I1126 12:33:30.211917  9237 net.cpp:165] Memory required for data: 244057088
I1126 12:33:30.211937  9237 layer_factory.hpp:76] Creating layer conv1/relu_7x7
I1126 12:33:30.211952  9237 net.cpp:106] Creating Layer conv1/relu_7x7
I1126 12:33:30.211957  9237 net.cpp:454] conv1/relu_7x7 <- conv1/7x7_s2
I1126 12:33:30.211963  9237 net.cpp:397] conv1/relu_7x7 -> conv1/7x7_s2 (in-place)
I1126 12:33:30.212255  9237 net.cpp:150] Setting up conv1/relu_7x7
I1126 12:33:30.212267  9237 net.cpp:157] Top shape: 64 64 112 112 (51380224)
I1126 12:33:30.212270  9237 net.cpp:165] Memory required for data: 449577984
I1126 12:33:30.212275  9237 layer_factory.hpp:76] Creating layer pool1/3x3_s2
I1126 12:33:30.212285  9237 net.cpp:106] Creating Layer pool1/3x3_s2
I1126 12:33:30.212287  9237 net.cpp:454] pool1/3x3_s2 <- conv1/7x7_s2
I1126 12:33:30.212294  9237 net.cpp:411] pool1/3x3_s2 -> pool1/3x3_s2
I1126 12:33:30.212484  9237 net.cpp:150] Setting up pool1/3x3_s2
I1126 12:33:30.212494  9237 net.cpp:157] Top shape: 64 64 56 56 (12845056)
I1126 12:33:30.212497  9237 net.cpp:165] Memory required for data: 500958208
I1126 12:33:30.212501  9237 layer_factory.hpp:76] Creating layer pool1/norm1
I1126 12:33:30.212513  9237 net.cpp:106] Creating Layer pool1/norm1
I1126 12:33:30.212518  9237 net.cpp:454] pool1/norm1 <- pool1/3x3_s2
I1126 12:33:30.212525  9237 net.cpp:411] pool1/norm1 -> pool1/norm1
I1126 12:33:30.212843  9237 net.cpp:150] Setting up pool1/norm1
I1126 12:33:30.212857  9237 net.cpp:157] Top shape: 64 64 56 56 (12845056)
I1126 12:33:30.212860  9237 net.cpp:165] Memory required for data: 552338432
I1126 12:33:30.212863  9237 layer_factory.hpp:76] Creating layer conv2/3x3_reduce
I1126 12:33:30.212877  9237 net.cpp:106] Creating Layer conv2/3x3_reduce
I1126 12:33:30.212879  9237 net.cpp:454] conv2/3x3_reduce <- pool1/norm1
I1126 12:33:30.212885  9237 net.cpp:411] conv2/3x3_reduce -> conv2/3x3_reduce
I1126 12:33:30.214202  9237 net.cpp:150] Setting up conv2/3x3_reduce
I1126 12:33:30.214218  9237 net.cpp:157] Top shape: 64 64 56 56 (12845056)
I1126 12:33:30.214222  9237 net.cpp:165] Memory required for data: 603718656
I1126 12:33:30.214232  9237 layer_factory.hpp:76] Creating layer conv2/relu_3x3_reduce
I1126 12:33:30.214238  9237 net.cpp:106] Creating Layer conv2/relu_3x3_reduce
I1126 12:33:30.214242  9237 net.cpp:454] conv2/relu_3x3_reduce <- conv2/3x3_reduce
I1126 12:33:30.214247  9237 net.cpp:397] conv2/relu_3x3_reduce -> conv2/3x3_reduce (in-place)
I1126 12:33:30.214532  9237 net.cpp:150] Setting up conv2/relu_3x3_reduce
I1126 12:33:30.214545  9237 net.cpp:157] Top shape: 64 64 56 56 (12845056)
I1126 12:33:30.214548  9237 net.cpp:165] Memory required for data: 655098880
I1126 12:33:30.214552  9237 layer_factory.hpp:76] Creating layer conv2/3x3
I1126 12:33:30.214562  9237 net.cpp:106] Creating Layer conv2/3x3
I1126 12:33:30.214566  9237 net.cpp:454] conv2/3x3 <- conv2/3x3_reduce
I1126 12:33:30.214573  9237 net.cpp:411] conv2/3x3 -> conv2/3x3
I1126 12:33:30.216624  9237 net.cpp:150] Setting up conv2/3x3
I1126 12:33:30.216639  9237 net.cpp:157] Top shape: 64 192 56 56 (38535168)
I1126 12:33:30.216642  9237 net.cpp:165] Memory required for data: 809239552
I1126 12:33:30.216652  9237 layer_factory.hpp:76] Creating layer conv2/relu_3x3
I1126 12:33:30.216660  9237 net.cpp:106] Creating Layer conv2/relu_3x3
I1126 12:33:30.216665  9237 net.cpp:454] conv2/relu_3x3 <- conv2/3x3
I1126 12:33:30.216670  9237 net.cpp:397] conv2/relu_3x3 -> conv2/3x3 (in-place)
I1126 12:33:30.216838  9237 net.cpp:150] Setting up conv2/relu_3x3
I1126 12:33:30.216850  9237 net.cpp:157] Top shape: 64 192 56 56 (38535168)
I1126 12:33:30.216852  9237 net.cpp:165] Memory required for data: 963380224
I1126 12:33:30.216856  9237 layer_factory.hpp:76] Creating layer conv2/norm2
I1126 12:33:30.216863  9237 net.cpp:106] Creating Layer conv2/norm2
I1126 12:33:30.216868  9237 net.cpp:454] conv2/norm2 <- conv2/3x3
I1126 12:33:30.216873  9237 net.cpp:411] conv2/norm2 -> conv2/norm2
I1126 12:33:30.217180  9237 net.cpp:150] Setting up conv2/norm2
I1126 12:33:30.217192  9237 net.cpp:157] Top shape: 64 192 56 56 (38535168)
I1126 12:33:30.217195  9237 net.cpp:165] Memory required for data: 1117520896
I1126 12:33:30.217198  9237 layer_factory.hpp:76] Creating layer pool2/3x3_s2
I1126 12:33:30.217206  9237 net.cpp:106] Creating Layer pool2/3x3_s2
I1126 12:33:30.217211  9237 net.cpp:454] pool2/3x3_s2 <- conv2/norm2
I1126 12:33:30.217216  9237 net.cpp:411] pool2/3x3_s2 -> pool2/3x3_s2
I1126 12:33:30.217391  9237 net.cpp:150] Setting up pool2/3x3_s2
I1126 12:33:30.217401  9237 net.cpp:157] Top shape: 64 192 28 28 (9633792)
I1126 12:33:30.217403  9237 net.cpp:165] Memory required for data: 1156056064
I1126 12:33:30.217406  9237 layer_factory.hpp:76] Creating layer pool2/3x3_s2_pool2/3x3_s2_0_split
I1126 12:33:30.217413  9237 net.cpp:106] Creating Layer pool2/3x3_s2_pool2/3x3_s2_0_split
I1126 12:33:30.217417  9237 net.cpp:454] pool2/3x3_s2_pool2/3x3_s2_0_split <- pool2/3x3_s2
I1126 12:33:30.217422  9237 net.cpp:411] pool2/3x3_s2_pool2/3x3_s2_0_split -> pool2/3x3_s2_pool2/3x3_s2_0_split_0
I1126 12:33:30.217428  9237 net.cpp:411] pool2/3x3_s2_pool2/3x3_s2_0_split -> pool2/3x3_s2_pool2/3x3_s2_0_split_1
I1126 12:33:30.217434  9237 net.cpp:411] pool2/3x3_s2_pool2/3x3_s2_0_split -> pool2/3x3_s2_pool2/3x3_s2_0_split_2
I1126 12:33:30.217439  9237 net.cpp:411] pool2/3x3_s2_pool2/3x3_s2_0_split -> pool2/3x3_s2_pool2/3x3_s2_0_split_3
I1126 12:33:30.217490  9237 net.cpp:150] Setting up pool2/3x3_s2_pool2/3x3_s2_0_split
I1126 12:33:30.217496  9237 net.cpp:157] Top shape: 64 192 28 28 (9633792)
I1126 12:33:30.217501  9237 net.cpp:157] Top shape: 64 192 28 28 (9633792)
I1126 12:33:30.217505  9237 net.cpp:157] Top shape: 64 192 28 28 (9633792)
I1126 12:33:30.217509  9237 net.cpp:157] Top shape: 64 192 28 28 (9633792)
I1126 12:33:30.217511  9237 net.cpp:165] Memory required for data: 1310196736
I1126 12:33:30.217514  9237 layer_factory.hpp:76] Creating layer inception_3a/1x1
I1126 12:33:30.217521  9237 net.cpp:106] Creating Layer inception_3a/1x1
I1126 12:33:30.217525  9237 net.cpp:454] inception_3a/1x1 <- pool2/3x3_s2_pool2/3x3_s2_0_split_0
I1126 12:33:30.217531  9237 net.cpp:411] inception_3a/1x1 -> inception_3a/1x1
I1126 12:33:30.218969  9237 net.cpp:150] Setting up inception_3a/1x1
I1126 12:33:30.218986  9237 net.cpp:157] Top shape: 64 64 28 28 (3211264)
I1126 12:33:30.218991  9237 net.cpp:165] Memory required for data: 1323041792
I1126 12:33:30.218997  9237 layer_factory.hpp:76] Creating layer inception_3a/relu_1x1
I1126 12:33:30.219002  9237 net.cpp:106] Creating Layer inception_3a/relu_1x1
I1126 12:33:30.219005  9237 net.cpp:454] inception_3a/relu_1x1 <- inception_3a/1x1
I1126 12:33:30.219012  9237 net.cpp:397] inception_3a/relu_1x1 -> inception_3a/1x1 (in-place)
I1126 12:33:30.219300  9237 net.cpp:150] Setting up inception_3a/relu_1x1
I1126 12:33:30.219311  9237 net.cpp:157] Top shape: 64 64 28 28 (3211264)
I1126 12:33:30.219315  9237 net.cpp:165] Memory required for data: 1335886848
I1126 12:33:30.219318  9237 layer_factory.hpp:76] Creating layer inception_3a/3x3_reduce
I1126 12:33:30.219326  9237 net.cpp:106] Creating Layer inception_3a/3x3_reduce
I1126 12:33:30.219331  9237 net.cpp:454] inception_3a/3x3_reduce <- pool2/3x3_s2_pool2/3x3_s2_0_split_1
I1126 12:33:30.219337  9237 net.cpp:411] inception_3a/3x3_reduce -> inception_3a/3x3_reduce
I1126 12:33:30.220823  9237 net.cpp:150] Setting up inception_3a/3x3_reduce
I1126 12:33:30.220836  9237 net.cpp:157] Top shape: 64 96 28 28 (4816896)
I1126 12:33:30.220839  9237 net.cpp:165] Memory required for data: 1355154432
I1126 12:33:30.220849  9237 layer_factory.hpp:76] Creating layer inception_3a/relu_3x3_reduce
I1126 12:33:30.220857  9237 net.cpp:106] Creating Layer inception_3a/relu_3x3_reduce
I1126 12:33:30.220861  9237 net.cpp:454] inception_3a/relu_3x3_reduce <- inception_3a/3x3_reduce
I1126 12:33:30.220866  9237 net.cpp:397] inception_3a/relu_3x3_reduce -> inception_3a/3x3_reduce (in-place)
I1126 12:33:30.221024  9237 net.cpp:150] Setting up inception_3a/relu_3x3_reduce
I1126 12:33:30.221035  9237 net.cpp:157] Top shape: 64 96 28 28 (4816896)
I1126 12:33:30.221037  9237 net.cpp:165] Memory required for data: 1374422016
I1126 12:33:30.221040  9237 layer_factory.hpp:76] Creating layer inception_3a/3x3
I1126 12:33:30.221051  9237 net.cpp:106] Creating Layer inception_3a/3x3
I1126 12:33:30.221055  9237 net.cpp:454] inception_3a/3x3 <- inception_3a/3x3_reduce
I1126 12:33:30.221061  9237 net.cpp:411] inception_3a/3x3 -> inception_3a/3x3
I1126 12:33:30.222827  9237 net.cpp:150] Setting up inception_3a/3x3
I1126 12:33:30.222841  9237 net.cpp:157] Top shape: 64 128 28 28 (6422528)
I1126 12:33:30.222844  9237 net.cpp:165] Memory required for data: 1400112128
I1126 12:33:30.222851  9237 layer_factory.hpp:76] Creating layer inception_3a/relu_3x3
I1126 12:33:30.222857  9237 net.cpp:106] Creating Layer inception_3a/relu_3x3
I1126 12:33:30.222861  9237 net.cpp:454] inception_3a/relu_3x3 <- inception_3a/3x3
I1126 12:33:30.222867  9237 net.cpp:397] inception_3a/relu_3x3 -> inception_3a/3x3 (in-place)
I1126 12:33:30.223036  9237 net.cpp:150] Setting up inception_3a/relu_3x3
I1126 12:33:30.223047  9237 net.cpp:157] Top shape: 64 128 28 28 (6422528)
I1126 12:33:30.223049  9237 net.cpp:165] Memory required for data: 1425802240
I1126 12:33:30.223052  9237 layer_factory.hpp:76] Creating layer inception_3a/5x5_reduce
I1126 12:33:30.223060  9237 net.cpp:106] Creating Layer inception_3a/5x5_reduce
I1126 12:33:30.223065  9237 net.cpp:454] inception_3a/5x5_reduce <- pool2/3x3_s2_pool2/3x3_s2_0_split_2
I1126 12:33:30.223073  9237 net.cpp:411] inception_3a/5x5_reduce -> inception_3a/5x5_reduce
I1126 12:33:30.224032  9237 net.cpp:150] Setting up inception_3a/5x5_reduce
I1126 12:33:30.224045  9237 net.cpp:157] Top shape: 64 16 28 28 (802816)
I1126 12:33:30.224050  9237 net.cpp:165] Memory required for data: 1429013504
I1126 12:33:30.224056  9237 layer_factory.hpp:76] Creating layer inception_3a/relu_5x5_reduce
I1126 12:33:30.224061  9237 net.cpp:106] Creating Layer inception_3a/relu_5x5_reduce
I1126 12:33:30.224066  9237 net.cpp:454] inception_3a/relu_5x5_reduce <- inception_3a/5x5_reduce
I1126 12:33:30.224071  9237 net.cpp:397] inception_3a/relu_5x5_reduce -> inception_3a/5x5_reduce (in-place)
I1126 12:33:30.224357  9237 net.cpp:150] Setting up inception_3a/relu_5x5_reduce
I1126 12:33:30.224370  9237 net.cpp:157] Top shape: 64 16 28 28 (802816)
I1126 12:33:30.224375  9237 net.cpp:165] Memory required for data: 1432224768
I1126 12:33:30.224377  9237 layer_factory.hpp:76] Creating layer inception_3a/5x5
I1126 12:33:30.224390  9237 net.cpp:106] Creating Layer inception_3a/5x5
I1126 12:33:30.224393  9237 net.cpp:454] inception_3a/5x5 <- inception_3a/5x5_reduce
I1126 12:33:30.224400  9237 net.cpp:411] inception_3a/5x5 -> inception_3a/5x5
I1126 12:33:30.225406  9237 net.cpp:150] Setting up inception_3a/5x5
I1126 12:33:30.225419  9237 net.cpp:157] Top shape: 64 32 28 28 (1605632)
I1126 12:33:30.225422  9237 net.cpp:165] Memory required for data: 1438647296
I1126 12:33:30.225428  9237 layer_factory.hpp:76] Creating layer inception_3a/relu_5x5
I1126 12:33:30.225435  9237 net.cpp:106] Creating Layer inception_3a/relu_5x5
I1126 12:33:30.225440  9237 net.cpp:454] inception_3a/relu_5x5 <- inception_3a/5x5
I1126 12:33:30.225445  9237 net.cpp:397] inception_3a/relu_5x5 -> inception_3a/5x5 (in-place)
I1126 12:33:30.225603  9237 net.cpp:150] Setting up inception_3a/relu_5x5
I1126 12:33:30.225612  9237 net.cpp:157] Top shape: 64 32 28 28 (1605632)
I1126 12:33:30.225615  9237 net.cpp:165] Memory required for data: 1445069824
I1126 12:33:30.225618  9237 layer_factory.hpp:76] Creating layer inception_3a/pool
I1126 12:33:30.225625  9237 net.cpp:106] Creating Layer inception_3a/pool
I1126 12:33:30.225627  9237 net.cpp:454] inception_3a/pool <- pool2/3x3_s2_pool2/3x3_s2_0_split_3
I1126 12:33:30.225638  9237 net.cpp:411] inception_3a/pool -> inception_3a/pool
I1126 12:33:30.225953  9237 net.cpp:150] Setting up inception_3a/pool
I1126 12:33:30.225965  9237 net.cpp:157] Top shape: 64 192 28 28 (9633792)
I1126 12:33:30.225968  9237 net.cpp:165] Memory required for data: 1483604992
I1126 12:33:30.225971  9237 layer_factory.hpp:76] Creating layer inception_3a/pool_proj
I1126 12:33:30.225980  9237 net.cpp:106] Creating Layer inception_3a/pool_proj
I1126 12:33:30.225985  9237 net.cpp:454] inception_3a/pool_proj <- inception_3a/pool
I1126 12:33:30.225991  9237 net.cpp:411] inception_3a/pool_proj -> inception_3a/pool_proj
I1126 12:33:30.226846  9237 net.cpp:150] Setting up inception_3a/pool_proj
I1126 12:33:30.226860  9237 net.cpp:157] Top shape: 64 32 28 28 (1605632)
I1126 12:33:30.226863  9237 net.cpp:165] Memory required for data: 1490027520
I1126 12:33:30.226877  9237 layer_factory.hpp:76] Creating layer inception_3a/relu_pool_proj
I1126 12:33:30.226886  9237 net.cpp:106] Creating Layer inception_3a/relu_pool_proj
I1126 12:33:30.226891  9237 net.cpp:454] inception_3a/relu_pool_proj <- inception_3a/pool_proj
I1126 12:33:30.226896  9237 net.cpp:397] inception_3a/relu_pool_proj -> inception_3a/pool_proj (in-place)
I1126 12:33:30.227185  9237 net.cpp:150] Setting up inception_3a/relu_pool_proj
I1126 12:33:30.227197  9237 net.cpp:157] Top shape: 64 32 28 28 (1605632)
I1126 12:33:30.227200  9237 net.cpp:165] Memory required for data: 1496450048
I1126 12:33:30.227205  9237 layer_factory.hpp:76] Creating layer inception_3a/output
I1126 12:33:30.227216  9237 net.cpp:106] Creating Layer inception_3a/output
I1126 12:33:30.227219  9237 net.cpp:454] inception_3a/output <- inception_3a/1x1
I1126 12:33:30.227224  9237 net.cpp:454] inception_3a/output <- inception_3a/3x3
I1126 12:33:30.227228  9237 net.cpp:454] inception_3a/output <- inception_3a/5x5
I1126 12:33:30.227231  9237 net.cpp:454] inception_3a/output <- inception_3a/pool_proj
I1126 12:33:30.227237  9237 net.cpp:411] inception_3a/output -> inception_3a/output
I1126 12:33:30.227267  9237 net.cpp:150] Setting up inception_3a/output
I1126 12:33:30.227273  9237 net.cpp:157] Top shape: 64 256 28 28 (12845056)
I1126 12:33:30.227277  9237 net.cpp:165] Memory required for data: 1547830272
I1126 12:33:30.227279  9237 layer_factory.hpp:76] Creating layer inception_3a/output_inception_3a/output_0_split
I1126 12:33:30.227286  9237 net.cpp:106] Creating Layer inception_3a/output_inception_3a/output_0_split
I1126 12:33:30.227289  9237 net.cpp:454] inception_3a/output_inception_3a/output_0_split <- inception_3a/output
I1126 12:33:30.227294  9237 net.cpp:411] inception_3a/output_inception_3a/output_0_split -> inception_3a/output_inception_3a/output_0_split_0
I1126 12:33:30.227300  9237 net.cpp:411] inception_3a/output_inception_3a/output_0_split -> inception_3a/output_inception_3a/output_0_split_1
I1126 12:33:30.227306  9237 net.cpp:411] inception_3a/output_inception_3a/output_0_split -> inception_3a/output_inception_3a/output_0_split_2
I1126 12:33:30.227313  9237 net.cpp:411] inception_3a/output_inception_3a/output_0_split -> inception_3a/output_inception_3a/output_0_split_3
I1126 12:33:30.227366  9237 net.cpp:150] Setting up inception_3a/output_inception_3a/output_0_split
I1126 12:33:30.227373  9237 net.cpp:157] Top shape: 64 256 28 28 (12845056)
I1126 12:33:30.227376  9237 net.cpp:157] Top shape: 64 256 28 28 (12845056)
I1126 12:33:30.227380  9237 net.cpp:157] Top shape: 64 256 28 28 (12845056)
I1126 12:33:30.227383  9237 net.cpp:157] Top shape: 64 256 28 28 (12845056)
I1126 12:33:30.227386  9237 net.cpp:165] Memory required for data: 1753351168
I1126 12:33:30.227390  9237 layer_factory.hpp:76] Creating layer inception_3b/1x1
I1126 12:33:30.227397  9237 net.cpp:106] Creating Layer inception_3b/1x1
I1126 12:33:30.227401  9237 net.cpp:454] inception_3b/1x1 <- inception_3a/output_inception_3a/output_0_split_0
I1126 12:33:30.227408  9237 net.cpp:411] inception_3b/1x1 -> inception_3b/1x1
I1126 12:33:30.228565  9237 net.cpp:150] Setting up inception_3b/1x1
I1126 12:33:30.228580  9237 net.cpp:157] Top shape: 64 128 28 28 (6422528)
I1126 12:33:30.228585  9237 net.cpp:165] Memory required for data: 1779041280
I1126 12:33:30.228590  9237 layer_factory.hpp:76] Creating layer inception_3b/relu_1x1
I1126 12:33:30.228595  9237 net.cpp:106] Creating Layer inception_3b/relu_1x1
I1126 12:33:30.228600  9237 net.cpp:454] inception_3b/relu_1x1 <- inception_3b/1x1
I1126 12:33:30.228605  9237 net.cpp:397] inception_3b/relu_1x1 -> inception_3b/1x1 (in-place)
I1126 12:33:30.228766  9237 net.cpp:150] Setting up inception_3b/relu_1x1
I1126 12:33:30.228775  9237 net.cpp:157] Top shape: 64 128 28 28 (6422528)
I1126 12:33:30.228780  9237 net.cpp:165] Memory required for data: 1804731392
I1126 12:33:30.228783  9237 layer_factory.hpp:76] Creating layer inception_3b/3x3_reduce
I1126 12:33:30.228793  9237 net.cpp:106] Creating Layer inception_3b/3x3_reduce
I1126 12:33:30.228796  9237 net.cpp:454] inception_3b/3x3_reduce <- inception_3a/output_inception_3a/output_0_split_1
I1126 12:33:30.228803  9237 net.cpp:411] inception_3b/3x3_reduce -> inception_3b/3x3_reduce
I1126 12:33:30.230032  9237 net.cpp:150] Setting up inception_3b/3x3_reduce
I1126 12:33:30.230047  9237 net.cpp:157] Top shape: 64 128 28 28 (6422528)
I1126 12:33:30.230051  9237 net.cpp:165] Memory required for data: 1830421504
I1126 12:33:30.230057  9237 layer_factory.hpp:76] Creating layer inception_3b/relu_3x3_reduce
I1126 12:33:30.230063  9237 net.cpp:106] Creating Layer inception_3b/relu_3x3_reduce
I1126 12:33:30.230067  9237 net.cpp:454] inception_3b/relu_3x3_reduce <- inception_3b/3x3_reduce
I1126 12:33:30.230073  9237 net.cpp:397] inception_3b/relu_3x3_reduce -> inception_3b/3x3_reduce (in-place)
I1126 12:33:30.230372  9237 net.cpp:150] Setting up inception_3b/relu_3x3_reduce
I1126 12:33:30.230386  9237 net.cpp:157] Top shape: 64 128 28 28 (6422528)
I1126 12:33:30.230389  9237 net.cpp:165] Memory required for data: 1856111616
I1126 12:33:30.230392  9237 layer_factory.hpp:76] Creating layer inception_3b/3x3
I1126 12:33:30.230406  9237 net.cpp:106] Creating Layer inception_3b/3x3
I1126 12:33:30.230412  9237 net.cpp:454] inception_3b/3x3 <- inception_3b/3x3_reduce
I1126 12:33:30.230418  9237 net.cpp:411] inception_3b/3x3 -> inception_3b/3x3
I1126 12:33:30.233106  9237 net.cpp:150] Setting up inception_3b/3x3
I1126 12:33:30.233124  9237 net.cpp:157] Top shape: 64 192 28 28 (9633792)
I1126 12:33:30.233129  9237 net.cpp:165] Memory required for data: 1894646784
I1126 12:33:30.233134  9237 layer_factory.hpp:76] Creating layer inception_3b/relu_3x3
I1126 12:33:30.233141  9237 net.cpp:106] Creating Layer inception_3b/relu_3x3
I1126 12:33:30.233146  9237 net.cpp:454] inception_3b/relu_3x3 <- inception_3b/3x3
I1126 12:33:30.233151  9237 net.cpp:397] inception_3b/relu_3x3 -> inception_3b/3x3 (in-place)
I1126 12:33:30.233583  9237 net.cpp:150] Setting up inception_3b/relu_3x3
I1126 12:33:30.233597  9237 net.cpp:157] Top shape: 64 192 28 28 (9633792)
I1126 12:33:30.233599  9237 net.cpp:165] Memory required for data: 1933181952
I1126 12:33:30.233603  9237 layer_factory.hpp:76] Creating layer inception_3b/5x5_reduce
I1126 12:33:30.233614  9237 net.cpp:106] Creating Layer inception_3b/5x5_reduce
I1126 12:33:30.233619  9237 net.cpp:454] inception_3b/5x5_reduce <- inception_3a/output_inception_3a/output_0_split_2
I1126 12:33:30.233628  9237 net.cpp:411] inception_3b/5x5_reduce -> inception_3b/5x5_reduce
I1126 12:33:30.234676  9237 net.cpp:150] Setting up inception_3b/5x5_reduce
I1126 12:33:30.234690  9237 net.cpp:157] Top shape: 64 32 28 28 (1605632)
I1126 12:33:30.234694  9237 net.cpp:165] Memory required for data: 1939604480
I1126 12:33:30.234701  9237 layer_factory.hpp:76] Creating layer inception_3b/relu_5x5_reduce
I1126 12:33:30.234707  9237 net.cpp:106] Creating Layer inception_3b/relu_5x5_reduce
I1126 12:33:30.234711  9237 net.cpp:454] inception_3b/relu_5x5_reduce <- inception_3b/5x5_reduce
I1126 12:33:30.234716  9237 net.cpp:397] inception_3b/relu_5x5_reduce -> inception_3b/5x5_reduce (in-place)
I1126 12:33:30.234884  9237 net.cpp:150] Setting up inception_3b/relu_5x5_reduce
I1126 12:33:30.234894  9237 net.cpp:157] Top shape: 64 32 28 28 (1605632)
I1126 12:33:30.234897  9237 net.cpp:165] Memory required for data: 1946027008
I1126 12:33:30.234900  9237 layer_factory.hpp:76] Creating layer inception_3b/5x5
I1126 12:33:30.234908  9237 net.cpp:106] Creating Layer inception_3b/5x5
I1126 12:33:30.234912  9237 net.cpp:454] inception_3b/5x5 <- inception_3b/5x5_reduce
I1126 12:33:30.234920  9237 net.cpp:411] inception_3b/5x5 -> inception_3b/5x5
I1126 12:33:30.236809  9237 net.cpp:150] Setting up inception_3b/5x5
I1126 12:33:30.236824  9237 net.cpp:157] Top shape: 64 96 28 28 (4816896)
I1126 12:33:30.236827  9237 net.cpp:165] Memory required for data: 1965294592
I1126 12:33:30.236834  9237 layer_factory.hpp:76] Creating layer inception_3b/relu_5x5
I1126 12:33:30.236840  9237 net.cpp:106] Creating Layer inception_3b/relu_5x5
I1126 12:33:30.236842  9237 net.cpp:454] inception_3b/relu_5x5 <- inception_3b/5x5
I1126 12:33:30.236850  9237 net.cpp:397] inception_3b/relu_5x5 -> inception_3b/5x5 (in-place)
I1126 12:33:30.237138  9237 net.cpp:150] Setting up inception_3b/relu_5x5
I1126 12:33:30.237150  9237 net.cpp:157] Top shape: 64 96 28 28 (4816896)
I1126 12:33:30.237154  9237 net.cpp:165] Memory required for data: 1984562176
I1126 12:33:30.237157  9237 layer_factory.hpp:76] Creating layer inception_3b/pool
I1126 12:33:30.237164  9237 net.cpp:106] Creating Layer inception_3b/pool
I1126 12:33:30.237169  9237 net.cpp:454] inception_3b/pool <- inception_3a/output_inception_3a/output_0_split_3
I1126 12:33:30.237174  9237 net.cpp:411] inception_3b/pool -> inception_3b/pool
I1126 12:33:30.237360  9237 net.cpp:150] Setting up inception_3b/pool
I1126 12:33:30.237370  9237 net.cpp:157] Top shape: 64 256 28 28 (12845056)
I1126 12:33:30.237373  9237 net.cpp:165] Memory required for data: 2035942400
I1126 12:33:30.237377  9237 layer_factory.hpp:76] Creating layer inception_3b/pool_proj
I1126 12:33:30.237406  9237 net.cpp:106] Creating Layer inception_3b/pool_proj
I1126 12:33:30.237412  9237 net.cpp:454] inception_3b/pool_proj <- inception_3b/pool
I1126 12:33:30.237419  9237 net.cpp:411] inception_3b/pool_proj -> inception_3b/pool_proj
I1126 12:33:30.238478  9237 net.cpp:150] Setting up inception_3b/pool_proj
I1126 12:33:30.238492  9237 net.cpp:157] Top shape: 64 64 28 28 (3211264)
I1126 12:33:30.238495  9237 net.cpp:165] Memory required for data: 2048787456
I1126 12:33:30.238502  9237 layer_factory.hpp:76] Creating layer inception_3b/relu_pool_proj
I1126 12:33:30.238507  9237 net.cpp:106] Creating Layer inception_3b/relu_pool_proj
I1126 12:33:30.238510  9237 net.cpp:454] inception_3b/relu_pool_proj <- inception_3b/pool_proj
I1126 12:33:30.238515  9237 net.cpp:397] inception_3b/relu_pool_proj -> inception_3b/pool_proj (in-place)
I1126 12:33:30.238680  9237 net.cpp:150] Setting up inception_3b/relu_pool_proj
I1126 12:33:30.238690  9237 net.cpp:157] Top shape: 64 64 28 28 (3211264)
I1126 12:33:30.238693  9237 net.cpp:165] Memory required for data: 2061632512
I1126 12:33:30.238697  9237 layer_factory.hpp:76] Creating layer inception_3b/output
I1126 12:33:30.238703  9237 net.cpp:106] Creating Layer inception_3b/output
I1126 12:33:30.238708  9237 net.cpp:454] inception_3b/output <- inception_3b/1x1
I1126 12:33:30.238711  9237 net.cpp:454] inception_3b/output <- inception_3b/3x3
I1126 12:33:30.238715  9237 net.cpp:454] inception_3b/output <- inception_3b/5x5
I1126 12:33:30.238718  9237 net.cpp:454] inception_3b/output <- inception_3b/pool_proj
I1126 12:33:30.238723  9237 net.cpp:411] inception_3b/output -> inception_3b/output
I1126 12:33:30.238751  9237 net.cpp:150] Setting up inception_3b/output
I1126 12:33:30.238757  9237 net.cpp:157] Top shape: 64 480 28 28 (24084480)
I1126 12:33:30.238760  9237 net.cpp:165] Memory required for data: 2157970432
I1126 12:33:30.238764  9237 layer_factory.hpp:76] Creating layer pool3/3x3_s2
I1126 12:33:30.238768  9237 net.cpp:106] Creating Layer pool3/3x3_s2
I1126 12:33:30.238771  9237 net.cpp:454] pool3/3x3_s2 <- inception_3b/output
I1126 12:33:30.238777  9237 net.cpp:411] pool3/3x3_s2 -> pool3/3x3_s2
I1126 12:33:30.239094  9237 net.cpp:150] Setting up pool3/3x3_s2
I1126 12:33:30.239105  9237 net.cpp:157] Top shape: 64 480 14 14 (6021120)
I1126 12:33:30.239109  9237 net.cpp:165] Memory required for data: 2182054912
I1126 12:33:30.239112  9237 layer_factory.hpp:76] Creating layer pool3/3x3_s2_pool3/3x3_s2_0_split
I1126 12:33:30.239119  9237 net.cpp:106] Creating Layer pool3/3x3_s2_pool3/3x3_s2_0_split
I1126 12:33:30.239123  9237 net.cpp:454] pool3/3x3_s2_pool3/3x3_s2_0_split <- pool3/3x3_s2
I1126 12:33:30.239128  9237 net.cpp:411] pool3/3x3_s2_pool3/3x3_s2_0_split -> pool3/3x3_s2_pool3/3x3_s2_0_split_0
I1126 12:33:30.239135  9237 net.cpp:411] pool3/3x3_s2_pool3/3x3_s2_0_split -> pool3/3x3_s2_pool3/3x3_s2_0_split_1
I1126 12:33:30.239140  9237 net.cpp:411] pool3/3x3_s2_pool3/3x3_s2_0_split -> pool3/3x3_s2_pool3/3x3_s2_0_split_2
I1126 12:33:30.239145  9237 net.cpp:411] pool3/3x3_s2_pool3/3x3_s2_0_split -> pool3/3x3_s2_pool3/3x3_s2_0_split_3
I1126 12:33:30.239203  9237 net.cpp:150] Setting up pool3/3x3_s2_pool3/3x3_s2_0_split
I1126 12:33:30.239210  9237 net.cpp:157] Top shape: 64 480 14 14 (6021120)
I1126 12:33:30.239214  9237 net.cpp:157] Top shape: 64 480 14 14 (6021120)
I1126 12:33:30.239218  9237 net.cpp:157] Top shape: 64 480 14 14 (6021120)
I1126 12:33:30.239222  9237 net.cpp:157] Top shape: 64 480 14 14 (6021120)
I1126 12:33:30.239224  9237 net.cpp:165] Memory required for data: 2278392832
I1126 12:33:30.239228  9237 layer_factory.hpp:76] Creating layer inception_4a/1x1
I1126 12:33:30.239235  9237 net.cpp:106] Creating Layer inception_4a/1x1
I1126 12:33:30.239238  9237 net.cpp:454] inception_4a/1x1 <- pool3/3x3_s2_pool3/3x3_s2_0_split_0
I1126 12:33:30.239244  9237 net.cpp:411] inception_4a/1x1 -> inception_4a/1x1
I1126 12:33:30.240892  9237 net.cpp:150] Setting up inception_4a/1x1
I1126 12:33:30.240907  9237 net.cpp:157] Top shape: 64 192 14 14 (2408448)
I1126 12:33:30.240911  9237 net.cpp:165] Memory required for data: 2288026624
I1126 12:33:30.240918  9237 layer_factory.hpp:76] Creating layer inception_4a/relu_1x1
I1126 12:33:30.240923  9237 net.cpp:106] Creating Layer inception_4a/relu_1x1
I1126 12:33:30.240927  9237 net.cpp:454] inception_4a/relu_1x1 <- inception_4a/1x1
I1126 12:33:30.240932  9237 net.cpp:397] inception_4a/relu_1x1 -> inception_4a/1x1 (in-place)
I1126 12:33:30.241094  9237 net.cpp:150] Setting up inception_4a/relu_1x1
I1126 12:33:30.241104  9237 net.cpp:157] Top shape: 64 192 14 14 (2408448)
I1126 12:33:30.241107  9237 net.cpp:165] Memory required for data: 2297660416
I1126 12:33:30.241111  9237 layer_factory.hpp:76] Creating layer inception_4a/3x3_reduce
I1126 12:33:30.241118  9237 net.cpp:106] Creating Layer inception_4a/3x3_reduce
I1126 12:33:30.241122  9237 net.cpp:454] inception_4a/3x3_reduce <- pool3/3x3_s2_pool3/3x3_s2_0_split_1
I1126 12:33:30.241129  9237 net.cpp:411] inception_4a/3x3_reduce -> inception_4a/3x3_reduce
I1126 12:33:30.242390  9237 net.cpp:150] Setting up inception_4a/3x3_reduce
I1126 12:33:30.242403  9237 net.cpp:157] Top shape: 64 96 14 14 (1204224)
I1126 12:33:30.242408  9237 net.cpp:165] Memory required for data: 2302477312
I1126 12:33:30.242419  9237 layer_factory.hpp:76] Creating layer inception_4a/relu_3x3_reduce
I1126 12:33:30.242426  9237 net.cpp:106] Creating Layer inception_4a/relu_3x3_reduce
I1126 12:33:30.242430  9237 net.cpp:454] inception_4a/relu_3x3_reduce <- inception_4a/3x3_reduce
I1126 12:33:30.242435  9237 net.cpp:397] inception_4a/relu_3x3_reduce -> inception_4a/3x3_reduce (in-place)
I1126 12:33:30.242722  9237 net.cpp:150] Setting up inception_4a/relu_3x3_reduce
I1126 12:33:30.242734  9237 net.cpp:157] Top shape: 64 96 14 14 (1204224)
I1126 12:33:30.242738  9237 net.cpp:165] Memory required for data: 2307294208
I1126 12:33:30.242741  9237 layer_factory.hpp:76] Creating layer inception_4a/3x3
I1126 12:33:30.242751  9237 net.cpp:106] Creating Layer inception_4a/3x3
I1126 12:33:30.242758  9237 net.cpp:454] inception_4a/3x3 <- inception_4a/3x3_reduce
I1126 12:33:30.242763  9237 net.cpp:411] inception_4a/3x3 -> inception_4a/3x3
I1126 12:33:30.245177  9237 net.cpp:150] Setting up inception_4a/3x3
I1126 12:33:30.245193  9237 net.cpp:157] Top shape: 64 208 14 14 (2609152)
I1126 12:33:30.245195  9237 net.cpp:165] Memory required for data: 2317730816
I1126 12:33:30.245203  9237 layer_factory.hpp:76] Creating layer inception_4a/relu_3x3
I1126 12:33:30.245208  9237 net.cpp:106] Creating Layer inception_4a/relu_3x3
I1126 12:33:30.245211  9237 net.cpp:454] inception_4a/relu_3x3 <- inception_4a/3x3
I1126 12:33:30.245218  9237 net.cpp:397] inception_4a/relu_3x3 -> inception_4a/3x3 (in-place)
I1126 12:33:30.245509  9237 net.cpp:150] Setting up inception_4a/relu_3x3
I1126 12:33:30.245522  9237 net.cpp:157] Top shape: 64 208 14 14 (2609152)
I1126 12:33:30.245525  9237 net.cpp:165] Memory required for data: 2328167424
I1126 12:33:30.245528  9237 layer_factory.hpp:76] Creating layer inception_4a/5x5_reduce
I1126 12:33:30.245537  9237 net.cpp:106] Creating Layer inception_4a/5x5_reduce
I1126 12:33:30.245542  9237 net.cpp:454] inception_4a/5x5_reduce <- pool3/3x3_s2_pool3/3x3_s2_0_split_2
I1126 12:33:30.245548  9237 net.cpp:411] inception_4a/5x5_reduce -> inception_4a/5x5_reduce
I1126 12:33:30.246557  9237 net.cpp:150] Setting up inception_4a/5x5_reduce
I1126 12:33:30.246570  9237 net.cpp:157] Top shape: 64 16 14 14 (200704)
I1126 12:33:30.246575  9237 net.cpp:165] Memory required for data: 2328970240
I1126 12:33:30.246582  9237 layer_factory.hpp:76] Creating layer inception_4a/relu_5x5_reduce
I1126 12:33:30.246590  9237 net.cpp:106] Creating Layer inception_4a/relu_5x5_reduce
I1126 12:33:30.246597  9237 net.cpp:454] inception_4a/relu_5x5_reduce <- inception_4a/5x5_reduce
I1126 12:33:30.246604  9237 net.cpp:397] inception_4a/relu_5x5_reduce -> inception_4a/5x5_reduce (in-place)
I1126 12:33:30.246919  9237 net.cpp:150] Setting up inception_4a/relu_5x5_reduce
I1126 12:33:30.246932  9237 net.cpp:157] Top shape: 64 16 14 14 (200704)
I1126 12:33:30.246937  9237 net.cpp:165] Memory required for data: 2329773056
I1126 12:33:30.246939  9237 layer_factory.hpp:76] Creating layer inception_4a/5x5
I1126 12:33:30.246950  9237 net.cpp:106] Creating Layer inception_4a/5x5
I1126 12:33:30.246955  9237 net.cpp:454] inception_4a/5x5 <- inception_4a/5x5_reduce
I1126 12:33:30.246960  9237 net.cpp:411] inception_4a/5x5 -> inception_4a/5x5
I1126 12:33:30.248051  9237 net.cpp:150] Setting up inception_4a/5x5
I1126 12:33:30.248065  9237 net.cpp:157] Top shape: 64 48 14 14 (602112)
I1126 12:33:30.248069  9237 net.cpp:165] Memory required for data: 2332181504
I1126 12:33:30.248075  9237 layer_factory.hpp:76] Creating layer inception_4a/relu_5x5
I1126 12:33:30.248082  9237 net.cpp:106] Creating Layer inception_4a/relu_5x5
I1126 12:33:30.248087  9237 net.cpp:454] inception_4a/relu_5x5 <- inception_4a/5x5
I1126 12:33:30.248092  9237 net.cpp:397] inception_4a/relu_5x5 -> inception_4a/5x5 (in-place)
I1126 12:33:30.248383  9237 net.cpp:150] Setting up inception_4a/relu_5x5
I1126 12:33:30.248396  9237 net.cpp:157] Top shape: 64 48 14 14 (602112)
I1126 12:33:30.248399  9237 net.cpp:165] Memory required for data: 2334589952
I1126 12:33:30.248402  9237 layer_factory.hpp:76] Creating layer inception_4a/pool
I1126 12:33:30.248410  9237 net.cpp:106] Creating Layer inception_4a/pool
I1126 12:33:30.248414  9237 net.cpp:454] inception_4a/pool <- pool3/3x3_s2_pool3/3x3_s2_0_split_3
I1126 12:33:30.248420  9237 net.cpp:411] inception_4a/pool -> inception_4a/pool
I1126 12:33:30.248607  9237 net.cpp:150] Setting up inception_4a/pool
I1126 12:33:30.248617  9237 net.cpp:157] Top shape: 64 480 14 14 (6021120)
I1126 12:33:30.248620  9237 net.cpp:165] Memory required for data: 2358674432
I1126 12:33:30.248623  9237 layer_factory.hpp:76] Creating layer inception_4a/pool_proj
I1126 12:33:30.248631  9237 net.cpp:106] Creating Layer inception_4a/pool_proj
I1126 12:33:30.248636  9237 net.cpp:454] inception_4a/pool_proj <- inception_4a/pool
I1126 12:33:30.248642  9237 net.cpp:411] inception_4a/pool_proj -> inception_4a/pool_proj
I1126 12:33:30.249814  9237 net.cpp:150] Setting up inception_4a/pool_proj
I1126 12:33:30.249828  9237 net.cpp:157] Top shape: 64 64 14 14 (802816)
I1126 12:33:30.249831  9237 net.cpp:165] Memory required for data: 2361885696
I1126 12:33:30.249837  9237 layer_factory.hpp:76] Creating layer inception_4a/relu_pool_proj
I1126 12:33:30.249845  9237 net.cpp:106] Creating Layer inception_4a/relu_pool_proj
I1126 12:33:30.249848  9237 net.cpp:454] inception_4a/relu_pool_proj <- inception_4a/pool_proj
I1126 12:33:30.249853  9237 net.cpp:397] inception_4a/relu_pool_proj -> inception_4a/pool_proj (in-place)
I1126 12:33:30.250144  9237 net.cpp:150] Setting up inception_4a/relu_pool_proj
I1126 12:33:30.250155  9237 net.cpp:157] Top shape: 64 64 14 14 (802816)
I1126 12:33:30.250159  9237 net.cpp:165] Memory required for data: 2365096960
I1126 12:33:30.250161  9237 layer_factory.hpp:76] Creating layer inception_4a/output
I1126 12:33:30.250169  9237 net.cpp:106] Creating Layer inception_4a/output
I1126 12:33:30.250174  9237 net.cpp:454] inception_4a/output <- inception_4a/1x1
I1126 12:33:30.250180  9237 net.cpp:454] inception_4a/output <- inception_4a/3x3
I1126 12:33:30.250183  9237 net.cpp:454] inception_4a/output <- inception_4a/5x5
I1126 12:33:30.250186  9237 net.cpp:454] inception_4a/output <- inception_4a/pool_proj
I1126 12:33:30.250192  9237 net.cpp:411] inception_4a/output -> inception_4a/output
I1126 12:33:30.250234  9237 net.cpp:150] Setting up inception_4a/output
I1126 12:33:30.250246  9237 net.cpp:157] Top shape: 64 512 14 14 (6422528)
I1126 12:33:30.250250  9237 net.cpp:165] Memory required for data: 2390787072
I1126 12:33:30.250258  9237 layer_factory.hpp:76] Creating layer inception_4a/output_inception_4a/output_0_split
I1126 12:33:30.250265  9237 net.cpp:106] Creating Layer inception_4a/output_inception_4a/output_0_split
I1126 12:33:30.250269  9237 net.cpp:454] inception_4a/output_inception_4a/output_0_split <- inception_4a/output
I1126 12:33:30.250277  9237 net.cpp:411] inception_4a/output_inception_4a/output_0_split -> inception_4a/output_inception_4a/output_0_split_0
I1126 12:33:30.250283  9237 net.cpp:411] inception_4a/output_inception_4a/output_0_split -> inception_4a/output_inception_4a/output_0_split_1
I1126 12:33:30.250289  9237 net.cpp:411] inception_4a/output_inception_4a/output_0_split -> inception_4a/output_inception_4a/output_0_split_2
I1126 12:33:30.250299  9237 net.cpp:411] inception_4a/output_inception_4a/output_0_split -> inception_4a/output_inception_4a/output_0_split_3
I1126 12:33:30.250327  9237 net.cpp:411] inception_4a/output_inception_4a/output_0_split -> inception_4a/output_inception_4a/output_0_split_4
I1126 12:33:30.250409  9237 net.cpp:150] Setting up inception_4a/output_inception_4a/output_0_split
I1126 12:33:30.250417  9237 net.cpp:157] Top shape: 64 512 14 14 (6422528)
I1126 12:33:30.250422  9237 net.cpp:157] Top shape: 64 512 14 14 (6422528)
I1126 12:33:30.250428  9237 net.cpp:157] Top shape: 64 512 14 14 (6422528)
I1126 12:33:30.250434  9237 net.cpp:157] Top shape: 64 512 14 14 (6422528)
I1126 12:33:30.250440  9237 net.cpp:157] Top shape: 64 512 14 14 (6422528)
I1126 12:33:30.250447  9237 net.cpp:165] Memory required for data: 2519237632
I1126 12:33:30.250452  9237 layer_factory.hpp:76] Creating layer loss1/ave_pool
I1126 12:33:30.250461  9237 net.cpp:106] Creating Layer loss1/ave_pool
I1126 12:33:30.250465  9237 net.cpp:454] loss1/ave_pool <- inception_4a/output_inception_4a/output_0_split_0
I1126 12:33:30.250473  9237 net.cpp:411] loss1/ave_pool -> loss1/ave_pool
I1126 12:33:30.250655  9237 net.cpp:150] Setting up loss1/ave_pool
I1126 12:33:30.250664  9237 net.cpp:157] Top shape: 64 512 4 4 (524288)
I1126 12:33:30.250669  9237 net.cpp:165] Memory required for data: 2521334784
I1126 12:33:30.250671  9237 layer_factory.hpp:76] Creating layer loss1/conv
I1126 12:33:30.250679  9237 net.cpp:106] Creating Layer loss1/conv
I1126 12:33:30.250684  9237 net.cpp:454] loss1/conv <- loss1/ave_pool
I1126 12:33:30.250690  9237 net.cpp:411] loss1/conv -> loss1/conv
I1126 12:33:30.252105  9237 net.cpp:150] Setting up loss1/conv
I1126 12:33:30.252118  9237 net.cpp:157] Top shape: 64 128 4 4 (131072)
I1126 12:33:30.252122  9237 net.cpp:165] Memory required for data: 2521859072
I1126 12:33:30.252128  9237 layer_factory.hpp:76] Creating layer loss1/relu_conv
I1126 12:33:30.252135  9237 net.cpp:106] Creating Layer loss1/relu_conv
I1126 12:33:30.252140  9237 net.cpp:454] loss1/relu_conv <- loss1/conv
I1126 12:33:30.252145  9237 net.cpp:397] loss1/relu_conv -> loss1/conv (in-place)
I1126 12:33:30.252336  9237 net.cpp:150] Setting up loss1/relu_conv
I1126 12:33:30.252346  9237 net.cpp:157] Top shape: 64 128 4 4 (131072)
I1126 12:33:30.252351  9237 net.cpp:165] Memory required for data: 2522383360
I1126 12:33:30.252353  9237 layer_factory.hpp:76] Creating layer loss1/fc
I1126 12:33:30.252362  9237 net.cpp:106] Creating Layer loss1/fc
I1126 12:33:30.252367  9237 net.cpp:454] loss1/fc <- loss1/conv
I1126 12:33:30.252372  9237 net.cpp:411] loss1/fc -> loss1/fc
I1126 12:33:30.268034  9237 net.cpp:150] Setting up loss1/fc
I1126 12:33:30.268056  9237 net.cpp:157] Top shape: 64 1024 (65536)
I1126 12:33:30.268060  9237 net.cpp:165] Memory required for data: 2522645504
I1126 12:33:30.268069  9237 layer_factory.hpp:76] Creating layer loss1/relu_fc
I1126 12:33:30.268077  9237 net.cpp:106] Creating Layer loss1/relu_fc
I1126 12:33:30.268085  9237 net.cpp:454] loss1/relu_fc <- loss1/fc
I1126 12:33:30.268091  9237 net.cpp:397] loss1/relu_fc -> loss1/fc (in-place)
I1126 12:33:30.268496  9237 net.cpp:150] Setting up loss1/relu_fc
I1126 12:33:30.268509  9237 net.cpp:157] Top shape: 64 1024 (65536)
I1126 12:33:30.268514  9237 net.cpp:165] Memory required for data: 2522907648
I1126 12:33:30.268517  9237 layer_factory.hpp:76] Creating layer loss1/drop_fc
I1126 12:33:30.268535  9237 net.cpp:106] Creating Layer loss1/drop_fc
I1126 12:33:30.268540  9237 net.cpp:454] loss1/drop_fc <- loss1/fc
I1126 12:33:30.268546  9237 net.cpp:397] loss1/drop_fc -> loss1/fc (in-place)
I1126 12:33:30.268584  9237 net.cpp:150] Setting up loss1/drop_fc
I1126 12:33:30.268591  9237 net.cpp:157] Top shape: 64 1024 (65536)
I1126 12:33:30.268594  9237 net.cpp:165] Memory required for data: 2523169792
I1126 12:33:30.268599  9237 layer_factory.hpp:76] Creating layer loss1/classifier-attribute
I1126 12:33:30.268607  9237 net.cpp:106] Creating Layer loss1/classifier-attribute
I1126 12:33:30.268612  9237 net.cpp:454] loss1/classifier-attribute <- loss1/fc
I1126 12:33:30.268617  9237 net.cpp:411] loss1/classifier-attribute -> loss1/classifier-attribute
I1126 12:33:30.347072  9237 net.cpp:150] Setting up loss1/classifier-attribute
I1126 12:33:30.347098  9237 net.cpp:157] Top shape: 64 9999 (639936)
I1126 12:33:30.347103  9237 net.cpp:165] Memory required for data: 2525729536
I1126 12:33:30.347116  9237 layer_factory.hpp:76] Creating layer loss1/loss
I1126 12:33:30.347153  9237 net.cpp:106] Creating Layer loss1/loss
I1126 12:33:30.347164  9237 net.cpp:454] loss1/loss <- loss1/classifier-attribute
I1126 12:33:30.347174  9237 net.cpp:454] loss1/loss <- label_data_1_split_0
I1126 12:33:30.347185  9237 net.cpp:411] loss1/loss -> loss1/loss1
I1126 12:33:30.347208  9237 layer_factory.hpp:76] Creating layer loss1/loss
I1126 12:33:30.348846  9237 net.cpp:150] Setting up loss1/loss
I1126 12:33:30.348862  9237 net.cpp:157] Top shape: (1)
I1126 12:33:30.348868  9237 net.cpp:160]     with loss weight 0.3
I1126 12:33:30.348896  9237 net.cpp:165] Memory required for data: 2525729540
I1126 12:33:30.348904  9237 layer_factory.hpp:76] Creating layer inception_4b/1x1
I1126 12:33:30.348917  9237 net.cpp:106] Creating Layer inception_4b/1x1
I1126 12:33:30.348922  9237 net.cpp:454] inception_4b/1x1 <- inception_4a/output_inception_4a/output_0_split_1
I1126 12:33:30.348932  9237 net.cpp:411] inception_4b/1x1 -> inception_4b/1x1
I1126 12:33:30.350494  9237 net.cpp:150] Setting up inception_4b/1x1
I1126 12:33:30.350509  9237 net.cpp:157] Top shape: 64 160 14 14 (2007040)
I1126 12:33:30.350512  9237 net.cpp:165] Memory required for data: 2533757700
I1126 12:33:30.350519  9237 layer_factory.hpp:76] Creating layer inception_4b/relu_1x1
I1126 12:33:30.350525  9237 net.cpp:106] Creating Layer inception_4b/relu_1x1
I1126 12:33:30.350529  9237 net.cpp:454] inception_4b/relu_1x1 <- inception_4b/1x1
I1126 12:33:30.350534  9237 net.cpp:397] inception_4b/relu_1x1 -> inception_4b/1x1 (in-place)
I1126 12:33:30.350832  9237 net.cpp:150] Setting up inception_4b/relu_1x1
I1126 12:33:30.350844  9237 net.cpp:157] Top shape: 64 160 14 14 (2007040)
I1126 12:33:30.350848  9237 net.cpp:165] Memory required for data: 2541785860
I1126 12:33:30.350852  9237 layer_factory.hpp:76] Creating layer inception_4b/3x3_reduce
I1126 12:33:30.350862  9237 net.cpp:106] Creating Layer inception_4b/3x3_reduce
I1126 12:33:30.350865  9237 net.cpp:454] inception_4b/3x3_reduce <- inception_4a/output_inception_4a/output_0_split_2
I1126 12:33:30.350883  9237 net.cpp:411] inception_4b/3x3_reduce -> inception_4b/3x3_reduce
I1126 12:33:30.352694  9237 net.cpp:150] Setting up inception_4b/3x3_reduce
I1126 12:33:30.352706  9237 net.cpp:157] Top shape: 64 112 14 14 (1404928)
I1126 12:33:30.352710  9237 net.cpp:165] Memory required for data: 2547405572
I1126 12:33:30.352716  9237 layer_factory.hpp:76] Creating layer inception_4b/relu_3x3_reduce
I1126 12:33:30.352722  9237 net.cpp:106] Creating Layer inception_4b/relu_3x3_reduce
I1126 12:33:30.352725  9237 net.cpp:454] inception_4b/relu_3x3_reduce <- inception_4b/3x3_reduce
I1126 12:33:30.352731  9237 net.cpp:397] inception_4b/relu_3x3_reduce -> inception_4b/3x3_reduce (in-place)
I1126 12:33:30.352895  9237 net.cpp:150] Setting up inception_4b/relu_3x3_reduce
I1126 12:33:30.352905  9237 net.cpp:157] Top shape: 64 112 14 14 (1404928)
I1126 12:33:30.352907  9237 net.cpp:165] Memory required for data: 2553025284
I1126 12:33:30.352910  9237 layer_factory.hpp:76] Creating layer inception_4b/3x3
I1126 12:33:30.352919  9237 net.cpp:106] Creating Layer inception_4b/3x3
I1126 12:33:30.352922  9237 net.cpp:454] inception_4b/3x3 <- inception_4b/3x3_reduce
I1126 12:33:30.352933  9237 net.cpp:411] inception_4b/3x3 -> inception_4b/3x3
I1126 12:33:30.355813  9237 net.cpp:150] Setting up inception_4b/3x3
I1126 12:33:30.355828  9237 net.cpp:157] Top shape: 64 224 14 14 (2809856)
I1126 12:33:30.355830  9237 net.cpp:165] Memory required for data: 2564264708
I1126 12:33:30.355836  9237 layer_factory.hpp:76] Creating layer inception_4b/relu_3x3
I1126 12:33:30.355842  9237 net.cpp:106] Creating Layer inception_4b/relu_3x3
I1126 12:33:30.355846  9237 net.cpp:454] inception_4b/relu_3x3 <- inception_4b/3x3
I1126 12:33:30.355852  9237 net.cpp:397] inception_4b/relu_3x3 -> inception_4b/3x3 (in-place)
I1126 12:33:30.356016  9237 net.cpp:150] Setting up inception_4b/relu_3x3
I1126 12:33:30.356026  9237 net.cpp:157] Top shape: 64 224 14 14 (2809856)
I1126 12:33:30.356029  9237 net.cpp:165] Memory required for data: 2575504132
I1126 12:33:30.356032  9237 layer_factory.hpp:76] Creating layer inception_4b/5x5_reduce
I1126 12:33:30.356043  9237 net.cpp:106] Creating Layer inception_4b/5x5_reduce
I1126 12:33:30.356052  9237 net.cpp:454] inception_4b/5x5_reduce <- inception_4a/output_inception_4a/output_0_split_3
I1126 12:33:30.356060  9237 net.cpp:411] inception_4b/5x5_reduce -> inception_4b/5x5_reduce
I1126 12:33:30.357128  9237 net.cpp:150] Setting up inception_4b/5x5_reduce
I1126 12:33:30.357143  9237 net.cpp:157] Top shape: 64 24 14 14 (301056)
I1126 12:33:30.357146  9237 net.cpp:165] Memory required for data: 2576708356
I1126 12:33:30.357152  9237 layer_factory.hpp:76] Creating layer inception_4b/relu_5x5_reduce
I1126 12:33:30.357158  9237 net.cpp:106] Creating Layer inception_4b/relu_5x5_reduce
I1126 12:33:30.357162  9237 net.cpp:454] inception_4b/relu_5x5_reduce <- inception_4b/5x5_reduce
I1126 12:33:30.357167  9237 net.cpp:397] inception_4b/relu_5x5_reduce -> inception_4b/5x5_reduce (in-place)
I1126 12:33:30.357580  9237 net.cpp:150] Setting up inception_4b/relu_5x5_reduce
I1126 12:33:30.357592  9237 net.cpp:157] Top shape: 64 24 14 14 (301056)
I1126 12:33:30.357595  9237 net.cpp:165] Memory required for data: 2577912580
I1126 12:33:30.357599  9237 layer_factory.hpp:76] Creating layer inception_4b/5x5
I1126 12:33:30.357607  9237 net.cpp:106] Creating Layer inception_4b/5x5
I1126 12:33:30.357614  9237 net.cpp:454] inception_4b/5x5 <- inception_4b/5x5_reduce
I1126 12:33:30.357620  9237 net.cpp:411] inception_4b/5x5 -> inception_4b/5x5
I1126 12:33:30.359475  9237 net.cpp:150] Setting up inception_4b/5x5
I1126 12:33:30.359506  9237 net.cpp:157] Top shape: 64 64 14 14 (802816)
I1126 12:33:30.359519  9237 net.cpp:165] Memory required for data: 2581123844
I1126 12:33:30.359535  9237 layer_factory.hpp:76] Creating layer inception_4b/relu_5x5
I1126 12:33:30.359550  9237 net.cpp:106] Creating Layer inception_4b/relu_5x5
I1126 12:33:30.359561  9237 net.cpp:454] inception_4b/relu_5x5 <- inception_4b/5x5
I1126 12:33:30.359576  9237 net.cpp:397] inception_4b/relu_5x5 -> inception_4b/5x5 (in-place)
I1126 12:33:30.359935  9237 net.cpp:150] Setting up inception_4b/relu_5x5
I1126 12:33:30.359958  9237 net.cpp:157] Top shape: 64 64 14 14 (802816)
I1126 12:33:30.359969  9237 net.cpp:165] Memory required for data: 2584335108
I1126 12:33:30.359979  9237 layer_factory.hpp:76] Creating layer inception_4b/pool
I1126 12:33:30.359998  9237 net.cpp:106] Creating Layer inception_4b/pool
I1126 12:33:30.360008  9237 net.cpp:454] inception_4b/pool <- inception_4a/output_inception_4a/output_0_split_4
I1126 12:33:30.360019  9237 net.cpp:411] inception_4b/pool -> inception_4b/pool
I1126 12:33:30.360564  9237 net.cpp:150] Setting up inception_4b/pool
I1126 12:33:30.360584  9237 net.cpp:157] Top shape: 64 512 14 14 (6422528)
I1126 12:33:30.360589  9237 net.cpp:165] Memory required for data: 2610025220
I1126 12:33:30.360596  9237 layer_factory.hpp:76] Creating layer inception_4b/pool_proj
I1126 12:33:30.360610  9237 net.cpp:106] Creating Layer inception_4b/pool_proj
I1126 12:33:30.360617  9237 net.cpp:454] inception_4b/pool_proj <- inception_4b/pool
I1126 12:33:30.360643  9237 net.cpp:411] inception_4b/pool_proj -> inception_4b/pool_proj
I1126 12:33:30.362809  9237 net.cpp:150] Setting up inception_4b/pool_proj
I1126 12:33:30.362836  9237 net.cpp:157] Top shape: 64 64 14 14 (802816)
I1126 12:33:30.362848  9237 net.cpp:165] Memory required for data: 2613236484
I1126 12:33:30.362864  9237 layer_factory.hpp:76] Creating layer inception_4b/relu_pool_proj
I1126 12:33:30.362905  9237 net.cpp:106] Creating Layer inception_4b/relu_pool_proj
I1126 12:33:30.362920  9237 net.cpp:454] inception_4b/relu_pool_proj <- inception_4b/pool_proj
I1126 12:33:30.362943  9237 net.cpp:397] inception_4b/relu_pool_proj -> inception_4b/pool_proj (in-place)
I1126 12:33:30.363416  9237 net.cpp:150] Setting up inception_4b/relu_pool_proj
I1126 12:33:30.363440  9237 net.cpp:157] Top shape: 64 64 14 14 (802816)
I1126 12:33:30.363450  9237 net.cpp:165] Memory required for data: 2616447748
I1126 12:33:30.363458  9237 layer_factory.hpp:76] Creating layer inception_4b/output
I1126 12:33:30.363473  9237 net.cpp:106] Creating Layer inception_4b/output
I1126 12:33:30.363482  9237 net.cpp:454] inception_4b/output <- inception_4b/1x1
I1126 12:33:30.363498  9237 net.cpp:454] inception_4b/output <- inception_4b/3x3
I1126 12:33:30.363512  9237 net.cpp:454] inception_4b/output <- inception_4b/5x5
I1126 12:33:30.363523  9237 net.cpp:454] inception_4b/output <- inception_4b/pool_proj
I1126 12:33:30.363535  9237 net.cpp:411] inception_4b/output -> inception_4b/output
I1126 12:33:30.363600  9237 net.cpp:150] Setting up inception_4b/output
I1126 12:33:30.363617  9237 net.cpp:157] Top shape: 64 512 14 14 (6422528)
I1126 12:33:30.363626  9237 net.cpp:165] Memory required for data: 2642137860
I1126 12:33:30.363634  9237 layer_factory.hpp:76] Creating layer inception_4b/output_inception_4b/output_0_split
I1126 12:33:30.363648  9237 net.cpp:106] Creating Layer inception_4b/output_inception_4b/output_0_split
I1126 12:33:30.363657  9237 net.cpp:454] inception_4b/output_inception_4b/output_0_split <- inception_4b/output
I1126 12:33:30.363669  9237 net.cpp:411] inception_4b/output_inception_4b/output_0_split -> inception_4b/output_inception_4b/output_0_split_0
I1126 12:33:30.363687  9237 net.cpp:411] inception_4b/output_inception_4b/output_0_split -> inception_4b/output_inception_4b/output_0_split_1
I1126 12:33:30.363704  9237 net.cpp:411] inception_4b/output_inception_4b/output_0_split -> inception_4b/output_inception_4b/output_0_split_2
I1126 12:33:30.363720  9237 net.cpp:411] inception_4b/output_inception_4b/output_0_split -> inception_4b/output_inception_4b/output_0_split_3
I1126 12:33:30.363869  9237 net.cpp:150] Setting up inception_4b/output_inception_4b/output_0_split
I1126 12:33:30.363891  9237 net.cpp:157] Top shape: 64 512 14 14 (6422528)
I1126 12:33:30.363903  9237 net.cpp:157] Top shape: 64 512 14 14 (6422528)
I1126 12:33:30.363910  9237 net.cpp:157] Top shape: 64 512 14 14 (6422528)
I1126 12:33:30.363915  9237 net.cpp:157] Top shape: 64 512 14 14 (6422528)
I1126 12:33:30.363920  9237 net.cpp:165] Memory required for data: 2744898308
I1126 12:33:30.363926  9237 layer_factory.hpp:76] Creating layer inception_4c/1x1
I1126 12:33:30.363941  9237 net.cpp:106] Creating Layer inception_4c/1x1
I1126 12:33:30.363947  9237 net.cpp:454] inception_4c/1x1 <- inception_4b/output_inception_4b/output_0_split_0
I1126 12:33:30.363956  9237 net.cpp:411] inception_4c/1x1 -> inception_4c/1x1
I1126 12:33:30.366508  9237 net.cpp:150] Setting up inception_4c/1x1
I1126 12:33:30.366528  9237 net.cpp:157] Top shape: 64 128 14 14 (1605632)
I1126 12:33:30.366533  9237 net.cpp:165] Memory required for data: 2751320836
I1126 12:33:30.366544  9237 layer_factory.hpp:76] Creating layer inception_4c/relu_1x1
I1126 12:33:30.366555  9237 net.cpp:106] Creating Layer inception_4c/relu_1x1
I1126 12:33:30.366561  9237 net.cpp:454] inception_4c/relu_1x1 <- inception_4c/1x1
I1126 12:33:30.366569  9237 net.cpp:397] inception_4c/relu_1x1 -> inception_4c/1x1 (in-place)
I1126 12:33:30.366801  9237 net.cpp:150] Setting up inception_4c/relu_1x1
I1126 12:33:30.366813  9237 net.cpp:157] Top shape: 64 128 14 14 (1605632)
I1126 12:33:30.366818  9237 net.cpp:165] Memory required for data: 2757743364
I1126 12:33:30.366827  9237 layer_factory.hpp:76] Creating layer inception_4c/3x3_reduce
I1126 12:33:30.366845  9237 net.cpp:106] Creating Layer inception_4c/3x3_reduce
I1126 12:33:30.366857  9237 net.cpp:454] inception_4c/3x3_reduce <- inception_4b/output_inception_4b/output_0_split_1
I1126 12:33:30.366876  9237 net.cpp:411] inception_4c/3x3_reduce -> inception_4c/3x3_reduce
I1126 12:33:30.369474  9237 net.cpp:150] Setting up inception_4c/3x3_reduce
I1126 12:33:30.369493  9237 net.cpp:157] Top shape: 64 128 14 14 (1605632)
I1126 12:33:30.369499  9237 net.cpp:165] Memory required for data: 2764165892
I1126 12:33:30.369509  9237 layer_factory.hpp:76] Creating layer inception_4c/relu_3x3_reduce
I1126 12:33:30.369521  9237 net.cpp:106] Creating Layer inception_4c/relu_3x3_reduce
I1126 12:33:30.369529  9237 net.cpp:454] inception_4c/relu_3x3_reduce <- inception_4c/3x3_reduce
I1126 12:33:30.369536  9237 net.cpp:397] inception_4c/relu_3x3_reduce -> inception_4c/3x3_reduce (in-place)
I1126 12:33:30.369973  9237 net.cpp:150] Setting up inception_4c/relu_3x3_reduce
I1126 12:33:30.369992  9237 net.cpp:157] Top shape: 64 128 14 14 (1605632)
I1126 12:33:30.370007  9237 net.cpp:165] Memory required for data: 2770588420
I1126 12:33:30.370017  9237 layer_factory.hpp:76] Creating layer inception_4c/3x3
I1126 12:33:30.370036  9237 net.cpp:106] Creating Layer inception_4c/3x3
I1126 12:33:30.370048  9237 net.cpp:454] inception_4c/3x3 <- inception_4c/3x3_reduce
I1126 12:33:30.370066  9237 net.cpp:411] inception_4c/3x3 -> inception_4c/3x3
I1126 12:33:30.375390  9237 net.cpp:150] Setting up inception_4c/3x3
I1126 12:33:30.375404  9237 net.cpp:157] Top shape: 64 256 14 14 (3211264)
I1126 12:33:30.375408  9237 net.cpp:165] Memory required for data: 2783433476
I1126 12:33:30.375427  9237 layer_factory.hpp:76] Creating layer inception_4c/relu_3x3
I1126 12:33:30.375435  9237 net.cpp:106] Creating Layer inception_4c/relu_3x3
I1126 12:33:30.375440  9237 net.cpp:454] inception_4c/relu_3x3 <- inception_4c/3x3
I1126 12:33:30.375447  9237 net.cpp:397] inception_4c/relu_3x3 -> inception_4c/3x3 (in-place)
I1126 12:33:30.375758  9237 net.cpp:150] Setting up inception_4c/relu_3x3
I1126 12:33:30.375773  9237 net.cpp:157] Top shape: 64 256 14 14 (3211264)
I1126 12:33:30.375779  9237 net.cpp:165] Memory required for data: 2796278532
I1126 12:33:30.375785  9237 layer_factory.hpp:76] Creating layer inception_4c/5x5_reduce
I1126 12:33:30.375798  9237 net.cpp:106] Creating Layer inception_4c/5x5_reduce
I1126 12:33:30.375808  9237 net.cpp:454] inception_4c/5x5_reduce <- inception_4b/output_inception_4b/output_0_split_2
I1126 12:33:30.375818  9237 net.cpp:411] inception_4c/5x5_reduce -> inception_4c/5x5_reduce
I1126 12:33:30.377318  9237 net.cpp:150] Setting up inception_4c/5x5_reduce
I1126 12:33:30.377338  9237 net.cpp:157] Top shape: 64 24 14 14 (301056)
I1126 12:33:30.377344  9237 net.cpp:165] Memory required for data: 2797482756
I1126 12:33:30.377356  9237 layer_factory.hpp:76] Creating layer inception_4c/relu_5x5_reduce
I1126 12:33:30.377367  9237 net.cpp:106] Creating Layer inception_4c/relu_5x5_reduce
I1126 12:33:30.377373  9237 net.cpp:454] inception_4c/relu_5x5_reduce <- inception_4c/5x5_reduce
I1126 12:33:30.377383  9237 net.cpp:397] inception_4c/relu_5x5_reduce -> inception_4c/5x5_reduce (in-place)
I1126 12:33:30.377624  9237 net.cpp:150] Setting up inception_4c/relu_5x5_reduce
I1126 12:33:30.377638  9237 net.cpp:157] Top shape: 64 24 14 14 (301056)
I1126 12:33:30.377645  9237 net.cpp:165] Memory required for data: 2798686980
I1126 12:33:30.377651  9237 layer_factory.hpp:76] Creating layer inception_4c/5x5
I1126 12:33:30.377665  9237 net.cpp:106] Creating Layer inception_4c/5x5
I1126 12:33:30.377673  9237 net.cpp:454] inception_4c/5x5 <- inception_4c/5x5_reduce
I1126 12:33:30.377687  9237 net.cpp:411] inception_4c/5x5 -> inception_4c/5x5
I1126 12:33:30.379748  9237 net.cpp:150] Setting up inception_4c/5x5
I1126 12:33:30.379763  9237 net.cpp:157] Top shape: 64 64 14 14 (802816)
I1126 12:33:30.379770  9237 net.cpp:165] Memory required for data: 2801898244
I1126 12:33:30.379778  9237 layer_factory.hpp:76] Creating layer inception_4c/relu_5x5
I1126 12:33:30.379786  9237 net.cpp:106] Creating Layer inception_4c/relu_5x5
I1126 12:33:30.379791  9237 net.cpp:454] inception_4c/relu_5x5 <- inception_4c/5x5
I1126 12:33:30.379798  9237 net.cpp:397] inception_4c/relu_5x5 -> inception_4c/5x5 (in-place)
I1126 12:33:30.380198  9237 net.cpp:150] Setting up inception_4c/relu_5x5
I1126 12:33:30.380215  9237 net.cpp:157] Top shape: 64 64 14 14 (802816)
I1126 12:33:30.380223  9237 net.cpp:165] Memory required for data: 2805109508
I1126 12:33:30.380228  9237 layer_factory.hpp:76] Creating layer inception_4c/pool
I1126 12:33:30.380236  9237 net.cpp:106] Creating Layer inception_4c/pool
I1126 12:33:30.380245  9237 net.cpp:454] inception_4c/pool <- inception_4b/output_inception_4b/output_0_split_3
I1126 12:33:30.380254  9237 net.cpp:411] inception_4c/pool -> inception_4c/pool
I1126 12:33:30.380553  9237 net.cpp:150] Setting up inception_4c/pool
I1126 12:33:30.380573  9237 net.cpp:157] Top shape: 64 512 14 14 (6422528)
I1126 12:33:30.380583  9237 net.cpp:165] Memory required for data: 2830799620
I1126 12:33:30.380589  9237 layer_factory.hpp:76] Creating layer inception_4c/pool_proj
I1126 12:33:30.380604  9237 net.cpp:106] Creating Layer inception_4c/pool_proj
I1126 12:33:30.380611  9237 net.cpp:454] inception_4c/pool_proj <- inception_4c/pool
I1126 12:33:30.380619  9237 net.cpp:411] inception_4c/pool_proj -> inception_4c/pool_proj
I1126 12:33:30.382333  9237 net.cpp:150] Setting up inception_4c/pool_proj
I1126 12:33:30.382354  9237 net.cpp:157] Top shape: 64 64 14 14 (802816)
I1126 12:33:30.382359  9237 net.cpp:165] Memory required for data: 2834010884
I1126 12:33:30.382367  9237 layer_factory.hpp:76] Creating layer inception_4c/relu_pool_proj
I1126 12:33:30.382375  9237 net.cpp:106] Creating Layer inception_4c/relu_pool_proj
I1126 12:33:30.382378  9237 net.cpp:454] inception_4c/relu_pool_proj <- inception_4c/pool_proj
I1126 12:33:30.382383  9237 net.cpp:397] inception_4c/relu_pool_proj -> inception_4c/pool_proj (in-place)
I1126 12:33:30.382714  9237 net.cpp:150] Setting up inception_4c/relu_pool_proj
I1126 12:33:30.382729  9237 net.cpp:157] Top shape: 64 64 14 14 (802816)
I1126 12:33:30.382732  9237 net.cpp:165] Memory required for data: 2837222148
I1126 12:33:30.382735  9237 layer_factory.hpp:76] Creating layer inception_4c/output
I1126 12:33:30.382742  9237 net.cpp:106] Creating Layer inception_4c/output
I1126 12:33:30.382746  9237 net.cpp:454] inception_4c/output <- inception_4c/1x1
I1126 12:33:30.382751  9237 net.cpp:454] inception_4c/output <- inception_4c/3x3
I1126 12:33:30.382755  9237 net.cpp:454] inception_4c/output <- inception_4c/5x5
I1126 12:33:30.382760  9237 net.cpp:454] inception_4c/output <- inception_4c/pool_proj
I1126 12:33:30.382763  9237 net.cpp:411] inception_4c/output -> inception_4c/output
I1126 12:33:30.382800  9237 net.cpp:150] Setting up inception_4c/output
I1126 12:33:30.382808  9237 net.cpp:157] Top shape: 64 512 14 14 (6422528)
I1126 12:33:30.382812  9237 net.cpp:165] Memory required for data: 2862912260
I1126 12:33:30.382814  9237 layer_factory.hpp:76] Creating layer inception_4c/output_inception_4c/output_0_split
I1126 12:33:30.382822  9237 net.cpp:106] Creating Layer inception_4c/output_inception_4c/output_0_split
I1126 12:33:30.382828  9237 net.cpp:454] inception_4c/output_inception_4c/output_0_split <- inception_4c/output
I1126 12:33:30.382835  9237 net.cpp:411] inception_4c/output_inception_4c/output_0_split -> inception_4c/output_inception_4c/output_0_split_0
I1126 12:33:30.382845  9237 net.cpp:411] inception_4c/output_inception_4c/output_0_split -> inception_4c/output_inception_4c/output_0_split_1
I1126 12:33:30.382858  9237 net.cpp:411] inception_4c/output_inception_4c/output_0_split -> inception_4c/output_inception_4c/output_0_split_2
I1126 12:33:30.382863  9237 net.cpp:411] inception_4c/output_inception_4c/output_0_split -> inception_4c/output_inception_4c/output_0_split_3
I1126 12:33:30.382941  9237 net.cpp:150] Setting up inception_4c/output_inception_4c/output_0_split
I1126 12:33:30.382948  9237 net.cpp:157] Top shape: 64 512 14 14 (6422528)
I1126 12:33:30.382952  9237 net.cpp:157] Top shape: 64 512 14 14 (6422528)
I1126 12:33:30.382956  9237 net.cpp:157] Top shape: 64 512 14 14 (6422528)
I1126 12:33:30.382959  9237 net.cpp:157] Top shape: 64 512 14 14 (6422528)
I1126 12:33:30.382962  9237 net.cpp:165] Memory required for data: 2965672708
I1126 12:33:30.382966  9237 layer_factory.hpp:76] Creating layer inception_4d/1x1
I1126 12:33:30.382974  9237 net.cpp:106] Creating Layer inception_4d/1x1
I1126 12:33:30.382978  9237 net.cpp:454] inception_4d/1x1 <- inception_4c/output_inception_4c/output_0_split_0
I1126 12:33:30.382985  9237 net.cpp:411] inception_4d/1x1 -> inception_4d/1x1
I1126 12:33:30.384619  9237 net.cpp:150] Setting up inception_4d/1x1
I1126 12:33:30.384637  9237 net.cpp:157] Top shape: 64 112 14 14 (1404928)
I1126 12:33:30.384644  9237 net.cpp:165] Memory required for data: 2971292420
I1126 12:33:30.384649  9237 layer_factory.hpp:76] Creating layer inception_4d/relu_1x1
I1126 12:33:30.384660  9237 net.cpp:106] Creating Layer inception_4d/relu_1x1
I1126 12:33:30.384670  9237 net.cpp:454] inception_4d/relu_1x1 <- inception_4d/1x1
I1126 12:33:30.384678  9237 net.cpp:397] inception_4d/relu_1x1 -> inception_4d/1x1 (in-place)
I1126 12:33:30.385102  9237 net.cpp:150] Setting up inception_4d/relu_1x1
I1126 12:33:30.385118  9237 net.cpp:157] Top shape: 64 112 14 14 (1404928)
I1126 12:33:30.385126  9237 net.cpp:165] Memory required for data: 2976912132
I1126 12:33:30.385133  9237 layer_factory.hpp:76] Creating layer inception_4d/3x3_reduce
I1126 12:33:30.385148  9237 net.cpp:106] Creating Layer inception_4d/3x3_reduce
I1126 12:33:30.385157  9237 net.cpp:454] inception_4d/3x3_reduce <- inception_4c/output_inception_4c/output_0_split_1
I1126 12:33:30.385164  9237 net.cpp:411] inception_4d/3x3_reduce -> inception_4d/3x3_reduce
I1126 12:33:30.387354  9237 net.cpp:150] Setting up inception_4d/3x3_reduce
I1126 12:33:30.387377  9237 net.cpp:157] Top shape: 64 144 14 14 (1806336)
I1126 12:33:30.387388  9237 net.cpp:165] Memory required for data: 2984137476
I1126 12:33:30.387403  9237 layer_factory.hpp:76] Creating layer inception_4d/relu_3x3_reduce
I1126 12:33:30.387420  9237 net.cpp:106] Creating Layer inception_4d/relu_3x3_reduce
I1126 12:33:30.387428  9237 net.cpp:454] inception_4d/relu_3x3_reduce <- inception_4d/3x3_reduce
I1126 12:33:30.387437  9237 net.cpp:397] inception_4d/relu_3x3_reduce -> inception_4d/3x3_reduce (in-place)
I1126 12:33:30.387753  9237 net.cpp:150] Setting up inception_4d/relu_3x3_reduce
I1126 12:33:30.387773  9237 net.cpp:157] Top shape: 64 144 14 14 (1806336)
I1126 12:33:30.387778  9237 net.cpp:165] Memory required for data: 2991362820
I1126 12:33:30.387784  9237 layer_factory.hpp:76] Creating layer inception_4d/3x3
I1126 12:33:30.387800  9237 net.cpp:106] Creating Layer inception_4d/3x3
I1126 12:33:30.387809  9237 net.cpp:454] inception_4d/3x3 <- inception_4d/3x3_reduce
I1126 12:33:30.387820  9237 net.cpp:411] inception_4d/3x3 -> inception_4d/3x3
I1126 12:33:30.393013  9237 net.cpp:150] Setting up inception_4d/3x3
I1126 12:33:30.393033  9237 net.cpp:157] Top shape: 64 288 14 14 (3612672)
I1126 12:33:30.393039  9237 net.cpp:165] Memory required for data: 3005813508
I1126 12:33:30.393050  9237 layer_factory.hpp:76] Creating layer inception_4d/relu_3x3
I1126 12:33:30.393061  9237 net.cpp:106] Creating Layer inception_4d/relu_3x3
I1126 12:33:30.393070  9237 net.cpp:454] inception_4d/relu_3x3 <- inception_4d/3x3
I1126 12:33:30.393079  9237 net.cpp:397] inception_4d/relu_3x3 -> inception_4d/3x3 (in-place)
I1126 12:33:30.393512  9237 net.cpp:150] Setting up inception_4d/relu_3x3
I1126 12:33:30.393532  9237 net.cpp:157] Top shape: 64 288 14 14 (3612672)
I1126 12:33:30.393537  9237 net.cpp:165] Memory required for data: 3020264196
I1126 12:33:30.393543  9237 layer_factory.hpp:76] Creating layer inception_4d/5x5_reduce
I1126 12:33:30.393563  9237 net.cpp:106] Creating Layer inception_4d/5x5_reduce
I1126 12:33:30.393570  9237 net.cpp:454] inception_4d/5x5_reduce <- inception_4c/output_inception_4c/output_0_split_2
I1126 12:33:30.393580  9237 net.cpp:411] inception_4d/5x5_reduce -> inception_4d/5x5_reduce
I1126 12:33:30.395083  9237 net.cpp:150] Setting up inception_4d/5x5_reduce
I1126 12:33:30.395103  9237 net.cpp:157] Top shape: 64 32 14 14 (401408)
I1126 12:33:30.395110  9237 net.cpp:165] Memory required for data: 3021869828
I1126 12:33:30.395123  9237 layer_factory.hpp:76] Creating layer inception_4d/relu_5x5_reduce
I1126 12:33:30.395135  9237 net.cpp:106] Creating Layer inception_4d/relu_5x5_reduce
I1126 12:33:30.395144  9237 net.cpp:454] inception_4d/relu_5x5_reduce <- inception_4d/5x5_reduce
I1126 12:33:30.395158  9237 net.cpp:397] inception_4d/relu_5x5_reduce -> inception_4d/5x5_reduce (in-place)
I1126 12:33:30.395597  9237 net.cpp:150] Setting up inception_4d/relu_5x5_reduce
I1126 12:33:30.395617  9237 net.cpp:157] Top shape: 64 32 14 14 (401408)
I1126 12:33:30.395624  9237 net.cpp:165] Memory required for data: 3023475460
I1126 12:33:30.395632  9237 layer_factory.hpp:76] Creating layer inception_4d/5x5
I1126 12:33:30.395648  9237 net.cpp:106] Creating Layer inception_4d/5x5
I1126 12:33:30.395655  9237 net.cpp:454] inception_4d/5x5 <- inception_4d/5x5_reduce
I1126 12:33:30.395668  9237 net.cpp:411] inception_4d/5x5 -> inception_4d/5x5
I1126 12:33:30.397619  9237 net.cpp:150] Setting up inception_4d/5x5
I1126 12:33:30.397637  9237 net.cpp:157] Top shape: 64 64 14 14 (802816)
I1126 12:33:30.397644  9237 net.cpp:165] Memory required for data: 3026686724
I1126 12:33:30.397655  9237 layer_factory.hpp:76] Creating layer inception_4d/relu_5x5
I1126 12:33:30.397662  9237 net.cpp:106] Creating Layer inception_4d/relu_5x5
I1126 12:33:30.397668  9237 net.cpp:454] inception_4d/relu_5x5 <- inception_4d/5x5
I1126 12:33:30.397678  9237 net.cpp:397] inception_4d/relu_5x5 -> inception_4d/5x5 (in-place)
I1126 12:33:30.397941  9237 net.cpp:150] Setting up inception_4d/relu_5x5
I1126 12:33:30.397958  9237 net.cpp:157] Top shape: 64 64 14 14 (802816)
I1126 12:33:30.397967  9237 net.cpp:165] Memory required for data: 3029897988
I1126 12:33:30.397971  9237 layer_factory.hpp:76] Creating layer inception_4d/pool
I1126 12:33:30.397982  9237 net.cpp:106] Creating Layer inception_4d/pool
I1126 12:33:30.397989  9237 net.cpp:454] inception_4d/pool <- inception_4c/output_inception_4c/output_0_split_3
I1126 12:33:30.397995  9237 net.cpp:411] inception_4d/pool -> inception_4d/pool
I1126 12:33:30.398411  9237 net.cpp:150] Setting up inception_4d/pool
I1126 12:33:30.398427  9237 net.cpp:157] Top shape: 64 512 14 14 (6422528)
I1126 12:33:30.398432  9237 net.cpp:165] Memory required for data: 3055588100
I1126 12:33:30.398434  9237 layer_factory.hpp:76] Creating layer inception_4d/pool_proj
I1126 12:33:30.398442  9237 net.cpp:106] Creating Layer inception_4d/pool_proj
I1126 12:33:30.398447  9237 net.cpp:454] inception_4d/pool_proj <- inception_4d/pool
I1126 12:33:30.398454  9237 net.cpp:411] inception_4d/pool_proj -> inception_4d/pool_proj
I1126 12:33:30.400113  9237 net.cpp:150] Setting up inception_4d/pool_proj
I1126 12:33:30.400132  9237 net.cpp:157] Top shape: 64 64 14 14 (802816)
I1126 12:33:30.400140  9237 net.cpp:165] Memory required for data: 3058799364
I1126 12:33:30.400149  9237 layer_factory.hpp:76] Creating layer inception_4d/relu_pool_proj
I1126 12:33:30.400161  9237 net.cpp:106] Creating Layer inception_4d/relu_pool_proj
I1126 12:33:30.400167  9237 net.cpp:454] inception_4d/relu_pool_proj <- inception_4d/pool_proj
I1126 12:33:30.400177  9237 net.cpp:397] inception_4d/relu_pool_proj -> inception_4d/pool_proj (in-place)
I1126 12:33:30.400449  9237 net.cpp:150] Setting up inception_4d/relu_pool_proj
I1126 12:33:30.400467  9237 net.cpp:157] Top shape: 64 64 14 14 (802816)
I1126 12:33:30.400475  9237 net.cpp:165] Memory required for data: 3062010628
I1126 12:33:30.400482  9237 layer_factory.hpp:76] Creating layer inception_4d/output
I1126 12:33:30.400491  9237 net.cpp:106] Creating Layer inception_4d/output
I1126 12:33:30.400497  9237 net.cpp:454] inception_4d/output <- inception_4d/1x1
I1126 12:33:30.400506  9237 net.cpp:454] inception_4d/output <- inception_4d/3x3
I1126 12:33:30.400511  9237 net.cpp:454] inception_4d/output <- inception_4d/5x5
I1126 12:33:30.400518  9237 net.cpp:454] inception_4d/output <- inception_4d/pool_proj
I1126 12:33:30.400529  9237 net.cpp:411] inception_4d/output -> inception_4d/output
I1126 12:33:30.400588  9237 net.cpp:150] Setting up inception_4d/output
I1126 12:33:30.400601  9237 net.cpp:157] Top shape: 64 528 14 14 (6623232)
I1126 12:33:30.400609  9237 net.cpp:165] Memory required for data: 3088503556
I1126 12:33:30.400614  9237 layer_factory.hpp:76] Creating layer inception_4d/output_inception_4d/output_0_split
I1126 12:33:30.400624  9237 net.cpp:106] Creating Layer inception_4d/output_inception_4d/output_0_split
I1126 12:33:30.400631  9237 net.cpp:454] inception_4d/output_inception_4d/output_0_split <- inception_4d/output
I1126 12:33:30.400636  9237 net.cpp:411] inception_4d/output_inception_4d/output_0_split -> inception_4d/output_inception_4d/output_0_split_0
I1126 12:33:30.400645  9237 net.cpp:411] inception_4d/output_inception_4d/output_0_split -> inception_4d/output_inception_4d/output_0_split_1
I1126 12:33:30.400652  9237 net.cpp:411] inception_4d/output_inception_4d/output_0_split -> inception_4d/output_inception_4d/output_0_split_2
I1126 12:33:30.400657  9237 net.cpp:411] inception_4d/output_inception_4d/output_0_split -> inception_4d/output_inception_4d/output_0_split_3
I1126 12:33:30.400662  9237 net.cpp:411] inception_4d/output_inception_4d/output_0_split -> inception_4d/output_inception_4d/output_0_split_4
I1126 12:33:30.400804  9237 net.cpp:150] Setting up inception_4d/output_inception_4d/output_0_split
I1126 12:33:30.400822  9237 net.cpp:157] Top shape: 64 528 14 14 (6623232)
I1126 12:33:30.400832  9237 net.cpp:157] Top shape: 64 528 14 14 (6623232)
I1126 12:33:30.400840  9237 net.cpp:157] Top shape: 64 528 14 14 (6623232)
I1126 12:33:30.400846  9237 net.cpp:157] Top shape: 64 528 14 14 (6623232)
I1126 12:33:30.400853  9237 net.cpp:157] Top shape: 64 528 14 14 (6623232)
I1126 12:33:30.400857  9237 net.cpp:165] Memory required for data: 3220968196
I1126 12:33:30.400863  9237 layer_factory.hpp:76] Creating layer loss2/ave_pool
I1126 12:33:30.400872  9237 net.cpp:106] Creating Layer loss2/ave_pool
I1126 12:33:30.400877  9237 net.cpp:454] loss2/ave_pool <- inception_4d/output_inception_4d/output_0_split_0
I1126 12:33:30.400887  9237 net.cpp:411] loss2/ave_pool -> loss2/ave_pool
I1126 12:33:30.401345  9237 net.cpp:150] Setting up loss2/ave_pool
I1126 12:33:30.401362  9237 net.cpp:157] Top shape: 64 528 4 4 (540672)
I1126 12:33:30.401370  9237 net.cpp:165] Memory required for data: 3223130884
I1126 12:33:30.401377  9237 layer_factory.hpp:76] Creating layer loss2/conv
I1126 12:33:30.401389  9237 net.cpp:106] Creating Layer loss2/conv
I1126 12:33:30.401398  9237 net.cpp:454] loss2/conv <- loss2/ave_pool
I1126 12:33:30.401409  9237 net.cpp:411] loss2/conv -> loss2/conv
I1126 12:33:30.403831  9237 net.cpp:150] Setting up loss2/conv
I1126 12:33:30.403849  9237 net.cpp:157] Top shape: 64 128 4 4 (131072)
I1126 12:33:30.403853  9237 net.cpp:165] Memory required for data: 3223655172
I1126 12:33:30.403863  9237 layer_factory.hpp:76] Creating layer loss2/relu_conv
I1126 12:33:30.403874  9237 net.cpp:106] Creating Layer loss2/relu_conv
I1126 12:33:30.403882  9237 net.cpp:454] loss2/relu_conv <- loss2/conv
I1126 12:33:30.403889  9237 net.cpp:397] loss2/relu_conv -> loss2/conv (in-place)
I1126 12:33:30.404476  9237 net.cpp:150] Setting up loss2/relu_conv
I1126 12:33:30.404491  9237 net.cpp:157] Top shape: 64 128 4 4 (131072)
I1126 12:33:30.404495  9237 net.cpp:165] Memory required for data: 3224179460
I1126 12:33:30.404498  9237 layer_factory.hpp:76] Creating layer loss2/fc
I1126 12:33:30.404507  9237 net.cpp:106] Creating Layer loss2/fc
I1126 12:33:30.404511  9237 net.cpp:454] loss2/fc <- loss2/conv
I1126 12:33:30.404517  9237 net.cpp:411] loss2/fc -> loss2/fc
I1126 12:33:30.424084  9237 net.cpp:150] Setting up loss2/fc
I1126 12:33:30.424111  9237 net.cpp:157] Top shape: 64 1024 (65536)
I1126 12:33:30.424119  9237 net.cpp:165] Memory required for data: 3224441604
I1126 12:33:30.424134  9237 layer_factory.hpp:76] Creating layer loss2/relu_fc
I1126 12:33:30.424146  9237 net.cpp:106] Creating Layer loss2/relu_fc
I1126 12:33:30.424154  9237 net.cpp:454] loss2/relu_fc <- loss2/fc
I1126 12:33:30.424165  9237 net.cpp:397] loss2/relu_fc -> loss2/fc (in-place)
I1126 12:33:30.424465  9237 net.cpp:150] Setting up loss2/relu_fc
I1126 12:33:30.424485  9237 net.cpp:157] Top shape: 64 1024 (65536)
I1126 12:33:30.424491  9237 net.cpp:165] Memory required for data: 3224703748
I1126 12:33:30.424497  9237 layer_factory.hpp:76] Creating layer loss2/drop_fc
I1126 12:33:30.424511  9237 net.cpp:106] Creating Layer loss2/drop_fc
I1126 12:33:30.424520  9237 net.cpp:454] loss2/drop_fc <- loss2/fc
I1126 12:33:30.424530  9237 net.cpp:397] loss2/drop_fc -> loss2/fc (in-place)
I1126 12:33:30.424576  9237 net.cpp:150] Setting up loss2/drop_fc
I1126 12:33:30.424584  9237 net.cpp:157] Top shape: 64 1024 (65536)
I1126 12:33:30.424587  9237 net.cpp:165] Memory required for data: 3224965892
I1126 12:33:30.424590  9237 layer_factory.hpp:76] Creating layer loss2/classifier-attribute
I1126 12:33:30.424597  9237 net.cpp:106] Creating Layer loss2/classifier-attribute
I1126 12:33:30.424602  9237 net.cpp:454] loss2/classifier-attribute <- loss2/fc
I1126 12:33:30.424607  9237 net.cpp:411] loss2/classifier-attribute -> loss2/classifier-attribute
I1126 12:33:30.506502  9237 net.cpp:150] Setting up loss2/classifier-attribute
I1126 12:33:30.506523  9237 net.cpp:157] Top shape: 64 9999 (639936)
I1126 12:33:30.506527  9237 net.cpp:165] Memory required for data: 3227525636
I1126 12:33:30.506536  9237 layer_factory.hpp:76] Creating layer loss2/loss
I1126 12:33:30.506546  9237 net.cpp:106] Creating Layer loss2/loss
I1126 12:33:30.506551  9237 net.cpp:454] loss2/loss <- loss2/classifier-attribute
I1126 12:33:30.506557  9237 net.cpp:454] loss2/loss <- label_data_1_split_1
I1126 12:33:30.506567  9237 net.cpp:411] loss2/loss -> loss2/loss1
I1126 12:33:30.506577  9237 layer_factory.hpp:76] Creating layer loss2/loss
I1126 12:33:30.508337  9237 net.cpp:150] Setting up loss2/loss
I1126 12:33:30.508352  9237 net.cpp:157] Top shape: (1)
I1126 12:33:30.508355  9237 net.cpp:160]     with loss weight 0.3
I1126 12:33:30.508365  9237 net.cpp:165] Memory required for data: 3227525640
I1126 12:33:30.508369  9237 layer_factory.hpp:76] Creating layer inception_4e/1x1
I1126 12:33:30.508380  9237 net.cpp:106] Creating Layer inception_4e/1x1
I1126 12:33:30.508385  9237 net.cpp:454] inception_4e/1x1 <- inception_4d/output_inception_4d/output_0_split_1
I1126 12:33:30.508391  9237 net.cpp:411] inception_4e/1x1 -> inception_4e/1x1
I1126 12:33:30.510408  9237 net.cpp:150] Setting up inception_4e/1x1
I1126 12:33:30.510424  9237 net.cpp:157] Top shape: 64 256 14 14 (3211264)
I1126 12:33:30.510428  9237 net.cpp:165] Memory required for data: 3240370696
I1126 12:33:30.510435  9237 layer_factory.hpp:76] Creating layer inception_4e/relu_1x1
I1126 12:33:30.510442  9237 net.cpp:106] Creating Layer inception_4e/relu_1x1
I1126 12:33:30.510445  9237 net.cpp:454] inception_4e/relu_1x1 <- inception_4e/1x1
I1126 12:33:30.510450  9237 net.cpp:397] inception_4e/relu_1x1 -> inception_4e/1x1 (in-place)
I1126 12:33:30.510624  9237 net.cpp:150] Setting up inception_4e/relu_1x1
I1126 12:33:30.510634  9237 net.cpp:157] Top shape: 64 256 14 14 (3211264)
I1126 12:33:30.510637  9237 net.cpp:165] Memory required for data: 3253215752
I1126 12:33:30.510642  9237 layer_factory.hpp:76] Creating layer inception_4e/3x3_reduce
I1126 12:33:30.510649  9237 net.cpp:106] Creating Layer inception_4e/3x3_reduce
I1126 12:33:30.510656  9237 net.cpp:454] inception_4e/3x3_reduce <- inception_4d/output_inception_4d/output_0_split_2
I1126 12:33:30.510669  9237 net.cpp:411] inception_4e/3x3_reduce -> inception_4e/3x3_reduce
I1126 12:33:30.512758  9237 net.cpp:150] Setting up inception_4e/3x3_reduce
I1126 12:33:30.512775  9237 net.cpp:157] Top shape: 64 160 14 14 (2007040)
I1126 12:33:30.512781  9237 net.cpp:165] Memory required for data: 3261243912
I1126 12:33:30.512791  9237 layer_factory.hpp:76] Creating layer inception_4e/relu_3x3_reduce
I1126 12:33:30.512804  9237 net.cpp:106] Creating Layer inception_4e/relu_3x3_reduce
I1126 12:33:30.512810  9237 net.cpp:454] inception_4e/relu_3x3_reduce <- inception_4e/3x3_reduce
I1126 12:33:30.512816  9237 net.cpp:397] inception_4e/relu_3x3_reduce -> inception_4e/3x3_reduce (in-place)
I1126 12:33:30.513136  9237 net.cpp:150] Setting up inception_4e/relu_3x3_reduce
I1126 12:33:30.513149  9237 net.cpp:157] Top shape: 64 160 14 14 (2007040)
I1126 12:33:30.513154  9237 net.cpp:165] Memory required for data: 3269272072
I1126 12:33:30.513157  9237 layer_factory.hpp:76] Creating layer inception_4e/3x3
I1126 12:33:30.513165  9237 net.cpp:106] Creating Layer inception_4e/3x3
I1126 12:33:30.513170  9237 net.cpp:454] inception_4e/3x3 <- inception_4e/3x3_reduce
I1126 12:33:30.513176  9237 net.cpp:411] inception_4e/3x3 -> inception_4e/3x3
I1126 12:33:30.517621  9237 net.cpp:150] Setting up inception_4e/3x3
I1126 12:33:30.517635  9237 net.cpp:157] Top shape: 64 320 14 14 (4014080)
I1126 12:33:30.517639  9237 net.cpp:165] Memory required for data: 3285328392
I1126 12:33:30.517645  9237 layer_factory.hpp:76] Creating layer inception_4e/relu_3x3
I1126 12:33:30.517652  9237 net.cpp:106] Creating Layer inception_4e/relu_3x3
I1126 12:33:30.517657  9237 net.cpp:454] inception_4e/relu_3x3 <- inception_4e/3x3
I1126 12:33:30.517664  9237 net.cpp:397] inception_4e/relu_3x3 -> inception_4e/3x3 (in-place)
I1126 12:33:30.517976  9237 net.cpp:150] Setting up inception_4e/relu_3x3
I1126 12:33:30.517987  9237 net.cpp:157] Top shape: 64 320 14 14 (4014080)
I1126 12:33:30.517992  9237 net.cpp:165] Memory required for data: 3301384712
I1126 12:33:30.517994  9237 layer_factory.hpp:76] Creating layer inception_4e/5x5_reduce
I1126 12:33:30.518004  9237 net.cpp:106] Creating Layer inception_4e/5x5_reduce
I1126 12:33:30.518009  9237 net.cpp:454] inception_4e/5x5_reduce <- inception_4d/output_inception_4d/output_0_split_3
I1126 12:33:30.518018  9237 net.cpp:411] inception_4e/5x5_reduce -> inception_4e/5x5_reduce
I1126 12:33:30.519218  9237 net.cpp:150] Setting up inception_4e/5x5_reduce
I1126 12:33:30.519232  9237 net.cpp:157] Top shape: 64 32 14 14 (401408)
I1126 12:33:30.519237  9237 net.cpp:165] Memory required for data: 3302990344
I1126 12:33:30.519243  9237 layer_factory.hpp:76] Creating layer inception_4e/relu_5x5_reduce
I1126 12:33:30.519250  9237 net.cpp:106] Creating Layer inception_4e/relu_5x5_reduce
I1126 12:33:30.519255  9237 net.cpp:454] inception_4e/relu_5x5_reduce <- inception_4e/5x5_reduce
I1126 12:33:30.519261  9237 net.cpp:397] inception_4e/relu_5x5_reduce -> inception_4e/5x5_reduce (in-place)
I1126 12:33:30.519445  9237 net.cpp:150] Setting up inception_4e/relu_5x5_reduce
I1126 12:33:30.519455  9237 net.cpp:157] Top shape: 64 32 14 14 (401408)
I1126 12:33:30.519459  9237 net.cpp:165] Memory required for data: 3304595976
I1126 12:33:30.519464  9237 layer_factory.hpp:76] Creating layer inception_4e/5x5
I1126 12:33:30.519490  9237 net.cpp:106] Creating Layer inception_4e/5x5
I1126 12:33:30.519495  9237 net.cpp:454] inception_4e/5x5 <- inception_4e/5x5_reduce
I1126 12:33:30.519502  9237 net.cpp:411] inception_4e/5x5 -> inception_4e/5x5
I1126 12:33:30.521229  9237 net.cpp:150] Setting up inception_4e/5x5
I1126 12:33:30.521241  9237 net.cpp:157] Top shape: 64 128 14 14 (1605632)
I1126 12:33:30.521256  9237 net.cpp:165] Memory required for data: 3311018504
I1126 12:33:30.521270  9237 layer_factory.hpp:76] Creating layer inception_4e/relu_5x5
I1126 12:33:30.521280  9237 net.cpp:106] Creating Layer inception_4e/relu_5x5
I1126 12:33:30.521284  9237 net.cpp:454] inception_4e/relu_5x5 <- inception_4e/5x5
I1126 12:33:30.521291  9237 net.cpp:397] inception_4e/relu_5x5 -> inception_4e/5x5 (in-place)
I1126 12:33:30.521615  9237 net.cpp:150] Setting up inception_4e/relu_5x5
I1126 12:33:30.521626  9237 net.cpp:157] Top shape: 64 128 14 14 (1605632)
I1126 12:33:30.521631  9237 net.cpp:165] Memory required for data: 3317441032
I1126 12:33:30.521634  9237 layer_factory.hpp:76] Creating layer inception_4e/pool
I1126 12:33:30.521643  9237 net.cpp:106] Creating Layer inception_4e/pool
I1126 12:33:30.521648  9237 net.cpp:454] inception_4e/pool <- inception_4d/output_inception_4d/output_0_split_4
I1126 12:33:30.521656  9237 net.cpp:411] inception_4e/pool -> inception_4e/pool
I1126 12:33:30.521872  9237 net.cpp:150] Setting up inception_4e/pool
I1126 12:33:30.521881  9237 net.cpp:157] Top shape: 64 528 14 14 (6623232)
I1126 12:33:30.521886  9237 net.cpp:165] Memory required for data: 3343933960
I1126 12:33:30.521890  9237 layer_factory.hpp:76] Creating layer inception_4e/pool_proj
I1126 12:33:30.521898  9237 net.cpp:106] Creating Layer inception_4e/pool_proj
I1126 12:33:30.521903  9237 net.cpp:454] inception_4e/pool_proj <- inception_4e/pool
I1126 12:33:30.521909  9237 net.cpp:411] inception_4e/pool_proj -> inception_4e/pool_proj
I1126 12:33:30.523437  9237 net.cpp:150] Setting up inception_4e/pool_proj
I1126 12:33:30.523452  9237 net.cpp:157] Top shape: 64 128 14 14 (1605632)
I1126 12:33:30.523455  9237 net.cpp:165] Memory required for data: 3350356488
I1126 12:33:30.523461  9237 layer_factory.hpp:76] Creating layer inception_4e/relu_pool_proj
I1126 12:33:30.523468  9237 net.cpp:106] Creating Layer inception_4e/relu_pool_proj
I1126 12:33:30.523474  9237 net.cpp:454] inception_4e/relu_pool_proj <- inception_4e/pool_proj
I1126 12:33:30.523480  9237 net.cpp:397] inception_4e/relu_pool_proj -> inception_4e/pool_proj (in-place)
I1126 12:33:30.523793  9237 net.cpp:150] Setting up inception_4e/relu_pool_proj
I1126 12:33:30.523805  9237 net.cpp:157] Top shape: 64 128 14 14 (1605632)
I1126 12:33:30.523810  9237 net.cpp:165] Memory required for data: 3356779016
I1126 12:33:30.523813  9237 layer_factory.hpp:76] Creating layer inception_4e/output
I1126 12:33:30.523821  9237 net.cpp:106] Creating Layer inception_4e/output
I1126 12:33:30.523826  9237 net.cpp:454] inception_4e/output <- inception_4e/1x1
I1126 12:33:30.523830  9237 net.cpp:454] inception_4e/output <- inception_4e/3x3
I1126 12:33:30.523835  9237 net.cpp:454] inception_4e/output <- inception_4e/5x5
I1126 12:33:30.523840  9237 net.cpp:454] inception_4e/output <- inception_4e/pool_proj
I1126 12:33:30.523844  9237 net.cpp:411] inception_4e/output -> inception_4e/output
I1126 12:33:30.523880  9237 net.cpp:150] Setting up inception_4e/output
I1126 12:33:30.523886  9237 net.cpp:157] Top shape: 64 832 14 14 (10436608)
I1126 12:33:30.523890  9237 net.cpp:165] Memory required for data: 3398525448
I1126 12:33:30.523892  9237 layer_factory.hpp:76] Creating layer pool4/3x3_s2
I1126 12:33:30.523900  9237 net.cpp:106] Creating Layer pool4/3x3_s2
I1126 12:33:30.523905  9237 net.cpp:454] pool4/3x3_s2 <- inception_4e/output
I1126 12:33:30.523910  9237 net.cpp:411] pool4/3x3_s2 -> pool4/3x3_s2
I1126 12:33:30.524126  9237 net.cpp:150] Setting up pool4/3x3_s2
I1126 12:33:30.524135  9237 net.cpp:157] Top shape: 64 832 7 7 (2609152)
I1126 12:33:30.524138  9237 net.cpp:165] Memory required for data: 3408962056
I1126 12:33:30.524142  9237 layer_factory.hpp:76] Creating layer pool4/3x3_s2_pool4/3x3_s2_0_split
I1126 12:33:30.524147  9237 net.cpp:106] Creating Layer pool4/3x3_s2_pool4/3x3_s2_0_split
I1126 12:33:30.524150  9237 net.cpp:454] pool4/3x3_s2_pool4/3x3_s2_0_split <- pool4/3x3_s2
I1126 12:33:30.524159  9237 net.cpp:411] pool4/3x3_s2_pool4/3x3_s2_0_split -> pool4/3x3_s2_pool4/3x3_s2_0_split_0
I1126 12:33:30.524168  9237 net.cpp:411] pool4/3x3_s2_pool4/3x3_s2_0_split -> pool4/3x3_s2_pool4/3x3_s2_0_split_1
I1126 12:33:30.524174  9237 net.cpp:411] pool4/3x3_s2_pool4/3x3_s2_0_split -> pool4/3x3_s2_pool4/3x3_s2_0_split_2
I1126 12:33:30.524179  9237 net.cpp:411] pool4/3x3_s2_pool4/3x3_s2_0_split -> pool4/3x3_s2_pool4/3x3_s2_0_split_3
I1126 12:33:30.524255  9237 net.cpp:150] Setting up pool4/3x3_s2_pool4/3x3_s2_0_split
I1126 12:33:30.524260  9237 net.cpp:157] Top shape: 64 832 7 7 (2609152)
I1126 12:33:30.524265  9237 net.cpp:157] Top shape: 64 832 7 7 (2609152)
I1126 12:33:30.524268  9237 net.cpp:157] Top shape: 64 832 7 7 (2609152)
I1126 12:33:30.524271  9237 net.cpp:157] Top shape: 64 832 7 7 (2609152)
I1126 12:33:30.524274  9237 net.cpp:165] Memory required for data: 3450708488
I1126 12:33:30.524277  9237 layer_factory.hpp:76] Creating layer inception_5a/1x1
I1126 12:33:30.524286  9237 net.cpp:106] Creating Layer inception_5a/1x1
I1126 12:33:30.524289  9237 net.cpp:454] inception_5a/1x1 <- pool4/3x3_s2_pool4/3x3_s2_0_split_0
I1126 12:33:30.524294  9237 net.cpp:411] inception_5a/1x1 -> inception_5a/1x1
I1126 12:33:30.527143  9237 net.cpp:150] Setting up inception_5a/1x1
I1126 12:33:30.527155  9237 net.cpp:157] Top shape: 64 256 7 7 (802816)
I1126 12:33:30.527159  9237 net.cpp:165] Memory required for data: 3453919752
I1126 12:33:30.527165  9237 layer_factory.hpp:76] Creating layer inception_5a/relu_1x1
I1126 12:33:30.527173  9237 net.cpp:106] Creating Layer inception_5a/relu_1x1
I1126 12:33:30.527178  9237 net.cpp:454] inception_5a/relu_1x1 <- inception_5a/1x1
I1126 12:33:30.527182  9237 net.cpp:397] inception_5a/relu_1x1 -> inception_5a/1x1 (in-place)
I1126 12:33:30.527492  9237 net.cpp:150] Setting up inception_5a/relu_1x1
I1126 12:33:30.527504  9237 net.cpp:157] Top shape: 64 256 7 7 (802816)
I1126 12:33:30.527508  9237 net.cpp:165] Memory required for data: 3457131016
I1126 12:33:30.527511  9237 layer_factory.hpp:76] Creating layer inception_5a/3x3_reduce
I1126 12:33:30.527521  9237 net.cpp:106] Creating Layer inception_5a/3x3_reduce
I1126 12:33:30.527526  9237 net.cpp:454] inception_5a/3x3_reduce <- pool4/3x3_s2_pool4/3x3_s2_0_split_1
I1126 12:33:30.527532  9237 net.cpp:411] inception_5a/3x3_reduce -> inception_5a/3x3_reduce
I1126 12:33:30.529889  9237 net.cpp:150] Setting up inception_5a/3x3_reduce
I1126 12:33:30.529903  9237 net.cpp:157] Top shape: 64 160 7 7 (501760)
I1126 12:33:30.529906  9237 net.cpp:165] Memory required for data: 3459138056
I1126 12:33:30.529912  9237 layer_factory.hpp:76] Creating layer inception_5a/relu_3x3_reduce
I1126 12:33:30.529919  9237 net.cpp:106] Creating Layer inception_5a/relu_3x3_reduce
I1126 12:33:30.529924  9237 net.cpp:454] inception_5a/relu_3x3_reduce <- inception_5a/3x3_reduce
I1126 12:33:30.529929  9237 net.cpp:397] inception_5a/relu_3x3_reduce -> inception_5a/3x3_reduce (in-place)
I1126 12:33:30.530247  9237 net.cpp:150] Setting up inception_5a/relu_3x3_reduce
I1126 12:33:30.530259  9237 net.cpp:157] Top shape: 64 160 7 7 (501760)
I1126 12:33:30.530262  9237 net.cpp:165] Memory required for data: 3461145096
I1126 12:33:30.530267  9237 layer_factory.hpp:76] Creating layer inception_5a/3x3
I1126 12:33:30.530277  9237 net.cpp:106] Creating Layer inception_5a/3x3
I1126 12:33:30.530282  9237 net.cpp:454] inception_5a/3x3 <- inception_5a/3x3_reduce
I1126 12:33:30.530287  9237 net.cpp:411] inception_5a/3x3 -> inception_5a/3x3
I1126 12:33:30.534950  9237 net.cpp:150] Setting up inception_5a/3x3
I1126 12:33:30.534965  9237 net.cpp:157] Top shape: 64 320 7 7 (1003520)
I1126 12:33:30.534970  9237 net.cpp:165] Memory required for data: 3465159176
I1126 12:33:30.534976  9237 layer_factory.hpp:76] Creating layer inception_5a/relu_3x3
I1126 12:33:30.534983  9237 net.cpp:106] Creating Layer inception_5a/relu_3x3
I1126 12:33:30.534987  9237 net.cpp:454] inception_5a/relu_3x3 <- inception_5a/3x3
I1126 12:33:30.534993  9237 net.cpp:397] inception_5a/relu_3x3 -> inception_5a/3x3 (in-place)
I1126 12:33:30.535172  9237 net.cpp:150] Setting up inception_5a/relu_3x3
I1126 12:33:30.535182  9237 net.cpp:157] Top shape: 64 320 7 7 (1003520)
I1126 12:33:30.535186  9237 net.cpp:165] Memory required for data: 3469173256
I1126 12:33:30.535189  9237 layer_factory.hpp:76] Creating layer inception_5a/5x5_reduce
I1126 12:33:30.535207  9237 net.cpp:106] Creating Layer inception_5a/5x5_reduce
I1126 12:33:30.535210  9237 net.cpp:454] inception_5a/5x5_reduce <- pool4/3x3_s2_pool4/3x3_s2_0_split_2
I1126 12:33:30.535218  9237 net.cpp:411] inception_5a/5x5_reduce -> inception_5a/5x5_reduce
I1126 12:33:30.536509  9237 net.cpp:150] Setting up inception_5a/5x5_reduce
I1126 12:33:30.536523  9237 net.cpp:157] Top shape: 64 32 7 7 (100352)
I1126 12:33:30.536526  9237 net.cpp:165] Memory required for data: 3469574664
I1126 12:33:30.536532  9237 layer_factory.hpp:76] Creating layer inception_5a/relu_5x5_reduce
I1126 12:33:30.536540  9237 net.cpp:106] Creating Layer inception_5a/relu_5x5_reduce
I1126 12:33:30.536543  9237 net.cpp:454] inception_5a/relu_5x5_reduce <- inception_5a/5x5_reduce
I1126 12:33:30.536552  9237 net.cpp:397] inception_5a/relu_5x5_reduce -> inception_5a/5x5_reduce (in-place)
I1126 12:33:30.536734  9237 net.cpp:150] Setting up inception_5a/relu_5x5_reduce
I1126 12:33:30.536744  9237 net.cpp:157] Top shape: 64 32 7 7 (100352)
I1126 12:33:30.536748  9237 net.cpp:165] Memory required for data: 3469976072
I1126 12:33:30.536751  9237 layer_factory.hpp:76] Creating layer inception_5a/5x5
I1126 12:33:30.536761  9237 net.cpp:106] Creating Layer inception_5a/5x5
I1126 12:33:30.536766  9237 net.cpp:454] inception_5a/5x5 <- inception_5a/5x5_reduce
I1126 12:33:30.536772  9237 net.cpp:411] inception_5a/5x5 -> inception_5a/5x5
I1126 12:33:30.538537  9237 net.cpp:150] Setting up inception_5a/5x5
I1126 12:33:30.538549  9237 net.cpp:157] Top shape: 64 128 7 7 (401408)
I1126 12:33:30.538553  9237 net.cpp:165] Memory required for data: 3471581704
I1126 12:33:30.538559  9237 layer_factory.hpp:76] Creating layer inception_5a/relu_5x5
I1126 12:33:30.538564  9237 net.cpp:106] Creating Layer inception_5a/relu_5x5
I1126 12:33:30.538568  9237 net.cpp:454] inception_5a/relu_5x5 <- inception_5a/5x5
I1126 12:33:30.538574  9237 net.cpp:397] inception_5a/relu_5x5 -> inception_5a/5x5 (in-place)
I1126 12:33:30.538919  9237 net.cpp:150] Setting up inception_5a/relu_5x5
I1126 12:33:30.538933  9237 net.cpp:157] Top shape: 64 128 7 7 (401408)
I1126 12:33:30.538935  9237 net.cpp:165] Memory required for data: 3473187336
I1126 12:33:30.538939  9237 layer_factory.hpp:76] Creating layer inception_5a/pool
I1126 12:33:30.538947  9237 net.cpp:106] Creating Layer inception_5a/pool
I1126 12:33:30.538951  9237 net.cpp:454] inception_5a/pool <- pool4/3x3_s2_pool4/3x3_s2_0_split_3
I1126 12:33:30.538956  9237 net.cpp:411] inception_5a/pool -> inception_5a/pool
I1126 12:33:30.539172  9237 net.cpp:150] Setting up inception_5a/pool
I1126 12:33:30.539182  9237 net.cpp:157] Top shape: 64 832 7 7 (2609152)
I1126 12:33:30.539186  9237 net.cpp:165] Memory required for data: 3483623944
I1126 12:33:30.539189  9237 layer_factory.hpp:76] Creating layer inception_5a/pool_proj
I1126 12:33:30.539201  9237 net.cpp:106] Creating Layer inception_5a/pool_proj
I1126 12:33:30.539206  9237 net.cpp:454] inception_5a/pool_proj <- inception_5a/pool
I1126 12:33:30.539211  9237 net.cpp:411] inception_5a/pool_proj -> inception_5a/pool_proj
I1126 12:33:30.541424  9237 net.cpp:150] Setting up inception_5a/pool_proj
I1126 12:33:30.541438  9237 net.cpp:157] Top shape: 64 128 7 7 (401408)
I1126 12:33:30.541441  9237 net.cpp:165] Memory required for data: 3485229576
I1126 12:33:30.541447  9237 layer_factory.hpp:76] Creating layer inception_5a/relu_pool_proj
I1126 12:33:30.541455  9237 net.cpp:106] Creating Layer inception_5a/relu_pool_proj
I1126 12:33:30.541460  9237 net.cpp:454] inception_5a/relu_pool_proj <- inception_5a/pool_proj
I1126 12:33:30.541465  9237 net.cpp:397] inception_5a/relu_pool_proj -> inception_5a/pool_proj (in-place)
I1126 12:33:30.541784  9237 net.cpp:150] Setting up inception_5a/relu_pool_proj
I1126 12:33:30.541796  9237 net.cpp:157] Top shape: 64 128 7 7 (401408)
I1126 12:33:30.541800  9237 net.cpp:165] Memory required for data: 3486835208
I1126 12:33:30.541803  9237 layer_factory.hpp:76] Creating layer inception_5a/output
I1126 12:33:30.541810  9237 net.cpp:106] Creating Layer inception_5a/output
I1126 12:33:30.541815  9237 net.cpp:454] inception_5a/output <- inception_5a/1x1
I1126 12:33:30.541820  9237 net.cpp:454] inception_5a/output <- inception_5a/3x3
I1126 12:33:30.541823  9237 net.cpp:454] inception_5a/output <- inception_5a/5x5
I1126 12:33:30.541827  9237 net.cpp:454] inception_5a/output <- inception_5a/pool_proj
I1126 12:33:30.541831  9237 net.cpp:411] inception_5a/output -> inception_5a/output
I1126 12:33:30.541869  9237 net.cpp:150] Setting up inception_5a/output
I1126 12:33:30.541877  9237 net.cpp:157] Top shape: 64 832 7 7 (2609152)
I1126 12:33:30.541879  9237 net.cpp:165] Memory required for data: 3497271816
I1126 12:33:30.541882  9237 layer_factory.hpp:76] Creating layer inception_5a/output_inception_5a/output_0_split
I1126 12:33:30.541888  9237 net.cpp:106] Creating Layer inception_5a/output_inception_5a/output_0_split
I1126 12:33:30.541892  9237 net.cpp:454] inception_5a/output_inception_5a/output_0_split <- inception_5a/output
I1126 12:33:30.541898  9237 net.cpp:411] inception_5a/output_inception_5a/output_0_split -> inception_5a/output_inception_5a/output_0_split_0
I1126 12:33:30.541904  9237 net.cpp:411] inception_5a/output_inception_5a/output_0_split -> inception_5a/output_inception_5a/output_0_split_1
I1126 12:33:30.541911  9237 net.cpp:411] inception_5a/output_inception_5a/output_0_split -> inception_5a/output_inception_5a/output_0_split_2
I1126 12:33:30.541916  9237 net.cpp:411] inception_5a/output_inception_5a/output_0_split -> inception_5a/output_inception_5a/output_0_split_3
I1126 12:33:30.541996  9237 net.cpp:150] Setting up inception_5a/output_inception_5a/output_0_split
I1126 12:33:30.542002  9237 net.cpp:157] Top shape: 64 832 7 7 (2609152)
I1126 12:33:30.542006  9237 net.cpp:157] Top shape: 64 832 7 7 (2609152)
I1126 12:33:30.542009  9237 net.cpp:157] Top shape: 64 832 7 7 (2609152)
I1126 12:33:30.542013  9237 net.cpp:157] Top shape: 64 832 7 7 (2609152)
I1126 12:33:30.542016  9237 net.cpp:165] Memory required for data: 3539018248
I1126 12:33:30.542018  9237 layer_factory.hpp:76] Creating layer inception_5b/1x1
I1126 12:33:30.542027  9237 net.cpp:106] Creating Layer inception_5b/1x1
I1126 12:33:30.542032  9237 net.cpp:454] inception_5b/1x1 <- inception_5a/output_inception_5a/output_0_split_0
I1126 12:33:30.542037  9237 net.cpp:411] inception_5b/1x1 -> inception_5b/1x1
I1126 12:33:30.545605  9237 net.cpp:150] Setting up inception_5b/1x1
I1126 12:33:30.545620  9237 net.cpp:157] Top shape: 64 384 7 7 (1204224)
I1126 12:33:30.545624  9237 net.cpp:165] Memory required for data: 3543835144
I1126 12:33:30.545630  9237 layer_factory.hpp:76] Creating layer inception_5b/relu_1x1
I1126 12:33:30.545636  9237 net.cpp:106] Creating Layer inception_5b/relu_1x1
I1126 12:33:30.545640  9237 net.cpp:454] inception_5b/relu_1x1 <- inception_5b/1x1
I1126 12:33:30.545645  9237 net.cpp:397] inception_5b/relu_1x1 -> inception_5b/1x1 (in-place)
I1126 12:33:30.545960  9237 net.cpp:150] Setting up inception_5b/relu_1x1
I1126 12:33:30.545972  9237 net.cpp:157] Top shape: 64 384 7 7 (1204224)
I1126 12:33:30.545976  9237 net.cpp:165] Memory required for data: 3548652040
I1126 12:33:30.545979  9237 layer_factory.hpp:76] Creating layer inception_5b/3x3_reduce
I1126 12:33:30.545987  9237 net.cpp:106] Creating Layer inception_5b/3x3_reduce
I1126 12:33:30.545991  9237 net.cpp:454] inception_5b/3x3_reduce <- inception_5a/output_inception_5a/output_0_split_1
I1126 12:33:30.545997  9237 net.cpp:411] inception_5b/3x3_reduce -> inception_5b/3x3_reduce
I1126 12:33:30.548566  9237 net.cpp:150] Setting up inception_5b/3x3_reduce
I1126 12:33:30.548581  9237 net.cpp:157] Top shape: 64 192 7 7 (602112)
I1126 12:33:30.548584  9237 net.cpp:165] Memory required for data: 3551060488
I1126 12:33:30.548591  9237 layer_factory.hpp:76] Creating layer inception_5b/relu_3x3_reduce
I1126 12:33:30.548598  9237 net.cpp:106] Creating Layer inception_5b/relu_3x3_reduce
I1126 12:33:30.548601  9237 net.cpp:454] inception_5b/relu_3x3_reduce <- inception_5b/3x3_reduce
I1126 12:33:30.548609  9237 net.cpp:397] inception_5b/relu_3x3_reduce -> inception_5b/3x3_reduce (in-place)
I1126 12:33:30.548789  9237 net.cpp:150] Setting up inception_5b/relu_3x3_reduce
I1126 12:33:30.548799  9237 net.cpp:157] Top shape: 64 192 7 7 (602112)
I1126 12:33:30.548802  9237 net.cpp:165] Memory required for data: 3553468936
I1126 12:33:30.548805  9237 layer_factory.hpp:76] Creating layer inception_5b/3x3
I1126 12:33:30.548813  9237 net.cpp:106] Creating Layer inception_5b/3x3
I1126 12:33:30.548817  9237 net.cpp:454] inception_5b/3x3 <- inception_5b/3x3_reduce
I1126 12:33:30.548823  9237 net.cpp:411] inception_5b/3x3 -> inception_5b/3x3
I1126 12:33:30.555131  9237 net.cpp:150] Setting up inception_5b/3x3
I1126 12:33:30.555148  9237 net.cpp:157] Top shape: 64 384 7 7 (1204224)
I1126 12:33:30.555152  9237 net.cpp:165] Memory required for data: 3558285832
I1126 12:33:30.555158  9237 layer_factory.hpp:76] Creating layer inception_5b/relu_3x3
I1126 12:33:30.555166  9237 net.cpp:106] Creating Layer inception_5b/relu_3x3
I1126 12:33:30.555171  9237 net.cpp:454] inception_5b/relu_3x3 <- inception_5b/3x3
I1126 12:33:30.555177  9237 net.cpp:397] inception_5b/relu_3x3 -> inception_5b/3x3 (in-place)
I1126 12:33:30.555507  9237 net.cpp:150] Setting up inception_5b/relu_3x3
I1126 12:33:30.555523  9237 net.cpp:157] Top shape: 64 384 7 7 (1204224)
I1126 12:33:30.555527  9237 net.cpp:165] Memory required for data: 3563102728
I1126 12:33:30.555531  9237 layer_factory.hpp:76] Creating layer inception_5b/5x5_reduce
I1126 12:33:30.555541  9237 net.cpp:106] Creating Layer inception_5b/5x5_reduce
I1126 12:33:30.555546  9237 net.cpp:454] inception_5b/5x5_reduce <- inception_5a/output_inception_5a/output_0_split_2
I1126 12:33:30.555553  9237 net.cpp:411] inception_5b/5x5_reduce -> inception_5b/5x5_reduce
I1126 12:33:30.557235  9237 net.cpp:150] Setting up inception_5b/5x5_reduce
I1126 12:33:30.557250  9237 net.cpp:157] Top shape: 64 48 7 7 (150528)
I1126 12:33:30.557252  9237 net.cpp:165] Memory required for data: 3563704840
I1126 12:33:30.557258  9237 layer_factory.hpp:76] Creating layer inception_5b/relu_5x5_reduce
I1126 12:33:30.557265  9237 net.cpp:106] Creating Layer inception_5b/relu_5x5_reduce
I1126 12:33:30.557271  9237 net.cpp:454] inception_5b/relu_5x5_reduce <- inception_5b/5x5_reduce
I1126 12:33:30.557276  9237 net.cpp:397] inception_5b/relu_5x5_reduce -> inception_5b/5x5_reduce (in-place)
I1126 12:33:30.557597  9237 net.cpp:150] Setting up inception_5b/relu_5x5_reduce
I1126 12:33:30.557610  9237 net.cpp:157] Top shape: 64 48 7 7 (150528)
I1126 12:33:30.557612  9237 net.cpp:165] Memory required for data: 3564306952
I1126 12:33:30.557616  9237 layer_factory.hpp:76] Creating layer inception_5b/5x5
I1126 12:33:30.557626  9237 net.cpp:106] Creating Layer inception_5b/5x5
I1126 12:33:30.557631  9237 net.cpp:454] inception_5b/5x5 <- inception_5b/5x5_reduce
I1126 12:33:30.557636  9237 net.cpp:411] inception_5b/5x5 -> inception_5b/5x5
I1126 12:33:30.559890  9237 net.cpp:150] Setting up inception_5b/5x5
I1126 12:33:30.559906  9237 net.cpp:157] Top shape: 64 128 7 7 (401408)
I1126 12:33:30.559908  9237 net.cpp:165] Memory required for data: 3565912584
I1126 12:33:30.559916  9237 layer_factory.hpp:76] Creating layer inception_5b/relu_5x5
I1126 12:33:30.559921  9237 net.cpp:106] Creating Layer inception_5b/relu_5x5
I1126 12:33:30.559926  9237 net.cpp:454] inception_5b/relu_5x5 <- inception_5b/5x5
I1126 12:33:30.559931  9237 net.cpp:397] inception_5b/relu_5x5 -> inception_5b/5x5 (in-place)
I1126 12:33:30.560120  9237 net.cpp:150] Setting up inception_5b/relu_5x5
I1126 12:33:30.560130  9237 net.cpp:157] Top shape: 64 128 7 7 (401408)
I1126 12:33:30.560133  9237 net.cpp:165] Memory required for data: 3567518216
I1126 12:33:30.560137  9237 layer_factory.hpp:76] Creating layer inception_5b/pool
I1126 12:33:30.560142  9237 net.cpp:106] Creating Layer inception_5b/pool
I1126 12:33:30.560148  9237 net.cpp:454] inception_5b/pool <- inception_5a/output_inception_5a/output_0_split_3
I1126 12:33:30.560153  9237 net.cpp:411] inception_5b/pool -> inception_5b/pool
I1126 12:33:30.560518  9237 net.cpp:150] Setting up inception_5b/pool
I1126 12:33:30.560529  9237 net.cpp:157] Top shape: 64 832 7 7 (2609152)
I1126 12:33:30.560533  9237 net.cpp:165] Memory required for data: 3577954824
I1126 12:33:30.560536  9237 layer_factory.hpp:76] Creating layer inception_5b/pool_proj
I1126 12:33:30.560544  9237 net.cpp:106] Creating Layer inception_5b/pool_proj
I1126 12:33:30.560549  9237 net.cpp:454] inception_5b/pool_proj <- inception_5b/pool
I1126 12:33:30.560556  9237 net.cpp:411] inception_5b/pool_proj -> inception_5b/pool_proj
I1126 12:33:30.562789  9237 net.cpp:150] Setting up inception_5b/pool_proj
I1126 12:33:30.562803  9237 net.cpp:157] Top shape: 64 128 7 7 (401408)
I1126 12:33:30.562806  9237 net.cpp:165] Memory required for data: 3579560456
I1126 12:33:30.562813  9237 layer_factory.hpp:76] Creating layer inception_5b/relu_pool_proj
I1126 12:33:30.562819  9237 net.cpp:106] Creating Layer inception_5b/relu_pool_proj
I1126 12:33:30.562824  9237 net.cpp:454] inception_5b/relu_pool_proj <- inception_5b/pool_proj
I1126 12:33:30.562829  9237 net.cpp:397] inception_5b/relu_pool_proj -> inception_5b/pool_proj (in-place)
I1126 12:33:30.563021  9237 net.cpp:150] Setting up inception_5b/relu_pool_proj
I1126 12:33:30.563032  9237 net.cpp:157] Top shape: 64 128 7 7 (401408)
I1126 12:33:30.563035  9237 net.cpp:165] Memory required for data: 3581166088
I1126 12:33:30.563040  9237 layer_factory.hpp:76] Creating layer inception_5b/output
I1126 12:33:30.563046  9237 net.cpp:106] Creating Layer inception_5b/output
I1126 12:33:30.563051  9237 net.cpp:454] inception_5b/output <- inception_5b/1x1
I1126 12:33:30.563055  9237 net.cpp:454] inception_5b/output <- inception_5b/3x3
I1126 12:33:30.563060  9237 net.cpp:454] inception_5b/output <- inception_5b/5x5
I1126 12:33:30.563063  9237 net.cpp:454] inception_5b/output <- inception_5b/pool_proj
I1126 12:33:30.563067  9237 net.cpp:411] inception_5b/output -> inception_5b/output
I1126 12:33:30.563105  9237 net.cpp:150] Setting up inception_5b/output
I1126 12:33:30.563112  9237 net.cpp:157] Top shape: 64 1024 7 7 (3211264)
I1126 12:33:30.563115  9237 net.cpp:165] Memory required for data: 3594011144
I1126 12:33:30.563118  9237 layer_factory.hpp:76] Creating layer pool5/7x7_s1
I1126 12:33:30.563124  9237 net.cpp:106] Creating Layer pool5/7x7_s1
I1126 12:33:30.563127  9237 net.cpp:454] pool5/7x7_s1 <- inception_5b/output
I1126 12:33:30.563133  9237 net.cpp:411] pool5/7x7_s1 -> pool5/7x7_s1
I1126 12:33:30.563478  9237 net.cpp:150] Setting up pool5/7x7_s1
I1126 12:33:30.563493  9237 net.cpp:157] Top shape: 64 1024 1 1 (65536)
I1126 12:33:30.563498  9237 net.cpp:165] Memory required for data: 3594273288
I1126 12:33:30.563504  9237 layer_factory.hpp:76] Creating layer pool5/drop_7x7_s1
I1126 12:33:30.563515  9237 net.cpp:106] Creating Layer pool5/drop_7x7_s1
I1126 12:33:30.563525  9237 net.cpp:454] pool5/drop_7x7_s1 <- pool5/7x7_s1
I1126 12:33:30.563531  9237 net.cpp:397] pool5/drop_7x7_s1 -> pool5/7x7_s1 (in-place)
I1126 12:33:30.563570  9237 net.cpp:150] Setting up pool5/drop_7x7_s1
I1126 12:33:30.563576  9237 net.cpp:157] Top shape: 64 1024 1 1 (65536)
I1126 12:33:30.563580  9237 net.cpp:165] Memory required for data: 3594535432
I1126 12:33:30.563583  9237 layer_factory.hpp:76] Creating layer loss3/classifier-attribute
I1126 12:33:30.563590  9237 net.cpp:106] Creating Layer loss3/classifier-attribute
I1126 12:33:30.563594  9237 net.cpp:454] loss3/classifier-attribute <- pool5/7x7_s1
I1126 12:33:30.563602  9237 net.cpp:411] loss3/classifier-attribute -> loss3/classifier-attribute
I1126 12:33:30.640828  9237 net.cpp:150] Setting up loss3/classifier-attribute
I1126 12:33:30.640851  9237 net.cpp:157] Top shape: 64 9999 (639936)
I1126 12:33:30.640854  9237 net.cpp:165] Memory required for data: 3597095176
I1126 12:33:30.640863  9237 layer_factory.hpp:76] Creating layer loss3/loss3
I1126 12:33:30.640874  9237 net.cpp:106] Creating Layer loss3/loss3
I1126 12:33:30.640880  9237 net.cpp:454] loss3/loss3 <- loss3/classifier-attribute
I1126 12:33:30.640889  9237 net.cpp:454] loss3/loss3 <- label_data_1_split_2
I1126 12:33:30.640895  9237 net.cpp:411] loss3/loss3 -> loss3/loss3
…
I1126 12:33:30.651697  9237 net.cpp:322] The NetState phase (1) differed from the phase (0) specified by a rule in layer data
I1126 12:33:30.652652  9237 net.cpp:49] Initializing net from parameters: 
name: "GoogleNet-finetune-for-cigit"
state {
  phase: TEST
}
layer {
  name: "data"
  type: "ImageData"
  top: "data"
  top: "label"
  include {
    phase: TEST
  }
  transform_param {
    mirror: false
    crop_size: 224
    mean_value: 104
    mean_value: 117
    mean_value: 123
  }
  image_data_param {
    source: "pad_test.txt"
    batch_size: 64
    new_height: 256
    new_width: 256
  }
}
layer {
  name: "conv1/7x7_s2"
  type: "Convolution"
  bottom: "data"
  top: "conv1/7x7_s2"
  param {
    lr_mult: 1
    decay_mult: 1
  }
  param {
    lr_mult: 2
    decay_mult: 0
  }
  convolution_param {
    num_output: 64
    pad: 3
    kernel_size: 7
    stride: 2
    weight_filler {
      type: "xavier"
    }
    bias_filler {
      type: "constant"
      value: 0.2
    }
  }
}
layer {
  name: "conv1/relu_7x7"
  type: "ReLU"
  bottom: "conv1/7x7_s2"
  top: "conv1/7x7_s2"
}
layer {
  name: "pool1/3x3_s2"
  type: "Pooling"
  bottom: "conv1/7x7_s2"
  top: "pool1/3x3_s2"
  pooling_param {
    pool: MAX
    kernel_size: 3
    stride: 2
  }
}
layer {
  name: "pool1/norm1"
  type: "LRN"
  bottom: "pool1/3x3_s2"
  top: "pool1/norm1"
  lrn_param {
    local_size: 5
    alpha: 0.0001
    beta: 0.75
  }
}
layer {
  name: "conv2/3x3_reduce"
  type: "Convolution"
  bottom: "pool1/norm1"
  top: "conv2/3x3_reduce"
  param {
    lr_mult: 1
    decay_mult: 1
  }
  param {
    lr_mult: 2
    decay_mult: 0
  }
  convolution_param {
    num_output: 64
    kernel_size: 1
    weight_filler {
      type: "xavier"
    }
    bias_filler {
      type: "constant"
      value: 0.2
    }
  }
}
layer {
  name: "conv2/relu_3x3_reduce"
  type: "ReLU"
  bottom: "conv2/3x3_reduce"
  top: "conv2/3x3_reduce"
}
layer {
  name: "conv2/3x3"
  type: "Convolution"
  bottom: "conv2/3x3_reduce"
  top: "conv2/3x3"
  param {
    lr_mult: 1
    decay_mult: 1
  }
  param {
    lr_mult: 2
    decay_mult: 0
  }
  convolution_param {
    num_output: 192
    pad: 1
    kernel_size: 3
    weight_filler {
      type: "xavier"
    }
    bias_filler {
      type: "constant"
      value: 0.2
    }
  }
}
layer {
  name: "conv2/relu_3x3"
  type: "ReLU"
  bottom: "conv2/3x3"
  top: "conv2/3x3"
}
layer {
  name: "conv2/norm2"
  type: "LRN"
  bottom: "conv2/3x3"
  top: "conv2/norm2"
  lrn_param {
    local_size: 5
    alpha: 0.0001
    beta: 0.75
  }
}
layer {
  name: "pool2/3x3_s2"
  type: "Pooling"
  bottom: "conv2/norm2"
  top: "pool2/3x3_s2"
  pooling_param {
    pool: MAX
    kernel_size: 3
    stride: 2
  }
}
layer {
  name: "inception_3a/1x1"
  type: "Convolution"
  bottom: "pool2/3x3_s2"
  top: "inception_3a/1x1"
  param {
    lr_mult: 1
    decay_mult: 1
  }
  param {
    lr_mult: 2
    decay_mult: 0
  }
  convolution_param {
    num_output: 64
    kernel_size: 1
    weight_filler {
      type: "xavier"
    }
    bias_filler {
      type: "constant"
      value: 0.2
    }
  }
}
layer {
  name: "inception_3a/relu_1x1"
  type: "ReLU"
  bottom: "inception_3a/1x1"
  top: "inception_3a/1x1"
}
layer {
  name: "inception_3a/3x3_reduce"
  type: "Convolution"
  bottom: "pool2/3x3_s2"
  top: "inception_3a/3x3_reduce"
  param {
    lr_mult: 1
    decay_mult: 1
  }
  param {
    lr_mult: 2
    decay_mult: 0
  }
  convolution_param {
    num_output: 96
    kernel_size: 1
    weight_filler {
      type: "xavier"
    }
    bias_filler {
      type: "constant"
      value: 0.2
    }
  }
}
layer {
  name: "inception_3a/relu_3x3_reduce"
  type: "ReLU"
  bottom: "inception_3a/3x3_reduce"
  top: "inception_3a/3x3_reduce"
}
layer {
  name: "inception_3a/3x3"
  type: "Convolution"
  bottom: "inception_3a/3x3_reduce"
  top: "inception_3a/3x3"
  param {
    lr_mult: 1
    decay_mult: 1
  }
  param {
    lr_mult: 2
    decay_mult: 0
  }
  convolution_param {
    num_output: 128
    pad: 1
    kernel_size: 3
    weight_filler {
      type: "xavier"
    }
    bias_filler {
      type: "constant"
      value: 0.2
    }
  }
}
layer {
  name: "inception_3a/relu_3x3"
  type: "ReLU"
  bottom: "inception_3a/3x3"
  top: "inception_3a/3x3"
}
layer {
  name: "inception_3a/5x5_reduce"
  type: "Convolution"
  bottom: "pool2/3x3_s2"
  top: "inception_3a/5x5_reduce"
  param {
    lr_mult: 1
    decay_mult: 1
  }
  param {
    lr_mult: 2
    decay_mult: 0
  }
  convolution_param {
    num_output: 16
    kernel_size: 1
    weight_filler {
      type: "xavier"
    }
    bias_filler {
      type: "constant"
      value: 0.2
    }
  }
}
layer {
  name: "inception_3a/relu_5x5_reduce"
  type: "ReLU"
  bottom: "inception_3a/5x5_reduce"
  top: "inception_3a/5x5_reduce"
}
layer {
  name: "inception_3a/5x5"
  type: "Convolution"
  bottom: "inception_3a/5x5_reduce"
  top: "inception_3a/5x5"
  param {
    lr_mult: 1
    decay_mult: 1
  }
  param {
    lr_mult: 2
    decay_mult: 0
  }
  convolution_param {
    num_output: 32
    pad: 2
    kernel_size: 5
    weight_filler {
      type: "xavier"
    }
    bias_filler {
      type: "constant"
      value: 0.2
    }
  }
}
layer {
  name: "inception_3a/relu_5x5"
  type: "ReLU"
  bottom: "inception_3a/5x5"
  top: "inception_3a/5x5"
}
layer {
  name: "inception_3a/pool"
  type: "Pooling"
  bottom: "pool2/3x3_s2"
  top: "inception_3a/pool"
  pooling_param {
    pool: MAX
    kernel_size: 3
    stride: 1
    pad: 1
  }
}
layer {
  name: "inception_3a/pool_proj"
  type: "Convolution"
  bottom: "inception_3a/pool"
  top: "inception_3a/pool_proj"
  param {
    lr_mult: 1
    decay_mult: 1
  }
  param {
    lr_mult: 2
    decay_mult: 0
  }
  convolution_param {
    num_output: 32
    kernel_size: 1
    weight_filler {
      type: "xavier"
    }
    bias_filler {
      type: "constant"
      value: 0.2
    }
  }
}
layer {
  name: "inception_3a/relu_pool_proj"
  type: "ReLU"
  bottom: "inception_3a/pool_proj"
  top: "inception_3a/pool_proj"
}
layer {
  name: "inception_3a/output"
  type: "Concat"
  bottom: "inception_3a/1x1"
  bottom: "inception_3a/3x3"
  bottom: "inception_3a/5x5"
  bottom: "inception_3a/pool_proj"
  top: "inception_3a/output"
}
layer {
  name: "inception_3b/1x1"
  type: "Convolution"
  bottom: "inception_3a/output"
  top: "inception_3b/1x1"
  param {
    lr_mult: 1
    decay_mult: 1
  }
  param {
    lr_mult: 2
    decay_mult: 0
  }
  convolution_param {
    num_output: 128
    kernel_size: 1
    weight_filler {
      type: "xavier"
    }
    bias_filler {
      type: "constant"
      value: 0.2
    }
  }
}
layer {
  name: "inception_3b/relu_1x1"
  type: "ReLU"
  bottom: "inception_3b/1x1"
  top: "inception_3b/1x1"
}
layer {
  name: "inception_3b/3x3_reduce"
  type: "Convolution"
  bottom: "inception_3a/output"
  top: "inception_3b/3x3_reduce"
  param {
    lr_mult: 1
    decay_mult: 1
  }
  param {
    lr_mult: 2
    decay_mult: 0
  }
  convolution_param {
    num_output: 128
    kernel_size: 1
    weight_filler {
      type: "xavier"
    }
    bias_filler {
      type: "constant"
      value: 0.2
    }
  }
}
layer {
  name: "inception_3b/relu_3x3_reduce"
  type: "ReLU"
  bottom: "inception_3b/3x3_reduce"
  top: "inception_3b/3x3_reduce"
}
layer {
  name: "inception_3b/3x3"
  type: "Convolution"
  bottom: "inception_3b/3x3_reduce"
  top: "inception_3b/3x3"
  param {
    lr_mult: 1
    decay_mult: 1
  }
  param {
    lr_mult: 2
    decay_mult: 0
  }
  convolution_param {
    num_output: 192
    pad: 1
    kernel_size: 3
    weight_filler {
      type: "xavier"
    }
    bias_filler {
      type: "constant"
      value: 0.2
    }
  }
}
layer {
  name: "inception_3b/relu_3x3"
  type: "ReLU"
  bottom: "inception_3b/3x3"
  top: "inception_3b/3x3"
}
layer {
  name: "inception_3b/5x5_reduce"
  type: "Convolution"
  bottom: "inception_3a/output"
  top: "inception_3b/5x5_reduce"
  param {
    lr_mult: 1
    decay_mult: 1
  }
  param {
    lr_mult: 2
    decay_mult: 0
  }
  convolution_param {
    num_output: 32
    kernel_size: 1
    weight_filler {
      type: "xavier"
    }
    bias_filler {
      type: "constant"
      value: 0.2
    }
  }
}
layer {
  name: "inception_3b/relu_5x5_reduce"
  type: "ReLU"
  bottom: "inception_3b/5x5_reduce"
  top: "inception_3b/5x5_reduce"
}
layer {
  name: "inception_3b/5x5"
  type: "Convolution"
  bottom: "inception_3b/5x5_reduce"
  top: "inception_3b/5x5"
  param {
    lr_mult: 1
    decay_mult: 1
  }
  param {
    lr_mult: 2
    decay_mult: 0
  }
  convolution_param {
    num_output: 96
    pad: 2
    kernel_size: 5
    weight_filler {
      type: "xavier"
    }
    bias_filler {
      type: "constant"
      value: 0.2
    }
  }
}
layer {
  name: "inception_3b/relu_5x5"
  type: "ReLU"
  bottom: "inception_3b/5x5"
  top: "inception_3b/5x5"
}
layer {
  name: "inception_3b/pool"
  type: "Pooling"
  bottom: "inception_3a/output"
  top: "inception_3b/pool"
  pooling_param {
    pool: MAX
    kernel_size: 3
    stride: 1
    pad: 1
  }
}
layer {
  name: "inception_3b/pool_proj"
  type: "Convolution"
  bottom: "inception_3b/pool"
  top: "inception_3b/pool_proj"
  param {
    lr_mult: 1
    decay_mult: 1
  }
  param {
    lr_mult: 2
    decay_mult: 0
  }
  convolution_param {
    num_output: 64
    kernel_size: 1
    weight_filler {
      type: "xavier"
    }
    bias_filler {
      type: "constant"
      value: 0.2
    }
  }
}
layer {
  name: "inception_3b/relu_pool_proj"
  type: "ReLU"
  bottom: "inception_3b/pool_proj"
  top: "inception_3b/pool_proj"
}
layer {
  name: "inception_3b/output"
  type: "Concat"
  bottom: "inception_3b/1x1"
  bottom: "inception_3b/3x3"
  bottom: "inception_3b/5x5"
  bottom: "inception_3b/pool_proj"
  top: "inception_3b/output"
}
layer {
  name: "pool3/3x3_s2"
  type: "Pooling"
  bottom: "inception_3b/output"
  top: "pool3/3x3_s2"
  pooling_param {
    pool: MAX
    kernel_size: 3
    stride: 2
  }
}
layer {
  name: "inception_4a/1x1"
  type: "Convolution"
  bottom: "pool3/3x3_s2"
  top: "inception_4a/1x1"
  param {
    lr_mult: 1
    decay_mult: 1
  }
  param {
    lr_mult: 2
    decay_mult: 0
  }
  convolution_param {
    num_output: 192
    kernel_size: 1
    weight_filler {
      type: "xavier"
    }
    bias_filler {
      type: "constant"
      value: 0.2
    }
  }
}
layer {
  name: "inception_4a/relu_1x1"
  type: "ReLU"
  bottom: "inception_4a/1x1"
  top: "inception_4a/1x1"
}
layer {
  name: "inception_4a/3x3_reduce"
  type: "Convolution"
  bottom: "pool3/3x3_s2"
  top: "inception_4a/3x3_reduce"
  param {
    lr_mult: 1
    decay_mult: 1
  }
  param {
    lr_mult: 2
    decay_mult: 0
  }
  convolution_param {
    num_output: 96
    kernel_size: 1
    weight_filler {
      type: "xavier"
    }
    bias_filler {
      type: "constant"
      value: 0.2
    }
  }
}
layer {
  name: "inception_4a/relu_3x3_reduce"
  type: "ReLU"
  bottom: "inception_4a/3x3_reduce"
  top: "inception_4a/3x3_reduce"
}
layer {
  name: "inception_4a/3x3"
  type: "Convolution"
  bottom: "inception_4a/3x3_reduce"
  top: "inception_4a/3x3"
  param {
    lr_mult: 1
    decay_mult: 1
  }
  param {
    lr_mult: 2
    decay_mult: 0
  }
  convolution_param {
    num_output: 208
    pad: 1
    kernel_size: 3
    weight_filler {
      type: "xavier"
    }
    bias_filler {
      type: "constant"
      value: 0.2
    }
  }
}
layer {
  name: "inception_4a/relu_3x3"
  type: "ReLU"
  bottom: "inception_4a/3x3"
  top: "inception_4a/3x3"
}
layer {
  name: "inception_4a/5x5_reduce"
  type: "Convolution"
  bottom: "pool3/3x3_s2"
  top: "inception_4a/5x5_reduce"
  param {
    lr_mult: 1
    decay_mult: 1
  }
  param {
    lr_mult: 2
    decay_mult: 0
  }
  convolution_param {
    num_output: 16
    kernel_size: 1
    weight_filler {
      type: "xavier"
    }
    bias_filler {
      type: "constant"
      value: 0.2
    }
  }
}
layer {
  name: "inception_4a/relu_5x5_reduce"
  type: "ReLU"
  bottom: "inception_4a/5x5_reduce"
  top: "inception_4a/5x5_reduce"
}
layer {
  name: "inception_4a/5x5"
  type: "Convolution"
  bottom: "inception_4a/5x5_reduce"
  top: "inception_4a/5x5"
  param {
    lr_mult: 1
    decay_mult: 1
  }
  param {
    lr_mult: 2
    decay_mult: 0
  }
  convolution_param {
    num_output: 48
    pad: 2
    kernel_size: 5
    weight_filler {
      type: "xavier"
    }
    bias_filler {
      type: "constant"
      value: 0.2
    }
  }
}
layer {
  name: "inception_4a/relu_5x5"
  type: "ReLU"
  bottom: "inception_4a/5x5"
  top: "inception_4a/5x5"
}
layer {
  name: "inception_4a/pool"
  type: "Pooling"
  bottom: "pool3/3x3_s2"
  top: "inception_4a/pool"
  pooling_param {
    pool: MAX
    kernel_size: 3
    stride: 1
    pad: 1
  }
}
layer {
  name: "inception_4a/pool_proj"
  type: "Convolution"
  bottom: "inception_4a/pool"
  top: "inception_4a/pool_proj"
  param {
    lr_mult: 1
    decay_mult: 1
  }
  param {
    lr_mult: 2
    decay_mult: 0
  }
  convolution_param {
    num_output: 64
    kernel_size: 1
    weight_filler {
      type: "xavier"
    }
    bias_filler {
      type: "constant"
      value: 0.2
    }
  }
}
layer {
  name: "inception_4a/relu_pool_proj"
  type: "ReLU"
  bottom: "inception_4a/pool_proj"
  top: "inception_4a/pool_proj"
}
layer {
  name: "inception_4a/output"
  type: "Concat"
  bottom: "inception_4a/1x1"
  bottom: "inception_4a/3x3"
  bottom: "inception_4a/5x5"
  bottom: "inception_4a/pool_proj"
  top: "inception_4a/output"
}
layer {
  name: "loss1/ave_pool"
  type: "Pooling"
  bottom: "inception_4a/output"
  top: "loss1/ave_pool"
  pooling_param {
    pool: AVE
    kernel_size: 5
    stride: 3
  }
}
layer {
  name: "loss1/conv"
  type: "Convolution"
  bottom: "loss1/ave_pool"
  top: "loss1/conv"
  param {
    lr_mult: 1
    decay_mult: 1
  }
  param {
    lr_mult: 2
    decay_mult: 0
  }
  convolution_param {
    num_output: 128
    kernel_size: 1
    weight_filler {
      type: "xavier"
    }
    bias_filler {
      type: "constant"
      value: 0.2
    }
  }
}
layer {
  name: "loss1/relu_conv"
  type: "ReLU"
  bottom: "loss1/conv"
  top: "loss1/conv"
}
layer {
  name: "loss1/fc"
  type: "InnerProduct"
  bottom: "loss1/conv"
  top: "loss1/fc"
  param {
    lr_mult: 1
    decay_mult: 1
  }
  param {
    lr_mult: 2
    decay_mult: 0
  }
…
I1126 12:33:30.964926  9237 net.cpp:106] Creating Layer inception_4c/pool
I1126 12:33:30.964929  9237 net.cpp:454] inception_4c/pool <- inception_4b/output_inception_4b/output_0_split_3
I1126 12:33:30.964934  9237 net.cpp:411] inception_4c/pool -> inception_4c/pool
I1126 12:33:30.965178  9237 net.cpp:150] Setting up inception_4c/pool
I1126 12:33:30.965188  9237 net.cpp:157] Top shape: 64 512 14 14 (6422528)
I1126 12:33:30.965190  9237 net.cpp:165] Memory required for data: 2835919880
I1126 12:33:30.965194  9237 layer_factory.hpp:76] Creating layer inception_4c/pool_proj
I1126 12:33:30.965203  9237 net.cpp:106] Creating Layer inception_4c/pool_proj
I1126 12:33:30.965206  9237 net.cpp:454] inception_4c/pool_proj <- inception_4c/pool
I1126 12:33:30.965214  9237 net.cpp:411] inception_4c/pool_proj -> inception_4c/pool_proj
I1126 12:33:30.966724  9237 net.cpp:150] Setting up inception_4c/pool_proj
I1126 12:33:30.966739  9237 net.cpp:157] Top shape: 64 64 14 14 (802816)
I1126 12:33:30.966742  9237 net.cpp:165] Memory required for data: 2839131144
I1126 12:33:30.966748  9237 layer_factory.hpp:76] Creating layer inception_4c/relu_pool_proj
I1126 12:33:30.966756  9237 net.cpp:106] Creating Layer inception_4c/relu_pool_proj
I1126 12:33:30.966760  9237 net.cpp:454] inception_4c/relu_pool_proj <- inception_4c/pool_proj
I1126 12:33:30.966765  9237 net.cpp:397] inception_4c/relu_pool_proj -> inception_4c/pool_proj (in-place)
I1126 12:33:30.967128  9237 net.cpp:150] Setting up inception_4c/relu_pool_proj
I1126 12:33:30.967141  9237 net.cpp:157] Top shape: 64 64 14 14 (802816)
I1126 12:33:30.967144  9237 net.cpp:165] Memory required for data: 2842342408
I1126 12:33:30.967147  9237 layer_factory.hpp:76] Creating layer inception_4c/output
I1126 12:33:30.967155  9237 net.cpp:106] Creating Layer inception_4c/output
I1126 12:33:30.967159  9237 net.cpp:454] inception_4c/output <- inception_4c/1x1
I1126 12:33:30.967164  9237 net.cpp:454] inception_4c/output <- inception_4c/3x3
I1126 12:33:30.967167  9237 net.cpp:454] inception_4c/output <- inception_4c/5x5
I1126 12:33:30.967171  9237 net.cpp:454] inception_4c/output <- inception_4c/pool_proj
I1126 12:33:30.967178  9237 net.cpp:411] inception_4c/output -> inception_4c/output
I1126 12:33:30.967224  9237 net.cpp:150] Setting up inception_4c/output
I1126 12:33:30.967232  9237 net.cpp:157] Top shape: 64 512 14 14 (6422528)
I1126 12:33:30.967236  9237 net.cpp:165] Memory required for data: 2868032520
I1126 12:33:30.967238  9237 layer_factory.hpp:76] Creating layer inception_4c/output_inception_4c/output_0_split
I1126 12:33:30.967243  9237 net.cpp:106] Creating Layer inception_4c/output_inception_4c/output_0_split
I1126 12:33:30.967247  9237 net.cpp:454] inception_4c/output_inception_4c/output_0_split <- inception_4c/output
I1126 12:33:30.967254  9237 net.cpp:411] inception_4c/output_inception_4c/output_0_split -> inception_4c/output_inception_4c/output_0_split_0
I1126 12:33:30.967260  9237 net.cpp:411] inception_4c/output_inception_4c/output_0_split -> inception_4c/output_inception_4c/output_0_split_1
I1126 12:33:30.967267  9237 net.cpp:411] inception_4c/output_inception_4c/output_0_split -> inception_4c/output_inception_4c/output_0_split_2
I1126 12:33:30.967272  9237 net.cpp:411] inception_4c/output_inception_4c/output_0_split -> inception_4c/output_inception_4c/output_0_split_3
I1126 12:33:30.967368  9237 net.cpp:150] Setting up inception_4c/output_inception_4c/output_0_split
I1126 12:33:30.967375  9237 net.cpp:157] Top shape: 64 512 14 14 (6422528)
I1126 12:33:30.967381  9237 net.cpp:157] Top shape: 64 512 14 14 (6422528)
I1126 12:33:30.967385  9237 net.cpp:157] Top shape: 64 512 14 14 (6422528)
I1126 12:33:30.967387  9237 net.cpp:157] Top shape: 64 512 14 14 (6422528)
I1126 12:33:30.967391  9237 net.cpp:165] Memory required for data: 2970792968
I1126 12:33:30.967393  9237 layer_factory.hpp:76] Creating layer inception_4d/1x1
I1126 12:33:30.967401  9237 net.cpp:106] Creating Layer inception_4d/1x1
I1126 12:33:30.967404  9237 net.cpp:454] inception_4d/1x1 <- inception_4c/output_inception_4c/output_0_split_0
I1126 12:33:30.967411  9237 net.cpp:411] inception_4d/1x1 -> inception_4d/1x1
I1126 12:33:30.968938  9237 net.cpp:150] Setting up inception_4d/1x1
I1126 12:33:30.968953  9237 net.cpp:157] Top shape: 64 112 14 14 (1404928)
I1126 12:33:30.968957  9237 net.cpp:165] Memory required for data: 2976412680
I1126 12:33:30.968963  9237 layer_factory.hpp:76] Creating layer inception_4d/relu_1x1
I1126 12:33:30.968969  9237 net.cpp:106] Creating Layer inception_4d/relu_1x1
I1126 12:33:30.968972  9237 net.cpp:454] inception_4d/relu_1x1 <- inception_4d/1x1
I1126 12:33:30.968977  9237 net.cpp:397] inception_4d/relu_1x1 -> inception_4d/1x1 (in-place)
I1126 12:33:30.969341  9237 net.cpp:150] Setting up inception_4d/relu_1x1
I1126 12:33:30.969355  9237 net.cpp:157] Top shape: 64 112 14 14 (1404928)
I1126 12:33:30.969359  9237 net.cpp:165] Memory required for data: 2982032392
I1126 12:33:30.969362  9237 layer_factory.hpp:76] Creating layer inception_4d/3x3_reduce
I1126 12:33:30.969369  9237 net.cpp:106] Creating Layer inception_4d/3x3_reduce
I1126 12:33:30.969373  9237 net.cpp:454] inception_4d/3x3_reduce <- inception_4c/output_inception_4c/output_0_split_1
I1126 12:33:30.969382  9237 net.cpp:411] inception_4d/3x3_reduce -> inception_4d/3x3_reduce
I1126 12:33:30.971189  9237 net.cpp:150] Setting up inception_4d/3x3_reduce
I1126 12:33:30.971202  9237 net.cpp:157] Top shape: 64 144 14 14 (1806336)
I1126 12:33:30.971205  9237 net.cpp:165] Memory required for data: 2989257736
I1126 12:33:30.971212  9237 layer_factory.hpp:76] Creating layer inception_4d/relu_3x3_reduce
I1126 12:33:30.971218  9237 net.cpp:106] Creating Layer inception_4d/relu_3x3_reduce
I1126 12:33:30.971223  9237 net.cpp:454] inception_4d/relu_3x3_reduce <- inception_4d/3x3_reduce
I1126 12:33:30.971230  9237 net.cpp:397] inception_4d/relu_3x3_reduce -> inception_4d/3x3_reduce (in-place)
I1126 12:33:30.971433  9237 net.cpp:150] Setting up inception_4d/relu_3x3_reduce
I1126 12:33:30.971443  9237 net.cpp:157] Top shape: 64 144 14 14 (1806336)
I1126 12:33:30.971447  9237 net.cpp:165] Memory required for data: 2996483080
I1126 12:33:30.971451  9237 layer_factory.hpp:76] Creating layer inception_4d/3x3
I1126 12:33:30.971459  9237 net.cpp:106] Creating Layer inception_4d/3x3
I1126 12:33:30.971463  9237 net.cpp:454] inception_4d/3x3 <- inception_4d/3x3_reduce
I1126 12:33:30.971469  9237 net.cpp:411] inception_4d/3x3 -> inception_4d/3x3
I1126 12:33:30.975671  9237 net.cpp:150] Setting up inception_4d/3x3
I1126 12:33:30.975685  9237 net.cpp:157] Top shape: 64 288 14 14 (3612672)
I1126 12:33:30.975689  9237 net.cpp:165] Memory required for data: 3010933768
I1126 12:33:30.975697  9237 layer_factory.hpp:76] Creating layer inception_4d/relu_3x3
I1126 12:33:30.975703  9237 net.cpp:106] Creating Layer inception_4d/relu_3x3
I1126 12:33:30.975706  9237 net.cpp:454] inception_4d/relu_3x3 <- inception_4d/3x3
I1126 12:33:30.975713  9237 net.cpp:397] inception_4d/relu_3x3 -> inception_4d/3x3 (in-place)
I1126 12:33:30.976053  9237 net.cpp:150] Setting up inception_4d/relu_3x3
I1126 12:33:30.976068  9237 net.cpp:157] Top shape: 64 288 14 14 (3612672)
I1126 12:33:30.976071  9237 net.cpp:165] Memory required for data: 3025384456
I1126 12:33:30.976074  9237 layer_factory.hpp:76] Creating layer inception_4d/5x5_reduce
I1126 12:33:30.976083  9237 net.cpp:106] Creating Layer inception_4d/5x5_reduce
I1126 12:33:30.976086  9237 net.cpp:454] inception_4d/5x5_reduce <- inception_4c/output_inception_4c/output_0_split_2
I1126 12:33:30.976094  9237 net.cpp:411] inception_4d/5x5_reduce -> inception_4d/5x5_reduce
I1126 12:33:30.977488  9237 net.cpp:150] Setting up inception_4d/5x5_reduce
I1126 12:33:30.977500  9237 net.cpp:157] Top shape: 64 32 14 14 (401408)
I1126 12:33:30.977504  9237 net.cpp:165] Memory required for data: 3026990088
I1126 12:33:30.977510  9237 layer_factory.hpp:76] Creating layer inception_4d/relu_5x5_reduce
I1126 12:33:30.977517  9237 net.cpp:106] Creating Layer inception_4d/relu_5x5_reduce
I1126 12:33:30.977522  9237 net.cpp:454] inception_4d/relu_5x5_reduce <- inception_4d/5x5_reduce
I1126 12:33:30.977526  9237 net.cpp:397] inception_4d/relu_5x5_reduce -> inception_4d/5x5_reduce (in-place)
I1126 12:33:30.977872  9237 net.cpp:150] Setting up inception_4d/relu_5x5_reduce
I1126 12:33:30.977885  9237 net.cpp:157] Top shape: 64 32 14 14 (401408)
I1126 12:33:30.977888  9237 net.cpp:165] Memory required for data: 3028595720
I1126 12:33:30.977891  9237 layer_factory.hpp:76] Creating layer inception_4d/5x5
I1126 12:33:30.977901  9237 net.cpp:106] Creating Layer inception_4d/5x5
I1126 12:33:30.977905  9237 net.cpp:454] inception_4d/5x5 <- inception_4d/5x5_reduce
I1126 12:33:30.977911  9237 net.cpp:411] inception_4d/5x5 -> inception_4d/5x5
I1126 12:33:30.979549  9237 net.cpp:150] Setting up inception_4d/5x5
I1126 12:33:30.979562  9237 net.cpp:157] Top shape: 64 64 14 14 (802816)
I1126 12:33:30.979567  9237 net.cpp:165] Memory required for data: 3031806984
I1126 12:33:30.979573  9237 layer_factory.hpp:76] Creating layer inception_4d/relu_5x5
I1126 12:33:30.979578  9237 net.cpp:106] Creating Layer inception_4d/relu_5x5
I1126 12:33:30.979583  9237 net.cpp:454] inception_4d/relu_5x5 <- inception_4d/5x5
I1126 12:33:30.979586  9237 net.cpp:397] inception_4d/relu_5x5 -> inception_4d/5x5 (in-place)
I1126 12:33:30.979784  9237 net.cpp:150] Setting up inception_4d/relu_5x5
I1126 12:33:30.979799  9237 net.cpp:157] Top shape: 64 64 14 14 (802816)
I1126 12:33:30.979804  9237 net.cpp:165] Memory required for data: 3035018248
I1126 12:33:30.979809  9237 layer_factory.hpp:76] Creating layer inception_4d/pool
I1126 12:33:30.979821  9237 net.cpp:106] Creating Layer inception_4d/pool
I1126 12:33:30.979830  9237 net.cpp:454] inception_4d/pool <- inception_4c/output_inception_4c/output_0_split_3
I1126 12:33:30.979837  9237 net.cpp:411] inception_4d/pool -> inception_4d/pool
I1126 12:33:30.980298  9237 net.cpp:150] Setting up inception_4d/pool
I1126 12:33:30.980310  9237 net.cpp:157] Top shape: 64 512 14 14 (6422528)
I1126 12:33:30.980314  9237 net.cpp:165] Memory required for data: 3060708360
I1126 12:33:30.980317  9237 layer_factory.hpp:76] Creating layer inception_4d/pool_proj
I1126 12:33:30.980325  9237 net.cpp:106] Creating Layer inception_4d/pool_proj
I1126 12:33:30.980329  9237 net.cpp:454] inception_4d/pool_proj <- inception_4d/pool
I1126 12:33:30.980336  9237 net.cpp:411] inception_4d/pool_proj -> inception_4d/pool_proj
I1126 12:33:30.981868  9237 net.cpp:150] Setting up inception_4d/pool_proj
I1126 12:33:30.981883  9237 net.cpp:157] Top shape: 64 64 14 14 (802816)
I1126 12:33:30.981885  9237 net.cpp:165] Memory required for data: 3063919624
I1126 12:33:30.981891  9237 layer_factory.hpp:76] Creating layer inception_4d/relu_pool_proj
I1126 12:33:30.981897  9237 net.cpp:106] Creating Layer inception_4d/relu_pool_proj
I1126 12:33:30.981901  9237 net.cpp:454] inception_4d/relu_pool_proj <- inception_4d/pool_proj
I1126 12:33:30.981909  9237 net.cpp:397] inception_4d/relu_pool_proj -> inception_4d/pool_proj (in-place)
I1126 12:33:30.982115  9237 net.cpp:150] Setting up inception_4d/relu_pool_proj
I1126 12:33:30.982126  9237 net.cpp:157] Top shape: 64 64 14 14 (802816)
I1126 12:33:30.982131  9237 net.cpp:165] Memory required for data: 3067130888
I1126 12:33:30.982133  9237 layer_factory.hpp:76] Creating layer inception_4d/output
I1126 12:33:30.982139  9237 net.cpp:106] Creating Layer inception_4d/output
I1126 12:33:30.982146  9237 net.cpp:454] inception_4d/output <- inception_4d/1x1
I1126 12:33:30.982151  9237 net.cpp:454] inception_4d/output <- inception_4d/3x3
I1126 12:33:30.982154  9237 net.cpp:454] inception_4d/output <- inception_4d/5x5
I1126 12:33:30.982157  9237 net.cpp:454] inception_4d/output <- inception_4d/pool_proj
I1126 12:33:30.982162  9237 net.cpp:411] inception_4d/output -> inception_4d/output
I1126 12:33:30.982209  9237 net.cpp:150] Setting up inception_4d/output
I1126 12:33:30.982215  9237 net.cpp:157] Top shape: 64 528 14 14 (6623232)
I1126 12:33:30.982219  9237 net.cpp:165] Memory required for data: 3093623816
I1126 12:33:30.982221  9237 layer_factory.hpp:76] Creating layer inception_4d/output_inception_4d/output_0_split
I1126 12:33:30.982228  9237 net.cpp:106] Creating Layer inception_4d/output_inception_4d/output_0_split
I1126 12:33:30.982231  9237 net.cpp:454] inception_4d/output_inception_4d/output_0_split <- inception_4d/output
I1126 12:33:30.982237  9237 net.cpp:411] inception_4d/output_inception_4d/output_0_split -> inception_4d/output_inception_4d/output_0_split_0
I1126 12:33:30.982244  9237 net.cpp:411] inception_4d/output_inception_4d/output_0_split -> inception_4d/output_inception_4d/output_0_split_1
I1126 12:33:30.982249  9237 net.cpp:411] inception_4d/output_inception_4d/output_0_split -> inception_4d/output_inception_4d/output_0_split_2
I1126 12:33:30.982254  9237 net.cpp:411] inception_4d/output_inception_4d/output_0_split -> inception_4d/output_inception_4d/output_0_split_3
I1126 12:33:30.982259  9237 net.cpp:411] inception_4d/output_inception_4d/output_0_split -> inception_4d/output_inception_4d/output_0_split_4
I1126 12:33:30.982426  9237 net.cpp:150] Setting up inception_4d/output_inception_4d/output_0_split
I1126 12:33:30.982437  9237 net.cpp:157] Top shape: 64 528 14 14 (6623232)
I1126 12:33:30.982442  9237 net.cpp:157] Top shape: 64 528 14 14 (6623232)
I1126 12:33:30.982445  9237 net.cpp:157] Top shape: 64 528 14 14 (6623232)
I1126 12:33:30.982448  9237 net.cpp:157] Top shape: 64 528 14 14 (6623232)
I1126 12:33:30.982452  9237 net.cpp:157] Top shape: 64 528 14 14 (6623232)
I1126 12:33:30.982455  9237 net.cpp:165] Memory required for data: 3226088456
I1126 12:33:30.982458  9237 layer_factory.hpp:76] Creating layer loss2/ave_pool
I1126 12:33:30.982465  9237 net.cpp:106] Creating Layer loss2/ave_pool
I1126 12:33:30.982467  9237 net.cpp:454] loss2/ave_pool <- inception_4d/output_inception_4d/output_0_split_0
I1126 12:33:30.982475  9237 net.cpp:411] loss2/ave_pool -> loss2/ave_pool
I1126 12:33:30.982890  9237 net.cpp:150] Setting up loss2/ave_pool
I1126 12:33:30.982906  9237 net.cpp:157] Top shape: 64 528 4 4 (540672)
I1126 12:33:30.982913  9237 net.cpp:165] Memory required for data: 3228251144
I1126 12:33:30.982918  9237 layer_factory.hpp:76] Creating layer loss2/conv
I1126 12:33:30.982934  9237 net.cpp:106] Creating Layer loss2/conv
I1126 12:33:30.982939  9237 net.cpp:454] loss2/conv <- loss2/ave_pool
I1126 12:33:30.982956  9237 net.cpp:411] loss2/conv -> loss2/conv
I1126 12:33:30.984989  9237 net.cpp:150] Setting up loss2/conv
I1126 12:33:30.985004  9237 net.cpp:157] Top shape: 64 128 4 4 (131072)
I1126 12:33:30.985008  9237 net.cpp:165] Memory required for data: 3228775432
I1126 12:33:30.985013  9237 layer_factory.hpp:76] Creating layer loss2/relu_conv
I1126 12:33:30.985020  9237 net.cpp:106] Creating Layer loss2/relu_conv
I1126 12:33:30.985025  9237 net.cpp:454] loss2/relu_conv <- loss2/conv
I1126 12:33:30.985030  9237 net.cpp:397] loss2/relu_conv -> loss2/conv (in-place)
I1126 12:33:30.985389  9237 net.cpp:150] Setting up loss2/relu_conv
I1126 12:33:30.985401  9237 net.cpp:157] Top shape: 64 128 4 4 (131072)
I1126 12:33:30.985405  9237 net.cpp:165] Memory required for data: 3229299720
I1126 12:33:30.985409  9237 layer_factory.hpp:76] Creating layer loss2/fc
I1126 12:33:30.985416  9237 net.cpp:106] Creating Layer loss2/fc
I1126 12:33:30.985421  9237 net.cpp:454] loss2/fc <- loss2/conv
I1126 12:33:30.985427  9237 net.cpp:411] loss2/fc -> loss2/fc
I1126 12:33:31.001152  9237 net.cpp:150] Setting up loss2/fc
I1126 12:33:31.001173  9237 net.cpp:157] Top shape: 64 1024 (65536)
I1126 12:33:31.001176  9237 net.cpp:165] Memory required for data: 3229561864
I1126 12:33:31.001184  9237 layer_factory.hpp:76] Creating layer loss2/relu_fc
I1126 12:33:31.001194  9237 net.cpp:106] Creating Layer loss2/relu_fc
I1126 12:33:31.001199  9237 net.cpp:454] loss2/relu_fc <- loss2/fc
I1126 12:33:31.001206  9237 net.cpp:397] loss2/relu_fc -> loss2/fc (in-place)
I1126 12:33:31.001476  9237 net.cpp:150] Setting up loss2/relu_fc
I1126 12:33:31.001485  9237 net.cpp:157] Top shape: 64 1024 (65536)
I1126 12:33:31.001489  9237 net.cpp:165] Memory required for data: 3229824008
I1126 12:33:31.001492  9237 layer_factory.hpp:76] Creating layer loss2/drop_fc
I1126 12:33:31.001500  9237 net.cpp:106] Creating Layer loss2/drop_fc
I1126 12:33:31.001505  9237 net.cpp:454] loss2/drop_fc <- loss2/fc
I1126 12:33:31.001509  9237 net.cpp:397] loss2/drop_fc -> loss2/fc (in-place)
I1126 12:33:31.001554  9237 net.cpp:150] Setting up loss2/drop_fc
I1126 12:33:31.001562  9237 net.cpp:157] Top shape: 64 1024 (65536)
I1126 12:33:31.001564  9237 net.cpp:165] Memory required for data: 3230086152
I1126 12:33:31.001567  9237 layer_factory.hpp:76] Creating layer loss2/classifier-attribute
I1126 12:33:31.001575  9237 net.cpp:106] Creating Layer loss2/classifier-attribute
I1126 12:33:31.001580  9237 net.cpp:454] loss2/classifier-attribute <- loss2/fc
I1126 12:33:31.001587  9237 net.cpp:411] loss2/classifier-attribute -> loss2/classifier-attribute
I1126 12:33:31.078701  9237 net.cpp:150] Setting up loss2/classifier-attribute
I1126 12:33:31.078721  9237 net.cpp:157] Top shape: 64 9999 (639936)
I1126 12:33:31.078724  9237 net.cpp:165] Memory required for data: 3232645896
I1126 12:33:31.078732  9237 layer_factory.hpp:76] Creating layer loss2/classifier-attribute_loss2/classifier-attribute_0_split
I1126 12:33:31.078742  9237 net.cpp:106] Creating Layer loss2/classifier-attribute_loss2/classifier-attribute_0_split
I1126 12:33:31.078749  9237 net.cpp:454] loss2/classifier-attribute_loss2/classifier-attribute_0_split <- loss2/classifier-attribute
I1126 12:33:31.078757  9237 net.cpp:411] loss2/classifier-attribute_loss2/classifier-attribute_0_split -> loss2/classifier-attribute_loss2/classifier-attribute_0_split_0
I1126 12:33:31.078765  9237 net.cpp:411] loss2/classifier-attribute_loss2/classifier-attribute_0_split -> loss2/classifier-attribute_loss2/classifier-attribute_0_split_1
I1126 12:33:31.078831  9237 net.cpp:150] Setting up loss2/classifier-attribute_loss2/classifier-attribute_0_split
I1126 12:33:31.078840  9237 net.cpp:157] Top shape: 64 9999 (639936)
I1126 12:33:31.078843  9237 net.cpp:157] Top shape: 64 9999 (639936)
I1126 12:33:31.078846  9237 net.cpp:165] Memory required for data: 3237765384
I1126 12:33:31.078850  9237 layer_factory.hpp:76] Creating layer loss2/loss
I1126 12:33:31.078855  9237 net.cpp:106] Creating Layer loss2/loss
I1126 12:33:31.078858  9237 net.cpp:454] loss2/loss <- loss2/classifier-attribute_loss2/classifier-attribute_0_split_0
I1126 12:33:31.078863  9237 net.cpp:454] loss2/loss <- label_data_1_split_2
…
I1126 12:33:31.080900  9237 net.cpp:150] Setting up loss2/top-1
I1126 12:33:31.080904  9237 net.cpp:157] Top shape: (1)
I1126 12:33:31.080907  9237 net.cpp:165] Memory required for data: 3237765392
I1126 12:33:31.080910  9237 layer_factory.hpp:76] Creating layer inception_4e/1x1
I1126 12:33:31.080919  9237 net.cpp:106] Creating Layer inception_4e/1x1
I1126 12:33:31.080924  9237 net.cpp:454] inception_4e/1x1 <- inception_4d/output_inception_4d/output_0_split_1
I1126 12:33:31.080930  9237 net.cpp:411] inception_4e/1x1 -> inception_4e/1x1
I1126 12:33:31.083221  9237 net.cpp:150] Setting up inception_4e/1x1
I1126 12:33:31.083235  9237 net.cpp:157] Top shape: 64 256 14 14 (3211264)
I1126 12:33:31.083241  9237 net.cpp:165] Memory required for data: 3250610448
I1126 12:33:31.083248  9237 layer_factory.hpp:76] Creating layer inception_4e/relu_1x1
I1126 12:33:31.083255  9237 net.cpp:106] Creating Layer inception_4e/relu_1x1
I1126 12:33:31.083258  9237 net.cpp:454] inception_4e/relu_1x1 <- inception_4e/1x1
I1126 12:33:31.083266  9237 net.cpp:397] inception_4e/relu_1x1 -> inception_4e/1x1 (in-place)
I1126 12:33:31.083470  9237 net.cpp:150] Setting up inception_4e/relu_1x1
I1126 12:33:31.083482  9237 net.cpp:157] Top shape: 64 256 14 14 (3211264)
I1126 12:33:31.083484  9237 net.cpp:165] Memory required for data: 3263455504
I1126 12:33:31.083487  9237 layer_factory.hpp:76] Creating layer inception_4e/3x3_reduce
I1126 12:33:31.083494  9237 net.cpp:106] Creating Layer inception_4e/3x3_reduce
I1126 12:33:31.083499  9237 net.cpp:454] inception_4e/3x3_reduce <- inception_4d/output_inception_4d/output_0_split_2
I1126 12:33:31.083508  9237 net.cpp:411] inception_4e/3x3_reduce -> inception_4e/3x3_reduce
I1126 12:33:31.085872  9237 net.cpp:150] Setting up inception_4e/3x3_reduce
I1126 12:33:31.085886  9237 net.cpp:157] Top shape: 64 160 14 14 (2007040)
I1126 12:33:31.085891  9237 net.cpp:165] Memory required for data: 3271483664
I1126 12:33:31.085896  9237 layer_factory.hpp:76] Creating layer inception_4e/relu_3x3_reduce
I1126 12:33:31.085903  9237 net.cpp:106] Creating Layer inception_4e/relu_3x3_reduce
I1126 12:33:31.085908  9237 net.cpp:454] inception_4e/relu_3x3_reduce <- inception_4e/3x3_reduce
I1126 12:33:31.085913  9237 net.cpp:397] inception_4e/relu_3x3_reduce -> inception_4e/3x3_reduce (in-place)
I1126 12:33:31.086275  9237 net.cpp:150] Setting up inception_4e/relu_3x3_reduce
I1126 12:33:31.086288  9237 net.cpp:157] Top shape: 64 160 14 14 (2007040)
I1126 12:33:31.086293  9237 net.cpp:165] Memory required for data: 3279511824
I1126 12:33:31.086297  9237 layer_factory.hpp:76] Creating layer inception_4e/3x3
I1126 12:33:31.086321  9237 net.cpp:106] Creating Layer inception_4e/3x3
I1126 12:33:31.086326  9237 net.cpp:454] inception_4e/3x3 <- inception_4e/3x3_reduce
I1126 12:33:31.086333  9237 net.cpp:411] inception_4e/3x3 -> inception_4e/3x3
I1126 12:33:31.091143  9237 net.cpp:150] Setting up inception_4e/3x3
I1126 12:33:31.091158  9237 net.cpp:157] Top shape: 64 320 14 14 (4014080)
I1126 12:33:31.091162  9237 net.cpp:165] Memory required for data: 3295568144
I1126 12:33:31.091169  9237 layer_factory.hpp:76] Creating layer inception_4e/relu_3x3
I1126 12:33:31.091176  9237 net.cpp:106] Creating Layer inception_4e/relu_3x3
I1126 12:33:31.091179  9237 net.cpp:454] inception_4e/relu_3x3 <- inception_4e/3x3
I1126 12:33:31.091186  9237 net.cpp:397] inception_4e/relu_3x3 -> inception_4e/3x3 (in-place)
I1126 12:33:31.091537  9237 net.cpp:150] Setting up inception_4e/relu_3x3
I1126 12:33:31.091552  9237 net.cpp:157] Top shape: 64 320 14 14 (4014080)
I1126 12:33:31.091555  9237 net.cpp:165] Memory required for data: 3311624464
I1126 12:33:31.091558  9237 layer_factory.hpp:76] Creating layer inception_4e/5x5_reduce
I1126 12:33:31.091568  9237 net.cpp:106] Creating Layer inception_4e/5x5_reduce
I1126 12:33:31.091573  9237 net.cpp:454] inception_4e/5x5_reduce <- inception_4d/output_inception_4d/output_0_split_3
I1126 12:33:31.091580  9237 net.cpp:411] inception_4e/5x5_reduce -> inception_4e/5x5_reduce
I1126 12:33:31.093163  9237 net.cpp:150] Setting up inception_4e/5x5_reduce
I1126 12:33:31.093176  9237 net.cpp:157] Top shape: 64 32 14 14 (401408)
I1126 12:33:31.093180  9237 net.cpp:165] Memory required for data: 3313230096
I1126 12:33:31.093186  9237 layer_factory.hpp:76] Creating layer inception_4e/relu_5x5_reduce
I1126 12:33:31.093192  9237 net.cpp:106] Creating Layer inception_4e/relu_5x5_reduce
I1126 12:33:31.093196  9237 net.cpp:454] inception_4e/relu_5x5_reduce <- inception_4e/5x5_reduce
I1126 12:33:31.093201  9237 net.cpp:397] inception_4e/relu_5x5_reduce -> inception_4e/5x5_reduce (in-place)
I1126 12:33:31.093405  9237 net.cpp:150] Setting up inception_4e/relu_5x5_reduce
I1126 12:33:31.093416  9237 net.cpp:157] Top shape: 64 32 14 14 (401408)
I1126 12:33:31.093420  9237 net.cpp:165] Memory required for data: 3314835728
I1126 12:33:31.093422  9237 layer_factory.hpp:76] Creating layer inception_4e/5x5
I1126 12:33:31.093430  9237 net.cpp:106] Creating Layer inception_4e/5x5
I1126 12:33:31.093436  9237 net.cpp:454] inception_4e/5x5 <- inception_4e/5x5_reduce
I1126 12:33:31.093442  9237 net.cpp:411] inception_4e/5x5 -> inception_4e/5x5
I1126 12:33:31.095465  9237 net.cpp:150] Setting up inception_4e/5x5
I1126 12:33:31.095479  9237 net.cpp:157] Top shape: 64 128 14 14 (1605632)
I1126 12:33:31.095484  9237 net.cpp:165] Memory required for data: 3321258256
I1126 12:33:31.095490  9237 layer_factory.hpp:76] Creating layer inception_4e/relu_5x5
I1126 12:33:31.095495  9237 net.cpp:106] Creating Layer inception_4e/relu_5x5
I1126 12:33:31.095499  9237 net.cpp:454] inception_4e/relu_5x5 <- inception_4e/5x5
I1126 12:33:31.095504  9237 net.cpp:397] inception_4e/relu_5x5 -> inception_4e/5x5 (in-place)
I1126 12:33:31.095870  9237 net.cpp:150] Setting up inception_4e/relu_5x5
I1126 12:33:31.095883  9237 net.cpp:157] Top shape: 64 128 14 14 (1605632)
I1126 12:33:31.095887  9237 net.cpp:165] Memory required for data: 3327680784
I1126 12:33:31.095890  9237 layer_factory.hpp:76] Creating layer inception_4e/pool
I1126 12:33:31.095897  9237 net.cpp:106] Creating Layer inception_4e/pool
I1126 12:33:31.095901  9237 net.cpp:454] inception_4e/pool <- inception_4d/output_inception_4d/output_0_split_4
I1126 12:33:31.095906  9237 net.cpp:411] inception_4e/pool -> inception_4e/pool
I1126 12:33:31.096169  9237 net.cpp:150] Setting up inception_4e/pool
I1126 12:33:31.096180  9237 net.cpp:157] Top shape: 64 528 14 14 (6623232)
I1126 12:33:31.096184  9237 net.cpp:165] Memory required for data: 3354173712
I1126 12:33:31.096187  9237 layer_factory.hpp:76] Creating layer inception_4e/pool_proj
I1126 12:33:31.096196  9237 net.cpp:106] Creating Layer inception_4e/pool_proj
I1126 12:33:31.096200  9237 net.cpp:454] inception_4e/pool_proj <- inception_4e/pool
I1126 12:33:31.096207  9237 net.cpp:411] inception_4e/pool_proj -> inception_4e/pool_proj
I1126 12:33:31.097992  9237 net.cpp:150] Setting up inception_4e/pool_proj
I1126 12:33:31.098006  9237 net.cpp:157] Top shape: 64 128 14 14 (1605632)
I1126 12:33:31.098011  9237 net.cpp:165] Memory required for data: 3360596240
I1126 12:33:31.098016  9237 layer_factory.hpp:76] Creating layer inception_4e/relu_pool_proj
I1126 12:33:31.098022  9237 net.cpp:106] Creating Layer inception_4e/relu_pool_proj
I1126 12:33:31.098026  9237 net.cpp:454] inception_4e/relu_pool_proj <- inception_4e/pool_proj
I1126 12:33:31.098033  9237 net.cpp:397] inception_4e/relu_pool_proj -> inception_4e/pool_proj (in-place)
I1126 12:33:31.098382  9237 net.cpp:150] Setting up inception_4e/relu_pool_proj
I1126 12:33:31.098395  9237 net.cpp:157] Top shape: 64 128 14 14 (1605632)
I1126 12:33:31.098398  9237 net.cpp:165] Memory required for data: 3367018768
I1126 12:33:31.098402  9237 layer_factory.hpp:76] Creating layer inception_4e/output
I1126 12:33:31.098408  9237 net.cpp:106] Creating Layer inception_4e/output
I1126 12:33:31.098412  9237 net.cpp:454] inception_4e/output <- inception_4e/1x1
I1126 12:33:31.098417  9237 net.cpp:454] inception_4e/output <- inception_4e/3x3
I1126 12:33:31.098420  9237 net.cpp:454] inception_4e/output <- inception_4e/5x5
I1126 12:33:31.098424  9237 net.cpp:454] inception_4e/output <- inception_4e/pool_proj
I1126 12:33:31.098430  9237 net.cpp:411] inception_4e/output -> inception_4e/output
I1126 12:33:31.098479  9237 net.cpp:150] Setting up inception_4e/output
I1126 12:33:31.098486  9237 net.cpp:157] Top shape: 64 832 14 14 (10436608)
I1126 12:33:31.098489  9237 net.cpp:165] Memory required for data: 3408765200
I1126 12:33:31.098492  9237 layer_factory.hpp:76] Creating layer pool4/3x3_s2
I1126 12:33:31.098498  9237 net.cpp:106] Creating Layer pool4/3x3_s2
I1126 12:33:31.098501  9237 net.cpp:454] pool4/3x3_s2 <- inception_4e/output
I1126 12:33:31.098506  9237 net.cpp:411] pool4/3x3_s2 -> pool4/3x3_s2
I1126 12:33:31.098772  9237 net.cpp:150] Setting up pool4/3x3_s2
I1126 12:33:31.098783  9237 net.cpp:157] Top shape: 64 832 7 7 (2609152)
I1126 12:33:31.098785  9237 net.cpp:165] Memory required for data: 3419201808
I1126 12:33:31.098789  9237 layer_factory.hpp:76] Creating layer pool4/3x3_s2_pool4/3x3_s2_0_split
I1126 12:33:31.098795  9237 net.cpp:106] Creating Layer pool4/3x3_s2_pool4/3x3_s2_0_split
I1126 12:33:31.098800  9237 net.cpp:454] pool4/3x3_s2_pool4/3x3_s2_0_split <- pool4/3x3_s2
I1126 12:33:31.098805  9237 net.cpp:411] pool4/3x3_s2_pool4/3x3_s2_0_split -> pool4/3x3_s2_pool4/3x3_s2_0_split_0
I1126 12:33:31.098811  9237 net.cpp:411] pool4/3x3_s2_pool4/3x3_s2_0_split -> pool4/3x3_s2_pool4/3x3_s2_0_split_1
I1126 12:33:31.098817  9237 net.cpp:411] pool4/3x3_s2_pool4/3x3_s2_0_split -> pool4/3x3_s2_pool4/3x3_s2_0_split_2
I1126 12:33:31.098824  9237 net.cpp:411] pool4/3x3_s2_pool4/3x3_s2_0_split -> pool4/3x3_s2_pool4/3x3_s2_0_split_3
I1126 12:33:31.098968  9237 net.cpp:150] Setting up pool4/3x3_s2_pool4/3x3_s2_0_split
I1126 12:33:31.098978  9237 net.cpp:157] Top shape: 64 832 7 7 (2609152)
I1126 12:33:31.098981  9237 net.cpp:157] Top shape: 64 832 7 7 (2609152)
I1126 12:33:31.098984  9237 net.cpp:157] Top shape: 64 832 7 7 (2609152)
I1126 12:33:31.098989  9237 net.cpp:157] Top shape: 64 832 7 7 (2609152)
I1126 12:33:31.098990  9237 net.cpp:165] Memory required for data: 3460948240
I1126 12:33:31.098994  9237 layer_factory.hpp:76] Creating layer inception_5a/1x1
I1126 12:33:31.099009  9237 net.cpp:106] Creating Layer inception_5a/1x1
I1126 12:33:31.099015  9237 net.cpp:454] inception_5a/1x1 <- pool4/3x3_s2_pool4/3x3_s2_0_split_0
I1126 12:33:31.099026  9237 net.cpp:411] inception_5a/1x1 -> inception_5a/1x1
I1126 12:33:31.102224  9237 net.cpp:150] Setting up inception_5a/1x1
I1126 12:33:31.102241  9237 net.cpp:157] Top shape: 64 256 7 7 (802816)
I1126 12:33:31.102246  9237 net.cpp:165] Memory required for data: 3464159504
I1126 12:33:31.102257  9237 layer_factory.hpp:76] Creating layer inception_5a/relu_1x1
I1126 12:33:31.102268  9237 net.cpp:106] Creating Layer inception_5a/relu_1x1
I1126 12:33:31.102273  9237 net.cpp:454] inception_5a/relu_1x1 <- inception_5a/1x1
I1126 12:33:31.102279  9237 net.cpp:397] inception_5a/relu_1x1 -> inception_5a/1x1 (in-place)
I1126 12:33:31.102490  9237 net.cpp:150] Setting up inception_5a/relu_1x1
I1126 12:33:31.102501  9237 net.cpp:157] Top shape: 64 256 7 7 (802816)
I1126 12:33:31.102504  9237 net.cpp:165] Memory required for data: 3467370768
I1126 12:33:31.102509  9237 layer_factory.hpp:76] Creating layer inception_5a/3x3_reduce
I1126 12:33:31.102517  9237 net.cpp:106] Creating Layer inception_5a/3x3_reduce
I1126 12:33:31.102522  9237 net.cpp:454] inception_5a/3x3_reduce <- pool4/3x3_s2_pool4/3x3_s2_0_split_1
I1126 12:33:31.102529  9237 net.cpp:411] inception_5a/3x3_reduce -> inception_5a/3x3_reduce
I1126 12:33:31.105351  9237 net.cpp:150] Setting up inception_5a/3x3_reduce
I1126 12:33:31.105367  9237 net.cpp:157] Top shape: 64 160 7 7 (501760)
I1126 12:33:31.105371  9237 net.cpp:165] Memory required for data: 3469377808
I1126 12:33:31.105377  9237 layer_factory.hpp:76] Creating layer inception_5a/relu_3x3_reduce
I1126 12:33:31.105383  9237 net.cpp:106] Creating Layer inception_5a/relu_3x3_reduce
I1126 12:33:31.105389  9237 net.cpp:454] inception_5a/relu_3x3_reduce <- inception_5a/3x3_reduce
I1126 12:33:31.105394  9237 net.cpp:397] inception_5a/relu_3x3_reduce -> inception_5a/3x3_reduce (in-place)
I1126 12:33:31.105749  9237 net.cpp:150] Setting up inception_5a/relu_3x3_reduce
I1126 12:33:31.105763  9237 net.cpp:157] Top shape: 64 160 7 7 (501760)
I1126 12:33:31.105767  9237 net.cpp:165] Memory required for data: 3471384848
I1126 12:33:31.105772  9237 layer_factory.hpp:76] Creating layer inception_5a/3x3
I1126 12:33:31.105779  9237 net.cpp:106] Creating Layer inception_5a/3x3
I1126 12:33:31.105784  9237 net.cpp:454] inception_5a/3x3 <- inception_5a/3x3_reduce
I1126 12:33:31.105790  9237 net.cpp:411] inception_5a/3x3 -> inception_5a/3x3
I1126 12:33:31.110802  9237 net.cpp:150] Setting up inception_5a/3x3
I1126 12:33:31.110822  9237 net.cpp:157] Top shape: 64 320 7 7 (1003520)
I1126 12:33:31.110828  9237 net.cpp:165] Memory required for data: 3475398928
I1126 12:33:31.110836  9237 layer_factory.hpp:76] Creating layer inception_5a/relu_3x3
I1126 12:33:31.110842  9237 net.cpp:106] Creating Layer inception_5a/relu_3x3
I1126 12:33:31.110846  9237 net.cpp:454] inception_5a/relu_3x3 <- inception_5a/3x3
I1126 12:33:31.110853  9237 net.cpp:397] inception_5a/relu_3x3 -> inception_5a/3x3 (in-place)
I1126 12:33:31.111062  9237 net.cpp:150] Setting up inception_5a/relu_3x3
I1126 12:33:31.111073  9237 net.cpp:157] Top shape: 64 320 7 7 (1003520)
I1126 12:33:31.111075  9237 net.cpp:165] Memory required for data: 3479413008
I1126 12:33:31.111078  9237 layer_factory.hpp:76] Creating layer inception_5a/5x5_reduce
I1126 12:33:31.111110  9237 net.cpp:106] Creating Layer inception_5a/5x5_reduce
I1126 12:33:31.111117  9237 net.cpp:454] inception_5a/5x5_reduce <- pool4/3x3_s2_pool4/3x3_s2_0_split_2
I1126 12:33:31.111134  9237 net.cpp:411] inception_5a/5x5_reduce -> inception_5a/5x5_reduce
I1126 12:33:31.113183  9237 net.cpp:150] Setting up inception_5a/5x5_reduce
I1126 12:33:31.113196  9237 net.cpp:157] Top shape: 64 32 7 7 (100352)
I1126 12:33:31.113200  9237 net.cpp:165] Memory required for data: 3479814416
I1126 12:33:31.113207  9237 layer_factory.hpp:76] Creating layer inception_5a/relu_5x5_reduce
I1126 12:33:31.113212  9237 net.cpp:106] Creating Layer inception_5a/relu_5x5_reduce
I1126 12:33:31.113217  9237 net.cpp:454] inception_5a/relu_5x5_reduce <- inception_5a/5x5_reduce
I1126 12:33:31.113224  9237 net.cpp:397] inception_5a/relu_5x5_reduce -> inception_5a/5x5_reduce (in-place)
I1126 12:33:31.113428  9237 net.cpp:150] Setting up inception_5a/relu_5x5_reduce
I1126 12:33:31.113438  9237 net.cpp:157] Top shape: 64 32 7 7 (100352)
I1126 12:33:31.113442  9237 net.cpp:165] Memory required for data: 3480215824
I1126 12:33:31.113445  9237 layer_factory.hpp:76] Creating layer inception_5a/5x5
I1126 12:33:31.113454  9237 net.cpp:106] Creating Layer inception_5a/5x5
I1126 12:33:31.113458  9237 net.cpp:454] inception_5a/5x5 <- inception_5a/5x5_reduce
I1126 12:33:31.113466  9237 net.cpp:411] inception_5a/5x5 -> inception_5a/5x5
I1126 12:33:31.115628  9237 net.cpp:150] Setting up inception_5a/5x5
I1126 12:33:31.115641  9237 net.cpp:157] Top shape: 64 128 7 7 (401408)
I1126 12:33:31.115645  9237 net.cpp:165] Memory required for data: 3481821456
I1126 12:33:31.115651  9237 layer_factory.hpp:76] Creating layer inception_5a/relu_5x5
I1126 12:33:31.115659  9237 net.cpp:106] Creating Layer inception_5a/relu_5x5
I1126 12:33:31.115667  9237 net.cpp:454] inception_5a/relu_5x5 <- inception_5a/5x5
I1126 12:33:31.115679  9237 net.cpp:397] inception_5a/relu_5x5 -> inception_5a/5x5 (in-place)
I1126 12:33:31.116058  9237 net.cpp:150] Setting up inception_5a/relu_5x5
I1126 12:33:31.116072  9237 net.cpp:157] Top shape: 64 128 7 7 (401408)
I1126 12:33:31.116076  9237 net.cpp:165] Memory required for data: 3483427088
I1126 12:33:31.116080  9237 layer_factory.hpp:76] Creating layer inception_5a/pool
I1126 12:33:31.116086  9237 net.cpp:106] Creating Layer inception_5a/pool
I1126 12:33:31.116091  9237 net.cpp:454] inception_5a/pool <- pool4/3x3_s2_pool4/3x3_s2_0_split_3
I1126 12:33:31.116098  9237 net.cpp:411] inception_5a/pool -> inception_5a/pool
I1126 12:33:31.116384  9237 net.cpp:150] Setting up inception_5a/pool
I1126 12:33:31.116395  9237 net.cpp:157] Top shape: 64 832 7 7 (2609152)
I1126 12:33:31.116399  9237 net.cpp:165] Memory required for data: 3493863696
I1126 12:33:31.116401  9237 layer_factory.hpp:76] Creating layer inception_5a/pool_proj
I1126 12:33:31.116410  9237 net.cpp:106] Creating Layer inception_5a/pool_proj
I1126 12:33:31.116415  9237 net.cpp:454] inception_5a/pool_proj <- inception_5a/pool
I1126 12:33:31.116422  9237 net.cpp:411] inception_5a/pool_proj -> inception_5a/pool_proj
I1126 12:33:31.118983  9237 net.cpp:150] Setting up inception_5a/pool_proj
I1126 12:33:31.118998  9237 net.cpp:157] Top shape: 64 128 7 7 (401408)
I1126 12:33:31.119000  9237 net.cpp:165] Memory required for data: 3495469328
I1126 12:33:31.119007  9237 layer_factory.hpp:76] Creating layer inception_5a/relu_pool_proj
I1126 12:33:31.119012  9237 net.cpp:106] Creating Layer inception_5a/relu_pool_proj
I1126 12:33:31.119017  9237 net.cpp:454] inception_5a/relu_pool_proj <- inception_5a/pool_proj
I1126 12:33:31.119024  9237 net.cpp:397] inception_5a/relu_pool_proj -> inception_5a/pool_proj (in-place)
I1126 12:33:31.119396  9237 net.cpp:150] Setting up inception_5a/relu_pool_proj
I1126 12:33:31.119410  9237 net.cpp:157] Top shape: 64 128 7 7 (401408)
I1126 12:33:31.119412  9237 net.cpp:165] Memory required for data: 3497074960
I1126 12:33:31.119416  9237 layer_factory.hpp:76] Creating layer inception_5a/output
I1126 12:33:31.119422  9237 net.cpp:106] Creating Layer inception_5a/output
I1126 12:33:31.119426  9237 net.cpp:454] inception_5a/output <- inception_5a/1x1
I1126 12:33:31.119431  9237 net.cpp:454] inception_5a/output <- inception_5a/3x3
I1126 12:33:31.119436  9237 net.cpp:454] inception_5a/output <- inception_5a/5x5
I1126 12:33:31.119439  9237 net.cpp:454] inception_5a/output <- inception_5a/pool_proj
I1126 12:33:31.119447  9237 net.cpp:411] inception_5a/output -> inception_5a/output
I1126 12:33:31.119508  9237 net.cpp:150] Setting up inception_5a/output
I1126 12:33:31.119516  9237 net.cpp:157] Top shape: 64 832 7 7 (2609152)
I1126 12:33:31.119519  9237 net.cpp:165] Memory required for data: 3507511568
I1126 12:33:31.119523  9237 layer_factory.hpp:76] Creating layer inception_5a/output_inception_5a/output_0_split
I1126 12:33:31.119527  9237 net.cpp:106] Creating Layer inception_5a/output_inception_5a/output_0_split
I1126 12:33:31.119531  9237 net.cpp:454] inception_5a/output_inception_5a/output_0_split <- inception_5a/output
I1126 12:33:31.119536  9237 net.cpp:411] inception_5a/output_inception_5a/output_0_split -> inception_5a/output_inception_5a/output_0_split_0
I1126 12:33:31.119544  9237 net.cpp:411] inception_5a/output_inception_5a/output_0_split -> inception_5a/output_inception_5a/output_0_split_1
I1126 12:33:31.119550  9237 net.cpp:411] inception_5a/output_inception_5a/output_0_split -> inception_5a/output_inception_5a/output_0_split_2
I1126 12:33:31.119555  9237 net.cpp:411] inception_5a/output_inception_5a/output_0_split -> inception_5a/output_inception_5a/output_0_split_3
I1126 12:33:31.119678  9237 net.cpp:150] Setting up inception_5a/output_inception_5a/output_0_split
I1126 12:33:31.119685  9237 net.cpp:157] Top shape: 64 832 7 7 (2609152)
I1126 12:33:31.119689  9237 net.cpp:157] Top shape: 64 832 7 7 (2609152)
I1126 12:33:31.119693  9237 net.cpp:157] Top shape: 64 832 7 7 (2609152)
I1126 12:33:31.119696  9237 net.cpp:157] Top shape: 64 832 7 7 (2609152)
I1126 12:33:31.119699  9237 net.cpp:165] Memory required for data: 3549258000
I1126 12:33:31.119701  9237 layer_factory.hpp:76] Creating layer inception_5b/1x1
I1126 12:33:31.119709  9237 net.cpp:106] Creating Layer inception_5b/1x1
I1126 12:33:31.119714  9237 net.cpp:454] inception_5b/1x1 <- inception_5a/output_inception_5a/output_0_split_0
I1126 12:33:31.119720  9237 net.cpp:411] inception_5b/1x1 -> inception_5b/1x1
I1126 12:33:31.123517  9237 net.cpp:150] Setting up inception_5b/1x1
I1126 12:33:31.123531  9237 net.cpp:157] Top shape: 64 384 7 7 (1204224)
I1126 12:33:31.123534  9237 net.cpp:165] Memory required for data: 3554074896
I1126 12:33:31.123541  9237 layer_factory.hpp:76] Creating layer inception_5b/relu_1x1
I1126 12:33:31.123549  9237 net.cpp:106] Creating Layer inception_5b/relu_1x1
I1126 12:33:31.123553  9237 net.cpp:454] inception_5b/relu_1x1 <- inception_5b/1x1
I1126 12:33:31.123558  9237 net.cpp:397] inception_5b/relu_1x1 -> inception_5b/1x1 (in-place)
I1126 12:33:31.123920  9237 net.cpp:150] Setting up inception_5b/relu_1x1
I1126 12:33:31.123934  9237 net.cpp:157] Top shape: 64 384 7 7 (1204224)
I1126 12:33:31.123939  9237 net.cpp:165] Memory required for data: 3558891792
I1126 12:33:31.123941  9237 layer_factory.hpp:76] Creating layer inception_5b/3x3_reduce
I1126 12:33:31.123950  9237 net.cpp:106] Creating Layer inception_5b/3x3_reduce
I1126 12:33:31.123952  9237 net.cpp:454] inception_5b/3x3_reduce <- inception_5a/output_inception_5a/output_0_split_1
I1126 12:33:31.123960  9237 net.cpp:411] inception_5b/3x3_reduce -> inception_5b/3x3_reduce
I1126 12:33:31.126832  9237 net.cpp:150] Setting up inception_5b/3x3_reduce
I1126 12:33:31.126847  9237 net.cpp:157] Top shape: 64 192 7 7 (602112)
I1126 12:33:31.126850  9237 net.cpp:165] Memory required for data: 3561300240
I1126 12:33:31.126857  9237 layer_factory.hpp:76] Creating layer inception_5b/relu_3x3_reduce
I1126 12:33:31.126863  9237 net.cpp:106] Creating Layer inception_5b/relu_3x3_reduce
I1126 12:33:31.126866  9237 net.cpp:454] inception_5b/relu_3x3_reduce <- inception_5b/3x3_reduce
I1126 12:33:31.126876  9237 net.cpp:397] inception_5b/relu_3x3_reduce -> inception_5b/3x3_reduce (in-place)
I1126 12:33:31.127089  9237 net.cpp:150] Setting up inception_5b/relu_3x3_reduce
I1126 12:33:31.127099  9237 net.cpp:157] Top shape: 64 192 7 7 (602112)
I1126 12:33:31.127102  9237 net.cpp:165] Memory required for data: 3563708688
I1126 12:33:31.127105  9237 layer_factory.hpp:76] Creating layer inception_5b/3x3
I1126 12:33:31.127115  9237 net.cpp:106] Creating Layer inception_5b/3x3
I1126 12:33:31.127118  9237 net.cpp:454] inception_5b/3x3 <- inception_5b/3x3_reduce
I1126 12:33:31.127125  9237 net.cpp:411] inception_5b/3x3 -> inception_5b/3x3
I1126 12:33:31.133669  9237 net.cpp:150] Setting up inception_5b/3x3
I1126 12:33:31.133684  9237 net.cpp:157] Top shape: 64 384 7 7 (1204224)
I1126 12:33:31.133688  9237 net.cpp:165] Memory required for data: 3568525584
I1126 12:33:31.133695  9237 layer_factory.hpp:76] Creating layer inception_5b/relu_3x3
I1126 12:33:31.133703  9237 net.cpp:106] Creating Layer inception_5b/relu_3x3
I1126 12:33:31.133708  9237 net.cpp:454] inception_5b/relu_3x3 <- inception_5b/3x3
I1126 12:33:31.133713  9237 net.cpp:397] inception_5b/relu_3x3 -> inception_5b/3x3 (in-place)
I1126 12:33:31.134088  9237 net.cpp:150] Setting up inception_5b/relu_3x3
I1126 12:33:31.134100  9237 net.cpp:157] Top shape: 64 384 7 7 (1204224)
I1126 12:33:31.134104  9237 net.cpp:165] Memory required for data: 3573342480
I1126 12:33:31.134106  9237 layer_factory.hpp:76] Creating layer inception_5b/5x5_reduce
I1126 12:33:31.134115  9237 net.cpp:106] Creating Layer inception_5b/5x5_reduce
I1126 12:33:31.134120  9237 net.cpp:454] inception_5b/5x5_reduce <- inception_5a/output_inception_5a/output_0_split_2
I1126 12:33:31.134127  9237 net.cpp:411] inception_5b/5x5_reduce -> inception_5b/5x5_reduce
I1126 12:33:31.136164  9237 net.cpp:150] Setting up inception_5b/5x5_reduce
I1126 12:33:31.136179  9237 net.cpp:157] Top shape: 64 48 7 7 (150528)
I1126 12:33:31.136183  9237 net.cpp:165] Memory required for data: 3573944592
I1126 12:33:31.136189  9237 layer_factory.hpp:76] Creating layer inception_5b/relu_5x5_reduce
I1126 12:33:31.136196  9237 net.cpp:106] Creating Layer inception_5b/relu_5x5_reduce
I1126 12:33:31.136200  9237 net.cpp:454] inception_5b/relu_5x5_reduce <- inception_5b/5x5_reduce
I1126 12:33:31.136205  9237 net.cpp:397] inception_5b/relu_5x5_reduce -> inception_5b/5x5_reduce (in-place)
I1126 12:33:31.136567  9237 net.cpp:150] Setting up inception_5b/relu_5x5_reduce
I1126 12:33:31.136582  9237 net.cpp:157] Top shape: 64 48 7 7 (150528)
I1126 12:33:31.136586  9237 net.cpp:165] Memory required for data: 3574546704
I1126 12:33:31.136590  9237 layer_factory.hpp:76] Creating layer inception_5b/5x5
I1126 12:33:31.136598  9237 net.cpp:106] Creating Layer inception_5b/5x5
I1126 12:33:31.136602  9237 net.cpp:454] inception_5b/5x5 <- inception_5b/5x5_reduce
I1126 12:33:31.136610  9237 net.cpp:411] inception_5b/5x5 -> inception_5b/5x5
I1126 12:33:31.138756  9237 net.cpp:150] Setting up inception_5b/5x5
I1126 12:33:31.138769  9237 net.cpp:157] Top shape: 64 128 7 7 (401408)
I1126 12:33:31.138773  9237 net.cpp:165] Memory required for data: 3576152336
I1126 12:33:31.138779  9237 layer_factory.hpp:76] Creating layer inception_5b/relu_5x5
I1126 12:33:31.138787  9237 net.cpp:106] Creating Layer inception_5b/relu_5x5
I1126 12:33:31.138790  9237 net.cpp:454] inception_5b/relu_5x5 <- inception_5b/5x5
I1126 12:33:31.138795  9237 net.cpp:397] inception_5b/relu_5x5 -> inception_5b/5x5 (in-place)
I1126 12:33:31.139017  9237 net.cpp:150] Setting up inception_5b/relu_5x5
I1126 12:33:31.139029  9237 net.cpp:157] Top shape: 64 128 7 7 (401408)
I1126 12:33:31.139032  9237 net.cpp:165] Memory required for data: 3577757968
I1126 12:33:31.139036  9237 layer_factory.hpp:76] Creating layer inception_5b/pool
I1126 12:33:31.139042  9237 net.cpp:106] Creating Layer inception_5b/pool
I1126 12:33:31.139046  9237 net.cpp:454] inception_5b/pool <- inception_5a/output_inception_5a/output_0_split_3
I1126 12:33:31.139053  9237 net.cpp:411] inception_5b/pool -> inception_5b/pool
I1126 12:33:31.139448  9237 net.cpp:150] Setting up inception_5b/pool
I1126 12:33:31.139461  9237 net.cpp:157] Top shape: 64 832 7 7 (2609152)
I1126 12:33:31.139464  9237 net.cpp:165] Memory required for data: 3588194576
I1126 12:33:31.139467  9237 layer_factory.hpp:76] Creating layer inception_5b/pool_proj
I1126 12:33:31.139477  9237 net.cpp:106] Creating Layer inception_5b/pool_proj
I1126 12:33:31.139480  9237 net.cpp:454] inception_5b/pool_proj <- inception_5b/pool
I1126 12:33:31.139488  9237 net.cpp:411] inception_5b/pool_proj -> inception_5b/pool_proj
I1126 12:33:31.141821  9237 net.cpp:150] Setting up inception_5b/pool_proj
I1126 12:33:31.141852  9237 net.cpp:157] Top shape: 64 128 7 7 (401408)
I1126 12:33:31.141856  9237 net.cpp:165] Memory required for data: 3589800208
I1126 12:33:31.141863  9237 layer_factory.hpp:76] Creating layer inception_5b/relu_pool_proj
I1126 12:33:31.141870  9237 net.cpp:106] Creating Layer inception_5b/relu_pool_proj
I1126 12:33:31.141875  9237 net.cpp:454] inception_5b/relu_pool_proj <- inception_5b/pool_proj
I1126 12:33:31.141880  9237 net.cpp:397] inception_5b/relu_pool_proj -> inception_5b/pool_proj (in-place)
I1126 12:33:31.142096  9237 net.cpp:150] Setting up inception_5b/relu_pool_proj
I1126 12:33:31.142107  9237 net.cpp:157] Top shape: 64 128 7 7 (401408)
I1126 12:33:31.142110  9237 net.cpp:165] Memory required for data: 3591405840
I1126 12:33:31.142113  9237 layer_factory.hpp:76] Creating layer inception_5b/output
I1126 12:33:31.142120  9237 net.cpp:106] Creating Layer inception_5b/output
I1126 12:33:31.142127  9237 net.cpp:454] inception_5b/output <- inception_5b/1x1
I1126 12:33:31.142132  9237 net.cpp:454] inception_5b/output <- inception_5b/3x3
I1126 12:33:31.142135  9237 net.cpp:454] inception_5b/output <- inception_5b/5x5
I1126 12:33:31.142138  9237 net.cpp:454] inception_5b/output <- inception_5b/pool_proj
I1126 12:33:31.142143  9237 net.cpp:411] inception_5b/output -> inception_5b/output
I1126 12:33:31.142173  9237 net.cpp:150] Setting up inception_5b/output
I1126 12:33:31.142179  9237 net.cpp:157] Top shape: 64 1024 7 7 (3211264)
I1126 12:33:31.142182  9237 net.cpp:165] Memory required for data: 3604250896
I1126 12:33:31.142185  9237 layer_factory.hpp:76] Creating layer pool5/7x7_s1
I1126 12:33:31.142190  9237 net.cpp:106] Creating Layer pool5/7x7_s1
I1126 12:33:31.142194  9237 net.cpp:454] pool5/7x7_s1 <- inception_5b/output
I1126 12:33:31.142200  9237 net.cpp:411] pool5/7x7_s1 -> pool5/7x7_s1
I1126 12:33:31.142714  9237 net.cpp:150] Setting up pool5/7x7_s1
I1126 12:33:31.142726  9237 net.cpp:157] Top shape: 64 1024 1 1 (65536)
I1126 12:33:31.142731  9237 net.cpp:165] Memory required for data: 3604513040
I1126 12:33:31.142735  9237 layer_factory.hpp:76] Creating layer pool5/drop_7x7_s1
I1126 12:33:31.142743  9237 net.cpp:106] Creating Layer pool5/drop_7x7_s1
I1126 12:33:31.142747  9237 net.cpp:454] pool5/drop_7x7_s1 <- pool5/7x7_s1
I1126 12:33:31.142752  9237 net.cpp:397] pool5/drop_7x7_s1 -> pool5/7x7_s1 (in-place)
I1126 12:33:31.142777  9237 net.cpp:150] Setting up pool5/drop_7x7_s1
I1126 12:33:31.142784  9237 net.cpp:157] Top shape: 64 1024 1 1 (65536)
I1126 12:33:31.142787  9237 net.cpp:165] Memory required for data: 3604775184
I1126 12:33:31.142791  9237 layer_factory.hpp:76] Creating layer loss3/classifier-attribute
I1126 12:33:31.142796  9237 net.cpp:106] Creating Layer loss3/classifier-attribute
I1126 12:33:31.142801  9237 net.cpp:454] loss3/classifier-attribute <- pool5/7x7_s1
I1126 12:33:31.142807  9237 net.cpp:411] loss3/classifier-attribute -> loss3/classifier-attribute
I1126 12:33:31.221882  9237 net.cpp:150] Setting up loss3/classifier-attribute
I1126 12:33:31.221904  9237 net.cpp:157] Top shape: 64 9999 (639936)
I1126 12:33:31.221907  9237 net.cpp:165] Memory required for data: 3607334928
I1126 12:33:31.221916  9237 layer_factory.hpp:76] Creating layer loss3/classifier-attribute_loss3/classifier-attribute_0_split
I1126 12:33:31.221925  9237 net.cpp:106] Creating Layer loss3/classifier-attribute_loss3/classifier-attribute_0_split
I1126 12:33:31.221931  9237 net.cpp:454] loss3/classifier-attribute_loss3/classifier-attribute_0_split <- loss3/classifier-attribute
I1126 12:33:31.221938  9237 net.cpp:411] loss3/classifier-attribute_loss3/classifier-attribute_0_split -> loss3/classifier-attribute_loss3/classifier-attribute_0_split_0
I1126 12:33:31.221946  9237 net.cpp:411] loss3/classifier-attribute_loss3/classifier-attribute_0_split -> loss3/classifier-attribute_loss3/classifier-attribute_0_split_1
I1126 12:33:31.221984  9237 net.cpp:150] Setting up loss3/classifier-attribute_loss3/classifier-attribute_0_split
I1126 12:33:31.221992  9237 net.cpp:157] Top shape: 64 9999 (639936)
I1126 12:33:31.221994  9237 net.cpp:157] Top shape: 64 9999 (639936)
I1126 12:33:31.221997  9237 net.cpp:165] Memory required for data: 3612454416
I1126 12:33:31.222000  9237 layer_factory.hpp:76] Creating layer loss3/loss3
I1126 12:33:31.222007  9237 net.cpp:106] Creating Layer loss3/loss3
I1126 12:33:31.222009  9237 net.cpp:454] loss3/loss3 <- loss3/classifier-attribute_loss3/classifier-attribute_0_split_0
I1126 12:33:31.222014  9237 net.cpp:454] loss3/loss3 <- label_data_1_split_4
…
