…
state {
  phase: TRAIN
}
layer {
  name: "data"
  type: "ImageData"
  top: "data"
  top: "dummylabel"
  include {
    phase: TRAIN
  }
  transform_param {
    mirror: true
    crop_size: 224
    mean_value: 104
    mean_value: 117
    mean_value: 123
  }
  image_data_param {
    source: "pad_train_shuffle.txt"
    batch_size: 64
    new_height: 256
    new_width: 256
  }
}
layer {
  name: "label"
  type: "Data"
  top: "classlabel"
  include {
    phase: TRAIN
  }
  data_param {
    source: "lmdb_train_pad"
    batch_size: 64
    backend: LMDB
  }
}
layer {
  name: "slice_attribute"
  type: "Slice"
  bottom: "classlabel"
  top: "00.category"
  top: "01.style"
  top: "02.collar_shape"
  top: "03.sleeve_length"
  top: "04.material"
  top: "05.pattern"
  top: "06.button_shape"
  top: "07.sleeve_length"
  top: "08.clothes_length"
  top: "09.fashion_elements"
  top: "10.season"
  top: "11.shape"
  top: "12.age"
  top: "13.skirt_length"
  top: "14.skirt_shape"
  top: "15.waist_shape"
  top: "16.combining"
  top: "17.onepiece_shape"
  top: "18.thickness"
  top: "19.pants_length"
  top: "20.pants_shape"
  top: "21.color"
  slice_param {
    slice_dim: 1
    slice_point: 1
    slice_point: 2
    slice_point: 3
    slice_point: 4
    slice_point: 5
    slice_point: 6
    slice_point: 7
    slice_point: 8
    slice_point: 9
    slice_point: 10
    slice_point: 11
    slice_point: 12
    slice_point: 13
    slice_point: 14
    slice_point: 15
    slice_point: 16
    slice_point: 17
    slice_point: 18
    slice_point: 19
    slice_point: 20
    slice_point: 21
  }
}
layer {
  name: "silence"
  type: "Silence"
  bottom: "dummylabel"
}
layer {
  name: "silence_01"
  type: "Silence"
  bottom: "01.style"
}
layer {
  name: "silence_03"
  type: "Silence"
  bottom: "03.sleeve_length"
}
layer {
  name: "silence_04"
  type: "Silence"
  bottom: "04.material"
}
layer {
  name: "silence_07"
  type: "Silence"
  bottom: "07.sleeve_length"
}
layer {
  name: "silence_08"
  type: "Silence"
  bottom: "08.clothes_length"
}
layer {
  name: "silence_10"
  type: "Silence"
  bottom: "10.season"
}
layer {
  name: "silence_11"
  type: "Silence"
  bottom: "11.shape"
}
layer {
  name: "silence_12"
  type: "Silence"
  bottom: "12.age"
}
layer {
  name: "silence_13"
  type: "Silence"
  bottom: "13.skirt_length"
}
layer {
  name: "silence_14"
  type: "Silence"
  bottom: "14.skirt_shape"
}
layer {
  name: "silence_15"
  type: "Silence"
  bottom: "15.waist_shape"
}
layer {
  name: "silence_16"
  type: "Silence"
  bottom: "16.combining"
}
layer {
  name: "silence_17"
  type: "Silence"
  bottom: "17.onepiece_shape"
}
layer {
  name: "silence_18"
  type: "Silence"
  bottom: "18.thickness"
}
layer {
  name: "silence_19"
  type: "Silence"
  bottom: "19.pants_length"
}
layer {
  name: "silence_20"
  type: "Silence"
  bottom: "20.pants_shape"
}
layer {
  name: "conv1/7x7_s2"
  type: "Convolution"
  bottom: "data"
  top: "conv1/7x7_s2"
  param {
    lr_mult: 1
    decay_mult: 1
  }
  param {
    lr_mult: 2
    decay_mult: 0
  }
  convolution_param {
    num_output: 64
    pad: 3
    kernel_size: 7
    stride: 2
    weight_filler {
      type: "xavier"
    }
    bias_filler {
      type: "constant"
      value: 0.2
    }
  }
}
layer {
  name: "conv1/relu_7x7"
  type: "ReLU"
  bottom: "conv1/7x7_s2"
  top: "conv1/7x7_s2"
}
layer {
  name: "pool1/3x3_s2"
  type: "Pooling"
  bottom: "conv1/7x7_s2"
  top: "pool1/3x3_s2"
  pooling_param {
    pool: MAX
    kernel_size: 3
    stride: 2
  }
}
layer {
  name: "pool1/norm1"
  type: "LRN"
  bottom: "pool1/3x3_s2"
  top: "pool1/norm1"
  lrn_param {
    local_size: 5
    alpha: 0.0001
    beta: 0.75
  }
}
layer {
  name: "conv2/3x3_reduce"
  type: "Convolution"
  bottom: "pool1/norm1"
  top: "conv2/3x3_reduce"
  param {
    lr_mult: 1
    decay_mult: 1
  }
  param {
    lr_mult: 2
    decay_mult: 0
  }
  convolution_param {
    num_output: 64
    kernel_size: 1
    weight_filler {
      type: "xavier"
    }
    bias_filler {
      type: "constant"
      value: 0.2
    }
  }
}
layer {
  name: "conv2/relu_3x3_reduce"
  type: "ReLU"
  bottom: "conv2/3x3_reduce"
  top: "conv2/3x3_reduce"
}
layer {
  name: "conv2/3x3"
  type: "Convolution"
  bottom: "conv2/3x3_reduce"
  top: "conv2/3x3"
  param {
    lr_mult: 1
    decay_mult: 1
  }
  param {
    lr_mult: 2
    decay_mult: 0
  }
  convolution_param {
    num_output: 192
    pad: 1
    kernel_size: 3
    weight_filler {
      type: "xavier"
    }
    bias_filler {
      type: "constant"
      value: 0.2
    }
  }
}
layer {
  name: "conv2/relu_3x3"
  type: "ReLU"
  bottom: "conv2/3x3"
  top: "conv2/3x3"
}
layer {
  name: "conv2/norm2"
  type: "LRN"
  bottom: "conv2/3x3"
  top: "conv2/norm2"
  lrn_param {
    local_size: 5
    alpha: 0.0001
    beta: 0.75
  }
}
layer {
  name: "pool2/3x3_s2"
  type: "Pooling"
  bottom: "conv2/norm2"
  top: "pool2/3x3_s2"
  pooling_param {
    pool: MAX
    kernel_size: 3
    stride: 2
  }
}
layer {
  name: "inception_3a/1x1"
  type: "Convolution"
  bottom: "pool2/3x3_s2"
  top: "inception_3a/1x1"
  param {
    lr_mult: 1
    decay_mult: 1
  }
  param {
    lr_mult: 2
    decay_mult: 0
  }
  convolution_param {
    num_output: 64
    kernel_size: 1
    weight_filler {
      type: "xavier"
    }
    bias_filler {
      type: "constant"
      value: 0.2
    }
  }
}
layer {
  name: "inception_3a/relu_1x1"
  type: "ReLU"
  bottom: "inception_3a/1x1"
  top: "inception_3a/1x1"
}
layer {
  name: "inception_3a/3x3_reduce"
  type: "Convolution"
  bottom: "pool2/3x3_s2"
  top: "inception_3a/3x3_reduce"
  param {
    lr_mult: 1
    decay_mult: 1
  }
  param {
    lr_mult: 2
    decay_mult: 0
  }
  convolution_param {
    num_output: 96
    kernel_size: 1
    weight_filler {
      type: "xavier"
    }
    bias_filler {
      type: "constant"
      value: 0.2
    }
  }
}
layer {
  name: "inception_3a/relu_3x3_reduce"
  type: "ReLU"
  bottom: "inception_3a/3x3_reduce"
  top: "inception_3a/3x3_reduce"
}
layer {
  name: "inception_3a/3x3"
  type: "Convolution"
  bottom: "inception_3a/3x3_reduce"
  top: "inception_3a/3x3"
  param {
    lr_mult: 1
    decay_mult: 1
  }
  param {
    lr_mult: 2
    decay_mult: 0
  }
  convolution_param {
    num_output: 128
    pad: 1
    kernel_size: 3
    weight_filler {
      type: "xavier"
    }
    bias_filler {
      type: "constant"
      value: 0.2
    }
  }
}
layer {
  name: "inception_3a/relu_3x3"
  type: "ReLU"
  bottom: "inception_3a/3x3"
  top: "inception_3a/3x3"
}
layer {
  name: "inception_3a/5x5_reduce"
  type: "Convolution"
  bottom: "pool2/3x3_s2"
  top: "inception_3a/5x5_reduce"
  param {
    lr_mult: 1
    decay_mult: 1
  }
  param {
    lr_mult: 2
    decay_mult: 0
  }
  convolution_param {
    num_output: 16
    kernel_size: 1
    weight_filler {
      type: "xavier"
    }
    bias_filler {
      type: "constant"
      value: 0.2
    }
  }
}
layer {
  name: "inception_3a/relu_5x5_reduce"
  type: "ReLU"
  bottom: "inception_3a/5x5_reduce"
  top: "inception_3a/5x5_reduce"
}
layer {
  name: "inception_3a/5x5"
  type: "Convolution"
  bottom: "inception_3a/5x5_reduce"
  top: "inception_3a/5x5"
  param {
    lr_mult: 1
    decay_mult: 1
  }
  param {
    lr_mult: 2
    decay_mult: 0
  }
  convolution_param {
    num_output: 32
    pad: 2
    kernel_size: 5
    weight_filler {
      type: "xavier"
    }
    bias_filler {
      type: "constant"
      value: 0.2
    }
  }
}
layer {
  name: "inception_3a/relu_5x5"
  type: "ReLU"
  bottom: "inception_3a/5x5"
  top: "inception_3a/5x5"
}
layer {
  name: "inception_3a/pool"
  type: "Pooling"
  bottom: "pool2/3x3_s2"
  top: "inception_3a/pool"
  pooling_param {
    pool: MAX
    kernel_size: 3
    stride: 1
    pad: 1
  }
}
layer {
  name: "inception_3a/pool_proj"
  type: "Convolution"
  bottom: "inception_3a/pool"
  top: "inception_3a/pool_proj"
  param {
    lr_mult: 1
    decay_mult: 1
  }
  param {
    lr_mult: 2
    decay_mult: 0
  }
  convolution_param {
    num_output: 32
    kernel_size: 1
    weight_filler {
      type: "xavier"
    }
    bias_filler {
      type: "constant"
      value: 0.2
    }
  }
}
layer {
  name: "inception_3a/relu_pool_proj"
  type: "ReLU"
  bottom: "inception_3a/pool_proj"
  top: "inception_3a/pool_proj"
}
layer {
  name: "inception_3a/output"
  type: "Concat"
  bottom: "inception_3a/1x1"
  bottom: "inception_3a/3x3"
  bottom: "inception_3a/5x5"
  bottom: "inception_3a/pool_proj"
  top: "inception_3a/output"
}
layer {
  name: "inception_3b/1x1"
  type: "Convolution"
  bottom: "inception_3a/output"
  top: "inception_3b/1x1"
  param {
    lr_mult: 1
    decay_mult: 1
  }
  param {
    lr_mult: 2
    decay_mult: 0
  }
  convolution_param {
    num_output: 128
    kernel_size: 1
    weight_filler {
      type: "xavier"
    }
    bias_filler {
      type: "constant"
      value: 0.2
    }
  }
}
layer {
  name: "inception_3b/relu_1x1"
  type: "ReLU"
  bottom: "inception_3b/1x1"
  top: "inception_3b/1x1"
}
layer {
  name: "inception_3b/3x3_reduce"
  type: "Convolution"
  bottom: "inception_3a/output"
  top: "inception_3b/3x3_reduce"
  param {
    lr_mult: 1
    decay_mult: 1
  }
  param {
    lr_mult: 2
    decay_mult: 0
  }
  convolution_param {
    num_output: 128
    kernel_size: 1
    weight_filler {
      type: "xavier"
    }
    bias_filler {
      type: "constant"
      value: 0.2
    }
  }
}
layer {
  name: "inception_3b/relu_3x3_reduce"
  type: "ReLU"
  bottom: "inception_3b/3x3_reduce"
  top: "inception_3b/3x3_reduce"
}
layer {
  name: "inception_3b/3x3"
  type: "Convolution"
  bottom: "inception_3b/3x3_reduce"
  top: "inception_3b/3x3"
  param {
    lr_mult: 1
    decay_mult: 1
  }
  param {
    lr_mult: 2
    decay_mult: 0
  }
  convolution_param {
    num_output: 192
    pad: 1
    kernel_size: 3
    weight_filler {
      type: "xavier"
    }
    bias_filler {
      type: "constant"
      value: 0.2
    }
  }
}
layer {
  name: "inception_3b/relu_3x3"
  type: "ReLU"
  bottom: "inception_3b/3x3"
  top: "inception_3b/3x3"
}
layer {
  name: "inception_3b/5x5_reduce"
  type: "Convolution"
  bottom: "inception_3a/output"
  top: "inception_3b/5x5_reduce"
  param {
    lr_mult: 1
    decay_mult: 1
  }
  param {
    lr_mult: 2
    decay_mult: 0
  }
  convolution_param {
    num_output: 32
    kernel_size: 1
    weight_filler {
      type: "xavier"
    }
    bias_filler {
      type: "constant"
      value: 0.2
    }
  }
}
layer {
  name: "inception_3b/relu_5x5_reduce"
  type: "ReLU"
  bottom: "inception_3b/5x5_reduce"
  top: "inception_3b/5x5_reduce"
}
layer {
  name: "inception_3b/5x5"
  type: "Convolution"
  bottom: "inception_3b/5x5_reduce"
  top: "inception_3b/5x5"
  param {
    lr_mult: 1
    decay_mult: 1
  }
  param {
    lr_mult: 2
    decay_mult: 0
  }
  convolution_param {
    num_output: 96
    pad: 2
    kernel_size: 5
    weight_filler {
      type: "xavier"
    }
    bias_filler {
      type: "constant"
      value: 0.2
    }
  }
}
layer {
  name: "inception_3b/relu_5x5"
  type: "ReLU"
  bottom: "inception_3b/5x5"
  top: "inception_3b/5x5"
}
layer {
  name: "inception_3b/pool"
  type: "Pooling"
  bottom: "inception_3a/output"
  top: "inception_3b/pool"
  pooling_param {
    pool: MAX
    kernel_size: 3
    stride: 1
    pad: 1
  }
}
layer {
  name: "inception_3b/pool_proj"
  type: "Convolution"
  bottom: "inception_3b/pool"
  top: "inception_3b/pool_proj"
  param {
    lr_mult: 1
    decay_mult: 1
  }
  param {
    lr_mult: 2
    decay_mult: 0
  }
  convolution_param {
    num_output: 64
    kernel_size: 1
    weight_filler {
      type: "xavier"
    }
    bias_filler {
      type: "constant"
      value: 0.2
    }
  }
}
layer {
  name: "inception_3b/relu_pool_proj"
  type: "ReLU"
  bottom: "inception_3b/pool_proj"
  top: "inception_3b/pool_proj"
}
layer {
  name: "inception_3b/output"
  type: "Concat"
  bottom: "inception_3b/1x1"
  bottom: "inception_3b/3x3"
  bottom: "inception_3b/5x5"
  bottom: "inception_3b/pool_proj"
  top: "inception_3b/output"
}
layer {
  name: "pool3/3x3_s2"
  type: "Pooling"
  bottom: "inception_3b/output"
  top: "pool3/3x3_s2"
  pooling_param {
    pool: MAX
    kernel_size: 3
    stride: 2
  }
}
layer {
  name: "inception_4a/1x1"
  type: "Convolution"
  bottom: "pool3/3x3_s2"
  top: "inception_4a/1x1"
  param {
    lr_mult: 1
    decay_mult: 1
  }
  param {
    lr_mult: 2
    decay_mult: 0
  }
  convolution_param {
    num_output: 192
    kernel_size: 1
    weight_filler {
      type: "xavier"
    }
    bias_filler {
      type: "constant"
      value: 0.2
    }
  }
}
layer {
  name: "inception_4a/relu_1x1"
  type: "ReLU"
  bottom: "inception_4a/1x1"
  top: "inception_4a/1x1"
}
layer {
  name: "inception_4a/3x3_reduce"
  type: "Convolution"
  bottom: "pool3/3x3_s2"
  top: "inception_4a/3x3_reduce"
  param {
    lr_mult: 1
    decay_mult: 1
  }
  param {
    lr_mult: 2
    decay_mult: 0
  }
  convolution_param {
    num_output: 96
    kernel_size: 1
    weight_filler {
      type: "xavier"
    }
    bias_filler {
      type: "constant"
      value: 0.2
    }
  }
}
layer {
  name: "inception_4a/relu_3x3_reduce"
  type: "ReLU"
  bottom: "inception_4a/3x3_reduce"
  top: "inception_4a/3x3_reduce"
}
layer {
  name: "inception_4a/3x3"
  type: "Convolution"
  bottom: "inception_4a/3x3_reduce"
  top: "inception_4a/3x3"
  param {
    lr_mult: 1
    decay_mult: 1
  }
  param {
    lr_mult: 2
    decay_mult: 0
  }
  convolution_param {
    num_output: 208
    pad: 1
    kernel_size: 3
    weight_filler {
      type: "xavier"
    }
    bias_filler {
      type: "constant"
      value: 0.2
    }
  }
}
layer {
  name: "inception_4a/relu_3x3"
  type: "ReLU"
  bottom: "inception_4a/3x3"
  top: "inception_4a/3x3"
}
layer {
  name: "inception_4a/5x5_reduce"
  type: "Convolution"
  bottom: "pool3/3x3_s2"
  top: "inception_4a/5x5_reduce"
  param {
    lr_mult: 1
    decay_mult: 1
  }
  param {
    lr_mult: 2
    decay_mult: 0
  }
  convolution_param {
    num_output: 16
    kernel_size: 1
    weight_filler {
      type: "xavier"
    }
    bias_filler {
      type: "constant"
      value: 0.2
    }
  }
}
layer {
  name: "inception_4a/relu_5x5_reduce"
  type: "ReLU"
  bottom: "inception_4a/5x5_reduce"
  top: "inception_4a/5x5_reduce"
}
layer {
  name: "inception_4a/5x5"
  type: "Convolution"
  bottom: "inception_4a/5x5_reduce"
  top: "inception_4a/5x5"
  param {
    lr_mult: 1
    decay_mult: 1
  }
  param {
    lr_mult: 2
    decay_mult: 0
  }
  convolution_param {
    num_output: 48
    pad: 2
    kernel_size: 5
    weight_filler {
      type: "xavier"
    }
    bias_filler {
      type: "constant"
      value: 0.2
    }
  }
}
layer {
  name: "inception_4a/relu_5x5"
  type: "ReLU"
  bottom: "inception_4a/5x5"
  top: "inception_4a/5x5"
}
layer {
  name: "inception_4a/pool"
  type: "Pooling"
  bottom: "pool3/3x3_s2"
  top: "inception_4a/pool"
  pooling_param {
    pool: MAX
    kernel_size: 3
    stride: 1
    pad: 1
  }
}
layer {
  name: "inception_4a/pool_proj"
  type: "Convolution"
  bottom: "inception_4a/pool"
  top: "inception_4a/pool_proj"
  param {
    lr_mult: 1
    decay_mult: 1
  }
  param {
    lr_mult: 2
    decay_mult: 0
  }
  convolution_param {
    num_output: 64
    kernel_size: 1
    weight_filler {
      type: "xavier"
    }
    bias_filler {
      type: "constant"
      value: 0.2
    }
  }
}
layer {
  name: "inception_4a/relu_pool_proj"
  type: "ReLU"
  bottom: "inception_4a/pool_proj"
  top: "inception_4a/pool_proj"
}
layer {
  name: "inception_4a/output"
  type: "Concat"
  bottom: "inception_4a/1x1"
  bottom: "inception_4a/3x3"
  bottom: "inception_4a/5x5"
  bottom: "inception_4a/pool_proj"
  top: "inception_4a/output"
}
layer {
  name: "loss1/ave_pool"
  type: "Pooling"
  bottom: "inception_4a/output"
  top: "loss1/ave_pool"
  pooling_param {
    pool: AVE
    kernel_size: 5
    stride: 3
  }
}
layer {
  name: "loss1/conv"
  type: "Convolution"
  bottom: "loss1/ave_pool"
  top: "loss1/conv"
  param {
    lr_mult: 1
    decay_mult: 1
  }
  param {
    lr_mult: 2
    decay_mult: 0
  }
  convolution_param {
    num_output: 128
    kernel_size: 1
    weight_filler {
      type: "xavier"
    }
    bias_filler {
      type: "constant"
      value: 0.2
    }
  }
}
layer {
  name: "loss1/relu_conv"
  type: "ReLU"
  bottom: "loss1/conv"
  top: "loss1/conv"
}
layer {
  name: "loss1/fc_00.category"
  type: "InnerProduct"
  bottom: "loss1/conv"
  top: "loss1/fc_00.category"
  param {
    lr_mult: 10
    decay_mult: 1
  }
  param {
    lr_mult: 20
    decay_mult: 0
  }
  inner_product_param {
    num_output: 512
    weight_filler {
      type: "xavier"
    }
    bias_filler {
      type: "constant"
      value: 0.2
    }
  }
}
layer {
  name: "loss1/relu_fc_00.category"
  type: "ReLU"
  bottom: "loss1/fc_00.category"
  top: "loss1/fc_00.category"
}
layer {
  name: "loss1/drop_fc_00.category"
  type: "Dropout"
  bottom: "loss1/fc_00.category"
  top: "loss1/fc_00.category"
  dropout_param {
    dropout_ratio: 0.7
  }
}
layer {
  name: "loss1/classifier-00.category"
  type: "InnerProduct"
  bottom: "loss1/fc_00.category"
  top: "loss1/classifier-00.category"
  param {
    lr_mult: 10
    decay_mult: 1
  }
  param {
    lr_mult: 20
    decay_mult: 0
  }
  inner_product_param {
    num_output: 16
    weight_filler {
      type: "xavier"
    }
    bias_filler {
      type: "constant"
      value: 0
    }
  }
}
layer {
  name: "loss1/loss_00.category"
  type: "SoftmaxWithLoss"
  bottom: "loss1/classifier-00.category"
  bottom: "00.category"
  loss_weight: 0.3
}
layer {
  name: "loss1/fc_02.collar_shape"
  type: "InnerProduct"
  bottom: "loss1/conv"
  top: "loss1/fc_02.collar_shape"
  param {
    lr_mult: 10
    decay_mult: 1
  }
  param {
    lr_mult: 20
    decay_mult: 0
  }
  inner_product_param {
    num_output: 512
    weight_filler {
      type: "xavier"
    }
    bias_filler {
      type: "constant"
      value: 0.2
    }
  }
}
layer {
  name: "loss1/relu_fc_02.collar_shape"
  type: "ReLU"
  bottom: "loss1/fc_02.collar_shape"
  top: "loss1/fc_02.collar_shape"
}
layer {
  name: "loss1/drop_fc_02.collar_shape"
  type: "Dropout"
  bottom: "loss1/fc_02.collar_shape"
  top: "loss1/fc_02.collar_shape"
  dropout_param {
    dropout_ratio: 0.7
  }
}
layer {
  name: "loss1/classifier-02.collar_shape"
  type: "InnerProduct"
  bottom: "loss1/fc_02.collar_shape"
  top: "loss1/classifier-02.collar_shape"
  param {
    lr_mult: 10
    decay_mult: 1
  }
  param {
    lr_mult: 20
    decay_mult: 0
  }
  inner_product_param {
    num_output: 13
    weight_filler {
      type: "xavier"
    }
    bias_filler {
      type: "constant"
      value: 0
    }
  }
}
layer {
  name: "loss1/loss_02.collar_shape"
  type: "SoftmaxWithLoss"
  bottom: "loss1/classifier-02.collar_shape"
  bottom: "02.collar_shape"
  loss_weight: 0.3
}
layer {
  name: "loss1/fc_05.pattern"
  type: "InnerProduct"
  bottom: "loss1/conv"
  top: "loss1/fc_05.pattern"
  param {
    lr_mult: 10
    decay_mult: 1
  }
  param {
    lr_mult: 20
    decay_mult: 0
  }
  inner_product_param {
    num_output: 512
    weight_filler {
      type: "xavier"
    }
    bias_filler {
      type: "constant"
      value: 0.2
    }
  }
}
layer {
  name: "loss1/relu_fc_05.pattern"
  type: "ReLU"
  bottom: "loss1/fc_05.pattern"
  top: "loss1/fc_05.pattern"
}
layer {
  name: "loss1/drop_fc_05.pattern"
  type: "Dropout"
  bottom: "loss1/fc_05.pattern"
  top: "loss1/fc_05.pattern"
  dropout_param {
    dropout_ratio: 0.7
  }
}
layer {
  name: "loss1/classifier-05.pattern"
  type: "InnerProduct"
  bottom: "loss1/fc_05.pattern"
  top: "loss1/classifier-05.pattern"
  param {
    lr_mult: 10
    decay_mult: 1
  }
  param {
    lr_mult: 20
    decay_mult: 0
  }
  inner_product_param {
    num_output: 16
    weight_filler {
      type: "xavier"
    }
    bias_filler {
      type: "constant"
      value: 0
    }
  }
}
layer {
  name: "loss1/loss_05.pattern"
  type: "SoftmaxWithLoss"
  bottom: "loss1/classifier-05.pattern"
  bottom: "05.pattern"
  loss_weight: 0.3
}
layer {
  name: "loss1/fc_06.button_shape"
  type: "InnerProduct"
  bottom: "loss1/conv"
  top: "loss1/fc_06.button_shape"
  param {
    lr_mult: 10
    decay_mult: 1
  }
  param {
    lr_mult: 20
    decay_mult: 0
  }
  inner_product_param {
    num_output: 512
    weight_filler {
      type: "xavier"
    }
    bias_filler {
      type: "constant"
      value: 0.2
    }
  }
}
layer {
  name: "loss1/relu_fc_06.button_shape"
  type: "ReLU"
  bottom: "loss1/fc_06.button_shape"
  top: "loss1/fc_06.button_shape"
}
layer {
  name: "loss1/drop_fc_06.button_shape"
  type: "Dropout"
  bottom: "loss1/fc_06.button_shape"
  top: "loss1/fc_06.button_shape"
  dropout_param {
    dropout_ratio: 0.7
  }
}
layer {
  name: "loss1/classifier-06.button_shape"
  type: "InnerProduct"
  bottom: "loss1/fc_06.button_shape"
  top: "loss1/classifier-06.button_shape"
  param {
    lr_mult: 10
    decay_mult: 1
  }
  param {
    lr_mult: 20
    decay_mult: 0
  }
  inner_product_param {
    num_output: 9
    weight_filler {
      type: "xavier"
    }
    bias_filler {
      type: "constant"
      value: 0
    }
  }
}
layer {
  name: "loss1/loss_06.button_shape"
  type: "SoftmaxWithLoss"
  bottom: "loss1/classifier-06.button_shape"
  bottom: "06.button_shape"
  loss_weight: 0.3
}
layer {
  name: "loss1/fc_09.fashion_elements"
  type: "InnerProduct"
  bottom: "loss1/conv"
  top: "loss1/fc_09.fashion_elements"
  param {
    lr_mult: 10
    decay_mult: 1
  }
  param {
    lr_mult: 20
    decay_mult: 0
  }
  inner_product_param {
    num_output: 512
    weight_filler {
      type: "xavier"
    }
    bias_filler {
      type: "constant"
      value: 0.2
    }
  }
}
layer {
  name: "loss1/relu_fc_09.fashion_elements"
  type: "ReLU"
  bottom: "loss1/fc_09.fashion_elements"
  top: "loss1/fc_09.fashion_elements"
}
layer {
  name: "loss1/drop_fc_09.fashion_elements"
  type: "Dropout"
  bottom: "loss1/fc_09.fashion_elements"
  top: "loss1/fc_09.fashion_elements"
  dropout_param {
    dropout_ratio: 0.7
  }
}
layer {
  name: "loss1/classifier-09.fashion_elements"
  type: "InnerProduct"
  bottom: "loss1/fc_09.fashion_elements"
  top: "loss1/classifier-09.fashion_elements"
  param {
    lr_mult: 10
    decay_mult: 1
  }
  param {
    lr_mult: 20
    decay_mult: 0
  }
  inner_product_param {
    num_output: 15
    weight_filler {
      type: "xavier"
    }
    bias_filler {
      type: "constant"
      value: 0
    }
  }
}
layer {
  name: "loss1/loss_09.fashion_elements"
  type: "SoftmaxWithLoss"
  bottom: "loss1/classifier-09.fashion_elements"
  bottom: "09.fashion_elements"
  loss_weight: 0.3
}
layer {
  name: "loss1/fc_21.color"
  type: "InnerProduct"
  bottom: "loss1/conv"
  top: "loss1/fc_21.color"
  param {
    lr_mult: 10
    decay_mult: 1
  }
  param {
    lr_mult: 20
    decay_mult: 0
  }
  inner_product_param {
    num_output: 512
    weight_filler {
      type: "xavier"
    }
    bias_filler {
      type: "constant"
      value: 0.2
    }
  }
}
layer {
  name: "loss1/relu_fc_21.color"
  type: "ReLU"
  bottom: "loss1/fc_21.color"
  top: "loss1/fc_21.color"
}
layer {
  name: "loss1/drop_fc_21.color"
  type: "Dropout"
  bottom: "loss1/fc_21.color"
  top: "loss1/fc_21.color"
  dropout_param {
    dropout_ratio: 0.7
  }
}
layer {
  name: "loss1/classifier-21.color"
  type: "InnerProduct"
  bottom: "loss1/fc_21.color"
  top: "loss1/classifier-21.color"
  param {
    lr_mult: 10
    decay_mult: 1
  }
  param {
    lr_mult: 20
    decay_mult: 0
  }
  inner_product_param {
    num_output: 21
    weight_filler {
      type: "xavier"
    }
    bias_filler {
      type: "constant"
      value: 0
    }
  }
}
layer {
  name: "loss1/loss_21.color"
  type: "SoftmaxWithLoss"
  bottom: "loss1/classifier-21.color"
  bottom: "21.color"
  loss_weight: 0.3
}
layer {
  name: "inception_4b/1x1"
  type: "Convolution"
  bottom: "inception_4a/output"
  top: "inception_4b/1x1"
  param {
    lr_mult: 1
    decay_mult: 1
  }
  param {
    lr_mult: 2
    decay_mult: 0
  }
  convolution_param {
    num_output: 160
    kernel_size: 1
    weight_filler {
      type: "xavier"
    }
    bias_filler {
      type: "constant"
      value: 0.2
    }
  }
}
layer {
  name: "inception_4b/relu_1x1"
  type: "ReLU"
  bottom: "inception_4b/1x1"
  top: "inception_4b/1x1"
}
layer {
  name: "inception_4b/3x3_reduce"
  type: "Convolution"
  bottom: "inception_4a/output"
  top: "inception_4b/3x3_reduce"
  param {
    lr_mult: 1
    decay_mult: 1
  }
  param {
    lr_mult: 2
    decay_mult: 0
  }
  convolution_param {
    num_output: 112
    kernel_size: 1
    weight_filler {
      type: "xavier"
    }
    bias_filler {
      type: "constant"
      value: 0.2
    }
  }
}
layer {
  name: "inception_4b/relu_3x3_reduce"
  type: "ReLU"
  bottom: "inception_4b/3x3_reduce"
  top: "inception_4b/3x3_reduce"
}
layer {
  name: "inception_4b/3x3"
  type: "Convolution"
  bottom: "inception_4b/3x3_reduce"
  top: "inception_4b/3x3"
  param {
    lr_mult: 1
    decay_mult: 1
  }
  param {
    lr_mult: 2
    decay_mult: 0
  }
  convolution_param {
    num_output: 224
    pad: 1
    kernel_size: 3
    weight_filler {
      type: "xavier"
    }
    bias_filler {
      type: "constant"
      value: 0.2
    }
  }
}
layer {
  name: "inception_4b/relu_3x3"
  type: "ReLU"
  bottom: "inception_4b/3x3"
  top: "inception_4b/3x3"
}
layer {
  name: "inception_4b/5x5_reduce"
  type: "Convolution"
  bottom: "inception_4a/output"
  top: "inception_4b/5x5_reduce"
  param {
    lr_mult: 1
    decay_mult: 1
  }
  param {
    lr_mult: 2
    decay_mult: 0
  }
  convolution_param {
    num_output: 24
    kernel_size: 1
    weight_filler {
      type: "xavier"
    }
    bias_filler {
      type: "constant"
      value: 0.2
    }
  }
}
layer {
  name: "inception_4b/relu_5x5_reduce"
  type: "ReLU"
  bottom: "inception_4b/5x5_reduce"
  top: "inception_4b/5x5_reduce"
}
layer {
  name: "inception_4b/5x5"
  type: "Convolution"
  bottom: "inception_4b/5x5_reduce"
  top: "inception_4b/5x5"
  param {
    lr_mult: 1
    decay_mult: 1
  }
  param {
    lr_mult: 2
    decay_mult: 0
  }
  convolution_param {
    num_output: 64
    pad: 2
    kernel_size: 5
    weight_filler {
      type: "xavier"
    }
    bias_filler {
      type: "constant"
      value: 0.2
    }
  }
}
layer {
  name: "inception_4b/relu_5x5"
  type: "ReLU"
  bottom: "inception_4b/5x5"
  top: "inception_4b/5x5"
}
layer {
  name: "inception_4b/pool"
  type: "Pooling"
  bottom: "inception_4a/output"
  top: "inception_4b/pool"
  pooling_param {
    pool: MAX
    kernel_size: 3
    stride: 1
    pad: 1
  }
}
layer {
  name: "inception_4b/pool_proj"
  type: "Convolution"
  bottom: "inception_4b/pool"
  top: "inception_4b/pool_proj"
  param {
    lr_mult: 1
    decay_mult: 1
  }
  param {
    lr_mult: 2
    decay_mult: 0
  }
  convolution_param {
    num_output: 64
    kernel_size: 1
    weight_filler {
      type: "xavier"
    }
    bias_filler {
      type: "constant"
      value: 0.2
    }
  }
}
layer {
  name: "inception_4b/relu_pool_proj"
  type: "ReLU"
  bottom: "inception_4b/pool_proj"
  top: "inception_4b/pool_proj"
}
layer {
  name: "inception_4b/output"
  type: "Concat"
  bottom: "inception_4b/1x1"
  bottom: "inception_4b/3x3"
  bottom: "inception_4b/5x5"
  bottom: "inception_4b/pool_proj"
  top: "inception_4b/output"
}
layer {
  name: "inception_4c/1x1"
  type: "Convolution"
  bottom: "inception_4b/output"
  top: "inception_4c/1x1"
  param {
    lr_mult: 1
    decay_mult: 1
  }
  param {
    lr_mult: 2
    decay_mult: 0
  }
  convolution_param {
    num_output: 128
    kernel_size: 1
    weight_filler {
      type: "xavier"
    }
    bias_filler {
      type: "constant"
      value: 0.2
    }
  }
}
layer {
  name: "inception_4c/relu_1x1"
  type: "ReLU"
  bottom: "inception_4c/1x1"
  top: "inception_4c/1x1"
}
layer {
  name: "inception_4c/3x3_reduce"
  type: "Convolution"
  bottom: "inception_4b/output"
  top: "inception_4c/3x3_reduce"
  param {
    lr_mult: 1
    decay_mult: 1
  }
  param {
    lr_mult: 2
    decay_mult: 0
  }
  convolution_param {
    num_output: 128
    kernel_size: 1
    weight_filler {
      type: "xavier"
    }
    bias_filler {
      type: "constant"
      value: 0.2
    }
  }
}
layer {
  name: "inception_4c/relu_3x3_reduce"
  type: "ReLU"
  bottom: "inception_4c/3x3_reduce"
  top: "inception_4c/3x3_reduce"
}
layer {
  name: "inception_4c/3x3"
  type: "Convolution"
  bottom: "inception_4c/3x3_reduce"
  top: "inception_4c/3x3"
  param {
    lr_mult: 1
    decay_mult: 1
  }
  param {
    lr_mult: 2
    decay_mult: 0
  }
  convolution_param {
    num_output: 256
    pad: 1
    kernel_size: 3
    weight_filler {
      type: "xavier"
    }
    bias_filler {
      type: "constant"
      value: 0.2
    }
  }
}
layer {
  name: "inception_4c/relu_3x3"
  type: "ReLU"
  bottom: "inception_4c/3x3"
  top: "inception_4c/3x3"
}
layer {
  name: "inception_4c/5x5_reduce"
  type: "Convolution"
  bottom: "inception_4b/output"
  top: "inception_4c/5x5_reduce"
  param {
    lr_mult: 1
    decay_mult: 1
  }
  param {
    lr_mult: 2
    decay_mult: 0
  }
  convolution_param {
    num_output: 24
    kernel_size: 1
    weight_filler {
      type: "xavier"
    }
    bias_filler {
      type: "constant"
      value: 0.2
    }
  }
}
layer {
  name: "inception_4c/relu_5x5_reduce"
  type: "ReLU"
  bottom: "inception_4c/5x5_reduce"
  top: "inception_4c/5x5_reduce"
}
layer {
  name: "inception_4c/5x5"
  type: "Convolution"
  bottom: "inception_4c/5x5_reduce"
  top: "inception_4c/5x5"
  param {
    lr_mult: 1
    decay_mult: 1
  }
  param {
    lr_mult: 2
    decay_mult: 0
  }
  convolution_param {
    num_output: 64
    pad: 2
    kernel_size: 5
    weight_filler {
      type: "xavier"
    }
    bias_filler {
      type: "constant"
      value: 0.2
    }
  }
}
layer {
  name: "inception_4c/relu_5x5"
  type: "ReLU"
  bottom: "inception_4c/5x5"
  top: "inception_4c/5x5"
}
layer {
  name: "inception_4c/pool"
  typ
I1125 15:37:36.856381 17455 layer_factory.hpp:76] Creating layer data
I1125 15:37:36.856431 17455 net.cpp:106] Creating Layer data
I1125 15:37:36.856441 17455 net.cpp:411] data -> data
I1125 15:37:36.856472 17455 net.cpp:411] data -> dummylabel
I1125 15:37:36.856952 17455 image_data_layer.cpp:36] Opening file pad_train_shuffle.txt
I1125 15:37:36.948233 17455 image_data_layer.cpp:51] A total of 193988 images.
I1125 15:37:36.969687 17455 image_data_layer.cpp:78] output data size: 64,3,224,224
I1125 15:37:37.022382 17455 net.cpp:150] Setting up data
I1125 15:37:37.022451 17455 net.cpp:157] Top shape: 64 3 224 224 (9633792)
I1125 15:37:37.022459 17455 net.cpp:157] Top shape: 64 (64)
I1125 15:37:37.022464 17455 net.cpp:165] Memory required for data: 38535424
I1125 15:37:37.022470 17455 layer_factory.hpp:76] Creating layer label
I1125 15:37:37.022583 17455 net.cpp:106] Creating Layer label
I1125 15:37:37.022593 17455 net.cpp:411] label -> classlabel
I1125 15:37:37.032441 17470 db_lmdb.cpp:38] Opened lmdb lmdb_train_pad
I1125 15:37:37.035356 17455 data_layer.cpp:41] output data size: 64,22,1,1
I1125 15:37:37.036049 17455 net.cpp:150] Setting up label
I1125 15:37:37.036064 17455 net.cpp:157] Top shape: 64 22 1 1 (1408)
I1125 15:37:37.036068 17455 net.cpp:165] Memory required for data: 38541056
I1125 15:37:37.036072 17455 layer_factory.hpp:76] Creating layer slice_attribute
I1125 15:37:37.036114 17455 net.cpp:106] Creating Layer slice_attribute
I1125 15:37:37.036125 17455 net.cpp:454] slice_attribute <- classlabel
I1125 15:37:37.036139 17455 net.cpp:411] slice_attribute -> 00.category
I1125 15:37:37.036149 17455 net.cpp:411] slice_attribute -> 01.style
…
I1125 15:37:37.036254 17455 net.cpp:411] slice_attribute -> 15.waist_shape
I1125 15:37:37.036262 17455 net.cpp:411] slice_attribute -> 16.combining
I1125 15:37:37.036268 17455 net.cpp:411] slice_attribute -> 17.onepiece_shape
I1125 15:37:37.036276 17455 net.cpp:411] slice_attribute -> 18.thickness
I1125 15:37:37.036284 17455 net.cpp:411] slice_attribute -> 19.pants_length
I1125 15:37:37.036294 17455 net.cpp:411] slice_attribute -> 20.pants_shape
I1125 15:37:37.036301 17455 net.cpp:411] slice_attribute -> 21.color
I1125 15:37:37.036502 17455 net.cpp:150] Setting up slice_attribute
I1125 15:37:37.036510 17455 net.cpp:157] Top shape: 64 1 1 1 (64)
I1125 15:37:37.036515 17455 net.cpp:157] Top shape: 64 1 1 1 (64)
I1125 15:37:37.036520 17455 net.cpp:157] Top shape: 64 1 1 1 (64)
I1125 15:37:37.036522 17455 net.cpp:157] Top shape: 64 1 1 1 (64)
I1125 15:37:37.036526 17455 net.cpp:157] Top shape: 64 1 1 1 (64)
I1125 15:37:37.036530 17455 net.cpp:157] Top shape: 64 1 1 1 (64)
I1125 15:37:37.036533 17455 net.cpp:157] Top shape: 64 1 1 1 (64)
I1125 15:37:37.036537 17455 net.cpp:157] Top shape: 64 1 1 1 (64)
I1125 15:37:37.036540 17455 net.cpp:157] Top shape: 64 1 1 1 (64)
I1125 15:37:37.036545 17455 net.cpp:157] Top shape: 64 1 1 1 (64)
I1125 15:37:37.036547 17455 net.cpp:157] Top shape: 64 1 1 1 (64)
I1125 15:37:37.036550 17455 net.cpp:157] Top shape: 64 1 1 1 (64)
I1125 15:37:37.036555 17455 net.cpp:157] Top shape: 64 1 1 1 (64)
I1125 15:37:37.036558 17455 net.cpp:157] Top shape: 64 1 1 1 (64)
I1125 15:37:37.036561 17455 net.cpp:157] Top shape: 64 1 1 1 (64)
I1125 15:37:37.036564 17455 net.cpp:157] Top shape: 64 1 1 1 (64)
I1125 15:37:37.036568 17455 net.cpp:157] Top shape: 64 1 1 1 (64)
I1125 15:37:37.036571 17455 net.cpp:157] Top shape: 64 1 1 1 (64)
I1125 15:37:37.036576 17455 net.cpp:157] Top shape: 64 1 1 1 (64)
I1125 15:37:37.036578 17455 net.cpp:157] Top shape: 64 1 1 1 (64)
I1125 15:37:37.036581 17455 net.cpp:157] Top shape: 64 1 1 1 (64)
I1125 15:37:37.036586 17455 net.cpp:157] Top shape: 64 1 1 1 (64)
I1125 15:37:37.036588 17455 net.cpp:165] Memory required for data: 38546688
I1125 15:37:37.036592 17455 layer_factory.hpp:76] Creating layer 00.category_slice_attribute_0_split
I1125 15:37:37.036599 17455 net.cpp:106] Creating Layer 00.category_slice_attribute_0_split
I1125 15:37:37.036603 17455 net.cpp:454] 00.category_slice_attribute_0_split <- 00.category
I1125 15:37:37.036608 17455 net.cpp:411] 00.category_slice_attribute_0_split -> 00.category_slice_attribute_0_split_0
I1125 15:37:37.036614 17455 net.cpp:411] 00.category_slice_attribute_0_split -> 00.category_slice_attribute_0_split_1
I1125 15:37:37.036623 17455 net.cpp:411] 00.category_slice_attribute_0_split -> 00.category_slice_attribute_0_split_2
I1125 15:37:37.036659 17455 net.cpp:150] Setting up 00.category_slice_attribute_0_split
I1125 15:37:37.036664 17455 net.cpp:157] Top shape: 64 1 1 1 (64)
I1125 15:37:37.036669 17455 net.cpp:157] Top shape: 64 1 1 1 (64)
I1125 15:37:37.036671 17455 net.cpp:157] Top shape: 64 1 1 1 (64)
I1125 15:37:37.036675 17455 net.cpp:165] Memory required for data: 38547456
I1125 15:37:37.036679 17455 layer_factory.hpp:76] Creating layer 02.collar_shape_slice_attribute_2_split
I1125 15:37:37.036684 17455 net.cpp:106] Creating Layer 02.collar_shape_slice_attribute_2_split
I1125 15:37:37.036689 17455 net.cpp:454] 02.collar_shape_slice_attribute_2_split <- 02.collar_shape
I1125 15:37:37.036694 17455 net.cpp:411] 02.collar_shape_slice_attribute_2_split -> 02.collar_shape_slice_attribute_2_split_0
I1125 15:37:37.036698 17455 net.cpp:411] 02.collar_shape_slice_attribute_2_split -> 02.collar_shape_slice_attribute_2_split_1
I1125 15:37:37.036703 17455 net.cpp:411] 02.collar_shape_slice_attribute_2_split -> 02.collar_shape_slice_attribute_2_split_2
I1125 15:37:37.036736 17455 net.cpp:150] Setting up 02.collar_shape_slice_attribute_2_split
I1125 15:37:37.036741 17455 net.cpp:157] Top shape: 64 1 1 1 (64)
I1125 15:37:37.036746 17455 net.cpp:157] Top shape: 64 1 1 1 (64)
I1125 15:37:37.036749 17455 net.cpp:157] Top shape: 64 1 1 1 (64)
I1125 15:37:37.036751 17455 net.cpp:165] Memory required for data: 38548224
I1125 15:37:37.036754 17455 layer_factory.hpp:76] Creating layer 05.pattern_slice_attribute_5_split
I1125 15:37:37.036759 17455 net.cpp:106] Creating Layer 05.pattern_slice_attribute_5_split
I1125 15:37:37.036762 17455 net.cpp:454] 05.pattern_slice_attribute_5_split <- 05.pattern
I1125 15:37:37.036767 17455 net.cpp:411] 05.pattern_slice_attribute_5_split -> 05.pattern_slice_attribute_5_split_0
I1125 15:37:37.036772 17455 net.cpp:411] 05.pattern_slice_attribute_5_split -> 05.pattern_slice_attribute_5_split_1
I1125 15:37:37.036779 17455 net.cpp:411] 05.pattern_slice_attribute_5_split -> 05.pattern_slice_attribute_5_split_2
I1125 15:37:37.036811 17455 net.cpp:150] Setting up 05.pattern_slice_attribute_5_split
I1125 15:37:37.036818 17455 net.cpp:157] Top shape: 64 1 1 1 (64)
I1125 15:37:37.036821 17455 net.cpp:157] Top shape: 64 1 1 1 (64)
I1125 15:37:37.036824 17455 net.cpp:157] Top shape: 64 1 1 1 (64)
I1125 15:37:37.036828 17455 net.cpp:165] Memory required for data: 38548992
I1125 15:37:37.036830 17455 layer_factory.hpp:76] Creating layer 06.button_shape_slice_attribute_6_split
I1125 15:37:37.036835 17455 net.cpp:106] Creating Layer 06.button_shape_slice_attribute_6_split
I1125 15:37:37.036839 17455 net.cpp:454] 06.button_shape_slice_attribute_6_split <- 06.button_shape
I1125 15:37:37.036844 17455 net.cpp:411] 06.button_shape_slice_attribute_6_split -> 06.button_shape_slice_attribute_6_split_0
I1125 15:37:37.036849 17455 net.cpp:411] 06.button_shape_slice_attribute_6_split -> 06.button_shape_slice_attribute_6_split_1
I1125 15:37:37.036854 17455 net.cpp:411] 06.button_shape_slice_attribute_6_split -> 06.button_shape_slice_attribute_6_split_2
I1125 15:37:37.036885 17455 net.cpp:150] Setting up 06.button_shape_slice_attribute_6_split
I1125 15:37:37.036890 17455 net.cpp:157] Top shape: 64 1 1 1 (64)
I1125 15:37:37.036895 17455 net.cpp:157] Top shape: 64 1 1 1 (64)
I1125 15:37:37.036898 17455 net.cpp:157] Top shape: 64 1 1 1 (64)
I1125 15:37:37.036901 17455 net.cpp:165] Memory required for data: 38549760
I1125 15:37:37.036905 17455 layer_factory.hpp:76] Creating layer 09.fashion_elements_slice_attribute_9_split
I1125 15:37:37.036908 17455 net.cpp:106] Creating Layer 09.fashion_elements_slice_attribute_9_split
I1125 15:37:37.036911 17455 net.cpp:454] 09.fashion_elements_slice_attribute_9_split <- 09.fashion_elements
I1125 15:37:37.036916 17455 net.cpp:411] 09.fashion_elements_slice_attribute_9_split -> 09.fashion_elements_slice_attribute_9_split_0
I1125 15:37:37.036922 17455 net.cpp:411] 09.fashion_elements_slice_attribute_9_split -> 09.fashion_elements_slice_attribute_9_split_1
I1125 15:37:37.036927 17455 net.cpp:411] 09.fashion_elements_slice_attribute_9_split -> 09.fashion_elements_slice_attribute_9_split_2
I1125 15:37:37.036957 17455 net.cpp:150] Setting up 09.fashion_elements_slice_attribute_9_split
I1125 15:37:37.036963 17455 net.cpp:157] Top shape: 64 1 1 1 (64)
I1125 15:37:37.036967 17455 net.cpp:157] Top shape: 64 1 1 1 (64)
I1125 15:37:37.036970 17455 net.cpp:157] Top shape: 64 1 1 1 (64)
I1125 15:37:37.036973 17455 net.cpp:165] Memory required for data: 38550528
I1125 15:37:37.036977 17455 layer_factory.hpp:76] Creating layer 21.color_slice_attribute_21_split
I1125 15:37:37.036983 17455 net.cpp:106] Creating Layer 21.color_slice_attribute_21_split
I1125 15:37:37.036985 17455 net.cpp:454] 21.color_slice_attribute_21_split <- 21.color
I1125 15:37:37.036990 17455 net.cpp:411] 21.color_slice_attribute_21_split -> 21.color_slice_attribute_21_split_0
I1125 15:37:37.036996 17455 net.cpp:411] 21.color_slice_attribute_21_split -> 21.color_slice_attribute_21_split_1
I1125 15:37:37.037001 17455 net.cpp:411] 21.color_slice_attribute_21_split -> 21.color_slice_attribute_21_split_2
I1125 15:37:37.037032 17455 net.cpp:150] Setting up 21.color_slice_attribute_21_split
I1125 15:37:37.037039 17455 net.cpp:157] Top shape: 64 1 1 1 (64)
I1125 15:37:37.037041 17455 net.cpp:157] Top shape: 64 1 1 1 (64)
I1125 15:37:37.037045 17455 net.cpp:157] Top shape: 64 1 1 1 (64)
I1125 15:37:37.037047 17455 net.cpp:165] Memory required for data: 38551296
I1125 15:37:37.037050 17455 layer_factory.hpp:76] Creating layer silence
I1125 15:37:37.037057 17455 net.cpp:106] Creating Layer silence
I1125 15:37:37.037061 17455 net.cpp:454] silence <- dummylabel
I1125 15:37:37.037066 17455 net.cpp:150] Setting up silence
I1125 15:37:37.037070 17455 net.cpp:165] Memory required for data: 38551296
…
I1125 15:37:37.037317 17455 net.cpp:106] Creating Layer silence_20
I1125 15:37:37.037320 17455 net.cpp:454] silence_20 <- 20.pants_shape
I1125 15:37:37.037323 17455 net.cpp:150] Setting up silence_20
I1125 15:37:37.037327 17455 net.cpp:165] Memory required for data: 38551296
I1125 15:37:37.037329 17455 layer_factory.hpp:76] Creating layer conv1/7x7_s2
I1125 15:37:37.037338 17455 net.cpp:106] Creating Layer conv1/7x7_s2
I1125 15:37:37.037343 17455 net.cpp:454] conv1/7x7_s2 <- data
I1125 15:37:37.037348 17455 net.cpp:411] conv1/7x7_s2 -> conv1/7x7_s2
I1125 15:37:37.206408 17455 net.cpp:150] Setting up conv1/7x7_s2
I1125 15:37:37.206436 17455 net.cpp:157] Top shape: 64 64 112 112 (51380224)
I1125 15:37:37.206441 17455 net.cpp:165] Memory required for data: 244072192
I1125 15:37:37.206465 17455 layer_factory.hpp:76] Creating layer conv1/relu_7x7
I1125 15:37:37.206477 17455 net.cpp:106] Creating Layer conv1/relu_7x7
I1125 15:37:37.206492 17455 net.cpp:454] conv1/relu_7x7 <- conv1/7x7_s2
I1125 15:37:37.206501 17455 net.cpp:397] conv1/relu_7x7 -> conv1/7x7_s2 (in-place)
I1125 15:37:37.206859 17455 net.cpp:150] Setting up conv1/relu_7x7
I1125 15:37:37.206876 17455 net.cpp:157] Top shape: 64 64 112 112 (51380224)
I1125 15:37:37.206879 17455 net.cpp:165] Memory required for data: 449593088
I1125 15:37:37.206883 17455 layer_factory.hpp:76] Creating layer pool1/3x3_s2
I1125 15:37:37.206892 17455 net.cpp:106] Creating Layer pool1/3x3_s2
I1125 15:37:37.206897 17455 net.cpp:454] pool1/3x3_s2 <- conv1/7x7_s2
I1125 15:37:37.206902 17455 net.cpp:411] pool1/3x3_s2 -> pool1/3x3_s2
I1125 15:37:37.207114 17455 net.cpp:150] Setting up pool1/3x3_s2
I1125 15:37:37.207126 17455 net.cpp:157] Top shape: 64 64 56 56 (12845056)
I1125 15:37:37.207130 17455 net.cpp:165] Memory required for data: 500973312
I1125 15:37:37.207134 17455 layer_factory.hpp:76] Creating layer pool1/norm1
I1125 15:37:37.207146 17455 net.cpp:106] Creating Layer pool1/norm1
I1125 15:37:37.207151 17455 net.cpp:454] pool1/norm1 <- pool1/3x3_s2
I1125 15:37:37.207156 17455 net.cpp:411] pool1/norm1 -> pool1/norm1
I1125 15:37:37.207501 17455 net.cpp:150] Setting up pool1/norm1
I1125 15:37:37.207515 17455 net.cpp:157] Top shape: 64 64 56 56 (12845056)
I1125 15:37:37.207520 17455 net.cpp:165] Memory required for data: 552353536
I1125 15:37:37.207523 17455 layer_factory.hpp:76] Creating layer conv2/3x3_reduce
I1125 15:37:37.207535 17455 net.cpp:106] Creating Layer conv2/3x3_reduce
I1125 15:37:37.207538 17455 net.cpp:454] conv2/3x3_reduce <- pool1/norm1
I1125 15:37:37.207545 17455 net.cpp:411] conv2/3x3_reduce -> conv2/3x3_reduce
I1125 15:37:37.208566 17455 net.cpp:150] Setting up conv2/3x3_reduce
I1125 15:37:37.208582 17455 net.cpp:157] Top shape: 64 64 56 56 (12845056)
I1125 15:37:37.208586 17455 net.cpp:165] Memory required for data: 603733760
I1125 15:37:37.208597 17455 layer_factory.hpp:76] Creating layer conv2/relu_3x3_reduce
I1125 15:37:37.208603 17455 net.cpp:106] Creating Layer conv2/relu_3x3_reduce
I1125 15:37:37.208608 17455 net.cpp:454] conv2/relu_3x3_reduce <- conv2/3x3_reduce
I1125 15:37:37.208614 17455 net.cpp:397] conv2/relu_3x3_reduce -> conv2/3x3_reduce (in-place)
I1125 15:37:37.208783 17455 net.cpp:150] Setting up conv2/relu_3x3_reduce
I1125 15:37:37.208796 17455 net.cpp:157] Top shape: 64 64 56 56 (12845056)
I1125 15:37:37.208798 17455 net.cpp:165] Memory required for data: 655113984
I1125 15:37:37.208802 17455 layer_factory.hpp:76] Creating layer conv2/3x3
I1125 15:37:37.208816 17455 net.cpp:106] Creating Layer conv2/3x3
I1125 15:37:37.208819 17455 net.cpp:454] conv2/3x3 <- conv2/3x3_reduce
I1125 15:37:37.208827 17455 net.cpp:411] conv2/3x3 -> conv2/3x3
I1125 15:37:37.211169 17455 net.cpp:150] Setting up conv2/3x3
I1125 15:37:37.211186 17455 net.cpp:157] Top shape: 64 192 56 56 (38535168)
I1125 15:37:37.211190 17455 net.cpp:165] Memory required for data: 809254656
I1125 15:37:37.211201 17455 layer_factory.hpp:76] Creating layer conv2/relu_3x3
I1125 15:37:37.211212 17455 net.cpp:106] Creating Layer conv2/relu_3x3
I1125 15:37:37.211216 17455 net.cpp:454] conv2/relu_3x3 <- conv2/3x3
I1125 15:37:37.211222 17455 net.cpp:397] conv2/relu_3x3 -> conv2/3x3 (in-place)
I1125 15:37:37.211402 17455 net.cpp:150] Setting up conv2/relu_3x3
I1125 15:37:37.211413 17455 net.cpp:157] Top shape: 64 192 56 56 (38535168)
I1125 15:37:37.211416 17455 net.cpp:165] Memory required for data: 963395328
I1125 15:37:37.211419 17455 layer_factory.hpp:76] Creating layer conv2/norm2
I1125 15:37:37.211427 17455 net.cpp:106] Creating Layer conv2/norm2
I1125 15:37:37.211431 17455 net.cpp:454] conv2/norm2 <- conv2/3x3
I1125 15:37:37.211436 17455 net.cpp:411] conv2/norm2 -> conv2/norm2
I1125 15:37:37.211753 17455 net.cpp:150] Setting up conv2/norm2
I1125 15:37:37.211766 17455 net.cpp:157] Top shape: 64 192 56 56 (38535168)
I1125 15:37:37.211771 17455 net.cpp:165] Memory required for data: 1117536000
I1125 15:37:37.211773 17455 layer_factory.hpp:76] Creating layer pool2/3x3_s2
I1125 15:37:37.211781 17455 net.cpp:106] Creating Layer pool2/3x3_s2
I1125 15:37:37.211786 17455 net.cpp:454] pool2/3x3_s2 <- conv2/norm2
I1125 15:37:37.211791 17455 net.cpp:411] pool2/3x3_s2 -> pool2/3x3_s2
I1125 15:37:37.211973 17455 net.cpp:150] Setting up pool2/3x3_s2
I1125 15:37:37.211984 17455 net.cpp:157] Top shape: 64 192 28 28 (9633792)
I1125 15:37:37.211987 17455 net.cpp:165] Memory required for data: 1156071168
I1125 15:37:37.211990 17455 layer_factory.hpp:76] Creating layer pool2/3x3_s2_pool2/3x3_s2_0_split
I1125 15:37:37.211997 17455 net.cpp:106] Creating Layer pool2/3x3_s2_pool2/3x3_s2_0_split
I1125 15:37:37.212000 17455 net.cpp:454] pool2/3x3_s2_pool2/3x3_s2_0_split <- pool2/3x3_s2
I1125 15:37:37.212008 17455 net.cpp:411] pool2/3x3_s2_pool2/3x3_s2_0_split -> pool2/3x3_s2_pool2/3x3_s2_0_split_0
I1125 15:37:37.212015 17455 net.cpp:411] pool2/3x3_s2_pool2/3x3_s2_0_split -> pool2/3x3_s2_pool2/3x3_s2_0_split_1
I1125 15:37:37.212021 17455 net.cpp:411] pool2/3x3_s2_pool2/3x3_s2_0_split -> pool2/3x3_s2_pool2/3x3_s2_0_split_2
I1125 15:37:37.212026 17455 net.cpp:411] pool2/3x3_s2_pool2/3x3_s2_0_split -> pool2/3x3_s2_pool2/3x3_s2_0_split_3
I1125 15:37:37.212075 17455 net.cpp:150] Setting up pool2/3x3_s2_pool2/3x3_s2_0_split
I1125 15:37:37.212085 17455 net.cpp:157] Top shape: 64 192 28 28 (9633792)
I1125 15:37:37.212088 17455 net.cpp:157] Top shape: 64 192 28 28 (9633792)
I1125 15:37:37.212091 17455 net.cpp:157] Top shape: 64 192 28 28 (9633792)
I1125 15:37:37.212095 17455 net.cpp:157] Top shape: 64 192 28 28 (9633792)
I1125 15:37:37.212097 17455 net.cpp:165] Memory required for data: 1310211840
I1125 15:37:37.212100 17455 layer_factory.hpp:76] Creating layer inception_3a/1x1
I1125 15:37:37.212107 17455 net.cpp:106] Creating Layer inception_3a/1x1
I1125 15:37:37.212110 17455 net.cpp:454] inception_3a/1x1 <- pool2/3x3_s2_pool2/3x3_s2_0_split_0
I1125 15:37:37.212117 17455 net.cpp:411] inception_3a/1x1 -> inception_3a/1x1
I1125 15:37:37.213572 17455 net.cpp:150] Setting up inception_3a/1x1
I1125 15:37:37.213587 17455 net.cpp:157] Top shape: 64 64 28 28 (3211264)
I1125 15:37:37.213590 17455 net.cpp:165] Memory required for data: 1323056896
I1125 15:37:37.213598 17455 layer_factory.hpp:76] Creating layer inception_3a/relu_1x1
I1125 15:37:37.213604 17455 net.cpp:106] Creating Layer inception_3a/relu_1x1
I1125 15:37:37.213608 17455 net.cpp:454] inception_3a/relu_1x1 <- inception_3a/1x1
I1125 15:37:37.213613 17455 net.cpp:397] inception_3a/relu_1x1 -> inception_3a/1x1 (in-place)
I1125 15:37:37.213917 17455 net.cpp:150] Setting up inception_3a/relu_1x1
I1125 15:37:37.213943 17455 net.cpp:157] Top shape: 64 64 28 28 (3211264)
I1125 15:37:37.213945 17455 net.cpp:165] Memory required for data: 1335901952
I1125 15:37:37.213949 17455 layer_factory.hpp:76] Creating layer inception_3a/3x3_reduce
I1125 15:37:37.213958 17455 net.cpp:106] Creating Layer inception_3a/3x3_reduce
I1125 15:37:37.213961 17455 net.cpp:454] inception_3a/3x3_reduce <- pool2/3x3_s2_pool2/3x3_s2_0_split_1
I1125 15:37:37.213968 17455 net.cpp:411] inception_3a/3x3_reduce -> inception_3a/3x3_reduce
I1125 15:37:37.215636 17455 net.cpp:150] Setting up inception_3a/3x3_reduce
I1125 15:37:37.215651 17455 net.cpp:157] Top shape: 64 96 28 28 (4816896)
I1125 15:37:37.215656 17455 net.cpp:165] Memory required for data: 1355169536
I1125 15:37:37.215664 17455 layer_factory.hpp:76] Creating layer inception_3a/relu_3x3_reduce
I1125 15:37:37.215672 17455 net.cpp:106] Creating Layer inception_3a/relu_3x3_reduce
I1125 15:37:37.215678 17455 net.cpp:454] inception_3a/relu_3x3_reduce <- inception_3a/3x3_reduce
I1125 15:37:37.215683 17455 net.cpp:397] inception_3a/relu_3x3_reduce -> inception_3a/3x3_reduce (in-place)
I1125 15:37:37.215862 17455 net.cpp:150] Setting up inception_3a/relu_3x3_reduce
I1125 15:37:37.215873 17455 net.cpp:157] Top shape: 64 96 28 28 (4816896)
I1125 15:37:37.215878 17455 net.cpp:165] Memory required for data: 1374437120
I1125 15:37:37.215880 17455 layer_factory.hpp:76] Creating layer inception_3a/3x3
I1125 15:37:37.215890 17455 net.cpp:106] Creating Layer inception_3a/3x3
I1125 15:37:37.215893 17455 net.cpp:454] inception_3a/3x3 <- inception_3a/3x3_reduce
I1125 15:37:37.215900 17455 net.cpp:411] inception_3a/3x3 -> inception_3a/3x3
I1125 15:37:37.217557 17455 net.cpp:150] Setting up inception_3a/3x3
I1125 15:37:37.217572 17455 net.cpp:157] Top shape: 64 128 28 28 (6422528)
I1125 15:37:37.217576 17455 net.cpp:165] Memory required for data: 1400127232
I1125 15:37:37.217582 17455 layer_factory.hpp:76] Creating layer inception_3a/relu_3x3
I1125 15:37:37.217589 17455 net.cpp:106] Creating Layer inception_3a/relu_3x3
I1125 15:37:37.217594 17455 net.cpp:454] inception_3a/relu_3x3 <- inception_3a/3x3
I1125 15:37:37.217599 17455 net.cpp:397] inception_3a/relu_3x3 -> inception_3a/3x3 (in-place)
I1125 15:37:37.217763 17455 net.cpp:150] Setting up inception_3a/relu_3x3
I1125 15:37:37.217774 17455 net.cpp:157] Top shape: 64 128 28 28 (6422528)
I1125 15:37:37.217777 17455 net.cpp:165] Memory required for data: 1425817344
I1125 15:37:37.217780 17455 layer_factory.hpp:76] Creating layer inception_3a/5x5_reduce
I1125 15:37:37.217789 17455 net.cpp:106] Creating Layer inception_3a/5x5_reduce
I1125 15:37:37.217793 17455 net.cpp:454] inception_3a/5x5_reduce <- pool2/3x3_s2_pool2/3x3_s2_0_split_2
I1125 15:37:37.217800 17455 net.cpp:411] inception_3a/5x5_reduce -> inception_3a/5x5_reduce
I1125 15:37:37.218791 17455 net.cpp:150] Setting up inception_3a/5x5_reduce
I1125 15:37:37.218821 17455 net.cpp:157] Top shape: 64 16 28 28 (802816)
I1125 15:37:37.218825 17455 net.cpp:165] Memory required for data: 1429028608
I1125 15:37:37.218832 17455 layer_factory.hpp:76] Creating layer inception_3a/relu_5x5_reduce
I1125 15:37:37.218839 17455 net.cpp:106] Creating Layer inception_3a/relu_5x5_reduce
I1125 15:37:37.218843 17455 net.cpp:454] inception_3a/relu_5x5_reduce <- inception_3a/5x5_reduce
I1125 15:37:37.218848 17455 net.cpp:397] inception_3a/relu_5x5_reduce -> inception_3a/5x5_reduce (in-place)
I1125 15:37:37.219151 17455 net.cpp:150] Setting up inception_3a/relu_5x5_reduce
I1125 15:37:37.219166 17455 net.cpp:157] Top shape: 64 16 28 28 (802816)
I1125 15:37:37.219171 17455 net.cpp:165] Memory required for data: 1432239872
I1125 15:37:37.219173 17455 layer_factory.hpp:76] Creating layer inception_3a/5x5
I1125 15:37:37.219182 17455 net.cpp:106] Creating Layer inception_3a/5x5
I1125 15:37:37.219187 17455 net.cpp:454] inception_3a/5x5 <- inception_3a/5x5_reduce
I1125 15:37:37.219193 17455 net.cpp:411] inception_3a/5x5 -> inception_3a/5x5
I1125 15:37:37.220263 17455 net.cpp:150] Setting up inception_3a/5x5
I1125 15:37:37.220278 17455 net.cpp:157] Top shape: 64 32 28 28 (1605632)
I1125 15:37:37.220280 17455 net.cpp:165] Memory required for data: 1438662400
I1125 15:37:37.220288 17455 layer_factory.hpp:76] Creating layer inception_3a/relu_5x5
I1125 15:37:37.220294 17455 net.cpp:106] Creating Layer inception_3a/relu_5x5
I1125 15:37:37.220299 17455 net.cpp:454] inception_3a/relu_5x5 <- inception_3a/5x5
I1125 15:37:37.220304 17455 net.cpp:397] inception_3a/relu_5x5 -> inception_3a/5x5 (in-place)
I1125 15:37:37.220473 17455 net.cpp:150] Setting up inception_3a/relu_5x5
I1125 15:37:37.220484 17455 net.cpp:157] Top shape: 64 32 28 28 (1605632)
I1125 15:37:37.220486 17455 net.cpp:165] Memory required for data: 1445084928
I1125 15:37:37.220490 17455 layer_factory.hpp:76] Creating layer inception_3a/pool
I1125 15:37:37.220496 17455 net.cpp:106] Creating Layer inception_3a/pool
I1125 15:37:37.220500 17455 net.cpp:454] inception_3a/pool <- pool2/3x3_s2_pool2/3x3_s2_0_split_3
I1125 15:37:37.220507 17455 net.cpp:411] inception_3a/pool -> inception_3a/pool
I1125 15:37:37.220830 17455 net.cpp:150] Setting up inception_3a/pool
I1125 15:37:37.220844 17455 net.cpp:157] Top shape: 64 192 28 28 (9633792)
I1125 15:37:37.220847 17455 net.cpp:165] Memory required for data: 1483620096
I1125 15:37:37.220850 17455 layer_factory.hpp:76] Creating layer inception_3a/pool_proj
I1125 15:37:37.220860 17455 net.cpp:106] Creating Layer inception_3a/pool_proj
I1125 15:37:37.220863 17455 net.cpp:454] inception_3a/pool_proj <- inception_3a/pool
I1125 15:37:37.220870 17455 net.cpp:411] inception_3a/pool_proj -> inception_3a/pool_proj
I1125 15:37:37.221746 17455 net.cpp:150] Setting up inception_3a/pool_proj
I1125 15:37:37.221760 17455 net.cpp:157] Top shape: 64 32 28 28 (1605632)
I1125 15:37:37.221765 17455 net.cpp:165] Memory required for data: 1490042624
I1125 15:37:37.221773 17455 layer_factory.hpp:76] Creating layer inception_3a/relu_pool_proj
I1125 15:37:37.221781 17455 net.cpp:106] Creating Layer inception_3a/relu_pool_proj
I1125 15:37:37.221786 17455 net.cpp:454] inception_3a/relu_pool_proj <- inception_3a/pool_proj
I1125 15:37:37.221791 17455 net.cpp:397] inception_3a/relu_pool_proj -> inception_3a/pool_proj (in-place)
I1125 15:37:37.222090 17455 net.cpp:150] Setting up inception_3a/relu_pool_proj
I1125 15:37:37.222105 17455 net.cpp:157] Top shape: 64 32 28 28 (1605632)
I1125 15:37:37.222107 17455 net.cpp:165] Memory required for data: 1496465152
I1125 15:37:37.222110 17455 layer_factory.hpp:76] Creating layer inception_3a/output
I1125 15:37:37.222120 17455 net.cpp:106] Creating Layer inception_3a/output
I1125 15:37:37.222123 17455 net.cpp:454] inception_3a/output <- inception_3a/1x1
I1125 15:37:37.222128 17455 net.cpp:454] inception_3a/output <- inception_3a/3x3
I1125 15:37:37.222132 17455 net.cpp:454] inception_3a/output <- inception_3a/5x5
I1125 15:37:37.222136 17455 net.cpp:454] inception_3a/output <- inception_3a/pool_proj
I1125 15:37:37.222142 17455 net.cpp:411] inception_3a/output -> inception_3a/output
I1125 15:37:37.222178 17455 net.cpp:150] Setting up inception_3a/output
I1125 15:37:37.222185 17455 net.cpp:157] Top shape: 64 256 28 28 (12845056)
I1125 15:37:37.222188 17455 net.cpp:165] Memory required for data: 1547845376
I1125 15:37:37.222192 17455 layer_factory.hpp:76] Creating layer inception_3a/output_inception_3a/output_0_split
I1125 15:37:37.222199 17455 net.cpp:106] Creating Layer inception_3a/output_inception_3a/output_0_split
I1125 15:37:37.222203 17455 net.cpp:454] inception_3a/output_inception_3a/output_0_split <- inception_3a/output
I1125 15:37:37.222208 17455 net.cpp:411] inception_3a/output_inception_3a/output_0_split -> inception_3a/output_inception_3a/output_0_split_0
I1125 15:37:37.222213 17455 net.cpp:411] inception_3a/output_inception_3a/output_0_split -> inception_3a/output_inception_3a/output_0_split_1
I1125 15:37:37.222220 17455 net.cpp:411] inception_3a/output_inception_3a/output_0_split -> inception_3a/output_inception_3a/output_0_split_2
I1125 15:37:37.222230 17455 net.cpp:411] inception_3a/output_inception_3a/output_0_split -> inception_3a/output_inception_3a/output_0_split_3
I1125 15:37:37.222288 17455 net.cpp:150] Setting up inception_3a/output_inception_3a/output_0_split
I1125 15:37:37.222295 17455 net.cpp:157] Top shape: 64 256 28 28 (12845056)
I1125 15:37:37.222298 17455 net.cpp:157] Top shape: 64 256 28 28 (12845056)
I1125 15:37:37.222302 17455 net.cpp:157] Top shape: 64 256 28 28 (12845056)
I1125 15:37:37.222306 17455 net.cpp:157] Top shape: 64 256 28 28 (12845056)
I1125 15:37:37.222308 17455 net.cpp:165] Memory required for data: 1753366272
I1125 15:37:37.222311 17455 layer_factory.hpp:76] Creating layer inception_3b/1x1
I1125 15:37:37.222321 17455 net.cpp:106] Creating Layer inception_3b/1x1
I1125 15:37:37.222324 17455 net.cpp:454] inception_3b/1x1 <- inception_3a/output_inception_3a/output_0_split_0
I1125 15:37:37.222331 17455 net.cpp:411] inception_3b/1x1 -> inception_3b/1x1
I1125 15:37:37.223505 17455 net.cpp:150] Setting up inception_3b/1x1
I1125 15:37:37.223520 17455 net.cpp:157] Top shape: 64 128 28 28 (6422528)
I1125 15:37:37.223523 17455 net.cpp:165] Memory required for data: 1779056384
I1125 15:37:37.223529 17455 layer_factory.hpp:76] Creating layer inception_3b/relu_1x1
I1125 15:37:37.223536 17455 net.cpp:106] Creating Layer inception_3b/relu_1x1
I1125 15:37:37.223541 17455 net.cpp:454] inception_3b/relu_1x1 <- inception_3b/1x1
I1125 15:37:37.223546 17455 net.cpp:397] inception_3b/relu_1x1 -> inception_3b/1x1 (in-place)
I1125 15:37:37.223747 17455 net.cpp:150] Setting up inception_3b/relu_1x1
I1125 15:37:37.223759 17455 net.cpp:157] Top shape: 64 128 28 28 (6422528)
I1125 15:37:37.223762 17455 net.cpp:165] Memory required for data: 1804746496
I1125 15:37:37.223767 17455 layer_factory.hpp:76] Creating layer inception_3b/3x3_reduce
I1125 15:37:37.223775 17455 net.cpp:106] Creating Layer inception_3b/3x3_reduce
I1125 15:37:37.223779 17455 net.cpp:454] inception_3b/3x3_reduce <- inception_3a/output_inception_3a/output_0_split_1
I1125 15:37:37.223788 17455 net.cpp:411] inception_3b/3x3_reduce -> inception_3b/3x3_reduce
I1125 15:37:37.224987 17455 net.cpp:150] Setting up inception_3b/3x3_reduce
I1125 15:37:37.225002 17455 net.cpp:157] Top shape: 64 128 28 28 (6422528)
I1125 15:37:37.225005 17455 net.cpp:165] Memory required for data: 1830436608
I1125 15:37:37.225011 17455 layer_factory.hpp:76] Creating layer inception_3b/relu_3x3_reduce
I1125 15:37:37.225019 17455 net.cpp:106] Creating Layer inception_3b/relu_3x3_reduce
I1125 15:37:37.225024 17455 net.cpp:454] inception_3b/relu_3x3_reduce <- inception_3b/3x3_reduce
I1125 15:37:37.225029 17455 net.cpp:397] inception_3b/relu_3x3_reduce -> inception_3b/3x3_reduce (in-place)
I1125 15:37:37.225330 17455 net.cpp:150] Setting up inception_3b/relu_3x3_reduce
I1125 15:37:37.225344 17455 net.cpp:157] Top shape: 64 128 28 28 (6422528)
I1125 15:37:37.225347 17455 net.cpp:165] Memory required for data: 1856126720
I1125 15:37:37.225350 17455 layer_factory.hpp:76] Creating layer inception_3b/3x3
I1125 15:37:37.225359 17455 net.cpp:106] Creating Layer inception_3b/3x3
I1125 15:37:37.225364 17455 net.cpp:454] inception_3b/3x3 <- inception_3b/3x3_reduce
I1125 15:37:37.225370 17455 net.cpp:411] inception_3b/3x3 -> inception_3b/3x3
I1125 15:37:37.228271 17455 net.cpp:150] Setting up inception_3b/3x3
I1125 15:37:37.228286 17455 net.cpp:157] Top shape: 64 192 28 28 (9633792)
I1125 15:37:37.228289 17455 net.cpp:165] Memory required for data: 1894661888
I1125 15:37:37.228296 17455 layer_factory.hpp:76] Creating layer inception_3b/relu_3x3
I1125 15:37:37.228302 17455 net.cpp:106] Creating Layer inception_3b/relu_3x3
I1125 15:37:37.228307 17455 net.cpp:454] inception_3b/relu_3x3 <- inception_3b/3x3
I1125 15:37:37.228312 17455 net.cpp:397] inception_3b/relu_3x3 -> inception_3b/3x3 (in-place)
I1125 15:37:37.228610 17455 net.cpp:150] Setting up inception_3b/relu_3x3
I1125 15:37:37.228623 17455 net.cpp:157] Top shape: 64 192 28 28 (9633792)
I1125 15:37:37.228627 17455 net.cpp:165] Memory required for data: 1933197056
I1125 15:37:37.228631 17455 layer_factory.hpp:76] Creating layer inception_3b/5x5_reduce
I1125 15:37:37.228641 17455 net.cpp:106] Creating Layer inception_3b/5x5_reduce
I1125 15:37:37.228644 17455 net.cpp:454] inception_3b/5x5_reduce <- inception_3a/output_inception_3a/output_0_split_2
I1125 15:37:37.228652 17455 net.cpp:411] inception_3b/5x5_reduce -> inception_3b/5x5_reduce
I1125 15:37:37.229696 17455 net.cpp:150] Setting up inception_3b/5x5_reduce
I1125 15:37:37.229710 17455 net.cpp:157] Top shape: 64 32 28 28 (1605632)
I1125 15:37:37.229714 17455 net.cpp:165] Memory required for data: 1939619584
I1125 15:37:37.229720 17455 layer_factory.hpp:76] Creating layer inception_3b/relu_5x5_reduce
I1125 15:37:37.229727 17455 net.cpp:106] Creating Layer inception_3b/relu_5x5_reduce
I1125 15:37:37.229730 17455 net.cpp:454] inception_3b/relu_5x5_reduce <- inception_3b/5x5_reduce
I1125 15:37:37.229737 17455 net.cpp:397] inception_3b/relu_5x5_reduce -> inception_3b/5x5_reduce (in-place)
I1125 15:37:37.229907 17455 net.cpp:150] Setting up inception_3b/relu_5x5_reduce
I1125 15:37:37.229918 17455 net.cpp:157] Top shape: 64 32 28 28 (1605632)
I1125 15:37:37.229921 17455 net.cpp:165] Memory required for data: 1946042112
I1125 15:37:37.229925 17455 layer_factory.hpp:76] Creating layer inception_3b/5x5
I1125 15:37:37.229934 17455 net.cpp:106] Creating Layer inception_3b/5x5
I1125 15:37:37.229938 17455 net.cpp:454] inception_3b/5x5 <- inception_3b/5x5_reduce
I1125 15:37:37.229944 17455 net.cpp:411] inception_3b/5x5 -> inception_3b/5x5
I1125 15:37:37.231856 17455 net.cpp:150] Setting up inception_3b/5x5
I1125 15:37:37.231871 17455 net.cpp:157] Top shape: 64 96 28 28 (4816896)
I1125 15:37:37.231874 17455 net.cpp:165] Memory required for data: 1965309696
I1125 15:37:37.231880 17455 layer_factory.hpp:76] Creating layer inception_3b/relu_5x5
I1125 15:37:37.231887 17455 net.cpp:106] Creating Layer inception_3b/relu_5x5
I1125 15:37:37.231892 17455 net.cpp:454] inception_3b/relu_5x5 <- inception_3b/5x5
I1125 15:37:37.231899 17455 net.cpp:397] inception_3b/relu_5x5 -> inception_3b/5x5 (in-place)
I1125 15:37:37.232200 17455 net.cpp:150] Setting up inception_3b/relu_5x5
I1125 15:37:37.232215 17455 net.cpp:157] Top shape: 64 96 28 28 (4816896)
I1125 15:37:37.232218 17455 net.cpp:165] Memory required for data: 1984577280
I1125 15:37:37.232221 17455 layer_factory.hpp:76] Creating layer inception_3b/pool
I1125 15:37:37.232228 17455 net.cpp:106] Creating Layer inception_3b/pool
I1125 15:37:37.232233 17455 net.cpp:454] inception_3b/pool <- inception_3a/output_inception_3a/output_0_split_3
I1125 15:37:37.232237 17455 net.cpp:411] inception_3b/pool -> inception_3b/pool
I1125 15:37:37.232429 17455 net.cpp:150] Setting up inception_3b/pool
I1125 15:37:37.232440 17455 net.cpp:157] Top shape: 64 256 28 28 (12845056)
I1125 15:37:37.232444 17455 net.cpp:165] Memory required for data: 2035957504
I1125 15:37:37.232447 17455 layer_factory.hpp:76] Creating layer inception_3b/pool_proj
I1125 15:37:37.232455 17455 net.cpp:106] Creating Layer inception_3b/pool_proj
I1125 15:37:37.232460 17455 net.cpp:454] inception_3b/pool_proj <- inception_3b/pool
I1125 15:37:37.232466 17455 net.cpp:411] inception_3b/pool_proj -> inception_3b/pool_proj
I1125 15:37:37.233539 17455 net.cpp:150] Setting up inception_3b/pool_proj
I1125 15:37:37.233554 17455 net.cpp:157] Top shape: 64 64 28 28 (3211264)
I1125 15:37:37.233557 17455 net.cpp:165] Memory required for data: 2048802560
I1125 15:37:37.233563 17455 layer_factory.hpp:76] Creating layer inception_3b/relu_pool_proj
I1125 15:37:37.233577 17455 net.cpp:106] Creating Layer inception_3b/relu_pool_proj
I1125 15:37:37.233582 17455 net.cpp:454] inception_3b/relu_pool_proj <- inception_3b/pool_proj
I1125 15:37:37.233587 17455 net.cpp:397] inception_3b/relu_pool_proj -> inception_3b/pool_proj (in-place)
I1125 15:37:37.233889 17455 net.cpp:150] Setting up inception_3b/relu_pool_proj
I1125 15:37:37.233902 17455 net.cpp:157] Top shape: 64 64 28 28 (3211264)
I1125 15:37:37.233906 17455 net.cpp:165] Memory required for data: 2061647616
I1125 15:37:37.233911 17455 layer_factory.hpp:76] Creating layer inception_3b/output
I1125 15:37:37.233917 17455 net.cpp:106] Creating Layer inception_3b/output
I1125 15:37:37.233922 17455 net.cpp:454] inception_3b/output <- inception_3b/1x1
I1125 15:37:37.233925 17455 net.cpp:454] inception_3b/output <- inception_3b/3x3
I1125 15:37:37.233929 17455 net.cpp:454] inception_3b/output <- inception_3b/5x5
I1125 15:37:37.233933 17455 net.cpp:454] inception_3b/output <- inception_3b/pool_proj
I1125 15:37:37.233937 17455 net.cpp:411] inception_3b/output -> inception_3b/output
I1125 15:37:37.233968 17455 net.cpp:150] Setting up inception_3b/output
I1125 15:37:37.233974 17455 net.cpp:157] Top shape: 64 480 28 28 (24084480)
I1125 15:37:37.233976 17455 net.cpp:165] Memory required for data: 2157985536
I1125 15:37:37.233980 17455 layer_factory.hpp:76] Creating layer pool3/3x3_s2
I1125 15:37:37.233985 17455 net.cpp:106] Creating Layer pool3/3x3_s2
I1125 15:37:37.233989 17455 net.cpp:454] pool3/3x3_s2 <- inception_3b/output
I1125 15:37:37.233994 17455 net.cpp:411] pool3/3x3_s2 -> pool3/3x3_s2
I1125 15:37:37.234189 17455 net.cpp:150] Setting up pool3/3x3_s2
I1125 15:37:37.234200 17455 net.cpp:157] Top shape: 64 480 14 14 (6021120)
I1125 15:37:37.234203 17455 net.cpp:165] Memory required for data: 2182070016
I1125 15:37:37.234207 17455 layer_factory.hpp:76] Creating layer pool3/3x3_s2_pool3/3x3_s2_0_split
I1125 15:37:37.234212 17455 net.cpp:106] Creating Layer pool3/3x3_s2_pool3/3x3_s2_0_split
I1125 15:37:37.234216 17455 net.cpp:454] pool3/3x3_s2_pool3/3x3_s2_0_split <- pool3/3x3_s2
I1125 15:37:37.234222 17455 net.cpp:411] pool3/3x3_s2_pool3/3x3_s2_0_split -> pool3/3x3_s2_pool3/3x3_s2_0_split_0
I1125 15:37:37.234230 17455 net.cpp:411] pool3/3x3_s2_pool3/3x3_s2_0_split -> pool3/3x3_s2_pool3/3x3_s2_0_split_1
I1125 15:37:37.234235 17455 net.cpp:411] pool3/3x3_s2_pool3/3x3_s2_0_split -> pool3/3x3_s2_pool3/3x3_s2_0_split_2
I1125 15:37:37.234241 17455 net.cpp:411] pool3/3x3_s2_pool3/3x3_s2_0_split -> pool3/3x3_s2_pool3/3x3_s2_0_split_3
I1125 15:37:37.234298 17455 net.cpp:150] Setting up pool3/3x3_s2_pool3/3x3_s2_0_split
I1125 15:37:37.234305 17455 net.cpp:157] Top shape: 64 480 14 14 (6021120)
I1125 15:37:37.234309 17455 net.cpp:157] Top shape: 64 480 14 14 (6021120)
I1125 15:37:37.234313 17455 net.cpp:157] Top shape: 64 480 14 14 (6021120)
I1125 15:37:37.234316 17455 net.cpp:157] Top shape: 64 480 14 14 (6021120)
I1125 15:37:37.234319 17455 net.cpp:165] Memory required for data: 2278407936
I1125 15:37:37.234323 17455 layer_factory.hpp:76] Creating layer inception_4a/1x1
I1125 15:37:37.234330 17455 net.cpp:106] Creating Layer inception_4a/1x1
I1125 15:37:37.234333 17455 net.cpp:454] inception_4a/1x1 <- pool3/3x3_s2_pool3/3x3_s2_0_split_0
I1125 15:37:37.234339 17455 net.cpp:411] inception_4a/1x1 -> inception_4a/1x1
I1125 15:37:37.235924 17455 net.cpp:150] Setting up inception_4a/1x1
I1125 15:37:37.235939 17455 net.cpp:157] Top shape: 64 192 14 14 (2408448)
I1125 15:37:37.235942 17455 net.cpp:165] Memory required for data: 2288041728
I1125 15:37:37.235949 17455 layer_factory.hpp:76] Creating layer inception_4a/relu_1x1
I1125 15:37:37.235954 17455 net.cpp:106] Creating Layer inception_4a/relu_1x1
I1125 15:37:37.235959 17455 net.cpp:454] inception_4a/relu_1x1 <- inception_4a/1x1
I1125 15:37:37.235965 17455 net.cpp:397] inception_4a/relu_1x1 -> inception_4a/1x1 (in-place)
I1125 15:37:37.236127 17455 net.cpp:150] Setting up inception_4a/relu_1x1
I1125 15:37:37.236137 17455 net.cpp:157] Top shape: 64 192 14 14 (2408448)
I1125 15:37:37.236140 17455 net.cpp:165] Memory required for data: 2297675520
I1125 15:37:37.236145 17455 layer_factory.hpp:76] Creating layer inception_4a/3x3_reduce
I1125 15:37:37.236152 17455 net.cpp:106] Creating Layer inception_4a/3x3_reduce
I1125 15:37:37.236157 17455 net.cpp:454] inception_4a/3x3_reduce <- pool3/3x3_s2_pool3/3x3_s2_0_split_1
I1125 15:37:37.236165 17455 net.cpp:411] inception_4a/3x3_reduce -> inception_4a/3x3_reduce
I1125 15:37:37.237469 17455 net.cpp:150] Setting up inception_4a/3x3_reduce
I1125 15:37:37.237483 17455 net.cpp:157] Top shape: 64 96 14 14 (1204224)
I1125 15:37:37.237488 17455 net.cpp:165] Memory required for data: 2302492416
I1125 15:37:37.237499 17455 layer_factory.hpp:76] Creating layer inception_4a/relu_3x3_reduce
I1125 15:37:37.237505 17455 net.cpp:106] Creating Layer inception_4a/relu_3x3_reduce
I1125 15:37:37.237509 17455 net.cpp:454] inception_4a/relu_3x3_reduce <- inception_4a/3x3_reduce
I1125 15:37:37.237515 17455 net.cpp:397] inception_4a/relu_3x3_reduce -> inception_4a/3x3_reduce (in-place)
I1125 15:37:37.237818 17455 net.cpp:150] Setting up inception_4a/relu_3x3_reduce
I1125 15:37:37.237831 17455 net.cpp:157] Top shape: 64 96 14 14 (1204224)
I1125 15:37:37.237834 17455 net.cpp:165] Memory required for data: 2307309312
I1125 15:37:37.237838 17455 layer_factory.hpp:76] Creating layer inception_4a/3x3
I1125 15:37:37.237848 17455 net.cpp:106] Creating Layer inception_4a/3x3
I1125 15:37:37.237851 17455 net.cpp:454] inception_4a/3x3 <- inception_4a/3x3_reduce
I1125 15:37:37.237859 17455 net.cpp:411] inception_4a/3x3 -> inception_4a/3x3
I1125 15:37:37.240443 17455 net.cpp:150] Setting up inception_4a/3x3
I1125 15:37:37.240458 17455 net.cpp:157] Top shape: 64 208 14 14 (2609152)
I1125 15:37:37.240463 17455 net.cpp:165] Memory required for data: 2317745920
I1125 15:37:37.240468 17455 layer_factory.hpp:76] Creating layer inception_4a/relu_3x3
I1125 15:37:37.240476 17455 net.cpp:106] Creating Layer inception_4a/relu_3x3
I1125 15:37:37.240480 17455 net.cpp:454] inception_4a/relu_3x3 <- inception_4a/3x3
I1125 15:37:37.240485 17455 net.cpp:397] inception_4a/relu_3x3 -> inception_4a/3x3 (in-place)
I1125 15:37:37.240653 17455 net.cpp:150] Setting up inception_4a/relu_3x3
I1125 15:37:37.240664 17455 net.cpp:157] Top shape: 64 208 14 14 (2609152)
I1125 15:37:37.240667 17455 net.cpp:165] Memory required for data: 2328182528
I1125 15:37:37.240670 17455 layer_factory.hpp:76] Creating layer inception_4a/5x5_reduce
I1125 15:37:37.240680 17455 net.cpp:106] Creating Layer inception_4a/5x5_reduce
I1125 15:37:37.240685 17455 net.cpp:454] inception_4a/5x5_reduce <- pool3/3x3_s2_pool3/3x3_s2_0_split_2
I1125 15:37:37.240690 17455 net.cpp:411] inception_4a/5x5_reduce -> inception_4a/5x5_reduce
I1125 15:37:37.241912 17455 net.cpp:150] Setting up inception_4a/5x5_reduce
I1125 15:37:37.241927 17455 net.cpp:157] Top shape: 64 16 14 14 (200704)
I1125 15:37:37.241930 17455 net.cpp:165] Memory required for data: 2328985344
I1125 15:37:37.241936 17455 layer_factory.hpp:76] Creating layer inception_4a/relu_5x5_reduce
I1125 15:37:37.241942 17455 net.cpp:106] Creating Layer inception_4a/relu_5x5_reduce
I1125 15:37:37.241946 17455 net.cpp:454] inception_4a/relu_5x5_reduce <- inception_4a/5x5_reduce
I1125 15:37:37.241953 17455 net.cpp:397] inception_4a/relu_5x5_reduce -> inception_4a/5x5_reduce (in-place)
I1125 15:37:37.242120 17455 net.cpp:150] Setting up inception_4a/relu_5x5_reduce
I1125 15:37:37.242132 17455 net.cpp:157] Top shape: 64 16 14 14 (200704)
I1125 15:37:37.242136 17455 net.cpp:165] Memory required for data: 2329788160
I1125 15:37:37.242138 17455 layer_factory.hpp:76] Creating layer inception_4a/5x5
I1125 15:37:37.242146 17455 net.cpp:106] Creating Layer inception_4a/5x5
I1125 15:37:37.242149 17455 net.cpp:454] inception_4a/5x5 <- inception_4a/5x5_reduce
I1125 15:37:37.242156 17455 net.cpp:411] inception_4a/5x5 -> inception_4a/5x5
I1125 15:37:37.243302 17455 net.cpp:150] Setting up inception_4a/5x5
I1125 15:37:37.243317 17455 net.cpp:157] Top shape: 64 48 14 14 (602112)
I1125 15:37:37.243320 17455 net.cpp:165] Memory required for data: 2332196608
I1125 15:37:37.243330 17455 layer_factory.hpp:76] Creating layer inception_4a/relu_5x5
I1125 15:37:37.243335 17455 net.cpp:106] Creating Layer inception_4a/relu_5x5
I1125 15:37:37.243340 17455 net.cpp:454] inception_4a/relu_5x5 <- inception_4a/5x5
I1125 15:37:37.243346 17455 net.cpp:397] inception_4a/relu_5x5 -> inception_4a/5x5 (in-place)
I1125 15:37:37.243650 17455 net.cpp:150] Setting up inception_4a/relu_5x5
I1125 15:37:37.243664 17455 net.cpp:157] Top shape: 64 48 14 14 (602112)
I1125 15:37:37.243667 17455 net.cpp:165] Memory required for data: 2334605056
I1125 15:37:37.243671 17455 layer_factory.hpp:76] Creating layer inception_4a/pool
I1125 15:37:37.243677 17455 net.cpp:106] Creating Layer inception_4a/pool
I1125 15:37:37.243681 17455 net.cpp:454] inception_4a/pool <- pool3/3x3_s2_pool3/3x3_s2_0_split_3
I1125 15:37:37.243688 17455 net.cpp:411] inception_4a/pool -> inception_4a/pool
I1125 15:37:37.243886 17455 net.cpp:150] Setting up inception_4a/pool
I1125 15:37:37.243897 17455 net.cpp:157] Top shape: 64 480 14 14 (6021120)
I1125 15:37:37.243901 17455 net.cpp:165] Memory required for data: 2358689536
I1125 15:37:37.243903 17455 layer_factory.hpp:76] Creating layer inception_4a/pool_proj
I1125 15:37:37.243913 17455 net.cpp:106] Creating Layer inception_4a/pool_proj
I1125 15:37:37.243917 17455 net.cpp:454] inception_4a/pool_proj <- inception_4a/pool
I1125 15:37:37.243924 17455 net.cpp:411] inception_4a/pool_proj -> inception_4a/pool_proj
I1125 15:37:37.245173 17455 net.cpp:150] Setting up inception_4a/pool_proj
I1125 15:37:37.245189 17455 net.cpp:157] Top shape: 64 64 14 14 (802816)
I1125 15:37:37.245193 17455 net.cpp:165] Memory required for data: 2361900800
I1125 15:37:37.245199 17455 layer_factory.hpp:76] Creating layer inception_4a/relu_pool_proj
I1125 15:37:37.245204 17455 net.cpp:106] Creating Layer inception_4a/relu_pool_proj
I1125 15:37:37.245209 17455 net.cpp:454] inception_4a/relu_pool_proj <- inception_4a/pool_proj
I1125 15:37:37.245215 17455 net.cpp:397] inception_4a/relu_pool_proj -> inception_4a/pool_proj (in-place)
I1125 15:37:37.245520 17455 net.cpp:150] Setting up inception_4a/relu_pool_proj
I1125 15:37:37.245534 17455 net.cpp:157] Top shape: 64 64 14 14 (802816)
I1125 15:37:37.245537 17455 net.cpp:165] Memory required for data: 2365112064
I1125 15:37:37.245542 17455 layer_factory.hpp:76] Creating layer inception_4a/output
I1125 15:37:37.245548 17455 net.cpp:106] Creating Layer inception_4a/output
I1125 15:37:37.245550 17455 net.cpp:454] inception_4a/output <- inception_4a/1x1
I1125 15:37:37.245555 17455 net.cpp:454] inception_4a/output <- inception_4a/3x3
I1125 15:37:37.245559 17455 net.cpp:454] inception_4a/output <- inception_4a/5x5
I1125 15:37:37.245563 17455 net.cpp:454] inception_4a/output <- inception_4a/pool_proj
I1125 15:37:37.245568 17455 net.cpp:411] inception_4a/output -> inception_4a/output
I1125 15:37:37.245600 17455 net.cpp:150] Setting up inception_4a/output
I1125 15:37:37.245605 17455 net.cpp:157] Top shape: 64 512 14 14 (6422528)
I1125 15:37:37.245609 17455 net.cpp:165] Memory required for data: 2390802176
I1125 15:37:37.245611 17455 layer_factory.hpp:76] Creating layer inception_4a/output_inception_4a/output_0_split
I1125 15:37:37.245618 17455 net.cpp:106] Creating Layer inception_4a/output_inception_4a/output_0_split
I1125 15:37:37.245621 17455 net.cpp:454] inception_4a/output_inception_4a/output_0_split <- inception_4a/output
I1125 15:37:37.245626 17455 net.cpp:411] inception_4a/output_inception_4a/output_0_split -> inception_4a/output_inception_4a/output_0_split_0
I1125 15:37:37.245632 17455 net.cpp:411] inception_4a/output_inception_4a/output_0_split -> inception_4a/output_inception_4a/output_0_split_1
I1125 15:37:37.245637 17455 net.cpp:411] inception_4a/output_inception_4a/output_0_split -> inception_4a/output_inception_4a/output_0_split_2
I1125 15:37:37.245643 17455 net.cpp:411] inception_4a/output_inception_4a/output_0_split -> inception_4a/output_inception_4a/output_0_split_3
I1125 15:37:37.245648 17455 net.cpp:411] inception_4a/output_inception_4a/output_0_split -> inception_4a/output_inception_4a/output_0_split_4
I1125 15:37:37.245720 17455 net.cpp:150] Setting up inception_4a/output_inception_4a/output_0_split
I1125 15:37:37.245725 17455 net.cpp:157] Top shape: 64 512 14 14 (6422528)
I1125 15:37:37.245729 17455 net.cpp:157] Top shape: 64 512 14 14 (6422528)
I1125 15:37:37.245733 17455 net.cpp:157] Top shape: 64 512 14 14 (6422528)
I1125 15:37:37.245736 17455 net.cpp:157] Top shape: 64 512 14 14 (6422528)
I1125 15:37:37.245739 17455 net.cpp:157] Top shape: 64 512 14 14 (6422528)
I1125 15:37:37.245743 17455 net.cpp:165] Memory required for data: 2519252736
I1125 15:37:37.245745 17455 layer_factory.hpp:76] Creating layer loss1/ave_pool
I1125 15:37:37.245751 17455 net.cpp:106] Creating Layer loss1/ave_pool
I1125 15:37:37.245754 17455 net.cpp:454] loss1/ave_pool <- inception_4a/output_inception_4a/output_0_split_0
I1125 15:37:37.245760 17455 net.cpp:411] loss1/ave_pool -> loss1/ave_pool
I1125 15:37:37.245941 17455 net.cpp:150] Setting up loss1/ave_pool
I1125 15:37:37.245954 17455 net.cpp:157] Top shape: 64 512 4 4 (524288)
I1125 15:37:37.245956 17455 net.cpp:165] Memory required for data: 2521349888
I1125 15:37:37.245960 17455 layer_factory.hpp:76] Creating layer loss1/conv
I1125 15:37:37.245967 17455 net.cpp:106] Creating Layer loss1/conv
I1125 15:37:37.245971 17455 net.cpp:454] loss1/conv <- loss1/ave_pool
I1125 15:37:37.245977 17455 net.cpp:411] loss1/conv -> loss1/conv
I1125 15:37:37.247412 17455 net.cpp:150] Setting up loss1/conv
I1125 15:37:37.247426 17455 net.cpp:157] Top shape: 64 128 4 4 (131072)
I1125 15:37:37.247431 17455 net.cpp:165] Memory required for data: 2521874176
I1125 15:37:37.247437 17455 layer_factory.hpp:76] Creating layer loss1/relu_conv
I1125 15:37:37.247442 17455 net.cpp:106] Creating Layer loss1/relu_conv
I1125 15:37:37.247447 17455 net.cpp:454] loss1/relu_conv <- loss1/conv
I1125 15:37:37.247453 17455 net.cpp:397] loss1/relu_conv -> loss1/conv (in-place)
I1125 15:37:37.247617 17455 net.cpp:150] Setting up loss1/relu_conv
I1125 15:37:37.247629 17455 net.cpp:157] Top shape: 64 128 4 4 (131072)
I1125 15:37:37.247632 17455 net.cpp:165] Memory required for data: 2522398464
I1125 15:37:37.247635 17455 layer_factory.hpp:76] Creating layer loss1/conv_loss1/relu_conv_0_split
I1125 15:37:37.247642 17455 net.cpp:106] Creating Layer loss1/conv_loss1/relu_conv_0_split
I1125 15:37:37.247645 17455 net.cpp:454] loss1/conv_loss1/relu_conv_0_split <- loss1/conv
I1125 15:37:37.247650 17455 net.cpp:411] loss1/conv_loss1/relu_conv_0_split -> loss1/conv_loss1/relu_conv_0_split_0
I1125 15:37:37.247656 17455 net.cpp:411] loss1/conv_loss1/relu_conv_0_split -> loss1/conv_loss1/relu_conv_0_split_1
I1125 15:37:37.247663 17455 net.cpp:411] loss1/conv_loss1/relu_conv_0_split -> loss1/conv_loss1/relu_conv_0_split_2
I1125 15:37:37.247669 17455 net.cpp:411] loss1/conv_loss1/relu_conv_0_split -> loss1/conv_loss1/relu_conv_0_split_3
I1125 15:37:37.247674 17455 net.cpp:411] loss1/conv_loss1/relu_conv_0_split -> loss1/conv_loss1/relu_conv_0_split_4
I1125 15:37:37.247680 17455 net.cpp:411] loss1/conv_loss1/relu_conv_0_split -> loss1/conv_loss1/relu_conv_0_split_5
I1125 15:37:37.247769 17455 net.cpp:150] Setting up loss1/conv_loss1/relu_conv_0_split
I1125 15:37:37.247777 17455 net.cpp:157] Top shape: 64 128 4 4 (131072)
I1125 15:37:37.247781 17455 net.cpp:157] Top shape: 64 128 4 4 (131072)
I1125 15:37:37.247784 17455 net.cpp:157] Top shape: 64 128 4 4 (131072)
I1125 15:37:37.247787 17455 net.cpp:157] Top shape: 64 128 4 4 (131072)
I1125 15:37:37.247792 17455 net.cpp:157] Top shape: 64 128 4 4 (131072)
I1125 15:37:37.247794 17455 net.cpp:157] Top shape: 64 128 4 4 (131072)
I1125 15:37:37.247797 17455 net.cpp:165] Memory required for data: 2525544192
I1125 15:37:37.247800 17455 layer_factory.hpp:76] Creating layer loss1/fc_00.category
I1125 15:37:37.247808 17455 net.cpp:106] Creating Layer loss1/fc_00.category
I1125 15:37:37.247812 17455 net.cpp:454] loss1/fc_00.category <- loss1/conv_loss1/relu_conv_0_split_0
I1125 15:37:37.247817 17455 net.cpp:411] loss1/fc_00.category -> loss1/fc_00.category
I1125 15:37:37.255872 17455 net.cpp:150] Setting up loss1/fc_00.category
I1125 15:37:37.255885 17455 net.cpp:157] Top shape: 64 512 (32768)
I1125 15:37:37.255889 17455 net.cpp:165] Memory required for data: 2525675264
I1125 15:37:37.255895 17455 layer_factory.hpp:76] Creating layer loss1/relu_fc_00.category
I1125 15:37:37.255902 17455 net.cpp:106] Creating Layer loss1/relu_fc_00.category
I1125 15:37:37.255905 17455 net.cpp:454] loss1/relu_fc_00.category <- loss1/fc_00.category
I1125 15:37:37.255911 17455 net.cpp:397] loss1/relu_fc_00.category -> loss1/fc_00.category (in-place)
I1125 15:37:37.256217 17455 net.cpp:150] Setting up loss1/relu_fc_00.category
I1125 15:37:37.256229 17455 net.cpp:157] Top shape: 64 512 (32768)
I1125 15:37:37.256232 17455 net.cpp:165] Memory required for data: 2525806336
I1125 15:37:37.256237 17455 layer_factory.hpp:76] Creating layer loss1/drop_fc_00.category
I1125 15:37:37.256245 17455 net.cpp:106] Creating Layer loss1/drop_fc_00.category
I1125 15:37:37.256249 17455 net.cpp:454] loss1/drop_fc_00.category <- loss1/fc_00.category
I1125 15:37:37.256256 17455 net.cpp:397] loss1/drop_fc_00.category -> loss1/fc_00.category (in-place)
I1125 15:37:37.256292 17455 net.cpp:150] Setting up loss1/drop_fc_00.category
I1125 15:37:37.256299 17455 net.cpp:157] Top shape: 64 512 (32768)
I1125 15:37:37.256302 17455 net.cpp:165] Memory required for data: 2525937408
I1125 15:37:37.256305 17455 layer_factory.hpp:76] Creating layer loss1/classifier-00.category
I1125 15:37:37.256312 17455 net.cpp:106] Creating Layer loss1/classifier-00.category
I1125 15:37:37.256315 17455 net.cpp:454] loss1/classifier-00.category <- loss1/fc_00.category
I1125 15:37:37.256322 17455 net.cpp:411] loss1/classifier-00.category -> loss1/classifier-00.category
I1125 15:37:37.256490 17455 net.cpp:150] Setting up loss1/classifier-00.category
I1125 15:37:37.256500 17455 net.cpp:157] Top shape: 64 16 (1024)
I1125 15:37:37.256501 17455 net.cpp:165] Memory required for data: 2525941504
I1125 15:37:37.256507 17455 layer_factory.hpp:76] Creating layer loss1/loss_00.category
I1125 15:37:37.256517 17455 net.cpp:106] Creating Layer loss1/loss_00.category
I1125 15:37:37.256522 17455 net.cpp:454] loss1/loss_00.category <- loss1/classifier-00.category
I1125 15:37:37.256526 17455 net.cpp:454] loss1/loss_00.category <- 00.category_slice_attribute_0_split_0
I1125 15:37:37.256535 17455 net.cpp:411] loss1/loss_00.category -> (automatic)
I1125 15:37:37.256542 17455 layer_factory.hpp:76] Creating layer loss1/loss_00.category
I1125 15:37:37.256949 17455 net.cpp:150] Setting up loss1/loss_00.category
I1125 15:37:37.256963 17455 net.cpp:157] Top shape: (1)
I1125 15:37:37.256966 17455 net.cpp:160]     with loss weight 0.3
I1125 15:37:37.256986 17455 net.cpp:165] Memory required for data: 2525941508
I1125 15:37:37.256990 17455 layer_factory.hpp:76] Creating layer loss1/fc_02.collar_shape
I1125 15:37:37.256999 17455 net.cpp:106] Creating Layer loss1/fc_02.collar_shape
I1125 15:37:37.257004 17455 net.cpp:454] loss1/fc_02.collar_shape <- loss1/conv_loss1/relu_conv_0_split_1
I1125 15:37:37.257009 17455 net.cpp:411] loss1/fc_02.collar_shape -> loss1/fc_02.collar_shape
I1125 15:37:37.264928 17455 net.cpp:150] Setting up loss1/fc_02.collar_shape
I1125 15:37:37.264942 17455 net.cpp:157] Top shape: 64 512 (32768)
I1125 15:37:37.264945 17455 net.cpp:165] Memory required for data: 2526072580
I1125 15:37:37.264951 17455 layer_factory.hpp:76] Creating layer loss1/relu_fc_02.collar_shape
I1125 15:37:37.264958 17455 net.cpp:106] Creating Layer loss1/relu_fc_02.collar_shape
I1125 15:37:37.264962 17455 net.cpp:454] loss1/relu_fc_02.collar_shape <- loss1/fc_02.collar_shape
I1125 15:37:37.264967 17455 net.cpp:397] loss1/relu_fc_02.collar_shape -> loss1/fc_02.collar_shape (in-place)
I1125 15:37:37.265141 17455 net.cpp:150] Setting up loss1/relu_fc_02.collar_shape
I1125 15:37:37.265152 17455 net.cpp:157] Top shape: 64 512 (32768)
I1125 15:37:37.265156 17455 net.cpp:165] Memory required for data: 2526203652
I1125 15:37:37.265158 17455 layer_factory.hpp:76] Creating layer loss1/drop_fc_02.collar_shape
I1125 15:37:37.265166 17455 net.cpp:106] Creating Layer loss1/drop_fc_02.collar_shape
I1125 15:37:37.265171 17455 net.cpp:454] loss1/drop_fc_02.collar_shape <- loss1/fc_02.collar_shape
I1125 15:37:37.265177 17455 net.cpp:397] loss1/drop_fc_02.collar_shape -> loss1/fc_02.collar_shape (in-place)
I1125 15:37:37.265205 17455 net.cpp:150] Setting up loss1/drop_fc_02.collar_shape
I1125 15:37:37.265211 17455 net.cpp:157] Top shape: 64 512 (32768)
I1125 15:37:37.265213 17455 net.cpp:165] Memory required for data: 2526334724
I1125 15:37:37.265216 17455 layer_factory.hpp:76] Creating layer loss1/classifier-02.collar_shape
I1125 15:37:37.265226 17455 net.cpp:106] Creating Layer loss1/classifier-02.collar_shape
I1125 15:37:37.265229 17455 net.cpp:454] loss1/classifier-02.collar_shape <- loss1/fc_02.collar_shape
I1125 15:37:37.265236 17455 net.cpp:411] loss1/classifier-02.collar_shape -> loss1/classifier-02.collar_shape
I1125 15:37:37.265390 17455 net.cpp:150] Setting up loss1/classifier-02.collar_shape
I1125 15:37:37.265398 17455 net.cpp:157] Top shape: 64 13 (832)
I1125 15:37:37.265401 17455 net.cpp:165] Memory required for data: 2526338052
I1125 15:37:37.265408 17455 layer_factory.hpp:76] Creating layer loss1/loss_02.collar_shape
I1125 15:37:37.265414 17455 net.cpp:106] Creating Layer loss1/loss_02.collar_shape
I1125 15:37:37.265418 17455 net.cpp:454] loss1/loss_02.collar_shape <- loss1/classifier-02.collar_shape
I1125 15:37:37.265422 17455 net.cpp:454] loss1/loss_02.collar_shape <- 02.collar_shape_slice_attribute_2_split_0
I1125 15:37:37.265429 17455 net.cpp:411] loss1/loss_02.collar_shape -> (automatic)
I1125 15:37:37.265434 17455 layer_factory.hpp:76] Creating layer loss1/loss_02.collar_shape
I1125 15:37:37.265841 17455 net.cpp:150] Setting up loss1/loss_02.collar_shape
I1125 15:37:37.265853 17455 net.cpp:157] Top shape: (1)
I1125 15:37:37.265856 17455 net.cpp:160]     with loss weight 0.3
I1125 15:37:37.265863 17455 net.cpp:165] Memory required for data: 2526338056
I1125 15:37:37.265867 17455 layer_factory.hpp:76] Creating layer loss1/fc_05.pattern
I1125 15:37:37.265874 17455 net.cpp:106] Creating Layer loss1/fc_05.pattern
I1125 15:37:37.265878 17455 net.cpp:454] loss1/fc_05.pattern <- loss1/conv_loss1/relu_conv_0_split_2
I1125 15:37:37.265887 17455 net.cpp:411] loss1/fc_05.pattern -> loss1/fc_05.pattern
I1125 15:37:37.274016 17455 net.cpp:150] Setting up loss1/fc_05.pattern
I1125 15:37:37.274032 17455 net.cpp:157] Top shape: 64 512 (32768)
I1125 15:37:37.274036 17455 net.cpp:165] Memory required for data: 2526469128
I1125 15:37:37.274044 17455 layer_factory.hpp:76] Creating layer loss1/relu_fc_05.pattern
I1125 15:37:37.274049 17455 net.cpp:106] Creating Layer loss1/relu_fc_05.pattern
I1125 15:37:37.274054 17455 net.cpp:454] loss1/relu_fc_05.pattern <- loss1/fc_05.pattern
I1125 15:37:37.274060 17455 net.cpp:397] loss1/relu_fc_05.pattern -> loss1/fc_05.pattern (in-place)
I1125 15:37:37.274238 17455 net.cpp:150] Setting up loss1/relu_fc_05.pattern
I1125 15:37:37.274248 17455 net.cpp:157] Top shape: 64 512 (32768)
I1125 15:37:37.274251 17455 net.cpp:165] Memory required for data: 2526600200
I1125 15:37:37.274255 17455 layer_factory.hpp:76] Creating layer loss1/drop_fc_05.pattern
I1125 15:37:37.274260 17455 net.cpp:106] Creating Layer loss1/drop_fc_05.pattern
I1125 15:37:37.274265 17455 net.cpp:454] loss1/drop_fc_05.pattern <- loss1/fc_05.pattern
I1125 15:37:37.274269 17455 net.cpp:397] loss1/drop_fc_05.pattern -> loss1/fc_05.pattern (in-place)
I1125 15:37:37.274299 17455 net.cpp:150] Setting up loss1/drop_fc_05.pattern
I1125 15:37:37.274305 17455 net.cpp:157] Top shape: 64 512 (32768)
I1125 15:37:37.274308 17455 net.cpp:165] Memory required for data: 2526731272
I1125 15:37:37.274312 17455 layer_factory.hpp:76] Creating layer loss1/classifier-05.pattern
I1125 15:37:37.274320 17455 net.cpp:106] Creating Layer loss1/classifier-05.pattern
I1125 15:37:37.274323 17455 net.cpp:454] loss1/classifier-05.pattern <- loss1/fc_05.pattern
I1125 15:37:37.274328 17455 net.cpp:411] loss1/classifier-05.pattern -> loss1/classifier-05.pattern
I1125 15:37:37.274504 17455 net.cpp:150] Setting up loss1/classifier-05.pattern
I1125 15:37:37.274513 17455 net.cpp:157] Top shape: 64 16 (1024)
I1125 15:37:37.274516 17455 net.cpp:165] Memory required for data: 2526735368
I1125 15:37:37.274523 17455 layer_factory.hpp:76] Creating layer loss1/loss_05.pattern
I1125 15:37:37.274528 17455 net.cpp:106] Creating Layer loss1/loss_05.pattern
I1125 15:37:37.274531 17455 net.cpp:454] loss1/loss_05.pattern <- loss1/classifier-05.pattern
I1125 15:37:37.274536 17455 net.cpp:454] loss1/loss_05.pattern <- 05.pattern_slice_attribute_5_split_0
I1125 15:37:37.274543 17455 net.cpp:411] loss1/loss_05.pattern -> (automatic)
I1125 15:37:37.274549 17455 layer_factory.hpp:76] Creating layer loss1/loss_05.pattern
I1125 15:37:37.274961 17455 net.cpp:150] Setting up loss1/loss_05.pattern
I1125 15:37:37.274976 17455 net.cpp:157] Top shape: (1)
I1125 15:37:37.274978 17455 net.cpp:160]     with loss weight 0.3
I1125 15:37:37.274984 17455 net.cpp:165] Memory required for data: 2526735372
I1125 15:37:37.274987 17455 layer_factory.hpp:76] Creating layer loss1/fc_06.button_shape
I1125 15:37:37.274994 17455 net.cpp:106] Creating Layer loss1/fc_06.button_shape
I1125 15:37:37.274998 17455 net.cpp:454] loss1/fc_06.button_shape <- loss1/conv_loss1/relu_conv_0_split_3
I1125 15:37:37.275007 17455 net.cpp:411] loss1/fc_06.button_shape -> loss1/fc_06.button_shape
I1125 15:37:37.282907 17455 net.cpp:150] Setting up loss1/fc_06.button_shape
I1125 15:37:37.282920 17455 net.cpp:157] Top shape: 64 512 (32768)
I1125 15:37:37.282924 17455 net.cpp:165] Memory required for data: 2526866444
I1125 15:37:37.282930 17455 layer_factory.hpp:76] Creating layer loss1/relu_fc_06.button_shape
I1125 15:37:37.282937 17455 net.cpp:106] Creating Layer loss1/relu_fc_06.button_shape
I1125 15:37:37.282940 17455 net.cpp:454] loss1/relu_fc_06.button_shape <- loss1/fc_06.button_shape
I1125 15:37:37.282946 17455 net.cpp:397] loss1/relu_fc_06.button_shape -> loss1/fc_06.button_shape (in-place)
I1125 15:37:37.283121 17455 net.cpp:150] Setting up loss1/relu_fc_06.button_shape
I1125 15:37:37.283133 17455 net.cpp:157] Top shape: 64 512 (32768)
I1125 15:37:37.283135 17455 net.cpp:165] Memory required for data: 2526997516
I1125 15:37:37.283138 17455 layer_factory.hpp:76] Creating layer loss1/drop_fc_06.button_shape
I1125 15:37:37.283145 17455 net.cpp:106] Creating Layer loss1/drop_fc_06.button_shape
I1125 15:37:37.283149 17455 net.cpp:454] loss1/drop_fc_06.button_shape <- loss1/fc_06.button_shape
I1125 15:37:37.283154 17455 net.cpp:397] loss1/drop_fc_06.button_shape -> loss1/fc_06.button_shape (in-place)
I1125 15:37:37.283185 17455 net.cpp:150] Setting up loss1/drop_fc_06.button_shape
I1125 15:37:37.283190 17455 net.cpp:157] Top shape: 64 512 (32768)
I1125 15:37:37.283192 17455 net.cpp:165] Memory required for data: 2527128588
I1125 15:37:37.283195 17455 layer_factory.hpp:76] Creating layer loss1/classifier-06.button_shape
I1125 15:37:37.283201 17455 net.cpp:106] Creating Layer loss1/classifier-06.button_shape
I1125 15:37:37.283205 17455 net.cpp:454] loss1/classifier-06.button_shape <- loss1/fc_06.button_shape
I1125 15:37:37.283213 17455 net.cpp:411] loss1/classifier-06.button_shape -> loss1/classifier-06.button_shape
I1125 15:37:37.283359 17455 net.cpp:150] Setting up loss1/classifier-06.button_shape
I1125 15:37:37.283367 17455 net.cpp:157] Top shape: 64 9 (576)
I1125 15:37:37.283370 17455 net.cpp:165] Memory required for data: 2527130892
I1125 15:37:37.283376 17455 layer_factory.hpp:76] Creating layer loss1/loss_06.button_shape
I1125 15:37:37.283382 17455 net.cpp:106] Creating Layer loss1/loss_06.button_shape
I1125 15:37:37.283385 17455 net.cpp:454] loss1/loss_06.button_shape <- loss1/classifier-06.button_shape
I1125 15:37:37.283390 17455 net.cpp:454] loss1/loss_06.button_shape <- 06.button_shape_slice_attribute_6_split_0
I1125 15:37:37.283397 17455 net.cpp:411] loss1/loss_06.button_shape -> (automatic)
I1125 15:37:37.283402 17455 layer_factory.hpp:76] Creating layer loss1/loss_06.button_shape
I1125 15:37:37.283798 17455 net.cpp:150] Setting up loss1/loss_06.button_shape
I1125 15:37:37.283812 17455 net.cpp:157] Top shape: (1)
I1125 15:37:37.283815 17455 net.cpp:160]     with loss weight 0.3
I1125 15:37:37.283821 17455 net.cpp:165] Memory required for data: 2527130896
I1125 15:37:37.283825 17455 layer_factory.hpp:76] Creating layer loss1/fc_09.fashion_elements
I1125 15:37:37.283834 17455 net.cpp:106] Creating Layer loss1/fc_09.fashion_elements
I1125 15:37:37.283839 17455 net.cpp:454] loss1/fc_09.fashion_elements <- loss1/conv_loss1/relu_conv_0_split_4
I1125 15:37:37.283848 17455 net.cpp:411] loss1/fc_09.fashion_elements -> loss1/fc_09.fashion_elements
I1125 15:37:37.291736 17455 net.cpp:150] Setting up loss1/fc_09.fashion_elements
I1125 15:37:37.291750 17455 net.cpp:157] Top shape: 64 512 (32768)
I1125 15:37:37.291754 17455 net.cpp:165] Memory required for data: 2527261968
I1125 15:37:37.291759 17455 layer_factory.hpp:76] Creating layer loss1/relu_fc_09.fashion_elements
I1125 15:37:37.291765 17455 net.cpp:106] Creating Layer loss1/relu_fc_09.fashion_elements
I1125 15:37:37.291769 17455 net.cpp:454] loss1/relu_fc_09.fashion_elements <- loss1/fc_09.fashion_elements
I1125 15:37:37.291774 17455 net.cpp:397] loss1/relu_fc_09.fashion_elements -> loss1/fc_09.fashion_elements (in-place)
I1125 15:37:37.291952 17455 net.cpp:150] Setting up loss1/relu_fc_09.fashion_elements
I1125 15:37:37.291963 17455 net.cpp:157] Top shape: 64 512 (32768)
I1125 15:37:37.291966 17455 net.cpp:165] Memory required for data: 2527393040
I1125 15:37:37.291970 17455 layer_factory.hpp:76] Creating layer loss1/drop_fc_09.fashion_elements
I1125 15:37:37.291976 17455 net.cpp:106] Creating Layer loss1/drop_fc_09.fashion_elements
I1125 15:37:37.291980 17455 net.cpp:454] loss1/drop_fc_09.fashion_elements <- loss1/fc_09.fashion_elements
I1125 15:37:37.291985 17455 net.cpp:397] loss1/drop_fc_09.fashion_elements -> loss1/fc_09.fashion_elements (in-place)
I1125 15:37:37.292016 17455 net.cpp:150] Setting up loss1/drop_fc_09.fashion_elements
I1125 15:37:37.292022 17455 net.cpp:157] Top shape: 64 512 (32768)
I1125 15:37:37.292026 17455 net.cpp:165] Memory required for data: 2527524112
I1125 15:37:37.292029 17455 layer_factory.hpp:76] Creating layer loss1/classifier-09.fashion_elements
I1125 15:37:37.292035 17455 net.cpp:106] Creating Layer loss1/classifier-09.fashion_elements
I1125 15:37:37.292040 17455 net.cpp:454] loss1/classifier-09.fashion_elements <- loss1/fc_09.fashion_elements
I1125 15:37:37.292047 17455 net.cpp:411] loss1/classifier-09.fashion_elements -> loss1/classifier-09.fashion_elements
I1125 15:37:37.292234 17455 net.cpp:150] Setting up loss1/classifier-09.fashion_elements
I1125 15:37:37.292244 17455 net.cpp:157] Top shape: 64 15 (960)
I1125 15:37:37.292248 17455 net.cpp:165] Memory required for data: 2527527952
I1125 15:37:37.292253 17455 layer_factory.hpp:76] Creating layer loss1/loss_09.fashion_elements
I1125 15:37:37.292258 17455 net.cpp:106] Creating Layer loss1/loss_09.fashion_elements
I1125 15:37:37.292263 17455 net.cpp:454] loss1/loss_09.fashion_elements <- loss1/classifier-09.fashion_elements
I1125 15:37:37.292268 17455 net.cpp:454] loss1/loss_09.fashion_elements <- 09.fashion_elements_slice_attribute_9_split_0
I1125 15:37:37.292273 17455 net.cpp:411] loss1/loss_09.fashion_elements -> (automatic)
I1125 15:37:37.292278 17455 layer_factory.hpp:76] Creating layer loss1/loss_09.fashion_elements
I1125 15:37:37.292680 17455 net.cpp:150] Setting up loss1/loss_09.fashion_elements
I1125 15:37:37.292696 17455 net.cpp:157] Top shape: (1)
I1125 15:37:37.292701 17455 net.cpp:160]     with loss weight 0.3
I1125 15:37:37.292706 17455 net.cpp:165] Memory required for data: 2527527956
I1125 15:37:37.292709 17455 layer_factory.hpp:76] Creating layer loss1/fc_21.color
I1125 15:37:37.292716 17455 net.cpp:106] Creating Layer loss1/fc_21.color
I1125 15:37:37.292721 17455 net.cpp:454] loss1/fc_21.color <- loss1/conv_loss1/relu_conv_0_split_5
I1125 15:37:37.292728 17455 net.cpp:411] loss1/fc_21.color -> loss1/fc_21.color
I1125 15:37:37.300621 17455 net.cpp:150] Setting up loss1/fc_21.color
I1125 15:37:37.300636 17455 net.cpp:157] Top shape: 64 512 (32768)
I1125 15:37:37.300638 17455 net.cpp:165] Memory required for data: 2527659028
I1125 15:37:37.300657 17455 layer_factory.hpp:76] Creating layer loss1/relu_fc_21.color
I1125 15:37:37.300663 17455 net.cpp:106] Creating Layer loss1/relu_fc_21.color
I1125 15:37:37.300668 17455 net.cpp:454] loss1/relu_fc_21.color <- loss1/fc_21.color
I1125 15:37:37.300673 17455 net.cpp:397] loss1/relu_fc_21.color -> loss1/fc_21.color (in-place)
I1125 15:37:37.300848 17455 net.cpp:150] Setting up loss1/relu_fc_21.color
I1125 15:37:37.300859 17455 net.cpp:157] Top shape: 64 512 (32768)
I1125 15:37:37.300863 17455 net.cpp:165] Memory required for data: 2527790100
I1125 15:37:37.300866 17455 layer_factory.hpp:76] Creating layer loss1/drop_fc_21.color
I1125 15:37:37.300874 17455 net.cpp:106] Creating Layer loss1/drop_fc_21.color
I1125 15:37:37.300879 17455 net.cpp:454] loss1/drop_fc_21.color <- loss1/fc_21.color
I1125 15:37:37.300884 17455 net.cpp:397] loss1/drop_fc_21.color -> loss1/fc_21.color (in-place)
I1125 15:37:37.300916 17455 net.cpp:150] Setting up loss1/drop_fc_21.color
I1125 15:37:37.300930 17455 net.cpp:157] Top shape: 64 512 (32768)
I1125 15:37:37.300933 17455 net.cpp:165] Memory required for data: 2527921172
I1125 15:37:37.300936 17455 layer_factory.hpp:76] Creating layer loss1/classifier-21.color
I1125 15:37:37.300942 17455 net.cpp:106] Creating Layer loss1/classifier-21.color
I1125 15:37:37.300946 17455 net.cpp:454] loss1/classifier-21.color <- loss1/fc_21.color
I1125 15:37:37.300952 17455 net.cpp:411] loss1/classifier-21.color -> loss1/classifier-21.color
I1125 15:37:37.301141 17455 net.cpp:150] Setting up loss1/classifier-21.color
I1125 15:37:37.301151 17455 net.cpp:157] Top shape: 64 21 (1344)
I1125 15:37:37.301153 17455 net.cpp:165] Memory required for data: 2527926548
I1125 15:37:37.301159 17455 layer_factory.hpp:76] Creating layer loss1/loss_21.color
I1125 15:37:37.301165 17455 net.cpp:106] Creating Layer loss1/loss_21.color
I1125 15:37:37.301170 17455 net.cpp:454] loss1/loss_21.color <- loss1/classifier-21.color
I1125 15:37:37.301174 17455 net.cpp:454] loss1/loss_21.color <- 21.color_slice_attribute_21_split_0
I1125 15:37:37.301180 17455 net.cpp:411] loss1/loss_21.color -> (automatic)
I1125 15:37:37.301185 17455 layer_factory.hpp:76] Creating layer loss1/loss_21.color
I1125 15:37:37.301599 17455 net.cpp:150] Setting up loss1/loss_21.color
I1125 15:37:37.301612 17455 net.cpp:157] Top shape: (1)
I1125 15:37:37.301616 17455 net.cpp:160]     with loss weight 0.3
I1125 15:37:37.301621 17455 net.cpp:165] Memory required for data: 2527926552
I1125 15:37:37.301625 17455 layer_factory.hpp:76] Creating layer inception_4b/1x1
I1125 15:37:37.301636 17455 net.cpp:106] Creating Layer inception_4b/1x1
I1125 15:37:37.301640 17455 net.cpp:454] inception_4b/1x1 <- inception_4a/output_inception_4a/output_0_split_1
I1125 15:37:37.301648 17455 net.cpp:411] inception_4b/1x1 -> inception_4b/1x1
I1125 15:37:37.303376 17455 net.cpp:150] Setting up inception_4b/1x1
I1125 15:37:37.303391 17455 net.cpp:157] Top shape: 64 160 14 14 (2007040)
I1125 15:37:37.303395 17455 net.cpp:165] Memory required for data: 2535954712
I1125 15:37:37.303401 17455 layer_factory.hpp:76] Creating layer inception_4b/relu_1x1
I1125 15:37:37.303407 17455 net.cpp:106] Creating Layer inception_4b/relu_1x1
I1125 15:37:37.303411 17455 net.cpp:454] inception_4b/relu_1x1 <- inception_4b/1x1
I1125 15:37:37.303418 17455 net.cpp:397] inception_4b/relu_1x1 -> inception_4b/1x1 (in-place)
I1125 15:37:37.303593 17455 net.cpp:150] Setting up inception_4b/relu_1x1
I1125 15:37:37.303603 17455 net.cpp:157] Top shape: 64 160 14 14 (2007040)
I1125 15:37:37.303607 17455 net.cpp:165] Memory required for data: 2543982872
I1125 15:37:37.303611 17455 layer_factory.hpp:76] Creating layer inception_4b/3x3_reduce
I1125 15:37:37.303619 17455 net.cpp:106] Creating Layer inception_4b/3x3_reduce
I1125 15:37:37.303623 17455 net.cpp:454] inception_4b/3x3_reduce <- inception_4a/output_inception_4a/output_0_split_2
I1125 15:37:37.303630 17455 net.cpp:411] inception_4b/3x3_reduce -> inception_4b/3x3_reduce
I1125 15:37:37.305474 17455 net.cpp:150] Setting up inception_4b/3x3_reduce
I1125 15:37:37.305490 17455 net.cpp:157] Top shape: 64 112 14 14 (1404928)
I1125 15:37:37.305493 17455 net.cpp:165] Memory required for data: 2549602584
I1125 15:37:37.305500 17455 layer_factory.hpp:76] Creating layer inception_4b/relu_3x3_reduce
I1125 15:37:37.305506 17455 net.cpp:106] Creating Layer inception_4b/relu_3x3_reduce
I1125 15:37:37.305511 17455 net.cpp:454] inception_4b/relu_3x3_reduce <- inception_4b/3x3_reduce
I1125 15:37:37.305516 17455 net.cpp:397] inception_4b/relu_3x3_reduce -> inception_4b/3x3_reduce (in-place)
I1125 15:37:37.305827 17455 net.cpp:150] Setting up inception_4b/relu_3x3_reduce
I1125 15:37:37.305840 17455 net.cpp:157] Top shape: 64 112 14 14 (1404928)
I1125 15:37:37.305843 17455 net.cpp:165] Memory required for data: 2555222296
I1125 15:37:37.305847 17455 layer_factory.hpp:76] Creating layer inception_4b/3x3
I1125 15:37:37.305856 17455 net.cpp:106] Creating Layer inception_4b/3x3
I1125 15:37:37.305861 17455 net.cpp:454] inception_4b/3x3 <- inception_4b/3x3_reduce
I1125 15:37:37.305868 17455 net.cpp:411] inception_4b/3x3 -> inception_4b/3x3
I1125 15:37:37.308687 17455 net.cpp:150] Setting up inception_4b/3x3
I1125 15:37:37.308702 17455 net.cpp:157] Top shape: 64 224 14 14 (2809856)
I1125 15:37:37.308706 17455 net.cpp:165] Memory required for data: 2566461720
I1125 15:37:37.308712 17455 layer_factory.hpp:76] Creating layer inception_4b/relu_3x3
I1125 15:37:37.308719 17455 net.cpp:106] Creating Layer inception_4b/relu_3x3
I1125 15:37:37.308723 17455 net.cpp:454] inception_4b/relu_3x3 <- inception_4b/3x3
I1125 15:37:37.308730 17455 net.cpp:397] inception_4b/relu_3x3 -> inception_4b/3x3 (in-place)
I1125 15:37:37.309041 17455 net.cpp:150] Setting up inception_4b/relu_3x3
I1125 15:37:37.309053 17455 net.cpp:157] Top shape: 64 224 14 14 (2809856)
I1125 15:37:37.309057 17455 net.cpp:165] Memory required for data: 2577701144
I1125 15:37:37.309061 17455 layer_factory.hpp:76] Creating layer inception_4b/5x5_reduce
I1125 15:37:37.309069 17455 net.cpp:106] Creating Layer inception_4b/5x5_reduce
I1125 15:37:37.309073 17455 net.cpp:454] inception_4b/5x5_reduce <- inception_4a/output_inception_4a/output_0_split_3
I1125 15:37:37.309082 17455 net.cpp:411] inception_4b/5x5_reduce -> inception_4b/5x5_reduce
I1125 15:37:37.310204 17455 net.cpp:150] Setting up inception_4b/5x5_reduce
I1125 15:37:37.310219 17455 net.cpp:157] Top shape: 64 24 14 14 (301056)
I1125 15:37:37.310222 17455 net.cpp:165] Memory required for data: 2578905368
I1125 15:37:37.310228 17455 layer_factory.hpp:76] Creating layer inception_4b/relu_5x5_reduce
I1125 15:37:37.310235 17455 net.cpp:106] Creating Layer inception_4b/relu_5x5_reduce
I1125 15:37:37.310238 17455 net.cpp:454] inception_4b/relu_5x5_reduce <- inception_4b/5x5_reduce
I1125 15:37:37.310243 17455 net.cpp:397] inception_4b/relu_5x5_reduce -> inception_4b/5x5_reduce (in-place)
I1125 15:37:37.310415 17455 net.cpp:150] Setting up inception_4b/relu_5x5_reduce
I1125 15:37:37.310426 17455 net.cpp:157] Top shape: 64 24 14 14 (301056)
I1125 15:37:37.310430 17455 net.cpp:165] Memory required for data: 2580109592
I1125 15:37:37.310432 17455 layer_factory.hpp:76] Creating layer inception_4b/5x5
I1125 15:37:37.310442 17455 net.cpp:106] Creating Layer inception_4b/5x5
I1125 15:37:37.310447 17455 net.cpp:454] inception_4b/5x5 <- inception_4b/5x5_reduce
I1125 15:37:37.310456 17455 net.cpp:411] inception_4b/5x5 -> inception_4b/5x5
I1125 15:37:37.311774 17455 net.cpp:150] Setting up inception_4b/5x5
I1125 15:37:37.311789 17455 net.cpp:157] Top shape: 64 64 14 14 (802816)
I1125 15:37:37.311792 17455 net.cpp:165] Memory required for data: 2583320856
I1125 15:37:37.311799 17455 layer_factory.hpp:76] Creating layer inception_4b/relu_5x5
I1125 15:37:37.311805 17455 net.cpp:106] Creating Layer inception_4b/relu_5x5
I1125 15:37:37.311808 17455 net.cpp:454] inception_4b/relu_5x5 <- inception_4b/5x5
I1125 15:37:37.311813 17455 net.cpp:397] inception_4b/relu_5x5 -> inception_4b/5x5 (in-place)
I1125 15:37:37.312129 17455 net.cpp:150] Setting up inception_4b/relu_5x5
I1125 15:37:37.312142 17455 net.cpp:157] Top shape: 64 64 14 14 (802816)
I1125 15:37:37.312145 17455 net.cpp:165] Memory required for data: 2586532120
I1125 15:37:37.312150 17455 layer_factory.hpp:76] Creating layer inception_4b/pool
I1125 15:37:37.312156 17455 net.cpp:106] Creating Layer inception_4b/pool
I1125 15:37:37.312160 17455 net.cpp:454] inception_4b/pool <- inception_4a/output_inception_4a/output_0_split_4
I1125 15:37:37.312167 17455 net.cpp:411] inception_4b/pool -> inception_4b/pool
I1125 15:37:37.312396 17455 net.cpp:150] Setting up inception_4b/pool
I1125 15:37:37.312407 17455 net.cpp:157] Top shape: 64 512 14 14 (6422528)
I1125 15:37:37.312410 17455 net.cpp:165] Memory required for data: 2612222232
I1125 15:37:37.312414 17455 layer_factory.hpp:76] Creating layer inception_4b/pool_proj
I1125 15:37:37.312438 17455 net.cpp:106] Creating Layer inception_4b/pool_proj
I1125 15:37:37.312443 17455 net.cpp:454] inception_4b/pool_proj <- inception_4b/pool
I1125 15:37:37.312449 17455 net.cpp:411] inception_4b/pool_proj -> inception_4b/pool_proj
I1125 15:37:37.313731 17455 net.cpp:150] Setting up inception_4b/pool_proj
I1125 15:37:37.313745 17455 net.cpp:157] Top shape: 64 64 14 14 (802816)
I1125 15:37:37.313750 17455 net.cpp:165] Memory required for data: 2615433496
I1125 15:37:37.313755 17455 layer_factory.hpp:76] Creating layer inception_4b/relu_pool_proj
I1125 15:37:37.313761 17455 net.cpp:106] Creating Layer inception_4b/relu_pool_proj
I1125 15:37:37.313766 17455 net.cpp:454] inception_4b/relu_pool_proj <- inception_4b/pool_proj
I1125 15:37:37.313771 17455 net.cpp:397] inception_4b/relu_pool_proj -> inception_4b/pool_proj (in-place)
I1125 15:37:37.313942 17455 net.cpp:150] Setting up inception_4b/relu_pool_proj
I1125 15:37:37.313953 17455 net.cpp:157] Top shape: 64 64 14 14 (802816)
I1125 15:37:37.313957 17455 net.cpp:165] Memory required for data: 2618644760
I1125 15:37:37.313961 17455 layer_factory.hpp:76] Creating layer inception_4b/output
I1125 15:37:37.313966 17455 net.cpp:106] Creating Layer inception_4b/output
I1125 15:37:37.313971 17455 net.cpp:454] inception_4b/output <- inception_4b/1x1
I1125 15:37:37.313974 17455 net.cpp:454] inception_4b/output <- inception_4b/3x3
I1125 15:37:37.313978 17455 net.cpp:454] inception_4b/output <- inception_4b/5x5
I1125 15:37:37.313982 17455 net.cpp:454] inception_4b/output <- inception_4b/pool_proj
I1125 15:37:37.313987 17455 net.cpp:411] inception_4b/output -> inception_4b/output
I1125 15:37:37.314020 17455 net.cpp:150] Setting up inception_4b/output
I1125 15:37:37.314026 17455 net.cpp:157] Top shape: 64 512 14 14 (6422528)
I1125 15:37:37.314028 17455 net.cpp:165] Memory required for data: 2644334872
I1125 15:37:37.314031 17455 layer_factory.hpp:76] Creating layer inception_4b/output_inception_4b/output_0_split
I1125 15:37:37.314038 17455 net.cpp:106] Creating Layer inception_4b/output_inception_4b/output_0_split
I1125 15:37:37.314041 17455 net.cpp:454] inception_4b/output_inception_4b/output_0_split <- inception_4b/output
I1125 15:37:37.314048 17455 net.cpp:411] inception_4b/output_inception_4b/output_0_split -> inception_4b/output_inception_4b/output_0_split_0
I1125 15:37:37.314054 17455 net.cpp:411] inception_4b/output_inception_4b/output_0_split -> inception_4b/output_inception_4b/output_0_split_1
I1125 15:37:37.314059 17455 net.cpp:411] inception_4b/output_inception_4b/output_0_split -> inception_4b/output_inception_4b/output_0_split_2
I1125 15:37:37.314079 17455 net.cpp:411] inception_4b/output_inception_4b/output_0_split -> inception_4b/output_inception_4b/output_0_split_3
I1125 15:37:37.314146 17455 net.cpp:150] Setting up inception_4b/output_inception_4b/output_0_split
I1125 15:37:37.314152 17455 net.cpp:157] Top shape: 64 512 14 14 (6422528)
I1125 15:37:37.314157 17455 net.cpp:157] Top shape: 64 512 14 14 (6422528)
I1125 15:37:37.314162 17455 net.cpp:157] Top shape: 64 512 14 14 (6422528)
I1125 15:37:37.314167 17455 net.cpp:157] Top shape: 64 512 14 14 (6422528)
I1125 15:37:37.314168 17455 net.cpp:165] Memory required for data: 2747095320
I1125 15:37:37.314172 17455 layer_factory.hpp:76] Creating layer inception_4c/1x1
I1125 15:37:37.314179 17455 net.cpp:106] Creating Layer inception_4c/1x1
I1125 15:37:37.314183 17455 net.cpp:454] inception_4c/1x1 <- inception_4b/output_inception_4b/output_0_split_0
I1125 15:37:37.314189 17455 net.cpp:411] inception_4c/1x1 -> inception_4c/1x1
I1125 15:37:37.315666 17455 net.cpp:150] Setting up inception_4c/1x1
I1125 15:37:37.315681 17455 net.cpp:157] Top shape: 64 128 14 14 (1605632)
I1125 15:37:37.315685 17455 net.cpp:165] Memory required for data: 2753517848
I1125 15:37:37.315691 17455 layer_factory.hpp:76] Creating layer inception_4c/relu_1x1
I1125 15:37:37.315699 17455 net.cpp:106] Creating Layer inception_4c/relu_1x1
I1125 15:37:37.315703 17455 net.cpp:454] inception_4c/relu_1x1 <- inception_4c/1x1
I1125 15:37:37.315711 17455 net.cpp:397] inception_4c/relu_1x1 -> inception_4c/1x1 (in-place)
I1125 15:37:37.316022 17455 net.cpp:150] Setting up inception_4c/relu_1x1
I1125 15:37:37.316035 17455 net.cpp:157] Top shape: 64 128 14 14 (1605632)
I1125 15:37:37.316040 17455 net.cpp:165] Memory required for data: 2759940376
I1125 15:37:37.316042 17455 layer_factory.hpp:76] Creating layer inception_4c/3x3_reduce
I1125 15:37:37.316051 17455 net.cpp:106] Creating Layer inception_4c/3x3_reduce
I1125 15:37:37.316056 17455 net.cpp:454] inception_4c/3x3_reduce <- inception_4b/output_inception_4b/output_0_split_1
I1125 15:37:37.316063 17455 net.cpp:411] inception_4c/3x3_reduce -> inception_4c/3x3_reduce
I1125 15:37:37.317533 17455 net.cpp:150] Setting up inception_4c/3x3_reduce
I1125 15:37:37.317546 17455 net.cpp:157] Top shape: 64 128 14 14 (1605632)
I1125 15:37:37.317550 17455 net.cpp:165] Memory required for data: 2766362904
I1125 15:37:37.317556 17455 layer_factory.hpp:76] Creating layer inception_4c/relu_3x3_reduce
I1125 15:37:37.317562 17455 net.cpp:106] Creating Layer inception_4c/relu_3x3_reduce
I1125 15:37:37.317566 17455 net.cpp:454] inception_4c/relu_3x3_reduce <- inception_4c/3x3_reduce
I1125 15:37:37.317574 17455 net.cpp:397] inception_4c/relu_3x3_reduce -> inception_4c/3x3_reduce (in-place)
I1125 15:37:37.317751 17455 net.cpp:150] Setting up inception_4c/relu_3x3_reduce
I1125 15:37:37.317762 17455 net.cpp:157] Top shape: 64 128 14 14 (1605632)
I1125 15:37:37.317765 17455 net.cpp:165] Memory required for data: 2772785432
I1125 15:37:37.317769 17455 layer_factory.hpp:76] Creating layer inception_4c/3x3
I1125 15:37:37.317778 17455 net.cpp:106] Creating Layer inception_4c/3x3
I1125 15:37:37.317783 17455 net.cpp:454] inception_4c/3x3 <- inception_4c/3x3_reduce
I1125 15:37:37.317790 17455 net.cpp:411] inception_4c/3x3 -> inception_4c/3x3
I1125 15:37:37.321326 17455 net.cpp:150] Setting up inception_4c/3x3
I1125 15:37:37.321341 17455 net.cpp:157] Top shape: 64 256 14 14 (3211264)
I1125 15:37:37.321344 17455 net.cpp:165] Memory required for data: 2785630488
I1125 15:37:37.321352 17455 layer_factory.hpp:76] Creating layer inception_4c/relu_3x3
I1125 15:37:37.321358 17455 net.cpp:106] Creating Layer inception_4c/relu_3x3
I1125 15:37:37.321363 17455 net.cpp:454] inception_4c/relu_3x3 <- inception_4c/3x3
I1125 15:37:37.321369 17455 net.cpp:397] inception_4c/relu_3x3 -> inception_4c/3x3 (in-place)
I1125 15:37:37.321549 17455 net.cpp:150] Setting up inception_4c/relu_3x3
I1125 15:37:37.321560 17455 net.cpp:157] Top shape: 64 256 14 14 (3211264)
I1125 15:37:37.321563 17455 net.cpp:165] Memory required for data: 2798475544
I1125 15:37:37.321568 17455 layer_factory.hpp:76] Creating layer inception_4c/5x5_reduce
I1125 15:37:37.321575 17455 net.cpp:106] Creating Layer inception_4c/5x5_reduce
I1125 15:37:37.321580 17455 net.cpp:454] inception_4c/5x5_reduce <- inception_4b/output_inception_4b/output_0_split_2
I1125 15:37:37.321588 17455 net.cpp:411] inception_4c/5x5_reduce -> inception_4c/5x5_reduce
I1125 15:37:37.322840 17455 net.cpp:150] Setting up inception_4c/5x5_reduce
I1125 15:37:37.322855 17455 net.cpp:157] Top shape: 64 24 14 14 (301056)
I1125 15:37:37.322859 17455 net.cpp:165] Memory required for data: 2799679768
I1125 15:37:37.322865 17455 layer_factory.hpp:76] Creating layer inception_4c/relu_5x5_reduce
I1125 15:37:37.322871 17455 net.cpp:106] Creating Layer inception_4c/relu_5x5_reduce
I1125 15:37:37.322876 17455 net.cpp:454] inception_4c/relu_5x5_reduce <- inception_4c/5x5_reduce
I1125 15:37:37.322881 17455 net.cpp:397] inception_4c/relu_5x5_reduce -> inception_4c/5x5_reduce (in-place)
I1125 15:37:37.323200 17455 net.cpp:150] Setting up inception_4c/relu_5x5_reduce
I1125 15:37:37.323215 17455 net.cpp:157] Top shape: 64 24 14 14 (301056)
I1125 15:37:37.323217 17455 net.cpp:165] Memory required for data: 2800883992
I1125 15:37:37.323221 17455 layer_factory.hpp:76] Creating layer inception_4c/5x5
I1125 15:37:37.323230 17455 net.cpp:106] Creating Layer inception_4c/5x5
I1125 15:37:37.323235 17455 net.cpp:454] inception_4c/5x5 <- inception_4c/5x5_reduce
I1125 15:37:37.323242 17455 net.cpp:411] inception_4c/5x5 -> inception_4c/5x5
I1125 15:37:37.324993 17455 net.cpp:150] Setting up inception_4c/5x5
I1125 15:37:37.325008 17455 net.cpp:157] Top shape: 64 64 14 14 (802816)
I1125 15:37:37.325011 17455 net.cpp:165] Memory required for data: 2804095256
I1125 15:37:37.325018 17455 layer_factory.hpp:76] Creating layer inception_4c/relu_5x5
I1125 15:37:37.325031 17455 net.cpp:106] Creating Layer inception_4c/relu_5x5
I1125 15:37:37.325037 17455 net.cpp:454] inception_4c/relu_5x5 <- inception_4c/5x5
I1125 15:37:37.325042 17455 net.cpp:397] inception_4c/relu_5x5 -> inception_4c/5x5 (in-place)
I1125 15:37:37.325220 17455 net.cpp:150] Setting up inception_4c/relu_5x5
I1125 15:37:37.325232 17455 net.cpp:157] Top shape: 64 64 14 14 (802816)
I1125 15:37:37.325234 17455 net.cpp:165] Memory required for data: 2807306520
I1125 15:37:37.325237 17455 layer_factory.hpp:76] Creating layer inception_4c/pool
I1125 15:37:37.325244 17455 net.cpp:106] Creating Layer inception_4c/pool
I1125 15:37:37.325248 17455 net.cpp:454] inception_4c/pool <- inception_4b/output_inception_4b/output_0_split_3
I1125 15:37:37.325254 17455 net.cpp:411] inception_4c/pool -> inception_4c/pool
I1125 15:37:37.325618 17455 net.cpp:150] Setting up inception_4c/pool
I1125 15:37:37.325630 17455 net.cpp:157] Top shape: 64 512 14 14 (6422528)
I1125 15:37:37.325634 17455 net.cpp:165] Memory required for data: 2832996632
I1125 15:37:37.325637 17455 layer_factory.hpp:76] Creating layer inception_4c/pool_proj
I1125 15:37:37.325647 17455 net.cpp:106] Creating Layer inception_4c/pool_proj
I1125 15:37:37.325652 17455 net.cpp:454] inception_4c/pool_proj <- inception_4c/pool
I1125 15:37:37.325659 17455 net.cpp:411] inception_4c/pool_proj -> inception_4c/pool_proj
I1125 15:37:37.326814 17455 net.cpp:150] Setting up inception_4c/pool_proj
I1125 15:37:37.326828 17455 net.cpp:157] Top shape: 64 64 14 14 (802816)
I1125 15:37:37.326833 17455 net.cpp:165] Memory required for data: 2836207896
I1125 15:37:37.326838 17455 layer_factory.hpp:76] Creating layer inception_4c/relu_pool_proj
I1125 15:37:37.326844 17455 net.cpp:106] Creating Layer inception_4c/relu_pool_proj
I1125 15:37:37.326849 17455 net.cpp:454] inception_4c/relu_pool_proj <- inception_4c/pool_proj
I1125 15:37:37.326855 17455 net.cpp:397] inception_4c/relu_pool_proj -> inception_4c/pool_proj (in-place)
I1125 15:37:37.327185 17455 net.cpp:150] Setting up inception_4c/relu_pool_proj
I1125 15:37:37.327199 17455 net.cpp:157] Top shape: 64 64 14 14 (802816)
I1125 15:37:37.327203 17455 net.cpp:165] Memory required for data: 2839419160
I1125 15:37:37.327206 17455 layer_factory.hpp:76] Creating layer inception_4c/output
I1125 15:37:37.327213 17455 net.cpp:106] Creating Layer inception_4c/output
I1125 15:37:37.327216 17455 net.cpp:454] inception_4c/output <- inception_4c/1x1
I1125 15:37:37.327221 17455 net.cpp:454] inception_4c/output <- inception_4c/3x3
I1125 15:37:37.327225 17455 net.cpp:454] inception_4c/output <- inception_4c/5x5
I1125 15:37:37.327229 17455 net.cpp:454] inception_4c/output <- inception_4c/pool_proj
I1125 15:37:37.327236 17455 net.cpp:411] inception_4c/output -> inception_4c/output
I1125 15:37:37.327273 17455 net.cpp:150] Setting up inception_4c/output
I1125 15:37:37.327278 17455 net.cpp:157] Top shape: 64 512 14 14 (6422528)
I1125 15:37:37.327281 17455 net.cpp:165] Memory required for data: 2865109272
I1125 15:37:37.327285 17455 layer_factory.hpp:76] Creating layer inception_4c/output_inception_4c/output_0_split
I1125 15:37:37.327292 17455 net.cpp:106] Creating Layer inception_4c/output_inception_4c/output_0_split
I1125 15:37:37.327296 17455 net.cpp:454] inception_4c/output_inception_4c/output_0_split <- inception_4c/output
I1125 15:37:37.327301 17455 net.cpp:411] inception_4c/output_inception_4c/output_0_split -> inception_4c/output_inception_4c/output_0_split_0
I1125 15:37:37.327307 17455 net.cpp:411] inception_4c/output_inception_4c/output_0_split -> inception_4c/output_inception_4c/output_0_split_1
I1125 15:37:37.327314 17455 net.cpp:411] inception_4c/output_inception_4c/output_0_split -> inception_4c/output_inception_4c/output_0_split_2
I1125 15:37:37.327319 17455 net.cpp:411] inception_4c/output_inception_4c/output_0_split -> inception_4c/output_inception_4c/output_0_split_3
I1125 15:37:37.327395 17455 net.cpp:150] Setting up inception_4c/output_inception_4c/output_0_split
I1125 15:37:37.327404 17455 net.cpp:157] Top shape: 64 512 14 14 (6422528)
I1125 15:37:37.327407 17455 net.cpp:157] Top shape: 64 512 14 14 (6422528)
I1125 15:37:37.327411 17455 net.cpp:157] Top shape: 64 512 14 14 (6422528)
I1125 15:37:37.327414 17455 net.cpp:157] Top shape: 64 512 14 14 (6422528)
I1125 15:37:37.327417 17455 net.cpp:165] Memory required for data: 2967869720
I1125 15:37:37.327420 17455 layer_factory.hpp:76] Creating layer inception_4d/1x1
I1125 15:37:37.327430 17455 net.cpp:106] Creating Layer inception_4d/1x1
I1125 15:37:37.327432 17455 net.cpp:454] inception_4d/1x1 <- inception_4c/output_inception_4c/output_0_split_0
I1125 15:37:37.327440 17455 net.cpp:411] inception_4d/1x1 -> inception_4d/1x1
I1125 15:37:37.328873 17455 net.cpp:150] Setting up inception_4d/1x1
I1125 15:37:37.328887 17455 net.cpp:157] Top shape: 64 112 14 14 (1404928)
I1125 15:37:37.328891 17455 net.cpp:165] Memory required for data: 2973489432
I1125 15:37:37.328897 17455 layer_factory.hpp:76] Creating layer inception_4d/relu_1x1
I1125 15:37:37.328903 17455 net.cpp:106] Creating Layer inception_4d/relu_1x1
I1125 15:37:37.328907 17455 net.cpp:454] inception_4d/relu_1x1 <- inception_4d/1x1
I1125 15:37:37.328914 17455 net.cpp:397] inception_4d/relu_1x1 -> inception_4d/1x1 (in-place)
I1125 15:37:37.329087 17455 net.cpp:150] Setting up inception_4d/relu_1x1
I1125 15:37:37.329097 17455 net.cpp:157] Top shape: 64 112 14 14 (1404928)
I1125 15:37:37.329102 17455 net.cpp:165] Memory required for data: 2979109144
I1125 15:37:37.329104 17455 layer_factory.hpp:76] Creating layer inception_4d/3x3_reduce
I1125 15:37:37.329113 17455 net.cpp:106] Creating Layer inception_4d/3x3_reduce
I1125 15:37:37.329118 17455 net.cpp:454] inception_4d/3x3_reduce <- inception_4c/output_inception_4c/output_0_split_1
I1125 15:37:37.329124 17455 net.cpp:411] inception_4d/3x3_reduce -> inception_4d/3x3_reduce
I1125 15:37:37.330708 17455 net.cpp:150] Setting up inception_4d/3x3_reduce
I1125 15:37:37.330721 17455 net.cpp:157] Top shape: 64 144 14 14 (1806336)
I1125 15:37:37.330724 17455 net.cpp:165] Memory required for data: 2986334488
I1125 15:37:37.330731 17455 layer_factory.hpp:76] Creating layer inception_4d/relu_3x3_reduce
I1125 15:37:37.330739 17455 net.cpp:106] Creating Layer inception_4d/relu_3x3_reduce
I1125 15:37:37.330742 17455 net.cpp:454] inception_4d/relu_3x3_reduce <- inception_4d/3x3_reduce
I1125 15:37:37.330749 17455 net.cpp:397] inception_4d/relu_3x3_reduce -> inception_4d/3x3_reduce (in-place)
I1125 15:37:37.331089 17455 net.cpp:150] Setting up inception_4d/relu_3x3_reduce
I1125 15:37:37.331104 17455 net.cpp:157] Top shape: 64 144 14 14 (1806336)
I1125 15:37:37.331106 17455 net.cpp:165] Memory required for data: 2993559832
I1125 15:37:37.331110 17455 layer_factory.hpp:76] Creating layer inception_4d/3x3
I1125 15:37:37.331121 17455 net.cpp:106] Creating Layer inception_4d/3x3
I1125 15:37:37.331126 17455 net.cpp:454] inception_4d/3x3 <- inception_4d/3x3_reduce
I1125 15:37:37.331132 17455 net.cpp:411] inception_4d/3x3 -> inception_4d/3x3
I1125 15:37:37.334983 17455 net.cpp:150] Setting up inception_4d/3x3
I1125 15:37:37.334998 17455 net.cpp:157] Top shape: 64 288 14 14 (3612672)
I1125 15:37:37.335002 17455 net.cpp:165] Memory required for data: 3008010520
I1125 15:37:37.335008 17455 layer_factory.hpp:76] Creating layer inception_4d/relu_3x3
I1125 15:37:37.335014 17455 net.cpp:106] Creating Layer inception_4d/relu_3x3
I1125 15:37:37.335018 17455 net.cpp:454] inception_4d/relu_3x3 <- inception_4d/3x3
I1125 15:37:37.335023 17455 net.cpp:397] inception_4d/relu_3x3 -> inception_4d/3x3 (in-place)
I1125 15:37:37.335356 17455 net.cpp:150] Setting up inception_4d/relu_3x3
I1125 15:37:37.335371 17455 net.cpp:157] Top shape: 64 288 14 14 (3612672)
I1125 15:37:37.335373 17455 net.cpp:165] Memory required for data: 3022461208
I1125 15:37:37.335377 17455 layer_factory.hpp:76] Creating layer inception_4d/5x5_reduce
I1125 15:37:37.335386 17455 net.cpp:106] Creating Layer inception_4d/5x5_reduce
I1125 15:37:37.335391 17455 net.cpp:454] inception_4d/5x5_reduce <- inception_4c/output_inception_4c/output_0_split_2
I1125 15:37:37.335399 17455 net.cpp:411] inception_4d/5x5_reduce -> inception_4d/5x5_reduce
I1125 15:37:37.336616 17455 net.cpp:150] Setting up inception_4d/5x5_reduce
I1125 15:37:37.336630 17455 net.cpp:157] Top shape: 64 32 14 14 (401408)
I1125 15:37:37.336634 17455 net.cpp:165] Memory required for data: 3024066840
I1125 15:37:37.336640 17455 layer_factory.hpp:76] Creating layer inception_4d/relu_5x5_reduce
I1125 15:37:37.336647 17455 net.cpp:106] Creating Layer inception_4d/relu_5x5_reduce
I1125 15:37:37.336652 17455 net.cpp:454] inception_4d/relu_5x5_reduce <- inception_4d/5x5_reduce
I1125 15:37:37.336658 17455 net.cpp:397] inception_4d/relu_5x5_reduce -> inception_4d/5x5_reduce (in-place)
I1125 15:37:37.336828 17455 net.cpp:150] Setting up inception_4d/relu_5x5_reduce
I1125 15:37:37.336839 17455 net.cpp:157] Top shape: 64 32 14 14 (401408)
I1125 15:37:37.336843 17455 net.cpp:165] Memory required for data: 3025672472
I1125 15:37:37.336846 17455 layer_factory.hpp:76] Creating layer inception_4d/5x5
I1125 15:37:37.336854 17455 net.cpp:106] Creating Layer inception_4d/5x5
I1125 15:37:37.336858 17455 net.cpp:454] inception_4d/5x5 <- inception_4d/5x5_reduce
I1125 15:37:37.336864 17455 net.cpp:411] inception_4d/5x5 -> inception_4d/5x5
I1125 15:37:37.338438 17455 net.cpp:150] Setting up inception_4d/5x5
I1125 15:37:37.338452 17455 net.cpp:157] Top shape: 64 64 14 14 (802816)
I1125 15:37:37.338455 17455 net.cpp:165] Memory required for data: 3028883736
I1125 15:37:37.338461 17455 layer_factory.hpp:76] Creating layer inception_4d/relu_5x5
I1125 15:37:37.338467 17455 net.cpp:106] Creating Layer inception_4d/relu_5x5
I1125 15:37:37.338471 17455 net.cpp:454] inception_4d/relu_5x5 <- inception_4d/5x5
I1125 15:37:37.338477 17455 net.cpp:397] inception_4d/relu_5x5 -> inception_4d/5x5 (in-place)
I1125 15:37:37.338810 17455 net.cpp:150] Setting up inception_4d/relu_5x5
I1125 15:37:37.338824 17455 net.cpp:157] Top shape: 64 64 14 14 (802816)
I1125 15:37:37.338827 17455 net.cpp:165] Memory required for data: 3032095000
I1125 15:37:37.338830 17455 layer_factory.hpp:76] Creating layer inception_4d/pool
I1125 15:37:37.338837 17455 net.cpp:106] Creating Layer inception_4d/pool
I1125 15:37:37.338841 17455 net.cpp:454] inception_4d/pool <- inception_4c/output_inception_4c/output_0_split_3
I1125 15:37:37.338848 17455 net.cpp:411] inception_4d/pool -> inception_4d/pool
I1125 15:37:37.339066 17455 net.cpp:150] Setting up inception_4d/pool
I1125 15:37:37.339076 17455 net.cpp:157] Top shape: 64 512 14 14 (6422528)
I1125 15:37:37.339081 17455 net.cpp:165] Memory required for data: 3057785112
I1125 15:37:37.339084 17455 layer_factory.hpp:76] Creating layer inception_4d/pool_proj
I1125 15:37:37.339092 17455 net.cpp:106] Creating Layer inception_4d/pool_proj
I1125 15:37:37.339095 17455 net.cpp:454] inception_4d/pool_proj <- inception_4d/pool
I1125 15:37:37.339102 17455 net.cpp:411] inception_4d/pool_proj -> inception_4d/pool_proj
I1125 15:37:37.340409 17455 net.cpp:150] Setting up inception_4d/pool_proj
I1125 15:37:37.340422 17455 net.cpp:157] Top shape: 64 64 14 14 (802816)
I1125 15:37:37.340425 17455 net.cpp:165] Memory required for data: 3060996376
I1125 15:37:37.340431 17455 layer_factory.hpp:76] Creating layer inception_4d/relu_pool_proj
I1125 15:37:37.340440 17455 net.cpp:106] Creating Layer inception_4d/relu_pool_proj
I1125 15:37:37.340445 17455 net.cpp:454] inception_4d/relu_pool_proj <- inception_4d/pool_proj
I1125 15:37:37.340451 17455 net.cpp:397] inception_4d/relu_pool_proj -> inception_4d/pool_proj (in-place)
I1125 15:37:37.340636 17455 net.cpp:150] Setting up inception_4d/relu_pool_proj
I1125 15:37:37.340646 17455 net.cpp:157] Top shape: 64 64 14 14 (802816)
I1125 15:37:37.340649 17455 net.cpp:165] Memory required for data: 3064207640
I1125 15:37:37.340652 17455 layer_factory.hpp:76] Creating layer inception_4d/output
I1125 15:37:37.340658 17455 net.cpp:106] Creating Layer inception_4d/output
I1125 15:37:37.340662 17455 net.cpp:454] inception_4d/output <- inception_4d/1x1
I1125 15:37:37.340667 17455 net.cpp:454] inception_4d/output <- inception_4d/3x3
I1125 15:37:37.340672 17455 net.cpp:454] inception_4d/output <- inception_4d/5x5
I1125 15:37:37.340674 17455 net.cpp:454] inception_4d/output <- inception_4d/pool_proj
I1125 15:37:37.340680 17455 net.cpp:411] inception_4d/output -> inception_4d/output
I1125 15:37:37.340716 17455 net.cpp:150] Setting up inception_4d/output
I1125 15:37:37.340724 17455 net.cpp:157] Top shape: 64 528 14 14 (6623232)
I1125 15:37:37.340728 17455 net.cpp:165] Memory required for data: 3090700568
I1125 15:37:37.340730 17455 layer_factory.hpp:76] Creating layer inception_4d/output_inception_4d/output_0_split
I1125 15:37:37.340735 17455 net.cpp:106] Creating Layer inception_4d/output_inception_4d/output_0_split
I1125 15:37:37.340739 17455 net.cpp:454] inception_4d/output_inception_4d/output_0_split <- inception_4d/output
I1125 15:37:37.340744 17455 net.cpp:411] inception_4d/output_inception_4d/output_0_split -> inception_4d/output_inception_4d/output_0_split_0
I1125 15:37:37.340750 17455 net.cpp:411] inception_4d/output_inception_4d/output_0_split -> inception_4d/output_inception_4d/output_0_split_1
I1125 15:37:37.340755 17455 net.cpp:411] inception_4d/output_inception_4d/output_0_split -> inception_4d/output_inception_4d/output_0_split_2
I1125 15:37:37.340762 17455 net.cpp:411] inception_4d/output_inception_4d/output_0_split -> inception_4d/output_inception_4d/output_0_split_3
I1125 15:37:37.340767 17455 net.cpp:411] inception_4d/output_inception_4d/output_0_split -> inception_4d/output_inception_4d/output_0_split_4
I1125 15:37:37.340853 17455 net.cpp:150] Setting up inception_4d/output_inception_4d/output_0_split
I1125 15:37:37.340862 17455 net.cpp:157] Top shape: 64 528 14 14 (6623232)
I1125 15:37:37.340864 17455 net.cpp:157] Top shape: 64 528 14 14 (6623232)
I1125 15:37:37.340868 17455 net.cpp:157] Top shape: 64 528 14 14 (6623232)
I1125 15:37:37.340872 17455 net.cpp:157] Top shape: 64 528 14 14 (6623232)
I1125 15:37:37.340875 17455 net.cpp:157] Top shape: 64 528 14 14 (6623232)
I1125 15:37:37.340878 17455 net.cpp:165] Memory required for data: 3223165208
I1125 15:37:37.340880 17455 layer_factory.hpp:76] Creating layer loss2/ave_pool
I1125 15:37:37.340888 17455 net.cpp:106] Creating Layer loss2/ave_pool
I1125 15:37:37.340890 17455 net.cpp:454] loss2/ave_pool <- inception_4d/output_inception_4d/output_0_split_0
I1125 15:37:37.340895 17455 net.cpp:411] loss2/ave_pool -> loss2/ave_pool
I1125 15:37:37.341238 17455 net.cpp:150] Setting up loss2/ave_pool
I1125 15:37:37.341250 17455 net.cpp:157] Top shape: 64 528 4 4 (540672)
I1125 15:37:37.341253 17455 net.cpp:165] Memory required for data: 3225327896
I1125 15:37:37.341256 17455 layer_factory.hpp:76] Creating layer loss2/conv
I1125 15:37:37.341266 17455 net.cpp:106] Creating Layer loss2/conv
I1125 15:37:37.341270 17455 net.cpp:454] loss2/conv <- loss2/ave_pool
I1125 15:37:37.341275 17455 net.cpp:411] loss2/conv -> loss2/conv
I1125 15:37:37.343260 17455 net.cpp:150] Setting up loss2/conv
I1125 15:37:37.343276 17455 net.cpp:157] Top shape: 64 128 4 4 (131072)
I1125 15:37:37.343279 17455 net.cpp:165] Memory required for data: 3225852184
I1125 15:37:37.343286 17455 layer_factory.hpp:76] Creating layer loss2/relu_conv
I1125 15:37:37.343291 17455 net.cpp:106] Creating Layer loss2/relu_conv
I1125 15:37:37.343296 17455 net.cpp:454] loss2/relu_conv <- loss2/conv
I1125 15:37:37.343302 17455 net.cpp:397] loss2/relu_conv -> loss2/conv (in-place)
I1125 15:37:37.343482 17455 net.cpp:150] Setting up loss2/relu_conv
I1125 15:37:37.343492 17455 net.cpp:157] Top shape: 64 128 4 4 (131072)
I1125 15:37:37.343495 17455 net.cpp:165] Memory required for data: 3226376472
I1125 15:37:37.343499 17455 layer_factory.hpp:76] Creating layer loss2/conv_loss2/relu_conv_0_split
I1125 15:37:37.343507 17455 net.cpp:106] Creating Layer loss2/conv_loss2/relu_conv_0_split
I1125 15:37:37.343513 17455 net.cpp:454] loss2/conv_loss2/relu_conv_0_split <- loss2/conv
I1125 15:37:37.343519 17455 net.cpp:411] loss2/conv_loss2/relu_conv_0_split -> loss2/conv_loss2/relu_conv_0_split_0
I1125 15:37:37.343525 17455 net.cpp:411] loss2/conv_loss2/relu_conv_0_split -> loss2/conv_loss2/relu_conv_0_split_1
I1125 15:37:37.343531 17455 net.cpp:411] loss2/conv_loss2/relu_conv_0_split -> loss2/conv_loss2/relu_conv_0_split_2
I1125 15:37:37.343538 17455 net.cpp:411] loss2/conv_loss2/relu_conv_0_split -> loss2/conv_loss2/relu_conv_0_split_3
I1125 15:37:37.343544 17455 net.cpp:411] loss2/conv_loss2/relu_conv_0_split -> loss2/conv_loss2/relu_conv_0_split_4
I1125 15:37:37.343549 17455 net.cpp:411] loss2/conv_loss2/relu_conv_0_split -> loss2/conv_loss2/relu_conv_0_split_5
I1125 15:37:37.343653 17455 net.cpp:150] Setting up loss2/conv_loss2/relu_conv_0_split
I1125 15:37:37.343662 17455 net.cpp:157] Top shape: 64 128 4 4 (131072)
I1125 15:37:37.343665 17455 net.cpp:157] Top shape: 64 128 4 4 (131072)
I1125 15:37:37.343668 17455 net.cpp:157] Top shape: 64 128 4 4 (131072)
I1125 15:37:37.343672 17455 net.cpp:157] Top shape: 64 128 4 4 (131072)
I1125 15:37:37.343675 17455 net.cpp:157] Top shape: 64 128 4 4 (131072)
I1125 15:37:37.343679 17455 net.cpp:157] Top shape: 64 128 4 4 (131072)
I1125 15:37:37.343682 17455 net.cpp:165] Memory required for data: 3229522200
I1125 15:37:37.343684 17455 layer_factory.hpp:76] Creating layer loss2/fc_00.category
I1125 15:37:37.343693 17455 net.cpp:106] Creating Layer loss2/fc_00.category
I1125 15:37:37.343696 17455 net.cpp:454] loss2/fc_00.category <- loss2/conv_loss2/relu_conv_0_split_0
I1125 15:37:37.343701 17455 net.cpp:411] loss2/fc_00.category -> loss2/fc_00.category
I1125 15:37:37.351631 17455 net.cpp:150] Setting up loss2/fc_00.category
I1125 15:37:37.351645 17455 net.cpp:157] Top shape: 64 512 (32768)
I1125 15:37:37.351649 17455 net.cpp:165] Memory required for data: 3229653272
I1125 15:37:37.351655 17455 layer_factory.hpp:76] Creating layer loss2/relu_fc_00.category
I1125 15:37:37.351660 17455 net.cpp:106] Creating Layer loss2/relu_fc_00.category
I1125 15:37:37.351665 17455 net.cpp:454] loss2/relu_fc_00.category <- loss2/fc_00.category
I1125 15:37:37.351668 17455 net.cpp:397] loss2/relu_fc_00.category -> loss2/fc_00.category (in-place)
I1125 15:37:37.352000 17455 net.cpp:150] Setting up loss2/relu_fc_00.category
I1125 15:37:37.352013 17455 net.cpp:157] Top shape: 64 512 (32768)
I1125 15:37:37.352017 17455 net.cpp:165] Memory required for data: 3229784344
I1125 15:37:37.352020 17455 layer_factory.hpp:76] Creating layer loss2/drop_fc_00.category
I1125 15:37:37.352027 17455 net.cpp:106] Creating Layer loss2/drop_fc_00.category
I1125 15:37:37.352031 17455 net.cpp:454] loss2/drop_fc_00.category <- loss2/fc_00.category
I1125 15:37:37.352037 17455 net.cpp:397] loss2/drop_fc_00.category -> loss2/fc_00.category (in-place)
I1125 15:37:37.352073 17455 net.cpp:150] Setting up loss2/drop_fc_00.category
I1125 15:37:37.352080 17455 net.cpp:157] Top shape: 64 512 (32768)
I1125 15:37:37.352083 17455 net.cpp:165] Memory required for data: 3229915416
I1125 15:37:37.352087 17455 layer_factory.hpp:76] Creating layer loss2/classifier-00.category
I1125 15:37:37.352092 17455 net.cpp:106] Creating Layer loss2/classifier-00.category
I1125 15:37:37.352095 17455 net.cpp:454] loss2/classifier-00.category <- loss2/fc_00.category
I1125 15:37:37.352102 17455 net.cpp:411] loss2/classifier-00.category -> loss2/classifier-00.category
I1125 15:37:37.352291 17455 net.cpp:150] Setting up loss2/classifier-00.category
I1125 15:37:37.352300 17455 net.cpp:157] Top shape: 64 16 (1024)
I1125 15:37:37.352303 17455 net.cpp:165] Memory required for data: 3229919512
I1125 15:37:37.352308 17455 layer_factory.hpp:76] Creating layer loss2/loss_00.category
I1125 15:37:37.352315 17455 net.cpp:106] Creating Layer loss2/loss_00.category
I1125 15:37:37.352319 17455 net.cpp:454] loss2/loss_00.category <- loss2/classifier-00.category
I1125 15:37:37.352324 17455 net.cpp:454] loss2/loss_00.category <- 00.category_slice_attribute_0_split_1
I1125 15:37:37.352329 17455 net.cpp:411] loss2/loss_00.category -> (automatic)
I1125 15:37:37.352335 17455 layer_factory.hpp:76] Creating layer loss2/loss_00.category
I1125 15:37:37.352623 17455 net.cpp:150] Setting up loss2/loss_00.category
I1125 15:37:37.352637 17455 net.cpp:157] Top shape: (1)
I1125 15:37:37.352639 17455 net.cpp:160]     with loss weight 0.3
I1125 15:37:37.352648 17455 net.cpp:165] Memory required for data: 3229919516
I1125 15:37:37.352651 17455 layer_factory.hpp:76] Creating layer loss2/fc_02.collar_shape
I1125 15:37:37.352658 17455 net.cpp:106] Creating Layer loss2/fc_02.collar_shape
I1125 15:37:37.352663 17455 net.cpp:454] loss2/fc_02.collar_shape <- loss2/conv_loss2/relu_conv_0_split_1
I1125 15:37:37.352669 17455 net.cpp:411] loss2/fc_02.collar_shape -> loss2/fc_02.collar_shape
I1125 15:37:37.360704 17455 net.cpp:150] Setting up loss2/fc_02.collar_shape
I1125 15:37:37.360718 17455 net.cpp:157] Top shape: 64 512 (32768)
I1125 15:37:37.360721 17455 net.cpp:165] Memory required for data: 3230050588
I1125 15:37:37.360728 17455 layer_factory.hpp:76] Creating layer loss2/relu_fc_02.collar_shape
I1125 15:37:37.360735 17455 net.cpp:106] Creating Layer loss2/relu_fc_02.collar_shape
I1125 15:37:37.360739 17455 net.cpp:454] loss2/relu_fc_02.collar_shape <- loss2/fc_02.collar_shape
I1125 15:37:37.360746 17455 net.cpp:397] loss2/relu_fc_02.collar_shape -> loss2/fc_02.collar_shape (in-place)
I1125 15:37:37.361083 17455 net.cpp:150] Setting up loss2/relu_fc_02.collar_shape
I1125 15:37:37.361096 17455 net.cpp:157] Top shape: 64 512 (32768)
I1125 15:37:37.361100 17455 net.cpp:165] Memory required for data: 3230181660
I1125 15:37:37.361104 17455 layer_factory.hpp:76] Creating layer loss2/drop_fc_02.collar_shape
I1125 15:37:37.361111 17455 net.cpp:106] Creating Layer loss2/drop_fc_02.collar_shape
I1125 15:37:37.361115 17455 net.cpp:454] loss2/drop_fc_02.collar_shape <- loss2/fc_02.collar_shape
I1125 15:37:37.361120 17455 net.cpp:397] loss2/drop_fc_02.collar_shape -> loss2/fc_02.collar_shape (in-place)
I1125 15:37:37.361160 17455 net.cpp:150] Setting up loss2/drop_fc_02.collar_shape
I1125 15:37:37.361166 17455 net.cpp:157] Top shape: 64 512 (32768)
I1125 15:37:37.361168 17455 net.cpp:165] Memory required for data: 3230312732
I1125 15:37:37.361171 17455 layer_factory.hpp:76] Creating layer loss2/classifier-02.collar_shape
I1125 15:37:37.361179 17455 net.cpp:106] Creating Layer loss2/classifier-02.collar_shape
I1125 15:37:37.361183 17455 net.cpp:454] loss2/classifier-02.collar_shape <- loss2/fc_02.collar_shape
I1125 15:37:37.361188 17455 net.cpp:411] loss2/classifier-02.collar_shape -> loss2/classifier-02.collar_shape
I1125 15:37:37.361368 17455 net.cpp:150] Setting up loss2/classifier-02.collar_shape
I1125 15:37:37.361377 17455 net.cpp:157] Top shape: 64 13 (832)
I1125 15:37:37.361380 17455 net.cpp:165] Memory required for data: 3230316060
I1125 15:37:37.361387 17455 layer_factory.hpp:76] Creating layer loss2/loss_02.collar_shape
I1125 15:37:37.361392 17455 net.cpp:106] Creating Layer loss2/loss_02.collar_shape
I1125 15:37:37.361395 17455 net.cpp:454] loss2/loss_02.collar_shape <- loss2/classifier-02.collar_shape
I1125 15:37:37.361400 17455 net.cpp:454] loss2/loss_02.collar_shape <- 02.collar_shape_slice_attribute_2_split_1
I1125 15:37:37.361407 17455 net.cpp:411] loss2/loss_02.collar_shape -> (automatic)
I1125 15:37:37.361413 17455 layer_factory.hpp:76] Creating layer loss2/loss_02.collar_shape
I1125 15:37:37.361698 17455 net.cpp:150] Setting up loss2/loss_02.collar_shape
I1125 15:37:37.361711 17455 net.cpp:157] Top shape: (1)
I1125 15:37:37.361713 17455 net.cpp:160]     with loss weight 0.3
I1125 15:37:37.361721 17455 net.cpp:165] Memory required for data: 3230316064
I1125 15:37:37.361723 17455 layer_factory.hpp:76] Creating layer loss2/fc_05.pattern
I1125 15:37:37.361732 17455 net.cpp:106] Creating Layer loss2/fc_05.pattern
I1125 15:37:37.361735 17455 net.cpp:454] loss2/fc_05.pattern <- loss2/conv_loss2/relu_conv_0_split_2
I1125 15:37:37.361742 17455 net.cpp:411] loss2/fc_05.pattern -> loss2/fc_05.pattern
I1125 15:37:37.369673 17455 net.cpp:150] Setting up loss2/fc_05.pattern
I1125 15:37:37.369686 17455 net.cpp:157] Top shape: 64 512 (32768)
I1125 15:37:37.369690 17455 net.cpp:165] Memory required for data: 3230447136
I1125 15:37:37.369696 17455 layer_factory.hpp:76] Creating layer loss2/relu_fc_05.pattern
I1125 15:37:37.369702 17455 net.cpp:106] Creating Layer loss2/relu_fc_05.pattern
I1125 15:37:37.369706 17455 net.cpp:454] loss2/relu_fc_05.pattern <- loss2/fc_05.pattern
I1125 15:37:37.369711 17455 net.cpp:397] loss2/relu_fc_05.pattern -> loss2/fc_05.pattern (in-place)
I1125 15:37:37.370059 17455 net.cpp:150] Setting up loss2/relu_fc_05.pattern
I1125 15:37:37.370072 17455 net.cpp:157] Top shape: 64 512 (32768)
I1125 15:37:37.370076 17455 net.cpp:165] Memory required for data: 3230578208
I1125 15:37:37.370079 17455 layer_factory.hpp:76] Creating layer loss2/drop_fc_05.pattern
I1125 15:37:37.370086 17455 net.cpp:106] Creating Layer loss2/drop_fc_05.pattern
I1125 15:37:37.370090 17455 net.cpp:454] loss2/drop_fc_05.pattern <- loss2/fc_05.pattern
I1125 15:37:37.370095 17455 net.cpp:397] loss2/drop_fc_05.pattern -> loss2/fc_05.pattern (in-place)
I1125 15:37:37.370138 17455 net.cpp:150] Setting up loss2/drop_fc_05.pattern
I1125 15:37:37.370144 17455 net.cpp:157] Top shape: 64 512 (32768)
I1125 15:37:37.370146 17455 net.cpp:165] Memory required for data: 3230709280
I1125 15:37:37.370149 17455 layer_factory.hpp:76] Creating layer loss2/classifier-05.pattern
I1125 15:37:37.370158 17455 net.cpp:106] Creating Layer loss2/classifier-05.pattern
I1125 15:37:37.370162 17455 net.cpp:454] loss2/classifier-05.pattern <- loss2/fc_05.pattern
I1125 15:37:37.370167 17455 net.cpp:411] loss2/classifier-05.pattern -> loss2/classifier-05.pattern
I1125 15:37:37.370355 17455 net.cpp:150] Setting up loss2/classifier-05.pattern
I1125 15:37:37.370364 17455 net.cpp:157] Top shape: 64 16 (1024)
I1125 15:37:37.370368 17455 net.cpp:165] Memory required for data: 3230713376
I1125 15:37:37.370373 17455 layer_factory.hpp:76] Creating layer loss2/loss_05.pattern
I1125 15:37:37.370378 17455 net.cpp:106] Creating Layer loss2/loss_05.pattern
I1125 15:37:37.370383 17455 net.cpp:454] loss2/loss_05.pattern <- loss2/classifier-05.pattern
I1125 15:37:37.370388 17455 net.cpp:454] loss2/loss_05.pattern <- 05.pattern_slice_attribute_5_split_1
I1125 15:37:37.370393 17455 net.cpp:411] loss2/loss_05.pattern -> (automatic)
I1125 15:37:37.370399 17455 layer_factory.hpp:76] Creating layer loss2/loss_05.pattern
I1125 15:37:37.370847 17455 net.cpp:150] Setting up loss2/loss_05.pattern
I1125 15:37:37.370862 17455 net.cpp:157] Top shape: (1)
I1125 15:37:37.370865 17455 net.cpp:160]     with loss weight 0.3
I1125 15:37:37.370870 17455 net.cpp:165] Memory required for data: 3230713380
I1125 15:37:37.370874 17455 layer_factory.hpp:76] Creating layer loss2/fc_06.button_shape
I1125 15:37:37.370882 17455 net.cpp:106] Creating Layer loss2/fc_06.button_shape
I1125 15:37:37.370885 17455 net.cpp:454] loss2/fc_06.button_shape <- loss2/conv_loss2/relu_conv_0_split_3
I1125 15:37:37.370893 17455 net.cpp:411] loss2/fc_06.button_shape -> loss2/fc_06.button_shape
I1125 15:37:37.378819 17455 net.cpp:150] Setting up loss2/fc_06.button_shape
I1125 15:37:37.378832 17455 net.cpp:157] Top shape: 64 512 (32768)
I1125 15:37:37.378836 17455 net.cpp:165] Memory required for data: 3230844452
I1125 15:37:37.378842 17455 layer_factory.hpp:76] Creating layer loss2/relu_fc_06.button_shape
I1125 15:37:37.378847 17455 net.cpp:106] Creating Layer loss2/relu_fc_06.button_shape
I1125 15:37:37.378851 17455 net.cpp:454] loss2/relu_fc_06.button_shape <- loss2/fc_06.button_shape
I1125 15:37:37.378857 17455 net.cpp:397] loss2/relu_fc_06.button_shape -> loss2/fc_06.button_shape (in-place)
I1125 15:37:37.379046 17455 net.cpp:150] Setting up loss2/relu_fc_06.button_shape
I1125 15:37:37.379057 17455 net.cpp:157] Top shape: 64 512 (32768)
I1125 15:37:37.379060 17455 net.cpp:165] Memory required for data: 3230975524
I1125 15:37:37.379065 17455 layer_factory.hpp:76] Creating layer loss2/drop_fc_06.button_shape
I1125 15:37:37.379071 17455 net.cpp:106] Creating Layer loss2/drop_fc_06.button_shape
I1125 15:37:37.379076 17455 net.cpp:454] loss2/drop_fc_06.button_shape <- loss2/fc_06.button_shape
I1125 15:37:37.379079 17455 net.cpp:397] loss2/drop_fc_06.button_shape -> loss2/fc_06.button_shape (in-place)
I1125 15:37:37.379115 17455 net.cpp:150] Setting up loss2/drop_fc_06.button_shape
I1125 15:37:37.379127 17455 net.cpp:157] Top shape: 64 512 (32768)
I1125 15:37:37.379130 17455 net.cpp:165] Memory required for data: 3231106596
I1125 15:37:37.379133 17455 layer_factory.hpp:76] Creating layer loss2/classifier-06.button_shape
I1125 15:37:37.379140 17455 net.cpp:106] Creating Layer loss2/classifier-06.button_shape
I1125 15:37:37.379143 17455 net.cpp:454] loss2/classifier-06.button_shape <- loss2/fc_06.button_shape
I1125 15:37:37.379153 17455 net.cpp:411] loss2/classifier-06.button_shape -> loss2/classifier-06.button_shape
I1125 15:37:37.379320 17455 net.cpp:150] Setting up loss2/classifier-06.button_shape
I1125 15:37:37.379328 17455 net.cpp:157] Top shape: 64 9 (576)
I1125 15:37:37.379331 17455 net.cpp:165] Memory required for data: 3231108900
I1125 15:37:37.379338 17455 layer_factory.hpp:76] Creating layer loss2/loss_06.button_shape
I1125 15:37:37.379344 17455 net.cpp:106] Creating Layer loss2/loss_06.button_shape
I1125 15:37:37.379348 17455 net.cpp:454] loss2/loss_06.button_shape <- loss2/classifier-06.button_shape
I1125 15:37:37.379353 17455 net.cpp:454] loss2/loss_06.button_shape <- 06.button_shape_slice_attribute_6_split_1
I1125 15:37:37.379359 17455 net.cpp:411] loss2/loss_06.button_shape -> (automatic)
I1125 15:37:37.379364 17455 layer_factory.hpp:76] Creating layer loss2/loss_06.button_shape
I1125 15:37:37.379813 17455 net.cpp:150] Setting up loss2/loss_06.button_shape
I1125 15:37:37.379827 17455 net.cpp:157] Top shape: (1)
I1125 15:37:37.379830 17455 net.cpp:160]     with loss weight 0.3
I1125 15:37:37.379837 17455 net.cpp:165] Memory required for data: 3231108904
I1125 15:37:37.379840 17455 layer_factory.hpp:76] Creating layer loss2/fc_09.fashion_elements
I1125 15:37:37.379848 17455 net.cpp:106] Creating Layer loss2/fc_09.fashion_elements
I1125 15:37:37.379853 17455 net.cpp:454] loss2/fc_09.fashion_elements <- loss2/conv_loss2/relu_conv_0_split_4
I1125 15:37:37.379860 17455 net.cpp:411] loss2/fc_09.fashion_elements -> loss2/fc_09.fashion_elements
I1125 15:37:37.388155 17455 net.cpp:150] Setting up loss2/fc_09.fashion_elements
I1125 15:37:37.388170 17455 net.cpp:157] Top shape: 64 512 (32768)
I1125 15:37:37.388173 17455 net.cpp:165] Memory required for data: 3231239976
I1125 15:37:37.388180 17455 layer_factory.hpp:76] Creating layer loss2/relu_fc_09.fashion_elements
I1125 15:37:37.388185 17455 net.cpp:106] Creating Layer loss2/relu_fc_09.fashion_elements
I1125 15:37:37.388190 17455 net.cpp:454] loss2/relu_fc_09.fashion_elements <- loss2/fc_09.fashion_elements
I1125 15:37:37.388193 17455 net.cpp:397] loss2/relu_fc_09.fashion_elements -> loss2/fc_09.fashion_elements (in-place)
I1125 15:37:37.388383 17455 net.cpp:150] Setting up loss2/relu_fc_09.fashion_elements
I1125 15:37:37.388394 17455 net.cpp:157] Top shape: 64 512 (32768)
I1125 15:37:37.388398 17455 net.cpp:165] Memory required for data: 3231371048
I1125 15:37:37.388401 17455 layer_factory.hpp:76] Creating layer loss2/drop_fc_09.fashion_elements
I1125 15:37:37.388408 17455 net.cpp:106] Creating Layer loss2/drop_fc_09.fashion_elements
I1125 15:37:37.388412 17455 net.cpp:454] loss2/drop_fc_09.fashion_elements <- loss2/fc_09.fashion_elements
I1125 15:37:37.388417 17455 net.cpp:397] loss2/drop_fc_09.fashion_elements -> loss2/fc_09.fashion_elements (in-place)
I1125 15:37:37.388453 17455 net.cpp:150] Setting up loss2/drop_fc_09.fashion_elements
I1125 15:37:37.388459 17455 net.cpp:157] Top shape: 64 512 (32768)
I1125 15:37:37.388463 17455 net.cpp:165] Memory required for data: 3231502120
I1125 15:37:37.388465 17455 layer_factory.hpp:76] Creating layer loss2/classifier-09.fashion_elements
I1125 15:37:37.388471 17455 net.cpp:106] Creating Layer loss2/classifier-09.fashion_elements
I1125 15:37:37.388474 17455 net.cpp:454] loss2/classifier-09.fashion_elements <- loss2/fc_09.fashion_elements
I1125 15:37:37.388483 17455 net.cpp:411] loss2/classifier-09.fashion_elements -> loss2/classifier-09.fashion_elements
I1125 15:37:37.388670 17455 net.cpp:150] Setting up loss2/classifier-09.fashion_elements
I1125 15:37:37.388679 17455 net.cpp:157] Top shape: 64 15 (960)
I1125 15:37:37.388682 17455 net.cpp:165] Memory required for data: 3231505960
I1125 15:37:37.388687 17455 layer_factory.hpp:76] Creating layer loss2/loss_09.fashion_elements
I1125 15:37:37.388692 17455 net.cpp:106] Creating Layer loss2/loss_09.fashion_elements
I1125 15:37:37.388696 17455 net.cpp:454] loss2/loss_09.fashion_elements <- loss2/classifier-09.fashion_elements
I1125 15:37:37.388701 17455 net.cpp:454] loss2/loss_09.fashion_elements <- 09.fashion_elements_slice_attribute_9_split_1
I1125 15:37:37.388706 17455 net.cpp:411] loss2/loss_09.fashion_elements -> (automatic)
I1125 15:37:37.388711 17455 layer_factory.hpp:76] Creating layer loss2/loss_09.fashion_elements
I1125 15:37:37.389155 17455 net.cpp:150] Setting up loss2/loss_09.fashion_elements
I1125 15:37:37.389169 17455 net.cpp:157] Top shape: (1)
I1125 15:37:37.389173 17455 net.cpp:160]     with loss weight 0.3
I1125 15:37:37.389178 17455 net.cpp:165] Memory required for data: 3231505964
I1125 15:37:37.389181 17455 layer_factory.hpp:76] Creating layer loss2/fc_21.color
I1125 15:37:37.389191 17455 net.cpp:106] Creating Layer loss2/fc_21.color
I1125 15:37:37.389196 17455 net.cpp:454] loss2/fc_21.color <- loss2/conv_loss2/relu_conv_0_split_5
I1125 15:37:37.389202 17455 net.cpp:411] loss2/fc_21.color -> loss2/fc_21.color
I1125 15:37:37.397105 17455 net.cpp:150] Setting up loss2/fc_21.color
I1125 15:37:37.397119 17455 net.cpp:157] Top shape: 64 512 (32768)
I1125 15:37:37.397124 17455 net.cpp:165] Memory required for data: 3231637036
I1125 15:37:37.397130 17455 layer_factory.hpp:76] Creating layer loss2/relu_fc_21.color
I1125 15:37:37.397135 17455 net.cpp:106] Creating Layer loss2/relu_fc_21.color
I1125 15:37:37.397138 17455 net.cpp:454] loss2/relu_fc_21.color <- loss2/fc_21.color
I1125 15:37:37.397145 17455 net.cpp:397] loss2/relu_fc_21.color -> loss2/fc_21.color (in-place)
I1125 15:37:37.397336 17455 net.cpp:150] Setting up loss2/relu_fc_21.color
I1125 15:37:37.397347 17455 net.cpp:157] Top shape: 64 512 (32768)
I1125 15:37:37.397351 17455 net.cpp:165] Memory required for data: 3231768108
I1125 15:37:37.397353 17455 layer_factory.hpp:76] Creating layer loss2/drop_fc_21.color
I1125 15:37:37.397359 17455 net.cpp:106] Creating Layer loss2/drop_fc_21.color
I1125 15:37:37.397363 17455 net.cpp:454] loss2/drop_fc_21.color <- loss2/fc_21.color
I1125 15:37:37.397368 17455 net.cpp:397] loss2/drop_fc_21.color -> loss2/fc_21.color (in-place)
I1125 15:37:37.397409 17455 net.cpp:150] Setting up loss2/drop_fc_21.color
I1125 15:37:37.397418 17455 net.cpp:157] Top shape: 64 512 (32768)
I1125 15:37:37.397420 17455 net.cpp:165] Memory required for data: 3231899180
I1125 15:37:37.397423 17455 layer_factory.hpp:76] Creating layer loss2/classifier-21.color
I1125 15:37:37.397429 17455 net.cpp:106] Creating Layer loss2/classifier-21.color
I1125 15:37:37.397433 17455 net.cpp:454] loss2/classifier-21.color <- loss2/fc_21.color
I1125 15:37:37.397439 17455 net.cpp:411] loss2/classifier-21.color -> loss2/classifier-21.color
I1125 15:37:37.397650 17455 net.cpp:150] Setting up loss2/classifier-21.color
I1125 15:37:37.397660 17455 net.cpp:157] Top shape: 64 21 (1344)
I1125 15:37:37.397662 17455 net.cpp:165] Memory required for data: 3231904556
…
I1125 15:37:37.755529 17455 net.cpp:157] Top shape: 64 144 14 14 (1806336)
I1125 15:37:37.755534 17455 net.cpp:165] Memory required for data: 2986385200
I1125 15:37:37.755542 17455 layer_factory.hpp:76] Creating layer inception_4d/relu_3x3_reduce
I1125 15:37:37.755548 17455 net.cpp:106] Creating Layer inception_4d/relu_3x3_reduce
I1125 15:37:37.755553 17455 net.cpp:454] inception_4d/relu_3x3_reduce <- inception_4d/3x3_reduce
I1125 15:37:37.755558 17455 net.cpp:397] inception_4d/relu_3x3_reduce -> inception_4d/3x3_reduce (in-place)
I1125 15:37:37.755766 17455 net.cpp:150] Setting up inception_4d/relu_3x3_reduce
I1125 15:37:37.755777 17455 net.cpp:157] Top shape: 64 144 14 14 (1806336)
I1125 15:37:37.755780 17455 net.cpp:165] Memory required for data: 2993610544
I1125 15:37:37.755784 17455 layer_factory.hpp:76] Creating layer inception_4d/3x3
I1125 15:37:37.755801 17455 net.cpp:106] Creating Layer inception_4d/3x3
I1125 15:37:37.755806 17455 net.cpp:454] inception_4d/3x3 <- inception_4d/3x3_reduce
I1125 15:37:37.755815 17455 net.cpp:411] inception_4d/3x3 -> inception_4d/3x3
I1125 15:37:37.759974 17455 net.cpp:150] Setting up inception_4d/3x3
I1125 15:37:37.759989 17455 net.cpp:157] Top shape: 64 288 14 14 (3612672)
I1125 15:37:37.759994 17455 net.cpp:165] Memory required for data: 3008061232
I1125 15:37:37.760000 17455 layer_factory.hpp:76] Creating layer inception_4d/relu_3x3
I1125 15:37:37.760009 17455 net.cpp:106] Creating Layer inception_4d/relu_3x3
I1125 15:37:37.760013 17455 net.cpp:454] inception_4d/relu_3x3 <- inception_4d/3x3
I1125 15:37:37.760018 17455 net.cpp:397] inception_4d/relu_3x3 -> inception_4d/3x3 (in-place)
I1125 15:37:37.760395 17455 net.cpp:150] Setting up inception_4d/relu_3x3
I1125 15:37:37.760408 17455 net.cpp:157] Top shape: 64 288 14 14 (3612672)
I1125 15:37:37.760411 17455 net.cpp:165] Memory required for data: 3022511920
I1125 15:37:37.760416 17455 layer_factory.hpp:76] Creating layer inception_4d/5x5_reduce
I1125 15:37:37.760426 17455 net.cpp:106] Creating Layer inception_4d/5x5_reduce
I1125 15:37:37.760431 17455 net.cpp:454] inception_4d/5x5_reduce <- inception_4c/output_inception_4c/output_0_split_2
I1125 15:37:37.760438 17455 net.cpp:411] inception_4d/5x5_reduce -> inception_4d/5x5_reduce
I1125 15:37:37.761610 17455 net.cpp:150] Setting up inception_4d/5x5_reduce
I1125 15:37:37.761623 17455 net.cpp:157] Top shape: 64 32 14 14 (401408)
I1125 15:37:37.761626 17455 net.cpp:165] Memory required for data: 3024117552
I1125 15:37:37.761633 17455 layer_factory.hpp:76] Creating layer inception_4d/relu_5x5_reduce
I1125 15:37:37.761638 17455 net.cpp:106] Creating Layer inception_4d/relu_5x5_reduce
I1125 15:37:37.761643 17455 net.cpp:454] inception_4d/relu_5x5_reduce <- inception_4d/5x5_reduce
I1125 15:37:37.761648 17455 net.cpp:397] inception_4d/relu_5x5_reduce -> inception_4d/5x5_reduce (in-place)
I1125 15:37:37.762037 17455 net.cpp:150] Setting up inception_4d/relu_5x5_reduce
I1125 15:37:37.762051 17455 net.cpp:157] Top shape: 64 32 14 14 (401408)
I1125 15:37:37.762054 17455 net.cpp:165] Memory required for data: 3025723184
I1125 15:37:37.762058 17455 layer_factory.hpp:76] Creating layer inception_4d/5x5
I1125 15:37:37.762068 17455 net.cpp:106] Creating Layer inception_4d/5x5
I1125 15:37:37.762073 17455 net.cpp:454] inception_4d/5x5 <- inception_4d/5x5_reduce
I1125 15:37:37.762079 17455 net.cpp:411] inception_4d/5x5 -> inception_4d/5x5
I1125 15:37:37.763649 17455 net.cpp:150] Setting up inception_4d/5x5
I1125 15:37:37.763664 17455 net.cpp:157] Top shape: 64 64 14 14 (802816)
I1125 15:37:37.763667 17455 net.cpp:165] Memory required for data: 3028934448
I1125 15:37:37.763674 17455 layer_factory.hpp:76] Creating layer inception_4d/relu_5x5
I1125 15:37:37.763680 17455 net.cpp:106] Creating Layer inception_4d/relu_5x5
I1125 15:37:37.763686 17455 net.cpp:454] inception_4d/relu_5x5 <- inception_4d/5x5
I1125 15:37:37.763694 17455 net.cpp:397] inception_4d/relu_5x5 -> inception_4d/5x5 (in-place)
I1125 15:37:37.763907 17455 net.cpp:150] Setting up inception_4d/relu_5x5
I1125 15:37:37.763918 17455 net.cpp:157] Top shape: 64 64 14 14 (802816)
I1125 15:37:37.763921 17455 net.cpp:165] Memory required for data: 3032145712
I1125 15:37:37.763924 17455 layer_factory.hpp:76] Creating layer inception_4d/pool
I1125 15:37:37.763932 17455 net.cpp:106] Creating Layer inception_4d/pool
I1125 15:37:37.763936 17455 net.cpp:454] inception_4d/pool <- inception_4c/output_inception_4c/output_0_split_3
I1125 15:37:37.763942 17455 net.cpp:411] inception_4d/pool -> inception_4d/pool
I1125 15:37:37.764358 17455 net.cpp:150] Setting up inception_4d/pool
I1125 15:37:37.764371 17455 net.cpp:157] Top shape: 64 512 14 14 (6422528)
I1125 15:37:37.764374 17455 net.cpp:165] Memory required for data: 3057835824
I1125 15:37:37.764379 17455 layer_factory.hpp:76] Creating layer inception_4d/pool_proj
I1125 15:37:37.764389 17455 net.cpp:106] Creating Layer inception_4d/pool_proj
I1125 15:37:37.764394 17455 net.cpp:454] inception_4d/pool_proj <- inception_4d/pool
I1125 15:37:37.764400 17455 net.cpp:411] inception_4d/pool_proj -> inception_4d/pool_proj
I1125 15:37:37.765900 17455 net.cpp:150] Setting up inception_4d/pool_proj
I1125 15:37:37.765915 17455 net.cpp:157] Top shape: 64 64 14 14 (802816)
I1125 15:37:37.765918 17455 net.cpp:165] Memory required for data: 3061047088
I1125 15:37:37.765925 17455 layer_factory.hpp:76] Creating layer inception_4d/relu_pool_proj
I1125 15:37:37.765933 17455 net.cpp:106] Creating Layer inception_4d/relu_pool_proj
I1125 15:37:37.765938 17455 net.cpp:454] inception_4d/relu_pool_proj <- inception_4d/pool_proj
I1125 15:37:37.765944 17455 net.cpp:397] inception_4d/relu_pool_proj -> inception_4d/pool_proj (in-place)
I1125 15:37:37.766294 17455 net.cpp:150] Setting up inception_4d/relu_pool_proj
I1125 15:37:37.766305 17455 net.cpp:157] Top shape: 64 64 14 14 (802816)
I1125 15:37:37.766309 17455 net.cpp:165] Memory required for data: 3064258352
I1125 15:37:37.766312 17455 layer_factory.hpp:76] Creating layer inception_4d/output
I1125 15:37:37.766319 17455 net.cpp:106] Creating Layer inception_4d/output
I1125 15:37:37.766322 17455 net.cpp:454] inception_4d/output <- inception_4d/1x1
I1125 15:37:37.766327 17455 net.cpp:454] inception_4d/output <- inception_4d/3x3
I1125 15:37:37.766331 17455 net.cpp:454] inception_4d/output <- inception_4d/5x5
I1125 15:37:37.766335 17455 net.cpp:454] inception_4d/output <- inception_4d/pool_proj
I1125 15:37:37.766340 17455 net.cpp:411] inception_4d/output -> inception_4d/output
I1125 15:37:37.766369 17455 net.cpp:150] Setting up inception_4d/output
I1125 15:37:37.766376 17455 net.cpp:157] Top shape: 64 528 14 14 (6623232)
I1125 15:37:37.766378 17455 net.cpp:165] Memory required for data: 3090751280
I1125 15:37:37.766381 17455 layer_factory.hpp:76] Creating layer inception_4d/output_inception_4d/output_0_split
I1125 15:37:37.766387 17455 net.cpp:106] Creating Layer inception_4d/output_inception_4d/output_0_split
I1125 15:37:37.766391 17455 net.cpp:454] inception_4d/output_inception_4d/output_0_split <- inception_4d/output
I1125 15:37:37.766396 17455 net.cpp:411] inception_4d/output_inception_4d/output_0_split -> inception_4d/output_inception_4d/output_0_split_0
I1125 15:37:37.766402 17455 net.cpp:411] inception_4d/output_inception_4d/output_0_split -> inception_4d/output_inception_4d/output_0_split_1
I1125 15:37:37.766407 17455 net.cpp:411] inception_4d/output_inception_4d/output_0_split -> inception_4d/output_inception_4d/output_0_split_2
I1125 15:37:37.766413 17455 net.cpp:411] inception_4d/output_inception_4d/output_0_split -> inception_4d/output_inception_4d/output_0_split_3
I1125 15:37:37.766418 17455 net.cpp:411] inception_4d/output_inception_4d/output_0_split -> inception_4d/output_inception_4d/output_0_split_4
I1125 15:37:37.766481 17455 net.cpp:150] Setting up inception_4d/output_inception_4d/output_0_split
I1125 15:37:37.766486 17455 net.cpp:157] Top shape: 64 528 14 14 (6623232)
I1125 15:37:37.766490 17455 net.cpp:157] Top shape: 64 528 14 14 (6623232)
I1125 15:37:37.766494 17455 net.cpp:157] Top shape: 64 528 14 14 (6623232)
I1125 15:37:37.766496 17455 net.cpp:157] Top shape: 64 528 14 14 (6623232)
I1125 15:37:37.766500 17455 net.cpp:157] Top shape: 64 528 14 14 (6623232)
I1125 15:37:37.766504 17455 net.cpp:165] Memory required for data: 3223215920
I1125 15:37:37.766506 17455 layer_factory.hpp:76] Creating layer loss2/ave_pool
I1125 15:37:37.766511 17455 net.cpp:106] Creating Layer loss2/ave_pool
I1125 15:37:37.766515 17455 net.cpp:454] loss2/ave_pool <- inception_4d/output_inception_4d/output_0_split_0
I1125 15:37:37.766521 17455 net.cpp:411] loss2/ave_pool -> loss2/ave_pool
I1125 15:37:37.766921 17455 net.cpp:150] Setting up loss2/ave_pool
I1125 15:37:37.766934 17455 net.cpp:157] Top shape: 64 528 4 4 (540672)
I1125 15:37:37.766938 17455 net.cpp:165] Memory required for data: 3225378608
I1125 15:37:37.766942 17455 layer_factory.hpp:76] Creating layer loss2/conv
I1125 15:37:37.766949 17455 net.cpp:106] Creating Layer loss2/conv
I1125 15:37:37.766954 17455 net.cpp:454] loss2/conv <- loss2/ave_pool
I1125 15:37:37.766960 17455 net.cpp:411] loss2/conv -> loss2/conv
I1125 15:37:37.768877 17455 net.cpp:150] Setting up loss2/conv
I1125 15:37:37.768892 17455 net.cpp:157] Top shape: 64 128 4 4 (131072)
I1125 15:37:37.768895 17455 net.cpp:165] Memory required for data: 3225902896
I1125 15:37:37.768901 17455 layer_factory.hpp:76] Creating layer loss2/relu_conv
I1125 15:37:37.768909 17455 net.cpp:106] Creating Layer loss2/relu_conv
I1125 15:37:37.768914 17455 net.cpp:454] loss2/relu_conv <- loss2/conv
I1125 15:37:37.768919 17455 net.cpp:397] loss2/relu_conv -> loss2/conv (in-place)
I1125 15:37:37.769342 17455 net.cpp:150] Setting up loss2/relu_conv
I1125 15:37:37.769356 17455 net.cpp:157] Top shape: 64 128 4 4 (131072)
I1125 15:37:37.769359 17455 net.cpp:165] Memory required for data: 3226427184
I1125 15:37:37.769363 17455 layer_factory.hpp:76] Creating layer loss2/conv_loss2/relu_conv_0_split
I1125 15:37:37.769371 17455 net.cpp:106] Creating Layer loss2/conv_loss2/relu_conv_0_split
I1125 15:37:37.769376 17455 net.cpp:454] loss2/conv_loss2/relu_conv_0_split <- loss2/conv
I1125 15:37:37.769381 17455 net.cpp:411] loss2/conv_loss2/relu_conv_0_split -> loss2/conv_loss2/relu_conv_0_split_0
I1125 15:37:37.769389 17455 net.cpp:411] loss2/conv_loss2/relu_conv_0_split -> loss2/conv_loss2/relu_conv_0_split_1
I1125 15:37:37.769397 17455 net.cpp:411] loss2/conv_loss2/relu_conv_0_split -> loss2/conv_loss2/relu_conv_0_split_2
I1125 15:37:37.769402 17455 net.cpp:411] loss2/conv_loss2/relu_conv_0_split -> loss2/conv_loss2/relu_conv_0_split_3
I1125 15:37:37.769407 17455 net.cpp:411] loss2/conv_loss2/relu_conv_0_split -> loss2/conv_loss2/relu_conv_0_split_4
I1125 15:37:37.769412 17455 net.cpp:411] loss2/conv_loss2/relu_conv_0_split -> loss2/conv_loss2/relu_conv_0_split_5
I1125 15:37:37.769501 17455 net.cpp:150] Setting up loss2/conv_loss2/relu_conv_0_split
I1125 15:37:37.769508 17455 net.cpp:157] Top shape: 64 128 4 4 (131072)
I1125 15:37:37.769512 17455 net.cpp:157] Top shape: 64 128 4 4 (131072)
I1125 15:37:37.769516 17455 net.cpp:157] Top shape: 64 128 4 4 (131072)
I1125 15:37:37.769520 17455 net.cpp:157] Top shape: 64 128 4 4 (131072)
I1125 15:37:37.769522 17455 net.cpp:157] Top shape: 64 128 4 4 (131072)
I1125 15:37:37.769526 17455 net.cpp:157] Top shape: 64 128 4 4 (131072)
I1125 15:37:37.769528 17455 net.cpp:165] Memory required for data: 3229572912
I1125 15:37:37.769532 17455 layer_factory.hpp:76] Creating layer loss2/fc_00.category
I1125 15:37:37.769541 17455 net.cpp:106] Creating Layer loss2/fc_00.category
I1125 15:37:37.769543 17455 net.cpp:454] loss2/fc_00.category <- loss2/conv_loss2/relu_conv_0_split_0
I1125 15:37:37.769549 17455 net.cpp:411] loss2/fc_00.category -> loss2/fc_00.category
I1125 15:37:37.777523 17455 net.cpp:150] Setting up loss2/fc_00.category
I1125 15:37:37.777536 17455 net.cpp:157] Top shape: 64 512 (32768)
I1125 15:37:37.777540 17455 net.cpp:165] Memory required for data: 3229703984
I1125 15:37:37.777546 17455 layer_factory.hpp:76] Creating layer loss2/relu_fc_00.category
I1125 15:37:37.777552 17455 net.cpp:106] Creating Layer loss2/relu_fc_00.category
I1125 15:37:37.777556 17455 net.cpp:454] loss2/relu_fc_00.category <- loss2/fc_00.category
I1125 15:37:37.777561 17455 net.cpp:397] loss2/relu_fc_00.category -> loss2/fc_00.category (in-place)
I1125 15:37:37.780947 17455 net.cpp:150] Setting up loss2/relu_fc_00.category
I1125 15:37:37.780961 17455 net.cpp:157] Top shape: 64 512 (32768)
I1125 15:37:37.780964 17455 net.cpp:165] Memory required for data: 3229835056
I1125 15:37:37.780967 17455 layer_factory.hpp:76] Creating layer loss2/drop_fc_00.category
I1125 15:37:37.780977 17455 net.cpp:106] Creating Layer loss2/drop_fc_00.category
I1125 15:37:37.780982 17455 net.cpp:454] loss2/drop_fc_00.category <- loss2/fc_00.category
I1125 15:37:37.780987 17455 net.cpp:397] loss2/drop_fc_00.category -> loss2/fc_00.category (in-place)
I1125 15:37:37.781018 17455 net.cpp:150] Setting up loss2/drop_fc_00.category
I1125 15:37:37.781023 17455 net.cpp:157] Top shape: 64 512 (32768)
I1125 15:37:37.781025 17455 net.cpp:165] Memory required for data: 3229966128
I1125 15:37:37.781028 17455 layer_factory.hpp:76] Creating layer loss2/classifier-00.category
I1125 15:37:37.781038 17455 net.cpp:106] Creating Layer loss2/classifier-00.category
I1125 15:37:37.781040 17455 net.cpp:454] loss2/classifier-00.category <- loss2/fc_00.category
I1125 15:37:37.781047 17455 net.cpp:411] loss2/classifier-00.category -> loss2/classifier-00.category
I1125 15:37:37.781221 17455 net.cpp:150] Setting up loss2/classifier-00.category
I1125 15:37:37.781230 17455 net.cpp:157] Top shape: 64 16 (1024)
I1125 15:37:37.781234 17455 net.cpp:165] Memory required for data: 3229970224
I1125 15:37:37.781239 17455 layer_factory.hpp:76] Creating layer loss2/classifier-00.category_loss2/classifier-00.category_0_split
I1125 15:37:37.781244 17455 net.cpp:106] Creating Layer loss2/classifier-00.category_loss2/classifier-00.category_0_split
I1125 15:37:37.781249 17455 net.cpp:454] loss2/classifier-00.category_loss2/classifier-00.category_0_split <- loss2/classifier-00.category
I1125 15:37:37.781254 17455 net.cpp:411] loss2/classifier-00.category_loss2/classifier-00.category_0_split -> loss2/classifier-00.category_loss2/classifier-00.category_0_split_0
I1125 15:37:37.781260 17455 net.cpp:411] loss2/classifier-00.category_loss2/classifier-00.category_0_split -> loss2/classifier-00.category_loss2/classifier-00.category_0_split_1
I1125 15:37:37.781296 17455 net.cpp:150] Setting up loss2/classifier-00.category_loss2/classifier-00.category_0_split
I1125 15:37:37.781306 17455 net.cpp:157] Top shape: 64 16 (1024)
I1125 15:37:37.781308 17455 net.cpp:157] Top shape: 64 16 (1024)
I1125 15:37:37.781311 17455 net.cpp:165] Memory required for data: 3229978416
I1125 15:37:37.781314 17455 layer_factory.hpp:76] Creating layer loss2/loss_00.category
I1125 15:37:37.781319 17455 net.cpp:106] Creating Layer loss2/loss_00.category
I1125 15:37:37.781323 17455 net.cpp:454] loss2/loss_00.category <- loss2/classifier-00.category_loss2/classifier-00.category_0_split_0
I1125 15:37:37.781328 17455 net.cpp:454] loss2/loss_00.category <- 00.category_slice_attribute_0_split_2
…
I1125 15:37:37.829284 17455 net.cpp:150] Setting up loss2_21.color/top-1
I1125 15:37:37.829288 17455 net.cpp:157] Top shape: (1)
I1125 15:37:37.829291 17455 net.cpp:165] Memory required for data: 3232001376
I1125 15:37:37.829294 17455 layer_factory.hpp:76] Creating layer inception_4e/1x1
I1125 15:37:37.829304 17455 net.cpp:106] Creating Layer inception_4e/1x1
I1125 15:37:37.829308 17455 net.cpp:454] inception_4e/1x1 <- inception_4d/output_inception_4d/output_0_split_1
I1125 15:37:37.829315 17455 net.cpp:411] inception_4e/1x1 -> inception_4e/1x1
I1125 15:37:37.831482 17455 net.cpp:150] Setting up inception_4e/1x1
I1125 15:37:37.831497 17455 net.cpp:157] Top shape: 64 256 14 14 (3211264)
I1125 15:37:37.831502 17455 net.cpp:165] Memory required for data: 3244846432
I1125 15:37:37.831509 17455 layer_factory.hpp:76] Creating layer inception_4e/relu_1x1
I1125 15:37:37.831516 17455 net.cpp:106] Creating Layer inception_4e/relu_1x1
I1125 15:37:37.831521 17455 net.cpp:454] inception_4e/relu_1x1 <- inception_4e/1x1
I1125 15:37:37.831526 17455 net.cpp:397] inception_4e/relu_1x1 -> inception_4e/1x1 (in-place)
I1125 15:37:37.831917 17455 net.cpp:150] Setting up inception_4e/relu_1x1
I1125 15:37:37.831930 17455 net.cpp:157] Top shape: 64 256 14 14 (3211264)
I1125 15:37:37.831933 17455 net.cpp:165] Memory required for data: 3257691488
I1125 15:37:37.831938 17455 layer_factory.hpp:76] Creating layer inception_4e/3x3_reduce
I1125 15:37:37.831948 17455 net.cpp:106] Creating Layer inception_4e/3x3_reduce
I1125 15:37:37.831953 17455 net.cpp:454] inception_4e/3x3_reduce <- inception_4d/output_inception_4d/output_0_split_2
I1125 15:37:37.831959 17455 net.cpp:411] inception_4e/3x3_reduce -> inception_4e/3x3_reduce
I1125 15:37:37.834059 17455 net.cpp:150] Setting up inception_4e/3x3_reduce
I1125 15:37:37.834075 17455 net.cpp:157] Top shape: 64 160 14 14 (2007040)
I1125 15:37:37.834079 17455 net.cpp:165] Memory required for data: 3265719648
I1125 15:37:37.834086 17455 layer_factory.hpp:76] Creating layer inception_4e/relu_3x3_reduce
I1125 15:37:37.834092 17455 net.cpp:106] Creating Layer inception_4e/relu_3x3_reduce
I1125 15:37:37.834097 17455 net.cpp:454] inception_4e/relu_3x3_reduce <- inception_4e/3x3_reduce
I1125 15:37:37.834102 17455 net.cpp:397] inception_4e/relu_3x3_reduce -> inception_4e/3x3_reduce (in-place)
I1125 15:37:37.834489 17455 net.cpp:150] Setting up inception_4e/relu_3x3_reduce
I1125 15:37:37.834502 17455 net.cpp:157] Top shape: 64 160 14 14 (2007040)
I1125 15:37:37.834506 17455 net.cpp:165] Memory required for data: 3273747808
I1125 15:37:37.834509 17455 layer_factory.hpp:76] Creating layer inception_4e/3x3
I1125 15:37:37.834519 17455 net.cpp:106] Creating Layer inception_4e/3x3
I1125 15:37:37.834523 17455 net.cpp:454] inception_4e/3x3 <- inception_4e/3x3_reduce
I1125 15:37:37.834532 17455 net.cpp:411] inception_4e/3x3 -> inception_4e/3x3
I1125 15:37:37.839377 17455 net.cpp:150] Setting up inception_4e/3x3
I1125 15:37:37.839393 17455 net.cpp:157] Top shape: 64 320 14 14 (4014080)
I1125 15:37:37.839396 17455 net.cpp:165] Memory required for data: 3289804128
I1125 15:37:37.839403 17455 layer_factory.hpp:76] Creating layer inception_4e/relu_3x3
I1125 15:37:37.839409 17455 net.cpp:106] Creating Layer inception_4e/relu_3x3
I1125 15:37:37.839414 17455 net.cpp:454] inception_4e/relu_3x3 <- inception_4e/3x3
I1125 15:37:37.839419 17455 net.cpp:397] inception_4e/relu_3x3 -> inception_4e/3x3 (in-place)
I1125 15:37:37.839648 17455 net.cpp:150] Setting up inception_4e/relu_3x3
I1125 15:37:37.839661 17455 net.cpp:157] Top shape: 64 320 14 14 (4014080)
I1125 15:37:37.839664 17455 net.cpp:165] Memory required for data: 3305860448
I1125 15:37:37.839668 17455 layer_factory.hpp:76] Creating layer inception_4e/5x5_reduce
I1125 15:37:37.839679 17455 net.cpp:106] Creating Layer inception_4e/5x5_reduce
I1125 15:37:37.839684 17455 net.cpp:454] inception_4e/5x5_reduce <- inception_4d/output_inception_4d/output_0_split_3
I1125 15:37:37.839691 17455 net.cpp:411] inception_4e/5x5_reduce -> inception_4e/5x5_reduce
I1125 15:37:37.841112 17455 net.cpp:150] Setting up inception_4e/5x5_reduce
I1125 15:37:37.841128 17455 net.cpp:157] Top shape: 64 32 14 14 (401408)
I1125 15:37:37.841132 17455 net.cpp:165] Memory required for data: 3307466080
I1125 15:37:37.841138 17455 layer_factory.hpp:76] Creating layer inception_4e/relu_5x5_reduce
I1125 15:37:37.841145 17455 net.cpp:106] Creating Layer inception_4e/relu_5x5_reduce
I1125 15:37:37.841150 17455 net.cpp:454] inception_4e/relu_5x5_reduce <- inception_4e/5x5_reduce
I1125 15:37:37.841156 17455 net.cpp:397] inception_4e/relu_5x5_reduce -> inception_4e/5x5_reduce (in-place)
I1125 15:37:37.841542 17455 net.cpp:150] Setting up inception_4e/relu_5x5_reduce
I1125 15:37:37.841557 17455 net.cpp:157] Top shape: 64 32 14 14 (401408)
I1125 15:37:37.841562 17455 net.cpp:165] Memory required for data: 3309071712
I1125 15:37:37.841564 17455 layer_factory.hpp:76] Creating layer inception_4e/5x5
I1125 15:37:37.841572 17455 net.cpp:106] Creating Layer inception_4e/5x5
I1125 15:37:37.841578 17455 net.cpp:454] inception_4e/5x5 <- inception_4e/5x5_reduce
I1125 15:37:37.841584 17455 net.cpp:411] inception_4e/5x5 -> inception_4e/5x5
I1125 15:37:37.843338 17455 net.cpp:150] Setting up inception_4e/5x5
I1125 15:37:37.843353 17455 net.cpp:157] Top shape: 64 128 14 14 (1605632)
I1125 15:37:37.843356 17455 net.cpp:165] Memory required for data: 3315494240
I1125 15:37:37.843363 17455 layer_factory.hpp:76] Creating layer inception_4e/relu_5x5
I1125 15:37:37.843369 17455 net.cpp:106] Creating Layer inception_4e/relu_5x5
I1125 15:37:37.843372 17455 net.cpp:454] inception_4e/relu_5x5 <- inception_4e/5x5
I1125 15:37:37.843377 17455 net.cpp:397] inception_4e/relu_5x5 -> inception_4e/5x5 (in-place)
I1125 15:37:37.843765 17455 net.cpp:150] Setting up inception_4e/relu_5x5
I1125 15:37:37.843778 17455 net.cpp:157] Top shape: 64 128 14 14 (1605632)
I1125 15:37:37.843781 17455 net.cpp:165] Memory required for data: 3321916768
I1125 15:37:37.843786 17455 layer_factory.hpp:76] Creating layer inception_4e/pool
I1125 15:37:37.843793 17455 net.cpp:106] Creating Layer inception_4e/pool
I1125 15:37:37.843797 17455 net.cpp:454] inception_4e/pool <- inception_4d/output_inception_4d/output_0_split_4
I1125 15:37:37.843803 17455 net.cpp:411] inception_4e/pool -> inception_4e/pool
I1125 15:37:37.844372 17455 net.cpp:150] Setting up inception_4e/pool
I1125 15:37:37.844384 17455 net.cpp:157] Top shape: 64 528 14 14 (6623232)
I1125 15:37:37.844388 17455 net.cpp:165] Memory required for data: 3348409696
I1125 15:37:37.844391 17455 layer_factory.hpp:76] Creating layer inception_4e/pool_proj
I1125 15:37:37.844403 17455 net.cpp:106] Creating Layer inception_4e/pool_proj
I1125 15:37:37.844406 17455 net.cpp:454] inception_4e/pool_proj <- inception_4e/pool
I1125 15:37:37.844414 17455 net.cpp:411] inception_4e/pool_proj -> inception_4e/pool_proj
I1125 15:37:37.845963 17455 net.cpp:150] Setting up inception_4e/pool_proj
I1125 15:37:37.845985 17455 net.cpp:157] Top shape: 64 128 14 14 (1605632)
I1125 15:37:37.845988 17455 net.cpp:165] Memory required for data: 3354832224
I1125 15:37:37.845995 17455 layer_factory.hpp:76] Creating layer inception_4e/relu_pool_proj
I1125 15:37:37.846001 17455 net.cpp:106] Creating Layer inception_4e/relu_pool_proj
I1125 15:37:37.846007 17455 net.cpp:454] inception_4e/relu_pool_proj <- inception_4e/pool_proj
I1125 15:37:37.846016 17455 net.cpp:397] inception_4e/relu_pool_proj -> inception_4e/pool_proj (in-place)
I1125 15:37:37.846405 17455 net.cpp:150] Setting up inception_4e/relu_pool_proj
I1125 15:37:37.846420 17455 net.cpp:157] Top shape: 64 128 14 14 (1605632)
I1125 15:37:37.846423 17455 net.cpp:165] Memory required for data: 3361254752
I1125 15:37:37.846426 17455 layer_factory.hpp:76] Creating layer inception_4e/output
I1125 15:37:37.846433 17455 net.cpp:106] Creating Layer inception_4e/output
I1125 15:37:37.846438 17455 net.cpp:454] inception_4e/output <- inception_4e/1x1
I1125 15:37:37.846442 17455 net.cpp:454] inception_4e/output <- inception_4e/3x3
I1125 15:37:37.846446 17455 net.cpp:454] inception_4e/output <- inception_4e/5x5
I1125 15:37:37.846451 17455 net.cpp:454] inception_4e/output <- inception_4e/pool_proj
I1125 15:37:37.846457 17455 net.cpp:411] inception_4e/output -> inception_4e/output
I1125 15:37:37.846490 17455 net.cpp:150] Setting up inception_4e/output
I1125 15:37:37.846496 17455 net.cpp:157] Top shape: 64 832 14 14 (10436608)
I1125 15:37:37.846499 17455 net.cpp:165] Memory required for data: 3403001184
I1125 15:37:37.846503 17455 layer_factory.hpp:76] Creating layer pool4/3x3_s2
I1125 15:37:37.846509 17455 net.cpp:106] Creating Layer pool4/3x3_s2
I1125 15:37:37.846513 17455 net.cpp:454] pool4/3x3_s2 <- inception_4e/output
I1125 15:37:37.846519 17455 net.cpp:411] pool4/3x3_s2 -> pool4/3x3_s2
I1125 15:37:37.846767 17455 net.cpp:150] Setting up pool4/3x3_s2
I1125 15:37:37.846778 17455 net.cpp:157] Top shape: 64 832 7 7 (2609152)
I1125 15:37:37.846782 17455 net.cpp:165] Memory required for data: 3413437792
I1125 15:37:37.846786 17455 layer_factory.hpp:76] Creating layer pool4/3x3_s2_pool4/3x3_s2_0_split
I1125 15:37:37.846791 17455 net.cpp:106] Creating Layer pool4/3x3_s2_pool4/3x3_s2_0_split
I1125 15:37:37.846796 17455 net.cpp:454] pool4/3x3_s2_pool4/3x3_s2_0_split <- pool4/3x3_s2
I1125 15:37:37.846807 17455 net.cpp:411] pool4/3x3_s2_pool4/3x3_s2_0_split -> pool4/3x3_s2_pool4/3x3_s2_0_split_0
I1125 15:37:37.846813 17455 net.cpp:411] pool4/3x3_s2_pool4/3x3_s2_0_split -> pool4/3x3_s2_pool4/3x3_s2_0_split_1
I1125 15:37:37.846819 17455 net.cpp:411] pool4/3x3_s2_pool4/3x3_s2_0_split -> pool4/3x3_s2_pool4/3x3_s2_0_split_2
I1125 15:37:37.846825 17455 net.cpp:411] pool4/3x3_s2_pool4/3x3_s2_0_split -> pool4/3x3_s2_pool4/3x3_s2_0_split_3
I1125 15:37:37.846922 17455 net.cpp:150] Setting up pool4/3x3_s2_pool4/3x3_s2_0_split
I1125 15:37:37.846931 17455 net.cpp:157] Top shape: 64 832 7 7 (2609152)
I1125 15:37:37.846935 17455 net.cpp:157] Top shape: 64 832 7 7 (2609152)
I1125 15:37:37.846940 17455 net.cpp:157] Top shape: 64 832 7 7 (2609152)
I1125 15:37:37.846942 17455 net.cpp:157] Top shape: 64 832 7 7 (2609152)
I1125 15:37:37.846946 17455 net.cpp:165] Memory required for data: 3455184224
I1125 15:37:37.846948 17455 layer_factory.hpp:76] Creating layer inception_5a/1x1
I1125 15:37:37.846957 17455 net.cpp:106] Creating Layer inception_5a/1x1
I1125 15:37:37.846961 17455 net.cpp:454] inception_5a/1x1 <- pool4/3x3_s2_pool4/3x3_s2_0_split_0
I1125 15:37:37.846968 17455 net.cpp:411] inception_5a/1x1 -> inception_5a/1x1
I1125 15:37:37.850047 17455 net.cpp:150] Setting up inception_5a/1x1
I1125 15:37:37.850062 17455 net.cpp:157] Top shape: 64 256 7 7 (802816)
I1125 15:37:37.850067 17455 net.cpp:165] Memory required for data: 3458395488
I1125 15:37:37.850074 17455 layer_factory.hpp:76] Creating layer inception_5a/relu_1x1
I1125 15:37:37.850080 17455 net.cpp:106] Creating Layer inception_5a/relu_1x1
I1125 15:37:37.850085 17455 net.cpp:454] inception_5a/relu_1x1 <- inception_5a/1x1
I1125 15:37:37.850091 17455 net.cpp:397] inception_5a/relu_1x1 -> inception_5a/1x1 (in-place)
I1125 15:37:37.850507 17455 net.cpp:150] Setting up inception_5a/relu_1x1
I1125 15:37:37.850520 17455 net.cpp:157] Top shape: 64 256 7 7 (802816)
I1125 15:37:37.850524 17455 net.cpp:165] Memory required for data: 3461606752
I1125 15:37:37.850528 17455 layer_factory.hpp:76] Creating layer inception_5a/3x3_reduce
I1125 15:37:37.850538 17455 net.cpp:106] Creating Layer inception_5a/3x3_reduce
I1125 15:37:37.850543 17455 net.cpp:454] inception_5a/3x3_reduce <- pool4/3x3_s2_pool4/3x3_s2_0_split_1
I1125 15:37:37.850550 17455 net.cpp:411] inception_5a/3x3_reduce -> inception_5a/3x3_reduce
I1125 15:37:37.853170 17455 net.cpp:150] Setting up inception_5a/3x3_reduce
I1125 15:37:37.853185 17455 net.cpp:157] Top shape: 64 160 7 7 (501760)
I1125 15:37:37.853189 17455 net.cpp:165] Memory required for data: 3463613792
I1125 15:37:37.853195 17455 layer_factory.hpp:76] Creating layer inception_5a/relu_3x3_reduce
I1125 15:37:37.853204 17455 net.cpp:106] Creating Layer inception_5a/relu_3x3_reduce
I1125 15:37:37.853209 17455 net.cpp:454] inception_5a/relu_3x3_reduce <- inception_5a/3x3_reduce
I1125 15:37:37.853214 17455 net.cpp:397] inception_5a/relu_3x3_reduce -> inception_5a/3x3_reduce (in-place)
I1125 15:37:37.853430 17455 net.cpp:150] Setting up inception_5a/relu_3x3_reduce
I1125 15:37:37.853443 17455 net.cpp:157] Top shape: 64 160 7 7 (501760)
I1125 15:37:37.853447 17455 net.cpp:165] Memory required for data: 3465620832
I1125 15:37:37.853451 17455 layer_factory.hpp:76] Creating layer inception_5a/3x3
I1125 15:37:37.853461 17455 net.cpp:106] Creating Layer inception_5a/3x3
I1125 15:37:37.853466 17455 net.cpp:454] inception_5a/3x3 <- inception_5a/3x3_reduce
I1125 15:37:37.853472 17455 net.cpp:411] inception_5a/3x3 -> inception_5a/3x3
I1125 15:37:37.858333 17455 net.cpp:150] Setting up inception_5a/3x3
I1125 15:37:37.858348 17455 net.cpp:157] Top shape: 64 320 7 7 (1003520)
I1125 15:37:37.858353 17455 net.cpp:165] Memory required for data: 3469634912
I1125 15:37:37.858361 17455 layer_factory.hpp:76] Creating layer inception_5a/relu_3x3
I1125 15:37:37.858366 17455 net.cpp:106] Creating Layer inception_5a/relu_3x3
I1125 15:37:37.858371 17455 net.cpp:454] inception_5a/relu_3x3 <- inception_5a/3x3
I1125 15:37:37.858376 17455 net.cpp:397] inception_5a/relu_3x3 -> inception_5a/3x3 (in-place)
I1125 15:37:37.858608 17455 net.cpp:150] Setting up inception_5a/relu_3x3
I1125 15:37:37.858618 17455 net.cpp:157] Top shape: 64 320 7 7 (1003520)
I1125 15:37:37.858621 17455 net.cpp:165] Memory required for data: 3473648992
I1125 15:37:37.858625 17455 layer_factory.hpp:76] Creating layer inception_5a/5x5_reduce
I1125 15:37:37.858634 17455 net.cpp:106] Creating Layer inception_5a/5x5_reduce
I1125 15:37:37.858639 17455 net.cpp:454] inception_5a/5x5_reduce <- pool4/3x3_s2_pool4/3x3_s2_0_split_2
I1125 15:37:37.858645 17455 net.cpp:411] inception_5a/5x5_reduce -> inception_5a/5x5_reduce
I1125 15:37:37.860591 17455 net.cpp:150] Setting up inception_5a/5x5_reduce
I1125 15:37:37.860606 17455 net.cpp:157] Top shape: 64 32 7 7 (100352)
I1125 15:37:37.860610 17455 net.cpp:165] Memory required for data: 3474050400
I1125 15:37:37.860616 17455 layer_factory.hpp:76] Creating layer inception_5a/relu_5x5_reduce
I1125 15:37:37.860622 17455 net.cpp:106] Creating Layer inception_5a/relu_5x5_reduce
I1125 15:37:37.860627 17455 net.cpp:454] inception_5a/relu_5x5_reduce <- inception_5a/5x5_reduce
I1125 15:37:37.860633 17455 net.cpp:397] inception_5a/relu_5x5_reduce -> inception_5a/5x5_reduce (in-place)
I1125 15:37:37.861026 17455 net.cpp:150] Setting up inception_5a/relu_5x5_reduce
I1125 15:37:37.861040 17455 net.cpp:157] Top shape: 64 32 7 7 (100352)
I1125 15:37:37.861043 17455 net.cpp:165] Memory required for data: 3474451808
I1125 15:37:37.861047 17455 layer_factory.hpp:76] Creating layer inception_5a/5x5
I1125 15:37:37.861057 17455 net.cpp:106] Creating Layer inception_5a/5x5
I1125 15:37:37.861060 17455 net.cpp:454] inception_5a/5x5 <- inception_5a/5x5_reduce
I1125 15:37:37.861068 17455 net.cpp:411] inception_5a/5x5 -> inception_5a/5x5
I1125 15:37:37.863036 17455 net.cpp:150] Setting up inception_5a/5x5
I1125 15:37:37.863051 17455 net.cpp:157] Top shape: 64 128 7 7 (401408)
I1125 15:37:37.863055 17455 net.cpp:165] Memory required for data: 3476057440
I1125 15:37:37.863061 17455 layer_factory.hpp:76] Creating layer inception_5a/relu_5x5
I1125 15:37:37.863067 17455 net.cpp:106] Creating Layer inception_5a/relu_5x5
I1125 15:37:37.863071 17455 net.cpp:454] inception_5a/relu_5x5 <- inception_5a/5x5
I1125 15:37:37.863078 17455 net.cpp:397] inception_5a/relu_5x5 -> inception_5a/5x5 (in-place)
I1125 15:37:37.863297 17455 net.cpp:150] Setting up inception_5a/relu_5x5
I1125 15:37:37.863308 17455 net.cpp:157] Top shape: 64 128 7 7 (401408)
I1125 15:37:37.863312 17455 net.cpp:165] Memory required for data: 3477663072
I1125 15:37:37.863315 17455 layer_factory.hpp:76] Creating layer inception_5a/pool
I1125 15:37:37.863322 17455 net.cpp:106] Creating Layer inception_5a/pool
I1125 15:37:37.863327 17455 net.cpp:454] inception_5a/pool <- pool4/3x3_s2_pool4/3x3_s2_0_split_3
I1125 15:37:37.863332 17455 net.cpp:411] inception_5a/pool -> inception_5a/pool
I1125 15:37:37.863759 17455 net.cpp:150] Setting up inception_5a/pool
I1125 15:37:37.863773 17455 net.cpp:157] Top shape: 64 832 7 7 (2609152)
I1125 15:37:37.863777 17455 net.cpp:165] Memory required for data: 3488099680
I1125 15:37:37.863781 17455 layer_factory.hpp:76] Creating layer inception_5a/pool_proj
I1125 15:37:37.863790 17455 net.cpp:106] Creating Layer inception_5a/pool_proj
I1125 15:37:37.863793 17455 net.cpp:454] inception_5a/pool_proj <- inception_5a/pool
I1125 15:37:37.863801 17455 net.cpp:411] inception_5a/pool_proj -> inception_5a/pool_proj
I1125 15:37:37.866062 17455 net.cpp:150] Setting up inception_5a/pool_proj
I1125 15:37:37.866077 17455 net.cpp:157] Top shape: 64 128 7 7 (401408)
I1125 15:37:37.866081 17455 net.cpp:165] Memory required for data: 3489705312
I1125 15:37:37.866087 17455 layer_factory.hpp:76] Creating layer inception_5a/relu_pool_proj
I1125 15:37:37.866096 17455 net.cpp:106] Creating Layer inception_5a/relu_pool_proj
I1125 15:37:37.866101 17455 net.cpp:454] inception_5a/relu_pool_proj <- inception_5a/pool_proj
I1125 15:37:37.866106 17455 net.cpp:397] inception_5a/relu_pool_proj -> inception_5a/pool_proj (in-place)
I1125 15:37:37.866508 17455 net.cpp:150] Setting up inception_5a/relu_pool_proj
I1125 15:37:37.866523 17455 net.cpp:157] Top shape: 64 128 7 7 (401408)
I1125 15:37:37.866526 17455 net.cpp:165] Memory required for data: 3491310944
I1125 15:37:37.866529 17455 layer_factory.hpp:76] Creating layer inception_5a/output
I1125 15:37:37.866538 17455 net.cpp:106] Creating Layer inception_5a/output
I1125 15:37:37.866542 17455 net.cpp:454] inception_5a/output <- inception_5a/1x1
I1125 15:37:37.866547 17455 net.cpp:454] inception_5a/output <- inception_5a/3x3
I1125 15:37:37.866551 17455 net.cpp:454] inception_5a/output <- inception_5a/5x5
I1125 15:37:37.866555 17455 net.cpp:454] inception_5a/output <- inception_5a/pool_proj
I1125 15:37:37.866560 17455 net.cpp:411] inception_5a/output -> inception_5a/output
I1125 15:37:37.866596 17455 net.cpp:150] Setting up inception_5a/output
I1125 15:37:37.866603 17455 net.cpp:157] Top shape: 64 832 7 7 (2609152)
I1125 15:37:37.866605 17455 net.cpp:165] Memory required for data: 3501747552
I1125 15:37:37.866608 17455 layer_factory.hpp:76] Creating layer inception_5a/output_inception_5a/output_0_split
I1125 15:37:37.866614 17455 net.cpp:106] Creating Layer inception_5a/output_inception_5a/output_0_split
I1125 15:37:37.866618 17455 net.cpp:454] inception_5a/output_inception_5a/output_0_split <- inception_5a/output
I1125 15:37:37.866624 17455 net.cpp:411] inception_5a/output_inception_5a/output_0_split -> inception_5a/output_inception_5a/output_0_split_0
I1125 15:37:37.866662 17455 net.cpp:411] inception_5a/output_inception_5a/output_0_split -> inception_5a/output_inception_5a/output_0_split_1
I1125 15:37:37.866668 17455 net.cpp:411] inception_5a/output_inception_5a/output_0_split -> inception_5a/output_inception_5a/output_0_split_2
I1125 15:37:37.866674 17455 net.cpp:411] inception_5a/output_inception_5a/output_0_split -> inception_5a/output_inception_5a/output_0_split_3
I1125 15:37:37.866742 17455 net.cpp:150] Setting up inception_5a/output_inception_5a/output_0_split
I1125 15:37:37.866751 17455 net.cpp:157] Top shape: 64 832 7 7 (2609152)
I1125 15:37:37.866755 17455 net.cpp:157] Top shape: 64 832 7 7 (2609152)
I1125 15:37:37.866760 17455 net.cpp:157] Top shape: 64 832 7 7 (2609152)
I1125 15:37:37.866762 17455 net.cpp:157] Top shape: 64 832 7 7 (2609152)
I1125 15:37:37.866765 17455 net.cpp:165] Memory required for data: 3543493984
I1125 15:37:37.866768 17455 layer_factory.hpp:76] Creating layer inception_5b/1x1
I1125 15:37:37.866777 17455 net.cpp:106] Creating Layer inception_5b/1x1
I1125 15:37:37.866781 17455 net.cpp:454] inception_5b/1x1 <- inception_5a/output_inception_5a/output_0_split_0
I1125 15:37:37.866791 17455 net.cpp:411] inception_5b/1x1 -> inception_5b/1x1
I1125 15:37:37.870774 17455 net.cpp:150] Setting up inception_5b/1x1
I1125 15:37:37.870795 17455 net.cpp:157] Top shape: 64 384 7 7 (1204224)
I1125 15:37:37.870810 17455 net.cpp:165] Memory required for data: 3548310880
I1125 15:37:37.870817 17455 layer_factory.hpp:76] Creating layer inception_5b/relu_1x1
I1125 15:37:37.870826 17455 net.cpp:106] Creating Layer inception_5b/relu_1x1
I1125 15:37:37.870831 17455 net.cpp:454] inception_5b/relu_1x1 <- inception_5b/1x1
I1125 15:37:37.870837 17455 net.cpp:397] inception_5b/relu_1x1 -> inception_5b/1x1 (in-place)
I1125 15:37:37.871069 17455 net.cpp:150] Setting up inception_5b/relu_1x1
I1125 15:37:37.871081 17455 net.cpp:157] Top shape: 64 384 7 7 (1204224)
I1125 15:37:37.871084 17455 net.cpp:165] Memory required for data: 3553127776
I1125 15:37:37.871088 17455 layer_factory.hpp:76] Creating layer inception_5b/3x3_reduce
I1125 15:37:37.871096 17455 net.cpp:106] Creating Layer inception_5b/3x3_reduce
I1125 15:37:37.871101 17455 net.cpp:454] inception_5b/3x3_reduce <- inception_5a/output_inception_5a/output_0_split_1
I1125 15:37:37.871109 17455 net.cpp:411] inception_5b/3x3_reduce -> inception_5b/3x3_reduce
I1125 15:37:37.873883 17455 net.cpp:150] Setting up inception_5b/3x3_reduce
I1125 15:37:37.873898 17455 net.cpp:157] Top shape: 64 192 7 7 (602112)
I1125 15:37:37.873901 17455 net.cpp:165] Memory required for data: 3555536224
I1125 15:37:37.873908 17455 layer_factory.hpp:76] Creating layer inception_5b/relu_3x3_reduce
I1125 15:37:37.873915 17455 net.cpp:106] Creating Layer inception_5b/relu_3x3_reduce
I1125 15:37:37.873920 17455 net.cpp:454] inception_5b/relu_3x3_reduce <- inception_5b/3x3_reduce
I1125 15:37:37.873925 17455 net.cpp:397] inception_5b/relu_3x3_reduce -> inception_5b/3x3_reduce (in-place)
I1125 15:37:37.874328 17455 net.cpp:150] Setting up inception_5b/relu_3x3_reduce
I1125 15:37:37.874342 17455 net.cpp:157] Top shape: 64 192 7 7 (602112)
I1125 15:37:37.874346 17455 net.cpp:165] Memory required for data: 3557944672
I1125 15:37:37.874349 17455 layer_factory.hpp:76] Creating layer inception_5b/3x3
I1125 15:37:37.874359 17455 net.cpp:106] Creating Layer inception_5b/3x3
I1125 15:37:37.874363 17455 net.cpp:454] inception_5b/3x3 <- inception_5b/3x3_reduce
I1125 15:37:37.874372 17455 net.cpp:411] inception_5b/3x3 -> inception_5b/3x3
I1125 15:37:37.880573 17455 net.cpp:150] Setting up inception_5b/3x3
I1125 15:37:37.880589 17455 net.cpp:157] Top shape: 64 384 7 7 (1204224)
I1125 15:37:37.880592 17455 net.cpp:165] Memory required for data: 3562761568
I1125 15:37:37.880599 17455 layer_factory.hpp:76] Creating layer inception_5b/relu_3x3
I1125 15:37:37.880641 17455 net.cpp:106] Creating Layer inception_5b/relu_3x3
I1125 15:37:37.880648 17455 net.cpp:454] inception_5b/relu_3x3 <- inception_5b/3x3
I1125 15:37:37.880653 17455 net.cpp:397] inception_5b/relu_3x3 -> inception_5b/3x3 (in-place)
I1125 15:37:37.881053 17455 net.cpp:150] Setting up inception_5b/relu_3x3
I1125 15:37:37.881067 17455 net.cpp:157] Top shape: 64 384 7 7 (1204224)
I1125 15:37:37.881070 17455 net.cpp:165] Memory required for data: 3567578464
I1125 15:37:37.881074 17455 layer_factory.hpp:76] Creating layer inception_5b/5x5_reduce
I1125 15:37:37.881084 17455 net.cpp:106] Creating Layer inception_5b/5x5_reduce
I1125 15:37:37.881089 17455 net.cpp:454] inception_5b/5x5_reduce <- inception_5a/output_inception_5a/output_0_split_2
I1125 15:37:37.881096 17455 net.cpp:411] inception_5b/5x5_reduce -> inception_5b/5x5_reduce
I1125 15:37:37.882685 17455 net.cpp:150] Setting up inception_5b/5x5_reduce
I1125 15:37:37.882700 17455 net.cpp:157] Top shape: 64 48 7 7 (150528)
I1125 15:37:37.882704 17455 net.cpp:165] Memory required for data: 3568180576
I1125 15:37:37.882710 17455 layer_factory.hpp:76] Creating layer inception_5b/relu_5x5_reduce
I1125 15:37:37.882717 17455 net.cpp:106] Creating Layer inception_5b/relu_5x5_reduce
I1125 15:37:37.882722 17455 net.cpp:454] inception_5b/relu_5x5_reduce <- inception_5b/5x5_reduce
I1125 15:37:37.882729 17455 net.cpp:397] inception_5b/relu_5x5_reduce -> inception_5b/5x5_reduce (in-place)
I1125 15:37:37.882964 17455 net.cpp:150] Setting up inception_5b/relu_5x5_reduce
I1125 15:37:37.882977 17455 net.cpp:157] Top shape: 64 48 7 7 (150528)
I1125 15:37:37.882980 17455 net.cpp:165] Memory required for data: 3568782688
I1125 15:37:37.882983 17455 layer_factory.hpp:76] Creating layer inception_5b/5x5
I1125 15:37:37.882993 17455 net.cpp:106] Creating Layer inception_5b/5x5
I1125 15:37:37.882998 17455 net.cpp:454] inception_5b/5x5 <- inception_5b/5x5_reduce
I1125 15:37:37.883004 17455 net.cpp:411] inception_5b/5x5 -> inception_5b/5x5
I1125 15:37:37.885296 17455 net.cpp:150] Setting up inception_5b/5x5
I1125 15:37:37.885310 17455 net.cpp:157] Top shape: 64 128 7 7 (401408)
I1125 15:37:37.885313 17455 net.cpp:165] Memory required for data: 3570388320
I1125 15:37:37.885320 17455 layer_factory.hpp:76] Creating layer inception_5b/relu_5x5
I1125 15:37:37.885329 17455 net.cpp:106] Creating Layer inception_5b/relu_5x5
I1125 15:37:37.885334 17455 net.cpp:454] inception_5b/relu_5x5 <- inception_5b/5x5
I1125 15:37:37.885339 17455 net.cpp:397] inception_5b/relu_5x5 -> inception_5b/5x5 (in-place)
I1125 15:37:37.885735 17455 net.cpp:150] Setting up inception_5b/relu_5x5
I1125 15:37:37.885748 17455 net.cpp:157] Top shape: 64 128 7 7 (401408)
I1125 15:37:37.885752 17455 net.cpp:165] Memory required for data: 3571993952
I1125 15:37:37.885756 17455 layer_factory.hpp:76] Creating layer inception_5b/pool
I1125 15:37:37.885764 17455 net.cpp:106] Creating Layer inception_5b/pool
I1125 15:37:37.885769 17455 net.cpp:454] inception_5b/pool <- inception_5a/output_inception_5a/output_0_split_3
I1125 15:37:37.885776 17455 net.cpp:411] inception_5b/pool -> inception_5b/pool
I1125 15:37:37.886046 17455 net.cpp:150] Setting up inception_5b/pool
I1125 15:37:37.886057 17455 net.cpp:157] Top shape: 64 832 7 7 (2609152)
I1125 15:37:37.886060 17455 net.cpp:165] Memory required for data: 3582430560
I1125 15:37:37.886065 17455 layer_factory.hpp:76] Creating layer inception_5b/pool_proj
I1125 15:37:37.886073 17455 net.cpp:106] Creating Layer inception_5b/pool_proj
I1125 15:37:37.886077 17455 net.cpp:454] inception_5b/pool_proj <- inception_5b/pool
I1125 15:37:37.886083 17455 net.cpp:411] inception_5b/pool_proj -> inception_5b/pool_proj
I1125 15:37:37.888543 17455 net.cpp:150] Setting up inception_5b/pool_proj
I1125 15:37:37.888558 17455 net.cpp:157] Top shape: 64 128 7 7 (401408)
I1125 15:37:37.888562 17455 net.cpp:165] Memory required for data: 3584036192
I1125 15:37:37.888568 17455 layer_factory.hpp:76] Creating layer inception_5b/relu_pool_proj
I1125 15:37:37.888576 17455 net.cpp:106] Creating Layer inception_5b/relu_pool_proj
I1125 15:37:37.888581 17455 net.cpp:454] inception_5b/relu_pool_proj <- inception_5b/pool_proj
I1125 15:37:37.888587 17455 net.cpp:397] inception_5b/relu_pool_proj -> inception_5b/pool_proj (in-place)
I1125 15:37:37.888810 17455 net.cpp:150] Setting up inception_5b/relu_pool_proj
I1125 15:37:37.888821 17455 net.cpp:157] Top shape: 64 128 7 7 (401408)
I1125 15:37:37.888824 17455 net.cpp:165] Memory required for data: 3585641824
I1125 15:37:37.888828 17455 layer_factory.hpp:76] Creating layer inception_5b/output
I1125 15:37:37.888834 17455 net.cpp:106] Creating Layer inception_5b/output
I1125 15:37:37.888839 17455 net.cpp:454] inception_5b/output <- inception_5b/1x1
I1125 15:37:37.888844 17455 net.cpp:454] inception_5b/output <- inception_5b/3x3
I1125 15:37:37.888847 17455 net.cpp:454] inception_5b/output <- inception_5b/5x5
I1125 15:37:37.888851 17455 net.cpp:454] inception_5b/output <- inception_5b/pool_proj
I1125 15:37:37.888857 17455 net.cpp:411] inception_5b/output -> inception_5b/output
I1125 15:37:37.888893 17455 net.cpp:150] Setting up inception_5b/output
I1125 15:37:37.888900 17455 net.cpp:157] Top shape: 64 1024 7 7 (3211264)
I1125 15:37:37.888902 17455 net.cpp:165] Memory required for data: 3598486880
I1125 15:37:37.888905 17455 layer_factory.hpp:76] Creating layer pool5/7x7_s1
I1125 15:37:37.888911 17455 net.cpp:106] Creating Layer pool5/7x7_s1
I1125 15:37:37.888914 17455 net.cpp:454] pool5/7x7_s1 <- inception_5b/output
I1125 15:37:37.888919 17455 net.cpp:411] pool5/7x7_s1 -> pool5/7x7_s1
I1125 15:37:37.889333 17455 net.cpp:150] Setting up pool5/7x7_s1
I1125 15:37:37.889346 17455 net.cpp:157] Top shape: 64 1024 1 1 (65536)
I1125 15:37:37.889349 17455 net.cpp:165] Memory required for data: 3598749024
I1125 15:37:37.889353 17455 layer_factory.hpp:76] Creating layer pool5/drop_7x7_s1
I1125 15:37:37.889360 17455 net.cpp:106] Creating Layer pool5/drop_7x7_s1
I1125 15:37:37.889364 17455 net.cpp:454] pool5/drop_7x7_s1 <- pool5/7x7_s1
I1125 15:37:37.889371 17455 net.cpp:397] pool5/drop_7x7_s1 -> pool5/7x7_s1 (in-place)
I1125 15:37:37.889403 17455 net.cpp:150] Setting up pool5/drop_7x7_s1
I1125 15:37:37.889408 17455 net.cpp:157] Top shape: 64 1024 1 1 (65536)
I1125 15:37:37.889411 17455 net.cpp:165] Memory required for data: 3599011168
I1125 15:37:37.889413 17455 layer_factory.hpp:76] Creating layer pool5/7x7_s1_pool5/drop_7x7_s1_0_split
I1125 15:37:37.889425 17455 net.cpp:106] Creating Layer pool5/7x7_s1_pool5/drop_7x7_s1_0_split
I1125 15:37:37.889427 17455 net.cpp:454] pool5/7x7_s1_pool5/drop_7x7_s1_0_split <- pool5/7x7_s1
I1125 15:37:37.889432 17455 net.cpp:411] pool5/7x7_s1_pool5/drop_7x7_s1_0_split -> pool5/7x7_s1_pool5/drop_7x7_s1_0_split_0
I1125 15:37:37.889441 17455 net.cpp:411] pool5/7x7_s1_pool5/drop_7x7_s1_0_split -> pool5/7x7_s1_pool5/drop_7x7_s1_0_split_1
I1125 15:37:37.889446 17455 net.cpp:411] pool5/7x7_s1_pool5/drop_7x7_s1_0_split -> pool5/7x7_s1_pool5/drop_7x7_s1_0_split_2
I1125 15:37:37.889452 17455 net.cpp:411] pool5/7x7_s1_pool5/drop_7x7_s1_0_split -> pool5/7x7_s1_pool5/drop_7x7_s1_0_split_3
I1125 15:37:37.889457 17455 net.cpp:411] pool5/7x7_s1_pool5/drop_7x7_s1_0_split -> pool5/7x7_s1_pool5/drop_7x7_s1_0_split_4
I1125 15:37:37.889462 17455 net.cpp:411] pool5/7x7_s1_pool5/drop_7x7_s1_0_split -> pool5/7x7_s1_pool5/drop_7x7_s1_0_split_5
I1125 15:37:37.889554 17455 net.cpp:150] Setting up pool5/7x7_s1_pool5/drop_7x7_s1_0_split
I1125 15:37:37.889569 17455 net.cpp:157] Top shape: 64 1024 1 1 (65536)
I1125 15:37:37.889572 17455 net.cpp:157] Top shape: 64 1024 1 1 (65536)
I1125 15:37:37.889575 17455 net.cpp:157] Top shape: 64 1024 1 1 (65536)
I1125 15:37:37.889580 17455 net.cpp:157] Top shape: 64 1024 1 1 (65536)
I1125 15:37:37.889582 17455 net.cpp:157] Top shape: 64 1024 1 1 (65536)
I1125 15:37:37.889585 17455 net.cpp:157] Top shape: 64 1024 1 1 (65536)
I1125 15:37:37.889588 17455 net.cpp:165] Memory required for data: 3600584032
I1125 15:37:37.889591 17455 layer_factory.hpp:76] Creating layer loss3/fc_00.category
I1125 15:37:37.889601 17455 net.cpp:106] Creating Layer loss3/fc_00.category
I1125 15:37:37.889605 17455 net.cpp:454] loss3/fc_00.category <- pool5/7x7_s1_pool5/drop_7x7_s1_0_split_0
I1125 15:37:37.889611 17455 net.cpp:411] loss3/fc_00.category -> loss3/fc_00.category
I1125 15:37:37.893785 17455 net.cpp:150] Setting up loss3/fc_00.category
I1125 15:37:37.893798 17455 net.cpp:157] Top shape: 64 512 (32768)
I1125 15:37:37.893802 17455 net.cpp:165] Memory required for data: 3600715104
I1125 15:37:37.893808 17455 layer_factory.hpp:76] Creating layer loss3/relu_fc_00.category
I1125 15:37:37.893815 17455 net.cpp:106] Creating Layer loss3/relu_fc_00.category
I1125 15:37:37.893818 17455 net.cpp:454] loss3/relu_fc_00.category <- loss3/fc_00.category
I1125 15:37:37.893823 17455 net.cpp:397] loss3/relu_fc_00.category -> loss3/fc_00.category (in-place)
I1125 15:37:37.894220 17455 net.cpp:150] Setting up loss3/relu_fc_00.category
I1125 15:37:37.894235 17455 net.cpp:157] Top shape: 64 512 (32768)
I1125 15:37:37.894239 17455 net.cpp:165] Memory required for data: 3600846176
I1125 15:37:37.894243 17455 layer_factory.hpp:76] Creating layer loss3/drop_fc_00.category
I1125 15:37:37.894249 17455 net.cpp:106] Creating Layer loss3/drop_fc_00.category
I1125 15:37:37.894253 17455 net.cpp:454] loss3/drop_fc_00.category <- loss3/fc_00.category
I1125 15:37:37.894259 17455 net.cpp:397] loss3/drop_fc_00.category -> loss3/fc_00.category (in-place)
I1125 15:37:37.894294 17455 net.cpp:150] Setting up loss3/drop_fc_00.category
I1125 15:37:37.894299 17455 net.cpp:157] Top shape: 64 512 (32768)
I1125 15:37:37.894302 17455 net.cpp:165] Memory required for data: 3600977248
I1125 15:37:37.894305 17455 layer_factory.hpp:76] Creating layer loss3/classifier-00.category
I1125 15:37:37.894315 17455 net.cpp:106] Creating Layer loss3/classifier-00.category
I1125 15:37:37.894317 17455 net.cpp:454] loss3/classifier-00.category <- loss3/fc_00.category
I1125 15:37:37.894325 17455 net.cpp:411] loss3/classifier-00.category -> loss3/classifier-00.category
I1125 15:37:37.894525 17455 net.cpp:150] Setting up loss3/classifier-00.category
I1125 15:37:37.894533 17455 net.cpp:157] Top shape: 64 16 (1024)
I1125 15:37:37.894537 17455 net.cpp:165] Memory required for data: 3600981344
I1125 15:37:37.894542 17455 layer_factory.hpp:76] Creating layer loss3/classifier-00.category_loss3/classifier-00.category_0_split
I1125 15:37:37.894548 17455 net.cpp:106] Creating Layer loss3/classifier-00.category_loss3/classifier-00.category_0_split
I1125 15:37:37.894553 17455 net.cpp:454] loss3/classifier-00.category_loss3/classifier-00.category_0_split <- loss3/classifier-00.category
I1125 15:37:37.894558 17455 net.cpp:411] loss3/classifier-00.category_loss3/classifier-00.category_0_split -> loss3/classifier-00.category_loss3/classifier-00.category_0_split_0
I1125 15:37:37.894564 17455 net.cpp:411] loss3/classifier-00.category_loss3/classifier-00.category_0_split -> loss3/classifier-00.category_loss3/classifier-00.category_0_split_1
I1125 15:37:37.894608 17455 net.cpp:150] Setting up loss3/classifier-00.category_loss3/classifier-00.category_0_split
I1125 15:37:37.894621 17455 net.cpp:157] Top shape: 64 16 (1024)
I1125 15:37:37.894625 17455 net.cpp:157] Top shape: 64 16 (1024)
I1125 15:37:37.894629 17455 net.cpp:165] Memory required for data: 3600989536
I1125 15:37:37.894631 17455 layer_factory.hpp:76] Creating layer loss3/loss_00.category
I1125 15:37:37.894636 17455 net.cpp:106] Creating Layer loss3/loss_00.category
I1125 15:37:37.894640 17455 net.cpp:454] loss3/loss_00.category <- loss3/classifier-00.category_loss3/classifier-00.category_0_split_0
I1125 15:37:37.894645 17455 net.cpp:454] loss3/loss_00.category <- 00.category_slice_attribute_0_split_4
…
