…
I1124 13:26:24.285758 12960 net.cpp:322] The NetState phase (0) differed from the phase (1) specified by a rule in layer loss3/top-1
I1124 13:26:24.287881 12960 net.cpp:49] Initializing net from parameters: 
name: "GoogleNet-finetune-for-cigit"
state {
  phase: TRAIN
}
layer {
  name: "data"
  type: "ImageData"
  top: "data"
  top: "label"
  include {
    phase: TRAIN
  }
  transform_param {
    mirror: true
    crop_size: 224
    mean_value: 104
    mean_value: 117
    mean_value: 123
  }
  image_data_param {
    source: "pad_train.txt"
    batch_size: 64
    shuffle: true
    new_height: 256
    new_width: 256
  }
}
layer {
  name: "conv1/7x7_s2"
  type: "Convolution"
  bottom: "data"
  top: "conv1/7x7_s2"
  param {
    lr_mult: 1
    decay_mult: 1
  }
  param {
    lr_mult: 2
    decay_mult: 0
  }
  convolution_param {
    num_output: 64
    pad: 3
    kernel_size: 7
    stride: 2
    weight_filler {
      type: "xavier"
    }
    bias_filler {
      type: "constant"
      value: 0.2
    }
  }
}
layer {
  name: "conv1/relu_7x7"
  type: "ReLU"
  bottom: "conv1/7x7_s2"
  top: "conv1/7x7_s2"
}
layer {
  name: "pool1/3x3_s2"
  type: "Pooling"
  bottom: "conv1/7x7_s2"
  top: "pool1/3x3_s2"
  pooling_param {
    pool: MAX
    kernel_size: 3
    stride: 2
  }
}
layer {
  name: "pool1/norm1"
  type: "LRN"
  bottom: "pool1/3x3_s2"
  top: "pool1/norm1"
  lrn_param {
    local_size: 5
    alpha: 0.0001
    beta: 0.75
  }
}
layer {
  name: "conv2/3x3_reduce"
  type: "Convolution"
  bottom: "pool1/norm1"
  top: "conv2/3x3_reduce"
  param {
    lr_mult: 1
    decay_mult: 1
  }
  param {
    lr_mult: 2
    decay_mult: 0
  }
  convolution_param {
    num_output: 64
    kernel_size: 1
    weight_filler {
      type: "xavier"
    }
    bias_filler {
      type: "constant"
      value: 0.2
    }
  }
}
layer {
  name: "conv2/relu_3x3_reduce"
  type: "ReLU"
  bottom: "conv2/3x3_reduce"
  top: "conv2/3x3_reduce"
}
layer {
  name: "conv2/3x3"
  type: "Convolution"
  bottom: "conv2/3x3_reduce"
  top: "conv2/3x3"
  param {
    lr_mult: 1
    decay_mult: 1
  }
  param {
    lr_mult: 2
    decay_mult: 0
  }
  convolution_param {
    num_output: 192
    pad: 1
    kernel_size: 3
    weight_filler {
      type: "xavier"
    }
    bias_filler {
      type: "constant"
      value: 0.2
    }
  }
}
layer {
  name: "conv2/relu_3x3"
  type: "ReLU"
  bottom: "conv2/3x3"
  top: "conv2/3x3"
}
layer {
  name: "conv2/norm2"
  type: "LRN"
  bottom: "conv2/3x3"
  top: "conv2/norm2"
  lrn_param {
    local_size: 5
    alpha: 0.0001
    beta: 0.75
  }
}
layer {
  name: "pool2/3x3_s2"
  type: "Pooling"
  bottom: "conv2/norm2"
  top: "pool2/3x3_s2"
  pooling_param {
    pool: MAX
    kernel_size: 3
    stride: 2
  }
}
layer {
  name: "inception_3a/1x1"
  type: "Convolution"
  bottom: "pool2/3x3_s2"
  top: "inception_3a/1x1"
  param {
    lr_mult: 1
    decay_mult: 1
  }
  param {
    lr_mult: 2
    decay_mult: 0
  }
  convolution_param {
    num_output: 64
    kernel_size: 1
    weight_filler {
      type: "xavier"
    }
    bias_filler {
      type: "constant"
      value: 0.2
    }
  }
}
layer {
  name: "inception_3a/relu_1x1"
  type: "ReLU"
  bottom: "inception_3a/1x1"
  top: "inception_3a/1x1"
}
layer {
  name: "inception_3a/3x3_reduce"
  type: "Convolution"
  bottom: "pool2/3x3_s2"
  top: "inception_3a/3x3_reduce"
  param {
    lr_mult: 1
    decay_mult: 1
  }
  param {
    lr_mult: 2
    decay_mult: 0
  }
  convolution_param {
    num_output: 96
    kernel_size: 1
    weight_filler {
      type: "xavier"
    }
    bias_filler {
      type: "constant"
      value: 0.2
    }
  }
}
layer {
  name: "inception_3a/relu_3x3_reduce"
  type: "ReLU"
  bottom: "inception_3a/3x3_reduce"
  top: "inception_3a/3x3_reduce"
}
layer {
  name: "inception_3a/3x3"
  type: "Convolution"
  bottom: "inception_3a/3x3_reduce"
  top: "inception_3a/3x3"
  param {
    lr_mult: 1
    decay_mult: 1
  }
  param {
    lr_mult: 2
    decay_mult: 0
  }
  convolution_param {
    num_output: 128
    pad: 1
    kernel_size: 3
    weight_filler {
      type: "xavier"
    }
    bias_filler {
      type: "constant"
      value: 0.2
    }
  }
}
layer {
  name: "inception_3a/relu_3x3"
  type: "ReLU"
  bottom: "inception_3a/3x3"
  top: "inception_3a/3x3"
}
layer {
  name: "inception_3a/5x5_reduce"
  type: "Convolution"
  bottom: "pool2/3x3_s2"
  top: "inception_3a/5x5_reduce"
  param {
    lr_mult: 1
    decay_mult: 1
  }
  param {
    lr_mult: 2
    decay_mult: 0
  }
  convolution_param {
    num_output: 16
    kernel_size: 1
    weight_filler {
      type: "xavier"
    }
    bias_filler {
      type: "constant"
      value: 0.2
    }
  }
}
layer {
  name: "inception_3a/relu_5x5_reduce"
  type: "ReLU"
  bottom: "inception_3a/5x5_reduce"
  top: "inception_3a/5x5_reduce"
}
layer {
  name: "inception_3a/5x5"
  type: "Convolution"
  bottom: "inception_3a/5x5_reduce"
  top: "inception_3a/5x5"
  param {
    lr_mult: 1
    decay_mult: 1
  }
  param {
    lr_mult: 2
    decay_mult: 0
  }
  convolution_param {
    num_output: 32
    pad: 2
    kernel_size: 5
    weight_filler {
      type: "xavier"
    }
    bias_filler {
      type: "constant"
      value: 0.2
    }
  }
}
layer {
  name: "inception_3a/relu_5x5"
  type: "ReLU"
  bottom: "inception_3a/5x5"
  top: "inception_3a/5x5"
}
layer {
  name: "inception_3a/pool"
  type: "Pooling"
  bottom: "pool2/3x3_s2"
  top: "inception_3a/pool"
  pooling_param {
    pool: MAX
    kernel_size: 3
    stride: 1
    pad: 1
  }
}
layer {
  name: "inception_3a/pool_proj"
  type: "Convolution"
  bottom: "inception_3a/pool"
  top: "inception_3a/pool_proj"
  param {
    lr_mult: 1
    decay_mult: 1
  }
  param {
    lr_mult: 2
    decay_mult: 0
  }
  convolution_param {
    num_output: 32
    kernel_size: 1
    weight_filler {
      type: "xavier"
    }
    bias_filler {
      type: "constant"
      value: 0.2
    }
  }
}
layer {
  name: "inception_3a/relu_pool_proj"
  type: "ReLU"
  bottom: "inception_3a/pool_proj"
  top: "inception_3a/pool_proj"
}
layer {
  name: "inception_3a/output"
  type: "Concat"
  bottom: "inception_3a/1x1"
  bottom: "inception_3a/3x3"
  bottom: "inception_3a/5x5"
  bottom: "inception_3a/pool_proj"
  top: "inception_3a/output"
}
layer {
  name: "inception_3b/1x1"
  type: "Convolution"
  bottom: "inception_3a/output"
  top: "inception_3b/1x1"
  param {
    lr_mult: 1
    decay_mult: 1
  }
  param {
    lr_mult: 2
    decay_mult: 0
  }
  convolution_param {
    num_output: 128
    kernel_size: 1
    weight_filler {
      type: "xavier"
    }
    bias_filler {
      type: "constant"
      value: 0.2
    }
  }
}
layer {
  name: "inception_3b/relu_1x1"
  type: "ReLU"
  bottom: "inception_3b/1x1"
  top: "inception_3b/1x1"
}
layer {
  name: "inception_3b/3x3_reduce"
  type: "Convolution"
  bottom: "inception_3a/output"
  top: "inception_3b/3x3_reduce"
  param {
    lr_mult: 1
    decay_mult: 1
  }
  param {
    lr_mult: 2
    decay_mult: 0
  }
  convolution_param {
    num_output: 128
    kernel_size: 1
    weight_filler {
      type: "xavier"
    }
    bias_filler {
      type: "constant"
      value: 0.2
    }
  }
}
layer {
  name: "inception_3b/relu_3x3_reduce"
  type: "ReLU"
  bottom: "inception_3b/3x3_reduce"
  top: "inception_3b/3x3_reduce"
}
layer {
  name: "inception_3b/3x3"
  type: "Convolution"
  bottom: "inception_3b/3x3_reduce"
  top: "inception_3b/3x3"
  param {
    lr_mult: 1
    decay_mult: 1
  }
  param {
    lr_mult: 2
    decay_mult: 0
  }
  convolution_param {
    num_output: 192
    pad: 1
    kernel_size: 3
    weight_filler {
      type: "xavier"
    }
    bias_filler {
      type: "constant"
      value: 0.2
    }
  }
}
layer {
  name: "inception_3b/relu_3x3"
  type: "ReLU"
  bottom: "inception_3b/3x3"
  top: "inception_3b/3x3"
}
layer {
  name: "inception_3b/5x5_reduce"
  type: "Convolution"
  bottom: "inception_3a/output"
  top: "inception_3b/5x5_reduce"
  param {
    lr_mult: 1
    decay_mult: 1
  }
  param {
    lr_mult: 2
    decay_mult: 0
  }
  convolution_param {
    num_output: 32
    kernel_size: 1
    weight_filler {
      type: "xavier"
    }
    bias_filler {
      type: "constant"
      value: 0.2
    }
  }
}
layer {
  name: "inception_3b/relu_5x5_reduce"
  type: "ReLU"
  bottom: "inception_3b/5x5_reduce"
  top: "inception_3b/5x5_reduce"
}
layer {
  name: "inception_3b/5x5"
  type: "Convolution"
  bottom: "inception_3b/5x5_reduce"
  top: "inception_3b/5x5"
  param {
    lr_mult: 1
    decay_mult: 1
  }
  param {
    lr_mult: 2
    decay_mult: 0
  }
  convolution_param {
    num_output: 96
    pad: 2
    kernel_size: 5
    weight_filler {
      type: "xavier"
    }
    bias_filler {
      type: "constant"
      value: 0.2
    }
  }
}
layer {
  name: "inception_3b/relu_5x5"
  type: "ReLU"
  bottom: "inception_3b/5x5"
  top: "inception_3b/5x5"
}
layer {
  name: "inception_3b/pool"
  type: "Pooling"
  bottom: "inception_3a/output"
  top: "inception_3b/pool"
  pooling_param {
    pool: MAX
    kernel_size: 3
    stride: 1
    pad: 1
  }
}
layer {
  name: "inception_3b/pool_proj"
  type: "Convolution"
  bottom: "inception_3b/pool"
  top: "inception_3b/pool_proj"
  param {
    lr_mult: 1
    decay_mult: 1
  }
  param {
    lr_mult: 2
    decay_mult: 0
  }
  convolution_param {
    num_output: 64
    kernel_size: 1
    weight_filler {
      type: "xavier"
    }
    bias_filler {
      type: "constant"
      value: 0.2
    }
  }
}
layer {
  name: "inception_3b/relu_pool_proj"
  type: "ReLU"
  bottom: "inception_3b/pool_proj"
  top: "inception_3b/pool_proj"
}
layer {
  name: "inception_3b/output"
  type: "Concat"
  bottom: "inception_3b/1x1"
  bottom: "inception_3b/3x3"
  bottom: "inception_3b/5x5"
  bottom: "inception_3b/pool_proj"
  top: "inception_3b/output"
}
layer {
  name: "pool3/3x3_s2"
  type: "Pooling"
  bottom: "inception_3b/output"
  top: "pool3/3x3_s2"
  pooling_param {
    pool: MAX
    kernel_size: 3
    stride: 2
  }
}
layer {
  name: "inception_4a/1x1"
  type: "Convolution"
  bottom: "pool3/3x3_s2"
  top: "inception_4a/1x1"
  param {
    lr_mult: 1
    decay_mult: 1
  }
  param {
    lr_mult: 2
    decay_mult: 0
  }
  convolution_param {
    num_output: 192
    kernel_size: 1
    weight_filler {
      type: "xavier"
    }
    bias_filler {
      type: "constant"
      value: 0.2
    }
  }
}
layer {
  name: "inception_4a/relu_1x1"
  type: "ReLU"
  bottom: "inception_4a/1x1"
  top: "inception_4a/1x1"
}
layer {
  name: "inception_4a/3x3_reduce"
  type: "Convolution"
  bottom: "pool3/3x3_s2"
  top: "inception_4a/3x3_reduce"
  param {
    lr_mult: 1
    decay_mult: 1
  }
  param {
    lr_mult: 2
    decay_mult: 0
  }
  convolution_param {
    num_output: 96
    kernel_size: 1
    weight_filler {
      type: "xavier"
    }
    bias_filler {
      type: "constant"
      value: 0.2
    }
  }
}
layer {
  name: "inception_4a/relu_3x3_reduce"
  type: "ReLU"
  bottom: "inception_4a/3x3_reduce"
  top: "inception_4a/3x3_reduce"
}
layer {
  name: "inception_4a/3x3"
  type: "Convolution"
  bottom: "inception_4a/3x3_reduce"
  top: "inception_4a/3x3"
  param {
    lr_mult: 1
    decay_mult: 1
  }
  param {
    lr_mult: 2
    decay_mult: 0
  }
  convolution_param {
    num_output: 208
    pad: 1
    kernel_size: 3
    weight_filler {
      type: "xavier"
    }
    bias_filler {
      type: "constant"
      value: 0.2
    }
  }
}
layer {
  name: "inception_4a/relu_3x3"
  type: "ReLU"
  bottom: "inception_4a/3x3"
  top: "inception_4a/3x3"
}
layer {
  name: "inception_4a/5x5_reduce"
  type: "Convolution"
  bottom: "pool3/3x3_s2"
  top: "inception_4a/5x5_reduce"
  param {
    lr_mult: 1
    decay_mult: 1
  }
  param {
    lr_mult: 2
    decay_mult: 0
  }
  convolution_param {
    num_output: 16
    kernel_size: 1
    weight_filler {
      type: "xavier"
    }
    bias_filler {
      type: "constant"
      value: 0.2
    }
  }
}
layer {
  name: "inception_4a/relu_5x5_reduce"
  type: "ReLU"
  bottom: "inception_4a/5x5_reduce"
  top: "inception_4a/5x5_reduce"
}
layer {
  name: "inception_4a/5x5"
  type: "Convolution"
  bottom: "inception_4a/5x5_reduce"
  top: "inception_4a/5x5"
  param {
    lr_mult: 1
    decay_mult: 1
  }
  param {
    lr_mult: 2
    decay_mult: 0
  }
  convolution_param {
    num_output: 48
    pad: 2
    kernel_size: 5
    weight_filler {
      type: "xavier"
    }
    bias_filler {
      type: "constant"
      value: 0.2
    }
  }
}
layer {
  name: "inception_4a/relu_5x5"
  type: "ReLU"
  bottom: "inception_4a/5x5"
  top: "inception_4a/5x5"
}
layer {
  name: "inception_4a/pool"
  type: "Pooling"
  bottom: "pool3/3x3_s2"
  top: "inception_4a/pool"
  pooling_param {
    pool: MAX
    kernel_size: 3
    stride: 1
    pad: 1
  }
}
layer {
  name: "inception_4a/pool_proj"
  type: "Convolution"
  bottom: "inception_4a/pool"
  top: "inception_4a/pool_proj"
  param {
    lr_mult: 1
    decay_mult: 1
  }
  param {
    lr_mult: 2
    decay_mult: 0
  }
  convolution_param {
    num_output: 64
    kernel_size: 1
    weight_filler {
      type: "xavier"
    }
    bias_filler {
      type: "constant"
      value: 0.2
    }
  }
}
layer {
  name: "inception_4a/relu_pool_proj"
  type: "ReLU"
  bottom: "inception_4a/pool_proj"
  top: "inception_4a/pool_proj"
}
layer {
  name: "inception_4a/output"
  type: "Concat"
  bottom: "inception_4a/1x1"
  bottom: "inception_4a/3x3"
  bottom: "inception_4a/5x5"
  bottom: "inception_4a/pool_proj"
  top: "inception_4a/output"
}
layer {
  name: "loss1/ave_pool"
  type: "Pooling"
  bottom: "inception_4a/output"
  top: "loss1/ave_pool"
  pooling_param {
    pool: AVE
    kernel_size: 5
    stride: 3
  }
}
layer {
  name: "loss1/conv"
  type: "Convolution"
  bottom: "loss1/ave_pool"
  top: "loss1/conv"
  param {
    lr_mult: 1
    decay_mult: 1
  }
  param {
    lr_mult: 2
    decay_mult: 0
  }
  convolution_param {
    num_output: 128
    kernel_size: 1
    weight_filler {
      type: "xavier"
    }
    bias_filler {
      type: "constant"
      value: 0.2
    }
  }
}
layer {
  name: "loss1/relu_conv"
  type: "ReLU"
  bottom: "loss1/conv"
  top: "loss1/conv"
}
layer {
  name: "loss1/fc"
  type: "InnerProduct"
  bottom: "loss1/conv"
  top: "loss1/fc"
  param {
    lr_mult: 1
    decay_mult: 1
  }
  param {
    lr_mult: 2
    decay_mult: 0
  }
  inner_product_param {
    num_output: 1024
    weight_filler {
      type: "xavier"
    }
    bias_filler {
      type: "constant"
      value: 0.2
    }
  }
}
layer {
  name: "loss1/relu_fc"
  type: "ReLU"
  bottom: "loss1/fc"
  top: "loss1/fc"
}
layer {
  name: "loss1/drop_fc"
  type: "Dropout"
  bottom: "loss1/fc"
  top: "loss1/fc"
  dropout_param {
    dropout_ratio: 0.7
  }
}
layer {
  name: "loss1/classifier-attribute"
  type: "InnerProduct"
  bottom: "loss1/fc"
  top: "loss1/classifier-attribute"
  param {
    lr_mult: 10
    decay_mult: 1
  }
  param {
    lr_mult: 20
    decay_mult: 0
  }
  inner_product_param {
    num_output: 16
    weight_filler {
      type: "xavier"
    }
    bias_filler {
      type: "constant"
      value: 0
    }
  }
}
layer {
  name: "loss1/loss"
  type: "SoftmaxWithLoss"
  bottom: "loss1/classifier-attribute"
  bottom: "label"
  top: "loss1/loss1"
  loss_weight: 0.3
}
layer {
  name: "inception_4b/1x1"
  type: "Convolution"
  bottom: "inception_4a/output"
  top: "inception_4b/1x1"
  param {
    lr_mult: 1
    decay_mult: 1
  }
  param {
    lr_mult: 2
    decay_mult: 0
  }
  convolution_param {
    num_output: 160
    kernel_size: 1
    weight_filler {
      type: "xavier"
    }
    bias_filler {
      type: "constant"
      value: 0.2
    }
  }
}
layer {
  name: "inception_4b/relu_1x1"
  type: "ReLU"
  bottom: "inception_4b/1x1"
  top: "inception_4b/1x1"
}
layer {
  name: "inception_4b/3x3_reduce"
  type: "Convolution"
  bottom: "inception_4a/output"
  top: "inception_4b/3x3_reduce"
  param {
    lr_mult: 1
    decay_mult: 1
  }
  param {
    lr_mult: 2
    decay_mult: 0
  }
  convolution_param {
    num_output: 112
    kernel_size: 1
    weight_filler {
      type: "xavier"
    }
    bias_filler {
      type: "constant"
      value: 0.2
    }
  }
}
layer {
  name: "inception_4b/relu_3x3_reduce"
  type: "ReLU"
  bottom: "inception_4b/3x3_reduce"
  top: "inception_4b/3x3_reduce"
}
layer {
  name: "inception_4b/3x3"
  type: "Convolution"
  bottom: "inception_4b/3x3_reduce"
  top: "inception_4b/3x3"
  param {
    lr_mult: 1
    decay_mult: 1
  }
  param {
    lr_mult: 2
    decay_mult: 0
  }
  convolution_param {
    num_output: 224
    pad: 1
    kernel_size: 3
    weight_filler {
      type: "xavier"
    }
    bias_filler {
      type: "constant"
      value: 0.2
    }
  }
}
layer {
  name: "inception_4b/relu_3x3"
  type: "ReLU"
  bottom: "inception_4b/3x3"
  top: "inception_4b/3x3"
}
layer {
  name: "inception_4b/5x5_reduce"
  type: "Convolution"
  bottom: "inception_4a/output"
  top: "inception_4b/5x5_reduce"
  param {
    lr_mult: 1
    decay_mult: 1
  }
  param {
    lr_mult: 2
    decay_mult: 0
  }
  convolution_param {
    num_output: 24
    kernel_size: 1
    weight_filler {
      type: "xavier"
    }
    bias_filler {
      type: "constant"
      value: 0.2
    }
  }
}
layer {
  name: "inception_4b/relu_5x5_reduce"
  type: "ReLU"
  bottom: "inception_4b/5x5_reduce"
  top: "inception_4b/5x5_reduce"
}
layer {
  name: "inception_4b/5x5"
  type: "Convolution"
  bottom: "inception_4b/5x5_reduce"
  top: "inception_4b/5x5"
  param {
    lr_mult: 1
    decay_mult: 1
  }
  param {
    lr_mult: 2
    decay_mult: 0
  }
  convolution_param {
    num_output: 64
    pad: 2
    kernel_size: 5
    weight_filler {
      type: "xavier"
    }
    bias_filler {
      type: "constant"
      value: 0.2
    }
  }
}
layer {
  name: "inception_4b/relu_5x5"
  type: "ReLU"
  bottom: "inception_4b/5x5"
  top: "inception_4b/5x5"
}
layer {
  name: "inception_4b/pool"
  type: "Pooling"
  bottom: "inception_4a/output"
  top: "inception_4b/pool"
  pooling_param {
    pool: MAX
    kernel_size: 3
    stride: 1
    pad: 1
  }
}
layer {
  name: "inception_4b/pool_proj"
  type: "Convolution"
  bottom: "inception_4b/pool"
  top: "inception_4b/pool_proj"
  param {
    lr_mult: 1
    decay_mult: 1
  }
  param {
    lr_mult: 2
    decay_mult: 0
  }
  convolution_param {
    num_output: 64
    kernel_size: 1
    weight_filler {
      type: "xavier"
    }
    bias_filler {
      type: "constant"
      value: 0.2
    }
  }
}
layer {
  name: "inception_4b/relu_pool_proj"
  type: "ReLU"
  bottom: "inception_4b/pool_proj"
  top: "inception_4b/pool_proj"
}
layer {
  name: "inception_4b/output"
  type: "Concat"
  bottom: "inception_4b/1x1"
  bottom: "inception_4b/3x3"
  bottom: "inception_4b/5x5"
  bottom: "inception_4b/pool_proj"
  top: "inception_4b/output"
}
layer {
  name: "inception_4c/1x1"
  type: "Convolution"
  bottom: "inception_4b/output"
  top: "inception_4c/1x1"
  param {
    lr_mult: 1
    decay_mult: 1
  }
  param {
    lr_mult: 2
    decay_mult: 0
  }
  convolution_param {
    num_output: 128
    kernel_size: 1
    weight_filler {
      type: "xavier"
    }
    bias_filler {
      type: "constant"
      value: 0.2
    }
  }
}
layer {
  name: "inception_4c/relu_1x1"
  type: "ReLU"
  bottom: "inception_4c/1x1"
  top: "inception_4c/1x1"
}
layer {
  name: "inception_4c/3x3_reduce"
  type: "Convolution"
  bottom: "inception_4b/output"
  top: "inception_4c/3x3_reduce"
  param {
    lr_mult: 1
    decay_mult: 1
  }
  param {
    lr_mult: 2
    decay_mult: 0
  }
  convolution_param {
    num_output: 128
    kernel_size: 1
    weight_filler {
      type: "xavier"
    }
    bias_filler {
      type: "constant"
      value: 0.2
    }
  }
}
layer {
  name: "inception_4c/relu_3x3_reduce"
  type: "ReLU"
  bottom: "inception_4c/3x3_reduce"
  top: "inception_4c/3x3_reduce"
}
layer {
  name: "inception_4c/3x3"
  type: "Convolution"
  bottom: "inception_4c/3x3_reduce"
  top: "inception_4c/3x3"
  param {
    lr_mult: 1
    decay_mult: 1
  }
  param {
    lr_mult: 2
    decay_mult: 0
  }
  convolution_param {
    num_output: 256
    pad: 1
    kernel_size: 3
    weight_filler {
      type: "xavier"
    }
    bias_filler {
      type: "constant"
      value: 0.2
    }
  }
}
layer {
  name: "inception_4c/relu_3x3"
  type: "ReLU"
  bottom: "inception_4c/3x3"
  top: "inception_4c/3x3"
}
layer {
  name: "inception_4c/5x5_reduce"
  type: "Convolution"
  bottom: "inception_4b/output"
  top: "inception_4c/5x5_reduce"
  param {
    lr_mult: 1
    decay_mult: 1
  }
  param {
    lr_mult: 2
    decay_mult: 0
  }
  convolution_param {
    num_output: 24
    kernel_size: 1
    weight_filler {
      type: "xavier"
    }
    bias_filler {
      type: "constant"
      value: 0.2
    }
  }
}
layer {
  name: "inception_4c/relu_5x5_reduce"
  type: "ReLU"
  bottom: "inception_4c/5x5_reduce"
  top: "inception_4c/5x5_reduce"
}
layer {
  name: "inception_4c/5x5"
  type: "Convolution"
  bottom: "inception_4c/5x5_reduce"
  top: "inception_4c/5x5"
  param {
    lr_mult: 1
    decay_mult: 1
  }
  param {
    lr_mult: 2
    decay_mult: 0
  }
  convolution_param {
    num_output: 64
    pad: 2
    kernel_size: 5
    weight_filler {
      type: "xavier"
    }
    bias_filler {
      type: "constant"
      value: 0.2
    }
  }
}
layer {
  name: "inception_4c/relu_5x5"
  type: "ReLU"
  bottom: "inception_4c/5x5"
  top: "inception_4c/5x5"
}
layer {
  name: "inception_4c/pool"
  type: "Pooling"
  bottom: "inception_4b/output"
  top: "inception_4c/pool"
  pooling_param {
    pool: MAX
    kernel_size: 3
    stride: 1
    pad: 1
  }
}
layer {
  name: "inception_4c/pool_proj"
  type: "Convolution"
  bottom: "inception_4c/pool"
  top: "inception_4c/pool_proj"
  param {
    lr_mult: 1
    decay_mult: 1
  }
  param {
    lr_mult: 2
    decay_mult: 0
  }
  convolution_param {
    num_output: 64
    kernel_size: 1
    weight_filler {
      type: "xavier"
    }
    bias_filler {
      type: "constant"
      value: 0.2
    }
  }
}
layer {
  name: "inception_4c/relu_pool_proj"
  type: "ReLU"
  bottom: "inception_4c/pool_proj"
  top: "inception_4c/pool_proj"
}
layer {
  name: "inception_4c/output"
  type: "Concat"
  bottom: "inception_4c/1x1"
  bottom: "inception_4c/3x3"
  bottom: "inception_4c/5x5"
  bottom: "inception_4c/pool_proj"
  top: "inception_4c/output"
}
layer {
  name: "inception_4d/1x1"
  type: "Convolution"
  bottom: "inception_4c/output"
  top: "inception_4d/1x1"
  param {
    lr_mult: 1
    decay_mult: 1
  }
  param {
    lr_mult: 2
    decay_mult: 0
  }
  convolution_param {
    num_output: 112
    kernel_size: 1
    weight_filler {
      type: "xavier"
    }
    bias_filler {
      type: "constant"
      value: 0.2
    }
  }
}
layer {
  name: "inception_4d/relu_1x1"
  type: "ReLU"
  bottom: "inception_4d/1x1"
  top: "inception_4d/1x1"
}
layer {
  name: "inception_4d/3x3_reduce"
  type: "Convolution"
  bottom: "inception_4c/output"
  top: "inception_4d/3x3_reduce"
  param {
    lr_mult: 1
    decay_mult: 1
  }
  param {
    lr_mult: 2
    decay_mult: 0
  }
  convolution_param {
    num_output: 144
    kernel_size: 1
    weight_filler {
      type: "xavier"
    }
    bias_filler {
      type: "constant"
      value: 0.2
    }
  }
}
layer {
  name: "inception_4d/relu_3x3_reduce"
  type: "ReLU"
  bottom: "inception_4d/3x3_reduce"
  top: "inception_4d/3x3_reduce"
}
layer {
  name: "inception_4d/3x3"
  type: "Convolution"
  bottom: "inception_4d/3x3_reduce"
  top: "inception_4d/3x3"
  param {
    lr_mult: 1
    decay_mult: 1
  }
  param {
    lr_mult: 2
    decay_mult: 0
  }
  convolution_param {
    num_output: 288
    pad: 1
    kernel_size: 3
    weight_filler {
      type: "xavier"
    }
    bias_filler {
      type: "constant"
      value: 0.2
    }
  }
}
layer {
  name: "inception_4d/relu_3x3"
  type: "ReLU"
  bottom: "inception_4d/3x3"
  top: "inception_4d/3x3"
}
layer {
  name: "inception_4d/5x5_reduce"
  type: "Convolution"
  bottom: "inception_4c/output"
  top: "inception_4d/5x5_reduce"
  param {
    lr_mult: 1
    decay_mult: 1
  }
  param {
    lr_mult: 2
    decay_mult: 0
  }
  convolution_param {
    num_output: 32
    kernel_size: 1
    weight_filler {
      type: "xavier"
    }
    bias_filler {
      type: "constant"
      value: 0.2
    }
  }
}
layer {
  name: "inception_4d/relu_5x5_reduce"
  type: "ReLU"
  bottom: "inception_4d/5x5_reduce"
  top: "inception_4d/5x5_reduce"
}
layer {
  name: "inception_4d/5x5"
  type: "Convolution"
  bottom: "inception_4d/5x5_reduce"
  top: "inception_4d/5x5"
  param {
    lr_mult: 1
    decay_mult: 1
  }
  param {
    lr_mult: 2
    decay_mult: 0
  }
  convolution_param {
    num_output: 64
    pad: 2
    kernel_size: 5
    weight_filler {
      type: "xavier"
    }
    bias_filler {
      type: "constant"
      value: 0.2
    }
  }
}
layer {
  name: "inception_4d/relu_5x5"
  type: "ReLU"
  bottom: "inception_4d/5x5"
  top: "inception_4d/5x5"
}
layer {
  name: "inception_4d/pool"
  type: "Pooling"
  bottom: "inception_4c/output"
  top: "inception_4d/pool"
  pooling_param {
    pool: MAX
    kernel_size: 3
    stride: 1
    pad: 1
  }
}
layer {
  name: "inception_4d/pool_proj"
  type: "Convolution"
  bottom: "inception_4d/pool"
  top: "inception_4d/pool_proj"
  param {
    lr_mult: 1
    decay_mult: 1
  }
  param {
    lr_mult: 2
    decay_mult: 0
  }
  convolution_param {
    num_output: 64
    kernel_size: 1
    weight_filler {
      type: "xavier"
    }
    bias_filler {
      type: "constant"
      value: 0.2
    }
  }
}
layer {
  name: "inception_4d/relu_pool_proj"
  type: "ReLU"
  bottom: "inception_4d/pool_proj"
  top: "inception_4d/pool_proj"
}
layer {
  name: "inception_4d/output"
  type: "Concat"
  bottom: "inception_4d/1x1"
  bottom: "inception_4d/3x3"
  bottom: "inception_4d/5x5"
  bottom: "inception_4d/pool_proj"
  top: "inception_4d/output"
}
layer {
  name: "loss2/ave_pool"
  type: "Pooling"
  bottom: "inception_4d/output"
  top: "loss2/ave_pool"
  pooling_param {
    pool: AVE
    kernel_size: 5
    stride: 3
  }
}
layer {
  name: "loss2/conv"
  type: "Convolution"
  bottom: "loss2/ave_pool"
  top: "loss2/conv"
  param {
    lr_mult: 1
    decay_mult: 1
  }
  param {
    lr_mult: 2
    decay_mult: 0
  }
  convolution_param {
    num_output: 128
    kernel_size: 1
    weight_filler {
      type: "xavier"
    }
    bias_filler {
      type: "constant"
      value: 0.2
    }
  }
}
layer {
  name: "loss2/relu_conv"
  type: "ReLU"
  bottom: "loss2/conv"
  top: "loss2/conv"
}
layer {
  name: "loss2/fc"
  type: "InnerProduct"
  bottom: "loss2/conv"
  top: "loss2/fc"
  param {
    lr_mult: 1
    decay_mult: 1
  }
  param {
    lr_mult: 2
    decay_mult: 0
  }
  inner_product_param {
    num_output: 1024
    weight_filler {
      type: "xavier"
    }
    bias_filler {
      type: "constant"
      value: 0.2
    }
  }
}
layer {
  name: "loss2/relu_fc"
  type: "ReLU"
  bottom: "loss2/fc"
  top: "loss2/fc"
}
layer {
  name: "loss2/drop_fc"
  type: "Dropout"
  bottom: "loss2/fc"
  top: "loss2/fc"
  dropout_param {
    dropout_ratio: 0.7
  }
}
layer {
  name: "loss2/classifier-attribute"
  type: "InnerProduct"
  bottom: "loss2/fc"
  top: "loss2/classifier-attribute"
  param {
    lr_mult: 10
    decay_mult: 1
  }
  param {
    lr_mult: 20
    decay_mult: 0
  }
  inner_product_param {
    num_output: 16
    weight_filler {
      type: "xavier"
    }
    bias_filler {
      type: "constant"
      value: 0
    }
  }
}
layer {
  name: "loss2/loss"
  type: "SoftmaxWithLoss"
  bottom: "loss2/classifier-attribute"
  bottom: "label"
  top: "loss2/loss1"
  loss_weight: 0.3
}
layer {
  name: "inception_4e/1x1"
  type: "Convolution"
  bottom: "inception_4d/output"
  top: "inception_4e/1x1"
  param {
    lr_mult: 1
    decay_mult: 1
  }
  param {
    lr_mult: 2
    decay_mult: 0
  }
  convolution_param {
    num_output: 256
    kernel_size: 1
    weight_filler {
      type: "xavier"
    }
    bias_filler {
      type: "constant"
      value: 0.2
    }
  }
}
layer {
  name: "inception_4e/relu_1x1"
  type: "ReLU"
  bottom: "inception_4e/1x1"
  top: "inception_4e/1x1"
}
layer {
  name: "inception_4e/3x3_reduce"
  type: "Convolution"
  bottom: "inception_4d/output"
  top: "inception_4e/3x3_reduce"
  param {
    lr_mult: 1
    decay_mult: 1
  }
  param {
    lr_mult: 2
    decay_mult: 0
  }
  convolution_param {
    num_output: 160
    kernel_size: 1
    weight_filler {
      type: "xavier"
    }
    bias_filler {
      type: "constant"
      value: 0.2
    }
  }
}
layer {
  name: "inception_4e/relu_3x3_reduce"
  type: "ReLU"
  bottom: "inception_4e/3x3_reduce"
  top: "inception_4e/3x3_reduce"
}
layer {
  name: "inception_4e/3x3"
  type: "Convolution"
  bottom: "inception_4e/3x3_reduce"
  top: "inception_4e/3x3"
  param {
    lr_mult: 1
    decay_mult: 1
  }
  param {
    lr_mult: 2
    decay_mult: 0
  }
  convolution_param {
    num_output: 320
    pad: 1
    kernel_size: 3
    weight_filler {
      type: "xavier"
    }
    bias_filler {
      type: "constant"
      value: 0.2
    }
  }
}
layer {
  name: "inception_4e/relu_3x3"
  type: "ReLU"
  bottom: "inception_4e/3x3"
  top: "inception_4e/3x3"
}
layer {
  name: "inception_4e/5x5_reduce"
  type: "Convolution"
  bottom: "inception_4d/output"
  top: "inception_4e/5x5_reduce"
  param {
    lr_mult: 1
    decay_mult: 1
  }
  param {
    lr_mult: 2
    decay_mult: 0
  }
  convolution_param {
    num_output: 32
    kernel_size: 1
    weight_filler {
      type: "xavier"
    }
    bias_filler {
      type: "constant"
      value: 0.2
    }
  }
}
layer {
  name: "inception_4e/relu_5x5_reduce"
  type: "ReLU"
  bottom: "inception_4e/5x5_reduce"
  top: "inception_4e/5x5_reduce"
}
layer {
  name: "inception_4e/5x5"
  type: "Convolution"
  bottom: "inception_4e/5x5_reduce"
  top: "inception_4e/5x5"
  param {
    lr_mult: 1
    decay_mult: 1
  }
  param {
    lr_mult: 2
    decay_mult: 0
  }
  convolution_param {
    num_output: 128
    pad: 2
    kernel_size: 5
    weight_filler {
      type: "xavier"
    }
    bias_filler {
      type: "constant"
      value: 0.2
    }
  }
}
layer {
  name: "inception_4e/relu_5x5"
  type: "ReLU"
  bottom: "inception_4e/5x5"
  top: "inception_4e/5x5"
}
layer {
  name: "inception_4e/pool"
  type: "Pooling"
  bottom: "inceptio
I1124 13:26:24.289516 12960 layer_factory.hpp:76] Creating layer data
I1124 13:26:24.289587 12960 net.cpp:106] Creating Layer data
I1124 13:26:24.289603 12960 net.cpp:411] data -> data
I1124 13:26:24.289650 12960 net.cpp:411] data -> label
I1124 13:26:24.290508 12960 image_data_layer.cpp:36] Opening file pad_train.txt
I1124 13:26:24.403734 12960 image_data_layer.cpp:46] Shuffling data
I1124 13:26:24.428997 12960 image_data_layer.cpp:51] A total of 193988 images.
I1124 13:26:24.470687 12960 image_data_layer.cpp:78] output data size: 64,3,224,224
I1124 13:26:24.521958 12960 net.cpp:150] Setting up data
I1124 13:26:24.521986 12960 net.cpp:157] Top shape: 64 3 224 224 (9633792)
I1124 13:26:24.521992 12960 net.cpp:157] Top shape: 64 (64)
I1124 13:26:24.521996 12960 net.cpp:165] Memory required for data: 38535424
I1124 13:26:24.522003 12960 layer_factory.hpp:76] Creating layer label_data_1_split
I1124 13:26:24.522022 12960 net.cpp:106] Creating Layer label_data_1_split
I1124 13:26:24.522027 12960 net.cpp:454] label_data_1_split <- label
I1124 13:26:24.522038 12960 net.cpp:411] label_data_1_split -> label_data_1_split_0
I1124 13:26:24.522047 12960 net.cpp:411] label_data_1_split -> label_data_1_split_1
I1124 13:26:24.522053 12960 net.cpp:411] label_data_1_split -> label_data_1_split_2
I1124 13:26:24.522151 12960 net.cpp:150] Setting up label_data_1_split
I1124 13:26:24.522161 12960 net.cpp:157] Top shape: 64 (64)
I1124 13:26:24.522164 12960 net.cpp:157] Top shape: 64 (64)
I1124 13:26:24.522168 12960 net.cpp:157] Top shape: 64 (64)
I1124 13:26:24.522171 12960 net.cpp:165] Memory required for data: 38536192
I1124 13:26:24.522174 12960 layer_factory.hpp:76] Creating layer conv1/7x7_s2
I1124 13:26:24.522188 12960 net.cpp:106] Creating Layer conv1/7x7_s2
I1124 13:26:24.522192 12960 net.cpp:454] conv1/7x7_s2 <- data
I1124 13:26:24.522197 12960 net.cpp:411] conv1/7x7_s2 -> conv1/7x7_s2
I1124 13:26:24.677176 12960 net.cpp:150] Setting up conv1/7x7_s2
I1124 13:26:24.677211 12960 net.cpp:157] Top shape: 64 64 112 112 (51380224)
I1124 13:26:24.677218 12960 net.cpp:165] Memory required for data: 244057088
I1124 13:26:24.677248 12960 layer_factory.hpp:76] Creating layer conv1/relu_7x7
I1124 13:26:24.677263 12960 net.cpp:106] Creating Layer conv1/relu_7x7
I1124 13:26:24.677270 12960 net.cpp:454] conv1/relu_7x7 <- conv1/7x7_s2
I1124 13:26:24.677280 12960 net.cpp:397] conv1/relu_7x7 -> conv1/7x7_s2 (in-place)
I1124 13:26:24.677718 12960 net.cpp:150] Setting up conv1/relu_7x7
I1124 13:26:24.677741 12960 net.cpp:157] Top shape: 64 64 112 112 (51380224)
I1124 13:26:24.677747 12960 net.cpp:165] Memory required for data: 449577984
I1124 13:26:24.677752 12960 layer_factory.hpp:76] Creating layer pool1/3x3_s2
I1124 13:26:24.677765 12960 net.cpp:106] Creating Layer pool1/3x3_s2
I1124 13:26:24.677772 12960 net.cpp:454] pool1/3x3_s2 <- conv1/7x7_s2
I1124 13:26:24.677781 12960 net.cpp:411] pool1/3x3_s2 -> pool1/3x3_s2
I1124 13:26:24.678083 12960 net.cpp:150] Setting up pool1/3x3_s2
I1124 13:26:24.678100 12960 net.cpp:157] Top shape: 64 64 56 56 (12845056)
I1124 13:26:24.678107 12960 net.cpp:165] Memory required for data: 500958208
I1124 13:26:24.678112 12960 layer_factory.hpp:76] Creating layer pool1/norm1
I1124 13:26:24.678127 12960 net.cpp:106] Creating Layer pool1/norm1
I1124 13:26:24.678133 12960 net.cpp:454] pool1/norm1 <- pool1/3x3_s2
I1124 13:26:24.678141 12960 net.cpp:411] pool1/norm1 -> pool1/norm1
I1124 13:26:24.678602 12960 net.cpp:150] Setting up pool1/norm1
I1124 13:26:24.678622 12960 net.cpp:157] Top shape: 64 64 56 56 (12845056)
I1124 13:26:24.678628 12960 net.cpp:165] Memory required for data: 552338432
I1124 13:26:24.678634 12960 layer_factory.hpp:76] Creating layer conv2/3x3_reduce
I1124 13:26:24.678653 12960 net.cpp:106] Creating Layer conv2/3x3_reduce
I1124 13:26:24.678663 12960 net.cpp:454] conv2/3x3_reduce <- pool1/norm1
I1124 13:26:24.678678 12960 net.cpp:411] conv2/3x3_reduce -> conv2/3x3_reduce
I1124 13:26:24.680577 12960 net.cpp:150] Setting up conv2/3x3_reduce
I1124 13:26:24.680603 12960 net.cpp:157] Top shape: 64 64 56 56 (12845056)
I1124 13:26:24.680609 12960 net.cpp:165] Memory required for data: 603718656
I1124 13:26:24.680624 12960 layer_factory.hpp:76] Creating layer conv2/relu_3x3_reduce
I1124 13:26:24.680634 12960 net.cpp:106] Creating Layer conv2/relu_3x3_reduce
I1124 13:26:24.680640 12960 net.cpp:454] conv2/relu_3x3_reduce <- conv2/3x3_reduce
I1124 13:26:24.680649 12960 net.cpp:397] conv2/relu_3x3_reduce -> conv2/3x3_reduce (in-place)
I1124 13:26:24.681064 12960 net.cpp:150] Setting up conv2/relu_3x3_reduce
I1124 13:26:24.681084 12960 net.cpp:157] Top shape: 64 64 56 56 (12845056)
I1124 13:26:24.681090 12960 net.cpp:165] Memory required for data: 655098880
I1124 13:26:24.681097 12960 layer_factory.hpp:76] Creating layer conv2/3x3
I1124 13:26:24.681113 12960 net.cpp:106] Creating Layer conv2/3x3
I1124 13:26:24.681118 12960 net.cpp:454] conv2/3x3 <- conv2/3x3_reduce
I1124 13:26:24.681128 12960 net.cpp:411] conv2/3x3 -> conv2/3x3
I1124 13:26:24.684367 12960 net.cpp:150] Setting up conv2/3x3
I1124 13:26:24.684391 12960 net.cpp:157] Top shape: 64 192 56 56 (38535168)
I1124 13:26:24.684397 12960 net.cpp:165] Memory required for data: 809239552
I1124 13:26:24.684412 12960 layer_factory.hpp:76] Creating layer conv2/relu_3x3
I1124 13:26:24.684422 12960 net.cpp:106] Creating Layer conv2/relu_3x3
I1124 13:26:24.684428 12960 net.cpp:454] conv2/relu_3x3 <- conv2/3x3
I1124 13:26:24.684437 12960 net.cpp:397] conv2/relu_3x3 -> conv2/3x3 (in-place)
I1124 13:26:24.684682 12960 net.cpp:150] Setting up conv2/relu_3x3
I1124 13:26:24.684698 12960 net.cpp:157] Top shape: 64 192 56 56 (38535168)
I1124 13:26:24.684703 12960 net.cpp:165] Memory required for data: 963380224
I1124 13:26:24.684710 12960 layer_factory.hpp:76] Creating layer conv2/norm2
I1124 13:26:24.684718 12960 net.cpp:106] Creating Layer conv2/norm2
I1124 13:26:24.684725 12960 net.cpp:454] conv2/norm2 <- conv2/3x3
I1124 13:26:24.684733 12960 net.cpp:411] conv2/norm2 -> conv2/norm2
I1124 13:26:24.685196 12960 net.cpp:150] Setting up conv2/norm2
I1124 13:26:24.685216 12960 net.cpp:157] Top shape: 64 192 56 56 (38535168)
I1124 13:26:24.685222 12960 net.cpp:165] Memory required for data: 1117520896
I1124 13:26:24.685228 12960 layer_factory.hpp:76] Creating layer pool2/3x3_s2
I1124 13:26:24.685240 12960 net.cpp:106] Creating Layer pool2/3x3_s2
I1124 13:26:24.685245 12960 net.cpp:454] pool2/3x3_s2 <- conv2/norm2
I1124 13:26:24.685255 12960 net.cpp:411] pool2/3x3_s2 -> pool2/3x3_s2
I1124 13:26:24.685534 12960 net.cpp:150] Setting up pool2/3x3_s2
I1124 13:26:24.685549 12960 net.cpp:157] Top shape: 64 192 28 28 (9633792)
I1124 13:26:24.685555 12960 net.cpp:165] Memory required for data: 1156056064
I1124 13:26:24.685562 12960 layer_factory.hpp:76] Creating layer pool2/3x3_s2_pool2/3x3_s2_0_split
I1124 13:26:24.685571 12960 net.cpp:106] Creating Layer pool2/3x3_s2_pool2/3x3_s2_0_split
I1124 13:26:24.685577 12960 net.cpp:454] pool2/3x3_s2_pool2/3x3_s2_0_split <- pool2/3x3_s2
I1124 13:26:24.685586 12960 net.cpp:411] pool2/3x3_s2_pool2/3x3_s2_0_split -> pool2/3x3_s2_pool2/3x3_s2_0_split_0
I1124 13:26:24.685597 12960 net.cpp:411] pool2/3x3_s2_pool2/3x3_s2_0_split -> pool2/3x3_s2_pool2/3x3_s2_0_split_1
I1124 13:26:24.685607 12960 net.cpp:411] pool2/3x3_s2_pool2/3x3_s2_0_split -> pool2/3x3_s2_pool2/3x3_s2_0_split_2
I1124 13:26:24.685616 12960 net.cpp:411] pool2/3x3_s2_pool2/3x3_s2_0_split -> pool2/3x3_s2_pool2/3x3_s2_0_split_3
I1124 13:26:24.685695 12960 net.cpp:150] Setting up pool2/3x3_s2_pool2/3x3_s2_0_split
I1124 13:26:24.685706 12960 net.cpp:157] Top shape: 64 192 28 28 (9633792)
I1124 13:26:24.685714 12960 net.cpp:157] Top shape: 64 192 28 28 (9633792)
I1124 13:26:24.685720 12960 net.cpp:157] Top shape: 64 192 28 28 (9633792)
I1124 13:26:24.685726 12960 net.cpp:157] Top shape: 64 192 28 28 (9633792)
I1124 13:26:24.685731 12960 net.cpp:165] Memory required for data: 1310196736
I1124 13:26:24.685736 12960 layer_factory.hpp:76] Creating layer inception_3a/1x1
I1124 13:26:24.685747 12960 net.cpp:106] Creating Layer inception_3a/1x1
I1124 13:26:24.685753 12960 net.cpp:454] inception_3a/1x1 <- pool2/3x3_s2_pool2/3x3_s2_0_split_0
I1124 13:26:24.685762 12960 net.cpp:411] inception_3a/1x1 -> inception_3a/1x1
I1124 13:26:24.687618 12960 net.cpp:150] Setting up inception_3a/1x1
I1124 13:26:24.687633 12960 net.cpp:157] Top shape: 64 64 28 28 (3211264)
I1124 13:26:24.687636 12960 net.cpp:165] Memory required for data: 1323041792
I1124 13:26:24.687643 12960 layer_factory.hpp:76] Creating layer inception_3a/relu_1x1
I1124 13:26:24.687649 12960 net.cpp:106] Creating Layer inception_3a/relu_1x1
I1124 13:26:24.687652 12960 net.cpp:454] inception_3a/relu_1x1 <- inception_3a/1x1
I1124 13:26:24.687657 12960 net.cpp:397] inception_3a/relu_1x1 -> inception_3a/1x1 (in-place)
I1124 13:26:24.687932 12960 net.cpp:150] Setting up inception_3a/relu_1x1
I1124 13:26:24.687944 12960 net.cpp:157] Top shape: 64 64 28 28 (3211264)
I1124 13:26:24.687948 12960 net.cpp:165] Memory required for data: 1335886848
I1124 13:26:24.687952 12960 layer_factory.hpp:76] Creating layer inception_3a/3x3_reduce
I1124 13:26:24.687960 12960 net.cpp:106] Creating Layer inception_3a/3x3_reduce
I1124 13:26:24.687963 12960 net.cpp:454] inception_3a/3x3_reduce <- pool2/3x3_s2_pool2/3x3_s2_0_split_1
I1124 13:26:24.687969 12960 net.cpp:411] inception_3a/3x3_reduce -> inception_3a/3x3_reduce
I1124 13:26:24.689395 12960 net.cpp:150] Setting up inception_3a/3x3_reduce
I1124 13:26:24.689409 12960 net.cpp:157] Top shape: 64 96 28 28 (4816896)
I1124 13:26:24.689414 12960 net.cpp:165] Memory required for data: 1355154432
I1124 13:26:24.689424 12960 layer_factory.hpp:76] Creating layer inception_3a/relu_3x3_reduce
I1124 13:26:24.689431 12960 net.cpp:106] Creating Layer inception_3a/relu_3x3_reduce
I1124 13:26:24.689435 12960 net.cpp:454] inception_3a/relu_3x3_reduce <- inception_3a/3x3_reduce
I1124 13:26:24.689440 12960 net.cpp:397] inception_3a/relu_3x3_reduce -> inception_3a/3x3_reduce (in-place)
I1124 13:26:24.689591 12960 net.cpp:150] Setting up inception_3a/relu_3x3_reduce
I1124 13:26:24.689600 12960 net.cpp:157] Top shape: 64 96 28 28 (4816896)
I1124 13:26:24.689604 12960 net.cpp:165] Memory required for data: 1374422016
I1124 13:26:24.689607 12960 layer_factory.hpp:76] Creating layer inception_3a/3x3
I1124 13:26:24.689615 12960 net.cpp:106] Creating Layer inception_3a/3x3
I1124 13:26:24.689620 12960 net.cpp:454] inception_3a/3x3 <- inception_3a/3x3_reduce
I1124 13:26:24.689625 12960 net.cpp:411] inception_3a/3x3 -> inception_3a/3x3
I1124 13:26:24.691326 12960 net.cpp:150] Setting up inception_3a/3x3
I1124 13:26:24.691340 12960 net.cpp:157] Top shape: 64 128 28 28 (6422528)
I1124 13:26:24.691344 12960 net.cpp:165] Memory required for data: 1400112128
I1124 13:26:24.691350 12960 layer_factory.hpp:76] Creating layer inception_3a/relu_3x3
I1124 13:26:24.691357 12960 net.cpp:106] Creating Layer inception_3a/relu_3x3
I1124 13:26:24.691360 12960 net.cpp:454] inception_3a/relu_3x3 <- inception_3a/3x3
I1124 13:26:24.691365 12960 net.cpp:397] inception_3a/relu_3x3 -> inception_3a/3x3 (in-place)
I1124 13:26:24.691527 12960 net.cpp:150] Setting up inception_3a/relu_3x3
I1124 13:26:24.691539 12960 net.cpp:157] Top shape: 64 128 28 28 (6422528)
I1124 13:26:24.691542 12960 net.cpp:165] Memory required for data: 1425802240
I1124 13:26:24.691545 12960 layer_factory.hpp:76] Creating layer inception_3a/5x5_reduce
I1124 13:26:24.691553 12960 net.cpp:106] Creating Layer inception_3a/5x5_reduce
I1124 13:26:24.691556 12960 net.cpp:454] inception_3a/5x5_reduce <- pool2/3x3_s2_pool2/3x3_s2_0_split_2
I1124 13:26:24.691562 12960 net.cpp:411] inception_3a/5x5_reduce -> inception_3a/5x5_reduce
I1124 13:26:24.692467 12960 net.cpp:150] Setting up inception_3a/5x5_reduce
I1124 13:26:24.692481 12960 net.cpp:157] Top shape: 64 16 28 28 (802816)
I1124 13:26:24.692484 12960 net.cpp:165] Memory required for data: 1429013504
I1124 13:26:24.692490 12960 layer_factory.hpp:76] Creating layer inception_3a/relu_5x5_reduce
I1124 13:26:24.692497 12960 net.cpp:106] Creating Layer inception_3a/relu_5x5_reduce
I1124 13:26:24.692500 12960 net.cpp:454] inception_3a/relu_5x5_reduce <- inception_3a/5x5_reduce
I1124 13:26:24.692505 12960 net.cpp:397] inception_3a/relu_5x5_reduce -> inception_3a/5x5_reduce (in-place)
I1124 13:26:24.692780 12960 net.cpp:150] Setting up inception_3a/relu_5x5_reduce
I1124 13:26:24.692791 12960 net.cpp:157] Top shape: 64 16 28 28 (802816)
I1124 13:26:24.692795 12960 net.cpp:165] Memory required for data: 1432224768
I1124 13:26:24.692798 12960 layer_factory.hpp:76] Creating layer inception_3a/5x5
I1124 13:26:24.692806 12960 net.cpp:106] Creating Layer inception_3a/5x5
I1124 13:26:24.692811 12960 net.cpp:454] inception_3a/5x5 <- inception_3a/5x5_reduce
I1124 13:26:24.692816 12960 net.cpp:411] inception_3a/5x5 -> inception_3a/5x5
I1124 13:26:24.693781 12960 net.cpp:150] Setting up inception_3a/5x5
I1124 13:26:24.693795 12960 net.cpp:157] Top shape: 64 32 28 28 (1605632)
I1124 13:26:24.693799 12960 net.cpp:165] Memory required for data: 1438647296
I1124 13:26:24.693805 12960 layer_factory.hpp:76] Creating layer inception_3a/relu_5x5
I1124 13:26:24.693811 12960 net.cpp:106] Creating Layer inception_3a/relu_5x5
I1124 13:26:24.693815 12960 net.cpp:454] inception_3a/relu_5x5 <- inception_3a/5x5
I1124 13:26:24.693820 12960 net.cpp:397] inception_3a/relu_5x5 -> inception_3a/5x5 (in-place)
I1124 13:26:24.693969 12960 net.cpp:150] Setting up inception_3a/relu_5x5
I1124 13:26:24.693979 12960 net.cpp:157] Top shape: 64 32 28 28 (1605632)
I1124 13:26:24.693982 12960 net.cpp:165] Memory required for data: 1445069824
I1124 13:26:24.693985 12960 layer_factory.hpp:76] Creating layer inception_3a/pool
I1124 13:26:24.693991 12960 net.cpp:106] Creating Layer inception_3a/pool
I1124 13:26:24.693995 12960 net.cpp:454] inception_3a/pool <- pool2/3x3_s2_pool2/3x3_s2_0_split_3
I1124 13:26:24.694000 12960 net.cpp:411] inception_3a/pool -> inception_3a/pool
I1124 13:26:24.694299 12960 net.cpp:150] Setting up inception_3a/pool
I1124 13:26:24.694311 12960 net.cpp:157] Top shape: 64 192 28 28 (9633792)
I1124 13:26:24.694314 12960 net.cpp:165] Memory required for data: 1483604992
I1124 13:26:24.694319 12960 layer_factory.hpp:76] Creating layer inception_3a/pool_proj
I1124 13:26:24.694325 12960 net.cpp:106] Creating Layer inception_3a/pool_proj
I1124 13:26:24.694329 12960 net.cpp:454] inception_3a/pool_proj <- inception_3a/pool
I1124 13:26:24.694335 12960 net.cpp:411] inception_3a/pool_proj -> inception_3a/pool_proj
I1124 13:26:24.695142 12960 net.cpp:150] Setting up inception_3a/pool_proj
I1124 13:26:24.695157 12960 net.cpp:157] Top shape: 64 32 28 28 (1605632)
I1124 13:26:24.695160 12960 net.cpp:165] Memory required for data: 1490027520
I1124 13:26:24.695169 12960 layer_factory.hpp:76] Creating layer inception_3a/relu_pool_proj
I1124 13:26:24.695175 12960 net.cpp:106] Creating Layer inception_3a/relu_pool_proj
I1124 13:26:24.695178 12960 net.cpp:454] inception_3a/relu_pool_proj <- inception_3a/pool_proj
I1124 13:26:24.695183 12960 net.cpp:397] inception_3a/relu_pool_proj -> inception_3a/pool_proj (in-place)
I1124 13:26:24.695459 12960 net.cpp:150] Setting up inception_3a/relu_pool_proj
I1124 13:26:24.695472 12960 net.cpp:157] Top shape: 64 32 28 28 (1605632)
I1124 13:26:24.695475 12960 net.cpp:165] Memory required for data: 1496450048
I1124 13:26:24.695478 12960 layer_factory.hpp:76] Creating layer inception_3a/output
I1124 13:26:24.695488 12960 net.cpp:106] Creating Layer inception_3a/output
I1124 13:26:24.695492 12960 net.cpp:454] inception_3a/output <- inception_3a/1x1
I1124 13:26:24.695497 12960 net.cpp:454] inception_3a/output <- inception_3a/3x3
I1124 13:26:24.695500 12960 net.cpp:454] inception_3a/output <- inception_3a/5x5
I1124 13:26:24.695504 12960 net.cpp:454] inception_3a/output <- inception_3a/pool_proj
I1124 13:26:24.695508 12960 net.cpp:411] inception_3a/output -> inception_3a/output
I1124 13:26:24.695538 12960 net.cpp:150] Setting up inception_3a/output
I1124 13:26:24.695543 12960 net.cpp:157] Top shape: 64 256 28 28 (12845056)
I1124 13:26:24.695545 12960 net.cpp:165] Memory required for data: 1547830272
I1124 13:26:24.695549 12960 layer_factory.hpp:76] Creating layer inception_3a/output_inception_3a/output_0_split
I1124 13:26:24.695554 12960 net.cpp:106] Creating Layer inception_3a/output_inception_3a/output_0_split
I1124 13:26:24.695557 12960 net.cpp:454] inception_3a/output_inception_3a/output_0_split <- inception_3a/output
I1124 13:26:24.695562 12960 net.cpp:411] inception_3a/output_inception_3a/output_0_split -> inception_3a/output_inception_3a/output_0_split_0
I1124 13:26:24.695569 12960 net.cpp:411] inception_3a/output_inception_3a/output_0_split -> inception_3a/output_inception_3a/output_0_split_1
I1124 13:26:24.695574 12960 net.cpp:411] inception_3a/output_inception_3a/output_0_split -> inception_3a/output_inception_3a/output_0_split_2
I1124 13:26:24.695579 12960 net.cpp:411] inception_3a/output_inception_3a/output_0_split -> inception_3a/output_inception_3a/output_0_split_3
I1124 13:26:24.695636 12960 net.cpp:150] Setting up inception_3a/output_inception_3a/output_0_split
I1124 13:26:24.695648 12960 net.cpp:157] Top shape: 64 256 28 28 (12845056)
I1124 13:26:24.695652 12960 net.cpp:157] Top shape: 64 256 28 28 (12845056)
I1124 13:26:24.695657 12960 net.cpp:157] Top shape: 64 256 28 28 (12845056)
I1124 13:26:24.695659 12960 net.cpp:157] Top shape: 64 256 28 28 (12845056)
I1124 13:26:24.695662 12960 net.cpp:165] Memory required for data: 1753351168
I1124 13:26:24.695665 12960 layer_factory.hpp:76] Creating layer inception_3b/1x1
I1124 13:26:24.695672 12960 net.cpp:106] Creating Layer inception_3b/1x1
I1124 13:26:24.695675 12960 net.cpp:454] inception_3b/1x1 <- inception_3a/output_inception_3a/output_0_split_0
I1124 13:26:24.695682 12960 net.cpp:411] inception_3b/1x1 -> inception_3b/1x1
I1124 13:26:24.696763 12960 net.cpp:150] Setting up inception_3b/1x1
I1124 13:26:24.696776 12960 net.cpp:157] Top shape: 64 128 28 28 (6422528)
I1124 13:26:24.696780 12960 net.cpp:165] Memory required for data: 1779041280
I1124 13:26:24.696786 12960 layer_factory.hpp:76] Creating layer inception_3b/relu_1x1
I1124 13:26:24.696792 12960 net.cpp:106] Creating Layer inception_3b/relu_1x1
I1124 13:26:24.696795 12960 net.cpp:454] inception_3b/relu_1x1 <- inception_3b/1x1
I1124 13:26:24.696801 12960 net.cpp:397] inception_3b/relu_1x1 -> inception_3b/1x1 (in-place)
I1124 13:26:24.696951 12960 net.cpp:150] Setting up inception_3b/relu_1x1
I1124 13:26:24.696960 12960 net.cpp:157] Top shape: 64 128 28 28 (6422528)
I1124 13:26:24.696964 12960 net.cpp:165] Memory required for data: 1804731392
I1124 13:26:24.696967 12960 layer_factory.hpp:76] Creating layer inception_3b/3x3_reduce
I1124 13:26:24.696974 12960 net.cpp:106] Creating Layer inception_3b/3x3_reduce
I1124 13:26:24.696977 12960 net.cpp:454] inception_3b/3x3_reduce <- inception_3a/output_inception_3a/output_0_split_1
I1124 13:26:24.696984 12960 net.cpp:411] inception_3b/3x3_reduce -> inception_3b/3x3_reduce
I1124 13:26:24.698065 12960 net.cpp:150] Setting up inception_3b/3x3_reduce
I1124 13:26:24.698077 12960 net.cpp:157] Top shape: 64 128 28 28 (6422528)
I1124 13:26:24.698081 12960 net.cpp:165] Memory required for data: 1830421504
I1124 13:26:24.698087 12960 layer_factory.hpp:76] Creating layer inception_3b/relu_3x3_reduce
I1124 13:26:24.698094 12960 net.cpp:106] Creating Layer inception_3b/relu_3x3_reduce
I1124 13:26:24.698098 12960 net.cpp:454] inception_3b/relu_3x3_reduce <- inception_3b/3x3_reduce
I1124 13:26:24.698102 12960 net.cpp:397] inception_3b/relu_3x3_reduce -> inception_3b/3x3_reduce (in-place)
I1124 13:26:24.698379 12960 net.cpp:150] Setting up inception_3b/relu_3x3_reduce
I1124 13:26:24.698391 12960 net.cpp:157] Top shape: 64 128 28 28 (6422528)
I1124 13:26:24.698395 12960 net.cpp:165] Memory required for data: 1856111616
I1124 13:26:24.698398 12960 layer_factory.hpp:76] Creating layer inception_3b/3x3
I1124 13:26:24.698410 12960 net.cpp:106] Creating Layer inception_3b/3x3
I1124 13:26:24.698413 12960 net.cpp:454] inception_3b/3x3 <- inception_3b/3x3_reduce
I1124 13:26:24.698420 12960 net.cpp:411] inception_3b/3x3 -> inception_3b/3x3
I1124 13:26:24.701340 12960 net.cpp:150] Setting up inception_3b/3x3
I1124 13:26:24.701355 12960 net.cpp:157] Top shape: 64 192 28 28 (9633792)
I1124 13:26:24.701359 12960 net.cpp:165] Memory required for data: 1894646784
I1124 13:26:24.701365 12960 layer_factory.hpp:76] Creating layer inception_3b/relu_3x3
I1124 13:26:24.701371 12960 net.cpp:106] Creating Layer inception_3b/relu_3x3
I1124 13:26:24.701375 12960 net.cpp:454] inception_3b/relu_3x3 <- inception_3b/3x3
I1124 13:26:24.701380 12960 net.cpp:397] inception_3b/relu_3x3 -> inception_3b/3x3 (in-place)
I1124 13:26:24.701794 12960 net.cpp:150] Setting up inception_3b/relu_3x3
I1124 13:26:24.701807 12960 net.cpp:157] Top shape: 64 192 28 28 (9633792)
I1124 13:26:24.701812 12960 net.cpp:165] Memory required for data: 1933181952
I1124 13:26:24.701814 12960 layer_factory.hpp:76] Creating layer inception_3b/5x5_reduce
I1124 13:26:24.701822 12960 net.cpp:106] Creating Layer inception_3b/5x5_reduce
I1124 13:26:24.701827 12960 net.cpp:454] inception_3b/5x5_reduce <- inception_3a/output_inception_3a/output_0_split_2
I1124 13:26:24.701833 12960 net.cpp:411] inception_3b/5x5_reduce -> inception_3b/5x5_reduce
I1124 13:26:24.702811 12960 net.cpp:150] Setting up inception_3b/5x5_reduce
I1124 13:26:24.702824 12960 net.cpp:157] Top shape: 64 32 28 28 (1605632)
I1124 13:26:24.702829 12960 net.cpp:165] Memory required for data: 1939604480
I1124 13:26:24.702836 12960 layer_factory.hpp:76] Creating layer inception_3b/relu_5x5_reduce
I1124 13:26:24.702842 12960 net.cpp:106] Creating Layer inception_3b/relu_5x5_reduce
I1124 13:26:24.702847 12960 net.cpp:454] inception_3b/relu_5x5_reduce <- inception_3b/5x5_reduce
I1124 13:26:24.702852 12960 net.cpp:397] inception_3b/relu_5x5_reduce -> inception_3b/5x5_reduce (in-place)
I1124 13:26:24.703022 12960 net.cpp:150] Setting up inception_3b/relu_5x5_reduce
I1124 13:26:24.703034 12960 net.cpp:157] Top shape: 64 32 28 28 (1605632)
I1124 13:26:24.703040 12960 net.cpp:165] Memory required for data: 1946027008
I1124 13:26:24.703045 12960 layer_factory.hpp:76] Creating layer inception_3b/5x5
I1124 13:26:24.703055 12960 net.cpp:106] Creating Layer inception_3b/5x5
I1124 13:26:24.703058 12960 net.cpp:454] inception_3b/5x5 <- inception_3b/5x5_reduce
I1124 13:26:24.703068 12960 net.cpp:411] inception_3b/5x5 -> inception_3b/5x5
I1124 13:26:24.704947 12960 net.cpp:150] Setting up inception_3b/5x5
I1124 13:26:24.704962 12960 net.cpp:157] Top shape: 64 96 28 28 (4816896)
I1124 13:26:24.704965 12960 net.cpp:165] Memory required for data: 1965294592
I1124 13:26:24.704972 12960 layer_factory.hpp:76] Creating layer inception_3b/relu_5x5
I1124 13:26:24.704977 12960 net.cpp:106] Creating Layer inception_3b/relu_5x5
I1124 13:26:24.704982 12960 net.cpp:454] inception_3b/relu_5x5 <- inception_3b/5x5
I1124 13:26:24.704988 12960 net.cpp:397] inception_3b/relu_5x5 -> inception_3b/5x5 (in-place)
I1124 13:26:24.705289 12960 net.cpp:150] Setting up inception_3b/relu_5x5
I1124 13:26:24.705302 12960 net.cpp:157] Top shape: 64 96 28 28 (4816896)
I1124 13:26:24.705306 12960 net.cpp:165] Memory required for data: 1984562176
I1124 13:26:24.705308 12960 layer_factory.hpp:76] Creating layer inception_3b/pool
I1124 13:26:24.705317 12960 net.cpp:106] Creating Layer inception_3b/pool
I1124 13:26:24.705320 12960 net.cpp:454] inception_3b/pool <- inception_3a/output_inception_3a/output_0_split_3
I1124 13:26:24.705325 12960 net.cpp:411] inception_3b/pool -> inception_3b/pool
I1124 13:26:24.705514 12960 net.cpp:150] Setting up inception_3b/pool
I1124 13:26:24.705524 12960 net.cpp:157] Top shape: 64 256 28 28 (12845056)
I1124 13:26:24.705528 12960 net.cpp:165] Memory required for data: 2035942400
I1124 13:26:24.705530 12960 layer_factory.hpp:76] Creating layer inception_3b/pool_proj
I1124 13:26:24.705539 12960 net.cpp:106] Creating Layer inception_3b/pool_proj
I1124 13:26:24.705543 12960 net.cpp:454] inception_3b/pool_proj <- inception_3b/pool
I1124 13:26:24.705549 12960 net.cpp:411] inception_3b/pool_proj -> inception_3b/pool_proj
I1124 13:26:24.706605 12960 net.cpp:150] Setting up inception_3b/pool_proj
I1124 13:26:24.706619 12960 net.cpp:157] Top shape: 64 64 28 28 (3211264)
I1124 13:26:24.706622 12960 net.cpp:165] Memory required for data: 2048787456
I1124 13:26:24.706629 12960 layer_factory.hpp:76] Creating layer inception_3b/relu_pool_proj
I1124 13:26:24.706634 12960 net.cpp:106] Creating Layer inception_3b/relu_pool_proj
I1124 13:26:24.706639 12960 net.cpp:454] inception_3b/relu_pool_proj <- inception_3b/pool_proj
I1124 13:26:24.706643 12960 net.cpp:397] inception_3b/relu_pool_proj -> inception_3b/pool_proj (in-place)
I1124 13:26:24.706807 12960 net.cpp:150] Setting up inception_3b/relu_pool_proj
I1124 13:26:24.706816 12960 net.cpp:157] Top shape: 64 64 28 28 (3211264)
I1124 13:26:24.706820 12960 net.cpp:165] Memory required for data: 2061632512
I1124 13:26:24.706823 12960 layer_factory.hpp:76] Creating layer inception_3b/output
I1124 13:26:24.706830 12960 net.cpp:106] Creating Layer inception_3b/output
I1124 13:26:24.706833 12960 net.cpp:454] inception_3b/output <- inception_3b/1x1
I1124 13:26:24.706837 12960 net.cpp:454] inception_3b/output <- inception_3b/3x3
I1124 13:26:24.706841 12960 net.cpp:454] inception_3b/output <- inception_3b/5x5
I1124 13:26:24.706845 12960 net.cpp:454] inception_3b/output <- inception_3b/pool_proj
I1124 13:26:24.706850 12960 net.cpp:411] inception_3b/output -> inception_3b/output
I1124 13:26:24.706881 12960 net.cpp:150] Setting up inception_3b/output
I1124 13:26:24.706888 12960 net.cpp:157] Top shape: 64 480 28 28 (24084480)
I1124 13:26:24.706892 12960 net.cpp:165] Memory required for data: 2157970432
I1124 13:26:24.706894 12960 layer_factory.hpp:76] Creating layer pool3/3x3_s2
I1124 13:26:24.706899 12960 net.cpp:106] Creating Layer pool3/3x3_s2
I1124 13:26:24.706902 12960 net.cpp:454] pool3/3x3_s2 <- inception_3b/output
I1124 13:26:24.706908 12960 net.cpp:411] pool3/3x3_s2 -> pool3/3x3_s2
I1124 13:26:24.707231 12960 net.cpp:150] Setting up pool3/3x3_s2
I1124 13:26:24.707244 12960 net.cpp:157] Top shape: 64 480 14 14 (6021120)
I1124 13:26:24.707247 12960 net.cpp:165] Memory required for data: 2182054912
I1124 13:26:24.707250 12960 layer_factory.hpp:76] Creating layer pool3/3x3_s2_pool3/3x3_s2_0_split
I1124 13:26:24.707257 12960 net.cpp:106] Creating Layer pool3/3x3_s2_pool3/3x3_s2_0_split
I1124 13:26:24.707262 12960 net.cpp:454] pool3/3x3_s2_pool3/3x3_s2_0_split <- pool3/3x3_s2
I1124 13:26:24.707269 12960 net.cpp:411] pool3/3x3_s2_pool3/3x3_s2_0_split -> pool3/3x3_s2_pool3/3x3_s2_0_split_0
I1124 13:26:24.707279 12960 net.cpp:411] pool3/3x3_s2_pool3/3x3_s2_0_split -> pool3/3x3_s2_pool3/3x3_s2_0_split_1
I1124 13:26:24.707286 12960 net.cpp:411] pool3/3x3_s2_pool3/3x3_s2_0_split -> pool3/3x3_s2_pool3/3x3_s2_0_split_2
I1124 13:26:24.707291 12960 net.cpp:411] pool3/3x3_s2_pool3/3x3_s2_0_split -> pool3/3x3_s2_pool3/3x3_s2_0_split_3
I1124 13:26:24.707350 12960 net.cpp:150] Setting up pool3/3x3_s2_pool3/3x3_s2_0_split
I1124 13:26:24.707358 12960 net.cpp:157] Top shape: 64 480 14 14 (6021120)
I1124 13:26:24.707362 12960 net.cpp:157] Top shape: 64 480 14 14 (6021120)
I1124 13:26:24.707365 12960 net.cpp:157] Top shape: 64 480 14 14 (6021120)
I1124 13:26:24.707370 12960 net.cpp:157] Top shape: 64 480 14 14 (6021120)
I1124 13:26:24.707371 12960 net.cpp:165] Memory required for data: 2278392832
I1124 13:26:24.707376 12960 layer_factory.hpp:76] Creating layer inception_4a/1x1
I1124 13:26:24.707383 12960 net.cpp:106] Creating Layer inception_4a/1x1
I1124 13:26:24.707386 12960 net.cpp:454] inception_4a/1x1 <- pool3/3x3_s2_pool3/3x3_s2_0_split_0
I1124 13:26:24.707392 12960 net.cpp:411] inception_4a/1x1 -> inception_4a/1x1
I1124 13:26:24.709038 12960 net.cpp:150] Setting up inception_4a/1x1
I1124 13:26:24.709053 12960 net.cpp:157] Top shape: 64 192 14 14 (2408448)
I1124 13:26:24.709058 12960 net.cpp:165] Memory required for data: 2288026624
I1124 13:26:24.709064 12960 layer_factory.hpp:76] Creating layer inception_4a/relu_1x1
I1124 13:26:24.709069 12960 net.cpp:106] Creating Layer inception_4a/relu_1x1
I1124 13:26:24.709074 12960 net.cpp:454] inception_4a/relu_1x1 <- inception_4a/1x1
I1124 13:26:24.709079 12960 net.cpp:397] inception_4a/relu_1x1 -> inception_4a/1x1 (in-place)
I1124 13:26:24.709244 12960 net.cpp:150] Setting up inception_4a/relu_1x1
I1124 13:26:24.709254 12960 net.cpp:157] Top shape: 64 192 14 14 (2408448)
I1124 13:26:24.709259 12960 net.cpp:165] Memory required for data: 2297660416
I1124 13:26:24.709261 12960 layer_factory.hpp:76] Creating layer inception_4a/3x3_reduce
I1124 13:26:24.709269 12960 net.cpp:106] Creating Layer inception_4a/3x3_reduce
I1124 13:26:24.709272 12960 net.cpp:454] inception_4a/3x3_reduce <- pool3/3x3_s2_pool3/3x3_s2_0_split_1
I1124 13:26:24.709280 12960 net.cpp:411] inception_4a/3x3_reduce -> inception_4a/3x3_reduce
I1124 13:26:24.710556 12960 net.cpp:150] Setting up inception_4a/3x3_reduce
I1124 13:26:24.710569 12960 net.cpp:157] Top shape: 64 96 14 14 (1204224)
I1124 13:26:24.710573 12960 net.cpp:165] Memory required for data: 2302477312
I1124 13:26:24.710585 12960 layer_factory.hpp:76] Creating layer inception_4a/relu_3x3_reduce
I1124 13:26:24.710592 12960 net.cpp:106] Creating Layer inception_4a/relu_3x3_reduce
I1124 13:26:24.710595 12960 net.cpp:454] inception_4a/relu_3x3_reduce <- inception_4a/3x3_reduce
I1124 13:26:24.710600 12960 net.cpp:397] inception_4a/relu_3x3_reduce -> inception_4a/3x3_reduce (in-place)
I1124 13:26:24.710907 12960 net.cpp:150] Setting up inception_4a/relu_3x3_reduce
I1124 13:26:24.710921 12960 net.cpp:157] Top shape: 64 96 14 14 (1204224)
I1124 13:26:24.710924 12960 net.cpp:165] Memory required for data: 2307294208
I1124 13:26:24.710927 12960 layer_factory.hpp:76] Creating layer inception_4a/3x3
I1124 13:26:24.710937 12960 net.cpp:106] Creating Layer inception_4a/3x3
I1124 13:26:24.710942 12960 net.cpp:454] inception_4a/3x3 <- inception_4a/3x3_reduce
I1124 13:26:24.710947 12960 net.cpp:411] inception_4a/3x3 -> inception_4a/3x3
I1124 13:26:24.713359 12960 net.cpp:150] Setting up inception_4a/3x3
I1124 13:26:24.713373 12960 net.cpp:157] Top shape: 64 208 14 14 (2609152)
I1124 13:26:24.713377 12960 net.cpp:165] Memory required for data: 2317730816
I1124 13:26:24.713383 12960 layer_factory.hpp:76] Creating layer inception_4a/relu_3x3
I1124 13:26:24.713389 12960 net.cpp:106] Creating Layer inception_4a/relu_3x3
I1124 13:26:24.713393 12960 net.cpp:454] inception_4a/relu_3x3 <- inception_4a/3x3
I1124 13:26:24.713399 12960 net.cpp:397] inception_4a/relu_3x3 -> inception_4a/3x3 (in-place)
I1124 13:26:24.713701 12960 net.cpp:150] Setting up inception_4a/relu_3x3
I1124 13:26:24.713716 12960 net.cpp:157] Top shape: 64 208 14 14 (2609152)
I1124 13:26:24.713718 12960 net.cpp:165] Memory required for data: 2328167424
I1124 13:26:24.713721 12960 layer_factory.hpp:76] Creating layer inception_4a/5x5_reduce
I1124 13:26:24.713731 12960 net.cpp:106] Creating Layer inception_4a/5x5_reduce
I1124 13:26:24.713735 12960 net.cpp:454] inception_4a/5x5_reduce <- pool3/3x3_s2_pool3/3x3_s2_0_split_2
I1124 13:26:24.713742 12960 net.cpp:411] inception_4a/5x5_reduce -> inception_4a/5x5_reduce
I1124 13:26:24.714767 12960 net.cpp:150] Setting up inception_4a/5x5_reduce
I1124 13:26:24.714781 12960 net.cpp:157] Top shape: 64 16 14 14 (200704)
I1124 13:26:24.714787 12960 net.cpp:165] Memory required for data: 2328970240
I1124 13:26:24.714792 12960 layer_factory.hpp:76] Creating layer inception_4a/relu_5x5_reduce
I1124 13:26:24.714797 12960 net.cpp:106] Creating Layer inception_4a/relu_5x5_reduce
I1124 13:26:24.714802 12960 net.cpp:454] inception_4a/relu_5x5_reduce <- inception_4a/5x5_reduce
I1124 13:26:24.714807 12960 net.cpp:397] inception_4a/relu_5x5_reduce -> inception_4a/5x5_reduce (in-place)
I1124 13:26:24.715232 12960 net.cpp:150] Setting up inception_4a/relu_5x5_reduce
I1124 13:26:24.715246 12960 net.cpp:157] Top shape: 64 16 14 14 (200704)
I1124 13:26:24.715250 12960 net.cpp:165] Memory required for data: 2329773056
I1124 13:26:24.715253 12960 layer_factory.hpp:76] Creating layer inception_4a/5x5
I1124 13:26:24.715262 12960 net.cpp:106] Creating Layer inception_4a/5x5
I1124 13:26:24.715266 12960 net.cpp:454] inception_4a/5x5 <- inception_4a/5x5_reduce
I1124 13:26:24.715272 12960 net.cpp:411] inception_4a/5x5 -> inception_4a/5x5
I1124 13:26:24.716380 12960 net.cpp:150] Setting up inception_4a/5x5
I1124 13:26:24.716394 12960 net.cpp:157] Top shape: 64 48 14 14 (602112)
I1124 13:26:24.716398 12960 net.cpp:165] Memory required for data: 2332181504
I1124 13:26:24.716403 12960 layer_factory.hpp:76] Creating layer inception_4a/relu_5x5
I1124 13:26:24.716411 12960 net.cpp:106] Creating Layer inception_4a/relu_5x5
I1124 13:26:24.716415 12960 net.cpp:454] inception_4a/relu_5x5 <- inception_4a/5x5
I1124 13:26:24.716420 12960 net.cpp:397] inception_4a/relu_5x5 -> inception_4a/5x5 (in-place)
I1124 13:26:24.716709 12960 net.cpp:150] Setting up inception_4a/relu_5x5
I1124 13:26:24.716722 12960 net.cpp:157] Top shape: 64 48 14 14 (602112)
I1124 13:26:24.716725 12960 net.cpp:165] Memory required for data: 2334589952
I1124 13:26:24.716728 12960 layer_factory.hpp:76] Creating layer inception_4a/pool
I1124 13:26:24.716735 12960 net.cpp:106] Creating Layer inception_4a/pool
I1124 13:26:24.716739 12960 net.cpp:454] inception_4a/pool <- pool3/3x3_s2_pool3/3x3_s2_0_split_3
I1124 13:26:24.716745 12960 net.cpp:411] inception_4a/pool -> inception_4a/pool
I1124 13:26:24.716948 12960 net.cpp:150] Setting up inception_4a/pool
I1124 13:26:24.716959 12960 net.cpp:157] Top shape: 64 480 14 14 (6021120)
I1124 13:26:24.716963 12960 net.cpp:165] Memory required for data: 2358674432
I1124 13:26:24.716966 12960 layer_factory.hpp:76] Creating layer inception_4a/pool_proj
I1124 13:26:24.716974 12960 net.cpp:106] Creating Layer inception_4a/pool_proj
I1124 13:26:24.716979 12960 net.cpp:454] inception_4a/pool_proj <- inception_4a/pool
I1124 13:26:24.716985 12960 net.cpp:411] inception_4a/pool_proj -> inception_4a/pool_proj
I1124 13:26:24.718154 12960 net.cpp:150] Setting up inception_4a/pool_proj
I1124 13:26:24.718168 12960 net.cpp:157] Top shape: 64 64 14 14 (802816)
I1124 13:26:24.718171 12960 net.cpp:165] Memory required for data: 2361885696
I1124 13:26:24.718178 12960 layer_factory.hpp:76] Creating layer inception_4a/relu_pool_proj
I1124 13:26:24.718184 12960 net.cpp:106] Creating Layer inception_4a/relu_pool_proj
I1124 13:26:24.718189 12960 net.cpp:454] inception_4a/relu_pool_proj <- inception_4a/pool_proj
I1124 13:26:24.718194 12960 net.cpp:397] inception_4a/relu_pool_proj -> inception_4a/pool_proj (in-place)
I1124 13:26:24.718492 12960 net.cpp:150] Setting up inception_4a/relu_pool_proj
I1124 13:26:24.718503 12960 net.cpp:157] Top shape: 64 64 14 14 (802816)
I1124 13:26:24.718508 12960 net.cpp:165] Memory required for data: 2365096960
I1124 13:26:24.718510 12960 layer_factory.hpp:76] Creating layer inception_4a/output
I1124 13:26:24.718518 12960 net.cpp:106] Creating Layer inception_4a/output
I1124 13:26:24.718523 12960 net.cpp:454] inception_4a/output <- inception_4a/1x1
I1124 13:26:24.718526 12960 net.cpp:454] inception_4a/output <- inception_4a/3x3
I1124 13:26:24.718530 12960 net.cpp:454] inception_4a/output <- inception_4a/5x5
I1124 13:26:24.718534 12960 net.cpp:454] inception_4a/output <- inception_4a/pool_proj
I1124 13:26:24.718538 12960 net.cpp:411] inception_4a/output -> inception_4a/output
I1124 13:26:24.718569 12960 net.cpp:150] Setting up inception_4a/output
I1124 13:26:24.718575 12960 net.cpp:157] Top shape: 64 512 14 14 (6422528)
I1124 13:26:24.718578 12960 net.cpp:165] Memory required for data: 2390787072
I1124 13:26:24.718581 12960 layer_factory.hpp:76] Creating layer inception_4a/output_inception_4a/output_0_split
I1124 13:26:24.718586 12960 net.cpp:106] Creating Layer inception_4a/output_inception_4a/output_0_split
I1124 13:26:24.718590 12960 net.cpp:454] inception_4a/output_inception_4a/output_0_split <- inception_4a/output
I1124 13:26:24.718595 12960 net.cpp:411] inception_4a/output_inception_4a/output_0_split -> inception_4a/output_inception_4a/output_0_split_0
I1124 13:26:24.718601 12960 net.cpp:411] inception_4a/output_inception_4a/output_0_split -> inception_4a/output_inception_4a/output_0_split_1
I1124 13:26:24.718607 12960 net.cpp:411] inception_4a/output_inception_4a/output_0_split -> inception_4a/output_inception_4a/output_0_split_2
I1124 13:26:24.718612 12960 net.cpp:411] inception_4a/output_inception_4a/output_0_split -> inception_4a/output_inception_4a/output_0_split_3
I1124 13:26:24.718617 12960 net.cpp:411] inception_4a/output_inception_4a/output_0_split -> inception_4a/output_inception_4a/output_0_split_4
I1124 13:26:24.718688 12960 net.cpp:150] Setting up inception_4a/output_inception_4a/output_0_split
I1124 13:26:24.718694 12960 net.cpp:157] Top shape: 64 512 14 14 (6422528)
I1124 13:26:24.718698 12960 net.cpp:157] Top shape: 64 512 14 14 (6422528)
I1124 13:26:24.718701 12960 net.cpp:157] Top shape: 64 512 14 14 (6422528)
I1124 13:26:24.718705 12960 net.cpp:157] Top shape: 64 512 14 14 (6422528)
I1124 13:26:24.718708 12960 net.cpp:157] Top shape: 64 512 14 14 (6422528)
I1124 13:26:24.718711 12960 net.cpp:165] Memory required for data: 2519237632
I1124 13:26:24.718714 12960 layer_factory.hpp:76] Creating layer loss1/ave_pool
I1124 13:26:24.718721 12960 net.cpp:106] Creating Layer loss1/ave_pool
I1124 13:26:24.718724 12960 net.cpp:454] loss1/ave_pool <- inception_4a/output_inception_4a/output_0_split_0
I1124 13:26:24.718730 12960 net.cpp:411] loss1/ave_pool -> loss1/ave_pool
I1124 13:26:24.718951 12960 net.cpp:150] Setting up loss1/ave_pool
I1124 13:26:24.718965 12960 net.cpp:157] Top shape: 64 512 4 4 (524288)
I1124 13:26:24.718967 12960 net.cpp:165] Memory required for data: 2521334784
I1124 13:26:24.718971 12960 layer_factory.hpp:76] Creating layer loss1/conv
I1124 13:26:24.718979 12960 net.cpp:106] Creating Layer loss1/conv
I1124 13:26:24.718983 12960 net.cpp:454] loss1/conv <- loss1/ave_pool
I1124 13:26:24.718989 12960 net.cpp:411] loss1/conv -> loss1/conv
I1124 13:26:24.720399 12960 net.cpp:150] Setting up loss1/conv
I1124 13:26:24.720412 12960 net.cpp:157] Top shape: 64 128 4 4 (131072)
I1124 13:26:24.720417 12960 net.cpp:165] Memory required for data: 2521859072
I1124 13:26:24.720422 12960 layer_factory.hpp:76] Creating layer loss1/relu_conv
I1124 13:26:24.720428 12960 net.cpp:106] Creating Layer loss1/relu_conv
I1124 13:26:24.720432 12960 net.cpp:454] loss1/relu_conv <- loss1/conv
I1124 13:26:24.720437 12960 net.cpp:397] loss1/relu_conv -> loss1/conv (in-place)
I1124 13:26:24.720598 12960 net.cpp:150] Setting up loss1/relu_conv
I1124 13:26:24.720608 12960 net.cpp:157] Top shape: 64 128 4 4 (131072)
I1124 13:26:24.720612 12960 net.cpp:165] Memory required for data: 2522383360
I1124 13:26:24.720614 12960 layer_factory.hpp:76] Creating layer loss1/fc
I1124 13:26:24.720623 12960 net.cpp:106] Creating Layer loss1/fc
I1124 13:26:24.720626 12960 net.cpp:454] loss1/fc <- loss1/conv
I1124 13:26:24.720631 12960 net.cpp:411] loss1/fc -> loss1/fc
I1124 13:26:24.736191 12960 net.cpp:150] Setting up loss1/fc
I1124 13:26:24.736209 12960 net.cpp:157] Top shape: 64 1024 (65536)
I1124 13:26:24.736213 12960 net.cpp:165] Memory required for data: 2522645504
I1124 13:26:24.736222 12960 layer_factory.hpp:76] Creating layer loss1/relu_fc
I1124 13:26:24.736229 12960 net.cpp:106] Creating Layer loss1/relu_fc
I1124 13:26:24.736234 12960 net.cpp:454] loss1/relu_fc <- loss1/fc
I1124 13:26:24.736240 12960 net.cpp:397] loss1/relu_fc -> loss1/fc (in-place)
I1124 13:26:24.736608 12960 net.cpp:150] Setting up loss1/relu_fc
I1124 13:26:24.736621 12960 net.cpp:157] Top shape: 64 1024 (65536)
I1124 13:26:24.736624 12960 net.cpp:165] Memory required for data: 2522907648
I1124 13:26:24.736629 12960 layer_factory.hpp:76] Creating layer loss1/drop_fc
I1124 13:26:24.736645 12960 net.cpp:106] Creating Layer loss1/drop_fc
I1124 13:26:24.736651 12960 net.cpp:454] loss1/drop_fc <- loss1/fc
I1124 13:26:24.736656 12960 net.cpp:397] loss1/drop_fc -> loss1/fc (in-place)
I1124 13:26:24.736693 12960 net.cpp:150] Setting up loss1/drop_fc
I1124 13:26:24.736701 12960 net.cpp:157] Top shape: 64 1024 (65536)
I1124 13:26:24.736703 12960 net.cpp:165] Memory required for data: 2523169792
I1124 13:26:24.736707 12960 layer_factory.hpp:76] Creating layer loss1/classifier-attribute
I1124 13:26:24.736714 12960 net.cpp:106] Creating Layer loss1/classifier-attribute
I1124 13:26:24.736721 12960 net.cpp:454] loss1/classifier-attribute <- loss1/fc
I1124 13:26:24.736726 12960 net.cpp:411] loss1/classifier-attribute -> loss1/classifier-attribute
I1124 13:26:24.736958 12960 net.cpp:150] Setting up loss1/classifier-attribute
I1124 13:26:24.736968 12960 net.cpp:157] Top shape: 64 16 (1024)
I1124 13:26:24.736970 12960 net.cpp:165] Memory required for data: 2523173888
I1124 13:26:24.736976 12960 layer_factory.hpp:76] Creating layer loss1/loss
I1124 13:26:24.736987 12960 net.cpp:106] Creating Layer loss1/loss
I1124 13:26:24.736992 12960 net.cpp:454] loss1/loss <- loss1/classifier-attribute
I1124 13:26:24.736996 12960 net.cpp:454] loss1/loss <- label_data_1_split_0
I1124 13:26:24.737004 12960 net.cpp:411] loss1/loss -> loss1/loss1
I1124 13:26:24.737017 12960 layer_factory.hpp:76] Creating layer loss1/loss
I1124 13:26:24.737282 12960 net.cpp:150] Setting up loss1/loss
I1124 13:26:24.737292 12960 net.cpp:157] Top shape: (1)
I1124 13:26:24.737296 12960 net.cpp:160]     with loss weight 0.3
I1124 13:26:24.737318 12960 net.cpp:165] Memory required for data: 2523173892
I1124 13:26:24.737323 12960 layer_factory.hpp:76] Creating layer inception_4b/1x1
I1124 13:26:24.737332 12960 net.cpp:106] Creating Layer inception_4b/1x1
I1124 13:26:24.737337 12960 net.cpp:454] inception_4b/1x1 <- inception_4a/output_inception_4a/output_0_split_1
I1124 13:26:24.737344 12960 net.cpp:411] inception_4b/1x1 -> inception_4b/1x1
I1124 13:26:24.738895 12960 net.cpp:150] Setting up inception_4b/1x1
I1124 13:26:24.738909 12960 net.cpp:157] Top shape: 64 160 14 14 (2007040)
I1124 13:26:24.738914 12960 net.cpp:165] Memory required for data: 2531202052
I1124 13:26:24.738920 12960 layer_factory.hpp:76] Creating layer inception_4b/relu_1x1
I1124 13:26:24.738929 12960 net.cpp:106] Creating Layer inception_4b/relu_1x1
I1124 13:26:24.738934 12960 net.cpp:454] inception_4b/relu_1x1 <- inception_4b/1x1
I1124 13:26:24.738939 12960 net.cpp:397] inception_4b/relu_1x1 -> inception_4b/1x1 (in-place)
I1124 13:26:24.739251 12960 net.cpp:150] Setting up inception_4b/relu_1x1
I1124 13:26:24.739264 12960 net.cpp:157] Top shape: 64 160 14 14 (2007040)
I1124 13:26:24.739269 12960 net.cpp:165] Memory required for data: 2539230212
I1124 13:26:24.739272 12960 layer_factory.hpp:76] Creating layer inception_4b/3x3_reduce
I1124 13:26:24.739284 12960 net.cpp:106] Creating Layer inception_4b/3x3_reduce
I1124 13:26:24.739289 12960 net.cpp:454] inception_4b/3x3_reduce <- inception_4a/output_inception_4a/output_0_split_2
I1124 13:26:24.739295 12960 net.cpp:411] inception_4b/3x3_reduce -> inception_4b/3x3_reduce
I1124 13:26:24.741080 12960 net.cpp:150] Setting up inception_4b/3x3_reduce
I1124 13:26:24.741093 12960 net.cpp:157] Top shape: 64 112 14 14 (1404928)
I1124 13:26:24.741101 12960 net.cpp:165] Memory required for data: 2544849924
I1124 13:26:24.741111 12960 layer_factory.hpp:76] Creating layer inception_4b/relu_3x3_reduce
I1124 13:26:24.741122 12960 net.cpp:106] Creating Layer inception_4b/relu_3x3_reduce
I1124 13:26:24.741127 12960 net.cpp:454] inception_4b/relu_3x3_reduce <- inception_4b/3x3_reduce
I1124 13:26:24.741132 12960 net.cpp:397] inception_4b/relu_3x3_reduce -> inception_4b/3x3_reduce (in-place)
I1124 13:26:24.741298 12960 net.cpp:150] Setting up inception_4b/relu_3x3_reduce
I1124 13:26:24.741308 12960 net.cpp:157] Top shape: 64 112 14 14 (1404928)
I1124 13:26:24.741312 12960 net.cpp:165] Memory required for data: 2550469636
I1124 13:26:24.741315 12960 layer_factory.hpp:76] Creating layer inception_4b/3x3
I1124 13:26:24.741324 12960 net.cpp:106] Creating Layer inception_4b/3x3
I1124 13:26:24.741329 12960 net.cpp:454] inception_4b/3x3 <- inception_4b/3x3_reduce
I1124 13:26:24.741334 12960 net.cpp:411] inception_4b/3x3 -> inception_4b/3x3
I1124 13:26:24.744175 12960 net.cpp:150] Setting up inception_4b/3x3
I1124 13:26:24.744190 12960 net.cpp:157] Top shape: 64 224 14 14 (2809856)
I1124 13:26:24.744195 12960 net.cpp:165] Memory required for data: 2561709060
I1124 13:26:24.744201 12960 layer_factory.hpp:76] Creating layer inception_4b/relu_3x3
I1124 13:26:24.744207 12960 net.cpp:106] Creating Layer inception_4b/relu_3x3
I1124 13:26:24.744211 12960 net.cpp:454] inception_4b/relu_3x3 <- inception_4b/3x3
I1124 13:26:24.744216 12960 net.cpp:397] inception_4b/relu_3x3 -> inception_4b/3x3 (in-place)
I1124 13:26:24.744392 12960 net.cpp:150] Setting up inception_4b/relu_3x3
I1124 13:26:24.744403 12960 net.cpp:157] Top shape: 64 224 14 14 (2809856)
I1124 13:26:24.744406 12960 net.cpp:165] Memory required for data: 2572948484
I1124 13:26:24.744410 12960 layer_factory.hpp:76] Creating layer inception_4b/5x5_reduce
I1124 13:26:24.744418 12960 net.cpp:106] Creating Layer inception_4b/5x5_reduce
I1124 13:26:24.744423 12960 net.cpp:454] inception_4b/5x5_reduce <- inception_4a/output_inception_4a/output_0_split_3
I1124 13:26:24.744429 12960 net.cpp:411] inception_4b/5x5_reduce -> inception_4b/5x5_reduce
I1124 13:26:24.745506 12960 net.cpp:150] Setting up inception_4b/5x5_reduce
I1124 13:26:24.745518 12960 net.cpp:157] Top shape: 64 24 14 14 (301056)
I1124 13:26:24.745522 12960 net.cpp:165] Memory required for data: 2574152708
I1124 13:26:24.745527 12960 layer_factory.hpp:76] Creating layer inception_4b/relu_5x5_reduce
I1124 13:26:24.745533 12960 net.cpp:106] Creating Layer inception_4b/relu_5x5_reduce
I1124 13:26:24.745538 12960 net.cpp:454] inception_4b/relu_5x5_reduce <- inception_4b/5x5_reduce
I1124 13:26:24.745543 12960 net.cpp:397] inception_4b/relu_5x5_reduce -> inception_4b/5x5_reduce (in-place)
I1124 13:26:24.745986 12960 net.cpp:150] Setting up inception_4b/relu_5x5_reduce
I1124 13:26:24.745998 12960 net.cpp:157] Top shape: 64 24 14 14 (301056)
I1124 13:26:24.746002 12960 net.cpp:165] Memory required for data: 2575356932
I1124 13:26:24.746006 12960 layer_factory.hpp:76] Creating layer inception_4b/5x5
I1124 13:26:24.746016 12960 net.cpp:106] Creating Layer inception_4b/5x5
I1124 13:26:24.746021 12960 net.cpp:454] inception_4b/5x5 <- inception_4b/5x5_reduce
I1124 13:26:24.746026 12960 net.cpp:411] inception_4b/5x5 -> inception_4b/5x5
I1124 13:26:24.747334 12960 net.cpp:150] Setting up inception_4b/5x5
I1124 13:26:24.747349 12960 net.cpp:157] Top shape: 64 64 14 14 (802816)
I1124 13:26:24.747351 12960 net.cpp:165] Memory required for data: 2578568196
I1124 13:26:24.747359 12960 layer_factory.hpp:76] Creating layer inception_4b/relu_5x5
I1124 13:26:24.747364 12960 net.cpp:106] Creating Layer inception_4b/relu_5x5
I1124 13:26:24.747369 12960 net.cpp:454] inception_4b/relu_5x5 <- inception_4b/5x5
I1124 13:26:24.747375 12960 net.cpp:397] inception_4b/relu_5x5 -> inception_4b/5x5 (in-place)
I1124 13:26:24.747547 12960 net.cpp:150] Setting up inception_4b/relu_5x5
I1124 13:26:24.747558 12960 net.cpp:157] Top shape: 64 64 14 14 (802816)
I1124 13:26:24.747561 12960 net.cpp:165] Memory required for data: 2581779460
I1124 13:26:24.747565 12960 layer_factory.hpp:76] Creating layer inception_4b/pool
I1124 13:26:24.747573 12960 net.cpp:106] Creating Layer inception_4b/pool
I1124 13:26:24.747578 12960 net.cpp:454] inception_4b/pool <- inception_4a/output_inception_4a/output_0_split_4
I1124 13:26:24.747583 12960 net.cpp:411] inception_4b/pool -> inception_4b/pool
I1124 13:26:24.747923 12960 net.cpp:150] Setting up inception_4b/pool
I1124 13:26:24.747936 12960 net.cpp:157] Top shape: 64 512 14 14 (6422528)
I1124 13:26:24.747939 12960 net.cpp:165] Memory required for data: 2607469572
I1124 13:26:24.747943 12960 layer_factory.hpp:76] Creating layer inception_4b/pool_proj
I1124 13:26:24.747951 12960 net.cpp:106] Creating Layer inception_4b/pool_proj
I1124 13:26:24.747956 12960 net.cpp:454] inception_4b/pool_proj <- inception_4b/pool
I1124 13:26:24.747964 12960 net.cpp:411] inception_4b/pool_proj -> inception_4b/pool_proj
I1124 13:26:24.749053 12960 net.cpp:150] Setting up inception_4b/pool_proj
I1124 13:26:24.749066 12960 net.cpp:157] Top shape: 64 64 14 14 (802816)
I1124 13:26:24.749069 12960 net.cpp:165] Memory required for data: 2610680836
I1124 13:26:24.749075 12960 layer_factory.hpp:76] Creating layer inception_4b/relu_pool_proj
I1124 13:26:24.749084 12960 net.cpp:106] Creating Layer inception_4b/relu_pool_proj
I1124 13:26:24.749090 12960 net.cpp:454] inception_4b/relu_pool_proj <- inception_4b/pool_proj
I1124 13:26:24.749095 12960 net.cpp:397] inception_4b/relu_pool_proj -> inception_4b/pool_proj (in-place)
I1124 13:26:24.749388 12960 net.cpp:150] Setting up inception_4b/relu_pool_proj
I1124 13:26:24.749400 12960 net.cpp:157] Top shape: 64 64 14 14 (802816)
I1124 13:26:24.749403 12960 net.cpp:165] Memory required for data: 2613892100
I1124 13:26:24.749408 12960 layer_factory.hpp:76] Creating layer inception_4b/output
I1124 13:26:24.749414 12960 net.cpp:106] Creating Layer inception_4b/output
I1124 13:26:24.749419 12960 net.cpp:454] inception_4b/output <- inception_4b/1x1
I1124 13:26:24.749424 12960 net.cpp:454] inception_4b/output <- inception_4b/3x3
I1124 13:26:24.749428 12960 net.cpp:454] inception_4b/output <- inception_4b/5x5
I1124 13:26:24.749433 12960 net.cpp:454] inception_4b/output <- inception_4b/pool_proj
I1124 13:26:24.749436 12960 net.cpp:411] inception_4b/output -> inception_4b/output
I1124 13:26:24.749469 12960 net.cpp:150] Setting up inception_4b/output
I1124 13:26:24.749476 12960 net.cpp:157] Top shape: 64 512 14 14 (6422528)
I1124 13:26:24.749480 12960 net.cpp:165] Memory required for data: 2639582212
I1124 13:26:24.749482 12960 layer_factory.hpp:76] Creating layer inception_4b/output_inception_4b/output_0_split
I1124 13:26:24.749488 12960 net.cpp:106] Creating Layer inception_4b/output_inception_4b/output_0_split
I1124 13:26:24.749491 12960 net.cpp:454] inception_4b/output_inception_4b/output_0_split <- inception_4b/output
I1124 13:26:24.749497 12960 net.cpp:411] inception_4b/output_inception_4b/output_0_split -> inception_4b/output_inception_4b/output_0_split_0
I1124 13:26:24.749503 12960 net.cpp:411] inception_4b/output_inception_4b/output_0_split -> inception_4b/output_inception_4b/output_0_split_1
I1124 13:26:24.749510 12960 net.cpp:411] inception_4b/output_inception_4b/output_0_split -> inception_4b/output_inception_4b/output_0_split_2
I1124 13:26:24.749514 12960 net.cpp:411] inception_4b/output_inception_4b/output_0_split -> inception_4b/output_inception_4b/output_0_split_3
I1124 13:26:24.749584 12960 net.cpp:150] Setting up inception_4b/output_inception_4b/output_0_split
I1124 13:26:24.749594 12960 net.cpp:157] Top shape: 64 512 14 14 (6422528)
I1124 13:26:24.749598 12960 net.cpp:157] Top shape: 64 512 14 14 (6422528)
I1124 13:26:24.749601 12960 net.cpp:157] Top shape: 64 512 14 14 (6422528)
I1124 13:26:24.749605 12960 net.cpp:157] Top shape: 64 512 14 14 (6422528)
I1124 13:26:24.749608 12960 net.cpp:165] Memory required for data: 2742342660
I1124 13:26:24.749611 12960 layer_factory.hpp:76] Creating layer inception_4c/1x1
I1124 13:26:24.749619 12960 net.cpp:106] Creating Layer inception_4c/1x1
I1124 13:26:24.749624 12960 net.cpp:454] inception_4c/1x1 <- inception_4b/output_inception_4b/output_0_split_0
I1124 13:26:24.749629 12960 net.cpp:411] inception_4c/1x1 -> inception_4c/1x1
I1124 13:26:24.751070 12960 net.cpp:150] Setting up inception_4c/1x1
I1124 13:26:24.751085 12960 net.cpp:157] Top shape: 64 128 14 14 (1605632)
I1124 13:26:24.751088 12960 net.cpp:165] Memory required for data: 2748765188
I1124 13:26:24.751094 12960 layer_factory.hpp:76] Creating layer inception_4c/relu_1x1
I1124 13:26:24.751101 12960 net.cpp:106] Creating Layer inception_4c/relu_1x1
I1124 13:26:24.751106 12960 net.cpp:454] inception_4c/relu_1x1 <- inception_4c/1x1
I1124 13:26:24.751111 12960 net.cpp:397] inception_4c/relu_1x1 -> inception_4c/1x1 (in-place)
I1124 13:26:24.751276 12960 net.cpp:150] Setting up inception_4c/relu_1x1
I1124 13:26:24.751286 12960 net.cpp:157] Top shape: 64 128 14 14 (1605632)
I1124 13:26:24.751289 12960 net.cpp:165] Memory required for data: 2755187716
I1124 13:26:24.751293 12960 layer_factory.hpp:76] Creating layer inception_4c/3x3_reduce
I1124 13:26:24.751302 12960 net.cpp:106] Creating Layer inception_4c/3x3_reduce
I1124 13:26:24.751307 12960 net.cpp:454] inception_4c/3x3_reduce <- inception_4b/output_inception_4b/output_0_split_1
I1124 13:26:24.751313 12960 net.cpp:411] inception_4c/3x3_reduce -> inception_4c/3x3_reduce
I1124 13:26:24.752740 12960 net.cpp:150] Setting up inception_4c/3x3_reduce
I1124 13:26:24.752759 12960 net.cpp:157] Top shape: 64 128 14 14 (1605632)
I1124 13:26:24.752763 12960 net.cpp:165] Memory required for data: 2761610244
I1124 13:26:24.752769 12960 layer_factory.hpp:76] Creating layer inception_4c/relu_3x3_reduce
I1124 13:26:24.752776 12960 net.cpp:106] Creating Layer inception_4c/relu_3x3_reduce
I1124 13:26:24.752780 12960 net.cpp:454] inception_4c/relu_3x3_reduce <- inception_4c/3x3_reduce
I1124 13:26:24.752785 12960 net.cpp:397] inception_4c/relu_3x3_reduce -> inception_4c/3x3_reduce (in-place)
I1124 13:26:24.753087 12960 net.cpp:150] Setting up inception_4c/relu_3x3_reduce
I1124 13:26:24.753100 12960 net.cpp:157] Top shape: 64 128 14 14 (1605632)
I1124 13:26:24.753105 12960 net.cpp:165] Memory required for data: 2768032772
I1124 13:26:24.753108 12960 layer_factory.hpp:76] Creating layer inception_4c/3x3
I1124 13:26:24.753115 12960 net.cpp:106] Creating Layer inception_4c/3x3
I1124 13:26:24.753121 12960 net.cpp:454] inception_4c/3x3 <- inception_4c/3x3_reduce
I1124 13:26:24.753129 12960 net.cpp:411] inception_4c/3x3 -> inception_4c/3x3
I1124 13:26:24.756315 12960 net.cpp:150] Setting up inception_4c/3x3
I1124 13:26:24.756330 12960 net.cpp:157] Top shape: 64 256 14 14 (3211264)
I1124 13:26:24.756333 12960 net.cpp:165] Memory required for data: 2780877828
I1124 13:26:24.756352 12960 layer_factory.hpp:76] Creating layer inception_4c/relu_3x3
I1124 13:26:24.756361 12960 net.cpp:106] Creating Layer inception_4c/relu_3x3
I1124 13:26:24.756364 12960 net.cpp:454] inception_4c/relu_3x3 <- inception_4c/3x3
I1124 13:26:24.756369 12960 net.cpp:397] inception_4c/relu_3x3 -> inception_4c/3x3 (in-place)
I1124 13:26:24.756670 12960 net.cpp:150] Setting up inception_4c/relu_3x3
I1124 13:26:24.756682 12960 net.cpp:157] Top shape: 64 256 14 14 (3211264)
I1124 13:26:24.756686 12960 net.cpp:165] Memory required for data: 2793722884
I1124 13:26:24.756690 12960 layer_factory.hpp:76] Creating layer inception_4c/5x5_reduce
I1124 13:26:24.756700 12960 net.cpp:106] Creating Layer inception_4c/5x5_reduce
I1124 13:26:24.756703 12960 net.cpp:454] inception_4c/5x5_reduce <- inception_4b/output_inception_4b/output_0_split_2
I1124 13:26:24.756710 12960 net.cpp:411] inception_4c/5x5_reduce -> inception_4c/5x5_reduce
I1124 13:26:24.757812 12960 net.cpp:150] Setting up inception_4c/5x5_reduce
I1124 13:26:24.757825 12960 net.cpp:157] Top shape: 64 24 14 14 (301056)
I1124 13:26:24.757828 12960 net.cpp:165] Memory required for data: 2794927108
I1124 13:26:24.757834 12960 layer_factory.hpp:76] Creating layer inception_4c/relu_5x5_reduce
I1124 13:26:24.757840 12960 net.cpp:106] Creating Layer inception_4c/relu_5x5_reduce
I1124 13:26:24.757844 12960 net.cpp:454] inception_4c/relu_5x5_reduce <- inception_4c/5x5_reduce
I1124 13:26:24.757849 12960 net.cpp:397] inception_4c/relu_5x5_reduce -> inception_4c/5x5_reduce (in-place)
I1124 13:26:24.758015 12960 net.cpp:150] Setting up inception_4c/relu_5x5_reduce
I1124 13:26:24.758025 12960 net.cpp:157] Top shape: 64 24 14 14 (301056)
I1124 13:26:24.758029 12960 net.cpp:165] Memory required for data: 2796131332
I1124 13:26:24.758034 12960 layer_factory.hpp:76] Creating layer inception_4c/5x5
I1124 13:26:24.758046 12960 net.cpp:106] Creating Layer inception_4c/5x5
I1124 13:26:24.758051 12960 net.cpp:454] inception_4c/5x5 <- inception_4c/5x5_reduce
I1124 13:26:24.758059 12960 net.cpp:411] inception_4c/5x5 -> inception_4c/5x5
I1124 13:26:24.759763 12960 net.cpp:150] Setting up inception_4c/5x5
I1124 13:26:24.759778 12960 net.cpp:157] Top shape: 64 64 14 14 (802816)
I1124 13:26:24.759781 12960 net.cpp:165] Memory required for data: 2799342596
I1124 13:26:24.759788 12960 layer_factory.hpp:76] Creating layer inception_4c/relu_5x5
I1124 13:26:24.759794 12960 net.cpp:106] Creating Layer inception_4c/relu_5x5
I1124 13:26:24.759799 12960 net.cpp:454] inception_4c/relu_5x5 <- inception_4c/5x5
I1124 13:26:24.759804 12960 net.cpp:397] inception_4c/relu_5x5 -> inception_4c/5x5 (in-place)
I1124 13:26:24.760107 12960 net.cpp:150] Setting up inception_4c/relu_5x5
I1124 13:26:24.760120 12960 net.cpp:157] Top shape: 64 64 14 14 (802816)
I1124 13:26:24.760123 12960 net.cpp:165] Memory required for data: 2802553860
I1124 13:26:24.760128 12960 layer_factory.hpp:76] Creating layer inception_4c/pool
I1124 13:26:24.760135 12960 net.cpp:106] Creating Layer inception_4c/pool
I1124 13:26:24.760139 12960 net.cpp:454] inception_4c/pool <- inception_4b/output_inception_4b/output_0_split_3
I1124 13:26:24.760146 12960 net.cpp:411] inception_4c/pool -> inception_4c/pool
I1124 13:26:24.760355 12960 net.cpp:150] Setting up inception_4c/pool
I1124 13:26:24.760366 12960 net.cpp:157] Top shape: 64 512 14 14 (6422528)
I1124 13:26:24.760370 12960 net.cpp:165] Memory required for data: 2828243972
I1124 13:26:24.760373 12960 layer_factory.hpp:76] Creating layer inception_4c/pool_proj
I1124 13:26:24.760381 12960 net.cpp:106] Creating Layer inception_4c/pool_proj
I1124 13:26:24.760385 12960 net.cpp:454] inception_4c/pool_proj <- inception_4c/pool
I1124 13:26:24.760393 12960 net.cpp:411] inception_4c/pool_proj -> inception_4c/pool_proj
I1124 13:26:24.761736 12960 net.cpp:150] Setting up inception_4c/pool_proj
I1124 13:26:24.761750 12960 net.cpp:157] Top shape: 64 64 14 14 (802816)
I1124 13:26:24.761754 12960 net.cpp:165] Memory required for data: 2831455236
I1124 13:26:24.761759 12960 layer_factory.hpp:76] Creating layer inception_4c/relu_pool_proj
I1124 13:26:24.761765 12960 net.cpp:106] Creating Layer inception_4c/relu_pool_proj
I1124 13:26:24.761770 12960 net.cpp:454] inception_4c/relu_pool_proj <- inception_4c/pool_proj
I1124 13:26:24.761776 12960 net.cpp:397] inception_4c/relu_pool_proj -> inception_4c/pool_proj (in-place)
I1124 13:26:24.762078 12960 net.cpp:150] Setting up inception_4c/relu_pool_proj
I1124 13:26:24.762089 12960 net.cpp:157] Top shape: 64 64 14 14 (802816)
I1124 13:26:24.762092 12960 net.cpp:165] Memory required for data: 2834666500
I1124 13:26:24.762096 12960 layer_factory.hpp:76] Creating layer inception_4c/output
I1124 13:26:24.762102 12960 net.cpp:106] Creating Layer inception_4c/output
I1124 13:26:24.762106 12960 net.cpp:454] inception_4c/output <- inception_4c/1x1
I1124 13:26:24.762110 12960 net.cpp:454] inception_4c/output <- inception_4c/3x3
I1124 13:26:24.762115 12960 net.cpp:454] inception_4c/output <- inception_4c/5x5
I1124 13:26:24.762118 12960 net.cpp:454] inception_4c/output <- inception_4c/pool_proj
I1124 13:26:24.762125 12960 net.cpp:411] inception_4c/output -> inception_4c/output
I1124 13:26:24.762157 12960 net.cpp:150] Setting up inception_4c/output
I1124 13:26:24.762166 12960 net.cpp:157] Top shape: 64 512 14 14 (6422528)
I1124 13:26:24.762168 12960 net.cpp:165] Memory required for data: 2860356612
I1124 13:26:24.762171 12960 layer_factory.hpp:76] Creating layer inception_4c/output_inception_4c/output_0_split
I1124 13:26:24.762177 12960 net.cpp:106] Creating Layer inception_4c/output_inception_4c/output_0_split
I1124 13:26:24.762181 12960 net.cpp:454] inception_4c/output_inception_4c/output_0_split <- inception_4c/output
I1124 13:26:24.762186 12960 net.cpp:411] inception_4c/output_inception_4c/output_0_split -> inception_4c/output_inception_4c/output_0_split_0
I1124 13:26:24.762192 12960 net.cpp:411] inception_4c/output_inception_4c/output_0_split -> inception_4c/output_inception_4c/output_0_split_1
I1124 13:26:24.762198 12960 net.cpp:411] inception_4c/output_inception_4c/output_0_split -> inception_4c/output_inception_4c/output_0_split_2
I1124 13:26:24.762204 12960 net.cpp:411] inception_4c/output_inception_4c/output_0_split -> inception_4c/output_inception_4c/output_0_split_3
I1124 13:26:24.762274 12960 net.cpp:150] Setting up inception_4c/output_inception_4c/output_0_split
I1124 13:26:24.762284 12960 net.cpp:157] Top shape: 64 512 14 14 (6422528)
I1124 13:26:24.762289 12960 net.cpp:157] Top shape: 64 512 14 14 (6422528)
I1124 13:26:24.762291 12960 net.cpp:157] Top shape: 64 512 14 14 (6422528)
I1124 13:26:24.762295 12960 net.cpp:157] Top shape: 64 512 14 14 (6422528)
I1124 13:26:24.762297 12960 net.cpp:165] Memory required for data: 2963117060
I1124 13:26:24.762300 12960 layer_factory.hpp:76] Creating layer inception_4d/1x1
I1124 13:26:24.762310 12960 net.cpp:106] Creating Layer inception_4d/1x1
I1124 13:26:24.762312 12960 net.cpp:454] inception_4d/1x1 <- inception_4c/output_inception_4c/output_0_split_0
I1124 13:26:24.762320 12960 net.cpp:411] inception_4d/1x1 -> inception_4d/1x1
I1124 13:26:24.763581 12960 net.cpp:150] Setting up inception_4d/1x1
I1124 13:26:24.763594 12960 net.cpp:157] Top shape: 64 112 14 14 (1404928)
I1124 13:26:24.763598 12960 net.cpp:165] Memory required for data: 2968736772
I1124 13:26:24.763605 12960 layer_factory.hpp:76] Creating layer inception_4d/relu_1x1
I1124 13:26:24.763612 12960 net.cpp:106] Creating Layer inception_4d/relu_1x1
I1124 13:26:24.763615 12960 net.cpp:454] inception_4d/relu_1x1 <- inception_4d/1x1
I1124 13:26:24.763622 12960 net.cpp:397] inception_4d/relu_1x1 -> inception_4d/1x1 (in-place)
I1124 13:26:24.763924 12960 net.cpp:150] Setting up inception_4d/relu_1x1
I1124 13:26:24.763936 12960 net.cpp:157] Top shape: 64 112 14 14 (1404928)
I1124 13:26:24.763939 12960 net.cpp:165] Memory required for data: 2974356484
I1124 13:26:24.763943 12960 layer_factory.hpp:76] Creating layer inception_4d/3x3_reduce
I1124 13:26:24.763952 12960 net.cpp:106] Creating Layer inception_4d/3x3_reduce
I1124 13:26:24.763955 12960 net.cpp:454] inception_4d/3x3_reduce <- inception_4c/output_inception_4c/output_0_split_1
I1124 13:26:24.763962 12960 net.cpp:411] inception_4d/3x3_reduce -> inception_4d/3x3_reduce
I1124 13:26:24.765478 12960 net.cpp:150] Setting up inception_4d/3x3_reduce
I1124 13:26:24.765492 12960 net.cpp:157] Top shape: 64 144 14 14 (1806336)
I1124 13:26:24.765496 12960 net.cpp:165] Memory required for data: 2981581828
I1124 13:26:24.765502 12960 layer_factory.hpp:76] Creating layer inception_4d/relu_3x3_reduce
I1124 13:26:24.765508 12960 net.cpp:106] Creating Layer inception_4d/relu_3x3_reduce
I1124 13:26:24.765512 12960 net.cpp:454] inception_4d/relu_3x3_reduce <- inception_4d/3x3_reduce
I1124 13:26:24.765516 12960 net.cpp:397] inception_4d/relu_3x3_reduce -> inception_4d/3x3_reduce (in-place)
I1124 13:26:24.765687 12960 net.cpp:150] Setting up inception_4d/relu_3x3_reduce
I1124 13:26:24.765697 12960 net.cpp:157] Top shape: 64 144 14 14 (1806336)
I1124 13:26:24.765700 12960 net.cpp:165] Memory required for data: 2988807172
I1124 13:26:24.765703 12960 layer_factory.hpp:76] Creating layer inception_4d/3x3
I1124 13:26:24.765712 12960 net.cpp:106] Creating Layer inception_4d/3x3
I1124 13:26:24.765715 12960 net.cpp:454] inception_4d/3x3 <- inception_4d/3x3_reduce
I1124 13:26:24.765722 12960 net.cpp:411] inception_4d/3x3 -> inception_4d/3x3
I1124 13:26:24.769620 12960 net.cpp:150] Setting up inception_4d/3x3
I1124 13:26:24.769635 12960 net.cpp:157] Top shape: 64 288 14 14 (3612672)
I1124 13:26:24.769639 12960 net.cpp:165] Memory required for data: 3003257860
I1124 13:26:24.769645 12960 layer_factory.hpp:76] Creating layer inception_4d/relu_3x3
I1124 13:26:24.769651 12960 net.cpp:106] Creating Layer inception_4d/relu_3x3
I1124 13:26:24.769655 12960 net.cpp:454] inception_4d/relu_3x3 <- inception_4d/3x3
I1124 13:26:24.769661 12960 net.cpp:397] inception_4d/relu_3x3 -> inception_4d/3x3 (in-place)
I1124 13:26:24.769987 12960 net.cpp:150] Setting up inception_4d/relu_3x3
I1124 13:26:24.769999 12960 net.cpp:157] Top shape: 64 288 14 14 (3612672)
I1124 13:26:24.770004 12960 net.cpp:165] Memory required for data: 3017708548
I1124 13:26:24.770006 12960 layer_factory.hpp:76] Creating layer inception_4d/5x5_reduce
I1124 13:26:24.770015 12960 net.cpp:106] Creating Layer inception_4d/5x5_reduce
I1124 13:26:24.770020 12960 net.cpp:454] inception_4d/5x5_reduce <- inception_4c/output_inception_4c/output_0_split_2
I1124 13:26:24.770026 12960 net.cpp:411] inception_4d/5x5_reduce -> inception_4d/5x5_reduce
I1124 13:26:24.771083 12960 net.cpp:150] Setting up inception_4d/5x5_reduce
I1124 13:26:24.771097 12960 net.cpp:157] Top shape: 64 32 14 14 (401408)
I1124 13:26:24.771101 12960 net.cpp:165] Memory required for data: 3019314180
I1124 13:26:24.771107 12960 layer_factory.hpp:76] Creating layer inception_4d/relu_5x5_reduce
I1124 13:26:24.771113 12960 net.cpp:106] Creating Layer inception_4d/relu_5x5_reduce
I1124 13:26:24.771117 12960 net.cpp:454] inception_4d/relu_5x5_reduce <- inception_4d/5x5_reduce
I1124 13:26:24.771124 12960 net.cpp:397] inception_4d/relu_5x5_reduce -> inception_4d/5x5_reduce (in-place)
I1124 13:26:24.771430 12960 net.cpp:150] Setting up inception_4d/relu_5x5_reduce
I1124 13:26:24.771442 12960 net.cpp:157] Top shape: 64 32 14 14 (401408)
I1124 13:26:24.771448 12960 net.cpp:165] Memory required for data: 3020919812
I1124 13:26:24.771452 12960 layer_factory.hpp:76] Creating layer inception_4d/5x5
I1124 13:26:24.771461 12960 net.cpp:106] Creating Layer inception_4d/5x5
I1124 13:26:24.771466 12960 net.cpp:454] inception_4d/5x5 <- inception_4d/5x5_reduce
I1124 13:26:24.771473 12960 net.cpp:411] inception_4d/5x5 -> inception_4d/5x5
I1124 13:26:24.772852 12960 net.cpp:150] Setting up inception_4d/5x5
I1124 13:26:24.772868 12960 net.cpp:157] Top shape: 64 64 14 14 (802816)
I1124 13:26:24.772872 12960 net.cpp:165] Memory required for data: 3024131076
I1124 13:26:24.772878 12960 layer_factory.hpp:76] Creating layer inception_4d/relu_5x5
I1124 13:26:24.772886 12960 net.cpp:106] Creating Layer inception_4d/relu_5x5
I1124 13:26:24.772891 12960 net.cpp:454] inception_4d/relu_5x5 <- inception_4d/5x5
I1124 13:26:24.772897 12960 net.cpp:397] inception_4d/relu_5x5 -> inception_4d/5x5 (in-place)
I1124 13:26:24.773069 12960 net.cpp:150] Setting up inception_4d/relu_5x5
I1124 13:26:24.773080 12960 net.cpp:157] Top shape: 64 64 14 14 (802816)
I1124 13:26:24.773083 12960 net.cpp:165] Memory required for data: 3027342340
I1124 13:26:24.773087 12960 layer_factory.hpp:76] Creating layer inception_4d/pool
I1124 13:26:24.773092 12960 net.cpp:106] Creating Layer inception_4d/pool
I1124 13:26:24.773097 12960 net.cpp:454] inception_4d/pool <- inception_4c/output_inception_4c/output_0_split_3
I1124 13:26:24.773102 12960 net.cpp:411] inception_4d/pool -> inception_4d/pool
I1124 13:26:24.773449 12960 net.cpp:150] Setting up inception_4d/pool
I1124 13:26:24.773463 12960 net.cpp:157] Top shape: 64 512 14 14 (6422528)
I1124 13:26:24.773465 12960 net.cpp:165] Memory required for data: 3053032452
I1124 13:26:24.773469 12960 layer_factory.hpp:76] Creating layer inception_4d/pool_proj
I1124 13:26:24.773478 12960 net.cpp:106] Creating Layer inception_4d/pool_proj
I1124 13:26:24.773483 12960 net.cpp:454] inception_4d/pool_proj <- inception_4d/pool
I1124 13:26:24.773490 12960 net.cpp:411] inception_4d/pool_proj -> inception_4d/pool_proj
I1124 13:26:24.774756 12960 net.cpp:150] Setting up inception_4d/pool_proj
I1124 13:26:24.774770 12960 net.cpp:157] Top shape: 64 64 14 14 (802816)
I1124 13:26:24.774773 12960 net.cpp:165] Memory required for data: 3056243716
I1124 13:26:24.774780 12960 layer_factory.hpp:76] Creating layer inception_4d/relu_pool_proj
I1124 13:26:24.774788 12960 net.cpp:106] Creating Layer inception_4d/relu_pool_proj
I1124 13:26:24.774794 12960 net.cpp:454] inception_4d/relu_pool_proj <- inception_4d/pool_proj
I1124 13:26:24.774799 12960 net.cpp:397] inception_4d/relu_pool_proj -> inception_4d/pool_proj (in-place)
I1124 13:26:24.774986 12960 net.cpp:150] Setting up inception_4d/relu_pool_proj
I1124 13:26:24.774996 12960 net.cpp:157] Top shape: 64 64 14 14 (802816)
I1124 13:26:24.775001 12960 net.cpp:165] Memory required for data: 3059454980
I1124 13:26:24.775003 12960 layer_factory.hpp:76] Creating layer inception_4d/output
I1124 13:26:24.775012 12960 net.cpp:106] Creating Layer inception_4d/output
I1124 13:26:24.775017 12960 net.cpp:454] inception_4d/output <- inception_4d/1x1
I1124 13:26:24.775020 12960 net.cpp:454] inception_4d/output <- inception_4d/3x3
I1124 13:26:24.775024 12960 net.cpp:454] inception_4d/output <- inception_4d/5x5
I1124 13:26:24.775028 12960 net.cpp:454] inception_4d/output <- inception_4d/pool_proj
I1124 13:26:24.775032 12960 net.cpp:411] inception_4d/output -> inception_4d/output
I1124 13:26:24.775068 12960 net.cpp:150] Setting up inception_4d/output
I1124 13:26:24.775075 12960 net.cpp:157] Top shape: 64 528 14 14 (6623232)
I1124 13:26:24.775079 12960 net.cpp:165] Memory required for data: 3085947908
I1124 13:26:24.775081 12960 layer_factory.hpp:76] Creating layer inception_4d/output_inception_4d/output_0_split
I1124 13:26:24.775087 12960 net.cpp:106] Creating Layer inception_4d/output_inception_4d/output_0_split
I1124 13:26:24.775090 12960 net.cpp:454] inception_4d/output_inception_4d/output_0_split <- inception_4d/output
I1124 13:26:24.775096 12960 net.cpp:411] inception_4d/output_inception_4d/output_0_split -> inception_4d/output_inception_4d/output_0_split_0
I1124 13:26:24.775104 12960 net.cpp:411] inception_4d/output_inception_4d/output_0_split -> inception_4d/output_inception_4d/output_0_split_1
I1124 13:26:24.775110 12960 net.cpp:411] inception_4d/output_inception_4d/output_0_split -> inception_4d/output_inception_4d/output_0_split_2
I1124 13:26:24.775116 12960 net.cpp:411] inception_4d/output_inception_4d/output_0_split -> inception_4d/output_inception_4d/output_0_split_3
I1124 13:26:24.775121 12960 net.cpp:411] inception_4d/output_inception_4d/output_0_split -> inception_4d/output_inception_4d/output_0_split_4
I1124 13:26:24.775207 12960 net.cpp:150] Setting up inception_4d/output_inception_4d/output_0_split
I1124 13:26:24.775213 12960 net.cpp:157] Top shape: 64 528 14 14 (6623232)
I1124 13:26:24.775218 12960 net.cpp:157] Top shape: 64 528 14 14 (6623232)
I1124 13:26:24.775221 12960 net.cpp:157] Top shape: 64 528 14 14 (6623232)
I1124 13:26:24.775224 12960 net.cpp:157] Top shape: 64 528 14 14 (6623232)
I1124 13:26:24.775228 12960 net.cpp:157] Top shape: 64 528 14 14 (6623232)
I1124 13:26:24.775230 12960 net.cpp:165] Memory required for data: 3218412548
I1124 13:26:24.775233 12960 layer_factory.hpp:76] Creating layer loss2/ave_pool
I1124 13:26:24.775239 12960 net.cpp:106] Creating Layer loss2/ave_pool
I1124 13:26:24.775243 12960 net.cpp:454] loss2/ave_pool <- inception_4d/output_inception_4d/output_0_split_0
I1124 13:26:24.775249 12960 net.cpp:411] loss2/ave_pool -> loss2/ave_pool
I1124 13:26:24.775576 12960 net.cpp:150] Setting up loss2/ave_pool
I1124 13:26:24.775588 12960 net.cpp:157] Top shape: 64 528 4 4 (540672)
I1124 13:26:24.775593 12960 net.cpp:165] Memory required for data: 3220575236
I1124 13:26:24.775595 12960 layer_factory.hpp:76] Creating layer loss2/conv
I1124 13:26:24.775604 12960 net.cpp:106] Creating Layer loss2/conv
I1124 13:26:24.775607 12960 net.cpp:454] loss2/conv <- loss2/ave_pool
I1124 13:26:24.775614 12960 net.cpp:411] loss2/conv -> loss2/conv
I1124 13:26:24.777396 12960 net.cpp:150] Setting up loss2/conv
I1124 13:26:24.777411 12960 net.cpp:157] Top shape: 64 128 4 4 (131072)
I1124 13:26:24.777415 12960 net.cpp:165] Memory required for data: 3221099524
I1124 13:26:24.777421 12960 layer_factory.hpp:76] Creating layer loss2/relu_conv
I1124 13:26:24.777427 12960 net.cpp:106] Creating Layer loss2/relu_conv
I1124 13:26:24.777432 12960 net.cpp:454] loss2/relu_conv <- loss2/conv
I1124 13:26:24.777437 12960 net.cpp:397] loss2/relu_conv -> loss2/conv (in-place)
I1124 13:26:24.777864 12960 net.cpp:150] Setting up loss2/relu_conv
I1124 13:26:24.777876 12960 net.cpp:157] Top shape: 64 128 4 4 (131072)
I1124 13:26:24.777879 12960 net.cpp:165] Memory required for data: 3221623812
I1124 13:26:24.777884 12960 layer_factory.hpp:76] Creating layer loss2/fc
I1124 13:26:24.777891 12960 net.cpp:106] Creating Layer loss2/fc
I1124 13:26:24.777896 12960 net.cpp:454] loss2/fc <- loss2/conv
I1124 13:26:24.777904 12960 net.cpp:411] loss2/fc -> loss2/fc
I1124 13:26:24.793468 12960 net.cpp:150] Setting up loss2/fc
I1124 13:26:24.793490 12960 net.cpp:157] Top shape: 64 1024 (65536)
I1124 13:26:24.793493 12960 net.cpp:165] Memory required for data: 3221885956
I1124 13:26:24.793501 12960 layer_factory.hpp:76] Creating layer loss2/relu_fc
I1124 13:26:24.793509 12960 net.cpp:106] Creating Layer loss2/relu_fc
I1124 13:26:24.793514 12960 net.cpp:454] loss2/relu_fc <- loss2/fc
I1124 13:26:24.793520 12960 net.cpp:397] loss2/relu_fc -> loss2/fc (in-place)
I1124 13:26:24.793733 12960 net.cpp:150] Setting up loss2/relu_fc
I1124 13:26:24.793745 12960 net.cpp:157] Top shape: 64 1024 (65536)
I1124 13:26:24.793750 12960 net.cpp:165] Memory required for data: 3222148100
I1124 13:26:24.793752 12960 layer_factory.hpp:76] Creating layer loss2/drop_fc
I1124 13:26:24.793759 12960 net.cpp:106] Creating Layer loss2/drop_fc
I1124 13:26:24.793762 12960 net.cpp:454] loss2/drop_fc <- loss2/fc
I1124 13:26:24.793767 12960 net.cpp:397] loss2/drop_fc -> loss2/fc (in-place)
I1124 13:26:24.793800 12960 net.cpp:150] Setting up loss2/drop_fc
I1124 13:26:24.793810 12960 net.cpp:157] Top shape: 64 1024 (65536)
I1124 13:26:24.793813 12960 net.cpp:165] Memory required for data: 3222410244
I1124 13:26:24.793815 12960 layer_factory.hpp:76] Creating layer loss2/classifier-attribute
I1124 13:26:24.793823 12960 net.cpp:106] Creating Layer loss2/classifier-attribute
I1124 13:26:24.793826 12960 net.cpp:454] loss2/classifier-attribute <- loss2/fc
I1124 13:26:24.793833 12960 net.cpp:411] loss2/classifier-attribute -> loss2/classifier-attribute
I1124 13:26:24.794080 12960 net.cpp:150] Setting up loss2/classifier-attribute
I1124 13:26:24.794090 12960 net.cpp:157] Top shape: 64 16 (1024)
I1124 13:26:24.794092 12960 net.cpp:165] Memory required for data: 3222414340
I1124 13:26:24.794098 12960 layer_factory.hpp:76] Creating layer loss2/loss
I1124 13:26:24.794105 12960 net.cpp:106] Creating Layer loss2/loss
I1124 13:26:24.794107 12960 net.cpp:454] loss2/loss <- loss2/classifier-attribute
I1124 13:26:24.794112 12960 net.cpp:454] loss2/loss <- label_data_1_split_1
I1124 13:26:24.794118 12960 net.cpp:411] loss2/loss -> loss2/loss1
I1124 13:26:24.794126 12960 layer_factory.hpp:76] Creating layer loss2/loss
I1124 13:26:24.794569 12960 net.cpp:150] Setting up loss2/loss
I1124 13:26:24.794580 12960 net.cpp:157] Top shape: (1)
I1124 13:26:24.794584 12960 net.cpp:160]     with loss weight 0.3
I1124 13:26:24.794594 12960 net.cpp:165] Memory required for data: 3222414344
I1124 13:26:24.794597 12960 layer_factory.hpp:76] Creating layer inception_4e/1x1
I1124 13:26:24.794610 12960 net.cpp:106] Creating Layer inception_4e/1x1
I1124 13:26:24.794615 12960 net.cpp:454] inception_4e/1x1 <- inception_4d/output_inception_4d/output_0_split_1
I1124 13:26:24.794622 12960 net.cpp:411] inception_4e/1x1 -> inception_4e/1x1
I1124 13:26:24.796581 12960 net.cpp:150] Setting up inception_4e/1x1
I1124 13:26:24.796596 12960 net.cpp:157] Top shape: 64 256 14 14 (3211264)
I1124 13:26:24.796599 12960 net.cpp:165] Memory required for data: 3235259400
I1124 13:26:24.796607 12960 layer_factory.hpp:76] Creating layer inception_4e/relu_1x1
I1124 13:26:24.796612 12960 net.cpp:106] Creating Layer inception_4e/relu_1x1
I1124 13:26:24.796617 12960 net.cpp:454] inception_4e/relu_1x1 <- inception_4e/1x1
I1124 13:26:24.796622 12960 net.cpp:397] inception_4e/relu_1x1 -> inception_4e/1x1 (in-place)
I1124 13:26:24.796794 12960 net.cpp:150] Setting up inception_4e/relu_1x1
I1124 13:26:24.796803 12960 net.cpp:157] Top shape: 64 256 14 14 (3211264)
I1124 13:26:24.796807 12960 net.cpp:165] Memory required for data: 3248104456
I1124 13:26:24.796810 12960 layer_factory.hpp:76] Creating layer inception_4e/3x3_reduce
I1124 13:26:24.796818 12960 net.cpp:106] Creating Layer inception_4e/3x3_reduce
I1124 13:26:24.796823 12960 net.cpp:454] inception_4e/3x3_reduce <- inception_4d/output_inception_4d/output_0_split_2
I1124 13:26:24.796828 12960 net.cpp:411] inception_4e/3x3_reduce -> inception_4e/3x3_reduce
I1124 13:26:24.798882 12960 net.cpp:150] Setting up inception_4e/3x3_reduce
I1124 13:26:24.798897 12960 net.cpp:157] Top shape: 64 160 14 14 (2007040)
I1124 13:26:24.798900 12960 net.cpp:165] Memory required for data: 3256132616
I1124 13:26:24.798907 12960 layer_factory.hpp:76] Creating layer inception_4e/relu_3x3_reduce
I1124 13:26:24.798913 12960 net.cpp:106] Creating Layer inception_4e/relu_3x3_reduce
I1124 13:26:24.798916 12960 net.cpp:454] inception_4e/relu_3x3_reduce <- inception_4e/3x3_reduce
I1124 13:26:24.798923 12960 net.cpp:397] inception_4e/relu_3x3_reduce -> inception_4e/3x3_reduce (in-place)
I1124 13:26:24.799234 12960 net.cpp:150] Setting up inception_4e/relu_3x3_reduce
I1124 13:26:24.799247 12960 net.cpp:157] Top shape: 64 160 14 14 (2007040)
I1124 13:26:24.799250 12960 net.cpp:165] Memory required for data: 3264160776
I1124 13:26:24.799253 12960 layer_factory.hpp:76] Creating layer inception_4e/3x3
I1124 13:26:24.799264 12960 net.cpp:106] Creating Layer inception_4e/3x3
I1124 13:26:24.799278 12960 net.cpp:454] inception_4e/3x3 <- inception_4e/3x3_reduce
I1124 13:26:24.799288 12960 net.cpp:411] inception_4e/3x3 -> inception_4e/3x3
I1124 13:26:24.803750 12960 net.cpp:150] Setting up inception_4e/3x3
I1124 13:26:24.803764 12960 net.cpp:157] Top shape: 64 320 14 14 (4014080)
I1124 13:26:24.803768 12960 net.cpp:165] Memory required for data: 3280217096
I1124 13:26:24.803774 12960 layer_factory.hpp:76] Creating layer inception_4e/relu_3x3
I1124 13:26:24.803782 12960 net.cpp:106] Creating Layer inception_4e/relu_3x3
I1124 13:26:24.803786 12960 net.cpp:454] inception_4e/relu_3x3 <- inception_4e/3x3
I1124 13:26:24.803792 12960 net.cpp:397] inception_4e/relu_3x3 -> inception_4e/3x3 (in-place)
I1124 13:26:24.804102 12960 net.cpp:150] Setting up inception_4e/relu_3x3
I1124 13:26:24.804114 12960 net.cpp:157] Top shape: 64 320 14 14 (4014080)
I1124 13:26:24.804118 12960 net.cpp:165] Memory required for data: 3296273416
I1124 13:26:24.804121 12960 layer_factory.hpp:76] Creating layer inception_4e/5x5_reduce
I1124 13:26:24.804131 12960 net.cpp:106] Creating Layer inception_4e/5x5_reduce
I1124 13:26:24.804134 12960 net.cpp:454] inception_4e/5x5_reduce <- inception_4d/output_inception_4d/output_0_split_3
I1124 13:26:24.804141 12960 net.cpp:411] inception_4e/5x5_reduce -> inception_4e/5x5_reduce
I1124 13:26:24.805362 12960 net.cpp:150] Setting up inception_4e/5x5_reduce
I1124 13:26:24.805377 12960 net.cpp:157] Top shape: 64 32 14 14 (401408)
I1124 13:26:24.805379 12960 net.cpp:165] Memory required for data: 3297879048
I1124 13:26:24.805385 12960 layer_factory.hpp:76] Creating layer inception_4e/relu_5x5_reduce
I1124 13:26:24.805392 12960 net.cpp:106] Creating Layer inception_4e/relu_5x5_reduce
I1124 13:26:24.805395 12960 net.cpp:454] inception_4e/relu_5x5_reduce <- inception_4e/5x5_reduce
I1124 13:26:24.805402 12960 net.cpp:397] inception_4e/relu_5x5_reduce -> inception_4e/5x5_reduce (in-place)
I1124 13:26:24.805574 12960 net.cpp:150] Setting up inception_4e/relu_5x5_reduce
I1124 13:26:24.805584 12960 net.cpp:157] Top shape: 64 32 14 14 (401408)
I1124 13:26:24.805589 12960 net.cpp:165] Memory required for data: 3299484680
I1124 13:26:24.805593 12960 layer_factory.hpp:76] Creating layer inception_4e/5x5
I1124 13:26:24.805619 12960 net.cpp:106] Creating Layer inception_4e/5x5
I1124 13:26:24.805627 12960 net.cpp:454] inception_4e/5x5 <- inception_4e/5x5_reduce
I1124 13:26:24.805634 12960 net.cpp:411] inception_4e/5x5 -> inception_4e/5x5
I1124 13:26:24.807389 12960 net.cpp:150] Setting up inception_4e/5x5
I1124 13:26:24.807402 12960 net.cpp:157] Top shape: 64 128 14 14 (1605632)
I1124 13:26:24.807406 12960 net.cpp:165] Memory required for data: 3305907208
I1124 13:26:24.807412 12960 layer_factory.hpp:76] Creating layer inception_4e/relu_5x5
I1124 13:26:24.807420 12960 net.cpp:106] Creating Layer inception_4e/relu_5x5
I1124 13:26:24.807423 12960 net.cpp:454] inception_4e/relu_5x5 <- inception_4e/5x5
I1124 13:26:24.807428 12960 net.cpp:397] inception_4e/relu_5x5 -> inception_4e/5x5 (in-place)
I1124 13:26:24.807745 12960 net.cpp:150] Setting up inception_4e/relu_5x5
I1124 13:26:24.807760 12960 net.cpp:157] Top shape: 64 128 14 14 (1605632)
I1124 13:26:24.807762 12960 net.cpp:165] Memory required for data: 3312329736
I1124 13:26:24.807766 12960 layer_factory.hpp:76] Creating layer inception_4e/pool
I1124 13:26:24.807772 12960 net.cpp:106] Creating Layer inception_4e/pool
I1124 13:26:24.807780 12960 net.cpp:454] inception_4e/pool <- inception_4d/output_inception_4d/output_0_split_4
I1124 13:26:24.807785 12960 net.cpp:411] inception_4e/pool -> inception_4e/pool
I1124 13:26:24.808006 12960 net.cpp:150] Setting up inception_4e/pool
I1124 13:26:24.808017 12960 net.cpp:157] Top shape: 64 528 14 14 (6623232)
I1124 13:26:24.808020 12960 net.cpp:165] Memory required for data: 3338822664
I1124 13:26:24.808023 12960 layer_factory.hpp:76] Creating layer inception_4e/pool_proj
I1124 13:26:24.808032 12960 net.cpp:106] Creating Layer inception_4e/pool_proj
I1124 13:26:24.808038 12960 net.cpp:454] inception_4e/pool_proj <- inception_4e/pool
I1124 13:26:24.808045 12960 net.cpp:411] inception_4e/pool_proj -> inception_4e/pool_proj
I1124 13:26:24.809561 12960 net.cpp:150] Setting up inception_4e/pool_proj
I1124 13:26:24.809576 12960 net.cpp:157] Top shape: 64 128 14 14 (1605632)
I1124 13:26:24.809578 12960 net.cpp:165] Memory required for data: 3345245192
I1124 13:26:24.809586 12960 layer_factory.hpp:76] Creating layer inception_4e/relu_pool_proj
I1124 13:26:24.809590 12960 net.cpp:106] Creating Layer inception_4e/relu_pool_proj
I1124 13:26:24.809598 12960 net.cpp:454] inception_4e/relu_pool_proj <- inception_4e/pool_proj
I1124 13:26:24.809604 12960 net.cpp:397] inception_4e/relu_pool_proj -> inception_4e/pool_proj (in-place)
I1124 13:26:24.809923 12960 net.cpp:150] Setting up inception_4e/relu_pool_proj
I1124 13:26:24.809937 12960 net.cpp:157] Top shape: 64 128 14 14 (1605632)
I1124 13:26:24.809939 12960 net.cpp:165] Memory required for data: 3351667720
I1124 13:26:24.809943 12960 layer_factory.hpp:76] Creating layer inception_4e/output
I1124 13:26:24.809949 12960 net.cpp:106] Creating Layer inception_4e/output
I1124 13:26:24.809953 12960 net.cpp:454] inception_4e/output <- inception_4e/1x1
I1124 13:26:24.809957 12960 net.cpp:454] inception_4e/output <- inception_4e/3x3
I1124 13:26:24.809962 12960 net.cpp:454] inception_4e/output <- inception_4e/5x5
I1124 13:26:24.809967 12960 net.cpp:454] inception_4e/output <- inception_4e/pool_proj
I1124 13:26:24.809973 12960 net.cpp:411] inception_4e/output -> inception_4e/output
I1124 13:26:24.810009 12960 net.cpp:150] Setting up inception_4e/output
I1124 13:26:24.810016 12960 net.cpp:157] Top shape: 64 832 14 14 (10436608)
I1124 13:26:24.810019 12960 net.cpp:165] Memory required for data: 3393414152
I1124 13:26:24.810022 12960 layer_factory.hpp:76] Creating layer pool4/3x3_s2
I1124 13:26:24.810029 12960 net.cpp:106] Creating Layer pool4/3x3_s2
I1124 13:26:24.810031 12960 net.cpp:454] pool4/3x3_s2 <- inception_4e/output
I1124 13:26:24.810037 12960 net.cpp:411] pool4/3x3_s2 -> pool4/3x3_s2
I1124 13:26:24.810245 12960 net.cpp:150] Setting up pool4/3x3_s2
I1124 13:26:24.810255 12960 net.cpp:157] Top shape: 64 832 7 7 (2609152)
I1124 13:26:24.810257 12960 net.cpp:165] Memory required for data: 3403850760
I1124 13:26:24.810261 12960 layer_factory.hpp:76] Creating layer pool4/3x3_s2_pool4/3x3_s2_0_split
I1124 13:26:24.810266 12960 net.cpp:106] Creating Layer pool4/3x3_s2_pool4/3x3_s2_0_split
I1124 13:26:24.810271 12960 net.cpp:454] pool4/3x3_s2_pool4/3x3_s2_0_split <- pool4/3x3_s2
I1124 13:26:24.810276 12960 net.cpp:411] pool4/3x3_s2_pool4/3x3_s2_0_split -> pool4/3x3_s2_pool4/3x3_s2_0_split_0
I1124 13:26:24.810284 12960 net.cpp:411] pool4/3x3_s2_pool4/3x3_s2_0_split -> pool4/3x3_s2_pool4/3x3_s2_0_split_1
I1124 13:26:24.810289 12960 net.cpp:411] pool4/3x3_s2_pool4/3x3_s2_0_split -> pool4/3x3_s2_pool4/3x3_s2_0_split_2
I1124 13:26:24.810295 12960 net.cpp:411] pool4/3x3_s2_pool4/3x3_s2_0_split -> pool4/3x3_s2_pool4/3x3_s2_0_split_3
I1124 13:26:24.810369 12960 net.cpp:150] Setting up pool4/3x3_s2_pool4/3x3_s2_0_split
I1124 13:26:24.810375 12960 net.cpp:157] Top shape: 64 832 7 7 (2609152)
I1124 13:26:24.810379 12960 net.cpp:157] Top shape: 64 832 7 7 (2609152)
I1124 13:26:24.810382 12960 net.cpp:157] Top shape: 64 832 7 7 (2609152)
I1124 13:26:24.810385 12960 net.cpp:157] Top shape: 64 832 7 7 (2609152)
I1124 13:26:24.810389 12960 net.cpp:165] Memory required for data: 3445597192
I1124 13:26:24.810391 12960 layer_factory.hpp:76] Creating layer inception_5a/1x1
I1124 13:26:24.810400 12960 net.cpp:106] Creating Layer inception_5a/1x1
I1124 13:26:24.810405 12960 net.cpp:454] inception_5a/1x1 <- pool4/3x3_s2_pool4/3x3_s2_0_split_0
I1124 13:26:24.810410 12960 net.cpp:411] inception_5a/1x1 -> inception_5a/1x1
I1124 13:26:24.813268 12960 net.cpp:150] Setting up inception_5a/1x1
I1124 13:26:24.813282 12960 net.cpp:157] Top shape: 64 256 7 7 (802816)
I1124 13:26:24.813287 12960 net.cpp:165] Memory required for data: 3448808456
I1124 13:26:24.813292 12960 layer_factory.hpp:76] Creating layer inception_5a/relu_1x1
I1124 13:26:24.813299 12960 net.cpp:106] Creating Layer inception_5a/relu_1x1
I1124 13:26:24.813303 12960 net.cpp:454] inception_5a/relu_1x1 <- inception_5a/1x1
I1124 13:26:24.813308 12960 net.cpp:397] inception_5a/relu_1x1 -> inception_5a/1x1 (in-place)
I1124 13:26:24.813616 12960 net.cpp:150] Setting up inception_5a/relu_1x1
I1124 13:26:24.813630 12960 net.cpp:157] Top shape: 64 256 7 7 (802816)
I1124 13:26:24.813635 12960 net.cpp:165] Memory required for data: 3452019720
I1124 13:26:24.813638 12960 layer_factory.hpp:76] Creating layer inception_5a/3x3_reduce
I1124 13:26:24.813647 12960 net.cpp:106] Creating Layer inception_5a/3x3_reduce
I1124 13:26:24.813652 12960 net.cpp:454] inception_5a/3x3_reduce <- pool4/3x3_s2_pool4/3x3_s2_0_split_1
I1124 13:26:24.813659 12960 net.cpp:411] inception_5a/3x3_reduce -> inception_5a/3x3_reduce
I1124 13:26:24.816134 12960 net.cpp:150] Setting up inception_5a/3x3_reduce
I1124 13:26:24.816149 12960 net.cpp:157] Top shape: 64 160 7 7 (501760)
I1124 13:26:24.816153 12960 net.cpp:165] Memory required for data: 3454026760
I1124 13:26:24.816159 12960 layer_factory.hpp:76] Creating layer inception_5a/relu_3x3_reduce
I1124 13:26:24.816166 12960 net.cpp:106] Creating Layer inception_5a/relu_3x3_reduce
I1124 13:26:24.816172 12960 net.cpp:454] inception_5a/relu_3x3_reduce <- inception_5a/3x3_reduce
I1124 13:26:24.816177 12960 net.cpp:397] inception_5a/relu_3x3_reduce -> inception_5a/3x3_reduce (in-place)
I1124 13:26:24.816499 12960 net.cpp:150] Setting up inception_5a/relu_3x3_reduce
I1124 13:26:24.816512 12960 net.cpp:157] Top shape: 64 160 7 7 (501760)
I1124 13:26:24.816515 12960 net.cpp:165] Memory required for data: 3456033800
I1124 13:26:24.816519 12960 layer_factory.hpp:76] Creating layer inception_5a/3x3
I1124 13:26:24.816529 12960 net.cpp:106] Creating Layer inception_5a/3x3
I1124 13:26:24.816534 12960 net.cpp:454] inception_5a/3x3 <- inception_5a/3x3_reduce
I1124 13:26:24.816540 12960 net.cpp:411] inception_5a/3x3 -> inception_5a/3x3
I1124 13:26:24.821171 12960 net.cpp:150] Setting up inception_5a/3x3
I1124 13:26:24.821184 12960 net.cpp:157] Top shape: 64 320 7 7 (1003520)
I1124 13:26:24.821188 12960 net.cpp:165] Memory required for data: 3460047880
I1124 13:26:24.821194 12960 layer_factory.hpp:76] Creating layer inception_5a/relu_3x3
I1124 13:26:24.821205 12960 net.cpp:106] Creating Layer inception_5a/relu_3x3
I1124 13:26:24.821209 12960 net.cpp:454] inception_5a/relu_3x3 <- inception_5a/3x3
I1124 13:26:24.821214 12960 net.cpp:397] inception_5a/relu_3x3 -> inception_5a/3x3 (in-place)
I1124 13:26:24.821394 12960 net.cpp:150] Setting up inception_5a/relu_3x3
I1124 13:26:24.821404 12960 net.cpp:157] Top shape: 64 320 7 7 (1003520)
I1124 13:26:24.821408 12960 net.cpp:165] Memory required for data: 3464061960
I1124 13:26:24.821411 12960 layer_factory.hpp:76] Creating layer inception_5a/5x5_reduce
I1124 13:26:24.821419 12960 net.cpp:106] Creating Layer inception_5a/5x5_reduce
I1124 13:26:24.821425 12960 net.cpp:454] inception_5a/5x5_reduce <- pool4/3x3_s2_pool4/3x3_s2_0_split_2
I1124 13:26:24.821431 12960 net.cpp:411] inception_5a/5x5_reduce -> inception_5a/5x5_reduce
I1124 13:26:24.822711 12960 net.cpp:150] Setting up inception_5a/5x5_reduce
I1124 13:26:24.822726 12960 net.cpp:157] Top shape: 64 32 7 7 (100352)
I1124 13:26:24.822728 12960 net.cpp:165] Memory required for data: 3464463368
I1124 13:26:24.822734 12960 layer_factory.hpp:76] Creating layer inception_5a/relu_5x5_reduce
I1124 13:26:24.822741 12960 net.cpp:106] Creating Layer inception_5a/relu_5x5_reduce
I1124 13:26:24.822744 12960 net.cpp:454] inception_5a/relu_5x5_reduce <- inception_5a/5x5_reduce
I1124 13:26:24.822751 12960 net.cpp:397] inception_5a/relu_5x5_reduce -> inception_5a/5x5_reduce (in-place)
I1124 13:26:24.822932 12960 net.cpp:150] Setting up inception_5a/relu_5x5_reduce
I1124 13:26:24.822942 12960 net.cpp:157] Top shape: 64 32 7 7 (100352)
I1124 13:26:24.822950 12960 net.cpp:165] Memory required for data: 3464864776
I1124 13:26:24.822954 12960 layer_factory.hpp:76] Creating layer inception_5a/5x5
I1124 13:26:24.822962 12960 net.cpp:106] Creating Layer inception_5a/5x5
I1124 13:26:24.822968 12960 net.cpp:454] inception_5a/5x5 <- inception_5a/5x5_reduce
I1124 13:26:24.822974 12960 net.cpp:411] inception_5a/5x5 -> inception_5a/5x5
I1124 13:26:24.824755 12960 net.cpp:150] Setting up inception_5a/5x5
I1124 13:26:24.824769 12960 net.cpp:157] Top shape: 64 128 7 7 (401408)
I1124 13:26:24.824774 12960 net.cpp:165] Memory required for data: 3466470408
I1124 13:26:24.824779 12960 layer_factory.hpp:76] Creating layer inception_5a/relu_5x5
I1124 13:26:24.824785 12960 net.cpp:106] Creating Layer inception_5a/relu_5x5
I1124 13:26:24.824790 12960 net.cpp:454] inception_5a/relu_5x5 <- inception_5a/5x5
I1124 13:26:24.824795 12960 net.cpp:397] inception_5a/relu_5x5 -> inception_5a/5x5 (in-place)
I1124 13:26:24.825116 12960 net.cpp:150] Setting up inception_5a/relu_5x5
I1124 13:26:24.825129 12960 net.cpp:157] Top shape: 64 128 7 7 (401408)
I1124 13:26:24.825132 12960 net.cpp:165] Memory required for data: 3468076040
I1124 13:26:24.825136 12960 layer_factory.hpp:76] Creating layer inception_5a/pool
I1124 13:26:24.825142 12960 net.cpp:106] Creating Layer inception_5a/pool
I1124 13:26:24.825146 12960 net.cpp:454] inception_5a/pool <- pool4/3x3_s2_pool4/3x3_s2_0_split_3
I1124 13:26:24.825153 12960 net.cpp:411] inception_5a/pool -> inception_5a/pool
I1124 13:26:24.825366 12960 net.cpp:150] Setting up inception_5a/pool
I1124 13:26:24.825376 12960 net.cpp:157] Top shape: 64 832 7 7 (2609152)
I1124 13:26:24.825379 12960 net.cpp:165] Memory required for data: 3478512648
I1124 13:26:24.825382 12960 layer_factory.hpp:76] Creating layer inception_5a/pool_proj
I1124 13:26:24.825389 12960 net.cpp:106] Creating Layer inception_5a/pool_proj
I1124 13:26:24.825393 12960 net.cpp:454] inception_5a/pool_proj <- inception_5a/pool
I1124 13:26:24.825402 12960 net.cpp:411] inception_5a/pool_proj -> inception_5a/pool_proj
I1124 13:26:24.827580 12960 net.cpp:150] Setting up inception_5a/pool_proj
I1124 13:26:24.827594 12960 net.cpp:157] Top shape: 64 128 7 7 (401408)
I1124 13:26:24.827599 12960 net.cpp:165] Memory required for data: 3480118280
I1124 13:26:24.827605 12960 layer_factory.hpp:76] Creating layer inception_5a/relu_pool_proj
I1124 13:26:24.827620 12960 net.cpp:106] Creating Layer inception_5a/relu_pool_proj
I1124 13:26:24.827623 12960 net.cpp:454] inception_5a/relu_pool_proj <- inception_5a/pool_proj
I1124 13:26:24.827628 12960 net.cpp:397] inception_5a/relu_pool_proj -> inception_5a/pool_proj (in-place)
I1124 13:26:24.827947 12960 net.cpp:150] Setting up inception_5a/relu_pool_proj
I1124 13:26:24.827960 12960 net.cpp:157] Top shape: 64 128 7 7 (401408)
I1124 13:26:24.827965 12960 net.cpp:165] Memory required for data: 3481723912
I1124 13:26:24.827968 12960 layer_factory.hpp:76] Creating layer inception_5a/output
I1124 13:26:24.827975 12960 net.cpp:106] Creating Layer inception_5a/output
I1124 13:26:24.827978 12960 net.cpp:454] inception_5a/output <- inception_5a/1x1
I1124 13:26:24.827983 12960 net.cpp:454] inception_5a/output <- inception_5a/3x3
I1124 13:26:24.827987 12960 net.cpp:454] inception_5a/output <- inception_5a/5x5
I1124 13:26:24.827991 12960 net.cpp:454] inception_5a/output <- inception_5a/pool_proj
I1124 13:26:24.827996 12960 net.cpp:411] inception_5a/output -> inception_5a/output
I1124 13:26:24.828033 12960 net.cpp:150] Setting up inception_5a/output
I1124 13:26:24.828039 12960 net.cpp:157] Top shape: 64 832 7 7 (2609152)
I1124 13:26:24.828042 12960 net.cpp:165] Memory required for data: 3492160520
I1124 13:26:24.828045 12960 layer_factory.hpp:76] Creating layer inception_5a/output_inception_5a/output_0_split
I1124 13:26:24.828050 12960 net.cpp:106] Creating Layer inception_5a/output_inception_5a/output_0_split
I1124 13:26:24.828054 12960 net.cpp:454] inception_5a/output_inception_5a/output_0_split <- inception_5a/output
I1124 13:26:24.828060 12960 net.cpp:411] inception_5a/output_inception_5a/output_0_split -> inception_5a/output_inception_5a/output_0_split_0
I1124 13:26:24.828066 12960 net.cpp:411] inception_5a/output_inception_5a/output_0_split -> inception_5a/output_inception_5a/output_0_split_1
I1124 13:26:24.828073 12960 net.cpp:411] inception_5a/output_inception_5a/output_0_split -> inception_5a/output_inception_5a/output_0_split_2
I1124 13:26:24.828078 12960 net.cpp:411] inception_5a/output_inception_5a/output_0_split -> inception_5a/output_inception_5a/output_0_split_3
I1124 13:26:24.828151 12960 net.cpp:150] Setting up inception_5a/output_inception_5a/output_0_split
I1124 13:26:24.828157 12960 net.cpp:157] Top shape: 64 832 7 7 (2609152)
I1124 13:26:24.828161 12960 net.cpp:157] Top shape: 64 832 7 7 (2609152)
I1124 13:26:24.828164 12960 net.cpp:157] Top shape: 64 832 7 7 (2609152)
I1124 13:26:24.828168 12960 net.cpp:157] Top shape: 64 832 7 7 (2609152)
I1124 13:26:24.828171 12960 net.cpp:165] Memory required for data: 3533906952
I1124 13:26:24.828174 12960 layer_factory.hpp:76] Creating layer inception_5b/1x1
I1124 13:26:24.828181 12960 net.cpp:106] Creating Layer inception_5b/1x1
I1124 13:26:24.828184 12960 net.cpp:454] inception_5b/1x1 <- inception_5a/output_inception_5a/output_0_split_0
I1124 13:26:24.828191 12960 net.cpp:411] inception_5b/1x1 -> inception_5b/1x1
I1124 13:26:24.831729 12960 net.cpp:150] Setting up inception_5b/1x1
I1124 13:26:24.831745 12960 net.cpp:157] Top shape: 64 384 7 7 (1204224)
I1124 13:26:24.831750 12960 net.cpp:165] Memory required for data: 3538723848
I1124 13:26:24.831756 12960 layer_factory.hpp:76] Creating layer inception_5b/relu_1x1
I1124 13:26:24.831763 12960 net.cpp:106] Creating Layer inception_5b/relu_1x1
I1124 13:26:24.831768 12960 net.cpp:454] inception_5b/relu_1x1 <- inception_5b/1x1
I1124 13:26:24.831773 12960 net.cpp:397] inception_5b/relu_1x1 -> inception_5b/1x1 (in-place)
I1124 13:26:24.832085 12960 net.cpp:150] Setting up inception_5b/relu_1x1
I1124 13:26:24.832099 12960 net.cpp:157] Top shape: 64 384 7 7 (1204224)
I1124 13:26:24.832103 12960 net.cpp:165] Memory required for data: 3543540744
I1124 13:26:24.832106 12960 layer_factory.hpp:76] Creating layer inception_5b/3x3_reduce
I1124 13:26:24.832114 12960 net.cpp:106] Creating Layer inception_5b/3x3_reduce
I1124 13:26:24.832118 12960 net.cpp:454] inception_5b/3x3_reduce <- inception_5a/output_inception_5a/output_0_split_1
I1124 13:26:24.832124 12960 net.cpp:411] inception_5b/3x3_reduce -> inception_5b/3x3_reduce
I1124 13:26:24.834822 12960 net.cpp:150] Setting up inception_5b/3x3_reduce
I1124 13:26:24.834844 12960 net.cpp:157] Top shape: 64 192 7 7 (602112)
I1124 13:26:24.834851 12960 net.cpp:165] Memory required for data: 3545949192
I1124 13:26:24.834861 12960 layer_factory.hpp:76] Creating layer inception_5b/relu_3x3_reduce
I1124 13:26:24.834868 12960 net.cpp:106] Creating Layer inception_5b/relu_3x3_reduce
I1124 13:26:24.834882 12960 net.cpp:454] inception_5b/relu_3x3_reduce <- inception_5b/3x3_reduce
I1124 13:26:24.834892 12960 net.cpp:397] inception_5b/relu_3x3_reduce -> inception_5b/3x3_reduce (in-place)
I1124 13:26:24.835132 12960 net.cpp:150] Setting up inception_5b/relu_3x3_reduce
I1124 13:26:24.835146 12960 net.cpp:157] Top shape: 64 192 7 7 (602112)
I1124 13:26:24.835151 12960 net.cpp:165] Memory required for data: 3548357640
I1124 13:26:24.835156 12960 layer_factory.hpp:76] Creating layer inception_5b/3x3
I1124 13:26:24.835170 12960 net.cpp:106] Creating Layer inception_5b/3x3
I1124 13:26:24.835175 12960 net.cpp:454] inception_5b/3x3 <- inception_5b/3x3_reduce
I1124 13:26:24.835186 12960 net.cpp:411] inception_5b/3x3 -> inception_5b/3x3
I1124 13:26:24.841770 12960 net.cpp:150] Setting up inception_5b/3x3
I1124 13:26:24.841791 12960 net.cpp:157] Top shape: 64 384 7 7 (1204224)
I1124 13:26:24.841795 12960 net.cpp:165] Memory required for data: 3553174536
I1124 13:26:24.841802 12960 layer_factory.hpp:76] Creating layer inception_5b/relu_3x3
I1124 13:26:24.841810 12960 net.cpp:106] Creating Layer inception_5b/relu_3x3
I1124 13:26:24.841816 12960 net.cpp:454] inception_5b/relu_3x3 <- inception_5b/3x3
I1124 13:26:24.841821 12960 net.cpp:397] inception_5b/relu_3x3 -> inception_5b/3x3 (in-place)
I1124 13:26:24.842145 12960 net.cpp:150] Setting up inception_5b/relu_3x3
I1124 13:26:24.842159 12960 net.cpp:157] Top shape: 64 384 7 7 (1204224)
I1124 13:26:24.842162 12960 net.cpp:165] Memory required for data: 3557991432
I1124 13:26:24.842165 12960 layer_factory.hpp:76] Creating layer inception_5b/5x5_reduce
I1124 13:26:24.842175 12960 net.cpp:106] Creating Layer inception_5b/5x5_reduce
I1124 13:26:24.842181 12960 net.cpp:454] inception_5b/5x5_reduce <- inception_5a/output_inception_5a/output_0_split_2
I1124 13:26:24.842188 12960 net.cpp:411] inception_5b/5x5_reduce -> inception_5b/5x5_reduce
I1124 13:26:24.843883 12960 net.cpp:150] Setting up inception_5b/5x5_reduce
I1124 13:26:24.843896 12960 net.cpp:157] Top shape: 64 48 7 7 (150528)
I1124 13:26:24.843901 12960 net.cpp:165] Memory required for data: 3558593544
I1124 13:26:24.843909 12960 layer_factory.hpp:76] Creating layer inception_5b/relu_5x5_reduce
I1124 13:26:24.843915 12960 net.cpp:106] Creating Layer inception_5b/relu_5x5_reduce
I1124 13:26:24.843919 12960 net.cpp:454] inception_5b/relu_5x5_reduce <- inception_5b/5x5_reduce
I1124 13:26:24.843924 12960 net.cpp:397] inception_5b/relu_5x5_reduce -> inception_5b/5x5_reduce (in-place)
I1124 13:26:24.844244 12960 net.cpp:150] Setting up inception_5b/relu_5x5_reduce
I1124 13:26:24.844256 12960 net.cpp:157] Top shape: 64 48 7 7 (150528)
I1124 13:26:24.844260 12960 net.cpp:165] Memory required for data: 3559195656
I1124 13:26:24.844264 12960 layer_factory.hpp:76] Creating layer inception_5b/5x5
I1124 13:26:24.844271 12960 net.cpp:106] Creating Layer inception_5b/5x5
I1124 13:26:24.844275 12960 net.cpp:454] inception_5b/5x5 <- inception_5b/5x5_reduce
I1124 13:26:24.844282 12960 net.cpp:411] inception_5b/5x5 -> inception_5b/5x5
I1124 13:26:24.846367 12960 net.cpp:150] Setting up inception_5b/5x5
I1124 13:26:24.846381 12960 net.cpp:157] Top shape: 64 128 7 7 (401408)
I1124 13:26:24.846385 12960 net.cpp:165] Memory required for data: 3560801288
I1124 13:26:24.846390 12960 layer_factory.hpp:76] Creating layer inception_5b/relu_5x5
I1124 13:26:24.846397 12960 net.cpp:106] Creating Layer inception_5b/relu_5x5
I1124 13:26:24.846401 12960 net.cpp:454] inception_5b/relu_5x5 <- inception_5b/5x5
I1124 13:26:24.846406 12960 net.cpp:397] inception_5b/relu_5x5 -> inception_5b/5x5 (in-place)
I1124 13:26:24.846585 12960 net.cpp:150] Setting up inception_5b/relu_5x5
I1124 13:26:24.846596 12960 net.cpp:157] Top shape: 64 128 7 7 (401408)
I1124 13:26:24.846598 12960 net.cpp:165] Memory required for data: 3562406920
I1124 13:26:24.846601 12960 layer_factory.hpp:76] Creating layer inception_5b/pool
I1124 13:26:24.846607 12960 net.cpp:106] Creating Layer inception_5b/pool
I1124 13:26:24.846611 12960 net.cpp:454] inception_5b/pool <- inception_5a/output_inception_5a/output_0_split_3
I1124 13:26:24.846618 12960 net.cpp:411] inception_5b/pool -> inception_5b/pool
I1124 13:26:24.846985 12960 net.cpp:150] Setting up inception_5b/pool
I1124 13:26:24.846998 12960 net.cpp:157] Top shape: 64 832 7 7 (2609152)
I1124 13:26:24.847002 12960 net.cpp:165] Memory required for data: 3572843528
I1124 13:26:24.847005 12960 layer_factory.hpp:76] Creating layer inception_5b/pool_proj
I1124 13:26:24.847013 12960 net.cpp:106] Creating Layer inception_5b/pool_proj
I1124 13:26:24.847018 12960 net.cpp:454] inception_5b/pool_proj <- inception_5b/pool
I1124 13:26:24.847025 12960 net.cpp:411] inception_5b/pool_proj -> inception_5b/pool_proj
I1124 13:26:24.849221 12960 net.cpp:150] Setting up inception_5b/pool_proj
I1124 13:26:24.849236 12960 net.cpp:157] Top shape: 64 128 7 7 (401408)
I1124 13:26:24.849239 12960 net.cpp:165] Memory required for data: 3574449160
I1124 13:26:24.849246 12960 layer_factory.hpp:76] Creating layer inception_5b/relu_pool_proj
I1124 13:26:24.849251 12960 net.cpp:106] Creating Layer inception_5b/relu_pool_proj
I1124 13:26:24.849256 12960 net.cpp:454] inception_5b/relu_pool_proj <- inception_5b/pool_proj
I1124 13:26:24.849261 12960 net.cpp:397] inception_5b/relu_pool_proj -> inception_5b/pool_proj (in-place)
I1124 13:26:24.849438 12960 net.cpp:150] Setting up inception_5b/relu_pool_proj
I1124 13:26:24.849449 12960 net.cpp:157] Top shape: 64 128 7 7 (401408)
I1124 13:26:24.849452 12960 net.cpp:165] Memory required for data: 3576054792
I1124 13:26:24.849455 12960 layer_factory.hpp:76] Creating layer inception_5b/output
I1124 13:26:24.849462 12960 net.cpp:106] Creating Layer inception_5b/output
I1124 13:26:24.849467 12960 net.cpp:454] inception_5b/output <- inception_5b/1x1
I1124 13:26:24.849472 12960 net.cpp:454] inception_5b/output <- inception_5b/3x3
I1124 13:26:24.849475 12960 net.cpp:454] inception_5b/output <- inception_5b/5x5
I1124 13:26:24.849478 12960 net.cpp:454] inception_5b/output <- inception_5b/pool_proj
I1124 13:26:24.849483 12960 net.cpp:411] inception_5b/output -> inception_5b/output
I1124 13:26:24.849521 12960 net.cpp:150] Setting up inception_5b/output
I1124 13:26:24.849529 12960 net.cpp:157] Top shape: 64 1024 7 7 (3211264)
I1124 13:26:24.849531 12960 net.cpp:165] Memory required for data: 3588899848
I1124 13:26:24.849534 12960 layer_factory.hpp:76] Creating layer pool5/7x7_s1
I1124 13:26:24.849540 12960 net.cpp:106] Creating Layer pool5/7x7_s1
I1124 13:26:24.849544 12960 net.cpp:454] pool5/7x7_s1 <- inception_5b/output
I1124 13:26:24.849550 12960 net.cpp:411] pool5/7x7_s1 -> pool5/7x7_s1
I1124 13:26:24.849884 12960 net.cpp:150] Setting up pool5/7x7_s1
I1124 13:26:24.849896 12960 net.cpp:157] Top shape: 64 1024 1 1 (65536)
I1124 13:26:24.849900 12960 net.cpp:165] Memory required for data: 3589161992
I1124 13:26:24.849902 12960 layer_factory.hpp:76] Creating layer pool5/drop_7x7_s1
I1124 13:26:24.849908 12960 net.cpp:106] Creating Layer pool5/drop_7x7_s1
I1124 13:26:24.849912 12960 net.cpp:454] pool5/drop_7x7_s1 <- pool5/7x7_s1
I1124 13:26:24.849918 12960 net.cpp:397] pool5/drop_7x7_s1 -> pool5/7x7_s1 (in-place)
I1124 13:26:24.849952 12960 net.cpp:150] Setting up pool5/drop_7x7_s1
I1124 13:26:24.849961 12960 net.cpp:157] Top shape: 64 1024 1 1 (65536)
I1124 13:26:24.849963 12960 net.cpp:165] Memory required for data: 3589424136
I1124 13:26:24.849967 12960 layer_factory.hpp:76] Creating layer loss3/classifier-attribute
I1124 13:26:24.849972 12960 net.cpp:106] Creating Layer loss3/classifier-attribute
I1124 13:26:24.849975 12960 net.cpp:454] loss3/classifier-attribute <- pool5/7x7_s1
I1124 13:26:24.849983 12960 net.cpp:411] loss3/classifier-attribute -> loss3/classifier-attribute
I1124 13:26:24.850237 12960 net.cpp:150] Setting up loss3/classifier-attribute
I1124 13:26:24.850246 12960 net.cpp:157] Top shape: 64 16 (1024)
I1124 13:26:24.850250 12960 net.cpp:165] Memory required for data: 3589428232
I1124 13:26:24.850255 12960 layer_factory.hpp:76] Creating layer loss3/loss3
I1124 13:26:24.850262 12960 net.cpp:106] Creating Layer loss3/loss3
I1124 13:26:24.850265 12960 net.cpp:454] loss3/loss3 <- loss3/classifier-attribute
I1124 13:26:24.850270 12960 net.cpp:454] loss3/loss3 <- label_data_1_split_2
I1124 13:26:24.850275 12960 net.cpp:411] loss3/loss3 -> loss3/loss3
…
I1124 13:26:24.857820 12960 net.cpp:322] The NetState phase (1) differed from the phase (0) specified by a rule in layer data
I1124 13:26:24.860069 12960 net.cpp:49] Initializing net from parameters: 
name: "GoogleNet-finetune-for-cigit"
state {
  phase: TEST
}
layer {
  name: "data"
  type: "ImageData"
  top: "data"
  top: "label"
  include {
    phase: TEST
  }
  transform_param {
    mirror: false
    crop_size: 224
    mean_value: 104
    mean_value: 117
    mean_value: 123
  }
  image_data_param {
    source: "pad_test.txt"
    batch_size: 64
    new_height: 256
    new_width: 256
  }
}
layer {
  name: "conv1/7x7_s2"
  type: "Convolution"
  bottom: "data"
  top: "conv1/7x7_s2"
  param {
    lr_mult: 1
    decay_mult: 1
  }
  param {
    lr_mult: 2
    decay_mult: 0
  }
  convolution_param {
    num_output: 64
    pad: 3
    kernel_size: 7
    stride: 2
    weight_filler {
      type: "xavier"
    }
    bias_filler {
      type: "constant"
      value: 0.2
    }
  }
}
layer {
  name: "conv1/relu_7x7"
  type: "ReLU"
  bottom: "conv1/7x7_s2"
  top: "conv1/7x7_s2"
}
layer {
  name: "pool1/3x3_s2"
  type: "Pooling"
  bottom: "conv1/7x7_s2"
  top: "pool1/3x3_s2"
  pooling_param {
    pool: MAX
    kernel_size: 3
    stride: 2
  }
}
layer {
  name: "pool1/norm1"
  type: "LRN"
  bottom: "pool1/3x3_s2"
  top: "pool1/norm1"
  lrn_param {
    local_size: 5
    alpha: 0.0001
    beta: 0.75
  }
}
layer {
  name: "conv2/3x3_reduce"
  type: "Convolution"
  bottom: "pool1/norm1"
  top: "conv2/3x3_reduce"
  param {
    lr_mult: 1
    decay_mult: 1
  }
  param {
    lr_mult: 2
    decay_mult: 0
  }
  convolution_param {
    num_output: 64
    kernel_size: 1
    weight_filler {
      type: "xavier"
    }
    bias_filler {
      type: "constant"
      value: 0.2
    }
  }
}
layer {
  name: "conv2/relu_3x3_reduce"
  type: "ReLU"
  bottom: "conv2/3x3_reduce"
  top: "conv2/3x3_reduce"
}
layer {
  name: "conv2/3x3"
  type: "Convolution"
  bottom: "conv2/3x3_reduce"
  top: "conv2/3x3"
  param {
    lr_mult: 1
    decay_mult: 1
  }
  param {
    lr_mult: 2
    decay_mult: 0
  }
  convolution_param {
    num_output: 192
    pad: 1
    kernel_size: 3
    weight_filler {
      type: "xavier"
    }
    bias_filler {
      type: "constant"
      value: 0.2
    }
  }
}
layer {
  name: "conv2/relu_3x3"
  type: "ReLU"
  bottom: "conv2/3x3"
  top: "conv2/3x3"
}
layer {
  name: "conv2/norm2"
  type: "LRN"
  bottom: "conv2/3x3"
  top: "conv2/norm2"
  lrn_param {
    local_size: 5
    alpha: 0.0001
    beta: 0.75
  }
}
layer {
  name: "pool2/3x3_s2"
  type: "Pooling"
  bottom: "conv2/norm2"
  top: "pool2/3x3_s2"
  pooling_param {
    pool: MAX
    kernel_size: 3
    stride: 2
  }
}
layer {
  name: "inception_3a/1x1"
  type: "Convolution"
  bottom: "pool2/3x3_s2"
  top: "inception_3a/1x1"
  param {
    lr_mult: 1
    decay_mult: 1
  }
  param {
    lr_mult: 2
    decay_mult: 0
  }
  convolution_param {
    num_output: 64
    kernel_size: 1
    weight_filler {
      type: "xavier"
    }
    bias_filler {
      type: "constant"
      value: 0.2
    }
  }
}
layer {
  name: "inception_3a/relu_1x1"
  type: "ReLU"
  bottom: "inception_3a/1x1"
  top: "inception_3a/1x1"
}
layer {
  name: "inception_3a/3x3_reduce"
  type: "Convolution"
  bottom: "pool2/3x3_s2"
  top: "inception_3a/3x3_reduce"
  param {
    lr_mult: 1
    decay_mult: 1
  }
  param {
    lr_mult: 2
    decay_mult: 0
  }
  convolution_param {
    num_output: 96
    kernel_size: 1
    weight_filler {
      type: "xavier"
    }
    bias_filler {
      type: "constant"
      value: 0.2
    }
  }
}
layer {
  name: "inception_3a/relu_3x3_reduce"
  type: "ReLU"
  bottom: "inception_3a/3x3_reduce"
  top: "inception_3a/3x3_reduce"
}
layer {
  name: "inception_3a/3x3"
  type: "Convolution"
  bottom: "inception_3a/3x3_reduce"
  top: "inception_3a/3x3"
  param {
    lr_mult: 1
    decay_mult: 1
  }
  param {
    lr_mult: 2
    decay_mult: 0
  }
  convolution_param {
    num_output: 128
    pad: 1
    kernel_size: 3
    weight_filler {
      type: "xavier"
    }
    bias_filler {
      type: "constant"
      value: 0.2
    }
  }
}
layer {
  name: "inception_3a/relu_3x3"
  type: "ReLU"
  bottom: "inception_3a/3x3"
  top: "inception_3a/3x3"
}
layer {
  name: "inception_3a/5x5_reduce"
  type: "Convolution"
  bottom: "pool2/3x3_s2"
  top: "inception_3a/5x5_reduce"
  param {
    lr_mult: 1
    decay_mult: 1
  }
  param {
    lr_mult: 2
    decay_mult: 0
  }
  convolution_param {
    num_output: 16
    kernel_size: 1
    weight_filler {
      type: "xavier"
    }
    bias_filler {
      type: "constant"
      value: 0.2
    }
  }
}
layer {
  name: "inception_3a/relu_5x5_reduce"
  type: "ReLU"
  bottom: "inception_3a/5x5_reduce"
  top: "inception_3a/5x5_reduce"
}
layer {
  name: "inception_3a/5x5"
  type: "Convolution"
  bottom: "inception_3a/5x5_reduce"
  top: "inception_3a/5x5"
  param {
    lr_mult: 1
    decay_mult: 1
  }
  param {
    lr_mult: 2
    decay_mult: 0
  }
  convolution_param {
    num_output: 32
    pad: 2
    kernel_size: 5
    weight_filler {
      type: "xavier"
    }
    bias_filler {
      type: "constant"
      value: 0.2
    }
  }
}
layer {
  name: "inception_3a/relu_5x5"
  type: "ReLU"
  bottom: "inception_3a/5x5"
  top: "inception_3a/5x5"
}
layer {
  name: "inception_3a/pool"
  type: "Pooling"
  bottom: "pool2/3x3_s2"
  top: "inception_3a/pool"
  pooling_param {
    pool: MAX
    kernel_size: 3
    stride: 1
    pad: 1
  }
}
layer {
  name: "inception_3a/pool_proj"
  type: "Convolution"
  bottom: "inception_3a/pool"
  top: "inception_3a/pool_proj"
  param {
    lr_mult: 1
    decay_mult: 1
  }
  param {
    lr_mult: 2
    decay_mult: 0
  }
  convolution_param {
    num_output: 32
    kernel_size: 1
    weight_filler {
      type: "xavier"
    }
    bias_filler {
      type: "constant"
      value: 0.2
    }
  }
}
layer {
  name: "inception_3a/relu_pool_proj"
  type: "ReLU"
  bottom: "inception_3a/pool_proj"
  top: "inception_3a/pool_proj"
}
layer {
  name: "inception_3a/output"
  type: "Concat"
  bottom: "inception_3a/1x1"
  bottom: "inception_3a/3x3"
  bottom: "inception_3a/5x5"
  bottom: "inception_3a/pool_proj"
  top: "inception_3a/output"
}
layer {
  name: "inception_3b/1x1"
  type: "Convolution"
  bottom: "inception_3a/output"
  top: "inception_3b/1x1"
  param {
    lr_mult: 1
    decay_mult: 1
  }
  param {
    lr_mult: 2
    decay_mult: 0
  }
  convolution_param {
    num_output: 128
    kernel_size: 1
    weight_filler {
      type: "xavier"
    }
    bias_filler {
      type: "constant"
      value: 0.2
    }
  }
}
layer {
  name: "inception_3b/relu_1x1"
  type: "ReLU"
  bottom: "inception_3b/1x1"
  top: "inception_3b/1x1"
}
layer {
  name: "inception_3b/3x3_reduce"
  type: "Convolution"
  bottom: "inception_3a/output"
  top: "inception_3b/3x3_reduce"
  param {
    lr_mult: 1
    decay_mult: 1
  }
  param {
    lr_mult: 2
    decay_mult: 0
  }
  convolution_param {
    num_output: 128
    kernel_size: 1
    weight_filler {
      type: "xavier"
    }
    bias_filler {
      type: "constant"
      value: 0.2
    }
  }
}
layer {
  name: "inception_3b/relu_3x3_reduce"
  type: "ReLU"
  bottom: "inception_3b/3x3_reduce"
  top: "inception_3b/3x3_reduce"
}
layer {
  name: "inception_3b/3x3"
  type: "Convolution"
  bottom: "inception_3b/3x3_reduce"
  top: "inception_3b/3x3"
  param {
    lr_mult: 1
    decay_mult: 1
  }
  param {
    lr_mult: 2
    decay_mult: 0
  }
  convolution_param {
    num_output: 192
    pad: 1
    kernel_size: 3
    weight_filler {
      type: "xavier"
    }
    bias_filler {
      type: "constant"
      value: 0.2
    }
  }
}
layer {
  name: "inception_3b/relu_3x3"
  type: "ReLU"
  bottom: "inception_3b/3x3"
  top: "inception_3b/3x3"
}
layer {
  name: "inception_3b/5x5_reduce"
  type: "Convolution"
  bottom: "inception_3a/output"
  top: "inception_3b/5x5_reduce"
  param {
    lr_mult: 1
    decay_mult: 1
  }
  param {
    lr_mult: 2
    decay_mult: 0
  }
  convolution_param {
    num_output: 32
    kernel_size: 1
    weight_filler {
      type: "xavier"
    }
    bias_filler {
      type: "constant"
      value: 0.2
    }
  }
}
layer {
  name: "inception_3b/relu_5x5_reduce"
  type: "ReLU"
  bottom: "inception_3b/5x5_reduce"
  top: "inception_3b/5x5_reduce"
}
layer {
  name: "inception_3b/5x5"
  type: "Convolution"
  bottom: "inception_3b/5x5_reduce"
  top: "inception_3b/5x5"
  param {
    lr_mult: 1
    decay_mult: 1
  }
  param {
    lr_mult: 2
    decay_mult: 0
  }
  convolution_param {
    num_output: 96
    pad: 2
    kernel_size: 5
    weight_filler {
      type: "xavier"
    }
    bias_filler {
      type: "constant"
      value: 0.2
    }
  }
}
layer {
  name: "inception_3b/relu_5x5"
  type: "ReLU"
  bottom: "inception_3b/5x5"
  top: "inception_3b/5x5"
}
layer {
  name: "inception_3b/pool"
  type: "Pooling"
  bottom: "inception_3a/output"
  top: "inception_3b/pool"
  pooling_param {
    pool: MAX
    kernel_size: 3
    stride: 1
    pad: 1
  }
}
layer {
  name: "inception_3b/pool_proj"
  type: "Convolution"
  bottom: "inception_3b/pool"
  top: "inception_3b/pool_proj"
  param {
    lr_mult: 1
    decay_mult: 1
  }
  param {
    lr_mult: 2
    decay_mult: 0
  }
  convolution_param {
    num_output: 64
    kernel_size: 1
    weight_filler {
      type: "xavier"
    }
    bias_filler {
      type: "constant"
      value: 0.2
    }
  }
}
layer {
  name: "inception_3b/relu_pool_proj"
  type: "ReLU"
  bottom: "inception_3b/pool_proj"
  top: "inception_3b/pool_proj"
}
layer {
  name: "inception_3b/output"
  type: "Concat"
  bottom: "inception_3b/1x1"
  bottom: "inception_3b/3x3"
  bottom: "inception_3b/5x5"
  bottom: "inception_3b/pool_proj"
  top: "inception_3b/output"
}
layer {
  name: "pool3/3x3_s2"
  type: "Pooling"
  bottom: "inception_3b/output"
  top: "pool3/3x3_s2"
  pooling_param {
    pool: MAX
    kernel_size: 3
    stride: 2
  }
}
layer {
  name: "inception_4a/1x1"
  type: "Convolution"
  bottom: "pool3/3x3_s2"
  top: "inception_4a/1x1"
  param {
    lr_mult: 1
    decay_mult: 1
  }
  param {
    lr_mult: 2
    decay_mult: 0
  }
  convolution_param {
    num_output: 192
    kernel_size: 1
    weight_filler {
      type: "xavier"
    }
    bias_filler {
      type: "constant"
      value: 0.2
    }
  }
}
layer {
  name: "inception_4a/relu_1x1"
  type: "ReLU"
  bottom: "inception_4a/1x1"
  top: "inception_4a/1x1"
}
layer {
  name: "inception_4a/3x3_reduce"
  type: "Convolution"
  bottom: "pool3/3x3_s2"
  top: "inception_4a/3x3_reduce"
  param {
    lr_mult: 1
    decay_mult: 1
  }
  param {
    lr_mult: 2
    decay_mult: 0
  }
  convolution_param {
    num_output: 96
    kernel_size: 1
    weight_filler {
      type: "xavier"
    }
    bias_filler {
      type: "constant"
      value: 0.2
    }
  }
}
layer {
  name: "inception_4a/relu_3x3_reduce"
  type: "ReLU"
  bottom: "inception_4a/3x3_reduce"
  top: "inception_4a/3x3_reduce"
}
layer {
  name: "inception_4a/3x3"
  type: "Convolution"
  bottom: "inception_4a/3x3_reduce"
  top: "inception_4a/3x3"
  param {
    lr_mult: 1
    decay_mult: 1
  }
  param {
    lr_mult: 2
    decay_mult: 0
  }
  convolution_param {
    num_output: 208
    pad: 1
    kernel_size: 3
    weight_filler {
      type: "xavier"
    }
    bias_filler {
      type: "constant"
      value: 0.2
    }
  }
}
layer {
  name: "inception_4a/relu_3x3"
  type: "ReLU"
  bottom: "inception_4a/3x3"
  top: "inception_4a/3x3"
}
layer {
  name: "inception_4a/5x5_reduce"
  type: "Convolution"
  bottom: "pool3/3x3_s2"
  top: "inception_4a/5x5_reduce"
  param {
    lr_mult: 1
    decay_mult: 1
  }
  param {
    lr_mult: 2
    decay_mult: 0
  }
  convolution_param {
    num_output: 16
    kernel_size: 1
    weight_filler {
      type: "xavier"
    }
    bias_filler {
      type: "constant"
      value: 0.2
    }
  }
}
layer {
  name: "inception_4a/relu_5x5_reduce"
  type: "ReLU"
  bottom: "inception_4a/5x5_reduce"
  top: "inception_4a/5x5_reduce"
}
layer {
  name: "inception_4a/5x5"
  type: "Convolution"
  bottom: "inception_4a/5x5_reduce"
  top: "inception_4a/5x5"
  param {
    lr_mult: 1
    decay_mult: 1
  }
  param {
    lr_mult: 2
    decay_mult: 0
  }
  convolution_param {
    num_output: 48
    pad: 2
    kernel_size: 5
    weight_filler {
      type: "xavier"
    }
    bias_filler {
      type: "constant"
      value: 0.2
    }
  }
}
layer {
  name: "inception_4a/relu_5x5"
  type: "ReLU"
  bottom: "inception_4a/5x5"
  top: "inception_4a/5x5"
}
layer {
  name: "inception_4a/pool"
  type: "Pooling"
  bottom: "pool3/3x3_s2"
  top: "inception_4a/pool"
  pooling_param {
    pool: MAX
    kernel_size: 3
    stride: 1
    pad: 1
  }
}
layer {
  name: "inception_4a/pool_proj"
  type: "Convolution"
  bottom: "inception_4a/pool"
  top: "inception_4a/pool_proj"
  param {
    lr_mult: 1
    decay_mult: 1
  }
  param {
    lr_mult: 2
    decay_mult: 0
  }
  convolution_param {
    num_output: 64
    kernel_size: 1
    weight_filler {
      type: "xavier"
    }
    bias_filler {
      type: "constant"
      value: 0.2
    }
  }
}
layer {
  name: "inception_4a/relu_pool_proj"
  type: "ReLU"
  bottom: "inception_4a/pool_proj"
  top: "inception_4a/pool_proj"
}
layer {
  name: "inception_4a/output"
  type: "Concat"
  bottom: "inception_4a/1x1"
  bottom: "inception_4a/3x3"
  bottom: "inception_4a/5x5"
  bottom: "inception_4a/pool_proj"
  top: "inception_4a/output"
}
layer {
  name: "loss1/ave_pool"
  type: "Pooling"
  bottom: "inception_4a/output"
  top: "loss1/ave_pool"
  pooling_param {
    pool: AVE
    kernel_size: 5
    stride: 3
  }
}
layer {
  name: "loss1/conv"
  type: "Convolution"
  bottom: "loss1/ave_pool"
  top: "loss1/conv"
  param {
    lr_mult: 1
    decay_mult: 1
  }
  param {
    lr_mult: 2
    decay_mult: 0
  }
  convolution_param {
    num_output: 128
    kernel_size: 1
    weight_filler {
      type: "xavier"
    }
    bias_filler {
      type: "constant"
      value: 0.2
    }
  }
}
layer {
  name: "loss1/relu_conv"
  type: "ReLU"
  bottom: "loss1/conv"
  top: "loss1/conv"
}
layer {
  name: "loss1/fc"
  type: "InnerProduct"
  bottom: "loss1/conv"
  top: "loss1/fc"
  param {
    lr_mult: 1
    decay_mult: 1
  }
  param {
    lr_mult: 2
    decay_mult: 0
  }
  inner_product_param {
…
I1124 13:26:25.055174 12960 net.cpp:106] Creating Layer inception_4c/pool
I1124 13:26:25.055178 12960 net.cpp:454] inception_4c/pool <- inception_4b/output_inception_4b/output_0_split_3
I1124 13:26:25.055186 12960 net.cpp:411] inception_4c/pool -> inception_4c/pool
I1124 13:26:25.055426 12960 net.cpp:150] Setting up inception_4c/pool
I1124 13:26:25.055435 12960 net.cpp:157] Top shape: 64 512 14 14 (6422528)
I1124 13:26:25.055438 12960 net.cpp:165] Memory required for data: 2828252936
I1124 13:26:25.055441 12960 layer_factory.hpp:76] Creating layer inception_4c/pool_proj
I1124 13:26:25.055449 12960 net.cpp:106] Creating Layer inception_4c/pool_proj
I1124 13:26:25.055454 12960 net.cpp:454] inception_4c/pool_proj <- inception_4c/pool
I1124 13:26:25.055460 12960 net.cpp:411] inception_4c/pool_proj -> inception_4c/pool_proj
I1124 13:26:25.056959 12960 net.cpp:150] Setting up inception_4c/pool_proj
I1124 13:26:25.056972 12960 net.cpp:157] Top shape: 64 64 14 14 (802816)
I1124 13:26:25.056977 12960 net.cpp:165] Memory required for data: 2831464200
I1124 13:26:25.056982 12960 layer_factory.hpp:76] Creating layer inception_4c/relu_pool_proj
I1124 13:26:25.056988 12960 net.cpp:106] Creating Layer inception_4c/relu_pool_proj
I1124 13:26:25.056991 12960 net.cpp:454] inception_4c/relu_pool_proj <- inception_4c/pool_proj
I1124 13:26:25.056998 12960 net.cpp:397] inception_4c/relu_pool_proj -> inception_4c/pool_proj (in-place)
I1124 13:26:25.057342 12960 net.cpp:150] Setting up inception_4c/relu_pool_proj
I1124 13:26:25.057354 12960 net.cpp:157] Top shape: 64 64 14 14 (802816)
I1124 13:26:25.057358 12960 net.cpp:165] Memory required for data: 2834675464
I1124 13:26:25.057361 12960 layer_factory.hpp:76] Creating layer inception_4c/output
I1124 13:26:25.057368 12960 net.cpp:106] Creating Layer inception_4c/output
I1124 13:26:25.057371 12960 net.cpp:454] inception_4c/output <- inception_4c/1x1
I1124 13:26:25.057376 12960 net.cpp:454] inception_4c/output <- inception_4c/3x3
I1124 13:26:25.057380 12960 net.cpp:454] inception_4c/output <- inception_4c/5x5
I1124 13:26:25.057384 12960 net.cpp:454] inception_4c/output <- inception_4c/pool_proj
I1124 13:26:25.057389 12960 net.cpp:411] inception_4c/output -> inception_4c/output
I1124 13:26:25.057435 12960 net.cpp:150] Setting up inception_4c/output
I1124 13:26:25.057443 12960 net.cpp:157] Top shape: 64 512 14 14 (6422528)
I1124 13:26:25.057446 12960 net.cpp:165] Memory required for data: 2860365576
I1124 13:26:25.057449 12960 layer_factory.hpp:76] Creating layer inception_4c/output_inception_4c/output_0_split
I1124 13:26:25.057457 12960 net.cpp:106] Creating Layer inception_4c/output_inception_4c/output_0_split
I1124 13:26:25.057461 12960 net.cpp:454] inception_4c/output_inception_4c/output_0_split <- inception_4c/output
I1124 13:26:25.057466 12960 net.cpp:411] inception_4c/output_inception_4c/output_0_split -> inception_4c/output_inception_4c/output_0_split_0
I1124 13:26:25.057471 12960 net.cpp:411] inception_4c/output_inception_4c/output_0_split -> inception_4c/output_inception_4c/output_0_split_1
I1124 13:26:25.057477 12960 net.cpp:411] inception_4c/output_inception_4c/output_0_split -> inception_4c/output_inception_4c/output_0_split_2
I1124 13:26:25.057482 12960 net.cpp:411] inception_4c/output_inception_4c/output_0_split -> inception_4c/output_inception_4c/output_0_split_3
I1124 13:26:25.057581 12960 net.cpp:150] Setting up inception_4c/output_inception_4c/output_0_split
I1124 13:26:25.057590 12960 net.cpp:157] Top shape: 64 512 14 14 (6422528)
I1124 13:26:25.057593 12960 net.cpp:157] Top shape: 64 512 14 14 (6422528)
I1124 13:26:25.057596 12960 net.cpp:157] Top shape: 64 512 14 14 (6422528)
I1124 13:26:25.057600 12960 net.cpp:157] Top shape: 64 512 14 14 (6422528)
I1124 13:26:25.057602 12960 net.cpp:165] Memory required for data: 2963126024
I1124 13:26:25.057605 12960 layer_factory.hpp:76] Creating layer inception_4d/1x1
I1124 13:26:25.057615 12960 net.cpp:106] Creating Layer inception_4d/1x1
I1124 13:26:25.057617 12960 net.cpp:454] inception_4d/1x1 <- inception_4c/output_inception_4c/output_0_split_0
I1124 13:26:25.057624 12960 net.cpp:411] inception_4d/1x1 -> inception_4d/1x1
I1124 13:26:25.059120 12960 net.cpp:150] Setting up inception_4d/1x1
I1124 13:26:25.059134 12960 net.cpp:157] Top shape: 64 112 14 14 (1404928)
I1124 13:26:25.059137 12960 net.cpp:165] Memory required for data: 2968745736
I1124 13:26:25.059144 12960 layer_factory.hpp:76] Creating layer inception_4d/relu_1x1
I1124 13:26:25.059149 12960 net.cpp:106] Creating Layer inception_4d/relu_1x1
I1124 13:26:25.059154 12960 net.cpp:454] inception_4d/relu_1x1 <- inception_4d/1x1
I1124 13:26:25.059159 12960 net.cpp:397] inception_4d/relu_1x1 -> inception_4d/1x1 (in-place)
I1124 13:26:25.059507 12960 net.cpp:150] Setting up inception_4d/relu_1x1
I1124 13:26:25.059520 12960 net.cpp:157] Top shape: 64 112 14 14 (1404928)
I1124 13:26:25.059523 12960 net.cpp:165] Memory required for data: 2974365448
I1124 13:26:25.059526 12960 layer_factory.hpp:76] Creating layer inception_4d/3x3_reduce
I1124 13:26:25.059535 12960 net.cpp:106] Creating Layer inception_4d/3x3_reduce
I1124 13:26:25.059540 12960 net.cpp:454] inception_4d/3x3_reduce <- inception_4c/output_inception_4c/output_0_split_1
I1124 13:26:25.059547 12960 net.cpp:411] inception_4d/3x3_reduce -> inception_4d/3x3_reduce
I1124 13:26:25.061345 12960 net.cpp:150] Setting up inception_4d/3x3_reduce
I1124 13:26:25.061357 12960 net.cpp:157] Top shape: 64 144 14 14 (1806336)
I1124 13:26:25.061360 12960 net.cpp:165] Memory required for data: 2981590792
I1124 13:26:25.061367 12960 layer_factory.hpp:76] Creating layer inception_4d/relu_3x3_reduce
I1124 13:26:25.061374 12960 net.cpp:106] Creating Layer inception_4d/relu_3x3_reduce
I1124 13:26:25.061378 12960 net.cpp:454] inception_4d/relu_3x3_reduce <- inception_4d/3x3_reduce
I1124 13:26:25.061383 12960 net.cpp:397] inception_4d/relu_3x3_reduce -> inception_4d/3x3_reduce (in-place)
I1124 13:26:25.061578 12960 net.cpp:150] Setting up inception_4d/relu_3x3_reduce
I1124 13:26:25.061588 12960 net.cpp:157] Top shape: 64 144 14 14 (1806336)
I1124 13:26:25.061590 12960 net.cpp:165] Memory required for data: 2988816136
I1124 13:26:25.061594 12960 layer_factory.hpp:76] Creating layer inception_4d/3x3
I1124 13:26:25.061604 12960 net.cpp:106] Creating Layer inception_4d/3x3
I1124 13:26:25.061606 12960 net.cpp:454] inception_4d/3x3 <- inception_4d/3x3_reduce
I1124 13:26:25.061612 12960 net.cpp:411] inception_4d/3x3 -> inception_4d/3x3
I1124 13:26:25.065747 12960 net.cpp:150] Setting up inception_4d/3x3
I1124 13:26:25.065757 12960 net.cpp:157] Top shape: 64 288 14 14 (3612672)
I1124 13:26:25.065762 12960 net.cpp:165] Memory required for data: 3003266824
I1124 13:26:25.065768 12960 layer_factory.hpp:76] Creating layer inception_4d/relu_3x3
I1124 13:26:25.065773 12960 net.cpp:106] Creating Layer inception_4d/relu_3x3
I1124 13:26:25.065776 12960 net.cpp:454] inception_4d/relu_3x3 <- inception_4d/3x3
I1124 13:26:25.065783 12960 net.cpp:397] inception_4d/relu_3x3 -> inception_4d/3x3 (in-place)
I1124 13:26:25.066121 12960 net.cpp:150] Setting up inception_4d/relu_3x3
I1124 13:26:25.066133 12960 net.cpp:157] Top shape: 64 288 14 14 (3612672)
I1124 13:26:25.066135 12960 net.cpp:165] Memory required for data: 3017717512
I1124 13:26:25.066139 12960 layer_factory.hpp:76] Creating layer inception_4d/5x5_reduce
I1124 13:26:25.066148 12960 net.cpp:106] Creating Layer inception_4d/5x5_reduce
I1124 13:26:25.066151 12960 net.cpp:454] inception_4d/5x5_reduce <- inception_4c/output_inception_4c/output_0_split_2
I1124 13:26:25.066159 12960 net.cpp:411] inception_4d/5x5_reduce -> inception_4d/5x5_reduce
I1124 13:26:25.067540 12960 net.cpp:150] Setting up inception_4d/5x5_reduce
I1124 13:26:25.067553 12960 net.cpp:157] Top shape: 64 32 14 14 (401408)
I1124 13:26:25.067556 12960 net.cpp:165] Memory required for data: 3019323144
I1124 13:26:25.067562 12960 layer_factory.hpp:76] Creating layer inception_4d/relu_5x5_reduce
I1124 13:26:25.067569 12960 net.cpp:106] Creating Layer inception_4d/relu_5x5_reduce
I1124 13:26:25.067572 12960 net.cpp:454] inception_4d/relu_5x5_reduce <- inception_4d/5x5_reduce
I1124 13:26:25.067579 12960 net.cpp:397] inception_4d/relu_5x5_reduce -> inception_4d/5x5_reduce (in-place)
I1124 13:26:25.067927 12960 net.cpp:150] Setting up inception_4d/relu_5x5_reduce
I1124 13:26:25.067937 12960 net.cpp:157] Top shape: 64 32 14 14 (401408)
I1124 13:26:25.067940 12960 net.cpp:165] Memory required for data: 3020928776
I1124 13:26:25.067945 12960 layer_factory.hpp:76] Creating layer inception_4d/5x5
I1124 13:26:25.067952 12960 net.cpp:106] Creating Layer inception_4d/5x5
I1124 13:26:25.067956 12960 net.cpp:454] inception_4d/5x5 <- inception_4d/5x5_reduce
I1124 13:26:25.067963 12960 net.cpp:411] inception_4d/5x5 -> inception_4d/5x5
I1124 13:26:25.069569 12960 net.cpp:150] Setting up inception_4d/5x5
I1124 13:26:25.069581 12960 net.cpp:157] Top shape: 64 64 14 14 (802816)
I1124 13:26:25.069584 12960 net.cpp:165] Memory required for data: 3024140040
I1124 13:26:25.069591 12960 layer_factory.hpp:76] Creating layer inception_4d/relu_5x5
I1124 13:26:25.069597 12960 net.cpp:106] Creating Layer inception_4d/relu_5x5
I1124 13:26:25.069600 12960 net.cpp:454] inception_4d/relu_5x5 <- inception_4d/5x5
I1124 13:26:25.069607 12960 net.cpp:397] inception_4d/relu_5x5 -> inception_4d/5x5 (in-place)
I1124 13:26:25.069805 12960 net.cpp:150] Setting up inception_4d/relu_5x5
I1124 13:26:25.069814 12960 net.cpp:157] Top shape: 64 64 14 14 (802816)
I1124 13:26:25.069818 12960 net.cpp:165] Memory required for data: 3027351304
I1124 13:26:25.069820 12960 layer_factory.hpp:76] Creating layer inception_4d/pool
I1124 13:26:25.069826 12960 net.cpp:106] Creating Layer inception_4d/pool
I1124 13:26:25.069830 12960 net.cpp:454] inception_4d/pool <- inception_4c/output_inception_4c/output_0_split_3
I1124 13:26:25.069835 12960 net.cpp:411] inception_4d/pool -> inception_4d/pool
I1124 13:26:25.070235 12960 net.cpp:150] Setting up inception_4d/pool
I1124 13:26:25.070246 12960 net.cpp:157] Top shape: 64 512 14 14 (6422528)
I1124 13:26:25.070250 12960 net.cpp:165] Memory required for data: 3053041416
I1124 13:26:25.070252 12960 layer_factory.hpp:76] Creating layer inception_4d/pool_proj
I1124 13:26:25.070261 12960 net.cpp:106] Creating Layer inception_4d/pool_proj
I1124 13:26:25.070266 12960 net.cpp:454] inception_4d/pool_proj <- inception_4d/pool
I1124 13:26:25.070272 12960 net.cpp:411] inception_4d/pool_proj -> inception_4d/pool_proj
I1124 13:26:25.071782 12960 net.cpp:150] Setting up inception_4d/pool_proj
I1124 13:26:25.071794 12960 net.cpp:157] Top shape: 64 64 14 14 (802816)
I1124 13:26:25.071797 12960 net.cpp:165] Memory required for data: 3056252680
I1124 13:26:25.071804 12960 layer_factory.hpp:76] Creating layer inception_4d/relu_pool_proj
I1124 13:26:25.071810 12960 net.cpp:106] Creating Layer inception_4d/relu_pool_proj
I1124 13:26:25.071815 12960 net.cpp:454] inception_4d/relu_pool_proj <- inception_4d/pool_proj
I1124 13:26:25.071820 12960 net.cpp:397] inception_4d/relu_pool_proj -> inception_4d/pool_proj (in-place)
I1124 13:26:25.072022 12960 net.cpp:150] Setting up inception_4d/relu_pool_proj
I1124 13:26:25.072031 12960 net.cpp:157] Top shape: 64 64 14 14 (802816)
I1124 13:26:25.072034 12960 net.cpp:165] Memory required for data: 3059463944
I1124 13:26:25.072037 12960 layer_factory.hpp:76] Creating layer inception_4d/output
I1124 13:26:25.072044 12960 net.cpp:106] Creating Layer inception_4d/output
I1124 13:26:25.072047 12960 net.cpp:454] inception_4d/output <- inception_4d/1x1
I1124 13:26:25.072052 12960 net.cpp:454] inception_4d/output <- inception_4d/3x3
I1124 13:26:25.072055 12960 net.cpp:454] inception_4d/output <- inception_4d/5x5
I1124 13:26:25.072059 12960 net.cpp:454] inception_4d/output <- inception_4d/pool_proj
I1124 13:26:25.072065 12960 net.cpp:411] inception_4d/output -> inception_4d/output
I1124 13:26:25.072113 12960 net.cpp:150] Setting up inception_4d/output
I1124 13:26:25.072120 12960 net.cpp:157] Top shape: 64 528 14 14 (6623232)
I1124 13:26:25.072124 12960 net.cpp:165] Memory required for data: 3085956872
I1124 13:26:25.072126 12960 layer_factory.hpp:76] Creating layer inception_4d/output_inception_4d/output_0_split
I1124 13:26:25.072132 12960 net.cpp:106] Creating Layer inception_4d/output_inception_4d/output_0_split
I1124 13:26:25.072135 12960 net.cpp:454] inception_4d/output_inception_4d/output_0_split <- inception_4d/output
I1124 13:26:25.072140 12960 net.cpp:411] inception_4d/output_inception_4d/output_0_split -> inception_4d/output_inception_4d/output_0_split_0
I1124 13:26:25.072147 12960 net.cpp:411] inception_4d/output_inception_4d/output_0_split -> inception_4d/output_inception_4d/output_0_split_1
I1124 13:26:25.072154 12960 net.cpp:411] inception_4d/output_inception_4d/output_0_split -> inception_4d/output_inception_4d/output_0_split_2
I1124 13:26:25.072160 12960 net.cpp:411] inception_4d/output_inception_4d/output_0_split -> inception_4d/output_inception_4d/output_0_split_3
I1124 13:26:25.072165 12960 net.cpp:411] inception_4d/output_inception_4d/output_0_split -> inception_4d/output_inception_4d/output_0_split_4
I1124 13:26:25.072284 12960 net.cpp:150] Setting up inception_4d/output_inception_4d/output_0_split
I1124 13:26:25.072290 12960 net.cpp:157] Top shape: 64 528 14 14 (6623232)
I1124 13:26:25.072294 12960 net.cpp:157] Top shape: 64 528 14 14 (6623232)
I1124 13:26:25.072298 12960 net.cpp:157] Top shape: 64 528 14 14 (6623232)
I1124 13:26:25.072301 12960 net.cpp:157] Top shape: 64 528 14 14 (6623232)
I1124 13:26:25.072305 12960 net.cpp:157] Top shape: 64 528 14 14 (6623232)
I1124 13:26:25.072307 12960 net.cpp:165] Memory required for data: 3218421512
I1124 13:26:25.072310 12960 layer_factory.hpp:76] Creating layer loss2/ave_pool
I1124 13:26:25.072316 12960 net.cpp:106] Creating Layer loss2/ave_pool
I1124 13:26:25.072320 12960 net.cpp:454] loss2/ave_pool <- inception_4d/output_inception_4d/output_0_split_0
I1124 13:26:25.072325 12960 net.cpp:411] loss2/ave_pool -> loss2/ave_pool
I1124 13:26:25.072705 12960 net.cpp:150] Setting up loss2/ave_pool
I1124 13:26:25.072715 12960 net.cpp:157] Top shape: 64 528 4 4 (540672)
I1124 13:26:25.072718 12960 net.cpp:165] Memory required for data: 3220584200
I1124 13:26:25.072721 12960 layer_factory.hpp:76] Creating layer loss2/conv
I1124 13:26:25.072731 12960 net.cpp:106] Creating Layer loss2/conv
I1124 13:26:25.072736 12960 net.cpp:454] loss2/conv <- loss2/ave_pool
I1124 13:26:25.072741 12960 net.cpp:411] loss2/conv -> loss2/conv
I1124 13:26:25.074722 12960 net.cpp:150] Setting up loss2/conv
I1124 13:26:25.074734 12960 net.cpp:157] Top shape: 64 128 4 4 (131072)
I1124 13:26:25.074738 12960 net.cpp:165] Memory required for data: 3221108488
I1124 13:26:25.074743 12960 layer_factory.hpp:76] Creating layer loss2/relu_conv
I1124 13:26:25.074749 12960 net.cpp:106] Creating Layer loss2/relu_conv
I1124 13:26:25.074753 12960 net.cpp:454] loss2/relu_conv <- loss2/conv
I1124 13:26:25.074759 12960 net.cpp:397] loss2/relu_conv -> loss2/conv (in-place)
I1124 13:26:25.075119 12960 net.cpp:150] Setting up loss2/relu_conv
I1124 13:26:25.075130 12960 net.cpp:157] Top shape: 64 128 4 4 (131072)
I1124 13:26:25.075134 12960 net.cpp:165] Memory required for data: 3221632776
I1124 13:26:25.075137 12960 layer_factory.hpp:76] Creating layer loss2/fc
I1124 13:26:25.075145 12960 net.cpp:106] Creating Layer loss2/fc
I1124 13:26:25.075148 12960 net.cpp:454] loss2/fc <- loss2/conv
I1124 13:26:25.075156 12960 net.cpp:411] loss2/fc -> loss2/fc
I1124 13:26:25.090868 12960 net.cpp:150] Setting up loss2/fc
I1124 13:26:25.090896 12960 net.cpp:157] Top shape: 64 1024 (65536)
I1124 13:26:25.090901 12960 net.cpp:165] Memory required for data: 3221894920
I1124 13:26:25.090909 12960 layer_factory.hpp:76] Creating layer loss2/relu_fc
I1124 13:26:25.090919 12960 net.cpp:106] Creating Layer loss2/relu_fc
I1124 13:26:25.090932 12960 net.cpp:454] loss2/relu_fc <- loss2/fc
I1124 13:26:25.090939 12960 net.cpp:397] loss2/relu_fc -> loss2/fc (in-place)
I1124 13:26:25.091199 12960 net.cpp:150] Setting up loss2/relu_fc
I1124 13:26:25.091210 12960 net.cpp:157] Top shape: 64 1024 (65536)
I1124 13:26:25.091214 12960 net.cpp:165] Memory required for data: 3222157064
I1124 13:26:25.091217 12960 layer_factory.hpp:76] Creating layer loss2/drop_fc
I1124 13:26:25.091224 12960 net.cpp:106] Creating Layer loss2/drop_fc
I1124 13:26:25.091228 12960 net.cpp:454] loss2/drop_fc <- loss2/fc
I1124 13:26:25.091233 12960 net.cpp:397] loss2/drop_fc -> loss2/fc (in-place)
I1124 13:26:25.091276 12960 net.cpp:150] Setting up loss2/drop_fc
I1124 13:26:25.091284 12960 net.cpp:157] Top shape: 64 1024 (65536)
I1124 13:26:25.091287 12960 net.cpp:165] Memory required for data: 3222419208
I1124 13:26:25.091290 12960 layer_factory.hpp:76] Creating layer loss2/classifier-attribute
I1124 13:26:25.091300 12960 net.cpp:106] Creating Layer loss2/classifier-attribute
I1124 13:26:25.091302 12960 net.cpp:454] loss2/classifier-attribute <- loss2/fc
I1124 13:26:25.091310 12960 net.cpp:411] loss2/classifier-attribute -> loss2/classifier-attribute
I1124 13:26:25.091603 12960 net.cpp:150] Setting up loss2/classifier-attribute
I1124 13:26:25.091614 12960 net.cpp:157] Top shape: 64 16 (1024)
I1124 13:26:25.091617 12960 net.cpp:165] Memory required for data: 3222423304
I1124 13:26:25.091624 12960 layer_factory.hpp:76] Creating layer loss2/classifier-attribute_loss2/classifier-attribute_0_split
I1124 13:26:25.091629 12960 net.cpp:106] Creating Layer loss2/classifier-attribute_loss2/classifier-attribute_0_split
I1124 13:26:25.091634 12960 net.cpp:454] loss2/classifier-attribute_loss2/classifier-attribute_0_split <- loss2/classifier-attribute
I1124 13:26:25.091637 12960 net.cpp:411] loss2/classifier-attribute_loss2/classifier-attribute_0_split -> loss2/classifier-attribute_loss2/classifier-attribute_0_split_0
I1124 13:26:25.091644 12960 net.cpp:411] loss2/classifier-attribute_loss2/classifier-attribute_0_split -> loss2/classifier-attribute_loss2/classifier-attribute_0_split_1
I1124 13:26:25.091706 12960 net.cpp:150] Setting up loss2/classifier-attribute_loss2/classifier-attribute_0_split
I1124 13:26:25.091711 12960 net.cpp:157] Top shape: 64 16 (1024)
I1124 13:26:25.091714 12960 net.cpp:157] Top shape: 64 16 (1024)
I1124 13:26:25.091717 12960 net.cpp:165] Memory required for data: 3222431496
I1124 13:26:25.091720 12960 layer_factory.hpp:76] Creating layer loss2/loss
I1124 13:26:25.091727 12960 net.cpp:106] Creating Layer loss2/loss
I1124 13:26:25.091729 12960 net.cpp:454] loss2/loss <- loss2/classifier-attribute_loss2/classifier-attribute_0_split_0
I1124 13:26:25.091734 12960 net.cpp:454] loss2/loss <- label_data_1_split_2
…
I1124 13:26:25.092408 12960 net.cpp:150] Setting up loss2/top-1
I1124 13:26:25.092412 12960 net.cpp:157] Top shape: (1)
I1124 13:26:25.092416 12960 net.cpp:165] Memory required for data: 3222431504
I1124 13:26:25.092417 12960 layer_factory.hpp:76] Creating layer inception_4e/1x1
I1124 13:26:25.092427 12960 net.cpp:106] Creating Layer inception_4e/1x1
I1124 13:26:25.092430 12960 net.cpp:454] inception_4e/1x1 <- inception_4d/output_inception_4d/output_0_split_1
I1124 13:26:25.092435 12960 net.cpp:411] inception_4e/1x1 -> inception_4e/1x1
I1124 13:26:25.094625 12960 net.cpp:150] Setting up inception_4e/1x1
I1124 13:26:25.094640 12960 net.cpp:157] Top shape: 64 256 14 14 (3211264)
I1124 13:26:25.094642 12960 net.cpp:165] Memory required for data: 3235276560
I1124 13:26:25.094648 12960 layer_factory.hpp:76] Creating layer inception_4e/relu_1x1
I1124 13:26:25.094655 12960 net.cpp:106] Creating Layer inception_4e/relu_1x1
I1124 13:26:25.094658 12960 net.cpp:454] inception_4e/relu_1x1 <- inception_4e/1x1
I1124 13:26:25.094663 12960 net.cpp:397] inception_4e/relu_1x1 -> inception_4e/1x1 (in-place)
I1124 13:26:25.094866 12960 net.cpp:150] Setting up inception_4e/relu_1x1
I1124 13:26:25.094887 12960 net.cpp:157] Top shape: 64 256 14 14 (3211264)
I1124 13:26:25.094889 12960 net.cpp:165] Memory required for data: 3248121616
I1124 13:26:25.094893 12960 layer_factory.hpp:76] Creating layer inception_4e/3x3_reduce
I1124 13:26:25.094902 12960 net.cpp:106] Creating Layer inception_4e/3x3_reduce
I1124 13:26:25.094905 12960 net.cpp:454] inception_4e/3x3_reduce <- inception_4d/output_inception_4d/output_0_split_2
I1124 13:26:25.094912 12960 net.cpp:411] inception_4e/3x3_reduce -> inception_4e/3x3_reduce
I1124 13:26:25.097192 12960 net.cpp:150] Setting up inception_4e/3x3_reduce
I1124 13:26:25.097204 12960 net.cpp:157] Top shape: 64 160 14 14 (2007040)
I1124 13:26:25.097208 12960 net.cpp:165] Memory required for data: 3256149776
I1124 13:26:25.097213 12960 layer_factory.hpp:76] Creating layer inception_4e/relu_3x3_reduce
I1124 13:26:25.097220 12960 net.cpp:106] Creating Layer inception_4e/relu_3x3_reduce
I1124 13:26:25.097224 12960 net.cpp:454] inception_4e/relu_3x3_reduce <- inception_4e/3x3_reduce
I1124 13:26:25.097229 12960 net.cpp:397] inception_4e/relu_3x3_reduce -> inception_4e/3x3_reduce (in-place)
I1124 13:26:25.097597 12960 net.cpp:150] Setting up inception_4e/relu_3x3_reduce
I1124 13:26:25.097609 12960 net.cpp:157] Top shape: 64 160 14 14 (2007040)
I1124 13:26:25.097611 12960 net.cpp:165] Memory required for data: 3264177936
I1124 13:26:25.097615 12960 layer_factory.hpp:76] Creating layer inception_4e/3x3
I1124 13:26:25.097636 12960 net.cpp:106] Creating Layer inception_4e/3x3
I1124 13:26:25.097640 12960 net.cpp:454] inception_4e/3x3 <- inception_4e/3x3_reduce
I1124 13:26:25.097648 12960 net.cpp:411] inception_4e/3x3 -> inception_4e/3x3
I1124 13:26:25.102334 12960 net.cpp:150] Setting up inception_4e/3x3
I1124 13:26:25.102345 12960 net.cpp:157] Top shape: 64 320 14 14 (4014080)
I1124 13:26:25.102349 12960 net.cpp:165] Memory required for data: 3280234256
I1124 13:26:25.102355 12960 layer_factory.hpp:76] Creating layer inception_4e/relu_3x3
I1124 13:26:25.102361 12960 net.cpp:106] Creating Layer inception_4e/relu_3x3
I1124 13:26:25.102366 12960 net.cpp:454] inception_4e/relu_3x3 <- inception_4e/3x3
I1124 13:26:25.102371 12960 net.cpp:397] inception_4e/relu_3x3 -> inception_4e/3x3 (in-place)
I1124 13:26:25.102715 12960 net.cpp:150] Setting up inception_4e/relu_3x3
I1124 13:26:25.102725 12960 net.cpp:157] Top shape: 64 320 14 14 (4014080)
I1124 13:26:25.102730 12960 net.cpp:165] Memory required for data: 3296290576
I1124 13:26:25.102732 12960 layer_factory.hpp:76] Creating layer inception_4e/5x5_reduce
I1124 13:26:25.102741 12960 net.cpp:106] Creating Layer inception_4e/5x5_reduce
I1124 13:26:25.102746 12960 net.cpp:454] inception_4e/5x5_reduce <- inception_4d/output_inception_4d/output_0_split_3
I1124 13:26:25.102751 12960 net.cpp:411] inception_4e/5x5_reduce -> inception_4e/5x5_reduce
I1124 13:26:25.104377 12960 net.cpp:150] Setting up inception_4e/5x5_reduce
I1124 13:26:25.104387 12960 net.cpp:157] Top shape: 64 32 14 14 (401408)
I1124 13:26:25.104392 12960 net.cpp:165] Memory required for data: 3297896208
I1124 13:26:25.104398 12960 layer_factory.hpp:76] Creating layer inception_4e/relu_5x5_reduce
I1124 13:26:25.104404 12960 net.cpp:106] Creating Layer inception_4e/relu_5x5_reduce
I1124 13:26:25.104409 12960 net.cpp:454] inception_4e/relu_5x5_reduce <- inception_4e/5x5_reduce
I1124 13:26:25.104413 12960 net.cpp:397] inception_4e/relu_5x5_reduce -> inception_4e/5x5_reduce (in-place)
I1124 13:26:25.104617 12960 net.cpp:150] Setting up inception_4e/relu_5x5_reduce
I1124 13:26:25.104625 12960 net.cpp:157] Top shape: 64 32 14 14 (401408)
I1124 13:26:25.104629 12960 net.cpp:165] Memory required for data: 3299501840
I1124 13:26:25.104631 12960 layer_factory.hpp:76] Creating layer inception_4e/5x5
I1124 13:26:25.104640 12960 net.cpp:106] Creating Layer inception_4e/5x5
I1124 13:26:25.104645 12960 net.cpp:454] inception_4e/5x5 <- inception_4e/5x5_reduce
I1124 13:26:25.104650 12960 net.cpp:411] inception_4e/5x5 -> inception_4e/5x5
I1124 13:26:25.106637 12960 net.cpp:150] Setting up inception_4e/5x5
I1124 13:26:25.106649 12960 net.cpp:157] Top shape: 64 128 14 14 (1605632)
I1124 13:26:25.106652 12960 net.cpp:165] Memory required for data: 3305924368
I1124 13:26:25.106658 12960 layer_factory.hpp:76] Creating layer inception_4e/relu_5x5
I1124 13:26:25.106665 12960 net.cpp:106] Creating Layer inception_4e/relu_5x5
I1124 13:26:25.106669 12960 net.cpp:454] inception_4e/relu_5x5 <- inception_4e/5x5
I1124 13:26:25.106674 12960 net.cpp:397] inception_4e/relu_5x5 -> inception_4e/5x5 (in-place)
I1124 13:26:25.107048 12960 net.cpp:150] Setting up inception_4e/relu_5x5
I1124 13:26:25.107061 12960 net.cpp:157] Top shape: 64 128 14 14 (1605632)
I1124 13:26:25.107064 12960 net.cpp:165] Memory required for data: 3312346896
I1124 13:26:25.107069 12960 layer_factory.hpp:76] Creating layer inception_4e/pool
I1124 13:26:25.107076 12960 net.cpp:106] Creating Layer inception_4e/pool
I1124 13:26:25.107080 12960 net.cpp:454] inception_4e/pool <- inception_4d/output_inception_4d/output_0_split_4
I1124 13:26:25.107086 12960 net.cpp:411] inception_4e/pool -> inception_4e/pool
I1124 13:26:25.107339 12960 net.cpp:150] Setting up inception_4e/pool
I1124 13:26:25.107348 12960 net.cpp:157] Top shape: 64 528 14 14 (6623232)
I1124 13:26:25.107352 12960 net.cpp:165] Memory required for data: 3338839824
I1124 13:26:25.107354 12960 layer_factory.hpp:76] Creating layer inception_4e/pool_proj
I1124 13:26:25.107362 12960 net.cpp:106] Creating Layer inception_4e/pool_proj
I1124 13:26:25.107367 12960 net.cpp:454] inception_4e/pool_proj <- inception_4e/pool
I1124 13:26:25.107373 12960 net.cpp:411] inception_4e/pool_proj -> inception_4e/pool_proj
I1124 13:26:25.109153 12960 net.cpp:150] Setting up inception_4e/pool_proj
I1124 13:26:25.109166 12960 net.cpp:157] Top shape: 64 128 14 14 (1605632)
I1124 13:26:25.109169 12960 net.cpp:165] Memory required for data: 3345262352
I1124 13:26:25.109175 12960 layer_factory.hpp:76] Creating layer inception_4e/relu_pool_proj
I1124 13:26:25.109181 12960 net.cpp:106] Creating Layer inception_4e/relu_pool_proj
I1124 13:26:25.109185 12960 net.cpp:454] inception_4e/relu_pool_proj <- inception_4e/pool_proj
I1124 13:26:25.109191 12960 net.cpp:397] inception_4e/relu_pool_proj -> inception_4e/pool_proj (in-place)
I1124 13:26:25.109545 12960 net.cpp:150] Setting up inception_4e/relu_pool_proj
I1124 13:26:25.109556 12960 net.cpp:157] Top shape: 64 128 14 14 (1605632)
I1124 13:26:25.109560 12960 net.cpp:165] Memory required for data: 3351684880
I1124 13:26:25.109563 12960 layer_factory.hpp:76] Creating layer inception_4e/output
I1124 13:26:25.109570 12960 net.cpp:106] Creating Layer inception_4e/output
I1124 13:26:25.109573 12960 net.cpp:454] inception_4e/output <- inception_4e/1x1
I1124 13:26:25.109577 12960 net.cpp:454] inception_4e/output <- inception_4e/3x3
I1124 13:26:25.109581 12960 net.cpp:454] inception_4e/output <- inception_4e/5x5
I1124 13:26:25.109586 12960 net.cpp:454] inception_4e/output <- inception_4e/pool_proj
I1124 13:26:25.109591 12960 net.cpp:411] inception_4e/output -> inception_4e/output
I1124 13:26:25.109637 12960 net.cpp:150] Setting up inception_4e/output
I1124 13:26:25.109644 12960 net.cpp:157] Top shape: 64 832 14 14 (10436608)
I1124 13:26:25.109647 12960 net.cpp:165] Memory required for data: 3393431312
I1124 13:26:25.109649 12960 layer_factory.hpp:76] Creating layer pool4/3x3_s2
I1124 13:26:25.109658 12960 net.cpp:106] Creating Layer pool4/3x3_s2
I1124 13:26:25.109661 12960 net.cpp:454] pool4/3x3_s2 <- inception_4e/output
I1124 13:26:25.109668 12960 net.cpp:411] pool4/3x3_s2 -> pool4/3x3_s2
I1124 13:26:25.109928 12960 net.cpp:150] Setting up pool4/3x3_s2
I1124 13:26:25.109937 12960 net.cpp:157] Top shape: 64 832 7 7 (2609152)
I1124 13:26:25.109941 12960 net.cpp:165] Memory required for data: 3403867920
I1124 13:26:25.109944 12960 layer_factory.hpp:76] Creating layer pool4/3x3_s2_pool4/3x3_s2_0_split
I1124 13:26:25.109949 12960 net.cpp:106] Creating Layer pool4/3x3_s2_pool4/3x3_s2_0_split
I1124 13:26:25.109953 12960 net.cpp:454] pool4/3x3_s2_pool4/3x3_s2_0_split <- pool4/3x3_s2
I1124 13:26:25.109959 12960 net.cpp:411] pool4/3x3_s2_pool4/3x3_s2_0_split -> pool4/3x3_s2_pool4/3x3_s2_0_split_0
I1124 13:26:25.109966 12960 net.cpp:411] pool4/3x3_s2_pool4/3x3_s2_0_split -> pool4/3x3_s2_pool4/3x3_s2_0_split_1
I1124 13:26:25.109972 12960 net.cpp:411] pool4/3x3_s2_pool4/3x3_s2_0_split -> pool4/3x3_s2_pool4/3x3_s2_0_split_2
I1124 13:26:25.109977 12960 net.cpp:411] pool4/3x3_s2_pool4/3x3_s2_0_split -> pool4/3x3_s2_pool4/3x3_s2_0_split_3
I1124 13:26:25.110080 12960 net.cpp:150] Setting up pool4/3x3_s2_pool4/3x3_s2_0_split
I1124 13:26:25.110087 12960 net.cpp:157] Top shape: 64 832 7 7 (2609152)
I1124 13:26:25.110091 12960 net.cpp:157] Top shape: 64 832 7 7 (2609152)
I1124 13:26:25.110095 12960 net.cpp:157] Top shape: 64 832 7 7 (2609152)
I1124 13:26:25.110098 12960 net.cpp:157] Top shape: 64 832 7 7 (2609152)
I1124 13:26:25.110100 12960 net.cpp:165] Memory required for data: 3445614352
I1124 13:26:25.110105 12960 layer_factory.hpp:76] Creating layer inception_5a/1x1
I1124 13:26:25.110111 12960 net.cpp:106] Creating Layer inception_5a/1x1
I1124 13:26:25.110116 12960 net.cpp:454] inception_5a/1x1 <- pool4/3x3_s2_pool4/3x3_s2_0_split_0
I1124 13:26:25.110121 12960 net.cpp:411] inception_5a/1x1 -> inception_5a/1x1
I1124 13:26:25.113217 12960 net.cpp:150] Setting up inception_5a/1x1
I1124 13:26:25.113229 12960 net.cpp:157] Top shape: 64 256 7 7 (802816)
I1124 13:26:25.113232 12960 net.cpp:165] Memory required for data: 3448825616
I1124 13:26:25.113240 12960 layer_factory.hpp:76] Creating layer inception_5a/relu_1x1
I1124 13:26:25.113245 12960 net.cpp:106] Creating Layer inception_5a/relu_1x1
I1124 13:26:25.113248 12960 net.cpp:454] inception_5a/relu_1x1 <- inception_5a/1x1
I1124 13:26:25.113255 12960 net.cpp:397] inception_5a/relu_1x1 -> inception_5a/1x1 (in-place)
I1124 13:26:25.113457 12960 net.cpp:150] Setting up inception_5a/relu_1x1
I1124 13:26:25.113467 12960 net.cpp:157] Top shape: 64 256 7 7 (802816)
I1124 13:26:25.113471 12960 net.cpp:165] Memory required for data: 3452036880
I1124 13:26:25.113473 12960 layer_factory.hpp:76] Creating layer inception_5a/3x3_reduce
I1124 13:26:25.113481 12960 net.cpp:106] Creating Layer inception_5a/3x3_reduce
I1124 13:26:25.113484 12960 net.cpp:454] inception_5a/3x3_reduce <- pool4/3x3_s2_pool4/3x3_s2_0_split_1
I1124 13:26:25.113492 12960 net.cpp:411] inception_5a/3x3_reduce -> inception_5a/3x3_reduce
I1124 13:26:25.116192 12960 net.cpp:150] Setting up inception_5a/3x3_reduce
I1124 13:26:25.116204 12960 net.cpp:157] Top shape: 64 160 7 7 (501760)
I1124 13:26:25.116209 12960 net.cpp:165] Memory required for data: 3454043920
I1124 13:26:25.116214 12960 layer_factory.hpp:76] Creating layer inception_5a/relu_3x3_reduce
I1124 13:26:25.116220 12960 net.cpp:106] Creating Layer inception_5a/relu_3x3_reduce
I1124 13:26:25.116225 12960 net.cpp:454] inception_5a/relu_3x3_reduce <- inception_5a/3x3_reduce
I1124 13:26:25.116230 12960 net.cpp:397] inception_5a/relu_3x3_reduce -> inception_5a/3x3_reduce (in-place)
I1124 13:26:25.116576 12960 net.cpp:150] Setting up inception_5a/relu_3x3_reduce
I1124 13:26:25.116587 12960 net.cpp:157] Top shape: 64 160 7 7 (501760)
I1124 13:26:25.116590 12960 net.cpp:165] Memory required for data: 3456050960
I1124 13:26:25.116595 12960 layer_factory.hpp:76] Creating layer inception_5a/3x3
I1124 13:26:25.116603 12960 net.cpp:106] Creating Layer inception_5a/3x3
I1124 13:26:25.116607 12960 net.cpp:454] inception_5a/3x3 <- inception_5a/3x3_reduce
I1124 13:26:25.116614 12960 net.cpp:411] inception_5a/3x3 -> inception_5a/3x3
I1124 13:26:25.121464 12960 net.cpp:150] Setting up inception_5a/3x3
I1124 13:26:25.121476 12960 net.cpp:157] Top shape: 64 320 7 7 (1003520)
I1124 13:26:25.121480 12960 net.cpp:165] Memory required for data: 3460065040
I1124 13:26:25.121486 12960 layer_factory.hpp:76] Creating layer inception_5a/relu_3x3
I1124 13:26:25.121492 12960 net.cpp:106] Creating Layer inception_5a/relu_3x3
I1124 13:26:25.121496 12960 net.cpp:454] inception_5a/relu_3x3 <- inception_5a/3x3
I1124 13:26:25.121501 12960 net.cpp:397] inception_5a/relu_3x3 -> inception_5a/3x3 (in-place)
I1124 13:26:25.121704 12960 net.cpp:150] Setting up inception_5a/relu_3x3
I1124 13:26:25.121712 12960 net.cpp:157] Top shape: 64 320 7 7 (1003520)
I1124 13:26:25.121716 12960 net.cpp:165] Memory required for data: 3464079120
I1124 13:26:25.121719 12960 layer_factory.hpp:76] Creating layer inception_5a/5x5_reduce
I1124 13:26:25.121727 12960 net.cpp:106] Creating Layer inception_5a/5x5_reduce
I1124 13:26:25.121732 12960 net.cpp:454] inception_5a/5x5_reduce <- pool4/3x3_s2_pool4/3x3_s2_0_split_2
I1124 13:26:25.121740 12960 net.cpp:411] inception_5a/5x5_reduce -> inception_5a/5x5_reduce
I1124 13:26:25.123687 12960 net.cpp:150] Setting up inception_5a/5x5_reduce
I1124 13:26:25.123699 12960 net.cpp:157] Top shape: 64 32 7 7 (100352)
I1124 13:26:25.123703 12960 net.cpp:165] Memory required for data: 3464480528
I1124 13:26:25.123708 12960 layer_factory.hpp:76] Creating layer inception_5a/relu_5x5_reduce
I1124 13:26:25.123714 12960 net.cpp:106] Creating Layer inception_5a/relu_5x5_reduce
I1124 13:26:25.123718 12960 net.cpp:454] inception_5a/relu_5x5_reduce <- inception_5a/5x5_reduce
I1124 13:26:25.123724 12960 net.cpp:397] inception_5a/relu_5x5_reduce -> inception_5a/5x5_reduce (in-place)
I1124 13:26:25.123926 12960 net.cpp:150] Setting up inception_5a/relu_5x5_reduce
I1124 13:26:25.123934 12960 net.cpp:157] Top shape: 64 32 7 7 (100352)
I1124 13:26:25.123937 12960 net.cpp:165] Memory required for data: 3464881936
I1124 13:26:25.123940 12960 layer_factory.hpp:76] Creating layer inception_5a/5x5
I1124 13:26:25.123949 12960 net.cpp:106] Creating Layer inception_5a/5x5
I1124 13:26:25.123953 12960 net.cpp:454] inception_5a/5x5 <- inception_5a/5x5_reduce
I1124 13:26:25.123960 12960 net.cpp:411] inception_5a/5x5 -> inception_5a/5x5
I1124 13:26:25.126061 12960 net.cpp:150] Setting up inception_5a/5x5
I1124 13:26:25.126072 12960 net.cpp:157] Top shape: 64 128 7 7 (401408)
I1124 13:26:25.126075 12960 net.cpp:165] Memory required for data: 3466487568
I1124 13:26:25.126082 12960 layer_factory.hpp:76] Creating layer inception_5a/relu_5x5
I1124 13:26:25.126087 12960 net.cpp:106] Creating Layer inception_5a/relu_5x5
I1124 13:26:25.126091 12960 net.cpp:454] inception_5a/relu_5x5 <- inception_5a/5x5
I1124 13:26:25.126096 12960 net.cpp:397] inception_5a/relu_5x5 -> inception_5a/5x5 (in-place)
I1124 13:26:25.126464 12960 net.cpp:150] Setting up inception_5a/relu_5x5
I1124 13:26:25.126476 12960 net.cpp:157] Top shape: 64 128 7 7 (401408)
I1124 13:26:25.126478 12960 net.cpp:165] Memory required for data: 3468093200
I1124 13:26:25.126482 12960 layer_factory.hpp:76] Creating layer inception_5a/pool
I1124 13:26:25.126489 12960 net.cpp:106] Creating Layer inception_5a/pool
I1124 13:26:25.126493 12960 net.cpp:454] inception_5a/pool <- pool4/3x3_s2_pool4/3x3_s2_0_split_3
I1124 13:26:25.126500 12960 net.cpp:411] inception_5a/pool -> inception_5a/pool
I1124 13:26:25.126771 12960 net.cpp:150] Setting up inception_5a/pool
I1124 13:26:25.126782 12960 net.cpp:157] Top shape: 64 832 7 7 (2609152)
I1124 13:26:25.126786 12960 net.cpp:165] Memory required for data: 3478529808
I1124 13:26:25.126790 12960 layer_factory.hpp:76] Creating layer inception_5a/pool_proj
I1124 13:26:25.126796 12960 net.cpp:106] Creating Layer inception_5a/pool_proj
I1124 13:26:25.126801 12960 net.cpp:454] inception_5a/pool_proj <- inception_5a/pool
I1124 13:26:25.126807 12960 net.cpp:411] inception_5a/pool_proj -> inception_5a/pool_proj
I1124 13:26:25.129245 12960 net.cpp:150] Setting up inception_5a/pool_proj
I1124 13:26:25.129256 12960 net.cpp:157] Top shape: 64 128 7 7 (401408)
I1124 13:26:25.129259 12960 net.cpp:165] Memory required for data: 3480135440
I1124 13:26:25.129266 12960 layer_factory.hpp:76] Creating layer inception_5a/relu_pool_proj
I1124 13:26:25.129272 12960 net.cpp:106] Creating Layer inception_5a/relu_pool_proj
I1124 13:26:25.129277 12960 net.cpp:454] inception_5a/relu_pool_proj <- inception_5a/pool_proj
I1124 13:26:25.129282 12960 net.cpp:397] inception_5a/relu_pool_proj -> inception_5a/pool_proj (in-place)
I1124 13:26:25.129657 12960 net.cpp:150] Setting up inception_5a/relu_pool_proj
I1124 13:26:25.129667 12960 net.cpp:157] Top shape: 64 128 7 7 (401408)
I1124 13:26:25.129670 12960 net.cpp:165] Memory required for data: 3481741072
I1124 13:26:25.129674 12960 layer_factory.hpp:76] Creating layer inception_5a/output
I1124 13:26:25.129681 12960 net.cpp:106] Creating Layer inception_5a/output
I1124 13:26:25.129685 12960 net.cpp:454] inception_5a/output <- inception_5a/1x1
I1124 13:26:25.129690 12960 net.cpp:454] inception_5a/output <- inception_5a/3x3
I1124 13:26:25.129694 12960 net.cpp:454] inception_5a/output <- inception_5a/5x5
I1124 13:26:25.129698 12960 net.cpp:454] inception_5a/output <- inception_5a/pool_proj
I1124 13:26:25.129703 12960 net.cpp:411] inception_5a/output -> inception_5a/output
I1124 13:26:25.129755 12960 net.cpp:150] Setting up inception_5a/output
I1124 13:26:25.129761 12960 net.cpp:157] Top shape: 64 832 7 7 (2609152)
I1124 13:26:25.129765 12960 net.cpp:165] Memory required for data: 3492177680
I1124 13:26:25.129767 12960 layer_factory.hpp:76] Creating layer inception_5a/output_inception_5a/output_0_split
I1124 13:26:25.129773 12960 net.cpp:106] Creating Layer inception_5a/output_inception_5a/output_0_split
I1124 13:26:25.129777 12960 net.cpp:454] inception_5a/output_inception_5a/output_0_split <- inception_5a/output
I1124 13:26:25.129782 12960 net.cpp:411] inception_5a/output_inception_5a/output_0_split -> inception_5a/output_inception_5a/output_0_split_0
I1124 13:26:25.129789 12960 net.cpp:411] inception_5a/output_inception_5a/output_0_split -> inception_5a/output_inception_5a/output_0_split_1
I1124 13:26:25.129794 12960 net.cpp:411] inception_5a/output_inception_5a/output_0_split -> inception_5a/output_inception_5a/output_0_split_2
I1124 13:26:25.129801 12960 net.cpp:411] inception_5a/output_inception_5a/output_0_split -> inception_5a/output_inception_5a/output_0_split_3
I1124 13:26:25.129919 12960 net.cpp:150] Setting up inception_5a/output_inception_5a/output_0_split
I1124 13:26:25.129925 12960 net.cpp:157] Top shape: 64 832 7 7 (2609152)
I1124 13:26:25.129930 12960 net.cpp:157] Top shape: 64 832 7 7 (2609152)
I1124 13:26:25.129933 12960 net.cpp:157] Top shape: 64 832 7 7 (2609152)
I1124 13:26:25.129936 12960 net.cpp:157] Top shape: 64 832 7 7 (2609152)
I1124 13:26:25.129940 12960 net.cpp:165] Memory required for data: 3533924112
I1124 13:26:25.129942 12960 layer_factory.hpp:76] Creating layer inception_5b/1x1
I1124 13:26:25.129950 12960 net.cpp:106] Creating Layer inception_5b/1x1
I1124 13:26:25.129953 12960 net.cpp:454] inception_5b/1x1 <- inception_5a/output_inception_5a/output_0_split_0
I1124 13:26:25.129959 12960 net.cpp:411] inception_5b/1x1 -> inception_5b/1x1
I1124 13:26:25.133666 12960 net.cpp:150] Setting up inception_5b/1x1
I1124 13:26:25.133679 12960 net.cpp:157] Top shape: 64 384 7 7 (1204224)
I1124 13:26:25.133682 12960 net.cpp:165] Memory required for data: 3538741008
I1124 13:26:25.133688 12960 layer_factory.hpp:76] Creating layer inception_5b/relu_1x1
I1124 13:26:25.133695 12960 net.cpp:106] Creating Layer inception_5b/relu_1x1
I1124 13:26:25.133699 12960 net.cpp:454] inception_5b/relu_1x1 <- inception_5b/1x1
I1124 13:26:25.133704 12960 net.cpp:397] inception_5b/relu_1x1 -> inception_5b/1x1 (in-place)
I1124 13:26:25.134064 12960 net.cpp:150] Setting up inception_5b/relu_1x1
I1124 13:26:25.134075 12960 net.cpp:157] Top shape: 64 384 7 7 (1204224)
I1124 13:26:25.134078 12960 net.cpp:165] Memory required for data: 3543557904
I1124 13:26:25.134083 12960 layer_factory.hpp:76] Creating layer inception_5b/3x3_reduce
I1124 13:26:25.134090 12960 net.cpp:106] Creating Layer inception_5b/3x3_reduce
I1124 13:26:25.134094 12960 net.cpp:454] inception_5b/3x3_reduce <- inception_5a/output_inception_5a/output_0_split_1
I1124 13:26:25.134101 12960 net.cpp:411] inception_5b/3x3_reduce -> inception_5b/3x3_reduce
I1124 13:26:25.136904 12960 net.cpp:150] Setting up inception_5b/3x3_reduce
I1124 13:26:25.136916 12960 net.cpp:157] Top shape: 64 192 7 7 (602112)
I1124 13:26:25.136919 12960 net.cpp:165] Memory required for data: 3545966352
I1124 13:26:25.136925 12960 layer_factory.hpp:76] Creating layer inception_5b/relu_3x3_reduce
I1124 13:26:25.136932 12960 net.cpp:106] Creating Layer inception_5b/relu_3x3_reduce
I1124 13:26:25.136937 12960 net.cpp:454] inception_5b/relu_3x3_reduce <- inception_5b/3x3_reduce
I1124 13:26:25.136942 12960 net.cpp:397] inception_5b/relu_3x3_reduce -> inception_5b/3x3_reduce (in-place)
I1124 13:26:25.137151 12960 net.cpp:150] Setting up inception_5b/relu_3x3_reduce
I1124 13:26:25.137159 12960 net.cpp:157] Top shape: 64 192 7 7 (602112)
I1124 13:26:25.137162 12960 net.cpp:165] Memory required for data: 3548374800
I1124 13:26:25.137166 12960 layer_factory.hpp:76] Creating layer inception_5b/3x3
I1124 13:26:25.137173 12960 net.cpp:106] Creating Layer inception_5b/3x3
I1124 13:26:25.137177 12960 net.cpp:454] inception_5b/3x3 <- inception_5b/3x3_reduce
I1124 13:26:25.137184 12960 net.cpp:411] inception_5b/3x3 -> inception_5b/3x3
I1124 13:26:25.143671 12960 net.cpp:150] Setting up inception_5b/3x3
I1124 13:26:25.143697 12960 net.cpp:157] Top shape: 64 384 7 7 (1204224)
I1124 13:26:25.143702 12960 net.cpp:165] Memory required for data: 3553191696
I1124 13:26:25.143707 12960 layer_factory.hpp:76] Creating layer inception_5b/relu_3x3
I1124 13:26:25.143715 12960 net.cpp:106] Creating Layer inception_5b/relu_3x3
I1124 13:26:25.143720 12960 net.cpp:454] inception_5b/relu_3x3 <- inception_5b/3x3
I1124 13:26:25.143731 12960 net.cpp:397] inception_5b/relu_3x3 -> inception_5b/3x3 (in-place)
I1124 13:26:25.144127 12960 net.cpp:150] Setting up inception_5b/relu_3x3
I1124 13:26:25.144140 12960 net.cpp:157] Top shape: 64 384 7 7 (1204224)
I1124 13:26:25.144143 12960 net.cpp:165] Memory required for data: 3558008592
I1124 13:26:25.144147 12960 layer_factory.hpp:76] Creating layer inception_5b/5x5_reduce
I1124 13:26:25.144155 12960 net.cpp:106] Creating Layer inception_5b/5x5_reduce
I1124 13:26:25.144160 12960 net.cpp:454] inception_5b/5x5_reduce <- inception_5a/output_inception_5a/output_0_split_2
I1124 13:26:25.144166 12960 net.cpp:411] inception_5b/5x5_reduce -> inception_5b/5x5_reduce
I1124 13:26:25.145937 12960 net.cpp:150] Setting up inception_5b/5x5_reduce
I1124 13:26:25.145949 12960 net.cpp:157] Top shape: 64 48 7 7 (150528)
I1124 13:26:25.145952 12960 net.cpp:165] Memory required for data: 3558610704
I1124 13:26:25.145958 12960 layer_factory.hpp:76] Creating layer inception_5b/relu_5x5_reduce
I1124 13:26:25.145967 12960 net.cpp:106] Creating Layer inception_5b/relu_5x5_reduce
I1124 13:26:25.145970 12960 net.cpp:454] inception_5b/relu_5x5_reduce <- inception_5b/5x5_reduce
I1124 13:26:25.145975 12960 net.cpp:397] inception_5b/relu_5x5_reduce -> inception_5b/5x5_reduce (in-place)
I1124 13:26:25.146337 12960 net.cpp:150] Setting up inception_5b/relu_5x5_reduce
I1124 13:26:25.146347 12960 net.cpp:157] Top shape: 64 48 7 7 (150528)
I1124 13:26:25.146350 12960 net.cpp:165] Memory required for data: 3559212816
I1124 13:26:25.146353 12960 layer_factory.hpp:76] Creating layer inception_5b/5x5
I1124 13:26:25.146363 12960 net.cpp:106] Creating Layer inception_5b/5x5
I1124 13:26:25.146368 12960 net.cpp:454] inception_5b/5x5 <- inception_5b/5x5_reduce
I1124 13:26:25.146373 12960 net.cpp:411] inception_5b/5x5 -> inception_5b/5x5
I1124 13:26:25.148542 12960 net.cpp:150] Setting up inception_5b/5x5
I1124 13:26:25.148555 12960 net.cpp:157] Top shape: 64 128 7 7 (401408)
I1124 13:26:25.148558 12960 net.cpp:165] Memory required for data: 3560818448
I1124 13:26:25.148564 12960 layer_factory.hpp:76] Creating layer inception_5b/relu_5x5
I1124 13:26:25.148571 12960 net.cpp:106] Creating Layer inception_5b/relu_5x5
I1124 13:26:25.148574 12960 net.cpp:454] inception_5b/relu_5x5 <- inception_5b/5x5
I1124 13:26:25.148579 12960 net.cpp:397] inception_5b/relu_5x5 -> inception_5b/5x5 (in-place)
I1124 13:26:25.148792 12960 net.cpp:150] Setting up inception_5b/relu_5x5
I1124 13:26:25.148800 12960 net.cpp:157] Top shape: 64 128 7 7 (401408)
I1124 13:26:25.148803 12960 net.cpp:165] Memory required for data: 3562424080
I1124 13:26:25.148808 12960 layer_factory.hpp:76] Creating layer inception_5b/pool
I1124 13:26:25.148813 12960 net.cpp:106] Creating Layer inception_5b/pool
I1124 13:26:25.148818 12960 net.cpp:454] inception_5b/pool <- inception_5a/output_inception_5a/output_0_split_3
I1124 13:26:25.148823 12960 net.cpp:411] inception_5b/pool -> inception_5b/pool
I1124 13:26:25.149214 12960 net.cpp:150] Setting up inception_5b/pool
I1124 13:26:25.149225 12960 net.cpp:157] Top shape: 64 832 7 7 (2609152)
I1124 13:26:25.149229 12960 net.cpp:165] Memory required for data: 3572860688
I1124 13:26:25.149232 12960 layer_factory.hpp:76] Creating layer inception_5b/pool_proj
I1124 13:26:25.149240 12960 net.cpp:106] Creating Layer inception_5b/pool_proj
I1124 13:26:25.149245 12960 net.cpp:454] inception_5b/pool_proj <- inception_5b/pool
I1124 13:26:25.149251 12960 net.cpp:411] inception_5b/pool_proj -> inception_5b/pool_proj
I1124 13:26:25.151525 12960 net.cpp:150] Setting up inception_5b/pool_proj
I1124 13:26:25.151537 12960 net.cpp:157] Top shape: 64 128 7 7 (401408)
I1124 13:26:25.151540 12960 net.cpp:165] Memory required for data: 3574466320
I1124 13:26:25.151546 12960 layer_factory.hpp:76] Creating layer inception_5b/relu_pool_proj
I1124 13:26:25.151553 12960 net.cpp:106] Creating Layer inception_5b/relu_pool_proj
I1124 13:26:25.151557 12960 net.cpp:454] inception_5b/relu_pool_proj <- inception_5b/pool_proj
I1124 13:26:25.151562 12960 net.cpp:397] inception_5b/relu_pool_proj -> inception_5b/pool_proj (in-place)
I1124 13:26:25.151764 12960 net.cpp:150] Setting up inception_5b/relu_pool_proj
I1124 13:26:25.151774 12960 net.cpp:157] Top shape: 64 128 7 7 (401408)
I1124 13:26:25.151777 12960 net.cpp:165] Memory required for data: 3576071952
I1124 13:26:25.151780 12960 layer_factory.hpp:76] Creating layer inception_5b/output
I1124 13:26:25.151787 12960 net.cpp:106] Creating Layer inception_5b/output
I1124 13:26:25.151790 12960 net.cpp:454] inception_5b/output <- inception_5b/1x1
I1124 13:26:25.151794 12960 net.cpp:454] inception_5b/output <- inception_5b/3x3
I1124 13:26:25.151798 12960 net.cpp:454] inception_5b/output <- inception_5b/5x5
I1124 13:26:25.151803 12960 net.cpp:454] inception_5b/output <- inception_5b/pool_proj
I1124 13:26:25.151808 12960 net.cpp:411] inception_5b/output -> inception_5b/output
I1124 13:26:25.151836 12960 net.cpp:150] Setting up inception_5b/output
I1124 13:26:25.151841 12960 net.cpp:157] Top shape: 64 1024 7 7 (3211264)
I1124 13:26:25.151844 12960 net.cpp:165] Memory required for data: 3588917008
I1124 13:26:25.151847 12960 layer_factory.hpp:76] Creating layer pool5/7x7_s1
I1124 13:26:25.151854 12960 net.cpp:106] Creating Layer pool5/7x7_s1
I1124 13:26:25.151857 12960 net.cpp:454] pool5/7x7_s1 <- inception_5b/output
I1124 13:26:25.151862 12960 net.cpp:411] pool5/7x7_s1 -> pool5/7x7_s1
I1124 13:26:25.152366 12960 net.cpp:150] Setting up pool5/7x7_s1
I1124 13:26:25.152377 12960 net.cpp:157] Top shape: 64 1024 1 1 (65536)
I1124 13:26:25.152380 12960 net.cpp:165] Memory required for data: 3589179152
I1124 13:26:25.152384 12960 layer_factory.hpp:76] Creating layer pool5/drop_7x7_s1
I1124 13:26:25.152390 12960 net.cpp:106] Creating Layer pool5/drop_7x7_s1
I1124 13:26:25.152395 12960 net.cpp:454] pool5/drop_7x7_s1 <- pool5/7x7_s1
I1124 13:26:25.152400 12960 net.cpp:397] pool5/drop_7x7_s1 -> pool5/7x7_s1 (in-place)
I1124 13:26:25.152425 12960 net.cpp:150] Setting up pool5/drop_7x7_s1
I1124 13:26:25.152429 12960 net.cpp:157] Top shape: 64 1024 1 1 (65536)
I1124 13:26:25.152432 12960 net.cpp:165] Memory required for data: 3589441296
I1124 13:26:25.152436 12960 layer_factory.hpp:76] Creating layer loss3/classifier-attribute
I1124 13:26:25.152442 12960 net.cpp:106] Creating Layer loss3/classifier-attribute
I1124 13:26:25.152446 12960 net.cpp:454] loss3/classifier-attribute <- pool5/7x7_s1
I1124 13:26:25.152452 12960 net.cpp:411] loss3/classifier-attribute -> loss3/classifier-attribute
I1124 13:26:25.152674 12960 net.cpp:150] Setting up loss3/classifier-attribute
I1124 13:26:25.152681 12960 net.cpp:157] Top shape: 64 16 (1024)
I1124 13:26:25.152684 12960 net.cpp:165] Memory required for data: 3589445392
I1124 13:26:25.152690 12960 layer_factory.hpp:76] Creating layer loss3/classifier-attribute_loss3/classifier-attribute_0_split
I1124 13:26:25.152695 12960 net.cpp:106] Creating Layer loss3/classifier-attribute_loss3/classifier-attribute_0_split
I1124 13:26:25.152699 12960 net.cpp:454] loss3/classifier-attribute_loss3/classifier-attribute_0_split <- loss3/classifier-attribute
I1124 13:26:25.152704 12960 net.cpp:411] loss3/classifier-attribute_loss3/classifier-attribute_0_split -> loss3/classifier-attribute_loss3/classifier-attribute_0_split_0
I1124 13:26:25.152710 12960 net.cpp:411] loss3/classifier-attribute_loss3/classifier-attribute_0_split -> loss3/classifier-attribute_loss3/classifier-attribute_0_split_1
I1124 13:26:25.152742 12960 net.cpp:150] Setting up loss3/classifier-attribute_loss3/classifier-attribute_0_split
I1124 13:26:25.152748 12960 net.cpp:157] Top shape: 64 16 (1024)
I1124 13:26:25.152751 12960 net.cpp:157] Top shape: 64 16 (1024)
I1124 13:26:25.152755 12960 net.cpp:165] Memory required for data: 3589453584
I1124 13:26:25.152757 12960 layer_factory.hpp:76] Creating layer loss3/loss3
I1124 13:26:25.152763 12960 net.cpp:106] Creating Layer loss3/loss3
I1124 13:26:25.152766 12960 net.cpp:454] loss3/loss3 <- loss3/classifier-attribute_loss3/classifier-attribute_0_split_0
I1124 13:26:25.152771 12960 net.cpp:454] loss3/loss3 <- label_data_1_split_4
…
