…
I1126 12:33:32.301915 19982 net.cpp:322] The NetState phase (0) differed from the phase (1) specified by a rule in layer loss3/top-1
I1126 12:33:32.302882 19982 net.cpp:49] Initializing net from parameters: 
name: "GoogleNet-finetune-for-cigit"
state {
  phase: TRAIN
}
layer {
  name: "data"
  type: "ImageData"
  top: "data"
  top: "label"
  include {
    phase: TRAIN
  }
  transform_param {
    mirror: true
    crop_size: 224
    mean_value: 104
    mean_value: 117
    mean_value: 123
  }
  image_data_param {
    source: "pad_train.txt"
    batch_size: 64
    shuffle: true
    new_height: 256
    new_width: 256
  }
}
layer {
  name: "conv1/7x7_s2"
  type: "Convolution"
  bottom: "data"
  top: "conv1/7x7_s2"
  param {
    lr_mult: 1
    decay_mult: 1
  }
  param {
    lr_mult: 2
    decay_mult: 0
  }
  convolution_param {
    num_output: 64
    pad: 3
    kernel_size: 7
    stride: 2
    weight_filler {
      type: "xavier"
    }
    bias_filler {
      type: "constant"
      value: 0.2
    }
  }
}
layer {
  name: "conv1/relu_7x7"
  type: "ReLU"
  bottom: "conv1/7x7_s2"
  top: "conv1/7x7_s2"
}
layer {
  name: "pool1/3x3_s2"
  type: "Pooling"
  bottom: "conv1/7x7_s2"
  top: "pool1/3x3_s2"
  pooling_param {
    pool: MAX
    kernel_size: 3
    stride: 2
  }
}
layer {
  name: "pool1/norm1"
  type: "LRN"
  bottom: "pool1/3x3_s2"
  top: "pool1/norm1"
  lrn_param {
    local_size: 5
    alpha: 0.0001
    beta: 0.75
  }
}
layer {
  name: "conv2/3x3_reduce"
  type: "Convolution"
  bottom: "pool1/norm1"
  top: "conv2/3x3_reduce"
  param {
    lr_mult: 1
    decay_mult: 1
  }
  param {
    lr_mult: 2
    decay_mult: 0
  }
  convolution_param {
    num_output: 64
    kernel_size: 1
    weight_filler {
      type: "xavier"
    }
    bias_filler {
      type: "constant"
      value: 0.2
    }
  }
}
layer {
  name: "conv2/relu_3x3_reduce"
  type: "ReLU"
  bottom: "conv2/3x3_reduce"
  top: "conv2/3x3_reduce"
}
layer {
  name: "conv2/3x3"
  type: "Convolution"
  bottom: "conv2/3x3_reduce"
  top: "conv2/3x3"
  param {
    lr_mult: 1
    decay_mult: 1
  }
  param {
    lr_mult: 2
    decay_mult: 0
  }
  convolution_param {
    num_output: 192
    pad: 1
    kernel_size: 3
    weight_filler {
      type: "xavier"
    }
    bias_filler {
      type: "constant"
      value: 0.2
    }
  }
}
layer {
  name: "conv2/relu_3x3"
  type: "ReLU"
  bottom: "conv2/3x3"
  top: "conv2/3x3"
}
layer {
  name: "conv2/norm2"
  type: "LRN"
  bottom: "conv2/3x3"
  top: "conv2/norm2"
  lrn_param {
    local_size: 5
    alpha: 0.0001
    beta: 0.75
  }
}
layer {
  name: "pool2/3x3_s2"
  type: "Pooling"
  bottom: "conv2/norm2"
  top: "pool2/3x3_s2"
  pooling_param {
    pool: MAX
    kernel_size: 3
    stride: 2
  }
}
layer {
  name: "inception_3a/1x1"
  type: "Convolution"
  bottom: "pool2/3x3_s2"
  top: "inception_3a/1x1"
  param {
    lr_mult: 1
    decay_mult: 1
  }
  param {
    lr_mult: 2
    decay_mult: 0
  }
  convolution_param {
    num_output: 64
    kernel_size: 1
    weight_filler {
      type: "xavier"
    }
    bias_filler {
      type: "constant"
      value: 0.2
    }
  }
}
layer {
  name: "inception_3a/relu_1x1"
  type: "ReLU"
  bottom: "inception_3a/1x1"
  top: "inception_3a/1x1"
}
layer {
  name: "inception_3a/3x3_reduce"
  type: "Convolution"
  bottom: "pool2/3x3_s2"
  top: "inception_3a/3x3_reduce"
  param {
    lr_mult: 1
    decay_mult: 1
  }
  param {
    lr_mult: 2
    decay_mult: 0
  }
  convolution_param {
    num_output: 96
    kernel_size: 1
    weight_filler {
      type: "xavier"
    }
    bias_filler {
      type: "constant"
      value: 0.2
    }
  }
}
layer {
  name: "inception_3a/relu_3x3_reduce"
  type: "ReLU"
  bottom: "inception_3a/3x3_reduce"
  top: "inception_3a/3x3_reduce"
}
layer {
  name: "inception_3a/3x3"
  type: "Convolution"
  bottom: "inception_3a/3x3_reduce"
  top: "inception_3a/3x3"
  param {
    lr_mult: 1
    decay_mult: 1
  }
  param {
    lr_mult: 2
    decay_mult: 0
  }
  convolution_param {
    num_output: 128
    pad: 1
    kernel_size: 3
    weight_filler {
      type: "xavier"
    }
    bias_filler {
      type: "constant"
      value: 0.2
    }
  }
}
layer {
  name: "inception_3a/relu_3x3"
  type: "ReLU"
  bottom: "inception_3a/3x3"
  top: "inception_3a/3x3"
}
layer {
  name: "inception_3a/5x5_reduce"
  type: "Convolution"
  bottom: "pool2/3x3_s2"
  top: "inception_3a/5x5_reduce"
  param {
    lr_mult: 1
    decay_mult: 1
  }
  param {
    lr_mult: 2
    decay_mult: 0
  }
  convolution_param {
    num_output: 16
    kernel_size: 1
    weight_filler {
      type: "xavier"
    }
    bias_filler {
      type: "constant"
      value: 0.2
    }
  }
}
layer {
  name: "inception_3a/relu_5x5_reduce"
  type: "ReLU"
  bottom: "inception_3a/5x5_reduce"
  top: "inception_3a/5x5_reduce"
}
layer {
  name: "inception_3a/5x5"
  type: "Convolution"
  bottom: "inception_3a/5x5_reduce"
  top: "inception_3a/5x5"
  param {
    lr_mult: 1
    decay_mult: 1
  }
  param {
    lr_mult: 2
    decay_mult: 0
  }
  convolution_param {
    num_output: 32
    pad: 2
    kernel_size: 5
    weight_filler {
      type: "xavier"
    }
    bias_filler {
      type: "constant"
      value: 0.2
    }
  }
}
layer {
  name: "inception_3a/relu_5x5"
  type: "ReLU"
  bottom: "inception_3a/5x5"
  top: "inception_3a/5x5"
}
layer {
  name: "inception_3a/pool"
  type: "Pooling"
  bottom: "pool2/3x3_s2"
  top: "inception_3a/pool"
  pooling_param {
    pool: MAX
    kernel_size: 3
    stride: 1
    pad: 1
  }
}
layer {
  name: "inception_3a/pool_proj"
  type: "Convolution"
  bottom: "inception_3a/pool"
  top: "inception_3a/pool_proj"
  param {
    lr_mult: 1
    decay_mult: 1
  }
  param {
    lr_mult: 2
    decay_mult: 0
  }
  convolution_param {
    num_output: 32
    kernel_size: 1
    weight_filler {
      type: "xavier"
    }
    bias_filler {
      type: "constant"
      value: 0.2
    }
  }
}
layer {
  name: "inception_3a/relu_pool_proj"
  type: "ReLU"
  bottom: "inception_3a/pool_proj"
  top: "inception_3a/pool_proj"
}
layer {
  name: "inception_3a/output"
  type: "Concat"
  bottom: "inception_3a/1x1"
  bottom: "inception_3a/3x3"
  bottom: "inception_3a/5x5"
  bottom: "inception_3a/pool_proj"
  top: "inception_3a/output"
}
layer {
  name: "inception_3b/1x1"
  type: "Convolution"
  bottom: "inception_3a/output"
  top: "inception_3b/1x1"
  param {
    lr_mult: 1
    decay_mult: 1
  }
  param {
    lr_mult: 2
    decay_mult: 0
  }
  convolution_param {
    num_output: 128
    kernel_size: 1
    weight_filler {
      type: "xavier"
    }
    bias_filler {
      type: "constant"
      value: 0.2
    }
  }
}
layer {
  name: "inception_3b/relu_1x1"
  type: "ReLU"
  bottom: "inception_3b/1x1"
  top: "inception_3b/1x1"
}
layer {
  name: "inception_3b/3x3_reduce"
  type: "Convolution"
  bottom: "inception_3a/output"
  top: "inception_3b/3x3_reduce"
  param {
    lr_mult: 1
    decay_mult: 1
  }
  param {
    lr_mult: 2
    decay_mult: 0
  }
  convolution_param {
    num_output: 128
    kernel_size: 1
    weight_filler {
      type: "xavier"
    }
    bias_filler {
      type: "constant"
      value: 0.2
    }
  }
}
layer {
  name: "inception_3b/relu_3x3_reduce"
  type: "ReLU"
  bottom: "inception_3b/3x3_reduce"
  top: "inception_3b/3x3_reduce"
}
layer {
  name: "inception_3b/3x3"
  type: "Convolution"
  bottom: "inception_3b/3x3_reduce"
  top: "inception_3b/3x3"
  param {
    lr_mult: 1
    decay_mult: 1
  }
  param {
    lr_mult: 2
    decay_mult: 0
  }
  convolution_param {
    num_output: 192
    pad: 1
    kernel_size: 3
    weight_filler {
      type: "xavier"
    }
    bias_filler {
      type: "constant"
      value: 0.2
    }
  }
}
layer {
  name: "inception_3b/relu_3x3"
  type: "ReLU"
  bottom: "inception_3b/3x3"
  top: "inception_3b/3x3"
}
layer {
  name: "inception_3b/5x5_reduce"
  type: "Convolution"
  bottom: "inception_3a/output"
  top: "inception_3b/5x5_reduce"
  param {
    lr_mult: 1
    decay_mult: 1
  }
  param {
    lr_mult: 2
    decay_mult: 0
  }
  convolution_param {
    num_output: 32
    kernel_size: 1
    weight_filler {
      type: "xavier"
    }
    bias_filler {
      type: "constant"
      value: 0.2
    }
  }
}
layer {
  name: "inception_3b/relu_5x5_reduce"
  type: "ReLU"
  bottom: "inception_3b/5x5_reduce"
  top: "inception_3b/5x5_reduce"
}
layer {
  name: "inception_3b/5x5"
  type: "Convolution"
  bottom: "inception_3b/5x5_reduce"
  top: "inception_3b/5x5"
  param {
    lr_mult: 1
    decay_mult: 1
  }
  param {
    lr_mult: 2
    decay_mult: 0
  }
  convolution_param {
    num_output: 96
    pad: 2
    kernel_size: 5
    weight_filler {
      type: "xavier"
    }
    bias_filler {
      type: "constant"
      value: 0.2
    }
  }
}
layer {
  name: "inception_3b/relu_5x5"
  type: "ReLU"
  bottom: "inception_3b/5x5"
  top: "inception_3b/5x5"
}
layer {
  name: "inception_3b/pool"
  type: "Pooling"
  bottom: "inception_3a/output"
  top: "inception_3b/pool"
  pooling_param {
    pool: MAX
    kernel_size: 3
    stride: 1
    pad: 1
  }
}
layer {
  name: "inception_3b/pool_proj"
  type: "Convolution"
  bottom: "inception_3b/pool"
  top: "inception_3b/pool_proj"
  param {
    lr_mult: 1
    decay_mult: 1
  }
  param {
    lr_mult: 2
    decay_mult: 0
  }
  convolution_param {
    num_output: 64
    kernel_size: 1
    weight_filler {
      type: "xavier"
    }
    bias_filler {
      type: "constant"
      value: 0.2
    }
  }
}
layer {
  name: "inception_3b/relu_pool_proj"
  type: "ReLU"
  bottom: "inception_3b/pool_proj"
  top: "inception_3b/pool_proj"
}
layer {
  name: "inception_3b/output"
  type: "Concat"
  bottom: "inception_3b/1x1"
  bottom: "inception_3b/3x3"
  bottom: "inception_3b/5x5"
  bottom: "inception_3b/pool_proj"
  top: "inception_3b/output"
}
layer {
  name: "pool3/3x3_s2"
  type: "Pooling"
  bottom: "inception_3b/output"
  top: "pool3/3x3_s2"
  pooling_param {
    pool: MAX
    kernel_size: 3
    stride: 2
  }
}
layer {
  name: "inception_4a/1x1"
  type: "Convolution"
  bottom: "pool3/3x3_s2"
  top: "inception_4a/1x1"
  param {
    lr_mult: 1
    decay_mult: 1
  }
  param {
    lr_mult: 2
    decay_mult: 0
  }
  convolution_param {
    num_output: 192
    kernel_size: 1
    weight_filler {
      type: "xavier"
    }
    bias_filler {
      type: "constant"
      value: 0.2
    }
  }
}
layer {
  name: "inception_4a/relu_1x1"
  type: "ReLU"
  bottom: "inception_4a/1x1"
  top: "inception_4a/1x1"
}
layer {
  name: "inception_4a/3x3_reduce"
  type: "Convolution"
  bottom: "pool3/3x3_s2"
  top: "inception_4a/3x3_reduce"
  param {
    lr_mult: 1
    decay_mult: 1
  }
  param {
    lr_mult: 2
    decay_mult: 0
  }
  convolution_param {
    num_output: 96
    kernel_size: 1
    weight_filler {
      type: "xavier"
    }
    bias_filler {
      type: "constant"
      value: 0.2
    }
  }
}
layer {
  name: "inception_4a/relu_3x3_reduce"
  type: "ReLU"
  bottom: "inception_4a/3x3_reduce"
  top: "inception_4a/3x3_reduce"
}
layer {
  name: "inception_4a/3x3"
  type: "Convolution"
  bottom: "inception_4a/3x3_reduce"
  top: "inception_4a/3x3"
  param {
    lr_mult: 1
    decay_mult: 1
  }
  param {
    lr_mult: 2
    decay_mult: 0
  }
  convolution_param {
    num_output: 208
    pad: 1
    kernel_size: 3
    weight_filler {
      type: "xavier"
    }
    bias_filler {
      type: "constant"
      value: 0.2
    }
  }
}
layer {
  name: "inception_4a/relu_3x3"
  type: "ReLU"
  bottom: "inception_4a/3x3"
  top: "inception_4a/3x3"
}
layer {
  name: "inception_4a/5x5_reduce"
  type: "Convolution"
  bottom: "pool3/3x3_s2"
  top: "inception_4a/5x5_reduce"
  param {
    lr_mult: 1
    decay_mult: 1
  }
  param {
    lr_mult: 2
    decay_mult: 0
  }
  convolution_param {
    num_output: 16
    kernel_size: 1
    weight_filler {
      type: "xavier"
    }
    bias_filler {
      type: "constant"
      value: 0.2
    }
  }
}
layer {
  name: "inception_4a/relu_5x5_reduce"
  type: "ReLU"
  bottom: "inception_4a/5x5_reduce"
  top: "inception_4a/5x5_reduce"
}
layer {
  name: "inception_4a/5x5"
  type: "Convolution"
  bottom: "inception_4a/5x5_reduce"
  top: "inception_4a/5x5"
  param {
    lr_mult: 1
    decay_mult: 1
  }
  param {
    lr_mult: 2
    decay_mult: 0
  }
  convolution_param {
    num_output: 48
    pad: 2
    kernel_size: 5
    weight_filler {
      type: "xavier"
    }
    bias_filler {
      type: "constant"
      value: 0.2
    }
  }
}
layer {
  name: "inception_4a/relu_5x5"
  type: "ReLU"
  bottom: "inception_4a/5x5"
  top: "inception_4a/5x5"
}
layer {
  name: "inception_4a/pool"
  type: "Pooling"
  bottom: "pool3/3x3_s2"
  top: "inception_4a/pool"
  pooling_param {
    pool: MAX
    kernel_size: 3
    stride: 1
    pad: 1
  }
}
layer {
  name: "inception_4a/pool_proj"
  type: "Convolution"
  bottom: "inception_4a/pool"
  top: "inception_4a/pool_proj"
  param {
    lr_mult: 1
    decay_mult: 1
  }
  param {
    lr_mult: 2
    decay_mult: 0
  }
  convolution_param {
    num_output: 64
    kernel_size: 1
    weight_filler {
      type: "xavier"
    }
    bias_filler {
      type: "constant"
      value: 0.2
    }
  }
}
layer {
  name: "inception_4a/relu_pool_proj"
  type: "ReLU"
  bottom: "inception_4a/pool_proj"
  top: "inception_4a/pool_proj"
}
layer {
  name: "inception_4a/output"
  type: "Concat"
  bottom: "inception_4a/1x1"
  bottom: "inception_4a/3x3"
  bottom: "inception_4a/5x5"
  bottom: "inception_4a/pool_proj"
  top: "inception_4a/output"
}
layer {
  name: "loss1/ave_pool"
  type: "Pooling"
  bottom: "inception_4a/output"
  top: "loss1/ave_pool"
  pooling_param {
    pool: AVE
    kernel_size: 5
    stride: 3
  }
}
layer {
  name: "loss1/conv"
  type: "Convolution"
  bottom: "loss1/ave_pool"
  top: "loss1/conv"
  param {
    lr_mult: 1
    decay_mult: 1
  }
  param {
    lr_mult: 2
    decay_mult: 0
  }
  convolution_param {
    num_output: 128
    kernel_size: 1
    weight_filler {
      type: "xavier"
    }
    bias_filler {
      type: "constant"
      value: 0.2
    }
  }
}
layer {
  name: "loss1/relu_conv"
  type: "ReLU"
  bottom: "loss1/conv"
  top: "loss1/conv"
}
layer {
  name: "loss1/fc"
  type: "InnerProduct"
  bottom: "loss1/conv"
  top: "loss1/fc"
  param {
    lr_mult: 1
    decay_mult: 1
  }
  param {
    lr_mult: 2
    decay_mult: 0
  }
  inner_product_param {
    num_output: 1024
    weight_filler {
      type: "xavier"
    }
    bias_filler {
      type: "constant"
      value: 0.2
    }
  }
}
layer {
  name: "loss1/relu_fc"
  type: "ReLU"
  bottom: "loss1/fc"
  top: "loss1/fc"
}
layer {
  name: "loss1/drop_fc"
  type: "Dropout"
  bottom: "loss1/fc"
  top: "loss1/fc"
  dropout_param {
    dropout_ratio: 0.7
  }
}
layer {
  name: "loss1/classifier-attribute"
  type: "InnerProduct"
  bottom: "loss1/fc"
  top: "loss1/classifier-attribute"
  param {
    lr_mult: 10
    decay_mult: 1
  }
  param {
    lr_mult: 20
    decay_mult: 0
  }
  inner_product_param {
    num_output: 9999
    weight_filler {
      type: "xavier"
    }
    bias_filler {
      type: "constant"
      value: 0
    }
  }
}
layer {
  name: "loss1/loss"
  type: "SoftmaxWithLoss"
  bottom: "loss1/classifier-attribute"
  bottom: "label"
  top: "loss1/loss1"
  loss_weight: 0.3
}
layer {
  name: "inception_4b/1x1"
  type: "Convolution"
  bottom: "inception_4a/output"
  top: "inception_4b/1x1"
  param {
    lr_mult: 1
    decay_mult: 1
  }
  param {
    lr_mult: 2
    decay_mult: 0
  }
  convolution_param {
    num_output: 160
    kernel_size: 1
    weight_filler {
      type: "xavier"
    }
    bias_filler {
      type: "constant"
      value: 0.2
    }
  }
}
layer {
  name: "inception_4b/relu_1x1"
  type: "ReLU"
  bottom: "inception_4b/1x1"
  top: "inception_4b/1x1"
}
layer {
  name: "inception_4b/3x3_reduce"
  type: "Convolution"
  bottom: "inception_4a/output"
  top: "inception_4b/3x3_reduce"
  param {
    lr_mult: 1
    decay_mult: 1
  }
  param {
    lr_mult: 2
    decay_mult: 0
  }
  convolution_param {
    num_output: 112
    kernel_size: 1
    weight_filler {
      type: "xavier"
    }
    bias_filler {
      type: "constant"
      value: 0.2
    }
  }
}
layer {
  name: "inception_4b/relu_3x3_reduce"
  type: "ReLU"
  bottom: "inception_4b/3x3_reduce"
  top: "inception_4b/3x3_reduce"
}
layer {
  name: "inception_4b/3x3"
  type: "Convolution"
  bottom: "inception_4b/3x3_reduce"
  top: "inception_4b/3x3"
  param {
    lr_mult: 1
    decay_mult: 1
  }
  param {
    lr_mult: 2
    decay_mult: 0
  }
  convolution_param {
    num_output: 224
    pad: 1
    kernel_size: 3
    weight_filler {
      type: "xavier"
    }
    bias_filler {
      type: "constant"
      value: 0.2
    }
  }
}
layer {
  name: "inception_4b/relu_3x3"
  type: "ReLU"
  bottom: "inception_4b/3x3"
  top: "inception_4b/3x3"
}
layer {
  name: "inception_4b/5x5_reduce"
  type: "Convolution"
  bottom: "inception_4a/output"
  top: "inception_4b/5x5_reduce"
  param {
    lr_mult: 1
    decay_mult: 1
  }
  param {
    lr_mult: 2
    decay_mult: 0
  }
  convolution_param {
    num_output: 24
    kernel_size: 1
    weight_filler {
      type: "xavier"
    }
    bias_filler {
      type: "constant"
      value: 0.2
    }
  }
}
layer {
  name: "inception_4b/relu_5x5_reduce"
  type: "ReLU"
  bottom: "inception_4b/5x5_reduce"
  top: "inception_4b/5x5_reduce"
}
layer {
  name: "inception_4b/5x5"
  type: "Convolution"
  bottom: "inception_4b/5x5_reduce"
  top: "inception_4b/5x5"
  param {
    lr_mult: 1
    decay_mult: 1
  }
  param {
    lr_mult: 2
    decay_mult: 0
  }
  convolution_param {
    num_output: 64
    pad: 2
    kernel_size: 5
    weight_filler {
      type: "xavier"
    }
    bias_filler {
      type: "constant"
      value: 0.2
    }
  }
}
layer {
  name: "inception_4b/relu_5x5"
  type: "ReLU"
  bottom: "inception_4b/5x5"
  top: "inception_4b/5x5"
}
layer {
  name: "inception_4b/pool"
  type: "Pooling"
  bottom: "inception_4a/output"
  top: "inception_4b/pool"
  pooling_param {
    pool: MAX
    kernel_size: 3
    stride: 1
    pad: 1
  }
}
layer {
  name: "inception_4b/pool_proj"
  type: "Convolution"
  bottom: "inception_4b/pool"
  top: "inception_4b/pool_proj"
  param {
    lr_mult: 1
    decay_mult: 1
  }
  param {
    lr_mult: 2
    decay_mult: 0
  }
  convolution_param {
    num_output: 64
    kernel_size: 1
    weight_filler {
      type: "xavier"
    }
    bias_filler {
      type: "constant"
      value: 0.2
    }
  }
}
layer {
  name: "inception_4b/relu_pool_proj"
  type: "ReLU"
  bottom: "inception_4b/pool_proj"
  top: "inception_4b/pool_proj"
}
layer {
  name: "inception_4b/output"
  type: "Concat"
  bottom: "inception_4b/1x1"
  bottom: "inception_4b/3x3"
  bottom: "inception_4b/5x5"
  bottom: "inception_4b/pool_proj"
  top: "inception_4b/output"
}
layer {
  name: "inception_4c/1x1"
  type: "Convolution"
  bottom: "inception_4b/output"
  top: "inception_4c/1x1"
  param {
    lr_mult: 1
    decay_mult: 1
  }
  param {
    lr_mult: 2
    decay_mult: 0
  }
  convolution_param {
    num_output: 128
    kernel_size: 1
    weight_filler {
      type: "xavier"
    }
    bias_filler {
      type: "constant"
      value: 0.2
    }
  }
}
layer {
  name: "inception_4c/relu_1x1"
  type: "ReLU"
  bottom: "inception_4c/1x1"
  top: "inception_4c/1x1"
}
layer {
  name: "inception_4c/3x3_reduce"
  type: "Convolution"
  bottom: "inception_4b/output"
  top: "inception_4c/3x3_reduce"
  param {
    lr_mult: 1
    decay_mult: 1
  }
  param {
    lr_mult: 2
    decay_mult: 0
  }
  convolution_param {
    num_output: 128
    kernel_size: 1
    weight_filler {
      type: "xavier"
    }
    bias_filler {
      type: "constant"
      value: 0.2
    }
  }
}
layer {
  name: "inception_4c/relu_3x3_reduce"
  type: "ReLU"
  bottom: "inception_4c/3x3_reduce"
  top: "inception_4c/3x3_reduce"
}
layer {
  name: "inception_4c/3x3"
  type: "Convolution"
  bottom: "inception_4c/3x3_reduce"
  top: "inception_4c/3x3"
  param {
    lr_mult: 1
    decay_mult: 1
  }
  param {
    lr_mult: 2
    decay_mult: 0
  }
  convolution_param {
    num_output: 256
    pad: 1
    kernel_size: 3
    weight_filler {
      type: "xavier"
    }
    bias_filler {
      type: "constant"
      value: 0.2
    }
  }
}
layer {
  name: "inception_4c/relu_3x3"
  type: "ReLU"
  bottom: "inception_4c/3x3"
  top: "inception_4c/3x3"
}
layer {
  name: "inception_4c/5x5_reduce"
  type: "Convolution"
  bottom: "inception_4b/output"
  top: "inception_4c/5x5_reduce"
  param {
    lr_mult: 1
    decay_mult: 1
  }
  param {
    lr_mult: 2
    decay_mult: 0
  }
  convolution_param {
    num_output: 24
    kernel_size: 1
    weight_filler {
      type: "xavier"
    }
    bias_filler {
      type: "constant"
      value: 0.2
    }
  }
}
layer {
  name: "inception_4c/relu_5x5_reduce"
  type: "ReLU"
  bottom: "inception_4c/5x5_reduce"
  top: "inception_4c/5x5_reduce"
}
layer {
  name: "inception_4c/5x5"
  type: "Convolution"
  bottom: "inception_4c/5x5_reduce"
  top: "inception_4c/5x5"
  param {
    lr_mult: 1
    decay_mult: 1
  }
  param {
    lr_mult: 2
    decay_mult: 0
  }
  convolution_param {
    num_output: 64
    pad: 2
    kernel_size: 5
    weight_filler {
      type: "xavier"
    }
    bias_filler {
      type: "constant"
      value: 0.2
    }
  }
}
layer {
  name: "inception_4c/relu_5x5"
  type: "ReLU"
  bottom: "inception_4c/5x5"
  top: "inception_4c/5x5"
}
layer {
  name: "inception_4c/pool"
  type: "Pooling"
  bottom: "inception_4b/output"
  top: "inception_4c/pool"
  pooling_param {
    pool: MAX
    kernel_size: 3
    stride: 1
    pad: 1
  }
}
layer {
  name: "inception_4c/pool_proj"
  type: "Convolution"
  bottom: "inception_4c/pool"
  top: "inception_4c/pool_proj"
  param {
    lr_mult: 1
    decay_mult: 1
  }
  param {
    lr_mult: 2
    decay_mult: 0
  }
  convolution_param {
    num_output: 64
    kernel_size: 1
    weight_filler {
      type: "xavier"
    }
    bias_filler {
      type: "constant"
      value: 0.2
    }
  }
}
layer {
  name: "inception_4c/relu_pool_proj"
  type: "ReLU"
  bottom: "inception_4c/pool_proj"
  top: "inception_4c/pool_proj"
}
layer {
  name: "inception_4c/output"
  type: "Concat"
  bottom: "inception_4c/1x1"
  bottom: "inception_4c/3x3"
  bottom: "inception_4c/5x5"
  bottom: "inception_4c/pool_proj"
  top: "inception_4c/output"
}
layer {
  name: "inception_4d/1x1"
  type: "Convolution"
  bottom: "inception_4c/output"
  top: "inception_4d/1x1"
  param {
    lr_mult: 1
    decay_mult: 1
  }
  param {
    lr_mult: 2
    decay_mult: 0
  }
  convolution_param {
    num_output: 112
    kernel_size: 1
    weight_filler {
      type: "xavier"
    }
    bias_filler {
      type: "constant"
      value: 0.2
    }
  }
}
layer {
  name: "inception_4d/relu_1x1"
  type: "ReLU"
  bottom: "inception_4d/1x1"
  top: "inception_4d/1x1"
}
layer {
  name: "inception_4d/3x3_reduce"
  type: "Convolution"
  bottom: "inception_4c/output"
  top: "inception_4d/3x3_reduce"
  param {
    lr_mult: 1
    decay_mult: 1
  }
  param {
    lr_mult: 2
    decay_mult: 0
  }
  convolution_param {
    num_output: 144
    kernel_size: 1
    weight_filler {
      type: "xavier"
    }
    bias_filler {
      type: "constant"
      value: 0.2
    }
  }
}
layer {
  name: "inception_4d/relu_3x3_reduce"
  type: "ReLU"
  bottom: "inception_4d/3x3_reduce"
  top: "inception_4d/3x3_reduce"
}
layer {
  name: "inception_4d/3x3"
  type: "Convolution"
  bottom: "inception_4d/3x3_reduce"
  top: "inception_4d/3x3"
  param {
    lr_mult: 1
    decay_mult: 1
  }
  param {
    lr_mult: 2
    decay_mult: 0
  }
  convolution_param {
    num_output: 288
    pad: 1
    kernel_size: 3
    weight_filler {
      type: "xavier"
    }
    bias_filler {
      type: "constant"
      value: 0.2
    }
  }
}
layer {
  name: "inception_4d/relu_3x3"
  type: "ReLU"
  bottom: "inception_4d/3x3"
  top: "inception_4d/3x3"
}
layer {
  name: "inception_4d/5x5_reduce"
  type: "Convolution"
  bottom: "inception_4c/output"
  top: "inception_4d/5x5_reduce"
  param {
    lr_mult: 1
    decay_mult: 1
  }
  param {
    lr_mult: 2
    decay_mult: 0
  }
  convolution_param {
    num_output: 32
    kernel_size: 1
    weight_filler {
      type: "xavier"
    }
    bias_filler {
      type: "constant"
      value: 0.2
    }
  }
}
layer {
  name: "inception_4d/relu_5x5_reduce"
  type: "ReLU"
  bottom: "inception_4d/5x5_reduce"
  top: "inception_4d/5x5_reduce"
}
layer {
  name: "inception_4d/5x5"
  type: "Convolution"
  bottom: "inception_4d/5x5_reduce"
  top: "inception_4d/5x5"
  param {
    lr_mult: 1
    decay_mult: 1
  }
  param {
    lr_mult: 2
    decay_mult: 0
  }
  convolution_param {
    num_output: 64
    pad: 2
    kernel_size: 5
    weight_filler {
      type: "xavier"
    }
    bias_filler {
      type: "constant"
      value: 0.2
    }
  }
}
layer {
  name: "inception_4d/relu_5x5"
  type: "ReLU"
  bottom: "inception_4d/5x5"
  top: "inception_4d/5x5"
}
layer {
  name: "inception_4d/pool"
  type: "Pooling"
  bottom: "inception_4c/output"
  top: "inception_4d/pool"
  pooling_param {
    pool: MAX
    kernel_size: 3
    stride: 1
    pad: 1
  }
}
layer {
  name: "inception_4d/pool_proj"
  type: "Convolution"
  bottom: "inception_4d/pool"
  top: "inception_4d/pool_proj"
  param {
    lr_mult: 1
    decay_mult: 1
  }
  param {
    lr_mult: 2
    decay_mult: 0
  }
  convolution_param {
    num_output: 64
    kernel_size: 1
    weight_filler {
      type: "xavier"
    }
    bias_filler {
      type: "constant"
      value: 0.2
    }
  }
}
layer {
  name: "inception_4d/relu_pool_proj"
  type: "ReLU"
  bottom: "inception_4d/pool_proj"
  top: "inception_4d/pool_proj"
}
layer {
  name: "inception_4d/output"
  type: "Concat"
  bottom: "inception_4d/1x1"
  bottom: "inception_4d/3x3"
  bottom: "inception_4d/5x5"
  bottom: "inception_4d/pool_proj"
  top: "inception_4d/output"
}
layer {
  name: "loss2/ave_pool"
  type: "Pooling"
  bottom: "inception_4d/output"
  top: "loss2/ave_pool"
  pooling_param {
    pool: AVE
    kernel_size: 5
    stride: 3
  }
}
layer {
  name: "loss2/conv"
  type: "Convolution"
  bottom: "loss2/ave_pool"
  top: "loss2/conv"
  param {
    lr_mult: 1
    decay_mult: 1
  }
  param {
    lr_mult: 2
    decay_mult: 0
  }
  convolution_param {
    num_output: 128
    kernel_size: 1
    weight_filler {
      type: "xavier"
    }
    bias_filler {
      type: "constant"
      value: 0.2
    }
  }
}
layer {
  name: "loss2/relu_conv"
  type: "ReLU"
  bottom: "loss2/conv"
  top: "loss2/conv"
}
layer {
  name: "loss2/fc"
  type: "InnerProduct"
  bottom: "loss2/conv"
  top: "loss2/fc"
  param {
    lr_mult: 1
    decay_mult: 1
  }
  param {
    lr_mult: 2
    decay_mult: 0
  }
  inner_product_param {
    num_output: 1024
    weight_filler {
      type: "xavier"
    }
    bias_filler {
      type: "constant"
      value: 0.2
    }
  }
}
layer {
  name: "loss2/relu_fc"
  type: "ReLU"
  bottom: "loss2/fc"
  top: "loss2/fc"
}
layer {
  name: "loss2/drop_fc"
  type: "Dropout"
  bottom: "loss2/fc"
  top: "loss2/fc"
  dropout_param {
    dropout_ratio: 0.7
  }
}
layer {
  name: "loss2/classifier-attribute"
  type: "InnerProduct"
  bottom: "loss2/fc"
  top: "loss2/classifier-attribute"
  param {
    lr_mult: 10
    decay_mult: 1
  }
  param {
    lr_mult: 20
    decay_mult: 0
  }
  inner_product_param {
    num_output: 9999
    weight_filler {
      type: "xavier"
    }
    bias_filler {
      type: "constant"
      value: 0
    }
  }
}
layer {
  name: "loss2/loss"
  type: "SoftmaxWithLoss"
  bottom: "loss2/classifier-attribute"
  bottom: "label"
  top: "loss2/loss1"
  loss_weight: 0.3
}
layer {
  name: "inception_4e/1x1"
  type: "Convolution"
  bottom: "inception_4d/output"
  top: "inception_4e/1x1"
  param {
    lr_mult: 1
    decay_mult: 1
  }
  param {
    lr_mult: 2
    decay_mult: 0
  }
  convolution_param {
    num_output: 256
    kernel_size: 1
    weight_filler {
      type: "xavier"
    }
    bias_filler {
      type: "constant"
      value: 0.2
    }
  }
}
layer {
  name: "inception_4e/relu_1x1"
  type: "ReLU"
  bottom: "inception_4e/1x1"
  top: "inception_4e/1x1"
}
layer {
  name: "inception_4e/3x3_reduce"
  type: "Convolution"
  bottom: "inception_4d/output"
  top: "inception_4e/3x3_reduce"
  param {
    lr_mult: 1
    decay_mult: 1
  }
  param {
    lr_mult: 2
    decay_mult: 0
  }
  convolution_param {
    num_output: 160
    kernel_size: 1
    weight_filler {
      type: "xavier"
    }
    bias_filler {
      type: "constant"
      value: 0.2
    }
  }
}
layer {
  name: "inception_4e/relu_3x3_reduce"
  type: "ReLU"
  bottom: "inception_4e/3x3_reduce"
  top: "inception_4e/3x3_reduce"
}
layer {
  name: "inception_4e/3x3"
  type: "Convolution"
  bottom: "inception_4e/3x3_reduce"
  top: "inception_4e/3x3"
  param {
    lr_mult: 1
    decay_mult: 1
  }
  param {
    lr_mult: 2
    decay_mult: 0
  }
  convolution_param {
    num_output: 320
    pad: 1
    kernel_size: 3
    weight_filler {
      type: "xavier"
    }
    bias_filler {
      type: "constant"
      value: 0.2
    }
  }
}
layer {
  name: "inception_4e/relu_3x3"
  type: "ReLU"
  bottom: "inception_4e/3x3"
  top: "inception_4e/3x3"
}
layer {
  name: "inception_4e/5x5_reduce"
  type: "Convolution"
  bottom: "inception_4d/output"
  top: "inception_4e/5x5_reduce"
  param {
    lr_mult: 1
    decay_mult: 1
  }
  param {
    lr_mult: 2
    decay_mult: 0
  }
  convolution_param {
    num_output: 32
    kernel_size: 1
    weight_filler {
      type: "xavier"
    }
    bias_filler {
      type: "constant"
      value: 0.2
    }
  }
}
layer {
  name: "inception_4e/relu_5x5_reduce"
  type: "ReLU"
  bottom: "inception_4e/5x5_reduce"
  top: "inception_4e/5x5_reduce"
}
layer {
  name: "inception_4e/5x5"
  type: "Convolution"
  bottom: "inception_4e/5x5_reduce"
  top: "inception_4e/5x5"
  param {
    lr_mult: 1
    decay_mult: 1
  }
  param {
    lr_mult: 2
    decay_mult: 0
  }
  convolution_param {
    num_output: 128
    pad: 2
    kernel_size: 5
    weight_filler {
      type: "xavier"
    }
    bias_filler {
      type: "constant"
      value: 0.2
    }
  }
}
layer {
  name: "inception_4e/relu_5x5"
  type: "ReLU"
  bottom: "inception_4e/5x5"
  top: "inception_4e/5x5"
}
layer {
  name: "inception_4e/pool"
  type: "Pooling"
  bottom: "ince
I1126 12:33:32.303705 19982 layer_factory.hpp:76] Creating layer data
I1126 12:33:32.303751 19982 net.cpp:106] Creating Layer data
I1126 12:33:32.303762 19982 net.cpp:411] data -> data
I1126 12:33:32.303796 19982 net.cpp:411] data -> label
I1126 12:33:32.304322 19982 image_data_layer.cpp:36] Opening file pad_train.txt
I1126 12:33:32.492030 19982 image_data_layer.cpp:46] Shuffling data
I1126 12:33:32.519311 19982 image_data_layer.cpp:51] A total of 193988 images.
I1126 12:33:32.574259 19982 image_data_layer.cpp:78] output data size: 64,3,224,224
I1126 12:33:32.628943 19982 net.cpp:150] Setting up data
I1126 12:33:32.629009 19982 net.cpp:157] Top shape: 64 3 224 224 (9633792)
I1126 12:33:32.629016 19982 net.cpp:157] Top shape: 64 (64)
I1126 12:33:32.629019 19982 net.cpp:165] Memory required for data: 38535424
I1126 12:33:32.629030 19982 layer_factory.hpp:76] Creating layer label_data_1_split
I1126 12:33:32.629052 19982 net.cpp:106] Creating Layer label_data_1_split
I1126 12:33:32.629060 19982 net.cpp:454] label_data_1_split <- label
I1126 12:33:32.629072 19982 net.cpp:411] label_data_1_split -> label_data_1_split_0
I1126 12:33:32.629081 19982 net.cpp:411] label_data_1_split -> label_data_1_split_1
I1126 12:33:32.629087 19982 net.cpp:411] label_data_1_split -> label_data_1_split_2
I1126 12:33:32.629164 19982 net.cpp:150] Setting up label_data_1_split
I1126 12:33:32.629174 19982 net.cpp:157] Top shape: 64 (64)
I1126 12:33:32.629179 19982 net.cpp:157] Top shape: 64 (64)
I1126 12:33:32.629182 19982 net.cpp:157] Top shape: 64 (64)
I1126 12:33:32.629185 19982 net.cpp:165] Memory required for data: 38536192
I1126 12:33:32.629189 19982 layer_factory.hpp:76] Creating layer conv1/7x7_s2
I1126 12:33:32.629204 19982 net.cpp:106] Creating Layer conv1/7x7_s2
I1126 12:33:32.629207 19982 net.cpp:454] conv1/7x7_s2 <- data
I1126 12:33:32.629214 19982 net.cpp:411] conv1/7x7_s2 -> conv1/7x7_s2
I1126 12:33:32.788986 19982 net.cpp:150] Setting up conv1/7x7_s2
I1126 12:33:32.789014 19982 net.cpp:157] Top shape: 64 64 112 112 (51380224)
I1126 12:33:32.789019 19982 net.cpp:165] Memory required for data: 244057088
I1126 12:33:32.789041 19982 layer_factory.hpp:76] Creating layer conv1/relu_7x7
I1126 12:33:32.789052 19982 net.cpp:106] Creating Layer conv1/relu_7x7
I1126 12:33:32.789057 19982 net.cpp:454] conv1/relu_7x7 <- conv1/7x7_s2
I1126 12:33:32.789063 19982 net.cpp:397] conv1/relu_7x7 -> conv1/7x7_s2 (in-place)
I1126 12:33:32.789353 19982 net.cpp:150] Setting up conv1/relu_7x7
I1126 12:33:32.789367 19982 net.cpp:157] Top shape: 64 64 112 112 (51380224)
I1126 12:33:32.789371 19982 net.cpp:165] Memory required for data: 449577984
I1126 12:33:32.789376 19982 layer_factory.hpp:76] Creating layer pool1/3x3_s2
I1126 12:33:32.789383 19982 net.cpp:106] Creating Layer pool1/3x3_s2
I1126 12:33:32.789387 19982 net.cpp:454] pool1/3x3_s2 <- conv1/7x7_s2
I1126 12:33:32.789393 19982 net.cpp:411] pool1/3x3_s2 -> pool1/3x3_s2
I1126 12:33:32.789582 19982 net.cpp:150] Setting up pool1/3x3_s2
I1126 12:33:32.789597 19982 net.cpp:157] Top shape: 64 64 56 56 (12845056)
I1126 12:33:32.789600 19982 net.cpp:165] Memory required for data: 500958208
I1126 12:33:32.789604 19982 layer_factory.hpp:76] Creating layer pool1/norm1
I1126 12:33:32.789615 19982 net.cpp:106] Creating Layer pool1/norm1
I1126 12:33:32.789623 19982 net.cpp:454] pool1/norm1 <- pool1/3x3_s2
I1126 12:33:32.789628 19982 net.cpp:411] pool1/norm1 -> pool1/norm1
I1126 12:33:32.789940 19982 net.cpp:150] Setting up pool1/norm1
I1126 12:33:32.789954 19982 net.cpp:157] Top shape: 64 64 56 56 (12845056)
I1126 12:33:32.789958 19982 net.cpp:165] Memory required for data: 552338432
I1126 12:33:32.789962 19982 layer_factory.hpp:76] Creating layer conv2/3x3_reduce
I1126 12:33:32.789971 19982 net.cpp:106] Creating Layer conv2/3x3_reduce
I1126 12:33:32.789975 19982 net.cpp:454] conv2/3x3_reduce <- pool1/norm1
I1126 12:33:32.789980 19982 net.cpp:411] conv2/3x3_reduce -> conv2/3x3_reduce
I1126 12:33:32.791218 19982 net.cpp:150] Setting up conv2/3x3_reduce
I1126 12:33:32.791234 19982 net.cpp:157] Top shape: 64 64 56 56 (12845056)
I1126 12:33:32.791239 19982 net.cpp:165] Memory required for data: 603718656
I1126 12:33:32.791247 19982 layer_factory.hpp:76] Creating layer conv2/relu_3x3_reduce
I1126 12:33:32.791255 19982 net.cpp:106] Creating Layer conv2/relu_3x3_reduce
I1126 12:33:32.791259 19982 net.cpp:454] conv2/relu_3x3_reduce <- conv2/3x3_reduce
I1126 12:33:32.791263 19982 net.cpp:397] conv2/relu_3x3_reduce -> conv2/3x3_reduce (in-place)
I1126 12:33:32.791551 19982 net.cpp:150] Setting up conv2/relu_3x3_reduce
I1126 12:33:32.791565 19982 net.cpp:157] Top shape: 64 64 56 56 (12845056)
I1126 12:33:32.791568 19982 net.cpp:165] Memory required for data: 655098880
I1126 12:33:32.791573 19982 layer_factory.hpp:76] Creating layer conv2/3x3
I1126 12:33:32.791584 19982 net.cpp:106] Creating Layer conv2/3x3
I1126 12:33:32.791586 19982 net.cpp:454] conv2/3x3 <- conv2/3x3_reduce
I1126 12:33:32.791592 19982 net.cpp:411] conv2/3x3 -> conv2/3x3
I1126 12:33:32.793617 19982 net.cpp:150] Setting up conv2/3x3
I1126 12:33:32.793632 19982 net.cpp:157] Top shape: 64 192 56 56 (38535168)
I1126 12:33:32.793637 19982 net.cpp:165] Memory required for data: 809239552
I1126 12:33:32.793645 19982 layer_factory.hpp:76] Creating layer conv2/relu_3x3
I1126 12:33:32.793653 19982 net.cpp:106] Creating Layer conv2/relu_3x3
I1126 12:33:32.793656 19982 net.cpp:454] conv2/relu_3x3 <- conv2/3x3
I1126 12:33:32.793663 19982 net.cpp:397] conv2/relu_3x3 -> conv2/3x3 (in-place)
I1126 12:33:32.793810 19982 net.cpp:150] Setting up conv2/relu_3x3
I1126 12:33:32.793820 19982 net.cpp:157] Top shape: 64 192 56 56 (38535168)
I1126 12:33:32.793823 19982 net.cpp:165] Memory required for data: 963380224
I1126 12:33:32.793828 19982 layer_factory.hpp:76] Creating layer conv2/norm2
I1126 12:33:32.793833 19982 net.cpp:106] Creating Layer conv2/norm2
I1126 12:33:32.793836 19982 net.cpp:454] conv2/norm2 <- conv2/3x3
I1126 12:33:32.793841 19982 net.cpp:411] conv2/norm2 -> conv2/norm2
I1126 12:33:32.794137 19982 net.cpp:150] Setting up conv2/norm2
I1126 12:33:32.794152 19982 net.cpp:157] Top shape: 64 192 56 56 (38535168)
I1126 12:33:32.794154 19982 net.cpp:165] Memory required for data: 1117520896
I1126 12:33:32.794158 19982 layer_factory.hpp:76] Creating layer pool2/3x3_s2
I1126 12:33:32.794165 19982 net.cpp:106] Creating Layer pool2/3x3_s2
I1126 12:33:32.794168 19982 net.cpp:454] pool2/3x3_s2 <- conv2/norm2
I1126 12:33:32.794173 19982 net.cpp:411] pool2/3x3_s2 -> pool2/3x3_s2
I1126 12:33:32.794340 19982 net.cpp:150] Setting up pool2/3x3_s2
I1126 12:33:32.794350 19982 net.cpp:157] Top shape: 64 192 28 28 (9633792)
I1126 12:33:32.794353 19982 net.cpp:165] Memory required for data: 1156056064
I1126 12:33:32.794356 19982 layer_factory.hpp:76] Creating layer pool2/3x3_s2_pool2/3x3_s2_0_split
I1126 12:33:32.794363 19982 net.cpp:106] Creating Layer pool2/3x3_s2_pool2/3x3_s2_0_split
I1126 12:33:32.794366 19982 net.cpp:454] pool2/3x3_s2_pool2/3x3_s2_0_split <- pool2/3x3_s2
I1126 12:33:32.794371 19982 net.cpp:411] pool2/3x3_s2_pool2/3x3_s2_0_split -> pool2/3x3_s2_pool2/3x3_s2_0_split_0
I1126 12:33:32.794378 19982 net.cpp:411] pool2/3x3_s2_pool2/3x3_s2_0_split -> pool2/3x3_s2_pool2/3x3_s2_0_split_1
I1126 12:33:32.794384 19982 net.cpp:411] pool2/3x3_s2_pool2/3x3_s2_0_split -> pool2/3x3_s2_pool2/3x3_s2_0_split_2
I1126 12:33:32.794389 19982 net.cpp:411] pool2/3x3_s2_pool2/3x3_s2_0_split -> pool2/3x3_s2_pool2/3x3_s2_0_split_3
I1126 12:33:32.794435 19982 net.cpp:150] Setting up pool2/3x3_s2_pool2/3x3_s2_0_split
I1126 12:33:32.794442 19982 net.cpp:157] Top shape: 64 192 28 28 (9633792)
I1126 12:33:32.794446 19982 net.cpp:157] Top shape: 64 192 28 28 (9633792)
I1126 12:33:32.794450 19982 net.cpp:157] Top shape: 64 192 28 28 (9633792)
I1126 12:33:32.794453 19982 net.cpp:157] Top shape: 64 192 28 28 (9633792)
I1126 12:33:32.794456 19982 net.cpp:165] Memory required for data: 1310196736
I1126 12:33:32.794459 19982 layer_factory.hpp:76] Creating layer inception_3a/1x1
I1126 12:33:32.794467 19982 net.cpp:106] Creating Layer inception_3a/1x1
I1126 12:33:32.794471 19982 net.cpp:454] inception_3a/1x1 <- pool2/3x3_s2_pool2/3x3_s2_0_split_0
I1126 12:33:32.794476 19982 net.cpp:411] inception_3a/1x1 -> inception_3a/1x1
I1126 12:33:32.795855 19982 net.cpp:150] Setting up inception_3a/1x1
I1126 12:33:32.795871 19982 net.cpp:157] Top shape: 64 64 28 28 (3211264)
I1126 12:33:32.795876 19982 net.cpp:165] Memory required for data: 1323041792
I1126 12:33:32.795882 19982 layer_factory.hpp:76] Creating layer inception_3a/relu_1x1
I1126 12:33:32.795888 19982 net.cpp:106] Creating Layer inception_3a/relu_1x1
I1126 12:33:32.795892 19982 net.cpp:454] inception_3a/relu_1x1 <- inception_3a/1x1
I1126 12:33:32.795897 19982 net.cpp:397] inception_3a/relu_1x1 -> inception_3a/1x1 (in-place)
I1126 12:33:32.796190 19982 net.cpp:150] Setting up inception_3a/relu_1x1
I1126 12:33:32.796205 19982 net.cpp:157] Top shape: 64 64 28 28 (3211264)
I1126 12:33:32.796207 19982 net.cpp:165] Memory required for data: 1335886848
I1126 12:33:32.796211 19982 layer_factory.hpp:76] Creating layer inception_3a/3x3_reduce
I1126 12:33:32.796219 19982 net.cpp:106] Creating Layer inception_3a/3x3_reduce
I1126 12:33:32.796223 19982 net.cpp:454] inception_3a/3x3_reduce <- pool2/3x3_s2_pool2/3x3_s2_0_split_1
I1126 12:33:32.796231 19982 net.cpp:411] inception_3a/3x3_reduce -> inception_3a/3x3_reduce
I1126 12:33:32.797669 19982 net.cpp:150] Setting up inception_3a/3x3_reduce
I1126 12:33:32.797684 19982 net.cpp:157] Top shape: 64 96 28 28 (4816896)
I1126 12:33:32.797688 19982 net.cpp:165] Memory required for data: 1355154432
I1126 12:33:32.797698 19982 layer_factory.hpp:76] Creating layer inception_3a/relu_3x3_reduce
I1126 12:33:32.797705 19982 net.cpp:106] Creating Layer inception_3a/relu_3x3_reduce
I1126 12:33:32.797710 19982 net.cpp:454] inception_3a/relu_3x3_reduce <- inception_3a/3x3_reduce
I1126 12:33:32.797716 19982 net.cpp:397] inception_3a/relu_3x3_reduce -> inception_3a/3x3_reduce (in-place)
I1126 12:33:32.797866 19982 net.cpp:150] Setting up inception_3a/relu_3x3_reduce
I1126 12:33:32.797878 19982 net.cpp:157] Top shape: 64 96 28 28 (4816896)
I1126 12:33:32.797880 19982 net.cpp:165] Memory required for data: 1374422016
I1126 12:33:32.797884 19982 layer_factory.hpp:76] Creating layer inception_3a/3x3
I1126 12:33:32.797891 19982 net.cpp:106] Creating Layer inception_3a/3x3
I1126 12:33:32.797895 19982 net.cpp:454] inception_3a/3x3 <- inception_3a/3x3_reduce
I1126 12:33:32.797900 19982 net.cpp:411] inception_3a/3x3 -> inception_3a/3x3
I1126 12:33:32.799609 19982 net.cpp:150] Setting up inception_3a/3x3
I1126 12:33:32.799624 19982 net.cpp:157] Top shape: 64 128 28 28 (6422528)
I1126 12:33:32.799628 19982 net.cpp:165] Memory required for data: 1400112128
I1126 12:33:32.799635 19982 layer_factory.hpp:76] Creating layer inception_3a/relu_3x3
I1126 12:33:32.799641 19982 net.cpp:106] Creating Layer inception_3a/relu_3x3
I1126 12:33:32.799645 19982 net.cpp:454] inception_3a/relu_3x3 <- inception_3a/3x3
I1126 12:33:32.799650 19982 net.cpp:397] inception_3a/relu_3x3 -> inception_3a/3x3 (in-place)
I1126 12:33:32.799799 19982 net.cpp:150] Setting up inception_3a/relu_3x3
I1126 12:33:32.799809 19982 net.cpp:157] Top shape: 64 128 28 28 (6422528)
I1126 12:33:32.799813 19982 net.cpp:165] Memory required for data: 1425802240
I1126 12:33:32.799816 19982 layer_factory.hpp:76] Creating layer inception_3a/5x5_reduce
I1126 12:33:32.799823 19982 net.cpp:106] Creating Layer inception_3a/5x5_reduce
I1126 12:33:32.799828 19982 net.cpp:454] inception_3a/5x5_reduce <- pool2/3x3_s2_pool2/3x3_s2_0_split_2
I1126 12:33:32.799834 19982 net.cpp:411] inception_3a/5x5_reduce -> inception_3a/5x5_reduce
I1126 12:33:32.800751 19982 net.cpp:150] Setting up inception_3a/5x5_reduce
I1126 12:33:32.800766 19982 net.cpp:157] Top shape: 64 16 28 28 (802816)
I1126 12:33:32.800770 19982 net.cpp:165] Memory required for data: 1429013504
I1126 12:33:32.800777 19982 layer_factory.hpp:76] Creating layer inception_3a/relu_5x5_reduce
I1126 12:33:32.800782 19982 net.cpp:106] Creating Layer inception_3a/relu_5x5_reduce
I1126 12:33:32.800786 19982 net.cpp:454] inception_3a/relu_5x5_reduce <- inception_3a/5x5_reduce
I1126 12:33:32.800791 19982 net.cpp:397] inception_3a/relu_5x5_reduce -> inception_3a/5x5_reduce (in-place)
I1126 12:33:32.801070 19982 net.cpp:150] Setting up inception_3a/relu_5x5_reduce
I1126 12:33:32.801084 19982 net.cpp:157] Top shape: 64 16 28 28 (802816)
I1126 12:33:32.801089 19982 net.cpp:165] Memory required for data: 1432224768
I1126 12:33:32.801091 19982 layer_factory.hpp:76] Creating layer inception_3a/5x5
I1126 12:33:32.801105 19982 net.cpp:106] Creating Layer inception_3a/5x5
I1126 12:33:32.801108 19982 net.cpp:454] inception_3a/5x5 <- inception_3a/5x5_reduce
I1126 12:33:32.801115 19982 net.cpp:411] inception_3a/5x5 -> inception_3a/5x5
I1126 12:33:32.802131 19982 net.cpp:150] Setting up inception_3a/5x5
I1126 12:33:32.802145 19982 net.cpp:157] Top shape: 64 32 28 28 (1605632)
I1126 12:33:32.802150 19982 net.cpp:165] Memory required for data: 1438647296
I1126 12:33:32.802155 19982 layer_factory.hpp:76] Creating layer inception_3a/relu_5x5
I1126 12:33:32.802162 19982 net.cpp:106] Creating Layer inception_3a/relu_5x5
I1126 12:33:32.802166 19982 net.cpp:454] inception_3a/relu_5x5 <- inception_3a/5x5
I1126 12:33:32.802171 19982 net.cpp:397] inception_3a/relu_5x5 -> inception_3a/5x5 (in-place)
I1126 12:33:32.802335 19982 net.cpp:150] Setting up inception_3a/relu_5x5
I1126 12:33:32.802346 19982 net.cpp:157] Top shape: 64 32 28 28 (1605632)
I1126 12:33:32.802350 19982 net.cpp:165] Memory required for data: 1445069824
I1126 12:33:32.802352 19982 layer_factory.hpp:76] Creating layer inception_3a/pool
I1126 12:33:32.802358 19982 net.cpp:106] Creating Layer inception_3a/pool
I1126 12:33:32.802361 19982 net.cpp:454] inception_3a/pool <- pool2/3x3_s2_pool2/3x3_s2_0_split_3
I1126 12:33:32.802369 19982 net.cpp:411] inception_3a/pool -> inception_3a/pool
I1126 12:33:32.802693 19982 net.cpp:150] Setting up inception_3a/pool
I1126 12:33:32.802707 19982 net.cpp:157] Top shape: 64 192 28 28 (9633792)
I1126 12:33:32.802711 19982 net.cpp:165] Memory required for data: 1483604992
I1126 12:33:32.802714 19982 layer_factory.hpp:76] Creating layer inception_3a/pool_proj
I1126 12:33:32.802723 19982 net.cpp:106] Creating Layer inception_3a/pool_proj
I1126 12:33:32.802727 19982 net.cpp:454] inception_3a/pool_proj <- inception_3a/pool
I1126 12:33:32.802736 19982 net.cpp:411] inception_3a/pool_proj -> inception_3a/pool_proj
I1126 12:33:32.803602 19982 net.cpp:150] Setting up inception_3a/pool_proj
I1126 12:33:32.803617 19982 net.cpp:157] Top shape: 64 32 28 28 (1605632)
I1126 12:33:32.803622 19982 net.cpp:165] Memory required for data: 1490027520
I1126 12:33:32.803632 19982 layer_factory.hpp:76] Creating layer inception_3a/relu_pool_proj
I1126 12:33:32.803638 19982 net.cpp:106] Creating Layer inception_3a/relu_pool_proj
I1126 12:33:32.803642 19982 net.cpp:454] inception_3a/relu_pool_proj <- inception_3a/pool_proj
I1126 12:33:32.803647 19982 net.cpp:397] inception_3a/relu_pool_proj -> inception_3a/pool_proj (in-place)
I1126 12:33:32.803953 19982 net.cpp:150] Setting up inception_3a/relu_pool_proj
I1126 12:33:32.803967 19982 net.cpp:157] Top shape: 64 32 28 28 (1605632)
I1126 12:33:32.803972 19982 net.cpp:165] Memory required for data: 1496450048
I1126 12:33:32.803974 19982 layer_factory.hpp:76] Creating layer inception_3a/output
I1126 12:33:32.803983 19982 net.cpp:106] Creating Layer inception_3a/output
I1126 12:33:32.803987 19982 net.cpp:454] inception_3a/output <- inception_3a/1x1
I1126 12:33:32.803992 19982 net.cpp:454] inception_3a/output <- inception_3a/3x3
I1126 12:33:32.803997 19982 net.cpp:454] inception_3a/output <- inception_3a/5x5
I1126 12:33:32.803999 19982 net.cpp:454] inception_3a/output <- inception_3a/pool_proj
I1126 12:33:32.804004 19982 net.cpp:411] inception_3a/output -> inception_3a/output
I1126 12:33:32.804039 19982 net.cpp:150] Setting up inception_3a/output
I1126 12:33:32.804045 19982 net.cpp:157] Top shape: 64 256 28 28 (12845056)
I1126 12:33:32.804047 19982 net.cpp:165] Memory required for data: 1547830272
I1126 12:33:32.804050 19982 layer_factory.hpp:76] Creating layer inception_3a/output_inception_3a/output_0_split
I1126 12:33:32.804057 19982 net.cpp:106] Creating Layer inception_3a/output_inception_3a/output_0_split
I1126 12:33:32.804060 19982 net.cpp:454] inception_3a/output_inception_3a/output_0_split <- inception_3a/output
I1126 12:33:32.804065 19982 net.cpp:411] inception_3a/output_inception_3a/output_0_split -> inception_3a/output_inception_3a/output_0_split_0
I1126 12:33:32.804071 19982 net.cpp:411] inception_3a/output_inception_3a/output_0_split -> inception_3a/output_inception_3a/output_0_split_1
I1126 12:33:32.804076 19982 net.cpp:411] inception_3a/output_inception_3a/output_0_split -> inception_3a/output_inception_3a/output_0_split_2
I1126 12:33:32.804081 19982 net.cpp:411] inception_3a/output_inception_3a/output_0_split -> inception_3a/output_inception_3a/output_0_split_3
I1126 12:33:32.804137 19982 net.cpp:150] Setting up inception_3a/output_inception_3a/output_0_split
I1126 12:33:32.804146 19982 net.cpp:157] Top shape: 64 256 28 28 (12845056)
I1126 12:33:32.804149 19982 net.cpp:157] Top shape: 64 256 28 28 (12845056)
I1126 12:33:32.804152 19982 net.cpp:157] Top shape: 64 256 28 28 (12845056)
I1126 12:33:32.804155 19982 net.cpp:157] Top shape: 64 256 28 28 (12845056)
I1126 12:33:32.804158 19982 net.cpp:165] Memory required for data: 1753351168
I1126 12:33:32.804162 19982 layer_factory.hpp:76] Creating layer inception_3b/1x1
I1126 12:33:32.804169 19982 net.cpp:106] Creating Layer inception_3b/1x1
I1126 12:33:32.804173 19982 net.cpp:454] inception_3b/1x1 <- inception_3a/output_inception_3a/output_0_split_0
I1126 12:33:32.804179 19982 net.cpp:411] inception_3b/1x1 -> inception_3b/1x1
I1126 12:33:32.805358 19982 net.cpp:150] Setting up inception_3b/1x1
I1126 12:33:32.805373 19982 net.cpp:157] Top shape: 64 128 28 28 (6422528)
I1126 12:33:32.805377 19982 net.cpp:165] Memory required for data: 1779041280
I1126 12:33:32.805383 19982 layer_factory.hpp:76] Creating layer inception_3b/relu_1x1
I1126 12:33:32.805392 19982 net.cpp:106] Creating Layer inception_3b/relu_1x1
I1126 12:33:32.805395 19982 net.cpp:454] inception_3b/relu_1x1 <- inception_3b/1x1
I1126 12:33:32.805402 19982 net.cpp:397] inception_3b/relu_1x1 -> inception_3b/1x1 (in-place)
I1126 12:33:32.805567 19982 net.cpp:150] Setting up inception_3b/relu_1x1
I1126 12:33:32.805578 19982 net.cpp:157] Top shape: 64 128 28 28 (6422528)
I1126 12:33:32.805582 19982 net.cpp:165] Memory required for data: 1804731392
I1126 12:33:32.805584 19982 layer_factory.hpp:76] Creating layer inception_3b/3x3_reduce
I1126 12:33:32.805594 19982 net.cpp:106] Creating Layer inception_3b/3x3_reduce
I1126 12:33:32.805598 19982 net.cpp:454] inception_3b/3x3_reduce <- inception_3a/output_inception_3a/output_0_split_1
I1126 12:33:32.805605 19982 net.cpp:411] inception_3b/3x3_reduce -> inception_3b/3x3_reduce
I1126 12:33:32.806756 19982 net.cpp:150] Setting up inception_3b/3x3_reduce
I1126 12:33:32.806771 19982 net.cpp:157] Top shape: 64 128 28 28 (6422528)
I1126 12:33:32.806773 19982 net.cpp:165] Memory required for data: 1830421504
I1126 12:33:32.806781 19982 layer_factory.hpp:76] Creating layer inception_3b/relu_3x3_reduce
I1126 12:33:32.806787 19982 net.cpp:106] Creating Layer inception_3b/relu_3x3_reduce
I1126 12:33:32.806790 19982 net.cpp:454] inception_3b/relu_3x3_reduce <- inception_3b/3x3_reduce
I1126 12:33:32.806797 19982 net.cpp:397] inception_3b/relu_3x3_reduce -> inception_3b/3x3_reduce (in-place)
I1126 12:33:32.807095 19982 net.cpp:150] Setting up inception_3b/relu_3x3_reduce
I1126 12:33:32.807108 19982 net.cpp:157] Top shape: 64 128 28 28 (6422528)
I1126 12:33:32.807111 19982 net.cpp:165] Memory required for data: 1856111616
I1126 12:33:32.807114 19982 layer_factory.hpp:76] Creating layer inception_3b/3x3
I1126 12:33:32.807126 19982 net.cpp:106] Creating Layer inception_3b/3x3
I1126 12:33:32.807131 19982 net.cpp:454] inception_3b/3x3 <- inception_3b/3x3_reduce
I1126 12:33:32.807137 19982 net.cpp:411] inception_3b/3x3 -> inception_3b/3x3
I1126 12:33:32.809870 19982 net.cpp:150] Setting up inception_3b/3x3
I1126 12:33:32.809885 19982 net.cpp:157] Top shape: 64 192 28 28 (9633792)
I1126 12:33:32.809890 19982 net.cpp:165] Memory required for data: 1894646784
I1126 12:33:32.809895 19982 layer_factory.hpp:76] Creating layer inception_3b/relu_3x3
I1126 12:33:32.809902 19982 net.cpp:106] Creating Layer inception_3b/relu_3x3
I1126 12:33:32.809907 19982 net.cpp:454] inception_3b/relu_3x3 <- inception_3b/3x3
I1126 12:33:32.809912 19982 net.cpp:397] inception_3b/relu_3x3 -> inception_3b/3x3 (in-place)
I1126 12:33:32.810358 19982 net.cpp:150] Setting up inception_3b/relu_3x3
I1126 12:33:32.810371 19982 net.cpp:157] Top shape: 64 192 28 28 (9633792)
I1126 12:33:32.810375 19982 net.cpp:165] Memory required for data: 1933181952
I1126 12:33:32.810379 19982 layer_factory.hpp:76] Creating layer inception_3b/5x5_reduce
I1126 12:33:32.810389 19982 net.cpp:106] Creating Layer inception_3b/5x5_reduce
I1126 12:33:32.810392 19982 net.cpp:454] inception_3b/5x5_reduce <- inception_3a/output_inception_3a/output_0_split_2
I1126 12:33:32.810400 19982 net.cpp:411] inception_3b/5x5_reduce -> inception_3b/5x5_reduce
I1126 12:33:32.811410 19982 net.cpp:150] Setting up inception_3b/5x5_reduce
I1126 12:33:32.811425 19982 net.cpp:157] Top shape: 64 32 28 28 (1605632)
I1126 12:33:32.811429 19982 net.cpp:165] Memory required for data: 1939604480
I1126 12:33:32.811435 19982 layer_factory.hpp:76] Creating layer inception_3b/relu_5x5_reduce
I1126 12:33:32.811442 19982 net.cpp:106] Creating Layer inception_3b/relu_5x5_reduce
I1126 12:33:32.811447 19982 net.cpp:454] inception_3b/relu_5x5_reduce <- inception_3b/5x5_reduce
I1126 12:33:32.811453 19982 net.cpp:397] inception_3b/relu_5x5_reduce -> inception_3b/5x5_reduce (in-place)
I1126 12:33:32.811620 19982 net.cpp:150] Setting up inception_3b/relu_5x5_reduce
I1126 12:33:32.811631 19982 net.cpp:157] Top shape: 64 32 28 28 (1605632)
I1126 12:33:32.811635 19982 net.cpp:165] Memory required for data: 1946027008
I1126 12:33:32.811637 19982 layer_factory.hpp:76] Creating layer inception_3b/5x5
I1126 12:33:32.811646 19982 net.cpp:106] Creating Layer inception_3b/5x5
I1126 12:33:32.811650 19982 net.cpp:454] inception_3b/5x5 <- inception_3b/5x5_reduce
I1126 12:33:32.811656 19982 net.cpp:411] inception_3b/5x5 -> inception_3b/5x5
I1126 12:33:32.813568 19982 net.cpp:150] Setting up inception_3b/5x5
I1126 12:33:32.813585 19982 net.cpp:157] Top shape: 64 96 28 28 (4816896)
I1126 12:33:32.813588 19982 net.cpp:165] Memory required for data: 1965294592
I1126 12:33:32.813594 19982 layer_factory.hpp:76] Creating layer inception_3b/relu_5x5
I1126 12:33:32.813601 19982 net.cpp:106] Creating Layer inception_3b/relu_5x5
I1126 12:33:32.813604 19982 net.cpp:454] inception_3b/relu_5x5 <- inception_3b/5x5
I1126 12:33:32.813609 19982 net.cpp:397] inception_3b/relu_5x5 -> inception_3b/5x5 (in-place)
I1126 12:33:32.813912 19982 net.cpp:150] Setting up inception_3b/relu_5x5
I1126 12:33:32.813926 19982 net.cpp:157] Top shape: 64 96 28 28 (4816896)
I1126 12:33:32.813930 19982 net.cpp:165] Memory required for data: 1984562176
I1126 12:33:32.813933 19982 layer_factory.hpp:76] Creating layer inception_3b/pool
I1126 12:33:32.813940 19982 net.cpp:106] Creating Layer inception_3b/pool
I1126 12:33:32.813943 19982 net.cpp:454] inception_3b/pool <- inception_3a/output_inception_3a/output_0_split_3
I1126 12:33:32.813951 19982 net.cpp:411] inception_3b/pool -> inception_3b/pool
I1126 12:33:32.814179 19982 net.cpp:150] Setting up inception_3b/pool
I1126 12:33:32.814193 19982 net.cpp:157] Top shape: 64 256 28 28 (12845056)
I1126 12:33:32.814195 19982 net.cpp:165] Memory required for data: 2035942400
I1126 12:33:32.814198 19982 layer_factory.hpp:76] Creating layer inception_3b/pool_proj
I1126 12:33:32.814208 19982 net.cpp:106] Creating Layer inception_3b/pool_proj
I1126 12:33:32.814213 19982 net.cpp:454] inception_3b/pool_proj <- inception_3b/pool
I1126 12:33:32.814218 19982 net.cpp:411] inception_3b/pool_proj -> inception_3b/pool_proj
I1126 12:33:32.815282 19982 net.cpp:150] Setting up inception_3b/pool_proj
I1126 12:33:32.815297 19982 net.cpp:157] Top shape: 64 64 28 28 (3211264)
I1126 12:33:32.815301 19982 net.cpp:165] Memory required for data: 2048787456
I1126 12:33:32.815307 19982 layer_factory.hpp:76] Creating layer inception_3b/relu_pool_proj
I1126 12:33:32.815315 19982 net.cpp:106] Creating Layer inception_3b/relu_pool_proj
I1126 12:33:32.815320 19982 net.cpp:454] inception_3b/relu_pool_proj <- inception_3b/pool_proj
I1126 12:33:32.815325 19982 net.cpp:397] inception_3b/relu_pool_proj -> inception_3b/pool_proj (in-place)
I1126 12:33:32.815491 19982 net.cpp:150] Setting up inception_3b/relu_pool_proj
I1126 12:33:32.815502 19982 net.cpp:157] Top shape: 64 64 28 28 (3211264)
I1126 12:33:32.815505 19982 net.cpp:165] Memory required for data: 2061632512
I1126 12:33:32.815508 19982 layer_factory.hpp:76] Creating layer inception_3b/output
I1126 12:33:32.815515 19982 net.cpp:106] Creating Layer inception_3b/output
I1126 12:33:32.815517 19982 net.cpp:454] inception_3b/output <- inception_3b/1x1
I1126 12:33:32.815524 19982 net.cpp:454] inception_3b/output <- inception_3b/3x3
I1126 12:33:32.815528 19982 net.cpp:454] inception_3b/output <- inception_3b/5x5
I1126 12:33:32.815531 19982 net.cpp:454] inception_3b/output <- inception_3b/pool_proj
I1126 12:33:32.815536 19982 net.cpp:411] inception_3b/output -> inception_3b/output
I1126 12:33:32.815564 19982 net.cpp:150] Setting up inception_3b/output
I1126 12:33:32.815570 19982 net.cpp:157] Top shape: 64 480 28 28 (24084480)
I1126 12:33:32.815573 19982 net.cpp:165] Memory required for data: 2157970432
I1126 12:33:32.815577 19982 layer_factory.hpp:76] Creating layer pool3/3x3_s2
I1126 12:33:32.815582 19982 net.cpp:106] Creating Layer pool3/3x3_s2
I1126 12:33:32.815585 19982 net.cpp:454] pool3/3x3_s2 <- inception_3b/output
I1126 12:33:32.815592 19982 net.cpp:411] pool3/3x3_s2 -> pool3/3x3_s2
I1126 12:33:32.815912 19982 net.cpp:150] Setting up pool3/3x3_s2
I1126 12:33:32.815925 19982 net.cpp:157] Top shape: 64 480 14 14 (6021120)
I1126 12:33:32.815928 19982 net.cpp:165] Memory required for data: 2182054912
I1126 12:33:32.815932 19982 layer_factory.hpp:76] Creating layer pool3/3x3_s2_pool3/3x3_s2_0_split
I1126 12:33:32.815938 19982 net.cpp:106] Creating Layer pool3/3x3_s2_pool3/3x3_s2_0_split
I1126 12:33:32.815951 19982 net.cpp:454] pool3/3x3_s2_pool3/3x3_s2_0_split <- pool3/3x3_s2
I1126 12:33:32.815959 19982 net.cpp:411] pool3/3x3_s2_pool3/3x3_s2_0_split -> pool3/3x3_s2_pool3/3x3_s2_0_split_0
I1126 12:33:32.815966 19982 net.cpp:411] pool3/3x3_s2_pool3/3x3_s2_0_split -> pool3/3x3_s2_pool3/3x3_s2_0_split_1
I1126 12:33:32.815973 19982 net.cpp:411] pool3/3x3_s2_pool3/3x3_s2_0_split -> pool3/3x3_s2_pool3/3x3_s2_0_split_2
I1126 12:33:32.815978 19982 net.cpp:411] pool3/3x3_s2_pool3/3x3_s2_0_split -> pool3/3x3_s2_pool3/3x3_s2_0_split_3
I1126 12:33:32.816036 19982 net.cpp:150] Setting up pool3/3x3_s2_pool3/3x3_s2_0_split
I1126 12:33:32.816042 19982 net.cpp:157] Top shape: 64 480 14 14 (6021120)
I1126 12:33:32.816046 19982 net.cpp:157] Top shape: 64 480 14 14 (6021120)
I1126 12:33:32.816050 19982 net.cpp:157] Top shape: 64 480 14 14 (6021120)
I1126 12:33:32.816053 19982 net.cpp:157] Top shape: 64 480 14 14 (6021120)
I1126 12:33:32.816056 19982 net.cpp:165] Memory required for data: 2278392832
I1126 12:33:32.816058 19982 layer_factory.hpp:76] Creating layer inception_4a/1x1
I1126 12:33:32.816068 19982 net.cpp:106] Creating Layer inception_4a/1x1
I1126 12:33:32.816071 19982 net.cpp:454] inception_4a/1x1 <- pool3/3x3_s2_pool3/3x3_s2_0_split_0
I1126 12:33:32.816077 19982 net.cpp:411] inception_4a/1x1 -> inception_4a/1x1
I1126 12:33:32.817775 19982 net.cpp:150] Setting up inception_4a/1x1
I1126 12:33:32.817790 19982 net.cpp:157] Top shape: 64 192 14 14 (2408448)
I1126 12:33:32.817793 19982 net.cpp:165] Memory required for data: 2288026624
I1126 12:33:32.817800 19982 layer_factory.hpp:76] Creating layer inception_4a/relu_1x1
I1126 12:33:32.817808 19982 net.cpp:106] Creating Layer inception_4a/relu_1x1
I1126 12:33:32.817811 19982 net.cpp:454] inception_4a/relu_1x1 <- inception_4a/1x1
I1126 12:33:32.817816 19982 net.cpp:397] inception_4a/relu_1x1 -> inception_4a/1x1 (in-place)
I1126 12:33:32.817991 19982 net.cpp:150] Setting up inception_4a/relu_1x1
I1126 12:33:32.818001 19982 net.cpp:157] Top shape: 64 192 14 14 (2408448)
I1126 12:33:32.818004 19982 net.cpp:165] Memory required for data: 2297660416
I1126 12:33:32.818008 19982 layer_factory.hpp:76] Creating layer inception_4a/3x3_reduce
I1126 12:33:32.818017 19982 net.cpp:106] Creating Layer inception_4a/3x3_reduce
I1126 12:33:32.818022 19982 net.cpp:454] inception_4a/3x3_reduce <- pool3/3x3_s2_pool3/3x3_s2_0_split_1
I1126 12:33:32.818028 19982 net.cpp:411] inception_4a/3x3_reduce -> inception_4a/3x3_reduce
I1126 12:33:32.819321 19982 net.cpp:150] Setting up inception_4a/3x3_reduce
I1126 12:33:32.819335 19982 net.cpp:157] Top shape: 64 96 14 14 (1204224)
I1126 12:33:32.819339 19982 net.cpp:165] Memory required for data: 2302477312
I1126 12:33:32.819352 19982 layer_factory.hpp:76] Creating layer inception_4a/relu_3x3_reduce
I1126 12:33:32.819360 19982 net.cpp:106] Creating Layer inception_4a/relu_3x3_reduce
I1126 12:33:32.819363 19982 net.cpp:454] inception_4a/relu_3x3_reduce <- inception_4a/3x3_reduce
I1126 12:33:32.819368 19982 net.cpp:397] inception_4a/relu_3x3_reduce -> inception_4a/3x3_reduce (in-place)
I1126 12:33:32.819666 19982 net.cpp:150] Setting up inception_4a/relu_3x3_reduce
I1126 12:33:32.819680 19982 net.cpp:157] Top shape: 64 96 14 14 (1204224)
I1126 12:33:32.819684 19982 net.cpp:165] Memory required for data: 2307294208
I1126 12:33:32.819687 19982 layer_factory.hpp:76] Creating layer inception_4a/3x3
I1126 12:33:32.819696 19982 net.cpp:106] Creating Layer inception_4a/3x3
I1126 12:33:32.819700 19982 net.cpp:454] inception_4a/3x3 <- inception_4a/3x3_reduce
I1126 12:33:32.819706 19982 net.cpp:411] inception_4a/3x3 -> inception_4a/3x3
I1126 12:33:32.822140 19982 net.cpp:150] Setting up inception_4a/3x3
I1126 12:33:32.822155 19982 net.cpp:157] Top shape: 64 208 14 14 (2609152)
I1126 12:33:32.822160 19982 net.cpp:165] Memory required for data: 2317730816
I1126 12:33:32.822166 19982 layer_factory.hpp:76] Creating layer inception_4a/relu_3x3
I1126 12:33:32.822175 19982 net.cpp:106] Creating Layer inception_4a/relu_3x3
I1126 12:33:32.822178 19982 net.cpp:454] inception_4a/relu_3x3 <- inception_4a/3x3
I1126 12:33:32.822183 19982 net.cpp:397] inception_4a/relu_3x3 -> inception_4a/3x3 (in-place)
I1126 12:33:32.822480 19982 net.cpp:150] Setting up inception_4a/relu_3x3
I1126 12:33:32.822494 19982 net.cpp:157] Top shape: 64 208 14 14 (2609152)
I1126 12:33:32.822497 19982 net.cpp:165] Memory required for data: 2328167424
I1126 12:33:32.822501 19982 layer_factory.hpp:76] Creating layer inception_4a/5x5_reduce
I1126 12:33:32.822510 19982 net.cpp:106] Creating Layer inception_4a/5x5_reduce
I1126 12:33:32.822515 19982 net.cpp:454] inception_4a/5x5_reduce <- pool3/3x3_s2_pool3/3x3_s2_0_split_2
I1126 12:33:32.822521 19982 net.cpp:411] inception_4a/5x5_reduce -> inception_4a/5x5_reduce
I1126 12:33:32.823593 19982 net.cpp:150] Setting up inception_4a/5x5_reduce
I1126 12:33:32.823608 19982 net.cpp:157] Top shape: 64 16 14 14 (200704)
I1126 12:33:32.823612 19982 net.cpp:165] Memory required for data: 2328970240
I1126 12:33:32.823618 19982 layer_factory.hpp:76] Creating layer inception_4a/relu_5x5_reduce
I1126 12:33:32.823626 19982 net.cpp:106] Creating Layer inception_4a/relu_5x5_reduce
I1126 12:33:32.823632 19982 net.cpp:454] inception_4a/relu_5x5_reduce <- inception_4a/5x5_reduce
I1126 12:33:32.823637 19982 net.cpp:397] inception_4a/relu_5x5_reduce -> inception_4a/5x5_reduce (in-place)
I1126 12:33:32.823930 19982 net.cpp:150] Setting up inception_4a/relu_5x5_reduce
I1126 12:33:32.823947 19982 net.cpp:157] Top shape: 64 16 14 14 (200704)
I1126 12:33:32.823952 19982 net.cpp:165] Memory required for data: 2329773056
I1126 12:33:32.823956 19982 layer_factory.hpp:76] Creating layer inception_4a/5x5
I1126 12:33:32.823967 19982 net.cpp:106] Creating Layer inception_4a/5x5
I1126 12:33:32.823972 19982 net.cpp:454] inception_4a/5x5 <- inception_4a/5x5_reduce
I1126 12:33:32.823978 19982 net.cpp:411] inception_4a/5x5 -> inception_4a/5x5
I1126 12:33:32.825095 19982 net.cpp:150] Setting up inception_4a/5x5
I1126 12:33:32.825110 19982 net.cpp:157] Top shape: 64 48 14 14 (602112)
I1126 12:33:32.825114 19982 net.cpp:165] Memory required for data: 2332181504
I1126 12:33:32.825120 19982 layer_factory.hpp:76] Creating layer inception_4a/relu_5x5
I1126 12:33:32.825129 19982 net.cpp:106] Creating Layer inception_4a/relu_5x5
I1126 12:33:32.825132 19982 net.cpp:454] inception_4a/relu_5x5 <- inception_4a/5x5
I1126 12:33:32.825137 19982 net.cpp:397] inception_4a/relu_5x5 -> inception_4a/5x5 (in-place)
I1126 12:33:32.825464 19982 net.cpp:150] Setting up inception_4a/relu_5x5
I1126 12:33:32.825479 19982 net.cpp:157] Top shape: 64 48 14 14 (602112)
I1126 12:33:32.825482 19982 net.cpp:165] Memory required for data: 2334589952
I1126 12:33:32.825486 19982 layer_factory.hpp:76] Creating layer inception_4a/pool
I1126 12:33:32.825494 19982 net.cpp:106] Creating Layer inception_4a/pool
I1126 12:33:32.825497 19982 net.cpp:454] inception_4a/pool <- pool3/3x3_s2_pool3/3x3_s2_0_split_3
I1126 12:33:32.825502 19982 net.cpp:411] inception_4a/pool -> inception_4a/pool
I1126 12:33:32.825700 19982 net.cpp:150] Setting up inception_4a/pool
I1126 12:33:32.825711 19982 net.cpp:157] Top shape: 64 480 14 14 (6021120)
I1126 12:33:32.825714 19982 net.cpp:165] Memory required for data: 2358674432
I1126 12:33:32.825717 19982 layer_factory.hpp:76] Creating layer inception_4a/pool_proj
I1126 12:33:32.825726 19982 net.cpp:106] Creating Layer inception_4a/pool_proj
I1126 12:33:32.825731 19982 net.cpp:454] inception_4a/pool_proj <- inception_4a/pool
I1126 12:33:32.825737 19982 net.cpp:411] inception_4a/pool_proj -> inception_4a/pool_proj
I1126 12:33:32.826927 19982 net.cpp:150] Setting up inception_4a/pool_proj
I1126 12:33:32.826942 19982 net.cpp:157] Top shape: 64 64 14 14 (802816)
I1126 12:33:32.826946 19982 net.cpp:165] Memory required for data: 2361885696
I1126 12:33:32.826952 19982 layer_factory.hpp:76] Creating layer inception_4a/relu_pool_proj
I1126 12:33:32.826958 19982 net.cpp:106] Creating Layer inception_4a/relu_pool_proj
I1126 12:33:32.826962 19982 net.cpp:454] inception_4a/relu_pool_proj <- inception_4a/pool_proj
I1126 12:33:32.826968 19982 net.cpp:397] inception_4a/relu_pool_proj -> inception_4a/pool_proj (in-place)
I1126 12:33:32.827270 19982 net.cpp:150] Setting up inception_4a/relu_pool_proj
I1126 12:33:32.827283 19982 net.cpp:157] Top shape: 64 64 14 14 (802816)
I1126 12:33:32.827286 19982 net.cpp:165] Memory required for data: 2365096960
I1126 12:33:32.827289 19982 layer_factory.hpp:76] Creating layer inception_4a/output
I1126 12:33:32.827296 19982 net.cpp:106] Creating Layer inception_4a/output
I1126 12:33:32.827299 19982 net.cpp:454] inception_4a/output <- inception_4a/1x1
I1126 12:33:32.827306 19982 net.cpp:454] inception_4a/output <- inception_4a/3x3
I1126 12:33:32.827311 19982 net.cpp:454] inception_4a/output <- inception_4a/5x5
I1126 12:33:32.827313 19982 net.cpp:454] inception_4a/output <- inception_4a/pool_proj
I1126 12:33:32.827318 19982 net.cpp:411] inception_4a/output -> inception_4a/output
I1126 12:33:32.827352 19982 net.cpp:150] Setting up inception_4a/output
I1126 12:33:32.827358 19982 net.cpp:157] Top shape: 64 512 14 14 (6422528)
I1126 12:33:32.827359 19982 net.cpp:165] Memory required for data: 2390787072
I1126 12:33:32.827363 19982 layer_factory.hpp:76] Creating layer inception_4a/output_inception_4a/output_0_split
I1126 12:33:32.827368 19982 net.cpp:106] Creating Layer inception_4a/output_inception_4a/output_0_split
I1126 12:33:32.827371 19982 net.cpp:454] inception_4a/output_inception_4a/output_0_split <- inception_4a/output
I1126 12:33:32.827378 19982 net.cpp:411] inception_4a/output_inception_4a/output_0_split -> inception_4a/output_inception_4a/output_0_split_0
I1126 12:33:32.827384 19982 net.cpp:411] inception_4a/output_inception_4a/output_0_split -> inception_4a/output_inception_4a/output_0_split_1
I1126 12:33:32.827390 19982 net.cpp:411] inception_4a/output_inception_4a/output_0_split -> inception_4a/output_inception_4a/output_0_split_2
I1126 12:33:32.827395 19982 net.cpp:411] inception_4a/output_inception_4a/output_0_split -> inception_4a/output_inception_4a/output_0_split_3
I1126 12:33:32.827400 19982 net.cpp:411] inception_4a/output_inception_4a/output_0_split -> inception_4a/output_inception_4a/output_0_split_4
I1126 12:33:32.827478 19982 net.cpp:150] Setting up inception_4a/output_inception_4a/output_0_split
I1126 12:33:32.827488 19982 net.cpp:157] Top shape: 64 512 14 14 (6422528)
I1126 12:33:32.827492 19982 net.cpp:157] Top shape: 64 512 14 14 (6422528)
I1126 12:33:32.827496 19982 net.cpp:157] Top shape: 64 512 14 14 (6422528)
I1126 12:33:32.827499 19982 net.cpp:157] Top shape: 64 512 14 14 (6422528)
I1126 12:33:32.827502 19982 net.cpp:157] Top shape: 64 512 14 14 (6422528)
I1126 12:33:32.827505 19982 net.cpp:165] Memory required for data: 2519237632
I1126 12:33:32.827508 19982 layer_factory.hpp:76] Creating layer loss1/ave_pool
I1126 12:33:32.827514 19982 net.cpp:106] Creating Layer loss1/ave_pool
I1126 12:33:32.827517 19982 net.cpp:454] loss1/ave_pool <- inception_4a/output_inception_4a/output_0_split_0
I1126 12:33:32.827522 19982 net.cpp:411] loss1/ave_pool -> loss1/ave_pool
I1126 12:33:32.827708 19982 net.cpp:150] Setting up loss1/ave_pool
I1126 12:33:32.827719 19982 net.cpp:157] Top shape: 64 512 4 4 (524288)
I1126 12:33:32.827723 19982 net.cpp:165] Memory required for data: 2521334784
I1126 12:33:32.827726 19982 layer_factory.hpp:76] Creating layer loss1/conv
I1126 12:33:32.827735 19982 net.cpp:106] Creating Layer loss1/conv
I1126 12:33:32.827739 19982 net.cpp:454] loss1/conv <- loss1/ave_pool
I1126 12:33:32.827745 19982 net.cpp:411] loss1/conv -> loss1/conv
I1126 12:33:32.829165 19982 net.cpp:150] Setting up loss1/conv
I1126 12:33:32.829181 19982 net.cpp:157] Top shape: 64 128 4 4 (131072)
I1126 12:33:32.829185 19982 net.cpp:165] Memory required for data: 2521859072
I1126 12:33:32.829192 19982 layer_factory.hpp:76] Creating layer loss1/relu_conv
I1126 12:33:32.829200 19982 net.cpp:106] Creating Layer loss1/relu_conv
I1126 12:33:32.829205 19982 net.cpp:454] loss1/relu_conv <- loss1/conv
I1126 12:33:32.829210 19982 net.cpp:397] loss1/relu_conv -> loss1/conv (in-place)
I1126 12:33:32.829375 19982 net.cpp:150] Setting up loss1/relu_conv
I1126 12:33:32.829385 19982 net.cpp:157] Top shape: 64 128 4 4 (131072)
I1126 12:33:32.829388 19982 net.cpp:165] Memory required for data: 2522383360
I1126 12:33:32.829391 19982 layer_factory.hpp:76] Creating layer loss1/fc
I1126 12:33:32.829416 19982 net.cpp:106] Creating Layer loss1/fc
I1126 12:33:32.829423 19982 net.cpp:454] loss1/fc <- loss1/conv
I1126 12:33:32.829429 19982 net.cpp:411] loss1/fc -> loss1/fc
I1126 12:33:32.844995 19982 net.cpp:150] Setting up loss1/fc
I1126 12:33:32.845010 19982 net.cpp:157] Top shape: 64 1024 (65536)
I1126 12:33:32.845015 19982 net.cpp:165] Memory required for data: 2522645504
I1126 12:33:32.845021 19982 layer_factory.hpp:76] Creating layer loss1/relu_fc
I1126 12:33:32.845026 19982 net.cpp:106] Creating Layer loss1/relu_fc
I1126 12:33:32.845031 19982 net.cpp:454] loss1/relu_fc <- loss1/fc
I1126 12:33:32.845036 19982 net.cpp:397] loss1/relu_fc -> loss1/fc (in-place)
I1126 12:33:32.845363 19982 net.cpp:150] Setting up loss1/relu_fc
I1126 12:33:32.845377 19982 net.cpp:157] Top shape: 64 1024 (65536)
I1126 12:33:32.845381 19982 net.cpp:165] Memory required for data: 2522907648
I1126 12:33:32.845384 19982 layer_factory.hpp:76] Creating layer loss1/drop_fc
I1126 12:33:32.845401 19982 net.cpp:106] Creating Layer loss1/drop_fc
I1126 12:33:32.845404 19982 net.cpp:454] loss1/drop_fc <- loss1/fc
I1126 12:33:32.845409 19982 net.cpp:397] loss1/drop_fc -> loss1/fc (in-place)
I1126 12:33:32.845450 19982 net.cpp:150] Setting up loss1/drop_fc
I1126 12:33:32.845456 19982 net.cpp:157] Top shape: 64 1024 (65536)
I1126 12:33:32.845459 19982 net.cpp:165] Memory required for data: 2523169792
I1126 12:33:32.845463 19982 layer_factory.hpp:76] Creating layer loss1/classifier-attribute
I1126 12:33:32.845470 19982 net.cpp:106] Creating Layer loss1/classifier-attribute
I1126 12:33:32.845474 19982 net.cpp:454] loss1/classifier-attribute <- loss1/fc
I1126 12:33:32.845479 19982 net.cpp:411] loss1/classifier-attribute -> loss1/classifier-attribute
I1126 12:33:32.922521 19982 net.cpp:150] Setting up loss1/classifier-attribute
I1126 12:33:32.922545 19982 net.cpp:157] Top shape: 64 9999 (639936)
I1126 12:33:32.922549 19982 net.cpp:165] Memory required for data: 2525729536
I1126 12:33:32.922559 19982 layer_factory.hpp:76] Creating layer loss1/loss
I1126 12:33:32.922574 19982 net.cpp:106] Creating Layer loss1/loss
I1126 12:33:32.922580 19982 net.cpp:454] loss1/loss <- loss1/classifier-attribute
I1126 12:33:32.922586 19982 net.cpp:454] loss1/loss <- label_data_1_split_0
I1126 12:33:32.922592 19982 net.cpp:411] loss1/loss -> loss1/loss1
I1126 12:33:32.922607 19982 layer_factory.hpp:76] Creating layer loss1/loss
I1126 12:33:32.924182 19982 net.cpp:150] Setting up loss1/loss
I1126 12:33:32.924197 19982 net.cpp:157] Top shape: (1)
I1126 12:33:32.924201 19982 net.cpp:160]     with loss weight 0.3
I1126 12:33:32.924223 19982 net.cpp:165] Memory required for data: 2525729540
I1126 12:33:32.924227 19982 layer_factory.hpp:76] Creating layer inception_4b/1x1
I1126 12:33:32.924238 19982 net.cpp:106] Creating Layer inception_4b/1x1
I1126 12:33:32.924242 19982 net.cpp:454] inception_4b/1x1 <- inception_4a/output_inception_4a/output_0_split_1
I1126 12:33:32.924250 19982 net.cpp:411] inception_4b/1x1 -> inception_4b/1x1
I1126 12:33:32.925843 19982 net.cpp:150] Setting up inception_4b/1x1
I1126 12:33:32.925858 19982 net.cpp:157] Top shape: 64 160 14 14 (2007040)
I1126 12:33:32.925861 19982 net.cpp:165] Memory required for data: 2533757700
I1126 12:33:32.925868 19982 layer_factory.hpp:76] Creating layer inception_4b/relu_1x1
I1126 12:33:32.925876 19982 net.cpp:106] Creating Layer inception_4b/relu_1x1
I1126 12:33:32.925880 19982 net.cpp:454] inception_4b/relu_1x1 <- inception_4b/1x1
I1126 12:33:32.925886 19982 net.cpp:397] inception_4b/relu_1x1 -> inception_4b/1x1 (in-place)
I1126 12:33:32.926193 19982 net.cpp:150] Setting up inception_4b/relu_1x1
I1126 12:33:32.926208 19982 net.cpp:157] Top shape: 64 160 14 14 (2007040)
I1126 12:33:32.926210 19982 net.cpp:165] Memory required for data: 2541785860
I1126 12:33:32.926213 19982 layer_factory.hpp:76] Creating layer inception_4b/3x3_reduce
I1126 12:33:32.926224 19982 net.cpp:106] Creating Layer inception_4b/3x3_reduce
I1126 12:33:32.926229 19982 net.cpp:454] inception_4b/3x3_reduce <- inception_4a/output_inception_4a/output_0_split_2
I1126 12:33:32.926235 19982 net.cpp:411] inception_4b/3x3_reduce -> inception_4b/3x3_reduce
I1126 12:33:32.928063 19982 net.cpp:150] Setting up inception_4b/3x3_reduce
I1126 12:33:32.928078 19982 net.cpp:157] Top shape: 64 112 14 14 (1404928)
I1126 12:33:32.928082 19982 net.cpp:165] Memory required for data: 2547405572
I1126 12:33:32.928088 19982 layer_factory.hpp:76] Creating layer inception_4b/relu_3x3_reduce
I1126 12:33:32.928097 19982 net.cpp:106] Creating Layer inception_4b/relu_3x3_reduce
I1126 12:33:32.928100 19982 net.cpp:454] inception_4b/relu_3x3_reduce <- inception_4b/3x3_reduce
I1126 12:33:32.928108 19982 net.cpp:397] inception_4b/relu_3x3_reduce -> inception_4b/3x3_reduce (in-place)
I1126 12:33:32.928279 19982 net.cpp:150] Setting up inception_4b/relu_3x3_reduce
I1126 12:33:32.928292 19982 net.cpp:157] Top shape: 64 112 14 14 (1404928)
I1126 12:33:32.928294 19982 net.cpp:165] Memory required for data: 2553025284
I1126 12:33:32.928297 19982 layer_factory.hpp:76] Creating layer inception_4b/3x3
I1126 12:33:32.928306 19982 net.cpp:106] Creating Layer inception_4b/3x3
I1126 12:33:32.928310 19982 net.cpp:454] inception_4b/3x3 <- inception_4b/3x3_reduce
I1126 12:33:32.928319 19982 net.cpp:411] inception_4b/3x3 -> inception_4b/3x3
I1126 12:33:32.931187 19982 net.cpp:150] Setting up inception_4b/3x3
I1126 12:33:32.931203 19982 net.cpp:157] Top shape: 64 224 14 14 (2809856)
I1126 12:33:32.931206 19982 net.cpp:165] Memory required for data: 2564264708
I1126 12:33:32.931213 19982 layer_factory.hpp:76] Creating layer inception_4b/relu_3x3
I1126 12:33:32.931219 19982 net.cpp:106] Creating Layer inception_4b/relu_3x3
I1126 12:33:32.931222 19982 net.cpp:454] inception_4b/relu_3x3 <- inception_4b/3x3
I1126 12:33:32.931227 19982 net.cpp:397] inception_4b/relu_3x3 -> inception_4b/3x3 (in-place)
I1126 12:33:32.931398 19982 net.cpp:150] Setting up inception_4b/relu_3x3
I1126 12:33:32.931409 19982 net.cpp:157] Top shape: 64 224 14 14 (2809856)
I1126 12:33:32.931413 19982 net.cpp:165] Memory required for data: 2575504132
I1126 12:33:32.931416 19982 layer_factory.hpp:76] Creating layer inception_4b/5x5_reduce
I1126 12:33:32.931424 19982 net.cpp:106] Creating Layer inception_4b/5x5_reduce
I1126 12:33:32.931428 19982 net.cpp:454] inception_4b/5x5_reduce <- inception_4a/output_inception_4a/output_0_split_3
I1126 12:33:32.931437 19982 net.cpp:411] inception_4b/5x5_reduce -> inception_4b/5x5_reduce
I1126 12:33:32.932551 19982 net.cpp:150] Setting up inception_4b/5x5_reduce
I1126 12:33:32.932566 19982 net.cpp:157] Top shape: 64 24 14 14 (301056)
I1126 12:33:32.932570 19982 net.cpp:165] Memory required for data: 2576708356
I1126 12:33:32.932576 19982 layer_factory.hpp:76] Creating layer inception_4b/relu_5x5_reduce
I1126 12:33:32.932584 19982 net.cpp:106] Creating Layer inception_4b/relu_5x5_reduce
I1126 12:33:32.932588 19982 net.cpp:454] inception_4b/relu_5x5_reduce <- inception_4b/5x5_reduce
I1126 12:33:32.932593 19982 net.cpp:397] inception_4b/relu_5x5_reduce -> inception_4b/5x5_reduce (in-place)
I1126 12:33:32.933023 19982 net.cpp:150] Setting up inception_4b/relu_5x5_reduce
I1126 12:33:32.933037 19982 net.cpp:157] Top shape: 64 24 14 14 (301056)
I1126 12:33:32.933040 19982 net.cpp:165] Memory required for data: 2577912580
I1126 12:33:32.933044 19982 layer_factory.hpp:76] Creating layer inception_4b/5x5
I1126 12:33:32.933053 19982 net.cpp:106] Creating Layer inception_4b/5x5
I1126 12:33:32.933058 19982 net.cpp:454] inception_4b/5x5 <- inception_4b/5x5_reduce
I1126 12:33:32.933068 19982 net.cpp:411] inception_4b/5x5 -> inception_4b/5x5
I1126 12:33:32.934399 19982 net.cpp:150] Setting up inception_4b/5x5
I1126 12:33:32.934413 19982 net.cpp:157] Top shape: 64 64 14 14 (802816)
I1126 12:33:32.934417 19982 net.cpp:165] Memory required for data: 2581123844
I1126 12:33:32.934423 19982 layer_factory.hpp:76] Creating layer inception_4b/relu_5x5
I1126 12:33:32.934432 19982 net.cpp:106] Creating Layer inception_4b/relu_5x5
I1126 12:33:32.934435 19982 net.cpp:454] inception_4b/relu_5x5 <- inception_4b/5x5
I1126 12:33:32.934440 19982 net.cpp:397] inception_4b/relu_5x5 -> inception_4b/5x5 (in-place)
I1126 12:33:32.934608 19982 net.cpp:150] Setting up inception_4b/relu_5x5
I1126 12:33:32.934619 19982 net.cpp:157] Top shape: 64 64 14 14 (802816)
I1126 12:33:32.934623 19982 net.cpp:165] Memory required for data: 2584335108
I1126 12:33:32.934626 19982 layer_factory.hpp:76] Creating layer inception_4b/pool
I1126 12:33:32.934635 19982 net.cpp:106] Creating Layer inception_4b/pool
I1126 12:33:32.934639 19982 net.cpp:454] inception_4b/pool <- inception_4a/output_inception_4a/output_0_split_4
I1126 12:33:32.934661 19982 net.cpp:411] inception_4b/pool -> inception_4b/pool
I1126 12:33:32.935019 19982 net.cpp:150] Setting up inception_4b/pool
I1126 12:33:32.935034 19982 net.cpp:157] Top shape: 64 512 14 14 (6422528)
I1126 12:33:32.935036 19982 net.cpp:165] Memory required for data: 2610025220
I1126 12:33:32.935040 19982 layer_factory.hpp:76] Creating layer inception_4b/pool_proj
I1126 12:33:32.935050 19982 net.cpp:106] Creating Layer inception_4b/pool_proj
I1126 12:33:32.935055 19982 net.cpp:454] inception_4b/pool_proj <- inception_4b/pool
I1126 12:33:32.935062 19982 net.cpp:411] inception_4b/pool_proj -> inception_4b/pool_proj
I1126 12:33:32.936179 19982 net.cpp:150] Setting up inception_4b/pool_proj
I1126 12:33:32.936193 19982 net.cpp:157] Top shape: 64 64 14 14 (802816)
I1126 12:33:32.936197 19982 net.cpp:165] Memory required for data: 2613236484
I1126 12:33:32.936203 19982 layer_factory.hpp:76] Creating layer inception_4b/relu_pool_proj
I1126 12:33:32.936210 19982 net.cpp:106] Creating Layer inception_4b/relu_pool_proj
I1126 12:33:32.936215 19982 net.cpp:454] inception_4b/relu_pool_proj <- inception_4b/pool_proj
I1126 12:33:32.936220 19982 net.cpp:397] inception_4b/relu_pool_proj -> inception_4b/pool_proj (in-place)
I1126 12:33:32.936527 19982 net.cpp:150] Setting up inception_4b/relu_pool_proj
I1126 12:33:32.936542 19982 net.cpp:157] Top shape: 64 64 14 14 (802816)
I1126 12:33:32.936545 19982 net.cpp:165] Memory required for data: 2616447748
I1126 12:33:32.936548 19982 layer_factory.hpp:76] Creating layer inception_4b/output
I1126 12:33:32.936558 19982 net.cpp:106] Creating Layer inception_4b/output
I1126 12:33:32.936561 19982 net.cpp:454] inception_4b/output <- inception_4b/1x1
I1126 12:33:32.936565 19982 net.cpp:454] inception_4b/output <- inception_4b/3x3
I1126 12:33:32.936569 19982 net.cpp:454] inception_4b/output <- inception_4b/5x5
I1126 12:33:32.936575 19982 net.cpp:454] inception_4b/output <- inception_4b/pool_proj
I1126 12:33:32.936579 19982 net.cpp:411] inception_4b/output -> inception_4b/output
I1126 12:33:32.936615 19982 net.cpp:150] Setting up inception_4b/output
I1126 12:33:32.936622 19982 net.cpp:157] Top shape: 64 512 14 14 (6422528)
I1126 12:33:32.936625 19982 net.cpp:165] Memory required for data: 2642137860
I1126 12:33:32.936627 19982 layer_factory.hpp:76] Creating layer inception_4b/output_inception_4b/output_0_split
I1126 12:33:32.936633 19982 net.cpp:106] Creating Layer inception_4b/output_inception_4b/output_0_split
I1126 12:33:32.936636 19982 net.cpp:454] inception_4b/output_inception_4b/output_0_split <- inception_4b/output
I1126 12:33:32.936642 19982 net.cpp:411] inception_4b/output_inception_4b/output_0_split -> inception_4b/output_inception_4b/output_0_split_0
I1126 12:33:32.936650 19982 net.cpp:411] inception_4b/output_inception_4b/output_0_split -> inception_4b/output_inception_4b/output_0_split_1
I1126 12:33:32.936655 19982 net.cpp:411] inception_4b/output_inception_4b/output_0_split -> inception_4b/output_inception_4b/output_0_split_2
I1126 12:33:32.936661 19982 net.cpp:411] inception_4b/output_inception_4b/output_0_split -> inception_4b/output_inception_4b/output_0_split_3
I1126 12:33:32.936722 19982 net.cpp:150] Setting up inception_4b/output_inception_4b/output_0_split
I1126 12:33:32.936729 19982 net.cpp:157] Top shape: 64 512 14 14 (6422528)
I1126 12:33:32.936733 19982 net.cpp:157] Top shape: 64 512 14 14 (6422528)
I1126 12:33:32.936736 19982 net.cpp:157] Top shape: 64 512 14 14 (6422528)
I1126 12:33:32.936740 19982 net.cpp:157] Top shape: 64 512 14 14 (6422528)
I1126 12:33:32.936743 19982 net.cpp:165] Memory required for data: 2744898308
I1126 12:33:32.936745 19982 layer_factory.hpp:76] Creating layer inception_4c/1x1
I1126 12:33:32.936753 19982 net.cpp:106] Creating Layer inception_4c/1x1
I1126 12:33:32.936756 19982 net.cpp:454] inception_4c/1x1 <- inception_4b/output_inception_4b/output_0_split_0
I1126 12:33:32.936763 19982 net.cpp:411] inception_4c/1x1 -> inception_4c/1x1
I1126 12:33:32.938199 19982 net.cpp:150] Setting up inception_4c/1x1
I1126 12:33:32.938213 19982 net.cpp:157] Top shape: 64 128 14 14 (1605632)
I1126 12:33:32.938217 19982 net.cpp:165] Memory required for data: 2751320836
I1126 12:33:32.938223 19982 layer_factory.hpp:76] Creating layer inception_4c/relu_1x1
I1126 12:33:32.938237 19982 net.cpp:106] Creating Layer inception_4c/relu_1x1
I1126 12:33:32.938241 19982 net.cpp:454] inception_4c/relu_1x1 <- inception_4c/1x1
I1126 12:33:32.938246 19982 net.cpp:397] inception_4c/relu_1x1 -> inception_4c/1x1 (in-place)
I1126 12:33:32.938418 19982 net.cpp:150] Setting up inception_4c/relu_1x1
I1126 12:33:32.938429 19982 net.cpp:157] Top shape: 64 128 14 14 (1605632)
I1126 12:33:32.938433 19982 net.cpp:165] Memory required for data: 2757743364
I1126 12:33:32.938436 19982 layer_factory.hpp:76] Creating layer inception_4c/3x3_reduce
I1126 12:33:32.938444 19982 net.cpp:106] Creating Layer inception_4c/3x3_reduce
I1126 12:33:32.938448 19982 net.cpp:454] inception_4c/3x3_reduce <- inception_4b/output_inception_4b/output_0_split_1
I1126 12:33:32.938454 19982 net.cpp:411] inception_4c/3x3_reduce -> inception_4c/3x3_reduce
I1126 12:33:32.939987 19982 net.cpp:150] Setting up inception_4c/3x3_reduce
I1126 12:33:32.940002 19982 net.cpp:157] Top shape: 64 128 14 14 (1605632)
I1126 12:33:32.940006 19982 net.cpp:165] Memory required for data: 2764165892
I1126 12:33:32.940012 19982 layer_factory.hpp:76] Creating layer inception_4c/relu_3x3_reduce
I1126 12:33:32.940018 19982 net.cpp:106] Creating Layer inception_4c/relu_3x3_reduce
I1126 12:33:32.940022 19982 net.cpp:454] inception_4c/relu_3x3_reduce <- inception_4c/3x3_reduce
I1126 12:33:32.940029 19982 net.cpp:397] inception_4c/relu_3x3_reduce -> inception_4c/3x3_reduce (in-place)
I1126 12:33:32.940340 19982 net.cpp:150] Setting up inception_4c/relu_3x3_reduce
I1126 12:33:32.940353 19982 net.cpp:157] Top shape: 64 128 14 14 (1605632)
I1126 12:33:32.940357 19982 net.cpp:165] Memory required for data: 2770588420
I1126 12:33:32.940361 19982 layer_factory.hpp:76] Creating layer inception_4c/3x3
I1126 12:33:32.940369 19982 net.cpp:106] Creating Layer inception_4c/3x3
I1126 12:33:32.940374 19982 net.cpp:454] inception_4c/3x3 <- inception_4c/3x3_reduce
I1126 12:33:32.940382 19982 net.cpp:411] inception_4c/3x3 -> inception_4c/3x3
I1126 12:33:32.943635 19982 net.cpp:150] Setting up inception_4c/3x3
I1126 12:33:32.943651 19982 net.cpp:157] Top shape: 64 256 14 14 (3211264)
I1126 12:33:32.943655 19982 net.cpp:165] Memory required for data: 2783433476
I1126 12:33:32.943673 19982 layer_factory.hpp:76] Creating layer inception_4c/relu_3x3
I1126 12:33:32.943681 19982 net.cpp:106] Creating Layer inception_4c/relu_3x3
I1126 12:33:32.943686 19982 net.cpp:454] inception_4c/relu_3x3 <- inception_4c/3x3
I1126 12:33:32.943691 19982 net.cpp:397] inception_4c/relu_3x3 -> inception_4c/3x3 (in-place)
I1126 12:33:32.944005 19982 net.cpp:150] Setting up inception_4c/relu_3x3
I1126 12:33:32.944020 19982 net.cpp:157] Top shape: 64 256 14 14 (3211264)
I1126 12:33:32.944023 19982 net.cpp:165] Memory required for data: 2796278532
I1126 12:33:32.944026 19982 layer_factory.hpp:76] Creating layer inception_4c/5x5_reduce
I1126 12:33:32.944036 19982 net.cpp:106] Creating Layer inception_4c/5x5_reduce
I1126 12:33:32.944039 19982 net.cpp:454] inception_4c/5x5_reduce <- inception_4b/output_inception_4b/output_0_split_2
I1126 12:33:32.944046 19982 net.cpp:411] inception_4c/5x5_reduce -> inception_4c/5x5_reduce
I1126 12:33:32.945180 19982 net.cpp:150] Setting up inception_4c/5x5_reduce
I1126 12:33:32.945195 19982 net.cpp:157] Top shape: 64 24 14 14 (301056)
I1126 12:33:32.945199 19982 net.cpp:165] Memory required for data: 2797482756
I1126 12:33:32.945205 19982 layer_factory.hpp:76] Creating layer inception_4c/relu_5x5_reduce
I1126 12:33:32.945214 19982 net.cpp:106] Creating Layer inception_4c/relu_5x5_reduce
I1126 12:33:32.945217 19982 net.cpp:454] inception_4c/relu_5x5_reduce <- inception_4c/5x5_reduce
I1126 12:33:32.945225 19982 net.cpp:397] inception_4c/relu_5x5_reduce -> inception_4c/5x5_reduce (in-place)
I1126 12:33:32.945396 19982 net.cpp:150] Setting up inception_4c/relu_5x5_reduce
I1126 12:33:32.945408 19982 net.cpp:157] Top shape: 64 24 14 14 (301056)
I1126 12:33:32.945411 19982 net.cpp:165] Memory required for data: 2798686980
I1126 12:33:32.945415 19982 layer_factory.hpp:76] Creating layer inception_4c/5x5
I1126 12:33:32.945423 19982 net.cpp:106] Creating Layer inception_4c/5x5
I1126 12:33:32.945427 19982 net.cpp:454] inception_4c/5x5 <- inception_4c/5x5_reduce
I1126 12:33:32.945433 19982 net.cpp:411] inception_4c/5x5 -> inception_4c/5x5
I1126 12:33:32.947154 19982 net.cpp:150] Setting up inception_4c/5x5
I1126 12:33:32.947170 19982 net.cpp:157] Top shape: 64 64 14 14 (802816)
I1126 12:33:32.947173 19982 net.cpp:165] Memory required for data: 2801898244
I1126 12:33:32.947180 19982 layer_factory.hpp:76] Creating layer inception_4c/relu_5x5
I1126 12:33:32.947186 19982 net.cpp:106] Creating Layer inception_4c/relu_5x5
I1126 12:33:32.947190 19982 net.cpp:454] inception_4c/relu_5x5 <- inception_4c/5x5
I1126 12:33:32.947197 19982 net.cpp:397] inception_4c/relu_5x5 -> inception_4c/5x5 (in-place)
I1126 12:33:32.947511 19982 net.cpp:150] Setting up inception_4c/relu_5x5
I1126 12:33:32.947525 19982 net.cpp:157] Top shape: 64 64 14 14 (802816)
I1126 12:33:32.947530 19982 net.cpp:165] Memory required for data: 2805109508
I1126 12:33:32.947532 19982 layer_factory.hpp:76] Creating layer inception_4c/pool
I1126 12:33:32.947540 19982 net.cpp:106] Creating Layer inception_4c/pool
I1126 12:33:32.947543 19982 net.cpp:454] inception_4c/pool <- inception_4b/output_inception_4b/output_0_split_3
I1126 12:33:32.947549 19982 net.cpp:411] inception_4c/pool -> inception_4c/pool
I1126 12:33:32.947762 19982 net.cpp:150] Setting up inception_4c/pool
I1126 12:33:32.947772 19982 net.cpp:157] Top shape: 64 512 14 14 (6422528)
I1126 12:33:32.947777 19982 net.cpp:165] Memory required for data: 2830799620
I1126 12:33:32.947779 19982 layer_factory.hpp:76] Creating layer inception_4c/pool_proj
I1126 12:33:32.947788 19982 net.cpp:106] Creating Layer inception_4c/pool_proj
I1126 12:33:32.947793 19982 net.cpp:454] inception_4c/pool_proj <- inception_4c/pool
I1126 12:33:32.947798 19982 net.cpp:411] inception_4c/pool_proj -> inception_4c/pool_proj
I1126 12:33:32.949180 19982 net.cpp:150] Setting up inception_4c/pool_proj
I1126 12:33:32.949196 19982 net.cpp:157] Top shape: 64 64 14 14 (802816)
I1126 12:33:32.949200 19982 net.cpp:165] Memory required for data: 2834010884
I1126 12:33:32.949206 19982 layer_factory.hpp:76] Creating layer inception_4c/relu_pool_proj
I1126 12:33:32.949213 19982 net.cpp:106] Creating Layer inception_4c/relu_pool_proj
I1126 12:33:32.949218 19982 net.cpp:454] inception_4c/relu_pool_proj <- inception_4c/pool_proj
I1126 12:33:32.949224 19982 net.cpp:397] inception_4c/relu_pool_proj -> inception_4c/pool_proj (in-place)
I1126 12:33:32.949564 19982 net.cpp:150] Setting up inception_4c/relu_pool_proj
I1126 12:33:32.949579 19982 net.cpp:157] Top shape: 64 64 14 14 (802816)
I1126 12:33:32.949583 19982 net.cpp:165] Memory required for data: 2837222148
I1126 12:33:32.949586 19982 layer_factory.hpp:76] Creating layer inception_4c/output
I1126 12:33:32.949594 19982 net.cpp:106] Creating Layer inception_4c/output
I1126 12:33:32.949597 19982 net.cpp:454] inception_4c/output <- inception_4c/1x1
I1126 12:33:32.949602 19982 net.cpp:454] inception_4c/output <- inception_4c/3x3
I1126 12:33:32.949606 19982 net.cpp:454] inception_4c/output <- inception_4c/5x5
I1126 12:33:32.949610 19982 net.cpp:454] inception_4c/output <- inception_4c/pool_proj
I1126 12:33:32.949615 19982 net.cpp:411] inception_4c/output -> inception_4c/output
I1126 12:33:32.949651 19982 net.cpp:150] Setting up inception_4c/output
I1126 12:33:32.949656 19982 net.cpp:157] Top shape: 64 512 14 14 (6422528)
I1126 12:33:32.949659 19982 net.cpp:165] Memory required for data: 2862912260
I1126 12:33:32.949662 19982 layer_factory.hpp:76] Creating layer inception_4c/output_inception_4c/output_0_split
I1126 12:33:32.949668 19982 net.cpp:106] Creating Layer inception_4c/output_inception_4c/output_0_split
I1126 12:33:32.949671 19982 net.cpp:454] inception_4c/output_inception_4c/output_0_split <- inception_4c/output
I1126 12:33:32.949677 19982 net.cpp:411] inception_4c/output_inception_4c/output_0_split -> inception_4c/output_inception_4c/output_0_split_0
I1126 12:33:32.949684 19982 net.cpp:411] inception_4c/output_inception_4c/output_0_split -> inception_4c/output_inception_4c/output_0_split_1
I1126 12:33:32.949689 19982 net.cpp:411] inception_4c/output_inception_4c/output_0_split -> inception_4c/output_inception_4c/output_0_split_2
I1126 12:33:32.949695 19982 net.cpp:411] inception_4c/output_inception_4c/output_0_split -> inception_4c/output_inception_4c/output_0_split_3
I1126 12:33:32.949762 19982 net.cpp:150] Setting up inception_4c/output_inception_4c/output_0_split
I1126 12:33:32.949769 19982 net.cpp:157] Top shape: 64 512 14 14 (6422528)
I1126 12:33:32.949772 19982 net.cpp:157] Top shape: 64 512 14 14 (6422528)
I1126 12:33:32.949776 19982 net.cpp:157] Top shape: 64 512 14 14 (6422528)
I1126 12:33:32.949779 19982 net.cpp:157] Top shape: 64 512 14 14 (6422528)
I1126 12:33:32.949782 19982 net.cpp:165] Memory required for data: 2965672708
I1126 12:33:32.949785 19982 layer_factory.hpp:76] Creating layer inception_4d/1x1
I1126 12:33:32.949795 19982 net.cpp:106] Creating Layer inception_4d/1x1
I1126 12:33:32.949797 19982 net.cpp:454] inception_4d/1x1 <- inception_4c/output_inception_4c/output_0_split_0
I1126 12:33:32.949802 19982 net.cpp:411] inception_4d/1x1 -> inception_4d/1x1
I1126 12:33:32.951081 19982 net.cpp:150] Setting up inception_4d/1x1
I1126 12:33:32.951097 19982 net.cpp:157] Top shape: 64 112 14 14 (1404928)
I1126 12:33:32.951103 19982 net.cpp:165] Memory required for data: 2971292420
I1126 12:33:32.951109 19982 layer_factory.hpp:76] Creating layer inception_4d/relu_1x1
I1126 12:33:32.951115 19982 net.cpp:106] Creating Layer inception_4d/relu_1x1
I1126 12:33:32.951119 19982 net.cpp:454] inception_4d/relu_1x1 <- inception_4d/1x1
I1126 12:33:32.951124 19982 net.cpp:397] inception_4d/relu_1x1 -> inception_4d/1x1 (in-place)
I1126 12:33:32.951439 19982 net.cpp:150] Setting up inception_4d/relu_1x1
I1126 12:33:32.951454 19982 net.cpp:157] Top shape: 64 112 14 14 (1404928)
I1126 12:33:32.951458 19982 net.cpp:165] Memory required for data: 2976912132
I1126 12:33:32.951462 19982 layer_factory.hpp:76] Creating layer inception_4d/3x3_reduce
I1126 12:33:32.951469 19982 net.cpp:106] Creating Layer inception_4d/3x3_reduce
I1126 12:33:32.951473 19982 net.cpp:454] inception_4d/3x3_reduce <- inception_4c/output_inception_4c/output_0_split_1
I1126 12:33:32.951481 19982 net.cpp:411] inception_4d/3x3_reduce -> inception_4d/3x3_reduce
I1126 12:33:32.953068 19982 net.cpp:150] Setting up inception_4d/3x3_reduce
I1126 12:33:32.953084 19982 net.cpp:157] Top shape: 64 144 14 14 (1806336)
I1126 12:33:32.953088 19982 net.cpp:165] Memory required for data: 2984137476
I1126 12:33:32.953094 19982 layer_factory.hpp:76] Creating layer inception_4d/relu_3x3_reduce
I1126 12:33:32.953100 19982 net.cpp:106] Creating Layer inception_4d/relu_3x3_reduce
I1126 12:33:32.953104 19982 net.cpp:454] inception_4d/relu_3x3_reduce <- inception_4d/3x3_reduce
I1126 12:33:32.953110 19982 net.cpp:397] inception_4d/relu_3x3_reduce -> inception_4d/3x3_reduce (in-place)
I1126 12:33:32.953284 19982 net.cpp:150] Setting up inception_4d/relu_3x3_reduce
I1126 12:33:32.953295 19982 net.cpp:157] Top shape: 64 144 14 14 (1806336)
I1126 12:33:32.953299 19982 net.cpp:165] Memory required for data: 2991362820
I1126 12:33:32.953302 19982 layer_factory.hpp:76] Creating layer inception_4d/3x3
I1126 12:33:32.953310 19982 net.cpp:106] Creating Layer inception_4d/3x3
I1126 12:33:32.953315 19982 net.cpp:454] inception_4d/3x3 <- inception_4d/3x3_reduce
I1126 12:33:32.953320 19982 net.cpp:411] inception_4d/3x3 -> inception_4d/3x3
I1126 12:33:32.957267 19982 net.cpp:150] Setting up inception_4d/3x3
I1126 12:33:32.957284 19982 net.cpp:157] Top shape: 64 288 14 14 (3612672)
I1126 12:33:32.957288 19982 net.cpp:165] Memory required for data: 3005813508
I1126 12:33:32.957294 19982 layer_factory.hpp:76] Creating layer inception_4d/relu_3x3
I1126 12:33:32.957300 19982 net.cpp:106] Creating Layer inception_4d/relu_3x3
I1126 12:33:32.957304 19982 net.cpp:454] inception_4d/relu_3x3 <- inception_4d/3x3
I1126 12:33:32.957309 19982 net.cpp:397] inception_4d/relu_3x3 -> inception_4d/3x3 (in-place)
I1126 12:33:32.957622 19982 net.cpp:150] Setting up inception_4d/relu_3x3
I1126 12:33:32.957636 19982 net.cpp:157] Top shape: 64 288 14 14 (3612672)
I1126 12:33:32.957640 19982 net.cpp:165] Memory required for data: 3020264196
I1126 12:33:32.957643 19982 layer_factory.hpp:76] Creating layer inception_4d/5x5_reduce
I1126 12:33:32.957651 19982 net.cpp:106] Creating Layer inception_4d/5x5_reduce
I1126 12:33:32.957655 19982 net.cpp:454] inception_4d/5x5_reduce <- inception_4c/output_inception_4c/output_0_split_2
I1126 12:33:32.957664 19982 net.cpp:411] inception_4d/5x5_reduce -> inception_4d/5x5_reduce
I1126 12:33:32.958726 19982 net.cpp:150] Setting up inception_4d/5x5_reduce
I1126 12:33:32.958742 19982 net.cpp:157] Top shape: 64 32 14 14 (401408)
I1126 12:33:32.958746 19982 net.cpp:165] Memory required for data: 3021869828
I1126 12:33:32.958752 19982 layer_factory.hpp:76] Creating layer inception_4d/relu_5x5_reduce
I1126 12:33:32.958758 19982 net.cpp:106] Creating Layer inception_4d/relu_5x5_reduce
I1126 12:33:32.958762 19982 net.cpp:454] inception_4d/relu_5x5_reduce <- inception_4d/5x5_reduce
I1126 12:33:32.958767 19982 net.cpp:397] inception_4d/relu_5x5_reduce -> inception_4d/5x5_reduce (in-place)
I1126 12:33:32.959087 19982 net.cpp:150] Setting up inception_4d/relu_5x5_reduce
I1126 12:33:32.959101 19982 net.cpp:157] Top shape: 64 32 14 14 (401408)
I1126 12:33:32.959105 19982 net.cpp:165] Memory required for data: 3023475460
I1126 12:33:32.959108 19982 layer_factory.hpp:76] Creating layer inception_4d/5x5
I1126 12:33:32.959117 19982 net.cpp:106] Creating Layer inception_4d/5x5
I1126 12:33:32.959122 19982 net.cpp:454] inception_4d/5x5 <- inception_4d/5x5_reduce
I1126 12:33:32.959144 19982 net.cpp:411] inception_4d/5x5 -> inception_4d/5x5
I1126 12:33:32.960574 19982 net.cpp:150] Setting up inception_4d/5x5
I1126 12:33:32.960590 19982 net.cpp:157] Top shape: 64 64 14 14 (802816)
I1126 12:33:32.960594 19982 net.cpp:165] Memory required for data: 3026686724
I1126 12:33:32.960600 19982 layer_factory.hpp:76] Creating layer inception_4d/relu_5x5
I1126 12:33:32.960607 19982 net.cpp:106] Creating Layer inception_4d/relu_5x5
I1126 12:33:32.960610 19982 net.cpp:454] inception_4d/relu_5x5 <- inception_4d/5x5
I1126 12:33:32.960618 19982 net.cpp:397] inception_4d/relu_5x5 -> inception_4d/5x5 (in-place)
I1126 12:33:32.960793 19982 net.cpp:150] Setting up inception_4d/relu_5x5
I1126 12:33:32.960805 19982 net.cpp:157] Top shape: 64 64 14 14 (802816)
I1126 12:33:32.960808 19982 net.cpp:165] Memory required for data: 3029897988
I1126 12:33:32.960811 19982 layer_factory.hpp:76] Creating layer inception_4d/pool
I1126 12:33:32.960819 19982 net.cpp:106] Creating Layer inception_4d/pool
I1126 12:33:32.960822 19982 net.cpp:454] inception_4d/pool <- inception_4c/output_inception_4c/output_0_split_3
I1126 12:33:32.960829 19982 net.cpp:411] inception_4d/pool -> inception_4d/pool
I1126 12:33:32.961184 19982 net.cpp:150] Setting up inception_4d/pool
I1126 12:33:32.961197 19982 net.cpp:157] Top shape: 64 512 14 14 (6422528)
I1126 12:33:32.961200 19982 net.cpp:165] Memory required for data: 3055588100
I1126 12:33:32.961204 19982 layer_factory.hpp:76] Creating layer inception_4d/pool_proj
I1126 12:33:32.961213 19982 net.cpp:106] Creating Layer inception_4d/pool_proj
I1126 12:33:32.961218 19982 net.cpp:454] inception_4d/pool_proj <- inception_4d/pool
I1126 12:33:32.961226 19982 net.cpp:411] inception_4d/pool_proj -> inception_4d/pool_proj
I1126 12:33:32.962517 19982 net.cpp:150] Setting up inception_4d/pool_proj
I1126 12:33:32.962532 19982 net.cpp:157] Top shape: 64 64 14 14 (802816)
I1126 12:33:32.962535 19982 net.cpp:165] Memory required for data: 3058799364
I1126 12:33:32.962541 19982 layer_factory.hpp:76] Creating layer inception_4d/relu_pool_proj
I1126 12:33:32.962548 19982 net.cpp:106] Creating Layer inception_4d/relu_pool_proj
I1126 12:33:32.962553 19982 net.cpp:454] inception_4d/relu_pool_proj <- inception_4d/pool_proj
I1126 12:33:32.962558 19982 net.cpp:397] inception_4d/relu_pool_proj -> inception_4d/pool_proj (in-place)
I1126 12:33:32.962735 19982 net.cpp:150] Setting up inception_4d/relu_pool_proj
I1126 12:33:32.962746 19982 net.cpp:157] Top shape: 64 64 14 14 (802816)
I1126 12:33:32.962749 19982 net.cpp:165] Memory required for data: 3062010628
I1126 12:33:32.962754 19982 layer_factory.hpp:76] Creating layer inception_4d/output
I1126 12:33:32.962759 19982 net.cpp:106] Creating Layer inception_4d/output
I1126 12:33:32.962764 19982 net.cpp:454] inception_4d/output <- inception_4d/1x1
I1126 12:33:32.962769 19982 net.cpp:454] inception_4d/output <- inception_4d/3x3
I1126 12:33:32.962771 19982 net.cpp:454] inception_4d/output <- inception_4d/5x5
I1126 12:33:32.962775 19982 net.cpp:454] inception_4d/output <- inception_4d/pool_proj
I1126 12:33:32.962779 19982 net.cpp:411] inception_4d/output -> inception_4d/output
I1126 12:33:32.962815 19982 net.cpp:150] Setting up inception_4d/output
I1126 12:33:32.962821 19982 net.cpp:157] Top shape: 64 528 14 14 (6623232)
I1126 12:33:32.962822 19982 net.cpp:165] Memory required for data: 3088503556
I1126 12:33:32.962826 19982 layer_factory.hpp:76] Creating layer inception_4d/output_inception_4d/output_0_split
I1126 12:33:32.962833 19982 net.cpp:106] Creating Layer inception_4d/output_inception_4d/output_0_split
I1126 12:33:32.962836 19982 net.cpp:454] inception_4d/output_inception_4d/output_0_split <- inception_4d/output
I1126 12:33:32.962843 19982 net.cpp:411] inception_4d/output_inception_4d/output_0_split -> inception_4d/output_inception_4d/output_0_split_0
I1126 12:33:32.962849 19982 net.cpp:411] inception_4d/output_inception_4d/output_0_split -> inception_4d/output_inception_4d/output_0_split_1
I1126 12:33:32.962854 19982 net.cpp:411] inception_4d/output_inception_4d/output_0_split -> inception_4d/output_inception_4d/output_0_split_2
I1126 12:33:32.962859 19982 net.cpp:411] inception_4d/output_inception_4d/output_0_split -> inception_4d/output_inception_4d/output_0_split_3
I1126 12:33:32.962864 19982 net.cpp:411] inception_4d/output_inception_4d/output_0_split -> inception_4d/output_inception_4d/output_0_split_4
I1126 12:33:32.962960 19982 net.cpp:150] Setting up inception_4d/output_inception_4d/output_0_split
I1126 12:33:32.962968 19982 net.cpp:157] Top shape: 64 528 14 14 (6623232)
I1126 12:33:32.962973 19982 net.cpp:157] Top shape: 64 528 14 14 (6623232)
I1126 12:33:32.962976 19982 net.cpp:157] Top shape: 64 528 14 14 (6623232)
I1126 12:33:32.962980 19982 net.cpp:157] Top shape: 64 528 14 14 (6623232)
I1126 12:33:32.962983 19982 net.cpp:157] Top shape: 64 528 14 14 (6623232)
I1126 12:33:32.962985 19982 net.cpp:165] Memory required for data: 3220968196
I1126 12:33:32.962988 19982 layer_factory.hpp:76] Creating layer loss2/ave_pool
I1126 12:33:32.962996 19982 net.cpp:106] Creating Layer loss2/ave_pool
I1126 12:33:32.962999 19982 net.cpp:454] loss2/ave_pool <- inception_4d/output_inception_4d/output_0_split_0
I1126 12:33:32.963006 19982 net.cpp:411] loss2/ave_pool -> loss2/ave_pool
I1126 12:33:32.963351 19982 net.cpp:150] Setting up loss2/ave_pool
I1126 12:33:32.963366 19982 net.cpp:157] Top shape: 64 528 4 4 (540672)
I1126 12:33:32.963382 19982 net.cpp:165] Memory required for data: 3223130884
I1126 12:33:32.963384 19982 layer_factory.hpp:76] Creating layer loss2/conv
I1126 12:33:32.963394 19982 net.cpp:106] Creating Layer loss2/conv
I1126 12:33:32.963399 19982 net.cpp:454] loss2/conv <- loss2/ave_pool
I1126 12:33:32.963405 19982 net.cpp:411] loss2/conv -> loss2/conv
I1126 12:33:32.965276 19982 net.cpp:150] Setting up loss2/conv
I1126 12:33:32.965291 19982 net.cpp:157] Top shape: 64 128 4 4 (131072)
I1126 12:33:32.965294 19982 net.cpp:165] Memory required for data: 3223655172
I1126 12:33:32.965301 19982 layer_factory.hpp:76] Creating layer loss2/relu_conv
I1126 12:33:32.965307 19982 net.cpp:106] Creating Layer loss2/relu_conv
I1126 12:33:32.965312 19982 net.cpp:454] loss2/relu_conv <- loss2/conv
I1126 12:33:32.965318 19982 net.cpp:397] loss2/relu_conv -> loss2/conv (in-place)
I1126 12:33:32.965759 19982 net.cpp:150] Setting up loss2/relu_conv
I1126 12:33:32.965773 19982 net.cpp:157] Top shape: 64 128 4 4 (131072)
I1126 12:33:32.965776 19982 net.cpp:165] Memory required for data: 3224179460
I1126 12:33:32.965780 19982 layer_factory.hpp:76] Creating layer loss2/fc
I1126 12:33:32.965788 19982 net.cpp:106] Creating Layer loss2/fc
I1126 12:33:32.965793 19982 net.cpp:454] loss2/fc <- loss2/conv
I1126 12:33:32.965798 19982 net.cpp:411] loss2/fc -> loss2/fc
I1126 12:33:32.981276 19982 net.cpp:150] Setting up loss2/fc
I1126 12:33:32.981292 19982 net.cpp:157] Top shape: 64 1024 (65536)
I1126 12:33:32.981295 19982 net.cpp:165] Memory required for data: 3224441604
I1126 12:33:32.981302 19982 layer_factory.hpp:76] Creating layer loss2/relu_fc
I1126 12:33:32.981307 19982 net.cpp:106] Creating Layer loss2/relu_fc
I1126 12:33:32.981312 19982 net.cpp:454] loss2/relu_fc <- loss2/fc
I1126 12:33:32.981317 19982 net.cpp:397] loss2/relu_fc -> loss2/fc (in-place)
I1126 12:33:32.981513 19982 net.cpp:150] Setting up loss2/relu_fc
I1126 12:33:32.981524 19982 net.cpp:157] Top shape: 64 1024 (65536)
I1126 12:33:32.981528 19982 net.cpp:165] Memory required for data: 3224703748
I1126 12:33:32.981531 19982 layer_factory.hpp:76] Creating layer loss2/drop_fc
I1126 12:33:32.981537 19982 net.cpp:106] Creating Layer loss2/drop_fc
I1126 12:33:32.981541 19982 net.cpp:454] loss2/drop_fc <- loss2/fc
I1126 12:33:32.981547 19982 net.cpp:397] loss2/drop_fc -> loss2/fc (in-place)
I1126 12:33:32.981583 19982 net.cpp:150] Setting up loss2/drop_fc
I1126 12:33:32.981595 19982 net.cpp:157] Top shape: 64 1024 (65536)
I1126 12:33:32.981598 19982 net.cpp:165] Memory required for data: 3224965892
I1126 12:33:32.981601 19982 layer_factory.hpp:76] Creating layer loss2/classifier-attribute
I1126 12:33:32.981607 19982 net.cpp:106] Creating Layer loss2/classifier-attribute
I1126 12:33:32.981611 19982 net.cpp:454] loss2/classifier-attribute <- loss2/fc
I1126 12:33:32.981617 19982 net.cpp:411] loss2/classifier-attribute -> loss2/classifier-attribute
I1126 12:33:33.058908 19982 net.cpp:150] Setting up loss2/classifier-attribute
I1126 12:33:33.058938 19982 net.cpp:157] Top shape: 64 9999 (639936)
I1126 12:33:33.058940 19982 net.cpp:165] Memory required for data: 3227525636
I1126 12:33:33.058949 19982 layer_factory.hpp:76] Creating layer loss2/loss
I1126 12:33:33.058959 19982 net.cpp:106] Creating Layer loss2/loss
I1126 12:33:33.058965 19982 net.cpp:454] loss2/loss <- loss2/classifier-attribute
I1126 12:33:33.058971 19982 net.cpp:454] loss2/loss <- label_data_1_split_1
I1126 12:33:33.058979 19982 net.cpp:411] loss2/loss -> loss2/loss1
I1126 12:33:33.058990 19982 layer_factory.hpp:76] Creating layer loss2/loss
I1126 12:33:33.060755 19982 net.cpp:150] Setting up loss2/loss
I1126 12:33:33.060770 19982 net.cpp:157] Top shape: (1)
I1126 12:33:33.060773 19982 net.cpp:160]     with loss weight 0.3
I1126 12:33:33.060784 19982 net.cpp:165] Memory required for data: 3227525640
I1126 12:33:33.060788 19982 layer_factory.hpp:76] Creating layer inception_4e/1x1
I1126 12:33:33.060797 19982 net.cpp:106] Creating Layer inception_4e/1x1
I1126 12:33:33.060802 19982 net.cpp:454] inception_4e/1x1 <- inception_4d/output_inception_4d/output_0_split_1
I1126 12:33:33.060811 19982 net.cpp:411] inception_4e/1x1 -> inception_4e/1x1
I1126 12:33:33.062855 19982 net.cpp:150] Setting up inception_4e/1x1
I1126 12:33:33.062872 19982 net.cpp:157] Top shape: 64 256 14 14 (3211264)
I1126 12:33:33.062876 19982 net.cpp:165] Memory required for data: 3240370696
I1126 12:33:33.062882 19982 layer_factory.hpp:76] Creating layer inception_4e/relu_1x1
I1126 12:33:33.062907 19982 net.cpp:106] Creating Layer inception_4e/relu_1x1
I1126 12:33:33.062913 19982 net.cpp:454] inception_4e/relu_1x1 <- inception_4e/1x1
I1126 12:33:33.062919 19982 net.cpp:397] inception_4e/relu_1x1 -> inception_4e/1x1 (in-place)
I1126 12:33:33.063102 19982 net.cpp:150] Setting up inception_4e/relu_1x1
I1126 12:33:33.063113 19982 net.cpp:157] Top shape: 64 256 14 14 (3211264)
I1126 12:33:33.063117 19982 net.cpp:165] Memory required for data: 3253215752
I1126 12:33:33.063120 19982 layer_factory.hpp:76] Creating layer inception_4e/3x3_reduce
I1126 12:33:33.063129 19982 net.cpp:106] Creating Layer inception_4e/3x3_reduce
I1126 12:33:33.063133 19982 net.cpp:454] inception_4e/3x3_reduce <- inception_4d/output_inception_4d/output_0_split_2
I1126 12:33:33.063140 19982 net.cpp:411] inception_4e/3x3_reduce -> inception_4e/3x3_reduce
I1126 12:33:33.065212 19982 net.cpp:150] Setting up inception_4e/3x3_reduce
I1126 12:33:33.065228 19982 net.cpp:157] Top shape: 64 160 14 14 (2007040)
I1126 12:33:33.065232 19982 net.cpp:165] Memory required for data: 3261243912
I1126 12:33:33.065238 19982 layer_factory.hpp:76] Creating layer inception_4e/relu_3x3_reduce
I1126 12:33:33.065244 19982 net.cpp:106] Creating Layer inception_4e/relu_3x3_reduce
I1126 12:33:33.065248 19982 net.cpp:454] inception_4e/relu_3x3_reduce <- inception_4e/3x3_reduce
I1126 12:33:33.065255 19982 net.cpp:397] inception_4e/relu_3x3_reduce -> inception_4e/3x3_reduce (in-place)
I1126 12:33:33.065580 19982 net.cpp:150] Setting up inception_4e/relu_3x3_reduce
I1126 12:33:33.065594 19982 net.cpp:157] Top shape: 64 160 14 14 (2007040)
I1126 12:33:33.065598 19982 net.cpp:165] Memory required for data: 3269272072
I1126 12:33:33.065601 19982 layer_factory.hpp:76] Creating layer inception_4e/3x3
I1126 12:33:33.065610 19982 net.cpp:106] Creating Layer inception_4e/3x3
I1126 12:33:33.065615 19982 net.cpp:454] inception_4e/3x3 <- inception_4e/3x3_reduce
I1126 12:33:33.065623 19982 net.cpp:411] inception_4e/3x3 -> inception_4e/3x3
I1126 12:33:33.070315 19982 net.cpp:150] Setting up inception_4e/3x3
I1126 12:33:33.070333 19982 net.cpp:157] Top shape: 64 320 14 14 (4014080)
I1126 12:33:33.070336 19982 net.cpp:165] Memory required for data: 3285328392
I1126 12:33:33.070343 19982 layer_factory.hpp:76] Creating layer inception_4e/relu_3x3
I1126 12:33:33.070349 19982 net.cpp:106] Creating Layer inception_4e/relu_3x3
I1126 12:33:33.070353 19982 net.cpp:454] inception_4e/relu_3x3 <- inception_4e/3x3
I1126 12:33:33.070360 19982 net.cpp:397] inception_4e/relu_3x3 -> inception_4e/3x3 (in-place)
I1126 12:33:33.070678 19982 net.cpp:150] Setting up inception_4e/relu_3x3
I1126 12:33:33.070693 19982 net.cpp:157] Top shape: 64 320 14 14 (4014080)
I1126 12:33:33.070696 19982 net.cpp:165] Memory required for data: 3301384712
I1126 12:33:33.070699 19982 layer_factory.hpp:76] Creating layer inception_4e/5x5_reduce
I1126 12:33:33.070708 19982 net.cpp:106] Creating Layer inception_4e/5x5_reduce
I1126 12:33:33.070713 19982 net.cpp:454] inception_4e/5x5_reduce <- inception_4d/output_inception_4d/output_0_split_3
I1126 12:33:33.070719 19982 net.cpp:411] inception_4e/5x5_reduce -> inception_4e/5x5_reduce
I1126 12:33:33.071940 19982 net.cpp:150] Setting up inception_4e/5x5_reduce
I1126 12:33:33.071966 19982 net.cpp:157] Top shape: 64 32 14 14 (401408)
I1126 12:33:33.071970 19982 net.cpp:165] Memory required for data: 3302990344
I1126 12:33:33.071976 19982 layer_factory.hpp:76] Creating layer inception_4e/relu_5x5_reduce
I1126 12:33:33.071982 19982 net.cpp:106] Creating Layer inception_4e/relu_5x5_reduce
I1126 12:33:33.071988 19982 net.cpp:454] inception_4e/relu_5x5_reduce <- inception_4e/5x5_reduce
I1126 12:33:33.071995 19982 net.cpp:397] inception_4e/relu_5x5_reduce -> inception_4e/5x5_reduce (in-place)
I1126 12:33:33.072180 19982 net.cpp:150] Setting up inception_4e/relu_5x5_reduce
I1126 12:33:33.072193 19982 net.cpp:157] Top shape: 64 32 14 14 (401408)
I1126 12:33:33.072197 19982 net.cpp:165] Memory required for data: 3304595976
I1126 12:33:33.072201 19982 layer_factory.hpp:76] Creating layer inception_4e/5x5
I1126 12:33:33.072227 19982 net.cpp:106] Creating Layer inception_4e/5x5
I1126 12:33:33.072232 19982 net.cpp:454] inception_4e/5x5 <- inception_4e/5x5_reduce
I1126 12:33:33.072244 19982 net.cpp:411] inception_4e/5x5 -> inception_4e/5x5
I1126 12:33:33.074002 19982 net.cpp:150] Setting up inception_4e/5x5
I1126 12:33:33.074018 19982 net.cpp:157] Top shape: 64 128 14 14 (1605632)
I1126 12:33:33.074023 19982 net.cpp:165] Memory required for data: 3311018504
I1126 12:33:33.074029 19982 layer_factory.hpp:76] Creating layer inception_4e/relu_5x5
I1126 12:33:33.074035 19982 net.cpp:106] Creating Layer inception_4e/relu_5x5
I1126 12:33:33.074039 19982 net.cpp:454] inception_4e/relu_5x5 <- inception_4e/5x5
I1126 12:33:33.074045 19982 net.cpp:397] inception_4e/relu_5x5 -> inception_4e/5x5 (in-place)
I1126 12:33:33.074373 19982 net.cpp:150] Setting up inception_4e/relu_5x5
I1126 12:33:33.074389 19982 net.cpp:157] Top shape: 64 128 14 14 (1605632)
I1126 12:33:33.074393 19982 net.cpp:165] Memory required for data: 3317441032
I1126 12:33:33.074396 19982 layer_factory.hpp:76] Creating layer inception_4e/pool
I1126 12:33:33.074404 19982 net.cpp:106] Creating Layer inception_4e/pool
I1126 12:33:33.074407 19982 net.cpp:454] inception_4e/pool <- inception_4d/output_inception_4d/output_0_split_4
I1126 12:33:33.074414 19982 net.cpp:411] inception_4e/pool -> inception_4e/pool
I1126 12:33:33.074635 19982 net.cpp:150] Setting up inception_4e/pool
I1126 12:33:33.074647 19982 net.cpp:157] Top shape: 64 528 14 14 (6623232)
I1126 12:33:33.074651 19982 net.cpp:165] Memory required for data: 3343933960
I1126 12:33:33.074653 19982 layer_factory.hpp:76] Creating layer inception_4e/pool_proj
I1126 12:33:33.074662 19982 net.cpp:106] Creating Layer inception_4e/pool_proj
I1126 12:33:33.074666 19982 net.cpp:454] inception_4e/pool_proj <- inception_4e/pool
I1126 12:33:33.074673 19982 net.cpp:411] inception_4e/pool_proj -> inception_4e/pool_proj
I1126 12:33:33.076221 19982 net.cpp:150] Setting up inception_4e/pool_proj
I1126 12:33:33.076237 19982 net.cpp:157] Top shape: 64 128 14 14 (1605632)
I1126 12:33:33.076241 19982 net.cpp:165] Memory required for data: 3350356488
I1126 12:33:33.076247 19982 layer_factory.hpp:76] Creating layer inception_4e/relu_pool_proj
I1126 12:33:33.076253 19982 net.cpp:106] Creating Layer inception_4e/relu_pool_proj
I1126 12:33:33.076257 19982 net.cpp:454] inception_4e/relu_pool_proj <- inception_4e/pool_proj
I1126 12:33:33.076263 19982 net.cpp:397] inception_4e/relu_pool_proj -> inception_4e/pool_proj (in-place)
I1126 12:33:33.076586 19982 net.cpp:150] Setting up inception_4e/relu_pool_proj
I1126 12:33:33.076601 19982 net.cpp:157] Top shape: 64 128 14 14 (1605632)
I1126 12:33:33.076604 19982 net.cpp:165] Memory required for data: 3356779016
I1126 12:33:33.076607 19982 layer_factory.hpp:76] Creating layer inception_4e/output
I1126 12:33:33.076614 19982 net.cpp:106] Creating Layer inception_4e/output
I1126 12:33:33.076618 19982 net.cpp:454] inception_4e/output <- inception_4e/1x1
I1126 12:33:33.076622 19982 net.cpp:454] inception_4e/output <- inception_4e/3x3
I1126 12:33:33.076627 19982 net.cpp:454] inception_4e/output <- inception_4e/5x5
I1126 12:33:33.076630 19982 net.cpp:454] inception_4e/output <- inception_4e/pool_proj
I1126 12:33:33.076635 19982 net.cpp:411] inception_4e/output -> inception_4e/output
I1126 12:33:33.076680 19982 net.cpp:150] Setting up inception_4e/output
I1126 12:33:33.076688 19982 net.cpp:157] Top shape: 64 832 14 14 (10436608)
I1126 12:33:33.076690 19982 net.cpp:165] Memory required for data: 3398525448
I1126 12:33:33.076694 19982 layer_factory.hpp:76] Creating layer pool4/3x3_s2
I1126 12:33:33.076699 19982 net.cpp:106] Creating Layer pool4/3x3_s2
I1126 12:33:33.076704 19982 net.cpp:454] pool4/3x3_s2 <- inception_4e/output
I1126 12:33:33.076709 19982 net.cpp:411] pool4/3x3_s2 -> pool4/3x3_s2
I1126 12:33:33.076942 19982 net.cpp:150] Setting up pool4/3x3_s2
I1126 12:33:33.076954 19982 net.cpp:157] Top shape: 64 832 7 7 (2609152)
I1126 12:33:33.076958 19982 net.cpp:165] Memory required for data: 3408962056
I1126 12:33:33.076961 19982 layer_factory.hpp:76] Creating layer pool4/3x3_s2_pool4/3x3_s2_0_split
I1126 12:33:33.076968 19982 net.cpp:106] Creating Layer pool4/3x3_s2_pool4/3x3_s2_0_split
I1126 12:33:33.076972 19982 net.cpp:454] pool4/3x3_s2_pool4/3x3_s2_0_split <- pool4/3x3_s2
I1126 12:33:33.076987 19982 net.cpp:411] pool4/3x3_s2_pool4/3x3_s2_0_split -> pool4/3x3_s2_pool4/3x3_s2_0_split_0
I1126 12:33:33.076993 19982 net.cpp:411] pool4/3x3_s2_pool4/3x3_s2_0_split -> pool4/3x3_s2_pool4/3x3_s2_0_split_1
I1126 12:33:33.076998 19982 net.cpp:411] pool4/3x3_s2_pool4/3x3_s2_0_split -> pool4/3x3_s2_pool4/3x3_s2_0_split_2
I1126 12:33:33.077003 19982 net.cpp:411] pool4/3x3_s2_pool4/3x3_s2_0_split -> pool4/3x3_s2_pool4/3x3_s2_0_split_3
I1126 12:33:33.077074 19982 net.cpp:150] Setting up pool4/3x3_s2_pool4/3x3_s2_0_split
I1126 12:33:33.077080 19982 net.cpp:157] Top shape: 64 832 7 7 (2609152)
I1126 12:33:33.077085 19982 net.cpp:157] Top shape: 64 832 7 7 (2609152)
I1126 12:33:33.077087 19982 net.cpp:157] Top shape: 64 832 7 7 (2609152)
I1126 12:33:33.077090 19982 net.cpp:157] Top shape: 64 832 7 7 (2609152)
I1126 12:33:33.077093 19982 net.cpp:165] Memory required for data: 3450708488
I1126 12:33:33.077096 19982 layer_factory.hpp:76] Creating layer inception_5a/1x1
I1126 12:33:33.077105 19982 net.cpp:106] Creating Layer inception_5a/1x1
I1126 12:33:33.077108 19982 net.cpp:454] inception_5a/1x1 <- pool4/3x3_s2_pool4/3x3_s2_0_split_0
I1126 12:33:33.077114 19982 net.cpp:411] inception_5a/1x1 -> inception_5a/1x1
I1126 12:33:33.079773 19982 net.cpp:150] Setting up inception_5a/1x1
I1126 12:33:33.079788 19982 net.cpp:157] Top shape: 64 256 7 7 (802816)
I1126 12:33:33.079792 19982 net.cpp:165] Memory required for data: 3453919752
I1126 12:33:33.079797 19982 layer_factory.hpp:76] Creating layer inception_5a/relu_1x1
I1126 12:33:33.079804 19982 net.cpp:106] Creating Layer inception_5a/relu_1x1
I1126 12:33:33.079808 19982 net.cpp:454] inception_5a/relu_1x1 <- inception_5a/1x1
I1126 12:33:33.079813 19982 net.cpp:397] inception_5a/relu_1x1 -> inception_5a/1x1 (in-place)
I1126 12:33:33.080121 19982 net.cpp:150] Setting up inception_5a/relu_1x1
I1126 12:33:33.080135 19982 net.cpp:157] Top shape: 64 256 7 7 (802816)
I1126 12:33:33.080138 19982 net.cpp:165] Memory required for data: 3457131016
I1126 12:33:33.080142 19982 layer_factory.hpp:76] Creating layer inception_5a/3x3_reduce
I1126 12:33:33.080150 19982 net.cpp:106] Creating Layer inception_5a/3x3_reduce
I1126 12:33:33.080154 19982 net.cpp:454] inception_5a/3x3_reduce <- pool4/3x3_s2_pool4/3x3_s2_0_split_1
I1126 12:33:33.080160 19982 net.cpp:411] inception_5a/3x3_reduce -> inception_5a/3x3_reduce
I1126 12:33:33.082389 19982 net.cpp:150] Setting up inception_5a/3x3_reduce
I1126 12:33:33.082404 19982 net.cpp:157] Top shape: 64 160 7 7 (501760)
I1126 12:33:33.082408 19982 net.cpp:165] Memory required for data: 3459138056
I1126 12:33:33.082413 19982 layer_factory.hpp:76] Creating layer inception_5a/relu_3x3_reduce
I1126 12:33:33.082420 19982 net.cpp:106] Creating Layer inception_5a/relu_3x3_reduce
I1126 12:33:33.082424 19982 net.cpp:454] inception_5a/relu_3x3_reduce <- inception_5a/3x3_reduce
I1126 12:33:33.082429 19982 net.cpp:397] inception_5a/relu_3x3_reduce -> inception_5a/3x3_reduce (in-place)
I1126 12:33:33.082741 19982 net.cpp:150] Setting up inception_5a/relu_3x3_reduce
I1126 12:33:33.082756 19982 net.cpp:157] Top shape: 64 160 7 7 (501760)
I1126 12:33:33.082759 19982 net.cpp:165] Memory required for data: 3461145096
I1126 12:33:33.082762 19982 layer_factory.hpp:76] Creating layer inception_5a/3x3
I1126 12:33:33.082770 19982 net.cpp:106] Creating Layer inception_5a/3x3
I1126 12:33:33.082774 19982 net.cpp:454] inception_5a/3x3 <- inception_5a/3x3_reduce
I1126 12:33:33.082782 19982 net.cpp:411] inception_5a/3x3 -> inception_5a/3x3
I1126 12:33:33.087087 19982 net.cpp:150] Setting up inception_5a/3x3
I1126 12:33:33.087103 19982 net.cpp:157] Top shape: 64 320 7 7 (1003520)
I1126 12:33:33.087107 19982 net.cpp:165] Memory required for data: 3465159176
I1126 12:33:33.087113 19982 layer_factory.hpp:76] Creating layer inception_5a/relu_3x3
I1126 12:33:33.087118 19982 net.cpp:106] Creating Layer inception_5a/relu_3x3
I1126 12:33:33.087122 19982 net.cpp:454] inception_5a/relu_3x3 <- inception_5a/3x3
I1126 12:33:33.087127 19982 net.cpp:397] inception_5a/relu_3x3 -> inception_5a/3x3 (in-place)
I1126 12:33:33.087298 19982 net.cpp:150] Setting up inception_5a/relu_3x3
I1126 12:33:33.087309 19982 net.cpp:157] Top shape: 64 320 7 7 (1003520)
I1126 12:33:33.087312 19982 net.cpp:165] Memory required for data: 3469173256
I1126 12:33:33.087316 19982 layer_factory.hpp:76] Creating layer inception_5a/5x5_reduce
I1126 12:33:33.087323 19982 net.cpp:106] Creating Layer inception_5a/5x5_reduce
I1126 12:33:33.087327 19982 net.cpp:454] inception_5a/5x5_reduce <- pool4/3x3_s2_pool4/3x3_s2_0_split_2
I1126 12:33:33.087333 19982 net.cpp:411] inception_5a/5x5_reduce -> inception_5a/5x5_reduce
I1126 12:33:33.088582 19982 net.cpp:150] Setting up inception_5a/5x5_reduce
I1126 12:33:33.088596 19982 net.cpp:157] Top shape: 64 32 7 7 (100352)
I1126 12:33:33.088599 19982 net.cpp:165] Memory required for data: 3469574664
I1126 12:33:33.088605 19982 layer_factory.hpp:76] Creating layer inception_5a/relu_5x5_reduce
I1126 12:33:33.088611 19982 net.cpp:106] Creating Layer inception_5a/relu_5x5_reduce
I1126 12:33:33.088615 19982 net.cpp:454] inception_5a/relu_5x5_reduce <- inception_5a/5x5_reduce
I1126 12:33:33.088621 19982 net.cpp:397] inception_5a/relu_5x5_reduce -> inception_5a/5x5_reduce (in-place)
I1126 12:33:33.088789 19982 net.cpp:150] Setting up inception_5a/relu_5x5_reduce
I1126 12:33:33.088801 19982 net.cpp:157] Top shape: 64 32 7 7 (100352)
I1126 12:33:33.088804 19982 net.cpp:165] Memory required for data: 3469976072
I1126 12:33:33.088807 19982 layer_factory.hpp:76] Creating layer inception_5a/5x5
I1126 12:33:33.088814 19982 net.cpp:106] Creating Layer inception_5a/5x5
I1126 12:33:33.088819 19982 net.cpp:454] inception_5a/5x5 <- inception_5a/5x5_reduce
I1126 12:33:33.088824 19982 net.cpp:411] inception_5a/5x5 -> inception_5a/5x5
I1126 12:33:33.090512 19982 net.cpp:150] Setting up inception_5a/5x5
I1126 12:33:33.090525 19982 net.cpp:157] Top shape: 64 128 7 7 (401408)
I1126 12:33:33.090529 19982 net.cpp:165] Memory required for data: 3471581704
I1126 12:33:33.090534 19982 layer_factory.hpp:76] Creating layer inception_5a/relu_5x5
I1126 12:33:33.090540 19982 net.cpp:106] Creating Layer inception_5a/relu_5x5
I1126 12:33:33.090544 19982 net.cpp:454] inception_5a/relu_5x5 <- inception_5a/5x5
I1126 12:33:33.090551 19982 net.cpp:397] inception_5a/relu_5x5 -> inception_5a/5x5 (in-place)
I1126 12:33:33.090880 19982 net.cpp:150] Setting up inception_5a/relu_5x5
I1126 12:33:33.090894 19982 net.cpp:157] Top shape: 64 128 7 7 (401408)
I1126 12:33:33.090898 19982 net.cpp:165] Memory required for data: 3473187336
I1126 12:33:33.090900 19982 layer_factory.hpp:76] Creating layer inception_5a/pool
I1126 12:33:33.090908 19982 net.cpp:106] Creating Layer inception_5a/pool
I1126 12:33:33.090910 19982 net.cpp:454] inception_5a/pool <- pool4/3x3_s2_pool4/3x3_s2_0_split_3
I1126 12:33:33.090920 19982 net.cpp:411] inception_5a/pool -> inception_5a/pool
I1126 12:33:33.091128 19982 net.cpp:150] Setting up inception_5a/pool
I1126 12:33:33.091140 19982 net.cpp:157] Top shape: 64 832 7 7 (2609152)
I1126 12:33:33.091145 19982 net.cpp:165] Memory required for data: 3483623944
I1126 12:33:33.091147 19982 layer_factory.hpp:76] Creating layer inception_5a/pool_proj
I1126 12:33:33.091155 19982 net.cpp:106] Creating Layer inception_5a/pool_proj
I1126 12:33:33.091158 19982 net.cpp:454] inception_5a/pool_proj <- inception_5a/pool
I1126 12:33:33.091164 19982 net.cpp:411] inception_5a/pool_proj -> inception_5a/pool_proj
I1126 12:33:33.093201 19982 net.cpp:150] Setting up inception_5a/pool_proj
I1126 12:33:33.093227 19982 net.cpp:157] Top shape: 64 128 7 7 (401408)
I1126 12:33:33.093231 19982 net.cpp:165] Memory required for data: 3485229576
I1126 12:33:33.093237 19982 layer_factory.hpp:76] Creating layer inception_5a/relu_pool_proj
I1126 12:33:33.093243 19982 net.cpp:106] Creating Layer inception_5a/relu_pool_proj
I1126 12:33:33.093247 19982 net.cpp:454] inception_5a/relu_pool_proj <- inception_5a/pool_proj
I1126 12:33:33.093252 19982 net.cpp:397] inception_5a/relu_pool_proj -> inception_5a/pool_proj (in-place)
I1126 12:33:33.093559 19982 net.cpp:150] Setting up inception_5a/relu_pool_proj
I1126 12:33:33.093572 19982 net.cpp:157] Top shape: 64 128 7 7 (401408)
I1126 12:33:33.093576 19982 net.cpp:165] Memory required for data: 3486835208
I1126 12:33:33.093580 19982 layer_factory.hpp:76] Creating layer inception_5a/output
I1126 12:33:33.093585 19982 net.cpp:106] Creating Layer inception_5a/output
I1126 12:33:33.093588 19982 net.cpp:454] inception_5a/output <- inception_5a/1x1
I1126 12:33:33.093593 19982 net.cpp:454] inception_5a/output <- inception_5a/3x3
I1126 12:33:33.093596 19982 net.cpp:454] inception_5a/output <- inception_5a/5x5
I1126 12:33:33.093600 19982 net.cpp:454] inception_5a/output <- inception_5a/pool_proj
I1126 12:33:33.093603 19982 net.cpp:411] inception_5a/output -> inception_5a/output
I1126 12:33:33.093641 19982 net.cpp:150] Setting up inception_5a/output
I1126 12:33:33.093647 19982 net.cpp:157] Top shape: 64 832 7 7 (2609152)
I1126 12:33:33.093650 19982 net.cpp:165] Memory required for data: 3497271816
I1126 12:33:33.093653 19982 layer_factory.hpp:76] Creating layer inception_5a/output_inception_5a/output_0_split
I1126 12:33:33.093658 19982 net.cpp:106] Creating Layer inception_5a/output_inception_5a/output_0_split
I1126 12:33:33.093662 19982 net.cpp:454] inception_5a/output_inception_5a/output_0_split <- inception_5a/output
I1126 12:33:33.093667 19982 net.cpp:411] inception_5a/output_inception_5a/output_0_split -> inception_5a/output_inception_5a/output_0_split_0
I1126 12:33:33.093672 19982 net.cpp:411] inception_5a/output_inception_5a/output_0_split -> inception_5a/output_inception_5a/output_0_split_1
I1126 12:33:33.093677 19982 net.cpp:411] inception_5a/output_inception_5a/output_0_split -> inception_5a/output_inception_5a/output_0_split_2
I1126 12:33:33.093683 19982 net.cpp:411] inception_5a/output_inception_5a/output_0_split -> inception_5a/output_inception_5a/output_0_split_3
I1126 12:33:33.093755 19982 net.cpp:150] Setting up inception_5a/output_inception_5a/output_0_split
I1126 12:33:33.093763 19982 net.cpp:157] Top shape: 64 832 7 7 (2609152)
I1126 12:33:33.093766 19982 net.cpp:157] Top shape: 64 832 7 7 (2609152)
I1126 12:33:33.093770 19982 net.cpp:157] Top shape: 64 832 7 7 (2609152)
I1126 12:33:33.093772 19982 net.cpp:157] Top shape: 64 832 7 7 (2609152)
I1126 12:33:33.093775 19982 net.cpp:165] Memory required for data: 3539018248
I1126 12:33:33.093778 19982 layer_factory.hpp:76] Creating layer inception_5b/1x1
I1126 12:33:33.093786 19982 net.cpp:106] Creating Layer inception_5b/1x1
I1126 12:33:33.093789 19982 net.cpp:454] inception_5b/1x1 <- inception_5a/output_inception_5a/output_0_split_0
I1126 12:33:33.093797 19982 net.cpp:411] inception_5b/1x1 -> inception_5b/1x1
I1126 12:33:33.097070 19982 net.cpp:150] Setting up inception_5b/1x1
I1126 12:33:33.097085 19982 net.cpp:157] Top shape: 64 384 7 7 (1204224)
I1126 12:33:33.097090 19982 net.cpp:165] Memory required for data: 3543835144
I1126 12:33:33.097095 19982 layer_factory.hpp:76] Creating layer inception_5b/relu_1x1
I1126 12:33:33.097100 19982 net.cpp:106] Creating Layer inception_5b/relu_1x1
I1126 12:33:33.097105 19982 net.cpp:454] inception_5b/relu_1x1 <- inception_5b/1x1
I1126 12:33:33.097110 19982 net.cpp:397] inception_5b/relu_1x1 -> inception_5b/1x1 (in-place)
I1126 12:33:33.097414 19982 net.cpp:150] Setting up inception_5b/relu_1x1
I1126 12:33:33.097427 19982 net.cpp:157] Top shape: 64 384 7 7 (1204224)
I1126 12:33:33.097430 19982 net.cpp:165] Memory required for data: 3548652040
I1126 12:33:33.097434 19982 layer_factory.hpp:76] Creating layer inception_5b/3x3_reduce
I1126 12:33:33.097441 19982 net.cpp:106] Creating Layer inception_5b/3x3_reduce
I1126 12:33:33.097445 19982 net.cpp:454] inception_5b/3x3_reduce <- inception_5a/output_inception_5a/output_0_split_1
I1126 12:33:33.097451 19982 net.cpp:411] inception_5b/3x3_reduce -> inception_5b/3x3_reduce
I1126 12:33:33.099802 19982 net.cpp:150] Setting up inception_5b/3x3_reduce
I1126 12:33:33.099817 19982 net.cpp:157] Top shape: 64 192 7 7 (602112)
I1126 12:33:33.099831 19982 net.cpp:165] Memory required for data: 3551060488
I1126 12:33:33.099838 19982 layer_factory.hpp:76] Creating layer inception_5b/relu_3x3_reduce
I1126 12:33:33.099843 19982 net.cpp:106] Creating Layer inception_5b/relu_3x3_reduce
I1126 12:33:33.099848 19982 net.cpp:454] inception_5b/relu_3x3_reduce <- inception_5b/3x3_reduce
I1126 12:33:33.099854 19982 net.cpp:397] inception_5b/relu_3x3_reduce -> inception_5b/3x3_reduce (in-place)
I1126 12:33:33.100029 19982 net.cpp:150] Setting up inception_5b/relu_3x3_reduce
I1126 12:33:33.100041 19982 net.cpp:157] Top shape: 64 192 7 7 (602112)
I1126 12:33:33.100044 19982 net.cpp:165] Memory required for data: 3553468936
I1126 12:33:33.100047 19982 layer_factory.hpp:76] Creating layer inception_5b/3x3
I1126 12:33:33.100055 19982 net.cpp:106] Creating Layer inception_5b/3x3
I1126 12:33:33.100059 19982 net.cpp:454] inception_5b/3x3 <- inception_5b/3x3_reduce
I1126 12:33:33.100065 19982 net.cpp:411] inception_5b/3x3 -> inception_5b/3x3
I1126 12:33:33.105626 19982 net.cpp:150] Setting up inception_5b/3x3
I1126 12:33:33.105653 19982 net.cpp:157] Top shape: 64 384 7 7 (1204224)
I1126 12:33:33.105655 19982 net.cpp:165] Memory required for data: 3558285832
I1126 12:33:33.105661 19982 layer_factory.hpp:76] Creating layer inception_5b/relu_3x3
I1126 12:33:33.105669 19982 net.cpp:106] Creating Layer inception_5b/relu_3x3
I1126 12:33:33.105672 19982 net.cpp:454] inception_5b/relu_3x3 <- inception_5b/3x3
I1126 12:33:33.105677 19982 net.cpp:397] inception_5b/relu_3x3 -> inception_5b/3x3 (in-place)
I1126 12:33:33.105991 19982 net.cpp:150] Setting up inception_5b/relu_3x3
I1126 12:33:33.106004 19982 net.cpp:157] Top shape: 64 384 7 7 (1204224)
I1126 12:33:33.106008 19982 net.cpp:165] Memory required for data: 3563102728
I1126 12:33:33.106010 19982 layer_factory.hpp:76] Creating layer inception_5b/5x5_reduce
I1126 12:33:33.106020 19982 net.cpp:106] Creating Layer inception_5b/5x5_reduce
I1126 12:33:33.106024 19982 net.cpp:454] inception_5b/5x5_reduce <- inception_5a/output_inception_5a/output_0_split_2
I1126 12:33:33.106029 19982 net.cpp:411] inception_5b/5x5_reduce -> inception_5b/5x5_reduce
I1126 12:33:33.107588 19982 net.cpp:150] Setting up inception_5b/5x5_reduce
I1126 12:33:33.107614 19982 net.cpp:157] Top shape: 64 48 7 7 (150528)
I1126 12:33:33.107617 19982 net.cpp:165] Memory required for data: 3563704840
I1126 12:33:33.107622 19982 layer_factory.hpp:76] Creating layer inception_5b/relu_5x5_reduce
I1126 12:33:33.107628 19982 net.cpp:106] Creating Layer inception_5b/relu_5x5_reduce
I1126 12:33:33.107632 19982 net.cpp:454] inception_5b/relu_5x5_reduce <- inception_5b/5x5_reduce
I1126 12:33:33.107637 19982 net.cpp:397] inception_5b/relu_5x5_reduce -> inception_5b/5x5_reduce (in-place)
I1126 12:33:33.107955 19982 net.cpp:150] Setting up inception_5b/relu_5x5_reduce
I1126 12:33:33.107969 19982 net.cpp:157] Top shape: 64 48 7 7 (150528)
I1126 12:33:33.107972 19982 net.cpp:165] Memory required for data: 3564306952
I1126 12:33:33.107975 19982 layer_factory.hpp:76] Creating layer inception_5b/5x5
I1126 12:33:33.107983 19982 net.cpp:106] Creating Layer inception_5b/5x5
I1126 12:33:33.107986 19982 net.cpp:454] inception_5b/5x5 <- inception_5b/5x5_reduce
I1126 12:33:33.107993 19982 net.cpp:411] inception_5b/5x5 -> inception_5b/5x5
I1126 12:33:33.109910 19982 net.cpp:150] Setting up inception_5b/5x5
I1126 12:33:33.109923 19982 net.cpp:157] Top shape: 64 128 7 7 (401408)
I1126 12:33:33.109927 19982 net.cpp:165] Memory required for data: 3565912584
I1126 12:33:33.109932 19982 layer_factory.hpp:76] Creating layer inception_5b/relu_5x5
I1126 12:33:33.109938 19982 net.cpp:106] Creating Layer inception_5b/relu_5x5
I1126 12:33:33.109942 19982 net.cpp:454] inception_5b/relu_5x5 <- inception_5b/5x5
I1126 12:33:33.109946 19982 net.cpp:397] inception_5b/relu_5x5 -> inception_5b/5x5 (in-place)
I1126 12:33:33.110127 19982 net.cpp:150] Setting up inception_5b/relu_5x5
I1126 12:33:33.110138 19982 net.cpp:157] Top shape: 64 128 7 7 (401408)
I1126 12:33:33.110141 19982 net.cpp:165] Memory required for data: 3567518216
I1126 12:33:33.110144 19982 layer_factory.hpp:76] Creating layer inception_5b/pool
I1126 12:33:33.110149 19982 net.cpp:106] Creating Layer inception_5b/pool
I1126 12:33:33.110153 19982 net.cpp:454] inception_5b/pool <- inception_5a/output_inception_5a/output_0_split_3
I1126 12:33:33.110159 19982 net.cpp:411] inception_5b/pool -> inception_5b/pool
I1126 12:33:33.110522 19982 net.cpp:150] Setting up inception_5b/pool
I1126 12:33:33.110535 19982 net.cpp:157] Top shape: 64 832 7 7 (2609152)
I1126 12:33:33.110538 19982 net.cpp:165] Memory required for data: 3577954824
I1126 12:33:33.110541 19982 layer_factory.hpp:76] Creating layer inception_5b/pool_proj
I1126 12:33:33.110549 19982 net.cpp:106] Creating Layer inception_5b/pool_proj
I1126 12:33:33.110553 19982 net.cpp:454] inception_5b/pool_proj <- inception_5b/pool
I1126 12:33:33.110560 19982 net.cpp:411] inception_5b/pool_proj -> inception_5b/pool_proj
I1126 12:33:33.112633 19982 net.cpp:150] Setting up inception_5b/pool_proj
I1126 12:33:33.112658 19982 net.cpp:157] Top shape: 64 128 7 7 (401408)
I1126 12:33:33.112661 19982 net.cpp:165] Memory required for data: 3579560456
I1126 12:33:33.112668 19982 layer_factory.hpp:76] Creating layer inception_5b/relu_pool_proj
I1126 12:33:33.112673 19982 net.cpp:106] Creating Layer inception_5b/relu_pool_proj
I1126 12:33:33.112676 19982 net.cpp:454] inception_5b/relu_pool_proj <- inception_5b/pool_proj
I1126 12:33:33.112684 19982 net.cpp:397] inception_5b/relu_pool_proj -> inception_5b/pool_proj (in-place)
I1126 12:33:33.112850 19982 net.cpp:150] Setting up inception_5b/relu_pool_proj
I1126 12:33:33.112860 19982 net.cpp:157] Top shape: 64 128 7 7 (401408)
I1126 12:33:33.112864 19982 net.cpp:165] Memory required for data: 3581166088
I1126 12:33:33.112866 19982 layer_factory.hpp:76] Creating layer inception_5b/output
I1126 12:33:33.112872 19982 net.cpp:106] Creating Layer inception_5b/output
I1126 12:33:33.112876 19982 net.cpp:454] inception_5b/output <- inception_5b/1x1
I1126 12:33:33.112880 19982 net.cpp:454] inception_5b/output <- inception_5b/3x3
I1126 12:33:33.112884 19982 net.cpp:454] inception_5b/output <- inception_5b/5x5
I1126 12:33:33.112887 19982 net.cpp:454] inception_5b/output <- inception_5b/pool_proj
I1126 12:33:33.112891 19982 net.cpp:411] inception_5b/output -> inception_5b/output
I1126 12:33:33.112928 19982 net.cpp:150] Setting up inception_5b/output
I1126 12:33:33.112933 19982 net.cpp:157] Top shape: 64 1024 7 7 (3211264)
I1126 12:33:33.112936 19982 net.cpp:165] Memory required for data: 3594011144
I1126 12:33:33.112939 19982 layer_factory.hpp:76] Creating layer pool5/7x7_s1
I1126 12:33:33.112944 19982 net.cpp:106] Creating Layer pool5/7x7_s1
I1126 12:33:33.112947 19982 net.cpp:454] pool5/7x7_s1 <- inception_5b/output
I1126 12:33:33.112952 19982 net.cpp:411] pool5/7x7_s1 -> pool5/7x7_s1
I1126 12:33:33.113279 19982 net.cpp:150] Setting up pool5/7x7_s1
I1126 12:33:33.113292 19982 net.cpp:157] Top shape: 64 1024 1 1 (65536)
I1126 12:33:33.113296 19982 net.cpp:165] Memory required for data: 3594273288
I1126 12:33:33.113298 19982 layer_factory.hpp:76] Creating layer pool5/drop_7x7_s1
I1126 12:33:33.113304 19982 net.cpp:106] Creating Layer pool5/drop_7x7_s1
I1126 12:33:33.113308 19982 net.cpp:454] pool5/drop_7x7_s1 <- pool5/7x7_s1
I1126 12:33:33.113314 19982 net.cpp:397] pool5/drop_7x7_s1 -> pool5/7x7_s1 (in-place)
I1126 12:33:33.113348 19982 net.cpp:150] Setting up pool5/drop_7x7_s1
I1126 12:33:33.113354 19982 net.cpp:157] Top shape: 64 1024 1 1 (65536)
I1126 12:33:33.113356 19982 net.cpp:165] Memory required for data: 3594535432
I1126 12:33:33.113359 19982 layer_factory.hpp:76] Creating layer loss3/classifier-attribute
I1126 12:33:33.113365 19982 net.cpp:106] Creating Layer loss3/classifier-attribute
I1126 12:33:33.113368 19982 net.cpp:454] loss3/classifier-attribute <- pool5/7x7_s1
I1126 12:33:33.113374 19982 net.cpp:411] loss3/classifier-attribute -> loss3/classifier-attribute
I1126 12:33:33.180028 19982 net.cpp:150] Setting up loss3/classifier-attribute
I1126 12:33:33.180058 19982 net.cpp:157] Top shape: 64 9999 (639936)
I1126 12:33:33.180061 19982 net.cpp:165] Memory required for data: 3597095176
I1126 12:33:33.180069 19982 layer_factory.hpp:76] Creating layer loss3/loss3
I1126 12:33:33.180078 19982 net.cpp:106] Creating Layer loss3/loss3
I1126 12:33:33.180085 19982 net.cpp:454] loss3/loss3 <- loss3/classifier-attribute
I1126 12:33:33.180090 19982 net.cpp:454] loss3/loss3 <- label_data_1_split_2
I1126 12:33:33.180094 19982 net.cpp:411] loss3/loss3 -> loss3/loss3
…
I1126 12:33:33.189512 19982 net.cpp:322] The NetState phase (1) differed from the phase (0) specified by a rule in layer data
I1126 12:33:33.190454 19982 net.cpp:49] Initializing net from parameters: 
name: "GoogleNet-finetune-for-cigit"
state {
  phase: TEST
}
layer {
  name: "data"
  type: "ImageData"
  top: "data"
  top: "label"
  include {
    phase: TEST
  }
  transform_param {
    mirror: false
    crop_size: 224
    mean_value: 104
    mean_value: 117
    mean_value: 123
  }
  image_data_param {
    source: "pad_test.txt"
    batch_size: 64
    new_height: 256
    new_width: 256
  }
}
layer {
  name: "conv1/7x7_s2"
  type: "Convolution"
  bottom: "data"
  top: "conv1/7x7_s2"
  param {
    lr_mult: 1
    decay_mult: 1
  }
  param {
    lr_mult: 2
    decay_mult: 0
  }
  convolution_param {
    num_output: 64
    pad: 3
    kernel_size: 7
    stride: 2
    weight_filler {
      type: "xavier"
    }
    bias_filler {
      type: "constant"
      value: 0.2
    }
  }
}
layer {
  name: "conv1/relu_7x7"
  type: "ReLU"
  bottom: "conv1/7x7_s2"
  top: "conv1/7x7_s2"
}
layer {
  name: "pool1/3x3_s2"
  type: "Pooling"
  bottom: "conv1/7x7_s2"
  top: "pool1/3x3_s2"
  pooling_param {
    pool: MAX
    kernel_size: 3
    stride: 2
  }
}
layer {
  name: "pool1/norm1"
  type: "LRN"
  bottom: "pool1/3x3_s2"
  top: "pool1/norm1"
  lrn_param {
    local_size: 5
    alpha: 0.0001
    beta: 0.75
  }
}
layer {
  name: "conv2/3x3_reduce"
  type: "Convolution"
  bottom: "pool1/norm1"
  top: "conv2/3x3_reduce"
  param {
    lr_mult: 1
    decay_mult: 1
  }
  param {
    lr_mult: 2
    decay_mult: 0
  }
  convolution_param {
    num_output: 64
    kernel_size: 1
    weight_filler {
      type: "xavier"
    }
    bias_filler {
      type: "constant"
      value: 0.2
    }
  }
}
layer {
  name: "conv2/relu_3x3_reduce"
  type: "ReLU"
  bottom: "conv2/3x3_reduce"
  top: "conv2/3x3_reduce"
}
layer {
  name: "conv2/3x3"
  type: "Convolution"
  bottom: "conv2/3x3_reduce"
  top: "conv2/3x3"
  param {
    lr_mult: 1
    decay_mult: 1
  }
  param {
    lr_mult: 2
    decay_mult: 0
  }
  convolution_param {
    num_output: 192
    pad: 1
    kernel_size: 3
    weight_filler {
      type: "xavier"
    }
    bias_filler {
      type: "constant"
      value: 0.2
    }
  }
}
layer {
  name: "conv2/relu_3x3"
  type: "ReLU"
  bottom: "conv2/3x3"
  top: "conv2/3x3"
}
layer {
  name: "conv2/norm2"
  type: "LRN"
  bottom: "conv2/3x3"
  top: "conv2/norm2"
  lrn_param {
    local_size: 5
    alpha: 0.0001
    beta: 0.75
  }
}
layer {
  name: "pool2/3x3_s2"
  type: "Pooling"
  bottom: "conv2/norm2"
  top: "pool2/3x3_s2"
  pooling_param {
    pool: MAX
    kernel_size: 3
    stride: 2
  }
}
layer {
  name: "inception_3a/1x1"
  type: "Convolution"
  bottom: "pool2/3x3_s2"
  top: "inception_3a/1x1"
  param {
    lr_mult: 1
    decay_mult: 1
  }
  param {
    lr_mult: 2
    decay_mult: 0
  }
  convolution_param {
    num_output: 64
    kernel_size: 1
    weight_filler {
      type: "xavier"
    }
    bias_filler {
      type: "constant"
      value: 0.2
    }
  }
}
layer {
  name: "inception_3a/relu_1x1"
  type: "ReLU"
  bottom: "inception_3a/1x1"
  top: "inception_3a/1x1"
}
layer {
  name: "inception_3a/3x3_reduce"
  type: "Convolution"
  bottom: "pool2/3x3_s2"
  top: "inception_3a/3x3_reduce"
  param {
    lr_mult: 1
    decay_mult: 1
  }
  param {
    lr_mult: 2
    decay_mult: 0
  }
  convolution_param {
    num_output: 96
    kernel_size: 1
    weight_filler {
      type: "xavier"
    }
    bias_filler {
      type: "constant"
      value: 0.2
    }
  }
}
layer {
  name: "inception_3a/relu_3x3_reduce"
  type: "ReLU"
  bottom: "inception_3a/3x3_reduce"
  top: "inception_3a/3x3_reduce"
}
layer {
  name: "inception_3a/3x3"
  type: "Convolution"
  bottom: "inception_3a/3x3_reduce"
  top: "inception_3a/3x3"
  param {
    lr_mult: 1
    decay_mult: 1
  }
  param {
    lr_mult: 2
    decay_mult: 0
  }
  convolution_param {
    num_output: 128
    pad: 1
    kernel_size: 3
    weight_filler {
      type: "xavier"
    }
    bias_filler {
      type: "constant"
      value: 0.2
    }
  }
}
layer {
  name: "inception_3a/relu_3x3"
  type: "ReLU"
  bottom: "inception_3a/3x3"
  top: "inception_3a/3x3"
}
layer {
  name: "inception_3a/5x5_reduce"
  type: "Convolution"
  bottom: "pool2/3x3_s2"
  top: "inception_3a/5x5_reduce"
  param {
    lr_mult: 1
    decay_mult: 1
  }
  param {
    lr_mult: 2
    decay_mult: 0
  }
  convolution_param {
    num_output: 16
    kernel_size: 1
    weight_filler {
      type: "xavier"
    }
    bias_filler {
      type: "constant"
      value: 0.2
    }
  }
}
layer {
  name: "inception_3a/relu_5x5_reduce"
  type: "ReLU"
  bottom: "inception_3a/5x5_reduce"
  top: "inception_3a/5x5_reduce"
}
layer {
  name: "inception_3a/5x5"
  type: "Convolution"
  bottom: "inception_3a/5x5_reduce"
  top: "inception_3a/5x5"
  param {
    lr_mult: 1
    decay_mult: 1
  }
  param {
    lr_mult: 2
    decay_mult: 0
  }
  convolution_param {
    num_output: 32
    pad: 2
    kernel_size: 5
    weight_filler {
      type: "xavier"
    }
    bias_filler {
      type: "constant"
      value: 0.2
    }
  }
}
layer {
  name: "inception_3a/relu_5x5"
  type: "ReLU"
  bottom: "inception_3a/5x5"
  top: "inception_3a/5x5"
}
layer {
  name: "inception_3a/pool"
  type: "Pooling"
  bottom: "pool2/3x3_s2"
  top: "inception_3a/pool"
  pooling_param {
    pool: MAX
    kernel_size: 3
    stride: 1
    pad: 1
  }
}
layer {
  name: "inception_3a/pool_proj"
  type: "Convolution"
  bottom: "inception_3a/pool"
  top: "inception_3a/pool_proj"
  param {
    lr_mult: 1
    decay_mult: 1
  }
  param {
    lr_mult: 2
    decay_mult: 0
  }
  convolution_param {
    num_output: 32
    kernel_size: 1
    weight_filler {
      type: "xavier"
    }
    bias_filler {
      type: "constant"
      value: 0.2
    }
  }
}
layer {
  name: "inception_3a/relu_pool_proj"
  type: "ReLU"
  bottom: "inception_3a/pool_proj"
  top: "inception_3a/pool_proj"
}
layer {
  name: "inception_3a/output"
  type: "Concat"
  bottom: "inception_3a/1x1"
  bottom: "inception_3a/3x3"
  bottom: "inception_3a/5x5"
  bottom: "inception_3a/pool_proj"
  top: "inception_3a/output"
}
layer {
  name: "inception_3b/1x1"
  type: "Convolution"
  bottom: "inception_3a/output"
  top: "inception_3b/1x1"
  param {
    lr_mult: 1
    decay_mult: 1
  }
  param {
    lr_mult: 2
    decay_mult: 0
  }
  convolution_param {
    num_output: 128
    kernel_size: 1
    weight_filler {
      type: "xavier"
    }
    bias_filler {
      type: "constant"
      value: 0.2
    }
  }
}
layer {
  name: "inception_3b/relu_1x1"
  type: "ReLU"
  bottom: "inception_3b/1x1"
  top: "inception_3b/1x1"
}
layer {
  name: "inception_3b/3x3_reduce"
  type: "Convolution"
  bottom: "inception_3a/output"
  top: "inception_3b/3x3_reduce"
  param {
    lr_mult: 1
    decay_mult: 1
  }
  param {
    lr_mult: 2
    decay_mult: 0
  }
  convolution_param {
    num_output: 128
    kernel_size: 1
    weight_filler {
      type: "xavier"
    }
    bias_filler {
      type: "constant"
      value: 0.2
    }
  }
}
layer {
  name: "inception_3b/relu_3x3_reduce"
  type: "ReLU"
  bottom: "inception_3b/3x3_reduce"
  top: "inception_3b/3x3_reduce"
}
layer {
  name: "inception_3b/3x3"
  type: "Convolution"
  bottom: "inception_3b/3x3_reduce"
  top: "inception_3b/3x3"
  param {
    lr_mult: 1
    decay_mult: 1
  }
  param {
    lr_mult: 2
    decay_mult: 0
  }
  convolution_param {
    num_output: 192
    pad: 1
    kernel_size: 3
    weight_filler {
      type: "xavier"
    }
    bias_filler {
      type: "constant"
      value: 0.2
    }
  }
}
layer {
  name: "inception_3b/relu_3x3"
  type: "ReLU"
  bottom: "inception_3b/3x3"
  top: "inception_3b/3x3"
}
layer {
  name: "inception_3b/5x5_reduce"
  type: "Convolution"
  bottom: "inception_3a/output"
  top: "inception_3b/5x5_reduce"
  param {
    lr_mult: 1
    decay_mult: 1
  }
  param {
    lr_mult: 2
    decay_mult: 0
  }
  convolution_param {
    num_output: 32
    kernel_size: 1
    weight_filler {
      type: "xavier"
    }
    bias_filler {
      type: "constant"
      value: 0.2
    }
  }
}
layer {
  name: "inception_3b/relu_5x5_reduce"
  type: "ReLU"
  bottom: "inception_3b/5x5_reduce"
  top: "inception_3b/5x5_reduce"
}
layer {
  name: "inception_3b/5x5"
  type: "Convolution"
  bottom: "inception_3b/5x5_reduce"
  top: "inception_3b/5x5"
  param {
    lr_mult: 1
    decay_mult: 1
  }
  param {
    lr_mult: 2
    decay_mult: 0
  }
  convolution_param {
    num_output: 96
    pad: 2
    kernel_size: 5
    weight_filler {
      type: "xavier"
    }
    bias_filler {
      type: "constant"
      value: 0.2
    }
  }
}
layer {
  name: "inception_3b/relu_5x5"
  type: "ReLU"
  bottom: "inception_3b/5x5"
  top: "inception_3b/5x5"
}
layer {
  name: "inception_3b/pool"
  type: "Pooling"
  bottom: "inception_3a/output"
  top: "inception_3b/pool"
  pooling_param {
    pool: MAX
    kernel_size: 3
    stride: 1
    pad: 1
  }
}
layer {
  name: "inception_3b/pool_proj"
  type: "Convolution"
  bottom: "inception_3b/pool"
  top: "inception_3b/pool_proj"
  param {
    lr_mult: 1
    decay_mult: 1
  }
  param {
    lr_mult: 2
    decay_mult: 0
  }
  convolution_param {
    num_output: 64
    kernel_size: 1
    weight_filler {
      type: "xavier"
    }
    bias_filler {
      type: "constant"
      value: 0.2
    }
  }
}
layer {
  name: "inception_3b/relu_pool_proj"
  type: "ReLU"
  bottom: "inception_3b/pool_proj"
  top: "inception_3b/pool_proj"
}
layer {
  name: "inception_3b/output"
  type: "Concat"
  bottom: "inception_3b/1x1"
  bottom: "inception_3b/3x3"
  bottom: "inception_3b/5x5"
  bottom: "inception_3b/pool_proj"
  top: "inception_3b/output"
}
layer {
  name: "pool3/3x3_s2"
  type: "Pooling"
  bottom: "inception_3b/output"
  top: "pool3/3x3_s2"
  pooling_param {
    pool: MAX
    kernel_size: 3
    stride: 2
  }
}
layer {
  name: "inception_4a/1x1"
  type: "Convolution"
  bottom: "pool3/3x3_s2"
  top: "inception_4a/1x1"
  param {
    lr_mult: 1
    decay_mult: 1
  }
  param {
    lr_mult: 2
    decay_mult: 0
  }
  convolution_param {
    num_output: 192
    kernel_size: 1
    weight_filler {
      type: "xavier"
    }
    bias_filler {
      type: "constant"
      value: 0.2
    }
  }
}
layer {
  name: "inception_4a/relu_1x1"
  type: "ReLU"
  bottom: "inception_4a/1x1"
  top: "inception_4a/1x1"
}
layer {
  name: "inception_4a/3x3_reduce"
  type: "Convolution"
  bottom: "pool3/3x3_s2"
  top: "inception_4a/3x3_reduce"
  param {
    lr_mult: 1
    decay_mult: 1
  }
  param {
    lr_mult: 2
    decay_mult: 0
  }
  convolution_param {
    num_output: 96
    kernel_size: 1
    weight_filler {
      type: "xavier"
    }
    bias_filler {
      type: "constant"
      value: 0.2
    }
  }
}
layer {
  name: "inception_4a/relu_3x3_reduce"
  type: "ReLU"
  bottom: "inception_4a/3x3_reduce"
  top: "inception_4a/3x3_reduce"
}
layer {
  name: "inception_4a/3x3"
  type: "Convolution"
  bottom: "inception_4a/3x3_reduce"
  top: "inception_4a/3x3"
  param {
    lr_mult: 1
    decay_mult: 1
  }
  param {
    lr_mult: 2
    decay_mult: 0
  }
  convolution_param {
    num_output: 208
    pad: 1
    kernel_size: 3
    weight_filler {
      type: "xavier"
    }
    bias_filler {
      type: "constant"
      value: 0.2
    }
  }
}
layer {
  name: "inception_4a/relu_3x3"
  type: "ReLU"
  bottom: "inception_4a/3x3"
  top: "inception_4a/3x3"
}
layer {
  name: "inception_4a/5x5_reduce"
  type: "Convolution"
  bottom: "pool3/3x3_s2"
  top: "inception_4a/5x5_reduce"
  param {
    lr_mult: 1
    decay_mult: 1
  }
  param {
    lr_mult: 2
    decay_mult: 0
  }
  convolution_param {
    num_output: 16
    kernel_size: 1
    weight_filler {
      type: "xavier"
    }
    bias_filler {
      type: "constant"
      value: 0.2
    }
  }
}
layer {
  name: "inception_4a/relu_5x5_reduce"
  type: "ReLU"
  bottom: "inception_4a/5x5_reduce"
  top: "inception_4a/5x5_reduce"
}
layer {
  name: "inception_4a/5x5"
  type: "Convolution"
  bottom: "inception_4a/5x5_reduce"
  top: "inception_4a/5x5"
  param {
    lr_mult: 1
    decay_mult: 1
  }
  param {
    lr_mult: 2
    decay_mult: 0
  }
  convolution_param {
    num_output: 48
    pad: 2
    kernel_size: 5
    weight_filler {
      type: "xavier"
    }
    bias_filler {
      type: "constant"
      value: 0.2
    }
  }
}
layer {
  name: "inception_4a/relu_5x5"
  type: "ReLU"
  bottom: "inception_4a/5x5"
  top: "inception_4a/5x5"
}
layer {
  name: "inception_4a/pool"
  type: "Pooling"
  bottom: "pool3/3x3_s2"
  top: "inception_4a/pool"
  pooling_param {
    pool: MAX
    kernel_size: 3
    stride: 1
    pad: 1
  }
}
layer {
  name: "inception_4a/pool_proj"
  type: "Convolution"
  bottom: "inception_4a/pool"
  top: "inception_4a/pool_proj"
  param {
    lr_mult: 1
    decay_mult: 1
  }
  param {
    lr_mult: 2
    decay_mult: 0
  }
  convolution_param {
    num_output: 64
    kernel_size: 1
    weight_filler {
      type: "xavier"
    }
    bias_filler {
      type: "constant"
      value: 0.2
    }
  }
}
layer {
  name: "inception_4a/relu_pool_proj"
  type: "ReLU"
  bottom: "inception_4a/pool_proj"
  top: "inception_4a/pool_proj"
}
layer {
  name: "inception_4a/output"
  type: "Concat"
  bottom: "inception_4a/1x1"
  bottom: "inception_4a/3x3"
  bottom: "inception_4a/5x5"
  bottom: "inception_4a/pool_proj"
  top: "inception_4a/output"
}
layer {
  name: "loss1/ave_pool"
  type: "Pooling"
  bottom: "inception_4a/output"
  top: "loss1/ave_pool"
  pooling_param {
    pool: AVE
    kernel_size: 5
    stride: 3
  }
}
layer {
  name: "loss1/conv"
  type: "Convolution"
  bottom: "loss1/ave_pool"
  top: "loss1/conv"
  param {
    lr_mult: 1
    decay_mult: 1
  }
  param {
    lr_mult: 2
    decay_mult: 0
  }
  convolution_param {
    num_output: 128
    kernel_size: 1
    weight_filler {
      type: "xavier"
    }
    bias_filler {
      type: "constant"
      value: 0.2
    }
  }
}
layer {
  name: "loss1/relu_conv"
  type: "ReLU"
  bottom: "loss1/conv"
  top: "loss1/conv"
}
layer {
  name: "loss1/fc"
  type: "InnerProduct"
  bottom: "loss1/conv"
  top: "loss1/fc"
  param {
    lr_mult: 1
    decay_mult: 1
  }
  param {
    lr_mult: 2
    decay_mult: 0
  }
…
I1126 12:33:33.493508 19982 net.cpp:106] Creating Layer inception_4c/pool
I1126 12:33:33.493512 19982 net.cpp:454] inception_4c/pool <- inception_4b/output_inception_4b/output_0_split_3
I1126 12:33:33.493518 19982 net.cpp:411] inception_4c/pool -> inception_4c/pool
I1126 12:33:33.493780 19982 net.cpp:150] Setting up inception_4c/pool
I1126 12:33:33.493793 19982 net.cpp:157] Top shape: 64 512 14 14 (6422528)
I1126 12:33:33.493795 19982 net.cpp:165] Memory required for data: 2835919880
I1126 12:33:33.493799 19982 layer_factory.hpp:76] Creating layer inception_4c/pool_proj
I1126 12:33:33.493808 19982 net.cpp:106] Creating Layer inception_4c/pool_proj
I1126 12:33:33.493811 19982 net.cpp:454] inception_4c/pool_proj <- inception_4c/pool
I1126 12:33:33.493818 19982 net.cpp:411] inception_4c/pool_proj -> inception_4c/pool_proj
I1126 12:33:33.495371 19982 net.cpp:150] Setting up inception_4c/pool_proj
I1126 12:33:33.495386 19982 net.cpp:157] Top shape: 64 64 14 14 (802816)
I1126 12:33:33.495389 19982 net.cpp:165] Memory required for data: 2839131144
I1126 12:33:33.495396 19982 layer_factory.hpp:76] Creating layer inception_4c/relu_pool_proj
I1126 12:33:33.495401 19982 net.cpp:106] Creating Layer inception_4c/relu_pool_proj
I1126 12:33:33.495406 19982 net.cpp:454] inception_4c/relu_pool_proj <- inception_4c/pool_proj
I1126 12:33:33.495412 19982 net.cpp:397] inception_4c/relu_pool_proj -> inception_4c/pool_proj (in-place)
I1126 12:33:33.495774 19982 net.cpp:150] Setting up inception_4c/relu_pool_proj
I1126 12:33:33.495789 19982 net.cpp:157] Top shape: 64 64 14 14 (802816)
I1126 12:33:33.495792 19982 net.cpp:165] Memory required for data: 2842342408
I1126 12:33:33.495795 19982 layer_factory.hpp:76] Creating layer inception_4c/output
I1126 12:33:33.495801 19982 net.cpp:106] Creating Layer inception_4c/output
I1126 12:33:33.495805 19982 net.cpp:454] inception_4c/output <- inception_4c/1x1
I1126 12:33:33.495810 19982 net.cpp:454] inception_4c/output <- inception_4c/3x3
I1126 12:33:33.495813 19982 net.cpp:454] inception_4c/output <- inception_4c/5x5
I1126 12:33:33.495817 19982 net.cpp:454] inception_4c/output <- inception_4c/pool_proj
I1126 12:33:33.495823 19982 net.cpp:411] inception_4c/output -> inception_4c/output
I1126 12:33:33.495875 19982 net.cpp:150] Setting up inception_4c/output
I1126 12:33:33.495882 19982 net.cpp:157] Top shape: 64 512 14 14 (6422528)
I1126 12:33:33.495884 19982 net.cpp:165] Memory required for data: 2868032520
I1126 12:33:33.495887 19982 layer_factory.hpp:76] Creating layer inception_4c/output_inception_4c/output_0_split
I1126 12:33:33.495893 19982 net.cpp:106] Creating Layer inception_4c/output_inception_4c/output_0_split
I1126 12:33:33.495896 19982 net.cpp:454] inception_4c/output_inception_4c/output_0_split <- inception_4c/output
I1126 12:33:33.495901 19982 net.cpp:411] inception_4c/output_inception_4c/output_0_split -> inception_4c/output_inception_4c/output_0_split_0
I1126 12:33:33.495908 19982 net.cpp:411] inception_4c/output_inception_4c/output_0_split -> inception_4c/output_inception_4c/output_0_split_1
I1126 12:33:33.495915 19982 net.cpp:411] inception_4c/output_inception_4c/output_0_split -> inception_4c/output_inception_4c/output_0_split_2
I1126 12:33:33.495921 19982 net.cpp:411] inception_4c/output_inception_4c/output_0_split -> inception_4c/output_inception_4c/output_0_split_3
I1126 12:33:33.496047 19982 net.cpp:150] Setting up inception_4c/output_inception_4c/output_0_split
I1126 12:33:33.496057 19982 net.cpp:157] Top shape: 64 512 14 14 (6422528)
I1126 12:33:33.496062 19982 net.cpp:157] Top shape: 64 512 14 14 (6422528)
I1126 12:33:33.496065 19982 net.cpp:157] Top shape: 64 512 14 14 (6422528)
I1126 12:33:33.496068 19982 net.cpp:157] Top shape: 64 512 14 14 (6422528)
I1126 12:33:33.496070 19982 net.cpp:165] Memory required for data: 2970792968
I1126 12:33:33.496074 19982 layer_factory.hpp:76] Creating layer inception_4d/1x1
I1126 12:33:33.496083 19982 net.cpp:106] Creating Layer inception_4d/1x1
I1126 12:33:33.496088 19982 net.cpp:454] inception_4d/1x1 <- inception_4c/output_inception_4c/output_0_split_0
I1126 12:33:33.496094 19982 net.cpp:411] inception_4d/1x1 -> inception_4d/1x1
I1126 12:33:33.497665 19982 net.cpp:150] Setting up inception_4d/1x1
I1126 12:33:33.497680 19982 net.cpp:157] Top shape: 64 112 14 14 (1404928)
I1126 12:33:33.497684 19982 net.cpp:165] Memory required for data: 2976412680
I1126 12:33:33.497690 19982 layer_factory.hpp:76] Creating layer inception_4d/relu_1x1
I1126 12:33:33.497697 19982 net.cpp:106] Creating Layer inception_4d/relu_1x1
I1126 12:33:33.497701 19982 net.cpp:454] inception_4d/relu_1x1 <- inception_4d/1x1
I1126 12:33:33.497706 19982 net.cpp:397] inception_4d/relu_1x1 -> inception_4d/1x1 (in-place)
I1126 12:33:33.498073 19982 net.cpp:150] Setting up inception_4d/relu_1x1
I1126 12:33:33.498087 19982 net.cpp:157] Top shape: 64 112 14 14 (1404928)
I1126 12:33:33.498090 19982 net.cpp:165] Memory required for data: 2982032392
I1126 12:33:33.498095 19982 layer_factory.hpp:76] Creating layer inception_4d/3x3_reduce
I1126 12:33:33.498105 19982 net.cpp:106] Creating Layer inception_4d/3x3_reduce
I1126 12:33:33.498108 19982 net.cpp:454] inception_4d/3x3_reduce <- inception_4c/output_inception_4c/output_0_split_1
I1126 12:33:33.498114 19982 net.cpp:411] inception_4d/3x3_reduce -> inception_4d/3x3_reduce
I1126 12:33:33.499992 19982 net.cpp:150] Setting up inception_4d/3x3_reduce
I1126 12:33:33.500007 19982 net.cpp:157] Top shape: 64 144 14 14 (1806336)
I1126 12:33:33.500011 19982 net.cpp:165] Memory required for data: 2989257736
I1126 12:33:33.500017 19982 layer_factory.hpp:76] Creating layer inception_4d/relu_3x3_reduce
I1126 12:33:33.500023 19982 net.cpp:106] Creating Layer inception_4d/relu_3x3_reduce
I1126 12:33:33.500027 19982 net.cpp:454] inception_4d/relu_3x3_reduce <- inception_4d/3x3_reduce
I1126 12:33:33.500032 19982 net.cpp:397] inception_4d/relu_3x3_reduce -> inception_4d/3x3_reduce (in-place)
I1126 12:33:33.500237 19982 net.cpp:150] Setting up inception_4d/relu_3x3_reduce
I1126 12:33:33.500249 19982 net.cpp:157] Top shape: 64 144 14 14 (1806336)
I1126 12:33:33.500252 19982 net.cpp:165] Memory required for data: 2996483080
I1126 12:33:33.500255 19982 layer_factory.hpp:76] Creating layer inception_4d/3x3
I1126 12:33:33.500264 19982 net.cpp:106] Creating Layer inception_4d/3x3
I1126 12:33:33.500268 19982 net.cpp:454] inception_4d/3x3 <- inception_4d/3x3_reduce
I1126 12:33:33.500274 19982 net.cpp:411] inception_4d/3x3 -> inception_4d/3x3
I1126 12:33:33.504565 19982 net.cpp:150] Setting up inception_4d/3x3
I1126 12:33:33.504581 19982 net.cpp:157] Top shape: 64 288 14 14 (3612672)
I1126 12:33:33.504585 19982 net.cpp:165] Memory required for data: 3010933768
I1126 12:33:33.504591 19982 layer_factory.hpp:76] Creating layer inception_4d/relu_3x3
I1126 12:33:33.504598 19982 net.cpp:106] Creating Layer inception_4d/relu_3x3
I1126 12:33:33.504603 19982 net.cpp:454] inception_4d/relu_3x3 <- inception_4d/3x3
I1126 12:33:33.504608 19982 net.cpp:397] inception_4d/relu_3x3 -> inception_4d/3x3 (in-place)
I1126 12:33:33.504964 19982 net.cpp:150] Setting up inception_4d/relu_3x3
I1126 12:33:33.504978 19982 net.cpp:157] Top shape: 64 288 14 14 (3612672)
I1126 12:33:33.504981 19982 net.cpp:165] Memory required for data: 3025384456
I1126 12:33:33.504986 19982 layer_factory.hpp:76] Creating layer inception_4d/5x5_reduce
I1126 12:33:33.504994 19982 net.cpp:106] Creating Layer inception_4d/5x5_reduce
I1126 12:33:33.505000 19982 net.cpp:454] inception_4d/5x5_reduce <- inception_4c/output_inception_4c/output_0_split_2
I1126 12:33:33.505007 19982 net.cpp:411] inception_4d/5x5_reduce -> inception_4d/5x5_reduce
I1126 12:33:33.506453 19982 net.cpp:150] Setting up inception_4d/5x5_reduce
I1126 12:33:33.506466 19982 net.cpp:157] Top shape: 64 32 14 14 (401408)
I1126 12:33:33.506470 19982 net.cpp:165] Memory required for data: 3026990088
I1126 12:33:33.506476 19982 layer_factory.hpp:76] Creating layer inception_4d/relu_5x5_reduce
I1126 12:33:33.506484 19982 net.cpp:106] Creating Layer inception_4d/relu_5x5_reduce
I1126 12:33:33.506489 19982 net.cpp:454] inception_4d/relu_5x5_reduce <- inception_4d/5x5_reduce
I1126 12:33:33.506494 19982 net.cpp:397] inception_4d/relu_5x5_reduce -> inception_4d/5x5_reduce (in-place)
I1126 12:33:33.506861 19982 net.cpp:150] Setting up inception_4d/relu_5x5_reduce
I1126 12:33:33.506878 19982 net.cpp:157] Top shape: 64 32 14 14 (401408)
I1126 12:33:33.506881 19982 net.cpp:165] Memory required for data: 3028595720
I1126 12:33:33.506885 19982 layer_factory.hpp:76] Creating layer inception_4d/5x5
I1126 12:33:33.506892 19982 net.cpp:106] Creating Layer inception_4d/5x5
I1126 12:33:33.506896 19982 net.cpp:454] inception_4d/5x5 <- inception_4d/5x5_reduce
I1126 12:33:33.506904 19982 net.cpp:411] inception_4d/5x5 -> inception_4d/5x5
I1126 12:33:33.508631 19982 net.cpp:150] Setting up inception_4d/5x5
I1126 12:33:33.508647 19982 net.cpp:157] Top shape: 64 64 14 14 (802816)
I1126 12:33:33.508651 19982 net.cpp:165] Memory required for data: 3031806984
I1126 12:33:33.508657 19982 layer_factory.hpp:76] Creating layer inception_4d/relu_5x5
I1126 12:33:33.508664 19982 net.cpp:106] Creating Layer inception_4d/relu_5x5
I1126 12:33:33.508669 19982 net.cpp:454] inception_4d/relu_5x5 <- inception_4d/5x5
I1126 12:33:33.508674 19982 net.cpp:397] inception_4d/relu_5x5 -> inception_4d/5x5 (in-place)
I1126 12:33:33.508878 19982 net.cpp:150] Setting up inception_4d/relu_5x5
I1126 12:33:33.508890 19982 net.cpp:157] Top shape: 64 64 14 14 (802816)
I1126 12:33:33.508893 19982 net.cpp:165] Memory required for data: 3035018248
I1126 12:33:33.508896 19982 layer_factory.hpp:76] Creating layer inception_4d/pool
I1126 12:33:33.508903 19982 net.cpp:106] Creating Layer inception_4d/pool
I1126 12:33:33.508906 19982 net.cpp:454] inception_4d/pool <- inception_4c/output_inception_4c/output_0_split_3
I1126 12:33:33.508913 19982 net.cpp:411] inception_4d/pool -> inception_4d/pool
I1126 12:33:33.509346 19982 net.cpp:150] Setting up inception_4d/pool
I1126 12:33:33.509361 19982 net.cpp:157] Top shape: 64 512 14 14 (6422528)
I1126 12:33:33.509364 19982 net.cpp:165] Memory required for data: 3060708360
I1126 12:33:33.509367 19982 layer_factory.hpp:76] Creating layer inception_4d/pool_proj
I1126 12:33:33.509377 19982 net.cpp:106] Creating Layer inception_4d/pool_proj
I1126 12:33:33.509382 19982 net.cpp:454] inception_4d/pool_proj <- inception_4d/pool
I1126 12:33:33.509388 19982 net.cpp:411] inception_4d/pool_proj -> inception_4d/pool_proj
I1126 12:33:33.510972 19982 net.cpp:150] Setting up inception_4d/pool_proj
I1126 12:33:33.510987 19982 net.cpp:157] Top shape: 64 64 14 14 (802816)
I1126 12:33:33.510992 19982 net.cpp:165] Memory required for data: 3063919624
I1126 12:33:33.510998 19982 layer_factory.hpp:76] Creating layer inception_4d/relu_pool_proj
I1126 12:33:33.511003 19982 net.cpp:106] Creating Layer inception_4d/relu_pool_proj
I1126 12:33:33.511008 19982 net.cpp:454] inception_4d/relu_pool_proj <- inception_4d/pool_proj
I1126 12:33:33.511014 19982 net.cpp:397] inception_4d/relu_pool_proj -> inception_4d/pool_proj (in-place)
I1126 12:33:33.511220 19982 net.cpp:150] Setting up inception_4d/relu_pool_proj
I1126 12:33:33.511232 19982 net.cpp:157] Top shape: 64 64 14 14 (802816)
I1126 12:33:33.511235 19982 net.cpp:165] Memory required for data: 3067130888
I1126 12:33:33.511239 19982 layer_factory.hpp:76] Creating layer inception_4d/output
I1126 12:33:33.511245 19982 net.cpp:106] Creating Layer inception_4d/output
I1126 12:33:33.511250 19982 net.cpp:454] inception_4d/output <- inception_4d/1x1
I1126 12:33:33.511255 19982 net.cpp:454] inception_4d/output <- inception_4d/3x3
I1126 12:33:33.511258 19982 net.cpp:454] inception_4d/output <- inception_4d/5x5
I1126 12:33:33.511261 19982 net.cpp:454] inception_4d/output <- inception_4d/pool_proj
I1126 12:33:33.511266 19982 net.cpp:411] inception_4d/output -> inception_4d/output
I1126 12:33:33.511317 19982 net.cpp:150] Setting up inception_4d/output
I1126 12:33:33.511329 19982 net.cpp:157] Top shape: 64 528 14 14 (6623232)
I1126 12:33:33.511332 19982 net.cpp:165] Memory required for data: 3093623816
I1126 12:33:33.511335 19982 layer_factory.hpp:76] Creating layer inception_4d/output_inception_4d/output_0_split
I1126 12:33:33.511342 19982 net.cpp:106] Creating Layer inception_4d/output_inception_4d/output_0_split
I1126 12:33:33.511344 19982 net.cpp:454] inception_4d/output_inception_4d/output_0_split <- inception_4d/output
I1126 12:33:33.511353 19982 net.cpp:411] inception_4d/output_inception_4d/output_0_split -> inception_4d/output_inception_4d/output_0_split_0
I1126 12:33:33.511359 19982 net.cpp:411] inception_4d/output_inception_4d/output_0_split -> inception_4d/output_inception_4d/output_0_split_1
I1126 12:33:33.511365 19982 net.cpp:411] inception_4d/output_inception_4d/output_0_split -> inception_4d/output_inception_4d/output_0_split_2
I1126 12:33:33.511371 19982 net.cpp:411] inception_4d/output_inception_4d/output_0_split -> inception_4d/output_inception_4d/output_0_split_3
I1126 12:33:33.511375 19982 net.cpp:411] inception_4d/output_inception_4d/output_0_split -> inception_4d/output_inception_4d/output_0_split_4
I1126 12:33:33.511512 19982 net.cpp:150] Setting up inception_4d/output_inception_4d/output_0_split
I1126 12:33:33.511520 19982 net.cpp:157] Top shape: 64 528 14 14 (6623232)
I1126 12:33:33.511524 19982 net.cpp:157] Top shape: 64 528 14 14 (6623232)
I1126 12:33:33.511528 19982 net.cpp:157] Top shape: 64 528 14 14 (6623232)
I1126 12:33:33.511531 19982 net.cpp:157] Top shape: 64 528 14 14 (6623232)
I1126 12:33:33.511534 19982 net.cpp:157] Top shape: 64 528 14 14 (6623232)
I1126 12:33:33.511538 19982 net.cpp:165] Memory required for data: 3226088456
I1126 12:33:33.511540 19982 layer_factory.hpp:76] Creating layer loss2/ave_pool
I1126 12:33:33.511546 19982 net.cpp:106] Creating Layer loss2/ave_pool
I1126 12:33:33.511549 19982 net.cpp:454] loss2/ave_pool <- inception_4d/output_inception_4d/output_0_split_0
I1126 12:33:33.511556 19982 net.cpp:411] loss2/ave_pool -> loss2/ave_pool
I1126 12:33:33.511997 19982 net.cpp:150] Setting up loss2/ave_pool
I1126 12:33:33.512012 19982 net.cpp:157] Top shape: 64 528 4 4 (540672)
I1126 12:33:33.512015 19982 net.cpp:165] Memory required for data: 3228251144
I1126 12:33:33.512018 19982 layer_factory.hpp:76] Creating layer loss2/conv
I1126 12:33:33.512027 19982 net.cpp:106] Creating Layer loss2/conv
I1126 12:33:33.512032 19982 net.cpp:454] loss2/conv <- loss2/ave_pool
I1126 12:33:33.512038 19982 net.cpp:411] loss2/conv -> loss2/conv
I1126 12:33:33.514153 19982 net.cpp:150] Setting up loss2/conv
I1126 12:33:33.514168 19982 net.cpp:157] Top shape: 64 128 4 4 (131072)
I1126 12:33:33.514171 19982 net.cpp:165] Memory required for data: 3228775432
I1126 12:33:33.514178 19982 layer_factory.hpp:76] Creating layer loss2/relu_conv
I1126 12:33:33.514183 19982 net.cpp:106] Creating Layer loss2/relu_conv
I1126 12:33:33.514188 19982 net.cpp:454] loss2/relu_conv <- loss2/conv
I1126 12:33:33.514194 19982 net.cpp:397] loss2/relu_conv -> loss2/conv (in-place)
I1126 12:33:33.514556 19982 net.cpp:150] Setting up loss2/relu_conv
I1126 12:33:33.514570 19982 net.cpp:157] Top shape: 64 128 4 4 (131072)
I1126 12:33:33.514574 19982 net.cpp:165] Memory required for data: 3229299720
I1126 12:33:33.514577 19982 layer_factory.hpp:76] Creating layer loss2/fc
I1126 12:33:33.514586 19982 net.cpp:106] Creating Layer loss2/fc
I1126 12:33:33.514590 19982 net.cpp:454] loss2/fc <- loss2/conv
I1126 12:33:33.514596 19982 net.cpp:411] loss2/fc -> loss2/fc
I1126 12:33:33.530167 19982 net.cpp:150] Setting up loss2/fc
I1126 12:33:33.530184 19982 net.cpp:157] Top shape: 64 1024 (65536)
I1126 12:33:33.530186 19982 net.cpp:165] Memory required for data: 3229561864
I1126 12:33:33.530194 19982 layer_factory.hpp:76] Creating layer loss2/relu_fc
I1126 12:33:33.530200 19982 net.cpp:106] Creating Layer loss2/relu_fc
I1126 12:33:33.530203 19982 net.cpp:454] loss2/relu_fc <- loss2/fc
I1126 12:33:33.530210 19982 net.cpp:397] loss2/relu_fc -> loss2/fc (in-place)
I1126 12:33:33.530436 19982 net.cpp:150] Setting up loss2/relu_fc
I1126 12:33:33.530448 19982 net.cpp:157] Top shape: 64 1024 (65536)
I1126 12:33:33.530454 19982 net.cpp:165] Memory required for data: 3229824008
I1126 12:33:33.530457 19982 layer_factory.hpp:76] Creating layer loss2/drop_fc
I1126 12:33:33.530464 19982 net.cpp:106] Creating Layer loss2/drop_fc
I1126 12:33:33.530468 19982 net.cpp:454] loss2/drop_fc <- loss2/fc
I1126 12:33:33.530472 19982 net.cpp:397] loss2/drop_fc -> loss2/fc (in-place)
I1126 12:33:33.530524 19982 net.cpp:150] Setting up loss2/drop_fc
I1126 12:33:33.530531 19982 net.cpp:157] Top shape: 64 1024 (65536)
I1126 12:33:33.530534 19982 net.cpp:165] Memory required for data: 3230086152
I1126 12:33:33.530537 19982 layer_factory.hpp:76] Creating layer loss2/classifier-attribute
I1126 12:33:33.530545 19982 net.cpp:106] Creating Layer loss2/classifier-attribute
I1126 12:33:33.530549 19982 net.cpp:454] loss2/classifier-attribute <- loss2/fc
I1126 12:33:33.530553 19982 net.cpp:411] loss2/classifier-attribute -> loss2/classifier-attribute
I1126 12:33:33.607786 19982 net.cpp:150] Setting up loss2/classifier-attribute
I1126 12:33:33.607808 19982 net.cpp:157] Top shape: 64 9999 (639936)
I1126 12:33:33.607812 19982 net.cpp:165] Memory required for data: 3232645896
I1126 12:33:33.607821 19982 layer_factory.hpp:76] Creating layer loss2/classifier-attribute_loss2/classifier-attribute_0_split
I1126 12:33:33.607830 19982 net.cpp:106] Creating Layer loss2/classifier-attribute_loss2/classifier-attribute_0_split
I1126 12:33:33.607836 19982 net.cpp:454] loss2/classifier-attribute_loss2/classifier-attribute_0_split <- loss2/classifier-attribute
I1126 12:33:33.607844 19982 net.cpp:411] loss2/classifier-attribute_loss2/classifier-attribute_0_split -> loss2/classifier-attribute_loss2/classifier-attribute_0_split_0
I1126 12:33:33.607853 19982 net.cpp:411] loss2/classifier-attribute_loss2/classifier-attribute_0_split -> loss2/classifier-attribute_loss2/classifier-attribute_0_split_1
I1126 12:33:33.607926 19982 net.cpp:150] Setting up loss2/classifier-attribute_loss2/classifier-attribute_0_split
I1126 12:33:33.607939 19982 net.cpp:157] Top shape: 64 9999 (639936)
I1126 12:33:33.607956 19982 net.cpp:157] Top shape: 64 9999 (639936)
I1126 12:33:33.607960 19982 net.cpp:165] Memory required for data: 3237765384
I1126 12:33:33.607964 19982 layer_factory.hpp:76] Creating layer loss2/loss
I1126 12:33:33.607971 19982 net.cpp:106] Creating Layer loss2/loss
I1126 12:33:33.607975 19982 net.cpp:454] loss2/loss <- loss2/classifier-attribute_loss2/classifier-attribute_0_split_0
I1126 12:33:33.607980 19982 net.cpp:454] loss2/loss <- label_data_1_split_2
…
I1126 12:33:33.609941 19982 net.cpp:150] Setting up loss2/top-1
I1126 12:33:33.609946 19982 net.cpp:157] Top shape: (1)
I1126 12:33:33.609948 19982 net.cpp:165] Memory required for data: 3237765392
I1126 12:33:33.609951 19982 layer_factory.hpp:76] Creating layer inception_4e/1x1
I1126 12:33:33.609961 19982 net.cpp:106] Creating Layer inception_4e/1x1
I1126 12:33:33.609966 19982 net.cpp:454] inception_4e/1x1 <- inception_4d/output_inception_4d/output_0_split_1
I1126 12:33:33.609972 19982 net.cpp:411] inception_4e/1x1 -> inception_4e/1x1
I1126 12:33:33.612305 19982 net.cpp:150] Setting up inception_4e/1x1
I1126 12:33:33.612320 19982 net.cpp:157] Top shape: 64 256 14 14 (3211264)
I1126 12:33:33.612324 19982 net.cpp:165] Memory required for data: 3250610448
I1126 12:33:33.612331 19982 layer_factory.hpp:76] Creating layer inception_4e/relu_1x1
I1126 12:33:33.612339 19982 net.cpp:106] Creating Layer inception_4e/relu_1x1
I1126 12:33:33.612344 19982 net.cpp:454] inception_4e/relu_1x1 <- inception_4e/1x1
I1126 12:33:33.612349 19982 net.cpp:397] inception_4e/relu_1x1 -> inception_4e/1x1 (in-place)
I1126 12:33:33.612558 19982 net.cpp:150] Setting up inception_4e/relu_1x1
I1126 12:33:33.612571 19982 net.cpp:157] Top shape: 64 256 14 14 (3211264)
I1126 12:33:33.612573 19982 net.cpp:165] Memory required for data: 3263455504
I1126 12:33:33.612577 19982 layer_factory.hpp:76] Creating layer inception_4e/3x3_reduce
I1126 12:33:33.612587 19982 net.cpp:106] Creating Layer inception_4e/3x3_reduce
I1126 12:33:33.612592 19982 net.cpp:454] inception_4e/3x3_reduce <- inception_4d/output_inception_4d/output_0_split_2
I1126 12:33:33.612598 19982 net.cpp:411] inception_4e/3x3_reduce -> inception_4e/3x3_reduce
I1126 12:33:33.614980 19982 net.cpp:150] Setting up inception_4e/3x3_reduce
I1126 12:33:33.614995 19982 net.cpp:157] Top shape: 64 160 14 14 (2007040)
I1126 12:33:33.615000 19982 net.cpp:165] Memory required for data: 3271483664
I1126 12:33:33.615005 19982 layer_factory.hpp:76] Creating layer inception_4e/relu_3x3_reduce
I1126 12:33:33.615013 19982 net.cpp:106] Creating Layer inception_4e/relu_3x3_reduce
I1126 12:33:33.615017 19982 net.cpp:454] inception_4e/relu_3x3_reduce <- inception_4e/3x3_reduce
I1126 12:33:33.615023 19982 net.cpp:397] inception_4e/relu_3x3_reduce -> inception_4e/3x3_reduce (in-place)
I1126 12:33:33.615397 19982 net.cpp:150] Setting up inception_4e/relu_3x3_reduce
I1126 12:33:33.615411 19982 net.cpp:157] Top shape: 64 160 14 14 (2007040)
I1126 12:33:33.615416 19982 net.cpp:165] Memory required for data: 3279511824
I1126 12:33:33.615418 19982 layer_factory.hpp:76] Creating layer inception_4e/3x3
I1126 12:33:33.615447 19982 net.cpp:106] Creating Layer inception_4e/3x3
I1126 12:33:33.615452 19982 net.cpp:454] inception_4e/3x3 <- inception_4e/3x3_reduce
I1126 12:33:33.615458 19982 net.cpp:411] inception_4e/3x3 -> inception_4e/3x3
I1126 12:33:33.620234 19982 net.cpp:150] Setting up inception_4e/3x3
I1126 12:33:33.620250 19982 net.cpp:157] Top shape: 64 320 14 14 (4014080)
I1126 12:33:33.620254 19982 net.cpp:165] Memory required for data: 3295568144
I1126 12:33:33.620260 19982 layer_factory.hpp:76] Creating layer inception_4e/relu_3x3
I1126 12:33:33.620267 19982 net.cpp:106] Creating Layer inception_4e/relu_3x3
I1126 12:33:33.620271 19982 net.cpp:454] inception_4e/relu_3x3 <- inception_4e/3x3
I1126 12:33:33.620280 19982 net.cpp:397] inception_4e/relu_3x3 -> inception_4e/3x3 (in-place)
I1126 12:33:33.620640 19982 net.cpp:150] Setting up inception_4e/relu_3x3
I1126 12:33:33.620654 19982 net.cpp:157] Top shape: 64 320 14 14 (4014080)
I1126 12:33:33.620657 19982 net.cpp:165] Memory required for data: 3311624464
I1126 12:33:33.620661 19982 layer_factory.hpp:76] Creating layer inception_4e/5x5_reduce
I1126 12:33:33.620671 19982 net.cpp:106] Creating Layer inception_4e/5x5_reduce
I1126 12:33:33.620676 19982 net.cpp:454] inception_4e/5x5_reduce <- inception_4d/output_inception_4d/output_0_split_3
I1126 12:33:33.620682 19982 net.cpp:411] inception_4e/5x5_reduce -> inception_4e/5x5_reduce
I1126 12:33:33.622591 19982 net.cpp:150] Setting up inception_4e/5x5_reduce
I1126 12:33:33.622606 19982 net.cpp:157] Top shape: 64 32 14 14 (401408)
I1126 12:33:33.622609 19982 net.cpp:165] Memory required for data: 3313230096
I1126 12:33:33.622617 19982 layer_factory.hpp:76] Creating layer inception_4e/relu_5x5_reduce
I1126 12:33:33.622623 19982 net.cpp:106] Creating Layer inception_4e/relu_5x5_reduce
I1126 12:33:33.622628 19982 net.cpp:454] inception_4e/relu_5x5_reduce <- inception_4e/5x5_reduce
I1126 12:33:33.622633 19982 net.cpp:397] inception_4e/relu_5x5_reduce -> inception_4e/5x5_reduce (in-place)
I1126 12:33:33.622845 19982 net.cpp:150] Setting up inception_4e/relu_5x5_reduce
I1126 12:33:33.622858 19982 net.cpp:157] Top shape: 64 32 14 14 (401408)
I1126 12:33:33.622860 19982 net.cpp:165] Memory required for data: 3314835728
I1126 12:33:33.622864 19982 layer_factory.hpp:76] Creating layer inception_4e/5x5
I1126 12:33:33.622874 19982 net.cpp:106] Creating Layer inception_4e/5x5
I1126 12:33:33.622879 19982 net.cpp:454] inception_4e/5x5 <- inception_4e/5x5_reduce
I1126 12:33:33.622885 19982 net.cpp:411] inception_4e/5x5 -> inception_4e/5x5
I1126 12:33:33.624930 19982 net.cpp:150] Setting up inception_4e/5x5
I1126 12:33:33.624945 19982 net.cpp:157] Top shape: 64 128 14 14 (1605632)
I1126 12:33:33.624949 19982 net.cpp:165] Memory required for data: 3321258256
I1126 12:33:33.624955 19982 layer_factory.hpp:76] Creating layer inception_4e/relu_5x5
I1126 12:33:33.624963 19982 net.cpp:106] Creating Layer inception_4e/relu_5x5
I1126 12:33:33.624968 19982 net.cpp:454] inception_4e/relu_5x5 <- inception_4e/5x5
I1126 12:33:33.624974 19982 net.cpp:397] inception_4e/relu_5x5 -> inception_4e/5x5 (in-place)
I1126 12:33:33.625344 19982 net.cpp:150] Setting up inception_4e/relu_5x5
I1126 12:33:33.625357 19982 net.cpp:157] Top shape: 64 128 14 14 (1605632)
I1126 12:33:33.625360 19982 net.cpp:165] Memory required for data: 3327680784
I1126 12:33:33.625365 19982 layer_factory.hpp:76] Creating layer inception_4e/pool
I1126 12:33:33.625372 19982 net.cpp:106] Creating Layer inception_4e/pool
I1126 12:33:33.625377 19982 net.cpp:454] inception_4e/pool <- inception_4d/output_inception_4d/output_0_split_4
I1126 12:33:33.625382 19982 net.cpp:411] inception_4e/pool -> inception_4e/pool
I1126 12:33:33.625655 19982 net.cpp:150] Setting up inception_4e/pool
I1126 12:33:33.625669 19982 net.cpp:157] Top shape: 64 528 14 14 (6623232)
I1126 12:33:33.625671 19982 net.cpp:165] Memory required for data: 3354173712
I1126 12:33:33.625674 19982 layer_factory.hpp:76] Creating layer inception_4e/pool_proj
I1126 12:33:33.625684 19982 net.cpp:106] Creating Layer inception_4e/pool_proj
I1126 12:33:33.625689 19982 net.cpp:454] inception_4e/pool_proj <- inception_4e/pool
I1126 12:33:33.625695 19982 net.cpp:411] inception_4e/pool_proj -> inception_4e/pool_proj
I1126 12:33:33.627516 19982 net.cpp:150] Setting up inception_4e/pool_proj
I1126 12:33:33.627532 19982 net.cpp:157] Top shape: 64 128 14 14 (1605632)
I1126 12:33:33.627535 19982 net.cpp:165] Memory required for data: 3360596240
I1126 12:33:33.627542 19982 layer_factory.hpp:76] Creating layer inception_4e/relu_pool_proj
I1126 12:33:33.627547 19982 net.cpp:106] Creating Layer inception_4e/relu_pool_proj
I1126 12:33:33.627552 19982 net.cpp:454] inception_4e/relu_pool_proj <- inception_4e/pool_proj
I1126 12:33:33.627557 19982 net.cpp:397] inception_4e/relu_pool_proj -> inception_4e/pool_proj (in-place)
I1126 12:33:33.627925 19982 net.cpp:150] Setting up inception_4e/relu_pool_proj
I1126 12:33:33.627939 19982 net.cpp:157] Top shape: 64 128 14 14 (1605632)
I1126 12:33:33.627948 19982 net.cpp:165] Memory required for data: 3367018768
I1126 12:33:33.627951 19982 layer_factory.hpp:76] Creating layer inception_4e/output
I1126 12:33:33.627959 19982 net.cpp:106] Creating Layer inception_4e/output
I1126 12:33:33.627962 19982 net.cpp:454] inception_4e/output <- inception_4e/1x1
I1126 12:33:33.627967 19982 net.cpp:454] inception_4e/output <- inception_4e/3x3
I1126 12:33:33.627971 19982 net.cpp:454] inception_4e/output <- inception_4e/5x5
I1126 12:33:33.627974 19982 net.cpp:454] inception_4e/output <- inception_4e/pool_proj
I1126 12:33:33.627980 19982 net.cpp:411] inception_4e/output -> inception_4e/output
I1126 12:33:33.628034 19982 net.cpp:150] Setting up inception_4e/output
I1126 12:33:33.628041 19982 net.cpp:157] Top shape: 64 832 14 14 (10436608)
I1126 12:33:33.628044 19982 net.cpp:165] Memory required for data: 3408765200
I1126 12:33:33.628047 19982 layer_factory.hpp:76] Creating layer pool4/3x3_s2
I1126 12:33:33.628056 19982 net.cpp:106] Creating Layer pool4/3x3_s2
I1126 12:33:33.628059 19982 net.cpp:454] pool4/3x3_s2 <- inception_4e/output
I1126 12:33:33.628063 19982 net.cpp:411] pool4/3x3_s2 -> pool4/3x3_s2
I1126 12:33:33.628336 19982 net.cpp:150] Setting up pool4/3x3_s2
I1126 12:33:33.628350 19982 net.cpp:157] Top shape: 64 832 7 7 (2609152)
I1126 12:33:33.628352 19982 net.cpp:165] Memory required for data: 3419201808
I1126 12:33:33.628355 19982 layer_factory.hpp:76] Creating layer pool4/3x3_s2_pool4/3x3_s2_0_split
I1126 12:33:33.628361 19982 net.cpp:106] Creating Layer pool4/3x3_s2_pool4/3x3_s2_0_split
I1126 12:33:33.628365 19982 net.cpp:454] pool4/3x3_s2_pool4/3x3_s2_0_split <- pool4/3x3_s2
I1126 12:33:33.628371 19982 net.cpp:411] pool4/3x3_s2_pool4/3x3_s2_0_split -> pool4/3x3_s2_pool4/3x3_s2_0_split_0
I1126 12:33:33.628377 19982 net.cpp:411] pool4/3x3_s2_pool4/3x3_s2_0_split -> pool4/3x3_s2_pool4/3x3_s2_0_split_1
I1126 12:33:33.628383 19982 net.cpp:411] pool4/3x3_s2_pool4/3x3_s2_0_split -> pool4/3x3_s2_pool4/3x3_s2_0_split_2
I1126 12:33:33.628388 19982 net.cpp:411] pool4/3x3_s2_pool4/3x3_s2_0_split -> pool4/3x3_s2_pool4/3x3_s2_0_split_3
I1126 12:33:33.628509 19982 net.cpp:150] Setting up pool4/3x3_s2_pool4/3x3_s2_0_split
I1126 12:33:33.628517 19982 net.cpp:157] Top shape: 64 832 7 7 (2609152)
I1126 12:33:33.628521 19982 net.cpp:157] Top shape: 64 832 7 7 (2609152)
I1126 12:33:33.628525 19982 net.cpp:157] Top shape: 64 832 7 7 (2609152)
I1126 12:33:33.628528 19982 net.cpp:157] Top shape: 64 832 7 7 (2609152)
I1126 12:33:33.628531 19982 net.cpp:165] Memory required for data: 3460948240
I1126 12:33:33.628535 19982 layer_factory.hpp:76] Creating layer inception_5a/1x1
I1126 12:33:33.628545 19982 net.cpp:106] Creating Layer inception_5a/1x1
I1126 12:33:33.628548 19982 net.cpp:454] inception_5a/1x1 <- pool4/3x3_s2_pool4/3x3_s2_0_split_0
I1126 12:33:33.628554 19982 net.cpp:411] inception_5a/1x1 -> inception_5a/1x1
I1126 12:33:33.631745 19982 net.cpp:150] Setting up inception_5a/1x1
I1126 12:33:33.631760 19982 net.cpp:157] Top shape: 64 256 7 7 (802816)
I1126 12:33:33.631764 19982 net.cpp:165] Memory required for data: 3464159504
I1126 12:33:33.631772 19982 layer_factory.hpp:76] Creating layer inception_5a/relu_1x1
I1126 12:33:33.631778 19982 net.cpp:106] Creating Layer inception_5a/relu_1x1
I1126 12:33:33.631781 19982 net.cpp:454] inception_5a/relu_1x1 <- inception_5a/1x1
I1126 12:33:33.631788 19982 net.cpp:397] inception_5a/relu_1x1 -> inception_5a/1x1 (in-place)
I1126 12:33:33.632017 19982 net.cpp:150] Setting up inception_5a/relu_1x1
I1126 12:33:33.632032 19982 net.cpp:157] Top shape: 64 256 7 7 (802816)
I1126 12:33:33.632036 19982 net.cpp:165] Memory required for data: 3467370768
I1126 12:33:33.632040 19982 layer_factory.hpp:76] Creating layer inception_5a/3x3_reduce
I1126 12:33:33.632046 19982 net.cpp:106] Creating Layer inception_5a/3x3_reduce
I1126 12:33:33.632051 19982 net.cpp:454] inception_5a/3x3_reduce <- pool4/3x3_s2_pool4/3x3_s2_0_split_1
I1126 12:33:33.632058 19982 net.cpp:411] inception_5a/3x3_reduce -> inception_5a/3x3_reduce
I1126 12:33:33.634891 19982 net.cpp:150] Setting up inception_5a/3x3_reduce
I1126 12:33:33.634907 19982 net.cpp:157] Top shape: 64 160 7 7 (501760)
I1126 12:33:33.634912 19982 net.cpp:165] Memory required for data: 3469377808
I1126 12:33:33.634918 19982 layer_factory.hpp:76] Creating layer inception_5a/relu_3x3_reduce
I1126 12:33:33.634924 19982 net.cpp:106] Creating Layer inception_5a/relu_3x3_reduce
I1126 12:33:33.634928 19982 net.cpp:454] inception_5a/relu_3x3_reduce <- inception_5a/3x3_reduce
I1126 12:33:33.634934 19982 net.cpp:397] inception_5a/relu_3x3_reduce -> inception_5a/3x3_reduce (in-place)
I1126 12:33:33.635298 19982 net.cpp:150] Setting up inception_5a/relu_3x3_reduce
I1126 12:33:33.635313 19982 net.cpp:157] Top shape: 64 160 7 7 (501760)
I1126 12:33:33.635316 19982 net.cpp:165] Memory required for data: 3471384848
I1126 12:33:33.635319 19982 layer_factory.hpp:76] Creating layer inception_5a/3x3
I1126 12:33:33.635329 19982 net.cpp:106] Creating Layer inception_5a/3x3
I1126 12:33:33.635334 19982 net.cpp:454] inception_5a/3x3 <- inception_5a/3x3_reduce
I1126 12:33:33.635341 19982 net.cpp:411] inception_5a/3x3 -> inception_5a/3x3
I1126 12:33:33.640360 19982 net.cpp:150] Setting up inception_5a/3x3
I1126 12:33:33.640377 19982 net.cpp:157] Top shape: 64 320 7 7 (1003520)
I1126 12:33:33.640380 19982 net.cpp:165] Memory required for data: 3475398928
I1126 12:33:33.640386 19982 layer_factory.hpp:76] Creating layer inception_5a/relu_3x3
I1126 12:33:33.640393 19982 net.cpp:106] Creating Layer inception_5a/relu_3x3
I1126 12:33:33.640396 19982 net.cpp:454] inception_5a/relu_3x3 <- inception_5a/3x3
I1126 12:33:33.640401 19982 net.cpp:397] inception_5a/relu_3x3 -> inception_5a/3x3 (in-place)
I1126 12:33:33.640614 19982 net.cpp:150] Setting up inception_5a/relu_3x3
I1126 12:33:33.640625 19982 net.cpp:157] Top shape: 64 320 7 7 (1003520)
I1126 12:33:33.640629 19982 net.cpp:165] Memory required for data: 3479413008
I1126 12:33:33.640631 19982 layer_factory.hpp:76] Creating layer inception_5a/5x5_reduce
I1126 12:33:33.640641 19982 net.cpp:106] Creating Layer inception_5a/5x5_reduce
I1126 12:33:33.640645 19982 net.cpp:454] inception_5a/5x5_reduce <- pool4/3x3_s2_pool4/3x3_s2_0_split_2
I1126 12:33:33.640652 19982 net.cpp:411] inception_5a/5x5_reduce -> inception_5a/5x5_reduce
I1126 12:33:33.642734 19982 net.cpp:150] Setting up inception_5a/5x5_reduce
I1126 12:33:33.642750 19982 net.cpp:157] Top shape: 64 32 7 7 (100352)
I1126 12:33:33.642753 19982 net.cpp:165] Memory required for data: 3479814416
I1126 12:33:33.642760 19982 layer_factory.hpp:76] Creating layer inception_5a/relu_5x5_reduce
I1126 12:33:33.642765 19982 net.cpp:106] Creating Layer inception_5a/relu_5x5_reduce
I1126 12:33:33.642770 19982 net.cpp:454] inception_5a/relu_5x5_reduce <- inception_5a/5x5_reduce
I1126 12:33:33.642778 19982 net.cpp:397] inception_5a/relu_5x5_reduce -> inception_5a/5x5_reduce (in-place)
I1126 12:33:33.642992 19982 net.cpp:150] Setting up inception_5a/relu_5x5_reduce
I1126 12:33:33.643003 19982 net.cpp:157] Top shape: 64 32 7 7 (100352)
I1126 12:33:33.643007 19982 net.cpp:165] Memory required for data: 3480215824
I1126 12:33:33.643010 19982 layer_factory.hpp:76] Creating layer inception_5a/5x5
I1126 12:33:33.643019 19982 net.cpp:106] Creating Layer inception_5a/5x5
I1126 12:33:33.643024 19982 net.cpp:454] inception_5a/5x5 <- inception_5a/5x5_reduce
I1126 12:33:33.643031 19982 net.cpp:411] inception_5a/5x5 -> inception_5a/5x5
I1126 12:33:33.645292 19982 net.cpp:150] Setting up inception_5a/5x5
I1126 12:33:33.645308 19982 net.cpp:157] Top shape: 64 128 7 7 (401408)
I1126 12:33:33.645311 19982 net.cpp:165] Memory required for data: 3481821456
I1126 12:33:33.645318 19982 layer_factory.hpp:76] Creating layer inception_5a/relu_5x5
I1126 12:33:33.645324 19982 net.cpp:106] Creating Layer inception_5a/relu_5x5
I1126 12:33:33.645328 19982 net.cpp:454] inception_5a/relu_5x5 <- inception_5a/5x5
I1126 12:33:33.645334 19982 net.cpp:397] inception_5a/relu_5x5 -> inception_5a/5x5 (in-place)
I1126 12:33:33.645794 19982 net.cpp:150] Setting up inception_5a/relu_5x5
I1126 12:33:33.645809 19982 net.cpp:157] Top shape: 64 128 7 7 (401408)
I1126 12:33:33.645813 19982 net.cpp:165] Memory required for data: 3483427088
I1126 12:33:33.645817 19982 layer_factory.hpp:76] Creating layer inception_5a/pool
I1126 12:33:33.645823 19982 net.cpp:106] Creating Layer inception_5a/pool
I1126 12:33:33.645828 19982 net.cpp:454] inception_5a/pool <- pool4/3x3_s2_pool4/3x3_s2_0_split_3
I1126 12:33:33.645834 19982 net.cpp:411] inception_5a/pool -> inception_5a/pool
I1126 12:33:33.646134 19982 net.cpp:150] Setting up inception_5a/pool
I1126 12:33:33.646147 19982 net.cpp:157] Top shape: 64 832 7 7 (2609152)
I1126 12:33:33.646150 19982 net.cpp:165] Memory required for data: 3493863696
I1126 12:33:33.646154 19982 layer_factory.hpp:76] Creating layer inception_5a/pool_proj
I1126 12:33:33.646163 19982 net.cpp:106] Creating Layer inception_5a/pool_proj
I1126 12:33:33.646167 19982 net.cpp:454] inception_5a/pool_proj <- inception_5a/pool
I1126 12:33:33.646174 19982 net.cpp:411] inception_5a/pool_proj -> inception_5a/pool_proj
I1126 12:33:33.648772 19982 net.cpp:150] Setting up inception_5a/pool_proj
I1126 12:33:33.648787 19982 net.cpp:157] Top shape: 64 128 7 7 (401408)
I1126 12:33:33.648790 19982 net.cpp:165] Memory required for data: 3495469328
I1126 12:33:33.648797 19982 layer_factory.hpp:76] Creating layer inception_5a/relu_pool_proj
I1126 12:33:33.648802 19982 net.cpp:106] Creating Layer inception_5a/relu_pool_proj
I1126 12:33:33.648807 19982 net.cpp:454] inception_5a/relu_pool_proj <- inception_5a/pool_proj
I1126 12:33:33.648813 19982 net.cpp:397] inception_5a/relu_pool_proj -> inception_5a/pool_proj (in-place)
I1126 12:33:33.649211 19982 net.cpp:150] Setting up inception_5a/relu_pool_proj
I1126 12:33:33.649231 19982 net.cpp:157] Top shape: 64 128 7 7 (401408)
I1126 12:33:33.649235 19982 net.cpp:165] Memory required for data: 3497074960
I1126 12:33:33.649238 19982 layer_factory.hpp:76] Creating layer inception_5a/output
I1126 12:33:33.649245 19982 net.cpp:106] Creating Layer inception_5a/output
I1126 12:33:33.649250 19982 net.cpp:454] inception_5a/output <- inception_5a/1x1
I1126 12:33:33.649255 19982 net.cpp:454] inception_5a/output <- inception_5a/3x3
I1126 12:33:33.649260 19982 net.cpp:454] inception_5a/output <- inception_5a/5x5
I1126 12:33:33.649263 19982 net.cpp:454] inception_5a/output <- inception_5a/pool_proj
I1126 12:33:33.649267 19982 net.cpp:411] inception_5a/output -> inception_5a/output
I1126 12:33:33.649325 19982 net.cpp:150] Setting up inception_5a/output
I1126 12:33:33.649333 19982 net.cpp:157] Top shape: 64 832 7 7 (2609152)
I1126 12:33:33.649335 19982 net.cpp:165] Memory required for data: 3507511568
I1126 12:33:33.649338 19982 layer_factory.hpp:76] Creating layer inception_5a/output_inception_5a/output_0_split
I1126 12:33:33.649348 19982 net.cpp:106] Creating Layer inception_5a/output_inception_5a/output_0_split
I1126 12:33:33.649353 19982 net.cpp:454] inception_5a/output_inception_5a/output_0_split <- inception_5a/output
I1126 12:33:33.649358 19982 net.cpp:411] inception_5a/output_inception_5a/output_0_split -> inception_5a/output_inception_5a/output_0_split_0
I1126 12:33:33.649365 19982 net.cpp:411] inception_5a/output_inception_5a/output_0_split -> inception_5a/output_inception_5a/output_0_split_1
I1126 12:33:33.649371 19982 net.cpp:411] inception_5a/output_inception_5a/output_0_split -> inception_5a/output_inception_5a/output_0_split_2
I1126 12:33:33.649376 19982 net.cpp:411] inception_5a/output_inception_5a/output_0_split -> inception_5a/output_inception_5a/output_0_split_3
I1126 12:33:33.649508 19982 net.cpp:150] Setting up inception_5a/output_inception_5a/output_0_split
I1126 12:33:33.649518 19982 net.cpp:157] Top shape: 64 832 7 7 (2609152)
I1126 12:33:33.649521 19982 net.cpp:157] Top shape: 64 832 7 7 (2609152)
I1126 12:33:33.649525 19982 net.cpp:157] Top shape: 64 832 7 7 (2609152)
I1126 12:33:33.649528 19982 net.cpp:157] Top shape: 64 832 7 7 (2609152)
I1126 12:33:33.649530 19982 net.cpp:165] Memory required for data: 3549258000
I1126 12:33:33.649534 19982 layer_factory.hpp:76] Creating layer inception_5b/1x1
I1126 12:33:33.649543 19982 net.cpp:106] Creating Layer inception_5b/1x1
I1126 12:33:33.649546 19982 net.cpp:454] inception_5b/1x1 <- inception_5a/output_inception_5a/output_0_split_0
I1126 12:33:33.649552 19982 net.cpp:411] inception_5b/1x1 -> inception_5b/1x1
I1126 12:33:33.653388 19982 net.cpp:150] Setting up inception_5b/1x1
I1126 12:33:33.653403 19982 net.cpp:157] Top shape: 64 384 7 7 (1204224)
I1126 12:33:33.653406 19982 net.cpp:165] Memory required for data: 3554074896
I1126 12:33:33.653414 19982 layer_factory.hpp:76] Creating layer inception_5b/relu_1x1
I1126 12:33:33.653421 19982 net.cpp:106] Creating Layer inception_5b/relu_1x1
I1126 12:33:33.653425 19982 net.cpp:454] inception_5b/relu_1x1 <- inception_5b/1x1
I1126 12:33:33.653431 19982 net.cpp:397] inception_5b/relu_1x1 -> inception_5b/1x1 (in-place)
I1126 12:33:33.653822 19982 net.cpp:150] Setting up inception_5b/relu_1x1
I1126 12:33:33.653837 19982 net.cpp:157] Top shape: 64 384 7 7 (1204224)
I1126 12:33:33.653841 19982 net.cpp:165] Memory required for data: 3558891792
I1126 12:33:33.653844 19982 layer_factory.hpp:76] Creating layer inception_5b/3x3_reduce
I1126 12:33:33.653853 19982 net.cpp:106] Creating Layer inception_5b/3x3_reduce
I1126 12:33:33.653857 19982 net.cpp:454] inception_5b/3x3_reduce <- inception_5a/output_inception_5a/output_0_split_1
I1126 12:33:33.653864 19982 net.cpp:411] inception_5b/3x3_reduce -> inception_5b/3x3_reduce
I1126 12:33:33.656847 19982 net.cpp:150] Setting up inception_5b/3x3_reduce
I1126 12:33:33.656862 19982 net.cpp:157] Top shape: 64 192 7 7 (602112)
I1126 12:33:33.656867 19982 net.cpp:165] Memory required for data: 3561300240
I1126 12:33:33.656874 19982 layer_factory.hpp:76] Creating layer inception_5b/relu_3x3_reduce
I1126 12:33:33.656883 19982 net.cpp:106] Creating Layer inception_5b/relu_3x3_reduce
I1126 12:33:33.656886 19982 net.cpp:454] inception_5b/relu_3x3_reduce <- inception_5b/3x3_reduce
I1126 12:33:33.656893 19982 net.cpp:397] inception_5b/relu_3x3_reduce -> inception_5b/3x3_reduce (in-place)
I1126 12:33:33.657111 19982 net.cpp:150] Setting up inception_5b/relu_3x3_reduce
I1126 12:33:33.657124 19982 net.cpp:157] Top shape: 64 192 7 7 (602112)
I1126 12:33:33.657127 19982 net.cpp:165] Memory required for data: 3563708688
I1126 12:33:33.657130 19982 layer_factory.hpp:76] Creating layer inception_5b/3x3
I1126 12:33:33.657140 19982 net.cpp:106] Creating Layer inception_5b/3x3
I1126 12:33:33.657143 19982 net.cpp:454] inception_5b/3x3 <- inception_5b/3x3_reduce
I1126 12:33:33.657152 19982 net.cpp:411] inception_5b/3x3 -> inception_5b/3x3
I1126 12:33:33.663712 19982 net.cpp:150] Setting up inception_5b/3x3
I1126 12:33:33.663728 19982 net.cpp:157] Top shape: 64 384 7 7 (1204224)
I1126 12:33:33.663733 19982 net.cpp:165] Memory required for data: 3568525584
I1126 12:33:33.663738 19982 layer_factory.hpp:76] Creating layer inception_5b/relu_3x3
I1126 12:33:33.663745 19982 net.cpp:106] Creating Layer inception_5b/relu_3x3
I1126 12:33:33.663750 19982 net.cpp:454] inception_5b/relu_3x3 <- inception_5b/3x3
I1126 12:33:33.663755 19982 net.cpp:397] inception_5b/relu_3x3 -> inception_5b/3x3 (in-place)
I1126 12:33:33.664163 19982 net.cpp:150] Setting up inception_5b/relu_3x3
I1126 12:33:33.664178 19982 net.cpp:157] Top shape: 64 384 7 7 (1204224)
I1126 12:33:33.664181 19982 net.cpp:165] Memory required for data: 3573342480
I1126 12:33:33.664186 19982 layer_factory.hpp:76] Creating layer inception_5b/5x5_reduce
I1126 12:33:33.664194 19982 net.cpp:106] Creating Layer inception_5b/5x5_reduce
I1126 12:33:33.664198 19982 net.cpp:454] inception_5b/5x5_reduce <- inception_5a/output_inception_5a/output_0_split_2
I1126 12:33:33.664208 19982 net.cpp:411] inception_5b/5x5_reduce -> inception_5b/5x5_reduce
I1126 12:33:33.666280 19982 net.cpp:150] Setting up inception_5b/5x5_reduce
I1126 12:33:33.666296 19982 net.cpp:157] Top shape: 64 48 7 7 (150528)
I1126 12:33:33.666299 19982 net.cpp:165] Memory required for data: 3573944592
I1126 12:33:33.666306 19982 layer_factory.hpp:76] Creating layer inception_5b/relu_5x5_reduce
I1126 12:33:33.666314 19982 net.cpp:106] Creating Layer inception_5b/relu_5x5_reduce
I1126 12:33:33.666318 19982 net.cpp:454] inception_5b/relu_5x5_reduce <- inception_5b/5x5_reduce
I1126 12:33:33.666324 19982 net.cpp:397] inception_5b/relu_5x5_reduce -> inception_5b/5x5_reduce (in-place)
I1126 12:33:33.666714 19982 net.cpp:150] Setting up inception_5b/relu_5x5_reduce
I1126 12:33:33.666729 19982 net.cpp:157] Top shape: 64 48 7 7 (150528)
I1126 12:33:33.666733 19982 net.cpp:165] Memory required for data: 3574546704
I1126 12:33:33.666736 19982 layer_factory.hpp:76] Creating layer inception_5b/5x5
I1126 12:33:33.666746 19982 net.cpp:106] Creating Layer inception_5b/5x5
I1126 12:33:33.666751 19982 net.cpp:454] inception_5b/5x5 <- inception_5b/5x5_reduce
I1126 12:33:33.666757 19982 net.cpp:411] inception_5b/5x5 -> inception_5b/5x5
I1126 12:33:33.669004 19982 net.cpp:150] Setting up inception_5b/5x5
I1126 12:33:33.669020 19982 net.cpp:157] Top shape: 64 128 7 7 (401408)
I1126 12:33:33.669024 19982 net.cpp:165] Memory required for data: 3576152336
I1126 12:33:33.669030 19982 layer_factory.hpp:76] Creating layer inception_5b/relu_5x5
I1126 12:33:33.669037 19982 net.cpp:106] Creating Layer inception_5b/relu_5x5
I1126 12:33:33.669042 19982 net.cpp:454] inception_5b/relu_5x5 <- inception_5b/5x5
I1126 12:33:33.669047 19982 net.cpp:397] inception_5b/relu_5x5 -> inception_5b/5x5 (in-place)
I1126 12:33:33.669263 19982 net.cpp:150] Setting up inception_5b/relu_5x5
I1126 12:33:33.669275 19982 net.cpp:157] Top shape: 64 128 7 7 (401408)
I1126 12:33:33.669278 19982 net.cpp:165] Memory required for data: 3577757968
I1126 12:33:33.669282 19982 layer_factory.hpp:76] Creating layer inception_5b/pool
I1126 12:33:33.669288 19982 net.cpp:106] Creating Layer inception_5b/pool
I1126 12:33:33.669293 19982 net.cpp:454] inception_5b/pool <- inception_5a/output_inception_5a/output_0_split_3
I1126 12:33:33.669299 19982 net.cpp:411] inception_5b/pool -> inception_5b/pool
I1126 12:33:33.669718 19982 net.cpp:150] Setting up inception_5b/pool
I1126 12:33:33.669733 19982 net.cpp:157] Top shape: 64 832 7 7 (2609152)
I1126 12:33:33.669735 19982 net.cpp:165] Memory required for data: 3588194576
I1126 12:33:33.669739 19982 layer_factory.hpp:76] Creating layer inception_5b/pool_proj
I1126 12:33:33.669749 19982 net.cpp:106] Creating Layer inception_5b/pool_proj
I1126 12:33:33.669752 19982 net.cpp:454] inception_5b/pool_proj <- inception_5b/pool
I1126 12:33:33.669760 19982 net.cpp:411] inception_5b/pool_proj -> inception_5b/pool_proj
I1126 12:33:33.672137 19982 net.cpp:150] Setting up inception_5b/pool_proj
I1126 12:33:33.672152 19982 net.cpp:157] Top shape: 64 128 7 7 (401408)
I1126 12:33:33.672155 19982 net.cpp:165] Memory required for data: 3589800208
I1126 12:33:33.672163 19982 layer_factory.hpp:76] Creating layer inception_5b/relu_pool_proj
I1126 12:33:33.672169 19982 net.cpp:106] Creating Layer inception_5b/relu_pool_proj
I1126 12:33:33.672174 19982 net.cpp:454] inception_5b/relu_pool_proj <- inception_5b/pool_proj
I1126 12:33:33.672178 19982 net.cpp:397] inception_5b/relu_pool_proj -> inception_5b/pool_proj (in-place)
I1126 12:33:33.672390 19982 net.cpp:150] Setting up inception_5b/relu_pool_proj
I1126 12:33:33.672404 19982 net.cpp:157] Top shape: 64 128 7 7 (401408)
I1126 12:33:33.672406 19982 net.cpp:165] Memory required for data: 3591405840
I1126 12:33:33.672410 19982 layer_factory.hpp:76] Creating layer inception_5b/output
I1126 12:33:33.672416 19982 net.cpp:106] Creating Layer inception_5b/output
I1126 12:33:33.672420 19982 net.cpp:454] inception_5b/output <- inception_5b/1x1
I1126 12:33:33.672425 19982 net.cpp:454] inception_5b/output <- inception_5b/3x3
I1126 12:33:33.672428 19982 net.cpp:454] inception_5b/output <- inception_5b/5x5
I1126 12:33:33.672432 19982 net.cpp:454] inception_5b/output <- inception_5b/pool_proj
I1126 12:33:33.672436 19982 net.cpp:411] inception_5b/output -> inception_5b/output
I1126 12:33:33.672466 19982 net.cpp:150] Setting up inception_5b/output
I1126 12:33:33.672472 19982 net.cpp:157] Top shape: 64 1024 7 7 (3211264)
I1126 12:33:33.672474 19982 net.cpp:165] Memory required for data: 3604250896
I1126 12:33:33.672477 19982 layer_factory.hpp:76] Creating layer pool5/7x7_s1
I1126 12:33:33.672484 19982 net.cpp:106] Creating Layer pool5/7x7_s1
I1126 12:33:33.672488 19982 net.cpp:454] pool5/7x7_s1 <- inception_5b/output
I1126 12:33:33.672493 19982 net.cpp:411] pool5/7x7_s1 -> pool5/7x7_s1
I1126 12:33:33.673035 19982 net.cpp:150] Setting up pool5/7x7_s1
I1126 12:33:33.673049 19982 net.cpp:157] Top shape: 64 1024 1 1 (65536)
I1126 12:33:33.673053 19982 net.cpp:165] Memory required for data: 3604513040
I1126 12:33:33.673056 19982 layer_factory.hpp:76] Creating layer pool5/drop_7x7_s1
I1126 12:33:33.673065 19982 net.cpp:106] Creating Layer pool5/drop_7x7_s1
I1126 12:33:33.673069 19982 net.cpp:454] pool5/drop_7x7_s1 <- pool5/7x7_s1
I1126 12:33:33.673074 19982 net.cpp:397] pool5/drop_7x7_s1 -> pool5/7x7_s1 (in-place)
I1126 12:33:33.673100 19982 net.cpp:150] Setting up pool5/drop_7x7_s1
I1126 12:33:33.673106 19982 net.cpp:157] Top shape: 64 1024 1 1 (65536)
I1126 12:33:33.673110 19982 net.cpp:165] Memory required for data: 3604775184
I1126 12:33:33.673112 19982 layer_factory.hpp:76] Creating layer loss3/classifier-attribute
I1126 12:33:33.673120 19982 net.cpp:106] Creating Layer loss3/classifier-attribute
I1126 12:33:33.673122 19982 net.cpp:454] loss3/classifier-attribute <- pool5/7x7_s1
I1126 12:33:33.673130 19982 net.cpp:411] loss3/classifier-attribute -> loss3/classifier-attribute
I1126 12:33:33.750299 19982 net.cpp:150] Setting up loss3/classifier-attribute
I1126 12:33:33.750322 19982 net.cpp:157] Top shape: 64 9999 (639936)
I1126 12:33:33.750326 19982 net.cpp:165] Memory required for data: 3607334928
I1126 12:33:33.750336 19982 layer_factory.hpp:76] Creating layer loss3/classifier-attribute_loss3/classifier-attribute_0_split
I1126 12:33:33.750347 19982 net.cpp:106] Creating Layer loss3/classifier-attribute_loss3/classifier-attribute_0_split
I1126 12:33:33.750355 19982 net.cpp:454] loss3/classifier-attribute_loss3/classifier-attribute_0_split <- loss3/classifier-attribute
I1126 12:33:33.750361 19982 net.cpp:411] loss3/classifier-attribute_loss3/classifier-attribute_0_split -> loss3/classifier-attribute_loss3/classifier-attribute_0_split_0
I1126 12:33:33.750370 19982 net.cpp:411] loss3/classifier-attribute_loss3/classifier-attribute_0_split -> loss3/classifier-attribute_loss3/classifier-attribute_0_split_1
I1126 12:33:33.750409 19982 net.cpp:150] Setting up loss3/classifier-attribute_loss3/classifier-attribute_0_split
I1126 12:33:33.750416 19982 net.cpp:157] Top shape: 64 9999 (639936)
I1126 12:33:33.750419 19982 net.cpp:157] Top shape: 64 9999 (639936)
I1126 12:33:33.750422 19982 net.cpp:165] Memory required for data: 3612454416
I1126 12:33:33.750424 19982 layer_factory.hpp:76] Creating layer loss3/loss3
I1126 12:33:33.750432 19982 net.cpp:106] Creating Layer loss3/loss3
I1126 12:33:33.750435 19982 net.cpp:454] loss3/loss3 <- loss3/classifier-attribute_loss3/classifier-attribute_0_split_0
I1126 12:33:33.750439 19982 net.cpp:454] loss3/loss3 <- label_data_1_split_4
…
